Model: "sequential_167"
_________________________________________________________________
Layer (type)                 Output Shape              Param #   
=================================================================
conv2d_926 (Conv2D)          (None, 32, 32, 16)        448       
_________________________________________________________________
activation_1191 (Activation) (None, 32, 32, 16)        0         
_________________________________________________________________
dropout_1191 (Dropout)       (None, 32, 32, 16)        0         
_________________________________________________________________
conv2d_927 (Conv2D)          (None, 32, 32, 128)       18560     
_________________________________________________________________
batch_normalization_484 (Bat (None, 32, 32, 128)       512       
_________________________________________________________________
activation_1192 (Activation) (None, 32, 32, 128)       0         
_________________________________________________________________
dropout_1192 (Dropout)       (None, 32, 32, 128)       0         
_________________________________________________________________
max_pooling2d_315 (MaxPoolin (None, 16, 16, 128)       0         
_________________________________________________________________
conv2d_928 (Conv2D)          (None, 16, 16, 128)       147584    
_________________________________________________________________
activation_1193 (Activation) (None, 16, 16, 128)       0         
_________________________________________________________________
dropout_1193 (Dropout)       (None, 16, 16, 128)       0         
_________________________________________________________________
max_pooling2d_316 (MaxPoolin (None, 8, 8, 128)         0         
_________________________________________________________________
conv2d_929 (Conv2D)          (None, 8, 8, 32)          36896     
_________________________________________________________________
activation_1194 (Activation) (None, 8, 8, 32)          0         
_________________________________________________________________
dropout_1194 (Dropout)       (None, 8, 8, 32)          0         
_________________________________________________________________
conv2d_930 (Conv2D)          (None, 8, 8, 32)          9248      
_________________________________________________________________
activation_1195 (Activation) (None, 8, 8, 32)          0         
_________________________________________________________________
dropout_1195 (Dropout)       (None, 8, 8, 32)          0         
_________________________________________________________________
conv2d_931 (Conv2D)          (None, 8, 8, 128)         36992     
_________________________________________________________________
activation_1196 (Activation) (None, 8, 8, 128)         0         
_________________________________________________________________
dropout_1196 (Dropout)       (None, 8, 8, 128)         0         
_________________________________________________________________
conv2d_932 (Conv2D)          (None, 8, 8, 16)          18448     
_________________________________________________________________
batch_normalization_485 (Bat (None, 8, 8, 16)          64        
_________________________________________________________________
activation_1197 (Activation) (None, 8, 8, 16)          0         
_________________________________________________________________
dropout_1197 (Dropout)       (None, 8, 8, 16)          0         
_________________________________________________________________
flatten_167 (Flatten)        (None, 1024)              0         
_________________________________________________________________
dense_432 (Dense)            (None, 128)               131200    
_________________________________________________________________
activation_1198 (Activation) (None, 128)               0         
_________________________________________________________________
dropout_1198 (Dropout)       (None, 128)               0         
_________________________________________________________________
dense_433 (Dense)            (None, 10)                1290      
=================================================================
Total params: 401,242
Trainable params: 400,954
Non-trainable params: 288
_________________________________________________________________
