Model: "sequential_67"
_________________________________________________________________
Layer (type)                 Output Shape              Param #   
=================================================================
conv2d_361 (Conv2D)          (None, 32, 32, 8)         224       
_________________________________________________________________
batch_normalization_232 (Bat (None, 32, 32, 8)         32        
_________________________________________________________________
activation_476 (Activation)  (None, 32, 32, 8)         0         
_________________________________________________________________
dropout_476 (Dropout)        (None, 32, 32, 8)         0         
_________________________________________________________________
conv2d_362 (Conv2D)          (None, 32, 32, 512)       37376     
_________________________________________________________________
batch_normalization_233 (Bat (None, 32, 32, 512)       2048      
_________________________________________________________________
activation_477 (Activation)  (None, 32, 32, 512)       0         
_________________________________________________________________
dropout_477 (Dropout)        (None, 32, 32, 512)       0         
_________________________________________________________________
conv2d_363 (Conv2D)          (None, 32, 32, 128)       589952    
_________________________________________________________________
batch_normalization_234 (Bat (None, 32, 32, 128)       512       
_________________________________________________________________
activation_478 (Activation)  (None, 32, 32, 128)       0         
_________________________________________________________________
dropout_478 (Dropout)        (None, 32, 32, 128)       0         
_________________________________________________________________
conv2d_364 (Conv2D)          (None, 32, 32, 32)        36896     
_________________________________________________________________
activation_479 (Activation)  (None, 32, 32, 32)        0         
_________________________________________________________________
dropout_479 (Dropout)        (None, 32, 32, 32)        0         
_________________________________________________________________
max_pooling2d_132 (MaxPoolin (None, 16, 16, 32)        0         
_________________________________________________________________
conv2d_365 (Conv2D)          (None, 16, 16, 32)        9248      
_________________________________________________________________
activation_480 (Activation)  (None, 16, 16, 32)        0         
_________________________________________________________________
dropout_480 (Dropout)        (None, 16, 16, 32)        0         
_________________________________________________________________
conv2d_366 (Conv2D)          (None, 16, 16, 64)        18496     
_________________________________________________________________
batch_normalization_235 (Bat (None, 16, 16, 64)        256       
_________________________________________________________________
activation_481 (Activation)  (None, 16, 16, 64)        0         
_________________________________________________________________
dropout_481 (Dropout)        (None, 16, 16, 64)        0         
_________________________________________________________________
flatten_67 (Flatten)         (None, 16384)             0         
_________________________________________________________________
dense_182 (Dense)            (None, 32)                524320    
_________________________________________________________________
activation_482 (Activation)  (None, 32)                0         
_________________________________________________________________
dropout_482 (Dropout)        (None, 32)                0         
_________________________________________________________________
dense_183 (Dense)            (None, 64)                2112      
_________________________________________________________________
batch_normalization_236 (Bat (None, 64)                256       
_________________________________________________________________
activation_483 (Activation)  (None, 64)                0         
_________________________________________________________________
dropout_483 (Dropout)        (None, 64)                0         
_________________________________________________________________
dense_184 (Dense)            (None, 512)               33280     
_________________________________________________________________
activation_484 (Activation)  (None, 512)               0         
_________________________________________________________________
dropout_484 (Dropout)        (None, 512)               0         
_________________________________________________________________
dense_185 (Dense)            (None, 10)                5130      
=================================================================
Total params: 1,260,138
Trainable params: 1,258,586
Non-trainable params: 1,552
_________________________________________________________________
