Model: "sequential_143"
_________________________________________________________________
Layer (type)                 Output Shape              Param #   
=================================================================
conv2d_777 (Conv2D)          (None, 32, 32, 16)        448       
_________________________________________________________________
activation_1013 (Activation) (None, 32, 32, 16)        0         
_________________________________________________________________
dropout_1013 (Dropout)       (None, 32, 32, 16)        0         
_________________________________________________________________
conv2d_778 (Conv2D)          (None, 32, 32, 512)       74240     
_________________________________________________________________
batch_normalization_419 (Bat (None, 32, 32, 512)       2048      
_________________________________________________________________
activation_1014 (Activation) (None, 32, 32, 512)       0         
_________________________________________________________________
dropout_1014 (Dropout)       (None, 32, 32, 512)       0         
_________________________________________________________________
conv2d_779 (Conv2D)          (None, 32, 32, 16)        73744     
_________________________________________________________________
activation_1015 (Activation) (None, 32, 32, 16)        0         
_________________________________________________________________
dropout_1015 (Dropout)       (None, 32, 32, 16)        0         
_________________________________________________________________
conv2d_780 (Conv2D)          (None, 32, 32, 512)       74240     
_________________________________________________________________
batch_normalization_420 (Bat (None, 32, 32, 512)       2048      
_________________________________________________________________
activation_1016 (Activation) (None, 32, 32, 512)       0         
_________________________________________________________________
dropout_1016 (Dropout)       (None, 32, 32, 512)       0         
_________________________________________________________________
conv2d_781 (Conv2D)          (None, 32, 32, 256)       1179904   
_________________________________________________________________
activation_1017 (Activation) (None, 32, 32, 256)       0         
_________________________________________________________________
dropout_1017 (Dropout)       (None, 32, 32, 256)       0         
_________________________________________________________________
conv2d_782 (Conv2D)          (None, 32, 32, 128)       295040    
_________________________________________________________________
activation_1018 (Activation) (None, 32, 32, 128)       0         
_________________________________________________________________
dropout_1018 (Dropout)       (None, 32, 32, 128)       0         
_________________________________________________________________
conv2d_783 (Conv2D)          (None, 32, 32, 16)        18448     
_________________________________________________________________
batch_normalization_421 (Bat (None, 32, 32, 16)        64        
_________________________________________________________________
activation_1019 (Activation) (None, 32, 32, 16)        0         
_________________________________________________________________
dropout_1019 (Dropout)       (None, 32, 32, 16)        0         
_________________________________________________________________
flatten_143 (Flatten)        (None, 16384)             0         
_________________________________________________________________
dense_379 (Dense)            (None, 128)               2097280   
_________________________________________________________________
activation_1020 (Activation) (None, 128)               0         
_________________________________________________________________
dropout_1020 (Dropout)       (None, 128)               0         
_________________________________________________________________
dense_380 (Dense)            (None, 10)                1290      
=================================================================
Total params: 3,818,794
Trainable params: 3,816,714
Non-trainable params: 2,080
_________________________________________________________________
