Model: "sequential_84"
_________________________________________________________________
Layer (type)                 Output Shape              Param #   
=================================================================
conv2d_448 (Conv2D)          (None, 32, 32, 256)       7168      
_________________________________________________________________
batch_normalization_283 (Bat (None, 32, 32, 256)       1024      
_________________________________________________________________
activation_598 (Activation)  (None, 32, 32, 256)       0         
_________________________________________________________________
dropout_598 (Dropout)        (None, 32, 32, 256)       0         
_________________________________________________________________
max_pooling2d_166 (MaxPoolin (None, 16, 16, 256)       0         
_________________________________________________________________
conv2d_449 (Conv2D)          (None, 16, 16, 128)       295040    
_________________________________________________________________
activation_599 (Activation)  (None, 16, 16, 128)       0         
_________________________________________________________________
dropout_599 (Dropout)        (None, 16, 16, 128)       0         
_________________________________________________________________
max_pooling2d_167 (MaxPoolin (None, 8, 8, 128)         0         
_________________________________________________________________
conv2d_450 (Conv2D)          (None, 8, 8, 32)          36896     
_________________________________________________________________
activation_600 (Activation)  (None, 8, 8, 32)          0         
_________________________________________________________________
dropout_600 (Dropout)        (None, 8, 8, 32)          0         
_________________________________________________________________
conv2d_451 (Conv2D)          (None, 8, 8, 32)          9248      
_________________________________________________________________
activation_601 (Activation)  (None, 8, 8, 32)          0         
_________________________________________________________________
dropout_601 (Dropout)        (None, 8, 8, 32)          0         
_________________________________________________________________
conv2d_452 (Conv2D)          (None, 8, 8, 128)         36992     
_________________________________________________________________
activation_602 (Activation)  (None, 8, 8, 128)         0         
_________________________________________________________________
dropout_602 (Dropout)        (None, 8, 8, 128)         0         
_________________________________________________________________
conv2d_453 (Conv2D)          (None, 8, 8, 512)         590336    
_________________________________________________________________
activation_603 (Activation)  (None, 8, 8, 512)         0         
_________________________________________________________________
dropout_603 (Dropout)        (None, 8, 8, 512)         0         
_________________________________________________________________
max_pooling2d_168 (MaxPoolin (None, 4, 4, 512)         0         
_________________________________________________________________
flatten_84 (Flatten)         (None, 8192)              0         
_________________________________________________________________
dense_234 (Dense)            (None, 16)                131088    
_________________________________________________________________
activation_604 (Activation)  (None, 16)                0         
_________________________________________________________________
dropout_604 (Dropout)        (None, 16)                0         
_________________________________________________________________
dense_235 (Dense)            (None, 32)                544       
_________________________________________________________________
activation_605 (Activation)  (None, 32)                0         
_________________________________________________________________
dropout_605 (Dropout)        (None, 32)                0         
_________________________________________________________________
dense_236 (Dense)            (None, 10)                330       
=================================================================
Total params: 1,108,666
Trainable params: 1,108,154
Non-trainable params: 512
_________________________________________________________________
