Model: "sequential_157"
_________________________________________________________________
Layer (type)                 Output Shape              Param #   
=================================================================
conv2d_865 (Conv2D)          (None, 32, 32, 64)        1792      
_________________________________________________________________
activation_1119 (Activation) (None, 32, 32, 64)        0         
_________________________________________________________________
dropout_1119 (Dropout)       (None, 32, 32, 64)        0         
_________________________________________________________________
conv2d_866 (Conv2D)          (None, 32, 32, 32)        18464     
_________________________________________________________________
activation_1120 (Activation) (None, 32, 32, 32)        0         
_________________________________________________________________
dropout_1120 (Dropout)       (None, 32, 32, 32)        0         
_________________________________________________________________
conv2d_867 (Conv2D)          (None, 32, 32, 128)       36992     
_________________________________________________________________
activation_1121 (Activation) (None, 32, 32, 128)       0         
_________________________________________________________________
dropout_1121 (Dropout)       (None, 32, 32, 128)       0         
_________________________________________________________________
conv2d_868 (Conv2D)          (None, 32, 32, 16)        18448     
_________________________________________________________________
batch_normalization_457 (Bat (None, 32, 32, 16)        64        
_________________________________________________________________
activation_1122 (Activation) (None, 32, 32, 16)        0         
_________________________________________________________________
dropout_1122 (Dropout)       (None, 32, 32, 16)        0         
_________________________________________________________________
flatten_157 (Flatten)        (None, 16384)             0         
_________________________________________________________________
dense_411 (Dense)            (None, 128)               2097280   
_________________________________________________________________
activation_1123 (Activation) (None, 128)               0         
_________________________________________________________________
dropout_1123 (Dropout)       (None, 128)               0         
_________________________________________________________________
dense_412 (Dense)            (None, 10)                1290      
=================================================================
Total params: 2,174,330
Trainable params: 2,174,298
Non-trainable params: 32
_________________________________________________________________
