Model: "sequential_374"
_________________________________________________________________
Layer (type)                 Output Shape              Param #   
=================================================================
conv2d_2297 (Conv2D)         (None, 32, 32, 16)        448       
_________________________________________________________________
batch_normalization_1100 (Ba (None, 32, 32, 16)        64        
_________________________________________________________________
activation_2750 (Activation) (None, 32, 32, 16)        0         
_________________________________________________________________
dropout_2750 (Dropout)       (None, 32, 32, 16)        0         
_________________________________________________________________
conv2d_2298 (Conv2D)         (None, 32, 32, 128)       18560     
_________________________________________________________________
activation_2751 (Activation) (None, 32, 32, 128)       0         
_________________________________________________________________
dropout_2751 (Dropout)       (None, 32, 32, 128)       0         
_________________________________________________________________
max_pooling2d_671 (MaxPoolin (None, 16, 16, 128)       0         
_________________________________________________________________
conv2d_2299 (Conv2D)         (None, 16, 16, 256)       295168    
_________________________________________________________________
activation_2752 (Activation) (None, 16, 16, 256)       0         
_________________________________________________________________
dropout_2752 (Dropout)       (None, 16, 16, 256)       0         
_________________________________________________________________
conv2d_2300 (Conv2D)         (None, 16, 16, 256)       590080    
_________________________________________________________________
activation_2753 (Activation) (None, 16, 16, 256)       0         
_________________________________________________________________
dropout_2753 (Dropout)       (None, 16, 16, 256)       0         
_________________________________________________________________
conv2d_2301 (Conv2D)         (None, 16, 16, 16)        36880     
_________________________________________________________________
batch_normalization_1101 (Ba (None, 16, 16, 16)        64        
_________________________________________________________________
activation_2754 (Activation) (None, 16, 16, 16)        0         
_________________________________________________________________
dropout_2754 (Dropout)       (None, 16, 16, 16)        0         
_________________________________________________________________
flatten_374 (Flatten)        (None, 4096)              0         
_________________________________________________________________
dense_827 (Dense)            (None, 10)                40970     
=================================================================
Total params: 982,234
Trainable params: 982,170
Non-trainable params: 64
_________________________________________________________________
