Model: "sequential_213"
_________________________________________________________________
Layer (type)                 Output Shape              Param #   
=================================================================
conv2d_1233 (Conv2D)         (None, 32, 32, 16)        448       
_________________________________________________________________
activation_1548 (Activation) (None, 32, 32, 16)        0         
_________________________________________________________________
dropout_1548 (Dropout)       (None, 32, 32, 16)        0         
_________________________________________________________________
conv2d_1234 (Conv2D)         (None, 32, 32, 128)       18560     
_________________________________________________________________
batch_normalization_620 (Bat (None, 32, 32, 128)       512       
_________________________________________________________________
activation_1549 (Activation) (None, 32, 32, 128)       0         
_________________________________________________________________
dropout_1549 (Dropout)       (None, 32, 32, 128)       0         
_________________________________________________________________
max_pooling2d_396 (MaxPoolin (None, 16, 16, 128)       0         
_________________________________________________________________
conv2d_1235 (Conv2D)         (None, 16, 16, 128)       147584    
_________________________________________________________________
activation_1550 (Activation) (None, 16, 16, 128)       0         
_________________________________________________________________
dropout_1550 (Dropout)       (None, 16, 16, 128)       0         
_________________________________________________________________
max_pooling2d_397 (MaxPoolin (None, 8, 8, 128)         0         
_________________________________________________________________
conv2d_1236 (Conv2D)         (None, 8, 8, 32)          36896     
_________________________________________________________________
activation_1551 (Activation) (None, 8, 8, 32)          0         
_________________________________________________________________
dropout_1551 (Dropout)       (None, 8, 8, 32)          0         
_________________________________________________________________
conv2d_1237 (Conv2D)         (None, 8, 8, 32)          9248      
_________________________________________________________________
activation_1552 (Activation) (None, 8, 8, 32)          0         
_________________________________________________________________
dropout_1552 (Dropout)       (None, 8, 8, 32)          0         
_________________________________________________________________
conv2d_1238 (Conv2D)         (None, 8, 8, 128)         36992     
_________________________________________________________________
activation_1553 (Activation) (None, 8, 8, 128)         0         
_________________________________________________________________
dropout_1553 (Dropout)       (None, 8, 8, 128)         0         
_________________________________________________________________
conv2d_1239 (Conv2D)         (None, 8, 8, 16)          18448     
_________________________________________________________________
batch_normalization_621 (Bat (None, 8, 8, 16)          64        
_________________________________________________________________
activation_1554 (Activation) (None, 8, 8, 16)          0         
_________________________________________________________________
dropout_1554 (Dropout)       (None, 8, 8, 16)          0         
_________________________________________________________________
flatten_213 (Flatten)        (None, 1024)              0         
_________________________________________________________________
dense_528 (Dense)            (None, 128)               131200    
_________________________________________________________________
activation_1555 (Activation) (None, 128)               0         
_________________________________________________________________
dropout_1555 (Dropout)       (None, 128)               0         
_________________________________________________________________
dense_529 (Dense)            (None, 10)                1290      
=================================================================
Total params: 401,242
Trainable params: 400,954
Non-trainable params: 288
_________________________________________________________________
