Model: "sequential_141"
_________________________________________________________________
Layer (type)                 Output Shape              Param #   
=================================================================
conv2d_764 (Conv2D)          (None, 32, 32, 16)        448       
_________________________________________________________________
activation_997 (Activation)  (None, 32, 32, 16)        0         
_________________________________________________________________
dropout_997 (Dropout)        (None, 32, 32, 16)        0         
_________________________________________________________________
conv2d_765 (Conv2D)          (None, 32, 32, 128)       18560     
_________________________________________________________________
batch_normalization_415 (Bat (None, 32, 32, 128)       512       
_________________________________________________________________
activation_998 (Activation)  (None, 32, 32, 128)       0         
_________________________________________________________________
dropout_998 (Dropout)        (None, 32, 32, 128)       0         
_________________________________________________________________
max_pooling2d_272 (MaxPoolin (None, 16, 16, 128)       0         
_________________________________________________________________
conv2d_766 (Conv2D)          (None, 16, 16, 128)       147584    
_________________________________________________________________
activation_999 (Activation)  (None, 16, 16, 128)       0         
_________________________________________________________________
dropout_999 (Dropout)        (None, 16, 16, 128)       0         
_________________________________________________________________
max_pooling2d_273 (MaxPoolin (None, 8, 8, 128)         0         
_________________________________________________________________
conv2d_767 (Conv2D)          (None, 8, 8, 32)          36896     
_________________________________________________________________
activation_1000 (Activation) (None, 8, 8, 32)          0         
_________________________________________________________________
dropout_1000 (Dropout)       (None, 8, 8, 32)          0         
_________________________________________________________________
conv2d_768 (Conv2D)          (None, 8, 8, 32)          9248      
_________________________________________________________________
activation_1001 (Activation) (None, 8, 8, 32)          0         
_________________________________________________________________
dropout_1001 (Dropout)       (None, 8, 8, 32)          0         
_________________________________________________________________
conv2d_769 (Conv2D)          (None, 8, 8, 128)         36992     
_________________________________________________________________
activation_1002 (Activation) (None, 8, 8, 128)         0         
_________________________________________________________________
dropout_1002 (Dropout)       (None, 8, 8, 128)         0         
_________________________________________________________________
conv2d_770 (Conv2D)          (None, 8, 8, 16)          18448     
_________________________________________________________________
batch_normalization_416 (Bat (None, 8, 8, 16)          64        
_________________________________________________________________
activation_1003 (Activation) (None, 8, 8, 16)          0         
_________________________________________________________________
dropout_1003 (Dropout)       (None, 8, 8, 16)          0         
_________________________________________________________________
flatten_141 (Flatten)        (None, 1024)              0         
_________________________________________________________________
dense_374 (Dense)            (None, 128)               131200    
_________________________________________________________________
activation_1004 (Activation) (None, 128)               0         
_________________________________________________________________
dropout_1004 (Dropout)       (None, 128)               0         
_________________________________________________________________
dense_375 (Dense)            (None, 10)                1290      
=================================================================
Total params: 401,242
Trainable params: 400,954
Non-trainable params: 288
_________________________________________________________________
