Model: "sequential_324"
_________________________________________________________________
Layer (type)                 Output Shape              Param #   
=================================================================
conv2d_1980 (Conv2D)         (None, 32, 32, 1024)      28672     
_________________________________________________________________
batch_normalization_978 (Bat (None, 32, 32, 1024)      4096      
_________________________________________________________________
activation_2393 (Activation) (None, 32, 32, 1024)      0         
_________________________________________________________________
dropout_2393 (Dropout)       (None, 32, 32, 1024)      0         
_________________________________________________________________
conv2d_1981 (Conv2D)         (None, 32, 32, 512)       4719104   
_________________________________________________________________
batch_normalization_979 (Bat (None, 32, 32, 512)       2048      
_________________________________________________________________
activation_2394 (Activation) (None, 32, 32, 512)       0         
_________________________________________________________________
dropout_2394 (Dropout)       (None, 32, 32, 512)       0         
_________________________________________________________________
max_pooling2d_597 (MaxPoolin (None, 16, 16, 512)       0         
_________________________________________________________________
conv2d_1982 (Conv2D)         (None, 16, 16, 128)       589952    
_________________________________________________________________
activation_2395 (Activation) (None, 16, 16, 128)       0         
_________________________________________________________________
dropout_2395 (Dropout)       (None, 16, 16, 128)       0         
_________________________________________________________________
max_pooling2d_598 (MaxPoolin (None, 8, 8, 128)         0         
_________________________________________________________________
conv2d_1983 (Conv2D)         (None, 8, 8, 512)         590336    
_________________________________________________________________
activation_2396 (Activation) (None, 8, 8, 512)         0         
_________________________________________________________________
dropout_2396 (Dropout)       (None, 8, 8, 512)         0         
_________________________________________________________________
conv2d_1984 (Conv2D)         (None, 8, 8, 256)         1179904   
_________________________________________________________________
activation_2397 (Activation) (None, 8, 8, 256)         0         
_________________________________________________________________
dropout_2397 (Dropout)       (None, 8, 8, 256)         0         
_________________________________________________________________
conv2d_1985 (Conv2D)         (None, 8, 8, 128)         295040    
_________________________________________________________________
activation_2398 (Activation) (None, 8, 8, 128)         0         
_________________________________________________________________
dropout_2398 (Dropout)       (None, 8, 8, 128)         0         
_________________________________________________________________
conv2d_1986 (Conv2D)         (None, 8, 8, 16)          18448     
_________________________________________________________________
batch_normalization_980 (Bat (None, 8, 8, 16)          64        
_________________________________________________________________
activation_2399 (Activation) (None, 8, 8, 16)          0         
_________________________________________________________________
dropout_2399 (Dropout)       (None, 8, 8, 16)          0         
_________________________________________________________________
flatten_324 (Flatten)        (None, 1024)              0         
_________________________________________________________________
dense_737 (Dense)            (None, 128)               131200    
_________________________________________________________________
activation_2400 (Activation) (None, 128)               0         
_________________________________________________________________
dropout_2400 (Dropout)       (None, 128)               0         
_________________________________________________________________
dense_738 (Dense)            (None, 10)                1290      
=================================================================
Total params: 7,560,154
Trainable params: 7,557,050
Non-trainable params: 3,104
_________________________________________________________________
