Model: "sequential_161"
_________________________________________________________________
Layer (type)                 Output Shape              Param #   
=================================================================
conv2d_890 (Conv2D)          (None, 32, 32, 16)        448       
_________________________________________________________________
activation_1148 (Activation) (None, 32, 32, 16)        0         
_________________________________________________________________
dropout_1148 (Dropout)       (None, 32, 32, 16)        0         
_________________________________________________________________
conv2d_891 (Conv2D)          (None, 32, 32, 512)       74240     
_________________________________________________________________
batch_normalization_468 (Bat (None, 32, 32, 512)       2048      
_________________________________________________________________
activation_1149 (Activation) (None, 32, 32, 512)       0         
_________________________________________________________________
dropout_1149 (Dropout)       (None, 32, 32, 512)       0         
_________________________________________________________________
conv2d_892 (Conv2D)          (None, 32, 32, 16)        73744     
_________________________________________________________________
activation_1150 (Activation) (None, 32, 32, 16)        0         
_________________________________________________________________
dropout_1150 (Dropout)       (None, 32, 32, 16)        0         
_________________________________________________________________
conv2d_893 (Conv2D)          (None, 32, 32, 512)       74240     
_________________________________________________________________
batch_normalization_469 (Bat (None, 32, 32, 512)       2048      
_________________________________________________________________
activation_1151 (Activation) (None, 32, 32, 512)       0         
_________________________________________________________________
dropout_1151 (Dropout)       (None, 32, 32, 512)       0         
_________________________________________________________________
conv2d_894 (Conv2D)          (None, 32, 32, 256)       1179904   
_________________________________________________________________
activation_1152 (Activation) (None, 32, 32, 256)       0         
_________________________________________________________________
dropout_1152 (Dropout)       (None, 32, 32, 256)       0         
_________________________________________________________________
conv2d_895 (Conv2D)          (None, 32, 32, 128)       295040    
_________________________________________________________________
activation_1153 (Activation) (None, 32, 32, 128)       0         
_________________________________________________________________
dropout_1153 (Dropout)       (None, 32, 32, 128)       0         
_________________________________________________________________
conv2d_896 (Conv2D)          (None, 32, 32, 16)        18448     
_________________________________________________________________
batch_normalization_470 (Bat (None, 32, 32, 16)        64        
_________________________________________________________________
activation_1154 (Activation) (None, 32, 32, 16)        0         
_________________________________________________________________
dropout_1154 (Dropout)       (None, 32, 32, 16)        0         
_________________________________________________________________
flatten_161 (Flatten)        (None, 16384)             0         
_________________________________________________________________
dense_419 (Dense)            (None, 128)               2097280   
_________________________________________________________________
activation_1155 (Activation) (None, 128)               0         
_________________________________________________________________
dropout_1155 (Dropout)       (None, 128)               0         
_________________________________________________________________
dense_420 (Dense)            (None, 10)                1290      
=================================================================
Total params: 3,818,794
Trainable params: 3,816,714
Non-trainable params: 2,080
_________________________________________________________________
