Model: "sequential_2"
_________________________________________________________________
Layer (type)                 Output Shape              Param #   
=================================================================
conv2d_9 (Conv2D)            (None, 32, 32, 8)         224       
_________________________________________________________________
batch_normalization_6 (Batch (None, 32, 32, 8)         32        
_________________________________________________________________
activation_12 (Activation)   (None, 32, 32, 8)         0         
_________________________________________________________________
dropout_12 (Dropout)         (None, 32, 32, 8)         0         
_________________________________________________________________
conv2d_10 (Conv2D)           (None, 32, 32, 512)       37376     
_________________________________________________________________
batch_normalization_7 (Batch (None, 32, 32, 512)       2048      
_________________________________________________________________
activation_13 (Activation)   (None, 32, 32, 512)       0         
_________________________________________________________________
dropout_13 (Dropout)         (None, 32, 32, 512)       0         
_________________________________________________________________
max_pooling2d_5 (MaxPooling2 (None, 16, 16, 512)       0         
_________________________________________________________________
conv2d_11 (Conv2D)           (None, 16, 16, 32)        147488    
_________________________________________________________________
batch_normalization_8 (Batch (None, 16, 16, 32)        128       
_________________________________________________________________
activation_14 (Activation)   (None, 16, 16, 32)        0         
_________________________________________________________________
dropout_14 (Dropout)         (None, 16, 16, 32)        0         
_________________________________________________________________
max_pooling2d_6 (MaxPooling2 (None, 8, 8, 32)          0         
_________________________________________________________________
conv2d_12 (Conv2D)           (None, 8, 8, 128)         36992     
_________________________________________________________________
batch_normalization_9 (Batch (None, 8, 8, 128)         512       
_________________________________________________________________
activation_15 (Activation)   (None, 8, 8, 128)         0         
_________________________________________________________________
dropout_15 (Dropout)         (None, 8, 8, 128)         0         
_________________________________________________________________
max_pooling2d_7 (MaxPooling2 (None, 4, 4, 128)         0         
_________________________________________________________________
conv2d_13 (Conv2D)           (None, 4, 4, 512)         590336    
_________________________________________________________________
activation_16 (Activation)   (None, 4, 4, 512)         0         
_________________________________________________________________
dropout_16 (Dropout)         (None, 4, 4, 512)         0         
_________________________________________________________________
flatten_2 (Flatten)          (None, 8192)              0         
_________________________________________________________________
dense_5 (Dense)              (None, 16)                131088    
_________________________________________________________________
activation_17 (Activation)   (None, 16)                0         
_________________________________________________________________
dropout_17 (Dropout)         (None, 16)                0         
_________________________________________________________________
dense_6 (Dense)              (None, 32)                544       
_________________________________________________________________
activation_18 (Activation)   (None, 32)                0         
_________________________________________________________________
dropout_18 (Dropout)         (None, 32)                0         
_________________________________________________________________
dense_7 (Dense)              (None, 10)                330       
=================================================================
Total params: 947,098
Trainable params: 945,738
Non-trainable params: 1,360
_________________________________________________________________
