Model: "sequential_350"
_________________________________________________________________
Layer (type)                 Output Shape              Param #   
=================================================================
conv2d_2148 (Conv2D)         (None, 32, 32, 16)        448       
_________________________________________________________________
activation_2584 (Activation) (None, 32, 32, 16)        0         
_________________________________________________________________
dropout_2584 (Dropout)       (None, 32, 32, 16)        0         
_________________________________________________________________
conv2d_2149 (Conv2D)         (None, 32, 32, 512)       74240     
_________________________________________________________________
batch_normalization_1045 (Ba (None, 32, 32, 512)       2048      
_________________________________________________________________
activation_2585 (Activation) (None, 32, 32, 512)       0         
_________________________________________________________________
dropout_2585 (Dropout)       (None, 32, 32, 512)       0         
_________________________________________________________________
max_pooling2d_637 (MaxPoolin (None, 16, 16, 512)       0         
_________________________________________________________________
conv2d_2150 (Conv2D)         (None, 16, 16, 128)       589952    
_________________________________________________________________
activation_2586 (Activation) (None, 16, 16, 128)       0         
_________________________________________________________________
dropout_2586 (Dropout)       (None, 16, 16, 128)       0         
_________________________________________________________________
max_pooling2d_638 (MaxPoolin (None, 8, 8, 128)         0         
_________________________________________________________________
conv2d_2151 (Conv2D)         (None, 8, 8, 512)         590336    
_________________________________________________________________
activation_2587 (Activation) (None, 8, 8, 512)         0         
_________________________________________________________________
dropout_2587 (Dropout)       (None, 8, 8, 512)         0         
_________________________________________________________________
conv2d_2152 (Conv2D)         (None, 8, 8, 256)         1179904   
_________________________________________________________________
activation_2588 (Activation) (None, 8, 8, 256)         0         
_________________________________________________________________
dropout_2588 (Dropout)       (None, 8, 8, 256)         0         
_________________________________________________________________
conv2d_2153 (Conv2D)         (None, 8, 8, 128)         295040    
_________________________________________________________________
activation_2589 (Activation) (None, 8, 8, 128)         0         
_________________________________________________________________
dropout_2589 (Dropout)       (None, 8, 8, 128)         0         
_________________________________________________________________
conv2d_2154 (Conv2D)         (None, 8, 8, 16)          18448     
_________________________________________________________________
batch_normalization_1046 (Ba (None, 8, 8, 16)          64        
_________________________________________________________________
activation_2590 (Activation) (None, 8, 8, 16)          0         
_________________________________________________________________
dropout_2590 (Dropout)       (None, 8, 8, 16)          0         
_________________________________________________________________
flatten_350 (Flatten)        (None, 1024)              0         
_________________________________________________________________
dense_786 (Dense)            (None, 128)               131200    
_________________________________________________________________
activation_2591 (Activation) (None, 128)               0         
_________________________________________________________________
dropout_2591 (Dropout)       (None, 128)               0         
_________________________________________________________________
dense_787 (Dense)            (None, 10)                1290      
=================================================================
Total params: 2,882,970
Trainable params: 2,881,914
Non-trainable params: 1,056
_________________________________________________________________
