Model: "sequential_36"
_________________________________________________________________
Layer (type)                 Output Shape              Param #   
=================================================================
conv2d_194 (Conv2D)          (None, 32, 32, 256)       7168      
_________________________________________________________________
batch_normalization_132 (Bat (None, 32, 32, 256)       1024      
_________________________________________________________________
activation_259 (Activation)  (None, 32, 32, 256)       0         
_________________________________________________________________
dropout_259 (Dropout)        (None, 32, 32, 256)       0         
_________________________________________________________________
max_pooling2d_73 (MaxPooling (None, 16, 16, 256)       0         
_________________________________________________________________
conv2d_195 (Conv2D)          (None, 16, 16, 128)       295040    
_________________________________________________________________
batch_normalization_133 (Bat (None, 16, 16, 128)       512       
_________________________________________________________________
activation_260 (Activation)  (None, 16, 16, 128)       0         
_________________________________________________________________
dropout_260 (Dropout)        (None, 16, 16, 128)       0         
_________________________________________________________________
conv2d_196 (Conv2D)          (None, 16, 16, 32)        36896     
_________________________________________________________________
activation_261 (Activation)  (None, 16, 16, 32)        0         
_________________________________________________________________
dropout_261 (Dropout)        (None, 16, 16, 32)        0         
_________________________________________________________________
max_pooling2d_74 (MaxPooling (None, 8, 8, 32)          0         
_________________________________________________________________
conv2d_197 (Conv2D)          (None, 8, 8, 32)          9248      
_________________________________________________________________
activation_262 (Activation)  (None, 8, 8, 32)          0         
_________________________________________________________________
dropout_262 (Dropout)        (None, 8, 8, 32)          0         
_________________________________________________________________
conv2d_198 (Conv2D)          (None, 8, 8, 64)          18496     
_________________________________________________________________
batch_normalization_134 (Bat (None, 8, 8, 64)          256       
_________________________________________________________________
activation_263 (Activation)  (None, 8, 8, 64)          0         
_________________________________________________________________
dropout_263 (Dropout)        (None, 8, 8, 64)          0         
_________________________________________________________________
conv2d_199 (Conv2D)          (None, 8, 8, 32)          18464     
_________________________________________________________________
batch_normalization_135 (Bat (None, 8, 8, 32)          128       
_________________________________________________________________
activation_264 (Activation)  (None, 8, 8, 32)          0         
_________________________________________________________________
dropout_264 (Dropout)        (None, 8, 8, 32)          0         
_________________________________________________________________
flatten_36 (Flatten)         (None, 2048)              0         
_________________________________________________________________
dense_101 (Dense)            (None, 128)               262272    
_________________________________________________________________
batch_normalization_136 (Bat (None, 128)               512       
_________________________________________________________________
activation_265 (Activation)  (None, 128)               0         
_________________________________________________________________
dropout_265 (Dropout)        (None, 128)               0         
_________________________________________________________________
dense_102 (Dense)            (None, 32)                4128      
_________________________________________________________________
activation_266 (Activation)  (None, 32)                0         
_________________________________________________________________
dropout_266 (Dropout)        (None, 32)                0         
_________________________________________________________________
dense_103 (Dense)            (None, 32)                1056      
_________________________________________________________________
activation_267 (Activation)  (None, 32)                0         
_________________________________________________________________
dropout_267 (Dropout)        (None, 32)                0         
_________________________________________________________________
dense_104 (Dense)            (None, 10)                330       
=================================================================
Total params: 655,530
Trainable params: 654,314
Non-trainable params: 1,216
_________________________________________________________________
