Model: "sequential_101"
_________________________________________________________________
Layer (type)                 Output Shape              Param #   
=================================================================
conv2d_545 (Conv2D)          (None, 32, 32, 64)        1792      
_________________________________________________________________
activation_719 (Activation)  (None, 32, 32, 64)        0         
_________________________________________________________________
dropout_719 (Dropout)        (None, 32, 32, 64)        0         
_________________________________________________________________
conv2d_546 (Conv2D)          (None, 32, 32, 256)       147712    
_________________________________________________________________
activation_720 (Activation)  (None, 32, 32, 256)       0         
_________________________________________________________________
dropout_720 (Dropout)        (None, 32, 32, 256)       0         
_________________________________________________________________
conv2d_547 (Conv2D)          (None, 32, 32, 128)       295040    
_________________________________________________________________
activation_721 (Activation)  (None, 32, 32, 128)       0         
_________________________________________________________________
dropout_721 (Dropout)        (None, 32, 32, 128)       0         
_________________________________________________________________
conv2d_548 (Conv2D)          (None, 32, 32, 16)        18448     
_________________________________________________________________
batch_normalization_332 (Bat (None, 32, 32, 16)        64        
_________________________________________________________________
activation_722 (Activation)  (None, 32, 32, 16)        0         
_________________________________________________________________
dropout_722 (Dropout)        (None, 32, 32, 16)        0         
_________________________________________________________________
flatten_101 (Flatten)        (None, 16384)             0         
_________________________________________________________________
dense_275 (Dense)            (None, 128)               2097280   
_________________________________________________________________
activation_723 (Activation)  (None, 128)               0         
_________________________________________________________________
dropout_723 (Dropout)        (None, 128)               0         
_________________________________________________________________
dense_276 (Dense)            (None, 10)                1290      
=================================================================
Total params: 2,561,626
Trainable params: 2,561,594
Non-trainable params: 32
_________________________________________________________________
