Model: "sequential_51"
_________________________________________________________________
Layer (type)                 Output Shape              Param #   
=================================================================
conv2d_278 (Conv2D)          (None, 32, 32, 32)        896       
_________________________________________________________________
batch_normalization_179 (Bat (None, 32, 32, 32)        128       
_________________________________________________________________
activation_364 (Activation)  (None, 32, 32, 32)        0         
_________________________________________________________________
dropout_364 (Dropout)        (None, 32, 32, 32)        0         
_________________________________________________________________
max_pooling2d_103 (MaxPoolin (None, 16, 16, 32)        0         
_________________________________________________________________
conv2d_279 (Conv2D)          (None, 16, 16, 512)       147968    
_________________________________________________________________
batch_normalization_180 (Bat (None, 16, 16, 512)       2048      
_________________________________________________________________
activation_365 (Activation)  (None, 16, 16, 512)       0         
_________________________________________________________________
dropout_365 (Dropout)        (None, 16, 16, 512)       0         
_________________________________________________________________
conv2d_280 (Conv2D)          (None, 16, 16, 16)        73744     
_________________________________________________________________
activation_366 (Activation)  (None, 16, 16, 16)        0         
_________________________________________________________________
dropout_366 (Dropout)        (None, 16, 16, 16)        0         
_________________________________________________________________
conv2d_281 (Conv2D)          (None, 16, 16, 128)       18560     
_________________________________________________________________
batch_normalization_181 (Bat (None, 16, 16, 128)       512       
_________________________________________________________________
activation_367 (Activation)  (None, 16, 16, 128)       0         
_________________________________________________________________
dropout_367 (Dropout)        (None, 16, 16, 128)       0         
_________________________________________________________________
max_pooling2d_104 (MaxPoolin (None, 8, 8, 128)         0         
_________________________________________________________________
conv2d_282 (Conv2D)          (None, 8, 8, 512)         590336    
_________________________________________________________________
activation_368 (Activation)  (None, 8, 8, 512)         0         
_________________________________________________________________
dropout_368 (Dropout)        (None, 8, 8, 512)         0         
_________________________________________________________________
max_pooling2d_105 (MaxPoolin (None, 4, 4, 512)         0         
_________________________________________________________________
flatten_51 (Flatten)         (None, 8192)              0         
_________________________________________________________________
dense_137 (Dense)            (None, 16)                131088    
_________________________________________________________________
activation_369 (Activation)  (None, 16)                0         
_________________________________________________________________
dropout_369 (Dropout)        (None, 16)                0         
_________________________________________________________________
dense_138 (Dense)            (None, 32)                544       
_________________________________________________________________
activation_370 (Activation)  (None, 32)                0         
_________________________________________________________________
dropout_370 (Dropout)        (None, 32)                0         
_________________________________________________________________
dense_139 (Dense)            (None, 10)                330       
=================================================================
Total params: 966,154
Trainable params: 964,810
Non-trainable params: 1,344
_________________________________________________________________
