Model: "sequential_277"
_________________________________________________________________
Layer (type)                 Output Shape              Param #   
=================================================================
conv2d_1667 (Conv2D)         (None, 32, 32, 16)        448       
_________________________________________________________________
batch_normalization_823 (Bat (None, 32, 32, 16)        64        
_________________________________________________________________
activation_2038 (Activation) (None, 32, 32, 16)        0         
_________________________________________________________________
dropout_2038 (Dropout)       (None, 32, 32, 16)        0         
_________________________________________________________________
conv2d_1668 (Conv2D)         (None, 32, 32, 128)       18560     
_________________________________________________________________
batch_normalization_824 (Bat (None, 32, 32, 128)       512       
_________________________________________________________________
activation_2039 (Activation) (None, 32, 32, 128)       0         
_________________________________________________________________
dropout_2039 (Dropout)       (None, 32, 32, 128)       0         
_________________________________________________________________
max_pooling2d_519 (MaxPoolin (None, 16, 16, 128)       0         
_________________________________________________________________
conv2d_1669 (Conv2D)         (None, 16, 16, 128)       147584    
_________________________________________________________________
activation_2040 (Activation) (None, 16, 16, 128)       0         
_________________________________________________________________
dropout_2040 (Dropout)       (None, 16, 16, 128)       0         
_________________________________________________________________
max_pooling2d_520 (MaxPoolin (None, 8, 8, 128)         0         
_________________________________________________________________
conv2d_1670 (Conv2D)         (None, 8, 8, 512)         590336    
_________________________________________________________________
batch_normalization_825 (Bat (None, 8, 8, 512)         2048      
_________________________________________________________________
activation_2041 (Activation) (None, 8, 8, 512)         0         
_________________________________________________________________
dropout_2041 (Dropout)       (None, 8, 8, 512)         0         
_________________________________________________________________
conv2d_1671 (Conv2D)         (None, 8, 8, 256)         1179904   
_________________________________________________________________
activation_2042 (Activation) (None, 8, 8, 256)         0         
_________________________________________________________________
dropout_2042 (Dropout)       (None, 8, 8, 256)         0         
_________________________________________________________________
conv2d_1672 (Conv2D)         (None, 8, 8, 128)         295040    
_________________________________________________________________
activation_2043 (Activation) (None, 8, 8, 128)         0         
_________________________________________________________________
dropout_2043 (Dropout)       (None, 8, 8, 128)         0         
_________________________________________________________________
conv2d_1673 (Conv2D)         (None, 8, 8, 16)          18448     
_________________________________________________________________
batch_normalization_826 (Bat (None, 8, 8, 16)          64        
_________________________________________________________________
activation_2044 (Activation) (None, 8, 8, 16)          0         
_________________________________________________________________
dropout_2044 (Dropout)       (None, 8, 8, 16)          0         
_________________________________________________________________
flatten_277 (Flatten)        (None, 1024)              0         
_________________________________________________________________
dense_648 (Dense)            (None, 128)               131200    
_________________________________________________________________
activation_2045 (Activation) (None, 128)               0         
_________________________________________________________________
dropout_2045 (Dropout)       (None, 128)               0         
_________________________________________________________________
dense_649 (Dense)            (None, 10)                1290      
=================================================================
Total params: 2,385,498
Trainable params: 2,384,154
Non-trainable params: 1,344
_________________________________________________________________
