Model: "sequential_122"
_________________________________________________________________
Layer (type)                 Output Shape              Param #   
=================================================================
conv2d_658 (Conv2D)          (None, 32, 32, 16)        448       
_________________________________________________________________
batch_normalization_371 (Bat (None, 32, 32, 16)        64        
_________________________________________________________________
activation_865 (Activation)  (None, 32, 32, 16)        0         
_________________________________________________________________
dropout_865 (Dropout)        (None, 32, 32, 16)        0         
_________________________________________________________________
conv2d_659 (Conv2D)          (None, 32, 32, 512)       74240     
_________________________________________________________________
batch_normalization_372 (Bat (None, 32, 32, 512)       2048      
_________________________________________________________________
activation_866 (Activation)  (None, 32, 32, 512)       0         
_________________________________________________________________
dropout_866 (Dropout)        (None, 32, 32, 512)       0         
_________________________________________________________________
max_pooling2d_238 (MaxPoolin (None, 16, 16, 512)       0         
_________________________________________________________________
conv2d_660 (Conv2D)          (None, 16, 16, 128)       589952    
_________________________________________________________________
activation_867 (Activation)  (None, 16, 16, 128)       0         
_________________________________________________________________
dropout_867 (Dropout)        (None, 16, 16, 128)       0         
_________________________________________________________________
max_pooling2d_239 (MaxPoolin (None, 8, 8, 128)         0         
_________________________________________________________________
conv2d_661 (Conv2D)          (None, 8, 8, 512)         590336    
_________________________________________________________________
batch_normalization_373 (Bat (None, 8, 8, 512)         2048      
_________________________________________________________________
activation_868 (Activation)  (None, 8, 8, 512)         0         
_________________________________________________________________
dropout_868 (Dropout)        (None, 8, 8, 512)         0         
_________________________________________________________________
conv2d_662 (Conv2D)          (None, 8, 8, 256)         1179904   
_________________________________________________________________
activation_869 (Activation)  (None, 8, 8, 256)         0         
_________________________________________________________________
dropout_869 (Dropout)        (None, 8, 8, 256)         0         
_________________________________________________________________
conv2d_663 (Conv2D)          (None, 8, 8, 128)         295040    
_________________________________________________________________
activation_870 (Activation)  (None, 8, 8, 128)         0         
_________________________________________________________________
dropout_870 (Dropout)        (None, 8, 8, 128)         0         
_________________________________________________________________
conv2d_664 (Conv2D)          (None, 8, 8, 16)          18448     
_________________________________________________________________
batch_normalization_374 (Bat (None, 8, 8, 16)          64        
_________________________________________________________________
activation_871 (Activation)  (None, 8, 8, 16)          0         
_________________________________________________________________
dropout_871 (Dropout)        (None, 8, 8, 16)          0         
_________________________________________________________________
flatten_122 (Flatten)        (None, 1024)              0         
_________________________________________________________________
dense_329 (Dense)            (None, 128)               131200    
_________________________________________________________________
activation_872 (Activation)  (None, 128)               0         
_________________________________________________________________
dropout_872 (Dropout)        (None, 128)               0         
_________________________________________________________________
dense_330 (Dense)            (None, 10)                1290      
=================================================================
Total params: 2,885,082
Trainable params: 2,882,970
Non-trainable params: 2,112
_________________________________________________________________
