Model: "sequential_233"
_________________________________________________________________
Layer (type)                 Output Shape              Param #   
=================================================================
conv2d_1369 (Conv2D)         (None, 32, 32, 16)        448       
_________________________________________________________________
activation_1702 (Activation) (None, 32, 32, 16)        0         
_________________________________________________________________
dropout_1702 (Dropout)       (None, 32, 32, 16)        0         
_________________________________________________________________
conv2d_1370 (Conv2D)         (None, 32, 32, 128)       18560     
_________________________________________________________________
batch_normalization_677 (Bat (None, 32, 32, 128)       512       
_________________________________________________________________
activation_1703 (Activation) (None, 32, 32, 128)       0         
_________________________________________________________________
dropout_1703 (Dropout)       (None, 32, 32, 128)       0         
_________________________________________________________________
conv2d_1371 (Conv2D)         (None, 32, 32, 512)       590336    
_________________________________________________________________
batch_normalization_678 (Bat (None, 32, 32, 512)       2048      
_________________________________________________________________
activation_1704 (Activation) (None, 32, 32, 512)       0         
_________________________________________________________________
dropout_1704 (Dropout)       (None, 32, 32, 512)       0         
_________________________________________________________________
conv2d_1372 (Conv2D)         (None, 32, 32, 256)       1179904   
_________________________________________________________________
activation_1705 (Activation) (None, 32, 32, 256)       0         
_________________________________________________________________
dropout_1705 (Dropout)       (None, 32, 32, 256)       0         
_________________________________________________________________
conv2d_1373 (Conv2D)         (None, 32, 32, 128)       295040    
_________________________________________________________________
activation_1706 (Activation) (None, 32, 32, 128)       0         
_________________________________________________________________
dropout_1706 (Dropout)       (None, 32, 32, 128)       0         
_________________________________________________________________
conv2d_1374 (Conv2D)         (None, 32, 32, 16)        18448     
_________________________________________________________________
batch_normalization_679 (Bat (None, 32, 32, 16)        64        
_________________________________________________________________
activation_1707 (Activation) (None, 32, 32, 16)        0         
_________________________________________________________________
dropout_1707 (Dropout)       (None, 32, 32, 16)        0         
_________________________________________________________________
flatten_233 (Flatten)        (None, 16384)             0         
_________________________________________________________________
dense_566 (Dense)            (None, 128)               2097280   
_________________________________________________________________
activation_1708 (Activation) (None, 128)               0         
_________________________________________________________________
dropout_1708 (Dropout)       (None, 128)               0         
_________________________________________________________________
dense_567 (Dense)            (None, 10)                1290      
=================================================================
Total params: 4,203,930
Trainable params: 4,202,618
Non-trainable params: 1,312
_________________________________________________________________
