Model: "sequential_71"
_________________________________________________________________
Layer (type)                 Output Shape              Param #   
=================================================================
conv2d_381 (Conv2D)          (None, 32, 32, 16)        448       
_________________________________________________________________
activation_506 (Activation)  (None, 32, 32, 16)        0         
_________________________________________________________________
dropout_506 (Dropout)        (None, 32, 32, 16)        0         
_________________________________________________________________
conv2d_382 (Conv2D)          (None, 32, 32, 128)       18560     
_________________________________________________________________
batch_normalization_246 (Bat (None, 32, 32, 128)       512       
_________________________________________________________________
activation_507 (Activation)  (None, 32, 32, 128)       0         
_________________________________________________________________
dropout_507 (Dropout)        (None, 32, 32, 128)       0         
_________________________________________________________________
max_pooling2d_140 (MaxPoolin (None, 16, 16, 128)       0         
_________________________________________________________________
conv2d_383 (Conv2D)          (None, 16, 16, 128)       147584    
_________________________________________________________________
activation_508 (Activation)  (None, 16, 16, 128)       0         
_________________________________________________________________
dropout_508 (Dropout)        (None, 16, 16, 128)       0         
_________________________________________________________________
max_pooling2d_141 (MaxPoolin (None, 8, 8, 128)         0         
_________________________________________________________________
conv2d_384 (Conv2D)          (None, 8, 8, 32)          36896     
_________________________________________________________________
activation_509 (Activation)  (None, 8, 8, 32)          0         
_________________________________________________________________
dropout_509 (Dropout)        (None, 8, 8, 32)          0         
_________________________________________________________________
conv2d_385 (Conv2D)          (None, 8, 8, 32)          9248      
_________________________________________________________________
activation_510 (Activation)  (None, 8, 8, 32)          0         
_________________________________________________________________
dropout_510 (Dropout)        (None, 8, 8, 32)          0         
_________________________________________________________________
max_pooling2d_142 (MaxPoolin (None, 4, 4, 32)          0         
_________________________________________________________________
conv2d_386 (Conv2D)          (None, 4, 4, 512)         147968    
_________________________________________________________________
activation_511 (Activation)  (None, 4, 4, 512)         0         
_________________________________________________________________
dropout_511 (Dropout)        (None, 4, 4, 512)         0         
_________________________________________________________________
flatten_71 (Flatten)         (None, 8192)              0         
_________________________________________________________________
dense_196 (Dense)            (None, 16)                131088    
_________________________________________________________________
activation_512 (Activation)  (None, 16)                0         
_________________________________________________________________
dropout_512 (Dropout)        (None, 16)                0         
_________________________________________________________________
dense_197 (Dense)            (None, 32)                544       
_________________________________________________________________
activation_513 (Activation)  (None, 32)                0         
_________________________________________________________________
dropout_513 (Dropout)        (None, 32)                0         
_________________________________________________________________
dense_198 (Dense)            (None, 10)                330       
=================================================================
Total params: 493,178
Trainable params: 492,922
Non-trainable params: 256
_________________________________________________________________
