Model: "sequential_396"
_________________________________________________________________
Layer (type)                 Output Shape              Param #   
=================================================================
conv2d_2429 (Conv2D)         (None, 32, 32, 16)        448       
_________________________________________________________________
batch_normalization_1150 (Ba (None, 32, 32, 16)        64        
_________________________________________________________________
activation_2897 (Activation) (None, 32, 32, 16)        0         
_________________________________________________________________
dropout_2897 (Dropout)       (None, 32, 32, 16)        0         
_________________________________________________________________
conv2d_2430 (Conv2D)         (None, 32, 32, 128)       18560     
_________________________________________________________________
activation_2898 (Activation) (None, 32, 32, 128)       0         
_________________________________________________________________
dropout_2898 (Dropout)       (None, 32, 32, 128)       0         
_________________________________________________________________
max_pooling2d_700 (MaxPoolin (None, 16, 16, 128)       0         
_________________________________________________________________
conv2d_2431 (Conv2D)         (None, 16, 16, 32)        36896     
_________________________________________________________________
activation_2899 (Activation) (None, 16, 16, 32)        0         
_________________________________________________________________
dropout_2899 (Dropout)       (None, 16, 16, 32)        0         
_________________________________________________________________
conv2d_2432 (Conv2D)         (None, 16, 16, 128)       36992     
_________________________________________________________________
activation_2900 (Activation) (None, 16, 16, 128)       0         
_________________________________________________________________
dropout_2900 (Dropout)       (None, 16, 16, 128)       0         
_________________________________________________________________
conv2d_2433 (Conv2D)         (None, 16, 16, 16)        18448     
_________________________________________________________________
batch_normalization_1151 (Ba (None, 16, 16, 16)        64        
_________________________________________________________________
activation_2901 (Activation) (None, 16, 16, 16)        0         
_________________________________________________________________
dropout_2901 (Dropout)       (None, 16, 16, 16)        0         
_________________________________________________________________
flatten_396 (Flatten)        (None, 4096)              0         
_________________________________________________________________
dense_864 (Dense)            (None, 128)               524416    
_________________________________________________________________
activation_2902 (Activation) (None, 128)               0         
_________________________________________________________________
dropout_2902 (Dropout)       (None, 128)               0         
_________________________________________________________________
dense_865 (Dense)            (None, 10)                1290      
=================================================================
Total params: 637,178
Trainable params: 637,114
Non-trainable params: 64
_________________________________________________________________
