Model: "sequential_88"
_________________________________________________________________
Layer (type)                 Output Shape              Param #   
=================================================================
conv2d_472 (Conv2D)          (None, 32, 32, 256)       7168      
_________________________________________________________________
batch_normalization_289 (Bat (None, 32, 32, 256)       1024      
_________________________________________________________________
activation_628 (Activation)  (None, 32, 32, 256)       0         
_________________________________________________________________
dropout_628 (Dropout)        (None, 32, 32, 256)       0         
_________________________________________________________________
max_pooling2d_174 (MaxPoolin (None, 16, 16, 256)       0         
_________________________________________________________________
conv2d_473 (Conv2D)          (None, 16, 16, 512)       1180160   
_________________________________________________________________
batch_normalization_290 (Bat (None, 16, 16, 512)       2048      
_________________________________________________________________
activation_629 (Activation)  (None, 16, 16, 512)       0         
_________________________________________________________________
dropout_629 (Dropout)        (None, 16, 16, 512)       0         
_________________________________________________________________
conv2d_474 (Conv2D)          (None, 16, 16, 16)        73744     
_________________________________________________________________
batch_normalization_291 (Bat (None, 16, 16, 16)        64        
_________________________________________________________________
activation_630 (Activation)  (None, 16, 16, 16)        0         
_________________________________________________________________
dropout_630 (Dropout)        (None, 16, 16, 16)        0         
_________________________________________________________________
max_pooling2d_175 (MaxPoolin (None, 8, 8, 16)          0         
_________________________________________________________________
conv2d_475 (Conv2D)          (None, 8, 8, 8)           1160      
_________________________________________________________________
activation_631 (Activation)  (None, 8, 8, 8)           0         
_________________________________________________________________
dropout_631 (Dropout)        (None, 8, 8, 8)           0         
_________________________________________________________________
max_pooling2d_176 (MaxPoolin (None, 4, 4, 8)           0         
_________________________________________________________________
conv2d_476 (Conv2D)          (None, 4, 4, 1024)        74752     
_________________________________________________________________
activation_632 (Activation)  (None, 4, 4, 1024)        0         
_________________________________________________________________
dropout_632 (Dropout)        (None, 4, 4, 1024)        0         
_________________________________________________________________
flatten_88 (Flatten)         (None, 16384)             0         
_________________________________________________________________
dense_244 (Dense)            (None, 512)               8389120   
_________________________________________________________________
activation_633 (Activation)  (None, 512)               0         
_________________________________________________________________
dropout_633 (Dropout)        (None, 512)               0         
_________________________________________________________________
dense_245 (Dense)            (None, 10)                5130      
=================================================================
Total params: 9,734,370
Trainable params: 9,732,802
Non-trainable params: 1,568
_________________________________________________________________
