Model: "sequential_255"
_________________________________________________________________
Layer (type)                 Output Shape              Param #   
=================================================================
conv2d_1518 (Conv2D)         (None, 32, 32, 16)        448       
_________________________________________________________________
activation_1870 (Activation) (None, 32, 32, 16)        0         
_________________________________________________________________
dropout_1870 (Dropout)       (None, 32, 32, 16)        0         
_________________________________________________________________
conv2d_1519 (Conv2D)         (None, 32, 32, 128)       18560     
_________________________________________________________________
batch_normalization_752 (Bat (None, 32, 32, 128)       512       
_________________________________________________________________
activation_1871 (Activation) (None, 32, 32, 128)       0         
_________________________________________________________________
dropout_1871 (Dropout)       (None, 32, 32, 128)       0         
_________________________________________________________________
max_pooling2d_477 (MaxPoolin (None, 16, 16, 128)       0         
_________________________________________________________________
conv2d_1520 (Conv2D)         (None, 16, 16, 128)       147584    
_________________________________________________________________
activation_1872 (Activation) (None, 16, 16, 128)       0         
_________________________________________________________________
dropout_1872 (Dropout)       (None, 16, 16, 128)       0         
_________________________________________________________________
max_pooling2d_478 (MaxPoolin (None, 8, 8, 128)         0         
_________________________________________________________________
conv2d_1521 (Conv2D)         (None, 8, 8, 32)          36896     
_________________________________________________________________
activation_1873 (Activation) (None, 8, 8, 32)          0         
_________________________________________________________________
dropout_1873 (Dropout)       (None, 8, 8, 32)          0         
_________________________________________________________________
conv2d_1522 (Conv2D)         (None, 8, 8, 256)         73984     
_________________________________________________________________
activation_1874 (Activation) (None, 8, 8, 256)         0         
_________________________________________________________________
dropout_1874 (Dropout)       (None, 8, 8, 256)         0         
_________________________________________________________________
conv2d_1523 (Conv2D)         (None, 8, 8, 128)         295040    
_________________________________________________________________
activation_1875 (Activation) (None, 8, 8, 128)         0         
_________________________________________________________________
dropout_1875 (Dropout)       (None, 8, 8, 128)         0         
_________________________________________________________________
conv2d_1524 (Conv2D)         (None, 8, 8, 16)          18448     
_________________________________________________________________
batch_normalization_753 (Bat (None, 8, 8, 16)          64        
_________________________________________________________________
activation_1876 (Activation) (None, 8, 8, 16)          0         
_________________________________________________________________
dropout_1876 (Dropout)       (None, 8, 8, 16)          0         
_________________________________________________________________
flatten_255 (Flatten)        (None, 1024)              0         
_________________________________________________________________
dense_607 (Dense)            (None, 128)               131200    
_________________________________________________________________
activation_1877 (Activation) (None, 128)               0         
_________________________________________________________________
dropout_1877 (Dropout)       (None, 128)               0         
_________________________________________________________________
dense_608 (Dense)            (None, 10)                1290      
=================================================================
Total params: 724,026
Trainable params: 723,738
Non-trainable params: 288
_________________________________________________________________
