Model: "sequential_256"
_________________________________________________________________
Layer (type)                 Output Shape              Param #   
=================================================================
conv2d_1525 (Conv2D)         (None, 32, 32, 16)        448       
_________________________________________________________________
batch_normalization_754 (Bat (None, 32, 32, 16)        64        
_________________________________________________________________
activation_1878 (Activation) (None, 32, 32, 16)        0         
_________________________________________________________________
dropout_1878 (Dropout)       (None, 32, 32, 16)        0         
_________________________________________________________________
conv2d_1526 (Conv2D)         (None, 32, 32, 512)       74240     
_________________________________________________________________
batch_normalization_755 (Bat (None, 32, 32, 512)       2048      
_________________________________________________________________
activation_1879 (Activation) (None, 32, 32, 512)       0         
_________________________________________________________________
dropout_1879 (Dropout)       (None, 32, 32, 512)       0         
_________________________________________________________________
conv2d_1527 (Conv2D)         (None, 32, 32, 128)       589952    
_________________________________________________________________
activation_1880 (Activation) (None, 32, 32, 128)       0         
_________________________________________________________________
dropout_1880 (Dropout)       (None, 32, 32, 128)       0         
_________________________________________________________________
max_pooling2d_479 (MaxPoolin (None, 16, 16, 128)       0         
_________________________________________________________________
conv2d_1528 (Conv2D)         (None, 16, 16, 512)       590336    
_________________________________________________________________
batch_normalization_756 (Bat (None, 16, 16, 512)       2048      
_________________________________________________________________
activation_1881 (Activation) (None, 16, 16, 512)       0         
_________________________________________________________________
dropout_1881 (Dropout)       (None, 16, 16, 512)       0         
_________________________________________________________________
conv2d_1529 (Conv2D)         (None, 16, 16, 256)       1179904   
_________________________________________________________________
activation_1882 (Activation) (None, 16, 16, 256)       0         
_________________________________________________________________
dropout_1882 (Dropout)       (None, 16, 16, 256)       0         
_________________________________________________________________
conv2d_1530 (Conv2D)         (None, 16, 16, 128)       295040    
_________________________________________________________________
activation_1883 (Activation) (None, 16, 16, 128)       0         
_________________________________________________________________
dropout_1883 (Dropout)       (None, 16, 16, 128)       0         
_________________________________________________________________
conv2d_1531 (Conv2D)         (None, 16, 16, 16)        18448     
_________________________________________________________________
batch_normalization_757 (Bat (None, 16, 16, 16)        64        
_________________________________________________________________
activation_1884 (Activation) (None, 16, 16, 16)        0         
_________________________________________________________________
dropout_1884 (Dropout)       (None, 16, 16, 16)        0         
_________________________________________________________________
flatten_256 (Flatten)        (None, 4096)              0         
_________________________________________________________________
dense_609 (Dense)            (None, 128)               524416    
_________________________________________________________________
activation_1885 (Activation) (None, 128)               0         
_________________________________________________________________
dropout_1885 (Dropout)       (None, 128)               0         
_________________________________________________________________
dense_610 (Dense)            (None, 10)                1290      
=================================================================
Total params: 3,278,298
Trainable params: 3,276,186
Non-trainable params: 2,112
_________________________________________________________________
