Model: "sequential_78"
_________________________________________________________________
Layer (type)                 Output Shape              Param #   
=================================================================
conv2d_417 (Conv2D)          (None, 32, 32, 256)       7168      
_________________________________________________________________
batch_normalization_266 (Bat (None, 32, 32, 256)       1024      
_________________________________________________________________
activation_555 (Activation)  (None, 32, 32, 256)       0         
_________________________________________________________________
dropout_555 (Dropout)        (None, 32, 32, 256)       0         
_________________________________________________________________
max_pooling2d_155 (MaxPoolin (None, 16, 16, 256)       0         
_________________________________________________________________
conv2d_418 (Conv2D)          (None, 16, 16, 128)       295040    
_________________________________________________________________
activation_556 (Activation)  (None, 16, 16, 128)       0         
_________________________________________________________________
dropout_556 (Dropout)        (None, 16, 16, 128)       0         
_________________________________________________________________
max_pooling2d_156 (MaxPoolin (None, 8, 8, 128)         0         
_________________________________________________________________
conv2d_419 (Conv2D)          (None, 8, 8, 32)          36896     
_________________________________________________________________
activation_557 (Activation)  (None, 8, 8, 32)          0         
_________________________________________________________________
dropout_557 (Dropout)        (None, 8, 8, 32)          0         
_________________________________________________________________
conv2d_420 (Conv2D)          (None, 8, 8, 32)          9248      
_________________________________________________________________
activation_558 (Activation)  (None, 8, 8, 32)          0         
_________________________________________________________________
dropout_558 (Dropout)        (None, 8, 8, 32)          0         
_________________________________________________________________
max_pooling2d_157 (MaxPoolin (None, 4, 4, 32)          0         
_________________________________________________________________
conv2d_421 (Conv2D)          (None, 4, 4, 512)         147968    
_________________________________________________________________
activation_559 (Activation)  (None, 4, 4, 512)         0         
_________________________________________________________________
dropout_559 (Dropout)        (None, 4, 4, 512)         0         
_________________________________________________________________
flatten_78 (Flatten)         (None, 8192)              0         
_________________________________________________________________
dense_216 (Dense)            (None, 16)                131088    
_________________________________________________________________
activation_560 (Activation)  (None, 16)                0         
_________________________________________________________________
dropout_560 (Dropout)        (None, 16)                0         
_________________________________________________________________
dense_217 (Dense)            (None, 32)                544       
_________________________________________________________________
activation_561 (Activation)  (None, 32)                0         
_________________________________________________________________
dropout_561 (Dropout)        (None, 32)                0         
_________________________________________________________________
dense_218 (Dense)            (None, 10)                330       
=================================================================
Total params: 629,306
Trainable params: 628,794
Non-trainable params: 512
_________________________________________________________________
