Model: "sequential_31"
_________________________________________________________________
Layer (type)                 Output Shape              Param #   
=================================================================
conv2d_167 (Conv2D)          (None, 32, 32, 256)       7168      
_________________________________________________________________
batch_normalization_111 (Bat (None, 32, 32, 256)       1024      
_________________________________________________________________
activation_223 (Activation)  (None, 32, 32, 256)       0         
_________________________________________________________________
dropout_223 (Dropout)        (None, 32, 32, 256)       0         
_________________________________________________________________
max_pooling2d_61 (MaxPooling (None, 16, 16, 256)       0         
_________________________________________________________________
conv2d_168 (Conv2D)          (None, 16, 16, 128)       295040    
_________________________________________________________________
batch_normalization_112 (Bat (None, 16, 16, 128)       512       
_________________________________________________________________
activation_224 (Activation)  (None, 16, 16, 128)       0         
_________________________________________________________________
dropout_224 (Dropout)        (None, 16, 16, 128)       0         
_________________________________________________________________
max_pooling2d_62 (MaxPooling (None, 8, 8, 128)         0         
_________________________________________________________________
conv2d_169 (Conv2D)          (None, 8, 8, 8)           9224      
_________________________________________________________________
activation_225 (Activation)  (None, 8, 8, 8)           0         
_________________________________________________________________
dropout_225 (Dropout)        (None, 8, 8, 8)           0         
_________________________________________________________________
max_pooling2d_63 (MaxPooling (None, 4, 4, 8)           0         
_________________________________________________________________
conv2d_170 (Conv2D)          (None, 4, 4, 1024)        74752     
_________________________________________________________________
activation_226 (Activation)  (None, 4, 4, 1024)        0         
_________________________________________________________________
dropout_226 (Dropout)        (None, 4, 4, 1024)        0         
_________________________________________________________________
flatten_31 (Flatten)         (None, 16384)             0         
_________________________________________________________________
dense_87 (Dense)             (None, 16)                262160    
_________________________________________________________________
activation_227 (Activation)  (None, 16)                0         
_________________________________________________________________
dropout_227 (Dropout)        (None, 16)                0         
_________________________________________________________________
dense_88 (Dense)             (None, 10)                170       
=================================================================
Total params: 650,050
Trainable params: 649,282
Non-trainable params: 768
_________________________________________________________________
