Model: "sequential_352"
_________________________________________________________________
Layer (type)                 Output Shape              Param #   
=================================================================
conv2d_2160 (Conv2D)         (None, 32, 32, 16)        448       
_________________________________________________________________
batch_normalization_1049 (Ba (None, 32, 32, 16)        64        
_________________________________________________________________
activation_2598 (Activation) (None, 32, 32, 16)        0         
_________________________________________________________________
dropout_2598 (Dropout)       (None, 32, 32, 16)        0         
_________________________________________________________________
conv2d_2161 (Conv2D)         (None, 32, 32, 128)       18560     
_________________________________________________________________
activation_2599 (Activation) (None, 32, 32, 128)       0         
_________________________________________________________________
dropout_2599 (Dropout)       (None, 32, 32, 128)       0         
_________________________________________________________________
max_pooling2d_640 (MaxPoolin (None, 16, 16, 128)       0         
_________________________________________________________________
conv2d_2162 (Conv2D)         (None, 16, 16, 512)       590336    
_________________________________________________________________
activation_2600 (Activation) (None, 16, 16, 512)       0         
_________________________________________________________________
dropout_2600 (Dropout)       (None, 16, 16, 512)       0         
_________________________________________________________________
conv2d_2163 (Conv2D)         (None, 16, 16, 256)       1179904   
_________________________________________________________________
activation_2601 (Activation) (None, 16, 16, 256)       0         
_________________________________________________________________
dropout_2601 (Dropout)       (None, 16, 16, 256)       0         
_________________________________________________________________
conv2d_2164 (Conv2D)         (None, 16, 16, 128)       295040    
_________________________________________________________________
activation_2602 (Activation) (None, 16, 16, 128)       0         
_________________________________________________________________
dropout_2602 (Dropout)       (None, 16, 16, 128)       0         
_________________________________________________________________
conv2d_2165 (Conv2D)         (None, 16, 16, 16)        18448     
_________________________________________________________________
batch_normalization_1050 (Ba (None, 16, 16, 16)        64        
_________________________________________________________________
activation_2603 (Activation) (None, 16, 16, 16)        0         
_________________________________________________________________
dropout_2603 (Dropout)       (None, 16, 16, 16)        0         
_________________________________________________________________
flatten_352 (Flatten)        (None, 4096)              0         
_________________________________________________________________
dense_790 (Dense)            (None, 128)               524416    
_________________________________________________________________
activation_2604 (Activation) (None, 128)               0         
_________________________________________________________________
dropout_2604 (Dropout)       (None, 128)               0         
_________________________________________________________________
dense_791 (Dense)            (None, 10)                1290      
=================================================================
Total params: 2,628,570
Trainable params: 2,628,506
Non-trainable params: 64
_________________________________________________________________
