Model: "sequential_363"
_________________________________________________________________
Layer (type)                 Output Shape              Param #   
=================================================================
conv2d_2230 (Conv2D)         (None, 32, 32, 16)        448       
_________________________________________________________________
batch_normalization_1074 (Ba (None, 32, 32, 16)        64        
_________________________________________________________________
activation_2676 (Activation) (None, 32, 32, 16)        0         
_________________________________________________________________
dropout_2676 (Dropout)       (None, 32, 32, 16)        0         
_________________________________________________________________
conv2d_2231 (Conv2D)         (None, 32, 32, 128)       18560     
_________________________________________________________________
activation_2677 (Activation) (None, 32, 32, 128)       0         
_________________________________________________________________
dropout_2677 (Dropout)       (None, 32, 32, 128)       0         
_________________________________________________________________
max_pooling2d_656 (MaxPoolin (None, 16, 16, 128)       0         
_________________________________________________________________
conv2d_2232 (Conv2D)         (None, 16, 16, 32)        36896     
_________________________________________________________________
activation_2678 (Activation) (None, 16, 16, 32)        0         
_________________________________________________________________
dropout_2678 (Dropout)       (None, 16, 16, 32)        0         
_________________________________________________________________
conv2d_2233 (Conv2D)         (None, 16, 16, 128)       36992     
_________________________________________________________________
activation_2679 (Activation) (None, 16, 16, 128)       0         
_________________________________________________________________
dropout_2679 (Dropout)       (None, 16, 16, 128)       0         
_________________________________________________________________
conv2d_2234 (Conv2D)         (None, 16, 16, 16)        18448     
_________________________________________________________________
batch_normalization_1075 (Ba (None, 16, 16, 16)        64        
_________________________________________________________________
activation_2680 (Activation) (None, 16, 16, 16)        0         
_________________________________________________________________
dropout_2680 (Dropout)       (None, 16, 16, 16)        0         
_________________________________________________________________
flatten_363 (Flatten)        (None, 4096)              0         
_________________________________________________________________
dense_809 (Dense)            (None, 128)               524416    
_________________________________________________________________
activation_2681 (Activation) (None, 128)               0         
_________________________________________________________________
dropout_2681 (Dropout)       (None, 128)               0         
_________________________________________________________________
dense_810 (Dense)            (None, 10)                1290      
=================================================================
Total params: 637,178
Trainable params: 637,114
Non-trainable params: 64
_________________________________________________________________
