Model: "sequential_26"
_________________________________________________________________
Layer (type)                 Output Shape              Param #   
=================================================================
conv2d_143 (Conv2D)          (None, 32, 32, 8)         224       
_________________________________________________________________
batch_normalization_97 (Batc (None, 32, 32, 8)         32        
_________________________________________________________________
activation_190 (Activation)  (None, 32, 32, 8)         0         
_________________________________________________________________
dropout_190 (Dropout)        (None, 32, 32, 8)         0         
_________________________________________________________________
conv2d_144 (Conv2D)          (None, 32, 32, 512)       37376     
_________________________________________________________________
batch_normalization_98 (Batc (None, 32, 32, 512)       2048      
_________________________________________________________________
activation_191 (Activation)  (None, 32, 32, 512)       0         
_________________________________________________________________
dropout_191 (Dropout)        (None, 32, 32, 512)       0         
_________________________________________________________________
max_pooling2d_51 (MaxPooling (None, 16, 16, 512)       0         
_________________________________________________________________
conv2d_145 (Conv2D)          (None, 16, 16, 64)        294976    
_________________________________________________________________
activation_192 (Activation)  (None, 16, 16, 64)        0         
_________________________________________________________________
dropout_192 (Dropout)        (None, 16, 16, 64)        0         
_________________________________________________________________
conv2d_146 (Conv2D)          (None, 16, 16, 256)       147712    
_________________________________________________________________
batch_normalization_99 (Batc (None, 16, 16, 256)       1024      
_________________________________________________________________
activation_193 (Activation)  (None, 16, 16, 256)       0         
_________________________________________________________________
dropout_193 (Dropout)        (None, 16, 16, 256)       0         
_________________________________________________________________
max_pooling2d_52 (MaxPooling (None, 8, 8, 256)         0         
_________________________________________________________________
flatten_26 (Flatten)         (None, 16384)             0         
_________________________________________________________________
dense_73 (Dense)             (None, 128)               2097280   
_________________________________________________________________
batch_normalization_100 (Bat (None, 128)               512       
_________________________________________________________________
activation_194 (Activation)  (None, 128)               0         
_________________________________________________________________
dropout_194 (Dropout)        (None, 128)               0         
_________________________________________________________________
dense_74 (Dense)             (None, 32)                4128      
_________________________________________________________________
activation_195 (Activation)  (None, 32)                0         
_________________________________________________________________
dropout_195 (Dropout)        (None, 32)                0         
_________________________________________________________________
dense_75 (Dense)             (None, 128)               4224      
_________________________________________________________________
batch_normalization_101 (Bat (None, 128)               512       
_________________________________________________________________
activation_196 (Activation)  (None, 128)               0         
_________________________________________________________________
dropout_196 (Dropout)        (None, 128)               0         
_________________________________________________________________
dense_76 (Dense)             (None, 10)                1290      
=================================================================
Total params: 2,591,338
Trainable params: 2,589,274
Non-trainable params: 2,064
_________________________________________________________________
