Model: "sequential_198"
_________________________________________________________________
Layer (type)                 Output Shape              Param #   
=================================================================
conv2d_1130 (Conv2D)         (None, 32, 32, 16)        448       
_________________________________________________________________
activation_1431 (Activation) (None, 32, 32, 16)        0         
_________________________________________________________________
dropout_1431 (Dropout)       (None, 32, 32, 16)        0         
_________________________________________________________________
conv2d_1131 (Conv2D)         (None, 32, 32, 128)       18560     
_________________________________________________________________
batch_normalization_569 (Bat (None, 32, 32, 128)       512       
_________________________________________________________________
activation_1432 (Activation) (None, 32, 32, 128)       0         
_________________________________________________________________
dropout_1432 (Dropout)       (None, 32, 32, 128)       0         
_________________________________________________________________
max_pooling2d_368 (MaxPoolin (None, 16, 16, 128)       0         
_________________________________________________________________
conv2d_1132 (Conv2D)         (None, 16, 16, 128)       147584    
_________________________________________________________________
activation_1433 (Activation) (None, 16, 16, 128)       0         
_________________________________________________________________
dropout_1433 (Dropout)       (None, 16, 16, 128)       0         
_________________________________________________________________
max_pooling2d_369 (MaxPoolin (None, 8, 8, 128)         0         
_________________________________________________________________
conv2d_1133 (Conv2D)         (None, 8, 8, 32)          36896     
_________________________________________________________________
activation_1434 (Activation) (None, 8, 8, 32)          0         
_________________________________________________________________
dropout_1434 (Dropout)       (None, 8, 8, 32)          0         
_________________________________________________________________
conv2d_1134 (Conv2D)         (None, 8, 8, 32)          9248      
_________________________________________________________________
activation_1435 (Activation) (None, 8, 8, 32)          0         
_________________________________________________________________
dropout_1435 (Dropout)       (None, 8, 8, 32)          0         
_________________________________________________________________
conv2d_1135 (Conv2D)         (None, 8, 8, 128)         36992     
_________________________________________________________________
activation_1436 (Activation) (None, 8, 8, 128)         0         
_________________________________________________________________
dropout_1436 (Dropout)       (None, 8, 8, 128)         0         
_________________________________________________________________
conv2d_1136 (Conv2D)         (None, 8, 8, 16)          18448     
_________________________________________________________________
batch_normalization_570 (Bat (None, 8, 8, 16)          64        
_________________________________________________________________
activation_1437 (Activation) (None, 8, 8, 16)          0         
_________________________________________________________________
dropout_1437 (Dropout)       (None, 8, 8, 16)          0         
_________________________________________________________________
flatten_198 (Flatten)        (None, 1024)              0         
_________________________________________________________________
dense_499 (Dense)            (None, 128)               131200    
_________________________________________________________________
activation_1438 (Activation) (None, 128)               0         
_________________________________________________________________
dropout_1438 (Dropout)       (None, 128)               0         
_________________________________________________________________
dense_500 (Dense)            (None, 10)                1290      
=================================================================
Total params: 401,242
Trainable params: 400,954
Non-trainable params: 288
_________________________________________________________________
