Model: "sequential_239"
_________________________________________________________________
Layer (type)                 Output Shape              Param #   
=================================================================
conv2d_1410 (Conv2D)         (None, 32, 32, 16)        448       
_________________________________________________________________
activation_1749 (Activation) (None, 32, 32, 16)        0         
_________________________________________________________________
dropout_1749 (Dropout)       (None, 32, 32, 16)        0         
_________________________________________________________________
conv2d_1411 (Conv2D)         (None, 32, 32, 512)       74240     
_________________________________________________________________
batch_normalization_697 (Bat (None, 32, 32, 512)       2048      
_________________________________________________________________
activation_1750 (Activation) (None, 32, 32, 512)       0         
_________________________________________________________________
dropout_1750 (Dropout)       (None, 32, 32, 512)       0         
_________________________________________________________________
max_pooling2d_446 (MaxPoolin (None, 16, 16, 512)       0         
_________________________________________________________________
conv2d_1412 (Conv2D)         (None, 16, 16, 128)       589952    
_________________________________________________________________
activation_1751 (Activation) (None, 16, 16, 128)       0         
_________________________________________________________________
dropout_1751 (Dropout)       (None, 16, 16, 128)       0         
_________________________________________________________________
max_pooling2d_447 (MaxPoolin (None, 8, 8, 128)         0         
_________________________________________________________________
conv2d_1413 (Conv2D)         (None, 8, 8, 512)         590336    
_________________________________________________________________
batch_normalization_698 (Bat (None, 8, 8, 512)         2048      
_________________________________________________________________
activation_1752 (Activation) (None, 8, 8, 512)         0         
_________________________________________________________________
dropout_1752 (Dropout)       (None, 8, 8, 512)         0         
_________________________________________________________________
conv2d_1414 (Conv2D)         (None, 8, 8, 256)         1179904   
_________________________________________________________________
activation_1753 (Activation) (None, 8, 8, 256)         0         
_________________________________________________________________
dropout_1753 (Dropout)       (None, 8, 8, 256)         0         
_________________________________________________________________
conv2d_1415 (Conv2D)         (None, 8, 8, 128)         295040    
_________________________________________________________________
activation_1754 (Activation) (None, 8, 8, 128)         0         
_________________________________________________________________
dropout_1754 (Dropout)       (None, 8, 8, 128)         0         
_________________________________________________________________
conv2d_1416 (Conv2D)         (None, 8, 8, 16)          18448     
_________________________________________________________________
batch_normalization_699 (Bat (None, 8, 8, 16)          64        
_________________________________________________________________
activation_1755 (Activation) (None, 8, 8, 16)          0         
_________________________________________________________________
dropout_1755 (Dropout)       (None, 8, 8, 16)          0         
_________________________________________________________________
flatten_239 (Flatten)        (None, 1024)              0         
_________________________________________________________________
dense_578 (Dense)            (None, 128)               131200    
_________________________________________________________________
activation_1756 (Activation) (None, 128)               0         
_________________________________________________________________
dropout_1756 (Dropout)       (None, 128)               0         
_________________________________________________________________
dense_579 (Dense)            (None, 10)                1290      
=================================================================
Total params: 2,885,018
Trainable params: 2,882,938
Non-trainable params: 2,080
_________________________________________________________________
