Model: "sequential_351"
_________________________________________________________________
Layer (type)                 Output Shape              Param #   
=================================================================
conv2d_2155 (Conv2D)         (None, 32, 32, 16)        448       
_________________________________________________________________
batch_normalization_1047 (Ba (None, 32, 32, 16)        64        
_________________________________________________________________
activation_2592 (Activation) (None, 32, 32, 16)        0         
_________________________________________________________________
dropout_2592 (Dropout)       (None, 32, 32, 16)        0         
_________________________________________________________________
conv2d_2156 (Conv2D)         (None, 32, 32, 128)       18560     
_________________________________________________________________
activation_2593 (Activation) (None, 32, 32, 128)       0         
_________________________________________________________________
dropout_2593 (Dropout)       (None, 32, 32, 128)       0         
_________________________________________________________________
max_pooling2d_639 (MaxPoolin (None, 16, 16, 128)       0         
_________________________________________________________________
conv2d_2157 (Conv2D)         (None, 16, 16, 32)        36896     
_________________________________________________________________
activation_2594 (Activation) (None, 16, 16, 32)        0         
_________________________________________________________________
dropout_2594 (Dropout)       (None, 16, 16, 32)        0         
_________________________________________________________________
conv2d_2158 (Conv2D)         (None, 16, 16, 128)       36992     
_________________________________________________________________
activation_2595 (Activation) (None, 16, 16, 128)       0         
_________________________________________________________________
dropout_2595 (Dropout)       (None, 16, 16, 128)       0         
_________________________________________________________________
conv2d_2159 (Conv2D)         (None, 16, 16, 16)        18448     
_________________________________________________________________
batch_normalization_1048 (Ba (None, 16, 16, 16)        64        
_________________________________________________________________
activation_2596 (Activation) (None, 16, 16, 16)        0         
_________________________________________________________________
dropout_2596 (Dropout)       (None, 16, 16, 16)        0         
_________________________________________________________________
flatten_351 (Flatten)        (None, 4096)              0         
_________________________________________________________________
dense_788 (Dense)            (None, 128)               524416    
_________________________________________________________________
activation_2597 (Activation) (None, 128)               0         
_________________________________________________________________
dropout_2597 (Dropout)       (None, 128)               0         
_________________________________________________________________
dense_789 (Dense)            (None, 10)                1290      
=================================================================
Total params: 637,178
Trainable params: 637,114
Non-trainable params: 64
_________________________________________________________________
