Model: "sequential_37"
_________________________________________________________________
Layer (type)                 Output Shape              Param #   
=================================================================
conv2d_200 (Conv2D)          (None, 32, 32, 8)         224       
_________________________________________________________________
batch_normalization_137 (Bat (None, 32, 32, 8)         32        
_________________________________________________________________
activation_268 (Activation)  (None, 32, 32, 8)         0         
_________________________________________________________________
dropout_268 (Dropout)        (None, 32, 32, 8)         0         
_________________________________________________________________
conv2d_201 (Conv2D)          (None, 32, 32, 512)       37376     
_________________________________________________________________
batch_normalization_138 (Bat (None, 32, 32, 512)       2048      
_________________________________________________________________
activation_269 (Activation)  (None, 32, 32, 512)       0         
_________________________________________________________________
dropout_269 (Dropout)        (None, 32, 32, 512)       0         
_________________________________________________________________
max_pooling2d_75 (MaxPooling (None, 16, 16, 512)       0         
_________________________________________________________________
conv2d_202 (Conv2D)          (None, 16, 16, 32)        147488    
_________________________________________________________________
batch_normalization_139 (Bat (None, 16, 16, 32)        128       
_________________________________________________________________
activation_270 (Activation)  (None, 16, 16, 32)        0         
_________________________________________________________________
dropout_270 (Dropout)        (None, 16, 16, 32)        0         
_________________________________________________________________
max_pooling2d_76 (MaxPooling (None, 8, 8, 32)          0         
_________________________________________________________________
conv2d_203 (Conv2D)          (None, 8, 8, 256)         73984     
_________________________________________________________________
activation_271 (Activation)  (None, 8, 8, 256)         0         
_________________________________________________________________
dropout_271 (Dropout)        (None, 8, 8, 256)         0         
_________________________________________________________________
conv2d_204 (Conv2D)          (None, 8, 8, 128)         295040    
_________________________________________________________________
activation_272 (Activation)  (None, 8, 8, 128)         0         
_________________________________________________________________
dropout_272 (Dropout)        (None, 8, 8, 128)         0         
_________________________________________________________________
conv2d_205 (Conv2D)          (None, 8, 8, 16)          18448     
_________________________________________________________________
batch_normalization_140 (Bat (None, 8, 8, 16)          64        
_________________________________________________________________
activation_273 (Activation)  (None, 8, 8, 16)          0         
_________________________________________________________________
dropout_273 (Dropout)        (None, 8, 8, 16)          0         
_________________________________________________________________
flatten_37 (Flatten)         (None, 1024)              0         
_________________________________________________________________
dense_105 (Dense)            (None, 128)               131200    
_________________________________________________________________
activation_274 (Activation)  (None, 128)               0         
_________________________________________________________________
dropout_274 (Dropout)        (None, 128)               0         
_________________________________________________________________
dense_106 (Dense)            (None, 10)                1290      
=================================================================
Total params: 707,322
Trainable params: 706,186
Non-trainable params: 1,136
_________________________________________________________________
