Model: "sequential_230"
_________________________________________________________________
Layer (type)                 Output Shape              Param #   
=================================================================
conv2d_1348 (Conv2D)         (None, 32, 32, 256)       7168      
_________________________________________________________________
batch_normalization_668 (Bat (None, 32, 32, 256)       1024      
_________________________________________________________________
activation_1678 (Activation) (None, 32, 32, 256)       0         
_________________________________________________________________
dropout_1678 (Dropout)       (None, 32, 32, 256)       0         
_________________________________________________________________
conv2d_1349 (Conv2D)         (None, 32, 32, 512)       1180160   
_________________________________________________________________
batch_normalization_669 (Bat (None, 32, 32, 512)       2048      
_________________________________________________________________
activation_1679 (Activation) (None, 32, 32, 512)       0         
_________________________________________________________________
dropout_1679 (Dropout)       (None, 32, 32, 512)       0         
_________________________________________________________________
max_pooling2d_430 (MaxPoolin (None, 16, 16, 512)       0         
_________________________________________________________________
conv2d_1350 (Conv2D)         (None, 16, 16, 128)       589952    
_________________________________________________________________
activation_1680 (Activation) (None, 16, 16, 128)       0         
_________________________________________________________________
dropout_1680 (Dropout)       (None, 16, 16, 128)       0         
_________________________________________________________________
max_pooling2d_431 (MaxPoolin (None, 8, 8, 128)         0         
_________________________________________________________________
conv2d_1351 (Conv2D)         (None, 8, 8, 512)         590336    
_________________________________________________________________
batch_normalization_670 (Bat (None, 8, 8, 512)         2048      
_________________________________________________________________
activation_1681 (Activation) (None, 8, 8, 512)         0         
_________________________________________________________________
dropout_1681 (Dropout)       (None, 8, 8, 512)         0         
_________________________________________________________________
conv2d_1352 (Conv2D)         (None, 8, 8, 256)         1179904   
_________________________________________________________________
activation_1682 (Activation) (None, 8, 8, 256)         0         
_________________________________________________________________
dropout_1682 (Dropout)       (None, 8, 8, 256)         0         
_________________________________________________________________
conv2d_1353 (Conv2D)         (None, 8, 8, 128)         295040    
_________________________________________________________________
activation_1683 (Activation) (None, 8, 8, 128)         0         
_________________________________________________________________
dropout_1683 (Dropout)       (None, 8, 8, 128)         0         
_________________________________________________________________
conv2d_1354 (Conv2D)         (None, 8, 8, 16)          18448     
_________________________________________________________________
batch_normalization_671 (Bat (None, 8, 8, 16)          64        
_________________________________________________________________
activation_1684 (Activation) (None, 8, 8, 16)          0         
_________________________________________________________________
dropout_1684 (Dropout)       (None, 8, 8, 16)          0         
_________________________________________________________________
flatten_230 (Flatten)        (None, 1024)              0         
_________________________________________________________________
dense_560 (Dense)            (None, 128)               131200    
_________________________________________________________________
activation_1685 (Activation) (None, 128)               0         
_________________________________________________________________
dropout_1685 (Dropout)       (None, 128)               0         
_________________________________________________________________
dense_561 (Dense)            (None, 10)                1290      
=================================================================
Total params: 3,998,682
Trainable params: 3,996,090
Non-trainable params: 2,592
_________________________________________________________________
