Model: "sequential_221"
_________________________________________________________________
Layer (type)                 Output Shape              Param #   
=================================================================
conv2d_1286 (Conv2D)         (None, 32, 32, 16)        448       
_________________________________________________________________
batch_normalization_637 (Bat (None, 32, 32, 16)        64        
_________________________________________________________________
activation_1609 (Activation) (None, 32, 32, 16)        0         
_________________________________________________________________
dropout_1609 (Dropout)       (None, 32, 32, 16)        0         
_________________________________________________________________
conv2d_1287 (Conv2D)         (None, 32, 32, 512)       74240     
_________________________________________________________________
batch_normalization_638 (Bat (None, 32, 32, 512)       2048      
_________________________________________________________________
activation_1610 (Activation) (None, 32, 32, 512)       0         
_________________________________________________________________
dropout_1610 (Dropout)       (None, 32, 32, 512)       0         
_________________________________________________________________
conv2d_1288 (Conv2D)         (None, 32, 32, 128)       589952    
_________________________________________________________________
activation_1611 (Activation) (None, 32, 32, 128)       0         
_________________________________________________________________
dropout_1611 (Dropout)       (None, 32, 32, 128)       0         
_________________________________________________________________
max_pooling2d_411 (MaxPoolin (None, 16, 16, 128)       0         
_________________________________________________________________
conv2d_1289 (Conv2D)         (None, 16, 16, 512)       590336    
_________________________________________________________________
batch_normalization_639 (Bat (None, 16, 16, 512)       2048      
_________________________________________________________________
activation_1612 (Activation) (None, 16, 16, 512)       0         
_________________________________________________________________
dropout_1612 (Dropout)       (None, 16, 16, 512)       0         
_________________________________________________________________
conv2d_1290 (Conv2D)         (None, 16, 16, 256)       1179904   
_________________________________________________________________
activation_1613 (Activation) (None, 16, 16, 256)       0         
_________________________________________________________________
dropout_1613 (Dropout)       (None, 16, 16, 256)       0         
_________________________________________________________________
conv2d_1291 (Conv2D)         (None, 16, 16, 128)       295040    
_________________________________________________________________
activation_1614 (Activation) (None, 16, 16, 128)       0         
_________________________________________________________________
dropout_1614 (Dropout)       (None, 16, 16, 128)       0         
_________________________________________________________________
conv2d_1292 (Conv2D)         (None, 16, 16, 16)        18448     
_________________________________________________________________
batch_normalization_640 (Bat (None, 16, 16, 16)        64        
_________________________________________________________________
activation_1615 (Activation) (None, 16, 16, 16)        0         
_________________________________________________________________
dropout_1615 (Dropout)       (None, 16, 16, 16)        0         
_________________________________________________________________
flatten_221 (Flatten)        (None, 4096)              0         
_________________________________________________________________
dense_544 (Dense)            (None, 128)               524416    
_________________________________________________________________
activation_1616 (Activation) (None, 128)               0         
_________________________________________________________________
dropout_1616 (Dropout)       (None, 128)               0         
_________________________________________________________________
dense_545 (Dense)            (None, 10)                1290      
=================================================================
Total params: 3,278,298
Trainable params: 3,276,186
Non-trainable params: 2,112
_________________________________________________________________
