Model: "sequential_281"
_________________________________________________________________
Layer (type)                 Output Shape              Param #   
=================================================================
conv2d_1695 (Conv2D)         (None, 32, 32, 16)        448       
_________________________________________________________________
batch_normalization_836 (Bat (None, 32, 32, 16)        64        
_________________________________________________________________
activation_2070 (Activation) (None, 32, 32, 16)        0         
_________________________________________________________________
dropout_2070 (Dropout)       (None, 32, 32, 16)        0         
_________________________________________________________________
conv2d_1696 (Conv2D)         (None, 32, 32, 128)       18560     
_________________________________________________________________
batch_normalization_837 (Bat (None, 32, 32, 128)       512       
_________________________________________________________________
activation_2071 (Activation) (None, 32, 32, 128)       0         
_________________________________________________________________
dropout_2071 (Dropout)       (None, 32, 32, 128)       0         
_________________________________________________________________
max_pooling2d_527 (MaxPoolin (None, 16, 16, 128)       0         
_________________________________________________________________
conv2d_1697 (Conv2D)         (None, 16, 16, 128)       147584    
_________________________________________________________________
activation_2072 (Activation) (None, 16, 16, 128)       0         
_________________________________________________________________
dropout_2072 (Dropout)       (None, 16, 16, 128)       0         
_________________________________________________________________
max_pooling2d_528 (MaxPoolin (None, 8, 8, 128)         0         
_________________________________________________________________
conv2d_1698 (Conv2D)         (None, 8, 8, 512)         590336    
_________________________________________________________________
batch_normalization_838 (Bat (None, 8, 8, 512)         2048      
_________________________________________________________________
activation_2073 (Activation) (None, 8, 8, 512)         0         
_________________________________________________________________
dropout_2073 (Dropout)       (None, 8, 8, 512)         0         
_________________________________________________________________
conv2d_1699 (Conv2D)         (None, 8, 8, 256)         1179904   
_________________________________________________________________
activation_2074 (Activation) (None, 8, 8, 256)         0         
_________________________________________________________________
dropout_2074 (Dropout)       (None, 8, 8, 256)         0         
_________________________________________________________________
conv2d_1700 (Conv2D)         (None, 8, 8, 128)         295040    
_________________________________________________________________
activation_2075 (Activation) (None, 8, 8, 128)         0         
_________________________________________________________________
dropout_2075 (Dropout)       (None, 8, 8, 128)         0         
_________________________________________________________________
conv2d_1701 (Conv2D)         (None, 8, 8, 16)          18448     
_________________________________________________________________
batch_normalization_839 (Bat (None, 8, 8, 16)          64        
_________________________________________________________________
activation_2076 (Activation) (None, 8, 8, 16)          0         
_________________________________________________________________
dropout_2076 (Dropout)       (None, 8, 8, 16)          0         
_________________________________________________________________
flatten_281 (Flatten)        (None, 1024)              0         
_________________________________________________________________
dense_656 (Dense)            (None, 128)               131200    
_________________________________________________________________
activation_2077 (Activation) (None, 128)               0         
_________________________________________________________________
dropout_2077 (Dropout)       (None, 128)               0         
_________________________________________________________________
dense_657 (Dense)            (None, 10)                1290      
=================================================================
Total params: 2,385,498
Trainable params: 2,384,154
Non-trainable params: 1,344
_________________________________________________________________
