Model: "sequential_220"
_________________________________________________________________
Layer (type)                 Output Shape              Param #   
=================================================================
conv2d_1279 (Conv2D)         (None, 32, 32, 16)        448       
_________________________________________________________________
batch_normalization_633 (Bat (None, 32, 32, 16)        64        
_________________________________________________________________
activation_1601 (Activation) (None, 32, 32, 16)        0         
_________________________________________________________________
dropout_1601 (Dropout)       (None, 32, 32, 16)        0         
_________________________________________________________________
conv2d_1280 (Conv2D)         (None, 32, 32, 512)       74240     
_________________________________________________________________
batch_normalization_634 (Bat (None, 32, 32, 512)       2048      
_________________________________________________________________
activation_1602 (Activation) (None, 32, 32, 512)       0         
_________________________________________________________________
dropout_1602 (Dropout)       (None, 32, 32, 512)       0         
_________________________________________________________________
max_pooling2d_408 (MaxPoolin (None, 16, 16, 512)       0         
_________________________________________________________________
conv2d_1281 (Conv2D)         (None, 16, 16, 128)       589952    
_________________________________________________________________
activation_1603 (Activation) (None, 16, 16, 128)       0         
_________________________________________________________________
dropout_1603 (Dropout)       (None, 16, 16, 128)       0         
_________________________________________________________________
max_pooling2d_409 (MaxPoolin (None, 8, 8, 128)         0         
_________________________________________________________________
conv2d_1282 (Conv2D)         (None, 8, 8, 512)         590336    
_________________________________________________________________
batch_normalization_635 (Bat (None, 8, 8, 512)         2048      
_________________________________________________________________
activation_1604 (Activation) (None, 8, 8, 512)         0         
_________________________________________________________________
dropout_1604 (Dropout)       (None, 8, 8, 512)         0         
_________________________________________________________________
max_pooling2d_410 (MaxPoolin (None, 4, 4, 512)         0         
_________________________________________________________________
conv2d_1283 (Conv2D)         (None, 4, 4, 256)         1179904   
_________________________________________________________________
activation_1605 (Activation) (None, 4, 4, 256)         0         
_________________________________________________________________
dropout_1605 (Dropout)       (None, 4, 4, 256)         0         
_________________________________________________________________
conv2d_1284 (Conv2D)         (None, 4, 4, 128)         295040    
_________________________________________________________________
activation_1606 (Activation) (None, 4, 4, 128)         0         
_________________________________________________________________
dropout_1606 (Dropout)       (None, 4, 4, 128)         0         
_________________________________________________________________
conv2d_1285 (Conv2D)         (None, 4, 4, 16)          18448     
_________________________________________________________________
batch_normalization_636 (Bat (None, 4, 4, 16)          64        
_________________________________________________________________
activation_1607 (Activation) (None, 4, 4, 16)          0         
_________________________________________________________________
dropout_1607 (Dropout)       (None, 4, 4, 16)          0         
_________________________________________________________________
flatten_220 (Flatten)        (None, 256)               0         
_________________________________________________________________
dense_542 (Dense)            (None, 128)               32896     
_________________________________________________________________
activation_1608 (Activation) (None, 128)               0         
_________________________________________________________________
dropout_1608 (Dropout)       (None, 128)               0         
_________________________________________________________________
dense_543 (Dense)            (None, 10)                1290      
=================================================================
Total params: 2,786,778
Trainable params: 2,784,666
Non-trainable params: 2,112
_________________________________________________________________
