Model: "sequential_216"
_________________________________________________________________
Layer (type)                 Output Shape              Param #   
=================================================================
conv2d_1254 (Conv2D)         (None, 32, 32, 16)        448       
_________________________________________________________________
activation_1572 (Activation) (None, 32, 32, 16)        0         
_________________________________________________________________
dropout_1572 (Dropout)       (None, 32, 32, 16)        0         
_________________________________________________________________
conv2d_1255 (Conv2D)         (None, 32, 32, 128)       18560     
_________________________________________________________________
batch_normalization_627 (Bat (None, 32, 32, 128)       512       
_________________________________________________________________
activation_1573 (Activation) (None, 32, 32, 128)       0         
_________________________________________________________________
dropout_1573 (Dropout)       (None, 32, 32, 128)       0         
_________________________________________________________________
max_pooling2d_402 (MaxPoolin (None, 16, 16, 128)       0         
_________________________________________________________________
conv2d_1256 (Conv2D)         (None, 16, 16, 128)       147584    
_________________________________________________________________
activation_1574 (Activation) (None, 16, 16, 128)       0         
_________________________________________________________________
dropout_1574 (Dropout)       (None, 16, 16, 128)       0         
_________________________________________________________________
max_pooling2d_403 (MaxPoolin (None, 8, 8, 128)         0         
_________________________________________________________________
conv2d_1257 (Conv2D)         (None, 8, 8, 32)          36896     
_________________________________________________________________
activation_1575 (Activation) (None, 8, 8, 32)          0         
_________________________________________________________________
dropout_1575 (Dropout)       (None, 8, 8, 32)          0         
_________________________________________________________________
conv2d_1258 (Conv2D)         (None, 8, 8, 32)          9248      
_________________________________________________________________
activation_1576 (Activation) (None, 8, 8, 32)          0         
_________________________________________________________________
dropout_1576 (Dropout)       (None, 8, 8, 32)          0         
_________________________________________________________________
conv2d_1259 (Conv2D)         (None, 8, 8, 128)         36992     
_________________________________________________________________
activation_1577 (Activation) (None, 8, 8, 128)         0         
_________________________________________________________________
dropout_1577 (Dropout)       (None, 8, 8, 128)         0         
_________________________________________________________________
conv2d_1260 (Conv2D)         (None, 8, 8, 16)          18448     
_________________________________________________________________
activation_1578 (Activation) (None, 8, 8, 16)          0         
_________________________________________________________________
dropout_1578 (Dropout)       (None, 8, 8, 16)          0         
_________________________________________________________________
flatten_216 (Flatten)        (None, 1024)              0         
_________________________________________________________________
dense_534 (Dense)            (None, 128)               131200    
_________________________________________________________________
activation_1579 (Activation) (None, 128)               0         
_________________________________________________________________
dropout_1579 (Dropout)       (None, 128)               0         
_________________________________________________________________
dense_535 (Dense)            (None, 10)                1290      
=================================================================
Total params: 401,178
Trainable params: 400,922
Non-trainable params: 256
_________________________________________________________________
