Model: "sequential_138"
_________________________________________________________________
Layer (type)                 Output Shape              Param #   
=================================================================
conv2d_744 (Conv2D)          (None, 32, 32, 16)        448       
_________________________________________________________________
activation_973 (Activation)  (None, 32, 32, 16)        0         
_________________________________________________________________
dropout_973 (Dropout)        (None, 32, 32, 16)        0         
_________________________________________________________________
conv2d_745 (Conv2D)          (None, 32, 32, 128)       18560     
_________________________________________________________________
batch_normalization_405 (Bat (None, 32, 32, 128)       512       
_________________________________________________________________
activation_974 (Activation)  (None, 32, 32, 128)       0         
_________________________________________________________________
dropout_974 (Dropout)        (None, 32, 32, 128)       0         
_________________________________________________________________
max_pooling2d_266 (MaxPoolin (None, 16, 16, 128)       0         
_________________________________________________________________
conv2d_746 (Conv2D)          (None, 16, 16, 128)       147584    
_________________________________________________________________
activation_975 (Activation)  (None, 16, 16, 128)       0         
_________________________________________________________________
dropout_975 (Dropout)        (None, 16, 16, 128)       0         
_________________________________________________________________
max_pooling2d_267 (MaxPoolin (None, 8, 8, 128)         0         
_________________________________________________________________
conv2d_747 (Conv2D)          (None, 8, 8, 32)          36896     
_________________________________________________________________
activation_976 (Activation)  (None, 8, 8, 32)          0         
_________________________________________________________________
dropout_976 (Dropout)        (None, 8, 8, 32)          0         
_________________________________________________________________
conv2d_748 (Conv2D)          (None, 8, 8, 32)          9248      
_________________________________________________________________
activation_977 (Activation)  (None, 8, 8, 32)          0         
_________________________________________________________________
dropout_977 (Dropout)        (None, 8, 8, 32)          0         
_________________________________________________________________
max_pooling2d_268 (MaxPoolin (None, 4, 4, 32)          0         
_________________________________________________________________
conv2d_749 (Conv2D)          (None, 4, 4, 512)         147968    
_________________________________________________________________
activation_978 (Activation)  (None, 4, 4, 512)         0         
_________________________________________________________________
dropout_978 (Dropout)        (None, 4, 4, 512)         0         
_________________________________________________________________
flatten_138 (Flatten)        (None, 8192)              0         
_________________________________________________________________
dense_367 (Dense)            (None, 16)                131088    
_________________________________________________________________
activation_979 (Activation)  (None, 16)                0         
_________________________________________________________________
dropout_979 (Dropout)        (None, 16)                0         
_________________________________________________________________
dense_368 (Dense)            (None, 32)                544       
_________________________________________________________________
activation_980 (Activation)  (None, 32)                0         
_________________________________________________________________
dropout_980 (Dropout)        (None, 32)                0         
_________________________________________________________________
dense_369 (Dense)            (None, 10)                330       
=================================================================
Total params: 493,178
Trainable params: 492,922
Non-trainable params: 256
_________________________________________________________________
