Model: "sequential_94"
_________________________________________________________________
Layer (type)                 Output Shape              Param #   
=================================================================
conv2d_506 (Conv2D)          (None, 32, 32, 256)       7168      
_________________________________________________________________
batch_normalization_309 (Bat (None, 32, 32, 256)       1024      
_________________________________________________________________
activation_670 (Activation)  (None, 32, 32, 256)       0         
_________________________________________________________________
dropout_670 (Dropout)        (None, 32, 32, 256)       0         
_________________________________________________________________
conv2d_507 (Conv2D)          (None, 32, 32, 512)       1180160   
_________________________________________________________________
batch_normalization_310 (Bat (None, 32, 32, 512)       2048      
_________________________________________________________________
activation_671 (Activation)  (None, 32, 32, 512)       0         
_________________________________________________________________
dropout_671 (Dropout)        (None, 32, 32, 512)       0         
_________________________________________________________________
conv2d_508 (Conv2D)          (None, 32, 32, 16)        73744     
_________________________________________________________________
activation_672 (Activation)  (None, 32, 32, 16)        0         
_________________________________________________________________
dropout_672 (Dropout)        (None, 32, 32, 16)        0         
_________________________________________________________________
max_pooling2d_186 (MaxPoolin (None, 16, 16, 16)        0         
_________________________________________________________________
conv2d_509 (Conv2D)          (None, 16, 16, 128)       18560     
_________________________________________________________________
batch_normalization_311 (Bat (None, 16, 16, 128)       512       
_________________________________________________________________
activation_673 (Activation)  (None, 16, 16, 128)       0         
_________________________________________________________________
dropout_673 (Dropout)        (None, 16, 16, 128)       0         
_________________________________________________________________
max_pooling2d_187 (MaxPoolin (None, 8, 8, 128)         0         
_________________________________________________________________
conv2d_510 (Conv2D)          (None, 8, 8, 512)         590336    
_________________________________________________________________
activation_674 (Activation)  (None, 8, 8, 512)         0         
_________________________________________________________________
dropout_674 (Dropout)        (None, 8, 8, 512)         0         
_________________________________________________________________
max_pooling2d_188 (MaxPoolin (None, 4, 4, 512)         0         
_________________________________________________________________
flatten_94 (Flatten)         (None, 8192)              0         
_________________________________________________________________
dense_258 (Dense)            (None, 16)                131088    
_________________________________________________________________
activation_675 (Activation)  (None, 16)                0         
_________________________________________________________________
dropout_675 (Dropout)        (None, 16)                0         
_________________________________________________________________
dense_259 (Dense)            (None, 32)                544       
_________________________________________________________________
activation_676 (Activation)  (None, 32)                0         
_________________________________________________________________
dropout_676 (Dropout)        (None, 32)                0         
_________________________________________________________________
dense_260 (Dense)            (None, 10)                330       
=================================================================
Total params: 2,005,514
Trainable params: 2,003,722
Non-trainable params: 1,792
_________________________________________________________________
