Model: "sequential_242"
_________________________________________________________________
Layer (type)                 Output Shape              Param #   
=================================================================
conv2d_1431 (Conv2D)         (None, 32, 32, 16)        448       
_________________________________________________________________
activation_1773 (Activation) (None, 32, 32, 16)        0         
_________________________________________________________________
dropout_1773 (Dropout)       (None, 32, 32, 16)        0         
_________________________________________________________________
conv2d_1432 (Conv2D)         (None, 32, 32, 512)       74240     
_________________________________________________________________
batch_normalization_707 (Bat (None, 32, 32, 512)       2048      
_________________________________________________________________
activation_1774 (Activation) (None, 32, 32, 512)       0         
_________________________________________________________________
dropout_1774 (Dropout)       (None, 32, 32, 512)       0         
_________________________________________________________________
max_pooling2d_452 (MaxPoolin (None, 16, 16, 512)       0         
_________________________________________________________________
conv2d_1433 (Conv2D)         (None, 16, 16, 128)       589952    
_________________________________________________________________
activation_1775 (Activation) (None, 16, 16, 128)       0         
_________________________________________________________________
dropout_1775 (Dropout)       (None, 16, 16, 128)       0         
_________________________________________________________________
max_pooling2d_453 (MaxPoolin (None, 8, 8, 128)         0         
_________________________________________________________________
conv2d_1434 (Conv2D)         (None, 8, 8, 512)         590336    
_________________________________________________________________
batch_normalization_708 (Bat (None, 8, 8, 512)         2048      
_________________________________________________________________
activation_1776 (Activation) (None, 8, 8, 512)         0         
_________________________________________________________________
dropout_1776 (Dropout)       (None, 8, 8, 512)         0         
_________________________________________________________________
conv2d_1435 (Conv2D)         (None, 8, 8, 256)         1179904   
_________________________________________________________________
activation_1777 (Activation) (None, 8, 8, 256)         0         
_________________________________________________________________
dropout_1777 (Dropout)       (None, 8, 8, 256)         0         
_________________________________________________________________
conv2d_1436 (Conv2D)         (None, 8, 8, 128)         295040    
_________________________________________________________________
activation_1778 (Activation) (None, 8, 8, 128)         0         
_________________________________________________________________
dropout_1778 (Dropout)       (None, 8, 8, 128)         0         
_________________________________________________________________
conv2d_1437 (Conv2D)         (None, 8, 8, 16)          18448     
_________________________________________________________________
batch_normalization_709 (Bat (None, 8, 8, 16)          64        
_________________________________________________________________
activation_1779 (Activation) (None, 8, 8, 16)          0         
_________________________________________________________________
dropout_1779 (Dropout)       (None, 8, 8, 16)          0         
_________________________________________________________________
flatten_242 (Flatten)        (None, 1024)              0         
_________________________________________________________________
dense_584 (Dense)            (None, 128)               131200    
_________________________________________________________________
activation_1780 (Activation) (None, 128)               0         
_________________________________________________________________
dropout_1780 (Dropout)       (None, 128)               0         
_________________________________________________________________
dense_585 (Dense)            (None, 10)                1290      
=================================================================
Total params: 2,885,018
Trainable params: 2,882,938
Non-trainable params: 2,080
_________________________________________________________________
