Model: "sequential_345"
_________________________________________________________________
Layer (type)                 Output Shape              Param #   
=================================================================
conv2d_2114 (Conv2D)         (None, 32, 32, 16)        448       
_________________________________________________________________
activation_2546 (Activation) (None, 32, 32, 16)        0         
_________________________________________________________________
dropout_2546 (Dropout)       (None, 32, 32, 16)        0         
_________________________________________________________________
conv2d_2115 (Conv2D)         (None, 32, 32, 128)       18560     
_________________________________________________________________
activation_2547 (Activation) (None, 32, 32, 128)       0         
_________________________________________________________________
dropout_2547 (Dropout)       (None, 32, 32, 128)       0         
_________________________________________________________________
max_pooling2d_628 (MaxPoolin (None, 16, 16, 128)       0         
_________________________________________________________________
conv2d_2116 (Conv2D)         (None, 16, 16, 32)        36896     
_________________________________________________________________
activation_2548 (Activation) (None, 16, 16, 32)        0         
_________________________________________________________________
dropout_2548 (Dropout)       (None, 16, 16, 32)        0         
_________________________________________________________________
conv2d_2117 (Conv2D)         (None, 16, 16, 256)       73984     
_________________________________________________________________
activation_2549 (Activation) (None, 16, 16, 256)       0         
_________________________________________________________________
dropout_2549 (Dropout)       (None, 16, 16, 256)       0         
_________________________________________________________________
conv2d_2118 (Conv2D)         (None, 16, 16, 128)       295040    
_________________________________________________________________
activation_2550 (Activation) (None, 16, 16, 128)       0         
_________________________________________________________________
dropout_2550 (Dropout)       (None, 16, 16, 128)       0         
_________________________________________________________________
conv2d_2119 (Conv2D)         (None, 16, 16, 16)        18448     
_________________________________________________________________
batch_normalization_1032 (Ba (None, 16, 16, 16)        64        
_________________________________________________________________
activation_2551 (Activation) (None, 16, 16, 16)        0         
_________________________________________________________________
dropout_2551 (Dropout)       (None, 16, 16, 16)        0         
_________________________________________________________________
flatten_345 (Flatten)        (None, 4096)              0         
_________________________________________________________________
dense_777 (Dense)            (None, 128)               524416    
_________________________________________________________________
activation_2552 (Activation) (None, 128)               0         
_________________________________________________________________
dropout_2552 (Dropout)       (None, 128)               0         
_________________________________________________________________
dense_778 (Dense)            (None, 10)                1290      
=================================================================
Total params: 969,146
Trainable params: 969,114
Non-trainable params: 32
_________________________________________________________________
