Model: "sequential_191"
_________________________________________________________________
Layer (type)                 Output Shape              Param #   
=================================================================
conv2d_1081 (Conv2D)         (None, 32, 32, 16)        448       
_________________________________________________________________
activation_1374 (Activation) (None, 32, 32, 16)        0         
_________________________________________________________________
dropout_1374 (Dropout)       (None, 32, 32, 16)        0         
_________________________________________________________________
conv2d_1082 (Conv2D)         (None, 32, 32, 512)       74240     
_________________________________________________________________
batch_normalization_549 (Bat (None, 32, 32, 512)       2048      
_________________________________________________________________
activation_1375 (Activation) (None, 32, 32, 512)       0         
_________________________________________________________________
dropout_1375 (Dropout)       (None, 32, 32, 512)       0         
_________________________________________________________________
conv2d_1083 (Conv2D)         (None, 32, 32, 16)        73744     
_________________________________________________________________
activation_1376 (Activation) (None, 32, 32, 16)        0         
_________________________________________________________________
dropout_1376 (Dropout)       (None, 32, 32, 16)        0         
_________________________________________________________________
conv2d_1084 (Conv2D)         (None, 32, 32, 512)       74240     
_________________________________________________________________
batch_normalization_550 (Bat (None, 32, 32, 512)       2048      
_________________________________________________________________
activation_1377 (Activation) (None, 32, 32, 512)       0         
_________________________________________________________________
dropout_1377 (Dropout)       (None, 32, 32, 512)       0         
_________________________________________________________________
conv2d_1085 (Conv2D)         (None, 32, 32, 256)       1179904   
_________________________________________________________________
activation_1378 (Activation) (None, 32, 32, 256)       0         
_________________________________________________________________
dropout_1378 (Dropout)       (None, 32, 32, 256)       0         
_________________________________________________________________
conv2d_1086 (Conv2D)         (None, 32, 32, 128)       295040    
_________________________________________________________________
activation_1379 (Activation) (None, 32, 32, 128)       0         
_________________________________________________________________
dropout_1379 (Dropout)       (None, 32, 32, 128)       0         
_________________________________________________________________
conv2d_1087 (Conv2D)         (None, 32, 32, 16)        18448     
_________________________________________________________________
batch_normalization_551 (Bat (None, 32, 32, 16)        64        
_________________________________________________________________
activation_1380 (Activation) (None, 32, 32, 16)        0         
_________________________________________________________________
dropout_1380 (Dropout)       (None, 32, 32, 16)        0         
_________________________________________________________________
flatten_191 (Flatten)        (None, 16384)             0         
_________________________________________________________________
dense_484 (Dense)            (None, 128)               2097280   
_________________________________________________________________
activation_1381 (Activation) (None, 128)               0         
_________________________________________________________________
dropout_1381 (Dropout)       (None, 128)               0         
_________________________________________________________________
dense_485 (Dense)            (None, 10)                1290      
=================================================================
Total params: 3,818,794
Trainable params: 3,816,714
Non-trainable params: 2,080
_________________________________________________________________
