Model: "sequential_113"
_________________________________________________________________
Layer (type)                 Output Shape              Param #   
=================================================================
conv2d_611 (Conv2D)          (None, 32, 32, 64)        1792      
_________________________________________________________________
activation_802 (Activation)  (None, 32, 32, 64)        0         
_________________________________________________________________
dropout_802 (Dropout)        (None, 32, 32, 64)        0         
_________________________________________________________________
conv2d_612 (Conv2D)          (None, 32, 32, 128)       73856     
_________________________________________________________________
batch_normalization_357 (Bat (None, 32, 32, 128)       512       
_________________________________________________________________
activation_803 (Activation)  (None, 32, 32, 128)       0         
_________________________________________________________________
dropout_803 (Dropout)        (None, 32, 32, 128)       0         
_________________________________________________________________
max_pooling2d_217 (MaxPoolin (None, 16, 16, 128)       0         
_________________________________________________________________
conv2d_613 (Conv2D)          (None, 16, 16, 128)       147584    
_________________________________________________________________
activation_804 (Activation)  (None, 16, 16, 128)       0         
_________________________________________________________________
dropout_804 (Dropout)        (None, 16, 16, 128)       0         
_________________________________________________________________
max_pooling2d_218 (MaxPoolin (None, 8, 8, 128)         0         
_________________________________________________________________
conv2d_614 (Conv2D)          (None, 8, 8, 32)          36896     
_________________________________________________________________
activation_805 (Activation)  (None, 8, 8, 32)          0         
_________________________________________________________________
dropout_805 (Dropout)        (None, 8, 8, 32)          0         
_________________________________________________________________
conv2d_615 (Conv2D)          (None, 8, 8, 512)         147968    
_________________________________________________________________
activation_806 (Activation)  (None, 8, 8, 512)         0         
_________________________________________________________________
dropout_806 (Dropout)        (None, 8, 8, 512)         0         
_________________________________________________________________
max_pooling2d_219 (MaxPoolin (None, 4, 4, 512)         0         
_________________________________________________________________
flatten_113 (Flatten)        (None, 8192)              0         
_________________________________________________________________
dense_304 (Dense)            (None, 16)                131088    
_________________________________________________________________
activation_807 (Activation)  (None, 16)                0         
_________________________________________________________________
dropout_807 (Dropout)        (None, 16)                0         
_________________________________________________________________
dense_305 (Dense)            (None, 32)                544       
_________________________________________________________________
activation_808 (Activation)  (None, 32)                0         
_________________________________________________________________
dropout_808 (Dropout)        (None, 32)                0         
_________________________________________________________________
dense_306 (Dense)            (None, 10)                330       
=================================================================
Total params: 540,570
Trainable params: 540,314
Non-trainable params: 256
_________________________________________________________________
