Model: "sequential_16"
_________________________________________________________________
Layer (type)                 Output Shape              Param #   
=================================================================
conv2d_87 (Conv2D)           (None, 32, 32, 16)        448       
_________________________________________________________________
batch_normalization_55 (Batc (None, 32, 32, 16)        64        
_________________________________________________________________
activation_113 (Activation)  (None, 32, 32, 16)        0         
_________________________________________________________________
dropout_113 (Dropout)        (None, 32, 32, 16)        0         
_________________________________________________________________
conv2d_88 (Conv2D)           (None, 32, 32, 32)        4640      
_________________________________________________________________
batch_normalization_56 (Batc (None, 32, 32, 32)        128       
_________________________________________________________________
activation_114 (Activation)  (None, 32, 32, 32)        0         
_________________________________________________________________
dropout_114 (Dropout)        (None, 32, 32, 32)        0         
_________________________________________________________________
conv2d_89 (Conv2D)           (None, 32, 32, 16)        4624      
_________________________________________________________________
batch_normalization_57 (Batc (None, 32, 32, 16)        64        
_________________________________________________________________
activation_115 (Activation)  (None, 32, 32, 16)        0         
_________________________________________________________________
dropout_115 (Dropout)        (None, 32, 32, 16)        0         
_________________________________________________________________
conv2d_90 (Conv2D)           (None, 32, 32, 512)       74240     
_________________________________________________________________
batch_normalization_58 (Batc (None, 32, 32, 512)       2048      
_________________________________________________________________
activation_116 (Activation)  (None, 32, 32, 512)       0         
_________________________________________________________________
dropout_116 (Dropout)        (None, 32, 32, 512)       0         
_________________________________________________________________
max_pooling2d_32 (MaxPooling (None, 16, 16, 512)       0         
_________________________________________________________________
conv2d_91 (Conv2D)           (None, 16, 16, 256)       1179904   
_________________________________________________________________
batch_normalization_59 (Batc (None, 16, 16, 256)       1024      
_________________________________________________________________
activation_117 (Activation)  (None, 16, 16, 256)       0         
_________________________________________________________________
dropout_117 (Dropout)        (None, 16, 16, 256)       0         
_________________________________________________________________
max_pooling2d_33 (MaxPooling (None, 8, 8, 256)         0         
_________________________________________________________________
flatten_16 (Flatten)         (None, 16384)             0         
_________________________________________________________________
dense_42 (Dense)             (None, 32)                524320    
_________________________________________________________________
activation_118 (Activation)  (None, 32)                0         
_________________________________________________________________
dropout_118 (Dropout)        (None, 32)                0         
_________________________________________________________________
dense_43 (Dense)             (None, 64)                2112      
_________________________________________________________________
batch_normalization_60 (Batc (None, 64)                256       
_________________________________________________________________
activation_119 (Activation)  (None, 64)                0         
_________________________________________________________________
dropout_119 (Dropout)        (None, 64)                0         
_________________________________________________________________
dense_44 (Dense)             (None, 128)               8320      
_________________________________________________________________
batch_normalization_61 (Batc (None, 128)               512       
_________________________________________________________________
activation_120 (Activation)  (None, 128)               0         
_________________________________________________________________
dropout_120 (Dropout)        (None, 128)               0         
_________________________________________________________________
dense_45 (Dense)             (None, 10)                1290      
=================================================================
Total params: 1,803,994
Trainable params: 1,801,946
Non-trainable params: 2,048
_________________________________________________________________
