Model: "sequential_370"
_________________________________________________________________
Layer (type)                 Output Shape              Param #   
=================================================================
conv2d_2270 (Conv2D)         (None, 32, 32, 1024)      28672     
_________________________________________________________________
batch_normalization_1089 (Ba (None, 32, 32, 1024)      4096      
_________________________________________________________________
activation_2721 (Activation) (None, 32, 32, 1024)      0         
_________________________________________________________________
dropout_2721 (Dropout)       (None, 32, 32, 1024)      0         
_________________________________________________________________
conv2d_2271 (Conv2D)         (None, 32, 32, 512)       4719104   
_________________________________________________________________
batch_normalization_1090 (Ba (None, 32, 32, 512)       2048      
_________________________________________________________________
activation_2722 (Activation) (None, 32, 32, 512)       0         
_________________________________________________________________
dropout_2722 (Dropout)       (None, 32, 32, 512)       0         
_________________________________________________________________
max_pooling2d_664 (MaxPoolin (None, 16, 16, 512)       0         
_________________________________________________________________
conv2d_2272 (Conv2D)         (None, 16, 16, 128)       589952    
_________________________________________________________________
activation_2723 (Activation) (None, 16, 16, 128)       0         
_________________________________________________________________
dropout_2723 (Dropout)       (None, 16, 16, 128)       0         
_________________________________________________________________
max_pooling2d_665 (MaxPoolin (None, 8, 8, 128)         0         
_________________________________________________________________
conv2d_2273 (Conv2D)         (None, 8, 8, 512)         590336    
_________________________________________________________________
activation_2724 (Activation) (None, 8, 8, 512)         0         
_________________________________________________________________
dropout_2724 (Dropout)       (None, 8, 8, 512)         0         
_________________________________________________________________
conv2d_2274 (Conv2D)         (None, 8, 8, 256)         1179904   
_________________________________________________________________
activation_2725 (Activation) (None, 8, 8, 256)         0         
_________________________________________________________________
dropout_2725 (Dropout)       (None, 8, 8, 256)         0         
_________________________________________________________________
conv2d_2275 (Conv2D)         (None, 8, 8, 256)         590080    
_________________________________________________________________
activation_2726 (Activation) (None, 8, 8, 256)         0         
_________________________________________________________________
dropout_2726 (Dropout)       (None, 8, 8, 256)         0         
_________________________________________________________________
conv2d_2276 (Conv2D)         (None, 8, 8, 128)         295040    
_________________________________________________________________
activation_2727 (Activation) (None, 8, 8, 128)         0         
_________________________________________________________________
dropout_2727 (Dropout)       (None, 8, 8, 128)         0         
_________________________________________________________________
conv2d_2277 (Conv2D)         (None, 8, 8, 16)          18448     
_________________________________________________________________
batch_normalization_1091 (Ba (None, 8, 8, 16)          64        
_________________________________________________________________
activation_2728 (Activation) (None, 8, 8, 16)          0         
_________________________________________________________________
dropout_2728 (Dropout)       (None, 8, 8, 16)          0         
_________________________________________________________________
flatten_370 (Flatten)        (None, 1024)              0         
_________________________________________________________________
dense_821 (Dense)            (None, 10)                10250     
=================================================================
Total params: 8,027,994
Trainable params: 8,024,890
Non-trainable params: 3,104
_________________________________________________________________
