Model: "sequential_155"
_________________________________________________________________
Layer (type)                 Output Shape              Param #   
=================================================================
conv2d_851 (Conv2D)          (None, 32, 32, 16)        448       
_________________________________________________________________
batch_normalization_449 (Bat (None, 32, 32, 16)        64        
_________________________________________________________________
activation_1103 (Activation) (None, 32, 32, 16)        0         
_________________________________________________________________
dropout_1103 (Dropout)       (None, 32, 32, 16)        0         
_________________________________________________________________
conv2d_852 (Conv2D)          (None, 32, 32, 512)       74240     
_________________________________________________________________
batch_normalization_450 (Bat (None, 32, 32, 512)       2048      
_________________________________________________________________
activation_1104 (Activation) (None, 32, 32, 512)       0         
_________________________________________________________________
dropout_1104 (Dropout)       (None, 32, 32, 512)       0         
_________________________________________________________________
max_pooling2d_301 (MaxPoolin (None, 16, 16, 512)       0         
_________________________________________________________________
conv2d_853 (Conv2D)          (None, 16, 16, 128)       589952    
_________________________________________________________________
activation_1105 (Activation) (None, 16, 16, 128)       0         
_________________________________________________________________
dropout_1105 (Dropout)       (None, 16, 16, 128)       0         
_________________________________________________________________
max_pooling2d_302 (MaxPoolin (None, 8, 8, 128)         0         
_________________________________________________________________
conv2d_854 (Conv2D)          (None, 8, 8, 512)         590336    
_________________________________________________________________
batch_normalization_451 (Bat (None, 8, 8, 512)         2048      
_________________________________________________________________
activation_1106 (Activation) (None, 8, 8, 512)         0         
_________________________________________________________________
dropout_1106 (Dropout)       (None, 8, 8, 512)         0         
_________________________________________________________________
conv2d_855 (Conv2D)          (None, 8, 8, 256)         1179904   
_________________________________________________________________
activation_1107 (Activation) (None, 8, 8, 256)         0         
_________________________________________________________________
dropout_1107 (Dropout)       (None, 8, 8, 256)         0         
_________________________________________________________________
conv2d_856 (Conv2D)          (None, 8, 8, 128)         295040    
_________________________________________________________________
activation_1108 (Activation) (None, 8, 8, 128)         0         
_________________________________________________________________
dropout_1108 (Dropout)       (None, 8, 8, 128)         0         
_________________________________________________________________
conv2d_857 (Conv2D)          (None, 8, 8, 16)          18448     
_________________________________________________________________
batch_normalization_452 (Bat (None, 8, 8, 16)          64        
_________________________________________________________________
activation_1109 (Activation) (None, 8, 8, 16)          0         
_________________________________________________________________
dropout_1109 (Dropout)       (None, 8, 8, 16)          0         
_________________________________________________________________
flatten_155 (Flatten)        (None, 1024)              0         
_________________________________________________________________
dense_407 (Dense)            (None, 128)               131200    
_________________________________________________________________
activation_1110 (Activation) (None, 128)               0         
_________________________________________________________________
dropout_1110 (Dropout)       (None, 128)               0         
_________________________________________________________________
dense_408 (Dense)            (None, 10)                1290      
=================================================================
Total params: 2,885,082
Trainable params: 2,882,970
Non-trainable params: 2,112
_________________________________________________________________
