Model: "sequential_286"
_________________________________________________________________
Layer (type)                 Output Shape              Param #   
=================================================================
conv2d_1729 (Conv2D)         (None, 32, 32, 256)       7168      
_________________________________________________________________
batch_normalization_855 (Bat (None, 32, 32, 256)       1024      
_________________________________________________________________
activation_2109 (Activation) (None, 32, 32, 256)       0         
_________________________________________________________________
dropout_2109 (Dropout)       (None, 32, 32, 256)       0         
_________________________________________________________________
conv2d_1730 (Conv2D)         (None, 32, 32, 512)       1180160   
_________________________________________________________________
batch_normalization_856 (Bat (None, 32, 32, 512)       2048      
_________________________________________________________________
activation_2110 (Activation) (None, 32, 32, 512)       0         
_________________________________________________________________
dropout_2110 (Dropout)       (None, 32, 32, 512)       0         
_________________________________________________________________
max_pooling2d_537 (MaxPoolin (None, 16, 16, 512)       0         
_________________________________________________________________
conv2d_1731 (Conv2D)         (None, 16, 16, 128)       589952    
_________________________________________________________________
activation_2111 (Activation) (None, 16, 16, 128)       0         
_________________________________________________________________
dropout_2111 (Dropout)       (None, 16, 16, 128)       0         
_________________________________________________________________
max_pooling2d_538 (MaxPoolin (None, 8, 8, 128)         0         
_________________________________________________________________
conv2d_1732 (Conv2D)         (None, 8, 8, 512)         590336    
_________________________________________________________________
batch_normalization_857 (Bat (None, 8, 8, 512)         2048      
_________________________________________________________________
activation_2112 (Activation) (None, 8, 8, 512)         0         
_________________________________________________________________
dropout_2112 (Dropout)       (None, 8, 8, 512)         0         
_________________________________________________________________
conv2d_1733 (Conv2D)         (None, 8, 8, 256)         1179904   
_________________________________________________________________
activation_2113 (Activation) (None, 8, 8, 256)         0         
_________________________________________________________________
dropout_2113 (Dropout)       (None, 8, 8, 256)         0         
_________________________________________________________________
conv2d_1734 (Conv2D)         (None, 8, 8, 128)         295040    
_________________________________________________________________
activation_2114 (Activation) (None, 8, 8, 128)         0         
_________________________________________________________________
dropout_2114 (Dropout)       (None, 8, 8, 128)         0         
_________________________________________________________________
conv2d_1735 (Conv2D)         (None, 8, 8, 16)          18448     
_________________________________________________________________
batch_normalization_858 (Bat (None, 8, 8, 16)          64        
_________________________________________________________________
activation_2115 (Activation) (None, 8, 8, 16)          0         
_________________________________________________________________
dropout_2115 (Dropout)       (None, 8, 8, 16)          0         
_________________________________________________________________
flatten_286 (Flatten)        (None, 1024)              0         
_________________________________________________________________
dense_666 (Dense)            (None, 128)               131200    
_________________________________________________________________
activation_2116 (Activation) (None, 128)               0         
_________________________________________________________________
dropout_2116 (Dropout)       (None, 128)               0         
_________________________________________________________________
dense_667 (Dense)            (None, 10)                1290      
=================================================================
Total params: 3,998,682
Trainable params: 3,996,090
Non-trainable params: 2,592
_________________________________________________________________
