Model: "sequential_57"
_________________________________________________________________
Layer (type)                 Output Shape              Param #   
=================================================================
conv2d_306 (Conv2D)          (None, 32, 32, 8)         224       
_________________________________________________________________
batch_normalization_198 (Bat (None, 32, 32, 8)         32        
_________________________________________________________________
activation_406 (Activation)  (None, 32, 32, 8)         0         
_________________________________________________________________
dropout_406 (Dropout)        (None, 32, 32, 8)         0         
_________________________________________________________________
conv2d_307 (Conv2D)          (None, 32, 32, 512)       37376     
_________________________________________________________________
batch_normalization_199 (Bat (None, 32, 32, 512)       2048      
_________________________________________________________________
activation_407 (Activation)  (None, 32, 32, 512)       0         
_________________________________________________________________
dropout_407 (Dropout)        (None, 32, 32, 512)       0         
_________________________________________________________________
conv2d_308 (Conv2D)          (None, 32, 32, 128)       589952    
_________________________________________________________________
batch_normalization_200 (Bat (None, 32, 32, 128)       512       
_________________________________________________________________
activation_408 (Activation)  (None, 32, 32, 128)       0         
_________________________________________________________________
dropout_408 (Dropout)        (None, 32, 32, 128)       0         
_________________________________________________________________
conv2d_309 (Conv2D)          (None, 32, 32, 32)        36896     
_________________________________________________________________
activation_409 (Activation)  (None, 32, 32, 32)        0         
_________________________________________________________________
dropout_409 (Dropout)        (None, 32, 32, 32)        0         
_________________________________________________________________
max_pooling2d_115 (MaxPoolin (None, 16, 16, 32)        0         
_________________________________________________________________
conv2d_310 (Conv2D)          (None, 16, 16, 32)        9248      
_________________________________________________________________
activation_410 (Activation)  (None, 16, 16, 32)        0         
_________________________________________________________________
dropout_410 (Dropout)        (None, 16, 16, 32)        0         
_________________________________________________________________
conv2d_311 (Conv2D)          (None, 16, 16, 64)        18496     
_________________________________________________________________
batch_normalization_201 (Bat (None, 16, 16, 64)        256       
_________________________________________________________________
activation_411 (Activation)  (None, 16, 16, 64)        0         
_________________________________________________________________
dropout_411 (Dropout)        (None, 16, 16, 64)        0         
_________________________________________________________________
flatten_57 (Flatten)         (None, 16384)             0         
_________________________________________________________________
dense_157 (Dense)            (None, 32)                524320    
_________________________________________________________________
activation_412 (Activation)  (None, 32)                0         
_________________________________________________________________
dropout_412 (Dropout)        (None, 32)                0         
_________________________________________________________________
dense_158 (Dense)            (None, 64)                2112      
_________________________________________________________________
batch_normalization_202 (Bat (None, 64)                256       
_________________________________________________________________
activation_413 (Activation)  (None, 64)                0         
_________________________________________________________________
dropout_413 (Dropout)        (None, 64)                0         
_________________________________________________________________
dense_159 (Dense)            (None, 512)               33280     
_________________________________________________________________
activation_414 (Activation)  (None, 512)               0         
_________________________________________________________________
dropout_414 (Dropout)        (None, 512)               0         
_________________________________________________________________
dense_160 (Dense)            (None, 10)                5130      
=================================================================
Total params: 1,260,138
Trainable params: 1,258,586
Non-trainable params: 1,552
_________________________________________________________________
