Model: "sequential_294"
_________________________________________________________________
Layer (type)                 Output Shape              Param #   
=================================================================
conv2d_1782 (Conv2D)         (None, 32, 32, 16)        448       
_________________________________________________________________
activation_2169 (Activation) (None, 32, 32, 16)        0         
_________________________________________________________________
dropout_2169 (Dropout)       (None, 32, 32, 16)        0         
_________________________________________________________________
conv2d_1783 (Conv2D)         (None, 32, 32, 512)       74240     
_________________________________________________________________
batch_normalization_881 (Bat (None, 32, 32, 512)       2048      
_________________________________________________________________
activation_2170 (Activation) (None, 32, 32, 512)       0         
_________________________________________________________________
dropout_2170 (Dropout)       (None, 32, 32, 512)       0         
_________________________________________________________________
max_pooling2d_550 (MaxPoolin (None, 16, 16, 512)       0         
_________________________________________________________________
conv2d_1784 (Conv2D)         (None, 16, 16, 128)       589952    
_________________________________________________________________
activation_2171 (Activation) (None, 16, 16, 128)       0         
_________________________________________________________________
dropout_2171 (Dropout)       (None, 16, 16, 128)       0         
_________________________________________________________________
conv2d_1785 (Conv2D)         (None, 16, 16, 512)       590336    
_________________________________________________________________
batch_normalization_882 (Bat (None, 16, 16, 512)       2048      
_________________________________________________________________
activation_2172 (Activation) (None, 16, 16, 512)       0         
_________________________________________________________________
dropout_2172 (Dropout)       (None, 16, 16, 512)       0         
_________________________________________________________________
conv2d_1786 (Conv2D)         (None, 16, 16, 1024)      4719616   
_________________________________________________________________
activation_2173 (Activation) (None, 16, 16, 1024)      0         
_________________________________________________________________
dropout_2173 (Dropout)       (None, 16, 16, 1024)      0         
_________________________________________________________________
max_pooling2d_551 (MaxPoolin (None, 8, 8, 1024)        0         
_________________________________________________________________
conv2d_1787 (Conv2D)         (None, 8, 8, 8)           73736     
_________________________________________________________________
activation_2174 (Activation) (None, 8, 8, 8)           0         
_________________________________________________________________
dropout_2174 (Dropout)       (None, 8, 8, 8)           0         
_________________________________________________________________
conv2d_1788 (Conv2D)         (None, 8, 8, 16)          1168      
_________________________________________________________________
batch_normalization_883 (Bat (None, 8, 8, 16)          64        
_________________________________________________________________
activation_2175 (Activation) (None, 8, 8, 16)          0         
_________________________________________________________________
dropout_2175 (Dropout)       (None, 8, 8, 16)          0         
_________________________________________________________________
flatten_294 (Flatten)        (None, 1024)              0         
_________________________________________________________________
dense_681 (Dense)            (None, 128)               131200    
_________________________________________________________________
activation_2176 (Activation) (None, 128)               0         
_________________________________________________________________
dropout_2176 (Dropout)       (None, 128)               0         
_________________________________________________________________
dense_682 (Dense)            (None, 10)                1290      
=================================================================
Total params: 6,186,146
Trainable params: 6,184,066
Non-trainable params: 2,080
_________________________________________________________________
