Model: "sequential_189"
_________________________________________________________________
Layer (type)                 Output Shape              Param #   
=================================================================
conv2d_1067 (Conv2D)         (None, 32, 32, 16)        448       
_________________________________________________________________
activation_1359 (Activation) (None, 32, 32, 16)        0         
_________________________________________________________________
dropout_1359 (Dropout)       (None, 32, 32, 16)        0         
_________________________________________________________________
conv2d_1068 (Conv2D)         (None, 32, 32, 128)       18560     
_________________________________________________________________
batch_normalization_543 (Bat (None, 32, 32, 128)       512       
_________________________________________________________________
activation_1360 (Activation) (None, 32, 32, 128)       0         
_________________________________________________________________
dropout_1360 (Dropout)       (None, 32, 32, 128)       0         
_________________________________________________________________
max_pooling2d_352 (MaxPoolin (None, 16, 16, 128)       0         
_________________________________________________________________
conv2d_1069 (Conv2D)         (None, 16, 16, 128)       147584    
_________________________________________________________________
activation_1361 (Activation) (None, 16, 16, 128)       0         
_________________________________________________________________
dropout_1361 (Dropout)       (None, 16, 16, 128)       0         
_________________________________________________________________
max_pooling2d_353 (MaxPoolin (None, 8, 8, 128)         0         
_________________________________________________________________
conv2d_1070 (Conv2D)         (None, 8, 8, 32)          36896     
_________________________________________________________________
activation_1362 (Activation) (None, 8, 8, 32)          0         
_________________________________________________________________
dropout_1362 (Dropout)       (None, 8, 8, 32)          0         
_________________________________________________________________
conv2d_1071 (Conv2D)         (None, 8, 8, 32)          9248      
_________________________________________________________________
activation_1363 (Activation) (None, 8, 8, 32)          0         
_________________________________________________________________
dropout_1363 (Dropout)       (None, 8, 8, 32)          0         
_________________________________________________________________
conv2d_1072 (Conv2D)         (None, 8, 8, 128)         36992     
_________________________________________________________________
activation_1364 (Activation) (None, 8, 8, 128)         0         
_________________________________________________________________
dropout_1364 (Dropout)       (None, 8, 8, 128)         0         
_________________________________________________________________
conv2d_1073 (Conv2D)         (None, 8, 8, 16)          18448     
_________________________________________________________________
batch_normalization_544 (Bat (None, 8, 8, 16)          64        
_________________________________________________________________
activation_1365 (Activation) (None, 8, 8, 16)          0         
_________________________________________________________________
dropout_1365 (Dropout)       (None, 8, 8, 16)          0         
_________________________________________________________________
flatten_189 (Flatten)        (None, 1024)              0         
_________________________________________________________________
dense_481 (Dense)            (None, 128)               131200    
_________________________________________________________________
activation_1366 (Activation) (None, 128)               0         
_________________________________________________________________
dropout_1366 (Dropout)       (None, 128)               0         
_________________________________________________________________
dense_482 (Dense)            (None, 10)                1290      
=================================================================
Total params: 401,242
Trainable params: 400,954
Non-trainable params: 288
_________________________________________________________________
