Model: "sequential_283"
_________________________________________________________________
Layer (type)                 Output Shape              Param #   
=================================================================
conv2d_1708 (Conv2D)         (None, 32, 32, 16)        448       
_________________________________________________________________
batch_normalization_843 (Bat (None, 32, 32, 16)        64        
_________________________________________________________________
activation_2085 (Activation) (None, 32, 32, 16)        0         
_________________________________________________________________
dropout_2085 (Dropout)       (None, 32, 32, 16)        0         
_________________________________________________________________
conv2d_1709 (Conv2D)         (None, 32, 32, 128)       18560     
_________________________________________________________________
batch_normalization_844 (Bat (None, 32, 32, 128)       512       
_________________________________________________________________
activation_2086 (Activation) (None, 32, 32, 128)       0         
_________________________________________________________________
dropout_2086 (Dropout)       (None, 32, 32, 128)       0         
_________________________________________________________________
max_pooling2d_530 (MaxPoolin (None, 16, 16, 128)       0         
_________________________________________________________________
conv2d_1710 (Conv2D)         (None, 16, 16, 128)       147584    
_________________________________________________________________
activation_2087 (Activation) (None, 16, 16, 128)       0         
_________________________________________________________________
dropout_2087 (Dropout)       (None, 16, 16, 128)       0         
_________________________________________________________________
max_pooling2d_531 (MaxPoolin (None, 8, 8, 128)         0         
_________________________________________________________________
conv2d_1711 (Conv2D)         (None, 8, 8, 512)         590336    
_________________________________________________________________
batch_normalization_845 (Bat (None, 8, 8, 512)         2048      
_________________________________________________________________
activation_2088 (Activation) (None, 8, 8, 512)         0         
_________________________________________________________________
dropout_2088 (Dropout)       (None, 8, 8, 512)         0         
_________________________________________________________________
conv2d_1712 (Conv2D)         (None, 8, 8, 256)         1179904   
_________________________________________________________________
activation_2089 (Activation) (None, 8, 8, 256)         0         
_________________________________________________________________
dropout_2089 (Dropout)       (None, 8, 8, 256)         0         
_________________________________________________________________
conv2d_1713 (Conv2D)         (None, 8, 8, 128)         295040    
_________________________________________________________________
activation_2090 (Activation) (None, 8, 8, 128)         0         
_________________________________________________________________
dropout_2090 (Dropout)       (None, 8, 8, 128)         0         
_________________________________________________________________
conv2d_1714 (Conv2D)         (None, 8, 8, 16)          18448     
_________________________________________________________________
batch_normalization_846 (Bat (None, 8, 8, 16)          64        
_________________________________________________________________
activation_2091 (Activation) (None, 8, 8, 16)          0         
_________________________________________________________________
dropout_2091 (Dropout)       (None, 8, 8, 16)          0         
_________________________________________________________________
flatten_283 (Flatten)        (None, 1024)              0         
_________________________________________________________________
dense_660 (Dense)            (None, 128)               131200    
_________________________________________________________________
activation_2092 (Activation) (None, 128)               0         
_________________________________________________________________
dropout_2092 (Dropout)       (None, 128)               0         
_________________________________________________________________
dense_661 (Dense)            (None, 10)                1290      
=================================================================
Total params: 2,385,498
Trainable params: 2,384,154
Non-trainable params: 1,344
_________________________________________________________________
