Model: "sequential_121"
_________________________________________________________________
Layer (type)                 Output Shape              Param #   
=================================================================
conv2d_653 (Conv2D)          (None, 32, 32, 256)       7168      
_________________________________________________________________
batch_normalization_369 (Bat (None, 32, 32, 256)       1024      
_________________________________________________________________
activation_858 (Activation)  (None, 32, 32, 256)       0         
_________________________________________________________________
dropout_858 (Dropout)        (None, 32, 32, 256)       0         
_________________________________________________________________
conv2d_654 (Conv2D)          (None, 32, 32, 512)       1180160   
_________________________________________________________________
batch_normalization_370 (Bat (None, 32, 32, 512)       2048      
_________________________________________________________________
activation_859 (Activation)  (None, 32, 32, 512)       0         
_________________________________________________________________
dropout_859 (Dropout)        (None, 32, 32, 512)       0         
_________________________________________________________________
max_pooling2d_235 (MaxPoolin (None, 16, 16, 512)       0         
_________________________________________________________________
conv2d_655 (Conv2D)          (None, 16, 16, 128)       589952    
_________________________________________________________________
activation_860 (Activation)  (None, 16, 16, 128)       0         
_________________________________________________________________
dropout_860 (Dropout)        (None, 16, 16, 128)       0         
_________________________________________________________________
max_pooling2d_236 (MaxPoolin (None, 8, 8, 128)         0         
_________________________________________________________________
conv2d_656 (Conv2D)          (None, 8, 8, 32)          36896     
_________________________________________________________________
activation_861 (Activation)  (None, 8, 8, 32)          0         
_________________________________________________________________
dropout_861 (Dropout)        (None, 8, 8, 32)          0         
_________________________________________________________________
conv2d_657 (Conv2D)          (None, 8, 8, 512)         147968    
_________________________________________________________________
activation_862 (Activation)  (None, 8, 8, 512)         0         
_________________________________________________________________
dropout_862 (Dropout)        (None, 8, 8, 512)         0         
_________________________________________________________________
max_pooling2d_237 (MaxPoolin (None, 4, 4, 512)         0         
_________________________________________________________________
flatten_121 (Flatten)        (None, 8192)              0         
_________________________________________________________________
dense_326 (Dense)            (None, 16)                131088    
_________________________________________________________________
activation_863 (Activation)  (None, 16)                0         
_________________________________________________________________
dropout_863 (Dropout)        (None, 16)                0         
_________________________________________________________________
dense_327 (Dense)            (None, 32)                544       
_________________________________________________________________
activation_864 (Activation)  (None, 32)                0         
_________________________________________________________________
dropout_864 (Dropout)        (None, 32)                0         
_________________________________________________________________
dense_328 (Dense)            (None, 10)                330       
=================================================================
Total params: 2,097,178
Trainable params: 2,095,642
Non-trainable params: 1,536
_________________________________________________________________
