Model: "sequential_395"
_________________________________________________________________
Layer (type)                 Output Shape              Param #   
=================================================================
conv2d_2424 (Conv2D)         (None, 32, 32, 16)        448       
_________________________________________________________________
batch_normalization_1148 (Ba (None, 32, 32, 16)        64        
_________________________________________________________________
activation_2891 (Activation) (None, 32, 32, 16)        0         
_________________________________________________________________
dropout_2891 (Dropout)       (None, 32, 32, 16)        0         
_________________________________________________________________
conv2d_2425 (Conv2D)         (None, 32, 32, 128)       18560     
_________________________________________________________________
activation_2892 (Activation) (None, 32, 32, 128)       0         
_________________________________________________________________
dropout_2892 (Dropout)       (None, 32, 32, 128)       0         
_________________________________________________________________
max_pooling2d_699 (MaxPoolin (None, 16, 16, 128)       0         
_________________________________________________________________
conv2d_2426 (Conv2D)         (None, 16, 16, 32)        36896     
_________________________________________________________________
activation_2893 (Activation) (None, 16, 16, 32)        0         
_________________________________________________________________
dropout_2893 (Dropout)       (None, 16, 16, 32)        0         
_________________________________________________________________
conv2d_2427 (Conv2D)         (None, 16, 16, 128)       36992     
_________________________________________________________________
activation_2894 (Activation) (None, 16, 16, 128)       0         
_________________________________________________________________
dropout_2894 (Dropout)       (None, 16, 16, 128)       0         
_________________________________________________________________
conv2d_2428 (Conv2D)         (None, 16, 16, 16)        18448     
_________________________________________________________________
batch_normalization_1149 (Ba (None, 16, 16, 16)        64        
_________________________________________________________________
activation_2895 (Activation) (None, 16, 16, 16)        0         
_________________________________________________________________
dropout_2895 (Dropout)       (None, 16, 16, 16)        0         
_________________________________________________________________
flatten_395 (Flatten)        (None, 4096)              0         
_________________________________________________________________
dense_862 (Dense)            (None, 512)               2097664   
_________________________________________________________________
activation_2896 (Activation) (None, 512)               0         
_________________________________________________________________
dropout_2896 (Dropout)       (None, 512)               0         
_________________________________________________________________
dense_863 (Dense)            (None, 10)                5130      
=================================================================
Total params: 2,214,266
Trainable params: 2,214,202
Non-trainable params: 64
_________________________________________________________________
