Model: "sequential_369"
_________________________________________________________________
Layer (type)                 Output Shape              Param #   
=================================================================
conv2d_2264 (Conv2D)         (None, 32, 32, 16)        448       
_________________________________________________________________
batch_normalization_1086 (Ba (None, 32, 32, 16)        64        
_________________________________________________________________
activation_2714 (Activation) (None, 32, 32, 16)        0         
_________________________________________________________________
dropout_2714 (Dropout)       (None, 32, 32, 16)        0         
_________________________________________________________________
conv2d_2265 (Conv2D)         (None, 32, 32, 128)       18560     
_________________________________________________________________
activation_2715 (Activation) (None, 32, 32, 128)       0         
_________________________________________________________________
dropout_2715 (Dropout)       (None, 32, 32, 128)       0         
_________________________________________________________________
max_pooling2d_663 (MaxPoolin (None, 16, 16, 128)       0         
_________________________________________________________________
conv2d_2266 (Conv2D)         (None, 16, 16, 32)        36896     
_________________________________________________________________
activation_2716 (Activation) (None, 16, 16, 32)        0         
_________________________________________________________________
dropout_2716 (Dropout)       (None, 16, 16, 32)        0         
_________________________________________________________________
conv2d_2267 (Conv2D)         (None, 16, 16, 256)       73984     
_________________________________________________________________
activation_2717 (Activation) (None, 16, 16, 256)       0         
_________________________________________________________________
dropout_2717 (Dropout)       (None, 16, 16, 256)       0         
_________________________________________________________________
conv2d_2268 (Conv2D)         (None, 16, 16, 128)       295040    
_________________________________________________________________
activation_2718 (Activation) (None, 16, 16, 128)       0         
_________________________________________________________________
dropout_2718 (Dropout)       (None, 16, 16, 128)       0         
_________________________________________________________________
conv2d_2269 (Conv2D)         (None, 16, 16, 16)        18448     
_________________________________________________________________
batch_normalization_1087 (Ba (None, 16, 16, 16)        64        
_________________________________________________________________
activation_2719 (Activation) (None, 16, 16, 16)        0         
_________________________________________________________________
dropout_2719 (Dropout)       (None, 16, 16, 16)        0         
_________________________________________________________________
flatten_369 (Flatten)        (None, 4096)              0         
_________________________________________________________________
dense_819 (Dense)            (None, 64)                262208    
_________________________________________________________________
batch_normalization_1088 (Ba (None, 64)                256       
_________________________________________________________________
activation_2720 (Activation) (None, 64)                0         
_________________________________________________________________
dropout_2720 (Dropout)       (None, 64)                0         
_________________________________________________________________
dense_820 (Dense)            (None, 10)                650       
=================================================================
Total params: 706,618
Trainable params: 706,426
Non-trainable params: 192
_________________________________________________________________
