Model: "sequential_305"
_________________________________________________________________
Layer (type)                 Output Shape              Param #   
=================================================================
conv2d_1857 (Conv2D)         (None, 32, 32, 16)        448       
_________________________________________________________________
activation_2254 (Activation) (None, 32, 32, 16)        0         
_________________________________________________________________
dropout_2254 (Dropout)       (None, 32, 32, 16)        0         
_________________________________________________________________
conv2d_1858 (Conv2D)         (None, 32, 32, 512)       74240     
_________________________________________________________________
batch_normalization_918 (Bat (None, 32, 32, 512)       2048      
_________________________________________________________________
activation_2255 (Activation) (None, 32, 32, 512)       0         
_________________________________________________________________
dropout_2255 (Dropout)       (None, 32, 32, 512)       0         
_________________________________________________________________
max_pooling2d_571 (MaxPoolin (None, 16, 16, 512)       0         
_________________________________________________________________
conv2d_1859 (Conv2D)         (None, 16, 16, 128)       589952    
_________________________________________________________________
activation_2256 (Activation) (None, 16, 16, 128)       0         
_________________________________________________________________
dropout_2256 (Dropout)       (None, 16, 16, 128)       0         
_________________________________________________________________
max_pooling2d_572 (MaxPoolin (None, 8, 8, 128)         0         
_________________________________________________________________
conv2d_1860 (Conv2D)         (None, 8, 8, 512)         590336    
_________________________________________________________________
batch_normalization_919 (Bat (None, 8, 8, 512)         2048      
_________________________________________________________________
activation_2257 (Activation) (None, 8, 8, 512)         0         
_________________________________________________________________
dropout_2257 (Dropout)       (None, 8, 8, 512)         0         
_________________________________________________________________
conv2d_1861 (Conv2D)         (None, 8, 8, 1024)        4719616   
_________________________________________________________________
activation_2258 (Activation) (None, 8, 8, 1024)        0         
_________________________________________________________________
dropout_2258 (Dropout)       (None, 8, 8, 1024)        0         
_________________________________________________________________
max_pooling2d_573 (MaxPoolin (None, 4, 4, 1024)        0         
_________________________________________________________________
conv2d_1862 (Conv2D)         (None, 4, 4, 128)         1179776   
_________________________________________________________________
activation_2259 (Activation) (None, 4, 4, 128)         0         
_________________________________________________________________
dropout_2259 (Dropout)       (None, 4, 4, 128)         0         
_________________________________________________________________
conv2d_1863 (Conv2D)         (None, 4, 4, 16)          18448     
_________________________________________________________________
batch_normalization_920 (Bat (None, 4, 4, 16)          64        
_________________________________________________________________
activation_2260 (Activation) (None, 4, 4, 16)          0         
_________________________________________________________________
dropout_2260 (Dropout)       (None, 4, 4, 16)          0         
_________________________________________________________________
flatten_305 (Flatten)        (None, 256)               0         
_________________________________________________________________
dense_702 (Dense)            (None, 128)               32896     
_________________________________________________________________
batch_normalization_921 (Bat (None, 128)               512       
_________________________________________________________________
activation_2261 (Activation) (None, 128)               0         
_________________________________________________________________
dropout_2261 (Dropout)       (None, 128)               0         
_________________________________________________________________
dense_703 (Dense)            (None, 10)                1290      
=================================================================
Total params: 7,211,674
Trainable params: 7,209,338
Non-trainable params: 2,336
_________________________________________________________________
