Model: "sequential_349"
_________________________________________________________________
Layer (type)                 Output Shape              Param #   
=================================================================
conv2d_2141 (Conv2D)         (None, 32, 32, 16)        448       
_________________________________________________________________
activation_2576 (Activation) (None, 32, 32, 16)        0         
_________________________________________________________________
dropout_2576 (Dropout)       (None, 32, 32, 16)        0         
_________________________________________________________________
conv2d_2142 (Conv2D)         (None, 32, 32, 512)       74240     
_________________________________________________________________
batch_normalization_1042 (Ba (None, 32, 32, 512)       2048      
_________________________________________________________________
activation_2577 (Activation) (None, 32, 32, 512)       0         
_________________________________________________________________
dropout_2577 (Dropout)       (None, 32, 32, 512)       0         
_________________________________________________________________
max_pooling2d_635 (MaxPoolin (None, 16, 16, 512)       0         
_________________________________________________________________
conv2d_2143 (Conv2D)         (None, 16, 16, 128)       589952    
_________________________________________________________________
activation_2578 (Activation) (None, 16, 16, 128)       0         
_________________________________________________________________
dropout_2578 (Dropout)       (None, 16, 16, 128)       0         
_________________________________________________________________
max_pooling2d_636 (MaxPoolin (None, 8, 8, 128)         0         
_________________________________________________________________
conv2d_2144 (Conv2D)         (None, 8, 8, 512)         590336    
_________________________________________________________________
activation_2579 (Activation) (None, 8, 8, 512)         0         
_________________________________________________________________
dropout_2579 (Dropout)       (None, 8, 8, 512)         0         
_________________________________________________________________
conv2d_2145 (Conv2D)         (None, 8, 8, 256)         1179904   
_________________________________________________________________
activation_2580 (Activation) (None, 8, 8, 256)         0         
_________________________________________________________________
dropout_2580 (Dropout)       (None, 8, 8, 256)         0         
_________________________________________________________________
conv2d_2146 (Conv2D)         (None, 8, 8, 128)         295040    
_________________________________________________________________
activation_2581 (Activation) (None, 8, 8, 128)         0         
_________________________________________________________________
dropout_2581 (Dropout)       (None, 8, 8, 128)         0         
_________________________________________________________________
conv2d_2147 (Conv2D)         (None, 8, 8, 16)          18448     
_________________________________________________________________
batch_normalization_1043 (Ba (None, 8, 8, 16)          64        
_________________________________________________________________
activation_2582 (Activation) (None, 8, 8, 16)          0         
_________________________________________________________________
dropout_2582 (Dropout)       (None, 8, 8, 16)          0         
_________________________________________________________________
flatten_349 (Flatten)        (None, 1024)              0         
_________________________________________________________________
dense_784 (Dense)            (None, 64)                65600     
_________________________________________________________________
batch_normalization_1044 (Ba (None, 64)                256       
_________________________________________________________________
activation_2583 (Activation) (None, 64)                0         
_________________________________________________________________
dropout_2583 (Dropout)       (None, 64)                0         
_________________________________________________________________
dense_785 (Dense)            (None, 10)                650       
=================================================================
Total params: 2,816,986
Trainable params: 2,815,802
Non-trainable params: 1,184
_________________________________________________________________
