Model: "sequential_259"
_________________________________________________________________
Layer (type)                 Output Shape              Param #   
=================================================================
conv2d_1545 (Conv2D)         (None, 32, 32, 16)        448       
_________________________________________________________________
batch_normalization_764 (Bat (None, 32, 32, 16)        64        
_________________________________________________________________
activation_1901 (Activation) (None, 32, 32, 16)        0         
_________________________________________________________________
dropout_1901 (Dropout)       (None, 32, 32, 16)        0         
_________________________________________________________________
conv2d_1546 (Conv2D)         (None, 32, 32, 512)       74240     
_________________________________________________________________
batch_normalization_765 (Bat (None, 32, 32, 512)       2048      
_________________________________________________________________
activation_1902 (Activation) (None, 32, 32, 512)       0         
_________________________________________________________________
dropout_1902 (Dropout)       (None, 32, 32, 512)       0         
_________________________________________________________________
max_pooling2d_483 (MaxPoolin (None, 16, 16, 512)       0         
_________________________________________________________________
conv2d_1547 (Conv2D)         (None, 16, 16, 128)       589952    
_________________________________________________________________
activation_1903 (Activation) (None, 16, 16, 128)       0         
_________________________________________________________________
dropout_1903 (Dropout)       (None, 16, 16, 128)       0         
_________________________________________________________________
max_pooling2d_484 (MaxPoolin (None, 8, 8, 128)         0         
_________________________________________________________________
conv2d_1548 (Conv2D)         (None, 8, 8, 512)         590336    
_________________________________________________________________
batch_normalization_766 (Bat (None, 8, 8, 512)         2048      
_________________________________________________________________
activation_1904 (Activation) (None, 8, 8, 512)         0         
_________________________________________________________________
dropout_1904 (Dropout)       (None, 8, 8, 512)         0         
_________________________________________________________________
max_pooling2d_485 (MaxPoolin (None, 4, 4, 512)         0         
_________________________________________________________________
conv2d_1549 (Conv2D)         (None, 4, 4, 256)         1179904   
_________________________________________________________________
activation_1905 (Activation) (None, 4, 4, 256)         0         
_________________________________________________________________
dropout_1905 (Dropout)       (None, 4, 4, 256)         0         
_________________________________________________________________
conv2d_1550 (Conv2D)         (None, 4, 4, 128)         295040    
_________________________________________________________________
activation_1906 (Activation) (None, 4, 4, 128)         0         
_________________________________________________________________
dropout_1906 (Dropout)       (None, 4, 4, 128)         0         
_________________________________________________________________
conv2d_1551 (Conv2D)         (None, 4, 4, 16)          18448     
_________________________________________________________________
batch_normalization_767 (Bat (None, 4, 4, 16)          64        
_________________________________________________________________
activation_1907 (Activation) (None, 4, 4, 16)          0         
_________________________________________________________________
dropout_1907 (Dropout)       (None, 4, 4, 16)          0         
_________________________________________________________________
flatten_259 (Flatten)        (None, 256)               0         
_________________________________________________________________
dense_615 (Dense)            (None, 128)               32896     
_________________________________________________________________
activation_1908 (Activation) (None, 128)               0         
_________________________________________________________________
dropout_1908 (Dropout)       (None, 128)               0         
_________________________________________________________________
dense_616 (Dense)            (None, 10)                1290      
=================================================================
Total params: 2,786,778
Trainable params: 2,784,666
Non-trainable params: 2,112
_________________________________________________________________
