Model: "sequential_187"
_________________________________________________________________
Layer (type)                 Output Shape              Param #   
=================================================================
conv2d_1053 (Conv2D)         (None, 32, 32, 16)        448       
_________________________________________________________________
activation_1343 (Activation) (None, 32, 32, 16)        0         
_________________________________________________________________
dropout_1343 (Dropout)       (None, 32, 32, 16)        0         
_________________________________________________________________
conv2d_1054 (Conv2D)         (None, 32, 32, 512)       74240     
_________________________________________________________________
batch_normalization_536 (Bat (None, 32, 32, 512)       2048      
_________________________________________________________________
activation_1344 (Activation) (None, 32, 32, 512)       0         
_________________________________________________________________
dropout_1344 (Dropout)       (None, 32, 32, 512)       0         
_________________________________________________________________
max_pooling2d_348 (MaxPoolin (None, 16, 16, 512)       0         
_________________________________________________________________
conv2d_1055 (Conv2D)         (None, 16, 16, 128)       589952    
_________________________________________________________________
activation_1345 (Activation) (None, 16, 16, 128)       0         
_________________________________________________________________
dropout_1345 (Dropout)       (None, 16, 16, 128)       0         
_________________________________________________________________
max_pooling2d_349 (MaxPoolin (None, 8, 8, 128)         0         
_________________________________________________________________
conv2d_1056 (Conv2D)         (None, 8, 8, 512)         590336    
_________________________________________________________________
batch_normalization_537 (Bat (None, 8, 8, 512)         2048      
_________________________________________________________________
activation_1346 (Activation) (None, 8, 8, 512)         0         
_________________________________________________________________
dropout_1346 (Dropout)       (None, 8, 8, 512)         0         
_________________________________________________________________
conv2d_1057 (Conv2D)         (None, 8, 8, 32)          147488    
_________________________________________________________________
activation_1347 (Activation) (None, 8, 8, 32)          0         
_________________________________________________________________
dropout_1347 (Dropout)       (None, 8, 8, 32)          0         
_________________________________________________________________
conv2d_1058 (Conv2D)         (None, 8, 8, 128)         36992     
_________________________________________________________________
activation_1348 (Activation) (None, 8, 8, 128)         0         
_________________________________________________________________
dropout_1348 (Dropout)       (None, 8, 8, 128)         0         
_________________________________________________________________
conv2d_1059 (Conv2D)         (None, 8, 8, 16)          18448     
_________________________________________________________________
batch_normalization_538 (Bat (None, 8, 8, 16)          64        
_________________________________________________________________
activation_1349 (Activation) (None, 8, 8, 16)          0         
_________________________________________________________________
dropout_1349 (Dropout)       (None, 8, 8, 16)          0         
_________________________________________________________________
flatten_187 (Flatten)        (None, 1024)              0         
_________________________________________________________________
dense_477 (Dense)            (None, 128)               131200    
_________________________________________________________________
activation_1350 (Activation) (None, 128)               0         
_________________________________________________________________
dropout_1350 (Dropout)       (None, 128)               0         
_________________________________________________________________
dense_478 (Dense)            (None, 10)                1290      
=================================================================
Total params: 1,594,554
Trainable params: 1,592,474
Non-trainable params: 2,080
_________________________________________________________________
