Model: "sequential_168"
_________________________________________________________________
Layer (type)                 Output Shape              Param #   
=================================================================
conv2d_933 (Conv2D)          (None, 32, 32, 16)        448       
_________________________________________________________________
batch_normalization_486 (Bat (None, 32, 32, 16)        64        
_________________________________________________________________
activation_1199 (Activation) (None, 32, 32, 16)        0         
_________________________________________________________________
dropout_1199 (Dropout)       (None, 32, 32, 16)        0         
_________________________________________________________________
conv2d_934 (Conv2D)          (None, 32, 32, 512)       74240     
_________________________________________________________________
batch_normalization_487 (Bat (None, 32, 32, 512)       2048      
_________________________________________________________________
activation_1200 (Activation) (None, 32, 32, 512)       0         
_________________________________________________________________
dropout_1200 (Dropout)       (None, 32, 32, 512)       0         
_________________________________________________________________
max_pooling2d_317 (MaxPoolin (None, 16, 16, 512)       0         
_________________________________________________________________
conv2d_935 (Conv2D)          (None, 16, 16, 128)       589952    
_________________________________________________________________
activation_1201 (Activation) (None, 16, 16, 128)       0         
_________________________________________________________________
dropout_1201 (Dropout)       (None, 16, 16, 128)       0         
_________________________________________________________________
max_pooling2d_318 (MaxPoolin (None, 8, 8, 128)         0         
_________________________________________________________________
conv2d_936 (Conv2D)          (None, 8, 8, 512)         590336    
_________________________________________________________________
batch_normalization_488 (Bat (None, 8, 8, 512)         2048      
_________________________________________________________________
activation_1202 (Activation) (None, 8, 8, 512)         0         
_________________________________________________________________
dropout_1202 (Dropout)       (None, 8, 8, 512)         0         
_________________________________________________________________
conv2d_937 (Conv2D)          (None, 8, 8, 256)         1179904   
_________________________________________________________________
activation_1203 (Activation) (None, 8, 8, 256)         0         
_________________________________________________________________
dropout_1203 (Dropout)       (None, 8, 8, 256)         0         
_________________________________________________________________
conv2d_938 (Conv2D)          (None, 8, 8, 128)         295040    
_________________________________________________________________
activation_1204 (Activation) (None, 8, 8, 128)         0         
_________________________________________________________________
dropout_1204 (Dropout)       (None, 8, 8, 128)         0         
_________________________________________________________________
conv2d_939 (Conv2D)          (None, 8, 8, 16)          18448     
_________________________________________________________________
batch_normalization_489 (Bat (None, 8, 8, 16)          64        
_________________________________________________________________
activation_1205 (Activation) (None, 8, 8, 16)          0         
_________________________________________________________________
dropout_1205 (Dropout)       (None, 8, 8, 16)          0         
_________________________________________________________________
flatten_168 (Flatten)        (None, 1024)              0         
_________________________________________________________________
dense_434 (Dense)            (None, 128)               131200    
_________________________________________________________________
activation_1206 (Activation) (None, 128)               0         
_________________________________________________________________
dropout_1206 (Dropout)       (None, 128)               0         
_________________________________________________________________
dense_435 (Dense)            (None, 10)                1290      
=================================================================
Total params: 2,885,082
Trainable params: 2,882,970
Non-trainable params: 2,112
_________________________________________________________________
