Model: "sequential_126"
_________________________________________________________________
Layer (type)                 Output Shape              Param #   
=================================================================
conv2d_680 (Conv2D)          (None, 32, 32, 16)        448       
_________________________________________________________________
activation_893 (Activation)  (None, 32, 32, 16)        0         
_________________________________________________________________
dropout_893 (Dropout)        (None, 32, 32, 16)        0         
_________________________________________________________________
conv2d_681 (Conv2D)          (None, 32, 32, 512)       74240     
_________________________________________________________________
batch_normalization_379 (Bat (None, 32, 32, 512)       2048      
_________________________________________________________________
activation_894 (Activation)  (None, 32, 32, 512)       0         
_________________________________________________________________
dropout_894 (Dropout)        (None, 32, 32, 512)       0         
_________________________________________________________________
conv2d_682 (Conv2D)          (None, 32, 32, 16)        73744     
_________________________________________________________________
activation_895 (Activation)  (None, 32, 32, 16)        0         
_________________________________________________________________
dropout_895 (Dropout)        (None, 32, 32, 16)        0         
_________________________________________________________________
conv2d_683 (Conv2D)          (None, 32, 32, 512)       74240     
_________________________________________________________________
batch_normalization_380 (Bat (None, 32, 32, 512)       2048      
_________________________________________________________________
activation_896 (Activation)  (None, 32, 32, 512)       0         
_________________________________________________________________
dropout_896 (Dropout)        (None, 32, 32, 512)       0         
_________________________________________________________________
conv2d_684 (Conv2D)          (None, 32, 32, 256)       1179904   
_________________________________________________________________
activation_897 (Activation)  (None, 32, 32, 256)       0         
_________________________________________________________________
dropout_897 (Dropout)        (None, 32, 32, 256)       0         
_________________________________________________________________
conv2d_685 (Conv2D)          (None, 32, 32, 128)       295040    
_________________________________________________________________
activation_898 (Activation)  (None, 32, 32, 128)       0         
_________________________________________________________________
dropout_898 (Dropout)        (None, 32, 32, 128)       0         
_________________________________________________________________
conv2d_686 (Conv2D)          (None, 32, 32, 16)        18448     
_________________________________________________________________
batch_normalization_381 (Bat (None, 32, 32, 16)        64        
_________________________________________________________________
activation_899 (Activation)  (None, 32, 32, 16)        0         
_________________________________________________________________
dropout_899 (Dropout)        (None, 32, 32, 16)        0         
_________________________________________________________________
flatten_126 (Flatten)        (None, 16384)             0         
_________________________________________________________________
dense_339 (Dense)            (None, 128)               2097280   
_________________________________________________________________
activation_900 (Activation)  (None, 128)               0         
_________________________________________________________________
dropout_900 (Dropout)        (None, 128)               0         
_________________________________________________________________
dense_340 (Dense)            (None, 10)                1290      
=================================================================
Total params: 3,818,794
Trainable params: 3,816,714
Non-trainable params: 2,080
_________________________________________________________________
