Model: "sequential_7"
_________________________________________________________________
Layer (type)                 Output Shape              Param #   
=================================================================
conv2d_35 (Conv2D)           (None, 32, 32, 512)       14336     
_________________________________________________________________
batch_normalization_23 (Batc (None, 32, 32, 512)       2048      
_________________________________________________________________
activation_44 (Activation)   (None, 32, 32, 512)       0         
_________________________________________________________________
dropout_44 (Dropout)         (None, 32, 32, 512)       0         
_________________________________________________________________
max_pooling2d_13 (MaxPooling (None, 16, 16, 512)       0         
_________________________________________________________________
conv2d_36 (Conv2D)           (None, 16, 16, 256)       1179904   
_________________________________________________________________
batch_normalization_24 (Batc (None, 16, 16, 256)       1024      
_________________________________________________________________
activation_45 (Activation)   (None, 16, 16, 256)       0         
_________________________________________________________________
dropout_45 (Dropout)         (None, 16, 16, 256)       0         
_________________________________________________________________
conv2d_37 (Conv2D)           (None, 16, 16, 8)         18440     
_________________________________________________________________
activation_46 (Activation)   (None, 16, 16, 8)         0         
_________________________________________________________________
dropout_46 (Dropout)         (None, 16, 16, 8)         0         
_________________________________________________________________
max_pooling2d_14 (MaxPooling (None, 8, 8, 8)           0         
_________________________________________________________________
conv2d_38 (Conv2D)           (None, 8, 8, 256)         18688     
_________________________________________________________________
batch_normalization_25 (Batc (None, 8, 8, 256)         1024      
_________________________________________________________________
activation_47 (Activation)   (None, 8, 8, 256)         0         
_________________________________________________________________
dropout_47 (Dropout)         (None, 8, 8, 256)         0         
_________________________________________________________________
conv2d_39 (Conv2D)           (None, 8, 8, 128)         295040    
_________________________________________________________________
batch_normalization_26 (Batc (None, 8, 8, 128)         512       
_________________________________________________________________
activation_48 (Activation)   (None, 8, 8, 128)         0         
_________________________________________________________________
dropout_48 (Dropout)         (None, 8, 8, 128)         0         
_________________________________________________________________
conv2d_40 (Conv2D)           (None, 8, 8, 32)          36896     
_________________________________________________________________
activation_49 (Activation)   (None, 8, 8, 32)          0         
_________________________________________________________________
dropout_49 (Dropout)         (None, 8, 8, 32)          0         
_________________________________________________________________
conv2d_41 (Conv2D)           (None, 8, 8, 8)           2312      
_________________________________________________________________
activation_50 (Activation)   (None, 8, 8, 8)           0         
_________________________________________________________________
dropout_50 (Dropout)         (None, 8, 8, 8)           0         
_________________________________________________________________
flatten_7 (Flatten)          (None, 512)               0         
_________________________________________________________________
dense_16 (Dense)             (None, 256)               131328    
_________________________________________________________________
batch_normalization_27 (Batc (None, 256)               1024      
_________________________________________________________________
activation_51 (Activation)   (None, 256)               0         
_________________________________________________________________
dropout_51 (Dropout)         (None, 256)               0         
_________________________________________________________________
dense_17 (Dense)             (None, 512)               131584    
_________________________________________________________________
activation_52 (Activation)   (None, 512)               0         
_________________________________________________________________
dropout_52 (Dropout)         (None, 512)               0         
_________________________________________________________________
dense_18 (Dense)             (None, 10)                5130      
=================================================================
Total params: 1,839,290
Trainable params: 1,836,474
Non-trainable params: 2,816
_________________________________________________________________
