Model: "sequential_204"
_________________________________________________________________
Layer (type)                 Output Shape              Param #   
=================================================================
conv2d_1172 (Conv2D)         (None, 32, 32, 256)       7168      
_________________________________________________________________
batch_normalization_588 (Bat (None, 32, 32, 256)       1024      
_________________________________________________________________
activation_1479 (Activation) (None, 32, 32, 256)       0         
_________________________________________________________________
dropout_1479 (Dropout)       (None, 32, 32, 256)       0         
_________________________________________________________________
conv2d_1173 (Conv2D)         (None, 32, 32, 1024)      2360320   
_________________________________________________________________
batch_normalization_589 (Bat (None, 32, 32, 1024)      4096      
_________________________________________________________________
activation_1480 (Activation) (None, 32, 32, 1024)      0         
_________________________________________________________________
dropout_1480 (Dropout)       (None, 32, 32, 1024)      0         
_________________________________________________________________
max_pooling2d_379 (MaxPoolin (None, 16, 16, 1024)      0         
_________________________________________________________________
conv2d_1174 (Conv2D)         (None, 16, 16, 128)       1179776   
_________________________________________________________________
activation_1481 (Activation) (None, 16, 16, 128)       0         
_________________________________________________________________
dropout_1481 (Dropout)       (None, 16, 16, 128)       0         
_________________________________________________________________
max_pooling2d_380 (MaxPoolin (None, 8, 8, 128)         0         
_________________________________________________________________
conv2d_1175 (Conv2D)         (None, 8, 8, 512)         590336    
_________________________________________________________________
batch_normalization_590 (Bat (None, 8, 8, 512)         2048      
_________________________________________________________________
activation_1482 (Activation) (None, 8, 8, 512)         0         
_________________________________________________________________
dropout_1482 (Dropout)       (None, 8, 8, 512)         0         
_________________________________________________________________
conv2d_1176 (Conv2D)         (None, 8, 8, 256)         1179904   
_________________________________________________________________
activation_1483 (Activation) (None, 8, 8, 256)         0         
_________________________________________________________________
dropout_1483 (Dropout)       (None, 8, 8, 256)         0         
_________________________________________________________________
conv2d_1177 (Conv2D)         (None, 8, 8, 128)         295040    
_________________________________________________________________
activation_1484 (Activation) (None, 8, 8, 128)         0         
_________________________________________________________________
dropout_1484 (Dropout)       (None, 8, 8, 128)         0         
_________________________________________________________________
conv2d_1178 (Conv2D)         (None, 8, 8, 16)          18448     
_________________________________________________________________
batch_normalization_591 (Bat (None, 8, 8, 16)          64        
_________________________________________________________________
activation_1485 (Activation) (None, 8, 8, 16)          0         
_________________________________________________________________
dropout_1485 (Dropout)       (None, 8, 8, 16)          0         
_________________________________________________________________
flatten_204 (Flatten)        (None, 1024)              0         
_________________________________________________________________
dense_511 (Dense)            (None, 128)               131200    
_________________________________________________________________
batch_normalization_592 (Bat (None, 128)               512       
_________________________________________________________________
activation_1486 (Activation) (None, 128)               0         
_________________________________________________________________
dropout_1486 (Dropout)       (None, 128)               0         
_________________________________________________________________
dense_512 (Dense)            (None, 10)                1290      
=================================================================
Total params: 5,771,226
Trainable params: 5,767,354
Non-trainable params: 3,872
_________________________________________________________________
