Model: "sequential_379"
_________________________________________________________________
Layer (type)                 Output Shape              Param #   
=================================================================
conv2d_2329 (Conv2D)         (None, 32, 32, 256)       7168      
_________________________________________________________________
activation_2785 (Activation) (None, 32, 32, 256)       0         
_________________________________________________________________
dropout_2785 (Dropout)       (None, 32, 32, 256)       0         
_________________________________________________________________
conv2d_2330 (Conv2D)         (None, 32, 32, 128)       295040    
_________________________________________________________________
batch_normalization_1111 (Ba (None, 32, 32, 128)       512       
_________________________________________________________________
activation_2786 (Activation) (None, 32, 32, 128)       0         
_________________________________________________________________
dropout_2786 (Dropout)       (None, 32, 32, 128)       0         
_________________________________________________________________
max_pooling2d_679 (MaxPoolin (None, 16, 16, 128)       0         
_________________________________________________________________
conv2d_2331 (Conv2D)         (None, 16, 16, 128)       147584    
_________________________________________________________________
activation_2787 (Activation) (None, 16, 16, 128)       0         
_________________________________________________________________
dropout_2787 (Dropout)       (None, 16, 16, 128)       0         
_________________________________________________________________
max_pooling2d_680 (MaxPoolin (None, 8, 8, 128)         0         
_________________________________________________________________
conv2d_2332 (Conv2D)         (None, 8, 8, 512)         590336    
_________________________________________________________________
batch_normalization_1112 (Ba (None, 8, 8, 512)         2048      
_________________________________________________________________
activation_2788 (Activation) (None, 8, 8, 512)         0         
_________________________________________________________________
dropout_2788 (Dropout)       (None, 8, 8, 512)         0         
_________________________________________________________________
conv2d_2333 (Conv2D)         (None, 8, 8, 1024)        4719616   
_________________________________________________________________
activation_2789 (Activation) (None, 8, 8, 1024)        0         
_________________________________________________________________
dropout_2789 (Dropout)       (None, 8, 8, 1024)        0         
_________________________________________________________________
max_pooling2d_681 (MaxPoolin (None, 4, 4, 1024)        0         
_________________________________________________________________
conv2d_2334 (Conv2D)         (None, 4, 4, 128)         1179776   
_________________________________________________________________
batch_normalization_1113 (Ba (None, 4, 4, 128)         512       
_________________________________________________________________
activation_2790 (Activation) (None, 4, 4, 128)         0         
_________________________________________________________________
dropout_2790 (Dropout)       (None, 4, 4, 128)         0         
_________________________________________________________________
conv2d_2335 (Conv2D)         (None, 4, 4, 16)          18448     
_________________________________________________________________
batch_normalization_1114 (Ba (None, 4, 4, 16)          64        
_________________________________________________________________
activation_2791 (Activation) (None, 4, 4, 16)          0         
_________________________________________________________________
dropout_2791 (Dropout)       (None, 4, 4, 16)          0         
_________________________________________________________________
flatten_379 (Flatten)        (None, 256)               0         
_________________________________________________________________
dense_835 (Dense)            (None, 10)                2570      
=================================================================
Total params: 6,963,674
Trainable params: 6,962,106
Non-trainable params: 1,568
_________________________________________________________________
