Model: "sequential_33"
_________________________________________________________________
Layer (type)                 Output Shape              Param #   
=================================================================
conv2d_175 (Conv2D)          (None, 32, 32, 512)       14336     
_________________________________________________________________
batch_normalization_117 (Bat (None, 32, 32, 512)       2048      
_________________________________________________________________
activation_235 (Activation)  (None, 32, 32, 512)       0         
_________________________________________________________________
dropout_235 (Dropout)        (None, 32, 32, 512)       0         
_________________________________________________________________
max_pooling2d_67 (MaxPooling (None, 16, 16, 512)       0         
_________________________________________________________________
conv2d_176 (Conv2D)          (None, 16, 16, 256)       1179904   
_________________________________________________________________
batch_normalization_118 (Bat (None, 16, 16, 256)       1024      
_________________________________________________________________
activation_236 (Activation)  (None, 16, 16, 256)       0         
_________________________________________________________________
dropout_236 (Dropout)        (None, 16, 16, 256)       0         
_________________________________________________________________
conv2d_177 (Conv2D)          (None, 16, 16, 8)         18440     
_________________________________________________________________
activation_237 (Activation)  (None, 16, 16, 8)         0         
_________________________________________________________________
dropout_237 (Dropout)        (None, 16, 16, 8)         0         
_________________________________________________________________
max_pooling2d_68 (MaxPooling (None, 8, 8, 8)           0         
_________________________________________________________________
conv2d_178 (Conv2D)          (None, 8, 8, 256)         18688     
_________________________________________________________________
batch_normalization_119 (Bat (None, 8, 8, 256)         1024      
_________________________________________________________________
activation_238 (Activation)  (None, 8, 8, 256)         0         
_________________________________________________________________
dropout_238 (Dropout)        (None, 8, 8, 256)         0         
_________________________________________________________________
conv2d_179 (Conv2D)          (None, 8, 8, 128)         295040    
_________________________________________________________________
batch_normalization_120 (Bat (None, 8, 8, 128)         512       
_________________________________________________________________
activation_239 (Activation)  (None, 8, 8, 128)         0         
_________________________________________________________________
dropout_239 (Dropout)        (None, 8, 8, 128)         0         
_________________________________________________________________
conv2d_180 (Conv2D)          (None, 8, 8, 32)          36896     
_________________________________________________________________
activation_240 (Activation)  (None, 8, 8, 32)          0         
_________________________________________________________________
dropout_240 (Dropout)        (None, 8, 8, 32)          0         
_________________________________________________________________
conv2d_181 (Conv2D)          (None, 8, 8, 128)         36992     
_________________________________________________________________
activation_241 (Activation)  (None, 8, 8, 128)         0         
_________________________________________________________________
dropout_241 (Dropout)        (None, 8, 8, 128)         0         
_________________________________________________________________
conv2d_182 (Conv2D)          (None, 8, 8, 16)          18448     
_________________________________________________________________
batch_normalization_121 (Bat (None, 8, 8, 16)          64        
_________________________________________________________________
activation_242 (Activation)  (None, 8, 8, 16)          0         
_________________________________________________________________
dropout_242 (Dropout)        (None, 8, 8, 16)          0         
_________________________________________________________________
flatten_33 (Flatten)         (None, 1024)              0         
_________________________________________________________________
dense_93 (Dense)             (None, 128)               131200    
_________________________________________________________________
activation_243 (Activation)  (None, 128)               0         
_________________________________________________________________
dropout_243 (Dropout)        (None, 128)               0         
_________________________________________________________________
dense_94 (Dense)             (None, 10)                1290      
=================================================================
Total params: 1,755,906
Trainable params: 1,753,570
Non-trainable params: 2,336
_________________________________________________________________
