Model: "sequential_222"
_________________________________________________________________
Layer (type)                 Output Shape              Param #   
=================================================================
conv2d_1293 (Conv2D)         (None, 32, 32, 16)        448       
_________________________________________________________________
activation_1617 (Activation) (None, 32, 32, 16)        0         
_________________________________________________________________
dropout_1617 (Dropout)       (None, 32, 32, 16)        0         
_________________________________________________________________
conv2d_1294 (Conv2D)         (None, 32, 32, 512)       74240     
_________________________________________________________________
batch_normalization_641 (Bat (None, 32, 32, 512)       2048      
_________________________________________________________________
activation_1618 (Activation) (None, 32, 32, 512)       0         
_________________________________________________________________
dropout_1618 (Dropout)       (None, 32, 32, 512)       0         
_________________________________________________________________
max_pooling2d_412 (MaxPoolin (None, 16, 16, 512)       0         
_________________________________________________________________
conv2d_1295 (Conv2D)         (None, 16, 16, 128)       589952    
_________________________________________________________________
batch_normalization_642 (Bat (None, 16, 16, 128)       512       
_________________________________________________________________
activation_1619 (Activation) (None, 16, 16, 128)       0         
_________________________________________________________________
dropout_1619 (Dropout)       (None, 16, 16, 128)       0         
_________________________________________________________________
max_pooling2d_413 (MaxPoolin (None, 8, 8, 128)         0         
_________________________________________________________________
conv2d_1296 (Conv2D)         (None, 8, 8, 512)         590336    
_________________________________________________________________
batch_normalization_643 (Bat (None, 8, 8, 512)         2048      
_________________________________________________________________
activation_1620 (Activation) (None, 8, 8, 512)         0         
_________________________________________________________________
dropout_1620 (Dropout)       (None, 8, 8, 512)         0         
_________________________________________________________________
conv2d_1297 (Conv2D)         (None, 8, 8, 256)         1179904   
_________________________________________________________________
activation_1621 (Activation) (None, 8, 8, 256)         0         
_________________________________________________________________
dropout_1621 (Dropout)       (None, 8, 8, 256)         0         
_________________________________________________________________
conv2d_1298 (Conv2D)         (None, 8, 8, 128)         295040    
_________________________________________________________________
activation_1622 (Activation) (None, 8, 8, 128)         0         
_________________________________________________________________
dropout_1622 (Dropout)       (None, 8, 8, 128)         0         
_________________________________________________________________
conv2d_1299 (Conv2D)         (None, 8, 8, 16)          18448     
_________________________________________________________________
batch_normalization_644 (Bat (None, 8, 8, 16)          64        
_________________________________________________________________
activation_1623 (Activation) (None, 8, 8, 16)          0         
_________________________________________________________________
dropout_1623 (Dropout)       (None, 8, 8, 16)          0         
_________________________________________________________________
flatten_222 (Flatten)        (None, 1024)              0         
_________________________________________________________________
dense_546 (Dense)            (None, 128)               131200    
_________________________________________________________________
activation_1624 (Activation) (None, 128)               0         
_________________________________________________________________
dropout_1624 (Dropout)       (None, 128)               0         
_________________________________________________________________
dense_547 (Dense)            (None, 10)                1290      
=================================================================
Total params: 2,885,530
Trainable params: 2,883,194
Non-trainable params: 2,336
_________________________________________________________________
