Model: "sequential_41"
_________________________________________________________________
Layer (type)                 Output Shape              Param #   
=================================================================
conv2d_225 (Conv2D)          (None, 32, 32, 256)       7168      
_________________________________________________________________
batch_normalization_151 (Bat (None, 32, 32, 256)       1024      
_________________________________________________________________
activation_296 (Activation)  (None, 32, 32, 256)       0         
_________________________________________________________________
dropout_296 (Dropout)        (None, 32, 32, 256)       0         
_________________________________________________________________
max_pooling2d_82 (MaxPooling (None, 16, 16, 256)       0         
_________________________________________________________________
conv2d_226 (Conv2D)          (None, 16, 16, 1024)      2360320   
_________________________________________________________________
batch_normalization_152 (Bat (None, 16, 16, 1024)      4096      
_________________________________________________________________
activation_297 (Activation)  (None, 16, 16, 1024)      0         
_________________________________________________________________
dropout_297 (Dropout)        (None, 16, 16, 1024)      0         
_________________________________________________________________
conv2d_227 (Conv2D)          (None, 16, 16, 32)        294944    
_________________________________________________________________
activation_298 (Activation)  (None, 16, 16, 32)        0         
_________________________________________________________________
dropout_298 (Dropout)        (None, 16, 16, 32)        0         
_________________________________________________________________
max_pooling2d_83 (MaxPooling (None, 8, 8, 32)          0         
_________________________________________________________________
conv2d_228 (Conv2D)          (None, 8, 8, 64)          18496     
_________________________________________________________________
batch_normalization_153 (Bat (None, 8, 8, 64)          256       
_________________________________________________________________
activation_299 (Activation)  (None, 8, 8, 64)          0         
_________________________________________________________________
dropout_299 (Dropout)        (None, 8, 8, 64)          0         
_________________________________________________________________
flatten_41 (Flatten)         (None, 4096)              0         
_________________________________________________________________
dense_112 (Dense)            (None, 32)                131104    
_________________________________________________________________
activation_300 (Activation)  (None, 32)                0         
_________________________________________________________________
dropout_300 (Dropout)        (None, 32)                0         
_________________________________________________________________
dense_113 (Dense)            (None, 32)                1056      
_________________________________________________________________
activation_301 (Activation)  (None, 32)                0         
_________________________________________________________________
dropout_301 (Dropout)        (None, 32)                0         
_________________________________________________________________
dense_114 (Dense)            (None, 10)                330       
=================================================================
Total params: 2,818,794
Trainable params: 2,816,106
Non-trainable params: 2,688
_________________________________________________________________
