Model: "sequential_184"
_________________________________________________________________
Layer (type)                 Output Shape              Param #   
=================================================================
conv2d_1034 (Conv2D)         (None, 32, 32, 16)        448       
_________________________________________________________________
batch_normalization_527 (Bat (None, 32, 32, 16)        64        
_________________________________________________________________
activation_1321 (Activation) (None, 32, 32, 16)        0         
_________________________________________________________________
dropout_1321 (Dropout)       (None, 32, 32, 16)        0         
_________________________________________________________________
conv2d_1035 (Conv2D)         (None, 32, 32, 512)       74240     
_________________________________________________________________
batch_normalization_528 (Bat (None, 32, 32, 512)       2048      
_________________________________________________________________
activation_1322 (Activation) (None, 32, 32, 512)       0         
_________________________________________________________________
dropout_1322 (Dropout)       (None, 32, 32, 512)       0         
_________________________________________________________________
max_pooling2d_346 (MaxPoolin (None, 16, 16, 512)       0         
_________________________________________________________________
conv2d_1036 (Conv2D)         (None, 16, 16, 128)       589952    
_________________________________________________________________
activation_1323 (Activation) (None, 16, 16, 128)       0         
_________________________________________________________________
dropout_1323 (Dropout)       (None, 16, 16, 128)       0         
_________________________________________________________________
max_pooling2d_347 (MaxPoolin (None, 8, 8, 128)         0         
_________________________________________________________________
conv2d_1037 (Conv2D)         (None, 8, 8, 512)         590336    
_________________________________________________________________
batch_normalization_529 (Bat (None, 8, 8, 512)         2048      
_________________________________________________________________
activation_1324 (Activation) (None, 8, 8, 512)         0         
_________________________________________________________________
dropout_1324 (Dropout)       (None, 8, 8, 512)         0         
_________________________________________________________________
conv2d_1038 (Conv2D)         (None, 8, 8, 256)         1179904   
_________________________________________________________________
activation_1325 (Activation) (None, 8, 8, 256)         0         
_________________________________________________________________
dropout_1325 (Dropout)       (None, 8, 8, 256)         0         
_________________________________________________________________
conv2d_1039 (Conv2D)         (None, 8, 8, 128)         295040    
_________________________________________________________________
activation_1326 (Activation) (None, 8, 8, 128)         0         
_________________________________________________________________
dropout_1326 (Dropout)       (None, 8, 8, 128)         0         
_________________________________________________________________
conv2d_1040 (Conv2D)         (None, 8, 8, 16)          18448     
_________________________________________________________________
batch_normalization_530 (Bat (None, 8, 8, 16)          64        
_________________________________________________________________
activation_1327 (Activation) (None, 8, 8, 16)          0         
_________________________________________________________________
dropout_1327 (Dropout)       (None, 8, 8, 16)          0         
_________________________________________________________________
flatten_184 (Flatten)        (None, 1024)              0         
_________________________________________________________________
dense_471 (Dense)            (None, 128)               131200    
_________________________________________________________________
activation_1328 (Activation) (None, 128)               0         
_________________________________________________________________
dropout_1328 (Dropout)       (None, 128)               0         
_________________________________________________________________
dense_472 (Dense)            (None, 10)                1290      
=================================================================
Total params: 2,885,082
Trainable params: 2,882,970
Non-trainable params: 2,112
_________________________________________________________________
