Model: "sequential_203"
_________________________________________________________________
Layer (type)                 Output Shape              Param #   
=================================================================
conv2d_1165 (Conv2D)         (None, 32, 32, 256)       7168      
_________________________________________________________________
batch_normalization_584 (Bat (None, 32, 32, 256)       1024      
_________________________________________________________________
activation_1471 (Activation) (None, 32, 32, 256)       0         
_________________________________________________________________
dropout_1471 (Dropout)       (None, 32, 32, 256)       0         
_________________________________________________________________
conv2d_1166 (Conv2D)         (None, 32, 32, 512)       1180160   
_________________________________________________________________
batch_normalization_585 (Bat (None, 32, 32, 512)       2048      
_________________________________________________________________
activation_1472 (Activation) (None, 32, 32, 512)       0         
_________________________________________________________________
dropout_1472 (Dropout)       (None, 32, 32, 512)       0         
_________________________________________________________________
max_pooling2d_377 (MaxPoolin (None, 16, 16, 512)       0         
_________________________________________________________________
conv2d_1167 (Conv2D)         (None, 16, 16, 128)       589952    
_________________________________________________________________
activation_1473 (Activation) (None, 16, 16, 128)       0         
_________________________________________________________________
dropout_1473 (Dropout)       (None, 16, 16, 128)       0         
_________________________________________________________________
max_pooling2d_378 (MaxPoolin (None, 8, 8, 128)         0         
_________________________________________________________________
conv2d_1168 (Conv2D)         (None, 8, 8, 512)         590336    
_________________________________________________________________
batch_normalization_586 (Bat (None, 8, 8, 512)         2048      
_________________________________________________________________
activation_1474 (Activation) (None, 8, 8, 512)         0         
_________________________________________________________________
dropout_1474 (Dropout)       (None, 8, 8, 512)         0         
_________________________________________________________________
conv2d_1169 (Conv2D)         (None, 8, 8, 256)         1179904   
_________________________________________________________________
activation_1475 (Activation) (None, 8, 8, 256)         0         
_________________________________________________________________
dropout_1475 (Dropout)       (None, 8, 8, 256)         0         
_________________________________________________________________
conv2d_1170 (Conv2D)         (None, 8, 8, 128)         295040    
_________________________________________________________________
activation_1476 (Activation) (None, 8, 8, 128)         0         
_________________________________________________________________
dropout_1476 (Dropout)       (None, 8, 8, 128)         0         
_________________________________________________________________
conv2d_1171 (Conv2D)         (None, 8, 8, 16)          18448     
_________________________________________________________________
batch_normalization_587 (Bat (None, 8, 8, 16)          64        
_________________________________________________________________
activation_1477 (Activation) (None, 8, 8, 16)          0         
_________________________________________________________________
dropout_1477 (Dropout)       (None, 8, 8, 16)          0         
_________________________________________________________________
flatten_203 (Flatten)        (None, 1024)              0         
_________________________________________________________________
dense_509 (Dense)            (None, 128)               131200    
_________________________________________________________________
activation_1478 (Activation) (None, 128)               0         
_________________________________________________________________
dropout_1478 (Dropout)       (None, 128)               0         
_________________________________________________________________
dense_510 (Dense)            (None, 10)                1290      
=================================================================
Total params: 3,998,682
Trainable params: 3,996,090
Non-trainable params: 2,592
_________________________________________________________________
