Model: "sequential_83"
_________________________________________________________________
Layer (type)                 Output Shape              Param #   
=================================================================
conv2d_443 (Conv2D)          (None, 32, 32, 32)        896       
_________________________________________________________________
batch_normalization_279 (Bat (None, 32, 32, 32)        128       
_________________________________________________________________
activation_590 (Activation)  (None, 32, 32, 32)        0         
_________________________________________________________________
dropout_590 (Dropout)        (None, 32, 32, 32)        0         
_________________________________________________________________
max_pooling2d_164 (MaxPoolin (None, 16, 16, 32)        0         
_________________________________________________________________
conv2d_444 (Conv2D)          (None, 16, 16, 512)       147968    
_________________________________________________________________
batch_normalization_280 (Bat (None, 16, 16, 512)       2048      
_________________________________________________________________
activation_591 (Activation)  (None, 16, 16, 512)       0         
_________________________________________________________________
dropout_591 (Dropout)        (None, 16, 16, 512)       0         
_________________________________________________________________
conv2d_445 (Conv2D)          (None, 16, 16, 32)        147488    
_________________________________________________________________
batch_normalization_281 (Bat (None, 16, 16, 32)        128       
_________________________________________________________________
activation_592 (Activation)  (None, 16, 16, 32)        0         
_________________________________________________________________
dropout_592 (Dropout)        (None, 16, 16, 32)        0         
_________________________________________________________________
max_pooling2d_165 (MaxPoolin (None, 8, 8, 32)          0         
_________________________________________________________________
conv2d_446 (Conv2D)          (None, 8, 8, 256)         73984     
_________________________________________________________________
activation_593 (Activation)  (None, 8, 8, 256)         0         
_________________________________________________________________
dropout_593 (Dropout)        (None, 8, 8, 256)         0         
_________________________________________________________________
conv2d_447 (Conv2D)          (None, 8, 8, 128)         295040    
_________________________________________________________________
activation_594 (Activation)  (None, 8, 8, 128)         0         
_________________________________________________________________
dropout_594 (Dropout)        (None, 8, 8, 128)         0         
_________________________________________________________________
flatten_83 (Flatten)         (None, 8192)              0         
_________________________________________________________________
dense_230 (Dense)            (None, 128)               1048704   
_________________________________________________________________
activation_595 (Activation)  (None, 128)               0         
_________________________________________________________________
dropout_595 (Dropout)        (None, 128)               0         
_________________________________________________________________
dense_231 (Dense)            (None, 64)                8256      
_________________________________________________________________
batch_normalization_282 (Bat (None, 64)                256       
_________________________________________________________________
activation_596 (Activation)  (None, 64)                0         
_________________________________________________________________
dropout_596 (Dropout)        (None, 64)                0         
_________________________________________________________________
dense_232 (Dense)            (None, 512)               33280     
_________________________________________________________________
activation_597 (Activation)  (None, 512)               0         
_________________________________________________________________
dropout_597 (Dropout)        (None, 512)               0         
_________________________________________________________________
dense_233 (Dense)            (None, 10)                5130      
=================================================================
Total params: 1,763,306
Trainable params: 1,762,026
Non-trainable params: 1,280
_________________________________________________________________
