Model: "sequential_18"
_________________________________________________________________
Layer (type)                 Output Shape              Param #   
=================================================================
conv2d_99 (Conv2D)           (None, 32, 32, 1024)      28672     
_________________________________________________________________
batch_normalization_66 (Batc (None, 32, 32, 1024)      4096      
_________________________________________________________________
activation_129 (Activation)  (None, 32, 32, 1024)      0         
_________________________________________________________________
dropout_129 (Dropout)        (None, 32, 32, 1024)      0         
_________________________________________________________________
max_pooling2d_35 (MaxPooling (None, 16, 16, 1024)      0         
_________________________________________________________________
conv2d_100 (Conv2D)          (None, 16, 16, 128)       1179776   
_________________________________________________________________
batch_normalization_67 (Batc (None, 16, 16, 128)       512       
_________________________________________________________________
activation_130 (Activation)  (None, 16, 16, 128)       0         
_________________________________________________________________
dropout_130 (Dropout)        (None, 16, 16, 128)       0         
_________________________________________________________________
max_pooling2d_36 (MaxPooling (None, 8, 8, 128)         0         
_________________________________________________________________
conv2d_101 (Conv2D)          (None, 8, 8, 32)          36896     
_________________________________________________________________
batch_normalization_68 (Batc (None, 8, 8, 32)          128       
_________________________________________________________________
activation_131 (Activation)  (None, 8, 8, 32)          0         
_________________________________________________________________
dropout_131 (Dropout)        (None, 8, 8, 32)          0         
_________________________________________________________________
conv2d_102 (Conv2D)          (None, 8, 8, 256)         73984     
_________________________________________________________________
batch_normalization_69 (Batc (None, 8, 8, 256)         1024      
_________________________________________________________________
activation_132 (Activation)  (None, 8, 8, 256)         0         
_________________________________________________________________
dropout_132 (Dropout)        (None, 8, 8, 256)         0         
_________________________________________________________________
conv2d_103 (Conv2D)          (None, 8, 8, 1024)        2360320   
_________________________________________________________________
batch_normalization_70 (Batc (None, 8, 8, 1024)        4096      
_________________________________________________________________
activation_133 (Activation)  (None, 8, 8, 1024)        0         
_________________________________________________________________
dropout_133 (Dropout)        (None, 8, 8, 1024)        0         
_________________________________________________________________
conv2d_104 (Conv2D)          (None, 8, 8, 512)         4719104   
_________________________________________________________________
batch_normalization_71 (Batc (None, 8, 8, 512)         2048      
_________________________________________________________________
activation_134 (Activation)  (None, 8, 8, 512)         0         
_________________________________________________________________
dropout_134 (Dropout)        (None, 8, 8, 512)         0         
_________________________________________________________________
flatten_18 (Flatten)         (None, 32768)             0         
_________________________________________________________________
dense_48 (Dense)             (None, 256)               8388864   
_________________________________________________________________
batch_normalization_72 (Batc (None, 256)               1024      
_________________________________________________________________
activation_135 (Activation)  (None, 256)               0         
_________________________________________________________________
dropout_135 (Dropout)        (None, 256)               0         
_________________________________________________________________
dense_49 (Dense)             (None, 10)                2570      
=================================================================
Total params: 16,803,114
Trainable params: 16,796,650
Non-trainable params: 6,464
_________________________________________________________________
