Model: "sequential_285"
_________________________________________________________________
Layer (type)                 Output Shape              Param #   
=================================================================
conv2d_1722 (Conv2D)         (None, 32, 32, 16)        448       
_________________________________________________________________
batch_normalization_851 (Bat (None, 32, 32, 16)        64        
_________________________________________________________________
activation_2101 (Activation) (None, 32, 32, 16)        0         
_________________________________________________________________
dropout_2101 (Dropout)       (None, 32, 32, 16)        0         
_________________________________________________________________
conv2d_1723 (Conv2D)         (None, 32, 32, 128)       18560     
_________________________________________________________________
batch_normalization_852 (Bat (None, 32, 32, 128)       512       
_________________________________________________________________
activation_2102 (Activation) (None, 32, 32, 128)       0         
_________________________________________________________________
dropout_2102 (Dropout)       (None, 32, 32, 128)       0         
_________________________________________________________________
max_pooling2d_535 (MaxPoolin (None, 16, 16, 128)       0         
_________________________________________________________________
conv2d_1724 (Conv2D)         (None, 16, 16, 128)       147584    
_________________________________________________________________
activation_2103 (Activation) (None, 16, 16, 128)       0         
_________________________________________________________________
dropout_2103 (Dropout)       (None, 16, 16, 128)       0         
_________________________________________________________________
max_pooling2d_536 (MaxPoolin (None, 8, 8, 128)         0         
_________________________________________________________________
conv2d_1725 (Conv2D)         (None, 8, 8, 512)         590336    
_________________________________________________________________
batch_normalization_853 (Bat (None, 8, 8, 512)         2048      
_________________________________________________________________
activation_2104 (Activation) (None, 8, 8, 512)         0         
_________________________________________________________________
dropout_2104 (Dropout)       (None, 8, 8, 512)         0         
_________________________________________________________________
conv2d_1726 (Conv2D)         (None, 8, 8, 256)         1179904   
_________________________________________________________________
activation_2105 (Activation) (None, 8, 8, 256)         0         
_________________________________________________________________
dropout_2105 (Dropout)       (None, 8, 8, 256)         0         
_________________________________________________________________
conv2d_1727 (Conv2D)         (None, 8, 8, 128)         295040    
_________________________________________________________________
activation_2106 (Activation) (None, 8, 8, 128)         0         
_________________________________________________________________
dropout_2106 (Dropout)       (None, 8, 8, 128)         0         
_________________________________________________________________
conv2d_1728 (Conv2D)         (None, 8, 8, 16)          18448     
_________________________________________________________________
batch_normalization_854 (Bat (None, 8, 8, 16)          64        
_________________________________________________________________
activation_2107 (Activation) (None, 8, 8, 16)          0         
_________________________________________________________________
dropout_2107 (Dropout)       (None, 8, 8, 16)          0         
_________________________________________________________________
flatten_285 (Flatten)        (None, 1024)              0         
_________________________________________________________________
dense_664 (Dense)            (None, 128)               131200    
_________________________________________________________________
activation_2108 (Activation) (None, 128)               0         
_________________________________________________________________
dropout_2108 (Dropout)       (None, 128)               0         
_________________________________________________________________
dense_665 (Dense)            (None, 10)                1290      
=================================================================
Total params: 2,385,498
Trainable params: 2,384,154
Non-trainable params: 1,344
_________________________________________________________________
