Model: "sequential_302"
_________________________________________________________________
Layer (type)                 Output Shape              Param #   
=================================================================
conv2d_1836 (Conv2D)         (None, 32, 32, 16)        448       
_________________________________________________________________
activation_2230 (Activation) (None, 32, 32, 16)        0         
_________________________________________________________________
dropout_2230 (Dropout)       (None, 32, 32, 16)        0         
_________________________________________________________________
conv2d_1837 (Conv2D)         (None, 32, 32, 128)       18560     
_________________________________________________________________
batch_normalization_908 (Bat (None, 32, 32, 128)       512       
_________________________________________________________________
activation_2231 (Activation) (None, 32, 32, 128)       0         
_________________________________________________________________
dropout_2231 (Dropout)       (None, 32, 32, 128)       0         
_________________________________________________________________
max_pooling2d_564 (MaxPoolin (None, 16, 16, 128)       0         
_________________________________________________________________
conv2d_1838 (Conv2D)         (None, 16, 16, 128)       147584    
_________________________________________________________________
activation_2232 (Activation) (None, 16, 16, 128)       0         
_________________________________________________________________
dropout_2232 (Dropout)       (None, 16, 16, 128)       0         
_________________________________________________________________
max_pooling2d_565 (MaxPoolin (None, 8, 8, 128)         0         
_________________________________________________________________
conv2d_1839 (Conv2D)         (None, 8, 8, 512)         590336    
_________________________________________________________________
batch_normalization_909 (Bat (None, 8, 8, 512)         2048      
_________________________________________________________________
activation_2233 (Activation) (None, 8, 8, 512)         0         
_________________________________________________________________
dropout_2233 (Dropout)       (None, 8, 8, 512)         0         
_________________________________________________________________
conv2d_1840 (Conv2D)         (None, 8, 8, 256)         1179904   
_________________________________________________________________
activation_2234 (Activation) (None, 8, 8, 256)         0         
_________________________________________________________________
dropout_2234 (Dropout)       (None, 8, 8, 256)         0         
_________________________________________________________________
conv2d_1841 (Conv2D)         (None, 8, 8, 128)         295040    
_________________________________________________________________
activation_2235 (Activation) (None, 8, 8, 128)         0         
_________________________________________________________________
dropout_2235 (Dropout)       (None, 8, 8, 128)         0         
_________________________________________________________________
conv2d_1842 (Conv2D)         (None, 8, 8, 16)          18448     
_________________________________________________________________
batch_normalization_910 (Bat (None, 8, 8, 16)          64        
_________________________________________________________________
activation_2236 (Activation) (None, 8, 8, 16)          0         
_________________________________________________________________
dropout_2236 (Dropout)       (None, 8, 8, 16)          0         
_________________________________________________________________
flatten_302 (Flatten)        (None, 1024)              0         
_________________________________________________________________
dense_696 (Dense)            (None, 128)               131200    
_________________________________________________________________
activation_2237 (Activation) (None, 128)               0         
_________________________________________________________________
dropout_2237 (Dropout)       (None, 128)               0         
_________________________________________________________________
dense_697 (Dense)            (None, 10)                1290      
=================================================================
Total params: 2,385,434
Trainable params: 2,384,122
Non-trainable params: 1,312
_________________________________________________________________
