Model: "sequential_358"
_________________________________________________________________
Layer (type)                 Output Shape              Param #   
=================================================================
conv2d_2198 (Conv2D)         (None, 32, 32, 256)       7168      
_________________________________________________________________
batch_normalization_1061 (Ba (None, 32, 32, 256)       1024      
_________________________________________________________________
activation_2641 (Activation) (None, 32, 32, 256)       0         
_________________________________________________________________
dropout_2641 (Dropout)       (None, 32, 32, 256)       0         
_________________________________________________________________
conv2d_2199 (Conv2D)         (None, 32, 32, 128)       295040    
_________________________________________________________________
batch_normalization_1062 (Ba (None, 32, 32, 128)       512       
_________________________________________________________________
activation_2642 (Activation) (None, 32, 32, 128)       0         
_________________________________________________________________
dropout_2642 (Dropout)       (None, 32, 32, 128)       0         
_________________________________________________________________
conv2d_2200 (Conv2D)         (None, 32, 32, 128)       147584    
_________________________________________________________________
activation_2643 (Activation) (None, 32, 32, 128)       0         
_________________________________________________________________
dropout_2643 (Dropout)       (None, 32, 32, 128)       0         
_________________________________________________________________
max_pooling2d_650 (MaxPoolin (None, 16, 16, 128)       0         
_________________________________________________________________
conv2d_2201 (Conv2D)         (None, 16, 16, 512)       590336    
_________________________________________________________________
batch_normalization_1063 (Ba (None, 16, 16, 512)       2048      
_________________________________________________________________
activation_2644 (Activation) (None, 16, 16, 512)       0         
_________________________________________________________________
dropout_2644 (Dropout)       (None, 16, 16, 512)       0         
_________________________________________________________________
conv2d_2202 (Conv2D)         (None, 16, 16, 256)       1179904   
_________________________________________________________________
batch_normalization_1064 (Ba (None, 16, 16, 256)       1024      
_________________________________________________________________
activation_2645 (Activation) (None, 16, 16, 256)       0         
_________________________________________________________________
dropout_2645 (Dropout)       (None, 16, 16, 256)       0         
_________________________________________________________________
conv2d_2203 (Conv2D)         (None, 16, 16, 128)       295040    
_________________________________________________________________
activation_2646 (Activation) (None, 16, 16, 128)       0         
_________________________________________________________________
dropout_2646 (Dropout)       (None, 16, 16, 128)       0         
_________________________________________________________________
conv2d_2204 (Conv2D)         (None, 16, 16, 16)        18448     
_________________________________________________________________
batch_normalization_1065 (Ba (None, 16, 16, 16)        64        
_________________________________________________________________
activation_2647 (Activation) (None, 16, 16, 16)        0         
_________________________________________________________________
dropout_2647 (Dropout)       (None, 16, 16, 16)        0         
_________________________________________________________________
flatten_358 (Flatten)        (None, 4096)              0         
_________________________________________________________________
dense_801 (Dense)            (None, 10)                40970     
=================================================================
Total params: 2,579,162
Trainable params: 2,576,826
Non-trainable params: 2,336
_________________________________________________________________
