Model: "sequential_181"
_________________________________________________________________
Layer (type)                 Output Shape              Param #   
=================================================================
conv2d_1018 (Conv2D)         (None, 32, 32, 16)        448       
_________________________________________________________________
batch_normalization_521 (Bat (None, 32, 32, 16)        64        
_________________________________________________________________
activation_1300 (Activation) (None, 32, 32, 16)        0         
_________________________________________________________________
dropout_1300 (Dropout)       (None, 32, 32, 16)        0         
_________________________________________________________________
conv2d_1019 (Conv2D)         (None, 32, 32, 128)       18560     
_________________________________________________________________
batch_normalization_522 (Bat (None, 32, 32, 128)       512       
_________________________________________________________________
activation_1301 (Activation) (None, 32, 32, 128)       0         
_________________________________________________________________
dropout_1301 (Dropout)       (None, 32, 32, 128)       0         
_________________________________________________________________
max_pooling2d_341 (MaxPoolin (None, 16, 16, 128)       0         
_________________________________________________________________
conv2d_1020 (Conv2D)         (None, 16, 16, 32)        36896     
_________________________________________________________________
activation_1302 (Activation) (None, 16, 16, 32)        0         
_________________________________________________________________
dropout_1302 (Dropout)       (None, 16, 16, 32)        0         
_________________________________________________________________
conv2d_1021 (Conv2D)         (None, 16, 16, 32)        9248      
_________________________________________________________________
activation_1303 (Activation) (None, 16, 16, 32)        0         
_________________________________________________________________
dropout_1303 (Dropout)       (None, 16, 16, 32)        0         
_________________________________________________________________
conv2d_1022 (Conv2D)         (None, 16, 16, 128)       36992     
_________________________________________________________________
activation_1304 (Activation) (None, 16, 16, 128)       0         
_________________________________________________________________
dropout_1304 (Dropout)       (None, 16, 16, 128)       0         
_________________________________________________________________
conv2d_1023 (Conv2D)         (None, 16, 16, 16)        18448     
_________________________________________________________________
batch_normalization_523 (Bat (None, 16, 16, 16)        64        
_________________________________________________________________
activation_1305 (Activation) (None, 16, 16, 16)        0         
_________________________________________________________________
dropout_1305 (Dropout)       (None, 16, 16, 16)        0         
_________________________________________________________________
flatten_181 (Flatten)        (None, 4096)              0         
_________________________________________________________________
dense_463 (Dense)            (None, 16)                65552     
_________________________________________________________________
activation_1306 (Activation) (None, 16)                0         
_________________________________________________________________
dropout_1306 (Dropout)       (None, 16)                0         
_________________________________________________________________
dense_464 (Dense)            (None, 32)                544       
_________________________________________________________________
activation_1307 (Activation) (None, 32)                0         
_________________________________________________________________
dropout_1307 (Dropout)       (None, 32)                0         
_________________________________________________________________
dense_465 (Dense)            (None, 10)                330       
=================================================================
Total params: 187,658
Trainable params: 187,338
Non-trainable params: 320
_________________________________________________________________
