Model: "sequential_104"
_________________________________________________________________
Layer (type)                 Output Shape              Param #   
=================================================================
conv2d_560 (Conv2D)          (None, 32, 32, 256)       7168      
_________________________________________________________________
batch_normalization_337 (Bat (None, 32, 32, 256)       1024      
_________________________________________________________________
activation_738 (Activation)  (None, 32, 32, 256)       0         
_________________________________________________________________
dropout_738 (Dropout)        (None, 32, 32, 256)       0         
_________________________________________________________________
max_pooling2d_201 (MaxPoolin (None, 16, 16, 256)       0         
_________________________________________________________________
conv2d_561 (Conv2D)          (None, 16, 16, 128)       295040    
_________________________________________________________________
activation_739 (Activation)  (None, 16, 16, 128)       0         
_________________________________________________________________
dropout_739 (Dropout)        (None, 16, 16, 128)       0         
_________________________________________________________________
max_pooling2d_202 (MaxPoolin (None, 8, 8, 128)         0         
_________________________________________________________________
conv2d_562 (Conv2D)          (None, 8, 8, 32)          36896     
_________________________________________________________________
activation_740 (Activation)  (None, 8, 8, 32)          0         
_________________________________________________________________
dropout_740 (Dropout)        (None, 8, 8, 32)          0         
_________________________________________________________________
conv2d_563 (Conv2D)          (None, 8, 8, 32)          9248      
_________________________________________________________________
activation_741 (Activation)  (None, 8, 8, 32)          0         
_________________________________________________________________
dropout_741 (Dropout)        (None, 8, 8, 32)          0         
_________________________________________________________________
max_pooling2d_203 (MaxPoolin (None, 4, 4, 32)          0         
_________________________________________________________________
conv2d_564 (Conv2D)          (None, 4, 4, 512)         147968    
_________________________________________________________________
activation_742 (Activation)  (None, 4, 4, 512)         0         
_________________________________________________________________
dropout_742 (Dropout)        (None, 4, 4, 512)         0         
_________________________________________________________________
flatten_104 (Flatten)        (None, 8192)              0         
_________________________________________________________________
dense_282 (Dense)            (None, 16)                131088    
_________________________________________________________________
activation_743 (Activation)  (None, 16)                0         
_________________________________________________________________
dropout_743 (Dropout)        (None, 16)                0         
_________________________________________________________________
dense_283 (Dense)            (None, 32)                544       
_________________________________________________________________
activation_744 (Activation)  (None, 32)                0         
_________________________________________________________________
dropout_744 (Dropout)        (None, 32)                0         
_________________________________________________________________
dense_284 (Dense)            (None, 10)                330       
=================================================================
Total params: 629,306
Trainable params: 628,794
Non-trainable params: 512
_________________________________________________________________
