Model: "sequential_388"
_________________________________________________________________
Layer (type)                 Output Shape              Param #   
=================================================================
conv2d_2385 (Conv2D)         (None, 32, 32, 16)        448       
_________________________________________________________________
batch_normalization_1133 (Ba (None, 32, 32, 16)        64        
_________________________________________________________________
activation_2846 (Activation) (None, 32, 32, 16)        0         
_________________________________________________________________
dropout_2846 (Dropout)       (None, 32, 32, 16)        0         
_________________________________________________________________
conv2d_2386 (Conv2D)         (None, 32, 32, 128)       18560     
_________________________________________________________________
activation_2847 (Activation) (None, 32, 32, 128)       0         
_________________________________________________________________
dropout_2847 (Dropout)       (None, 32, 32, 128)       0         
_________________________________________________________________
max_pooling2d_691 (MaxPoolin (None, 16, 16, 128)       0         
_________________________________________________________________
conv2d_2387 (Conv2D)         (None, 16, 16, 32)        36896     
_________________________________________________________________
activation_2848 (Activation) (None, 16, 16, 32)        0         
_________________________________________________________________
dropout_2848 (Dropout)       (None, 16, 16, 32)        0         
_________________________________________________________________
conv2d_2388 (Conv2D)         (None, 16, 16, 128)       36992     
_________________________________________________________________
activation_2849 (Activation) (None, 16, 16, 128)       0         
_________________________________________________________________
dropout_2849 (Dropout)       (None, 16, 16, 128)       0         
_________________________________________________________________
conv2d_2389 (Conv2D)         (None, 16, 16, 16)        18448     
_________________________________________________________________
batch_normalization_1134 (Ba (None, 16, 16, 16)        64        
_________________________________________________________________
activation_2850 (Activation) (None, 16, 16, 16)        0         
_________________________________________________________________
dropout_2850 (Dropout)       (None, 16, 16, 16)        0         
_________________________________________________________________
flatten_388 (Flatten)        (None, 4096)              0         
_________________________________________________________________
dense_849 (Dense)            (None, 128)               524416    
_________________________________________________________________
activation_2851 (Activation) (None, 128)               0         
_________________________________________________________________
dropout_2851 (Dropout)       (None, 128)               0         
_________________________________________________________________
dense_850 (Dense)            (None, 10)                1290      
=================================================================
Total params: 637,178
Trainable params: 637,114
Non-trainable params: 64
_________________________________________________________________
