Model: "sequential_179"
_________________________________________________________________
Layer (type)                 Output Shape              Param #   
=================================================================
conv2d_1007 (Conv2D)         (None, 32, 32, 16)        448       
_________________________________________________________________
batch_normalization_516 (Bat (None, 32, 32, 16)        64        
_________________________________________________________________
activation_1287 (Activation) (None, 32, 32, 16)        0         
_________________________________________________________________
dropout_1287 (Dropout)       (None, 32, 32, 16)        0         
_________________________________________________________________
conv2d_1008 (Conv2D)         (None, 32, 32, 512)       74240     
_________________________________________________________________
batch_normalization_517 (Bat (None, 32, 32, 512)       2048      
_________________________________________________________________
activation_1288 (Activation) (None, 32, 32, 512)       0         
_________________________________________________________________
dropout_1288 (Dropout)       (None, 32, 32, 512)       0         
_________________________________________________________________
max_pooling2d_339 (MaxPoolin (None, 16, 16, 512)       0         
_________________________________________________________________
conv2d_1009 (Conv2D)         (None, 16, 16, 128)       589952    
_________________________________________________________________
activation_1289 (Activation) (None, 16, 16, 128)       0         
_________________________________________________________________
dropout_1289 (Dropout)       (None, 16, 16, 128)       0         
_________________________________________________________________
max_pooling2d_340 (MaxPoolin (None, 8, 8, 128)         0         
_________________________________________________________________
conv2d_1010 (Conv2D)         (None, 8, 8, 512)         590336    
_________________________________________________________________
batch_normalization_518 (Bat (None, 8, 8, 512)         2048      
_________________________________________________________________
activation_1290 (Activation) (None, 8, 8, 512)         0         
_________________________________________________________________
dropout_1290 (Dropout)       (None, 8, 8, 512)         0         
_________________________________________________________________
conv2d_1011 (Conv2D)         (None, 8, 8, 256)         1179904   
_________________________________________________________________
activation_1291 (Activation) (None, 8, 8, 256)         0         
_________________________________________________________________
dropout_1291 (Dropout)       (None, 8, 8, 256)         0         
_________________________________________________________________
conv2d_1012 (Conv2D)         (None, 8, 8, 128)         295040    
_________________________________________________________________
activation_1292 (Activation) (None, 8, 8, 128)         0         
_________________________________________________________________
dropout_1292 (Dropout)       (None, 8, 8, 128)         0         
_________________________________________________________________
conv2d_1013 (Conv2D)         (None, 8, 8, 16)          18448     
_________________________________________________________________
batch_normalization_519 (Bat (None, 8, 8, 16)          64        
_________________________________________________________________
activation_1293 (Activation) (None, 8, 8, 16)          0         
_________________________________________________________________
dropout_1293 (Dropout)       (None, 8, 8, 16)          0         
_________________________________________________________________
flatten_179 (Flatten)        (None, 1024)              0         
_________________________________________________________________
dense_459 (Dense)            (None, 128)               131200    
_________________________________________________________________
activation_1294 (Activation) (None, 128)               0         
_________________________________________________________________
dropout_1294 (Dropout)       (None, 128)               0         
_________________________________________________________________
dense_460 (Dense)            (None, 10)                1290      
=================================================================
Total params: 2,885,082
Trainable params: 2,882,970
Non-trainable params: 2,112
_________________________________________________________________
