Model: "sequential_146"
_________________________________________________________________
Layer (type)                 Output Shape              Param #   
=================================================================
conv2d_795 (Conv2D)          (None, 32, 32, 16)        448       
_________________________________________________________________
activation_1035 (Activation) (None, 32, 32, 16)        0         
_________________________________________________________________
dropout_1035 (Dropout)       (None, 32, 32, 16)        0         
_________________________________________________________________
conv2d_796 (Conv2D)          (None, 32, 32, 128)       18560     
_________________________________________________________________
batch_normalization_426 (Bat (None, 32, 32, 128)       512       
_________________________________________________________________
activation_1036 (Activation) (None, 32, 32, 128)       0         
_________________________________________________________________
dropout_1036 (Dropout)       (None, 32, 32, 128)       0         
_________________________________________________________________
max_pooling2d_280 (MaxPoolin (None, 16, 16, 128)       0         
_________________________________________________________________
conv2d_797 (Conv2D)          (None, 16, 16, 128)       147584    
_________________________________________________________________
activation_1037 (Activation) (None, 16, 16, 128)       0         
_________________________________________________________________
dropout_1037 (Dropout)       (None, 16, 16, 128)       0         
_________________________________________________________________
max_pooling2d_281 (MaxPoolin (None, 8, 8, 128)         0         
_________________________________________________________________
conv2d_798 (Conv2D)          (None, 8, 8, 32)          36896     
_________________________________________________________________
activation_1038 (Activation) (None, 8, 8, 32)          0         
_________________________________________________________________
dropout_1038 (Dropout)       (None, 8, 8, 32)          0         
_________________________________________________________________
conv2d_799 (Conv2D)          (None, 8, 8, 32)          9248      
_________________________________________________________________
activation_1039 (Activation) (None, 8, 8, 32)          0         
_________________________________________________________________
dropout_1039 (Dropout)       (None, 8, 8, 32)          0         
_________________________________________________________________
conv2d_800 (Conv2D)          (None, 8, 8, 128)         36992     
_________________________________________________________________
activation_1040 (Activation) (None, 8, 8, 128)         0         
_________________________________________________________________
dropout_1040 (Dropout)       (None, 8, 8, 128)         0         
_________________________________________________________________
conv2d_801 (Conv2D)          (None, 8, 8, 16)          18448     
_________________________________________________________________
activation_1041 (Activation) (None, 8, 8, 16)          0         
_________________________________________________________________
dropout_1041 (Dropout)       (None, 8, 8, 16)          0         
_________________________________________________________________
flatten_146 (Flatten)        (None, 1024)              0         
_________________________________________________________________
dense_386 (Dense)            (None, 128)               131200    
_________________________________________________________________
activation_1042 (Activation) (None, 128)               0         
_________________________________________________________________
dropout_1042 (Dropout)       (None, 128)               0         
_________________________________________________________________
dense_387 (Dense)            (None, 10)                1290      
=================================================================
Total params: 401,178
Trainable params: 400,922
Non-trainable params: 256
_________________________________________________________________
