Model: "sequential_79"
_________________________________________________________________
Layer (type)                 Output Shape              Param #   
=================================================================
conv2d_422 (Conv2D)          (None, 32, 32, 32)        896       
_________________________________________________________________
batch_normalization_267 (Bat (None, 32, 32, 32)        128       
_________________________________________________________________
activation_562 (Activation)  (None, 32, 32, 32)        0         
_________________________________________________________________
dropout_562 (Dropout)        (None, 32, 32, 32)        0         
_________________________________________________________________
max_pooling2d_158 (MaxPoolin (None, 16, 16, 32)        0         
_________________________________________________________________
conv2d_423 (Conv2D)          (None, 16, 16, 512)       147968    
_________________________________________________________________
batch_normalization_268 (Bat (None, 16, 16, 512)       2048      
_________________________________________________________________
activation_563 (Activation)  (None, 16, 16, 512)       0         
_________________________________________________________________
dropout_563 (Dropout)        (None, 16, 16, 512)       0         
_________________________________________________________________
conv2d_424 (Conv2D)          (None, 16, 16, 16)        73744     
_________________________________________________________________
activation_564 (Activation)  (None, 16, 16, 16)        0         
_________________________________________________________________
dropout_564 (Dropout)        (None, 16, 16, 16)        0         
_________________________________________________________________
conv2d_425 (Conv2D)          (None, 16, 16, 512)       74240     
_________________________________________________________________
batch_normalization_269 (Bat (None, 16, 16, 512)       2048      
_________________________________________________________________
activation_565 (Activation)  (None, 16, 16, 512)       0         
_________________________________________________________________
dropout_565 (Dropout)        (None, 16, 16, 512)       0         
_________________________________________________________________
conv2d_426 (Conv2D)          (None, 16, 16, 256)       1179904   
_________________________________________________________________
activation_566 (Activation)  (None, 16, 16, 256)       0         
_________________________________________________________________
dropout_566 (Dropout)        (None, 16, 16, 256)       0         
_________________________________________________________________
conv2d_427 (Conv2D)          (None, 16, 16, 128)       295040    
_________________________________________________________________
activation_567 (Activation)  (None, 16, 16, 128)       0         
_________________________________________________________________
dropout_567 (Dropout)        (None, 16, 16, 128)       0         
_________________________________________________________________
conv2d_428 (Conv2D)          (None, 16, 16, 16)        18448     
_________________________________________________________________
batch_normalization_270 (Bat (None, 16, 16, 16)        64        
_________________________________________________________________
activation_568 (Activation)  (None, 16, 16, 16)        0         
_________________________________________________________________
dropout_568 (Dropout)        (None, 16, 16, 16)        0         
_________________________________________________________________
flatten_79 (Flatten)         (None, 4096)              0         
_________________________________________________________________
dense_219 (Dense)            (None, 128)               524416    
_________________________________________________________________
activation_569 (Activation)  (None, 128)               0         
_________________________________________________________________
dropout_569 (Dropout)        (None, 128)               0         
_________________________________________________________________
dense_220 (Dense)            (None, 10)                1290      
=================================================================
Total params: 2,320,234
Trainable params: 2,318,090
Non-trainable params: 2,144
_________________________________________________________________
