Model: "sequential_151"
_________________________________________________________________
Layer (type)                 Output Shape              Param #   
=================================================================
conv2d_824 (Conv2D)          (None, 32, 32, 256)       7168      
_________________________________________________________________
batch_normalization_436 (Bat (None, 32, 32, 256)       1024      
_________________________________________________________________
activation_1071 (Activation) (None, 32, 32, 256)       0         
_________________________________________________________________
dropout_1071 (Dropout)       (None, 32, 32, 256)       0         
_________________________________________________________________
conv2d_825 (Conv2D)          (None, 32, 32, 512)       1180160   
_________________________________________________________________
batch_normalization_437 (Bat (None, 32, 32, 512)       2048      
_________________________________________________________________
activation_1072 (Activation) (None, 32, 32, 512)       0         
_________________________________________________________________
dropout_1072 (Dropout)       (None, 32, 32, 512)       0         
_________________________________________________________________
max_pooling2d_292 (MaxPoolin (None, 16, 16, 512)       0         
_________________________________________________________________
conv2d_826 (Conv2D)          (None, 16, 16, 128)       589952    
_________________________________________________________________
activation_1073 (Activation) (None, 16, 16, 128)       0         
_________________________________________________________________
dropout_1073 (Dropout)       (None, 16, 16, 128)       0         
_________________________________________________________________
max_pooling2d_293 (MaxPoolin (None, 8, 8, 128)         0         
_________________________________________________________________
conv2d_827 (Conv2D)          (None, 8, 8, 512)         590336    
_________________________________________________________________
batch_normalization_438 (Bat (None, 8, 8, 512)         2048      
_________________________________________________________________
activation_1074 (Activation) (None, 8, 8, 512)         0         
_________________________________________________________________
dropout_1074 (Dropout)       (None, 8, 8, 512)         0         
_________________________________________________________________
conv2d_828 (Conv2D)          (None, 8, 8, 256)         1179904   
_________________________________________________________________
activation_1075 (Activation) (None, 8, 8, 256)         0         
_________________________________________________________________
dropout_1075 (Dropout)       (None, 8, 8, 256)         0         
_________________________________________________________________
conv2d_829 (Conv2D)          (None, 8, 8, 128)         295040    
_________________________________________________________________
activation_1076 (Activation) (None, 8, 8, 128)         0         
_________________________________________________________________
dropout_1076 (Dropout)       (None, 8, 8, 128)         0         
_________________________________________________________________
conv2d_830 (Conv2D)          (None, 8, 8, 16)          18448     
_________________________________________________________________
batch_normalization_439 (Bat (None, 8, 8, 16)          64        
_________________________________________________________________
activation_1077 (Activation) (None, 8, 8, 16)          0         
_________________________________________________________________
dropout_1077 (Dropout)       (None, 8, 8, 16)          0         
_________________________________________________________________
flatten_151 (Flatten)        (None, 1024)              0         
_________________________________________________________________
dense_398 (Dense)            (None, 128)               131200    
_________________________________________________________________
activation_1078 (Activation) (None, 128)               0         
_________________________________________________________________
dropout_1078 (Dropout)       (None, 128)               0         
_________________________________________________________________
dense_399 (Dense)            (None, 10)                1290      
=================================================================
Total params: 3,998,682
Trainable params: 3,996,090
Non-trainable params: 2,592
_________________________________________________________________
