Model: "sequential_15"
_________________________________________________________________
Layer (type)                 Output Shape              Param #   
=================================================================
conv2d_80 (Conv2D)           (None, 32, 32, 256)       7168      
_________________________________________________________________
activation_104 (Activation)  (None, 32, 32, 256)       0         
_________________________________________________________________
dropout_104 (Dropout)        (None, 32, 32, 256)       0         
_________________________________________________________________
conv2d_81 (Conv2D)           (None, 32, 32, 16)        36880     
_________________________________________________________________
batch_normalization_49 (Batc (None, 32, 32, 16)        64        
_________________________________________________________________
activation_105 (Activation)  (None, 32, 32, 16)        0         
_________________________________________________________________
dropout_105 (Dropout)        (None, 32, 32, 16)        0         
_________________________________________________________________
max_pooling2d_30 (MaxPooling (None, 16, 16, 16)        0         
_________________________________________________________________
conv2d_82 (Conv2D)           (None, 16, 16, 128)       18560     
_________________________________________________________________
batch_normalization_50 (Batc (None, 16, 16, 128)       512       
_________________________________________________________________
activation_106 (Activation)  (None, 16, 16, 128)       0         
_________________________________________________________________
dropout_106 (Dropout)        (None, 16, 16, 128)       0         
_________________________________________________________________
max_pooling2d_31 (MaxPooling (None, 8, 8, 128)         0         
_________________________________________________________________
conv2d_83 (Conv2D)           (None, 8, 8, 8)           9224      
_________________________________________________________________
batch_normalization_51 (Batc (None, 8, 8, 8)           32        
_________________________________________________________________
activation_107 (Activation)  (None, 8, 8, 8)           0         
_________________________________________________________________
dropout_107 (Dropout)        (None, 8, 8, 8)           0         
_________________________________________________________________
conv2d_84 (Conv2D)           (None, 8, 8, 8)           584       
_________________________________________________________________
batch_normalization_52 (Batc (None, 8, 8, 8)           32        
_________________________________________________________________
activation_108 (Activation)  (None, 8, 8, 8)           0         
_________________________________________________________________
dropout_108 (Dropout)        (None, 8, 8, 8)           0         
_________________________________________________________________
conv2d_85 (Conv2D)           (None, 8, 8, 512)         37376     
_________________________________________________________________
batch_normalization_53 (Batc (None, 8, 8, 512)         2048      
_________________________________________________________________
activation_109 (Activation)  (None, 8, 8, 512)         0         
_________________________________________________________________
dropout_109 (Dropout)        (None, 8, 8, 512)         0         
_________________________________________________________________
conv2d_86 (Conv2D)           (None, 8, 8, 256)         1179904   
_________________________________________________________________
batch_normalization_54 (Batc (None, 8, 8, 256)         1024      
_________________________________________________________________
activation_110 (Activation)  (None, 8, 8, 256)         0         
_________________________________________________________________
dropout_110 (Dropout)        (None, 8, 8, 256)         0         
_________________________________________________________________
flatten_15 (Flatten)         (None, 16384)             0         
_________________________________________________________________
dense_39 (Dense)             (None, 256)               4194560   
_________________________________________________________________
activation_111 (Activation)  (None, 256)               0         
_________________________________________________________________
dropout_111 (Dropout)        (None, 256)               0         
_________________________________________________________________
dense_40 (Dense)             (None, 32)                8224      
_________________________________________________________________
activation_112 (Activation)  (None, 32)                0         
_________________________________________________________________
dropout_112 (Dropout)        (None, 32)                0         
_________________________________________________________________
dense_41 (Dense)             (None, 10)                330       
=================================================================
Total params: 5,496,522
Trainable params: 5,494,666
Non-trainable params: 1,856
_________________________________________________________________
