Model: "sequential_170"
_________________________________________________________________
Layer (type)                 Output Shape              Param #   
=================================================================
conv2d_946 (Conv2D)          (None, 32, 32, 1024)      28672     
_________________________________________________________________
activation_1215 (Activation) (None, 32, 32, 1024)      0         
_________________________________________________________________
dropout_1215 (Dropout)       (None, 32, 32, 1024)      0         
_________________________________________________________________
conv2d_947 (Conv2D)          (None, 32, 32, 32)        294944    
_________________________________________________________________
activation_1216 (Activation) (None, 32, 32, 32)        0         
_________________________________________________________________
dropout_1216 (Dropout)       (None, 32, 32, 32)        0         
_________________________________________________________________
conv2d_948 (Conv2D)          (None, 32, 32, 128)       36992     
_________________________________________________________________
activation_1217 (Activation) (None, 32, 32, 128)       0         
_________________________________________________________________
dropout_1217 (Dropout)       (None, 32, 32, 128)       0         
_________________________________________________________________
conv2d_949 (Conv2D)          (None, 32, 32, 16)        18448     
_________________________________________________________________
batch_normalization_491 (Bat (None, 32, 32, 16)        64        
_________________________________________________________________
activation_1218 (Activation) (None, 32, 32, 16)        0         
_________________________________________________________________
dropout_1218 (Dropout)       (None, 32, 32, 16)        0         
_________________________________________________________________
flatten_170 (Flatten)        (None, 16384)             0         
_________________________________________________________________
dense_439 (Dense)            (None, 128)               2097280   
_________________________________________________________________
activation_1219 (Activation) (None, 128)               0         
_________________________________________________________________
dropout_1219 (Dropout)       (None, 128)               0         
_________________________________________________________________
dense_440 (Dense)            (None, 10)                1290      
=================================================================
Total params: 2,477,690
Trainable params: 2,477,658
Non-trainable params: 32
_________________________________________________________________
