Model: "sequential_196"
_________________________________________________________________
Layer (type)                 Output Shape              Param #   
=================================================================
conv2d_1116 (Conv2D)         (None, 32, 32, 16)        448       
_________________________________________________________________
activation_1415 (Activation) (None, 32, 32, 16)        0         
_________________________________________________________________
dropout_1415 (Dropout)       (None, 32, 32, 16)        0         
_________________________________________________________________
conv2d_1117 (Conv2D)         (None, 32, 32, 128)       18560     
_________________________________________________________________
batch_normalization_564 (Bat (None, 32, 32, 128)       512       
_________________________________________________________________
activation_1416 (Activation) (None, 32, 32, 128)       0         
_________________________________________________________________
dropout_1416 (Dropout)       (None, 32, 32, 128)       0         
_________________________________________________________________
max_pooling2d_366 (MaxPoolin (None, 16, 16, 128)       0         
_________________________________________________________________
conv2d_1118 (Conv2D)         (None, 16, 16, 128)       147584    
_________________________________________________________________
activation_1417 (Activation) (None, 16, 16, 128)       0         
_________________________________________________________________
dropout_1417 (Dropout)       (None, 16, 16, 128)       0         
_________________________________________________________________
max_pooling2d_367 (MaxPoolin (None, 8, 8, 128)         0         
_________________________________________________________________
conv2d_1119 (Conv2D)         (None, 8, 8, 32)          36896     
_________________________________________________________________
activation_1418 (Activation) (None, 8, 8, 32)          0         
_________________________________________________________________
dropout_1418 (Dropout)       (None, 8, 8, 32)          0         
_________________________________________________________________
conv2d_1120 (Conv2D)         (None, 8, 8, 32)          9248      
_________________________________________________________________
activation_1419 (Activation) (None, 8, 8, 32)          0         
_________________________________________________________________
dropout_1419 (Dropout)       (None, 8, 8, 32)          0         
_________________________________________________________________
conv2d_1121 (Conv2D)         (None, 8, 8, 128)         36992     
_________________________________________________________________
activation_1420 (Activation) (None, 8, 8, 128)         0         
_________________________________________________________________
dropout_1420 (Dropout)       (None, 8, 8, 128)         0         
_________________________________________________________________
conv2d_1122 (Conv2D)         (None, 8, 8, 16)          18448     
_________________________________________________________________
batch_normalization_565 (Bat (None, 8, 8, 16)          64        
_________________________________________________________________
activation_1421 (Activation) (None, 8, 8, 16)          0         
_________________________________________________________________
dropout_1421 (Dropout)       (None, 8, 8, 16)          0         
_________________________________________________________________
flatten_196 (Flatten)        (None, 1024)              0         
_________________________________________________________________
dense_495 (Dense)            (None, 128)               131200    
_________________________________________________________________
activation_1422 (Activation) (None, 128)               0         
_________________________________________________________________
dropout_1422 (Dropout)       (None, 128)               0         
_________________________________________________________________
dense_496 (Dense)            (None, 10)                1290      
=================================================================
Total params: 401,242
Trainable params: 400,954
Non-trainable params: 288
_________________________________________________________________
