Model: "sequential_178"
_________________________________________________________________
Layer (type)                 Output Shape              Param #   
=================================================================
conv2d_1000 (Conv2D)         (None, 32, 32, 16)        448       
_________________________________________________________________
activation_1279 (Activation) (None, 32, 32, 16)        0         
_________________________________________________________________
dropout_1279 (Dropout)       (None, 32, 32, 16)        0         
_________________________________________________________________
conv2d_1001 (Conv2D)         (None, 32, 32, 128)       18560     
_________________________________________________________________
batch_normalization_514 (Bat (None, 32, 32, 128)       512       
_________________________________________________________________
activation_1280 (Activation) (None, 32, 32, 128)       0         
_________________________________________________________________
dropout_1280 (Dropout)       (None, 32, 32, 128)       0         
_________________________________________________________________
max_pooling2d_337 (MaxPoolin (None, 16, 16, 128)       0         
_________________________________________________________________
conv2d_1002 (Conv2D)         (None, 16, 16, 128)       147584    
_________________________________________________________________
activation_1281 (Activation) (None, 16, 16, 128)       0         
_________________________________________________________________
dropout_1281 (Dropout)       (None, 16, 16, 128)       0         
_________________________________________________________________
max_pooling2d_338 (MaxPoolin (None, 8, 8, 128)         0         
_________________________________________________________________
conv2d_1003 (Conv2D)         (None, 8, 8, 32)          36896     
_________________________________________________________________
activation_1282 (Activation) (None, 8, 8, 32)          0         
_________________________________________________________________
dropout_1282 (Dropout)       (None, 8, 8, 32)          0         
_________________________________________________________________
conv2d_1004 (Conv2D)         (None, 8, 8, 32)          9248      
_________________________________________________________________
activation_1283 (Activation) (None, 8, 8, 32)          0         
_________________________________________________________________
dropout_1283 (Dropout)       (None, 8, 8, 32)          0         
_________________________________________________________________
conv2d_1005 (Conv2D)         (None, 8, 8, 128)         36992     
_________________________________________________________________
activation_1284 (Activation) (None, 8, 8, 128)         0         
_________________________________________________________________
dropout_1284 (Dropout)       (None, 8, 8, 128)         0         
_________________________________________________________________
conv2d_1006 (Conv2D)         (None, 8, 8, 16)          18448     
_________________________________________________________________
batch_normalization_515 (Bat (None, 8, 8, 16)          64        
_________________________________________________________________
activation_1285 (Activation) (None, 8, 8, 16)          0         
_________________________________________________________________
dropout_1285 (Dropout)       (None, 8, 8, 16)          0         
_________________________________________________________________
flatten_178 (Flatten)        (None, 1024)              0         
_________________________________________________________________
dense_457 (Dense)            (None, 128)               131200    
_________________________________________________________________
activation_1286 (Activation) (None, 128)               0         
_________________________________________________________________
dropout_1286 (Dropout)       (None, 128)               0         
_________________________________________________________________
dense_458 (Dense)            (None, 10)                1290      
=================================================================
Total params: 401,242
Trainable params: 400,954
Non-trainable params: 288
_________________________________________________________________
