Model: "sequential_205"
_________________________________________________________________
Layer (type)                 Output Shape              Param #   
=================================================================
conv2d_1179 (Conv2D)         (None, 32, 32, 16)        448       
_________________________________________________________________
batch_normalization_593 (Bat (None, 32, 32, 16)        64        
_________________________________________________________________
activation_1487 (Activation) (None, 32, 32, 16)        0         
_________________________________________________________________
dropout_1487 (Dropout)       (None, 32, 32, 16)        0         
_________________________________________________________________
conv2d_1180 (Conv2D)         (None, 32, 32, 512)       74240     
_________________________________________________________________
batch_normalization_594 (Bat (None, 32, 32, 512)       2048      
_________________________________________________________________
activation_1488 (Activation) (None, 32, 32, 512)       0         
_________________________________________________________________
dropout_1488 (Dropout)       (None, 32, 32, 512)       0         
_________________________________________________________________
max_pooling2d_381 (MaxPoolin (None, 16, 16, 512)       0         
_________________________________________________________________
conv2d_1181 (Conv2D)         (None, 16, 16, 128)       589952    
_________________________________________________________________
activation_1489 (Activation) (None, 16, 16, 128)       0         
_________________________________________________________________
dropout_1489 (Dropout)       (None, 16, 16, 128)       0         
_________________________________________________________________
max_pooling2d_382 (MaxPoolin (None, 8, 8, 128)         0         
_________________________________________________________________
conv2d_1182 (Conv2D)         (None, 8, 8, 512)         590336    
_________________________________________________________________
batch_normalization_595 (Bat (None, 8, 8, 512)         2048      
_________________________________________________________________
activation_1490 (Activation) (None, 8, 8, 512)         0         
_________________________________________________________________
dropout_1490 (Dropout)       (None, 8, 8, 512)         0         
_________________________________________________________________
conv2d_1183 (Conv2D)         (None, 8, 8, 256)         1179904   
_________________________________________________________________
activation_1491 (Activation) (None, 8, 8, 256)         0         
_________________________________________________________________
dropout_1491 (Dropout)       (None, 8, 8, 256)         0         
_________________________________________________________________
conv2d_1184 (Conv2D)         (None, 8, 8, 128)         295040    
_________________________________________________________________
activation_1492 (Activation) (None, 8, 8, 128)         0         
_________________________________________________________________
dropout_1492 (Dropout)       (None, 8, 8, 128)         0         
_________________________________________________________________
conv2d_1185 (Conv2D)         (None, 8, 8, 16)          18448     
_________________________________________________________________
batch_normalization_596 (Bat (None, 8, 8, 16)          64        
_________________________________________________________________
activation_1493 (Activation) (None, 8, 8, 16)          0         
_________________________________________________________________
dropout_1493 (Dropout)       (None, 8, 8, 16)          0         
_________________________________________________________________
flatten_205 (Flatten)        (None, 1024)              0         
_________________________________________________________________
dense_513 (Dense)            (None, 128)               131200    
_________________________________________________________________
activation_1494 (Activation) (None, 128)               0         
_________________________________________________________________
dropout_1494 (Dropout)       (None, 128)               0         
_________________________________________________________________
dense_514 (Dense)            (None, 10)                1290      
=================================================================
Total params: 2,885,082
Trainable params: 2,882,970
Non-trainable params: 2,112
_________________________________________________________________
