Model: "sequential_214"
_________________________________________________________________
Layer (type)                 Output Shape              Param #   
=================================================================
conv2d_1240 (Conv2D)         (None, 32, 32, 16)        448       
_________________________________________________________________
batch_normalization_622 (Bat (None, 32, 32, 16)        64        
_________________________________________________________________
activation_1556 (Activation) (None, 32, 32, 16)        0         
_________________________________________________________________
dropout_1556 (Dropout)       (None, 32, 32, 16)        0         
_________________________________________________________________
conv2d_1241 (Conv2D)         (None, 32, 32, 128)       18560     
_________________________________________________________________
batch_normalization_623 (Bat (None, 32, 32, 128)       512       
_________________________________________________________________
activation_1557 (Activation) (None, 32, 32, 128)       0         
_________________________________________________________________
dropout_1557 (Dropout)       (None, 32, 32, 128)       0         
_________________________________________________________________
max_pooling2d_398 (MaxPoolin (None, 16, 16, 128)       0         
_________________________________________________________________
conv2d_1242 (Conv2D)         (None, 16, 16, 128)       147584    
_________________________________________________________________
activation_1558 (Activation) (None, 16, 16, 128)       0         
_________________________________________________________________
dropout_1558 (Dropout)       (None, 16, 16, 128)       0         
_________________________________________________________________
max_pooling2d_399 (MaxPoolin (None, 8, 8, 128)         0         
_________________________________________________________________
conv2d_1243 (Conv2D)         (None, 8, 8, 32)          36896     
_________________________________________________________________
activation_1559 (Activation) (None, 8, 8, 32)          0         
_________________________________________________________________
dropout_1559 (Dropout)       (None, 8, 8, 32)          0         
_________________________________________________________________
conv2d_1244 (Conv2D)         (None, 8, 8, 32)          9248      
_________________________________________________________________
activation_1560 (Activation) (None, 8, 8, 32)          0         
_________________________________________________________________
dropout_1560 (Dropout)       (None, 8, 8, 32)          0         
_________________________________________________________________
conv2d_1245 (Conv2D)         (None, 8, 8, 128)         36992     
_________________________________________________________________
activation_1561 (Activation) (None, 8, 8, 128)         0         
_________________________________________________________________
dropout_1561 (Dropout)       (None, 8, 8, 128)         0         
_________________________________________________________________
conv2d_1246 (Conv2D)         (None, 8, 8, 16)          18448     
_________________________________________________________________
batch_normalization_624 (Bat (None, 8, 8, 16)          64        
_________________________________________________________________
activation_1562 (Activation) (None, 8, 8, 16)          0         
_________________________________________________________________
dropout_1562 (Dropout)       (None, 8, 8, 16)          0         
_________________________________________________________________
flatten_214 (Flatten)        (None, 1024)              0         
_________________________________________________________________
dense_530 (Dense)            (None, 128)               131200    
_________________________________________________________________
activation_1563 (Activation) (None, 128)               0         
_________________________________________________________________
dropout_1563 (Dropout)       (None, 128)               0         
_________________________________________________________________
dense_531 (Dense)            (None, 10)                1290      
=================================================================
Total params: 401,306
Trainable params: 400,986
Non-trainable params: 320
_________________________________________________________________
