Model: "sequential_165"
_________________________________________________________________
Layer (type)                 Output Shape              Param #   
=================================================================
conv2d_916 (Conv2D)          (None, 32, 32, 16)        448       
_________________________________________________________________
activation_1178 (Activation) (None, 32, 32, 16)        0         
_________________________________________________________________
dropout_1178 (Dropout)       (None, 32, 32, 16)        0         
_________________________________________________________________
conv2d_917 (Conv2D)          (None, 32, 32, 32)        4640      
_________________________________________________________________
activation_1179 (Activation) (None, 32, 32, 32)        0         
_________________________________________________________________
dropout_1179 (Dropout)       (None, 32, 32, 32)        0         
_________________________________________________________________
max_pooling2d_312 (MaxPoolin (None, 16, 16, 32)        0         
_________________________________________________________________
conv2d_918 (Conv2D)          (None, 16, 16, 512)       147968    
_________________________________________________________________
activation_1180 (Activation) (None, 16, 16, 512)       0         
_________________________________________________________________
dropout_1180 (Dropout)       (None, 16, 16, 512)       0         
_________________________________________________________________
max_pooling2d_313 (MaxPoolin (None, 8, 8, 512)         0         
_________________________________________________________________
flatten_165 (Flatten)        (None, 32768)             0         
_________________________________________________________________
dense_427 (Dense)            (None, 16)                524304    
_________________________________________________________________
activation_1181 (Activation) (None, 16)                0         
_________________________________________________________________
dropout_1181 (Dropout)       (None, 16)                0         
_________________________________________________________________
dense_428 (Dense)            (None, 32)                544       
_________________________________________________________________
activation_1182 (Activation) (None, 32)                0         
_________________________________________________________________
dropout_1182 (Dropout)       (None, 32)                0         
_________________________________________________________________
dense_429 (Dense)            (None, 10)                330       
=================================================================
Total params: 678,234
Trainable params: 678,234
Non-trainable params: 0
_________________________________________________________________
