Model: "sequential_325"
_________________________________________________________________
Layer (type)                 Output Shape              Param #   
=================================================================
conv2d_1987 (Conv2D)         (None, 32, 32, 16)        448       
_________________________________________________________________
batch_normalization_981 (Bat (None, 32, 32, 16)        64        
_________________________________________________________________
activation_2401 (Activation) (None, 32, 32, 16)        0         
_________________________________________________________________
dropout_2401 (Dropout)       (None, 32, 32, 16)        0         
_________________________________________________________________
conv2d_1988 (Conv2D)         (None, 32, 32, 128)       18560     
_________________________________________________________________
activation_2402 (Activation) (None, 32, 32, 128)       0         
_________________________________________________________________
dropout_2402 (Dropout)       (None, 32, 32, 128)       0         
_________________________________________________________________
max_pooling2d_599 (MaxPoolin (None, 16, 16, 128)       0         
_________________________________________________________________
conv2d_1989 (Conv2D)         (None, 16, 16, 512)       590336    
_________________________________________________________________
activation_2403 (Activation) (None, 16, 16, 512)       0         
_________________________________________________________________
dropout_2403 (Dropout)       (None, 16, 16, 512)       0         
_________________________________________________________________
conv2d_1990 (Conv2D)         (None, 16, 16, 256)       1179904   
_________________________________________________________________
activation_2404 (Activation) (None, 16, 16, 256)       0         
_________________________________________________________________
dropout_2404 (Dropout)       (None, 16, 16, 256)       0         
_________________________________________________________________
conv2d_1991 (Conv2D)         (None, 16, 16, 128)       295040    
_________________________________________________________________
activation_2405 (Activation) (None, 16, 16, 128)       0         
_________________________________________________________________
dropout_2405 (Dropout)       (None, 16, 16, 128)       0         
_________________________________________________________________
conv2d_1992 (Conv2D)         (None, 16, 16, 16)        18448     
_________________________________________________________________
batch_normalization_982 (Bat (None, 16, 16, 16)        64        
_________________________________________________________________
activation_2406 (Activation) (None, 16, 16, 16)        0         
_________________________________________________________________
dropout_2406 (Dropout)       (None, 16, 16, 16)        0         
_________________________________________________________________
flatten_325 (Flatten)        (None, 4096)              0         
_________________________________________________________________
dense_739 (Dense)            (None, 128)               524416    
_________________________________________________________________
activation_2407 (Activation) (None, 128)               0         
_________________________________________________________________
dropout_2407 (Dropout)       (None, 128)               0         
_________________________________________________________________
dense_740 (Dense)            (None, 10)                1290      
=================================================================
Total params: 2,628,570
Trainable params: 2,628,506
Non-trainable params: 64
_________________________________________________________________
