Model: "sequential_52"
_________________________________________________________________
Layer (type)                 Output Shape              Param #   
=================================================================
conv2d_283 (Conv2D)          (None, 32, 32, 256)       7168      
_________________________________________________________________
batch_normalization_182 (Bat (None, 32, 32, 256)       1024      
_________________________________________________________________
activation_371 (Activation)  (None, 32, 32, 256)       0         
_________________________________________________________________
dropout_371 (Dropout)        (None, 32, 32, 256)       0         
_________________________________________________________________
max_pooling2d_106 (MaxPoolin (None, 16, 16, 256)       0         
_________________________________________________________________
conv2d_284 (Conv2D)          (None, 16, 16, 1024)      2360320   
_________________________________________________________________
batch_normalization_183 (Bat (None, 16, 16, 1024)      4096      
_________________________________________________________________
activation_372 (Activation)  (None, 16, 16, 1024)      0         
_________________________________________________________________
dropout_372 (Dropout)        (None, 16, 16, 1024)      0         
_________________________________________________________________
conv2d_285 (Conv2D)          (None, 16, 16, 16)        147472    
_________________________________________________________________
activation_373 (Activation)  (None, 16, 16, 16)        0         
_________________________________________________________________
dropout_373 (Dropout)        (None, 16, 16, 16)        0         
_________________________________________________________________
conv2d_286 (Conv2D)          (None, 16, 16, 512)       74240     
_________________________________________________________________
batch_normalization_184 (Bat (None, 16, 16, 512)       2048      
_________________________________________________________________
activation_374 (Activation)  (None, 16, 16, 512)       0         
_________________________________________________________________
dropout_374 (Dropout)        (None, 16, 16, 512)       0         
_________________________________________________________________
conv2d_287 (Conv2D)          (None, 16, 16, 1024)      4719616   
_________________________________________________________________
activation_375 (Activation)  (None, 16, 16, 1024)      0         
_________________________________________________________________
dropout_375 (Dropout)        (None, 16, 16, 1024)      0         
_________________________________________________________________
flatten_52 (Flatten)         (None, 262144)            0         
_________________________________________________________________
dense_140 (Dense)            (None, 64)                16777280  
_________________________________________________________________
batch_normalization_185 (Bat (None, 64)                256       
_________________________________________________________________
activation_376 (Activation)  (None, 64)                0         
_________________________________________________________________
dropout_376 (Dropout)        (None, 64)                0         
_________________________________________________________________
dense_141 (Dense)            (None, 512)               33280     
_________________________________________________________________
activation_377 (Activation)  (None, 512)               0         
_________________________________________________________________
dropout_377 (Dropout)        (None, 512)               0         
_________________________________________________________________
dense_142 (Dense)            (None, 10)                5130      
=================================================================
Total params: 24,131,930
Trainable params: 24,128,218
Non-trainable params: 3,712
_________________________________________________________________
