Model: "sequential_299"
_________________________________________________________________
Layer (type)                 Output Shape              Param #   
=================================================================
conv2d_1817 (Conv2D)         (None, 32, 32, 16)        448       
_________________________________________________________________
activation_2208 (Activation) (None, 32, 32, 16)        0         
_________________________________________________________________
dropout_2208 (Dropout)       (None, 32, 32, 16)        0         
_________________________________________________________________
conv2d_1818 (Conv2D)         (None, 32, 32, 512)       74240     
_________________________________________________________________
batch_normalization_900 (Bat (None, 32, 32, 512)       2048      
_________________________________________________________________
activation_2209 (Activation) (None, 32, 32, 512)       0         
_________________________________________________________________
dropout_2209 (Dropout)       (None, 32, 32, 512)       0         
_________________________________________________________________
max_pooling2d_559 (MaxPoolin (None, 16, 16, 512)       0         
_________________________________________________________________
conv2d_1819 (Conv2D)         (None, 16, 16, 128)       589952    
_________________________________________________________________
activation_2210 (Activation) (None, 16, 16, 128)       0         
_________________________________________________________________
dropout_2210 (Dropout)       (None, 16, 16, 128)       0         
_________________________________________________________________
max_pooling2d_560 (MaxPoolin (None, 8, 8, 128)         0         
_________________________________________________________________
conv2d_1820 (Conv2D)         (None, 8, 8, 512)         590336    
_________________________________________________________________
batch_normalization_901 (Bat (None, 8, 8, 512)         2048      
_________________________________________________________________
activation_2211 (Activation) (None, 8, 8, 512)         0         
_________________________________________________________________
dropout_2211 (Dropout)       (None, 8, 8, 512)         0         
_________________________________________________________________
conv2d_1821 (Conv2D)         (None, 8, 8, 1024)        4719616   
_________________________________________________________________
activation_2212 (Activation) (None, 8, 8, 1024)        0         
_________________________________________________________________
dropout_2212 (Dropout)       (None, 8, 8, 1024)        0         
_________________________________________________________________
max_pooling2d_561 (MaxPoolin (None, 4, 4, 1024)        0         
_________________________________________________________________
conv2d_1822 (Conv2D)         (None, 4, 4, 128)         1179776   
_________________________________________________________________
activation_2213 (Activation) (None, 4, 4, 128)         0         
_________________________________________________________________
dropout_2213 (Dropout)       (None, 4, 4, 128)         0         
_________________________________________________________________
conv2d_1823 (Conv2D)         (None, 4, 4, 16)          18448     
_________________________________________________________________
batch_normalization_902 (Bat (None, 4, 4, 16)          64        
_________________________________________________________________
activation_2214 (Activation) (None, 4, 4, 16)          0         
_________________________________________________________________
dropout_2214 (Dropout)       (None, 4, 4, 16)          0         
_________________________________________________________________
flatten_299 (Flatten)        (None, 256)               0         
_________________________________________________________________
dense_690 (Dense)            (None, 128)               32896     
_________________________________________________________________
batch_normalization_903 (Bat (None, 128)               512       
_________________________________________________________________
activation_2215 (Activation) (None, 128)               0         
_________________________________________________________________
dropout_2215 (Dropout)       (None, 128)               0         
_________________________________________________________________
dense_691 (Dense)            (None, 10)                1290      
=================================================================
Total params: 7,211,674
Trainable params: 7,209,338
Non-trainable params: 2,336
_________________________________________________________________
