Model: "sequential_34"
_________________________________________________________________
Layer (type)                 Output Shape              Param #   
=================================================================
conv2d_183 (Conv2D)          (None, 32, 32, 8)         224       
_________________________________________________________________
batch_normalization_122 (Bat (None, 32, 32, 8)         32        
_________________________________________________________________
activation_244 (Activation)  (None, 32, 32, 8)         0         
_________________________________________________________________
dropout_244 (Dropout)        (None, 32, 32, 8)         0         
_________________________________________________________________
conv2d_184 (Conv2D)          (None, 32, 32, 512)       37376     
_________________________________________________________________
batch_normalization_123 (Bat (None, 32, 32, 512)       2048      
_________________________________________________________________
activation_245 (Activation)  (None, 32, 32, 512)       0         
_________________________________________________________________
dropout_245 (Dropout)        (None, 32, 32, 512)       0         
_________________________________________________________________
max_pooling2d_69 (MaxPooling (None, 16, 16, 512)       0         
_________________________________________________________________
conv2d_185 (Conv2D)          (None, 16, 16, 1024)      4719616   
_________________________________________________________________
activation_246 (Activation)  (None, 16, 16, 1024)      0         
_________________________________________________________________
dropout_246 (Dropout)        (None, 16, 16, 1024)      0         
_________________________________________________________________
max_pooling2d_70 (MaxPooling (None, 8, 8, 1024)        0         
_________________________________________________________________
conv2d_186 (Conv2D)          (None, 8, 8, 256)         2359552   
_________________________________________________________________
batch_normalization_124 (Bat (None, 8, 8, 256)         1024      
_________________________________________________________________
activation_247 (Activation)  (None, 8, 8, 256)         0         
_________________________________________________________________
dropout_247 (Dropout)        (None, 8, 8, 256)         0         
_________________________________________________________________
conv2d_187 (Conv2D)          (None, 8, 8, 32)          73760     
_________________________________________________________________
batch_normalization_125 (Bat (None, 8, 8, 32)          128       
_________________________________________________________________
activation_248 (Activation)  (None, 8, 8, 32)          0         
_________________________________________________________________
dropout_248 (Dropout)        (None, 8, 8, 32)          0         
_________________________________________________________________
conv2d_188 (Conv2D)          (None, 8, 8, 16)          4624      
_________________________________________________________________
batch_normalization_126 (Bat (None, 8, 8, 16)          64        
_________________________________________________________________
activation_249 (Activation)  (None, 8, 8, 16)          0         
_________________________________________________________________
dropout_249 (Dropout)        (None, 8, 8, 16)          0         
_________________________________________________________________
flatten_34 (Flatten)         (None, 1024)              0         
_________________________________________________________________
dense_95 (Dense)             (None, 256)               262400    
_________________________________________________________________
batch_normalization_127 (Bat (None, 256)               1024      
_________________________________________________________________
activation_250 (Activation)  (None, 256)               0         
_________________________________________________________________
dropout_250 (Dropout)        (None, 256)               0         
_________________________________________________________________
dense_96 (Dense)             (None, 10)                2570      
=================================================================
Total params: 7,464,442
Trainable params: 7,462,282
Non-trainable params: 2,160
_________________________________________________________________
