Model: "sequential_326"
_________________________________________________________________
Layer (type)                 Output Shape              Param #   
=================================================================
conv2d_1993 (Conv2D)         (None, 32, 32, 256)       7168      
_________________________________________________________________
activation_2408 (Activation) (None, 32, 32, 256)       0         
_________________________________________________________________
dropout_2408 (Dropout)       (None, 32, 32, 256)       0         
_________________________________________________________________
conv2d_1994 (Conv2D)         (None, 32, 32, 128)       295040    
_________________________________________________________________
batch_normalization_983 (Bat (None, 32, 32, 128)       512       
_________________________________________________________________
activation_2409 (Activation) (None, 32, 32, 128)       0         
_________________________________________________________________
dropout_2409 (Dropout)       (None, 32, 32, 128)       0         
_________________________________________________________________
max_pooling2d_600 (MaxPoolin (None, 16, 16, 128)       0         
_________________________________________________________________
conv2d_1995 (Conv2D)         (None, 16, 16, 128)       147584    
_________________________________________________________________
activation_2410 (Activation) (None, 16, 16, 128)       0         
_________________________________________________________________
dropout_2410 (Dropout)       (None, 16, 16, 128)       0         
_________________________________________________________________
max_pooling2d_601 (MaxPoolin (None, 8, 8, 128)         0         
_________________________________________________________________
conv2d_1996 (Conv2D)         (None, 8, 8, 512)         590336    
_________________________________________________________________
batch_normalization_984 (Bat (None, 8, 8, 512)         2048      
_________________________________________________________________
activation_2411 (Activation) (None, 8, 8, 512)         0         
_________________________________________________________________
dropout_2411 (Dropout)       (None, 8, 8, 512)         0         
_________________________________________________________________
conv2d_1997 (Conv2D)         (None, 8, 8, 1024)        4719616   
_________________________________________________________________
activation_2412 (Activation) (None, 8, 8, 1024)        0         
_________________________________________________________________
dropout_2412 (Dropout)       (None, 8, 8, 1024)        0         
_________________________________________________________________
max_pooling2d_602 (MaxPoolin (None, 4, 4, 1024)        0         
_________________________________________________________________
conv2d_1998 (Conv2D)         (None, 4, 4, 128)         1179776   
_________________________________________________________________
batch_normalization_985 (Bat (None, 4, 4, 128)         512       
_________________________________________________________________
activation_2413 (Activation) (None, 4, 4, 128)         0         
_________________________________________________________________
dropout_2413 (Dropout)       (None, 4, 4, 128)         0         
_________________________________________________________________
conv2d_1999 (Conv2D)         (None, 4, 4, 16)          18448     
_________________________________________________________________
batch_normalization_986 (Bat (None, 4, 4, 16)          64        
_________________________________________________________________
activation_2414 (Activation) (None, 4, 4, 16)          0         
_________________________________________________________________
dropout_2414 (Dropout)       (None, 4, 4, 16)          0         
_________________________________________________________________
flatten_326 (Flatten)        (None, 256)               0         
_________________________________________________________________
dense_741 (Dense)            (None, 128)               32896     
_________________________________________________________________
activation_2415 (Activation) (None, 128)               0         
_________________________________________________________________
dropout_2415 (Dropout)       (None, 128)               0         
_________________________________________________________________
dense_742 (Dense)            (None, 10)                1290      
=================================================================
Total params: 6,995,290
Trainable params: 6,993,722
Non-trainable params: 1,568
_________________________________________________________________
