Model: "sequential_234"
_________________________________________________________________
Layer (type)                 Output Shape              Param #   
=================================================================
conv2d_1375 (Conv2D)         (None, 32, 32, 16)        448       
_________________________________________________________________
activation_1709 (Activation) (None, 32, 32, 16)        0         
_________________________________________________________________
dropout_1709 (Dropout)       (None, 32, 32, 16)        0         
_________________________________________________________________
conv2d_1376 (Conv2D)         (None, 32, 32, 512)       74240     
_________________________________________________________________
batch_normalization_680 (Bat (None, 32, 32, 512)       2048      
_________________________________________________________________
activation_1710 (Activation) (None, 32, 32, 512)       0         
_________________________________________________________________
dropout_1710 (Dropout)       (None, 32, 32, 512)       0         
_________________________________________________________________
max_pooling2d_436 (MaxPoolin (None, 16, 16, 512)       0         
_________________________________________________________________
conv2d_1377 (Conv2D)         (None, 16, 16, 128)       589952    
_________________________________________________________________
batch_normalization_681 (Bat (None, 16, 16, 128)       512       
_________________________________________________________________
activation_1711 (Activation) (None, 16, 16, 128)       0         
_________________________________________________________________
dropout_1711 (Dropout)       (None, 16, 16, 128)       0         
_________________________________________________________________
max_pooling2d_437 (MaxPoolin (None, 8, 8, 128)         0         
_________________________________________________________________
conv2d_1378 (Conv2D)         (None, 8, 8, 512)         590336    
_________________________________________________________________
batch_normalization_682 (Bat (None, 8, 8, 512)         2048      
_________________________________________________________________
activation_1712 (Activation) (None, 8, 8, 512)         0         
_________________________________________________________________
dropout_1712 (Dropout)       (None, 8, 8, 512)         0         
_________________________________________________________________
conv2d_1379 (Conv2D)         (None, 8, 8, 32)          147488    
_________________________________________________________________
activation_1713 (Activation) (None, 8, 8, 32)          0         
_________________________________________________________________
dropout_1713 (Dropout)       (None, 8, 8, 32)          0         
_________________________________________________________________
conv2d_1380 (Conv2D)         (None, 8, 8, 128)         36992     
_________________________________________________________________
activation_1714 (Activation) (None, 8, 8, 128)         0         
_________________________________________________________________
dropout_1714 (Dropout)       (None, 8, 8, 128)         0         
_________________________________________________________________
conv2d_1381 (Conv2D)         (None, 8, 8, 16)          18448     
_________________________________________________________________
batch_normalization_683 (Bat (None, 8, 8, 16)          64        
_________________________________________________________________
activation_1715 (Activation) (None, 8, 8, 16)          0         
_________________________________________________________________
dropout_1715 (Dropout)       (None, 8, 8, 16)          0         
_________________________________________________________________
flatten_234 (Flatten)        (None, 1024)              0         
_________________________________________________________________
dense_568 (Dense)            (None, 128)               131200    
_________________________________________________________________
activation_1716 (Activation) (None, 128)               0         
_________________________________________________________________
dropout_1716 (Dropout)       (None, 128)               0         
_________________________________________________________________
dense_569 (Dense)            (None, 10)                1290      
=================================================================
Total params: 1,595,066
Trainable params: 1,592,730
Non-trainable params: 2,336
_________________________________________________________________
