Model: "sequential_99"
_________________________________________________________________
Layer (type)                 Output Shape              Param #   
=================================================================
conv2d_533 (Conv2D)          (None, 32, 32, 256)       7168      
_________________________________________________________________
batch_normalization_323 (Bat (None, 32, 32, 256)       1024      
_________________________________________________________________
activation_704 (Activation)  (None, 32, 32, 256)       0         
_________________________________________________________________
dropout_704 (Dropout)        (None, 32, 32, 256)       0         
_________________________________________________________________
max_pooling2d_194 (MaxPoolin (None, 16, 16, 256)       0         
_________________________________________________________________
conv2d_534 (Conv2D)          (None, 16, 16, 1024)      2360320   
_________________________________________________________________
batch_normalization_324 (Bat (None, 16, 16, 1024)      4096      
_________________________________________________________________
activation_705 (Activation)  (None, 16, 16, 1024)      0         
_________________________________________________________________
dropout_705 (Dropout)        (None, 16, 16, 1024)      0         
_________________________________________________________________
conv2d_535 (Conv2D)          (None, 16, 16, 16)        147472    
_________________________________________________________________
activation_706 (Activation)  (None, 16, 16, 16)        0         
_________________________________________________________________
dropout_706 (Dropout)        (None, 16, 16, 16)        0         
_________________________________________________________________
conv2d_536 (Conv2D)          (None, 16, 16, 512)       74240     
_________________________________________________________________
batch_normalization_325 (Bat (None, 16, 16, 512)       2048      
_________________________________________________________________
activation_707 (Activation)  (None, 16, 16, 512)       0         
_________________________________________________________________
dropout_707 (Dropout)        (None, 16, 16, 512)       0         
_________________________________________________________________
conv2d_537 (Conv2D)          (None, 16, 16, 1024)      4719616   
_________________________________________________________________
activation_708 (Activation)  (None, 16, 16, 1024)      0         
_________________________________________________________________
dropout_708 (Dropout)        (None, 16, 16, 1024)      0         
_________________________________________________________________
flatten_99 (Flatten)         (None, 262144)            0         
_________________________________________________________________
dense_270 (Dense)            (None, 64)                16777280  
_________________________________________________________________
batch_normalization_326 (Bat (None, 64)                256       
_________________________________________________________________
activation_709 (Activation)  (None, 64)                0         
_________________________________________________________________
dropout_709 (Dropout)        (None, 64)                0         
_________________________________________________________________
dense_271 (Dense)            (None, 512)               33280     
_________________________________________________________________
activation_710 (Activation)  (None, 512)               0         
_________________________________________________________________
dropout_710 (Dropout)        (None, 512)               0         
_________________________________________________________________
dense_272 (Dense)            (None, 10)                5130      
=================================================================
Total params: 24,131,930
Trainable params: 24,128,218
Non-trainable params: 3,712
_________________________________________________________________
