Model: "sequential_208"
_________________________________________________________________
Layer (type)                 Output Shape              Param #   
=================================================================
conv2d_1198 (Conv2D)         (None, 32, 32, 16)        448       
_________________________________________________________________
activation_1509 (Activation) (None, 32, 32, 16)        0         
_________________________________________________________________
dropout_1509 (Dropout)       (None, 32, 32, 16)        0         
_________________________________________________________________
conv2d_1199 (Conv2D)         (None, 32, 32, 128)       18560     
_________________________________________________________________
batch_normalization_604 (Bat (None, 32, 32, 128)       512       
_________________________________________________________________
activation_1510 (Activation) (None, 32, 32, 128)       0         
_________________________________________________________________
dropout_1510 (Dropout)       (None, 32, 32, 128)       0         
_________________________________________________________________
max_pooling2d_385 (MaxPoolin (None, 16, 16, 128)       0         
_________________________________________________________________
conv2d_1200 (Conv2D)         (None, 16, 16, 128)       147584    
_________________________________________________________________
activation_1511 (Activation) (None, 16, 16, 128)       0         
_________________________________________________________________
dropout_1511 (Dropout)       (None, 16, 16, 128)       0         
_________________________________________________________________
max_pooling2d_386 (MaxPoolin (None, 8, 8, 128)         0         
_________________________________________________________________
conv2d_1201 (Conv2D)         (None, 8, 8, 32)          36896     
_________________________________________________________________
activation_1512 (Activation) (None, 8, 8, 32)          0         
_________________________________________________________________
dropout_1512 (Dropout)       (None, 8, 8, 32)          0         
_________________________________________________________________
conv2d_1202 (Conv2D)         (None, 8, 8, 32)          9248      
_________________________________________________________________
activation_1513 (Activation) (None, 8, 8, 32)          0         
_________________________________________________________________
dropout_1513 (Dropout)       (None, 8, 8, 32)          0         
_________________________________________________________________
conv2d_1203 (Conv2D)         (None, 8, 8, 128)         36992     
_________________________________________________________________
activation_1514 (Activation) (None, 8, 8, 128)         0         
_________________________________________________________________
dropout_1514 (Dropout)       (None, 8, 8, 128)         0         
_________________________________________________________________
conv2d_1204 (Conv2D)         (None, 8, 8, 16)          18448     
_________________________________________________________________
batch_normalization_605 (Bat (None, 8, 8, 16)          64        
_________________________________________________________________
activation_1515 (Activation) (None, 8, 8, 16)          0         
_________________________________________________________________
dropout_1515 (Dropout)       (None, 8, 8, 16)          0         
_________________________________________________________________
flatten_208 (Flatten)        (None, 1024)              0         
_________________________________________________________________
dense_519 (Dense)            (None, 128)               131200    
_________________________________________________________________
activation_1516 (Activation) (None, 128)               0         
_________________________________________________________________
dropout_1516 (Dropout)       (None, 128)               0         
_________________________________________________________________
dense_520 (Dense)            (None, 10)                1290      
=================================================================
Total params: 401,242
Trainable params: 400,954
Non-trainable params: 288
_________________________________________________________________
