Model: "sequential_50"
_________________________________________________________________
Layer (type)                 Output Shape              Param #   
=================================================================
conv2d_274 (Conv2D)          (None, 32, 32, 64)        1792      
_________________________________________________________________
activation_359 (Activation)  (None, 32, 32, 64)        0         
_________________________________________________________________
dropout_359 (Dropout)        (None, 32, 32, 64)        0         
_________________________________________________________________
conv2d_275 (Conv2D)          (None, 32, 32, 32)        18464     
_________________________________________________________________
activation_360 (Activation)  (None, 32, 32, 32)        0         
_________________________________________________________________
dropout_360 (Dropout)        (None, 32, 32, 32)        0         
_________________________________________________________________
conv2d_276 (Conv2D)          (None, 32, 32, 128)       36992     
_________________________________________________________________
activation_361 (Activation)  (None, 32, 32, 128)       0         
_________________________________________________________________
dropout_361 (Dropout)        (None, 32, 32, 128)       0         
_________________________________________________________________
conv2d_277 (Conv2D)          (None, 32, 32, 16)        18448     
_________________________________________________________________
batch_normalization_178 (Bat (None, 32, 32, 16)        64        
_________________________________________________________________
activation_362 (Activation)  (None, 32, 32, 16)        0         
_________________________________________________________________
dropout_362 (Dropout)        (None, 32, 32, 16)        0         
_________________________________________________________________
flatten_50 (Flatten)         (None, 16384)             0         
_________________________________________________________________
dense_135 (Dense)            (None, 128)               2097280   
_________________________________________________________________
activation_363 (Activation)  (None, 128)               0         
_________________________________________________________________
dropout_363 (Dropout)        (None, 128)               0         
_________________________________________________________________
dense_136 (Dense)            (None, 10)                1290      
=================================================================
Total params: 2,174,330
Trainable params: 2,174,298
Non-trainable params: 32
_________________________________________________________________
