Model: "sequential_240"
_________________________________________________________________
Layer (type)                 Output Shape              Param #   
=================================================================
conv2d_1417 (Conv2D)         (None, 32, 32, 256)       7168      
_________________________________________________________________
batch_normalization_700 (Bat (None, 32, 32, 256)       1024      
_________________________________________________________________
activation_1757 (Activation) (None, 32, 32, 256)       0         
_________________________________________________________________
dropout_1757 (Dropout)       (None, 32, 32, 256)       0         
_________________________________________________________________
conv2d_1418 (Conv2D)         (None, 32, 32, 512)       1180160   
_________________________________________________________________
batch_normalization_701 (Bat (None, 32, 32, 512)       2048      
_________________________________________________________________
activation_1758 (Activation) (None, 32, 32, 512)       0         
_________________________________________________________________
dropout_1758 (Dropout)       (None, 32, 32, 512)       0         
_________________________________________________________________
max_pooling2d_448 (MaxPoolin (None, 16, 16, 512)       0         
_________________________________________________________________
conv2d_1419 (Conv2D)         (None, 16, 16, 128)       589952    
_________________________________________________________________
activation_1759 (Activation) (None, 16, 16, 128)       0         
_________________________________________________________________
dropout_1759 (Dropout)       (None, 16, 16, 128)       0         
_________________________________________________________________
max_pooling2d_449 (MaxPoolin (None, 8, 8, 128)         0         
_________________________________________________________________
conv2d_1420 (Conv2D)         (None, 8, 8, 512)         590336    
_________________________________________________________________
batch_normalization_702 (Bat (None, 8, 8, 512)         2048      
_________________________________________________________________
activation_1760 (Activation) (None, 8, 8, 512)         0         
_________________________________________________________________
dropout_1760 (Dropout)       (None, 8, 8, 512)         0         
_________________________________________________________________
conv2d_1421 (Conv2D)         (None, 8, 8, 256)         1179904   
_________________________________________________________________
activation_1761 (Activation) (None, 8, 8, 256)         0         
_________________________________________________________________
dropout_1761 (Dropout)       (None, 8, 8, 256)         0         
_________________________________________________________________
conv2d_1422 (Conv2D)         (None, 8, 8, 128)         295040    
_________________________________________________________________
activation_1762 (Activation) (None, 8, 8, 128)         0         
_________________________________________________________________
dropout_1762 (Dropout)       (None, 8, 8, 128)         0         
_________________________________________________________________
conv2d_1423 (Conv2D)         (None, 8, 8, 16)          18448     
_________________________________________________________________
batch_normalization_703 (Bat (None, 8, 8, 16)          64        
_________________________________________________________________
activation_1763 (Activation) (None, 8, 8, 16)          0         
_________________________________________________________________
dropout_1763 (Dropout)       (None, 8, 8, 16)          0         
_________________________________________________________________
flatten_240 (Flatten)        (None, 1024)              0         
_________________________________________________________________
dense_580 (Dense)            (None, 128)               131200    
_________________________________________________________________
activation_1764 (Activation) (None, 128)               0         
_________________________________________________________________
dropout_1764 (Dropout)       (None, 128)               0         
_________________________________________________________________
dense_581 (Dense)            (None, 10)                1290      
=================================================================
Total params: 3,998,682
Trainable params: 3,996,090
Non-trainable params: 2,592
_________________________________________________________________
