Model: "sequential_270"
_________________________________________________________________
Layer (type)                 Output Shape              Param #   
=================================================================
conv2d_1620 (Conv2D)         (None, 32, 32, 16)        448       
_________________________________________________________________
activation_1985 (Activation) (None, 32, 32, 16)        0         
_________________________________________________________________
dropout_1985 (Dropout)       (None, 32, 32, 16)        0         
_________________________________________________________________
conv2d_1621 (Conv2D)         (None, 32, 32, 128)       18560     
_________________________________________________________________
batch_normalization_802 (Bat (None, 32, 32, 128)       512       
_________________________________________________________________
activation_1986 (Activation) (None, 32, 32, 128)       0         
_________________________________________________________________
dropout_1986 (Dropout)       (None, 32, 32, 128)       0         
_________________________________________________________________
max_pooling2d_505 (MaxPoolin (None, 16, 16, 128)       0         
_________________________________________________________________
conv2d_1622 (Conv2D)         (None, 16, 16, 128)       147584    
_________________________________________________________________
activation_1987 (Activation) (None, 16, 16, 128)       0         
_________________________________________________________________
dropout_1987 (Dropout)       (None, 16, 16, 128)       0         
_________________________________________________________________
max_pooling2d_506 (MaxPoolin (None, 8, 8, 128)         0         
_________________________________________________________________
conv2d_1623 (Conv2D)         (None, 8, 8, 512)         590336    
_________________________________________________________________
batch_normalization_803 (Bat (None, 8, 8, 512)         2048      
_________________________________________________________________
activation_1988 (Activation) (None, 8, 8, 512)         0         
_________________________________________________________________
dropout_1988 (Dropout)       (None, 8, 8, 512)         0         
_________________________________________________________________
conv2d_1624 (Conv2D)         (None, 8, 8, 256)         1179904   
_________________________________________________________________
activation_1989 (Activation) (None, 8, 8, 256)         0         
_________________________________________________________________
dropout_1989 (Dropout)       (None, 8, 8, 256)         0         
_________________________________________________________________
conv2d_1625 (Conv2D)         (None, 8, 8, 128)         295040    
_________________________________________________________________
activation_1990 (Activation) (None, 8, 8, 128)         0         
_________________________________________________________________
dropout_1990 (Dropout)       (None, 8, 8, 128)         0         
_________________________________________________________________
conv2d_1626 (Conv2D)         (None, 8, 8, 16)          18448     
_________________________________________________________________
batch_normalization_804 (Bat (None, 8, 8, 16)          64        
_________________________________________________________________
activation_1991 (Activation) (None, 8, 8, 16)          0         
_________________________________________________________________
dropout_1991 (Dropout)       (None, 8, 8, 16)          0         
_________________________________________________________________
flatten_270 (Flatten)        (None, 1024)              0         
_________________________________________________________________
dense_635 (Dense)            (None, 128)               131200    
_________________________________________________________________
activation_1992 (Activation) (None, 128)               0         
_________________________________________________________________
dropout_1992 (Dropout)       (None, 128)               0         
_________________________________________________________________
dense_636 (Dense)            (None, 10)                1290      
=================================================================
Total params: 2,385,434
Trainable params: 2,384,122
Non-trainable params: 1,312
_________________________________________________________________
