Model: "sequential_348"
_________________________________________________________________
Layer (type)                 Output Shape              Param #   
=================================================================
conv2d_2133 (Conv2D)         (None, 32, 32, 1024)      28672     
_________________________________________________________________
batch_normalization_1039 (Ba (None, 32, 32, 1024)      4096      
_________________________________________________________________
activation_2568 (Activation) (None, 32, 32, 1024)      0         
_________________________________________________________________
dropout_2568 (Dropout)       (None, 32, 32, 1024)      0         
_________________________________________________________________
conv2d_2134 (Conv2D)         (None, 32, 32, 512)       4719104   
_________________________________________________________________
batch_normalization_1040 (Ba (None, 32, 32, 512)       2048      
_________________________________________________________________
activation_2569 (Activation) (None, 32, 32, 512)       0         
_________________________________________________________________
dropout_2569 (Dropout)       (None, 32, 32, 512)       0         
_________________________________________________________________
max_pooling2d_633 (MaxPoolin (None, 16, 16, 512)       0         
_________________________________________________________________
conv2d_2135 (Conv2D)         (None, 16, 16, 128)       589952    
_________________________________________________________________
activation_2570 (Activation) (None, 16, 16, 128)       0         
_________________________________________________________________
dropout_2570 (Dropout)       (None, 16, 16, 128)       0         
_________________________________________________________________
max_pooling2d_634 (MaxPoolin (None, 8, 8, 128)         0         
_________________________________________________________________
conv2d_2136 (Conv2D)         (None, 8, 8, 512)         590336    
_________________________________________________________________
activation_2571 (Activation) (None, 8, 8, 512)         0         
_________________________________________________________________
dropout_2571 (Dropout)       (None, 8, 8, 512)         0         
_________________________________________________________________
conv2d_2137 (Conv2D)         (None, 8, 8, 256)         1179904   
_________________________________________________________________
activation_2572 (Activation) (None, 8, 8, 256)         0         
_________________________________________________________________
dropout_2572 (Dropout)       (None, 8, 8, 256)         0         
_________________________________________________________________
conv2d_2138 (Conv2D)         (None, 8, 8, 256)         590080    
_________________________________________________________________
activation_2573 (Activation) (None, 8, 8, 256)         0         
_________________________________________________________________
dropout_2573 (Dropout)       (None, 8, 8, 256)         0         
_________________________________________________________________
conv2d_2139 (Conv2D)         (None, 8, 8, 128)         295040    
_________________________________________________________________
activation_2574 (Activation) (None, 8, 8, 128)         0         
_________________________________________________________________
dropout_2574 (Dropout)       (None, 8, 8, 128)         0         
_________________________________________________________________
conv2d_2140 (Conv2D)         (None, 8, 8, 16)          18448     
_________________________________________________________________
batch_normalization_1041 (Ba (None, 8, 8, 16)          64        
_________________________________________________________________
activation_2575 (Activation) (None, 8, 8, 16)          0         
_________________________________________________________________
dropout_2575 (Dropout)       (None, 8, 8, 16)          0         
_________________________________________________________________
flatten_348 (Flatten)        (None, 1024)              0         
_________________________________________________________________
dense_783 (Dense)            (None, 10)                10250     
=================================================================
Total params: 8,027,994
Trainable params: 8,024,890
Non-trainable params: 3,104
_________________________________________________________________
