Model: "sequential_109"
_________________________________________________________________
Layer (type)                 Output Shape              Param #   
=================================================================
conv2d_588 (Conv2D)          (None, 32, 32, 256)       7168      
_________________________________________________________________
batch_normalization_350 (Bat (None, 32, 32, 256)       1024      
_________________________________________________________________
activation_773 (Activation)  (None, 32, 32, 256)       0         
_________________________________________________________________
dropout_773 (Dropout)        (None, 32, 32, 256)       0         
_________________________________________________________________
max_pooling2d_209 (MaxPoolin (None, 16, 16, 256)       0         
_________________________________________________________________
conv2d_589 (Conv2D)          (None, 16, 16, 128)       295040    
_________________________________________________________________
activation_774 (Activation)  (None, 16, 16, 128)       0         
_________________________________________________________________
dropout_774 (Dropout)        (None, 16, 16, 128)       0         
_________________________________________________________________
max_pooling2d_210 (MaxPoolin (None, 8, 8, 128)         0         
_________________________________________________________________
conv2d_590 (Conv2D)          (None, 8, 8, 32)          36896     
_________________________________________________________________
activation_775 (Activation)  (None, 8, 8, 32)          0         
_________________________________________________________________
dropout_775 (Dropout)        (None, 8, 8, 32)          0         
_________________________________________________________________
conv2d_591 (Conv2D)          (None, 8, 8, 32)          9248      
_________________________________________________________________
activation_776 (Activation)  (None, 8, 8, 32)          0         
_________________________________________________________________
dropout_776 (Dropout)        (None, 8, 8, 32)          0         
_________________________________________________________________
max_pooling2d_211 (MaxPoolin (None, 4, 4, 32)          0         
_________________________________________________________________
conv2d_592 (Conv2D)          (None, 4, 4, 512)         147968    
_________________________________________________________________
activation_777 (Activation)  (None, 4, 4, 512)         0         
_________________________________________________________________
dropout_777 (Dropout)        (None, 4, 4, 512)         0         
_________________________________________________________________
flatten_109 (Flatten)        (None, 8192)              0         
_________________________________________________________________
dense_294 (Dense)            (None, 16)                131088    
_________________________________________________________________
activation_778 (Activation)  (None, 16)                0         
_________________________________________________________________
dropout_778 (Dropout)        (None, 16)                0         
_________________________________________________________________
dense_295 (Dense)            (None, 32)                544       
_________________________________________________________________
activation_779 (Activation)  (None, 32)                0         
_________________________________________________________________
dropout_779 (Dropout)        (None, 32)                0         
_________________________________________________________________
dense_296 (Dense)            (None, 10)                330       
=================================================================
Total params: 629,306
Trainable params: 628,794
Non-trainable params: 512
_________________________________________________________________
