Model: "sequential_114"
_________________________________________________________________
Layer (type)                 Output Shape              Param #   
=================================================================
conv2d_616 (Conv2D)          (None, 32, 32, 32)        896       
_________________________________________________________________
batch_normalization_358 (Bat (None, 32, 32, 32)        128       
_________________________________________________________________
activation_809 (Activation)  (None, 32, 32, 32)        0         
_________________________________________________________________
dropout_809 (Dropout)        (None, 32, 32, 32)        0         
_________________________________________________________________
max_pooling2d_220 (MaxPoolin (None, 16, 16, 32)        0         
_________________________________________________________________
conv2d_617 (Conv2D)          (None, 16, 16, 512)       147968    
_________________________________________________________________
batch_normalization_359 (Bat (None, 16, 16, 512)       2048      
_________________________________________________________________
activation_810 (Activation)  (None, 16, 16, 512)       0         
_________________________________________________________________
dropout_810 (Dropout)        (None, 16, 16, 512)       0         
_________________________________________________________________
conv2d_618 (Conv2D)          (None, 16, 16, 16)        73744     
_________________________________________________________________
activation_811 (Activation)  (None, 16, 16, 16)        0         
_________________________________________________________________
dropout_811 (Dropout)        (None, 16, 16, 16)        0         
_________________________________________________________________
conv2d_619 (Conv2D)          (None, 16, 16, 512)       74240     
_________________________________________________________________
batch_normalization_360 (Bat (None, 16, 16, 512)       2048      
_________________________________________________________________
activation_812 (Activation)  (None, 16, 16, 512)       0         
_________________________________________________________________
dropout_812 (Dropout)        (None, 16, 16, 512)       0         
_________________________________________________________________
conv2d_620 (Conv2D)          (None, 16, 16, 256)       1179904   
_________________________________________________________________
activation_813 (Activation)  (None, 16, 16, 256)       0         
_________________________________________________________________
dropout_813 (Dropout)        (None, 16, 16, 256)       0         
_________________________________________________________________
conv2d_621 (Conv2D)          (None, 16, 16, 128)       295040    
_________________________________________________________________
activation_814 (Activation)  (None, 16, 16, 128)       0         
_________________________________________________________________
dropout_814 (Dropout)        (None, 16, 16, 128)       0         
_________________________________________________________________
conv2d_622 (Conv2D)          (None, 16, 16, 16)        18448     
_________________________________________________________________
batch_normalization_361 (Bat (None, 16, 16, 16)        64        
_________________________________________________________________
activation_815 (Activation)  (None, 16, 16, 16)        0         
_________________________________________________________________
dropout_815 (Dropout)        (None, 16, 16, 16)        0         
_________________________________________________________________
flatten_114 (Flatten)        (None, 4096)              0         
_________________________________________________________________
dense_307 (Dense)            (None, 128)               524416    
_________________________________________________________________
activation_816 (Activation)  (None, 128)               0         
_________________________________________________________________
dropout_816 (Dropout)        (None, 128)               0         
_________________________________________________________________
dense_308 (Dense)            (None, 10)                1290      
=================================================================
Total params: 2,320,234
Trainable params: 2,318,090
Non-trainable params: 2,144
_________________________________________________________________
