Model: "sequential_210"
_________________________________________________________________
Layer (type)                 Output Shape              Param #   
=================================================================
conv2d_1212 (Conv2D)         (None, 32, 32, 16)        448       
_________________________________________________________________
activation_1524 (Activation) (None, 32, 32, 16)        0         
_________________________________________________________________
dropout_1524 (Dropout)       (None, 32, 32, 16)        0         
_________________________________________________________________
conv2d_1213 (Conv2D)         (None, 32, 32, 128)       18560     
_________________________________________________________________
batch_normalization_610 (Bat (None, 32, 32, 128)       512       
_________________________________________________________________
activation_1525 (Activation) (None, 32, 32, 128)       0         
_________________________________________________________________
dropout_1525 (Dropout)       (None, 32, 32, 128)       0         
_________________________________________________________________
max_pooling2d_390 (MaxPoolin (None, 16, 16, 128)       0         
_________________________________________________________________
conv2d_1214 (Conv2D)         (None, 16, 16, 128)       147584    
_________________________________________________________________
activation_1526 (Activation) (None, 16, 16, 128)       0         
_________________________________________________________________
dropout_1526 (Dropout)       (None, 16, 16, 128)       0         
_________________________________________________________________
max_pooling2d_391 (MaxPoolin (None, 8, 8, 128)         0         
_________________________________________________________________
conv2d_1215 (Conv2D)         (None, 8, 8, 32)          36896     
_________________________________________________________________
activation_1527 (Activation) (None, 8, 8, 32)          0         
_________________________________________________________________
dropout_1527 (Dropout)       (None, 8, 8, 32)          0         
_________________________________________________________________
conv2d_1216 (Conv2D)         (None, 8, 8, 32)          9248      
_________________________________________________________________
activation_1528 (Activation) (None, 8, 8, 32)          0         
_________________________________________________________________
dropout_1528 (Dropout)       (None, 8, 8, 32)          0         
_________________________________________________________________
conv2d_1217 (Conv2D)         (None, 8, 8, 128)         36992     
_________________________________________________________________
activation_1529 (Activation) (None, 8, 8, 128)         0         
_________________________________________________________________
dropout_1529 (Dropout)       (None, 8, 8, 128)         0         
_________________________________________________________________
conv2d_1218 (Conv2D)         (None, 8, 8, 16)          18448     
_________________________________________________________________
batch_normalization_611 (Bat (None, 8, 8, 16)          64        
_________________________________________________________________
activation_1530 (Activation) (None, 8, 8, 16)          0         
_________________________________________________________________
dropout_1530 (Dropout)       (None, 8, 8, 16)          0         
_________________________________________________________________
flatten_210 (Flatten)        (None, 1024)              0         
_________________________________________________________________
dense_522 (Dense)            (None, 128)               131200    
_________________________________________________________________
activation_1531 (Activation) (None, 128)               0         
_________________________________________________________________
dropout_1531 (Dropout)       (None, 128)               0         
_________________________________________________________________
dense_523 (Dense)            (None, 10)                1290      
=================================================================
Total params: 401,242
Trainable params: 400,954
Non-trainable params: 288
_________________________________________________________________
