Model: "sequential_140"
_________________________________________________________________
Layer (type)                 Output Shape              Param #   
=================================================================
conv2d_757 (Conv2D)          (None, 32, 32, 16)        448       
_________________________________________________________________
batch_normalization_411 (Bat (None, 32, 32, 16)        64        
_________________________________________________________________
activation_989 (Activation)  (None, 32, 32, 16)        0         
_________________________________________________________________
dropout_989 (Dropout)        (None, 32, 32, 16)        0         
_________________________________________________________________
conv2d_758 (Conv2D)          (None, 32, 32, 512)       74240     
_________________________________________________________________
batch_normalization_412 (Bat (None, 32, 32, 512)       2048      
_________________________________________________________________
activation_990 (Activation)  (None, 32, 32, 512)       0         
_________________________________________________________________
dropout_990 (Dropout)        (None, 32, 32, 512)       0         
_________________________________________________________________
max_pooling2d_270 (MaxPoolin (None, 16, 16, 512)       0         
_________________________________________________________________
conv2d_759 (Conv2D)          (None, 16, 16, 128)       589952    
_________________________________________________________________
activation_991 (Activation)  (None, 16, 16, 128)       0         
_________________________________________________________________
dropout_991 (Dropout)        (None, 16, 16, 128)       0         
_________________________________________________________________
max_pooling2d_271 (MaxPoolin (None, 8, 8, 128)         0         
_________________________________________________________________
conv2d_760 (Conv2D)          (None, 8, 8, 512)         590336    
_________________________________________________________________
batch_normalization_413 (Bat (None, 8, 8, 512)         2048      
_________________________________________________________________
activation_992 (Activation)  (None, 8, 8, 512)         0         
_________________________________________________________________
dropout_992 (Dropout)        (None, 8, 8, 512)         0         
_________________________________________________________________
conv2d_761 (Conv2D)          (None, 8, 8, 256)         1179904   
_________________________________________________________________
activation_993 (Activation)  (None, 8, 8, 256)         0         
_________________________________________________________________
dropout_993 (Dropout)        (None, 8, 8, 256)         0         
_________________________________________________________________
conv2d_762 (Conv2D)          (None, 8, 8, 128)         295040    
_________________________________________________________________
activation_994 (Activation)  (None, 8, 8, 128)         0         
_________________________________________________________________
dropout_994 (Dropout)        (None, 8, 8, 128)         0         
_________________________________________________________________
conv2d_763 (Conv2D)          (None, 8, 8, 16)          18448     
_________________________________________________________________
batch_normalization_414 (Bat (None, 8, 8, 16)          64        
_________________________________________________________________
activation_995 (Activation)  (None, 8, 8, 16)          0         
_________________________________________________________________
dropout_995 (Dropout)        (None, 8, 8, 16)          0         
_________________________________________________________________
flatten_140 (Flatten)        (None, 1024)              0         
_________________________________________________________________
dense_372 (Dense)            (None, 128)               131200    
_________________________________________________________________
activation_996 (Activation)  (None, 128)               0         
_________________________________________________________________
dropout_996 (Dropout)        (None, 128)               0         
_________________________________________________________________
dense_373 (Dense)            (None, 10)                1290      
=================================================================
Total params: 2,885,082
Trainable params: 2,882,970
Non-trainable params: 2,112
_________________________________________________________________
