Model: "sequential_70"
_________________________________________________________________
Layer (type)                 Output Shape              Param #   
=================================================================
conv2d_377 (Conv2D)          (None, 32, 32, 64)        1792      
_________________________________________________________________
batch_normalization_244 (Bat (None, 32, 32, 64)        256       
_________________________________________________________________
activation_500 (Activation)  (None, 32, 32, 64)        0         
_________________________________________________________________
dropout_500 (Dropout)        (None, 32, 32, 64)        0         
_________________________________________________________________
max_pooling2d_137 (MaxPoolin (None, 16, 16, 64)        0         
_________________________________________________________________
conv2d_378 (Conv2D)          (None, 16, 16, 16)        9232      
_________________________________________________________________
activation_501 (Activation)  (None, 16, 16, 16)        0         
_________________________________________________________________
dropout_501 (Dropout)        (None, 16, 16, 16)        0         
_________________________________________________________________
max_pooling2d_138 (MaxPoolin (None, 8, 8, 16)          0         
_________________________________________________________________
conv2d_379 (Conv2D)          (None, 8, 8, 128)         18560     
_________________________________________________________________
batch_normalization_245 (Bat (None, 8, 8, 128)         512       
_________________________________________________________________
activation_502 (Activation)  (None, 8, 8, 128)         0         
_________________________________________________________________
dropout_502 (Dropout)        (None, 8, 8, 128)         0         
_________________________________________________________________
max_pooling2d_139 (MaxPoolin (None, 4, 4, 128)         0         
_________________________________________________________________
conv2d_380 (Conv2D)          (None, 4, 4, 512)         590336    
_________________________________________________________________
activation_503 (Activation)  (None, 4, 4, 512)         0         
_________________________________________________________________
dropout_503 (Dropout)        (None, 4, 4, 512)         0         
_________________________________________________________________
flatten_70 (Flatten)         (None, 8192)              0         
_________________________________________________________________
dense_193 (Dense)            (None, 16)                131088    
_________________________________________________________________
activation_504 (Activation)  (None, 16)                0         
_________________________________________________________________
dropout_504 (Dropout)        (None, 16)                0         
_________________________________________________________________
dense_194 (Dense)            (None, 32)                544       
_________________________________________________________________
activation_505 (Activation)  (None, 32)                0         
_________________________________________________________________
dropout_505 (Dropout)        (None, 32)                0         
_________________________________________________________________
dense_195 (Dense)            (None, 10)                330       
=================================================================
Total params: 752,650
Trainable params: 752,266
Non-trainable params: 384
_________________________________________________________________
