Model: "sequential_219"
_________________________________________________________________
Layer (type)                 Output Shape              Param #   
=================================================================
conv2d_1275 (Conv2D)         (None, 32, 32, 1024)      28672     
_________________________________________________________________
activation_1596 (Activation) (None, 32, 32, 1024)      0         
_________________________________________________________________
dropout_1596 (Dropout)       (None, 32, 32, 1024)      0         
_________________________________________________________________
conv2d_1276 (Conv2D)         (None, 32, 32, 256)       2359552   
_________________________________________________________________
activation_1597 (Activation) (None, 32, 32, 256)       0         
_________________________________________________________________
dropout_1597 (Dropout)       (None, 32, 32, 256)       0         
_________________________________________________________________
conv2d_1277 (Conv2D)         (None, 32, 32, 128)       295040    
_________________________________________________________________
activation_1598 (Activation) (None, 32, 32, 128)       0         
_________________________________________________________________
dropout_1598 (Dropout)       (None, 32, 32, 128)       0         
_________________________________________________________________
conv2d_1278 (Conv2D)         (None, 32, 32, 16)        18448     
_________________________________________________________________
batch_normalization_632 (Bat (None, 32, 32, 16)        64        
_________________________________________________________________
activation_1599 (Activation) (None, 32, 32, 16)        0         
_________________________________________________________________
dropout_1599 (Dropout)       (None, 32, 32, 16)        0         
_________________________________________________________________
flatten_219 (Flatten)        (None, 16384)             0         
_________________________________________________________________
dense_540 (Dense)            (None, 128)               2097280   
_________________________________________________________________
activation_1600 (Activation) (None, 128)               0         
_________________________________________________________________
dropout_1600 (Dropout)       (None, 128)               0         
_________________________________________________________________
dense_541 (Dense)            (None, 10)                1290      
=================================================================
Total params: 4,800,346
Trainable params: 4,800,314
Non-trainable params: 32
_________________________________________________________________
