Model: "sequential_375"
_________________________________________________________________
Layer (type)                 Output Shape              Param #   
=================================================================
conv2d_2302 (Conv2D)         (None, 32, 32, 16)        448       
_________________________________________________________________
activation_2755 (Activation) (None, 32, 32, 16)        0         
_________________________________________________________________
dropout_2755 (Dropout)       (None, 32, 32, 16)        0         
_________________________________________________________________
conv2d_2303 (Conv2D)         (None, 32, 32, 512)       74240     
_________________________________________________________________
batch_normalization_1102 (Ba (None, 32, 32, 512)       2048      
_________________________________________________________________
activation_2756 (Activation) (None, 32, 32, 512)       0         
_________________________________________________________________
dropout_2756 (Dropout)       (None, 32, 32, 512)       0         
_________________________________________________________________
max_pooling2d_672 (MaxPoolin (None, 16, 16, 512)       0         
_________________________________________________________________
conv2d_2304 (Conv2D)         (None, 16, 16, 128)       589952    
_________________________________________________________________
activation_2757 (Activation) (None, 16, 16, 128)       0         
_________________________________________________________________
dropout_2757 (Dropout)       (None, 16, 16, 128)       0         
_________________________________________________________________
max_pooling2d_673 (MaxPoolin (None, 8, 8, 128)         0         
_________________________________________________________________
conv2d_2305 (Conv2D)         (None, 8, 8, 512)         590336    
_________________________________________________________________
activation_2758 (Activation) (None, 8, 8, 512)         0         
_________________________________________________________________
dropout_2758 (Dropout)       (None, 8, 8, 512)         0         
_________________________________________________________________
conv2d_2306 (Conv2D)         (None, 8, 8, 256)         1179904   
_________________________________________________________________
activation_2759 (Activation) (None, 8, 8, 256)         0         
_________________________________________________________________
dropout_2759 (Dropout)       (None, 8, 8, 256)         0         
_________________________________________________________________
conv2d_2307 (Conv2D)         (None, 8, 8, 128)         295040    
_________________________________________________________________
activation_2760 (Activation) (None, 8, 8, 128)         0         
_________________________________________________________________
dropout_2760 (Dropout)       (None, 8, 8, 128)         0         
_________________________________________________________________
conv2d_2308 (Conv2D)         (None, 8, 8, 16)          18448     
_________________________________________________________________
batch_normalization_1103 (Ba (None, 8, 8, 16)          64        
_________________________________________________________________
activation_2761 (Activation) (None, 8, 8, 16)          0         
_________________________________________________________________
dropout_2761 (Dropout)       (None, 8, 8, 16)          0         
_________________________________________________________________
flatten_375 (Flatten)        (None, 1024)              0         
_________________________________________________________________
dense_828 (Dense)            (None, 128)               131200    
_________________________________________________________________
activation_2762 (Activation) (None, 128)               0         
_________________________________________________________________
dropout_2762 (Dropout)       (None, 128)               0         
_________________________________________________________________
dense_829 (Dense)            (None, 10)                1290      
=================================================================
Total params: 2,882,970
Trainable params: 2,881,914
Non-trainable params: 1,056
_________________________________________________________________
