Model: "sequential_195"
_________________________________________________________________
Layer (type)                 Output Shape              Param #   
=================================================================
conv2d_1109 (Conv2D)         (None, 32, 32, 16)        448       
_________________________________________________________________
activation_1407 (Activation) (None, 32, 32, 16)        0         
_________________________________________________________________
dropout_1407 (Dropout)       (None, 32, 32, 16)        0         
_________________________________________________________________
conv2d_1110 (Conv2D)         (None, 32, 32, 512)       74240     
_________________________________________________________________
batch_normalization_561 (Bat (None, 32, 32, 512)       2048      
_________________________________________________________________
activation_1408 (Activation) (None, 32, 32, 512)       0         
_________________________________________________________________
dropout_1408 (Dropout)       (None, 32, 32, 512)       0         
_________________________________________________________________
max_pooling2d_364 (MaxPoolin (None, 16, 16, 512)       0         
_________________________________________________________________
conv2d_1111 (Conv2D)         (None, 16, 16, 128)       589952    
_________________________________________________________________
activation_1409 (Activation) (None, 16, 16, 128)       0         
_________________________________________________________________
dropout_1409 (Dropout)       (None, 16, 16, 128)       0         
_________________________________________________________________
max_pooling2d_365 (MaxPoolin (None, 8, 8, 128)         0         
_________________________________________________________________
conv2d_1112 (Conv2D)         (None, 8, 8, 512)         590336    
_________________________________________________________________
batch_normalization_562 (Bat (None, 8, 8, 512)         2048      
_________________________________________________________________
activation_1410 (Activation) (None, 8, 8, 512)         0         
_________________________________________________________________
dropout_1410 (Dropout)       (None, 8, 8, 512)         0         
_________________________________________________________________
conv2d_1113 (Conv2D)         (None, 8, 8, 256)         1179904   
_________________________________________________________________
activation_1411 (Activation) (None, 8, 8, 256)         0         
_________________________________________________________________
dropout_1411 (Dropout)       (None, 8, 8, 256)         0         
_________________________________________________________________
conv2d_1114 (Conv2D)         (None, 8, 8, 128)         295040    
_________________________________________________________________
activation_1412 (Activation) (None, 8, 8, 128)         0         
_________________________________________________________________
dropout_1412 (Dropout)       (None, 8, 8, 128)         0         
_________________________________________________________________
conv2d_1115 (Conv2D)         (None, 8, 8, 16)          18448     
_________________________________________________________________
batch_normalization_563 (Bat (None, 8, 8, 16)          64        
_________________________________________________________________
activation_1413 (Activation) (None, 8, 8, 16)          0         
_________________________________________________________________
dropout_1413 (Dropout)       (None, 8, 8, 16)          0         
_________________________________________________________________
flatten_195 (Flatten)        (None, 1024)              0         
_________________________________________________________________
dense_493 (Dense)            (None, 128)               131200    
_________________________________________________________________
activation_1414 (Activation) (None, 128)               0         
_________________________________________________________________
dropout_1414 (Dropout)       (None, 128)               0         
_________________________________________________________________
dense_494 (Dense)            (None, 10)                1290      
=================================================================
Total params: 2,885,018
Trainable params: 2,882,938
Non-trainable params: 2,080
_________________________________________________________________
