Model: "sequential_49"
_________________________________________________________________
Layer (type)                 Output Shape              Param #   
=================================================================
conv2d_269 (Conv2D)          (None, 32, 32, 256)       7168      
_________________________________________________________________
batch_normalization_177 (Bat (None, 32, 32, 256)       1024      
_________________________________________________________________
activation_352 (Activation)  (None, 32, 32, 256)       0         
_________________________________________________________________
dropout_352 (Dropout)        (None, 32, 32, 256)       0         
_________________________________________________________________
max_pooling2d_100 (MaxPoolin (None, 16, 16, 256)       0         
_________________________________________________________________
conv2d_270 (Conv2D)          (None, 16, 16, 128)       295040    
_________________________________________________________________
activation_353 (Activation)  (None, 16, 16, 128)       0         
_________________________________________________________________
dropout_353 (Dropout)        (None, 16, 16, 128)       0         
_________________________________________________________________
max_pooling2d_101 (MaxPoolin (None, 8, 8, 128)         0         
_________________________________________________________________
conv2d_271 (Conv2D)          (None, 8, 8, 32)          36896     
_________________________________________________________________
activation_354 (Activation)  (None, 8, 8, 32)          0         
_________________________________________________________________
dropout_354 (Dropout)        (None, 8, 8, 32)          0         
_________________________________________________________________
conv2d_272 (Conv2D)          (None, 8, 8, 32)          9248      
_________________________________________________________________
activation_355 (Activation)  (None, 8, 8, 32)          0         
_________________________________________________________________
dropout_355 (Dropout)        (None, 8, 8, 32)          0         
_________________________________________________________________
max_pooling2d_102 (MaxPoolin (None, 4, 4, 32)          0         
_________________________________________________________________
conv2d_273 (Conv2D)          (None, 4, 4, 512)         147968    
_________________________________________________________________
activation_356 (Activation)  (None, 4, 4, 512)         0         
_________________________________________________________________
dropout_356 (Dropout)        (None, 4, 4, 512)         0         
_________________________________________________________________
flatten_49 (Flatten)         (None, 8192)              0         
_________________________________________________________________
dense_132 (Dense)            (None, 16)                131088    
_________________________________________________________________
activation_357 (Activation)  (None, 16)                0         
_________________________________________________________________
dropout_357 (Dropout)        (None, 16)                0         
_________________________________________________________________
dense_133 (Dense)            (None, 32)                544       
_________________________________________________________________
activation_358 (Activation)  (None, 32)                0         
_________________________________________________________________
dropout_358 (Dropout)        (None, 32)                0         
_________________________________________________________________
dense_134 (Dense)            (None, 10)                330       
=================================================================
Total params: 629,306
Trainable params: 628,794
Non-trainable params: 512
_________________________________________________________________
