Model: "sequential_162"
_________________________________________________________________
Layer (type)                 Output Shape              Param #   
=================================================================
conv2d_897 (Conv2D)          (None, 32, 32, 16)        448       
_________________________________________________________________
activation_1156 (Activation) (None, 32, 32, 16)        0         
_________________________________________________________________
dropout_1156 (Dropout)       (None, 32, 32, 16)        0         
_________________________________________________________________
conv2d_898 (Conv2D)          (None, 32, 32, 512)       74240     
_________________________________________________________________
batch_normalization_471 (Bat (None, 32, 32, 512)       2048      
_________________________________________________________________
activation_1157 (Activation) (None, 32, 32, 512)       0         
_________________________________________________________________
dropout_1157 (Dropout)       (None, 32, 32, 512)       0         
_________________________________________________________________
conv2d_899 (Conv2D)          (None, 32, 32, 16)        73744     
_________________________________________________________________
activation_1158 (Activation) (None, 32, 32, 16)        0         
_________________________________________________________________
dropout_1158 (Dropout)       (None, 32, 32, 16)        0         
_________________________________________________________________
conv2d_900 (Conv2D)          (None, 32, 32, 512)       74240     
_________________________________________________________________
batch_normalization_472 (Bat (None, 32, 32, 512)       2048      
_________________________________________________________________
activation_1159 (Activation) (None, 32, 32, 512)       0         
_________________________________________________________________
dropout_1159 (Dropout)       (None, 32, 32, 512)       0         
_________________________________________________________________
conv2d_901 (Conv2D)          (None, 32, 32, 256)       1179904   
_________________________________________________________________
activation_1160 (Activation) (None, 32, 32, 256)       0         
_________________________________________________________________
dropout_1160 (Dropout)       (None, 32, 32, 256)       0         
_________________________________________________________________
conv2d_902 (Conv2D)          (None, 32, 32, 128)       295040    
_________________________________________________________________
activation_1161 (Activation) (None, 32, 32, 128)       0         
_________________________________________________________________
dropout_1161 (Dropout)       (None, 32, 32, 128)       0         
_________________________________________________________________
conv2d_903 (Conv2D)          (None, 32, 32, 16)        18448     
_________________________________________________________________
batch_normalization_473 (Bat (None, 32, 32, 16)        64        
_________________________________________________________________
activation_1162 (Activation) (None, 32, 32, 16)        0         
_________________________________________________________________
dropout_1162 (Dropout)       (None, 32, 32, 16)        0         
_________________________________________________________________
flatten_162 (Flatten)        (None, 16384)             0         
_________________________________________________________________
dense_421 (Dense)            (None, 128)               2097280   
_________________________________________________________________
activation_1163 (Activation) (None, 128)               0         
_________________________________________________________________
dropout_1163 (Dropout)       (None, 128)               0         
_________________________________________________________________
dense_422 (Dense)            (None, 10)                1290      
=================================================================
Total params: 3,818,794
Trainable params: 3,816,714
Non-trainable params: 2,080
_________________________________________________________________
