Model: "sequential_35"
_________________________________________________________________
Layer (type)                 Output Shape              Param #   
=================================================================
conv2d_189 (Conv2D)          (None, 32, 32, 256)       7168      
_________________________________________________________________
batch_normalization_128 (Bat (None, 32, 32, 256)       1024      
_________________________________________________________________
activation_251 (Activation)  (None, 32, 32, 256)       0         
_________________________________________________________________
dropout_251 (Dropout)        (None, 32, 32, 256)       0         
_________________________________________________________________
max_pooling2d_71 (MaxPooling (None, 16, 16, 256)       0         
_________________________________________________________________
conv2d_190 (Conv2D)          (None, 16, 16, 128)       295040    
_________________________________________________________________
batch_normalization_129 (Bat (None, 16, 16, 128)       512       
_________________________________________________________________
activation_252 (Activation)  (None, 16, 16, 128)       0         
_________________________________________________________________
dropout_252 (Dropout)        (None, 16, 16, 128)       0         
_________________________________________________________________
conv2d_191 (Conv2D)          (None, 16, 16, 32)        36896     
_________________________________________________________________
activation_253 (Activation)  (None, 16, 16, 32)        0         
_________________________________________________________________
dropout_253 (Dropout)        (None, 16, 16, 32)        0         
_________________________________________________________________
max_pooling2d_72 (MaxPooling (None, 8, 8, 32)          0         
_________________________________________________________________
conv2d_192 (Conv2D)          (None, 8, 8, 32)          9248      
_________________________________________________________________
activation_254 (Activation)  (None, 8, 8, 32)          0         
_________________________________________________________________
dropout_254 (Dropout)        (None, 8, 8, 32)          0         
_________________________________________________________________
conv2d_193 (Conv2D)          (None, 8, 8, 64)          18496     
_________________________________________________________________
batch_normalization_130 (Bat (None, 8, 8, 64)          256       
_________________________________________________________________
activation_255 (Activation)  (None, 8, 8, 64)          0         
_________________________________________________________________
dropout_255 (Dropout)        (None, 8, 8, 64)          0         
_________________________________________________________________
flatten_35 (Flatten)         (None, 4096)              0         
_________________________________________________________________
dense_97 (Dense)             (None, 32)                131104    
_________________________________________________________________
activation_256 (Activation)  (None, 32)                0         
_________________________________________________________________
dropout_256 (Dropout)        (None, 32)                0         
_________________________________________________________________
dense_98 (Dense)             (None, 64)                2112      
_________________________________________________________________
batch_normalization_131 (Bat (None, 64)                256       
_________________________________________________________________
activation_257 (Activation)  (None, 64)                0         
_________________________________________________________________
dropout_257 (Dropout)        (None, 64)                0         
_________________________________________________________________
dense_99 (Dense)             (None, 512)               33280     
_________________________________________________________________
activation_258 (Activation)  (None, 512)               0         
_________________________________________________________________
dropout_258 (Dropout)        (None, 512)               0         
_________________________________________________________________
dense_100 (Dense)            (None, 10)                5130      
=================================================================
Total params: 540,522
Trainable params: 539,498
Non-trainable params: 1,024
_________________________________________________________________
