Model: "sequential_72"
_________________________________________________________________
Layer (type)                 Output Shape              Param #   
=================================================================
conv2d_387 (Conv2D)          (None, 32, 32, 256)       7168      
_________________________________________________________________
batch_normalization_247 (Bat (None, 32, 32, 256)       1024      
_________________________________________________________________
activation_514 (Activation)  (None, 32, 32, 256)       0         
_________________________________________________________________
dropout_514 (Dropout)        (None, 32, 32, 256)       0         
_________________________________________________________________
conv2d_388 (Conv2D)          (None, 32, 32, 512)       1180160   
_________________________________________________________________
batch_normalization_248 (Bat (None, 32, 32, 512)       2048      
_________________________________________________________________
activation_515 (Activation)  (None, 32, 32, 512)       0         
_________________________________________________________________
dropout_515 (Dropout)        (None, 32, 32, 512)       0         
_________________________________________________________________
max_pooling2d_143 (MaxPoolin (None, 16, 16, 512)       0         
_________________________________________________________________
conv2d_389 (Conv2D)          (None, 16, 16, 32)        147488    
_________________________________________________________________
batch_normalization_249 (Bat (None, 16, 16, 32)        128       
_________________________________________________________________
activation_516 (Activation)  (None, 16, 16, 32)        0         
_________________________________________________________________
dropout_516 (Dropout)        (None, 16, 16, 32)        0         
_________________________________________________________________
max_pooling2d_144 (MaxPoolin (None, 8, 8, 32)          0         
_________________________________________________________________
conv2d_390 (Conv2D)          (None, 8, 8, 256)         73984     
_________________________________________________________________
activation_517 (Activation)  (None, 8, 8, 256)         0         
_________________________________________________________________
dropout_517 (Dropout)        (None, 8, 8, 256)         0         
_________________________________________________________________
conv2d_391 (Conv2D)          (None, 8, 8, 128)         295040    
_________________________________________________________________
activation_518 (Activation)  (None, 8, 8, 128)         0         
_________________________________________________________________
dropout_518 (Dropout)        (None, 8, 8, 128)         0         
_________________________________________________________________
conv2d_392 (Conv2D)          (None, 8, 8, 16)          18448     
_________________________________________________________________
batch_normalization_250 (Bat (None, 8, 8, 16)          64        
_________________________________________________________________
activation_519 (Activation)  (None, 8, 8, 16)          0         
_________________________________________________________________
dropout_519 (Dropout)        (None, 8, 8, 16)          0         
_________________________________________________________________
flatten_72 (Flatten)         (None, 1024)              0         
_________________________________________________________________
dense_199 (Dense)            (None, 128)               131200    
_________________________________________________________________
activation_520 (Activation)  (None, 128)               0         
_________________________________________________________________
dropout_520 (Dropout)        (None, 128)               0         
_________________________________________________________________
dense_200 (Dense)            (None, 64)                8256      
_________________________________________________________________
batch_normalization_251 (Bat (None, 64)                256       
_________________________________________________________________
activation_521 (Activation)  (None, 64)                0         
_________________________________________________________________
dropout_521 (Dropout)        (None, 64)                0         
_________________________________________________________________
dense_201 (Dense)            (None, 512)               33280     
_________________________________________________________________
activation_522 (Activation)  (None, 512)               0         
_________________________________________________________________
dropout_522 (Dropout)        (None, 512)               0         
_________________________________________________________________
dense_202 (Dense)            (None, 10)                5130      
=================================================================
Total params: 1,903,674
Trainable params: 1,901,914
Non-trainable params: 1,760
_________________________________________________________________
