Model: "sequential_333"
_________________________________________________________________
Layer (type)                 Output Shape              Param #   
=================================================================
conv2d_2038 (Conv2D)         (None, 32, 32, 16)        448       
_________________________________________________________________
activation_2459 (Activation) (None, 32, 32, 16)        0         
_________________________________________________________________
dropout_2459 (Dropout)       (None, 32, 32, 16)        0         
_________________________________________________________________
conv2d_2039 (Conv2D)         (None, 32, 32, 512)       74240     
_________________________________________________________________
batch_normalization_1004 (Ba (None, 32, 32, 512)       2048      
_________________________________________________________________
activation_2460 (Activation) (None, 32, 32, 512)       0         
_________________________________________________________________
dropout_2460 (Dropout)       (None, 32, 32, 512)       0         
_________________________________________________________________
max_pooling2d_611 (MaxPoolin (None, 16, 16, 512)       0         
_________________________________________________________________
conv2d_2040 (Conv2D)         (None, 16, 16, 128)       589952    
_________________________________________________________________
activation_2461 (Activation) (None, 16, 16, 128)       0         
_________________________________________________________________
dropout_2461 (Dropout)       (None, 16, 16, 128)       0         
_________________________________________________________________
max_pooling2d_612 (MaxPoolin (None, 8, 8, 128)         0         
_________________________________________________________________
conv2d_2041 (Conv2D)         (None, 8, 8, 512)         590336    
_________________________________________________________________
batch_normalization_1005 (Ba (None, 8, 8, 512)         2048      
_________________________________________________________________
activation_2462 (Activation) (None, 8, 8, 512)         0         
_________________________________________________________________
dropout_2462 (Dropout)       (None, 8, 8, 512)         0         
_________________________________________________________________
conv2d_2042 (Conv2D)         (None, 8, 8, 256)         1179904   
_________________________________________________________________
activation_2463 (Activation) (None, 8, 8, 256)         0         
_________________________________________________________________
dropout_2463 (Dropout)       (None, 8, 8, 256)         0         
_________________________________________________________________
conv2d_2043 (Conv2D)         (None, 8, 8, 128)         295040    
_________________________________________________________________
activation_2464 (Activation) (None, 8, 8, 128)         0         
_________________________________________________________________
dropout_2464 (Dropout)       (None, 8, 8, 128)         0         
_________________________________________________________________
conv2d_2044 (Conv2D)         (None, 8, 8, 16)          18448     
_________________________________________________________________
batch_normalization_1006 (Ba (None, 8, 8, 16)          64        
_________________________________________________________________
activation_2465 (Activation) (None, 8, 8, 16)          0         
_________________________________________________________________
dropout_2465 (Dropout)       (None, 8, 8, 16)          0         
_________________________________________________________________
flatten_333 (Flatten)        (None, 1024)              0         
_________________________________________________________________
dense_754 (Dense)            (None, 128)               131200    
_________________________________________________________________
activation_2466 (Activation) (None, 128)               0         
_________________________________________________________________
dropout_2466 (Dropout)       (None, 128)               0         
_________________________________________________________________
dense_755 (Dense)            (None, 10)                1290      
=================================================================
Total params: 2,885,018
Trainable params: 2,882,938
Non-trainable params: 2,080
_________________________________________________________________
