Model: "sequential_59"
_________________________________________________________________
Layer (type)                 Output Shape              Param #   
=================================================================
conv2d_318 (Conv2D)          (None, 32, 32, 256)       7168      
_________________________________________________________________
batch_normalization_207 (Bat (None, 32, 32, 256)       1024      
_________________________________________________________________
activation_422 (Activation)  (None, 32, 32, 256)       0         
_________________________________________________________________
dropout_422 (Dropout)        (None, 32, 32, 256)       0         
_________________________________________________________________
max_pooling2d_117 (MaxPoolin (None, 16, 16, 256)       0         
_________________________________________________________________
conv2d_319 (Conv2D)          (None, 16, 16, 1024)      2360320   
_________________________________________________________________
batch_normalization_208 (Bat (None, 16, 16, 1024)      4096      
_________________________________________________________________
activation_423 (Activation)  (None, 16, 16, 1024)      0         
_________________________________________________________________
dropout_423 (Dropout)        (None, 16, 16, 1024)      0         
_________________________________________________________________
conv2d_320 (Conv2D)          (None, 16, 16, 32)        294944    
_________________________________________________________________
activation_424 (Activation)  (None, 16, 16, 32)        0         
_________________________________________________________________
dropout_424 (Dropout)        (None, 16, 16, 32)        0         
_________________________________________________________________
max_pooling2d_118 (MaxPoolin (None, 8, 8, 32)          0         
_________________________________________________________________
conv2d_321 (Conv2D)          (None, 8, 8, 32)          9248      
_________________________________________________________________
activation_425 (Activation)  (None, 8, 8, 32)          0         
_________________________________________________________________
dropout_425 (Dropout)        (None, 8, 8, 32)          0         
_________________________________________________________________
conv2d_322 (Conv2D)          (None, 8, 8, 64)          18496     
_________________________________________________________________
batch_normalization_209 (Bat (None, 8, 8, 64)          256       
_________________________________________________________________
activation_426 (Activation)  (None, 8, 8, 64)          0         
_________________________________________________________________
dropout_426 (Dropout)        (None, 8, 8, 64)          0         
_________________________________________________________________
flatten_59 (Flatten)         (None, 4096)              0         
_________________________________________________________________
dense_163 (Dense)            (None, 32)                131104    
_________________________________________________________________
batch_normalization_210 (Bat (None, 32)                128       
_________________________________________________________________
activation_427 (Activation)  (None, 32)                0         
_________________________________________________________________
dropout_427 (Dropout)        (None, 32)                0         
_________________________________________________________________
dense_164 (Dense)            (None, 64)                2112      
_________________________________________________________________
batch_normalization_211 (Bat (None, 64)                256       
_________________________________________________________________
activation_428 (Activation)  (None, 64)                0         
_________________________________________________________________
dropout_428 (Dropout)        (None, 64)                0         
_________________________________________________________________
dense_165 (Dense)            (None, 512)               33280     
_________________________________________________________________
activation_429 (Activation)  (None, 512)               0         
_________________________________________________________________
dropout_429 (Dropout)        (None, 512)               0         
_________________________________________________________________
dense_166 (Dense)            (None, 10)                5130      
=================================================================
Total params: 2,867,562
Trainable params: 2,864,682
Non-trainable params: 2,880
_________________________________________________________________
