Model: "sequential_19"
_________________________________________________________________
Layer (type)                 Output Shape              Param #   
=================================================================
conv2d_105 (Conv2D)          (None, 32, 32, 32)        896       
_________________________________________________________________
activation_136 (Activation)  (None, 32, 32, 32)        0         
_________________________________________________________________
dropout_136 (Dropout)        (None, 32, 32, 32)        0         
_________________________________________________________________
max_pooling2d_37 (MaxPooling (None, 16, 16, 32)        0         
_________________________________________________________________
conv2d_106 (Conv2D)          (None, 16, 16, 256)       73984     
_________________________________________________________________
activation_137 (Activation)  (None, 16, 16, 256)       0         
_________________________________________________________________
dropout_137 (Dropout)        (None, 16, 16, 256)       0         
_________________________________________________________________
max_pooling2d_38 (MaxPooling (None, 8, 8, 256)         0         
_________________________________________________________________
conv2d_107 (Conv2D)          (None, 8, 8, 128)         295040    
_________________________________________________________________
activation_138 (Activation)  (None, 8, 8, 128)         0         
_________________________________________________________________
dropout_138 (Dropout)        (None, 8, 8, 128)         0         
_________________________________________________________________
max_pooling2d_39 (MaxPooling (None, 4, 4, 128)         0         
_________________________________________________________________
conv2d_108 (Conv2D)          (None, 4, 4, 1024)        1180672   
_________________________________________________________________
batch_normalization_73 (Batc (None, 4, 4, 1024)        4096      
_________________________________________________________________
activation_139 (Activation)  (None, 4, 4, 1024)        0         
_________________________________________________________________
dropout_139 (Dropout)        (None, 4, 4, 1024)        0         
_________________________________________________________________
conv2d_109 (Conv2D)          (None, 4, 4, 32)          294944    
_________________________________________________________________
activation_140 (Activation)  (None, 4, 4, 32)          0         
_________________________________________________________________
dropout_140 (Dropout)        (None, 4, 4, 32)          0         
_________________________________________________________________
conv2d_110 (Conv2D)          (None, 4, 4, 512)         147968    
_________________________________________________________________
activation_141 (Activation)  (None, 4, 4, 512)         0         
_________________________________________________________________
dropout_141 (Dropout)        (None, 4, 4, 512)         0         
_________________________________________________________________
flatten_19 (Flatten)         (None, 8192)              0         
_________________________________________________________________
dense_50 (Dense)             (None, 32)                262176    
_________________________________________________________________
activation_142 (Activation)  (None, 32)                0         
_________________________________________________________________
dropout_142 (Dropout)        (None, 32)                0         
_________________________________________________________________
dense_51 (Dense)             (None, 128)               4224      
_________________________________________________________________
batch_normalization_74 (Batc (None, 128)               512       
_________________________________________________________________
activation_143 (Activation)  (None, 128)               0         
_________________________________________________________________
dropout_143 (Dropout)        (None, 128)               0         
_________________________________________________________________
dense_52 (Dense)             (None, 10)                1290      
=================================================================
Total params: 2,265,802
Trainable params: 2,263,498
Non-trainable params: 2,304
_________________________________________________________________
