Model: "sequential_128"
_________________________________________________________________
Layer (type)                 Output Shape              Param #   
=================================================================
conv2d_691 (Conv2D)          (None, 32, 32, 256)       7168      
_________________________________________________________________
batch_normalization_383 (Bat (None, 32, 32, 256)       1024      
_________________________________________________________________
activation_907 (Activation)  (None, 32, 32, 256)       0         
_________________________________________________________________
dropout_907 (Dropout)        (None, 32, 32, 256)       0         
_________________________________________________________________
max_pooling2d_250 (MaxPoolin (None, 16, 16, 256)       0         
_________________________________________________________________
conv2d_692 (Conv2D)          (None, 16, 16, 128)       295040    
_________________________________________________________________
activation_908 (Activation)  (None, 16, 16, 128)       0         
_________________________________________________________________
dropout_908 (Dropout)        (None, 16, 16, 128)       0         
_________________________________________________________________
max_pooling2d_251 (MaxPoolin (None, 8, 8, 128)         0         
_________________________________________________________________
conv2d_693 (Conv2D)          (None, 8, 8, 32)          36896     
_________________________________________________________________
activation_909 (Activation)  (None, 8, 8, 32)          0         
_________________________________________________________________
dropout_909 (Dropout)        (None, 8, 8, 32)          0         
_________________________________________________________________
conv2d_694 (Conv2D)          (None, 8, 8, 32)          9248      
_________________________________________________________________
activation_910 (Activation)  (None, 8, 8, 32)          0         
_________________________________________________________________
dropout_910 (Dropout)        (None, 8, 8, 32)          0         
_________________________________________________________________
conv2d_695 (Conv2D)          (None, 8, 8, 128)         36992     
_________________________________________________________________
activation_911 (Activation)  (None, 8, 8, 128)         0         
_________________________________________________________________
dropout_911 (Dropout)        (None, 8, 8, 128)         0         
_________________________________________________________________
conv2d_696 (Conv2D)          (None, 8, 8, 16)          18448     
_________________________________________________________________
batch_normalization_384 (Bat (None, 8, 8, 16)          64        
_________________________________________________________________
activation_912 (Activation)  (None, 8, 8, 16)          0         
_________________________________________________________________
dropout_912 (Dropout)        (None, 8, 8, 16)          0         
_________________________________________________________________
flatten_128 (Flatten)        (None, 1024)              0         
_________________________________________________________________
dense_344 (Dense)            (None, 128)               131200    
_________________________________________________________________
activation_913 (Activation)  (None, 128)               0         
_________________________________________________________________
dropout_913 (Dropout)        (None, 128)               0         
_________________________________________________________________
dense_345 (Dense)            (None, 10)                1290      
=================================================================
Total params: 537,370
Trainable params: 536,826
Non-trainable params: 544
_________________________________________________________________
