Model: "sequential_107"
_________________________________________________________________
Layer (type)                 Output Shape              Param #   
=================================================================
conv2d_575 (Conv2D)          (None, 32, 32, 32)        896       
_________________________________________________________________
batch_normalization_342 (Bat (None, 32, 32, 32)        128       
_________________________________________________________________
activation_758 (Activation)  (None, 32, 32, 32)        0         
_________________________________________________________________
dropout_758 (Dropout)        (None, 32, 32, 32)        0         
_________________________________________________________________
max_pooling2d_206 (MaxPoolin (None, 16, 16, 32)        0         
_________________________________________________________________
conv2d_576 (Conv2D)          (None, 16, 16, 512)       147968    
_________________________________________________________________
batch_normalization_343 (Bat (None, 16, 16, 512)       2048      
_________________________________________________________________
activation_759 (Activation)  (None, 16, 16, 512)       0         
_________________________________________________________________
dropout_759 (Dropout)        (None, 16, 16, 512)       0         
_________________________________________________________________
conv2d_577 (Conv2D)          (None, 16, 16, 16)        73744     
_________________________________________________________________
activation_760 (Activation)  (None, 16, 16, 16)        0         
_________________________________________________________________
dropout_760 (Dropout)        (None, 16, 16, 16)        0         
_________________________________________________________________
conv2d_578 (Conv2D)          (None, 16, 16, 512)       74240     
_________________________________________________________________
batch_normalization_344 (Bat (None, 16, 16, 512)       2048      
_________________________________________________________________
activation_761 (Activation)  (None, 16, 16, 512)       0         
_________________________________________________________________
dropout_761 (Dropout)        (None, 16, 16, 512)       0         
_________________________________________________________________
conv2d_579 (Conv2D)          (None, 16, 16, 256)       1179904   
_________________________________________________________________
activation_762 (Activation)  (None, 16, 16, 256)       0         
_________________________________________________________________
dropout_762 (Dropout)        (None, 16, 16, 256)       0         
_________________________________________________________________
conv2d_580 (Conv2D)          (None, 16, 16, 32)        73760     
_________________________________________________________________
activation_763 (Activation)  (None, 16, 16, 32)        0         
_________________________________________________________________
dropout_763 (Dropout)        (None, 16, 16, 32)        0         
_________________________________________________________________
conv2d_581 (Conv2D)          (None, 16, 16, 128)       36992     
_________________________________________________________________
activation_764 (Activation)  (None, 16, 16, 128)       0         
_________________________________________________________________
dropout_764 (Dropout)        (None, 16, 16, 128)       0         
_________________________________________________________________
conv2d_582 (Conv2D)          (None, 16, 16, 16)        18448     
_________________________________________________________________
batch_normalization_345 (Bat (None, 16, 16, 16)        64        
_________________________________________________________________
activation_765 (Activation)  (None, 16, 16, 16)        0         
_________________________________________________________________
dropout_765 (Dropout)        (None, 16, 16, 16)        0         
_________________________________________________________________
flatten_107 (Flatten)        (None, 4096)              0         
_________________________________________________________________
dense_290 (Dense)            (None, 128)               524416    
_________________________________________________________________
activation_766 (Activation)  (None, 128)               0         
_________________________________________________________________
dropout_766 (Dropout)        (None, 128)               0         
_________________________________________________________________
dense_291 (Dense)            (None, 10)                1290      
=================================================================
Total params: 2,135,946
Trainable params: 2,133,802
Non-trainable params: 2,144
_________________________________________________________________
