Model: "sequential_215"
_________________________________________________________________
Layer (type)                 Output Shape              Param #   
=================================================================
conv2d_1247 (Conv2D)         (None, 32, 32, 16)        448       
_________________________________________________________________
activation_1564 (Activation) (None, 32, 32, 16)        0         
_________________________________________________________________
dropout_1564 (Dropout)       (None, 32, 32, 16)        0         
_________________________________________________________________
conv2d_1248 (Conv2D)         (None, 32, 32, 128)       18560     
_________________________________________________________________
batch_normalization_625 (Bat (None, 32, 32, 128)       512       
_________________________________________________________________
activation_1565 (Activation) (None, 32, 32, 128)       0         
_________________________________________________________________
dropout_1565 (Dropout)       (None, 32, 32, 128)       0         
_________________________________________________________________
max_pooling2d_400 (MaxPoolin (None, 16, 16, 128)       0         
_________________________________________________________________
conv2d_1249 (Conv2D)         (None, 16, 16, 128)       147584    
_________________________________________________________________
activation_1566 (Activation) (None, 16, 16, 128)       0         
_________________________________________________________________
dropout_1566 (Dropout)       (None, 16, 16, 128)       0         
_________________________________________________________________
max_pooling2d_401 (MaxPoolin (None, 8, 8, 128)         0         
_________________________________________________________________
conv2d_1250 (Conv2D)         (None, 8, 8, 32)          36896     
_________________________________________________________________
activation_1567 (Activation) (None, 8, 8, 32)          0         
_________________________________________________________________
dropout_1567 (Dropout)       (None, 8, 8, 32)          0         
_________________________________________________________________
conv2d_1251 (Conv2D)         (None, 8, 8, 256)         73984     
_________________________________________________________________
activation_1568 (Activation) (None, 8, 8, 256)         0         
_________________________________________________________________
dropout_1568 (Dropout)       (None, 8, 8, 256)         0         
_________________________________________________________________
conv2d_1252 (Conv2D)         (None, 8, 8, 128)         295040    
_________________________________________________________________
activation_1569 (Activation) (None, 8, 8, 128)         0         
_________________________________________________________________
dropout_1569 (Dropout)       (None, 8, 8, 128)         0         
_________________________________________________________________
conv2d_1253 (Conv2D)         (None, 8, 8, 16)          18448     
_________________________________________________________________
batch_normalization_626 (Bat (None, 8, 8, 16)          64        
_________________________________________________________________
activation_1570 (Activation) (None, 8, 8, 16)          0         
_________________________________________________________________
dropout_1570 (Dropout)       (None, 8, 8, 16)          0         
_________________________________________________________________
flatten_215 (Flatten)        (None, 1024)              0         
_________________________________________________________________
dense_532 (Dense)            (None, 128)               131200    
_________________________________________________________________
activation_1571 (Activation) (None, 128)               0         
_________________________________________________________________
dropout_1571 (Dropout)       (None, 128)               0         
_________________________________________________________________
dense_533 (Dense)            (None, 10)                1290      
=================================================================
Total params: 724,026
Trainable params: 723,738
Non-trainable params: 288
_________________________________________________________________
