Model: "sequential_241"
_________________________________________________________________
Layer (type)                 Output Shape              Param #   
=================================================================
conv2d_1424 (Conv2D)         (None, 32, 32, 16)        448       
_________________________________________________________________
activation_1765 (Activation) (None, 32, 32, 16)        0         
_________________________________________________________________
dropout_1765 (Dropout)       (None, 32, 32, 16)        0         
_________________________________________________________________
conv2d_1425 (Conv2D)         (None, 32, 32, 128)       18560     
_________________________________________________________________
batch_normalization_704 (Bat (None, 32, 32, 128)       512       
_________________________________________________________________
activation_1766 (Activation) (None, 32, 32, 128)       0         
_________________________________________________________________
dropout_1766 (Dropout)       (None, 32, 32, 128)       0         
_________________________________________________________________
max_pooling2d_450 (MaxPoolin (None, 16, 16, 128)       0         
_________________________________________________________________
conv2d_1426 (Conv2D)         (None, 16, 16, 128)       147584    
_________________________________________________________________
activation_1767 (Activation) (None, 16, 16, 128)       0         
_________________________________________________________________
dropout_1767 (Dropout)       (None, 16, 16, 128)       0         
_________________________________________________________________
max_pooling2d_451 (MaxPoolin (None, 8, 8, 128)         0         
_________________________________________________________________
conv2d_1427 (Conv2D)         (None, 8, 8, 512)         590336    
_________________________________________________________________
batch_normalization_705 (Bat (None, 8, 8, 512)         2048      
_________________________________________________________________
activation_1768 (Activation) (None, 8, 8, 512)         0         
_________________________________________________________________
dropout_1768 (Dropout)       (None, 8, 8, 512)         0         
_________________________________________________________________
conv2d_1428 (Conv2D)         (None, 8, 8, 256)         1179904   
_________________________________________________________________
activation_1769 (Activation) (None, 8, 8, 256)         0         
_________________________________________________________________
dropout_1769 (Dropout)       (None, 8, 8, 256)         0         
_________________________________________________________________
conv2d_1429 (Conv2D)         (None, 8, 8, 128)         295040    
_________________________________________________________________
activation_1770 (Activation) (None, 8, 8, 128)         0         
_________________________________________________________________
dropout_1770 (Dropout)       (None, 8, 8, 128)         0         
_________________________________________________________________
conv2d_1430 (Conv2D)         (None, 8, 8, 16)          18448     
_________________________________________________________________
batch_normalization_706 (Bat (None, 8, 8, 16)          64        
_________________________________________________________________
activation_1771 (Activation) (None, 8, 8, 16)          0         
_________________________________________________________________
dropout_1771 (Dropout)       (None, 8, 8, 16)          0         
_________________________________________________________________
flatten_241 (Flatten)        (None, 1024)              0         
_________________________________________________________________
dense_582 (Dense)            (None, 128)               131200    
_________________________________________________________________
activation_1772 (Activation) (None, 128)               0         
_________________________________________________________________
dropout_1772 (Dropout)       (None, 128)               0         
_________________________________________________________________
dense_583 (Dense)            (None, 10)                1290      
=================================================================
Total params: 2,385,434
Trainable params: 2,384,122
Non-trainable params: 1,312
_________________________________________________________________
