Model: "sequential_40"
_________________________________________________________________
Layer (type)                 Output Shape              Param #   
=================================================================
conv2d_218 (Conv2D)          (None, 32, 32, 32)        896       
_________________________________________________________________
batch_normalization_147 (Bat (None, 32, 32, 32)        128       
_________________________________________________________________
activation_288 (Activation)  (None, 32, 32, 32)        0         
_________________________________________________________________
dropout_288 (Dropout)        (None, 32, 32, 32)        0         
_________________________________________________________________
max_pooling2d_81 (MaxPooling (None, 16, 16, 32)        0         
_________________________________________________________________
conv2d_219 (Conv2D)          (None, 16, 16, 512)       147968    
_________________________________________________________________
batch_normalization_148 (Bat (None, 16, 16, 512)       2048      
_________________________________________________________________
activation_289 (Activation)  (None, 16, 16, 512)       0         
_________________________________________________________________
dropout_289 (Dropout)        (None, 16, 16, 512)       0         
_________________________________________________________________
conv2d_220 (Conv2D)          (None, 16, 16, 16)        73744     
_________________________________________________________________
activation_290 (Activation)  (None, 16, 16, 16)        0         
_________________________________________________________________
dropout_290 (Dropout)        (None, 16, 16, 16)        0         
_________________________________________________________________
conv2d_221 (Conv2D)          (None, 16, 16, 512)       74240     
_________________________________________________________________
batch_normalization_149 (Bat (None, 16, 16, 512)       2048      
_________________________________________________________________
activation_291 (Activation)  (None, 16, 16, 512)       0         
_________________________________________________________________
dropout_291 (Dropout)        (None, 16, 16, 512)       0         
_________________________________________________________________
conv2d_222 (Conv2D)          (None, 16, 16, 256)       1179904   
_________________________________________________________________
activation_292 (Activation)  (None, 16, 16, 256)       0         
_________________________________________________________________
dropout_292 (Dropout)        (None, 16, 16, 256)       0         
_________________________________________________________________
conv2d_223 (Conv2D)          (None, 16, 16, 128)       295040    
_________________________________________________________________
activation_293 (Activation)  (None, 16, 16, 128)       0         
_________________________________________________________________
dropout_293 (Dropout)        (None, 16, 16, 128)       0         
_________________________________________________________________
conv2d_224 (Conv2D)          (None, 16, 16, 16)        18448     
_________________________________________________________________
batch_normalization_150 (Bat (None, 16, 16, 16)        64        
_________________________________________________________________
activation_294 (Activation)  (None, 16, 16, 16)        0         
_________________________________________________________________
dropout_294 (Dropout)        (None, 16, 16, 16)        0         
_________________________________________________________________
flatten_40 (Flatten)         (None, 4096)              0         
_________________________________________________________________
dense_110 (Dense)            (None, 128)               524416    
_________________________________________________________________
activation_295 (Activation)  (None, 128)               0         
_________________________________________________________________
dropout_295 (Dropout)        (None, 128)               0         
_________________________________________________________________
dense_111 (Dense)            (None, 10)                1290      
=================================================================
Total params: 2,320,234
Trainable params: 2,318,090
Non-trainable params: 2,144
_________________________________________________________________
