Model: "sequential_137"
_________________________________________________________________
Layer (type)                 Output Shape              Param #   
=================================================================
conv2d_740 (Conv2D)          (None, 32, 32, 256)       7168      
_________________________________________________________________
batch_normalization_402 (Bat (None, 32, 32, 256)       1024      
_________________________________________________________________
activation_967 (Activation)  (None, 32, 32, 256)       0         
_________________________________________________________________
dropout_967 (Dropout)        (None, 32, 32, 256)       0         
_________________________________________________________________
max_pooling2d_263 (MaxPoolin (None, 16, 16, 256)       0         
_________________________________________________________________
conv2d_741 (Conv2D)          (None, 16, 16, 64)        147520    
_________________________________________________________________
batch_normalization_403 (Bat (None, 16, 16, 64)        256       
_________________________________________________________________
activation_968 (Activation)  (None, 16, 16, 64)        0         
_________________________________________________________________
dropout_968 (Dropout)        (None, 16, 16, 64)        0         
_________________________________________________________________
conv2d_742 (Conv2D)          (None, 16, 16, 32)        18464     
_________________________________________________________________
activation_969 (Activation)  (None, 16, 16, 32)        0         
_________________________________________________________________
dropout_969 (Dropout)        (None, 16, 16, 32)        0         
_________________________________________________________________
max_pooling2d_264 (MaxPoolin (None, 8, 8, 32)          0         
_________________________________________________________________
conv2d_743 (Conv2D)          (None, 8, 8, 512)         147968    
_________________________________________________________________
activation_970 (Activation)  (None, 8, 8, 512)         0         
_________________________________________________________________
dropout_970 (Dropout)        (None, 8, 8, 512)         0         
_________________________________________________________________
max_pooling2d_265 (MaxPoolin (None, 4, 4, 512)         0         
_________________________________________________________________
flatten_137 (Flatten)        (None, 8192)              0         
_________________________________________________________________
dense_364 (Dense)            (None, 16)                131088    
_________________________________________________________________
batch_normalization_404 (Bat (None, 16)                64        
_________________________________________________________________
activation_971 (Activation)  (None, 16)                0         
_________________________________________________________________
dropout_971 (Dropout)        (None, 16)                0         
_________________________________________________________________
dense_365 (Dense)            (None, 32)                544       
_________________________________________________________________
activation_972 (Activation)  (None, 32)                0         
_________________________________________________________________
dropout_972 (Dropout)        (None, 32)                0         
_________________________________________________________________
dense_366 (Dense)            (None, 10)                330       
=================================================================
Total params: 454,426
Trainable params: 453,754
Non-trainable params: 672
_________________________________________________________________
