Model: "sequential_93"
_________________________________________________________________
Layer (type)                 Output Shape              Param #   
=================================================================
conv2d_501 (Conv2D)          (None, 32, 32, 256)       7168      
_________________________________________________________________
batch_normalization_308 (Bat (None, 32, 32, 256)       1024      
_________________________________________________________________
activation_663 (Activation)  (None, 32, 32, 256)       0         
_________________________________________________________________
dropout_663 (Dropout)        (None, 32, 32, 256)       0         
_________________________________________________________________
max_pooling2d_183 (MaxPoolin (None, 16, 16, 256)       0         
_________________________________________________________________
conv2d_502 (Conv2D)          (None, 16, 16, 128)       295040    
_________________________________________________________________
activation_664 (Activation)  (None, 16, 16, 128)       0         
_________________________________________________________________
dropout_664 (Dropout)        (None, 16, 16, 128)       0         
_________________________________________________________________
max_pooling2d_184 (MaxPoolin (None, 8, 8, 128)         0         
_________________________________________________________________
conv2d_503 (Conv2D)          (None, 8, 8, 32)          36896     
_________________________________________________________________
activation_665 (Activation)  (None, 8, 8, 32)          0         
_________________________________________________________________
dropout_665 (Dropout)        (None, 8, 8, 32)          0         
_________________________________________________________________
conv2d_504 (Conv2D)          (None, 8, 8, 32)          9248      
_________________________________________________________________
activation_666 (Activation)  (None, 8, 8, 32)          0         
_________________________________________________________________
dropout_666 (Dropout)        (None, 8, 8, 32)          0         
_________________________________________________________________
max_pooling2d_185 (MaxPoolin (None, 4, 4, 32)          0         
_________________________________________________________________
conv2d_505 (Conv2D)          (None, 4, 4, 512)         147968    
_________________________________________________________________
activation_667 (Activation)  (None, 4, 4, 512)         0         
_________________________________________________________________
dropout_667 (Dropout)        (None, 4, 4, 512)         0         
_________________________________________________________________
flatten_93 (Flatten)         (None, 8192)              0         
_________________________________________________________________
dense_255 (Dense)            (None, 16)                131088    
_________________________________________________________________
activation_668 (Activation)  (None, 16)                0         
_________________________________________________________________
dropout_668 (Dropout)        (None, 16)                0         
_________________________________________________________________
dense_256 (Dense)            (None, 32)                544       
_________________________________________________________________
activation_669 (Activation)  (None, 32)                0         
_________________________________________________________________
dropout_669 (Dropout)        (None, 32)                0         
_________________________________________________________________
dense_257 (Dense)            (None, 10)                330       
=================================================================
Total params: 629,306
Trainable params: 628,794
Non-trainable params: 512
_________________________________________________________________
