Model: "sequential_320"
_________________________________________________________________
Layer (type)                 Output Shape              Param #   
=================================================================
conv2d_1955 (Conv2D)         (None, 32, 32, 16)        448       
_________________________________________________________________
batch_normalization_969 (Bat (None, 32, 32, 16)        64        
_________________________________________________________________
activation_2365 (Activation) (None, 32, 32, 16)        0         
_________________________________________________________________
dropout_2365 (Dropout)       (None, 32, 32, 16)        0         
_________________________________________________________________
conv2d_1956 (Conv2D)         (None, 32, 32, 128)       18560     
_________________________________________________________________
activation_2366 (Activation) (None, 32, 32, 128)       0         
_________________________________________________________________
dropout_2366 (Dropout)       (None, 32, 32, 128)       0         
_________________________________________________________________
max_pooling2d_592 (MaxPoolin (None, 16, 16, 128)       0         
_________________________________________________________________
conv2d_1957 (Conv2D)         (None, 16, 16, 32)        36896     
_________________________________________________________________
activation_2367 (Activation) (None, 16, 16, 32)        0         
_________________________________________________________________
dropout_2367 (Dropout)       (None, 16, 16, 32)        0         
_________________________________________________________________
conv2d_1958 (Conv2D)         (None, 16, 16, 256)       73984     
_________________________________________________________________
activation_2368 (Activation) (None, 16, 16, 256)       0         
_________________________________________________________________
dropout_2368 (Dropout)       (None, 16, 16, 256)       0         
_________________________________________________________________
conv2d_1959 (Conv2D)         (None, 16, 16, 128)       295040    
_________________________________________________________________
activation_2369 (Activation) (None, 16, 16, 128)       0         
_________________________________________________________________
dropout_2369 (Dropout)       (None, 16, 16, 128)       0         
_________________________________________________________________
conv2d_1960 (Conv2D)         (None, 16, 16, 16)        18448     
_________________________________________________________________
batch_normalization_970 (Bat (None, 16, 16, 16)        64        
_________________________________________________________________
activation_2370 (Activation) (None, 16, 16, 16)        0         
_________________________________________________________________
dropout_2370 (Dropout)       (None, 16, 16, 16)        0         
_________________________________________________________________
flatten_320 (Flatten)        (None, 4096)              0         
_________________________________________________________________
dense_730 (Dense)            (None, 10)                40970     
=================================================================
Total params: 484,474
Trainable params: 484,410
Non-trainable params: 64
_________________________________________________________________
