Model: "sequential_194"
_________________________________________________________________
Layer (type)                 Output Shape              Param #   
=================================================================
conv2d_1102 (Conv2D)         (None, 32, 32, 256)       7168      
_________________________________________________________________
batch_normalization_558 (Bat (None, 32, 32, 256)       1024      
_________________________________________________________________
activation_1398 (Activation) (None, 32, 32, 256)       0         
_________________________________________________________________
dropout_1398 (Dropout)       (None, 32, 32, 256)       0         
_________________________________________________________________
conv2d_1103 (Conv2D)         (None, 32, 32, 512)       1180160   
_________________________________________________________________
batch_normalization_559 (Bat (None, 32, 32, 512)       2048      
_________________________________________________________________
activation_1399 (Activation) (None, 32, 32, 512)       0         
_________________________________________________________________
dropout_1399 (Dropout)       (None, 32, 32, 512)       0         
_________________________________________________________________
max_pooling2d_361 (MaxPoolin (None, 16, 16, 512)       0         
_________________________________________________________________
conv2d_1104 (Conv2D)         (None, 16, 16, 128)       589952    
_________________________________________________________________
activation_1400 (Activation) (None, 16, 16, 128)       0         
_________________________________________________________________
dropout_1400 (Dropout)       (None, 16, 16, 128)       0         
_________________________________________________________________
max_pooling2d_362 (MaxPoolin (None, 8, 8, 128)         0         
_________________________________________________________________
conv2d_1105 (Conv2D)         (None, 8, 8, 512)         590336    
_________________________________________________________________
batch_normalization_560 (Bat (None, 8, 8, 512)         2048      
_________________________________________________________________
activation_1401 (Activation) (None, 8, 8, 512)         0         
_________________________________________________________________
dropout_1401 (Dropout)       (None, 8, 8, 512)         0         
_________________________________________________________________
conv2d_1106 (Conv2D)         (None, 8, 8, 256)         1179904   
_________________________________________________________________
activation_1402 (Activation) (None, 8, 8, 256)         0         
_________________________________________________________________
dropout_1402 (Dropout)       (None, 8, 8, 256)         0         
_________________________________________________________________
conv2d_1107 (Conv2D)         (None, 8, 8, 128)         295040    
_________________________________________________________________
activation_1403 (Activation) (None, 8, 8, 128)         0         
_________________________________________________________________
dropout_1403 (Dropout)       (None, 8, 8, 128)         0         
_________________________________________________________________
max_pooling2d_363 (MaxPoolin (None, 4, 4, 128)         0         
_________________________________________________________________
conv2d_1108 (Conv2D)         (None, 4, 4, 512)         590336    
_________________________________________________________________
activation_1404 (Activation) (None, 4, 4, 512)         0         
_________________________________________________________________
dropout_1404 (Dropout)       (None, 4, 4, 512)         0         
_________________________________________________________________
flatten_194 (Flatten)        (None, 8192)              0         
_________________________________________________________________
dense_490 (Dense)            (None, 16)                131088    
_________________________________________________________________
activation_1405 (Activation) (None, 16)                0         
_________________________________________________________________
dropout_1405 (Dropout)       (None, 16)                0         
_________________________________________________________________
dense_491 (Dense)            (None, 32)                544       
_________________________________________________________________
activation_1406 (Activation) (None, 32)                0         
_________________________________________________________________
dropout_1406 (Dropout)       (None, 32)                0         
_________________________________________________________________
dense_492 (Dense)            (None, 10)                330       
=================================================================
Total params: 4,569,978
Trainable params: 4,567,418
Non-trainable params: 2,560
_________________________________________________________________
