Model: "sequential_235"
_________________________________________________________________
Layer (type)                 Output Shape              Param #   
=================================================================
conv2d_1382 (Conv2D)         (None, 32, 32, 16)        448       
_________________________________________________________________
activation_1717 (Activation) (None, 32, 32, 16)        0         
_________________________________________________________________
dropout_1717 (Dropout)       (None, 32, 32, 16)        0         
_________________________________________________________________
conv2d_1383 (Conv2D)         (None, 32, 32, 512)       74240     
_________________________________________________________________
batch_normalization_684 (Bat (None, 32, 32, 512)       2048      
_________________________________________________________________
activation_1718 (Activation) (None, 32, 32, 512)       0         
_________________________________________________________________
dropout_1718 (Dropout)       (None, 32, 32, 512)       0         
_________________________________________________________________
max_pooling2d_438 (MaxPoolin (None, 16, 16, 512)       0         
_________________________________________________________________
conv2d_1384 (Conv2D)         (None, 16, 16, 128)       589952    
_________________________________________________________________
batch_normalization_685 (Bat (None, 16, 16, 128)       512       
_________________________________________________________________
activation_1719 (Activation) (None, 16, 16, 128)       0         
_________________________________________________________________
dropout_1719 (Dropout)       (None, 16, 16, 128)       0         
_________________________________________________________________
max_pooling2d_439 (MaxPoolin (None, 8, 8, 128)         0         
_________________________________________________________________
conv2d_1385 (Conv2D)         (None, 8, 8, 512)         590336    
_________________________________________________________________
batch_normalization_686 (Bat (None, 8, 8, 512)         2048      
_________________________________________________________________
activation_1720 (Activation) (None, 8, 8, 512)         0         
_________________________________________________________________
dropout_1720 (Dropout)       (None, 8, 8, 512)         0         
_________________________________________________________________
conv2d_1386 (Conv2D)         (None, 8, 8, 32)          147488    
_________________________________________________________________
activation_1721 (Activation) (None, 8, 8, 32)          0         
_________________________________________________________________
dropout_1721 (Dropout)       (None, 8, 8, 32)          0         
_________________________________________________________________
conv2d_1387 (Conv2D)         (None, 8, 8, 128)         36992     
_________________________________________________________________
activation_1722 (Activation) (None, 8, 8, 128)         0         
_________________________________________________________________
dropout_1722 (Dropout)       (None, 8, 8, 128)         0         
_________________________________________________________________
conv2d_1388 (Conv2D)         (None, 8, 8, 16)          18448     
_________________________________________________________________
batch_normalization_687 (Bat (None, 8, 8, 16)          64        
_________________________________________________________________
activation_1723 (Activation) (None, 8, 8, 16)          0         
_________________________________________________________________
dropout_1723 (Dropout)       (None, 8, 8, 16)          0         
_________________________________________________________________
flatten_235 (Flatten)        (None, 1024)              0         
_________________________________________________________________
dense_570 (Dense)            (None, 128)               131200    
_________________________________________________________________
activation_1724 (Activation) (None, 128)               0         
_________________________________________________________________
dropout_1724 (Dropout)       (None, 128)               0         
_________________________________________________________________
dense_571 (Dense)            (None, 10)                1290      
=================================================================
Total params: 1,595,066
Trainable params: 1,592,730
Non-trainable params: 2,336
_________________________________________________________________
