Model: "sequential_42"
_________________________________________________________________
Layer (type)                 Output Shape              Param #   
=================================================================
conv2d_229 (Conv2D)          (None, 32, 32, 16)        448       
_________________________________________________________________
activation_302 (Activation)  (None, 32, 32, 16)        0         
_________________________________________________________________
dropout_302 (Dropout)        (None, 32, 32, 16)        0         
_________________________________________________________________
conv2d_230 (Conv2D)          (None, 32, 32, 128)       18560     
_________________________________________________________________
batch_normalization_154 (Bat (None, 32, 32, 128)       512       
_________________________________________________________________
activation_303 (Activation)  (None, 32, 32, 128)       0         
_________________________________________________________________
dropout_303 (Dropout)        (None, 32, 32, 128)       0         
_________________________________________________________________
max_pooling2d_84 (MaxPooling (None, 16, 16, 128)       0         
_________________________________________________________________
conv2d_231 (Conv2D)          (None, 16, 16, 1024)      1180672   
_________________________________________________________________
activation_304 (Activation)  (None, 16, 16, 1024)      0         
_________________________________________________________________
dropout_304 (Dropout)        (None, 16, 16, 1024)      0         
_________________________________________________________________
max_pooling2d_85 (MaxPooling (None, 8, 8, 1024)        0         
_________________________________________________________________
conv2d_232 (Conv2D)          (None, 8, 8, 256)         2359552   
_________________________________________________________________
batch_normalization_155 (Bat (None, 8, 8, 256)         1024      
_________________________________________________________________
activation_305 (Activation)  (None, 8, 8, 256)         0         
_________________________________________________________________
dropout_305 (Dropout)        (None, 8, 8, 256)         0         
_________________________________________________________________
conv2d_233 (Conv2D)          (None, 8, 8, 16)          36880     
_________________________________________________________________
activation_306 (Activation)  (None, 8, 8, 16)          0         
_________________________________________________________________
dropout_306 (Dropout)        (None, 8, 8, 16)          0         
_________________________________________________________________
conv2d_234 (Conv2D)          (None, 8, 8, 512)         74240     
_________________________________________________________________
batch_normalization_156 (Bat (None, 8, 8, 512)         2048      
_________________________________________________________________
activation_307 (Activation)  (None, 8, 8, 512)         0         
_________________________________________________________________
dropout_307 (Dropout)        (None, 8, 8, 512)         0         
_________________________________________________________________
conv2d_235 (Conv2D)          (None, 8, 8, 1024)        4719616   
_________________________________________________________________
activation_308 (Activation)  (None, 8, 8, 1024)        0         
_________________________________________________________________
dropout_308 (Dropout)        (None, 8, 8, 1024)        0         
_________________________________________________________________
flatten_42 (Flatten)         (None, 65536)             0         
_________________________________________________________________
dense_115 (Dense)            (None, 16)                1048592   
_________________________________________________________________
activation_309 (Activation)  (None, 16)                0         
_________________________________________________________________
dropout_309 (Dropout)        (None, 16)                0         
_________________________________________________________________
dense_116 (Dense)            (None, 10)                170       
=================================================================
Total params: 9,442,314
Trainable params: 9,440,522
Non-trainable params: 1,792
_________________________________________________________________
