Model: "sequential_95"
_________________________________________________________________
Layer (type)                 Output Shape              Param #   
=================================================================
conv2d_511 (Conv2D)          (None, 32, 32, 32)        896       
_________________________________________________________________
batch_normalization_312 (Bat (None, 32, 32, 32)        128       
_________________________________________________________________
activation_677 (Activation)  (None, 32, 32, 32)        0         
_________________________________________________________________
dropout_677 (Dropout)        (None, 32, 32, 32)        0         
_________________________________________________________________
max_pooling2d_189 (MaxPoolin (None, 16, 16, 32)        0         
_________________________________________________________________
conv2d_512 (Conv2D)          (None, 16, 16, 512)       147968    
_________________________________________________________________
batch_normalization_313 (Bat (None, 16, 16, 512)       2048      
_________________________________________________________________
activation_678 (Activation)  (None, 16, 16, 512)       0         
_________________________________________________________________
dropout_678 (Dropout)        (None, 16, 16, 512)       0         
_________________________________________________________________
conv2d_513 (Conv2D)          (None, 16, 16, 16)        73744     
_________________________________________________________________
activation_679 (Activation)  (None, 16, 16, 16)        0         
_________________________________________________________________
dropout_679 (Dropout)        (None, 16, 16, 16)        0         
_________________________________________________________________
conv2d_514 (Conv2D)          (None, 16, 16, 128)       18560     
_________________________________________________________________
batch_normalization_314 (Bat (None, 16, 16, 128)       512       
_________________________________________________________________
activation_680 (Activation)  (None, 16, 16, 128)       0         
_________________________________________________________________
dropout_680 (Dropout)        (None, 16, 16, 128)       0         
_________________________________________________________________
max_pooling2d_190 (MaxPoolin (None, 8, 8, 128)         0         
_________________________________________________________________
conv2d_515 (Conv2D)          (None, 8, 8, 512)         590336    
_________________________________________________________________
activation_681 (Activation)  (None, 8, 8, 512)         0         
_________________________________________________________________
dropout_681 (Dropout)        (None, 8, 8, 512)         0         
_________________________________________________________________
max_pooling2d_191 (MaxPoolin (None, 4, 4, 512)         0         
_________________________________________________________________
flatten_95 (Flatten)         (None, 8192)              0         
_________________________________________________________________
dense_261 (Dense)            (None, 16)                131088    
_________________________________________________________________
activation_682 (Activation)  (None, 16)                0         
_________________________________________________________________
dropout_682 (Dropout)        (None, 16)                0         
_________________________________________________________________
dense_262 (Dense)            (None, 32)                544       
_________________________________________________________________
activation_683 (Activation)  (None, 32)                0         
_________________________________________________________________
dropout_683 (Dropout)        (None, 32)                0         
_________________________________________________________________
dense_263 (Dense)            (None, 10)                330       
=================================================================
Total params: 966,154
Trainable params: 964,810
Non-trainable params: 1,344
_________________________________________________________________
