Model: "sequential_145"
_________________________________________________________________
Layer (type)                 Output Shape              Param #   
=================================================================
conv2d_789 (Conv2D)          (None, 32, 32, 256)       7168      
_________________________________________________________________
batch_normalization_423 (Bat (None, 32, 32, 256)       1024      
_________________________________________________________________
activation_1027 (Activation) (None, 32, 32, 256)       0         
_________________________________________________________________
dropout_1027 (Dropout)       (None, 32, 32, 256)       0         
_________________________________________________________________
conv2d_790 (Conv2D)          (None, 32, 32, 512)       1180160   
_________________________________________________________________
batch_normalization_424 (Bat (None, 32, 32, 512)       2048      
_________________________________________________________________
activation_1028 (Activation) (None, 32, 32, 512)       0         
_________________________________________________________________
dropout_1028 (Dropout)       (None, 32, 32, 512)       0         
_________________________________________________________________
max_pooling2d_277 (MaxPoolin (None, 16, 16, 512)       0         
_________________________________________________________________
conv2d_791 (Conv2D)          (None, 16, 16, 128)       589952    
_________________________________________________________________
activation_1029 (Activation) (None, 16, 16, 128)       0         
_________________________________________________________________
dropout_1029 (Dropout)       (None, 16, 16, 128)       0         
_________________________________________________________________
max_pooling2d_278 (MaxPoolin (None, 8, 8, 128)         0         
_________________________________________________________________
conv2d_792 (Conv2D)          (None, 8, 8, 512)         590336    
_________________________________________________________________
batch_normalization_425 (Bat (None, 8, 8, 512)         2048      
_________________________________________________________________
activation_1030 (Activation) (None, 8, 8, 512)         0         
_________________________________________________________________
dropout_1030 (Dropout)       (None, 8, 8, 512)         0         
_________________________________________________________________
conv2d_793 (Conv2D)          (None, 8, 8, 32)          147488    
_________________________________________________________________
activation_1031 (Activation) (None, 8, 8, 32)          0         
_________________________________________________________________
dropout_1031 (Dropout)       (None, 8, 8, 32)          0         
_________________________________________________________________
max_pooling2d_279 (MaxPoolin (None, 4, 4, 32)          0         
_________________________________________________________________
conv2d_794 (Conv2D)          (None, 4, 4, 512)         147968    
_________________________________________________________________
activation_1032 (Activation) (None, 4, 4, 512)         0         
_________________________________________________________________
dropout_1032 (Dropout)       (None, 4, 4, 512)         0         
_________________________________________________________________
flatten_145 (Flatten)        (None, 8192)              0         
_________________________________________________________________
dense_383 (Dense)            (None, 16)                131088    
_________________________________________________________________
activation_1033 (Activation) (None, 16)                0         
_________________________________________________________________
dropout_1033 (Dropout)       (None, 16)                0         
_________________________________________________________________
dense_384 (Dense)            (None, 32)                544       
_________________________________________________________________
activation_1034 (Activation) (None, 32)                0         
_________________________________________________________________
dropout_1034 (Dropout)       (None, 32)                0         
_________________________________________________________________
dense_385 (Dense)            (None, 10)                330       
=================================================================
Total params: 2,800,154
Trainable params: 2,797,594
Non-trainable params: 2,560
_________________________________________________________________
