Model: "sequential_212"
_________________________________________________________________
Layer (type)                 Output Shape              Param #   
=================================================================
conv2d_1226 (Conv2D)         (None, 32, 32, 16)        448       
_________________________________________________________________
activation_1540 (Activation) (None, 32, 32, 16)        0         
_________________________________________________________________
dropout_1540 (Dropout)       (None, 32, 32, 16)        0         
_________________________________________________________________
conv2d_1227 (Conv2D)         (None, 32, 32, 512)       74240     
_________________________________________________________________
batch_normalization_616 (Bat (None, 32, 32, 512)       2048      
_________________________________________________________________
activation_1541 (Activation) (None, 32, 32, 512)       0         
_________________________________________________________________
dropout_1541 (Dropout)       (None, 32, 32, 512)       0         
_________________________________________________________________
max_pooling2d_394 (MaxPoolin (None, 16, 16, 512)       0         
_________________________________________________________________
conv2d_1228 (Conv2D)         (None, 16, 16, 128)       589952    
_________________________________________________________________
batch_normalization_617 (Bat (None, 16, 16, 128)       512       
_________________________________________________________________
activation_1542 (Activation) (None, 16, 16, 128)       0         
_________________________________________________________________
dropout_1542 (Dropout)       (None, 16, 16, 128)       0         
_________________________________________________________________
max_pooling2d_395 (MaxPoolin (None, 8, 8, 128)         0         
_________________________________________________________________
conv2d_1229 (Conv2D)         (None, 8, 8, 512)         590336    
_________________________________________________________________
batch_normalization_618 (Bat (None, 8, 8, 512)         2048      
_________________________________________________________________
activation_1543 (Activation) (None, 8, 8, 512)         0         
_________________________________________________________________
dropout_1543 (Dropout)       (None, 8, 8, 512)         0         
_________________________________________________________________
conv2d_1230 (Conv2D)         (None, 8, 8, 32)          147488    
_________________________________________________________________
activation_1544 (Activation) (None, 8, 8, 32)          0         
_________________________________________________________________
dropout_1544 (Dropout)       (None, 8, 8, 32)          0         
_________________________________________________________________
conv2d_1231 (Conv2D)         (None, 8, 8, 128)         36992     
_________________________________________________________________
activation_1545 (Activation) (None, 8, 8, 128)         0         
_________________________________________________________________
dropout_1545 (Dropout)       (None, 8, 8, 128)         0         
_________________________________________________________________
conv2d_1232 (Conv2D)         (None, 8, 8, 16)          18448     
_________________________________________________________________
batch_normalization_619 (Bat (None, 8, 8, 16)          64        
_________________________________________________________________
activation_1546 (Activation) (None, 8, 8, 16)          0         
_________________________________________________________________
dropout_1546 (Dropout)       (None, 8, 8, 16)          0         
_________________________________________________________________
flatten_212 (Flatten)        (None, 1024)              0         
_________________________________________________________________
dense_526 (Dense)            (None, 128)               131200    
_________________________________________________________________
activation_1547 (Activation) (None, 128)               0         
_________________________________________________________________
dropout_1547 (Dropout)       (None, 128)               0         
_________________________________________________________________
dense_527 (Dense)            (None, 10)                1290      
=================================================================
Total params: 1,595,066
Trainable params: 1,592,730
Non-trainable params: 2,336
_________________________________________________________________
