Model: "sequential_398"
_________________________________________________________________
Layer (type)                 Output Shape              Param #   
=================================================================
conv2d_2440 (Conv2D)         (None, 32, 32, 16)        448       
_________________________________________________________________
batch_normalization_1156 (Ba (None, 32, 32, 16)        64        
_________________________________________________________________
activation_2909 (Activation) (None, 32, 32, 16)        0         
_________________________________________________________________
dropout_2909 (Dropout)       (None, 32, 32, 16)        0         
_________________________________________________________________
conv2d_2441 (Conv2D)         (None, 32, 32, 128)       18560     
_________________________________________________________________
activation_2910 (Activation) (None, 32, 32, 128)       0         
_________________________________________________________________
dropout_2910 (Dropout)       (None, 32, 32, 128)       0         
_________________________________________________________________
max_pooling2d_703 (MaxPoolin (None, 16, 16, 128)       0         
_________________________________________________________________
conv2d_2442 (Conv2D)         (None, 16, 16, 32)        36896     
_________________________________________________________________
activation_2911 (Activation) (None, 16, 16, 32)        0         
_________________________________________________________________
dropout_2911 (Dropout)       (None, 16, 16, 32)        0         
_________________________________________________________________
conv2d_2443 (Conv2D)         (None, 16, 16, 128)       36992     
_________________________________________________________________
activation_2912 (Activation) (None, 16, 16, 128)       0         
_________________________________________________________________
dropout_2912 (Dropout)       (None, 16, 16, 128)       0         
_________________________________________________________________
conv2d_2444 (Conv2D)         (None, 16, 16, 16)        18448     
_________________________________________________________________
batch_normalization_1157 (Ba (None, 16, 16, 16)        64        
_________________________________________________________________
activation_2913 (Activation) (None, 16, 16, 16)        0         
_________________________________________________________________
dropout_2913 (Dropout)       (None, 16, 16, 16)        0         
_________________________________________________________________
flatten_398 (Flatten)        (None, 4096)              0         
_________________________________________________________________
dense_867 (Dense)            (None, 64)                262208    
_________________________________________________________________
batch_normalization_1158 (Ba (None, 64)                256       
_________________________________________________________________
activation_2914 (Activation) (None, 64)                0         
_________________________________________________________________
dropout_2914 (Dropout)       (None, 64)                0         
_________________________________________________________________
dense_868 (Dense)            (None, 10)                650       
=================================================================
Total params: 374,586
Trainable params: 374,394
Non-trainable params: 192
_________________________________________________________________
