Model: "sequential_103"
_________________________________________________________________
Layer (type)                 Output Shape              Param #   
=================================================================
conv2d_556 (Conv2D)          (None, 32, 32, 64)        1792      
_________________________________________________________________
activation_732 (Activation)  (None, 32, 32, 64)        0         
_________________________________________________________________
dropout_732 (Dropout)        (None, 32, 32, 64)        0         
_________________________________________________________________
conv2d_557 (Conv2D)          (None, 32, 32, 16)        9232      
_________________________________________________________________
activation_733 (Activation)  (None, 32, 32, 16)        0         
_________________________________________________________________
dropout_733 (Dropout)        (None, 32, 32, 16)        0         
_________________________________________________________________
max_pooling2d_198 (MaxPoolin (None, 16, 16, 16)        0         
_________________________________________________________________
conv2d_558 (Conv2D)          (None, 16, 16, 128)       18560     
_________________________________________________________________
batch_normalization_336 (Bat (None, 16, 16, 128)       512       
_________________________________________________________________
activation_734 (Activation)  (None, 16, 16, 128)       0         
_________________________________________________________________
dropout_734 (Dropout)        (None, 16, 16, 128)       0         
_________________________________________________________________
max_pooling2d_199 (MaxPoolin (None, 8, 8, 128)         0         
_________________________________________________________________
conv2d_559 (Conv2D)          (None, 8, 8, 512)         590336    
_________________________________________________________________
activation_735 (Activation)  (None, 8, 8, 512)         0         
_________________________________________________________________
dropout_735 (Dropout)        (None, 8, 8, 512)         0         
_________________________________________________________________
max_pooling2d_200 (MaxPoolin (None, 4, 4, 512)         0         
_________________________________________________________________
flatten_103 (Flatten)        (None, 8192)              0         
_________________________________________________________________
dense_279 (Dense)            (None, 16)                131088    
_________________________________________________________________
activation_736 (Activation)  (None, 16)                0         
_________________________________________________________________
dropout_736 (Dropout)        (None, 16)                0         
_________________________________________________________________
dense_280 (Dense)            (None, 32)                544       
_________________________________________________________________
activation_737 (Activation)  (None, 32)                0         
_________________________________________________________________
dropout_737 (Dropout)        (None, 32)                0         
_________________________________________________________________
dense_281 (Dense)            (None, 10)                330       
=================================================================
Total params: 752,394
Trainable params: 752,138
Non-trainable params: 256
_________________________________________________________________
