Model: "sequential_85"
_________________________________________________________________
Layer (type)                 Output Shape              Param #   
=================================================================
conv2d_454 (Conv2D)          (None, 32, 32, 16)        448       
_________________________________________________________________
activation_606 (Activation)  (None, 32, 32, 16)        0         
_________________________________________________________________
dropout_606 (Dropout)        (None, 32, 32, 16)        0         
_________________________________________________________________
conv2d_455 (Conv2D)          (None, 32, 32, 128)       18560     
_________________________________________________________________
batch_normalization_284 (Bat (None, 32, 32, 128)       512       
_________________________________________________________________
activation_607 (Activation)  (None, 32, 32, 128)       0         
_________________________________________________________________
dropout_607 (Dropout)        (None, 32, 32, 128)       0         
_________________________________________________________________
max_pooling2d_169 (MaxPoolin (None, 16, 16, 128)       0         
_________________________________________________________________
conv2d_456 (Conv2D)          (None, 16, 16, 128)       147584    
_________________________________________________________________
activation_608 (Activation)  (None, 16, 16, 128)       0         
_________________________________________________________________
dropout_608 (Dropout)        (None, 16, 16, 128)       0         
_________________________________________________________________
max_pooling2d_170 (MaxPoolin (None, 8, 8, 128)         0         
_________________________________________________________________
conv2d_457 (Conv2D)          (None, 8, 8, 32)          36896     
_________________________________________________________________
activation_609 (Activation)  (None, 8, 8, 32)          0         
_________________________________________________________________
dropout_609 (Dropout)        (None, 8, 8, 32)          0         
_________________________________________________________________
conv2d_458 (Conv2D)          (None, 8, 8, 32)          9248      
_________________________________________________________________
activation_610 (Activation)  (None, 8, 8, 32)          0         
_________________________________________________________________
dropout_610 (Dropout)        (None, 8, 8, 32)          0         
_________________________________________________________________
max_pooling2d_171 (MaxPoolin (None, 4, 4, 32)          0         
_________________________________________________________________
conv2d_459 (Conv2D)          (None, 4, 4, 512)         147968    
_________________________________________________________________
activation_611 (Activation)  (None, 4, 4, 512)         0         
_________________________________________________________________
dropout_611 (Dropout)        (None, 4, 4, 512)         0         
_________________________________________________________________
flatten_85 (Flatten)         (None, 8192)              0         
_________________________________________________________________
dense_237 (Dense)            (None, 16)                131088    
_________________________________________________________________
activation_612 (Activation)  (None, 16)                0         
_________________________________________________________________
dropout_612 (Dropout)        (None, 16)                0         
_________________________________________________________________
dense_238 (Dense)            (None, 32)                544       
_________________________________________________________________
activation_613 (Activation)  (None, 32)                0         
_________________________________________________________________
dropout_613 (Dropout)        (None, 32)                0         
_________________________________________________________________
dense_239 (Dense)            (None, 10)                330       
=================================================================
Total params: 493,178
Trainable params: 492,922
Non-trainable params: 256
_________________________________________________________________
