Model: "sequential_200"
_________________________________________________________________
Layer (type)                 Output Shape              Param #   
=================================================================
conv2d_1144 (Conv2D)         (None, 32, 32, 16)        448       
_________________________________________________________________
activation_1447 (Activation) (None, 32, 32, 16)        0         
_________________________________________________________________
dropout_1447 (Dropout)       (None, 32, 32, 16)        0         
_________________________________________________________________
conv2d_1145 (Conv2D)         (None, 32, 32, 512)       74240     
_________________________________________________________________
batch_normalization_575 (Bat (None, 32, 32, 512)       2048      
_________________________________________________________________
activation_1448 (Activation) (None, 32, 32, 512)       0         
_________________________________________________________________
dropout_1448 (Dropout)       (None, 32, 32, 512)       0         
_________________________________________________________________
max_pooling2d_372 (MaxPoolin (None, 16, 16, 512)       0         
_________________________________________________________________
conv2d_1146 (Conv2D)         (None, 16, 16, 128)       589952    
_________________________________________________________________
activation_1449 (Activation) (None, 16, 16, 128)       0         
_________________________________________________________________
dropout_1449 (Dropout)       (None, 16, 16, 128)       0         
_________________________________________________________________
max_pooling2d_373 (MaxPoolin (None, 8, 8, 128)         0         
_________________________________________________________________
conv2d_1147 (Conv2D)         (None, 8, 8, 512)         590336    
_________________________________________________________________
batch_normalization_576 (Bat (None, 8, 8, 512)         2048      
_________________________________________________________________
activation_1450 (Activation) (None, 8, 8, 512)         0         
_________________________________________________________________
dropout_1450 (Dropout)       (None, 8, 8, 512)         0         
_________________________________________________________________
conv2d_1148 (Conv2D)         (None, 8, 8, 256)         1179904   
_________________________________________________________________
activation_1451 (Activation) (None, 8, 8, 256)         0         
_________________________________________________________________
dropout_1451 (Dropout)       (None, 8, 8, 256)         0         
_________________________________________________________________
conv2d_1149 (Conv2D)         (None, 8, 8, 128)         295040    
_________________________________________________________________
activation_1452 (Activation) (None, 8, 8, 128)         0         
_________________________________________________________________
dropout_1452 (Dropout)       (None, 8, 8, 128)         0         
_________________________________________________________________
conv2d_1150 (Conv2D)         (None, 8, 8, 16)          18448     
_________________________________________________________________
batch_normalization_577 (Bat (None, 8, 8, 16)          64        
_________________________________________________________________
activation_1453 (Activation) (None, 8, 8, 16)          0         
_________________________________________________________________
dropout_1453 (Dropout)       (None, 8, 8, 16)          0         
_________________________________________________________________
flatten_200 (Flatten)        (None, 1024)              0         
_________________________________________________________________
dense_503 (Dense)            (None, 128)               131200    
_________________________________________________________________
activation_1454 (Activation) (None, 128)               0         
_________________________________________________________________
dropout_1454 (Dropout)       (None, 128)               0         
_________________________________________________________________
dense_504 (Dense)            (None, 10)                1290      
=================================================================
Total params: 2,885,018
Trainable params: 2,882,938
Non-trainable params: 2,080
_________________________________________________________________
