Model: "sequential_245"
_________________________________________________________________
Layer (type)                 Output Shape              Param #   
=================================================================
conv2d_1452 (Conv2D)         (None, 32, 32, 16)        448       
_________________________________________________________________
activation_1797 (Activation) (None, 32, 32, 16)        0         
_________________________________________________________________
dropout_1797 (Dropout)       (None, 32, 32, 16)        0         
_________________________________________________________________
conv2d_1453 (Conv2D)         (None, 32, 32, 512)       74240     
_________________________________________________________________
batch_normalization_717 (Bat (None, 32, 32, 512)       2048      
_________________________________________________________________
activation_1798 (Activation) (None, 32, 32, 512)       0         
_________________________________________________________________
dropout_1798 (Dropout)       (None, 32, 32, 512)       0         
_________________________________________________________________
max_pooling2d_458 (MaxPoolin (None, 16, 16, 512)       0         
_________________________________________________________________
conv2d_1454 (Conv2D)         (None, 16, 16, 128)       589952    
_________________________________________________________________
batch_normalization_718 (Bat (None, 16, 16, 128)       512       
_________________________________________________________________
activation_1799 (Activation) (None, 16, 16, 128)       0         
_________________________________________________________________
dropout_1799 (Dropout)       (None, 16, 16, 128)       0         
_________________________________________________________________
max_pooling2d_459 (MaxPoolin (None, 8, 8, 128)         0         
_________________________________________________________________
conv2d_1455 (Conv2D)         (None, 8, 8, 512)         590336    
_________________________________________________________________
batch_normalization_719 (Bat (None, 8, 8, 512)         2048      
_________________________________________________________________
activation_1800 (Activation) (None, 8, 8, 512)         0         
_________________________________________________________________
dropout_1800 (Dropout)       (None, 8, 8, 512)         0         
_________________________________________________________________
conv2d_1456 (Conv2D)         (None, 8, 8, 256)         1179904   
_________________________________________________________________
activation_1801 (Activation) (None, 8, 8, 256)         0         
_________________________________________________________________
dropout_1801 (Dropout)       (None, 8, 8, 256)         0         
_________________________________________________________________
conv2d_1457 (Conv2D)         (None, 8, 8, 128)         295040    
_________________________________________________________________
activation_1802 (Activation) (None, 8, 8, 128)         0         
_________________________________________________________________
dropout_1802 (Dropout)       (None, 8, 8, 128)         0         
_________________________________________________________________
conv2d_1458 (Conv2D)         (None, 8, 8, 16)          18448     
_________________________________________________________________
batch_normalization_720 (Bat (None, 8, 8, 16)          64        
_________________________________________________________________
activation_1803 (Activation) (None, 8, 8, 16)          0         
_________________________________________________________________
dropout_1803 (Dropout)       (None, 8, 8, 16)          0         
_________________________________________________________________
flatten_245 (Flatten)        (None, 1024)              0         
_________________________________________________________________
dense_590 (Dense)            (None, 128)               131200    
_________________________________________________________________
activation_1804 (Activation) (None, 128)               0         
_________________________________________________________________
dropout_1804 (Dropout)       (None, 128)               0         
_________________________________________________________________
dense_591 (Dense)            (None, 10)                1290      
=================================================================
Total params: 2,885,530
Trainable params: 2,883,194
Non-trainable params: 2,336
_________________________________________________________________
