Model: "sequential_367"
_________________________________________________________________
Layer (type)                 Output Shape              Param #   
=================================================================
conv2d_2253 (Conv2D)         (None, 32, 32, 16)        448       
_________________________________________________________________
batch_normalization_1082 (Ba (None, 32, 32, 16)        64        
_________________________________________________________________
activation_2701 (Activation) (None, 32, 32, 16)        0         
_________________________________________________________________
dropout_2701 (Dropout)       (None, 32, 32, 16)        0         
_________________________________________________________________
conv2d_2254 (Conv2D)         (None, 32, 32, 128)       18560     
_________________________________________________________________
activation_2702 (Activation) (None, 32, 32, 128)       0         
_________________________________________________________________
dropout_2702 (Dropout)       (None, 32, 32, 128)       0         
_________________________________________________________________
max_pooling2d_661 (MaxPoolin (None, 16, 16, 128)       0         
_________________________________________________________________
conv2d_2255 (Conv2D)         (None, 16, 16, 32)        36896     
_________________________________________________________________
activation_2703 (Activation) (None, 16, 16, 32)        0         
_________________________________________________________________
dropout_2703 (Dropout)       (None, 16, 16, 32)        0         
_________________________________________________________________
conv2d_2256 (Conv2D)         (None, 16, 16, 128)       36992     
_________________________________________________________________
activation_2704 (Activation) (None, 16, 16, 128)       0         
_________________________________________________________________
dropout_2704 (Dropout)       (None, 16, 16, 128)       0         
_________________________________________________________________
conv2d_2257 (Conv2D)         (None, 16, 16, 16)        18448     
_________________________________________________________________
batch_normalization_1083 (Ba (None, 16, 16, 16)        64        
_________________________________________________________________
activation_2705 (Activation) (None, 16, 16, 16)        0         
_________________________________________________________________
dropout_2705 (Dropout)       (None, 16, 16, 16)        0         
_________________________________________________________________
flatten_367 (Flatten)        (None, 4096)              0         
_________________________________________________________________
dense_815 (Dense)            (None, 512)               2097664   
_________________________________________________________________
activation_2706 (Activation) (None, 512)               0         
_________________________________________________________________
dropout_2706 (Dropout)       (None, 512)               0         
_________________________________________________________________
dense_816 (Dense)            (None, 10)                5130      
=================================================================
Total params: 2,214,266
Trainable params: 2,214,202
Non-trainable params: 64
_________________________________________________________________
