Model: "sequential_193"
_________________________________________________________________
Layer (type)                 Output Shape              Param #   
=================================================================
conv2d_1095 (Conv2D)         (None, 32, 32, 16)        448       
_________________________________________________________________
activation_1390 (Activation) (None, 32, 32, 16)        0         
_________________________________________________________________
dropout_1390 (Dropout)       (None, 32, 32, 16)        0         
_________________________________________________________________
conv2d_1096 (Conv2D)         (None, 32, 32, 128)       18560     
_________________________________________________________________
batch_normalization_555 (Bat (None, 32, 32, 128)       512       
_________________________________________________________________
activation_1391 (Activation) (None, 32, 32, 128)       0         
_________________________________________________________________
dropout_1391 (Dropout)       (None, 32, 32, 128)       0         
_________________________________________________________________
max_pooling2d_359 (MaxPoolin (None, 16, 16, 128)       0         
_________________________________________________________________
conv2d_1097 (Conv2D)         (None, 16, 16, 128)       147584    
_________________________________________________________________
activation_1392 (Activation) (None, 16, 16, 128)       0         
_________________________________________________________________
dropout_1392 (Dropout)       (None, 16, 16, 128)       0         
_________________________________________________________________
max_pooling2d_360 (MaxPoolin (None, 8, 8, 128)         0         
_________________________________________________________________
conv2d_1098 (Conv2D)         (None, 8, 8, 512)         590336    
_________________________________________________________________
batch_normalization_556 (Bat (None, 8, 8, 512)         2048      
_________________________________________________________________
activation_1393 (Activation) (None, 8, 8, 512)         0         
_________________________________________________________________
dropout_1393 (Dropout)       (None, 8, 8, 512)         0         
_________________________________________________________________
conv2d_1099 (Conv2D)         (None, 8, 8, 256)         1179904   
_________________________________________________________________
activation_1394 (Activation) (None, 8, 8, 256)         0         
_________________________________________________________________
dropout_1394 (Dropout)       (None, 8, 8, 256)         0         
_________________________________________________________________
conv2d_1100 (Conv2D)         (None, 8, 8, 128)         295040    
_________________________________________________________________
activation_1395 (Activation) (None, 8, 8, 128)         0         
_________________________________________________________________
dropout_1395 (Dropout)       (None, 8, 8, 128)         0         
_________________________________________________________________
conv2d_1101 (Conv2D)         (None, 8, 8, 16)          18448     
_________________________________________________________________
batch_normalization_557 (Bat (None, 8, 8, 16)          64        
_________________________________________________________________
activation_1396 (Activation) (None, 8, 8, 16)          0         
_________________________________________________________________
dropout_1396 (Dropout)       (None, 8, 8, 16)          0         
_________________________________________________________________
flatten_193 (Flatten)        (None, 1024)              0         
_________________________________________________________________
dense_488 (Dense)            (None, 128)               131200    
_________________________________________________________________
activation_1397 (Activation) (None, 128)               0         
_________________________________________________________________
dropout_1397 (Dropout)       (None, 128)               0         
_________________________________________________________________
dense_489 (Dense)            (None, 10)                1290      
=================================================================
Total params: 2,385,434
Trainable params: 2,384,122
Non-trainable params: 1,312
_________________________________________________________________
