Model: "sequential_368"
_________________________________________________________________
Layer (type)                 Output Shape              Param #   
=================================================================
conv2d_2258 (Conv2D)         (None, 32, 32, 64)        1792      
_________________________________________________________________
batch_normalization_1084 (Ba (None, 32, 32, 64)        256       
_________________________________________________________________
activation_2707 (Activation) (None, 32, 32, 64)        0         
_________________________________________________________________
dropout_2707 (Dropout)       (None, 32, 32, 64)        0         
_________________________________________________________________
conv2d_2259 (Conv2D)         (None, 32, 32, 128)       73856     
_________________________________________________________________
activation_2708 (Activation) (None, 32, 32, 128)       0         
_________________________________________________________________
dropout_2708 (Dropout)       (None, 32, 32, 128)       0         
_________________________________________________________________
max_pooling2d_662 (MaxPoolin (None, 16, 16, 128)       0         
_________________________________________________________________
conv2d_2260 (Conv2D)         (None, 16, 16, 32)        36896     
_________________________________________________________________
activation_2709 (Activation) (None, 16, 16, 32)        0         
_________________________________________________________________
dropout_2709 (Dropout)       (None, 16, 16, 32)        0         
_________________________________________________________________
conv2d_2261 (Conv2D)         (None, 16, 16, 256)       73984     
_________________________________________________________________
activation_2710 (Activation) (None, 16, 16, 256)       0         
_________________________________________________________________
dropout_2710 (Dropout)       (None, 16, 16, 256)       0         
_________________________________________________________________
conv2d_2262 (Conv2D)         (None, 16, 16, 128)       295040    
_________________________________________________________________
activation_2711 (Activation) (None, 16, 16, 128)       0         
_________________________________________________________________
dropout_2711 (Dropout)       (None, 16, 16, 128)       0         
_________________________________________________________________
conv2d_2263 (Conv2D)         (None, 16, 16, 16)        18448     
_________________________________________________________________
batch_normalization_1085 (Ba (None, 16, 16, 16)        64        
_________________________________________________________________
activation_2712 (Activation) (None, 16, 16, 16)        0         
_________________________________________________________________
dropout_2712 (Dropout)       (None, 16, 16, 16)        0         
_________________________________________________________________
flatten_368 (Flatten)        (None, 4096)              0         
_________________________________________________________________
dense_817 (Dense)            (None, 128)               524416    
_________________________________________________________________
activation_2713 (Activation) (None, 128)               0         
_________________________________________________________________
dropout_2713 (Dropout)       (None, 128)               0         
_________________________________________________________________
dense_818 (Dense)            (None, 10)                1290      
=================================================================
Total params: 1,026,042
Trainable params: 1,025,882
Non-trainable params: 160
_________________________________________________________________
