Model: "sequential_224"
_________________________________________________________________
Layer (type)                 Output Shape              Param #   
=================================================================
conv2d_1307 (Conv2D)         (None, 32, 32, 16)        448       
_________________________________________________________________
batch_normalization_648 (Bat (None, 32, 32, 16)        64        
_________________________________________________________________
activation_1633 (Activation) (None, 32, 32, 16)        0         
_________________________________________________________________
dropout_1633 (Dropout)       (None, 32, 32, 16)        0         
_________________________________________________________________
conv2d_1308 (Conv2D)         (None, 32, 32, 128)       18560     
_________________________________________________________________
batch_normalization_649 (Bat (None, 32, 32, 128)       512       
_________________________________________________________________
activation_1634 (Activation) (None, 32, 32, 128)       0         
_________________________________________________________________
dropout_1634 (Dropout)       (None, 32, 32, 128)       0         
_________________________________________________________________
max_pooling2d_417 (MaxPoolin (None, 16, 16, 128)       0         
_________________________________________________________________
conv2d_1309 (Conv2D)         (None, 16, 16, 128)       147584    
_________________________________________________________________
activation_1635 (Activation) (None, 16, 16, 128)       0         
_________________________________________________________________
dropout_1635 (Dropout)       (None, 16, 16, 128)       0         
_________________________________________________________________
max_pooling2d_418 (MaxPoolin (None, 8, 8, 128)         0         
_________________________________________________________________
conv2d_1310 (Conv2D)         (None, 8, 8, 32)          36896     
_________________________________________________________________
activation_1636 (Activation) (None, 8, 8, 32)          0         
_________________________________________________________________
dropout_1636 (Dropout)       (None, 8, 8, 32)          0         
_________________________________________________________________
conv2d_1311 (Conv2D)         (None, 8, 8, 32)          9248      
_________________________________________________________________
activation_1637 (Activation) (None, 8, 8, 32)          0         
_________________________________________________________________
dropout_1637 (Dropout)       (None, 8, 8, 32)          0         
_________________________________________________________________
conv2d_1312 (Conv2D)         (None, 8, 8, 128)         36992     
_________________________________________________________________
activation_1638 (Activation) (None, 8, 8, 128)         0         
_________________________________________________________________
dropout_1638 (Dropout)       (None, 8, 8, 128)         0         
_________________________________________________________________
conv2d_1313 (Conv2D)         (None, 8, 8, 16)          18448     
_________________________________________________________________
batch_normalization_650 (Bat (None, 8, 8, 16)          64        
_________________________________________________________________
activation_1639 (Activation) (None, 8, 8, 16)          0         
_________________________________________________________________
dropout_1639 (Dropout)       (None, 8, 8, 16)          0         
_________________________________________________________________
flatten_224 (Flatten)        (None, 1024)              0         
_________________________________________________________________
dense_550 (Dense)            (None, 128)               131200    
_________________________________________________________________
activation_1640 (Activation) (None, 128)               0         
_________________________________________________________________
dropout_1640 (Dropout)       (None, 128)               0         
_________________________________________________________________
dense_551 (Dense)            (None, 10)                1290      
=================================================================
Total params: 401,306
Trainable params: 400,986
Non-trainable params: 320
_________________________________________________________________
