Model: "sequential_180"
_________________________________________________________________
Layer (type)                 Output Shape              Param #   
=================================================================
conv2d_1014 (Conv2D)         (None, 32, 32, 1024)      28672     
_________________________________________________________________
activation_1295 (Activation) (None, 32, 32, 1024)      0         
_________________________________________________________________
dropout_1295 (Dropout)       (None, 32, 32, 1024)      0         
_________________________________________________________________
conv2d_1015 (Conv2D)         (None, 32, 32, 256)       2359552   
_________________________________________________________________
activation_1296 (Activation) (None, 32, 32, 256)       0         
_________________________________________________________________
dropout_1296 (Dropout)       (None, 32, 32, 256)       0         
_________________________________________________________________
conv2d_1016 (Conv2D)         (None, 32, 32, 128)       295040    
_________________________________________________________________
activation_1297 (Activation) (None, 32, 32, 128)       0         
_________________________________________________________________
dropout_1297 (Dropout)       (None, 32, 32, 128)       0         
_________________________________________________________________
conv2d_1017 (Conv2D)         (None, 32, 32, 16)        18448     
_________________________________________________________________
batch_normalization_520 (Bat (None, 32, 32, 16)        64        
_________________________________________________________________
activation_1298 (Activation) (None, 32, 32, 16)        0         
_________________________________________________________________
dropout_1298 (Dropout)       (None, 32, 32, 16)        0         
_________________________________________________________________
flatten_180 (Flatten)        (None, 16384)             0         
_________________________________________________________________
dense_461 (Dense)            (None, 128)               2097280   
_________________________________________________________________
activation_1299 (Activation) (None, 128)               0         
_________________________________________________________________
dropout_1299 (Dropout)       (None, 128)               0         
_________________________________________________________________
dense_462 (Dense)            (None, 10)                1290      
=================================================================
Total params: 4,800,346
Trainable params: 4,800,314
Non-trainable params: 32
_________________________________________________________________
