Model: "sequential_185"
_________________________________________________________________
Layer (type)                 Output Shape              Param #   
=================================================================
conv2d_1041 (Conv2D)         (None, 32, 32, 64)        1792      
_________________________________________________________________
activation_1329 (Activation) (None, 32, 32, 64)        0         
_________________________________________________________________
dropout_1329 (Dropout)       (None, 32, 32, 64)        0         
_________________________________________________________________
conv2d_1042 (Conv2D)         (None, 32, 32, 32)        18464     
_________________________________________________________________
activation_1330 (Activation) (None, 32, 32, 32)        0         
_________________________________________________________________
dropout_1330 (Dropout)       (None, 32, 32, 32)        0         
_________________________________________________________________
conv2d_1043 (Conv2D)         (None, 32, 32, 256)       73984     
_________________________________________________________________
batch_normalization_531 (Bat (None, 32, 32, 256)       1024      
_________________________________________________________________
activation_1331 (Activation) (None, 32, 32, 256)       0         
_________________________________________________________________
dropout_1331 (Dropout)       (None, 32, 32, 256)       0         
_________________________________________________________________
conv2d_1044 (Conv2D)         (None, 32, 32, 128)       295040    
_________________________________________________________________
activation_1332 (Activation) (None, 32, 32, 128)       0         
_________________________________________________________________
dropout_1332 (Dropout)       (None, 32, 32, 128)       0         
_________________________________________________________________
conv2d_1045 (Conv2D)         (None, 32, 32, 16)        18448     
_________________________________________________________________
batch_normalization_532 (Bat (None, 32, 32, 16)        64        
_________________________________________________________________
activation_1333 (Activation) (None, 32, 32, 16)        0         
_________________________________________________________________
dropout_1333 (Dropout)       (None, 32, 32, 16)        0         
_________________________________________________________________
flatten_185 (Flatten)        (None, 16384)             0         
_________________________________________________________________
dense_473 (Dense)            (None, 128)               2097280   
_________________________________________________________________
activation_1334 (Activation) (None, 128)               0         
_________________________________________________________________
dropout_1334 (Dropout)       (None, 128)               0         
_________________________________________________________________
dense_474 (Dense)            (None, 10)                1290      
=================================================================
Total params: 2,507,386
Trainable params: 2,506,842
Non-trainable params: 544
_________________________________________________________________
