Model: "sequential_237"
_________________________________________________________________
Layer (type)                 Output Shape              Param #   
=================================================================
conv2d_1396 (Conv2D)         (None, 32, 32, 256)       7168      
_________________________________________________________________
batch_normalization_690 (Bat (None, 32, 32, 256)       1024      
_________________________________________________________________
activation_1733 (Activation) (None, 32, 32, 256)       0         
_________________________________________________________________
dropout_1733 (Dropout)       (None, 32, 32, 256)       0         
_________________________________________________________________
conv2d_1397 (Conv2D)         (None, 32, 32, 1024)      2360320   
_________________________________________________________________
batch_normalization_691 (Bat (None, 32, 32, 1024)      4096      
_________________________________________________________________
activation_1734 (Activation) (None, 32, 32, 1024)      0         
_________________________________________________________________
dropout_1734 (Dropout)       (None, 32, 32, 1024)      0         
_________________________________________________________________
max_pooling2d_442 (MaxPoolin (None, 16, 16, 1024)      0         
_________________________________________________________________
conv2d_1398 (Conv2D)         (None, 16, 16, 128)       1179776   
_________________________________________________________________
activation_1735 (Activation) (None, 16, 16, 128)       0         
_________________________________________________________________
dropout_1735 (Dropout)       (None, 16, 16, 128)       0         
_________________________________________________________________
max_pooling2d_443 (MaxPoolin (None, 8, 8, 128)         0         
_________________________________________________________________
conv2d_1399 (Conv2D)         (None, 8, 8, 512)         590336    
_________________________________________________________________
batch_normalization_692 (Bat (None, 8, 8, 512)         2048      
_________________________________________________________________
activation_1736 (Activation) (None, 8, 8, 512)         0         
_________________________________________________________________
dropout_1736 (Dropout)       (None, 8, 8, 512)         0         
_________________________________________________________________
conv2d_1400 (Conv2D)         (None, 8, 8, 256)         1179904   
_________________________________________________________________
activation_1737 (Activation) (None, 8, 8, 256)         0         
_________________________________________________________________
dropout_1737 (Dropout)       (None, 8, 8, 256)         0         
_________________________________________________________________
conv2d_1401 (Conv2D)         (None, 8, 8, 128)         295040    
_________________________________________________________________
activation_1738 (Activation) (None, 8, 8, 128)         0         
_________________________________________________________________
dropout_1738 (Dropout)       (None, 8, 8, 128)         0         
_________________________________________________________________
conv2d_1402 (Conv2D)         (None, 8, 8, 16)          18448     
_________________________________________________________________
batch_normalization_693 (Bat (None, 8, 8, 16)          64        
_________________________________________________________________
activation_1739 (Activation) (None, 8, 8, 16)          0         
_________________________________________________________________
dropout_1739 (Dropout)       (None, 8, 8, 16)          0         
_________________________________________________________________
flatten_237 (Flatten)        (None, 1024)              0         
_________________________________________________________________
dense_574 (Dense)            (None, 128)               131200    
_________________________________________________________________
activation_1740 (Activation) (None, 128)               0         
_________________________________________________________________
dropout_1740 (Dropout)       (None, 128)               0         
_________________________________________________________________
dense_575 (Dense)            (None, 10)                1290      
=================================================================
Total params: 5,770,714
Trainable params: 5,767,098
Non-trainable params: 3,616
_________________________________________________________________
