Model: "sequential_264"
_________________________________________________________________
Layer (type)                 Output Shape              Param #   
=================================================================
conv2d_1579 (Conv2D)         (None, 32, 32, 16)        448       
_________________________________________________________________
batch_normalization_781 (Bat (None, 32, 32, 16)        64        
_________________________________________________________________
activation_1939 (Activation) (None, 32, 32, 16)        0         
_________________________________________________________________
dropout_1939 (Dropout)       (None, 32, 32, 16)        0         
_________________________________________________________________
conv2d_1580 (Conv2D)         (None, 32, 32, 512)       74240     
_________________________________________________________________
batch_normalization_782 (Bat (None, 32, 32, 512)       2048      
_________________________________________________________________
activation_1940 (Activation) (None, 32, 32, 512)       0         
_________________________________________________________________
dropout_1940 (Dropout)       (None, 32, 32, 512)       0         
_________________________________________________________________
conv2d_1581 (Conv2D)         (None, 32, 32, 128)       589952    
_________________________________________________________________
activation_1941 (Activation) (None, 32, 32, 128)       0         
_________________________________________________________________
dropout_1941 (Dropout)       (None, 32, 32, 128)       0         
_________________________________________________________________
max_pooling2d_495 (MaxPoolin (None, 16, 16, 128)       0         
_________________________________________________________________
conv2d_1582 (Conv2D)         (None, 16, 16, 512)       590336    
_________________________________________________________________
batch_normalization_783 (Bat (None, 16, 16, 512)       2048      
_________________________________________________________________
activation_1942 (Activation) (None, 16, 16, 512)       0         
_________________________________________________________________
dropout_1942 (Dropout)       (None, 16, 16, 512)       0         
_________________________________________________________________
conv2d_1583 (Conv2D)         (None, 16, 16, 256)       1179904   
_________________________________________________________________
activation_1943 (Activation) (None, 16, 16, 256)       0         
_________________________________________________________________
dropout_1943 (Dropout)       (None, 16, 16, 256)       0         
_________________________________________________________________
conv2d_1584 (Conv2D)         (None, 16, 16, 128)       295040    
_________________________________________________________________
activation_1944 (Activation) (None, 16, 16, 128)       0         
_________________________________________________________________
dropout_1944 (Dropout)       (None, 16, 16, 128)       0         
_________________________________________________________________
conv2d_1585 (Conv2D)         (None, 16, 16, 16)        18448     
_________________________________________________________________
batch_normalization_784 (Bat (None, 16, 16, 16)        64        
_________________________________________________________________
activation_1945 (Activation) (None, 16, 16, 16)        0         
_________________________________________________________________
dropout_1945 (Dropout)       (None, 16, 16, 16)        0         
_________________________________________________________________
flatten_264 (Flatten)        (None, 4096)              0         
_________________________________________________________________
dense_624 (Dense)            (None, 128)               524416    
_________________________________________________________________
activation_1946 (Activation) (None, 128)               0         
_________________________________________________________________
dropout_1946 (Dropout)       (None, 128)               0         
_________________________________________________________________
dense_625 (Dense)            (None, 10)                1290      
=================================================================
Total params: 3,278,298
Trainable params: 3,276,186
Non-trainable params: 2,112
_________________________________________________________________
