Model: "sequential_273"
_________________________________________________________________
Layer (type)                 Output Shape              Param #   
=================================================================
conv2d_1640 (Conv2D)         (None, 32, 32, 16)        448       
_________________________________________________________________
activation_2008 (Activation) (None, 32, 32, 16)        0         
_________________________________________________________________
dropout_2008 (Dropout)       (None, 32, 32, 16)        0         
_________________________________________________________________
conv2d_1641 (Conv2D)         (None, 32, 32, 512)       74240     
_________________________________________________________________
batch_normalization_811 (Bat (None, 32, 32, 512)       2048      
_________________________________________________________________
activation_2009 (Activation) (None, 32, 32, 512)       0         
_________________________________________________________________
dropout_2009 (Dropout)       (None, 32, 32, 512)       0         
_________________________________________________________________
max_pooling2d_509 (MaxPoolin (None, 16, 16, 512)       0         
_________________________________________________________________
conv2d_1642 (Conv2D)         (None, 16, 16, 128)       589952    
_________________________________________________________________
activation_2010 (Activation) (None, 16, 16, 128)       0         
_________________________________________________________________
dropout_2010 (Dropout)       (None, 16, 16, 128)       0         
_________________________________________________________________
conv2d_1643 (Conv2D)         (None, 16, 16, 512)       590336    
_________________________________________________________________
batch_normalization_812 (Bat (None, 16, 16, 512)       2048      
_________________________________________________________________
activation_2011 (Activation) (None, 16, 16, 512)       0         
_________________________________________________________________
dropout_2011 (Dropout)       (None, 16, 16, 512)       0         
_________________________________________________________________
conv2d_1644 (Conv2D)         (None, 16, 16, 1024)      4719616   
_________________________________________________________________
activation_2012 (Activation) (None, 16, 16, 1024)      0         
_________________________________________________________________
dropout_2012 (Dropout)       (None, 16, 16, 1024)      0         
_________________________________________________________________
max_pooling2d_510 (MaxPoolin (None, 8, 8, 1024)        0         
_________________________________________________________________
conv2d_1645 (Conv2D)         (None, 8, 8, 8)           73736     
_________________________________________________________________
activation_2013 (Activation) (None, 8, 8, 8)           0         
_________________________________________________________________
dropout_2013 (Dropout)       (None, 8, 8, 8)           0         
_________________________________________________________________
conv2d_1646 (Conv2D)         (None, 8, 8, 16)          1168      
_________________________________________________________________
batch_normalization_813 (Bat (None, 8, 8, 16)          64        
_________________________________________________________________
activation_2014 (Activation) (None, 8, 8, 16)          0         
_________________________________________________________________
dropout_2014 (Dropout)       (None, 8, 8, 16)          0         
_________________________________________________________________
flatten_273 (Flatten)        (None, 1024)              0         
_________________________________________________________________
dense_641 (Dense)            (None, 128)               131200    
_________________________________________________________________
activation_2015 (Activation) (None, 128)               0         
_________________________________________________________________
dropout_2015 (Dropout)       (None, 128)               0         
_________________________________________________________________
dense_642 (Dense)            (None, 10)                1290      
=================================================================
Total params: 6,186,146
Trainable params: 6,184,066
Non-trainable params: 2,080
_________________________________________________________________
