Model: "sequential_14"
_________________________________________________________________
Layer (type)                 Output Shape              Param #   
=================================================================
conv2d_75 (Conv2D)           (None, 32, 32, 256)       7168      
_________________________________________________________________
batch_normalization_45 (Batc (None, 32, 32, 256)       1024      
_________________________________________________________________
activation_96 (Activation)   (None, 32, 32, 256)       0         
_________________________________________________________________
dropout_96 (Dropout)         (None, 32, 32, 256)       0         
_________________________________________________________________
max_pooling2d_28 (MaxPooling (None, 16, 16, 256)       0         
_________________________________________________________________
conv2d_76 (Conv2D)           (None, 16, 16, 128)       295040    
_________________________________________________________________
batch_normalization_46 (Batc (None, 16, 16, 128)       512       
_________________________________________________________________
activation_97 (Activation)   (None, 16, 16, 128)       0         
_________________________________________________________________
dropout_97 (Dropout)         (None, 16, 16, 128)       0         
_________________________________________________________________
conv2d_77 (Conv2D)           (None, 16, 16, 32)        36896     
_________________________________________________________________
activation_98 (Activation)   (None, 16, 16, 32)        0         
_________________________________________________________________
dropout_98 (Dropout)         (None, 16, 16, 32)        0         
_________________________________________________________________
max_pooling2d_29 (MaxPooling (None, 8, 8, 32)          0         
_________________________________________________________________
conv2d_78 (Conv2D)           (None, 8, 8, 32)          9248      
_________________________________________________________________
activation_99 (Activation)   (None, 8, 8, 32)          0         
_________________________________________________________________
dropout_99 (Dropout)         (None, 8, 8, 32)          0         
_________________________________________________________________
conv2d_79 (Conv2D)           (None, 8, 8, 64)          18496     
_________________________________________________________________
batch_normalization_47 (Batc (None, 8, 8, 64)          256       
_________________________________________________________________
activation_100 (Activation)  (None, 8, 8, 64)          0         
_________________________________________________________________
dropout_100 (Dropout)        (None, 8, 8, 64)          0         
_________________________________________________________________
flatten_14 (Flatten)         (None, 4096)              0         
_________________________________________________________________
dense_35 (Dense)             (None, 32)                131104    
_________________________________________________________________
activation_101 (Activation)  (None, 32)                0         
_________________________________________________________________
dropout_101 (Dropout)        (None, 32)                0         
_________________________________________________________________
dense_36 (Dense)             (None, 64)                2112      
_________________________________________________________________
batch_normalization_48 (Batc (None, 64)                256       
_________________________________________________________________
activation_102 (Activation)  (None, 64)                0         
_________________________________________________________________
dropout_102 (Dropout)        (None, 64)                0         
_________________________________________________________________
dense_37 (Dense)             (None, 512)               33280     
_________________________________________________________________
activation_103 (Activation)  (None, 512)               0         
_________________________________________________________________
dropout_103 (Dropout)        (None, 512)               0         
_________________________________________________________________
dense_38 (Dense)             (None, 10)                5130      
=================================================================
Total params: 540,522
Trainable params: 539,498
Non-trainable params: 1,024
_________________________________________________________________
