Model: "sequential_150"
_________________________________________________________________
Layer (type)                 Output Shape              Param #   
=================================================================
conv2d_821 (Conv2D)          (None, 32, 32, 64)        1792      
_________________________________________________________________
activation_1066 (Activation) (None, 32, 32, 64)        0         
_________________________________________________________________
dropout_1066 (Dropout)       (None, 32, 32, 64)        0         
_________________________________________________________________
conv2d_822 (Conv2D)          (None, 32, 32, 32)        18464     
_________________________________________________________________
activation_1067 (Activation) (None, 32, 32, 32)        0         
_________________________________________________________________
dropout_1067 (Dropout)       (None, 32, 32, 32)        0         
_________________________________________________________________
max_pooling2d_290 (MaxPoolin (None, 16, 16, 32)        0         
_________________________________________________________________
conv2d_823 (Conv2D)          (None, 16, 16, 512)       147968    
_________________________________________________________________
activation_1068 (Activation) (None, 16, 16, 512)       0         
_________________________________________________________________
dropout_1068 (Dropout)       (None, 16, 16, 512)       0         
_________________________________________________________________
max_pooling2d_291 (MaxPoolin (None, 8, 8, 512)         0         
_________________________________________________________________
flatten_150 (Flatten)        (None, 32768)             0         
_________________________________________________________________
dense_395 (Dense)            (None, 16)                524304    
_________________________________________________________________
activation_1069 (Activation) (None, 16)                0         
_________________________________________________________________
dropout_1069 (Dropout)       (None, 16)                0         
_________________________________________________________________
dense_396 (Dense)            (None, 32)                544       
_________________________________________________________________
activation_1070 (Activation) (None, 32)                0         
_________________________________________________________________
dropout_1070 (Dropout)       (None, 32)                0         
_________________________________________________________________
dense_397 (Dense)            (None, 10)                330       
=================================================================
Total params: 693,402
Trainable params: 693,402
Non-trainable params: 0
_________________________________________________________________
