Model: "sequential_371"
_________________________________________________________________
Layer (type)                 Output Shape              Param #   
=================================================================
conv2d_2278 (Conv2D)         (None, 32, 32, 16)        448       
_________________________________________________________________
batch_normalization_1092 (Ba (None, 32, 32, 16)        64        
_________________________________________________________________
activation_2729 (Activation) (None, 32, 32, 16)        0         
_________________________________________________________________
dropout_2729 (Dropout)       (None, 32, 32, 16)        0         
_________________________________________________________________
conv2d_2279 (Conv2D)         (None, 32, 32, 128)       18560     
_________________________________________________________________
activation_2730 (Activation) (None, 32, 32, 128)       0         
_________________________________________________________________
dropout_2730 (Dropout)       (None, 32, 32, 128)       0         
_________________________________________________________________
max_pooling2d_666 (MaxPoolin (None, 16, 16, 128)       0         
_________________________________________________________________
conv2d_2280 (Conv2D)         (None, 16, 16, 32)        36896     
_________________________________________________________________
activation_2731 (Activation) (None, 16, 16, 32)        0         
_________________________________________________________________
dropout_2731 (Dropout)       (None, 16, 16, 32)        0         
_________________________________________________________________
conv2d_2281 (Conv2D)         (None, 16, 16, 256)       73984     
_________________________________________________________________
activation_2732 (Activation) (None, 16, 16, 256)       0         
_________________________________________________________________
dropout_2732 (Dropout)       (None, 16, 16, 256)       0         
_________________________________________________________________
conv2d_2282 (Conv2D)         (None, 16, 16, 128)       295040    
_________________________________________________________________
activation_2733 (Activation) (None, 16, 16, 128)       0         
_________________________________________________________________
dropout_2733 (Dropout)       (None, 16, 16, 128)       0         
_________________________________________________________________
conv2d_2283 (Conv2D)         (None, 16, 16, 16)        18448     
_________________________________________________________________
batch_normalization_1093 (Ba (None, 16, 16, 16)        64        
_________________________________________________________________
activation_2734 (Activation) (None, 16, 16, 16)        0         
_________________________________________________________________
dropout_2734 (Dropout)       (None, 16, 16, 16)        0         
_________________________________________________________________
flatten_371 (Flatten)        (None, 4096)              0         
_________________________________________________________________
dense_822 (Dense)            (None, 64)                262208    
_________________________________________________________________
batch_normalization_1094 (Ba (None, 64)                256       
_________________________________________________________________
activation_2735 (Activation) (None, 64)                0         
_________________________________________________________________
dropout_2735 (Dropout)       (None, 64)                0         
_________________________________________________________________
dense_823 (Dense)            (None, 10)                650       
=================================================================
Total params: 706,618
Trainable params: 706,426
Non-trainable params: 192
_________________________________________________________________
