Model: "sequential_199"
_________________________________________________________________
Layer (type)                 Output Shape              Param #   
=================================================================
conv2d_1137 (Conv2D)         (None, 32, 32, 256)       7168      
_________________________________________________________________
batch_normalization_571 (Bat (None, 32, 32, 256)       1024      
_________________________________________________________________
activation_1439 (Activation) (None, 32, 32, 256)       0         
_________________________________________________________________
dropout_1439 (Dropout)       (None, 32, 32, 256)       0         
_________________________________________________________________
conv2d_1138 (Conv2D)         (None, 32, 32, 512)       1180160   
_________________________________________________________________
batch_normalization_572 (Bat (None, 32, 32, 512)       2048      
_________________________________________________________________
activation_1440 (Activation) (None, 32, 32, 512)       0         
_________________________________________________________________
dropout_1440 (Dropout)       (None, 32, 32, 512)       0         
_________________________________________________________________
max_pooling2d_370 (MaxPoolin (None, 16, 16, 512)       0         
_________________________________________________________________
conv2d_1139 (Conv2D)         (None, 16, 16, 1024)      4719616   
_________________________________________________________________
activation_1441 (Activation) (None, 16, 16, 1024)      0         
_________________________________________________________________
dropout_1441 (Dropout)       (None, 16, 16, 1024)      0         
_________________________________________________________________
max_pooling2d_371 (MaxPoolin (None, 8, 8, 1024)        0         
_________________________________________________________________
conv2d_1140 (Conv2D)         (None, 8, 8, 512)         4719104   
_________________________________________________________________
batch_normalization_573 (Bat (None, 8, 8, 512)         2048      
_________________________________________________________________
activation_1442 (Activation) (None, 8, 8, 512)         0         
_________________________________________________________________
dropout_1442 (Dropout)       (None, 8, 8, 512)         0         
_________________________________________________________________
conv2d_1141 (Conv2D)         (None, 8, 8, 256)         1179904   
_________________________________________________________________
activation_1443 (Activation) (None, 8, 8, 256)         0         
_________________________________________________________________
dropout_1443 (Dropout)       (None, 8, 8, 256)         0         
_________________________________________________________________
conv2d_1142 (Conv2D)         (None, 8, 8, 128)         295040    
_________________________________________________________________
activation_1444 (Activation) (None, 8, 8, 128)         0         
_________________________________________________________________
dropout_1444 (Dropout)       (None, 8, 8, 128)         0         
_________________________________________________________________
conv2d_1143 (Conv2D)         (None, 8, 8, 1024)        1180672   
_________________________________________________________________
batch_normalization_574 (Bat (None, 8, 8, 1024)        4096      
_________________________________________________________________
activation_1445 (Activation) (None, 8, 8, 1024)        0         
_________________________________________________________________
dropout_1445 (Dropout)       (None, 8, 8, 1024)        0         
_________________________________________________________________
flatten_199 (Flatten)        (None, 65536)             0         
_________________________________________________________________
dense_501 (Dense)            (None, 128)               8388736   
_________________________________________________________________
activation_1446 (Activation) (None, 128)               0         
_________________________________________________________________
dropout_1446 (Dropout)       (None, 128)               0         
_________________________________________________________________
dense_502 (Dense)            (None, 10)                1290      
=================================================================
Total params: 21,680,906
Trainable params: 21,676,298
Non-trainable params: 4,608
_________________________________________________________________
