Model: "sequential_186"
_________________________________________________________________
Layer (type)                 Output Shape              Param #   
=================================================================
conv2d_1046 (Conv2D)         (None, 32, 32, 16)        448       
_________________________________________________________________
activation_1335 (Activation) (None, 32, 32, 16)        0         
_________________________________________________________________
dropout_1335 (Dropout)       (None, 32, 32, 16)        0         
_________________________________________________________________
conv2d_1047 (Conv2D)         (None, 32, 32, 512)       74240     
_________________________________________________________________
batch_normalization_533 (Bat (None, 32, 32, 512)       2048      
_________________________________________________________________
activation_1336 (Activation) (None, 32, 32, 512)       0         
_________________________________________________________________
dropout_1336 (Dropout)       (None, 32, 32, 512)       0         
_________________________________________________________________
conv2d_1048 (Conv2D)         (None, 32, 32, 16)        73744     
_________________________________________________________________
activation_1337 (Activation) (None, 32, 32, 16)        0         
_________________________________________________________________
dropout_1337 (Dropout)       (None, 32, 32, 16)        0         
_________________________________________________________________
conv2d_1049 (Conv2D)         (None, 32, 32, 512)       74240     
_________________________________________________________________
batch_normalization_534 (Bat (None, 32, 32, 512)       2048      
_________________________________________________________________
activation_1338 (Activation) (None, 32, 32, 512)       0         
_________________________________________________________________
dropout_1338 (Dropout)       (None, 32, 32, 512)       0         
_________________________________________________________________
conv2d_1050 (Conv2D)         (None, 32, 32, 32)        147488    
_________________________________________________________________
activation_1339 (Activation) (None, 32, 32, 32)        0         
_________________________________________________________________
dropout_1339 (Dropout)       (None, 32, 32, 32)        0         
_________________________________________________________________
conv2d_1051 (Conv2D)         (None, 32, 32, 128)       36992     
_________________________________________________________________
activation_1340 (Activation) (None, 32, 32, 128)       0         
_________________________________________________________________
dropout_1340 (Dropout)       (None, 32, 32, 128)       0         
_________________________________________________________________
conv2d_1052 (Conv2D)         (None, 32, 32, 16)        18448     
_________________________________________________________________
batch_normalization_535 (Bat (None, 32, 32, 16)        64        
_________________________________________________________________
activation_1341 (Activation) (None, 32, 32, 16)        0         
_________________________________________________________________
dropout_1341 (Dropout)       (None, 32, 32, 16)        0         
_________________________________________________________________
flatten_186 (Flatten)        (None, 16384)             0         
_________________________________________________________________
dense_475 (Dense)            (None, 128)               2097280   
_________________________________________________________________
activation_1342 (Activation) (None, 128)               0         
_________________________________________________________________
dropout_1342 (Dropout)       (None, 128)               0         
_________________________________________________________________
dense_476 (Dense)            (None, 10)                1290      
=================================================================
Total params: 2,528,330
Trainable params: 2,526,250
Non-trainable params: 2,080
_________________________________________________________________
