Model: "sequential_362"
_________________________________________________________________
Layer (type)                 Output Shape              Param #   
=================================================================
conv2d_2223 (Conv2D)         (None, 32, 32, 16)        448       
_________________________________________________________________
activation_2668 (Activation) (None, 32, 32, 16)        0         
_________________________________________________________________
dropout_2668 (Dropout)       (None, 32, 32, 16)        0         
_________________________________________________________________
conv2d_2224 (Conv2D)         (None, 32, 32, 512)       74240     
_________________________________________________________________
batch_normalization_1071 (Ba (None, 32, 32, 512)       2048      
_________________________________________________________________
activation_2669 (Activation) (None, 32, 32, 512)       0         
_________________________________________________________________
dropout_2669 (Dropout)       (None, 32, 32, 512)       0         
_________________________________________________________________
max_pooling2d_654 (MaxPoolin (None, 16, 16, 512)       0         
_________________________________________________________________
conv2d_2225 (Conv2D)         (None, 16, 16, 128)       589952    
_________________________________________________________________
activation_2670 (Activation) (None, 16, 16, 128)       0         
_________________________________________________________________
dropout_2670 (Dropout)       (None, 16, 16, 128)       0         
_________________________________________________________________
max_pooling2d_655 (MaxPoolin (None, 8, 8, 128)         0         
_________________________________________________________________
conv2d_2226 (Conv2D)         (None, 8, 8, 512)         590336    
_________________________________________________________________
activation_2671 (Activation) (None, 8, 8, 512)         0         
_________________________________________________________________
dropout_2671 (Dropout)       (None, 8, 8, 512)         0         
_________________________________________________________________
conv2d_2227 (Conv2D)         (None, 8, 8, 256)         1179904   
_________________________________________________________________
activation_2672 (Activation) (None, 8, 8, 256)         0         
_________________________________________________________________
dropout_2672 (Dropout)       (None, 8, 8, 256)         0         
_________________________________________________________________
conv2d_2228 (Conv2D)         (None, 8, 8, 128)         295040    
_________________________________________________________________
activation_2673 (Activation) (None, 8, 8, 128)         0         
_________________________________________________________________
dropout_2673 (Dropout)       (None, 8, 8, 128)         0         
_________________________________________________________________
conv2d_2229 (Conv2D)         (None, 8, 8, 16)          18448     
_________________________________________________________________
batch_normalization_1072 (Ba (None, 8, 8, 16)          64        
_________________________________________________________________
activation_2674 (Activation) (None, 8, 8, 16)          0         
_________________________________________________________________
dropout_2674 (Dropout)       (None, 8, 8, 16)          0         
_________________________________________________________________
flatten_362 (Flatten)        (None, 1024)              0         
_________________________________________________________________
dense_807 (Dense)            (None, 64)                65600     
_________________________________________________________________
batch_normalization_1073 (Ba (None, 64)                256       
_________________________________________________________________
activation_2675 (Activation) (None, 64)                0         
_________________________________________________________________
dropout_2675 (Dropout)       (None, 64)                0         
_________________________________________________________________
dense_808 (Dense)            (None, 10)                650       
=================================================================
Total params: 2,816,986
Trainable params: 2,815,802
Non-trainable params: 1,184
_________________________________________________________________
