Model: "sequential_334"
_________________________________________________________________
Layer (type)                 Output Shape              Param #   
=================================================================
conv2d_2045 (Conv2D)         (None, 32, 32, 16)        448       
_________________________________________________________________
activation_2467 (Activation) (None, 32, 32, 16)        0         
_________________________________________________________________
dropout_2467 (Dropout)       (None, 32, 32, 16)        0         
_________________________________________________________________
conv2d_2046 (Conv2D)         (None, 32, 32, 128)       18560     
_________________________________________________________________
activation_2468 (Activation) (None, 32, 32, 128)       0         
_________________________________________________________________
dropout_2468 (Dropout)       (None, 32, 32, 128)       0         
_________________________________________________________________
max_pooling2d_613 (MaxPoolin (None, 16, 16, 128)       0         
_________________________________________________________________
conv2d_2047 (Conv2D)         (None, 16, 16, 32)        36896     
_________________________________________________________________
activation_2469 (Activation) (None, 16, 16, 32)        0         
_________________________________________________________________
dropout_2469 (Dropout)       (None, 16, 16, 32)        0         
_________________________________________________________________
conv2d_2048 (Conv2D)         (None, 16, 16, 256)       73984     
_________________________________________________________________
activation_2470 (Activation) (None, 16, 16, 256)       0         
_________________________________________________________________
dropout_2470 (Dropout)       (None, 16, 16, 256)       0         
_________________________________________________________________
conv2d_2049 (Conv2D)         (None, 16, 16, 128)       295040    
_________________________________________________________________
activation_2471 (Activation) (None, 16, 16, 128)       0         
_________________________________________________________________
dropout_2471 (Dropout)       (None, 16, 16, 128)       0         
_________________________________________________________________
conv2d_2050 (Conv2D)         (None, 16, 16, 16)        18448     
_________________________________________________________________
batch_normalization_1007 (Ba (None, 16, 16, 16)        64        
_________________________________________________________________
activation_2472 (Activation) (None, 16, 16, 16)        0         
_________________________________________________________________
dropout_2472 (Dropout)       (None, 16, 16, 16)        0         
_________________________________________________________________
flatten_334 (Flatten)        (None, 4096)              0         
_________________________________________________________________
dense_756 (Dense)            (None, 128)               524416    
_________________________________________________________________
activation_2473 (Activation) (None, 128)               0         
_________________________________________________________________
dropout_2473 (Dropout)       (None, 128)               0         
_________________________________________________________________
dense_757 (Dense)            (None, 10)                1290      
=================================================================
Total params: 969,146
Trainable params: 969,114
Non-trainable params: 32
_________________________________________________________________
