Model: "sequential_158"
_________________________________________________________________
Layer (type)                 Output Shape              Param #   
=================================================================
conv2d_869 (Conv2D)          (None, 32, 32, 256)       7168      
_________________________________________________________________
batch_normalization_458 (Bat (None, 32, 32, 256)       1024      
_________________________________________________________________
activation_1124 (Activation) (None, 32, 32, 256)       0         
_________________________________________________________________
dropout_1124 (Dropout)       (None, 32, 32, 256)       0         
_________________________________________________________________
conv2d_870 (Conv2D)          (None, 32, 32, 512)       1180160   
_________________________________________________________________
batch_normalization_459 (Bat (None, 32, 32, 512)       2048      
_________________________________________________________________
activation_1125 (Activation) (None, 32, 32, 512)       0         
_________________________________________________________________
dropout_1125 (Dropout)       (None, 32, 32, 512)       0         
_________________________________________________________________
max_pooling2d_303 (MaxPoolin (None, 16, 16, 512)       0         
_________________________________________________________________
conv2d_871 (Conv2D)          (None, 16, 16, 128)       589952    
_________________________________________________________________
activation_1126 (Activation) (None, 16, 16, 128)       0         
_________________________________________________________________
dropout_1126 (Dropout)       (None, 16, 16, 128)       0         
_________________________________________________________________
max_pooling2d_304 (MaxPoolin (None, 8, 8, 128)         0         
_________________________________________________________________
conv2d_872 (Conv2D)          (None, 8, 8, 512)         590336    
_________________________________________________________________
batch_normalization_460 (Bat (None, 8, 8, 512)         2048      
_________________________________________________________________
activation_1127 (Activation) (None, 8, 8, 512)         0         
_________________________________________________________________
dropout_1127 (Dropout)       (None, 8, 8, 512)         0         
_________________________________________________________________
conv2d_873 (Conv2D)          (None, 8, 8, 256)         1179904   
_________________________________________________________________
activation_1128 (Activation) (None, 8, 8, 256)         0         
_________________________________________________________________
dropout_1128 (Dropout)       (None, 8, 8, 256)         0         
_________________________________________________________________
conv2d_874 (Conv2D)          (None, 8, 8, 128)         295040    
_________________________________________________________________
activation_1129 (Activation) (None, 8, 8, 128)         0         
_________________________________________________________________
dropout_1129 (Dropout)       (None, 8, 8, 128)         0         
_________________________________________________________________
conv2d_875 (Conv2D)          (None, 8, 8, 16)          18448     
_________________________________________________________________
batch_normalization_461 (Bat (None, 8, 8, 16)          64        
_________________________________________________________________
activation_1130 (Activation) (None, 8, 8, 16)          0         
_________________________________________________________________
dropout_1130 (Dropout)       (None, 8, 8, 16)          0         
_________________________________________________________________
flatten_158 (Flatten)        (None, 1024)              0         
_________________________________________________________________
dense_413 (Dense)            (None, 128)               131200    
_________________________________________________________________
activation_1131 (Activation) (None, 128)               0         
_________________________________________________________________
dropout_1131 (Dropout)       (None, 128)               0         
_________________________________________________________________
dense_414 (Dense)            (None, 10)                1290      
=================================================================
Total params: 3,998,682
Trainable params: 3,996,090
Non-trainable params: 2,592
_________________________________________________________________
