Model: "sequential_318"
_________________________________________________________________
Layer (type)                 Output Shape              Param #   
=================================================================
conv2d_1942 (Conv2D)         (None, 32, 32, 16)        448       
_________________________________________________________________
batch_normalization_963 (Bat (None, 32, 32, 16)        64        
_________________________________________________________________
activation_2350 (Activation) (None, 32, 32, 16)        0         
_________________________________________________________________
dropout_2350 (Dropout)       (None, 32, 32, 16)        0         
_________________________________________________________________
conv2d_1943 (Conv2D)         (None, 32, 32, 128)       18560     
_________________________________________________________________
activation_2351 (Activation) (None, 32, 32, 128)       0         
_________________________________________________________________
dropout_2351 (Dropout)       (None, 32, 32, 128)       0         
_________________________________________________________________
max_pooling2d_589 (MaxPoolin (None, 16, 16, 128)       0         
_________________________________________________________________
conv2d_1944 (Conv2D)         (None, 16, 16, 512)       590336    
_________________________________________________________________
batch_normalization_964 (Bat (None, 16, 16, 512)       2048      
_________________________________________________________________
activation_2352 (Activation) (None, 16, 16, 512)       0         
_________________________________________________________________
dropout_2352 (Dropout)       (None, 16, 16, 512)       0         
_________________________________________________________________
conv2d_1945 (Conv2D)         (None, 16, 16, 256)       1179904   
_________________________________________________________________
activation_2353 (Activation) (None, 16, 16, 256)       0         
_________________________________________________________________
dropout_2353 (Dropout)       (None, 16, 16, 256)       0         
_________________________________________________________________
conv2d_1946 (Conv2D)         (None, 16, 16, 128)       295040    
_________________________________________________________________
activation_2354 (Activation) (None, 16, 16, 128)       0         
_________________________________________________________________
dropout_2354 (Dropout)       (None, 16, 16, 128)       0         
_________________________________________________________________
conv2d_1947 (Conv2D)         (None, 16, 16, 16)        18448     
_________________________________________________________________
batch_normalization_965 (Bat (None, 16, 16, 16)        64        
_________________________________________________________________
activation_2355 (Activation) (None, 16, 16, 16)        0         
_________________________________________________________________
dropout_2355 (Dropout)       (None, 16, 16, 16)        0         
_________________________________________________________________
flatten_318 (Flatten)        (None, 4096)              0         
_________________________________________________________________
dense_726 (Dense)            (None, 128)               524416    
_________________________________________________________________
activation_2356 (Activation) (None, 128)               0         
_________________________________________________________________
dropout_2356 (Dropout)       (None, 128)               0         
_________________________________________________________________
dense_727 (Dense)            (None, 10)                1290      
=================================================================
Total params: 2,630,618
Trainable params: 2,629,530
Non-trainable params: 1,088
_________________________________________________________________
