Model: "sequential_359"
_________________________________________________________________
Layer (type)                 Output Shape              Param #   
=================================================================
conv2d_2205 (Conv2D)         (None, 32, 32, 16)        448       
_________________________________________________________________
batch_normalization_1066 (Ba (None, 32, 32, 16)        64        
_________________________________________________________________
activation_2648 (Activation) (None, 32, 32, 16)        0         
_________________________________________________________________
dropout_2648 (Dropout)       (None, 32, 32, 16)        0         
_________________________________________________________________
conv2d_2206 (Conv2D)         (None, 32, 32, 128)       18560     
_________________________________________________________________
activation_2649 (Activation) (None, 32, 32, 128)       0         
_________________________________________________________________
dropout_2649 (Dropout)       (None, 32, 32, 128)       0         
_________________________________________________________________
max_pooling2d_651 (MaxPoolin (None, 16, 16, 128)       0         
_________________________________________________________________
conv2d_2207 (Conv2D)         (None, 16, 16, 32)        36896     
_________________________________________________________________
activation_2650 (Activation) (None, 16, 16, 32)        0         
_________________________________________________________________
dropout_2650 (Dropout)       (None, 16, 16, 32)        0         
_________________________________________________________________
conv2d_2208 (Conv2D)         (None, 16, 16, 256)       73984     
_________________________________________________________________
activation_2651 (Activation) (None, 16, 16, 256)       0         
_________________________________________________________________
dropout_2651 (Dropout)       (None, 16, 16, 256)       0         
_________________________________________________________________
conv2d_2209 (Conv2D)         (None, 16, 16, 128)       295040    
_________________________________________________________________
activation_2652 (Activation) (None, 16, 16, 128)       0         
_________________________________________________________________
dropout_2652 (Dropout)       (None, 16, 16, 128)       0         
_________________________________________________________________
conv2d_2210 (Conv2D)         (None, 16, 16, 16)        18448     
_________________________________________________________________
batch_normalization_1067 (Ba (None, 16, 16, 16)        64        
_________________________________________________________________
activation_2653 (Activation) (None, 16, 16, 16)        0         
_________________________________________________________________
dropout_2653 (Dropout)       (None, 16, 16, 16)        0         
_________________________________________________________________
flatten_359 (Flatten)        (None, 4096)              0         
_________________________________________________________________
dense_802 (Dense)            (None, 10)                40970     
=================================================================
Total params: 484,474
Trainable params: 484,410
Non-trainable params: 64
_________________________________________________________________
