Model: "sequential_116"
_________________________________________________________________
Layer (type)                 Output Shape              Param #   
=================================================================
conv2d_627 (Conv2D)          (None, 32, 32, 16)        448       
_________________________________________________________________
activation_823 (Activation)  (None, 32, 32, 16)        0         
_________________________________________________________________
dropout_823 (Dropout)        (None, 32, 32, 16)        0         
_________________________________________________________________
conv2d_628 (Conv2D)          (None, 32, 32, 128)       18560     
_________________________________________________________________
batch_normalization_363 (Bat (None, 32, 32, 128)       512       
_________________________________________________________________
activation_824 (Activation)  (None, 32, 32, 128)       0         
_________________________________________________________________
dropout_824 (Dropout)        (None, 32, 32, 128)       0         
_________________________________________________________________
max_pooling2d_223 (MaxPoolin (None, 16, 16, 128)       0         
_________________________________________________________________
conv2d_629 (Conv2D)          (None, 16, 16, 128)       147584    
_________________________________________________________________
activation_825 (Activation)  (None, 16, 16, 128)       0         
_________________________________________________________________
dropout_825 (Dropout)        (None, 16, 16, 128)       0         
_________________________________________________________________
max_pooling2d_224 (MaxPoolin (None, 8, 8, 128)         0         
_________________________________________________________________
conv2d_630 (Conv2D)          (None, 8, 8, 32)          36896     
_________________________________________________________________
activation_826 (Activation)  (None, 8, 8, 32)          0         
_________________________________________________________________
dropout_826 (Dropout)        (None, 8, 8, 32)          0         
_________________________________________________________________
conv2d_631 (Conv2D)          (None, 8, 8, 32)          9248      
_________________________________________________________________
activation_827 (Activation)  (None, 8, 8, 32)          0         
_________________________________________________________________
dropout_827 (Dropout)        (None, 8, 8, 32)          0         
_________________________________________________________________
max_pooling2d_225 (MaxPoolin (None, 4, 4, 32)          0         
_________________________________________________________________
conv2d_632 (Conv2D)          (None, 4, 4, 512)         147968    
_________________________________________________________________
activation_828 (Activation)  (None, 4, 4, 512)         0         
_________________________________________________________________
dropout_828 (Dropout)        (None, 4, 4, 512)         0         
_________________________________________________________________
flatten_116 (Flatten)        (None, 8192)              0         
_________________________________________________________________
dense_312 (Dense)            (None, 16)                131088    
_________________________________________________________________
activation_829 (Activation)  (None, 16)                0         
_________________________________________________________________
dropout_829 (Dropout)        (None, 16)                0         
_________________________________________________________________
dense_313 (Dense)            (None, 32)                544       
_________________________________________________________________
activation_830 (Activation)  (None, 32)                0         
_________________________________________________________________
dropout_830 (Dropout)        (None, 32)                0         
_________________________________________________________________
dense_314 (Dense)            (None, 10)                330       
=================================================================
Total params: 493,178
Trainable params: 492,922
Non-trainable params: 256
_________________________________________________________________
