Model: "sequential_98"
_________________________________________________________________
Layer (type)                 Output Shape              Param #   
=================================================================
conv2d_529 (Conv2D)          (None, 32, 32, 64)        1792      
_________________________________________________________________
activation_699 (Activation)  (None, 32, 32, 64)        0         
_________________________________________________________________
dropout_699 (Dropout)        (None, 32, 32, 64)        0         
_________________________________________________________________
conv2d_530 (Conv2D)          (None, 32, 32, 256)       147712    
_________________________________________________________________
activation_700 (Activation)  (None, 32, 32, 256)       0         
_________________________________________________________________
dropout_700 (Dropout)        (None, 32, 32, 256)       0         
_________________________________________________________________
conv2d_531 (Conv2D)          (None, 32, 32, 128)       295040    
_________________________________________________________________
activation_701 (Activation)  (None, 32, 32, 128)       0         
_________________________________________________________________
dropout_701 (Dropout)        (None, 32, 32, 128)       0         
_________________________________________________________________
conv2d_532 (Conv2D)          (None, 32, 32, 16)        18448     
_________________________________________________________________
batch_normalization_322 (Bat (None, 32, 32, 16)        64        
_________________________________________________________________
activation_702 (Activation)  (None, 32, 32, 16)        0         
_________________________________________________________________
dropout_702 (Dropout)        (None, 32, 32, 16)        0         
_________________________________________________________________
flatten_98 (Flatten)         (None, 16384)             0         
_________________________________________________________________
dense_268 (Dense)            (None, 128)               2097280   
_________________________________________________________________
activation_703 (Activation)  (None, 128)               0         
_________________________________________________________________
dropout_703 (Dropout)        (None, 128)               0         
_________________________________________________________________
dense_269 (Dense)            (None, 10)                1290      
=================================================================
Total params: 2,561,626
Trainable params: 2,561,594
Non-trainable params: 32
_________________________________________________________________
