Model: "sequential_377"
_________________________________________________________________
Layer (type)                 Output Shape              Param #   
=================================================================
conv2d_2316 (Conv2D)         (None, 32, 32, 16)        448       
_________________________________________________________________
batch_normalization_1106 (Ba (None, 32, 32, 16)        64        
_________________________________________________________________
activation_2770 (Activation) (None, 32, 32, 16)        0         
_________________________________________________________________
dropout_2770 (Dropout)       (None, 32, 32, 16)        0         
_________________________________________________________________
conv2d_2317 (Conv2D)         (None, 32, 32, 512)       74240     
_________________________________________________________________
batch_normalization_1107 (Ba (None, 32, 32, 512)       2048      
_________________________________________________________________
activation_2771 (Activation) (None, 32, 32, 512)       0         
_________________________________________________________________
dropout_2771 (Dropout)       (None, 32, 32, 512)       0         
_________________________________________________________________
max_pooling2d_676 (MaxPoolin (None, 16, 16, 512)       0         
_________________________________________________________________
conv2d_2318 (Conv2D)         (None, 16, 16, 128)       589952    
_________________________________________________________________
activation_2772 (Activation) (None, 16, 16, 128)       0         
_________________________________________________________________
dropout_2772 (Dropout)       (None, 16, 16, 128)       0         
_________________________________________________________________
max_pooling2d_677 (MaxPoolin (None, 8, 8, 128)         0         
_________________________________________________________________
conv2d_2319 (Conv2D)         (None, 8, 8, 512)         590336    
_________________________________________________________________
activation_2773 (Activation) (None, 8, 8, 512)         0         
_________________________________________________________________
dropout_2773 (Dropout)       (None, 8, 8, 512)         0         
_________________________________________________________________
conv2d_2320 (Conv2D)         (None, 8, 8, 256)         1179904   
_________________________________________________________________
activation_2774 (Activation) (None, 8, 8, 256)         0         
_________________________________________________________________
dropout_2774 (Dropout)       (None, 8, 8, 256)         0         
_________________________________________________________________
conv2d_2321 (Conv2D)         (None, 8, 8, 128)         295040    
_________________________________________________________________
activation_2775 (Activation) (None, 8, 8, 128)         0         
_________________________________________________________________
dropout_2775 (Dropout)       (None, 8, 8, 128)         0         
_________________________________________________________________
conv2d_2322 (Conv2D)         (None, 8, 8, 16)          18448     
_________________________________________________________________
batch_normalization_1108 (Ba (None, 8, 8, 16)          64        
_________________________________________________________________
activation_2776 (Activation) (None, 8, 8, 16)          0         
_________________________________________________________________
dropout_2776 (Dropout)       (None, 8, 8, 16)          0         
_________________________________________________________________
flatten_377 (Flatten)        (None, 1024)              0         
_________________________________________________________________
dense_831 (Dense)            (None, 128)               131200    
_________________________________________________________________
activation_2777 (Activation) (None, 128)               0         
_________________________________________________________________
dropout_2777 (Dropout)       (None, 128)               0         
_________________________________________________________________
dense_832 (Dense)            (None, 10)                1290      
=================================================================
Total params: 2,883,034
Trainable params: 2,881,946
Non-trainable params: 1,088
_________________________________________________________________
