Model: "sequential_90"
_________________________________________________________________
Layer (type)                 Output Shape              Param #   
=================================================================
conv2d_483 (Conv2D)          (None, 32, 32, 32)        896       
_________________________________________________________________
batch_normalization_296 (Bat (None, 32, 32, 32)        128       
_________________________________________________________________
activation_641 (Activation)  (None, 32, 32, 32)        0         
_________________________________________________________________
dropout_641 (Dropout)        (None, 32, 32, 32)        0         
_________________________________________________________________
max_pooling2d_179 (MaxPoolin (None, 16, 16, 32)        0         
_________________________________________________________________
conv2d_484 (Conv2D)          (None, 16, 16, 512)       147968    
_________________________________________________________________
batch_normalization_297 (Bat (None, 16, 16, 512)       2048      
_________________________________________________________________
activation_642 (Activation)  (None, 16, 16, 512)       0         
_________________________________________________________________
dropout_642 (Dropout)        (None, 16, 16, 512)       0         
_________________________________________________________________
conv2d_485 (Conv2D)          (None, 16, 16, 16)        73744     
_________________________________________________________________
activation_643 (Activation)  (None, 16, 16, 16)        0         
_________________________________________________________________
dropout_643 (Dropout)        (None, 16, 16, 16)        0         
_________________________________________________________________
conv2d_486 (Conv2D)          (None, 16, 16, 512)       74240     
_________________________________________________________________
batch_normalization_298 (Bat (None, 16, 16, 512)       2048      
_________________________________________________________________
activation_644 (Activation)  (None, 16, 16, 512)       0         
_________________________________________________________________
dropout_644 (Dropout)        (None, 16, 16, 512)       0         
_________________________________________________________________
conv2d_487 (Conv2D)          (None, 16, 16, 256)       1179904   
_________________________________________________________________
activation_645 (Activation)  (None, 16, 16, 256)       0         
_________________________________________________________________
dropout_645 (Dropout)        (None, 16, 16, 256)       0         
_________________________________________________________________
conv2d_488 (Conv2D)          (None, 16, 16, 128)       295040    
_________________________________________________________________
activation_646 (Activation)  (None, 16, 16, 128)       0         
_________________________________________________________________
dropout_646 (Dropout)        (None, 16, 16, 128)       0         
_________________________________________________________________
conv2d_489 (Conv2D)          (None, 16, 16, 16)        18448     
_________________________________________________________________
batch_normalization_299 (Bat (None, 16, 16, 16)        64        
_________________________________________________________________
activation_647 (Activation)  (None, 16, 16, 16)        0         
_________________________________________________________________
dropout_647 (Dropout)        (None, 16, 16, 16)        0         
_________________________________________________________________
flatten_90 (Flatten)         (None, 4096)              0         
_________________________________________________________________
dense_248 (Dense)            (None, 128)               524416    
_________________________________________________________________
activation_648 (Activation)  (None, 128)               0         
_________________________________________________________________
dropout_648 (Dropout)        (None, 128)               0         
_________________________________________________________________
dense_249 (Dense)            (None, 10)                1290      
=================================================================
Total params: 2,320,234
Trainable params: 2,318,090
Non-trainable params: 2,144
_________________________________________________________________
