Model: "sequential_164"
_________________________________________________________________
Layer (type)                 Output Shape              Param #   
=================================================================
conv2d_909 (Conv2D)          (None, 32, 32, 256)       7168      
_________________________________________________________________
batch_normalization_475 (Bat (None, 32, 32, 256)       1024      
_________________________________________________________________
activation_1170 (Activation) (None, 32, 32, 256)       0         
_________________________________________________________________
dropout_1170 (Dropout)       (None, 32, 32, 256)       0         
_________________________________________________________________
conv2d_910 (Conv2D)          (None, 32, 32, 512)       1180160   
_________________________________________________________________
batch_normalization_476 (Bat (None, 32, 32, 512)       2048      
_________________________________________________________________
activation_1171 (Activation) (None, 32, 32, 512)       0         
_________________________________________________________________
dropout_1171 (Dropout)       (None, 32, 32, 512)       0         
_________________________________________________________________
max_pooling2d_309 (MaxPoolin (None, 16, 16, 512)       0         
_________________________________________________________________
conv2d_911 (Conv2D)          (None, 16, 16, 128)       589952    
_________________________________________________________________
activation_1172 (Activation) (None, 16, 16, 128)       0         
_________________________________________________________________
dropout_1172 (Dropout)       (None, 16, 16, 128)       0         
_________________________________________________________________
max_pooling2d_310 (MaxPoolin (None, 8, 8, 128)         0         
_________________________________________________________________
conv2d_912 (Conv2D)          (None, 8, 8, 512)         590336    
_________________________________________________________________
batch_normalization_477 (Bat (None, 8, 8, 512)         2048      
_________________________________________________________________
activation_1173 (Activation) (None, 8, 8, 512)         0         
_________________________________________________________________
dropout_1173 (Dropout)       (None, 8, 8, 512)         0         
_________________________________________________________________
max_pooling2d_311 (MaxPoolin (None, 4, 4, 512)         0         
_________________________________________________________________
conv2d_913 (Conv2D)          (None, 4, 4, 256)         1179904   
_________________________________________________________________
activation_1174 (Activation) (None, 4, 4, 256)         0         
_________________________________________________________________
dropout_1174 (Dropout)       (None, 4, 4, 256)         0         
_________________________________________________________________
conv2d_914 (Conv2D)          (None, 4, 4, 128)         295040    
_________________________________________________________________
activation_1175 (Activation) (None, 4, 4, 128)         0         
_________________________________________________________________
dropout_1175 (Dropout)       (None, 4, 4, 128)         0         
_________________________________________________________________
conv2d_915 (Conv2D)          (None, 4, 4, 16)          18448     
_________________________________________________________________
batch_normalization_478 (Bat (None, 4, 4, 16)          64        
_________________________________________________________________
activation_1176 (Activation) (None, 4, 4, 16)          0         
_________________________________________________________________
dropout_1176 (Dropout)       (None, 4, 4, 16)          0         
_________________________________________________________________
flatten_164 (Flatten)        (None, 256)               0         
_________________________________________________________________
dense_425 (Dense)            (None, 128)               32896     
_________________________________________________________________
activation_1177 (Activation) (None, 128)               0         
_________________________________________________________________
dropout_1177 (Dropout)       (None, 128)               0         
_________________________________________________________________
dense_426 (Dense)            (None, 10)                1290      
=================================================================
Total params: 3,900,378
Trainable params: 3,897,786
Non-trainable params: 2,592
_________________________________________________________________
