Model: "sequential_120"
_________________________________________________________________
Layer (type)                 Output Shape              Param #   
=================================================================
conv2d_646 (Conv2D)          (None, 32, 32, 16)        448       
_________________________________________________________________
activation_850 (Activation)  (None, 32, 32, 16)        0         
_________________________________________________________________
dropout_850 (Dropout)        (None, 32, 32, 16)        0         
_________________________________________________________________
conv2d_647 (Conv2D)          (None, 32, 32, 128)       18560     
_________________________________________________________________
batch_normalization_367 (Bat (None, 32, 32, 128)       512       
_________________________________________________________________
activation_851 (Activation)  (None, 32, 32, 128)       0         
_________________________________________________________________
dropout_851 (Dropout)        (None, 32, 32, 128)       0         
_________________________________________________________________
max_pooling2d_233 (MaxPoolin (None, 16, 16, 128)       0         
_________________________________________________________________
conv2d_648 (Conv2D)          (None, 16, 16, 128)       147584    
_________________________________________________________________
activation_852 (Activation)  (None, 16, 16, 128)       0         
_________________________________________________________________
dropout_852 (Dropout)        (None, 16, 16, 128)       0         
_________________________________________________________________
max_pooling2d_234 (MaxPoolin (None, 8, 8, 128)         0         
_________________________________________________________________
conv2d_649 (Conv2D)          (None, 8, 8, 32)          36896     
_________________________________________________________________
activation_853 (Activation)  (None, 8, 8, 32)          0         
_________________________________________________________________
dropout_853 (Dropout)        (None, 8, 8, 32)          0         
_________________________________________________________________
conv2d_650 (Conv2D)          (None, 8, 8, 32)          9248      
_________________________________________________________________
activation_854 (Activation)  (None, 8, 8, 32)          0         
_________________________________________________________________
dropout_854 (Dropout)        (None, 8, 8, 32)          0         
_________________________________________________________________
conv2d_651 (Conv2D)          (None, 8, 8, 128)         36992     
_________________________________________________________________
activation_855 (Activation)  (None, 8, 8, 128)         0         
_________________________________________________________________
dropout_855 (Dropout)        (None, 8, 8, 128)         0         
_________________________________________________________________
conv2d_652 (Conv2D)          (None, 8, 8, 16)          18448     
_________________________________________________________________
batch_normalization_368 (Bat (None, 8, 8, 16)          64        
_________________________________________________________________
activation_856 (Activation)  (None, 8, 8, 16)          0         
_________________________________________________________________
dropout_856 (Dropout)        (None, 8, 8, 16)          0         
_________________________________________________________________
flatten_120 (Flatten)        (None, 1024)              0         
_________________________________________________________________
dense_324 (Dense)            (None, 128)               131200    
_________________________________________________________________
activation_857 (Activation)  (None, 128)               0         
_________________________________________________________________
dropout_857 (Dropout)        (None, 128)               0         
_________________________________________________________________
dense_325 (Dense)            (None, 10)                1290      
=================================================================
Total params: 401,242
Trainable params: 400,954
Non-trainable params: 288
_________________________________________________________________
