Model: "sequential_149"
_________________________________________________________________
Layer (type)                 Output Shape              Param #   
=================================================================
conv2d_814 (Conv2D)          (None, 32, 32, 256)       7168      
_________________________________________________________________
batch_normalization_432 (Bat (None, 32, 32, 256)       1024      
_________________________________________________________________
activation_1058 (Activation) (None, 32, 32, 256)       0         
_________________________________________________________________
dropout_1058 (Dropout)       (None, 32, 32, 256)       0         
_________________________________________________________________
conv2d_815 (Conv2D)          (None, 32, 32, 512)       1180160   
_________________________________________________________________
batch_normalization_433 (Bat (None, 32, 32, 512)       2048      
_________________________________________________________________
activation_1059 (Activation) (None, 32, 32, 512)       0         
_________________________________________________________________
dropout_1059 (Dropout)       (None, 32, 32, 512)       0         
_________________________________________________________________
max_pooling2d_287 (MaxPoolin (None, 16, 16, 512)       0         
_________________________________________________________________
conv2d_816 (Conv2D)          (None, 16, 16, 128)       589952    
_________________________________________________________________
activation_1060 (Activation) (None, 16, 16, 128)       0         
_________________________________________________________________
dropout_1060 (Dropout)       (None, 16, 16, 128)       0         
_________________________________________________________________
max_pooling2d_288 (MaxPoolin (None, 8, 8, 128)         0         
_________________________________________________________________
conv2d_817 (Conv2D)          (None, 8, 8, 512)         590336    
_________________________________________________________________
batch_normalization_434 (Bat (None, 8, 8, 512)         2048      
_________________________________________________________________
activation_1061 (Activation) (None, 8, 8, 512)         0         
_________________________________________________________________
dropout_1061 (Dropout)       (None, 8, 8, 512)         0         
_________________________________________________________________
max_pooling2d_289 (MaxPoolin (None, 4, 4, 512)         0         
_________________________________________________________________
conv2d_818 (Conv2D)          (None, 4, 4, 256)         1179904   
_________________________________________________________________
activation_1062 (Activation) (None, 4, 4, 256)         0         
_________________________________________________________________
dropout_1062 (Dropout)       (None, 4, 4, 256)         0         
_________________________________________________________________
conv2d_819 (Conv2D)          (None, 4, 4, 128)         295040    
_________________________________________________________________
activation_1063 (Activation) (None, 4, 4, 128)         0         
_________________________________________________________________
dropout_1063 (Dropout)       (None, 4, 4, 128)         0         
_________________________________________________________________
conv2d_820 (Conv2D)          (None, 4, 4, 16)          18448     
_________________________________________________________________
batch_normalization_435 (Bat (None, 4, 4, 16)          64        
_________________________________________________________________
activation_1064 (Activation) (None, 4, 4, 16)          0         
_________________________________________________________________
dropout_1064 (Dropout)       (None, 4, 4, 16)          0         
_________________________________________________________________
flatten_149 (Flatten)        (None, 256)               0         
_________________________________________________________________
dense_393 (Dense)            (None, 128)               32896     
_________________________________________________________________
activation_1065 (Activation) (None, 128)               0         
_________________________________________________________________
dropout_1065 (Dropout)       (None, 128)               0         
_________________________________________________________________
dense_394 (Dense)            (None, 10)                1290      
=================================================================
Total params: 3,900,378
Trainable params: 3,897,786
Non-trainable params: 2,592
_________________________________________________________________
