Model: "sequential_268"
_________________________________________________________________
Layer (type)                 Output Shape              Param #   
=================================================================
conv2d_1606 (Conv2D)         (None, 32, 32, 256)       7168      
_________________________________________________________________
batch_normalization_795 (Bat (None, 32, 32, 256)       1024      
_________________________________________________________________
activation_1970 (Activation) (None, 32, 32, 256)       0         
_________________________________________________________________
dropout_1970 (Dropout)       (None, 32, 32, 256)       0         
_________________________________________________________________
conv2d_1607 (Conv2D)         (None, 32, 32, 512)       1180160   
_________________________________________________________________
batch_normalization_796 (Bat (None, 32, 32, 512)       2048      
_________________________________________________________________
activation_1971 (Activation) (None, 32, 32, 512)       0         
_________________________________________________________________
dropout_1971 (Dropout)       (None, 32, 32, 512)       0         
_________________________________________________________________
max_pooling2d_501 (MaxPoolin (None, 16, 16, 512)       0         
_________________________________________________________________
conv2d_1608 (Conv2D)         (None, 16, 16, 128)       589952    
_________________________________________________________________
activation_1972 (Activation) (None, 16, 16, 128)       0         
_________________________________________________________________
dropout_1972 (Dropout)       (None, 16, 16, 128)       0         
_________________________________________________________________
max_pooling2d_502 (MaxPoolin (None, 8, 8, 128)         0         
_________________________________________________________________
conv2d_1609 (Conv2D)         (None, 8, 8, 512)         590336    
_________________________________________________________________
batch_normalization_797 (Bat (None, 8, 8, 512)         2048      
_________________________________________________________________
activation_1973 (Activation) (None, 8, 8, 512)         0         
_________________________________________________________________
dropout_1973 (Dropout)       (None, 8, 8, 512)         0         
_________________________________________________________________
conv2d_1610 (Conv2D)         (None, 8, 8, 256)         1179904   
_________________________________________________________________
activation_1974 (Activation) (None, 8, 8, 256)         0         
_________________________________________________________________
dropout_1974 (Dropout)       (None, 8, 8, 256)         0         
_________________________________________________________________
conv2d_1611 (Conv2D)         (None, 8, 8, 128)         295040    
_________________________________________________________________
activation_1975 (Activation) (None, 8, 8, 128)         0         
_________________________________________________________________
dropout_1975 (Dropout)       (None, 8, 8, 128)         0         
_________________________________________________________________
conv2d_1612 (Conv2D)         (None, 8, 8, 16)          18448     
_________________________________________________________________
batch_normalization_798 (Bat (None, 8, 8, 16)          64        
_________________________________________________________________
activation_1976 (Activation) (None, 8, 8, 16)          0         
_________________________________________________________________
dropout_1976 (Dropout)       (None, 8, 8, 16)          0         
_________________________________________________________________
flatten_268 (Flatten)        (None, 1024)              0         
_________________________________________________________________
dense_632 (Dense)            (None, 128)               131200    
_________________________________________________________________
activation_1977 (Activation) (None, 128)               0         
_________________________________________________________________
dropout_1977 (Dropout)       (None, 128)               0         
_________________________________________________________________
dense_633 (Dense)            (None, 10)                1290      
=================================================================
Total params: 3,998,682
Trainable params: 3,996,090
Non-trainable params: 2,592
_________________________________________________________________
