Model: "sequential_380"
_________________________________________________________________
Layer (type)                 Output Shape              Param #   
=================================================================
conv2d_2336 (Conv2D)         (None, 32, 32, 64)        1792      
_________________________________________________________________
batch_normalization_1115 (Ba (None, 32, 32, 64)        256       
_________________________________________________________________
activation_2792 (Activation) (None, 32, 32, 64)        0         
_________________________________________________________________
dropout_2792 (Dropout)       (None, 32, 32, 64)        0         
_________________________________________________________________
conv2d_2337 (Conv2D)         (None, 32, 32, 128)       73856     
_________________________________________________________________
activation_2793 (Activation) (None, 32, 32, 128)       0         
_________________________________________________________________
dropout_2793 (Dropout)       (None, 32, 32, 128)       0         
_________________________________________________________________
max_pooling2d_682 (MaxPoolin (None, 16, 16, 128)       0         
_________________________________________________________________
conv2d_2338 (Conv2D)         (None, 16, 16, 32)        36896     
_________________________________________________________________
activation_2794 (Activation) (None, 16, 16, 32)        0         
_________________________________________________________________
dropout_2794 (Dropout)       (None, 16, 16, 32)        0         
_________________________________________________________________
conv2d_2339 (Conv2D)         (None, 16, 16, 256)       73984     
_________________________________________________________________
activation_2795 (Activation) (None, 16, 16, 256)       0         
_________________________________________________________________
dropout_2795 (Dropout)       (None, 16, 16, 256)       0         
_________________________________________________________________
conv2d_2340 (Conv2D)         (None, 16, 16, 128)       295040    
_________________________________________________________________
activation_2796 (Activation) (None, 16, 16, 128)       0         
_________________________________________________________________
dropout_2796 (Dropout)       (None, 16, 16, 128)       0         
_________________________________________________________________
conv2d_2341 (Conv2D)         (None, 16, 16, 16)        18448     
_________________________________________________________________
batch_normalization_1116 (Ba (None, 16, 16, 16)        64        
_________________________________________________________________
activation_2797 (Activation) (None, 16, 16, 16)        0         
_________________________________________________________________
dropout_2797 (Dropout)       (None, 16, 16, 16)        0         
_________________________________________________________________
flatten_380 (Flatten)        (None, 4096)              0         
_________________________________________________________________
dense_836 (Dense)            (None, 128)               524416    
_________________________________________________________________
activation_2798 (Activation) (None, 128)               0         
_________________________________________________________________
dropout_2798 (Dropout)       (None, 128)               0         
_________________________________________________________________
dense_837 (Dense)            (None, 10)                1290      
=================================================================
Total params: 1,026,042
Trainable params: 1,025,882
Non-trainable params: 160
_________________________________________________________________
