Model: "sequential_175"
_________________________________________________________________
Layer (type)                 Output Shape              Param #   
=================================================================
conv2d_979 (Conv2D)          (None, 32, 32, 256)       7168      
_________________________________________________________________
batch_normalization_506 (Bat (None, 32, 32, 256)       1024      
_________________________________________________________________
activation_1253 (Activation) (None, 32, 32, 256)       0         
_________________________________________________________________
dropout_1253 (Dropout)       (None, 32, 32, 256)       0         
_________________________________________________________________
conv2d_980 (Conv2D)          (None, 32, 32, 512)       1180160   
_________________________________________________________________
batch_normalization_507 (Bat (None, 32, 32, 512)       2048      
_________________________________________________________________
activation_1254 (Activation) (None, 32, 32, 512)       0         
_________________________________________________________________
dropout_1254 (Dropout)       (None, 32, 32, 512)       0         
_________________________________________________________________
max_pooling2d_330 (MaxPoolin (None, 16, 16, 512)       0         
_________________________________________________________________
conv2d_981 (Conv2D)          (None, 16, 16, 128)       589952    
_________________________________________________________________
activation_1255 (Activation) (None, 16, 16, 128)       0         
_________________________________________________________________
dropout_1255 (Dropout)       (None, 16, 16, 128)       0         
_________________________________________________________________
max_pooling2d_331 (MaxPoolin (None, 8, 8, 128)         0         
_________________________________________________________________
conv2d_982 (Conv2D)          (None, 8, 8, 512)         590336    
_________________________________________________________________
batch_normalization_508 (Bat (None, 8, 8, 512)         2048      
_________________________________________________________________
activation_1256 (Activation) (None, 8, 8, 512)         0         
_________________________________________________________________
dropout_1256 (Dropout)       (None, 8, 8, 512)         0         
_________________________________________________________________
conv2d_983 (Conv2D)          (None, 8, 8, 256)         1179904   
_________________________________________________________________
activation_1257 (Activation) (None, 8, 8, 256)         0         
_________________________________________________________________
dropout_1257 (Dropout)       (None, 8, 8, 256)         0         
_________________________________________________________________
conv2d_984 (Conv2D)          (None, 8, 8, 128)         295040    
_________________________________________________________________
activation_1258 (Activation) (None, 8, 8, 128)         0         
_________________________________________________________________
dropout_1258 (Dropout)       (None, 8, 8, 128)         0         
_________________________________________________________________
max_pooling2d_332 (MaxPoolin (None, 4, 4, 128)         0         
_________________________________________________________________
conv2d_985 (Conv2D)          (None, 4, 4, 512)         590336    
_________________________________________________________________
activation_1259 (Activation) (None, 4, 4, 512)         0         
_________________________________________________________________
dropout_1259 (Dropout)       (None, 4, 4, 512)         0         
_________________________________________________________________
flatten_175 (Flatten)        (None, 8192)              0         
_________________________________________________________________
dense_449 (Dense)            (None, 16)                131088    
_________________________________________________________________
activation_1260 (Activation) (None, 16)                0         
_________________________________________________________________
dropout_1260 (Dropout)       (None, 16)                0         
_________________________________________________________________
dense_450 (Dense)            (None, 32)                544       
_________________________________________________________________
activation_1261 (Activation) (None, 32)                0         
_________________________________________________________________
dropout_1261 (Dropout)       (None, 32)                0         
_________________________________________________________________
dense_451 (Dense)            (None, 10)                330       
=================================================================
Total params: 4,569,978
Trainable params: 4,567,418
Non-trainable params: 2,560
_________________________________________________________________
