Model: "sequential_106"
_________________________________________________________________
Layer (type)                 Output Shape              Param #   
=================================================================
conv2d_570 (Conv2D)          (None, 32, 32, 256)       7168      
_________________________________________________________________
batch_normalization_339 (Bat (None, 32, 32, 256)       1024      
_________________________________________________________________
activation_751 (Activation)  (None, 32, 32, 256)       0         
_________________________________________________________________
dropout_751 (Dropout)        (None, 32, 32, 256)       0         
_________________________________________________________________
max_pooling2d_204 (MaxPoolin (None, 16, 16, 256)       0         
_________________________________________________________________
conv2d_571 (Conv2D)          (None, 16, 16, 128)       295040    
_________________________________________________________________
activation_752 (Activation)  (None, 16, 16, 128)       0         
_________________________________________________________________
dropout_752 (Dropout)        (None, 16, 16, 128)       0         
_________________________________________________________________
max_pooling2d_205 (MaxPoolin (None, 8, 8, 128)         0         
_________________________________________________________________
conv2d_572 (Conv2D)          (None, 8, 8, 32)          36896     
_________________________________________________________________
activation_753 (Activation)  (None, 8, 8, 32)          0         
_________________________________________________________________
dropout_753 (Dropout)        (None, 8, 8, 32)          0         
_________________________________________________________________
conv2d_573 (Conv2D)          (None, 8, 8, 32)          9248      
_________________________________________________________________
activation_754 (Activation)  (None, 8, 8, 32)          0         
_________________________________________________________________
dropout_754 (Dropout)        (None, 8, 8, 32)          0         
_________________________________________________________________
conv2d_574 (Conv2D)          (None, 8, 8, 64)          18496     
_________________________________________________________________
batch_normalization_340 (Bat (None, 8, 8, 64)          256       
_________________________________________________________________
activation_755 (Activation)  (None, 8, 8, 64)          0         
_________________________________________________________________
dropout_755 (Dropout)        (None, 8, 8, 64)          0         
_________________________________________________________________
flatten_106 (Flatten)        (None, 4096)              0         
_________________________________________________________________
dense_287 (Dense)            (None, 32)                131104    
_________________________________________________________________
batch_normalization_341 (Bat (None, 32)                128       
_________________________________________________________________
activation_756 (Activation)  (None, 32)                0         
_________________________________________________________________
dropout_756 (Dropout)        (None, 32)                0         
_________________________________________________________________
dense_288 (Dense)            (None, 32)                1056      
_________________________________________________________________
activation_757 (Activation)  (None, 32)                0         
_________________________________________________________________
dropout_757 (Dropout)        (None, 32)                0         
_________________________________________________________________
dense_289 (Dense)            (None, 10)                330       
=================================================================
Total params: 500,746
Trainable params: 500,042
Non-trainable params: 704
_________________________________________________________________
