Model: "sequential_304"
_________________________________________________________________
Layer (type)                 Output Shape              Param #   
=================================================================
conv2d_1850 (Conv2D)         (None, 32, 32, 16)        448       
_________________________________________________________________
activation_2246 (Activation) (None, 32, 32, 16)        0         
_________________________________________________________________
dropout_2246 (Dropout)       (None, 32, 32, 16)        0         
_________________________________________________________________
conv2d_1851 (Conv2D)         (None, 32, 32, 512)       74240     
_________________________________________________________________
batch_normalization_916 (Bat (None, 32, 32, 512)       2048      
_________________________________________________________________
activation_2247 (Activation) (None, 32, 32, 512)       0         
_________________________________________________________________
dropout_2247 (Dropout)       (None, 32, 32, 512)       0         
_________________________________________________________________
max_pooling2d_569 (MaxPoolin (None, 16, 16, 512)       0         
_________________________________________________________________
conv2d_1852 (Conv2D)         (None, 16, 16, 128)       589952    
_________________________________________________________________
activation_2248 (Activation) (None, 16, 16, 128)       0         
_________________________________________________________________
dropout_2248 (Dropout)       (None, 16, 16, 128)       0         
_________________________________________________________________
max_pooling2d_570 (MaxPoolin (None, 8, 8, 128)         0         
_________________________________________________________________
conv2d_1853 (Conv2D)         (None, 8, 8, 512)         590336    
_________________________________________________________________
activation_2249 (Activation) (None, 8, 8, 512)         0         
_________________________________________________________________
dropout_2249 (Dropout)       (None, 8, 8, 512)         0         
_________________________________________________________________
conv2d_1854 (Conv2D)         (None, 8, 8, 256)         1179904   
_________________________________________________________________
activation_2250 (Activation) (None, 8, 8, 256)         0         
_________________________________________________________________
dropout_2250 (Dropout)       (None, 8, 8, 256)         0         
_________________________________________________________________
conv2d_1855 (Conv2D)         (None, 8, 8, 128)         295040    
_________________________________________________________________
activation_2251 (Activation) (None, 8, 8, 128)         0         
_________________________________________________________________
dropout_2251 (Dropout)       (None, 8, 8, 128)         0         
_________________________________________________________________
conv2d_1856 (Conv2D)         (None, 8, 8, 16)          18448     
_________________________________________________________________
batch_normalization_917 (Bat (None, 8, 8, 16)          64        
_________________________________________________________________
activation_2252 (Activation) (None, 8, 8, 16)          0         
_________________________________________________________________
dropout_2252 (Dropout)       (None, 8, 8, 16)          0         
_________________________________________________________________
flatten_304 (Flatten)        (None, 1024)              0         
_________________________________________________________________
dense_700 (Dense)            (None, 128)               131200    
_________________________________________________________________
activation_2253 (Activation) (None, 128)               0         
_________________________________________________________________
dropout_2253 (Dropout)       (None, 128)               0         
_________________________________________________________________
dense_701 (Dense)            (None, 10)                1290      
=================================================================
Total params: 2,882,970
Trainable params: 2,881,914
Non-trainable params: 1,056
_________________________________________________________________
