Model: "sequential_56"
_________________________________________________________________
Layer (type)                 Output Shape              Param #   
=================================================================
conv2d_302 (Conv2D)          (None, 32, 32, 64)        1792      
_________________________________________________________________
activation_400 (Activation)  (None, 32, 32, 64)        0         
_________________________________________________________________
dropout_400 (Dropout)        (None, 32, 32, 64)        0         
_________________________________________________________________
conv2d_303 (Conv2D)          (None, 32, 32, 32)        18464     
_________________________________________________________________
activation_401 (Activation)  (None, 32, 32, 32)        0         
_________________________________________________________________
dropout_401 (Dropout)        (None, 32, 32, 32)        0         
_________________________________________________________________
conv2d_304 (Conv2D)          (None, 32, 32, 32)        9248      
_________________________________________________________________
activation_402 (Activation)  (None, 32, 32, 32)        0         
_________________________________________________________________
dropout_402 (Dropout)        (None, 32, 32, 32)        0         
_________________________________________________________________
max_pooling2d_113 (MaxPoolin (None, 16, 16, 32)        0         
_________________________________________________________________
conv2d_305 (Conv2D)          (None, 16, 16, 512)       147968    
_________________________________________________________________
activation_403 (Activation)  (None, 16, 16, 512)       0         
_________________________________________________________________
dropout_403 (Dropout)        (None, 16, 16, 512)       0         
_________________________________________________________________
max_pooling2d_114 (MaxPoolin (None, 8, 8, 512)         0         
_________________________________________________________________
flatten_56 (Flatten)         (None, 32768)             0         
_________________________________________________________________
dense_154 (Dense)            (None, 16)                524304    
_________________________________________________________________
activation_404 (Activation)  (None, 16)                0         
_________________________________________________________________
dropout_404 (Dropout)        (None, 16)                0         
_________________________________________________________________
dense_155 (Dense)            (None, 32)                544       
_________________________________________________________________
activation_405 (Activation)  (None, 32)                0         
_________________________________________________________________
dropout_405 (Dropout)        (None, 32)                0         
_________________________________________________________________
dense_156 (Dense)            (None, 10)                330       
=================================================================
Total params: 702,650
Trainable params: 702,650
Non-trainable params: 0
_________________________________________________________________
