Model: "sequential_131"
_________________________________________________________________
Layer (type)                 Output Shape              Param #   
=================================================================
conv2d_707 (Conv2D)          (None, 32, 32, 256)       7168      
_________________________________________________________________
batch_normalization_389 (Bat (None, 32, 32, 256)       1024      
_________________________________________________________________
activation_927 (Activation)  (None, 32, 32, 256)       0         
_________________________________________________________________
dropout_927 (Dropout)        (None, 32, 32, 256)       0         
_________________________________________________________________
conv2d_708 (Conv2D)          (None, 32, 32, 512)       1180160   
_________________________________________________________________
batch_normalization_390 (Bat (None, 32, 32, 512)       2048      
_________________________________________________________________
activation_928 (Activation)  (None, 32, 32, 512)       0         
_________________________________________________________________
dropout_928 (Dropout)        (None, 32, 32, 512)       0         
_________________________________________________________________
max_pooling2d_254 (MaxPoolin (None, 16, 16, 512)       0         
_________________________________________________________________
conv2d_709 (Conv2D)          (None, 16, 16, 128)       589952    
_________________________________________________________________
activation_929 (Activation)  (None, 16, 16, 128)       0         
_________________________________________________________________
dropout_929 (Dropout)        (None, 16, 16, 128)       0         
_________________________________________________________________
max_pooling2d_255 (MaxPoolin (None, 8, 8, 128)         0         
_________________________________________________________________
conv2d_710 (Conv2D)          (None, 8, 8, 512)         590336    
_________________________________________________________________
batch_normalization_391 (Bat (None, 8, 8, 512)         2048      
_________________________________________________________________
activation_930 (Activation)  (None, 8, 8, 512)         0         
_________________________________________________________________
dropout_930 (Dropout)        (None, 8, 8, 512)         0         
_________________________________________________________________
conv2d_711 (Conv2D)          (None, 8, 8, 32)          147488    
_________________________________________________________________
activation_931 (Activation)  (None, 8, 8, 32)          0         
_________________________________________________________________
dropout_931 (Dropout)        (None, 8, 8, 32)          0         
_________________________________________________________________
max_pooling2d_256 (MaxPoolin (None, 4, 4, 32)          0         
_________________________________________________________________
conv2d_712 (Conv2D)          (None, 4, 4, 512)         147968    
_________________________________________________________________
activation_932 (Activation)  (None, 4, 4, 512)         0         
_________________________________________________________________
dropout_932 (Dropout)        (None, 4, 4, 512)         0         
_________________________________________________________________
flatten_131 (Flatten)        (None, 8192)              0         
_________________________________________________________________
dense_351 (Dense)            (None, 16)                131088    
_________________________________________________________________
activation_933 (Activation)  (None, 16)                0         
_________________________________________________________________
dropout_933 (Dropout)        (None, 16)                0         
_________________________________________________________________
dense_352 (Dense)            (None, 32)                544       
_________________________________________________________________
activation_934 (Activation)  (None, 32)                0         
_________________________________________________________________
dropout_934 (Dropout)        (None, 32)                0         
_________________________________________________________________
dense_353 (Dense)            (None, 10)                330       
=================================================================
Total params: 2,800,154
Trainable params: 2,797,594
Non-trainable params: 2,560
_________________________________________________________________
