Model: "sequential_11"
_________________________________________________________________
Layer (type)                 Output Shape              Param #   
=================================================================
conv2d_58 (Conv2D)           (None, 32, 32, 128)       3584      
_________________________________________________________________
batch_normalization_39 (Batc (None, 32, 32, 128)       512       
_________________________________________________________________
activation_76 (Activation)   (None, 32, 32, 128)       0         
_________________________________________________________________
dropout_76 (Dropout)         (None, 32, 32, 128)       0         
_________________________________________________________________
max_pooling2d_20 (MaxPooling (None, 16, 16, 128)       0         
_________________________________________________________________
conv2d_59 (Conv2D)           (None, 16, 16, 512)       590336    
_________________________________________________________________
activation_77 (Activation)   (None, 16, 16, 512)       0         
_________________________________________________________________
dropout_77 (Dropout)         (None, 16, 16, 512)       0         
_________________________________________________________________
conv2d_60 (Conv2D)           (None, 16, 16, 1024)      4719616   
_________________________________________________________________
activation_78 (Activation)   (None, 16, 16, 1024)      0         
_________________________________________________________________
dropout_78 (Dropout)         (None, 16, 16, 1024)      0         
_________________________________________________________________
conv2d_61 (Conv2D)           (None, 16, 16, 256)       2359552   
_________________________________________________________________
activation_79 (Activation)   (None, 16, 16, 256)       0         
_________________________________________________________________
dropout_79 (Dropout)         (None, 16, 16, 256)       0         
_________________________________________________________________
max_pooling2d_21 (MaxPooling (None, 8, 8, 256)         0         
_________________________________________________________________
flatten_11 (Flatten)         (None, 16384)             0         
_________________________________________________________________
dense_29 (Dense)             (None, 32)                524320    
_________________________________________________________________
activation_80 (Activation)   (None, 32)                0         
_________________________________________________________________
dropout_80 (Dropout)         (None, 32)                0         
_________________________________________________________________
dense_30 (Dense)             (None, 10)                330       
=================================================================
Total params: 8,198,250
Trainable params: 8,197,994
Non-trainable params: 256
_________________________________________________________________
