Model: "sequential_387"
_________________________________________________________________
Layer (type)                 Output Shape              Param #   
=================================================================
conv2d_2380 (Conv2D)         (None, 32, 32, 16)        448       
_________________________________________________________________
batch_normalization_1131 (Ba (None, 32, 32, 16)        64        
_________________________________________________________________
activation_2840 (Activation) (None, 32, 32, 16)        0         
_________________________________________________________________
dropout_2840 (Dropout)       (None, 32, 32, 16)        0         
_________________________________________________________________
conv2d_2381 (Conv2D)         (None, 32, 32, 128)       18560     
_________________________________________________________________
activation_2841 (Activation) (None, 32, 32, 128)       0         
_________________________________________________________________
dropout_2841 (Dropout)       (None, 32, 32, 128)       0         
_________________________________________________________________
max_pooling2d_690 (MaxPoolin (None, 16, 16, 128)       0         
_________________________________________________________________
conv2d_2382 (Conv2D)         (None, 16, 16, 32)        36896     
_________________________________________________________________
activation_2842 (Activation) (None, 16, 16, 32)        0         
_________________________________________________________________
dropout_2842 (Dropout)       (None, 16, 16, 32)        0         
_________________________________________________________________
conv2d_2383 (Conv2D)         (None, 16, 16, 128)       36992     
_________________________________________________________________
activation_2843 (Activation) (None, 16, 16, 128)       0         
_________________________________________________________________
dropout_2843 (Dropout)       (None, 16, 16, 128)       0         
_________________________________________________________________
conv2d_2384 (Conv2D)         (None, 16, 16, 16)        18448     
_________________________________________________________________
batch_normalization_1132 (Ba (None, 16, 16, 16)        64        
_________________________________________________________________
activation_2844 (Activation) (None, 16, 16, 16)        0         
_________________________________________________________________
dropout_2844 (Dropout)       (None, 16, 16, 16)        0         
_________________________________________________________________
flatten_387 (Flatten)        (None, 4096)              0         
_________________________________________________________________
dense_847 (Dense)            (None, 512)               2097664   
_________________________________________________________________
activation_2845 (Activation) (None, 512)               0         
_________________________________________________________________
dropout_2845 (Dropout)       (None, 512)               0         
_________________________________________________________________
dense_848 (Dense)            (None, 10)                5130      
=================================================================
Total params: 2,214,266
Trainable params: 2,214,202
Non-trainable params: 64
_________________________________________________________________
