Model: "sequential_201"
_________________________________________________________________
Layer (type)                 Output Shape              Param #   
=================================================================
conv2d_1151 (Conv2D)         (None, 32, 32, 16)        448       
_________________________________________________________________
activation_1455 (Activation) (None, 32, 32, 16)        0         
_________________________________________________________________
dropout_1455 (Dropout)       (None, 32, 32, 16)        0         
_________________________________________________________________
conv2d_1152 (Conv2D)         (None, 32, 32, 512)       74240     
_________________________________________________________________
batch_normalization_578 (Bat (None, 32, 32, 512)       2048      
_________________________________________________________________
activation_1456 (Activation) (None, 32, 32, 512)       0         
_________________________________________________________________
dropout_1456 (Dropout)       (None, 32, 32, 512)       0         
_________________________________________________________________
max_pooling2d_374 (MaxPoolin (None, 16, 16, 512)       0         
_________________________________________________________________
conv2d_1153 (Conv2D)         (None, 16, 16, 128)       589952    
_________________________________________________________________
activation_1457 (Activation) (None, 16, 16, 128)       0         
_________________________________________________________________
dropout_1457 (Dropout)       (None, 16, 16, 128)       0         
_________________________________________________________________
max_pooling2d_375 (MaxPoolin (None, 8, 8, 128)         0         
_________________________________________________________________
conv2d_1154 (Conv2D)         (None, 8, 8, 512)         590336    
_________________________________________________________________
batch_normalization_579 (Bat (None, 8, 8, 512)         2048      
_________________________________________________________________
activation_1458 (Activation) (None, 8, 8, 512)         0         
_________________________________________________________________
dropout_1458 (Dropout)       (None, 8, 8, 512)         0         
_________________________________________________________________
conv2d_1155 (Conv2D)         (None, 8, 8, 256)         1179904   
_________________________________________________________________
activation_1459 (Activation) (None, 8, 8, 256)         0         
_________________________________________________________________
dropout_1459 (Dropout)       (None, 8, 8, 256)         0         
_________________________________________________________________
conv2d_1156 (Conv2D)         (None, 8, 8, 128)         295040    
_________________________________________________________________
activation_1460 (Activation) (None, 8, 8, 128)         0         
_________________________________________________________________
dropout_1460 (Dropout)       (None, 8, 8, 128)         0         
_________________________________________________________________
conv2d_1157 (Conv2D)         (None, 8, 8, 16)          18448     
_________________________________________________________________
batch_normalization_580 (Bat (None, 8, 8, 16)          64        
_________________________________________________________________
activation_1461 (Activation) (None, 8, 8, 16)          0         
_________________________________________________________________
dropout_1461 (Dropout)       (None, 8, 8, 16)          0         
_________________________________________________________________
flatten_201 (Flatten)        (None, 1024)              0         
_________________________________________________________________
dense_505 (Dense)            (None, 128)               131200    
_________________________________________________________________
activation_1462 (Activation) (None, 128)               0         
_________________________________________________________________
dropout_1462 (Dropout)       (None, 128)               0         
_________________________________________________________________
dense_506 (Dense)            (None, 10)                1290      
=================================================================
Total params: 2,885,018
Trainable params: 2,882,938
Non-trainable params: 2,080
_________________________________________________________________
