Model: "sequential_372"
_________________________________________________________________
Layer (type)                 Output Shape              Param #   
=================================================================
conv2d_2284 (Conv2D)         (None, 32, 32, 256)       7168      
_________________________________________________________________
activation_2736 (Activation) (None, 32, 32, 256)       0         
_________________________________________________________________
dropout_2736 (Dropout)       (None, 32, 32, 256)       0         
_________________________________________________________________
conv2d_2285 (Conv2D)         (None, 32, 32, 128)       295040    
_________________________________________________________________
batch_normalization_1095 (Ba (None, 32, 32, 128)       512       
_________________________________________________________________
activation_2737 (Activation) (None, 32, 32, 128)       0         
_________________________________________________________________
dropout_2737 (Dropout)       (None, 32, 32, 128)       0         
_________________________________________________________________
max_pooling2d_667 (MaxPoolin (None, 16, 16, 128)       0         
_________________________________________________________________
conv2d_2286 (Conv2D)         (None, 16, 16, 128)       147584    
_________________________________________________________________
activation_2738 (Activation) (None, 16, 16, 128)       0         
_________________________________________________________________
dropout_2738 (Dropout)       (None, 16, 16, 128)       0         
_________________________________________________________________
max_pooling2d_668 (MaxPoolin (None, 8, 8, 128)         0         
_________________________________________________________________
conv2d_2287 (Conv2D)         (None, 8, 8, 512)         590336    
_________________________________________________________________
batch_normalization_1096 (Ba (None, 8, 8, 512)         2048      
_________________________________________________________________
activation_2739 (Activation) (None, 8, 8, 512)         0         
_________________________________________________________________
dropout_2739 (Dropout)       (None, 8, 8, 512)         0         
_________________________________________________________________
conv2d_2288 (Conv2D)         (None, 8, 8, 1024)        4719616   
_________________________________________________________________
activation_2740 (Activation) (None, 8, 8, 1024)        0         
_________________________________________________________________
dropout_2740 (Dropout)       (None, 8, 8, 1024)        0         
_________________________________________________________________
max_pooling2d_669 (MaxPoolin (None, 4, 4, 1024)        0         
_________________________________________________________________
conv2d_2289 (Conv2D)         (None, 4, 4, 128)         1179776   
_________________________________________________________________
batch_normalization_1097 (Ba (None, 4, 4, 128)         512       
_________________________________________________________________
activation_2741 (Activation) (None, 4, 4, 128)         0         
_________________________________________________________________
dropout_2741 (Dropout)       (None, 4, 4, 128)         0         
_________________________________________________________________
conv2d_2290 (Conv2D)         (None, 4, 4, 16)          18448     
_________________________________________________________________
batch_normalization_1098 (Ba (None, 4, 4, 16)          64        
_________________________________________________________________
activation_2742 (Activation) (None, 4, 4, 16)          0         
_________________________________________________________________
dropout_2742 (Dropout)       (None, 4, 4, 16)          0         
_________________________________________________________________
flatten_372 (Flatten)        (None, 256)               0         
_________________________________________________________________
dense_824 (Dense)            (None, 10)                2570      
=================================================================
Total params: 6,963,674
Trainable params: 6,962,106
Non-trainable params: 1,568
_________________________________________________________________
