Model: "sequential_21"
_________________________________________________________________
Layer (type)                 Output Shape              Param #   
=================================================================
conv2d_116 (Conv2D)          (None, 32, 32, 8)         224       
_________________________________________________________________
batch_normalization_79 (Batc (None, 32, 32, 8)         32        
_________________________________________________________________
activation_152 (Activation)  (None, 32, 32, 8)         0         
_________________________________________________________________
dropout_152 (Dropout)        (None, 32, 32, 8)         0         
_________________________________________________________________
conv2d_117 (Conv2D)          (None, 32, 32, 512)       37376     
_________________________________________________________________
batch_normalization_80 (Batc (None, 32, 32, 512)       2048      
_________________________________________________________________
activation_153 (Activation)  (None, 32, 32, 512)       0         
_________________________________________________________________
dropout_153 (Dropout)        (None, 32, 32, 512)       0         
_________________________________________________________________
conv2d_118 (Conv2D)          (None, 32, 32, 128)       589952    
_________________________________________________________________
batch_normalization_81 (Batc (None, 32, 32, 128)       512       
_________________________________________________________________
activation_154 (Activation)  (None, 32, 32, 128)       0         
_________________________________________________________________
dropout_154 (Dropout)        (None, 32, 32, 128)       0         
_________________________________________________________________
conv2d_119 (Conv2D)          (None, 32, 32, 32)        36896     
_________________________________________________________________
activation_155 (Activation)  (None, 32, 32, 32)        0         
_________________________________________________________________
dropout_155 (Dropout)        (None, 32, 32, 32)        0         
_________________________________________________________________
max_pooling2d_42 (MaxPooling (None, 16, 16, 32)        0         
_________________________________________________________________
conv2d_120 (Conv2D)          (None, 16, 16, 32)        9248      
_________________________________________________________________
activation_156 (Activation)  (None, 16, 16, 32)        0         
_________________________________________________________________
dropout_156 (Dropout)        (None, 16, 16, 32)        0         
_________________________________________________________________
conv2d_121 (Conv2D)          (None, 16, 16, 64)        18496     
_________________________________________________________________
batch_normalization_82 (Batc (None, 16, 16, 64)        256       
_________________________________________________________________
activation_157 (Activation)  (None, 16, 16, 64)        0         
_________________________________________________________________
dropout_157 (Dropout)        (None, 16, 16, 64)        0         
_________________________________________________________________
flatten_21 (Flatten)         (None, 16384)             0         
_________________________________________________________________
dense_57 (Dense)             (None, 32)                524320    
_________________________________________________________________
activation_158 (Activation)  (None, 32)                0         
_________________________________________________________________
dropout_158 (Dropout)        (None, 32)                0         
_________________________________________________________________
dense_58 (Dense)             (None, 64)                2112      
_________________________________________________________________
batch_normalization_83 (Batc (None, 64)                256       
_________________________________________________________________
activation_159 (Activation)  (None, 64)                0         
_________________________________________________________________
dropout_159 (Dropout)        (None, 64)                0         
_________________________________________________________________
dense_59 (Dense)             (None, 512)               33280     
_________________________________________________________________
activation_160 (Activation)  (None, 512)               0         
_________________________________________________________________
dropout_160 (Dropout)        (None, 512)               0         
_________________________________________________________________
dense_60 (Dense)             (None, 10)                5130      
=================================================================
Total params: 1,260,138
Trainable params: 1,258,586
Non-trainable params: 1,552
_________________________________________________________________
