Model: "sequential_317"
_________________________________________________________________
Layer (type)                 Output Shape              Param #   
=================================================================
conv2d_1936 (Conv2D)         (None, 32, 32, 16)        448       
_________________________________________________________________
batch_normalization_960 (Bat (None, 32, 32, 16)        64        
_________________________________________________________________
activation_2343 (Activation) (None, 32, 32, 16)        0         
_________________________________________________________________
dropout_2343 (Dropout)       (None, 32, 32, 16)        0         
_________________________________________________________________
conv2d_1937 (Conv2D)         (None, 32, 32, 128)       18560     
_________________________________________________________________
activation_2344 (Activation) (None, 32, 32, 128)       0         
_________________________________________________________________
dropout_2344 (Dropout)       (None, 32, 32, 128)       0         
_________________________________________________________________
max_pooling2d_588 (MaxPoolin (None, 16, 16, 128)       0         
_________________________________________________________________
conv2d_1938 (Conv2D)         (None, 16, 16, 32)        36896     
_________________________________________________________________
activation_2345 (Activation) (None, 16, 16, 32)        0         
_________________________________________________________________
dropout_2345 (Dropout)       (None, 16, 16, 32)        0         
_________________________________________________________________
conv2d_1939 (Conv2D)         (None, 16, 16, 256)       73984     
_________________________________________________________________
activation_2346 (Activation) (None, 16, 16, 256)       0         
_________________________________________________________________
dropout_2346 (Dropout)       (None, 16, 16, 256)       0         
_________________________________________________________________
conv2d_1940 (Conv2D)         (None, 16, 16, 128)       295040    
_________________________________________________________________
batch_normalization_961 (Bat (None, 16, 16, 128)       512       
_________________________________________________________________
activation_2347 (Activation) (None, 16, 16, 128)       0         
_________________________________________________________________
dropout_2347 (Dropout)       (None, 16, 16, 128)       0         
_________________________________________________________________
conv2d_1941 (Conv2D)         (None, 16, 16, 16)        18448     
_________________________________________________________________
batch_normalization_962 (Bat (None, 16, 16, 16)        64        
_________________________________________________________________
activation_2348 (Activation) (None, 16, 16, 16)        0         
_________________________________________________________________
dropout_2348 (Dropout)       (None, 16, 16, 16)        0         
_________________________________________________________________
flatten_317 (Flatten)        (None, 4096)              0         
_________________________________________________________________
dense_724 (Dense)            (None, 128)               524416    
_________________________________________________________________
activation_2349 (Activation) (None, 128)               0         
_________________________________________________________________
dropout_2349 (Dropout)       (None, 128)               0         
_________________________________________________________________
dense_725 (Dense)            (None, 10)                1290      
=================================================================
Total params: 969,722
Trainable params: 969,402
Non-trainable params: 320
_________________________________________________________________
