Model: "sequential_226"
_________________________________________________________________
Layer (type)                 Output Shape              Param #   
=================================================================
conv2d_1321 (Conv2D)         (None, 32, 32, 16)        448       
_________________________________________________________________
batch_normalization_655 (Bat (None, 32, 32, 16)        64        
_________________________________________________________________
activation_1649 (Activation) (None, 32, 32, 16)        0         
_________________________________________________________________
dropout_1649 (Dropout)       (None, 32, 32, 16)        0         
_________________________________________________________________
conv2d_1322 (Conv2D)         (None, 32, 32, 128)       18560     
_________________________________________________________________
batch_normalization_656 (Bat (None, 32, 32, 128)       512       
_________________________________________________________________
activation_1650 (Activation) (None, 32, 32, 128)       0         
_________________________________________________________________
dropout_1650 (Dropout)       (None, 32, 32, 128)       0         
_________________________________________________________________
max_pooling2d_421 (MaxPoolin (None, 16, 16, 128)       0         
_________________________________________________________________
conv2d_1323 (Conv2D)         (None, 16, 16, 128)       147584    
_________________________________________________________________
activation_1651 (Activation) (None, 16, 16, 128)       0         
_________________________________________________________________
dropout_1651 (Dropout)       (None, 16, 16, 128)       0         
_________________________________________________________________
max_pooling2d_422 (MaxPoolin (None, 8, 8, 128)         0         
_________________________________________________________________
conv2d_1324 (Conv2D)         (None, 8, 8, 32)          36896     
_________________________________________________________________
activation_1652 (Activation) (None, 8, 8, 32)          0         
_________________________________________________________________
dropout_1652 (Dropout)       (None, 8, 8, 32)          0         
_________________________________________________________________
conv2d_1325 (Conv2D)         (None, 8, 8, 32)          9248      
_________________________________________________________________
activation_1653 (Activation) (None, 8, 8, 32)          0         
_________________________________________________________________
dropout_1653 (Dropout)       (None, 8, 8, 32)          0         
_________________________________________________________________
conv2d_1326 (Conv2D)         (None, 8, 8, 128)         36992     
_________________________________________________________________
activation_1654 (Activation) (None, 8, 8, 128)         0         
_________________________________________________________________
dropout_1654 (Dropout)       (None, 8, 8, 128)         0         
_________________________________________________________________
conv2d_1327 (Conv2D)         (None, 8, 8, 16)          18448     
_________________________________________________________________
batch_normalization_657 (Bat (None, 8, 8, 16)          64        
_________________________________________________________________
activation_1655 (Activation) (None, 8, 8, 16)          0         
_________________________________________________________________
dropout_1655 (Dropout)       (None, 8, 8, 16)          0         
_________________________________________________________________
flatten_226 (Flatten)        (None, 1024)              0         
_________________________________________________________________
dense_554 (Dense)            (None, 128)               131200    
_________________________________________________________________
activation_1656 (Activation) (None, 128)               0         
_________________________________________________________________
dropout_1656 (Dropout)       (None, 128)               0         
_________________________________________________________________
dense_555 (Dense)            (None, 10)                1290      
=================================================================
Total params: 401,306
Trainable params: 400,986
Non-trainable params: 320
_________________________________________________________________
