Model: "sequential_159"
_________________________________________________________________
Layer (type)                 Output Shape              Param #   
=================================================================
conv2d_876 (Conv2D)          (None, 32, 32, 16)        448       
_________________________________________________________________
activation_1132 (Activation) (None, 32, 32, 16)        0         
_________________________________________________________________
dropout_1132 (Dropout)       (None, 32, 32, 16)        0         
_________________________________________________________________
conv2d_877 (Conv2D)          (None, 32, 32, 128)       18560     
_________________________________________________________________
batch_normalization_462 (Bat (None, 32, 32, 128)       512       
_________________________________________________________________
activation_1133 (Activation) (None, 32, 32, 128)       0         
_________________________________________________________________
dropout_1133 (Dropout)       (None, 32, 32, 128)       0         
_________________________________________________________________
max_pooling2d_305 (MaxPoolin (None, 16, 16, 128)       0         
_________________________________________________________________
conv2d_878 (Conv2D)          (None, 16, 16, 128)       147584    
_________________________________________________________________
activation_1134 (Activation) (None, 16, 16, 128)       0         
_________________________________________________________________
dropout_1134 (Dropout)       (None, 16, 16, 128)       0         
_________________________________________________________________
max_pooling2d_306 (MaxPoolin (None, 8, 8, 128)         0         
_________________________________________________________________
conv2d_879 (Conv2D)          (None, 8, 8, 32)          36896     
_________________________________________________________________
activation_1135 (Activation) (None, 8, 8, 32)          0         
_________________________________________________________________
dropout_1135 (Dropout)       (None, 8, 8, 32)          0         
_________________________________________________________________
conv2d_880 (Conv2D)          (None, 8, 8, 32)          9248      
_________________________________________________________________
activation_1136 (Activation) (None, 8, 8, 32)          0         
_________________________________________________________________
dropout_1136 (Dropout)       (None, 8, 8, 32)          0         
_________________________________________________________________
conv2d_881 (Conv2D)          (None, 8, 8, 128)         36992     
_________________________________________________________________
activation_1137 (Activation) (None, 8, 8, 128)         0         
_________________________________________________________________
dropout_1137 (Dropout)       (None, 8, 8, 128)         0         
_________________________________________________________________
conv2d_882 (Conv2D)          (None, 8, 8, 16)          18448     
_________________________________________________________________
batch_normalization_463 (Bat (None, 8, 8, 16)          64        
_________________________________________________________________
activation_1138 (Activation) (None, 8, 8, 16)          0         
_________________________________________________________________
dropout_1138 (Dropout)       (None, 8, 8, 16)          0         
_________________________________________________________________
flatten_159 (Flatten)        (None, 1024)              0         
_________________________________________________________________
dense_415 (Dense)            (None, 128)               131200    
_________________________________________________________________
activation_1139 (Activation) (None, 128)               0         
_________________________________________________________________
dropout_1139 (Dropout)       (None, 128)               0         
_________________________________________________________________
dense_416 (Dense)            (None, 10)                1290      
=================================================================
Total params: 401,242
Trainable params: 400,954
Non-trainable params: 288
_________________________________________________________________
