Model: "sequential_24"
_________________________________________________________________
Layer (type)                 Output Shape              Param #   
=================================================================
conv2d_131 (Conv2D)          (None, 32, 32, 256)       7168      
_________________________________________________________________
batch_normalization_90 (Batc (None, 32, 32, 256)       1024      
_________________________________________________________________
activation_175 (Activation)  (None, 32, 32, 256)       0         
_________________________________________________________________
dropout_175 (Dropout)        (None, 32, 32, 256)       0         
_________________________________________________________________
max_pooling2d_48 (MaxPooling (None, 16, 16, 256)       0         
_________________________________________________________________
conv2d_132 (Conv2D)          (None, 16, 16, 1024)      2360320   
_________________________________________________________________
batch_normalization_91 (Batc (None, 16, 16, 1024)      4096      
_________________________________________________________________
activation_176 (Activation)  (None, 16, 16, 1024)      0         
_________________________________________________________________
dropout_176 (Dropout)        (None, 16, 16, 1024)      0         
_________________________________________________________________
conv2d_133 (Conv2D)          (None, 16, 16, 16)        147472    
_________________________________________________________________
activation_177 (Activation)  (None, 16, 16, 16)        0         
_________________________________________________________________
dropout_177 (Dropout)        (None, 16, 16, 16)        0         
_________________________________________________________________
conv2d_134 (Conv2D)          (None, 16, 16, 512)       74240     
_________________________________________________________________
batch_normalization_92 (Batc (None, 16, 16, 512)       2048      
_________________________________________________________________
activation_178 (Activation)  (None, 16, 16, 512)       0         
_________________________________________________________________
dropout_178 (Dropout)        (None, 16, 16, 512)       0         
_________________________________________________________________
conv2d_135 (Conv2D)          (None, 16, 16, 1024)      4719616   
_________________________________________________________________
activation_179 (Activation)  (None, 16, 16, 1024)      0         
_________________________________________________________________
dropout_179 (Dropout)        (None, 16, 16, 1024)      0         
_________________________________________________________________
flatten_24 (Flatten)         (None, 262144)            0         
_________________________________________________________________
dense_68 (Dense)             (None, 64)                16777280  
_________________________________________________________________
batch_normalization_93 (Batc (None, 64)                256       
_________________________________________________________________
activation_180 (Activation)  (None, 64)                0         
_________________________________________________________________
dropout_180 (Dropout)        (None, 64)                0         
_________________________________________________________________
dense_69 (Dense)             (None, 512)               33280     
_________________________________________________________________
activation_181 (Activation)  (None, 512)               0         
_________________________________________________________________
dropout_181 (Dropout)        (None, 512)               0         
_________________________________________________________________
dense_70 (Dense)             (None, 10)                5130      
=================================================================
Total params: 24,131,930
Trainable params: 24,128,218
Non-trainable params: 3,712
_________________________________________________________________
