Model: "sequential_316"
_________________________________________________________________
Layer (type)                 Output Shape              Param #   
=================================================================
conv2d_1929 (Conv2D)         (None, 32, 32, 256)       7168      
_________________________________________________________________
activation_2335 (Activation) (None, 32, 32, 256)       0         
_________________________________________________________________
dropout_2335 (Dropout)       (None, 32, 32, 256)       0         
_________________________________________________________________
conv2d_1930 (Conv2D)         (None, 32, 32, 128)       295040    
_________________________________________________________________
batch_normalization_956 (Bat (None, 32, 32, 128)       512       
_________________________________________________________________
activation_2336 (Activation) (None, 32, 32, 128)       0         
_________________________________________________________________
dropout_2336 (Dropout)       (None, 32, 32, 128)       0         
_________________________________________________________________
max_pooling2d_585 (MaxPoolin (None, 16, 16, 128)       0         
_________________________________________________________________
conv2d_1931 (Conv2D)         (None, 16, 16, 128)       147584    
_________________________________________________________________
activation_2337 (Activation) (None, 16, 16, 128)       0         
_________________________________________________________________
dropout_2337 (Dropout)       (None, 16, 16, 128)       0         
_________________________________________________________________
max_pooling2d_586 (MaxPoolin (None, 8, 8, 128)         0         
_________________________________________________________________
conv2d_1932 (Conv2D)         (None, 8, 8, 512)         590336    
_________________________________________________________________
batch_normalization_957 (Bat (None, 8, 8, 512)         2048      
_________________________________________________________________
activation_2338 (Activation) (None, 8, 8, 512)         0         
_________________________________________________________________
dropout_2338 (Dropout)       (None, 8, 8, 512)         0         
_________________________________________________________________
conv2d_1933 (Conv2D)         (None, 8, 8, 1024)        4719616   
_________________________________________________________________
activation_2339 (Activation) (None, 8, 8, 1024)        0         
_________________________________________________________________
dropout_2339 (Dropout)       (None, 8, 8, 1024)        0         
_________________________________________________________________
max_pooling2d_587 (MaxPoolin (None, 4, 4, 1024)        0         
_________________________________________________________________
conv2d_1934 (Conv2D)         (None, 4, 4, 128)         1179776   
_________________________________________________________________
batch_normalization_958 (Bat (None, 4, 4, 128)         512       
_________________________________________________________________
activation_2340 (Activation) (None, 4, 4, 128)         0         
_________________________________________________________________
dropout_2340 (Dropout)       (None, 4, 4, 128)         0         
_________________________________________________________________
conv2d_1935 (Conv2D)         (None, 4, 4, 16)          18448     
_________________________________________________________________
batch_normalization_959 (Bat (None, 4, 4, 16)          64        
_________________________________________________________________
activation_2341 (Activation) (None, 4, 4, 16)          0         
_________________________________________________________________
dropout_2341 (Dropout)       (None, 4, 4, 16)          0         
_________________________________________________________________
flatten_316 (Flatten)        (None, 256)               0         
_________________________________________________________________
dense_722 (Dense)            (None, 128)               32896     
_________________________________________________________________
activation_2342 (Activation) (None, 128)               0         
_________________________________________________________________
dropout_2342 (Dropout)       (None, 128)               0         
_________________________________________________________________
dense_723 (Dense)            (None, 10)                1290      
=================================================================
Total params: 6,995,290
Trainable params: 6,993,722
Non-trainable params: 1,568
_________________________________________________________________
