Model: "sequential_125"
_________________________________________________________________
Layer (type)                 Output Shape              Param #   
=================================================================
conv2d_677 (Conv2D)          (None, 32, 32, 64)        1792      
_________________________________________________________________
activation_888 (Activation)  (None, 32, 32, 64)        0         
_________________________________________________________________
dropout_888 (Dropout)        (None, 32, 32, 64)        0         
_________________________________________________________________
conv2d_678 (Conv2D)          (None, 32, 32, 32)        18464     
_________________________________________________________________
activation_889 (Activation)  (None, 32, 32, 32)        0         
_________________________________________________________________
dropout_889 (Dropout)        (None, 32, 32, 32)        0         
_________________________________________________________________
max_pooling2d_245 (MaxPoolin (None, 16, 16, 32)        0         
_________________________________________________________________
conv2d_679 (Conv2D)          (None, 16, 16, 512)       147968    
_________________________________________________________________
activation_890 (Activation)  (None, 16, 16, 512)       0         
_________________________________________________________________
dropout_890 (Dropout)        (None, 16, 16, 512)       0         
_________________________________________________________________
max_pooling2d_246 (MaxPoolin (None, 8, 8, 512)         0         
_________________________________________________________________
flatten_125 (Flatten)        (None, 32768)             0         
_________________________________________________________________
dense_336 (Dense)            (None, 16)                524304    
_________________________________________________________________
activation_891 (Activation)  (None, 16)                0         
_________________________________________________________________
dropout_891 (Dropout)        (None, 16)                0         
_________________________________________________________________
dense_337 (Dense)            (None, 32)                544       
_________________________________________________________________
activation_892 (Activation)  (None, 32)                0         
_________________________________________________________________
dropout_892 (Dropout)        (None, 32)                0         
_________________________________________________________________
dense_338 (Dense)            (None, 10)                330       
=================================================================
Total params: 693,402
Trainable params: 693,402
Non-trainable params: 0
_________________________________________________________________
