Model: "sequential_202"
_________________________________________________________________
Layer (type)                 Output Shape              Param #   
=================================================================
conv2d_1158 (Conv2D)         (None, 32, 32, 16)        448       
_________________________________________________________________
activation_1463 (Activation) (None, 32, 32, 16)        0         
_________________________________________________________________
dropout_1463 (Dropout)       (None, 32, 32, 16)        0         
_________________________________________________________________
conv2d_1159 (Conv2D)         (None, 32, 32, 512)       74240     
_________________________________________________________________
batch_normalization_581 (Bat (None, 32, 32, 512)       2048      
_________________________________________________________________
activation_1464 (Activation) (None, 32, 32, 512)       0         
_________________________________________________________________
dropout_1464 (Dropout)       (None, 32, 32, 512)       0         
_________________________________________________________________
conv2d_1160 (Conv2D)         (None, 32, 32, 16)        73744     
_________________________________________________________________
activation_1465 (Activation) (None, 32, 32, 16)        0         
_________________________________________________________________
dropout_1465 (Dropout)       (None, 32, 32, 16)        0         
_________________________________________________________________
max_pooling2d_376 (MaxPoolin (None, 16, 16, 16)        0         
_________________________________________________________________
conv2d_1161 (Conv2D)         (None, 16, 16, 512)       74240     
_________________________________________________________________
batch_normalization_582 (Bat (None, 16, 16, 512)       2048      
_________________________________________________________________
activation_1466 (Activation) (None, 16, 16, 512)       0         
_________________________________________________________________
dropout_1466 (Dropout)       (None, 16, 16, 512)       0         
_________________________________________________________________
conv2d_1162 (Conv2D)         (None, 16, 16, 256)       1179904   
_________________________________________________________________
activation_1467 (Activation) (None, 16, 16, 256)       0         
_________________________________________________________________
dropout_1467 (Dropout)       (None, 16, 16, 256)       0         
_________________________________________________________________
conv2d_1163 (Conv2D)         (None, 16, 16, 128)       295040    
_________________________________________________________________
activation_1468 (Activation) (None, 16, 16, 128)       0         
_________________________________________________________________
dropout_1468 (Dropout)       (None, 16, 16, 128)       0         
_________________________________________________________________
conv2d_1164 (Conv2D)         (None, 16, 16, 16)        18448     
_________________________________________________________________
batch_normalization_583 (Bat (None, 16, 16, 16)        64        
_________________________________________________________________
activation_1469 (Activation) (None, 16, 16, 16)        0         
_________________________________________________________________
dropout_1469 (Dropout)       (None, 16, 16, 16)        0         
_________________________________________________________________
flatten_202 (Flatten)        (None, 4096)              0         
_________________________________________________________________
dense_507 (Dense)            (None, 128)               524416    
_________________________________________________________________
activation_1470 (Activation) (None, 128)               0         
_________________________________________________________________
dropout_1470 (Dropout)       (None, 128)               0         
_________________________________________________________________
dense_508 (Dense)            (None, 10)                1290      
=================================================================
Total params: 2,245,930
Trainable params: 2,243,850
Non-trainable params: 2,080
_________________________________________________________________
