Model: "sequential_263"
_________________________________________________________________
Layer (type)                 Output Shape              Param #   
=================================================================
conv2d_1573 (Conv2D)         (None, 32, 32, 16)        448       
_________________________________________________________________
activation_1933 (Activation) (None, 32, 32, 16)        0         
_________________________________________________________________
dropout_1933 (Dropout)       (None, 32, 32, 16)        0         
_________________________________________________________________
conv2d_1574 (Conv2D)         (None, 32, 32, 128)       18560     
_________________________________________________________________
batch_normalization_779 (Bat (None, 32, 32, 128)       512       
_________________________________________________________________
activation_1934 (Activation) (None, 32, 32, 128)       0         
_________________________________________________________________
dropout_1934 (Dropout)       (None, 32, 32, 128)       0         
_________________________________________________________________
max_pooling2d_493 (MaxPoolin (None, 16, 16, 128)       0         
_________________________________________________________________
conv2d_1575 (Conv2D)         (None, 16, 16, 128)       147584    
_________________________________________________________________
activation_1935 (Activation) (None, 16, 16, 128)       0         
_________________________________________________________________
dropout_1935 (Dropout)       (None, 16, 16, 128)       0         
_________________________________________________________________
max_pooling2d_494 (MaxPoolin (None, 8, 8, 128)         0         
_________________________________________________________________
conv2d_1576 (Conv2D)         (None, 8, 8, 32)          36896     
_________________________________________________________________
activation_1936 (Activation) (None, 8, 8, 32)          0         
_________________________________________________________________
dropout_1936 (Dropout)       (None, 8, 8, 32)          0         
_________________________________________________________________
conv2d_1577 (Conv2D)         (None, 8, 8, 128)         36992     
_________________________________________________________________
activation_1937 (Activation) (None, 8, 8, 128)         0         
_________________________________________________________________
dropout_1937 (Dropout)       (None, 8, 8, 128)         0         
_________________________________________________________________
conv2d_1578 (Conv2D)         (None, 8, 8, 16)          18448     
_________________________________________________________________
batch_normalization_780 (Bat (None, 8, 8, 16)          64        
_________________________________________________________________
activation_1938 (Activation) (None, 8, 8, 16)          0         
_________________________________________________________________
dropout_1938 (Dropout)       (None, 8, 8, 16)          0         
_________________________________________________________________
flatten_263 (Flatten)        (None, 1024)              0         
_________________________________________________________________
dense_623 (Dense)            (None, 10)                10250     
=================================================================
Total params: 269,754
Trainable params: 269,466
Non-trainable params: 288
_________________________________________________________________
