Model: "sequential_322"
_________________________________________________________________
Layer (type)                 Output Shape              Param #   
=================================================================
conv2d_1967 (Conv2D)         (None, 32, 32, 16)        448       
_________________________________________________________________
activation_2378 (Activation) (None, 32, 32, 16)        0         
_________________________________________________________________
dropout_2378 (Dropout)       (None, 32, 32, 16)        0         
_________________________________________________________________
conv2d_1968 (Conv2D)         (None, 32, 32, 512)       74240     
_________________________________________________________________
batch_normalization_973 (Bat (None, 32, 32, 512)       2048      
_________________________________________________________________
activation_2379 (Activation) (None, 32, 32, 512)       0         
_________________________________________________________________
dropout_2379 (Dropout)       (None, 32, 32, 512)       0         
_________________________________________________________________
max_pooling2d_594 (MaxPoolin (None, 16, 16, 512)       0         
_________________________________________________________________
conv2d_1969 (Conv2D)         (None, 16, 16, 128)       589952    
_________________________________________________________________
activation_2380 (Activation) (None, 16, 16, 128)       0         
_________________________________________________________________
dropout_2380 (Dropout)       (None, 16, 16, 128)       0         
_________________________________________________________________
max_pooling2d_595 (MaxPoolin (None, 8, 8, 128)         0         
_________________________________________________________________
conv2d_1970 (Conv2D)         (None, 8, 8, 512)         590336    
_________________________________________________________________
activation_2381 (Activation) (None, 8, 8, 512)         0         
_________________________________________________________________
dropout_2381 (Dropout)       (None, 8, 8, 512)         0         
_________________________________________________________________
conv2d_1971 (Conv2D)         (None, 8, 8, 256)         1179904   
_________________________________________________________________
activation_2382 (Activation) (None, 8, 8, 256)         0         
_________________________________________________________________
dropout_2382 (Dropout)       (None, 8, 8, 256)         0         
_________________________________________________________________
conv2d_1972 (Conv2D)         (None, 8, 8, 128)         295040    
_________________________________________________________________
activation_2383 (Activation) (None, 8, 8, 128)         0         
_________________________________________________________________
dropout_2383 (Dropout)       (None, 8, 8, 128)         0         
_________________________________________________________________
conv2d_1973 (Conv2D)         (None, 8, 8, 16)          18448     
_________________________________________________________________
batch_normalization_974 (Bat (None, 8, 8, 16)          64        
_________________________________________________________________
activation_2384 (Activation) (None, 8, 8, 16)          0         
_________________________________________________________________
dropout_2384 (Dropout)       (None, 8, 8, 16)          0         
_________________________________________________________________
flatten_322 (Flatten)        (None, 1024)              0         
_________________________________________________________________
dense_733 (Dense)            (None, 64)                65600     
_________________________________________________________________
batch_normalization_975 (Bat (None, 64)                256       
_________________________________________________________________
activation_2385 (Activation) (None, 64)                0         
_________________________________________________________________
dropout_2385 (Dropout)       (None, 64)                0         
_________________________________________________________________
dense_734 (Dense)            (None, 10)                650       
=================================================================
Total params: 2,816,986
Trainable params: 2,815,802
Non-trainable params: 1,184
_________________________________________________________________
