Model: "sequential_75"
_________________________________________________________________
Layer (type)                 Output Shape              Param #   
=================================================================
conv2d_402 (Conv2D)          (None, 32, 32, 256)       7168      
_________________________________________________________________
batch_normalization_258 (Bat (None, 32, 32, 256)       1024      
_________________________________________________________________
activation_536 (Activation)  (None, 32, 32, 256)       0         
_________________________________________________________________
dropout_536 (Dropout)        (None, 32, 32, 256)       0         
_________________________________________________________________
max_pooling2d_148 (MaxPoolin (None, 16, 16, 256)       0         
_________________________________________________________________
conv2d_403 (Conv2D)          (None, 16, 16, 16)        36880     
_________________________________________________________________
activation_537 (Activation)  (None, 16, 16, 16)        0         
_________________________________________________________________
dropout_537 (Dropout)        (None, 16, 16, 16)        0         
_________________________________________________________________
max_pooling2d_149 (MaxPoolin (None, 8, 8, 16)          0         
_________________________________________________________________
conv2d_404 (Conv2D)          (None, 8, 8, 128)         18560     
_________________________________________________________________
batch_normalization_259 (Bat (None, 8, 8, 128)         512       
_________________________________________________________________
activation_538 (Activation)  (None, 8, 8, 128)         0         
_________________________________________________________________
dropout_538 (Dropout)        (None, 8, 8, 128)         0         
_________________________________________________________________
max_pooling2d_150 (MaxPoolin (None, 4, 4, 128)         0         
_________________________________________________________________
conv2d_405 (Conv2D)          (None, 4, 4, 512)         590336    
_________________________________________________________________
activation_539 (Activation)  (None, 4, 4, 512)         0         
_________________________________________________________________
dropout_539 (Dropout)        (None, 4, 4, 512)         0         
_________________________________________________________________
flatten_75 (Flatten)         (None, 8192)              0         
_________________________________________________________________
dense_209 (Dense)            (None, 16)                131088    
_________________________________________________________________
activation_540 (Activation)  (None, 16)                0         
_________________________________________________________________
dropout_540 (Dropout)        (None, 16)                0         
_________________________________________________________________
dense_210 (Dense)            (None, 32)                544       
_________________________________________________________________
activation_541 (Activation)  (None, 32)                0         
_________________________________________________________________
dropout_541 (Dropout)        (None, 32)                0         
_________________________________________________________________
dense_211 (Dense)            (None, 10)                330       
=================================================================
Total params: 786,442
Trainable params: 785,674
Non-trainable params: 768
_________________________________________________________________
