Model: "sequential_338"
_________________________________________________________________
Layer (type)                 Output Shape              Param #   
=================================================================
conv2d_2070 (Conv2D)         (None, 32, 32, 16)        448       
_________________________________________________________________
batch_normalization_1015 (Ba (None, 32, 32, 16)        64        
_________________________________________________________________
activation_2496 (Activation) (None, 32, 32, 16)        0         
_________________________________________________________________
dropout_2496 (Dropout)       (None, 32, 32, 16)        0         
_________________________________________________________________
conv2d_2071 (Conv2D)         (None, 32, 32, 128)       18560     
_________________________________________________________________
activation_2497 (Activation) (None, 32, 32, 128)       0         
_________________________________________________________________
dropout_2497 (Dropout)       (None, 32, 32, 128)       0         
_________________________________________________________________
max_pooling2d_618 (MaxPoolin (None, 16, 16, 128)       0         
_________________________________________________________________
conv2d_2072 (Conv2D)         (None, 16, 16, 256)       295168    
_________________________________________________________________
activation_2498 (Activation) (None, 16, 16, 256)       0         
_________________________________________________________________
dropout_2498 (Dropout)       (None, 16, 16, 256)       0         
_________________________________________________________________
conv2d_2073 (Conv2D)         (None, 16, 16, 256)       590080    
_________________________________________________________________
activation_2499 (Activation) (None, 16, 16, 256)       0         
_________________________________________________________________
dropout_2499 (Dropout)       (None, 16, 16, 256)       0         
_________________________________________________________________
conv2d_2074 (Conv2D)         (None, 16, 16, 128)       295040    
_________________________________________________________________
batch_normalization_1016 (Ba (None, 16, 16, 128)       512       
_________________________________________________________________
activation_2500 (Activation) (None, 16, 16, 128)       0         
_________________________________________________________________
dropout_2500 (Dropout)       (None, 16, 16, 128)       0         
_________________________________________________________________
conv2d_2075 (Conv2D)         (None, 16, 16, 16)        18448     
_________________________________________________________________
batch_normalization_1017 (Ba (None, 16, 16, 16)        64        
_________________________________________________________________
activation_2501 (Activation) (None, 16, 16, 16)        0         
_________________________________________________________________
dropout_2501 (Dropout)       (None, 16, 16, 16)        0         
_________________________________________________________________
flatten_338 (Flatten)        (None, 4096)              0         
_________________________________________________________________
dense_764 (Dense)            (None, 128)               524416    
_________________________________________________________________
activation_2502 (Activation) (None, 128)               0         
_________________________________________________________________
dropout_2502 (Dropout)       (None, 128)               0         
_________________________________________________________________
dense_765 (Dense)            (None, 10)                1290      
=================================================================
Total params: 1,744,090
Trainable params: 1,743,770
Non-trainable params: 320
_________________________________________________________________
