Model: "sequential_340"
_________________________________________________________________
Layer (type)                 Output Shape              Param #   
=================================================================
conv2d_2082 (Conv2D)         (None, 32, 32, 256)       7168      
_________________________________________________________________
activation_2510 (Activation) (None, 32, 32, 256)       0         
_________________________________________________________________
dropout_2510 (Dropout)       (None, 32, 32, 256)       0         
_________________________________________________________________
conv2d_2083 (Conv2D)         (None, 32, 32, 128)       295040    
_________________________________________________________________
batch_normalization_1020 (Ba (None, 32, 32, 128)       512       
_________________________________________________________________
activation_2511 (Activation) (None, 32, 32, 128)       0         
_________________________________________________________________
dropout_2511 (Dropout)       (None, 32, 32, 128)       0         
_________________________________________________________________
max_pooling2d_620 (MaxPoolin (None, 16, 16, 128)       0         
_________________________________________________________________
conv2d_2084 (Conv2D)         (None, 16, 16, 128)       147584    
_________________________________________________________________
activation_2512 (Activation) (None, 16, 16, 128)       0         
_________________________________________________________________
dropout_2512 (Dropout)       (None, 16, 16, 128)       0         
_________________________________________________________________
max_pooling2d_621 (MaxPoolin (None, 8, 8, 128)         0         
_________________________________________________________________
conv2d_2085 (Conv2D)         (None, 8, 8, 512)         590336    
_________________________________________________________________
batch_normalization_1021 (Ba (None, 8, 8, 512)         2048      
_________________________________________________________________
activation_2513 (Activation) (None, 8, 8, 512)         0         
_________________________________________________________________
dropout_2513 (Dropout)       (None, 8, 8, 512)         0         
_________________________________________________________________
conv2d_2086 (Conv2D)         (None, 8, 8, 1024)        4719616   
_________________________________________________________________
activation_2514 (Activation) (None, 8, 8, 1024)        0         
_________________________________________________________________
dropout_2514 (Dropout)       (None, 8, 8, 1024)        0         
_________________________________________________________________
max_pooling2d_622 (MaxPoolin (None, 4, 4, 1024)        0         
_________________________________________________________________
conv2d_2087 (Conv2D)         (None, 4, 4, 128)         1179776   
_________________________________________________________________
batch_normalization_1022 (Ba (None, 4, 4, 128)         512       
_________________________________________________________________
activation_2515 (Activation) (None, 4, 4, 128)         0         
_________________________________________________________________
dropout_2515 (Dropout)       (None, 4, 4, 128)         0         
_________________________________________________________________
conv2d_2088 (Conv2D)         (None, 4, 4, 16)          18448     
_________________________________________________________________
batch_normalization_1023 (Ba (None, 4, 4, 16)          64        
_________________________________________________________________
activation_2516 (Activation) (None, 4, 4, 16)          0         
_________________________________________________________________
dropout_2516 (Dropout)       (None, 4, 4, 16)          0         
_________________________________________________________________
flatten_340 (Flatten)        (None, 256)               0         
_________________________________________________________________
dense_768 (Dense)            (None, 10)                2570      
=================================================================
Total params: 6,963,674
Trainable params: 6,962,106
Non-trainable params: 1,568
_________________________________________________________________
