Model: "sequential_394"
_________________________________________________________________
Layer (type)                 Output Shape              Param #   
=================================================================
conv2d_2418 (Conv2D)         (None, 32, 32, 16)        448       
_________________________________________________________________
batch_normalization_1146 (Ba (None, 32, 32, 16)        64        
_________________________________________________________________
activation_2884 (Activation) (None, 32, 32, 16)        0         
_________________________________________________________________
dropout_2884 (Dropout)       (None, 32, 32, 16)        0         
_________________________________________________________________
conv2d_2419 (Conv2D)         (None, 32, 32, 128)       18560     
_________________________________________________________________
activation_2885 (Activation) (None, 32, 32, 128)       0         
_________________________________________________________________
dropout_2885 (Dropout)       (None, 32, 32, 128)       0         
_________________________________________________________________
max_pooling2d_698 (MaxPoolin (None, 16, 16, 128)       0         
_________________________________________________________________
conv2d_2420 (Conv2D)         (None, 16, 16, 32)        36896     
_________________________________________________________________
activation_2886 (Activation) (None, 16, 16, 32)        0         
_________________________________________________________________
dropout_2886 (Dropout)       (None, 16, 16, 32)        0         
_________________________________________________________________
conv2d_2421 (Conv2D)         (None, 16, 16, 16)        4624      
_________________________________________________________________
activation_2887 (Activation) (None, 16, 16, 16)        0         
_________________________________________________________________
dropout_2887 (Dropout)       (None, 16, 16, 16)        0         
_________________________________________________________________
conv2d_2422 (Conv2D)         (None, 16, 16, 128)       18560     
_________________________________________________________________
activation_2888 (Activation) (None, 16, 16, 128)       0         
_________________________________________________________________
dropout_2888 (Dropout)       (None, 16, 16, 128)       0         
_________________________________________________________________
conv2d_2423 (Conv2D)         (None, 16, 16, 8)         9224      
_________________________________________________________________
batch_normalization_1147 (Ba (None, 16, 16, 8)         32        
_________________________________________________________________
activation_2889 (Activation) (None, 16, 16, 8)         0         
_________________________________________________________________
dropout_2889 (Dropout)       (None, 16, 16, 8)         0         
_________________________________________________________________
flatten_394 (Flatten)        (None, 2048)              0         
_________________________________________________________________
dense_860 (Dense)            (None, 128)               262272    
_________________________________________________________________
activation_2890 (Activation) (None, 128)               0         
_________________________________________________________________
dropout_2890 (Dropout)       (None, 128)               0         
_________________________________________________________________
dense_861 (Dense)            (None, 10)                1290      
=================================================================
Total params: 351,970
Trainable params: 351,922
Non-trainable params: 48
_________________________________________________________________
