Model: "sequential_383"
_________________________________________________________________
Layer (type)                 Output Shape              Param #   
=================================================================
conv2d_2354 (Conv2D)         (None, 32, 32, 16)        448       
_________________________________________________________________
activation_2811 (Activation) (None, 32, 32, 16)        0         
_________________________________________________________________
dropout_2811 (Dropout)       (None, 32, 32, 16)        0         
_________________________________________________________________
conv2d_2355 (Conv2D)         (None, 32, 32, 512)       74240     
_________________________________________________________________
batch_normalization_1121 (Ba (None, 32, 32, 512)       2048      
_________________________________________________________________
activation_2812 (Activation) (None, 32, 32, 512)       0         
_________________________________________________________________
dropout_2812 (Dropout)       (None, 32, 32, 512)       0         
_________________________________________________________________
max_pooling2d_684 (MaxPoolin (None, 16, 16, 512)       0         
_________________________________________________________________
conv2d_2356 (Conv2D)         (None, 16, 16, 128)       589952    
_________________________________________________________________
activation_2813 (Activation) (None, 16, 16, 128)       0         
_________________________________________________________________
dropout_2813 (Dropout)       (None, 16, 16, 128)       0         
_________________________________________________________________
max_pooling2d_685 (MaxPoolin (None, 8, 8, 128)         0         
_________________________________________________________________
conv2d_2357 (Conv2D)         (None, 8, 8, 512)         590336    
_________________________________________________________________
activation_2814 (Activation) (None, 8, 8, 512)         0         
_________________________________________________________________
dropout_2814 (Dropout)       (None, 8, 8, 512)         0         
_________________________________________________________________
conv2d_2358 (Conv2D)         (None, 8, 8, 256)         1179904   
_________________________________________________________________
activation_2815 (Activation) (None, 8, 8, 256)         0         
_________________________________________________________________
dropout_2815 (Dropout)       (None, 8, 8, 256)         0         
_________________________________________________________________
conv2d_2359 (Conv2D)         (None, 8, 8, 128)         295040    
_________________________________________________________________
activation_2816 (Activation) (None, 8, 8, 128)         0         
_________________________________________________________________
dropout_2816 (Dropout)       (None, 8, 8, 128)         0         
_________________________________________________________________
conv2d_2360 (Conv2D)         (None, 8, 8, 16)          18448     
_________________________________________________________________
batch_normalization_1122 (Ba (None, 8, 8, 16)          64        
_________________________________________________________________
activation_2817 (Activation) (None, 8, 8, 16)          0         
_________________________________________________________________
dropout_2817 (Dropout)       (None, 8, 8, 16)          0         
_________________________________________________________________
flatten_383 (Flatten)        (None, 1024)              0         
_________________________________________________________________
dense_840 (Dense)            (None, 10)                10250     
=================================================================
Total params: 2,760,730
Trainable params: 2,759,674
Non-trainable params: 1,056
_________________________________________________________________
