Model: "sequential_17"
_________________________________________________________________
Layer (type)                 Output Shape              Param #   
=================================================================
conv2d_92 (Conv2D)           (None, 32, 32, 32)        896       
_________________________________________________________________
batch_normalization_62 (Batc (None, 32, 32, 32)        128       
_________________________________________________________________
activation_121 (Activation)  (None, 32, 32, 32)        0         
_________________________________________________________________
dropout_121 (Dropout)        (None, 32, 32, 32)        0         
_________________________________________________________________
max_pooling2d_34 (MaxPooling (None, 16, 16, 32)        0         
_________________________________________________________________
conv2d_93 (Conv2D)           (None, 16, 16, 512)       147968    
_________________________________________________________________
batch_normalization_63 (Batc (None, 16, 16, 512)       2048      
_________________________________________________________________
activation_122 (Activation)  (None, 16, 16, 512)       0         
_________________________________________________________________
dropout_122 (Dropout)        (None, 16, 16, 512)       0         
_________________________________________________________________
conv2d_94 (Conv2D)           (None, 16, 16, 16)        73744     
_________________________________________________________________
activation_123 (Activation)  (None, 16, 16, 16)        0         
_________________________________________________________________
dropout_123 (Dropout)        (None, 16, 16, 16)        0         
_________________________________________________________________
conv2d_95 (Conv2D)           (None, 16, 16, 512)       74240     
_________________________________________________________________
batch_normalization_64 (Batc (None, 16, 16, 512)       2048      
_________________________________________________________________
activation_124 (Activation)  (None, 16, 16, 512)       0         
_________________________________________________________________
dropout_124 (Dropout)        (None, 16, 16, 512)       0         
_________________________________________________________________
conv2d_96 (Conv2D)           (None, 16, 16, 256)       1179904   
_________________________________________________________________
activation_125 (Activation)  (None, 16, 16, 256)       0         
_________________________________________________________________
dropout_125 (Dropout)        (None, 16, 16, 256)       0         
_________________________________________________________________
conv2d_97 (Conv2D)           (None, 16, 16, 128)       295040    
_________________________________________________________________
activation_126 (Activation)  (None, 16, 16, 128)       0         
_________________________________________________________________
dropout_126 (Dropout)        (None, 16, 16, 128)       0         
_________________________________________________________________
conv2d_98 (Conv2D)           (None, 16, 16, 16)        18448     
_________________________________________________________________
batch_normalization_65 (Batc (None, 16, 16, 16)        64        
_________________________________________________________________
activation_127 (Activation)  (None, 16, 16, 16)        0         
_________________________________________________________________
dropout_127 (Dropout)        (None, 16, 16, 16)        0         
_________________________________________________________________
flatten_17 (Flatten)         (None, 4096)              0         
_________________________________________________________________
dense_46 (Dense)             (None, 128)               524416    
_________________________________________________________________
activation_128 (Activation)  (None, 128)               0         
_________________________________________________________________
dropout_128 (Dropout)        (None, 128)               0         
_________________________________________________________________
dense_47 (Dense)             (None, 10)                1290      
=================================================================
Total params: 2,320,234
Trainable params: 2,318,090
Non-trainable params: 2,144
_________________________________________________________________
