Model: "sequential_115"
_________________________________________________________________
Layer (type)                 Output Shape              Param #   
=================================================================
conv2d_623 (Conv2D)          (None, 32, 32, 64)        1792      
_________________________________________________________________
activation_817 (Activation)  (None, 32, 32, 64)        0         
_________________________________________________________________
dropout_817 (Dropout)        (None, 32, 32, 64)        0         
_________________________________________________________________
conv2d_624 (Conv2D)          (None, 32, 32, 32)        18464     
_________________________________________________________________
activation_818 (Activation)  (None, 32, 32, 32)        0         
_________________________________________________________________
dropout_818 (Dropout)        (None, 32, 32, 32)        0         
_________________________________________________________________
conv2d_625 (Conv2D)          (None, 32, 32, 32)        9248      
_________________________________________________________________
activation_819 (Activation)  (None, 32, 32, 32)        0         
_________________________________________________________________
dropout_819 (Dropout)        (None, 32, 32, 32)        0         
_________________________________________________________________
max_pooling2d_221 (MaxPoolin (None, 16, 16, 32)        0         
_________________________________________________________________
conv2d_626 (Conv2D)          (None, 16, 16, 512)       147968    
_________________________________________________________________
activation_820 (Activation)  (None, 16, 16, 512)       0         
_________________________________________________________________
dropout_820 (Dropout)        (None, 16, 16, 512)       0         
_________________________________________________________________
max_pooling2d_222 (MaxPoolin (None, 8, 8, 512)         0         
_________________________________________________________________
flatten_115 (Flatten)        (None, 32768)             0         
_________________________________________________________________
dense_309 (Dense)            (None, 16)                524304    
_________________________________________________________________
activation_821 (Activation)  (None, 16)                0         
_________________________________________________________________
dropout_821 (Dropout)        (None, 16)                0         
_________________________________________________________________
dense_310 (Dense)            (None, 32)                544       
_________________________________________________________________
batch_normalization_362 (Bat (None, 32)                128       
_________________________________________________________________
activation_822 (Activation)  (None, 32)                0         
_________________________________________________________________
dropout_822 (Dropout)        (None, 32)                0         
_________________________________________________________________
dense_311 (Dense)            (None, 10)                330       
=================================================================
Total params: 702,778
Trainable params: 702,714
Non-trainable params: 64
_________________________________________________________________
