Model: "sequential_319"
_________________________________________________________________
Layer (type)                 Output Shape              Param #   
=================================================================
conv2d_1948 (Conv2D)         (None, 32, 32, 1024)      28672     
_________________________________________________________________
batch_normalization_966 (Bat (None, 32, 32, 1024)      4096      
_________________________________________________________________
activation_2357 (Activation) (None, 32, 32, 1024)      0         
_________________________________________________________________
dropout_2357 (Dropout)       (None, 32, 32, 1024)      0         
_________________________________________________________________
conv2d_1949 (Conv2D)         (None, 32, 32, 512)       4719104   
_________________________________________________________________
batch_normalization_967 (Bat (None, 32, 32, 512)       2048      
_________________________________________________________________
activation_2358 (Activation) (None, 32, 32, 512)       0         
_________________________________________________________________
dropout_2358 (Dropout)       (None, 32, 32, 512)       0         
_________________________________________________________________
max_pooling2d_590 (MaxPoolin (None, 16, 16, 512)       0         
_________________________________________________________________
conv2d_1950 (Conv2D)         (None, 16, 16, 128)       589952    
_________________________________________________________________
activation_2359 (Activation) (None, 16, 16, 128)       0         
_________________________________________________________________
dropout_2359 (Dropout)       (None, 16, 16, 128)       0         
_________________________________________________________________
max_pooling2d_591 (MaxPoolin (None, 8, 8, 128)         0         
_________________________________________________________________
conv2d_1951 (Conv2D)         (None, 8, 8, 512)         590336    
_________________________________________________________________
activation_2360 (Activation) (None, 8, 8, 512)         0         
_________________________________________________________________
dropout_2360 (Dropout)       (None, 8, 8, 512)         0         
_________________________________________________________________
conv2d_1952 (Conv2D)         (None, 8, 8, 256)         1179904   
_________________________________________________________________
activation_2361 (Activation) (None, 8, 8, 256)         0         
_________________________________________________________________
dropout_2361 (Dropout)       (None, 8, 8, 256)         0         
_________________________________________________________________
conv2d_1953 (Conv2D)         (None, 8, 8, 128)         295040    
_________________________________________________________________
activation_2362 (Activation) (None, 8, 8, 128)         0         
_________________________________________________________________
dropout_2362 (Dropout)       (None, 8, 8, 128)         0         
_________________________________________________________________
conv2d_1954 (Conv2D)         (None, 8, 8, 16)          18448     
_________________________________________________________________
batch_normalization_968 (Bat (None, 8, 8, 16)          64        
_________________________________________________________________
activation_2363 (Activation) (None, 8, 8, 16)          0         
_________________________________________________________________
dropout_2363 (Dropout)       (None, 8, 8, 16)          0         
_________________________________________________________________
flatten_319 (Flatten)        (None, 1024)              0         
_________________________________________________________________
dense_728 (Dense)            (None, 128)               131200    
_________________________________________________________________
activation_2364 (Activation) (None, 128)               0         
_________________________________________________________________
dropout_2364 (Dropout)       (None, 128)               0         
_________________________________________________________________
dense_729 (Dense)            (None, 10)                1290      
=================================================================
Total params: 7,560,154
Trainable params: 7,557,050
Non-trainable params: 3,104
_________________________________________________________________
