Model: "sequential_236"
_________________________________________________________________
Layer (type)                 Output Shape              Param #   
=================================================================
conv2d_1389 (Conv2D)         (None, 32, 32, 16)        448       
_________________________________________________________________
activation_1725 (Activation) (None, 32, 32, 16)        0         
_________________________________________________________________
dropout_1725 (Dropout)       (None, 32, 32, 16)        0         
_________________________________________________________________
conv2d_1390 (Conv2D)         (None, 32, 32, 128)       18560     
_________________________________________________________________
batch_normalization_688 (Bat (None, 32, 32, 128)       512       
_________________________________________________________________
activation_1726 (Activation) (None, 32, 32, 128)       0         
_________________________________________________________________
dropout_1726 (Dropout)       (None, 32, 32, 128)       0         
_________________________________________________________________
max_pooling2d_440 (MaxPoolin (None, 16, 16, 128)       0         
_________________________________________________________________
conv2d_1391 (Conv2D)         (None, 16, 16, 128)       147584    
_________________________________________________________________
activation_1727 (Activation) (None, 16, 16, 128)       0         
_________________________________________________________________
dropout_1727 (Dropout)       (None, 16, 16, 128)       0         
_________________________________________________________________
max_pooling2d_441 (MaxPoolin (None, 8, 8, 128)         0         
_________________________________________________________________
conv2d_1392 (Conv2D)         (None, 8, 8, 32)          36896     
_________________________________________________________________
activation_1728 (Activation) (None, 8, 8, 32)          0         
_________________________________________________________________
dropout_1728 (Dropout)       (None, 8, 8, 32)          0         
_________________________________________________________________
conv2d_1393 (Conv2D)         (None, 8, 8, 32)          9248      
_________________________________________________________________
activation_1729 (Activation) (None, 8, 8, 32)          0         
_________________________________________________________________
dropout_1729 (Dropout)       (None, 8, 8, 32)          0         
_________________________________________________________________
conv2d_1394 (Conv2D)         (None, 8, 8, 128)         36992     
_________________________________________________________________
activation_1730 (Activation) (None, 8, 8, 128)         0         
_________________________________________________________________
dropout_1730 (Dropout)       (None, 8, 8, 128)         0         
_________________________________________________________________
conv2d_1395 (Conv2D)         (None, 8, 8, 16)          18448     
_________________________________________________________________
batch_normalization_689 (Bat (None, 8, 8, 16)          64        
_________________________________________________________________
activation_1731 (Activation) (None, 8, 8, 16)          0         
_________________________________________________________________
dropout_1731 (Dropout)       (None, 8, 8, 16)          0         
_________________________________________________________________
flatten_236 (Flatten)        (None, 1024)              0         
_________________________________________________________________
dense_572 (Dense)            (None, 128)               131200    
_________________________________________________________________
activation_1732 (Activation) (None, 128)               0         
_________________________________________________________________
dropout_1732 (Dropout)       (None, 128)               0         
_________________________________________________________________
dense_573 (Dense)            (None, 10)                1290      
=================================================================
Total params: 401,242
Trainable params: 400,954
Non-trainable params: 288
_________________________________________________________________
