Model: "sequential_323"
_________________________________________________________________
Layer (type)                 Output Shape              Param #   
=================================================================
conv2d_1974 (Conv2D)         (None, 32, 32, 256)       7168      
_________________________________________________________________
activation_2386 (Activation) (None, 32, 32, 256)       0         
_________________________________________________________________
dropout_2386 (Dropout)       (None, 32, 32, 256)       0         
_________________________________________________________________
conv2d_1975 (Conv2D)         (None, 32, 32, 128)       295040    
_________________________________________________________________
activation_2387 (Activation) (None, 32, 32, 128)       0         
_________________________________________________________________
dropout_2387 (Dropout)       (None, 32, 32, 128)       0         
_________________________________________________________________
max_pooling2d_596 (MaxPoolin (None, 16, 16, 128)       0         
_________________________________________________________________
conv2d_1976 (Conv2D)         (None, 16, 16, 512)       590336    
_________________________________________________________________
batch_normalization_976 (Bat (None, 16, 16, 512)       2048      
_________________________________________________________________
activation_2388 (Activation) (None, 16, 16, 512)       0         
_________________________________________________________________
dropout_2388 (Dropout)       (None, 16, 16, 512)       0         
_________________________________________________________________
conv2d_1977 (Conv2D)         (None, 16, 16, 256)       1179904   
_________________________________________________________________
activation_2389 (Activation) (None, 16, 16, 256)       0         
_________________________________________________________________
dropout_2389 (Dropout)       (None, 16, 16, 256)       0         
_________________________________________________________________
conv2d_1978 (Conv2D)         (None, 16, 16, 128)       295040    
_________________________________________________________________
activation_2390 (Activation) (None, 16, 16, 128)       0         
_________________________________________________________________
dropout_2390 (Dropout)       (None, 16, 16, 128)       0         
_________________________________________________________________
conv2d_1979 (Conv2D)         (None, 16, 16, 16)        18448     
_________________________________________________________________
batch_normalization_977 (Bat (None, 16, 16, 16)        64        
_________________________________________________________________
activation_2391 (Activation) (None, 16, 16, 16)        0         
_________________________________________________________________
dropout_2391 (Dropout)       (None, 16, 16, 16)        0         
_________________________________________________________________
flatten_323 (Flatten)        (None, 4096)              0         
_________________________________________________________________
dense_735 (Dense)            (None, 128)               524416    
_________________________________________________________________
activation_2392 (Activation) (None, 128)               0         
_________________________________________________________________
dropout_2392 (Dropout)       (None, 128)               0         
_________________________________________________________________
dense_736 (Dense)            (None, 10)                1290      
=================================================================
Total params: 2,913,754
Trainable params: 2,912,698
Non-trainable params: 1,056
_________________________________________________________________
