Model: "sequential_287"
_________________________________________________________________
Layer (type)                 Output Shape              Param #   
=================================================================
conv2d_1736 (Conv2D)         (None, 32, 32, 16)        448       
_________________________________________________________________
activation_2117 (Activation) (None, 32, 32, 16)        0         
_________________________________________________________________
dropout_2117 (Dropout)       (None, 32, 32, 16)        0         
_________________________________________________________________
conv2d_1737 (Conv2D)         (None, 32, 32, 128)       18560     
_________________________________________________________________
batch_normalization_859 (Bat (None, 32, 32, 128)       512       
_________________________________________________________________
activation_2118 (Activation) (None, 32, 32, 128)       0         
_________________________________________________________________
dropout_2118 (Dropout)       (None, 32, 32, 128)       0         
_________________________________________________________________
max_pooling2d_539 (MaxPoolin (None, 16, 16, 128)       0         
_________________________________________________________________
conv2d_1738 (Conv2D)         (None, 16, 16, 128)       147584    
_________________________________________________________________
activation_2119 (Activation) (None, 16, 16, 128)       0         
_________________________________________________________________
dropout_2119 (Dropout)       (None, 16, 16, 128)       0         
_________________________________________________________________
max_pooling2d_540 (MaxPoolin (None, 8, 8, 128)         0         
_________________________________________________________________
conv2d_1739 (Conv2D)         (None, 8, 8, 512)         590336    
_________________________________________________________________
batch_normalization_860 (Bat (None, 8, 8, 512)         2048      
_________________________________________________________________
activation_2120 (Activation) (None, 8, 8, 512)         0         
_________________________________________________________________
dropout_2120 (Dropout)       (None, 8, 8, 512)         0         
_________________________________________________________________
conv2d_1740 (Conv2D)         (None, 8, 8, 1024)        4719616   
_________________________________________________________________
activation_2121 (Activation) (None, 8, 8, 1024)        0         
_________________________________________________________________
dropout_2121 (Dropout)       (None, 8, 8, 1024)        0         
_________________________________________________________________
conv2d_1741 (Conv2D)         (None, 8, 8, 128)         1179776   
_________________________________________________________________
activation_2122 (Activation) (None, 8, 8, 128)         0         
_________________________________________________________________
dropout_2122 (Dropout)       (None, 8, 8, 128)         0         
_________________________________________________________________
conv2d_1742 (Conv2D)         (None, 8, 8, 16)          18448     
_________________________________________________________________
batch_normalization_861 (Bat (None, 8, 8, 16)          64        
_________________________________________________________________
activation_2123 (Activation) (None, 8, 8, 16)          0         
_________________________________________________________________
dropout_2123 (Dropout)       (None, 8, 8, 16)          0         
_________________________________________________________________
flatten_287 (Flatten)        (None, 1024)              0         
_________________________________________________________________
dense_668 (Dense)            (None, 128)               131200    
_________________________________________________________________
activation_2124 (Activation) (None, 128)               0         
_________________________________________________________________
dropout_2124 (Dropout)       (None, 128)               0         
_________________________________________________________________
dense_669 (Dense)            (None, 10)                1290      
=================================================================
Total params: 6,809,882
Trainable params: 6,808,570
Non-trainable params: 1,312
_________________________________________________________________
