Model: "sequential_96"
_________________________________________________________________
Layer (type)                 Output Shape              Param #   
=================================================================
conv2d_516 (Conv2D)          (None, 32, 32, 32)        896       
_________________________________________________________________
batch_normalization_315 (Bat (None, 32, 32, 32)        128       
_________________________________________________________________
activation_684 (Activation)  (None, 32, 32, 32)        0         
_________________________________________________________________
dropout_684 (Dropout)        (None, 32, 32, 32)        0         
_________________________________________________________________
max_pooling2d_192 (MaxPoolin (None, 16, 16, 32)        0         
_________________________________________________________________
conv2d_517 (Conv2D)          (None, 16, 16, 512)       147968    
_________________________________________________________________
batch_normalization_316 (Bat (None, 16, 16, 512)       2048      
_________________________________________________________________
activation_685 (Activation)  (None, 16, 16, 512)       0         
_________________________________________________________________
dropout_685 (Dropout)        (None, 16, 16, 512)       0         
_________________________________________________________________
conv2d_518 (Conv2D)          (None, 16, 16, 16)        73744     
_________________________________________________________________
activation_686 (Activation)  (None, 16, 16, 16)        0         
_________________________________________________________________
dropout_686 (Dropout)        (None, 16, 16, 16)        0         
_________________________________________________________________
conv2d_519 (Conv2D)          (None, 16, 16, 512)       74240     
_________________________________________________________________
batch_normalization_317 (Bat (None, 16, 16, 512)       2048      
_________________________________________________________________
activation_687 (Activation)  (None, 16, 16, 512)       0         
_________________________________________________________________
dropout_687 (Dropout)        (None, 16, 16, 512)       0         
_________________________________________________________________
conv2d_520 (Conv2D)          (None, 16, 16, 256)       1179904   
_________________________________________________________________
activation_688 (Activation)  (None, 16, 16, 256)       0         
_________________________________________________________________
dropout_688 (Dropout)        (None, 16, 16, 256)       0         
_________________________________________________________________
conv2d_521 (Conv2D)          (None, 16, 16, 128)       295040    
_________________________________________________________________
activation_689 (Activation)  (None, 16, 16, 128)       0         
_________________________________________________________________
dropout_689 (Dropout)        (None, 16, 16, 128)       0         
_________________________________________________________________
conv2d_522 (Conv2D)          (None, 16, 16, 16)        18448     
_________________________________________________________________
batch_normalization_318 (Bat (None, 16, 16, 16)        64        
_________________________________________________________________
activation_690 (Activation)  (None, 16, 16, 16)        0         
_________________________________________________________________
dropout_690 (Dropout)        (None, 16, 16, 16)        0         
_________________________________________________________________
flatten_96 (Flatten)         (None, 4096)              0         
_________________________________________________________________
dense_264 (Dense)            (None, 128)               524416    
_________________________________________________________________
activation_691 (Activation)  (None, 128)               0         
_________________________________________________________________
dropout_691 (Dropout)        (None, 128)               0         
_________________________________________________________________
dense_265 (Dense)            (None, 10)                1290      
=================================================================
Total params: 2,320,234
Trainable params: 2,318,090
Non-trainable params: 2,144
_________________________________________________________________
