Model: "sequential_65"
_________________________________________________________________
Layer (type)                 Output Shape              Param #   
=================================================================
conv2d_350 (Conv2D)          (None, 32, 32, 256)       7168      
_________________________________________________________________
batch_normalization_227 (Bat (None, 32, 32, 256)       1024      
_________________________________________________________________
activation_463 (Activation)  (None, 32, 32, 256)       0         
_________________________________________________________________
dropout_463 (Dropout)        (None, 32, 32, 256)       0         
_________________________________________________________________
max_pooling2d_127 (MaxPoolin (None, 16, 16, 256)       0         
_________________________________________________________________
conv2d_351 (Conv2D)          (None, 16, 16, 32)        73760     
_________________________________________________________________
batch_normalization_228 (Bat (None, 16, 16, 32)        128       
_________________________________________________________________
activation_464 (Activation)  (None, 16, 16, 32)        0         
_________________________________________________________________
dropout_464 (Dropout)        (None, 16, 16, 32)        0         
_________________________________________________________________
max_pooling2d_128 (MaxPoolin (None, 8, 8, 32)          0         
_________________________________________________________________
conv2d_352 (Conv2D)          (None, 8, 8, 16)          4624      
_________________________________________________________________
activation_465 (Activation)  (None, 8, 8, 16)          0         
_________________________________________________________________
dropout_465 (Dropout)        (None, 8, 8, 16)          0         
_________________________________________________________________
conv2d_353 (Conv2D)          (None, 8, 8, 128)         18560     
_________________________________________________________________
activation_466 (Activation)  (None, 8, 8, 128)         0         
_________________________________________________________________
dropout_466 (Dropout)        (None, 8, 8, 128)         0         
_________________________________________________________________
conv2d_354 (Conv2D)          (None, 8, 8, 16)          18448     
_________________________________________________________________
batch_normalization_229 (Bat (None, 8, 8, 16)          64        
_________________________________________________________________
activation_467 (Activation)  (None, 8, 8, 16)          0         
_________________________________________________________________
dropout_467 (Dropout)        (None, 8, 8, 16)          0         
_________________________________________________________________
flatten_65 (Flatten)         (None, 1024)              0         
_________________________________________________________________
dense_178 (Dense)            (None, 128)               131200    
_________________________________________________________________
activation_468 (Activation)  (None, 128)               0         
_________________________________________________________________
dropout_468 (Dropout)        (None, 128)               0         
_________________________________________________________________
dense_179 (Dense)            (None, 10)                1290      
=================================================================
Total params: 256,266
Trainable params: 255,658
Non-trainable params: 608
_________________________________________________________________
