Model: "sequential_197"
_________________________________________________________________
Layer (type)                 Output Shape              Param #   
=================================================================
conv2d_1123 (Conv2D)         (None, 32, 32, 16)        448       
_________________________________________________________________
activation_1423 (Activation) (None, 32, 32, 16)        0         
_________________________________________________________________
dropout_1423 (Dropout)       (None, 32, 32, 16)        0         
_________________________________________________________________
conv2d_1124 (Conv2D)         (None, 32, 32, 512)       74240     
_________________________________________________________________
batch_normalization_566 (Bat (None, 32, 32, 512)       2048      
_________________________________________________________________
activation_1424 (Activation) (None, 32, 32, 512)       0         
_________________________________________________________________
dropout_1424 (Dropout)       (None, 32, 32, 512)       0         
_________________________________________________________________
conv2d_1125 (Conv2D)         (None, 32, 32, 16)        73744     
_________________________________________________________________
activation_1425 (Activation) (None, 32, 32, 16)        0         
_________________________________________________________________
dropout_1425 (Dropout)       (None, 32, 32, 16)        0         
_________________________________________________________________
conv2d_1126 (Conv2D)         (None, 32, 32, 512)       74240     
_________________________________________________________________
batch_normalization_567 (Bat (None, 32, 32, 512)       2048      
_________________________________________________________________
activation_1426 (Activation) (None, 32, 32, 512)       0         
_________________________________________________________________
dropout_1426 (Dropout)       (None, 32, 32, 512)       0         
_________________________________________________________________
conv2d_1127 (Conv2D)         (None, 32, 32, 256)       1179904   
_________________________________________________________________
activation_1427 (Activation) (None, 32, 32, 256)       0         
_________________________________________________________________
dropout_1427 (Dropout)       (None, 32, 32, 256)       0         
_________________________________________________________________
conv2d_1128 (Conv2D)         (None, 32, 32, 128)       295040    
_________________________________________________________________
activation_1428 (Activation) (None, 32, 32, 128)       0         
_________________________________________________________________
dropout_1428 (Dropout)       (None, 32, 32, 128)       0         
_________________________________________________________________
conv2d_1129 (Conv2D)         (None, 32, 32, 16)        18448     
_________________________________________________________________
batch_normalization_568 (Bat (None, 32, 32, 16)        64        
_________________________________________________________________
activation_1429 (Activation) (None, 32, 32, 16)        0         
_________________________________________________________________
dropout_1429 (Dropout)       (None, 32, 32, 16)        0         
_________________________________________________________________
flatten_197 (Flatten)        (None, 16384)             0         
_________________________________________________________________
dense_497 (Dense)            (None, 128)               2097280   
_________________________________________________________________
activation_1430 (Activation) (None, 128)               0         
_________________________________________________________________
dropout_1430 (Dropout)       (None, 128)               0         
_________________________________________________________________
dense_498 (Dense)            (None, 10)                1290      
=================================================================
Total params: 3,818,794
Trainable params: 3,816,714
Non-trainable params: 2,080
_________________________________________________________________
