Model: "sequential_23"
_________________________________________________________________
Layer (type)                 Output Shape              Param #   
=================================================================
conv2d_127 (Conv2D)          (None, 32, 32, 64)        1792      
_________________________________________________________________
batch_normalization_88 (Batc (None, 32, 32, 64)        256       
_________________________________________________________________
activation_169 (Activation)  (None, 32, 32, 64)        0         
_________________________________________________________________
dropout_169 (Dropout)        (None, 32, 32, 64)        0         
_________________________________________________________________
max_pooling2d_45 (MaxPooling (None, 16, 16, 64)        0         
_________________________________________________________________
conv2d_128 (Conv2D)          (None, 16, 16, 16)        9232      
_________________________________________________________________
activation_170 (Activation)  (None, 16, 16, 16)        0         
_________________________________________________________________
dropout_170 (Dropout)        (None, 16, 16, 16)        0         
_________________________________________________________________
max_pooling2d_46 (MaxPooling (None, 8, 8, 16)          0         
_________________________________________________________________
conv2d_129 (Conv2D)          (None, 8, 8, 128)         18560     
_________________________________________________________________
batch_normalization_89 (Batc (None, 8, 8, 128)         512       
_________________________________________________________________
activation_171 (Activation)  (None, 8, 8, 128)         0         
_________________________________________________________________
dropout_171 (Dropout)        (None, 8, 8, 128)         0         
_________________________________________________________________
max_pooling2d_47 (MaxPooling (None, 4, 4, 128)         0         
_________________________________________________________________
conv2d_130 (Conv2D)          (None, 4, 4, 512)         590336    
_________________________________________________________________
activation_172 (Activation)  (None, 4, 4, 512)         0         
_________________________________________________________________
dropout_172 (Dropout)        (None, 4, 4, 512)         0         
_________________________________________________________________
flatten_23 (Flatten)         (None, 8192)              0         
_________________________________________________________________
dense_65 (Dense)             (None, 16)                131088    
_________________________________________________________________
activation_173 (Activation)  (None, 16)                0         
_________________________________________________________________
dropout_173 (Dropout)        (None, 16)                0         
_________________________________________________________________
dense_66 (Dense)             (None, 32)                544       
_________________________________________________________________
activation_174 (Activation)  (None, 32)                0         
_________________________________________________________________
dropout_174 (Dropout)        (None, 32)                0         
_________________________________________________________________
dense_67 (Dense)             (None, 10)                330       
=================================================================
Total params: 752,650
Trainable params: 752,266
Non-trainable params: 384
_________________________________________________________________
