Model: "sequential_25"
_________________________________________________________________
Layer (type)                 Output Shape              Param #   
=================================================================
conv2d_136 (Conv2D)          (None, 32, 32, 16)        448       
_________________________________________________________________
activation_182 (Activation)  (None, 32, 32, 16)        0         
_________________________________________________________________
dropout_182 (Dropout)        (None, 32, 32, 16)        0         
_________________________________________________________________
conv2d_137 (Conv2D)          (None, 32, 32, 128)       18560     
_________________________________________________________________
batch_normalization_94 (Batc (None, 32, 32, 128)       512       
_________________________________________________________________
activation_183 (Activation)  (None, 32, 32, 128)       0         
_________________________________________________________________
dropout_183 (Dropout)        (None, 32, 32, 128)       0         
_________________________________________________________________
max_pooling2d_49 (MaxPooling (None, 16, 16, 128)       0         
_________________________________________________________________
conv2d_138 (Conv2D)          (None, 16, 16, 1024)      1180672   
_________________________________________________________________
activation_184 (Activation)  (None, 16, 16, 1024)      0         
_________________________________________________________________
dropout_184 (Dropout)        (None, 16, 16, 1024)      0         
_________________________________________________________________
max_pooling2d_50 (MaxPooling (None, 8, 8, 1024)        0         
_________________________________________________________________
conv2d_139 (Conv2D)          (None, 8, 8, 256)         2359552   
_________________________________________________________________
batch_normalization_95 (Batc (None, 8, 8, 256)         1024      
_________________________________________________________________
activation_185 (Activation)  (None, 8, 8, 256)         0         
_________________________________________________________________
dropout_185 (Dropout)        (None, 8, 8, 256)         0         
_________________________________________________________________
conv2d_140 (Conv2D)          (None, 8, 8, 16)          36880     
_________________________________________________________________
activation_186 (Activation)  (None, 8, 8, 16)          0         
_________________________________________________________________
dropout_186 (Dropout)        (None, 8, 8, 16)          0         
_________________________________________________________________
conv2d_141 (Conv2D)          (None, 8, 8, 512)         74240     
_________________________________________________________________
batch_normalization_96 (Batc (None, 8, 8, 512)         2048      
_________________________________________________________________
activation_187 (Activation)  (None, 8, 8, 512)         0         
_________________________________________________________________
dropout_187 (Dropout)        (None, 8, 8, 512)         0         
_________________________________________________________________
conv2d_142 (Conv2D)          (None, 8, 8, 1024)        4719616   
_________________________________________________________________
activation_188 (Activation)  (None, 8, 8, 1024)        0         
_________________________________________________________________
dropout_188 (Dropout)        (None, 8, 8, 1024)        0         
_________________________________________________________________
flatten_25 (Flatten)         (None, 65536)             0         
_________________________________________________________________
dense_71 (Dense)             (None, 16)                1048592   
_________________________________________________________________
activation_189 (Activation)  (None, 16)                0         
_________________________________________________________________
dropout_189 (Dropout)        (None, 16)                0         
_________________________________________________________________
dense_72 (Dense)             (None, 10)                170       
=================================================================
Total params: 9,442,314
Trainable params: 9,440,522
Non-trainable params: 1,792
_________________________________________________________________
