Model: "sequential_92"
_________________________________________________________________
Layer (type)                 Output Shape              Param #   
=================================================================
conv2d_496 (Conv2D)          (None, 32, 32, 256)       7168      
_________________________________________________________________
batch_normalization_305 (Bat (None, 32, 32, 256)       1024      
_________________________________________________________________
activation_657 (Activation)  (None, 32, 32, 256)       0         
_________________________________________________________________
dropout_657 (Dropout)        (None, 32, 32, 256)       0         
_________________________________________________________________
max_pooling2d_181 (MaxPoolin (None, 16, 16, 256)       0         
_________________________________________________________________
conv2d_497 (Conv2D)          (None, 16, 16, 32)        73760     
_________________________________________________________________
batch_normalization_306 (Bat (None, 16, 16, 32)        128       
_________________________________________________________________
activation_658 (Activation)  (None, 16, 16, 32)        0         
_________________________________________________________________
dropout_658 (Dropout)        (None, 16, 16, 32)        0         
_________________________________________________________________
max_pooling2d_182 (MaxPoolin (None, 8, 8, 32)          0         
_________________________________________________________________
conv2d_498 (Conv2D)          (None, 8, 8, 16)          4624      
_________________________________________________________________
activation_659 (Activation)  (None, 8, 8, 16)          0         
_________________________________________________________________
dropout_659 (Dropout)        (None, 8, 8, 16)          0         
_________________________________________________________________
conv2d_499 (Conv2D)          (None, 8, 8, 128)         18560     
_________________________________________________________________
activation_660 (Activation)  (None, 8, 8, 128)         0         
_________________________________________________________________
dropout_660 (Dropout)        (None, 8, 8, 128)         0         
_________________________________________________________________
conv2d_500 (Conv2D)          (None, 8, 8, 16)          18448     
_________________________________________________________________
batch_normalization_307 (Bat (None, 8, 8, 16)          64        
_________________________________________________________________
activation_661 (Activation)  (None, 8, 8, 16)          0         
_________________________________________________________________
dropout_661 (Dropout)        (None, 8, 8, 16)          0         
_________________________________________________________________
flatten_92 (Flatten)         (None, 1024)              0         
_________________________________________________________________
dense_253 (Dense)            (None, 128)               131200    
_________________________________________________________________
activation_662 (Activation)  (None, 128)               0         
_________________________________________________________________
dropout_662 (Dropout)        (None, 128)               0         
_________________________________________________________________
dense_254 (Dense)            (None, 10)                1290      
=================================================================
Total params: 256,266
Trainable params: 255,658
Non-trainable params: 608
_________________________________________________________________
