Model: "sequential_10"
_________________________________________________________________
Layer (type)                 Output Shape              Param #   
=================================================================
conv2d_54 (Conv2D)           (None, 32, 32, 64)        1792      
_________________________________________________________________
activation_69 (Activation)   (None, 32, 32, 64)        0         
_________________________________________________________________
dropout_69 (Dropout)         (None, 32, 32, 64)        0         
_________________________________________________________________
conv2d_55 (Conv2D)           (None, 32, 32, 32)        18464     
_________________________________________________________________
activation_70 (Activation)   (None, 32, 32, 32)        0         
_________________________________________________________________
dropout_70 (Dropout)         (None, 32, 32, 32)        0         
_________________________________________________________________
conv2d_56 (Conv2D)           (None, 32, 32, 32)        9248      
_________________________________________________________________
activation_71 (Activation)   (None, 32, 32, 32)        0         
_________________________________________________________________
dropout_71 (Dropout)         (None, 32, 32, 32)        0         
_________________________________________________________________
max_pooling2d_19 (MaxPooling (None, 16, 16, 32)        0         
_________________________________________________________________
conv2d_57 (Conv2D)           (None, 16, 16, 32)        9248      
_________________________________________________________________
batch_normalization_37 (Batc (None, 16, 16, 32)        128       
_________________________________________________________________
activation_72 (Activation)   (None, 16, 16, 32)        0         
_________________________________________________________________
dropout_72 (Dropout)         (None, 16, 16, 32)        0         
_________________________________________________________________
flatten_10 (Flatten)         (None, 8192)              0         
_________________________________________________________________
dense_25 (Dense)             (None, 128)               1048704   
_________________________________________________________________
batch_normalization_38 (Batc (None, 128)               512       
_________________________________________________________________
activation_73 (Activation)   (None, 128)               0         
_________________________________________________________________
dropout_73 (Dropout)         (None, 128)               0         
_________________________________________________________________
dense_26 (Dense)             (None, 32)                4128      
_________________________________________________________________
activation_74 (Activation)   (None, 32)                0         
_________________________________________________________________
dropout_74 (Dropout)         (None, 32)                0         
_________________________________________________________________
dense_27 (Dense)             (None, 32)                1056      
_________________________________________________________________
activation_75 (Activation)   (None, 32)                0         
_________________________________________________________________
dropout_75 (Dropout)         (None, 32)                0         
_________________________________________________________________
dense_28 (Dense)             (None, 10)                330       
=================================================================
Total params: 1,093,610
Trainable params: 1,093,290
Non-trainable params: 320
_________________________________________________________________
