Model: "sequential"
_________________________________________________________________
Layer (type)                 Output Shape              Param #   
=================================================================
conv2d (Conv2D)              (None, 32, 32, 256)       7168      
_________________________________________________________________
activation (Activation)      (None, 32, 32, 256)       0         
_________________________________________________________________
dropout (Dropout)            (None, 32, 32, 256)       0         
_________________________________________________________________
conv2d_1 (Conv2D)            (None, 32, 32, 1024)      2360320   
_________________________________________________________________
activation_1 (Activation)    (None, 32, 32, 1024)      0         
_________________________________________________________________
dropout_1 (Dropout)          (None, 32, 32, 1024)      0         
_________________________________________________________________
conv2d_2 (Conv2D)            (None, 32, 32, 8)         73736     
_________________________________________________________________
activation_2 (Activation)    (None, 32, 32, 8)         0         
_________________________________________________________________
dropout_2 (Dropout)          (None, 32, 32, 8)         0         
_________________________________________________________________
max_pooling2d (MaxPooling2D) (None, 16, 16, 8)         0         
_________________________________________________________________
conv2d_3 (Conv2D)            (None, 16, 16, 256)       18688     
_________________________________________________________________
batch_normalization (BatchNo (None, 16, 16, 256)       1024      
_________________________________________________________________
activation_3 (Activation)    (None, 16, 16, 256)       0         
_________________________________________________________________
dropout_3 (Dropout)          (None, 16, 16, 256)       0         
_________________________________________________________________
max_pooling2d_1 (MaxPooling2 (None, 8, 8, 256)         0         
_________________________________________________________________
conv2d_4 (Conv2D)            (None, 8, 8, 32)          73760     
_________________________________________________________________
batch_normalization_1 (Batch (None, 8, 8, 32)          128       
_________________________________________________________________
activation_4 (Activation)    (None, 8, 8, 32)          0         
_________________________________________________________________
dropout_4 (Dropout)          (None, 8, 8, 32)          0         
_________________________________________________________________
max_pooling2d_2 (MaxPooling2 (None, 4, 4, 32)          0         
_________________________________________________________________
flatten (Flatten)            (None, 512)               0         
_________________________________________________________________
dense (Dense)                (None, 10)                5130      
=================================================================
Total params: 2,539,954
Trainable params: 2,539,378
Non-trainable params: 576
_________________________________________________________________
