Model: "sequential_260"
_________________________________________________________________
Layer (type)                 Output Shape              Param #   
=================================================================
conv2d_1552 (Conv2D)         (None, 32, 32, 16)        448       
_________________________________________________________________
activation_1909 (Activation) (None, 32, 32, 16)        0         
_________________________________________________________________
dropout_1909 (Dropout)       (None, 32, 32, 16)        0         
_________________________________________________________________
conv2d_1553 (Conv2D)         (None, 32, 32, 512)       74240     
_________________________________________________________________
batch_normalization_768 (Bat (None, 32, 32, 512)       2048      
_________________________________________________________________
activation_1910 (Activation) (None, 32, 32, 512)       0         
_________________________________________________________________
dropout_1910 (Dropout)       (None, 32, 32, 512)       0         
_________________________________________________________________
max_pooling2d_486 (MaxPoolin (None, 16, 16, 512)       0         
_________________________________________________________________
conv2d_1554 (Conv2D)         (None, 16, 16, 128)       589952    
_________________________________________________________________
activation_1911 (Activation) (None, 16, 16, 128)       0         
_________________________________________________________________
dropout_1911 (Dropout)       (None, 16, 16, 128)       0         
_________________________________________________________________
max_pooling2d_487 (MaxPoolin (None, 8, 8, 128)         0         
_________________________________________________________________
conv2d_1555 (Conv2D)         (None, 8, 8, 512)         590336    
_________________________________________________________________
batch_normalization_769 (Bat (None, 8, 8, 512)         2048      
_________________________________________________________________
activation_1912 (Activation) (None, 8, 8, 512)         0         
_________________________________________________________________
dropout_1912 (Dropout)       (None, 8, 8, 512)         0         
_________________________________________________________________
conv2d_1556 (Conv2D)         (None, 8, 8, 1024)        4719616   
_________________________________________________________________
activation_1913 (Activation) (None, 8, 8, 1024)        0         
_________________________________________________________________
dropout_1913 (Dropout)       (None, 8, 8, 1024)        0         
_________________________________________________________________
max_pooling2d_488 (MaxPoolin (None, 4, 4, 1024)        0         
_________________________________________________________________
conv2d_1557 (Conv2D)         (None, 4, 4, 128)         1179776   
_________________________________________________________________
activation_1914 (Activation) (None, 4, 4, 128)         0         
_________________________________________________________________
dropout_1914 (Dropout)       (None, 4, 4, 128)         0         
_________________________________________________________________
conv2d_1558 (Conv2D)         (None, 4, 4, 16)          18448     
_________________________________________________________________
batch_normalization_770 (Bat (None, 4, 4, 16)          64        
_________________________________________________________________
activation_1915 (Activation) (None, 4, 4, 16)          0         
_________________________________________________________________
dropout_1915 (Dropout)       (None, 4, 4, 16)          0         
_________________________________________________________________
flatten_260 (Flatten)        (None, 256)               0         
_________________________________________________________________
dense_617 (Dense)            (None, 128)               32896     
_________________________________________________________________
activation_1916 (Activation) (None, 128)               0         
_________________________________________________________________
dropout_1916 (Dropout)       (None, 128)               0         
_________________________________________________________________
dense_618 (Dense)            (None, 10)                1290      
=================================================================
Total params: 7,211,162
Trainable params: 7,209,082
Non-trainable params: 2,080
_________________________________________________________________
