Model: "sequential_129"
_________________________________________________________________
Layer (type)                 Output Shape              Param #   
=================================================================
conv2d_697 (Conv2D)          (None, 32, 32, 256)       7168      
_________________________________________________________________
batch_normalization_385 (Bat (None, 32, 32, 256)       1024      
_________________________________________________________________
activation_914 (Activation)  (None, 32, 32, 256)       0         
_________________________________________________________________
dropout_914 (Dropout)        (None, 32, 32, 256)       0         
_________________________________________________________________
max_pooling2d_252 (MaxPoolin (None, 16, 16, 256)       0         
_________________________________________________________________
conv2d_698 (Conv2D)          (None, 16, 16, 128)       295040    
_________________________________________________________________
activation_915 (Activation)  (None, 16, 16, 128)       0         
_________________________________________________________________
dropout_915 (Dropout)        (None, 16, 16, 128)       0         
_________________________________________________________________
max_pooling2d_253 (MaxPoolin (None, 8, 8, 128)         0         
_________________________________________________________________
conv2d_699 (Conv2D)          (None, 8, 8, 32)          36896     
_________________________________________________________________
activation_916 (Activation)  (None, 8, 8, 32)          0         
_________________________________________________________________
dropout_916 (Dropout)        (None, 8, 8, 32)          0         
_________________________________________________________________
conv2d_700 (Conv2D)          (None, 8, 8, 32)          9248      
_________________________________________________________________
activation_917 (Activation)  (None, 8, 8, 32)          0         
_________________________________________________________________
dropout_917 (Dropout)        (None, 8, 8, 32)          0         
_________________________________________________________________
conv2d_701 (Conv2D)          (None, 8, 8, 64)          18496     
_________________________________________________________________
batch_normalization_386 (Bat (None, 8, 8, 64)          256       
_________________________________________________________________
activation_918 (Activation)  (None, 8, 8, 64)          0         
_________________________________________________________________
dropout_918 (Dropout)        (None, 8, 8, 64)          0         
_________________________________________________________________
flatten_129 (Flatten)        (None, 4096)              0         
_________________________________________________________________
dense_346 (Dense)            (None, 32)                131104    
_________________________________________________________________
batch_normalization_387 (Bat (None, 32)                128       
_________________________________________________________________
activation_919 (Activation)  (None, 32)                0         
_________________________________________________________________
dropout_919 (Dropout)        (None, 32)                0         
_________________________________________________________________
dense_347 (Dense)            (None, 32)                1056      
_________________________________________________________________
activation_920 (Activation)  (None, 32)                0         
_________________________________________________________________
dropout_920 (Dropout)        (None, 32)                0         
_________________________________________________________________
dense_348 (Dense)            (None, 10)                330       
=================================================================
Total params: 500,746
Trainable params: 500,042
Non-trainable params: 704
_________________________________________________________________
