Model: "sequential_154"
_________________________________________________________________
Layer (type)                 Output Shape              Param #   
=================================================================
conv2d_844 (Conv2D)          (None, 32, 32, 16)        448       
_________________________________________________________________
batch_normalization_445 (Bat (None, 32, 32, 16)        64        
_________________________________________________________________
activation_1095 (Activation) (None, 32, 32, 16)        0         
_________________________________________________________________
dropout_1095 (Dropout)       (None, 32, 32, 16)        0         
_________________________________________________________________
conv2d_845 (Conv2D)          (None, 32, 32, 512)       74240     
_________________________________________________________________
batch_normalization_446 (Bat (None, 32, 32, 512)       2048      
_________________________________________________________________
activation_1096 (Activation) (None, 32, 32, 512)       0         
_________________________________________________________________
dropout_1096 (Dropout)       (None, 32, 32, 512)       0         
_________________________________________________________________
max_pooling2d_299 (MaxPoolin (None, 16, 16, 512)       0         
_________________________________________________________________
conv2d_846 (Conv2D)          (None, 16, 16, 128)       589952    
_________________________________________________________________
activation_1097 (Activation) (None, 16, 16, 128)       0         
_________________________________________________________________
dropout_1097 (Dropout)       (None, 16, 16, 128)       0         
_________________________________________________________________
max_pooling2d_300 (MaxPoolin (None, 8, 8, 128)         0         
_________________________________________________________________
conv2d_847 (Conv2D)          (None, 8, 8, 512)         590336    
_________________________________________________________________
batch_normalization_447 (Bat (None, 8, 8, 512)         2048      
_________________________________________________________________
activation_1098 (Activation) (None, 8, 8, 512)         0         
_________________________________________________________________
dropout_1098 (Dropout)       (None, 8, 8, 512)         0         
_________________________________________________________________
conv2d_848 (Conv2D)          (None, 8, 8, 256)         1179904   
_________________________________________________________________
activation_1099 (Activation) (None, 8, 8, 256)         0         
_________________________________________________________________
dropout_1099 (Dropout)       (None, 8, 8, 256)         0         
_________________________________________________________________
conv2d_849 (Conv2D)          (None, 8, 8, 128)         295040    
_________________________________________________________________
activation_1100 (Activation) (None, 8, 8, 128)         0         
_________________________________________________________________
dropout_1100 (Dropout)       (None, 8, 8, 128)         0         
_________________________________________________________________
conv2d_850 (Conv2D)          (None, 8, 8, 16)          18448     
_________________________________________________________________
batch_normalization_448 (Bat (None, 8, 8, 16)          64        
_________________________________________________________________
activation_1101 (Activation) (None, 8, 8, 16)          0         
_________________________________________________________________
dropout_1101 (Dropout)       (None, 8, 8, 16)          0         
_________________________________________________________________
flatten_154 (Flatten)        (None, 1024)              0         
_________________________________________________________________
dense_405 (Dense)            (None, 128)               131200    
_________________________________________________________________
activation_1102 (Activation) (None, 128)               0         
_________________________________________________________________
dropout_1102 (Dropout)       (None, 128)               0         
_________________________________________________________________
dense_406 (Dense)            (None, 10)                1290      
=================================================================
Total params: 2,885,082
Trainable params: 2,882,970
Non-trainable params: 2,112
_________________________________________________________________
