Model: "sequential_69"
_________________________________________________________________
Layer (type)                 Output Shape              Param #   
=================================================================
conv2d_373 (Conv2D)          (None, 32, 32, 64)        1792      
_________________________________________________________________
batch_normalization_243 (Bat (None, 32, 32, 64)        256       
_________________________________________________________________
activation_494 (Activation)  (None, 32, 32, 64)        0         
_________________________________________________________________
dropout_494 (Dropout)        (None, 32, 32, 64)        0         
_________________________________________________________________
max_pooling2d_134 (MaxPoolin (None, 16, 16, 64)        0         
_________________________________________________________________
conv2d_374 (Conv2D)          (None, 16, 16, 16)        9232      
_________________________________________________________________
activation_495 (Activation)  (None, 16, 16, 16)        0         
_________________________________________________________________
dropout_495 (Dropout)        (None, 16, 16, 16)        0         
_________________________________________________________________
max_pooling2d_135 (MaxPoolin (None, 8, 8, 16)          0         
_________________________________________________________________
conv2d_375 (Conv2D)          (None, 8, 8, 32)          4640      
_________________________________________________________________
activation_496 (Activation)  (None, 8, 8, 32)          0         
_________________________________________________________________
dropout_496 (Dropout)        (None, 8, 8, 32)          0         
_________________________________________________________________
max_pooling2d_136 (MaxPoolin (None, 4, 4, 32)          0         
_________________________________________________________________
conv2d_376 (Conv2D)          (None, 4, 4, 512)         147968    
_________________________________________________________________
activation_497 (Activation)  (None, 4, 4, 512)         0         
_________________________________________________________________
dropout_497 (Dropout)        (None, 4, 4, 512)         0         
_________________________________________________________________
flatten_69 (Flatten)         (None, 8192)              0         
_________________________________________________________________
dense_190 (Dense)            (None, 16)                131088    
_________________________________________________________________
activation_498 (Activation)  (None, 16)                0         
_________________________________________________________________
dropout_498 (Dropout)        (None, 16)                0         
_________________________________________________________________
dense_191 (Dense)            (None, 32)                544       
_________________________________________________________________
activation_499 (Activation)  (None, 32)                0         
_________________________________________________________________
dropout_499 (Dropout)        (None, 32)                0         
_________________________________________________________________
dense_192 (Dense)            (None, 10)                330       
=================================================================
Total params: 295,850
Trainable params: 295,722
Non-trainable params: 128
_________________________________________________________________
