Model: "sequential_218"
_________________________________________________________________
Layer (type)                 Output Shape              Param #   
=================================================================
conv2d_1268 (Conv2D)         (None, 32, 32, 16)        448       
_________________________________________________________________
activation_1588 (Activation) (None, 32, 32, 16)        0         
_________________________________________________________________
dropout_1588 (Dropout)       (None, 32, 32, 16)        0         
_________________________________________________________________
conv2d_1269 (Conv2D)         (None, 32, 32, 128)       18560     
_________________________________________________________________
batch_normalization_630 (Bat (None, 32, 32, 128)       512       
_________________________________________________________________
activation_1589 (Activation) (None, 32, 32, 128)       0         
_________________________________________________________________
dropout_1589 (Dropout)       (None, 32, 32, 128)       0         
_________________________________________________________________
max_pooling2d_406 (MaxPoolin (None, 16, 16, 128)       0         
_________________________________________________________________
conv2d_1270 (Conv2D)         (None, 16, 16, 128)       147584    
_________________________________________________________________
activation_1590 (Activation) (None, 16, 16, 128)       0         
_________________________________________________________________
dropout_1590 (Dropout)       (None, 16, 16, 128)       0         
_________________________________________________________________
max_pooling2d_407 (MaxPoolin (None, 8, 8, 128)         0         
_________________________________________________________________
conv2d_1271 (Conv2D)         (None, 8, 8, 32)          36896     
_________________________________________________________________
activation_1591 (Activation) (None, 8, 8, 32)          0         
_________________________________________________________________
dropout_1591 (Dropout)       (None, 8, 8, 32)          0         
_________________________________________________________________
conv2d_1272 (Conv2D)         (None, 8, 8, 32)          9248      
_________________________________________________________________
activation_1592 (Activation) (None, 8, 8, 32)          0         
_________________________________________________________________
dropout_1592 (Dropout)       (None, 8, 8, 32)          0         
_________________________________________________________________
conv2d_1273 (Conv2D)         (None, 8, 8, 128)         36992     
_________________________________________________________________
activation_1593 (Activation) (None, 8, 8, 128)         0         
_________________________________________________________________
dropout_1593 (Dropout)       (None, 8, 8, 128)         0         
_________________________________________________________________
conv2d_1274 (Conv2D)         (None, 8, 8, 16)          18448     
_________________________________________________________________
batch_normalization_631 (Bat (None, 8, 8, 16)          64        
_________________________________________________________________
activation_1594 (Activation) (None, 8, 8, 16)          0         
_________________________________________________________________
dropout_1594 (Dropout)       (None, 8, 8, 16)          0         
_________________________________________________________________
flatten_218 (Flatten)        (None, 1024)              0         
_________________________________________________________________
dense_538 (Dense)            (None, 128)               131200    
_________________________________________________________________
activation_1595 (Activation) (None, 128)               0         
_________________________________________________________________
dropout_1595 (Dropout)       (None, 128)               0         
_________________________________________________________________
dense_539 (Dense)            (None, 10)                1290      
=================================================================
Total params: 401,242
Trainable params: 400,954
Non-trainable params: 288
_________________________________________________________________
