Model: "sequential_342"
_________________________________________________________________
Layer (type)                 Output Shape              Param #   
=================================================================
conv2d_2096 (Conv2D)         (None, 32, 32, 16)        448       
_________________________________________________________________
batch_normalization_1026 (Ba (None, 32, 32, 16)        64        
_________________________________________________________________
activation_2525 (Activation) (None, 32, 32, 16)        0         
_________________________________________________________________
dropout_2525 (Dropout)       (None, 32, 32, 16)        0         
_________________________________________________________________
conv2d_2097 (Conv2D)         (None, 32, 32, 128)       18560     
_________________________________________________________________
activation_2526 (Activation) (None, 32, 32, 128)       0         
_________________________________________________________________
dropout_2526 (Dropout)       (None, 32, 32, 128)       0         
_________________________________________________________________
max_pooling2d_625 (MaxPoolin (None, 16, 16, 128)       0         
_________________________________________________________________
conv2d_2098 (Conv2D)         (None, 16, 16, 32)        36896     
_________________________________________________________________
activation_2527 (Activation) (None, 16, 16, 32)        0         
_________________________________________________________________
dropout_2527 (Dropout)       (None, 16, 16, 32)        0         
_________________________________________________________________
conv2d_2099 (Conv2D)         (None, 16, 16, 256)       73984     
_________________________________________________________________
activation_2528 (Activation) (None, 16, 16, 256)       0         
_________________________________________________________________
dropout_2528 (Dropout)       (None, 16, 16, 256)       0         
_________________________________________________________________
conv2d_2100 (Conv2D)         (None, 16, 16, 128)       295040    
_________________________________________________________________
activation_2529 (Activation) (None, 16, 16, 128)       0         
_________________________________________________________________
dropout_2529 (Dropout)       (None, 16, 16, 128)       0         
_________________________________________________________________
conv2d_2101 (Conv2D)         (None, 16, 16, 16)        18448     
_________________________________________________________________
batch_normalization_1027 (Ba (None, 16, 16, 16)        64        
_________________________________________________________________
activation_2530 (Activation) (None, 16, 16, 16)        0         
_________________________________________________________________
dropout_2530 (Dropout)       (None, 16, 16, 16)        0         
_________________________________________________________________
flatten_342 (Flatten)        (None, 4096)              0         
_________________________________________________________________
dense_771 (Dense)            (None, 64)                262208    
_________________________________________________________________
batch_normalization_1028 (Ba (None, 64)                256       
_________________________________________________________________
activation_2531 (Activation) (None, 64)                0         
_________________________________________________________________
dropout_2531 (Dropout)       (None, 64)                0         
_________________________________________________________________
dense_772 (Dense)            (None, 10)                650       
=================================================================
Total params: 706,618
Trainable params: 706,426
Non-trainable params: 192
_________________________________________________________________
