Model: "sequential_39"
_________________________________________________________________
Layer (type)                 Output Shape              Param #   
=================================================================
conv2d_213 (Conv2D)          (None, 32, 32, 256)       7168      
_________________________________________________________________
activation_283 (Activation)  (None, 32, 32, 256)       0         
_________________________________________________________________
dropout_283 (Dropout)        (None, 32, 32, 256)       0         
_________________________________________________________________
conv2d_214 (Conv2D)          (None, 32, 32, 1024)      2360320   
_________________________________________________________________
activation_284 (Activation)  (None, 32, 32, 1024)      0         
_________________________________________________________________
dropout_284 (Dropout)        (None, 32, 32, 1024)      0         
_________________________________________________________________
conv2d_215 (Conv2D)          (None, 32, 32, 8)         73736     
_________________________________________________________________
activation_285 (Activation)  (None, 32, 32, 8)         0         
_________________________________________________________________
dropout_285 (Dropout)        (None, 32, 32, 8)         0         
_________________________________________________________________
max_pooling2d_78 (MaxPooling (None, 16, 16, 8)         0         
_________________________________________________________________
conv2d_216 (Conv2D)          (None, 16, 16, 256)       18688     
_________________________________________________________________
batch_normalization_145 (Bat (None, 16, 16, 256)       1024      
_________________________________________________________________
activation_286 (Activation)  (None, 16, 16, 256)       0         
_________________________________________________________________
dropout_286 (Dropout)        (None, 16, 16, 256)       0         
_________________________________________________________________
max_pooling2d_79 (MaxPooling (None, 8, 8, 256)         0         
_________________________________________________________________
conv2d_217 (Conv2D)          (None, 8, 8, 32)          73760     
_________________________________________________________________
batch_normalization_146 (Bat (None, 8, 8, 32)          128       
_________________________________________________________________
activation_287 (Activation)  (None, 8, 8, 32)          0         
_________________________________________________________________
dropout_287 (Dropout)        (None, 8, 8, 32)          0         
_________________________________________________________________
max_pooling2d_80 (MaxPooling (None, 4, 4, 32)          0         
_________________________________________________________________
flatten_39 (Flatten)         (None, 512)               0         
_________________________________________________________________
dense_109 (Dense)            (None, 10)                5130      
=================================================================
Total params: 2,539,954
Trainable params: 2,539,378
Non-trainable params: 576
_________________________________________________________________
