Model: "sequential_297"
_________________________________________________________________
Layer (type)                 Output Shape              Param #   
=================================================================
conv2d_1803 (Conv2D)         (None, 32, 32, 16)        448       
_________________________________________________________________
activation_2192 (Activation) (None, 32, 32, 16)        0         
_________________________________________________________________
dropout_2192 (Dropout)       (None, 32, 32, 16)        0         
_________________________________________________________________
conv2d_1804 (Conv2D)         (None, 32, 32, 128)       18560     
_________________________________________________________________
batch_normalization_892 (Bat (None, 32, 32, 128)       512       
_________________________________________________________________
activation_2193 (Activation) (None, 32, 32, 128)       0         
_________________________________________________________________
dropout_2193 (Dropout)       (None, 32, 32, 128)       0         
_________________________________________________________________
max_pooling2d_556 (MaxPoolin (None, 16, 16, 128)       0         
_________________________________________________________________
conv2d_1805 (Conv2D)         (None, 16, 16, 128)       147584    
_________________________________________________________________
activation_2194 (Activation) (None, 16, 16, 128)       0         
_________________________________________________________________
dropout_2194 (Dropout)       (None, 16, 16, 128)       0         
_________________________________________________________________
max_pooling2d_557 (MaxPoolin (None, 8, 8, 128)         0         
_________________________________________________________________
conv2d_1806 (Conv2D)         (None, 8, 8, 512)         590336    
_________________________________________________________________
batch_normalization_893 (Bat (None, 8, 8, 512)         2048      
_________________________________________________________________
activation_2195 (Activation) (None, 8, 8, 512)         0         
_________________________________________________________________
dropout_2195 (Dropout)       (None, 8, 8, 512)         0         
_________________________________________________________________
conv2d_1807 (Conv2D)         (None, 8, 8, 256)         1179904   
_________________________________________________________________
activation_2196 (Activation) (None, 8, 8, 256)         0         
_________________________________________________________________
dropout_2196 (Dropout)       (None, 8, 8, 256)         0         
_________________________________________________________________
conv2d_1808 (Conv2D)         (None, 8, 8, 128)         295040    
_________________________________________________________________
activation_2197 (Activation) (None, 8, 8, 128)         0         
_________________________________________________________________
dropout_2197 (Dropout)       (None, 8, 8, 128)         0         
_________________________________________________________________
conv2d_1809 (Conv2D)         (None, 8, 8, 16)          18448     
_________________________________________________________________
batch_normalization_894 (Bat (None, 8, 8, 16)          64        
_________________________________________________________________
activation_2198 (Activation) (None, 8, 8, 16)          0         
_________________________________________________________________
dropout_2198 (Dropout)       (None, 8, 8, 16)          0         
_________________________________________________________________
flatten_297 (Flatten)        (None, 1024)              0         
_________________________________________________________________
dense_686 (Dense)            (None, 128)               131200    
_________________________________________________________________
activation_2199 (Activation) (None, 128)               0         
_________________________________________________________________
dropout_2199 (Dropout)       (None, 128)               0         
_________________________________________________________________
dense_687 (Dense)            (None, 10)                1290      
=================================================================
Total params: 2,385,434
Trainable params: 2,384,122
Non-trainable params: 1,312
_________________________________________________________________
