Model: "sequential_243"
_________________________________________________________________
Layer (type)                 Output Shape              Param #   
=================================================================
conv2d_1438 (Conv2D)         (None, 32, 32, 16)        448       
_________________________________________________________________
batch_normalization_710 (Bat (None, 32, 32, 16)        64        
_________________________________________________________________
activation_1781 (Activation) (None, 32, 32, 16)        0         
_________________________________________________________________
dropout_1781 (Dropout)       (None, 32, 32, 16)        0         
_________________________________________________________________
conv2d_1439 (Conv2D)         (None, 32, 32, 128)       18560     
_________________________________________________________________
batch_normalization_711 (Bat (None, 32, 32, 128)       512       
_________________________________________________________________
activation_1782 (Activation) (None, 32, 32, 128)       0         
_________________________________________________________________
dropout_1782 (Dropout)       (None, 32, 32, 128)       0         
_________________________________________________________________
max_pooling2d_454 (MaxPoolin (None, 16, 16, 128)       0         
_________________________________________________________________
conv2d_1440 (Conv2D)         (None, 16, 16, 128)       147584    
_________________________________________________________________
batch_normalization_712 (Bat (None, 16, 16, 128)       512       
_________________________________________________________________
activation_1783 (Activation) (None, 16, 16, 128)       0         
_________________________________________________________________
dropout_1783 (Dropout)       (None, 16, 16, 128)       0         
_________________________________________________________________
max_pooling2d_455 (MaxPoolin (None, 8, 8, 128)         0         
_________________________________________________________________
conv2d_1441 (Conv2D)         (None, 8, 8, 32)          36896     
_________________________________________________________________
activation_1784 (Activation) (None, 8, 8, 32)          0         
_________________________________________________________________
dropout_1784 (Dropout)       (None, 8, 8, 32)          0         
_________________________________________________________________
conv2d_1442 (Conv2D)         (None, 8, 8, 256)         73984     
_________________________________________________________________
activation_1785 (Activation) (None, 8, 8, 256)         0         
_________________________________________________________________
dropout_1785 (Dropout)       (None, 8, 8, 256)         0         
_________________________________________________________________
conv2d_1443 (Conv2D)         (None, 8, 8, 128)         295040    
_________________________________________________________________
activation_1786 (Activation) (None, 8, 8, 128)         0         
_________________________________________________________________
dropout_1786 (Dropout)       (None, 8, 8, 128)         0         
_________________________________________________________________
conv2d_1444 (Conv2D)         (None, 8, 8, 16)          18448     
_________________________________________________________________
batch_normalization_713 (Bat (None, 8, 8, 16)          64        
_________________________________________________________________
activation_1787 (Activation) (None, 8, 8, 16)          0         
_________________________________________________________________
dropout_1787 (Dropout)       (None, 8, 8, 16)          0         
_________________________________________________________________
flatten_243 (Flatten)        (None, 1024)              0         
_________________________________________________________________
dense_586 (Dense)            (None, 128)               131200    
_________________________________________________________________
activation_1788 (Activation) (None, 128)               0         
_________________________________________________________________
dropout_1788 (Dropout)       (None, 128)               0         
_________________________________________________________________
dense_587 (Dense)            (None, 10)                1290      
=================================================================
Total params: 724,602
Trainable params: 724,026
Non-trainable params: 576
_________________________________________________________________
