Model: "sequential_123"
_________________________________________________________________
Layer (type)                 Output Shape              Param #   
=================================================================
conv2d_665 (Conv2D)          (None, 32, 32, 256)       7168      
_________________________________________________________________
batch_normalization_375 (Bat (None, 32, 32, 256)       1024      
_________________________________________________________________
activation_873 (Activation)  (None, 32, 32, 256)       0         
_________________________________________________________________
dropout_873 (Dropout)        (None, 32, 32, 256)       0         
_________________________________________________________________
conv2d_666 (Conv2D)          (None, 32, 32, 512)       1180160   
_________________________________________________________________
batch_normalization_376 (Bat (None, 32, 32, 512)       2048      
_________________________________________________________________
activation_874 (Activation)  (None, 32, 32, 512)       0         
_________________________________________________________________
dropout_874 (Dropout)        (None, 32, 32, 512)       0         
_________________________________________________________________
max_pooling2d_240 (MaxPoolin (None, 16, 16, 512)       0         
_________________________________________________________________
conv2d_667 (Conv2D)          (None, 16, 16, 128)       589952    
_________________________________________________________________
activation_875 (Activation)  (None, 16, 16, 128)       0         
_________________________________________________________________
dropout_875 (Dropout)        (None, 16, 16, 128)       0         
_________________________________________________________________
max_pooling2d_241 (MaxPoolin (None, 8, 8, 128)         0         
_________________________________________________________________
conv2d_668 (Conv2D)          (None, 8, 8, 512)         590336    
_________________________________________________________________
batch_normalization_377 (Bat (None, 8, 8, 512)         2048      
_________________________________________________________________
activation_876 (Activation)  (None, 8, 8, 512)         0         
_________________________________________________________________
dropout_876 (Dropout)        (None, 8, 8, 512)         0         
_________________________________________________________________
conv2d_669 (Conv2D)          (None, 8, 8, 256)         1179904   
_________________________________________________________________
activation_877 (Activation)  (None, 8, 8, 256)         0         
_________________________________________________________________
dropout_877 (Dropout)        (None, 8, 8, 256)         0         
_________________________________________________________________
conv2d_670 (Conv2D)          (None, 8, 8, 128)         295040    
_________________________________________________________________
activation_878 (Activation)  (None, 8, 8, 128)         0         
_________________________________________________________________
dropout_878 (Dropout)        (None, 8, 8, 128)         0         
_________________________________________________________________
conv2d_671 (Conv2D)          (None, 8, 8, 16)          18448     
_________________________________________________________________
batch_normalization_378 (Bat (None, 8, 8, 16)          64        
_________________________________________________________________
activation_879 (Activation)  (None, 8, 8, 16)          0         
_________________________________________________________________
dropout_879 (Dropout)        (None, 8, 8, 16)          0         
_________________________________________________________________
flatten_123 (Flatten)        (None, 1024)              0         
_________________________________________________________________
dense_331 (Dense)            (None, 128)               131200    
_________________________________________________________________
activation_880 (Activation)  (None, 128)               0         
_________________________________________________________________
dropout_880 (Dropout)        (None, 128)               0         
_________________________________________________________________
dense_332 (Dense)            (None, 10)                1290      
=================================================================
Total params: 3,998,682
Trainable params: 3,996,090
Non-trainable params: 2,592
_________________________________________________________________
