Model: "sequential_354"
_________________________________________________________________
Layer (type)                 Output Shape              Param #   
=================================================================
conv2d_2172 (Conv2D)         (None, 32, 32, 1024)      28672     
_________________________________________________________________
activation_2611 (Activation) (None, 32, 32, 1024)      0         
_________________________________________________________________
dropout_2611 (Dropout)       (None, 32, 32, 1024)      0         
_________________________________________________________________
conv2d_2173 (Conv2D)         (None, 32, 32, 512)       4719104   
_________________________________________________________________
batch_normalization_1053 (Ba (None, 32, 32, 512)       2048      
_________________________________________________________________
activation_2612 (Activation) (None, 32, 32, 512)       0         
_________________________________________________________________
dropout_2612 (Dropout)       (None, 32, 32, 512)       0         
_________________________________________________________________
max_pooling2d_642 (MaxPoolin (None, 16, 16, 512)       0         
_________________________________________________________________
conv2d_2174 (Conv2D)         (None, 16, 16, 128)       589952    
_________________________________________________________________
activation_2613 (Activation) (None, 16, 16, 128)       0         
_________________________________________________________________
dropout_2613 (Dropout)       (None, 16, 16, 128)       0         
_________________________________________________________________
max_pooling2d_643 (MaxPoolin (None, 8, 8, 128)         0         
_________________________________________________________________
conv2d_2175 (Conv2D)         (None, 8, 8, 512)         590336    
_________________________________________________________________
activation_2614 (Activation) (None, 8, 8, 512)         0         
_________________________________________________________________
dropout_2614 (Dropout)       (None, 8, 8, 512)         0         
_________________________________________________________________
conv2d_2176 (Conv2D)         (None, 8, 8, 256)         1179904   
_________________________________________________________________
activation_2615 (Activation) (None, 8, 8, 256)         0         
_________________________________________________________________
dropout_2615 (Dropout)       (None, 8, 8, 256)         0         
_________________________________________________________________
conv2d_2177 (Conv2D)         (None, 8, 8, 128)         295040    
_________________________________________________________________
activation_2616 (Activation) (None, 8, 8, 128)         0         
_________________________________________________________________
dropout_2616 (Dropout)       (None, 8, 8, 128)         0         
_________________________________________________________________
conv2d_2178 (Conv2D)         (None, 8, 8, 16)          18448     
_________________________________________________________________
batch_normalization_1054 (Ba (None, 8, 8, 16)          64        
_________________________________________________________________
activation_2617 (Activation) (None, 8, 8, 16)          0         
_________________________________________________________________
dropout_2617 (Dropout)       (None, 8, 8, 16)          0         
_________________________________________________________________
flatten_354 (Flatten)        (None, 1024)              0         
_________________________________________________________________
dense_793 (Dense)            (None, 128)               131200    
_________________________________________________________________
activation_2618 (Activation) (None, 128)               0         
_________________________________________________________________
dropout_2618 (Dropout)       (None, 128)               0         
_________________________________________________________________
dense_794 (Dense)            (None, 10)                1290      
=================================================================
Total params: 7,556,058
Trainable params: 7,555,002
Non-trainable params: 1,056
_________________________________________________________________
