Model: "sequential_169"
_________________________________________________________________
Layer (type)                 Output Shape              Param #   
=================================================================
conv2d_940 (Conv2D)          (None, 32, 32, 16)        448       
_________________________________________________________________
activation_1207 (Activation) (None, 32, 32, 16)        0         
_________________________________________________________________
dropout_1207 (Dropout)       (None, 32, 32, 16)        0         
_________________________________________________________________
conv2d_941 (Conv2D)          (None, 32, 32, 128)       18560     
_________________________________________________________________
batch_normalization_490 (Bat (None, 32, 32, 128)       512       
_________________________________________________________________
activation_1208 (Activation) (None, 32, 32, 128)       0         
_________________________________________________________________
dropout_1208 (Dropout)       (None, 32, 32, 128)       0         
_________________________________________________________________
max_pooling2d_319 (MaxPoolin (None, 16, 16, 128)       0         
_________________________________________________________________
conv2d_942 (Conv2D)          (None, 16, 16, 128)       147584    
_________________________________________________________________
activation_1209 (Activation) (None, 16, 16, 128)       0         
_________________________________________________________________
dropout_1209 (Dropout)       (None, 16, 16, 128)       0         
_________________________________________________________________
max_pooling2d_320 (MaxPoolin (None, 8, 8, 128)         0         
_________________________________________________________________
conv2d_943 (Conv2D)          (None, 8, 8, 32)          36896     
_________________________________________________________________
activation_1210 (Activation) (None, 8, 8, 32)          0         
_________________________________________________________________
dropout_1210 (Dropout)       (None, 8, 8, 32)          0         
_________________________________________________________________
conv2d_944 (Conv2D)          (None, 8, 8, 32)          9248      
_________________________________________________________________
activation_1211 (Activation) (None, 8, 8, 32)          0         
_________________________________________________________________
dropout_1211 (Dropout)       (None, 8, 8, 32)          0         
_________________________________________________________________
max_pooling2d_321 (MaxPoolin (None, 4, 4, 32)          0         
_________________________________________________________________
conv2d_945 (Conv2D)          (None, 4, 4, 512)         147968    
_________________________________________________________________
activation_1212 (Activation) (None, 4, 4, 512)         0         
_________________________________________________________________
dropout_1212 (Dropout)       (None, 4, 4, 512)         0         
_________________________________________________________________
flatten_169 (Flatten)        (None, 8192)              0         
_________________________________________________________________
dense_436 (Dense)            (None, 16)                131088    
_________________________________________________________________
activation_1213 (Activation) (None, 16)                0         
_________________________________________________________________
dropout_1213 (Dropout)       (None, 16)                0         
_________________________________________________________________
dense_437 (Dense)            (None, 32)                544       
_________________________________________________________________
activation_1214 (Activation) (None, 32)                0         
_________________________________________________________________
dropout_1214 (Dropout)       (None, 32)                0         
_________________________________________________________________
dense_438 (Dense)            (None, 10)                330       
=================================================================
Total params: 493,178
Trainable params: 492,922
Non-trainable params: 256
_________________________________________________________________
