Model: "sequential_76"
_________________________________________________________________
Layer (type)                 Output Shape              Param #   
=================================================================
conv2d_406 (Conv2D)          (None, 32, 32, 256)       7168      
_________________________________________________________________
batch_normalization_260 (Bat (None, 32, 32, 256)       1024      
_________________________________________________________________
activation_542 (Activation)  (None, 32, 32, 256)       0         
_________________________________________________________________
dropout_542 (Dropout)        (None, 32, 32, 256)       0         
_________________________________________________________________
max_pooling2d_151 (MaxPoolin (None, 16, 16, 256)       0         
_________________________________________________________________
conv2d_407 (Conv2D)          (None, 16, 16, 128)       295040    
_________________________________________________________________
activation_543 (Activation)  (None, 16, 16, 128)       0         
_________________________________________________________________
dropout_543 (Dropout)        (None, 16, 16, 128)       0         
_________________________________________________________________
max_pooling2d_152 (MaxPoolin (None, 8, 8, 128)         0         
_________________________________________________________________
conv2d_408 (Conv2D)          (None, 8, 8, 32)          36896     
_________________________________________________________________
activation_544 (Activation)  (None, 8, 8, 32)          0         
_________________________________________________________________
dropout_544 (Dropout)        (None, 8, 8, 32)          0         
_________________________________________________________________
conv2d_409 (Conv2D)          (None, 8, 8, 32)          9248      
_________________________________________________________________
activation_545 (Activation)  (None, 8, 8, 32)          0         
_________________________________________________________________
dropout_545 (Dropout)        (None, 8, 8, 32)          0         
_________________________________________________________________
conv2d_410 (Conv2D)          (None, 8, 8, 128)         36992     
_________________________________________________________________
activation_546 (Activation)  (None, 8, 8, 128)         0         
_________________________________________________________________
dropout_546 (Dropout)        (None, 8, 8, 128)         0         
_________________________________________________________________
conv2d_411 (Conv2D)          (None, 8, 8, 16)          18448     
_________________________________________________________________
batch_normalization_261 (Bat (None, 8, 8, 16)          64        
_________________________________________________________________
activation_547 (Activation)  (None, 8, 8, 16)          0         
_________________________________________________________________
dropout_547 (Dropout)        (None, 8, 8, 16)          0         
_________________________________________________________________
flatten_76 (Flatten)         (None, 1024)              0         
_________________________________________________________________
dense_212 (Dense)            (None, 128)               131200    
_________________________________________________________________
activation_548 (Activation)  (None, 128)               0         
_________________________________________________________________
dropout_548 (Dropout)        (None, 128)               0         
_________________________________________________________________
dense_213 (Dense)            (None, 10)                1290      
=================================================================
Total params: 537,370
Trainable params: 536,826
Non-trainable params: 544
_________________________________________________________________
