Model: "sequential_124"
_________________________________________________________________
Layer (type)                 Output Shape              Param #   
=================================================================
conv2d_672 (Conv2D)          (None, 32, 32, 64)        1792      
_________________________________________________________________
activation_881 (Activation)  (None, 32, 32, 64)        0         
_________________________________________________________________
dropout_881 (Dropout)        (None, 32, 32, 64)        0         
_________________________________________________________________
conv2d_673 (Conv2D)          (None, 32, 32, 16)        9232      
_________________________________________________________________
activation_882 (Activation)  (None, 32, 32, 16)        0         
_________________________________________________________________
dropout_882 (Dropout)        (None, 32, 32, 16)        0         
_________________________________________________________________
max_pooling2d_242 (MaxPoolin (None, 16, 16, 16)        0         
_________________________________________________________________
conv2d_674 (Conv2D)          (None, 16, 16, 32)        4640      
_________________________________________________________________
activation_883 (Activation)  (None, 16, 16, 32)        0         
_________________________________________________________________
dropout_883 (Dropout)        (None, 16, 16, 32)        0         
_________________________________________________________________
conv2d_675 (Conv2D)          (None, 16, 16, 32)        9248      
_________________________________________________________________
activation_884 (Activation)  (None, 16, 16, 32)        0         
_________________________________________________________________
dropout_884 (Dropout)        (None, 16, 16, 32)        0         
_________________________________________________________________
max_pooling2d_243 (MaxPoolin (None, 8, 8, 32)          0         
_________________________________________________________________
conv2d_676 (Conv2D)          (None, 8, 8, 512)         147968    
_________________________________________________________________
activation_885 (Activation)  (None, 8, 8, 512)         0         
_________________________________________________________________
dropout_885 (Dropout)        (None, 8, 8, 512)         0         
_________________________________________________________________
max_pooling2d_244 (MaxPoolin (None, 4, 4, 512)         0         
_________________________________________________________________
flatten_124 (Flatten)        (None, 8192)              0         
_________________________________________________________________
dense_333 (Dense)            (None, 16)                131088    
_________________________________________________________________
activation_886 (Activation)  (None, 16)                0         
_________________________________________________________________
dropout_886 (Dropout)        (None, 16)                0         
_________________________________________________________________
dense_334 (Dense)            (None, 32)                544       
_________________________________________________________________
activation_887 (Activation)  (None, 32)                0         
_________________________________________________________________
dropout_887 (Dropout)        (None, 32)                0         
_________________________________________________________________
dense_335 (Dense)            (None, 10)                330       
=================================================================
Total params: 304,842
Trainable params: 304,842
Non-trainable params: 0
_________________________________________________________________
