Model: "sequential_296"
_________________________________________________________________
Layer (type)                 Output Shape              Param #   
=================================================================
conv2d_1796 (Conv2D)         (None, 32, 32, 16)        448       
_________________________________________________________________
activation_2185 (Activation) (None, 32, 32, 16)        0         
_________________________________________________________________
dropout_2185 (Dropout)       (None, 32, 32, 16)        0         
_________________________________________________________________
conv2d_1797 (Conv2D)         (None, 32, 32, 512)       74240     
_________________________________________________________________
batch_normalization_888 (Bat (None, 32, 32, 512)       2048      
_________________________________________________________________
activation_2186 (Activation) (None, 32, 32, 512)       0         
_________________________________________________________________
dropout_2186 (Dropout)       (None, 32, 32, 512)       0         
_________________________________________________________________
max_pooling2d_554 (MaxPoolin (None, 16, 16, 512)       0         
_________________________________________________________________
conv2d_1798 (Conv2D)         (None, 16, 16, 128)       589952    
_________________________________________________________________
batch_normalization_889 (Bat (None, 16, 16, 128)       512       
_________________________________________________________________
activation_2187 (Activation) (None, 16, 16, 128)       0         
_________________________________________________________________
dropout_2187 (Dropout)       (None, 16, 16, 128)       0         
_________________________________________________________________
conv2d_1799 (Conv2D)         (None, 16, 16, 512)       590336    
_________________________________________________________________
batch_normalization_890 (Bat (None, 16, 16, 512)       2048      
_________________________________________________________________
activation_2188 (Activation) (None, 16, 16, 512)       0         
_________________________________________________________________
dropout_2188 (Dropout)       (None, 16, 16, 512)       0         
_________________________________________________________________
max_pooling2d_555 (MaxPoolin (None, 8, 8, 512)         0         
_________________________________________________________________
conv2d_1800 (Conv2D)         (None, 8, 8, 256)         1179904   
_________________________________________________________________
activation_2189 (Activation) (None, 8, 8, 256)         0         
_________________________________________________________________
dropout_2189 (Dropout)       (None, 8, 8, 256)         0         
_________________________________________________________________
conv2d_1801 (Conv2D)         (None, 8, 8, 128)         295040    
_________________________________________________________________
activation_2190 (Activation) (None, 8, 8, 128)         0         
_________________________________________________________________
dropout_2190 (Dropout)       (None, 8, 8, 128)         0         
_________________________________________________________________
conv2d_1802 (Conv2D)         (None, 8, 8, 16)          18448     
_________________________________________________________________
batch_normalization_891 (Bat (None, 8, 8, 16)          64        
_________________________________________________________________
activation_2191 (Activation) (None, 8, 8, 16)          0         
_________________________________________________________________
dropout_2191 (Dropout)       (None, 8, 8, 16)          0         
_________________________________________________________________
flatten_296 (Flatten)        (None, 1024)              0         
_________________________________________________________________
dense_685 (Dense)            (None, 10)                10250     
=================================================================
Total params: 2,763,290
Trainable params: 2,760,954
Non-trainable params: 2,336
_________________________________________________________________
