Model: "sequential_166"
_________________________________________________________________
Layer (type)                 Output Shape              Param #   
=================================================================
conv2d_919 (Conv2D)          (None, 32, 32, 16)        448       
_________________________________________________________________
batch_normalization_479 (Bat (None, 32, 32, 16)        64        
_________________________________________________________________
activation_1183 (Activation) (None, 32, 32, 16)        0         
_________________________________________________________________
dropout_1183 (Dropout)       (None, 32, 32, 16)        0         
_________________________________________________________________
conv2d_920 (Conv2D)          (None, 32, 32, 512)       74240     
_________________________________________________________________
batch_normalization_480 (Bat (None, 32, 32, 512)       2048      
_________________________________________________________________
activation_1184 (Activation) (None, 32, 32, 512)       0         
_________________________________________________________________
dropout_1184 (Dropout)       (None, 32, 32, 512)       0         
_________________________________________________________________
max_pooling2d_314 (MaxPoolin (None, 16, 16, 512)       0         
_________________________________________________________________
conv2d_921 (Conv2D)          (None, 16, 16, 128)       589952    
_________________________________________________________________
activation_1185 (Activation) (None, 16, 16, 128)       0         
_________________________________________________________________
dropout_1185 (Dropout)       (None, 16, 16, 128)       0         
_________________________________________________________________
conv2d_922 (Conv2D)          (None, 16, 16, 512)       590336    
_________________________________________________________________
batch_normalization_481 (Bat (None, 16, 16, 512)       2048      
_________________________________________________________________
activation_1186 (Activation) (None, 16, 16, 512)       0         
_________________________________________________________________
dropout_1186 (Dropout)       (None, 16, 16, 512)       0         
_________________________________________________________________
conv2d_923 (Conv2D)          (None, 16, 16, 256)       1179904   
_________________________________________________________________
batch_normalization_482 (Bat (None, 16, 16, 256)       1024      
_________________________________________________________________
activation_1187 (Activation) (None, 16, 16, 256)       0         
_________________________________________________________________
dropout_1187 (Dropout)       (None, 16, 16, 256)       0         
_________________________________________________________________
conv2d_924 (Conv2D)          (None, 16, 16, 128)       295040    
_________________________________________________________________
activation_1188 (Activation) (None, 16, 16, 128)       0         
_________________________________________________________________
dropout_1188 (Dropout)       (None, 16, 16, 128)       0         
_________________________________________________________________
conv2d_925 (Conv2D)          (None, 16, 16, 16)        18448     
_________________________________________________________________
batch_normalization_483 (Bat (None, 16, 16, 16)        64        
_________________________________________________________________
activation_1189 (Activation) (None, 16, 16, 16)        0         
_________________________________________________________________
dropout_1189 (Dropout)       (None, 16, 16, 16)        0         
_________________________________________________________________
flatten_166 (Flatten)        (None, 4096)              0         
_________________________________________________________________
dense_430 (Dense)            (None, 128)               524416    
_________________________________________________________________
activation_1190 (Activation) (None, 128)               0         
_________________________________________________________________
dropout_1190 (Dropout)       (None, 128)               0         
_________________________________________________________________
dense_431 (Dense)            (None, 10)                1290      
=================================================================
Total params: 3,279,322
Trainable params: 3,276,698
Non-trainable params: 2,624
_________________________________________________________________
