Model: "sequential_278"
_________________________________________________________________
Layer (type)                 Output Shape              Param #   
=================================================================
conv2d_1674 (Conv2D)         (None, 32, 32, 16)        448       
_________________________________________________________________
activation_2046 (Activation) (None, 32, 32, 16)        0         
_________________________________________________________________
dropout_2046 (Dropout)       (None, 32, 32, 16)        0         
_________________________________________________________________
conv2d_1675 (Conv2D)         (None, 32, 32, 128)       18560     
_________________________________________________________________
batch_normalization_827 (Bat (None, 32, 32, 128)       512       
_________________________________________________________________
activation_2047 (Activation) (None, 32, 32, 128)       0         
_________________________________________________________________
dropout_2047 (Dropout)       (None, 32, 32, 128)       0         
_________________________________________________________________
max_pooling2d_521 (MaxPoolin (None, 16, 16, 128)       0         
_________________________________________________________________
conv2d_1676 (Conv2D)         (None, 16, 16, 128)       147584    
_________________________________________________________________
activation_2048 (Activation) (None, 16, 16, 128)       0         
_________________________________________________________________
dropout_2048 (Dropout)       (None, 16, 16, 128)       0         
_________________________________________________________________
max_pooling2d_522 (MaxPoolin (None, 8, 8, 128)         0         
_________________________________________________________________
conv2d_1677 (Conv2D)         (None, 8, 8, 32)          36896     
_________________________________________________________________
batch_normalization_828 (Bat (None, 8, 8, 32)          128       
_________________________________________________________________
activation_2049 (Activation) (None, 8, 8, 32)          0         
_________________________________________________________________
dropout_2049 (Dropout)       (None, 8, 8, 32)          0         
_________________________________________________________________
conv2d_1678 (Conv2D)         (None, 8, 8, 256)         73984     
_________________________________________________________________
activation_2050 (Activation) (None, 8, 8, 256)         0         
_________________________________________________________________
dropout_2050 (Dropout)       (None, 8, 8, 256)         0         
_________________________________________________________________
conv2d_1679 (Conv2D)         (None, 8, 8, 128)         295040    
_________________________________________________________________
activation_2051 (Activation) (None, 8, 8, 128)         0         
_________________________________________________________________
dropout_2051 (Dropout)       (None, 8, 8, 128)         0         
_________________________________________________________________
conv2d_1680 (Conv2D)         (None, 8, 8, 16)          18448     
_________________________________________________________________
batch_normalization_829 (Bat (None, 8, 8, 16)          64        
_________________________________________________________________
activation_2052 (Activation) (None, 8, 8, 16)          0         
_________________________________________________________________
dropout_2052 (Dropout)       (None, 8, 8, 16)          0         
_________________________________________________________________
flatten_278 (Flatten)        (None, 1024)              0         
_________________________________________________________________
dense_650 (Dense)            (None, 128)               131200    
_________________________________________________________________
activation_2053 (Activation) (None, 128)               0         
_________________________________________________________________
dropout_2053 (Dropout)       (None, 128)               0         
_________________________________________________________________
dense_651 (Dense)            (None, 10)                1290      
=================================================================
Total params: 724,154
Trainable params: 723,802
Non-trainable params: 352
_________________________________________________________________
