Model: "sequential_102"
_________________________________________________________________
Layer (type)                 Output Shape              Param #   
=================================================================
conv2d_549 (Conv2D)          (None, 32, 32, 16)        448       
_________________________________________________________________
activation_724 (Activation)  (None, 32, 32, 16)        0         
_________________________________________________________________
dropout_724 (Dropout)        (None, 32, 32, 16)        0         
_________________________________________________________________
conv2d_550 (Conv2D)          (None, 32, 32, 128)       18560     
_________________________________________________________________
batch_normalization_333 (Bat (None, 32, 32, 128)       512       
_________________________________________________________________
activation_725 (Activation)  (None, 32, 32, 128)       0         
_________________________________________________________________
dropout_725 (Dropout)        (None, 32, 32, 128)       0         
_________________________________________________________________
max_pooling2d_196 (MaxPoolin (None, 16, 16, 128)       0         
_________________________________________________________________
conv2d_551 (Conv2D)          (None, 16, 16, 128)       147584    
_________________________________________________________________
activation_726 (Activation)  (None, 16, 16, 128)       0         
_________________________________________________________________
dropout_726 (Dropout)        (None, 16, 16, 128)       0         
_________________________________________________________________
max_pooling2d_197 (MaxPoolin (None, 8, 8, 128)         0         
_________________________________________________________________
conv2d_552 (Conv2D)          (None, 8, 8, 512)         590336    
_________________________________________________________________
batch_normalization_334 (Bat (None, 8, 8, 512)         2048      
_________________________________________________________________
activation_727 (Activation)  (None, 8, 8, 512)         0         
_________________________________________________________________
dropout_727 (Dropout)        (None, 8, 8, 512)         0         
_________________________________________________________________
conv2d_553 (Conv2D)          (None, 8, 8, 256)         1179904   
_________________________________________________________________
activation_728 (Activation)  (None, 8, 8, 256)         0         
_________________________________________________________________
dropout_728 (Dropout)        (None, 8, 8, 256)         0         
_________________________________________________________________
conv2d_554 (Conv2D)          (None, 8, 8, 128)         295040    
_________________________________________________________________
activation_729 (Activation)  (None, 8, 8, 128)         0         
_________________________________________________________________
dropout_729 (Dropout)        (None, 8, 8, 128)         0         
_________________________________________________________________
conv2d_555 (Conv2D)          (None, 8, 8, 16)          18448     
_________________________________________________________________
batch_normalization_335 (Bat (None, 8, 8, 16)          64        
_________________________________________________________________
activation_730 (Activation)  (None, 8, 8, 16)          0         
_________________________________________________________________
dropout_730 (Dropout)        (None, 8, 8, 16)          0         
_________________________________________________________________
flatten_102 (Flatten)        (None, 1024)              0         
_________________________________________________________________
dense_277 (Dense)            (None, 128)               131200    
_________________________________________________________________
activation_731 (Activation)  (None, 128)               0         
_________________________________________________________________
dropout_731 (Dropout)        (None, 128)               0         
_________________________________________________________________
dense_278 (Dense)            (None, 10)                1290      
=================================================================
Total params: 2,385,434
Trainable params: 2,384,122
Non-trainable params: 1,312
_________________________________________________________________
