Model: "sequential_392"
_________________________________________________________________
Layer (type)                 Output Shape              Param #   
=================================================================
conv2d_2407 (Conv2D)         (None, 32, 32, 16)        448       
_________________________________________________________________
batch_normalization_1142 (Ba (None, 32, 32, 16)        64        
_________________________________________________________________
activation_2871 (Activation) (None, 32, 32, 16)        0         
_________________________________________________________________
dropout_2871 (Dropout)       (None, 32, 32, 16)        0         
_________________________________________________________________
conv2d_2408 (Conv2D)         (None, 32, 32, 128)       18560     
_________________________________________________________________
activation_2872 (Activation) (None, 32, 32, 128)       0         
_________________________________________________________________
dropout_2872 (Dropout)       (None, 32, 32, 128)       0         
_________________________________________________________________
max_pooling2d_696 (MaxPoolin (None, 16, 16, 128)       0         
_________________________________________________________________
conv2d_2409 (Conv2D)         (None, 16, 16, 32)        36896     
_________________________________________________________________
activation_2873 (Activation) (None, 16, 16, 32)        0         
_________________________________________________________________
dropout_2873 (Dropout)       (None, 16, 16, 32)        0         
_________________________________________________________________
conv2d_2410 (Conv2D)         (None, 16, 16, 128)       36992     
_________________________________________________________________
activation_2874 (Activation) (None, 16, 16, 128)       0         
_________________________________________________________________
dropout_2874 (Dropout)       (None, 16, 16, 128)       0         
_________________________________________________________________
conv2d_2411 (Conv2D)         (None, 16, 16, 16)        18448     
_________________________________________________________________
batch_normalization_1143 (Ba (None, 16, 16, 16)        64        
_________________________________________________________________
activation_2875 (Activation) (None, 16, 16, 16)        0         
_________________________________________________________________
dropout_2875 (Dropout)       (None, 16, 16, 16)        0         
_________________________________________________________________
flatten_392 (Flatten)        (None, 4096)              0         
_________________________________________________________________
dense_856 (Dense)            (None, 512)               2097664   
_________________________________________________________________
activation_2876 (Activation) (None, 512)               0         
_________________________________________________________________
dropout_2876 (Dropout)       (None, 512)               0         
_________________________________________________________________
dense_857 (Dense)            (None, 10)                5130      
=================================================================
Total params: 2,214,266
Trainable params: 2,214,202
Non-trainable params: 64
_________________________________________________________________
