Model: "sequential_133"
_________________________________________________________________
Layer (type)                 Output Shape              Param #   
=================================================================
conv2d_720 (Conv2D)          (None, 32, 32, 64)        1792      
_________________________________________________________________
activation_943 (Activation)  (None, 32, 32, 64)        0         
_________________________________________________________________
dropout_943 (Dropout)        (None, 32, 32, 64)        0         
_________________________________________________________________
conv2d_721 (Conv2D)          (None, 32, 32, 32)        18464     
_________________________________________________________________
activation_944 (Activation)  (None, 32, 32, 32)        0         
_________________________________________________________________
dropout_944 (Dropout)        (None, 32, 32, 32)        0         
_________________________________________________________________
conv2d_722 (Conv2D)          (None, 32, 32, 32)        9248      
_________________________________________________________________
activation_945 (Activation)  (None, 32, 32, 32)        0         
_________________________________________________________________
dropout_945 (Dropout)        (None, 32, 32, 32)        0         
_________________________________________________________________
max_pooling2d_258 (MaxPoolin (None, 16, 16, 32)        0         
_________________________________________________________________
conv2d_723 (Conv2D)          (None, 16, 16, 512)       147968    
_________________________________________________________________
activation_946 (Activation)  (None, 16, 16, 512)       0         
_________________________________________________________________
dropout_946 (Dropout)        (None, 16, 16, 512)       0         
_________________________________________________________________
max_pooling2d_259 (MaxPoolin (None, 8, 8, 512)         0         
_________________________________________________________________
flatten_133 (Flatten)        (None, 32768)             0         
_________________________________________________________________
dense_356 (Dense)            (None, 32)                1048608   
_________________________________________________________________
activation_947 (Activation)  (None, 32)                0         
_________________________________________________________________
dropout_947 (Dropout)        (None, 32)                0         
_________________________________________________________________
dense_357 (Dense)            (None, 10)                330       
=================================================================
Total params: 1,226,410
Trainable params: 1,226,410
Non-trainable params: 0
_________________________________________________________________
