Model: "sequential_118"
_________________________________________________________________
Layer (type)                 Output Shape              Param #   
=================================================================
conv2d_637 (Conv2D)          (None, 32, 32, 256)       7168      
_________________________________________________________________
batch_normalization_366 (Bat (None, 32, 32, 256)       1024      
_________________________________________________________________
activation_837 (Activation)  (None, 32, 32, 256)       0         
_________________________________________________________________
dropout_837 (Dropout)        (None, 32, 32, 256)       0         
_________________________________________________________________
max_pooling2d_228 (MaxPoolin (None, 16, 16, 256)       0         
_________________________________________________________________
conv2d_638 (Conv2D)          (None, 16, 16, 128)       295040    
_________________________________________________________________
activation_838 (Activation)  (None, 16, 16, 128)       0         
_________________________________________________________________
dropout_838 (Dropout)        (None, 16, 16, 128)       0         
_________________________________________________________________
max_pooling2d_229 (MaxPoolin (None, 8, 8, 128)         0         
_________________________________________________________________
conv2d_639 (Conv2D)          (None, 8, 8, 32)          36896     
_________________________________________________________________
activation_839 (Activation)  (None, 8, 8, 32)          0         
_________________________________________________________________
dropout_839 (Dropout)        (None, 8, 8, 32)          0         
_________________________________________________________________
conv2d_640 (Conv2D)          (None, 8, 8, 32)          9248      
_________________________________________________________________
activation_840 (Activation)  (None, 8, 8, 32)          0         
_________________________________________________________________
dropout_840 (Dropout)        (None, 8, 8, 32)          0         
_________________________________________________________________
max_pooling2d_230 (MaxPoolin (None, 4, 4, 32)          0         
_________________________________________________________________
conv2d_641 (Conv2D)          (None, 4, 4, 512)         147968    
_________________________________________________________________
activation_841 (Activation)  (None, 4, 4, 512)         0         
_________________________________________________________________
dropout_841 (Dropout)        (None, 4, 4, 512)         0         
_________________________________________________________________
flatten_118 (Flatten)        (None, 8192)              0         
_________________________________________________________________
dense_318 (Dense)            (None, 16)                131088    
_________________________________________________________________
activation_842 (Activation)  (None, 16)                0         
_________________________________________________________________
dropout_842 (Dropout)        (None, 16)                0         
_________________________________________________________________
dense_319 (Dense)            (None, 32)                544       
_________________________________________________________________
activation_843 (Activation)  (None, 32)                0         
_________________________________________________________________
dropout_843 (Dropout)        (None, 32)                0         
_________________________________________________________________
dense_320 (Dense)            (None, 10)                330       
=================================================================
Total params: 629,306
Trainable params: 628,794
Non-trainable params: 512
_________________________________________________________________
