Model: "sequential_152"
_________________________________________________________________
Layer (type)                 Output Shape              Param #   
=================================================================
conv2d_831 (Conv2D)          (None, 32, 32, 16)        448       
_________________________________________________________________
activation_1079 (Activation) (None, 32, 32, 16)        0         
_________________________________________________________________
dropout_1079 (Dropout)       (None, 32, 32, 16)        0         
_________________________________________________________________
conv2d_832 (Conv2D)          (None, 32, 32, 128)       18560     
_________________________________________________________________
batch_normalization_440 (Bat (None, 32, 32, 128)       512       
_________________________________________________________________
activation_1080 (Activation) (None, 32, 32, 128)       0         
_________________________________________________________________
dropout_1080 (Dropout)       (None, 32, 32, 128)       0         
_________________________________________________________________
max_pooling2d_294 (MaxPoolin (None, 16, 16, 128)       0         
_________________________________________________________________
conv2d_833 (Conv2D)          (None, 16, 16, 128)       147584    
_________________________________________________________________
activation_1081 (Activation) (None, 16, 16, 128)       0         
_________________________________________________________________
dropout_1081 (Dropout)       (None, 16, 16, 128)       0         
_________________________________________________________________
max_pooling2d_295 (MaxPoolin (None, 8, 8, 128)         0         
_________________________________________________________________
conv2d_834 (Conv2D)          (None, 8, 8, 32)          36896     
_________________________________________________________________
activation_1082 (Activation) (None, 8, 8, 32)          0         
_________________________________________________________________
dropout_1082 (Dropout)       (None, 8, 8, 32)          0         
_________________________________________________________________
conv2d_835 (Conv2D)          (None, 8, 8, 32)          9248      
_________________________________________________________________
activation_1083 (Activation) (None, 8, 8, 32)          0         
_________________________________________________________________
dropout_1083 (Dropout)       (None, 8, 8, 32)          0         
_________________________________________________________________
max_pooling2d_296 (MaxPoolin (None, 4, 4, 32)          0         
_________________________________________________________________
conv2d_836 (Conv2D)          (None, 4, 4, 512)         147968    
_________________________________________________________________
activation_1084 (Activation) (None, 4, 4, 512)         0         
_________________________________________________________________
dropout_1084 (Dropout)       (None, 4, 4, 512)         0         
_________________________________________________________________
flatten_152 (Flatten)        (None, 8192)              0         
_________________________________________________________________
dense_400 (Dense)            (None, 16)                131088    
_________________________________________________________________
activation_1085 (Activation) (None, 16)                0         
_________________________________________________________________
dropout_1085 (Dropout)       (None, 16)                0         
_________________________________________________________________
dense_401 (Dense)            (None, 32)                544       
_________________________________________________________________
activation_1086 (Activation) (None, 32)                0         
_________________________________________________________________
dropout_1086 (Dropout)       (None, 32)                0         
_________________________________________________________________
dense_402 (Dense)            (None, 10)                330       
=================================================================
Total params: 493,178
Trainable params: 492,922
Non-trainable params: 256
_________________________________________________________________
