Model: "sequential_63"
_________________________________________________________________
Layer (type)                 Output Shape              Param #   
=================================================================
conv2d_338 (Conv2D)          (None, 32, 32, 32)        896       
_________________________________________________________________
batch_normalization_220 (Bat (None, 32, 32, 32)        128       
_________________________________________________________________
activation_449 (Activation)  (None, 32, 32, 32)        0         
_________________________________________________________________
dropout_449 (Dropout)        (None, 32, 32, 32)        0         
_________________________________________________________________
max_pooling2d_123 (MaxPoolin (None, 16, 16, 32)        0         
_________________________________________________________________
conv2d_339 (Conv2D)          (None, 16, 16, 512)       147968    
_________________________________________________________________
batch_normalization_221 (Bat (None, 16, 16, 512)       2048      
_________________________________________________________________
activation_450 (Activation)  (None, 16, 16, 512)       0         
_________________________________________________________________
dropout_450 (Dropout)        (None, 16, 16, 512)       0         
_________________________________________________________________
conv2d_340 (Conv2D)          (None, 16, 16, 16)        73744     
_________________________________________________________________
activation_451 (Activation)  (None, 16, 16, 16)        0         
_________________________________________________________________
dropout_451 (Dropout)        (None, 16, 16, 16)        0         
_________________________________________________________________
conv2d_341 (Conv2D)          (None, 16, 16, 512)       74240     
_________________________________________________________________
batch_normalization_222 (Bat (None, 16, 16, 512)       2048      
_________________________________________________________________
activation_452 (Activation)  (None, 16, 16, 512)       0         
_________________________________________________________________
dropout_452 (Dropout)        (None, 16, 16, 512)       0         
_________________________________________________________________
conv2d_342 (Conv2D)          (None, 16, 16, 256)       1179904   
_________________________________________________________________
activation_453 (Activation)  (None, 16, 16, 256)       0         
_________________________________________________________________
dropout_453 (Dropout)        (None, 16, 16, 256)       0         
_________________________________________________________________
conv2d_343 (Conv2D)          (None, 16, 16, 128)       295040    
_________________________________________________________________
activation_454 (Activation)  (None, 16, 16, 128)       0         
_________________________________________________________________
dropout_454 (Dropout)        (None, 16, 16, 128)       0         
_________________________________________________________________
conv2d_344 (Conv2D)          (None, 16, 16, 16)        18448     
_________________________________________________________________
batch_normalization_223 (Bat (None, 16, 16, 16)        64        
_________________________________________________________________
activation_455 (Activation)  (None, 16, 16, 16)        0         
_________________________________________________________________
dropout_455 (Dropout)        (None, 16, 16, 16)        0         
_________________________________________________________________
flatten_63 (Flatten)         (None, 4096)              0         
_________________________________________________________________
dense_174 (Dense)            (None, 128)               524416    
_________________________________________________________________
activation_456 (Activation)  (None, 128)               0         
_________________________________________________________________
dropout_456 (Dropout)        (None, 128)               0         
_________________________________________________________________
dense_175 (Dense)            (None, 10)                1290      
=================================================================
Total params: 2,320,234
Trainable params: 2,318,090
Non-trainable params: 2,144
_________________________________________________________________
