Model: "sequential_27"
_________________________________________________________________
Layer (type)                 Output Shape              Param #   
=================================================================
conv2d_147 (Conv2D)          (None, 32, 32, 64)        1792      
_________________________________________________________________
activation_197 (Activation)  (None, 32, 32, 64)        0         
_________________________________________________________________
dropout_197 (Dropout)        (None, 32, 32, 64)        0         
_________________________________________________________________
conv2d_148 (Conv2D)          (None, 32, 32, 32)        18464     
_________________________________________________________________
activation_198 (Activation)  (None, 32, 32, 32)        0         
_________________________________________________________________
dropout_198 (Dropout)        (None, 32, 32, 32)        0         
_________________________________________________________________
conv2d_149 (Conv2D)          (None, 32, 32, 32)        9248      
_________________________________________________________________
activation_199 (Activation)  (None, 32, 32, 32)        0         
_________________________________________________________________
dropout_199 (Dropout)        (None, 32, 32, 32)        0         
_________________________________________________________________
max_pooling2d_53 (MaxPooling (None, 16, 16, 32)        0         
_________________________________________________________________
conv2d_150 (Conv2D)          (None, 16, 16, 512)       147968    
_________________________________________________________________
activation_200 (Activation)  (None, 16, 16, 512)       0         
_________________________________________________________________
dropout_200 (Dropout)        (None, 16, 16, 512)       0         
_________________________________________________________________
max_pooling2d_54 (MaxPooling (None, 8, 8, 512)         0         
_________________________________________________________________
flatten_27 (Flatten)         (None, 32768)             0         
_________________________________________________________________
dense_77 (Dense)             (None, 16)                524304    
_________________________________________________________________
activation_201 (Activation)  (None, 16)                0         
_________________________________________________________________
dropout_201 (Dropout)        (None, 16)                0         
_________________________________________________________________
dense_78 (Dense)             (None, 32)                544       
_________________________________________________________________
activation_202 (Activation)  (None, 32)                0         
_________________________________________________________________
dropout_202 (Dropout)        (None, 32)                0         
_________________________________________________________________
dense_79 (Dense)             (None, 10)                330       
=================================================================
Total params: 702,650
Trainable params: 702,650
Non-trainable params: 0
_________________________________________________________________
