Model: "sequential_44"
_________________________________________________________________
Layer (type)                 Output Shape              Param #   
=================================================================
conv2d_242 (Conv2D)          (None, 32, 32, 256)       7168      
_________________________________________________________________
batch_normalization_161 (Bat (None, 32, 32, 256)       1024      
_________________________________________________________________
activation_317 (Activation)  (None, 32, 32, 256)       0         
_________________________________________________________________
dropout_317 (Dropout)        (None, 32, 32, 256)       0         
_________________________________________________________________
max_pooling2d_88 (MaxPooling (None, 16, 16, 256)       0         
_________________________________________________________________
conv2d_243 (Conv2D)          (None, 16, 16, 128)       295040    
_________________________________________________________________
batch_normalization_162 (Bat (None, 16, 16, 128)       512       
_________________________________________________________________
activation_318 (Activation)  (None, 16, 16, 128)       0         
_________________________________________________________________
dropout_318 (Dropout)        (None, 16, 16, 128)       0         
_________________________________________________________________
max_pooling2d_89 (MaxPooling (None, 8, 8, 128)         0         
_________________________________________________________________
conv2d_244 (Conv2D)          (None, 8, 8, 8)           9224      
_________________________________________________________________
activation_319 (Activation)  (None, 8, 8, 8)           0         
_________________________________________________________________
dropout_319 (Dropout)        (None, 8, 8, 8)           0         
_________________________________________________________________
max_pooling2d_90 (MaxPooling (None, 4, 4, 8)           0         
_________________________________________________________________
conv2d_245 (Conv2D)          (None, 4, 4, 1024)        74752     
_________________________________________________________________
activation_320 (Activation)  (None, 4, 4, 1024)        0         
_________________________________________________________________
dropout_320 (Dropout)        (None, 4, 4, 1024)        0         
_________________________________________________________________
flatten_44 (Flatten)         (None, 16384)             0         
_________________________________________________________________
dense_119 (Dense)            (None, 512)               8389120   
_________________________________________________________________
activation_321 (Activation)  (None, 512)               0         
_________________________________________________________________
dropout_321 (Dropout)        (None, 512)               0         
_________________________________________________________________
dense_120 (Dense)            (None, 10)                5130      
=================================================================
Total params: 8,781,970
Trainable params: 8,781,202
Non-trainable params: 768
_________________________________________________________________
