Model: "sequential_232"
_________________________________________________________________
Layer (type)                 Output Shape              Param #   
=================================================================
conv2d_1362 (Conv2D)         (None, 32, 32, 16)        448       
_________________________________________________________________
activation_1694 (Activation) (None, 32, 32, 16)        0         
_________________________________________________________________
dropout_1694 (Dropout)       (None, 32, 32, 16)        0         
_________________________________________________________________
conv2d_1363 (Conv2D)         (None, 32, 32, 128)       18560     
_________________________________________________________________
batch_normalization_675 (Bat (None, 32, 32, 128)       512       
_________________________________________________________________
activation_1695 (Activation) (None, 32, 32, 128)       0         
_________________________________________________________________
dropout_1695 (Dropout)       (None, 32, 32, 128)       0         
_________________________________________________________________
max_pooling2d_434 (MaxPoolin (None, 16, 16, 128)       0         
_________________________________________________________________
conv2d_1364 (Conv2D)         (None, 16, 16, 128)       147584    
_________________________________________________________________
activation_1696 (Activation) (None, 16, 16, 128)       0         
_________________________________________________________________
dropout_1696 (Dropout)       (None, 16, 16, 128)       0         
_________________________________________________________________
max_pooling2d_435 (MaxPoolin (None, 8, 8, 128)         0         
_________________________________________________________________
conv2d_1365 (Conv2D)         (None, 8, 8, 32)          36896     
_________________________________________________________________
activation_1697 (Activation) (None, 8, 8, 32)          0         
_________________________________________________________________
dropout_1697 (Dropout)       (None, 8, 8, 32)          0         
_________________________________________________________________
conv2d_1366 (Conv2D)         (None, 8, 8, 256)         73984     
_________________________________________________________________
activation_1698 (Activation) (None, 8, 8, 256)         0         
_________________________________________________________________
dropout_1698 (Dropout)       (None, 8, 8, 256)         0         
_________________________________________________________________
conv2d_1367 (Conv2D)         (None, 8, 8, 128)         295040    
_________________________________________________________________
activation_1699 (Activation) (None, 8, 8, 128)         0         
_________________________________________________________________
dropout_1699 (Dropout)       (None, 8, 8, 128)         0         
_________________________________________________________________
conv2d_1368 (Conv2D)         (None, 8, 8, 16)          18448     
_________________________________________________________________
batch_normalization_676 (Bat (None, 8, 8, 16)          64        
_________________________________________________________________
activation_1700 (Activation) (None, 8, 8, 16)          0         
_________________________________________________________________
dropout_1700 (Dropout)       (None, 8, 8, 16)          0         
_________________________________________________________________
flatten_232 (Flatten)        (None, 1024)              0         
_________________________________________________________________
dense_564 (Dense)            (None, 128)               131200    
_________________________________________________________________
activation_1701 (Activation) (None, 128)               0         
_________________________________________________________________
dropout_1701 (Dropout)       (None, 128)               0         
_________________________________________________________________
dense_565 (Dense)            (None, 10)                1290      
=================================================================
Total params: 724,026
Trainable params: 723,738
Non-trainable params: 288
_________________________________________________________________
