Model: "sequential_172"
_________________________________________________________________
Layer (type)                 Output Shape              Param #   
=================================================================
conv2d_957 (Conv2D)          (None, 32, 32, 256)       7168      
_________________________________________________________________
batch_normalization_495 (Bat (None, 32, 32, 256)       1024      
_________________________________________________________________
activation_1228 (Activation) (None, 32, 32, 256)       0         
_________________________________________________________________
dropout_1228 (Dropout)       (None, 32, 32, 256)       0         
_________________________________________________________________
conv2d_958 (Conv2D)          (None, 32, 32, 512)       1180160   
_________________________________________________________________
batch_normalization_496 (Bat (None, 32, 32, 512)       2048      
_________________________________________________________________
activation_1229 (Activation) (None, 32, 32, 512)       0         
_________________________________________________________________
dropout_1229 (Dropout)       (None, 32, 32, 512)       0         
_________________________________________________________________
max_pooling2d_324 (MaxPoolin (None, 16, 16, 512)       0         
_________________________________________________________________
conv2d_959 (Conv2D)          (None, 16, 16, 128)       589952    
_________________________________________________________________
activation_1230 (Activation) (None, 16, 16, 128)       0         
_________________________________________________________________
dropout_1230 (Dropout)       (None, 16, 16, 128)       0         
_________________________________________________________________
max_pooling2d_325 (MaxPoolin (None, 8, 8, 128)         0         
_________________________________________________________________
conv2d_960 (Conv2D)          (None, 8, 8, 512)         590336    
_________________________________________________________________
batch_normalization_497 (Bat (None, 8, 8, 512)         2048      
_________________________________________________________________
activation_1231 (Activation) (None, 8, 8, 512)         0         
_________________________________________________________________
dropout_1231 (Dropout)       (None, 8, 8, 512)         0         
_________________________________________________________________
conv2d_961 (Conv2D)          (None, 8, 8, 256)         1179904   
_________________________________________________________________
activation_1232 (Activation) (None, 8, 8, 256)         0         
_________________________________________________________________
dropout_1232 (Dropout)       (None, 8, 8, 256)         0         
_________________________________________________________________
conv2d_962 (Conv2D)          (None, 8, 8, 128)         295040    
_________________________________________________________________
activation_1233 (Activation) (None, 8, 8, 128)         0         
_________________________________________________________________
dropout_1233 (Dropout)       (None, 8, 8, 128)         0         
_________________________________________________________________
conv2d_963 (Conv2D)          (None, 8, 8, 16)          18448     
_________________________________________________________________
batch_normalization_498 (Bat (None, 8, 8, 16)          64        
_________________________________________________________________
activation_1234 (Activation) (None, 8, 8, 16)          0         
_________________________________________________________________
dropout_1234 (Dropout)       (None, 8, 8, 16)          0         
_________________________________________________________________
flatten_172 (Flatten)        (None, 1024)              0         
_________________________________________________________________
dense_443 (Dense)            (None, 128)               131200    
_________________________________________________________________
activation_1235 (Activation) (None, 128)               0         
_________________________________________________________________
dropout_1235 (Dropout)       (None, 128)               0         
_________________________________________________________________
dense_444 (Dense)            (None, 10)                1290      
=================================================================
Total params: 3,998,682
Trainable params: 3,996,090
Non-trainable params: 2,592
_________________________________________________________________
