Model: "sequential_373"
_________________________________________________________________
Layer (type)                 Output Shape              Param #   
=================================================================
conv2d_2291 (Conv2D)         (None, 32, 32, 16)        448       
_________________________________________________________________
activation_2743 (Activation) (None, 32, 32, 16)        0         
_________________________________________________________________
dropout_2743 (Dropout)       (None, 32, 32, 16)        0         
_________________________________________________________________
conv2d_2292 (Conv2D)         (None, 32, 32, 128)       18560     
_________________________________________________________________
activation_2744 (Activation) (None, 32, 32, 128)       0         
_________________________________________________________________
dropout_2744 (Dropout)       (None, 32, 32, 128)       0         
_________________________________________________________________
max_pooling2d_670 (MaxPoolin (None, 16, 16, 128)       0         
_________________________________________________________________
conv2d_2293 (Conv2D)         (None, 16, 16, 32)        36896     
_________________________________________________________________
activation_2745 (Activation) (None, 16, 16, 32)        0         
_________________________________________________________________
dropout_2745 (Dropout)       (None, 16, 16, 32)        0         
_________________________________________________________________
conv2d_2294 (Conv2D)         (None, 16, 16, 256)       73984     
_________________________________________________________________
activation_2746 (Activation) (None, 16, 16, 256)       0         
_________________________________________________________________
dropout_2746 (Dropout)       (None, 16, 16, 256)       0         
_________________________________________________________________
conv2d_2295 (Conv2D)         (None, 16, 16, 128)       295040    
_________________________________________________________________
activation_2747 (Activation) (None, 16, 16, 128)       0         
_________________________________________________________________
dropout_2747 (Dropout)       (None, 16, 16, 128)       0         
_________________________________________________________________
conv2d_2296 (Conv2D)         (None, 16, 16, 16)        18448     
_________________________________________________________________
batch_normalization_1099 (Ba (None, 16, 16, 16)        64        
_________________________________________________________________
activation_2748 (Activation) (None, 16, 16, 16)        0         
_________________________________________________________________
dropout_2748 (Dropout)       (None, 16, 16, 16)        0         
_________________________________________________________________
flatten_373 (Flatten)        (None, 4096)              0         
_________________________________________________________________
dense_825 (Dense)            (None, 128)               524416    
_________________________________________________________________
activation_2749 (Activation) (None, 128)               0         
_________________________________________________________________
dropout_2749 (Dropout)       (None, 128)               0         
_________________________________________________________________
dense_826 (Dense)            (None, 10)                1290      
=================================================================
Total params: 969,146
Trainable params: 969,114
Non-trainable params: 32
_________________________________________________________________
