Model: "sequential_127"
_________________________________________________________________
Layer (type)                 Output Shape              Param #   
=================================================================
conv2d_687 (Conv2D)          (None, 32, 32, 64)        1792      
_________________________________________________________________
activation_901 (Activation)  (None, 32, 32, 64)        0         
_________________________________________________________________
dropout_901 (Dropout)        (None, 32, 32, 64)        0         
_________________________________________________________________
conv2d_688 (Conv2D)          (None, 32, 32, 128)       73856     
_________________________________________________________________
activation_902 (Activation)  (None, 32, 32, 128)       0         
_________________________________________________________________
dropout_902 (Dropout)        (None, 32, 32, 128)       0         
_________________________________________________________________
max_pooling2d_247 (MaxPoolin (None, 16, 16, 128)       0         
_________________________________________________________________
conv2d_689 (Conv2D)          (None, 16, 16, 128)       147584    
_________________________________________________________________
batch_normalization_382 (Bat (None, 16, 16, 128)       512       
_________________________________________________________________
activation_903 (Activation)  (None, 16, 16, 128)       0         
_________________________________________________________________
dropout_903 (Dropout)        (None, 16, 16, 128)       0         
_________________________________________________________________
max_pooling2d_248 (MaxPoolin (None, 8, 8, 128)         0         
_________________________________________________________________
conv2d_690 (Conv2D)          (None, 8, 8, 512)         590336    
_________________________________________________________________
activation_904 (Activation)  (None, 8, 8, 512)         0         
_________________________________________________________________
dropout_904 (Dropout)        (None, 8, 8, 512)         0         
_________________________________________________________________
max_pooling2d_249 (MaxPoolin (None, 4, 4, 512)         0         
_________________________________________________________________
flatten_127 (Flatten)        (None, 8192)              0         
_________________________________________________________________
dense_341 (Dense)            (None, 16)                131088    
_________________________________________________________________
activation_905 (Activation)  (None, 16)                0         
_________________________________________________________________
dropout_905 (Dropout)        (None, 16)                0         
_________________________________________________________________
dense_342 (Dense)            (None, 32)                544       
_________________________________________________________________
activation_906 (Activation)  (None, 32)                0         
_________________________________________________________________
dropout_906 (Dropout)        (None, 32)                0         
_________________________________________________________________
dense_343 (Dense)            (None, 10)                330       
=================================================================
Total params: 946,042
Trainable params: 945,786
Non-trainable params: 256
_________________________________________________________________
