Model: "sequential_82"
_________________________________________________________________
Layer (type)                 Output Shape              Param #   
=================================================================
conv2d_437 (Conv2D)          (None, 32, 32, 8)         224       
_________________________________________________________________
batch_normalization_274 (Bat (None, 32, 32, 8)         32        
_________________________________________________________________
activation_581 (Activation)  (None, 32, 32, 8)         0         
_________________________________________________________________
dropout_581 (Dropout)        (None, 32, 32, 8)         0         
_________________________________________________________________
conv2d_438 (Conv2D)          (None, 32, 32, 512)       37376     
_________________________________________________________________
batch_normalization_275 (Bat (None, 32, 32, 512)       2048      
_________________________________________________________________
activation_582 (Activation)  (None, 32, 32, 512)       0         
_________________________________________________________________
dropout_582 (Dropout)        (None, 32, 32, 512)       0         
_________________________________________________________________
conv2d_439 (Conv2D)          (None, 32, 32, 128)       589952    
_________________________________________________________________
batch_normalization_276 (Bat (None, 32, 32, 128)       512       
_________________________________________________________________
activation_583 (Activation)  (None, 32, 32, 128)       0         
_________________________________________________________________
dropout_583 (Dropout)        (None, 32, 32, 128)       0         
_________________________________________________________________
conv2d_440 (Conv2D)          (None, 32, 32, 32)        36896     
_________________________________________________________________
activation_584 (Activation)  (None, 32, 32, 32)        0         
_________________________________________________________________
dropout_584 (Dropout)        (None, 32, 32, 32)        0         
_________________________________________________________________
max_pooling2d_163 (MaxPoolin (None, 16, 16, 32)        0         
_________________________________________________________________
conv2d_441 (Conv2D)          (None, 16, 16, 32)        9248      
_________________________________________________________________
activation_585 (Activation)  (None, 16, 16, 32)        0         
_________________________________________________________________
dropout_585 (Dropout)        (None, 16, 16, 32)        0         
_________________________________________________________________
conv2d_442 (Conv2D)          (None, 16, 16, 64)        18496     
_________________________________________________________________
batch_normalization_277 (Bat (None, 16, 16, 64)        256       
_________________________________________________________________
activation_586 (Activation)  (None, 16, 16, 64)        0         
_________________________________________________________________
dropout_586 (Dropout)        (None, 16, 16, 64)        0         
_________________________________________________________________
flatten_82 (Flatten)         (None, 16384)             0         
_________________________________________________________________
dense_226 (Dense)            (None, 32)                524320    
_________________________________________________________________
activation_587 (Activation)  (None, 32)                0         
_________________________________________________________________
dropout_587 (Dropout)        (None, 32)                0         
_________________________________________________________________
dense_227 (Dense)            (None, 64)                2112      
_________________________________________________________________
batch_normalization_278 (Bat (None, 64)                256       
_________________________________________________________________
activation_588 (Activation)  (None, 64)                0         
_________________________________________________________________
dropout_588 (Dropout)        (None, 64)                0         
_________________________________________________________________
dense_228 (Dense)            (None, 512)               33280     
_________________________________________________________________
activation_589 (Activation)  (None, 512)               0         
_________________________________________________________________
dropout_589 (Dropout)        (None, 512)               0         
_________________________________________________________________
dense_229 (Dense)            (None, 10)                5130      
=================================================================
Total params: 1,260,138
Trainable params: 1,258,586
Non-trainable params: 1,552
_________________________________________________________________
