Model: "sequential_30"
_________________________________________________________________
Layer (type)                 Output Shape              Param #   
=================================================================
conv2d_161 (Conv2D)          (None, 32, 32, 8)         224       
_________________________________________________________________
batch_normalization_107 (Bat (None, 32, 32, 8)         32        
_________________________________________________________________
activation_216 (Activation)  (None, 32, 32, 8)         0         
_________________________________________________________________
dropout_216 (Dropout)        (None, 32, 32, 8)         0         
_________________________________________________________________
conv2d_162 (Conv2D)          (None, 32, 32, 512)       37376     
_________________________________________________________________
batch_normalization_108 (Bat (None, 32, 32, 512)       2048      
_________________________________________________________________
activation_217 (Activation)  (None, 32, 32, 512)       0         
_________________________________________________________________
dropout_217 (Dropout)        (None, 32, 32, 512)       0         
_________________________________________________________________
max_pooling2d_59 (MaxPooling (None, 16, 16, 512)       0         
_________________________________________________________________
conv2d_163 (Conv2D)          (None, 16, 16, 32)        147488    
_________________________________________________________________
batch_normalization_109 (Bat (None, 16, 16, 32)        128       
_________________________________________________________________
activation_218 (Activation)  (None, 16, 16, 32)        0         
_________________________________________________________________
dropout_218 (Dropout)        (None, 16, 16, 32)        0         
_________________________________________________________________
max_pooling2d_60 (MaxPooling (None, 8, 8, 32)          0         
_________________________________________________________________
conv2d_164 (Conv2D)          (None, 8, 8, 256)         73984     
_________________________________________________________________
activation_219 (Activation)  (None, 8, 8, 256)         0         
_________________________________________________________________
dropout_219 (Dropout)        (None, 8, 8, 256)         0         
_________________________________________________________________
conv2d_165 (Conv2D)          (None, 8, 8, 128)         295040    
_________________________________________________________________
activation_220 (Activation)  (None, 8, 8, 128)         0         
_________________________________________________________________
dropout_220 (Dropout)        (None, 8, 8, 128)         0         
_________________________________________________________________
conv2d_166 (Conv2D)          (None, 8, 8, 16)          18448     
_________________________________________________________________
batch_normalization_110 (Bat (None, 8, 8, 16)          64        
_________________________________________________________________
activation_221 (Activation)  (None, 8, 8, 16)          0         
_________________________________________________________________
dropout_221 (Dropout)        (None, 8, 8, 16)          0         
_________________________________________________________________
flatten_30 (Flatten)         (None, 1024)              0         
_________________________________________________________________
dense_85 (Dense)             (None, 128)               131200    
_________________________________________________________________
activation_222 (Activation)  (None, 128)               0         
_________________________________________________________________
dropout_222 (Dropout)        (None, 128)               0         
_________________________________________________________________
dense_86 (Dense)             (None, 10)                1290      
=================================================================
Total params: 707,322
Trainable params: 706,186
Non-trainable params: 1,136
_________________________________________________________________
