Model: "sequential_356"
_________________________________________________________________
Layer (type)                 Output Shape              Param #   
=================================================================
conv2d_2186 (Conv2D)         (None, 32, 32, 16)        448       
_________________________________________________________________
activation_2627 (Activation) (None, 32, 32, 16)        0         
_________________________________________________________________
dropout_2627 (Dropout)       (None, 32, 32, 16)        0         
_________________________________________________________________
max_pooling2d_646 (MaxPoolin (None, 16, 16, 16)        0         
_________________________________________________________________
conv2d_2187 (Conv2D)         (None, 16, 16, 128)       18560     
_________________________________________________________________
activation_2628 (Activation) (None, 16, 16, 128)       0         
_________________________________________________________________
dropout_2628 (Dropout)       (None, 16, 16, 128)       0         
_________________________________________________________________
max_pooling2d_647 (MaxPoolin (None, 8, 8, 128)         0         
_________________________________________________________________
conv2d_2188 (Conv2D)         (None, 8, 8, 32)          36896     
_________________________________________________________________
activation_2629 (Activation) (None, 8, 8, 32)          0         
_________________________________________________________________
dropout_2629 (Dropout)       (None, 8, 8, 32)          0         
_________________________________________________________________
conv2d_2189 (Conv2D)         (None, 8, 8, 256)         73984     
_________________________________________________________________
activation_2630 (Activation) (None, 8, 8, 256)         0         
_________________________________________________________________
dropout_2630 (Dropout)       (None, 8, 8, 256)         0         
_________________________________________________________________
conv2d_2190 (Conv2D)         (None, 8, 8, 128)         295040    
_________________________________________________________________
activation_2631 (Activation) (None, 8, 8, 128)         0         
_________________________________________________________________
dropout_2631 (Dropout)       (None, 8, 8, 128)         0         
_________________________________________________________________
conv2d_2191 (Conv2D)         (None, 8, 8, 16)          18448     
_________________________________________________________________
batch_normalization_1057 (Ba (None, 8, 8, 16)          64        
_________________________________________________________________
activation_2632 (Activation) (None, 8, 8, 16)          0         
_________________________________________________________________
dropout_2632 (Dropout)       (None, 8, 8, 16)          0         
_________________________________________________________________
flatten_356 (Flatten)        (None, 1024)              0         
_________________________________________________________________
dense_797 (Dense)            (None, 128)               131200    
_________________________________________________________________
activation_2633 (Activation) (None, 128)               0         
_________________________________________________________________
dropout_2633 (Dropout)       (None, 128)               0         
_________________________________________________________________
dense_798 (Dense)            (None, 10)                1290      
=================================================================
Total params: 575,930
Trainable params: 575,898
Non-trainable params: 32
_________________________________________________________________
