Model: "sequential_308"
_________________________________________________________________
Layer (type)                 Output Shape              Param #   
=================================================================
conv2d_1877 (Conv2D)         (None, 32, 32, 16)        448       
_________________________________________________________________
activation_2277 (Activation) (None, 32, 32, 16)        0         
_________________________________________________________________
dropout_2277 (Dropout)       (None, 32, 32, 16)        0         
_________________________________________________________________
conv2d_1878 (Conv2D)         (None, 32, 32, 128)       18560     
_________________________________________________________________
batch_normalization_928 (Bat (None, 32, 32, 128)       512       
_________________________________________________________________
activation_2278 (Activation) (None, 32, 32, 128)       0         
_________________________________________________________________
dropout_2278 (Dropout)       (None, 32, 32, 128)       0         
_________________________________________________________________
max_pooling2d_576 (MaxPoolin (None, 16, 16, 128)       0         
_________________________________________________________________
conv2d_1879 (Conv2D)         (None, 16, 16, 128)       147584    
_________________________________________________________________
activation_2279 (Activation) (None, 16, 16, 128)       0         
_________________________________________________________________
dropout_2279 (Dropout)       (None, 16, 16, 128)       0         
_________________________________________________________________
max_pooling2d_577 (MaxPoolin (None, 8, 8, 128)         0         
_________________________________________________________________
conv2d_1880 (Conv2D)         (None, 8, 8, 512)         590336    
_________________________________________________________________
batch_normalization_929 (Bat (None, 8, 8, 512)         2048      
_________________________________________________________________
activation_2280 (Activation) (None, 8, 8, 512)         0         
_________________________________________________________________
dropout_2280 (Dropout)       (None, 8, 8, 512)         0         
_________________________________________________________________
conv2d_1881 (Conv2D)         (None, 8, 8, 256)         1179904   
_________________________________________________________________
activation_2281 (Activation) (None, 8, 8, 256)         0         
_________________________________________________________________
dropout_2281 (Dropout)       (None, 8, 8, 256)         0         
_________________________________________________________________
conv2d_1882 (Conv2D)         (None, 8, 8, 128)         295040    
_________________________________________________________________
activation_2282 (Activation) (None, 8, 8, 128)         0         
_________________________________________________________________
dropout_2282 (Dropout)       (None, 8, 8, 128)         0         
_________________________________________________________________
conv2d_1883 (Conv2D)         (None, 8, 8, 16)          18448     
_________________________________________________________________
batch_normalization_930 (Bat (None, 8, 8, 16)          64        
_________________________________________________________________
activation_2283 (Activation) (None, 8, 8, 16)          0         
_________________________________________________________________
dropout_2283 (Dropout)       (None, 8, 8, 16)          0         
_________________________________________________________________
flatten_308 (Flatten)        (None, 1024)              0         
_________________________________________________________________
dense_708 (Dense)            (None, 128)               131200    
_________________________________________________________________
activation_2284 (Activation) (None, 128)               0         
_________________________________________________________________
dropout_2284 (Dropout)       (None, 128)               0         
_________________________________________________________________
dense_709 (Dense)            (None, 10)                1290      
=================================================================
Total params: 2,385,434
Trainable params: 2,384,122
Non-trainable params: 1,312
_________________________________________________________________
