Model: "sequential_112"
_________________________________________________________________
Layer (type)                 Output Shape              Param #   
=================================================================
conv2d_604 (Conv2D)          (None, 32, 32, 16)        448       
_________________________________________________________________
activation_794 (Activation)  (None, 32, 32, 16)        0         
_________________________________________________________________
dropout_794 (Dropout)        (None, 32, 32, 16)        0         
_________________________________________________________________
conv2d_605 (Conv2D)          (None, 32, 32, 128)       18560     
_________________________________________________________________
batch_normalization_355 (Bat (None, 32, 32, 128)       512       
_________________________________________________________________
activation_795 (Activation)  (None, 32, 32, 128)       0         
_________________________________________________________________
dropout_795 (Dropout)        (None, 32, 32, 128)       0         
_________________________________________________________________
max_pooling2d_215 (MaxPoolin (None, 16, 16, 128)       0         
_________________________________________________________________
conv2d_606 (Conv2D)          (None, 16, 16, 128)       147584    
_________________________________________________________________
activation_796 (Activation)  (None, 16, 16, 128)       0         
_________________________________________________________________
dropout_796 (Dropout)        (None, 16, 16, 128)       0         
_________________________________________________________________
max_pooling2d_216 (MaxPoolin (None, 8, 8, 128)         0         
_________________________________________________________________
conv2d_607 (Conv2D)          (None, 8, 8, 32)          36896     
_________________________________________________________________
activation_797 (Activation)  (None, 8, 8, 32)          0         
_________________________________________________________________
dropout_797 (Dropout)        (None, 8, 8, 32)          0         
_________________________________________________________________
conv2d_608 (Conv2D)          (None, 8, 8, 32)          9248      
_________________________________________________________________
activation_798 (Activation)  (None, 8, 8, 32)          0         
_________________________________________________________________
dropout_798 (Dropout)        (None, 8, 8, 32)          0         
_________________________________________________________________
conv2d_609 (Conv2D)          (None, 8, 8, 128)         36992     
_________________________________________________________________
activation_799 (Activation)  (None, 8, 8, 128)         0         
_________________________________________________________________
dropout_799 (Dropout)        (None, 8, 8, 128)         0         
_________________________________________________________________
conv2d_610 (Conv2D)          (None, 8, 8, 16)          18448     
_________________________________________________________________
batch_normalization_356 (Bat (None, 8, 8, 16)          64        
_________________________________________________________________
activation_800 (Activation)  (None, 8, 8, 16)          0         
_________________________________________________________________
dropout_800 (Dropout)        (None, 8, 8, 16)          0         
_________________________________________________________________
flatten_112 (Flatten)        (None, 1024)              0         
_________________________________________________________________
dense_302 (Dense)            (None, 128)               131200    
_________________________________________________________________
activation_801 (Activation)  (None, 128)               0         
_________________________________________________________________
dropout_801 (Dropout)        (None, 128)               0         
_________________________________________________________________
dense_303 (Dense)            (None, 10)                1290      
=================================================================
Total params: 401,242
Trainable params: 400,954
Non-trainable params: 288
_________________________________________________________________
