Model: "sequential_225"
_________________________________________________________________
Layer (type)                 Output Shape              Param #   
=================================================================
conv2d_1314 (Conv2D)         (None, 32, 32, 16)        448       
_________________________________________________________________
batch_normalization_651 (Bat (None, 32, 32, 16)        64        
_________________________________________________________________
activation_1641 (Activation) (None, 32, 32, 16)        0         
_________________________________________________________________
dropout_1641 (Dropout)       (None, 32, 32, 16)        0         
_________________________________________________________________
conv2d_1315 (Conv2D)         (None, 32, 32, 512)       74240     
_________________________________________________________________
batch_normalization_652 (Bat (None, 32, 32, 512)       2048      
_________________________________________________________________
activation_1642 (Activation) (None, 32, 32, 512)       0         
_________________________________________________________________
dropout_1642 (Dropout)       (None, 32, 32, 512)       0         
_________________________________________________________________
max_pooling2d_419 (MaxPoolin (None, 16, 16, 512)       0         
_________________________________________________________________
conv2d_1316 (Conv2D)         (None, 16, 16, 128)       589952    
_________________________________________________________________
activation_1643 (Activation) (None, 16, 16, 128)       0         
_________________________________________________________________
dropout_1643 (Dropout)       (None, 16, 16, 128)       0         
_________________________________________________________________
max_pooling2d_420 (MaxPoolin (None, 8, 8, 128)         0         
_________________________________________________________________
conv2d_1317 (Conv2D)         (None, 8, 8, 512)         590336    
_________________________________________________________________
batch_normalization_653 (Bat (None, 8, 8, 512)         2048      
_________________________________________________________________
activation_1644 (Activation) (None, 8, 8, 512)         0         
_________________________________________________________________
dropout_1644 (Dropout)       (None, 8, 8, 512)         0         
_________________________________________________________________
conv2d_1318 (Conv2D)         (None, 8, 8, 256)         1179904   
_________________________________________________________________
activation_1645 (Activation) (None, 8, 8, 256)         0         
_________________________________________________________________
dropout_1645 (Dropout)       (None, 8, 8, 256)         0         
_________________________________________________________________
conv2d_1319 (Conv2D)         (None, 8, 8, 128)         295040    
_________________________________________________________________
activation_1646 (Activation) (None, 8, 8, 128)         0         
_________________________________________________________________
dropout_1646 (Dropout)       (None, 8, 8, 128)         0         
_________________________________________________________________
conv2d_1320 (Conv2D)         (None, 8, 8, 16)          18448     
_________________________________________________________________
batch_normalization_654 (Bat (None, 8, 8, 16)          64        
_________________________________________________________________
activation_1647 (Activation) (None, 8, 8, 16)          0         
_________________________________________________________________
dropout_1647 (Dropout)       (None, 8, 8, 16)          0         
_________________________________________________________________
flatten_225 (Flatten)        (None, 1024)              0         
_________________________________________________________________
dense_552 (Dense)            (None, 128)               131200    
_________________________________________________________________
activation_1648 (Activation) (None, 128)               0         
_________________________________________________________________
dropout_1648 (Dropout)       (None, 128)               0         
_________________________________________________________________
dense_553 (Dense)            (None, 10)                1290      
=================================================================
Total params: 2,885,082
Trainable params: 2,882,970
Non-trainable params: 2,112
_________________________________________________________________
