Model: "sequential_288"
_________________________________________________________________
Layer (type)                 Output Shape              Param #   
=================================================================
conv2d_1743 (Conv2D)         (None, 32, 32, 16)        448       
_________________________________________________________________
batch_normalization_862 (Bat (None, 32, 32, 16)        64        
_________________________________________________________________
activation_2125 (Activation) (None, 32, 32, 16)        0         
_________________________________________________________________
dropout_2125 (Dropout)       (None, 32, 32, 16)        0         
_________________________________________________________________
conv2d_1744 (Conv2D)         (None, 32, 32, 128)       18560     
_________________________________________________________________
batch_normalization_863 (Bat (None, 32, 32, 128)       512       
_________________________________________________________________
activation_2126 (Activation) (None, 32, 32, 128)       0         
_________________________________________________________________
dropout_2126 (Dropout)       (None, 32, 32, 128)       0         
_________________________________________________________________
max_pooling2d_541 (MaxPoolin (None, 16, 16, 128)       0         
_________________________________________________________________
conv2d_1745 (Conv2D)         (None, 16, 16, 128)       147584    
_________________________________________________________________
activation_2127 (Activation) (None, 16, 16, 128)       0         
_________________________________________________________________
dropout_2127 (Dropout)       (None, 16, 16, 128)       0         
_________________________________________________________________
max_pooling2d_542 (MaxPoolin (None, 8, 8, 128)         0         
_________________________________________________________________
conv2d_1746 (Conv2D)         (None, 8, 8, 512)         590336    
_________________________________________________________________
batch_normalization_864 (Bat (None, 8, 8, 512)         2048      
_________________________________________________________________
activation_2128 (Activation) (None, 8, 8, 512)         0         
_________________________________________________________________
dropout_2128 (Dropout)       (None, 8, 8, 512)         0         
_________________________________________________________________
conv2d_1747 (Conv2D)         (None, 8, 8, 256)         1179904   
_________________________________________________________________
activation_2129 (Activation) (None, 8, 8, 256)         0         
_________________________________________________________________
dropout_2129 (Dropout)       (None, 8, 8, 256)         0         
_________________________________________________________________
conv2d_1748 (Conv2D)         (None, 8, 8, 128)         295040    
_________________________________________________________________
activation_2130 (Activation) (None, 8, 8, 128)         0         
_________________________________________________________________
dropout_2130 (Dropout)       (None, 8, 8, 128)         0         
_________________________________________________________________
conv2d_1749 (Conv2D)         (None, 8, 8, 16)          18448     
_________________________________________________________________
batch_normalization_865 (Bat (None, 8, 8, 16)          64        
_________________________________________________________________
activation_2131 (Activation) (None, 8, 8, 16)          0         
_________________________________________________________________
dropout_2131 (Dropout)       (None, 8, 8, 16)          0         
_________________________________________________________________
flatten_288 (Flatten)        (None, 1024)              0         
_________________________________________________________________
dense_670 (Dense)            (None, 128)               131200    
_________________________________________________________________
activation_2132 (Activation) (None, 128)               0         
_________________________________________________________________
dropout_2132 (Dropout)       (None, 128)               0         
_________________________________________________________________
dense_671 (Dense)            (None, 10)                1290      
=================================================================
Total params: 2,385,498
Trainable params: 2,384,154
Non-trainable params: 1,344
_________________________________________________________________
