Model: "sequential_134"
_________________________________________________________________
Layer (type)                 Output Shape              Param #   
=================================================================
conv2d_724 (Conv2D)          (None, 32, 32, 256)       7168      
_________________________________________________________________
batch_normalization_396 (Bat (None, 32, 32, 256)       1024      
_________________________________________________________________
activation_948 (Activation)  (None, 32, 32, 256)       0         
_________________________________________________________________
dropout_948 (Dropout)        (None, 32, 32, 256)       0         
_________________________________________________________________
conv2d_725 (Conv2D)          (None, 32, 32, 512)       1180160   
_________________________________________________________________
batch_normalization_397 (Bat (None, 32, 32, 512)       2048      
_________________________________________________________________
activation_949 (Activation)  (None, 32, 32, 512)       0         
_________________________________________________________________
dropout_949 (Dropout)        (None, 32, 32, 512)       0         
_________________________________________________________________
max_pooling2d_260 (MaxPoolin (None, 16, 16, 512)       0         
_________________________________________________________________
conv2d_726 (Conv2D)          (None, 16, 16, 128)       589952    
_________________________________________________________________
activation_950 (Activation)  (None, 16, 16, 128)       0         
_________________________________________________________________
dropout_950 (Dropout)        (None, 16, 16, 128)       0         
_________________________________________________________________
max_pooling2d_261 (MaxPoolin (None, 8, 8, 128)         0         
_________________________________________________________________
conv2d_727 (Conv2D)          (None, 8, 8, 512)         590336    
_________________________________________________________________
batch_normalization_398 (Bat (None, 8, 8, 512)         2048      
_________________________________________________________________
activation_951 (Activation)  (None, 8, 8, 512)         0         
_________________________________________________________________
dropout_951 (Dropout)        (None, 8, 8, 512)         0         
_________________________________________________________________
conv2d_728 (Conv2D)          (None, 8, 8, 256)         1179904   
_________________________________________________________________
activation_952 (Activation)  (None, 8, 8, 256)         0         
_________________________________________________________________
dropout_952 (Dropout)        (None, 8, 8, 256)         0         
_________________________________________________________________
conv2d_729 (Conv2D)          (None, 8, 8, 128)         295040    
_________________________________________________________________
activation_953 (Activation)  (None, 8, 8, 128)         0         
_________________________________________________________________
dropout_953 (Dropout)        (None, 8, 8, 128)         0         
_________________________________________________________________
conv2d_730 (Conv2D)          (None, 8, 8, 16)          18448     
_________________________________________________________________
batch_normalization_399 (Bat (None, 8, 8, 16)          64        
_________________________________________________________________
activation_954 (Activation)  (None, 8, 8, 16)          0         
_________________________________________________________________
dropout_954 (Dropout)        (None, 8, 8, 16)          0         
_________________________________________________________________
flatten_134 (Flatten)        (None, 1024)              0         
_________________________________________________________________
dense_358 (Dense)            (None, 128)               131200    
_________________________________________________________________
activation_955 (Activation)  (None, 128)               0         
_________________________________________________________________
dropout_955 (Dropout)        (None, 128)               0         
_________________________________________________________________
dense_359 (Dense)            (None, 10)                1290      
=================================================================
Total params: 3,998,682
Trainable params: 3,996,090
Non-trainable params: 2,592
_________________________________________________________________
