Model: "sequential_207"
_________________________________________________________________
Layer (type)                 Output Shape              Param #   
=================================================================
conv2d_1191 (Conv2D)         (None, 32, 32, 256)       7168      
_________________________________________________________________
batch_normalization_600 (Bat (None, 32, 32, 256)       1024      
_________________________________________________________________
activation_1501 (Activation) (None, 32, 32, 256)       0         
_________________________________________________________________
dropout_1501 (Dropout)       (None, 32, 32, 256)       0         
_________________________________________________________________
conv2d_1192 (Conv2D)         (None, 32, 32, 1024)      2360320   
_________________________________________________________________
batch_normalization_601 (Bat (None, 32, 32, 1024)      4096      
_________________________________________________________________
activation_1502 (Activation) (None, 32, 32, 1024)      0         
_________________________________________________________________
dropout_1502 (Dropout)       (None, 32, 32, 1024)      0         
_________________________________________________________________
max_pooling2d_383 (MaxPoolin (None, 16, 16, 1024)      0         
_________________________________________________________________
conv2d_1193 (Conv2D)         (None, 16, 16, 128)       1179776   
_________________________________________________________________
activation_1503 (Activation) (None, 16, 16, 128)       0         
_________________________________________________________________
dropout_1503 (Dropout)       (None, 16, 16, 128)       0         
_________________________________________________________________
max_pooling2d_384 (MaxPoolin (None, 8, 8, 128)         0         
_________________________________________________________________
conv2d_1194 (Conv2D)         (None, 8, 8, 512)         590336    
_________________________________________________________________
batch_normalization_602 (Bat (None, 8, 8, 512)         2048      
_________________________________________________________________
activation_1504 (Activation) (None, 8, 8, 512)         0         
_________________________________________________________________
dropout_1504 (Dropout)       (None, 8, 8, 512)         0         
_________________________________________________________________
conv2d_1195 (Conv2D)         (None, 8, 8, 256)         1179904   
_________________________________________________________________
activation_1505 (Activation) (None, 8, 8, 256)         0         
_________________________________________________________________
dropout_1505 (Dropout)       (None, 8, 8, 256)         0         
_________________________________________________________________
conv2d_1196 (Conv2D)         (None, 8, 8, 128)         295040    
_________________________________________________________________
activation_1506 (Activation) (None, 8, 8, 128)         0         
_________________________________________________________________
dropout_1506 (Dropout)       (None, 8, 8, 128)         0         
_________________________________________________________________
conv2d_1197 (Conv2D)         (None, 8, 8, 16)          18448     
_________________________________________________________________
batch_normalization_603 (Bat (None, 8, 8, 16)          64        
_________________________________________________________________
activation_1507 (Activation) (None, 8, 8, 16)          0         
_________________________________________________________________
dropout_1507 (Dropout)       (None, 8, 8, 16)          0         
_________________________________________________________________
flatten_207 (Flatten)        (None, 1024)              0         
_________________________________________________________________
dense_517 (Dense)            (None, 128)               131200    
_________________________________________________________________
activation_1508 (Activation) (None, 128)               0         
_________________________________________________________________
dropout_1508 (Dropout)       (None, 128)               0         
_________________________________________________________________
dense_518 (Dense)            (None, 10)                1290      
=================================================================
Total params: 5,770,714
Trainable params: 5,767,098
Non-trainable params: 3,616
_________________________________________________________________
