Model: "sequential_376"
_________________________________________________________________
Layer (type)                 Output Shape              Param #   
=================================================================
conv2d_2309 (Conv2D)         (None, 32, 32, 1024)      28672     
_________________________________________________________________
activation_2763 (Activation) (None, 32, 32, 1024)      0         
_________________________________________________________________
dropout_2763 (Dropout)       (None, 32, 32, 1024)      0         
_________________________________________________________________
conv2d_2310 (Conv2D)         (None, 32, 32, 512)       4719104   
_________________________________________________________________
batch_normalization_1104 (Ba (None, 32, 32, 512)       2048      
_________________________________________________________________
activation_2764 (Activation) (None, 32, 32, 512)       0         
_________________________________________________________________
dropout_2764 (Dropout)       (None, 32, 32, 512)       0         
_________________________________________________________________
max_pooling2d_674 (MaxPoolin (None, 16, 16, 512)       0         
_________________________________________________________________
conv2d_2311 (Conv2D)         (None, 16, 16, 128)       589952    
_________________________________________________________________
activation_2765 (Activation) (None, 16, 16, 128)       0         
_________________________________________________________________
dropout_2765 (Dropout)       (None, 16, 16, 128)       0         
_________________________________________________________________
max_pooling2d_675 (MaxPoolin (None, 8, 8, 128)         0         
_________________________________________________________________
conv2d_2312 (Conv2D)         (None, 8, 8, 512)         590336    
_________________________________________________________________
activation_2766 (Activation) (None, 8, 8, 512)         0         
_________________________________________________________________
dropout_2766 (Dropout)       (None, 8, 8, 512)         0         
_________________________________________________________________
conv2d_2313 (Conv2D)         (None, 8, 8, 256)         1179904   
_________________________________________________________________
activation_2767 (Activation) (None, 8, 8, 256)         0         
_________________________________________________________________
dropout_2767 (Dropout)       (None, 8, 8, 256)         0         
_________________________________________________________________
conv2d_2314 (Conv2D)         (None, 8, 8, 128)         295040    
_________________________________________________________________
activation_2768 (Activation) (None, 8, 8, 128)         0         
_________________________________________________________________
dropout_2768 (Dropout)       (None, 8, 8, 128)         0         
_________________________________________________________________
conv2d_2315 (Conv2D)         (None, 8, 8, 16)          18448     
_________________________________________________________________
batch_normalization_1105 (Ba (None, 8, 8, 16)          64        
_________________________________________________________________
activation_2769 (Activation) (None, 8, 8, 16)          0         
_________________________________________________________________
dropout_2769 (Dropout)       (None, 8, 8, 16)          0         
_________________________________________________________________
flatten_376 (Flatten)        (None, 1024)              0         
_________________________________________________________________
dense_830 (Dense)            (None, 10)                10250     
=================================================================
Total params: 7,433,818
Trainable params: 7,432,762
Non-trainable params: 1,056
_________________________________________________________________
