Model: "sequential_87"
_________________________________________________________________
Layer (type)                 Output Shape              Param #   
=================================================================
conv2d_465 (Conv2D)          (None, 32, 32, 16)        448       
_________________________________________________________________
activation_620 (Activation)  (None, 32, 32, 16)        0         
_________________________________________________________________
dropout_620 (Dropout)        (None, 32, 32, 16)        0         
_________________________________________________________________
conv2d_466 (Conv2D)          (None, 32, 32, 128)       18560     
_________________________________________________________________
batch_normalization_286 (Bat (None, 32, 32, 128)       512       
_________________________________________________________________
activation_621 (Activation)  (None, 32, 32, 128)       0         
_________________________________________________________________
dropout_621 (Dropout)        (None, 32, 32, 128)       0         
_________________________________________________________________
max_pooling2d_172 (MaxPoolin (None, 16, 16, 128)       0         
_________________________________________________________________
conv2d_467 (Conv2D)          (None, 16, 16, 128)       147584    
_________________________________________________________________
activation_622 (Activation)  (None, 16, 16, 128)       0         
_________________________________________________________________
dropout_622 (Dropout)        (None, 16, 16, 128)       0         
_________________________________________________________________
max_pooling2d_173 (MaxPoolin (None, 8, 8, 128)         0         
_________________________________________________________________
conv2d_468 (Conv2D)          (None, 8, 8, 512)         590336    
_________________________________________________________________
batch_normalization_287 (Bat (None, 8, 8, 512)         2048      
_________________________________________________________________
activation_623 (Activation)  (None, 8, 8, 512)         0         
_________________________________________________________________
dropout_623 (Dropout)        (None, 8, 8, 512)         0         
_________________________________________________________________
conv2d_469 (Conv2D)          (None, 8, 8, 256)         1179904   
_________________________________________________________________
activation_624 (Activation)  (None, 8, 8, 256)         0         
_________________________________________________________________
dropout_624 (Dropout)        (None, 8, 8, 256)         0         
_________________________________________________________________
conv2d_470 (Conv2D)          (None, 8, 8, 128)         295040    
_________________________________________________________________
activation_625 (Activation)  (None, 8, 8, 128)         0         
_________________________________________________________________
dropout_625 (Dropout)        (None, 8, 8, 128)         0         
_________________________________________________________________
conv2d_471 (Conv2D)          (None, 8, 8, 16)          18448     
_________________________________________________________________
batch_normalization_288 (Bat (None, 8, 8, 16)          64        
_________________________________________________________________
activation_626 (Activation)  (None, 8, 8, 16)          0         
_________________________________________________________________
dropout_626 (Dropout)        (None, 8, 8, 16)          0         
_________________________________________________________________
flatten_87 (Flatten)         (None, 1024)              0         
_________________________________________________________________
dense_242 (Dense)            (None, 128)               131200    
_________________________________________________________________
activation_627 (Activation)  (None, 128)               0         
_________________________________________________________________
dropout_627 (Dropout)        (None, 128)               0         
_________________________________________________________________
dense_243 (Dense)            (None, 10)                1290      
=================================================================
Total params: 2,385,434
Trainable params: 2,384,122
Non-trainable params: 1,312
_________________________________________________________________
