Model: "sequential_274"
_________________________________________________________________
Layer (type)                 Output Shape              Param #   
=================================================================
conv2d_1647 (Conv2D)         (None, 32, 32, 16)        448       
_________________________________________________________________
activation_2016 (Activation) (None, 32, 32, 16)        0         
_________________________________________________________________
dropout_2016 (Dropout)       (None, 32, 32, 16)        0         
_________________________________________________________________
conv2d_1648 (Conv2D)         (None, 32, 32, 512)       74240     
_________________________________________________________________
batch_normalization_814 (Bat (None, 32, 32, 512)       2048      
_________________________________________________________________
activation_2017 (Activation) (None, 32, 32, 512)       0         
_________________________________________________________________
dropout_2017 (Dropout)       (None, 32, 32, 512)       0         
_________________________________________________________________
max_pooling2d_511 (MaxPoolin (None, 16, 16, 512)       0         
_________________________________________________________________
conv2d_1649 (Conv2D)         (None, 16, 16, 128)       589952    
_________________________________________________________________
activation_2018 (Activation) (None, 16, 16, 128)       0         
_________________________________________________________________
dropout_2018 (Dropout)       (None, 16, 16, 128)       0         
_________________________________________________________________
max_pooling2d_512 (MaxPoolin (None, 8, 8, 128)         0         
_________________________________________________________________
conv2d_1650 (Conv2D)         (None, 8, 8, 512)         590336    
_________________________________________________________________
batch_normalization_815 (Bat (None, 8, 8, 512)         2048      
_________________________________________________________________
activation_2019 (Activation) (None, 8, 8, 512)         0         
_________________________________________________________________
dropout_2019 (Dropout)       (None, 8, 8, 512)         0         
_________________________________________________________________
conv2d_1651 (Conv2D)         (None, 8, 8, 1024)        4719616   
_________________________________________________________________
activation_2020 (Activation) (None, 8, 8, 1024)        0         
_________________________________________________________________
dropout_2020 (Dropout)       (None, 8, 8, 1024)        0         
_________________________________________________________________
max_pooling2d_513 (MaxPoolin (None, 4, 4, 1024)        0         
_________________________________________________________________
conv2d_1652 (Conv2D)         (None, 4, 4, 128)         1179776   
_________________________________________________________________
activation_2021 (Activation) (None, 4, 4, 128)         0         
_________________________________________________________________
dropout_2021 (Dropout)       (None, 4, 4, 128)         0         
_________________________________________________________________
conv2d_1653 (Conv2D)         (None, 4, 4, 16)          18448     
_________________________________________________________________
batch_normalization_816 (Bat (None, 4, 4, 16)          64        
_________________________________________________________________
activation_2022 (Activation) (None, 4, 4, 16)          0         
_________________________________________________________________
dropout_2022 (Dropout)       (None, 4, 4, 16)          0         
_________________________________________________________________
flatten_274 (Flatten)        (None, 256)               0         
_________________________________________________________________
dense_643 (Dense)            (None, 128)               32896     
_________________________________________________________________
activation_2023 (Activation) (None, 128)               0         
_________________________________________________________________
dropout_2023 (Dropout)       (None, 128)               0         
_________________________________________________________________
dense_644 (Dense)            (None, 10)                1290      
=================================================================
Total params: 7,211,162
Trainable params: 7,209,082
Non-trainable params: 2,080
_________________________________________________________________
