Model: "sequential_45"
_________________________________________________________________
Layer (type)                 Output Shape              Param #   
=================================================================
conv2d_246 (Conv2D)          (None, 32, 32, 32)        896       
_________________________________________________________________
batch_normalization_163 (Bat (None, 32, 32, 32)        128       
_________________________________________________________________
activation_322 (Activation)  (None, 32, 32, 32)        0         
_________________________________________________________________
dropout_322 (Dropout)        (None, 32, 32, 32)        0         
_________________________________________________________________
max_pooling2d_91 (MaxPooling (None, 16, 16, 32)        0         
_________________________________________________________________
conv2d_247 (Conv2D)          (None, 16, 16, 512)       147968    
_________________________________________________________________
batch_normalization_164 (Bat (None, 16, 16, 512)       2048      
_________________________________________________________________
activation_323 (Activation)  (None, 16, 16, 512)       0         
_________________________________________________________________
dropout_323 (Dropout)        (None, 16, 16, 512)       0         
_________________________________________________________________
conv2d_248 (Conv2D)          (None, 16, 16, 16)        73744     
_________________________________________________________________
activation_324 (Activation)  (None, 16, 16, 16)        0         
_________________________________________________________________
dropout_324 (Dropout)        (None, 16, 16, 16)        0         
_________________________________________________________________
conv2d_249 (Conv2D)          (None, 16, 16, 512)       74240     
_________________________________________________________________
batch_normalization_165 (Bat (None, 16, 16, 512)       2048      
_________________________________________________________________
activation_325 (Activation)  (None, 16, 16, 512)       0         
_________________________________________________________________
dropout_325 (Dropout)        (None, 16, 16, 512)       0         
_________________________________________________________________
conv2d_250 (Conv2D)          (None, 16, 16, 256)       1179904   
_________________________________________________________________
activation_326 (Activation)  (None, 16, 16, 256)       0         
_________________________________________________________________
dropout_326 (Dropout)        (None, 16, 16, 256)       0         
_________________________________________________________________
conv2d_251 (Conv2D)          (None, 16, 16, 128)       295040    
_________________________________________________________________
activation_327 (Activation)  (None, 16, 16, 128)       0         
_________________________________________________________________
dropout_327 (Dropout)        (None, 16, 16, 128)       0         
_________________________________________________________________
conv2d_252 (Conv2D)          (None, 16, 16, 16)        18448     
_________________________________________________________________
batch_normalization_166 (Bat (None, 16, 16, 16)        64        
_________________________________________________________________
activation_328 (Activation)  (None, 16, 16, 16)        0         
_________________________________________________________________
dropout_328 (Dropout)        (None, 16, 16, 16)        0         
_________________________________________________________________
flatten_45 (Flatten)         (None, 4096)              0         
_________________________________________________________________
dense_121 (Dense)            (None, 128)               524416    
_________________________________________________________________
activation_329 (Activation)  (None, 128)               0         
_________________________________________________________________
dropout_329 (Dropout)        (None, 128)               0         
_________________________________________________________________
dense_122 (Dense)            (None, 10)                1290      
=================================================================
Total params: 2,320,234
Trainable params: 2,318,090
Non-trainable params: 2,144
_________________________________________________________________
