Model: "sequential_132"
_________________________________________________________________
Layer (type)                 Output Shape              Param #   
=================================================================
conv2d_713 (Conv2D)          (None, 32, 32, 32)        896       
_________________________________________________________________
batch_normalization_392 (Bat (None, 32, 32, 32)        128       
_________________________________________________________________
activation_935 (Activation)  (None, 32, 32, 32)        0         
_________________________________________________________________
dropout_935 (Dropout)        (None, 32, 32, 32)        0         
_________________________________________________________________
max_pooling2d_257 (MaxPoolin (None, 16, 16, 32)        0         
_________________________________________________________________
conv2d_714 (Conv2D)          (None, 16, 16, 512)       147968    
_________________________________________________________________
batch_normalization_393 (Bat (None, 16, 16, 512)       2048      
_________________________________________________________________
activation_936 (Activation)  (None, 16, 16, 512)       0         
_________________________________________________________________
dropout_936 (Dropout)        (None, 16, 16, 512)       0         
_________________________________________________________________
conv2d_715 (Conv2D)          (None, 16, 16, 16)        73744     
_________________________________________________________________
activation_937 (Activation)  (None, 16, 16, 16)        0         
_________________________________________________________________
dropout_937 (Dropout)        (None, 16, 16, 16)        0         
_________________________________________________________________
conv2d_716 (Conv2D)          (None, 16, 16, 512)       74240     
_________________________________________________________________
batch_normalization_394 (Bat (None, 16, 16, 512)       2048      
_________________________________________________________________
activation_938 (Activation)  (None, 16, 16, 512)       0         
_________________________________________________________________
dropout_938 (Dropout)        (None, 16, 16, 512)       0         
_________________________________________________________________
conv2d_717 (Conv2D)          (None, 16, 16, 256)       1179904   
_________________________________________________________________
activation_939 (Activation)  (None, 16, 16, 256)       0         
_________________________________________________________________
dropout_939 (Dropout)        (None, 16, 16, 256)       0         
_________________________________________________________________
conv2d_718 (Conv2D)          (None, 16, 16, 128)       295040    
_________________________________________________________________
activation_940 (Activation)  (None, 16, 16, 128)       0         
_________________________________________________________________
dropout_940 (Dropout)        (None, 16, 16, 128)       0         
_________________________________________________________________
conv2d_719 (Conv2D)          (None, 16, 16, 16)        18448     
_________________________________________________________________
batch_normalization_395 (Bat (None, 16, 16, 16)        64        
_________________________________________________________________
activation_941 (Activation)  (None, 16, 16, 16)        0         
_________________________________________________________________
dropout_941 (Dropout)        (None, 16, 16, 16)        0         
_________________________________________________________________
flatten_132 (Flatten)        (None, 4096)              0         
_________________________________________________________________
dense_354 (Dense)            (None, 128)               524416    
_________________________________________________________________
activation_942 (Activation)  (None, 128)               0         
_________________________________________________________________
dropout_942 (Dropout)        (None, 128)               0         
_________________________________________________________________
dense_355 (Dense)            (None, 10)                1290      
=================================================================
Total params: 2,320,234
Trainable params: 2,318,090
Non-trainable params: 2,144
_________________________________________________________________
