Model: "sequential_90"
_________________________________________________________________
Layer (type)                 Output Shape              Param #   
=================================================================
conv2d_418 (Conv2D)          (None, 32, 32, 256)       7168      
_________________________________________________________________
batch_normalization_346 (Bat (None, 32, 32, 256)       1024      
_________________________________________________________________
activation_535 (Activation)  (None, 32, 32, 256)       0         
_________________________________________________________________
dropout_535 (Dropout)        (None, 32, 32, 256)       0         
_________________________________________________________________
conv2d_419 (Conv2D)          (None, 32, 32, 8)         18440     
_________________________________________________________________
batch_normalization_347 (Bat (None, 32, 32, 8)         32        
_________________________________________________________________
activation_536 (Activation)  (None, 32, 32, 8)         0         
_________________________________________________________________
dropout_536 (Dropout)        (None, 32, 32, 8)         0         
_________________________________________________________________
conv2d_420 (Conv2D)          (None, 32, 32, 64)        4672      
_________________________________________________________________
activation_537 (Activation)  (None, 32, 32, 64)        0         
_________________________________________________________________
dropout_537 (Dropout)        (None, 32, 32, 64)        0         
_________________________________________________________________
max_pooling2d_157 (MaxPoolin (None, 16, 16, 64)        0         
_________________________________________________________________
flatten_90 (Flatten)         (None, 16384)             0         
_________________________________________________________________
dense_207 (Dense)            (None, 512)               8389120   
_________________________________________________________________
activation_538 (Activation)  (None, 512)               0         
_________________________________________________________________
dropout_538 (Dropout)        (None, 512)               0         
_________________________________________________________________
dense_208 (Dense)            (None, 64)                32832     
_________________________________________________________________
batch_normalization_348 (Bat (None, 64)                256       
_________________________________________________________________
activation_539 (Activation)  (None, 64)                0         
_________________________________________________________________
dropout_539 (Dropout)        (None, 64)                0         
_________________________________________________________________
dense_209 (Dense)            (None, 10)                650       
=================================================================
Total params: 8,454,194
Trainable params: 8,453,538
Non-trainable params: 656
_________________________________________________________________
