Model: "sequential_19"
_________________________________________________________________
Layer (type)                 Output Shape              Param #   
=================================================================
conv2d_105 (Conv2D)          (None, 32, 32, 256)       7168      
_________________________________________________________________
batch_normalization_77 (Batc (None, 32, 32, 256)       1024      
_________________________________________________________________
activation_131 (Activation)  (None, 32, 32, 256)       0         
_________________________________________________________________
dropout_131 (Dropout)        (None, 32, 32, 256)       0         
_________________________________________________________________
conv2d_106 (Conv2D)          (None, 32, 32, 64)        147520    
_________________________________________________________________
batch_normalization_78 (Batc (None, 32, 32, 64)        256       
_________________________________________________________________
activation_132 (Activation)  (None, 32, 32, 64)        0         
_________________________________________________________________
dropout_132 (Dropout)        (None, 32, 32, 64)        0         
_________________________________________________________________
max_pooling2d_36 (MaxPooling (None, 16, 16, 64)        0         
_________________________________________________________________
conv2d_107 (Conv2D)          (None, 16, 16, 8)         4616      
_________________________________________________________________
activation_133 (Activation)  (None, 16, 16, 8)         0         
_________________________________________________________________
dropout_133 (Dropout)        (None, 16, 16, 8)         0         
_________________________________________________________________
max_pooling2d_37 (MaxPooling (None, 8, 8, 8)           0         
_________________________________________________________________
conv2d_108 (Conv2D)          (None, 8, 8, 128)         9344      
_________________________________________________________________
activation_134 (Activation)  (None, 8, 8, 128)         0         
_________________________________________________________________
dropout_134 (Dropout)        (None, 8, 8, 128)         0         
_________________________________________________________________
conv2d_109 (Conv2D)          (None, 8, 8, 64)          73792     
_________________________________________________________________
activation_135 (Activation)  (None, 8, 8, 64)          0         
_________________________________________________________________
dropout_135 (Dropout)        (None, 8, 8, 64)          0         
_________________________________________________________________
max_pooling2d_38 (MaxPooling (None, 4, 4, 64)          0         
_________________________________________________________________
conv2d_110 (Conv2D)          (None, 4, 4, 64)          36928     
_________________________________________________________________
activation_136 (Activation)  (None, 4, 4, 64)          0         
_________________________________________________________________
dropout_136 (Dropout)        (None, 4, 4, 64)          0         
_________________________________________________________________
flatten_19 (Flatten)         (None, 1024)              0         
_________________________________________________________________
dense_45 (Dense)             (None, 128)               131200    
_________________________________________________________________
batch_normalization_79 (Batc (None, 128)               512       
_________________________________________________________________
activation_137 (Activation)  (None, 128)               0         
_________________________________________________________________
dropout_137 (Dropout)        (None, 128)               0         
_________________________________________________________________
dense_46 (Dense)             (None, 64)                8256      
_________________________________________________________________
activation_138 (Activation)  (None, 64)                0         
_________________________________________________________________
dropout_138 (Dropout)        (None, 64)                0         
_________________________________________________________________
dense_47 (Dense)             (None, 10)                650       
=================================================================
Total params: 421,266
Trainable params: 420,370
Non-trainable params: 896
_________________________________________________________________
