Model: "sequential_159"
_________________________________________________________________
Layer (type)                 Output Shape              Param #   
=================================================================
conv2d_761 (Conv2D)          (None, 32, 32, 256)       7168      
_________________________________________________________________
batch_normalization_704 (Bat (None, 32, 32, 256)       1024      
_________________________________________________________________
activation_996 (Activation)  (None, 32, 32, 256)       0         
_________________________________________________________________
dropout_996 (Dropout)        (None, 32, 32, 256)       0         
_________________________________________________________________
conv2d_762 (Conv2D)          (None, 32, 32, 256)       590080    
_________________________________________________________________
batch_normalization_705 (Bat (None, 32, 32, 256)       1024      
_________________________________________________________________
activation_997 (Activation)  (None, 32, 32, 256)       0         
_________________________________________________________________
dropout_997 (Dropout)        (None, 32, 32, 256)       0         
_________________________________________________________________
conv2d_763 (Conv2D)          (None, 32, 32, 1024)      2360320   
_________________________________________________________________
batch_normalization_706 (Bat (None, 32, 32, 1024)      4096      
_________________________________________________________________
activation_998 (Activation)  (None, 32, 32, 1024)      0         
_________________________________________________________________
dropout_998 (Dropout)        (None, 32, 32, 1024)      0         
_________________________________________________________________
conv2d_764 (Conv2D)          (None, 32, 32, 512)       4719104   
_________________________________________________________________
batch_normalization_707 (Bat (None, 32, 32, 512)       2048      
_________________________________________________________________
activation_999 (Activation)  (None, 32, 32, 512)       0         
_________________________________________________________________
dropout_999 (Dropout)        (None, 32, 32, 512)       0         
_________________________________________________________________
conv2d_765 (Conv2D)          (None, 32, 32, 64)        294976    
_________________________________________________________________
activation_1000 (Activation) (None, 32, 32, 64)        0         
_________________________________________________________________
dropout_1000 (Dropout)       (None, 32, 32, 64)        0         
_________________________________________________________________
conv2d_766 (Conv2D)          (None, 32, 32, 512)       295424    
_________________________________________________________________
batch_normalization_708 (Bat (None, 32, 32, 512)       2048      
_________________________________________________________________
activation_1001 (Activation) (None, 32, 32, 512)       0         
_________________________________________________________________
dropout_1001 (Dropout)       (None, 32, 32, 512)       0         
_________________________________________________________________
max_pooling2d_263 (MaxPoolin (None, 16, 16, 512)       0         
_________________________________________________________________
flatten_159 (Flatten)        (None, 131072)            0         
_________________________________________________________________
dense_394 (Dense)            (None, 128)               16777344  
_________________________________________________________________
batch_normalization_709 (Bat (None, 128)               512       
_________________________________________________________________
activation_1002 (Activation) (None, 128)               0         
_________________________________________________________________
dropout_1002 (Dropout)       (None, 128)               0         
_________________________________________________________________
dense_395 (Dense)            (None, 256)               33024     
_________________________________________________________________
activation_1003 (Activation) (None, 256)               0         
_________________________________________________________________
dropout_1003 (Dropout)       (None, 256)               0         
_________________________________________________________________
dense_396 (Dense)            (None, 10)                2570      
=================================================================
Total params: 25,090,762
Trainable params: 25,085,386
Non-trainable params: 5,376
_________________________________________________________________
