Model: "sequential_126"
_________________________________________________________________
Layer (type)                 Output Shape              Param #   
=================================================================
conv2d_602 (Conv2D)          (None, 32, 32, 256)       7168      
_________________________________________________________________
batch_normalization_527 (Bat (None, 32, 32, 256)       1024      
_________________________________________________________________
activation_777 (Activation)  (None, 32, 32, 256)       0         
_________________________________________________________________
dropout_777 (Dropout)        (None, 32, 32, 256)       0         
_________________________________________________________________
conv2d_603 (Conv2D)          (None, 32, 32, 256)       590080    
_________________________________________________________________
batch_normalization_528 (Bat (None, 32, 32, 256)       1024      
_________________________________________________________________
activation_778 (Activation)  (None, 32, 32, 256)       0         
_________________________________________________________________
dropout_778 (Dropout)        (None, 32, 32, 256)       0         
_________________________________________________________________
conv2d_604 (Conv2D)          (None, 32, 32, 1024)      2360320   
_________________________________________________________________
batch_normalization_529 (Bat (None, 32, 32, 1024)      4096      
_________________________________________________________________
activation_779 (Activation)  (None, 32, 32, 1024)      0         
_________________________________________________________________
dropout_779 (Dropout)        (None, 32, 32, 1024)      0         
_________________________________________________________________
conv2d_605 (Conv2D)          (None, 32, 32, 512)       4719104   
_________________________________________________________________
batch_normalization_530 (Bat (None, 32, 32, 512)       2048      
_________________________________________________________________
activation_780 (Activation)  (None, 32, 32, 512)       0         
_________________________________________________________________
dropout_780 (Dropout)        (None, 32, 32, 512)       0         
_________________________________________________________________
max_pooling2d_213 (MaxPoolin (None, 16, 16, 512)       0         
_________________________________________________________________
conv2d_606 (Conv2D)          (None, 16, 16, 128)       589952    
_________________________________________________________________
activation_781 (Activation)  (None, 16, 16, 128)       0         
_________________________________________________________________
dropout_781 (Dropout)        (None, 16, 16, 128)       0         
_________________________________________________________________
max_pooling2d_214 (MaxPoolin (None, 8, 8, 128)         0         
_________________________________________________________________
flatten_126 (Flatten)        (None, 8192)              0         
_________________________________________________________________
dense_301 (Dense)            (None, 16)                131088    
_________________________________________________________________
batch_normalization_531 (Bat (None, 16)                64        
_________________________________________________________________
activation_782 (Activation)  (None, 16)                0         
_________________________________________________________________
dropout_782 (Dropout)        (None, 16)                0         
_________________________________________________________________
dense_302 (Dense)            (None, 32)                544       
_________________________________________________________________
batch_normalization_532 (Bat (None, 32)                128       
_________________________________________________________________
activation_783 (Activation)  (None, 32)                0         
_________________________________________________________________
dropout_783 (Dropout)        (None, 32)                0         
_________________________________________________________________
dense_303 (Dense)            (None, 10)                330       
=================================================================
Total params: 8,406,970
Trainable params: 8,402,778
Non-trainable params: 4,192
_________________________________________________________________
