Model: "sequential_160"
_________________________________________________________________
Layer (type)                 Output Shape              Param #   
=================================================================
conv2d_767 (Conv2D)          (None, 32, 32, 256)       7168      
_________________________________________________________________
batch_normalization_710 (Bat (None, 32, 32, 256)       1024      
_________________________________________________________________
activation_1004 (Activation) (None, 32, 32, 256)       0         
_________________________________________________________________
dropout_1004 (Dropout)       (None, 32, 32, 256)       0         
_________________________________________________________________
conv2d_768 (Conv2D)          (None, 32, 32, 128)       295040    
_________________________________________________________________
batch_normalization_711 (Bat (None, 32, 32, 128)       512       
_________________________________________________________________
activation_1005 (Activation) (None, 32, 32, 128)       0         
_________________________________________________________________
dropout_1005 (Dropout)       (None, 32, 32, 128)       0         
_________________________________________________________________
conv2d_769 (Conv2D)          (None, 32, 32, 16)        18448     
_________________________________________________________________
batch_normalization_712 (Bat (None, 32, 32, 16)        64        
_________________________________________________________________
activation_1006 (Activation) (None, 32, 32, 16)        0         
_________________________________________________________________
dropout_1006 (Dropout)       (None, 32, 32, 16)        0         
_________________________________________________________________
conv2d_770 (Conv2D)          (None, 32, 32, 512)       74240     
_________________________________________________________________
batch_normalization_713 (Bat (None, 32, 32, 512)       2048      
_________________________________________________________________
activation_1007 (Activation) (None, 32, 32, 512)       0         
_________________________________________________________________
dropout_1007 (Dropout)       (None, 32, 32, 512)       0         
_________________________________________________________________
max_pooling2d_264 (MaxPoolin (None, 16, 16, 512)       0         
_________________________________________________________________
flatten_160 (Flatten)        (None, 131072)            0         
_________________________________________________________________
dense_397 (Dense)            (None, 32)                4194336   
_________________________________________________________________
batch_normalization_714 (Bat (None, 32)                128       
_________________________________________________________________
activation_1008 (Activation) (None, 32)                0         
_________________________________________________________________
dropout_1008 (Dropout)       (None, 32)                0         
_________________________________________________________________
dense_398 (Dense)            (None, 10)                330       
=================================================================
Total params: 4,593,338
Trainable params: 4,591,450
Non-trainable params: 1,888
_________________________________________________________________
