Model: "sequential_74"
_________________________________________________________________
Layer (type)                 Output Shape              Param #   
=================================================================
conv2d_352 (Conv2D)          (None, 32, 32, 1024)      28672     
_________________________________________________________________
batch_normalization_285 (Bat (None, 32, 32, 1024)      4096      
_________________________________________________________________
activation_448 (Activation)  (None, 32, 32, 1024)      0         
_________________________________________________________________
dropout_448 (Dropout)        (None, 32, 32, 1024)      0         
_________________________________________________________________
conv2d_353 (Conv2D)          (None, 32, 32, 8)         73736     
_________________________________________________________________
batch_normalization_286 (Bat (None, 32, 32, 8)         32        
_________________________________________________________________
activation_449 (Activation)  (None, 32, 32, 8)         0         
_________________________________________________________________
dropout_449 (Dropout)        (None, 32, 32, 8)         0         
_________________________________________________________________
max_pooling2d_133 (MaxPoolin (None, 16, 16, 8)         0         
_________________________________________________________________
conv2d_354 (Conv2D)          (None, 16, 16, 256)       18688     
_________________________________________________________________
batch_normalization_287 (Bat (None, 16, 16, 256)       1024      
_________________________________________________________________
activation_450 (Activation)  (None, 16, 16, 256)       0         
_________________________________________________________________
dropout_450 (Dropout)        (None, 16, 16, 256)       0         
_________________________________________________________________
conv2d_355 (Conv2D)          (None, 16, 16, 16)        36880     
_________________________________________________________________
batch_normalization_288 (Bat (None, 16, 16, 16)        64        
_________________________________________________________________
activation_451 (Activation)  (None, 16, 16, 16)        0         
_________________________________________________________________
dropout_451 (Dropout)        (None, 16, 16, 16)        0         
_________________________________________________________________
conv2d_356 (Conv2D)          (None, 16, 16, 512)       74240     
_________________________________________________________________
batch_normalization_289 (Bat (None, 16, 16, 512)       2048      
_________________________________________________________________
activation_452 (Activation)  (None, 16, 16, 512)       0         
_________________________________________________________________
dropout_452 (Dropout)        (None, 16, 16, 512)       0         
_________________________________________________________________
max_pooling2d_134 (MaxPoolin (None, 8, 8, 512)         0         
_________________________________________________________________
flatten_74 (Flatten)         (None, 32768)             0         
_________________________________________________________________
dense_170 (Dense)            (None, 512)               16777728  
_________________________________________________________________
activation_453 (Activation)  (None, 512)               0         
_________________________________________________________________
dropout_453 (Dropout)        (None, 512)               0         
_________________________________________________________________
dense_171 (Dense)            (None, 64)                32832     
_________________________________________________________________
batch_normalization_290 (Bat (None, 64)                256       
_________________________________________________________________
activation_454 (Activation)  (None, 64)                0         
_________________________________________________________________
dropout_454 (Dropout)        (None, 64)                0         
_________________________________________________________________
dense_172 (Dense)            (None, 10)                650       
=================================================================
Total params: 17,050,946
Trainable params: 17,047,186
Non-trainable params: 3,760
_________________________________________________________________
