Model: "sequential_39"
_________________________________________________________________
Layer (type)                 Output Shape              Param #   
=================================================================
conv2d_199 (Conv2D)          (None, 32, 32, 64)        1792      
_________________________________________________________________
activation_249 (Activation)  (None, 32, 32, 64)        0         
_________________________________________________________________
dropout_249 (Dropout)        (None, 32, 32, 64)        0         
_________________________________________________________________
max_pooling2d_76 (MaxPooling (None, 16, 16, 64)        0         
_________________________________________________________________
conv2d_200 (Conv2D)          (None, 16, 16, 16)        9232      
_________________________________________________________________
activation_250 (Activation)  (None, 16, 16, 16)        0         
_________________________________________________________________
dropout_250 (Dropout)        (None, 16, 16, 16)        0         
_________________________________________________________________
conv2d_201 (Conv2D)          (None, 16, 16, 128)       18560     
_________________________________________________________________
batch_normalization_157 (Bat (None, 16, 16, 128)       512       
_________________________________________________________________
activation_251 (Activation)  (None, 16, 16, 128)       0         
_________________________________________________________________
dropout_251 (Dropout)        (None, 16, 16, 128)       0         
_________________________________________________________________
conv2d_202 (Conv2D)          (None, 16, 16, 64)        73792     
_________________________________________________________________
batch_normalization_158 (Bat (None, 16, 16, 64)        256       
_________________________________________________________________
activation_252 (Activation)  (None, 16, 16, 64)        0         
_________________________________________________________________
dropout_252 (Dropout)        (None, 16, 16, 64)        0         
_________________________________________________________________
flatten_39 (Flatten)         (None, 16384)             0         
_________________________________________________________________
dense_89 (Dense)             (None, 128)               2097280   
_________________________________________________________________
activation_253 (Activation)  (None, 128)               0         
_________________________________________________________________
dropout_253 (Dropout)        (None, 128)               0         
_________________________________________________________________
dense_90 (Dense)             (None, 512)               66048     
_________________________________________________________________
batch_normalization_159 (Bat (None, 512)               2048      
_________________________________________________________________
activation_254 (Activation)  (None, 512)               0         
_________________________________________________________________
dropout_254 (Dropout)        (None, 512)               0         
_________________________________________________________________
dense_91 (Dense)             (None, 10)                5130      
=================================================================
Total params: 2,274,650
Trainable params: 2,273,242
Non-trainable params: 1,408
_________________________________________________________________
