Model: "sequential_61"
_________________________________________________________________
Layer (type)                 Output Shape              Param #   
=================================================================
conv2d_298 (Conv2D)          (None, 32, 32, 256)       7168      
_________________________________________________________________
batch_normalization_240 (Bat (None, 32, 32, 256)       1024      
_________________________________________________________________
activation_378 (Activation)  (None, 32, 32, 256)       0         
_________________________________________________________________
dropout_378 (Dropout)        (None, 32, 32, 256)       0         
_________________________________________________________________
conv2d_299 (Conv2D)          (None, 32, 32, 128)       295040    
_________________________________________________________________
batch_normalization_241 (Bat (None, 32, 32, 128)       512       
_________________________________________________________________
activation_379 (Activation)  (None, 32, 32, 128)       0         
_________________________________________________________________
dropout_379 (Dropout)        (None, 32, 32, 128)       0         
_________________________________________________________________
conv2d_300 (Conv2D)          (None, 32, 32, 64)        73792     
_________________________________________________________________
batch_normalization_242 (Bat (None, 32, 32, 64)        256       
_________________________________________________________________
activation_380 (Activation)  (None, 32, 32, 64)        0         
_________________________________________________________________
dropout_380 (Dropout)        (None, 32, 32, 64)        0         
_________________________________________________________________
flatten_61 (Flatten)         (None, 65536)             0         
_________________________________________________________________
dense_141 (Dense)            (None, 128)               8388736   
_________________________________________________________________
activation_381 (Activation)  (None, 128)               0         
_________________________________________________________________
dropout_381 (Dropout)        (None, 128)               0         
_________________________________________________________________
dense_142 (Dense)            (None, 512)               66048     
_________________________________________________________________
batch_normalization_243 (Bat (None, 512)               2048      
_________________________________________________________________
activation_382 (Activation)  (None, 512)               0         
_________________________________________________________________
dropout_382 (Dropout)        (None, 512)               0         
_________________________________________________________________
dense_143 (Dense)            (None, 10)                5130      
=================================================================
Total params: 8,839,754
Trainable params: 8,837,834
Non-trainable params: 1,920
_________________________________________________________________
