Model: "sequential_132"
_________________________________________________________________
Layer (type)                 Output Shape              Param #   
=================================================================
conv2d_630 (Conv2D)          (None, 32, 32, 256)       7168      
_________________________________________________________________
activation_815 (Activation)  (None, 32, 32, 256)       0         
_________________________________________________________________
dropout_815 (Dropout)        (None, 32, 32, 256)       0         
_________________________________________________________________
conv2d_631 (Conv2D)          (None, 32, 32, 8)         18440     
_________________________________________________________________
activation_816 (Activation)  (None, 32, 32, 8)         0         
_________________________________________________________________
dropout_816 (Dropout)        (None, 32, 32, 8)         0         
_________________________________________________________________
max_pooling2d_221 (MaxPoolin (None, 16, 16, 8)         0         
_________________________________________________________________
conv2d_632 (Conv2D)          (None, 16, 16, 1024)      74752     
_________________________________________________________________
batch_normalization_558 (Bat (None, 16, 16, 1024)      4096      
_________________________________________________________________
activation_817 (Activation)  (None, 16, 16, 1024)      0         
_________________________________________________________________
dropout_817 (Dropout)        (None, 16, 16, 1024)      0         
_________________________________________________________________
max_pooling2d_222 (MaxPoolin (None, 8, 8, 1024)        0         
_________________________________________________________________
conv2d_633 (Conv2D)          (None, 8, 8, 8)           73736     
_________________________________________________________________
activation_818 (Activation)  (None, 8, 8, 8)           0         
_________________________________________________________________
dropout_818 (Dropout)        (None, 8, 8, 8)           0         
_________________________________________________________________
conv2d_634 (Conv2D)          (None, 8, 8, 16)          1168      
_________________________________________________________________
activation_819 (Activation)  (None, 8, 8, 16)          0         
_________________________________________________________________
dropout_819 (Dropout)        (None, 8, 8, 16)          0         
_________________________________________________________________
flatten_132 (Flatten)        (None, 1024)              0         
_________________________________________________________________
dense_317 (Dense)            (None, 16)                16400     
_________________________________________________________________
activation_820 (Activation)  (None, 16)                0         
_________________________________________________________________
dropout_820 (Dropout)        (None, 16)                0         
_________________________________________________________________
dense_318 (Dense)            (None, 10)                170       
=================================================================
Total params: 195,930
Trainable params: 193,882
Non-trainable params: 2,048
_________________________________________________________________
