Model: "sequential_101"
_________________________________________________________________
Layer (type)                 Output Shape              Param #   
=================================================================
conv2d_474 (Conv2D)          (None, 32, 32, 256)       7168      
_________________________________________________________________
batch_normalization_400 (Bat (None, 32, 32, 256)       1024      
_________________________________________________________________
activation_608 (Activation)  (None, 32, 32, 256)       0         
_________________________________________________________________
dropout_608 (Dropout)        (None, 32, 32, 256)       0         
_________________________________________________________________
conv2d_475 (Conv2D)          (None, 32, 32, 256)       590080    
_________________________________________________________________
batch_normalization_401 (Bat (None, 32, 32, 256)       1024      
_________________________________________________________________
activation_609 (Activation)  (None, 32, 32, 256)       0         
_________________________________________________________________
dropout_609 (Dropout)        (None, 32, 32, 256)       0         
_________________________________________________________________
conv2d_476 (Conv2D)          (None, 32, 32, 16)        36880     
_________________________________________________________________
batch_normalization_402 (Bat (None, 32, 32, 16)        64        
_________________________________________________________________
activation_610 (Activation)  (None, 32, 32, 16)        0         
_________________________________________________________________
dropout_610 (Dropout)        (None, 32, 32, 16)        0         
_________________________________________________________________
conv2d_477 (Conv2D)          (None, 32, 32, 512)       74240     
_________________________________________________________________
batch_normalization_403 (Bat (None, 32, 32, 512)       2048      
_________________________________________________________________
activation_611 (Activation)  (None, 32, 32, 512)       0         
_________________________________________________________________
dropout_611 (Dropout)        (None, 32, 32, 512)       0         
_________________________________________________________________
conv2d_478 (Conv2D)          (None, 32, 32, 64)        294976    
_________________________________________________________________
activation_612 (Activation)  (None, 32, 32, 64)        0         
_________________________________________________________________
dropout_612 (Dropout)        (None, 32, 32, 64)        0         
_________________________________________________________________
max_pooling2d_173 (MaxPoolin (None, 16, 16, 64)        0         
_________________________________________________________________
conv2d_479 (Conv2D)          (None, 16, 16, 512)       295424    
_________________________________________________________________
batch_normalization_404 (Bat (None, 16, 16, 512)       2048      
_________________________________________________________________
activation_613 (Activation)  (None, 16, 16, 512)       0         
_________________________________________________________________
dropout_613 (Dropout)        (None, 16, 16, 512)       0         
_________________________________________________________________
max_pooling2d_174 (MaxPoolin (None, 8, 8, 512)         0         
_________________________________________________________________
flatten_101 (Flatten)        (None, 32768)             0         
_________________________________________________________________
dense_235 (Dense)            (None, 128)               4194432   
_________________________________________________________________
batch_normalization_405 (Bat (None, 128)               512       
_________________________________________________________________
activation_614 (Activation)  (None, 128)               0         
_________________________________________________________________
dropout_614 (Dropout)        (None, 128)               0         
_________________________________________________________________
dense_236 (Dense)            (None, 256)               33024     
_________________________________________________________________
activation_615 (Activation)  (None, 256)               0         
_________________________________________________________________
dropout_615 (Dropout)        (None, 256)               0         
_________________________________________________________________
dense_237 (Dense)            (None, 10)                2570      
=================================================================
Total params: 5,535,514
Trainable params: 5,532,154
Non-trainable params: 3,360
_________________________________________________________________
