Model: "sequential_143"
_________________________________________________________________
Layer (type)                 Output Shape              Param #   
=================================================================
conv2d_685 (Conv2D)          (None, 32, 32, 256)       7168      
_________________________________________________________________
batch_normalization_616 (Bat (None, 32, 32, 256)       1024      
_________________________________________________________________
activation_891 (Activation)  (None, 32, 32, 256)       0         
_________________________________________________________________
dropout_891 (Dropout)        (None, 32, 32, 256)       0         
_________________________________________________________________
conv2d_686 (Conv2D)          (None, 32, 32, 128)       295040    
_________________________________________________________________
batch_normalization_617 (Bat (None, 32, 32, 128)       512       
_________________________________________________________________
activation_892 (Activation)  (None, 32, 32, 128)       0         
_________________________________________________________________
dropout_892 (Dropout)        (None, 32, 32, 128)       0         
_________________________________________________________________
conv2d_687 (Conv2D)          (None, 32, 32, 16)        18448     
_________________________________________________________________
batch_normalization_618 (Bat (None, 32, 32, 16)        64        
_________________________________________________________________
activation_893 (Activation)  (None, 32, 32, 16)        0         
_________________________________________________________________
dropout_893 (Dropout)        (None, 32, 32, 16)        0         
_________________________________________________________________
conv2d_688 (Conv2D)          (None, 32, 32, 512)       74240     
_________________________________________________________________
batch_normalization_619 (Bat (None, 32, 32, 512)       2048      
_________________________________________________________________
activation_894 (Activation)  (None, 32, 32, 512)       0         
_________________________________________________________________
dropout_894 (Dropout)        (None, 32, 32, 512)       0         
_________________________________________________________________
max_pooling2d_241 (MaxPoolin (None, 16, 16, 512)       0         
_________________________________________________________________
flatten_143 (Flatten)        (None, 131072)            0         
_________________________________________________________________
dense_349 (Dense)            (None, 512)               67109376  
_________________________________________________________________
activation_895 (Activation)  (None, 512)               0         
_________________________________________________________________
dropout_895 (Dropout)        (None, 512)               0         
_________________________________________________________________
dense_350 (Dense)            (None, 64)                32832     
_________________________________________________________________
batch_normalization_620 (Bat (None, 64)                256       
_________________________________________________________________
activation_896 (Activation)  (None, 64)                0         
_________________________________________________________________
dropout_896 (Dropout)        (None, 64)                0         
_________________________________________________________________
dense_351 (Dense)            (None, 10)                650       
=================================================================
Total params: 67,541,658
Trainable params: 67,539,706
Non-trainable params: 1,952
_________________________________________________________________
