Model: "sequential_56"
_________________________________________________________________
Layer (type)                 Output Shape              Param #   
=================================================================
conv2d_276 (Conv2D)          (None, 32, 32, 512)       14336     
_________________________________________________________________
activation_350 (Activation)  (None, 32, 32, 512)       0         
_________________________________________________________________
dropout_350 (Dropout)        (None, 32, 32, 512)       0         
_________________________________________________________________
conv2d_277 (Conv2D)          (None, 32, 32, 128)       589952    
_________________________________________________________________
batch_normalization_222 (Bat (None, 32, 32, 128)       512       
_________________________________________________________________
activation_351 (Activation)  (None, 32, 32, 128)       0         
_________________________________________________________________
dropout_351 (Dropout)        (None, 32, 32, 128)       0         
_________________________________________________________________
conv2d_278 (Conv2D)          (None, 32, 32, 1024)      1180672   
_________________________________________________________________
batch_normalization_223 (Bat (None, 32, 32, 1024)      4096      
_________________________________________________________________
activation_352 (Activation)  (None, 32, 32, 1024)      0         
_________________________________________________________________
dropout_352 (Dropout)        (None, 32, 32, 1024)      0         
_________________________________________________________________
conv2d_279 (Conv2D)          (None, 32, 32, 8)         73736     
_________________________________________________________________
activation_353 (Activation)  (None, 32, 32, 8)         0         
_________________________________________________________________
dropout_353 (Dropout)        (None, 32, 32, 8)         0         
_________________________________________________________________
flatten_56 (Flatten)         (None, 8192)              0         
_________________________________________________________________
dense_130 (Dense)            (None, 64)                524352    
_________________________________________________________________
batch_normalization_224 (Bat (None, 64)                256       
_________________________________________________________________
activation_354 (Activation)  (None, 64)                0         
_________________________________________________________________
dropout_354 (Dropout)        (None, 64)                0         
_________________________________________________________________
dense_131 (Dense)            (None, 10)                650       
=================================================================
Total params: 2,388,562
Trainable params: 2,386,130
Non-trainable params: 2,432
_________________________________________________________________
