Model: "sequential_108"
_________________________________________________________________
Layer (type)                 Output Shape              Param #   
=================================================================
conv2d_508 (Conv2D)          (None, 32, 32, 256)       7168      
_________________________________________________________________
batch_normalization_436 (Bat (None, 32, 32, 256)       1024      
_________________________________________________________________
activation_652 (Activation)  (None, 32, 32, 256)       0         
_________________________________________________________________
dropout_652 (Dropout)        (None, 32, 32, 256)       0         
_________________________________________________________________
conv2d_509 (Conv2D)          (None, 32, 32, 256)       590080    
_________________________________________________________________
activation_653 (Activation)  (None, 32, 32, 256)       0         
_________________________________________________________________
dropout_653 (Dropout)        (None, 32, 32, 256)       0         
_________________________________________________________________
conv2d_510 (Conv2D)          (None, 32, 32, 1024)      2360320   
_________________________________________________________________
batch_normalization_437 (Bat (None, 32, 32, 1024)      4096      
_________________________________________________________________
activation_654 (Activation)  (None, 32, 32, 1024)      0         
_________________________________________________________________
dropout_654 (Dropout)        (None, 32, 32, 1024)      0         
_________________________________________________________________
conv2d_511 (Conv2D)          (None, 32, 32, 512)       4719104   
_________________________________________________________________
batch_normalization_438 (Bat (None, 32, 32, 512)       2048      
_________________________________________________________________
activation_655 (Activation)  (None, 32, 32, 512)       0         
_________________________________________________________________
dropout_655 (Dropout)        (None, 32, 32, 512)       0         
_________________________________________________________________
conv2d_512 (Conv2D)          (None, 32, 32, 64)        294976    
_________________________________________________________________
activation_656 (Activation)  (None, 32, 32, 64)        0         
_________________________________________________________________
dropout_656 (Dropout)        (None, 32, 32, 64)        0         
_________________________________________________________________
conv2d_513 (Conv2D)          (None, 32, 32, 512)       295424    
_________________________________________________________________
batch_normalization_439 (Bat (None, 32, 32, 512)       2048      
_________________________________________________________________
activation_657 (Activation)  (None, 32, 32, 512)       0         
_________________________________________________________________
dropout_657 (Dropout)        (None, 32, 32, 512)       0         
_________________________________________________________________
max_pooling2d_185 (MaxPoolin (None, 16, 16, 512)       0         
_________________________________________________________________
flatten_108 (Flatten)        (None, 131072)            0         
_________________________________________________________________
dense_252 (Dense)            (None, 128)               16777344  
_________________________________________________________________
batch_normalization_440 (Bat (None, 128)               512       
_________________________________________________________________
activation_658 (Activation)  (None, 128)               0         
_________________________________________________________________
dropout_658 (Dropout)        (None, 128)               0         
_________________________________________________________________
dense_253 (Dense)            (None, 256)               33024     
_________________________________________________________________
activation_659 (Activation)  (None, 256)               0         
_________________________________________________________________
dropout_659 (Dropout)        (None, 256)               0         
_________________________________________________________________
dense_254 (Dense)            (None, 10)                2570      
=================================================================
Total params: 25,089,738
Trainable params: 25,084,874
Non-trainable params: 4,864
_________________________________________________________________
