Model: "sequential_4"
_________________________________________________________________
Layer (type)                 Output Shape              Param #   
=================================================================
conv2d_18 (Conv2D)           (None, 32, 32, 256)       7168      
_________________________________________________________________
batch_normalization_12 (Batc (None, 32, 32, 256)       1024      
_________________________________________________________________
activation_23 (Activation)   (None, 32, 32, 256)       0         
_________________________________________________________________
dropout_23 (Dropout)         (None, 32, 32, 256)       0         
_________________________________________________________________
max_pooling2d_7 (MaxPooling2 (None, 16, 16, 256)       0         
_________________________________________________________________
conv2d_19 (Conv2D)           (None, 16, 16, 128)       295040    
_________________________________________________________________
batch_normalization_13 (Batc (None, 16, 16, 128)       512       
_________________________________________________________________
activation_24 (Activation)   (None, 16, 16, 128)       0         
_________________________________________________________________
dropout_24 (Dropout)         (None, 16, 16, 128)       0         
_________________________________________________________________
max_pooling2d_8 (MaxPooling2 (None, 8, 8, 128)         0         
_________________________________________________________________
conv2d_20 (Conv2D)           (None, 8, 8, 8)           9224      
_________________________________________________________________
activation_25 (Activation)   (None, 8, 8, 8)           0         
_________________________________________________________________
dropout_25 (Dropout)         (None, 8, 8, 8)           0         
_________________________________________________________________
conv2d_21 (Conv2D)           (None, 8, 8, 32)          2336      
_________________________________________________________________
activation_26 (Activation)   (None, 8, 8, 32)          0         
_________________________________________________________________
dropout_26 (Dropout)         (None, 8, 8, 32)          0         
_________________________________________________________________
conv2d_22 (Conv2D)           (None, 8, 8, 256)         73984     
_________________________________________________________________
activation_27 (Activation)   (None, 8, 8, 256)         0         
_________________________________________________________________
dropout_27 (Dropout)         (None, 8, 8, 256)         0         
_________________________________________________________________
conv2d_23 (Conv2D)           (None, 8, 8, 512)         1180160   
_________________________________________________________________
activation_28 (Activation)   (None, 8, 8, 512)         0         
_________________________________________________________________
dropout_28 (Dropout)         (None, 8, 8, 512)         0         
_________________________________________________________________
flatten_4 (Flatten)          (None, 32768)             0         
_________________________________________________________________
dense_9 (Dense)              (None, 256)               8388864   
_________________________________________________________________
activation_29 (Activation)   (None, 256)               0         
_________________________________________________________________
dropout_29 (Dropout)         (None, 256)               0         
_________________________________________________________________
dense_10 (Dense)             (None, 128)               32896     
_________________________________________________________________
batch_normalization_14 (Batc (None, 128)               512       
_________________________________________________________________
activation_30 (Activation)   (None, 128)               0         
_________________________________________________________________
dropout_30 (Dropout)         (None, 128)               0         
_________________________________________________________________
dense_11 (Dense)             (None, 10)                1290      
=================================================================
Total params: 9,993,010
Trainable params: 9,991,986
Non-trainable params: 1,024
_________________________________________________________________
