Model: "sequential_104"
_________________________________________________________________
Layer (type)                 Output Shape              Param #   
=================================================================
conv2d_489 (Conv2D)          (None, 32, 32, 1024)      28672     
_________________________________________________________________
batch_normalization_418 (Bat (None, 32, 32, 1024)      4096      
_________________________________________________________________
activation_628 (Activation)  (None, 32, 32, 1024)      0         
_________________________________________________________________
dropout_628 (Dropout)        (None, 32, 32, 1024)      0         
_________________________________________________________________
conv2d_490 (Conv2D)          (None, 32, 32, 8)         73736     
_________________________________________________________________
batch_normalization_419 (Bat (None, 32, 32, 8)         32        
_________________________________________________________________
activation_629 (Activation)  (None, 32, 32, 8)         0         
_________________________________________________________________
dropout_629 (Dropout)        (None, 32, 32, 8)         0         
_________________________________________________________________
max_pooling2d_178 (MaxPoolin (None, 16, 16, 8)         0         
_________________________________________________________________
conv2d_491 (Conv2D)          (None, 16, 16, 256)       18688     
_________________________________________________________________
batch_normalization_420 (Bat (None, 16, 16, 256)       1024      
_________________________________________________________________
activation_630 (Activation)  (None, 16, 16, 256)       0         
_________________________________________________________________
dropout_630 (Dropout)        (None, 16, 16, 256)       0         
_________________________________________________________________
conv2d_492 (Conv2D)          (None, 16, 16, 1024)      2360320   
_________________________________________________________________
batch_normalization_421 (Bat (None, 16, 16, 1024)      4096      
_________________________________________________________________
activation_631 (Activation)  (None, 16, 16, 1024)      0         
_________________________________________________________________
dropout_631 (Dropout)        (None, 16, 16, 1024)      0         
_________________________________________________________________
conv2d_493 (Conv2D)          (None, 16, 16, 512)       4719104   
_________________________________________________________________
batch_normalization_422 (Bat (None, 16, 16, 512)       2048      
_________________________________________________________________
activation_632 (Activation)  (None, 16, 16, 512)       0         
_________________________________________________________________
dropout_632 (Dropout)        (None, 16, 16, 512)       0         
_________________________________________________________________
max_pooling2d_179 (MaxPoolin (None, 8, 8, 512)         0         
_________________________________________________________________
conv2d_494 (Conv2D)          (None, 8, 8, 128)         589952    
_________________________________________________________________
activation_633 (Activation)  (None, 8, 8, 128)         0         
_________________________________________________________________
dropout_633 (Dropout)        (None, 8, 8, 128)         0         
_________________________________________________________________
max_pooling2d_180 (MaxPoolin (None, 4, 4, 128)         0         
_________________________________________________________________
flatten_104 (Flatten)        (None, 2048)              0         
_________________________________________________________________
dense_243 (Dense)            (None, 16)                32784     
_________________________________________________________________
batch_normalization_423 (Bat (None, 16)                64        
_________________________________________________________________
activation_634 (Activation)  (None, 16)                0         
_________________________________________________________________
dropout_634 (Dropout)        (None, 16)                0         
_________________________________________________________________
dense_244 (Dense)            (None, 32)                544       
_________________________________________________________________
batch_normalization_424 (Bat (None, 32)                128       
_________________________________________________________________
activation_635 (Activation)  (None, 32)                0         
_________________________________________________________________
dropout_635 (Dropout)        (None, 32)                0         
_________________________________________________________________
dense_245 (Dense)            (None, 10)                330       
=================================================================
Total params: 7,835,618
Trainable params: 7,829,874
Non-trainable params: 5,744
_________________________________________________________________
