Model: "sequential_196"
_________________________________________________________________
Layer (type)                 Output Shape              Param #   
=================================================================
conv2d_942 (Conv2D)          (None, 32, 32, 256)       7168      
_________________________________________________________________
batch_normalization_909 (Bat (None, 32, 32, 256)       1024      
_________________________________________________________________
activation_1240 (Activation) (None, 32, 32, 256)       0         
_________________________________________________________________
dropout_1240 (Dropout)       (None, 32, 32, 256)       0         
_________________________________________________________________
conv2d_943 (Conv2D)          (None, 32, 32, 128)       295040    
_________________________________________________________________
batch_normalization_910 (Bat (None, 32, 32, 128)       512       
_________________________________________________________________
activation_1241 (Activation) (None, 32, 32, 128)       0         
_________________________________________________________________
dropout_1241 (Dropout)       (None, 32, 32, 128)       0         
_________________________________________________________________
conv2d_944 (Conv2D)          (None, 32, 32, 16)        18448     
_________________________________________________________________
batch_normalization_911 (Bat (None, 32, 32, 16)        64        
_________________________________________________________________
activation_1242 (Activation) (None, 32, 32, 16)        0         
_________________________________________________________________
dropout_1242 (Dropout)       (None, 32, 32, 16)        0         
_________________________________________________________________
conv2d_945 (Conv2D)          (None, 32, 32, 512)       74240     
_________________________________________________________________
batch_normalization_912 (Bat (None, 32, 32, 512)       2048      
_________________________________________________________________
activation_1243 (Activation) (None, 32, 32, 512)       0         
_________________________________________________________________
dropout_1243 (Dropout)       (None, 32, 32, 512)       0         
_________________________________________________________________
max_pooling2d_312 (MaxPoolin (None, 16, 16, 512)       0         
_________________________________________________________________
flatten_196 (Flatten)        (None, 131072)            0         
_________________________________________________________________
dense_494 (Dense)            (None, 32)                4194336   
_________________________________________________________________
batch_normalization_913 (Bat (None, 32)                128       
_________________________________________________________________
activation_1244 (Activation) (None, 32)                0         
_________________________________________________________________
dropout_1244 (Dropout)       (None, 32)                0         
_________________________________________________________________
dense_495 (Dense)            (None, 10)                330       
=================================================================
Total params: 4,593,338
Trainable params: 4,591,450
Non-trainable params: 1,888
_________________________________________________________________
