Model: "sequential_103"
_________________________________________________________________
Layer (type)                 Output Shape              Param #   
=================================================================
conv2d_486 (Conv2D)          (None, 32, 32, 256)       7168      
_________________________________________________________________
batch_normalization_414 (Bat (None, 32, 32, 256)       1024      
_________________________________________________________________
activation_624 (Activation)  (None, 32, 32, 256)       0         
_________________________________________________________________
dropout_624 (Dropout)        (None, 32, 32, 256)       0         
_________________________________________________________________
conv2d_487 (Conv2D)          (None, 32, 32, 128)       295040    
_________________________________________________________________
batch_normalization_415 (Bat (None, 32, 32, 128)       512       
_________________________________________________________________
activation_625 (Activation)  (None, 32, 32, 128)       0         
_________________________________________________________________
dropout_625 (Dropout)        (None, 32, 32, 128)       0         
_________________________________________________________________
conv2d_488 (Conv2D)          (None, 32, 32, 64)        73792     
_________________________________________________________________
batch_normalization_416 (Bat (None, 32, 32, 64)        256       
_________________________________________________________________
activation_626 (Activation)  (None, 32, 32, 64)        0         
_________________________________________________________________
dropout_626 (Dropout)        (None, 32, 32, 64)        0         
_________________________________________________________________
flatten_103 (Flatten)        (None, 65536)             0         
_________________________________________________________________
dense_241 (Dense)            (None, 32)                2097184   
_________________________________________________________________
batch_normalization_417 (Bat (None, 32)                128       
_________________________________________________________________
activation_627 (Activation)  (None, 32)                0         
_________________________________________________________________
dropout_627 (Dropout)        (None, 32)                0         
_________________________________________________________________
dense_242 (Dense)            (None, 10)                330       
=================================================================
Total params: 2,475,434
Trainable params: 2,474,474
Non-trainable params: 960
_________________________________________________________________
