Model: "sequential_115"
_________________________________________________________________
Layer (type)                 Output Shape              Param #   
=================================================================
conv2d_544 (Conv2D)          (None, 32, 32, 256)       7168      
_________________________________________________________________
batch_normalization_468 (Bat (None, 32, 32, 256)       1024      
_________________________________________________________________
activation_701 (Activation)  (None, 32, 32, 256)       0         
_________________________________________________________________
dropout_701 (Dropout)        (None, 32, 32, 256)       0         
_________________________________________________________________
conv2d_545 (Conv2D)          (None, 32, 32, 256)       590080    
_________________________________________________________________
batch_normalization_469 (Bat (None, 32, 32, 256)       1024      
_________________________________________________________________
activation_702 (Activation)  (None, 32, 32, 256)       0         
_________________________________________________________________
dropout_702 (Dropout)        (None, 32, 32, 256)       0         
_________________________________________________________________
conv2d_546 (Conv2D)          (None, 32, 32, 16)        36880     
_________________________________________________________________
batch_normalization_470 (Bat (None, 32, 32, 16)        64        
_________________________________________________________________
activation_703 (Activation)  (None, 32, 32, 16)        0         
_________________________________________________________________
dropout_703 (Dropout)        (None, 32, 32, 16)        0         
_________________________________________________________________
conv2d_547 (Conv2D)          (None, 32, 32, 512)       74240     
_________________________________________________________________
batch_normalization_471 (Bat (None, 32, 32, 512)       2048      
_________________________________________________________________
activation_704 (Activation)  (None, 32, 32, 512)       0         
_________________________________________________________________
dropout_704 (Dropout)        (None, 32, 32, 512)       0         
_________________________________________________________________
max_pooling2d_195 (MaxPoolin (None, 16, 16, 512)       0         
_________________________________________________________________
conv2d_548 (Conv2D)          (None, 16, 16, 128)       589952    
_________________________________________________________________
activation_705 (Activation)  (None, 16, 16, 128)       0         
_________________________________________________________________
dropout_705 (Dropout)        (None, 16, 16, 128)       0         
_________________________________________________________________
max_pooling2d_196 (MaxPoolin (None, 8, 8, 128)         0         
_________________________________________________________________
flatten_115 (Flatten)        (None, 8192)              0         
_________________________________________________________________
dense_272 (Dense)            (None, 16)                131088    
_________________________________________________________________
batch_normalization_472 (Bat (None, 16)                64        
_________________________________________________________________
activation_706 (Activation)  (None, 16)                0         
_________________________________________________________________
dropout_706 (Dropout)        (None, 16)                0         
_________________________________________________________________
dense_273 (Dense)            (None, 32)                544       
_________________________________________________________________
batch_normalization_473 (Bat (None, 32)                128       
_________________________________________________________________
activation_707 (Activation)  (None, 32)                0         
_________________________________________________________________
dropout_707 (Dropout)        (None, 32)                0         
_________________________________________________________________
dense_274 (Dense)            (None, 10)                330       
=================================================================
Total params: 1,434,634
Trainable params: 1,432,458
Non-trainable params: 2,176
_________________________________________________________________
