Model: "sequential_7"
_________________________________________________________________
Layer (type)                 Output Shape              Param #   
=================================================================
conv2d_39 (Conv2D)           (None, 32, 32, 64)        1792      
_________________________________________________________________
batch_normalization_27 (Batc (None, 32, 32, 64)        256       
_________________________________________________________________
activation_50 (Activation)   (None, 32, 32, 64)        0         
_________________________________________________________________
dropout_50 (Dropout)         (None, 32, 32, 64)        0         
_________________________________________________________________
max_pooling2d_14 (MaxPooling (None, 16, 16, 64)        0         
_________________________________________________________________
conv2d_40 (Conv2D)           (None, 16, 16, 16)        9232      
_________________________________________________________________
batch_normalization_28 (Batc (None, 16, 16, 16)        64        
_________________________________________________________________
activation_51 (Activation)   (None, 16, 16, 16)        0         
_________________________________________________________________
dropout_51 (Dropout)         (None, 16, 16, 16)        0         
_________________________________________________________________
conv2d_41 (Conv2D)           (None, 16, 16, 16)        2320      
_________________________________________________________________
activation_52 (Activation)   (None, 16, 16, 16)        0         
_________________________________________________________________
dropout_52 (Dropout)         (None, 16, 16, 16)        0         
_________________________________________________________________
max_pooling2d_15 (MaxPooling (None, 8, 8, 16)          0         
_________________________________________________________________
conv2d_42 (Conv2D)           (None, 8, 8, 512)         74240     
_________________________________________________________________
batch_normalization_29 (Batc (None, 8, 8, 512)         2048      
_________________________________________________________________
activation_53 (Activation)   (None, 8, 8, 512)         0         
_________________________________________________________________
dropout_53 (Dropout)         (None, 8, 8, 512)         0         
_________________________________________________________________
flatten_7 (Flatten)          (None, 32768)             0         
_________________________________________________________________
dense_18 (Dense)             (None, 10)                327690    
=================================================================
Total params: 417,642
Trainable params: 416,458
Non-trainable params: 1,184
_________________________________________________________________
