Model: "sequential_151"
_________________________________________________________________
Layer (type)                 Output Shape              Param #   
=================================================================
conv2d_721 (Conv2D)          (None, 32, 32, 256)       7168      
_________________________________________________________________
activation_940 (Activation)  (None, 32, 32, 256)       0         
_________________________________________________________________
dropout_940 (Dropout)        (None, 32, 32, 256)       0         
_________________________________________________________________
conv2d_722 (Conv2D)          (None, 32, 32, 256)       590080    
_________________________________________________________________
batch_normalization_659 (Bat (None, 32, 32, 256)       1024      
_________________________________________________________________
activation_941 (Activation)  (None, 32, 32, 256)       0         
_________________________________________________________________
dropout_941 (Dropout)        (None, 32, 32, 256)       0         
_________________________________________________________________
conv2d_723 (Conv2D)          (None, 32, 32, 16)        36880     
_________________________________________________________________
batch_normalization_660 (Bat (None, 32, 32, 16)        64        
_________________________________________________________________
activation_942 (Activation)  (None, 32, 32, 16)        0         
_________________________________________________________________
dropout_942 (Dropout)        (None, 32, 32, 16)        0         
_________________________________________________________________
conv2d_724 (Conv2D)          (None, 32, 32, 512)       74240     
_________________________________________________________________
batch_normalization_661 (Bat (None, 32, 32, 512)       2048      
_________________________________________________________________
activation_943 (Activation)  (None, 32, 32, 512)       0         
_________________________________________________________________
dropout_943 (Dropout)        (None, 32, 32, 512)       0         
_________________________________________________________________
conv2d_725 (Conv2D)          (None, 32, 32, 64)        294976    
_________________________________________________________________
activation_944 (Activation)  (None, 32, 32, 64)        0         
_________________________________________________________________
dropout_944 (Dropout)        (None, 32, 32, 64)        0         
_________________________________________________________________
conv2d_726 (Conv2D)          (None, 32, 32, 512)       295424    
_________________________________________________________________
batch_normalization_662 (Bat (None, 32, 32, 512)       2048      
_________________________________________________________________
activation_945 (Activation)  (None, 32, 32, 512)       0         
_________________________________________________________________
dropout_945 (Dropout)        (None, 32, 32, 512)       0         
_________________________________________________________________
flatten_151 (Flatten)        (None, 524288)            0         
_________________________________________________________________
dense_370 (Dense)            (None, 16)                8388624   
_________________________________________________________________
batch_normalization_663 (Bat (None, 16)                64        
_________________________________________________________________
activation_946 (Activation)  (None, 16)                0         
_________________________________________________________________
dropout_946 (Dropout)        (None, 16)                0         
_________________________________________________________________
dense_371 (Dense)            (None, 32)                544       
_________________________________________________________________
batch_normalization_664 (Bat (None, 32)                128       
_________________________________________________________________
activation_947 (Activation)  (None, 32)                0         
_________________________________________________________________
dropout_947 (Dropout)        (None, 32)                0         
_________________________________________________________________
dense_372 (Dense)            (None, 10)                330       
=================================================================
Total params: 9,693,642
Trainable params: 9,690,954
Non-trainable params: 2,688
_________________________________________________________________
