Model: "sequential_127"
_________________________________________________________________
Layer (type)                 Output Shape              Param #   
=================================================================
conv2d_607 (Conv2D)          (None, 32, 32, 256)       7168      
_________________________________________________________________
batch_normalization_533 (Bat (None, 32, 32, 256)       1024      
_________________________________________________________________
activation_784 (Activation)  (None, 32, 32, 256)       0         
_________________________________________________________________
dropout_784 (Dropout)        (None, 32, 32, 256)       0         
_________________________________________________________________
conv2d_608 (Conv2D)          (None, 32, 32, 256)       590080    
_________________________________________________________________
activation_785 (Activation)  (None, 32, 32, 256)       0         
_________________________________________________________________
dropout_785 (Dropout)        (None, 32, 32, 256)       0         
_________________________________________________________________
conv2d_609 (Conv2D)          (None, 32, 32, 1024)      2360320   
_________________________________________________________________
batch_normalization_534 (Bat (None, 32, 32, 1024)      4096      
_________________________________________________________________
activation_786 (Activation)  (None, 32, 32, 1024)      0         
_________________________________________________________________
dropout_786 (Dropout)        (None, 32, 32, 1024)      0         
_________________________________________________________________
conv2d_610 (Conv2D)          (None, 32, 32, 512)       4719104   
_________________________________________________________________
batch_normalization_535 (Bat (None, 32, 32, 512)       2048      
_________________________________________________________________
activation_787 (Activation)  (None, 32, 32, 512)       0         
_________________________________________________________________
dropout_787 (Dropout)        (None, 32, 32, 512)       0         
_________________________________________________________________
conv2d_611 (Conv2D)          (None, 32, 32, 64)        294976    
_________________________________________________________________
activation_788 (Activation)  (None, 32, 32, 64)        0         
_________________________________________________________________
dropout_788 (Dropout)        (None, 32, 32, 64)        0         
_________________________________________________________________
conv2d_612 (Conv2D)          (None, 32, 32, 512)       295424    
_________________________________________________________________
batch_normalization_536 (Bat (None, 32, 32, 512)       2048      
_________________________________________________________________
activation_789 (Activation)  (None, 32, 32, 512)       0         
_________________________________________________________________
dropout_789 (Dropout)        (None, 32, 32, 512)       0         
_________________________________________________________________
max_pooling2d_215 (MaxPoolin (None, 16, 16, 512)       0         
_________________________________________________________________
flatten_127 (Flatten)        (None, 131072)            0         
_________________________________________________________________
dense_304 (Dense)            (None, 128)               16777344  
_________________________________________________________________
batch_normalization_537 (Bat (None, 128)               512       
_________________________________________________________________
activation_790 (Activation)  (None, 128)               0         
_________________________________________________________________
dropout_790 (Dropout)        (None, 128)               0         
_________________________________________________________________
dense_305 (Dense)            (None, 256)               33024     
_________________________________________________________________
activation_791 (Activation)  (None, 256)               0         
_________________________________________________________________
dropout_791 (Dropout)        (None, 256)               0         
_________________________________________________________________
dense_306 (Dense)            (None, 10)                2570      
=================================================================
Total params: 25,089,738
Trainable params: 25,084,874
Non-trainable params: 4,864
_________________________________________________________________
