Model: "sequential_53"
_________________________________________________________________
Layer (type)                 Output Shape              Param #   
=================================================================
conv2d_260 (Conv2D)          (None, 32, 32, 256)       7168      
_________________________________________________________________
batch_normalization_207 (Bat (None, 32, 32, 256)       1024      
_________________________________________________________________
activation_329 (Activation)  (None, 32, 32, 256)       0         
_________________________________________________________________
dropout_329 (Dropout)        (None, 32, 32, 256)       0         
_________________________________________________________________
conv2d_261 (Conv2D)          (None, 32, 32, 8)         18440     
_________________________________________________________________
activation_330 (Activation)  (None, 32, 32, 8)         0         
_________________________________________________________________
dropout_330 (Dropout)        (None, 32, 32, 8)         0         
_________________________________________________________________
max_pooling2d_100 (MaxPoolin (None, 16, 16, 8)         0         
_________________________________________________________________
conv2d_262 (Conv2D)          (None, 16, 16, 1024)      74752     
_________________________________________________________________
batch_normalization_208 (Bat (None, 16, 16, 1024)      4096      
_________________________________________________________________
activation_331 (Activation)  (None, 16, 16, 1024)      0         
_________________________________________________________________
dropout_331 (Dropout)        (None, 16, 16, 1024)      0         
_________________________________________________________________
max_pooling2d_101 (MaxPoolin (None, 8, 8, 1024)        0         
_________________________________________________________________
conv2d_263 (Conv2D)          (None, 8, 8, 8)           73736     
_________________________________________________________________
activation_332 (Activation)  (None, 8, 8, 8)           0         
_________________________________________________________________
dropout_332 (Dropout)        (None, 8, 8, 8)           0         
_________________________________________________________________
flatten_53 (Flatten)         (None, 512)               0         
_________________________________________________________________
dense_122 (Dense)            (None, 64)                32832     
_________________________________________________________________
batch_normalization_209 (Bat (None, 64)                256       
_________________________________________________________________
activation_333 (Activation)  (None, 64)                0         
_________________________________________________________________
dropout_333 (Dropout)        (None, 64)                0         
_________________________________________________________________
dense_123 (Dense)            (None, 10)                650       
=================================================================
Total params: 212,954
Trainable params: 210,266
Non-trainable params: 2,688
_________________________________________________________________
