Model: "sequential_188"
_________________________________________________________________
Layer (type)                 Output Shape              Param #   
=================================================================
conv2d_903 (Conv2D)          (None, 32, 32, 256)       7168      
_________________________________________________________________
batch_normalization_864 (Bat (None, 32, 32, 256)       1024      
_________________________________________________________________
activation_1188 (Activation) (None, 32, 32, 256)       0         
_________________________________________________________________
dropout_1188 (Dropout)       (None, 32, 32, 256)       0         
_________________________________________________________________
conv2d_904 (Conv2D)          (None, 32, 32, 128)       295040    
_________________________________________________________________
batch_normalization_865 (Bat (None, 32, 32, 128)       512       
_________________________________________________________________
activation_1189 (Activation) (None, 32, 32, 128)       0         
_________________________________________________________________
dropout_1189 (Dropout)       (None, 32, 32, 128)       0         
_________________________________________________________________
conv2d_905 (Conv2D)          (None, 32, 32, 16)        18448     
_________________________________________________________________
batch_normalization_866 (Bat (None, 32, 32, 16)        64        
_________________________________________________________________
activation_1190 (Activation) (None, 32, 32, 16)        0         
_________________________________________________________________
dropout_1190 (Dropout)       (None, 32, 32, 16)        0         
_________________________________________________________________
conv2d_906 (Conv2D)          (None, 32, 32, 512)       74240     
_________________________________________________________________
batch_normalization_867 (Bat (None, 32, 32, 512)       2048      
_________________________________________________________________
activation_1191 (Activation) (None, 32, 32, 512)       0         
_________________________________________________________________
dropout_1191 (Dropout)       (None, 32, 32, 512)       0         
_________________________________________________________________
max_pooling2d_300 (MaxPoolin (None, 16, 16, 512)       0         
_________________________________________________________________
conv2d_907 (Conv2D)          (None, 16, 16, 64)        294976    
_________________________________________________________________
activation_1192 (Activation) (None, 16, 16, 64)        0         
_________________________________________________________________
dropout_1192 (Dropout)       (None, 16, 16, 64)        0         
_________________________________________________________________
conv2d_908 (Conv2D)          (None, 16, 16, 512)       295424    
_________________________________________________________________
batch_normalization_868 (Bat (None, 16, 16, 512)       2048      
_________________________________________________________________
activation_1193 (Activation) (None, 16, 16, 512)       0         
_________________________________________________________________
dropout_1193 (Dropout)       (None, 16, 16, 512)       0         
_________________________________________________________________
flatten_188 (Flatten)        (None, 131072)            0         
_________________________________________________________________
dense_473 (Dense)            (None, 16)                2097168   
_________________________________________________________________
batch_normalization_869 (Bat (None, 16)                64        
_________________________________________________________________
activation_1194 (Activation) (None, 16)                0         
_________________________________________________________________
dropout_1194 (Dropout)       (None, 16)                0         
_________________________________________________________________
dense_474 (Dense)            (None, 32)                544       
_________________________________________________________________
batch_normalization_870 (Bat (None, 32)                128       
_________________________________________________________________
activation_1195 (Activation) (None, 32)                0         
_________________________________________________________________
dropout_1195 (Dropout)       (None, 32)                0         
_________________________________________________________________
dense_475 (Dense)            (None, 10)                330       
=================================================================
Total params: 3,089,226
Trainable params: 3,086,282
Non-trainable params: 2,944
_________________________________________________________________
