Model: "sequential_81"
_________________________________________________________________
Layer (type)                 Output Shape              Param #   
=================================================================
conv2d_382 (Conv2D)          (None, 32, 32, 256)       7168      
_________________________________________________________________
batch_normalization_311 (Bat (None, 32, 32, 256)       1024      
_________________________________________________________________
activation_486 (Activation)  (None, 32, 32, 256)       0         
_________________________________________________________________
dropout_486 (Dropout)        (None, 32, 32, 256)       0         
_________________________________________________________________
conv2d_383 (Conv2D)          (None, 32, 32, 128)       295040    
_________________________________________________________________
batch_normalization_312 (Bat (None, 32, 32, 128)       512       
_________________________________________________________________
activation_487 (Activation)  (None, 32, 32, 128)       0         
_________________________________________________________________
dropout_487 (Dropout)        (None, 32, 32, 128)       0         
_________________________________________________________________
max_pooling2d_145 (MaxPoolin (None, 16, 16, 128)       0         
_________________________________________________________________
conv2d_384 (Conv2D)          (None, 16, 16, 256)       295168    
_________________________________________________________________
activation_488 (Activation)  (None, 16, 16, 256)       0         
_________________________________________________________________
dropout_488 (Dropout)        (None, 16, 16, 256)       0         
_________________________________________________________________
flatten_81 (Flatten)         (None, 65536)             0         
_________________________________________________________________
dense_185 (Dense)            (None, 64)                4194368   
_________________________________________________________________
batch_normalization_313 (Bat (None, 64)                256       
_________________________________________________________________
activation_489 (Activation)  (None, 64)                0         
_________________________________________________________________
dropout_489 (Dropout)        (None, 64)                0         
_________________________________________________________________
dense_186 (Dense)            (None, 10)                650       
=================================================================
Total params: 4,794,186
Trainable params: 4,793,290
Non-trainable params: 896
_________________________________________________________________
