Model: "sequential_41"
_________________________________________________________________
Layer (type)                 Output Shape              Param #   
=================================================================
conv2d_210 (Conv2D)          (None, 32, 32, 512)       14336     
_________________________________________________________________
activation_264 (Activation)  (None, 32, 32, 512)       0         
_________________________________________________________________
dropout_264 (Dropout)        (None, 32, 32, 512)       0         
_________________________________________________________________
conv2d_211 (Conv2D)          (None, 32, 32, 128)       589952    
_________________________________________________________________
batch_normalization_167 (Bat (None, 32, 32, 128)       512       
_________________________________________________________________
activation_265 (Activation)  (None, 32, 32, 128)       0         
_________________________________________________________________
dropout_265 (Dropout)        (None, 32, 32, 128)       0         
_________________________________________________________________
conv2d_212 (Conv2D)          (None, 32, 32, 1024)      1180672   
_________________________________________________________________
batch_normalization_168 (Bat (None, 32, 32, 1024)      4096      
_________________________________________________________________
activation_266 (Activation)  (None, 32, 32, 1024)      0         
_________________________________________________________________
dropout_266 (Dropout)        (None, 32, 32, 1024)      0         
_________________________________________________________________
conv2d_213 (Conv2D)          (None, 32, 32, 8)         73736     
_________________________________________________________________
activation_267 (Activation)  (None, 32, 32, 8)         0         
_________________________________________________________________
dropout_267 (Dropout)        (None, 32, 32, 8)         0         
_________________________________________________________________
flatten_41 (Flatten)         (None, 8192)              0         
_________________________________________________________________
dense_95 (Dense)             (None, 64)                524352    
_________________________________________________________________
batch_normalization_169 (Bat (None, 64)                256       
_________________________________________________________________
activation_268 (Activation)  (None, 64)                0         
_________________________________________________________________
dropout_268 (Dropout)        (None, 64)                0         
_________________________________________________________________
dense_96 (Dense)             (None, 10)                650       
=================================================================
Total params: 2,388,562
Trainable params: 2,386,130
Non-trainable params: 2,432
_________________________________________________________________
