Model: "sequential_98"
_________________________________________________________________
Layer (type)                 Output Shape              Param #   
=================================================================
conv2d_462 (Conv2D)          (None, 32, 32, 1024)      28672     
_________________________________________________________________
batch_normalization_389 (Bat (None, 32, 32, 1024)      4096      
_________________________________________________________________
activation_592 (Activation)  (None, 32, 32, 1024)      0         
_________________________________________________________________
dropout_592 (Dropout)        (None, 32, 32, 1024)      0         
_________________________________________________________________
conv2d_463 (Conv2D)          (None, 32, 32, 128)       1179776   
_________________________________________________________________
batch_normalization_390 (Bat (None, 32, 32, 128)       512       
_________________________________________________________________
activation_593 (Activation)  (None, 32, 32, 128)       0         
_________________________________________________________________
dropout_593 (Dropout)        (None, 32, 32, 128)       0         
_________________________________________________________________
conv2d_464 (Conv2D)          (None, 32, 32, 64)        73792     
_________________________________________________________________
batch_normalization_391 (Bat (None, 32, 32, 64)        256       
_________________________________________________________________
activation_594 (Activation)  (None, 32, 32, 64)        0         
_________________________________________________________________
dropout_594 (Dropout)        (None, 32, 32, 64)        0         
_________________________________________________________________
flatten_98 (Flatten)         (None, 65536)             0         
_________________________________________________________________
dense_228 (Dense)            (None, 128)               8388736   
_________________________________________________________________
activation_595 (Activation)  (None, 128)               0         
_________________________________________________________________
dropout_595 (Dropout)        (None, 128)               0         
_________________________________________________________________
dense_229 (Dense)            (None, 10)                1290      
=================================================================
Total params: 9,677,130
Trainable params: 9,674,698
Non-trainable params: 2,432
_________________________________________________________________
