Model: "sequential_204"
_________________________________________________________________
Layer (type)                 Output Shape              Param #   
=================================================================
conv2d_979 (Conv2D)          (None, 32, 32, 16)        448       
_________________________________________________________________
batch_normalization_952 (Bat (None, 32, 32, 16)        64        
_________________________________________________________________
activation_1288 (Activation) (None, 32, 32, 16)        0         
_________________________________________________________________
dropout_1288 (Dropout)       (None, 32, 32, 16)        0         
_________________________________________________________________
conv2d_980 (Conv2D)          (None, 32, 32, 256)       37120     
_________________________________________________________________
batch_normalization_953 (Bat (None, 32, 32, 256)       1024      
_________________________________________________________________
activation_1289 (Activation) (None, 32, 32, 256)       0         
_________________________________________________________________
dropout_1289 (Dropout)       (None, 32, 32, 256)       0         
_________________________________________________________________
conv2d_981 (Conv2D)          (None, 32, 32, 16)        36880     
_________________________________________________________________
batch_normalization_954 (Bat (None, 32, 32, 16)        64        
_________________________________________________________________
activation_1290 (Activation) (None, 32, 32, 16)        0         
_________________________________________________________________
dropout_1290 (Dropout)       (None, 32, 32, 16)        0         
_________________________________________________________________
conv2d_982 (Conv2D)          (None, 32, 32, 512)       74240     
_________________________________________________________________
batch_normalization_955 (Bat (None, 32, 32, 512)       2048      
_________________________________________________________________
activation_1291 (Activation) (None, 32, 32, 512)       0         
_________________________________________________________________
dropout_1291 (Dropout)       (None, 32, 32, 512)       0         
_________________________________________________________________
max_pooling2d_321 (MaxPoolin (None, 16, 16, 512)       0         
_________________________________________________________________
flatten_204 (Flatten)        (None, 131072)            0         
_________________________________________________________________
dense_513 (Dense)            (None, 64)                8388672   
_________________________________________________________________
batch_normalization_956 (Bat (None, 64)                256       
_________________________________________________________________
activation_1292 (Activation) (None, 64)                0         
_________________________________________________________________
dropout_1292 (Dropout)       (None, 64)                0         
_________________________________________________________________
dense_514 (Dense)            (None, 10)                650       
=================================================================
Total params: 8,541,466
Trainable params: 8,539,738
Non-trainable params: 1,728
_________________________________________________________________
