Model: "sequential_87"
_________________________________________________________________
Layer (type)                 Output Shape              Param #   
=================================================================
conv2d_404 (Conv2D)          (None, 32, 32, 256)       7168      
_________________________________________________________________
batch_normalization_335 (Bat (None, 32, 32, 256)       1024      
_________________________________________________________________
activation_517 (Activation)  (None, 32, 32, 256)       0         
_________________________________________________________________
dropout_517 (Dropout)        (None, 32, 32, 256)       0         
_________________________________________________________________
conv2d_405 (Conv2D)          (None, 32, 32, 8)         18440     
_________________________________________________________________
batch_normalization_336 (Bat (None, 32, 32, 8)         32        
_________________________________________________________________
activation_518 (Activation)  (None, 32, 32, 8)         0         
_________________________________________________________________
dropout_518 (Dropout)        (None, 32, 32, 8)         0         
_________________________________________________________________
conv2d_406 (Conv2D)          (None, 32, 32, 64)        4672      
_________________________________________________________________
activation_519 (Activation)  (None, 32, 32, 64)        0         
_________________________________________________________________
dropout_519 (Dropout)        (None, 32, 32, 64)        0         
_________________________________________________________________
max_pooling2d_151 (MaxPoolin (None, 16, 16, 64)        0         
_________________________________________________________________
flatten_87 (Flatten)         (None, 16384)             0         
_________________________________________________________________
dense_200 (Dense)            (None, 10)                163850    
=================================================================
Total params: 195,186
Trainable params: 194,658
Non-trainable params: 528
_________________________________________________________________
