Model: "sequential_120"
_________________________________________________________________
Layer (type)                 Output Shape              Param #   
=================================================================
conv2d_569 (Conv2D)          (None, 32, 32, 256)       7168      
_________________________________________________________________
batch_normalization_492 (Bat (None, 32, 32, 256)       1024      
_________________________________________________________________
activation_732 (Activation)  (None, 32, 32, 256)       0         
_________________________________________________________________
dropout_732 (Dropout)        (None, 32, 32, 256)       0         
_________________________________________________________________
conv2d_570 (Conv2D)          (None, 32, 32, 256)       590080    
_________________________________________________________________
batch_normalization_493 (Bat (None, 32, 32, 256)       1024      
_________________________________________________________________
activation_733 (Activation)  (None, 32, 32, 256)       0         
_________________________________________________________________
dropout_733 (Dropout)        (None, 32, 32, 256)       0         
_________________________________________________________________
conv2d_571 (Conv2D)          (None, 32, 32, 1024)      2360320   
_________________________________________________________________
batch_normalization_494 (Bat (None, 32, 32, 1024)      4096      
_________________________________________________________________
activation_734 (Activation)  (None, 32, 32, 1024)      0         
_________________________________________________________________
dropout_734 (Dropout)        (None, 32, 32, 1024)      0         
_________________________________________________________________
conv2d_572 (Conv2D)          (None, 32, 32, 512)       4719104   
_________________________________________________________________
batch_normalization_495 (Bat (None, 32, 32, 512)       2048      
_________________________________________________________________
activation_735 (Activation)  (None, 32, 32, 512)       0         
_________________________________________________________________
dropout_735 (Dropout)        (None, 32, 32, 512)       0         
_________________________________________________________________
conv2d_573 (Conv2D)          (None, 32, 32, 64)        294976    
_________________________________________________________________
activation_736 (Activation)  (None, 32, 32, 64)        0         
_________________________________________________________________
dropout_736 (Dropout)        (None, 32, 32, 64)        0         
_________________________________________________________________
conv2d_574 (Conv2D)          (None, 32, 32, 512)       295424    
_________________________________________________________________
batch_normalization_496 (Bat (None, 32, 32, 512)       2048      
_________________________________________________________________
activation_737 (Activation)  (None, 32, 32, 512)       0         
_________________________________________________________________
dropout_737 (Dropout)        (None, 32, 32, 512)       0         
_________________________________________________________________
max_pooling2d_203 (MaxPoolin (None, 16, 16, 512)       0         
_________________________________________________________________
flatten_120 (Flatten)        (None, 131072)            0         
_________________________________________________________________
dense_283 (Dense)            (None, 128)               16777344  
_________________________________________________________________
batch_normalization_497 (Bat (None, 128)               512       
_________________________________________________________________
activation_738 (Activation)  (None, 128)               0         
_________________________________________________________________
dropout_738 (Dropout)        (None, 128)               0         
_________________________________________________________________
dense_284 (Dense)            (None, 256)               33024     
_________________________________________________________________
activation_739 (Activation)  (None, 256)               0         
_________________________________________________________________
dropout_739 (Dropout)        (None, 256)               0         
_________________________________________________________________
dense_285 (Dense)            (None, 10)                2570      
=================================================================
Total params: 25,090,762
Trainable params: 25,085,386
Non-trainable params: 5,376
_________________________________________________________________
