Model: "sequential_138"
_________________________________________________________________
Layer (type)                 Output Shape              Param #   
=================================================================
conv2d_662 (Conv2D)          (None, 32, 32, 256)       7168      
_________________________________________________________________
batch_normalization_590 (Bat (None, 32, 32, 256)       1024      
_________________________________________________________________
activation_858 (Activation)  (None, 32, 32, 256)       0         
_________________________________________________________________
dropout_858 (Dropout)        (None, 32, 32, 256)       0         
_________________________________________________________________
conv2d_663 (Conv2D)          (None, 32, 32, 128)       295040    
_________________________________________________________________
batch_normalization_591 (Bat (None, 32, 32, 128)       512       
_________________________________________________________________
activation_859 (Activation)  (None, 32, 32, 128)       0         
_________________________________________________________________
dropout_859 (Dropout)        (None, 32, 32, 128)       0         
_________________________________________________________________
conv2d_664 (Conv2D)          (None, 32, 32, 16)        18448     
_________________________________________________________________
batch_normalization_592 (Bat (None, 32, 32, 16)        64        
_________________________________________________________________
activation_860 (Activation)  (None, 32, 32, 16)        0         
_________________________________________________________________
dropout_860 (Dropout)        (None, 32, 32, 16)        0         
_________________________________________________________________
conv2d_665 (Conv2D)          (None, 32, 32, 512)       74240     
_________________________________________________________________
batch_normalization_593 (Bat (None, 32, 32, 512)       2048      
_________________________________________________________________
activation_861 (Activation)  (None, 32, 32, 512)       0         
_________________________________________________________________
dropout_861 (Dropout)        (None, 32, 32, 512)       0         
_________________________________________________________________
max_pooling2d_233 (MaxPoolin (None, 16, 16, 512)       0         
_________________________________________________________________
flatten_138 (Flatten)        (None, 131072)            0         
_________________________________________________________________
dense_334 (Dense)            (None, 128)               16777344  
_________________________________________________________________
batch_normalization_594 (Bat (None, 128)               512       
_________________________________________________________________
activation_862 (Activation)  (None, 128)               0         
_________________________________________________________________
dropout_862 (Dropout)        (None, 128)               0         
_________________________________________________________________
dense_335 (Dense)            (None, 256)               33024     
_________________________________________________________________
activation_863 (Activation)  (None, 256)               0         
_________________________________________________________________
dropout_863 (Dropout)        (None, 256)               0         
_________________________________________________________________
dense_336 (Dense)            (None, 10)                2570      
=================================================================
Total params: 17,211,994
Trainable params: 17,209,914
Non-trainable params: 2,080
_________________________________________________________________
