Model: "sequential_76"
_________________________________________________________________
Layer (type)                 Output Shape              Param #   
=================================================================
conv2d_360 (Conv2D)          (None, 32, 32, 1024)      28672     
_________________________________________________________________
batch_normalization_293 (Bat (None, 32, 32, 1024)      4096      
_________________________________________________________________
activation_458 (Activation)  (None, 32, 32, 1024)      0         
_________________________________________________________________
dropout_458 (Dropout)        (None, 32, 32, 1024)      0         
_________________________________________________________________
conv2d_361 (Conv2D)          (None, 32, 32, 8)         73736     
_________________________________________________________________
batch_normalization_294 (Bat (None, 32, 32, 8)         32        
_________________________________________________________________
activation_459 (Activation)  (None, 32, 32, 8)         0         
_________________________________________________________________
dropout_459 (Dropout)        (None, 32, 32, 8)         0         
_________________________________________________________________
max_pooling2d_136 (MaxPoolin (None, 16, 16, 8)         0         
_________________________________________________________________
conv2d_362 (Conv2D)          (None, 16, 16, 256)       18688     
_________________________________________________________________
batch_normalization_295 (Bat (None, 16, 16, 256)       1024      
_________________________________________________________________
activation_460 (Activation)  (None, 16, 16, 256)       0         
_________________________________________________________________
dropout_460 (Dropout)        (None, 16, 16, 256)       0         
_________________________________________________________________
max_pooling2d_137 (MaxPoolin (None, 8, 8, 256)         0         
_________________________________________________________________
flatten_76 (Flatten)         (None, 16384)             0         
_________________________________________________________________
dense_174 (Dense)            (None, 64)                1048640   
_________________________________________________________________
batch_normalization_296 (Bat (None, 64)                256       
_________________________________________________________________
activation_461 (Activation)  (None, 64)                0         
_________________________________________________________________
dropout_461 (Dropout)        (None, 64)                0         
_________________________________________________________________
dense_175 (Dense)            (None, 10)                650       
=================================================================
Total params: 1,175,794
Trainable params: 1,173,090
Non-trainable params: 2,704
_________________________________________________________________
