Model: "sequential_199"
_________________________________________________________________
Layer (type)                 Output Shape              Param #   
=================================================================
conv2d_956 (Conv2D)          (None, 32, 32, 256)       7168      
_________________________________________________________________
batch_normalization_925 (Bat (None, 32, 32, 256)       1024      
_________________________________________________________________
activation_1258 (Activation) (None, 32, 32, 256)       0         
_________________________________________________________________
dropout_1258 (Dropout)       (None, 32, 32, 256)       0         
_________________________________________________________________
conv2d_957 (Conv2D)          (None, 32, 32, 128)       295040    
_________________________________________________________________
batch_normalization_926 (Bat (None, 32, 32, 128)       512       
_________________________________________________________________
activation_1259 (Activation) (None, 32, 32, 128)       0         
_________________________________________________________________
dropout_1259 (Dropout)       (None, 32, 32, 128)       0         
_________________________________________________________________
conv2d_958 (Conv2D)          (None, 32, 32, 16)        18448     
_________________________________________________________________
batch_normalization_927 (Bat (None, 32, 32, 16)        64        
_________________________________________________________________
activation_1260 (Activation) (None, 32, 32, 16)        0         
_________________________________________________________________
dropout_1260 (Dropout)       (None, 32, 32, 16)        0         
_________________________________________________________________
conv2d_959 (Conv2D)          (None, 32, 32, 512)       74240     
_________________________________________________________________
batch_normalization_928 (Bat (None, 32, 32, 512)       2048      
_________________________________________________________________
activation_1261 (Activation) (None, 32, 32, 512)       0         
_________________________________________________________________
dropout_1261 (Dropout)       (None, 32, 32, 512)       0         
_________________________________________________________________
max_pooling2d_317 (MaxPoolin (None, 16, 16, 512)       0         
_________________________________________________________________
flatten_199 (Flatten)        (None, 131072)            0         
_________________________________________________________________
dense_501 (Dense)            (None, 32)                4194336   
_________________________________________________________________
batch_normalization_929 (Bat (None, 32)                128       
_________________________________________________________________
activation_1262 (Activation) (None, 32)                0         
_________________________________________________________________
dropout_1262 (Dropout)       (None, 32)                0         
_________________________________________________________________
dense_502 (Dense)            (None, 10)                330       
=================================================================
Total params: 4,593,338
Trainable params: 4,591,450
Non-trainable params: 1,888
_________________________________________________________________
