Model: "sequential_169"
_________________________________________________________________
Layer (type)                 Output Shape              Param #   
=================================================================
conv2d_811 (Conv2D)          (None, 32, 32, 256)       7168      
_________________________________________________________________
batch_normalization_759 (Bat (None, 32, 32, 256)       1024      
_________________________________________________________________
activation_1063 (Activation) (None, 32, 32, 256)       0         
_________________________________________________________________
dropout_1063 (Dropout)       (None, 32, 32, 256)       0         
_________________________________________________________________
conv2d_812 (Conv2D)          (None, 32, 32, 256)       590080    
_________________________________________________________________
batch_normalization_760 (Bat (None, 32, 32, 256)       1024      
_________________________________________________________________
activation_1064 (Activation) (None, 32, 32, 256)       0         
_________________________________________________________________
dropout_1064 (Dropout)       (None, 32, 32, 256)       0         
_________________________________________________________________
conv2d_813 (Conv2D)          (None, 32, 32, 1024)      2360320   
_________________________________________________________________
batch_normalization_761 (Bat (None, 32, 32, 1024)      4096      
_________________________________________________________________
activation_1065 (Activation) (None, 32, 32, 1024)      0         
_________________________________________________________________
dropout_1065 (Dropout)       (None, 32, 32, 1024)      0         
_________________________________________________________________
conv2d_814 (Conv2D)          (None, 32, 32, 512)       4719104   
_________________________________________________________________
batch_normalization_762 (Bat (None, 32, 32, 512)       2048      
_________________________________________________________________
activation_1066 (Activation) (None, 32, 32, 512)       0         
_________________________________________________________________
dropout_1066 (Dropout)       (None, 32, 32, 512)       0         
_________________________________________________________________
max_pooling2d_275 (MaxPoolin (None, 16, 16, 512)       0         
_________________________________________________________________
conv2d_815 (Conv2D)          (None, 16, 16, 128)       589952    
_________________________________________________________________
activation_1067 (Activation) (None, 16, 16, 128)       0         
_________________________________________________________________
dropout_1067 (Dropout)       (None, 16, 16, 128)       0         
_________________________________________________________________
max_pooling2d_276 (MaxPoolin (None, 8, 8, 128)         0         
_________________________________________________________________
flatten_169 (Flatten)        (None, 8192)              0         
_________________________________________________________________
dense_421 (Dense)            (None, 16)                131088    
_________________________________________________________________
batch_normalization_763 (Bat (None, 16)                64        
_________________________________________________________________
activation_1068 (Activation) (None, 16)                0         
_________________________________________________________________
dropout_1068 (Dropout)       (None, 16)                0         
_________________________________________________________________
dense_422 (Dense)            (None, 32)                544       
_________________________________________________________________
batch_normalization_764 (Bat (None, 32)                128       
_________________________________________________________________
activation_1069 (Activation) (None, 32)                0         
_________________________________________________________________
dropout_1069 (Dropout)       (None, 32)                0         
_________________________________________________________________
dense_423 (Dense)            (None, 10)                330       
=================================================================
Total params: 8,406,970
Trainable params: 8,402,778
Non-trainable params: 4,192
_________________________________________________________________
