Model: "sequential_3"
_________________________________________________________________
Layer (type)                 Output Shape              Param #   
=================================================================
conv2d_14 (Conv2D)           (None, 32, 32, 16)        448       
_________________________________________________________________
batch_normalization_10 (Batc (None, 32, 32, 16)        64        
_________________________________________________________________
activation_19 (Activation)   (None, 32, 32, 16)        0         
_________________________________________________________________
dropout_19 (Dropout)         (None, 32, 32, 16)        0         
_________________________________________________________________
max_pooling2d_5 (MaxPooling2 (None, 16, 16, 16)        0         
_________________________________________________________________
conv2d_15 (Conv2D)           (None, 16, 16, 256)       37120     
_________________________________________________________________
batch_normalization_11 (Batc (None, 16, 16, 256)       1024      
_________________________________________________________________
activation_20 (Activation)   (None, 16, 16, 256)       0         
_________________________________________________________________
dropout_20 (Dropout)         (None, 16, 16, 256)       0         
_________________________________________________________________
max_pooling2d_6 (MaxPooling2 (None, 8, 8, 256)         0         
_________________________________________________________________
conv2d_16 (Conv2D)           (None, 8, 8, 128)         295040    
_________________________________________________________________
activation_21 (Activation)   (None, 8, 8, 128)         0         
_________________________________________________________________
dropout_21 (Dropout)         (None, 8, 8, 128)         0         
_________________________________________________________________
conv2d_17 (Conv2D)           (None, 8, 8, 64)          73792     
_________________________________________________________________
activation_22 (Activation)   (None, 8, 8, 64)          0         
_________________________________________________________________
dropout_22 (Dropout)         (None, 8, 8, 64)          0         
_________________________________________________________________
flatten_3 (Flatten)          (None, 4096)              0         
_________________________________________________________________
dense_8 (Dense)              (None, 10)                40970     
=================================================================
Total params: 448,458
Trainable params: 447,914
Non-trainable params: 544
_________________________________________________________________
