Model: "sequential_47"
_________________________________________________________________
Layer (type)                 Output Shape              Param #   
=================================================================
conv2d_238 (Conv2D)          (None, 32, 32, 256)       7168      
_________________________________________________________________
batch_normalization_189 (Bat (None, 32, 32, 256)       1024      
_________________________________________________________________
activation_299 (Activation)  (None, 32, 32, 256)       0         
_________________________________________________________________
dropout_299 (Dropout)        (None, 32, 32, 256)       0         
_________________________________________________________________
conv2d_239 (Conv2D)          (None, 32, 32, 8)         18440     
_________________________________________________________________
batch_normalization_190 (Bat (None, 32, 32, 8)         32        
_________________________________________________________________
activation_300 (Activation)  (None, 32, 32, 8)         0         
_________________________________________________________________
dropout_300 (Dropout)        (None, 32, 32, 8)         0         
_________________________________________________________________
conv2d_240 (Conv2D)          (None, 32, 32, 64)        4672      
_________________________________________________________________
activation_301 (Activation)  (None, 32, 32, 64)        0         
_________________________________________________________________
dropout_301 (Dropout)        (None, 32, 32, 64)        0         
_________________________________________________________________
max_pooling2d_91 (MaxPooling (None, 16, 16, 64)        0         
_________________________________________________________________
conv2d_241 (Conv2D)          (None, 16, 16, 16)        9232      
_________________________________________________________________
activation_302 (Activation)  (None, 16, 16, 16)        0         
_________________________________________________________________
dropout_302 (Dropout)        (None, 16, 16, 16)        0         
_________________________________________________________________
flatten_47 (Flatten)         (None, 4096)              0         
_________________________________________________________________
dense_108 (Dense)            (None, 16)                65552     
_________________________________________________________________
activation_303 (Activation)  (None, 16)                0         
_________________________________________________________________
dropout_303 (Dropout)        (None, 16)                0         
_________________________________________________________________
dense_109 (Dense)            (None, 10)                170       
=================================================================
Total params: 106,290
Trainable params: 105,762
Non-trainable params: 528
_________________________________________________________________
