Model: "sequential_35"
_________________________________________________________________
Layer (type)                 Output Shape              Param #   
=================================================================
conv2d_177 (Conv2D)          (None, 32, 32, 1024)      28672     
_________________________________________________________________
batch_normalization_134 (Bat (None, 32, 32, 1024)      4096      
_________________________________________________________________
activation_222 (Activation)  (None, 32, 32, 1024)      0         
_________________________________________________________________
dropout_222 (Dropout)        (None, 32, 32, 1024)      0         
_________________________________________________________________
conv2d_178 (Conv2D)          (None, 32, 32, 8)         73736     
_________________________________________________________________
batch_normalization_135 (Bat (None, 32, 32, 8)         32        
_________________________________________________________________
activation_223 (Activation)  (None, 32, 32, 8)         0         
_________________________________________________________________
dropout_223 (Dropout)        (None, 32, 32, 8)         0         
_________________________________________________________________
max_pooling2d_68 (MaxPooling (None, 16, 16, 8)         0         
_________________________________________________________________
conv2d_179 (Conv2D)          (None, 16, 16, 256)       18688     
_________________________________________________________________
batch_normalization_136 (Bat (None, 16, 16, 256)       1024      
_________________________________________________________________
activation_224 (Activation)  (None, 16, 16, 256)       0         
_________________________________________________________________
dropout_224 (Dropout)        (None, 16, 16, 256)       0         
_________________________________________________________________
conv2d_180 (Conv2D)          (None, 16, 16, 16)        36880     
_________________________________________________________________
batch_normalization_137 (Bat (None, 16, 16, 16)        64        
_________________________________________________________________
activation_225 (Activation)  (None, 16, 16, 16)        0         
_________________________________________________________________
dropout_225 (Dropout)        (None, 16, 16, 16)        0         
_________________________________________________________________
conv2d_181 (Conv2D)          (None, 16, 16, 512)       74240     
_________________________________________________________________
batch_normalization_138 (Bat (None, 16, 16, 512)       2048      
_________________________________________________________________
activation_226 (Activation)  (None, 16, 16, 512)       0         
_________________________________________________________________
dropout_226 (Dropout)        (None, 16, 16, 512)       0         
_________________________________________________________________
max_pooling2d_69 (MaxPooling (None, 8, 8, 512)         0         
_________________________________________________________________
conv2d_182 (Conv2D)          (None, 8, 8, 128)         589952    
_________________________________________________________________
activation_227 (Activation)  (None, 8, 8, 128)         0         
_________________________________________________________________
dropout_227 (Dropout)        (None, 8, 8, 128)         0         
_________________________________________________________________
max_pooling2d_70 (MaxPooling (None, 4, 4, 128)         0         
_________________________________________________________________
flatten_35 (Flatten)         (None, 2048)              0         
_________________________________________________________________
dense_80 (Dense)             (None, 16)                32784     
_________________________________________________________________
batch_normalization_139 (Bat (None, 16)                64        
_________________________________________________________________
activation_228 (Activation)  (None, 16)                0         
_________________________________________________________________
dropout_228 (Dropout)        (None, 16)                0         
_________________________________________________________________
dense_81 (Dense)             (None, 32)                544       
_________________________________________________________________
batch_normalization_140 (Bat (None, 32)                128       
_________________________________________________________________
activation_229 (Activation)  (None, 32)                0         
_________________________________________________________________
dropout_229 (Dropout)        (None, 32)                0         
_________________________________________________________________
dense_82 (Dense)             (None, 10)                330       
=================================================================
Total params: 863,282
Trainable params: 859,554
Non-trainable params: 3,728
_________________________________________________________________
