Model: "sequential_181"
_________________________________________________________________
Layer (type)                 Output Shape              Param #   
=================================================================
conv2d_868 (Conv2D)          (None, 32, 32, 256)       7168      
_________________________________________________________________
batch_normalization_822 (Bat (None, 32, 32, 256)       1024      
_________________________________________________________________
activation_1140 (Activation) (None, 32, 32, 256)       0         
_________________________________________________________________
dropout_1140 (Dropout)       (None, 32, 32, 256)       0         
_________________________________________________________________
conv2d_869 (Conv2D)          (None, 32, 32, 128)       295040    
_________________________________________________________________
batch_normalization_823 (Bat (None, 32, 32, 128)       512       
_________________________________________________________________
activation_1141 (Activation) (None, 32, 32, 128)       0         
_________________________________________________________________
dropout_1141 (Dropout)       (None, 32, 32, 128)       0         
_________________________________________________________________
conv2d_870 (Conv2D)          (None, 32, 32, 16)        18448     
_________________________________________________________________
batch_normalization_824 (Bat (None, 32, 32, 16)        64        
_________________________________________________________________
activation_1142 (Activation) (None, 32, 32, 16)        0         
_________________________________________________________________
dropout_1142 (Dropout)       (None, 32, 32, 16)        0         
_________________________________________________________________
conv2d_871 (Conv2D)          (None, 32, 32, 512)       74240     
_________________________________________________________________
batch_normalization_825 (Bat (None, 32, 32, 512)       2048      
_________________________________________________________________
activation_1143 (Activation) (None, 32, 32, 512)       0         
_________________________________________________________________
dropout_1143 (Dropout)       (None, 32, 32, 512)       0         
_________________________________________________________________
conv2d_872 (Conv2D)          (None, 32, 32, 64)        294976    
_________________________________________________________________
activation_1144 (Activation) (None, 32, 32, 64)        0         
_________________________________________________________________
dropout_1144 (Dropout)       (None, 32, 32, 64)        0         
_________________________________________________________________
conv2d_873 (Conv2D)          (None, 32, 32, 512)       295424    
_________________________________________________________________
batch_normalization_826 (Bat (None, 32, 32, 512)       2048      
_________________________________________________________________
activation_1145 (Activation) (None, 32, 32, 512)       0         
_________________________________________________________________
dropout_1145 (Dropout)       (None, 32, 32, 512)       0         
_________________________________________________________________
flatten_181 (Flatten)        (None, 524288)            0         
_________________________________________________________________
dense_453 (Dense)            (None, 16)                8388624   
_________________________________________________________________
batch_normalization_827 (Bat (None, 16)                64        
_________________________________________________________________
activation_1146 (Activation) (None, 16)                0         
_________________________________________________________________
dropout_1146 (Dropout)       (None, 16)                0         
_________________________________________________________________
dense_454 (Dense)            (None, 32)                544       
_________________________________________________________________
batch_normalization_828 (Bat (None, 32)                128       
_________________________________________________________________
activation_1147 (Activation) (None, 32)                0         
_________________________________________________________________
dropout_1147 (Dropout)       (None, 32)                0         
_________________________________________________________________
dense_455 (Dense)            (None, 10)                330       
=================================================================
Total params: 9,380,682
Trainable params: 9,377,738
Non-trainable params: 2,944
_________________________________________________________________
