Model: "sequential_33"
_________________________________________________________________
Layer (type)                 Output Shape              Param #   
=================================================================
conv2d_167 (Conv2D)          (None, 32, 32, 512)       14336     
_________________________________________________________________
activation_210 (Activation)  (None, 32, 32, 512)       0         
_________________________________________________________________
dropout_210 (Dropout)        (None, 32, 32, 512)       0         
_________________________________________________________________
conv2d_168 (Conv2D)          (None, 32, 32, 128)       589952    
_________________________________________________________________
batch_normalization_124 (Bat (None, 32, 32, 128)       512       
_________________________________________________________________
activation_211 (Activation)  (None, 32, 32, 128)       0         
_________________________________________________________________
dropout_211 (Dropout)        (None, 32, 32, 128)       0         
_________________________________________________________________
conv2d_169 (Conv2D)          (None, 32, 32, 256)       295168    
_________________________________________________________________
batch_normalization_125 (Bat (None, 32, 32, 256)       1024      
_________________________________________________________________
activation_212 (Activation)  (None, 32, 32, 256)       0         
_________________________________________________________________
dropout_212 (Dropout)        (None, 32, 32, 256)       0         
_________________________________________________________________
max_pooling2d_63 (MaxPooling (None, 16, 16, 256)       0         
_________________________________________________________________
conv2d_170 (Conv2D)          (None, 16, 16, 256)       590080    
_________________________________________________________________
batch_normalization_126 (Bat (None, 16, 16, 256)       1024      
_________________________________________________________________
activation_213 (Activation)  (None, 16, 16, 256)       0         
_________________________________________________________________
dropout_213 (Dropout)        (None, 16, 16, 256)       0         
_________________________________________________________________
conv2d_171 (Conv2D)          (None, 16, 16, 16)        36880     
_________________________________________________________________
batch_normalization_127 (Bat (None, 16, 16, 16)        64        
_________________________________________________________________
activation_214 (Activation)  (None, 16, 16, 16)        0         
_________________________________________________________________
dropout_214 (Dropout)        (None, 16, 16, 16)        0         
_________________________________________________________________
conv2d_172 (Conv2D)          (None, 16, 16, 512)       74240     
_________________________________________________________________
batch_normalization_128 (Bat (None, 16, 16, 512)       2048      
_________________________________________________________________
activation_215 (Activation)  (None, 16, 16, 512)       0         
_________________________________________________________________
dropout_215 (Dropout)        (None, 16, 16, 512)       0         
_________________________________________________________________
max_pooling2d_64 (MaxPooling (None, 8, 8, 512)         0         
_________________________________________________________________
conv2d_173 (Conv2D)          (None, 8, 8, 128)         589952    
_________________________________________________________________
activation_216 (Activation)  (None, 8, 8, 128)         0         
_________________________________________________________________
dropout_216 (Dropout)        (None, 8, 8, 128)         0         
_________________________________________________________________
max_pooling2d_65 (MaxPooling (None, 4, 4, 128)         0         
_________________________________________________________________
flatten_33 (Flatten)         (None, 2048)              0         
_________________________________________________________________
dense_76 (Dense)             (None, 16)                32784     
_________________________________________________________________
batch_normalization_129 (Bat (None, 16)                64        
_________________________________________________________________
activation_217 (Activation)  (None, 16)                0         
_________________________________________________________________
dropout_217 (Dropout)        (None, 16)                0         
_________________________________________________________________
dense_77 (Dense)             (None, 32)                544       
_________________________________________________________________
batch_normalization_130 (Bat (None, 32)                128       
_________________________________________________________________
activation_218 (Activation)  (None, 32)                0         
_________________________________________________________________
dropout_218 (Dropout)        (None, 32)                0         
_________________________________________________________________
dense_78 (Dense)             (None, 10)                330       
=================================================================
Total params: 2,229,130
Trainable params: 2,226,698
Non-trainable params: 2,432
_________________________________________________________________
