Model: "sequential_175"
_________________________________________________________________
Layer (type)                 Output Shape              Param #   
=================================================================
conv2d_839 (Conv2D)          (None, 32, 32, 256)       7168      
_________________________________________________________________
batch_normalization_791 (Bat (None, 32, 32, 256)       1024      
_________________________________________________________________
activation_1099 (Activation) (None, 32, 32, 256)       0         
_________________________________________________________________
dropout_1099 (Dropout)       (None, 32, 32, 256)       0         
_________________________________________________________________
conv2d_840 (Conv2D)          (None, 32, 32, 32)        73760     
_________________________________________________________________
batch_normalization_792 (Bat (None, 32, 32, 32)        128       
_________________________________________________________________
activation_1100 (Activation) (None, 32, 32, 32)        0         
_________________________________________________________________
dropout_1100 (Dropout)       (None, 32, 32, 32)        0         
_________________________________________________________________
conv2d_841 (Conv2D)          (None, 32, 32, 16)        4624      
_________________________________________________________________
batch_normalization_793 (Bat (None, 32, 32, 16)        64        
_________________________________________________________________
activation_1101 (Activation) (None, 32, 32, 16)        0         
_________________________________________________________________
dropout_1101 (Dropout)       (None, 32, 32, 16)        0         
_________________________________________________________________
conv2d_842 (Conv2D)          (None, 32, 32, 512)       74240     
_________________________________________________________________
batch_normalization_794 (Bat (None, 32, 32, 512)       2048      
_________________________________________________________________
activation_1102 (Activation) (None, 32, 32, 512)       0         
_________________________________________________________________
dropout_1102 (Dropout)       (None, 32, 32, 512)       0         
_________________________________________________________________
max_pooling2d_283 (MaxPoolin (None, 16, 16, 512)       0         
_________________________________________________________________
conv2d_843 (Conv2D)          (None, 16, 16, 128)       589952    
_________________________________________________________________
activation_1103 (Activation) (None, 16, 16, 128)       0         
_________________________________________________________________
dropout_1103 (Dropout)       (None, 16, 16, 128)       0         
_________________________________________________________________
max_pooling2d_284 (MaxPoolin (None, 8, 8, 128)         0         
_________________________________________________________________
flatten_175 (Flatten)        (None, 8192)              0         
_________________________________________________________________
dense_435 (Dense)            (None, 16)                131088    
_________________________________________________________________
batch_normalization_795 (Bat (None, 16)                64        
_________________________________________________________________
activation_1104 (Activation) (None, 16)                0         
_________________________________________________________________
dropout_1104 (Dropout)       (None, 16)                0         
_________________________________________________________________
dense_436 (Dense)            (None, 32)                544       
_________________________________________________________________
batch_normalization_796 (Bat (None, 32)                128       
_________________________________________________________________
activation_1105 (Activation) (None, 32)                0         
_________________________________________________________________
dropout_1105 (Dropout)       (None, 32)                0         
_________________________________________________________________
dense_437 (Dense)            (None, 10)                330       
=================================================================
Total params: 885,162
Trainable params: 883,434
Non-trainable params: 1,728
_________________________________________________________________
