Model: "sequential_153"
_________________________________________________________________
Layer (type)                 Output Shape              Param #   
=================================================================
conv2d_732 (Conv2D)          (None, 32, 32, 256)       7168      
_________________________________________________________________
batch_normalization_672 (Bat (None, 32, 32, 256)       1024      
_________________________________________________________________
activation_955 (Activation)  (None, 32, 32, 256)       0         
_________________________________________________________________
dropout_955 (Dropout)        (None, 32, 32, 256)       0         
_________________________________________________________________
conv2d_733 (Conv2D)          (None, 32, 32, 256)       590080    
_________________________________________________________________
batch_normalization_673 (Bat (None, 32, 32, 256)       1024      
_________________________________________________________________
activation_956 (Activation)  (None, 32, 32, 256)       0         
_________________________________________________________________
dropout_956 (Dropout)        (None, 32, 32, 256)       0         
_________________________________________________________________
conv2d_734 (Conv2D)          (None, 32, 32, 1024)      2360320   
_________________________________________________________________
batch_normalization_674 (Bat (None, 32, 32, 1024)      4096      
_________________________________________________________________
activation_957 (Activation)  (None, 32, 32, 1024)      0         
_________________________________________________________________
dropout_957 (Dropout)        (None, 32, 32, 1024)      0         
_________________________________________________________________
conv2d_735 (Conv2D)          (None, 32, 32, 512)       4719104   
_________________________________________________________________
batch_normalization_675 (Bat (None, 32, 32, 512)       2048      
_________________________________________________________________
activation_958 (Activation)  (None, 32, 32, 512)       0         
_________________________________________________________________
dropout_958 (Dropout)        (None, 32, 32, 512)       0         
_________________________________________________________________
max_pooling2d_254 (MaxPoolin (None, 16, 16, 512)       0         
_________________________________________________________________
conv2d_736 (Conv2D)          (None, 16, 16, 128)       589952    
_________________________________________________________________
activation_959 (Activation)  (None, 16, 16, 128)       0         
_________________________________________________________________
dropout_959 (Dropout)        (None, 16, 16, 128)       0         
_________________________________________________________________
max_pooling2d_255 (MaxPoolin (None, 8, 8, 128)         0         
_________________________________________________________________
flatten_153 (Flatten)        (None, 8192)              0         
_________________________________________________________________
dense_376 (Dense)            (None, 512)               4194816   
_________________________________________________________________
activation_960 (Activation)  (None, 512)               0         
_________________________________________________________________
dropout_960 (Dropout)        (None, 512)               0         
_________________________________________________________________
dense_377 (Dense)            (None, 64)                32832     
_________________________________________________________________
batch_normalization_676 (Bat (None, 64)                256       
_________________________________________________________________
activation_961 (Activation)  (None, 64)                0         
_________________________________________________________________
dropout_961 (Dropout)        (None, 64)                0         
_________________________________________________________________
dense_378 (Dense)            (None, 10)                650       
=================================================================
Total params: 12,503,370
Trainable params: 12,499,146
Non-trainable params: 4,224
_________________________________________________________________
