Model: "sequential_85"
_________________________________________________________________
Layer (type)                 Output Shape              Param #   
=================================================================
conv2d_396 (Conv2D)          (None, 32, 32, 1024)      28672     
_________________________________________________________________
batch_normalization_326 (Bat (None, 32, 32, 1024)      4096      
_________________________________________________________________
activation_505 (Activation)  (None, 32, 32, 1024)      0         
_________________________________________________________________
dropout_505 (Dropout)        (None, 32, 32, 1024)      0         
_________________________________________________________________
conv2d_397 (Conv2D)          (None, 32, 32, 8)         73736     
_________________________________________________________________
batch_normalization_327 (Bat (None, 32, 32, 8)         32        
_________________________________________________________________
activation_506 (Activation)  (None, 32, 32, 8)         0         
_________________________________________________________________
dropout_506 (Dropout)        (None, 32, 32, 8)         0         
_________________________________________________________________
max_pooling2d_148 (MaxPoolin (None, 16, 16, 8)         0         
_________________________________________________________________
conv2d_398 (Conv2D)          (None, 16, 16, 128)       9344      
_________________________________________________________________
batch_normalization_328 (Bat (None, 16, 16, 128)       512       
_________________________________________________________________
activation_507 (Activation)  (None, 16, 16, 128)       0         
_________________________________________________________________
dropout_507 (Dropout)        (None, 16, 16, 128)       0         
_________________________________________________________________
max_pooling2d_149 (MaxPoolin (None, 8, 8, 128)         0         
_________________________________________________________________
conv2d_399 (Conv2D)          (None, 8, 8, 256)         295168    
_________________________________________________________________
activation_508 (Activation)  (None, 8, 8, 256)         0         
_________________________________________________________________
dropout_508 (Dropout)        (None, 8, 8, 256)         0         
_________________________________________________________________
flatten_85 (Flatten)         (None, 16384)             0         
_________________________________________________________________
dense_194 (Dense)            (None, 16)                262160    
_________________________________________________________________
activation_509 (Activation)  (None, 16)                0         
_________________________________________________________________
dropout_509 (Dropout)        (None, 16)                0         
_________________________________________________________________
dense_195 (Dense)            (None, 32)                544       
_________________________________________________________________
batch_normalization_329 (Bat (None, 32)                128       
_________________________________________________________________
activation_510 (Activation)  (None, 32)                0         
_________________________________________________________________
dropout_510 (Dropout)        (None, 32)                0         
_________________________________________________________________
dense_196 (Dense)            (None, 10)                330       
=================================================================
Total params: 674,722
Trainable params: 672,338
Non-trainable params: 2,384
_________________________________________________________________
