Model: "sequential_43"
_________________________________________________________________
Layer (type)                 Output Shape              Param #   
=================================================================
conv2d_219 (Conv2D)          (None, 32, 32, 1024)      28672     
_________________________________________________________________
batch_normalization_174 (Bat (None, 32, 32, 1024)      4096      
_________________________________________________________________
activation_275 (Activation)  (None, 32, 32, 1024)      0         
_________________________________________________________________
dropout_275 (Dropout)        (None, 32, 32, 1024)      0         
_________________________________________________________________
conv2d_220 (Conv2D)          (None, 32, 32, 8)         73736     
_________________________________________________________________
batch_normalization_175 (Bat (None, 32, 32, 8)         32        
_________________________________________________________________
activation_276 (Activation)  (None, 32, 32, 8)         0         
_________________________________________________________________
dropout_276 (Dropout)        (None, 32, 32, 8)         0         
_________________________________________________________________
max_pooling2d_81 (MaxPooling (None, 16, 16, 8)         0         
_________________________________________________________________
conv2d_221 (Conv2D)          (None, 16, 16, 256)       18688     
_________________________________________________________________
batch_normalization_176 (Bat (None, 16, 16, 256)       1024      
_________________________________________________________________
activation_277 (Activation)  (None, 16, 16, 256)       0         
_________________________________________________________________
dropout_277 (Dropout)        (None, 16, 16, 256)       0         
_________________________________________________________________
conv2d_222 (Conv2D)          (None, 16, 16, 512)       1180160   
_________________________________________________________________
batch_normalization_177 (Bat (None, 16, 16, 512)       2048      
_________________________________________________________________
activation_278 (Activation)  (None, 16, 16, 512)       0         
_________________________________________________________________
dropout_278 (Dropout)        (None, 16, 16, 512)       0         
_________________________________________________________________
max_pooling2d_82 (MaxPooling (None, 8, 8, 512)         0         
_________________________________________________________________
conv2d_223 (Conv2D)          (None, 8, 8, 128)         589952    
_________________________________________________________________
activation_279 (Activation)  (None, 8, 8, 128)         0         
_________________________________________________________________
dropout_279 (Dropout)        (None, 8, 8, 128)         0         
_________________________________________________________________
max_pooling2d_83 (MaxPooling (None, 4, 4, 128)         0         
_________________________________________________________________
flatten_43 (Flatten)         (None, 2048)              0         
_________________________________________________________________
dense_99 (Dense)             (None, 16)                32784     
_________________________________________________________________
batch_normalization_178 (Bat (None, 16)                64        
_________________________________________________________________
activation_280 (Activation)  (None, 16)                0         
_________________________________________________________________
dropout_280 (Dropout)        (None, 16)                0         
_________________________________________________________________
dense_100 (Dense)            (None, 32)                544       
_________________________________________________________________
batch_normalization_179 (Bat (None, 32)                128       
_________________________________________________________________
activation_281 (Activation)  (None, 32)                0         
_________________________________________________________________
dropout_281 (Dropout)        (None, 32)                0         
_________________________________________________________________
dense_101 (Dense)            (None, 10)                330       
=================================================================
Total params: 1,932,258
Trainable params: 1,928,562
Non-trainable params: 3,696
_________________________________________________________________
