Model: "sequential_125"
_________________________________________________________________
Layer (type)                 Output Shape              Param #   
=================================================================
conv2d_598 (Conv2D)          (None, 32, 32, 256)       7168      
_________________________________________________________________
batch_normalization_522 (Bat (None, 32, 32, 256)       1024      
_________________________________________________________________
activation_771 (Activation)  (None, 32, 32, 256)       0         
_________________________________________________________________
dropout_771 (Dropout)        (None, 32, 32, 256)       0         
_________________________________________________________________
conv2d_599 (Conv2D)          (None, 32, 32, 128)       295040    
_________________________________________________________________
batch_normalization_523 (Bat (None, 32, 32, 128)       512       
_________________________________________________________________
activation_772 (Activation)  (None, 32, 32, 128)       0         
_________________________________________________________________
dropout_772 (Dropout)        (None, 32, 32, 128)       0         
_________________________________________________________________
conv2d_600 (Conv2D)          (None, 32, 32, 16)        18448     
_________________________________________________________________
batch_normalization_524 (Bat (None, 32, 32, 16)        64        
_________________________________________________________________
activation_773 (Activation)  (None, 32, 32, 16)        0         
_________________________________________________________________
dropout_773 (Dropout)        (None, 32, 32, 16)        0         
_________________________________________________________________
conv2d_601 (Conv2D)          (None, 32, 32, 512)       74240     
_________________________________________________________________
batch_normalization_525 (Bat (None, 32, 32, 512)       2048      
_________________________________________________________________
activation_774 (Activation)  (None, 32, 32, 512)       0         
_________________________________________________________________
dropout_774 (Dropout)        (None, 32, 32, 512)       0         
_________________________________________________________________
max_pooling2d_212 (MaxPoolin (None, 16, 16, 512)       0         
_________________________________________________________________
flatten_125 (Flatten)        (None, 131072)            0         
_________________________________________________________________
dense_298 (Dense)            (None, 512)               67109376  
_________________________________________________________________
activation_775 (Activation)  (None, 512)               0         
_________________________________________________________________
dropout_775 (Dropout)        (None, 512)               0         
_________________________________________________________________
dense_299 (Dense)            (None, 64)                32832     
_________________________________________________________________
batch_normalization_526 (Bat (None, 64)                256       
_________________________________________________________________
activation_776 (Activation)  (None, 64)                0         
_________________________________________________________________
dropout_776 (Dropout)        (None, 64)                0         
_________________________________________________________________
dense_300 (Dense)            (None, 10)                650       
=================================================================
Total params: 67,541,658
Trainable params: 67,539,706
Non-trainable params: 1,952
_________________________________________________________________
