Model: "sequential_187"
_________________________________________________________________
Layer (type)                 Output Shape              Param #   
=================================================================
conv2d_899 (Conv2D)          (None, 32, 32, 256)       7168      
_________________________________________________________________
batch_normalization_858 (Bat (None, 32, 32, 256)       1024      
_________________________________________________________________
activation_1182 (Activation) (None, 32, 32, 256)       0         
_________________________________________________________________
dropout_1182 (Dropout)       (None, 32, 32, 256)       0         
_________________________________________________________________
conv2d_900 (Conv2D)          (None, 32, 32, 128)       295040    
_________________________________________________________________
batch_normalization_859 (Bat (None, 32, 32, 128)       512       
_________________________________________________________________
activation_1183 (Activation) (None, 32, 32, 128)       0         
_________________________________________________________________
dropout_1183 (Dropout)       (None, 32, 32, 128)       0         
_________________________________________________________________
conv2d_901 (Conv2D)          (None, 32, 32, 16)        18448     
_________________________________________________________________
batch_normalization_860 (Bat (None, 32, 32, 16)        64        
_________________________________________________________________
activation_1184 (Activation) (None, 32, 32, 16)        0         
_________________________________________________________________
dropout_1184 (Dropout)       (None, 32, 32, 16)        0         
_________________________________________________________________
conv2d_902 (Conv2D)          (None, 32, 32, 512)       74240     
_________________________________________________________________
batch_normalization_861 (Bat (None, 32, 32, 512)       2048      
_________________________________________________________________
activation_1185 (Activation) (None, 32, 32, 512)       0         
_________________________________________________________________
dropout_1185 (Dropout)       (None, 32, 32, 512)       0         
_________________________________________________________________
max_pooling2d_299 (MaxPoolin (None, 16, 16, 512)       0         
_________________________________________________________________
flatten_187 (Flatten)        (None, 131072)            0         
_________________________________________________________________
dense_470 (Dense)            (None, 16)                2097168   
_________________________________________________________________
batch_normalization_862 (Bat (None, 16)                64        
_________________________________________________________________
activation_1186 (Activation) (None, 16)                0         
_________________________________________________________________
dropout_1186 (Dropout)       (None, 16)                0         
_________________________________________________________________
dense_471 (Dense)            (None, 64)                1088      
_________________________________________________________________
batch_normalization_863 (Bat (None, 64)                256       
_________________________________________________________________
activation_1187 (Activation) (None, 64)                0         
_________________________________________________________________
dropout_1187 (Dropout)       (None, 64)                0         
_________________________________________________________________
dense_472 (Dense)            (None, 10)                650       
=================================================================
Total params: 2,497,770
Trainable params: 2,495,786
Non-trainable params: 1,984
_________________________________________________________________
