Model: "sequential_105"
_________________________________________________________________
Layer (type)                 Output Shape              Param #   
=================================================================
conv2d_495 (Conv2D)          (None, 32, 32, 256)       7168      
_________________________________________________________________
batch_normalization_425 (Bat (None, 32, 32, 256)       1024      
_________________________________________________________________
activation_636 (Activation)  (None, 32, 32, 256)       0         
_________________________________________________________________
dropout_636 (Dropout)        (None, 32, 32, 256)       0         
_________________________________________________________________
conv2d_496 (Conv2D)          (None, 32, 32, 256)       590080    
_________________________________________________________________
batch_normalization_426 (Bat (None, 32, 32, 256)       1024      
_________________________________________________________________
activation_637 (Activation)  (None, 32, 32, 256)       0         
_________________________________________________________________
dropout_637 (Dropout)        (None, 32, 32, 256)       0         
_________________________________________________________________
conv2d_497 (Conv2D)          (None, 32, 32, 16)        36880     
_________________________________________________________________
batch_normalization_427 (Bat (None, 32, 32, 16)        64        
_________________________________________________________________
activation_638 (Activation)  (None, 32, 32, 16)        0         
_________________________________________________________________
dropout_638 (Dropout)        (None, 32, 32, 16)        0         
_________________________________________________________________
conv2d_498 (Conv2D)          (None, 32, 32, 512)       74240     
_________________________________________________________________
batch_normalization_428 (Bat (None, 32, 32, 512)       2048      
_________________________________________________________________
activation_639 (Activation)  (None, 32, 32, 512)       0         
_________________________________________________________________
dropout_639 (Dropout)        (None, 32, 32, 512)       0         
_________________________________________________________________
conv2d_499 (Conv2D)          (None, 32, 32, 64)        294976    
_________________________________________________________________
activation_640 (Activation)  (None, 32, 32, 64)        0         
_________________________________________________________________
dropout_640 (Dropout)        (None, 32, 32, 64)        0         
_________________________________________________________________
max_pooling2d_181 (MaxPoolin (None, 16, 16, 64)        0         
_________________________________________________________________
conv2d_500 (Conv2D)          (None, 16, 16, 512)       295424    
_________________________________________________________________
batch_normalization_429 (Bat (None, 16, 16, 512)       2048      
_________________________________________________________________
activation_641 (Activation)  (None, 16, 16, 512)       0         
_________________________________________________________________
dropout_641 (Dropout)        (None, 16, 16, 512)       0         
_________________________________________________________________
max_pooling2d_182 (MaxPoolin (None, 8, 8, 512)         0         
_________________________________________________________________
flatten_105 (Flatten)        (None, 32768)             0         
_________________________________________________________________
dense_246 (Dense)            (None, 128)               4194432   
_________________________________________________________________
batch_normalization_430 (Bat (None, 128)               512       
_________________________________________________________________
activation_642 (Activation)  (None, 128)               0         
_________________________________________________________________
dropout_642 (Dropout)        (None, 128)               0         
_________________________________________________________________
dense_247 (Dense)            (None, 256)               33024     
_________________________________________________________________
activation_643 (Activation)  (None, 256)               0         
_________________________________________________________________
dropout_643 (Dropout)        (None, 256)               0         
_________________________________________________________________
dense_248 (Dense)            (None, 10)                2570      
=================================================================
Total params: 5,535,514
Trainable params: 5,532,154
Non-trainable params: 3,360
_________________________________________________________________
