Model: "sequential_8"
_________________________________________________________________
Layer (type)                 Output Shape              Param #   
=================================================================
conv2d_43 (Conv2D)           (None, 32, 32, 512)       14336     
_________________________________________________________________
activation_54 (Activation)   (None, 32, 32, 512)       0         
_________________________________________________________________
dropout_54 (Dropout)         (None, 32, 32, 512)       0         
_________________________________________________________________
conv2d_44 (Conv2D)           (None, 32, 32, 128)       589952    
_________________________________________________________________
batch_normalization_30 (Batc (None, 32, 32, 128)       512       
_________________________________________________________________
activation_55 (Activation)   (None, 32, 32, 128)       0         
_________________________________________________________________
dropout_55 (Dropout)         (None, 32, 32, 128)       0         
_________________________________________________________________
conv2d_45 (Conv2D)           (None, 32, 32, 1024)      1180672   
_________________________________________________________________
batch_normalization_31 (Batc (None, 32, 32, 1024)      4096      
_________________________________________________________________
activation_56 (Activation)   (None, 32, 32, 1024)      0         
_________________________________________________________________
dropout_56 (Dropout)         (None, 32, 32, 1024)      0         
_________________________________________________________________
conv2d_46 (Conv2D)           (None, 32, 32, 32)        294944    
_________________________________________________________________
activation_57 (Activation)   (None, 32, 32, 32)        0         
_________________________________________________________________
dropout_57 (Dropout)         (None, 32, 32, 32)        0         
_________________________________________________________________
conv2d_47 (Conv2D)           (None, 32, 32, 16)        4624      
_________________________________________________________________
activation_58 (Activation)   (None, 32, 32, 16)        0         
_________________________________________________________________
dropout_58 (Dropout)         (None, 32, 32, 16)        0         
_________________________________________________________________
conv2d_48 (Conv2D)           (None, 32, 32, 32)        4640      
_________________________________________________________________
batch_normalization_32 (Batc (None, 32, 32, 32)        128       
_________________________________________________________________
activation_59 (Activation)   (None, 32, 32, 32)        0         
_________________________________________________________________
dropout_59 (Dropout)         (None, 32, 32, 32)        0         
_________________________________________________________________
conv2d_49 (Conv2D)           (None, 32, 32, 128)       36992     
_________________________________________________________________
batch_normalization_33 (Batc (None, 32, 32, 128)       512       
_________________________________________________________________
activation_60 (Activation)   (None, 32, 32, 128)       0         
_________________________________________________________________
dropout_60 (Dropout)         (None, 32, 32, 128)       0         
_________________________________________________________________
flatten_8 (Flatten)          (None, 131072)            0         
_________________________________________________________________
dense_19 (Dense)             (None, 512)               67109376  
_________________________________________________________________
batch_normalization_34 (Batc (None, 512)               2048      
_________________________________________________________________
activation_61 (Activation)   (None, 512)               0         
_________________________________________________________________
dropout_61 (Dropout)         (None, 512)               0         
_________________________________________________________________
dense_20 (Dense)             (None, 16)                8208      
_________________________________________________________________
batch_normalization_35 (Batc (None, 16)                64        
_________________________________________________________________
activation_62 (Activation)   (None, 16)                0         
_________________________________________________________________
dropout_62 (Dropout)         (None, 16)                0         
_________________________________________________________________
dense_21 (Dense)             (None, 10)                170       
=================================================================
Total params: 69,251,274
Trainable params: 69,247,594
Non-trainable params: 3,680
_________________________________________________________________
