Model: "sequential_163"
_________________________________________________________________
Layer (type)                 Output Shape              Param #   
=================================================================
conv2d_780 (Conv2D)          (None, 32, 32, 16)        448       
_________________________________________________________________
batch_normalization_724 (Bat (None, 32, 32, 16)        64        
_________________________________________________________________
activation_1022 (Activation) (None, 32, 32, 16)        0         
_________________________________________________________________
dropout_1022 (Dropout)       (None, 32, 32, 16)        0         
_________________________________________________________________
conv2d_781 (Conv2D)          (None, 32, 32, 256)       37120     
_________________________________________________________________
activation_1023 (Activation) (None, 32, 32, 256)       0         
_________________________________________________________________
dropout_1023 (Dropout)       (None, 32, 32, 256)       0         
_________________________________________________________________
conv2d_782 (Conv2D)          (None, 32, 32, 1024)      2360320   
_________________________________________________________________
batch_normalization_725 (Bat (None, 32, 32, 1024)      4096      
_________________________________________________________________
activation_1024 (Activation) (None, 32, 32, 1024)      0         
_________________________________________________________________
dropout_1024 (Dropout)       (None, 32, 32, 1024)      0         
_________________________________________________________________
conv2d_783 (Conv2D)          (None, 32, 32, 512)       4719104   
_________________________________________________________________
batch_normalization_726 (Bat (None, 32, 32, 512)       2048      
_________________________________________________________________
activation_1025 (Activation) (None, 32, 32, 512)       0         
_________________________________________________________________
dropout_1025 (Dropout)       (None, 32, 32, 512)       0         
_________________________________________________________________
conv2d_784 (Conv2D)          (None, 32, 32, 64)        294976    
_________________________________________________________________
activation_1026 (Activation) (None, 32, 32, 64)        0         
_________________________________________________________________
dropout_1026 (Dropout)       (None, 32, 32, 64)        0         
_________________________________________________________________
conv2d_785 (Conv2D)          (None, 32, 32, 512)       295424    
_________________________________________________________________
batch_normalization_727 (Bat (None, 32, 32, 512)       2048      
_________________________________________________________________
activation_1027 (Activation) (None, 32, 32, 512)       0         
_________________________________________________________________
dropout_1027 (Dropout)       (None, 32, 32, 512)       0         
_________________________________________________________________
max_pooling2d_267 (MaxPoolin (None, 16, 16, 512)       0         
_________________________________________________________________
flatten_163 (Flatten)        (None, 131072)            0         
_________________________________________________________________
dense_405 (Dense)            (None, 128)               16777344  
_________________________________________________________________
batch_normalization_728 (Bat (None, 128)               512       
_________________________________________________________________
activation_1028 (Activation) (None, 128)               0         
_________________________________________________________________
dropout_1028 (Dropout)       (None, 128)               0         
_________________________________________________________________
dense_406 (Dense)            (None, 64)                8256      
_________________________________________________________________
activation_1029 (Activation) (None, 64)                0         
_________________________________________________________________
dropout_1029 (Dropout)       (None, 64)                0         
_________________________________________________________________
dense_407 (Dense)            (None, 10)                650       
=================================================================
Total params: 24,502,410
Trainable params: 24,498,026
Non-trainable params: 4,384
_________________________________________________________________
