Model: "sequential_154"
_________________________________________________________________
Layer (type)                 Output Shape              Param #   
=================================================================
conv2d_737 (Conv2D)          (None, 32, 32, 256)       7168      
_________________________________________________________________
batch_normalization_677 (Bat (None, 32, 32, 256)       1024      
_________________________________________________________________
activation_962 (Activation)  (None, 32, 32, 256)       0         
_________________________________________________________________
dropout_962 (Dropout)        (None, 32, 32, 256)       0         
_________________________________________________________________
conv2d_738 (Conv2D)          (None, 32, 32, 128)       295040    
_________________________________________________________________
batch_normalization_678 (Bat (None, 32, 32, 128)       512       
_________________________________________________________________
activation_963 (Activation)  (None, 32, 32, 128)       0         
_________________________________________________________________
dropout_963 (Dropout)        (None, 32, 32, 128)       0         
_________________________________________________________________
conv2d_739 (Conv2D)          (None, 32, 32, 16)        18448     
_________________________________________________________________
batch_normalization_679 (Bat (None, 32, 32, 16)        64        
_________________________________________________________________
activation_964 (Activation)  (None, 32, 32, 16)        0         
_________________________________________________________________
dropout_964 (Dropout)        (None, 32, 32, 16)        0         
_________________________________________________________________
conv2d_740 (Conv2D)          (None, 32, 32, 512)       74240     
_________________________________________________________________
batch_normalization_680 (Bat (None, 32, 32, 512)       2048      
_________________________________________________________________
activation_965 (Activation)  (None, 32, 32, 512)       0         
_________________________________________________________________
dropout_965 (Dropout)        (None, 32, 32, 512)       0         
_________________________________________________________________
max_pooling2d_256 (MaxPoolin (None, 16, 16, 512)       0         
_________________________________________________________________
flatten_154 (Flatten)        (None, 131072)            0         
_________________________________________________________________
dense_379 (Dense)            (None, 128)               16777344  
_________________________________________________________________
batch_normalization_681 (Bat (None, 128)               512       
_________________________________________________________________
activation_966 (Activation)  (None, 128)               0         
_________________________________________________________________
dropout_966 (Dropout)        (None, 128)               0         
_________________________________________________________________
dense_380 (Dense)            (None, 256)               33024     
_________________________________________________________________
activation_967 (Activation)  (None, 256)               0         
_________________________________________________________________
dropout_967 (Dropout)        (None, 256)               0         
_________________________________________________________________
dense_381 (Dense)            (None, 10)                2570      
=================================================================
Total params: 17,211,994
Trainable params: 17,209,914
Non-trainable params: 2,080
_________________________________________________________________
