Model: "sequential_164"
_________________________________________________________________
Layer (type)                 Output Shape              Param #   
=================================================================
conv2d_786 (Conv2D)          (None, 32, 32, 256)       7168      
_________________________________________________________________
batch_normalization_729 (Bat (None, 32, 32, 256)       1024      
_________________________________________________________________
activation_1030 (Activation) (None, 32, 32, 256)       0         
_________________________________________________________________
dropout_1030 (Dropout)       (None, 32, 32, 256)       0         
_________________________________________________________________
conv2d_787 (Conv2D)          (None, 32, 32, 128)       295040    
_________________________________________________________________
batch_normalization_730 (Bat (None, 32, 32, 128)       512       
_________________________________________________________________
activation_1031 (Activation) (None, 32, 32, 128)       0         
_________________________________________________________________
dropout_1031 (Dropout)       (None, 32, 32, 128)       0         
_________________________________________________________________
conv2d_788 (Conv2D)          (None, 32, 32, 16)        18448     
_________________________________________________________________
batch_normalization_731 (Bat (None, 32, 32, 16)        64        
_________________________________________________________________
activation_1032 (Activation) (None, 32, 32, 16)        0         
_________________________________________________________________
dropout_1032 (Dropout)       (None, 32, 32, 16)        0         
_________________________________________________________________
conv2d_789 (Conv2D)          (None, 32, 32, 512)       74240     
_________________________________________________________________
batch_normalization_732 (Bat (None, 32, 32, 512)       2048      
_________________________________________________________________
activation_1033 (Activation) (None, 32, 32, 512)       0         
_________________________________________________________________
dropout_1033 (Dropout)       (None, 32, 32, 512)       0         
_________________________________________________________________
max_pooling2d_268 (MaxPoolin (None, 16, 16, 512)       0         
_________________________________________________________________
flatten_164 (Flatten)        (None, 131072)            0         
_________________________________________________________________
dense_408 (Dense)            (None, 64)                8388672   
_________________________________________________________________
batch_normalization_733 (Bat (None, 64)                256       
_________________________________________________________________
activation_1034 (Activation) (None, 64)                0         
_________________________________________________________________
dropout_1034 (Dropout)       (None, 64)                0         
_________________________________________________________________
dense_409 (Dense)            (None, 10)                650       
=================================================================
Total params: 8,788,122
Trainable params: 8,786,170
Non-trainable params: 1,952
_________________________________________________________________
