Model: "sequential_13"
_________________________________________________________________
Layer (type)                 Output Shape              Param #   
=================================================================
conv2d_76 (Conv2D)           (None, 32, 32, 256)       7168      
_________________________________________________________________
batch_normalization_58 (Batc (None, 32, 32, 256)       1024      
_________________________________________________________________
activation_96 (Activation)   (None, 32, 32, 256)       0         
_________________________________________________________________
dropout_96 (Dropout)         (None, 32, 32, 256)       0         
_________________________________________________________________
conv2d_77 (Conv2D)           (None, 32, 32, 8)         18440     
_________________________________________________________________
activation_97 (Activation)   (None, 32, 32, 8)         0         
_________________________________________________________________
dropout_97 (Dropout)         (None, 32, 32, 8)         0         
_________________________________________________________________
max_pooling2d_26 (MaxPooling (None, 16, 16, 8)         0         
_________________________________________________________________
conv2d_78 (Conv2D)           (None, 16, 16, 1024)      74752     
_________________________________________________________________
batch_normalization_59 (Batc (None, 16, 16, 1024)      4096      
_________________________________________________________________
activation_98 (Activation)   (None, 16, 16, 1024)      0         
_________________________________________________________________
dropout_98 (Dropout)         (None, 16, 16, 1024)      0         
_________________________________________________________________
max_pooling2d_27 (MaxPooling (None, 8, 8, 1024)        0         
_________________________________________________________________
conv2d_79 (Conv2D)           (None, 8, 8, 8)           73736     
_________________________________________________________________
activation_99 (Activation)   (None, 8, 8, 8)           0         
_________________________________________________________________
dropout_99 (Dropout)         (None, 8, 8, 8)           0         
_________________________________________________________________
flatten_13 (Flatten)         (None, 512)               0         
_________________________________________________________________
dense_33 (Dense)             (None, 64)                32832     
_________________________________________________________________
batch_normalization_60 (Batc (None, 64)                256       
_________________________________________________________________
activation_100 (Activation)  (None, 64)                0         
_________________________________________________________________
dropout_100 (Dropout)        (None, 64)                0         
_________________________________________________________________
dense_34 (Dense)             (None, 10)                650       
=================================================================
Total params: 212,954
Trainable params: 210,266
Non-trainable params: 2,688
_________________________________________________________________
