Model: "sequential_165"
_________________________________________________________________
Layer (type)                 Output Shape              Param #   
=================================================================
conv2d_790 (Conv2D)          (None, 32, 32, 256)       7168      
_________________________________________________________________
batch_normalization_734 (Bat (None, 32, 32, 256)       1024      
_________________________________________________________________
activation_1035 (Activation) (None, 32, 32, 256)       0         
_________________________________________________________________
dropout_1035 (Dropout)       (None, 32, 32, 256)       0         
_________________________________________________________________
conv2d_791 (Conv2D)          (None, 32, 32, 256)       590080    
_________________________________________________________________
batch_normalization_735 (Bat (None, 32, 32, 256)       1024      
_________________________________________________________________
activation_1036 (Activation) (None, 32, 32, 256)       0         
_________________________________________________________________
dropout_1036 (Dropout)       (None, 32, 32, 256)       0         
_________________________________________________________________
conv2d_792 (Conv2D)          (None, 32, 32, 16)        36880     
_________________________________________________________________
batch_normalization_736 (Bat (None, 32, 32, 16)        64        
_________________________________________________________________
activation_1037 (Activation) (None, 32, 32, 16)        0         
_________________________________________________________________
dropout_1037 (Dropout)       (None, 32, 32, 16)        0         
_________________________________________________________________
conv2d_793 (Conv2D)          (None, 32, 32, 512)       74240     
_________________________________________________________________
batch_normalization_737 (Bat (None, 32, 32, 512)       2048      
_________________________________________________________________
activation_1038 (Activation) (None, 32, 32, 512)       0         
_________________________________________________________________
dropout_1038 (Dropout)       (None, 32, 32, 512)       0         
_________________________________________________________________
conv2d_794 (Conv2D)          (None, 32, 32, 64)        294976    
_________________________________________________________________
activation_1039 (Activation) (None, 32, 32, 64)        0         
_________________________________________________________________
dropout_1039 (Dropout)       (None, 32, 32, 64)        0         
_________________________________________________________________
conv2d_795 (Conv2D)          (None, 32, 32, 512)       295424    
_________________________________________________________________
batch_normalization_738 (Bat (None, 32, 32, 512)       2048      
_________________________________________________________________
activation_1040 (Activation) (None, 32, 32, 512)       0         
_________________________________________________________________
dropout_1040 (Dropout)       (None, 32, 32, 512)       0         
_________________________________________________________________
flatten_165 (Flatten)        (None, 524288)            0         
_________________________________________________________________
dense_410 (Dense)            (None, 16)                8388624   
_________________________________________________________________
batch_normalization_739 (Bat (None, 16)                64        
_________________________________________________________________
activation_1041 (Activation) (None, 16)                0         
_________________________________________________________________
dropout_1041 (Dropout)       (None, 16)                0         
_________________________________________________________________
dense_411 (Dense)            (None, 32)                544       
_________________________________________________________________
batch_normalization_740 (Bat (None, 32)                128       
_________________________________________________________________
activation_1042 (Activation) (None, 32)                0         
_________________________________________________________________
dropout_1042 (Dropout)       (None, 32)                0         
_________________________________________________________________
dense_412 (Dense)            (None, 10)                330       
=================================================================
Total params: 9,694,666
Trainable params: 9,691,466
Non-trainable params: 3,200
_________________________________________________________________
