Model: "sequential_136"
_________________________________________________________________
Layer (type)                 Output Shape              Param #   
=================================================================
conv2d_651 (Conv2D)          (None, 32, 32, 256)       7168      
_________________________________________________________________
batch_normalization_577 (Bat (None, 32, 32, 256)       1024      
_________________________________________________________________
activation_843 (Activation)  (None, 32, 32, 256)       0         
_________________________________________________________________
dropout_843 (Dropout)        (None, 32, 32, 256)       0         
_________________________________________________________________
conv2d_652 (Conv2D)          (None, 32, 32, 256)       590080    
_________________________________________________________________
batch_normalization_578 (Bat (None, 32, 32, 256)       1024      
_________________________________________________________________
activation_844 (Activation)  (None, 32, 32, 256)       0         
_________________________________________________________________
dropout_844 (Dropout)        (None, 32, 32, 256)       0         
_________________________________________________________________
conv2d_653 (Conv2D)          (None, 32, 32, 1024)      2360320   
_________________________________________________________________
batch_normalization_579 (Bat (None, 32, 32, 1024)      4096      
_________________________________________________________________
activation_845 (Activation)  (None, 32, 32, 1024)      0         
_________________________________________________________________
dropout_845 (Dropout)        (None, 32, 32, 1024)      0         
_________________________________________________________________
conv2d_654 (Conv2D)          (None, 32, 32, 512)       4719104   
_________________________________________________________________
batch_normalization_580 (Bat (None, 32, 32, 512)       2048      
_________________________________________________________________
activation_846 (Activation)  (None, 32, 32, 512)       0         
_________________________________________________________________
dropout_846 (Dropout)        (None, 32, 32, 512)       0         
_________________________________________________________________
max_pooling2d_229 (MaxPoolin (None, 16, 16, 512)       0         
_________________________________________________________________
conv2d_655 (Conv2D)          (None, 16, 16, 128)       589952    
_________________________________________________________________
activation_847 (Activation)  (None, 16, 16, 128)       0         
_________________________________________________________________
dropout_847 (Dropout)        (None, 16, 16, 128)       0         
_________________________________________________________________
max_pooling2d_230 (MaxPoolin (None, 8, 8, 128)         0         
_________________________________________________________________
flatten_136 (Flatten)        (None, 8192)              0         
_________________________________________________________________
dense_328 (Dense)            (None, 16)                131088    
_________________________________________________________________
batch_normalization_581 (Bat (None, 16)                64        
_________________________________________________________________
activation_848 (Activation)  (None, 16)                0         
_________________________________________________________________
dropout_848 (Dropout)        (None, 16)                0         
_________________________________________________________________
dense_329 (Dense)            (None, 32)                544       
_________________________________________________________________
batch_normalization_582 (Bat (None, 32)                128       
_________________________________________________________________
activation_849 (Activation)  (None, 32)                0         
_________________________________________________________________
dropout_849 (Dropout)        (None, 32)                0         
_________________________________________________________________
dense_330 (Dense)            (None, 10)                330       
=================================================================
Total params: 8,406,970
Trainable params: 8,402,778
Non-trainable params: 4,192
_________________________________________________________________
