Model: "sequential_146"
_________________________________________________________________
Layer (type)                 Output Shape              Param #   
=================================================================
conv2d_697 (Conv2D)          (None, 32, 32, 16)        448       
_________________________________________________________________
batch_normalization_630 (Bat (None, 32, 32, 16)        64        
_________________________________________________________________
activation_907 (Activation)  (None, 32, 32, 16)        0         
_________________________________________________________________
dropout_907 (Dropout)        (None, 32, 32, 16)        0         
_________________________________________________________________
conv2d_698 (Conv2D)          (None, 32, 32, 256)       37120     
_________________________________________________________________
batch_normalization_631 (Bat (None, 32, 32, 256)       1024      
_________________________________________________________________
activation_908 (Activation)  (None, 32, 32, 256)       0         
_________________________________________________________________
dropout_908 (Dropout)        (None, 32, 32, 256)       0         
_________________________________________________________________
conv2d_699 (Conv2D)          (None, 32, 32, 1024)      2360320   
_________________________________________________________________
batch_normalization_632 (Bat (None, 32, 32, 1024)      4096      
_________________________________________________________________
activation_909 (Activation)  (None, 32, 32, 1024)      0         
_________________________________________________________________
dropout_909 (Dropout)        (None, 32, 32, 1024)      0         
_________________________________________________________________
conv2d_700 (Conv2D)          (None, 32, 32, 512)       4719104   
_________________________________________________________________
batch_normalization_633 (Bat (None, 32, 32, 512)       2048      
_________________________________________________________________
activation_910 (Activation)  (None, 32, 32, 512)       0         
_________________________________________________________________
dropout_910 (Dropout)        (None, 32, 32, 512)       0         
_________________________________________________________________
max_pooling2d_244 (MaxPoolin (None, 16, 16, 512)       0         
_________________________________________________________________
conv2d_701 (Conv2D)          (None, 16, 16, 128)       589952    
_________________________________________________________________
activation_911 (Activation)  (None, 16, 16, 128)       0         
_________________________________________________________________
dropout_911 (Dropout)        (None, 16, 16, 128)       0         
_________________________________________________________________
max_pooling2d_245 (MaxPoolin (None, 8, 8, 128)         0         
_________________________________________________________________
flatten_146 (Flatten)        (None, 8192)              0         
_________________________________________________________________
dense_356 (Dense)            (None, 16)                131088    
_________________________________________________________________
batch_normalization_634 (Bat (None, 16)                64        
_________________________________________________________________
activation_912 (Activation)  (None, 16)                0         
_________________________________________________________________
dropout_912 (Dropout)        (None, 16)                0         
_________________________________________________________________
dense_357 (Dense)            (None, 32)                544       
_________________________________________________________________
batch_normalization_635 (Bat (None, 32)                128       
_________________________________________________________________
activation_913 (Activation)  (None, 32)                0         
_________________________________________________________________
dropout_913 (Dropout)        (None, 32)                0         
_________________________________________________________________
dense_358 (Dense)            (None, 10)                330       
=================================================================
Total params: 7,846,330
Trainable params: 7,842,618
Non-trainable params: 3,712
_________________________________________________________________
