Model: "sequential_119"
_________________________________________________________________
Layer (type)                 Output Shape              Param #   
=================================================================
conv2d_565 (Conv2D)          (None, 32, 32, 256)       7168      
_________________________________________________________________
activation_727 (Activation)  (None, 32, 32, 256)       0         
_________________________________________________________________
dropout_727 (Dropout)        (None, 32, 32, 256)       0         
_________________________________________________________________
conv2d_566 (Conv2D)          (None, 32, 32, 8)         18440     
_________________________________________________________________
activation_728 (Activation)  (None, 32, 32, 8)         0         
_________________________________________________________________
dropout_728 (Dropout)        (None, 32, 32, 8)         0         
_________________________________________________________________
max_pooling2d_201 (MaxPoolin (None, 16, 16, 8)         0         
_________________________________________________________________
conv2d_567 (Conv2D)          (None, 16, 16, 1024)      74752     
_________________________________________________________________
batch_normalization_490 (Bat (None, 16, 16, 1024)      4096      
_________________________________________________________________
activation_729 (Activation)  (None, 16, 16, 1024)      0         
_________________________________________________________________
dropout_729 (Dropout)        (None, 16, 16, 1024)      0         
_________________________________________________________________
max_pooling2d_202 (MaxPoolin (None, 8, 8, 1024)        0         
_________________________________________________________________
conv2d_568 (Conv2D)          (None, 8, 8, 8)           73736     
_________________________________________________________________
activation_730 (Activation)  (None, 8, 8, 8)           0         
_________________________________________________________________
dropout_730 (Dropout)        (None, 8, 8, 8)           0         
_________________________________________________________________
flatten_119 (Flatten)        (None, 512)               0         
_________________________________________________________________
dense_281 (Dense)            (None, 64)                32832     
_________________________________________________________________
batch_normalization_491 (Bat (None, 64)                256       
_________________________________________________________________
activation_731 (Activation)  (None, 64)                0         
_________________________________________________________________
dropout_731 (Dropout)        (None, 64)                0         
_________________________________________________________________
dense_282 (Dense)            (None, 10)                650       
=================================================================
Total params: 211,930
Trainable params: 209,754
Non-trainable params: 2,176
_________________________________________________________________
