Model: "sequential_140"
_________________________________________________________________
Layer (type)                 Output Shape              Param #   
=================================================================
conv2d_671 (Conv2D)          (None, 32, 32, 256)       7168      
_________________________________________________________________
batch_normalization_600 (Bat (None, 32, 32, 256)       1024      
_________________________________________________________________
activation_871 (Activation)  (None, 32, 32, 256)       0         
_________________________________________________________________
dropout_871 (Dropout)        (None, 32, 32, 256)       0         
_________________________________________________________________
conv2d_672 (Conv2D)          (None, 32, 32, 32)        73760     
_________________________________________________________________
batch_normalization_601 (Bat (None, 32, 32, 32)        128       
_________________________________________________________________
activation_872 (Activation)  (None, 32, 32, 32)        0         
_________________________________________________________________
dropout_872 (Dropout)        (None, 32, 32, 32)        0         
_________________________________________________________________
conv2d_673 (Conv2D)          (None, 32, 32, 16)        4624      
_________________________________________________________________
batch_normalization_602 (Bat (None, 32, 32, 16)        64        
_________________________________________________________________
activation_873 (Activation)  (None, 32, 32, 16)        0         
_________________________________________________________________
dropout_873 (Dropout)        (None, 32, 32, 16)        0         
_________________________________________________________________
conv2d_674 (Conv2D)          (None, 32, 32, 512)       74240     
_________________________________________________________________
batch_normalization_603 (Bat (None, 32, 32, 512)       2048      
_________________________________________________________________
activation_874 (Activation)  (None, 32, 32, 512)       0         
_________________________________________________________________
dropout_874 (Dropout)        (None, 32, 32, 512)       0         
_________________________________________________________________
max_pooling2d_236 (MaxPoolin (None, 16, 16, 512)       0         
_________________________________________________________________
conv2d_675 (Conv2D)          (None, 16, 16, 128)       589952    
_________________________________________________________________
activation_875 (Activation)  (None, 16, 16, 128)       0         
_________________________________________________________________
dropout_875 (Dropout)        (None, 16, 16, 128)       0         
_________________________________________________________________
max_pooling2d_237 (MaxPoolin (None, 8, 8, 128)         0         
_________________________________________________________________
flatten_140 (Flatten)        (None, 8192)              0         
_________________________________________________________________
dense_340 (Dense)            (None, 16)                131088    
_________________________________________________________________
batch_normalization_604 (Bat (None, 16)                64        
_________________________________________________________________
activation_876 (Activation)  (None, 16)                0         
_________________________________________________________________
dropout_876 (Dropout)        (None, 16)                0         
_________________________________________________________________
dense_341 (Dense)            (None, 32)                544       
_________________________________________________________________
batch_normalization_605 (Bat (None, 32)                128       
_________________________________________________________________
activation_877 (Activation)  (None, 32)                0         
_________________________________________________________________
dropout_877 (Dropout)        (None, 32)                0         
_________________________________________________________________
dense_342 (Dense)            (None, 10)                330       
=================================================================
Total params: 885,162
Trainable params: 883,434
Non-trainable params: 1,728
_________________________________________________________________
