Model: "sequential_93"
_________________________________________________________________
Layer (type)                 Output Shape              Param #   
=================================================================
conv2d_433 (Conv2D)          (None, 32, 32, 256)       7168      
_________________________________________________________________
batch_normalization_362 (Bat (None, 32, 32, 256)       1024      
_________________________________________________________________
activation_555 (Activation)  (None, 32, 32, 256)       0         
_________________________________________________________________
dropout_555 (Dropout)        (None, 32, 32, 256)       0         
_________________________________________________________________
conv2d_434 (Conv2D)          (None, 32, 32, 256)       590080    
_________________________________________________________________
batch_normalization_363 (Bat (None, 32, 32, 256)       1024      
_________________________________________________________________
activation_556 (Activation)  (None, 32, 32, 256)       0         
_________________________________________________________________
dropout_556 (Dropout)        (None, 32, 32, 256)       0         
_________________________________________________________________
conv2d_435 (Conv2D)          (None, 32, 32, 16)        36880     
_________________________________________________________________
batch_normalization_364 (Bat (None, 32, 32, 16)        64        
_________________________________________________________________
activation_557 (Activation)  (None, 32, 32, 16)        0         
_________________________________________________________________
dropout_557 (Dropout)        (None, 32, 32, 16)        0         
_________________________________________________________________
conv2d_436 (Conv2D)          (None, 32, 32, 512)       74240     
_________________________________________________________________
batch_normalization_365 (Bat (None, 32, 32, 512)       2048      
_________________________________________________________________
activation_558 (Activation)  (None, 32, 32, 512)       0         
_________________________________________________________________
dropout_558 (Dropout)        (None, 32, 32, 512)       0         
_________________________________________________________________
conv2d_437 (Conv2D)          (None, 32, 32, 64)        294976    
_________________________________________________________________
activation_559 (Activation)  (None, 32, 32, 64)        0         
_________________________________________________________________
dropout_559 (Dropout)        (None, 32, 32, 64)        0         
_________________________________________________________________
max_pooling2d_162 (MaxPoolin (None, 16, 16, 64)        0         
_________________________________________________________________
conv2d_438 (Conv2D)          (None, 16, 16, 512)       295424    
_________________________________________________________________
batch_normalization_366 (Bat (None, 16, 16, 512)       2048      
_________________________________________________________________
activation_560 (Activation)  (None, 16, 16, 512)       0         
_________________________________________________________________
dropout_560 (Dropout)        (None, 16, 16, 512)       0         
_________________________________________________________________
max_pooling2d_163 (MaxPoolin (None, 8, 8, 512)         0         
_________________________________________________________________
flatten_93 (Flatten)         (None, 32768)             0         
_________________________________________________________________
dense_215 (Dense)            (None, 128)               4194432   
_________________________________________________________________
batch_normalization_367 (Bat (None, 128)               512       
_________________________________________________________________
activation_561 (Activation)  (None, 128)               0         
_________________________________________________________________
dropout_561 (Dropout)        (None, 128)               0         
_________________________________________________________________
dense_216 (Dense)            (None, 256)               33024     
_________________________________________________________________
activation_562 (Activation)  (None, 256)               0         
_________________________________________________________________
dropout_562 (Dropout)        (None, 256)               0         
_________________________________________________________________
dense_217 (Dense)            (None, 10)                2570      
=================================================================
Total params: 5,535,514
Trainable params: 5,532,154
Non-trainable params: 3,360
_________________________________________________________________
