Model: "sequential_16"
_________________________________________________________________
Layer (type)                 Output Shape              Param #   
=================================================================
conv2d_91 (Conv2D)           (None, 32, 32, 32)        896       
_________________________________________________________________
batch_normalization_67 (Batc (None, 32, 32, 32)        128       
_________________________________________________________________
activation_114 (Activation)  (None, 32, 32, 32)        0         
_________________________________________________________________
dropout_114 (Dropout)        (None, 32, 32, 32)        0         
_________________________________________________________________
conv2d_92 (Conv2D)           (None, 32, 32, 256)       73984     
_________________________________________________________________
batch_normalization_68 (Batc (None, 32, 32, 256)       1024      
_________________________________________________________________
activation_115 (Activation)  (None, 32, 32, 256)       0         
_________________________________________________________________
dropout_115 (Dropout)        (None, 32, 32, 256)       0         
_________________________________________________________________
max_pooling2d_32 (MaxPooling (None, 16, 16, 256)       0         
_________________________________________________________________
conv2d_93 (Conv2D)           (None, 16, 16, 64)        147520    
_________________________________________________________________
activation_116 (Activation)  (None, 16, 16, 64)        0         
_________________________________________________________________
dropout_116 (Dropout)        (None, 16, 16, 64)        0         
_________________________________________________________________
conv2d_94 (Conv2D)           (None, 16, 16, 128)       73856     
_________________________________________________________________
activation_117 (Activation)  (None, 16, 16, 128)       0         
_________________________________________________________________
dropout_117 (Dropout)        (None, 16, 16, 128)       0         
_________________________________________________________________
conv2d_95 (Conv2D)           (None, 16, 16, 128)       147584    
_________________________________________________________________
batch_normalization_69 (Batc (None, 16, 16, 128)       512       
_________________________________________________________________
activation_118 (Activation)  (None, 16, 16, 128)       0         
_________________________________________________________________
dropout_118 (Dropout)        (None, 16, 16, 128)       0         
_________________________________________________________________
conv2d_96 (Conv2D)           (None, 16, 16, 8)         9224      
_________________________________________________________________
activation_119 (Activation)  (None, 16, 16, 8)         0         
_________________________________________________________________
dropout_119 (Dropout)        (None, 16, 16, 8)         0         
_________________________________________________________________
max_pooling2d_33 (MaxPooling (None, 8, 8, 8)           0         
_________________________________________________________________
flatten_16 (Flatten)         (None, 512)               0         
_________________________________________________________________
dense_39 (Dense)             (None, 512)               262656    
_________________________________________________________________
activation_120 (Activation)  (None, 512)               0         
_________________________________________________________________
dropout_120 (Dropout)        (None, 512)               0         
_________________________________________________________________
dense_40 (Dense)             (None, 128)               65664     
_________________________________________________________________
batch_normalization_70 (Batc (None, 128)               512       
_________________________________________________________________
activation_121 (Activation)  (None, 128)               0         
_________________________________________________________________
dropout_121 (Dropout)        (None, 128)               0         
_________________________________________________________________
dense_41 (Dense)             (None, 10)                1290      
=================================================================
Total params: 784,850
Trainable params: 783,762
Non-trainable params: 1,088
_________________________________________________________________
