Model: "sequential_72"
_________________________________________________________________
Layer (type)                 Output Shape              Param #   
=================================================================
conv2d_341 (Conv2D)          (None, 32, 32, 1024)      28672     
_________________________________________________________________
batch_normalization_275 (Bat (None, 32, 32, 1024)      4096      
_________________________________________________________________
activation_434 (Activation)  (None, 32, 32, 1024)      0         
_________________________________________________________________
dropout_434 (Dropout)        (None, 32, 32, 1024)      0         
_________________________________________________________________
conv2d_342 (Conv2D)          (None, 32, 32, 128)       1179776   
_________________________________________________________________
batch_normalization_276 (Bat (None, 32, 32, 128)       512       
_________________________________________________________________
activation_435 (Activation)  (None, 32, 32, 128)       0         
_________________________________________________________________
dropout_435 (Dropout)        (None, 32, 32, 128)       0         
_________________________________________________________________
conv2d_343 (Conv2D)          (None, 32, 32, 256)       295168    
_________________________________________________________________
batch_normalization_277 (Bat (None, 32, 32, 256)       1024      
_________________________________________________________________
activation_436 (Activation)  (None, 32, 32, 256)       0         
_________________________________________________________________
dropout_436 (Dropout)        (None, 32, 32, 256)       0         
_________________________________________________________________
max_pooling2d_128 (MaxPoolin (None, 16, 16, 256)       0         
_________________________________________________________________
conv2d_344 (Conv2D)          (None, 16, 16, 256)       590080    
_________________________________________________________________
batch_normalization_278 (Bat (None, 16, 16, 256)       1024      
_________________________________________________________________
activation_437 (Activation)  (None, 16, 16, 256)       0         
_________________________________________________________________
dropout_437 (Dropout)        (None, 16, 16, 256)       0         
_________________________________________________________________
conv2d_345 (Conv2D)          (None, 16, 16, 16)        36880     
_________________________________________________________________
batch_normalization_279 (Bat (None, 16, 16, 16)        64        
_________________________________________________________________
activation_438 (Activation)  (None, 16, 16, 16)        0         
_________________________________________________________________
dropout_438 (Dropout)        (None, 16, 16, 16)        0         
_________________________________________________________________
conv2d_346 (Conv2D)          (None, 16, 16, 512)       74240     
_________________________________________________________________
batch_normalization_280 (Bat (None, 16, 16, 512)       2048      
_________________________________________________________________
activation_439 (Activation)  (None, 16, 16, 512)       0         
_________________________________________________________________
dropout_439 (Dropout)        (None, 16, 16, 512)       0         
_________________________________________________________________
max_pooling2d_129 (MaxPoolin (None, 8, 8, 512)         0         
_________________________________________________________________
conv2d_347 (Conv2D)          (None, 8, 8, 128)         589952    
_________________________________________________________________
activation_440 (Activation)  (None, 8, 8, 128)         0         
_________________________________________________________________
dropout_440 (Dropout)        (None, 8, 8, 128)         0         
_________________________________________________________________
max_pooling2d_130 (MaxPoolin (None, 4, 4, 128)         0         
_________________________________________________________________
flatten_72 (Flatten)         (None, 2048)              0         
_________________________________________________________________
dense_165 (Dense)            (None, 16)                32784     
_________________________________________________________________
batch_normalization_281 (Bat (None, 16)                64        
_________________________________________________________________
activation_441 (Activation)  (None, 16)                0         
_________________________________________________________________
dropout_441 (Dropout)        (None, 16)                0         
_________________________________________________________________
dense_166 (Dense)            (None, 32)                544       
_________________________________________________________________
batch_normalization_282 (Bat (None, 32)                128       
_________________________________________________________________
activation_442 (Activation)  (None, 32)                0         
_________________________________________________________________
dropout_442 (Dropout)        (None, 32)                0         
_________________________________________________________________
dense_167 (Dense)            (None, 10)                330       
=================================================================
Total params: 2,837,386
Trainable params: 2,832,906
Non-trainable params: 4,480
_________________________________________________________________
