Model: "sequential_158"
_________________________________________________________________
Layer (type)                 Output Shape              Param #   
=================================================================
conv2d_756 (Conv2D)          (None, 32, 32, 256)       7168      
_________________________________________________________________
batch_normalization_698 (Bat (None, 32, 32, 256)       1024      
_________________________________________________________________
activation_989 (Activation)  (None, 32, 32, 256)       0         
_________________________________________________________________
dropout_989 (Dropout)        (None, 32, 32, 256)       0         
_________________________________________________________________
conv2d_757 (Conv2D)          (None, 32, 32, 256)       590080    
_________________________________________________________________
batch_normalization_699 (Bat (None, 32, 32, 256)       1024      
_________________________________________________________________
activation_990 (Activation)  (None, 32, 32, 256)       0         
_________________________________________________________________
dropout_990 (Dropout)        (None, 32, 32, 256)       0         
_________________________________________________________________
conv2d_758 (Conv2D)          (None, 32, 32, 1024)      2360320   
_________________________________________________________________
batch_normalization_700 (Bat (None, 32, 32, 1024)      4096      
_________________________________________________________________
activation_991 (Activation)  (None, 32, 32, 1024)      0         
_________________________________________________________________
dropout_991 (Dropout)        (None, 32, 32, 1024)      0         
_________________________________________________________________
conv2d_759 (Conv2D)          (None, 32, 32, 512)       4719104   
_________________________________________________________________
batch_normalization_701 (Bat (None, 32, 32, 512)       2048      
_________________________________________________________________
activation_992 (Activation)  (None, 32, 32, 512)       0         
_________________________________________________________________
dropout_992 (Dropout)        (None, 32, 32, 512)       0         
_________________________________________________________________
max_pooling2d_261 (MaxPoolin (None, 16, 16, 512)       0         
_________________________________________________________________
conv2d_760 (Conv2D)          (None, 16, 16, 128)       589952    
_________________________________________________________________
activation_993 (Activation)  (None, 16, 16, 128)       0         
_________________________________________________________________
dropout_993 (Dropout)        (None, 16, 16, 128)       0         
_________________________________________________________________
max_pooling2d_262 (MaxPoolin (None, 8, 8, 128)         0         
_________________________________________________________________
flatten_158 (Flatten)        (None, 8192)              0         
_________________________________________________________________
dense_391 (Dense)            (None, 16)                131088    
_________________________________________________________________
batch_normalization_702 (Bat (None, 16)                64        
_________________________________________________________________
activation_994 (Activation)  (None, 16)                0         
_________________________________________________________________
dropout_994 (Dropout)        (None, 16)                0         
_________________________________________________________________
dense_392 (Dense)            (None, 32)                544       
_________________________________________________________________
batch_normalization_703 (Bat (None, 32)                128       
_________________________________________________________________
activation_995 (Activation)  (None, 32)                0         
_________________________________________________________________
dropout_995 (Dropout)        (None, 32)                0         
_________________________________________________________________
dense_393 (Dense)            (None, 10)                330       
=================================================================
Total params: 8,406,970
Trainable params: 8,402,778
Non-trainable params: 4,192
_________________________________________________________________
