Model: "sequential_109"
_________________________________________________________________
Layer (type)                 Output Shape              Param #   
=================================================================
conv2d_514 (Conv2D)          (None, 32, 32, 256)       7168      
_________________________________________________________________
activation_660 (Activation)  (None, 32, 32, 256)       0         
_________________________________________________________________
dropout_660 (Dropout)        (None, 32, 32, 256)       0         
_________________________________________________________________
conv2d_515 (Conv2D)          (None, 32, 32, 8)         18440     
_________________________________________________________________
activation_661 (Activation)  (None, 32, 32, 8)         0         
_________________________________________________________________
dropout_661 (Dropout)        (None, 32, 32, 8)         0         
_________________________________________________________________
max_pooling2d_186 (MaxPoolin (None, 16, 16, 8)         0         
_________________________________________________________________
conv2d_516 (Conv2D)          (None, 16, 16, 1024)      74752     
_________________________________________________________________
batch_normalization_441 (Bat (None, 16, 16, 1024)      4096      
_________________________________________________________________
activation_662 (Activation)  (None, 16, 16, 1024)      0         
_________________________________________________________________
dropout_662 (Dropout)        (None, 16, 16, 1024)      0         
_________________________________________________________________
max_pooling2d_187 (MaxPoolin (None, 8, 8, 1024)        0         
_________________________________________________________________
conv2d_517 (Conv2D)          (None, 8, 8, 8)           73736     
_________________________________________________________________
activation_663 (Activation)  (None, 8, 8, 8)           0         
_________________________________________________________________
dropout_663 (Dropout)        (None, 8, 8, 8)           0         
_________________________________________________________________
conv2d_518 (Conv2D)          (None, 8, 8, 16)          1168      
_________________________________________________________________
activation_664 (Activation)  (None, 8, 8, 16)          0         
_________________________________________________________________
dropout_664 (Dropout)        (None, 8, 8, 16)          0         
_________________________________________________________________
flatten_109 (Flatten)        (None, 1024)              0         
_________________________________________________________________
dense_255 (Dense)            (None, 16)                16400     
_________________________________________________________________
activation_665 (Activation)  (None, 16)                0         
_________________________________________________________________
dropout_665 (Dropout)        (None, 16)                0         
_________________________________________________________________
dense_256 (Dense)            (None, 10)                170       
=================================================================
Total params: 195,930
Trainable params: 193,882
Non-trainable params: 2,048
_________________________________________________________________
