Model: "sequential_10"
_________________________________________________________________
Layer (type)                 Output Shape              Param #   
=================================================================
conv2d_55 (Conv2D)           (None, 32, 32, 512)       14336     
_________________________________________________________________
batch_normalization_42 (Batc (None, 32, 32, 512)       2048      
_________________________________________________________________
activation_70 (Activation)   (None, 32, 32, 512)       0         
_________________________________________________________________
dropout_70 (Dropout)         (None, 32, 32, 512)       0         
_________________________________________________________________
conv2d_56 (Conv2D)           (None, 32, 32, 1024)      4719616   
_________________________________________________________________
batch_normalization_43 (Batc (None, 32, 32, 1024)      4096      
_________________________________________________________________
activation_71 (Activation)   (None, 32, 32, 1024)      0         
_________________________________________________________________
dropout_71 (Dropout)         (None, 32, 32, 1024)      0         
_________________________________________________________________
conv2d_57 (Conv2D)           (None, 32, 32, 512)       4719104   
_________________________________________________________________
activation_72 (Activation)   (None, 32, 32, 512)       0         
_________________________________________________________________
dropout_72 (Dropout)         (None, 32, 32, 512)       0         
_________________________________________________________________
conv2d_58 (Conv2D)           (None, 32, 32, 16)        73744     
_________________________________________________________________
batch_normalization_44 (Batc (None, 32, 32, 16)        64        
_________________________________________________________________
activation_73 (Activation)   (None, 32, 32, 16)        0         
_________________________________________________________________
dropout_73 (Dropout)         (None, 32, 32, 16)        0         
_________________________________________________________________
max_pooling2d_18 (MaxPooling (None, 16, 16, 16)        0         
_________________________________________________________________
conv2d_59 (Conv2D)           (None, 16, 16, 8)         1160      
_________________________________________________________________
batch_normalization_45 (Batc (None, 16, 16, 8)         32        
_________________________________________________________________
activation_74 (Activation)   (None, 16, 16, 8)         0         
_________________________________________________________________
dropout_74 (Dropout)         (None, 16, 16, 8)         0         
_________________________________________________________________
max_pooling2d_19 (MaxPooling (None, 8, 8, 8)           0         
_________________________________________________________________
conv2d_60 (Conv2D)           (None, 8, 8, 128)         9344      
_________________________________________________________________
activation_75 (Activation)   (None, 8, 8, 128)         0         
_________________________________________________________________
dropout_75 (Dropout)         (None, 8, 8, 128)         0         
_________________________________________________________________
conv2d_61 (Conv2D)           (None, 8, 8, 512)         590336    
_________________________________________________________________
batch_normalization_46 (Batc (None, 8, 8, 512)         2048      
_________________________________________________________________
activation_76 (Activation)   (None, 8, 8, 512)         0         
_________________________________________________________________
dropout_76 (Dropout)         (None, 8, 8, 512)         0         
_________________________________________________________________
conv2d_62 (Conv2D)           (None, 8, 8, 128)         589952    
_________________________________________________________________
activation_77 (Activation)   (None, 8, 8, 128)         0         
_________________________________________________________________
dropout_77 (Dropout)         (None, 8, 8, 128)         0         
_________________________________________________________________
conv2d_63 (Conv2D)           (None, 8, 8, 128)         147584    
_________________________________________________________________
batch_normalization_47 (Batc (None, 8, 8, 128)         512       
_________________________________________________________________
activation_78 (Activation)   (None, 8, 8, 128)         0         
_________________________________________________________________
dropout_78 (Dropout)         (None, 8, 8, 128)         0         
_________________________________________________________________
max_pooling2d_20 (MaxPooling (None, 4, 4, 128)         0         
_________________________________________________________________
flatten_10 (Flatten)         (None, 2048)              0         
_________________________________________________________________
dense_25 (Dense)             (None, 512)               1049088   
_________________________________________________________________
activation_79 (Activation)   (None, 512)               0         
_________________________________________________________________
dropout_79 (Dropout)         (None, 512)               0         
_________________________________________________________________
dense_26 (Dense)             (None, 512)               262656    
_________________________________________________________________
batch_normalization_48 (Batc (None, 512)               2048      
_________________________________________________________________
activation_80 (Activation)   (None, 512)               0         
_________________________________________________________________
dropout_80 (Dropout)         (None, 512)               0         
_________________________________________________________________
dense_27 (Dense)             (None, 10)                5130      
=================================================================
Total params: 12,192,898
Trainable params: 12,187,474
Non-trainable params: 5,424
_________________________________________________________________
