Model: "sequential_191"
_________________________________________________________________
Layer (type)                 Output Shape              Param #   
=================================================================
conv2d_917 (Conv2D)          (None, 32, 32, 256)       7168      
_________________________________________________________________
batch_normalization_881 (Bat (None, 32, 32, 256)       1024      
_________________________________________________________________
activation_1206 (Activation) (None, 32, 32, 256)       0         
_________________________________________________________________
dropout_1206 (Dropout)       (None, 32, 32, 256)       0         
_________________________________________________________________
conv2d_918 (Conv2D)          (None, 32, 32, 32)        73760     
_________________________________________________________________
batch_normalization_882 (Bat (None, 32, 32, 32)        128       
_________________________________________________________________
activation_1207 (Activation) (None, 32, 32, 32)        0         
_________________________________________________________________
dropout_1207 (Dropout)       (None, 32, 32, 32)        0         
_________________________________________________________________
conv2d_919 (Conv2D)          (None, 32, 32, 16)        4624      
_________________________________________________________________
batch_normalization_883 (Bat (None, 32, 32, 16)        64        
_________________________________________________________________
activation_1208 (Activation) (None, 32, 32, 16)        0         
_________________________________________________________________
dropout_1208 (Dropout)       (None, 32, 32, 16)        0         
_________________________________________________________________
conv2d_920 (Conv2D)          (None, 32, 32, 512)       74240     
_________________________________________________________________
batch_normalization_884 (Bat (None, 32, 32, 512)       2048      
_________________________________________________________________
activation_1209 (Activation) (None, 32, 32, 512)       0         
_________________________________________________________________
dropout_1209 (Dropout)       (None, 32, 32, 512)       0         
_________________________________________________________________
max_pooling2d_303 (MaxPoolin (None, 16, 16, 512)       0         
_________________________________________________________________
conv2d_921 (Conv2D)          (None, 16, 16, 128)       589952    
_________________________________________________________________
activation_1210 (Activation) (None, 16, 16, 128)       0         
_________________________________________________________________
dropout_1210 (Dropout)       (None, 16, 16, 128)       0         
_________________________________________________________________
max_pooling2d_304 (MaxPoolin (None, 8, 8, 128)         0         
_________________________________________________________________
flatten_191 (Flatten)        (None, 8192)              0         
_________________________________________________________________
dense_480 (Dense)            (None, 16)                131088    
_________________________________________________________________
batch_normalization_885 (Bat (None, 16)                64        
_________________________________________________________________
activation_1211 (Activation) (None, 16)                0         
_________________________________________________________________
dropout_1211 (Dropout)       (None, 16)                0         
_________________________________________________________________
dense_481 (Dense)            (None, 32)                544       
_________________________________________________________________
batch_normalization_886 (Bat (None, 32)                128       
_________________________________________________________________
activation_1212 (Activation) (None, 32)                0         
_________________________________________________________________
dropout_1212 (Dropout)       (None, 32)                0         
_________________________________________________________________
dense_482 (Dense)            (None, 10)                330       
=================================================================
Total params: 885,162
Trainable params: 883,434
Non-trainable params: 1,728
_________________________________________________________________
