Model: "sequential_197"
_________________________________________________________________
Layer (type)                 Output Shape              Param #   
=================================================================
conv2d_946 (Conv2D)          (None, 32, 32, 256)       7168      
_________________________________________________________________
batch_normalization_914 (Bat (None, 32, 32, 256)       1024      
_________________________________________________________________
activation_1245 (Activation) (None, 32, 32, 256)       0         
_________________________________________________________________
dropout_1245 (Dropout)       (None, 32, 32, 256)       0         
_________________________________________________________________
conv2d_947 (Conv2D)          (None, 32, 32, 32)        73760     
_________________________________________________________________
batch_normalization_915 (Bat (None, 32, 32, 32)        128       
_________________________________________________________________
activation_1246 (Activation) (None, 32, 32, 32)        0         
_________________________________________________________________
dropout_1246 (Dropout)       (None, 32, 32, 32)        0         
_________________________________________________________________
conv2d_948 (Conv2D)          (None, 32, 32, 16)        4624      
_________________________________________________________________
batch_normalization_916 (Bat (None, 32, 32, 16)        64        
_________________________________________________________________
activation_1247 (Activation) (None, 32, 32, 16)        0         
_________________________________________________________________
dropout_1247 (Dropout)       (None, 32, 32, 16)        0         
_________________________________________________________________
conv2d_949 (Conv2D)          (None, 32, 32, 512)       74240     
_________________________________________________________________
batch_normalization_917 (Bat (None, 32, 32, 512)       2048      
_________________________________________________________________
activation_1248 (Activation) (None, 32, 32, 512)       0         
_________________________________________________________________
dropout_1248 (Dropout)       (None, 32, 32, 512)       0         
_________________________________________________________________
max_pooling2d_313 (MaxPoolin (None, 16, 16, 512)       0         
_________________________________________________________________
conv2d_950 (Conv2D)          (None, 16, 16, 128)       589952    
_________________________________________________________________
activation_1249 (Activation) (None, 16, 16, 128)       0         
_________________________________________________________________
dropout_1249 (Dropout)       (None, 16, 16, 128)       0         
_________________________________________________________________
max_pooling2d_314 (MaxPoolin (None, 8, 8, 128)         0         
_________________________________________________________________
flatten_197 (Flatten)        (None, 8192)              0         
_________________________________________________________________
dense_496 (Dense)            (None, 16)                131088    
_________________________________________________________________
batch_normalization_918 (Bat (None, 16)                64        
_________________________________________________________________
activation_1250 (Activation) (None, 16)                0         
_________________________________________________________________
dropout_1250 (Dropout)       (None, 16)                0         
_________________________________________________________________
dense_497 (Dense)            (None, 10)                170       
=================================================================
Total params: 884,330
Trainable params: 882,666
Non-trainable params: 1,664
_________________________________________________________________
