Model: "sequential_118"
_________________________________________________________________
Layer (type)                 Output Shape              Param #   
=================================================================
conv2d_560 (Conv2D)          (None, 32, 32, 1024)      28672     
_________________________________________________________________
batch_normalization_485 (Bat (None, 32, 32, 1024)      4096      
_________________________________________________________________
activation_722 (Activation)  (None, 32, 32, 1024)      0         
_________________________________________________________________
dropout_722 (Dropout)        (None, 32, 32, 1024)      0         
_________________________________________________________________
conv2d_561 (Conv2D)          (None, 32, 32, 128)       1179776   
_________________________________________________________________
batch_normalization_486 (Bat (None, 32, 32, 128)       512       
_________________________________________________________________
activation_723 (Activation)  (None, 32, 32, 128)       0         
_________________________________________________________________
dropout_723 (Dropout)        (None, 32, 32, 128)       0         
_________________________________________________________________
max_pooling2d_200 (MaxPoolin (None, 16, 16, 128)       0         
_________________________________________________________________
conv2d_562 (Conv2D)          (None, 16, 16, 256)       295168    
_________________________________________________________________
batch_normalization_487 (Bat (None, 16, 16, 256)       1024      
_________________________________________________________________
activation_724 (Activation)  (None, 16, 16, 256)       0         
_________________________________________________________________
dropout_724 (Dropout)        (None, 16, 16, 256)       0         
_________________________________________________________________
conv2d_563 (Conv2D)          (None, 16, 16, 16)        36880     
_________________________________________________________________
batch_normalization_488 (Bat (None, 16, 16, 16)        64        
_________________________________________________________________
activation_725 (Activation)  (None, 16, 16, 16)        0         
_________________________________________________________________
dropout_725 (Dropout)        (None, 16, 16, 16)        0         
_________________________________________________________________
conv2d_564 (Conv2D)          (None, 16, 16, 512)       74240     
_________________________________________________________________
batch_normalization_489 (Bat (None, 16, 16, 512)       2048      
_________________________________________________________________
activation_726 (Activation)  (None, 16, 16, 512)       0         
_________________________________________________________________
dropout_726 (Dropout)        (None, 16, 16, 512)       0         
_________________________________________________________________
flatten_118 (Flatten)        (None, 131072)            0         
_________________________________________________________________
dense_280 (Dense)            (None, 10)                1310730   
=================================================================
Total params: 2,933,210
Trainable params: 2,929,338
Non-trainable params: 3,872
_________________________________________________________________
