Model: "sequential_36"
_________________________________________________________________
Layer (type)                 Output Shape              Param #   
=================================================================
conv2d_183 (Conv2D)          (None, 32, 32, 256)       7168      
_________________________________________________________________
batch_normalization_141 (Bat (None, 32, 32, 256)       1024      
_________________________________________________________________
activation_230 (Activation)  (None, 32, 32, 256)       0         
_________________________________________________________________
dropout_230 (Dropout)        (None, 32, 32, 256)       0         
_________________________________________________________________
conv2d_184 (Conv2D)          (None, 32, 32, 8)         18440     
_________________________________________________________________
batch_normalization_142 (Bat (None, 32, 32, 8)         32        
_________________________________________________________________
activation_231 (Activation)  (None, 32, 32, 8)         0         
_________________________________________________________________
dropout_231 (Dropout)        (None, 32, 32, 8)         0         
_________________________________________________________________
conv2d_185 (Conv2D)          (None, 32, 32, 64)        4672      
_________________________________________________________________
activation_232 (Activation)  (None, 32, 32, 64)        0         
_________________________________________________________________
dropout_232 (Dropout)        (None, 32, 32, 64)        0         
_________________________________________________________________
max_pooling2d_71 (MaxPooling (None, 16, 16, 64)        0         
_________________________________________________________________
flatten_36 (Flatten)         (None, 16384)             0         
_________________________________________________________________
dense_83 (Dense)             (None, 10)                163850    
=================================================================
Total params: 195,186
Trainable params: 194,658
Non-trainable params: 528
_________________________________________________________________
