Model: "sequential_133"
_________________________________________________________________
Layer (type)                 Output Shape              Param #   
=================================================================
conv2d_635 (Conv2D)          (None, 32, 32, 16)        448       
_________________________________________________________________
batch_normalization_559 (Bat (None, 32, 32, 16)        64        
_________________________________________________________________
activation_821 (Activation)  (None, 32, 32, 16)        0         
_________________________________________________________________
dropout_821 (Dropout)        (None, 32, 32, 16)        0         
_________________________________________________________________
conv2d_636 (Conv2D)          (None, 32, 32, 256)       37120     
_________________________________________________________________
batch_normalization_560 (Bat (None, 32, 32, 256)       1024      
_________________________________________________________________
activation_822 (Activation)  (None, 32, 32, 256)       0         
_________________________________________________________________
dropout_822 (Dropout)        (None, 32, 32, 256)       0         
_________________________________________________________________
conv2d_637 (Conv2D)          (None, 32, 32, 1024)      2360320   
_________________________________________________________________
batch_normalization_561 (Bat (None, 32, 32, 1024)      4096      
_________________________________________________________________
activation_823 (Activation)  (None, 32, 32, 1024)      0         
_________________________________________________________________
dropout_823 (Dropout)        (None, 32, 32, 1024)      0         
_________________________________________________________________
conv2d_638 (Conv2D)          (None, 32, 32, 512)       4719104   
_________________________________________________________________
batch_normalization_562 (Bat (None, 32, 32, 512)       2048      
_________________________________________________________________
activation_824 (Activation)  (None, 32, 32, 512)       0         
_________________________________________________________________
dropout_824 (Dropout)        (None, 32, 32, 512)       0         
_________________________________________________________________
max_pooling2d_223 (MaxPoolin (None, 16, 16, 512)       0         
_________________________________________________________________
conv2d_639 (Conv2D)          (None, 16, 16, 128)       589952    
_________________________________________________________________
activation_825 (Activation)  (None, 16, 16, 128)       0         
_________________________________________________________________
dropout_825 (Dropout)        (None, 16, 16, 128)       0         
_________________________________________________________________
max_pooling2d_224 (MaxPoolin (None, 8, 8, 128)         0         
_________________________________________________________________
flatten_133 (Flatten)        (None, 8192)              0         
_________________________________________________________________
dense_319 (Dense)            (None, 16)                131088    
_________________________________________________________________
batch_normalization_563 (Bat (None, 16)                64        
_________________________________________________________________
activation_826 (Activation)  (None, 16)                0         
_________________________________________________________________
dropout_826 (Dropout)        (None, 16)                0         
_________________________________________________________________
dense_320 (Dense)            (None, 32)                544       
_________________________________________________________________
batch_normalization_564 (Bat (None, 32)                128       
_________________________________________________________________
activation_827 (Activation)  (None, 32)                0         
_________________________________________________________________
dropout_827 (Dropout)        (None, 32)                0         
_________________________________________________________________
dense_321 (Dense)            (None, 10)                330       
=================================================================
Total params: 7,846,330
Trainable params: 7,842,618
Non-trainable params: 3,712
_________________________________________________________________
