Model: "sequential_67"
_________________________________________________________________
Layer (type)                 Output Shape              Param #   
=================================================================
conv2d_322 (Conv2D)          (None, 32, 32, 256)       7168      
_________________________________________________________________
batch_normalization_259 (Bat (None, 32, 32, 256)       1024      
_________________________________________________________________
activation_409 (Activation)  (None, 32, 32, 256)       0         
_________________________________________________________________
dropout_409 (Dropout)        (None, 32, 32, 256)       0         
_________________________________________________________________
conv2d_323 (Conv2D)          (None, 32, 32, 256)       590080    
_________________________________________________________________
batch_normalization_260 (Bat (None, 32, 32, 256)       1024      
_________________________________________________________________
activation_410 (Activation)  (None, 32, 32, 256)       0         
_________________________________________________________________
dropout_410 (Dropout)        (None, 32, 32, 256)       0         
_________________________________________________________________
conv2d_324 (Conv2D)          (None, 32, 32, 1024)      2360320   
_________________________________________________________________
batch_normalization_261 (Bat (None, 32, 32, 1024)      4096      
_________________________________________________________________
activation_411 (Activation)  (None, 32, 32, 1024)      0         
_________________________________________________________________
dropout_411 (Dropout)        (None, 32, 32, 1024)      0         
_________________________________________________________________
conv2d_325 (Conv2D)          (None, 32, 32, 512)       4719104   
_________________________________________________________________
batch_normalization_262 (Bat (None, 32, 32, 512)       2048      
_________________________________________________________________
activation_412 (Activation)  (None, 32, 32, 512)       0         
_________________________________________________________________
dropout_412 (Dropout)        (None, 32, 32, 512)       0         
_________________________________________________________________
max_pooling2d_121 (MaxPoolin (None, 16, 16, 512)       0         
_________________________________________________________________
flatten_67 (Flatten)         (None, 131072)            0         
_________________________________________________________________
dense_154 (Dense)            (None, 512)               67109376  
_________________________________________________________________
activation_413 (Activation)  (None, 512)               0         
_________________________________________________________________
dropout_413 (Dropout)        (None, 512)               0         
_________________________________________________________________
dense_155 (Dense)            (None, 64)                32832     
_________________________________________________________________
batch_normalization_263 (Bat (None, 64)                256       
_________________________________________________________________
activation_414 (Activation)  (None, 64)                0         
_________________________________________________________________
dropout_414 (Dropout)        (None, 64)                0         
_________________________________________________________________
dense_156 (Dense)            (None, 10)                650       
=================================================================
Total params: 74,827,978
Trainable params: 74,823,754
Non-trainable params: 4,224
_________________________________________________________________
