Model: "sequential_167"
_________________________________________________________________
Layer (type)                 Output Shape              Param #   
=================================================================
conv2d_802 (Conv2D)          (None, 32, 32, 256)       7168      
_________________________________________________________________
batch_normalization_748 (Bat (None, 32, 32, 256)       1024      
_________________________________________________________________
activation_1051 (Activation) (None, 32, 32, 256)       0         
_________________________________________________________________
dropout_1051 (Dropout)       (None, 32, 32, 256)       0         
_________________________________________________________________
conv2d_803 (Conv2D)          (None, 32, 32, 256)       590080    
_________________________________________________________________
batch_normalization_749 (Bat (None, 32, 32, 256)       1024      
_________________________________________________________________
activation_1052 (Activation) (None, 32, 32, 256)       0         
_________________________________________________________________
dropout_1052 (Dropout)       (None, 32, 32, 256)       0         
_________________________________________________________________
conv2d_804 (Conv2D)          (None, 32, 32, 128)       295040    
_________________________________________________________________
batch_normalization_750 (Bat (None, 32, 32, 128)       512       
_________________________________________________________________
activation_1053 (Activation) (None, 32, 32, 128)       0         
_________________________________________________________________
dropout_1053 (Dropout)       (None, 32, 32, 128)       0         
_________________________________________________________________
conv2d_805 (Conv2D)          (None, 32, 32, 512)       590336    
_________________________________________________________________
batch_normalization_751 (Bat (None, 32, 32, 512)       2048      
_________________________________________________________________
activation_1054 (Activation) (None, 32, 32, 512)       0         
_________________________________________________________________
dropout_1054 (Dropout)       (None, 32, 32, 512)       0         
_________________________________________________________________
max_pooling2d_272 (MaxPoolin (None, 16, 16, 512)       0         
_________________________________________________________________
conv2d_806 (Conv2D)          (None, 16, 16, 128)       589952    
_________________________________________________________________
activation_1055 (Activation) (None, 16, 16, 128)       0         
_________________________________________________________________
dropout_1055 (Dropout)       (None, 16, 16, 128)       0         
_________________________________________________________________
max_pooling2d_273 (MaxPoolin (None, 8, 8, 128)         0         
_________________________________________________________________
flatten_167 (Flatten)        (None, 8192)              0         
_________________________________________________________________
dense_416 (Dense)            (None, 16)                131088    
_________________________________________________________________
batch_normalization_752 (Bat (None, 16)                64        
_________________________________________________________________
activation_1056 (Activation) (None, 16)                0         
_________________________________________________________________
dropout_1056 (Dropout)       (None, 16)                0         
_________________________________________________________________
dense_417 (Dense)            (None, 32)                544       
_________________________________________________________________
batch_normalization_753 (Bat (None, 32)                128       
_________________________________________________________________
activation_1057 (Activation) (None, 32)                0         
_________________________________________________________________
dropout_1057 (Dropout)       (None, 32)                0         
_________________________________________________________________
dense_418 (Dense)            (None, 10)                330       
=================================================================
Total params: 2,209,338
Trainable params: 2,206,938
Non-trainable params: 2,400
_________________________________________________________________
