Model: "sequential_200"
_________________________________________________________________
Layer (type)                 Output Shape              Param #   
=================================================================
conv2d_960 (Conv2D)          (None, 32, 32, 16)        448       
_________________________________________________________________
batch_normalization_930 (Bat (None, 32, 32, 16)        64        
_________________________________________________________________
activation_1263 (Activation) (None, 32, 32, 16)        0         
_________________________________________________________________
dropout_1263 (Dropout)       (None, 32, 32, 16)        0         
_________________________________________________________________
conv2d_961 (Conv2D)          (None, 32, 32, 256)       37120     
_________________________________________________________________
activation_1264 (Activation) (None, 32, 32, 256)       0         
_________________________________________________________________
dropout_1264 (Dropout)       (None, 32, 32, 256)       0         
_________________________________________________________________
conv2d_962 (Conv2D)          (None, 32, 32, 1024)      2360320   
_________________________________________________________________
batch_normalization_931 (Bat (None, 32, 32, 1024)      4096      
_________________________________________________________________
activation_1265 (Activation) (None, 32, 32, 1024)      0         
_________________________________________________________________
dropout_1265 (Dropout)       (None, 32, 32, 1024)      0         
_________________________________________________________________
conv2d_963 (Conv2D)          (None, 32, 32, 512)       4719104   
_________________________________________________________________
batch_normalization_932 (Bat (None, 32, 32, 512)       2048      
_________________________________________________________________
activation_1266 (Activation) (None, 32, 32, 512)       0         
_________________________________________________________________
dropout_1266 (Dropout)       (None, 32, 32, 512)       0         
_________________________________________________________________
conv2d_964 (Conv2D)          (None, 32, 32, 64)        294976    
_________________________________________________________________
activation_1267 (Activation) (None, 32, 32, 64)        0         
_________________________________________________________________
dropout_1267 (Dropout)       (None, 32, 32, 64)        0         
_________________________________________________________________
conv2d_965 (Conv2D)          (None, 32, 32, 512)       295424    
_________________________________________________________________
batch_normalization_933 (Bat (None, 32, 32, 512)       2048      
_________________________________________________________________
activation_1268 (Activation) (None, 32, 32, 512)       0         
_________________________________________________________________
dropout_1268 (Dropout)       (None, 32, 32, 512)       0         
_________________________________________________________________
max_pooling2d_318 (MaxPoolin (None, 16, 16, 512)       0         
_________________________________________________________________
flatten_200 (Flatten)        (None, 131072)            0         
_________________________________________________________________
dense_503 (Dense)            (None, 128)               16777344  
_________________________________________________________________
batch_normalization_934 (Bat (None, 128)               512       
_________________________________________________________________
activation_1269 (Activation) (None, 128)               0         
_________________________________________________________________
dropout_1269 (Dropout)       (None, 128)               0         
_________________________________________________________________
dense_504 (Dense)            (None, 64)                8256      
_________________________________________________________________
activation_1270 (Activation) (None, 64)                0         
_________________________________________________________________
dropout_1270 (Dropout)       (None, 64)                0         
_________________________________________________________________
dense_505 (Dense)            (None, 32)                2080      
_________________________________________________________________
batch_normalization_935 (Bat (None, 32)                128       
_________________________________________________________________
activation_1271 (Activation) (None, 32)                0         
_________________________________________________________________
dropout_1271 (Dropout)       (None, 32)                0         
_________________________________________________________________
dense_506 (Dense)            (None, 10)                330       
=================================================================
Total params: 24,504,298
Trainable params: 24,499,850
Non-trainable params: 4,448
_________________________________________________________________
