Model: "sequential_73"
_________________________________________________________________
Layer (type)                 Output Shape              Param #   
=================================================================
conv2d_348 (Conv2D)          (None, 32, 32, 1024)      28672     
_________________________________________________________________
batch_normalization_283 (Bat (None, 32, 32, 1024)      4096      
_________________________________________________________________
activation_443 (Activation)  (None, 32, 32, 1024)      0         
_________________________________________________________________
dropout_443 (Dropout)        (None, 32, 32, 1024)      0         
_________________________________________________________________
conv2d_349 (Conv2D)          (None, 32, 32, 8)         73736     
_________________________________________________________________
batch_normalization_284 (Bat (None, 32, 32, 8)         32        
_________________________________________________________________
activation_444 (Activation)  (None, 32, 32, 8)         0         
_________________________________________________________________
dropout_444 (Dropout)        (None, 32, 32, 8)         0         
_________________________________________________________________
max_pooling2d_131 (MaxPoolin (None, 16, 16, 8)         0         
_________________________________________________________________
conv2d_350 (Conv2D)          (None, 16, 16, 64)        4672      
_________________________________________________________________
activation_445 (Activation)  (None, 16, 16, 64)        0         
_________________________________________________________________
dropout_445 (Dropout)        (None, 16, 16, 64)        0         
_________________________________________________________________
max_pooling2d_132 (MaxPoolin (None, 8, 8, 64)          0         
_________________________________________________________________
conv2d_351 (Conv2D)          (None, 8, 8, 16)          9232      
_________________________________________________________________
activation_446 (Activation)  (None, 8, 8, 16)          0         
_________________________________________________________________
dropout_446 (Dropout)        (None, 8, 8, 16)          0         
_________________________________________________________________
flatten_73 (Flatten)         (None, 1024)              0         
_________________________________________________________________
dense_168 (Dense)            (None, 16)                16400     
_________________________________________________________________
activation_447 (Activation)  (None, 16)                0         
_________________________________________________________________
dropout_447 (Dropout)        (None, 16)                0         
_________________________________________________________________
dense_169 (Dense)            (None, 10)                170       
=================================================================
Total params: 137,010
Trainable params: 134,946
Non-trainable params: 2,064
_________________________________________________________________
