Model: "sequential_31"
_________________________________________________________________
Layer (type)                 Output Shape              Param #   
=================================================================
conv2d_161 (Conv2D)          (None, 32, 32, 256)       7168      
_________________________________________________________________
batch_normalization_118 (Bat (None, 32, 32, 256)       1024      
_________________________________________________________________
activation_202 (Activation)  (None, 32, 32, 256)       0         
_________________________________________________________________
dropout_202 (Dropout)        (None, 32, 32, 256)       0         
_________________________________________________________________
conv2d_162 (Conv2D)          (None, 32, 32, 8)         18440     
_________________________________________________________________
activation_203 (Activation)  (None, 32, 32, 8)         0         
_________________________________________________________________
dropout_203 (Dropout)        (None, 32, 32, 8)         0         
_________________________________________________________________
max_pooling2d_59 (MaxPooling (None, 16, 16, 8)         0         
_________________________________________________________________
conv2d_163 (Conv2D)          (None, 16, 16, 128)       9344      
_________________________________________________________________
batch_normalization_119 (Bat (None, 16, 16, 128)       512       
_________________________________________________________________
activation_204 (Activation)  (None, 16, 16, 128)       0         
_________________________________________________________________
dropout_204 (Dropout)        (None, 16, 16, 128)       0         
_________________________________________________________________
max_pooling2d_60 (MaxPooling (None, 8, 8, 128)         0         
_________________________________________________________________
flatten_31 (Flatten)         (None, 8192)              0         
_________________________________________________________________
dense_72 (Dense)             (None, 64)                524352    
_________________________________________________________________
batch_normalization_120 (Bat (None, 64)                256       
_________________________________________________________________
activation_205 (Activation)  (None, 64)                0         
_________________________________________________________________
dropout_205 (Dropout)        (None, 64)                0         
_________________________________________________________________
dense_73 (Dense)             (None, 10)                650       
=================================================================
Total params: 561,746
Trainable params: 560,850
Non-trainable params: 896
_________________________________________________________________
