Model: "sequential_28"
_________________________________________________________________
Layer (type)                 Output Shape              Param #   
=================================================================
conv2d_148 (Conv2D)          (None, 32, 32, 256)       7168      
_________________________________________________________________
batch_normalization_108 (Bat (None, 32, 32, 256)       1024      
_________________________________________________________________
activation_185 (Activation)  (None, 32, 32, 256)       0         
_________________________________________________________________
dropout_185 (Dropout)        (None, 32, 32, 256)       0         
_________________________________________________________________
conv2d_149 (Conv2D)          (None, 32, 32, 8)         18440     
_________________________________________________________________
batch_normalization_109 (Bat (None, 32, 32, 8)         32        
_________________________________________________________________
activation_186 (Activation)  (None, 32, 32, 8)         0         
_________________________________________________________________
dropout_186 (Dropout)        (None, 32, 32, 8)         0         
_________________________________________________________________
conv2d_150 (Conv2D)          (None, 32, 32, 64)        4672      
_________________________________________________________________
activation_187 (Activation)  (None, 32, 32, 64)        0         
_________________________________________________________________
dropout_187 (Dropout)        (None, 32, 32, 64)        0         
_________________________________________________________________
max_pooling2d_53 (MaxPooling (None, 16, 16, 64)        0         
_________________________________________________________________
conv2d_151 (Conv2D)          (None, 16, 16, 16)        9232      
_________________________________________________________________
activation_188 (Activation)  (None, 16, 16, 16)        0         
_________________________________________________________________
dropout_188 (Dropout)        (None, 16, 16, 16)        0         
_________________________________________________________________
flatten_28 (Flatten)         (None, 4096)              0         
_________________________________________________________________
dense_65 (Dense)             (None, 16)                65552     
_________________________________________________________________
activation_189 (Activation)  (None, 16)                0         
_________________________________________________________________
dropout_189 (Dropout)        (None, 16)                0         
_________________________________________________________________
dense_66 (Dense)             (None, 10)                170       
=================================================================
Total params: 106,290
Trainable params: 105,762
Non-trainable params: 528
_________________________________________________________________
