Model: "sequential_113"
_________________________________________________________________
Layer (type)                 Output Shape              Param #   
=================================================================
conv2d_535 (Conv2D)          (None, 32, 32, 256)       7168      
_________________________________________________________________
batch_normalization_458 (Bat (None, 32, 32, 256)       1024      
_________________________________________________________________
activation_688 (Activation)  (None, 32, 32, 256)       0         
_________________________________________________________________
dropout_688 (Dropout)        (None, 32, 32, 256)       0         
_________________________________________________________________
conv2d_536 (Conv2D)          (None, 32, 32, 128)       295040    
_________________________________________________________________
batch_normalization_459 (Bat (None, 32, 32, 128)       512       
_________________________________________________________________
activation_689 (Activation)  (None, 32, 32, 128)       0         
_________________________________________________________________
dropout_689 (Dropout)        (None, 32, 32, 128)       0         
_________________________________________________________________
conv2d_537 (Conv2D)          (None, 32, 32, 16)        18448     
_________________________________________________________________
batch_normalization_460 (Bat (None, 32, 32, 16)        64        
_________________________________________________________________
activation_690 (Activation)  (None, 32, 32, 16)        0         
_________________________________________________________________
dropout_690 (Dropout)        (None, 32, 32, 16)        0         
_________________________________________________________________
conv2d_538 (Conv2D)          (None, 32, 32, 512)       74240     
_________________________________________________________________
batch_normalization_461 (Bat (None, 32, 32, 512)       2048      
_________________________________________________________________
activation_691 (Activation)  (None, 32, 32, 512)       0         
_________________________________________________________________
dropout_691 (Dropout)        (None, 32, 32, 512)       0         
_________________________________________________________________
max_pooling2d_193 (MaxPoolin (None, 16, 16, 512)       0         
_________________________________________________________________
flatten_113 (Flatten)        (None, 131072)            0         
_________________________________________________________________
dense_266 (Dense)            (None, 512)               67109376  
_________________________________________________________________
activation_692 (Activation)  (None, 512)               0         
_________________________________________________________________
dropout_692 (Dropout)        (None, 512)               0         
_________________________________________________________________
dense_267 (Dense)            (None, 64)                32832     
_________________________________________________________________
batch_normalization_462 (Bat (None, 64)                256       
_________________________________________________________________
activation_693 (Activation)  (None, 64)                0         
_________________________________________________________________
dropout_693 (Dropout)        (None, 64)                0         
_________________________________________________________________
dense_268 (Dense)            (None, 10)                650       
=================================================================
Total params: 67,541,658
Trainable params: 67,539,706
Non-trainable params: 1,952
_________________________________________________________________
