Model: "sequential_110"
_________________________________________________________________
Layer (type)                 Output Shape              Param #   
=================================================================
conv2d_519 (Conv2D)          (None, 32, 32, 256)       7168      
_________________________________________________________________
batch_normalization_442 (Bat (None, 32, 32, 256)       1024      
_________________________________________________________________
activation_666 (Activation)  (None, 32, 32, 256)       0         
_________________________________________________________________
dropout_666 (Dropout)        (None, 32, 32, 256)       0         
_________________________________________________________________
conv2d_520 (Conv2D)          (None, 32, 32, 256)       590080    
_________________________________________________________________
batch_normalization_443 (Bat (None, 32, 32, 256)       1024      
_________________________________________________________________
activation_667 (Activation)  (None, 32, 32, 256)       0         
_________________________________________________________________
dropout_667 (Dropout)        (None, 32, 32, 256)       0         
_________________________________________________________________
conv2d_521 (Conv2D)          (None, 32, 32, 1024)      2360320   
_________________________________________________________________
batch_normalization_444 (Bat (None, 32, 32, 1024)      4096      
_________________________________________________________________
activation_668 (Activation)  (None, 32, 32, 1024)      0         
_________________________________________________________________
dropout_668 (Dropout)        (None, 32, 32, 1024)      0         
_________________________________________________________________
conv2d_522 (Conv2D)          (None, 32, 32, 512)       4719104   
_________________________________________________________________
batch_normalization_445 (Bat (None, 32, 32, 512)       2048      
_________________________________________________________________
activation_669 (Activation)  (None, 32, 32, 512)       0         
_________________________________________________________________
dropout_669 (Dropout)        (None, 32, 32, 512)       0         
_________________________________________________________________
conv2d_523 (Conv2D)          (None, 32, 32, 64)        294976    
_________________________________________________________________
activation_670 (Activation)  (None, 32, 32, 64)        0         
_________________________________________________________________
dropout_670 (Dropout)        (None, 32, 32, 64)        0         
_________________________________________________________________
conv2d_524 (Conv2D)          (None, 32, 32, 512)       295424    
_________________________________________________________________
batch_normalization_446 (Bat (None, 32, 32, 512)       2048      
_________________________________________________________________
activation_671 (Activation)  (None, 32, 32, 512)       0         
_________________________________________________________________
dropout_671 (Dropout)        (None, 32, 32, 512)       0         
_________________________________________________________________
max_pooling2d_188 (MaxPoolin (None, 16, 16, 512)       0         
_________________________________________________________________
flatten_110 (Flatten)        (None, 131072)            0         
_________________________________________________________________
dense_257 (Dense)            (None, 128)               16777344  
_________________________________________________________________
batch_normalization_447 (Bat (None, 128)               512       
_________________________________________________________________
activation_672 (Activation)  (None, 128)               0         
_________________________________________________________________
dropout_672 (Dropout)        (None, 128)               0         
_________________________________________________________________
dense_258 (Dense)            (None, 256)               33024     
_________________________________________________________________
activation_673 (Activation)  (None, 256)               0         
_________________________________________________________________
dropout_673 (Dropout)        (None, 256)               0         
_________________________________________________________________
dense_259 (Dense)            (None, 10)                2570      
=================================================================
Total params: 25,090,762
Trainable params: 25,085,386
Non-trainable params: 5,376
_________________________________________________________________
