Model: "sequential_193"
_________________________________________________________________
Layer (type)                 Output Shape              Param #   
=================================================================
conv2d_927 (Conv2D)          (None, 32, 32, 256)       7168      
_________________________________________________________________
batch_normalization_893 (Bat (None, 32, 32, 256)       1024      
_________________________________________________________________
activation_1220 (Activation) (None, 32, 32, 256)       0         
_________________________________________________________________
dropout_1220 (Dropout)       (None, 32, 32, 256)       0         
_________________________________________________________________
conv2d_928 (Conv2D)          (None, 32, 32, 256)       590080    
_________________________________________________________________
activation_1221 (Activation) (None, 32, 32, 256)       0         
_________________________________________________________________
dropout_1221 (Dropout)       (None, 32, 32, 256)       0         
_________________________________________________________________
conv2d_929 (Conv2D)          (None, 32, 32, 1024)      2360320   
_________________________________________________________________
batch_normalization_894 (Bat (None, 32, 32, 1024)      4096      
_________________________________________________________________
activation_1222 (Activation) (None, 32, 32, 1024)      0         
_________________________________________________________________
dropout_1222 (Dropout)       (None, 32, 32, 1024)      0         
_________________________________________________________________
conv2d_930 (Conv2D)          (None, 32, 32, 512)       4719104   
_________________________________________________________________
batch_normalization_895 (Bat (None, 32, 32, 512)       2048      
_________________________________________________________________
activation_1223 (Activation) (None, 32, 32, 512)       0         
_________________________________________________________________
dropout_1223 (Dropout)       (None, 32, 32, 512)       0         
_________________________________________________________________
max_pooling2d_307 (MaxPoolin (None, 16, 16, 512)       0         
_________________________________________________________________
conv2d_931 (Conv2D)          (None, 16, 16, 128)       589952    
_________________________________________________________________
activation_1224 (Activation) (None, 16, 16, 128)       0         
_________________________________________________________________
dropout_1224 (Dropout)       (None, 16, 16, 128)       0         
_________________________________________________________________
max_pooling2d_308 (MaxPoolin (None, 8, 8, 128)         0         
_________________________________________________________________
flatten_193 (Flatten)        (None, 8192)              0         
_________________________________________________________________
dense_486 (Dense)            (None, 16)                131088    
_________________________________________________________________
batch_normalization_896 (Bat (None, 16)                64        
_________________________________________________________________
activation_1225 (Activation) (None, 16)                0         
_________________________________________________________________
dropout_1225 (Dropout)       (None, 16)                0         
_________________________________________________________________
dense_487 (Dense)            (None, 64)                1088      
_________________________________________________________________
batch_normalization_897 (Bat (None, 64)                256       
_________________________________________________________________
activation_1226 (Activation) (None, 64)                0         
_________________________________________________________________
dropout_1226 (Dropout)       (None, 64)                0         
_________________________________________________________________
dense_488 (Dense)            (None, 10)                650       
=================================================================
Total params: 8,406,938
Trainable params: 8,403,194
Non-trainable params: 3,744
_________________________________________________________________
