Model: "sequential_2"
_________________________________________________________________
Layer (type)                 Output Shape              Param #   
=================================================================
conv2d_8 (Conv2D)            (None, 32, 32, 512)       14336     
_________________________________________________________________
activation_12 (Activation)   (None, 32, 32, 512)       0         
_________________________________________________________________
dropout_12 (Dropout)         (None, 32, 32, 512)       0         
_________________________________________________________________
max_pooling2d_3 (MaxPooling2 (None, 16, 16, 512)       0         
_________________________________________________________________
conv2d_9 (Conv2D)            (None, 16, 16, 256)       1179904   
_________________________________________________________________
activation_13 (Activation)   (None, 16, 16, 256)       0         
_________________________________________________________________
dropout_13 (Dropout)         (None, 16, 16, 256)       0         
_________________________________________________________________
conv2d_10 (Conv2D)           (None, 16, 16, 256)       590080    
_________________________________________________________________
batch_normalization_7 (Batch (None, 16, 16, 256)       1024      
_________________________________________________________________
activation_14 (Activation)   (None, 16, 16, 256)       0         
_________________________________________________________________
dropout_14 (Dropout)         (None, 16, 16, 256)       0         
_________________________________________________________________
max_pooling2d_4 (MaxPooling2 (None, 8, 8, 256)         0         
_________________________________________________________________
conv2d_11 (Conv2D)           (None, 8, 8, 64)          147520    
_________________________________________________________________
batch_normalization_8 (Batch (None, 8, 8, 64)          256       
_________________________________________________________________
activation_15 (Activation)   (None, 8, 8, 64)          0         
_________________________________________________________________
dropout_15 (Dropout)         (None, 8, 8, 64)          0         
_________________________________________________________________
conv2d_12 (Conv2D)           (None, 8, 8, 128)         73856     
_________________________________________________________________
activation_16 (Activation)   (None, 8, 8, 128)         0         
_________________________________________________________________
dropout_16 (Dropout)         (None, 8, 8, 128)         0         
_________________________________________________________________
conv2d_13 (Conv2D)           (None, 8, 8, 512)         590336    
_________________________________________________________________
batch_normalization_9 (Batch (None, 8, 8, 512)         2048      
_________________________________________________________________
activation_17 (Activation)   (None, 8, 8, 512)         0         
_________________________________________________________________
dropout_17 (Dropout)         (None, 8, 8, 512)         0         
_________________________________________________________________
flatten_2 (Flatten)          (None, 32768)             0         
_________________________________________________________________
dense_6 (Dense)              (None, 128)               4194432   
_________________________________________________________________
activation_18 (Activation)   (None, 128)               0         
_________________________________________________________________
dropout_18 (Dropout)         (None, 128)               0         
_________________________________________________________________
dense_7 (Dense)              (None, 10)                1290      
=================================================================
Total params: 6,795,082
Trainable params: 6,793,418
Non-trainable params: 1,664
_________________________________________________________________
