Model: "sequential_99"
_________________________________________________________________
Layer (type)                 Output Shape              Param #   
=================================================================
conv2d_465 (Conv2D)          (None, 32, 32, 256)       7168      
_________________________________________________________________
activation_596 (Activation)  (None, 32, 32, 256)       0         
_________________________________________________________________
dropout_596 (Dropout)        (None, 32, 32, 256)       0         
_________________________________________________________________
conv2d_466 (Conv2D)          (None, 32, 32, 8)         18440     
_________________________________________________________________
activation_597 (Activation)  (None, 32, 32, 8)         0         
_________________________________________________________________
dropout_597 (Dropout)        (None, 32, 32, 8)         0         
_________________________________________________________________
max_pooling2d_169 (MaxPoolin (None, 16, 16, 8)         0         
_________________________________________________________________
conv2d_467 (Conv2D)          (None, 16, 16, 1024)      74752     
_________________________________________________________________
batch_normalization_392 (Bat (None, 16, 16, 1024)      4096      
_________________________________________________________________
activation_598 (Activation)  (None, 16, 16, 1024)      0         
_________________________________________________________________
dropout_598 (Dropout)        (None, 16, 16, 1024)      0         
_________________________________________________________________
max_pooling2d_170 (MaxPoolin (None, 8, 8, 1024)        0         
_________________________________________________________________
conv2d_468 (Conv2D)          (None, 8, 8, 8)           73736     
_________________________________________________________________
activation_599 (Activation)  (None, 8, 8, 8)           0         
_________________________________________________________________
dropout_599 (Dropout)        (None, 8, 8, 8)           0         
_________________________________________________________________
flatten_99 (Flatten)         (None, 512)               0         
_________________________________________________________________
dense_230 (Dense)            (None, 64)                32832     
_________________________________________________________________
batch_normalization_393 (Bat (None, 64)                256       
_________________________________________________________________
activation_600 (Activation)  (None, 64)                0         
_________________________________________________________________
dropout_600 (Dropout)        (None, 64)                0         
_________________________________________________________________
dense_231 (Dense)            (None, 10)                650       
=================================================================
Total params: 211,930
Trainable params: 209,754
Non-trainable params: 2,176
_________________________________________________________________
