Model: "sequential_78"
_________________________________________________________________
Layer (type)                 Output Shape              Param #   
=================================================================
conv2d_367 (Conv2D)          (None, 32, 32, 64)        1792      
_________________________________________________________________
activation_467 (Activation)  (None, 32, 32, 64)        0         
_________________________________________________________________
dropout_467 (Dropout)        (None, 32, 32, 64)        0         
_________________________________________________________________
max_pooling2d_139 (MaxPoolin (None, 16, 16, 64)        0         
_________________________________________________________________
conv2d_368 (Conv2D)          (None, 16, 16, 16)        9232      
_________________________________________________________________
activation_468 (Activation)  (None, 16, 16, 16)        0         
_________________________________________________________________
dropout_468 (Dropout)        (None, 16, 16, 16)        0         
_________________________________________________________________
conv2d_369 (Conv2D)          (None, 16, 16, 128)       18560     
_________________________________________________________________
batch_normalization_300 (Bat (None, 16, 16, 128)       512       
_________________________________________________________________
activation_469 (Activation)  (None, 16, 16, 128)       0         
_________________________________________________________________
dropout_469 (Dropout)        (None, 16, 16, 128)       0         
_________________________________________________________________
max_pooling2d_140 (MaxPoolin (None, 8, 8, 128)         0         
_________________________________________________________________
conv2d_370 (Conv2D)          (None, 8, 8, 8)           9224      
_________________________________________________________________
activation_470 (Activation)  (None, 8, 8, 8)           0         
_________________________________________________________________
dropout_470 (Dropout)        (None, 8, 8, 8)           0         
_________________________________________________________________
flatten_78 (Flatten)         (None, 512)               0         
_________________________________________________________________
dense_178 (Dense)            (None, 64)                32832     
_________________________________________________________________
batch_normalization_301 (Bat (None, 64)                256       
_________________________________________________________________
activation_471 (Activation)  (None, 64)                0         
_________________________________________________________________
dropout_471 (Dropout)        (None, 64)                0         
_________________________________________________________________
dense_179 (Dense)            (None, 10)                650       
=================================================================
Total params: 73,058
Trainable params: 72,674
Non-trainable params: 384
_________________________________________________________________
