Model: "sequential_1"
_________________________________________________________________
Layer (type)                 Output Shape              Param #   
=================================================================
conv2d_4 (Conv2D)            (None, 32, 32, 8)         224       
_________________________________________________________________
batch_normalization_3 (Batch (None, 32, 32, 8)         32        
_________________________________________________________________
activation_6 (Activation)    (None, 32, 32, 8)         0         
_________________________________________________________________
dropout_6 (Dropout)          (None, 32, 32, 8)         0         
_________________________________________________________________
conv2d_5 (Conv2D)            (None, 32, 32, 32)        2336      
_________________________________________________________________
batch_normalization_4 (Batch (None, 32, 32, 32)        128       
_________________________________________________________________
activation_7 (Activation)    (None, 32, 32, 32)        0         
_________________________________________________________________
dropout_7 (Dropout)          (None, 32, 32, 32)        0         
_________________________________________________________________
max_pooling2d_1 (MaxPooling2 (None, 16, 16, 32)        0         
_________________________________________________________________
conv2d_6 (Conv2D)            (None, 16, 16, 64)        18496     
_________________________________________________________________
batch_normalization_5 (Batch (None, 16, 16, 64)        256       
_________________________________________________________________
activation_8 (Activation)    (None, 16, 16, 64)        0         
_________________________________________________________________
dropout_8 (Dropout)          (None, 16, 16, 64)        0         
_________________________________________________________________
conv2d_7 (Conv2D)            (None, 16, 16, 512)       295424    
_________________________________________________________________
activation_9 (Activation)    (None, 16, 16, 512)       0         
_________________________________________________________________
dropout_9 (Dropout)          (None, 16, 16, 512)       0         
_________________________________________________________________
max_pooling2d_2 (MaxPooling2 (None, 8, 8, 512)         0         
_________________________________________________________________
flatten_1 (Flatten)          (None, 32768)             0         
_________________________________________________________________
dense_3 (Dense)              (None, 128)               4194432   
_________________________________________________________________
batch_normalization_6 (Batch (None, 128)               512       
_________________________________________________________________
activation_10 (Activation)   (None, 128)               0         
_________________________________________________________________
dropout_10 (Dropout)         (None, 128)               0         
_________________________________________________________________
dense_4 (Dense)              (None, 256)               33024     
_________________________________________________________________
activation_11 (Activation)   (None, 256)               0         
_________________________________________________________________
dropout_11 (Dropout)         (None, 256)               0         
_________________________________________________________________
dense_5 (Dense)              (None, 10)                2570      
=================================================================
Total params: 4,547,434
Trainable params: 4,546,970
Non-trainable params: 464
_________________________________________________________________
