Model: "sequential_149"
_________________________________________________________________
Layer (type)                 Output Shape              Param #   
=================================================================
conv2d_710 (Conv2D)          (None, 32, 32, 1024)      28672     
_________________________________________________________________
batch_normalization_646 (Bat (None, 32, 32, 1024)      4096      
_________________________________________________________________
activation_925 (Activation)  (None, 32, 32, 1024)      0         
_________________________________________________________________
dropout_925 (Dropout)        (None, 32, 32, 1024)      0         
_________________________________________________________________
conv2d_711 (Conv2D)          (None, 32, 32, 256)       2359552   
_________________________________________________________________
batch_normalization_647 (Bat (None, 32, 32, 256)       1024      
_________________________________________________________________
activation_926 (Activation)  (None, 32, 32, 256)       0         
_________________________________________________________________
dropout_926 (Dropout)        (None, 32, 32, 256)       0         
_________________________________________________________________
conv2d_712 (Conv2D)          (None, 32, 32, 1024)      2360320   
_________________________________________________________________
batch_normalization_648 (Bat (None, 32, 32, 1024)      4096      
_________________________________________________________________
activation_927 (Activation)  (None, 32, 32, 1024)      0         
_________________________________________________________________
dropout_927 (Dropout)        (None, 32, 32, 1024)      0         
_________________________________________________________________
conv2d_713 (Conv2D)          (None, 32, 32, 512)       4719104   
_________________________________________________________________
batch_normalization_649 (Bat (None, 32, 32, 512)       2048      
_________________________________________________________________
activation_928 (Activation)  (None, 32, 32, 512)       0         
_________________________________________________________________
dropout_928 (Dropout)        (None, 32, 32, 512)       0         
_________________________________________________________________
max_pooling2d_248 (MaxPoolin (None, 16, 16, 512)       0         
_________________________________________________________________
conv2d_714 (Conv2D)          (None, 16, 16, 128)       589952    
_________________________________________________________________
activation_929 (Activation)  (None, 16, 16, 128)       0         
_________________________________________________________________
dropout_929 (Dropout)        (None, 16, 16, 128)       0         
_________________________________________________________________
max_pooling2d_249 (MaxPoolin (None, 8, 8, 128)         0         
_________________________________________________________________
flatten_149 (Flatten)        (None, 8192)              0         
_________________________________________________________________
dense_364 (Dense)            (None, 16)                131088    
_________________________________________________________________
batch_normalization_650 (Bat (None, 16)                64        
_________________________________________________________________
activation_930 (Activation)  (None, 16)                0         
_________________________________________________________________
dropout_930 (Dropout)        (None, 16)                0         
_________________________________________________________________
dense_365 (Dense)            (None, 32)                544       
_________________________________________________________________
batch_normalization_651 (Bat (None, 32)                128       
_________________________________________________________________
activation_931 (Activation)  (None, 32)                0         
_________________________________________________________________
dropout_931 (Dropout)        (None, 32)                0         
_________________________________________________________________
dense_366 (Dense)            (None, 10)                330       
=================================================================
Total params: 10,201,018
Trainable params: 10,195,290
Non-trainable params: 5,728
_________________________________________________________________
