Model: "sequential_182"
_________________________________________________________________
Layer (type)                 Output Shape              Param #   
=================================================================
conv2d_874 (Conv2D)          (None, 32, 32, 256)       7168      
_________________________________________________________________
batch_normalization_829 (Bat (None, 32, 32, 256)       1024      
_________________________________________________________________
activation_1148 (Activation) (None, 32, 32, 256)       0         
_________________________________________________________________
dropout_1148 (Dropout)       (None, 32, 32, 256)       0         
_________________________________________________________________
conv2d_875 (Conv2D)          (None, 32, 32, 256)       590080    
_________________________________________________________________
batch_normalization_830 (Bat (None, 32, 32, 256)       1024      
_________________________________________________________________
activation_1149 (Activation) (None, 32, 32, 256)       0         
_________________________________________________________________
dropout_1149 (Dropout)       (None, 32, 32, 256)       0         
_________________________________________________________________
conv2d_876 (Conv2D)          (None, 32, 32, 16)        36880     
_________________________________________________________________
batch_normalization_831 (Bat (None, 32, 32, 16)        64        
_________________________________________________________________
activation_1150 (Activation) (None, 32, 32, 16)        0         
_________________________________________________________________
dropout_1150 (Dropout)       (None, 32, 32, 16)        0         
_________________________________________________________________
conv2d_877 (Conv2D)          (None, 32, 32, 512)       74240     
_________________________________________________________________
batch_normalization_832 (Bat (None, 32, 32, 512)       2048      
_________________________________________________________________
activation_1151 (Activation) (None, 32, 32, 512)       0         
_________________________________________________________________
dropout_1151 (Dropout)       (None, 32, 32, 512)       0         
_________________________________________________________________
conv2d_878 (Conv2D)          (None, 32, 32, 64)        294976    
_________________________________________________________________
activation_1152 (Activation) (None, 32, 32, 64)        0         
_________________________________________________________________
dropout_1152 (Dropout)       (None, 32, 32, 64)        0         
_________________________________________________________________
conv2d_879 (Conv2D)          (None, 32, 32, 512)       295424    
_________________________________________________________________
batch_normalization_833 (Bat (None, 32, 32, 512)       2048      
_________________________________________________________________
activation_1153 (Activation) (None, 32, 32, 512)       0         
_________________________________________________________________
dropout_1153 (Dropout)       (None, 32, 32, 512)       0         
_________________________________________________________________
flatten_182 (Flatten)        (None, 524288)            0         
_________________________________________________________________
dense_456 (Dense)            (None, 16)                8388624   
_________________________________________________________________
batch_normalization_834 (Bat (None, 16)                64        
_________________________________________________________________
activation_1154 (Activation) (None, 16)                0         
_________________________________________________________________
dropout_1154 (Dropout)       (None, 16)                0         
_________________________________________________________________
dense_457 (Dense)            (None, 32)                544       
_________________________________________________________________
batch_normalization_835 (Bat (None, 32)                128       
_________________________________________________________________
activation_1155 (Activation) (None, 32)                0         
_________________________________________________________________
dropout_1155 (Dropout)       (None, 32)                0         
_________________________________________________________________
dense_458 (Dense)            (None, 10)                330       
=================================================================
Total params: 9,694,666
Trainable params: 9,691,466
Non-trainable params: 3,200
_________________________________________________________________
