Model: "sequential_116"
_________________________________________________________________
Layer (type)                 Output Shape              Param #   
=================================================================
conv2d_549 (Conv2D)          (None, 32, 32, 256)       7168      
_________________________________________________________________
batch_normalization_474 (Bat (None, 32, 32, 256)       1024      
_________________________________________________________________
activation_708 (Activation)  (None, 32, 32, 256)       0         
_________________________________________________________________
dropout_708 (Dropout)        (None, 32, 32, 256)       0         
_________________________________________________________________
conv2d_550 (Conv2D)          (None, 32, 32, 256)       590080    
_________________________________________________________________
batch_normalization_475 (Bat (None, 32, 32, 256)       1024      
_________________________________________________________________
activation_709 (Activation)  (None, 32, 32, 256)       0         
_________________________________________________________________
dropout_709 (Dropout)        (None, 32, 32, 256)       0         
_________________________________________________________________
conv2d_551 (Conv2D)          (None, 32, 32, 1024)      2360320   
_________________________________________________________________
batch_normalization_476 (Bat (None, 32, 32, 1024)      4096      
_________________________________________________________________
activation_710 (Activation)  (None, 32, 32, 1024)      0         
_________________________________________________________________
dropout_710 (Dropout)        (None, 32, 32, 1024)      0         
_________________________________________________________________
conv2d_552 (Conv2D)          (None, 32, 32, 512)       4719104   
_________________________________________________________________
batch_normalization_477 (Bat (None, 32, 32, 512)       2048      
_________________________________________________________________
activation_711 (Activation)  (None, 32, 32, 512)       0         
_________________________________________________________________
dropout_711 (Dropout)        (None, 32, 32, 512)       0         
_________________________________________________________________
max_pooling2d_197 (MaxPoolin (None, 16, 16, 512)       0         
_________________________________________________________________
conv2d_553 (Conv2D)          (None, 16, 16, 128)       589952    
_________________________________________________________________
activation_712 (Activation)  (None, 16, 16, 128)       0         
_________________________________________________________________
dropout_712 (Dropout)        (None, 16, 16, 128)       0         
_________________________________________________________________
max_pooling2d_198 (MaxPoolin (None, 8, 8, 128)         0         
_________________________________________________________________
flatten_116 (Flatten)        (None, 8192)              0         
_________________________________________________________________
dense_275 (Dense)            (None, 16)                131088    
_________________________________________________________________
batch_normalization_478 (Bat (None, 16)                64        
_________________________________________________________________
activation_713 (Activation)  (None, 16)                0         
_________________________________________________________________
dropout_713 (Dropout)        (None, 16)                0         
_________________________________________________________________
dense_276 (Dense)            (None, 32)                544       
_________________________________________________________________
batch_normalization_479 (Bat (None, 32)                128       
_________________________________________________________________
activation_714 (Activation)  (None, 32)                0         
_________________________________________________________________
dropout_714 (Dropout)        (None, 32)                0         
_________________________________________________________________
dense_277 (Dense)            (None, 10)                330       
=================================================================
Total params: 8,406,970
Trainable params: 8,402,778
Non-trainable params: 4,192
_________________________________________________________________
