Model: "sequential_29"
_________________________________________________________________
Layer (type)                 Output Shape              Param #   
=================================================================
conv2d_152 (Conv2D)          (None, 32, 32, 256)       7168      
_________________________________________________________________
batch_normalization_110 (Bat (None, 32, 32, 256)       1024      
_________________________________________________________________
activation_190 (Activation)  (None, 32, 32, 256)       0         
_________________________________________________________________
dropout_190 (Dropout)        (None, 32, 32, 256)       0         
_________________________________________________________________
conv2d_153 (Conv2D)          (None, 32, 32, 8)         18440     
_________________________________________________________________
activation_191 (Activation)  (None, 32, 32, 8)         0         
_________________________________________________________________
dropout_191 (Dropout)        (None, 32, 32, 8)         0         
_________________________________________________________________
max_pooling2d_54 (MaxPooling (None, 16, 16, 8)         0         
_________________________________________________________________
conv2d_154 (Conv2D)          (None, 16, 16, 1024)      74752     
_________________________________________________________________
batch_normalization_111 (Bat (None, 16, 16, 1024)      4096      
_________________________________________________________________
activation_192 (Activation)  (None, 16, 16, 1024)      0         
_________________________________________________________________
dropout_192 (Dropout)        (None, 16, 16, 1024)      0         
_________________________________________________________________
max_pooling2d_55 (MaxPooling (None, 8, 8, 1024)        0         
_________________________________________________________________
conv2d_155 (Conv2D)          (None, 8, 8, 256)         2359552   
_________________________________________________________________
activation_193 (Activation)  (None, 8, 8, 256)         0         
_________________________________________________________________
dropout_193 (Dropout)        (None, 8, 8, 256)         0         
_________________________________________________________________
flatten_29 (Flatten)         (None, 16384)             0         
_________________________________________________________________
dense_67 (Dense)             (None, 64)                1048640   
_________________________________________________________________
batch_normalization_112 (Bat (None, 64)                256       
_________________________________________________________________
activation_194 (Activation)  (None, 64)                0         
_________________________________________________________________
dropout_194 (Dropout)        (None, 64)                0         
_________________________________________________________________
dense_68 (Dense)             (None, 10)                650       
=================================================================
Total params: 3,514,578
Trainable params: 3,511,890
Non-trainable params: 2,688
_________________________________________________________________
