Model: "sequential_42"
_________________________________________________________________
Layer (type)                 Output Shape              Param #   
=================================================================
conv2d_214 (Conv2D)          (None, 32, 32, 512)       14336     
_________________________________________________________________
activation_269 (Activation)  (None, 32, 32, 512)       0         
_________________________________________________________________
dropout_269 (Dropout)        (None, 32, 32, 512)       0         
_________________________________________________________________
conv2d_215 (Conv2D)          (None, 32, 32, 256)       1179904   
_________________________________________________________________
batch_normalization_170 (Bat (None, 32, 32, 256)       1024      
_________________________________________________________________
activation_270 (Activation)  (None, 32, 32, 256)       0         
_________________________________________________________________
dropout_270 (Dropout)        (None, 32, 32, 256)       0         
_________________________________________________________________
conv2d_216 (Conv2D)          (None, 32, 32, 16)        36880     
_________________________________________________________________
batch_normalization_171 (Bat (None, 32, 32, 16)        64        
_________________________________________________________________
activation_271 (Activation)  (None, 32, 32, 16)        0         
_________________________________________________________________
dropout_271 (Dropout)        (None, 32, 32, 16)        0         
_________________________________________________________________
conv2d_217 (Conv2D)          (None, 32, 32, 512)       74240     
_________________________________________________________________
batch_normalization_172 (Bat (None, 32, 32, 512)       2048      
_________________________________________________________________
activation_272 (Activation)  (None, 32, 32, 512)       0         
_________________________________________________________________
dropout_272 (Dropout)        (None, 32, 32, 512)       0         
_________________________________________________________________
max_pooling2d_79 (MaxPooling (None, 16, 16, 512)       0         
_________________________________________________________________
conv2d_218 (Conv2D)          (None, 16, 16, 128)       589952    
_________________________________________________________________
activation_273 (Activation)  (None, 16, 16, 128)       0         
_________________________________________________________________
dropout_273 (Dropout)        (None, 16, 16, 128)       0         
_________________________________________________________________
max_pooling2d_80 (MaxPooling (None, 8, 8, 128)         0         
_________________________________________________________________
flatten_42 (Flatten)         (None, 8192)              0         
_________________________________________________________________
dense_97 (Dense)             (None, 64)                524352    
_________________________________________________________________
batch_normalization_173 (Bat (None, 64)                256       
_________________________________________________________________
activation_274 (Activation)  (None, 64)                0         
_________________________________________________________________
dropout_274 (Dropout)        (None, 64)                0         
_________________________________________________________________
dense_98 (Dense)             (None, 10)                650       
=================================================================
Total params: 2,423,706
Trainable params: 2,422,010
Non-trainable params: 1,696
_________________________________________________________________
