Model: "sequential_134"
_________________________________________________________________
Layer (type)                 Output Shape              Param #   
=================================================================
conv2d_640 (Conv2D)          (None, 32, 32, 1024)      28672     
_________________________________________________________________
batch_normalization_565 (Bat (None, 32, 32, 1024)      4096      
_________________________________________________________________
activation_828 (Activation)  (None, 32, 32, 1024)      0         
_________________________________________________________________
dropout_828 (Dropout)        (None, 32, 32, 1024)      0         
_________________________________________________________________
conv2d_641 (Conv2D)          (None, 32, 32, 256)       2359552   
_________________________________________________________________
batch_normalization_566 (Bat (None, 32, 32, 256)       1024      
_________________________________________________________________
activation_829 (Activation)  (None, 32, 32, 256)       0         
_________________________________________________________________
dropout_829 (Dropout)        (None, 32, 32, 256)       0         
_________________________________________________________________
conv2d_642 (Conv2D)          (None, 32, 32, 1024)      2360320   
_________________________________________________________________
batch_normalization_567 (Bat (None, 32, 32, 1024)      4096      
_________________________________________________________________
activation_830 (Activation)  (None, 32, 32, 1024)      0         
_________________________________________________________________
dropout_830 (Dropout)        (None, 32, 32, 1024)      0         
_________________________________________________________________
conv2d_643 (Conv2D)          (None, 32, 32, 512)       4719104   
_________________________________________________________________
batch_normalization_568 (Bat (None, 32, 32, 512)       2048      
_________________________________________________________________
activation_831 (Activation)  (None, 32, 32, 512)       0         
_________________________________________________________________
dropout_831 (Dropout)        (None, 32, 32, 512)       0         
_________________________________________________________________
max_pooling2d_225 (MaxPoolin (None, 16, 16, 512)       0         
_________________________________________________________________
conv2d_644 (Conv2D)          (None, 16, 16, 128)       589952    
_________________________________________________________________
activation_832 (Activation)  (None, 16, 16, 128)       0         
_________________________________________________________________
dropout_832 (Dropout)        (None, 16, 16, 128)       0         
_________________________________________________________________
max_pooling2d_226 (MaxPoolin (None, 8, 8, 128)         0         
_________________________________________________________________
flatten_134 (Flatten)        (None, 8192)              0         
_________________________________________________________________
dense_322 (Dense)            (None, 16)                131088    
_________________________________________________________________
batch_normalization_569 (Bat (None, 16)                64        
_________________________________________________________________
activation_833 (Activation)  (None, 16)                0         
_________________________________________________________________
dropout_833 (Dropout)        (None, 16)                0         
_________________________________________________________________
dense_323 (Dense)            (None, 32)                544       
_________________________________________________________________
batch_normalization_570 (Bat (None, 32)                128       
_________________________________________________________________
activation_834 (Activation)  (None, 32)                0         
_________________________________________________________________
dropout_834 (Dropout)        (None, 32)                0         
_________________________________________________________________
dense_324 (Dense)            (None, 10)                330       
=================================================================
Total params: 10,201,018
Trainable params: 10,195,290
Non-trainable params: 5,728
_________________________________________________________________
