Model: "sequential_106"
_________________________________________________________________
Layer (type)                 Output Shape              Param #   
=================================================================
conv2d_501 (Conv2D)          (None, 32, 32, 256)       7168      
_________________________________________________________________
activation_644 (Activation)  (None, 32, 32, 256)       0         
_________________________________________________________________
dropout_644 (Dropout)        (None, 32, 32, 256)       0         
_________________________________________________________________
conv2d_502 (Conv2D)          (None, 32, 32, 8)         18440     
_________________________________________________________________
activation_645 (Activation)  (None, 32, 32, 8)         0         
_________________________________________________________________
dropout_645 (Dropout)        (None, 32, 32, 8)         0         
_________________________________________________________________
max_pooling2d_183 (MaxPoolin (None, 16, 16, 8)         0         
_________________________________________________________________
conv2d_503 (Conv2D)          (None, 16, 16, 1024)      74752     
_________________________________________________________________
batch_normalization_431 (Bat (None, 16, 16, 1024)      4096      
_________________________________________________________________
activation_646 (Activation)  (None, 16, 16, 1024)      0         
_________________________________________________________________
dropout_646 (Dropout)        (None, 16, 16, 1024)      0         
_________________________________________________________________
max_pooling2d_184 (MaxPoolin (None, 8, 8, 1024)        0         
_________________________________________________________________
conv2d_504 (Conv2D)          (None, 8, 8, 8)           73736     
_________________________________________________________________
activation_647 (Activation)  (None, 8, 8, 8)           0         
_________________________________________________________________
dropout_647 (Dropout)        (None, 8, 8, 8)           0         
_________________________________________________________________
flatten_106 (Flatten)        (None, 512)               0         
_________________________________________________________________
dense_249 (Dense)            (None, 64)                32832     
_________________________________________________________________
batch_normalization_432 (Bat (None, 64)                256       
_________________________________________________________________
activation_648 (Activation)  (None, 64)                0         
_________________________________________________________________
dropout_648 (Dropout)        (None, 64)                0         
_________________________________________________________________
dense_250 (Dense)            (None, 10)                650       
=================================================================
Total params: 211,930
Trainable params: 209,754
Non-trainable params: 2,176
_________________________________________________________________
