Model: "sequential_145"
_________________________________________________________________
Layer (type)                 Output Shape              Param #   
=================================================================
conv2d_693 (Conv2D)          (None, 32, 32, 256)       7168      
_________________________________________________________________
batch_normalization_626 (Bat (None, 32, 32, 256)       1024      
_________________________________________________________________
activation_903 (Activation)  (None, 32, 32, 256)       0         
_________________________________________________________________
dropout_903 (Dropout)        (None, 32, 32, 256)       0         
_________________________________________________________________
conv2d_694 (Conv2D)          (None, 32, 32, 128)       295040    
_________________________________________________________________
batch_normalization_627 (Bat (None, 32, 32, 128)       512       
_________________________________________________________________
activation_904 (Activation)  (None, 32, 32, 128)       0         
_________________________________________________________________
dropout_904 (Dropout)        (None, 32, 32, 128)       0         
_________________________________________________________________
conv2d_695 (Conv2D)          (None, 32, 32, 16)        18448     
_________________________________________________________________
batch_normalization_628 (Bat (None, 32, 32, 16)        64        
_________________________________________________________________
activation_905 (Activation)  (None, 32, 32, 16)        0         
_________________________________________________________________
dropout_905 (Dropout)        (None, 32, 32, 16)        0         
_________________________________________________________________
conv2d_696 (Conv2D)          (None, 32, 32, 512)       74240     
_________________________________________________________________
batch_normalization_629 (Bat (None, 32, 32, 512)       2048      
_________________________________________________________________
activation_906 (Activation)  (None, 32, 32, 512)       0         
_________________________________________________________________
dropout_906 (Dropout)        (None, 32, 32, 512)       0         
_________________________________________________________________
max_pooling2d_243 (MaxPoolin (None, 16, 16, 512)       0         
_________________________________________________________________
flatten_145 (Flatten)        (None, 131072)            0         
_________________________________________________________________
dense_355 (Dense)            (None, 10)                1310730   
=================================================================
Total params: 1,709,274
Trainable params: 1,707,450
Non-trainable params: 1,824
_________________________________________________________________
