Model: "sequential_174"
_________________________________________________________________
Layer (type)                 Output Shape              Param #   
=================================================================
conv2d_835 (Conv2D)          (None, 32, 32, 256)       7168      
_________________________________________________________________
batch_normalization_786 (Bat (None, 32, 32, 256)       1024      
_________________________________________________________________
activation_1094 (Activation) (None, 32, 32, 256)       0         
_________________________________________________________________
dropout_1094 (Dropout)       (None, 32, 32, 256)       0         
_________________________________________________________________
conv2d_836 (Conv2D)          (None, 32, 32, 128)       295040    
_________________________________________________________________
batch_normalization_787 (Bat (None, 32, 32, 128)       512       
_________________________________________________________________
activation_1095 (Activation) (None, 32, 32, 128)       0         
_________________________________________________________________
dropout_1095 (Dropout)       (None, 32, 32, 128)       0         
_________________________________________________________________
conv2d_837 (Conv2D)          (None, 32, 32, 16)        18448     
_________________________________________________________________
batch_normalization_788 (Bat (None, 32, 32, 16)        64        
_________________________________________________________________
activation_1096 (Activation) (None, 32, 32, 16)        0         
_________________________________________________________________
dropout_1096 (Dropout)       (None, 32, 32, 16)        0         
_________________________________________________________________
conv2d_838 (Conv2D)          (None, 32, 32, 512)       74240     
_________________________________________________________________
batch_normalization_789 (Bat (None, 32, 32, 512)       2048      
_________________________________________________________________
activation_1097 (Activation) (None, 32, 32, 512)       0         
_________________________________________________________________
dropout_1097 (Dropout)       (None, 32, 32, 512)       0         
_________________________________________________________________
max_pooling2d_282 (MaxPoolin (None, 16, 16, 512)       0         
_________________________________________________________________
flatten_174 (Flatten)        (None, 131072)            0         
_________________________________________________________________
dense_433 (Dense)            (None, 64)                8388672   
_________________________________________________________________
batch_normalization_790 (Bat (None, 64)                256       
_________________________________________________________________
activation_1098 (Activation) (None, 64)                0         
_________________________________________________________________
dropout_1098 (Dropout)       (None, 64)                0         
_________________________________________________________________
dense_434 (Dense)            (None, 10)                650       
=================================================================
Total params: 8,788,122
Trainable params: 8,786,170
Non-trainable params: 1,952
_________________________________________________________________
