Model: "sequential_155"
_________________________________________________________________
Layer (type)                 Output Shape              Param #   
=================================================================
conv2d_741 (Conv2D)          (None, 32, 32, 256)       7168      
_________________________________________________________________
batch_normalization_682 (Bat (None, 32, 32, 256)       1024      
_________________________________________________________________
activation_968 (Activation)  (None, 32, 32, 256)       0         
_________________________________________________________________
dropout_968 (Dropout)        (None, 32, 32, 256)       0         
_________________________________________________________________
conv2d_742 (Conv2D)          (None, 32, 32, 256)       590080    
_________________________________________________________________
batch_normalization_683 (Bat (None, 32, 32, 256)       1024      
_________________________________________________________________
activation_969 (Activation)  (None, 32, 32, 256)       0         
_________________________________________________________________
dropout_969 (Dropout)        (None, 32, 32, 256)       0         
_________________________________________________________________
conv2d_743 (Conv2D)          (None, 32, 32, 16)        36880     
_________________________________________________________________
batch_normalization_684 (Bat (None, 32, 32, 16)        64        
_________________________________________________________________
activation_970 (Activation)  (None, 32, 32, 16)        0         
_________________________________________________________________
dropout_970 (Dropout)        (None, 32, 32, 16)        0         
_________________________________________________________________
conv2d_744 (Conv2D)          (None, 32, 32, 512)       74240     
_________________________________________________________________
batch_normalization_685 (Bat (None, 32, 32, 512)       2048      
_________________________________________________________________
activation_971 (Activation)  (None, 32, 32, 512)       0         
_________________________________________________________________
dropout_971 (Dropout)        (None, 32, 32, 512)       0         
_________________________________________________________________
max_pooling2d_257 (MaxPoolin (None, 16, 16, 512)       0         
_________________________________________________________________
flatten_155 (Flatten)        (None, 131072)            0         
_________________________________________________________________
dense_382 (Dense)            (None, 128)               16777344  
_________________________________________________________________
batch_normalization_686 (Bat (None, 128)               512       
_________________________________________________________________
activation_972 (Activation)  (None, 128)               0         
_________________________________________________________________
dropout_972 (Dropout)        (None, 128)               0         
_________________________________________________________________
dense_383 (Dense)            (None, 256)               33024     
_________________________________________________________________
activation_973 (Activation)  (None, 256)               0         
_________________________________________________________________
dropout_973 (Dropout)        (None, 256)               0         
_________________________________________________________________
dense_384 (Dense)            (None, 10)                2570      
=================================================================
Total params: 17,525,978
Trainable params: 17,523,642
Non-trainable params: 2,336
_________________________________________________________________
