Model: "sequential_91"
_________________________________________________________________
Layer (type)                 Output Shape              Param #   
=================================================================
conv2d_421 (Conv2D)          (None, 32, 32, 1024)      28672     
_________________________________________________________________
batch_normalization_349 (Bat (None, 32, 32, 1024)      4096      
_________________________________________________________________
activation_540 (Activation)  (None, 32, 32, 1024)      0         
_________________________________________________________________
dropout_540 (Dropout)        (None, 32, 32, 1024)      0         
_________________________________________________________________
conv2d_422 (Conv2D)          (None, 32, 32, 8)         73736     
_________________________________________________________________
batch_normalization_350 (Bat (None, 32, 32, 8)         32        
_________________________________________________________________
activation_541 (Activation)  (None, 32, 32, 8)         0         
_________________________________________________________________
dropout_541 (Dropout)        (None, 32, 32, 8)         0         
_________________________________________________________________
max_pooling2d_158 (MaxPoolin (None, 16, 16, 8)         0         
_________________________________________________________________
conv2d_423 (Conv2D)          (None, 16, 16, 256)       18688     
_________________________________________________________________
batch_normalization_351 (Bat (None, 16, 16, 256)       1024      
_________________________________________________________________
activation_542 (Activation)  (None, 16, 16, 256)       0         
_________________________________________________________________
dropout_542 (Dropout)        (None, 16, 16, 256)       0         
_________________________________________________________________
conv2d_424 (Conv2D)          (None, 16, 16, 16)        36880     
_________________________________________________________________
batch_normalization_352 (Bat (None, 16, 16, 16)        64        
_________________________________________________________________
activation_543 (Activation)  (None, 16, 16, 16)        0         
_________________________________________________________________
dropout_543 (Dropout)        (None, 16, 16, 16)        0         
_________________________________________________________________
conv2d_425 (Conv2D)          (None, 16, 16, 512)       74240     
_________________________________________________________________
batch_normalization_353 (Bat (None, 16, 16, 512)       2048      
_________________________________________________________________
activation_544 (Activation)  (None, 16, 16, 512)       0         
_________________________________________________________________
dropout_544 (Dropout)        (None, 16, 16, 512)       0         
_________________________________________________________________
max_pooling2d_159 (MaxPoolin (None, 8, 8, 512)         0         
_________________________________________________________________
conv2d_426 (Conv2D)          (None, 8, 8, 128)         589952    
_________________________________________________________________
activation_545 (Activation)  (None, 8, 8, 128)         0         
_________________________________________________________________
dropout_545 (Dropout)        (None, 8, 8, 128)         0         
_________________________________________________________________
max_pooling2d_160 (MaxPoolin (None, 4, 4, 128)         0         
_________________________________________________________________
flatten_91 (Flatten)         (None, 2048)              0         
_________________________________________________________________
dense_210 (Dense)            (None, 16)                32784     
_________________________________________________________________
batch_normalization_354 (Bat (None, 16)                64        
_________________________________________________________________
activation_546 (Activation)  (None, 16)                0         
_________________________________________________________________
dropout_546 (Dropout)        (None, 16)                0         
_________________________________________________________________
dense_211 (Dense)            (None, 32)                544       
_________________________________________________________________
batch_normalization_355 (Bat (None, 32)                128       
_________________________________________________________________
activation_547 (Activation)  (None, 32)                0         
_________________________________________________________________
dropout_547 (Dropout)        (None, 32)                0         
_________________________________________________________________
dense_212 (Dense)            (None, 10)                330       
=================================================================
Total params: 863,282
Trainable params: 859,554
Non-trainable params: 3,728
_________________________________________________________________
