Model: "sequential_189"
_________________________________________________________________
Layer (type)                 Output Shape              Param #   
=================================================================
conv2d_909 (Conv2D)          (None, 32, 32, 256)       7168      
_________________________________________________________________
batch_normalization_871 (Bat (None, 32, 32, 256)       1024      
_________________________________________________________________
activation_1196 (Activation) (None, 32, 32, 256)       0         
_________________________________________________________________
dropout_1196 (Dropout)       (None, 32, 32, 256)       0         
_________________________________________________________________
conv2d_910 (Conv2D)          (None, 32, 32, 128)       295040    
_________________________________________________________________
batch_normalization_872 (Bat (None, 32, 32, 128)       512       
_________________________________________________________________
activation_1197 (Activation) (None, 32, 32, 128)       0         
_________________________________________________________________
dropout_1197 (Dropout)       (None, 32, 32, 128)       0         
_________________________________________________________________
conv2d_911 (Conv2D)          (None, 32, 32, 16)        18448     
_________________________________________________________________
batch_normalization_873 (Bat (None, 32, 32, 16)        64        
_________________________________________________________________
activation_1198 (Activation) (None, 32, 32, 16)        0         
_________________________________________________________________
dropout_1198 (Dropout)       (None, 32, 32, 16)        0         
_________________________________________________________________
conv2d_912 (Conv2D)          (None, 32, 32, 512)       74240     
_________________________________________________________________
batch_normalization_874 (Bat (None, 32, 32, 512)       2048      
_________________________________________________________________
activation_1199 (Activation) (None, 32, 32, 512)       0         
_________________________________________________________________
dropout_1199 (Dropout)       (None, 32, 32, 512)       0         
_________________________________________________________________
max_pooling2d_301 (MaxPoolin (None, 16, 16, 512)       0         
_________________________________________________________________
flatten_189 (Flatten)        (None, 131072)            0         
_________________________________________________________________
dense_476 (Dense)            (None, 64)                8388672   
_________________________________________________________________
batch_normalization_875 (Bat (None, 64)                256       
_________________________________________________________________
activation_1200 (Activation) (None, 64)                0         
_________________________________________________________________
dropout_1200 (Dropout)       (None, 64)                0         
_________________________________________________________________
dense_477 (Dense)            (None, 10)                650       
=================================================================
Total params: 8,788,122
Trainable params: 8,786,170
Non-trainable params: 1,952
_________________________________________________________________
