Model: "sequential_20"
_________________________________________________________________
Layer (type)                 Output Shape              Param #   
=================================================================
conv2d_111 (Conv2D)          (None, 32, 32, 1024)      28672     
_________________________________________________________________
batch_normalization_80 (Batc (None, 32, 32, 1024)      4096      
_________________________________________________________________
activation_139 (Activation)  (None, 32, 32, 1024)      0         
_________________________________________________________________
dropout_139 (Dropout)        (None, 32, 32, 1024)      0         
_________________________________________________________________
conv2d_112 (Conv2D)          (None, 32, 32, 8)         73736     
_________________________________________________________________
batch_normalization_81 (Batc (None, 32, 32, 8)         32        
_________________________________________________________________
activation_140 (Activation)  (None, 32, 32, 8)         0         
_________________________________________________________________
dropout_140 (Dropout)        (None, 32, 32, 8)         0         
_________________________________________________________________
max_pooling2d_39 (MaxPooling (None, 16, 16, 8)         0         
_________________________________________________________________
conv2d_113 (Conv2D)          (None, 16, 16, 256)       18688     
_________________________________________________________________
batch_normalization_82 (Batc (None, 16, 16, 256)       1024      
_________________________________________________________________
activation_141 (Activation)  (None, 16, 16, 256)       0         
_________________________________________________________________
dropout_141 (Dropout)        (None, 16, 16, 256)       0         
_________________________________________________________________
conv2d_114 (Conv2D)          (None, 16, 16, 16)        36880     
_________________________________________________________________
batch_normalization_83 (Batc (None, 16, 16, 16)        64        
_________________________________________________________________
activation_142 (Activation)  (None, 16, 16, 16)        0         
_________________________________________________________________
dropout_142 (Dropout)        (None, 16, 16, 16)        0         
_________________________________________________________________
conv2d_115 (Conv2D)          (None, 16, 16, 512)       74240     
_________________________________________________________________
batch_normalization_84 (Batc (None, 16, 16, 512)       2048      
_________________________________________________________________
activation_143 (Activation)  (None, 16, 16, 512)       0         
_________________________________________________________________
dropout_143 (Dropout)        (None, 16, 16, 512)       0         
_________________________________________________________________
max_pooling2d_40 (MaxPooling (None, 8, 8, 512)         0         
_________________________________________________________________
flatten_20 (Flatten)         (None, 32768)             0         
_________________________________________________________________
dense_48 (Dense)             (None, 512)               16777728  
_________________________________________________________________
activation_144 (Activation)  (None, 512)               0         
_________________________________________________________________
dropout_144 (Dropout)        (None, 512)               0         
_________________________________________________________________
dense_49 (Dense)             (None, 64)                32832     
_________________________________________________________________
batch_normalization_85 (Batc (None, 64)                256       
_________________________________________________________________
activation_145 (Activation)  (None, 64)                0         
_________________________________________________________________
dropout_145 (Dropout)        (None, 64)                0         
_________________________________________________________________
dense_50 (Dense)             (None, 10)                650       
=================================================================
Total params: 17,050,946
Trainable params: 17,047,186
Non-trainable params: 3,760
_________________________________________________________________
