Model: "sequential_59"
_________________________________________________________________
Layer (type)                 Output Shape              Param #   
=================================================================
conv2d_289 (Conv2D)          (None, 32, 32, 1024)      28672     
_________________________________________________________________
batch_normalization_232 (Bat (None, 32, 32, 1024)      4096      
_________________________________________________________________
activation_366 (Activation)  (None, 32, 32, 1024)      0         
_________________________________________________________________
dropout_366 (Dropout)        (None, 32, 32, 1024)      0         
_________________________________________________________________
conv2d_290 (Conv2D)          (None, 32, 32, 8)         73736     
_________________________________________________________________
batch_normalization_233 (Bat (None, 32, 32, 8)         32        
_________________________________________________________________
activation_367 (Activation)  (None, 32, 32, 8)         0         
_________________________________________________________________
dropout_367 (Dropout)        (None, 32, 32, 8)         0         
_________________________________________________________________
max_pooling2d_109 (MaxPoolin (None, 16, 16, 8)         0         
_________________________________________________________________
conv2d_291 (Conv2D)          (None, 16, 16, 256)       18688     
_________________________________________________________________
batch_normalization_234 (Bat (None, 16, 16, 256)       1024      
_________________________________________________________________
activation_368 (Activation)  (None, 16, 16, 256)       0         
_________________________________________________________________
dropout_368 (Dropout)        (None, 16, 16, 256)       0         
_________________________________________________________________
conv2d_292 (Conv2D)          (None, 16, 16, 16)        36880     
_________________________________________________________________
batch_normalization_235 (Bat (None, 16, 16, 16)        64        
_________________________________________________________________
activation_369 (Activation)  (None, 16, 16, 16)        0         
_________________________________________________________________
dropout_369 (Dropout)        (None, 16, 16, 16)        0         
_________________________________________________________________
conv2d_293 (Conv2D)          (None, 16, 16, 512)       74240     
_________________________________________________________________
batch_normalization_236 (Bat (None, 16, 16, 512)       2048      
_________________________________________________________________
activation_370 (Activation)  (None, 16, 16, 512)       0         
_________________________________________________________________
dropout_370 (Dropout)        (None, 16, 16, 512)       0         
_________________________________________________________________
max_pooling2d_110 (MaxPoolin (None, 8, 8, 512)         0         
_________________________________________________________________
flatten_59 (Flatten)         (None, 32768)             0         
_________________________________________________________________
dense_136 (Dense)            (None, 512)               16777728  
_________________________________________________________________
activation_371 (Activation)  (None, 512)               0         
_________________________________________________________________
dropout_371 (Dropout)        (None, 512)               0         
_________________________________________________________________
dense_137 (Dense)            (None, 64)                32832     
_________________________________________________________________
batch_normalization_237 (Bat (None, 64)                256       
_________________________________________________________________
activation_372 (Activation)  (None, 64)                0         
_________________________________________________________________
dropout_372 (Dropout)        (None, 64)                0         
_________________________________________________________________
dense_138 (Dense)            (None, 10)                650       
=================================================================
Total params: 17,050,946
Trainable params: 17,047,186
Non-trainable params: 3,760
_________________________________________________________________
