Model: "sequential_139"
_________________________________________________________________
Layer (type)                 Output Shape              Param #   
=================================================================
conv2d_666 (Conv2D)          (None, 32, 32, 256)       7168      
_________________________________________________________________
batch_normalization_595 (Bat (None, 32, 32, 256)       1024      
_________________________________________________________________
activation_864 (Activation)  (None, 32, 32, 256)       0         
_________________________________________________________________
dropout_864 (Dropout)        (None, 32, 32, 256)       0         
_________________________________________________________________
conv2d_667 (Conv2D)          (None, 32, 32, 256)       590080    
_________________________________________________________________
batch_normalization_596 (Bat (None, 32, 32, 256)       1024      
_________________________________________________________________
activation_865 (Activation)  (None, 32, 32, 256)       0         
_________________________________________________________________
dropout_865 (Dropout)        (None, 32, 32, 256)       0         
_________________________________________________________________
conv2d_668 (Conv2D)          (None, 32, 32, 1024)      2360320   
_________________________________________________________________
activation_866 (Activation)  (None, 32, 32, 1024)      0         
_________________________________________________________________
dropout_866 (Dropout)        (None, 32, 32, 1024)      0         
_________________________________________________________________
conv2d_669 (Conv2D)          (None, 32, 32, 512)       4719104   
_________________________________________________________________
batch_normalization_597 (Bat (None, 32, 32, 512)       2048      
_________________________________________________________________
activation_867 (Activation)  (None, 32, 32, 512)       0         
_________________________________________________________________
dropout_867 (Dropout)        (None, 32, 32, 512)       0         
_________________________________________________________________
max_pooling2d_234 (MaxPoolin (None, 16, 16, 512)       0         
_________________________________________________________________
conv2d_670 (Conv2D)          (None, 16, 16, 128)       589952    
_________________________________________________________________
activation_868 (Activation)  (None, 16, 16, 128)       0         
_________________________________________________________________
dropout_868 (Dropout)        (None, 16, 16, 128)       0         
_________________________________________________________________
max_pooling2d_235 (MaxPoolin (None, 8, 8, 128)         0         
_________________________________________________________________
flatten_139 (Flatten)        (None, 8192)              0         
_________________________________________________________________
dense_337 (Dense)            (None, 16)                131088    
_________________________________________________________________
batch_normalization_598 (Bat (None, 16)                64        
_________________________________________________________________
activation_869 (Activation)  (None, 16)                0         
_________________________________________________________________
dropout_869 (Dropout)        (None, 16)                0         
_________________________________________________________________
dense_338 (Dense)            (None, 32)                544       
_________________________________________________________________
batch_normalization_599 (Bat (None, 32)                128       
_________________________________________________________________
activation_870 (Activation)  (None, 32)                0         
_________________________________________________________________
dropout_870 (Dropout)        (None, 32)                0         
_________________________________________________________________
dense_339 (Dense)            (None, 10)                330       
=================================================================
Total params: 8,402,874
Trainable params: 8,400,730
Non-trainable params: 2,144
_________________________________________________________________
