Model: "sequential_128"
_________________________________________________________________
Layer (type)                 Output Shape              Param #   
=================================================================
conv2d_613 (Conv2D)          (None, 32, 32, 256)       7168      
_________________________________________________________________
batch_normalization_538 (Bat (None, 32, 32, 256)       1024      
_________________________________________________________________
activation_792 (Activation)  (None, 32, 32, 256)       0         
_________________________________________________________________
dropout_792 (Dropout)        (None, 32, 32, 256)       0         
_________________________________________________________________
conv2d_614 (Conv2D)          (None, 32, 32, 128)       295040    
_________________________________________________________________
batch_normalization_539 (Bat (None, 32, 32, 128)       512       
_________________________________________________________________
activation_793 (Activation)  (None, 32, 32, 128)       0         
_________________________________________________________________
dropout_793 (Dropout)        (None, 32, 32, 128)       0         
_________________________________________________________________
conv2d_615 (Conv2D)          (None, 32, 32, 16)        18448     
_________________________________________________________________
batch_normalization_540 (Bat (None, 32, 32, 16)        64        
_________________________________________________________________
activation_794 (Activation)  (None, 32, 32, 16)        0         
_________________________________________________________________
dropout_794 (Dropout)        (None, 32, 32, 16)        0         
_________________________________________________________________
conv2d_616 (Conv2D)          (None, 32, 32, 512)       74240     
_________________________________________________________________
batch_normalization_541 (Bat (None, 32, 32, 512)       2048      
_________________________________________________________________
activation_795 (Activation)  (None, 32, 32, 512)       0         
_________________________________________________________________
dropout_795 (Dropout)        (None, 32, 32, 512)       0         
_________________________________________________________________
max_pooling2d_216 (MaxPoolin (None, 16, 16, 512)       0         
_________________________________________________________________
conv2d_617 (Conv2D)          (None, 16, 16, 512)       2359808   
_________________________________________________________________
batch_normalization_542 (Bat (None, 16, 16, 512)       2048      
_________________________________________________________________
activation_796 (Activation)  (None, 16, 16, 512)       0         
_________________________________________________________________
dropout_796 (Dropout)        (None, 16, 16, 512)       0         
_________________________________________________________________
max_pooling2d_217 (MaxPoolin (None, 8, 8, 512)         0         
_________________________________________________________________
flatten_128 (Flatten)        (None, 32768)             0         
_________________________________________________________________
dense_307 (Dense)            (None, 128)               4194432   
_________________________________________________________________
batch_normalization_543 (Bat (None, 128)               512       
_________________________________________________________________
activation_797 (Activation)  (None, 128)               0         
_________________________________________________________________
dropout_797 (Dropout)        (None, 128)               0         
_________________________________________________________________
dense_308 (Dense)            (None, 256)               33024     
_________________________________________________________________
activation_798 (Activation)  (None, 256)               0         
_________________________________________________________________
dropout_798 (Dropout)        (None, 256)               0         
_________________________________________________________________
dense_309 (Dense)            (None, 10)                2570      
=================================================================
Total params: 6,990,938
Trainable params: 6,987,834
Non-trainable params: 3,104
_________________________________________________________________
