Model: "sequential_94"
_________________________________________________________________
Layer (type)                 Output Shape              Param #   
=================================================================
conv2d_439 (Conv2D)          (None, 32, 32, 256)       7168      
_________________________________________________________________
batch_normalization_368 (Bat (None, 32, 32, 256)       1024      
_________________________________________________________________
activation_563 (Activation)  (None, 32, 32, 256)       0         
_________________________________________________________________
dropout_563 (Dropout)        (None, 32, 32, 256)       0         
_________________________________________________________________
conv2d_440 (Conv2D)          (None, 32, 32, 256)       590080    
_________________________________________________________________
batch_normalization_369 (Bat (None, 32, 32, 256)       1024      
_________________________________________________________________
activation_564 (Activation)  (None, 32, 32, 256)       0         
_________________________________________________________________
dropout_564 (Dropout)        (None, 32, 32, 256)       0         
_________________________________________________________________
conv2d_441 (Conv2D)          (None, 32, 32, 1024)      2360320   
_________________________________________________________________
batch_normalization_370 (Bat (None, 32, 32, 1024)      4096      
_________________________________________________________________
activation_565 (Activation)  (None, 32, 32, 1024)      0         
_________________________________________________________________
dropout_565 (Dropout)        (None, 32, 32, 1024)      0         
_________________________________________________________________
conv2d_442 (Conv2D)          (None, 32, 32, 512)       4719104   
_________________________________________________________________
batch_normalization_371 (Bat (None, 32, 32, 512)       2048      
_________________________________________________________________
activation_566 (Activation)  (None, 32, 32, 512)       0         
_________________________________________________________________
dropout_566 (Dropout)        (None, 32, 32, 512)       0         
_________________________________________________________________
max_pooling2d_164 (MaxPoolin (None, 16, 16, 512)       0         
_________________________________________________________________
conv2d_443 (Conv2D)          (None, 16, 16, 128)       589952    
_________________________________________________________________
activation_567 (Activation)  (None, 16, 16, 128)       0         
_________________________________________________________________
dropout_567 (Dropout)        (None, 16, 16, 128)       0         
_________________________________________________________________
max_pooling2d_165 (MaxPoolin (None, 8, 8, 128)         0         
_________________________________________________________________
flatten_94 (Flatten)         (None, 8192)              0         
_________________________________________________________________
dense_218 (Dense)            (None, 16)                131088    
_________________________________________________________________
batch_normalization_372 (Bat (None, 16)                64        
_________________________________________________________________
activation_568 (Activation)  (None, 16)                0         
_________________________________________________________________
dropout_568 (Dropout)        (None, 16)                0         
_________________________________________________________________
dense_219 (Dense)            (None, 32)                544       
_________________________________________________________________
batch_normalization_373 (Bat (None, 32)                128       
_________________________________________________________________
activation_569 (Activation)  (None, 32)                0         
_________________________________________________________________
dropout_569 (Dropout)        (None, 32)                0         
_________________________________________________________________
dense_220 (Dense)            (None, 10)                330       
=================================================================
Total params: 8,406,970
Trainable params: 8,402,778
Non-trainable params: 4,192
_________________________________________________________________
