Model: "sequential_64"
_________________________________________________________________
Layer (type)                 Output Shape              Param #   
=================================================================
conv2d_310 (Conv2D)          (None, 32, 32, 256)       7168      
_________________________________________________________________
batch_normalization_252 (Bat (None, 32, 32, 256)       1024      
_________________________________________________________________
activation_394 (Activation)  (None, 32, 32, 256)       0         
_________________________________________________________________
dropout_394 (Dropout)        (None, 32, 32, 256)       0         
_________________________________________________________________
conv2d_311 (Conv2D)          (None, 32, 32, 8)         18440     
_________________________________________________________________
batch_normalization_253 (Bat (None, 32, 32, 8)         32        
_________________________________________________________________
activation_395 (Activation)  (None, 32, 32, 8)         0         
_________________________________________________________________
dropout_395 (Dropout)        (None, 32, 32, 8)         0         
_________________________________________________________________
conv2d_312 (Conv2D)          (None, 32, 32, 64)        4672      
_________________________________________________________________
activation_396 (Activation)  (None, 32, 32, 64)        0         
_________________________________________________________________
dropout_396 (Dropout)        (None, 32, 32, 64)        0         
_________________________________________________________________
max_pooling2d_115 (MaxPoolin (None, 16, 16, 64)        0         
_________________________________________________________________
flatten_64 (Flatten)         (None, 16384)             0         
_________________________________________________________________
dense_148 (Dense)            (None, 10)                163850    
=================================================================
Total params: 195,186
Trainable params: 194,658
Non-trainable params: 528
_________________________________________________________________
