Model: "sequential_201"
_________________________________________________________________
Layer (type)                 Output Shape              Param #   
=================================================================
conv2d_966 (Conv2D)          (None, 32, 32, 256)       7168      
_________________________________________________________________
batch_normalization_936 (Bat (None, 32, 32, 256)       1024      
_________________________________________________________________
activation_1272 (Activation) (None, 32, 32, 256)       0         
_________________________________________________________________
dropout_1272 (Dropout)       (None, 32, 32, 256)       0         
_________________________________________________________________
conv2d_967 (Conv2D)          (None, 32, 32, 128)       295040    
_________________________________________________________________
batch_normalization_937 (Bat (None, 32, 32, 128)       512       
_________________________________________________________________
activation_1273 (Activation) (None, 32, 32, 128)       0         
_________________________________________________________________
dropout_1273 (Dropout)       (None, 32, 32, 128)       0         
_________________________________________________________________
conv2d_968 (Conv2D)          (None, 32, 32, 16)        18448     
_________________________________________________________________
batch_normalization_938 (Bat (None, 32, 32, 16)        64        
_________________________________________________________________
activation_1274 (Activation) (None, 32, 32, 16)        0         
_________________________________________________________________
dropout_1274 (Dropout)       (None, 32, 32, 16)        0         
_________________________________________________________________
conv2d_969 (Conv2D)          (None, 32, 32, 512)       74240     
_________________________________________________________________
batch_normalization_939 (Bat (None, 32, 32, 512)       2048      
_________________________________________________________________
activation_1275 (Activation) (None, 32, 32, 512)       0         
_________________________________________________________________
dropout_1275 (Dropout)       (None, 32, 32, 512)       0         
_________________________________________________________________
max_pooling2d_319 (MaxPoolin (None, 16, 16, 512)       0         
_________________________________________________________________
flatten_201 (Flatten)        (None, 131072)            0         
_________________________________________________________________
dense_507 (Dense)            (None, 32)                4194336   
_________________________________________________________________
batch_normalization_940 (Bat (None, 32)                128       
_________________________________________________________________
activation_1276 (Activation) (None, 32)                0         
_________________________________________________________________
dropout_1276 (Dropout)       (None, 32)                0         
_________________________________________________________________
dense_508 (Dense)            (None, 10)                330       
=================================================================
Total params: 4,593,338
Trainable params: 4,591,450
Non-trainable params: 1,888
_________________________________________________________________
