Model: "sequential_172"
_________________________________________________________________
Layer (type)                 Output Shape              Param #   
=================================================================
conv2d_827 (Conv2D)          (None, 32, 32, 256)       7168      
_________________________________________________________________
batch_normalization_777 (Bat (None, 32, 32, 256)       1024      
_________________________________________________________________
activation_1085 (Activation) (None, 32, 32, 256)       0         
_________________________________________________________________
dropout_1085 (Dropout)       (None, 32, 32, 256)       0         
_________________________________________________________________
conv2d_828 (Conv2D)          (None, 32, 32, 128)       295040    
_________________________________________________________________
batch_normalization_778 (Bat (None, 32, 32, 128)       512       
_________________________________________________________________
activation_1086 (Activation) (None, 32, 32, 128)       0         
_________________________________________________________________
dropout_1086 (Dropout)       (None, 32, 32, 128)       0         
_________________________________________________________________
conv2d_829 (Conv2D)          (None, 32, 32, 16)        18448     
_________________________________________________________________
batch_normalization_779 (Bat (None, 32, 32, 16)        64        
_________________________________________________________________
activation_1087 (Activation) (None, 32, 32, 16)        0         
_________________________________________________________________
dropout_1087 (Dropout)       (None, 32, 32, 16)        0         
_________________________________________________________________
conv2d_830 (Conv2D)          (None, 32, 32, 512)       74240     
_________________________________________________________________
batch_normalization_780 (Bat (None, 32, 32, 512)       2048      
_________________________________________________________________
activation_1088 (Activation) (None, 32, 32, 512)       0         
_________________________________________________________________
dropout_1088 (Dropout)       (None, 32, 32, 512)       0         
_________________________________________________________________
max_pooling2d_280 (MaxPoolin (None, 16, 16, 512)       0         
_________________________________________________________________
flatten_172 (Flatten)        (None, 131072)            0         
_________________________________________________________________
dense_430 (Dense)            (None, 10)                1310730   
=================================================================
Total params: 1,709,274
Trainable params: 1,707,450
Non-trainable params: 1,824
_________________________________________________________________
