Model: "sequential_54"
_________________________________________________________________
Layer (type)                 Output Shape              Param #   
=================================================================
conv2d_264 (Conv2D)          (None, 32, 32, 1024)      28672     
_________________________________________________________________
batch_normalization_210 (Bat (None, 32, 32, 1024)      4096      
_________________________________________________________________
activation_334 (Activation)  (None, 32, 32, 1024)      0         
_________________________________________________________________
dropout_334 (Dropout)        (None, 32, 32, 1024)      0         
_________________________________________________________________
conv2d_265 (Conv2D)          (None, 32, 32, 128)       1179776   
_________________________________________________________________
batch_normalization_211 (Bat (None, 32, 32, 128)       512       
_________________________________________________________________
activation_335 (Activation)  (None, 32, 32, 128)       0         
_________________________________________________________________
dropout_335 (Dropout)        (None, 32, 32, 128)       0         
_________________________________________________________________
conv2d_266 (Conv2D)          (None, 32, 32, 256)       295168    
_________________________________________________________________
batch_normalization_212 (Bat (None, 32, 32, 256)       1024      
_________________________________________________________________
activation_336 (Activation)  (None, 32, 32, 256)       0         
_________________________________________________________________
dropout_336 (Dropout)        (None, 32, 32, 256)       0         
_________________________________________________________________
max_pooling2d_102 (MaxPoolin (None, 16, 16, 256)       0         
_________________________________________________________________
conv2d_267 (Conv2D)          (None, 16, 16, 256)       590080    
_________________________________________________________________
batch_normalization_213 (Bat (None, 16, 16, 256)       1024      
_________________________________________________________________
activation_337 (Activation)  (None, 16, 16, 256)       0         
_________________________________________________________________
dropout_337 (Dropout)        (None, 16, 16, 256)       0         
_________________________________________________________________
conv2d_268 (Conv2D)          (None, 16, 16, 16)        36880     
_________________________________________________________________
batch_normalization_214 (Bat (None, 16, 16, 16)        64        
_________________________________________________________________
activation_338 (Activation)  (None, 16, 16, 16)        0         
_________________________________________________________________
dropout_338 (Dropout)        (None, 16, 16, 16)        0         
_________________________________________________________________
conv2d_269 (Conv2D)          (None, 16, 16, 512)       74240     
_________________________________________________________________
batch_normalization_215 (Bat (None, 16, 16, 512)       2048      
_________________________________________________________________
activation_339 (Activation)  (None, 16, 16, 512)       0         
_________________________________________________________________
dropout_339 (Dropout)        (None, 16, 16, 512)       0         
_________________________________________________________________
max_pooling2d_103 (MaxPoolin (None, 8, 8, 512)         0         
_________________________________________________________________
conv2d_270 (Conv2D)          (None, 8, 8, 128)         589952    
_________________________________________________________________
activation_340 (Activation)  (None, 8, 8, 128)         0         
_________________________________________________________________
dropout_340 (Dropout)        (None, 8, 8, 128)         0         
_________________________________________________________________
max_pooling2d_104 (MaxPoolin (None, 4, 4, 128)         0         
_________________________________________________________________
flatten_54 (Flatten)         (None, 2048)              0         
_________________________________________________________________
dense_124 (Dense)            (None, 16)                32784     
_________________________________________________________________
batch_normalization_216 (Bat (None, 16)                64        
_________________________________________________________________
activation_341 (Activation)  (None, 16)                0         
_________________________________________________________________
dropout_341 (Dropout)        (None, 16)                0         
_________________________________________________________________
dense_125 (Dense)            (None, 32)                544       
_________________________________________________________________
batch_normalization_217 (Bat (None, 32)                128       
_________________________________________________________________
activation_342 (Activation)  (None, 32)                0         
_________________________________________________________________
dropout_342 (Dropout)        (None, 32)                0         
_________________________________________________________________
dense_126 (Dense)            (None, 10)                330       
=================================================================
Total params: 2,837,386
Trainable params: 2,832,906
Non-trainable params: 4,480
_________________________________________________________________
