Model: "sequential_27"
_________________________________________________________________
Layer (type)                 Output Shape              Param #   
=================================================================
conv2d_144 (Conv2D)          (None, 32, 32, 256)       7168      
_________________________________________________________________
batch_normalization_105 (Bat (None, 32, 32, 256)       1024      
_________________________________________________________________
activation_180 (Activation)  (None, 32, 32, 256)       0         
_________________________________________________________________
dropout_180 (Dropout)        (None, 32, 32, 256)       0         
_________________________________________________________________
conv2d_145 (Conv2D)          (None, 32, 32, 8)         18440     
_________________________________________________________________
activation_181 (Activation)  (None, 32, 32, 8)         0         
_________________________________________________________________
dropout_181 (Dropout)        (None, 32, 32, 8)         0         
_________________________________________________________________
max_pooling2d_51 (MaxPooling (None, 16, 16, 8)         0         
_________________________________________________________________
conv2d_146 (Conv2D)          (None, 16, 16, 1024)      74752     
_________________________________________________________________
batch_normalization_106 (Bat (None, 16, 16, 1024)      4096      
_________________________________________________________________
activation_182 (Activation)  (None, 16, 16, 1024)      0         
_________________________________________________________________
dropout_182 (Dropout)        (None, 16, 16, 1024)      0         
_________________________________________________________________
max_pooling2d_52 (MaxPooling (None, 8, 8, 1024)        0         
_________________________________________________________________
conv2d_147 (Conv2D)          (None, 8, 8, 8)           73736     
_________________________________________________________________
activation_183 (Activation)  (None, 8, 8, 8)           0         
_________________________________________________________________
dropout_183 (Dropout)        (None, 8, 8, 8)           0         
_________________________________________________________________
flatten_27 (Flatten)         (None, 512)               0         
_________________________________________________________________
dense_63 (Dense)             (None, 64)                32832     
_________________________________________________________________
batch_normalization_107 (Bat (None, 64)                256       
_________________________________________________________________
activation_184 (Activation)  (None, 64)                0         
_________________________________________________________________
dropout_184 (Dropout)        (None, 64)                0         
_________________________________________________________________
dense_64 (Dense)             (None, 10)                650       
=================================================================
Total params: 212,954
Trainable params: 210,266
Non-trainable params: 2,688
_________________________________________________________________
