Model: "sequential_5"
_________________________________________________________________
Layer (type)                 Output Shape              Param #   
=================================================================
conv2d_24 (Conv2D)           (None, 32, 32, 1024)      28672     
_________________________________________________________________
batch_normalization_15 (Batc (None, 32, 32, 1024)      4096      
_________________________________________________________________
activation_31 (Activation)   (None, 32, 32, 1024)      0         
_________________________________________________________________
dropout_31 (Dropout)         (None, 32, 32, 1024)      0         
_________________________________________________________________
conv2d_25 (Conv2D)           (None, 32, 32, 8)         73736     
_________________________________________________________________
batch_normalization_16 (Batc (None, 32, 32, 8)         32        
_________________________________________________________________
activation_32 (Activation)   (None, 32, 32, 8)         0         
_________________________________________________________________
dropout_32 (Dropout)         (None, 32, 32, 8)         0         
_________________________________________________________________
max_pooling2d_9 (MaxPooling2 (None, 16, 16, 8)         0         
_________________________________________________________________
conv2d_26 (Conv2D)           (None, 16, 16, 256)       18688     
_________________________________________________________________
batch_normalization_17 (Batc (None, 16, 16, 256)       1024      
_________________________________________________________________
activation_33 (Activation)   (None, 16, 16, 256)       0         
_________________________________________________________________
dropout_33 (Dropout)         (None, 16, 16, 256)       0         
_________________________________________________________________
conv2d_27 (Conv2D)           (None, 16, 16, 16)        36880     
_________________________________________________________________
batch_normalization_18 (Batc (None, 16, 16, 16)        64        
_________________________________________________________________
activation_34 (Activation)   (None, 16, 16, 16)        0         
_________________________________________________________________
dropout_34 (Dropout)         (None, 16, 16, 16)        0         
_________________________________________________________________
conv2d_28 (Conv2D)           (None, 16, 16, 512)       74240     
_________________________________________________________________
batch_normalization_19 (Batc (None, 16, 16, 512)       2048      
_________________________________________________________________
activation_35 (Activation)   (None, 16, 16, 512)       0         
_________________________________________________________________
dropout_35 (Dropout)         (None, 16, 16, 512)       0         
_________________________________________________________________
max_pooling2d_10 (MaxPooling (None, 8, 8, 512)         0         
_________________________________________________________________
conv2d_29 (Conv2D)           (None, 8, 8, 128)         589952    
_________________________________________________________________
activation_36 (Activation)   (None, 8, 8, 128)         0         
_________________________________________________________________
dropout_36 (Dropout)         (None, 8, 8, 128)         0         
_________________________________________________________________
max_pooling2d_11 (MaxPooling (None, 4, 4, 128)         0         
_________________________________________________________________
flatten_5 (Flatten)          (None, 2048)              0         
_________________________________________________________________
dense_12 (Dense)             (None, 16)                32784     
_________________________________________________________________
batch_normalization_20 (Batc (None, 16)                64        
_________________________________________________________________
activation_37 (Activation)   (None, 16)                0         
_________________________________________________________________
dropout_37 (Dropout)         (None, 16)                0         
_________________________________________________________________
dense_13 (Dense)             (None, 32)                544       
_________________________________________________________________
batch_normalization_21 (Batc (None, 32)                128       
_________________________________________________________________
activation_38 (Activation)   (None, 32)                0         
_________________________________________________________________
dropout_38 (Dropout)         (None, 32)                0         
_________________________________________________________________
dense_14 (Dense)             (None, 10)                330       
=================================================================
Total params: 863,282
Trainable params: 859,554
Non-trainable params: 3,728
_________________________________________________________________
