Model: "sequential_26"
_________________________________________________________________
Layer (type)                 Output Shape              Param #   
=================================================================
conv2d_139 (Conv2D)          (None, 32, 32, 256)       7168      
_________________________________________________________________
batch_normalization_101 (Bat (None, 32, 32, 256)       1024      
_________________________________________________________________
activation_174 (Activation)  (None, 32, 32, 256)       0         
_________________________________________________________________
dropout_174 (Dropout)        (None, 32, 32, 256)       0         
_________________________________________________________________
conv2d_140 (Conv2D)          (None, 32, 32, 8)         18440     
_________________________________________________________________
batch_normalization_102 (Bat (None, 32, 32, 8)         32        
_________________________________________________________________
activation_175 (Activation)  (None, 32, 32, 8)         0         
_________________________________________________________________
dropout_175 (Dropout)        (None, 32, 32, 8)         0         
_________________________________________________________________
conv2d_141 (Conv2D)          (None, 32, 32, 64)        4672      
_________________________________________________________________
activation_176 (Activation)  (None, 32, 32, 64)        0         
_________________________________________________________________
dropout_176 (Dropout)        (None, 32, 32, 64)        0         
_________________________________________________________________
max_pooling2d_49 (MaxPooling (None, 16, 16, 64)        0         
_________________________________________________________________
conv2d_142 (Conv2D)          (None, 16, 16, 16)        9232      
_________________________________________________________________
activation_177 (Activation)  (None, 16, 16, 16)        0         
_________________________________________________________________
dropout_177 (Dropout)        (None, 16, 16, 16)        0         
_________________________________________________________________
conv2d_143 (Conv2D)          (None, 16, 16, 32)        4640      
_________________________________________________________________
batch_normalization_103 (Bat (None, 16, 16, 32)        128       
_________________________________________________________________
activation_178 (Activation)  (None, 16, 16, 32)        0         
_________________________________________________________________
dropout_178 (Dropout)        (None, 16, 16, 32)        0         
_________________________________________________________________
max_pooling2d_50 (MaxPooling (None, 8, 8, 32)          0         
_________________________________________________________________
flatten_26 (Flatten)         (None, 2048)              0         
_________________________________________________________________
dense_61 (Dense)             (None, 64)                131136    
_________________________________________________________________
batch_normalization_104 (Bat (None, 64)                256       
_________________________________________________________________
activation_179 (Activation)  (None, 64)                0         
_________________________________________________________________
dropout_179 (Dropout)        (None, 64)                0         
_________________________________________________________________
dense_62 (Dense)             (None, 10)                650       
=================================================================
Total params: 177,378
Trainable params: 176,658
Non-trainable params: 720
_________________________________________________________________
