Model: "sequential_202"
_________________________________________________________________
Layer (type)                 Output Shape              Param #   
=================================================================
conv2d_970 (Conv2D)          (None, 32, 32, 256)       7168      
_________________________________________________________________
batch_normalization_941 (Bat (None, 32, 32, 256)       1024      
_________________________________________________________________
activation_1277 (Activation) (None, 32, 32, 256)       0         
_________________________________________________________________
dropout_1277 (Dropout)       (None, 32, 32, 256)       0         
_________________________________________________________________
conv2d_971 (Conv2D)          (None, 32, 32, 128)       295040    
_________________________________________________________________
batch_normalization_942 (Bat (None, 32, 32, 128)       512       
_________________________________________________________________
activation_1278 (Activation) (None, 32, 32, 128)       0         
_________________________________________________________________
dropout_1278 (Dropout)       (None, 32, 32, 128)       0         
_________________________________________________________________
conv2d_972 (Conv2D)          (None, 32, 32, 16)        18448     
_________________________________________________________________
batch_normalization_943 (Bat (None, 32, 32, 16)        64        
_________________________________________________________________
activation_1279 (Activation) (None, 32, 32, 16)        0         
_________________________________________________________________
dropout_1279 (Dropout)       (None, 32, 32, 16)        0         
_________________________________________________________________
conv2d_973 (Conv2D)          (None, 32, 32, 512)       74240     
_________________________________________________________________
batch_normalization_944 (Bat (None, 32, 32, 512)       2048      
_________________________________________________________________
activation_1280 (Activation) (None, 32, 32, 512)       0         
_________________________________________________________________
dropout_1280 (Dropout)       (None, 32, 32, 512)       0         
_________________________________________________________________
max_pooling2d_320 (MaxPoolin (None, 16, 16, 512)       0         
_________________________________________________________________
flatten_202 (Flatten)        (None, 131072)            0         
_________________________________________________________________
dense_509 (Dense)            (None, 32)                4194336   
_________________________________________________________________
batch_normalization_945 (Bat (None, 32)                128       
_________________________________________________________________
activation_1281 (Activation) (None, 32)                0         
_________________________________________________________________
dropout_1281 (Dropout)       (None, 32)                0         
_________________________________________________________________
dense_510 (Dense)            (None, 10)                330       
=================================================================
Total params: 4,593,338
Trainable params: 4,591,450
Non-trainable params: 1,888
_________________________________________________________________
