Model: "sequential"
_________________________________________________________________
Layer (type)                 Output Shape              Param #   
=================================================================
conv2d (Conv2D)              (None, 32, 32, 64)        1792      
_________________________________________________________________
activation (Activation)      (None, 32, 32, 64)        0         
_________________________________________________________________
dropout (Dropout)            (None, 32, 32, 64)        0         
_________________________________________________________________
max_pooling2d (MaxPooling2D) (None, 16, 16, 64)        0         
_________________________________________________________________
conv2d_1 (Conv2D)            (None, 16, 16, 16)        9232      
_________________________________________________________________
activation_1 (Activation)    (None, 16, 16, 16)        0         
_________________________________________________________________
dropout_1 (Dropout)          (None, 16, 16, 16)        0         
_________________________________________________________________
conv2d_2 (Conv2D)            (None, 16, 16, 128)       18560     
_________________________________________________________________
batch_normalization (BatchNo (None, 16, 16, 128)       512       
_________________________________________________________________
activation_2 (Activation)    (None, 16, 16, 128)       0         
_________________________________________________________________
dropout_2 (Dropout)          (None, 16, 16, 128)       0         
_________________________________________________________________
conv2d_3 (Conv2D)            (None, 16, 16, 64)        73792     
_________________________________________________________________
batch_normalization_1 (Batch (None, 16, 16, 64)        256       
_________________________________________________________________
activation_3 (Activation)    (None, 16, 16, 64)        0         
_________________________________________________________________
dropout_3 (Dropout)          (None, 16, 16, 64)        0         
_________________________________________________________________
flatten (Flatten)            (None, 16384)             0         
_________________________________________________________________
dense (Dense)                (None, 128)               2097280   
_________________________________________________________________
activation_4 (Activation)    (None, 128)               0         
_________________________________________________________________
dropout_4 (Dropout)          (None, 128)               0         
_________________________________________________________________
dense_1 (Dense)              (None, 512)               66048     
_________________________________________________________________
batch_normalization_2 (Batch (None, 512)               2048      
_________________________________________________________________
activation_5 (Activation)    (None, 512)               0         
_________________________________________________________________
dropout_5 (Dropout)          (None, 512)               0         
_________________________________________________________________
dense_2 (Dense)              (None, 10)                5130      
=================================================================
Total params: 2,274,650
Trainable params: 2,273,242
Non-trainable params: 1,408
_________________________________________________________________
