Model: "sequential_142"
_________________________________________________________________
Layer (type)                 Output Shape              Param #   
=================================================================
conv2d_681 (Conv2D)          (None, 32, 32, 256)       7168      
_________________________________________________________________
batch_normalization_611 (Bat (None, 32, 32, 256)       1024      
_________________________________________________________________
activation_885 (Activation)  (None, 32, 32, 256)       0         
_________________________________________________________________
dropout_885 (Dropout)        (None, 32, 32, 256)       0         
_________________________________________________________________
conv2d_682 (Conv2D)          (None, 32, 32, 128)       295040    
_________________________________________________________________
batch_normalization_612 (Bat (None, 32, 32, 128)       512       
_________________________________________________________________
activation_886 (Activation)  (None, 32, 32, 128)       0         
_________________________________________________________________
dropout_886 (Dropout)        (None, 32, 32, 128)       0         
_________________________________________________________________
conv2d_683 (Conv2D)          (None, 32, 32, 16)        18448     
_________________________________________________________________
batch_normalization_613 (Bat (None, 32, 32, 16)        64        
_________________________________________________________________
activation_887 (Activation)  (None, 32, 32, 16)        0         
_________________________________________________________________
dropout_887 (Dropout)        (None, 32, 32, 16)        0         
_________________________________________________________________
conv2d_684 (Conv2D)          (None, 32, 32, 512)       74240     
_________________________________________________________________
batch_normalization_614 (Bat (None, 32, 32, 512)       2048      
_________________________________________________________________
activation_888 (Activation)  (None, 32, 32, 512)       0         
_________________________________________________________________
dropout_888 (Dropout)        (None, 32, 32, 512)       0         
_________________________________________________________________
max_pooling2d_240 (MaxPoolin (None, 16, 16, 512)       0         
_________________________________________________________________
flatten_142 (Flatten)        (None, 131072)            0         
_________________________________________________________________
dense_346 (Dense)            (None, 512)               67109376  
_________________________________________________________________
activation_889 (Activation)  (None, 512)               0         
_________________________________________________________________
dropout_889 (Dropout)        (None, 512)               0         
_________________________________________________________________
dense_347 (Dense)            (None, 64)                32832     
_________________________________________________________________
batch_normalization_615 (Bat (None, 64)                256       
_________________________________________________________________
activation_890 (Activation)  (None, 64)                0         
_________________________________________________________________
dropout_890 (Dropout)        (None, 64)                0         
_________________________________________________________________
dense_348 (Dense)            (None, 10)                650       
=================================================================
Total params: 67,541,658
Trainable params: 67,539,706
Non-trainable params: 1,952
_________________________________________________________________
