Model: "sequential_183"
_________________________________________________________________
Layer (type)                 Output Shape              Param #   
=================================================================
conv2d_880 (Conv2D)          (None, 32, 32, 256)       7168      
_________________________________________________________________
batch_normalization_836 (Bat (None, 32, 32, 256)       1024      
_________________________________________________________________
activation_1156 (Activation) (None, 32, 32, 256)       0         
_________________________________________________________________
dropout_1156 (Dropout)       (None, 32, 32, 256)       0         
_________________________________________________________________
conv2d_881 (Conv2D)          (None, 32, 32, 128)       295040    
_________________________________________________________________
batch_normalization_837 (Bat (None, 32, 32, 128)       512       
_________________________________________________________________
activation_1157 (Activation) (None, 32, 32, 128)       0         
_________________________________________________________________
dropout_1157 (Dropout)       (None, 32, 32, 128)       0         
_________________________________________________________________
conv2d_882 (Conv2D)          (None, 32, 32, 16)        18448     
_________________________________________________________________
batch_normalization_838 (Bat (None, 32, 32, 16)        64        
_________________________________________________________________
activation_1158 (Activation) (None, 32, 32, 16)        0         
_________________________________________________________________
dropout_1158 (Dropout)       (None, 32, 32, 16)        0         
_________________________________________________________________
conv2d_883 (Conv2D)          (None, 32, 32, 512)       74240     
_________________________________________________________________
batch_normalization_839 (Bat (None, 32, 32, 512)       2048      
_________________________________________________________________
activation_1159 (Activation) (None, 32, 32, 512)       0         
_________________________________________________________________
dropout_1159 (Dropout)       (None, 32, 32, 512)       0         
_________________________________________________________________
max_pooling2d_294 (MaxPoolin (None, 16, 16, 512)       0         
_________________________________________________________________
flatten_183 (Flatten)        (None, 131072)            0         
_________________________________________________________________
dense_459 (Dense)            (None, 16)                2097168   
_________________________________________________________________
batch_normalization_840 (Bat (None, 16)                64        
_________________________________________________________________
activation_1160 (Activation) (None, 16)                0         
_________________________________________________________________
dropout_1160 (Dropout)       (None, 16)                0         
_________________________________________________________________
dense_460 (Dense)            (None, 32)                544       
_________________________________________________________________
batch_normalization_841 (Bat (None, 32)                128       
_________________________________________________________________
activation_1161 (Activation) (None, 32)                0         
_________________________________________________________________
dropout_1161 (Dropout)       (None, 32)                0         
_________________________________________________________________
dense_461 (Dense)            (None, 10)                330       
=================================================================
Total params: 2,496,778
Trainable params: 2,494,858
Non-trainable params: 1,920
_________________________________________________________________
