Model: "sequential_176"
_________________________________________________________________
Layer (type)                 Output Shape              Param #   
=================================================================
conv2d_844 (Conv2D)          (None, 32, 32, 256)       7168      
_________________________________________________________________
batch_normalization_797 (Bat (None, 32, 32, 256)       1024      
_________________________________________________________________
activation_1106 (Activation) (None, 32, 32, 256)       0         
_________________________________________________________________
dropout_1106 (Dropout)       (None, 32, 32, 256)       0         
_________________________________________________________________
conv2d_845 (Conv2D)          (None, 32, 32, 256)       590080    
_________________________________________________________________
batch_normalization_798 (Bat (None, 32, 32, 256)       1024      
_________________________________________________________________
activation_1107 (Activation) (None, 32, 32, 256)       0         
_________________________________________________________________
dropout_1107 (Dropout)       (None, 32, 32, 256)       0         
_________________________________________________________________
conv2d_846 (Conv2D)          (None, 32, 32, 1024)      2360320   
_________________________________________________________________
batch_normalization_799 (Bat (None, 32, 32, 1024)      4096      
_________________________________________________________________
activation_1108 (Activation) (None, 32, 32, 1024)      0         
_________________________________________________________________
dropout_1108 (Dropout)       (None, 32, 32, 1024)      0         
_________________________________________________________________
conv2d_847 (Conv2D)          (None, 32, 32, 512)       4719104   
_________________________________________________________________
batch_normalization_800 (Bat (None, 32, 32, 512)       2048      
_________________________________________________________________
activation_1109 (Activation) (None, 32, 32, 512)       0         
_________________________________________________________________
dropout_1109 (Dropout)       (None, 32, 32, 512)       0         
_________________________________________________________________
max_pooling2d_285 (MaxPoolin (None, 16, 16, 512)       0         
_________________________________________________________________
conv2d_848 (Conv2D)          (None, 16, 16, 128)       589952    
_________________________________________________________________
activation_1110 (Activation) (None, 16, 16, 128)       0         
_________________________________________________________________
dropout_1110 (Dropout)       (None, 16, 16, 128)       0         
_________________________________________________________________
max_pooling2d_286 (MaxPoolin (None, 8, 8, 128)         0         
_________________________________________________________________
flatten_176 (Flatten)        (None, 8192)              0         
_________________________________________________________________
dense_438 (Dense)            (None, 512)               4194816   
_________________________________________________________________
activation_1111 (Activation) (None, 512)               0         
_________________________________________________________________
dropout_1111 (Dropout)       (None, 512)               0         
_________________________________________________________________
dense_439 (Dense)            (None, 64)                32832     
_________________________________________________________________
batch_normalization_801 (Bat (None, 64)                256       
_________________________________________________________________
activation_1112 (Activation) (None, 64)                0         
_________________________________________________________________
dropout_1112 (Dropout)       (None, 64)                0         
_________________________________________________________________
dense_440 (Dense)            (None, 10)                650       
=================================================================
Total params: 12,503,370
Trainable params: 12,499,146
Non-trainable params: 4,224
_________________________________________________________________
