Model: "sequential_84"
_________________________________________________________________
Layer (type)                 Output Shape              Param #   
=================================================================
conv2d_392 (Conv2D)          (None, 32, 32, 256)       7168      
_________________________________________________________________
batch_normalization_321 (Bat (None, 32, 32, 256)       1024      
_________________________________________________________________
activation_499 (Activation)  (None, 32, 32, 256)       0         
_________________________________________________________________
dropout_499 (Dropout)        (None, 32, 32, 256)       0         
_________________________________________________________________
conv2d_393 (Conv2D)          (None, 32, 32, 128)       295040    
_________________________________________________________________
batch_normalization_322 (Bat (None, 32, 32, 128)       512       
_________________________________________________________________
activation_500 (Activation)  (None, 32, 32, 128)       0         
_________________________________________________________________
dropout_500 (Dropout)        (None, 32, 32, 128)       0         
_________________________________________________________________
conv2d_394 (Conv2D)          (None, 32, 32, 16)        18448     
_________________________________________________________________
batch_normalization_323 (Bat (None, 32, 32, 16)        64        
_________________________________________________________________
activation_501 (Activation)  (None, 32, 32, 16)        0         
_________________________________________________________________
dropout_501 (Dropout)        (None, 32, 32, 16)        0         
_________________________________________________________________
conv2d_395 (Conv2D)          (None, 32, 32, 512)       74240     
_________________________________________________________________
batch_normalization_324 (Bat (None, 32, 32, 512)       2048      
_________________________________________________________________
activation_502 (Activation)  (None, 32, 32, 512)       0         
_________________________________________________________________
dropout_502 (Dropout)        (None, 32, 32, 512)       0         
_________________________________________________________________
max_pooling2d_147 (MaxPoolin (None, 16, 16, 512)       0         
_________________________________________________________________
flatten_84 (Flatten)         (None, 131072)            0         
_________________________________________________________________
dense_191 (Dense)            (None, 512)               67109376  
_________________________________________________________________
activation_503 (Activation)  (None, 512)               0         
_________________________________________________________________
dropout_503 (Dropout)        (None, 512)               0         
_________________________________________________________________
dense_192 (Dense)            (None, 64)                32832     
_________________________________________________________________
batch_normalization_325 (Bat (None, 64)                256       
_________________________________________________________________
activation_504 (Activation)  (None, 64)                0         
_________________________________________________________________
dropout_504 (Dropout)        (None, 64)                0         
_________________________________________________________________
dense_193 (Dense)            (None, 10)                650       
=================================================================
Total params: 67,541,658
Trainable params: 67,539,706
Non-trainable params: 1,952
_________________________________________________________________
