Model: "sequential_62"
_________________________________________________________________
Layer (type)                 Output Shape              Param #   
=================================================================
conv2d_301 (Conv2D)          (None, 32, 32, 1024)      28672     
_________________________________________________________________
batch_normalization_244 (Bat (None, 32, 32, 1024)      4096      
_________________________________________________________________
activation_383 (Activation)  (None, 32, 32, 1024)      0         
_________________________________________________________________
dropout_383 (Dropout)        (None, 32, 32, 1024)      0         
_________________________________________________________________
conv2d_302 (Conv2D)          (None, 32, 32, 8)         73736     
_________________________________________________________________
batch_normalization_245 (Bat (None, 32, 32, 8)         32        
_________________________________________________________________
activation_384 (Activation)  (None, 32, 32, 8)         0         
_________________________________________________________________
dropout_384 (Dropout)        (None, 32, 32, 8)         0         
_________________________________________________________________
max_pooling2d_113 (MaxPoolin (None, 16, 16, 8)         0         
_________________________________________________________________
conv2d_303 (Conv2D)          (None, 16, 16, 256)       18688     
_________________________________________________________________
batch_normalization_246 (Bat (None, 16, 16, 256)       1024      
_________________________________________________________________
activation_385 (Activation)  (None, 16, 16, 256)       0         
_________________________________________________________________
dropout_385 (Dropout)        (None, 16, 16, 256)       0         
_________________________________________________________________
conv2d_304 (Conv2D)          (None, 16, 16, 16)        36880     
_________________________________________________________________
batch_normalization_247 (Bat (None, 16, 16, 16)        64        
_________________________________________________________________
activation_386 (Activation)  (None, 16, 16, 16)        0         
_________________________________________________________________
dropout_386 (Dropout)        (None, 16, 16, 16)        0         
_________________________________________________________________
conv2d_305 (Conv2D)          (None, 16, 16, 512)       74240     
_________________________________________________________________
batch_normalization_248 (Bat (None, 16, 16, 512)       2048      
_________________________________________________________________
activation_387 (Activation)  (None, 16, 16, 512)       0         
_________________________________________________________________
dropout_387 (Dropout)        (None, 16, 16, 512)       0         
_________________________________________________________________
conv2d_306 (Conv2D)          (None, 16, 16, 16)        73744     
_________________________________________________________________
activation_388 (Activation)  (None, 16, 16, 16)        0         
_________________________________________________________________
dropout_388 (Dropout)        (None, 16, 16, 16)        0         
_________________________________________________________________
flatten_62 (Flatten)         (None, 4096)              0         
_________________________________________________________________
dense_144 (Dense)            (None, 16)                65552     
_________________________________________________________________
activation_389 (Activation)  (None, 16)                0         
_________________________________________________________________
dropout_389 (Dropout)        (None, 16)                0         
_________________________________________________________________
dense_145 (Dense)            (None, 10)                170       
=================================================================
Total params: 378,946
Trainable params: 375,314
Non-trainable params: 3,632
_________________________________________________________________
