Model: "sequential_34"
_________________________________________________________________
Layer (type)                 Output Shape              Param #   
=================================================================
conv2d_174 (Conv2D)          (None, 32, 32, 8)         224       
_________________________________________________________________
batch_normalization_131 (Bat (None, 32, 32, 8)         32        
_________________________________________________________________
activation_219 (Activation)  (None, 32, 32, 8)         0         
_________________________________________________________________
dropout_219 (Dropout)        (None, 32, 32, 8)         0         
_________________________________________________________________
conv2d_175 (Conv2D)          (None, 32, 32, 32)        2336      
_________________________________________________________________
batch_normalization_132 (Bat (None, 32, 32, 32)        128       
_________________________________________________________________
activation_220 (Activation)  (None, 32, 32, 32)        0         
_________________________________________________________________
dropout_220 (Dropout)        (None, 32, 32, 32)        0         
_________________________________________________________________
max_pooling2d_66 (MaxPooling (None, 16, 16, 32)        0         
_________________________________________________________________
conv2d_176 (Conv2D)          (None, 16, 16, 1024)      295936    
_________________________________________________________________
batch_normalization_133 (Bat (None, 16, 16, 1024)      4096      
_________________________________________________________________
activation_221 (Activation)  (None, 16, 16, 1024)      0         
_________________________________________________________________
dropout_221 (Dropout)        (None, 16, 16, 1024)      0         
_________________________________________________________________
max_pooling2d_67 (MaxPooling (None, 8, 8, 1024)        0         
_________________________________________________________________
flatten_34 (Flatten)         (None, 65536)             0         
_________________________________________________________________
dense_79 (Dense)             (None, 10)                655370    
=================================================================
Total params: 958,122
Trainable params: 955,994
Non-trainable params: 2,128
_________________________________________________________________
