Model: "sequential_60"
_________________________________________________________________
Layer (type)                 Output Shape              Param #   
=================================================================
conv2d_294 (Conv2D)          (None, 32, 32, 256)       7168      
_________________________________________________________________
activation_373 (Activation)  (None, 32, 32, 256)       0         
_________________________________________________________________
dropout_373 (Dropout)        (None, 32, 32, 256)       0         
_________________________________________________________________
conv2d_295 (Conv2D)          (None, 32, 32, 8)         18440     
_________________________________________________________________
activation_374 (Activation)  (None, 32, 32, 8)         0         
_________________________________________________________________
dropout_374 (Dropout)        (None, 32, 32, 8)         0         
_________________________________________________________________
max_pooling2d_111 (MaxPoolin (None, 16, 16, 8)         0         
_________________________________________________________________
conv2d_296 (Conv2D)          (None, 16, 16, 1024)      74752     
_________________________________________________________________
batch_normalization_238 (Bat (None, 16, 16, 1024)      4096      
_________________________________________________________________
activation_375 (Activation)  (None, 16, 16, 1024)      0         
_________________________________________________________________
dropout_375 (Dropout)        (None, 16, 16, 1024)      0         
_________________________________________________________________
max_pooling2d_112 (MaxPoolin (None, 8, 8, 1024)        0         
_________________________________________________________________
conv2d_297 (Conv2D)          (None, 8, 8, 8)           73736     
_________________________________________________________________
activation_376 (Activation)  (None, 8, 8, 8)           0         
_________________________________________________________________
dropout_376 (Dropout)        (None, 8, 8, 8)           0         
_________________________________________________________________
flatten_60 (Flatten)         (None, 512)               0         
_________________________________________________________________
dense_139 (Dense)            (None, 64)                32832     
_________________________________________________________________
batch_normalization_239 (Bat (None, 64)                256       
_________________________________________________________________
activation_377 (Activation)  (None, 64)                0         
_________________________________________________________________
dropout_377 (Dropout)        (None, 64)                0         
_________________________________________________________________
dense_140 (Dense)            (None, 10)                650       
=================================================================
Total params: 211,930
Trainable params: 209,754
Non-trainable params: 2,176
_________________________________________________________________
