Model: "sequential_44"
_________________________________________________________________
Layer (type)                 Output Shape              Param #   
=================================================================
conv2d_224 (Conv2D)          (None, 32, 32, 512)       14336     
_________________________________________________________________
activation_282 (Activation)  (None, 32, 32, 512)       0         
_________________________________________________________________
dropout_282 (Dropout)        (None, 32, 32, 512)       0         
_________________________________________________________________
conv2d_225 (Conv2D)          (None, 32, 32, 128)       589952    
_________________________________________________________________
batch_normalization_180 (Bat (None, 32, 32, 128)       512       
_________________________________________________________________
activation_283 (Activation)  (None, 32, 32, 128)       0         
_________________________________________________________________
dropout_283 (Dropout)        (None, 32, 32, 128)       0         
_________________________________________________________________
conv2d_226 (Conv2D)          (None, 32, 32, 256)       295168    
_________________________________________________________________
batch_normalization_181 (Bat (None, 32, 32, 256)       1024      
_________________________________________________________________
activation_284 (Activation)  (None, 32, 32, 256)       0         
_________________________________________________________________
dropout_284 (Dropout)        (None, 32, 32, 256)       0         
_________________________________________________________________
max_pooling2d_84 (MaxPooling (None, 16, 16, 256)       0         
_________________________________________________________________
conv2d_227 (Conv2D)          (None, 16, 16, 64)        147520    
_________________________________________________________________
activation_285 (Activation)  (None, 16, 16, 64)        0         
_________________________________________________________________
dropout_285 (Dropout)        (None, 16, 16, 64)        0         
_________________________________________________________________
max_pooling2d_85 (MaxPooling (None, 8, 8, 64)          0         
_________________________________________________________________
conv2d_228 (Conv2D)          (None, 8, 8, 16)          9232      
_________________________________________________________________
activation_286 (Activation)  (None, 8, 8, 16)          0         
_________________________________________________________________
dropout_286 (Dropout)        (None, 8, 8, 16)          0         
_________________________________________________________________
flatten_44 (Flatten)         (None, 1024)              0         
_________________________________________________________________
dense_102 (Dense)            (None, 16)                16400     
_________________________________________________________________
activation_287 (Activation)  (None, 16)                0         
_________________________________________________________________
dropout_287 (Dropout)        (None, 16)                0         
_________________________________________________________________
dense_103 (Dense)            (None, 10)                170       
=================================================================
Total params: 1,074,314
Trainable params: 1,073,546
Non-trainable params: 768
_________________________________________________________________
