Model: "sequential_170"
_________________________________________________________________
Layer (type)                 Output Shape              Param #   
=================================================================
conv2d_816 (Conv2D)          (None, 32, 32, 256)       7168      
_________________________________________________________________
batch_normalization_765 (Bat (None, 32, 32, 256)       1024      
_________________________________________________________________
activation_1070 (Activation) (None, 32, 32, 256)       0         
_________________________________________________________________
dropout_1070 (Dropout)       (None, 32, 32, 256)       0         
_________________________________________________________________
conv2d_817 (Conv2D)          (None, 32, 32, 256)       590080    
_________________________________________________________________
batch_normalization_766 (Bat (None, 32, 32, 256)       1024      
_________________________________________________________________
activation_1071 (Activation) (None, 32, 32, 256)       0         
_________________________________________________________________
dropout_1071 (Dropout)       (None, 32, 32, 256)       0         
_________________________________________________________________
conv2d_818 (Conv2D)          (None, 32, 32, 1024)      2360320   
_________________________________________________________________
batch_normalization_767 (Bat (None, 32, 32, 1024)      4096      
_________________________________________________________________
activation_1072 (Activation) (None, 32, 32, 1024)      0         
_________________________________________________________________
dropout_1072 (Dropout)       (None, 32, 32, 1024)      0         
_________________________________________________________________
conv2d_819 (Conv2D)          (None, 32, 32, 512)       4719104   
_________________________________________________________________
batch_normalization_768 (Bat (None, 32, 32, 512)       2048      
_________________________________________________________________
activation_1073 (Activation) (None, 32, 32, 512)       0         
_________________________________________________________________
dropout_1073 (Dropout)       (None, 32, 32, 512)       0         
_________________________________________________________________
conv2d_820 (Conv2D)          (None, 32, 32, 64)        294976    
_________________________________________________________________
activation_1074 (Activation) (None, 32, 32, 64)        0         
_________________________________________________________________
dropout_1074 (Dropout)       (None, 32, 32, 64)        0         
_________________________________________________________________
conv2d_821 (Conv2D)          (None, 32, 32, 512)       295424    
_________________________________________________________________
batch_normalization_769 (Bat (None, 32, 32, 512)       2048      
_________________________________________________________________
activation_1075 (Activation) (None, 32, 32, 512)       0         
_________________________________________________________________
dropout_1075 (Dropout)       (None, 32, 32, 512)       0         
_________________________________________________________________
max_pooling2d_277 (MaxPoolin (None, 16, 16, 512)       0         
_________________________________________________________________
flatten_170 (Flatten)        (None, 131072)            0         
_________________________________________________________________
dense_424 (Dense)            (None, 128)               16777344  
_________________________________________________________________
batch_normalization_770 (Bat (None, 128)               512       
_________________________________________________________________
activation_1076 (Activation) (None, 128)               0         
_________________________________________________________________
dropout_1076 (Dropout)       (None, 128)               0         
_________________________________________________________________
dense_425 (Dense)            (None, 256)               33024     
_________________________________________________________________
activation_1077 (Activation) (None, 256)               0         
_________________________________________________________________
dropout_1077 (Dropout)       (None, 256)               0         
_________________________________________________________________
dense_426 (Dense)            (None, 10)                2570      
=================================================================
Total params: 25,090,762
Trainable params: 25,085,386
Non-trainable params: 5,376
_________________________________________________________________
