Model: "sequential_144"
_________________________________________________________________
Layer (type)                 Output Shape              Param #   
=================================================================
conv2d_689 (Conv2D)          (None, 32, 32, 256)       7168      
_________________________________________________________________
batch_normalization_621 (Bat (None, 32, 32, 256)       1024      
_________________________________________________________________
activation_897 (Activation)  (None, 32, 32, 256)       0         
_________________________________________________________________
dropout_897 (Dropout)        (None, 32, 32, 256)       0         
_________________________________________________________________
conv2d_690 (Conv2D)          (None, 32, 32, 256)       590080    
_________________________________________________________________
batch_normalization_622 (Bat (None, 32, 32, 256)       1024      
_________________________________________________________________
activation_898 (Activation)  (None, 32, 32, 256)       0         
_________________________________________________________________
dropout_898 (Dropout)        (None, 32, 32, 256)       0         
_________________________________________________________________
conv2d_691 (Conv2D)          (None, 32, 32, 1024)      2360320   
_________________________________________________________________
batch_normalization_623 (Bat (None, 32, 32, 1024)      4096      
_________________________________________________________________
activation_899 (Activation)  (None, 32, 32, 1024)      0         
_________________________________________________________________
dropout_899 (Dropout)        (None, 32, 32, 1024)      0         
_________________________________________________________________
conv2d_692 (Conv2D)          (None, 32, 32, 512)       4719104   
_________________________________________________________________
batch_normalization_624 (Bat (None, 32, 32, 512)       2048      
_________________________________________________________________
activation_900 (Activation)  (None, 32, 32, 512)       0         
_________________________________________________________________
dropout_900 (Dropout)        (None, 32, 32, 512)       0         
_________________________________________________________________
max_pooling2d_242 (MaxPoolin (None, 16, 16, 512)       0         
_________________________________________________________________
flatten_144 (Flatten)        (None, 131072)            0         
_________________________________________________________________
dense_352 (Dense)            (None, 512)               67109376  
_________________________________________________________________
activation_901 (Activation)  (None, 512)               0         
_________________________________________________________________
dropout_901 (Dropout)        (None, 512)               0         
_________________________________________________________________
dense_353 (Dense)            (None, 64)                32832     
_________________________________________________________________
batch_normalization_625 (Bat (None, 64)                256       
_________________________________________________________________
activation_902 (Activation)  (None, 64)                0         
_________________________________________________________________
dropout_902 (Dropout)        (None, 64)                0         
_________________________________________________________________
dense_354 (Dense)            (None, 10)                650       
=================================================================
Total params: 74,827,978
Trainable params: 74,823,754
Non-trainable params: 4,224
_________________________________________________________________
