Model: "sequential_14"
_________________________________________________________________
Layer (type)                 Output Shape              Param #   
=================================================================
conv2d_80 (Conv2D)           (None, 32, 32, 256)       7168      
_________________________________________________________________
batch_normalization_61 (Batc (None, 32, 32, 256)       1024      
_________________________________________________________________
activation_101 (Activation)  (None, 32, 32, 256)       0         
_________________________________________________________________
dropout_101 (Dropout)        (None, 32, 32, 256)       0         
_________________________________________________________________
conv2d_81 (Conv2D)           (None, 32, 32, 8)         18440     
_________________________________________________________________
batch_normalization_62 (Batc (None, 32, 32, 8)         32        
_________________________________________________________________
activation_102 (Activation)  (None, 32, 32, 8)         0         
_________________________________________________________________
dropout_102 (Dropout)        (None, 32, 32, 8)         0         
_________________________________________________________________
conv2d_82 (Conv2D)           (None, 32, 32, 64)        4672      
_________________________________________________________________
activation_103 (Activation)  (None, 32, 32, 64)        0         
_________________________________________________________________
dropout_103 (Dropout)        (None, 32, 32, 64)        0         
_________________________________________________________________
max_pooling2d_28 (MaxPooling (None, 16, 16, 64)        0         
_________________________________________________________________
conv2d_83 (Conv2D)           (None, 16, 16, 16)        9232      
_________________________________________________________________
activation_104 (Activation)  (None, 16, 16, 16)        0         
_________________________________________________________________
dropout_104 (Dropout)        (None, 16, 16, 16)        0         
_________________________________________________________________
conv2d_84 (Conv2D)           (None, 16, 16, 32)        4640      
_________________________________________________________________
batch_normalization_63 (Batc (None, 16, 16, 32)        128       
_________________________________________________________________
activation_105 (Activation)  (None, 16, 16, 32)        0         
_________________________________________________________________
dropout_105 (Dropout)        (None, 16, 16, 32)        0         
_________________________________________________________________
max_pooling2d_29 (MaxPooling (None, 8, 8, 32)          0         
_________________________________________________________________
flatten_14 (Flatten)         (None, 2048)              0         
_________________________________________________________________
dense_35 (Dense)             (None, 64)                131136    
_________________________________________________________________
batch_normalization_64 (Batc (None, 64)                256       
_________________________________________________________________
activation_106 (Activation)  (None, 64)                0         
_________________________________________________________________
dropout_106 (Dropout)        (None, 64)                0         
_________________________________________________________________
dense_36 (Dense)             (None, 10)                650       
=================================================================
Total params: 177,378
Trainable params: 176,658
Non-trainable params: 720
_________________________________________________________________
