Model: "sequential_18"
_________________________________________________________________
Layer (type)                 Output Shape              Param #   
=================================================================
conv2d_101 (Conv2D)          (None, 32, 32, 64)        1792      
_________________________________________________________________
batch_normalization_74 (Batc (None, 32, 32, 64)        256       
_________________________________________________________________
activation_127 (Activation)  (None, 32, 32, 64)        0         
_________________________________________________________________
dropout_127 (Dropout)        (None, 32, 32, 64)        0         
_________________________________________________________________
conv2d_102 (Conv2D)          (None, 32, 32, 1024)      590848    
_________________________________________________________________
batch_normalization_75 (Batc (None, 32, 32, 1024)      4096      
_________________________________________________________________
activation_128 (Activation)  (None, 32, 32, 1024)      0         
_________________________________________________________________
dropout_128 (Dropout)        (None, 32, 32, 1024)      0         
_________________________________________________________________
max_pooling2d_34 (MaxPooling (None, 16, 16, 1024)      0         
_________________________________________________________________
conv2d_103 (Conv2D)          (None, 16, 16, 512)       4719104   
_________________________________________________________________
activation_129 (Activation)  (None, 16, 16, 512)       0         
_________________________________________________________________
dropout_129 (Dropout)        (None, 16, 16, 512)       0         
_________________________________________________________________
conv2d_104 (Conv2D)          (None, 16, 16, 1024)      4719616   
_________________________________________________________________
batch_normalization_76 (Batc (None, 16, 16, 1024)      4096      
_________________________________________________________________
activation_130 (Activation)  (None, 16, 16, 1024)      0         
_________________________________________________________________
dropout_130 (Dropout)        (None, 16, 16, 1024)      0         
_________________________________________________________________
max_pooling2d_35 (MaxPooling (None, 8, 8, 1024)        0         
_________________________________________________________________
flatten_18 (Flatten)         (None, 65536)             0         
_________________________________________________________________
dense_44 (Dense)             (None, 10)                655370    
=================================================================
Total params: 10,695,178
Trainable params: 10,690,954
Non-trainable params: 4,224
_________________________________________________________________
