Model: "sequential_96"
_________________________________________________________________
Layer (type)                 Output Shape              Param #   
=================================================================
conv2d_450 (Conv2D)          (None, 32, 32, 256)       7168      
_________________________________________________________________
batch_normalization_379 (Bat (None, 32, 32, 256)       1024      
_________________________________________________________________
activation_577 (Activation)  (None, 32, 32, 256)       0         
_________________________________________________________________
dropout_577 (Dropout)        (None, 32, 32, 256)       0         
_________________________________________________________________
conv2d_451 (Conv2D)          (None, 32, 32, 256)       590080    
_________________________________________________________________
batch_normalization_380 (Bat (None, 32, 32, 256)       1024      
_________________________________________________________________
activation_578 (Activation)  (None, 32, 32, 256)       0         
_________________________________________________________________
dropout_578 (Dropout)        (None, 32, 32, 256)       0         
_________________________________________________________________
conv2d_452 (Conv2D)          (None, 32, 32, 1024)      2360320   
_________________________________________________________________
batch_normalization_381 (Bat (None, 32, 32, 1024)      4096      
_________________________________________________________________
activation_579 (Activation)  (None, 32, 32, 1024)      0         
_________________________________________________________________
dropout_579 (Dropout)        (None, 32, 32, 1024)      0         
_________________________________________________________________
conv2d_453 (Conv2D)          (None, 32, 32, 512)       4719104   
_________________________________________________________________
batch_normalization_382 (Bat (None, 32, 32, 512)       2048      
_________________________________________________________________
activation_580 (Activation)  (None, 32, 32, 512)       0         
_________________________________________________________________
dropout_580 (Dropout)        (None, 32, 32, 512)       0         
_________________________________________________________________
conv2d_454 (Conv2D)          (None, 32, 32, 64)        294976    
_________________________________________________________________
activation_581 (Activation)  (None, 32, 32, 64)        0         
_________________________________________________________________
dropout_581 (Dropout)        (None, 32, 32, 64)        0         
_________________________________________________________________
conv2d_455 (Conv2D)          (None, 32, 32, 512)       295424    
_________________________________________________________________
batch_normalization_383 (Bat (None, 32, 32, 512)       2048      
_________________________________________________________________
activation_582 (Activation)  (None, 32, 32, 512)       0         
_________________________________________________________________
dropout_582 (Dropout)        (None, 32, 32, 512)       0         
_________________________________________________________________
max_pooling2d_167 (MaxPoolin (None, 16, 16, 512)       0         
_________________________________________________________________
flatten_96 (Flatten)         (None, 131072)            0         
_________________________________________________________________
dense_223 (Dense)            (None, 128)               16777344  
_________________________________________________________________
batch_normalization_384 (Bat (None, 128)               512       
_________________________________________________________________
activation_583 (Activation)  (None, 128)               0         
_________________________________________________________________
dropout_583 (Dropout)        (None, 128)               0         
_________________________________________________________________
dense_224 (Dense)            (None, 256)               33024     
_________________________________________________________________
activation_584 (Activation)  (None, 256)               0         
_________________________________________________________________
dropout_584 (Dropout)        (None, 256)               0         
_________________________________________________________________
dense_225 (Dense)            (None, 10)                2570      
=================================================================
Total params: 25,090,762
Trainable params: 25,085,386
Non-trainable params: 5,376
_________________________________________________________________
