Model: "sequential_6"
_________________________________________________________________
Layer (type)                 Output Shape              Param #   
=================================================================
conv2d_30 (Conv2D)           (None, 32, 32, 256)       7168      
_________________________________________________________________
activation_39 (Activation)   (None, 32, 32, 256)       0         
_________________________________________________________________
dropout_39 (Dropout)         (None, 32, 32, 256)       0         
_________________________________________________________________
conv2d_31 (Conv2D)           (None, 32, 32, 512)       1180160   
_________________________________________________________________
activation_40 (Activation)   (None, 32, 32, 512)       0         
_________________________________________________________________
dropout_40 (Dropout)         (None, 32, 32, 512)       0         
_________________________________________________________________
max_pooling2d_12 (MaxPooling (None, 16, 16, 512)       0         
_________________________________________________________________
conv2d_32 (Conv2D)           (None, 16, 16, 32)        147488    
_________________________________________________________________
activation_41 (Activation)   (None, 16, 16, 32)        0         
_________________________________________________________________
dropout_41 (Dropout)         (None, 16, 16, 32)        0         
_________________________________________________________________
conv2d_33 (Conv2D)           (None, 16, 16, 16)        4624      
_________________________________________________________________
activation_42 (Activation)   (None, 16, 16, 16)        0         
_________________________________________________________________
dropout_42 (Dropout)         (None, 16, 16, 16)        0         
_________________________________________________________________
conv2d_34 (Conv2D)           (None, 16, 16, 32)        4640      
_________________________________________________________________
batch_normalization_22 (Batc (None, 16, 16, 32)        128       
_________________________________________________________________
activation_43 (Activation)   (None, 16, 16, 32)        0         
_________________________________________________________________
dropout_43 (Dropout)         (None, 16, 16, 32)        0         
_________________________________________________________________
conv2d_35 (Conv2D)           (None, 16, 16, 128)       36992     
_________________________________________________________________
batch_normalization_23 (Batc (None, 16, 16, 128)       512       
_________________________________________________________________
activation_44 (Activation)   (None, 16, 16, 128)       0         
_________________________________________________________________
dropout_44 (Dropout)         (None, 16, 16, 128)       0         
_________________________________________________________________
conv2d_36 (Conv2D)           (None, 16, 16, 16)        18448     
_________________________________________________________________
batch_normalization_24 (Batc (None, 16, 16, 16)        64        
_________________________________________________________________
activation_45 (Activation)   (None, 16, 16, 16)        0         
_________________________________________________________________
dropout_45 (Dropout)         (None, 16, 16, 16)        0         
_________________________________________________________________
conv2d_37 (Conv2D)           (None, 16, 16, 8)         1160      
_________________________________________________________________
batch_normalization_25 (Batc (None, 16, 16, 8)         32        
_________________________________________________________________
activation_46 (Activation)   (None, 16, 16, 8)         0         
_________________________________________________________________
dropout_46 (Dropout)         (None, 16, 16, 8)         0         
_________________________________________________________________
conv2d_38 (Conv2D)           (None, 16, 16, 128)       9344      
_________________________________________________________________
activation_47 (Activation)   (None, 16, 16, 128)       0         
_________________________________________________________________
dropout_47 (Dropout)         (None, 16, 16, 128)       0         
_________________________________________________________________
max_pooling2d_13 (MaxPooling (None, 8, 8, 128)         0         
_________________________________________________________________
flatten_6 (Flatten)          (None, 8192)              0         
_________________________________________________________________
dense_15 (Dense)             (None, 16)                131088    
_________________________________________________________________
activation_48 (Activation)   (None, 16)                0         
_________________________________________________________________
dropout_48 (Dropout)         (None, 16)                0         
_________________________________________________________________
dense_16 (Dense)             (None, 512)               8704      
_________________________________________________________________
batch_normalization_26 (Batc (None, 512)               2048      
_________________________________________________________________
activation_49 (Activation)   (None, 512)               0         
_________________________________________________________________
dropout_49 (Dropout)         (None, 512)               0         
_________________________________________________________________
dense_17 (Dense)             (None, 10)                5130      
=================================================================
Total params: 1,557,730
Trainable params: 1,556,338
Non-trainable params: 1,392
_________________________________________________________________
