Model: "sequential_179"
_________________________________________________________________
Layer (type)                 Output Shape              Param #   
=================================================================
conv2d_859 (Conv2D)          (None, 32, 32, 256)       7168      
_________________________________________________________________
batch_normalization_811 (Bat (None, 32, 32, 256)       1024      
_________________________________________________________________
activation_1127 (Activation) (None, 32, 32, 256)       0         
_________________________________________________________________
dropout_1127 (Dropout)       (None, 32, 32, 256)       0         
_________________________________________________________________
conv2d_860 (Conv2D)          (None, 32, 32, 32)        73760     
_________________________________________________________________
batch_normalization_812 (Bat (None, 32, 32, 32)        128       
_________________________________________________________________
activation_1128 (Activation) (None, 32, 32, 32)        0         
_________________________________________________________________
dropout_1128 (Dropout)       (None, 32, 32, 32)        0         
_________________________________________________________________
conv2d_861 (Conv2D)          (None, 32, 32, 16)        4624      
_________________________________________________________________
batch_normalization_813 (Bat (None, 32, 32, 16)        64        
_________________________________________________________________
activation_1129 (Activation) (None, 32, 32, 16)        0         
_________________________________________________________________
dropout_1129 (Dropout)       (None, 32, 32, 16)        0         
_________________________________________________________________
conv2d_862 (Conv2D)          (None, 32, 32, 512)       74240     
_________________________________________________________________
batch_normalization_814 (Bat (None, 32, 32, 512)       2048      
_________________________________________________________________
activation_1130 (Activation) (None, 32, 32, 512)       0         
_________________________________________________________________
dropout_1130 (Dropout)       (None, 32, 32, 512)       0         
_________________________________________________________________
max_pooling2d_291 (MaxPoolin (None, 16, 16, 512)       0         
_________________________________________________________________
conv2d_863 (Conv2D)          (None, 16, 16, 128)       589952    
_________________________________________________________________
activation_1131 (Activation) (None, 16, 16, 128)       0         
_________________________________________________________________
dropout_1131 (Dropout)       (None, 16, 16, 128)       0         
_________________________________________________________________
max_pooling2d_292 (MaxPoolin (None, 8, 8, 128)         0         
_________________________________________________________________
flatten_179 (Flatten)        (None, 8192)              0         
_________________________________________________________________
dense_447 (Dense)            (None, 16)                131088    
_________________________________________________________________
batch_normalization_815 (Bat (None, 16)                64        
_________________________________________________________________
activation_1132 (Activation) (None, 16)                0         
_________________________________________________________________
dropout_1132 (Dropout)       (None, 16)                0         
_________________________________________________________________
dense_448 (Dense)            (None, 32)                544       
_________________________________________________________________
batch_normalization_816 (Bat (None, 32)                128       
_________________________________________________________________
activation_1133 (Activation) (None, 32)                0         
_________________________________________________________________
dropout_1133 (Dropout)       (None, 32)                0         
_________________________________________________________________
dense_449 (Dense)            (None, 10)                330       
=================================================================
Total params: 885,162
Trainable params: 883,434
Non-trainable params: 1,728
_________________________________________________________________
