Model: "sequential_80"
_________________________________________________________________
Layer (type)                 Output Shape              Param #   
=================================================================
conv2d_378 (Conv2D)          (None, 32, 32, 256)       7168      
_________________________________________________________________
activation_481 (Activation)  (None, 32, 32, 256)       0         
_________________________________________________________________
dropout_481 (Dropout)        (None, 32, 32, 256)       0         
_________________________________________________________________
conv2d_379 (Conv2D)          (None, 32, 32, 8)         18440     
_________________________________________________________________
activation_482 (Activation)  (None, 32, 32, 8)         0         
_________________________________________________________________
dropout_482 (Dropout)        (None, 32, 32, 8)         0         
_________________________________________________________________
max_pooling2d_143 (MaxPoolin (None, 16, 16, 8)         0         
_________________________________________________________________
conv2d_380 (Conv2D)          (None, 16, 16, 1024)      74752     
_________________________________________________________________
batch_normalization_309 (Bat (None, 16, 16, 1024)      4096      
_________________________________________________________________
activation_483 (Activation)  (None, 16, 16, 1024)      0         
_________________________________________________________________
dropout_483 (Dropout)        (None, 16, 16, 1024)      0         
_________________________________________________________________
max_pooling2d_144 (MaxPoolin (None, 8, 8, 1024)        0         
_________________________________________________________________
conv2d_381 (Conv2D)          (None, 8, 8, 8)           73736     
_________________________________________________________________
activation_484 (Activation)  (None, 8, 8, 8)           0         
_________________________________________________________________
dropout_484 (Dropout)        (None, 8, 8, 8)           0         
_________________________________________________________________
flatten_80 (Flatten)         (None, 512)               0         
_________________________________________________________________
dense_183 (Dense)            (None, 64)                32832     
_________________________________________________________________
batch_normalization_310 (Bat (None, 64)                256       
_________________________________________________________________
activation_485 (Activation)  (None, 64)                0         
_________________________________________________________________
dropout_485 (Dropout)        (None, 64)                0         
_________________________________________________________________
dense_184 (Dense)            (None, 10)                650       
=================================================================
Total params: 211,930
Trainable params: 209,754
Non-trainable params: 2,176
_________________________________________________________________
