Model: "sequential_22"
_________________________________________________________________
Layer (type)                 Output Shape              Param #   
=================================================================
conv2d_120 (Conv2D)          (None, 32, 32, 16)        448       
_________________________________________________________________
activation_150 (Activation)  (None, 32, 32, 16)        0         
_________________________________________________________________
dropout_150 (Dropout)        (None, 32, 32, 16)        0         
_________________________________________________________________
max_pooling2d_43 (MaxPooling (None, 16, 16, 16)        0         
_________________________________________________________________
conv2d_121 (Conv2D)          (None, 16, 16, 256)       37120     
_________________________________________________________________
batch_normalization_88 (Batc (None, 16, 16, 256)       1024      
_________________________________________________________________
activation_151 (Activation)  (None, 16, 16, 256)       0         
_________________________________________________________________
dropout_151 (Dropout)        (None, 16, 16, 256)       0         
_________________________________________________________________
max_pooling2d_44 (MaxPooling (None, 8, 8, 256)         0         
_________________________________________________________________
conv2d_122 (Conv2D)          (None, 8, 8, 128)         295040    
_________________________________________________________________
activation_152 (Activation)  (None, 8, 8, 128)         0         
_________________________________________________________________
dropout_152 (Dropout)        (None, 8, 8, 128)         0         
_________________________________________________________________
conv2d_123 (Conv2D)          (None, 8, 8, 64)          73792     
_________________________________________________________________
activation_153 (Activation)  (None, 8, 8, 64)          0         
_________________________________________________________________
dropout_153 (Dropout)        (None, 8, 8, 64)          0         
_________________________________________________________________
conv2d_124 (Conv2D)          (None, 8, 8, 32)          18464     
_________________________________________________________________
batch_normalization_89 (Batc (None, 8, 8, 32)          128       
_________________________________________________________________
activation_154 (Activation)  (None, 8, 8, 32)          0         
_________________________________________________________________
dropout_154 (Dropout)        (None, 8, 8, 32)          0         
_________________________________________________________________
max_pooling2d_45 (MaxPooling (None, 4, 4, 32)          0         
_________________________________________________________________
flatten_22 (Flatten)         (None, 512)               0         
_________________________________________________________________
dense_52 (Dense)             (None, 64)                32832     
_________________________________________________________________
batch_normalization_90 (Batc (None, 64)                256       
_________________________________________________________________
activation_155 (Activation)  (None, 64)                0         
_________________________________________________________________
dropout_155 (Dropout)        (None, 64)                0         
_________________________________________________________________
dense_53 (Dense)             (None, 10)                650       
=================================================================
Total params: 459,754
Trainable params: 459,050
Non-trainable params: 704
_________________________________________________________________
