Model: "sequential_100"
_________________________________________________________________
Layer (type)                 Output Shape              Param #   
=================================================================
conv2d_469 (Conv2D)          (None, 32, 32, 256)       7168      
_________________________________________________________________
batch_normalization_394 (Bat (None, 32, 32, 256)       1024      
_________________________________________________________________
activation_601 (Activation)  (None, 32, 32, 256)       0         
_________________________________________________________________
dropout_601 (Dropout)        (None, 32, 32, 256)       0         
_________________________________________________________________
conv2d_470 (Conv2D)          (None, 32, 32, 256)       590080    
_________________________________________________________________
batch_normalization_395 (Bat (None, 32, 32, 256)       1024      
_________________________________________________________________
activation_602 (Activation)  (None, 32, 32, 256)       0         
_________________________________________________________________
dropout_602 (Dropout)        (None, 32, 32, 256)       0         
_________________________________________________________________
conv2d_471 (Conv2D)          (None, 32, 32, 1024)      2360320   
_________________________________________________________________
batch_normalization_396 (Bat (None, 32, 32, 1024)      4096      
_________________________________________________________________
activation_603 (Activation)  (None, 32, 32, 1024)      0         
_________________________________________________________________
dropout_603 (Dropout)        (None, 32, 32, 1024)      0         
_________________________________________________________________
conv2d_472 (Conv2D)          (None, 32, 32, 512)       4719104   
_________________________________________________________________
batch_normalization_397 (Bat (None, 32, 32, 512)       2048      
_________________________________________________________________
activation_604 (Activation)  (None, 32, 32, 512)       0         
_________________________________________________________________
dropout_604 (Dropout)        (None, 32, 32, 512)       0         
_________________________________________________________________
max_pooling2d_171 (MaxPoolin (None, 16, 16, 512)       0         
_________________________________________________________________
conv2d_473 (Conv2D)          (None, 16, 16, 128)       589952    
_________________________________________________________________
activation_605 (Activation)  (None, 16, 16, 128)       0         
_________________________________________________________________
dropout_605 (Dropout)        (None, 16, 16, 128)       0         
_________________________________________________________________
max_pooling2d_172 (MaxPoolin (None, 8, 8, 128)         0         
_________________________________________________________________
flatten_100 (Flatten)        (None, 8192)              0         
_________________________________________________________________
dense_232 (Dense)            (None, 16)                131088    
_________________________________________________________________
batch_normalization_398 (Bat (None, 16)                64        
_________________________________________________________________
activation_606 (Activation)  (None, 16)                0         
_________________________________________________________________
dropout_606 (Dropout)        (None, 16)                0         
_________________________________________________________________
dense_233 (Dense)            (None, 32)                544       
_________________________________________________________________
batch_normalization_399 (Bat (None, 32)                128       
_________________________________________________________________
activation_607 (Activation)  (None, 32)                0         
_________________________________________________________________
dropout_607 (Dropout)        (None, 32)                0         
_________________________________________________________________
dense_234 (Dense)            (None, 10)                330       
=================================================================
Total params: 8,406,970
Trainable params: 8,402,778
Non-trainable params: 4,192
_________________________________________________________________
