Model: "sequential_185"
_________________________________________________________________
Layer (type)                 Output Shape              Param #   
=================================================================
conv2d_889 (Conv2D)          (None, 32, 32, 16)        448       
_________________________________________________________________
batch_normalization_848 (Bat (None, 32, 32, 16)        64        
_________________________________________________________________
activation_1169 (Activation) (None, 32, 32, 16)        0         
_________________________________________________________________
dropout_1169 (Dropout)       (None, 32, 32, 16)        0         
_________________________________________________________________
conv2d_890 (Conv2D)          (None, 32, 32, 256)       37120     
_________________________________________________________________
activation_1170 (Activation) (None, 32, 32, 256)       0         
_________________________________________________________________
dropout_1170 (Dropout)       (None, 32, 32, 256)       0         
_________________________________________________________________
conv2d_891 (Conv2D)          (None, 32, 32, 1024)      2360320   
_________________________________________________________________
batch_normalization_849 (Bat (None, 32, 32, 1024)      4096      
_________________________________________________________________
activation_1171 (Activation) (None, 32, 32, 1024)      0         
_________________________________________________________________
dropout_1171 (Dropout)       (None, 32, 32, 1024)      0         
_________________________________________________________________
conv2d_892 (Conv2D)          (None, 32, 32, 512)       4719104   
_________________________________________________________________
batch_normalization_850 (Bat (None, 32, 32, 512)       2048      
_________________________________________________________________
activation_1172 (Activation) (None, 32, 32, 512)       0         
_________________________________________________________________
dropout_1172 (Dropout)       (None, 32, 32, 512)       0         
_________________________________________________________________
conv2d_893 (Conv2D)          (None, 32, 32, 64)        294976    
_________________________________________________________________
activation_1173 (Activation) (None, 32, 32, 64)        0         
_________________________________________________________________
dropout_1173 (Dropout)       (None, 32, 32, 64)        0         
_________________________________________________________________
conv2d_894 (Conv2D)          (None, 32, 32, 512)       295424    
_________________________________________________________________
batch_normalization_851 (Bat (None, 32, 32, 512)       2048      
_________________________________________________________________
activation_1174 (Activation) (None, 32, 32, 512)       0         
_________________________________________________________________
dropout_1174 (Dropout)       (None, 32, 32, 512)       0         
_________________________________________________________________
max_pooling2d_297 (MaxPoolin (None, 16, 16, 512)       0         
_________________________________________________________________
flatten_185 (Flatten)        (None, 131072)            0         
_________________________________________________________________
dense_465 (Dense)            (None, 128)               16777344  
_________________________________________________________________
batch_normalization_852 (Bat (None, 128)               512       
_________________________________________________________________
activation_1175 (Activation) (None, 128)               0         
_________________________________________________________________
dropout_1175 (Dropout)       (None, 128)               0         
_________________________________________________________________
dense_466 (Dense)            (None, 64)                8256      
_________________________________________________________________
activation_1176 (Activation) (None, 64)                0         
_________________________________________________________________
dropout_1176 (Dropout)       (None, 64)                0         
_________________________________________________________________
dense_467 (Dense)            (None, 10)                650       
=================================================================
Total params: 24,502,410
Trainable params: 24,498,026
Non-trainable params: 4,384
_________________________________________________________________
