Model: "sequential_157"
_________________________________________________________________
Layer (type)                 Output Shape              Param #   
=================================================================
conv2d_751 (Conv2D)          (None, 32, 32, 256)       7168      
_________________________________________________________________
batch_normalization_692 (Bat (None, 32, 32, 256)       1024      
_________________________________________________________________
activation_982 (Activation)  (None, 32, 32, 256)       0         
_________________________________________________________________
dropout_982 (Dropout)        (None, 32, 32, 256)       0         
_________________________________________________________________
conv2d_752 (Conv2D)          (None, 32, 32, 256)       590080    
_________________________________________________________________
batch_normalization_693 (Bat (None, 32, 32, 256)       1024      
_________________________________________________________________
activation_983 (Activation)  (None, 32, 32, 256)       0         
_________________________________________________________________
dropout_983 (Dropout)        (None, 32, 32, 256)       0         
_________________________________________________________________
conv2d_753 (Conv2D)          (None, 32, 32, 1024)      2360320   
_________________________________________________________________
batch_normalization_694 (Bat (None, 32, 32, 1024)      4096      
_________________________________________________________________
activation_984 (Activation)  (None, 32, 32, 1024)      0         
_________________________________________________________________
dropout_984 (Dropout)        (None, 32, 32, 1024)      0         
_________________________________________________________________
conv2d_754 (Conv2D)          (None, 32, 32, 512)       4719104   
_________________________________________________________________
batch_normalization_695 (Bat (None, 32, 32, 512)       2048      
_________________________________________________________________
activation_985 (Activation)  (None, 32, 32, 512)       0         
_________________________________________________________________
dropout_985 (Dropout)        (None, 32, 32, 512)       0         
_________________________________________________________________
max_pooling2d_259 (MaxPoolin (None, 16, 16, 512)       0         
_________________________________________________________________
conv2d_755 (Conv2D)          (None, 16, 16, 512)       2359808   
_________________________________________________________________
batch_normalization_696 (Bat (None, 16, 16, 512)       2048      
_________________________________________________________________
activation_986 (Activation)  (None, 16, 16, 512)       0         
_________________________________________________________________
dropout_986 (Dropout)        (None, 16, 16, 512)       0         
_________________________________________________________________
max_pooling2d_260 (MaxPoolin (None, 8, 8, 512)         0         
_________________________________________________________________
flatten_157 (Flatten)        (None, 32768)             0         
_________________________________________________________________
dense_388 (Dense)            (None, 128)               4194432   
_________________________________________________________________
batch_normalization_697 (Bat (None, 128)               512       
_________________________________________________________________
activation_987 (Activation)  (None, 128)               0         
_________________________________________________________________
dropout_987 (Dropout)        (None, 128)               0         
_________________________________________________________________
dense_389 (Dense)            (None, 256)               33024     
_________________________________________________________________
activation_988 (Activation)  (None, 256)               0         
_________________________________________________________________
dropout_988 (Dropout)        (None, 256)               0         
_________________________________________________________________
dense_390 (Dense)            (None, 10)                2570      
=================================================================
Total params: 14,277,258
Trainable params: 14,271,882
Non-trainable params: 5,376
_________________________________________________________________
