Model: "sequential_168"
_________________________________________________________________
Layer (type)                 Output Shape              Param #   
=================================================================
conv2d_807 (Conv2D)          (None, 32, 32, 256)       7168      
_________________________________________________________________
batch_normalization_754 (Bat (None, 32, 32, 256)       1024      
_________________________________________________________________
activation_1058 (Activation) (None, 32, 32, 256)       0         
_________________________________________________________________
dropout_1058 (Dropout)       (None, 32, 32, 256)       0         
_________________________________________________________________
conv2d_808 (Conv2D)          (None, 32, 32, 128)       295040    
_________________________________________________________________
batch_normalization_755 (Bat (None, 32, 32, 128)       512       
_________________________________________________________________
activation_1059 (Activation) (None, 32, 32, 128)       0         
_________________________________________________________________
dropout_1059 (Dropout)       (None, 32, 32, 128)       0         
_________________________________________________________________
conv2d_809 (Conv2D)          (None, 32, 32, 16)        18448     
_________________________________________________________________
batch_normalization_756 (Bat (None, 32, 32, 16)        64        
_________________________________________________________________
activation_1060 (Activation) (None, 32, 32, 16)        0         
_________________________________________________________________
dropout_1060 (Dropout)       (None, 32, 32, 16)        0         
_________________________________________________________________
conv2d_810 (Conv2D)          (None, 32, 32, 512)       74240     
_________________________________________________________________
batch_normalization_757 (Bat (None, 32, 32, 512)       2048      
_________________________________________________________________
activation_1061 (Activation) (None, 32, 32, 512)       0         
_________________________________________________________________
dropout_1061 (Dropout)       (None, 32, 32, 512)       0         
_________________________________________________________________
max_pooling2d_274 (MaxPoolin (None, 16, 16, 512)       0         
_________________________________________________________________
flatten_168 (Flatten)        (None, 131072)            0         
_________________________________________________________________
dense_419 (Dense)            (None, 64)                8388672   
_________________________________________________________________
batch_normalization_758 (Bat (None, 64)                256       
_________________________________________________________________
activation_1062 (Activation) (None, 64)                0         
_________________________________________________________________
dropout_1062 (Dropout)       (None, 64)                0         
_________________________________________________________________
dense_420 (Dense)            (None, 10)                650       
=================================================================
Total params: 8,788,122
Trainable params: 8,786,170
Non-trainable params: 1,952
_________________________________________________________________
