Model: "sequential_148"
_________________________________________________________________
Layer (type)                 Output Shape              Param #   
=================================================================
conv2d_706 (Conv2D)          (None, 32, 32, 256)       7168      
_________________________________________________________________
batch_normalization_641 (Bat (None, 32, 32, 256)       1024      
_________________________________________________________________
activation_919 (Activation)  (None, 32, 32, 256)       0         
_________________________________________________________________
dropout_919 (Dropout)        (None, 32, 32, 256)       0         
_________________________________________________________________
conv2d_707 (Conv2D)          (None, 32, 32, 128)       295040    
_________________________________________________________________
batch_normalization_642 (Bat (None, 32, 32, 128)       512       
_________________________________________________________________
activation_920 (Activation)  (None, 32, 32, 128)       0         
_________________________________________________________________
dropout_920 (Dropout)        (None, 32, 32, 128)       0         
_________________________________________________________________
conv2d_708 (Conv2D)          (None, 32, 32, 16)        18448     
_________________________________________________________________
batch_normalization_643 (Bat (None, 32, 32, 16)        64        
_________________________________________________________________
activation_921 (Activation)  (None, 32, 32, 16)        0         
_________________________________________________________________
dropout_921 (Dropout)        (None, 32, 32, 16)        0         
_________________________________________________________________
conv2d_709 (Conv2D)          (None, 32, 32, 512)       74240     
_________________________________________________________________
batch_normalization_644 (Bat (None, 32, 32, 512)       2048      
_________________________________________________________________
activation_922 (Activation)  (None, 32, 32, 512)       0         
_________________________________________________________________
dropout_922 (Dropout)        (None, 32, 32, 512)       0         
_________________________________________________________________
max_pooling2d_247 (MaxPoolin (None, 16, 16, 512)       0         
_________________________________________________________________
flatten_148 (Flatten)        (None, 131072)            0         
_________________________________________________________________
dense_361 (Dense)            (None, 512)               67109376  
_________________________________________________________________
activation_923 (Activation)  (None, 512)               0         
_________________________________________________________________
dropout_923 (Dropout)        (None, 512)               0         
_________________________________________________________________
dense_362 (Dense)            (None, 64)                32832     
_________________________________________________________________
batch_normalization_645 (Bat (None, 64)                256       
_________________________________________________________________
activation_924 (Activation)  (None, 64)                0         
_________________________________________________________________
dropout_924 (Dropout)        (None, 64)                0         
_________________________________________________________________
dense_363 (Dense)            (None, 10)                650       
=================================================================
Total params: 67,541,658
Trainable params: 67,539,706
Non-trainable params: 1,952
_________________________________________________________________
