Model: "sequential_24"
_________________________________________________________________
Layer (type)                 Output Shape              Param #   
=================================================================
conv2d_129 (Conv2D)          (None, 32, 32, 256)       7168      
_________________________________________________________________
batch_normalization_94 (Batc (None, 32, 32, 256)       1024      
_________________________________________________________________
activation_161 (Activation)  (None, 32, 32, 256)       0         
_________________________________________________________________
dropout_161 (Dropout)        (None, 32, 32, 256)       0         
_________________________________________________________________
conv2d_130 (Conv2D)          (None, 32, 32, 8)         18440     
_________________________________________________________________
activation_162 (Activation)  (None, 32, 32, 8)         0         
_________________________________________________________________
dropout_162 (Dropout)        (None, 32, 32, 8)         0         
_________________________________________________________________
max_pooling2d_46 (MaxPooling (None, 16, 16, 8)         0         
_________________________________________________________________
conv2d_131 (Conv2D)          (None, 16, 16, 1024)      74752     
_________________________________________________________________
batch_normalization_95 (Batc (None, 16, 16, 1024)      4096      
_________________________________________________________________
activation_163 (Activation)  (None, 16, 16, 1024)      0         
_________________________________________________________________
dropout_163 (Dropout)        (None, 16, 16, 1024)      0         
_________________________________________________________________
max_pooling2d_47 (MaxPooling (None, 8, 8, 1024)        0         
_________________________________________________________________
conv2d_132 (Conv2D)          (None, 8, 8, 8)           73736     
_________________________________________________________________
activation_164 (Activation)  (None, 8, 8, 8)           0         
_________________________________________________________________
dropout_164 (Dropout)        (None, 8, 8, 8)           0         
_________________________________________________________________
flatten_24 (Flatten)         (None, 512)               0         
_________________________________________________________________
dense_56 (Dense)             (None, 64)                32832     
_________________________________________________________________
batch_normalization_96 (Batc (None, 64)                256       
_________________________________________________________________
activation_165 (Activation)  (None, 64)                0         
_________________________________________________________________
dropout_165 (Dropout)        (None, 64)                0         
_________________________________________________________________
dense_57 (Dense)             (None, 10)                650       
=================================================================
Total params: 212,954
Trainable params: 210,266
Non-trainable params: 2,688
_________________________________________________________________
