Model: "sequential_46"
_________________________________________________________________
Layer (type)                 Output Shape              Param #   
=================================================================
conv2d_320 (Conv2D)          (None, 32, 32, 1024)      28672     
_________________________________________________________________
activation_435 (Activation)  (None, 32, 32, 1024)      0         
_________________________________________________________________
dropout_435 (Dropout)        (None, 32, 32, 1024)      0         
_________________________________________________________________
conv2d_321 (Conv2D)          (None, 32, 32, 1024)      9438208   
_________________________________________________________________
activation_436 (Activation)  (None, 32, 32, 1024)      0         
_________________________________________________________________
dropout_436 (Dropout)        (None, 32, 32, 1024)      0         
_________________________________________________________________
max_pooling2d_99 (MaxPooling (None, 16, 16, 1024)      0         
_________________________________________________________________
conv2d_322 (Conv2D)          (None, 16, 16, 64)        589888    
_________________________________________________________________
batch_normalization_195 (Bat (None, 16, 16, 64)        256       
_________________________________________________________________
activation_437 (Activation)  (None, 16, 16, 64)        0         
_________________________________________________________________
dropout_437 (Dropout)        (None, 16, 16, 64)        0         
_________________________________________________________________
max_pooling2d_100 (MaxPoolin (None, 8, 8, 64)          0         
_________________________________________________________________
conv2d_323 (Conv2D)          (None, 8, 8, 128)         73856     
_________________________________________________________________
activation_438 (Activation)  (None, 8, 8, 128)         0         
_________________________________________________________________
dropout_438 (Dropout)        (None, 8, 8, 128)         0         
_________________________________________________________________
conv2d_324 (Conv2D)          (None, 8, 8, 32)          36896     
_________________________________________________________________
batch_normalization_196 (Bat (None, 8, 8, 32)          128       
_________________________________________________________________
activation_439 (Activation)  (None, 8, 8, 32)          0         
_________________________________________________________________
dropout_439 (Dropout)        (None, 8, 8, 32)          0         
_________________________________________________________________
conv2d_325 (Conv2D)          (None, 8, 8, 1024)        295936    
_________________________________________________________________
activation_440 (Activation)  (None, 8, 8, 1024)        0         
_________________________________________________________________
dropout_440 (Dropout)        (None, 8, 8, 1024)        0         
_________________________________________________________________
conv2d_326 (Conv2D)          (None, 8, 8, 1024)        9438208   
_________________________________________________________________
batch_normalization_197 (Bat (None, 8, 8, 1024)        4096      
_________________________________________________________________
activation_441 (Activation)  (None, 8, 8, 1024)        0         
_________________________________________________________________
dropout_441 (Dropout)        (None, 8, 8, 1024)        0         
_________________________________________________________________
flatten_46 (Flatten)         (None, 65536)             0         
_________________________________________________________________
dense_161 (Dense)            (None, 64)                4194368   
_________________________________________________________________
batch_normalization_198 (Bat (None, 64)                256       
_________________________________________________________________
activation_442 (Activation)  (None, 64)                0         
_________________________________________________________________
dropout_442 (Dropout)        (None, 64)                0         
_________________________________________________________________
dense_162 (Dense)            (None, 10)                650       
=================================================================
Total params: 24,101,418
Trainable params: 24,099,050
Non-trainable params: 2,368
_________________________________________________________________
