Model: "sequential_93"
_________________________________________________________________
Layer (type)                 Output Shape              Param #   
=================================================================
conv2d_647 (Conv2D)          (None, 32, 32, 1024)      28672     
_________________________________________________________________
activation_839 (Activation)  (None, 32, 32, 1024)      0         
_________________________________________________________________
dropout_839 (Dropout)        (None, 32, 32, 1024)      0         
_________________________________________________________________
conv2d_648 (Conv2D)          (None, 32, 32, 1024)      9438208   
_________________________________________________________________
activation_840 (Activation)  (None, 32, 32, 1024)      0         
_________________________________________________________________
dropout_840 (Dropout)        (None, 32, 32, 1024)      0         
_________________________________________________________________
max_pooling2d_194 (MaxPoolin (None, 16, 16, 1024)      0         
_________________________________________________________________
conv2d_649 (Conv2D)          (None, 16, 16, 64)        589888    
_________________________________________________________________
batch_normalization_391 (Bat (None, 16, 16, 64)        256       
_________________________________________________________________
activation_841 (Activation)  (None, 16, 16, 64)        0         
_________________________________________________________________
dropout_841 (Dropout)        (None, 16, 16, 64)        0         
_________________________________________________________________
max_pooling2d_195 (MaxPoolin (None, 8, 8, 64)          0         
_________________________________________________________________
conv2d_650 (Conv2D)          (None, 8, 8, 128)         73856     
_________________________________________________________________
activation_842 (Activation)  (None, 8, 8, 128)         0         
_________________________________________________________________
dropout_842 (Dropout)        (None, 8, 8, 128)         0         
_________________________________________________________________
conv2d_651 (Conv2D)          (None, 8, 8, 32)          36896     
_________________________________________________________________
batch_normalization_392 (Bat (None, 8, 8, 32)          128       
_________________________________________________________________
activation_843 (Activation)  (None, 8, 8, 32)          0         
_________________________________________________________________
dropout_843 (Dropout)        (None, 8, 8, 32)          0         
_________________________________________________________________
conv2d_652 (Conv2D)          (None, 8, 8, 1024)        295936    
_________________________________________________________________
activation_844 (Activation)  (None, 8, 8, 1024)        0         
_________________________________________________________________
dropout_844 (Dropout)        (None, 8, 8, 1024)        0         
_________________________________________________________________
conv2d_653 (Conv2D)          (None, 8, 8, 1024)        9438208   
_________________________________________________________________
batch_normalization_393 (Bat (None, 8, 8, 1024)        4096      
_________________________________________________________________
activation_845 (Activation)  (None, 8, 8, 1024)        0         
_________________________________________________________________
dropout_845 (Dropout)        (None, 8, 8, 1024)        0         
_________________________________________________________________
flatten_93 (Flatten)         (None, 65536)             0         
_________________________________________________________________
dense_285 (Dense)            (None, 64)                4194368   
_________________________________________________________________
batch_normalization_394 (Bat (None, 64)                256       
_________________________________________________________________
activation_846 (Activation)  (None, 64)                0         
_________________________________________________________________
dropout_846 (Dropout)        (None, 64)                0         
_________________________________________________________________
dense_286 (Dense)            (None, 256)               16640     
_________________________________________________________________
activation_847 (Activation)  (None, 256)               0         
_________________________________________________________________
dropout_847 (Dropout)        (None, 256)               0         
_________________________________________________________________
dense_287 (Dense)            (None, 10)                2570      
=================================================================
Total params: 24,119,978
Trainable params: 24,117,610
Non-trainable params: 2,368
_________________________________________________________________
