Model: "sequential_125"
_________________________________________________________________
Layer (type)                 Output Shape              Param #   
=================================================================
conv2d_871 (Conv2D)          (None, 32, 32, 1024)      28672     
_________________________________________________________________
activation_1115 (Activation) (None, 32, 32, 1024)      0         
_________________________________________________________________
dropout_1115 (Dropout)       (None, 32, 32, 1024)      0         
_________________________________________________________________
conv2d_872 (Conv2D)          (None, 32, 32, 1024)      9438208   
_________________________________________________________________
activation_1116 (Activation) (None, 32, 32, 1024)      0         
_________________________________________________________________
dropout_1116 (Dropout)       (None, 32, 32, 1024)      0         
_________________________________________________________________
max_pooling2d_266 (MaxPoolin (None, 16, 16, 1024)      0         
_________________________________________________________________
conv2d_873 (Conv2D)          (None, 16, 16, 64)        589888    
_________________________________________________________________
batch_normalization_529 (Bat (None, 16, 16, 64)        256       
_________________________________________________________________
activation_1117 (Activation) (None, 16, 16, 64)        0         
_________________________________________________________________
dropout_1117 (Dropout)       (None, 16, 16, 64)        0         
_________________________________________________________________
max_pooling2d_267 (MaxPoolin (None, 8, 8, 64)          0         
_________________________________________________________________
conv2d_874 (Conv2D)          (None, 8, 8, 128)         73856     
_________________________________________________________________
activation_1118 (Activation) (None, 8, 8, 128)         0         
_________________________________________________________________
dropout_1118 (Dropout)       (None, 8, 8, 128)         0         
_________________________________________________________________
conv2d_875 (Conv2D)          (None, 8, 8, 32)          36896     
_________________________________________________________________
batch_normalization_530 (Bat (None, 8, 8, 32)          128       
_________________________________________________________________
activation_1119 (Activation) (None, 8, 8, 32)          0         
_________________________________________________________________
dropout_1119 (Dropout)       (None, 8, 8, 32)          0         
_________________________________________________________________
conv2d_876 (Conv2D)          (None, 8, 8, 1024)        295936    
_________________________________________________________________
activation_1120 (Activation) (None, 8, 8, 1024)        0         
_________________________________________________________________
dropout_1120 (Dropout)       (None, 8, 8, 1024)        0         
_________________________________________________________________
max_pooling2d_268 (MaxPoolin (None, 4, 4, 1024)        0         
_________________________________________________________________
conv2d_877 (Conv2D)          (None, 4, 4, 1024)        9438208   
_________________________________________________________________
batch_normalization_531 (Bat (None, 4, 4, 1024)        4096      
_________________________________________________________________
activation_1121 (Activation) (None, 4, 4, 1024)        0         
_________________________________________________________________
dropout_1121 (Dropout)       (None, 4, 4, 1024)        0         
_________________________________________________________________
flatten_125 (Flatten)        (None, 16384)             0         
_________________________________________________________________
dense_369 (Dense)            (None, 64)                1048640   
_________________________________________________________________
batch_normalization_532 (Bat (None, 64)                256       
_________________________________________________________________
activation_1122 (Activation) (None, 64)                0         
_________________________________________________________________
dropout_1122 (Dropout)       (None, 64)                0         
_________________________________________________________________
dense_370 (Dense)            (None, 256)               16640     
_________________________________________________________________
activation_1123 (Activation) (None, 256)               0         
_________________________________________________________________
dropout_1123 (Dropout)       (None, 256)               0         
_________________________________________________________________
dense_371 (Dense)            (None, 10)                2570      
=================================================================
Total params: 20,974,250
Trainable params: 20,971,882
Non-trainable params: 2,368
_________________________________________________________________
