Model: "sequential_64"
_________________________________________________________________
Layer (type)                 Output Shape              Param #   
=================================================================
conv2d_446 (Conv2D)          (None, 32, 32, 1024)      28672     
_________________________________________________________________
activation_590 (Activation)  (None, 32, 32, 1024)      0         
_________________________________________________________________
dropout_590 (Dropout)        (None, 32, 32, 1024)      0         
_________________________________________________________________
conv2d_447 (Conv2D)          (None, 32, 32, 1024)      9438208   
_________________________________________________________________
activation_591 (Activation)  (None, 32, 32, 1024)      0         
_________________________________________________________________
dropout_591 (Dropout)        (None, 32, 32, 1024)      0         
_________________________________________________________________
max_pooling2d_135 (MaxPoolin (None, 16, 16, 1024)      0         
_________________________________________________________________
conv2d_448 (Conv2D)          (None, 16, 16, 64)        589888    
_________________________________________________________________
batch_normalization_269 (Bat (None, 16, 16, 64)        256       
_________________________________________________________________
activation_592 (Activation)  (None, 16, 16, 64)        0         
_________________________________________________________________
dropout_592 (Dropout)        (None, 16, 16, 64)        0         
_________________________________________________________________
max_pooling2d_136 (MaxPoolin (None, 8, 8, 64)          0         
_________________________________________________________________
conv2d_449 (Conv2D)          (None, 8, 8, 128)         73856     
_________________________________________________________________
activation_593 (Activation)  (None, 8, 8, 128)         0         
_________________________________________________________________
dropout_593 (Dropout)        (None, 8, 8, 128)         0         
_________________________________________________________________
conv2d_450 (Conv2D)          (None, 8, 8, 32)          36896     
_________________________________________________________________
batch_normalization_270 (Bat (None, 8, 8, 32)          128       
_________________________________________________________________
activation_594 (Activation)  (None, 8, 8, 32)          0         
_________________________________________________________________
dropout_594 (Dropout)        (None, 8, 8, 32)          0         
_________________________________________________________________
conv2d_451 (Conv2D)          (None, 8, 8, 1024)        295936    
_________________________________________________________________
activation_595 (Activation)  (None, 8, 8, 1024)        0         
_________________________________________________________________
dropout_595 (Dropout)        (None, 8, 8, 1024)        0         
_________________________________________________________________
conv2d_452 (Conv2D)          (None, 8, 8, 1024)        9438208   
_________________________________________________________________
batch_normalization_271 (Bat (None, 8, 8, 1024)        4096      
_________________________________________________________________
activation_596 (Activation)  (None, 8, 8, 1024)        0         
_________________________________________________________________
dropout_596 (Dropout)        (None, 8, 8, 1024)        0         
_________________________________________________________________
flatten_64 (Flatten)         (None, 65536)             0         
_________________________________________________________________
dense_208 (Dense)            (None, 64)                4194368   
_________________________________________________________________
batch_normalization_272 (Bat (None, 64)                256       
_________________________________________________________________
activation_597 (Activation)  (None, 64)                0         
_________________________________________________________________
dropout_597 (Dropout)        (None, 64)                0         
_________________________________________________________________
dense_209 (Dense)            (None, 256)               16640     
_________________________________________________________________
activation_598 (Activation)  (None, 256)               0         
_________________________________________________________________
dropout_598 (Dropout)        (None, 256)               0         
_________________________________________________________________
dense_210 (Dense)            (None, 10)                2570      
=================================================================
Total params: 24,119,978
Trainable params: 24,117,610
Non-trainable params: 2,368
_________________________________________________________________
