Model: "sequential_105"
_________________________________________________________________
Layer (type)                 Output Shape              Param #   
=================================================================
conv2d_731 (Conv2D)          (None, 32, 32, 1024)      28672     
_________________________________________________________________
activation_943 (Activation)  (None, 32, 32, 1024)      0         
_________________________________________________________________
dropout_943 (Dropout)        (None, 32, 32, 1024)      0         
_________________________________________________________________
conv2d_732 (Conv2D)          (None, 32, 32, 1024)      9438208   
_________________________________________________________________
activation_944 (Activation)  (None, 32, 32, 1024)      0         
_________________________________________________________________
dropout_944 (Dropout)        (None, 32, 32, 1024)      0         
_________________________________________________________________
max_pooling2d_220 (MaxPoolin (None, 16, 16, 1024)      0         
_________________________________________________________________
conv2d_733 (Conv2D)          (None, 16, 16, 64)        589888    
_________________________________________________________________
batch_normalization_443 (Bat (None, 16, 16, 64)        256       
_________________________________________________________________
activation_945 (Activation)  (None, 16, 16, 64)        0         
_________________________________________________________________
dropout_945 (Dropout)        (None, 16, 16, 64)        0         
_________________________________________________________________
max_pooling2d_221 (MaxPoolin (None, 8, 8, 64)          0         
_________________________________________________________________
conv2d_734 (Conv2D)          (None, 8, 8, 128)         73856     
_________________________________________________________________
activation_946 (Activation)  (None, 8, 8, 128)         0         
_________________________________________________________________
dropout_946 (Dropout)        (None, 8, 8, 128)         0         
_________________________________________________________________
conv2d_735 (Conv2D)          (None, 8, 8, 32)          36896     
_________________________________________________________________
batch_normalization_444 (Bat (None, 8, 8, 32)          128       
_________________________________________________________________
activation_947 (Activation)  (None, 8, 8, 32)          0         
_________________________________________________________________
dropout_947 (Dropout)        (None, 8, 8, 32)          0         
_________________________________________________________________
conv2d_736 (Conv2D)          (None, 8, 8, 1024)        295936    
_________________________________________________________________
activation_948 (Activation)  (None, 8, 8, 1024)        0         
_________________________________________________________________
dropout_948 (Dropout)        (None, 8, 8, 1024)        0         
_________________________________________________________________
conv2d_737 (Conv2D)          (None, 8, 8, 1024)        9438208   
_________________________________________________________________
batch_normalization_445 (Bat (None, 8, 8, 1024)        4096      
_________________________________________________________________
activation_949 (Activation)  (None, 8, 8, 1024)        0         
_________________________________________________________________
dropout_949 (Dropout)        (None, 8, 8, 1024)        0         
_________________________________________________________________
flatten_105 (Flatten)        (None, 65536)             0         
_________________________________________________________________
dense_317 (Dense)            (None, 64)                4194368   
_________________________________________________________________
batch_normalization_446 (Bat (None, 64)                256       
_________________________________________________________________
activation_950 (Activation)  (None, 64)                0         
_________________________________________________________________
dropout_950 (Dropout)        (None, 64)                0         
_________________________________________________________________
dense_318 (Dense)            (None, 10)                650       
=================================================================
Total params: 24,101,418
Trainable params: 24,099,050
Non-trainable params: 2,368
_________________________________________________________________
