Model: "sequential_141"
_________________________________________________________________
Layer (type)                 Output Shape              Param #   
=================================================================
conv2d_983 (Conv2D)          (None, 32, 32, 1024)      28672     
_________________________________________________________________
activation_1257 (Activation) (None, 32, 32, 1024)      0         
_________________________________________________________________
dropout_1257 (Dropout)       (None, 32, 32, 1024)      0         
_________________________________________________________________
conv2d_984 (Conv2D)          (None, 32, 32, 1024)      9438208   
_________________________________________________________________
activation_1258 (Activation) (None, 32, 32, 1024)      0         
_________________________________________________________________
dropout_1258 (Dropout)       (None, 32, 32, 1024)      0         
_________________________________________________________________
max_pooling2d_304 (MaxPoolin (None, 16, 16, 1024)      0         
_________________________________________________________________
conv2d_985 (Conv2D)          (None, 16, 16, 64)        589888    
_________________________________________________________________
batch_normalization_601 (Bat (None, 16, 16, 64)        256       
_________________________________________________________________
activation_1259 (Activation) (None, 16, 16, 64)        0         
_________________________________________________________________
dropout_1259 (Dropout)       (None, 16, 16, 64)        0         
_________________________________________________________________
max_pooling2d_305 (MaxPoolin (None, 8, 8, 64)          0         
_________________________________________________________________
conv2d_986 (Conv2D)          (None, 8, 8, 128)         73856     
_________________________________________________________________
activation_1260 (Activation) (None, 8, 8, 128)         0         
_________________________________________________________________
dropout_1260 (Dropout)       (None, 8, 8, 128)         0         
_________________________________________________________________
conv2d_987 (Conv2D)          (None, 8, 8, 32)          36896     
_________________________________________________________________
batch_normalization_602 (Bat (None, 8, 8, 32)          128       
_________________________________________________________________
activation_1261 (Activation) (None, 8, 8, 32)          0         
_________________________________________________________________
dropout_1261 (Dropout)       (None, 8, 8, 32)          0         
_________________________________________________________________
conv2d_988 (Conv2D)          (None, 8, 8, 1024)        295936    
_________________________________________________________________
activation_1262 (Activation) (None, 8, 8, 1024)        0         
_________________________________________________________________
dropout_1262 (Dropout)       (None, 8, 8, 1024)        0         
_________________________________________________________________
conv2d_989 (Conv2D)          (None, 8, 8, 1024)        9438208   
_________________________________________________________________
batch_normalization_603 (Bat (None, 8, 8, 1024)        4096      
_________________________________________________________________
activation_1263 (Activation) (None, 8, 8, 1024)        0         
_________________________________________________________________
dropout_1263 (Dropout)       (None, 8, 8, 1024)        0         
_________________________________________________________________
flatten_141 (Flatten)        (None, 65536)             0         
_________________________________________________________________
dense_415 (Dense)            (None, 64)                4194368   
_________________________________________________________________
batch_normalization_604 (Bat (None, 64)                256       
_________________________________________________________________
activation_1264 (Activation) (None, 64)                0         
_________________________________________________________________
dropout_1264 (Dropout)       (None, 64)                0         
_________________________________________________________________
dense_416 (Dense)            (None, 256)               16640     
_________________________________________________________________
activation_1265 (Activation) (None, 256)               0         
_________________________________________________________________
dropout_1265 (Dropout)       (None, 256)               0         
_________________________________________________________________
dense_417 (Dense)            (None, 10)                2570      
=================================================================
Total params: 24,119,978
Trainable params: 24,117,610
Non-trainable params: 2,368
_________________________________________________________________
