Model: "sequential_41"
_________________________________________________________________
Layer (type)                 Output Shape              Param #   
=================================================================
conv2d_285 (Conv2D)          (None, 32, 32, 1024)      28672     
_________________________________________________________________
activation_390 (Activation)  (None, 32, 32, 1024)      0         
_________________________________________________________________
dropout_390 (Dropout)        (None, 32, 32, 1024)      0         
_________________________________________________________________
conv2d_286 (Conv2D)          (None, 32, 32, 1024)      9438208   
_________________________________________________________________
activation_391 (Activation)  (None, 32, 32, 1024)      0         
_________________________________________________________________
dropout_391 (Dropout)        (None, 32, 32, 1024)      0         
_________________________________________________________________
max_pooling2d_89 (MaxPooling (None, 16, 16, 1024)      0         
_________________________________________________________________
conv2d_287 (Conv2D)          (None, 16, 16, 64)        589888    
_________________________________________________________________
batch_normalization_175 (Bat (None, 16, 16, 64)        256       
_________________________________________________________________
activation_392 (Activation)  (None, 16, 16, 64)        0         
_________________________________________________________________
dropout_392 (Dropout)        (None, 16, 16, 64)        0         
_________________________________________________________________
max_pooling2d_90 (MaxPooling (None, 8, 8, 64)          0         
_________________________________________________________________
conv2d_288 (Conv2D)          (None, 8, 8, 128)         73856     
_________________________________________________________________
activation_393 (Activation)  (None, 8, 8, 128)         0         
_________________________________________________________________
dropout_393 (Dropout)        (None, 8, 8, 128)         0         
_________________________________________________________________
conv2d_289 (Conv2D)          (None, 8, 8, 32)          36896     
_________________________________________________________________
batch_normalization_176 (Bat (None, 8, 8, 32)          128       
_________________________________________________________________
activation_394 (Activation)  (None, 8, 8, 32)          0         
_________________________________________________________________
dropout_394 (Dropout)        (None, 8, 8, 32)          0         
_________________________________________________________________
conv2d_290 (Conv2D)          (None, 8, 8, 1024)        295936    
_________________________________________________________________
activation_395 (Activation)  (None, 8, 8, 1024)        0         
_________________________________________________________________
dropout_395 (Dropout)        (None, 8, 8, 1024)        0         
_________________________________________________________________
conv2d_291 (Conv2D)          (None, 8, 8, 1024)        9438208   
_________________________________________________________________
batch_normalization_177 (Bat (None, 8, 8, 1024)        4096      
_________________________________________________________________
activation_396 (Activation)  (None, 8, 8, 1024)        0         
_________________________________________________________________
dropout_396 (Dropout)        (None, 8, 8, 1024)        0         
_________________________________________________________________
flatten_41 (Flatten)         (None, 65536)             0         
_________________________________________________________________
dense_146 (Dense)            (None, 64)                4194368   
_________________________________________________________________
batch_normalization_178 (Bat (None, 64)                256       
_________________________________________________________________
activation_397 (Activation)  (None, 64)                0         
_________________________________________________________________
dropout_397 (Dropout)        (None, 64)                0         
_________________________________________________________________
dense_147 (Dense)            (None, 256)               16640     
_________________________________________________________________
activation_398 (Activation)  (None, 256)               0         
_________________________________________________________________
dropout_398 (Dropout)        (None, 256)               0         
_________________________________________________________________
dense_148 (Dense)            (None, 16)                4112      
_________________________________________________________________
activation_399 (Activation)  (None, 16)                0         
_________________________________________________________________
dropout_399 (Dropout)        (None, 16)                0         
_________________________________________________________________
dense_149 (Dense)            (None, 10)                170       
=================================================================
Total params: 24,121,690
Trainable params: 24,119,322
Non-trainable params: 2,368
_________________________________________________________________
