Model: "sequential_174"
_________________________________________________________________
Layer (type)                 Output Shape              Param #   
=================================================================
conv2d_1218 (Conv2D)         (None, 32, 32, 1024)      28672     
_________________________________________________________________
activation_1558 (Activation) (None, 32, 32, 1024)      0         
_________________________________________________________________
dropout_1558 (Dropout)       (None, 32, 32, 1024)      0         
_________________________________________________________________
conv2d_1219 (Conv2D)         (None, 32, 32, 1024)      9438208   
_________________________________________________________________
activation_1559 (Activation) (None, 32, 32, 1024)      0         
_________________________________________________________________
dropout_1559 (Dropout)       (None, 32, 32, 1024)      0         
_________________________________________________________________
max_pooling2d_383 (MaxPoolin (None, 16, 16, 1024)      0         
_________________________________________________________________
conv2d_1220 (Conv2D)         (None, 16, 16, 64)        589888    
_________________________________________________________________
batch_normalization_750 (Bat (None, 16, 16, 64)        256       
_________________________________________________________________
activation_1560 (Activation) (None, 16, 16, 64)        0         
_________________________________________________________________
dropout_1560 (Dropout)       (None, 16, 16, 64)        0         
_________________________________________________________________
max_pooling2d_384 (MaxPoolin (None, 8, 8, 64)          0         
_________________________________________________________________
conv2d_1221 (Conv2D)         (None, 8, 8, 128)         73856     
_________________________________________________________________
activation_1561 (Activation) (None, 8, 8, 128)         0         
_________________________________________________________________
dropout_1561 (Dropout)       (None, 8, 8, 128)         0         
_________________________________________________________________
conv2d_1222 (Conv2D)         (None, 8, 8, 32)          36896     
_________________________________________________________________
batch_normalization_751 (Bat (None, 8, 8, 32)          128       
_________________________________________________________________
activation_1562 (Activation) (None, 8, 8, 32)          0         
_________________________________________________________________
dropout_1562 (Dropout)       (None, 8, 8, 32)          0         
_________________________________________________________________
conv2d_1223 (Conv2D)         (None, 8, 8, 1024)        295936    
_________________________________________________________________
activation_1563 (Activation) (None, 8, 8, 1024)        0         
_________________________________________________________________
dropout_1563 (Dropout)       (None, 8, 8, 1024)        0         
_________________________________________________________________
max_pooling2d_385 (MaxPoolin (None, 4, 4, 1024)        0         
_________________________________________________________________
conv2d_1224 (Conv2D)         (None, 4, 4, 1024)        9438208   
_________________________________________________________________
batch_normalization_752 (Bat (None, 4, 4, 1024)        4096      
_________________________________________________________________
activation_1564 (Activation) (None, 4, 4, 1024)        0         
_________________________________________________________________
dropout_1564 (Dropout)       (None, 4, 4, 1024)        0         
_________________________________________________________________
flatten_174 (Flatten)        (None, 16384)             0         
_________________________________________________________________
dense_514 (Dense)            (None, 64)                1048640   
_________________________________________________________________
batch_normalization_753 (Bat (None, 64)                256       
_________________________________________________________________
activation_1565 (Activation) (None, 64)                0         
_________________________________________________________________
dropout_1565 (Dropout)       (None, 64)                0         
_________________________________________________________________
dense_515 (Dense)            (None, 256)               16640     
_________________________________________________________________
activation_1566 (Activation) (None, 256)               0         
_________________________________________________________________
dropout_1566 (Dropout)       (None, 256)               0         
_________________________________________________________________
dense_516 (Dense)            (None, 10)                2570      
=================================================================
Total params: 20,974,250
Trainable params: 20,971,882
Non-trainable params: 2,368
_________________________________________________________________
