Model: "sequential_102"
_________________________________________________________________
Layer (type)                 Output Shape              Param #   
=================================================================
conv2d_710 (Conv2D)          (None, 32, 32, 1024)      28672     
_________________________________________________________________
batch_normalization_431 (Bat (None, 32, 32, 1024)      4096      
_________________________________________________________________
activation_916 (Activation)  (None, 32, 32, 1024)      0         
_________________________________________________________________
dropout_916 (Dropout)        (None, 32, 32, 1024)      0         
_________________________________________________________________
conv2d_711 (Conv2D)          (None, 32, 32, 1024)      9438208   
_________________________________________________________________
activation_917 (Activation)  (None, 32, 32, 1024)      0         
_________________________________________________________________
dropout_917 (Dropout)        (None, 32, 32, 1024)      0         
_________________________________________________________________
max_pooling2d_213 (MaxPoolin (None, 16, 16, 1024)      0         
_________________________________________________________________
conv2d_712 (Conv2D)          (None, 16, 16, 64)        589888    
_________________________________________________________________
batch_normalization_432 (Bat (None, 16, 16, 64)        256       
_________________________________________________________________
activation_918 (Activation)  (None, 16, 16, 64)        0         
_________________________________________________________________
dropout_918 (Dropout)        (None, 16, 16, 64)        0         
_________________________________________________________________
max_pooling2d_214 (MaxPoolin (None, 8, 8, 64)          0         
_________________________________________________________________
conv2d_713 (Conv2D)          (None, 8, 8, 128)         73856     
_________________________________________________________________
activation_919 (Activation)  (None, 8, 8, 128)         0         
_________________________________________________________________
dropout_919 (Dropout)        (None, 8, 8, 128)         0         
_________________________________________________________________
conv2d_714 (Conv2D)          (None, 8, 8, 32)          36896     
_________________________________________________________________
batch_normalization_433 (Bat (None, 8, 8, 32)          128       
_________________________________________________________________
activation_920 (Activation)  (None, 8, 8, 32)          0         
_________________________________________________________________
dropout_920 (Dropout)        (None, 8, 8, 32)          0         
_________________________________________________________________
conv2d_715 (Conv2D)          (None, 8, 8, 1024)        295936    
_________________________________________________________________
activation_921 (Activation)  (None, 8, 8, 1024)        0         
_________________________________________________________________
dropout_921 (Dropout)        (None, 8, 8, 1024)        0         
_________________________________________________________________
max_pooling2d_215 (MaxPoolin (None, 4, 4, 1024)        0         
_________________________________________________________________
conv2d_716 (Conv2D)          (None, 4, 4, 1024)        9438208   
_________________________________________________________________
batch_normalization_434 (Bat (None, 4, 4, 1024)        4096      
_________________________________________________________________
activation_922 (Activation)  (None, 4, 4, 1024)        0         
_________________________________________________________________
dropout_922 (Dropout)        (None, 4, 4, 1024)        0         
_________________________________________________________________
flatten_102 (Flatten)        (None, 16384)             0         
_________________________________________________________________
dense_308 (Dense)            (None, 64)                1048640   
_________________________________________________________________
batch_normalization_435 (Bat (None, 64)                256       
_________________________________________________________________
activation_923 (Activation)  (None, 64)                0         
_________________________________________________________________
dropout_923 (Dropout)        (None, 64)                0         
_________________________________________________________________
dense_309 (Dense)            (None, 256)               16640     
_________________________________________________________________
activation_924 (Activation)  (None, 256)               0         
_________________________________________________________________
dropout_924 (Dropout)        (None, 256)               0         
_________________________________________________________________
dense_310 (Dense)            (None, 10)                2570      
=================================================================
Total params: 20,978,346
Trainable params: 20,973,930
Non-trainable params: 4,416
_________________________________________________________________
