Model: "sequential_71"
_________________________________________________________________
Layer (type)                 Output Shape              Param #   
=================================================================
conv2d_495 (Conv2D)          (None, 32, 32, 1024)      28672     
_________________________________________________________________
activation_652 (Activation)  (None, 32, 32, 1024)      0         
_________________________________________________________________
dropout_652 (Dropout)        (None, 32, 32, 1024)      0         
_________________________________________________________________
conv2d_496 (Conv2D)          (None, 32, 32, 1024)      9438208   
_________________________________________________________________
activation_653 (Activation)  (None, 32, 32, 1024)      0         
_________________________________________________________________
dropout_653 (Dropout)        (None, 32, 32, 1024)      0         
_________________________________________________________________
max_pooling2d_149 (MaxPoolin (None, 16, 16, 1024)      0         
_________________________________________________________________
conv2d_497 (Conv2D)          (None, 16, 16, 128)       1179776   
_________________________________________________________________
activation_654 (Activation)  (None, 16, 16, 128)       0         
_________________________________________________________________
dropout_654 (Dropout)        (None, 16, 16, 128)       0         
_________________________________________________________________
max_pooling2d_150 (MaxPoolin (None, 8, 8, 128)         0         
_________________________________________________________________
conv2d_498 (Conv2D)          (None, 8, 8, 32)          36896     
_________________________________________________________________
batch_normalization_299 (Bat (None, 8, 8, 32)          128       
_________________________________________________________________
activation_655 (Activation)  (None, 8, 8, 32)          0         
_________________________________________________________________
dropout_655 (Dropout)        (None, 8, 8, 32)          0         
_________________________________________________________________
conv2d_499 (Conv2D)          (None, 8, 8, 1024)        295936    
_________________________________________________________________
activation_656 (Activation)  (None, 8, 8, 1024)        0         
_________________________________________________________________
dropout_656 (Dropout)        (None, 8, 8, 1024)        0         
_________________________________________________________________
conv2d_500 (Conv2D)          (None, 8, 8, 1024)        9438208   
_________________________________________________________________
batch_normalization_300 (Bat (None, 8, 8, 1024)        4096      
_________________________________________________________________
activation_657 (Activation)  (None, 8, 8, 1024)        0         
_________________________________________________________________
dropout_657 (Dropout)        (None, 8, 8, 1024)        0         
_________________________________________________________________
flatten_71 (Flatten)         (None, 65536)             0         
_________________________________________________________________
dense_228 (Dense)            (None, 64)                4194368   
_________________________________________________________________
batch_normalization_301 (Bat (None, 64)                256       
_________________________________________________________________
activation_658 (Activation)  (None, 64)                0         
_________________________________________________________________
dropout_658 (Dropout)        (None, 64)                0         
_________________________________________________________________
dense_229 (Dense)            (None, 256)               16640     
_________________________________________________________________
activation_659 (Activation)  (None, 256)               0         
_________________________________________________________________
dropout_659 (Dropout)        (None, 256)               0         
_________________________________________________________________
dense_230 (Dense)            (None, 10)                2570      
=================================================================
Total params: 24,635,754
Trainable params: 24,633,514
Non-trainable params: 2,240
_________________________________________________________________
