Model: "sequential_87"
_________________________________________________________________
Layer (type)                 Output Shape              Param #   
=================================================================
conv2d_605 (Conv2D)          (None, 32, 32, 1024)      28672     
_________________________________________________________________
activation_786 (Activation)  (None, 32, 32, 1024)      0         
_________________________________________________________________
dropout_786 (Dropout)        (None, 32, 32, 1024)      0         
_________________________________________________________________
conv2d_606 (Conv2D)          (None, 32, 32, 1024)      9438208   
_________________________________________________________________
activation_787 (Activation)  (None, 32, 32, 1024)      0         
_________________________________________________________________
dropout_787 (Dropout)        (None, 32, 32, 1024)      0         
_________________________________________________________________
max_pooling2d_182 (MaxPoolin (None, 16, 16, 1024)      0         
_________________________________________________________________
conv2d_607 (Conv2D)          (None, 16, 16, 64)        589888    
_________________________________________________________________
batch_normalization_365 (Bat (None, 16, 16, 64)        256       
_________________________________________________________________
activation_788 (Activation)  (None, 16, 16, 64)        0         
_________________________________________________________________
dropout_788 (Dropout)        (None, 16, 16, 64)        0         
_________________________________________________________________
max_pooling2d_183 (MaxPoolin (None, 8, 8, 64)          0         
_________________________________________________________________
conv2d_608 (Conv2D)          (None, 8, 8, 128)         73856     
_________________________________________________________________
activation_789 (Activation)  (None, 8, 8, 128)         0         
_________________________________________________________________
dropout_789 (Dropout)        (None, 8, 8, 128)         0         
_________________________________________________________________
conv2d_609 (Conv2D)          (None, 8, 8, 32)          36896     
_________________________________________________________________
batch_normalization_366 (Bat (None, 8, 8, 32)          128       
_________________________________________________________________
activation_790 (Activation)  (None, 8, 8, 32)          0         
_________________________________________________________________
dropout_790 (Dropout)        (None, 8, 8, 32)          0         
_________________________________________________________________
conv2d_610 (Conv2D)          (None, 8, 8, 1024)        295936    
_________________________________________________________________
activation_791 (Activation)  (None, 8, 8, 1024)        0         
_________________________________________________________________
dropout_791 (Dropout)        (None, 8, 8, 1024)        0         
_________________________________________________________________
conv2d_611 (Conv2D)          (None, 8, 8, 1024)        9438208   
_________________________________________________________________
batch_normalization_367 (Bat (None, 8, 8, 1024)        4096      
_________________________________________________________________
activation_792 (Activation)  (None, 8, 8, 1024)        0         
_________________________________________________________________
dropout_792 (Dropout)        (None, 8, 8, 1024)        0         
_________________________________________________________________
flatten_87 (Flatten)         (None, 65536)             0         
_________________________________________________________________
dense_268 (Dense)            (None, 64)                4194368   
_________________________________________________________________
batch_normalization_368 (Bat (None, 64)                256       
_________________________________________________________________
activation_793 (Activation)  (None, 64)                0         
_________________________________________________________________
dropout_793 (Dropout)        (None, 64)                0         
_________________________________________________________________
dense_269 (Dense)            (None, 256)               16640     
_________________________________________________________________
activation_794 (Activation)  (None, 256)               0         
_________________________________________________________________
dropout_794 (Dropout)        (None, 256)               0         
_________________________________________________________________
dense_270 (Dense)            (None, 10)                2570      
=================================================================
Total params: 24,119,978
Trainable params: 24,117,610
Non-trainable params: 2,368
_________________________________________________________________
