Model: "sequential_196"
_________________________________________________________________
Layer (type)                 Output Shape              Param #   
=================================================================
conv2d_1380 (Conv2D)         (None, 32, 32, 1024)      28672     
_________________________________________________________________
batch_normalization_865 (Bat (None, 32, 32, 1024)      4096      
_________________________________________________________________
activation_1764 (Activation) (None, 32, 32, 1024)      0         
_________________________________________________________________
dropout_1764 (Dropout)       (None, 32, 32, 1024)      0         
_________________________________________________________________
conv2d_1381 (Conv2D)         (None, 32, 32, 1024)      9438208   
_________________________________________________________________
activation_1765 (Activation) (None, 32, 32, 1024)      0         
_________________________________________________________________
dropout_1765 (Dropout)       (None, 32, 32, 1024)      0         
_________________________________________________________________
max_pooling2d_427 (MaxPoolin (None, 16, 16, 1024)      0         
_________________________________________________________________
conv2d_1382 (Conv2D)         (None, 16, 16, 64)        589888    
_________________________________________________________________
batch_normalization_866 (Bat (None, 16, 16, 64)        256       
_________________________________________________________________
activation_1766 (Activation) (None, 16, 16, 64)        0         
_________________________________________________________________
dropout_1766 (Dropout)       (None, 16, 16, 64)        0         
_________________________________________________________________
max_pooling2d_428 (MaxPoolin (None, 8, 8, 64)          0         
_________________________________________________________________
conv2d_1383 (Conv2D)         (None, 8, 8, 256)         147712    
_________________________________________________________________
activation_1767 (Activation) (None, 8, 8, 256)         0         
_________________________________________________________________
dropout_1767 (Dropout)       (None, 8, 8, 256)         0         
_________________________________________________________________
conv2d_1384 (Conv2D)         (None, 8, 8, 32)          73760     
_________________________________________________________________
batch_normalization_867 (Bat (None, 8, 8, 32)          128       
_________________________________________________________________
activation_1768 (Activation) (None, 8, 8, 32)          0         
_________________________________________________________________
dropout_1768 (Dropout)       (None, 8, 8, 32)          0         
_________________________________________________________________
conv2d_1385 (Conv2D)         (None, 8, 8, 1024)        295936    
_________________________________________________________________
activation_1769 (Activation) (None, 8, 8, 1024)        0         
_________________________________________________________________
dropout_1769 (Dropout)       (None, 8, 8, 1024)        0         
_________________________________________________________________
conv2d_1386 (Conv2D)         (None, 8, 8, 1024)        9438208   
_________________________________________________________________
batch_normalization_868 (Bat (None, 8, 8, 1024)        4096      
_________________________________________________________________
activation_1770 (Activation) (None, 8, 8, 1024)        0         
_________________________________________________________________
dropout_1770 (Dropout)       (None, 8, 8, 1024)        0         
_________________________________________________________________
max_pooling2d_429 (MaxPoolin (None, 4, 4, 1024)        0         
_________________________________________________________________
flatten_196 (Flatten)        (None, 16384)             0         
_________________________________________________________________
dense_580 (Dense)            (None, 64)                1048640   
_________________________________________________________________
batch_normalization_869 (Bat (None, 64)                256       
_________________________________________________________________
activation_1771 (Activation) (None, 64)                0         
_________________________________________________________________
dropout_1771 (Dropout)       (None, 64)                0         
_________________________________________________________________
dense_581 (Dense)            (None, 256)               16640     
_________________________________________________________________
batch_normalization_870 (Bat (None, 256)               1024      
_________________________________________________________________
activation_1772 (Activation) (None, 256)               0         
_________________________________________________________________
dropout_1772 (Dropout)       (None, 256)               0         
_________________________________________________________________
dense_582 (Dense)            (None, 10)                2570      
=================================================================
Total params: 21,090,090
Trainable params: 21,085,162
Non-trainable params: 4,928
_________________________________________________________________
