Model: "sequential_9"
_________________________________________________________________
Layer (type)                 Output Shape              Param #   
=================================================================
conv2d_71 (Conv2D)           (None, 32, 32, 128)       3584      
_________________________________________________________________
activation_96 (Activation)   (None, 32, 32, 128)       0         
_________________________________________________________________
dropout_96 (Dropout)         (None, 32, 32, 128)       0         
_________________________________________________________________
max_pooling2d_23 (MaxPooling (None, 16, 16, 128)       0         
_________________________________________________________________
conv2d_72 (Conv2D)           (None, 16, 16, 16)        18448     
_________________________________________________________________
activation_97 (Activation)   (None, 16, 16, 16)        0         
_________________________________________________________________
dropout_97 (Dropout)         (None, 16, 16, 16)        0         
_________________________________________________________________
conv2d_73 (Conv2D)           (None, 16, 16, 512)       74240     
_________________________________________________________________
batch_normalization_49 (Batc (None, 16, 16, 512)       2048      
_________________________________________________________________
activation_98 (Activation)   (None, 16, 16, 512)       0         
_________________________________________________________________
dropout_98 (Dropout)         (None, 16, 16, 512)       0         
_________________________________________________________________
conv2d_74 (Conv2D)           (None, 16, 16, 16)        73744     
_________________________________________________________________
activation_99 (Activation)   (None, 16, 16, 16)        0         
_________________________________________________________________
dropout_99 (Dropout)         (None, 16, 16, 16)        0         
_________________________________________________________________
conv2d_75 (Conv2D)           (None, 16, 16, 16)        2320      
_________________________________________________________________
batch_normalization_50 (Batc (None, 16, 16, 16)        64        
_________________________________________________________________
activation_100 (Activation)  (None, 16, 16, 16)        0         
_________________________________________________________________
dropout_100 (Dropout)        (None, 16, 16, 16)        0         
_________________________________________________________________
conv2d_76 (Conv2D)           (None, 16, 16, 128)       18560     
_________________________________________________________________
batch_normalization_51 (Batc (None, 16, 16, 128)       512       
_________________________________________________________________
activation_101 (Activation)  (None, 16, 16, 128)       0         
_________________________________________________________________
dropout_101 (Dropout)        (None, 16, 16, 128)       0         
_________________________________________________________________
max_pooling2d_24 (MaxPooling (None, 8, 8, 128)         0         
_________________________________________________________________
conv2d_77 (Conv2D)           (None, 8, 8, 512)         590336    
_________________________________________________________________
batch_normalization_52 (Batc (None, 8, 8, 512)         2048      
_________________________________________________________________
activation_102 (Activation)  (None, 8, 8, 512)         0         
_________________________________________________________________
dropout_102 (Dropout)        (None, 8, 8, 512)         0         
_________________________________________________________________
max_pooling2d_25 (MaxPooling (None, 4, 4, 512)         0         
_________________________________________________________________
conv2d_78 (Conv2D)           (None, 4, 4, 8)           36872     
_________________________________________________________________
activation_103 (Activation)  (None, 4, 4, 8)           0         
_________________________________________________________________
dropout_103 (Dropout)        (None, 4, 4, 8)           0         
_________________________________________________________________
flatten_9 (Flatten)          (None, 128)               0         
_________________________________________________________________
dense_34 (Dense)             (None, 512)               66048     
_________________________________________________________________
batch_normalization_53 (Batc (None, 512)               2048      
_________________________________________________________________
activation_104 (Activation)  (None, 512)               0         
_________________________________________________________________
dropout_104 (Dropout)        (None, 512)               0         
_________________________________________________________________
dense_35 (Dense)             (None, 16)                8208      
_________________________________________________________________
activation_105 (Activation)  (None, 16)                0         
_________________________________________________________________
dropout_105 (Dropout)        (None, 16)                0         
_________________________________________________________________
dense_36 (Dense)             (None, 512)               8704      
_________________________________________________________________
batch_normalization_54 (Batc (None, 512)               2048      
_________________________________________________________________
activation_106 (Activation)  (None, 512)               0         
_________________________________________________________________
dropout_106 (Dropout)        (None, 512)               0         
_________________________________________________________________
dense_37 (Dense)             (None, 10)                5130      
=================================================================
Total params: 914,962
Trainable params: 910,578
Non-trainable params: 4,384
_________________________________________________________________
