Model: "sequential_42"
_________________________________________________________________
Layer (type)                 Output Shape              Param #   
=================================================================
conv2d_292 (Conv2D)          (None, 32, 32, 1024)      28672     
_________________________________________________________________
activation_400 (Activation)  (None, 32, 32, 1024)      0         
_________________________________________________________________
dropout_400 (Dropout)        (None, 32, 32, 1024)      0         
_________________________________________________________________
conv2d_293 (Conv2D)          (None, 32, 32, 1024)      9438208   
_________________________________________________________________
activation_401 (Activation)  (None, 32, 32, 1024)      0         
_________________________________________________________________
dropout_401 (Dropout)        (None, 32, 32, 1024)      0         
_________________________________________________________________
max_pooling2d_91 (MaxPooling (None, 16, 16, 1024)      0         
_________________________________________________________________
conv2d_294 (Conv2D)          (None, 16, 16, 64)        589888    
_________________________________________________________________
batch_normalization_179 (Bat (None, 16, 16, 64)        256       
_________________________________________________________________
activation_402 (Activation)  (None, 16, 16, 64)        0         
_________________________________________________________________
dropout_402 (Dropout)        (None, 16, 16, 64)        0         
_________________________________________________________________
max_pooling2d_92 (MaxPooling (None, 8, 8, 64)          0         
_________________________________________________________________
conv2d_295 (Conv2D)          (None, 8, 8, 128)         73856     
_________________________________________________________________
activation_403 (Activation)  (None, 8, 8, 128)         0         
_________________________________________________________________
dropout_403 (Dropout)        (None, 8, 8, 128)         0         
_________________________________________________________________
conv2d_296 (Conv2D)          (None, 8, 8, 32)          36896     
_________________________________________________________________
batch_normalization_180 (Bat (None, 8, 8, 32)          128       
_________________________________________________________________
activation_404 (Activation)  (None, 8, 8, 32)          0         
_________________________________________________________________
dropout_404 (Dropout)        (None, 8, 8, 32)          0         
_________________________________________________________________
conv2d_297 (Conv2D)          (None, 8, 8, 1024)        295936    
_________________________________________________________________
activation_405 (Activation)  (None, 8, 8, 1024)        0         
_________________________________________________________________
dropout_405 (Dropout)        (None, 8, 8, 1024)        0         
_________________________________________________________________
conv2d_298 (Conv2D)          (None, 8, 8, 1024)        9438208   
_________________________________________________________________
batch_normalization_181 (Bat (None, 8, 8, 1024)        4096      
_________________________________________________________________
activation_406 (Activation)  (None, 8, 8, 1024)        0         
_________________________________________________________________
dropout_406 (Dropout)        (None, 8, 8, 1024)        0         
_________________________________________________________________
flatten_42 (Flatten)         (None, 65536)             0         
_________________________________________________________________
dense_150 (Dense)            (None, 64)                4194368   
_________________________________________________________________
batch_normalization_182 (Bat (None, 64)                256       
_________________________________________________________________
activation_407 (Activation)  (None, 64)                0         
_________________________________________________________________
dropout_407 (Dropout)        (None, 64)                0         
_________________________________________________________________
dense_151 (Dense)            (None, 256)               16640     
_________________________________________________________________
activation_408 (Activation)  (None, 256)               0         
_________________________________________________________________
dropout_408 (Dropout)        (None, 256)               0         
_________________________________________________________________
dense_152 (Dense)            (None, 16)                4112      
_________________________________________________________________
activation_409 (Activation)  (None, 16)                0         
_________________________________________________________________
dropout_409 (Dropout)        (None, 16)                0         
_________________________________________________________________
dense_153 (Dense)            (None, 10)                170       
=================================================================
Total params: 24,121,690
Trainable params: 24,119,322
Non-trainable params: 2,368
_________________________________________________________________
