Model: "sequential_45"
_________________________________________________________________
Layer (type)                 Output Shape              Param #   
=================================================================
conv2d_313 (Conv2D)          (None, 32, 32, 1024)      28672     
_________________________________________________________________
activation_426 (Activation)  (None, 32, 32, 1024)      0         
_________________________________________________________________
dropout_426 (Dropout)        (None, 32, 32, 1024)      0         
_________________________________________________________________
conv2d_314 (Conv2D)          (None, 32, 32, 64)        589888    
_________________________________________________________________
batch_normalization_191 (Bat (None, 32, 32, 64)        256       
_________________________________________________________________
activation_427 (Activation)  (None, 32, 32, 64)        0         
_________________________________________________________________
dropout_427 (Dropout)        (None, 32, 32, 64)        0         
_________________________________________________________________
max_pooling2d_97 (MaxPooling (None, 16, 16, 64)        0         
_________________________________________________________________
conv2d_315 (Conv2D)          (None, 16, 16, 128)       73856     
_________________________________________________________________
activation_428 (Activation)  (None, 16, 16, 128)       0         
_________________________________________________________________
dropout_428 (Dropout)        (None, 16, 16, 128)       0         
_________________________________________________________________
conv2d_316 (Conv2D)          (None, 16, 16, 32)        36896     
_________________________________________________________________
batch_normalization_192 (Bat (None, 16, 16, 32)        128       
_________________________________________________________________
activation_429 (Activation)  (None, 16, 16, 32)        0         
_________________________________________________________________
dropout_429 (Dropout)        (None, 16, 16, 32)        0         
_________________________________________________________________
conv2d_317 (Conv2D)          (None, 16, 16, 1024)      295936    
_________________________________________________________________
activation_430 (Activation)  (None, 16, 16, 1024)      0         
_________________________________________________________________
dropout_430 (Dropout)        (None, 16, 16, 1024)      0         
_________________________________________________________________
conv2d_318 (Conv2D)          (None, 16, 16, 512)       4719104   
_________________________________________________________________
activation_431 (Activation)  (None, 16, 16, 512)       0         
_________________________________________________________________
dropout_431 (Dropout)        (None, 16, 16, 512)       0         
_________________________________________________________________
conv2d_319 (Conv2D)          (None, 16, 16, 32)        147488    
_________________________________________________________________
activation_432 (Activation)  (None, 16, 16, 32)        0         
_________________________________________________________________
dropout_432 (Dropout)        (None, 16, 16, 32)        0         
_________________________________________________________________
max_pooling2d_98 (MaxPooling (None, 8, 8, 32)          0         
_________________________________________________________________
flatten_45 (Flatten)         (None, 2048)              0         
_________________________________________________________________
dense_158 (Dense)            (None, 256)               524544    
_________________________________________________________________
batch_normalization_193 (Bat (None, 256)               1024      
_________________________________________________________________
activation_433 (Activation)  (None, 256)               0         
_________________________________________________________________
dropout_433 (Dropout)        (None, 256)               0         
_________________________________________________________________
dense_159 (Dense)            (None, 16)                4112      
_________________________________________________________________
batch_normalization_194 (Bat (None, 16)                64        
_________________________________________________________________
activation_434 (Activation)  (None, 16)                0         
_________________________________________________________________
dropout_434 (Dropout)        (None, 16)                0         
_________________________________________________________________
dense_160 (Dense)            (None, 10)                170       
=================================================================
Total params: 6,422,138
Trainable params: 6,421,402
Non-trainable params: 736
_________________________________________________________________
