Model: "sequential_28"
_________________________________________________________________
Layer (type)                 Output Shape              Param #   
=================================================================
conv2d_198 (Conv2D)          (None, 32, 32, 1024)      28672     
_________________________________________________________________
activation_272 (Activation)  (None, 32, 32, 1024)      0         
_________________________________________________________________
dropout_272 (Dropout)        (None, 32, 32, 1024)      0         
_________________________________________________________________
conv2d_199 (Conv2D)          (None, 32, 32, 1024)      9438208   
_________________________________________________________________
activation_273 (Activation)  (None, 32, 32, 1024)      0         
_________________________________________________________________
dropout_273 (Dropout)        (None, 32, 32, 1024)      0         
_________________________________________________________________
max_pooling2d_61 (MaxPooling (None, 16, 16, 1024)      0         
_________________________________________________________________
conv2d_200 (Conv2D)          (None, 16, 16, 64)        589888    
_________________________________________________________________
batch_normalization_128 (Bat (None, 16, 16, 64)        256       
_________________________________________________________________
activation_274 (Activation)  (None, 16, 16, 64)        0         
_________________________________________________________________
dropout_274 (Dropout)        (None, 16, 16, 64)        0         
_________________________________________________________________
max_pooling2d_62 (MaxPooling (None, 8, 8, 64)          0         
_________________________________________________________________
conv2d_201 (Conv2D)          (None, 8, 8, 8)           4616      
_________________________________________________________________
activation_275 (Activation)  (None, 8, 8, 8)           0         
_________________________________________________________________
dropout_275 (Dropout)        (None, 8, 8, 8)           0         
_________________________________________________________________
conv2d_202 (Conv2D)          (None, 8, 8, 256)         18688     
_________________________________________________________________
batch_normalization_129 (Bat (None, 8, 8, 256)         1024      
_________________________________________________________________
activation_276 (Activation)  (None, 8, 8, 256)         0         
_________________________________________________________________
dropout_276 (Dropout)        (None, 8, 8, 256)         0         
_________________________________________________________________
conv2d_203 (Conv2D)          (None, 8, 8, 512)         1180160   
_________________________________________________________________
activation_277 (Activation)  (None, 8, 8, 512)         0         
_________________________________________________________________
dropout_277 (Dropout)        (None, 8, 8, 512)         0         
_________________________________________________________________
conv2d_204 (Conv2D)          (None, 8, 8, 32)          147488    
_________________________________________________________________
activation_278 (Activation)  (None, 8, 8, 32)          0         
_________________________________________________________________
dropout_278 (Dropout)        (None, 8, 8, 32)          0         
_________________________________________________________________
max_pooling2d_63 (MaxPooling (None, 4, 4, 32)          0         
_________________________________________________________________
flatten_28 (Flatten)         (None, 512)               0         
_________________________________________________________________
dense_102 (Dense)            (None, 256)               131328    
_________________________________________________________________
batch_normalization_130 (Bat (None, 256)               1024      
_________________________________________________________________
activation_279 (Activation)  (None, 256)               0         
_________________________________________________________________
dropout_279 (Dropout)        (None, 256)               0         
_________________________________________________________________
dense_103 (Dense)            (None, 16)                4112      
_________________________________________________________________
batch_normalization_131 (Bat (None, 16)                64        
_________________________________________________________________
activation_280 (Activation)  (None, 16)                0         
_________________________________________________________________
dropout_280 (Dropout)        (None, 16)                0         
_________________________________________________________________
dense_104 (Dense)            (None, 10)                170       
=================================================================
Total params: 11,545,698
Trainable params: 11,544,514
Non-trainable params: 1,184
_________________________________________________________________
