Model: "sequential_199"
_________________________________________________________________
Layer (type)                 Output Shape              Param #   
=================================================================
conv2d_1402 (Conv2D)         (None, 32, 32, 1024)      28672     
_________________________________________________________________
batch_normalization_882 (Bat (None, 32, 32, 1024)      4096      
_________________________________________________________________
activation_1792 (Activation) (None, 32, 32, 1024)      0         
_________________________________________________________________
dropout_1792 (Dropout)       (None, 32, 32, 1024)      0         
_________________________________________________________________
conv2d_1403 (Conv2D)         (None, 32, 32, 1024)      9438208   
_________________________________________________________________
activation_1793 (Activation) (None, 32, 32, 1024)      0         
_________________________________________________________________
dropout_1793 (Dropout)       (None, 32, 32, 1024)      0         
_________________________________________________________________
max_pooling2d_434 (MaxPoolin (None, 16, 16, 1024)      0         
_________________________________________________________________
conv2d_1404 (Conv2D)         (None, 16, 16, 64)        589888    
_________________________________________________________________
batch_normalization_883 (Bat (None, 16, 16, 64)        256       
_________________________________________________________________
activation_1794 (Activation) (None, 16, 16, 64)        0         
_________________________________________________________________
dropout_1794 (Dropout)       (None, 16, 16, 64)        0         
_________________________________________________________________
max_pooling2d_435 (MaxPoolin (None, 8, 8, 64)          0         
_________________________________________________________________
conv2d_1405 (Conv2D)         (None, 8, 8, 256)         147712    
_________________________________________________________________
activation_1795 (Activation) (None, 8, 8, 256)         0         
_________________________________________________________________
dropout_1795 (Dropout)       (None, 8, 8, 256)         0         
_________________________________________________________________
conv2d_1406 (Conv2D)         (None, 8, 8, 32)          73760     
_________________________________________________________________
batch_normalization_884 (Bat (None, 8, 8, 32)          128       
_________________________________________________________________
activation_1796 (Activation) (None, 8, 8, 32)          0         
_________________________________________________________________
dropout_1796 (Dropout)       (None, 8, 8, 32)          0         
_________________________________________________________________
conv2d_1407 (Conv2D)         (None, 8, 8, 1024)        295936    
_________________________________________________________________
activation_1797 (Activation) (None, 8, 8, 1024)        0         
_________________________________________________________________
dropout_1797 (Dropout)       (None, 8, 8, 1024)        0         
_________________________________________________________________
conv2d_1408 (Conv2D)         (None, 8, 8, 1024)        9438208   
_________________________________________________________________
batch_normalization_885 (Bat (None, 8, 8, 1024)        4096      
_________________________________________________________________
activation_1798 (Activation) (None, 8, 8, 1024)        0         
_________________________________________________________________
dropout_1798 (Dropout)       (None, 8, 8, 1024)        0         
_________________________________________________________________
max_pooling2d_436 (MaxPoolin (None, 4, 4, 1024)        0         
_________________________________________________________________
flatten_199 (Flatten)        (None, 16384)             0         
_________________________________________________________________
dense_589 (Dense)            (None, 64)                1048640   
_________________________________________________________________
batch_normalization_886 (Bat (None, 64)                256       
_________________________________________________________________
activation_1799 (Activation) (None, 64)                0         
_________________________________________________________________
dropout_1799 (Dropout)       (None, 64)                0         
_________________________________________________________________
dense_590 (Dense)            (None, 256)               16640     
_________________________________________________________________
batch_normalization_887 (Bat (None, 256)               1024      
_________________________________________________________________
activation_1800 (Activation) (None, 256)               0         
_________________________________________________________________
dropout_1800 (Dropout)       (None, 256)               0         
_________________________________________________________________
dense_591 (Dense)            (None, 10)                2570      
=================================================================
Total params: 21,090,090
Trainable params: 21,085,162
Non-trainable params: 4,928
_________________________________________________________________
