Model: "sequential_148"
_________________________________________________________________
Layer (type)                 Output Shape              Param #   
=================================================================
conv2d_1032 (Conv2D)         (None, 32, 32, 1024)      28672     
_________________________________________________________________
batch_normalization_628 (Bat (None, 32, 32, 1024)      4096      
_________________________________________________________________
activation_1320 (Activation) (None, 32, 32, 1024)      0         
_________________________________________________________________
dropout_1320 (Dropout)       (None, 32, 32, 1024)      0         
_________________________________________________________________
conv2d_1033 (Conv2D)         (None, 32, 32, 1024)      9438208   
_________________________________________________________________
activation_1321 (Activation) (None, 32, 32, 1024)      0         
_________________________________________________________________
dropout_1321 (Dropout)       (None, 32, 32, 1024)      0         
_________________________________________________________________
max_pooling2d_322 (MaxPoolin (None, 16, 16, 1024)      0         
_________________________________________________________________
conv2d_1034 (Conv2D)         (None, 16, 16, 64)        589888    
_________________________________________________________________
batch_normalization_629 (Bat (None, 16, 16, 64)        256       
_________________________________________________________________
activation_1322 (Activation) (None, 16, 16, 64)        0         
_________________________________________________________________
dropout_1322 (Dropout)       (None, 16, 16, 64)        0         
_________________________________________________________________
max_pooling2d_323 (MaxPoolin (None, 8, 8, 64)          0         
_________________________________________________________________
conv2d_1035 (Conv2D)         (None, 8, 8, 128)         73856     
_________________________________________________________________
activation_1323 (Activation) (None, 8, 8, 128)         0         
_________________________________________________________________
dropout_1323 (Dropout)       (None, 8, 8, 128)         0         
_________________________________________________________________
conv2d_1036 (Conv2D)         (None, 8, 8, 32)          36896     
_________________________________________________________________
batch_normalization_630 (Bat (None, 8, 8, 32)          128       
_________________________________________________________________
activation_1324 (Activation) (None, 8, 8, 32)          0         
_________________________________________________________________
dropout_1324 (Dropout)       (None, 8, 8, 32)          0         
_________________________________________________________________
conv2d_1037 (Conv2D)         (None, 8, 8, 1024)        295936    
_________________________________________________________________
activation_1325 (Activation) (None, 8, 8, 1024)        0         
_________________________________________________________________
dropout_1325 (Dropout)       (None, 8, 8, 1024)        0         
_________________________________________________________________
conv2d_1038 (Conv2D)         (None, 8, 8, 1024)        9438208   
_________________________________________________________________
batch_normalization_631 (Bat (None, 8, 8, 1024)        4096      
_________________________________________________________________
activation_1326 (Activation) (None, 8, 8, 1024)        0         
_________________________________________________________________
dropout_1326 (Dropout)       (None, 8, 8, 1024)        0         
_________________________________________________________________
flatten_148 (Flatten)        (None, 65536)             0         
_________________________________________________________________
dense_436 (Dense)            (None, 64)                4194368   
_________________________________________________________________
batch_normalization_632 (Bat (None, 64)                256       
_________________________________________________________________
activation_1327 (Activation) (None, 64)                0         
_________________________________________________________________
dropout_1327 (Dropout)       (None, 64)                0         
_________________________________________________________________
dense_437 (Dense)            (None, 256)               16640     
_________________________________________________________________
activation_1328 (Activation) (None, 256)               0         
_________________________________________________________________
dropout_1328 (Dropout)       (None, 256)               0         
_________________________________________________________________
dense_438 (Dense)            (None, 10)                2570      
=================================================================
Total params: 24,124,074
Trainable params: 24,119,658
Non-trainable params: 4,416
_________________________________________________________________
