Model: "sequential_180"
_________________________________________________________________
Layer (type)                 Output Shape              Param #   
=================================================================
conv2d_1261 (Conv2D)         (None, 32, 32, 1024)      28672     
_________________________________________________________________
batch_normalization_778 (Bat (None, 32, 32, 1024)      4096      
_________________________________________________________________
activation_1613 (Activation) (None, 32, 32, 1024)      0         
_________________________________________________________________
dropout_1613 (Dropout)       (None, 32, 32, 1024)      0         
_________________________________________________________________
conv2d_1262 (Conv2D)         (None, 32, 32, 1024)      9438208   
_________________________________________________________________
activation_1614 (Activation) (None, 32, 32, 1024)      0         
_________________________________________________________________
dropout_1614 (Dropout)       (None, 32, 32, 1024)      0         
_________________________________________________________________
max_pooling2d_397 (MaxPoolin (None, 16, 16, 1024)      0         
_________________________________________________________________
conv2d_1263 (Conv2D)         (None, 16, 16, 64)        589888    
_________________________________________________________________
batch_normalization_779 (Bat (None, 16, 16, 64)        256       
_________________________________________________________________
activation_1615 (Activation) (None, 16, 16, 64)        0         
_________________________________________________________________
dropout_1615 (Dropout)       (None, 16, 16, 64)        0         
_________________________________________________________________
max_pooling2d_398 (MaxPoolin (None, 8, 8, 64)          0         
_________________________________________________________________
conv2d_1264 (Conv2D)         (None, 8, 8, 256)         147712    
_________________________________________________________________
activation_1616 (Activation) (None, 8, 8, 256)         0         
_________________________________________________________________
dropout_1616 (Dropout)       (None, 8, 8, 256)         0         
_________________________________________________________________
conv2d_1265 (Conv2D)         (None, 8, 8, 32)          73760     
_________________________________________________________________
batch_normalization_780 (Bat (None, 8, 8, 32)          128       
_________________________________________________________________
activation_1617 (Activation) (None, 8, 8, 32)          0         
_________________________________________________________________
dropout_1617 (Dropout)       (None, 8, 8, 32)          0         
_________________________________________________________________
conv2d_1266 (Conv2D)         (None, 8, 8, 1024)        295936    
_________________________________________________________________
activation_1618 (Activation) (None, 8, 8, 1024)        0         
_________________________________________________________________
dropout_1618 (Dropout)       (None, 8, 8, 1024)        0         
_________________________________________________________________
conv2d_1267 (Conv2D)         (None, 8, 8, 1024)        9438208   
_________________________________________________________________
batch_normalization_781 (Bat (None, 8, 8, 1024)        4096      
_________________________________________________________________
activation_1619 (Activation) (None, 8, 8, 1024)        0         
_________________________________________________________________
dropout_1619 (Dropout)       (None, 8, 8, 1024)        0         
_________________________________________________________________
max_pooling2d_399 (MaxPoolin (None, 4, 4, 1024)        0         
_________________________________________________________________
flatten_180 (Flatten)        (None, 16384)             0         
_________________________________________________________________
dense_532 (Dense)            (None, 64)                1048640   
_________________________________________________________________
batch_normalization_782 (Bat (None, 64)                256       
_________________________________________________________________
activation_1620 (Activation) (None, 64)                0         
_________________________________________________________________
dropout_1620 (Dropout)       (None, 64)                0         
_________________________________________________________________
dense_533 (Dense)            (None, 256)               16640     
_________________________________________________________________
batch_normalization_783 (Bat (None, 256)               1024      
_________________________________________________________________
activation_1621 (Activation) (None, 256)               0         
_________________________________________________________________
dropout_1621 (Dropout)       (None, 256)               0         
_________________________________________________________________
dense_534 (Dense)            (None, 10)                2570      
=================================================================
Total params: 21,090,090
Trainable params: 21,085,162
Non-trainable params: 4,928
_________________________________________________________________
