Model: "sequential_129"
_________________________________________________________________
Layer (type)                 Output Shape              Param #   
=================================================================
conv2d_899 (Conv2D)          (None, 32, 32, 1024)      28672     
_________________________________________________________________
activation_1151 (Activation) (None, 32, 32, 1024)      0         
_________________________________________________________________
dropout_1151 (Dropout)       (None, 32, 32, 1024)      0         
_________________________________________________________________
conv2d_900 (Conv2D)          (None, 32, 32, 1024)      9438208   
_________________________________________________________________
activation_1152 (Activation) (None, 32, 32, 1024)      0         
_________________________________________________________________
dropout_1152 (Dropout)       (None, 32, 32, 1024)      0         
_________________________________________________________________
max_pooling2d_276 (MaxPoolin (None, 16, 16, 1024)      0         
_________________________________________________________________
conv2d_901 (Conv2D)          (None, 16, 16, 64)        589888    
_________________________________________________________________
batch_normalization_547 (Bat (None, 16, 16, 64)        256       
_________________________________________________________________
activation_1153 (Activation) (None, 16, 16, 64)        0         
_________________________________________________________________
dropout_1153 (Dropout)       (None, 16, 16, 64)        0         
_________________________________________________________________
max_pooling2d_277 (MaxPoolin (None, 8, 8, 64)          0         
_________________________________________________________________
conv2d_902 (Conv2D)          (None, 8, 8, 128)         73856     
_________________________________________________________________
activation_1154 (Activation) (None, 8, 8, 128)         0         
_________________________________________________________________
dropout_1154 (Dropout)       (None, 8, 8, 128)         0         
_________________________________________________________________
conv2d_903 (Conv2D)          (None, 8, 8, 32)          36896     
_________________________________________________________________
batch_normalization_548 (Bat (None, 8, 8, 32)          128       
_________________________________________________________________
activation_1155 (Activation) (None, 8, 8, 32)          0         
_________________________________________________________________
dropout_1155 (Dropout)       (None, 8, 8, 32)          0         
_________________________________________________________________
conv2d_904 (Conv2D)          (None, 8, 8, 1024)        295936    
_________________________________________________________________
activation_1156 (Activation) (None, 8, 8, 1024)        0         
_________________________________________________________________
dropout_1156 (Dropout)       (None, 8, 8, 1024)        0         
_________________________________________________________________
conv2d_905 (Conv2D)          (None, 8, 8, 1024)        9438208   
_________________________________________________________________
batch_normalization_549 (Bat (None, 8, 8, 1024)        4096      
_________________________________________________________________
activation_1157 (Activation) (None, 8, 8, 1024)        0         
_________________________________________________________________
dropout_1157 (Dropout)       (None, 8, 8, 1024)        0         
_________________________________________________________________
flatten_129 (Flatten)        (None, 65536)             0         
_________________________________________________________________
dense_381 (Dense)            (None, 64)                4194368   
_________________________________________________________________
batch_normalization_550 (Bat (None, 64)                256       
_________________________________________________________________
activation_1158 (Activation) (None, 64)                0         
_________________________________________________________________
dropout_1158 (Dropout)       (None, 64)                0         
_________________________________________________________________
dense_382 (Dense)            (None, 256)               16640     
_________________________________________________________________
activation_1159 (Activation) (None, 256)               0         
_________________________________________________________________
dropout_1159 (Dropout)       (None, 256)               0         
_________________________________________________________________
dense_383 (Dense)            (None, 10)                2570      
=================================================================
Total params: 24,119,978
Trainable params: 24,117,610
Non-trainable params: 2,368
_________________________________________________________________
