Model: "sequential_11"
_________________________________________________________________
Layer (type)                 Output Shape              Param #   
=================================================================
conv2d_84 (Conv2D)           (None, 32, 32, 1024)      28672     
_________________________________________________________________
activation_115 (Activation)  (None, 32, 32, 1024)      0         
_________________________________________________________________
dropout_115 (Dropout)        (None, 32, 32, 1024)      0         
_________________________________________________________________
conv2d_85 (Conv2D)           (None, 32, 32, 1024)      9438208   
_________________________________________________________________
activation_116 (Activation)  (None, 32, 32, 1024)      0         
_________________________________________________________________
dropout_116 (Dropout)        (None, 32, 32, 1024)      0         
_________________________________________________________________
max_pooling2d_29 (MaxPooling (None, 16, 16, 1024)      0         
_________________________________________________________________
conv2d_86 (Conv2D)           (None, 16, 16, 64)        589888    
_________________________________________________________________
batch_normalization_56 (Batc (None, 16, 16, 64)        256       
_________________________________________________________________
activation_117 (Activation)  (None, 16, 16, 64)        0         
_________________________________________________________________
dropout_117 (Dropout)        (None, 16, 16, 64)        0         
_________________________________________________________________
max_pooling2d_30 (MaxPooling (None, 8, 8, 64)          0         
_________________________________________________________________
conv2d_87 (Conv2D)           (None, 8, 8, 128)         73856     
_________________________________________________________________
activation_118 (Activation)  (None, 8, 8, 128)         0         
_________________________________________________________________
dropout_118 (Dropout)        (None, 8, 8, 128)         0         
_________________________________________________________________
conv2d_88 (Conv2D)           (None, 8, 8, 32)          36896     
_________________________________________________________________
batch_normalization_57 (Batc (None, 8, 8, 32)          128       
_________________________________________________________________
activation_119 (Activation)  (None, 8, 8, 32)          0         
_________________________________________________________________
dropout_119 (Dropout)        (None, 8, 8, 32)          0         
_________________________________________________________________
conv2d_89 (Conv2D)           (None, 8, 8, 1024)        295936    
_________________________________________________________________
activation_120 (Activation)  (None, 8, 8, 1024)        0         
_________________________________________________________________
dropout_120 (Dropout)        (None, 8, 8, 1024)        0         
_________________________________________________________________
conv2d_90 (Conv2D)           (None, 8, 8, 1024)        9438208   
_________________________________________________________________
batch_normalization_58 (Batc (None, 8, 8, 1024)        4096      
_________________________________________________________________
activation_121 (Activation)  (None, 8, 8, 1024)        0         
_________________________________________________________________
dropout_121 (Dropout)        (None, 8, 8, 1024)        0         
_________________________________________________________________
flatten_11 (Flatten)         (None, 65536)             0         
_________________________________________________________________
dense_42 (Dense)             (None, 64)                4194368   
_________________________________________________________________
batch_normalization_59 (Batc (None, 64)                256       
_________________________________________________________________
activation_122 (Activation)  (None, 64)                0         
_________________________________________________________________
dropout_122 (Dropout)        (None, 64)                0         
_________________________________________________________________
dense_43 (Dense)             (None, 256)               16640     
_________________________________________________________________
activation_123 (Activation)  (None, 256)               0         
_________________________________________________________________
dropout_123 (Dropout)        (None, 256)               0         
_________________________________________________________________
dense_44 (Dense)             (None, 10)                2570      
=================================================================
Total params: 24,119,978
Trainable params: 24,117,610
Non-trainable params: 2,368
_________________________________________________________________
