Model: "sequential_96"
_________________________________________________________________
Layer (type)                 Output Shape              Param #   
=================================================================
conv2d_668 (Conv2D)          (None, 32, 32, 1024)      28672     
_________________________________________________________________
batch_normalization_404 (Bat (None, 32, 32, 1024)      4096      
_________________________________________________________________
activation_865 (Activation)  (None, 32, 32, 1024)      0         
_________________________________________________________________
dropout_865 (Dropout)        (None, 32, 32, 1024)      0         
_________________________________________________________________
conv2d_669 (Conv2D)          (None, 32, 32, 1024)      9438208   
_________________________________________________________________
activation_866 (Activation)  (None, 32, 32, 1024)      0         
_________________________________________________________________
dropout_866 (Dropout)        (None, 32, 32, 1024)      0         
_________________________________________________________________
max_pooling2d_200 (MaxPoolin (None, 16, 16, 1024)      0         
_________________________________________________________________
conv2d_670 (Conv2D)          (None, 16, 16, 64)        589888    
_________________________________________________________________
batch_normalization_405 (Bat (None, 16, 16, 64)        256       
_________________________________________________________________
activation_867 (Activation)  (None, 16, 16, 64)        0         
_________________________________________________________________
dropout_867 (Dropout)        (None, 16, 16, 64)        0         
_________________________________________________________________
max_pooling2d_201 (MaxPoolin (None, 8, 8, 64)          0         
_________________________________________________________________
conv2d_671 (Conv2D)          (None, 8, 8, 128)         73856     
_________________________________________________________________
activation_868 (Activation)  (None, 8, 8, 128)         0         
_________________________________________________________________
dropout_868 (Dropout)        (None, 8, 8, 128)         0         
_________________________________________________________________
max_pooling2d_202 (MaxPoolin (None, 4, 4, 128)         0         
_________________________________________________________________
conv2d_672 (Conv2D)          (None, 4, 4, 32)          36896     
_________________________________________________________________
batch_normalization_406 (Bat (None, 4, 4, 32)          128       
_________________________________________________________________
activation_869 (Activation)  (None, 4, 4, 32)          0         
_________________________________________________________________
dropout_869 (Dropout)        (None, 4, 4, 32)          0         
_________________________________________________________________
conv2d_673 (Conv2D)          (None, 4, 4, 1024)        295936    
_________________________________________________________________
activation_870 (Activation)  (None, 4, 4, 1024)        0         
_________________________________________________________________
dropout_870 (Dropout)        (None, 4, 4, 1024)        0         
_________________________________________________________________
conv2d_674 (Conv2D)          (None, 4, 4, 1024)        9438208   
_________________________________________________________________
batch_normalization_407 (Bat (None, 4, 4, 1024)        4096      
_________________________________________________________________
activation_871 (Activation)  (None, 4, 4, 1024)        0         
_________________________________________________________________
dropout_871 (Dropout)        (None, 4, 4, 1024)        0         
_________________________________________________________________
flatten_96 (Flatten)         (None, 16384)             0         
_________________________________________________________________
dense_293 (Dense)            (None, 64)                1048640   
_________________________________________________________________
batch_normalization_408 (Bat (None, 64)                256       
_________________________________________________________________
activation_872 (Activation)  (None, 64)                0         
_________________________________________________________________
dropout_872 (Dropout)        (None, 64)                0         
_________________________________________________________________
dense_294 (Dense)            (None, 256)               16640     
_________________________________________________________________
activation_873 (Activation)  (None, 256)               0         
_________________________________________________________________
dropout_873 (Dropout)        (None, 256)               0         
_________________________________________________________________
dense_295 (Dense)            (None, 10)                2570      
=================================================================
Total params: 20,978,346
Trainable params: 20,973,930
Non-trainable params: 4,416
_________________________________________________________________
