Model: "sequential_61"
_________________________________________________________________
Layer (type)                 Output Shape              Param #   
=================================================================
conv2d_425 (Conv2D)          (None, 32, 32, 1024)      28672     
_________________________________________________________________
activation_565 (Activation)  (None, 32, 32, 1024)      0         
_________________________________________________________________
dropout_565 (Dropout)        (None, 32, 32, 1024)      0         
_________________________________________________________________
conv2d_426 (Conv2D)          (None, 32, 32, 1024)      9438208   
_________________________________________________________________
activation_566 (Activation)  (None, 32, 32, 1024)      0         
_________________________________________________________________
dropout_566 (Dropout)        (None, 32, 32, 1024)      0         
_________________________________________________________________
max_pooling2d_129 (MaxPoolin (None, 16, 16, 1024)      0         
_________________________________________________________________
conv2d_427 (Conv2D)          (None, 16, 16, 64)        589888    
_________________________________________________________________
batch_normalization_256 (Bat (None, 16, 16, 64)        256       
_________________________________________________________________
activation_567 (Activation)  (None, 16, 16, 64)        0         
_________________________________________________________________
dropout_567 (Dropout)        (None, 16, 16, 64)        0         
_________________________________________________________________
max_pooling2d_130 (MaxPoolin (None, 8, 8, 64)          0         
_________________________________________________________________
conv2d_428 (Conv2D)          (None, 8, 8, 128)         73856     
_________________________________________________________________
batch_normalization_257 (Bat (None, 8, 8, 128)         512       
_________________________________________________________________
activation_568 (Activation)  (None, 8, 8, 128)         0         
_________________________________________________________________
dropout_568 (Dropout)        (None, 8, 8, 128)         0         
_________________________________________________________________
conv2d_429 (Conv2D)          (None, 8, 8, 32)          36896     
_________________________________________________________________
batch_normalization_258 (Bat (None, 8, 8, 32)          128       
_________________________________________________________________
activation_569 (Activation)  (None, 8, 8, 32)          0         
_________________________________________________________________
dropout_569 (Dropout)        (None, 8, 8, 32)          0         
_________________________________________________________________
conv2d_430 (Conv2D)          (None, 8, 8, 1024)        295936    
_________________________________________________________________
activation_570 (Activation)  (None, 8, 8, 1024)        0         
_________________________________________________________________
dropout_570 (Dropout)        (None, 8, 8, 1024)        0         
_________________________________________________________________
conv2d_431 (Conv2D)          (None, 8, 8, 1024)        9438208   
_________________________________________________________________
batch_normalization_259 (Bat (None, 8, 8, 1024)        4096      
_________________________________________________________________
activation_571 (Activation)  (None, 8, 8, 1024)        0         
_________________________________________________________________
dropout_571 (Dropout)        (None, 8, 8, 1024)        0         
_________________________________________________________________
flatten_61 (Flatten)         (None, 65536)             0         
_________________________________________________________________
dense_201 (Dense)            (None, 256)               16777472  
_________________________________________________________________
batch_normalization_260 (Bat (None, 256)               1024      
_________________________________________________________________
activation_572 (Activation)  (None, 256)               0         
_________________________________________________________________
dropout_572 (Dropout)        (None, 256)               0         
_________________________________________________________________
dense_202 (Dense)            (None, 256)               65792     
_________________________________________________________________
activation_573 (Activation)  (None, 256)               0         
_________________________________________________________________
dropout_573 (Dropout)        (None, 256)               0         
_________________________________________________________________
dense_203 (Dense)            (None, 10)                2570      
=================================================================
Total params: 36,753,514
Trainable params: 36,750,506
Non-trainable params: 3,008
_________________________________________________________________
