Model: "sequential_170"
_________________________________________________________________
Layer (type)                 Output Shape              Param #   
=================================================================
conv2d_1187 (Conv2D)         (None, 32, 32, 1024)      28672     
_________________________________________________________________
activation_1519 (Activation) (None, 32, 32, 1024)      0         
_________________________________________________________________
dropout_1519 (Dropout)       (None, 32, 32, 1024)      0         
_________________________________________________________________
conv2d_1188 (Conv2D)         (None, 32, 32, 1024)      9438208   
_________________________________________________________________
activation_1520 (Activation) (None, 32, 32, 1024)      0         
_________________________________________________________________
dropout_1520 (Dropout)       (None, 32, 32, 1024)      0         
_________________________________________________________________
max_pooling2d_374 (MaxPoolin (None, 16, 16, 1024)      0         
_________________________________________________________________
conv2d_1189 (Conv2D)         (None, 16, 16, 64)        589888    
_________________________________________________________________
batch_normalization_729 (Bat (None, 16, 16, 64)        256       
_________________________________________________________________
activation_1521 (Activation) (None, 16, 16, 64)        0         
_________________________________________________________________
dropout_1521 (Dropout)       (None, 16, 16, 64)        0         
_________________________________________________________________
max_pooling2d_375 (MaxPoolin (None, 8, 8, 64)          0         
_________________________________________________________________
conv2d_1190 (Conv2D)         (None, 8, 8, 128)         73856     
_________________________________________________________________
activation_1522 (Activation) (None, 8, 8, 128)         0         
_________________________________________________________________
dropout_1522 (Dropout)       (None, 8, 8, 128)         0         
_________________________________________________________________
conv2d_1191 (Conv2D)         (None, 8, 8, 32)          36896     
_________________________________________________________________
batch_normalization_730 (Bat (None, 8, 8, 32)          128       
_________________________________________________________________
activation_1523 (Activation) (None, 8, 8, 32)          0         
_________________________________________________________________
dropout_1523 (Dropout)       (None, 8, 8, 32)          0         
_________________________________________________________________
conv2d_1192 (Conv2D)         (None, 8, 8, 1024)        295936    
_________________________________________________________________
activation_1524 (Activation) (None, 8, 8, 1024)        0         
_________________________________________________________________
dropout_1524 (Dropout)       (None, 8, 8, 1024)        0         
_________________________________________________________________
conv2d_1193 (Conv2D)         (None, 8, 8, 256)         2359552   
_________________________________________________________________
batch_normalization_731 (Bat (None, 8, 8, 256)         1024      
_________________________________________________________________
activation_1525 (Activation) (None, 8, 8, 256)         0         
_________________________________________________________________
dropout_1525 (Dropout)       (None, 8, 8, 256)         0         
_________________________________________________________________
conv2d_1194 (Conv2D)         (None, 8, 8, 1024)        2360320   
_________________________________________________________________
batch_normalization_732 (Bat (None, 8, 8, 1024)        4096      
_________________________________________________________________
activation_1526 (Activation) (None, 8, 8, 1024)        0         
_________________________________________________________________
dropout_1526 (Dropout)       (None, 8, 8, 1024)        0         
_________________________________________________________________
flatten_170 (Flatten)        (None, 65536)             0         
_________________________________________________________________
dense_502 (Dense)            (None, 64)                4194368   
_________________________________________________________________
batch_normalization_733 (Bat (None, 64)                256       
_________________________________________________________________
activation_1527 (Activation) (None, 64)                0         
_________________________________________________________________
dropout_1527 (Dropout)       (None, 64)                0         
_________________________________________________________________
dense_503 (Dense)            (None, 256)               16640     
_________________________________________________________________
batch_normalization_734 (Bat (None, 256)               1024      
_________________________________________________________________
activation_1528 (Activation) (None, 256)               0         
_________________________________________________________________
dropout_1528 (Dropout)       (None, 256)               0         
_________________________________________________________________
dense_504 (Dense)            (None, 10)                2570      
=================================================================
Total params: 19,403,690
Trainable params: 19,400,298
Non-trainable params: 3,392
_________________________________________________________________
