Model: "sequential_191"
_________________________________________________________________
Layer (type)                 Output Shape              Param #   
=================================================================
conv2d_1341 (Conv2D)         (None, 32, 32, 1024)      28672     
_________________________________________________________________
batch_normalization_835 (Bat (None, 32, 32, 1024)      4096      
_________________________________________________________________
activation_1715 (Activation) (None, 32, 32, 1024)      0         
_________________________________________________________________
dropout_1715 (Dropout)       (None, 32, 32, 1024)      0         
_________________________________________________________________
conv2d_1342 (Conv2D)         (None, 32, 32, 1024)      9438208   
_________________________________________________________________
activation_1716 (Activation) (None, 32, 32, 1024)      0         
_________________________________________________________________
dropout_1716 (Dropout)       (None, 32, 32, 1024)      0         
_________________________________________________________________
conv2d_1343 (Conv2D)         (None, 32, 32, 64)        589888    
_________________________________________________________________
batch_normalization_836 (Bat (None, 32, 32, 64)        256       
_________________________________________________________________
activation_1717 (Activation) (None, 32, 32, 64)        0         
_________________________________________________________________
dropout_1717 (Dropout)       (None, 32, 32, 64)        0         
_________________________________________________________________
max_pooling2d_419 (MaxPoolin (None, 16, 16, 64)        0         
_________________________________________________________________
conv2d_1344 (Conv2D)         (None, 16, 16, 128)       73856     
_________________________________________________________________
activation_1718 (Activation) (None, 16, 16, 128)       0         
_________________________________________________________________
dropout_1718 (Dropout)       (None, 16, 16, 128)       0         
_________________________________________________________________
conv2d_1345 (Conv2D)         (None, 16, 16, 32)        36896     
_________________________________________________________________
batch_normalization_837 (Bat (None, 16, 16, 32)        128       
_________________________________________________________________
activation_1719 (Activation) (None, 16, 16, 32)        0         
_________________________________________________________________
dropout_1719 (Dropout)       (None, 16, 16, 32)        0         
_________________________________________________________________
conv2d_1346 (Conv2D)         (None, 16, 16, 1024)      295936    
_________________________________________________________________
activation_1720 (Activation) (None, 16, 16, 1024)      0         
_________________________________________________________________
dropout_1720 (Dropout)       (None, 16, 16, 1024)      0         
_________________________________________________________________
conv2d_1347 (Conv2D)         (None, 16, 16, 1024)      9438208   
_________________________________________________________________
batch_normalization_838 (Bat (None, 16, 16, 1024)      4096      
_________________________________________________________________
activation_1721 (Activation) (None, 16, 16, 1024)      0         
_________________________________________________________________
dropout_1721 (Dropout)       (None, 16, 16, 1024)      0         
_________________________________________________________________
flatten_191 (Flatten)        (None, 262144)            0         
_________________________________________________________________
dense_565 (Dense)            (None, 64)                16777280  
_________________________________________________________________
batch_normalization_839 (Bat (None, 64)                256       
_________________________________________________________________
activation_1722 (Activation) (None, 64)                0         
_________________________________________________________________
dropout_1722 (Dropout)       (None, 64)                0         
_________________________________________________________________
dense_566 (Dense)            (None, 256)               16640     
_________________________________________________________________
batch_normalization_840 (Bat (None, 256)               1024      
_________________________________________________________________
activation_1723 (Activation) (None, 256)               0         
_________________________________________________________________
dropout_1723 (Dropout)       (None, 256)               0         
_________________________________________________________________
dense_567 (Dense)            (None, 10)                2570      
=================================================================
Total params: 36,708,010
Trainable params: 36,703,082
Non-trainable params: 4,928
_________________________________________________________________
