Model: "sequential_151"
_________________________________________________________________
Layer (type)                 Output Shape              Param #   
=================================================================
conv2d_1053 (Conv2D)         (None, 32, 32, 1024)      28672     
_________________________________________________________________
activation_1347 (Activation) (None, 32, 32, 1024)      0         
_________________________________________________________________
dropout_1347 (Dropout)       (None, 32, 32, 1024)      0         
_________________________________________________________________
conv2d_1054 (Conv2D)         (None, 32, 32, 1024)      9438208   
_________________________________________________________________
activation_1348 (Activation) (None, 32, 32, 1024)      0         
_________________________________________________________________
dropout_1348 (Dropout)       (None, 32, 32, 1024)      0         
_________________________________________________________________
max_pooling2d_329 (MaxPoolin (None, 16, 16, 1024)      0         
_________________________________________________________________
conv2d_1055 (Conv2D)         (None, 16, 16, 64)        589888    
_________________________________________________________________
batch_normalization_643 (Bat (None, 16, 16, 64)        256       
_________________________________________________________________
activation_1349 (Activation) (None, 16, 16, 64)        0         
_________________________________________________________________
dropout_1349 (Dropout)       (None, 16, 16, 64)        0         
_________________________________________________________________
max_pooling2d_330 (MaxPoolin (None, 8, 8, 64)          0         
_________________________________________________________________
conv2d_1056 (Conv2D)         (None, 8, 8, 128)         73856     
_________________________________________________________________
activation_1350 (Activation) (None, 8, 8, 128)         0         
_________________________________________________________________
dropout_1350 (Dropout)       (None, 8, 8, 128)         0         
_________________________________________________________________
conv2d_1057 (Conv2D)         (None, 8, 8, 32)          36896     
_________________________________________________________________
batch_normalization_644 (Bat (None, 8, 8, 32)          128       
_________________________________________________________________
activation_1351 (Activation) (None, 8, 8, 32)          0         
_________________________________________________________________
dropout_1351 (Dropout)       (None, 8, 8, 32)          0         
_________________________________________________________________
conv2d_1058 (Conv2D)         (None, 8, 8, 1024)        295936    
_________________________________________________________________
activation_1352 (Activation) (None, 8, 8, 1024)        0         
_________________________________________________________________
dropout_1352 (Dropout)       (None, 8, 8, 1024)        0         
_________________________________________________________________
conv2d_1059 (Conv2D)         (None, 8, 8, 1024)        9438208   
_________________________________________________________________
batch_normalization_645 (Bat (None, 8, 8, 1024)        4096      
_________________________________________________________________
activation_1353 (Activation) (None, 8, 8, 1024)        0         
_________________________________________________________________
dropout_1353 (Dropout)       (None, 8, 8, 1024)        0         
_________________________________________________________________
flatten_151 (Flatten)        (None, 65536)             0         
_________________________________________________________________
dense_445 (Dense)            (None, 64)                4194368   
_________________________________________________________________
batch_normalization_646 (Bat (None, 64)                256       
_________________________________________________________________
activation_1354 (Activation) (None, 64)                0         
_________________________________________________________________
dropout_1354 (Dropout)       (None, 64)                0         
_________________________________________________________________
dense_446 (Dense)            (None, 256)               16640     
_________________________________________________________________
activation_1355 (Activation) (None, 256)               0         
_________________________________________________________________
dropout_1355 (Dropout)       (None, 256)               0         
_________________________________________________________________
dense_447 (Dense)            (None, 10)                2570      
=================================================================
Total params: 24,119,978
Trainable params: 24,117,610
Non-trainable params: 2,368
_________________________________________________________________
