Model: "sequential_103"
_________________________________________________________________
Layer (type)                 Output Shape              Param #   
=================================================================
conv2d_717 (Conv2D)          (None, 32, 32, 1024)      28672     
_________________________________________________________________
activation_925 (Activation)  (None, 32, 32, 1024)      0         
_________________________________________________________________
dropout_925 (Dropout)        (None, 32, 32, 1024)      0         
_________________________________________________________________
conv2d_718 (Conv2D)          (None, 32, 32, 1024)      9438208   
_________________________________________________________________
activation_926 (Activation)  (None, 32, 32, 1024)      0         
_________________________________________________________________
dropout_926 (Dropout)        (None, 32, 32, 1024)      0         
_________________________________________________________________
max_pooling2d_216 (MaxPoolin (None, 16, 16, 1024)      0         
_________________________________________________________________
conv2d_719 (Conv2D)          (None, 16, 16, 64)        589888    
_________________________________________________________________
batch_normalization_436 (Bat (None, 16, 16, 64)        256       
_________________________________________________________________
activation_927 (Activation)  (None, 16, 16, 64)        0         
_________________________________________________________________
dropout_927 (Dropout)        (None, 16, 16, 64)        0         
_________________________________________________________________
max_pooling2d_217 (MaxPoolin (None, 8, 8, 64)          0         
_________________________________________________________________
conv2d_720 (Conv2D)          (None, 8, 8, 128)         73856     
_________________________________________________________________
activation_928 (Activation)  (None, 8, 8, 128)         0         
_________________________________________________________________
dropout_928 (Dropout)        (None, 8, 8, 128)         0         
_________________________________________________________________
conv2d_721 (Conv2D)          (None, 8, 8, 32)          36896     
_________________________________________________________________
batch_normalization_437 (Bat (None, 8, 8, 32)          128       
_________________________________________________________________
activation_929 (Activation)  (None, 8, 8, 32)          0         
_________________________________________________________________
dropout_929 (Dropout)        (None, 8, 8, 32)          0         
_________________________________________________________________
conv2d_722 (Conv2D)          (None, 8, 8, 1024)        295936    
_________________________________________________________________
activation_930 (Activation)  (None, 8, 8, 1024)        0         
_________________________________________________________________
dropout_930 (Dropout)        (None, 8, 8, 1024)        0         
_________________________________________________________________
conv2d_723 (Conv2D)          (None, 8, 8, 1024)        9438208   
_________________________________________________________________
batch_normalization_438 (Bat (None, 8, 8, 1024)        4096      
_________________________________________________________________
activation_931 (Activation)  (None, 8, 8, 1024)        0         
_________________________________________________________________
dropout_931 (Dropout)        (None, 8, 8, 1024)        0         
_________________________________________________________________
flatten_103 (Flatten)        (None, 65536)             0         
_________________________________________________________________
dense_311 (Dense)            (None, 64)                4194368   
_________________________________________________________________
activation_932 (Activation)  (None, 64)                0         
_________________________________________________________________
dropout_932 (Dropout)        (None, 64)                0         
_________________________________________________________________
dense_312 (Dense)            (None, 256)               16640     
_________________________________________________________________
activation_933 (Activation)  (None, 256)               0         
_________________________________________________________________
dropout_933 (Dropout)        (None, 256)               0         
_________________________________________________________________
dense_313 (Dense)            (None, 10)                2570      
=================================================================
Total params: 24,119,722
Trainable params: 24,117,482
Non-trainable params: 2,240
_________________________________________________________________
