Model: "sequential_131"
_________________________________________________________________
Layer (type)                 Output Shape              Param #   
=================================================================
conv2d_913 (Conv2D)          (None, 32, 32, 1024)      28672     
_________________________________________________________________
batch_normalization_556 (Bat (None, 32, 32, 1024)      4096      
_________________________________________________________________
activation_1169 (Activation) (None, 32, 32, 1024)      0         
_________________________________________________________________
dropout_1169 (Dropout)       (None, 32, 32, 1024)      0         
_________________________________________________________________
conv2d_914 (Conv2D)          (None, 32, 32, 1024)      9438208   
_________________________________________________________________
activation_1170 (Activation) (None, 32, 32, 1024)      0         
_________________________________________________________________
dropout_1170 (Dropout)       (None, 32, 32, 1024)      0         
_________________________________________________________________
max_pooling2d_280 (MaxPoolin (None, 16, 16, 1024)      0         
_________________________________________________________________
conv2d_915 (Conv2D)          (None, 16, 16, 64)        589888    
_________________________________________________________________
batch_normalization_557 (Bat (None, 16, 16, 64)        256       
_________________________________________________________________
activation_1171 (Activation) (None, 16, 16, 64)        0         
_________________________________________________________________
dropout_1171 (Dropout)       (None, 16, 16, 64)        0         
_________________________________________________________________
max_pooling2d_281 (MaxPoolin (None, 8, 8, 64)          0         
_________________________________________________________________
conv2d_916 (Conv2D)          (None, 8, 8, 128)         73856     
_________________________________________________________________
activation_1172 (Activation) (None, 8, 8, 128)         0         
_________________________________________________________________
dropout_1172 (Dropout)       (None, 8, 8, 128)         0         
_________________________________________________________________
conv2d_917 (Conv2D)          (None, 8, 8, 32)          36896     
_________________________________________________________________
batch_normalization_558 (Bat (None, 8, 8, 32)          128       
_________________________________________________________________
activation_1173 (Activation) (None, 8, 8, 32)          0         
_________________________________________________________________
dropout_1173 (Dropout)       (None, 8, 8, 32)          0         
_________________________________________________________________
conv2d_918 (Conv2D)          (None, 8, 8, 1024)        295936    
_________________________________________________________________
activation_1174 (Activation) (None, 8, 8, 1024)        0         
_________________________________________________________________
dropout_1174 (Dropout)       (None, 8, 8, 1024)        0         
_________________________________________________________________
conv2d_919 (Conv2D)          (None, 8, 8, 1024)        9438208   
_________________________________________________________________
batch_normalization_559 (Bat (None, 8, 8, 1024)        4096      
_________________________________________________________________
activation_1175 (Activation) (None, 8, 8, 1024)        0         
_________________________________________________________________
dropout_1175 (Dropout)       (None, 8, 8, 1024)        0         
_________________________________________________________________
flatten_131 (Flatten)        (None, 65536)             0         
_________________________________________________________________
dense_387 (Dense)            (None, 64)                4194368   
_________________________________________________________________
batch_normalization_560 (Bat (None, 64)                256       
_________________________________________________________________
activation_1176 (Activation) (None, 64)                0         
_________________________________________________________________
dropout_1176 (Dropout)       (None, 64)                0         
_________________________________________________________________
dense_388 (Dense)            (None, 256)               16640     
_________________________________________________________________
activation_1177 (Activation) (None, 256)               0         
_________________________________________________________________
dropout_1177 (Dropout)       (None, 256)               0         
_________________________________________________________________
dense_389 (Dense)            (None, 10)                2570      
=================================================================
Total params: 24,124,074
Trainable params: 24,119,658
Non-trainable params: 4,416
_________________________________________________________________
