Model: "sequential_23"
_________________________________________________________________
Layer (type)                 Output Shape              Param #   
=================================================================
conv2d_166 (Conv2D)          (None, 32, 32, 1024)      28672     
_________________________________________________________________
activation_227 (Activation)  (None, 32, 32, 1024)      0         
_________________________________________________________________
dropout_227 (Dropout)        (None, 32, 32, 1024)      0         
_________________________________________________________________
conv2d_167 (Conv2D)          (None, 32, 32, 1024)      9438208   
_________________________________________________________________
activation_228 (Activation)  (None, 32, 32, 1024)      0         
_________________________________________________________________
dropout_228 (Dropout)        (None, 32, 32, 1024)      0         
_________________________________________________________________
max_pooling2d_52 (MaxPooling (None, 16, 16, 1024)      0         
_________________________________________________________________
conv2d_168 (Conv2D)          (None, 16, 16, 64)        589888    
_________________________________________________________________
batch_normalization_106 (Bat (None, 16, 16, 64)        256       
_________________________________________________________________
activation_229 (Activation)  (None, 16, 16, 64)        0         
_________________________________________________________________
dropout_229 (Dropout)        (None, 16, 16, 64)        0         
_________________________________________________________________
max_pooling2d_53 (MaxPooling (None, 8, 8, 64)          0         
_________________________________________________________________
conv2d_169 (Conv2D)          (None, 8, 8, 128)         73856     
_________________________________________________________________
activation_230 (Activation)  (None, 8, 8, 128)         0         
_________________________________________________________________
dropout_230 (Dropout)        (None, 8, 8, 128)         0         
_________________________________________________________________
conv2d_170 (Conv2D)          (None, 8, 8, 32)          36896     
_________________________________________________________________
batch_normalization_107 (Bat (None, 8, 8, 32)          128       
_________________________________________________________________
activation_231 (Activation)  (None, 8, 8, 32)          0         
_________________________________________________________________
dropout_231 (Dropout)        (None, 8, 8, 32)          0         
_________________________________________________________________
conv2d_171 (Conv2D)          (None, 8, 8, 1024)        295936    
_________________________________________________________________
activation_232 (Activation)  (None, 8, 8, 1024)        0         
_________________________________________________________________
dropout_232 (Dropout)        (None, 8, 8, 1024)        0         
_________________________________________________________________
conv2d_172 (Conv2D)          (None, 8, 8, 1024)        9438208   
_________________________________________________________________
batch_normalization_108 (Bat (None, 8, 8, 1024)        4096      
_________________________________________________________________
activation_233 (Activation)  (None, 8, 8, 1024)        0         
_________________________________________________________________
dropout_233 (Dropout)        (None, 8, 8, 1024)        0         
_________________________________________________________________
flatten_23 (Flatten)         (None, 65536)             0         
_________________________________________________________________
dense_84 (Dense)             (None, 16)                1048592   
_________________________________________________________________
batch_normalization_109 (Bat (None, 16)                64        
_________________________________________________________________
activation_234 (Activation)  (None, 16)                0         
_________________________________________________________________
dropout_234 (Dropout)        (None, 16)                0         
_________________________________________________________________
dense_85 (Dense)             (None, 256)               4352      
_________________________________________________________________
activation_235 (Activation)  (None, 256)               0         
_________________________________________________________________
dropout_235 (Dropout)        (None, 256)               0         
_________________________________________________________________
dense_86 (Dense)             (None, 16)                4112      
_________________________________________________________________
activation_236 (Activation)  (None, 16)                0         
_________________________________________________________________
dropout_236 (Dropout)        (None, 16)                0         
_________________________________________________________________
dense_87 (Dense)             (None, 10)                170       
=================================================================
Total params: 20,963,434
Trainable params: 20,961,162
Non-trainable params: 2,272
_________________________________________________________________
