Model: "sequential_50"
_________________________________________________________________
Layer (type)                 Output Shape              Param #   
=================================================================
conv2d_348 (Conv2D)          (None, 32, 32, 1024)      28672     
_________________________________________________________________
activation_469 (Activation)  (None, 32, 32, 1024)      0         
_________________________________________________________________
dropout_469 (Dropout)        (None, 32, 32, 1024)      0         
_________________________________________________________________
conv2d_349 (Conv2D)          (None, 32, 32, 1024)      9438208   
_________________________________________________________________
activation_470 (Activation)  (None, 32, 32, 1024)      0         
_________________________________________________________________
dropout_470 (Dropout)        (None, 32, 32, 1024)      0         
_________________________________________________________________
max_pooling2d_107 (MaxPoolin (None, 16, 16, 1024)      0         
_________________________________________________________________
conv2d_350 (Conv2D)          (None, 16, 16, 64)        589888    
_________________________________________________________________
batch_normalization_211 (Bat (None, 16, 16, 64)        256       
_________________________________________________________________
activation_471 (Activation)  (None, 16, 16, 64)        0         
_________________________________________________________________
dropout_471 (Dropout)        (None, 16, 16, 64)        0         
_________________________________________________________________
max_pooling2d_108 (MaxPoolin (None, 8, 8, 64)          0         
_________________________________________________________________
conv2d_351 (Conv2D)          (None, 8, 8, 128)         73856     
_________________________________________________________________
activation_472 (Activation)  (None, 8, 8, 128)         0         
_________________________________________________________________
dropout_472 (Dropout)        (None, 8, 8, 128)         0         
_________________________________________________________________
conv2d_352 (Conv2D)          (None, 8, 8, 32)          36896     
_________________________________________________________________
batch_normalization_212 (Bat (None, 8, 8, 32)          128       
_________________________________________________________________
activation_473 (Activation)  (None, 8, 8, 32)          0         
_________________________________________________________________
dropout_473 (Dropout)        (None, 8, 8, 32)          0         
_________________________________________________________________
conv2d_353 (Conv2D)          (None, 8, 8, 1024)        295936    
_________________________________________________________________
activation_474 (Activation)  (None, 8, 8, 1024)        0         
_________________________________________________________________
dropout_474 (Dropout)        (None, 8, 8, 1024)        0         
_________________________________________________________________
conv2d_354 (Conv2D)          (None, 8, 8, 1024)        9438208   
_________________________________________________________________
batch_normalization_213 (Bat (None, 8, 8, 1024)        4096      
_________________________________________________________________
activation_475 (Activation)  (None, 8, 8, 1024)        0         
_________________________________________________________________
dropout_475 (Dropout)        (None, 8, 8, 1024)        0         
_________________________________________________________________
flatten_50 (Flatten)         (None, 65536)             0         
_________________________________________________________________
dense_171 (Dense)            (None, 64)                4194368   
_________________________________________________________________
batch_normalization_214 (Bat (None, 64)                256       
_________________________________________________________________
activation_476 (Activation)  (None, 64)                0         
_________________________________________________________________
dropout_476 (Dropout)        (None, 64)                0         
_________________________________________________________________
dense_172 (Dense)            (None, 256)               16640     
_________________________________________________________________
activation_477 (Activation)  (None, 256)               0         
_________________________________________________________________
dropout_477 (Dropout)        (None, 256)               0         
_________________________________________________________________
dense_173 (Dense)            (None, 10)                2570      
=================================================================
Total params: 24,119,978
Trainable params: 24,117,610
Non-trainable params: 2,368
_________________________________________________________________
