Model: "sequential_154"
_________________________________________________________________
Layer (type)                 Output Shape              Param #   
=================================================================
conv2d_1074 (Conv2D)         (None, 32, 32, 1024)      28672     
_________________________________________________________________
activation_1374 (Activation) (None, 32, 32, 1024)      0         
_________________________________________________________________
dropout_1374 (Dropout)       (None, 32, 32, 1024)      0         
_________________________________________________________________
conv2d_1075 (Conv2D)         (None, 32, 32, 1024)      9438208   
_________________________________________________________________
activation_1375 (Activation) (None, 32, 32, 1024)      0         
_________________________________________________________________
dropout_1375 (Dropout)       (None, 32, 32, 1024)      0         
_________________________________________________________________
max_pooling2d_336 (MaxPoolin (None, 16, 16, 1024)      0         
_________________________________________________________________
conv2d_1076 (Conv2D)         (None, 16, 16, 64)        589888    
_________________________________________________________________
batch_normalization_655 (Bat (None, 16, 16, 64)        256       
_________________________________________________________________
activation_1376 (Activation) (None, 16, 16, 64)        0         
_________________________________________________________________
dropout_1376 (Dropout)       (None, 16, 16, 64)        0         
_________________________________________________________________
max_pooling2d_337 (MaxPoolin (None, 8, 8, 64)          0         
_________________________________________________________________
conv2d_1077 (Conv2D)         (None, 8, 8, 128)         73856     
_________________________________________________________________
activation_1377 (Activation) (None, 8, 8, 128)         0         
_________________________________________________________________
dropout_1377 (Dropout)       (None, 8, 8, 128)         0         
_________________________________________________________________
conv2d_1078 (Conv2D)         (None, 8, 8, 32)          36896     
_________________________________________________________________
batch_normalization_656 (Bat (None, 8, 8, 32)          128       
_________________________________________________________________
activation_1378 (Activation) (None, 8, 8, 32)          0         
_________________________________________________________________
dropout_1378 (Dropout)       (None, 8, 8, 32)          0         
_________________________________________________________________
conv2d_1079 (Conv2D)         (None, 8, 8, 1024)        295936    
_________________________________________________________________
activation_1379 (Activation) (None, 8, 8, 1024)        0         
_________________________________________________________________
dropout_1379 (Dropout)       (None, 8, 8, 1024)        0         
_________________________________________________________________
conv2d_1080 (Conv2D)         (None, 8, 8, 1024)        9438208   
_________________________________________________________________
batch_normalization_657 (Bat (None, 8, 8, 1024)        4096      
_________________________________________________________________
activation_1380 (Activation) (None, 8, 8, 1024)        0         
_________________________________________________________________
dropout_1380 (Dropout)       (None, 8, 8, 1024)        0         
_________________________________________________________________
flatten_154 (Flatten)        (None, 65536)             0         
_________________________________________________________________
dense_454 (Dense)            (None, 64)                4194368   
_________________________________________________________________
batch_normalization_658 (Bat (None, 64)                256       
_________________________________________________________________
activation_1381 (Activation) (None, 64)                0         
_________________________________________________________________
dropout_1381 (Dropout)       (None, 64)                0         
_________________________________________________________________
dense_455 (Dense)            (None, 256)               16640     
_________________________________________________________________
activation_1382 (Activation) (None, 256)               0         
_________________________________________________________________
dropout_1382 (Dropout)       (None, 256)               0         
_________________________________________________________________
dense_456 (Dense)            (None, 10)                2570      
=================================================================
Total params: 24,119,978
Trainable params: 24,117,610
Non-trainable params: 2,368
_________________________________________________________________
