Model: "sequential_119"
_________________________________________________________________
Layer (type)                 Output Shape              Param #   
=================================================================
conv2d_829 (Conv2D)          (None, 32, 32, 1024)      28672     
_________________________________________________________________
activation_1062 (Activation) (None, 32, 32, 1024)      0         
_________________________________________________________________
dropout_1062 (Dropout)       (None, 32, 32, 1024)      0         
_________________________________________________________________
conv2d_830 (Conv2D)          (None, 32, 32, 1024)      9438208   
_________________________________________________________________
activation_1063 (Activation) (None, 32, 32, 1024)      0         
_________________________________________________________________
dropout_1063 (Dropout)       (None, 32, 32, 1024)      0         
_________________________________________________________________
max_pooling2d_252 (MaxPoolin (None, 16, 16, 1024)      0         
_________________________________________________________________
conv2d_831 (Conv2D)          (None, 16, 16, 64)        589888    
_________________________________________________________________
batch_normalization_504 (Bat (None, 16, 16, 64)        256       
_________________________________________________________________
activation_1064 (Activation) (None, 16, 16, 64)        0         
_________________________________________________________________
dropout_1064 (Dropout)       (None, 16, 16, 64)        0         
_________________________________________________________________
max_pooling2d_253 (MaxPoolin (None, 8, 8, 64)          0         
_________________________________________________________________
conv2d_832 (Conv2D)          (None, 8, 8, 128)         73856     
_________________________________________________________________
activation_1065 (Activation) (None, 8, 8, 128)         0         
_________________________________________________________________
dropout_1065 (Dropout)       (None, 8, 8, 128)         0         
_________________________________________________________________
conv2d_833 (Conv2D)          (None, 8, 8, 32)          36896     
_________________________________________________________________
batch_normalization_505 (Bat (None, 8, 8, 32)          128       
_________________________________________________________________
activation_1066 (Activation) (None, 8, 8, 32)          0         
_________________________________________________________________
dropout_1066 (Dropout)       (None, 8, 8, 32)          0         
_________________________________________________________________
conv2d_834 (Conv2D)          (None, 8, 8, 1024)        295936    
_________________________________________________________________
activation_1067 (Activation) (None, 8, 8, 1024)        0         
_________________________________________________________________
dropout_1067 (Dropout)       (None, 8, 8, 1024)        0         
_________________________________________________________________
conv2d_835 (Conv2D)          (None, 8, 8, 1024)        9438208   
_________________________________________________________________
batch_normalization_506 (Bat (None, 8, 8, 1024)        4096      
_________________________________________________________________
activation_1068 (Activation) (None, 8, 8, 1024)        0         
_________________________________________________________________
dropout_1068 (Dropout)       (None, 8, 8, 1024)        0         
_________________________________________________________________
flatten_119 (Flatten)        (None, 65536)             0         
_________________________________________________________________
dense_352 (Dense)            (None, 64)                4194368   
_________________________________________________________________
batch_normalization_507 (Bat (None, 64)                256       
_________________________________________________________________
activation_1069 (Activation) (None, 64)                0         
_________________________________________________________________
dropout_1069 (Dropout)       (None, 64)                0         
_________________________________________________________________
dense_353 (Dense)            (None, 256)               16640     
_________________________________________________________________
activation_1070 (Activation) (None, 256)               0         
_________________________________________________________________
dropout_1070 (Dropout)       (None, 256)               0         
_________________________________________________________________
dense_354 (Dense)            (None, 10)                2570      
=================================================================
Total params: 24,119,978
Trainable params: 24,117,610
Non-trainable params: 2,368
_________________________________________________________________
