Model: "sequential_44"
_________________________________________________________________
Layer (type)                 Output Shape              Param #   
=================================================================
conv2d_306 (Conv2D)          (None, 32, 32, 1024)      28672     
_________________________________________________________________
activation_418 (Activation)  (None, 32, 32, 1024)      0         
_________________________________________________________________
dropout_418 (Dropout)        (None, 32, 32, 1024)      0         
_________________________________________________________________
conv2d_307 (Conv2D)          (None, 32, 32, 1024)      9438208   
_________________________________________________________________
activation_419 (Activation)  (None, 32, 32, 1024)      0         
_________________________________________________________________
dropout_419 (Dropout)        (None, 32, 32, 1024)      0         
_________________________________________________________________
max_pooling2d_95 (MaxPooling (None, 16, 16, 1024)      0         
_________________________________________________________________
conv2d_308 (Conv2D)          (None, 16, 16, 64)        589888    
_________________________________________________________________
batch_normalization_187 (Bat (None, 16, 16, 64)        256       
_________________________________________________________________
activation_420 (Activation)  (None, 16, 16, 64)        0         
_________________________________________________________________
dropout_420 (Dropout)        (None, 16, 16, 64)        0         
_________________________________________________________________
max_pooling2d_96 (MaxPooling (None, 8, 8, 64)          0         
_________________________________________________________________
conv2d_309 (Conv2D)          (None, 8, 8, 128)         73856     
_________________________________________________________________
activation_421 (Activation)  (None, 8, 8, 128)         0         
_________________________________________________________________
dropout_421 (Dropout)        (None, 8, 8, 128)         0         
_________________________________________________________________
conv2d_310 (Conv2D)          (None, 8, 8, 32)          36896     
_________________________________________________________________
batch_normalization_188 (Bat (None, 8, 8, 32)          128       
_________________________________________________________________
activation_422 (Activation)  (None, 8, 8, 32)          0         
_________________________________________________________________
dropout_422 (Dropout)        (None, 8, 8, 32)          0         
_________________________________________________________________
conv2d_311 (Conv2D)          (None, 8, 8, 1024)        295936    
_________________________________________________________________
activation_423 (Activation)  (None, 8, 8, 1024)        0         
_________________________________________________________________
dropout_423 (Dropout)        (None, 8, 8, 1024)        0         
_________________________________________________________________
conv2d_312 (Conv2D)          (None, 8, 8, 1024)        9438208   
_________________________________________________________________
batch_normalization_189 (Bat (None, 8, 8, 1024)        4096      
_________________________________________________________________
activation_424 (Activation)  (None, 8, 8, 1024)        0         
_________________________________________________________________
dropout_424 (Dropout)        (None, 8, 8, 1024)        0         
_________________________________________________________________
flatten_44 (Flatten)         (None, 65536)             0         
_________________________________________________________________
dense_156 (Dense)            (None, 64)                4194368   
_________________________________________________________________
batch_normalization_190 (Bat (None, 64)                256       
_________________________________________________________________
activation_425 (Activation)  (None, 64)                0         
_________________________________________________________________
dropout_425 (Dropout)        (None, 64)                0         
_________________________________________________________________
dense_157 (Dense)            (None, 10)                650       
=================================================================
Total params: 24,101,418
Trainable params: 24,099,050
Non-trainable params: 2,368
_________________________________________________________________
