Model: "sequential_57"
_________________________________________________________________
Layer (type)                 Output Shape              Param #   
=================================================================
conv2d_397 (Conv2D)          (None, 32, 32, 1024)      28672     
_________________________________________________________________
activation_530 (Activation)  (None, 32, 32, 1024)      0         
_________________________________________________________________
dropout_530 (Dropout)        (None, 32, 32, 1024)      0         
_________________________________________________________________
conv2d_398 (Conv2D)          (None, 32, 32, 1024)      9438208   
_________________________________________________________________
activation_531 (Activation)  (None, 32, 32, 1024)      0         
_________________________________________________________________
dropout_531 (Dropout)        (None, 32, 32, 1024)      0         
_________________________________________________________________
max_pooling2d_121 (MaxPoolin (None, 16, 16, 1024)      0         
_________________________________________________________________
conv2d_399 (Conv2D)          (None, 16, 16, 64)        589888    
_________________________________________________________________
batch_normalization_240 (Bat (None, 16, 16, 64)        256       
_________________________________________________________________
activation_532 (Activation)  (None, 16, 16, 64)        0         
_________________________________________________________________
dropout_532 (Dropout)        (None, 16, 16, 64)        0         
_________________________________________________________________
max_pooling2d_122 (MaxPoolin (None, 8, 8, 64)          0         
_________________________________________________________________
conv2d_400 (Conv2D)          (None, 8, 8, 128)         73856     
_________________________________________________________________
activation_533 (Activation)  (None, 8, 8, 128)         0         
_________________________________________________________________
dropout_533 (Dropout)        (None, 8, 8, 128)         0         
_________________________________________________________________
conv2d_401 (Conv2D)          (None, 8, 8, 32)          36896     
_________________________________________________________________
batch_normalization_241 (Bat (None, 8, 8, 32)          128       
_________________________________________________________________
activation_534 (Activation)  (None, 8, 8, 32)          0         
_________________________________________________________________
dropout_534 (Dropout)        (None, 8, 8, 32)          0         
_________________________________________________________________
conv2d_402 (Conv2D)          (None, 8, 8, 1024)        295936    
_________________________________________________________________
activation_535 (Activation)  (None, 8, 8, 1024)        0         
_________________________________________________________________
dropout_535 (Dropout)        (None, 8, 8, 1024)        0         
_________________________________________________________________
conv2d_403 (Conv2D)          (None, 8, 8, 1024)        9438208   
_________________________________________________________________
batch_normalization_242 (Bat (None, 8, 8, 1024)        4096      
_________________________________________________________________
activation_536 (Activation)  (None, 8, 8, 1024)        0         
_________________________________________________________________
dropout_536 (Dropout)        (None, 8, 8, 1024)        0         
_________________________________________________________________
flatten_57 (Flatten)         (None, 65536)             0         
_________________________________________________________________
dense_190 (Dense)            (None, 64)                4194368   
_________________________________________________________________
batch_normalization_243 (Bat (None, 64)                256       
_________________________________________________________________
activation_537 (Activation)  (None, 64)                0         
_________________________________________________________________
dropout_537 (Dropout)        (None, 64)                0         
_________________________________________________________________
dense_191 (Dense)            (None, 10)                650       
=================================================================
Total params: 24,101,418
Trainable params: 24,099,050
Non-trainable params: 2,368
_________________________________________________________________
