Model: "sequential_53"
_________________________________________________________________
Layer (type)                 Output Shape              Param #   
=================================================================
conv2d_369 (Conv2D)          (None, 32, 32, 1024)      28672     
_________________________________________________________________
activation_494 (Activation)  (None, 32, 32, 1024)      0         
_________________________________________________________________
dropout_494 (Dropout)        (None, 32, 32, 1024)      0         
_________________________________________________________________
conv2d_370 (Conv2D)          (None, 32, 32, 1024)      9438208   
_________________________________________________________________
activation_495 (Activation)  (None, 32, 32, 1024)      0         
_________________________________________________________________
dropout_495 (Dropout)        (None, 32, 32, 1024)      0         
_________________________________________________________________
max_pooling2d_113 (MaxPoolin (None, 16, 16, 1024)      0         
_________________________________________________________________
conv2d_371 (Conv2D)          (None, 16, 16, 64)        589888    
_________________________________________________________________
batch_normalization_224 (Bat (None, 16, 16, 64)        256       
_________________________________________________________________
activation_496 (Activation)  (None, 16, 16, 64)        0         
_________________________________________________________________
dropout_496 (Dropout)        (None, 16, 16, 64)        0         
_________________________________________________________________
max_pooling2d_114 (MaxPoolin (None, 8, 8, 64)          0         
_________________________________________________________________
conv2d_372 (Conv2D)          (None, 8, 8, 128)         73856     
_________________________________________________________________
activation_497 (Activation)  (None, 8, 8, 128)         0         
_________________________________________________________________
dropout_497 (Dropout)        (None, 8, 8, 128)         0         
_________________________________________________________________
conv2d_373 (Conv2D)          (None, 8, 8, 32)          36896     
_________________________________________________________________
batch_normalization_225 (Bat (None, 8, 8, 32)          128       
_________________________________________________________________
activation_498 (Activation)  (None, 8, 8, 32)          0         
_________________________________________________________________
dropout_498 (Dropout)        (None, 8, 8, 32)          0         
_________________________________________________________________
conv2d_374 (Conv2D)          (None, 8, 8, 1024)        295936    
_________________________________________________________________
activation_499 (Activation)  (None, 8, 8, 1024)        0         
_________________________________________________________________
dropout_499 (Dropout)        (None, 8, 8, 1024)        0         
_________________________________________________________________
conv2d_375 (Conv2D)          (None, 8, 8, 1024)        9438208   
_________________________________________________________________
batch_normalization_226 (Bat (None, 8, 8, 1024)        4096      
_________________________________________________________________
activation_500 (Activation)  (None, 8, 8, 1024)        0         
_________________________________________________________________
dropout_500 (Dropout)        (None, 8, 8, 1024)        0         
_________________________________________________________________
flatten_53 (Flatten)         (None, 65536)             0         
_________________________________________________________________
dense_178 (Dense)            (None, 64)                4194368   
_________________________________________________________________
batch_normalization_227 (Bat (None, 64)                256       
_________________________________________________________________
activation_501 (Activation)  (None, 64)                0         
_________________________________________________________________
dropout_501 (Dropout)        (None, 64)                0         
_________________________________________________________________
dense_179 (Dense)            (None, 256)               16640     
_________________________________________________________________
activation_502 (Activation)  (None, 256)               0         
_________________________________________________________________
dropout_502 (Dropout)        (None, 256)               0         
_________________________________________________________________
dense_180 (Dense)            (None, 16)                4112      
_________________________________________________________________
activation_503 (Activation)  (None, 16)                0         
_________________________________________________________________
dropout_503 (Dropout)        (None, 16)                0         
_________________________________________________________________
dense_181 (Dense)            (None, 10)                170       
=================================================================
Total params: 24,121,690
Trainable params: 24,119,322
Non-trainable params: 2,368
_________________________________________________________________
