Model: "sequential_110"
_________________________________________________________________
Layer (type)                 Output Shape              Param #   
=================================================================
conv2d_766 (Conv2D)          (None, 32, 32, 1024)      28672     
_________________________________________________________________
activation_984 (Activation)  (None, 32, 32, 1024)      0         
_________________________________________________________________
dropout_984 (Dropout)        (None, 32, 32, 1024)      0         
_________________________________________________________________
conv2d_767 (Conv2D)          (None, 32, 32, 1024)      9438208   
_________________________________________________________________
activation_985 (Activation)  (None, 32, 32, 1024)      0         
_________________________________________________________________
dropout_985 (Dropout)        (None, 32, 32, 1024)      0         
_________________________________________________________________
max_pooling2d_230 (MaxPoolin (None, 16, 16, 1024)      0         
_________________________________________________________________
conv2d_768 (Conv2D)          (None, 16, 16, 64)        589888    
_________________________________________________________________
batch_normalization_464 (Bat (None, 16, 16, 64)        256       
_________________________________________________________________
activation_986 (Activation)  (None, 16, 16, 64)        0         
_________________________________________________________________
dropout_986 (Dropout)        (None, 16, 16, 64)        0         
_________________________________________________________________
max_pooling2d_231 (MaxPoolin (None, 8, 8, 64)          0         
_________________________________________________________________
conv2d_769 (Conv2D)          (None, 8, 8, 128)         73856     
_________________________________________________________________
activation_987 (Activation)  (None, 8, 8, 128)         0         
_________________________________________________________________
dropout_987 (Dropout)        (None, 8, 8, 128)         0         
_________________________________________________________________
conv2d_770 (Conv2D)          (None, 8, 8, 32)          36896     
_________________________________________________________________
batch_normalization_465 (Bat (None, 8, 8, 32)          128       
_________________________________________________________________
activation_988 (Activation)  (None, 8, 8, 32)          0         
_________________________________________________________________
dropout_988 (Dropout)        (None, 8, 8, 32)          0         
_________________________________________________________________
conv2d_771 (Conv2D)          (None, 8, 8, 1024)        295936    
_________________________________________________________________
activation_989 (Activation)  (None, 8, 8, 1024)        0         
_________________________________________________________________
dropout_989 (Dropout)        (None, 8, 8, 1024)        0         
_________________________________________________________________
conv2d_772 (Conv2D)          (None, 8, 8, 1024)        9438208   
_________________________________________________________________
batch_normalization_466 (Bat (None, 8, 8, 1024)        4096      
_________________________________________________________________
activation_990 (Activation)  (None, 8, 8, 1024)        0         
_________________________________________________________________
dropout_990 (Dropout)        (None, 8, 8, 1024)        0         
_________________________________________________________________
flatten_110 (Flatten)        (None, 65536)             0         
_________________________________________________________________
dense_328 (Dense)            (None, 64)                4194368   
_________________________________________________________________
batch_normalization_467 (Bat (None, 64)                256       
_________________________________________________________________
activation_991 (Activation)  (None, 64)                0         
_________________________________________________________________
dropout_991 (Dropout)        (None, 64)                0         
_________________________________________________________________
dense_329 (Dense)            (None, 256)               16640     
_________________________________________________________________
activation_992 (Activation)  (None, 256)               0         
_________________________________________________________________
dropout_992 (Dropout)        (None, 256)               0         
_________________________________________________________________
dense_330 (Dense)            (None, 10)                2570      
=================================================================
Total params: 24,119,978
Trainable params: 24,117,610
Non-trainable params: 2,368
_________________________________________________________________
