Model: "sequential_72"
_________________________________________________________________
Layer (type)                 Output Shape              Param #   
=================================================================
conv2d_501 (Conv2D)          (None, 32, 32, 1024)      28672     
_________________________________________________________________
batch_normalization_302 (Bat (None, 32, 32, 1024)      4096      
_________________________________________________________________
activation_660 (Activation)  (None, 32, 32, 1024)      0         
_________________________________________________________________
dropout_660 (Dropout)        (None, 32, 32, 1024)      0         
_________________________________________________________________
conv2d_502 (Conv2D)          (None, 32, 32, 1024)      9438208   
_________________________________________________________________
activation_661 (Activation)  (None, 32, 32, 1024)      0         
_________________________________________________________________
dropout_661 (Dropout)        (None, 32, 32, 1024)      0         
_________________________________________________________________
max_pooling2d_151 (MaxPoolin (None, 16, 16, 1024)      0         
_________________________________________________________________
conv2d_503 (Conv2D)          (None, 16, 16, 64)        589888    
_________________________________________________________________
batch_normalization_303 (Bat (None, 16, 16, 64)        256       
_________________________________________________________________
activation_662 (Activation)  (None, 16, 16, 64)        0         
_________________________________________________________________
dropout_662 (Dropout)        (None, 16, 16, 64)        0         
_________________________________________________________________
max_pooling2d_152 (MaxPoolin (None, 8, 8, 64)          0         
_________________________________________________________________
conv2d_504 (Conv2D)          (None, 8, 8, 128)         73856     
_________________________________________________________________
activation_663 (Activation)  (None, 8, 8, 128)         0         
_________________________________________________________________
dropout_663 (Dropout)        (None, 8, 8, 128)         0         
_________________________________________________________________
conv2d_505 (Conv2D)          (None, 8, 8, 32)          36896     
_________________________________________________________________
batch_normalization_304 (Bat (None, 8, 8, 32)          128       
_________________________________________________________________
activation_664 (Activation)  (None, 8, 8, 32)          0         
_________________________________________________________________
dropout_664 (Dropout)        (None, 8, 8, 32)          0         
_________________________________________________________________
conv2d_506 (Conv2D)          (None, 8, 8, 1024)        295936    
_________________________________________________________________
activation_665 (Activation)  (None, 8, 8, 1024)        0         
_________________________________________________________________
dropout_665 (Dropout)        (None, 8, 8, 1024)        0         
_________________________________________________________________
conv2d_507 (Conv2D)          (None, 8, 8, 1024)        9438208   
_________________________________________________________________
batch_normalization_305 (Bat (None, 8, 8, 1024)        4096      
_________________________________________________________________
activation_666 (Activation)  (None, 8, 8, 1024)        0         
_________________________________________________________________
dropout_666 (Dropout)        (None, 8, 8, 1024)        0         
_________________________________________________________________
flatten_72 (Flatten)         (None, 65536)             0         
_________________________________________________________________
dense_231 (Dense)            (None, 64)                4194368   
_________________________________________________________________
batch_normalization_306 (Bat (None, 64)                256       
_________________________________________________________________
activation_667 (Activation)  (None, 64)                0         
_________________________________________________________________
dropout_667 (Dropout)        (None, 64)                0         
_________________________________________________________________
dense_232 (Dense)            (None, 10)                650       
=================================================================
Total params: 24,105,514
Trainable params: 24,101,098
Non-trainable params: 4,416
_________________________________________________________________
