Model: "sequential_38"
_________________________________________________________________
Layer (type)                 Output Shape              Param #   
=================================================================
conv2d_265 (Conv2D)          (None, 32, 32, 1024)      28672     
_________________________________________________________________
activation_362 (Activation)  (None, 32, 32, 1024)      0         
_________________________________________________________________
dropout_362 (Dropout)        (None, 32, 32, 1024)      0         
_________________________________________________________________
conv2d_266 (Conv2D)          (None, 32, 32, 1024)      9438208   
_________________________________________________________________
activation_363 (Activation)  (None, 32, 32, 1024)      0         
_________________________________________________________________
dropout_363 (Dropout)        (None, 32, 32, 1024)      0         
_________________________________________________________________
max_pooling2d_83 (MaxPooling (None, 16, 16, 1024)      0         
_________________________________________________________________
conv2d_267 (Conv2D)          (None, 16, 16, 64)        589888    
_________________________________________________________________
batch_normalization_165 (Bat (None, 16, 16, 64)        256       
_________________________________________________________________
activation_364 (Activation)  (None, 16, 16, 64)        0         
_________________________________________________________________
dropout_364 (Dropout)        (None, 16, 16, 64)        0         
_________________________________________________________________
max_pooling2d_84 (MaxPooling (None, 8, 8, 64)          0         
_________________________________________________________________
conv2d_268 (Conv2D)          (None, 8, 8, 32)          18464     
_________________________________________________________________
activation_365 (Activation)  (None, 8, 8, 32)          0         
_________________________________________________________________
dropout_365 (Dropout)        (None, 8, 8, 32)          0         
_________________________________________________________________
conv2d_269 (Conv2D)          (None, 8, 8, 256)         73984     
_________________________________________________________________
batch_normalization_166 (Bat (None, 8, 8, 256)         1024      
_________________________________________________________________
activation_366 (Activation)  (None, 8, 8, 256)         0         
_________________________________________________________________
dropout_366 (Dropout)        (None, 8, 8, 256)         0         
_________________________________________________________________
conv2d_270 (Conv2D)          (None, 8, 8, 512)         1180160   
_________________________________________________________________
activation_367 (Activation)  (None, 8, 8, 512)         0         
_________________________________________________________________
dropout_367 (Dropout)        (None, 8, 8, 512)         0         
_________________________________________________________________
flatten_38 (Flatten)         (None, 32768)             0         
_________________________________________________________________
dense_135 (Dense)            (None, 256)               8388864   
_________________________________________________________________
activation_368 (Activation)  (None, 256)               0         
_________________________________________________________________
dropout_368 (Dropout)        (None, 256)               0         
_________________________________________________________________
dense_136 (Dense)            (None, 256)               65792     
_________________________________________________________________
activation_369 (Activation)  (None, 256)               0         
_________________________________________________________________
dropout_369 (Dropout)        (None, 256)               0         
_________________________________________________________________
dense_137 (Dense)            (None, 16)                4112      
_________________________________________________________________
activation_370 (Activation)  (None, 16)                0         
_________________________________________________________________
dropout_370 (Dropout)        (None, 16)                0         
_________________________________________________________________
dense_138 (Dense)            (None, 10)                170       
=================================================================
Total params: 19,789,594
Trainable params: 19,788,954
Non-trainable params: 640
_________________________________________________________________
