Model: "sequential_55"
_________________________________________________________________
Layer (type)                 Output Shape              Param #   
=================================================================
conv2d_383 (Conv2D)          (None, 32, 32, 1024)      28672     
_________________________________________________________________
activation_512 (Activation)  (None, 32, 32, 1024)      0         
_________________________________________________________________
dropout_512 (Dropout)        (None, 32, 32, 1024)      0         
_________________________________________________________________
conv2d_384 (Conv2D)          (None, 32, 32, 1024)      9438208   
_________________________________________________________________
activation_513 (Activation)  (None, 32, 32, 1024)      0         
_________________________________________________________________
dropout_513 (Dropout)        (None, 32, 32, 1024)      0         
_________________________________________________________________
max_pooling2d_117 (MaxPoolin (None, 16, 16, 1024)      0         
_________________________________________________________________
conv2d_385 (Conv2D)          (None, 16, 16, 64)        589888    
_________________________________________________________________
batch_normalization_232 (Bat (None, 16, 16, 64)        256       
_________________________________________________________________
activation_514 (Activation)  (None, 16, 16, 64)        0         
_________________________________________________________________
dropout_514 (Dropout)        (None, 16, 16, 64)        0         
_________________________________________________________________
max_pooling2d_118 (MaxPoolin (None, 8, 8, 64)          0         
_________________________________________________________________
conv2d_386 (Conv2D)          (None, 8, 8, 128)         73856     
_________________________________________________________________
activation_515 (Activation)  (None, 8, 8, 128)         0         
_________________________________________________________________
dropout_515 (Dropout)        (None, 8, 8, 128)         0         
_________________________________________________________________
conv2d_387 (Conv2D)          (None, 8, 8, 32)          36896     
_________________________________________________________________
batch_normalization_233 (Bat (None, 8, 8, 32)          128       
_________________________________________________________________
activation_516 (Activation)  (None, 8, 8, 32)          0         
_________________________________________________________________
dropout_516 (Dropout)        (None, 8, 8, 32)          0         
_________________________________________________________________
conv2d_388 (Conv2D)          (None, 8, 8, 1024)        295936    
_________________________________________________________________
activation_517 (Activation)  (None, 8, 8, 1024)        0         
_________________________________________________________________
dropout_517 (Dropout)        (None, 8, 8, 1024)        0         
_________________________________________________________________
conv2d_389 (Conv2D)          (None, 8, 8, 1024)        9438208   
_________________________________________________________________
batch_normalization_234 (Bat (None, 8, 8, 1024)        4096      
_________________________________________________________________
activation_518 (Activation)  (None, 8, 8, 1024)        0         
_________________________________________________________________
dropout_518 (Dropout)        (None, 8, 8, 1024)        0         
_________________________________________________________________
flatten_55 (Flatten)         (None, 65536)             0         
_________________________________________________________________
dense_184 (Dense)            (None, 64)                4194368   
_________________________________________________________________
batch_normalization_235 (Bat (None, 64)                256       
_________________________________________________________________
activation_519 (Activation)  (None, 64)                0         
_________________________________________________________________
dropout_519 (Dropout)        (None, 64)                0         
_________________________________________________________________
dense_185 (Dense)            (None, 256)               16640     
_________________________________________________________________
activation_520 (Activation)  (None, 256)               0         
_________________________________________________________________
dropout_520 (Dropout)        (None, 256)               0         
_________________________________________________________________
dense_186 (Dense)            (None, 16)                4112      
_________________________________________________________________
activation_521 (Activation)  (None, 16)                0         
_________________________________________________________________
dropout_521 (Dropout)        (None, 16)                0         
_________________________________________________________________
dense_187 (Dense)            (None, 10)                170       
=================================================================
Total params: 24,121,690
Trainable params: 24,119,322
Non-trainable params: 2,368
_________________________________________________________________
