Model: "sequential_7"
_________________________________________________________________
Layer (type)                 Output Shape              Param #   
=================================================================
conv2d_53 (Conv2D)           (None, 32, 32, 512)       14336     
_________________________________________________________________
batch_normalization_31 (Batc (None, 32, 32, 512)       2048      
_________________________________________________________________
activation_70 (Activation)   (None, 32, 32, 512)       0         
_________________________________________________________________
dropout_70 (Dropout)         (None, 32, 32, 512)       0         
_________________________________________________________________
conv2d_54 (Conv2D)           (None, 32, 32, 512)       2359808   
_________________________________________________________________
activation_71 (Activation)   (None, 32, 32, 512)       0         
_________________________________________________________________
dropout_71 (Dropout)         (None, 32, 32, 512)       0         
_________________________________________________________________
conv2d_55 (Conv2D)           (None, 32, 32, 8)         36872     
_________________________________________________________________
batch_normalization_32 (Batc (None, 32, 32, 8)         32        
_________________________________________________________________
activation_72 (Activation)   (None, 32, 32, 8)         0         
_________________________________________________________________
dropout_72 (Dropout)         (None, 32, 32, 8)         0         
_________________________________________________________________
conv2d_56 (Conv2D)           (None, 32, 32, 512)       37376     
_________________________________________________________________
activation_73 (Activation)   (None, 32, 32, 512)       0         
_________________________________________________________________
dropout_73 (Dropout)         (None, 32, 32, 512)       0         
_________________________________________________________________
max_pooling2d_18 (MaxPooling (None, 16, 16, 512)       0         
_________________________________________________________________
conv2d_57 (Conv2D)           (None, 16, 16, 64)        294976    
_________________________________________________________________
batch_normalization_33 (Batc (None, 16, 16, 64)        256       
_________________________________________________________________
activation_74 (Activation)   (None, 16, 16, 64)        0         
_________________________________________________________________
dropout_74 (Dropout)         (None, 16, 16, 64)        0         
_________________________________________________________________
max_pooling2d_19 (MaxPooling (None, 8, 8, 64)          0         
_________________________________________________________________
conv2d_58 (Conv2D)           (None, 8, 8, 1024)        590848    
_________________________________________________________________
activation_75 (Activation)   (None, 8, 8, 1024)        0         
_________________________________________________________________
dropout_75 (Dropout)         (None, 8, 8, 1024)        0         
_________________________________________________________________
conv2d_59 (Conv2D)           (None, 8, 8, 16)          147472    
_________________________________________________________________
batch_normalization_34 (Batc (None, 8, 8, 16)          64        
_________________________________________________________________
activation_76 (Activation)   (None, 8, 8, 16)          0         
_________________________________________________________________
dropout_76 (Dropout)         (None, 8, 8, 16)          0         
_________________________________________________________________
conv2d_60 (Conv2D)           (None, 8, 8, 256)         37120     
_________________________________________________________________
batch_normalization_35 (Batc (None, 8, 8, 256)         1024      
_________________________________________________________________
activation_77 (Activation)   (None, 8, 8, 256)         0         
_________________________________________________________________
dropout_77 (Dropout)         (None, 8, 8, 256)         0         
_________________________________________________________________
conv2d_61 (Conv2D)           (None, 8, 8, 16)          36880     
_________________________________________________________________
activation_78 (Activation)   (None, 8, 8, 16)          0         
_________________________________________________________________
dropout_78 (Dropout)         (None, 8, 8, 16)          0         
_________________________________________________________________
conv2d_62 (Conv2D)           (None, 8, 8, 128)         18560     
_________________________________________________________________
batch_normalization_36 (Batc (None, 8, 8, 128)         512       
_________________________________________________________________
activation_79 (Activation)   (None, 8, 8, 128)         0         
_________________________________________________________________
dropout_79 (Dropout)         (None, 8, 8, 128)         0         
_________________________________________________________________
flatten_7 (Flatten)          (None, 8192)              0         
_________________________________________________________________
dense_24 (Dense)             (None, 512)               4194816   
_________________________________________________________________
batch_normalization_37 (Batc (None, 512)               2048      
_________________________________________________________________
activation_80 (Activation)   (None, 512)               0         
_________________________________________________________________
dropout_80 (Dropout)         (None, 512)               0         
_________________________________________________________________
dense_25 (Dense)             (None, 256)               131328    
_________________________________________________________________
activation_81 (Activation)   (None, 256)               0         
_________________________________________________________________
dropout_81 (Dropout)         (None, 256)               0         
_________________________________________________________________
dense_26 (Dense)             (None, 32)                8224      
_________________________________________________________________
batch_normalization_38 (Batc (None, 32)                128       
_________________________________________________________________
activation_82 (Activation)   (None, 32)                0         
_________________________________________________________________
dropout_82 (Dropout)         (None, 32)                0         
_________________________________________________________________
dense_27 (Dense)             (None, 10)                330       
=================================================================
Total params: 7,915,058
Trainable params: 7,912,002
Non-trainable params: 3,056
_________________________________________________________________
