Model: "sequential_62"
_________________________________________________________________
Layer (type)                 Output Shape              Param #   
=================================================================
conv2d_432 (Conv2D)          (None, 32, 32, 1024)      28672     
_________________________________________________________________
activation_574 (Activation)  (None, 32, 32, 1024)      0         
_________________________________________________________________
dropout_574 (Dropout)        (None, 32, 32, 1024)      0         
_________________________________________________________________
conv2d_433 (Conv2D)          (None, 32, 32, 1024)      9438208   
_________________________________________________________________
activation_575 (Activation)  (None, 32, 32, 1024)      0         
_________________________________________________________________
dropout_575 (Dropout)        (None, 32, 32, 1024)      0         
_________________________________________________________________
max_pooling2d_131 (MaxPoolin (None, 16, 16, 1024)      0         
_________________________________________________________________
conv2d_434 (Conv2D)          (None, 16, 16, 64)        589888    
_________________________________________________________________
batch_normalization_261 (Bat (None, 16, 16, 64)        256       
_________________________________________________________________
activation_576 (Activation)  (None, 16, 16, 64)        0         
_________________________________________________________________
dropout_576 (Dropout)        (None, 16, 16, 64)        0         
_________________________________________________________________
max_pooling2d_132 (MaxPoolin (None, 8, 8, 64)          0         
_________________________________________________________________
conv2d_435 (Conv2D)          (None, 8, 8, 128)         73856     
_________________________________________________________________
activation_577 (Activation)  (None, 8, 8, 128)         0         
_________________________________________________________________
dropout_577 (Dropout)        (None, 8, 8, 128)         0         
_________________________________________________________________
conv2d_436 (Conv2D)          (None, 8, 8, 32)          36896     
_________________________________________________________________
batch_normalization_262 (Bat (None, 8, 8, 32)          128       
_________________________________________________________________
activation_578 (Activation)  (None, 8, 8, 32)          0         
_________________________________________________________________
dropout_578 (Dropout)        (None, 8, 8, 32)          0         
_________________________________________________________________
conv2d_437 (Conv2D)          (None, 8, 8, 1024)        295936    
_________________________________________________________________
activation_579 (Activation)  (None, 8, 8, 1024)        0         
_________________________________________________________________
dropout_579 (Dropout)        (None, 8, 8, 1024)        0         
_________________________________________________________________
conv2d_438 (Conv2D)          (None, 8, 8, 1024)        9438208   
_________________________________________________________________
batch_normalization_263 (Bat (None, 8, 8, 1024)        4096      
_________________________________________________________________
activation_580 (Activation)  (None, 8, 8, 1024)        0         
_________________________________________________________________
dropout_580 (Dropout)        (None, 8, 8, 1024)        0         
_________________________________________________________________
flatten_62 (Flatten)         (None, 65536)             0         
_________________________________________________________________
dense_204 (Dense)            (None, 64)                4194368   
_________________________________________________________________
batch_normalization_264 (Bat (None, 64)                256       
_________________________________________________________________
activation_581 (Activation)  (None, 64)                0         
_________________________________________________________________
dropout_581 (Dropout)        (None, 64)                0         
_________________________________________________________________
dense_205 (Dense)            (None, 10)                650       
=================================================================
Total params: 24,101,418
Trainable params: 24,099,050
Non-trainable params: 2,368
_________________________________________________________________
