Model: "sequential_121"
_________________________________________________________________
Layer (type)                 Output Shape              Param #   
=================================================================
conv2d_843 (Conv2D)          (None, 32, 32, 1024)      28672     
_________________________________________________________________
activation_1079 (Activation) (None, 32, 32, 1024)      0         
_________________________________________________________________
dropout_1079 (Dropout)       (None, 32, 32, 1024)      0         
_________________________________________________________________
conv2d_844 (Conv2D)          (None, 32, 32, 1024)      9438208   
_________________________________________________________________
activation_1080 (Activation) (None, 32, 32, 1024)      0         
_________________________________________________________________
dropout_1080 (Dropout)       (None, 32, 32, 1024)      0         
_________________________________________________________________
max_pooling2d_256 (MaxPoolin (None, 16, 16, 1024)      0         
_________________________________________________________________
conv2d_845 (Conv2D)          (None, 16, 16, 64)        589888    
_________________________________________________________________
batch_normalization_512 (Bat (None, 16, 16, 64)        256       
_________________________________________________________________
activation_1081 (Activation) (None, 16, 16, 64)        0         
_________________________________________________________________
dropout_1081 (Dropout)       (None, 16, 16, 64)        0         
_________________________________________________________________
max_pooling2d_257 (MaxPoolin (None, 8, 8, 64)          0         
_________________________________________________________________
conv2d_846 (Conv2D)          (None, 8, 8, 128)         73856     
_________________________________________________________________
activation_1082 (Activation) (None, 8, 8, 128)         0         
_________________________________________________________________
dropout_1082 (Dropout)       (None, 8, 8, 128)         0         
_________________________________________________________________
conv2d_847 (Conv2D)          (None, 8, 8, 32)          36896     
_________________________________________________________________
batch_normalization_513 (Bat (None, 8, 8, 32)          128       
_________________________________________________________________
activation_1083 (Activation) (None, 8, 8, 32)          0         
_________________________________________________________________
dropout_1083 (Dropout)       (None, 8, 8, 32)          0         
_________________________________________________________________
conv2d_848 (Conv2D)          (None, 8, 8, 1024)        295936    
_________________________________________________________________
activation_1084 (Activation) (None, 8, 8, 1024)        0         
_________________________________________________________________
dropout_1084 (Dropout)       (None, 8, 8, 1024)        0         
_________________________________________________________________
max_pooling2d_258 (MaxPoolin (None, 4, 4, 1024)        0         
_________________________________________________________________
conv2d_849 (Conv2D)          (None, 4, 4, 1024)        9438208   
_________________________________________________________________
batch_normalization_514 (Bat (None, 4, 4, 1024)        4096      
_________________________________________________________________
activation_1085 (Activation) (None, 4, 4, 1024)        0         
_________________________________________________________________
dropout_1085 (Dropout)       (None, 4, 4, 1024)        0         
_________________________________________________________________
flatten_121 (Flatten)        (None, 16384)             0         
_________________________________________________________________
dense_357 (Dense)            (None, 64)                1048640   
_________________________________________________________________
batch_normalization_515 (Bat (None, 64)                256       
_________________________________________________________________
activation_1086 (Activation) (None, 64)                0         
_________________________________________________________________
dropout_1086 (Dropout)       (None, 64)                0         
_________________________________________________________________
dense_358 (Dense)            (None, 256)               16640     
_________________________________________________________________
activation_1087 (Activation) (None, 256)               0         
_________________________________________________________________
dropout_1087 (Dropout)       (None, 256)               0         
_________________________________________________________________
dense_359 (Dense)            (None, 10)                2570      
=================================================================
Total params: 20,974,250
Trainable params: 20,971,882
Non-trainable params: 2,368
_________________________________________________________________
