Model: "sequential_172"
_________________________________________________________________
Layer (type)                 Output Shape              Param #   
=================================================================
conv2d_1203 (Conv2D)         (None, 32, 32, 1024)      28672     
_________________________________________________________________
activation_1539 (Activation) (None, 32, 32, 1024)      0         
_________________________________________________________________
dropout_1539 (Dropout)       (None, 32, 32, 1024)      0         
_________________________________________________________________
conv2d_1204 (Conv2D)         (None, 32, 32, 1024)      9438208   
_________________________________________________________________
activation_1540 (Activation) (None, 32, 32, 1024)      0         
_________________________________________________________________
dropout_1540 (Dropout)       (None, 32, 32, 1024)      0         
_________________________________________________________________
max_pooling2d_378 (MaxPoolin (None, 16, 16, 1024)      0         
_________________________________________________________________
conv2d_1205 (Conv2D)         (None, 16, 16, 64)        589888    
_________________________________________________________________
batch_normalization_740 (Bat (None, 16, 16, 64)        256       
_________________________________________________________________
activation_1541 (Activation) (None, 16, 16, 64)        0         
_________________________________________________________________
dropout_1541 (Dropout)       (None, 16, 16, 64)        0         
_________________________________________________________________
max_pooling2d_379 (MaxPoolin (None, 8, 8, 64)          0         
_________________________________________________________________
conv2d_1206 (Conv2D)         (None, 8, 8, 128)         73856     
_________________________________________________________________
activation_1542 (Activation) (None, 8, 8, 128)         0         
_________________________________________________________________
dropout_1542 (Dropout)       (None, 8, 8, 128)         0         
_________________________________________________________________
conv2d_1207 (Conv2D)         (None, 8, 8, 32)          36896     
_________________________________________________________________
batch_normalization_741 (Bat (None, 8, 8, 32)          128       
_________________________________________________________________
activation_1543 (Activation) (None, 8, 8, 32)          0         
_________________________________________________________________
dropout_1543 (Dropout)       (None, 8, 8, 32)          0         
_________________________________________________________________
conv2d_1208 (Conv2D)         (None, 8, 8, 1024)        295936    
_________________________________________________________________
activation_1544 (Activation) (None, 8, 8, 1024)        0         
_________________________________________________________________
dropout_1544 (Dropout)       (None, 8, 8, 1024)        0         
_________________________________________________________________
conv2d_1209 (Conv2D)         (None, 8, 8, 256)         2359552   
_________________________________________________________________
batch_normalization_742 (Bat (None, 8, 8, 256)         1024      
_________________________________________________________________
activation_1545 (Activation) (None, 8, 8, 256)         0         
_________________________________________________________________
dropout_1545 (Dropout)       (None, 8, 8, 256)         0         
_________________________________________________________________
conv2d_1210 (Conv2D)         (None, 8, 8, 1024)        2360320   
_________________________________________________________________
batch_normalization_743 (Bat (None, 8, 8, 1024)        4096      
_________________________________________________________________
activation_1546 (Activation) (None, 8, 8, 1024)        0         
_________________________________________________________________
dropout_1546 (Dropout)       (None, 8, 8, 1024)        0         
_________________________________________________________________
flatten_172 (Flatten)        (None, 65536)             0         
_________________________________________________________________
dense_508 (Dense)            (None, 64)                4194368   
_________________________________________________________________
batch_normalization_744 (Bat (None, 64)                256       
_________________________________________________________________
activation_1547 (Activation) (None, 64)                0         
_________________________________________________________________
dropout_1547 (Dropout)       (None, 64)                0         
_________________________________________________________________
dense_509 (Dense)            (None, 256)               16640     
_________________________________________________________________
batch_normalization_745 (Bat (None, 256)               1024      
_________________________________________________________________
activation_1548 (Activation) (None, 256)               0         
_________________________________________________________________
dropout_1548 (Dropout)       (None, 256)               0         
_________________________________________________________________
dense_510 (Dense)            (None, 10)                2570      
=================================================================
Total params: 19,403,690
Trainable params: 19,400,298
Non-trainable params: 3,392
_________________________________________________________________
