Model: "sequential_94"
_________________________________________________________________
Layer (type)                 Output Shape              Param #   
=================================================================
conv2d_654 (Conv2D)          (None, 32, 32, 1024)      28672     
_________________________________________________________________
activation_848 (Activation)  (None, 32, 32, 1024)      0         
_________________________________________________________________
dropout_848 (Dropout)        (None, 32, 32, 1024)      0         
_________________________________________________________________
conv2d_655 (Conv2D)          (None, 32, 32, 1024)      9438208   
_________________________________________________________________
activation_849 (Activation)  (None, 32, 32, 1024)      0         
_________________________________________________________________
dropout_849 (Dropout)        (None, 32, 32, 1024)      0         
_________________________________________________________________
max_pooling2d_196 (MaxPoolin (None, 16, 16, 1024)      0         
_________________________________________________________________
conv2d_656 (Conv2D)          (None, 16, 16, 64)        589888    
_________________________________________________________________
batch_normalization_395 (Bat (None, 16, 16, 64)        256       
_________________________________________________________________
activation_850 (Activation)  (None, 16, 16, 64)        0         
_________________________________________________________________
dropout_850 (Dropout)        (None, 16, 16, 64)        0         
_________________________________________________________________
max_pooling2d_197 (MaxPoolin (None, 8, 8, 64)          0         
_________________________________________________________________
conv2d_657 (Conv2D)          (None, 8, 8, 128)         73856     
_________________________________________________________________
activation_851 (Activation)  (None, 8, 8, 128)         0         
_________________________________________________________________
dropout_851 (Dropout)        (None, 8, 8, 128)         0         
_________________________________________________________________
conv2d_658 (Conv2D)          (None, 8, 8, 32)          36896     
_________________________________________________________________
batch_normalization_396 (Bat (None, 8, 8, 32)          128       
_________________________________________________________________
activation_852 (Activation)  (None, 8, 8, 32)          0         
_________________________________________________________________
dropout_852 (Dropout)        (None, 8, 8, 32)          0         
_________________________________________________________________
conv2d_659 (Conv2D)          (None, 8, 8, 1024)        295936    
_________________________________________________________________
activation_853 (Activation)  (None, 8, 8, 1024)        0         
_________________________________________________________________
dropout_853 (Dropout)        (None, 8, 8, 1024)        0         
_________________________________________________________________
conv2d_660 (Conv2D)          (None, 8, 8, 1024)        9438208   
_________________________________________________________________
batch_normalization_397 (Bat (None, 8, 8, 1024)        4096      
_________________________________________________________________
activation_854 (Activation)  (None, 8, 8, 1024)        0         
_________________________________________________________________
dropout_854 (Dropout)        (None, 8, 8, 1024)        0         
_________________________________________________________________
flatten_94 (Flatten)         (None, 65536)             0         
_________________________________________________________________
dense_288 (Dense)            (None, 64)                4194368   
_________________________________________________________________
batch_normalization_398 (Bat (None, 64)                256       
_________________________________________________________________
activation_855 (Activation)  (None, 64)                0         
_________________________________________________________________
dropout_855 (Dropout)        (None, 64)                0         
_________________________________________________________________
dense_289 (Dense)            (None, 256)               16640     
_________________________________________________________________
activation_856 (Activation)  (None, 256)               0         
_________________________________________________________________
dropout_856 (Dropout)        (None, 256)               0         
_________________________________________________________________
dense_290 (Dense)            (None, 10)                2570      
=================================================================
Total params: 24,119,978
Trainable params: 24,117,610
Non-trainable params: 2,368
_________________________________________________________________
