Model: "sequential_190"
_________________________________________________________________
Layer (type)                 Output Shape              Param #   
=================================================================
conv2d_1334 (Conv2D)         (None, 32, 32, 1024)      28672     
_________________________________________________________________
batch_normalization_829 (Bat (None, 32, 32, 1024)      4096      
_________________________________________________________________
activation_1706 (Activation) (None, 32, 32, 1024)      0         
_________________________________________________________________
dropout_1706 (Dropout)       (None, 32, 32, 1024)      0         
_________________________________________________________________
conv2d_1335 (Conv2D)         (None, 32, 32, 1024)      9438208   
_________________________________________________________________
activation_1707 (Activation) (None, 32, 32, 1024)      0         
_________________________________________________________________
dropout_1707 (Dropout)       (None, 32, 32, 1024)      0         
_________________________________________________________________
conv2d_1336 (Conv2D)         (None, 32, 32, 64)        589888    
_________________________________________________________________
batch_normalization_830 (Bat (None, 32, 32, 64)        256       
_________________________________________________________________
activation_1708 (Activation) (None, 32, 32, 64)        0         
_________________________________________________________________
dropout_1708 (Dropout)       (None, 32, 32, 64)        0         
_________________________________________________________________
max_pooling2d_418 (MaxPoolin (None, 16, 16, 64)        0         
_________________________________________________________________
conv2d_1337 (Conv2D)         (None, 16, 16, 128)       73856     
_________________________________________________________________
activation_1709 (Activation) (None, 16, 16, 128)       0         
_________________________________________________________________
dropout_1709 (Dropout)       (None, 16, 16, 128)       0         
_________________________________________________________________
conv2d_1338 (Conv2D)         (None, 16, 16, 32)        36896     
_________________________________________________________________
batch_normalization_831 (Bat (None, 16, 16, 32)        128       
_________________________________________________________________
activation_1710 (Activation) (None, 16, 16, 32)        0         
_________________________________________________________________
dropout_1710 (Dropout)       (None, 16, 16, 32)        0         
_________________________________________________________________
conv2d_1339 (Conv2D)         (None, 16, 16, 1024)      295936    
_________________________________________________________________
activation_1711 (Activation) (None, 16, 16, 1024)      0         
_________________________________________________________________
dropout_1711 (Dropout)       (None, 16, 16, 1024)      0         
_________________________________________________________________
conv2d_1340 (Conv2D)         (None, 16, 16, 1024)      9438208   
_________________________________________________________________
batch_normalization_832 (Bat (None, 16, 16, 1024)      4096      
_________________________________________________________________
activation_1712 (Activation) (None, 16, 16, 1024)      0         
_________________________________________________________________
dropout_1712 (Dropout)       (None, 16, 16, 1024)      0         
_________________________________________________________________
flatten_190 (Flatten)        (None, 262144)            0         
_________________________________________________________________
dense_562 (Dense)            (None, 64)                16777280  
_________________________________________________________________
batch_normalization_833 (Bat (None, 64)                256       
_________________________________________________________________
activation_1713 (Activation) (None, 64)                0         
_________________________________________________________________
dropout_1713 (Dropout)       (None, 64)                0         
_________________________________________________________________
dense_563 (Dense)            (None, 256)               16640     
_________________________________________________________________
batch_normalization_834 (Bat (None, 256)               1024      
_________________________________________________________________
activation_1714 (Activation) (None, 256)               0         
_________________________________________________________________
dropout_1714 (Dropout)       (None, 256)               0         
_________________________________________________________________
dense_564 (Dense)            (None, 10)                2570      
=================================================================
Total params: 36,708,010
Trainable params: 36,703,082
Non-trainable params: 4,928
_________________________________________________________________
