Model: "sequential_162"
_________________________________________________________________
Layer (type)                 Output Shape              Param #   
=================================================================
conv2d_1130 (Conv2D)         (None, 32, 32, 1024)      28672     
_________________________________________________________________
activation_1446 (Activation) (None, 32, 32, 1024)      0         
_________________________________________________________________
dropout_1446 (Dropout)       (None, 32, 32, 1024)      0         
_________________________________________________________________
conv2d_1131 (Conv2D)         (None, 32, 32, 1024)      9438208   
_________________________________________________________________
activation_1447 (Activation) (None, 32, 32, 1024)      0         
_________________________________________________________________
dropout_1447 (Dropout)       (None, 32, 32, 1024)      0         
_________________________________________________________________
max_pooling2d_355 (MaxPoolin (None, 16, 16, 1024)      0         
_________________________________________________________________
conv2d_1132 (Conv2D)         (None, 16, 16, 64)        589888    
_________________________________________________________________
batch_normalization_691 (Bat (None, 16, 16, 64)        256       
_________________________________________________________________
activation_1448 (Activation) (None, 16, 16, 64)        0         
_________________________________________________________________
dropout_1448 (Dropout)       (None, 16, 16, 64)        0         
_________________________________________________________________
max_pooling2d_356 (MaxPoolin (None, 8, 8, 64)          0         
_________________________________________________________________
conv2d_1133 (Conv2D)         (None, 8, 8, 128)         73856     
_________________________________________________________________
activation_1449 (Activation) (None, 8, 8, 128)         0         
_________________________________________________________________
dropout_1449 (Dropout)       (None, 8, 8, 128)         0         
_________________________________________________________________
conv2d_1134 (Conv2D)         (None, 8, 8, 32)          36896     
_________________________________________________________________
batch_normalization_692 (Bat (None, 8, 8, 32)          128       
_________________________________________________________________
activation_1450 (Activation) (None, 8, 8, 32)          0         
_________________________________________________________________
dropout_1450 (Dropout)       (None, 8, 8, 32)          0         
_________________________________________________________________
conv2d_1135 (Conv2D)         (None, 8, 8, 1024)        295936    
_________________________________________________________________
activation_1451 (Activation) (None, 8, 8, 1024)        0         
_________________________________________________________________
dropout_1451 (Dropout)       (None, 8, 8, 1024)        0         
_________________________________________________________________
conv2d_1136 (Conv2D)         (None, 8, 8, 1024)        9438208   
_________________________________________________________________
batch_normalization_693 (Bat (None, 8, 8, 1024)        4096      
_________________________________________________________________
activation_1452 (Activation) (None, 8, 8, 1024)        0         
_________________________________________________________________
dropout_1452 (Dropout)       (None, 8, 8, 1024)        0         
_________________________________________________________________
flatten_162 (Flatten)        (None, 65536)             0         
_________________________________________________________________
dense_478 (Dense)            (None, 64)                4194368   
_________________________________________________________________
batch_normalization_694 (Bat (None, 64)                256       
_________________________________________________________________
activation_1453 (Activation) (None, 64)                0         
_________________________________________________________________
dropout_1453 (Dropout)       (None, 64)                0         
_________________________________________________________________
dense_479 (Dense)            (None, 256)               16640     
_________________________________________________________________
batch_normalization_695 (Bat (None, 256)               1024      
_________________________________________________________________
activation_1454 (Activation) (None, 256)               0         
_________________________________________________________________
dropout_1454 (Dropout)       (None, 256)               0         
_________________________________________________________________
dense_480 (Dense)            (None, 10)                2570      
=================================================================
Total params: 24,121,002
Trainable params: 24,118,122
Non-trainable params: 2,880
_________________________________________________________________
