Model: "sequential_108"
_________________________________________________________________
Layer (type)                 Output Shape              Param #   
=================================================================
conv2d_752 (Conv2D)          (None, 32, 32, 1024)      28672     
_________________________________________________________________
activation_967 (Activation)  (None, 32, 32, 1024)      0         
_________________________________________________________________
dropout_967 (Dropout)        (None, 32, 32, 1024)      0         
_________________________________________________________________
conv2d_753 (Conv2D)          (None, 32, 32, 1024)      9438208   
_________________________________________________________________
activation_968 (Activation)  (None, 32, 32, 1024)      0         
_________________________________________________________________
dropout_968 (Dropout)        (None, 32, 32, 1024)      0         
_________________________________________________________________
max_pooling2d_226 (MaxPoolin (None, 16, 16, 1024)      0         
_________________________________________________________________
conv2d_754 (Conv2D)          (None, 16, 16, 64)        589888    
_________________________________________________________________
batch_normalization_456 (Bat (None, 16, 16, 64)        256       
_________________________________________________________________
activation_969 (Activation)  (None, 16, 16, 64)        0         
_________________________________________________________________
dropout_969 (Dropout)        (None, 16, 16, 64)        0         
_________________________________________________________________
max_pooling2d_227 (MaxPoolin (None, 8, 8, 64)          0         
_________________________________________________________________
conv2d_755 (Conv2D)          (None, 8, 8, 128)         73856     
_________________________________________________________________
activation_970 (Activation)  (None, 8, 8, 128)         0         
_________________________________________________________________
dropout_970 (Dropout)        (None, 8, 8, 128)         0         
_________________________________________________________________
conv2d_756 (Conv2D)          (None, 8, 8, 32)          36896     
_________________________________________________________________
batch_normalization_457 (Bat (None, 8, 8, 32)          128       
_________________________________________________________________
activation_971 (Activation)  (None, 8, 8, 32)          0         
_________________________________________________________________
dropout_971 (Dropout)        (None, 8, 8, 32)          0         
_________________________________________________________________
conv2d_757 (Conv2D)          (None, 8, 8, 1024)        295936    
_________________________________________________________________
activation_972 (Activation)  (None, 8, 8, 1024)        0         
_________________________________________________________________
dropout_972 (Dropout)        (None, 8, 8, 1024)        0         
_________________________________________________________________
conv2d_758 (Conv2D)          (None, 8, 8, 1024)        9438208   
_________________________________________________________________
batch_normalization_458 (Bat (None, 8, 8, 1024)        4096      
_________________________________________________________________
activation_973 (Activation)  (None, 8, 8, 1024)        0         
_________________________________________________________________
dropout_973 (Dropout)        (None, 8, 8, 1024)        0         
_________________________________________________________________
flatten_108 (Flatten)        (None, 65536)             0         
_________________________________________________________________
dense_323 (Dense)            (None, 64)                4194368   
_________________________________________________________________
batch_normalization_459 (Bat (None, 64)                256       
_________________________________________________________________
activation_974 (Activation)  (None, 64)                0         
_________________________________________________________________
dropout_974 (Dropout)        (None, 64)                0         
_________________________________________________________________
dense_324 (Dense)            (None, 256)               16640     
_________________________________________________________________
activation_975 (Activation)  (None, 256)               0         
_________________________________________________________________
dropout_975 (Dropout)        (None, 256)               0         
_________________________________________________________________
dense_325 (Dense)            (None, 10)                2570      
=================================================================
Total params: 24,119,978
Trainable params: 24,117,610
Non-trainable params: 2,368
_________________________________________________________________
