Model: "sequential_70"
_________________________________________________________________
Layer (type)                 Output Shape              Param #   
=================================================================
conv2d_488 (Conv2D)          (None, 32, 32, 1024)      28672     
_________________________________________________________________
activation_643 (Activation)  (None, 32, 32, 1024)      0         
_________________________________________________________________
dropout_643 (Dropout)        (None, 32, 32, 1024)      0         
_________________________________________________________________
conv2d_489 (Conv2D)          (None, 32, 32, 1024)      9438208   
_________________________________________________________________
activation_644 (Activation)  (None, 32, 32, 1024)      0         
_________________________________________________________________
dropout_644 (Dropout)        (None, 32, 32, 1024)      0         
_________________________________________________________________
max_pooling2d_147 (MaxPoolin (None, 16, 16, 1024)      0         
_________________________________________________________________
conv2d_490 (Conv2D)          (None, 16, 16, 64)        589888    
_________________________________________________________________
batch_normalization_295 (Bat (None, 16, 16, 64)        256       
_________________________________________________________________
activation_645 (Activation)  (None, 16, 16, 64)        0         
_________________________________________________________________
dropout_645 (Dropout)        (None, 16, 16, 64)        0         
_________________________________________________________________
max_pooling2d_148 (MaxPoolin (None, 8, 8, 64)          0         
_________________________________________________________________
conv2d_491 (Conv2D)          (None, 8, 8, 128)         73856     
_________________________________________________________________
activation_646 (Activation)  (None, 8, 8, 128)         0         
_________________________________________________________________
dropout_646 (Dropout)        (None, 8, 8, 128)         0         
_________________________________________________________________
conv2d_492 (Conv2D)          (None, 8, 8, 32)          36896     
_________________________________________________________________
batch_normalization_296 (Bat (None, 8, 8, 32)          128       
_________________________________________________________________
activation_647 (Activation)  (None, 8, 8, 32)          0         
_________________________________________________________________
dropout_647 (Dropout)        (None, 8, 8, 32)          0         
_________________________________________________________________
conv2d_493 (Conv2D)          (None, 8, 8, 1024)        295936    
_________________________________________________________________
activation_648 (Activation)  (None, 8, 8, 1024)        0         
_________________________________________________________________
dropout_648 (Dropout)        (None, 8, 8, 1024)        0         
_________________________________________________________________
conv2d_494 (Conv2D)          (None, 8, 8, 1024)        9438208   
_________________________________________________________________
batch_normalization_297 (Bat (None, 8, 8, 1024)        4096      
_________________________________________________________________
activation_649 (Activation)  (None, 8, 8, 1024)        0         
_________________________________________________________________
dropout_649 (Dropout)        (None, 8, 8, 1024)        0         
_________________________________________________________________
flatten_70 (Flatten)         (None, 65536)             0         
_________________________________________________________________
dense_225 (Dense)            (None, 64)                4194368   
_________________________________________________________________
batch_normalization_298 (Bat (None, 64)                256       
_________________________________________________________________
activation_650 (Activation)  (None, 64)                0         
_________________________________________________________________
dropout_650 (Dropout)        (None, 64)                0         
_________________________________________________________________
dense_226 (Dense)            (None, 256)               16640     
_________________________________________________________________
activation_651 (Activation)  (None, 256)               0         
_________________________________________________________________
dropout_651 (Dropout)        (None, 256)               0         
_________________________________________________________________
dense_227 (Dense)            (None, 10)                2570      
=================================================================
Total params: 24,119,978
Trainable params: 24,117,610
Non-trainable params: 2,368
_________________________________________________________________
