Model: "sequential_101"
_________________________________________________________________
Layer (type)                 Output Shape              Param #   
=================================================================
conv2d_703 (Conv2D)          (None, 32, 32, 1024)      28672     
_________________________________________________________________
batch_normalization_426 (Bat (None, 32, 32, 1024)      4096      
_________________________________________________________________
activation_908 (Activation)  (None, 32, 32, 1024)      0         
_________________________________________________________________
dropout_908 (Dropout)        (None, 32, 32, 1024)      0         
_________________________________________________________________
conv2d_704 (Conv2D)          (None, 32, 32, 1024)      9438208   
_________________________________________________________________
activation_909 (Activation)  (None, 32, 32, 1024)      0         
_________________________________________________________________
dropout_909 (Dropout)        (None, 32, 32, 1024)      0         
_________________________________________________________________
max_pooling2d_211 (MaxPoolin (None, 16, 16, 1024)      0         
_________________________________________________________________
conv2d_705 (Conv2D)          (None, 16, 16, 64)        589888    
_________________________________________________________________
batch_normalization_427 (Bat (None, 16, 16, 64)        256       
_________________________________________________________________
activation_910 (Activation)  (None, 16, 16, 64)        0         
_________________________________________________________________
dropout_910 (Dropout)        (None, 16, 16, 64)        0         
_________________________________________________________________
max_pooling2d_212 (MaxPoolin (None, 8, 8, 64)          0         
_________________________________________________________________
conv2d_706 (Conv2D)          (None, 8, 8, 128)         73856     
_________________________________________________________________
activation_911 (Activation)  (None, 8, 8, 128)         0         
_________________________________________________________________
dropout_911 (Dropout)        (None, 8, 8, 128)         0         
_________________________________________________________________
conv2d_707 (Conv2D)          (None, 8, 8, 32)          36896     
_________________________________________________________________
batch_normalization_428 (Bat (None, 8, 8, 32)          128       
_________________________________________________________________
activation_912 (Activation)  (None, 8, 8, 32)          0         
_________________________________________________________________
dropout_912 (Dropout)        (None, 8, 8, 32)          0         
_________________________________________________________________
conv2d_708 (Conv2D)          (None, 8, 8, 1024)        295936    
_________________________________________________________________
activation_913 (Activation)  (None, 8, 8, 1024)        0         
_________________________________________________________________
dropout_913 (Dropout)        (None, 8, 8, 1024)        0         
_________________________________________________________________
conv2d_709 (Conv2D)          (None, 8, 8, 1024)        9438208   
_________________________________________________________________
batch_normalization_429 (Bat (None, 8, 8, 1024)        4096      
_________________________________________________________________
activation_914 (Activation)  (None, 8, 8, 1024)        0         
_________________________________________________________________
dropout_914 (Dropout)        (None, 8, 8, 1024)        0         
_________________________________________________________________
flatten_101 (Flatten)        (None, 65536)             0         
_________________________________________________________________
dense_306 (Dense)            (None, 64)                4194368   
_________________________________________________________________
batch_normalization_430 (Bat (None, 64)                256       
_________________________________________________________________
activation_915 (Activation)  (None, 64)                0         
_________________________________________________________________
dropout_915 (Dropout)        (None, 64)                0         
_________________________________________________________________
dense_307 (Dense)            (None, 10)                650       
=================================================================
Total params: 24,105,514
Trainable params: 24,101,098
Non-trainable params: 4,416
_________________________________________________________________
