Model: "sequential_153"
_________________________________________________________________
Layer (type)                 Output Shape              Param #   
=================================================================
conv2d_1067 (Conv2D)         (None, 32, 32, 1024)      28672     
_________________________________________________________________
activation_1365 (Activation) (None, 32, 32, 1024)      0         
_________________________________________________________________
dropout_1365 (Dropout)       (None, 32, 32, 1024)      0         
_________________________________________________________________
conv2d_1068 (Conv2D)         (None, 32, 32, 1024)      9438208   
_________________________________________________________________
activation_1366 (Activation) (None, 32, 32, 1024)      0         
_________________________________________________________________
dropout_1366 (Dropout)       (None, 32, 32, 1024)      0         
_________________________________________________________________
max_pooling2d_333 (MaxPoolin (None, 16, 16, 1024)      0         
_________________________________________________________________
conv2d_1069 (Conv2D)         (None, 16, 16, 64)        589888    
_________________________________________________________________
batch_normalization_651 (Bat (None, 16, 16, 64)        256       
_________________________________________________________________
activation_1367 (Activation) (None, 16, 16, 64)        0         
_________________________________________________________________
dropout_1367 (Dropout)       (None, 16, 16, 64)        0         
_________________________________________________________________
max_pooling2d_334 (MaxPoolin (None, 8, 8, 64)          0         
_________________________________________________________________
conv2d_1070 (Conv2D)         (None, 8, 8, 128)         73856     
_________________________________________________________________
activation_1368 (Activation) (None, 8, 8, 128)         0         
_________________________________________________________________
dropout_1368 (Dropout)       (None, 8, 8, 128)         0         
_________________________________________________________________
conv2d_1071 (Conv2D)         (None, 8, 8, 32)          36896     
_________________________________________________________________
batch_normalization_652 (Bat (None, 8, 8, 32)          128       
_________________________________________________________________
activation_1369 (Activation) (None, 8, 8, 32)          0         
_________________________________________________________________
dropout_1369 (Dropout)       (None, 8, 8, 32)          0         
_________________________________________________________________
conv2d_1072 (Conv2D)         (None, 8, 8, 1024)        295936    
_________________________________________________________________
activation_1370 (Activation) (None, 8, 8, 1024)        0         
_________________________________________________________________
dropout_1370 (Dropout)       (None, 8, 8, 1024)        0         
_________________________________________________________________
max_pooling2d_335 (MaxPoolin (None, 4, 4, 1024)        0         
_________________________________________________________________
conv2d_1073 (Conv2D)         (None, 4, 4, 1024)        9438208   
_________________________________________________________________
batch_normalization_653 (Bat (None, 4, 4, 1024)        4096      
_________________________________________________________________
activation_1371 (Activation) (None, 4, 4, 1024)        0         
_________________________________________________________________
dropout_1371 (Dropout)       (None, 4, 4, 1024)        0         
_________________________________________________________________
flatten_153 (Flatten)        (None, 16384)             0         
_________________________________________________________________
dense_451 (Dense)            (None, 64)                1048640   
_________________________________________________________________
batch_normalization_654 (Bat (None, 64)                256       
_________________________________________________________________
activation_1372 (Activation) (None, 64)                0         
_________________________________________________________________
dropout_1372 (Dropout)       (None, 64)                0         
_________________________________________________________________
dense_452 (Dense)            (None, 512)               33280     
_________________________________________________________________
activation_1373 (Activation) (None, 512)               0         
_________________________________________________________________
dropout_1373 (Dropout)       (None, 512)               0         
_________________________________________________________________
dense_453 (Dense)            (None, 10)                5130      
=================================================================
Total params: 20,993,450
Trainable params: 20,991,082
Non-trainable params: 2,368
_________________________________________________________________
