Model: "sequential_58"
_________________________________________________________________
Layer (type)                 Output Shape              Param #   
=================================================================
conv2d_404 (Conv2D)          (None, 32, 32, 1024)      28672     
_________________________________________________________________
activation_538 (Activation)  (None, 32, 32, 1024)      0         
_________________________________________________________________
dropout_538 (Dropout)        (None, 32, 32, 1024)      0         
_________________________________________________________________
conv2d_405 (Conv2D)          (None, 32, 32, 1024)      9438208   
_________________________________________________________________
activation_539 (Activation)  (None, 32, 32, 1024)      0         
_________________________________________________________________
dropout_539 (Dropout)        (None, 32, 32, 1024)      0         
_________________________________________________________________
max_pooling2d_123 (MaxPoolin (None, 16, 16, 1024)      0         
_________________________________________________________________
conv2d_406 (Conv2D)          (None, 16, 16, 64)        589888    
_________________________________________________________________
batch_normalization_244 (Bat (None, 16, 16, 64)        256       
_________________________________________________________________
activation_540 (Activation)  (None, 16, 16, 64)        0         
_________________________________________________________________
dropout_540 (Dropout)        (None, 16, 16, 64)        0         
_________________________________________________________________
max_pooling2d_124 (MaxPoolin (None, 8, 8, 64)          0         
_________________________________________________________________
conv2d_407 (Conv2D)          (None, 8, 8, 128)         73856     
_________________________________________________________________
activation_541 (Activation)  (None, 8, 8, 128)         0         
_________________________________________________________________
dropout_541 (Dropout)        (None, 8, 8, 128)         0         
_________________________________________________________________
conv2d_408 (Conv2D)          (None, 8, 8, 32)          36896     
_________________________________________________________________
batch_normalization_245 (Bat (None, 8, 8, 32)          128       
_________________________________________________________________
activation_542 (Activation)  (None, 8, 8, 32)          0         
_________________________________________________________________
dropout_542 (Dropout)        (None, 8, 8, 32)          0         
_________________________________________________________________
conv2d_409 (Conv2D)          (None, 8, 8, 1024)        295936    
_________________________________________________________________
activation_543 (Activation)  (None, 8, 8, 1024)        0         
_________________________________________________________________
dropout_543 (Dropout)        (None, 8, 8, 1024)        0         
_________________________________________________________________
conv2d_410 (Conv2D)          (None, 8, 8, 1024)        9438208   
_________________________________________________________________
batch_normalization_246 (Bat (None, 8, 8, 1024)        4096      
_________________________________________________________________
activation_544 (Activation)  (None, 8, 8, 1024)        0         
_________________________________________________________________
dropout_544 (Dropout)        (None, 8, 8, 1024)        0         
_________________________________________________________________
flatten_58 (Flatten)         (None, 65536)             0         
_________________________________________________________________
dense_192 (Dense)            (None, 256)               16777472  
_________________________________________________________________
batch_normalization_247 (Bat (None, 256)               1024      
_________________________________________________________________
activation_545 (Activation)  (None, 256)               0         
_________________________________________________________________
dropout_545 (Dropout)        (None, 256)               0         
_________________________________________________________________
dense_193 (Dense)            (None, 256)               65792     
_________________________________________________________________
activation_546 (Activation)  (None, 256)               0         
_________________________________________________________________
dropout_546 (Dropout)        (None, 256)               0         
_________________________________________________________________
dense_194 (Dense)            (None, 10)                2570      
=================================================================
Total params: 36,753,002
Trainable params: 36,750,250
Non-trainable params: 2,752
_________________________________________________________________
