Model: "sequential_78"
_________________________________________________________________
Layer (type)                 Output Shape              Param #   
=================================================================
conv2d_543 (Conv2D)          (None, 32, 32, 1024)      28672     
_________________________________________________________________
activation_710 (Activation)  (None, 32, 32, 1024)      0         
_________________________________________________________________
dropout_710 (Dropout)        (None, 32, 32, 1024)      0         
_________________________________________________________________
conv2d_544 (Conv2D)          (None, 32, 32, 1024)      9438208   
_________________________________________________________________
activation_711 (Activation)  (None, 32, 32, 1024)      0         
_________________________________________________________________
dropout_711 (Dropout)        (None, 32, 32, 1024)      0         
_________________________________________________________________
max_pooling2d_163 (MaxPoolin (None, 16, 16, 1024)      0         
_________________________________________________________________
conv2d_545 (Conv2D)          (None, 16, 16, 64)        589888    
_________________________________________________________________
batch_normalization_329 (Bat (None, 16, 16, 64)        256       
_________________________________________________________________
activation_712 (Activation)  (None, 16, 16, 64)        0         
_________________________________________________________________
dropout_712 (Dropout)        (None, 16, 16, 64)        0         
_________________________________________________________________
max_pooling2d_164 (MaxPoolin (None, 8, 8, 64)          0         
_________________________________________________________________
conv2d_546 (Conv2D)          (None, 8, 8, 128)         73856     
_________________________________________________________________
activation_713 (Activation)  (None, 8, 8, 128)         0         
_________________________________________________________________
dropout_713 (Dropout)        (None, 8, 8, 128)         0         
_________________________________________________________________
conv2d_547 (Conv2D)          (None, 8, 8, 32)          36896     
_________________________________________________________________
batch_normalization_330 (Bat (None, 8, 8, 32)          128       
_________________________________________________________________
activation_714 (Activation)  (None, 8, 8, 32)          0         
_________________________________________________________________
dropout_714 (Dropout)        (None, 8, 8, 32)          0         
_________________________________________________________________
conv2d_548 (Conv2D)          (None, 8, 8, 1024)        295936    
_________________________________________________________________
activation_715 (Activation)  (None, 8, 8, 1024)        0         
_________________________________________________________________
dropout_715 (Dropout)        (None, 8, 8, 1024)        0         
_________________________________________________________________
conv2d_549 (Conv2D)          (None, 8, 8, 1024)        9438208   
_________________________________________________________________
batch_normalization_331 (Bat (None, 8, 8, 1024)        4096      
_________________________________________________________________
activation_716 (Activation)  (None, 8, 8, 1024)        0         
_________________________________________________________________
dropout_716 (Dropout)        (None, 8, 8, 1024)        0         
_________________________________________________________________
flatten_78 (Flatten)         (None, 65536)             0         
_________________________________________________________________
dense_245 (Dense)            (None, 64)                4194368   
_________________________________________________________________
batch_normalization_332 (Bat (None, 64)                256       
_________________________________________________________________
activation_717 (Activation)  (None, 64)                0         
_________________________________________________________________
dropout_717 (Dropout)        (None, 64)                0         
_________________________________________________________________
dense_246 (Dense)            (None, 10)                650       
=================================================================
Total params: 24,101,418
Trainable params: 24,099,050
Non-trainable params: 2,368
_________________________________________________________________
