Model: "sequential_112"
_________________________________________________________________
Layer (type)                 Output Shape              Param #   
=================================================================
conv2d_780 (Conv2D)          (None, 32, 32, 1024)      28672     
_________________________________________________________________
activation_1002 (Activation) (None, 32, 32, 1024)      0         
_________________________________________________________________
dropout_1002 (Dropout)       (None, 32, 32, 1024)      0         
_________________________________________________________________
conv2d_781 (Conv2D)          (None, 32, 32, 1024)      9438208   
_________________________________________________________________
activation_1003 (Activation) (None, 32, 32, 1024)      0         
_________________________________________________________________
dropout_1003 (Dropout)       (None, 32, 32, 1024)      0         
_________________________________________________________________
max_pooling2d_235 (MaxPoolin (None, 16, 16, 1024)      0         
_________________________________________________________________
conv2d_782 (Conv2D)          (None, 16, 16, 64)        589888    
_________________________________________________________________
batch_normalization_472 (Bat (None, 16, 16, 64)        256       
_________________________________________________________________
activation_1004 (Activation) (None, 16, 16, 64)        0         
_________________________________________________________________
dropout_1004 (Dropout)       (None, 16, 16, 64)        0         
_________________________________________________________________
max_pooling2d_236 (MaxPoolin (None, 8, 8, 64)          0         
_________________________________________________________________
conv2d_783 (Conv2D)          (None, 8, 8, 128)         73856     
_________________________________________________________________
activation_1005 (Activation) (None, 8, 8, 128)         0         
_________________________________________________________________
dropout_1005 (Dropout)       (None, 8, 8, 128)         0         
_________________________________________________________________
conv2d_784 (Conv2D)          (None, 8, 8, 32)          36896     
_________________________________________________________________
batch_normalization_473 (Bat (None, 8, 8, 32)          128       
_________________________________________________________________
activation_1006 (Activation) (None, 8, 8, 32)          0         
_________________________________________________________________
dropout_1006 (Dropout)       (None, 8, 8, 32)          0         
_________________________________________________________________
conv2d_785 (Conv2D)          (None, 8, 8, 1024)        295936    
_________________________________________________________________
activation_1007 (Activation) (None, 8, 8, 1024)        0         
_________________________________________________________________
dropout_1007 (Dropout)       (None, 8, 8, 1024)        0         
_________________________________________________________________
max_pooling2d_237 (MaxPoolin (None, 4, 4, 1024)        0         
_________________________________________________________________
conv2d_786 (Conv2D)          (None, 4, 4, 1024)        9438208   
_________________________________________________________________
batch_normalization_474 (Bat (None, 4, 4, 1024)        4096      
_________________________________________________________________
activation_1008 (Activation) (None, 4, 4, 1024)        0         
_________________________________________________________________
dropout_1008 (Dropout)       (None, 4, 4, 1024)        0         
_________________________________________________________________
flatten_112 (Flatten)        (None, 16384)             0         
_________________________________________________________________
dense_334 (Dense)            (None, 64)                1048640   
_________________________________________________________________
batch_normalization_475 (Bat (None, 64)                256       
_________________________________________________________________
activation_1009 (Activation) (None, 64)                0         
_________________________________________________________________
dropout_1009 (Dropout)       (None, 64)                0         
_________________________________________________________________
dense_335 (Dense)            (None, 256)               16640     
_________________________________________________________________
activation_1010 (Activation) (None, 256)               0         
_________________________________________________________________
dropout_1010 (Dropout)       (None, 256)               0         
_________________________________________________________________
dense_336 (Dense)            (None, 10)                2570      
=================================================================
Total params: 20,974,250
Trainable params: 20,971,882
Non-trainable params: 2,368
_________________________________________________________________
