Model: "sequential_3"
_________________________________________________________________
Layer (type)                 Output Shape              Param #   
=================================================================
conv2d_20 (Conv2D)           (None, 32, 32, 512)       14336     
_________________________________________________________________
activation_27 (Activation)   (None, 32, 32, 512)       0         
_________________________________________________________________
dropout_27 (Dropout)         (None, 32, 32, 512)       0         
_________________________________________________________________
conv2d_21 (Conv2D)           (None, 32, 32, 32)        147488    
_________________________________________________________________
batch_normalization_10 (Batc (None, 32, 32, 32)        128       
_________________________________________________________________
activation_28 (Activation)   (None, 32, 32, 32)        0         
_________________________________________________________________
dropout_28 (Dropout)         (None, 32, 32, 32)        0         
_________________________________________________________________
conv2d_22 (Conv2D)           (None, 32, 32, 512)       147968    
_________________________________________________________________
batch_normalization_11 (Batc (None, 32, 32, 512)       2048      
_________________________________________________________________
activation_29 (Activation)   (None, 32, 32, 512)       0         
_________________________________________________________________
dropout_29 (Dropout)         (None, 32, 32, 512)       0         
_________________________________________________________________
max_pooling2d_8 (MaxPooling2 (None, 16, 16, 512)       0         
_________________________________________________________________
conv2d_23 (Conv2D)           (None, 16, 16, 256)       1179904   
_________________________________________________________________
activation_30 (Activation)   (None, 16, 16, 256)       0         
_________________________________________________________________
dropout_30 (Dropout)         (None, 16, 16, 256)       0         
_________________________________________________________________
max_pooling2d_9 (MaxPooling2 (None, 8, 8, 256)         0         
_________________________________________________________________
conv2d_24 (Conv2D)           (None, 8, 8, 8)           18440     
_________________________________________________________________
batch_normalization_12 (Batc (None, 8, 8, 8)           32        
_________________________________________________________________
activation_31 (Activation)   (None, 8, 8, 8)           0         
_________________________________________________________________
dropout_31 (Dropout)         (None, 8, 8, 8)           0         
_________________________________________________________________
conv2d_25 (Conv2D)           (None, 8, 8, 16)          1168      
_________________________________________________________________
activation_32 (Activation)   (None, 8, 8, 16)          0         
_________________________________________________________________
dropout_32 (Dropout)         (None, 8, 8, 16)          0         
_________________________________________________________________
max_pooling2d_10 (MaxPooling (None, 4, 4, 16)          0         
_________________________________________________________________
conv2d_26 (Conv2D)           (None, 4, 4, 16)          2320      
_________________________________________________________________
activation_33 (Activation)   (None, 4, 4, 16)          0         
_________________________________________________________________
dropout_33 (Dropout)         (None, 4, 4, 16)          0         
_________________________________________________________________
conv2d_27 (Conv2D)           (None, 4, 4, 32)          4640      
_________________________________________________________________
activation_34 (Activation)   (None, 4, 4, 32)          0         
_________________________________________________________________
dropout_34 (Dropout)         (None, 4, 4, 32)          0         
_________________________________________________________________
conv2d_28 (Conv2D)           (None, 4, 4, 16)          4624      
_________________________________________________________________
activation_35 (Activation)   (None, 4, 4, 16)          0         
_________________________________________________________________
dropout_35 (Dropout)         (None, 4, 4, 16)          0         
_________________________________________________________________
conv2d_29 (Conv2D)           (None, 4, 4, 64)          9280      
_________________________________________________________________
batch_normalization_13 (Batc (None, 4, 4, 64)          256       
_________________________________________________________________
activation_36 (Activation)   (None, 4, 4, 64)          0         
_________________________________________________________________
dropout_36 (Dropout)         (None, 4, 4, 64)          0         
_________________________________________________________________
conv2d_30 (Conv2D)           (None, 4, 4, 64)          36928     
_________________________________________________________________
batch_normalization_14 (Batc (None, 4, 4, 64)          256       
_________________________________________________________________
activation_37 (Activation)   (None, 4, 4, 64)          0         
_________________________________________________________________
dropout_37 (Dropout)         (None, 4, 4, 64)          0         
_________________________________________________________________
flatten_3 (Flatten)          (None, 1024)              0         
_________________________________________________________________
dense_10 (Dense)             (None, 32)                32800     
_________________________________________________________________
activation_38 (Activation)   (None, 32)                0         
_________________________________________________________________
dropout_38 (Dropout)         (None, 32)                0         
_________________________________________________________________
dense_11 (Dense)             (None, 128)               4224      
_________________________________________________________________
batch_normalization_15 (Batc (None, 128)               512       
_________________________________________________________________
activation_39 (Activation)   (None, 128)               0         
_________________________________________________________________
dropout_39 (Dropout)         (None, 128)               0         
_________________________________________________________________
dense_12 (Dense)             (None, 128)               16512     
_________________________________________________________________
activation_40 (Activation)   (None, 128)               0         
_________________________________________________________________
dropout_40 (Dropout)         (None, 128)               0         
_________________________________________________________________
dense_13 (Dense)             (None, 64)                8256      
_________________________________________________________________
activation_41 (Activation)   (None, 64)                0         
_________________________________________________________________
dropout_41 (Dropout)         (None, 64)                0         
_________________________________________________________________
dense_14 (Dense)             (None, 10)                650       
=================================================================
Total params: 1,632,770
Trainable params: 1,631,154
Non-trainable params: 1,616
_________________________________________________________________
