Model: "sequential_152"
_________________________________________________________________
Layer (type)                 Output Shape              Param #   
=================================================================
conv2d_1060 (Conv2D)         (None, 32, 32, 1024)      28672     
_________________________________________________________________
activation_1356 (Activation) (None, 32, 32, 1024)      0         
_________________________________________________________________
dropout_1356 (Dropout)       (None, 32, 32, 1024)      0         
_________________________________________________________________
conv2d_1061 (Conv2D)         (None, 32, 32, 1024)      9438208   
_________________________________________________________________
activation_1357 (Activation) (None, 32, 32, 1024)      0         
_________________________________________________________________
dropout_1357 (Dropout)       (None, 32, 32, 1024)      0         
_________________________________________________________________
max_pooling2d_331 (MaxPoolin (None, 16, 16, 1024)      0         
_________________________________________________________________
conv2d_1062 (Conv2D)         (None, 16, 16, 64)        589888    
_________________________________________________________________
batch_normalization_647 (Bat (None, 16, 16, 64)        256       
_________________________________________________________________
activation_1358 (Activation) (None, 16, 16, 64)        0         
_________________________________________________________________
dropout_1358 (Dropout)       (None, 16, 16, 64)        0         
_________________________________________________________________
max_pooling2d_332 (MaxPoolin (None, 8, 8, 64)          0         
_________________________________________________________________
conv2d_1063 (Conv2D)         (None, 8, 8, 128)         73856     
_________________________________________________________________
activation_1359 (Activation) (None, 8, 8, 128)         0         
_________________________________________________________________
dropout_1359 (Dropout)       (None, 8, 8, 128)         0         
_________________________________________________________________
conv2d_1064 (Conv2D)         (None, 8, 8, 32)          36896     
_________________________________________________________________
batch_normalization_648 (Bat (None, 8, 8, 32)          128       
_________________________________________________________________
activation_1360 (Activation) (None, 8, 8, 32)          0         
_________________________________________________________________
dropout_1360 (Dropout)       (None, 8, 8, 32)          0         
_________________________________________________________________
conv2d_1065 (Conv2D)         (None, 8, 8, 1024)        295936    
_________________________________________________________________
activation_1361 (Activation) (None, 8, 8, 1024)        0         
_________________________________________________________________
dropout_1361 (Dropout)       (None, 8, 8, 1024)        0         
_________________________________________________________________
conv2d_1066 (Conv2D)         (None, 8, 8, 1024)        9438208   
_________________________________________________________________
batch_normalization_649 (Bat (None, 8, 8, 1024)        4096      
_________________________________________________________________
activation_1362 (Activation) (None, 8, 8, 1024)        0         
_________________________________________________________________
dropout_1362 (Dropout)       (None, 8, 8, 1024)        0         
_________________________________________________________________
flatten_152 (Flatten)        (None, 65536)             0         
_________________________________________________________________
dense_448 (Dense)            (None, 64)                4194368   
_________________________________________________________________
batch_normalization_650 (Bat (None, 64)                256       
_________________________________________________________________
activation_1363 (Activation) (None, 64)                0         
_________________________________________________________________
dropout_1363 (Dropout)       (None, 64)                0         
_________________________________________________________________
dense_449 (Dense)            (None, 256)               16640     
_________________________________________________________________
activation_1364 (Activation) (None, 256)               0         
_________________________________________________________________
dropout_1364 (Dropout)       (None, 256)               0         
_________________________________________________________________
dense_450 (Dense)            (None, 10)                2570      
=================================================================
Total params: 24,119,978
Trainable params: 24,117,610
Non-trainable params: 2,368
_________________________________________________________________
