Model: "sequential_192"
_________________________________________________________________
Layer (type)                 Output Shape              Param #   
=================================================================
conv2d_1348 (Conv2D)         (None, 32, 32, 1024)      28672     
_________________________________________________________________
activation_1724 (Activation) (None, 32, 32, 1024)      0         
_________________________________________________________________
dropout_1724 (Dropout)       (None, 32, 32, 1024)      0         
_________________________________________________________________
conv2d_1349 (Conv2D)         (None, 32, 32, 1024)      9438208   
_________________________________________________________________
activation_1725 (Activation) (None, 32, 32, 1024)      0         
_________________________________________________________________
dropout_1725 (Dropout)       (None, 32, 32, 1024)      0         
_________________________________________________________________
max_pooling2d_420 (MaxPoolin (None, 16, 16, 1024)      0         
_________________________________________________________________
conv2d_1350 (Conv2D)         (None, 16, 16, 64)        589888    
_________________________________________________________________
batch_normalization_841 (Bat (None, 16, 16, 64)        256       
_________________________________________________________________
activation_1726 (Activation) (None, 16, 16, 64)        0         
_________________________________________________________________
dropout_1726 (Dropout)       (None, 16, 16, 64)        0         
_________________________________________________________________
conv2d_1351 (Conv2D)         (None, 16, 16, 128)       73856     
_________________________________________________________________
activation_1727 (Activation) (None, 16, 16, 128)       0         
_________________________________________________________________
dropout_1727 (Dropout)       (None, 16, 16, 128)       0         
_________________________________________________________________
conv2d_1352 (Conv2D)         (None, 16, 16, 32)        36896     
_________________________________________________________________
batch_normalization_842 (Bat (None, 16, 16, 32)        128       
_________________________________________________________________
activation_1728 (Activation) (None, 16, 16, 32)        0         
_________________________________________________________________
dropout_1728 (Dropout)       (None, 16, 16, 32)        0         
_________________________________________________________________
conv2d_1353 (Conv2D)         (None, 16, 16, 1024)      295936    
_________________________________________________________________
activation_1729 (Activation) (None, 16, 16, 1024)      0         
_________________________________________________________________
dropout_1729 (Dropout)       (None, 16, 16, 1024)      0         
_________________________________________________________________
conv2d_1354 (Conv2D)         (None, 16, 16, 1024)      9438208   
_________________________________________________________________
batch_normalization_843 (Bat (None, 16, 16, 1024)      4096      
_________________________________________________________________
activation_1730 (Activation) (None, 16, 16, 1024)      0         
_________________________________________________________________
dropout_1730 (Dropout)       (None, 16, 16, 1024)      0         
_________________________________________________________________
conv2d_1355 (Conv2D)         (None, 16, 16, 1024)      9438208   
_________________________________________________________________
batch_normalization_844 (Bat (None, 16, 16, 1024)      4096      
_________________________________________________________________
activation_1731 (Activation) (None, 16, 16, 1024)      0         
_________________________________________________________________
dropout_1731 (Dropout)       (None, 16, 16, 1024)      0         
_________________________________________________________________
flatten_192 (Flatten)        (None, 262144)            0         
_________________________________________________________________
dense_568 (Dense)            (None, 64)                16777280  
_________________________________________________________________
batch_normalization_845 (Bat (None, 64)                256       
_________________________________________________________________
activation_1732 (Activation) (None, 64)                0         
_________________________________________________________________
dropout_1732 (Dropout)       (None, 64)                0         
_________________________________________________________________
dense_569 (Dense)            (None, 256)               16640     
_________________________________________________________________
batch_normalization_846 (Bat (None, 256)               1024      
_________________________________________________________________
activation_1733 (Activation) (None, 256)               0         
_________________________________________________________________
dropout_1733 (Dropout)       (None, 256)               0         
_________________________________________________________________
dense_570 (Dense)            (None, 10)                2570      
=================================================================
Total params: 46,146,218
Trainable params: 46,141,290
Non-trainable params: 4,928
_________________________________________________________________
