Model: "sequential_164"
_________________________________________________________________
Layer (type)                 Output Shape              Param #   
=================================================================
conv2d_1144 (Conv2D)         (None, 32, 32, 1024)      28672     
_________________________________________________________________
activation_1464 (Activation) (None, 32, 32, 1024)      0         
_________________________________________________________________
dropout_1464 (Dropout)       (None, 32, 32, 1024)      0         
_________________________________________________________________
conv2d_1145 (Conv2D)         (None, 32, 32, 1024)      9438208   
_________________________________________________________________
activation_1465 (Activation) (None, 32, 32, 1024)      0         
_________________________________________________________________
dropout_1465 (Dropout)       (None, 32, 32, 1024)      0         
_________________________________________________________________
max_pooling2d_359 (MaxPoolin (None, 16, 16, 1024)      0         
_________________________________________________________________
conv2d_1146 (Conv2D)         (None, 16, 16, 64)        589888    
_________________________________________________________________
batch_normalization_700 (Bat (None, 16, 16, 64)        256       
_________________________________________________________________
activation_1466 (Activation) (None, 16, 16, 64)        0         
_________________________________________________________________
dropout_1466 (Dropout)       (None, 16, 16, 64)        0         
_________________________________________________________________
max_pooling2d_360 (MaxPoolin (None, 8, 8, 64)          0         
_________________________________________________________________
conv2d_1147 (Conv2D)         (None, 8, 8, 128)         73856     
_________________________________________________________________
activation_1467 (Activation) (None, 8, 8, 128)         0         
_________________________________________________________________
dropout_1467 (Dropout)       (None, 8, 8, 128)         0         
_________________________________________________________________
conv2d_1148 (Conv2D)         (None, 8, 8, 32)          36896     
_________________________________________________________________
batch_normalization_701 (Bat (None, 8, 8, 32)          128       
_________________________________________________________________
activation_1468 (Activation) (None, 8, 8, 32)          0         
_________________________________________________________________
dropout_1468 (Dropout)       (None, 8, 8, 32)          0         
_________________________________________________________________
conv2d_1149 (Conv2D)         (None, 8, 8, 1024)        295936    
_________________________________________________________________
activation_1469 (Activation) (None, 8, 8, 1024)        0         
_________________________________________________________________
dropout_1469 (Dropout)       (None, 8, 8, 1024)        0         
_________________________________________________________________
conv2d_1150 (Conv2D)         (None, 8, 8, 256)         2359552   
_________________________________________________________________
batch_normalization_702 (Bat (None, 8, 8, 256)         1024      
_________________________________________________________________
activation_1470 (Activation) (None, 8, 8, 256)         0         
_________________________________________________________________
dropout_1470 (Dropout)       (None, 8, 8, 256)         0         
_________________________________________________________________
conv2d_1151 (Conv2D)         (None, 8, 8, 1024)        2360320   
_________________________________________________________________
batch_normalization_703 (Bat (None, 8, 8, 1024)        4096      
_________________________________________________________________
activation_1471 (Activation) (None, 8, 8, 1024)        0         
_________________________________________________________________
dropout_1471 (Dropout)       (None, 8, 8, 1024)        0         
_________________________________________________________________
flatten_164 (Flatten)        (None, 65536)             0         
_________________________________________________________________
dense_484 (Dense)            (None, 64)                4194368   
_________________________________________________________________
batch_normalization_704 (Bat (None, 64)                256       
_________________________________________________________________
activation_1472 (Activation) (None, 64)                0         
_________________________________________________________________
dropout_1472 (Dropout)       (None, 64)                0         
_________________________________________________________________
dense_485 (Dense)            (None, 256)               16640     
_________________________________________________________________
batch_normalization_705 (Bat (None, 256)               1024      
_________________________________________________________________
activation_1473 (Activation) (None, 256)               0         
_________________________________________________________________
dropout_1473 (Dropout)       (None, 256)               0         
_________________________________________________________________
dense_486 (Dense)            (None, 10)                2570      
=================================================================
Total params: 19,403,690
Trainable params: 19,400,298
Non-trainable params: 3,392
_________________________________________________________________
