Model: "sequential_116"
_________________________________________________________________
Layer (type)                 Output Shape              Param #   
=================================================================
conv2d_808 (Conv2D)          (None, 32, 32, 1024)      28672     
_________________________________________________________________
batch_normalization_489 (Bat (None, 32, 32, 1024)      4096      
_________________________________________________________________
activation_1037 (Activation) (None, 32, 32, 1024)      0         
_________________________________________________________________
dropout_1037 (Dropout)       (None, 32, 32, 1024)      0         
_________________________________________________________________
conv2d_809 (Conv2D)          (None, 32, 32, 1024)      9438208   
_________________________________________________________________
activation_1038 (Activation) (None, 32, 32, 1024)      0         
_________________________________________________________________
dropout_1038 (Dropout)       (None, 32, 32, 1024)      0         
_________________________________________________________________
max_pooling2d_245 (MaxPoolin (None, 16, 16, 1024)      0         
_________________________________________________________________
conv2d_810 (Conv2D)          (None, 16, 16, 64)        589888    
_________________________________________________________________
batch_normalization_490 (Bat (None, 16, 16, 64)        256       
_________________________________________________________________
activation_1039 (Activation) (None, 16, 16, 64)        0         
_________________________________________________________________
dropout_1039 (Dropout)       (None, 16, 16, 64)        0         
_________________________________________________________________
max_pooling2d_246 (MaxPoolin (None, 8, 8, 64)          0         
_________________________________________________________________
conv2d_811 (Conv2D)          (None, 8, 8, 128)         73856     
_________________________________________________________________
activation_1040 (Activation) (None, 8, 8, 128)         0         
_________________________________________________________________
dropout_1040 (Dropout)       (None, 8, 8, 128)         0         
_________________________________________________________________
conv2d_812 (Conv2D)          (None, 8, 8, 32)          36896     
_________________________________________________________________
batch_normalization_491 (Bat (None, 8, 8, 32)          128       
_________________________________________________________________
activation_1041 (Activation) (None, 8, 8, 32)          0         
_________________________________________________________________
dropout_1041 (Dropout)       (None, 8, 8, 32)          0         
_________________________________________________________________
conv2d_813 (Conv2D)          (None, 8, 8, 1024)        295936    
_________________________________________________________________
activation_1042 (Activation) (None, 8, 8, 1024)        0         
_________________________________________________________________
dropout_1042 (Dropout)       (None, 8, 8, 1024)        0         
_________________________________________________________________
max_pooling2d_247 (MaxPoolin (None, 4, 4, 1024)        0         
_________________________________________________________________
conv2d_814 (Conv2D)          (None, 4, 4, 1024)        9438208   
_________________________________________________________________
batch_normalization_492 (Bat (None, 4, 4, 1024)        4096      
_________________________________________________________________
activation_1043 (Activation) (None, 4, 4, 1024)        0         
_________________________________________________________________
dropout_1043 (Dropout)       (None, 4, 4, 1024)        0         
_________________________________________________________________
flatten_116 (Flatten)        (None, 16384)             0         
_________________________________________________________________
dense_345 (Dense)            (None, 64)                1048640   
_________________________________________________________________
batch_normalization_493 (Bat (None, 64)                256       
_________________________________________________________________
activation_1044 (Activation) (None, 64)                0         
_________________________________________________________________
dropout_1044 (Dropout)       (None, 64)                0         
_________________________________________________________________
dense_346 (Dense)            (None, 256)               16640     
_________________________________________________________________
activation_1045 (Activation) (None, 256)               0         
_________________________________________________________________
dropout_1045 (Dropout)       (None, 256)               0         
_________________________________________________________________
dense_347 (Dense)            (None, 10)                2570      
=================================================================
Total params: 20,978,346
Trainable params: 20,973,930
Non-trainable params: 4,416
_________________________________________________________________
