Model: "sequential_17"
_________________________________________________________________
Layer (type)                 Output Shape              Param #   
=================================================================
conv2d_124 (Conv2D)          (None, 32, 32, 16)        448       
_________________________________________________________________
batch_normalization_83 (Batc (None, 32, 32, 16)        64        
_________________________________________________________________
activation_171 (Activation)  (None, 32, 32, 16)        0         
_________________________________________________________________
dropout_171 (Dropout)        (None, 32, 32, 16)        0         
_________________________________________________________________
max_pooling2d_39 (MaxPooling (None, 16, 16, 16)        0         
_________________________________________________________________
conv2d_125 (Conv2D)          (None, 16, 16, 512)       74240     
_________________________________________________________________
batch_normalization_84 (Batc (None, 16, 16, 512)       2048      
_________________________________________________________________
activation_172 (Activation)  (None, 16, 16, 512)       0         
_________________________________________________________________
dropout_172 (Dropout)        (None, 16, 16, 512)       0         
_________________________________________________________________
conv2d_126 (Conv2D)          (None, 16, 16, 256)       1179904   
_________________________________________________________________
batch_normalization_85 (Batc (None, 16, 16, 256)       1024      
_________________________________________________________________
activation_173 (Activation)  (None, 16, 16, 256)       0         
_________________________________________________________________
dropout_173 (Dropout)        (None, 16, 16, 256)       0         
_________________________________________________________________
conv2d_127 (Conv2D)          (None, 16, 16, 128)       295040    
_________________________________________________________________
activation_174 (Activation)  (None, 16, 16, 128)       0         
_________________________________________________________________
dropout_174 (Dropout)        (None, 16, 16, 128)       0         
_________________________________________________________________
conv2d_128 (Conv2D)          (None, 16, 16, 256)       295168    
_________________________________________________________________
batch_normalization_86 (Batc (None, 16, 16, 256)       1024      
_________________________________________________________________
activation_175 (Activation)  (None, 16, 16, 256)       0         
_________________________________________________________________
dropout_175 (Dropout)        (None, 16, 16, 256)       0         
_________________________________________________________________
conv2d_129 (Conv2D)          (None, 16, 16, 512)       1180160   
_________________________________________________________________
activation_176 (Activation)  (None, 16, 16, 512)       0         
_________________________________________________________________
dropout_176 (Dropout)        (None, 16, 16, 512)       0         
_________________________________________________________________
conv2d_130 (Conv2D)          (None, 16, 16, 32)        147488    
_________________________________________________________________
activation_177 (Activation)  (None, 16, 16, 32)        0         
_________________________________________________________________
dropout_177 (Dropout)        (None, 16, 16, 32)        0         
_________________________________________________________________
max_pooling2d_40 (MaxPooling (None, 8, 8, 32)          0         
_________________________________________________________________
flatten_17 (Flatten)         (None, 2048)              0         
_________________________________________________________________
dense_64 (Dense)             (None, 256)               524544    
_________________________________________________________________
batch_normalization_87 (Batc (None, 256)               1024      
_________________________________________________________________
activation_178 (Activation)  (None, 256)               0         
_________________________________________________________________
dropout_178 (Dropout)        (None, 256)               0         
_________________________________________________________________
dense_65 (Dense)             (None, 16)                4112      
_________________________________________________________________
batch_normalization_88 (Batc (None, 16)                64        
_________________________________________________________________
activation_179 (Activation)  (None, 16)                0         
_________________________________________________________________
dropout_179 (Dropout)        (None, 16)                0         
_________________________________________________________________
dense_66 (Dense)             (None, 10)                170       
=================================================================
Total params: 3,706,522
Trainable params: 3,703,898
Non-trainable params: 2,624
_________________________________________________________________
