Model: "sequential_20"
_________________________________________________________________
Layer (type)                 Output Shape              Param #   
=================================================================
conv2d_145 (Conv2D)          (None, 32, 32, 1024)      28672     
_________________________________________________________________
activation_199 (Activation)  (None, 32, 32, 1024)      0         
_________________________________________________________________
dropout_199 (Dropout)        (None, 32, 32, 1024)      0         
_________________________________________________________________
conv2d_146 (Conv2D)          (None, 32, 32, 1024)      9438208   
_________________________________________________________________
activation_200 (Activation)  (None, 32, 32, 1024)      0         
_________________________________________________________________
dropout_200 (Dropout)        (None, 32, 32, 1024)      0         
_________________________________________________________________
max_pooling2d_46 (MaxPooling (None, 16, 16, 1024)      0         
_________________________________________________________________
conv2d_147 (Conv2D)          (None, 16, 16, 64)        589888    
_________________________________________________________________
batch_normalization_94 (Batc (None, 16, 16, 64)        256       
_________________________________________________________________
activation_201 (Activation)  (None, 16, 16, 64)        0         
_________________________________________________________________
dropout_201 (Dropout)        (None, 16, 16, 64)        0         
_________________________________________________________________
max_pooling2d_47 (MaxPooling (None, 8, 8, 64)          0         
_________________________________________________________________
conv2d_148 (Conv2D)          (None, 8, 8, 128)         73856     
_________________________________________________________________
activation_202 (Activation)  (None, 8, 8, 128)         0         
_________________________________________________________________
dropout_202 (Dropout)        (None, 8, 8, 128)         0         
_________________________________________________________________
conv2d_149 (Conv2D)          (None, 8, 8, 32)          36896     
_________________________________________________________________
batch_normalization_95 (Batc (None, 8, 8, 32)          128       
_________________________________________________________________
activation_203 (Activation)  (None, 8, 8, 32)          0         
_________________________________________________________________
dropout_203 (Dropout)        (None, 8, 8, 32)          0         
_________________________________________________________________
conv2d_150 (Conv2D)          (None, 8, 8, 1024)        295936    
_________________________________________________________________
activation_204 (Activation)  (None, 8, 8, 1024)        0         
_________________________________________________________________
dropout_204 (Dropout)        (None, 8, 8, 1024)        0         
_________________________________________________________________
conv2d_151 (Conv2D)          (None, 8, 8, 1024)        9438208   
_________________________________________________________________
batch_normalization_96 (Batc (None, 8, 8, 1024)        4096      
_________________________________________________________________
activation_205 (Activation)  (None, 8, 8, 1024)        0         
_________________________________________________________________
dropout_205 (Dropout)        (None, 8, 8, 1024)        0         
_________________________________________________________________
flatten_20 (Flatten)         (None, 65536)             0         
_________________________________________________________________
dense_74 (Dense)             (None, 64)                4194368   
_________________________________________________________________
batch_normalization_97 (Batc (None, 64)                256       
_________________________________________________________________
activation_206 (Activation)  (None, 64)                0         
_________________________________________________________________
dropout_206 (Dropout)        (None, 64)                0         
_________________________________________________________________
dense_75 (Dense)             (None, 256)               16640     
_________________________________________________________________
activation_207 (Activation)  (None, 256)               0         
_________________________________________________________________
dropout_207 (Dropout)        (None, 256)               0         
_________________________________________________________________
dense_76 (Dense)             (None, 16)                4112      
_________________________________________________________________
activation_208 (Activation)  (None, 16)                0         
_________________________________________________________________
dropout_208 (Dropout)        (None, 16)                0         
_________________________________________________________________
dense_77 (Dense)             (None, 10)                170       
=================================================================
Total params: 24,121,690
Trainable params: 24,119,322
Non-trainable params: 2,368
_________________________________________________________________
