Model: "sequential_69"
_________________________________________________________________
Layer (type)                 Output Shape              Param #   
=================================================================
conv2d_481 (Conv2D)          (None, 32, 32, 1024)      28672     
_________________________________________________________________
activation_634 (Activation)  (None, 32, 32, 1024)      0         
_________________________________________________________________
dropout_634 (Dropout)        (None, 32, 32, 1024)      0         
_________________________________________________________________
conv2d_482 (Conv2D)          (None, 32, 32, 1024)      9438208   
_________________________________________________________________
activation_635 (Activation)  (None, 32, 32, 1024)      0         
_________________________________________________________________
dropout_635 (Dropout)        (None, 32, 32, 1024)      0         
_________________________________________________________________
max_pooling2d_145 (MaxPoolin (None, 16, 16, 1024)      0         
_________________________________________________________________
conv2d_483 (Conv2D)          (None, 16, 16, 64)        589888    
_________________________________________________________________
batch_normalization_291 (Bat (None, 16, 16, 64)        256       
_________________________________________________________________
activation_636 (Activation)  (None, 16, 16, 64)        0         
_________________________________________________________________
dropout_636 (Dropout)        (None, 16, 16, 64)        0         
_________________________________________________________________
max_pooling2d_146 (MaxPoolin (None, 8, 8, 64)          0         
_________________________________________________________________
conv2d_484 (Conv2D)          (None, 8, 8, 128)         73856     
_________________________________________________________________
activation_637 (Activation)  (None, 8, 8, 128)         0         
_________________________________________________________________
dropout_637 (Dropout)        (None, 8, 8, 128)         0         
_________________________________________________________________
conv2d_485 (Conv2D)          (None, 8, 8, 32)          36896     
_________________________________________________________________
batch_normalization_292 (Bat (None, 8, 8, 32)          128       
_________________________________________________________________
activation_638 (Activation)  (None, 8, 8, 32)          0         
_________________________________________________________________
dropout_638 (Dropout)        (None, 8, 8, 32)          0         
_________________________________________________________________
conv2d_486 (Conv2D)          (None, 8, 8, 1024)        295936    
_________________________________________________________________
activation_639 (Activation)  (None, 8, 8, 1024)        0         
_________________________________________________________________
dropout_639 (Dropout)        (None, 8, 8, 1024)        0         
_________________________________________________________________
conv2d_487 (Conv2D)          (None, 8, 8, 1024)        9438208   
_________________________________________________________________
batch_normalization_293 (Bat (None, 8, 8, 1024)        4096      
_________________________________________________________________
activation_640 (Activation)  (None, 8, 8, 1024)        0         
_________________________________________________________________
dropout_640 (Dropout)        (None, 8, 8, 1024)        0         
_________________________________________________________________
flatten_69 (Flatten)         (None, 65536)             0         
_________________________________________________________________
dense_222 (Dense)            (None, 64)                4194368   
_________________________________________________________________
batch_normalization_294 (Bat (None, 64)                256       
_________________________________________________________________
activation_641 (Activation)  (None, 64)                0         
_________________________________________________________________
dropout_641 (Dropout)        (None, 64)                0         
_________________________________________________________________
dense_223 (Dense)            (None, 256)               16640     
_________________________________________________________________
activation_642 (Activation)  (None, 256)               0         
_________________________________________________________________
dropout_642 (Dropout)        (None, 256)               0         
_________________________________________________________________
dense_224 (Dense)            (None, 10)                2570      
=================================================================
Total params: 24,119,978
Trainable params: 24,117,610
Non-trainable params: 2,368
_________________________________________________________________
