Model: "sequential_75"
_________________________________________________________________
Layer (type)                 Output Shape              Param #   
=================================================================
conv2d_522 (Conv2D)          (None, 32, 32, 1024)      28672     
_________________________________________________________________
batch_normalization_316 (Bat (None, 32, 32, 1024)      4096      
_________________________________________________________________
activation_685 (Activation)  (None, 32, 32, 1024)      0         
_________________________________________________________________
dropout_685 (Dropout)        (None, 32, 32, 1024)      0         
_________________________________________________________________
conv2d_523 (Conv2D)          (None, 32, 32, 1024)      9438208   
_________________________________________________________________
activation_686 (Activation)  (None, 32, 32, 1024)      0         
_________________________________________________________________
dropout_686 (Dropout)        (None, 32, 32, 1024)      0         
_________________________________________________________________
max_pooling2d_157 (MaxPoolin (None, 16, 16, 1024)      0         
_________________________________________________________________
conv2d_524 (Conv2D)          (None, 16, 16, 64)        589888    
_________________________________________________________________
batch_normalization_317 (Bat (None, 16, 16, 64)        256       
_________________________________________________________________
activation_687 (Activation)  (None, 16, 16, 64)        0         
_________________________________________________________________
dropout_687 (Dropout)        (None, 16, 16, 64)        0         
_________________________________________________________________
max_pooling2d_158 (MaxPoolin (None, 8, 8, 64)          0         
_________________________________________________________________
conv2d_525 (Conv2D)          (None, 8, 8, 128)         73856     
_________________________________________________________________
activation_688 (Activation)  (None, 8, 8, 128)         0         
_________________________________________________________________
dropout_688 (Dropout)        (None, 8, 8, 128)         0         
_________________________________________________________________
conv2d_526 (Conv2D)          (None, 8, 8, 32)          36896     
_________________________________________________________________
batch_normalization_318 (Bat (None, 8, 8, 32)          128       
_________________________________________________________________
activation_689 (Activation)  (None, 8, 8, 32)          0         
_________________________________________________________________
dropout_689 (Dropout)        (None, 8, 8, 32)          0         
_________________________________________________________________
conv2d_527 (Conv2D)          (None, 8, 8, 1024)        295936    
_________________________________________________________________
activation_690 (Activation)  (None, 8, 8, 1024)        0         
_________________________________________________________________
dropout_690 (Dropout)        (None, 8, 8, 1024)        0         
_________________________________________________________________
conv2d_528 (Conv2D)          (None, 8, 8, 1024)        9438208   
_________________________________________________________________
batch_normalization_319 (Bat (None, 8, 8, 1024)        4096      
_________________________________________________________________
activation_691 (Activation)  (None, 8, 8, 1024)        0         
_________________________________________________________________
dropout_691 (Dropout)        (None, 8, 8, 1024)        0         
_________________________________________________________________
flatten_75 (Flatten)         (None, 65536)             0         
_________________________________________________________________
dense_238 (Dense)            (None, 64)                4194368   
_________________________________________________________________
batch_normalization_320 (Bat (None, 64)                256       
_________________________________________________________________
activation_692 (Activation)  (None, 64)                0         
_________________________________________________________________
dropout_692 (Dropout)        (None, 64)                0         
_________________________________________________________________
dense_239 (Dense)            (None, 10)                650       
=================================================================
Total params: 24,105,514
Trainable params: 24,101,098
Non-trainable params: 4,416
_________________________________________________________________
