Model: "sequential_160"
_________________________________________________________________
Layer (type)                 Output Shape              Param #   
=================================================================
conv2d_1116 (Conv2D)         (None, 32, 32, 1024)      28672     
_________________________________________________________________
activation_1428 (Activation) (None, 32, 32, 1024)      0         
_________________________________________________________________
dropout_1428 (Dropout)       (None, 32, 32, 1024)      0         
_________________________________________________________________
conv2d_1117 (Conv2D)         (None, 32, 32, 1024)      9438208   
_________________________________________________________________
activation_1429 (Activation) (None, 32, 32, 1024)      0         
_________________________________________________________________
dropout_1429 (Dropout)       (None, 32, 32, 1024)      0         
_________________________________________________________________
max_pooling2d_350 (MaxPoolin (None, 16, 16, 1024)      0         
_________________________________________________________________
conv2d_1118 (Conv2D)         (None, 16, 16, 64)        589888    
_________________________________________________________________
batch_normalization_682 (Bat (None, 16, 16, 64)        256       
_________________________________________________________________
activation_1430 (Activation) (None, 16, 16, 64)        0         
_________________________________________________________________
dropout_1430 (Dropout)       (None, 16, 16, 64)        0         
_________________________________________________________________
max_pooling2d_351 (MaxPoolin (None, 8, 8, 64)          0         
_________________________________________________________________
conv2d_1119 (Conv2D)         (None, 8, 8, 128)         73856     
_________________________________________________________________
activation_1431 (Activation) (None, 8, 8, 128)         0         
_________________________________________________________________
dropout_1431 (Dropout)       (None, 8, 8, 128)         0         
_________________________________________________________________
conv2d_1120 (Conv2D)         (None, 8, 8, 32)          36896     
_________________________________________________________________
batch_normalization_683 (Bat (None, 8, 8, 32)          128       
_________________________________________________________________
activation_1432 (Activation) (None, 8, 8, 32)          0         
_________________________________________________________________
dropout_1432 (Dropout)       (None, 8, 8, 32)          0         
_________________________________________________________________
conv2d_1121 (Conv2D)         (None, 8, 8, 1024)        295936    
_________________________________________________________________
activation_1433 (Activation) (None, 8, 8, 1024)        0         
_________________________________________________________________
dropout_1433 (Dropout)       (None, 8, 8, 1024)        0         
_________________________________________________________________
max_pooling2d_352 (MaxPoolin (None, 4, 4, 1024)        0         
_________________________________________________________________
conv2d_1122 (Conv2D)         (None, 4, 4, 1024)        9438208   
_________________________________________________________________
batch_normalization_684 (Bat (None, 4, 4, 1024)        4096      
_________________________________________________________________
activation_1434 (Activation) (None, 4, 4, 1024)        0         
_________________________________________________________________
dropout_1434 (Dropout)       (None, 4, 4, 1024)        0         
_________________________________________________________________
flatten_160 (Flatten)        (None, 16384)             0         
_________________________________________________________________
dense_472 (Dense)            (None, 64)                1048640   
_________________________________________________________________
batch_normalization_685 (Bat (None, 64)                256       
_________________________________________________________________
activation_1435 (Activation) (None, 64)                0         
_________________________________________________________________
dropout_1435 (Dropout)       (None, 64)                0         
_________________________________________________________________
dense_473 (Dense)            (None, 512)               33280     
_________________________________________________________________
activation_1436 (Activation) (None, 512)               0         
_________________________________________________________________
dropout_1436 (Dropout)       (None, 512)               0         
_________________________________________________________________
dense_474 (Dense)            (None, 10)                5130      
=================================================================
Total params: 20,993,450
Trainable params: 20,991,082
Non-trainable params: 2,368
_________________________________________________________________
