Model: "sequential_80"
_________________________________________________________________
Layer (type)                 Output Shape              Param #   
=================================================================
conv2d_557 (Conv2D)          (None, 32, 32, 1024)      28672     
_________________________________________________________________
activation_727 (Activation)  (None, 32, 32, 1024)      0         
_________________________________________________________________
dropout_727 (Dropout)        (None, 32, 32, 1024)      0         
_________________________________________________________________
conv2d_558 (Conv2D)          (None, 32, 32, 1024)      9438208   
_________________________________________________________________
activation_728 (Activation)  (None, 32, 32, 1024)      0         
_________________________________________________________________
dropout_728 (Dropout)        (None, 32, 32, 1024)      0         
_________________________________________________________________
max_pooling2d_167 (MaxPoolin (None, 16, 16, 1024)      0         
_________________________________________________________________
conv2d_559 (Conv2D)          (None, 16, 16, 64)        589888    
_________________________________________________________________
batch_normalization_337 (Bat (None, 16, 16, 64)        256       
_________________________________________________________________
activation_729 (Activation)  (None, 16, 16, 64)        0         
_________________________________________________________________
dropout_729 (Dropout)        (None, 16, 16, 64)        0         
_________________________________________________________________
max_pooling2d_168 (MaxPoolin (None, 8, 8, 64)          0         
_________________________________________________________________
conv2d_560 (Conv2D)          (None, 8, 8, 128)         73856     
_________________________________________________________________
activation_730 (Activation)  (None, 8, 8, 128)         0         
_________________________________________________________________
dropout_730 (Dropout)        (None, 8, 8, 128)         0         
_________________________________________________________________
conv2d_561 (Conv2D)          (None, 8, 8, 32)          36896     
_________________________________________________________________
batch_normalization_338 (Bat (None, 8, 8, 32)          128       
_________________________________________________________________
activation_731 (Activation)  (None, 8, 8, 32)          0         
_________________________________________________________________
dropout_731 (Dropout)        (None, 8, 8, 32)          0         
_________________________________________________________________
conv2d_562 (Conv2D)          (None, 8, 8, 1024)        295936    
_________________________________________________________________
activation_732 (Activation)  (None, 8, 8, 1024)        0         
_________________________________________________________________
dropout_732 (Dropout)        (None, 8, 8, 1024)        0         
_________________________________________________________________
conv2d_563 (Conv2D)          (None, 8, 8, 1024)        9438208   
_________________________________________________________________
batch_normalization_339 (Bat (None, 8, 8, 1024)        4096      
_________________________________________________________________
activation_733 (Activation)  (None, 8, 8, 1024)        0         
_________________________________________________________________
dropout_733 (Dropout)        (None, 8, 8, 1024)        0         
_________________________________________________________________
flatten_80 (Flatten)         (None, 65536)             0         
_________________________________________________________________
dense_250 (Dense)            (None, 64)                4194368   
_________________________________________________________________
batch_normalization_340 (Bat (None, 64)                256       
_________________________________________________________________
activation_734 (Activation)  (None, 64)                0         
_________________________________________________________________
dropout_734 (Dropout)        (None, 64)                0         
_________________________________________________________________
dense_251 (Dense)            (None, 10)                650       
=================================================================
Total params: 24,101,418
Trainable params: 24,099,050
Non-trainable params: 2,368
_________________________________________________________________
