Model: "sequential_84"
_________________________________________________________________
Layer (type)                 Output Shape              Param #   
=================================================================
conv2d_585 (Conv2D)          (None, 32, 32, 1024)      28672     
_________________________________________________________________
activation_761 (Activation)  (None, 32, 32, 1024)      0         
_________________________________________________________________
dropout_761 (Dropout)        (None, 32, 32, 1024)      0         
_________________________________________________________________
conv2d_586 (Conv2D)          (None, 32, 32, 1024)      9438208   
_________________________________________________________________
activation_762 (Activation)  (None, 32, 32, 1024)      0         
_________________________________________________________________
dropout_762 (Dropout)        (None, 32, 32, 1024)      0         
_________________________________________________________________
max_pooling2d_175 (MaxPoolin (None, 16, 16, 1024)      0         
_________________________________________________________________
conv2d_587 (Conv2D)          (None, 16, 16, 64)        589888    
_________________________________________________________________
batch_normalization_354 (Bat (None, 16, 16, 64)        256       
_________________________________________________________________
activation_763 (Activation)  (None, 16, 16, 64)        0         
_________________________________________________________________
dropout_763 (Dropout)        (None, 16, 16, 64)        0         
_________________________________________________________________
max_pooling2d_176 (MaxPoolin (None, 8, 8, 64)          0         
_________________________________________________________________
conv2d_588 (Conv2D)          (None, 8, 8, 128)         73856     
_________________________________________________________________
activation_764 (Activation)  (None, 8, 8, 128)         0         
_________________________________________________________________
dropout_764 (Dropout)        (None, 8, 8, 128)         0         
_________________________________________________________________
conv2d_589 (Conv2D)          (None, 8, 8, 32)          36896     
_________________________________________________________________
batch_normalization_355 (Bat (None, 8, 8, 32)          128       
_________________________________________________________________
activation_765 (Activation)  (None, 8, 8, 32)          0         
_________________________________________________________________
dropout_765 (Dropout)        (None, 8, 8, 32)          0         
_________________________________________________________________
conv2d_590 (Conv2D)          (None, 8, 8, 1024)        295936    
_________________________________________________________________
activation_766 (Activation)  (None, 8, 8, 1024)        0         
_________________________________________________________________
dropout_766 (Dropout)        (None, 8, 8, 1024)        0         
_________________________________________________________________
conv2d_591 (Conv2D)          (None, 8, 8, 1024)        9438208   
_________________________________________________________________
batch_normalization_356 (Bat (None, 8, 8, 1024)        4096      
_________________________________________________________________
activation_767 (Activation)  (None, 8, 8, 1024)        0         
_________________________________________________________________
dropout_767 (Dropout)        (None, 8, 8, 1024)        0         
_________________________________________________________________
flatten_84 (Flatten)         (None, 65536)             0         
_________________________________________________________________
dense_260 (Dense)            (None, 64)                4194368   
_________________________________________________________________
batch_normalization_357 (Bat (None, 64)                256       
_________________________________________________________________
activation_768 (Activation)  (None, 64)                0         
_________________________________________________________________
dropout_768 (Dropout)        (None, 64)                0         
_________________________________________________________________
dense_261 (Dense)            (None, 10)                650       
=================================================================
Total params: 24,101,418
Trainable params: 24,099,050
Non-trainable params: 2,368
_________________________________________________________________
