Model: "sequential_81"
_________________________________________________________________
Layer (type)                 Output Shape              Param #   
=================================================================
conv2d_564 (Conv2D)          (None, 32, 32, 1024)      28672     
_________________________________________________________________
activation_735 (Activation)  (None, 32, 32, 1024)      0         
_________________________________________________________________
dropout_735 (Dropout)        (None, 32, 32, 1024)      0         
_________________________________________________________________
conv2d_565 (Conv2D)          (None, 32, 32, 1024)      9438208   
_________________________________________________________________
activation_736 (Activation)  (None, 32, 32, 1024)      0         
_________________________________________________________________
dropout_736 (Dropout)        (None, 32, 32, 1024)      0         
_________________________________________________________________
max_pooling2d_169 (MaxPoolin (None, 16, 16, 1024)      0         
_________________________________________________________________
conv2d_566 (Conv2D)          (None, 16, 16, 64)        589888    
_________________________________________________________________
batch_normalization_341 (Bat (None, 16, 16, 64)        256       
_________________________________________________________________
activation_737 (Activation)  (None, 16, 16, 64)        0         
_________________________________________________________________
dropout_737 (Dropout)        (None, 16, 16, 64)        0         
_________________________________________________________________
max_pooling2d_170 (MaxPoolin (None, 8, 8, 64)          0         
_________________________________________________________________
conv2d_567 (Conv2D)          (None, 8, 8, 128)         73856     
_________________________________________________________________
activation_738 (Activation)  (None, 8, 8, 128)         0         
_________________________________________________________________
dropout_738 (Dropout)        (None, 8, 8, 128)         0         
_________________________________________________________________
conv2d_568 (Conv2D)          (None, 8, 8, 32)          36896     
_________________________________________________________________
batch_normalization_342 (Bat (None, 8, 8, 32)          128       
_________________________________________________________________
activation_739 (Activation)  (None, 8, 8, 32)          0         
_________________________________________________________________
dropout_739 (Dropout)        (None, 8, 8, 32)          0         
_________________________________________________________________
conv2d_569 (Conv2D)          (None, 8, 8, 1024)        295936    
_________________________________________________________________
activation_740 (Activation)  (None, 8, 8, 1024)        0         
_________________________________________________________________
dropout_740 (Dropout)        (None, 8, 8, 1024)        0         
_________________________________________________________________
conv2d_570 (Conv2D)          (None, 8, 8, 1024)        9438208   
_________________________________________________________________
batch_normalization_343 (Bat (None, 8, 8, 1024)        4096      
_________________________________________________________________
activation_741 (Activation)  (None, 8, 8, 1024)        0         
_________________________________________________________________
dropout_741 (Dropout)        (None, 8, 8, 1024)        0         
_________________________________________________________________
flatten_81 (Flatten)         (None, 65536)             0         
_________________________________________________________________
dense_252 (Dense)            (None, 64)                4194368   
_________________________________________________________________
batch_normalization_344 (Bat (None, 64)                256       
_________________________________________________________________
activation_742 (Activation)  (None, 64)                0         
_________________________________________________________________
dropout_742 (Dropout)        (None, 64)                0         
_________________________________________________________________
dense_253 (Dense)            (None, 256)               16640     
_________________________________________________________________
activation_743 (Activation)  (None, 256)               0         
_________________________________________________________________
dropout_743 (Dropout)        (None, 256)               0         
_________________________________________________________________
dense_254 (Dense)            (None, 10)                2570      
=================================================================
Total params: 24,119,978
Trainable params: 24,117,610
Non-trainable params: 2,368
_________________________________________________________________
