Model: "sequential_76"
_________________________________________________________________
Layer (type)                 Output Shape              Param #   
=================================================================
conv2d_529 (Conv2D)          (None, 32, 32, 1024)      28672     
_________________________________________________________________
activation_693 (Activation)  (None, 32, 32, 1024)      0         
_________________________________________________________________
dropout_693 (Dropout)        (None, 32, 32, 1024)      0         
_________________________________________________________________
conv2d_530 (Conv2D)          (None, 32, 32, 1024)      9438208   
_________________________________________________________________
activation_694 (Activation)  (None, 32, 32, 1024)      0         
_________________________________________________________________
dropout_694 (Dropout)        (None, 32, 32, 1024)      0         
_________________________________________________________________
max_pooling2d_159 (MaxPoolin (None, 16, 16, 1024)      0         
_________________________________________________________________
conv2d_531 (Conv2D)          (None, 16, 16, 64)        589888    
_________________________________________________________________
batch_normalization_321 (Bat (None, 16, 16, 64)        256       
_________________________________________________________________
activation_695 (Activation)  (None, 16, 16, 64)        0         
_________________________________________________________________
dropout_695 (Dropout)        (None, 16, 16, 64)        0         
_________________________________________________________________
max_pooling2d_160 (MaxPoolin (None, 8, 8, 64)          0         
_________________________________________________________________
conv2d_532 (Conv2D)          (None, 8, 8, 128)         73856     
_________________________________________________________________
activation_696 (Activation)  (None, 8, 8, 128)         0         
_________________________________________________________________
dropout_696 (Dropout)        (None, 8, 8, 128)         0         
_________________________________________________________________
conv2d_533 (Conv2D)          (None, 8, 8, 32)          36896     
_________________________________________________________________
batch_normalization_322 (Bat (None, 8, 8, 32)          128       
_________________________________________________________________
activation_697 (Activation)  (None, 8, 8, 32)          0         
_________________________________________________________________
dropout_697 (Dropout)        (None, 8, 8, 32)          0         
_________________________________________________________________
conv2d_534 (Conv2D)          (None, 8, 8, 1024)        295936    
_________________________________________________________________
activation_698 (Activation)  (None, 8, 8, 1024)        0         
_________________________________________________________________
dropout_698 (Dropout)        (None, 8, 8, 1024)        0         
_________________________________________________________________
conv2d_535 (Conv2D)          (None, 8, 8, 1024)        9438208   
_________________________________________________________________
batch_normalization_323 (Bat (None, 8, 8, 1024)        4096      
_________________________________________________________________
activation_699 (Activation)  (None, 8, 8, 1024)        0         
_________________________________________________________________
dropout_699 (Dropout)        (None, 8, 8, 1024)        0         
_________________________________________________________________
flatten_76 (Flatten)         (None, 65536)             0         
_________________________________________________________________
dense_240 (Dense)            (None, 64)                4194368   
_________________________________________________________________
batch_normalization_324 (Bat (None, 64)                256       
_________________________________________________________________
activation_700 (Activation)  (None, 64)                0         
_________________________________________________________________
dropout_700 (Dropout)        (None, 64)                0         
_________________________________________________________________
dense_241 (Dense)            (None, 256)               16640     
_________________________________________________________________
activation_701 (Activation)  (None, 256)               0         
_________________________________________________________________
dropout_701 (Dropout)        (None, 256)               0         
_________________________________________________________________
dense_242 (Dense)            (None, 10)                2570      
=================================================================
Total params: 24,119,978
Trainable params: 24,117,610
Non-trainable params: 2,368
_________________________________________________________________
