Model: "sequential_32"
_________________________________________________________________
Layer (type)                 Output Shape              Param #   
=================================================================
conv2d_223 (Conv2D)          (None, 32, 32, 1024)      28672     
_________________________________________________________________
activation_308 (Activation)  (None, 32, 32, 1024)      0         
_________________________________________________________________
dropout_308 (Dropout)        (None, 32, 32, 1024)      0         
_________________________________________________________________
conv2d_224 (Conv2D)          (None, 32, 32, 1024)      9438208   
_________________________________________________________________
activation_309 (Activation)  (None, 32, 32, 1024)      0         
_________________________________________________________________
dropout_309 (Dropout)        (None, 32, 32, 1024)      0         
_________________________________________________________________
max_pooling2d_70 (MaxPooling (None, 16, 16, 1024)      0         
_________________________________________________________________
conv2d_225 (Conv2D)          (None, 16, 16, 64)        589888    
_________________________________________________________________
batch_normalization_141 (Bat (None, 16, 16, 64)        256       
_________________________________________________________________
activation_310 (Activation)  (None, 16, 16, 64)        0         
_________________________________________________________________
dropout_310 (Dropout)        (None, 16, 16, 64)        0         
_________________________________________________________________
max_pooling2d_71 (MaxPooling (None, 8, 8, 64)          0         
_________________________________________________________________
conv2d_226 (Conv2D)          (None, 8, 8, 128)         73856     
_________________________________________________________________
activation_311 (Activation)  (None, 8, 8, 128)         0         
_________________________________________________________________
dropout_311 (Dropout)        (None, 8, 8, 128)         0         
_________________________________________________________________
conv2d_227 (Conv2D)          (None, 8, 8, 32)          36896     
_________________________________________________________________
batch_normalization_142 (Bat (None, 8, 8, 32)          128       
_________________________________________________________________
activation_312 (Activation)  (None, 8, 8, 32)          0         
_________________________________________________________________
dropout_312 (Dropout)        (None, 8, 8, 32)          0         
_________________________________________________________________
conv2d_228 (Conv2D)          (None, 8, 8, 1024)        295936    
_________________________________________________________________
activation_313 (Activation)  (None, 8, 8, 1024)        0         
_________________________________________________________________
dropout_313 (Dropout)        (None, 8, 8, 1024)        0         
_________________________________________________________________
conv2d_229 (Conv2D)          (None, 8, 8, 1024)        9438208   
_________________________________________________________________
batch_normalization_143 (Bat (None, 8, 8, 1024)        4096      
_________________________________________________________________
activation_314 (Activation)  (None, 8, 8, 1024)        0         
_________________________________________________________________
dropout_314 (Dropout)        (None, 8, 8, 1024)        0         
_________________________________________________________________
flatten_32 (Flatten)         (None, 65536)             0         
_________________________________________________________________
dense_117 (Dense)            (None, 64)                4194368   
_________________________________________________________________
batch_normalization_144 (Bat (None, 64)                256       
_________________________________________________________________
activation_315 (Activation)  (None, 64)                0         
_________________________________________________________________
dropout_315 (Dropout)        (None, 64)                0         
_________________________________________________________________
dense_118 (Dense)            (None, 10)                650       
=================================================================
Total params: 24,101,418
Trainable params: 24,099,050
Non-trainable params: 2,368
_________________________________________________________________
