Model: "sequential_156"
_________________________________________________________________
Layer (type)                 Output Shape              Param #   
=================================================================
conv2d_1088 (Conv2D)         (None, 32, 32, 1024)      28672     
_________________________________________________________________
activation_1392 (Activation) (None, 32, 32, 1024)      0         
_________________________________________________________________
dropout_1392 (Dropout)       (None, 32, 32, 1024)      0         
_________________________________________________________________
conv2d_1089 (Conv2D)         (None, 32, 32, 1024)      9438208   
_________________________________________________________________
activation_1393 (Activation) (None, 32, 32, 1024)      0         
_________________________________________________________________
dropout_1393 (Dropout)       (None, 32, 32, 1024)      0         
_________________________________________________________________
max_pooling2d_340 (MaxPoolin (None, 16, 16, 1024)      0         
_________________________________________________________________
conv2d_1090 (Conv2D)         (None, 16, 16, 64)        589888    
_________________________________________________________________
batch_normalization_663 (Bat (None, 16, 16, 64)        256       
_________________________________________________________________
activation_1394 (Activation) (None, 16, 16, 64)        0         
_________________________________________________________________
dropout_1394 (Dropout)       (None, 16, 16, 64)        0         
_________________________________________________________________
max_pooling2d_341 (MaxPoolin (None, 8, 8, 64)          0         
_________________________________________________________________
conv2d_1091 (Conv2D)         (None, 8, 8, 128)         73856     
_________________________________________________________________
activation_1395 (Activation) (None, 8, 8, 128)         0         
_________________________________________________________________
dropout_1395 (Dropout)       (None, 8, 8, 128)         0         
_________________________________________________________________
conv2d_1092 (Conv2D)         (None, 8, 8, 32)          36896     
_________________________________________________________________
batch_normalization_664 (Bat (None, 8, 8, 32)          128       
_________________________________________________________________
activation_1396 (Activation) (None, 8, 8, 32)          0         
_________________________________________________________________
dropout_1396 (Dropout)       (None, 8, 8, 32)          0         
_________________________________________________________________
conv2d_1093 (Conv2D)         (None, 8, 8, 1024)        295936    
_________________________________________________________________
activation_1397 (Activation) (None, 8, 8, 1024)        0         
_________________________________________________________________
dropout_1397 (Dropout)       (None, 8, 8, 1024)        0         
_________________________________________________________________
max_pooling2d_342 (MaxPoolin (None, 4, 4, 1024)        0         
_________________________________________________________________
conv2d_1094 (Conv2D)         (None, 4, 4, 1024)        9438208   
_________________________________________________________________
batch_normalization_665 (Bat (None, 4, 4, 1024)        4096      
_________________________________________________________________
activation_1398 (Activation) (None, 4, 4, 1024)        0         
_________________________________________________________________
dropout_1398 (Dropout)       (None, 4, 4, 1024)        0         
_________________________________________________________________
flatten_156 (Flatten)        (None, 16384)             0         
_________________________________________________________________
dense_460 (Dense)            (None, 64)                1048640   
_________________________________________________________________
batch_normalization_666 (Bat (None, 64)                256       
_________________________________________________________________
activation_1399 (Activation) (None, 64)                0         
_________________________________________________________________
dropout_1399 (Dropout)       (None, 64)                0         
_________________________________________________________________
dense_461 (Dense)            (None, 256)               16640     
_________________________________________________________________
activation_1400 (Activation) (None, 256)               0         
_________________________________________________________________
dropout_1400 (Dropout)       (None, 256)               0         
_________________________________________________________________
dense_462 (Dense)            (None, 10)                2570      
=================================================================
Total params: 20,974,250
Trainable params: 20,971,882
Non-trainable params: 2,368
_________________________________________________________________
