Model: "sequential_157"
_________________________________________________________________
Layer (type)                 Output Shape              Param #   
=================================================================
conv2d_1095 (Conv2D)         (None, 32, 32, 1024)      28672     
_________________________________________________________________
batch_normalization_667 (Bat (None, 32, 32, 1024)      4096      
_________________________________________________________________
activation_1401 (Activation) (None, 32, 32, 1024)      0         
_________________________________________________________________
dropout_1401 (Dropout)       (None, 32, 32, 1024)      0         
_________________________________________________________________
conv2d_1096 (Conv2D)         (None, 32, 32, 1024)      9438208   
_________________________________________________________________
activation_1402 (Activation) (None, 32, 32, 1024)      0         
_________________________________________________________________
dropout_1402 (Dropout)       (None, 32, 32, 1024)      0         
_________________________________________________________________
max_pooling2d_343 (MaxPoolin (None, 16, 16, 1024)      0         
_________________________________________________________________
conv2d_1097 (Conv2D)         (None, 16, 16, 64)        589888    
_________________________________________________________________
batch_normalization_668 (Bat (None, 16, 16, 64)        256       
_________________________________________________________________
activation_1403 (Activation) (None, 16, 16, 64)        0         
_________________________________________________________________
dropout_1403 (Dropout)       (None, 16, 16, 64)        0         
_________________________________________________________________
max_pooling2d_344 (MaxPoolin (None, 8, 8, 64)          0         
_________________________________________________________________
conv2d_1098 (Conv2D)         (None, 8, 8, 128)         73856     
_________________________________________________________________
activation_1404 (Activation) (None, 8, 8, 128)         0         
_________________________________________________________________
dropout_1404 (Dropout)       (None, 8, 8, 128)         0         
_________________________________________________________________
conv2d_1099 (Conv2D)         (None, 8, 8, 32)          36896     
_________________________________________________________________
batch_normalization_669 (Bat (None, 8, 8, 32)          128       
_________________________________________________________________
activation_1405 (Activation) (None, 8, 8, 32)          0         
_________________________________________________________________
dropout_1405 (Dropout)       (None, 8, 8, 32)          0         
_________________________________________________________________
conv2d_1100 (Conv2D)         (None, 8, 8, 1024)        295936    
_________________________________________________________________
activation_1406 (Activation) (None, 8, 8, 1024)        0         
_________________________________________________________________
dropout_1406 (Dropout)       (None, 8, 8, 1024)        0         
_________________________________________________________________
conv2d_1101 (Conv2D)         (None, 8, 8, 1024)        9438208   
_________________________________________________________________
batch_normalization_670 (Bat (None, 8, 8, 1024)        4096      
_________________________________________________________________
activation_1407 (Activation) (None, 8, 8, 1024)        0         
_________________________________________________________________
dropout_1407 (Dropout)       (None, 8, 8, 1024)        0         
_________________________________________________________________
flatten_157 (Flatten)        (None, 65536)             0         
_________________________________________________________________
dense_463 (Dense)            (None, 64)                4194368   
_________________________________________________________________
batch_normalization_671 (Bat (None, 64)                256       
_________________________________________________________________
activation_1408 (Activation) (None, 64)                0         
_________________________________________________________________
dropout_1408 (Dropout)       (None, 64)                0         
_________________________________________________________________
dense_464 (Dense)            (None, 256)               16640     
_________________________________________________________________
batch_normalization_672 (Bat (None, 256)               1024      
_________________________________________________________________
activation_1409 (Activation) (None, 256)               0         
_________________________________________________________________
dropout_1409 (Dropout)       (None, 256)               0         
_________________________________________________________________
dense_465 (Dense)            (None, 10)                2570      
=================================================================
Total params: 24,125,098
Trainable params: 24,120,170
Non-trainable params: 4,928
_________________________________________________________________
