Model: "sequential_179"
_________________________________________________________________
Layer (type)                 Output Shape              Param #   
=================================================================
conv2d_1254 (Conv2D)         (None, 32, 32, 1024)      28672     
_________________________________________________________________
activation_1604 (Activation) (None, 32, 32, 1024)      0         
_________________________________________________________________
dropout_1604 (Dropout)       (None, 32, 32, 1024)      0         
_________________________________________________________________
conv2d_1255 (Conv2D)         (None, 32, 32, 1024)      9438208   
_________________________________________________________________
activation_1605 (Activation) (None, 32, 32, 1024)      0         
_________________________________________________________________
dropout_1605 (Dropout)       (None, 32, 32, 1024)      0         
_________________________________________________________________
max_pooling2d_394 (MaxPoolin (None, 16, 16, 1024)      0         
_________________________________________________________________
conv2d_1256 (Conv2D)         (None, 16, 16, 64)        589888    
_________________________________________________________________
batch_normalization_774 (Bat (None, 16, 16, 64)        256       
_________________________________________________________________
activation_1606 (Activation) (None, 16, 16, 64)        0         
_________________________________________________________________
dropout_1606 (Dropout)       (None, 16, 16, 64)        0         
_________________________________________________________________
max_pooling2d_395 (MaxPoolin (None, 8, 8, 64)          0         
_________________________________________________________________
conv2d_1257 (Conv2D)         (None, 8, 8, 128)         73856     
_________________________________________________________________
activation_1607 (Activation) (None, 8, 8, 128)         0         
_________________________________________________________________
dropout_1607 (Dropout)       (None, 8, 8, 128)         0         
_________________________________________________________________
conv2d_1258 (Conv2D)         (None, 8, 8, 32)          36896     
_________________________________________________________________
batch_normalization_775 (Bat (None, 8, 8, 32)          128       
_________________________________________________________________
activation_1608 (Activation) (None, 8, 8, 32)          0         
_________________________________________________________________
dropout_1608 (Dropout)       (None, 8, 8, 32)          0         
_________________________________________________________________
conv2d_1259 (Conv2D)         (None, 8, 8, 1024)        295936    
_________________________________________________________________
activation_1609 (Activation) (None, 8, 8, 1024)        0         
_________________________________________________________________
dropout_1609 (Dropout)       (None, 8, 8, 1024)        0         
_________________________________________________________________
max_pooling2d_396 (MaxPoolin (None, 4, 4, 1024)        0         
_________________________________________________________________
conv2d_1260 (Conv2D)         (None, 4, 4, 1024)        9438208   
_________________________________________________________________
batch_normalization_776 (Bat (None, 4, 4, 1024)        4096      
_________________________________________________________________
activation_1610 (Activation) (None, 4, 4, 1024)        0         
_________________________________________________________________
dropout_1610 (Dropout)       (None, 4, 4, 1024)        0         
_________________________________________________________________
flatten_179 (Flatten)        (None, 16384)             0         
_________________________________________________________________
dense_529 (Dense)            (None, 64)                1048640   
_________________________________________________________________
batch_normalization_777 (Bat (None, 64)                256       
_________________________________________________________________
activation_1611 (Activation) (None, 64)                0         
_________________________________________________________________
dropout_1611 (Dropout)       (None, 64)                0         
_________________________________________________________________
dense_530 (Dense)            (None, 512)               33280     
_________________________________________________________________
activation_1612 (Activation) (None, 512)               0         
_________________________________________________________________
dropout_1612 (Dropout)       (None, 512)               0         
_________________________________________________________________
dense_531 (Dense)            (None, 10)                5130      
=================================================================
Total params: 20,993,450
Trainable params: 20,991,082
Non-trainable params: 2,368
_________________________________________________________________
