Model: "sequential_86"
_________________________________________________________________
Layer (type)                 Output Shape              Param #   
=================================================================
conv2d_599 (Conv2D)          (None, 32, 32, 1024)      28672     
_________________________________________________________________
activation_778 (Activation)  (None, 32, 32, 1024)      0         
_________________________________________________________________
dropout_778 (Dropout)        (None, 32, 32, 1024)      0         
_________________________________________________________________
conv2d_600 (Conv2D)          (None, 32, 32, 1024)      9438208   
_________________________________________________________________
activation_779 (Activation)  (None, 32, 32, 1024)      0         
_________________________________________________________________
dropout_779 (Dropout)        (None, 32, 32, 1024)      0         
_________________________________________________________________
max_pooling2d_180 (MaxPoolin (None, 16, 16, 1024)      0         
_________________________________________________________________
conv2d_601 (Conv2D)          (None, 16, 16, 128)       1179776   
_________________________________________________________________
activation_780 (Activation)  (None, 16, 16, 128)       0         
_________________________________________________________________
dropout_780 (Dropout)        (None, 16, 16, 128)       0         
_________________________________________________________________
max_pooling2d_181 (MaxPoolin (None, 8, 8, 128)         0         
_________________________________________________________________
conv2d_602 (Conv2D)          (None, 8, 8, 32)          36896     
_________________________________________________________________
batch_normalization_363 (Bat (None, 8, 8, 32)          128       
_________________________________________________________________
activation_781 (Activation)  (None, 8, 8, 32)          0         
_________________________________________________________________
dropout_781 (Dropout)        (None, 8, 8, 32)          0         
_________________________________________________________________
conv2d_603 (Conv2D)          (None, 8, 8, 1024)        295936    
_________________________________________________________________
activation_782 (Activation)  (None, 8, 8, 1024)        0         
_________________________________________________________________
dropout_782 (Dropout)        (None, 8, 8, 1024)        0         
_________________________________________________________________
conv2d_604 (Conv2D)          (None, 8, 8, 1024)        9438208   
_________________________________________________________________
activation_783 (Activation)  (None, 8, 8, 1024)        0         
_________________________________________________________________
dropout_783 (Dropout)        (None, 8, 8, 1024)        0         
_________________________________________________________________
flatten_86 (Flatten)         (None, 65536)             0         
_________________________________________________________________
dense_265 (Dense)            (None, 64)                4194368   
_________________________________________________________________
batch_normalization_364 (Bat (None, 64)                256       
_________________________________________________________________
activation_784 (Activation)  (None, 64)                0         
_________________________________________________________________
dropout_784 (Dropout)        (None, 64)                0         
_________________________________________________________________
dense_266 (Dense)            (None, 256)               16640     
_________________________________________________________________
activation_785 (Activation)  (None, 256)               0         
_________________________________________________________________
dropout_785 (Dropout)        (None, 256)               0         
_________________________________________________________________
dense_267 (Dense)            (None, 10)                2570      
=================================================================
Total params: 24,631,658
Trainable params: 24,631,466
Non-trainable params: 192
_________________________________________________________________
