Model: "sequential_92"
_________________________________________________________________
Layer (type)                 Output Shape              Param #   
=================================================================
conv2d_640 (Conv2D)          (None, 32, 32, 1024)      28672     
_________________________________________________________________
batch_normalization_386 (Bat (None, 32, 32, 1024)      4096      
_________________________________________________________________
activation_830 (Activation)  (None, 32, 32, 1024)      0         
_________________________________________________________________
dropout_830 (Dropout)        (None, 32, 32, 1024)      0         
_________________________________________________________________
conv2d_641 (Conv2D)          (None, 32, 32, 1024)      9438208   
_________________________________________________________________
activation_831 (Activation)  (None, 32, 32, 1024)      0         
_________________________________________________________________
dropout_831 (Dropout)        (None, 32, 32, 1024)      0         
_________________________________________________________________
max_pooling2d_192 (MaxPoolin (None, 16, 16, 1024)      0         
_________________________________________________________________
conv2d_642 (Conv2D)          (None, 16, 16, 64)        589888    
_________________________________________________________________
batch_normalization_387 (Bat (None, 16, 16, 64)        256       
_________________________________________________________________
activation_832 (Activation)  (None, 16, 16, 64)        0         
_________________________________________________________________
dropout_832 (Dropout)        (None, 16, 16, 64)        0         
_________________________________________________________________
max_pooling2d_193 (MaxPoolin (None, 8, 8, 64)          0         
_________________________________________________________________
conv2d_643 (Conv2D)          (None, 8, 8, 128)         73856     
_________________________________________________________________
activation_833 (Activation)  (None, 8, 8, 128)         0         
_________________________________________________________________
dropout_833 (Dropout)        (None, 8, 8, 128)         0         
_________________________________________________________________
conv2d_644 (Conv2D)          (None, 8, 8, 32)          36896     
_________________________________________________________________
batch_normalization_388 (Bat (None, 8, 8, 32)          128       
_________________________________________________________________
activation_834 (Activation)  (None, 8, 8, 32)          0         
_________________________________________________________________
dropout_834 (Dropout)        (None, 8, 8, 32)          0         
_________________________________________________________________
conv2d_645 (Conv2D)          (None, 8, 8, 1024)        295936    
_________________________________________________________________
activation_835 (Activation)  (None, 8, 8, 1024)        0         
_________________________________________________________________
dropout_835 (Dropout)        (None, 8, 8, 1024)        0         
_________________________________________________________________
conv2d_646 (Conv2D)          (None, 8, 8, 1024)        9438208   
_________________________________________________________________
batch_normalization_389 (Bat (None, 8, 8, 1024)        4096      
_________________________________________________________________
activation_836 (Activation)  (None, 8, 8, 1024)        0         
_________________________________________________________________
dropout_836 (Dropout)        (None, 8, 8, 1024)        0         
_________________________________________________________________
flatten_92 (Flatten)         (None, 65536)             0         
_________________________________________________________________
dense_282 (Dense)            (None, 64)                4194368   
_________________________________________________________________
batch_normalization_390 (Bat (None, 64)                256       
_________________________________________________________________
activation_837 (Activation)  (None, 64)                0         
_________________________________________________________________
dropout_837 (Dropout)        (None, 64)                0         
_________________________________________________________________
dense_283 (Dense)            (None, 256)               16640     
_________________________________________________________________
activation_838 (Activation)  (None, 256)               0         
_________________________________________________________________
dropout_838 (Dropout)        (None, 256)               0         
_________________________________________________________________
dense_284 (Dense)            (None, 10)                2570      
=================================================================
Total params: 24,124,074
Trainable params: 24,119,658
Non-trainable params: 4,416
_________________________________________________________________
