Model: "sequential_133"
_________________________________________________________________
Layer (type)                 Output Shape              Param #   
=================================================================
conv2d_927 (Conv2D)          (None, 32, 32, 1024)      28672     
_________________________________________________________________
activation_1187 (Activation) (None, 32, 32, 1024)      0         
_________________________________________________________________
dropout_1187 (Dropout)       (None, 32, 32, 1024)      0         
_________________________________________________________________
conv2d_928 (Conv2D)          (None, 32, 32, 1024)      9438208   
_________________________________________________________________
activation_1188 (Activation) (None, 32, 32, 1024)      0         
_________________________________________________________________
dropout_1188 (Dropout)       (None, 32, 32, 1024)      0         
_________________________________________________________________
max_pooling2d_285 (MaxPoolin (None, 16, 16, 1024)      0         
_________________________________________________________________
conv2d_929 (Conv2D)          (None, 16, 16, 64)        589888    
_________________________________________________________________
batch_normalization_566 (Bat (None, 16, 16, 64)        256       
_________________________________________________________________
activation_1189 (Activation) (None, 16, 16, 64)        0         
_________________________________________________________________
dropout_1189 (Dropout)       (None, 16, 16, 64)        0         
_________________________________________________________________
max_pooling2d_286 (MaxPoolin (None, 8, 8, 64)          0         
_________________________________________________________________
conv2d_930 (Conv2D)          (None, 8, 8, 128)         73856     
_________________________________________________________________
activation_1190 (Activation) (None, 8, 8, 128)         0         
_________________________________________________________________
dropout_1190 (Dropout)       (None, 8, 8, 128)         0         
_________________________________________________________________
conv2d_931 (Conv2D)          (None, 8, 8, 32)          36896     
_________________________________________________________________
batch_normalization_567 (Bat (None, 8, 8, 32)          128       
_________________________________________________________________
activation_1191 (Activation) (None, 8, 8, 32)          0         
_________________________________________________________________
dropout_1191 (Dropout)       (None, 8, 8, 32)          0         
_________________________________________________________________
conv2d_932 (Conv2D)          (None, 8, 8, 1024)        295936    
_________________________________________________________________
activation_1192 (Activation) (None, 8, 8, 1024)        0         
_________________________________________________________________
dropout_1192 (Dropout)       (None, 8, 8, 1024)        0         
_________________________________________________________________
conv2d_933 (Conv2D)          (None, 8, 8, 1024)        9438208   
_________________________________________________________________
batch_normalization_568 (Bat (None, 8, 8, 1024)        4096      
_________________________________________________________________
activation_1193 (Activation) (None, 8, 8, 1024)        0         
_________________________________________________________________
dropout_1193 (Dropout)       (None, 8, 8, 1024)        0         
_________________________________________________________________
flatten_133 (Flatten)        (None, 65536)             0         
_________________________________________________________________
dense_393 (Dense)            (None, 64)                4194368   
_________________________________________________________________
batch_normalization_569 (Bat (None, 64)                256       
_________________________________________________________________
activation_1194 (Activation) (None, 64)                0         
_________________________________________________________________
dropout_1194 (Dropout)       (None, 64)                0         
_________________________________________________________________
dense_394 (Dense)            (None, 256)               16640     
_________________________________________________________________
activation_1195 (Activation) (None, 256)               0         
_________________________________________________________________
dropout_1195 (Dropout)       (None, 256)               0         
_________________________________________________________________
dense_395 (Dense)            (None, 10)                2570      
=================================================================
Total params: 24,119,978
Trainable params: 24,117,610
Non-trainable params: 2,368
_________________________________________________________________
