Model: "sequential_89"
_________________________________________________________________
Layer (type)                 Output Shape              Param #   
=================================================================
conv2d_619 (Conv2D)          (None, 32, 32, 1024)      28672     
_________________________________________________________________
activation_804 (Activation)  (None, 32, 32, 1024)      0         
_________________________________________________________________
dropout_804 (Dropout)        (None, 32, 32, 1024)      0         
_________________________________________________________________
conv2d_620 (Conv2D)          (None, 32, 32, 1024)      9438208   
_________________________________________________________________
activation_805 (Activation)  (None, 32, 32, 1024)      0         
_________________________________________________________________
dropout_805 (Dropout)        (None, 32, 32, 1024)      0         
_________________________________________________________________
max_pooling2d_186 (MaxPoolin (None, 16, 16, 1024)      0         
_________________________________________________________________
conv2d_621 (Conv2D)          (None, 16, 16, 64)        589888    
_________________________________________________________________
batch_normalization_374 (Bat (None, 16, 16, 64)        256       
_________________________________________________________________
activation_806 (Activation)  (None, 16, 16, 64)        0         
_________________________________________________________________
dropout_806 (Dropout)        (None, 16, 16, 64)        0         
_________________________________________________________________
max_pooling2d_187 (MaxPoolin (None, 8, 8, 64)          0         
_________________________________________________________________
conv2d_622 (Conv2D)          (None, 8, 8, 128)         73856     
_________________________________________________________________
activation_807 (Activation)  (None, 8, 8, 128)         0         
_________________________________________________________________
dropout_807 (Dropout)        (None, 8, 8, 128)         0         
_________________________________________________________________
conv2d_623 (Conv2D)          (None, 8, 8, 32)          36896     
_________________________________________________________________
batch_normalization_375 (Bat (None, 8, 8, 32)          128       
_________________________________________________________________
activation_808 (Activation)  (None, 8, 8, 32)          0         
_________________________________________________________________
dropout_808 (Dropout)        (None, 8, 8, 32)          0         
_________________________________________________________________
conv2d_624 (Conv2D)          (None, 8, 8, 1024)        295936    
_________________________________________________________________
activation_809 (Activation)  (None, 8, 8, 1024)        0         
_________________________________________________________________
dropout_809 (Dropout)        (None, 8, 8, 1024)        0         
_________________________________________________________________
conv2d_625 (Conv2D)          (None, 8, 8, 1024)        9438208   
_________________________________________________________________
batch_normalization_376 (Bat (None, 8, 8, 1024)        4096      
_________________________________________________________________
activation_810 (Activation)  (None, 8, 8, 1024)        0         
_________________________________________________________________
dropout_810 (Dropout)        (None, 8, 8, 1024)        0         
_________________________________________________________________
flatten_89 (Flatten)         (None, 65536)             0         
_________________________________________________________________
dense_274 (Dense)            (None, 64)                4194368   
_________________________________________________________________
batch_normalization_377 (Bat (None, 64)                256       
_________________________________________________________________
activation_811 (Activation)  (None, 64)                0         
_________________________________________________________________
dropout_811 (Dropout)        (None, 64)                0         
_________________________________________________________________
dense_275 (Dense)            (None, 256)               16640     
_________________________________________________________________
activation_812 (Activation)  (None, 256)               0         
_________________________________________________________________
dropout_812 (Dropout)        (None, 256)               0         
_________________________________________________________________
dense_276 (Dense)            (None, 10)                2570      
=================================================================
Total params: 24,119,978
Trainable params: 24,117,610
Non-trainable params: 2,368
_________________________________________________________________
