Model: "sequential_39"
_________________________________________________________________
Layer (type)                 Output Shape              Param #   
=================================================================
conv2d_271 (Conv2D)          (None, 32, 32, 1024)      28672     
_________________________________________________________________
activation_371 (Activation)  (None, 32, 32, 1024)      0         
_________________________________________________________________
dropout_371 (Dropout)        (None, 32, 32, 1024)      0         
_________________________________________________________________
conv2d_272 (Conv2D)          (None, 32, 32, 1024)      9438208   
_________________________________________________________________
activation_372 (Activation)  (None, 32, 32, 1024)      0         
_________________________________________________________________
dropout_372 (Dropout)        (None, 32, 32, 1024)      0         
_________________________________________________________________
max_pooling2d_85 (MaxPooling (None, 16, 16, 1024)      0         
_________________________________________________________________
conv2d_273 (Conv2D)          (None, 16, 16, 64)        589888    
_________________________________________________________________
batch_normalization_167 (Bat (None, 16, 16, 64)        256       
_________________________________________________________________
activation_373 (Activation)  (None, 16, 16, 64)        0         
_________________________________________________________________
dropout_373 (Dropout)        (None, 16, 16, 64)        0         
_________________________________________________________________
max_pooling2d_86 (MaxPooling (None, 8, 8, 64)          0         
_________________________________________________________________
conv2d_274 (Conv2D)          (None, 8, 8, 128)         73856     
_________________________________________________________________
activation_374 (Activation)  (None, 8, 8, 128)         0         
_________________________________________________________________
dropout_374 (Dropout)        (None, 8, 8, 128)         0         
_________________________________________________________________
conv2d_275 (Conv2D)          (None, 8, 8, 32)          36896     
_________________________________________________________________
batch_normalization_168 (Bat (None, 8, 8, 32)          128       
_________________________________________________________________
activation_375 (Activation)  (None, 8, 8, 32)          0         
_________________________________________________________________
dropout_375 (Dropout)        (None, 8, 8, 32)          0         
_________________________________________________________________
conv2d_276 (Conv2D)          (None, 8, 8, 1024)        295936    
_________________________________________________________________
activation_376 (Activation)  (None, 8, 8, 1024)        0         
_________________________________________________________________
dropout_376 (Dropout)        (None, 8, 8, 1024)        0         
_________________________________________________________________
conv2d_277 (Conv2D)          (None, 8, 8, 1024)        9438208   
_________________________________________________________________
batch_normalization_169 (Bat (None, 8, 8, 1024)        4096      
_________________________________________________________________
activation_377 (Activation)  (None, 8, 8, 1024)        0         
_________________________________________________________________
dropout_377 (Dropout)        (None, 8, 8, 1024)        0         
_________________________________________________________________
flatten_39 (Flatten)         (None, 65536)             0         
_________________________________________________________________
dense_139 (Dense)            (None, 64)                4194368   
_________________________________________________________________
batch_normalization_170 (Bat (None, 64)                256       
_________________________________________________________________
activation_378 (Activation)  (None, 64)                0         
_________________________________________________________________
dropout_378 (Dropout)        (None, 64)                0         
_________________________________________________________________
dense_140 (Dense)            (None, 256)               16640     
_________________________________________________________________
activation_379 (Activation)  (None, 256)               0         
_________________________________________________________________
dropout_379 (Dropout)        (None, 256)               0         
_________________________________________________________________
dense_141 (Dense)            (None, 16)                4112      
_________________________________________________________________
activation_380 (Activation)  (None, 16)                0         
_________________________________________________________________
dropout_380 (Dropout)        (None, 16)                0         
_________________________________________________________________
dense_142 (Dense)            (None, 10)                170       
=================================================================
Total params: 24,121,690
Trainable params: 24,119,322
Non-trainable params: 2,368
_________________________________________________________________
