Model: "sequential_137"
_________________________________________________________________
Layer (type)                 Output Shape              Param #   
=================================================================
conv2d_955 (Conv2D)          (None, 32, 32, 1024)      28672     
_________________________________________________________________
batch_normalization_583 (Bat (None, 32, 32, 1024)      4096      
_________________________________________________________________
activation_1222 (Activation) (None, 32, 32, 1024)      0         
_________________________________________________________________
dropout_1222 (Dropout)       (None, 32, 32, 1024)      0         
_________________________________________________________________
conv2d_956 (Conv2D)          (None, 32, 32, 1024)      9438208   
_________________________________________________________________
activation_1223 (Activation) (None, 32, 32, 1024)      0         
_________________________________________________________________
dropout_1223 (Dropout)       (None, 32, 32, 1024)      0         
_________________________________________________________________
max_pooling2d_295 (MaxPoolin (None, 16, 16, 1024)      0         
_________________________________________________________________
conv2d_957 (Conv2D)          (None, 16, 16, 64)        589888    
_________________________________________________________________
batch_normalization_584 (Bat (None, 16, 16, 64)        256       
_________________________________________________________________
activation_1224 (Activation) (None, 16, 16, 64)        0         
_________________________________________________________________
dropout_1224 (Dropout)       (None, 16, 16, 64)        0         
_________________________________________________________________
max_pooling2d_296 (MaxPoolin (None, 8, 8, 64)          0         
_________________________________________________________________
conv2d_958 (Conv2D)          (None, 8, 8, 128)         73856     
_________________________________________________________________
activation_1225 (Activation) (None, 8, 8, 128)         0         
_________________________________________________________________
dropout_1225 (Dropout)       (None, 8, 8, 128)         0         
_________________________________________________________________
conv2d_959 (Conv2D)          (None, 8, 8, 32)          36896     
_________________________________________________________________
batch_normalization_585 (Bat (None, 8, 8, 32)          128       
_________________________________________________________________
activation_1226 (Activation) (None, 8, 8, 32)          0         
_________________________________________________________________
dropout_1226 (Dropout)       (None, 8, 8, 32)          0         
_________________________________________________________________
conv2d_960 (Conv2D)          (None, 8, 8, 1024)        295936    
_________________________________________________________________
activation_1227 (Activation) (None, 8, 8, 1024)        0         
_________________________________________________________________
dropout_1227 (Dropout)       (None, 8, 8, 1024)        0         
_________________________________________________________________
conv2d_961 (Conv2D)          (None, 8, 8, 1024)        9438208   
_________________________________________________________________
batch_normalization_586 (Bat (None, 8, 8, 1024)        4096      
_________________________________________________________________
activation_1228 (Activation) (None, 8, 8, 1024)        0         
_________________________________________________________________
dropout_1228 (Dropout)       (None, 8, 8, 1024)        0         
_________________________________________________________________
flatten_137 (Flatten)        (None, 65536)             0         
_________________________________________________________________
dense_404 (Dense)            (None, 64)                4194368   
_________________________________________________________________
batch_normalization_587 (Bat (None, 64)                256       
_________________________________________________________________
activation_1229 (Activation) (None, 64)                0         
_________________________________________________________________
dropout_1229 (Dropout)       (None, 64)                0         
_________________________________________________________________
dense_405 (Dense)            (None, 256)               16640     
_________________________________________________________________
activation_1230 (Activation) (None, 256)               0         
_________________________________________________________________
dropout_1230 (Dropout)       (None, 256)               0         
_________________________________________________________________
dense_406 (Dense)            (None, 10)                2570      
=================================================================
Total params: 24,124,074
Trainable params: 24,119,658
Non-trainable params: 4,416
_________________________________________________________________
