Model: "sequential_194"
_________________________________________________________________
Layer (type)                 Output Shape              Param #   
=================================================================
conv2d_1364 (Conv2D)         (None, 32, 32, 1024)      28672     
_________________________________________________________________
activation_1744 (Activation) (None, 32, 32, 1024)      0         
_________________________________________________________________
dropout_1744 (Dropout)       (None, 32, 32, 1024)      0         
_________________________________________________________________
conv2d_1365 (Conv2D)         (None, 32, 32, 1024)      9438208   
_________________________________________________________________
activation_1745 (Activation) (None, 32, 32, 1024)      0         
_________________________________________________________________
dropout_1745 (Dropout)       (None, 32, 32, 1024)      0         
_________________________________________________________________
max_pooling2d_422 (MaxPoolin (None, 16, 16, 1024)      0         
_________________________________________________________________
conv2d_1366 (Conv2D)         (None, 16, 16, 64)        589888    
_________________________________________________________________
batch_normalization_853 (Bat (None, 16, 16, 64)        256       
_________________________________________________________________
activation_1746 (Activation) (None, 16, 16, 64)        0         
_________________________________________________________________
dropout_1746 (Dropout)       (None, 16, 16, 64)        0         
_________________________________________________________________
max_pooling2d_423 (MaxPoolin (None, 8, 8, 64)          0         
_________________________________________________________________
conv2d_1367 (Conv2D)         (None, 8, 8, 128)         73856     
_________________________________________________________________
activation_1747 (Activation) (None, 8, 8, 128)         0         
_________________________________________________________________
dropout_1747 (Dropout)       (None, 8, 8, 128)         0         
_________________________________________________________________
conv2d_1368 (Conv2D)         (None, 8, 8, 32)          36896     
_________________________________________________________________
batch_normalization_854 (Bat (None, 8, 8, 32)          128       
_________________________________________________________________
activation_1748 (Activation) (None, 8, 8, 32)          0         
_________________________________________________________________
dropout_1748 (Dropout)       (None, 8, 8, 32)          0         
_________________________________________________________________
conv2d_1369 (Conv2D)         (None, 8, 8, 1024)        295936    
_________________________________________________________________
activation_1749 (Activation) (None, 8, 8, 1024)        0         
_________________________________________________________________
dropout_1749 (Dropout)       (None, 8, 8, 1024)        0         
_________________________________________________________________
conv2d_1370 (Conv2D)         (None, 8, 8, 256)         2359552   
_________________________________________________________________
batch_normalization_855 (Bat (None, 8, 8, 256)         1024      
_________________________________________________________________
activation_1750 (Activation) (None, 8, 8, 256)         0         
_________________________________________________________________
dropout_1750 (Dropout)       (None, 8, 8, 256)         0         
_________________________________________________________________
conv2d_1371 (Conv2D)         (None, 8, 8, 1024)        2360320   
_________________________________________________________________
batch_normalization_856 (Bat (None, 8, 8, 1024)        4096      
_________________________________________________________________
activation_1751 (Activation) (None, 8, 8, 1024)        0         
_________________________________________________________________
dropout_1751 (Dropout)       (None, 8, 8, 1024)        0         
_________________________________________________________________
flatten_194 (Flatten)        (None, 65536)             0         
_________________________________________________________________
dense_574 (Dense)            (None, 64)                4194368   
_________________________________________________________________
batch_normalization_857 (Bat (None, 64)                256       
_________________________________________________________________
activation_1752 (Activation) (None, 64)                0         
_________________________________________________________________
dropout_1752 (Dropout)       (None, 64)                0         
_________________________________________________________________
dense_575 (Dense)            (None, 256)               16640     
_________________________________________________________________
batch_normalization_858 (Bat (None, 256)               1024      
_________________________________________________________________
activation_1753 (Activation) (None, 256)               0         
_________________________________________________________________
dropout_1753 (Dropout)       (None, 256)               0         
_________________________________________________________________
dense_576 (Dense)            (None, 10)                2570      
=================================================================
Total params: 19,403,690
Trainable params: 19,400,298
Non-trainable params: 3,392
_________________________________________________________________
