Model: "sequential_8"
_________________________________________________________________
Layer (type)                 Output Shape              Param #   
=================================================================
conv2d_63 (Conv2D)           (None, 32, 32, 256)       7168      
_________________________________________________________________
batch_normalization_39 (Batc (None, 32, 32, 256)       1024      
_________________________________________________________________
activation_83 (Activation)   (None, 32, 32, 256)       0         
_________________________________________________________________
dropout_83 (Dropout)         (None, 32, 32, 256)       0         
_________________________________________________________________
conv2d_64 (Conv2D)           (None, 32, 32, 128)       295040    
_________________________________________________________________
activation_84 (Activation)   (None, 32, 32, 128)       0         
_________________________________________________________________
dropout_84 (Dropout)         (None, 32, 32, 128)       0         
_________________________________________________________________
conv2d_65 (Conv2D)           (None, 32, 32, 256)       295168    
_________________________________________________________________
activation_85 (Activation)   (None, 32, 32, 256)       0         
_________________________________________________________________
dropout_85 (Dropout)         (None, 32, 32, 256)       0         
_________________________________________________________________
max_pooling2d_20 (MaxPooling (None, 16, 16, 256)       0         
_________________________________________________________________
conv2d_66 (Conv2D)           (None, 16, 16, 64)        147520    
_________________________________________________________________
batch_normalization_40 (Batc (None, 16, 16, 64)        256       
_________________________________________________________________
activation_86 (Activation)   (None, 16, 16, 64)        0         
_________________________________________________________________
dropout_86 (Dropout)         (None, 16, 16, 64)        0         
_________________________________________________________________
conv2d_67 (Conv2D)           (None, 16, 16, 8)         4616      
_________________________________________________________________
batch_normalization_41 (Batc (None, 16, 16, 8)         32        
_________________________________________________________________
activation_87 (Activation)   (None, 16, 16, 8)         0         
_________________________________________________________________
dropout_87 (Dropout)         (None, 16, 16, 8)         0         
_________________________________________________________________
conv2d_68 (Conv2D)           (None, 16, 16, 32)        2336      
_________________________________________________________________
batch_normalization_42 (Batc (None, 16, 16, 32)        128       
_________________________________________________________________
activation_88 (Activation)   (None, 16, 16, 32)        0         
_________________________________________________________________
dropout_88 (Dropout)         (None, 16, 16, 32)        0         
_________________________________________________________________
conv2d_69 (Conv2D)           (None, 16, 16, 8)         2312      
_________________________________________________________________
batch_normalization_43 (Batc (None, 16, 16, 8)         32        
_________________________________________________________________
activation_89 (Activation)   (None, 16, 16, 8)         0         
_________________________________________________________________
dropout_89 (Dropout)         (None, 16, 16, 8)         0         
_________________________________________________________________
max_pooling2d_21 (MaxPooling (None, 8, 8, 8)           0         
_________________________________________________________________
conv2d_70 (Conv2D)           (None, 8, 8, 8)           584       
_________________________________________________________________
batch_normalization_44 (Batc (None, 8, 8, 8)           32        
_________________________________________________________________
activation_90 (Activation)   (None, 8, 8, 8)           0         
_________________________________________________________________
dropout_90 (Dropout)         (None, 8, 8, 8)           0         
_________________________________________________________________
max_pooling2d_22 (MaxPooling (None, 4, 4, 8)           0         
_________________________________________________________________
flatten_8 (Flatten)          (None, 128)               0         
_________________________________________________________________
dense_28 (Dense)             (None, 512)               66048     
_________________________________________________________________
batch_normalization_45 (Batc (None, 512)               2048      
_________________________________________________________________
activation_91 (Activation)   (None, 512)               0         
_________________________________________________________________
dropout_91 (Dropout)         (None, 512)               0         
_________________________________________________________________
dense_29 (Dense)             (None, 256)               131328    
_________________________________________________________________
batch_normalization_46 (Batc (None, 256)               1024      
_________________________________________________________________
activation_92 (Activation)   (None, 256)               0         
_________________________________________________________________
dropout_92 (Dropout)         (None, 256)               0         
_________________________________________________________________
dense_30 (Dense)             (None, 32)                8224      
_________________________________________________________________
activation_93 (Activation)   (None, 32)                0         
_________________________________________________________________
dropout_93 (Dropout)         (None, 32)                0         
_________________________________________________________________
dense_31 (Dense)             (None, 128)               4224      
_________________________________________________________________
batch_normalization_47 (Batc (None, 128)               512       
_________________________________________________________________
activation_94 (Activation)   (None, 128)               0         
_________________________________________________________________
dropout_94 (Dropout)         (None, 128)               0         
_________________________________________________________________
dense_32 (Dense)             (None, 64)                8256      
_________________________________________________________________
batch_normalization_48 (Batc (None, 64)                256       
_________________________________________________________________
activation_95 (Activation)   (None, 64)                0         
_________________________________________________________________
dropout_95 (Dropout)         (None, 64)                0         
_________________________________________________________________
dense_33 (Dense)             (None, 10)                650       
=================================================================
Total params: 978,818
Trainable params: 976,146
Non-trainable params: 2,672
_________________________________________________________________
