Model: "sequential"
_________________________________________________________________
Layer (type)                 Output Shape              Param #   
=================================================================
conv2d (Conv2D)              (None, 32, 32, 16)        448       
_________________________________________________________________
batch_normalization (BatchNo (None, 32, 32, 16)        64        
_________________________________________________________________
activation (Activation)      (None, 32, 32, 16)        0         
_________________________________________________________________
dropout (Dropout)            (None, 32, 32, 16)        0         
_________________________________________________________________
conv2d_1 (Conv2D)            (None, 32, 32, 16)        2320      
_________________________________________________________________
activation_1 (Activation)    (None, 32, 32, 16)        0         
_________________________________________________________________
dropout_1 (Dropout)          (None, 32, 32, 16)        0         
_________________________________________________________________
conv2d_2 (Conv2D)            (None, 32, 32, 64)        9280      
_________________________________________________________________
activation_2 (Activation)    (None, 32, 32, 64)        0         
_________________________________________________________________
dropout_2 (Dropout)          (None, 32, 32, 64)        0         
_________________________________________________________________
max_pooling2d (MaxPooling2D) (None, 16, 16, 64)        0         
_________________________________________________________________
conv2d_3 (Conv2D)            (None, 16, 16, 16)        9232      
_________________________________________________________________
activation_3 (Activation)    (None, 16, 16, 16)        0         
_________________________________________________________________
dropout_3 (Dropout)          (None, 16, 16, 16)        0         
_________________________________________________________________
max_pooling2d_1 (MaxPooling2 (None, 8, 8, 16)          0         
_________________________________________________________________
conv2d_4 (Conv2D)            (None, 8, 8, 128)         18560     
_________________________________________________________________
activation_4 (Activation)    (None, 8, 8, 128)         0         
_________________________________________________________________
dropout_4 (Dropout)          (None, 8, 8, 128)         0         
_________________________________________________________________
conv2d_5 (Conv2D)            (None, 8, 8, 128)         147584    
_________________________________________________________________
activation_5 (Activation)    (None, 8, 8, 128)         0         
_________________________________________________________________
dropout_5 (Dropout)          (None, 8, 8, 128)         0         
_________________________________________________________________
conv2d_6 (Conv2D)            (None, 8, 8, 32)          36896     
_________________________________________________________________
batch_normalization_1 (Batch (None, 8, 8, 32)          128       
_________________________________________________________________
activation_6 (Activation)    (None, 8, 8, 32)          0         
_________________________________________________________________
dropout_6 (Dropout)          (None, 8, 8, 32)          0         
_________________________________________________________________
conv2d_7 (Conv2D)            (None, 8, 8, 512)         147968    
_________________________________________________________________
batch_normalization_2 (Batch (None, 8, 8, 512)         2048      
_________________________________________________________________
activation_7 (Activation)    (None, 8, 8, 512)         0         
_________________________________________________________________
dropout_7 (Dropout)          (None, 8, 8, 512)         0         
_________________________________________________________________
flatten (Flatten)            (None, 32768)             0         
_________________________________________________________________
dense (Dense)                (None, 128)               4194432   
_________________________________________________________________
activation_8 (Activation)    (None, 128)               0         
_________________________________________________________________
dropout_8 (Dropout)          (None, 128)               0         
_________________________________________________________________
dense_1 (Dense)              (None, 32)                4128      
_________________________________________________________________
activation_9 (Activation)    (None, 32)                0         
_________________________________________________________________
dropout_9 (Dropout)          (None, 32)                0         
_________________________________________________________________
dense_2 (Dense)              (None, 10)                330       
=================================================================
Total params: 4,573,418
Trainable params: 4,572,298
Non-trainable params: 1,120
_________________________________________________________________
