Model: "sequential_106"
_________________________________________________________________
Layer (type)                 Output Shape              Param #   
=================================================================
conv2d_738 (Conv2D)          (None, 32, 32, 1024)      28672     
_________________________________________________________________
activation_951 (Activation)  (None, 32, 32, 1024)      0         
_________________________________________________________________
dropout_951 (Dropout)        (None, 32, 32, 1024)      0         
_________________________________________________________________
conv2d_739 (Conv2D)          (None, 32, 32, 1024)      9438208   
_________________________________________________________________
activation_952 (Activation)  (None, 32, 32, 1024)      0         
_________________________________________________________________
dropout_952 (Dropout)        (None, 32, 32, 1024)      0         
_________________________________________________________________
max_pooling2d_222 (MaxPoolin (None, 16, 16, 1024)      0         
_________________________________________________________________
conv2d_740 (Conv2D)          (None, 16, 16, 64)        589888    
_________________________________________________________________
batch_normalization_447 (Bat (None, 16, 16, 64)        256       
_________________________________________________________________
activation_953 (Activation)  (None, 16, 16, 64)        0         
_________________________________________________________________
dropout_953 (Dropout)        (None, 16, 16, 64)        0         
_________________________________________________________________
max_pooling2d_223 (MaxPoolin (None, 8, 8, 64)          0         
_________________________________________________________________
conv2d_741 (Conv2D)          (None, 8, 8, 128)         73856     
_________________________________________________________________
activation_954 (Activation)  (None, 8, 8, 128)         0         
_________________________________________________________________
dropout_954 (Dropout)        (None, 8, 8, 128)         0         
_________________________________________________________________
conv2d_742 (Conv2D)          (None, 8, 8, 32)          36896     
_________________________________________________________________
batch_normalization_448 (Bat (None, 8, 8, 32)          128       
_________________________________________________________________
activation_955 (Activation)  (None, 8, 8, 32)          0         
_________________________________________________________________
dropout_955 (Dropout)        (None, 8, 8, 32)          0         
_________________________________________________________________
conv2d_743 (Conv2D)          (None, 8, 8, 1024)        295936    
_________________________________________________________________
activation_956 (Activation)  (None, 8, 8, 1024)        0         
_________________________________________________________________
dropout_956 (Dropout)        (None, 8, 8, 1024)        0         
_________________________________________________________________
conv2d_744 (Conv2D)          (None, 8, 8, 1024)        9438208   
_________________________________________________________________
batch_normalization_449 (Bat (None, 8, 8, 1024)        4096      
_________________________________________________________________
activation_957 (Activation)  (None, 8, 8, 1024)        0         
_________________________________________________________________
dropout_957 (Dropout)        (None, 8, 8, 1024)        0         
_________________________________________________________________
flatten_106 (Flatten)        (None, 65536)             0         
_________________________________________________________________
dense_319 (Dense)            (None, 64)                4194368   
_________________________________________________________________
batch_normalization_450 (Bat (None, 64)                256       
_________________________________________________________________
activation_958 (Activation)  (None, 64)                0         
_________________________________________________________________
dropout_958 (Dropout)        (None, 64)                0         
_________________________________________________________________
dense_320 (Dense)            (None, 10)                650       
=================================================================
Total params: 24,101,418
Trainable params: 24,099,050
Non-trainable params: 2,368
_________________________________________________________________
