Model: "sequential_82"
_________________________________________________________________
Layer (type)                 Output Shape              Param #   
=================================================================
conv2d_571 (Conv2D)          (None, 32, 32, 1024)      28672     
_________________________________________________________________
activation_744 (Activation)  (None, 32, 32, 1024)      0         
_________________________________________________________________
dropout_744 (Dropout)        (None, 32, 32, 1024)      0         
_________________________________________________________________
conv2d_572 (Conv2D)          (None, 32, 32, 1024)      9438208   
_________________________________________________________________
activation_745 (Activation)  (None, 32, 32, 1024)      0         
_________________________________________________________________
dropout_745 (Dropout)        (None, 32, 32, 1024)      0         
_________________________________________________________________
max_pooling2d_171 (MaxPoolin (None, 16, 16, 1024)      0         
_________________________________________________________________
conv2d_573 (Conv2D)          (None, 16, 16, 64)        589888    
_________________________________________________________________
batch_normalization_345 (Bat (None, 16, 16, 64)        256       
_________________________________________________________________
activation_746 (Activation)  (None, 16, 16, 64)        0         
_________________________________________________________________
dropout_746 (Dropout)        (None, 16, 16, 64)        0         
_________________________________________________________________
max_pooling2d_172 (MaxPoolin (None, 8, 8, 64)          0         
_________________________________________________________________
conv2d_574 (Conv2D)          (None, 8, 8, 128)         73856     
_________________________________________________________________
activation_747 (Activation)  (None, 8, 8, 128)         0         
_________________________________________________________________
dropout_747 (Dropout)        (None, 8, 8, 128)         0         
_________________________________________________________________
conv2d_575 (Conv2D)          (None, 8, 8, 32)          36896     
_________________________________________________________________
batch_normalization_346 (Bat (None, 8, 8, 32)          128       
_________________________________________________________________
activation_748 (Activation)  (None, 8, 8, 32)          0         
_________________________________________________________________
dropout_748 (Dropout)        (None, 8, 8, 32)          0         
_________________________________________________________________
conv2d_576 (Conv2D)          (None, 8, 8, 1024)        295936    
_________________________________________________________________
activation_749 (Activation)  (None, 8, 8, 1024)        0         
_________________________________________________________________
dropout_749 (Dropout)        (None, 8, 8, 1024)        0         
_________________________________________________________________
conv2d_577 (Conv2D)          (None, 8, 8, 1024)        9438208   
_________________________________________________________________
batch_normalization_347 (Bat (None, 8, 8, 1024)        4096      
_________________________________________________________________
activation_750 (Activation)  (None, 8, 8, 1024)        0         
_________________________________________________________________
dropout_750 (Dropout)        (None, 8, 8, 1024)        0         
_________________________________________________________________
flatten_82 (Flatten)         (None, 65536)             0         
_________________________________________________________________
dense_255 (Dense)            (None, 64)                4194368   
_________________________________________________________________
batch_normalization_348 (Bat (None, 64)                256       
_________________________________________________________________
activation_751 (Activation)  (None, 64)                0         
_________________________________________________________________
dropout_751 (Dropout)        (None, 64)                0         
_________________________________________________________________
dense_256 (Dense)            (None, 256)               16640     
_________________________________________________________________
activation_752 (Activation)  (None, 256)               0         
_________________________________________________________________
dropout_752 (Dropout)        (None, 256)               0         
_________________________________________________________________
dense_257 (Dense)            (None, 10)                2570      
=================================================================
Total params: 24,119,978
Trainable params: 24,117,610
Non-trainable params: 2,368
_________________________________________________________________
