Model: "sequential_1"
_________________________________________________________________
Layer (type)                 Output Shape              Param #   
=================================================================
conv2d_8 (Conv2D)            (None, 32, 32, 512)       14336     
_________________________________________________________________
batch_normalization_3 (Batch (None, 32, 32, 512)       2048      
_________________________________________________________________
activation_10 (Activation)   (None, 32, 32, 512)       0         
_________________________________________________________________
dropout_10 (Dropout)         (None, 32, 32, 512)       0         
_________________________________________________________________
conv2d_9 (Conv2D)            (None, 32, 32, 512)       2359808   
_________________________________________________________________
activation_11 (Activation)   (None, 32, 32, 512)       0         
_________________________________________________________________
dropout_11 (Dropout)         (None, 32, 32, 512)       0         
_________________________________________________________________
max_pooling2d_2 (MaxPooling2 (None, 16, 16, 512)       0         
_________________________________________________________________
conv2d_10 (Conv2D)           (None, 16, 16, 32)        147488    
_________________________________________________________________
activation_12 (Activation)   (None, 16, 16, 32)        0         
_________________________________________________________________
dropout_12 (Dropout)         (None, 16, 16, 32)        0         
_________________________________________________________________
max_pooling2d_3 (MaxPooling2 (None, 8, 8, 32)          0         
_________________________________________________________________
conv2d_11 (Conv2D)           (None, 8, 8, 64)          18496     
_________________________________________________________________
batch_normalization_4 (Batch (None, 8, 8, 64)          256       
_________________________________________________________________
activation_13 (Activation)   (None, 8, 8, 64)          0         
_________________________________________________________________
dropout_13 (Dropout)         (None, 8, 8, 64)          0         
_________________________________________________________________
max_pooling2d_4 (MaxPooling2 (None, 4, 4, 64)          0         
_________________________________________________________________
conv2d_12 (Conv2D)           (None, 4, 4, 512)         295424    
_________________________________________________________________
activation_14 (Activation)   (None, 4, 4, 512)         0         
_________________________________________________________________
dropout_14 (Dropout)         (None, 4, 4, 512)         0         
_________________________________________________________________
flatten_1 (Flatten)          (None, 8192)              0         
_________________________________________________________________
dense_3 (Dense)              (None, 256)               2097408   
_________________________________________________________________
activation_15 (Activation)   (None, 256)               0         
_________________________________________________________________
dropout_15 (Dropout)         (None, 256)               0         
_________________________________________________________________
dense_4 (Dense)              (None, 256)               65792     
_________________________________________________________________
activation_16 (Activation)   (None, 256)               0         
_________________________________________________________________
dropout_16 (Dropout)         (None, 256)               0         
_________________________________________________________________
dense_5 (Dense)              (None, 16)                4112      
_________________________________________________________________
activation_17 (Activation)   (None, 16)                0         
_________________________________________________________________
dropout_17 (Dropout)         (None, 16)                0         
_________________________________________________________________
dense_6 (Dense)              (None, 10)                170       
=================================================================
Total params: 5,005,338
Trainable params: 5,004,186
Non-trainable params: 1,152
_________________________________________________________________
