Model: "sequential_183"
_________________________________________________________________
Layer (type)                 Output Shape              Param #   
=================================================================
conv2d_1282 (Conv2D)         (None, 32, 32, 1024)      28672     
_________________________________________________________________
activation_1640 (Activation) (None, 32, 32, 1024)      0         
_________________________________________________________________
dropout_1640 (Dropout)       (None, 32, 32, 1024)      0         
_________________________________________________________________
conv2d_1283 (Conv2D)         (None, 32, 32, 1024)      9438208   
_________________________________________________________________
activation_1641 (Activation) (None, 32, 32, 1024)      0         
_________________________________________________________________
dropout_1641 (Dropout)       (None, 32, 32, 1024)      0         
_________________________________________________________________
max_pooling2d_403 (MaxPoolin (None, 16, 16, 1024)      0         
_________________________________________________________________
conv2d_1284 (Conv2D)         (None, 16, 16, 64)        589888    
_________________________________________________________________
batch_normalization_794 (Bat (None, 16, 16, 64)        256       
_________________________________________________________________
activation_1642 (Activation) (None, 16, 16, 64)        0         
_________________________________________________________________
dropout_1642 (Dropout)       (None, 16, 16, 64)        0         
_________________________________________________________________
max_pooling2d_404 (MaxPoolin (None, 8, 8, 64)          0         
_________________________________________________________________
conv2d_1285 (Conv2D)         (None, 8, 8, 32)          18464     
_________________________________________________________________
batch_normalization_795 (Bat (None, 8, 8, 32)          128       
_________________________________________________________________
activation_1643 (Activation) (None, 8, 8, 32)          0         
_________________________________________________________________
dropout_1643 (Dropout)       (None, 8, 8, 32)          0         
_________________________________________________________________
conv2d_1286 (Conv2D)         (None, 8, 8, 1024)        295936    
_________________________________________________________________
activation_1644 (Activation) (None, 8, 8, 1024)        0         
_________________________________________________________________
dropout_1644 (Dropout)       (None, 8, 8, 1024)        0         
_________________________________________________________________
conv2d_1287 (Conv2D)         (None, 8, 8, 1024)        9438208   
_________________________________________________________________
batch_normalization_796 (Bat (None, 8, 8, 1024)        4096      
_________________________________________________________________
activation_1645 (Activation) (None, 8, 8, 1024)        0         
_________________________________________________________________
dropout_1645 (Dropout)       (None, 8, 8, 1024)        0         
_________________________________________________________________
flatten_183 (Flatten)        (None, 65536)             0         
_________________________________________________________________
dense_541 (Dense)            (None, 64)                4194368   
_________________________________________________________________
activation_1646 (Activation) (None, 64)                0         
_________________________________________________________________
dropout_1646 (Dropout)       (None, 64)                0         
_________________________________________________________________
dense_542 (Dense)            (None, 256)               16640     
_________________________________________________________________
activation_1647 (Activation) (None, 256)               0         
_________________________________________________________________
dropout_1647 (Dropout)       (None, 256)               0         
_________________________________________________________________
dense_543 (Dense)            (None, 10)                2570      
=================================================================
Total params: 24,027,434
Trainable params: 24,025,194
Non-trainable params: 2,240
_________________________________________________________________
