Model: "sequential_74"
_________________________________________________________________
Layer (type)                 Output Shape              Param #   
=================================================================
conv2d_515 (Conv2D)          (None, 32, 32, 1024)      28672     
_________________________________________________________________
activation_676 (Activation)  (None, 32, 32, 1024)      0         
_________________________________________________________________
dropout_676 (Dropout)        (None, 32, 32, 1024)      0         
_________________________________________________________________
conv2d_516 (Conv2D)          (None, 32, 32, 1024)      9438208   
_________________________________________________________________
activation_677 (Activation)  (None, 32, 32, 1024)      0         
_________________________________________________________________
dropout_677 (Dropout)        (None, 32, 32, 1024)      0         
_________________________________________________________________
max_pooling2d_155 (MaxPoolin (None, 16, 16, 1024)      0         
_________________________________________________________________
conv2d_517 (Conv2D)          (None, 16, 16, 64)        589888    
_________________________________________________________________
batch_normalization_312 (Bat (None, 16, 16, 64)        256       
_________________________________________________________________
activation_678 (Activation)  (None, 16, 16, 64)        0         
_________________________________________________________________
dropout_678 (Dropout)        (None, 16, 16, 64)        0         
_________________________________________________________________
max_pooling2d_156 (MaxPoolin (None, 8, 8, 64)          0         
_________________________________________________________________
conv2d_518 (Conv2D)          (None, 8, 8, 128)         73856     
_________________________________________________________________
activation_679 (Activation)  (None, 8, 8, 128)         0         
_________________________________________________________________
dropout_679 (Dropout)        (None, 8, 8, 128)         0         
_________________________________________________________________
conv2d_519 (Conv2D)          (None, 8, 8, 32)          36896     
_________________________________________________________________
batch_normalization_313 (Bat (None, 8, 8, 32)          128       
_________________________________________________________________
activation_680 (Activation)  (None, 8, 8, 32)          0         
_________________________________________________________________
dropout_680 (Dropout)        (None, 8, 8, 32)          0         
_________________________________________________________________
conv2d_520 (Conv2D)          (None, 8, 8, 1024)        295936    
_________________________________________________________________
activation_681 (Activation)  (None, 8, 8, 1024)        0         
_________________________________________________________________
dropout_681 (Dropout)        (None, 8, 8, 1024)        0         
_________________________________________________________________
conv2d_521 (Conv2D)          (None, 8, 8, 1024)        9438208   
_________________________________________________________________
batch_normalization_314 (Bat (None, 8, 8, 1024)        4096      
_________________________________________________________________
activation_682 (Activation)  (None, 8, 8, 1024)        0         
_________________________________________________________________
dropout_682 (Dropout)        (None, 8, 8, 1024)        0         
_________________________________________________________________
flatten_74 (Flatten)         (None, 65536)             0         
_________________________________________________________________
dense_235 (Dense)            (None, 64)                4194368   
_________________________________________________________________
batch_normalization_315 (Bat (None, 64)                256       
_________________________________________________________________
activation_683 (Activation)  (None, 64)                0         
_________________________________________________________________
dropout_683 (Dropout)        (None, 64)                0         
_________________________________________________________________
dense_236 (Dense)            (None, 256)               16640     
_________________________________________________________________
activation_684 (Activation)  (None, 256)               0         
_________________________________________________________________
dropout_684 (Dropout)        (None, 256)               0         
_________________________________________________________________
dense_237 (Dense)            (None, 10)                2570      
=================================================================
Total params: 24,119,978
Trainable params: 24,117,610
Non-trainable params: 2,368
_________________________________________________________________
