Model: "sequential_90"
_________________________________________________________________
Layer (type)                 Output Shape              Param #   
=================================================================
conv2d_626 (Conv2D)          (None, 32, 32, 1024)      28672     
_________________________________________________________________
activation_813 (Activation)  (None, 32, 32, 1024)      0         
_________________________________________________________________
dropout_813 (Dropout)        (None, 32, 32, 1024)      0         
_________________________________________________________________
conv2d_627 (Conv2D)          (None, 32, 32, 1024)      9438208   
_________________________________________________________________
activation_814 (Activation)  (None, 32, 32, 1024)      0         
_________________________________________________________________
dropout_814 (Dropout)        (None, 32, 32, 1024)      0         
_________________________________________________________________
max_pooling2d_188 (MaxPoolin (None, 16, 16, 1024)      0         
_________________________________________________________________
conv2d_628 (Conv2D)          (None, 16, 16, 64)        589888    
_________________________________________________________________
batch_normalization_378 (Bat (None, 16, 16, 64)        256       
_________________________________________________________________
activation_815 (Activation)  (None, 16, 16, 64)        0         
_________________________________________________________________
dropout_815 (Dropout)        (None, 16, 16, 64)        0         
_________________________________________________________________
max_pooling2d_189 (MaxPoolin (None, 8, 8, 64)          0         
_________________________________________________________________
conv2d_629 (Conv2D)          (None, 8, 8, 128)         73856     
_________________________________________________________________
activation_816 (Activation)  (None, 8, 8, 128)         0         
_________________________________________________________________
dropout_816 (Dropout)        (None, 8, 8, 128)         0         
_________________________________________________________________
conv2d_630 (Conv2D)          (None, 8, 8, 32)          36896     
_________________________________________________________________
batch_normalization_379 (Bat (None, 8, 8, 32)          128       
_________________________________________________________________
activation_817 (Activation)  (None, 8, 8, 32)          0         
_________________________________________________________________
dropout_817 (Dropout)        (None, 8, 8, 32)          0         
_________________________________________________________________
conv2d_631 (Conv2D)          (None, 8, 8, 1024)        295936    
_________________________________________________________________
activation_818 (Activation)  (None, 8, 8, 1024)        0         
_________________________________________________________________
dropout_818 (Dropout)        (None, 8, 8, 1024)        0         
_________________________________________________________________
conv2d_632 (Conv2D)          (None, 8, 8, 1024)        9438208   
_________________________________________________________________
batch_normalization_380 (Bat (None, 8, 8, 1024)        4096      
_________________________________________________________________
activation_819 (Activation)  (None, 8, 8, 1024)        0         
_________________________________________________________________
dropout_819 (Dropout)        (None, 8, 8, 1024)        0         
_________________________________________________________________
flatten_90 (Flatten)         (None, 65536)             0         
_________________________________________________________________
dense_277 (Dense)            (None, 64)                4194368   
_________________________________________________________________
batch_normalization_381 (Bat (None, 64)                256       
_________________________________________________________________
activation_820 (Activation)  (None, 64)                0         
_________________________________________________________________
dropout_820 (Dropout)        (None, 64)                0         
_________________________________________________________________
dense_278 (Dense)            (None, 10)                650       
=================================================================
Total params: 24,101,418
Trainable params: 24,099,050
Non-trainable params: 2,368
_________________________________________________________________
