Model: "sequential_181"
_________________________________________________________________
Layer (type)                 Output Shape              Param #   
=================================================================
conv2d_1268 (Conv2D)         (None, 32, 32, 1024)      28672     
_________________________________________________________________
activation_1622 (Activation) (None, 32, 32, 1024)      0         
_________________________________________________________________
dropout_1622 (Dropout)       (None, 32, 32, 1024)      0         
_________________________________________________________________
conv2d_1269 (Conv2D)         (None, 32, 32, 1024)      9438208   
_________________________________________________________________
activation_1623 (Activation) (None, 32, 32, 1024)      0         
_________________________________________________________________
dropout_1623 (Dropout)       (None, 32, 32, 1024)      0         
_________________________________________________________________
max_pooling2d_400 (MaxPoolin (None, 16, 16, 1024)      0         
_________________________________________________________________
conv2d_1270 (Conv2D)         (None, 16, 16, 64)        589888    
_________________________________________________________________
batch_normalization_784 (Bat (None, 16, 16, 64)        256       
_________________________________________________________________
activation_1624 (Activation) (None, 16, 16, 64)        0         
_________________________________________________________________
dropout_1624 (Dropout)       (None, 16, 16, 64)        0         
_________________________________________________________________
max_pooling2d_401 (MaxPoolin (None, 8, 8, 64)          0         
_________________________________________________________________
conv2d_1271 (Conv2D)         (None, 8, 8, 128)         73856     
_________________________________________________________________
activation_1625 (Activation) (None, 8, 8, 128)         0         
_________________________________________________________________
dropout_1625 (Dropout)       (None, 8, 8, 128)         0         
_________________________________________________________________
conv2d_1272 (Conv2D)         (None, 8, 8, 32)          36896     
_________________________________________________________________
batch_normalization_785 (Bat (None, 8, 8, 32)          128       
_________________________________________________________________
activation_1626 (Activation) (None, 8, 8, 32)          0         
_________________________________________________________________
dropout_1626 (Dropout)       (None, 8, 8, 32)          0         
_________________________________________________________________
conv2d_1273 (Conv2D)         (None, 8, 8, 1024)        295936    
_________________________________________________________________
batch_normalization_786 (Bat (None, 8, 8, 1024)        4096      
_________________________________________________________________
activation_1627 (Activation) (None, 8, 8, 1024)        0         
_________________________________________________________________
dropout_1627 (Dropout)       (None, 8, 8, 1024)        0         
_________________________________________________________________
conv2d_1274 (Conv2D)         (None, 8, 8, 1024)        9438208   
_________________________________________________________________
batch_normalization_787 (Bat (None, 8, 8, 1024)        4096      
_________________________________________________________________
activation_1628 (Activation) (None, 8, 8, 1024)        0         
_________________________________________________________________
dropout_1628 (Dropout)       (None, 8, 8, 1024)        0         
_________________________________________________________________
flatten_181 (Flatten)        (None, 65536)             0         
_________________________________________________________________
dense_535 (Dense)            (None, 64)                4194368   
_________________________________________________________________
batch_normalization_788 (Bat (None, 64)                256       
_________________________________________________________________
activation_1629 (Activation) (None, 64)                0         
_________________________________________________________________
dropout_1629 (Dropout)       (None, 64)                0         
_________________________________________________________________
dense_536 (Dense)            (None, 256)               16640     
_________________________________________________________________
activation_1630 (Activation) (None, 256)               0         
_________________________________________________________________
dropout_1630 (Dropout)       (None, 256)               0         
_________________________________________________________________
dense_537 (Dense)            (None, 10)                2570      
=================================================================
Total params: 24,124,074
Trainable params: 24,119,658
Non-trainable params: 4,416
_________________________________________________________________
