Model: "sequential_59"
_________________________________________________________________
Layer (type)                 Output Shape              Param #   
=================================================================
conv2d_411 (Conv2D)          (None, 32, 32, 1024)      28672     
_________________________________________________________________
activation_547 (Activation)  (None, 32, 32, 1024)      0         
_________________________________________________________________
dropout_547 (Dropout)        (None, 32, 32, 1024)      0         
_________________________________________________________________
conv2d_412 (Conv2D)          (None, 32, 32, 1024)      9438208   
_________________________________________________________________
activation_548 (Activation)  (None, 32, 32, 1024)      0         
_________________________________________________________________
dropout_548 (Dropout)        (None, 32, 32, 1024)      0         
_________________________________________________________________
max_pooling2d_125 (MaxPoolin (None, 16, 16, 1024)      0         
_________________________________________________________________
conv2d_413 (Conv2D)          (None, 16, 16, 64)        589888    
_________________________________________________________________
batch_normalization_248 (Bat (None, 16, 16, 64)        256       
_________________________________________________________________
activation_549 (Activation)  (None, 16, 16, 64)        0         
_________________________________________________________________
dropout_549 (Dropout)        (None, 16, 16, 64)        0         
_________________________________________________________________
max_pooling2d_126 (MaxPoolin (None, 8, 8, 64)          0         
_________________________________________________________________
conv2d_414 (Conv2D)          (None, 8, 8, 128)         73856     
_________________________________________________________________
activation_550 (Activation)  (None, 8, 8, 128)         0         
_________________________________________________________________
dropout_550 (Dropout)        (None, 8, 8, 128)         0         
_________________________________________________________________
conv2d_415 (Conv2D)          (None, 8, 8, 32)          36896     
_________________________________________________________________
batch_normalization_249 (Bat (None, 8, 8, 32)          128       
_________________________________________________________________
activation_551 (Activation)  (None, 8, 8, 32)          0         
_________________________________________________________________
dropout_551 (Dropout)        (None, 8, 8, 32)          0         
_________________________________________________________________
conv2d_416 (Conv2D)          (None, 8, 8, 1024)        295936    
_________________________________________________________________
activation_552 (Activation)  (None, 8, 8, 1024)        0         
_________________________________________________________________
dropout_552 (Dropout)        (None, 8, 8, 1024)        0         
_________________________________________________________________
conv2d_417 (Conv2D)          (None, 8, 8, 1024)        9438208   
_________________________________________________________________
batch_normalization_250 (Bat (None, 8, 8, 1024)        4096      
_________________________________________________________________
activation_553 (Activation)  (None, 8, 8, 1024)        0         
_________________________________________________________________
dropout_553 (Dropout)        (None, 8, 8, 1024)        0         
_________________________________________________________________
flatten_59 (Flatten)         (None, 65536)             0         
_________________________________________________________________
dense_195 (Dense)            (None, 64)                4194368   
_________________________________________________________________
batch_normalization_251 (Bat (None, 64)                256       
_________________________________________________________________
activation_554 (Activation)  (None, 64)                0         
_________________________________________________________________
dropout_554 (Dropout)        (None, 64)                0         
_________________________________________________________________
dense_196 (Dense)            (None, 256)               16640     
_________________________________________________________________
activation_555 (Activation)  (None, 256)               0         
_________________________________________________________________
dropout_555 (Dropout)        (None, 256)               0         
_________________________________________________________________
dense_197 (Dense)            (None, 10)                2570      
=================================================================
Total params: 24,119,978
Trainable params: 24,117,610
Non-trainable params: 2,368
_________________________________________________________________
