Model: "sequential_30"
_________________________________________________________________
Layer (type)                 Output Shape              Param #   
=================================================================
conv2d_210 (Conv2D)          (None, 32, 32, 1024)      28672     
_________________________________________________________________
activation_289 (Activation)  (None, 32, 32, 1024)      0         
_________________________________________________________________
dropout_289 (Dropout)        (None, 32, 32, 1024)      0         
_________________________________________________________________
conv2d_211 (Conv2D)          (None, 32, 32, 1024)      9438208   
_________________________________________________________________
activation_290 (Activation)  (None, 32, 32, 1024)      0         
_________________________________________________________________
dropout_290 (Dropout)        (None, 32, 32, 1024)      0         
_________________________________________________________________
max_pooling2d_67 (MaxPooling (None, 16, 16, 1024)      0         
_________________________________________________________________
conv2d_212 (Conv2D)          (None, 16, 16, 64)        589888    
_________________________________________________________________
batch_normalization_133 (Bat (None, 16, 16, 64)        256       
_________________________________________________________________
activation_291 (Activation)  (None, 16, 16, 64)        0         
_________________________________________________________________
dropout_291 (Dropout)        (None, 16, 16, 64)        0         
_________________________________________________________________
max_pooling2d_68 (MaxPooling (None, 8, 8, 64)          0         
_________________________________________________________________
conv2d_213 (Conv2D)          (None, 8, 8, 128)         73856     
_________________________________________________________________
activation_292 (Activation)  (None, 8, 8, 128)         0         
_________________________________________________________________
dropout_292 (Dropout)        (None, 8, 8, 128)         0         
_________________________________________________________________
conv2d_214 (Conv2D)          (None, 8, 8, 32)          36896     
_________________________________________________________________
batch_normalization_134 (Bat (None, 8, 8, 32)          128       
_________________________________________________________________
activation_293 (Activation)  (None, 8, 8, 32)          0         
_________________________________________________________________
dropout_293 (Dropout)        (None, 8, 8, 32)          0         
_________________________________________________________________
conv2d_215 (Conv2D)          (None, 8, 8, 1024)        295936    
_________________________________________________________________
activation_294 (Activation)  (None, 8, 8, 1024)        0         
_________________________________________________________________
dropout_294 (Dropout)        (None, 8, 8, 1024)        0         
_________________________________________________________________
conv2d_216 (Conv2D)          (None, 8, 8, 1024)        9438208   
_________________________________________________________________
batch_normalization_135 (Bat (None, 8, 8, 1024)        4096      
_________________________________________________________________
activation_295 (Activation)  (None, 8, 8, 1024)        0         
_________________________________________________________________
dropout_295 (Dropout)        (None, 8, 8, 1024)        0         
_________________________________________________________________
flatten_30 (Flatten)         (None, 65536)             0         
_________________________________________________________________
dense_109 (Dense)            (None, 64)                4194368   
_________________________________________________________________
batch_normalization_136 (Bat (None, 64)                256       
_________________________________________________________________
activation_296 (Activation)  (None, 64)                0         
_________________________________________________________________
dropout_296 (Dropout)        (None, 64)                0         
_________________________________________________________________
dense_110 (Dense)            (None, 256)               16640     
_________________________________________________________________
activation_297 (Activation)  (None, 256)               0         
_________________________________________________________________
dropout_297 (Dropout)        (None, 256)               0         
_________________________________________________________________
dense_111 (Dense)            (None, 16)                4112      
_________________________________________________________________
activation_298 (Activation)  (None, 16)                0         
_________________________________________________________________
dropout_298 (Dropout)        (None, 16)                0         
_________________________________________________________________
dense_112 (Dense)            (None, 10)                170       
=================================================================
Total params: 24,121,690
Trainable params: 24,119,322
Non-trainable params: 2,368
_________________________________________________________________
