Model: "sequential_167"
_________________________________________________________________
Layer (type)                 Output Shape              Param #   
=================================================================
conv2d_1166 (Conv2D)         (None, 32, 32, 1024)      28672     
_________________________________________________________________
activation_1492 (Activation) (None, 32, 32, 1024)      0         
_________________________________________________________________
dropout_1492 (Dropout)       (None, 32, 32, 1024)      0         
_________________________________________________________________
conv2d_1167 (Conv2D)         (None, 32, 32, 1024)      9438208   
_________________________________________________________________
activation_1493 (Activation) (None, 32, 32, 1024)      0         
_________________________________________________________________
dropout_1493 (Dropout)       (None, 32, 32, 1024)      0         
_________________________________________________________________
max_pooling2d_367 (MaxPoolin (None, 16, 16, 1024)      0         
_________________________________________________________________
conv2d_1168 (Conv2D)         (None, 16, 16, 64)        589888    
_________________________________________________________________
batch_normalization_714 (Bat (None, 16, 16, 64)        256       
_________________________________________________________________
activation_1494 (Activation) (None, 16, 16, 64)        0         
_________________________________________________________________
dropout_1494 (Dropout)       (None, 16, 16, 64)        0         
_________________________________________________________________
max_pooling2d_368 (MaxPoolin (None, 8, 8, 64)          0         
_________________________________________________________________
conv2d_1169 (Conv2D)         (None, 8, 8, 128)         73856     
_________________________________________________________________
activation_1495 (Activation) (None, 8, 8, 128)         0         
_________________________________________________________________
dropout_1495 (Dropout)       (None, 8, 8, 128)         0         
_________________________________________________________________
conv2d_1170 (Conv2D)         (None, 8, 8, 32)          36896     
_________________________________________________________________
batch_normalization_715 (Bat (None, 8, 8, 32)          128       
_________________________________________________________________
activation_1496 (Activation) (None, 8, 8, 32)          0         
_________________________________________________________________
dropout_1496 (Dropout)       (None, 8, 8, 32)          0         
_________________________________________________________________
conv2d_1171 (Conv2D)         (None, 8, 8, 1024)        295936    
_________________________________________________________________
activation_1497 (Activation) (None, 8, 8, 1024)        0         
_________________________________________________________________
dropout_1497 (Dropout)       (None, 8, 8, 1024)        0         
_________________________________________________________________
conv2d_1172 (Conv2D)         (None, 8, 8, 1024)        9438208   
_________________________________________________________________
batch_normalization_716 (Bat (None, 8, 8, 1024)        4096      
_________________________________________________________________
activation_1498 (Activation) (None, 8, 8, 1024)        0         
_________________________________________________________________
dropout_1498 (Dropout)       (None, 8, 8, 1024)        0         
_________________________________________________________________
flatten_167 (Flatten)        (None, 65536)             0         
_________________________________________________________________
dense_493 (Dense)            (None, 64)                4194368   
_________________________________________________________________
batch_normalization_717 (Bat (None, 64)                256       
_________________________________________________________________
activation_1499 (Activation) (None, 64)                0         
_________________________________________________________________
dropout_1499 (Dropout)       (None, 64)                0         
_________________________________________________________________
dense_494 (Dense)            (None, 256)               16640     
_________________________________________________________________
activation_1500 (Activation) (None, 256)               0         
_________________________________________________________________
dropout_1500 (Dropout)       (None, 256)               0         
_________________________________________________________________
dense_495 (Dense)            (None, 10)                2570      
=================================================================
Total params: 24,119,978
Trainable params: 24,117,610
Non-trainable params: 2,368
_________________________________________________________________
