Model: "sequential_40"
_________________________________________________________________
Layer (type)                 Output Shape              Param #   
=================================================================
conv2d_278 (Conv2D)          (None, 32, 32, 1024)      28672     
_________________________________________________________________
activation_381 (Activation)  (None, 32, 32, 1024)      0         
_________________________________________________________________
dropout_381 (Dropout)        (None, 32, 32, 1024)      0         
_________________________________________________________________
conv2d_279 (Conv2D)          (None, 32, 32, 1024)      9438208   
_________________________________________________________________
activation_382 (Activation)  (None, 32, 32, 1024)      0         
_________________________________________________________________
dropout_382 (Dropout)        (None, 32, 32, 1024)      0         
_________________________________________________________________
max_pooling2d_87 (MaxPooling (None, 16, 16, 1024)      0         
_________________________________________________________________
conv2d_280 (Conv2D)          (None, 16, 16, 64)        589888    
_________________________________________________________________
batch_normalization_171 (Bat (None, 16, 16, 64)        256       
_________________________________________________________________
activation_383 (Activation)  (None, 16, 16, 64)        0         
_________________________________________________________________
dropout_383 (Dropout)        (None, 16, 16, 64)        0         
_________________________________________________________________
max_pooling2d_88 (MaxPooling (None, 8, 8, 64)          0         
_________________________________________________________________
conv2d_281 (Conv2D)          (None, 8, 8, 128)         73856     
_________________________________________________________________
activation_384 (Activation)  (None, 8, 8, 128)         0         
_________________________________________________________________
dropout_384 (Dropout)        (None, 8, 8, 128)         0         
_________________________________________________________________
conv2d_282 (Conv2D)          (None, 8, 8, 32)          36896     
_________________________________________________________________
batch_normalization_172 (Bat (None, 8, 8, 32)          128       
_________________________________________________________________
activation_385 (Activation)  (None, 8, 8, 32)          0         
_________________________________________________________________
dropout_385 (Dropout)        (None, 8, 8, 32)          0         
_________________________________________________________________
conv2d_283 (Conv2D)          (None, 8, 8, 1024)        295936    
_________________________________________________________________
activation_386 (Activation)  (None, 8, 8, 1024)        0         
_________________________________________________________________
dropout_386 (Dropout)        (None, 8, 8, 1024)        0         
_________________________________________________________________
conv2d_284 (Conv2D)          (None, 8, 8, 1024)        9438208   
_________________________________________________________________
batch_normalization_173 (Bat (None, 8, 8, 1024)        4096      
_________________________________________________________________
activation_387 (Activation)  (None, 8, 8, 1024)        0         
_________________________________________________________________
dropout_387 (Dropout)        (None, 8, 8, 1024)        0         
_________________________________________________________________
flatten_40 (Flatten)         (None, 65536)             0         
_________________________________________________________________
dense_143 (Dense)            (None, 64)                4194368   
_________________________________________________________________
batch_normalization_174 (Bat (None, 64)                256       
_________________________________________________________________
activation_388 (Activation)  (None, 64)                0         
_________________________________________________________________
dropout_388 (Dropout)        (None, 64)                0         
_________________________________________________________________
dense_144 (Dense)            (None, 256)               16640     
_________________________________________________________________
activation_389 (Activation)  (None, 256)               0         
_________________________________________________________________
dropout_389 (Dropout)        (None, 256)               0         
_________________________________________________________________
dense_145 (Dense)            (None, 10)                2570      
=================================================================
Total params: 24,119,978
Trainable params: 24,117,610
Non-trainable params: 2,368
_________________________________________________________________
