Model: "sequential_48"
_________________________________________________________________
Layer (type)                 Output Shape              Param #   
=================================================================
conv2d_334 (Conv2D)          (None, 32, 32, 1024)      28672     
_________________________________________________________________
activation_451 (Activation)  (None, 32, 32, 1024)      0         
_________________________________________________________________
dropout_451 (Dropout)        (None, 32, 32, 1024)      0         
_________________________________________________________________
conv2d_335 (Conv2D)          (None, 32, 32, 1024)      9438208   
_________________________________________________________________
activation_452 (Activation)  (None, 32, 32, 1024)      0         
_________________________________________________________________
dropout_452 (Dropout)        (None, 32, 32, 1024)      0         
_________________________________________________________________
max_pooling2d_103 (MaxPoolin (None, 16, 16, 1024)      0         
_________________________________________________________________
conv2d_336 (Conv2D)          (None, 16, 16, 64)        589888    
_________________________________________________________________
batch_normalization_203 (Bat (None, 16, 16, 64)        256       
_________________________________________________________________
activation_453 (Activation)  (None, 16, 16, 64)        0         
_________________________________________________________________
dropout_453 (Dropout)        (None, 16, 16, 64)        0         
_________________________________________________________________
max_pooling2d_104 (MaxPoolin (None, 8, 8, 64)          0         
_________________________________________________________________
conv2d_337 (Conv2D)          (None, 8, 8, 128)         73856     
_________________________________________________________________
activation_454 (Activation)  (None, 8, 8, 128)         0         
_________________________________________________________________
dropout_454 (Dropout)        (None, 8, 8, 128)         0         
_________________________________________________________________
conv2d_338 (Conv2D)          (None, 8, 8, 32)          36896     
_________________________________________________________________
batch_normalization_204 (Bat (None, 8, 8, 32)          128       
_________________________________________________________________
activation_455 (Activation)  (None, 8, 8, 32)          0         
_________________________________________________________________
dropout_455 (Dropout)        (None, 8, 8, 32)          0         
_________________________________________________________________
conv2d_339 (Conv2D)          (None, 8, 8, 1024)        295936    
_________________________________________________________________
activation_456 (Activation)  (None, 8, 8, 1024)        0         
_________________________________________________________________
dropout_456 (Dropout)        (None, 8, 8, 1024)        0         
_________________________________________________________________
conv2d_340 (Conv2D)          (None, 8, 8, 1024)        9438208   
_________________________________________________________________
batch_normalization_205 (Bat (None, 8, 8, 1024)        4096      
_________________________________________________________________
activation_457 (Activation)  (None, 8, 8, 1024)        0         
_________________________________________________________________
dropout_457 (Dropout)        (None, 8, 8, 1024)        0         
_________________________________________________________________
flatten_48 (Flatten)         (None, 65536)             0         
_________________________________________________________________
dense_165 (Dense)            (None, 64)                4194368   
_________________________________________________________________
batch_normalization_206 (Bat (None, 64)                256       
_________________________________________________________________
activation_458 (Activation)  (None, 64)                0         
_________________________________________________________________
dropout_458 (Dropout)        (None, 64)                0         
_________________________________________________________________
dense_166 (Dense)            (None, 10)                650       
=================================================================
Total params: 24,101,418
Trainable params: 24,099,050
Non-trainable params: 2,368
_________________________________________________________________
