Model: "sequential_65"
_________________________________________________________________
Layer (type)                 Output Shape              Param #   
=================================================================
conv2d_453 (Conv2D)          (None, 32, 32, 1024)      28672     
_________________________________________________________________
activation_599 (Activation)  (None, 32, 32, 1024)      0         
_________________________________________________________________
dropout_599 (Dropout)        (None, 32, 32, 1024)      0         
_________________________________________________________________
conv2d_454 (Conv2D)          (None, 32, 32, 1024)      9438208   
_________________________________________________________________
activation_600 (Activation)  (None, 32, 32, 1024)      0         
_________________________________________________________________
dropout_600 (Dropout)        (None, 32, 32, 1024)      0         
_________________________________________________________________
max_pooling2d_137 (MaxPoolin (None, 16, 16, 1024)      0         
_________________________________________________________________
conv2d_455 (Conv2D)          (None, 16, 16, 64)        589888    
_________________________________________________________________
batch_normalization_273 (Bat (None, 16, 16, 64)        256       
_________________________________________________________________
activation_601 (Activation)  (None, 16, 16, 64)        0         
_________________________________________________________________
dropout_601 (Dropout)        (None, 16, 16, 64)        0         
_________________________________________________________________
max_pooling2d_138 (MaxPoolin (None, 8, 8, 64)          0         
_________________________________________________________________
conv2d_456 (Conv2D)          (None, 8, 8, 128)         73856     
_________________________________________________________________
activation_602 (Activation)  (None, 8, 8, 128)         0         
_________________________________________________________________
dropout_602 (Dropout)        (None, 8, 8, 128)         0         
_________________________________________________________________
conv2d_457 (Conv2D)          (None, 8, 8, 32)          36896     
_________________________________________________________________
batch_normalization_274 (Bat (None, 8, 8, 32)          128       
_________________________________________________________________
activation_603 (Activation)  (None, 8, 8, 32)          0         
_________________________________________________________________
dropout_603 (Dropout)        (None, 8, 8, 32)          0         
_________________________________________________________________
conv2d_458 (Conv2D)          (None, 8, 8, 1024)        295936    
_________________________________________________________________
activation_604 (Activation)  (None, 8, 8, 1024)        0         
_________________________________________________________________
dropout_604 (Dropout)        (None, 8, 8, 1024)        0         
_________________________________________________________________
conv2d_459 (Conv2D)          (None, 8, 8, 1024)        9438208   
_________________________________________________________________
batch_normalization_275 (Bat (None, 8, 8, 1024)        4096      
_________________________________________________________________
activation_605 (Activation)  (None, 8, 8, 1024)        0         
_________________________________________________________________
dropout_605 (Dropout)        (None, 8, 8, 1024)        0         
_________________________________________________________________
flatten_65 (Flatten)         (None, 65536)             0         
_________________________________________________________________
dense_211 (Dense)            (None, 64)                4194368   
_________________________________________________________________
batch_normalization_276 (Bat (None, 64)                256       
_________________________________________________________________
activation_606 (Activation)  (None, 64)                0         
_________________________________________________________________
dropout_606 (Dropout)        (None, 64)                0         
_________________________________________________________________
dense_212 (Dense)            (None, 10)                650       
=================================================================
Total params: 24,101,418
Trainable params: 24,099,050
Non-trainable params: 2,368
_________________________________________________________________
