Model: "sequential_47"
_________________________________________________________________
Layer (type)                 Output Shape              Param #   
=================================================================
conv2d_327 (Conv2D)          (None, 32, 32, 1024)      28672     
_________________________________________________________________
activation_443 (Activation)  (None, 32, 32, 1024)      0         
_________________________________________________________________
dropout_443 (Dropout)        (None, 32, 32, 1024)      0         
_________________________________________________________________
conv2d_328 (Conv2D)          (None, 32, 32, 1024)      9438208   
_________________________________________________________________
activation_444 (Activation)  (None, 32, 32, 1024)      0         
_________________________________________________________________
dropout_444 (Dropout)        (None, 32, 32, 1024)      0         
_________________________________________________________________
max_pooling2d_101 (MaxPoolin (None, 16, 16, 1024)      0         
_________________________________________________________________
conv2d_329 (Conv2D)          (None, 16, 16, 64)        589888    
_________________________________________________________________
batch_normalization_199 (Bat (None, 16, 16, 64)        256       
_________________________________________________________________
activation_445 (Activation)  (None, 16, 16, 64)        0         
_________________________________________________________________
dropout_445 (Dropout)        (None, 16, 16, 64)        0         
_________________________________________________________________
max_pooling2d_102 (MaxPoolin (None, 8, 8, 64)          0         
_________________________________________________________________
conv2d_330 (Conv2D)          (None, 8, 8, 128)         73856     
_________________________________________________________________
activation_446 (Activation)  (None, 8, 8, 128)         0         
_________________________________________________________________
dropout_446 (Dropout)        (None, 8, 8, 128)         0         
_________________________________________________________________
conv2d_331 (Conv2D)          (None, 8, 8, 32)          36896     
_________________________________________________________________
batch_normalization_200 (Bat (None, 8, 8, 32)          128       
_________________________________________________________________
activation_447 (Activation)  (None, 8, 8, 32)          0         
_________________________________________________________________
dropout_447 (Dropout)        (None, 8, 8, 32)          0         
_________________________________________________________________
conv2d_332 (Conv2D)          (None, 8, 8, 1024)        295936    
_________________________________________________________________
activation_448 (Activation)  (None, 8, 8, 1024)        0         
_________________________________________________________________
dropout_448 (Dropout)        (None, 8, 8, 1024)        0         
_________________________________________________________________
conv2d_333 (Conv2D)          (None, 8, 8, 1024)        9438208   
_________________________________________________________________
batch_normalization_201 (Bat (None, 8, 8, 1024)        4096      
_________________________________________________________________
activation_449 (Activation)  (None, 8, 8, 1024)        0         
_________________________________________________________________
dropout_449 (Dropout)        (None, 8, 8, 1024)        0         
_________________________________________________________________
flatten_47 (Flatten)         (None, 65536)             0         
_________________________________________________________________
dense_163 (Dense)            (None, 64)                4194368   
_________________________________________________________________
batch_normalization_202 (Bat (None, 64)                256       
_________________________________________________________________
activation_450 (Activation)  (None, 64)                0         
_________________________________________________________________
dropout_450 (Dropout)        (None, 64)                0         
_________________________________________________________________
dense_164 (Dense)            (None, 10)                650       
=================================================================
Total params: 24,101,418
Trainable params: 24,099,050
Non-trainable params: 2,368
_________________________________________________________________
