Model: "sequential_120"
_________________________________________________________________
Layer (type)                 Output Shape              Param #   
=================================================================
conv2d_836 (Conv2D)          (None, 32, 32, 1024)      28672     
_________________________________________________________________
activation_1071 (Activation) (None, 32, 32, 1024)      0         
_________________________________________________________________
dropout_1071 (Dropout)       (None, 32, 32, 1024)      0         
_________________________________________________________________
conv2d_837 (Conv2D)          (None, 32, 32, 1024)      9438208   
_________________________________________________________________
activation_1072 (Activation) (None, 32, 32, 1024)      0         
_________________________________________________________________
dropout_1072 (Dropout)       (None, 32, 32, 1024)      0         
_________________________________________________________________
max_pooling2d_254 (MaxPoolin (None, 16, 16, 1024)      0         
_________________________________________________________________
conv2d_838 (Conv2D)          (None, 16, 16, 64)        589888    
_________________________________________________________________
batch_normalization_508 (Bat (None, 16, 16, 64)        256       
_________________________________________________________________
activation_1073 (Activation) (None, 16, 16, 64)        0         
_________________________________________________________________
dropout_1073 (Dropout)       (None, 16, 16, 64)        0         
_________________________________________________________________
max_pooling2d_255 (MaxPoolin (None, 8, 8, 64)          0         
_________________________________________________________________
conv2d_839 (Conv2D)          (None, 8, 8, 128)         73856     
_________________________________________________________________
activation_1074 (Activation) (None, 8, 8, 128)         0         
_________________________________________________________________
dropout_1074 (Dropout)       (None, 8, 8, 128)         0         
_________________________________________________________________
conv2d_840 (Conv2D)          (None, 8, 8, 32)          36896     
_________________________________________________________________
batch_normalization_509 (Bat (None, 8, 8, 32)          128       
_________________________________________________________________
activation_1075 (Activation) (None, 8, 8, 32)          0         
_________________________________________________________________
dropout_1075 (Dropout)       (None, 8, 8, 32)          0         
_________________________________________________________________
conv2d_841 (Conv2D)          (None, 8, 8, 1024)        295936    
_________________________________________________________________
activation_1076 (Activation) (None, 8, 8, 1024)        0         
_________________________________________________________________
dropout_1076 (Dropout)       (None, 8, 8, 1024)        0         
_________________________________________________________________
conv2d_842 (Conv2D)          (None, 8, 8, 1024)        9438208   
_________________________________________________________________
batch_normalization_510 (Bat (None, 8, 8, 1024)        4096      
_________________________________________________________________
activation_1077 (Activation) (None, 8, 8, 1024)        0         
_________________________________________________________________
dropout_1077 (Dropout)       (None, 8, 8, 1024)        0         
_________________________________________________________________
flatten_120 (Flatten)        (None, 65536)             0         
_________________________________________________________________
dense_355 (Dense)            (None, 64)                4194368   
_________________________________________________________________
batch_normalization_511 (Bat (None, 64)                256       
_________________________________________________________________
activation_1078 (Activation) (None, 64)                0         
_________________________________________________________________
dropout_1078 (Dropout)       (None, 64)                0         
_________________________________________________________________
dense_356 (Dense)            (None, 10)                650       
=================================================================
Total params: 24,101,418
Trainable params: 24,099,050
Non-trainable params: 2,368
_________________________________________________________________
