Model: "sequential_111"
_________________________________________________________________
Layer (type)                 Output Shape              Param #   
=================================================================
conv2d_773 (Conv2D)          (None, 32, 32, 1024)      28672     
_________________________________________________________________
activation_993 (Activation)  (None, 32, 32, 1024)      0         
_________________________________________________________________
dropout_993 (Dropout)        (None, 32, 32, 1024)      0         
_________________________________________________________________
conv2d_774 (Conv2D)          (None, 32, 32, 1024)      9438208   
_________________________________________________________________
activation_994 (Activation)  (None, 32, 32, 1024)      0         
_________________________________________________________________
dropout_994 (Dropout)        (None, 32, 32, 1024)      0         
_________________________________________________________________
max_pooling2d_232 (MaxPoolin (None, 16, 16, 1024)      0         
_________________________________________________________________
conv2d_775 (Conv2D)          (None, 16, 16, 64)        589888    
_________________________________________________________________
batch_normalization_468 (Bat (None, 16, 16, 64)        256       
_________________________________________________________________
activation_995 (Activation)  (None, 16, 16, 64)        0         
_________________________________________________________________
dropout_995 (Dropout)        (None, 16, 16, 64)        0         
_________________________________________________________________
max_pooling2d_233 (MaxPoolin (None, 8, 8, 64)          0         
_________________________________________________________________
conv2d_776 (Conv2D)          (None, 8, 8, 128)         73856     
_________________________________________________________________
activation_996 (Activation)  (None, 8, 8, 128)         0         
_________________________________________________________________
dropout_996 (Dropout)        (None, 8, 8, 128)         0         
_________________________________________________________________
conv2d_777 (Conv2D)          (None, 8, 8, 32)          36896     
_________________________________________________________________
batch_normalization_469 (Bat (None, 8, 8, 32)          128       
_________________________________________________________________
activation_997 (Activation)  (None, 8, 8, 32)          0         
_________________________________________________________________
dropout_997 (Dropout)        (None, 8, 8, 32)          0         
_________________________________________________________________
conv2d_778 (Conv2D)          (None, 8, 8, 1024)        295936    
_________________________________________________________________
activation_998 (Activation)  (None, 8, 8, 1024)        0         
_________________________________________________________________
dropout_998 (Dropout)        (None, 8, 8, 1024)        0         
_________________________________________________________________
max_pooling2d_234 (MaxPoolin (None, 4, 4, 1024)        0         
_________________________________________________________________
conv2d_779 (Conv2D)          (None, 4, 4, 1024)        9438208   
_________________________________________________________________
batch_normalization_470 (Bat (None, 4, 4, 1024)        4096      
_________________________________________________________________
activation_999 (Activation)  (None, 4, 4, 1024)        0         
_________________________________________________________________
dropout_999 (Dropout)        (None, 4, 4, 1024)        0         
_________________________________________________________________
flatten_111 (Flatten)        (None, 16384)             0         
_________________________________________________________________
dense_331 (Dense)            (None, 64)                1048640   
_________________________________________________________________
batch_normalization_471 (Bat (None, 64)                256       
_________________________________________________________________
activation_1000 (Activation) (None, 64)                0         
_________________________________________________________________
dropout_1000 (Dropout)       (None, 64)                0         
_________________________________________________________________
dense_332 (Dense)            (None, 256)               16640     
_________________________________________________________________
activation_1001 (Activation) (None, 256)               0         
_________________________________________________________________
dropout_1001 (Dropout)       (None, 256)               0         
_________________________________________________________________
dense_333 (Dense)            (None, 10)                2570      
=================================================================
Total params: 20,974,250
Trainable params: 20,971,882
Non-trainable params: 2,368
_________________________________________________________________
