Model: "sequential_33"
_________________________________________________________________
Layer (type)                 Output Shape              Param #   
=================================================================
conv2d_230 (Conv2D)          (None, 32, 32, 1024)      28672     
_________________________________________________________________
activation_316 (Activation)  (None, 32, 32, 1024)      0         
_________________________________________________________________
dropout_316 (Dropout)        (None, 32, 32, 1024)      0         
_________________________________________________________________
conv2d_231 (Conv2D)          (None, 32, 32, 1024)      9438208   
_________________________________________________________________
activation_317 (Activation)  (None, 32, 32, 1024)      0         
_________________________________________________________________
dropout_317 (Dropout)        (None, 32, 32, 1024)      0         
_________________________________________________________________
max_pooling2d_72 (MaxPooling (None, 16, 16, 1024)      0         
_________________________________________________________________
conv2d_232 (Conv2D)          (None, 16, 16, 64)        589888    
_________________________________________________________________
batch_normalization_145 (Bat (None, 16, 16, 64)        256       
_________________________________________________________________
activation_318 (Activation)  (None, 16, 16, 64)        0         
_________________________________________________________________
dropout_318 (Dropout)        (None, 16, 16, 64)        0         
_________________________________________________________________
max_pooling2d_73 (MaxPooling (None, 8, 8, 64)          0         
_________________________________________________________________
conv2d_233 (Conv2D)          (None, 8, 8, 8)           4616      
_________________________________________________________________
activation_319 (Activation)  (None, 8, 8, 8)           0         
_________________________________________________________________
dropout_319 (Dropout)        (None, 8, 8, 8)           0         
_________________________________________________________________
conv2d_234 (Conv2D)          (None, 8, 8, 256)         18688     
_________________________________________________________________
batch_normalization_146 (Bat (None, 8, 8, 256)         1024      
_________________________________________________________________
activation_320 (Activation)  (None, 8, 8, 256)         0         
_________________________________________________________________
dropout_320 (Dropout)        (None, 8, 8, 256)         0         
_________________________________________________________________
conv2d_235 (Conv2D)          (None, 8, 8, 512)         1180160   
_________________________________________________________________
activation_321 (Activation)  (None, 8, 8, 512)         0         
_________________________________________________________________
dropout_321 (Dropout)        (None, 8, 8, 512)         0         
_________________________________________________________________
conv2d_236 (Conv2D)          (None, 8, 8, 32)          147488    
_________________________________________________________________
activation_322 (Activation)  (None, 8, 8, 32)          0         
_________________________________________________________________
dropout_322 (Dropout)        (None, 8, 8, 32)          0         
_________________________________________________________________
max_pooling2d_74 (MaxPooling (None, 4, 4, 32)          0         
_________________________________________________________________
flatten_33 (Flatten)         (None, 512)               0         
_________________________________________________________________
dense_119 (Dense)            (None, 256)               131328    
_________________________________________________________________
batch_normalization_147 (Bat (None, 256)               1024      
_________________________________________________________________
activation_323 (Activation)  (None, 256)               0         
_________________________________________________________________
dropout_323 (Dropout)        (None, 256)               0         
_________________________________________________________________
dense_120 (Dense)            (None, 16)                4112      
_________________________________________________________________
batch_normalization_148 (Bat (None, 16)                64        
_________________________________________________________________
activation_324 (Activation)  (None, 16)                0         
_________________________________________________________________
dropout_324 (Dropout)        (None, 16)                0         
_________________________________________________________________
dense_121 (Dense)            (None, 10)                170       
=================================================================
Total params: 11,545,698
Trainable params: 11,544,514
Non-trainable params: 1,184
_________________________________________________________________
