Model: "sequential_155"
_________________________________________________________________
Layer (type)                 Output Shape              Param #   
=================================================================
conv2d_1081 (Conv2D)         (None, 32, 32, 1024)      28672     
_________________________________________________________________
activation_1383 (Activation) (None, 32, 32, 1024)      0         
_________________________________________________________________
dropout_1383 (Dropout)       (None, 32, 32, 1024)      0         
_________________________________________________________________
conv2d_1082 (Conv2D)         (None, 32, 32, 1024)      9438208   
_________________________________________________________________
activation_1384 (Activation) (None, 32, 32, 1024)      0         
_________________________________________________________________
dropout_1384 (Dropout)       (None, 32, 32, 1024)      0         
_________________________________________________________________
max_pooling2d_338 (MaxPoolin (None, 16, 16, 1024)      0         
_________________________________________________________________
conv2d_1083 (Conv2D)         (None, 16, 16, 64)        589888    
_________________________________________________________________
batch_normalization_659 (Bat (None, 16, 16, 64)        256       
_________________________________________________________________
activation_1385 (Activation) (None, 16, 16, 64)        0         
_________________________________________________________________
dropout_1385 (Dropout)       (None, 16, 16, 64)        0         
_________________________________________________________________
max_pooling2d_339 (MaxPoolin (None, 8, 8, 64)          0         
_________________________________________________________________
conv2d_1084 (Conv2D)         (None, 8, 8, 128)         73856     
_________________________________________________________________
activation_1386 (Activation) (None, 8, 8, 128)         0         
_________________________________________________________________
dropout_1386 (Dropout)       (None, 8, 8, 128)         0         
_________________________________________________________________
conv2d_1085 (Conv2D)         (None, 8, 8, 32)          36896     
_________________________________________________________________
batch_normalization_660 (Bat (None, 8, 8, 32)          128       
_________________________________________________________________
activation_1387 (Activation) (None, 8, 8, 32)          0         
_________________________________________________________________
dropout_1387 (Dropout)       (None, 8, 8, 32)          0         
_________________________________________________________________
conv2d_1086 (Conv2D)         (None, 8, 8, 1024)        295936    
_________________________________________________________________
activation_1388 (Activation) (None, 8, 8, 1024)        0         
_________________________________________________________________
dropout_1388 (Dropout)       (None, 8, 8, 1024)        0         
_________________________________________________________________
conv2d_1087 (Conv2D)         (None, 8, 8, 1024)        9438208   
_________________________________________________________________
batch_normalization_661 (Bat (None, 8, 8, 1024)        4096      
_________________________________________________________________
activation_1389 (Activation) (None, 8, 8, 1024)        0         
_________________________________________________________________
dropout_1389 (Dropout)       (None, 8, 8, 1024)        0         
_________________________________________________________________
flatten_155 (Flatten)        (None, 65536)             0         
_________________________________________________________________
dense_457 (Dense)            (None, 64)                4194368   
_________________________________________________________________
batch_normalization_662 (Bat (None, 64)                256       
_________________________________________________________________
activation_1390 (Activation) (None, 64)                0         
_________________________________________________________________
dropout_1390 (Dropout)       (None, 64)                0         
_________________________________________________________________
dense_458 (Dense)            (None, 256)               16640     
_________________________________________________________________
activation_1391 (Activation) (None, 256)               0         
_________________________________________________________________
dropout_1391 (Dropout)       (None, 256)               0         
_________________________________________________________________
dense_459 (Dense)            (None, 10)                2570      
=================================================================
Total params: 24,119,978
Trainable params: 24,117,610
Non-trainable params: 2,368
_________________________________________________________________
