Model: "sequential_145"
_________________________________________________________________
Layer (type)                 Output Shape              Param #   
=================================================================
conv2d_1011 (Conv2D)         (None, 32, 32, 1024)      28672     
_________________________________________________________________
activation_1293 (Activation) (None, 32, 32, 1024)      0         
_________________________________________________________________
dropout_1293 (Dropout)       (None, 32, 32, 1024)      0         
_________________________________________________________________
conv2d_1012 (Conv2D)         (None, 32, 32, 1024)      9438208   
_________________________________________________________________
activation_1294 (Activation) (None, 32, 32, 1024)      0         
_________________________________________________________________
dropout_1294 (Dropout)       (None, 32, 32, 1024)      0         
_________________________________________________________________
max_pooling2d_314 (MaxPoolin (None, 16, 16, 1024)      0         
_________________________________________________________________
conv2d_1013 (Conv2D)         (None, 16, 16, 64)        589888    
_________________________________________________________________
batch_normalization_616 (Bat (None, 16, 16, 64)        256       
_________________________________________________________________
activation_1295 (Activation) (None, 16, 16, 64)        0         
_________________________________________________________________
dropout_1295 (Dropout)       (None, 16, 16, 64)        0         
_________________________________________________________________
max_pooling2d_315 (MaxPoolin (None, 8, 8, 64)          0         
_________________________________________________________________
conv2d_1014 (Conv2D)         (None, 8, 8, 128)         73856     
_________________________________________________________________
activation_1296 (Activation) (None, 8, 8, 128)         0         
_________________________________________________________________
dropout_1296 (Dropout)       (None, 8, 8, 128)         0         
_________________________________________________________________
conv2d_1015 (Conv2D)         (None, 8, 8, 32)          36896     
_________________________________________________________________
batch_normalization_617 (Bat (None, 8, 8, 32)          128       
_________________________________________________________________
activation_1297 (Activation) (None, 8, 8, 32)          0         
_________________________________________________________________
dropout_1297 (Dropout)       (None, 8, 8, 32)          0         
_________________________________________________________________
conv2d_1016 (Conv2D)         (None, 8, 8, 1024)        295936    
_________________________________________________________________
activation_1298 (Activation) (None, 8, 8, 1024)        0         
_________________________________________________________________
dropout_1298 (Dropout)       (None, 8, 8, 1024)        0         
_________________________________________________________________
conv2d_1017 (Conv2D)         (None, 8, 8, 1024)        9438208   
_________________________________________________________________
batch_normalization_618 (Bat (None, 8, 8, 1024)        4096      
_________________________________________________________________
activation_1299 (Activation) (None, 8, 8, 1024)        0         
_________________________________________________________________
dropout_1299 (Dropout)       (None, 8, 8, 1024)        0         
_________________________________________________________________
flatten_145 (Flatten)        (None, 65536)             0         
_________________________________________________________________
dense_427 (Dense)            (None, 64)                4194368   
_________________________________________________________________
batch_normalization_619 (Bat (None, 64)                256       
_________________________________________________________________
activation_1300 (Activation) (None, 64)                0         
_________________________________________________________________
dropout_1300 (Dropout)       (None, 64)                0         
_________________________________________________________________
dense_428 (Dense)            (None, 256)               16640     
_________________________________________________________________
activation_1301 (Activation) (None, 256)               0         
_________________________________________________________________
dropout_1301 (Dropout)       (None, 256)               0         
_________________________________________________________________
dense_429 (Dense)            (None, 10)                2570      
=================================================================
Total params: 24,119,978
Trainable params: 24,117,610
Non-trainable params: 2,368
_________________________________________________________________
