Model: "sequential_158"
_________________________________________________________________
Layer (type)                 Output Shape              Param #   
=================================================================
conv2d_1102 (Conv2D)         (None, 32, 32, 1024)      28672     
_________________________________________________________________
activation_1410 (Activation) (None, 32, 32, 1024)      0         
_________________________________________________________________
dropout_1410 (Dropout)       (None, 32, 32, 1024)      0         
_________________________________________________________________
conv2d_1103 (Conv2D)         (None, 32, 32, 1024)      9438208   
_________________________________________________________________
activation_1411 (Activation) (None, 32, 32, 1024)      0         
_________________________________________________________________
dropout_1411 (Dropout)       (None, 32, 32, 1024)      0         
_________________________________________________________________
max_pooling2d_345 (MaxPoolin (None, 16, 16, 1024)      0         
_________________________________________________________________
conv2d_1104 (Conv2D)         (None, 16, 16, 64)        589888    
_________________________________________________________________
batch_normalization_673 (Bat (None, 16, 16, 64)        256       
_________________________________________________________________
activation_1412 (Activation) (None, 16, 16, 64)        0         
_________________________________________________________________
dropout_1412 (Dropout)       (None, 16, 16, 64)        0         
_________________________________________________________________
max_pooling2d_346 (MaxPoolin (None, 8, 8, 64)          0         
_________________________________________________________________
conv2d_1105 (Conv2D)         (None, 8, 8, 128)         73856     
_________________________________________________________________
activation_1413 (Activation) (None, 8, 8, 128)         0         
_________________________________________________________________
dropout_1413 (Dropout)       (None, 8, 8, 128)         0         
_________________________________________________________________
conv2d_1106 (Conv2D)         (None, 8, 8, 32)          36896     
_________________________________________________________________
batch_normalization_674 (Bat (None, 8, 8, 32)          128       
_________________________________________________________________
activation_1414 (Activation) (None, 8, 8, 32)          0         
_________________________________________________________________
dropout_1414 (Dropout)       (None, 8, 8, 32)          0         
_________________________________________________________________
conv2d_1107 (Conv2D)         (None, 8, 8, 1024)        295936    
_________________________________________________________________
activation_1415 (Activation) (None, 8, 8, 1024)        0         
_________________________________________________________________
dropout_1415 (Dropout)       (None, 8, 8, 1024)        0         
_________________________________________________________________
max_pooling2d_347 (MaxPoolin (None, 4, 4, 1024)        0         
_________________________________________________________________
conv2d_1108 (Conv2D)         (None, 4, 4, 1024)        9438208   
_________________________________________________________________
batch_normalization_675 (Bat (None, 4, 4, 1024)        4096      
_________________________________________________________________
activation_1416 (Activation) (None, 4, 4, 1024)        0         
_________________________________________________________________
dropout_1416 (Dropout)       (None, 4, 4, 1024)        0         
_________________________________________________________________
flatten_158 (Flatten)        (None, 16384)             0         
_________________________________________________________________
dense_466 (Dense)            (None, 64)                1048640   
_________________________________________________________________
batch_normalization_676 (Bat (None, 64)                256       
_________________________________________________________________
activation_1417 (Activation) (None, 64)                0         
_________________________________________________________________
dropout_1417 (Dropout)       (None, 64)                0         
_________________________________________________________________
dense_467 (Dense)            (None, 256)               16640     
_________________________________________________________________
activation_1418 (Activation) (None, 256)               0         
_________________________________________________________________
dropout_1418 (Dropout)       (None, 256)               0         
_________________________________________________________________
dense_468 (Dense)            (None, 10)                2570      
=================================================================
Total params: 20,974,250
Trainable params: 20,971,882
Non-trainable params: 2,368
_________________________________________________________________
