Model: "sequential_175"
_________________________________________________________________
Layer (type)                 Output Shape              Param #   
=================================================================
conv2d_1225 (Conv2D)         (None, 32, 32, 1024)      28672     
_________________________________________________________________
activation_1567 (Activation) (None, 32, 32, 1024)      0         
_________________________________________________________________
dropout_1567 (Dropout)       (None, 32, 32, 1024)      0         
_________________________________________________________________
conv2d_1226 (Conv2D)         (None, 32, 32, 1024)      9438208   
_________________________________________________________________
activation_1568 (Activation) (None, 32, 32, 1024)      0         
_________________________________________________________________
dropout_1568 (Dropout)       (None, 32, 32, 1024)      0         
_________________________________________________________________
max_pooling2d_386 (MaxPoolin (None, 16, 16, 1024)      0         
_________________________________________________________________
conv2d_1227 (Conv2D)         (None, 16, 16, 64)        589888    
_________________________________________________________________
batch_normalization_754 (Bat (None, 16, 16, 64)        256       
_________________________________________________________________
activation_1569 (Activation) (None, 16, 16, 64)        0         
_________________________________________________________________
dropout_1569 (Dropout)       (None, 16, 16, 64)        0         
_________________________________________________________________
max_pooling2d_387 (MaxPoolin (None, 8, 8, 64)          0         
_________________________________________________________________
conv2d_1228 (Conv2D)         (None, 8, 8, 128)         73856     
_________________________________________________________________
activation_1570 (Activation) (None, 8, 8, 128)         0         
_________________________________________________________________
dropout_1570 (Dropout)       (None, 8, 8, 128)         0         
_________________________________________________________________
conv2d_1229 (Conv2D)         (None, 8, 8, 32)          36896     
_________________________________________________________________
batch_normalization_755 (Bat (None, 8, 8, 32)          128       
_________________________________________________________________
activation_1571 (Activation) (None, 8, 8, 32)          0         
_________________________________________________________________
dropout_1571 (Dropout)       (None, 8, 8, 32)          0         
_________________________________________________________________
conv2d_1230 (Conv2D)         (None, 8, 8, 1024)        295936    
_________________________________________________________________
activation_1572 (Activation) (None, 8, 8, 1024)        0         
_________________________________________________________________
dropout_1572 (Dropout)       (None, 8, 8, 1024)        0         
_________________________________________________________________
conv2d_1231 (Conv2D)         (None, 8, 8, 1024)        9438208   
_________________________________________________________________
batch_normalization_756 (Bat (None, 8, 8, 1024)        4096      
_________________________________________________________________
activation_1573 (Activation) (None, 8, 8, 1024)        0         
_________________________________________________________________
dropout_1573 (Dropout)       (None, 8, 8, 1024)        0         
_________________________________________________________________
flatten_175 (Flatten)        (None, 65536)             0         
_________________________________________________________________
dense_517 (Dense)            (None, 64)                4194368   
_________________________________________________________________
batch_normalization_757 (Bat (None, 64)                256       
_________________________________________________________________
activation_1574 (Activation) (None, 64)                0         
_________________________________________________________________
dropout_1574 (Dropout)       (None, 64)                0         
_________________________________________________________________
dense_518 (Dense)            (None, 256)               16640     
_________________________________________________________________
activation_1575 (Activation) (None, 256)               0         
_________________________________________________________________
dropout_1575 (Dropout)       (None, 256)               0         
_________________________________________________________________
dense_519 (Dense)            (None, 10)                2570      
=================================================================
Total params: 24,119,978
Trainable params: 24,117,610
Non-trainable params: 2,368
_________________________________________________________________
