Model: "sequential_12"
_________________________________________________________________
Layer (type)                 Output Shape              Param #   
=================================================================
conv2d_91 (Conv2D)           (None, 32, 32, 1024)      28672     
_________________________________________________________________
activation_124 (Activation)  (None, 32, 32, 1024)      0         
_________________________________________________________________
dropout_124 (Dropout)        (None, 32, 32, 1024)      0         
_________________________________________________________________
conv2d_92 (Conv2D)           (None, 32, 32, 1024)      9438208   
_________________________________________________________________
activation_125 (Activation)  (None, 32, 32, 1024)      0         
_________________________________________________________________
dropout_125 (Dropout)        (None, 32, 32, 1024)      0         
_________________________________________________________________
max_pooling2d_31 (MaxPooling (None, 16, 16, 1024)      0         
_________________________________________________________________
conv2d_93 (Conv2D)           (None, 16, 16, 64)        589888    
_________________________________________________________________
batch_normalization_60 (Batc (None, 16, 16, 64)        256       
_________________________________________________________________
activation_126 (Activation)  (None, 16, 16, 64)        0         
_________________________________________________________________
dropout_126 (Dropout)        (None, 16, 16, 64)        0         
_________________________________________________________________
max_pooling2d_32 (MaxPooling (None, 8, 8, 64)          0         
_________________________________________________________________
conv2d_94 (Conv2D)           (None, 8, 8, 128)         73856     
_________________________________________________________________
activation_127 (Activation)  (None, 8, 8, 128)         0         
_________________________________________________________________
dropout_127 (Dropout)        (None, 8, 8, 128)         0         
_________________________________________________________________
conv2d_95 (Conv2D)           (None, 8, 8, 32)          36896     
_________________________________________________________________
batch_normalization_61 (Batc (None, 8, 8, 32)          128       
_________________________________________________________________
activation_128 (Activation)  (None, 8, 8, 32)          0         
_________________________________________________________________
dropout_128 (Dropout)        (None, 8, 8, 32)          0         
_________________________________________________________________
conv2d_96 (Conv2D)           (None, 8, 8, 1024)        295936    
_________________________________________________________________
activation_129 (Activation)  (None, 8, 8, 1024)        0         
_________________________________________________________________
dropout_129 (Dropout)        (None, 8, 8, 1024)        0         
_________________________________________________________________
conv2d_97 (Conv2D)           (None, 8, 8, 1024)        9438208   
_________________________________________________________________
batch_normalization_62 (Batc (None, 8, 8, 1024)        4096      
_________________________________________________________________
activation_130 (Activation)  (None, 8, 8, 1024)        0         
_________________________________________________________________
dropout_130 (Dropout)        (None, 8, 8, 1024)        0         
_________________________________________________________________
flatten_12 (Flatten)         (None, 65536)             0         
_________________________________________________________________
dense_45 (Dense)             (None, 16)                1048592   
_________________________________________________________________
batch_normalization_63 (Batc (None, 16)                64        
_________________________________________________________________
activation_131 (Activation)  (None, 16)                0         
_________________________________________________________________
dropout_131 (Dropout)        (None, 16)                0         
_________________________________________________________________
dense_46 (Dense)             (None, 256)               4352      
_________________________________________________________________
activation_132 (Activation)  (None, 256)               0         
_________________________________________________________________
dropout_132 (Dropout)        (None, 256)               0         
_________________________________________________________________
dense_47 (Dense)             (None, 16)                4112      
_________________________________________________________________
activation_133 (Activation)  (None, 16)                0         
_________________________________________________________________
dropout_133 (Dropout)        (None, 16)                0         
_________________________________________________________________
dense_48 (Dense)             (None, 10)                170       
=================================================================
Total params: 20,963,434
Trainable params: 20,961,162
Non-trainable params: 2,272
_________________________________________________________________
