Model: "sequential_177"
_________________________________________________________________
Layer (type)                 Output Shape              Param #   
=================================================================
conv2d_1240 (Conv2D)         (None, 32, 32, 1024)      28672     
_________________________________________________________________
activation_1586 (Activation) (None, 32, 32, 1024)      0         
_________________________________________________________________
dropout_1586 (Dropout)       (None, 32, 32, 1024)      0         
_________________________________________________________________
conv2d_1241 (Conv2D)         (None, 32, 32, 1024)      9438208   
_________________________________________________________________
activation_1587 (Activation) (None, 32, 32, 1024)      0         
_________________________________________________________________
dropout_1587 (Dropout)       (None, 32, 32, 1024)      0         
_________________________________________________________________
max_pooling2d_390 (MaxPoolin (None, 16, 16, 1024)      0         
_________________________________________________________________
conv2d_1242 (Conv2D)         (None, 16, 16, 64)        589888    
_________________________________________________________________
batch_normalization_764 (Bat (None, 16, 16, 64)        256       
_________________________________________________________________
activation_1588 (Activation) (None, 16, 16, 64)        0         
_________________________________________________________________
dropout_1588 (Dropout)       (None, 16, 16, 64)        0         
_________________________________________________________________
max_pooling2d_391 (MaxPoolin (None, 8, 8, 64)          0         
_________________________________________________________________
conv2d_1243 (Conv2D)         (None, 8, 8, 128)         73856     
_________________________________________________________________
activation_1589 (Activation) (None, 8, 8, 128)         0         
_________________________________________________________________
dropout_1589 (Dropout)       (None, 8, 8, 128)         0         
_________________________________________________________________
conv2d_1244 (Conv2D)         (None, 8, 8, 32)          36896     
_________________________________________________________________
batch_normalization_765 (Bat (None, 8, 8, 32)          128       
_________________________________________________________________
activation_1590 (Activation) (None, 8, 8, 32)          0         
_________________________________________________________________
dropout_1590 (Dropout)       (None, 8, 8, 32)          0         
_________________________________________________________________
conv2d_1245 (Conv2D)         (None, 8, 8, 1024)        295936    
_________________________________________________________________
activation_1591 (Activation) (None, 8, 8, 1024)        0         
_________________________________________________________________
dropout_1591 (Dropout)       (None, 8, 8, 1024)        0         
_________________________________________________________________
conv2d_1246 (Conv2D)         (None, 8, 8, 1024)        9438208   
_________________________________________________________________
batch_normalization_766 (Bat (None, 8, 8, 1024)        4096      
_________________________________________________________________
activation_1592 (Activation) (None, 8, 8, 1024)        0         
_________________________________________________________________
dropout_1592 (Dropout)       (None, 8, 8, 1024)        0         
_________________________________________________________________
flatten_177 (Flatten)        (None, 65536)             0         
_________________________________________________________________
dense_523 (Dense)            (None, 64)                4194368   
_________________________________________________________________
batch_normalization_767 (Bat (None, 64)                256       
_________________________________________________________________
activation_1593 (Activation) (None, 64)                0         
_________________________________________________________________
dropout_1593 (Dropout)       (None, 64)                0         
_________________________________________________________________
dense_524 (Dense)            (None, 256)               16640     
_________________________________________________________________
activation_1594 (Activation) (None, 256)               0         
_________________________________________________________________
dropout_1594 (Dropout)       (None, 256)               0         
_________________________________________________________________
dense_525 (Dense)            (None, 10)                2570      
=================================================================
Total params: 24,119,978
Trainable params: 24,117,610
Non-trainable params: 2,368
_________________________________________________________________
