Model: "sequential_5"
_________________________________________________________________
Layer (type)                 Output Shape              Param #   
=================================================================
conv2d_38 (Conv2D)           (None, 32, 32, 1024)      28672     
_________________________________________________________________
activation_51 (Activation)   (None, 32, 32, 1024)      0         
_________________________________________________________________
dropout_51 (Dropout)         (None, 32, 32, 1024)      0         
_________________________________________________________________
conv2d_39 (Conv2D)           (None, 32, 32, 1024)      9438208   
_________________________________________________________________
activation_52 (Activation)   (None, 32, 32, 1024)      0         
_________________________________________________________________
dropout_52 (Dropout)         (None, 32, 32, 1024)      0         
_________________________________________________________________
max_pooling2d_13 (MaxPooling (None, 16, 16, 1024)      0         
_________________________________________________________________
conv2d_40 (Conv2D)           (None, 16, 16, 64)        589888    
_________________________________________________________________
batch_normalization_22 (Batc (None, 16, 16, 64)        256       
_________________________________________________________________
activation_53 (Activation)   (None, 16, 16, 64)        0         
_________________________________________________________________
dropout_53 (Dropout)         (None, 16, 16, 64)        0         
_________________________________________________________________
max_pooling2d_14 (MaxPooling (None, 8, 8, 64)          0         
_________________________________________________________________
conv2d_41 (Conv2D)           (None, 8, 8, 128)         73856     
_________________________________________________________________
activation_54 (Activation)   (None, 8, 8, 128)         0         
_________________________________________________________________
dropout_54 (Dropout)         (None, 8, 8, 128)         0         
_________________________________________________________________
conv2d_42 (Conv2D)           (None, 8, 8, 32)          36896     
_________________________________________________________________
batch_normalization_23 (Batc (None, 8, 8, 32)          128       
_________________________________________________________________
activation_55 (Activation)   (None, 8, 8, 32)          0         
_________________________________________________________________
dropout_55 (Dropout)         (None, 8, 8, 32)          0         
_________________________________________________________________
conv2d_43 (Conv2D)           (None, 8, 8, 1024)        295936    
_________________________________________________________________
activation_56 (Activation)   (None, 8, 8, 1024)        0         
_________________________________________________________________
dropout_56 (Dropout)         (None, 8, 8, 1024)        0         
_________________________________________________________________
conv2d_44 (Conv2D)           (None, 8, 8, 1024)        9438208   
_________________________________________________________________
batch_normalization_24 (Batc (None, 8, 8, 1024)        4096      
_________________________________________________________________
activation_57 (Activation)   (None, 8, 8, 1024)        0         
_________________________________________________________________
dropout_57 (Dropout)         (None, 8, 8, 1024)        0         
_________________________________________________________________
flatten_5 (Flatten)          (None, 65536)             0         
_________________________________________________________________
dense_18 (Dense)             (None, 64)                4194368   
_________________________________________________________________
batch_normalization_25 (Batc (None, 64)                256       
_________________________________________________________________
activation_58 (Activation)   (None, 64)                0         
_________________________________________________________________
dropout_58 (Dropout)         (None, 64)                0         
_________________________________________________________________
dense_19 (Dense)             (None, 256)               16640     
_________________________________________________________________
activation_59 (Activation)   (None, 256)               0         
_________________________________________________________________
dropout_59 (Dropout)         (None, 256)               0         
_________________________________________________________________
dense_20 (Dense)             (None, 16)                4112      
_________________________________________________________________
activation_60 (Activation)   (None, 16)                0         
_________________________________________________________________
dropout_60 (Dropout)         (None, 16)                0         
_________________________________________________________________
dense_21 (Dense)             (None, 10)                170       
=================================================================
Total params: 24,121,690
Trainable params: 24,119,322
Non-trainable params: 2,368
_________________________________________________________________
