Model: "sequential_144"
_________________________________________________________________
Layer (type)                 Output Shape              Param #   
=================================================================
conv2d_1004 (Conv2D)         (None, 32, 32, 1024)      28672     
_________________________________________________________________
activation_1284 (Activation) (None, 32, 32, 1024)      0         
_________________________________________________________________
dropout_1284 (Dropout)       (None, 32, 32, 1024)      0         
_________________________________________________________________
conv2d_1005 (Conv2D)         (None, 32, 32, 1024)      9438208   
_________________________________________________________________
activation_1285 (Activation) (None, 32, 32, 1024)      0         
_________________________________________________________________
dropout_1285 (Dropout)       (None, 32, 32, 1024)      0         
_________________________________________________________________
max_pooling2d_311 (MaxPoolin (None, 16, 16, 1024)      0         
_________________________________________________________________
conv2d_1006 (Conv2D)         (None, 16, 16, 64)        589888    
_________________________________________________________________
batch_normalization_612 (Bat (None, 16, 16, 64)        256       
_________________________________________________________________
activation_1286 (Activation) (None, 16, 16, 64)        0         
_________________________________________________________________
dropout_1286 (Dropout)       (None, 16, 16, 64)        0         
_________________________________________________________________
max_pooling2d_312 (MaxPoolin (None, 8, 8, 64)          0         
_________________________________________________________________
conv2d_1007 (Conv2D)         (None, 8, 8, 128)         73856     
_________________________________________________________________
activation_1287 (Activation) (None, 8, 8, 128)         0         
_________________________________________________________________
dropout_1287 (Dropout)       (None, 8, 8, 128)         0         
_________________________________________________________________
conv2d_1008 (Conv2D)         (None, 8, 8, 32)          36896     
_________________________________________________________________
batch_normalization_613 (Bat (None, 8, 8, 32)          128       
_________________________________________________________________
activation_1288 (Activation) (None, 8, 8, 32)          0         
_________________________________________________________________
dropout_1288 (Dropout)       (None, 8, 8, 32)          0         
_________________________________________________________________
conv2d_1009 (Conv2D)         (None, 8, 8, 1024)        295936    
_________________________________________________________________
activation_1289 (Activation) (None, 8, 8, 1024)        0         
_________________________________________________________________
dropout_1289 (Dropout)       (None, 8, 8, 1024)        0         
_________________________________________________________________
max_pooling2d_313 (MaxPoolin (None, 4, 4, 1024)        0         
_________________________________________________________________
conv2d_1010 (Conv2D)         (None, 4, 4, 1024)        9438208   
_________________________________________________________________
batch_normalization_614 (Bat (None, 4, 4, 1024)        4096      
_________________________________________________________________
activation_1290 (Activation) (None, 4, 4, 1024)        0         
_________________________________________________________________
dropout_1290 (Dropout)       (None, 4, 4, 1024)        0         
_________________________________________________________________
flatten_144 (Flatten)        (None, 16384)             0         
_________________________________________________________________
dense_424 (Dense)            (None, 64)                1048640   
_________________________________________________________________
batch_normalization_615 (Bat (None, 64)                256       
_________________________________________________________________
activation_1291 (Activation) (None, 64)                0         
_________________________________________________________________
dropout_1291 (Dropout)       (None, 64)                0         
_________________________________________________________________
dense_425 (Dense)            (None, 256)               16640     
_________________________________________________________________
activation_1292 (Activation) (None, 256)               0         
_________________________________________________________________
dropout_1292 (Dropout)       (None, 256)               0         
_________________________________________________________________
dense_426 (Dense)            (None, 10)                2570      
=================================================================
Total params: 20,974,250
Trainable params: 20,971,882
Non-trainable params: 2,368
_________________________________________________________________
