Model: "sequential_128"
_________________________________________________________________
Layer (type)                 Output Shape              Param #   
=================================================================
conv2d_892 (Conv2D)          (None, 32, 32, 1024)      28672     
_________________________________________________________________
batch_normalization_542 (Bat (None, 32, 32, 1024)      4096      
_________________________________________________________________
activation_1142 (Activation) (None, 32, 32, 1024)      0         
_________________________________________________________________
dropout_1142 (Dropout)       (None, 32, 32, 1024)      0         
_________________________________________________________________
conv2d_893 (Conv2D)          (None, 32, 32, 1024)      9438208   
_________________________________________________________________
activation_1143 (Activation) (None, 32, 32, 1024)      0         
_________________________________________________________________
dropout_1143 (Dropout)       (None, 32, 32, 1024)      0         
_________________________________________________________________
max_pooling2d_274 (MaxPoolin (None, 16, 16, 1024)      0         
_________________________________________________________________
conv2d_894 (Conv2D)          (None, 16, 16, 64)        589888    
_________________________________________________________________
batch_normalization_543 (Bat (None, 16, 16, 64)        256       
_________________________________________________________________
activation_1144 (Activation) (None, 16, 16, 64)        0         
_________________________________________________________________
dropout_1144 (Dropout)       (None, 16, 16, 64)        0         
_________________________________________________________________
max_pooling2d_275 (MaxPoolin (None, 8, 8, 64)          0         
_________________________________________________________________
conv2d_895 (Conv2D)          (None, 8, 8, 128)         73856     
_________________________________________________________________
activation_1145 (Activation) (None, 8, 8, 128)         0         
_________________________________________________________________
dropout_1145 (Dropout)       (None, 8, 8, 128)         0         
_________________________________________________________________
conv2d_896 (Conv2D)          (None, 8, 8, 32)          36896     
_________________________________________________________________
batch_normalization_544 (Bat (None, 8, 8, 32)          128       
_________________________________________________________________
activation_1146 (Activation) (None, 8, 8, 32)          0         
_________________________________________________________________
dropout_1146 (Dropout)       (None, 8, 8, 32)          0         
_________________________________________________________________
conv2d_897 (Conv2D)          (None, 8, 8, 1024)        295936    
_________________________________________________________________
activation_1147 (Activation) (None, 8, 8, 1024)        0         
_________________________________________________________________
dropout_1147 (Dropout)       (None, 8, 8, 1024)        0         
_________________________________________________________________
conv2d_898 (Conv2D)          (None, 8, 8, 1024)        9438208   
_________________________________________________________________
batch_normalization_545 (Bat (None, 8, 8, 1024)        4096      
_________________________________________________________________
activation_1148 (Activation) (None, 8, 8, 1024)        0         
_________________________________________________________________
dropout_1148 (Dropout)       (None, 8, 8, 1024)        0         
_________________________________________________________________
flatten_128 (Flatten)        (None, 65536)             0         
_________________________________________________________________
dense_378 (Dense)            (None, 64)                4194368   
_________________________________________________________________
batch_normalization_546 (Bat (None, 64)                256       
_________________________________________________________________
activation_1149 (Activation) (None, 64)                0         
_________________________________________________________________
dropout_1149 (Dropout)       (None, 64)                0         
_________________________________________________________________
dense_379 (Dense)            (None, 256)               16640     
_________________________________________________________________
activation_1150 (Activation) (None, 256)               0         
_________________________________________________________________
dropout_1150 (Dropout)       (None, 256)               0         
_________________________________________________________________
dense_380 (Dense)            (None, 10)                2570      
=================================================================
Total params: 24,124,074
Trainable params: 24,119,658
Non-trainable params: 4,416
_________________________________________________________________
