Model: "sequential_60"
_________________________________________________________________
Layer (type)                 Output Shape              Param #   
=================================================================
conv2d_418 (Conv2D)          (None, 32, 32, 1024)      28672     
_________________________________________________________________
activation_556 (Activation)  (None, 32, 32, 1024)      0         
_________________________________________________________________
dropout_556 (Dropout)        (None, 32, 32, 1024)      0         
_________________________________________________________________
conv2d_419 (Conv2D)          (None, 32, 32, 1024)      9438208   
_________________________________________________________________
activation_557 (Activation)  (None, 32, 32, 1024)      0         
_________________________________________________________________
dropout_557 (Dropout)        (None, 32, 32, 1024)      0         
_________________________________________________________________
max_pooling2d_127 (MaxPoolin (None, 16, 16, 1024)      0         
_________________________________________________________________
conv2d_420 (Conv2D)          (None, 16, 16, 64)        589888    
_________________________________________________________________
batch_normalization_252 (Bat (None, 16, 16, 64)        256       
_________________________________________________________________
activation_558 (Activation)  (None, 16, 16, 64)        0         
_________________________________________________________________
dropout_558 (Dropout)        (None, 16, 16, 64)        0         
_________________________________________________________________
max_pooling2d_128 (MaxPoolin (None, 8, 8, 64)          0         
_________________________________________________________________
conv2d_421 (Conv2D)          (None, 8, 8, 128)         73856     
_________________________________________________________________
activation_559 (Activation)  (None, 8, 8, 128)         0         
_________________________________________________________________
dropout_559 (Dropout)        (None, 8, 8, 128)         0         
_________________________________________________________________
conv2d_422 (Conv2D)          (None, 8, 8, 32)          36896     
_________________________________________________________________
batch_normalization_253 (Bat (None, 8, 8, 32)          128       
_________________________________________________________________
activation_560 (Activation)  (None, 8, 8, 32)          0         
_________________________________________________________________
dropout_560 (Dropout)        (None, 8, 8, 32)          0         
_________________________________________________________________
conv2d_423 (Conv2D)          (None, 8, 8, 1024)        295936    
_________________________________________________________________
activation_561 (Activation)  (None, 8, 8, 1024)        0         
_________________________________________________________________
dropout_561 (Dropout)        (None, 8, 8, 1024)        0         
_________________________________________________________________
conv2d_424 (Conv2D)          (None, 8, 8, 1024)        9438208   
_________________________________________________________________
batch_normalization_254 (Bat (None, 8, 8, 1024)        4096      
_________________________________________________________________
activation_562 (Activation)  (None, 8, 8, 1024)        0         
_________________________________________________________________
dropout_562 (Dropout)        (None, 8, 8, 1024)        0         
_________________________________________________________________
flatten_60 (Flatten)         (None, 65536)             0         
_________________________________________________________________
dense_198 (Dense)            (None, 256)               16777472  
_________________________________________________________________
batch_normalization_255 (Bat (None, 256)               1024      
_________________________________________________________________
activation_563 (Activation)  (None, 256)               0         
_________________________________________________________________
dropout_563 (Dropout)        (None, 256)               0         
_________________________________________________________________
dense_199 (Dense)            (None, 256)               65792     
_________________________________________________________________
activation_564 (Activation)  (None, 256)               0         
_________________________________________________________________
dropout_564 (Dropout)        (None, 256)               0         
_________________________________________________________________
dense_200 (Dense)            (None, 10)                2570      
=================================================================
Total params: 36,753,002
Trainable params: 36,750,250
Non-trainable params: 2,752
_________________________________________________________________
