Model: "sequential_173"
_________________________________________________________________
Layer (type)                 Output Shape              Param #   
=================================================================
conv2d_1211 (Conv2D)         (None, 32, 32, 1024)      28672     
_________________________________________________________________
activation_1549 (Activation) (None, 32, 32, 1024)      0         
_________________________________________________________________
dropout_1549 (Dropout)       (None, 32, 32, 1024)      0         
_________________________________________________________________
conv2d_1212 (Conv2D)         (None, 32, 32, 1024)      9438208   
_________________________________________________________________
activation_1550 (Activation) (None, 32, 32, 1024)      0         
_________________________________________________________________
dropout_1550 (Dropout)       (None, 32, 32, 1024)      0         
_________________________________________________________________
max_pooling2d_380 (MaxPoolin (None, 16, 16, 1024)      0         
_________________________________________________________________
conv2d_1213 (Conv2D)         (None, 16, 16, 64)        589888    
_________________________________________________________________
batch_normalization_746 (Bat (None, 16, 16, 64)        256       
_________________________________________________________________
activation_1551 (Activation) (None, 16, 16, 64)        0         
_________________________________________________________________
dropout_1551 (Dropout)       (None, 16, 16, 64)        0         
_________________________________________________________________
max_pooling2d_381 (MaxPoolin (None, 8, 8, 64)          0         
_________________________________________________________________
conv2d_1214 (Conv2D)         (None, 8, 8, 128)         73856     
_________________________________________________________________
activation_1552 (Activation) (None, 8, 8, 128)         0         
_________________________________________________________________
dropout_1552 (Dropout)       (None, 8, 8, 128)         0         
_________________________________________________________________
conv2d_1215 (Conv2D)         (None, 8, 8, 32)          36896     
_________________________________________________________________
batch_normalization_747 (Bat (None, 8, 8, 32)          128       
_________________________________________________________________
activation_1553 (Activation) (None, 8, 8, 32)          0         
_________________________________________________________________
dropout_1553 (Dropout)       (None, 8, 8, 32)          0         
_________________________________________________________________
conv2d_1216 (Conv2D)         (None, 8, 8, 1024)        295936    
_________________________________________________________________
activation_1554 (Activation) (None, 8, 8, 1024)        0         
_________________________________________________________________
dropout_1554 (Dropout)       (None, 8, 8, 1024)        0         
_________________________________________________________________
max_pooling2d_382 (MaxPoolin (None, 4, 4, 1024)        0         
_________________________________________________________________
conv2d_1217 (Conv2D)         (None, 4, 4, 1024)        9438208   
_________________________________________________________________
batch_normalization_748 (Bat (None, 4, 4, 1024)        4096      
_________________________________________________________________
activation_1555 (Activation) (None, 4, 4, 1024)        0         
_________________________________________________________________
dropout_1555 (Dropout)       (None, 4, 4, 1024)        0         
_________________________________________________________________
flatten_173 (Flatten)        (None, 16384)             0         
_________________________________________________________________
dense_511 (Dense)            (None, 64)                1048640   
_________________________________________________________________
batch_normalization_749 (Bat (None, 64)                256       
_________________________________________________________________
activation_1556 (Activation) (None, 64)                0         
_________________________________________________________________
dropout_1556 (Dropout)       (None, 64)                0         
_________________________________________________________________
dense_512 (Dense)            (None, 256)               16640     
_________________________________________________________________
activation_1557 (Activation) (None, 256)               0         
_________________________________________________________________
dropout_1557 (Dropout)       (None, 256)               0         
_________________________________________________________________
dense_513 (Dense)            (None, 10)                2570      
=================================================================
Total params: 20,974,250
Trainable params: 20,971,882
Non-trainable params: 2,368
_________________________________________________________________
