Model: "sequential_35"
_________________________________________________________________
Layer (type)                 Output Shape              Param #   
=================================================================
conv2d_244 (Conv2D)          (None, 32, 32, 1024)      28672     
_________________________________________________________________
activation_335 (Activation)  (None, 32, 32, 1024)      0         
_________________________________________________________________
dropout_335 (Dropout)        (None, 32, 32, 1024)      0         
_________________________________________________________________
conv2d_245 (Conv2D)          (None, 32, 32, 1024)      9438208   
_________________________________________________________________
activation_336 (Activation)  (None, 32, 32, 1024)      0         
_________________________________________________________________
dropout_336 (Dropout)        (None, 32, 32, 1024)      0         
_________________________________________________________________
max_pooling2d_77 (MaxPooling (None, 16, 16, 1024)      0         
_________________________________________________________________
conv2d_246 (Conv2D)          (None, 16, 16, 64)        589888    
_________________________________________________________________
batch_normalization_153 (Bat (None, 16, 16, 64)        256       
_________________________________________________________________
activation_337 (Activation)  (None, 16, 16, 64)        0         
_________________________________________________________________
dropout_337 (Dropout)        (None, 16, 16, 64)        0         
_________________________________________________________________
max_pooling2d_78 (MaxPooling (None, 8, 8, 64)          0         
_________________________________________________________________
conv2d_247 (Conv2D)          (None, 8, 8, 128)         73856     
_________________________________________________________________
activation_338 (Activation)  (None, 8, 8, 128)         0         
_________________________________________________________________
dropout_338 (Dropout)        (None, 8, 8, 128)         0         
_________________________________________________________________
conv2d_248 (Conv2D)          (None, 8, 8, 32)          36896     
_________________________________________________________________
batch_normalization_154 (Bat (None, 8, 8, 32)          128       
_________________________________________________________________
activation_339 (Activation)  (None, 8, 8, 32)          0         
_________________________________________________________________
dropout_339 (Dropout)        (None, 8, 8, 32)          0         
_________________________________________________________________
conv2d_249 (Conv2D)          (None, 8, 8, 1024)        295936    
_________________________________________________________________
activation_340 (Activation)  (None, 8, 8, 1024)        0         
_________________________________________________________________
dropout_340 (Dropout)        (None, 8, 8, 1024)        0         
_________________________________________________________________
conv2d_250 (Conv2D)          (None, 8, 8, 1024)        9438208   
_________________________________________________________________
batch_normalization_155 (Bat (None, 8, 8, 1024)        4096      
_________________________________________________________________
activation_341 (Activation)  (None, 8, 8, 1024)        0         
_________________________________________________________________
dropout_341 (Dropout)        (None, 8, 8, 1024)        0         
_________________________________________________________________
flatten_35 (Flatten)         (None, 65536)             0         
_________________________________________________________________
dense_126 (Dense)            (None, 64)                4194368   
_________________________________________________________________
batch_normalization_156 (Bat (None, 64)                256       
_________________________________________________________________
activation_342 (Activation)  (None, 64)                0         
_________________________________________________________________
dropout_342 (Dropout)        (None, 64)                0         
_________________________________________________________________
dense_127 (Dense)            (None, 256)               16640     
_________________________________________________________________
activation_343 (Activation)  (None, 256)               0         
_________________________________________________________________
dropout_343 (Dropout)        (None, 256)               0         
_________________________________________________________________
dense_128 (Dense)            (None, 10)                2570      
=================================================================
Total params: 24,119,978
Trainable params: 24,117,610
Non-trainable params: 2,368
_________________________________________________________________
