Model: "sequential_166"
_________________________________________________________________
Layer (type)                 Output Shape              Param #   
=================================================================
conv2d_1159 (Conv2D)         (None, 32, 32, 1024)      28672     
_________________________________________________________________
activation_1483 (Activation) (None, 32, 32, 1024)      0         
_________________________________________________________________
dropout_1483 (Dropout)       (None, 32, 32, 1024)      0         
_________________________________________________________________
conv2d_1160 (Conv2D)         (None, 32, 32, 1024)      9438208   
_________________________________________________________________
activation_1484 (Activation) (None, 32, 32, 1024)      0         
_________________________________________________________________
dropout_1484 (Dropout)       (None, 32, 32, 1024)      0         
_________________________________________________________________
max_pooling2d_364 (MaxPoolin (None, 16, 16, 1024)      0         
_________________________________________________________________
conv2d_1161 (Conv2D)         (None, 16, 16, 64)        589888    
_________________________________________________________________
batch_normalization_710 (Bat (None, 16, 16, 64)        256       
_________________________________________________________________
activation_1485 (Activation) (None, 16, 16, 64)        0         
_________________________________________________________________
dropout_1485 (Dropout)       (None, 16, 16, 64)        0         
_________________________________________________________________
max_pooling2d_365 (MaxPoolin (None, 8, 8, 64)          0         
_________________________________________________________________
conv2d_1162 (Conv2D)         (None, 8, 8, 128)         73856     
_________________________________________________________________
activation_1486 (Activation) (None, 8, 8, 128)         0         
_________________________________________________________________
dropout_1486 (Dropout)       (None, 8, 8, 128)         0         
_________________________________________________________________
conv2d_1163 (Conv2D)         (None, 8, 8, 32)          36896     
_________________________________________________________________
batch_normalization_711 (Bat (None, 8, 8, 32)          128       
_________________________________________________________________
activation_1487 (Activation) (None, 8, 8, 32)          0         
_________________________________________________________________
dropout_1487 (Dropout)       (None, 8, 8, 32)          0         
_________________________________________________________________
conv2d_1164 (Conv2D)         (None, 8, 8, 1024)        295936    
_________________________________________________________________
activation_1488 (Activation) (None, 8, 8, 1024)        0         
_________________________________________________________________
dropout_1488 (Dropout)       (None, 8, 8, 1024)        0         
_________________________________________________________________
max_pooling2d_366 (MaxPoolin (None, 4, 4, 1024)        0         
_________________________________________________________________
conv2d_1165 (Conv2D)         (None, 4, 4, 1024)        9438208   
_________________________________________________________________
batch_normalization_712 (Bat (None, 4, 4, 1024)        4096      
_________________________________________________________________
activation_1489 (Activation) (None, 4, 4, 1024)        0         
_________________________________________________________________
dropout_1489 (Dropout)       (None, 4, 4, 1024)        0         
_________________________________________________________________
flatten_166 (Flatten)        (None, 16384)             0         
_________________________________________________________________
dense_490 (Dense)            (None, 64)                1048640   
_________________________________________________________________
batch_normalization_713 (Bat (None, 64)                256       
_________________________________________________________________
activation_1490 (Activation) (None, 64)                0         
_________________________________________________________________
dropout_1490 (Dropout)       (None, 64)                0         
_________________________________________________________________
dense_491 (Dense)            (None, 256)               16640     
_________________________________________________________________
activation_1491 (Activation) (None, 256)               0         
_________________________________________________________________
dropout_1491 (Dropout)       (None, 256)               0         
_________________________________________________________________
dense_492 (Dense)            (None, 10)                2570      
=================================================================
Total params: 20,974,250
Trainable params: 20,971,882
Non-trainable params: 2,368
_________________________________________________________________
