Model: "sequential_100"
_________________________________________________________________
Layer (type)                 Output Shape              Param #   
=================================================================
conv2d_696 (Conv2D)          (None, 32, 32, 1024)      28672     
_________________________________________________________________
activation_899 (Activation)  (None, 32, 32, 1024)      0         
_________________________________________________________________
dropout_899 (Dropout)        (None, 32, 32, 1024)      0         
_________________________________________________________________
conv2d_697 (Conv2D)          (None, 32, 32, 1024)      9438208   
_________________________________________________________________
activation_900 (Activation)  (None, 32, 32, 1024)      0         
_________________________________________________________________
dropout_900 (Dropout)        (None, 32, 32, 1024)      0         
_________________________________________________________________
max_pooling2d_209 (MaxPoolin (None, 16, 16, 1024)      0         
_________________________________________________________________
conv2d_698 (Conv2D)          (None, 16, 16, 64)        589888    
_________________________________________________________________
batch_normalization_422 (Bat (None, 16, 16, 64)        256       
_________________________________________________________________
activation_901 (Activation)  (None, 16, 16, 64)        0         
_________________________________________________________________
dropout_901 (Dropout)        (None, 16, 16, 64)        0         
_________________________________________________________________
max_pooling2d_210 (MaxPoolin (None, 8, 8, 64)          0         
_________________________________________________________________
conv2d_699 (Conv2D)          (None, 8, 8, 128)         73856     
_________________________________________________________________
activation_902 (Activation)  (None, 8, 8, 128)         0         
_________________________________________________________________
dropout_902 (Dropout)        (None, 8, 8, 128)         0         
_________________________________________________________________
conv2d_700 (Conv2D)          (None, 8, 8, 32)          36896     
_________________________________________________________________
batch_normalization_423 (Bat (None, 8, 8, 32)          128       
_________________________________________________________________
activation_903 (Activation)  (None, 8, 8, 32)          0         
_________________________________________________________________
dropout_903 (Dropout)        (None, 8, 8, 32)          0         
_________________________________________________________________
conv2d_701 (Conv2D)          (None, 8, 8, 1024)        295936    
_________________________________________________________________
activation_904 (Activation)  (None, 8, 8, 1024)        0         
_________________________________________________________________
dropout_904 (Dropout)        (None, 8, 8, 1024)        0         
_________________________________________________________________
conv2d_702 (Conv2D)          (None, 8, 8, 1024)        9438208   
_________________________________________________________________
batch_normalization_424 (Bat (None, 8, 8, 1024)        4096      
_________________________________________________________________
activation_905 (Activation)  (None, 8, 8, 1024)        0         
_________________________________________________________________
dropout_905 (Dropout)        (None, 8, 8, 1024)        0         
_________________________________________________________________
flatten_100 (Flatten)        (None, 65536)             0         
_________________________________________________________________
dense_303 (Dense)            (None, 64)                4194368   
_________________________________________________________________
batch_normalization_425 (Bat (None, 64)                256       
_________________________________________________________________
activation_906 (Activation)  (None, 64)                0         
_________________________________________________________________
dropout_906 (Dropout)        (None, 64)                0         
_________________________________________________________________
dense_304 (Dense)            (None, 256)               16640     
_________________________________________________________________
activation_907 (Activation)  (None, 256)               0         
_________________________________________________________________
dropout_907 (Dropout)        (None, 256)               0         
_________________________________________________________________
dense_305 (Dense)            (None, 10)                2570      
=================================================================
Total params: 24,119,978
Trainable params: 24,117,610
Non-trainable params: 2,368
_________________________________________________________________
