Model: "sequential_122"
_________________________________________________________________
Layer (type)                 Output Shape              Param #   
=================================================================
conv2d_850 (Conv2D)          (None, 32, 32, 1024)      28672     
_________________________________________________________________
activation_1088 (Activation) (None, 32, 32, 1024)      0         
_________________________________________________________________
dropout_1088 (Dropout)       (None, 32, 32, 1024)      0         
_________________________________________________________________
conv2d_851 (Conv2D)          (None, 32, 32, 1024)      9438208   
_________________________________________________________________
activation_1089 (Activation) (None, 32, 32, 1024)      0         
_________________________________________________________________
dropout_1089 (Dropout)       (None, 32, 32, 1024)      0         
_________________________________________________________________
max_pooling2d_259 (MaxPoolin (None, 16, 16, 1024)      0         
_________________________________________________________________
conv2d_852 (Conv2D)          (None, 16, 16, 64)        589888    
_________________________________________________________________
batch_normalization_516 (Bat (None, 16, 16, 64)        256       
_________________________________________________________________
activation_1090 (Activation) (None, 16, 16, 64)        0         
_________________________________________________________________
dropout_1090 (Dropout)       (None, 16, 16, 64)        0         
_________________________________________________________________
max_pooling2d_260 (MaxPoolin (None, 8, 8, 64)          0         
_________________________________________________________________
conv2d_853 (Conv2D)          (None, 8, 8, 8)           4616      
_________________________________________________________________
activation_1091 (Activation) (None, 8, 8, 8)           0         
_________________________________________________________________
dropout_1091 (Dropout)       (None, 8, 8, 8)           0         
_________________________________________________________________
conv2d_854 (Conv2D)          (None, 8, 8, 32)          2336      
_________________________________________________________________
batch_normalization_517 (Bat (None, 8, 8, 32)          128       
_________________________________________________________________
activation_1092 (Activation) (None, 8, 8, 32)          0         
_________________________________________________________________
dropout_1092 (Dropout)       (None, 8, 8, 32)          0         
_________________________________________________________________
conv2d_855 (Conv2D)          (None, 8, 8, 1024)        295936    
_________________________________________________________________
activation_1093 (Activation) (None, 8, 8, 1024)        0         
_________________________________________________________________
dropout_1093 (Dropout)       (None, 8, 8, 1024)        0         
_________________________________________________________________
conv2d_856 (Conv2D)          (None, 8, 8, 1024)        9438208   
_________________________________________________________________
batch_normalization_518 (Bat (None, 8, 8, 1024)        4096      
_________________________________________________________________
activation_1094 (Activation) (None, 8, 8, 1024)        0         
_________________________________________________________________
dropout_1094 (Dropout)       (None, 8, 8, 1024)        0         
_________________________________________________________________
flatten_122 (Flatten)        (None, 65536)             0         
_________________________________________________________________
dense_360 (Dense)            (None, 64)                4194368   
_________________________________________________________________
batch_normalization_519 (Bat (None, 64)                256       
_________________________________________________________________
activation_1095 (Activation) (None, 64)                0         
_________________________________________________________________
dropout_1095 (Dropout)       (None, 64)                0         
_________________________________________________________________
dense_361 (Dense)            (None, 256)               16640     
_________________________________________________________________
activation_1096 (Activation) (None, 256)               0         
_________________________________________________________________
dropout_1096 (Dropout)       (None, 256)               0         
_________________________________________________________________
dense_362 (Dense)            (None, 10)                2570      
=================================================================
Total params: 24,016,178
Trainable params: 24,013,810
Non-trainable params: 2,368
_________________________________________________________________
