Model: "sequential_68"
_________________________________________________________________
Layer (type)                 Output Shape              Param #   
=================================================================
conv2d_474 (Conv2D)          (None, 32, 32, 1024)      28672     
_________________________________________________________________
activation_625 (Activation)  (None, 32, 32, 1024)      0         
_________________________________________________________________
dropout_625 (Dropout)        (None, 32, 32, 1024)      0         
_________________________________________________________________
conv2d_475 (Conv2D)          (None, 32, 32, 1024)      9438208   
_________________________________________________________________
activation_626 (Activation)  (None, 32, 32, 1024)      0         
_________________________________________________________________
dropout_626 (Dropout)        (None, 32, 32, 1024)      0         
_________________________________________________________________
max_pooling2d_143 (MaxPoolin (None, 16, 16, 1024)      0         
_________________________________________________________________
conv2d_476 (Conv2D)          (None, 16, 16, 64)        589888    
_________________________________________________________________
batch_normalization_287 (Bat (None, 16, 16, 64)        256       
_________________________________________________________________
activation_627 (Activation)  (None, 16, 16, 64)        0         
_________________________________________________________________
dropout_627 (Dropout)        (None, 16, 16, 64)        0         
_________________________________________________________________
max_pooling2d_144 (MaxPoolin (None, 8, 8, 64)          0         
_________________________________________________________________
conv2d_477 (Conv2D)          (None, 8, 8, 128)         73856     
_________________________________________________________________
activation_628 (Activation)  (None, 8, 8, 128)         0         
_________________________________________________________________
dropout_628 (Dropout)        (None, 8, 8, 128)         0         
_________________________________________________________________
conv2d_478 (Conv2D)          (None, 8, 8, 32)          36896     
_________________________________________________________________
batch_normalization_288 (Bat (None, 8, 8, 32)          128       
_________________________________________________________________
activation_629 (Activation)  (None, 8, 8, 32)          0         
_________________________________________________________________
dropout_629 (Dropout)        (None, 8, 8, 32)          0         
_________________________________________________________________
conv2d_479 (Conv2D)          (None, 8, 8, 1024)        295936    
_________________________________________________________________
activation_630 (Activation)  (None, 8, 8, 1024)        0         
_________________________________________________________________
dropout_630 (Dropout)        (None, 8, 8, 1024)        0         
_________________________________________________________________
conv2d_480 (Conv2D)          (None, 8, 8, 1024)        9438208   
_________________________________________________________________
batch_normalization_289 (Bat (None, 8, 8, 1024)        4096      
_________________________________________________________________
activation_631 (Activation)  (None, 8, 8, 1024)        0         
_________________________________________________________________
dropout_631 (Dropout)        (None, 8, 8, 1024)        0         
_________________________________________________________________
flatten_68 (Flatten)         (None, 65536)             0         
_________________________________________________________________
dense_219 (Dense)            (None, 256)               16777472  
_________________________________________________________________
batch_normalization_290 (Bat (None, 256)               1024      
_________________________________________________________________
activation_632 (Activation)  (None, 256)               0         
_________________________________________________________________
dropout_632 (Dropout)        (None, 256)               0         
_________________________________________________________________
dense_220 (Dense)            (None, 256)               65792     
_________________________________________________________________
activation_633 (Activation)  (None, 256)               0         
_________________________________________________________________
dropout_633 (Dropout)        (None, 256)               0         
_________________________________________________________________
dense_221 (Dense)            (None, 10)                2570      
=================================================================
Total params: 36,753,002
Trainable params: 36,750,250
Non-trainable params: 2,752
_________________________________________________________________
