Model: "sequential_51"
_________________________________________________________________
Layer (type)                 Output Shape              Param #   
=================================================================
conv2d_355 (Conv2D)          (None, 32, 32, 1024)      28672     
_________________________________________________________________
batch_normalization_215 (Bat (None, 32, 32, 1024)      4096      
_________________________________________________________________
activation_478 (Activation)  (None, 32, 32, 1024)      0         
_________________________________________________________________
dropout_478 (Dropout)        (None, 32, 32, 1024)      0         
_________________________________________________________________
conv2d_356 (Conv2D)          (None, 32, 32, 1024)      9438208   
_________________________________________________________________
activation_479 (Activation)  (None, 32, 32, 1024)      0         
_________________________________________________________________
dropout_479 (Dropout)        (None, 32, 32, 1024)      0         
_________________________________________________________________
max_pooling2d_109 (MaxPoolin (None, 16, 16, 1024)      0         
_________________________________________________________________
conv2d_357 (Conv2D)          (None, 16, 16, 64)        589888    
_________________________________________________________________
batch_normalization_216 (Bat (None, 16, 16, 64)        256       
_________________________________________________________________
activation_480 (Activation)  (None, 16, 16, 64)        0         
_________________________________________________________________
dropout_480 (Dropout)        (None, 16, 16, 64)        0         
_________________________________________________________________
max_pooling2d_110 (MaxPoolin (None, 8, 8, 64)          0         
_________________________________________________________________
conv2d_358 (Conv2D)          (None, 8, 8, 128)         73856     
_________________________________________________________________
activation_481 (Activation)  (None, 8, 8, 128)         0         
_________________________________________________________________
dropout_481 (Dropout)        (None, 8, 8, 128)         0         
_________________________________________________________________
conv2d_359 (Conv2D)          (None, 8, 8, 32)          36896     
_________________________________________________________________
batch_normalization_217 (Bat (None, 8, 8, 32)          128       
_________________________________________________________________
activation_482 (Activation)  (None, 8, 8, 32)          0         
_________________________________________________________________
dropout_482 (Dropout)        (None, 8, 8, 32)          0         
_________________________________________________________________
conv2d_360 (Conv2D)          (None, 8, 8, 1024)        295936    
_________________________________________________________________
activation_483 (Activation)  (None, 8, 8, 1024)        0         
_________________________________________________________________
dropout_483 (Dropout)        (None, 8, 8, 1024)        0         
_________________________________________________________________
conv2d_361 (Conv2D)          (None, 8, 8, 1024)        9438208   
_________________________________________________________________
batch_normalization_218 (Bat (None, 8, 8, 1024)        4096      
_________________________________________________________________
activation_484 (Activation)  (None, 8, 8, 1024)        0         
_________________________________________________________________
dropout_484 (Dropout)        (None, 8, 8, 1024)        0         
_________________________________________________________________
flatten_51 (Flatten)         (None, 65536)             0         
_________________________________________________________________
dense_174 (Dense)            (None, 64)                4194368   
_________________________________________________________________
batch_normalization_219 (Bat (None, 64)                256       
_________________________________________________________________
activation_485 (Activation)  (None, 64)                0         
_________________________________________________________________
dropout_485 (Dropout)        (None, 64)                0         
_________________________________________________________________
dense_175 (Dense)            (None, 10)                650       
=================================================================
Total params: 24,105,514
Trainable params: 24,101,098
Non-trainable params: 4,416
_________________________________________________________________
