Model: "sequential_159"
_________________________________________________________________
Layer (type)                 Output Shape              Param #   
=================================================================
conv2d_1109 (Conv2D)         (None, 32, 32, 1024)      28672     
_________________________________________________________________
batch_normalization_677 (Bat (None, 32, 32, 1024)      4096      
_________________________________________________________________
activation_1419 (Activation) (None, 32, 32, 1024)      0         
_________________________________________________________________
dropout_1419 (Dropout)       (None, 32, 32, 1024)      0         
_________________________________________________________________
conv2d_1110 (Conv2D)         (None, 32, 32, 1024)      9438208   
_________________________________________________________________
activation_1420 (Activation) (None, 32, 32, 1024)      0         
_________________________________________________________________
dropout_1420 (Dropout)       (None, 32, 32, 1024)      0         
_________________________________________________________________
max_pooling2d_348 (MaxPoolin (None, 16, 16, 1024)      0         
_________________________________________________________________
conv2d_1111 (Conv2D)         (None, 16, 16, 64)        589888    
_________________________________________________________________
batch_normalization_678 (Bat (None, 16, 16, 64)        256       
_________________________________________________________________
activation_1421 (Activation) (None, 16, 16, 64)        0         
_________________________________________________________________
dropout_1421 (Dropout)       (None, 16, 16, 64)        0         
_________________________________________________________________
max_pooling2d_349 (MaxPoolin (None, 8, 8, 64)          0         
_________________________________________________________________
conv2d_1112 (Conv2D)         (None, 8, 8, 128)         73856     
_________________________________________________________________
activation_1422 (Activation) (None, 8, 8, 128)         0         
_________________________________________________________________
dropout_1422 (Dropout)       (None, 8, 8, 128)         0         
_________________________________________________________________
conv2d_1113 (Conv2D)         (None, 8, 8, 32)          36896     
_________________________________________________________________
batch_normalization_679 (Bat (None, 8, 8, 32)          128       
_________________________________________________________________
activation_1423 (Activation) (None, 8, 8, 32)          0         
_________________________________________________________________
dropout_1423 (Dropout)       (None, 8, 8, 32)          0         
_________________________________________________________________
conv2d_1114 (Conv2D)         (None, 8, 8, 1024)        295936    
_________________________________________________________________
activation_1424 (Activation) (None, 8, 8, 1024)        0         
_________________________________________________________________
dropout_1424 (Dropout)       (None, 8, 8, 1024)        0         
_________________________________________________________________
conv2d_1115 (Conv2D)         (None, 8, 8, 1024)        9438208   
_________________________________________________________________
batch_normalization_680 (Bat (None, 8, 8, 1024)        4096      
_________________________________________________________________
activation_1425 (Activation) (None, 8, 8, 1024)        0         
_________________________________________________________________
dropout_1425 (Dropout)       (None, 8, 8, 1024)        0         
_________________________________________________________________
flatten_159 (Flatten)        (None, 65536)             0         
_________________________________________________________________
dense_469 (Dense)            (None, 64)                4194368   
_________________________________________________________________
batch_normalization_681 (Bat (None, 64)                256       
_________________________________________________________________
activation_1426 (Activation) (None, 64)                0         
_________________________________________________________________
dropout_1426 (Dropout)       (None, 64)                0         
_________________________________________________________________
dense_470 (Dense)            (None, 256)               16640     
_________________________________________________________________
activation_1427 (Activation) (None, 256)               0         
_________________________________________________________________
dropout_1427 (Dropout)       (None, 256)               0         
_________________________________________________________________
dense_471 (Dense)            (None, 10)                2570      
=================================================================
Total params: 24,124,074
Trainable params: 24,119,658
Non-trainable params: 4,416
_________________________________________________________________
