Model: "sequential_163"
_________________________________________________________________
Layer (type)                 Output Shape              Param #   
=================================================================
conv2d_1137 (Conv2D)         (None, 32, 32, 1024)      28672     
_________________________________________________________________
activation_1455 (Activation) (None, 32, 32, 1024)      0         
_________________________________________________________________
dropout_1455 (Dropout)       (None, 32, 32, 1024)      0         
_________________________________________________________________
conv2d_1138 (Conv2D)         (None, 32, 32, 1024)      9438208   
_________________________________________________________________
activation_1456 (Activation) (None, 32, 32, 1024)      0         
_________________________________________________________________
dropout_1456 (Dropout)       (None, 32, 32, 1024)      0         
_________________________________________________________________
max_pooling2d_357 (MaxPoolin (None, 16, 16, 1024)      0         
_________________________________________________________________
conv2d_1139 (Conv2D)         (None, 16, 16, 64)        589888    
_________________________________________________________________
batch_normalization_696 (Bat (None, 16, 16, 64)        256       
_________________________________________________________________
activation_1457 (Activation) (None, 16, 16, 64)        0         
_________________________________________________________________
dropout_1457 (Dropout)       (None, 16, 16, 64)        0         
_________________________________________________________________
max_pooling2d_358 (MaxPoolin (None, 8, 8, 64)          0         
_________________________________________________________________
conv2d_1140 (Conv2D)         (None, 8, 8, 128)         73856     
_________________________________________________________________
activation_1458 (Activation) (None, 8, 8, 128)         0         
_________________________________________________________________
dropout_1458 (Dropout)       (None, 8, 8, 128)         0         
_________________________________________________________________
conv2d_1141 (Conv2D)         (None, 8, 8, 32)          36896     
_________________________________________________________________
batch_normalization_697 (Bat (None, 8, 8, 32)          128       
_________________________________________________________________
activation_1459 (Activation) (None, 8, 8, 32)          0         
_________________________________________________________________
dropout_1459 (Dropout)       (None, 8, 8, 32)          0         
_________________________________________________________________
conv2d_1142 (Conv2D)         (None, 8, 8, 1024)        295936    
_________________________________________________________________
activation_1460 (Activation) (None, 8, 8, 1024)        0         
_________________________________________________________________
dropout_1460 (Dropout)       (None, 8, 8, 1024)        0         
_________________________________________________________________
conv2d_1143 (Conv2D)         (None, 8, 8, 1024)        9438208   
_________________________________________________________________
batch_normalization_698 (Bat (None, 8, 8, 1024)        4096      
_________________________________________________________________
activation_1461 (Activation) (None, 8, 8, 1024)        0         
_________________________________________________________________
dropout_1461 (Dropout)       (None, 8, 8, 1024)        0         
_________________________________________________________________
flatten_163 (Flatten)        (None, 65536)             0         
_________________________________________________________________
dense_481 (Dense)            (None, 64)                4194368   
_________________________________________________________________
batch_normalization_699 (Bat (None, 64)                256       
_________________________________________________________________
activation_1462 (Activation) (None, 64)                0         
_________________________________________________________________
dropout_1462 (Dropout)       (None, 64)                0         
_________________________________________________________________
dense_482 (Dense)            (None, 256)               16640     
_________________________________________________________________
activation_1463 (Activation) (None, 256)               0         
_________________________________________________________________
dropout_1463 (Dropout)       (None, 256)               0         
_________________________________________________________________
dense_483 (Dense)            (None, 10)                2570      
=================================================================
Total params: 24,119,978
Trainable params: 24,117,610
Non-trainable params: 2,368
_________________________________________________________________
