Model: "sequential_29"
_________________________________________________________________
Layer (type)                 Output Shape              Param #   
=================================================================
conv2d_205 (Conv2D)          (None, 32, 32, 1024)      28672     
_________________________________________________________________
activation_281 (Activation)  (None, 32, 32, 1024)      0         
_________________________________________________________________
dropout_281 (Dropout)        (None, 32, 32, 1024)      0         
_________________________________________________________________
conv2d_206 (Conv2D)          (None, 32, 32, 1024)      9438208   
_________________________________________________________________
activation_282 (Activation)  (None, 32, 32, 1024)      0         
_________________________________________________________________
dropout_282 (Dropout)        (None, 32, 32, 1024)      0         
_________________________________________________________________
max_pooling2d_64 (MaxPooling (None, 16, 16, 1024)      0         
_________________________________________________________________
conv2d_207 (Conv2D)          (None, 16, 16, 64)        589888    
_________________________________________________________________
batch_normalization_132 (Bat (None, 16, 16, 64)        256       
_________________________________________________________________
activation_283 (Activation)  (None, 16, 16, 64)        0         
_________________________________________________________________
dropout_283 (Dropout)        (None, 16, 16, 64)        0         
_________________________________________________________________
max_pooling2d_65 (MaxPooling (None, 8, 8, 64)          0         
_________________________________________________________________
conv2d_208 (Conv2D)          (None, 8, 8, 128)         73856     
_________________________________________________________________
activation_284 (Activation)  (None, 8, 8, 128)         0         
_________________________________________________________________
dropout_284 (Dropout)        (None, 8, 8, 128)         0         
_________________________________________________________________
conv2d_209 (Conv2D)          (None, 8, 8, 512)         590336    
_________________________________________________________________
activation_285 (Activation)  (None, 8, 8, 512)         0         
_________________________________________________________________
dropout_285 (Dropout)        (None, 8, 8, 512)         0         
_________________________________________________________________
max_pooling2d_66 (MaxPooling (None, 4, 4, 512)         0         
_________________________________________________________________
flatten_29 (Flatten)         (None, 8192)              0         
_________________________________________________________________
dense_105 (Dense)            (None, 256)               2097408   
_________________________________________________________________
activation_286 (Activation)  (None, 256)               0         
_________________________________________________________________
dropout_286 (Dropout)        (None, 256)               0         
_________________________________________________________________
dense_106 (Dense)            (None, 256)               65792     
_________________________________________________________________
activation_287 (Activation)  (None, 256)               0         
_________________________________________________________________
dropout_287 (Dropout)        (None, 256)               0         
_________________________________________________________________
dense_107 (Dense)            (None, 16)                4112      
_________________________________________________________________
activation_288 (Activation)  (None, 16)                0         
_________________________________________________________________
dropout_288 (Dropout)        (None, 16)                0         
_________________________________________________________________
dense_108 (Dense)            (None, 10)                170       
=================================================================
Total params: 12,888,698
Trainable params: 12,888,570
Non-trainable params: 128
_________________________________________________________________
