Model: "sequential_10"
_________________________________________________________________
Layer (type)                 Output Shape              Param #   
=================================================================
conv2d_79 (Conv2D)           (None, 32, 32, 1024)      28672     
_________________________________________________________________
activation_107 (Activation)  (None, 32, 32, 1024)      0         
_________________________________________________________________
dropout_107 (Dropout)        (None, 32, 32, 1024)      0         
_________________________________________________________________
conv2d_80 (Conv2D)           (None, 32, 32, 1024)      9438208   
_________________________________________________________________
activation_108 (Activation)  (None, 32, 32, 1024)      0         
_________________________________________________________________
dropout_108 (Dropout)        (None, 32, 32, 1024)      0         
_________________________________________________________________
max_pooling2d_26 (MaxPooling (None, 16, 16, 1024)      0         
_________________________________________________________________
conv2d_81 (Conv2D)           (None, 16, 16, 64)        589888    
_________________________________________________________________
batch_normalization_55 (Batc (None, 16, 16, 64)        256       
_________________________________________________________________
activation_109 (Activation)  (None, 16, 16, 64)        0         
_________________________________________________________________
dropout_109 (Dropout)        (None, 16, 16, 64)        0         
_________________________________________________________________
max_pooling2d_27 (MaxPooling (None, 8, 8, 64)          0         
_________________________________________________________________
conv2d_82 (Conv2D)           (None, 8, 8, 128)         73856     
_________________________________________________________________
activation_110 (Activation)  (None, 8, 8, 128)         0         
_________________________________________________________________
dropout_110 (Dropout)        (None, 8, 8, 128)         0         
_________________________________________________________________
conv2d_83 (Conv2D)           (None, 8, 8, 512)         590336    
_________________________________________________________________
activation_111 (Activation)  (None, 8, 8, 512)         0         
_________________________________________________________________
dropout_111 (Dropout)        (None, 8, 8, 512)         0         
_________________________________________________________________
max_pooling2d_28 (MaxPooling (None, 4, 4, 512)         0         
_________________________________________________________________
flatten_10 (Flatten)         (None, 8192)              0         
_________________________________________________________________
dense_38 (Dense)             (None, 256)               2097408   
_________________________________________________________________
activation_112 (Activation)  (None, 256)               0         
_________________________________________________________________
dropout_112 (Dropout)        (None, 256)               0         
_________________________________________________________________
dense_39 (Dense)             (None, 256)               65792     
_________________________________________________________________
activation_113 (Activation)  (None, 256)               0         
_________________________________________________________________
dropout_113 (Dropout)        (None, 256)               0         
_________________________________________________________________
dense_40 (Dense)             (None, 16)                4112      
_________________________________________________________________
activation_114 (Activation)  (None, 16)                0         
_________________________________________________________________
dropout_114 (Dropout)        (None, 16)                0         
_________________________________________________________________
dense_41 (Dense)             (None, 10)                170       
=================================================================
Total params: 12,888,698
Trainable params: 12,888,570
Non-trainable params: 128
_________________________________________________________________
