Model: "sequential_188"
_________________________________________________________________
Layer (type)                 Output Shape              Param #   
=================================================================
conv2d_1319 (Conv2D)         (None, 32, 32, 1024)      28672     
_________________________________________________________________
activation_1687 (Activation) (None, 32, 32, 1024)      0         
_________________________________________________________________
dropout_1687 (Dropout)       (None, 32, 32, 1024)      0         
_________________________________________________________________
conv2d_1320 (Conv2D)         (None, 32, 32, 1024)      9438208   
_________________________________________________________________
activation_1688 (Activation) (None, 32, 32, 1024)      0         
_________________________________________________________________
dropout_1688 (Dropout)       (None, 32, 32, 1024)      0         
_________________________________________________________________
max_pooling2d_414 (MaxPoolin (None, 16, 16, 1024)      0         
_________________________________________________________________
conv2d_1321 (Conv2D)         (None, 16, 16, 64)        589888    
_________________________________________________________________
batch_normalization_819 (Bat (None, 16, 16, 64)        256       
_________________________________________________________________
activation_1689 (Activation) (None, 16, 16, 64)        0         
_________________________________________________________________
dropout_1689 (Dropout)       (None, 16, 16, 64)        0         
_________________________________________________________________
max_pooling2d_415 (MaxPoolin (None, 8, 8, 64)          0         
_________________________________________________________________
conv2d_1322 (Conv2D)         (None, 8, 8, 128)         73856     
_________________________________________________________________
activation_1690 (Activation) (None, 8, 8, 128)         0         
_________________________________________________________________
dropout_1690 (Dropout)       (None, 8, 8, 128)         0         
_________________________________________________________________
conv2d_1323 (Conv2D)         (None, 8, 8, 32)          36896     
_________________________________________________________________
batch_normalization_820 (Bat (None, 8, 8, 32)          128       
_________________________________________________________________
activation_1691 (Activation) (None, 8, 8, 32)          0         
_________________________________________________________________
dropout_1691 (Dropout)       (None, 8, 8, 32)          0         
_________________________________________________________________
conv2d_1324 (Conv2D)         (None, 8, 8, 1024)        295936    
_________________________________________________________________
activation_1692 (Activation) (None, 8, 8, 1024)        0         
_________________________________________________________________
dropout_1692 (Dropout)       (None, 8, 8, 1024)        0         
_________________________________________________________________
conv2d_1325 (Conv2D)         (None, 8, 8, 1024)        9438208   
_________________________________________________________________
batch_normalization_821 (Bat (None, 8, 8, 1024)        4096      
_________________________________________________________________
activation_1693 (Activation) (None, 8, 8, 1024)        0         
_________________________________________________________________
dropout_1693 (Dropout)       (None, 8, 8, 1024)        0         
_________________________________________________________________
flatten_188 (Flatten)        (None, 65536)             0         
_________________________________________________________________
dense_556 (Dense)            (None, 64)                4194368   
_________________________________________________________________
batch_normalization_822 (Bat (None, 64)                256       
_________________________________________________________________
activation_1694 (Activation) (None, 64)                0         
_________________________________________________________________
dropout_1694 (Dropout)       (None, 64)                0         
_________________________________________________________________
dense_557 (Dense)            (None, 256)               16640     
_________________________________________________________________
activation_1695 (Activation) (None, 256)               0         
_________________________________________________________________
dropout_1695 (Dropout)       (None, 256)               0         
_________________________________________________________________
dense_558 (Dense)            (None, 10)                2570      
=================================================================
Total params: 24,119,978
Trainable params: 24,117,610
Non-trainable params: 2,368
_________________________________________________________________
