Model: "sequential_142"
_________________________________________________________________
Layer (type)                 Output Shape              Param #   
=================================================================
conv2d_990 (Conv2D)          (None, 32, 32, 1024)      28672     
_________________________________________________________________
activation_1266 (Activation) (None, 32, 32, 1024)      0         
_________________________________________________________________
dropout_1266 (Dropout)       (None, 32, 32, 1024)      0         
_________________________________________________________________
conv2d_991 (Conv2D)          (None, 32, 32, 1024)      9438208   
_________________________________________________________________
activation_1267 (Activation) (None, 32, 32, 1024)      0         
_________________________________________________________________
dropout_1267 (Dropout)       (None, 32, 32, 1024)      0         
_________________________________________________________________
max_pooling2d_306 (MaxPoolin (None, 16, 16, 1024)      0         
_________________________________________________________________
conv2d_992 (Conv2D)          (None, 16, 16, 64)        589888    
_________________________________________________________________
batch_normalization_605 (Bat (None, 16, 16, 64)        256       
_________________________________________________________________
activation_1268 (Activation) (None, 16, 16, 64)        0         
_________________________________________________________________
dropout_1268 (Dropout)       (None, 16, 16, 64)        0         
_________________________________________________________________
max_pooling2d_307 (MaxPoolin (None, 8, 8, 64)          0         
_________________________________________________________________
conv2d_993 (Conv2D)          (None, 8, 8, 128)         73856     
_________________________________________________________________
activation_1269 (Activation) (None, 8, 8, 128)         0         
_________________________________________________________________
dropout_1269 (Dropout)       (None, 8, 8, 128)         0         
_________________________________________________________________
conv2d_994 (Conv2D)          (None, 8, 8, 32)          36896     
_________________________________________________________________
batch_normalization_606 (Bat (None, 8, 8, 32)          128       
_________________________________________________________________
activation_1270 (Activation) (None, 8, 8, 32)          0         
_________________________________________________________________
dropout_1270 (Dropout)       (None, 8, 8, 32)          0         
_________________________________________________________________
conv2d_995 (Conv2D)          (None, 8, 8, 1024)        295936    
_________________________________________________________________
activation_1271 (Activation) (None, 8, 8, 1024)        0         
_________________________________________________________________
dropout_1271 (Dropout)       (None, 8, 8, 1024)        0         
_________________________________________________________________
max_pooling2d_308 (MaxPoolin (None, 4, 4, 1024)        0         
_________________________________________________________________
conv2d_996 (Conv2D)          (None, 4, 4, 1024)        9438208   
_________________________________________________________________
batch_normalization_607 (Bat (None, 4, 4, 1024)        4096      
_________________________________________________________________
activation_1272 (Activation) (None, 4, 4, 1024)        0         
_________________________________________________________________
dropout_1272 (Dropout)       (None, 4, 4, 1024)        0         
_________________________________________________________________
flatten_142 (Flatten)        (None, 16384)             0         
_________________________________________________________________
dense_418 (Dense)            (None, 64)                1048640   
_________________________________________________________________
batch_normalization_608 (Bat (None, 64)                256       
_________________________________________________________________
activation_1273 (Activation) (None, 64)                0         
_________________________________________________________________
dropout_1273 (Dropout)       (None, 64)                0         
_________________________________________________________________
dense_419 (Dense)            (None, 256)               16640     
_________________________________________________________________
activation_1274 (Activation) (None, 256)               0         
_________________________________________________________________
dropout_1274 (Dropout)       (None, 256)               0         
_________________________________________________________________
dense_420 (Dense)            (None, 10)                2570      
=================================================================
Total params: 20,974,250
Trainable params: 20,971,882
Non-trainable params: 2,368
_________________________________________________________________
