Model: "sequential_18"
_________________________________________________________________
Layer (type)                 Output Shape              Param #   
=================================================================
conv2d_131 (Conv2D)          (None, 32, 32, 1024)      28672     
_________________________________________________________________
activation_180 (Activation)  (None, 32, 32, 1024)      0         
_________________________________________________________________
dropout_180 (Dropout)        (None, 32, 32, 1024)      0         
_________________________________________________________________
conv2d_132 (Conv2D)          (None, 32, 32, 1024)      9438208   
_________________________________________________________________
activation_181 (Activation)  (None, 32, 32, 1024)      0         
_________________________________________________________________
dropout_181 (Dropout)        (None, 32, 32, 1024)      0         
_________________________________________________________________
max_pooling2d_41 (MaxPooling (None, 16, 16, 1024)      0         
_________________________________________________________________
conv2d_133 (Conv2D)          (None, 16, 16, 64)        589888    
_________________________________________________________________
batch_normalization_89 (Batc (None, 16, 16, 64)        256       
_________________________________________________________________
activation_182 (Activation)  (None, 16, 16, 64)        0         
_________________________________________________________________
dropout_182 (Dropout)        (None, 16, 16, 64)        0         
_________________________________________________________________
max_pooling2d_42 (MaxPooling (None, 8, 8, 64)          0         
_________________________________________________________________
conv2d_134 (Conv2D)          (None, 8, 8, 512)         295424    
_________________________________________________________________
activation_183 (Activation)  (None, 8, 8, 512)         0         
_________________________________________________________________
dropout_183 (Dropout)        (None, 8, 8, 512)         0         
_________________________________________________________________
conv2d_135 (Conv2D)          (None, 8, 8, 64)          294976    
_________________________________________________________________
batch_normalization_90 (Batc (None, 8, 8, 64)          256       
_________________________________________________________________
activation_184 (Activation)  (None, 8, 8, 64)          0         
_________________________________________________________________
dropout_184 (Dropout)        (None, 8, 8, 64)          0         
_________________________________________________________________
max_pooling2d_43 (MaxPooling (None, 4, 4, 64)          0         
_________________________________________________________________
conv2d_136 (Conv2D)          (None, 4, 4, 512)         295424    
_________________________________________________________________
activation_185 (Activation)  (None, 4, 4, 512)         0         
_________________________________________________________________
dropout_185 (Dropout)        (None, 4, 4, 512)         0         
_________________________________________________________________
flatten_18 (Flatten)         (None, 8192)              0         
_________________________________________________________________
dense_67 (Dense)             (None, 256)               2097408   
_________________________________________________________________
activation_186 (Activation)  (None, 256)               0         
_________________________________________________________________
dropout_186 (Dropout)        (None, 256)               0         
_________________________________________________________________
dense_68 (Dense)             (None, 256)               65792     
_________________________________________________________________
activation_187 (Activation)  (None, 256)               0         
_________________________________________________________________
dropout_187 (Dropout)        (None, 256)               0         
_________________________________________________________________
dense_69 (Dense)             (None, 16)                4112      
_________________________________________________________________
activation_188 (Activation)  (None, 16)                0         
_________________________________________________________________
dropout_188 (Dropout)        (None, 16)                0         
_________________________________________________________________
dense_70 (Dense)             (None, 10)                170       
=================================================================
Total params: 13,110,586
Trainable params: 13,110,330
Non-trainable params: 256
_________________________________________________________________
