Model: "sequential_56"
_________________________________________________________________
Layer (type)                 Output Shape              Param #   
=================================================================
conv2d_390 (Conv2D)          (None, 32, 32, 1024)      28672     
_________________________________________________________________
activation_522 (Activation)  (None, 32, 32, 1024)      0         
_________________________________________________________________
dropout_522 (Dropout)        (None, 32, 32, 1024)      0         
_________________________________________________________________
conv2d_391 (Conv2D)          (None, 32, 32, 1024)      9438208   
_________________________________________________________________
activation_523 (Activation)  (None, 32, 32, 1024)      0         
_________________________________________________________________
dropout_523 (Dropout)        (None, 32, 32, 1024)      0         
_________________________________________________________________
max_pooling2d_119 (MaxPoolin (None, 16, 16, 1024)      0         
_________________________________________________________________
conv2d_392 (Conv2D)          (None, 16, 16, 64)        589888    
_________________________________________________________________
batch_normalization_236 (Bat (None, 16, 16, 64)        256       
_________________________________________________________________
activation_524 (Activation)  (None, 16, 16, 64)        0         
_________________________________________________________________
dropout_524 (Dropout)        (None, 16, 16, 64)        0         
_________________________________________________________________
max_pooling2d_120 (MaxPoolin (None, 8, 8, 64)          0         
_________________________________________________________________
conv2d_393 (Conv2D)          (None, 8, 8, 128)         73856     
_________________________________________________________________
activation_525 (Activation)  (None, 8, 8, 128)         0         
_________________________________________________________________
dropout_525 (Dropout)        (None, 8, 8, 128)         0         
_________________________________________________________________
conv2d_394 (Conv2D)          (None, 8, 8, 32)          36896     
_________________________________________________________________
batch_normalization_237 (Bat (None, 8, 8, 32)          128       
_________________________________________________________________
activation_526 (Activation)  (None, 8, 8, 32)          0         
_________________________________________________________________
dropout_526 (Dropout)        (None, 8, 8, 32)          0         
_________________________________________________________________
conv2d_395 (Conv2D)          (None, 8, 8, 1024)        295936    
_________________________________________________________________
activation_527 (Activation)  (None, 8, 8, 1024)        0         
_________________________________________________________________
dropout_527 (Dropout)        (None, 8, 8, 1024)        0         
_________________________________________________________________
conv2d_396 (Conv2D)          (None, 8, 8, 1024)        9438208   
_________________________________________________________________
batch_normalization_238 (Bat (None, 8, 8, 1024)        4096      
_________________________________________________________________
activation_528 (Activation)  (None, 8, 8, 1024)        0         
_________________________________________________________________
dropout_528 (Dropout)        (None, 8, 8, 1024)        0         
_________________________________________________________________
flatten_56 (Flatten)         (None, 65536)             0         
_________________________________________________________________
dense_188 (Dense)            (None, 64)                4194368   
_________________________________________________________________
batch_normalization_239 (Bat (None, 64)                256       
_________________________________________________________________
activation_529 (Activation)  (None, 64)                0         
_________________________________________________________________
dropout_529 (Dropout)        (None, 64)                0         
_________________________________________________________________
dense_189 (Dense)            (None, 10)                650       
=================================================================
Total params: 24,101,418
Trainable params: 24,099,050
Non-trainable params: 2,368
_________________________________________________________________
