Model: "sequential_79"
_________________________________________________________________
Layer (type)                 Output Shape              Param #   
=================================================================
conv2d_550 (Conv2D)          (None, 32, 32, 1024)      28672     
_________________________________________________________________
activation_718 (Activation)  (None, 32, 32, 1024)      0         
_________________________________________________________________
dropout_718 (Dropout)        (None, 32, 32, 1024)      0         
_________________________________________________________________
conv2d_551 (Conv2D)          (None, 32, 32, 1024)      9438208   
_________________________________________________________________
activation_719 (Activation)  (None, 32, 32, 1024)      0         
_________________________________________________________________
dropout_719 (Dropout)        (None, 32, 32, 1024)      0         
_________________________________________________________________
max_pooling2d_165 (MaxPoolin (None, 16, 16, 1024)      0         
_________________________________________________________________
conv2d_552 (Conv2D)          (None, 16, 16, 64)        589888    
_________________________________________________________________
batch_normalization_333 (Bat (None, 16, 16, 64)        256       
_________________________________________________________________
activation_720 (Activation)  (None, 16, 16, 64)        0         
_________________________________________________________________
dropout_720 (Dropout)        (None, 16, 16, 64)        0         
_________________________________________________________________
max_pooling2d_166 (MaxPoolin (None, 8, 8, 64)          0         
_________________________________________________________________
conv2d_553 (Conv2D)          (None, 8, 8, 128)         73856     
_________________________________________________________________
activation_721 (Activation)  (None, 8, 8, 128)         0         
_________________________________________________________________
dropout_721 (Dropout)        (None, 8, 8, 128)         0         
_________________________________________________________________
conv2d_554 (Conv2D)          (None, 8, 8, 32)          36896     
_________________________________________________________________
batch_normalization_334 (Bat (None, 8, 8, 32)          128       
_________________________________________________________________
activation_722 (Activation)  (None, 8, 8, 32)          0         
_________________________________________________________________
dropout_722 (Dropout)        (None, 8, 8, 32)          0         
_________________________________________________________________
conv2d_555 (Conv2D)          (None, 8, 8, 1024)        295936    
_________________________________________________________________
activation_723 (Activation)  (None, 8, 8, 1024)        0         
_________________________________________________________________
dropout_723 (Dropout)        (None, 8, 8, 1024)        0         
_________________________________________________________________
conv2d_556 (Conv2D)          (None, 8, 8, 1024)        9438208   
_________________________________________________________________
batch_normalization_335 (Bat (None, 8, 8, 1024)        4096      
_________________________________________________________________
activation_724 (Activation)  (None, 8, 8, 1024)        0         
_________________________________________________________________
dropout_724 (Dropout)        (None, 8, 8, 1024)        0         
_________________________________________________________________
flatten_79 (Flatten)         (None, 65536)             0         
_________________________________________________________________
dense_247 (Dense)            (None, 256)               16777472  
_________________________________________________________________
batch_normalization_336 (Bat (None, 256)               1024      
_________________________________________________________________
activation_725 (Activation)  (None, 256)               0         
_________________________________________________________________
dropout_725 (Dropout)        (None, 256)               0         
_________________________________________________________________
dense_248 (Dense)            (None, 256)               65792     
_________________________________________________________________
activation_726 (Activation)  (None, 256)               0         
_________________________________________________________________
dropout_726 (Dropout)        (None, 256)               0         
_________________________________________________________________
dense_249 (Dense)            (None, 10)                2570      
=================================================================
Total params: 36,753,002
Trainable params: 36,750,250
Non-trainable params: 2,752
_________________________________________________________________
