Model: "sequential_132"
_________________________________________________________________
Layer (type)                 Output Shape              Param #   
=================================================================
conv2d_920 (Conv2D)          (None, 32, 32, 1024)      28672     
_________________________________________________________________
batch_normalization_561 (Bat (None, 32, 32, 1024)      4096      
_________________________________________________________________
activation_1178 (Activation) (None, 32, 32, 1024)      0         
_________________________________________________________________
dropout_1178 (Dropout)       (None, 32, 32, 1024)      0         
_________________________________________________________________
conv2d_921 (Conv2D)          (None, 32, 32, 1024)      9438208   
_________________________________________________________________
activation_1179 (Activation) (None, 32, 32, 1024)      0         
_________________________________________________________________
dropout_1179 (Dropout)       (None, 32, 32, 1024)      0         
_________________________________________________________________
max_pooling2d_282 (MaxPoolin (None, 16, 16, 1024)      0         
_________________________________________________________________
conv2d_922 (Conv2D)          (None, 16, 16, 64)        589888    
_________________________________________________________________
batch_normalization_562 (Bat (None, 16, 16, 64)        256       
_________________________________________________________________
activation_1180 (Activation) (None, 16, 16, 64)        0         
_________________________________________________________________
dropout_1180 (Dropout)       (None, 16, 16, 64)        0         
_________________________________________________________________
max_pooling2d_283 (MaxPoolin (None, 8, 8, 64)          0         
_________________________________________________________________
conv2d_923 (Conv2D)          (None, 8, 8, 128)         73856     
_________________________________________________________________
activation_1181 (Activation) (None, 8, 8, 128)         0         
_________________________________________________________________
dropout_1181 (Dropout)       (None, 8, 8, 128)         0         
_________________________________________________________________
conv2d_924 (Conv2D)          (None, 8, 8, 32)          36896     
_________________________________________________________________
batch_normalization_563 (Bat (None, 8, 8, 32)          128       
_________________________________________________________________
activation_1182 (Activation) (None, 8, 8, 32)          0         
_________________________________________________________________
dropout_1182 (Dropout)       (None, 8, 8, 32)          0         
_________________________________________________________________
conv2d_925 (Conv2D)          (None, 8, 8, 1024)        295936    
_________________________________________________________________
activation_1183 (Activation) (None, 8, 8, 1024)        0         
_________________________________________________________________
dropout_1183 (Dropout)       (None, 8, 8, 1024)        0         
_________________________________________________________________
max_pooling2d_284 (MaxPoolin (None, 4, 4, 1024)        0         
_________________________________________________________________
conv2d_926 (Conv2D)          (None, 4, 4, 1024)        9438208   
_________________________________________________________________
batch_normalization_564 (Bat (None, 4, 4, 1024)        4096      
_________________________________________________________________
activation_1184 (Activation) (None, 4, 4, 1024)        0         
_________________________________________________________________
dropout_1184 (Dropout)       (None, 4, 4, 1024)        0         
_________________________________________________________________
flatten_132 (Flatten)        (None, 16384)             0         
_________________________________________________________________
dense_390 (Dense)            (None, 64)                1048640   
_________________________________________________________________
batch_normalization_565 (Bat (None, 64)                256       
_________________________________________________________________
activation_1185 (Activation) (None, 64)                0         
_________________________________________________________________
dropout_1185 (Dropout)       (None, 64)                0         
_________________________________________________________________
dense_391 (Dense)            (None, 256)               16640     
_________________________________________________________________
activation_1186 (Activation) (None, 256)               0         
_________________________________________________________________
dropout_1186 (Dropout)       (None, 256)               0         
_________________________________________________________________
dense_392 (Dense)            (None, 10)                2570      
=================================================================
Total params: 20,978,346
Trainable params: 20,973,930
Non-trainable params: 4,416
_________________________________________________________________
