Model: "sequential_4"
_________________________________________________________________
Layer (type)                 Output Shape              Param #   
=================================================================
conv2d_31 (Conv2D)           (None, 32, 32, 16)        448       
_________________________________________________________________
batch_normalization_16 (Batc (None, 32, 32, 16)        64        
_________________________________________________________________
activation_42 (Activation)   (None, 32, 32, 16)        0         
_________________________________________________________________
dropout_42 (Dropout)         (None, 32, 32, 16)        0         
_________________________________________________________________
max_pooling2d_11 (MaxPooling (None, 16, 16, 16)        0         
_________________________________________________________________
conv2d_32 (Conv2D)           (None, 16, 16, 512)       74240     
_________________________________________________________________
batch_normalization_17 (Batc (None, 16, 16, 512)       2048      
_________________________________________________________________
activation_43 (Activation)   (None, 16, 16, 512)       0         
_________________________________________________________________
dropout_43 (Dropout)         (None, 16, 16, 512)       0         
_________________________________________________________________
conv2d_33 (Conv2D)           (None, 16, 16, 256)       1179904   
_________________________________________________________________
batch_normalization_18 (Batc (None, 16, 16, 256)       1024      
_________________________________________________________________
activation_44 (Activation)   (None, 16, 16, 256)       0         
_________________________________________________________________
dropout_44 (Dropout)         (None, 16, 16, 256)       0         
_________________________________________________________________
conv2d_34 (Conv2D)           (None, 16, 16, 128)       295040    
_________________________________________________________________
activation_45 (Activation)   (None, 16, 16, 128)       0         
_________________________________________________________________
dropout_45 (Dropout)         (None, 16, 16, 128)       0         
_________________________________________________________________
conv2d_35 (Conv2D)           (None, 16, 16, 256)       295168    
_________________________________________________________________
batch_normalization_19 (Batc (None, 16, 16, 256)       1024      
_________________________________________________________________
activation_46 (Activation)   (None, 16, 16, 256)       0         
_________________________________________________________________
dropout_46 (Dropout)         (None, 16, 16, 256)       0         
_________________________________________________________________
conv2d_36 (Conv2D)           (None, 16, 16, 512)       1180160   
_________________________________________________________________
activation_47 (Activation)   (None, 16, 16, 512)       0         
_________________________________________________________________
dropout_47 (Dropout)         (None, 16, 16, 512)       0         
_________________________________________________________________
conv2d_37 (Conv2D)           (None, 16, 16, 32)        147488    
_________________________________________________________________
activation_48 (Activation)   (None, 16, 16, 32)        0         
_________________________________________________________________
dropout_48 (Dropout)         (None, 16, 16, 32)        0         
_________________________________________________________________
max_pooling2d_12 (MaxPooling (None, 8, 8, 32)          0         
_________________________________________________________________
flatten_4 (Flatten)          (None, 2048)              0         
_________________________________________________________________
dense_15 (Dense)             (None, 256)               524544    
_________________________________________________________________
batch_normalization_20 (Batc (None, 256)               1024      
_________________________________________________________________
activation_49 (Activation)   (None, 256)               0         
_________________________________________________________________
dropout_49 (Dropout)         (None, 256)               0         
_________________________________________________________________
dense_16 (Dense)             (None, 16)                4112      
_________________________________________________________________
batch_normalization_21 (Batc (None, 16)                64        
_________________________________________________________________
activation_50 (Activation)   (None, 16)                0         
_________________________________________________________________
dropout_50 (Dropout)         (None, 16)                0         
_________________________________________________________________
dense_17 (Dense)             (None, 10)                170       
=================================================================
Total params: 3,706,522
Trainable params: 3,703,898
Non-trainable params: 2,624
_________________________________________________________________
