Model: "sequential_104"
_________________________________________________________________
Layer (type)                 Output Shape              Param #   
=================================================================
conv2d_724 (Conv2D)          (None, 32, 32, 1024)      28672     
_________________________________________________________________
activation_934 (Activation)  (None, 32, 32, 1024)      0         
_________________________________________________________________
dropout_934 (Dropout)        (None, 32, 32, 1024)      0         
_________________________________________________________________
conv2d_725 (Conv2D)          (None, 32, 32, 1024)      9438208   
_________________________________________________________________
activation_935 (Activation)  (None, 32, 32, 1024)      0         
_________________________________________________________________
dropout_935 (Dropout)        (None, 32, 32, 1024)      0         
_________________________________________________________________
max_pooling2d_218 (MaxPoolin (None, 16, 16, 1024)      0         
_________________________________________________________________
conv2d_726 (Conv2D)          (None, 16, 16, 64)        589888    
_________________________________________________________________
batch_normalization_439 (Bat (None, 16, 16, 64)        256       
_________________________________________________________________
activation_936 (Activation)  (None, 16, 16, 64)        0         
_________________________________________________________________
dropout_936 (Dropout)        (None, 16, 16, 64)        0         
_________________________________________________________________
max_pooling2d_219 (MaxPoolin (None, 8, 8, 64)          0         
_________________________________________________________________
conv2d_727 (Conv2D)          (None, 8, 8, 128)         73856     
_________________________________________________________________
activation_937 (Activation)  (None, 8, 8, 128)         0         
_________________________________________________________________
dropout_937 (Dropout)        (None, 8, 8, 128)         0         
_________________________________________________________________
conv2d_728 (Conv2D)          (None, 8, 8, 32)          36896     
_________________________________________________________________
batch_normalization_440 (Bat (None, 8, 8, 32)          128       
_________________________________________________________________
activation_938 (Activation)  (None, 8, 8, 32)          0         
_________________________________________________________________
dropout_938 (Dropout)        (None, 8, 8, 32)          0         
_________________________________________________________________
conv2d_729 (Conv2D)          (None, 8, 8, 1024)        295936    
_________________________________________________________________
activation_939 (Activation)  (None, 8, 8, 1024)        0         
_________________________________________________________________
dropout_939 (Dropout)        (None, 8, 8, 1024)        0         
_________________________________________________________________
conv2d_730 (Conv2D)          (None, 8, 8, 1024)        9438208   
_________________________________________________________________
batch_normalization_441 (Bat (None, 8, 8, 1024)        4096      
_________________________________________________________________
activation_940 (Activation)  (None, 8, 8, 1024)        0         
_________________________________________________________________
dropout_940 (Dropout)        (None, 8, 8, 1024)        0         
_________________________________________________________________
flatten_104 (Flatten)        (None, 65536)             0         
_________________________________________________________________
dense_314 (Dense)            (None, 64)                4194368   
_________________________________________________________________
batch_normalization_442 (Bat (None, 64)                256       
_________________________________________________________________
activation_941 (Activation)  (None, 64)                0         
_________________________________________________________________
dropout_941 (Dropout)        (None, 64)                0         
_________________________________________________________________
dense_315 (Dense)            (None, 256)               16640     
_________________________________________________________________
activation_942 (Activation)  (None, 256)               0         
_________________________________________________________________
dropout_942 (Dropout)        (None, 256)               0         
_________________________________________________________________
dense_316 (Dense)            (None, 10)                2570      
=================================================================
Total params: 24,119,978
Trainable params: 24,117,610
Non-trainable params: 2,368
_________________________________________________________________
