Model: "sequential_97"
_________________________________________________________________
Layer (type)                 Output Shape              Param #   
=================================================================
conv2d_675 (Conv2D)          (None, 32, 32, 1024)      28672     
_________________________________________________________________
activation_874 (Activation)  (None, 32, 32, 1024)      0         
_________________________________________________________________
dropout_874 (Dropout)        (None, 32, 32, 1024)      0         
_________________________________________________________________
conv2d_676 (Conv2D)          (None, 32, 32, 1024)      9438208   
_________________________________________________________________
activation_875 (Activation)  (None, 32, 32, 1024)      0         
_________________________________________________________________
dropout_875 (Dropout)        (None, 32, 32, 1024)      0         
_________________________________________________________________
max_pooling2d_203 (MaxPoolin (None, 16, 16, 1024)      0         
_________________________________________________________________
conv2d_677 (Conv2D)          (None, 16, 16, 64)        589888    
_________________________________________________________________
batch_normalization_409 (Bat (None, 16, 16, 64)        256       
_________________________________________________________________
activation_876 (Activation)  (None, 16, 16, 64)        0         
_________________________________________________________________
dropout_876 (Dropout)        (None, 16, 16, 64)        0         
_________________________________________________________________
max_pooling2d_204 (MaxPoolin (None, 8, 8, 64)          0         
_________________________________________________________________
conv2d_678 (Conv2D)          (None, 8, 8, 128)         73856     
_________________________________________________________________
activation_877 (Activation)  (None, 8, 8, 128)         0         
_________________________________________________________________
dropout_877 (Dropout)        (None, 8, 8, 128)         0         
_________________________________________________________________
conv2d_679 (Conv2D)          (None, 8, 8, 32)          36896     
_________________________________________________________________
batch_normalization_410 (Bat (None, 8, 8, 32)          128       
_________________________________________________________________
activation_878 (Activation)  (None, 8, 8, 32)          0         
_________________________________________________________________
dropout_878 (Dropout)        (None, 8, 8, 32)          0         
_________________________________________________________________
conv2d_680 (Conv2D)          (None, 8, 8, 1024)        295936    
_________________________________________________________________
activation_879 (Activation)  (None, 8, 8, 1024)        0         
_________________________________________________________________
dropout_879 (Dropout)        (None, 8, 8, 1024)        0         
_________________________________________________________________
conv2d_681 (Conv2D)          (None, 8, 8, 1024)        9438208   
_________________________________________________________________
batch_normalization_411 (Bat (None, 8, 8, 1024)        4096      
_________________________________________________________________
activation_880 (Activation)  (None, 8, 8, 1024)        0         
_________________________________________________________________
dropout_880 (Dropout)        (None, 8, 8, 1024)        0         
_________________________________________________________________
flatten_97 (Flatten)         (None, 65536)             0         
_________________________________________________________________
dense_296 (Dense)            (None, 64)                4194368   
_________________________________________________________________
batch_normalization_412 (Bat (None, 64)                256       
_________________________________________________________________
activation_881 (Activation)  (None, 64)                0         
_________________________________________________________________
dropout_881 (Dropout)        (None, 64)                0         
_________________________________________________________________
dense_297 (Dense)            (None, 10)                650       
=================================================================
Total params: 24,101,418
Trainable params: 24,099,050
Non-trainable params: 2,368
_________________________________________________________________
