Model: "sequential_77"
_________________________________________________________________
Layer (type)                 Output Shape              Param #   
=================================================================
conv2d_536 (Conv2D)          (None, 32, 32, 1024)      28672     
_________________________________________________________________
activation_702 (Activation)  (None, 32, 32, 1024)      0         
_________________________________________________________________
dropout_702 (Dropout)        (None, 32, 32, 1024)      0         
_________________________________________________________________
conv2d_537 (Conv2D)          (None, 32, 32, 1024)      9438208   
_________________________________________________________________
activation_703 (Activation)  (None, 32, 32, 1024)      0         
_________________________________________________________________
dropout_703 (Dropout)        (None, 32, 32, 1024)      0         
_________________________________________________________________
max_pooling2d_161 (MaxPoolin (None, 16, 16, 1024)      0         
_________________________________________________________________
conv2d_538 (Conv2D)          (None, 16, 16, 64)        589888    
_________________________________________________________________
batch_normalization_325 (Bat (None, 16, 16, 64)        256       
_________________________________________________________________
activation_704 (Activation)  (None, 16, 16, 64)        0         
_________________________________________________________________
dropout_704 (Dropout)        (None, 16, 16, 64)        0         
_________________________________________________________________
max_pooling2d_162 (MaxPoolin (None, 8, 8, 64)          0         
_________________________________________________________________
conv2d_539 (Conv2D)          (None, 8, 8, 128)         73856     
_________________________________________________________________
activation_705 (Activation)  (None, 8, 8, 128)         0         
_________________________________________________________________
dropout_705 (Dropout)        (None, 8, 8, 128)         0         
_________________________________________________________________
conv2d_540 (Conv2D)          (None, 8, 8, 32)          36896     
_________________________________________________________________
batch_normalization_326 (Bat (None, 8, 8, 32)          128       
_________________________________________________________________
activation_706 (Activation)  (None, 8, 8, 32)          0         
_________________________________________________________________
dropout_706 (Dropout)        (None, 8, 8, 32)          0         
_________________________________________________________________
conv2d_541 (Conv2D)          (None, 8, 8, 1024)        295936    
_________________________________________________________________
activation_707 (Activation)  (None, 8, 8, 1024)        0         
_________________________________________________________________
dropout_707 (Dropout)        (None, 8, 8, 1024)        0         
_________________________________________________________________
conv2d_542 (Conv2D)          (None, 8, 8, 1024)        9438208   
_________________________________________________________________
batch_normalization_327 (Bat (None, 8, 8, 1024)        4096      
_________________________________________________________________
activation_708 (Activation)  (None, 8, 8, 1024)        0         
_________________________________________________________________
dropout_708 (Dropout)        (None, 8, 8, 1024)        0         
_________________________________________________________________
flatten_77 (Flatten)         (None, 65536)             0         
_________________________________________________________________
dense_243 (Dense)            (None, 64)                4194368   
_________________________________________________________________
batch_normalization_328 (Bat (None, 64)                256       
_________________________________________________________________
activation_709 (Activation)  (None, 64)                0         
_________________________________________________________________
dropout_709 (Dropout)        (None, 64)                0         
_________________________________________________________________
dense_244 (Dense)            (None, 10)                650       
=================================================================
Total params: 24,101,418
Trainable params: 24,099,050
Non-trainable params: 2,368
_________________________________________________________________
