Model: "sequential_189"
_________________________________________________________________
Layer (type)                 Output Shape              Param #   
=================================================================
conv2d_1326 (Conv2D)         (None, 32, 32, 1024)      28672     
_________________________________________________________________
activation_1696 (Activation) (None, 32, 32, 1024)      0         
_________________________________________________________________
dropout_1696 (Dropout)       (None, 32, 32, 1024)      0         
_________________________________________________________________
conv2d_1327 (Conv2D)         (None, 32, 32, 1024)      9438208   
_________________________________________________________________
activation_1697 (Activation) (None, 32, 32, 1024)      0         
_________________________________________________________________
dropout_1697 (Dropout)       (None, 32, 32, 1024)      0         
_________________________________________________________________
max_pooling2d_416 (MaxPoolin (None, 16, 16, 1024)      0         
_________________________________________________________________
conv2d_1328 (Conv2D)         (None, 16, 16, 64)        589888    
_________________________________________________________________
batch_normalization_823 (Bat (None, 16, 16, 64)        256       
_________________________________________________________________
activation_1698 (Activation) (None, 16, 16, 64)        0         
_________________________________________________________________
dropout_1698 (Dropout)       (None, 16, 16, 64)        0         
_________________________________________________________________
max_pooling2d_417 (MaxPoolin (None, 8, 8, 64)          0         
_________________________________________________________________
conv2d_1329 (Conv2D)         (None, 8, 8, 128)         73856     
_________________________________________________________________
activation_1699 (Activation) (None, 8, 8, 128)         0         
_________________________________________________________________
dropout_1699 (Dropout)       (None, 8, 8, 128)         0         
_________________________________________________________________
conv2d_1330 (Conv2D)         (None, 8, 8, 32)          36896     
_________________________________________________________________
batch_normalization_824 (Bat (None, 8, 8, 32)          128       
_________________________________________________________________
activation_1700 (Activation) (None, 8, 8, 32)          0         
_________________________________________________________________
dropout_1700 (Dropout)       (None, 8, 8, 32)          0         
_________________________________________________________________
conv2d_1331 (Conv2D)         (None, 8, 8, 1024)        295936    
_________________________________________________________________
activation_1701 (Activation) (None, 8, 8, 1024)        0         
_________________________________________________________________
dropout_1701 (Dropout)       (None, 8, 8, 1024)        0         
_________________________________________________________________
conv2d_1332 (Conv2D)         (None, 8, 8, 256)         2359552   
_________________________________________________________________
batch_normalization_825 (Bat (None, 8, 8, 256)         1024      
_________________________________________________________________
activation_1702 (Activation) (None, 8, 8, 256)         0         
_________________________________________________________________
dropout_1702 (Dropout)       (None, 8, 8, 256)         0         
_________________________________________________________________
conv2d_1333 (Conv2D)         (None, 8, 8, 1024)        2360320   
_________________________________________________________________
batch_normalization_826 (Bat (None, 8, 8, 1024)        4096      
_________________________________________________________________
activation_1703 (Activation) (None, 8, 8, 1024)        0         
_________________________________________________________________
dropout_1703 (Dropout)       (None, 8, 8, 1024)        0         
_________________________________________________________________
flatten_189 (Flatten)        (None, 65536)             0         
_________________________________________________________________
dense_559 (Dense)            (None, 64)                4194368   
_________________________________________________________________
batch_normalization_827 (Bat (None, 64)                256       
_________________________________________________________________
activation_1704 (Activation) (None, 64)                0         
_________________________________________________________________
dropout_1704 (Dropout)       (None, 64)                0         
_________________________________________________________________
dense_560 (Dense)            (None, 256)               16640     
_________________________________________________________________
batch_normalization_828 (Bat (None, 256)               1024      
_________________________________________________________________
activation_1705 (Activation) (None, 256)               0         
_________________________________________________________________
dropout_1705 (Dropout)       (None, 256)               0         
_________________________________________________________________
dense_561 (Dense)            (None, 10)                2570      
=================================================================
Total params: 19,403,690
Trainable params: 19,400,298
Non-trainable params: 3,392
_________________________________________________________________
