Model: "sequential_95"
_________________________________________________________________
Layer (type)                 Output Shape              Param #   
=================================================================
conv2d_661 (Conv2D)          (None, 32, 32, 1024)      28672     
_________________________________________________________________
batch_normalization_399 (Bat (None, 32, 32, 1024)      4096      
_________________________________________________________________
activation_857 (Activation)  (None, 32, 32, 1024)      0         
_________________________________________________________________
dropout_857 (Dropout)        (None, 32, 32, 1024)      0         
_________________________________________________________________
conv2d_662 (Conv2D)          (None, 32, 32, 1024)      9438208   
_________________________________________________________________
activation_858 (Activation)  (None, 32, 32, 1024)      0         
_________________________________________________________________
dropout_858 (Dropout)        (None, 32, 32, 1024)      0         
_________________________________________________________________
max_pooling2d_198 (MaxPoolin (None, 16, 16, 1024)      0         
_________________________________________________________________
conv2d_663 (Conv2D)          (None, 16, 16, 64)        589888    
_________________________________________________________________
batch_normalization_400 (Bat (None, 16, 16, 64)        256       
_________________________________________________________________
activation_859 (Activation)  (None, 16, 16, 64)        0         
_________________________________________________________________
dropout_859 (Dropout)        (None, 16, 16, 64)        0         
_________________________________________________________________
max_pooling2d_199 (MaxPoolin (None, 8, 8, 64)          0         
_________________________________________________________________
conv2d_664 (Conv2D)          (None, 8, 8, 128)         73856     
_________________________________________________________________
activation_860 (Activation)  (None, 8, 8, 128)         0         
_________________________________________________________________
dropout_860 (Dropout)        (None, 8, 8, 128)         0         
_________________________________________________________________
conv2d_665 (Conv2D)          (None, 8, 8, 32)          36896     
_________________________________________________________________
batch_normalization_401 (Bat (None, 8, 8, 32)          128       
_________________________________________________________________
activation_861 (Activation)  (None, 8, 8, 32)          0         
_________________________________________________________________
dropout_861 (Dropout)        (None, 8, 8, 32)          0         
_________________________________________________________________
conv2d_666 (Conv2D)          (None, 8, 8, 1024)        295936    
_________________________________________________________________
activation_862 (Activation)  (None, 8, 8, 1024)        0         
_________________________________________________________________
dropout_862 (Dropout)        (None, 8, 8, 1024)        0         
_________________________________________________________________
conv2d_667 (Conv2D)          (None, 8, 8, 1024)        9438208   
_________________________________________________________________
batch_normalization_402 (Bat (None, 8, 8, 1024)        4096      
_________________________________________________________________
activation_863 (Activation)  (None, 8, 8, 1024)        0         
_________________________________________________________________
dropout_863 (Dropout)        (None, 8, 8, 1024)        0         
_________________________________________________________________
flatten_95 (Flatten)         (None, 65536)             0         
_________________________________________________________________
dense_291 (Dense)            (None, 64)                4194368   
_________________________________________________________________
batch_normalization_403 (Bat (None, 64)                256       
_________________________________________________________________
activation_864 (Activation)  (None, 64)                0         
_________________________________________________________________
dropout_864 (Dropout)        (None, 64)                0         
_________________________________________________________________
dense_292 (Dense)            (None, 10)                650       
=================================================================
Total params: 24,105,514
Trainable params: 24,101,098
Non-trainable params: 4,416
_________________________________________________________________
