Model: "sequential_165"
_________________________________________________________________
Layer (type)                 Output Shape              Param #   
=================================================================
conv2d_1152 (Conv2D)         (None, 32, 32, 1024)      28672     
_________________________________________________________________
activation_1474 (Activation) (None, 32, 32, 1024)      0         
_________________________________________________________________
dropout_1474 (Dropout)       (None, 32, 32, 1024)      0         
_________________________________________________________________
conv2d_1153 (Conv2D)         (None, 32, 32, 1024)      9438208   
_________________________________________________________________
activation_1475 (Activation) (None, 32, 32, 1024)      0         
_________________________________________________________________
dropout_1475 (Dropout)       (None, 32, 32, 1024)      0         
_________________________________________________________________
max_pooling2d_361 (MaxPoolin (None, 16, 16, 1024)      0         
_________________________________________________________________
conv2d_1154 (Conv2D)         (None, 16, 16, 64)        589888    
_________________________________________________________________
batch_normalization_706 (Bat (None, 16, 16, 64)        256       
_________________________________________________________________
activation_1476 (Activation) (None, 16, 16, 64)        0         
_________________________________________________________________
dropout_1476 (Dropout)       (None, 16, 16, 64)        0         
_________________________________________________________________
max_pooling2d_362 (MaxPoolin (None, 8, 8, 64)          0         
_________________________________________________________________
conv2d_1155 (Conv2D)         (None, 8, 8, 128)         73856     
_________________________________________________________________
activation_1477 (Activation) (None, 8, 8, 128)         0         
_________________________________________________________________
dropout_1477 (Dropout)       (None, 8, 8, 128)         0         
_________________________________________________________________
conv2d_1156 (Conv2D)         (None, 8, 8, 32)          36896     
_________________________________________________________________
batch_normalization_707 (Bat (None, 8, 8, 32)          128       
_________________________________________________________________
activation_1478 (Activation) (None, 8, 8, 32)          0         
_________________________________________________________________
dropout_1478 (Dropout)       (None, 8, 8, 32)          0         
_________________________________________________________________
conv2d_1157 (Conv2D)         (None, 8, 8, 1024)        295936    
_________________________________________________________________
activation_1479 (Activation) (None, 8, 8, 1024)        0         
_________________________________________________________________
dropout_1479 (Dropout)       (None, 8, 8, 1024)        0         
_________________________________________________________________
max_pooling2d_363 (MaxPoolin (None, 4, 4, 1024)        0         
_________________________________________________________________
conv2d_1158 (Conv2D)         (None, 4, 4, 1024)        9438208   
_________________________________________________________________
batch_normalization_708 (Bat (None, 4, 4, 1024)        4096      
_________________________________________________________________
activation_1480 (Activation) (None, 4, 4, 1024)        0         
_________________________________________________________________
dropout_1480 (Dropout)       (None, 4, 4, 1024)        0         
_________________________________________________________________
flatten_165 (Flatten)        (None, 16384)             0         
_________________________________________________________________
dense_487 (Dense)            (None, 64)                1048640   
_________________________________________________________________
batch_normalization_709 (Bat (None, 64)                256       
_________________________________________________________________
activation_1481 (Activation) (None, 64)                0         
_________________________________________________________________
dropout_1481 (Dropout)       (None, 64)                0         
_________________________________________________________________
dense_488 (Dense)            (None, 256)               16640     
_________________________________________________________________
activation_1482 (Activation) (None, 256)               0         
_________________________________________________________________
dropout_1482 (Dropout)       (None, 256)               0         
_________________________________________________________________
dense_489 (Dense)            (None, 10)                2570      
=================================================================
Total params: 20,974,250
Trainable params: 20,971,882
Non-trainable params: 2,368
_________________________________________________________________
