Model: "sequential_184"
_________________________________________________________________
Layer (type)                 Output Shape              Param #   
=================================================================
conv2d_1288 (Conv2D)         (None, 32, 32, 1024)      28672     
_________________________________________________________________
activation_1648 (Activation) (None, 32, 32, 1024)      0         
_________________________________________________________________
dropout_1648 (Dropout)       (None, 32, 32, 1024)      0         
_________________________________________________________________
conv2d_1289 (Conv2D)         (None, 32, 32, 1024)      9438208   
_________________________________________________________________
activation_1649 (Activation) (None, 32, 32, 1024)      0         
_________________________________________________________________
dropout_1649 (Dropout)       (None, 32, 32, 1024)      0         
_________________________________________________________________
max_pooling2d_405 (MaxPoolin (None, 16, 16, 1024)      0         
_________________________________________________________________
conv2d_1290 (Conv2D)         (None, 16, 16, 64)        589888    
_________________________________________________________________
batch_normalization_797 (Bat (None, 16, 16, 64)        256       
_________________________________________________________________
activation_1650 (Activation) (None, 16, 16, 64)        0         
_________________________________________________________________
dropout_1650 (Dropout)       (None, 16, 16, 64)        0         
_________________________________________________________________
max_pooling2d_406 (MaxPoolin (None, 8, 8, 64)          0         
_________________________________________________________________
conv2d_1291 (Conv2D)         (None, 8, 8, 128)         73856     
_________________________________________________________________
activation_1651 (Activation) (None, 8, 8, 128)         0         
_________________________________________________________________
dropout_1651 (Dropout)       (None, 8, 8, 128)         0         
_________________________________________________________________
conv2d_1292 (Conv2D)         (None, 8, 8, 32)          36896     
_________________________________________________________________
batch_normalization_798 (Bat (None, 8, 8, 32)          128       
_________________________________________________________________
activation_1652 (Activation) (None, 8, 8, 32)          0         
_________________________________________________________________
dropout_1652 (Dropout)       (None, 8, 8, 32)          0         
_________________________________________________________________
conv2d_1293 (Conv2D)         (None, 8, 8, 1024)        295936    
_________________________________________________________________
activation_1653 (Activation) (None, 8, 8, 1024)        0         
_________________________________________________________________
dropout_1653 (Dropout)       (None, 8, 8, 1024)        0         
_________________________________________________________________
conv2d_1294 (Conv2D)         (None, 8, 8, 256)         2359552   
_________________________________________________________________
batch_normalization_799 (Bat (None, 8, 8, 256)         1024      
_________________________________________________________________
activation_1654 (Activation) (None, 8, 8, 256)         0         
_________________________________________________________________
dropout_1654 (Dropout)       (None, 8, 8, 256)         0         
_________________________________________________________________
conv2d_1295 (Conv2D)         (None, 8, 8, 1024)        2360320   
_________________________________________________________________
batch_normalization_800 (Bat (None, 8, 8, 1024)        4096      
_________________________________________________________________
activation_1655 (Activation) (None, 8, 8, 1024)        0         
_________________________________________________________________
dropout_1655 (Dropout)       (None, 8, 8, 1024)        0         
_________________________________________________________________
flatten_184 (Flatten)        (None, 65536)             0         
_________________________________________________________________
dense_544 (Dense)            (None, 64)                4194368   
_________________________________________________________________
batch_normalization_801 (Bat (None, 64)                256       
_________________________________________________________________
activation_1656 (Activation) (None, 64)                0         
_________________________________________________________________
dropout_1656 (Dropout)       (None, 64)                0         
_________________________________________________________________
dense_545 (Dense)            (None, 256)               16640     
_________________________________________________________________
batch_normalization_802 (Bat (None, 256)               1024      
_________________________________________________________________
activation_1657 (Activation) (None, 256)               0         
_________________________________________________________________
dropout_1657 (Dropout)       (None, 256)               0         
_________________________________________________________________
dense_546 (Dense)            (None, 10)                2570      
=================================================================
Total params: 19,403,690
Trainable params: 19,400,298
Non-trainable params: 3,392
_________________________________________________________________
