Model: "sequential_19"
_________________________________________________________________
Layer (type)                 Output Shape              Param #   
=================================================================
conv2d_137 (Conv2D)          (None, 32, 32, 16)        448       
_________________________________________________________________
batch_normalization_91 (Batc (None, 32, 32, 16)        64        
_________________________________________________________________
activation_189 (Activation)  (None, 32, 32, 16)        0         
_________________________________________________________________
dropout_189 (Dropout)        (None, 32, 32, 16)        0         
_________________________________________________________________
conv2d_138 (Conv2D)          (None, 32, 32, 16)        2320      
_________________________________________________________________
activation_190 (Activation)  (None, 32, 32, 16)        0         
_________________________________________________________________
dropout_190 (Dropout)        (None, 32, 32, 16)        0         
_________________________________________________________________
conv2d_139 (Conv2D)          (None, 32, 32, 64)        9280      
_________________________________________________________________
activation_191 (Activation)  (None, 32, 32, 64)        0         
_________________________________________________________________
dropout_191 (Dropout)        (None, 32, 32, 64)        0         
_________________________________________________________________
max_pooling2d_44 (MaxPooling (None, 16, 16, 64)        0         
_________________________________________________________________
conv2d_140 (Conv2D)          (None, 16, 16, 16)        9232      
_________________________________________________________________
activation_192 (Activation)  (None, 16, 16, 16)        0         
_________________________________________________________________
dropout_192 (Dropout)        (None, 16, 16, 16)        0         
_________________________________________________________________
max_pooling2d_45 (MaxPooling (None, 8, 8, 16)          0         
_________________________________________________________________
conv2d_141 (Conv2D)          (None, 8, 8, 128)         18560     
_________________________________________________________________
activation_193 (Activation)  (None, 8, 8, 128)         0         
_________________________________________________________________
dropout_193 (Dropout)        (None, 8, 8, 128)         0         
_________________________________________________________________
conv2d_142 (Conv2D)          (None, 8, 8, 128)         147584    
_________________________________________________________________
activation_194 (Activation)  (None, 8, 8, 128)         0         
_________________________________________________________________
dropout_194 (Dropout)        (None, 8, 8, 128)         0         
_________________________________________________________________
conv2d_143 (Conv2D)          (None, 8, 8, 32)          36896     
_________________________________________________________________
batch_normalization_92 (Batc (None, 8, 8, 32)          128       
_________________________________________________________________
activation_195 (Activation)  (None, 8, 8, 32)          0         
_________________________________________________________________
dropout_195 (Dropout)        (None, 8, 8, 32)          0         
_________________________________________________________________
conv2d_144 (Conv2D)          (None, 8, 8, 512)         147968    
_________________________________________________________________
batch_normalization_93 (Batc (None, 8, 8, 512)         2048      
_________________________________________________________________
activation_196 (Activation)  (None, 8, 8, 512)         0         
_________________________________________________________________
dropout_196 (Dropout)        (None, 8, 8, 512)         0         
_________________________________________________________________
flatten_19 (Flatten)         (None, 32768)             0         
_________________________________________________________________
dense_71 (Dense)             (None, 128)               4194432   
_________________________________________________________________
activation_197 (Activation)  (None, 128)               0         
_________________________________________________________________
dropout_197 (Dropout)        (None, 128)               0         
_________________________________________________________________
dense_72 (Dense)             (None, 32)                4128      
_________________________________________________________________
activation_198 (Activation)  (None, 32)                0         
_________________________________________________________________
dropout_198 (Dropout)        (None, 32)                0         
_________________________________________________________________
dense_73 (Dense)             (None, 10)                330       
=================================================================
Total params: 4,573,418
Trainable params: 4,572,298
Non-trainable params: 1,120
_________________________________________________________________
