Model: "sequential_138"
_________________________________________________________________
Layer (type)                 Output Shape              Param #   
=================================================================
conv2d_962 (Conv2D)          (None, 32, 32, 1024)      28672     
_________________________________________________________________
activation_1231 (Activation) (None, 32, 32, 1024)      0         
_________________________________________________________________
dropout_1231 (Dropout)       (None, 32, 32, 1024)      0         
_________________________________________________________________
conv2d_963 (Conv2D)          (None, 32, 32, 1024)      9438208   
_________________________________________________________________
activation_1232 (Activation) (None, 32, 32, 1024)      0         
_________________________________________________________________
dropout_1232 (Dropout)       (None, 32, 32, 1024)      0         
_________________________________________________________________
max_pooling2d_297 (MaxPoolin (None, 16, 16, 1024)      0         
_________________________________________________________________
conv2d_964 (Conv2D)          (None, 16, 16, 64)        589888    
_________________________________________________________________
batch_normalization_588 (Bat (None, 16, 16, 64)        256       
_________________________________________________________________
activation_1233 (Activation) (None, 16, 16, 64)        0         
_________________________________________________________________
dropout_1233 (Dropout)       (None, 16, 16, 64)        0         
_________________________________________________________________
max_pooling2d_298 (MaxPoolin (None, 8, 8, 64)          0         
_________________________________________________________________
conv2d_965 (Conv2D)          (None, 8, 8, 128)         73856     
_________________________________________________________________
activation_1234 (Activation) (None, 8, 8, 128)         0         
_________________________________________________________________
dropout_1234 (Dropout)       (None, 8, 8, 128)         0         
_________________________________________________________________
conv2d_966 (Conv2D)          (None, 8, 8, 32)          36896     
_________________________________________________________________
batch_normalization_589 (Bat (None, 8, 8, 32)          128       
_________________________________________________________________
activation_1235 (Activation) (None, 8, 8, 32)          0         
_________________________________________________________________
dropout_1235 (Dropout)       (None, 8, 8, 32)          0         
_________________________________________________________________
conv2d_967 (Conv2D)          (None, 8, 8, 1024)        295936    
_________________________________________________________________
activation_1236 (Activation) (None, 8, 8, 1024)        0         
_________________________________________________________________
dropout_1236 (Dropout)       (None, 8, 8, 1024)        0         
_________________________________________________________________
max_pooling2d_299 (MaxPoolin (None, 4, 4, 1024)        0         
_________________________________________________________________
conv2d_968 (Conv2D)          (None, 4, 4, 1024)        9438208   
_________________________________________________________________
batch_normalization_590 (Bat (None, 4, 4, 1024)        4096      
_________________________________________________________________
activation_1237 (Activation) (None, 4, 4, 1024)        0         
_________________________________________________________________
dropout_1237 (Dropout)       (None, 4, 4, 1024)        0         
_________________________________________________________________
flatten_138 (Flatten)        (None, 16384)             0         
_________________________________________________________________
dense_407 (Dense)            (None, 64)                1048640   
_________________________________________________________________
batch_normalization_591 (Bat (None, 64)                256       
_________________________________________________________________
activation_1238 (Activation) (None, 64)                0         
_________________________________________________________________
dropout_1238 (Dropout)       (None, 64)                0         
_________________________________________________________________
dense_408 (Dense)            (None, 256)               16640     
_________________________________________________________________
activation_1239 (Activation) (None, 256)               0         
_________________________________________________________________
dropout_1239 (Dropout)       (None, 256)               0         
_________________________________________________________________
dense_409 (Dense)            (None, 10)                2570      
=================================================================
Total params: 20,974,250
Trainable params: 20,971,882
Non-trainable params: 2,368
_________________________________________________________________
