Model: "sequential_22"
_________________________________________________________________
Layer (type)                 Output Shape              Param #   
=================================================================
conv2d_159 (Conv2D)          (None, 32, 32, 1024)      28672     
_________________________________________________________________
activation_217 (Activation)  (None, 32, 32, 1024)      0         
_________________________________________________________________
dropout_217 (Dropout)        (None, 32, 32, 1024)      0         
_________________________________________________________________
conv2d_160 (Conv2D)          (None, 32, 32, 1024)      9438208   
_________________________________________________________________
activation_218 (Activation)  (None, 32, 32, 1024)      0         
_________________________________________________________________
dropout_218 (Dropout)        (None, 32, 32, 1024)      0         
_________________________________________________________________
max_pooling2d_50 (MaxPooling (None, 16, 16, 1024)      0         
_________________________________________________________________
conv2d_161 (Conv2D)          (None, 16, 16, 64)        589888    
_________________________________________________________________
batch_normalization_102 (Bat (None, 16, 16, 64)        256       
_________________________________________________________________
activation_219 (Activation)  (None, 16, 16, 64)        0         
_________________________________________________________________
dropout_219 (Dropout)        (None, 16, 16, 64)        0         
_________________________________________________________________
max_pooling2d_51 (MaxPooling (None, 8, 8, 64)          0         
_________________________________________________________________
conv2d_162 (Conv2D)          (None, 8, 8, 128)         73856     
_________________________________________________________________
activation_220 (Activation)  (None, 8, 8, 128)         0         
_________________________________________________________________
dropout_220 (Dropout)        (None, 8, 8, 128)         0         
_________________________________________________________________
conv2d_163 (Conv2D)          (None, 8, 8, 32)          36896     
_________________________________________________________________
batch_normalization_103 (Bat (None, 8, 8, 32)          128       
_________________________________________________________________
activation_221 (Activation)  (None, 8, 8, 32)          0         
_________________________________________________________________
dropout_221 (Dropout)        (None, 8, 8, 32)          0         
_________________________________________________________________
conv2d_164 (Conv2D)          (None, 8, 8, 1024)        295936    
_________________________________________________________________
activation_222 (Activation)  (None, 8, 8, 1024)        0         
_________________________________________________________________
dropout_222 (Dropout)        (None, 8, 8, 1024)        0         
_________________________________________________________________
conv2d_165 (Conv2D)          (None, 8, 8, 1024)        9438208   
_________________________________________________________________
batch_normalization_104 (Bat (None, 8, 8, 1024)        4096      
_________________________________________________________________
activation_223 (Activation)  (None, 8, 8, 1024)        0         
_________________________________________________________________
dropout_223 (Dropout)        (None, 8, 8, 1024)        0         
_________________________________________________________________
flatten_22 (Flatten)         (None, 65536)             0         
_________________________________________________________________
dense_80 (Dense)             (None, 64)                4194368   
_________________________________________________________________
batch_normalization_105 (Bat (None, 64)                256       
_________________________________________________________________
activation_224 (Activation)  (None, 64)                0         
_________________________________________________________________
dropout_224 (Dropout)        (None, 64)                0         
_________________________________________________________________
dense_81 (Dense)             (None, 256)               16640     
_________________________________________________________________
activation_225 (Activation)  (None, 256)               0         
_________________________________________________________________
dropout_225 (Dropout)        (None, 256)               0         
_________________________________________________________________
dense_82 (Dense)             (None, 16)                4112      
_________________________________________________________________
activation_226 (Activation)  (None, 16)                0         
_________________________________________________________________
dropout_226 (Dropout)        (None, 16)                0         
_________________________________________________________________
dense_83 (Dense)             (None, 10)                170       
=================================================================
Total params: 24,121,690
Trainable params: 24,119,322
Non-trainable params: 2,368
_________________________________________________________________
