Model: "sequential_146"
_________________________________________________________________
Layer (type)                 Output Shape              Param #   
=================================================================
conv2d_1018 (Conv2D)         (None, 32, 32, 1024)      28672     
_________________________________________________________________
activation_1302 (Activation) (None, 32, 32, 1024)      0         
_________________________________________________________________
dropout_1302 (Dropout)       (None, 32, 32, 1024)      0         
_________________________________________________________________
conv2d_1019 (Conv2D)         (None, 32, 32, 1024)      9438208   
_________________________________________________________________
activation_1303 (Activation) (None, 32, 32, 1024)      0         
_________________________________________________________________
dropout_1303 (Dropout)       (None, 32, 32, 1024)      0         
_________________________________________________________________
max_pooling2d_316 (MaxPoolin (None, 16, 16, 1024)      0         
_________________________________________________________________
conv2d_1020 (Conv2D)         (None, 16, 16, 64)        589888    
_________________________________________________________________
batch_normalization_620 (Bat (None, 16, 16, 64)        256       
_________________________________________________________________
activation_1304 (Activation) (None, 16, 16, 64)        0         
_________________________________________________________________
dropout_1304 (Dropout)       (None, 16, 16, 64)        0         
_________________________________________________________________
max_pooling2d_317 (MaxPoolin (None, 8, 8, 64)          0         
_________________________________________________________________
conv2d_1021 (Conv2D)         (None, 8, 8, 128)         73856     
_________________________________________________________________
activation_1305 (Activation) (None, 8, 8, 128)         0         
_________________________________________________________________
dropout_1305 (Dropout)       (None, 8, 8, 128)         0         
_________________________________________________________________
conv2d_1022 (Conv2D)         (None, 8, 8, 32)          36896     
_________________________________________________________________
batch_normalization_621 (Bat (None, 8, 8, 32)          128       
_________________________________________________________________
activation_1306 (Activation) (None, 8, 8, 32)          0         
_________________________________________________________________
dropout_1306 (Dropout)       (None, 8, 8, 32)          0         
_________________________________________________________________
conv2d_1023 (Conv2D)         (None, 8, 8, 1024)        295936    
_________________________________________________________________
activation_1307 (Activation) (None, 8, 8, 1024)        0         
_________________________________________________________________
dropout_1307 (Dropout)       (None, 8, 8, 1024)        0         
_________________________________________________________________
max_pooling2d_318 (MaxPoolin (None, 4, 4, 1024)        0         
_________________________________________________________________
conv2d_1024 (Conv2D)         (None, 4, 4, 1024)        9438208   
_________________________________________________________________
batch_normalization_622 (Bat (None, 4, 4, 1024)        4096      
_________________________________________________________________
activation_1308 (Activation) (None, 4, 4, 1024)        0         
_________________________________________________________________
dropout_1308 (Dropout)       (None, 4, 4, 1024)        0         
_________________________________________________________________
flatten_146 (Flatten)        (None, 16384)             0         
_________________________________________________________________
dense_430 (Dense)            (None, 64)                1048640   
_________________________________________________________________
batch_normalization_623 (Bat (None, 64)                256       
_________________________________________________________________
activation_1309 (Activation) (None, 64)                0         
_________________________________________________________________
dropout_1309 (Dropout)       (None, 64)                0         
_________________________________________________________________
dense_431 (Dense)            (None, 256)               16640     
_________________________________________________________________
activation_1310 (Activation) (None, 256)               0         
_________________________________________________________________
dropout_1310 (Dropout)       (None, 256)               0         
_________________________________________________________________
dense_432 (Dense)            (None, 10)                2570      
=================================================================
Total params: 20,974,250
Trainable params: 20,971,882
Non-trainable params: 2,368
_________________________________________________________________
