Model: "sequential_186"
_________________________________________________________________
Layer (type)                 Output Shape              Param #   
=================================================================
conv2d_1304 (Conv2D)         (None, 32, 32, 1024)      28672     
_________________________________________________________________
activation_1668 (Activation) (None, 32, 32, 1024)      0         
_________________________________________________________________
dropout_1668 (Dropout)       (None, 32, 32, 1024)      0         
_________________________________________________________________
conv2d_1305 (Conv2D)         (None, 32, 32, 1024)      9438208   
_________________________________________________________________
activation_1669 (Activation) (None, 32, 32, 1024)      0         
_________________________________________________________________
dropout_1669 (Dropout)       (None, 32, 32, 1024)      0         
_________________________________________________________________
max_pooling2d_409 (MaxPoolin (None, 16, 16, 1024)      0         
_________________________________________________________________
conv2d_1306 (Conv2D)         (None, 16, 16, 64)        589888    
_________________________________________________________________
batch_normalization_808 (Bat (None, 16, 16, 64)        256       
_________________________________________________________________
activation_1670 (Activation) (None, 16, 16, 64)        0         
_________________________________________________________________
dropout_1670 (Dropout)       (None, 16, 16, 64)        0         
_________________________________________________________________
max_pooling2d_410 (MaxPoolin (None, 8, 8, 64)          0         
_________________________________________________________________
conv2d_1307 (Conv2D)         (None, 8, 8, 128)         73856     
_________________________________________________________________
activation_1671 (Activation) (None, 8, 8, 128)         0         
_________________________________________________________________
dropout_1671 (Dropout)       (None, 8, 8, 128)         0         
_________________________________________________________________
conv2d_1308 (Conv2D)         (None, 8, 8, 32)          36896     
_________________________________________________________________
batch_normalization_809 (Bat (None, 8, 8, 32)          128       
_________________________________________________________________
activation_1672 (Activation) (None, 8, 8, 32)          0         
_________________________________________________________________
dropout_1672 (Dropout)       (None, 8, 8, 32)          0         
_________________________________________________________________
conv2d_1309 (Conv2D)         (None, 8, 8, 1024)        295936    
_________________________________________________________________
activation_1673 (Activation) (None, 8, 8, 1024)        0         
_________________________________________________________________
dropout_1673 (Dropout)       (None, 8, 8, 1024)        0         
_________________________________________________________________
max_pooling2d_411 (MaxPoolin (None, 4, 4, 1024)        0         
_________________________________________________________________
conv2d_1310 (Conv2D)         (None, 4, 4, 1024)        9438208   
_________________________________________________________________
batch_normalization_810 (Bat (None, 4, 4, 1024)        4096      
_________________________________________________________________
activation_1674 (Activation) (None, 4, 4, 1024)        0         
_________________________________________________________________
dropout_1674 (Dropout)       (None, 4, 4, 1024)        0         
_________________________________________________________________
flatten_186 (Flatten)        (None, 16384)             0         
_________________________________________________________________
dense_550 (Dense)            (None, 64)                1048640   
_________________________________________________________________
batch_normalization_811 (Bat (None, 64)                256       
_________________________________________________________________
activation_1675 (Activation) (None, 64)                0         
_________________________________________________________________
dropout_1675 (Dropout)       (None, 64)                0         
_________________________________________________________________
dense_551 (Dense)            (None, 256)               16640     
_________________________________________________________________
batch_normalization_812 (Bat (None, 256)               1024      
_________________________________________________________________
activation_1676 (Activation) (None, 256)               0         
_________________________________________________________________
dropout_1676 (Dropout)       (None, 256)               0         
_________________________________________________________________
dense_552 (Dense)            (None, 10)                2570      
=================================================================
Total params: 20,975,274
Trainable params: 20,972,394
Non-trainable params: 2,880
_________________________________________________________________
