Model: "sequential_169"
_________________________________________________________________
Layer (type)                 Output Shape              Param #   
=================================================================
conv2d_1180 (Conv2D)         (None, 32, 32, 1024)      28672     
_________________________________________________________________
batch_normalization_724 (Bat (None, 32, 32, 1024)      4096      
_________________________________________________________________
activation_1510 (Activation) (None, 32, 32, 1024)      0         
_________________________________________________________________
dropout_1510 (Dropout)       (None, 32, 32, 1024)      0         
_________________________________________________________________
conv2d_1181 (Conv2D)         (None, 32, 32, 1024)      9438208   
_________________________________________________________________
activation_1511 (Activation) (None, 32, 32, 1024)      0         
_________________________________________________________________
dropout_1511 (Dropout)       (None, 32, 32, 1024)      0         
_________________________________________________________________
max_pooling2d_371 (MaxPoolin (None, 16, 16, 1024)      0         
_________________________________________________________________
conv2d_1182 (Conv2D)         (None, 16, 16, 64)        589888    
_________________________________________________________________
batch_normalization_725 (Bat (None, 16, 16, 64)        256       
_________________________________________________________________
activation_1512 (Activation) (None, 16, 16, 64)        0         
_________________________________________________________________
dropout_1512 (Dropout)       (None, 16, 16, 64)        0         
_________________________________________________________________
max_pooling2d_372 (MaxPoolin (None, 8, 8, 64)          0         
_________________________________________________________________
conv2d_1183 (Conv2D)         (None, 8, 8, 128)         73856     
_________________________________________________________________
activation_1513 (Activation) (None, 8, 8, 128)         0         
_________________________________________________________________
dropout_1513 (Dropout)       (None, 8, 8, 128)         0         
_________________________________________________________________
conv2d_1184 (Conv2D)         (None, 8, 8, 32)          36896     
_________________________________________________________________
batch_normalization_726 (Bat (None, 8, 8, 32)          128       
_________________________________________________________________
activation_1514 (Activation) (None, 8, 8, 32)          0         
_________________________________________________________________
dropout_1514 (Dropout)       (None, 8, 8, 32)          0         
_________________________________________________________________
conv2d_1185 (Conv2D)         (None, 8, 8, 1024)        295936    
_________________________________________________________________
activation_1515 (Activation) (None, 8, 8, 1024)        0         
_________________________________________________________________
dropout_1515 (Dropout)       (None, 8, 8, 1024)        0         
_________________________________________________________________
max_pooling2d_373 (MaxPoolin (None, 4, 4, 1024)        0         
_________________________________________________________________
conv2d_1186 (Conv2D)         (None, 4, 4, 1024)        9438208   
_________________________________________________________________
batch_normalization_727 (Bat (None, 4, 4, 1024)        4096      
_________________________________________________________________
activation_1516 (Activation) (None, 4, 4, 1024)        0         
_________________________________________________________________
dropout_1516 (Dropout)       (None, 4, 4, 1024)        0         
_________________________________________________________________
flatten_169 (Flatten)        (None, 16384)             0         
_________________________________________________________________
dense_499 (Dense)            (None, 64)                1048640   
_________________________________________________________________
batch_normalization_728 (Bat (None, 64)                256       
_________________________________________________________________
activation_1517 (Activation) (None, 64)                0         
_________________________________________________________________
dropout_1517 (Dropout)       (None, 64)                0         
_________________________________________________________________
dense_500 (Dense)            (None, 256)               16640     
_________________________________________________________________
activation_1518 (Activation) (None, 256)               0         
_________________________________________________________________
dropout_1518 (Dropout)       (None, 256)               0         
_________________________________________________________________
dense_501 (Dense)            (None, 10)                2570      
=================================================================
Total params: 20,978,346
Trainable params: 20,973,930
Non-trainable params: 4,416
_________________________________________________________________
