Model: "sequential_123"
_________________________________________________________________
Layer (type)                 Output Shape              Param #   
=================================================================
conv2d_857 (Conv2D)          (None, 32, 32, 1024)      28672     
_________________________________________________________________
activation_1097 (Activation) (None, 32, 32, 1024)      0         
_________________________________________________________________
dropout_1097 (Dropout)       (None, 32, 32, 1024)      0         
_________________________________________________________________
conv2d_858 (Conv2D)          (None, 32, 32, 1024)      9438208   
_________________________________________________________________
activation_1098 (Activation) (None, 32, 32, 1024)      0         
_________________________________________________________________
dropout_1098 (Dropout)       (None, 32, 32, 1024)      0         
_________________________________________________________________
max_pooling2d_261 (MaxPoolin (None, 16, 16, 1024)      0         
_________________________________________________________________
conv2d_859 (Conv2D)          (None, 16, 16, 64)        589888    
_________________________________________________________________
batch_normalization_520 (Bat (None, 16, 16, 64)        256       
_________________________________________________________________
activation_1099 (Activation) (None, 16, 16, 64)        0         
_________________________________________________________________
dropout_1099 (Dropout)       (None, 16, 16, 64)        0         
_________________________________________________________________
max_pooling2d_262 (MaxPoolin (None, 8, 8, 64)          0         
_________________________________________________________________
conv2d_860 (Conv2D)          (None, 8, 8, 128)         73856     
_________________________________________________________________
activation_1100 (Activation) (None, 8, 8, 128)         0         
_________________________________________________________________
dropout_1100 (Dropout)       (None, 8, 8, 128)         0         
_________________________________________________________________
conv2d_861 (Conv2D)          (None, 8, 8, 32)          36896     
_________________________________________________________________
batch_normalization_521 (Bat (None, 8, 8, 32)          128       
_________________________________________________________________
activation_1101 (Activation) (None, 8, 8, 32)          0         
_________________________________________________________________
dropout_1101 (Dropout)       (None, 8, 8, 32)          0         
_________________________________________________________________
conv2d_862 (Conv2D)          (None, 8, 8, 1024)        295936    
_________________________________________________________________
activation_1102 (Activation) (None, 8, 8, 1024)        0         
_________________________________________________________________
dropout_1102 (Dropout)       (None, 8, 8, 1024)        0         
_________________________________________________________________
conv2d_863 (Conv2D)          (None, 8, 8, 1024)        9438208   
_________________________________________________________________
batch_normalization_522 (Bat (None, 8, 8, 1024)        4096      
_________________________________________________________________
activation_1103 (Activation) (None, 8, 8, 1024)        0         
_________________________________________________________________
dropout_1103 (Dropout)       (None, 8, 8, 1024)        0         
_________________________________________________________________
flatten_123 (Flatten)        (None, 65536)             0         
_________________________________________________________________
dense_363 (Dense)            (None, 64)                4194368   
_________________________________________________________________
batch_normalization_523 (Bat (None, 64)                256       
_________________________________________________________________
activation_1104 (Activation) (None, 64)                0         
_________________________________________________________________
dropout_1104 (Dropout)       (None, 64)                0         
_________________________________________________________________
dense_364 (Dense)            (None, 256)               16640     
_________________________________________________________________
activation_1105 (Activation) (None, 256)               0         
_________________________________________________________________
dropout_1105 (Dropout)       (None, 256)               0         
_________________________________________________________________
dense_365 (Dense)            (None, 10)                2570      
=================================================================
Total params: 24,119,978
Trainable params: 24,117,610
Non-trainable params: 2,368
_________________________________________________________________
