Model: "sequential_83"
_________________________________________________________________
Layer (type)                 Output Shape              Param #   
=================================================================
conv2d_578 (Conv2D)          (None, 32, 32, 1024)      28672     
_________________________________________________________________
batch_normalization_349 (Bat (None, 32, 32, 1024)      4096      
_________________________________________________________________
activation_753 (Activation)  (None, 32, 32, 1024)      0         
_________________________________________________________________
dropout_753 (Dropout)        (None, 32, 32, 1024)      0         
_________________________________________________________________
conv2d_579 (Conv2D)          (None, 32, 32, 1024)      9438208   
_________________________________________________________________
activation_754 (Activation)  (None, 32, 32, 1024)      0         
_________________________________________________________________
dropout_754 (Dropout)        (None, 32, 32, 1024)      0         
_________________________________________________________________
max_pooling2d_173 (MaxPoolin (None, 16, 16, 1024)      0         
_________________________________________________________________
conv2d_580 (Conv2D)          (None, 16, 16, 64)        589888    
_________________________________________________________________
batch_normalization_350 (Bat (None, 16, 16, 64)        256       
_________________________________________________________________
activation_755 (Activation)  (None, 16, 16, 64)        0         
_________________________________________________________________
dropout_755 (Dropout)        (None, 16, 16, 64)        0         
_________________________________________________________________
max_pooling2d_174 (MaxPoolin (None, 8, 8, 64)          0         
_________________________________________________________________
conv2d_581 (Conv2D)          (None, 8, 8, 128)         73856     
_________________________________________________________________
activation_756 (Activation)  (None, 8, 8, 128)         0         
_________________________________________________________________
dropout_756 (Dropout)        (None, 8, 8, 128)         0         
_________________________________________________________________
conv2d_582 (Conv2D)          (None, 8, 8, 32)          36896     
_________________________________________________________________
batch_normalization_351 (Bat (None, 8, 8, 32)          128       
_________________________________________________________________
activation_757 (Activation)  (None, 8, 8, 32)          0         
_________________________________________________________________
dropout_757 (Dropout)        (None, 8, 8, 32)          0         
_________________________________________________________________
conv2d_583 (Conv2D)          (None, 8, 8, 1024)        295936    
_________________________________________________________________
activation_758 (Activation)  (None, 8, 8, 1024)        0         
_________________________________________________________________
dropout_758 (Dropout)        (None, 8, 8, 1024)        0         
_________________________________________________________________
conv2d_584 (Conv2D)          (None, 8, 8, 1024)        9438208   
_________________________________________________________________
batch_normalization_352 (Bat (None, 8, 8, 1024)        4096      
_________________________________________________________________
activation_759 (Activation)  (None, 8, 8, 1024)        0         
_________________________________________________________________
dropout_759 (Dropout)        (None, 8, 8, 1024)        0         
_________________________________________________________________
flatten_83 (Flatten)         (None, 65536)             0         
_________________________________________________________________
dense_258 (Dense)            (None, 64)                4194368   
_________________________________________________________________
batch_normalization_353 (Bat (None, 64)                256       
_________________________________________________________________
activation_760 (Activation)  (None, 64)                0         
_________________________________________________________________
dropout_760 (Dropout)        (None, 64)                0         
_________________________________________________________________
dense_259 (Dense)            (None, 10)                650       
=================================================================
Total params: 24,105,514
Trainable params: 24,101,098
Non-trainable params: 4,416
_________________________________________________________________
