Model: "sequential_150"
_________________________________________________________________
Layer (type)                 Output Shape              Param #   
=================================================================
conv2d_1046 (Conv2D)         (None, 32, 32, 1024)      28672     
_________________________________________________________________
batch_normalization_638 (Bat (None, 32, 32, 1024)      4096      
_________________________________________________________________
activation_1338 (Activation) (None, 32, 32, 1024)      0         
_________________________________________________________________
dropout_1338 (Dropout)       (None, 32, 32, 1024)      0         
_________________________________________________________________
conv2d_1047 (Conv2D)         (None, 32, 32, 1024)      9438208   
_________________________________________________________________
activation_1339 (Activation) (None, 32, 32, 1024)      0         
_________________________________________________________________
dropout_1339 (Dropout)       (None, 32, 32, 1024)      0         
_________________________________________________________________
max_pooling2d_326 (MaxPoolin (None, 16, 16, 1024)      0         
_________________________________________________________________
conv2d_1048 (Conv2D)         (None, 16, 16, 64)        589888    
_________________________________________________________________
batch_normalization_639 (Bat (None, 16, 16, 64)        256       
_________________________________________________________________
activation_1340 (Activation) (None, 16, 16, 64)        0         
_________________________________________________________________
dropout_1340 (Dropout)       (None, 16, 16, 64)        0         
_________________________________________________________________
max_pooling2d_327 (MaxPoolin (None, 8, 8, 64)          0         
_________________________________________________________________
conv2d_1049 (Conv2D)         (None, 8, 8, 128)         73856     
_________________________________________________________________
activation_1341 (Activation) (None, 8, 8, 128)         0         
_________________________________________________________________
dropout_1341 (Dropout)       (None, 8, 8, 128)         0         
_________________________________________________________________
conv2d_1050 (Conv2D)         (None, 8, 8, 32)          36896     
_________________________________________________________________
batch_normalization_640 (Bat (None, 8, 8, 32)          128       
_________________________________________________________________
activation_1342 (Activation) (None, 8, 8, 32)          0         
_________________________________________________________________
dropout_1342 (Dropout)       (None, 8, 8, 32)          0         
_________________________________________________________________
conv2d_1051 (Conv2D)         (None, 8, 8, 1024)        295936    
_________________________________________________________________
activation_1343 (Activation) (None, 8, 8, 1024)        0         
_________________________________________________________________
dropout_1343 (Dropout)       (None, 8, 8, 1024)        0         
_________________________________________________________________
max_pooling2d_328 (MaxPoolin (None, 4, 4, 1024)        0         
_________________________________________________________________
conv2d_1052 (Conv2D)         (None, 4, 4, 1024)        9438208   
_________________________________________________________________
batch_normalization_641 (Bat (None, 4, 4, 1024)        4096      
_________________________________________________________________
activation_1344 (Activation) (None, 4, 4, 1024)        0         
_________________________________________________________________
dropout_1344 (Dropout)       (None, 4, 4, 1024)        0         
_________________________________________________________________
flatten_150 (Flatten)        (None, 16384)             0         
_________________________________________________________________
dense_442 (Dense)            (None, 64)                1048640   
_________________________________________________________________
batch_normalization_642 (Bat (None, 64)                256       
_________________________________________________________________
activation_1345 (Activation) (None, 64)                0         
_________________________________________________________________
dropout_1345 (Dropout)       (None, 64)                0         
_________________________________________________________________
dense_443 (Dense)            (None, 256)               16640     
_________________________________________________________________
activation_1346 (Activation) (None, 256)               0         
_________________________________________________________________
dropout_1346 (Dropout)       (None, 256)               0         
_________________________________________________________________
dense_444 (Dense)            (None, 10)                2570      
=================================================================
Total params: 20,978,346
Trainable params: 20,973,930
Non-trainable params: 4,416
_________________________________________________________________
