Model: "sequential_21"
_________________________________________________________________
Layer (type)                 Output Shape              Param #   
=================================================================
conv2d_152 (Conv2D)          (None, 32, 32, 1024)      28672     
_________________________________________________________________
activation_209 (Activation)  (None, 32, 32, 1024)      0         
_________________________________________________________________
dropout_209 (Dropout)        (None, 32, 32, 1024)      0         
_________________________________________________________________
conv2d_153 (Conv2D)          (None, 32, 32, 1024)      9438208   
_________________________________________________________________
activation_210 (Activation)  (None, 32, 32, 1024)      0         
_________________________________________________________________
dropout_210 (Dropout)        (None, 32, 32, 1024)      0         
_________________________________________________________________
max_pooling2d_48 (MaxPooling (None, 16, 16, 1024)      0         
_________________________________________________________________
conv2d_154 (Conv2D)          (None, 16, 16, 64)        589888    
_________________________________________________________________
batch_normalization_98 (Batc (None, 16, 16, 64)        256       
_________________________________________________________________
activation_211 (Activation)  (None, 16, 16, 64)        0         
_________________________________________________________________
dropout_211 (Dropout)        (None, 16, 16, 64)        0         
_________________________________________________________________
max_pooling2d_49 (MaxPooling (None, 8, 8, 64)          0         
_________________________________________________________________
conv2d_155 (Conv2D)          (None, 8, 8, 128)         73856     
_________________________________________________________________
activation_212 (Activation)  (None, 8, 8, 128)         0         
_________________________________________________________________
dropout_212 (Dropout)        (None, 8, 8, 128)         0         
_________________________________________________________________
conv2d_156 (Conv2D)          (None, 8, 8, 32)          36896     
_________________________________________________________________
batch_normalization_99 (Batc (None, 8, 8, 32)          128       
_________________________________________________________________
activation_213 (Activation)  (None, 8, 8, 32)          0         
_________________________________________________________________
dropout_213 (Dropout)        (None, 8, 8, 32)          0         
_________________________________________________________________
conv2d_157 (Conv2D)          (None, 8, 8, 1024)        295936    
_________________________________________________________________
activation_214 (Activation)  (None, 8, 8, 1024)        0         
_________________________________________________________________
dropout_214 (Dropout)        (None, 8, 8, 1024)        0         
_________________________________________________________________
conv2d_158 (Conv2D)          (None, 8, 8, 1024)        9438208   
_________________________________________________________________
batch_normalization_100 (Bat (None, 8, 8, 1024)        4096      
_________________________________________________________________
activation_215 (Activation)  (None, 8, 8, 1024)        0         
_________________________________________________________________
dropout_215 (Dropout)        (None, 8, 8, 1024)        0         
_________________________________________________________________
flatten_21 (Flatten)         (None, 65536)             0         
_________________________________________________________________
dense_78 (Dense)             (None, 64)                4194368   
_________________________________________________________________
batch_normalization_101 (Bat (None, 64)                256       
_________________________________________________________________
activation_216 (Activation)  (None, 64)                0         
_________________________________________________________________
dropout_216 (Dropout)        (None, 64)                0         
_________________________________________________________________
dense_79 (Dense)             (None, 10)                650       
=================================================================
Total params: 24,101,418
Trainable params: 24,099,050
Non-trainable params: 2,368
_________________________________________________________________
