Model: "sequential_139"
_________________________________________________________________
Layer (type)                 Output Shape              Param #   
=================================================================
conv2d_969 (Conv2D)          (None, 32, 32, 1024)      28672     
_________________________________________________________________
activation_1240 (Activation) (None, 32, 32, 1024)      0         
_________________________________________________________________
dropout_1240 (Dropout)       (None, 32, 32, 1024)      0         
_________________________________________________________________
conv2d_970 (Conv2D)          (None, 32, 32, 1024)      9438208   
_________________________________________________________________
activation_1241 (Activation) (None, 32, 32, 1024)      0         
_________________________________________________________________
dropout_1241 (Dropout)       (None, 32, 32, 1024)      0         
_________________________________________________________________
max_pooling2d_300 (MaxPoolin (None, 16, 16, 1024)      0         
_________________________________________________________________
conv2d_971 (Conv2D)          (None, 16, 16, 64)        589888    
_________________________________________________________________
batch_normalization_592 (Bat (None, 16, 16, 64)        256       
_________________________________________________________________
activation_1242 (Activation) (None, 16, 16, 64)        0         
_________________________________________________________________
dropout_1242 (Dropout)       (None, 16, 16, 64)        0         
_________________________________________________________________
max_pooling2d_301 (MaxPoolin (None, 8, 8, 64)          0         
_________________________________________________________________
conv2d_972 (Conv2D)          (None, 8, 8, 128)         73856     
_________________________________________________________________
activation_1243 (Activation) (None, 8, 8, 128)         0         
_________________________________________________________________
dropout_1243 (Dropout)       (None, 8, 8, 128)         0         
_________________________________________________________________
conv2d_973 (Conv2D)          (None, 8, 8, 32)          36896     
_________________________________________________________________
batch_normalization_593 (Bat (None, 8, 8, 32)          128       
_________________________________________________________________
activation_1244 (Activation) (None, 8, 8, 32)          0         
_________________________________________________________________
dropout_1244 (Dropout)       (None, 8, 8, 32)          0         
_________________________________________________________________
conv2d_974 (Conv2D)          (None, 8, 8, 1024)        295936    
_________________________________________________________________
activation_1245 (Activation) (None, 8, 8, 1024)        0         
_________________________________________________________________
dropout_1245 (Dropout)       (None, 8, 8, 1024)        0         
_________________________________________________________________
conv2d_975 (Conv2D)          (None, 8, 8, 1024)        9438208   
_________________________________________________________________
batch_normalization_594 (Bat (None, 8, 8, 1024)        4096      
_________________________________________________________________
activation_1246 (Activation) (None, 8, 8, 1024)        0         
_________________________________________________________________
dropout_1246 (Dropout)       (None, 8, 8, 1024)        0         
_________________________________________________________________
flatten_139 (Flatten)        (None, 65536)             0         
_________________________________________________________________
dense_410 (Dense)            (None, 64)                4194368   
_________________________________________________________________
batch_normalization_595 (Bat (None, 64)                256       
_________________________________________________________________
activation_1247 (Activation) (None, 64)                0         
_________________________________________________________________
dropout_1247 (Dropout)       (None, 64)                0         
_________________________________________________________________
dense_411 (Dense)            (None, 10)                650       
=================================================================
Total params: 24,101,418
Trainable params: 24,099,050
Non-trainable params: 2,368
_________________________________________________________________
