Model: "sequential_114"
_________________________________________________________________
Layer (type)                 Output Shape              Param #   
=================================================================
conv2d_794 (Conv2D)          (None, 32, 32, 1024)      28672     
_________________________________________________________________
activation_1020 (Activation) (None, 32, 32, 1024)      0         
_________________________________________________________________
dropout_1020 (Dropout)       (None, 32, 32, 1024)      0         
_________________________________________________________________
conv2d_795 (Conv2D)          (None, 32, 32, 1024)      9438208   
_________________________________________________________________
activation_1021 (Activation) (None, 32, 32, 1024)      0         
_________________________________________________________________
dropout_1021 (Dropout)       (None, 32, 32, 1024)      0         
_________________________________________________________________
max_pooling2d_240 (MaxPoolin (None, 16, 16, 1024)      0         
_________________________________________________________________
conv2d_796 (Conv2D)          (None, 16, 16, 64)        589888    
_________________________________________________________________
batch_normalization_480 (Bat (None, 16, 16, 64)        256       
_________________________________________________________________
activation_1022 (Activation) (None, 16, 16, 64)        0         
_________________________________________________________________
dropout_1022 (Dropout)       (None, 16, 16, 64)        0         
_________________________________________________________________
max_pooling2d_241 (MaxPoolin (None, 8, 8, 64)          0         
_________________________________________________________________
conv2d_797 (Conv2D)          (None, 8, 8, 128)         73856     
_________________________________________________________________
activation_1023 (Activation) (None, 8, 8, 128)         0         
_________________________________________________________________
dropout_1023 (Dropout)       (None, 8, 8, 128)         0         
_________________________________________________________________
conv2d_798 (Conv2D)          (None, 8, 8, 32)          36896     
_________________________________________________________________
batch_normalization_481 (Bat (None, 8, 8, 32)          128       
_________________________________________________________________
activation_1024 (Activation) (None, 8, 8, 32)          0         
_________________________________________________________________
dropout_1024 (Dropout)       (None, 8, 8, 32)          0         
_________________________________________________________________
conv2d_799 (Conv2D)          (None, 8, 8, 1024)        295936    
_________________________________________________________________
activation_1025 (Activation) (None, 8, 8, 1024)        0         
_________________________________________________________________
dropout_1025 (Dropout)       (None, 8, 8, 1024)        0         
_________________________________________________________________
conv2d_800 (Conv2D)          (None, 8, 8, 1024)        9438208   
_________________________________________________________________
batch_normalization_482 (Bat (None, 8, 8, 1024)        4096      
_________________________________________________________________
activation_1026 (Activation) (None, 8, 8, 1024)        0         
_________________________________________________________________
dropout_1026 (Dropout)       (None, 8, 8, 1024)        0         
_________________________________________________________________
flatten_114 (Flatten)        (None, 65536)             0         
_________________________________________________________________
dense_340 (Dense)            (None, 64)                4194368   
_________________________________________________________________
batch_normalization_483 (Bat (None, 64)                256       
_________________________________________________________________
activation_1027 (Activation) (None, 64)                0         
_________________________________________________________________
dropout_1027 (Dropout)       (None, 64)                0         
_________________________________________________________________
dense_341 (Dense)            (None, 10)                650       
=================================================================
Total params: 24,101,418
Trainable params: 24,099,050
Non-trainable params: 2,368
_________________________________________________________________
