Model: "sequential_193"
_________________________________________________________________
Layer (type)                 Output Shape              Param #   
=================================================================
conv2d_1356 (Conv2D)         (None, 32, 32, 1024)      28672     
_________________________________________________________________
batch_normalization_847 (Bat (None, 32, 32, 1024)      4096      
_________________________________________________________________
activation_1734 (Activation) (None, 32, 32, 1024)      0         
_________________________________________________________________
dropout_1734 (Dropout)       (None, 32, 32, 1024)      0         
_________________________________________________________________
conv2d_1357 (Conv2D)         (None, 32, 32, 1024)      9438208   
_________________________________________________________________
activation_1735 (Activation) (None, 32, 32, 1024)      0         
_________________________________________________________________
dropout_1735 (Dropout)       (None, 32, 32, 1024)      0         
_________________________________________________________________
conv2d_1358 (Conv2D)         (None, 32, 32, 64)        589888    
_________________________________________________________________
batch_normalization_848 (Bat (None, 32, 32, 64)        256       
_________________________________________________________________
activation_1736 (Activation) (None, 32, 32, 64)        0         
_________________________________________________________________
dropout_1736 (Dropout)       (None, 32, 32, 64)        0         
_________________________________________________________________
max_pooling2d_421 (MaxPoolin (None, 16, 16, 64)        0         
_________________________________________________________________
conv2d_1359 (Conv2D)         (None, 16, 16, 128)       73856     
_________________________________________________________________
activation_1737 (Activation) (None, 16, 16, 128)       0         
_________________________________________________________________
dropout_1737 (Dropout)       (None, 16, 16, 128)       0         
_________________________________________________________________
conv2d_1360 (Conv2D)         (None, 16, 16, 32)        36896     
_________________________________________________________________
batch_normalization_849 (Bat (None, 16, 16, 32)        128       
_________________________________________________________________
activation_1738 (Activation) (None, 16, 16, 32)        0         
_________________________________________________________________
dropout_1738 (Dropout)       (None, 16, 16, 32)        0         
_________________________________________________________________
conv2d_1361 (Conv2D)         (None, 16, 16, 1024)      295936    
_________________________________________________________________
activation_1739 (Activation) (None, 16, 16, 1024)      0         
_________________________________________________________________
dropout_1739 (Dropout)       (None, 16, 16, 1024)      0         
_________________________________________________________________
conv2d_1362 (Conv2D)         (None, 16, 16, 256)       2359552   
_________________________________________________________________
batch_normalization_850 (Bat (None, 16, 16, 256)       1024      
_________________________________________________________________
activation_1740 (Activation) (None, 16, 16, 256)       0         
_________________________________________________________________
dropout_1740 (Dropout)       (None, 16, 16, 256)       0         
_________________________________________________________________
conv2d_1363 (Conv2D)         (None, 16, 16, 1024)      2360320   
_________________________________________________________________
batch_normalization_851 (Bat (None, 16, 16, 1024)      4096      
_________________________________________________________________
activation_1741 (Activation) (None, 16, 16, 1024)      0         
_________________________________________________________________
dropout_1741 (Dropout)       (None, 16, 16, 1024)      0         
_________________________________________________________________
flatten_193 (Flatten)        (None, 262144)            0         
_________________________________________________________________
dense_571 (Dense)            (None, 64)                16777280  
_________________________________________________________________
activation_1742 (Activation) (None, 64)                0         
_________________________________________________________________
dropout_1742 (Dropout)       (None, 64)                0         
_________________________________________________________________
dense_572 (Dense)            (None, 256)               16640     
_________________________________________________________________
batch_normalization_852 (Bat (None, 256)               1024      
_________________________________________________________________
activation_1743 (Activation) (None, 256)               0         
_________________________________________________________________
dropout_1743 (Dropout)       (None, 256)               0         
_________________________________________________________________
dense_573 (Dense)            (None, 10)                2570      
=================================================================
Total params: 31,990,442
Trainable params: 31,985,130
Non-trainable params: 5,312
_________________________________________________________________
