Model: "sequential_54"
_________________________________________________________________
Layer (type)                 Output Shape              Param #   
=================================================================
conv2d_376 (Conv2D)          (None, 32, 32, 1024)      28672     
_________________________________________________________________
activation_504 (Activation)  (None, 32, 32, 1024)      0         
_________________________________________________________________
dropout_504 (Dropout)        (None, 32, 32, 1024)      0         
_________________________________________________________________
conv2d_377 (Conv2D)          (None, 32, 32, 1024)      9438208   
_________________________________________________________________
activation_505 (Activation)  (None, 32, 32, 1024)      0         
_________________________________________________________________
dropout_505 (Dropout)        (None, 32, 32, 1024)      0         
_________________________________________________________________
max_pooling2d_115 (MaxPoolin (None, 16, 16, 1024)      0         
_________________________________________________________________
conv2d_378 (Conv2D)          (None, 16, 16, 64)        589888    
_________________________________________________________________
batch_normalization_228 (Bat (None, 16, 16, 64)        256       
_________________________________________________________________
activation_506 (Activation)  (None, 16, 16, 64)        0         
_________________________________________________________________
dropout_506 (Dropout)        (None, 16, 16, 64)        0         
_________________________________________________________________
max_pooling2d_116 (MaxPoolin (None, 8, 8, 64)          0         
_________________________________________________________________
conv2d_379 (Conv2D)          (None, 8, 8, 128)         73856     
_________________________________________________________________
activation_507 (Activation)  (None, 8, 8, 128)         0         
_________________________________________________________________
dropout_507 (Dropout)        (None, 8, 8, 128)         0         
_________________________________________________________________
conv2d_380 (Conv2D)          (None, 8, 8, 32)          36896     
_________________________________________________________________
batch_normalization_229 (Bat (None, 8, 8, 32)          128       
_________________________________________________________________
activation_508 (Activation)  (None, 8, 8, 32)          0         
_________________________________________________________________
dropout_508 (Dropout)        (None, 8, 8, 32)          0         
_________________________________________________________________
conv2d_381 (Conv2D)          (None, 8, 8, 1024)        295936    
_________________________________________________________________
activation_509 (Activation)  (None, 8, 8, 1024)        0         
_________________________________________________________________
dropout_509 (Dropout)        (None, 8, 8, 1024)        0         
_________________________________________________________________
conv2d_382 (Conv2D)          (None, 8, 8, 1024)        9438208   
_________________________________________________________________
batch_normalization_230 (Bat (None, 8, 8, 1024)        4096      
_________________________________________________________________
activation_510 (Activation)  (None, 8, 8, 1024)        0         
_________________________________________________________________
dropout_510 (Dropout)        (None, 8, 8, 1024)        0         
_________________________________________________________________
flatten_54 (Flatten)         (None, 65536)             0         
_________________________________________________________________
dense_182 (Dense)            (None, 64)                4194368   
_________________________________________________________________
batch_normalization_231 (Bat (None, 64)                256       
_________________________________________________________________
activation_511 (Activation)  (None, 64)                0         
_________________________________________________________________
dropout_511 (Dropout)        (None, 64)                0         
_________________________________________________________________
dense_183 (Dense)            (None, 10)                650       
=================================================================
Total params: 24,101,418
Trainable params: 24,099,050
Non-trainable params: 2,368
_________________________________________________________________
