Model: "sequential_126"
_________________________________________________________________
Layer (type)                 Output Shape              Param #   
=================================================================
conv2d_878 (Conv2D)          (None, 32, 32, 1024)      28672     
_________________________________________________________________
batch_normalization_533 (Bat (None, 32, 32, 1024)      4096      
_________________________________________________________________
activation_1124 (Activation) (None, 32, 32, 1024)      0         
_________________________________________________________________
dropout_1124 (Dropout)       (None, 32, 32, 1024)      0         
_________________________________________________________________
conv2d_879 (Conv2D)          (None, 32, 32, 1024)      9438208   
_________________________________________________________________
activation_1125 (Activation) (None, 32, 32, 1024)      0         
_________________________________________________________________
dropout_1125 (Dropout)       (None, 32, 32, 1024)      0         
_________________________________________________________________
max_pooling2d_269 (MaxPoolin (None, 16, 16, 1024)      0         
_________________________________________________________________
conv2d_880 (Conv2D)          (None, 16, 16, 64)        589888    
_________________________________________________________________
batch_normalization_534 (Bat (None, 16, 16, 64)        256       
_________________________________________________________________
activation_1126 (Activation) (None, 16, 16, 64)        0         
_________________________________________________________________
dropout_1126 (Dropout)       (None, 16, 16, 64)        0         
_________________________________________________________________
max_pooling2d_270 (MaxPoolin (None, 8, 8, 64)          0         
_________________________________________________________________
conv2d_881 (Conv2D)          (None, 8, 8, 128)         73856     
_________________________________________________________________
activation_1127 (Activation) (None, 8, 8, 128)         0         
_________________________________________________________________
dropout_1127 (Dropout)       (None, 8, 8, 128)         0         
_________________________________________________________________
conv2d_882 (Conv2D)          (None, 8, 8, 32)          36896     
_________________________________________________________________
batch_normalization_535 (Bat (None, 8, 8, 32)          128       
_________________________________________________________________
activation_1128 (Activation) (None, 8, 8, 32)          0         
_________________________________________________________________
dropout_1128 (Dropout)       (None, 8, 8, 32)          0         
_________________________________________________________________
conv2d_883 (Conv2D)          (None, 8, 8, 1024)        295936    
_________________________________________________________________
activation_1129 (Activation) (None, 8, 8, 1024)        0         
_________________________________________________________________
dropout_1129 (Dropout)       (None, 8, 8, 1024)        0         
_________________________________________________________________
conv2d_884 (Conv2D)          (None, 8, 8, 1024)        9438208   
_________________________________________________________________
batch_normalization_536 (Bat (None, 8, 8, 1024)        4096      
_________________________________________________________________
activation_1130 (Activation) (None, 8, 8, 1024)        0         
_________________________________________________________________
dropout_1130 (Dropout)       (None, 8, 8, 1024)        0         
_________________________________________________________________
flatten_126 (Flatten)        (None, 65536)             0         
_________________________________________________________________
dense_372 (Dense)            (None, 64)                4194368   
_________________________________________________________________
batch_normalization_537 (Bat (None, 64)                256       
_________________________________________________________________
activation_1131 (Activation) (None, 64)                0         
_________________________________________________________________
dropout_1131 (Dropout)       (None, 64)                0         
_________________________________________________________________
dense_373 (Dense)            (None, 256)               16640     
_________________________________________________________________
activation_1132 (Activation) (None, 256)               0         
_________________________________________________________________
dropout_1132 (Dropout)       (None, 256)               0         
_________________________________________________________________
dense_374 (Dense)            (None, 10)                2570      
=================================================================
Total params: 24,124,074
Trainable params: 24,119,658
Non-trainable params: 4,416
_________________________________________________________________
