Model: "sequential_2"
_________________________________________________________________
Layer (type)                 Output Shape              Param #   
=================================================================
conv2d_13 (Conv2D)           (None, 32, 32, 16)        448       
_________________________________________________________________
batch_normalization_5 (Batch (None, 32, 32, 16)        64        
_________________________________________________________________
activation_18 (Activation)   (None, 32, 32, 16)        0         
_________________________________________________________________
dropout_18 (Dropout)         (None, 32, 32, 16)        0         
_________________________________________________________________
conv2d_14 (Conv2D)           (None, 32, 32, 1024)      148480    
_________________________________________________________________
activation_19 (Activation)   (None, 32, 32, 1024)      0         
_________________________________________________________________
dropout_19 (Dropout)         (None, 32, 32, 1024)      0         
_________________________________________________________________
max_pooling2d_5 (MaxPooling2 (None, 16, 16, 1024)      0         
_________________________________________________________________
conv2d_15 (Conv2D)           (None, 16, 16, 8)         73736     
_________________________________________________________________
activation_20 (Activation)   (None, 16, 16, 8)         0         
_________________________________________________________________
dropout_20 (Dropout)         (None, 16, 16, 8)         0         
_________________________________________________________________
max_pooling2d_6 (MaxPooling2 (None, 8, 8, 8)           0         
_________________________________________________________________
conv2d_16 (Conv2D)           (None, 8, 8, 16)          1168      
_________________________________________________________________
batch_normalization_6 (Batch (None, 8, 8, 16)          64        
_________________________________________________________________
activation_21 (Activation)   (None, 8, 8, 16)          0         
_________________________________________________________________
dropout_21 (Dropout)         (None, 8, 8, 16)          0         
_________________________________________________________________
conv2d_17 (Conv2D)           (None, 8, 8, 8)           1160      
_________________________________________________________________
batch_normalization_7 (Batch (None, 8, 8, 8)           32        
_________________________________________________________________
activation_22 (Activation)   (None, 8, 8, 8)           0         
_________________________________________________________________
dropout_22 (Dropout)         (None, 8, 8, 8)           0         
_________________________________________________________________
conv2d_18 (Conv2D)           (None, 8, 8, 128)         9344      
_________________________________________________________________
activation_23 (Activation)   (None, 8, 8, 128)         0         
_________________________________________________________________
dropout_23 (Dropout)         (None, 8, 8, 128)         0         
_________________________________________________________________
conv2d_19 (Conv2D)           (None, 8, 8, 512)         590336    
_________________________________________________________________
activation_24 (Activation)   (None, 8, 8, 512)         0         
_________________________________________________________________
dropout_24 (Dropout)         (None, 8, 8, 512)         0         
_________________________________________________________________
max_pooling2d_7 (MaxPooling2 (None, 4, 4, 512)         0         
_________________________________________________________________
flatten_2 (Flatten)          (None, 8192)              0         
_________________________________________________________________
dense_7 (Dense)              (None, 64)                524352    
_________________________________________________________________
batch_normalization_8 (Batch (None, 64)                256       
_________________________________________________________________
activation_25 (Activation)   (None, 64)                0         
_________________________________________________________________
dropout_25 (Dropout)         (None, 64)                0         
_________________________________________________________________
dense_8 (Dense)              (None, 64)                4160      
_________________________________________________________________
batch_normalization_9 (Batch (None, 64)                256       
_________________________________________________________________
activation_26 (Activation)   (None, 64)                0         
_________________________________________________________________
dropout_26 (Dropout)         (None, 64)                0         
_________________________________________________________________
dense_9 (Dense)              (None, 10)                650       
=================================================================
Total params: 1,354,506
Trainable params: 1,354,170
Non-trainable params: 336
_________________________________________________________________
