Model: "sequential_49"
_________________________________________________________________
Layer (type)                 Output Shape              Param #   
=================================================================
conv2d_341 (Conv2D)          (None, 32, 32, 1024)      28672     
_________________________________________________________________
activation_459 (Activation)  (None, 32, 32, 1024)      0         
_________________________________________________________________
dropout_459 (Dropout)        (None, 32, 32, 1024)      0         
_________________________________________________________________
conv2d_342 (Conv2D)          (None, 32, 32, 1024)      9438208   
_________________________________________________________________
activation_460 (Activation)  (None, 32, 32, 1024)      0         
_________________________________________________________________
dropout_460 (Dropout)        (None, 32, 32, 1024)      0         
_________________________________________________________________
max_pooling2d_105 (MaxPoolin (None, 16, 16, 1024)      0         
_________________________________________________________________
conv2d_343 (Conv2D)          (None, 16, 16, 64)        589888    
_________________________________________________________________
batch_normalization_207 (Bat (None, 16, 16, 64)        256       
_________________________________________________________________
activation_461 (Activation)  (None, 16, 16, 64)        0         
_________________________________________________________________
dropout_461 (Dropout)        (None, 16, 16, 64)        0         
_________________________________________________________________
max_pooling2d_106 (MaxPoolin (None, 8, 8, 64)          0         
_________________________________________________________________
conv2d_344 (Conv2D)          (None, 8, 8, 128)         73856     
_________________________________________________________________
activation_462 (Activation)  (None, 8, 8, 128)         0         
_________________________________________________________________
dropout_462 (Dropout)        (None, 8, 8, 128)         0         
_________________________________________________________________
conv2d_345 (Conv2D)          (None, 8, 8, 32)          36896     
_________________________________________________________________
batch_normalization_208 (Bat (None, 8, 8, 32)          128       
_________________________________________________________________
activation_463 (Activation)  (None, 8, 8, 32)          0         
_________________________________________________________________
dropout_463 (Dropout)        (None, 8, 8, 32)          0         
_________________________________________________________________
conv2d_346 (Conv2D)          (None, 8, 8, 1024)        295936    
_________________________________________________________________
activation_464 (Activation)  (None, 8, 8, 1024)        0         
_________________________________________________________________
dropout_464 (Dropout)        (None, 8, 8, 1024)        0         
_________________________________________________________________
conv2d_347 (Conv2D)          (None, 8, 8, 1024)        9438208   
_________________________________________________________________
batch_normalization_209 (Bat (None, 8, 8, 1024)        4096      
_________________________________________________________________
activation_465 (Activation)  (None, 8, 8, 1024)        0         
_________________________________________________________________
dropout_465 (Dropout)        (None, 8, 8, 1024)        0         
_________________________________________________________________
flatten_49 (Flatten)         (None, 65536)             0         
_________________________________________________________________
dense_167 (Dense)            (None, 64)                4194368   
_________________________________________________________________
batch_normalization_210 (Bat (None, 64)                256       
_________________________________________________________________
activation_466 (Activation)  (None, 64)                0         
_________________________________________________________________
dropout_466 (Dropout)        (None, 64)                0         
_________________________________________________________________
dense_168 (Dense)            (None, 256)               16640     
_________________________________________________________________
activation_467 (Activation)  (None, 256)               0         
_________________________________________________________________
dropout_467 (Dropout)        (None, 256)               0         
_________________________________________________________________
dense_169 (Dense)            (None, 16)                4112      
_________________________________________________________________
activation_468 (Activation)  (None, 16)                0         
_________________________________________________________________
dropout_468 (Dropout)        (None, 16)                0         
_________________________________________________________________
dense_170 (Dense)            (None, 10)                170       
=================================================================
Total params: 24,121,690
Trainable params: 24,119,322
Non-trainable params: 2,368
_________________________________________________________________
