Model: "sequential_25"
_________________________________________________________________
Layer (type)                 Output Shape              Param #   
=================================================================
conv2d_179 (Conv2D)          (None, 32, 32, 16)        448       
_________________________________________________________________
batch_normalization_112 (Bat (None, 32, 32, 16)        64        
_________________________________________________________________
activation_246 (Activation)  (None, 32, 32, 16)        0         
_________________________________________________________________
dropout_246 (Dropout)        (None, 32, 32, 16)        0         
_________________________________________________________________
max_pooling2d_57 (MaxPooling (None, 16, 16, 16)        0         
_________________________________________________________________
conv2d_180 (Conv2D)          (None, 16, 16, 512)       74240     
_________________________________________________________________
batch_normalization_113 (Bat (None, 16, 16, 512)       2048      
_________________________________________________________________
activation_247 (Activation)  (None, 16, 16, 512)       0         
_________________________________________________________________
dropout_247 (Dropout)        (None, 16, 16, 512)       0         
_________________________________________________________________
conv2d_181 (Conv2D)          (None, 16, 16, 256)       1179904   
_________________________________________________________________
batch_normalization_114 (Bat (None, 16, 16, 256)       1024      
_________________________________________________________________
activation_248 (Activation)  (None, 16, 16, 256)       0         
_________________________________________________________________
dropout_248 (Dropout)        (None, 16, 16, 256)       0         
_________________________________________________________________
conv2d_182 (Conv2D)          (None, 16, 16, 128)       295040    
_________________________________________________________________
activation_249 (Activation)  (None, 16, 16, 128)       0         
_________________________________________________________________
dropout_249 (Dropout)        (None, 16, 16, 128)       0         
_________________________________________________________________
conv2d_183 (Conv2D)          (None, 16, 16, 256)       295168    
_________________________________________________________________
batch_normalization_115 (Bat (None, 16, 16, 256)       1024      
_________________________________________________________________
activation_250 (Activation)  (None, 16, 16, 256)       0         
_________________________________________________________________
dropout_250 (Dropout)        (None, 16, 16, 256)       0         
_________________________________________________________________
conv2d_184 (Conv2D)          (None, 16, 16, 512)       1180160   
_________________________________________________________________
activation_251 (Activation)  (None, 16, 16, 512)       0         
_________________________________________________________________
dropout_251 (Dropout)        (None, 16, 16, 512)       0         
_________________________________________________________________
conv2d_185 (Conv2D)          (None, 16, 16, 32)        147488    
_________________________________________________________________
activation_252 (Activation)  (None, 16, 16, 32)        0         
_________________________________________________________________
dropout_252 (Dropout)        (None, 16, 16, 32)        0         
_________________________________________________________________
max_pooling2d_58 (MaxPooling (None, 8, 8, 32)          0         
_________________________________________________________________
flatten_25 (Flatten)         (None, 2048)              0         
_________________________________________________________________
dense_92 (Dense)             (None, 256)               524544    
_________________________________________________________________
batch_normalization_116 (Bat (None, 256)               1024      
_________________________________________________________________
activation_253 (Activation)  (None, 256)               0         
_________________________________________________________________
dropout_253 (Dropout)        (None, 256)               0         
_________________________________________________________________
dense_93 (Dense)             (None, 16)                4112      
_________________________________________________________________
batch_normalization_117 (Bat (None, 16)                64        
_________________________________________________________________
activation_254 (Activation)  (None, 16)                0         
_________________________________________________________________
dropout_254 (Dropout)        (None, 16)                0         
_________________________________________________________________
dense_94 (Dense)             (None, 10)                170       
=================================================================
Total params: 3,706,522
Trainable params: 3,703,898
Non-trainable params: 2,624
_________________________________________________________________
