Model: "sequential_43"
_________________________________________________________________
Layer (type)                 Output Shape              Param #   
=================================================================
conv2d_299 (Conv2D)          (None, 32, 32, 1024)      28672     
_________________________________________________________________
activation_410 (Activation)  (None, 32, 32, 1024)      0         
_________________________________________________________________
dropout_410 (Dropout)        (None, 32, 32, 1024)      0         
_________________________________________________________________
conv2d_300 (Conv2D)          (None, 32, 32, 1024)      9438208   
_________________________________________________________________
activation_411 (Activation)  (None, 32, 32, 1024)      0         
_________________________________________________________________
dropout_411 (Dropout)        (None, 32, 32, 1024)      0         
_________________________________________________________________
max_pooling2d_93 (MaxPooling (None, 16, 16, 1024)      0         
_________________________________________________________________
conv2d_301 (Conv2D)          (None, 16, 16, 64)        589888    
_________________________________________________________________
batch_normalization_183 (Bat (None, 16, 16, 64)        256       
_________________________________________________________________
activation_412 (Activation)  (None, 16, 16, 64)        0         
_________________________________________________________________
dropout_412 (Dropout)        (None, 16, 16, 64)        0         
_________________________________________________________________
max_pooling2d_94 (MaxPooling (None, 8, 8, 64)          0         
_________________________________________________________________
conv2d_302 (Conv2D)          (None, 8, 8, 128)         73856     
_________________________________________________________________
activation_413 (Activation)  (None, 8, 8, 128)         0         
_________________________________________________________________
dropout_413 (Dropout)        (None, 8, 8, 128)         0         
_________________________________________________________________
conv2d_303 (Conv2D)          (None, 8, 8, 32)          36896     
_________________________________________________________________
batch_normalization_184 (Bat (None, 8, 8, 32)          128       
_________________________________________________________________
activation_414 (Activation)  (None, 8, 8, 32)          0         
_________________________________________________________________
dropout_414 (Dropout)        (None, 8, 8, 32)          0         
_________________________________________________________________
conv2d_304 (Conv2D)          (None, 8, 8, 1024)        295936    
_________________________________________________________________
activation_415 (Activation)  (None, 8, 8, 1024)        0         
_________________________________________________________________
dropout_415 (Dropout)        (None, 8, 8, 1024)        0         
_________________________________________________________________
conv2d_305 (Conv2D)          (None, 8, 8, 1024)        9438208   
_________________________________________________________________
batch_normalization_185 (Bat (None, 8, 8, 1024)        4096      
_________________________________________________________________
activation_416 (Activation)  (None, 8, 8, 1024)        0         
_________________________________________________________________
dropout_416 (Dropout)        (None, 8, 8, 1024)        0         
_________________________________________________________________
flatten_43 (Flatten)         (None, 65536)             0         
_________________________________________________________________
dense_154 (Dense)            (None, 64)                4194368   
_________________________________________________________________
batch_normalization_186 (Bat (None, 64)                256       
_________________________________________________________________
activation_417 (Activation)  (None, 64)                0         
_________________________________________________________________
dropout_417 (Dropout)        (None, 64)                0         
_________________________________________________________________
dense_155 (Dense)            (None, 10)                650       
=================================================================
Total params: 24,101,418
Trainable params: 24,099,050
Non-trainable params: 2,368
_________________________________________________________________
