Model: "sequential_63"
_________________________________________________________________
Layer (type)                 Output Shape              Param #   
=================================================================
conv2d_439 (Conv2D)          (None, 32, 32, 1024)      28672     
_________________________________________________________________
activation_582 (Activation)  (None, 32, 32, 1024)      0         
_________________________________________________________________
dropout_582 (Dropout)        (None, 32, 32, 1024)      0         
_________________________________________________________________
conv2d_440 (Conv2D)          (None, 32, 32, 1024)      9438208   
_________________________________________________________________
activation_583 (Activation)  (None, 32, 32, 1024)      0         
_________________________________________________________________
dropout_583 (Dropout)        (None, 32, 32, 1024)      0         
_________________________________________________________________
max_pooling2d_133 (MaxPoolin (None, 16, 16, 1024)      0         
_________________________________________________________________
conv2d_441 (Conv2D)          (None, 16, 16, 64)        589888    
_________________________________________________________________
batch_normalization_265 (Bat (None, 16, 16, 64)        256       
_________________________________________________________________
activation_584 (Activation)  (None, 16, 16, 64)        0         
_________________________________________________________________
dropout_584 (Dropout)        (None, 16, 16, 64)        0         
_________________________________________________________________
max_pooling2d_134 (MaxPoolin (None, 8, 8, 64)          0         
_________________________________________________________________
conv2d_442 (Conv2D)          (None, 8, 8, 128)         73856     
_________________________________________________________________
activation_585 (Activation)  (None, 8, 8, 128)         0         
_________________________________________________________________
dropout_585 (Dropout)        (None, 8, 8, 128)         0         
_________________________________________________________________
conv2d_443 (Conv2D)          (None, 8, 8, 32)          36896     
_________________________________________________________________
batch_normalization_266 (Bat (None, 8, 8, 32)          128       
_________________________________________________________________
activation_586 (Activation)  (None, 8, 8, 32)          0         
_________________________________________________________________
dropout_586 (Dropout)        (None, 8, 8, 32)          0         
_________________________________________________________________
conv2d_444 (Conv2D)          (None, 8, 8, 1024)        295936    
_________________________________________________________________
activation_587 (Activation)  (None, 8, 8, 1024)        0         
_________________________________________________________________
dropout_587 (Dropout)        (None, 8, 8, 1024)        0         
_________________________________________________________________
conv2d_445 (Conv2D)          (None, 8, 8, 1024)        9438208   
_________________________________________________________________
batch_normalization_267 (Bat (None, 8, 8, 1024)        4096      
_________________________________________________________________
activation_588 (Activation)  (None, 8, 8, 1024)        0         
_________________________________________________________________
dropout_588 (Dropout)        (None, 8, 8, 1024)        0         
_________________________________________________________________
flatten_63 (Flatten)         (None, 65536)             0         
_________________________________________________________________
dense_206 (Dense)            (None, 64)                4194368   
_________________________________________________________________
batch_normalization_268 (Bat (None, 64)                256       
_________________________________________________________________
activation_589 (Activation)  (None, 64)                0         
_________________________________________________________________
dropout_589 (Dropout)        (None, 64)                0         
_________________________________________________________________
dense_207 (Dense)            (None, 10)                650       
=================================================================
Total params: 24,101,418
Trainable params: 24,099,050
Non-trainable params: 2,368
_________________________________________________________________
