Model: "sequential_13"
_________________________________________________________________
Layer (type)                 Output Shape              Param #   
=================================================================
conv2d_98 (Conv2D)           (None, 32, 32, 512)       14336     
_________________________________________________________________
batch_normalization_64 (Batc (None, 32, 32, 512)       2048      
_________________________________________________________________
activation_134 (Activation)  (None, 32, 32, 512)       0         
_________________________________________________________________
dropout_134 (Dropout)        (None, 32, 32, 512)       0         
_________________________________________________________________
conv2d_99 (Conv2D)           (None, 32, 32, 512)       2359808   
_________________________________________________________________
activation_135 (Activation)  (None, 32, 32, 512)       0         
_________________________________________________________________
dropout_135 (Dropout)        (None, 32, 32, 512)       0         
_________________________________________________________________
max_pooling2d_33 (MaxPooling (None, 16, 16, 512)       0         
_________________________________________________________________
conv2d_100 (Conv2D)          (None, 16, 16, 32)        147488    
_________________________________________________________________
activation_136 (Activation)  (None, 16, 16, 32)        0         
_________________________________________________________________
dropout_136 (Dropout)        (None, 16, 16, 32)        0         
_________________________________________________________________
max_pooling2d_34 (MaxPooling (None, 8, 8, 32)          0         
_________________________________________________________________
conv2d_101 (Conv2D)          (None, 8, 8, 64)          18496     
_________________________________________________________________
batch_normalization_65 (Batc (None, 8, 8, 64)          256       
_________________________________________________________________
activation_137 (Activation)  (None, 8, 8, 64)          0         
_________________________________________________________________
dropout_137 (Dropout)        (None, 8, 8, 64)          0         
_________________________________________________________________
conv2d_102 (Conv2D)          (None, 8, 8, 32)          18464     
_________________________________________________________________
batch_normalization_66 (Batc (None, 8, 8, 32)          128       
_________________________________________________________________
activation_138 (Activation)  (None, 8, 8, 32)          0         
_________________________________________________________________
dropout_138 (Dropout)        (None, 8, 8, 32)          0         
_________________________________________________________________
conv2d_103 (Conv2D)          (None, 8, 8, 1024)        295936    
_________________________________________________________________
activation_139 (Activation)  (None, 8, 8, 1024)        0         
_________________________________________________________________
dropout_139 (Dropout)        (None, 8, 8, 1024)        0         
_________________________________________________________________
conv2d_104 (Conv2D)          (None, 8, 8, 1024)        9438208   
_________________________________________________________________
batch_normalization_67 (Batc (None, 8, 8, 1024)        4096      
_________________________________________________________________
activation_140 (Activation)  (None, 8, 8, 1024)        0         
_________________________________________________________________
dropout_140 (Dropout)        (None, 8, 8, 1024)        0         
_________________________________________________________________
flatten_13 (Flatten)         (None, 65536)             0         
_________________________________________________________________
dense_49 (Dense)             (None, 64)                4194368   
_________________________________________________________________
batch_normalization_68 (Batc (None, 64)                256       
_________________________________________________________________
activation_141 (Activation)  (None, 64)                0         
_________________________________________________________________
dropout_141 (Dropout)        (None, 64)                0         
_________________________________________________________________
dense_50 (Dense)             (None, 256)               16640     
_________________________________________________________________
activation_142 (Activation)  (None, 256)               0         
_________________________________________________________________
dropout_142 (Dropout)        (None, 256)               0         
_________________________________________________________________
dense_51 (Dense)             (None, 16)                4112      
_________________________________________________________________
activation_143 (Activation)  (None, 16)                0         
_________________________________________________________________
dropout_143 (Dropout)        (None, 16)                0         
_________________________________________________________________
dense_52 (Dense)             (None, 10)                170       
=================================================================
Total params: 16,514,810
Trainable params: 16,511,418
Non-trainable params: 3,392
_________________________________________________________________
