Model: "sequential_117"
_________________________________________________________________
Layer (type)                 Output Shape              Param #   
=================================================================
conv2d_815 (Conv2D)          (None, 32, 32, 1024)      28672     
_________________________________________________________________
batch_normalization_494 (Bat (None, 32, 32, 1024)      4096      
_________________________________________________________________
activation_1046 (Activation) (None, 32, 32, 1024)      0         
_________________________________________________________________
dropout_1046 (Dropout)       (None, 32, 32, 1024)      0         
_________________________________________________________________
conv2d_816 (Conv2D)          (None, 32, 32, 1024)      9438208   
_________________________________________________________________
activation_1047 (Activation) (None, 32, 32, 1024)      0         
_________________________________________________________________
dropout_1047 (Dropout)       (None, 32, 32, 1024)      0         
_________________________________________________________________
max_pooling2d_248 (MaxPoolin (None, 16, 16, 1024)      0         
_________________________________________________________________
conv2d_817 (Conv2D)          (None, 16, 16, 64)        589888    
_________________________________________________________________
batch_normalization_495 (Bat (None, 16, 16, 64)        256       
_________________________________________________________________
activation_1048 (Activation) (None, 16, 16, 64)        0         
_________________________________________________________________
dropout_1048 (Dropout)       (None, 16, 16, 64)        0         
_________________________________________________________________
max_pooling2d_249 (MaxPoolin (None, 8, 8, 64)          0         
_________________________________________________________________
conv2d_818 (Conv2D)          (None, 8, 8, 128)         73856     
_________________________________________________________________
activation_1049 (Activation) (None, 8, 8, 128)         0         
_________________________________________________________________
dropout_1049 (Dropout)       (None, 8, 8, 128)         0         
_________________________________________________________________
conv2d_819 (Conv2D)          (None, 8, 8, 32)          36896     
_________________________________________________________________
batch_normalization_496 (Bat (None, 8, 8, 32)          128       
_________________________________________________________________
activation_1050 (Activation) (None, 8, 8, 32)          0         
_________________________________________________________________
dropout_1050 (Dropout)       (None, 8, 8, 32)          0         
_________________________________________________________________
conv2d_820 (Conv2D)          (None, 8, 8, 1024)        295936    
_________________________________________________________________
activation_1051 (Activation) (None, 8, 8, 1024)        0         
_________________________________________________________________
dropout_1051 (Dropout)       (None, 8, 8, 1024)        0         
_________________________________________________________________
conv2d_821 (Conv2D)          (None, 8, 8, 1024)        9438208   
_________________________________________________________________
batch_normalization_497 (Bat (None, 8, 8, 1024)        4096      
_________________________________________________________________
activation_1052 (Activation) (None, 8, 8, 1024)        0         
_________________________________________________________________
dropout_1052 (Dropout)       (None, 8, 8, 1024)        0         
_________________________________________________________________
flatten_117 (Flatten)        (None, 65536)             0         
_________________________________________________________________
dense_348 (Dense)            (None, 64)                4194368   
_________________________________________________________________
batch_normalization_498 (Bat (None, 64)                256       
_________________________________________________________________
activation_1053 (Activation) (None, 64)                0         
_________________________________________________________________
dropout_1053 (Dropout)       (None, 64)                0         
_________________________________________________________________
dense_349 (Dense)            (None, 10)                650       
=================================================================
Total params: 24,105,514
Trainable params: 24,101,098
Non-trainable params: 4,416
_________________________________________________________________
