Model: "sequential_109"
_________________________________________________________________
Layer (type)                 Output Shape              Param #   
=================================================================
conv2d_759 (Conv2D)          (None, 32, 32, 1024)      28672     
_________________________________________________________________
activation_976 (Activation)  (None, 32, 32, 1024)      0         
_________________________________________________________________
dropout_976 (Dropout)        (None, 32, 32, 1024)      0         
_________________________________________________________________
conv2d_760 (Conv2D)          (None, 32, 32, 1024)      9438208   
_________________________________________________________________
activation_977 (Activation)  (None, 32, 32, 1024)      0         
_________________________________________________________________
dropout_977 (Dropout)        (None, 32, 32, 1024)      0         
_________________________________________________________________
max_pooling2d_228 (MaxPoolin (None, 16, 16, 1024)      0         
_________________________________________________________________
conv2d_761 (Conv2D)          (None, 16, 16, 64)        589888    
_________________________________________________________________
batch_normalization_460 (Bat (None, 16, 16, 64)        256       
_________________________________________________________________
activation_978 (Activation)  (None, 16, 16, 64)        0         
_________________________________________________________________
dropout_978 (Dropout)        (None, 16, 16, 64)        0         
_________________________________________________________________
max_pooling2d_229 (MaxPoolin (None, 8, 8, 64)          0         
_________________________________________________________________
conv2d_762 (Conv2D)          (None, 8, 8, 128)         73856     
_________________________________________________________________
activation_979 (Activation)  (None, 8, 8, 128)         0         
_________________________________________________________________
dropout_979 (Dropout)        (None, 8, 8, 128)         0         
_________________________________________________________________
conv2d_763 (Conv2D)          (None, 8, 8, 32)          36896     
_________________________________________________________________
batch_normalization_461 (Bat (None, 8, 8, 32)          128       
_________________________________________________________________
activation_980 (Activation)  (None, 8, 8, 32)          0         
_________________________________________________________________
dropout_980 (Dropout)        (None, 8, 8, 32)          0         
_________________________________________________________________
conv2d_764 (Conv2D)          (None, 8, 8, 1024)        295936    
_________________________________________________________________
activation_981 (Activation)  (None, 8, 8, 1024)        0         
_________________________________________________________________
dropout_981 (Dropout)        (None, 8, 8, 1024)        0         
_________________________________________________________________
conv2d_765 (Conv2D)          (None, 8, 8, 1024)        9438208   
_________________________________________________________________
batch_normalization_462 (Bat (None, 8, 8, 1024)        4096      
_________________________________________________________________
activation_982 (Activation)  (None, 8, 8, 1024)        0         
_________________________________________________________________
dropout_982 (Dropout)        (None, 8, 8, 1024)        0         
_________________________________________________________________
flatten_109 (Flatten)        (None, 65536)             0         
_________________________________________________________________
dense_326 (Dense)            (None, 64)                4194368   
_________________________________________________________________
batch_normalization_463 (Bat (None, 64)                256       
_________________________________________________________________
activation_983 (Activation)  (None, 64)                0         
_________________________________________________________________
dropout_983 (Dropout)        (None, 64)                0         
_________________________________________________________________
dense_327 (Dense)            (None, 10)                650       
=================================================================
Total params: 24,101,418
Trainable params: 24,099,050
Non-trainable params: 2,368
_________________________________________________________________
