Model: "sequential_113"
_________________________________________________________________
Layer (type)                 Output Shape              Param #   
=================================================================
conv2d_787 (Conv2D)          (None, 32, 32, 1024)      28672     
_________________________________________________________________
activation_1011 (Activation) (None, 32, 32, 1024)      0         
_________________________________________________________________
dropout_1011 (Dropout)       (None, 32, 32, 1024)      0         
_________________________________________________________________
conv2d_788 (Conv2D)          (None, 32, 32, 1024)      9438208   
_________________________________________________________________
activation_1012 (Activation) (None, 32, 32, 1024)      0         
_________________________________________________________________
dropout_1012 (Dropout)       (None, 32, 32, 1024)      0         
_________________________________________________________________
max_pooling2d_238 (MaxPoolin (None, 16, 16, 1024)      0         
_________________________________________________________________
conv2d_789 (Conv2D)          (None, 16, 16, 64)        589888    
_________________________________________________________________
batch_normalization_476 (Bat (None, 16, 16, 64)        256       
_________________________________________________________________
activation_1013 (Activation) (None, 16, 16, 64)        0         
_________________________________________________________________
dropout_1013 (Dropout)       (None, 16, 16, 64)        0         
_________________________________________________________________
max_pooling2d_239 (MaxPoolin (None, 8, 8, 64)          0         
_________________________________________________________________
conv2d_790 (Conv2D)          (None, 8, 8, 128)         73856     
_________________________________________________________________
activation_1014 (Activation) (None, 8, 8, 128)         0         
_________________________________________________________________
dropout_1014 (Dropout)       (None, 8, 8, 128)         0         
_________________________________________________________________
conv2d_791 (Conv2D)          (None, 8, 8, 32)          36896     
_________________________________________________________________
batch_normalization_477 (Bat (None, 8, 8, 32)          128       
_________________________________________________________________
activation_1015 (Activation) (None, 8, 8, 32)          0         
_________________________________________________________________
dropout_1015 (Dropout)       (None, 8, 8, 32)          0         
_________________________________________________________________
conv2d_792 (Conv2D)          (None, 8, 8, 1024)        295936    
_________________________________________________________________
activation_1016 (Activation) (None, 8, 8, 1024)        0         
_________________________________________________________________
dropout_1016 (Dropout)       (None, 8, 8, 1024)        0         
_________________________________________________________________
conv2d_793 (Conv2D)          (None, 8, 8, 1024)        9438208   
_________________________________________________________________
batch_normalization_478 (Bat (None, 8, 8, 1024)        4096      
_________________________________________________________________
activation_1017 (Activation) (None, 8, 8, 1024)        0         
_________________________________________________________________
dropout_1017 (Dropout)       (None, 8, 8, 1024)        0         
_________________________________________________________________
flatten_113 (Flatten)        (None, 65536)             0         
_________________________________________________________________
dense_337 (Dense)            (None, 64)                4194368   
_________________________________________________________________
batch_normalization_479 (Bat (None, 64)                256       
_________________________________________________________________
activation_1018 (Activation) (None, 64)                0         
_________________________________________________________________
dropout_1018 (Dropout)       (None, 64)                0         
_________________________________________________________________
dense_338 (Dense)            (None, 256)               16640     
_________________________________________________________________
activation_1019 (Activation) (None, 256)               0         
_________________________________________________________________
dropout_1019 (Dropout)       (None, 256)               0         
_________________________________________________________________
dense_339 (Dense)            (None, 10)                2570      
=================================================================
Total params: 24,119,978
Trainable params: 24,117,610
Non-trainable params: 2,368
_________________________________________________________________
