Model: "sequential_91"
_________________________________________________________________
Layer (type)                 Output Shape              Param #   
=================================================================
conv2d_633 (Conv2D)          (None, 32, 32, 1024)      28672     
_________________________________________________________________
activation_821 (Activation)  (None, 32, 32, 1024)      0         
_________________________________________________________________
dropout_821 (Dropout)        (None, 32, 32, 1024)      0         
_________________________________________________________________
conv2d_634 (Conv2D)          (None, 32, 32, 1024)      9438208   
_________________________________________________________________
activation_822 (Activation)  (None, 32, 32, 1024)      0         
_________________________________________________________________
dropout_822 (Dropout)        (None, 32, 32, 1024)      0         
_________________________________________________________________
max_pooling2d_190 (MaxPoolin (None, 16, 16, 1024)      0         
_________________________________________________________________
conv2d_635 (Conv2D)          (None, 16, 16, 64)        589888    
_________________________________________________________________
batch_normalization_382 (Bat (None, 16, 16, 64)        256       
_________________________________________________________________
activation_823 (Activation)  (None, 16, 16, 64)        0         
_________________________________________________________________
dropout_823 (Dropout)        (None, 16, 16, 64)        0         
_________________________________________________________________
max_pooling2d_191 (MaxPoolin (None, 8, 8, 64)          0         
_________________________________________________________________
conv2d_636 (Conv2D)          (None, 8, 8, 128)         73856     
_________________________________________________________________
activation_824 (Activation)  (None, 8, 8, 128)         0         
_________________________________________________________________
dropout_824 (Dropout)        (None, 8, 8, 128)         0         
_________________________________________________________________
conv2d_637 (Conv2D)          (None, 8, 8, 32)          36896     
_________________________________________________________________
batch_normalization_383 (Bat (None, 8, 8, 32)          128       
_________________________________________________________________
activation_825 (Activation)  (None, 8, 8, 32)          0         
_________________________________________________________________
dropout_825 (Dropout)        (None, 8, 8, 32)          0         
_________________________________________________________________
conv2d_638 (Conv2D)          (None, 8, 8, 1024)        295936    
_________________________________________________________________
activation_826 (Activation)  (None, 8, 8, 1024)        0         
_________________________________________________________________
dropout_826 (Dropout)        (None, 8, 8, 1024)        0         
_________________________________________________________________
conv2d_639 (Conv2D)          (None, 8, 8, 1024)        9438208   
_________________________________________________________________
batch_normalization_384 (Bat (None, 8, 8, 1024)        4096      
_________________________________________________________________
activation_827 (Activation)  (None, 8, 8, 1024)        0         
_________________________________________________________________
dropout_827 (Dropout)        (None, 8, 8, 1024)        0         
_________________________________________________________________
flatten_91 (Flatten)         (None, 65536)             0         
_________________________________________________________________
dense_279 (Dense)            (None, 64)                4194368   
_________________________________________________________________
batch_normalization_385 (Bat (None, 64)                256       
_________________________________________________________________
activation_828 (Activation)  (None, 64)                0         
_________________________________________________________________
dropout_828 (Dropout)        (None, 64)                0         
_________________________________________________________________
dense_280 (Dense)            (None, 256)               16640     
_________________________________________________________________
activation_829 (Activation)  (None, 256)               0         
_________________________________________________________________
dropout_829 (Dropout)        (None, 256)               0         
_________________________________________________________________
dense_281 (Dense)            (None, 10)                2570      
=================================================================
Total params: 24,119,978
Trainable params: 24,117,610
Non-trainable params: 2,368
_________________________________________________________________
