Model: "sequential_16"
_________________________________________________________________
Layer (type)                 Output Shape              Param #   
=================================================================
conv2d_117 (Conv2D)          (None, 32, 32, 1024)      28672     
_________________________________________________________________
activation_161 (Activation)  (None, 32, 32, 1024)      0         
_________________________________________________________________
dropout_161 (Dropout)        (None, 32, 32, 1024)      0         
_________________________________________________________________
conv2d_118 (Conv2D)          (None, 32, 32, 1024)      9438208   
_________________________________________________________________
activation_162 (Activation)  (None, 32, 32, 1024)      0         
_________________________________________________________________
dropout_162 (Dropout)        (None, 32, 32, 1024)      0         
_________________________________________________________________
max_pooling2d_37 (MaxPooling (None, 16, 16, 1024)      0         
_________________________________________________________________
conv2d_119 (Conv2D)          (None, 16, 16, 64)        589888    
_________________________________________________________________
batch_normalization_79 (Batc (None, 16, 16, 64)        256       
_________________________________________________________________
activation_163 (Activation)  (None, 16, 16, 64)        0         
_________________________________________________________________
dropout_163 (Dropout)        (None, 16, 16, 64)        0         
_________________________________________________________________
max_pooling2d_38 (MaxPooling (None, 8, 8, 64)          0         
_________________________________________________________________
conv2d_120 (Conv2D)          (None, 8, 8, 128)         73856     
_________________________________________________________________
activation_164 (Activation)  (None, 8, 8, 128)         0         
_________________________________________________________________
dropout_164 (Dropout)        (None, 8, 8, 128)         0         
_________________________________________________________________
conv2d_121 (Conv2D)          (None, 8, 8, 32)          36896     
_________________________________________________________________
batch_normalization_80 (Batc (None, 8, 8, 32)          128       
_________________________________________________________________
activation_165 (Activation)  (None, 8, 8, 32)          0         
_________________________________________________________________
dropout_165 (Dropout)        (None, 8, 8, 32)          0         
_________________________________________________________________
conv2d_122 (Conv2D)          (None, 8, 8, 1024)        295936    
_________________________________________________________________
activation_166 (Activation)  (None, 8, 8, 1024)        0         
_________________________________________________________________
dropout_166 (Dropout)        (None, 8, 8, 1024)        0         
_________________________________________________________________
conv2d_123 (Conv2D)          (None, 8, 8, 1024)        9438208   
_________________________________________________________________
batch_normalization_81 (Batc (None, 8, 8, 1024)        4096      
_________________________________________________________________
activation_167 (Activation)  (None, 8, 8, 1024)        0         
_________________________________________________________________
dropout_167 (Dropout)        (None, 8, 8, 1024)        0         
_________________________________________________________________
flatten_16 (Flatten)         (None, 65536)             0         
_________________________________________________________________
dense_60 (Dense)             (None, 64)                4194368   
_________________________________________________________________
batch_normalization_82 (Batc (None, 64)                256       
_________________________________________________________________
activation_168 (Activation)  (None, 64)                0         
_________________________________________________________________
dropout_168 (Dropout)        (None, 64)                0         
_________________________________________________________________
dense_61 (Dense)             (None, 256)               16640     
_________________________________________________________________
activation_169 (Activation)  (None, 256)               0         
_________________________________________________________________
dropout_169 (Dropout)        (None, 256)               0         
_________________________________________________________________
dense_62 (Dense)             (None, 16)                4112      
_________________________________________________________________
activation_170 (Activation)  (None, 16)                0         
_________________________________________________________________
dropout_170 (Dropout)        (None, 16)                0         
_________________________________________________________________
dense_63 (Dense)             (None, 10)                170       
=================================================================
Total params: 24,121,690
Trainable params: 24,119,322
Non-trainable params: 2,368
_________________________________________________________________
