Model: "sequential_99"
_________________________________________________________________
Layer (type)                 Output Shape              Param #   
=================================================================
conv2d_689 (Conv2D)          (None, 32, 32, 1024)      28672     
_________________________________________________________________
activation_891 (Activation)  (None, 32, 32, 1024)      0         
_________________________________________________________________
dropout_891 (Dropout)        (None, 32, 32, 1024)      0         
_________________________________________________________________
conv2d_690 (Conv2D)          (None, 32, 32, 1024)      9438208   
_________________________________________________________________
activation_892 (Activation)  (None, 32, 32, 1024)      0         
_________________________________________________________________
dropout_892 (Dropout)        (None, 32, 32, 1024)      0         
_________________________________________________________________
max_pooling2d_207 (MaxPoolin (None, 16, 16, 1024)      0         
_________________________________________________________________
conv2d_691 (Conv2D)          (None, 16, 16, 64)        589888    
_________________________________________________________________
batch_normalization_418 (Bat (None, 16, 16, 64)        256       
_________________________________________________________________
activation_893 (Activation)  (None, 16, 16, 64)        0         
_________________________________________________________________
dropout_893 (Dropout)        (None, 16, 16, 64)        0         
_________________________________________________________________
max_pooling2d_208 (MaxPoolin (None, 8, 8, 64)          0         
_________________________________________________________________
conv2d_692 (Conv2D)          (None, 8, 8, 128)         73856     
_________________________________________________________________
activation_894 (Activation)  (None, 8, 8, 128)         0         
_________________________________________________________________
dropout_894 (Dropout)        (None, 8, 8, 128)         0         
_________________________________________________________________
conv2d_693 (Conv2D)          (None, 8, 8, 32)          36896     
_________________________________________________________________
batch_normalization_419 (Bat (None, 8, 8, 32)          128       
_________________________________________________________________
activation_895 (Activation)  (None, 8, 8, 32)          0         
_________________________________________________________________
dropout_895 (Dropout)        (None, 8, 8, 32)          0         
_________________________________________________________________
conv2d_694 (Conv2D)          (None, 8, 8, 1024)        295936    
_________________________________________________________________
activation_896 (Activation)  (None, 8, 8, 1024)        0         
_________________________________________________________________
dropout_896 (Dropout)        (None, 8, 8, 1024)        0         
_________________________________________________________________
conv2d_695 (Conv2D)          (None, 8, 8, 1024)        9438208   
_________________________________________________________________
batch_normalization_420 (Bat (None, 8, 8, 1024)        4096      
_________________________________________________________________
activation_897 (Activation)  (None, 8, 8, 1024)        0         
_________________________________________________________________
dropout_897 (Dropout)        (None, 8, 8, 1024)        0         
_________________________________________________________________
flatten_99 (Flatten)         (None, 65536)             0         
_________________________________________________________________
dense_301 (Dense)            (None, 64)                4194368   
_________________________________________________________________
batch_normalization_421 (Bat (None, 64)                256       
_________________________________________________________________
activation_898 (Activation)  (None, 64)                0         
_________________________________________________________________
dropout_898 (Dropout)        (None, 64)                0         
_________________________________________________________________
dense_302 (Dense)            (None, 10)                650       
=================================================================
Total params: 24,101,418
Trainable params: 24,099,050
Non-trainable params: 2,368
_________________________________________________________________
