Model: "sequential_124"
_________________________________________________________________
Layer (type)                 Output Shape              Param #   
=================================================================
conv2d_864 (Conv2D)          (None, 32, 32, 1024)      28672     
_________________________________________________________________
batch_normalization_524 (Bat (None, 32, 32, 1024)      4096      
_________________________________________________________________
activation_1106 (Activation) (None, 32, 32, 1024)      0         
_________________________________________________________________
dropout_1106 (Dropout)       (None, 32, 32, 1024)      0         
_________________________________________________________________
conv2d_865 (Conv2D)          (None, 32, 32, 1024)      9438208   
_________________________________________________________________
activation_1107 (Activation) (None, 32, 32, 1024)      0         
_________________________________________________________________
dropout_1107 (Dropout)       (None, 32, 32, 1024)      0         
_________________________________________________________________
max_pooling2d_263 (MaxPoolin (None, 16, 16, 1024)      0         
_________________________________________________________________
conv2d_866 (Conv2D)          (None, 16, 16, 64)        589888    
_________________________________________________________________
batch_normalization_525 (Bat (None, 16, 16, 64)        256       
_________________________________________________________________
activation_1108 (Activation) (None, 16, 16, 64)        0         
_________________________________________________________________
dropout_1108 (Dropout)       (None, 16, 16, 64)        0         
_________________________________________________________________
max_pooling2d_264 (MaxPoolin (None, 8, 8, 64)          0         
_________________________________________________________________
conv2d_867 (Conv2D)          (None, 8, 8, 128)         73856     
_________________________________________________________________
activation_1109 (Activation) (None, 8, 8, 128)         0         
_________________________________________________________________
dropout_1109 (Dropout)       (None, 8, 8, 128)         0         
_________________________________________________________________
conv2d_868 (Conv2D)          (None, 8, 8, 32)          36896     
_________________________________________________________________
batch_normalization_526 (Bat (None, 8, 8, 32)          128       
_________________________________________________________________
activation_1110 (Activation) (None, 8, 8, 32)          0         
_________________________________________________________________
dropout_1110 (Dropout)       (None, 8, 8, 32)          0         
_________________________________________________________________
conv2d_869 (Conv2D)          (None, 8, 8, 1024)        295936    
_________________________________________________________________
activation_1111 (Activation) (None, 8, 8, 1024)        0         
_________________________________________________________________
dropout_1111 (Dropout)       (None, 8, 8, 1024)        0         
_________________________________________________________________
max_pooling2d_265 (MaxPoolin (None, 4, 4, 1024)        0         
_________________________________________________________________
conv2d_870 (Conv2D)          (None, 4, 4, 1024)        9438208   
_________________________________________________________________
batch_normalization_527 (Bat (None, 4, 4, 1024)        4096      
_________________________________________________________________
activation_1112 (Activation) (None, 4, 4, 1024)        0         
_________________________________________________________________
dropout_1112 (Dropout)       (None, 4, 4, 1024)        0         
_________________________________________________________________
flatten_124 (Flatten)        (None, 16384)             0         
_________________________________________________________________
dense_366 (Dense)            (None, 64)                1048640   
_________________________________________________________________
batch_normalization_528 (Bat (None, 64)                256       
_________________________________________________________________
activation_1113 (Activation) (None, 64)                0         
_________________________________________________________________
dropout_1113 (Dropout)       (None, 64)                0         
_________________________________________________________________
dense_367 (Dense)            (None, 256)               16640     
_________________________________________________________________
activation_1114 (Activation) (None, 256)               0         
_________________________________________________________________
dropout_1114 (Dropout)       (None, 256)               0         
_________________________________________________________________
dense_368 (Dense)            (None, 10)                2570      
=================================================================
Total params: 20,978,346
Trainable params: 20,973,930
Non-trainable params: 4,416
_________________________________________________________________
