Model: "sequential_36"
_________________________________________________________________
Layer (type)                 Output Shape              Param #   
=================================================================
conv2d_251 (Conv2D)          (None, 32, 32, 1024)      28672     
_________________________________________________________________
activation_344 (Activation)  (None, 32, 32, 1024)      0         
_________________________________________________________________
dropout_344 (Dropout)        (None, 32, 32, 1024)      0         
_________________________________________________________________
conv2d_252 (Conv2D)          (None, 32, 32, 1024)      9438208   
_________________________________________________________________
activation_345 (Activation)  (None, 32, 32, 1024)      0         
_________________________________________________________________
dropout_345 (Dropout)        (None, 32, 32, 1024)      0         
_________________________________________________________________
max_pooling2d_79 (MaxPooling (None, 16, 16, 1024)      0         
_________________________________________________________________
conv2d_253 (Conv2D)          (None, 16, 16, 64)        589888    
_________________________________________________________________
batch_normalization_157 (Bat (None, 16, 16, 64)        256       
_________________________________________________________________
activation_346 (Activation)  (None, 16, 16, 64)        0         
_________________________________________________________________
dropout_346 (Dropout)        (None, 16, 16, 64)        0         
_________________________________________________________________
max_pooling2d_80 (MaxPooling (None, 8, 8, 64)          0         
_________________________________________________________________
conv2d_254 (Conv2D)          (None, 8, 8, 128)         73856     
_________________________________________________________________
activation_347 (Activation)  (None, 8, 8, 128)         0         
_________________________________________________________________
dropout_347 (Dropout)        (None, 8, 8, 128)         0         
_________________________________________________________________
conv2d_255 (Conv2D)          (None, 8, 8, 32)          36896     
_________________________________________________________________
batch_normalization_158 (Bat (None, 8, 8, 32)          128       
_________________________________________________________________
activation_348 (Activation)  (None, 8, 8, 32)          0         
_________________________________________________________________
dropout_348 (Dropout)        (None, 8, 8, 32)          0         
_________________________________________________________________
conv2d_256 (Conv2D)          (None, 8, 8, 1024)        295936    
_________________________________________________________________
activation_349 (Activation)  (None, 8, 8, 1024)        0         
_________________________________________________________________
dropout_349 (Dropout)        (None, 8, 8, 1024)        0         
_________________________________________________________________
conv2d_257 (Conv2D)          (None, 8, 8, 1024)        9438208   
_________________________________________________________________
batch_normalization_159 (Bat (None, 8, 8, 1024)        4096      
_________________________________________________________________
activation_350 (Activation)  (None, 8, 8, 1024)        0         
_________________________________________________________________
dropout_350 (Dropout)        (None, 8, 8, 1024)        0         
_________________________________________________________________
flatten_36 (Flatten)         (None, 65536)             0         
_________________________________________________________________
dense_129 (Dense)            (None, 64)                4194368   
_________________________________________________________________
batch_normalization_160 (Bat (None, 64)                256       
_________________________________________________________________
activation_351 (Activation)  (None, 64)                0         
_________________________________________________________________
dropout_351 (Dropout)        (None, 64)                0         
_________________________________________________________________
dense_130 (Dense)            (None, 10)                650       
=================================================================
Total params: 24,101,418
Trainable params: 24,099,050
Non-trainable params: 2,368
_________________________________________________________________
