Model: "sequential_27"
_________________________________________________________________
Layer (type)                 Output Shape              Param #   
=================================================================
conv2d_192 (Conv2D)          (None, 32, 32, 16)        448       
_________________________________________________________________
batch_normalization_123 (Bat (None, 32, 32, 16)        64        
_________________________________________________________________
activation_264 (Activation)  (None, 32, 32, 16)        0         
_________________________________________________________________
dropout_264 (Dropout)        (None, 32, 32, 16)        0         
_________________________________________________________________
max_pooling2d_60 (MaxPooling (None, 16, 16, 16)        0         
_________________________________________________________________
conv2d_193 (Conv2D)          (None, 16, 16, 512)       74240     
_________________________________________________________________
batch_normalization_124 (Bat (None, 16, 16, 512)       2048      
_________________________________________________________________
activation_265 (Activation)  (None, 16, 16, 512)       0         
_________________________________________________________________
dropout_265 (Dropout)        (None, 16, 16, 512)       0         
_________________________________________________________________
conv2d_194 (Conv2D)          (None, 16, 16, 256)       1179904   
_________________________________________________________________
batch_normalization_125 (Bat (None, 16, 16, 256)       1024      
_________________________________________________________________
activation_266 (Activation)  (None, 16, 16, 256)       0         
_________________________________________________________________
dropout_266 (Dropout)        (None, 16, 16, 256)       0         
_________________________________________________________________
conv2d_195 (Conv2D)          (None, 16, 16, 128)       295040    
_________________________________________________________________
activation_267 (Activation)  (None, 16, 16, 128)       0         
_________________________________________________________________
dropout_267 (Dropout)        (None, 16, 16, 128)       0         
_________________________________________________________________
conv2d_196 (Conv2D)          (None, 16, 16, 256)       295168    
_________________________________________________________________
batch_normalization_126 (Bat (None, 16, 16, 256)       1024      
_________________________________________________________________
activation_268 (Activation)  (None, 16, 16, 256)       0         
_________________________________________________________________
dropout_268 (Dropout)        (None, 16, 16, 256)       0         
_________________________________________________________________
conv2d_197 (Conv2D)          (None, 16, 16, 512)       1180160   
_________________________________________________________________
activation_269 (Activation)  (None, 16, 16, 512)       0         
_________________________________________________________________
dropout_269 (Dropout)        (None, 16, 16, 512)       0         
_________________________________________________________________
flatten_27 (Flatten)         (None, 131072)            0         
_________________________________________________________________
dense_99 (Dense)             (None, 64)                8388672   
_________________________________________________________________
batch_normalization_127 (Bat (None, 64)                256       
_________________________________________________________________
activation_270 (Activation)  (None, 64)                0         
_________________________________________________________________
dropout_270 (Dropout)        (None, 64)                0         
_________________________________________________________________
dense_100 (Dense)            (None, 256)               16640     
_________________________________________________________________
activation_271 (Activation)  (None, 256)               0         
_________________________________________________________________
dropout_271 (Dropout)        (None, 256)               0         
_________________________________________________________________
dense_101 (Dense)            (None, 10)                2570      
=================================================================
Total params: 11,437,258
Trainable params: 11,435,050
Non-trainable params: 2,208
_________________________________________________________________
