Model: "sequential_136"
_________________________________________________________________
Layer (type)                 Output Shape              Param #   
=================================================================
conv2d_948 (Conv2D)          (None, 32, 32, 1024)      28672     
_________________________________________________________________
activation_1213 (Activation) (None, 32, 32, 1024)      0         
_________________________________________________________________
dropout_1213 (Dropout)       (None, 32, 32, 1024)      0         
_________________________________________________________________
conv2d_949 (Conv2D)          (None, 32, 32, 1024)      9438208   
_________________________________________________________________
activation_1214 (Activation) (None, 32, 32, 1024)      0         
_________________________________________________________________
dropout_1214 (Dropout)       (None, 32, 32, 1024)      0         
_________________________________________________________________
max_pooling2d_293 (MaxPoolin (None, 16, 16, 1024)      0         
_________________________________________________________________
conv2d_950 (Conv2D)          (None, 16, 16, 64)        589888    
_________________________________________________________________
batch_normalization_579 (Bat (None, 16, 16, 64)        256       
_________________________________________________________________
activation_1215 (Activation) (None, 16, 16, 64)        0         
_________________________________________________________________
dropout_1215 (Dropout)       (None, 16, 16, 64)        0         
_________________________________________________________________
max_pooling2d_294 (MaxPoolin (None, 8, 8, 64)          0         
_________________________________________________________________
conv2d_951 (Conv2D)          (None, 8, 8, 128)         73856     
_________________________________________________________________
activation_1216 (Activation) (None, 8, 8, 128)         0         
_________________________________________________________________
dropout_1216 (Dropout)       (None, 8, 8, 128)         0         
_________________________________________________________________
conv2d_952 (Conv2D)          (None, 8, 8, 32)          36896     
_________________________________________________________________
batch_normalization_580 (Bat (None, 8, 8, 32)          128       
_________________________________________________________________
activation_1217 (Activation) (None, 8, 8, 32)          0         
_________________________________________________________________
dropout_1217 (Dropout)       (None, 8, 8, 32)          0         
_________________________________________________________________
conv2d_953 (Conv2D)          (None, 8, 8, 1024)        295936    
_________________________________________________________________
activation_1218 (Activation) (None, 8, 8, 1024)        0         
_________________________________________________________________
dropout_1218 (Dropout)       (None, 8, 8, 1024)        0         
_________________________________________________________________
conv2d_954 (Conv2D)          (None, 8, 8, 1024)        9438208   
_________________________________________________________________
batch_normalization_581 (Bat (None, 8, 8, 1024)        4096      
_________________________________________________________________
activation_1219 (Activation) (None, 8, 8, 1024)        0         
_________________________________________________________________
dropout_1219 (Dropout)       (None, 8, 8, 1024)        0         
_________________________________________________________________
flatten_136 (Flatten)        (None, 65536)             0         
_________________________________________________________________
dense_401 (Dense)            (None, 64)                4194368   
_________________________________________________________________
batch_normalization_582 (Bat (None, 64)                256       
_________________________________________________________________
activation_1220 (Activation) (None, 64)                0         
_________________________________________________________________
dropout_1220 (Dropout)       (None, 64)                0         
_________________________________________________________________
dense_402 (Dense)            (None, 256)               16640     
_________________________________________________________________
activation_1221 (Activation) (None, 256)               0         
_________________________________________________________________
dropout_1221 (Dropout)       (None, 256)               0         
_________________________________________________________________
dense_403 (Dense)            (None, 10)                2570      
=================================================================
Total params: 24,119,978
Trainable params: 24,117,610
Non-trainable params: 2,368
_________________________________________________________________
