Model: "sequential_187"
_________________________________________________________________
Layer (type)                 Output Shape              Param #   
=================================================================
conv2d_1311 (Conv2D)         (None, 32, 32, 1024)      28672     
_________________________________________________________________
activation_1677 (Activation) (None, 32, 32, 1024)      0         
_________________________________________________________________
dropout_1677 (Dropout)       (None, 32, 32, 1024)      0         
_________________________________________________________________
conv2d_1312 (Conv2D)         (None, 32, 32, 1024)      9438208   
_________________________________________________________________
activation_1678 (Activation) (None, 32, 32, 1024)      0         
_________________________________________________________________
dropout_1678 (Dropout)       (None, 32, 32, 1024)      0         
_________________________________________________________________
max_pooling2d_412 (MaxPoolin (None, 16, 16, 1024)      0         
_________________________________________________________________
conv2d_1313 (Conv2D)         (None, 16, 16, 64)        589888    
_________________________________________________________________
batch_normalization_813 (Bat (None, 16, 16, 64)        256       
_________________________________________________________________
activation_1679 (Activation) (None, 16, 16, 64)        0         
_________________________________________________________________
dropout_1679 (Dropout)       (None, 16, 16, 64)        0         
_________________________________________________________________
max_pooling2d_413 (MaxPoolin (None, 8, 8, 64)          0         
_________________________________________________________________
conv2d_1314 (Conv2D)         (None, 8, 8, 128)         73856     
_________________________________________________________________
activation_1680 (Activation) (None, 8, 8, 128)         0         
_________________________________________________________________
dropout_1680 (Dropout)       (None, 8, 8, 128)         0         
_________________________________________________________________
conv2d_1315 (Conv2D)         (None, 8, 8, 32)          36896     
_________________________________________________________________
batch_normalization_814 (Bat (None, 8, 8, 32)          128       
_________________________________________________________________
activation_1681 (Activation) (None, 8, 8, 32)          0         
_________________________________________________________________
dropout_1681 (Dropout)       (None, 8, 8, 32)          0         
_________________________________________________________________
conv2d_1316 (Conv2D)         (None, 8, 8, 1024)        295936    
_________________________________________________________________
activation_1682 (Activation) (None, 8, 8, 1024)        0         
_________________________________________________________________
dropout_1682 (Dropout)       (None, 8, 8, 1024)        0         
_________________________________________________________________
conv2d_1317 (Conv2D)         (None, 8, 8, 256)         2359552   
_________________________________________________________________
batch_normalization_815 (Bat (None, 8, 8, 256)         1024      
_________________________________________________________________
activation_1683 (Activation) (None, 8, 8, 256)         0         
_________________________________________________________________
dropout_1683 (Dropout)       (None, 8, 8, 256)         0         
_________________________________________________________________
conv2d_1318 (Conv2D)         (None, 8, 8, 1024)        2360320   
_________________________________________________________________
batch_normalization_816 (Bat (None, 8, 8, 1024)        4096      
_________________________________________________________________
activation_1684 (Activation) (None, 8, 8, 1024)        0         
_________________________________________________________________
dropout_1684 (Dropout)       (None, 8, 8, 1024)        0         
_________________________________________________________________
flatten_187 (Flatten)        (None, 65536)             0         
_________________________________________________________________
dense_553 (Dense)            (None, 64)                4194368   
_________________________________________________________________
batch_normalization_817 (Bat (None, 64)                256       
_________________________________________________________________
activation_1685 (Activation) (None, 64)                0         
_________________________________________________________________
dropout_1685 (Dropout)       (None, 64)                0         
_________________________________________________________________
dense_554 (Dense)            (None, 256)               16640     
_________________________________________________________________
batch_normalization_818 (Bat (None, 256)               1024      
_________________________________________________________________
activation_1686 (Activation) (None, 256)               0         
_________________________________________________________________
dropout_1686 (Dropout)       (None, 256)               0         
_________________________________________________________________
dense_555 (Dense)            (None, 10)                2570      
=================================================================
Total params: 19,403,690
Trainable params: 19,400,298
Non-trainable params: 3,392
_________________________________________________________________
