Model: "sequential_85"
_________________________________________________________________
Layer (type)                 Output Shape              Param #   
=================================================================
conv2d_592 (Conv2D)          (None, 32, 32, 1024)      28672     
_________________________________________________________________
batch_normalization_358 (Bat (None, 32, 32, 1024)      4096      
_________________________________________________________________
activation_769 (Activation)  (None, 32, 32, 1024)      0         
_________________________________________________________________
dropout_769 (Dropout)        (None, 32, 32, 1024)      0         
_________________________________________________________________
conv2d_593 (Conv2D)          (None, 32, 32, 1024)      9438208   
_________________________________________________________________
activation_770 (Activation)  (None, 32, 32, 1024)      0         
_________________________________________________________________
dropout_770 (Dropout)        (None, 32, 32, 1024)      0         
_________________________________________________________________
max_pooling2d_177 (MaxPoolin (None, 16, 16, 1024)      0         
_________________________________________________________________
conv2d_594 (Conv2D)          (None, 16, 16, 64)        589888    
_________________________________________________________________
batch_normalization_359 (Bat (None, 16, 16, 64)        256       
_________________________________________________________________
activation_771 (Activation)  (None, 16, 16, 64)        0         
_________________________________________________________________
dropout_771 (Dropout)        (None, 16, 16, 64)        0         
_________________________________________________________________
max_pooling2d_178 (MaxPoolin (None, 8, 8, 64)          0         
_________________________________________________________________
conv2d_595 (Conv2D)          (None, 8, 8, 128)         73856     
_________________________________________________________________
activation_772 (Activation)  (None, 8, 8, 128)         0         
_________________________________________________________________
dropout_772 (Dropout)        (None, 8, 8, 128)         0         
_________________________________________________________________
max_pooling2d_179 (MaxPoolin (None, 4, 4, 128)         0         
_________________________________________________________________
conv2d_596 (Conv2D)          (None, 4, 4, 32)          36896     
_________________________________________________________________
batch_normalization_360 (Bat (None, 4, 4, 32)          128       
_________________________________________________________________
activation_773 (Activation)  (None, 4, 4, 32)          0         
_________________________________________________________________
dropout_773 (Dropout)        (None, 4, 4, 32)          0         
_________________________________________________________________
conv2d_597 (Conv2D)          (None, 4, 4, 1024)        295936    
_________________________________________________________________
activation_774 (Activation)  (None, 4, 4, 1024)        0         
_________________________________________________________________
dropout_774 (Dropout)        (None, 4, 4, 1024)        0         
_________________________________________________________________
conv2d_598 (Conv2D)          (None, 4, 4, 1024)        9438208   
_________________________________________________________________
batch_normalization_361 (Bat (None, 4, 4, 1024)        4096      
_________________________________________________________________
activation_775 (Activation)  (None, 4, 4, 1024)        0         
_________________________________________________________________
dropout_775 (Dropout)        (None, 4, 4, 1024)        0         
_________________________________________________________________
flatten_85 (Flatten)         (None, 16384)             0         
_________________________________________________________________
dense_262 (Dense)            (None, 64)                1048640   
_________________________________________________________________
batch_normalization_362 (Bat (None, 64)                256       
_________________________________________________________________
activation_776 (Activation)  (None, 64)                0         
_________________________________________________________________
dropout_776 (Dropout)        (None, 64)                0         
_________________________________________________________________
dense_263 (Dense)            (None, 256)               16640     
_________________________________________________________________
activation_777 (Activation)  (None, 256)               0         
_________________________________________________________________
dropout_777 (Dropout)        (None, 256)               0         
_________________________________________________________________
dense_264 (Dense)            (None, 10)                2570      
=================================================================
Total params: 20,978,346
Trainable params: 20,973,930
Non-trainable params: 4,416
_________________________________________________________________
