Model: "sequential_127"
_________________________________________________________________
Layer (type)                 Output Shape              Param #   
=================================================================
conv2d_885 (Conv2D)          (None, 32, 32, 1024)      28672     
_________________________________________________________________
activation_1133 (Activation) (None, 32, 32, 1024)      0         
_________________________________________________________________
dropout_1133 (Dropout)       (None, 32, 32, 1024)      0         
_________________________________________________________________
conv2d_886 (Conv2D)          (None, 32, 32, 1024)      9438208   
_________________________________________________________________
activation_1134 (Activation) (None, 32, 32, 1024)      0         
_________________________________________________________________
dropout_1134 (Dropout)       (None, 32, 32, 1024)      0         
_________________________________________________________________
max_pooling2d_271 (MaxPoolin (None, 16, 16, 1024)      0         
_________________________________________________________________
conv2d_887 (Conv2D)          (None, 16, 16, 64)        589888    
_________________________________________________________________
batch_normalization_538 (Bat (None, 16, 16, 64)        256       
_________________________________________________________________
activation_1135 (Activation) (None, 16, 16, 64)        0         
_________________________________________________________________
dropout_1135 (Dropout)       (None, 16, 16, 64)        0         
_________________________________________________________________
max_pooling2d_272 (MaxPoolin (None, 8, 8, 64)          0         
_________________________________________________________________
conv2d_888 (Conv2D)          (None, 8, 8, 128)         73856     
_________________________________________________________________
activation_1136 (Activation) (None, 8, 8, 128)         0         
_________________________________________________________________
dropout_1136 (Dropout)       (None, 8, 8, 128)         0         
_________________________________________________________________
conv2d_889 (Conv2D)          (None, 8, 8, 32)          36896     
_________________________________________________________________
batch_normalization_539 (Bat (None, 8, 8, 32)          128       
_________________________________________________________________
activation_1137 (Activation) (None, 8, 8, 32)          0         
_________________________________________________________________
dropout_1137 (Dropout)       (None, 8, 8, 32)          0         
_________________________________________________________________
conv2d_890 (Conv2D)          (None, 8, 8, 1024)        295936    
_________________________________________________________________
activation_1138 (Activation) (None, 8, 8, 1024)        0         
_________________________________________________________________
dropout_1138 (Dropout)       (None, 8, 8, 1024)        0         
_________________________________________________________________
max_pooling2d_273 (MaxPoolin (None, 4, 4, 1024)        0         
_________________________________________________________________
conv2d_891 (Conv2D)          (None, 4, 4, 1024)        9438208   
_________________________________________________________________
batch_normalization_540 (Bat (None, 4, 4, 1024)        4096      
_________________________________________________________________
activation_1139 (Activation) (None, 4, 4, 1024)        0         
_________________________________________________________________
dropout_1139 (Dropout)       (None, 4, 4, 1024)        0         
_________________________________________________________________
flatten_127 (Flatten)        (None, 16384)             0         
_________________________________________________________________
dense_375 (Dense)            (None, 64)                1048640   
_________________________________________________________________
batch_normalization_541 (Bat (None, 64)                256       
_________________________________________________________________
activation_1140 (Activation) (None, 64)                0         
_________________________________________________________________
dropout_1140 (Dropout)       (None, 64)                0         
_________________________________________________________________
dense_376 (Dense)            (None, 256)               16640     
_________________________________________________________________
activation_1141 (Activation) (None, 256)               0         
_________________________________________________________________
dropout_1141 (Dropout)       (None, 256)               0         
_________________________________________________________________
dense_377 (Dense)            (None, 10)                2570      
=================================================================
Total params: 20,974,250
Trainable params: 20,971,882
Non-trainable params: 2,368
_________________________________________________________________
