Model: "sequential_130"
_________________________________________________________________
Layer (type)                 Output Shape              Param #   
=================================================================
conv2d_906 (Conv2D)          (None, 32, 32, 1024)      28672     
_________________________________________________________________
batch_normalization_551 (Bat (None, 32, 32, 1024)      4096      
_________________________________________________________________
activation_1160 (Activation) (None, 32, 32, 1024)      0         
_________________________________________________________________
dropout_1160 (Dropout)       (None, 32, 32, 1024)      0         
_________________________________________________________________
conv2d_907 (Conv2D)          (None, 32, 32, 1024)      9438208   
_________________________________________________________________
activation_1161 (Activation) (None, 32, 32, 1024)      0         
_________________________________________________________________
dropout_1161 (Dropout)       (None, 32, 32, 1024)      0         
_________________________________________________________________
max_pooling2d_278 (MaxPoolin (None, 16, 16, 1024)      0         
_________________________________________________________________
conv2d_908 (Conv2D)          (None, 16, 16, 64)        589888    
_________________________________________________________________
batch_normalization_552 (Bat (None, 16, 16, 64)        256       
_________________________________________________________________
activation_1162 (Activation) (None, 16, 16, 64)        0         
_________________________________________________________________
dropout_1162 (Dropout)       (None, 16, 16, 64)        0         
_________________________________________________________________
max_pooling2d_279 (MaxPoolin (None, 8, 8, 64)          0         
_________________________________________________________________
conv2d_909 (Conv2D)          (None, 8, 8, 128)         73856     
_________________________________________________________________
activation_1163 (Activation) (None, 8, 8, 128)         0         
_________________________________________________________________
dropout_1163 (Dropout)       (None, 8, 8, 128)         0         
_________________________________________________________________
conv2d_910 (Conv2D)          (None, 8, 8, 32)          36896     
_________________________________________________________________
batch_normalization_553 (Bat (None, 8, 8, 32)          128       
_________________________________________________________________
activation_1164 (Activation) (None, 8, 8, 32)          0         
_________________________________________________________________
dropout_1164 (Dropout)       (None, 8, 8, 32)          0         
_________________________________________________________________
conv2d_911 (Conv2D)          (None, 8, 8, 1024)        295936    
_________________________________________________________________
activation_1165 (Activation) (None, 8, 8, 1024)        0         
_________________________________________________________________
dropout_1165 (Dropout)       (None, 8, 8, 1024)        0         
_________________________________________________________________
conv2d_912 (Conv2D)          (None, 8, 8, 1024)        9438208   
_________________________________________________________________
batch_normalization_554 (Bat (None, 8, 8, 1024)        4096      
_________________________________________________________________
activation_1166 (Activation) (None, 8, 8, 1024)        0         
_________________________________________________________________
dropout_1166 (Dropout)       (None, 8, 8, 1024)        0         
_________________________________________________________________
flatten_130 (Flatten)        (None, 65536)             0         
_________________________________________________________________
dense_384 (Dense)            (None, 64)                4194368   
_________________________________________________________________
batch_normalization_555 (Bat (None, 64)                256       
_________________________________________________________________
activation_1167 (Activation) (None, 64)                0         
_________________________________________________________________
dropout_1167 (Dropout)       (None, 64)                0         
_________________________________________________________________
dense_385 (Dense)            (None, 256)               16640     
_________________________________________________________________
activation_1168 (Activation) (None, 256)               0         
_________________________________________________________________
dropout_1168 (Dropout)       (None, 256)               0         
_________________________________________________________________
dense_386 (Dense)            (None, 10)                2570      
=================================================================
Total params: 24,124,074
Trainable params: 24,119,658
Non-trainable params: 4,416
_________________________________________________________________
