Model: "sequential_347"
_________________________________________________________________
Layer (type)                 Output Shape              Param #   
=================================================================
separable_conv2d_638 (Separa (None, 32, 32, 32)        155       
_________________________________________________________________
activation_958 (Activation)  (None, 32, 32, 32)        0         
_________________________________________________________________
dropout_958 (Dropout)        (None, 32, 32, 32)        0         
_________________________________________________________________
flatten_347 (Flatten)        (None, 32768)             0         
_________________________________________________________________
dense_667 (Dense)            (None, 1024)              33555456  
_________________________________________________________________
activation_959 (Activation)  (None, 1024)              0         
_________________________________________________________________
dropout_959 (Dropout)        (None, 1024)              0         
_________________________________________________________________
dense_668 (Dense)            (None, 100)               102500    
=================================================================
Total params: 33,658,111
Trainable params: 33,658,111
Non-trainable params: 0
_________________________________________________________________
