Model: "sequential_481"
_________________________________________________________________
Layer (type)                 Output Shape              Param #   
=================================================================
separable_conv2d_841 (Separa (None, 32, 32, 32)        155       
_________________________________________________________________
activation_1292 (Activation) (None, 32, 32, 32)        0         
_________________________________________________________________
dropout_1292 (Dropout)       (None, 32, 32, 32)        0         
_________________________________________________________________
separable_conv2d_842 (Separa (None, 32, 32, 128)       4512      
_________________________________________________________________
activation_1293 (Activation) (None, 32, 32, 128)       0         
_________________________________________________________________
dropout_1293 (Dropout)       (None, 32, 32, 128)       0         
_________________________________________________________________
flatten_481 (Flatten)        (None, 131072)            0         
_________________________________________________________________
dense_932 (Dense)            (None, 128)               16777344  
_________________________________________________________________
batch_normalization_228 (Bat (None, 128)               512       
_________________________________________________________________
activation_1294 (Activation) (None, 128)               0         
_________________________________________________________________
dropout_1294 (Dropout)       (None, 128)               0         
_________________________________________________________________
dense_933 (Dense)            (None, 100)               12900     
=================================================================
Total params: 16,795,423
Trainable params: 16,795,167
Non-trainable params: 256
_________________________________________________________________
