Model: "sequential_66"
_________________________________________________________________
Layer (type)                 Output Shape              Param #   
=================================================================
separable_conv2d_159 (Separa (None, 32, 32, 16)        91        
_________________________________________________________________
activation_211 (Activation)  (None, 32, 32, 16)        0         
_________________________________________________________________
dropout_211 (Dropout)        (None, 32, 32, 16)        0         
_________________________________________________________________
separable_conv2d_160 (Separa (None, 32, 32, 512)       8848      
_________________________________________________________________
activation_212 (Activation)  (None, 32, 32, 512)       0         
_________________________________________________________________
dropout_212 (Dropout)        (None, 32, 32, 512)       0         
_________________________________________________________________
flatten_66 (Flatten)         (None, 524288)            0         
_________________________________________________________________
dense_118 (Dense)            (None, 256)               134217984 
_________________________________________________________________
activation_213 (Activation)  (None, 256)               0         
_________________________________________________________________
dropout_213 (Dropout)        (None, 256)               0         
_________________________________________________________________
dense_119 (Dense)            (None, 100)               25700     
=================================================================
Total params: 134,252,623
Trainable params: 134,252,623
Non-trainable params: 0
_________________________________________________________________
