Model: "sequential_9"
_________________________________________________________________
Layer (type)                 Output Shape              Param #   
=================================================================
separable_conv2d_20 (Separab (None, 32, 32, 16)        91        
_________________________________________________________________
activation_26 (Activation)   (None, 32, 32, 16)        0         
_________________________________________________________________
dropout_26 (Dropout)         (None, 32, 32, 16)        0         
_________________________________________________________________
separable_conv2d_21 (Separab (None, 32, 32, 128)       2320      
_________________________________________________________________
activation_27 (Activation)   (None, 32, 32, 128)       0         
_________________________________________________________________
dropout_27 (Dropout)         (None, 32, 32, 128)       0         
_________________________________________________________________
flatten_9 (Flatten)          (None, 131072)            0         
_________________________________________________________________
dense_15 (Dense)             (None, 32)                4194336   
_________________________________________________________________
batch_normalization_12 (Batc (None, 32)                128       
_________________________________________________________________
activation_28 (Activation)   (None, 32)                0         
_________________________________________________________________
dropout_28 (Dropout)         (None, 32)                0         
_________________________________________________________________
dense_16 (Dense)             (None, 100)               3300      
=================================================================
Total params: 4,200,175
Trainable params: 4,200,111
Non-trainable params: 64
_________________________________________________________________
