Model: "sequential_140"
_________________________________________________________________
Layer (type)                 Output Shape              Param #   
=================================================================
separable_conv2d_349 (Separa (None, 32, 32, 16)        91        
_________________________________________________________________
activation_473 (Activation)  (None, 32, 32, 16)        0         
_________________________________________________________________
dropout_473 (Dropout)        (None, 32, 32, 16)        0         
_________________________________________________________________
max_pooling2d_124 (MaxPoolin (None, 16, 16, 16)        0         
_________________________________________________________________
separable_conv2d_350 (Separa (None, 16, 16, 256)       4496      
_________________________________________________________________
activation_474 (Activation)  (None, 16, 16, 256)       0         
_________________________________________________________________
dropout_474 (Dropout)        (None, 16, 16, 256)       0         
_________________________________________________________________
flatten_140 (Flatten)        (None, 65536)             0         
_________________________________________________________________
dense_264 (Dense)            (None, 1024)              67109888  
_________________________________________________________________
activation_475 (Activation)  (None, 1024)              0         
_________________________________________________________________
dropout_475 (Dropout)        (None, 1024)              0         
_________________________________________________________________
dense_265 (Dense)            (None, 100)               102500    
=================================================================
Total params: 67,216,975
Trainable params: 67,216,975
Non-trainable params: 0
_________________________________________________________________
