Model: "sequential_145"
_________________________________________________________________
Layer (type)                 Output Shape              Param #   
=================================================================
separable_conv2d_359 (Separa (None, 32, 32, 64)        283       
_________________________________________________________________
activation_488 (Activation)  (None, 32, 32, 64)        0         
_________________________________________________________________
dropout_488 (Dropout)        (None, 32, 32, 64)        0         
_________________________________________________________________
max_pooling2d_129 (MaxPoolin (None, 16, 16, 64)        0         
_________________________________________________________________
separable_conv2d_360 (Separa (None, 16, 16, 256)       17216     
_________________________________________________________________
activation_489 (Activation)  (None, 16, 16, 256)       0         
_________________________________________________________________
dropout_489 (Dropout)        (None, 16, 16, 256)       0         
_________________________________________________________________
flatten_145 (Flatten)        (None, 65536)             0         
_________________________________________________________________
dense_274 (Dense)            (None, 1024)              67109888  
_________________________________________________________________
activation_490 (Activation)  (None, 1024)              0         
_________________________________________________________________
dropout_490 (Dropout)        (None, 1024)              0         
_________________________________________________________________
dense_275 (Dense)            (None, 100)               102500    
=================================================================
Total params: 67,229,887
Trainable params: 67,229,887
Non-trainable params: 0
_________________________________________________________________
