Model: "sequential_253"
_________________________________________________________________
Layer (type)                 Output Shape              Param #   
=================================================================
separable_conv2d_542 (Separa (None, 32, 32, 32)        155       
_________________________________________________________________
activation_772 (Activation)  (None, 32, 32, 32)        0         
_________________________________________________________________
dropout_772 (Dropout)        (None, 32, 32, 32)        0         
_________________________________________________________________
max_pooling2d_214 (MaxPoolin (None, 16, 16, 32)        0         
_________________________________________________________________
flatten_253 (Flatten)        (None, 8192)              0         
_________________________________________________________________
dense_483 (Dense)            (None, 128)               1048704   
_________________________________________________________________
activation_773 (Activation)  (None, 128)               0         
_________________________________________________________________
dropout_773 (Dropout)        (None, 128)               0         
_________________________________________________________________
dense_484 (Dense)            (None, 100)               12900     
=================================================================
Total params: 1,061,759
Trainable params: 1,061,759
Non-trainable params: 0
_________________________________________________________________
