Model: "sequential_233"
_________________________________________________________________
Layer (type)                 Output Shape              Param #   
=================================================================
separable_conv2d_518 (Separa (None, 32, 32, 32)        155       
_________________________________________________________________
activation_733 (Activation)  (None, 32, 32, 32)        0         
_________________________________________________________________
dropout_733 (Dropout)        (None, 32, 32, 32)        0         
_________________________________________________________________
flatten_233 (Flatten)        (None, 32768)             0         
_________________________________________________________________
dense_448 (Dense)            (None, 128)               4194432   
_________________________________________________________________
activation_734 (Activation)  (None, 128)               0         
_________________________________________________________________
dropout_734 (Dropout)        (None, 128)               0         
_________________________________________________________________
dense_449 (Dense)            (None, 100)               12900     
=================================================================
Total params: 4,207,487
Trainable params: 4,207,487
Non-trainable params: 0
_________________________________________________________________
