Model: "sequential_168"
_________________________________________________________________
Layer (type)                 Output Shape              Param #   
=================================================================
separable_conv2d_405 (Separa (None, 32, 32, 64)        283       
_________________________________________________________________
batch_normalization_147 (Bat (None, 32, 32, 64)        256       
_________________________________________________________________
activation_557 (Activation)  (None, 32, 32, 64)        0         
_________________________________________________________________
dropout_557 (Dropout)        (None, 32, 32, 64)        0         
_________________________________________________________________
max_pooling2d_151 (MaxPoolin (None, 16, 16, 64)        0         
_________________________________________________________________
separable_conv2d_406 (Separa (None, 16, 16, 256)       17216     
_________________________________________________________________
activation_558 (Activation)  (None, 16, 16, 256)       0         
_________________________________________________________________
dropout_558 (Dropout)        (None, 16, 16, 256)       0         
_________________________________________________________________
flatten_168 (Flatten)        (None, 65536)             0         
_________________________________________________________________
dense_320 (Dense)            (None, 1024)              67109888  
_________________________________________________________________
activation_559 (Activation)  (None, 1024)              0         
_________________________________________________________________
dropout_559 (Dropout)        (None, 1024)              0         
_________________________________________________________________
dense_321 (Dense)            (None, 100)               102500    
=================================================================
Total params: 67,230,143
Trainable params: 67,230,015
Non-trainable params: 128
_________________________________________________________________
