Model: "sequential_138"
_________________________________________________________________
Layer (type)                 Output Shape              Param #   
=================================================================
separable_conv2d_345 (Separa (None, 32, 32, 128)       539       
_________________________________________________________________
activation_467 (Activation)  (None, 32, 32, 128)       0         
_________________________________________________________________
dropout_467 (Dropout)        (None, 32, 32, 128)       0         
_________________________________________________________________
max_pooling2d_122 (MaxPoolin (None, 16, 16, 128)       0         
_________________________________________________________________
separable_conv2d_346 (Separa (None, 16, 16, 256)       34176     
_________________________________________________________________
activation_468 (Activation)  (None, 16, 16, 256)       0         
_________________________________________________________________
dropout_468 (Dropout)        (None, 16, 16, 256)       0         
_________________________________________________________________
flatten_138 (Flatten)        (None, 65536)             0         
_________________________________________________________________
dense_260 (Dense)            (None, 1024)              67109888  
_________________________________________________________________
activation_469 (Activation)  (None, 1024)              0         
_________________________________________________________________
dropout_469 (Dropout)        (None, 1024)              0         
_________________________________________________________________
dense_261 (Dense)            (None, 100)               102500    
=================================================================
Total params: 67,247,103
Trainable params: 67,247,103
Non-trainable params: 0
_________________________________________________________________
