Model: "sequential_490"
_________________________________________________________________
Layer (type)                 Output Shape              Param #   
=================================================================
separable_conv2d_856 (Separa (None, 32, 32, 64)        283       
_________________________________________________________________
activation_1314 (Activation) (None, 32, 32, 64)        0         
_________________________________________________________________
dropout_1314 (Dropout)       (None, 32, 32, 64)        0         
_________________________________________________________________
separable_conv2d_857 (Separa (None, 32, 32, 128)       8896      
_________________________________________________________________
activation_1315 (Activation) (None, 32, 32, 128)       0         
_________________________________________________________________
dropout_1315 (Dropout)       (None, 32, 32, 128)       0         
_________________________________________________________________
flatten_490 (Flatten)        (None, 131072)            0         
_________________________________________________________________
dense_948 (Dense)            (None, 100)               13107300  
=================================================================
Total params: 13,116,479
Trainable params: 13,116,479
Non-trainable params: 0
_________________________________________________________________
