Model: "sequential_434"
_________________________________________________________________
Layer (type)                 Output Shape              Param #   
=================================================================
separable_conv2d_760 (Separa (None, 32, 32, 32)        155       
_________________________________________________________________
activation_1166 (Activation) (None, 32, 32, 32)        0         
_________________________________________________________________
dropout_1166 (Dropout)       (None, 32, 32, 32)        0         
_________________________________________________________________
separable_conv2d_761 (Separa (None, 32, 32, 128)       4512      
_________________________________________________________________
activation_1167 (Activation) (None, 32, 32, 128)       0         
_________________________________________________________________
dropout_1167 (Dropout)       (None, 32, 32, 128)       0         
_________________________________________________________________
flatten_434 (Flatten)        (None, 131072)            0         
_________________________________________________________________
dense_840 (Dense)            (None, 32)                4194336   
_________________________________________________________________
activation_1168 (Activation) (None, 32)                0         
_________________________________________________________________
dropout_1168 (Dropout)       (None, 32)                0         
_________________________________________________________________
dense_841 (Dense)            (None, 100)               3300      
=================================================================
Total params: 4,202,303
Trainable params: 4,202,303
Non-trainable params: 0
_________________________________________________________________
