Model: "sequential_410"
_________________________________________________________________
Layer (type)                 Output Shape              Param #   
=================================================================
separable_conv2d_723 (Separa (None, 32, 32, 32)        155       
_________________________________________________________________
activation_1105 (Activation) (None, 32, 32, 32)        0         
_________________________________________________________________
dropout_1105 (Dropout)       (None, 32, 32, 32)        0         
_________________________________________________________________
flatten_410 (Flatten)        (None, 32768)             0         
_________________________________________________________________
dense_792 (Dense)            (None, 256)               8388864   
_________________________________________________________________
batch_normalization_196 (Bat (None, 256)               1024      
_________________________________________________________________
activation_1106 (Activation) (None, 256)               0         
_________________________________________________________________
dropout_1106 (Dropout)       (None, 256)               0         
_________________________________________________________________
dense_793 (Dense)            (None, 100)               25700     
=================================================================
Total params: 8,415,743
Trainable params: 8,415,231
Non-trainable params: 512
_________________________________________________________________
