Model: "sequential_395"
_________________________________________________________________
Layer (type)                 Output Shape              Param #   
=================================================================
separable_conv2d_701 (Separa (None, 32, 32, 256)       1051      
_________________________________________________________________
activation_1068 (Activation) (None, 32, 32, 256)       0         
_________________________________________________________________
dropout_1068 (Dropout)       (None, 32, 32, 256)       0         
_________________________________________________________________
flatten_395 (Flatten)        (None, 262144)            0         
_________________________________________________________________
dense_762 (Dense)            (None, 128)               33554560  
_________________________________________________________________
activation_1069 (Activation) (None, 128)               0         
_________________________________________________________________
dropout_1069 (Dropout)       (None, 128)               0         
_________________________________________________________________
dense_763 (Dense)            (None, 100)               12900     
=================================================================
Total params: 33,568,511
Trainable params: 33,568,511
Non-trainable params: 0
_________________________________________________________________
