Model: "sequential_346"
_________________________________________________________________
Layer (type)                 Output Shape              Param #   
=================================================================
separable_conv2d_637 (Separa (None, 32, 32, 32)        155       
_________________________________________________________________
activation_956 (Activation)  (None, 32, 32, 32)        0         
_________________________________________________________________
dropout_956 (Dropout)        (None, 32, 32, 32)        0         
_________________________________________________________________
flatten_346 (Flatten)        (None, 32768)             0         
_________________________________________________________________
dense_665 (Dense)            (None, 1024)              33555456  
_________________________________________________________________
activation_957 (Activation)  (None, 1024)              0         
_________________________________________________________________
dropout_957 (Dropout)        (None, 1024)              0         
_________________________________________________________________
dense_666 (Dense)            (None, 100)               102500    
=================================================================
Total params: 33,658,111
Trainable params: 33,658,111
Non-trainable params: 0
_________________________________________________________________
