Model: "sequential_124"
_________________________________________________________________
Layer (type)                 Output Shape              Param #   
=================================================================
separable_conv2d_317 (Separa (None, 32, 32, 16)        91        
_________________________________________________________________
activation_425 (Activation)  (None, 32, 32, 16)        0         
_________________________________________________________________
dropout_425 (Dropout)        (None, 32, 32, 16)        0         
_________________________________________________________________
max_pooling2d_108 (MaxPoolin (None, 16, 16, 16)        0         
_________________________________________________________________
separable_conv2d_318 (Separa (None, 16, 16, 64)        1232      
_________________________________________________________________
batch_normalization_125 (Bat (None, 16, 16, 64)        256       
_________________________________________________________________
activation_426 (Activation)  (None, 16, 16, 64)        0         
_________________________________________________________________
dropout_426 (Dropout)        (None, 16, 16, 64)        0         
_________________________________________________________________
separable_conv2d_319 (Separa (None, 16, 16, 512)       33856     
_________________________________________________________________
activation_427 (Activation)  (None, 16, 16, 512)       0         
_________________________________________________________________
dropout_427 (Dropout)        (None, 16, 16, 512)       0         
_________________________________________________________________
flatten_124 (Flatten)        (None, 131072)            0         
_________________________________________________________________
dense_232 (Dense)            (None, 256)               33554688  
_________________________________________________________________
activation_428 (Activation)  (None, 256)               0         
_________________________________________________________________
dropout_428 (Dropout)        (None, 256)               0         
_________________________________________________________________
dense_233 (Dense)            (None, 100)               25700     
=================================================================
Total params: 33,615,823
Trainable params: 33,615,695
Non-trainable params: 128
_________________________________________________________________
