Model: "sequential_288"
_________________________________________________________________
Layer (type)                 Output Shape              Param #   
=================================================================
separable_conv2d_577 (Separa (None, 32, 32, 32)        155       
_________________________________________________________________
activation_839 (Activation)  (None, 32, 32, 32)        0         
_________________________________________________________________
dropout_839 (Dropout)        (None, 32, 32, 32)        0         
_________________________________________________________________
max_pooling2d_234 (MaxPoolin (None, 16, 16, 32)        0         
_________________________________________________________________
flatten_288 (Flatten)        (None, 8192)              0         
_________________________________________________________________
dense_550 (Dense)            (None, 1024)              8389632   
_________________________________________________________________
activation_840 (Activation)  (None, 1024)              0         
_________________________________________________________________
dropout_840 (Dropout)        (None, 1024)              0         
_________________________________________________________________
dense_551 (Dense)            (None, 100)               102500    
=================================================================
Total params: 8,492,287
Trainable params: 8,492,287
Non-trainable params: 0
_________________________________________________________________
