Model: "sequential_275"
_________________________________________________________________
Layer (type)                 Output Shape              Param #   
=================================================================
separable_conv2d_564 (Separa (None, 32, 32, 8)         59        
_________________________________________________________________
activation_814 (Activation)  (None, 32, 32, 8)         0         
_________________________________________________________________
dropout_814 (Dropout)        (None, 32, 32, 8)         0         
_________________________________________________________________
max_pooling2d_229 (MaxPoolin (None, 16, 16, 8)         0         
_________________________________________________________________
flatten_275 (Flatten)        (None, 2048)              0         
_________________________________________________________________
dense_525 (Dense)            (None, 1024)              2098176   
_________________________________________________________________
batch_normalization_175 (Bat (None, 1024)              4096      
_________________________________________________________________
activation_815 (Activation)  (None, 1024)              0         
_________________________________________________________________
dropout_815 (Dropout)        (None, 1024)              0         
_________________________________________________________________
dense_526 (Dense)            (None, 100)               102500    
=================================================================
Total params: 2,204,831
Trainable params: 2,202,783
Non-trainable params: 2,048
_________________________________________________________________
