Model: "sequential_409"
_________________________________________________________________
Layer (type)                 Output Shape              Param #   
=================================================================
separable_conv2d_721 (Separa (None, 32, 32, 256)       1051      
_________________________________________________________________
activation_1102 (Activation) (None, 32, 32, 256)       0         
_________________________________________________________________
dropout_1102 (Dropout)       (None, 32, 32, 256)       0         
_________________________________________________________________
separable_conv2d_722 (Separa (None, 32, 32, 128)       35200     
_________________________________________________________________
activation_1103 (Activation) (None, 32, 32, 128)       0         
_________________________________________________________________
dropout_1103 (Dropout)       (None, 32, 32, 128)       0         
_________________________________________________________________
flatten_409 (Flatten)        (None, 131072)            0         
_________________________________________________________________
dense_790 (Dense)            (None, 256)               33554688  
_________________________________________________________________
batch_normalization_195 (Bat (None, 256)               1024      
_________________________________________________________________
activation_1104 (Activation) (None, 256)               0         
_________________________________________________________________
dropout_1104 (Dropout)       (None, 256)               0         
_________________________________________________________________
dense_791 (Dense)            (None, 100)               25700     
=================================================================
Total params: 33,617,663
Trainable params: 33,617,151
Non-trainable params: 512
_________________________________________________________________
