Model: "sequential_163"
_________________________________________________________________
Layer (type)                 Output Shape              Param #   
=================================================================
separable_conv2d_395 (Separa (None, 32, 32, 16)        91        
_________________________________________________________________
activation_542 (Activation)  (None, 32, 32, 16)        0         
_________________________________________________________________
dropout_542 (Dropout)        (None, 32, 32, 16)        0         
_________________________________________________________________
max_pooling2d_146 (MaxPoolin (None, 16, 16, 16)        0         
_________________________________________________________________
separable_conv2d_396 (Separa (None, 16, 16, 256)       4496      
_________________________________________________________________
activation_543 (Activation)  (None, 16, 16, 256)       0         
_________________________________________________________________
dropout_543 (Dropout)        (None, 16, 16, 256)       0         
_________________________________________________________________
flatten_163 (Flatten)        (None, 65536)             0         
_________________________________________________________________
dense_310 (Dense)            (None, 1024)              67109888  
_________________________________________________________________
activation_544 (Activation)  (None, 1024)              0         
_________________________________________________________________
dropout_544 (Dropout)        (None, 1024)              0         
_________________________________________________________________
dense_311 (Dense)            (None, 100)               102500    
=================================================================
Total params: 67,216,975
Trainable params: 67,216,975
Non-trainable params: 0
_________________________________________________________________
