Model: "sequential_221"
_________________________________________________________________
Layer (type)                 Output Shape              Param #   
=================================================================
separable_conv2d_502 (Separa (None, 32, 32, 16)        91        
_________________________________________________________________
activation_705 (Activation)  (None, 32, 32, 16)        0         
_________________________________________________________________
dropout_705 (Dropout)        (None, 32, 32, 16)        0         
_________________________________________________________________
max_pooling2d_190 (MaxPoolin (None, 16, 16, 16)        0         
_________________________________________________________________
separable_conv2d_503 (Separa (None, 16, 16, 256)       4496      
_________________________________________________________________
activation_706 (Activation)  (None, 16, 16, 256)       0         
_________________________________________________________________
dropout_706 (Dropout)        (None, 16, 16, 256)       0         
_________________________________________________________________
flatten_221 (Flatten)        (None, 65536)             0         
_________________________________________________________________
dense_424 (Dense)            (None, 1024)              67109888  
_________________________________________________________________
activation_707 (Activation)  (None, 1024)              0         
_________________________________________________________________
dropout_707 (Dropout)        (None, 1024)              0         
_________________________________________________________________
dense_425 (Dense)            (None, 100)               102500    
=================================================================
Total params: 67,216,975
Trainable params: 67,216,975
Non-trainable params: 0
_________________________________________________________________
