Model: "sequential_148"
_________________________________________________________________
Layer (type)                 Output Shape              Param #   
=================================================================
separable_conv2d_365 (Separa (None, 32, 32, 16)        91        
_________________________________________________________________
activation_497 (Activation)  (None, 32, 32, 16)        0         
_________________________________________________________________
dropout_497 (Dropout)        (None, 32, 32, 16)        0         
_________________________________________________________________
max_pooling2d_132 (MaxPoolin (None, 16, 16, 16)        0         
_________________________________________________________________
separable_conv2d_366 (Separa (None, 16, 16, 256)       4496      
_________________________________________________________________
activation_498 (Activation)  (None, 16, 16, 256)       0         
_________________________________________________________________
dropout_498 (Dropout)        (None, 16, 16, 256)       0         
_________________________________________________________________
flatten_148 (Flatten)        (None, 65536)             0         
_________________________________________________________________
dense_280 (Dense)            (None, 1024)              67109888  
_________________________________________________________________
activation_499 (Activation)  (None, 1024)              0         
_________________________________________________________________
dropout_499 (Dropout)        (None, 1024)              0         
_________________________________________________________________
dense_281 (Dense)            (None, 100)               102500    
=================================================================
Total params: 67,216,975
Trainable params: 67,216,975
Non-trainable params: 0
_________________________________________________________________
