Model: "sequential_203"
_________________________________________________________________
Layer (type)                 Output Shape              Param #   
=================================================================
separable_conv2d_472 (Separa (None, 32, 32, 128)       539       
_________________________________________________________________
batch_normalization_161 (Bat (None, 32, 32, 128)       512       
_________________________________________________________________
activation_657 (Activation)  (None, 32, 32, 128)       0         
_________________________________________________________________
dropout_657 (Dropout)        (None, 32, 32, 128)       0         
_________________________________________________________________
max_pooling2d_180 (MaxPoolin (None, 16, 16, 128)       0         
_________________________________________________________________
separable_conv2d_473 (Separa (None, 16, 16, 256)       34176     
_________________________________________________________________
activation_658 (Activation)  (None, 16, 16, 256)       0         
_________________________________________________________________
dropout_658 (Dropout)        (None, 16, 16, 256)       0         
_________________________________________________________________
flatten_203 (Flatten)        (None, 65536)             0         
_________________________________________________________________
dense_388 (Dense)            (None, 1024)              67109888  
_________________________________________________________________
activation_659 (Activation)  (None, 1024)              0         
_________________________________________________________________
dropout_659 (Dropout)        (None, 1024)              0         
_________________________________________________________________
dense_389 (Dense)            (None, 100)               102500    
=================================================================
Total params: 67,247,615
Trainable params: 67,247,359
Non-trainable params: 256
_________________________________________________________________
