Model: "sequential_226"
_________________________________________________________________
Layer (type)                 Output Shape              Param #   
=================================================================
separable_conv2d_509 (Separa (None, 32, 32, 32)        155       
_________________________________________________________________
activation_717 (Activation)  (None, 32, 32, 32)        0         
_________________________________________________________________
dropout_717 (Dropout)        (None, 32, 32, 32)        0         
_________________________________________________________________
max_pooling2d_191 (MaxPoolin (None, 16, 16, 32)        0         
_________________________________________________________________
flatten_226 (Flatten)        (None, 8192)              0         
_________________________________________________________________
dense_434 (Dense)            (None, 1024)              8389632   
_________________________________________________________________
activation_718 (Activation)  (None, 1024)              0         
_________________________________________________________________
dropout_718 (Dropout)        (None, 1024)              0         
_________________________________________________________________
dense_435 (Dense)            (None, 100)               102500    
=================================================================
Total params: 8,492,287
Trainable params: 8,492,287
Non-trainable params: 0
_________________________________________________________________
