Model: "sequential_274"
_________________________________________________________________
Layer (type)                 Output Shape              Param #   
=================================================================
separable_conv2d_563 (Separa (None, 32, 32, 32)        155       
_________________________________________________________________
activation_812 (Activation)  (None, 32, 32, 32)        0         
_________________________________________________________________
dropout_812 (Dropout)        (None, 32, 32, 32)        0         
_________________________________________________________________
max_pooling2d_228 (MaxPoolin (None, 16, 16, 32)        0         
_________________________________________________________________
flatten_274 (Flatten)        (None, 8192)              0         
_________________________________________________________________
dense_523 (Dense)            (None, 1024)              8389632   
_________________________________________________________________
activation_813 (Activation)  (None, 1024)              0         
_________________________________________________________________
dropout_813 (Dropout)        (None, 1024)              0         
_________________________________________________________________
dense_524 (Dense)            (None, 100)               102500    
=================================================================
Total params: 8,492,287
Trainable params: 8,492,287
Non-trainable params: 0
_________________________________________________________________
