Model: "sequential_273"
_________________________________________________________________
Layer (type)                 Output Shape              Param #   
=================================================================
separable_conv2d_562 (Separa (None, 32, 32, 32)        155       
_________________________________________________________________
activation_810 (Activation)  (None, 32, 32, 32)        0         
_________________________________________________________________
dropout_810 (Dropout)        (None, 32, 32, 32)        0         
_________________________________________________________________
flatten_273 (Flatten)        (None, 32768)             0         
_________________________________________________________________
dense_521 (Dense)            (None, 128)               4194432   
_________________________________________________________________
activation_811 (Activation)  (None, 128)               0         
_________________________________________________________________
dropout_811 (Dropout)        (None, 128)               0         
_________________________________________________________________
dense_522 (Dense)            (None, 100)               12900     
=================================================================
Total params: 4,207,487
Trainable params: 4,207,487
Non-trainable params: 0
_________________________________________________________________
