Model: "sequential_34"
_________________________________________________________________
Layer (type)                 Output Shape              Param #   
=================================================================
separable_conv2d_68 (Separab (None, 32, 32, 64)        283       
_________________________________________________________________
batch_normalization_34 (Batc (None, 32, 32, 64)        256       
_________________________________________________________________
activation_89 (Activation)   (None, 32, 32, 64)        0         
_________________________________________________________________
dropout_89 (Dropout)         (None, 32, 32, 64)        0         
_________________________________________________________________
max_pooling2d_25 (MaxPooling (None, 16, 16, 64)        0         
_________________________________________________________________
separable_conv2d_69 (Separab (None, 16, 16, 8)         1096      
_________________________________________________________________
activation_90 (Activation)   (None, 16, 16, 8)         0         
_________________________________________________________________
dropout_90 (Dropout)         (None, 16, 16, 8)         0         
_________________________________________________________________
separable_conv2d_70 (Separab (None, 16, 16, 128)       1224      
_________________________________________________________________
activation_91 (Activation)   (None, 16, 16, 128)       0         
_________________________________________________________________
dropout_91 (Dropout)         (None, 16, 16, 128)       0         
_________________________________________________________________
flatten_34 (Flatten)         (None, 32768)             0         
_________________________________________________________________
dense_55 (Dense)             (None, 256)               8388864   
_________________________________________________________________
activation_92 (Activation)   (None, 256)               0         
_________________________________________________________________
dropout_92 (Dropout)         (None, 256)               0         
_________________________________________________________________
dense_56 (Dense)             (None, 100)               25700     
=================================================================
Total params: 8,417,423
Trainable params: 8,417,295
Non-trainable params: 128
_________________________________________________________________
