Model: "sequential_169"
_________________________________________________________________
Layer (type)                 Output Shape              Param #   
=================================================================
separable_conv2d_407 (Separa (None, 32, 32, 16)        91        
_________________________________________________________________
activation_560 (Activation)  (None, 32, 32, 16)        0         
_________________________________________________________________
dropout_560 (Dropout)        (None, 32, 32, 16)        0         
_________________________________________________________________
max_pooling2d_152 (MaxPoolin (None, 16, 16, 16)        0         
_________________________________________________________________
separable_conv2d_408 (Separa (None, 16, 16, 256)       4496      
_________________________________________________________________
activation_561 (Activation)  (None, 16, 16, 256)       0         
_________________________________________________________________
dropout_561 (Dropout)        (None, 16, 16, 256)       0         
_________________________________________________________________
flatten_169 (Flatten)        (None, 65536)             0         
_________________________________________________________________
dense_322 (Dense)            (None, 1024)              67109888  
_________________________________________________________________
activation_562 (Activation)  (None, 1024)              0         
_________________________________________________________________
dropout_562 (Dropout)        (None, 1024)              0         
_________________________________________________________________
dense_323 (Dense)            (None, 100)               102500    
=================================================================
Total params: 67,216,975
Trainable params: 67,216,975
Non-trainable params: 0
_________________________________________________________________
