Model: "sequential_137"
_________________________________________________________________
Layer (type)                 Output Shape              Param #   
=================================================================
separable_conv2d_343 (Separa (None, 32, 32, 64)        283       
_________________________________________________________________
batch_normalization_134 (Bat (None, 32, 32, 64)        256       
_________________________________________________________________
activation_464 (Activation)  (None, 32, 32, 64)        0         
_________________________________________________________________
dropout_464 (Dropout)        (None, 32, 32, 64)        0         
_________________________________________________________________
max_pooling2d_121 (MaxPoolin (None, 16, 16, 64)        0         
_________________________________________________________________
separable_conv2d_344 (Separa (None, 16, 16, 256)       17216     
_________________________________________________________________
activation_465 (Activation)  (None, 16, 16, 256)       0         
_________________________________________________________________
dropout_465 (Dropout)        (None, 16, 16, 256)       0         
_________________________________________________________________
flatten_137 (Flatten)        (None, 65536)             0         
_________________________________________________________________
dense_258 (Dense)            (None, 1024)              67109888  
_________________________________________________________________
activation_466 (Activation)  (None, 1024)              0         
_________________________________________________________________
dropout_466 (Dropout)        (None, 1024)              0         
_________________________________________________________________
dense_259 (Dense)            (None, 100)               102500    
=================================================================
Total params: 67,230,143
Trainable params: 67,230,015
Non-trainable params: 128
_________________________________________________________________
