Model: "sequential_411"
_________________________________________________________________
Layer (type)                 Output Shape              Param #   
=================================================================
separable_conv2d_724 (Separa (None, 32, 32, 32)        155       
_________________________________________________________________
activation_1107 (Activation) (None, 32, 32, 32)        0         
_________________________________________________________________
dropout_1107 (Dropout)       (None, 32, 32, 32)        0         
_________________________________________________________________
separable_conv2d_725 (Separa (None, 32, 32, 64)        2400      
_________________________________________________________________
activation_1108 (Activation) (None, 32, 32, 64)        0         
_________________________________________________________________
dropout_1108 (Dropout)       (None, 32, 32, 64)        0         
_________________________________________________________________
flatten_411 (Flatten)        (None, 65536)             0         
_________________________________________________________________
dense_794 (Dense)            (None, 1024)              67109888  
_________________________________________________________________
activation_1109 (Activation) (None, 1024)              0         
_________________________________________________________________
dropout_1109 (Dropout)       (None, 1024)              0         
_________________________________________________________________
dense_795 (Dense)            (None, 100)               102500    
=================================================================
Total params: 67,214,943
Trainable params: 67,214,943
Non-trainable params: 0
_________________________________________________________________
