Model: "sequential_311"
_________________________________________________________________
Layer (type)                 Output Shape              Param #   
=================================================================
separable_conv2d_600 (Separa (None, 32, 32, 32)        155       
_________________________________________________________________
activation_885 (Activation)  (None, 32, 32, 32)        0         
_________________________________________________________________
dropout_885 (Dropout)        (None, 32, 32, 32)        0         
_________________________________________________________________
flatten_311 (Flatten)        (None, 32768)             0         
_________________________________________________________________
dense_596 (Dense)            (None, 1024)              33555456  
_________________________________________________________________
activation_886 (Activation)  (None, 1024)              0         
_________________________________________________________________
dropout_886 (Dropout)        (None, 1024)              0         
_________________________________________________________________
dense_597 (Dense)            (None, 100)               102500    
=================================================================
Total params: 33,658,111
Trainable params: 33,658,111
Non-trainable params: 0
_________________________________________________________________
