Model: "sequential_207"
_________________________________________________________________
Layer (type)                 Output Shape              Param #   
=================================================================
separable_conv2d_479 (Separa (None, 32, 32, 16)        91        
_________________________________________________________________
activation_668 (Activation)  (None, 32, 32, 16)        0         
_________________________________________________________________
dropout_668 (Dropout)        (None, 32, 32, 16)        0         
_________________________________________________________________
max_pooling2d_183 (MaxPoolin (None, 16, 16, 16)        0         
_________________________________________________________________
separable_conv2d_480 (Separa (None, 16, 16, 256)       4496      
_________________________________________________________________
activation_669 (Activation)  (None, 16, 16, 256)       0         
_________________________________________________________________
dropout_669 (Dropout)        (None, 16, 16, 256)       0         
_________________________________________________________________
flatten_207 (Flatten)        (None, 65536)             0         
_________________________________________________________________
dense_396 (Dense)            (None, 1024)              67109888  
_________________________________________________________________
activation_670 (Activation)  (None, 1024)              0         
_________________________________________________________________
dropout_670 (Dropout)        (None, 1024)              0         
_________________________________________________________________
dense_397 (Dense)            (None, 100)               102500    
=================================================================
Total params: 67,216,975
Trainable params: 67,216,975
Non-trainable params: 0
_________________________________________________________________
