Model: "sequential_225"
_________________________________________________________________
Layer (type)                 Output Shape              Param #   
=================================================================
separable_conv2d_508 (Separa (None, 32, 32, 32)        155       
_________________________________________________________________
activation_715 (Activation)  (None, 32, 32, 32)        0         
_________________________________________________________________
dropout_715 (Dropout)        (None, 32, 32, 32)        0         
_________________________________________________________________
flatten_225 (Flatten)        (None, 32768)             0         
_________________________________________________________________
dense_432 (Dense)            (None, 128)               4194432   
_________________________________________________________________
activation_716 (Activation)  (None, 128)               0         
_________________________________________________________________
dropout_716 (Dropout)        (None, 128)               0         
_________________________________________________________________
dense_433 (Dense)            (None, 100)               12900     
=================================================================
Total params: 4,207,487
Trainable params: 4,207,487
Non-trainable params: 0
_________________________________________________________________
