Model: "sequential_204"
_________________________________________________________________
Layer (type)                 Output Shape              Param #   
=================================================================
separable_conv2d_474 (Separa (None, 32, 32, 16)        91        
_________________________________________________________________
activation_660 (Activation)  (None, 32, 32, 16)        0         
_________________________________________________________________
dropout_660 (Dropout)        (None, 32, 32, 16)        0         
_________________________________________________________________
separable_conv2d_475 (Separa (None, 32, 32, 256)       4496      
_________________________________________________________________
activation_661 (Activation)  (None, 32, 32, 256)       0         
_________________________________________________________________
dropout_661 (Dropout)        (None, 32, 32, 256)       0         
_________________________________________________________________
flatten_204 (Flatten)        (None, 262144)            0         
_________________________________________________________________
dense_390 (Dense)            (None, 1024)              268436480 
_________________________________________________________________
activation_662 (Activation)  (None, 1024)              0         
_________________________________________________________________
dropout_662 (Dropout)        (None, 1024)              0         
_________________________________________________________________
dense_391 (Dense)            (None, 100)               102500    
=================================================================
Total params: 268,543,567
Trainable params: 268,543,567
Non-trainable params: 0
_________________________________________________________________
