Model: "sequential_55"
_________________________________________________________________
Layer (type)                 Output Shape              Param #   
=================================================================
separable_conv2d_128 (Separa (None, 32, 32, 64)        283       
_________________________________________________________________
batch_normalization_56 (Batc (None, 32, 32, 64)        256       
_________________________________________________________________
activation_169 (Activation)  (None, 32, 32, 64)        0         
_________________________________________________________________
dropout_169 (Dropout)        (None, 32, 32, 64)        0         
_________________________________________________________________
max_pooling2d_43 (MaxPooling (None, 16, 16, 64)        0         
_________________________________________________________________
separable_conv2d_129 (Separa (None, 16, 16, 64)        4736      
_________________________________________________________________
activation_170 (Activation)  (None, 16, 16, 64)        0         
_________________________________________________________________
dropout_170 (Dropout)        (None, 16, 16, 64)        0         
_________________________________________________________________
separable_conv2d_130 (Separa (None, 16, 16, 512)       33856     
_________________________________________________________________
activation_171 (Activation)  (None, 16, 16, 512)       0         
_________________________________________________________________
dropout_171 (Dropout)        (None, 16, 16, 512)       0         
_________________________________________________________________
flatten_55 (Flatten)         (None, 131072)            0         
_________________________________________________________________
dense_96 (Dense)             (None, 256)               33554688  
_________________________________________________________________
activation_172 (Activation)  (None, 256)               0         
_________________________________________________________________
dropout_172 (Dropout)        (None, 256)               0         
_________________________________________________________________
dense_97 (Dense)             (None, 100)               25700     
=================================================================
Total params: 33,619,519
Trainable params: 33,619,391
Non-trainable params: 128
_________________________________________________________________
