Model: "sequential_291"
_________________________________________________________________
Layer (type)                 Output Shape              Param #   
=================================================================
separable_conv2d_580 (Separa (None, 32, 32, 32)        155       
_________________________________________________________________
activation_845 (Activation)  (None, 32, 32, 32)        0         
_________________________________________________________________
dropout_845 (Dropout)        (None, 32, 32, 32)        0         
_________________________________________________________________
flatten_291 (Flatten)        (None, 32768)             0         
_________________________________________________________________
dense_556 (Dense)            (None, 1024)              33555456  
_________________________________________________________________
activation_846 (Activation)  (None, 1024)              0         
_________________________________________________________________
dropout_846 (Dropout)        (None, 1024)              0         
_________________________________________________________________
dense_557 (Dense)            (None, 100)               102500    
=================================================================
Total params: 33,658,111
Trainable params: 33,658,111
Non-trainable params: 0
_________________________________________________________________
