Model: "sequential_396"
_________________________________________________________________
Layer (type)                 Output Shape              Param #   
=================================================================
separable_conv2d_702 (Separa (None, 32, 32, 128)       539       
_________________________________________________________________
activation_1070 (Activation) (None, 32, 32, 128)       0         
_________________________________________________________________
dropout_1070 (Dropout)       (None, 32, 32, 128)       0         
_________________________________________________________________
flatten_396 (Flatten)        (None, 131072)            0         
_________________________________________________________________
dense_764 (Dense)            (None, 16)                2097168   
_________________________________________________________________
activation_1071 (Activation) (None, 16)                0         
_________________________________________________________________
dropout_1071 (Dropout)       (None, 16)                0         
_________________________________________________________________
dense_765 (Dense)            (None, 100)               1700      
=================================================================
Total params: 2,099,407
Trainable params: 2,099,407
Non-trainable params: 0
_________________________________________________________________
