Model: "sequential_114"
_________________________________________________________________
Layer (type)                 Output Shape              Param #   
=================================================================
separable_conv2d_291 (Separa (None, 32, 32, 16)        91        
_________________________________________________________________
activation_389 (Activation)  (None, 32, 32, 16)        0         
_________________________________________________________________
dropout_389 (Dropout)        (None, 32, 32, 16)        0         
_________________________________________________________________
max_pooling2d_98 (MaxPooling (None, 16, 16, 16)        0         
_________________________________________________________________
separable_conv2d_292 (Separa (None, 16, 16, 256)       4496      
_________________________________________________________________
activation_390 (Activation)  (None, 16, 16, 256)       0         
_________________________________________________________________
dropout_390 (Dropout)        (None, 16, 16, 256)       0         
_________________________________________________________________
separable_conv2d_293 (Separa (None, 16, 16, 32)        10528     
_________________________________________________________________
activation_391 (Activation)  (None, 16, 16, 32)        0         
_________________________________________________________________
dropout_391 (Dropout)        (None, 16, 16, 32)        0         
_________________________________________________________________
flatten_114 (Flatten)        (None, 8192)              0         
_________________________________________________________________
dense_212 (Dense)            (None, 256)               2097408   
_________________________________________________________________
activation_392 (Activation)  (None, 256)               0         
_________________________________________________________________
dropout_392 (Dropout)        (None, 256)               0         
_________________________________________________________________
dense_213 (Dense)            (None, 100)               25700     
=================================================================
Total params: 2,138,223
Trainable params: 2,138,223
Non-trainable params: 0
_________________________________________________________________
