Model: "sequential_130"
_________________________________________________________________
Layer (type)                 Output Shape              Param #   
=================================================================
separable_conv2d_330 (Separa (None, 32, 32, 64)        283       
_________________________________________________________________
batch_normalization_130 (Bat (None, 32, 32, 64)        256       
_________________________________________________________________
activation_444 (Activation)  (None, 32, 32, 64)        0         
_________________________________________________________________
dropout_444 (Dropout)        (None, 32, 32, 64)        0         
_________________________________________________________________
max_pooling2d_114 (MaxPoolin (None, 16, 16, 64)        0         
_________________________________________________________________
separable_conv2d_331 (Separa (None, 16, 16, 256)       17216     
_________________________________________________________________
activation_445 (Activation)  (None, 16, 16, 256)       0         
_________________________________________________________________
dropout_445 (Dropout)        (None, 16, 16, 256)       0         
_________________________________________________________________
flatten_130 (Flatten)        (None, 65536)             0         
_________________________________________________________________
dense_244 (Dense)            (None, 1024)              67109888  
_________________________________________________________________
activation_446 (Activation)  (None, 1024)              0         
_________________________________________________________________
dropout_446 (Dropout)        (None, 1024)              0         
_________________________________________________________________
dense_245 (Dense)            (None, 100)               102500    
=================================================================
Total params: 67,230,143
Trainable params: 67,230,015
Non-trainable params: 128
_________________________________________________________________
