Model: "sequential_61"
_________________________________________________________________
Layer (type)                 Output Shape              Param #   
=================================================================
separable_conv2d_145 (Separa (None, 32, 32, 64)        283       
_________________________________________________________________
batch_normalization_62 (Batc (None, 32, 32, 64)        256       
_________________________________________________________________
activation_192 (Activation)  (None, 32, 32, 64)        0         
_________________________________________________________________
dropout_192 (Dropout)        (None, 32, 32, 64)        0         
_________________________________________________________________
max_pooling2d_50 (MaxPooling (None, 16, 16, 64)        0         
_________________________________________________________________
separable_conv2d_146 (Separa (None, 16, 16, 64)        4736      
_________________________________________________________________
activation_193 (Activation)  (None, 16, 16, 64)        0         
_________________________________________________________________
dropout_193 (Dropout)        (None, 16, 16, 64)        0         
_________________________________________________________________
separable_conv2d_147 (Separa (None, 16, 16, 512)       33856     
_________________________________________________________________
activation_194 (Activation)  (None, 16, 16, 512)       0         
_________________________________________________________________
dropout_194 (Dropout)        (None, 16, 16, 512)       0         
_________________________________________________________________
flatten_61 (Flatten)         (None, 131072)            0         
_________________________________________________________________
dense_108 (Dense)            (None, 256)               33554688  
_________________________________________________________________
activation_195 (Activation)  (None, 256)               0         
_________________________________________________________________
dropout_195 (Dropout)        (None, 256)               0         
_________________________________________________________________
dense_109 (Dense)            (None, 100)               25700     
=================================================================
Total params: 33,619,519
Trainable params: 33,619,391
Non-trainable params: 128
_________________________________________________________________
