Model: "sequential_218"
_________________________________________________________________
Layer (type)                 Output Shape              Param #   
=================================================================
separable_conv2d_499 (Separa (None, 32, 32, 32)        155       
_________________________________________________________________
activation_699 (Activation)  (None, 32, 32, 32)        0         
_________________________________________________________________
dropout_699 (Dropout)        (None, 32, 32, 32)        0         
_________________________________________________________________
flatten_218 (Flatten)        (None, 32768)             0         
_________________________________________________________________
dense_418 (Dense)            (None, 1024)              33555456  
_________________________________________________________________
activation_700 (Activation)  (None, 1024)              0         
_________________________________________________________________
dropout_700 (Dropout)        (None, 1024)              0         
_________________________________________________________________
dense_419 (Dense)            (None, 100)               102500    
=================================================================
Total params: 33,658,111
Trainable params: 33,658,111
Non-trainable params: 0
_________________________________________________________________
