Model: "sequential_369"
_________________________________________________________________
Layer (type)                 Output Shape              Param #   
=================================================================
separable_conv2d_666 (Separa (None, 32, 32, 32)        155       
_________________________________________________________________
batch_normalization_185 (Bat (None, 32, 32, 32)        128       
_________________________________________________________________
activation_1007 (Activation) (None, 32, 32, 32)        0         
_________________________________________________________________
dropout_1007 (Dropout)       (None, 32, 32, 32)        0         
_________________________________________________________________
flatten_369 (Flatten)        (None, 32768)             0         
_________________________________________________________________
dense_710 (Dense)            (None, 128)               4194432   
_________________________________________________________________
activation_1008 (Activation) (None, 128)               0         
_________________________________________________________________
dropout_1008 (Dropout)       (None, 128)               0         
_________________________________________________________________
dense_711 (Dense)            (None, 100)               12900     
=================================================================
Total params: 4,207,615
Trainable params: 4,207,551
Non-trainable params: 64
_________________________________________________________________
