Model: "sequential_131"
_________________________________________________________________
Layer (type)                 Output Shape              Param #   
=================================================================
separable_conv2d_332 (Separa (None, 32, 32, 16)        91        
_________________________________________________________________
activation_447 (Activation)  (None, 32, 32, 16)        0         
_________________________________________________________________
dropout_447 (Dropout)        (None, 32, 32, 16)        0         
_________________________________________________________________
max_pooling2d_115 (MaxPoolin (None, 16, 16, 16)        0         
_________________________________________________________________
separable_conv2d_333 (Separa (None, 16, 16, 256)       4496      
_________________________________________________________________
activation_448 (Activation)  (None, 16, 16, 256)       0         
_________________________________________________________________
dropout_448 (Dropout)        (None, 16, 16, 256)       0         
_________________________________________________________________
flatten_131 (Flatten)        (None, 65536)             0         
_________________________________________________________________
dense_246 (Dense)            (None, 1024)              67109888  
_________________________________________________________________
activation_449 (Activation)  (None, 1024)              0         
_________________________________________________________________
dropout_449 (Dropout)        (None, 1024)              0         
_________________________________________________________________
dense_247 (Dense)            (None, 100)               102500    
=================================================================
Total params: 67,216,975
Trainable params: 67,216,975
Non-trainable params: 0
_________________________________________________________________
