Model: "sequential_465"
_________________________________________________________________
Layer (type)                 Output Shape              Param #   
=================================================================
separable_conv2d_815 (Separa (None, 32, 32, 32)        155       
_________________________________________________________________
batch_normalization_218 (Bat (None, 32, 32, 32)        128       
_________________________________________________________________
activation_1251 (Activation) (None, 32, 32, 32)        0         
_________________________________________________________________
dropout_1251 (Dropout)       (None, 32, 32, 32)        0         
_________________________________________________________________
flatten_465 (Flatten)        (None, 32768)             0         
_________________________________________________________________
dense_901 (Dense)            (None, 128)               4194432   
_________________________________________________________________
batch_normalization_219 (Bat (None, 128)               512       
_________________________________________________________________
activation_1252 (Activation) (None, 128)               0         
_________________________________________________________________
dropout_1252 (Dropout)       (None, 128)               0         
_________________________________________________________________
dense_902 (Dense)            (None, 100)               12900     
=================================================================
Total params: 4,208,127
Trainable params: 4,207,807
Non-trainable params: 320
_________________________________________________________________
