Model: "sequential_263"
_________________________________________________________________
Layer (type)                 Output Shape              Param #   
=================================================================
separable_conv2d_552 (Separa (None, 32, 32, 32)        155       
_________________________________________________________________
activation_791 (Activation)  (None, 32, 32, 32)        0         
_________________________________________________________________
dropout_791 (Dropout)        (None, 32, 32, 32)        0         
_________________________________________________________________
max_pooling2d_224 (MaxPoolin (None, 16, 16, 32)        0         
_________________________________________________________________
flatten_263 (Flatten)        (None, 8192)              0         
_________________________________________________________________
dense_502 (Dense)            (None, 1024)              8389632   
_________________________________________________________________
activation_792 (Activation)  (None, 1024)              0         
_________________________________________________________________
dropout_792 (Dropout)        (None, 1024)              0         
_________________________________________________________________
dense_503 (Dense)            (None, 100)               102500    
=================================================================
Total params: 8,492,287
Trainable params: 8,492,287
Non-trainable params: 0
_________________________________________________________________
