Model: "sequential_350"
_________________________________________________________________
Layer (type)                 Output Shape              Param #   
=================================================================
separable_conv2d_641 (Separa (None, 32, 32, 32)        155       
_________________________________________________________________
activation_964 (Activation)  (None, 32, 32, 32)        0         
_________________________________________________________________
dropout_964 (Dropout)        (None, 32, 32, 32)        0         
_________________________________________________________________
flatten_350 (Flatten)        (None, 32768)             0         
_________________________________________________________________
dense_673 (Dense)            (None, 128)               4194432   
_________________________________________________________________
activation_965 (Activation)  (None, 128)               0         
_________________________________________________________________
dropout_965 (Dropout)        (None, 128)               0         
_________________________________________________________________
dense_674 (Dense)            (None, 100)               12900     
=================================================================
Total params: 4,207,487
Trainable params: 4,207,487
Non-trainable params: 0
_________________________________________________________________
