Model: "sequential_281"
_________________________________________________________________
Layer (type)                 Output Shape              Param #   
=================================================================
separable_conv2d_570 (Separa (None, 32, 32, 32)        155       
_________________________________________________________________
activation_826 (Activation)  (None, 32, 32, 32)        0         
_________________________________________________________________
dropout_826 (Dropout)        (None, 32, 32, 32)        0         
_________________________________________________________________
flatten_281 (Flatten)        (None, 32768)             0         
_________________________________________________________________
dense_537 (Dense)            (None, 1024)              33555456  
_________________________________________________________________
activation_827 (Activation)  (None, 1024)              0         
_________________________________________________________________
dropout_827 (Dropout)        (None, 1024)              0         
_________________________________________________________________
dense_538 (Dense)            (None, 100)               102500    
=================================================================
Total params: 33,658,111
Trainable params: 33,658,111
Non-trainable params: 0
_________________________________________________________________
