Model: "sequential_16"
_________________________________________________________________
Layer (type)                 Output Shape              Param #   
=================================================================
separable_conv2d_33 (Separab (None, 32, 32, 8)         59        
_________________________________________________________________
batch_normalization_15 (Batc (None, 32, 32, 8)         32        
_________________________________________________________________
activation_43 (Activation)   (None, 32, 32, 8)         0         
_________________________________________________________________
dropout_43 (Dropout)         (None, 32, 32, 8)         0         
_________________________________________________________________
max_pooling2d_14 (MaxPooling (None, 16, 16, 8)         0         
_________________________________________________________________
separable_conv2d_34 (Separab (None, 16, 16, 64)        648       
_________________________________________________________________
activation_44 (Activation)   (None, 16, 16, 64)        0         
_________________________________________________________________
dropout_44 (Dropout)         (None, 16, 16, 64)        0         
_________________________________________________________________
flatten_16 (Flatten)         (None, 16384)             0         
_________________________________________________________________
dense_26 (Dense)             (None, 256)               4194560   
_________________________________________________________________
batch_normalization_16 (Batc (None, 256)               1024      
_________________________________________________________________
activation_45 (Activation)   (None, 256)               0         
_________________________________________________________________
dropout_45 (Dropout)         (None, 256)               0         
_________________________________________________________________
dense_27 (Dense)             (None, 100)               25700     
=================================================================
Total params: 4,222,023
Trainable params: 4,221,495
Non-trainable params: 528
_________________________________________________________________
