Model: "sequential_379"
_________________________________________________________________
Layer (type)                 Output Shape              Param #   
=================================================================
separable_conv2d_679 (Separa (None, 32, 32, 32)        155       
_________________________________________________________________
activation_1030 (Activation) (None, 32, 32, 32)        0         
_________________________________________________________________
dropout_1030 (Dropout)       (None, 32, 32, 32)        0         
_________________________________________________________________
flatten_379 (Flatten)        (None, 32768)             0         
_________________________________________________________________
dense_730 (Dense)            (None, 1024)              33555456  
_________________________________________________________________
activation_1031 (Activation) (None, 1024)              0         
_________________________________________________________________
dropout_1031 (Dropout)       (None, 1024)              0         
_________________________________________________________________
dense_731 (Dense)            (None, 100)               102500    
=================================================================
Total params: 33,658,111
Trainable params: 33,658,111
Non-trainable params: 0
_________________________________________________________________
