Model: "sequential_300"
_________________________________________________________________
Layer (type)                 Output Shape              Param #   
=================================================================
separable_conv2d_589 (Separa (None, 32, 32, 32)        155       
_________________________________________________________________
activation_863 (Activation)  (None, 32, 32, 32)        0         
_________________________________________________________________
dropout_863 (Dropout)        (None, 32, 32, 32)        0         
_________________________________________________________________
flatten_300 (Flatten)        (None, 32768)             0         
_________________________________________________________________
dense_574 (Dense)            (None, 64)                2097216   
_________________________________________________________________
activation_864 (Activation)  (None, 64)                0         
_________________________________________________________________
dropout_864 (Dropout)        (None, 64)                0         
_________________________________________________________________
dense_575 (Dense)            (None, 100)               6500      
=================================================================
Total params: 2,103,871
Trainable params: 2,103,871
Non-trainable params: 0
_________________________________________________________________
