Model: "sequential_246"
_________________________________________________________________
Layer (type)                 Output Shape              Param #   
=================================================================
separable_conv2d_534 (Separa (None, 32, 32, 32)        155       
_________________________________________________________________
activation_758 (Activation)  (None, 32, 32, 32)        0         
_________________________________________________________________
dropout_758 (Dropout)        (None, 32, 32, 32)        0         
_________________________________________________________________
flatten_246 (Flatten)        (None, 32768)             0         
_________________________________________________________________
dense_470 (Dense)            (None, 1024)              33555456  
_________________________________________________________________
activation_759 (Activation)  (None, 1024)              0         
_________________________________________________________________
dropout_759 (Dropout)        (None, 1024)              0         
_________________________________________________________________
dense_471 (Dense)            (None, 100)               102500    
=================================================================
Total params: 33,658,111
Trainable params: 33,658,111
Non-trainable params: 0
_________________________________________________________________
