Model: "sequential_84"
_________________________________________________________________
Layer (type)                 Output Shape              Param #   
=================================================================
separable_conv2d_213 (Separa (None, 32, 32, 32)        155       
_________________________________________________________________
batch_normalization_83 (Batc (None, 32, 32, 32)        128       
_________________________________________________________________
activation_283 (Activation)  (None, 32, 32, 32)        0         
_________________________________________________________________
dropout_283 (Dropout)        (None, 32, 32, 32)        0         
_________________________________________________________________
separable_conv2d_214 (Separa (None, 32, 32, 256)       8736      
_________________________________________________________________
activation_284 (Activation)  (None, 32, 32, 256)       0         
_________________________________________________________________
dropout_284 (Dropout)        (None, 32, 32, 256)       0         
_________________________________________________________________
separable_conv2d_215 (Separa (None, 32, 32, 32)        10528     
_________________________________________________________________
activation_285 (Activation)  (None, 32, 32, 32)        0         
_________________________________________________________________
dropout_285 (Dropout)        (None, 32, 32, 32)        0         
_________________________________________________________________
separable_conv2d_216 (Separa (None, 32, 32, 128)       4512      
_________________________________________________________________
activation_286 (Activation)  (None, 32, 32, 128)       0         
_________________________________________________________________
dropout_286 (Dropout)        (None, 32, 32, 128)       0         
_________________________________________________________________
flatten_84 (Flatten)         (None, 131072)            0         
_________________________________________________________________
dense_154 (Dense)            (None, 256)               33554688  
_________________________________________________________________
activation_287 (Activation)  (None, 256)               0         
_________________________________________________________________
dropout_287 (Dropout)        (None, 256)               0         
_________________________________________________________________
dense_155 (Dense)            (None, 100)               25700     
=================================================================
Total params: 33,604,447
Trainable params: 33,604,383
Non-trainable params: 64
_________________________________________________________________
