Model: "sequential_313"
_________________________________________________________________
Layer (type)                 Output Shape              Param #   
=================================================================
separable_conv2d_602 (Separa (None, 32, 32, 32)        155       
_________________________________________________________________
activation_889 (Activation)  (None, 32, 32, 32)        0         
_________________________________________________________________
dropout_889 (Dropout)        (None, 32, 32, 32)        0         
_________________________________________________________________
flatten_313 (Flatten)        (None, 32768)             0         
_________________________________________________________________
dense_600 (Dense)            (None, 128)               4194432   
_________________________________________________________________
activation_890 (Activation)  (None, 128)               0         
_________________________________________________________________
dropout_890 (Dropout)        (None, 128)               0         
_________________________________________________________________
dense_601 (Dense)            (None, 100)               12900     
=================================================================
Total params: 4,207,487
Trainable params: 4,207,487
Non-trainable params: 0
_________________________________________________________________
