Model: "sequential_470"
_________________________________________________________________
Layer (type)                 Output Shape              Param #   
=================================================================
separable_conv2d_825 (Separa (None, 32, 32, 32)        155       
_________________________________________________________________
batch_normalization_221 (Bat (None, 32, 32, 32)        128       
_________________________________________________________________
activation_1266 (Activation) (None, 32, 32, 32)        0         
_________________________________________________________________
dropout_1266 (Dropout)       (None, 32, 32, 32)        0         
_________________________________________________________________
flatten_470 (Flatten)        (None, 32768)             0         
_________________________________________________________________
dense_911 (Dense)            (None, 100)               3276900   
=================================================================
Total params: 3,277,183
Trainable params: 3,277,119
Non-trainable params: 64
_________________________________________________________________
