Model: "sequential_429"
_________________________________________________________________
Layer (type)                 Output Shape              Param #   
=================================================================
separable_conv2d_753 (Separa (None, 32, 32, 32)        155       
_________________________________________________________________
activation_1154 (Activation) (None, 32, 32, 32)        0         
_________________________________________________________________
dropout_1154 (Dropout)       (None, 32, 32, 32)        0         
_________________________________________________________________
flatten_429 (Flatten)        (None, 32768)             0         
_________________________________________________________________
dense_830 (Dense)            (None, 256)               8388864   
_________________________________________________________________
batch_normalization_203 (Bat (None, 256)               1024      
_________________________________________________________________
activation_1155 (Activation) (None, 256)               0         
_________________________________________________________________
dropout_1155 (Dropout)       (None, 256)               0         
_________________________________________________________________
dense_831 (Dense)            (None, 100)               25700     
=================================================================
Total params: 8,415,743
Trainable params: 8,415,231
Non-trainable params: 512
_________________________________________________________________
