Model: "sequential_370"
_________________________________________________________________
Layer (type)                 Output Shape              Param #   
=================================================================
separable_conv2d_667 (Separa (None, 32, 32, 256)       1051      
_________________________________________________________________
activation_1009 (Activation) (None, 32, 32, 256)       0         
_________________________________________________________________
dropout_1009 (Dropout)       (None, 32, 32, 256)       0         
_________________________________________________________________
separable_conv2d_668 (Separa (None, 32, 32, 128)       35200     
_________________________________________________________________
activation_1010 (Activation) (None, 32, 32, 128)       0         
_________________________________________________________________
dropout_1010 (Dropout)       (None, 32, 32, 128)       0         
_________________________________________________________________
flatten_370 (Flatten)        (None, 131072)            0         
_________________________________________________________________
dense_712 (Dense)            (None, 128)               16777344  
_________________________________________________________________
activation_1011 (Activation) (None, 128)               0         
_________________________________________________________________
dropout_1011 (Dropout)       (None, 128)               0         
_________________________________________________________________
dense_713 (Dense)            (None, 100)               12900     
=================================================================
Total params: 16,826,495
Trainable params: 16,826,495
Non-trainable params: 0
_________________________________________________________________
