Model: "sequential_342"
_________________________________________________________________
Layer (type)                 Output Shape              Param #   
=================================================================
separable_conv2d_632 (Separa (None, 32, 32, 32)        155       
_________________________________________________________________
activation_947 (Activation)  (None, 32, 32, 32)        0         
_________________________________________________________________
dropout_947 (Dropout)        (None, 32, 32, 32)        0         
_________________________________________________________________
flatten_342 (Flatten)        (None, 32768)             0         
_________________________________________________________________
dense_657 (Dense)            (None, 64)                2097216   
_________________________________________________________________
activation_948 (Activation)  (None, 64)                0         
_________________________________________________________________
dropout_948 (Dropout)        (None, 64)                0         
_________________________________________________________________
dense_658 (Dense)            (None, 100)               6500      
=================================================================
Total params: 2,103,871
Trainable params: 2,103,871
Non-trainable params: 0
_________________________________________________________________
