Model: "sequential_397"
_________________________________________________________________
Layer (type)                 Output Shape              Param #   
=================================================================
separable_conv2d_703 (Separa (None, 32, 32, 32)        155       
_________________________________________________________________
activation_1072 (Activation) (None, 32, 32, 32)        0         
_________________________________________________________________
dropout_1072 (Dropout)       (None, 32, 32, 32)        0         
_________________________________________________________________
flatten_397 (Flatten)        (None, 32768)             0         
_________________________________________________________________
dense_766 (Dense)            (None, 128)               4194432   
_________________________________________________________________
activation_1073 (Activation) (None, 128)               0         
_________________________________________________________________
dropout_1073 (Dropout)       (None, 128)               0         
_________________________________________________________________
dense_767 (Dense)            (None, 100)               12900     
=================================================================
Total params: 4,207,487
Trainable params: 4,207,487
Non-trainable params: 0
_________________________________________________________________
