Model: "sequential_354"
_________________________________________________________________
Layer (type)                 Output Shape              Param #   
=================================================================
separable_conv2d_645 (Separa (None, 32, 32, 32)        155       
_________________________________________________________________
activation_972 (Activation)  (None, 32, 32, 32)        0         
_________________________________________________________________
dropout_972 (Dropout)        (None, 32, 32, 32)        0         
_________________________________________________________________
flatten_354 (Flatten)        (None, 32768)             0         
_________________________________________________________________
dense_681 (Dense)            (None, 64)                2097216   
_________________________________________________________________
activation_973 (Activation)  (None, 64)                0         
_________________________________________________________________
dropout_973 (Dropout)        (None, 64)                0         
_________________________________________________________________
dense_682 (Dense)            (None, 100)               6500      
=================================================================
Total params: 2,103,871
Trainable params: 2,103,871
Non-trainable params: 0
_________________________________________________________________
