Model: "sequential_418"
_________________________________________________________________
Layer (type)                 Output Shape              Param #   
=================================================================
separable_conv2d_736 (Separa (None, 32, 32, 256)       1051      
_________________________________________________________________
activation_1126 (Activation) (None, 32, 32, 256)       0         
_________________________________________________________________
dropout_1126 (Dropout)       (None, 32, 32, 256)       0         
_________________________________________________________________
separable_conv2d_737 (Separa (None, 32, 32, 128)       35200     
_________________________________________________________________
activation_1127 (Activation) (None, 32, 32, 128)       0         
_________________________________________________________________
dropout_1127 (Dropout)       (None, 32, 32, 128)       0         
_________________________________________________________________
flatten_418 (Flatten)        (None, 131072)            0         
_________________________________________________________________
dense_808 (Dense)            (None, 128)               16777344  
_________________________________________________________________
activation_1128 (Activation) (None, 128)               0         
_________________________________________________________________
dropout_1128 (Dropout)       (None, 128)               0         
_________________________________________________________________
dense_809 (Dense)            (None, 100)               12900     
=================================================================
Total params: 16,826,495
Trainable params: 16,826,495
Non-trainable params: 0
_________________________________________________________________
