Model: "sequential_38"
_________________________________________________________________
Layer (type)                 Output Shape              Param #   
=================================================================
separable_conv2d_80 (Separab (None, 32, 32, 8)         59        
_________________________________________________________________
batch_normalization_38 (Batc (None, 32, 32, 8)         32        
_________________________________________________________________
activation_105 (Activation)  (None, 32, 32, 8)         0         
_________________________________________________________________
dropout_105 (Dropout)        (None, 32, 32, 8)         0         
_________________________________________________________________
max_pooling2d_29 (MaxPooling (None, 16, 16, 8)         0         
_________________________________________________________________
separable_conv2d_81 (Separab (None, 16, 16, 8)         144       
_________________________________________________________________
activation_106 (Activation)  (None, 16, 16, 8)         0         
_________________________________________________________________
dropout_106 (Dropout)        (None, 16, 16, 8)         0         
_________________________________________________________________
flatten_38 (Flatten)         (None, 2048)              0         
_________________________________________________________________
dense_63 (Dense)             (None, 100)               204900    
=================================================================
Total params: 205,135
Trainable params: 205,119
Non-trainable params: 16
_________________________________________________________________
