Model: "sequential_459"
_________________________________________________________________
Layer (type)                 Output Shape              Param #   
=================================================================
separable_conv2d_804 (Separa (None, 32, 32, 8)         59        
_________________________________________________________________
activation_1235 (Activation) (None, 32, 32, 8)         0         
_________________________________________________________________
dropout_1235 (Dropout)       (None, 32, 32, 8)         0         
_________________________________________________________________
separable_conv2d_805 (Separa (None, 32, 32, 16)        216       
_________________________________________________________________
activation_1236 (Activation) (None, 32, 32, 16)        0         
_________________________________________________________________
dropout_1236 (Dropout)       (None, 32, 32, 16)        0         
_________________________________________________________________
flatten_459 (Flatten)        (None, 16384)             0         
_________________________________________________________________
dense_890 (Dense)            (None, 1024)              16778240  
_________________________________________________________________
activation_1237 (Activation) (None, 1024)              0         
_________________________________________________________________
dropout_1237 (Dropout)       (None, 1024)              0         
_________________________________________________________________
dense_891 (Dense)            (None, 100)               102500    
=================================================================
Total params: 16,881,015
Trainable params: 16,881,015
Non-trainable params: 0
_________________________________________________________________
