Model: "sequential_46"
_________________________________________________________________
Layer (type)                 Output Shape              Param #   
=================================================================
separable_conv2d_102 (Separa (None, 32, 32, 64)        283       
_________________________________________________________________
batch_normalization_49 (Batc (None, 32, 32, 64)        256       
_________________________________________________________________
activation_134 (Activation)  (None, 32, 32, 64)        0         
_________________________________________________________________
dropout_134 (Dropout)        (None, 32, 32, 64)        0         
_________________________________________________________________
max_pooling2d_37 (MaxPooling (None, 16, 16, 64)        0         
_________________________________________________________________
separable_conv2d_103 (Separa (None, 16, 16, 8)         1096      
_________________________________________________________________
activation_135 (Activation)  (None, 16, 16, 8)         0         
_________________________________________________________________
dropout_135 (Dropout)        (None, 16, 16, 8)         0         
_________________________________________________________________
separable_conv2d_104 (Separa (None, 16, 16, 128)       1224      
_________________________________________________________________
activation_136 (Activation)  (None, 16, 16, 128)       0         
_________________________________________________________________
dropout_136 (Dropout)        (None, 16, 16, 128)       0         
_________________________________________________________________
flatten_46 (Flatten)         (None, 32768)             0         
_________________________________________________________________
dense_78 (Dense)             (None, 256)               8388864   
_________________________________________________________________
activation_137 (Activation)  (None, 256)               0         
_________________________________________________________________
dropout_137 (Dropout)        (None, 256)               0         
_________________________________________________________________
dense_79 (Dense)             (None, 100)               25700     
=================================================================
Total params: 8,417,423
Trainable params: 8,417,295
Non-trainable params: 128
_________________________________________________________________
