Model: "sequential_421"
_________________________________________________________________
Layer (type)                 Output Shape              Param #   
=================================================================
separable_conv2d_741 (Separa (None, 32, 32, 32)        155       
_________________________________________________________________
activation_1134 (Activation) (None, 32, 32, 32)        0         
_________________________________________________________________
dropout_1134 (Dropout)       (None, 32, 32, 32)        0         
_________________________________________________________________
separable_conv2d_742 (Separa (None, 32, 32, 64)        2400      
_________________________________________________________________
activation_1135 (Activation) (None, 32, 32, 64)        0         
_________________________________________________________________
dropout_1135 (Dropout)       (None, 32, 32, 64)        0         
_________________________________________________________________
flatten_421 (Flatten)        (None, 65536)             0         
_________________________________________________________________
dense_814 (Dense)            (None, 256)               16777472  
_________________________________________________________________
batch_normalization_199 (Bat (None, 256)               1024      
_________________________________________________________________
activation_1136 (Activation) (None, 256)               0         
_________________________________________________________________
dropout_1136 (Dropout)       (None, 256)               0         
_________________________________________________________________
dense_815 (Dense)            (None, 100)               25700     
=================================================================
Total params: 16,806,751
Trainable params: 16,806,239
Non-trainable params: 512
_________________________________________________________________
