Model: "sequential_401"
_________________________________________________________________
Layer (type)                 Output Shape              Param #   
=================================================================
separable_conv2d_708 (Separa (None, 32, 32, 32)        155       
_________________________________________________________________
activation_1081 (Activation) (None, 32, 32, 32)        0         
_________________________________________________________________
dropout_1081 (Dropout)       (None, 32, 32, 32)        0         
_________________________________________________________________
separable_conv2d_709 (Separa (None, 32, 32, 512)       17184     
_________________________________________________________________
activation_1082 (Activation) (None, 32, 32, 512)       0         
_________________________________________________________________
dropout_1082 (Dropout)       (None, 32, 32, 512)       0         
_________________________________________________________________
flatten_401 (Flatten)        (None, 524288)            0         
_________________________________________________________________
dense_774 (Dense)            (None, 128)               67108992  
_________________________________________________________________
activation_1083 (Activation) (None, 128)               0         
_________________________________________________________________
dropout_1083 (Dropout)       (None, 128)               0         
_________________________________________________________________
dense_775 (Dense)            (None, 100)               12900     
=================================================================
Total params: 67,139,231
Trainable params: 67,139,231
Non-trainable params: 0
_________________________________________________________________
