Model: "sequential_254"
_________________________________________________________________
Layer (type)                 Output Shape              Param #   
=================================================================
separable_conv2d_543 (Separa (None, 32, 32, 32)        155       
_________________________________________________________________
activation_774 (Activation)  (None, 32, 32, 32)        0         
_________________________________________________________________
dropout_774 (Dropout)        (None, 32, 32, 32)        0         
_________________________________________________________________
max_pooling2d_215 (MaxPoolin (None, 16, 16, 32)        0         
_________________________________________________________________
flatten_254 (Flatten)        (None, 8192)              0         
_________________________________________________________________
dense_485 (Dense)            (None, 128)               1048704   
_________________________________________________________________
activation_775 (Activation)  (None, 128)               0         
_________________________________________________________________
dropout_775 (Dropout)        (None, 128)               0         
_________________________________________________________________
dense_486 (Dense)            (None, 100)               12900     
=================================================================
Total params: 1,061,759
Trainable params: 1,061,759
Non-trainable params: 0
_________________________________________________________________
