Model: "sequential_482"
_________________________________________________________________
Layer (type)                 Output Shape              Param #   
=================================================================
separable_conv2d_843 (Separa (None, 32, 32, 64)        283       
_________________________________________________________________
activation_1295 (Activation) (None, 32, 32, 64)        0         
_________________________________________________________________
dropout_1295 (Dropout)       (None, 32, 32, 64)        0         
_________________________________________________________________
flatten_482 (Flatten)        (None, 65536)             0         
_________________________________________________________________
dense_934 (Dense)            (None, 1024)              67109888  
_________________________________________________________________
batch_normalization_229 (Bat (None, 1024)              4096      
_________________________________________________________________
activation_1296 (Activation) (None, 1024)              0         
_________________________________________________________________
dropout_1296 (Dropout)       (None, 1024)              0         
_________________________________________________________________
dense_935 (Dense)            (None, 100)               102500    
=================================================================
Total params: 67,216,767
Trainable params: 67,214,719
Non-trainable params: 2,048
_________________________________________________________________
