Model: "sequential_387"
_________________________________________________________________
Layer (type)                 Output Shape              Param #   
=================================================================
separable_conv2d_690 (Separa (None, 32, 32, 32)        155       
_________________________________________________________________
activation_1049 (Activation) (None, 32, 32, 32)        0         
_________________________________________________________________
dropout_1049 (Dropout)       (None, 32, 32, 32)        0         
_________________________________________________________________
flatten_387 (Flatten)        (None, 32768)             0         
_________________________________________________________________
dense_746 (Dense)            (None, 128)               4194432   
_________________________________________________________________
activation_1050 (Activation) (None, 128)               0         
_________________________________________________________________
dropout_1050 (Dropout)       (None, 128)               0         
_________________________________________________________________
dense_747 (Dense)            (None, 100)               12900     
=================================================================
Total params: 4,207,487
Trainable params: 4,207,487
Non-trainable params: 0
_________________________________________________________________
