Model: "sequential_249"
_________________________________________________________________
Layer (type)                 Output Shape              Param #   
=================================================================
separable_conv2d_538 (Separa (None, 32, 32, 32)        155       
_________________________________________________________________
activation_765 (Activation)  (None, 32, 32, 32)        0         
_________________________________________________________________
dropout_765 (Dropout)        (None, 32, 32, 32)        0         
_________________________________________________________________
max_pooling2d_211 (MaxPoolin (None, 16, 16, 32)        0         
_________________________________________________________________
flatten_249 (Flatten)        (None, 8192)              0         
_________________________________________________________________
dense_476 (Dense)            (None, 128)               1048704   
_________________________________________________________________
activation_766 (Activation)  (None, 128)               0         
_________________________________________________________________
dropout_766 (Dropout)        (None, 128)               0         
_________________________________________________________________
dense_477 (Dense)            (None, 100)               12900     
=================================================================
Total params: 1,061,759
Trainable params: 1,061,759
Non-trainable params: 0
_________________________________________________________________
