Model: "sequential_496"
_________________________________________________________________
Layer (type)                 Output Shape              Param #   
=================================================================
separable_conv2d_867 (Separa (None, 32, 32, 32)        155       
_________________________________________________________________
activation_1329 (Activation) (None, 32, 32, 32)        0         
_________________________________________________________________
dropout_1329 (Dropout)       (None, 32, 32, 32)        0         
_________________________________________________________________
max_pooling2d_249 (MaxPoolin (None, 16, 16, 32)        0         
_________________________________________________________________
flatten_496 (Flatten)        (None, 8192)              0         
_________________________________________________________________
dense_958 (Dense)            (None, 128)               1048704   
_________________________________________________________________
batch_normalization_236 (Bat (None, 128)               512       
_________________________________________________________________
activation_1330 (Activation) (None, 128)               0         
_________________________________________________________________
dropout_1330 (Dropout)       (None, 128)               0         
_________________________________________________________________
dense_959 (Dense)            (None, 100)               12900     
=================================================================
Total params: 1,062,271
Trainable params: 1,062,015
Non-trainable params: 256
_________________________________________________________________
