Model: "sequential_424"
_________________________________________________________________
Layer (type)                 Output Shape              Param #   
=================================================================
separable_conv2d_747 (Separa (None, 32, 32, 32)        155       
_________________________________________________________________
activation_1143 (Activation) (None, 32, 32, 32)        0         
_________________________________________________________________
dropout_1143 (Dropout)       (None, 32, 32, 32)        0         
_________________________________________________________________
flatten_424 (Flatten)        (None, 32768)             0         
_________________________________________________________________
dense_820 (Dense)            (None, 256)               8388864   
_________________________________________________________________
batch_normalization_201 (Bat (None, 256)               1024      
_________________________________________________________________
activation_1144 (Activation) (None, 256)               0         
_________________________________________________________________
dropout_1144 (Dropout)       (None, 256)               0         
_________________________________________________________________
dense_821 (Dense)            (None, 100)               25700     
=================================================================
Total params: 8,415,743
Trainable params: 8,415,231
Non-trainable params: 512
_________________________________________________________________
