Model: "sequential_129"
_________________________________________________________________
Layer (type)                 Output Shape              Param #   
=================================================================
separable_conv2d_328 (Separa (None, 32, 32, 64)        283       
_________________________________________________________________
batch_normalization_129 (Bat (None, 32, 32, 64)        256       
_________________________________________________________________
activation_441 (Activation)  (None, 32, 32, 64)        0         
_________________________________________________________________
dropout_441 (Dropout)        (None, 32, 32, 64)        0         
_________________________________________________________________
max_pooling2d_113 (MaxPoolin (None, 16, 16, 64)        0         
_________________________________________________________________
separable_conv2d_329 (Separa (None, 16, 16, 256)       17216     
_________________________________________________________________
activation_442 (Activation)  (None, 16, 16, 256)       0         
_________________________________________________________________
dropout_442 (Dropout)        (None, 16, 16, 256)       0         
_________________________________________________________________
flatten_129 (Flatten)        (None, 65536)             0         
_________________________________________________________________
dense_242 (Dense)            (None, 1024)              67109888  
_________________________________________________________________
activation_443 (Activation)  (None, 1024)              0         
_________________________________________________________________
dropout_443 (Dropout)        (None, 1024)              0         
_________________________________________________________________
dense_243 (Dense)            (None, 100)               102500    
=================================================================
Total params: 67,230,143
Trainable params: 67,230,015
Non-trainable params: 128
_________________________________________________________________
