Model: "sequential_135"
_________________________________________________________________
Layer (type)                 Output Shape              Param #   
=================================================================
separable_conv2d_340 (Separa (None, 32, 32, 64)        283       
_________________________________________________________________
batch_normalization_133 (Bat (None, 32, 32, 64)        256       
_________________________________________________________________
activation_459 (Activation)  (None, 32, 32, 64)        0         
_________________________________________________________________
dropout_459 (Dropout)        (None, 32, 32, 64)        0         
_________________________________________________________________
max_pooling2d_119 (MaxPoolin (None, 16, 16, 64)        0         
_________________________________________________________________
flatten_135 (Flatten)        (None, 16384)             0         
_________________________________________________________________
dense_254 (Dense)            (None, 1024)              16778240  
_________________________________________________________________
activation_460 (Activation)  (None, 1024)              0         
_________________________________________________________________
dropout_460 (Dropout)        (None, 1024)              0         
_________________________________________________________________
dense_255 (Dense)            (None, 100)               102500    
=================================================================
Total params: 16,881,279
Trainable params: 16,881,151
Non-trainable params: 128
_________________________________________________________________
