Model: "sequential_408"
_________________________________________________________________
Layer (type)                 Output Shape              Param #   
=================================================================
separable_conv2d_720 (Separa (None, 32, 32, 128)       539       
_________________________________________________________________
activation_1100 (Activation) (None, 32, 32, 128)       0         
_________________________________________________________________
dropout_1100 (Dropout)       (None, 32, 32, 128)       0         
_________________________________________________________________
max_pooling2d_245 (MaxPoolin (None, 16, 16, 128)       0         
_________________________________________________________________
flatten_408 (Flatten)        (None, 32768)             0         
_________________________________________________________________
dense_788 (Dense)            (None, 128)               4194432   
_________________________________________________________________
activation_1101 (Activation) (None, 128)               0         
_________________________________________________________________
dropout_1101 (Dropout)       (None, 128)               0         
_________________________________________________________________
dense_789 (Dense)            (None, 100)               12900     
=================================================================
Total params: 4,207,871
Trainable params: 4,207,871
Non-trainable params: 0
_________________________________________________________________
