Model: "sequential_235"
_________________________________________________________________
Layer (type)                 Output Shape              Param #   
=================================================================
separable_conv2d_521 (Separa (None, 32, 32, 32)        155       
_________________________________________________________________
activation_737 (Activation)  (None, 32, 32, 32)        0         
_________________________________________________________________
dropout_737 (Dropout)        (None, 32, 32, 32)        0         
_________________________________________________________________
max_pooling2d_199 (MaxPoolin (None, 16, 16, 32)        0         
_________________________________________________________________
flatten_235 (Flatten)        (None, 8192)              0         
_________________________________________________________________
dense_451 (Dense)            (None, 1024)              8389632   
_________________________________________________________________
activation_738 (Activation)  (None, 1024)              0         
_________________________________________________________________
dropout_738 (Dropout)        (None, 1024)              0         
_________________________________________________________________
dense_452 (Dense)            (None, 100)               102500    
=================================================================
Total params: 8,492,287
Trainable params: 8,492,287
Non-trainable params: 0
_________________________________________________________________
