Model: "sequential_398"
_________________________________________________________________
Layer (type)                 Output Shape              Param #   
=================================================================
separable_conv2d_704 (Separa (None, 32, 32, 64)        283       
_________________________________________________________________
activation_1074 (Activation) (None, 32, 32, 64)        0         
_________________________________________________________________
dropout_1074 (Dropout)       (None, 32, 32, 64)        0         
_________________________________________________________________
flatten_398 (Flatten)        (None, 65536)             0         
_________________________________________________________________
dense_768 (Dense)            (None, 16)                1048592   
_________________________________________________________________
activation_1075 (Activation) (None, 16)                0         
_________________________________________________________________
dropout_1075 (Dropout)       (None, 16)                0         
_________________________________________________________________
dense_769 (Dense)            (None, 100)               1700      
=================================================================
Total params: 1,050,575
Trainable params: 1,050,575
Non-trainable params: 0
_________________________________________________________________
