Model: "sequential_359"
_________________________________________________________________
Layer (type)                 Output Shape              Param #   
=================================================================
separable_conv2d_652 (Separa (None, 32, 32, 32)        155       
_________________________________________________________________
batch_normalization_182 (Bat (None, 32, 32, 32)        128       
_________________________________________________________________
activation_984 (Activation)  (None, 32, 32, 32)        0         
_________________________________________________________________
dropout_984 (Dropout)        (None, 32, 32, 32)        0         
_________________________________________________________________
flatten_359 (Flatten)        (None, 32768)             0         
_________________________________________________________________
dense_691 (Dense)            (None, 100)               3276900   
=================================================================
Total params: 3,277,183
Trainable params: 3,277,119
Non-trainable params: 64
_________________________________________________________________
