Model: "sequential_289"
_________________________________________________________________
Layer (type)                 Output Shape              Param #   
=================================================================
separable_conv2d_578 (Separa (None, 32, 32, 32)        155       
_________________________________________________________________
batch_normalization_177 (Bat (None, 32, 32, 32)        128       
_________________________________________________________________
activation_841 (Activation)  (None, 32, 32, 32)        0         
_________________________________________________________________
dropout_841 (Dropout)        (None, 32, 32, 32)        0         
_________________________________________________________________
flatten_289 (Flatten)        (None, 32768)             0         
_________________________________________________________________
dense_552 (Dense)            (None, 128)               4194432   
_________________________________________________________________
activation_842 (Activation)  (None, 128)               0         
_________________________________________________________________
dropout_842 (Dropout)        (None, 128)               0         
_________________________________________________________________
dense_553 (Dense)            (None, 100)               12900     
=================================================================
Total params: 4,207,615
Trainable params: 4,207,551
Non-trainable params: 64
_________________________________________________________________
