Model: "sequential_133"
_________________________________________________________________
Layer (type)                 Output Shape              Param #   
=================================================================
separable_conv2d_336 (Separa (None, 32, 32, 64)        283       
_________________________________________________________________
batch_normalization_132 (Bat (None, 32, 32, 64)        256       
_________________________________________________________________
activation_453 (Activation)  (None, 32, 32, 64)        0         
_________________________________________________________________
dropout_453 (Dropout)        (None, 32, 32, 64)        0         
_________________________________________________________________
max_pooling2d_117 (MaxPoolin (None, 16, 16, 64)        0         
_________________________________________________________________
separable_conv2d_337 (Separa (None, 16, 16, 256)       17216     
_________________________________________________________________
activation_454 (Activation)  (None, 16, 16, 256)       0         
_________________________________________________________________
dropout_454 (Dropout)        (None, 16, 16, 256)       0         
_________________________________________________________________
flatten_133 (Flatten)        (None, 65536)             0         
_________________________________________________________________
dense_250 (Dense)            (None, 1024)              67109888  
_________________________________________________________________
activation_455 (Activation)  (None, 1024)              0         
_________________________________________________________________
dropout_455 (Dropout)        (None, 1024)              0         
_________________________________________________________________
dense_251 (Dense)            (None, 100)               102500    
=================================================================
Total params: 67,230,143
Trainable params: 67,230,015
Non-trainable params: 128
_________________________________________________________________
