Model: "sequential_152"
_________________________________________________________________
Layer (type)                 Output Shape              Param #   
=================================================================
separable_conv2d_373 (Separa (None, 32, 32, 64)        283       
_________________________________________________________________
activation_509 (Activation)  (None, 32, 32, 64)        0         
_________________________________________________________________
dropout_509 (Dropout)        (None, 32, 32, 64)        0         
_________________________________________________________________
max_pooling2d_136 (MaxPoolin (None, 16, 16, 64)        0         
_________________________________________________________________
separable_conv2d_374 (Separa (None, 16, 16, 256)       17216     
_________________________________________________________________
activation_510 (Activation)  (None, 16, 16, 256)       0         
_________________________________________________________________
dropout_510 (Dropout)        (None, 16, 16, 256)       0         
_________________________________________________________________
flatten_152 (Flatten)        (None, 65536)             0         
_________________________________________________________________
dense_288 (Dense)            (None, 1024)              67109888  
_________________________________________________________________
activation_511 (Activation)  (None, 1024)              0         
_________________________________________________________________
dropout_511 (Dropout)        (None, 1024)              0         
_________________________________________________________________
dense_289 (Dense)            (None, 100)               102500    
=================================================================
Total params: 67,229,887
Trainable params: 67,229,887
Non-trainable params: 0
_________________________________________________________________
