Model: "sequential"
_________________________________________________________________
Layer (type)                 Output Shape              Param #   
=================================================================
separable_conv2d (SeparableC (None, 32, 32, 16)        91        
_________________________________________________________________
batch_normalization (BatchNo (None, 32, 32, 16)        64        
_________________________________________________________________
activation (Activation)      (None, 32, 32, 16)        0         
_________________________________________________________________
dropout (Dropout)            (None, 32, 32, 16)        0         
_________________________________________________________________
max_pooling2d (MaxPooling2D) (None, 16, 16, 16)        0         
_________________________________________________________________
separable_conv2d_1 (Separabl (None, 16, 16, 512)       8848      
_________________________________________________________________
activation_1 (Activation)    (None, 16, 16, 512)       0         
_________________________________________________________________
dropout_1 (Dropout)          (None, 16, 16, 512)       0         
_________________________________________________________________
separable_conv2d_2 (Separabl (None, 16, 16, 32)        21024     
_________________________________________________________________
activation_2 (Activation)    (None, 16, 16, 32)        0         
_________________________________________________________________
dropout_2 (Dropout)          (None, 16, 16, 32)        0         
_________________________________________________________________
flatten (Flatten)            (None, 8192)              0         
_________________________________________________________________
dense (Dense)                (None, 16)                131088    
_________________________________________________________________
activation_3 (Activation)    (None, 16)                0         
_________________________________________________________________
dropout_3 (Dropout)          (None, 16)                0         
_________________________________________________________________
dense_1 (Dense)              (None, 100)               1700      
=================================================================
Total params: 162,815
Trainable params: 162,783
Non-trainable params: 32
_________________________________________________________________
