Model: "sequential_91"
_________________________________________________________________
Layer (type)                 Output Shape              Param #   
=================================================================
separable_conv2d_234 (Separa (None, 32, 32, 16)        91        
_________________________________________________________________
activation_311 (Activation)  (None, 32, 32, 16)        0         
_________________________________________________________________
dropout_311 (Dropout)        (None, 32, 32, 16)        0         
_________________________________________________________________
max_pooling2d_76 (MaxPooling (None, 16, 16, 16)        0         
_________________________________________________________________
separable_conv2d_235 (Separa (None, 16, 16, 256)       4496      
_________________________________________________________________
activation_312 (Activation)  (None, 16, 16, 256)       0         
_________________________________________________________________
dropout_312 (Dropout)        (None, 16, 16, 256)       0         
_________________________________________________________________
flatten_91 (Flatten)         (None, 65536)             0         
_________________________________________________________________
dense_168 (Dense)            (None, 1024)              67109888  
_________________________________________________________________
activation_313 (Activation)  (None, 1024)              0         
_________________________________________________________________
dropout_313 (Dropout)        (None, 1024)              0         
_________________________________________________________________
dense_169 (Dense)            (None, 100)               102500    
=================================================================
Total params: 67,216,975
Trainable params: 67,216,975
Non-trainable params: 0
_________________________________________________________________
