Model: "sequential_40"
_________________________________________________________________
Layer (type)                 Output Shape              Param #   
=================================================================
separable_conv2d_84 (Separab (None, 32, 32, 32)        155       
_________________________________________________________________
batch_normalization_41 (Batc (None, 32, 32, 32)        128       
_________________________________________________________________
activation_110 (Activation)  (None, 32, 32, 32)        0         
_________________________________________________________________
dropout_110 (Dropout)        (None, 32, 32, 32)        0         
_________________________________________________________________
max_pooling2d_31 (MaxPooling (None, 16, 16, 32)        0         
_________________________________________________________________
separable_conv2d_85 (Separab (None, 16, 16, 256)       8736      
_________________________________________________________________
activation_111 (Activation)  (None, 16, 16, 256)       0         
_________________________________________________________________
dropout_111 (Dropout)        (None, 16, 16, 256)       0         
_________________________________________________________________
separable_conv2d_86 (Separab (None, 16, 16, 128)       35200     
_________________________________________________________________
activation_112 (Activation)  (None, 16, 16, 128)       0         
_________________________________________________________________
dropout_112 (Dropout)        (None, 16, 16, 128)       0         
_________________________________________________________________
flatten_40 (Flatten)         (None, 32768)             0         
_________________________________________________________________
dense_66 (Dense)             (None, 256)               8388864   
_________________________________________________________________
activation_113 (Activation)  (None, 256)               0         
_________________________________________________________________
dropout_113 (Dropout)        (None, 256)               0         
_________________________________________________________________
dense_67 (Dense)             (None, 100)               25700     
=================================================================
Total params: 8,458,783
Trainable params: 8,458,719
Non-trainable params: 64
_________________________________________________________________
