Model: "sequential_128"
_________________________________________________________________
Layer (type)                 Output Shape              Param #   
=================================================================
separable_conv2d_326 (Separa (None, 32, 32, 16)        91        
_________________________________________________________________
batch_normalization_128 (Bat (None, 32, 32, 16)        64        
_________________________________________________________________
activation_438 (Activation)  (None, 32, 32, 16)        0         
_________________________________________________________________
dropout_438 (Dropout)        (None, 32, 32, 16)        0         
_________________________________________________________________
max_pooling2d_112 (MaxPoolin (None, 16, 16, 16)        0         
_________________________________________________________________
separable_conv2d_327 (Separa (None, 16, 16, 16)        416       
_________________________________________________________________
activation_439 (Activation)  (None, 16, 16, 16)        0         
_________________________________________________________________
dropout_439 (Dropout)        (None, 16, 16, 16)        0         
_________________________________________________________________
flatten_128 (Flatten)        (None, 4096)              0         
_________________________________________________________________
dense_240 (Dense)            (None, 1024)              4195328   
_________________________________________________________________
activation_440 (Activation)  (None, 1024)              0         
_________________________________________________________________
dropout_440 (Dropout)        (None, 1024)              0         
_________________________________________________________________
dense_241 (Dense)            (None, 100)               102500    
=================================================================
Total params: 4,298,399
Trainable params: 4,298,367
Non-trainable params: 32
_________________________________________________________________
