Model: "sequential_31"
_________________________________________________________________
Layer (type)                 Output Shape              Param #   
=================================================================
separable_conv2d_62 (Separab (None, 32, 32, 8)         59        
_________________________________________________________________
batch_normalization_31 (Batc (None, 32, 32, 8)         32        
_________________________________________________________________
activation_81 (Activation)   (None, 32, 32, 8)         0         
_________________________________________________________________
dropout_81 (Dropout)         (None, 32, 32, 8)         0         
_________________________________________________________________
max_pooling2d_23 (MaxPooling (None, 16, 16, 8)         0         
_________________________________________________________________
separable_conv2d_63 (Separab (None, 16, 16, 64)        648       
_________________________________________________________________
activation_82 (Activation)   (None, 16, 16, 64)        0         
_________________________________________________________________
dropout_82 (Dropout)         (None, 16, 16, 64)        0         
_________________________________________________________________
flatten_31 (Flatten)         (None, 16384)             0         
_________________________________________________________________
dense_50 (Dense)             (None, 256)               4194560   
_________________________________________________________________
batch_normalization_32 (Batc (None, 256)               1024      
_________________________________________________________________
activation_83 (Activation)   (None, 256)               0         
_________________________________________________________________
dropout_83 (Dropout)         (None, 256)               0         
_________________________________________________________________
dense_51 (Dense)             (None, 100)               25700     
=================================================================
Total params: 4,222,023
Trainable params: 4,221,495
Non-trainable params: 528
_________________________________________________________________
