Model: "sequential_414"
_________________________________________________________________
Layer (type)                 Output Shape              Param #   
=================================================================
separable_conv2d_729 (Separa (None, 32, 32, 128)       539       
_________________________________________________________________
batch_normalization_198 (Bat (None, 32, 32, 128)       512       
_________________________________________________________________
activation_1115 (Activation) (None, 32, 32, 128)       0         
_________________________________________________________________
dropout_1115 (Dropout)       (None, 32, 32, 128)       0         
_________________________________________________________________
flatten_414 (Flatten)        (None, 131072)            0         
_________________________________________________________________
dense_800 (Dense)            (None, 128)               16777344  
_________________________________________________________________
activation_1116 (Activation) (None, 128)               0         
_________________________________________________________________
dropout_1116 (Dropout)       (None, 128)               0         
_________________________________________________________________
dense_801 (Dense)            (None, 100)               12900     
=================================================================
Total params: 16,791,295
Trainable params: 16,791,039
Non-trainable params: 256
_________________________________________________________________
