Model: "sequential_53"
_________________________________________________________________
Layer (type)                 Output Shape              Param #   
=================================================================
separable_conv2d_122 (Separa (None, 32, 32, 32)        155       
_________________________________________________________________
batch_normalization_54 (Batc (None, 32, 32, 32)        128       
_________________________________________________________________
activation_161 (Activation)  (None, 32, 32, 32)        0         
_________________________________________________________________
dropout_161 (Dropout)        (None, 32, 32, 32)        0         
_________________________________________________________________
max_pooling2d_41 (MaxPooling (None, 16, 16, 32)        0         
_________________________________________________________________
separable_conv2d_123 (Separa (None, 16, 16, 256)       8736      
_________________________________________________________________
activation_162 (Activation)  (None, 16, 16, 256)       0         
_________________________________________________________________
dropout_162 (Dropout)        (None, 16, 16, 256)       0         
_________________________________________________________________
separable_conv2d_124 (Separa (None, 16, 16, 128)       35200     
_________________________________________________________________
activation_163 (Activation)  (None, 16, 16, 128)       0         
_________________________________________________________________
dropout_163 (Dropout)        (None, 16, 16, 128)       0         
_________________________________________________________________
flatten_53 (Flatten)         (None, 32768)             0         
_________________________________________________________________
dense_92 (Dense)             (None, 256)               8388864   
_________________________________________________________________
activation_164 (Activation)  (None, 256)               0         
_________________________________________________________________
dropout_164 (Dropout)        (None, 256)               0         
_________________________________________________________________
dense_93 (Dense)             (None, 100)               25700     
=================================================================
Total params: 8,458,783
Trainable params: 8,458,719
Non-trainable params: 64
_________________________________________________________________
