Model: "sequential_178"
_________________________________________________________________
Layer (type)                 Output Shape              Param #   
=================================================================
separable_conv2d_425 (Separa (None, 32, 32, 64)        283       
_________________________________________________________________
batch_normalization_152 (Bat (None, 32, 32, 64)        256       
_________________________________________________________________
activation_587 (Activation)  (None, 32, 32, 64)        0         
_________________________________________________________________
dropout_587 (Dropout)        (None, 32, 32, 64)        0         
_________________________________________________________________
max_pooling2d_160 (MaxPoolin (None, 16, 16, 64)        0         
_________________________________________________________________
separable_conv2d_426 (Separa (None, 16, 16, 16)        1616      
_________________________________________________________________
batch_normalization_153 (Bat (None, 16, 16, 16)        64        
_________________________________________________________________
activation_588 (Activation)  (None, 16, 16, 16)        0         
_________________________________________________________________
dropout_588 (Dropout)        (None, 16, 16, 16)        0         
_________________________________________________________________
flatten_178 (Flatten)        (None, 4096)              0         
_________________________________________________________________
dense_340 (Dense)            (None, 1024)              4195328   
_________________________________________________________________
activation_589 (Activation)  (None, 1024)              0         
_________________________________________________________________
dropout_589 (Dropout)        (None, 1024)              0         
_________________________________________________________________
dense_341 (Dense)            (None, 100)               102500    
=================================================================
Total params: 4,300,047
Trainable params: 4,299,887
Non-trainable params: 160
_________________________________________________________________
