Model: "sequential_149"
_________________________________________________________________
Layer (type)                 Output Shape              Param #   
=================================================================
separable_conv2d_367 (Separa (None, 32, 32, 64)        283       
_________________________________________________________________
batch_normalization_137 (Bat (None, 32, 32, 64)        256       
_________________________________________________________________
activation_500 (Activation)  (None, 32, 32, 64)        0         
_________________________________________________________________
dropout_500 (Dropout)        (None, 32, 32, 64)        0         
_________________________________________________________________
max_pooling2d_133 (MaxPoolin (None, 16, 16, 64)        0         
_________________________________________________________________
separable_conv2d_368 (Separa (None, 16, 16, 256)       17216     
_________________________________________________________________
activation_501 (Activation)  (None, 16, 16, 256)       0         
_________________________________________________________________
dropout_501 (Dropout)        (None, 16, 16, 256)       0         
_________________________________________________________________
flatten_149 (Flatten)        (None, 65536)             0         
_________________________________________________________________
dense_282 (Dense)            (None, 1024)              67109888  
_________________________________________________________________
activation_502 (Activation)  (None, 1024)              0         
_________________________________________________________________
dropout_502 (Dropout)        (None, 1024)              0         
_________________________________________________________________
dense_283 (Dense)            (None, 100)               102500    
=================================================================
Total params: 67,230,143
Trainable params: 67,230,015
Non-trainable params: 128
_________________________________________________________________
