Model: "sequential_105"
_________________________________________________________________
Layer (type)                 Output Shape              Param #   
=================================================================
separable_conv2d_271 (Separa (None, 32, 32, 16)        91        
_________________________________________________________________
activation_361 (Activation)  (None, 32, 32, 16)        0         
_________________________________________________________________
dropout_361 (Dropout)        (None, 32, 32, 16)        0         
_________________________________________________________________
max_pooling2d_90 (MaxPooling (None, 16, 16, 16)        0         
_________________________________________________________________
separable_conv2d_272 (Separa (None, 16, 16, 256)       4496      
_________________________________________________________________
activation_362 (Activation)  (None, 16, 16, 256)       0         
_________________________________________________________________
dropout_362 (Dropout)        (None, 16, 16, 256)       0         
_________________________________________________________________
flatten_105 (Flatten)        (None, 65536)             0         
_________________________________________________________________
dense_195 (Dense)            (None, 1024)              67109888  
_________________________________________________________________
activation_363 (Activation)  (None, 1024)              0         
_________________________________________________________________
dropout_363 (Dropout)        (None, 1024)              0         
_________________________________________________________________
dense_196 (Dense)            (None, 100)               102500    
=================================================================
Total params: 67,216,975
Trainable params: 67,216,975
Non-trainable params: 0
_________________________________________________________________
