Model: "sequential_363"
_________________________________________________________________
Layer (type)                 Output Shape              Param #   
=================================================================
separable_conv2d_658 (Separa (None, 32, 32, 256)       1051      
_________________________________________________________________
activation_993 (Activation)  (None, 32, 32, 256)       0         
_________________________________________________________________
dropout_993 (Dropout)        (None, 32, 32, 256)       0         
_________________________________________________________________
flatten_363 (Flatten)        (None, 262144)            0         
_________________________________________________________________
dense_698 (Dense)            (None, 64)                16777280  
_________________________________________________________________
batch_normalization_183 (Bat (None, 64)                256       
_________________________________________________________________
activation_994 (Activation)  (None, 64)                0         
_________________________________________________________________
dropout_994 (Dropout)        (None, 64)                0         
_________________________________________________________________
dense_699 (Dense)            (None, 100)               6500      
=================================================================
Total params: 16,785,087
Trainable params: 16,784,959
Non-trainable params: 128
_________________________________________________________________
