Model: "sequential_452"
_________________________________________________________________
Layer (type)                 Output Shape              Param #   
=================================================================
separable_conv2d_791 (Separa (None, 32, 32, 32)        155       
_________________________________________________________________
activation_1215 (Activation) (None, 32, 32, 32)        0         
_________________________________________________________________
dropout_1215 (Dropout)       (None, 32, 32, 32)        0         
_________________________________________________________________
flatten_452 (Flatten)        (None, 32768)             0         
_________________________________________________________________
dense_876 (Dense)            (None, 128)               4194432   
_________________________________________________________________
activation_1216 (Activation) (None, 128)               0         
_________________________________________________________________
dropout_1216 (Dropout)       (None, 128)               0         
_________________________________________________________________
dense_877 (Dense)            (None, 100)               12900     
=================================================================
Total params: 4,207,487
Trainable params: 4,207,487
Non-trainable params: 0
_________________________________________________________________
