Model: "sequential_22"
_________________________________________________________________
Layer (type)                 Output Shape              Param #   
=================================================================
separable_conv2d_45 (Separab (None, 32, 32, 16)        91        
_________________________________________________________________
activation_60 (Activation)   (None, 32, 32, 16)        0         
_________________________________________________________________
dropout_60 (Dropout)         (None, 32, 32, 16)        0         
_________________________________________________________________
separable_conv2d_46 (Separab (None, 32, 32, 128)       2320      
_________________________________________________________________
activation_61 (Activation)   (None, 32, 32, 128)       0         
_________________________________________________________________
dropout_61 (Dropout)         (None, 32, 32, 128)       0         
_________________________________________________________________
flatten_22 (Flatten)         (None, 131072)            0         
_________________________________________________________________
dense_37 (Dense)             (None, 256)               33554688  
_________________________________________________________________
activation_62 (Activation)   (None, 256)               0         
_________________________________________________________________
dropout_62 (Dropout)         (None, 256)               0         
_________________________________________________________________
dense_38 (Dense)             (None, 100)               25700     
=================================================================
Total params: 33,582,799
Trainable params: 33,582,799
Non-trainable params: 0
_________________________________________________________________
