Model: "sequential_122"
_________________________________________________________________
Layer (type)                 Output Shape              Param #   
=================================================================
separable_conv2d_313 (Separa (None, 32, 32, 16)        91        
_________________________________________________________________
activation_419 (Activation)  (None, 32, 32, 16)        0         
_________________________________________________________________
dropout_419 (Dropout)        (None, 32, 32, 16)        0         
_________________________________________________________________
max_pooling2d_106 (MaxPoolin (None, 16, 16, 16)        0         
_________________________________________________________________
separable_conv2d_314 (Separa (None, 16, 16, 256)       4496      
_________________________________________________________________
activation_420 (Activation)  (None, 16, 16, 256)       0         
_________________________________________________________________
dropout_420 (Dropout)        (None, 16, 16, 256)       0         
_________________________________________________________________
flatten_122 (Flatten)        (None, 65536)             0         
_________________________________________________________________
dense_228 (Dense)            (None, 1024)              67109888  
_________________________________________________________________
activation_421 (Activation)  (None, 1024)              0         
_________________________________________________________________
dropout_421 (Dropout)        (None, 1024)              0         
_________________________________________________________________
dense_229 (Dense)            (None, 100)               102500    
=================================================================
Total params: 67,216,975
Trainable params: 67,216,975
Non-trainable params: 0
_________________________________________________________________
