Model: "sequential_187"
_________________________________________________________________
Layer (type)                 Output Shape              Param #   
=================================================================
separable_conv2d_443 (Separa (None, 32, 32, 16)        91        
_________________________________________________________________
activation_613 (Activation)  (None, 32, 32, 16)        0         
_________________________________________________________________
dropout_613 (Dropout)        (None, 32, 32, 16)        0         
_________________________________________________________________
max_pooling2d_168 (MaxPoolin (None, 16, 16, 16)        0         
_________________________________________________________________
flatten_187 (Flatten)        (None, 4096)              0         
_________________________________________________________________
dense_357 (Dense)            (None, 1024)              4195328   
_________________________________________________________________
activation_614 (Activation)  (None, 1024)              0         
_________________________________________________________________
dropout_614 (Dropout)        (None, 1024)              0         
_________________________________________________________________
dense_358 (Dense)            (None, 100)               102500    
=================================================================
Total params: 4,297,919
Trainable params: 4,297,919
Non-trainable params: 0
_________________________________________________________________
