Model: "sequential_477"
_________________________________________________________________
Layer (type)                 Output Shape              Param #   
=================================================================
separable_conv2d_834 (Separa (None, 32, 32, 32)        155       
_________________________________________________________________
activation_1281 (Activation) (None, 32, 32, 32)        0         
_________________________________________________________________
dropout_1281 (Dropout)       (None, 32, 32, 32)        0         
_________________________________________________________________
flatten_477 (Flatten)        (None, 32768)             0         
_________________________________________________________________
dense_924 (Dense)            (None, 128)               4194432   
_________________________________________________________________
batch_normalization_227 (Bat (None, 128)               512       
_________________________________________________________________
activation_1282 (Activation) (None, 128)               0         
_________________________________________________________________
dropout_1282 (Dropout)       (None, 128)               0         
_________________________________________________________________
dense_925 (Dense)            (None, 100)               12900     
=================================================================
Total params: 4,207,999
Trainable params: 4,207,743
Non-trainable params: 256
_________________________________________________________________
