Model: "sequential_14"
_________________________________________________________________
Layer (type)                 Output Shape              Param #   
=================================================================
separable_conv2d_29 (Separab (None, 32, 32, 16)        91        
_________________________________________________________________
activation_37 (Activation)   (None, 32, 32, 16)        0         
_________________________________________________________________
dropout_37 (Dropout)         (None, 32, 32, 16)        0         
_________________________________________________________________
separable_conv2d_30 (Separab (None, 32, 32, 128)       2320      
_________________________________________________________________
activation_38 (Activation)   (None, 32, 32, 128)       0         
_________________________________________________________________
dropout_38 (Dropout)         (None, 32, 32, 128)       0         
_________________________________________________________________
flatten_14 (Flatten)         (None, 131072)            0         
_________________________________________________________________
dense_22 (Dense)             (None, 256)               33554688  
_________________________________________________________________
activation_39 (Activation)   (None, 256)               0         
_________________________________________________________________
dropout_39 (Dropout)         (None, 256)               0         
_________________________________________________________________
dense_23 (Dense)             (None, 100)               25700     
=================================================================
Total params: 33,582,799
Trainable params: 33,582,799
Non-trainable params: 0
_________________________________________________________________
