Model: "sequential_406"
_________________________________________________________________
Layer (type)                 Output Shape              Param #   
=================================================================
separable_conv2d_717 (Separa (None, 32, 32, 256)       1051      
_________________________________________________________________
activation_1095 (Activation) (None, 32, 32, 256)       0         
_________________________________________________________________
dropout_1095 (Dropout)       (None, 32, 32, 256)       0         
_________________________________________________________________
separable_conv2d_718 (Separa (None, 32, 32, 128)       35200     
_________________________________________________________________
activation_1096 (Activation) (None, 32, 32, 128)       0         
_________________________________________________________________
dropout_1096 (Dropout)       (None, 32, 32, 128)       0         
_________________________________________________________________
flatten_406 (Flatten)        (None, 131072)            0         
_________________________________________________________________
dense_784 (Dense)            (None, 1024)              134218752 
_________________________________________________________________
activation_1097 (Activation) (None, 1024)              0         
_________________________________________________________________
dropout_1097 (Dropout)       (None, 1024)              0         
_________________________________________________________________
dense_785 (Dense)            (None, 100)               102500    
=================================================================
Total params: 134,357,503
Trainable params: 134,357,503
Non-trainable params: 0
_________________________________________________________________
