Model: "sequential_10"
_________________________________________________________________
Layer (type)                 Output Shape              Param #   
=================================================================
separable_conv2d_22 (Separab (None, 32, 32, 64)        283       
_________________________________________________________________
batch_normalization_13 (Batc (None, 32, 32, 64)        256       
_________________________________________________________________
activation_29 (Activation)   (None, 32, 32, 64)        0         
_________________________________________________________________
dropout_29 (Dropout)         (None, 32, 32, 64)        0         
_________________________________________________________________
max_pooling2d_9 (MaxPooling2 (None, 16, 16, 64)        0         
_________________________________________________________________
separable_conv2d_23 (Separab (None, 16, 16, 8)         1096      
_________________________________________________________________
activation_30 (Activation)   (None, 16, 16, 8)         0         
_________________________________________________________________
dropout_30 (Dropout)         (None, 16, 16, 8)         0         
_________________________________________________________________
flatten_10 (Flatten)         (None, 2048)              0         
_________________________________________________________________
dense_17 (Dense)             (None, 100)               204900    
=================================================================
Total params: 206,535
Trainable params: 206,407
Non-trainable params: 128
_________________________________________________________________
