Model: "sequential_157"
_________________________________________________________________
Layer (type)                 Output Shape              Param #   
=================================================================
separable_conv2d_383 (Separa (None, 32, 32, 64)        283       
_________________________________________________________________
batch_normalization_140 (Bat (None, 32, 32, 64)        256       
_________________________________________________________________
activation_524 (Activation)  (None, 32, 32, 64)        0         
_________________________________________________________________
dropout_524 (Dropout)        (None, 32, 32, 64)        0         
_________________________________________________________________
separable_conv2d_384 (Separa (None, 32, 32, 256)       17216     
_________________________________________________________________
activation_525 (Activation)  (None, 32, 32, 256)       0         
_________________________________________________________________
dropout_525 (Dropout)        (None, 32, 32, 256)       0         
_________________________________________________________________
flatten_157 (Flatten)        (None, 262144)            0         
_________________________________________________________________
dense_298 (Dense)            (None, 1024)              268436480 
_________________________________________________________________
activation_526 (Activation)  (None, 1024)              0         
_________________________________________________________________
dropout_526 (Dropout)        (None, 1024)              0         
_________________________________________________________________
dense_299 (Dense)            (None, 100)               102500    
=================================================================
Total params: 268,556,735
Trainable params: 268,556,607
Non-trainable params: 128
_________________________________________________________________
