Model: "sequential_155"
_________________________________________________________________
Layer (type)                 Output Shape              Param #   
=================================================================
separable_conv2d_379 (Separa (None, 32, 32, 16)        91        
_________________________________________________________________
activation_518 (Activation)  (None, 32, 32, 16)        0         
_________________________________________________________________
dropout_518 (Dropout)        (None, 32, 32, 16)        0         
_________________________________________________________________
max_pooling2d_139 (MaxPoolin (None, 16, 16, 16)        0         
_________________________________________________________________
separable_conv2d_380 (Separa (None, 16, 16, 256)       4496      
_________________________________________________________________
activation_519 (Activation)  (None, 16, 16, 256)       0         
_________________________________________________________________
dropout_519 (Dropout)        (None, 16, 16, 256)       0         
_________________________________________________________________
flatten_155 (Flatten)        (None, 65536)             0         
_________________________________________________________________
dense_294 (Dense)            (None, 1024)              67109888  
_________________________________________________________________
activation_520 (Activation)  (None, 1024)              0         
_________________________________________________________________
dropout_520 (Dropout)        (None, 1024)              0         
_________________________________________________________________
dense_295 (Dense)            (None, 100)               102500    
=================================================================
Total params: 67,216,975
Trainable params: 67,216,975
Non-trainable params: 0
_________________________________________________________________
