Model: "sequential_183"
_________________________________________________________________
Layer (type)                 Output Shape              Param #   
=================================================================
separable_conv2d_435 (Separa (None, 32, 32, 16)        91        
_________________________________________________________________
activation_602 (Activation)  (None, 32, 32, 16)        0         
_________________________________________________________________
dropout_602 (Dropout)        (None, 32, 32, 16)        0         
_________________________________________________________________
max_pooling2d_165 (MaxPoolin (None, 16, 16, 16)        0         
_________________________________________________________________
separable_conv2d_436 (Separa (None, 16, 16, 256)       4496      
_________________________________________________________________
activation_603 (Activation)  (None, 16, 16, 256)       0         
_________________________________________________________________
dropout_603 (Dropout)        (None, 16, 16, 256)       0         
_________________________________________________________________
flatten_183 (Flatten)        (None, 65536)             0         
_________________________________________________________________
dense_350 (Dense)            (None, 1024)              67109888  
_________________________________________________________________
activation_604 (Activation)  (None, 1024)              0         
_________________________________________________________________
dropout_604 (Dropout)        (None, 1024)              0         
_________________________________________________________________
dense_351 (Dense)            (None, 100)               102500    
=================================================================
Total params: 67,216,975
Trainable params: 67,216,975
Non-trainable params: 0
_________________________________________________________________
