Model: "sequential_11"
_________________________________________________________________
Layer (type)                 Output Shape              Param #   
=================================================================
separable_conv2d_24 (Separab (None, 32, 32, 256)       1051      
_________________________________________________________________
activation_31 (Activation)   (None, 32, 32, 256)       0         
_________________________________________________________________
dropout_31 (Dropout)         (None, 32, 32, 256)       0         
_________________________________________________________________
separable_conv2d_25 (Separab (None, 32, 32, 64)        18752     
_________________________________________________________________
activation_32 (Activation)   (None, 32, 32, 64)        0         
_________________________________________________________________
dropout_32 (Dropout)         (None, 32, 32, 64)        0         
_________________________________________________________________
max_pooling2d_10 (MaxPooling (None, 16, 16, 64)        0         
_________________________________________________________________
flatten_11 (Flatten)         (None, 16384)             0         
_________________________________________________________________
dense_18 (Dense)             (None, 64)                1048640   
_________________________________________________________________
activation_33 (Activation)   (None, 64)                0         
_________________________________________________________________
dropout_33 (Dropout)         (None, 64)                0         
_________________________________________________________________
dense_19 (Dense)             (None, 100)               6500      
=================================================================
Total params: 1,074,943
Trainable params: 1,074,943
Non-trainable params: 0
_________________________________________________________________
