Model: "sequential_101"
_________________________________________________________________
Layer (type)                 Output Shape              Param #   
=================================================================
separable_conv2d_260 (Separa (None, 32, 32, 16)        91        
_________________________________________________________________
batch_normalization_104 (Bat (None, 32, 32, 16)        64        
_________________________________________________________________
activation_347 (Activation)  (None, 32, 32, 16)        0         
_________________________________________________________________
dropout_347 (Dropout)        (None, 32, 32, 16)        0         
_________________________________________________________________
max_pooling2d_86 (MaxPooling (None, 16, 16, 16)        0         
_________________________________________________________________
separable_conv2d_261 (Separa (None, 16, 16, 256)       4496      
_________________________________________________________________
activation_348 (Activation)  (None, 16, 16, 256)       0         
_________________________________________________________________
dropout_348 (Dropout)        (None, 16, 16, 256)       0         
_________________________________________________________________
separable_conv2d_262 (Separa (None, 16, 16, 32)        10528     
_________________________________________________________________
activation_349 (Activation)  (None, 16, 16, 32)        0         
_________________________________________________________________
dropout_349 (Dropout)        (None, 16, 16, 32)        0         
_________________________________________________________________
flatten_101 (Flatten)        (None, 8192)              0         
_________________________________________________________________
dense_188 (Dense)            (None, 256)               2097408   
_________________________________________________________________
activation_350 (Activation)  (None, 256)               0         
_________________________________________________________________
dropout_350 (Dropout)        (None, 256)               0         
_________________________________________________________________
dense_189 (Dense)            (None, 100)               25700     
=================================================================
Total params: 2,138,287
Trainable params: 2,138,255
Non-trainable params: 32
_________________________________________________________________
