Model: "sequential_266"
_________________________________________________________________
Layer (type)                 Output Shape              Param #   
=================================================================
separable_conv2d_555 (Separa (None, 32, 32, 32)        155       
_________________________________________________________________
activation_797 (Activation)  (None, 32, 32, 32)        0         
_________________________________________________________________
dropout_797 (Dropout)        (None, 32, 32, 32)        0         
_________________________________________________________________
flatten_266 (Flatten)        (None, 32768)             0         
_________________________________________________________________
dense_508 (Dense)            (None, 1024)              33555456  
_________________________________________________________________
activation_798 (Activation)  (None, 1024)              0         
_________________________________________________________________
dropout_798 (Dropout)        (None, 1024)              0         
_________________________________________________________________
dense_509 (Dense)            (None, 100)               102500    
=================================================================
Total params: 33,658,111
Trainable params: 33,658,111
Non-trainable params: 0
_________________________________________________________________
