Model: "sequential_290"
_________________________________________________________________
Layer (type)                 Output Shape              Param #   
=================================================================
separable_conv2d_579 (Separa (None, 32, 32, 32)        155       
_________________________________________________________________
activation_843 (Activation)  (None, 32, 32, 32)        0         
_________________________________________________________________
dropout_843 (Dropout)        (None, 32, 32, 32)        0         
_________________________________________________________________
flatten_290 (Flatten)        (None, 32768)             0         
_________________________________________________________________
dense_554 (Dense)            (None, 1024)              33555456  
_________________________________________________________________
batch_normalization_178 (Bat (None, 1024)              4096      
_________________________________________________________________
activation_844 (Activation)  (None, 1024)              0         
_________________________________________________________________
dropout_844 (Dropout)        (None, 1024)              0         
_________________________________________________________________
dense_555 (Dense)            (None, 100)               102500    
=================================================================
Total params: 33,662,207
Trainable params: 33,660,159
Non-trainable params: 2,048
_________________________________________________________________
