Model: "sequential_184"
_________________________________________________________________
Layer (type)                 Output Shape              Param #   
=================================================================
separable_conv2d_437 (Separa (None, 32, 32, 128)       539       
_________________________________________________________________
batch_normalization_155 (Bat (None, 32, 32, 128)       512       
_________________________________________________________________
activation_605 (Activation)  (None, 32, 32, 128)       0         
_________________________________________________________________
dropout_605 (Dropout)        (None, 32, 32, 128)       0         
_________________________________________________________________
separable_conv2d_438 (Separa (None, 32, 32, 256)       34176     
_________________________________________________________________
activation_606 (Activation)  (None, 32, 32, 256)       0         
_________________________________________________________________
dropout_606 (Dropout)        (None, 32, 32, 256)       0         
_________________________________________________________________
flatten_184 (Flatten)        (None, 262144)            0         
_________________________________________________________________
dense_352 (Dense)            (None, 100)               26214500  
=================================================================
Total params: 26,249,727
Trainable params: 26,249,471
Non-trainable params: 256
_________________________________________________________________
