Model: "sequential_365"
_________________________________________________________________
Layer (type)                 Output Shape              Param #   
=================================================================
separable_conv2d_660 (Separa (None, 32, 32, 128)       539       
_________________________________________________________________
activation_997 (Activation)  (None, 32, 32, 128)       0         
_________________________________________________________________
dropout_997 (Dropout)        (None, 32, 32, 128)       0         
_________________________________________________________________
flatten_365 (Flatten)        (None, 131072)            0         
_________________________________________________________________
dense_702 (Dense)            (None, 128)               16777344  
_________________________________________________________________
activation_998 (Activation)  (None, 128)               0         
_________________________________________________________________
dropout_998 (Dropout)        (None, 128)               0         
_________________________________________________________________
dense_703 (Dense)            (None, 100)               12900     
=================================================================
Total params: 16,790,783
Trainable params: 16,790,783
Non-trainable params: 0
_________________________________________________________________
