Model: "sequential_466"
_________________________________________________________________
Layer (type)                 Output Shape              Param #   
=================================================================
separable_conv2d_816 (Separa (None, 32, 32, 32)        155       
_________________________________________________________________
activation_1253 (Activation) (None, 32, 32, 32)        0         
_________________________________________________________________
dropout_1253 (Dropout)       (None, 32, 32, 32)        0         
_________________________________________________________________
separable_conv2d_817 (Separa (None, 32, 32, 16)        816       
_________________________________________________________________
activation_1254 (Activation) (None, 32, 32, 16)        0         
_________________________________________________________________
dropout_1254 (Dropout)       (None, 32, 32, 16)        0         
_________________________________________________________________
flatten_466 (Flatten)        (None, 16384)             0         
_________________________________________________________________
dense_903 (Dense)            (None, 1024)              16778240  
_________________________________________________________________
activation_1255 (Activation) (None, 1024)              0         
_________________________________________________________________
dropout_1255 (Dropout)       (None, 1024)              0         
_________________________________________________________________
dense_904 (Dense)            (None, 100)               102500    
=================================================================
Total params: 16,881,711
Trainable params: 16,881,711
Non-trainable params: 0
_________________________________________________________________
