Model: "sequential_109"
_________________________________________________________________
Layer (type)                 Output Shape              Param #   
=================================================================
separable_conv2d_281 (Separa (None, 32, 32, 64)        283       
_________________________________________________________________
batch_normalization_112 (Bat (None, 32, 32, 64)        256       
_________________________________________________________________
activation_375 (Activation)  (None, 32, 32, 64)        0         
_________________________________________________________________
dropout_375 (Dropout)        (None, 32, 32, 64)        0         
_________________________________________________________________
max_pooling2d_94 (MaxPooling (None, 16, 16, 64)        0         
_________________________________________________________________
separable_conv2d_282 (Separa (None, 16, 16, 64)        4736      
_________________________________________________________________
activation_376 (Activation)  (None, 16, 16, 64)        0         
_________________________________________________________________
dropout_376 (Dropout)        (None, 16, 16, 64)        0         
_________________________________________________________________
flatten_109 (Flatten)        (None, 16384)             0         
_________________________________________________________________
dense_203 (Dense)            (None, 256)               4194560   
_________________________________________________________________
activation_377 (Activation)  (None, 256)               0         
_________________________________________________________________
dropout_377 (Dropout)        (None, 256)               0         
_________________________________________________________________
dense_204 (Dense)            (None, 100)               25700     
=================================================================
Total params: 4,225,535
Trainable params: 4,225,407
Non-trainable params: 128
_________________________________________________________________
