Model: "sequential_461"
_________________________________________________________________
Layer (type)                 Output Shape              Param #   
=================================================================
separable_conv2d_808 (Separa (None, 32, 32, 32)        155       
_________________________________________________________________
activation_1241 (Activation) (None, 32, 32, 32)        0         
_________________________________________________________________
dropout_1241 (Dropout)       (None, 32, 32, 32)        0         
_________________________________________________________________
flatten_461 (Flatten)        (None, 32768)             0         
_________________________________________________________________
dense_894 (Dense)            (None, 128)               4194432   
_________________________________________________________________
batch_normalization_216 (Bat (None, 128)               512       
_________________________________________________________________
activation_1242 (Activation) (None, 128)               0         
_________________________________________________________________
dropout_1242 (Dropout)       (None, 128)               0         
_________________________________________________________________
dense_895 (Dense)            (None, 100)               12900     
=================================================================
Total params: 4,207,999
Trainable params: 4,207,743
Non-trainable params: 256
_________________________________________________________________
