Model: "sequential_420"
_________________________________________________________________
Layer (type)                 Output Shape              Param #   
=================================================================
separable_conv2d_739 (Separa (None, 32, 32, 256)       1051      
_________________________________________________________________
activation_1131 (Activation) (None, 32, 32, 256)       0         
_________________________________________________________________
dropout_1131 (Dropout)       (None, 32, 32, 256)       0         
_________________________________________________________________
separable_conv2d_740 (Separa (None, 32, 32, 128)       35200     
_________________________________________________________________
activation_1132 (Activation) (None, 32, 32, 128)       0         
_________________________________________________________________
dropout_1132 (Dropout)       (None, 32, 32, 128)       0         
_________________________________________________________________
flatten_420 (Flatten)        (None, 131072)            0         
_________________________________________________________________
dense_812 (Dense)            (None, 128)               16777344  
_________________________________________________________________
activation_1133 (Activation) (None, 128)               0         
_________________________________________________________________
dropout_1133 (Dropout)       (None, 128)               0         
_________________________________________________________________
dense_813 (Dense)            (None, 100)               12900     
=================================================================
Total params: 16,826,495
Trainable params: 16,826,495
Non-trainable params: 0
_________________________________________________________________
