Model: "sequential_217"
_________________________________________________________________
Layer (type)                 Output Shape              Param #   
=================================================================
separable_conv2d_497 (Separa (None, 32, 32, 16)        91        
_________________________________________________________________
activation_696 (Activation)  (None, 32, 32, 16)        0         
_________________________________________________________________
dropout_696 (Dropout)        (None, 32, 32, 16)        0         
_________________________________________________________________
separable_conv2d_498 (Separa (None, 32, 32, 64)        1232      
_________________________________________________________________
activation_697 (Activation)  (None, 32, 32, 64)        0         
_________________________________________________________________
dropout_697 (Dropout)        (None, 32, 32, 64)        0         
_________________________________________________________________
flatten_217 (Flatten)        (None, 65536)             0         
_________________________________________________________________
dense_416 (Dense)            (None, 1024)              67109888  
_________________________________________________________________
activation_698 (Activation)  (None, 1024)              0         
_________________________________________________________________
dropout_698 (Dropout)        (None, 1024)              0         
_________________________________________________________________
dense_417 (Dense)            (None, 100)               102500    
=================================================================
Total params: 67,213,711
Trainable params: 67,213,711
Non-trainable params: 0
_________________________________________________________________
