Model: "sequential_488"
_________________________________________________________________
Layer (type)                 Output Shape              Param #   
=================================================================
separable_conv2d_854 (Separa (None, 32, 32, 32)        155       
_________________________________________________________________
activation_1311 (Activation) (None, 32, 32, 32)        0         
_________________________________________________________________
dropout_1311 (Dropout)       (None, 32, 32, 32)        0         
_________________________________________________________________
max_pooling2d_248 (MaxPoolin (None, 16, 16, 32)        0         
_________________________________________________________________
flatten_488 (Flatten)        (None, 8192)              0         
_________________________________________________________________
dense_945 (Dense)            (None, 128)               1048704   
_________________________________________________________________
batch_normalization_231 (Bat (None, 128)               512       
_________________________________________________________________
activation_1312 (Activation) (None, 128)               0         
_________________________________________________________________
dropout_1312 (Dropout)       (None, 128)               0         
_________________________________________________________________
dense_946 (Dense)            (None, 100)               12900     
=================================================================
Total params: 1,062,271
Trainable params: 1,062,015
Non-trainable params: 256
_________________________________________________________________
