Model: "sequential_136"
_________________________________________________________________
Layer (type)                 Output Shape              Param #   
=================================================================
separable_conv2d_341 (Separa (None, 32, 32, 16)        91        
_________________________________________________________________
activation_461 (Activation)  (None, 32, 32, 16)        0         
_________________________________________________________________
dropout_461 (Dropout)        (None, 32, 32, 16)        0         
_________________________________________________________________
max_pooling2d_120 (MaxPoolin (None, 16, 16, 16)        0         
_________________________________________________________________
separable_conv2d_342 (Separa (None, 16, 16, 256)       4496      
_________________________________________________________________
activation_462 (Activation)  (None, 16, 16, 256)       0         
_________________________________________________________________
dropout_462 (Dropout)        (None, 16, 16, 256)       0         
_________________________________________________________________
flatten_136 (Flatten)        (None, 65536)             0         
_________________________________________________________________
dense_256 (Dense)            (None, 1024)              67109888  
_________________________________________________________________
activation_463 (Activation)  (None, 1024)              0         
_________________________________________________________________
dropout_463 (Dropout)        (None, 1024)              0         
_________________________________________________________________
dense_257 (Dense)            (None, 100)               102500    
=================================================================
Total params: 67,216,975
Trainable params: 67,216,975
Non-trainable params: 0
_________________________________________________________________
