Model: "sequential_497"
_________________________________________________________________
Layer (type)                 Output Shape              Param #   
=================================================================
separable_conv2d_868 (Separa (None, 32, 32, 32)        155       
_________________________________________________________________
batch_normalization_237 (Bat (None, 32, 32, 32)        128       
_________________________________________________________________
activation_1331 (Activation) (None, 32, 32, 32)        0         
_________________________________________________________________
dropout_1331 (Dropout)       (None, 32, 32, 32)        0         
_________________________________________________________________
separable_conv2d_869 (Separa (None, 32, 32, 128)       4512      
_________________________________________________________________
activation_1332 (Activation) (None, 32, 32, 128)       0         
_________________________________________________________________
dropout_1332 (Dropout)       (None, 32, 32, 128)       0         
_________________________________________________________________
flatten_497 (Flatten)        (None, 131072)            0         
_________________________________________________________________
dense_960 (Dense)            (None, 1024)              134218752 
_________________________________________________________________
activation_1333 (Activation) (None, 1024)              0         
_________________________________________________________________
dropout_1333 (Dropout)       (None, 1024)              0         
_________________________________________________________________
dense_961 (Dense)            (None, 100)               102500    
=================================================================
Total params: 134,326,047
Trainable params: 134,325,983
Non-trainable params: 64
_________________________________________________________________
