Model: "sequential_165"
_________________________________________________________________
Layer (type)                 Output Shape              Param #   
=================================================================
separable_conv2d_399 (Separa (None, 32, 32, 64)        283       
_________________________________________________________________
batch_normalization_146 (Bat (None, 32, 32, 64)        256       
_________________________________________________________________
activation_548 (Activation)  (None, 32, 32, 64)        0         
_________________________________________________________________
dropout_548 (Dropout)        (None, 32, 32, 64)        0         
_________________________________________________________________
max_pooling2d_148 (MaxPoolin (None, 16, 16, 64)        0         
_________________________________________________________________
separable_conv2d_400 (Separa (None, 16, 16, 256)       17216     
_________________________________________________________________
activation_549 (Activation)  (None, 16, 16, 256)       0         
_________________________________________________________________
dropout_549 (Dropout)        (None, 16, 16, 256)       0         
_________________________________________________________________
flatten_165 (Flatten)        (None, 65536)             0         
_________________________________________________________________
dense_314 (Dense)            (None, 1024)              67109888  
_________________________________________________________________
activation_550 (Activation)  (None, 1024)              0         
_________________________________________________________________
dropout_550 (Dropout)        (None, 1024)              0         
_________________________________________________________________
dense_315 (Dense)            (None, 100)               102500    
=================================================================
Total params: 67,230,143
Trainable params: 67,230,015
Non-trainable params: 128
_________________________________________________________________
