Model: "sequential_382"
_________________________________________________________________
Layer (type)                 Output Shape              Param #   
=================================================================
separable_conv2d_683 (Separa (None, 32, 32, 128)       539       
_________________________________________________________________
activation_1037 (Activation) (None, 32, 32, 128)       0         
_________________________________________________________________
dropout_1037 (Dropout)       (None, 32, 32, 128)       0         
_________________________________________________________________
flatten_382 (Flatten)        (None, 131072)            0         
_________________________________________________________________
dense_736 (Dense)            (None, 128)               16777344  
_________________________________________________________________
activation_1038 (Activation) (None, 128)               0         
_________________________________________________________________
dropout_1038 (Dropout)       (None, 128)               0         
_________________________________________________________________
dense_737 (Dense)            (None, 100)               12900     
=================================================================
Total params: 16,790,783
Trainable params: 16,790,783
Non-trainable params: 0
_________________________________________________________________
