Model: "sequential_85"
_________________________________________________________________
Layer (type)                 Output Shape              Param #   
=================================================================
separable_conv2d_217 (Separa (None, 32, 32, 16)        91        
_________________________________________________________________
batch_normalization_84 (Batc (None, 32, 32, 16)        64        
_________________________________________________________________
activation_288 (Activation)  (None, 32, 32, 16)        0         
_________________________________________________________________
dropout_288 (Dropout)        (None, 32, 32, 16)        0         
_________________________________________________________________
max_pooling2d_70 (MaxPooling (None, 16, 16, 16)        0         
_________________________________________________________________
separable_conv2d_218 (Separa (None, 16, 16, 256)       4496      
_________________________________________________________________
activation_289 (Activation)  (None, 16, 16, 256)       0         
_________________________________________________________________
dropout_289 (Dropout)        (None, 16, 16, 256)       0         
_________________________________________________________________
flatten_85 (Flatten)         (None, 65536)             0         
_________________________________________________________________
dense_156 (Dense)            (None, 1024)              67109888  
_________________________________________________________________
activation_290 (Activation)  (None, 1024)              0         
_________________________________________________________________
dropout_290 (Dropout)        (None, 1024)              0         
_________________________________________________________________
dense_157 (Dense)            (None, 100)               102500    
=================================================================
Total params: 67,217,039
Trainable params: 67,217,007
Non-trainable params: 32
_________________________________________________________________
