Model: "sequential_193"
_________________________________________________________________
Layer (type)                 Output Shape              Param #   
=================================================================
separable_conv2d_454 (Separa (None, 32, 32, 16)        91        
_________________________________________________________________
activation_630 (Activation)  (None, 32, 32, 16)        0         
_________________________________________________________________
dropout_630 (Dropout)        (None, 32, 32, 16)        0         
_________________________________________________________________
max_pooling2d_172 (MaxPoolin (None, 16, 16, 16)        0         
_________________________________________________________________
separable_conv2d_455 (Separa (None, 16, 16, 256)       4496      
_________________________________________________________________
activation_631 (Activation)  (None, 16, 16, 256)       0         
_________________________________________________________________
dropout_631 (Dropout)        (None, 16, 16, 256)       0         
_________________________________________________________________
flatten_193 (Flatten)        (None, 65536)             0         
_________________________________________________________________
dense_369 (Dense)            (None, 1024)              67109888  
_________________________________________________________________
activation_632 (Activation)  (None, 1024)              0         
_________________________________________________________________
dropout_632 (Dropout)        (None, 1024)              0         
_________________________________________________________________
dense_370 (Dense)            (None, 100)               102500    
=================================================================
Total params: 67,216,975
Trainable params: 67,216,975
Non-trainable params: 0
_________________________________________________________________
