Model: "sequential_29"
_________________________________________________________________
Layer (type)                 Output Shape              Param #   
=================================================================
separable_conv2d_58 (Separab (None, 32, 32, 64)        283       
_________________________________________________________________
batch_normalization_30 (Batc (None, 32, 32, 64)        256       
_________________________________________________________________
activation_76 (Activation)   (None, 32, 32, 64)        0         
_________________________________________________________________
dropout_76 (Dropout)         (None, 32, 32, 64)        0         
_________________________________________________________________
max_pooling2d_22 (MaxPooling (None, 16, 16, 64)        0         
_________________________________________________________________
separable_conv2d_59 (Separab (None, 16, 16, 8)         1096      
_________________________________________________________________
activation_77 (Activation)   (None, 16, 16, 8)         0         
_________________________________________________________________
dropout_77 (Dropout)         (None, 16, 16, 8)         0         
_________________________________________________________________
flatten_29 (Flatten)         (None, 2048)              0         
_________________________________________________________________
dense_47 (Dense)             (None, 100)               204900    
=================================================================
Total params: 206,535
Trainable params: 206,407
Non-trainable params: 128
_________________________________________________________________
