Model: "sequential_147"
_________________________________________________________________
Layer (type)                 Output Shape              Param #   
=================================================================
separable_conv2d_363 (Separa (None, 32, 32, 64)        283       
_________________________________________________________________
batch_normalization_136 (Bat (None, 32, 32, 64)        256       
_________________________________________________________________
activation_494 (Activation)  (None, 32, 32, 64)        0         
_________________________________________________________________
dropout_494 (Dropout)        (None, 32, 32, 64)        0         
_________________________________________________________________
max_pooling2d_131 (MaxPoolin (None, 16, 16, 64)        0         
_________________________________________________________________
separable_conv2d_364 (Separa (None, 16, 16, 256)       17216     
_________________________________________________________________
activation_495 (Activation)  (None, 16, 16, 256)       0         
_________________________________________________________________
dropout_495 (Dropout)        (None, 16, 16, 256)       0         
_________________________________________________________________
flatten_147 (Flatten)        (None, 65536)             0         
_________________________________________________________________
dense_278 (Dense)            (None, 1024)              67109888  
_________________________________________________________________
activation_496 (Activation)  (None, 1024)              0         
_________________________________________________________________
dropout_496 (Dropout)        (None, 1024)              0         
_________________________________________________________________
dense_279 (Dense)            (None, 100)               102500    
=================================================================
Total params: 67,230,143
Trainable params: 67,230,015
Non-trainable params: 128
_________________________________________________________________
