Model: "sequential_212"
_________________________________________________________________
Layer (type)                 Output Shape              Param #   
=================================================================
separable_conv2d_488 (Separa (None, 32, 32, 16)        91        
_________________________________________________________________
activation_682 (Activation)  (None, 32, 32, 16)        0         
_________________________________________________________________
dropout_682 (Dropout)        (None, 32, 32, 16)        0         
_________________________________________________________________
separable_conv2d_489 (Separa (None, 32, 32, 256)       4496      
_________________________________________________________________
activation_683 (Activation)  (None, 32, 32, 256)       0         
_________________________________________________________________
dropout_683 (Dropout)        (None, 32, 32, 256)       0         
_________________________________________________________________
flatten_212 (Flatten)        (None, 262144)            0         
_________________________________________________________________
dense_406 (Dense)            (None, 1024)              268436480 
_________________________________________________________________
activation_684 (Activation)  (None, 1024)              0         
_________________________________________________________________
dropout_684 (Dropout)        (None, 1024)              0         
_________________________________________________________________
dense_407 (Dense)            (None, 100)               102500    
=================================================================
Total params: 268,543,567
Trainable params: 268,543,567
Non-trainable params: 0
_________________________________________________________________
