Model: "sequential_455"
_________________________________________________________________
Layer (type)                 Output Shape              Param #   
=================================================================
separable_conv2d_796 (Separa (None, 32, 32, 32)        155       
_________________________________________________________________
activation_1223 (Activation) (None, 32, 32, 32)        0         
_________________________________________________________________
dropout_1223 (Dropout)       (None, 32, 32, 32)        0         
_________________________________________________________________
separable_conv2d_797 (Separa (None, 32, 32, 16)        816       
_________________________________________________________________
activation_1224 (Activation) (None, 32, 32, 16)        0         
_________________________________________________________________
dropout_1224 (Dropout)       (None, 32, 32, 16)        0         
_________________________________________________________________
flatten_455 (Flatten)        (None, 16384)             0         
_________________________________________________________________
dense_882 (Dense)            (None, 1024)              16778240  
_________________________________________________________________
activation_1225 (Activation) (None, 1024)              0         
_________________________________________________________________
dropout_1225 (Dropout)       (None, 1024)              0         
_________________________________________________________________
dense_883 (Dense)            (None, 100)               102500    
=================================================================
Total params: 16,881,711
Trainable params: 16,881,711
Non-trainable params: 0
_________________________________________________________________
