Model: "sequential_224"
_________________________________________________________________
Layer (type)                 Output Shape              Param #   
=================================================================
separable_conv2d_506 (Separa (None, 32, 32, 16)        91        
_________________________________________________________________
activation_712 (Activation)  (None, 32, 32, 16)        0         
_________________________________________________________________
dropout_712 (Dropout)        (None, 32, 32, 16)        0         
_________________________________________________________________
separable_conv2d_507 (Separa (None, 32, 32, 64)        1232      
_________________________________________________________________
activation_713 (Activation)  (None, 32, 32, 64)        0         
_________________________________________________________________
dropout_713 (Dropout)        (None, 32, 32, 64)        0         
_________________________________________________________________
flatten_224 (Flatten)        (None, 65536)             0         
_________________________________________________________________
dense_430 (Dense)            (None, 1024)              67109888  
_________________________________________________________________
activation_714 (Activation)  (None, 1024)              0         
_________________________________________________________________
dropout_714 (Dropout)        (None, 1024)              0         
_________________________________________________________________
dense_431 (Dense)            (None, 100)               102500    
=================================================================
Total params: 67,213,711
Trainable params: 67,213,711
Non-trainable params: 0
_________________________________________________________________
