Model: "sequential_107"
_________________________________________________________________
Layer (type)                 Output Shape              Param #   
=================================================================
separable_conv2d_276 (Separa (None, 32, 32, 16)        91        
_________________________________________________________________
activation_368 (Activation)  (None, 32, 32, 16)        0         
_________________________________________________________________
dropout_368 (Dropout)        (None, 32, 32, 16)        0         
_________________________________________________________________
max_pooling2d_92 (MaxPooling (None, 16, 16, 16)        0         
_________________________________________________________________
separable_conv2d_277 (Separa (None, 16, 16, 256)       4496      
_________________________________________________________________
activation_369 (Activation)  (None, 16, 16, 256)       0         
_________________________________________________________________
dropout_369 (Dropout)        (None, 16, 16, 256)       0         
_________________________________________________________________
flatten_107 (Flatten)        (None, 65536)             0         
_________________________________________________________________
dense_199 (Dense)            (None, 1024)              67109888  
_________________________________________________________________
batch_normalization_109 (Bat (None, 1024)              4096      
_________________________________________________________________
activation_370 (Activation)  (None, 1024)              0         
_________________________________________________________________
dropout_370 (Dropout)        (None, 1024)              0         
_________________________________________________________________
dense_200 (Dense)            (None, 100)               102500    
=================================================================
Total params: 67,221,071
Trainable params: 67,219,023
Non-trainable params: 2,048
_________________________________________________________________
