Model: "sequential_310"
_________________________________________________________________
Layer (type)                 Output Shape              Param #   
=================================================================
separable_conv2d_599 (Separa (None, 32, 32, 256)       1051      
_________________________________________________________________
activation_883 (Activation)  (None, 32, 32, 256)       0         
_________________________________________________________________
dropout_883 (Dropout)        (None, 32, 32, 256)       0         
_________________________________________________________________
max_pooling2d_239 (MaxPoolin (None, 16, 16, 256)       0         
_________________________________________________________________
flatten_310 (Flatten)        (None, 65536)             0         
_________________________________________________________________
dense_594 (Dense)            (None, 1024)              67109888  
_________________________________________________________________
activation_884 (Activation)  (None, 1024)              0         
_________________________________________________________________
dropout_884 (Dropout)        (None, 1024)              0         
_________________________________________________________________
dense_595 (Dense)            (None, 100)               102500    
=================================================================
Total params: 67,213,439
Trainable params: 67,213,439
Non-trainable params: 0
_________________________________________________________________
