Model: "sequential_493"
_________________________________________________________________
Layer (type)                 Output Shape              Param #   
=================================================================
separable_conv2d_862 (Separa (None, 32, 32, 32)        155       
_________________________________________________________________
activation_1321 (Activation) (None, 32, 32, 32)        0         
_________________________________________________________________
dropout_1321 (Dropout)       (None, 32, 32, 32)        0         
_________________________________________________________________
flatten_493 (Flatten)        (None, 32768)             0         
_________________________________________________________________
dense_952 (Dense)            (None, 128)               4194432   
_________________________________________________________________
batch_normalization_234 (Bat (None, 128)               512       
_________________________________________________________________
activation_1322 (Activation) (None, 128)               0         
_________________________________________________________________
dropout_1322 (Dropout)       (None, 128)               0         
_________________________________________________________________
dense_953 (Dense)            (None, 100)               12900     
=================================================================
Total params: 4,207,999
Trainable params: 4,207,743
Non-trainable params: 256
_________________________________________________________________
