Model: "sequential_3"
_________________________________________________________________
Layer (type)                 Output Shape              Param #   
=================================================================
separable_conv2d_7 (Separabl (None, 32, 32, 32)        155       
_________________________________________________________________
batch_normalization_5 (Batch (None, 32, 32, 32)        128       
_________________________________________________________________
activation_10 (Activation)   (None, 32, 32, 32)        0         
_________________________________________________________________
dropout_10 (Dropout)         (None, 32, 32, 32)        0         
_________________________________________________________________
max_pooling2d_3 (MaxPooling2 (None, 16, 16, 32)        0         
_________________________________________________________________
separable_conv2d_8 (Separabl (None, 16, 16, 8)         552       
_________________________________________________________________
activation_11 (Activation)   (None, 16, 16, 8)         0         
_________________________________________________________________
dropout_11 (Dropout)         (None, 16, 16, 8)         0         
_________________________________________________________________
flatten_3 (Flatten)          (None, 2048)              0         
_________________________________________________________________
dense_6 (Dense)              (None, 100)               204900    
=================================================================
Total params: 205,735
Trainable params: 205,671
Non-trainable params: 64
_________________________________________________________________
