Model: "sequential_106"
_________________________________________________________________
Layer (type)                 Output Shape              Param #   
=================================================================
separable_conv2d_273 (Separa (None, 32, 32, 64)        283       
_________________________________________________________________
activation_364 (Activation)  (None, 32, 32, 64)        0         
_________________________________________________________________
dropout_364 (Dropout)        (None, 32, 32, 64)        0         
_________________________________________________________________
max_pooling2d_91 (MaxPooling (None, 16, 16, 64)        0         
_________________________________________________________________
separable_conv2d_274 (Separa (None, 16, 16, 64)        4736      
_________________________________________________________________
batch_normalization_108 (Bat (None, 16, 16, 64)        256       
_________________________________________________________________
activation_365 (Activation)  (None, 16, 16, 64)        0         
_________________________________________________________________
dropout_365 (Dropout)        (None, 16, 16, 64)        0         
_________________________________________________________________
separable_conv2d_275 (Separa (None, 16, 16, 512)       33856     
_________________________________________________________________
activation_366 (Activation)  (None, 16, 16, 512)       0         
_________________________________________________________________
dropout_366 (Dropout)        (None, 16, 16, 512)       0         
_________________________________________________________________
flatten_106 (Flatten)        (None, 131072)            0         
_________________________________________________________________
dense_197 (Dense)            (None, 256)               33554688  
_________________________________________________________________
activation_367 (Activation)  (None, 256)               0         
_________________________________________________________________
dropout_367 (Dropout)        (None, 256)               0         
_________________________________________________________________
dense_198 (Dense)            (None, 100)               25700     
=================================================================
Total params: 33,619,519
Trainable params: 33,619,391
Non-trainable params: 128
_________________________________________________________________
