Model: "sequential_132"
_________________________________________________________________
Layer (type)                 Output Shape              Param #   
=================================================================
separable_conv2d_334 (Separa (None, 32, 32, 64)        283       
_________________________________________________________________
batch_normalization_131 (Bat (None, 32, 32, 64)        256       
_________________________________________________________________
activation_450 (Activation)  (None, 32, 32, 64)        0         
_________________________________________________________________
dropout_450 (Dropout)        (None, 32, 32, 64)        0         
_________________________________________________________________
max_pooling2d_116 (MaxPoolin (None, 16, 16, 64)        0         
_________________________________________________________________
separable_conv2d_335 (Separa (None, 16, 16, 64)        4736      
_________________________________________________________________
activation_451 (Activation)  (None, 16, 16, 64)        0         
_________________________________________________________________
dropout_451 (Dropout)        (None, 16, 16, 64)        0         
_________________________________________________________________
flatten_132 (Flatten)        (None, 16384)             0         
_________________________________________________________________
dense_248 (Dense)            (None, 1024)              16778240  
_________________________________________________________________
activation_452 (Activation)  (None, 1024)              0         
_________________________________________________________________
dropout_452 (Dropout)        (None, 1024)              0         
_________________________________________________________________
dense_249 (Dense)            (None, 100)               102500    
=================================================================
Total params: 16,886,015
Trainable params: 16,885,887
Non-trainable params: 128
_________________________________________________________________
