Model: "sequential_167"
_________________________________________________________________
Layer (type)                 Output Shape              Param #   
=================================================================
separable_conv2d_403 (Separa (None, 32, 32, 16)        91        
_________________________________________________________________
activation_554 (Activation)  (None, 32, 32, 16)        0         
_________________________________________________________________
dropout_554 (Dropout)        (None, 32, 32, 16)        0         
_________________________________________________________________
max_pooling2d_150 (MaxPoolin (None, 16, 16, 16)        0         
_________________________________________________________________
separable_conv2d_404 (Separa (None, 16, 16, 256)       4496      
_________________________________________________________________
activation_555 (Activation)  (None, 16, 16, 256)       0         
_________________________________________________________________
dropout_555 (Dropout)        (None, 16, 16, 256)       0         
_________________________________________________________________
flatten_167 (Flatten)        (None, 65536)             0         
_________________________________________________________________
dense_318 (Dense)            (None, 1024)              67109888  
_________________________________________________________________
activation_556 (Activation)  (None, 1024)              0         
_________________________________________________________________
dropout_556 (Dropout)        (None, 1024)              0         
_________________________________________________________________
dense_319 (Dense)            (None, 100)               102500    
=================================================================
Total params: 67,216,975
Trainable params: 67,216,975
Non-trainable params: 0
_________________________________________________________________
