Model: "sequential_243"
_________________________________________________________________
Layer (type)                 Output Shape              Param #   
=================================================================
separable_conv2d_530 (Separa (None, 32, 32, 32)        155       
_________________________________________________________________
activation_753 (Activation)  (None, 32, 32, 32)        0         
_________________________________________________________________
dropout_753 (Dropout)        (None, 32, 32, 32)        0         
_________________________________________________________________
max_pooling2d_207 (MaxPoolin (None, 16, 16, 32)        0         
_________________________________________________________________
flatten_243 (Flatten)        (None, 8192)              0         
_________________________________________________________________
dense_466 (Dense)            (None, 100)               819300    
=================================================================
Total params: 819,455
Trainable params: 819,455
Non-trainable params: 0
_________________________________________________________________
