Model: "sequential_303"
_________________________________________________________________
Layer (type)                 Output Shape              Param #   
=================================================================
separable_conv2d_592 (Separa (None, 32, 32, 256)       1051      
_________________________________________________________________
activation_869 (Activation)  (None, 32, 32, 256)       0         
_________________________________________________________________
dropout_869 (Dropout)        (None, 32, 32, 256)       0         
_________________________________________________________________
max_pooling2d_237 (MaxPoolin (None, 16, 16, 256)       0         
_________________________________________________________________
flatten_303 (Flatten)        (None, 65536)             0         
_________________________________________________________________
dense_580 (Dense)            (None, 1024)              67109888  
_________________________________________________________________
activation_870 (Activation)  (None, 1024)              0         
_________________________________________________________________
dropout_870 (Dropout)        (None, 1024)              0         
_________________________________________________________________
dense_581 (Dense)            (None, 100)               102500    
=================================================================
Total params: 67,213,439
Trainable params: 67,213,439
Non-trainable params: 0
_________________________________________________________________
