Model: "sequential_76"
_________________________________________________________________
Layer (type)                 Output Shape              Param #   
=================================================================
separable_conv2d_190 (Separa (None, 32, 32, 64)        283       
_________________________________________________________________
batch_normalization_73 (Batc (None, 32, 32, 64)        256       
_________________________________________________________________
activation_252 (Activation)  (None, 32, 32, 64)        0         
_________________________________________________________________
dropout_252 (Dropout)        (None, 32, 32, 64)        0         
_________________________________________________________________
max_pooling2d_62 (MaxPooling (None, 16, 16, 64)        0         
_________________________________________________________________
separable_conv2d_191 (Separa (None, 16, 16, 64)        4736      
_________________________________________________________________
activation_253 (Activation)  (None, 16, 16, 64)        0         
_________________________________________________________________
dropout_253 (Dropout)        (None, 16, 16, 64)        0         
_________________________________________________________________
separable_conv2d_192 (Separa (None, 16, 16, 512)       33856     
_________________________________________________________________
activation_254 (Activation)  (None, 16, 16, 512)       0         
_________________________________________________________________
dropout_254 (Dropout)        (None, 16, 16, 512)       0         
_________________________________________________________________
flatten_76 (Flatten)         (None, 131072)            0         
_________________________________________________________________
dense_138 (Dense)            (None, 1024)              134218752 
_________________________________________________________________
activation_255 (Activation)  (None, 1024)              0         
_________________________________________________________________
dropout_255 (Dropout)        (None, 1024)              0         
_________________________________________________________________
dense_139 (Dense)            (None, 100)               102500    
=================================================================
Total params: 134,360,383
Trainable params: 134,360,255
Non-trainable params: 128
_________________________________________________________________
