Model: "sequential_223"
_________________________________________________________________
Layer (type)                 Output Shape              Param #   
=================================================================
separable_conv2d_505 (Separa (None, 32, 32, 16)        91        
_________________________________________________________________
activation_710 (Activation)  (None, 32, 32, 16)        0         
_________________________________________________________________
dropout_710 (Dropout)        (None, 32, 32, 16)        0         
_________________________________________________________________
flatten_223 (Flatten)        (None, 16384)             0         
_________________________________________________________________
dense_428 (Dense)            (None, 1024)              16778240  
_________________________________________________________________
activation_711 (Activation)  (None, 1024)              0         
_________________________________________________________________
dropout_711 (Dropout)        (None, 1024)              0         
_________________________________________________________________
dense_429 (Dense)            (None, 100)               102500    
=================================================================
Total params: 16,880,831
Trainable params: 16,880,831
Non-trainable params: 0
_________________________________________________________________
