Model: "sequential_198"
_________________________________________________________________
Layer (type)                 Output Shape              Param #   
=================================================================
separable_conv2d_464 (Separa (None, 32, 32, 16)        91        
_________________________________________________________________
activation_645 (Activation)  (None, 32, 32, 16)        0         
_________________________________________________________________
dropout_645 (Dropout)        (None, 32, 32, 16)        0         
_________________________________________________________________
max_pooling2d_176 (MaxPoolin (None, 16, 16, 16)        0         
_________________________________________________________________
flatten_198 (Flatten)        (None, 4096)              0         
_________________________________________________________________
dense_379 (Dense)            (None, 100)               409700    
=================================================================
Total params: 409,791
Trainable params: 409,791
Non-trainable params: 0
_________________________________________________________________
