Model: "sequential_495"
_________________________________________________________________
Layer (type)                 Output Shape              Param #   
=================================================================
separable_conv2d_865 (Separa (None, 32, 32, 32)        155       
_________________________________________________________________
activation_1326 (Activation) (None, 32, 32, 32)        0         
_________________________________________________________________
dropout_1326 (Dropout)       (None, 32, 32, 32)        0         
_________________________________________________________________
separable_conv2d_866 (Separa (None, 32, 32, 16)        816       
_________________________________________________________________
activation_1327 (Activation) (None, 32, 32, 16)        0         
_________________________________________________________________
dropout_1327 (Dropout)       (None, 32, 32, 16)        0         
_________________________________________________________________
flatten_495 (Flatten)        (None, 16384)             0         
_________________________________________________________________
dense_956 (Dense)            (None, 1024)              16778240  
_________________________________________________________________
activation_1328 (Activation) (None, 1024)              0         
_________________________________________________________________
dropout_1328 (Dropout)       (None, 1024)              0         
_________________________________________________________________
dense_957 (Dense)            (None, 100)               102500    
=================================================================
Total params: 16,881,711
Trainable params: 16,881,711
Non-trainable params: 0
_________________________________________________________________
