Model: "sequential_337"
_________________________________________________________________
Layer (type)                 Output Shape              Param #   
=================================================================
separable_conv2d_627 (Separa (None, 32, 32, 32)        155       
_________________________________________________________________
activation_937 (Activation)  (None, 32, 32, 32)        0         
_________________________________________________________________
dropout_937 (Dropout)        (None, 32, 32, 32)        0         
_________________________________________________________________
flatten_337 (Flatten)        (None, 32768)             0         
_________________________________________________________________
dense_647 (Dense)            (None, 1024)              33555456  
_________________________________________________________________
activation_938 (Activation)  (None, 1024)              0         
_________________________________________________________________
dropout_938 (Dropout)        (None, 1024)              0         
_________________________________________________________________
dense_648 (Dense)            (None, 100)               102500    
=================================================================
Total params: 33,658,111
Trainable params: 33,658,111
Non-trainable params: 0
_________________________________________________________________
