Model: "sequential_473"
_________________________________________________________________
Layer (type)                 Output Shape              Param #   
=================================================================
separable_conv2d_830 (Separa (None, 32, 32, 32)        155       
_________________________________________________________________
activation_1273 (Activation) (None, 32, 32, 32)        0         
_________________________________________________________________
dropout_1273 (Dropout)       (None, 32, 32, 32)        0         
_________________________________________________________________
flatten_473 (Flatten)        (None, 32768)             0         
_________________________________________________________________
dense_916 (Dense)            (None, 1024)              33555456  
_________________________________________________________________
activation_1274 (Activation) (None, 1024)              0         
_________________________________________________________________
dropout_1274 (Dropout)       (None, 1024)              0         
_________________________________________________________________
dense_917 (Dense)            (None, 100)               102500    
=================================================================
Total params: 33,658,111
Trainable params: 33,658,111
Non-trainable params: 0
_________________________________________________________________
