Model: "sequential_98"
_________________________________________________________________
Layer (type)                 Output Shape              Param #   
=================================================================
separable_conv2d_252 (Separa (None, 32, 32, 32)        155       
_________________________________________________________________
batch_normalization_100 (Bat (None, 32, 32, 32)        128       
_________________________________________________________________
activation_336 (Activation)  (None, 32, 32, 32)        0         
_________________________________________________________________
dropout_336 (Dropout)        (None, 32, 32, 32)        0         
_________________________________________________________________
max_pooling2d_83 (MaxPooling (None, 16, 16, 32)        0         
_________________________________________________________________
separable_conv2d_253 (Separa (None, 16, 16, 64)        2400      
_________________________________________________________________
activation_337 (Activation)  (None, 16, 16, 64)        0         
_________________________________________________________________
dropout_337 (Dropout)        (None, 16, 16, 64)        0         
_________________________________________________________________
flatten_98 (Flatten)         (None, 16384)             0         
_________________________________________________________________
dense_182 (Dense)            (None, 1024)              16778240  
_________________________________________________________________
activation_338 (Activation)  (None, 1024)              0         
_________________________________________________________________
dropout_338 (Dropout)        (None, 1024)              0         
_________________________________________________________________
dense_183 (Dense)            (None, 100)               102500    
=================================================================
Total params: 16,883,423
Trainable params: 16,883,359
Non-trainable params: 64
_________________________________________________________________
