Model: "sequential_427"
_________________________________________________________________
Layer (type)                 Output Shape              Param #   
=================================================================
separable_conv2d_751 (Separa (None, 32, 32, 32)        155       
_________________________________________________________________
activation_1150 (Activation) (None, 32, 32, 32)        0         
_________________________________________________________________
dropout_1150 (Dropout)       (None, 32, 32, 32)        0         
_________________________________________________________________
flatten_427 (Flatten)        (None, 32768)             0         
_________________________________________________________________
dense_826 (Dense)            (None, 128)               4194432   
_________________________________________________________________
activation_1151 (Activation) (None, 128)               0         
_________________________________________________________________
dropout_1151 (Dropout)       (None, 128)               0         
_________________________________________________________________
dense_827 (Dense)            (None, 100)               12900     
=================================================================
Total params: 4,207,487
Trainable params: 4,207,487
Non-trainable params: 0
_________________________________________________________________
