Model: "sequential_415"
_________________________________________________________________
Layer (type)                 Output Shape              Param #   
=================================================================
separable_conv2d_730 (Separa (None, 32, 32, 256)       1051      
_________________________________________________________________
activation_1117 (Activation) (None, 32, 32, 256)       0         
_________________________________________________________________
dropout_1117 (Dropout)       (None, 32, 32, 256)       0         
_________________________________________________________________
separable_conv2d_731 (Separa (None, 32, 32, 128)       35200     
_________________________________________________________________
activation_1118 (Activation) (None, 32, 32, 128)       0         
_________________________________________________________________
dropout_1118 (Dropout)       (None, 32, 32, 128)       0         
_________________________________________________________________
flatten_415 (Flatten)        (None, 131072)            0         
_________________________________________________________________
dense_802 (Dense)            (None, 1024)              134218752 
_________________________________________________________________
activation_1119 (Activation) (None, 1024)              0         
_________________________________________________________________
dropout_1119 (Dropout)       (None, 1024)              0         
_________________________________________________________________
dense_803 (Dense)            (None, 100)               102500    
=================================================================
Total params: 134,357,503
Trainable params: 134,357,503
Non-trainable params: 0
_________________________________________________________________
