Model: "sequential_327"
_________________________________________________________________
Layer (type)                 Output Shape              Param #   
=================================================================
separable_conv2d_616 (Separa (None, 32, 32, 32)        155       
_________________________________________________________________
activation_916 (Activation)  (None, 32, 32, 32)        0         
_________________________________________________________________
dropout_916 (Dropout)        (None, 32, 32, 32)        0         
_________________________________________________________________
flatten_327 (Flatten)        (None, 32768)             0         
_________________________________________________________________
dense_627 (Dense)            (None, 1024)              33555456  
_________________________________________________________________
activation_917 (Activation)  (None, 1024)              0         
_________________________________________________________________
dropout_917 (Dropout)        (None, 1024)              0         
_________________________________________________________________
dense_628 (Dense)            (None, 100)               102500    
=================================================================
Total params: 33,658,111
Trainable params: 33,658,111
Non-trainable params: 0
_________________________________________________________________
