Model: "sequential_499"
_________________________________________________________________
Layer (type)                 Output Shape              Param #   
=================================================================
separable_conv2d_872 (Separa (None, 32, 32, 32)        155       
_________________________________________________________________
activation_1337 (Activation) (None, 32, 32, 32)        0         
_________________________________________________________________
dropout_1337 (Dropout)       (None, 32, 32, 32)        0         
_________________________________________________________________
separable_conv2d_873 (Separa (None, 32, 32, 16)        816       
_________________________________________________________________
activation_1338 (Activation) (None, 32, 32, 16)        0         
_________________________________________________________________
dropout_1338 (Dropout)       (None, 32, 32, 16)        0         
_________________________________________________________________
flatten_499 (Flatten)        (None, 16384)             0         
_________________________________________________________________
dense_964 (Dense)            (None, 1024)              16778240  
_________________________________________________________________
activation_1339 (Activation) (None, 1024)              0         
_________________________________________________________________
dropout_1339 (Dropout)       (None, 1024)              0         
_________________________________________________________________
dense_965 (Dense)            (None, 100)               102500    
=================================================================
Total params: 16,881,711
Trainable params: 16,881,711
Non-trainable params: 0
_________________________________________________________________
