Model: "sequential_450"
_________________________________________________________________
Layer (type)                 Output Shape              Param #   
=================================================================
separable_conv2d_788 (Separa (None, 32, 32, 32)        155       
_________________________________________________________________
activation_1210 (Activation) (None, 32, 32, 32)        0         
_________________________________________________________________
dropout_1210 (Dropout)       (None, 32, 32, 32)        0         
_________________________________________________________________
separable_conv2d_789 (Separa (None, 32, 32, 32)        1344      
_________________________________________________________________
activation_1211 (Activation) (None, 32, 32, 32)        0         
_________________________________________________________________
dropout_1211 (Dropout)       (None, 32, 32, 32)        0         
_________________________________________________________________
flatten_450 (Flatten)        (None, 32768)             0         
_________________________________________________________________
dense_872 (Dense)            (None, 1024)              33555456  
_________________________________________________________________
activation_1212 (Activation) (None, 1024)              0         
_________________________________________________________________
dropout_1212 (Dropout)       (None, 1024)              0         
_________________________________________________________________
dense_873 (Dense)            (None, 100)               102500    
=================================================================
Total params: 33,659,455
Trainable params: 33,659,455
Non-trainable params: 0
_________________________________________________________________
