Model: "sequential_416"
_________________________________________________________________
Layer (type)                 Output Shape              Param #   
=================================================================
separable_conv2d_732 (Separa (None, 32, 32, 32)        155       
_________________________________________________________________
activation_1120 (Activation) (None, 32, 32, 32)        0         
_________________________________________________________________
dropout_1120 (Dropout)       (None, 32, 32, 32)        0         
_________________________________________________________________
separable_conv2d_733 (Separa (None, 32, 32, 64)        2400      
_________________________________________________________________
activation_1121 (Activation) (None, 32, 32, 64)        0         
_________________________________________________________________
dropout_1121 (Dropout)       (None, 32, 32, 64)        0         
_________________________________________________________________
flatten_416 (Flatten)        (None, 65536)             0         
_________________________________________________________________
dense_804 (Dense)            (None, 1024)              67109888  
_________________________________________________________________
activation_1122 (Activation) (None, 1024)              0         
_________________________________________________________________
dropout_1122 (Dropout)       (None, 1024)              0         
_________________________________________________________________
dense_805 (Dense)            (None, 100)               102500    
=================================================================
Total params: 67,214,943
Trainable params: 67,214,943
Non-trainable params: 0
_________________________________________________________________
