Model: "sequential_80"
_________________________________________________________________
Layer (type)                 Output Shape              Param #   
=================================================================
separable_conv2d_202 (Separa (None, 32, 32, 16)        91        
_________________________________________________________________
batch_normalization_78 (Batc (None, 32, 32, 16)        64        
_________________________________________________________________
activation_268 (Activation)  (None, 32, 32, 16)        0         
_________________________________________________________________
dropout_268 (Dropout)        (None, 32, 32, 16)        0         
_________________________________________________________________
max_pooling2d_66 (MaxPooling (None, 16, 16, 16)        0         
_________________________________________________________________
separable_conv2d_203 (Separa (None, 16, 16, 256)       4496      
_________________________________________________________________
activation_269 (Activation)  (None, 16, 16, 256)       0         
_________________________________________________________________
dropout_269 (Dropout)        (None, 16, 16, 256)       0         
_________________________________________________________________
separable_conv2d_204 (Separa (None, 16, 16, 512)       133888    
_________________________________________________________________
activation_270 (Activation)  (None, 16, 16, 512)       0         
_________________________________________________________________
dropout_270 (Dropout)        (None, 16, 16, 512)       0         
_________________________________________________________________
flatten_80 (Flatten)         (None, 131072)            0         
_________________________________________________________________
dense_146 (Dense)            (None, 1024)              134218752 
_________________________________________________________________
activation_271 (Activation)  (None, 1024)              0         
_________________________________________________________________
dropout_271 (Dropout)        (None, 1024)              0         
_________________________________________________________________
dense_147 (Dense)            (None, 100)               102500    
=================================================================
Total params: 134,459,791
Trainable params: 134,459,759
Non-trainable params: 32
_________________________________________________________________
