Model: "sequential_454"
_________________________________________________________________
Layer (type)                 Output Shape              Param #   
=================================================================
separable_conv2d_794 (Separa (None, 32, 32, 32)        155       
_________________________________________________________________
activation_1220 (Activation) (None, 32, 32, 32)        0         
_________________________________________________________________
dropout_1220 (Dropout)       (None, 32, 32, 32)        0         
_________________________________________________________________
separable_conv2d_795 (Separa (None, 32, 32, 512)       17184     
_________________________________________________________________
batch_normalization_213 (Bat (None, 32, 32, 512)       2048      
_________________________________________________________________
activation_1221 (Activation) (None, 32, 32, 512)       0         
_________________________________________________________________
dropout_1221 (Dropout)       (None, 32, 32, 512)       0         
_________________________________________________________________
max_pooling2d_246 (MaxPoolin (None, 16, 16, 512)       0         
_________________________________________________________________
flatten_454 (Flatten)        (None, 131072)            0         
_________________________________________________________________
dense_880 (Dense)            (None, 32)                4194336   
_________________________________________________________________
batch_normalization_214 (Bat (None, 32)                128       
_________________________________________________________________
activation_1222 (Activation) (None, 32)                0         
_________________________________________________________________
dropout_1222 (Dropout)       (None, 32)                0         
_________________________________________________________________
dense_881 (Dense)            (None, 100)               3300      
=================================================================
Total params: 4,217,151
Trainable params: 4,216,063
Non-trainable params: 1,088
_________________________________________________________________
