Model: "sequential_188"
_________________________________________________________________
Layer (type)                 Output Shape              Param #   
=================================================================
separable_conv2d_444 (Separa (None, 32, 32, 16)        91        
_________________________________________________________________
activation_615 (Activation)  (None, 32, 32, 16)        0         
_________________________________________________________________
dropout_615 (Dropout)        (None, 32, 32, 16)        0         
_________________________________________________________________
separable_conv2d_445 (Separa (None, 32, 32, 256)       4496      
_________________________________________________________________
activation_616 (Activation)  (None, 32, 32, 256)       0         
_________________________________________________________________
dropout_616 (Dropout)        (None, 32, 32, 256)       0         
_________________________________________________________________
flatten_188 (Flatten)        (None, 262144)            0         
_________________________________________________________________
dense_359 (Dense)            (None, 1024)              268436480 
_________________________________________________________________
activation_617 (Activation)  (None, 1024)              0         
_________________________________________________________________
dropout_617 (Dropout)        (None, 1024)              0         
_________________________________________________________________
dense_360 (Dense)            (None, 100)               102500    
=================================================================
Total params: 268,543,567
Trainable params: 268,543,567
Non-trainable params: 0
_________________________________________________________________
