Model: "sequential_440"
_________________________________________________________________
Layer (type)                 Output Shape              Param #   
=================================================================
separable_conv2d_771 (Separa (None, 32, 32, 32)        155       
_________________________________________________________________
activation_1183 (Activation) (None, 32, 32, 32)        0         
_________________________________________________________________
dropout_1183 (Dropout)       (None, 32, 32, 32)        0         
_________________________________________________________________
separable_conv2d_772 (Separa (None, 32, 32, 16)        816       
_________________________________________________________________
activation_1184 (Activation) (None, 32, 32, 16)        0         
_________________________________________________________________
dropout_1184 (Dropout)       (None, 32, 32, 16)        0         
_________________________________________________________________
flatten_440 (Flatten)        (None, 16384)             0         
_________________________________________________________________
dense_852 (Dense)            (None, 1024)              16778240  
_________________________________________________________________
activation_1185 (Activation) (None, 1024)              0         
_________________________________________________________________
dropout_1185 (Dropout)       (None, 1024)              0         
_________________________________________________________________
dense_853 (Dense)            (None, 100)               102500    
=================================================================
Total params: 16,881,711
Trainable params: 16,881,711
Non-trainable params: 0
_________________________________________________________________
