Model: "sequential_143"
_________________________________________________________________
Layer (type)                 Output Shape              Param #   
=================================================================
separable_conv2d_355 (Separa (None, 32, 32, 64)        283       
_________________________________________________________________
batch_normalization_135 (Bat (None, 32, 32, 64)        256       
_________________________________________________________________
activation_482 (Activation)  (None, 32, 32, 64)        0         
_________________________________________________________________
dropout_482 (Dropout)        (None, 32, 32, 64)        0         
_________________________________________________________________
max_pooling2d_127 (MaxPoolin (None, 16, 16, 64)        0         
_________________________________________________________________
separable_conv2d_356 (Separa (None, 16, 16, 256)       17216     
_________________________________________________________________
activation_483 (Activation)  (None, 16, 16, 256)       0         
_________________________________________________________________
dropout_483 (Dropout)        (None, 16, 16, 256)       0         
_________________________________________________________________
flatten_143 (Flatten)        (None, 65536)             0         
_________________________________________________________________
dense_270 (Dense)            (None, 1024)              67109888  
_________________________________________________________________
activation_484 (Activation)  (None, 1024)              0         
_________________________________________________________________
dropout_484 (Dropout)        (None, 1024)              0         
_________________________________________________________________
dense_271 (Dense)            (None, 100)               102500    
=================================================================
Total params: 67,230,143
Trainable params: 67,230,015
Non-trainable params: 128
_________________________________________________________________
