Model: "sequential_110"
_________________________________________________________________
Layer (type)                 Output Shape              Param #   
=================================================================
separable_conv2d_283 (Separa (None, 32, 32, 64)        283       
_________________________________________________________________
batch_normalization_113 (Bat (None, 32, 32, 64)        256       
_________________________________________________________________
activation_378 (Activation)  (None, 32, 32, 64)        0         
_________________________________________________________________
dropout_378 (Dropout)        (None, 32, 32, 64)        0         
_________________________________________________________________
max_pooling2d_95 (MaxPooling (None, 16, 16, 64)        0         
_________________________________________________________________
separable_conv2d_284 (Separa (None, 16, 16, 256)       17216     
_________________________________________________________________
activation_379 (Activation)  (None, 16, 16, 256)       0         
_________________________________________________________________
dropout_379 (Dropout)        (None, 16, 16, 256)       0         
_________________________________________________________________
flatten_110 (Flatten)        (None, 65536)             0         
_________________________________________________________________
dense_205 (Dense)            (None, 1024)              67109888  
_________________________________________________________________
activation_380 (Activation)  (None, 1024)              0         
_________________________________________________________________
dropout_380 (Dropout)        (None, 1024)              0         
_________________________________________________________________
dense_206 (Dense)            (None, 100)               102500    
=================================================================
Total params: 67,230,143
Trainable params: 67,230,015
Non-trainable params: 128
_________________________________________________________________
