Model: "sequential_298"
_________________________________________________________________
Layer (type)                 Output Shape              Param #   
=================================================================
separable_conv2d_587 (Separa (None, 32, 32, 32)        155       
_________________________________________________________________
activation_859 (Activation)  (None, 32, 32, 32)        0         
_________________________________________________________________
dropout_859 (Dropout)        (None, 32, 32, 32)        0         
_________________________________________________________________
flatten_298 (Flatten)        (None, 32768)             0         
_________________________________________________________________
dense_570 (Dense)            (None, 1024)              33555456  
_________________________________________________________________
activation_860 (Activation)  (None, 1024)              0         
_________________________________________________________________
dropout_860 (Dropout)        (None, 1024)              0         
_________________________________________________________________
dense_571 (Dense)            (None, 100)               102500    
=================================================================
Total params: 33,658,111
Trainable params: 33,658,111
Non-trainable params: 0
_________________________________________________________________
