Model: "sequential_292"
_________________________________________________________________
Layer (type)                 Output Shape              Param #   
=================================================================
separable_conv2d_581 (Separa (None, 32, 32, 32)        155       
_________________________________________________________________
activation_847 (Activation)  (None, 32, 32, 32)        0         
_________________________________________________________________
dropout_847 (Dropout)        (None, 32, 32, 32)        0         
_________________________________________________________________
flatten_292 (Flatten)        (None, 32768)             0         
_________________________________________________________________
dense_558 (Dense)            (None, 1024)              33555456  
_________________________________________________________________
activation_848 (Activation)  (None, 1024)              0         
_________________________________________________________________
dropout_848 (Dropout)        (None, 1024)              0         
_________________________________________________________________
dense_559 (Dense)            (None, 100)               102500    
=================================================================
Total params: 33,658,111
Trainable params: 33,658,111
Non-trainable params: 0
_________________________________________________________________
