Model: "sequential_269"
_________________________________________________________________
Layer (type)                 Output Shape              Param #   
=================================================================
separable_conv2d_558 (Separa (None, 32, 32, 32)        155       
_________________________________________________________________
activation_803 (Activation)  (None, 32, 32, 32)        0         
_________________________________________________________________
dropout_803 (Dropout)        (None, 32, 32, 32)        0         
_________________________________________________________________
flatten_269 (Flatten)        (None, 32768)             0         
_________________________________________________________________
dense_514 (Dense)            (None, 1024)              33555456  
_________________________________________________________________
batch_normalization_174 (Bat (None, 1024)              4096      
_________________________________________________________________
activation_804 (Activation)  (None, 1024)              0         
_________________________________________________________________
dropout_804 (Dropout)        (None, 1024)              0         
_________________________________________________________________
dense_515 (Dense)            (None, 100)               102500    
=================================================================
Total params: 33,662,207
Trainable params: 33,660,159
Non-trainable params: 2,048
_________________________________________________________________
