Model: "sequential_141"
_________________________________________________________________
Layer (type)                 Output Shape              Param #   
=================================================================
separable_conv2d_351 (Separa (None, 32, 32, 64)        283       
_________________________________________________________________
activation_476 (Activation)  (None, 32, 32, 64)        0         
_________________________________________________________________
dropout_476 (Dropout)        (None, 32, 32, 64)        0         
_________________________________________________________________
max_pooling2d_125 (MaxPoolin (None, 16, 16, 64)        0         
_________________________________________________________________
separable_conv2d_352 (Separa (None, 16, 16, 256)       17216     
_________________________________________________________________
activation_477 (Activation)  (None, 16, 16, 256)       0         
_________________________________________________________________
dropout_477 (Dropout)        (None, 16, 16, 256)       0         
_________________________________________________________________
flatten_141 (Flatten)        (None, 65536)             0         
_________________________________________________________________
dense_266 (Dense)            (None, 1024)              67109888  
_________________________________________________________________
activation_478 (Activation)  (None, 1024)              0         
_________________________________________________________________
dropout_478 (Dropout)        (None, 1024)              0         
_________________________________________________________________
dense_267 (Dense)            (None, 100)               102500    
=================================================================
Total params: 67,229,887
Trainable params: 67,229,887
Non-trainable params: 0
_________________________________________________________________
