Model: "sequential_489"
_________________________________________________________________
Layer (type)                 Output Shape              Param #   
=================================================================
separable_conv2d_855 (Separa (None, 32, 32, 256)       1051      
_________________________________________________________________
batch_normalization_232 (Bat (None, 32, 32, 256)       1024      
_________________________________________________________________
activation_1313 (Activation) (None, 32, 32, 256)       0         
_________________________________________________________________
dropout_1313 (Dropout)       (None, 32, 32, 256)       0         
_________________________________________________________________
flatten_489 (Flatten)        (None, 262144)            0         
_________________________________________________________________
dense_947 (Dense)            (None, 100)               26214500  
=================================================================
Total params: 26,216,575
Trainable params: 26,216,063
Non-trainable params: 512
_________________________________________________________________
