Model: "sequential_205"
_________________________________________________________________
Layer (type)                 Output Shape              Param #   
=================================================================
separable_conv2d_476 (Separa (None, 32, 32, 16)        91        
_________________________________________________________________
activation_663 (Activation)  (None, 32, 32, 16)        0         
_________________________________________________________________
dropout_663 (Dropout)        (None, 32, 32, 16)        0         
_________________________________________________________________
max_pooling2d_181 (MaxPoolin (None, 16, 16, 16)        0         
_________________________________________________________________
separable_conv2d_477 (Separa (None, 16, 16, 256)       4496      
_________________________________________________________________
activation_664 (Activation)  (None, 16, 16, 256)       0         
_________________________________________________________________
dropout_664 (Dropout)        (None, 16, 16, 256)       0         
_________________________________________________________________
flatten_205 (Flatten)        (None, 65536)             0         
_________________________________________________________________
dense_392 (Dense)            (None, 1024)              67109888  
_________________________________________________________________
activation_665 (Activation)  (None, 1024)              0         
_________________________________________________________________
dropout_665 (Dropout)        (None, 1024)              0         
_________________________________________________________________
dense_393 (Dense)            (None, 100)               102500    
=================================================================
Total params: 67,216,975
Trainable params: 67,216,975
Non-trainable params: 0
_________________________________________________________________
