Model: "sequential_258"
_________________________________________________________________
Layer (type)                 Output Shape              Param #   
=================================================================
separable_conv2d_547 (Separa (None, 32, 32, 16)        91        
_________________________________________________________________
activation_781 (Activation)  (None, 32, 32, 16)        0         
_________________________________________________________________
dropout_781 (Dropout)        (None, 32, 32, 16)        0         
_________________________________________________________________
max_pooling2d_219 (MaxPoolin (None, 16, 16, 16)        0         
_________________________________________________________________
flatten_258 (Flatten)        (None, 4096)              0         
_________________________________________________________________
dense_492 (Dense)            (None, 128)               524416    
_________________________________________________________________
activation_782 (Activation)  (None, 128)               0         
_________________________________________________________________
dropout_782 (Dropout)        (None, 128)               0         
_________________________________________________________________
dense_493 (Dense)            (None, 100)               12900     
=================================================================
Total params: 537,407
Trainable params: 537,407
Non-trainable params: 0
_________________________________________________________________
