Model: "sequential_150"
_________________________________________________________________
Layer (type)                 Output Shape              Param #   
=================================================================
separable_conv2d_369 (Separa (None, 32, 32, 16)        91        
_________________________________________________________________
activation_503 (Activation)  (None, 32, 32, 16)        0         
_________________________________________________________________
dropout_503 (Dropout)        (None, 32, 32, 16)        0         
_________________________________________________________________
max_pooling2d_134 (MaxPoolin (None, 16, 16, 16)        0         
_________________________________________________________________
separable_conv2d_370 (Separa (None, 16, 16, 256)       4496      
_________________________________________________________________
activation_504 (Activation)  (None, 16, 16, 256)       0         
_________________________________________________________________
dropout_504 (Dropout)        (None, 16, 16, 256)       0         
_________________________________________________________________
flatten_150 (Flatten)        (None, 65536)             0         
_________________________________________________________________
dense_284 (Dense)            (None, 1024)              67109888  
_________________________________________________________________
activation_505 (Activation)  (None, 1024)              0         
_________________________________________________________________
dropout_505 (Dropout)        (None, 1024)              0         
_________________________________________________________________
dense_285 (Dense)            (None, 100)               102500    
=================================================================
Total params: 67,216,975
Trainable params: 67,216,975
Non-trainable params: 0
_________________________________________________________________
