Model: "sequential_255"
_________________________________________________________________
Layer (type)                 Output Shape              Param #   
=================================================================
separable_conv2d_544 (Separa (None, 32, 32, 32)        155       
_________________________________________________________________
activation_776 (Activation)  (None, 32, 32, 32)        0         
_________________________________________________________________
dropout_776 (Dropout)        (None, 32, 32, 32)        0         
_________________________________________________________________
max_pooling2d_216 (MaxPoolin (None, 16, 16, 32)        0         
_________________________________________________________________
flatten_255 (Flatten)        (None, 8192)              0         
_________________________________________________________________
dense_487 (Dense)            (None, 100)               819300    
=================================================================
Total params: 819,455
Trainable params: 819,455
Non-trainable params: 0
_________________________________________________________________
