Model: "sequential_287"
_________________________________________________________________
Layer (type)                 Output Shape              Param #   
=================================================================
separable_conv2d_576 (Separa (None, 32, 32, 32)        155       
_________________________________________________________________
activation_837 (Activation)  (None, 32, 32, 32)        0         
_________________________________________________________________
dropout_837 (Dropout)        (None, 32, 32, 32)        0         
_________________________________________________________________
flatten_287 (Flatten)        (None, 32768)             0         
_________________________________________________________________
dense_548 (Dense)            (None, 1024)              33555456  
_________________________________________________________________
activation_838 (Activation)  (None, 1024)              0         
_________________________________________________________________
dropout_838 (Dropout)        (None, 1024)              0         
_________________________________________________________________
dense_549 (Dense)            (None, 100)               102500    
=================================================================
Total params: 33,658,111
Trainable params: 33,658,111
Non-trainable params: 0
_________________________________________________________________
