Model: "sequential_417"
_________________________________________________________________
Layer (type)                 Output Shape              Param #   
=================================================================
separable_conv2d_734 (Separa (None, 32, 32, 32)        155       
_________________________________________________________________
activation_1123 (Activation) (None, 32, 32, 32)        0         
_________________________________________________________________
dropout_1123 (Dropout)       (None, 32, 32, 32)        0         
_________________________________________________________________
separable_conv2d_735 (Separa (None, 32, 32, 64)        2400      
_________________________________________________________________
activation_1124 (Activation) (None, 32, 32, 64)        0         
_________________________________________________________________
dropout_1124 (Dropout)       (None, 32, 32, 64)        0         
_________________________________________________________________
flatten_417 (Flatten)        (None, 65536)             0         
_________________________________________________________________
dense_806 (Dense)            (None, 1024)              67109888  
_________________________________________________________________
activation_1125 (Activation) (None, 1024)              0         
_________________________________________________________________
dropout_1125 (Dropout)       (None, 1024)              0         
_________________________________________________________________
dense_807 (Dense)            (None, 100)               102500    
=================================================================
Total params: 67,214,943
Trainable params: 67,214,943
Non-trainable params: 0
_________________________________________________________________
