Model: "sequential_412"
_________________________________________________________________
Layer (type)                 Output Shape              Param #   
=================================================================
separable_conv2d_726 (Separa (None, 32, 32, 512)       2075      
_________________________________________________________________
activation_1110 (Activation) (None, 32, 32, 512)       0         
_________________________________________________________________
dropout_1110 (Dropout)       (None, 32, 32, 512)       0         
_________________________________________________________________
flatten_412 (Flatten)        (None, 524288)            0         
_________________________________________________________________
dense_796 (Dense)            (None, 128)               67108992  
_________________________________________________________________
activation_1111 (Activation) (None, 128)               0         
_________________________________________________________________
dropout_1111 (Dropout)       (None, 128)               0         
_________________________________________________________________
dense_797 (Dense)            (None, 100)               12900     
=================================================================
Total params: 67,123,967
Trainable params: 67,123,967
Non-trainable params: 0
_________________________________________________________________
