Model: "sequential_389"
_________________________________________________________________
Layer (type)                 Output Shape              Param #   
=================================================================
separable_conv2d_692 (Separa (None, 32, 32, 256)       1051      
_________________________________________________________________
activation_1053 (Activation) (None, 32, 32, 256)       0         
_________________________________________________________________
dropout_1053 (Dropout)       (None, 32, 32, 256)       0         
_________________________________________________________________
separable_conv2d_693 (Separa (None, 32, 32, 128)       35200     
_________________________________________________________________
activation_1054 (Activation) (None, 32, 32, 128)       0         
_________________________________________________________________
dropout_1054 (Dropout)       (None, 32, 32, 128)       0         
_________________________________________________________________
flatten_389 (Flatten)        (None, 131072)            0         
_________________________________________________________________
dense_750 (Dense)            (None, 128)               16777344  
_________________________________________________________________
activation_1055 (Activation) (None, 128)               0         
_________________________________________________________________
dropout_1055 (Dropout)       (None, 128)               0         
_________________________________________________________________
dense_751 (Dense)            (None, 100)               12900     
=================================================================
Total params: 16,826,495
Trainable params: 16,826,495
Non-trainable params: 0
_________________________________________________________________
