Model: "sequential_383"
_________________________________________________________________
Layer (type)                 Output Shape              Param #   
=================================================================
separable_conv2d_684 (Separa (None, 32, 32, 256)       1051      
_________________________________________________________________
activation_1039 (Activation) (None, 32, 32, 256)       0         
_________________________________________________________________
dropout_1039 (Dropout)       (None, 32, 32, 256)       0         
_________________________________________________________________
separable_conv2d_685 (Separa (None, 32, 32, 128)       35200     
_________________________________________________________________
activation_1040 (Activation) (None, 32, 32, 128)       0         
_________________________________________________________________
dropout_1040 (Dropout)       (None, 32, 32, 128)       0         
_________________________________________________________________
flatten_383 (Flatten)        (None, 131072)            0         
_________________________________________________________________
dense_738 (Dense)            (None, 1024)              134218752 
_________________________________________________________________
activation_1041 (Activation) (None, 1024)              0         
_________________________________________________________________
dropout_1041 (Dropout)       (None, 1024)              0         
_________________________________________________________________
dense_739 (Dense)            (None, 100)               102500    
=================================================================
Total params: 134,357,503
Trainable params: 134,357,503
Non-trainable params: 0
_________________________________________________________________
