Model: "sequential_73"
_________________________________________________________________
Layer (type)                 Output Shape              Param #   
=================================================================
separable_conv2d_179 (Separa (None, 32, 32, 32)        155       
_________________________________________________________________
batch_normalization_71 (Batc (None, 32, 32, 32)        128       
_________________________________________________________________
activation_238 (Activation)  (None, 32, 32, 32)        0         
_________________________________________________________________
dropout_238 (Dropout)        (None, 32, 32, 32)        0         
_________________________________________________________________
max_pooling2d_59 (MaxPooling (None, 16, 16, 32)        0         
_________________________________________________________________
separable_conv2d_180 (Separa (None, 16, 16, 256)       8736      
_________________________________________________________________
activation_239 (Activation)  (None, 16, 16, 256)       0         
_________________________________________________________________
dropout_239 (Dropout)        (None, 16, 16, 256)       0         
_________________________________________________________________
separable_conv2d_181 (Separa (None, 16, 16, 32)        10528     
_________________________________________________________________
activation_240 (Activation)  (None, 16, 16, 32)        0         
_________________________________________________________________
dropout_240 (Dropout)        (None, 16, 16, 32)        0         
_________________________________________________________________
separable_conv2d_182 (Separa (None, 16, 16, 128)       4512      
_________________________________________________________________
activation_241 (Activation)  (None, 16, 16, 128)       0         
_________________________________________________________________
dropout_241 (Dropout)        (None, 16, 16, 128)       0         
_________________________________________________________________
flatten_73 (Flatten)         (None, 32768)             0         
_________________________________________________________________
dense_132 (Dense)            (None, 256)               8388864   
_________________________________________________________________
activation_242 (Activation)  (None, 256)               0         
_________________________________________________________________
dropout_242 (Dropout)        (None, 256)               0         
_________________________________________________________________
dense_133 (Dense)            (None, 100)               25700     
=================================================================
Total params: 8,438,623
Trainable params: 8,438,559
Non-trainable params: 64
_________________________________________________________________
