Model: "sequential_491"
_________________________________________________________________
Layer (type)                 Output Shape              Param #   
=================================================================
separable_conv2d_858 (Separa (None, 32, 32, 32)        155       
_________________________________________________________________
activation_1316 (Activation) (None, 32, 32, 32)        0         
_________________________________________________________________
dropout_1316 (Dropout)       (None, 32, 32, 32)        0         
_________________________________________________________________
separable_conv2d_859 (Separa (None, 32, 32, 16)        816       
_________________________________________________________________
batch_normalization_233 (Bat (None, 32, 32, 16)        64        
_________________________________________________________________
activation_1317 (Activation) (None, 32, 32, 16)        0         
_________________________________________________________________
dropout_1317 (Dropout)       (None, 32, 32, 16)        0         
_________________________________________________________________
flatten_491 (Flatten)        (None, 16384)             0         
_________________________________________________________________
dense_949 (Dense)            (None, 1024)              16778240  
_________________________________________________________________
activation_1318 (Activation) (None, 1024)              0         
_________________________________________________________________
dropout_1318 (Dropout)       (None, 1024)              0         
_________________________________________________________________
dense_950 (Dense)            (None, 100)               102500    
=================================================================
Total params: 16,881,775
Trainable params: 16,881,743
Non-trainable params: 32
_________________________________________________________________
