Model: "sequential_33"
_________________________________________________________________
Layer (type)                 Output Shape              Param #   
=================================================================
separable_conv2d_66 (Separab (None, 32, 32, 64)        283       
_________________________________________________________________
batch_normalization_33 (Batc (None, 32, 32, 64)        256       
_________________________________________________________________
activation_87 (Activation)   (None, 32, 32, 64)        0         
_________________________________________________________________
dropout_87 (Dropout)         (None, 32, 32, 64)        0         
_________________________________________________________________
max_pooling2d_24 (MaxPooling (None, 16, 16, 64)        0         
_________________________________________________________________
separable_conv2d_67 (Separab (None, 16, 16, 8)         1096      
_________________________________________________________________
activation_88 (Activation)   (None, 16, 16, 8)         0         
_________________________________________________________________
dropout_88 (Dropout)         (None, 16, 16, 8)         0         
_________________________________________________________________
flatten_33 (Flatten)         (None, 2048)              0         
_________________________________________________________________
dense_54 (Dense)             (None, 100)               204900    
=================================================================
Total params: 206,535
Trainable params: 206,407
Non-trainable params: 128
_________________________________________________________________
