Model: "sequential_285"
_________________________________________________________________
Layer (type)                 Output Shape              Param #   
=================================================================
separable_conv2d_574 (Separa (None, 32, 32, 32)        155       
_________________________________________________________________
activation_833 (Activation)  (None, 32, 32, 32)        0         
_________________________________________________________________
dropout_833 (Dropout)        (None, 32, 32, 32)        0         
_________________________________________________________________
flatten_285 (Flatten)        (None, 32768)             0         
_________________________________________________________________
dense_544 (Dense)            (None, 128)               4194432   
_________________________________________________________________
activation_834 (Activation)  (None, 128)               0         
_________________________________________________________________
dropout_834 (Dropout)        (None, 128)               0         
_________________________________________________________________
dense_545 (Dense)            (None, 100)               12900     
=================================================================
Total params: 4,207,487
Trainable params: 4,207,487
Non-trainable params: 0
_________________________________________________________________
