Model: "sequential_151"
_________________________________________________________________
Layer (type)                 Output Shape              Param #   
=================================================================
separable_conv2d_371 (Separa (None, 32, 32, 16)        91        
_________________________________________________________________
activation_506 (Activation)  (None, 32, 32, 16)        0         
_________________________________________________________________
dropout_506 (Dropout)        (None, 32, 32, 16)        0         
_________________________________________________________________
max_pooling2d_135 (MaxPoolin (None, 16, 16, 16)        0         
_________________________________________________________________
separable_conv2d_372 (Separa (None, 16, 16, 256)       4496      
_________________________________________________________________
activation_507 (Activation)  (None, 16, 16, 256)       0         
_________________________________________________________________
dropout_507 (Dropout)        (None, 16, 16, 256)       0         
_________________________________________________________________
flatten_151 (Flatten)        (None, 65536)             0         
_________________________________________________________________
dense_286 (Dense)            (None, 1024)              67109888  
_________________________________________________________________
activation_508 (Activation)  (None, 1024)              0         
_________________________________________________________________
dropout_508 (Dropout)        (None, 1024)              0         
_________________________________________________________________
dense_287 (Dense)            (None, 100)               102500    
=================================================================
Total params: 67,216,975
Trainable params: 67,216,975
Non-trainable params: 0
_________________________________________________________________
