Model: "sequential_192"
_________________________________________________________________
Layer (type)                 Output Shape              Param #   
=================================================================
separable_conv2d_452 (Separa (None, 32, 32, 128)       539       
_________________________________________________________________
batch_normalization_157 (Bat (None, 32, 32, 128)       512       
_________________________________________________________________
activation_627 (Activation)  (None, 32, 32, 128)       0         
_________________________________________________________________
dropout_627 (Dropout)        (None, 32, 32, 128)       0         
_________________________________________________________________
max_pooling2d_171 (MaxPoolin (None, 16, 16, 128)       0         
_________________________________________________________________
separable_conv2d_453 (Separa (None, 16, 16, 256)       34176     
_________________________________________________________________
activation_628 (Activation)  (None, 16, 16, 256)       0         
_________________________________________________________________
dropout_628 (Dropout)        (None, 16, 16, 256)       0         
_________________________________________________________________
flatten_192 (Flatten)        (None, 65536)             0         
_________________________________________________________________
dense_367 (Dense)            (None, 1024)              67109888  
_________________________________________________________________
activation_629 (Activation)  (None, 1024)              0         
_________________________________________________________________
dropout_629 (Dropout)        (None, 1024)              0         
_________________________________________________________________
dense_368 (Dense)            (None, 100)               102500    
=================================================================
Total params: 67,247,615
Trainable params: 67,247,359
Non-trainable params: 256
_________________________________________________________________
