Model: "sequential_211"
_________________________________________________________________
Layer (type)                 Output Shape              Param #   
=================================================================
separable_conv2d_487 (Separa (None, 32, 32, 128)       539       
_________________________________________________________________
batch_normalization_163 (Bat (None, 32, 32, 128)       512       
_________________________________________________________________
activation_680 (Activation)  (None, 32, 32, 128)       0         
_________________________________________________________________
dropout_680 (Dropout)        (None, 32, 32, 128)       0         
_________________________________________________________________
max_pooling2d_185 (MaxPoolin (None, 16, 16, 128)       0         
_________________________________________________________________
flatten_211 (Flatten)        (None, 32768)             0         
_________________________________________________________________
dense_404 (Dense)            (None, 1024)              33555456  
_________________________________________________________________
activation_681 (Activation)  (None, 1024)              0         
_________________________________________________________________
dropout_681 (Dropout)        (None, 1024)              0         
_________________________________________________________________
dense_405 (Dense)            (None, 100)               102500    
=================================================================
Total params: 33,659,007
Trainable params: 33,658,751
Non-trainable params: 256
_________________________________________________________________
