Model: "sequential_392"
_________________________________________________________________
Layer (type)                 Output Shape              Param #   
=================================================================
separable_conv2d_697 (Separa (None, 32, 32, 128)       539       
_________________________________________________________________
batch_normalization_191 (Bat (None, 32, 32, 128)       512       
_________________________________________________________________
activation_1061 (Activation) (None, 32, 32, 128)       0         
_________________________________________________________________
dropout_1061 (Dropout)       (None, 32, 32, 128)       0         
_________________________________________________________________
flatten_392 (Flatten)        (None, 131072)            0         
_________________________________________________________________
dense_756 (Dense)            (None, 512)               67109376  
_________________________________________________________________
activation_1062 (Activation) (None, 512)               0         
_________________________________________________________________
dropout_1062 (Dropout)       (None, 512)               0         
_________________________________________________________________
dense_757 (Dense)            (None, 100)               51300     
=================================================================
Total params: 67,161,727
Trainable params: 67,161,471
Non-trainable params: 256
_________________________________________________________________
