Model: "sequential_361"
_________________________________________________________________
Layer (type)                 Output Shape              Param #   
=================================================================
separable_conv2d_654 (Separa (None, 32, 32, 256)       1051      
_________________________________________________________________
activation_987 (Activation)  (None, 32, 32, 256)       0         
_________________________________________________________________
dropout_987 (Dropout)        (None, 32, 32, 256)       0         
_________________________________________________________________
separable_conv2d_655 (Separa (None, 32, 32, 128)       35200     
_________________________________________________________________
activation_988 (Activation)  (None, 32, 32, 128)       0         
_________________________________________________________________
dropout_988 (Dropout)        (None, 32, 32, 128)       0         
_________________________________________________________________
flatten_361 (Flatten)        (None, 131072)            0         
_________________________________________________________________
dense_694 (Dense)            (None, 1024)              134218752 
_________________________________________________________________
activation_989 (Activation)  (None, 1024)              0         
_________________________________________________________________
dropout_989 (Dropout)        (None, 1024)              0         
_________________________________________________________________
dense_695 (Dense)            (None, 100)               102500    
=================================================================
Total params: 134,357,503
Trainable params: 134,357,503
Non-trainable params: 0
_________________________________________________________________
