Model: "sequential_439"
_________________________________________________________________
Layer (type)                 Output Shape              Param #   
=================================================================
separable_conv2d_769 (Separa (None, 32, 32, 256)       1051      
_________________________________________________________________
batch_normalization_206 (Bat (None, 32, 32, 256)       1024      
_________________________________________________________________
activation_1180 (Activation) (None, 32, 32, 256)       0         
_________________________________________________________________
dropout_1180 (Dropout)       (None, 32, 32, 256)       0         
_________________________________________________________________
separable_conv2d_770 (Separa (None, 32, 32, 128)       35200     
_________________________________________________________________
activation_1181 (Activation) (None, 32, 32, 128)       0         
_________________________________________________________________
dropout_1181 (Dropout)       (None, 32, 32, 128)       0         
_________________________________________________________________
flatten_439 (Flatten)        (None, 131072)            0         
_________________________________________________________________
dense_850 (Dense)            (None, 1024)              134218752 
_________________________________________________________________
activation_1182 (Activation) (None, 1024)              0         
_________________________________________________________________
dropout_1182 (Dropout)       (None, 1024)              0         
_________________________________________________________________
dense_851 (Dense)            (None, 100)               102500    
=================================================================
Total params: 134,358,527
Trainable params: 134,358,015
Non-trainable params: 512
_________________________________________________________________
