Model: "sequential_375"
_________________________________________________________________
Layer (type)                 Output Shape              Param #   
=================================================================
separable_conv2d_673 (Separa (None, 32, 32, 32)        155       
_________________________________________________________________
activation_1020 (Activation) (None, 32, 32, 32)        0         
_________________________________________________________________
dropout_1020 (Dropout)       (None, 32, 32, 32)        0         
_________________________________________________________________
flatten_375 (Flatten)        (None, 32768)             0         
_________________________________________________________________
dense_722 (Dense)            (None, 128)               4194432   
_________________________________________________________________
activation_1021 (Activation) (None, 128)               0         
_________________________________________________________________
dropout_1021 (Dropout)       (None, 128)               0         
_________________________________________________________________
dense_723 (Dense)            (None, 100)               12900     
=================================================================
Total params: 4,207,487
Trainable params: 4,207,487
Non-trainable params: 0
_________________________________________________________________
