Model: "sequential_57"
_________________________________________________________________
Layer (type)                 Output Shape              Param #   
=================================================================
separable_conv2d_134 (Separa (None, 32, 32, 32)        155       
_________________________________________________________________
batch_normalization_58 (Batc (None, 32, 32, 32)        128       
_________________________________________________________________
activation_177 (Activation)  (None, 32, 32, 32)        0         
_________________________________________________________________
dropout_177 (Dropout)        (None, 32, 32, 32)        0         
_________________________________________________________________
max_pooling2d_45 (MaxPooling (None, 16, 16, 32)        0         
_________________________________________________________________
separable_conv2d_135 (Separa (None, 16, 16, 64)        2400      
_________________________________________________________________
activation_178 (Activation)  (None, 16, 16, 64)        0         
_________________________________________________________________
dropout_178 (Dropout)        (None, 16, 16, 64)        0         
_________________________________________________________________
separable_conv2d_136 (Separa (None, 16, 16, 128)       8896      
_________________________________________________________________
activation_179 (Activation)  (None, 16, 16, 128)       0         
_________________________________________________________________
dropout_179 (Dropout)        (None, 16, 16, 128)       0         
_________________________________________________________________
flatten_57 (Flatten)         (None, 32768)             0         
_________________________________________________________________
dense_100 (Dense)            (None, 256)               8388864   
_________________________________________________________________
activation_180 (Activation)  (None, 256)               0         
_________________________________________________________________
dropout_180 (Dropout)        (None, 256)               0         
_________________________________________________________________
dense_101 (Dense)            (None, 100)               25700     
=================================================================
Total params: 8,426,143
Trainable params: 8,426,079
Non-trainable params: 64
_________________________________________________________________
