Model: "sequential_282"
_________________________________________________________________
Layer (type)                 Output Shape              Param #   
=================================================================
separable_conv2d_571 (Separa (None, 32, 32, 32)        155       
_________________________________________________________________
activation_828 (Activation)  (None, 32, 32, 32)        0         
_________________________________________________________________
dropout_828 (Dropout)        (None, 32, 32, 32)        0         
_________________________________________________________________
flatten_282 (Flatten)        (None, 32768)             0         
_________________________________________________________________
dense_539 (Dense)            (None, 128)               4194432   
_________________________________________________________________
activation_829 (Activation)  (None, 128)               0         
_________________________________________________________________
dropout_829 (Dropout)        (None, 128)               0         
_________________________________________________________________
dense_540 (Dense)            (None, 100)               12900     
=================================================================
Total params: 4,207,487
Trainable params: 4,207,487
Non-trainable params: 0
_________________________________________________________________
