Model: "sequential_219"
_________________________________________________________________
Layer (type)                 Output Shape              Param #   
=================================================================
separable_conv2d_500 (Separa (None, 32, 32, 128)       539       
_________________________________________________________________
batch_normalization_165 (Bat (None, 32, 32, 128)       512       
_________________________________________________________________
activation_701 (Activation)  (None, 32, 32, 128)       0         
_________________________________________________________________
dropout_701 (Dropout)        (None, 32, 32, 128)       0         
_________________________________________________________________
flatten_219 (Flatten)        (None, 131072)            0         
_________________________________________________________________
dense_420 (Dense)            (None, 1024)              134218752 
_________________________________________________________________
activation_702 (Activation)  (None, 1024)              0         
_________________________________________________________________
dropout_702 (Dropout)        (None, 1024)              0         
_________________________________________________________________
dense_421 (Dense)            (None, 100)               102500    
=================================================================
Total params: 134,322,303
Trainable params: 134,322,047
Non-trainable params: 256
_________________________________________________________________
