Model: "sequential_257"
_________________________________________________________________
Layer (type)                 Output Shape              Param #   
=================================================================
separable_conv2d_546 (Separa (None, 32, 32, 32)        155       
_________________________________________________________________
activation_779 (Activation)  (None, 32, 32, 32)        0         
_________________________________________________________________
dropout_779 (Dropout)        (None, 32, 32, 32)        0         
_________________________________________________________________
max_pooling2d_218 (MaxPoolin (None, 16, 16, 32)        0         
_________________________________________________________________
flatten_257 (Flatten)        (None, 8192)              0         
_________________________________________________________________
dense_490 (Dense)            (None, 1024)              8389632   
_________________________________________________________________
activation_780 (Activation)  (None, 1024)              0         
_________________________________________________________________
dropout_780 (Dropout)        (None, 1024)              0         
_________________________________________________________________
dense_491 (Dense)            (None, 100)               102500    
=================================================================
Total params: 8,492,287
Trainable params: 8,492,287
Non-trainable params: 0
_________________________________________________________________
