Model: "sequential_77"
_________________________________________________________________
Layer (type)                 Output Shape              Param #   
=================================================================
separable_conv2d_193 (Separa (None, 32, 32, 64)        283       
_________________________________________________________________
batch_normalization_74 (Batc (None, 32, 32, 64)        256       
_________________________________________________________________
activation_256 (Activation)  (None, 32, 32, 64)        0         
_________________________________________________________________
dropout_256 (Dropout)        (None, 32, 32, 64)        0         
_________________________________________________________________
max_pooling2d_63 (MaxPooling (None, 16, 16, 64)        0         
_________________________________________________________________
separable_conv2d_194 (Separa (None, 16, 16, 64)        4736      
_________________________________________________________________
activation_257 (Activation)  (None, 16, 16, 64)        0         
_________________________________________________________________
dropout_257 (Dropout)        (None, 16, 16, 64)        0         
_________________________________________________________________
separable_conv2d_195 (Separa (None, 16, 16, 32)        2656      
_________________________________________________________________
activation_258 (Activation)  (None, 16, 16, 32)        0         
_________________________________________________________________
dropout_258 (Dropout)        (None, 16, 16, 32)        0         
_________________________________________________________________
separable_conv2d_196 (Separa (None, 16, 16, 128)       4512      
_________________________________________________________________
activation_259 (Activation)  (None, 16, 16, 128)       0         
_________________________________________________________________
dropout_259 (Dropout)        (None, 16, 16, 128)       0         
_________________________________________________________________
flatten_77 (Flatten)         (None, 32768)             0         
_________________________________________________________________
dense_140 (Dense)            (None, 256)               8388864   
_________________________________________________________________
activation_260 (Activation)  (None, 256)               0         
_________________________________________________________________
dropout_260 (Dropout)        (None, 256)               0         
_________________________________________________________________
dense_141 (Dense)            (None, 100)               25700     
=================================================================
Total params: 8,427,007
Trainable params: 8,426,879
Non-trainable params: 128
_________________________________________________________________
