Model: "sequential_399"
_________________________________________________________________
Layer (type)                 Output Shape              Param #   
=================================================================
separable_conv2d_705 (Separa (None, 32, 32, 32)        155       
_________________________________________________________________
activation_1076 (Activation) (None, 32, 32, 32)        0         
_________________________________________________________________
dropout_1076 (Dropout)       (None, 32, 32, 32)        0         
_________________________________________________________________
separable_conv2d_706 (Separa (None, 32, 32, 512)       17184     
_________________________________________________________________
activation_1077 (Activation) (None, 32, 32, 512)       0         
_________________________________________________________________
dropout_1077 (Dropout)       (None, 32, 32, 512)       0         
_________________________________________________________________
flatten_399 (Flatten)        (None, 524288)            0         
_________________________________________________________________
dense_770 (Dense)            (None, 128)               67108992  
_________________________________________________________________
activation_1078 (Activation) (None, 128)               0         
_________________________________________________________________
dropout_1078 (Dropout)       (None, 128)               0         
_________________________________________________________________
dense_771 (Dense)            (None, 100)               12900     
=================================================================
Total params: 67,139,231
Trainable params: 67,139,231
Non-trainable params: 0
_________________________________________________________________
