Model: "sequential_404"
_________________________________________________________________
Layer (type)                 Output Shape              Param #   
=================================================================
separable_conv2d_714 (Separa (None, 32, 32, 512)       2075      
_________________________________________________________________
activation_1090 (Activation) (None, 32, 32, 512)       0         
_________________________________________________________________
dropout_1090 (Dropout)       (None, 32, 32, 512)       0         
_________________________________________________________________
flatten_404 (Flatten)        (None, 524288)            0         
_________________________________________________________________
dense_780 (Dense)            (None, 128)               67108992  
_________________________________________________________________
activation_1091 (Activation) (None, 128)               0         
_________________________________________________________________
dropout_1091 (Dropout)       (None, 128)               0         
_________________________________________________________________
dense_781 (Dense)            (None, 100)               12900     
=================================================================
Total params: 67,123,967
Trainable params: 67,123,967
Non-trainable params: 0
_________________________________________________________________
