Model: "sequential_483"
_________________________________________________________________
Layer (type)                 Output Shape              Param #   
=================================================================
separable_conv2d_844 (Separa (None, 32, 32, 32)        155       
_________________________________________________________________
activation_1297 (Activation) (None, 32, 32, 32)        0         
_________________________________________________________________
dropout_1297 (Dropout)       (None, 32, 32, 32)        0         
_________________________________________________________________
separable_conv2d_845 (Separa (None, 32, 32, 16)        816       
_________________________________________________________________
activation_1298 (Activation) (None, 32, 32, 16)        0         
_________________________________________________________________
dropout_1298 (Dropout)       (None, 32, 32, 16)        0         
_________________________________________________________________
flatten_483 (Flatten)        (None, 16384)             0         
_________________________________________________________________
dense_936 (Dense)            (None, 1024)              16778240  
_________________________________________________________________
activation_1299 (Activation) (None, 1024)              0         
_________________________________________________________________
dropout_1299 (Dropout)       (None, 1024)              0         
_________________________________________________________________
dense_937 (Dense)            (None, 100)               102500    
=================================================================
Total params: 16,881,711
Trainable params: 16,881,711
Non-trainable params: 0
_________________________________________________________________
