Model: "sequential_391"
_________________________________________________________________
Layer (type)                 Output Shape              Param #   
=================================================================
separable_conv2d_696 (Separa (None, 32, 32, 256)       1051      
_________________________________________________________________
activation_1059 (Activation) (None, 32, 32, 256)       0         
_________________________________________________________________
dropout_1059 (Dropout)       (None, 32, 32, 256)       0         
_________________________________________________________________
flatten_391 (Flatten)        (None, 262144)            0         
_________________________________________________________________
dense_754 (Dense)            (None, 128)               33554560  
_________________________________________________________________
activation_1060 (Activation) (None, 128)               0         
_________________________________________________________________
dropout_1060 (Dropout)       (None, 128)               0         
_________________________________________________________________
dense_755 (Dense)            (None, 100)               12900     
=================================================================
Total params: 33,568,511
Trainable params: 33,568,511
Non-trainable params: 0
_________________________________________________________________
