Model: "sequential_478"
_________________________________________________________________
Layer (type)                 Output Shape              Param #   
=================================================================
separable_conv2d_835 (Separa (None, 32, 32, 32)        155       
_________________________________________________________________
activation_1283 (Activation) (None, 32, 32, 32)        0         
_________________________________________________________________
dropout_1283 (Dropout)       (None, 32, 32, 32)        0         
_________________________________________________________________
separable_conv2d_836 (Separa (None, 32, 32, 16)        816       
_________________________________________________________________
activation_1284 (Activation) (None, 32, 32, 16)        0         
_________________________________________________________________
dropout_1284 (Dropout)       (None, 32, 32, 16)        0         
_________________________________________________________________
flatten_478 (Flatten)        (None, 16384)             0         
_________________________________________________________________
dense_926 (Dense)            (None, 1024)              16778240  
_________________________________________________________________
activation_1285 (Activation) (None, 1024)              0         
_________________________________________________________________
dropout_1285 (Dropout)       (None, 1024)              0         
_________________________________________________________________
dense_927 (Dense)            (None, 100)               102500    
=================================================================
Total params: 16,881,711
Trainable params: 16,881,711
Non-trainable params: 0
_________________________________________________________________
