Model: "sequential_376"
_________________________________________________________________
Layer (type)                 Output Shape              Param #   
=================================================================
separable_conv2d_674 (Separa (None, 32, 32, 256)       1051      
_________________________________________________________________
activation_1022 (Activation) (None, 32, 32, 256)       0         
_________________________________________________________________
dropout_1022 (Dropout)       (None, 32, 32, 256)       0         
_________________________________________________________________
separable_conv2d_675 (Separa (None, 32, 32, 128)       35200     
_________________________________________________________________
activation_1023 (Activation) (None, 32, 32, 128)       0         
_________________________________________________________________
dropout_1023 (Dropout)       (None, 32, 32, 128)       0         
_________________________________________________________________
flatten_376 (Flatten)        (None, 131072)            0         
_________________________________________________________________
dense_724 (Dense)            (None, 1024)              134218752 
_________________________________________________________________
activation_1024 (Activation) (None, 1024)              0         
_________________________________________________________________
dropout_1024 (Dropout)       (None, 1024)              0         
_________________________________________________________________
dense_725 (Dense)            (None, 100)               102500    
=================================================================
Total params: 134,357,503
Trainable params: 134,357,503
Non-trainable params: 0
_________________________________________________________________
