Model: "sequential_339"
_________________________________________________________________
Layer (type)                 Output Shape              Param #   
=================================================================
separable_conv2d_629 (Separa (None, 32, 32, 64)        283       
_________________________________________________________________
activation_941 (Activation)  (None, 32, 32, 64)        0         
_________________________________________________________________
dropout_941 (Dropout)        (None, 32, 32, 64)        0         
_________________________________________________________________
flatten_339 (Flatten)        (None, 65536)             0         
_________________________________________________________________
dense_651 (Dense)            (None, 128)               8388736   
_________________________________________________________________
activation_942 (Activation)  (None, 128)               0         
_________________________________________________________________
dropout_942 (Dropout)        (None, 128)               0         
_________________________________________________________________
dense_652 (Dense)            (None, 100)               12900     
=================================================================
Total params: 8,401,919
Trainable params: 8,401,919
Non-trainable params: 0
_________________________________________________________________
