Model: "sequential_476"
_________________________________________________________________
Layer (type)                 Output Shape              Param #   
=================================================================
separable_conv2d_833 (Separa (None, 32, 32, 64)        283       
_________________________________________________________________
activation_1279 (Activation) (None, 32, 32, 64)        0         
_________________________________________________________________
dropout_1279 (Dropout)       (None, 32, 32, 64)        0         
_________________________________________________________________
flatten_476 (Flatten)        (None, 65536)             0         
_________________________________________________________________
dense_922 (Dense)            (None, 32)                2097184   
_________________________________________________________________
batch_normalization_226 (Bat (None, 32)                128       
_________________________________________________________________
activation_1280 (Activation) (None, 32)                0         
_________________________________________________________________
dropout_1280 (Dropout)       (None, 32)                0         
_________________________________________________________________
dense_923 (Dense)            (None, 100)               3300      
=================================================================
Total params: 2,100,895
Trainable params: 2,100,831
Non-trainable params: 64
_________________________________________________________________
