Model: "sequential_83"
_________________________________________________________________
Layer (type)                 Output Shape              Param #   
=================================================================
separable_conv2d_211 (Separa (None, 32, 32, 64)        283       
_________________________________________________________________
batch_normalization_82 (Batc (None, 32, 32, 64)        256       
_________________________________________________________________
activation_280 (Activation)  (None, 32, 32, 64)        0         
_________________________________________________________________
dropout_280 (Dropout)        (None, 32, 32, 64)        0         
_________________________________________________________________
max_pooling2d_69 (MaxPooling (None, 16, 16, 64)        0         
_________________________________________________________________
separable_conv2d_212 (Separa (None, 16, 16, 64)        4736      
_________________________________________________________________
activation_281 (Activation)  (None, 16, 16, 64)        0         
_________________________________________________________________
dropout_281 (Dropout)        (None, 16, 16, 64)        0         
_________________________________________________________________
flatten_83 (Flatten)         (None, 16384)             0         
_________________________________________________________________
dense_152 (Dense)            (None, 256)               4194560   
_________________________________________________________________
activation_282 (Activation)  (None, 256)               0         
_________________________________________________________________
dropout_282 (Dropout)        (None, 256)               0         
_________________________________________________________________
dense_153 (Dense)            (None, 100)               25700     
=================================================================
Total params: 4,225,535
Trainable params: 4,225,407
Non-trainable params: 128
_________________________________________________________________
