Model: "sequential_19"
_________________________________________________________________
Layer (type)                 Output Shape              Param #   
=================================================================
separable_conv2d_38 (Separab (None, 32, 32, 16)        91        
_________________________________________________________________
batch_normalization_19 (Batc (None, 32, 32, 16)        64        
_________________________________________________________________
activation_50 (Activation)   (None, 32, 32, 16)        0         
_________________________________________________________________
dropout_50 (Dropout)         (None, 32, 32, 16)        0         
_________________________________________________________________
max_pooling2d_15 (MaxPooling (None, 16, 16, 16)        0         
_________________________________________________________________
separable_conv2d_39 (Separab (None, 16, 16, 512)       8848      
_________________________________________________________________
activation_51 (Activation)   (None, 16, 16, 512)       0         
_________________________________________________________________
dropout_51 (Dropout)         (None, 16, 16, 512)       0         
_________________________________________________________________
separable_conv2d_40 (Separab (None, 16, 16, 32)        21024     
_________________________________________________________________
activation_52 (Activation)   (None, 16, 16, 32)        0         
_________________________________________________________________
dropout_52 (Dropout)         (None, 16, 16, 32)        0         
_________________________________________________________________
flatten_19 (Flatten)         (None, 8192)              0         
_________________________________________________________________
dense_31 (Dense)             (None, 16)                131088    
_________________________________________________________________
activation_53 (Activation)   (None, 16)                0         
_________________________________________________________________
dropout_53 (Dropout)         (None, 16)                0         
_________________________________________________________________
dense_32 (Dense)             (None, 100)               1700      
=================================================================
Total params: 162,815
Trainable params: 162,783
Non-trainable params: 32
_________________________________________________________________
