Model: "sequential_13"
_________________________________________________________________
Layer (type)                 Output Shape              Param #   
=================================================================
separable_conv2d_27 (Separab (None, 32, 32, 32)        155       
_________________________________________________________________
batch_normalization_14 (Batc (None, 32, 32, 32)        128       
_________________________________________________________________
activation_35 (Activation)   (None, 32, 32, 32)        0         
_________________________________________________________________
dropout_35 (Dropout)         (None, 32, 32, 32)        0         
_________________________________________________________________
max_pooling2d_11 (MaxPooling (None, 16, 16, 32)        0         
_________________________________________________________________
separable_conv2d_28 (Separab (None, 16, 16, 8)         552       
_________________________________________________________________
activation_36 (Activation)   (None, 16, 16, 8)         0         
_________________________________________________________________
dropout_36 (Dropout)         (None, 16, 16, 8)         0         
_________________________________________________________________
flatten_13 (Flatten)         (None, 2048)              0         
_________________________________________________________________
dense_21 (Dense)             (None, 100)               204900    
=================================================================
Total params: 205,735
Trainable params: 205,671
Non-trainable params: 64
_________________________________________________________________
