Model: "sequential_23"
_________________________________________________________________
Layer (type)                 Output Shape              Param #   
=================================================================
separable_conv2d_47 (Separab (None, 32, 32, 32)        155       
_________________________________________________________________
batch_normalization_23 (Batc (None, 32, 32, 32)        128       
_________________________________________________________________
activation_63 (Activation)   (None, 32, 32, 32)        0         
_________________________________________________________________
dropout_63 (Dropout)         (None, 32, 32, 32)        0         
_________________________________________________________________
max_pooling2d_18 (MaxPooling (None, 16, 16, 32)        0         
_________________________________________________________________
separable_conv2d_48 (Separab (None, 16, 16, 8)         552       
_________________________________________________________________
activation_64 (Activation)   (None, 16, 16, 8)         0         
_________________________________________________________________
dropout_64 (Dropout)         (None, 16, 16, 8)         0         
_________________________________________________________________
flatten_23 (Flatten)         (None, 2048)              0         
_________________________________________________________________
dense_39 (Dense)             (None, 100)               204900    
=================================================================
Total params: 205,735
Trainable params: 205,671
Non-trainable params: 64
_________________________________________________________________
