Model: "sequential_239"
_________________________________________________________________
Layer (type)                 Output Shape              Param #   
=================================================================
separable_conv2d_526 (Separa (None, 32, 32, 32)        155       
_________________________________________________________________
activation_746 (Activation)  (None, 32, 32, 32)        0         
_________________________________________________________________
dropout_746 (Dropout)        (None, 32, 32, 32)        0         
_________________________________________________________________
max_pooling2d_203 (MaxPoolin (None, 16, 16, 32)        0         
_________________________________________________________________
flatten_239 (Flatten)        (None, 8192)              0         
_________________________________________________________________
dense_459 (Dense)            (None, 1024)              8389632   
_________________________________________________________________
activation_747 (Activation)  (None, 1024)              0         
_________________________________________________________________
dropout_747 (Dropout)        (None, 1024)              0         
_________________________________________________________________
dense_460 (Dense)            (None, 100)               102500    
=================================================================
Total params: 8,492,287
Trainable params: 8,492,287
Non-trainable params: 0
_________________________________________________________________
