Model: "sequential_475"
_________________________________________________________________
Layer (type)                 Output Shape              Param #   
=================================================================
separable_conv2d_832 (Separa (None, 32, 32, 32)        155       
_________________________________________________________________
activation_1277 (Activation) (None, 32, 32, 32)        0         
_________________________________________________________________
dropout_1277 (Dropout)       (None, 32, 32, 32)        0         
_________________________________________________________________
flatten_475 (Flatten)        (None, 32768)             0         
_________________________________________________________________
dense_920 (Dense)            (None, 128)               4194432   
_________________________________________________________________
batch_normalization_225 (Bat (None, 128)               512       
_________________________________________________________________
activation_1278 (Activation) (None, 128)               0         
_________________________________________________________________
dropout_1278 (Dropout)       (None, 128)               0         
_________________________________________________________________
dense_921 (Dense)            (None, 100)               12900     
=================================================================
Total params: 4,207,999
Trainable params: 4,207,743
Non-trainable params: 256
_________________________________________________________________
