Model: "sequential_432"
_________________________________________________________________
Layer (type)                 Output Shape              Param #   
=================================================================
separable_conv2d_757 (Separa (None, 32, 32, 32)        155       
_________________________________________________________________
activation_1161 (Activation) (None, 32, 32, 32)        0         
_________________________________________________________________
dropout_1161 (Dropout)       (None, 32, 32, 32)        0         
_________________________________________________________________
flatten_432 (Flatten)        (None, 32768)             0         
_________________________________________________________________
dense_836 (Dense)            (None, 256)               8388864   
_________________________________________________________________
batch_normalization_205 (Bat (None, 256)               1024      
_________________________________________________________________
activation_1162 (Activation) (None, 256)               0         
_________________________________________________________________
dropout_1162 (Dropout)       (None, 256)               0         
_________________________________________________________________
dense_837 (Dense)            (None, 100)               25700     
=================================================================
Total params: 8,415,743
Trainable params: 8,415,231
Non-trainable params: 512
_________________________________________________________________
