Model: "sequential_336"
_________________________________________________________________
Layer (type)                 Output Shape              Param #   
=================================================================
separable_conv2d_626 (Separa (None, 32, 32, 64)        283       
_________________________________________________________________
activation_935 (Activation)  (None, 32, 32, 64)        0         
_________________________________________________________________
dropout_935 (Dropout)        (None, 32, 32, 64)        0         
_________________________________________________________________
flatten_336 (Flatten)        (None, 65536)             0         
_________________________________________________________________
dense_645 (Dense)            (None, 16)                1048592   
_________________________________________________________________
activation_936 (Activation)  (None, 16)                0         
_________________________________________________________________
dropout_936 (Dropout)        (None, 16)                0         
_________________________________________________________________
dense_646 (Dense)            (None, 100)               1700      
=================================================================
Total params: 1,050,575
Trainable params: 1,050,575
Non-trainable params: 0
_________________________________________________________________
