Model: "sequential_8"
_________________________________________________________________
Layer (type)                 Output Shape              Param #   
=================================================================
separable_conv2d_18 (Separab (None, 32, 32, 8)         59        
_________________________________________________________________
activation_24 (Activation)   (None, 32, 32, 8)         0         
_________________________________________________________________
dropout_24 (Dropout)         (None, 32, 32, 8)         0         
_________________________________________________________________
max_pooling2d_7 (MaxPooling2 (None, 16, 16, 8)         0         
_________________________________________________________________
separable_conv2d_19 (Separab (None, 16, 16, 128)       1224      
_________________________________________________________________
batch_normalization_11 (Batc (None, 16, 16, 128)       512       
_________________________________________________________________
activation_25 (Activation)   (None, 16, 16, 128)       0         
_________________________________________________________________
dropout_25 (Dropout)         (None, 16, 16, 128)       0         
_________________________________________________________________
max_pooling2d_8 (MaxPooling2 (None, 8, 8, 128)         0         
_________________________________________________________________
flatten_8 (Flatten)          (None, 8192)              0         
_________________________________________________________________
dense_14 (Dense)             (None, 100)               819300    
=================================================================
Total params: 821,095
Trainable params: 820,839
Non-trainable params: 256
_________________________________________________________________
