Model: "sequential_372"
_________________________________________________________________
Layer (type)                 Output Shape              Param #   
=================================================================
separable_conv2d_670 (Separa (None, 32, 32, 16)        91        
_________________________________________________________________
activation_1014 (Activation) (None, 32, 32, 16)        0         
_________________________________________________________________
dropout_1014 (Dropout)       (None, 32, 32, 16)        0         
_________________________________________________________________
flatten_372 (Flatten)        (None, 16384)             0         
_________________________________________________________________
dense_716 (Dense)            (None, 128)               2097280   
_________________________________________________________________
activation_1015 (Activation) (None, 128)               0         
_________________________________________________________________
dropout_1015 (Dropout)       (None, 128)               0         
_________________________________________________________________
dense_717 (Dense)            (None, 100)               12900     
=================================================================
Total params: 2,110,271
Trainable params: 2,110,271
Non-trainable params: 0
_________________________________________________________________
