Model: "sequential_176"
_________________________________________________________________
Layer (type)                 Output Shape              Param #   
=================================================================
separable_conv2d_421 (Separa (None, 32, 32, 64)        283       
_________________________________________________________________
batch_normalization_151 (Bat (None, 32, 32, 64)        256       
_________________________________________________________________
activation_581 (Activation)  (None, 32, 32, 64)        0         
_________________________________________________________________
dropout_581 (Dropout)        (None, 32, 32, 64)        0         
_________________________________________________________________
max_pooling2d_158 (MaxPoolin (None, 16, 16, 64)        0         
_________________________________________________________________
separable_conv2d_422 (Separa (None, 16, 16, 256)       17216     
_________________________________________________________________
activation_582 (Activation)  (None, 16, 16, 256)       0         
_________________________________________________________________
dropout_582 (Dropout)        (None, 16, 16, 256)       0         
_________________________________________________________________
flatten_176 (Flatten)        (None, 65536)             0         
_________________________________________________________________
dense_336 (Dense)            (None, 1024)              67109888  
_________________________________________________________________
activation_583 (Activation)  (None, 1024)              0         
_________________________________________________________________
dropout_583 (Dropout)        (None, 1024)              0         
_________________________________________________________________
dense_337 (Dense)            (None, 100)               102500    
=================================================================
Total params: 67,230,143
Trainable params: 67,230,015
Non-trainable params: 128
_________________________________________________________________
