Model: "sequential_309"
_________________________________________________________________
Layer (type)                 Output Shape              Param #   
=================================================================
separable_conv2d_598 (Separa (None, 32, 32, 32)        155       
_________________________________________________________________
activation_881 (Activation)  (None, 32, 32, 32)        0         
_________________________________________________________________
dropout_881 (Dropout)        (None, 32, 32, 32)        0         
_________________________________________________________________
flatten_309 (Flatten)        (None, 32768)             0         
_________________________________________________________________
dense_592 (Dense)            (None, 1024)              33555456  
_________________________________________________________________
batch_normalization_180 (Bat (None, 1024)              4096      
_________________________________________________________________
activation_882 (Activation)  (None, 1024)              0         
_________________________________________________________________
dropout_882 (Dropout)        (None, 1024)              0         
_________________________________________________________________
dense_593 (Dense)            (None, 100)               102500    
=================================================================
Total params: 33,662,207
Trainable params: 33,660,159
Non-trainable params: 2,048
_________________________________________________________________
