Model: "sequential_90"
_________________________________________________________________
Layer (type)                 Output Shape              Param #   
=================================================================
separable_conv2d_232 (Separa (None, 32, 32, 64)        283       
_________________________________________________________________
batch_normalization_89 (Batc (None, 32, 32, 64)        256       
_________________________________________________________________
activation_308 (Activation)  (None, 32, 32, 64)        0         
_________________________________________________________________
dropout_308 (Dropout)        (None, 32, 32, 64)        0         
_________________________________________________________________
max_pooling2d_75 (MaxPooling (None, 16, 16, 64)        0         
_________________________________________________________________
separable_conv2d_233 (Separa (None, 16, 16, 64)        4736      
_________________________________________________________________
activation_309 (Activation)  (None, 16, 16, 64)        0         
_________________________________________________________________
dropout_309 (Dropout)        (None, 16, 16, 64)        0         
_________________________________________________________________
flatten_90 (Flatten)         (None, 16384)             0         
_________________________________________________________________
dense_166 (Dense)            (None, 256)               4194560   
_________________________________________________________________
activation_310 (Activation)  (None, 256)               0         
_________________________________________________________________
dropout_310 (Dropout)        (None, 256)               0         
_________________________________________________________________
dense_167 (Dense)            (None, 100)               25700     
=================================================================
Total params: 4,225,535
Trainable params: 4,225,407
Non-trainable params: 128
_________________________________________________________________
