Model: "sequential_498"
_________________________________________________________________
Layer (type)                 Output Shape              Param #   
=================================================================
separable_conv2d_870 (Separa (None, 32, 32, 32)        155       
_________________________________________________________________
activation_1334 (Activation) (None, 32, 32, 32)        0         
_________________________________________________________________
dropout_1334 (Dropout)       (None, 32, 32, 32)        0         
_________________________________________________________________
separable_conv2d_871 (Separa (None, 32, 32, 16)        816       
_________________________________________________________________
activation_1335 (Activation) (None, 32, 32, 16)        0         
_________________________________________________________________
dropout_1335 (Dropout)       (None, 32, 32, 16)        0         
_________________________________________________________________
flatten_498 (Flatten)        (None, 16384)             0         
_________________________________________________________________
dense_962 (Dense)            (None, 1024)              16778240  
_________________________________________________________________
activation_1336 (Activation) (None, 1024)              0         
_________________________________________________________________
dropout_1336 (Dropout)       (None, 1024)              0         
_________________________________________________________________
dense_963 (Dense)            (None, 100)               102500    
=================================================================
Total params: 16,881,711
Trainable params: 16,881,711
Non-trainable params: 0
_________________________________________________________________
