Model: "sequential_121"
_________________________________________________________________
Layer (type)                 Output Shape              Param #   
=================================================================
separable_conv2d_310 (Separa (None, 32, 32, 64)        283       
_________________________________________________________________
batch_normalization_123 (Bat (None, 32, 32, 64)        256       
_________________________________________________________________
activation_415 (Activation)  (None, 32, 32, 64)        0         
_________________________________________________________________
dropout_415 (Dropout)        (None, 32, 32, 64)        0         
_________________________________________________________________
max_pooling2d_105 (MaxPoolin (None, 16, 16, 64)        0         
_________________________________________________________________
separable_conv2d_311 (Separa (None, 16, 16, 64)        4736      
_________________________________________________________________
batch_normalization_124 (Bat (None, 16, 16, 64)        256       
_________________________________________________________________
activation_416 (Activation)  (None, 16, 16, 64)        0         
_________________________________________________________________
dropout_416 (Dropout)        (None, 16, 16, 64)        0         
_________________________________________________________________
separable_conv2d_312 (Separa (None, 16, 16, 512)       33856     
_________________________________________________________________
activation_417 (Activation)  (None, 16, 16, 512)       0         
_________________________________________________________________
dropout_417 (Dropout)        (None, 16, 16, 512)       0         
_________________________________________________________________
flatten_121 (Flatten)        (None, 131072)            0         
_________________________________________________________________
dense_226 (Dense)            (None, 1024)              134218752 
_________________________________________________________________
activation_418 (Activation)  (None, 1024)              0         
_________________________________________________________________
dropout_418 (Dropout)        (None, 1024)              0         
_________________________________________________________________
dense_227 (Dense)            (None, 100)               102500    
=================================================================
Total params: 134,360,639
Trainable params: 134,360,383
Non-trainable params: 256
_________________________________________________________________
