Model: "sequential_385"
_________________________________________________________________
Layer (type)                 Output Shape              Param #   
=================================================================
separable_conv2d_687 (Separa (None, 32, 32, 8)         59        
_________________________________________________________________
activation_1044 (Activation) (None, 32, 32, 8)         0         
_________________________________________________________________
dropout_1044 (Dropout)       (None, 32, 32, 8)         0         
_________________________________________________________________
separable_conv2d_688 (Separa (None, 32, 32, 128)       1224      
_________________________________________________________________
activation_1045 (Activation) (None, 32, 32, 128)       0         
_________________________________________________________________
dropout_1045 (Dropout)       (None, 32, 32, 128)       0         
_________________________________________________________________
flatten_385 (Flatten)        (None, 131072)            0         
_________________________________________________________________
dense_742 (Dense)            (None, 1024)              134218752 
_________________________________________________________________
activation_1046 (Activation) (None, 1024)              0         
_________________________________________________________________
dropout_1046 (Dropout)       (None, 1024)              0         
_________________________________________________________________
dense_743 (Dense)            (None, 100)               102500    
=================================================================
Total params: 134,322,535
Trainable params: 134,322,535
Non-trainable params: 0
_________________________________________________________________
