Model: "sequential_244"
_________________________________________________________________
Layer (type)                 Output Shape              Param #   
=================================================================
separable_conv2d_531 (Separa (None, 32, 32, 16)        91        
_________________________________________________________________
activation_754 (Activation)  (None, 32, 32, 16)        0         
_________________________________________________________________
dropout_754 (Dropout)        (None, 32, 32, 16)        0         
_________________________________________________________________
max_pooling2d_208 (MaxPoolin (None, 16, 16, 16)        0         
_________________________________________________________________
separable_conv2d_532 (Separa (None, 16, 16, 256)       4496      
_________________________________________________________________
activation_755 (Activation)  (None, 16, 16, 256)       0         
_________________________________________________________________
dropout_755 (Dropout)        (None, 16, 16, 256)       0         
_________________________________________________________________
flatten_244 (Flatten)        (None, 65536)             0         
_________________________________________________________________
dense_467 (Dense)            (None, 100)               6553700   
=================================================================
Total params: 6,558,287
Trainable params: 6,558,287
Non-trainable params: 0
_________________________________________________________________
