Model: "sequential_89"
_________________________________________________________________
Layer (type)                 Output Shape              Param #   
=================================================================
separable_conv2d_229 (Separa (None, 32, 32, 32)        155       
_________________________________________________________________
batch_normalization_88 (Batc (None, 32, 32, 32)        128       
_________________________________________________________________
activation_304 (Activation)  (None, 32, 32, 32)        0         
_________________________________________________________________
dropout_304 (Dropout)        (None, 32, 32, 32)        0         
_________________________________________________________________
max_pooling2d_74 (MaxPooling (None, 16, 16, 32)        0         
_________________________________________________________________
separable_conv2d_230 (Separa (None, 16, 16, 64)        2400      
_________________________________________________________________
activation_305 (Activation)  (None, 16, 16, 64)        0         
_________________________________________________________________
dropout_305 (Dropout)        (None, 16, 16, 64)        0         
_________________________________________________________________
separable_conv2d_231 (Separa (None, 16, 16, 512)       33856     
_________________________________________________________________
activation_306 (Activation)  (None, 16, 16, 512)       0         
_________________________________________________________________
dropout_306 (Dropout)        (None, 16, 16, 512)       0         
_________________________________________________________________
flatten_89 (Flatten)         (None, 131072)            0         
_________________________________________________________________
dense_164 (Dense)            (None, 256)               33554688  
_________________________________________________________________
activation_307 (Activation)  (None, 256)               0         
_________________________________________________________________
dropout_307 (Dropout)        (None, 256)               0         
_________________________________________________________________
dense_165 (Dense)            (None, 100)               25700     
=================================================================
Total params: 33,616,927
Trainable params: 33,616,863
Non-trainable params: 64
_________________________________________________________________
