Model: "sequential_468"
_________________________________________________________________
Layer (type)                 Output Shape              Param #   
=================================================================
separable_conv2d_821 (Separa (None, 32, 32, 32)        155       
_________________________________________________________________
activation_1260 (Activation) (None, 32, 32, 32)        0         
_________________________________________________________________
dropout_1260 (Dropout)       (None, 32, 32, 32)        0         
_________________________________________________________________
max_pooling2d_247 (MaxPoolin (None, 16, 16, 32)        0         
_________________________________________________________________
separable_conv2d_822 (Separa (None, 16, 16, 16)        816       
_________________________________________________________________
activation_1261 (Activation) (None, 16, 16, 16)        0         
_________________________________________________________________
dropout_1261 (Dropout)       (None, 16, 16, 16)        0         
_________________________________________________________________
flatten_468 (Flatten)        (None, 4096)              0         
_________________________________________________________________
dense_907 (Dense)            (None, 1024)              4195328   
_________________________________________________________________
activation_1262 (Activation) (None, 1024)              0         
_________________________________________________________________
dropout_1262 (Dropout)       (None, 1024)              0         
_________________________________________________________________
dense_908 (Dense)            (None, 100)               102500    
=================================================================
Total params: 4,298,799
Trainable params: 4,298,799
Non-trainable params: 0
_________________________________________________________________
