Model: "sequential_413"
_________________________________________________________________
Layer (type)                 Output Shape              Param #   
=================================================================
separable_conv2d_727 (Separa (None, 32, 32, 256)       1051      
_________________________________________________________________
batch_normalization_197 (Bat (None, 32, 32, 256)       1024      
_________________________________________________________________
activation_1112 (Activation) (None, 32, 32, 256)       0         
_________________________________________________________________
dropout_1112 (Dropout)       (None, 32, 32, 256)       0         
_________________________________________________________________
separable_conv2d_728 (Separa (None, 32, 32, 128)       35200     
_________________________________________________________________
activation_1113 (Activation) (None, 32, 32, 128)       0         
_________________________________________________________________
dropout_1113 (Dropout)       (None, 32, 32, 128)       0         
_________________________________________________________________
flatten_413 (Flatten)        (None, 131072)            0         
_________________________________________________________________
dense_798 (Dense)            (None, 1024)              134218752 
_________________________________________________________________
activation_1114 (Activation) (None, 1024)              0         
_________________________________________________________________
dropout_1114 (Dropout)       (None, 1024)              0         
_________________________________________________________________
dense_799 (Dense)            (None, 100)               102500    
=================================================================
Total params: 134,358,527
Trainable params: 134,358,015
Non-trainable params: 512
_________________________________________________________________
