Model: "sequential_443"
_________________________________________________________________
Layer (type)                 Output Shape              Param #   
=================================================================
separable_conv2d_777 (Separa (None, 32, 32, 512)       2075      
_________________________________________________________________
batch_normalization_207 (Bat (None, 32, 32, 512)       2048      
_________________________________________________________________
activation_1192 (Activation) (None, 32, 32, 512)       0         
_________________________________________________________________
dropout_1192 (Dropout)       (None, 32, 32, 512)       0         
_________________________________________________________________
flatten_443 (Flatten)        (None, 524288)            0         
_________________________________________________________________
dense_858 (Dense)            (None, 32)                16777248  
_________________________________________________________________
activation_1193 (Activation) (None, 32)                0         
_________________________________________________________________
dropout_1193 (Dropout)       (None, 32)                0         
_________________________________________________________________
dense_859 (Dense)            (None, 100)               3300      
=================================================================
Total params: 16,784,671
Trainable params: 16,783,647
Non-trainable params: 1,024
_________________________________________________________________
