Model: "sequential_216"
_________________________________________________________________
Layer (type)                 Output Shape              Param #   
=================================================================
separable_conv2d_495 (Separa (None, 32, 32, 128)       539       
_________________________________________________________________
batch_normalization_164 (Bat (None, 32, 32, 128)       512       
_________________________________________________________________
activation_693 (Activation)  (None, 32, 32, 128)       0         
_________________________________________________________________
dropout_693 (Dropout)        (None, 32, 32, 128)       0         
_________________________________________________________________
max_pooling2d_188 (MaxPoolin (None, 16, 16, 128)       0         
_________________________________________________________________
separable_conv2d_496 (Separa (None, 16, 16, 256)       34176     
_________________________________________________________________
activation_694 (Activation)  (None, 16, 16, 256)       0         
_________________________________________________________________
dropout_694 (Dropout)        (None, 16, 16, 256)       0         
_________________________________________________________________
flatten_216 (Flatten)        (None, 65536)             0         
_________________________________________________________________
dense_414 (Dense)            (None, 1024)              67109888  
_________________________________________________________________
activation_695 (Activation)  (None, 1024)              0         
_________________________________________________________________
dropout_695 (Dropout)        (None, 1024)              0         
_________________________________________________________________
dense_415 (Dense)            (None, 100)               102500    
=================================================================
Total params: 67,247,615
Trainable params: 67,247,359
Non-trainable params: 256
_________________________________________________________________
