Model: "sequential_338"
_________________________________________________________________
Layer (type)                 Output Shape              Param #   
=================================================================
separable_conv2d_628 (Separa (None, 32, 32, 32)        155       
_________________________________________________________________
activation_939 (Activation)  (None, 32, 32, 32)        0         
_________________________________________________________________
dropout_939 (Dropout)        (None, 32, 32, 32)        0         
_________________________________________________________________
flatten_338 (Flatten)        (None, 32768)             0         
_________________________________________________________________
dense_649 (Dense)            (None, 1024)              33555456  
_________________________________________________________________
activation_940 (Activation)  (None, 1024)              0         
_________________________________________________________________
dropout_940 (Dropout)        (None, 1024)              0         
_________________________________________________________________
dense_650 (Dense)            (None, 100)               102500    
=================================================================
Total params: 33,658,111
Trainable params: 33,658,111
Non-trainable params: 0
_________________________________________________________________
