Model: "sequential_323"
_________________________________________________________________
Layer (type)                 Output Shape              Param #   
=================================================================
separable_conv2d_612 (Separa (None, 32, 32, 32)        155       
_________________________________________________________________
activation_909 (Activation)  (None, 32, 32, 32)        0         
_________________________________________________________________
dropout_909 (Dropout)        (None, 32, 32, 32)        0         
_________________________________________________________________
flatten_323 (Flatten)        (None, 32768)             0         
_________________________________________________________________
dense_620 (Dense)            (None, 1024)              33555456  
_________________________________________________________________
activation_910 (Activation)  (None, 1024)              0         
_________________________________________________________________
dropout_910 (Dropout)        (None, 1024)              0         
_________________________________________________________________
dense_621 (Dense)            (None, 100)               102500    
=================================================================
Total params: 33,658,111
Trainable params: 33,658,111
Non-trainable params: 0
_________________________________________________________________
