Model: "sequential_12"
_________________________________________________________________
Layer (type)                 Output Shape              Param #   
=================================================================
separable_conv2d_26 (Separab (None, 32, 32, 256)       1051      
_________________________________________________________________
activation_34 (Activation)   (None, 32, 32, 256)       0         
_________________________________________________________________
dropout_34 (Dropout)         (None, 32, 32, 256)       0         
_________________________________________________________________
flatten_12 (Flatten)         (None, 262144)            0         
_________________________________________________________________
dense_20 (Dense)             (None, 100)               26214500  
=================================================================
Total params: 26,215,551
Trainable params: 26,215,551
Non-trainable params: 0
_________________________________________________________________
