Model: "sequential_256"
_________________________________________________________________
Layer (type)                 Output Shape              Param #   
=================================================================
separable_conv2d_545 (Separa (None, 32, 32, 32)        155       
_________________________________________________________________
activation_777 (Activation)  (None, 32, 32, 32)        0         
_________________________________________________________________
dropout_777 (Dropout)        (None, 32, 32, 32)        0         
_________________________________________________________________
max_pooling2d_217 (MaxPoolin (None, 16, 16, 32)        0         
_________________________________________________________________
flatten_256 (Flatten)        (None, 8192)              0         
_________________________________________________________________
dense_488 (Dense)            (None, 128)               1048704   
_________________________________________________________________
activation_778 (Activation)  (None, 128)               0         
_________________________________________________________________
dropout_778 (Dropout)        (None, 128)               0         
_________________________________________________________________
dense_489 (Dense)            (None, 100)               12900     
=================================================================
Total params: 1,061,759
Trainable params: 1,061,759
Non-trainable params: 0
_________________________________________________________________
