Model: "sequential_197"
_________________________________________________________________
Layer (type)                 Output Shape              Param #   
=================================================================
separable_conv2d_462 (Separa (None, 32, 32, 16)        91        
_________________________________________________________________
activation_642 (Activation)  (None, 32, 32, 16)        0         
_________________________________________________________________
dropout_642 (Dropout)        (None, 32, 32, 16)        0         
_________________________________________________________________
max_pooling2d_175 (MaxPoolin (None, 16, 16, 16)        0         
_________________________________________________________________
separable_conv2d_463 (Separa (None, 16, 16, 256)       4496      
_________________________________________________________________
activation_643 (Activation)  (None, 16, 16, 256)       0         
_________________________________________________________________
dropout_643 (Dropout)        (None, 16, 16, 256)       0         
_________________________________________________________________
flatten_197 (Flatten)        (None, 65536)             0         
_________________________________________________________________
dense_377 (Dense)            (None, 1024)              67109888  
_________________________________________________________________
activation_644 (Activation)  (None, 1024)              0         
_________________________________________________________________
dropout_644 (Dropout)        (None, 1024)              0         
_________________________________________________________________
dense_378 (Dense)            (None, 100)               102500    
=================================================================
Total params: 67,216,975
Trainable params: 67,216,975
Non-trainable params: 0
_________________________________________________________________
