Model: "sequential_154"
_________________________________________________________________
Layer (type)                 Output Shape              Param #   
=================================================================
separable_conv2d_377 (Separa (None, 32, 32, 16)        91        
_________________________________________________________________
activation_515 (Activation)  (None, 32, 32, 16)        0         
_________________________________________________________________
dropout_515 (Dropout)        (None, 32, 32, 16)        0         
_________________________________________________________________
max_pooling2d_138 (MaxPoolin (None, 16, 16, 16)        0         
_________________________________________________________________
separable_conv2d_378 (Separa (None, 16, 16, 256)       4496      
_________________________________________________________________
activation_516 (Activation)  (None, 16, 16, 256)       0         
_________________________________________________________________
dropout_516 (Dropout)        (None, 16, 16, 256)       0         
_________________________________________________________________
flatten_154 (Flatten)        (None, 65536)             0         
_________________________________________________________________
dense_292 (Dense)            (None, 1024)              67109888  
_________________________________________________________________
activation_517 (Activation)  (None, 1024)              0         
_________________________________________________________________
dropout_517 (Dropout)        (None, 1024)              0         
_________________________________________________________________
dense_293 (Dense)            (None, 100)               102500    
=================================================================
Total params: 67,216,975
Trainable params: 67,216,975
Non-trainable params: 0
_________________________________________________________________
