Model: "sequential_252"
_________________________________________________________________
Layer (type)                 Output Shape              Param #   
=================================================================
separable_conv2d_541 (Separa (None, 32, 32, 32)        155       
_________________________________________________________________
activation_770 (Activation)  (None, 32, 32, 32)        0         
_________________________________________________________________
dropout_770 (Dropout)        (None, 32, 32, 32)        0         
_________________________________________________________________
max_pooling2d_213 (MaxPoolin (None, 16, 16, 32)        0         
_________________________________________________________________
flatten_252 (Flatten)        (None, 8192)              0         
_________________________________________________________________
dense_481 (Dense)            (None, 1024)              8389632   
_________________________________________________________________
activation_771 (Activation)  (None, 1024)              0         
_________________________________________________________________
dropout_771 (Dropout)        (None, 1024)              0         
_________________________________________________________________
dense_482 (Dense)            (None, 100)               102500    
=================================================================
Total params: 8,492,287
Trainable params: 8,492,287
Non-trainable params: 0
_________________________________________________________________
