Model: "sequential_194"
_________________________________________________________________
Layer (type)                 Output Shape              Param #   
=================================================================
separable_conv2d_456 (Separa (None, 32, 32, 512)       2075      
_________________________________________________________________
batch_normalization_158 (Bat (None, 32, 32, 512)       2048      
_________________________________________________________________
activation_633 (Activation)  (None, 32, 32, 512)       0         
_________________________________________________________________
dropout_633 (Dropout)        (None, 32, 32, 512)       0         
_________________________________________________________________
max_pooling2d_173 (MaxPoolin (None, 16, 16, 512)       0         
_________________________________________________________________
separable_conv2d_457 (Separa (None, 16, 16, 256)       135936    
_________________________________________________________________
activation_634 (Activation)  (None, 16, 16, 256)       0         
_________________________________________________________________
dropout_634 (Dropout)        (None, 16, 16, 256)       0         
_________________________________________________________________
flatten_194 (Flatten)        (None, 65536)             0         
_________________________________________________________________
dense_371 (Dense)            (None, 1024)              67109888  
_________________________________________________________________
activation_635 (Activation)  (None, 1024)              0         
_________________________________________________________________
dropout_635 (Dropout)        (None, 1024)              0         
_________________________________________________________________
dense_372 (Dense)            (None, 100)               102500    
=================================================================
Total params: 67,352,447
Trainable params: 67,351,423
Non-trainable params: 1,024
_________________________________________________________________
