Model: "sequential_280"
_________________________________________________________________
Layer (type)                 Output Shape              Param #   
=================================================================
separable_conv2d_569 (Separa (None, 32, 32, 32)        155       
_________________________________________________________________
activation_824 (Activation)  (None, 32, 32, 32)        0         
_________________________________________________________________
dropout_824 (Dropout)        (None, 32, 32, 32)        0         
_________________________________________________________________
flatten_280 (Flatten)        (None, 32768)             0         
_________________________________________________________________
dense_535 (Dense)            (None, 1024)              33555456  
_________________________________________________________________
activation_825 (Activation)  (None, 1024)              0         
_________________________________________________________________
dropout_825 (Dropout)        (None, 1024)              0         
_________________________________________________________________
dense_536 (Dense)            (None, 100)               102500    
=================================================================
Total params: 33,658,111
Trainable params: 33,658,111
Non-trainable params: 0
_________________________________________________________________
