Model: "sequential_62"
_________________________________________________________________
Layer (type)                 Output Shape              Param #   
=================================================================
separable_conv2d_148 (Separa (None, 32, 32, 32)        155       
_________________________________________________________________
activation_196 (Activation)  (None, 32, 32, 32)        0         
_________________________________________________________________
dropout_196 (Dropout)        (None, 32, 32, 32)        0         
_________________________________________________________________
max_pooling2d_51 (MaxPooling (None, 16, 16, 32)        0         
_________________________________________________________________
separable_conv2d_149 (Separa (None, 16, 16, 256)       8736      
_________________________________________________________________
activation_197 (Activation)  (None, 16, 16, 256)       0         
_________________________________________________________________
dropout_197 (Dropout)        (None, 16, 16, 256)       0         
_________________________________________________________________
separable_conv2d_150 (Separa (None, 16, 16, 128)       35200     
_________________________________________________________________
activation_198 (Activation)  (None, 16, 16, 128)       0         
_________________________________________________________________
dropout_198 (Dropout)        (None, 16, 16, 128)       0         
_________________________________________________________________
flatten_62 (Flatten)         (None, 32768)             0         
_________________________________________________________________
dense_110 (Dense)            (None, 256)               8388864   
_________________________________________________________________
activation_199 (Activation)  (None, 256)               0         
_________________________________________________________________
dropout_199 (Dropout)        (None, 256)               0         
_________________________________________________________________
dense_111 (Dense)            (None, 100)               25700     
=================================================================
Total params: 8,458,655
Trainable params: 8,458,655
Non-trainable params: 0
_________________________________________________________________
