Model: "sequential_457"
_________________________________________________________________
Layer (type)                 Output Shape              Param #   
=================================================================
separable_conv2d_800 (Separa (None, 32, 32, 256)       1051      
_________________________________________________________________
activation_1229 (Activation) (None, 32, 32, 256)       0         
_________________________________________________________________
dropout_1229 (Dropout)       (None, 32, 32, 256)       0         
_________________________________________________________________
separable_conv2d_801 (Separa (None, 32, 32, 32)        10528     
_________________________________________________________________
activation_1230 (Activation) (None, 32, 32, 32)        0         
_________________________________________________________________
dropout_1230 (Dropout)       (None, 32, 32, 32)        0         
_________________________________________________________________
flatten_457 (Flatten)        (None, 32768)             0         
_________________________________________________________________
dense_886 (Dense)            (None, 32)                1048608   
_________________________________________________________________
batch_normalization_215 (Bat (None, 32)                128       
_________________________________________________________________
activation_1231 (Activation) (None, 32)                0         
_________________________________________________________________
dropout_1231 (Dropout)       (None, 32)                0         
_________________________________________________________________
dense_887 (Dense)            (None, 100)               3300      
=================================================================
Total params: 1,063,615
Trainable params: 1,063,551
Non-trainable params: 64
_________________________________________________________________
