Model: "sequential_41"
_________________________________________________________________
Layer (type)                 Output Shape              Param #   
=================================================================
separable_conv2d_87 (Separab (None, 32, 32, 64)        283       
_________________________________________________________________
batch_normalization_42 (Batc (None, 32, 32, 64)        256       
_________________________________________________________________
activation_114 (Activation)  (None, 32, 32, 64)        0         
_________________________________________________________________
dropout_114 (Dropout)        (None, 32, 32, 64)        0         
_________________________________________________________________
max_pooling2d_32 (MaxPooling (None, 16, 16, 64)        0         
_________________________________________________________________
separable_conv2d_88 (Separab (None, 16, 16, 8)         1096      
_________________________________________________________________
activation_115 (Activation)  (None, 16, 16, 8)         0         
_________________________________________________________________
dropout_115 (Dropout)        (None, 16, 16, 8)         0         
_________________________________________________________________
separable_conv2d_89 (Separab (None, 16, 16, 32)        360       
_________________________________________________________________
activation_116 (Activation)  (None, 16, 16, 32)        0         
_________________________________________________________________
dropout_116 (Dropout)        (None, 16, 16, 32)        0         
_________________________________________________________________
separable_conv2d_90 (Separab (None, 16, 16, 128)       4512      
_________________________________________________________________
activation_117 (Activation)  (None, 16, 16, 128)       0         
_________________________________________________________________
dropout_117 (Dropout)        (None, 16, 16, 128)       0         
_________________________________________________________________
flatten_41 (Flatten)         (None, 32768)             0         
_________________________________________________________________
dense_68 (Dense)             (None, 256)               8388864   
_________________________________________________________________
activation_118 (Activation)  (None, 256)               0         
_________________________________________________________________
dropout_118 (Dropout)        (None, 256)               0         
_________________________________________________________________
dense_69 (Dense)             (None, 100)               25700     
=================================================================
Total params: 8,421,071
Trainable params: 8,420,943
Non-trainable params: 128
_________________________________________________________________
