Model: "sequential_17"
_________________________________________________________________
Layer (type)                 Output Shape              Param #   
=================================================================
separable_conv2d_35 (Separab (None, 32, 32, 64)        283       
_________________________________________________________________
batch_normalization_17 (Batc (None, 32, 32, 64)        256       
_________________________________________________________________
activation_46 (Activation)   (None, 32, 32, 64)        0         
_________________________________________________________________
dropout_46 (Dropout)         (None, 32, 32, 64)        0         
_________________________________________________________________
separable_conv2d_36 (Separab (None, 32, 32, 64)        4736      
_________________________________________________________________
batch_normalization_18 (Batc (None, 32, 32, 64)        256       
_________________________________________________________________
activation_47 (Activation)   (None, 32, 32, 64)        0         
_________________________________________________________________
dropout_47 (Dropout)         (None, 32, 32, 64)        0         
_________________________________________________________________
flatten_17 (Flatten)         (None, 65536)             0         
_________________________________________________________________
dense_28 (Dense)             (None, 100)               6553700   
=================================================================
Total params: 6,559,231
Trainable params: 6,558,975
Non-trainable params: 256
_________________________________________________________________
