Model: "sequential_270"
_________________________________________________________________
Layer (type)                 Output Shape              Param #   
=================================================================
separable_conv2d_559 (Separa (None, 32, 32, 32)        155       
_________________________________________________________________
activation_805 (Activation)  (None, 32, 32, 32)        0         
_________________________________________________________________
dropout_805 (Dropout)        (None, 32, 32, 32)        0         
_________________________________________________________________
flatten_270 (Flatten)        (None, 32768)             0         
_________________________________________________________________
dense_516 (Dense)            (None, 128)               4194432   
_________________________________________________________________
activation_806 (Activation)  (None, 128)               0         
_________________________________________________________________
dropout_806 (Dropout)        (None, 128)               0         
_________________________________________________________________
dense_517 (Dense)            (None, 100)               12900     
=================================================================
Total params: 4,207,487
Trainable params: 4,207,487
Non-trainable params: 0
_________________________________________________________________
