Model: "sequential_316"
_________________________________________________________________
Layer (type)                 Output Shape              Param #   
=================================================================
separable_conv2d_605 (Separa (None, 32, 32, 32)        155       
_________________________________________________________________
activation_895 (Activation)  (None, 32, 32, 32)        0         
_________________________________________________________________
dropout_895 (Dropout)        (None, 32, 32, 32)        0         
_________________________________________________________________
flatten_316 (Flatten)        (None, 32768)             0         
_________________________________________________________________
dense_606 (Dense)            (None, 1024)              33555456  
_________________________________________________________________
activation_896 (Activation)  (None, 1024)              0         
_________________________________________________________________
dropout_896 (Dropout)        (None, 1024)              0         
_________________________________________________________________
dense_607 (Dense)            (None, 100)               102500    
=================================================================
Total params: 33,658,111
Trainable params: 33,658,111
Non-trainable params: 0
_________________________________________________________________
