Model: "sequential_64"
_________________________________________________________________
Layer (type)                 Output Shape              Param #   
=================================================================
separable_conv2d_154 (Separa (None, 32, 32, 16)        91        
_________________________________________________________________
batch_normalization_63 (Batc (None, 32, 32, 16)        64        
_________________________________________________________________
activation_204 (Activation)  (None, 32, 32, 16)        0         
_________________________________________________________________
dropout_204 (Dropout)        (None, 32, 32, 16)        0         
_________________________________________________________________
max_pooling2d_53 (MaxPooling (None, 16, 16, 16)        0         
_________________________________________________________________
separable_conv2d_155 (Separa (None, 16, 16, 256)       4496      
_________________________________________________________________
activation_205 (Activation)  (None, 16, 16, 256)       0         
_________________________________________________________________
dropout_205 (Dropout)        (None, 16, 16, 256)       0         
_________________________________________________________________
flatten_64 (Flatten)         (None, 65536)             0         
_________________________________________________________________
dense_114 (Dense)            (None, 256)               16777472  
_________________________________________________________________
activation_206 (Activation)  (None, 256)               0         
_________________________________________________________________
dropout_206 (Dropout)        (None, 256)               0         
_________________________________________________________________
dense_115 (Dense)            (None, 100)               25700     
=================================================================
Total params: 16,807,823
Trainable params: 16,807,791
Non-trainable params: 32
_________________________________________________________________
