Model: "sequential_200"
_________________________________________________________________
Layer (type)                 Output Shape              Param #   
=================================================================
separable_conv2d_467 (Separa (None, 32, 32, 128)       539       
_________________________________________________________________
batch_normalization_159 (Bat (None, 32, 32, 128)       512       
_________________________________________________________________
activation_649 (Activation)  (None, 32, 32, 128)       0         
_________________________________________________________________
dropout_649 (Dropout)        (None, 32, 32, 128)       0         
_________________________________________________________________
flatten_200 (Flatten)        (None, 131072)            0         
_________________________________________________________________
dense_382 (Dense)            (None, 1024)              134218752 
_________________________________________________________________
activation_650 (Activation)  (None, 1024)              0         
_________________________________________________________________
dropout_650 (Dropout)        (None, 1024)              0         
_________________________________________________________________
dense_383 (Dense)            (None, 100)               102500    
=================================================================
Total params: 134,322,303
Trainable params: 134,322,047
Non-trainable params: 256
_________________________________________________________________
