Model: "sequential_185"
_________________________________________________________________
Layer (type)                 Output Shape              Param #   
=================================================================
separable_conv2d_439 (Separa (None, 32, 32, 16)        91        
_________________________________________________________________
activation_607 (Activation)  (None, 32, 32, 16)        0         
_________________________________________________________________
dropout_607 (Dropout)        (None, 32, 32, 16)        0         
_________________________________________________________________
max_pooling2d_166 (MaxPoolin (None, 16, 16, 16)        0         
_________________________________________________________________
separable_conv2d_440 (Separa (None, 16, 16, 256)       4496      
_________________________________________________________________
activation_608 (Activation)  (None, 16, 16, 256)       0         
_________________________________________________________________
dropout_608 (Dropout)        (None, 16, 16, 256)       0         
_________________________________________________________________
flatten_185 (Flatten)        (None, 65536)             0         
_________________________________________________________________
dense_353 (Dense)            (None, 1024)              67109888  
_________________________________________________________________
activation_609 (Activation)  (None, 1024)              0         
_________________________________________________________________
dropout_609 (Dropout)        (None, 1024)              0         
_________________________________________________________________
dense_354 (Dense)            (None, 100)               102500    
=================================================================
Total params: 67,216,975
Trainable params: 67,216,975
Non-trainable params: 0
_________________________________________________________________
