Model: "sequential_35"
_________________________________________________________________
Layer (type)                 Output Shape              Param #   
=================================================================
separable_conv2d_71 (Separab (None, 32, 32, 64)        283       
_________________________________________________________________
batch_normalization_35 (Batc (None, 32, 32, 64)        256       
_________________________________________________________________
activation_93 (Activation)   (None, 32, 32, 64)        0         
_________________________________________________________________
dropout_93 (Dropout)         (None, 32, 32, 64)        0         
_________________________________________________________________
max_pooling2d_26 (MaxPooling (None, 16, 16, 64)        0         
_________________________________________________________________
separable_conv2d_72 (Separab (None, 16, 16, 64)        4736      
_________________________________________________________________
activation_94 (Activation)   (None, 16, 16, 64)        0         
_________________________________________________________________
dropout_94 (Dropout)         (None, 16, 16, 64)        0         
_________________________________________________________________
separable_conv2d_73 (Separab (None, 16, 16, 128)       8896      
_________________________________________________________________
activation_95 (Activation)   (None, 16, 16, 128)       0         
_________________________________________________________________
dropout_95 (Dropout)         (None, 16, 16, 128)       0         
_________________________________________________________________
flatten_35 (Flatten)         (None, 32768)             0         
_________________________________________________________________
dense_57 (Dense)             (None, 256)               8388864   
_________________________________________________________________
activation_96 (Activation)   (None, 256)               0         
_________________________________________________________________
dropout_96 (Dropout)         (None, 256)               0         
_________________________________________________________________
dense_58 (Dense)             (None, 100)               25700     
=================================================================
Total params: 8,428,735
Trainable params: 8,428,607
Non-trainable params: 128
_________________________________________________________________
