Model: "sequential_229"
_________________________________________________________________
Layer (type)                 Output Shape              Param #   
=================================================================
separable_conv2d_512 (Separa (None, 32, 32, 16)        91        
_________________________________________________________________
activation_723 (Activation)  (None, 32, 32, 16)        0         
_________________________________________________________________
dropout_723 (Dropout)        (None, 32, 32, 16)        0         
_________________________________________________________________
max_pooling2d_194 (MaxPoolin (None, 16, 16, 16)        0         
_________________________________________________________________
separable_conv2d_513 (Separa (None, 16, 16, 256)       4496      
_________________________________________________________________
activation_724 (Activation)  (None, 16, 16, 256)       0         
_________________________________________________________________
dropout_724 (Dropout)        (None, 16, 16, 256)       0         
_________________________________________________________________
flatten_229 (Flatten)        (None, 65536)             0         
_________________________________________________________________
dense_440 (Dense)            (None, 1024)              67109888  
_________________________________________________________________
activation_725 (Activation)  (None, 1024)              0         
_________________________________________________________________
dropout_725 (Dropout)        (None, 1024)              0         
_________________________________________________________________
dense_441 (Dense)            (None, 100)               102500    
=================================================================
Total params: 67,216,975
Trainable params: 67,216,975
Non-trainable params: 0
_________________________________________________________________
