Model: "sequential_43"
_________________________________________________________________
Layer (type)                 Output Shape              Param #   
=================================================================
separable_conv2d_94 (Separab (None, 32, 32, 64)        283       
_________________________________________________________________
batch_normalization_44 (Batc (None, 32, 32, 64)        256       
_________________________________________________________________
activation_123 (Activation)  (None, 32, 32, 64)        0         
_________________________________________________________________
dropout_123 (Dropout)        (None, 32, 32, 64)        0         
_________________________________________________________________
max_pooling2d_34 (MaxPooling (None, 16, 16, 64)        0         
_________________________________________________________________
separable_conv2d_95 (Separab (None, 16, 16, 8)         1096      
_________________________________________________________________
activation_124 (Activation)  (None, 16, 16, 8)         0         
_________________________________________________________________
dropout_124 (Dropout)        (None, 16, 16, 8)         0         
_________________________________________________________________
separable_conv2d_96 (Separab (None, 16, 16, 128)       1224      
_________________________________________________________________
activation_125 (Activation)  (None, 16, 16, 128)       0         
_________________________________________________________________
dropout_125 (Dropout)        (None, 16, 16, 128)       0         
_________________________________________________________________
flatten_43 (Flatten)         (None, 32768)             0         
_________________________________________________________________
dense_72 (Dense)             (None, 256)               8388864   
_________________________________________________________________
batch_normalization_45 (Batc (None, 256)               1024      
_________________________________________________________________
activation_126 (Activation)  (None, 256)               0         
_________________________________________________________________
dropout_126 (Dropout)        (None, 256)               0         
_________________________________________________________________
dense_73 (Dense)             (None, 100)               25700     
=================================================================
Total params: 8,418,447
Trainable params: 8,417,807
Non-trainable params: 640
_________________________________________________________________
