Model: "sequential_48"
_________________________________________________________________
Layer (type)                 Output Shape              Param #   
=================================================================
separable_conv2d_108 (Separa (None, 32, 32, 64)        283       
_________________________________________________________________
activation_142 (Activation)  (None, 32, 32, 64)        0         
_________________________________________________________________
dropout_142 (Dropout)        (None, 32, 32, 64)        0         
_________________________________________________________________
max_pooling2d_39 (MaxPooling (None, 16, 16, 64)        0         
_________________________________________________________________
separable_conv2d_109 (Separa (None, 16, 16, 64)        4736      
_________________________________________________________________
batch_normalization_51 (Batc (None, 16, 16, 64)        256       
_________________________________________________________________
activation_143 (Activation)  (None, 16, 16, 64)        0         
_________________________________________________________________
dropout_143 (Dropout)        (None, 16, 16, 64)        0         
_________________________________________________________________
separable_conv2d_110 (Separa (None, 16, 16, 128)       8896      
_________________________________________________________________
activation_144 (Activation)  (None, 16, 16, 128)       0         
_________________________________________________________________
dropout_144 (Dropout)        (None, 16, 16, 128)       0         
_________________________________________________________________
flatten_48 (Flatten)         (None, 32768)             0         
_________________________________________________________________
dense_82 (Dense)             (None, 256)               8388864   
_________________________________________________________________
activation_145 (Activation)  (None, 256)               0         
_________________________________________________________________
dropout_145 (Dropout)        (None, 256)               0         
_________________________________________________________________
dense_83 (Dense)             (None, 100)               25700     
=================================================================
Total params: 8,428,735
Trainable params: 8,428,607
Non-trainable params: 128
_________________________________________________________________
