Model: "sequential_390"
_________________________________________________________________
Layer (type)                 Output Shape              Param #   
=================================================================
separable_conv2d_694 (Separa (None, 32, 32, 256)       1051      
_________________________________________________________________
activation_1056 (Activation) (None, 32, 32, 256)       0         
_________________________________________________________________
dropout_1056 (Dropout)       (None, 32, 32, 256)       0         
_________________________________________________________________
separable_conv2d_695 (Separa (None, 32, 32, 128)       35200     
_________________________________________________________________
activation_1057 (Activation) (None, 32, 32, 128)       0         
_________________________________________________________________
dropout_1057 (Dropout)       (None, 32, 32, 128)       0         
_________________________________________________________________
flatten_390 (Flatten)        (None, 131072)            0         
_________________________________________________________________
dense_752 (Dense)            (None, 1024)              134218752 
_________________________________________________________________
activation_1058 (Activation) (None, 1024)              0         
_________________________________________________________________
dropout_1058 (Dropout)       (None, 1024)              0         
_________________________________________________________________
dense_753 (Dense)            (None, 100)               102500    
=================================================================
Total params: 134,357,503
Trainable params: 134,357,503
Non-trainable params: 0
_________________________________________________________________
