Model: "sequential_474"
_________________________________________________________________
Layer (type)                 Output Shape              Param #   
=================================================================
separable_conv2d_831 (Separa (None, 32, 32, 32)        155       
_________________________________________________________________
batch_normalization_224 (Bat (None, 32, 32, 32)        128       
_________________________________________________________________
activation_1275 (Activation) (None, 32, 32, 32)        0         
_________________________________________________________________
dropout_1275 (Dropout)       (None, 32, 32, 32)        0         
_________________________________________________________________
flatten_474 (Flatten)        (None, 32768)             0         
_________________________________________________________________
dense_918 (Dense)            (None, 1024)              33555456  
_________________________________________________________________
activation_1276 (Activation) (None, 1024)              0         
_________________________________________________________________
dropout_1276 (Dropout)       (None, 1024)              0         
_________________________________________________________________
dense_919 (Dense)            (None, 100)               102500    
=================================================================
Total params: 33,658,239
Trainable params: 33,658,175
Non-trainable params: 64
_________________________________________________________________
