Model: "sequential_164"
_________________________________________________________________
Layer (type)                 Output Shape              Param #   
=================================================================
separable_conv2d_397 (Separa (None, 32, 32, 16)        91        
_________________________________________________________________
batch_normalization_145 (Bat (None, 32, 32, 16)        64        
_________________________________________________________________
activation_545 (Activation)  (None, 32, 32, 16)        0         
_________________________________________________________________
dropout_545 (Dropout)        (None, 32, 32, 16)        0         
_________________________________________________________________
max_pooling2d_147 (MaxPoolin (None, 16, 16, 16)        0         
_________________________________________________________________
separable_conv2d_398 (Separa (None, 16, 16, 256)       4496      
_________________________________________________________________
activation_546 (Activation)  (None, 16, 16, 256)       0         
_________________________________________________________________
dropout_546 (Dropout)        (None, 16, 16, 256)       0         
_________________________________________________________________
flatten_164 (Flatten)        (None, 65536)             0         
_________________________________________________________________
dense_312 (Dense)            (None, 1024)              67109888  
_________________________________________________________________
activation_547 (Activation)  (None, 1024)              0         
_________________________________________________________________
dropout_547 (Dropout)        (None, 1024)              0         
_________________________________________________________________
dense_313 (Dense)            (None, 100)               102500    
=================================================================
Total params: 67,217,039
Trainable params: 67,217,007
Non-trainable params: 32
_________________________________________________________________
