Model: "sequential_320"
_________________________________________________________________
Layer (type)                 Output Shape              Param #   
=================================================================
separable_conv2d_609 (Separa (None, 32, 32, 64)        283       
_________________________________________________________________
activation_903 (Activation)  (None, 32, 32, 64)        0         
_________________________________________________________________
dropout_903 (Dropout)        (None, 32, 32, 64)        0         
_________________________________________________________________
flatten_320 (Flatten)        (None, 65536)             0         
_________________________________________________________________
dense_614 (Dense)            (None, 128)               8388736   
_________________________________________________________________
activation_904 (Activation)  (None, 128)               0         
_________________________________________________________________
dropout_904 (Dropout)        (None, 128)               0         
_________________________________________________________________
dense_615 (Dense)            (None, 100)               12900     
=================================================================
Total params: 8,401,919
Trainable params: 8,401,919
Non-trainable params: 0
_________________________________________________________________
