Model: "sequential_159"
_________________________________________________________________
Layer (type)                 Output Shape              Param #   
=================================================================
separable_conv2d_387 (Separa (None, 32, 32, 16)        91        
_________________________________________________________________
activation_530 (Activation)  (None, 32, 32, 16)        0         
_________________________________________________________________
dropout_530 (Dropout)        (None, 32, 32, 16)        0         
_________________________________________________________________
max_pooling2d_142 (MaxPoolin (None, 16, 16, 16)        0         
_________________________________________________________________
separable_conv2d_388 (Separa (None, 16, 16, 256)       4496      
_________________________________________________________________
activation_531 (Activation)  (None, 16, 16, 256)       0         
_________________________________________________________________
dropout_531 (Dropout)        (None, 16, 16, 256)       0         
_________________________________________________________________
flatten_159 (Flatten)        (None, 65536)             0         
_________________________________________________________________
dense_302 (Dense)            (None, 1024)              67109888  
_________________________________________________________________
activation_532 (Activation)  (None, 1024)              0         
_________________________________________________________________
dropout_532 (Dropout)        (None, 1024)              0         
_________________________________________________________________
dense_303 (Dense)            (None, 100)               102500    
=================================================================
Total params: 67,216,975
Trainable params: 67,216,975
Non-trainable params: 0
_________________________________________________________________
