Model: "sequential_441"
_________________________________________________________________
Layer (type)                 Output Shape              Param #   
=================================================================
separable_conv2d_773 (Separa (None, 32, 32, 32)        155       
_________________________________________________________________
activation_1186 (Activation) (None, 32, 32, 32)        0         
_________________________________________________________________
dropout_1186 (Dropout)       (None, 32, 32, 32)        0         
_________________________________________________________________
separable_conv2d_774 (Separa (None, 32, 32, 16)        816       
_________________________________________________________________
activation_1187 (Activation) (None, 32, 32, 16)        0         
_________________________________________________________________
dropout_1187 (Dropout)       (None, 32, 32, 16)        0         
_________________________________________________________________
flatten_441 (Flatten)        (None, 16384)             0         
_________________________________________________________________
dense_854 (Dense)            (None, 1024)              16778240  
_________________________________________________________________
activation_1188 (Activation) (None, 1024)              0         
_________________________________________________________________
dropout_1188 (Dropout)       (None, 1024)              0         
_________________________________________________________________
dense_855 (Dense)            (None, 100)               102500    
=================================================================
Total params: 16,881,711
Trainable params: 16,881,711
Non-trainable params: 0
_________________________________________________________________
