Model: "sequential_308"
_________________________________________________________________
Layer (type)                 Output Shape              Param #   
=================================================================
separable_conv2d_597 (Separa (None, 32, 32, 32)        155       
_________________________________________________________________
activation_879 (Activation)  (None, 32, 32, 32)        0         
_________________________________________________________________
dropout_879 (Dropout)        (None, 32, 32, 32)        0         
_________________________________________________________________
flatten_308 (Flatten)        (None, 32768)             0         
_________________________________________________________________
dense_590 (Dense)            (None, 128)               4194432   
_________________________________________________________________
activation_880 (Activation)  (None, 128)               0         
_________________________________________________________________
dropout_880 (Dropout)        (None, 128)               0         
_________________________________________________________________
dense_591 (Dense)            (None, 100)               12900     
=================================================================
Total params: 4,207,487
Trainable params: 4,207,487
Non-trainable params: 0
_________________________________________________________________
