Model: "sequential_296"
_________________________________________________________________
Layer (type)                 Output Shape              Param #   
=================================================================
separable_conv2d_585 (Separa (None, 32, 32, 32)        155       
_________________________________________________________________
activation_855 (Activation)  (None, 32, 32, 32)        0         
_________________________________________________________________
dropout_855 (Dropout)        (None, 32, 32, 32)        0         
_________________________________________________________________
flatten_296 (Flatten)        (None, 32768)             0         
_________________________________________________________________
dense_566 (Dense)            (None, 128)               4194432   
_________________________________________________________________
activation_856 (Activation)  (None, 128)               0         
_________________________________________________________________
dropout_856 (Dropout)        (None, 128)               0         
_________________________________________________________________
dense_567 (Dense)            (None, 100)               12900     
=================================================================
Total params: 4,207,487
Trainable params: 4,207,487
Non-trainable params: 0
_________________________________________________________________
