Model: "sequential_146"
_________________________________________________________________
Layer (type)                 Output Shape              Param #   
=================================================================
separable_conv2d_361 (Separa (None, 32, 32, 16)        91        
_________________________________________________________________
activation_491 (Activation)  (None, 32, 32, 16)        0         
_________________________________________________________________
dropout_491 (Dropout)        (None, 32, 32, 16)        0         
_________________________________________________________________
max_pooling2d_130 (MaxPoolin (None, 16, 16, 16)        0         
_________________________________________________________________
separable_conv2d_362 (Separa (None, 16, 16, 256)       4496      
_________________________________________________________________
activation_492 (Activation)  (None, 16, 16, 256)       0         
_________________________________________________________________
dropout_492 (Dropout)        (None, 16, 16, 256)       0         
_________________________________________________________________
flatten_146 (Flatten)        (None, 65536)             0         
_________________________________________________________________
dense_276 (Dense)            (None, 1024)              67109888  
_________________________________________________________________
activation_493 (Activation)  (None, 1024)              0         
_________________________________________________________________
dropout_493 (Dropout)        (None, 1024)              0         
_________________________________________________________________
dense_277 (Dense)            (None, 100)               102500    
=================================================================
Total params: 67,216,975
Trainable params: 67,216,975
Non-trainable params: 0
_________________________________________________________________
