Model: "sequential_435"
_________________________________________________________________
Layer (type)                 Output Shape              Param #   
=================================================================
separable_conv2d_762 (Separa (None, 32, 32, 256)       1051      
_________________________________________________________________
activation_1169 (Activation) (None, 32, 32, 256)       0         
_________________________________________________________________
dropout_1169 (Dropout)       (None, 32, 32, 256)       0         
_________________________________________________________________
separable_conv2d_763 (Separa (None, 32, 32, 256)       68096     
_________________________________________________________________
activation_1170 (Activation) (None, 32, 32, 256)       0         
_________________________________________________________________
dropout_1170 (Dropout)       (None, 32, 32, 256)       0         
_________________________________________________________________
flatten_435 (Flatten)        (None, 262144)            0         
_________________________________________________________________
dense_842 (Dense)            (None, 32)                8388640   
_________________________________________________________________
activation_1171 (Activation) (None, 32)                0         
_________________________________________________________________
dropout_1171 (Dropout)       (None, 32)                0         
_________________________________________________________________
dense_843 (Dense)            (None, 100)               3300      
=================================================================
Total params: 8,461,087
Trainable params: 8,461,087
Non-trainable params: 0
_________________________________________________________________
