Model: "sequential_81"
_________________________________________________________________
Layer (type)                 Output Shape              Param #   
=================================================================
separable_conv2d_205 (Separa (None, 32, 32, 32)        155       
_________________________________________________________________
batch_normalization_79 (Batc (None, 32, 32, 32)        128       
_________________________________________________________________
activation_272 (Activation)  (None, 32, 32, 32)        0         
_________________________________________________________________
dropout_272 (Dropout)        (None, 32, 32, 32)        0         
_________________________________________________________________
max_pooling2d_67 (MaxPooling (None, 16, 16, 32)        0         
_________________________________________________________________
separable_conv2d_206 (Separa (None, 16, 16, 64)        2400      
_________________________________________________________________
activation_273 (Activation)  (None, 16, 16, 64)        0         
_________________________________________________________________
dropout_273 (Dropout)        (None, 16, 16, 64)        0         
_________________________________________________________________
separable_conv2d_207 (Separa (None, 16, 16, 128)       8896      
_________________________________________________________________
activation_274 (Activation)  (None, 16, 16, 128)       0         
_________________________________________________________________
dropout_274 (Dropout)        (None, 16, 16, 128)       0         
_________________________________________________________________
flatten_81 (Flatten)         (None, 32768)             0         
_________________________________________________________________
dense_148 (Dense)            (None, 256)               8388864   
_________________________________________________________________
activation_275 (Activation)  (None, 256)               0         
_________________________________________________________________
dropout_275 (Dropout)        (None, 256)               0         
_________________________________________________________________
dense_149 (Dense)            (None, 100)               25700     
=================================================================
Total params: 8,426,143
Trainable params: 8,426,079
Non-trainable params: 64
_________________________________________________________________
