Model: "sequential_125"
_________________________________________________________________
Layer (type)                 Output Shape              Param #   
=================================================================
separable_conv2d_320 (Separa (None, 32, 32, 64)        283       
_________________________________________________________________
batch_normalization_126 (Bat (None, 32, 32, 64)        256       
_________________________________________________________________
activation_429 (Activation)  (None, 32, 32, 64)        0         
_________________________________________________________________
dropout_429 (Dropout)        (None, 32, 32, 64)        0         
_________________________________________________________________
max_pooling2d_109 (MaxPoolin (None, 16, 16, 64)        0         
_________________________________________________________________
separable_conv2d_321 (Separa (None, 16, 16, 256)       17216     
_________________________________________________________________
activation_430 (Activation)  (None, 16, 16, 256)       0         
_________________________________________________________________
dropout_430 (Dropout)        (None, 16, 16, 256)       0         
_________________________________________________________________
flatten_125 (Flatten)        (None, 65536)             0         
_________________________________________________________________
dense_234 (Dense)            (None, 1024)              67109888  
_________________________________________________________________
activation_431 (Activation)  (None, 1024)              0         
_________________________________________________________________
dropout_431 (Dropout)        (None, 1024)              0         
_________________________________________________________________
dense_235 (Dense)            (None, 100)               102500    
=================================================================
Total params: 67,230,143
Trainable params: 67,230,015
Non-trainable params: 128
_________________________________________________________________
