Model: "sequential_431"
_________________________________________________________________
Layer (type)                 Output Shape              Param #   
=================================================================
separable_conv2d_756 (Separa (None, 32, 32, 32)        155       
_________________________________________________________________
activation_1159 (Activation) (None, 32, 32, 32)        0         
_________________________________________________________________
dropout_1159 (Dropout)       (None, 32, 32, 32)        0         
_________________________________________________________________
flatten_431 (Flatten)        (None, 32768)             0         
_________________________________________________________________
dense_834 (Dense)            (None, 128)               4194432   
_________________________________________________________________
activation_1160 (Activation) (None, 128)               0         
_________________________________________________________________
dropout_1160 (Dropout)       (None, 128)               0         
_________________________________________________________________
dense_835 (Dense)            (None, 100)               12900     
=================================================================
Total params: 4,207,487
Trainable params: 4,207,487
Non-trainable params: 0
_________________________________________________________________
