Model: "sequential_70"
_________________________________________________________________
Layer (type)                 Output Shape              Param #   
=================================================================
separable_conv2d_172 (Separa (None, 32, 32, 32)        155       
_________________________________________________________________
batch_normalization_68 (Batc (None, 32, 32, 32)        128       
_________________________________________________________________
activation_228 (Activation)  (None, 32, 32, 32)        0         
_________________________________________________________________
dropout_228 (Dropout)        (None, 32, 32, 32)        0         
_________________________________________________________________
max_pooling2d_58 (MaxPooling (None, 16, 16, 32)        0         
_________________________________________________________________
separable_conv2d_173 (Separa (None, 16, 16, 64)        2400      
_________________________________________________________________
activation_229 (Activation)  (None, 16, 16, 64)        0         
_________________________________________________________________
dropout_229 (Dropout)        (None, 16, 16, 64)        0         
_________________________________________________________________
separable_conv2d_174 (Separa (None, 16, 16, 512)       33856     
_________________________________________________________________
activation_230 (Activation)  (None, 16, 16, 512)       0         
_________________________________________________________________
dropout_230 (Dropout)        (None, 16, 16, 512)       0         
_________________________________________________________________
flatten_70 (Flatten)         (None, 131072)            0         
_________________________________________________________________
dense_126 (Dense)            (None, 256)               33554688  
_________________________________________________________________
activation_231 (Activation)  (None, 256)               0         
_________________________________________________________________
dropout_231 (Dropout)        (None, 256)               0         
_________________________________________________________________
dense_127 (Dense)            (None, 100)               25700     
=================================================================
Total params: 33,616,927
Trainable params: 33,616,863
Non-trainable params: 64
_________________________________________________________________
