Model: "sequential_326"
_________________________________________________________________
Layer (type)                 Output Shape              Param #   
=================================================================
separable_conv2d_615 (Separa (None, 32, 32, 32)        155       
_________________________________________________________________
activation_914 (Activation)  (None, 32, 32, 32)        0         
_________________________________________________________________
dropout_914 (Dropout)        (None, 32, 32, 32)        0         
_________________________________________________________________
flatten_326 (Flatten)        (None, 32768)             0         
_________________________________________________________________
dense_625 (Dense)            (None, 16)                524304    
_________________________________________________________________
activation_915 (Activation)  (None, 16)                0         
_________________________________________________________________
dropout_915 (Dropout)        (None, 16)                0         
_________________________________________________________________
dense_626 (Dense)            (None, 100)               1700      
=================================================================
Total params: 526,159
Trainable params: 526,159
Non-trainable params: 0
_________________________________________________________________
