Model: "sequential_49"
_________________________________________________________________
Layer (type)                 Output Shape              Param #   
=================================================================
separable_conv2d_111 (Separa (None, 32, 32, 16)        91        
_________________________________________________________________
activation_146 (Activation)  (None, 32, 32, 16)        0         
_________________________________________________________________
dropout_146 (Dropout)        (None, 32, 32, 16)        0         
_________________________________________________________________
separable_conv2d_112 (Separa (None, 32, 32, 512)       8848      
_________________________________________________________________
activation_147 (Activation)  (None, 32, 32, 512)       0         
_________________________________________________________________
dropout_147 (Dropout)        (None, 32, 32, 512)       0         
_________________________________________________________________
flatten_49 (Flatten)         (None, 524288)            0         
_________________________________________________________________
dense_84 (Dense)             (None, 256)               134217984 
_________________________________________________________________
activation_148 (Activation)  (None, 256)               0         
_________________________________________________________________
dropout_148 (Dropout)        (None, 256)               0         
_________________________________________________________________
dense_85 (Dense)             (None, 100)               25700     
=================================================================
Total params: 134,252,623
Trainable params: 134,252,623
Non-trainable params: 0
_________________________________________________________________
