Model: "sequential_403"
_________________________________________________________________
Layer (type)                 Output Shape              Param #   
=================================================================
separable_conv2d_712 (Separa (None, 32, 32, 32)        155       
_________________________________________________________________
activation_1087 (Activation) (None, 32, 32, 32)        0         
_________________________________________________________________
dropout_1087 (Dropout)       (None, 32, 32, 32)        0         
_________________________________________________________________
separable_conv2d_713 (Separa (None, 32, 32, 128)       4512      
_________________________________________________________________
batch_normalization_193 (Bat (None, 32, 32, 128)       512       
_________________________________________________________________
activation_1088 (Activation) (None, 32, 32, 128)       0         
_________________________________________________________________
dropout_1088 (Dropout)       (None, 32, 32, 128)       0         
_________________________________________________________________
flatten_403 (Flatten)        (None, 131072)            0         
_________________________________________________________________
dense_778 (Dense)            (None, 128)               16777344  
_________________________________________________________________
activation_1089 (Activation) (None, 128)               0         
_________________________________________________________________
dropout_1089 (Dropout)       (None, 128)               0         
_________________________________________________________________
dense_779 (Dense)            (None, 100)               12900     
=================================================================
Total params: 16,795,423
Trainable params: 16,795,167
Non-trainable params: 256
_________________________________________________________________
