Model: "sequential_305"
_________________________________________________________________
Layer (type)                 Output Shape              Param #   
=================================================================
separable_conv2d_594 (Separa (None, 32, 32, 32)        155       
_________________________________________________________________
activation_873 (Activation)  (None, 32, 32, 32)        0         
_________________________________________________________________
dropout_873 (Dropout)        (None, 32, 32, 32)        0         
_________________________________________________________________
max_pooling2d_238 (MaxPoolin (None, 16, 16, 32)        0         
_________________________________________________________________
flatten_305 (Flatten)        (None, 8192)              0         
_________________________________________________________________
dense_584 (Dense)            (None, 128)               1048704   
_________________________________________________________________
activation_874 (Activation)  (None, 128)               0         
_________________________________________________________________
dropout_874 (Dropout)        (None, 128)               0         
_________________________________________________________________
dense_585 (Dense)            (None, 100)               12900     
=================================================================
Total params: 1,061,759
Trainable params: 1,061,759
Non-trainable params: 0
_________________________________________________________________
