Model: "sequential_113"
_________________________________________________________________
Layer (type)                 Output Shape              Param #   
=================================================================
separable_conv2d_289 (Separa (None, 32, 32, 16)        91        
_________________________________________________________________
activation_387 (Activation)  (None, 32, 32, 16)        0         
_________________________________________________________________
dropout_387 (Dropout)        (None, 32, 32, 16)        0         
_________________________________________________________________
max_pooling2d_97 (MaxPooling (None, 16, 16, 16)        0         
_________________________________________________________________
separable_conv2d_290 (Separa (None, 16, 16, 256)       4496      
_________________________________________________________________
activation_388 (Activation)  (None, 16, 16, 256)       0         
_________________________________________________________________
dropout_388 (Dropout)        (None, 16, 16, 256)       0         
_________________________________________________________________
flatten_113 (Flatten)        (None, 65536)             0         
_________________________________________________________________
dense_211 (Dense)            (None, 100)               6553700   
=================================================================
Total params: 6,558,287
Trainable params: 6,558,287
Non-trainable params: 0
_________________________________________________________________
