Model: "sequential_332"
_________________________________________________________________
Layer (type)                 Output Shape              Param #   
=================================================================
separable_conv2d_621 (Separa (None, 32, 32, 32)        155       
_________________________________________________________________
activation_926 (Activation)  (None, 32, 32, 32)        0         
_________________________________________________________________
dropout_926 (Dropout)        (None, 32, 32, 32)        0         
_________________________________________________________________
max_pooling2d_243 (MaxPoolin (None, 16, 16, 32)        0         
_________________________________________________________________
flatten_332 (Flatten)        (None, 8192)              0         
_________________________________________________________________
dense_637 (Dense)            (None, 16)                131088    
_________________________________________________________________
activation_927 (Activation)  (None, 16)                0         
_________________________________________________________________
dropout_927 (Dropout)        (None, 16)                0         
_________________________________________________________________
dense_638 (Dense)            (None, 100)               1700      
=================================================================
Total params: 132,943
Trainable params: 132,943
Non-trainable params: 0
_________________________________________________________________
