Model: "sequential_345"
_________________________________________________________________
Layer (type)                 Output Shape              Param #   
=================================================================
separable_conv2d_636 (Separa (None, 32, 32, 32)        155       
_________________________________________________________________
activation_954 (Activation)  (None, 32, 32, 32)        0         
_________________________________________________________________
dropout_954 (Dropout)        (None, 32, 32, 32)        0         
_________________________________________________________________
flatten_345 (Flatten)        (None, 32768)             0         
_________________________________________________________________
dense_663 (Dense)            (None, 1024)              33555456  
_________________________________________________________________
activation_955 (Activation)  (None, 1024)              0         
_________________________________________________________________
dropout_955 (Dropout)        (None, 1024)              0         
_________________________________________________________________
dense_664 (Dense)            (None, 100)               102500    
=================================================================
Total params: 33,658,111
Trainable params: 33,658,111
Non-trainable params: 0
_________________________________________________________________
