Model: "sequential_71"
_________________________________________________________________
Layer (type)                 Output Shape              Param #   
=================================================================
separable_conv2d_175 (Separa (None, 32, 32, 64)        283       
_________________________________________________________________
batch_normalization_69 (Batc (None, 32, 32, 64)        256       
_________________________________________________________________
activation_232 (Activation)  (None, 32, 32, 64)        0         
_________________________________________________________________
dropout_232 (Dropout)        (None, 32, 32, 64)        0         
_________________________________________________________________
separable_conv2d_176 (Separa (None, 32, 32, 512)       33856     
_________________________________________________________________
activation_233 (Activation)  (None, 32, 32, 512)       0         
_________________________________________________________________
dropout_233 (Dropout)        (None, 32, 32, 512)       0         
_________________________________________________________________
flatten_71 (Flatten)         (None, 524288)            0         
_________________________________________________________________
dense_128 (Dense)            (None, 256)               134217984 
_________________________________________________________________
activation_234 (Activation)  (None, 256)               0         
_________________________________________________________________
dropout_234 (Dropout)        (None, 256)               0         
_________________________________________________________________
dense_129 (Dense)            (None, 100)               25700     
=================================================================
Total params: 134,278,079
Trainable params: 134,277,951
Non-trainable params: 128
_________________________________________________________________
