Model: "sequential_153"
_________________________________________________________________
Layer (type)                 Output Shape              Param #   
=================================================================
separable_conv2d_375 (Separa (None, 32, 32, 64)        283       
_________________________________________________________________
batch_normalization_138 (Bat (None, 32, 32, 64)        256       
_________________________________________________________________
activation_512 (Activation)  (None, 32, 32, 64)        0         
_________________________________________________________________
dropout_512 (Dropout)        (None, 32, 32, 64)        0         
_________________________________________________________________
max_pooling2d_137 (MaxPoolin (None, 16, 16, 64)        0         
_________________________________________________________________
separable_conv2d_376 (Separa (None, 16, 16, 256)       17216     
_________________________________________________________________
activation_513 (Activation)  (None, 16, 16, 256)       0         
_________________________________________________________________
dropout_513 (Dropout)        (None, 16, 16, 256)       0         
_________________________________________________________________
flatten_153 (Flatten)        (None, 65536)             0         
_________________________________________________________________
dense_290 (Dense)            (None, 1024)              67109888  
_________________________________________________________________
activation_514 (Activation)  (None, 1024)              0         
_________________________________________________________________
dropout_514 (Dropout)        (None, 1024)              0         
_________________________________________________________________
dense_291 (Dense)            (None, 100)               102500    
=================================================================
Total params: 67,230,143
Trainable params: 67,230,015
Non-trainable params: 128
_________________________________________________________________
