Model: "sequential_446"
_________________________________________________________________
Layer (type)                 Output Shape              Param #   
=================================================================
separable_conv2d_781 (Separa (None, 32, 32, 256)       1051      
_________________________________________________________________
activation_1199 (Activation) (None, 32, 32, 256)       0         
_________________________________________________________________
dropout_1199 (Dropout)       (None, 32, 32, 256)       0         
_________________________________________________________________
separable_conv2d_782 (Separa (None, 32, 32, 512)       133888    
_________________________________________________________________
activation_1200 (Activation) (None, 32, 32, 512)       0         
_________________________________________________________________
dropout_1200 (Dropout)       (None, 32, 32, 512)       0         
_________________________________________________________________
flatten_446 (Flatten)        (None, 524288)            0         
_________________________________________________________________
dense_864 (Dense)            (None, 32)                16777248  
_________________________________________________________________
batch_normalization_208 (Bat (None, 32)                128       
_________________________________________________________________
activation_1201 (Activation) (None, 32)                0         
_________________________________________________________________
dropout_1201 (Dropout)       (None, 32)                0         
_________________________________________________________________
dense_865 (Dense)            (None, 100)               3300      
=================================================================
Total params: 16,915,615
Trainable params: 16,915,551
Non-trainable params: 64
_________________________________________________________________
