Model: "sequential_118"
_________________________________________________________________
Layer (type)                 Output Shape              Param #   
=================================================================
separable_conv2d_302 (Separa (None, 32, 32, 16)        91        
_________________________________________________________________
activation_404 (Activation)  (None, 32, 32, 16)        0         
_________________________________________________________________
dropout_404 (Dropout)        (None, 32, 32, 16)        0         
_________________________________________________________________
max_pooling2d_102 (MaxPoolin (None, 16, 16, 16)        0         
_________________________________________________________________
separable_conv2d_303 (Separa (None, 16, 16, 64)        1232      
_________________________________________________________________
batch_normalization_120 (Bat (None, 16, 16, 64)        256       
_________________________________________________________________
activation_405 (Activation)  (None, 16, 16, 64)        0         
_________________________________________________________________
dropout_405 (Dropout)        (None, 16, 16, 64)        0         
_________________________________________________________________
separable_conv2d_304 (Separa (None, 16, 16, 512)       33856     
_________________________________________________________________
activation_406 (Activation)  (None, 16, 16, 512)       0         
_________________________________________________________________
dropout_406 (Dropout)        (None, 16, 16, 512)       0         
_________________________________________________________________
flatten_118 (Flatten)        (None, 131072)            0         
_________________________________________________________________
dense_220 (Dense)            (None, 256)               33554688  
_________________________________________________________________
activation_407 (Activation)  (None, 256)               0         
_________________________________________________________________
dropout_407 (Dropout)        (None, 256)               0         
_________________________________________________________________
dense_221 (Dense)            (None, 100)               25700     
=================================================================
Total params: 33,615,823
Trainable params: 33,615,695
Non-trainable params: 128
_________________________________________________________________
