Model: "sequential_236"
_________________________________________________________________
Layer (type)                 Output Shape              Param #   
=================================================================
separable_conv2d_522 (Separa (None, 32, 32, 32)        155       
_________________________________________________________________
activation_739 (Activation)  (None, 32, 32, 32)        0         
_________________________________________________________________
dropout_739 (Dropout)        (None, 32, 32, 32)        0         
_________________________________________________________________
max_pooling2d_200 (MaxPoolin (None, 16, 16, 32)        0         
_________________________________________________________________
flatten_236 (Flatten)        (None, 8192)              0         
_________________________________________________________________
dense_453 (Dense)            (None, 1024)              8389632   
_________________________________________________________________
activation_740 (Activation)  (None, 1024)              0         
_________________________________________________________________
dropout_740 (Dropout)        (None, 1024)              0         
_________________________________________________________________
dense_454 (Dense)            (None, 100)               102500    
=================================================================
Total params: 8,492,287
Trainable params: 8,492,287
Non-trainable params: 0
_________________________________________________________________
