Model: "sequential_444"
_________________________________________________________________
Layer (type)                 Output Shape              Param #   
=================================================================
separable_conv2d_778 (Separa (None, 32, 32, 32)        155       
_________________________________________________________________
activation_1194 (Activation) (None, 32, 32, 32)        0         
_________________________________________________________________
dropout_1194 (Dropout)       (None, 32, 32, 32)        0         
_________________________________________________________________
separable_conv2d_779 (Separa (None, 32, 32, 32)        1344      
_________________________________________________________________
activation_1195 (Activation) (None, 32, 32, 32)        0         
_________________________________________________________________
dropout_1195 (Dropout)       (None, 32, 32, 32)        0         
_________________________________________________________________
flatten_444 (Flatten)        (None, 32768)             0         
_________________________________________________________________
dense_860 (Dense)            (None, 1024)              33555456  
_________________________________________________________________
activation_1196 (Activation) (None, 1024)              0         
_________________________________________________________________
dropout_1196 (Dropout)       (None, 1024)              0         
_________________________________________________________________
dense_861 (Dense)            (None, 100)               102500    
=================================================================
Total params: 33,659,455
Trainable params: 33,659,455
Non-trainable params: 0
_________________________________________________________________
