Model: "sequential_367"
_________________________________________________________________
Layer (type)                 Output Shape              Param #   
=================================================================
separable_conv2d_663 (Separa (None, 32, 32, 256)       1051      
_________________________________________________________________
activation_1002 (Activation) (None, 32, 32, 256)       0         
_________________________________________________________________
dropout_1002 (Dropout)       (None, 32, 32, 256)       0         
_________________________________________________________________
separable_conv2d_664 (Separa (None, 32, 32, 128)       35200     
_________________________________________________________________
activation_1003 (Activation) (None, 32, 32, 128)       0         
_________________________________________________________________
dropout_1003 (Dropout)       (None, 32, 32, 128)       0         
_________________________________________________________________
flatten_367 (Flatten)        (None, 131072)            0         
_________________________________________________________________
dense_706 (Dense)            (None, 64)                8388672   
_________________________________________________________________
batch_normalization_184 (Bat (None, 64)                256       
_________________________________________________________________
activation_1004 (Activation) (None, 64)                0         
_________________________________________________________________
dropout_1004 (Dropout)       (None, 64)                0         
_________________________________________________________________
dense_707 (Dense)            (None, 100)               6500      
=================================================================
Total params: 8,431,679
Trainable params: 8,431,551
Non-trainable params: 128
_________________________________________________________________
