Model: "sequential_463"
_________________________________________________________________
Layer (type)                 Output Shape              Param #   
=================================================================
separable_conv2d_811 (Separa (None, 32, 32, 32)        155       
_________________________________________________________________
activation_1245 (Activation) (None, 32, 32, 32)        0         
_________________________________________________________________
dropout_1245 (Dropout)       (None, 32, 32, 32)        0         
_________________________________________________________________
separable_conv2d_812 (Separa (None, 32, 32, 16)        816       
_________________________________________________________________
activation_1246 (Activation) (None, 32, 32, 16)        0         
_________________________________________________________________
dropout_1246 (Dropout)       (None, 32, 32, 16)        0         
_________________________________________________________________
flatten_463 (Flatten)        (None, 16384)             0         
_________________________________________________________________
dense_897 (Dense)            (None, 1024)              16778240  
_________________________________________________________________
activation_1247 (Activation) (None, 1024)              0         
_________________________________________________________________
dropout_1247 (Dropout)       (None, 1024)              0         
_________________________________________________________________
dense_898 (Dense)            (None, 100)               102500    
=================================================================
Total params: 16,881,711
Trainable params: 16,881,711
Non-trainable params: 0
_________________________________________________________________
