Model: "sequential_209"
_________________________________________________________________
Layer (type)                 Output Shape              Param #   
=================================================================
separable_conv2d_483 (Separa (None, 32, 32, 16)        91        
_________________________________________________________________
activation_674 (Activation)  (None, 32, 32, 16)        0         
_________________________________________________________________
dropout_674 (Dropout)        (None, 32, 32, 16)        0         
_________________________________________________________________
separable_conv2d_484 (Separa (None, 32, 32, 256)       4496      
_________________________________________________________________
activation_675 (Activation)  (None, 32, 32, 256)       0         
_________________________________________________________________
dropout_675 (Dropout)        (None, 32, 32, 256)       0         
_________________________________________________________________
flatten_209 (Flatten)        (None, 262144)            0         
_________________________________________________________________
dense_400 (Dense)            (None, 1024)              268436480 
_________________________________________________________________
activation_676 (Activation)  (None, 1024)              0         
_________________________________________________________________
dropout_676 (Dropout)        (None, 1024)              0         
_________________________________________________________________
dense_401 (Dense)            (None, 100)               102500    
=================================================================
Total params: 268,543,567
Trainable params: 268,543,567
Non-trainable params: 0
_________________________________________________________________
