Model: "sequential_272"
_________________________________________________________________
Layer (type)                 Output Shape              Param #   
=================================================================
separable_conv2d_561 (Separa (None, 32, 32, 32)        155       
_________________________________________________________________
activation_808 (Activation)  (None, 32, 32, 32)        0         
_________________________________________________________________
dropout_808 (Dropout)        (None, 32, 32, 32)        0         
_________________________________________________________________
flatten_272 (Flatten)        (None, 32768)             0         
_________________________________________________________________
dense_519 (Dense)            (None, 1024)              33555456  
_________________________________________________________________
activation_809 (Activation)  (None, 1024)              0         
_________________________________________________________________
dropout_809 (Dropout)        (None, 1024)              0         
_________________________________________________________________
dense_520 (Dense)            (None, 100)               102500    
=================================================================
Total params: 33,658,111
Trainable params: 33,658,111
Non-trainable params: 0
_________________________________________________________________
