Model: "sequential_69"
_________________________________________________________________
Layer (type)                 Output Shape              Param #   
=================================================================
separable_conv2d_168 (Separa (None, 32, 32, 32)        155       
_________________________________________________________________
batch_normalization_67 (Batc (None, 32, 32, 32)        128       
_________________________________________________________________
activation_223 (Activation)  (None, 32, 32, 32)        0         
_________________________________________________________________
dropout_223 (Dropout)        (None, 32, 32, 32)        0         
_________________________________________________________________
max_pooling2d_57 (MaxPooling (None, 16, 16, 32)        0         
_________________________________________________________________
separable_conv2d_169 (Separa (None, 16, 16, 256)       8736      
_________________________________________________________________
activation_224 (Activation)  (None, 16, 16, 256)       0         
_________________________________________________________________
dropout_224 (Dropout)        (None, 16, 16, 256)       0         
_________________________________________________________________
separable_conv2d_170 (Separa (None, 16, 16, 32)        10528     
_________________________________________________________________
activation_225 (Activation)  (None, 16, 16, 32)        0         
_________________________________________________________________
dropout_225 (Dropout)        (None, 16, 16, 32)        0         
_________________________________________________________________
separable_conv2d_171 (Separa (None, 16, 16, 128)       4512      
_________________________________________________________________
activation_226 (Activation)  (None, 16, 16, 128)       0         
_________________________________________________________________
dropout_226 (Dropout)        (None, 16, 16, 128)       0         
_________________________________________________________________
flatten_69 (Flatten)         (None, 32768)             0         
_________________________________________________________________
dense_124 (Dense)            (None, 256)               8388864   
_________________________________________________________________
activation_227 (Activation)  (None, 256)               0         
_________________________________________________________________
dropout_227 (Dropout)        (None, 256)               0         
_________________________________________________________________
dense_125 (Dense)            (None, 100)               25700     
=================================================================
Total params: 8,438,623
Trainable params: 8,438,559
Non-trainable params: 64
_________________________________________________________________
