Model: "sequential_480"
_________________________________________________________________
Layer (type)                 Output Shape              Param #   
=================================================================
separable_conv2d_839 (Separa (None, 32, 32, 32)        155       
_________________________________________________________________
activation_1289 (Activation) (None, 32, 32, 32)        0         
_________________________________________________________________
dropout_1289 (Dropout)       (None, 32, 32, 32)        0         
_________________________________________________________________
separable_conv2d_840 (Separa (None, 32, 32, 16)        816       
_________________________________________________________________
activation_1290 (Activation) (None, 32, 32, 16)        0         
_________________________________________________________________
dropout_1290 (Dropout)       (None, 32, 32, 16)        0         
_________________________________________________________________
flatten_480 (Flatten)        (None, 16384)             0         
_________________________________________________________________
dense_930 (Dense)            (None, 1024)              16778240  
_________________________________________________________________
activation_1291 (Activation) (None, 1024)              0         
_________________________________________________________________
dropout_1291 (Dropout)       (None, 1024)              0         
_________________________________________________________________
dense_931 (Dense)            (None, 100)               102500    
=================================================================
Total params: 16,881,711
Trainable params: 16,881,711
Non-trainable params: 0
_________________________________________________________________
