Model: "sequential_36"
_________________________________________________________________
Layer (type)                 Output Shape              Param #   
=================================================================
separable_conv2d_74 (Separab (None, 32, 32, 64)        283       
_________________________________________________________________
batch_normalization_36 (Batc (None, 32, 32, 64)        256       
_________________________________________________________________
activation_97 (Activation)   (None, 32, 32, 64)        0         
_________________________________________________________________
dropout_97 (Dropout)         (None, 32, 32, 64)        0         
_________________________________________________________________
max_pooling2d_27 (MaxPooling (None, 16, 16, 64)        0         
_________________________________________________________________
separable_conv2d_75 (Separab (None, 16, 16, 8)         1096      
_________________________________________________________________
activation_98 (Activation)   (None, 16, 16, 8)         0         
_________________________________________________________________
dropout_98 (Dropout)         (None, 16, 16, 8)         0         
_________________________________________________________________
separable_conv2d_76 (Separab (None, 16, 16, 128)       1224      
_________________________________________________________________
activation_99 (Activation)   (None, 16, 16, 128)       0         
_________________________________________________________________
dropout_99 (Dropout)         (None, 16, 16, 128)       0         
_________________________________________________________________
flatten_36 (Flatten)         (None, 32768)             0         
_________________________________________________________________
dense_59 (Dense)             (None, 256)               8388864   
_________________________________________________________________
activation_100 (Activation)  (None, 256)               0         
_________________________________________________________________
dropout_100 (Dropout)        (None, 256)               0         
_________________________________________________________________
dense_60 (Dense)             (None, 100)               25700     
=================================================================
Total params: 8,417,423
Trainable params: 8,417,295
Non-trainable params: 128
_________________________________________________________________
