Model: "sequential_437"
_________________________________________________________________
Layer (type)                 Output Shape              Param #   
=================================================================
separable_conv2d_766 (Separa (None, 32, 32, 32)        155       
_________________________________________________________________
activation_1175 (Activation) (None, 32, 32, 32)        0         
_________________________________________________________________
dropout_1175 (Dropout)       (None, 32, 32, 32)        0         
_________________________________________________________________
flatten_437 (Flatten)        (None, 32768)             0         
_________________________________________________________________
dense_846 (Dense)            (None, 128)               4194432   
_________________________________________________________________
activation_1176 (Activation) (None, 128)               0         
_________________________________________________________________
dropout_1176 (Dropout)       (None, 128)               0         
_________________________________________________________________
dense_847 (Dense)            (None, 100)               12900     
=================================================================
Total params: 4,207,487
Trainable params: 4,207,487
Non-trainable params: 0
_________________________________________________________________
