Model: "sequential_117"
_________________________________________________________________
Layer (type)                 Output Shape              Param #   
=================================================================
separable_conv2d_300 (Separa (None, 32, 32, 64)        283       
_________________________________________________________________
batch_normalization_119 (Bat (None, 32, 32, 64)        256       
_________________________________________________________________
activation_401 (Activation)  (None, 32, 32, 64)        0         
_________________________________________________________________
dropout_401 (Dropout)        (None, 32, 32, 64)        0         
_________________________________________________________________
max_pooling2d_101 (MaxPoolin (None, 16, 16, 64)        0         
_________________________________________________________________
separable_conv2d_301 (Separa (None, 16, 16, 256)       17216     
_________________________________________________________________
activation_402 (Activation)  (None, 16, 16, 256)       0         
_________________________________________________________________
dropout_402 (Dropout)        (None, 16, 16, 256)       0         
_________________________________________________________________
flatten_117 (Flatten)        (None, 65536)             0         
_________________________________________________________________
dense_218 (Dense)            (None, 1024)              67109888  
_________________________________________________________________
activation_403 (Activation)  (None, 1024)              0         
_________________________________________________________________
dropout_403 (Dropout)        (None, 1024)              0         
_________________________________________________________________
dense_219 (Dense)            (None, 100)               102500    
=================================================================
Total params: 67,230,143
Trainable params: 67,230,015
Non-trainable params: 128
_________________________________________________________________
