Model: "sequential_378"
_________________________________________________________________
Layer (type)                 Output Shape              Param #   
=================================================================
separable_conv2d_677 (Separa (None, 32, 32, 32)        155       
_________________________________________________________________
activation_1027 (Activation) (None, 32, 32, 32)        0         
_________________________________________________________________
dropout_1027 (Dropout)       (None, 32, 32, 32)        0         
_________________________________________________________________
separable_conv2d_678 (Separa (None, 32, 32, 128)       4512      
_________________________________________________________________
batch_normalization_186 (Bat (None, 32, 32, 128)       512       
_________________________________________________________________
activation_1028 (Activation) (None, 32, 32, 128)       0         
_________________________________________________________________
dropout_1028 (Dropout)       (None, 32, 32, 128)       0         
_________________________________________________________________
flatten_378 (Flatten)        (None, 131072)            0         
_________________________________________________________________
dense_728 (Dense)            (None, 1024)              134218752 
_________________________________________________________________
batch_normalization_187 (Bat (None, 1024)              4096      
_________________________________________________________________
activation_1029 (Activation) (None, 1024)              0         
_________________________________________________________________
dropout_1029 (Dropout)       (None, 1024)              0         
_________________________________________________________________
dense_729 (Dense)            (None, 100)               102500    
=================================================================
Total params: 134,330,527
Trainable params: 134,328,223
Non-trainable params: 2,304
_________________________________________________________________
