Model: "sequential_201"
_________________________________________________________________
Layer (type)                 Output Shape              Param #   
=================================================================
separable_conv2d_468 (Separa (None, 32, 32, 16)        91        
_________________________________________________________________
activation_651 (Activation)  (None, 32, 32, 16)        0         
_________________________________________________________________
dropout_651 (Dropout)        (None, 32, 32, 16)        0         
_________________________________________________________________
max_pooling2d_178 (MaxPoolin (None, 16, 16, 16)        0         
_________________________________________________________________
separable_conv2d_469 (Separa (None, 16, 16, 256)       4496      
_________________________________________________________________
activation_652 (Activation)  (None, 16, 16, 256)       0         
_________________________________________________________________
dropout_652 (Dropout)        (None, 16, 16, 256)       0         
_________________________________________________________________
flatten_201 (Flatten)        (None, 65536)             0         
_________________________________________________________________
dense_384 (Dense)            (None, 1024)              67109888  
_________________________________________________________________
activation_653 (Activation)  (None, 1024)              0         
_________________________________________________________________
dropout_653 (Dropout)        (None, 1024)              0         
_________________________________________________________________
dense_385 (Dense)            (None, 100)               102500    
=================================================================
Total params: 67,216,975
Trainable params: 67,216,975
Non-trainable params: 0
_________________________________________________________________
