Model: "sequential_286"
_________________________________________________________________
Layer (type)                 Output Shape              Param #   
=================================================================
separable_conv2d_575 (Separa (None, 32, 32, 32)        155       
_________________________________________________________________
activation_835 (Activation)  (None, 32, 32, 32)        0         
_________________________________________________________________
dropout_835 (Dropout)        (None, 32, 32, 32)        0         
_________________________________________________________________
flatten_286 (Flatten)        (None, 32768)             0         
_________________________________________________________________
dense_546 (Dense)            (None, 1024)              33555456  
_________________________________________________________________
activation_836 (Activation)  (None, 1024)              0         
_________________________________________________________________
dropout_836 (Dropout)        (None, 1024)              0         
_________________________________________________________________
dense_547 (Dense)            (None, 100)               102500    
=================================================================
Total params: 33,658,111
Trainable params: 33,658,111
Non-trainable params: 0
_________________________________________________________________
