Model: "sequential_245"
_________________________________________________________________
Layer (type)                 Output Shape              Param #   
=================================================================
separable_conv2d_533 (Separa (None, 32, 32, 32)        155       
_________________________________________________________________
activation_756 (Activation)  (None, 32, 32, 32)        0         
_________________________________________________________________
dropout_756 (Dropout)        (None, 32, 32, 32)        0         
_________________________________________________________________
flatten_245 (Flatten)        (None, 32768)             0         
_________________________________________________________________
dense_468 (Dense)            (None, 128)               4194432   
_________________________________________________________________
activation_757 (Activation)  (None, 128)               0         
_________________________________________________________________
dropout_757 (Dropout)        (None, 128)               0         
_________________________________________________________________
dense_469 (Dense)            (None, 100)               12900     
=================================================================
Total params: 4,207,487
Trainable params: 4,207,487
Non-trainable params: 0
_________________________________________________________________
