Model: "sequential_222"
_________________________________________________________________
Layer (type)                 Output Shape              Param #   
=================================================================
separable_conv2d_504 (Separa (None, 32, 32, 128)       539       
_________________________________________________________________
batch_normalization_166 (Bat (None, 32, 32, 128)       512       
_________________________________________________________________
activation_708 (Activation)  (None, 32, 32, 128)       0         
_________________________________________________________________
dropout_708 (Dropout)        (None, 32, 32, 128)       0         
_________________________________________________________________
flatten_222 (Flatten)        (None, 131072)            0         
_________________________________________________________________
dense_426 (Dense)            (None, 1024)              134218752 
_________________________________________________________________
activation_709 (Activation)  (None, 1024)              0         
_________________________________________________________________
dropout_709 (Dropout)        (None, 1024)              0         
_________________________________________________________________
dense_427 (Dense)            (None, 100)               102500    
=================================================================
Total params: 134,322,303
Trainable params: 134,322,047
Non-trainable params: 256
_________________________________________________________________
