Model: "sequential_191"
_________________________________________________________________
Layer (type)                 Output Shape              Param #   
=================================================================
separable_conv2d_450 (Separa (None, 32, 32, 16)        91        
_________________________________________________________________
activation_624 (Activation)  (None, 32, 32, 16)        0         
_________________________________________________________________
dropout_624 (Dropout)        (None, 32, 32, 16)        0         
_________________________________________________________________
max_pooling2d_170 (MaxPoolin (None, 16, 16, 16)        0         
_________________________________________________________________
separable_conv2d_451 (Separa (None, 16, 16, 256)       4496      
_________________________________________________________________
activation_625 (Activation)  (None, 16, 16, 256)       0         
_________________________________________________________________
dropout_625 (Dropout)        (None, 16, 16, 256)       0         
_________________________________________________________________
flatten_191 (Flatten)        (None, 65536)             0         
_________________________________________________________________
dense_365 (Dense)            (None, 1024)              67109888  
_________________________________________________________________
activation_626 (Activation)  (None, 1024)              0         
_________________________________________________________________
dropout_626 (Dropout)        (None, 1024)              0         
_________________________________________________________________
dense_366 (Dense)            (None, 100)               102500    
=================================================================
Total params: 67,216,975
Trainable params: 67,216,975
Non-trainable params: 0
_________________________________________________________________
