Model: "sequential_210"
_________________________________________________________________
Layer (type)                 Output Shape              Param #   
=================================================================
separable_conv2d_485 (Separa (None, 32, 32, 16)        91        
_________________________________________________________________
activation_677 (Activation)  (None, 32, 32, 16)        0         
_________________________________________________________________
dropout_677 (Dropout)        (None, 32, 32, 16)        0         
_________________________________________________________________
max_pooling2d_184 (MaxPoolin (None, 16, 16, 16)        0         
_________________________________________________________________
separable_conv2d_486 (Separa (None, 16, 16, 256)       4496      
_________________________________________________________________
activation_678 (Activation)  (None, 16, 16, 256)       0         
_________________________________________________________________
dropout_678 (Dropout)        (None, 16, 16, 256)       0         
_________________________________________________________________
flatten_210 (Flatten)        (None, 65536)             0         
_________________________________________________________________
dense_402 (Dense)            (None, 1024)              67109888  
_________________________________________________________________
activation_679 (Activation)  (None, 1024)              0         
_________________________________________________________________
dropout_679 (Dropout)        (None, 1024)              0         
_________________________________________________________________
dense_403 (Dense)            (None, 100)               102500    
=================================================================
Total params: 67,216,975
Trainable params: 67,216,975
Non-trainable params: 0
_________________________________________________________________
