Model: "sequential_242"
_________________________________________________________________
Layer (type)                 Output Shape              Param #   
=================================================================
separable_conv2d_529 (Separa (None, 32, 32, 32)        155       
_________________________________________________________________
activation_751 (Activation)  (None, 32, 32, 32)        0         
_________________________________________________________________
dropout_751 (Dropout)        (None, 32, 32, 32)        0         
_________________________________________________________________
max_pooling2d_206 (MaxPoolin (None, 16, 16, 32)        0         
_________________________________________________________________
flatten_242 (Flatten)        (None, 8192)              0         
_________________________________________________________________
dense_464 (Dense)            (None, 1024)              8389632   
_________________________________________________________________
activation_752 (Activation)  (None, 1024)              0         
_________________________________________________________________
dropout_752 (Dropout)        (None, 1024)              0         
_________________________________________________________________
dense_465 (Dense)            (None, 100)               102500    
=================================================================
Total params: 8,492,287
Trainable params: 8,492,287
Non-trainable params: 0
_________________________________________________________________
