Model: "sequential_27"
_________________________________________________________________
Layer (type)                 Output Shape              Param #   
=================================================================
separable_conv2d_55 (Separab (None, 32, 32, 8)         59        
_________________________________________________________________
batch_normalization_27 (Batc (None, 32, 32, 8)         32        
_________________________________________________________________
activation_72 (Activation)   (None, 32, 32, 8)         0         
_________________________________________________________________
dropout_72 (Dropout)         (None, 32, 32, 8)         0         
_________________________________________________________________
max_pooling2d_20 (MaxPooling (None, 16, 16, 8)         0         
_________________________________________________________________
separable_conv2d_56 (Separab (None, 16, 16, 32)        360       
_________________________________________________________________
activation_73 (Activation)   (None, 16, 16, 32)        0         
_________________________________________________________________
dropout_73 (Dropout)         (None, 16, 16, 32)        0         
_________________________________________________________________
flatten_27 (Flatten)         (None, 8192)              0         
_________________________________________________________________
dense_44 (Dense)             (None, 256)               2097408   
_________________________________________________________________
batch_normalization_28 (Batc (None, 256)               1024      
_________________________________________________________________
activation_74 (Activation)   (None, 256)               0         
_________________________________________________________________
dropout_74 (Dropout)         (None, 256)               0         
_________________________________________________________________
dense_45 (Dense)             (None, 100)               25700     
=================================================================
Total params: 2,124,583
Trainable params: 2,124,055
Non-trainable params: 528
_________________________________________________________________
