Model: "sequential_436"
_________________________________________________________________
Layer (type)                 Output Shape              Param #   
=================================================================
separable_conv2d_764 (Separa (None, 32, 32, 32)        155       
_________________________________________________________________
activation_1172 (Activation) (None, 32, 32, 32)        0         
_________________________________________________________________
dropout_1172 (Dropout)       (None, 32, 32, 32)        0         
_________________________________________________________________
separable_conv2d_765 (Separa (None, 32, 32, 32)        1344      
_________________________________________________________________
activation_1173 (Activation) (None, 32, 32, 32)        0         
_________________________________________________________________
dropout_1173 (Dropout)       (None, 32, 32, 32)        0         
_________________________________________________________________
flatten_436 (Flatten)        (None, 32768)             0         
_________________________________________________________________
dense_844 (Dense)            (None, 1024)              33555456  
_________________________________________________________________
activation_1174 (Activation) (None, 1024)              0         
_________________________________________________________________
dropout_1174 (Dropout)       (None, 1024)              0         
_________________________________________________________________
dense_845 (Dense)            (None, 100)               102500    
=================================================================
Total params: 33,659,455
Trainable params: 33,659,455
Non-trainable params: 0
_________________________________________________________________
