Model: "sequential_25"
_________________________________________________________________
Layer (type)                 Output Shape              Param #   
=================================================================
separable_conv2d_51 (Separab (None, 32, 32, 64)        283       
_________________________________________________________________
batch_normalization_24 (Batc (None, 32, 32, 64)        256       
_________________________________________________________________
activation_68 (Activation)   (None, 32, 32, 64)        0         
_________________________________________________________________
dropout_68 (Dropout)         (None, 32, 32, 64)        0         
_________________________________________________________________
separable_conv2d_52 (Separab (None, 32, 32, 64)        4736      
_________________________________________________________________
batch_normalization_25 (Batc (None, 32, 32, 64)        256       
_________________________________________________________________
activation_69 (Activation)   (None, 32, 32, 64)        0         
_________________________________________________________________
dropout_69 (Dropout)         (None, 32, 32, 64)        0         
_________________________________________________________________
flatten_25 (Flatten)         (None, 65536)             0         
_________________________________________________________________
dense_42 (Dense)             (None, 100)               6553700   
=================================================================
Total params: 6,559,231
Trainable params: 6,558,975
Non-trainable params: 256
_________________________________________________________________
