Model: "sequential_177"
_________________________________________________________________
Layer (type)                 Output Shape              Param #   
=================================================================
separable_conv2d_423 (Separa (None, 32, 32, 16)        91        
_________________________________________________________________
activation_584 (Activation)  (None, 32, 32, 16)        0         
_________________________________________________________________
dropout_584 (Dropout)        (None, 32, 32, 16)        0         
_________________________________________________________________
max_pooling2d_159 (MaxPoolin (None, 16, 16, 16)        0         
_________________________________________________________________
separable_conv2d_424 (Separa (None, 16, 16, 256)       4496      
_________________________________________________________________
activation_585 (Activation)  (None, 16, 16, 256)       0         
_________________________________________________________________
dropout_585 (Dropout)        (None, 16, 16, 256)       0         
_________________________________________________________________
flatten_177 (Flatten)        (None, 65536)             0         
_________________________________________________________________
dense_338 (Dense)            (None, 1024)              67109888  
_________________________________________________________________
activation_586 (Activation)  (None, 1024)              0         
_________________________________________________________________
dropout_586 (Dropout)        (None, 1024)              0         
_________________________________________________________________
dense_339 (Dense)            (None, 100)               102500    
=================================================================
Total params: 67,216,975
Trainable params: 67,216,975
Non-trainable params: 0
_________________________________________________________________
