Model: "sequential_156"
_________________________________________________________________
Layer (type)                 Output Shape              Param #   
=================================================================
separable_conv2d_381 (Separa (None, 32, 32, 64)        283       
_________________________________________________________________
batch_normalization_139 (Bat (None, 32, 32, 64)        256       
_________________________________________________________________
activation_521 (Activation)  (None, 32, 32, 64)        0         
_________________________________________________________________
dropout_521 (Dropout)        (None, 32, 32, 64)        0         
_________________________________________________________________
max_pooling2d_140 (MaxPoolin (None, 16, 16, 64)        0         
_________________________________________________________________
separable_conv2d_382 (Separa (None, 16, 16, 256)       17216     
_________________________________________________________________
activation_522 (Activation)  (None, 16, 16, 256)       0         
_________________________________________________________________
dropout_522 (Dropout)        (None, 16, 16, 256)       0         
_________________________________________________________________
flatten_156 (Flatten)        (None, 65536)             0         
_________________________________________________________________
dense_296 (Dense)            (None, 1024)              67109888  
_________________________________________________________________
activation_523 (Activation)  (None, 1024)              0         
_________________________________________________________________
dropout_523 (Dropout)        (None, 1024)              0         
_________________________________________________________________
dense_297 (Dense)            (None, 100)               102500    
=================================================================
Total params: 67,230,143
Trainable params: 67,230,015
Non-trainable params: 128
_________________________________________________________________
