Model: "sequential_248"
_________________________________________________________________
Layer (type)                 Output Shape              Param #   
=================================================================
separable_conv2d_537 (Separa (None, 32, 32, 32)        155       
_________________________________________________________________
activation_763 (Activation)  (None, 32, 32, 32)        0         
_________________________________________________________________
dropout_763 (Dropout)        (None, 32, 32, 32)        0         
_________________________________________________________________
max_pooling2d_210 (MaxPoolin (None, 16, 16, 32)        0         
_________________________________________________________________
flatten_248 (Flatten)        (None, 8192)              0         
_________________________________________________________________
dense_474 (Dense)            (None, 128)               1048704   
_________________________________________________________________
activation_764 (Activation)  (None, 128)               0         
_________________________________________________________________
dropout_764 (Dropout)        (None, 128)               0         
_________________________________________________________________
dense_475 (Dense)            (None, 100)               12900     
=================================================================
Total params: 1,061,759
Trainable params: 1,061,759
Non-trainable params: 0
_________________________________________________________________
