Model: "sequential_234"
_________________________________________________________________
Layer (type)                 Output Shape              Param #   
=================================================================
separable_conv2d_519 (Separa (None, 32, 32, 16)        91        
_________________________________________________________________
activation_735 (Activation)  (None, 32, 32, 16)        0         
_________________________________________________________________
dropout_735 (Dropout)        (None, 32, 32, 16)        0         
_________________________________________________________________
max_pooling2d_198 (MaxPoolin (None, 16, 16, 16)        0         
_________________________________________________________________
separable_conv2d_520 (Separa (None, 16, 16, 256)       4496      
_________________________________________________________________
activation_736 (Activation)  (None, 16, 16, 256)       0         
_________________________________________________________________
dropout_736 (Dropout)        (None, 16, 16, 256)       0         
_________________________________________________________________
flatten_234 (Flatten)        (None, 65536)             0         
_________________________________________________________________
dense_450 (Dense)            (None, 100)               6553700   
=================================================================
Total params: 6,558,287
Trainable params: 6,558,287
Non-trainable params: 0
_________________________________________________________________
