Model: "sequential_227"
_________________________________________________________________
Layer (type)                 Output Shape              Param #   
=================================================================
separable_conv2d_510 (Separa (None, 32, 32, 16)        91        
_________________________________________________________________
activation_719 (Activation)  (None, 32, 32, 16)        0         
_________________________________________________________________
dropout_719 (Dropout)        (None, 32, 32, 16)        0         
_________________________________________________________________
max_pooling2d_192 (MaxPoolin (None, 16, 16, 16)        0         
_________________________________________________________________
flatten_227 (Flatten)        (None, 4096)              0         
_________________________________________________________________
dense_436 (Dense)            (None, 1024)              4195328   
_________________________________________________________________
activation_720 (Activation)  (None, 1024)              0         
_________________________________________________________________
dropout_720 (Dropout)        (None, 1024)              0         
_________________________________________________________________
dense_437 (Dense)            (None, 100)               102500    
=================================================================
Total params: 4,297,919
Trainable params: 4,297,919
Non-trainable params: 0
_________________________________________________________________
