Model: "sequential_47"
_________________________________________________________________
Layer (type)                 Output Shape              Param #   
=================================================================
separable_conv2d_105 (Separa (None, 32, 32, 32)        155       
_________________________________________________________________
batch_normalization_50 (Batc (None, 32, 32, 32)        128       
_________________________________________________________________
activation_138 (Activation)  (None, 32, 32, 32)        0         
_________________________________________________________________
dropout_138 (Dropout)        (None, 32, 32, 32)        0         
_________________________________________________________________
max_pooling2d_38 (MaxPooling (None, 16, 16, 32)        0         
_________________________________________________________________
separable_conv2d_106 (Separa (None, 16, 16, 64)        2400      
_________________________________________________________________
activation_139 (Activation)  (None, 16, 16, 64)        0         
_________________________________________________________________
dropout_139 (Dropout)        (None, 16, 16, 64)        0         
_________________________________________________________________
separable_conv2d_107 (Separa (None, 16, 16, 128)       8896      
_________________________________________________________________
activation_140 (Activation)  (None, 16, 16, 128)       0         
_________________________________________________________________
dropout_140 (Dropout)        (None, 16, 16, 128)       0         
_________________________________________________________________
flatten_47 (Flatten)         (None, 32768)             0         
_________________________________________________________________
dense_80 (Dense)             (None, 256)               8388864   
_________________________________________________________________
activation_141 (Activation)  (None, 256)               0         
_________________________________________________________________
dropout_141 (Dropout)        (None, 256)               0         
_________________________________________________________________
dense_81 (Dense)             (None, 100)               25700     
=================================================================
Total params: 8,426,143
Trainable params: 8,426,079
Non-trainable params: 64
_________________________________________________________________
