Model: "sequential_158"
_________________________________________________________________
Layer (type)                 Output Shape              Param #   
=================================================================
separable_conv2d_385 (Separa (None, 32, 32, 64)        283       
_________________________________________________________________
batch_normalization_141 (Bat (None, 32, 32, 64)        256       
_________________________________________________________________
activation_527 (Activation)  (None, 32, 32, 64)        0         
_________________________________________________________________
dropout_527 (Dropout)        (None, 32, 32, 64)        0         
_________________________________________________________________
max_pooling2d_141 (MaxPoolin (None, 16, 16, 64)        0         
_________________________________________________________________
separable_conv2d_386 (Separa (None, 16, 16, 256)       17216     
_________________________________________________________________
activation_528 (Activation)  (None, 16, 16, 256)       0         
_________________________________________________________________
dropout_528 (Dropout)        (None, 16, 16, 256)       0         
_________________________________________________________________
flatten_158 (Flatten)        (None, 65536)             0         
_________________________________________________________________
dense_300 (Dense)            (None, 1024)              67109888  
_________________________________________________________________
activation_529 (Activation)  (None, 1024)              0         
_________________________________________________________________
dropout_529 (Dropout)        (None, 1024)              0         
_________________________________________________________________
dense_301 (Dense)            (None, 100)               102500    
=================================================================
Total params: 67,230,143
Trainable params: 67,230,015
Non-trainable params: 128
_________________________________________________________________
