Model: "sequential_20"
_________________________________________________________________
Layer (type)                 Output Shape              Param #   
=================================================================
separable_conv2d_41 (Separab (None, 32, 32, 8)         59        
_________________________________________________________________
batch_normalization_20 (Batc (None, 32, 32, 8)         32        
_________________________________________________________________
activation_54 (Activation)   (None, 32, 32, 8)         0         
_________________________________________________________________
dropout_54 (Dropout)         (None, 32, 32, 8)         0         
_________________________________________________________________
max_pooling2d_16 (MaxPooling (None, 16, 16, 8)         0         
_________________________________________________________________
separable_conv2d_42 (Separab (None, 16, 16, 64)        648       
_________________________________________________________________
activation_55 (Activation)   (None, 16, 16, 64)        0         
_________________________________________________________________
dropout_55 (Dropout)         (None, 16, 16, 64)        0         
_________________________________________________________________
flatten_20 (Flatten)         (None, 16384)             0         
_________________________________________________________________
dense_33 (Dense)             (None, 256)               4194560   
_________________________________________________________________
batch_normalization_21 (Batc (None, 256)               1024      
_________________________________________________________________
activation_56 (Activation)   (None, 256)               0         
_________________________________________________________________
dropout_56 (Dropout)         (None, 256)               0         
_________________________________________________________________
dense_34 (Dense)             (None, 100)               25700     
=================================================================
Total params: 4,222,023
Trainable params: 4,221,495
Non-trainable params: 528
_________________________________________________________________
