Model: "sequential_405"
_________________________________________________________________
Layer (type)                 Output Shape              Param #   
=================================================================
separable_conv2d_715 (Separa (None, 32, 32, 32)        155       
_________________________________________________________________
activation_1092 (Activation) (None, 32, 32, 32)        0         
_________________________________________________________________
dropout_1092 (Dropout)       (None, 32, 32, 32)        0         
_________________________________________________________________
separable_conv2d_716 (Separa (None, 32, 32, 64)        2400      
_________________________________________________________________
activation_1093 (Activation) (None, 32, 32, 64)        0         
_________________________________________________________________
dropout_1093 (Dropout)       (None, 32, 32, 64)        0         
_________________________________________________________________
flatten_405 (Flatten)        (None, 65536)             0         
_________________________________________________________________
dense_782 (Dense)            (None, 1024)              67109888  
_________________________________________________________________
activation_1094 (Activation) (None, 1024)              0         
_________________________________________________________________
dropout_1094 (Dropout)       (None, 1024)              0         
_________________________________________________________________
dense_783 (Dense)            (None, 100)               102500    
=================================================================
Total params: 67,214,943
Trainable params: 67,214,943
Non-trainable params: 0
_________________________________________________________________
