Model: "sequential_357"
_________________________________________________________________
Layer (type)                 Output Shape              Param #   
=================================================================
separable_conv2d_649 (Separa (None, 32, 32, 256)       1051      
_________________________________________________________________
activation_979 (Activation)  (None, 32, 32, 256)       0         
_________________________________________________________________
dropout_979 (Dropout)        (None, 32, 32, 256)       0         
_________________________________________________________________
separable_conv2d_650 (Separa (None, 32, 32, 128)       35200     
_________________________________________________________________
activation_980 (Activation)  (None, 32, 32, 128)       0         
_________________________________________________________________
dropout_980 (Dropout)        (None, 32, 32, 128)       0         
_________________________________________________________________
flatten_357 (Flatten)        (None, 131072)            0         
_________________________________________________________________
dense_687 (Dense)            (None, 1024)              134218752 
_________________________________________________________________
activation_981 (Activation)  (None, 1024)              0         
_________________________________________________________________
dropout_981 (Dropout)        (None, 1024)              0         
_________________________________________________________________
dense_688 (Dense)            (None, 100)               102500    
=================================================================
Total params: 134,357,503
Trainable params: 134,357,503
Non-trainable params: 0
_________________________________________________________________
