Model: "sequential_366"
_________________________________________________________________
Layer (type)                 Output Shape              Param #   
=================================================================
separable_conv2d_661 (Separa (None, 32, 32, 256)       1051      
_________________________________________________________________
activation_999 (Activation)  (None, 32, 32, 256)       0         
_________________________________________________________________
dropout_999 (Dropout)        (None, 32, 32, 256)       0         
_________________________________________________________________
separable_conv2d_662 (Separa (None, 32, 32, 128)       35200     
_________________________________________________________________
activation_1000 (Activation) (None, 32, 32, 128)       0         
_________________________________________________________________
dropout_1000 (Dropout)       (None, 32, 32, 128)       0         
_________________________________________________________________
flatten_366 (Flatten)        (None, 131072)            0         
_________________________________________________________________
dense_704 (Dense)            (None, 1024)              134218752 
_________________________________________________________________
activation_1001 (Activation) (None, 1024)              0         
_________________________________________________________________
dropout_1001 (Dropout)       (None, 1024)              0         
_________________________________________________________________
dense_705 (Dense)            (None, 100)               102500    
=================================================================
Total params: 134,357,503
Trainable params: 134,357,503
Non-trainable params: 0
_________________________________________________________________
