Model: "sequential_297"
_________________________________________________________________
Layer (type)                 Output Shape              Param #   
=================================================================
separable_conv2d_586 (Separa (None, 32, 32, 32)        155       
_________________________________________________________________
activation_857 (Activation)  (None, 32, 32, 32)        0         
_________________________________________________________________
dropout_857 (Dropout)        (None, 32, 32, 32)        0         
_________________________________________________________________
flatten_297 (Flatten)        (None, 32768)             0         
_________________________________________________________________
dense_568 (Dense)            (None, 1024)              33555456  
_________________________________________________________________
activation_858 (Activation)  (None, 1024)              0         
_________________________________________________________________
dropout_858 (Dropout)        (None, 1024)              0         
_________________________________________________________________
dense_569 (Dense)            (None, 100)               102500    
=================================================================
Total params: 33,658,111
Trainable params: 33,658,111
Non-trainable params: 0
_________________________________________________________________
