Model: "sequential_388"
_________________________________________________________________
Layer (type)                 Output Shape              Param #   
=================================================================
separable_conv2d_691 (Separa (None, 32, 32, 256)       1051      
_________________________________________________________________
batch_normalization_190 (Bat (None, 32, 32, 256)       1024      
_________________________________________________________________
activation_1051 (Activation) (None, 32, 32, 256)       0         
_________________________________________________________________
dropout_1051 (Dropout)       (None, 32, 32, 256)       0         
_________________________________________________________________
flatten_388 (Flatten)        (None, 262144)            0         
_________________________________________________________________
dense_748 (Dense)            (None, 128)               33554560  
_________________________________________________________________
activation_1052 (Activation) (None, 128)               0         
_________________________________________________________________
dropout_1052 (Dropout)       (None, 128)               0         
_________________________________________________________________
dense_749 (Dense)            (None, 100)               12900     
=================================================================
Total params: 33,569,535
Trainable params: 33,569,023
Non-trainable params: 512
_________________________________________________________________
