Model: "sequential_299"
_________________________________________________________________
Layer (type)                 Output Shape              Param #   
=================================================================
separable_conv2d_588 (Separa (None, 32, 32, 32)        155       
_________________________________________________________________
activation_861 (Activation)  (None, 32, 32, 32)        0         
_________________________________________________________________
dropout_861 (Dropout)        (None, 32, 32, 32)        0         
_________________________________________________________________
flatten_299 (Flatten)        (None, 32768)             0         
_________________________________________________________________
dense_572 (Dense)            (None, 1024)              33555456  
_________________________________________________________________
activation_862 (Activation)  (None, 1024)              0         
_________________________________________________________________
dropout_862 (Dropout)        (None, 1024)              0         
_________________________________________________________________
dense_573 (Dense)            (None, 100)               102500    
=================================================================
Total params: 33,658,111
Trainable params: 33,658,111
Non-trainable params: 0
_________________________________________________________________
