Model: "sequential_75"
_________________________________________________________________
Layer (type)                 Output Shape              Param #   
=================================================================
separable_conv2d_186 (Separa (None, 32, 32, 32)        155       
_________________________________________________________________
batch_normalization_72 (Batc (None, 32, 32, 32)        128       
_________________________________________________________________
activation_247 (Activation)  (None, 32, 32, 32)        0         
_________________________________________________________________
dropout_247 (Dropout)        (None, 32, 32, 32)        0         
_________________________________________________________________
max_pooling2d_61 (MaxPooling (None, 16, 16, 32)        0         
_________________________________________________________________
separable_conv2d_187 (Separa (None, 16, 16, 256)       8736      
_________________________________________________________________
activation_248 (Activation)  (None, 16, 16, 256)       0         
_________________________________________________________________
dropout_248 (Dropout)        (None, 16, 16, 256)       0         
_________________________________________________________________
separable_conv2d_188 (Separa (None, 16, 16, 32)        10528     
_________________________________________________________________
activation_249 (Activation)  (None, 16, 16, 32)        0         
_________________________________________________________________
dropout_249 (Dropout)        (None, 16, 16, 32)        0         
_________________________________________________________________
separable_conv2d_189 (Separa (None, 16, 16, 128)       4512      
_________________________________________________________________
activation_250 (Activation)  (None, 16, 16, 128)       0         
_________________________________________________________________
dropout_250 (Dropout)        (None, 16, 16, 128)       0         
_________________________________________________________________
flatten_75 (Flatten)         (None, 32768)             0         
_________________________________________________________________
dense_136 (Dense)            (None, 256)               8388864   
_________________________________________________________________
activation_251 (Activation)  (None, 256)               0         
_________________________________________________________________
dropout_251 (Dropout)        (None, 256)               0         
_________________________________________________________________
dense_137 (Dense)            (None, 100)               25700     
=================================================================
Total params: 8,438,623
Trainable params: 8,438,559
Non-trainable params: 64
_________________________________________________________________
