Model: "sequential_422"
_________________________________________________________________
Layer (type)                 Output Shape              Param #   
=================================================================
separable_conv2d_743 (Separa (None, 32, 32, 256)       1051      
_________________________________________________________________
batch_normalization_200 (Bat (None, 32, 32, 256)       1024      
_________________________________________________________________
activation_1137 (Activation) (None, 32, 32, 256)       0         
_________________________________________________________________
dropout_1137 (Dropout)       (None, 32, 32, 256)       0         
_________________________________________________________________
separable_conv2d_744 (Separa (None, 32, 32, 128)       35200     
_________________________________________________________________
activation_1138 (Activation) (None, 32, 32, 128)       0         
_________________________________________________________________
dropout_1138 (Dropout)       (None, 32, 32, 128)       0         
_________________________________________________________________
flatten_422 (Flatten)        (None, 131072)            0         
_________________________________________________________________
dense_816 (Dense)            (None, 1024)              134218752 
_________________________________________________________________
activation_1139 (Activation) (None, 1024)              0         
_________________________________________________________________
dropout_1139 (Dropout)       (None, 1024)              0         
_________________________________________________________________
dense_817 (Dense)            (None, 100)               102500    
=================================================================
Total params: 134,358,527
Trainable params: 134,358,015
Non-trainable params: 512
_________________________________________________________________
