Model: "sequential_268"
_________________________________________________________________
Layer (type)                 Output Shape              Param #   
=================================================================
separable_conv2d_557 (Separa (None, 32, 32, 32)        155       
_________________________________________________________________
activation_801 (Activation)  (None, 32, 32, 32)        0         
_________________________________________________________________
dropout_801 (Dropout)        (None, 32, 32, 32)        0         
_________________________________________________________________
flatten_268 (Flatten)        (None, 32768)             0         
_________________________________________________________________
dense_512 (Dense)            (None, 1024)              33555456  
_________________________________________________________________
batch_normalization_173 (Bat (None, 1024)              4096      
_________________________________________________________________
activation_802 (Activation)  (None, 1024)              0         
_________________________________________________________________
dropout_802 (Dropout)        (None, 1024)              0         
_________________________________________________________________
dense_513 (Dense)            (None, 100)               102500    
=================================================================
Total params: 33,662,207
Trainable params: 33,660,159
Non-trainable params: 2,048
_________________________________________________________________
