Model: "sequential_262"
_________________________________________________________________
Layer (type)                 Output Shape              Param #   
=================================================================
separable_conv2d_551 (Separa (None, 32, 32, 32)        155       
_________________________________________________________________
activation_789 (Activation)  (None, 32, 32, 32)        0         
_________________________________________________________________
dropout_789 (Dropout)        (None, 32, 32, 32)        0         
_________________________________________________________________
max_pooling2d_223 (MaxPoolin (None, 16, 16, 32)        0         
_________________________________________________________________
flatten_262 (Flatten)        (None, 8192)              0         
_________________________________________________________________
dense_500 (Dense)            (None, 128)               1048704   
_________________________________________________________________
activation_790 (Activation)  (None, 128)               0         
_________________________________________________________________
dropout_790 (Dropout)        (None, 128)               0         
_________________________________________________________________
dense_501 (Dense)            (None, 100)               12900     
=================================================================
Total params: 1,061,759
Trainable params: 1,061,759
Non-trainable params: 0
_________________________________________________________________
