Model: "sequential_173"
_________________________________________________________________
Layer (type)                 Output Shape              Param #   
=================================================================
separable_conv2d_415 (Separa (None, 32, 32, 64)        283       
_________________________________________________________________
batch_normalization_149 (Bat (None, 32, 32, 64)        256       
_________________________________________________________________
activation_572 (Activation)  (None, 32, 32, 64)        0         
_________________________________________________________________
dropout_572 (Dropout)        (None, 32, 32, 64)        0         
_________________________________________________________________
separable_conv2d_416 (Separa (None, 32, 32, 256)       17216     
_________________________________________________________________
activation_573 (Activation)  (None, 32, 32, 256)       0         
_________________________________________________________________
dropout_573 (Dropout)        (None, 32, 32, 256)       0         
_________________________________________________________________
flatten_173 (Flatten)        (None, 262144)            0         
_________________________________________________________________
dense_330 (Dense)            (None, 1024)              268436480 
_________________________________________________________________
activation_574 (Activation)  (None, 1024)              0         
_________________________________________________________________
dropout_574 (Dropout)        (None, 1024)              0         
_________________________________________________________________
dense_331 (Dense)            (None, 100)               102500    
=================================================================
Total params: 268,556,735
Trainable params: 268,556,607
Non-trainable params: 128
_________________________________________________________________
