Model: "sequential_373"
_________________________________________________________________
Layer (type)                 Output Shape              Param #   
=================================================================
separable_conv2d_671 (Separa (None, 32, 32, 256)       1051      
_________________________________________________________________
activation_1016 (Activation) (None, 32, 32, 256)       0         
_________________________________________________________________
dropout_1016 (Dropout)       (None, 32, 32, 256)       0         
_________________________________________________________________
flatten_373 (Flatten)        (None, 262144)            0         
_________________________________________________________________
dense_718 (Dense)            (None, 128)               33554560  
_________________________________________________________________
activation_1017 (Activation) (None, 128)               0         
_________________________________________________________________
dropout_1017 (Dropout)       (None, 128)               0         
_________________________________________________________________
dense_719 (Dense)            (None, 100)               12900     
=================================================================
Total params: 33,568,511
Trainable params: 33,568,511
Non-trainable params: 0
_________________________________________________________________
