Model: "sequential_30"
_________________________________________________________________
Layer (type)                 Output Shape              Param #   
=================================================================
separable_conv2d_60 (Separab (None, 32, 32, 16)        91        
_________________________________________________________________
activation_78 (Activation)   (None, 32, 32, 16)        0         
_________________________________________________________________
dropout_78 (Dropout)         (None, 32, 32, 16)        0         
_________________________________________________________________
separable_conv2d_61 (Separab (None, 32, 32, 512)       8848      
_________________________________________________________________
activation_79 (Activation)   (None, 32, 32, 512)       0         
_________________________________________________________________
dropout_79 (Dropout)         (None, 32, 32, 512)       0         
_________________________________________________________________
flatten_30 (Flatten)         (None, 524288)            0         
_________________________________________________________________
dense_48 (Dense)             (None, 256)               134217984 
_________________________________________________________________
activation_80 (Activation)   (None, 256)               0         
_________________________________________________________________
dropout_80 (Dropout)         (None, 256)               0         
_________________________________________________________________
dense_49 (Dense)             (None, 100)               25700     
=================================================================
Total params: 134,252,623
Trainable params: 134,252,623
Non-trainable params: 0
_________________________________________________________________
