Model: "sequential_78"
_________________________________________________________________
Layer (type)                 Output Shape              Param #   
=================================================================
separable_conv2d_197 (Separa (None, 32, 32, 16)        91        
_________________________________________________________________
batch_normalization_75 (Batc (None, 32, 32, 16)        64        
_________________________________________________________________
activation_261 (Activation)  (None, 32, 32, 16)        0         
_________________________________________________________________
dropout_261 (Dropout)        (None, 32, 32, 16)        0         
_________________________________________________________________
max_pooling2d_64 (MaxPooling (None, 16, 16, 16)        0         
_________________________________________________________________
separable_conv2d_198 (Separa (None, 16, 16, 256)       4496      
_________________________________________________________________
activation_262 (Activation)  (None, 16, 16, 256)       0         
_________________________________________________________________
dropout_262 (Dropout)        (None, 16, 16, 256)       0         
_________________________________________________________________
flatten_78 (Flatten)         (None, 65536)             0         
_________________________________________________________________
dense_142 (Dense)            (None, 256)               16777472  
_________________________________________________________________
activation_263 (Activation)  (None, 256)               0         
_________________________________________________________________
dropout_263 (Dropout)        (None, 256)               0         
_________________________________________________________________
dense_143 (Dense)            (None, 100)               25700     
=================================================================
Total params: 16,807,823
Trainable params: 16,807,791
Non-trainable params: 32
_________________________________________________________________
