Model: "sequential_377"
_________________________________________________________________
Layer (type)                 Output Shape              Param #   
=================================================================
separable_conv2d_676 (Separa (None, 32, 32, 32)        155       
_________________________________________________________________
activation_1025 (Activation) (None, 32, 32, 32)        0         
_________________________________________________________________
dropout_1025 (Dropout)       (None, 32, 32, 32)        0         
_________________________________________________________________
flatten_377 (Flatten)        (None, 32768)             0         
_________________________________________________________________
dense_726 (Dense)            (None, 1024)              33555456  
_________________________________________________________________
activation_1026 (Activation) (None, 1024)              0         
_________________________________________________________________
dropout_1026 (Dropout)       (None, 1024)              0         
_________________________________________________________________
dense_727 (Dense)            (None, 100)               102500    
=================================================================
Total params: 33,658,111
Trainable params: 33,658,111
Non-trainable params: 0
_________________________________________________________________
