Model: "sequential_428"
_________________________________________________________________
Layer (type)                 Output Shape              Param #   
=================================================================
separable_conv2d_752 (Separa (None, 32, 32, 32)        155       
_________________________________________________________________
activation_1152 (Activation) (None, 32, 32, 32)        0         
_________________________________________________________________
dropout_1152 (Dropout)       (None, 32, 32, 32)        0         
_________________________________________________________________
flatten_428 (Flatten)        (None, 32768)             0         
_________________________________________________________________
dense_828 (Dense)            (None, 1024)              33555456  
_________________________________________________________________
activation_1153 (Activation) (None, 1024)              0         
_________________________________________________________________
dropout_1153 (Dropout)       (None, 1024)              0         
_________________________________________________________________
dense_829 (Dense)            (None, 100)               102500    
=================================================================
Total params: 33,658,111
Trainable params: 33,658,111
Non-trainable params: 0
_________________________________________________________________
