Model: "sequential_99"
_________________________________________________________________
Layer (type)                 Output Shape              Param #   
=================================================================
separable_conv2d_254 (Separa (None, 32, 32, 16)        91        
_________________________________________________________________
batch_normalization_101 (Bat (None, 32, 32, 16)        64        
_________________________________________________________________
activation_339 (Activation)  (None, 32, 32, 16)        0         
_________________________________________________________________
dropout_339 (Dropout)        (None, 32, 32, 16)        0         
_________________________________________________________________
max_pooling2d_84 (MaxPooling (None, 16, 16, 16)        0         
_________________________________________________________________
separable_conv2d_255 (Separa (None, 16, 16, 256)       4496      
_________________________________________________________________
activation_340 (Activation)  (None, 16, 16, 256)       0         
_________________________________________________________________
dropout_340 (Dropout)        (None, 16, 16, 256)       0         
_________________________________________________________________
separable_conv2d_256 (Separa (None, 16, 16, 512)       133888    
_________________________________________________________________
activation_341 (Activation)  (None, 16, 16, 512)       0         
_________________________________________________________________
dropout_341 (Dropout)        (None, 16, 16, 512)       0         
_________________________________________________________________
flatten_99 (Flatten)         (None, 131072)            0         
_________________________________________________________________
dense_184 (Dense)            (None, 1024)              134218752 
_________________________________________________________________
activation_342 (Activation)  (None, 1024)              0         
_________________________________________________________________
dropout_342 (Dropout)        (None, 1024)              0         
_________________________________________________________________
dense_185 (Dense)            (None, 100)               102500    
=================================================================
Total params: 134,459,791
Trainable params: 134,459,759
Non-trainable params: 32
_________________________________________________________________
