Model: "sequential_220"
_________________________________________________________________
Layer (type)                 Output Shape              Param #   
=================================================================
separable_conv2d_501 (Separa (None, 32, 32, 32)        155       
_________________________________________________________________
activation_703 (Activation)  (None, 32, 32, 32)        0         
_________________________________________________________________
dropout_703 (Dropout)        (None, 32, 32, 32)        0         
_________________________________________________________________
max_pooling2d_189 (MaxPoolin (None, 16, 16, 32)        0         
_________________________________________________________________
flatten_220 (Flatten)        (None, 8192)              0         
_________________________________________________________________
dense_422 (Dense)            (None, 1024)              8389632   
_________________________________________________________________
activation_704 (Activation)  (None, 1024)              0         
_________________________________________________________________
dropout_704 (Dropout)        (None, 1024)              0         
_________________________________________________________________
dense_423 (Dense)            (None, 100)               102500    
=================================================================
Total params: 8,492,287
Trainable params: 8,492,287
Non-trainable params: 0
_________________________________________________________________
