Model: "sequential_59"
_________________________________________________________________
Layer (type)                 Output Shape              Param #   
=================================================================
separable_conv2d_139 (Separa (None, 32, 32, 32)        155       
_________________________________________________________________
activation_184 (Activation)  (None, 32, 32, 32)        0         
_________________________________________________________________
dropout_184 (Dropout)        (None, 32, 32, 32)        0         
_________________________________________________________________
max_pooling2d_47 (MaxPooling (None, 16, 16, 32)        0         
_________________________________________________________________
separable_conv2d_140 (Separa (None, 16, 16, 256)       8736      
_________________________________________________________________
activation_185 (Activation)  (None, 16, 16, 256)       0         
_________________________________________________________________
dropout_185 (Dropout)        (None, 16, 16, 256)       0         
_________________________________________________________________
separable_conv2d_141 (Separa (None, 16, 16, 128)       35200     
_________________________________________________________________
activation_186 (Activation)  (None, 16, 16, 128)       0         
_________________________________________________________________
dropout_186 (Dropout)        (None, 16, 16, 128)       0         
_________________________________________________________________
flatten_59 (Flatten)         (None, 32768)             0         
_________________________________________________________________
dense_104 (Dense)            (None, 256)               8388864   
_________________________________________________________________
activation_187 (Activation)  (None, 256)               0         
_________________________________________________________________
dropout_187 (Dropout)        (None, 256)               0         
_________________________________________________________________
dense_105 (Dense)            (None, 100)               25700     
=================================================================
Total params: 8,458,655
Trainable params: 8,458,655
Non-trainable params: 0
_________________________________________________________________
