Model: "sequential_368"
_________________________________________________________________
Layer (type)                 Output Shape              Param #   
=================================================================
separable_conv2d_665 (Separa (None, 32, 32, 32)        155       
_________________________________________________________________
activation_1005 (Activation) (None, 32, 32, 32)        0         
_________________________________________________________________
dropout_1005 (Dropout)       (None, 32, 32, 32)        0         
_________________________________________________________________
flatten_368 (Flatten)        (None, 32768)             0         
_________________________________________________________________
dense_708 (Dense)            (None, 128)               4194432   
_________________________________________________________________
activation_1006 (Activation) (None, 128)               0         
_________________________________________________________________
dropout_1006 (Dropout)       (None, 128)               0         
_________________________________________________________________
dense_709 (Dense)            (None, 100)               12900     
=================================================================
Total params: 4,207,487
Trainable params: 4,207,487
Non-trainable params: 0
_________________________________________________________________
