Model: "sequential_402"
_________________________________________________________________
Layer (type)                 Output Shape              Param #   
=================================================================
separable_conv2d_710 (Separa (None, 32, 32, 32)        155       
_________________________________________________________________
activation_1084 (Activation) (None, 32, 32, 32)        0         
_________________________________________________________________
dropout_1084 (Dropout)       (None, 32, 32, 32)        0         
_________________________________________________________________
separable_conv2d_711 (Separa (None, 32, 32, 512)       17184     
_________________________________________________________________
activation_1085 (Activation) (None, 32, 32, 512)       0         
_________________________________________________________________
dropout_1085 (Dropout)       (None, 32, 32, 512)       0         
_________________________________________________________________
flatten_402 (Flatten)        (None, 524288)            0         
_________________________________________________________________
dense_776 (Dense)            (None, 128)               67108992  
_________________________________________________________________
activation_1086 (Activation) (None, 128)               0         
_________________________________________________________________
dropout_1086 (Dropout)       (None, 128)               0         
_________________________________________________________________
dense_777 (Dense)            (None, 100)               12900     
=================================================================
Total params: 67,139,231
Trainable params: 67,139,231
Non-trainable params: 0
_________________________________________________________________
