Model: "sequential_180"
_________________________________________________________________
Layer (type)                 Output Shape              Param #   
=================================================================
separable_conv2d_429 (Separa (None, 32, 32, 16)        91        
_________________________________________________________________
activation_593 (Activation)  (None, 32, 32, 16)        0         
_________________________________________________________________
dropout_593 (Dropout)        (None, 32, 32, 16)        0         
_________________________________________________________________
max_pooling2d_162 (MaxPoolin (None, 16, 16, 16)        0         
_________________________________________________________________
separable_conv2d_430 (Separa (None, 16, 16, 256)       4496      
_________________________________________________________________
activation_594 (Activation)  (None, 16, 16, 256)       0         
_________________________________________________________________
dropout_594 (Dropout)        (None, 16, 16, 256)       0         
_________________________________________________________________
flatten_180 (Flatten)        (None, 65536)             0         
_________________________________________________________________
dense_344 (Dense)            (None, 1024)              67109888  
_________________________________________________________________
activation_595 (Activation)  (None, 1024)              0         
_________________________________________________________________
dropout_595 (Dropout)        (None, 1024)              0         
_________________________________________________________________
dense_345 (Dense)            (None, 100)               102500    
=================================================================
Total params: 67,216,975
Trainable params: 67,216,975
Non-trainable params: 0
_________________________________________________________________
