Model: "sequential_445"
_________________________________________________________________
Layer (type)                 Output Shape              Param #   
=================================================================
separable_conv2d_780 (Separa (None, 32, 32, 32)        155       
_________________________________________________________________
activation_1197 (Activation) (None, 32, 32, 32)        0         
_________________________________________________________________
dropout_1197 (Dropout)       (None, 32, 32, 32)        0         
_________________________________________________________________
flatten_445 (Flatten)        (None, 32768)             0         
_________________________________________________________________
dense_862 (Dense)            (None, 128)               4194432   
_________________________________________________________________
activation_1198 (Activation) (None, 128)               0         
_________________________________________________________________
dropout_1198 (Dropout)       (None, 128)               0         
_________________________________________________________________
dense_863 (Dense)            (None, 100)               12900     
=================================================================
Total params: 4,207,487
Trainable params: 4,207,487
Non-trainable params: 0
_________________________________________________________________
