Model: "sequential_267"
_________________________________________________________________
Layer (type)                 Output Shape              Param #   
=================================================================
separable_conv2d_556 (Separa (None, 32, 32, 32)        155       
_________________________________________________________________
activation_799 (Activation)  (None, 32, 32, 32)        0         
_________________________________________________________________
dropout_799 (Dropout)        (None, 32, 32, 32)        0         
_________________________________________________________________
max_pooling2d_227 (MaxPoolin (None, 16, 16, 32)        0         
_________________________________________________________________
flatten_267 (Flatten)        (None, 8192)              0         
_________________________________________________________________
dense_510 (Dense)            (None, 128)               1048704   
_________________________________________________________________
activation_800 (Activation)  (None, 128)               0         
_________________________________________________________________
dropout_800 (Dropout)        (None, 128)               0         
_________________________________________________________________
dense_511 (Dense)            (None, 100)               12900     
=================================================================
Total params: 1,061,759
Trainable params: 1,061,759
Non-trainable params: 0
_________________________________________________________________
