Model: "sequential_467"
_________________________________________________________________
Layer (type)                 Output Shape              Param #   
=================================================================
separable_conv2d_818 (Separa (None, 32, 32, 32)        155       
_________________________________________________________________
activation_1256 (Activation) (None, 32, 32, 32)        0         
_________________________________________________________________
dropout_1256 (Dropout)       (None, 32, 32, 32)        0         
_________________________________________________________________
separable_conv2d_819 (Separa (None, 32, 32, 64)        2400      
_________________________________________________________________
activation_1257 (Activation) (None, 32, 32, 64)        0         
_________________________________________________________________
dropout_1257 (Dropout)       (None, 32, 32, 64)        0         
_________________________________________________________________
separable_conv2d_820 (Separa (None, 32, 32, 16)        1616      
_________________________________________________________________
batch_normalization_220 (Bat (None, 32, 32, 16)        64        
_________________________________________________________________
activation_1258 (Activation) (None, 32, 32, 16)        0         
_________________________________________________________________
dropout_1258 (Dropout)       (None, 32, 32, 16)        0         
_________________________________________________________________
flatten_467 (Flatten)        (None, 16384)             0         
_________________________________________________________________
dense_905 (Dense)            (None, 1024)              16778240  
_________________________________________________________________
activation_1259 (Activation) (None, 1024)              0         
_________________________________________________________________
dropout_1259 (Dropout)       (None, 1024)              0         
_________________________________________________________________
dense_906 (Dense)            (None, 100)               102500    
=================================================================
Total params: 16,884,975
Trainable params: 16,884,943
Non-trainable params: 32
_________________________________________________________________
