Model: "sequential_74"
_________________________________________________________________
Layer (type)                 Output Shape              Param #   
=================================================================
separable_conv2d_183 (Separa (None, 32, 32, 32)        155       
_________________________________________________________________
activation_243 (Activation)  (None, 32, 32, 32)        0         
_________________________________________________________________
dropout_243 (Dropout)        (None, 32, 32, 32)        0         
_________________________________________________________________
max_pooling2d_60 (MaxPooling (None, 16, 16, 32)        0         
_________________________________________________________________
separable_conv2d_184 (Separa (None, 16, 16, 256)       8736      
_________________________________________________________________
activation_244 (Activation)  (None, 16, 16, 256)       0         
_________________________________________________________________
dropout_244 (Dropout)        (None, 16, 16, 256)       0         
_________________________________________________________________
separable_conv2d_185 (Separa (None, 16, 16, 128)       35200     
_________________________________________________________________
activation_245 (Activation)  (None, 16, 16, 128)       0         
_________________________________________________________________
dropout_245 (Dropout)        (None, 16, 16, 128)       0         
_________________________________________________________________
flatten_74 (Flatten)         (None, 32768)             0         
_________________________________________________________________
dense_134 (Dense)            (None, 256)               8388864   
_________________________________________________________________
activation_246 (Activation)  (None, 256)               0         
_________________________________________________________________
dropout_246 (Dropout)        (None, 256)               0         
_________________________________________________________________
dense_135 (Dense)            (None, 100)               25700     
=================================================================
Total params: 8,458,655
Trainable params: 8,458,655
Non-trainable params: 0
_________________________________________________________________
