Model: "sequential_247"
_________________________________________________________________
Layer (type)                 Output Shape              Param #   
=================================================================
separable_conv2d_535 (Separa (None, 32, 32, 16)        91        
_________________________________________________________________
activation_760 (Activation)  (None, 32, 32, 16)        0         
_________________________________________________________________
dropout_760 (Dropout)        (None, 32, 32, 16)        0         
_________________________________________________________________
max_pooling2d_209 (MaxPoolin (None, 16, 16, 16)        0         
_________________________________________________________________
separable_conv2d_536 (Separa (None, 16, 16, 256)       4496      
_________________________________________________________________
activation_761 (Activation)  (None, 16, 16, 256)       0         
_________________________________________________________________
dropout_761 (Dropout)        (None, 16, 16, 256)       0         
_________________________________________________________________
flatten_247 (Flatten)        (None, 65536)             0         
_________________________________________________________________
dense_472 (Dense)            (None, 64)                4194368   
_________________________________________________________________
activation_762 (Activation)  (None, 64)                0         
_________________________________________________________________
dropout_762 (Dropout)        (None, 64)                0         
_________________________________________________________________
dense_473 (Dense)            (None, 100)               6500      
=================================================================
Total params: 4,205,455
Trainable params: 4,205,455
Non-trainable params: 0
_________________________________________________________________
