Model: "sequential_52"
_________________________________________________________________
Layer (type)                 Output Shape              Param #   
=================================================================
separable_conv2d_119 (Separa (None, 32, 32, 64)        283       
_________________________________________________________________
batch_normalization_53 (Batc (None, 32, 32, 64)        256       
_________________________________________________________________
activation_157 (Activation)  (None, 32, 32, 64)        0         
_________________________________________________________________
dropout_157 (Dropout)        (None, 32, 32, 64)        0         
_________________________________________________________________
separable_conv2d_120 (Separa (None, 32, 32, 64)        4736      
_________________________________________________________________
activation_158 (Activation)  (None, 32, 32, 64)        0         
_________________________________________________________________
dropout_158 (Dropout)        (None, 32, 32, 64)        0         
_________________________________________________________________
separable_conv2d_121 (Separa (None, 32, 32, 512)       33856     
_________________________________________________________________
activation_159 (Activation)  (None, 32, 32, 512)       0         
_________________________________________________________________
dropout_159 (Dropout)        (None, 32, 32, 512)       0         
_________________________________________________________________
flatten_52 (Flatten)         (None, 524288)            0         
_________________________________________________________________
dense_90 (Dense)             (None, 256)               134217984 
_________________________________________________________________
activation_160 (Activation)  (None, 256)               0         
_________________________________________________________________
dropout_160 (Dropout)        (None, 256)               0         
_________________________________________________________________
dense_91 (Dense)             (None, 100)               25700     
=================================================================
Total params: 134,282,815
Trainable params: 134,282,687
Non-trainable params: 128
_________________________________________________________________
