Model: "sequential_451"
_________________________________________________________________
Layer (type)                 Output Shape              Param #   
=================================================================
separable_conv2d_790 (Separa (None, 32, 32, 32)        155       
_________________________________________________________________
batch_normalization_211 (Bat (None, 32, 32, 32)        128       
_________________________________________________________________
activation_1213 (Activation) (None, 32, 32, 32)        0         
_________________________________________________________________
dropout_1213 (Dropout)       (None, 32, 32, 32)        0         
_________________________________________________________________
flatten_451 (Flatten)        (None, 32768)             0         
_________________________________________________________________
dense_874 (Dense)            (None, 128)               4194432   
_________________________________________________________________
batch_normalization_212 (Bat (None, 128)               512       
_________________________________________________________________
activation_1214 (Activation) (None, 128)               0         
_________________________________________________________________
dropout_1214 (Dropout)       (None, 128)               0         
_________________________________________________________________
dense_875 (Dense)            (None, 100)               12900     
=================================================================
Total params: 4,208,127
Trainable params: 4,207,807
Non-trainable params: 320
_________________________________________________________________
