Model: "sequential_492"
_________________________________________________________________
Layer (type)                 Output Shape              Param #   
=================================================================
separable_conv2d_860 (Separa (None, 32, 32, 32)        155       
_________________________________________________________________
activation_1319 (Activation) (None, 32, 32, 32)        0         
_________________________________________________________________
dropout_1319 (Dropout)       (None, 32, 32, 32)        0         
_________________________________________________________________
separable_conv2d_861 (Separa (None, 32, 32, 128)       4512      
_________________________________________________________________
activation_1320 (Activation) (None, 32, 32, 128)       0         
_________________________________________________________________
dropout_1320 (Dropout)       (None, 32, 32, 128)       0         
_________________________________________________________________
flatten_492 (Flatten)        (None, 131072)            0         
_________________________________________________________________
dense_951 (Dense)            (None, 100)               13107300  
=================================================================
Total params: 13,111,967
Trainable params: 13,111,967
Non-trainable params: 0
_________________________________________________________________
