Model: "sequential_241"
_________________________________________________________________
Layer (type)                 Output Shape              Param #   
=================================================================
separable_conv2d_528 (Separa (None, 32, 32, 32)        155       
_________________________________________________________________
activation_750 (Activation)  (None, 32, 32, 32)        0         
_________________________________________________________________
dropout_750 (Dropout)        (None, 32, 32, 32)        0         
_________________________________________________________________
max_pooling2d_205 (MaxPoolin (None, 16, 16, 32)        0         
_________________________________________________________________
flatten_241 (Flatten)        (None, 8192)              0         
_________________________________________________________________
dense_463 (Dense)            (None, 100)               819300    
=================================================================
Total params: 819,455
Trainable params: 819,455
Non-trainable params: 0
_________________________________________________________________
