Model: "sequential_302"
_________________________________________________________________
Layer (type)                 Output Shape              Param #   
=================================================================
separable_conv2d_591 (Separa (None, 32, 32, 32)        155       
_________________________________________________________________
activation_867 (Activation)  (None, 32, 32, 32)        0         
_________________________________________________________________
dropout_867 (Dropout)        (None, 32, 32, 32)        0         
_________________________________________________________________
max_pooling2d_236 (MaxPoolin (None, 16, 16, 32)        0         
_________________________________________________________________
flatten_302 (Flatten)        (None, 8192)              0         
_________________________________________________________________
dense_578 (Dense)            (None, 128)               1048704   
_________________________________________________________________
activation_868 (Activation)  (None, 128)               0         
_________________________________________________________________
dropout_868 (Dropout)        (None, 128)               0         
_________________________________________________________________
dense_579 (Dense)            (None, 100)               12900     
=================================================================
Total params: 1,061,759
Trainable params: 1,061,759
Non-trainable params: 0
_________________________________________________________________
