Model: "sequential_63"
_________________________________________________________________
Layer (type)                 Output Shape              Param #   
=================================================================
separable_conv2d_151 (Separa (None, 32, 32, 32)        155       
_________________________________________________________________
activation_200 (Activation)  (None, 32, 32, 32)        0         
_________________________________________________________________
dropout_200 (Dropout)        (None, 32, 32, 32)        0         
_________________________________________________________________
max_pooling2d_52 (MaxPooling (None, 16, 16, 32)        0         
_________________________________________________________________
separable_conv2d_152 (Separa (None, 16, 16, 256)       8736      
_________________________________________________________________
activation_201 (Activation)  (None, 16, 16, 256)       0         
_________________________________________________________________
dropout_201 (Dropout)        (None, 16, 16, 256)       0         
_________________________________________________________________
separable_conv2d_153 (Separa (None, 16, 16, 128)       35200     
_________________________________________________________________
activation_202 (Activation)  (None, 16, 16, 128)       0         
_________________________________________________________________
dropout_202 (Dropout)        (None, 16, 16, 128)       0         
_________________________________________________________________
flatten_63 (Flatten)         (None, 32768)             0         
_________________________________________________________________
dense_112 (Dense)            (None, 256)               8388864   
_________________________________________________________________
activation_203 (Activation)  (None, 256)               0         
_________________________________________________________________
dropout_203 (Dropout)        (None, 256)               0         
_________________________________________________________________
dense_113 (Dense)            (None, 100)               25700     
=================================================================
Total params: 8,458,655
Trainable params: 8,458,655
Non-trainable params: 0
_________________________________________________________________
