Model: "sequential_487"
_________________________________________________________________
Layer (type)                 Output Shape              Param #   
=================================================================
separable_conv2d_852 (Separa (None, 32, 32, 32)        155       
_________________________________________________________________
activation_1309 (Activation) (None, 32, 32, 32)        0         
_________________________________________________________________
dropout_1309 (Dropout)       (None, 32, 32, 32)        0         
_________________________________________________________________
separable_conv2d_853 (Separa (None, 32, 32, 128)       4512      
_________________________________________________________________
activation_1310 (Activation) (None, 32, 32, 128)       0         
_________________________________________________________________
dropout_1310 (Dropout)       (None, 32, 32, 128)       0         
_________________________________________________________________
flatten_487 (Flatten)        (None, 131072)            0         
_________________________________________________________________
dense_944 (Dense)            (None, 100)               13107300  
=================================================================
Total params: 13,111,967
Trainable params: 13,111,967
Non-trainable params: 0
_________________________________________________________________
