Model: "sequential_333"
_________________________________________________________________
Layer (type)                 Output Shape              Param #   
=================================================================
separable_conv2d_622 (Separa (None, 32, 32, 32)        155       
_________________________________________________________________
activation_928 (Activation)  (None, 32, 32, 32)        0         
_________________________________________________________________
dropout_928 (Dropout)        (None, 32, 32, 32)        0         
_________________________________________________________________
flatten_333 (Flatten)        (None, 32768)             0         
_________________________________________________________________
dense_639 (Dense)            (None, 1024)              33555456  
_________________________________________________________________
activation_929 (Activation)  (None, 1024)              0         
_________________________________________________________________
dropout_929 (Dropout)        (None, 1024)              0         
_________________________________________________________________
dense_640 (Dense)            (None, 100)               102500    
=================================================================
Total params: 33,658,111
Trainable params: 33,658,111
Non-trainable params: 0
_________________________________________________________________
