Model: "sequential_232"
_________________________________________________________________
Layer (type)                 Output Shape              Param #   
=================================================================
separable_conv2d_516 (Separa (None, 32, 32, 16)        91        
_________________________________________________________________
activation_730 (Activation)  (None, 32, 32, 16)        0         
_________________________________________________________________
dropout_730 (Dropout)        (None, 32, 32, 16)        0         
_________________________________________________________________
max_pooling2d_197 (MaxPoolin (None, 16, 16, 16)        0         
_________________________________________________________________
separable_conv2d_517 (Separa (None, 16, 16, 256)       4496      
_________________________________________________________________
activation_731 (Activation)  (None, 16, 16, 256)       0         
_________________________________________________________________
dropout_731 (Dropout)        (None, 16, 16, 256)       0         
_________________________________________________________________
flatten_232 (Flatten)        (None, 65536)             0         
_________________________________________________________________
dense_446 (Dense)            (None, 1024)              67109888  
_________________________________________________________________
activation_732 (Activation)  (None, 1024)              0         
_________________________________________________________________
dropout_732 (Dropout)        (None, 1024)              0         
_________________________________________________________________
dense_447 (Dense)            (None, 100)               102500    
=================================================================
Total params: 67,216,975
Trainable params: 67,216,975
Non-trainable params: 0
_________________________________________________________________
