Model: "sequential_371"
_________________________________________________________________
Layer (type)                 Output Shape              Param #   
=================================================================
separable_conv2d_669 (Separa (None, 32, 32, 128)       539       
_________________________________________________________________
activation_1012 (Activation) (None, 32, 32, 128)       0         
_________________________________________________________________
dropout_1012 (Dropout)       (None, 32, 32, 128)       0         
_________________________________________________________________
flatten_371 (Flatten)        (None, 131072)            0         
_________________________________________________________________
dense_714 (Dense)            (None, 128)               16777344  
_________________________________________________________________
activation_1013 (Activation) (None, 128)               0         
_________________________________________________________________
dropout_1013 (Dropout)       (None, 128)               0         
_________________________________________________________________
dense_715 (Dense)            (None, 100)               12900     
=================================================================
Total params: 16,790,783
Trainable params: 16,790,783
Non-trainable params: 0
_________________________________________________________________
