Model: "sequential_304"
_________________________________________________________________
Layer (type)                 Output Shape              Param #   
=================================================================
separable_conv2d_593 (Separa (None, 32, 32, 128)       539       
_________________________________________________________________
activation_871 (Activation)  (None, 32, 32, 128)       0         
_________________________________________________________________
dropout_871 (Dropout)        (None, 32, 32, 128)       0         
_________________________________________________________________
flatten_304 (Flatten)        (None, 131072)            0         
_________________________________________________________________
dense_582 (Dense)            (None, 1024)              134218752 
_________________________________________________________________
activation_872 (Activation)  (None, 1024)              0         
_________________________________________________________________
dropout_872 (Dropout)        (None, 1024)              0         
_________________________________________________________________
dense_583 (Dense)            (None, 100)               102500    
=================================================================
Total params: 134,321,791
Trainable params: 134,321,791
Non-trainable params: 0
_________________________________________________________________
