Model: "sequential_344"
_________________________________________________________________
Layer (type)                 Output Shape              Param #   
=================================================================
separable_conv2d_634 (Separa (None, 32, 32, 256)       1051      
_________________________________________________________________
activation_951 (Activation)  (None, 32, 32, 256)       0         
_________________________________________________________________
dropout_951 (Dropout)        (None, 32, 32, 256)       0         
_________________________________________________________________
separable_conv2d_635 (Separa (None, 32, 32, 128)       35200     
_________________________________________________________________
activation_952 (Activation)  (None, 32, 32, 128)       0         
_________________________________________________________________
dropout_952 (Dropout)        (None, 32, 32, 128)       0         
_________________________________________________________________
flatten_344 (Flatten)        (None, 131072)            0         
_________________________________________________________________
dense_661 (Dense)            (None, 1024)              134218752 
_________________________________________________________________
activation_953 (Activation)  (None, 1024)              0         
_________________________________________________________________
dropout_953 (Dropout)        (None, 1024)              0         
_________________________________________________________________
dense_662 (Dense)            (None, 100)               102500    
=================================================================
Total params: 134,357,503
Trainable params: 134,357,503
Non-trainable params: 0
_________________________________________________________________
