Model: "sequential_315"
_________________________________________________________________
Layer (type)                 Output Shape              Param #   
=================================================================
separable_conv2d_604 (Separa (None, 32, 32, 32)        155       
_________________________________________________________________
activation_893 (Activation)  (None, 32, 32, 32)        0         
_________________________________________________________________
dropout_893 (Dropout)        (None, 32, 32, 32)        0         
_________________________________________________________________
max_pooling2d_240 (MaxPoolin (None, 16, 16, 32)        0         
_________________________________________________________________
flatten_315 (Flatten)        (None, 8192)              0         
_________________________________________________________________
dense_604 (Dense)            (None, 1024)              8389632   
_________________________________________________________________
activation_894 (Activation)  (None, 1024)              0         
_________________________________________________________________
dropout_894 (Dropout)        (None, 1024)              0         
_________________________________________________________________
dense_605 (Dense)            (None, 100)               102500    
=================================================================
Total params: 8,492,287
Trainable params: 8,492,287
Non-trainable params: 0
_________________________________________________________________
