Model: "sequential_426"
_________________________________________________________________
Layer (type)                 Output Shape              Param #   
=================================================================
separable_conv2d_749 (Separa (None, 32, 32, 32)        155       
_________________________________________________________________
activation_1147 (Activation) (None, 32, 32, 32)        0         
_________________________________________________________________
dropout_1147 (Dropout)       (None, 32, 32, 32)        0         
_________________________________________________________________
separable_conv2d_750 (Separa (None, 32, 32, 32)        1344      
_________________________________________________________________
activation_1148 (Activation) (None, 32, 32, 32)        0         
_________________________________________________________________
dropout_1148 (Dropout)       (None, 32, 32, 32)        0         
_________________________________________________________________
flatten_426 (Flatten)        (None, 32768)             0         
_________________________________________________________________
dense_824 (Dense)            (None, 1024)              33555456  
_________________________________________________________________
activation_1149 (Activation) (None, 1024)              0         
_________________________________________________________________
dropout_1149 (Dropout)       (None, 1024)              0         
_________________________________________________________________
dense_825 (Dense)            (None, 100)               102500    
=================================================================
Total params: 33,659,455
Trainable params: 33,659,455
Non-trainable params: 0
_________________________________________________________________
