Model: "sequential_343"
_________________________________________________________________
Layer (type)                 Output Shape              Param #   
=================================================================
separable_conv2d_633 (Separa (None, 32, 32, 64)        283       
_________________________________________________________________
activation_949 (Activation)  (None, 32, 32, 64)        0         
_________________________________________________________________
dropout_949 (Dropout)        (None, 32, 32, 64)        0         
_________________________________________________________________
flatten_343 (Flatten)        (None, 65536)             0         
_________________________________________________________________
dense_659 (Dense)            (None, 128)               8388736   
_________________________________________________________________
activation_950 (Activation)  (None, 128)               0         
_________________________________________________________________
dropout_950 (Dropout)        (None, 128)               0         
_________________________________________________________________
dense_660 (Dense)            (None, 100)               12900     
=================================================================
Total params: 8,401,919
Trainable params: 8,401,919
Non-trainable params: 0
_________________________________________________________________
