Model: "sequential_126"
_________________________________________________________________
Layer (type)                 Output Shape              Param #   
=================================================================
separable_conv2d_322 (Separa (None, 32, 32, 8)         59        
_________________________________________________________________
batch_normalization_127 (Bat (None, 32, 32, 8)         32        
_________________________________________________________________
activation_432 (Activation)  (None, 32, 32, 8)         0         
_________________________________________________________________
dropout_432 (Dropout)        (None, 32, 32, 8)         0         
_________________________________________________________________
max_pooling2d_110 (MaxPoolin (None, 16, 16, 8)         0         
_________________________________________________________________
separable_conv2d_323 (Separa (None, 16, 16, 256)       2376      
_________________________________________________________________
activation_433 (Activation)  (None, 16, 16, 256)       0         
_________________________________________________________________
dropout_433 (Dropout)        (None, 16, 16, 256)       0         
_________________________________________________________________
flatten_126 (Flatten)        (None, 65536)             0         
_________________________________________________________________
dense_236 (Dense)            (None, 1024)              67109888  
_________________________________________________________________
activation_434 (Activation)  (None, 1024)              0         
_________________________________________________________________
dropout_434 (Dropout)        (None, 1024)              0         
_________________________________________________________________
dense_237 (Dense)            (None, 100)               102500    
=================================================================
Total params: 67,214,855
Trainable params: 67,214,839
Non-trainable params: 16
_________________________________________________________________
