Model: "sequential_92"
_________________________________________________________________
Layer (type)                 Output Shape              Param #   
=================================================================
separable_conv2d_236 (Separa (None, 32, 32, 16)        91        
_________________________________________________________________
batch_normalization_90 (Batc (None, 32, 32, 16)        64        
_________________________________________________________________
activation_314 (Activation)  (None, 32, 32, 16)        0         
_________________________________________________________________
dropout_314 (Dropout)        (None, 32, 32, 16)        0         
_________________________________________________________________
max_pooling2d_77 (MaxPooling (None, 16, 16, 16)        0         
_________________________________________________________________
separable_conv2d_237 (Separa (None, 16, 16, 256)       4496      
_________________________________________________________________
activation_315 (Activation)  (None, 16, 16, 256)       0         
_________________________________________________________________
dropout_315 (Dropout)        (None, 16, 16, 256)       0         
_________________________________________________________________
flatten_92 (Flatten)         (None, 65536)             0         
_________________________________________________________________
dense_170 (Dense)            (None, 1024)              67109888  
_________________________________________________________________
activation_316 (Activation)  (None, 1024)              0         
_________________________________________________________________
dropout_316 (Dropout)        (None, 1024)              0         
_________________________________________________________________
dense_171 (Dense)            (None, 100)               102500    
=================================================================
Total params: 67,217,039
Trainable params: 67,217,007
Non-trainable params: 32
_________________________________________________________________
