Model: "sequential_279"
_________________________________________________________________
Layer (type)                 Output Shape              Param #   
=================================================================
separable_conv2d_568 (Separa (None, 32, 32, 32)        155       
_________________________________________________________________
activation_822 (Activation)  (None, 32, 32, 32)        0         
_________________________________________________________________
dropout_822 (Dropout)        (None, 32, 32, 32)        0         
_________________________________________________________________
max_pooling2d_232 (MaxPoolin (None, 16, 16, 32)        0         
_________________________________________________________________
flatten_279 (Flatten)        (None, 8192)              0         
_________________________________________________________________
dense_533 (Dense)            (None, 128)               1048704   
_________________________________________________________________
batch_normalization_176 (Bat (None, 128)               512       
_________________________________________________________________
activation_823 (Activation)  (None, 128)               0         
_________________________________________________________________
dropout_823 (Dropout)        (None, 128)               0         
_________________________________________________________________
dense_534 (Dense)            (None, 100)               12900     
=================================================================
Total params: 1,062,271
Trainable params: 1,062,015
Non-trainable params: 256
_________________________________________________________________
