Model: "sequential_26"
_________________________________________________________________
Layer (type)                 Output Shape              Param #   
=================================================================
separable_conv2d_53 (Separab (None, 32, 32, 64)        283       
_________________________________________________________________
batch_normalization_26 (Batc (None, 32, 32, 64)        256       
_________________________________________________________________
activation_70 (Activation)   (None, 32, 32, 64)        0         
_________________________________________________________________
dropout_70 (Dropout)         (None, 32, 32, 64)        0         
_________________________________________________________________
max_pooling2d_19 (MaxPooling (None, 16, 16, 64)        0         
_________________________________________________________________
separable_conv2d_54 (Separab (None, 16, 16, 8)         1096      
_________________________________________________________________
activation_71 (Activation)   (None, 16, 16, 8)         0         
_________________________________________________________________
dropout_71 (Dropout)         (None, 16, 16, 8)         0         
_________________________________________________________________
flatten_26 (Flatten)         (None, 2048)              0         
_________________________________________________________________
dense_43 (Dense)             (None, 100)               204900    
=================================================================
Total params: 206,535
Trainable params: 206,407
Non-trainable params: 128
_________________________________________________________________
