Model: "sequential_39"
_________________________________________________________________
Layer (type)                 Output Shape              Param #   
=================================================================
separable_conv2d_82 (Separab (None, 32, 32, 8)         59        
_________________________________________________________________
batch_normalization_39 (Batc (None, 32, 32, 8)         32        
_________________________________________________________________
activation_107 (Activation)  (None, 32, 32, 8)         0         
_________________________________________________________________
dropout_107 (Dropout)        (None, 32, 32, 8)         0         
_________________________________________________________________
max_pooling2d_30 (MaxPooling (None, 16, 16, 8)         0         
_________________________________________________________________
separable_conv2d_83 (Separab (None, 16, 16, 64)        648       
_________________________________________________________________
activation_108 (Activation)  (None, 16, 16, 64)        0         
_________________________________________________________________
dropout_108 (Dropout)        (None, 16, 16, 64)        0         
_________________________________________________________________
flatten_39 (Flatten)         (None, 16384)             0         
_________________________________________________________________
dense_64 (Dense)             (None, 256)               4194560   
_________________________________________________________________
batch_normalization_40 (Batc (None, 256)               1024      
_________________________________________________________________
activation_109 (Activation)  (None, 256)               0         
_________________________________________________________________
dropout_109 (Dropout)        (None, 256)               0         
_________________________________________________________________
dense_65 (Dense)             (None, 100)               25700     
=================================================================
Total params: 4,222,023
Trainable params: 4,221,495
Non-trainable params: 528
_________________________________________________________________
