Model: "sequential_352"
_________________________________________________________________
Layer (type)                 Output Shape              Param #   
=================================================================
separable_conv2d_643 (Separa (None, 32, 32, 64)        283       
_________________________________________________________________
activation_968 (Activation)  (None, 32, 32, 64)        0         
_________________________________________________________________
dropout_968 (Dropout)        (None, 32, 32, 64)        0         
_________________________________________________________________
max_pooling2d_244 (MaxPoolin (None, 16, 16, 64)        0         
_________________________________________________________________
flatten_352 (Flatten)        (None, 16384)             0         
_________________________________________________________________
dense_677 (Dense)            (None, 128)               2097280   
_________________________________________________________________
activation_969 (Activation)  (None, 128)               0         
_________________________________________________________________
dropout_969 (Dropout)        (None, 128)               0         
_________________________________________________________________
dense_678 (Dense)            (None, 100)               12900     
=================================================================
Total params: 2,110,463
Trainable params: 2,110,463
Non-trainable params: 0
_________________________________________________________________
