Model: "sequential_65"
_________________________________________________________________
Layer (type)                 Output Shape              Param #   
=================================================================
separable_conv2d_156 (Separa (None, 32, 32, 64)        283       
_________________________________________________________________
batch_normalization_64 (Batc (None, 32, 32, 64)        256       
_________________________________________________________________
activation_207 (Activation)  (None, 32, 32, 64)        0         
_________________________________________________________________
dropout_207 (Dropout)        (None, 32, 32, 64)        0         
_________________________________________________________________
max_pooling2d_54 (MaxPooling (None, 16, 16, 64)        0         
_________________________________________________________________
separable_conv2d_157 (Separa (None, 16, 16, 8)         1096      
_________________________________________________________________
activation_208 (Activation)  (None, 16, 16, 8)         0         
_________________________________________________________________
dropout_208 (Dropout)        (None, 16, 16, 8)         0         
_________________________________________________________________
separable_conv2d_158 (Separa (None, 16, 16, 512)       4680      
_________________________________________________________________
activation_209 (Activation)  (None, 16, 16, 512)       0         
_________________________________________________________________
dropout_209 (Dropout)        (None, 16, 16, 512)       0         
_________________________________________________________________
flatten_65 (Flatten)         (None, 131072)            0         
_________________________________________________________________
dense_116 (Dense)            (None, 1024)              134218752 
_________________________________________________________________
activation_210 (Activation)  (None, 1024)              0         
_________________________________________________________________
dropout_210 (Dropout)        (None, 1024)              0         
_________________________________________________________________
dense_117 (Dense)            (None, 100)               102500    
=================================================================
Total params: 134,327,567
Trainable params: 134,327,439
Non-trainable params: 128
_________________________________________________________________
