Model: "sequential_469"
_________________________________________________________________
Layer (type)                 Output Shape              Param #   
=================================================================
separable_conv2d_823 (Separa (None, 32, 32, 256)       1051      
_________________________________________________________________
activation_1263 (Activation) (None, 32, 32, 256)       0         
_________________________________________________________________
dropout_1263 (Dropout)       (None, 32, 32, 256)       0         
_________________________________________________________________
separable_conv2d_824 (Separa (None, 32, 32, 128)       35200     
_________________________________________________________________
activation_1264 (Activation) (None, 32, 32, 128)       0         
_________________________________________________________________
dropout_1264 (Dropout)       (None, 32, 32, 128)       0         
_________________________________________________________________
flatten_469 (Flatten)        (None, 131072)            0         
_________________________________________________________________
dense_909 (Dense)            (None, 1024)              134218752 
_________________________________________________________________
activation_1265 (Activation) (None, 1024)              0         
_________________________________________________________________
dropout_1265 (Dropout)       (None, 1024)              0         
_________________________________________________________________
dense_910 (Dense)            (None, 100)               102500    
=================================================================
Total params: 134,357,503
Trainable params: 134,357,503
Non-trainable params: 0
_________________________________________________________________
