Model: "sequential_353"
_________________________________________________________________
Layer (type)                 Output Shape              Param #   
=================================================================
separable_conv2d_644 (Separa (None, 32, 32, 32)        155       
_________________________________________________________________
activation_970 (Activation)  (None, 32, 32, 32)        0         
_________________________________________________________________
dropout_970 (Dropout)        (None, 32, 32, 32)        0         
_________________________________________________________________
flatten_353 (Flatten)        (None, 32768)             0         
_________________________________________________________________
dense_679 (Dense)            (None, 1024)              33555456  
_________________________________________________________________
activation_971 (Activation)  (None, 1024)              0         
_________________________________________________________________
dropout_971 (Dropout)        (None, 1024)              0         
_________________________________________________________________
dense_680 (Dense)            (None, 100)               102500    
=================================================================
Total params: 33,658,111
Trainable params: 33,658,111
Non-trainable params: 0
_________________________________________________________________
