Model: "sequential_318"
_________________________________________________________________
Layer (type)                 Output Shape              Param #   
=================================================================
separable_conv2d_607 (Separa (None, 32, 32, 256)       1051      
_________________________________________________________________
activation_899 (Activation)  (None, 32, 32, 256)       0         
_________________________________________________________________
dropout_899 (Dropout)        (None, 32, 32, 256)       0         
_________________________________________________________________
max_pooling2d_241 (MaxPoolin (None, 16, 16, 256)       0         
_________________________________________________________________
flatten_318 (Flatten)        (None, 65536)             0         
_________________________________________________________________
dense_610 (Dense)            (None, 128)               8388736   
_________________________________________________________________
activation_900 (Activation)  (None, 128)               0         
_________________________________________________________________
dropout_900 (Dropout)        (None, 128)               0         
_________________________________________________________________
dense_611 (Dense)            (None, 100)               12900     
=================================================================
Total params: 8,402,687
Trainable params: 8,402,687
Non-trainable params: 0
_________________________________________________________________
