Model: "sequential_419"
_________________________________________________________________
Layer (type)                 Output Shape              Param #   
=================================================================
separable_conv2d_738 (Separa (None, 32, 32, 32)        155       
_________________________________________________________________
activation_1129 (Activation) (None, 32, 32, 32)        0         
_________________________________________________________________
dropout_1129 (Dropout)       (None, 32, 32, 32)        0         
_________________________________________________________________
flatten_419 (Flatten)        (None, 32768)             0         
_________________________________________________________________
dense_810 (Dense)            (None, 256)               8388864   
_________________________________________________________________
activation_1130 (Activation) (None, 256)               0         
_________________________________________________________________
dropout_1130 (Dropout)       (None, 256)               0         
_________________________________________________________________
dense_811 (Dense)            (None, 100)               25700     
=================================================================
Total params: 8,414,719
Trainable params: 8,414,719
Non-trainable params: 0
_________________________________________________________________
