Model: "sequential_484"
_________________________________________________________________
Layer (type)                 Output Shape              Param #   
=================================================================
separable_conv2d_846 (Separa (None, 32, 32, 32)        155       
_________________________________________________________________
activation_1300 (Activation) (None, 32, 32, 32)        0         
_________________________________________________________________
dropout_1300 (Dropout)       (None, 32, 32, 32)        0         
_________________________________________________________________
separable_conv2d_847 (Separa (None, 32, 32, 16)        816       
_________________________________________________________________
activation_1301 (Activation) (None, 32, 32, 16)        0         
_________________________________________________________________
dropout_1301 (Dropout)       (None, 32, 32, 16)        0         
_________________________________________________________________
flatten_484 (Flatten)        (None, 16384)             0         
_________________________________________________________________
dense_938 (Dense)            (None, 1024)              16778240  
_________________________________________________________________
activation_1302 (Activation) (None, 1024)              0         
_________________________________________________________________
dropout_1302 (Dropout)       (None, 1024)              0         
_________________________________________________________________
dense_939 (Dense)            (None, 100)               102500    
=================================================================
Total params: 16,881,711
Trainable params: 16,881,711
Non-trainable params: 0
_________________________________________________________________
