Model: "sequential_202"
_________________________________________________________________
Layer (type)                 Output Shape              Param #   
=================================================================
separable_conv2d_470 (Separa (None, 32, 32, 16)        91        
_________________________________________________________________
batch_normalization_160 (Bat (None, 32, 32, 16)        64        
_________________________________________________________________
activation_654 (Activation)  (None, 32, 32, 16)        0         
_________________________________________________________________
dropout_654 (Dropout)        (None, 32, 32, 16)        0         
_________________________________________________________________
max_pooling2d_179 (MaxPoolin (None, 16, 16, 16)        0         
_________________________________________________________________
separable_conv2d_471 (Separa (None, 16, 16, 256)       4496      
_________________________________________________________________
activation_655 (Activation)  (None, 16, 16, 256)       0         
_________________________________________________________________
dropout_655 (Dropout)        (None, 16, 16, 256)       0         
_________________________________________________________________
flatten_202 (Flatten)        (None, 65536)             0         
_________________________________________________________________
dense_386 (Dense)            (None, 1024)              67109888  
_________________________________________________________________
activation_656 (Activation)  (None, 1024)              0         
_________________________________________________________________
dropout_656 (Dropout)        (None, 1024)              0         
_________________________________________________________________
dense_387 (Dense)            (None, 100)               102500    
=================================================================
Total params: 67,217,039
Trainable params: 67,217,007
Non-trainable params: 32
_________________________________________________________________
