Model: "sequential_250"
_________________________________________________________________
Layer (type)                 Output Shape              Param #   
=================================================================
separable_conv2d_539 (Separa (None, 32, 32, 32)        155       
_________________________________________________________________
activation_767 (Activation)  (None, 32, 32, 32)        0         
_________________________________________________________________
dropout_767 (Dropout)        (None, 32, 32, 32)        0         
_________________________________________________________________
flatten_250 (Flatten)        (None, 32768)             0         
_________________________________________________________________
dense_478 (Dense)            (None, 1024)              33555456  
_________________________________________________________________
batch_normalization_170 (Bat (None, 1024)              4096      
_________________________________________________________________
activation_768 (Activation)  (None, 1024)              0         
_________________________________________________________________
dropout_768 (Dropout)        (None, 1024)              0         
_________________________________________________________________
dense_479 (Dense)            (None, 100)               102500    
=================================================================
Total params: 33,662,207
Trainable params: 33,660,159
Non-trainable params: 2,048
_________________________________________________________________
