Model: "sequential_190"
_________________________________________________________________
Layer (type)                 Output Shape              Param #   
=================================================================
separable_conv2d_448 (Separa (None, 32, 32, 16)        91        
_________________________________________________________________
activation_621 (Activation)  (None, 32, 32, 16)        0         
_________________________________________________________________
dropout_621 (Dropout)        (None, 32, 32, 16)        0         
_________________________________________________________________
separable_conv2d_449 (Separa (None, 32, 32, 256)       4496      
_________________________________________________________________
activation_622 (Activation)  (None, 32, 32, 256)       0         
_________________________________________________________________
dropout_622 (Dropout)        (None, 32, 32, 256)       0         
_________________________________________________________________
flatten_190 (Flatten)        (None, 262144)            0         
_________________________________________________________________
dense_363 (Dense)            (None, 1024)              268436480 
_________________________________________________________________
activation_623 (Activation)  (None, 1024)              0         
_________________________________________________________________
dropout_623 (Dropout)        (None, 1024)              0         
_________________________________________________________________
dense_364 (Dense)            (None, 100)               102500    
=================================================================
Total params: 268,543,567
Trainable params: 268,543,567
Non-trainable params: 0
_________________________________________________________________
