Model: "sequential_186"
_________________________________________________________________
Layer (type)                 Output Shape              Param #   
=================================================================
separable_conv2d_441 (Separa (None, 32, 32, 512)       2075      
_________________________________________________________________
batch_normalization_156 (Bat (None, 32, 32, 512)       2048      
_________________________________________________________________
activation_610 (Activation)  (None, 32, 32, 512)       0         
_________________________________________________________________
dropout_610 (Dropout)        (None, 32, 32, 512)       0         
_________________________________________________________________
max_pooling2d_167 (MaxPoolin (None, 16, 16, 512)       0         
_________________________________________________________________
separable_conv2d_442 (Separa (None, 16, 16, 256)       135936    
_________________________________________________________________
activation_611 (Activation)  (None, 16, 16, 256)       0         
_________________________________________________________________
dropout_611 (Dropout)        (None, 16, 16, 256)       0         
_________________________________________________________________
flatten_186 (Flatten)        (None, 65536)             0         
_________________________________________________________________
dense_355 (Dense)            (None, 1024)              67109888  
_________________________________________________________________
activation_612 (Activation)  (None, 1024)              0         
_________________________________________________________________
dropout_612 (Dropout)        (None, 1024)              0         
_________________________________________________________________
dense_356 (Dense)            (None, 100)               102500    
=================================================================
Total params: 67,352,447
Trainable params: 67,351,423
Non-trainable params: 1,024
_________________________________________________________________
