Model: "sequential_37"
_________________________________________________________________
Layer (type)                 Output Shape              Param #   
=================================================================
separable_conv2d_77 (Separab (None, 32, 32, 32)        155       
_________________________________________________________________
batch_normalization_37 (Batc (None, 32, 32, 32)        128       
_________________________________________________________________
activation_101 (Activation)  (None, 32, 32, 32)        0         
_________________________________________________________________
dropout_101 (Dropout)        (None, 32, 32, 32)        0         
_________________________________________________________________
max_pooling2d_28 (MaxPooling (None, 16, 16, 32)        0         
_________________________________________________________________
separable_conv2d_78 (Separab (None, 16, 16, 256)       8736      
_________________________________________________________________
activation_102 (Activation)  (None, 16, 16, 256)       0         
_________________________________________________________________
dropout_102 (Dropout)        (None, 16, 16, 256)       0         
_________________________________________________________________
separable_conv2d_79 (Separab (None, 16, 16, 128)       35200     
_________________________________________________________________
activation_103 (Activation)  (None, 16, 16, 128)       0         
_________________________________________________________________
dropout_103 (Dropout)        (None, 16, 16, 128)       0         
_________________________________________________________________
flatten_37 (Flatten)         (None, 32768)             0         
_________________________________________________________________
dense_61 (Dense)             (None, 256)               8388864   
_________________________________________________________________
activation_104 (Activation)  (None, 256)               0         
_________________________________________________________________
dropout_104 (Dropout)        (None, 256)               0         
_________________________________________________________________
dense_62 (Dense)             (None, 100)               25700     
=================================================================
Total params: 8,458,783
Trainable params: 8,458,719
Non-trainable params: 64
_________________________________________________________________
