Model: "sequential_45"
_________________________________________________________________
Layer (type)                 Output Shape              Param #   
=================================================================
separable_conv2d_99 (Separab (None, 32, 32, 64)        283       
_________________________________________________________________
batch_normalization_48 (Batc (None, 32, 32, 64)        256       
_________________________________________________________________
activation_130 (Activation)  (None, 32, 32, 64)        0         
_________________________________________________________________
dropout_130 (Dropout)        (None, 32, 32, 64)        0         
_________________________________________________________________
max_pooling2d_36 (MaxPooling (None, 16, 16, 64)        0         
_________________________________________________________________
separable_conv2d_100 (Separa (None, 16, 16, 64)        4736      
_________________________________________________________________
activation_131 (Activation)  (None, 16, 16, 64)        0         
_________________________________________________________________
dropout_131 (Dropout)        (None, 16, 16, 64)        0         
_________________________________________________________________
separable_conv2d_101 (Separa (None, 16, 16, 512)       33856     
_________________________________________________________________
activation_132 (Activation)  (None, 16, 16, 512)       0         
_________________________________________________________________
dropout_132 (Dropout)        (None, 16, 16, 512)       0         
_________________________________________________________________
flatten_45 (Flatten)         (None, 131072)            0         
_________________________________________________________________
dense_76 (Dense)             (None, 256)               33554688  
_________________________________________________________________
activation_133 (Activation)  (None, 256)               0         
_________________________________________________________________
dropout_133 (Dropout)        (None, 256)               0         
_________________________________________________________________
dense_77 (Dense)             (None, 100)               25700     
=================================================================
Total params: 33,619,519
Trainable params: 33,619,391
Non-trainable params: 128
_________________________________________________________________
