Model: "sequential_312"
_________________________________________________________________
Layer (type)                 Output Shape              Param #   
=================================================================
separable_conv2d_601 (Separa (None, 32, 32, 512)       2075      
_________________________________________________________________
activation_887 (Activation)  (None, 32, 32, 512)       0         
_________________________________________________________________
dropout_887 (Dropout)        (None, 32, 32, 512)       0         
_________________________________________________________________
flatten_312 (Flatten)        (None, 524288)            0         
_________________________________________________________________
dense_598 (Dense)            (None, 1024)              536871936 
_________________________________________________________________
activation_888 (Activation)  (None, 1024)              0         
_________________________________________________________________
dropout_888 (Dropout)        (None, 1024)              0         
_________________________________________________________________
dense_599 (Dense)            (None, 100)               102500    
=================================================================
Total params: 536,976,511
Trainable params: 536,976,511
Non-trainable params: 0
_________________________________________________________________
