Model: "sequential_199"
_________________________________________________________________
Layer (type)                 Output Shape              Param #   
=================================================================
separable_conv2d_465 (Separa (None, 32, 32, 16)        91        
_________________________________________________________________
activation_646 (Activation)  (None, 32, 32, 16)        0         
_________________________________________________________________
dropout_646 (Dropout)        (None, 32, 32, 16)        0         
_________________________________________________________________
max_pooling2d_177 (MaxPoolin (None, 16, 16, 16)        0         
_________________________________________________________________
separable_conv2d_466 (Separa (None, 16, 16, 256)       4496      
_________________________________________________________________
activation_647 (Activation)  (None, 16, 16, 256)       0         
_________________________________________________________________
dropout_647 (Dropout)        (None, 16, 16, 256)       0         
_________________________________________________________________
flatten_199 (Flatten)        (None, 65536)             0         
_________________________________________________________________
dense_380 (Dense)            (None, 32)                2097184   
_________________________________________________________________
activation_648 (Activation)  (None, 32)                0         
_________________________________________________________________
dropout_648 (Dropout)        (None, 32)                0         
_________________________________________________________________
dense_381 (Dense)            (None, 100)               3300      
=================================================================
Total params: 2,105,071
Trainable params: 2,105,071
Non-trainable params: 0
_________________________________________________________________
