Model: "sequential_29"
_________________________________________________________________
Layer (type)                 Output Shape              Param #   
=================================================================
separable_conv2d_64 (Separab (None, 32, 32, 512)       2075      
_________________________________________________________________
batch_normalization_55 (Batc (None, 32, 32, 512)       2048      
_________________________________________________________________
activation_88 (Activation)   (None, 32, 32, 512)       0         
_________________________________________________________________
dropout_88 (Dropout)         (None, 32, 32, 512)       0         
_________________________________________________________________
separable_conv2d_65 (Separab (None, 32, 32, 32)        21024     
_________________________________________________________________
activation_89 (Activation)   (None, 32, 32, 32)        0         
_________________________________________________________________
dropout_89 (Dropout)         (None, 32, 32, 32)        0         
_________________________________________________________________
max_pooling2d_24 (MaxPooling (None, 16, 16, 32)        0         
_________________________________________________________________
flatten_29 (Flatten)         (None, 8192)              0         
_________________________________________________________________
dense_53 (Dense)             (None, 256)               2097408   
_________________________________________________________________
batch_normalization_56 (Batc (None, 256)               1024      
_________________________________________________________________
activation_90 (Activation)   (None, 256)               0         
_________________________________________________________________
dropout_90 (Dropout)         (None, 256)               0         
_________________________________________________________________
dense_54 (Dense)             (None, 10)                2570      
=================================================================
Total params: 2,126,149
Trainable params: 2,124,613
Non-trainable params: 1,536
_________________________________________________________________
