Model: "sequential_347"
_________________________________________________________________
Layer (type)                 Output Shape              Param #   
=================================================================
separable_conv2d_662 (Separa (None, 32, 32, 512)       2075      
_________________________________________________________________
batch_normalization_655 (Bat (None, 32, 32, 512)       2048      
_________________________________________________________________
activation_983 (Activation)  (None, 32, 32, 512)       0         
_________________________________________________________________
dropout_983 (Dropout)        (None, 32, 32, 512)       0         
_________________________________________________________________
flatten_347 (Flatten)        (None, 524288)            0         
_________________________________________________________________
dense_668 (Dense)            (None, 10)                5242890   
=================================================================
Total params: 5,247,013
Trainable params: 5,245,989
Non-trainable params: 1,024
_________________________________________________________________
