Model: "sequential_93"
_________________________________________________________________
Layer (type)                 Output Shape              Param #   
=================================================================
separable_conv2d_182 (Separa (None, 32, 32, 512)       2075      
_________________________________________________________________
batch_normalization_175 (Bat (None, 32, 32, 512)       2048      
_________________________________________________________________
activation_267 (Activation)  (None, 32, 32, 512)       0         
_________________________________________________________________
dropout_267 (Dropout)        (None, 32, 32, 512)       0         
_________________________________________________________________
separable_conv2d_183 (Separa (None, 32, 32, 32)        21024     
_________________________________________________________________
activation_268 (Activation)  (None, 32, 32, 32)        0         
_________________________________________________________________
dropout_268 (Dropout)        (None, 32, 32, 32)        0         
_________________________________________________________________
max_pooling2d_74 (MaxPooling (None, 16, 16, 32)        0         
_________________________________________________________________
flatten_93 (Flatten)         (None, 8192)              0         
_________________________________________________________________
dense_178 (Dense)            (None, 64)                524352    
_________________________________________________________________
batch_normalization_176 (Bat (None, 64)                256       
_________________________________________________________________
activation_269 (Activation)  (None, 64)                0         
_________________________________________________________________
dropout_269 (Dropout)        (None, 64)                0         
_________________________________________________________________
dense_179 (Dense)            (None, 10)                650       
=================================================================
Total params: 550,405
Trainable params: 549,253
Non-trainable params: 1,152
_________________________________________________________________
