Model: "sequential_172"
_________________________________________________________________
Layer (type)                 Output Shape              Param #   
=================================================================
separable_conv2d_340 (Separa (None, 32, 32, 512)       2075      
_________________________________________________________________
batch_normalization_337 (Bat (None, 32, 32, 512)       2048      
_________________________________________________________________
activation_503 (Activation)  (None, 32, 32, 512)       0         
_________________________________________________________________
dropout_503 (Dropout)        (None, 32, 32, 512)       0         
_________________________________________________________________
separable_conv2d_341 (Separa (None, 32, 32, 128)       70272     
_________________________________________________________________
activation_504 (Activation)  (None, 32, 32, 128)       0         
_________________________________________________________________
dropout_504 (Dropout)        (None, 32, 32, 128)       0         
_________________________________________________________________
max_pooling2d_153 (MaxPoolin (None, 16, 16, 128)       0         
_________________________________________________________________
flatten_172 (Flatten)        (None, 32768)             0         
_________________________________________________________________
dense_335 (Dense)            (None, 128)               4194432   
_________________________________________________________________
batch_normalization_338 (Bat (None, 128)               512       
_________________________________________________________________
activation_505 (Activation)  (None, 128)               0         
_________________________________________________________________
dropout_505 (Dropout)        (None, 128)               0         
_________________________________________________________________
dense_336 (Dense)            (None, 10)                1290      
=================================================================
Total params: 4,270,629
Trainable params: 4,269,349
Non-trainable params: 1,280
_________________________________________________________________
