Model: "sequential_31"
_________________________________________________________________
Layer (type)                 Output Shape              Param #   
=================================================================
separable_conv2d_67 (Separab (None, 32, 32, 8)         59        
_________________________________________________________________
activation_93 (Activation)   (None, 32, 32, 8)         0         
_________________________________________________________________
dropout_93 (Dropout)         (None, 32, 32, 8)         0         
_________________________________________________________________
separable_conv2d_68 (Separab (None, 32, 32, 128)       1224      
_________________________________________________________________
batch_normalization_59 (Batc (None, 32, 32, 128)       512       
_________________________________________________________________
activation_94 (Activation)   (None, 32, 32, 128)       0         
_________________________________________________________________
dropout_94 (Dropout)         (None, 32, 32, 128)       0         
_________________________________________________________________
flatten_31 (Flatten)         (None, 131072)            0         
_________________________________________________________________
dense_57 (Dense)             (None, 256)               33554688  
_________________________________________________________________
batch_normalization_60 (Batc (None, 256)               1024      
_________________________________________________________________
activation_95 (Activation)   (None, 256)               0         
_________________________________________________________________
dropout_95 (Dropout)         (None, 256)               0         
_________________________________________________________________
dense_58 (Dense)             (None, 10)                2570      
=================================================================
Total params: 33,560,077
Trainable params: 33,559,309
Non-trainable params: 768
_________________________________________________________________
