Model: "sequential_301"
_________________________________________________________________
Layer (type)                 Output Shape              Param #   
=================================================================
separable_conv2d_583 (Separa (None, 32, 32, 512)       2075      
_________________________________________________________________
batch_normalization_574 (Bat (None, 32, 32, 512)       2048      
_________________________________________________________________
activation_866 (Activation)  (None, 32, 32, 512)       0         
_________________________________________________________________
dropout_866 (Dropout)        (None, 32, 32, 512)       0         
_________________________________________________________________
flatten_301 (Flatten)        (None, 524288)            0         
_________________________________________________________________
dense_584 (Dense)            (None, 128)               67108992  
_________________________________________________________________
batch_normalization_575 (Bat (None, 128)               512       
_________________________________________________________________
activation_867 (Activation)  (None, 128)               0         
_________________________________________________________________
dropout_867 (Dropout)        (None, 128)               0         
_________________________________________________________________
dense_585 (Dense)            (None, 10)                1290      
=================================================================
Total params: 67,114,917
Trainable params: 67,113,637
Non-trainable params: 1,280
_________________________________________________________________
