Model: "sequential_106"
_________________________________________________________________
Layer (type)                 Output Shape              Param #   
=================================================================
separable_conv2d_208 (Separa (None, 32, 32, 512)       2075      
_________________________________________________________________
batch_normalization_199 (Bat (None, 32, 32, 512)       2048      
_________________________________________________________________
activation_306 (Activation)  (None, 32, 32, 512)       0         
_________________________________________________________________
dropout_306 (Dropout)        (None, 32, 32, 512)       0         
_________________________________________________________________
separable_conv2d_209 (Separa (None, 32, 32, 32)        21024     
_________________________________________________________________
activation_307 (Activation)  (None, 32, 32, 32)        0         
_________________________________________________________________
dropout_307 (Dropout)        (None, 32, 32, 32)        0         
_________________________________________________________________
max_pooling2d_86 (MaxPooling (None, 16, 16, 32)        0         
_________________________________________________________________
flatten_106 (Flatten)        (None, 8192)              0         
_________________________________________________________________
dense_204 (Dense)            (None, 256)               2097408   
_________________________________________________________________
batch_normalization_200 (Bat (None, 256)               1024      
_________________________________________________________________
activation_308 (Activation)  (None, 256)               0         
_________________________________________________________________
dropout_308 (Dropout)        (None, 256)               0         
_________________________________________________________________
dense_205 (Dense)            (None, 10)                2570      
=================================================================
Total params: 2,126,149
Trainable params: 2,124,613
Non-trainable params: 1,536
_________________________________________________________________
