Model: "sequential_94"
_________________________________________________________________
Layer (type)                 Output Shape              Param #   
=================================================================
separable_conv2d_184 (Separa (None, 32, 32, 512)       2075      
_________________________________________________________________
batch_normalization_177 (Bat (None, 32, 32, 512)       2048      
_________________________________________________________________
activation_270 (Activation)  (None, 32, 32, 512)       0         
_________________________________________________________________
dropout_270 (Dropout)        (None, 32, 32, 512)       0         
_________________________________________________________________
separable_conv2d_185 (Separa (None, 32, 32, 32)        21024     
_________________________________________________________________
activation_271 (Activation)  (None, 32, 32, 32)        0         
_________________________________________________________________
dropout_271 (Dropout)        (None, 32, 32, 32)        0         
_________________________________________________________________
flatten_94 (Flatten)         (None, 32768)             0         
_________________________________________________________________
dense_180 (Dense)            (None, 256)               8388864   
_________________________________________________________________
batch_normalization_178 (Bat (None, 256)               1024      
_________________________________________________________________
activation_272 (Activation)  (None, 256)               0         
_________________________________________________________________
dropout_272 (Dropout)        (None, 256)               0         
_________________________________________________________________
dense_181 (Dense)            (None, 10)                2570      
=================================================================
Total params: 8,417,605
Trainable params: 8,416,069
Non-trainable params: 1,536
_________________________________________________________________
