Model: "sequential_284"
_________________________________________________________________
Layer (type)                 Output Shape              Param #   
=================================================================
separable_conv2d_554 (Separa (None, 32, 32, 512)       2075      
_________________________________________________________________
batch_normalization_543 (Bat (None, 32, 32, 512)       2048      
_________________________________________________________________
activation_823 (Activation)  (None, 32, 32, 512)       0         
_________________________________________________________________
dropout_823 (Dropout)        (None, 32, 32, 512)       0         
_________________________________________________________________
separable_conv2d_555 (Separa (None, 32, 32, 512)       267264    
_________________________________________________________________
activation_824 (Activation)  (None, 32, 32, 512)       0         
_________________________________________________________________
dropout_824 (Dropout)        (None, 32, 32, 512)       0         
_________________________________________________________________
flatten_284 (Flatten)        (None, 524288)            0         
_________________________________________________________________
dense_553 (Dense)            (None, 10)                5242890   
=================================================================
Total params: 5,514,277
Trainable params: 5,513,253
Non-trainable params: 1,024
_________________________________________________________________
