Model: "sequential_253"
_________________________________________________________________
Layer (type)                 Output Shape              Param #   
=================================================================
separable_conv2d_501 (Separa (None, 32, 32, 128)       539       
_________________________________________________________________
batch_normalization_490 (Bat (None, 32, 32, 128)       512       
_________________________________________________________________
activation_742 (Activation)  (None, 32, 32, 128)       0         
_________________________________________________________________
dropout_742 (Dropout)        (None, 32, 32, 128)       0         
_________________________________________________________________
separable_conv2d_502 (Separa (None, 32, 32, 128)       17664     
_________________________________________________________________
activation_743 (Activation)  (None, 32, 32, 128)       0         
_________________________________________________________________
dropout_743 (Dropout)        (None, 32, 32, 128)       0         
_________________________________________________________________
flatten_253 (Flatten)        (None, 131072)            0         
_________________________________________________________________
dense_494 (Dense)            (None, 128)               16777344  
_________________________________________________________________
batch_normalization_491 (Bat (None, 128)               512       
_________________________________________________________________
activation_744 (Activation)  (None, 128)               0         
_________________________________________________________________
dropout_744 (Dropout)        (None, 128)               0         
_________________________________________________________________
dense_495 (Dense)            (None, 10)                1290      
=================================================================
Total params: 16,797,861
Trainable params: 16,797,349
Non-trainable params: 512
_________________________________________________________________
