Model: "sequential_275"
_________________________________________________________________
Layer (type)                 Output Shape              Param #   
=================================================================
separable_conv2d_539 (Separa (None, 32, 32, 512)       2075      
_________________________________________________________________
batch_normalization_528 (Bat (None, 32, 32, 512)       2048      
_________________________________________________________________
activation_800 (Activation)  (None, 32, 32, 512)       0         
_________________________________________________________________
dropout_800 (Dropout)        (None, 32, 32, 512)       0         
_________________________________________________________________
max_pooling2d_242 (MaxPoolin (None, 16, 16, 512)       0         
_________________________________________________________________
separable_conv2d_540 (Separa (None, 16, 16, 512)       267264    
_________________________________________________________________
activation_801 (Activation)  (None, 16, 16, 512)       0         
_________________________________________________________________
dropout_801 (Dropout)        (None, 16, 16, 512)       0         
_________________________________________________________________
max_pooling2d_243 (MaxPoolin (None, 8, 8, 512)         0         
_________________________________________________________________
flatten_275 (Flatten)        (None, 32768)             0         
_________________________________________________________________
dense_536 (Dense)            (None, 1024)              33555456  
_________________________________________________________________
batch_normalization_529 (Bat (None, 1024)              4096      
_________________________________________________________________
activation_802 (Activation)  (None, 1024)              0         
_________________________________________________________________
dropout_802 (Dropout)        (None, 1024)              0         
_________________________________________________________________
dense_537 (Dense)            (None, 10)                10250     
=================================================================
Total params: 33,841,189
Trainable params: 33,838,117
Non-trainable params: 3,072
_________________________________________________________________
