Model: "sequential_42"
_________________________________________________________________
Layer (type)                 Output Shape              Param #   
=================================================================
separable_conv2d_88 (Separab (None, 32, 32, 512)       2075      
_________________________________________________________________
batch_normalization_81 (Batc (None, 32, 32, 512)       2048      
_________________________________________________________________
activation_125 (Activation)  (None, 32, 32, 512)       0         
_________________________________________________________________
dropout_125 (Dropout)        (None, 32, 32, 512)       0         
_________________________________________________________________
flatten_42 (Flatten)         (None, 524288)            0         
_________________________________________________________________
dense_79 (Dense)             (None, 256)               134217984 
_________________________________________________________________
batch_normalization_82 (Batc (None, 256)               1024      
_________________________________________________________________
activation_126 (Activation)  (None, 256)               0         
_________________________________________________________________
dropout_126 (Dropout)        (None, 256)               0         
_________________________________________________________________
dense_80 (Dense)             (None, 10)                2570      
=================================================================
Total params: 134,225,701
Trainable params: 134,224,165
Non-trainable params: 1,536
_________________________________________________________________
