Model: "sequential_61"
_________________________________________________________________
Layer (type)                 Output Shape              Param #   
=================================================================
separable_conv2d_122 (Separa (None, 32, 32, 512)       2075      
_________________________________________________________________
batch_normalization_117 (Bat (None, 32, 32, 512)       2048      
_________________________________________________________________
activation_177 (Activation)  (None, 32, 32, 512)       0         
_________________________________________________________________
dropout_177 (Dropout)        (None, 32, 32, 512)       0         
_________________________________________________________________
flatten_61 (Flatten)         (None, 524288)            0         
_________________________________________________________________
dense_116 (Dense)            (None, 256)               134217984 
_________________________________________________________________
batch_normalization_118 (Bat (None, 256)               1024      
_________________________________________________________________
activation_178 (Activation)  (None, 256)               0         
_________________________________________________________________
dropout_178 (Dropout)        (None, 256)               0         
_________________________________________________________________
dense_117 (Dense)            (None, 10)                2570      
=================================================================
Total params: 134,225,701
Trainable params: 134,224,165
Non-trainable params: 1,536
_________________________________________________________________
