Model: "sequential_203"
_________________________________________________________________
Layer (type)                 Output Shape              Param #   
=================================================================
separable_conv2d_402 (Separa (None, 32, 32, 16)        91        
_________________________________________________________________
batch_normalization_398 (Bat (None, 32, 32, 16)        64        
_________________________________________________________________
activation_596 (Activation)  (None, 32, 32, 16)        0         
_________________________________________________________________
dropout_596 (Dropout)        (None, 32, 32, 16)        0         
_________________________________________________________________
separable_conv2d_403 (Separa (None, 32, 32, 128)       2320      
_________________________________________________________________
activation_597 (Activation)  (None, 32, 32, 128)       0         
_________________________________________________________________
dropout_597 (Dropout)        (None, 32, 32, 128)       0         
_________________________________________________________________
max_pooling2d_186 (MaxPoolin (None, 16, 16, 128)       0         
_________________________________________________________________
flatten_203 (Flatten)        (None, 32768)             0         
_________________________________________________________________
dense_397 (Dense)            (None, 128)               4194432   
_________________________________________________________________
batch_normalization_399 (Bat (None, 128)               512       
_________________________________________________________________
activation_598 (Activation)  (None, 128)               0         
_________________________________________________________________
dropout_598 (Dropout)        (None, 128)               0         
_________________________________________________________________
dense_398 (Dense)            (None, 10)                1290      
=================================================================
Total params: 4,198,709
Trainable params: 4,198,421
Non-trainable params: 288
_________________________________________________________________
