Model: "sequential_320"
_________________________________________________________________
Layer (type)                 Output Shape              Param #   
=================================================================
separable_conv2d_616 (Separa (None, 32, 32, 16)        91        
_________________________________________________________________
batch_normalization_611 (Bat (None, 32, 32, 16)        64        
_________________________________________________________________
activation_917 (Activation)  (None, 32, 32, 16)        0         
_________________________________________________________________
dropout_917 (Dropout)        (None, 32, 32, 16)        0         
_________________________________________________________________
flatten_320 (Flatten)        (None, 16384)             0         
_________________________________________________________________
dense_621 (Dense)            (None, 128)               2097280   
_________________________________________________________________
batch_normalization_612 (Bat (None, 128)               512       
_________________________________________________________________
activation_918 (Activation)  (None, 128)               0         
_________________________________________________________________
dropout_918 (Dropout)        (None, 128)               0         
_________________________________________________________________
dense_622 (Dense)            (None, 10)                1290      
=================================================================
Total params: 2,099,237
Trainable params: 2,098,949
Non-trainable params: 288
_________________________________________________________________
