Model: "sequential_19"
_________________________________________________________________
Layer (type)                 Output Shape              Param #   
=================================================================
separable_conv2d_46 (Separab (None, 32, 32, 512)       2075      
_________________________________________________________________
batch_normalization_35 (Batc (None, 32, 32, 512)       2048      
_________________________________________________________________
activation_60 (Activation)   (None, 32, 32, 512)       0         
_________________________________________________________________
dropout_60 (Dropout)         (None, 32, 32, 512)       0         
_________________________________________________________________
separable_conv2d_47 (Separab (None, 32, 32, 32)        21024     
_________________________________________________________________
activation_61 (Activation)   (None, 32, 32, 32)        0         
_________________________________________________________________
dropout_61 (Dropout)         (None, 32, 32, 32)        0         
_________________________________________________________________
max_pooling2d_17 (MaxPooling (None, 16, 16, 32)        0         
_________________________________________________________________
flatten_19 (Flatten)         (None, 8192)              0         
_________________________________________________________________
dense_33 (Dense)             (None, 256)               2097408   
_________________________________________________________________
batch_normalization_36 (Batc (None, 256)               1024      
_________________________________________________________________
activation_62 (Activation)   (None, 256)               0         
_________________________________________________________________
dropout_62 (Dropout)         (None, 256)               0         
_________________________________________________________________
dense_34 (Dense)             (None, 10)                2570      
=================================================================
Total params: 2,126,149
Trainable params: 2,124,613
Non-trainable params: 1,536
_________________________________________________________________
