Model: "sequential_399"
_________________________________________________________________
Layer (type)                 Output Shape              Param #   
=================================================================
separable_conv2d_758 (Separa (None, 32, 32, 256)       1051      
_________________________________________________________________
batch_normalization_742 (Bat (None, 32, 32, 256)       1024      
_________________________________________________________________
activation_1120 (Activation) (None, 32, 32, 256)       0         
_________________________________________________________________
dropout_1120 (Dropout)       (None, 32, 32, 256)       0         
_________________________________________________________________
separable_conv2d_759 (Separa (None, 32, 32, 8)         4360      
_________________________________________________________________
activation_1121 (Activation) (None, 32, 32, 8)         0         
_________________________________________________________________
dropout_1121 (Dropout)       (None, 32, 32, 8)         0         
_________________________________________________________________
max_pooling2d_288 (MaxPoolin (None, 16, 16, 8)         0         
_________________________________________________________________
flatten_399 (Flatten)        (None, 2048)              0         
_________________________________________________________________
dense_761 (Dense)            (None, 512)               1049088   
_________________________________________________________________
activation_1122 (Activation) (None, 512)               0         
_________________________________________________________________
dropout_1122 (Dropout)       (None, 512)               0         
_________________________________________________________________
dense_762 (Dense)            (None, 10)                5130      
=================================================================
Total params: 1,060,653
Trainable params: 1,060,141
Non-trainable params: 512
_________________________________________________________________
