Model: "sequential_116"
_________________________________________________________________
Layer (type)                 Output Shape              Param #   
=================================================================
separable_conv2d_228 (Separa (None, 32, 32, 512)       2075      
_________________________________________________________________
batch_normalization_220 (Bat (None, 32, 32, 512)       2048      
_________________________________________________________________
activation_336 (Activation)  (None, 32, 32, 512)       0         
_________________________________________________________________
dropout_336 (Dropout)        (None, 32, 32, 512)       0         
_________________________________________________________________
separable_conv2d_229 (Separa (None, 32, 32, 32)        21024     
_________________________________________________________________
activation_337 (Activation)  (None, 32, 32, 32)        0         
_________________________________________________________________
dropout_337 (Dropout)        (None, 32, 32, 32)        0         
_________________________________________________________________
max_pooling2d_96 (MaxPooling (None, 16, 16, 32)        0         
_________________________________________________________________
flatten_116 (Flatten)        (None, 8192)              0         
_________________________________________________________________
dense_224 (Dense)            (None, 256)               2097408   
_________________________________________________________________
batch_normalization_221 (Bat (None, 256)               1024      
_________________________________________________________________
activation_338 (Activation)  (None, 256)               0         
_________________________________________________________________
dropout_338 (Dropout)        (None, 256)               0         
_________________________________________________________________
dense_225 (Dense)            (None, 10)                2570      
=================================================================
Total params: 2,126,149
Trainable params: 2,124,613
Non-trainable params: 1,536
_________________________________________________________________
