Model: "sequential_21"
_________________________________________________________________
Layer (type)                 Output Shape              Param #   
=================================================================
separable_conv2d_49 (Separab (None, 32, 32, 8)         59        
_________________________________________________________________
activation_65 (Activation)   (None, 32, 32, 8)         0         
_________________________________________________________________
dropout_65 (Dropout)         (None, 32, 32, 8)         0         
_________________________________________________________________
separable_conv2d_50 (Separab (None, 32, 32, 128)       1224      
_________________________________________________________________
batch_normalization_39 (Batc (None, 32, 32, 128)       512       
_________________________________________________________________
activation_66 (Activation)   (None, 32, 32, 128)       0         
_________________________________________________________________
dropout_66 (Dropout)         (None, 32, 32, 128)       0         
_________________________________________________________________
flatten_21 (Flatten)         (None, 131072)            0         
_________________________________________________________________
dense_37 (Dense)             (None, 256)               33554688  
_________________________________________________________________
batch_normalization_40 (Batc (None, 256)               1024      
_________________________________________________________________
activation_67 (Activation)   (None, 256)               0         
_________________________________________________________________
dropout_67 (Dropout)         (None, 256)               0         
_________________________________________________________________
dense_38 (Dense)             (None, 10)                2570      
=================================================================
Total params: 33,560,077
Trainable params: 33,559,309
Non-trainable params: 768
_________________________________________________________________
