Model: "sequential_373"
_________________________________________________________________
Layer (type)                 Output Shape              Param #   
=================================================================
separable_conv2d_709 (Separa (None, 32, 32, 512)       2075      
_________________________________________________________________
batch_normalization_698 (Bat (None, 32, 32, 512)       2048      
_________________________________________________________________
activation_1049 (Activation) (None, 32, 32, 512)       0         
_________________________________________________________________
dropout_1049 (Dropout)       (None, 32, 32, 512)       0         
_________________________________________________________________
flatten_373 (Flatten)        (None, 524288)            0         
_________________________________________________________________
dense_713 (Dense)            (None, 512)               268435968 
_________________________________________________________________
batch_normalization_699 (Bat (None, 512)               2048      
_________________________________________________________________
activation_1050 (Activation) (None, 512)               0         
_________________________________________________________________
dropout_1050 (Dropout)       (None, 512)               0         
_________________________________________________________________
dense_714 (Dense)            (None, 10)                5130      
=================================================================
Total params: 268,447,269
Trainable params: 268,445,221
Non-trainable params: 2,048
_________________________________________________________________
