Model: "sequential_265"
_________________________________________________________________
Layer (type)                 Output Shape              Param #   
=================================================================
separable_conv2d_523 (Separa (None, 32, 32, 512)       2075      
_________________________________________________________________
batch_normalization_511 (Bat (None, 32, 32, 512)       2048      
_________________________________________________________________
activation_776 (Activation)  (None, 32, 32, 512)       0         
_________________________________________________________________
dropout_776 (Dropout)        (None, 32, 32, 512)       0         
_________________________________________________________________
max_pooling2d_236 (MaxPoolin (None, 16, 16, 512)       0         
_________________________________________________________________
separable_conv2d_524 (Separa (None, 16, 16, 512)       267264    
_________________________________________________________________
activation_777 (Activation)  (None, 16, 16, 512)       0         
_________________________________________________________________
dropout_777 (Dropout)        (None, 16, 16, 512)       0         
_________________________________________________________________
flatten_265 (Flatten)        (None, 131072)            0         
_________________________________________________________________
dense_518 (Dense)            (None, 128)               16777344  
_________________________________________________________________
batch_normalization_512 (Bat (None, 128)               512       
_________________________________________________________________
activation_778 (Activation)  (None, 128)               0         
_________________________________________________________________
dropout_778 (Dropout)        (None, 128)               0         
_________________________________________________________________
dense_519 (Dense)            (None, 10)                1290      
=================================================================
Total params: 17,050,533
Trainable params: 17,049,253
Non-trainable params: 1,280
_________________________________________________________________
