Model: "sequential_383"
_________________________________________________________________
Layer (type)                 Output Shape              Param #   
=================================================================
separable_conv2d_728 (Separa (None, 32, 32, 512)       2075      
_________________________________________________________________
batch_normalization_719 (Bat (None, 32, 32, 512)       2048      
_________________________________________________________________
activation_1078 (Activation) (None, 32, 32, 512)       0         
_________________________________________________________________
dropout_1078 (Dropout)       (None, 32, 32, 512)       0         
_________________________________________________________________
separable_conv2d_729 (Separa (None, 32, 32, 128)       70272     
_________________________________________________________________
activation_1079 (Activation) (None, 32, 32, 128)       0         
_________________________________________________________________
dropout_1079 (Dropout)       (None, 32, 32, 128)       0         
_________________________________________________________________
flatten_383 (Flatten)        (None, 131072)            0         
_________________________________________________________________
dense_733 (Dense)            (None, 10)                1310730   
=================================================================
Total params: 1,385,125
Trainable params: 1,384,101
Non-trainable params: 1,024
_________________________________________________________________
