Model: "sequential_381"
_________________________________________________________________
Layer (type)                 Output Shape              Param #   
=================================================================
separable_conv2d_724 (Separa (None, 32, 32, 512)       2075      
_________________________________________________________________
batch_normalization_715 (Bat (None, 32, 32, 512)       2048      
_________________________________________________________________
activation_1072 (Activation) (None, 32, 32, 512)       0         
_________________________________________________________________
dropout_1072 (Dropout)       (None, 32, 32, 512)       0         
_________________________________________________________________
max_pooling2d_279 (MaxPoolin (None, 16, 16, 512)       0         
_________________________________________________________________
separable_conv2d_725 (Separa (None, 16, 16, 16)        12816     
_________________________________________________________________
activation_1073 (Activation) (None, 16, 16, 16)        0         
_________________________________________________________________
dropout_1073 (Dropout)       (None, 16, 16, 16)        0         
_________________________________________________________________
max_pooling2d_280 (MaxPoolin (None, 8, 8, 16)          0         
_________________________________________________________________
flatten_381 (Flatten)        (None, 1024)              0         
_________________________________________________________________
dense_729 (Dense)            (None, 512)               524800    
_________________________________________________________________
batch_normalization_716 (Bat (None, 512)               2048      
_________________________________________________________________
activation_1074 (Activation) (None, 512)               0         
_________________________________________________________________
dropout_1074 (Dropout)       (None, 512)               0         
_________________________________________________________________
dense_730 (Dense)            (None, 10)                5130      
=================================================================
Total params: 548,917
Trainable params: 546,869
Non-trainable params: 2,048
_________________________________________________________________
