Model: "sequential_263"
_________________________________________________________________
Layer (type)                 Output Shape              Param #   
=================================================================
separable_conv2d_519 (Separa (None, 32, 32, 512)       2075      
_________________________________________________________________
batch_normalization_507 (Bat (None, 32, 32, 512)       2048      
_________________________________________________________________
activation_770 (Activation)  (None, 32, 32, 512)       0         
_________________________________________________________________
dropout_770 (Dropout)        (None, 32, 32, 512)       0         
_________________________________________________________________
separable_conv2d_520 (Separa (None, 32, 32, 64)        37440     
_________________________________________________________________
activation_771 (Activation)  (None, 32, 32, 64)        0         
_________________________________________________________________
dropout_771 (Dropout)        (None, 32, 32, 64)        0         
_________________________________________________________________
flatten_263 (Flatten)        (None, 65536)             0         
_________________________________________________________________
dense_514 (Dense)            (None, 128)               8388736   
_________________________________________________________________
batch_normalization_508 (Bat (None, 128)               512       
_________________________________________________________________
activation_772 (Activation)  (None, 128)               0         
_________________________________________________________________
dropout_772 (Dropout)        (None, 128)               0         
_________________________________________________________________
dense_515 (Dense)            (None, 10)                1290      
=================================================================
Total params: 8,432,101
Trainable params: 8,430,821
Non-trainable params: 1,280
_________________________________________________________________
