Model: "sequential_79"
_________________________________________________________________
Layer (type)                 Output Shape              Param #   
=================================================================
separable_conv2d_155 (Separa (None, 32, 32, 512)       2075      
_________________________________________________________________
batch_normalization_150 (Bat (None, 32, 32, 512)       2048      
_________________________________________________________________
activation_227 (Activation)  (None, 32, 32, 512)       0         
_________________________________________________________________
dropout_227 (Dropout)        (None, 32, 32, 512)       0         
_________________________________________________________________
separable_conv2d_156 (Separa (None, 32, 32, 32)        21024     
_________________________________________________________________
activation_228 (Activation)  (None, 32, 32, 32)        0         
_________________________________________________________________
dropout_228 (Dropout)        (None, 32, 32, 32)        0         
_________________________________________________________________
max_pooling2d_62 (MaxPooling (None, 16, 16, 32)        0         
_________________________________________________________________
flatten_79 (Flatten)         (None, 8192)              0         
_________________________________________________________________
dense_151 (Dense)            (None, 256)               2097408   
_________________________________________________________________
batch_normalization_151 (Bat (None, 256)               1024      
_________________________________________________________________
activation_229 (Activation)  (None, 256)               0         
_________________________________________________________________
dropout_229 (Dropout)        (None, 256)               0         
_________________________________________________________________
dense_152 (Dense)            (None, 10)                2570      
=================================================================
Total params: 2,126,149
Trainable params: 2,124,613
Non-trainable params: 1,536
_________________________________________________________________
