Model: "sequential_296"
_________________________________________________________________
Layer (type)                 Output Shape              Param #   
=================================================================
separable_conv2d_576 (Separa (None, 32, 32, 512)       2075      
_________________________________________________________________
batch_normalization_565 (Bat (None, 32, 32, 512)       2048      
_________________________________________________________________
activation_855 (Activation)  (None, 32, 32, 512)       0         
_________________________________________________________________
dropout_855 (Dropout)        (None, 32, 32, 512)       0         
_________________________________________________________________
separable_conv2d_577 (Separa (None, 32, 32, 512)       267264    
_________________________________________________________________
activation_856 (Activation)  (None, 32, 32, 512)       0         
_________________________________________________________________
dropout_856 (Dropout)        (None, 32, 32, 512)       0         
_________________________________________________________________
flatten_296 (Flatten)        (None, 524288)            0         
_________________________________________________________________
dense_575 (Dense)            (None, 10)                5242890   
=================================================================
Total params: 5,514,277
Trainable params: 5,513,253
Non-trainable params: 1,024
_________________________________________________________________
