Model: "sequential_167"
_________________________________________________________________
Layer (type)                 Output Shape              Param #   
=================================================================
separable_conv2d_330 (Separa (None, 32, 32, 512)       2075      
_________________________________________________________________
batch_normalization_327 (Bat (None, 32, 32, 512)       2048      
_________________________________________________________________
activation_488 (Activation)  (None, 32, 32, 512)       0         
_________________________________________________________________
dropout_488 (Dropout)        (None, 32, 32, 512)       0         
_________________________________________________________________
max_pooling2d_146 (MaxPoolin (None, 16, 16, 512)       0         
_________________________________________________________________
separable_conv2d_331 (Separa (None, 16, 16, 128)       70272     
_________________________________________________________________
activation_489 (Activation)  (None, 16, 16, 128)       0         
_________________________________________________________________
dropout_489 (Dropout)        (None, 16, 16, 128)       0         
_________________________________________________________________
max_pooling2d_147 (MaxPoolin (None, 8, 8, 128)         0         
_________________________________________________________________
flatten_167 (Flatten)        (None, 8192)              0         
_________________________________________________________________
dense_325 (Dense)            (None, 256)               2097408   
_________________________________________________________________
batch_normalization_328 (Bat (None, 256)               1024      
_________________________________________________________________
activation_490 (Activation)  (None, 256)               0         
_________________________________________________________________
dropout_490 (Dropout)        (None, 256)               0         
_________________________________________________________________
dense_326 (Dense)            (None, 10)                2570      
=================================================================
Total params: 2,175,397
Trainable params: 2,173,861
Non-trainable params: 1,536
_________________________________________________________________
