Model: "sequential_154"
_________________________________________________________________
Layer (type)                 Output Shape              Param #   
=================================================================
separable_conv2d_304 (Separa (None, 32, 32, 512)       2075      
_________________________________________________________________
batch_normalization_300 (Bat (None, 32, 32, 512)       2048      
_________________________________________________________________
activation_449 (Activation)  (None, 32, 32, 512)       0         
_________________________________________________________________
dropout_449 (Dropout)        (None, 32, 32, 512)       0         
_________________________________________________________________
separable_conv2d_305 (Separa (None, 32, 32, 32)        21024     
_________________________________________________________________
activation_450 (Activation)  (None, 32, 32, 32)        0         
_________________________________________________________________
dropout_450 (Dropout)        (None, 32, 32, 32)        0         
_________________________________________________________________
max_pooling2d_133 (MaxPoolin (None, 16, 16, 32)        0         
_________________________________________________________________
flatten_154 (Flatten)        (None, 8192)              0         
_________________________________________________________________
dense_299 (Dense)            (None, 256)               2097408   
_________________________________________________________________
batch_normalization_301 (Bat (None, 256)               1024      
_________________________________________________________________
activation_451 (Activation)  (None, 256)               0         
_________________________________________________________________
dropout_451 (Dropout)        (None, 256)               0         
_________________________________________________________________
dense_300 (Dense)            (None, 10)                2570      
=================================================================
Total params: 2,126,149
Trainable params: 2,124,613
Non-trainable params: 1,536
_________________________________________________________________
