Model: "sequential_313"
_________________________________________________________________
Layer (type)                 Output Shape              Param #   
=================================================================
separable_conv2d_604 (Separa (None, 32, 32, 512)       2075      
_________________________________________________________________
batch_normalization_598 (Bat (None, 32, 32, 512)       2048      
_________________________________________________________________
activation_898 (Activation)  (None, 32, 32, 512)       0         
_________________________________________________________________
dropout_898 (Dropout)        (None, 32, 32, 512)       0         
_________________________________________________________________
max_pooling2d_253 (MaxPoolin (None, 16, 16, 512)       0         
_________________________________________________________________
flatten_313 (Flatten)        (None, 131072)            0         
_________________________________________________________________
dense_607 (Dense)            (None, 512)               67109376  
_________________________________________________________________
batch_normalization_599 (Bat (None, 512)               2048      
_________________________________________________________________
activation_899 (Activation)  (None, 512)               0         
_________________________________________________________________
dropout_899 (Dropout)        (None, 512)               0         
_________________________________________________________________
dense_608 (Dense)            (None, 10)                5130      
=================================================================
Total params: 67,120,677
Trainable params: 67,118,629
Non-trainable params: 2,048
_________________________________________________________________
