Model: "sequential_92"
_________________________________________________________________
Layer (type)                 Output Shape              Param #   
=================================================================
separable_conv2d_180 (Separa (None, 32, 32, 512)       2075      
_________________________________________________________________
batch_normalization_173 (Bat (None, 32, 32, 512)       2048      
_________________________________________________________________
activation_264 (Activation)  (None, 32, 32, 512)       0         
_________________________________________________________________
dropout_264 (Dropout)        (None, 32, 32, 512)       0         
_________________________________________________________________
separable_conv2d_181 (Separa (None, 32, 32, 32)        21024     
_________________________________________________________________
activation_265 (Activation)  (None, 32, 32, 32)        0         
_________________________________________________________________
dropout_265 (Dropout)        (None, 32, 32, 32)        0         
_________________________________________________________________
max_pooling2d_73 (MaxPooling (None, 16, 16, 32)        0         
_________________________________________________________________
flatten_92 (Flatten)         (None, 8192)              0         
_________________________________________________________________
dense_176 (Dense)            (None, 256)               2097408   
_________________________________________________________________
batch_normalization_174 (Bat (None, 256)               1024      
_________________________________________________________________
activation_266 (Activation)  (None, 256)               0         
_________________________________________________________________
dropout_266 (Dropout)        (None, 256)               0         
_________________________________________________________________
dense_177 (Dense)            (None, 10)                2570      
=================================================================
Total params: 2,126,149
Trainable params: 2,124,613
Non-trainable params: 1,536
_________________________________________________________________
