Model: "sequential_344"
_________________________________________________________________
Layer (type)                 Output Shape              Param #   
=================================================================
separable_conv2d_657 (Separa (None, 32, 32, 16)        91        
_________________________________________________________________
batch_normalization_651 (Bat (None, 32, 32, 16)        64        
_________________________________________________________________
activation_976 (Activation)  (None, 32, 32, 16)        0         
_________________________________________________________________
dropout_976 (Dropout)        (None, 32, 32, 16)        0         
_________________________________________________________________
flatten_344 (Flatten)        (None, 16384)             0         
_________________________________________________________________
dense_663 (Dense)            (None, 10)                163850    
=================================================================
Total params: 164,005
Trainable params: 163,973
Non-trainable params: 32
_________________________________________________________________
