Model: "sequential_64"
_________________________________________________________________
Layer (type)                 Output Shape              Param #   
=================================================================
separable_conv2d_127 (Separa (None, 32, 32, 512)       2075      
_________________________________________________________________
batch_normalization_123 (Bat (None, 32, 32, 512)       2048      
_________________________________________________________________
activation_185 (Activation)  (None, 32, 32, 512)       0         
_________________________________________________________________
dropout_185 (Dropout)        (None, 32, 32, 512)       0         
_________________________________________________________________
separable_conv2d_128 (Separa (None, 32, 32, 32)        21024     
_________________________________________________________________
activation_186 (Activation)  (None, 32, 32, 32)        0         
_________________________________________________________________
dropout_186 (Dropout)        (None, 32, 32, 32)        0         
_________________________________________________________________
max_pooling2d_49 (MaxPooling (None, 16, 16, 32)        0         
_________________________________________________________________
flatten_64 (Flatten)         (None, 8192)              0         
_________________________________________________________________
dense_122 (Dense)            (None, 256)               2097408   
_________________________________________________________________
batch_normalization_124 (Bat (None, 256)               1024      
_________________________________________________________________
activation_187 (Activation)  (None, 256)               0         
_________________________________________________________________
dropout_187 (Dropout)        (None, 256)               0         
_________________________________________________________________
dense_123 (Dense)            (None, 10)                2570      
=================================================================
Total params: 2,126,149
Trainable params: 2,124,613
Non-trainable params: 1,536
_________________________________________________________________
