Model: "sequential_241"
_________________________________________________________________
Layer (type)                 Output Shape              Param #   
=================================================================
separable_conv2d_478 (Separa (None, 32, 32, 32)        155       
_________________________________________________________________
batch_normalization_469 (Bat (None, 32, 32, 32)        128       
_________________________________________________________________
activation_709 (Activation)  (None, 32, 32, 32)        0         
_________________________________________________________________
dropout_709 (Dropout)        (None, 32, 32, 32)        0         
_________________________________________________________________
separable_conv2d_479 (Separa (None, 32, 32, 128)       4512      
_________________________________________________________________
activation_710 (Activation)  (None, 32, 32, 128)       0         
_________________________________________________________________
dropout_710 (Dropout)        (None, 32, 32, 128)       0         
_________________________________________________________________
max_pooling2d_222 (MaxPoolin (None, 16, 16, 128)       0         
_________________________________________________________________
flatten_241 (Flatten)        (None, 32768)             0         
_________________________________________________________________
dense_472 (Dense)            (None, 10)                327690    
=================================================================
Total params: 332,485
Trainable params: 332,421
Non-trainable params: 64
_________________________________________________________________
