Model: "sequential_23"
_________________________________________________________________
Layer (type)                 Output Shape              Param #   
=================================================================
separable_conv2d_53 (Separab (None, 32, 32, 16)        91        
_________________________________________________________________
batch_normalization_43 (Batc (None, 32, 32, 16)        64        
_________________________________________________________________
activation_71 (Activation)   (None, 32, 32, 16)        0         
_________________________________________________________________
dropout_71 (Dropout)         (None, 32, 32, 16)        0         
_________________________________________________________________
separable_conv2d_54 (Separab (None, 32, 32, 16)        416       
_________________________________________________________________
activation_72 (Activation)   (None, 32, 32, 16)        0         
_________________________________________________________________
dropout_72 (Dropout)         (None, 32, 32, 16)        0         
_________________________________________________________________
max_pooling2d_19 (MaxPooling (None, 16, 16, 16)        0         
_________________________________________________________________
flatten_23 (Flatten)         (None, 4096)              0         
_________________________________________________________________
dense_41 (Dense)             (None, 256)               1048832   
_________________________________________________________________
batch_normalization_44 (Batc (None, 256)               1024      
_________________________________________________________________
activation_73 (Activation)   (None, 256)               0         
_________________________________________________________________
dropout_73 (Dropout)         (None, 256)               0         
_________________________________________________________________
dense_42 (Dense)             (None, 10)                2570      
=================================================================
Total params: 1,052,997
Trainable params: 1,052,453
Non-trainable params: 544
_________________________________________________________________
