Model: "sequential_33"
_________________________________________________________________
Layer (type)                 Output Shape              Param #   
=================================================================
separable_conv2d_71 (Separab (None, 32, 32, 512)       2075      
_________________________________________________________________
batch_normalization_63 (Batc (None, 32, 32, 512)       2048      
_________________________________________________________________
activation_99 (Activation)   (None, 32, 32, 512)       0         
_________________________________________________________________
dropout_99 (Dropout)         (None, 32, 32, 512)       0         
_________________________________________________________________
separable_conv2d_72 (Separab (None, 32, 32, 32)        21024     
_________________________________________________________________
activation_100 (Activation)  (None, 32, 32, 32)        0         
_________________________________________________________________
dropout_100 (Dropout)        (None, 32, 32, 32)        0         
_________________________________________________________________
max_pooling2d_26 (MaxPooling (None, 16, 16, 32)        0         
_________________________________________________________________
flatten_33 (Flatten)         (None, 8192)              0         
_________________________________________________________________
dense_61 (Dense)             (None, 256)               2097408   
_________________________________________________________________
batch_normalization_64 (Batc (None, 256)               1024      
_________________________________________________________________
activation_101 (Activation)  (None, 256)               0         
_________________________________________________________________
dropout_101 (Dropout)        (None, 256)               0         
_________________________________________________________________
dense_62 (Dense)             (None, 10)                2570      
=================================================================
Total params: 2,126,149
Trainable params: 2,124,613
Non-trainable params: 1,536
_________________________________________________________________
