Model: "sequential_145"
_________________________________________________________________
Layer (type)                 Output Shape              Param #   
=================================================================
separable_conv2d_286 (Separa (None, 32, 32, 512)       2075      
_________________________________________________________________
batch_normalization_282 (Bat (None, 32, 32, 512)       2048      
_________________________________________________________________
activation_422 (Activation)  (None, 32, 32, 512)       0         
_________________________________________________________________
dropout_422 (Dropout)        (None, 32, 32, 512)       0         
_________________________________________________________________
separable_conv2d_287 (Separa (None, 32, 32, 128)       70272     
_________________________________________________________________
activation_423 (Activation)  (None, 32, 32, 128)       0         
_________________________________________________________________
dropout_423 (Dropout)        (None, 32, 32, 128)       0         
_________________________________________________________________
max_pooling2d_125 (MaxPoolin (None, 16, 16, 128)       0         
_________________________________________________________________
flatten_145 (Flatten)        (None, 32768)             0         
_________________________________________________________________
dense_281 (Dense)            (None, 128)               4194432   
_________________________________________________________________
batch_normalization_283 (Bat (None, 128)               512       
_________________________________________________________________
activation_424 (Activation)  (None, 128)               0         
_________________________________________________________________
dropout_424 (Dropout)        (None, 128)               0         
_________________________________________________________________
dense_282 (Dense)            (None, 10)                1290      
=================================================================
Total params: 4,270,629
Trainable params: 4,269,349
Non-trainable params: 1,280
_________________________________________________________________
