Model: "sequential_348"
_________________________________________________________________
Layer (type)                 Output Shape              Param #   
=================================================================
separable_conv2d_663 (Separa (None, 32, 32, 16)        91        
_________________________________________________________________
batch_normalization_656 (Bat (None, 32, 32, 16)        64        
_________________________________________________________________
activation_984 (Activation)  (None, 32, 32, 16)        0         
_________________________________________________________________
dropout_984 (Dropout)        (None, 32, 32, 16)        0         
_________________________________________________________________
flatten_348 (Flatten)        (None, 16384)             0         
_________________________________________________________________
dense_669 (Dense)            (None, 128)               2097280   
_________________________________________________________________
batch_normalization_657 (Bat (None, 128)               512       
_________________________________________________________________
activation_985 (Activation)  (None, 128)               0         
_________________________________________________________________
dropout_985 (Dropout)        (None, 128)               0         
_________________________________________________________________
dense_670 (Dense)            (None, 10)                1290      
=================================================================
Total params: 2,099,237
Trainable params: 2,098,949
Non-trainable params: 288
_________________________________________________________________
