Model: "sequential_148"
_________________________________________________________________
Layer (type)                 Output Shape              Param #   
=================================================================
separable_conv2d_292 (Separa (None, 32, 32, 512)       2075      
_________________________________________________________________
batch_normalization_288 (Bat (None, 32, 32, 512)       2048      
_________________________________________________________________
activation_431 (Activation)  (None, 32, 32, 512)       0         
_________________________________________________________________
dropout_431 (Dropout)        (None, 32, 32, 512)       0         
_________________________________________________________________
separable_conv2d_293 (Separa (None, 32, 32, 32)        21024     
_________________________________________________________________
activation_432 (Activation)  (None, 32, 32, 32)        0         
_________________________________________________________________
dropout_432 (Dropout)        (None, 32, 32, 32)        0         
_________________________________________________________________
max_pooling2d_128 (MaxPoolin (None, 16, 16, 32)        0         
_________________________________________________________________
flatten_148 (Flatten)        (None, 8192)              0         
_________________________________________________________________
dense_287 (Dense)            (None, 256)               2097408   
_________________________________________________________________
batch_normalization_289 (Bat (None, 256)               1024      
_________________________________________________________________
activation_433 (Activation)  (None, 256)               0         
_________________________________________________________________
dropout_433 (Dropout)        (None, 256)               0         
_________________________________________________________________
dense_288 (Dense)            (None, 10)                2570      
=================================================================
Total params: 2,126,149
Trainable params: 2,124,613
Non-trainable params: 1,536
_________________________________________________________________
