Model: "sequential_188"
_________________________________________________________________
Layer (type)                 Output Shape              Param #   
=================================================================
separable_conv2d_372 (Separa (None, 32, 32, 512)       2075      
_________________________________________________________________
batch_normalization_369 (Bat (None, 32, 32, 512)       2048      
_________________________________________________________________
activation_551 (Activation)  (None, 32, 32, 512)       0         
_________________________________________________________________
dropout_551 (Dropout)        (None, 32, 32, 512)       0         
_________________________________________________________________
separable_conv2d_373 (Separa (None, 32, 32, 128)       70272     
_________________________________________________________________
activation_552 (Activation)  (None, 32, 32, 128)       0         
_________________________________________________________________
dropout_552 (Dropout)        (None, 32, 32, 128)       0         
_________________________________________________________________
max_pooling2d_170 (MaxPoolin (None, 16, 16, 128)       0         
_________________________________________________________________
flatten_188 (Flatten)        (None, 32768)             0         
_________________________________________________________________
dense_367 (Dense)            (None, 128)               4194432   
_________________________________________________________________
batch_normalization_370 (Bat (None, 128)               512       
_________________________________________________________________
activation_553 (Activation)  (None, 128)               0         
_________________________________________________________________
dropout_553 (Dropout)        (None, 128)               0         
_________________________________________________________________
dense_368 (Dense)            (None, 10)                1290      
=================================================================
Total params: 4,270,629
Trainable params: 4,269,349
Non-trainable params: 1,280
_________________________________________________________________
