Model: "sequential_60"
_________________________________________________________________
Layer (type)                 Output Shape              Param #   
=================================================================
separable_conv2d_120 (Separa (None, 32, 32, 512)       2075      
_________________________________________________________________
batch_normalization_115 (Bat (None, 32, 32, 512)       2048      
_________________________________________________________________
activation_174 (Activation)  (None, 32, 32, 512)       0         
_________________________________________________________________
dropout_174 (Dropout)        (None, 32, 32, 512)       0         
_________________________________________________________________
separable_conv2d_121 (Separa (None, 32, 32, 32)        21024     
_________________________________________________________________
activation_175 (Activation)  (None, 32, 32, 32)        0         
_________________________________________________________________
dropout_175 (Dropout)        (None, 32, 32, 32)        0         
_________________________________________________________________
max_pooling2d_46 (MaxPooling (None, 16, 16, 32)        0         
_________________________________________________________________
flatten_60 (Flatten)         (None, 8192)              0         
_________________________________________________________________
dense_114 (Dense)            (None, 256)               2097408   
_________________________________________________________________
batch_normalization_116 (Bat (None, 256)               1024      
_________________________________________________________________
activation_176 (Activation)  (None, 256)               0         
_________________________________________________________________
dropout_176 (Dropout)        (None, 256)               0         
_________________________________________________________________
dense_115 (Dense)            (None, 10)                2570      
=================================================================
Total params: 2,126,149
Trainable params: 2,124,613
Non-trainable params: 1,536
_________________________________________________________________
