Model: "sequential_51"
_________________________________________________________________
Layer (type)                 Output Shape              Param #   
=================================================================
separable_conv2d_103 (Separa (None, 32, 32, 512)       2075      
_________________________________________________________________
batch_normalization_99 (Batc (None, 32, 32, 512)       2048      
_________________________________________________________________
activation_149 (Activation)  (None, 32, 32, 512)       0         
_________________________________________________________________
dropout_149 (Dropout)        (None, 32, 32, 512)       0         
_________________________________________________________________
separable_conv2d_104 (Separa (None, 32, 32, 32)        21024     
_________________________________________________________________
activation_150 (Activation)  (None, 32, 32, 32)        0         
_________________________________________________________________
dropout_150 (Dropout)        (None, 32, 32, 32)        0         
_________________________________________________________________
max_pooling2d_38 (MaxPooling (None, 16, 16, 32)        0         
_________________________________________________________________
flatten_51 (Flatten)         (None, 8192)              0         
_________________________________________________________________
dense_97 (Dense)             (None, 256)               2097408   
_________________________________________________________________
batch_normalization_100 (Bat (None, 256)               1024      
_________________________________________________________________
activation_151 (Activation)  (None, 256)               0         
_________________________________________________________________
dropout_151 (Dropout)        (None, 256)               0         
_________________________________________________________________
dense_98 (Dense)             (None, 10)                2570      
=================================================================
Total params: 2,126,149
Trainable params: 2,124,613
Non-trainable params: 1,536
_________________________________________________________________
