Model: "sequential_131"
_________________________________________________________________
Layer (type)                 Output Shape              Param #   
=================================================================
separable_conv2d_258 (Separa (None, 32, 32, 512)       2075      
_________________________________________________________________
batch_normalization_252 (Bat (None, 32, 32, 512)       2048      
_________________________________________________________________
activation_381 (Activation)  (None, 32, 32, 512)       0         
_________________________________________________________________
dropout_381 (Dropout)        (None, 32, 32, 512)       0         
_________________________________________________________________
separable_conv2d_259 (Separa (None, 32, 32, 32)        21024     
_________________________________________________________________
batch_normalization_253 (Bat (None, 32, 32, 32)        128       
_________________________________________________________________
activation_382 (Activation)  (None, 32, 32, 32)        0         
_________________________________________________________________
dropout_382 (Dropout)        (None, 32, 32, 32)        0         
_________________________________________________________________
max_pooling2d_111 (MaxPoolin (None, 16, 16, 32)        0         
_________________________________________________________________
flatten_131 (Flatten)        (None, 8192)              0         
_________________________________________________________________
dense_254 (Dense)            (None, 256)               2097408   
_________________________________________________________________
batch_normalization_254 (Bat (None, 256)               1024      
_________________________________________________________________
activation_383 (Activation)  (None, 256)               0         
_________________________________________________________________
dropout_383 (Dropout)        (None, 256)               0         
_________________________________________________________________
dense_255 (Dense)            (None, 10)                2570      
=================================================================
Total params: 2,126,277
Trainable params: 2,124,677
Non-trainable params: 1,600
_________________________________________________________________
