Model: "sequential_255"
_________________________________________________________________
Layer (type)                 Output Shape              Param #   
=================================================================
separable_conv2d_505 (Separa (None, 32, 32, 512)       2075      
_________________________________________________________________
batch_normalization_493 (Bat (None, 32, 32, 512)       2048      
_________________________________________________________________
activation_748 (Activation)  (None, 32, 32, 512)       0         
_________________________________________________________________
dropout_748 (Dropout)        (None, 32, 32, 512)       0         
_________________________________________________________________
max_pooling2d_232 (MaxPoolin (None, 16, 16, 512)       0         
_________________________________________________________________
separable_conv2d_506 (Separa (None, 16, 16, 512)       267264    
_________________________________________________________________
activation_749 (Activation)  (None, 16, 16, 512)       0         
_________________________________________________________________
dropout_749 (Dropout)        (None, 16, 16, 512)       0         
_________________________________________________________________
max_pooling2d_233 (MaxPoolin (None, 8, 8, 512)         0         
_________________________________________________________________
flatten_255 (Flatten)        (None, 32768)             0         
_________________________________________________________________
dense_498 (Dense)            (None, 128)               4194432   
_________________________________________________________________
batch_normalization_494 (Bat (None, 128)               512       
_________________________________________________________________
activation_750 (Activation)  (None, 128)               0         
_________________________________________________________________
dropout_750 (Dropout)        (None, 128)               0         
_________________________________________________________________
dense_499 (Dense)            (None, 10)                1290      
=================================================================
Total params: 4,467,621
Trainable params: 4,466,341
Non-trainable params: 1,280
_________________________________________________________________
