Model: "sequential_149"
_________________________________________________________________
Layer (type)                 Output Shape              Param #   
=================================================================
separable_conv2d_294 (Separa (None, 32, 32, 512)       2075      
_________________________________________________________________
batch_normalization_290 (Bat (None, 32, 32, 512)       2048      
_________________________________________________________________
activation_434 (Activation)  (None, 32, 32, 512)       0         
_________________________________________________________________
dropout_434 (Dropout)        (None, 32, 32, 512)       0         
_________________________________________________________________
separable_conv2d_295 (Separa (None, 32, 32, 32)        21024     
_________________________________________________________________
activation_435 (Activation)  (None, 32, 32, 32)        0         
_________________________________________________________________
dropout_435 (Dropout)        (None, 32, 32, 32)        0         
_________________________________________________________________
max_pooling2d_129 (MaxPoolin (None, 16, 16, 32)        0         
_________________________________________________________________
flatten_149 (Flatten)        (None, 8192)              0         
_________________________________________________________________
dense_289 (Dense)            (None, 256)               2097408   
_________________________________________________________________
batch_normalization_291 (Bat (None, 256)               1024      
_________________________________________________________________
activation_436 (Activation)  (None, 256)               0         
_________________________________________________________________
dropout_436 (Dropout)        (None, 256)               0         
_________________________________________________________________
dense_290 (Dense)            (None, 10)                2570      
=================================================================
Total params: 2,126,149
Trainable params: 2,124,613
Non-trainable params: 1,536
_________________________________________________________________
