Model: "sequential_108"
_________________________________________________________________
Layer (type)                 Output Shape              Param #   
=================================================================
separable_conv2d_212 (Separa (None, 32, 32, 512)       2075      
_________________________________________________________________
batch_normalization_203 (Bat (None, 32, 32, 512)       2048      
_________________________________________________________________
activation_312 (Activation)  (None, 32, 32, 512)       0         
_________________________________________________________________
dropout_312 (Dropout)        (None, 32, 32, 512)       0         
_________________________________________________________________
separable_conv2d_213 (Separa (None, 32, 32, 32)        21024     
_________________________________________________________________
activation_313 (Activation)  (None, 32, 32, 32)        0         
_________________________________________________________________
dropout_313 (Dropout)        (None, 32, 32, 32)        0         
_________________________________________________________________
max_pooling2d_88 (MaxPooling (None, 16, 16, 32)        0         
_________________________________________________________________
flatten_108 (Flatten)        (None, 8192)              0         
_________________________________________________________________
dense_208 (Dense)            (None, 256)               2097408   
_________________________________________________________________
batch_normalization_204 (Bat (None, 256)               1024      
_________________________________________________________________
activation_314 (Activation)  (None, 256)               0         
_________________________________________________________________
dropout_314 (Dropout)        (None, 256)               0         
_________________________________________________________________
dense_209 (Dense)            (None, 10)                2570      
=================================================================
Total params: 2,126,149
Trainable params: 2,124,613
Non-trainable params: 1,536
_________________________________________________________________
