Model: "sequential_393"
_________________________________________________________________
Layer (type)                 Output Shape              Param #   
=================================================================
separable_conv2d_748 (Separa (None, 32, 32, 256)       1051      
_________________________________________________________________
batch_normalization_735 (Bat (None, 32, 32, 256)       1024      
_________________________________________________________________
activation_1105 (Activation) (None, 32, 32, 256)       0         
_________________________________________________________________
dropout_1105 (Dropout)       (None, 32, 32, 256)       0         
_________________________________________________________________
separable_conv2d_749 (Separa (None, 32, 32, 8)         4360      
_________________________________________________________________
activation_1106 (Activation) (None, 32, 32, 8)         0         
_________________________________________________________________
dropout_1106 (Dropout)       (None, 32, 32, 8)         0         
_________________________________________________________________
max_pooling2d_286 (MaxPoolin (None, 16, 16, 8)         0         
_________________________________________________________________
flatten_393 (Flatten)        (None, 2048)              0         
_________________________________________________________________
dense_750 (Dense)            (None, 512)               1049088   
_________________________________________________________________
activation_1107 (Activation) (None, 512)               0         
_________________________________________________________________
dropout_1107 (Dropout)       (None, 512)               0         
_________________________________________________________________
dense_751 (Dense)            (None, 10)                5130      
=================================================================
Total params: 1,060,653
Trainable params: 1,060,141
Non-trainable params: 512
_________________________________________________________________
