Model: "sequential_70"
_________________________________________________________________
Layer (type)                 Output Shape              Param #   
=================================================================
separable_conv2d_139 (Separa (None, 32, 32, 512)       2075      
_________________________________________________________________
batch_normalization_133 (Bat (None, 32, 32, 512)       2048      
_________________________________________________________________
activation_202 (Activation)  (None, 32, 32, 512)       0         
_________________________________________________________________
dropout_202 (Dropout)        (None, 32, 32, 512)       0         
_________________________________________________________________
separable_conv2d_140 (Separa (None, 32, 32, 32)        21024     
_________________________________________________________________
activation_203 (Activation)  (None, 32, 32, 32)        0         
_________________________________________________________________
dropout_203 (Dropout)        (None, 32, 32, 32)        0         
_________________________________________________________________
flatten_70 (Flatten)         (None, 32768)             0         
_________________________________________________________________
dense_133 (Dense)            (None, 256)               8388864   
_________________________________________________________________
batch_normalization_134 (Bat (None, 256)               1024      
_________________________________________________________________
activation_204 (Activation)  (None, 256)               0         
_________________________________________________________________
dropout_204 (Dropout)        (None, 256)               0         
_________________________________________________________________
dense_134 (Dense)            (None, 10)                2570      
=================================================================
Total params: 8,417,605
Trainable params: 8,416,069
Non-trainable params: 1,536
_________________________________________________________________
