Model: "sequential_11"
_________________________________________________________________
Layer (type)                 Output Shape              Param #   
=================================================================
separable_conv2d_29 (Separab (None, 32, 32, 8)         59        
_________________________________________________________________
activation_36 (Activation)   (None, 32, 32, 8)         0         
_________________________________________________________________
dropout_36 (Dropout)         (None, 32, 32, 8)         0         
_________________________________________________________________
flatten_11 (Flatten)         (None, 8192)              0         
_________________________________________________________________
dense_18 (Dense)             (None, 128)               1048704   
_________________________________________________________________
batch_normalization_19 (Batc (None, 128)               512       
_________________________________________________________________
activation_37 (Activation)   (None, 128)               0         
_________________________________________________________________
dropout_37 (Dropout)         (None, 128)               0         
_________________________________________________________________
dense_19 (Dense)             (None, 10)                1290      
=================================================================
Total params: 1,050,565
Trainable params: 1,050,309
Non-trainable params: 256
_________________________________________________________________
