Model: "sequential_103"
_________________________________________________________________
Layer (type)                 Output Shape              Param #   
=================================================================
separable_conv2d_202 (Separa (None, 32, 32, 512)       2075      
_________________________________________________________________
batch_normalization_193 (Bat (None, 32, 32, 512)       2048      
_________________________________________________________________
activation_297 (Activation)  (None, 32, 32, 512)       0         
_________________________________________________________________
dropout_297 (Dropout)        (None, 32, 32, 512)       0         
_________________________________________________________________
separable_conv2d_203 (Separa (None, 32, 32, 32)        21024     
_________________________________________________________________
activation_298 (Activation)  (None, 32, 32, 32)        0         
_________________________________________________________________
dropout_298 (Dropout)        (None, 32, 32, 32)        0         
_________________________________________________________________
max_pooling2d_83 (MaxPooling (None, 16, 16, 32)        0         
_________________________________________________________________
flatten_103 (Flatten)        (None, 8192)              0         
_________________________________________________________________
dense_198 (Dense)            (None, 256)               2097408   
_________________________________________________________________
batch_normalization_194 (Bat (None, 256)               1024      
_________________________________________________________________
activation_299 (Activation)  (None, 256)               0         
_________________________________________________________________
dropout_299 (Dropout)        (None, 256)               0         
_________________________________________________________________
dense_199 (Dense)            (None, 10)                2570      
=================================================================
Total params: 2,126,149
Trainable params: 2,124,613
Non-trainable params: 1,536
_________________________________________________________________
