Model: "sequential_192"
_________________________________________________________________
Layer (type)                 Output Shape              Param #   
=================================================================
separable_conv2d_380 (Separa (None, 32, 32, 512)       2075      
_________________________________________________________________
batch_normalization_377 (Bat (None, 32, 32, 512)       2048      
_________________________________________________________________
activation_563 (Activation)  (None, 32, 32, 512)       0         
_________________________________________________________________
dropout_563 (Dropout)        (None, 32, 32, 512)       0         
_________________________________________________________________
separable_conv2d_381 (Separa (None, 32, 32, 128)       70272     
_________________________________________________________________
activation_564 (Activation)  (None, 32, 32, 128)       0         
_________________________________________________________________
dropout_564 (Dropout)        (None, 32, 32, 128)       0         
_________________________________________________________________
max_pooling2d_174 (MaxPoolin (None, 16, 16, 128)       0         
_________________________________________________________________
flatten_192 (Flatten)        (None, 32768)             0         
_________________________________________________________________
dense_375 (Dense)            (None, 32)                1048608   
_________________________________________________________________
batch_normalization_378 (Bat (None, 32)                128       
_________________________________________________________________
activation_565 (Activation)  (None, 32)                0         
_________________________________________________________________
dropout_565 (Dropout)        (None, 32)                0         
_________________________________________________________________
dense_376 (Dense)            (None, 10)                330       
=================================================================
Total params: 1,123,461
Trainable params: 1,122,373
Non-trainable params: 1,088
_________________________________________________________________
