Model: "sequential_95"
_________________________________________________________________
Layer (type)                 Output Shape              Param #   
=================================================================
separable_conv2d_186 (Separa (None, 32, 32, 512)       2075      
_________________________________________________________________
batch_normalization_179 (Bat (None, 32, 32, 512)       2048      
_________________________________________________________________
activation_273 (Activation)  (None, 32, 32, 512)       0         
_________________________________________________________________
dropout_273 (Dropout)        (None, 32, 32, 512)       0         
_________________________________________________________________
separable_conv2d_187 (Separa (None, 32, 32, 32)        21024     
_________________________________________________________________
activation_274 (Activation)  (None, 32, 32, 32)        0         
_________________________________________________________________
dropout_274 (Dropout)        (None, 32, 32, 32)        0         
_________________________________________________________________
max_pooling2d_75 (MaxPooling (None, 16, 16, 32)        0         
_________________________________________________________________
flatten_95 (Flatten)         (None, 8192)              0         
_________________________________________________________________
dense_182 (Dense)            (None, 256)               2097408   
_________________________________________________________________
batch_normalization_180 (Bat (None, 256)               1024      
_________________________________________________________________
activation_275 (Activation)  (None, 256)               0         
_________________________________________________________________
dropout_275 (Dropout)        (None, 256)               0         
_________________________________________________________________
dense_183 (Dense)            (None, 10)                2570      
=================================================================
Total params: 2,126,149
Trainable params: 2,124,613
Non-trainable params: 1,536
_________________________________________________________________
