Model: "sequential_355"
_________________________________________________________________
Layer (type)                 Output Shape              Param #   
=================================================================
separable_conv2d_675 (Separa (None, 32, 32, 128)       539       
_________________________________________________________________
batch_normalization_667 (Bat (None, 32, 32, 128)       512       
_________________________________________________________________
activation_1000 (Activation) (None, 32, 32, 128)       0         
_________________________________________________________________
dropout_1000 (Dropout)       (None, 32, 32, 128)       0         
_________________________________________________________________
flatten_355 (Flatten)        (None, 131072)            0         
_________________________________________________________________
dense_680 (Dense)            (None, 128)               16777344  
_________________________________________________________________
batch_normalization_668 (Bat (None, 128)               512       
_________________________________________________________________
activation_1001 (Activation) (None, 128)               0         
_________________________________________________________________
dropout_1001 (Dropout)       (None, 128)               0         
_________________________________________________________________
dense_681 (Dense)            (None, 10)                1290      
=================================================================
Total params: 16,780,197
Trainable params: 16,779,685
Non-trainable params: 512
_________________________________________________________________
