Model: "sequential_303"
_________________________________________________________________
Layer (type)                 Output Shape              Param #   
=================================================================
separable_conv2d_586 (Separa (None, 32, 32, 512)       2075      
_________________________________________________________________
batch_normalization_578 (Bat (None, 32, 32, 512)       2048      
_________________________________________________________________
activation_871 (Activation)  (None, 32, 32, 512)       0         
_________________________________________________________________
dropout_871 (Dropout)        (None, 32, 32, 512)       0         
_________________________________________________________________
max_pooling2d_249 (MaxPoolin (None, 16, 16, 512)       0         
_________________________________________________________________
separable_conv2d_587 (Separa (None, 16, 16, 512)       267264    
_________________________________________________________________
batch_normalization_579 (Bat (None, 16, 16, 512)       2048      
_________________________________________________________________
activation_872 (Activation)  (None, 16, 16, 512)       0         
_________________________________________________________________
dropout_872 (Dropout)        (None, 16, 16, 512)       0         
_________________________________________________________________
flatten_303 (Flatten)        (None, 131072)            0         
_________________________________________________________________
dense_588 (Dense)            (None, 512)               67109376  
_________________________________________________________________
batch_normalization_580 (Bat (None, 512)               2048      
_________________________________________________________________
activation_873 (Activation)  (None, 512)               0         
_________________________________________________________________
dropout_873 (Dropout)        (None, 512)               0         
_________________________________________________________________
dense_589 (Dense)            (None, 10)                5130      
=================================================================
Total params: 67,389,989
Trainable params: 67,386,917
Non-trainable params: 3,072
_________________________________________________________________
