Model: "sequential_187"
_________________________________________________________________
Layer (type)                 Output Shape              Param #   
=================================================================
separable_conv2d_370 (Separa (None, 32, 32, 512)       2075      
_________________________________________________________________
batch_normalization_367 (Bat (None, 32, 32, 512)       2048      
_________________________________________________________________
activation_548 (Activation)  (None, 32, 32, 512)       0         
_________________________________________________________________
dropout_548 (Dropout)        (None, 32, 32, 512)       0         
_________________________________________________________________
separable_conv2d_371 (Separa (None, 32, 32, 128)       70272     
_________________________________________________________________
activation_549 (Activation)  (None, 32, 32, 128)       0         
_________________________________________________________________
dropout_549 (Dropout)        (None, 32, 32, 128)       0         
_________________________________________________________________
max_pooling2d_169 (MaxPoolin (None, 16, 16, 128)       0         
_________________________________________________________________
flatten_187 (Flatten)        (None, 32768)             0         
_________________________________________________________________
dense_365 (Dense)            (None, 128)               4194432   
_________________________________________________________________
batch_normalization_368 (Bat (None, 128)               512       
_________________________________________________________________
activation_550 (Activation)  (None, 128)               0         
_________________________________________________________________
dropout_550 (Dropout)        (None, 128)               0         
_________________________________________________________________
dense_366 (Dense)            (None, 10)                1290      
=================================================================
Total params: 4,270,629
Trainable params: 4,269,349
Non-trainable params: 1,280
_________________________________________________________________
