Model: "sequential_18"
_________________________________________________________________
Layer (type)                 Output Shape              Param #   
=================================================================
separable_conv2d_44 (Separab (None, 32, 32, 512)       2075      
_________________________________________________________________
batch_normalization_33 (Batc (None, 32, 32, 512)       2048      
_________________________________________________________________
activation_57 (Activation)   (None, 32, 32, 512)       0         
_________________________________________________________________
dropout_57 (Dropout)         (None, 32, 32, 512)       0         
_________________________________________________________________
separable_conv2d_45 (Separab (None, 32, 32, 32)        21024     
_________________________________________________________________
activation_58 (Activation)   (None, 32, 32, 32)        0         
_________________________________________________________________
dropout_58 (Dropout)         (None, 32, 32, 32)        0         
_________________________________________________________________
max_pooling2d_16 (MaxPooling (None, 16, 16, 32)        0         
_________________________________________________________________
flatten_18 (Flatten)         (None, 8192)              0         
_________________________________________________________________
dense_31 (Dense)             (None, 256)               2097408   
_________________________________________________________________
batch_normalization_34 (Batc (None, 256)               1024      
_________________________________________________________________
activation_59 (Activation)   (None, 256)               0         
_________________________________________________________________
dropout_59 (Dropout)         (None, 256)               0         
_________________________________________________________________
dense_32 (Dense)             (None, 10)                2570      
=================================================================
Total params: 2,126,149
Trainable params: 2,124,613
Non-trainable params: 1,536
_________________________________________________________________
