Model: "sequential_350"
_________________________________________________________________
Layer (type)                 Output Shape              Param #   
=================================================================
separable_conv2d_666 (Separa (None, 32, 32, 512)       2075      
_________________________________________________________________
batch_normalization_659 (Bat (None, 32, 32, 512)       2048      
_________________________________________________________________
activation_988 (Activation)  (None, 32, 32, 512)       0         
_________________________________________________________________
dropout_988 (Dropout)        (None, 32, 32, 512)       0         
_________________________________________________________________
separable_conv2d_667 (Separa (None, 32, 32, 512)       267264    
_________________________________________________________________
activation_989 (Activation)  (None, 32, 32, 512)       0         
_________________________________________________________________
dropout_989 (Dropout)        (None, 32, 32, 512)       0         
_________________________________________________________________
flatten_350 (Flatten)        (None, 524288)            0         
_________________________________________________________________
dense_672 (Dense)            (None, 10)                5242890   
=================================================================
Total params: 5,514,277
Trainable params: 5,513,253
Non-trainable params: 1,024
_________________________________________________________________
