Model: "sequential_35"
_________________________________________________________________
Layer (type)                 Output Shape              Param #   
=================================================================
separable_conv2d_75 (Separab (None, 32, 32, 512)       2075      
_________________________________________________________________
batch_normalization_67 (Batc (None, 32, 32, 512)       2048      
_________________________________________________________________
activation_105 (Activation)  (None, 32, 32, 512)       0         
_________________________________________________________________
dropout_105 (Dropout)        (None, 32, 32, 512)       0         
_________________________________________________________________
separable_conv2d_76 (Separab (None, 32, 32, 32)        21024     
_________________________________________________________________
activation_106 (Activation)  (None, 32, 32, 32)        0         
_________________________________________________________________
dropout_106 (Dropout)        (None, 32, 32, 32)        0         
_________________________________________________________________
max_pooling2d_27 (MaxPooling (None, 16, 16, 32)        0         
_________________________________________________________________
flatten_35 (Flatten)         (None, 8192)              0         
_________________________________________________________________
dense_65 (Dense)             (None, 256)               2097408   
_________________________________________________________________
batch_normalization_68 (Batc (None, 256)               1024      
_________________________________________________________________
activation_107 (Activation)  (None, 256)               0         
_________________________________________________________________
dropout_107 (Dropout)        (None, 256)               0         
_________________________________________________________________
dense_66 (Dense)             (None, 10)                2570      
=================================================================
Total params: 2,126,149
Trainable params: 2,124,613
Non-trainable params: 1,536
_________________________________________________________________
