Model: "sequential_311"
_________________________________________________________________
Layer (type)                 Output Shape              Param #   
=================================================================
separable_conv2d_601 (Separa (None, 32, 32, 16)        91        
_________________________________________________________________
batch_normalization_595 (Bat (None, 32, 32, 16)        64        
_________________________________________________________________
activation_894 (Activation)  (None, 32, 32, 16)        0         
_________________________________________________________________
dropout_894 (Dropout)        (None, 32, 32, 16)        0         
_________________________________________________________________
flatten_311 (Flatten)        (None, 16384)             0         
_________________________________________________________________
dense_604 (Dense)            (None, 10)                163850    
=================================================================
Total params: 164,005
Trainable params: 163,973
Non-trainable params: 32
_________________________________________________________________
