Model: "sequential_251"
_________________________________________________________________
Layer (type)                 Output Shape              Param #   
=================================================================
separable_conv2d_497 (Separa (None, 32, 32, 512)       2075      
_________________________________________________________________
batch_normalization_486 (Bat (None, 32, 32, 512)       2048      
_________________________________________________________________
activation_736 (Activation)  (None, 32, 32, 512)       0         
_________________________________________________________________
dropout_736 (Dropout)        (None, 32, 32, 512)       0         
_________________________________________________________________
max_pooling2d_228 (MaxPoolin (None, 16, 16, 512)       0         
_________________________________________________________________
separable_conv2d_498 (Separa (None, 16, 16, 512)       267264    
_________________________________________________________________
activation_737 (Activation)  (None, 16, 16, 512)       0         
_________________________________________________________________
dropout_737 (Dropout)        (None, 16, 16, 512)       0         
_________________________________________________________________
max_pooling2d_229 (MaxPoolin (None, 8, 8, 512)         0         
_________________________________________________________________
flatten_251 (Flatten)        (None, 32768)             0         
_________________________________________________________________
dense_490 (Dense)            (None, 128)               4194432   
_________________________________________________________________
batch_normalization_487 (Bat (None, 128)               512       
_________________________________________________________________
activation_738 (Activation)  (None, 128)               0         
_________________________________________________________________
dropout_738 (Dropout)        (None, 128)               0         
_________________________________________________________________
dense_491 (Dense)            (None, 10)                1290      
=================================================================
Total params: 4,467,621
Trainable params: 4,466,341
Non-trainable params: 1,280
_________________________________________________________________
