Model: "sequential_226"
_________________________________________________________________
Layer (type)                 Output Shape              Param #   
=================================================================
separable_conv2d_448 (Separa (None, 32, 32, 512)       2075      
_________________________________________________________________
batch_normalization_442 (Bat (None, 32, 32, 512)       2048      
_________________________________________________________________
activation_665 (Activation)  (None, 32, 32, 512)       0         
_________________________________________________________________
dropout_665 (Dropout)        (None, 32, 32, 512)       0         
_________________________________________________________________
separable_conv2d_449 (Separa (None, 32, 32, 128)       70272     
_________________________________________________________________
activation_666 (Activation)  (None, 32, 32, 128)       0         
_________________________________________________________________
dropout_666 (Dropout)        (None, 32, 32, 128)       0         
_________________________________________________________________
flatten_226 (Flatten)        (None, 131072)            0         
_________________________________________________________________
dense_443 (Dense)            (None, 32)                4194336   
_________________________________________________________________
activation_667 (Activation)  (None, 32)                0         
_________________________________________________________________
dropout_667 (Dropout)        (None, 32)                0         
_________________________________________________________________
dense_444 (Dense)            (None, 10)                330       
=================================================================
Total params: 4,269,061
Trainable params: 4,268,037
Non-trainable params: 1,024
_________________________________________________________________
