Model: "sequential_170"
_________________________________________________________________
Layer (type)                 Output Shape              Param #   
=================================================================
separable_conv2d_336 (Separa (None, 32, 32, 512)       2075      
_________________________________________________________________
batch_normalization_333 (Bat (None, 32, 32, 512)       2048      
_________________________________________________________________
activation_497 (Activation)  (None, 32, 32, 512)       0         
_________________________________________________________________
dropout_497 (Dropout)        (None, 32, 32, 512)       0         
_________________________________________________________________
separable_conv2d_337 (Separa (None, 32, 32, 128)       70272     
_________________________________________________________________
activation_498 (Activation)  (None, 32, 32, 128)       0         
_________________________________________________________________
dropout_498 (Dropout)        (None, 32, 32, 128)       0         
_________________________________________________________________
max_pooling2d_150 (MaxPoolin (None, 16, 16, 128)       0         
_________________________________________________________________
flatten_170 (Flatten)        (None, 32768)             0         
_________________________________________________________________
dense_331 (Dense)            (None, 128)               4194432   
_________________________________________________________________
batch_normalization_334 (Bat (None, 128)               512       
_________________________________________________________________
activation_499 (Activation)  (None, 128)               0         
_________________________________________________________________
dropout_499 (Dropout)        (None, 128)               0         
_________________________________________________________________
dense_332 (Dense)            (None, 10)                1290      
=================================================================
Total params: 4,270,629
Trainable params: 4,269,349
Non-trainable params: 1,280
_________________________________________________________________
