Model: "sequential_119"
_________________________________________________________________
Layer (type)                 Output Shape              Param #   
=================================================================
separable_conv2d_234 (Separa (None, 32, 32, 512)       2075      
_________________________________________________________________
batch_normalization_226 (Bat (None, 32, 32, 512)       2048      
_________________________________________________________________
activation_345 (Activation)  (None, 32, 32, 512)       0         
_________________________________________________________________
dropout_345 (Dropout)        (None, 32, 32, 512)       0         
_________________________________________________________________
separable_conv2d_235 (Separa (None, 32, 32, 32)        21024     
_________________________________________________________________
activation_346 (Activation)  (None, 32, 32, 32)        0         
_________________________________________________________________
dropout_346 (Dropout)        (None, 32, 32, 32)        0         
_________________________________________________________________
max_pooling2d_99 (MaxPooling (None, 16, 16, 32)        0         
_________________________________________________________________
flatten_119 (Flatten)        (None, 8192)              0         
_________________________________________________________________
dense_230 (Dense)            (None, 256)               2097408   
_________________________________________________________________
batch_normalization_227 (Bat (None, 256)               1024      
_________________________________________________________________
activation_347 (Activation)  (None, 256)               0         
_________________________________________________________________
dropout_347 (Dropout)        (None, 256)               0         
_________________________________________________________________
dense_231 (Dense)            (None, 10)                2570      
=================================================================
Total params: 2,126,149
Trainable params: 2,124,613
Non-trainable params: 1,536
_________________________________________________________________
