Model: "sequential_176"
_________________________________________________________________
Layer (type)                 Output Shape              Param #   
=================================================================
separable_conv2d_348 (Separa (None, 32, 32, 512)       2075      
_________________________________________________________________
batch_normalization_345 (Bat (None, 32, 32, 512)       2048      
_________________________________________________________________
activation_515 (Activation)  (None, 32, 32, 512)       0         
_________________________________________________________________
dropout_515 (Dropout)        (None, 32, 32, 512)       0         
_________________________________________________________________
separable_conv2d_349 (Separa (None, 32, 32, 128)       70272     
_________________________________________________________________
activation_516 (Activation)  (None, 32, 32, 128)       0         
_________________________________________________________________
dropout_516 (Dropout)        (None, 32, 32, 128)       0         
_________________________________________________________________
max_pooling2d_157 (MaxPoolin (None, 16, 16, 128)       0         
_________________________________________________________________
flatten_176 (Flatten)        (None, 32768)             0         
_________________________________________________________________
dense_343 (Dense)            (None, 32)                1048608   
_________________________________________________________________
batch_normalization_346 (Bat (None, 32)                128       
_________________________________________________________________
activation_517 (Activation)  (None, 32)                0         
_________________________________________________________________
dropout_517 (Dropout)        (None, 32)                0         
_________________________________________________________________
dense_344 (Dense)            (None, 10)                330       
=================================================================
Total params: 1,123,461
Trainable params: 1,122,373
Non-trainable params: 1,088
_________________________________________________________________
