Model: "sequential_235"
_________________________________________________________________
Layer (type)                 Output Shape              Param #   
=================================================================
separable_conv2d_466 (Separa (None, 32, 32, 32)        155       
_________________________________________________________________
batch_normalization_459 (Bat (None, 32, 32, 32)        128       
_________________________________________________________________
activation_692 (Activation)  (None, 32, 32, 32)        0         
_________________________________________________________________
dropout_692 (Dropout)        (None, 32, 32, 32)        0         
_________________________________________________________________
separable_conv2d_467 (Separa (None, 32, 32, 128)       4512      
_________________________________________________________________
activation_693 (Activation)  (None, 32, 32, 128)       0         
_________________________________________________________________
dropout_693 (Dropout)        (None, 32, 32, 128)       0         
_________________________________________________________________
max_pooling2d_216 (MaxPoolin (None, 16, 16, 128)       0         
_________________________________________________________________
flatten_235 (Flatten)        (None, 32768)             0         
_________________________________________________________________
dense_461 (Dense)            (None, 10)                327690    
=================================================================
Total params: 332,485
Trainable params: 332,421
Non-trainable params: 64
_________________________________________________________________
