Model: "sequential_17"
_________________________________________________________________
Layer (type)                 Output Shape              Param #   
=================================================================
separable_conv2d_43 (Separab (None, 32, 32, 8)         59        
_________________________________________________________________
batch_normalization_31 (Batc (None, 32, 32, 8)         32        
_________________________________________________________________
activation_55 (Activation)   (None, 32, 32, 8)         0         
_________________________________________________________________
dropout_55 (Dropout)         (None, 32, 32, 8)         0         
_________________________________________________________________
flatten_17 (Flatten)         (None, 8192)              0         
_________________________________________________________________
dense_29 (Dense)             (None, 256)               2097408   
_________________________________________________________________
batch_normalization_32 (Batc (None, 256)               1024      
_________________________________________________________________
activation_56 (Activation)   (None, 256)               0         
_________________________________________________________________
dropout_56 (Dropout)         (None, 256)               0         
_________________________________________________________________
dense_30 (Dense)             (None, 10)                2570      
=================================================================
Total params: 2,101,093
Trainable params: 2,100,565
Non-trainable params: 528
_________________________________________________________________
