Model: "sequential_202"
_________________________________________________________________
Layer (type)                 Output Shape              Param #   
=================================================================
separable_conv2d_400 (Separa (None, 32, 32, 512)       2075      
_________________________________________________________________
batch_normalization_396 (Bat (None, 32, 32, 512)       2048      
_________________________________________________________________
activation_593 (Activation)  (None, 32, 32, 512)       0         
_________________________________________________________________
dropout_593 (Dropout)        (None, 32, 32, 512)       0         
_________________________________________________________________
separable_conv2d_401 (Separa (None, 32, 32, 128)       70272     
_________________________________________________________________
activation_594 (Activation)  (None, 32, 32, 128)       0         
_________________________________________________________________
dropout_594 (Dropout)        (None, 32, 32, 128)       0         
_________________________________________________________________
max_pooling2d_185 (MaxPoolin (None, 16, 16, 128)       0         
_________________________________________________________________
flatten_202 (Flatten)        (None, 32768)             0         
_________________________________________________________________
dense_395 (Dense)            (None, 32)                1048608   
_________________________________________________________________
batch_normalization_397 (Bat (None, 32)                128       
_________________________________________________________________
activation_595 (Activation)  (None, 32)                0         
_________________________________________________________________
dropout_595 (Dropout)        (None, 32)                0         
_________________________________________________________________
dense_396 (Dense)            (None, 10)                330       
=================================================================
Total params: 1,123,461
Trainable params: 1,122,373
Non-trainable params: 1,088
_________________________________________________________________
