Model: "sequential_89"
_________________________________________________________________
Layer (type)                 Output Shape              Param #   
=================================================================
separable_conv2d_174 (Separa (None, 32, 32, 512)       2075      
_________________________________________________________________
batch_normalization_167 (Bat (None, 32, 32, 512)       2048      
_________________________________________________________________
activation_255 (Activation)  (None, 32, 32, 512)       0         
_________________________________________________________________
dropout_255 (Dropout)        (None, 32, 32, 512)       0         
_________________________________________________________________
separable_conv2d_175 (Separa (None, 32, 32, 32)        21024     
_________________________________________________________________
activation_256 (Activation)  (None, 32, 32, 32)        0         
_________________________________________________________________
dropout_256 (Dropout)        (None, 32, 32, 32)        0         
_________________________________________________________________
flatten_89 (Flatten)         (None, 32768)             0         
_________________________________________________________________
dense_170 (Dense)            (None, 256)               8388864   
_________________________________________________________________
batch_normalization_168 (Bat (None, 256)               1024      
_________________________________________________________________
activation_257 (Activation)  (None, 256)               0         
_________________________________________________________________
dropout_257 (Dropout)        (None, 256)               0         
_________________________________________________________________
dense_171 (Dense)            (None, 10)                2570      
=================================================================
Total params: 8,417,605
Trainable params: 8,416,069
Non-trainable params: 1,536
_________________________________________________________________
