Model: "sequential_49"
_________________________________________________________________
Layer (type)                 Output Shape              Param #   
=================================================================
separable_conv2d_100 (Separa (None, 32, 32, 512)       2075      
_________________________________________________________________
batch_normalization_95 (Batc (None, 32, 32, 512)       2048      
_________________________________________________________________
activation_144 (Activation)  (None, 32, 32, 512)       0         
_________________________________________________________________
dropout_144 (Dropout)        (None, 32, 32, 512)       0         
_________________________________________________________________
flatten_49 (Flatten)         (None, 524288)            0         
_________________________________________________________________
dense_93 (Dense)             (None, 256)               134217984 
_________________________________________________________________
batch_normalization_96 (Batc (None, 256)               1024      
_________________________________________________________________
activation_145 (Activation)  (None, 256)               0         
_________________________________________________________________
dropout_145 (Dropout)        (None, 256)               0         
_________________________________________________________________
dense_94 (Dense)             (None, 10)                2570      
=================================================================
Total params: 134,225,701
Trainable params: 134,224,165
Non-trainable params: 1,536
_________________________________________________________________
