Model: "sequential_256"
_________________________________________________________________
Layer (type)                 Output Shape              Param #   
=================================================================
separable_conv2d_507 (Separa (None, 32, 32, 512)       2075      
_________________________________________________________________
batch_normalization_495 (Bat (None, 32, 32, 512)       2048      
_________________________________________________________________
activation_751 (Activation)  (None, 32, 32, 512)       0         
_________________________________________________________________
dropout_751 (Dropout)        (None, 32, 32, 512)       0         
_________________________________________________________________
separable_conv2d_508 (Separa (None, 32, 32, 64)        37440     
_________________________________________________________________
activation_752 (Activation)  (None, 32, 32, 64)        0         
_________________________________________________________________
dropout_752 (Dropout)        (None, 32, 32, 64)        0         
_________________________________________________________________
flatten_256 (Flatten)        (None, 65536)             0         
_________________________________________________________________
dense_500 (Dense)            (None, 128)               8388736   
_________________________________________________________________
batch_normalization_496 (Bat (None, 128)               512       
_________________________________________________________________
activation_753 (Activation)  (None, 128)               0         
_________________________________________________________________
dropout_753 (Dropout)        (None, 128)               0         
_________________________________________________________________
dense_501 (Dense)            (None, 10)                1290      
=================================================================
Total params: 8,432,101
Trainable params: 8,430,821
Non-trainable params: 1,280
_________________________________________________________________
