Model: "sequential_59"
_________________________________________________________________
Layer (type)                 Output Shape              Param #   
=================================================================
separable_conv2d_118 (Separa (None, 32, 32, 512)       2075      
_________________________________________________________________
batch_normalization_113 (Bat (None, 32, 32, 512)       2048      
_________________________________________________________________
activation_171 (Activation)  (None, 32, 32, 512)       0         
_________________________________________________________________
dropout_171 (Dropout)        (None, 32, 32, 512)       0         
_________________________________________________________________
separable_conv2d_119 (Separa (None, 32, 32, 32)        21024     
_________________________________________________________________
activation_172 (Activation)  (None, 32, 32, 32)        0         
_________________________________________________________________
dropout_172 (Dropout)        (None, 32, 32, 32)        0         
_________________________________________________________________
max_pooling2d_45 (MaxPooling (None, 16, 16, 32)        0         
_________________________________________________________________
flatten_59 (Flatten)         (None, 8192)              0         
_________________________________________________________________
dense_112 (Dense)            (None, 256)               2097408   
_________________________________________________________________
batch_normalization_114 (Bat (None, 256)               1024      
_________________________________________________________________
activation_173 (Activation)  (None, 256)               0         
_________________________________________________________________
dropout_173 (Dropout)        (None, 256)               0         
_________________________________________________________________
dense_113 (Dense)            (None, 10)                2570      
=================================================================
Total params: 2,126,149
Trainable params: 2,124,613
Non-trainable params: 1,536
_________________________________________________________________
