Model: "sequential_247"
_________________________________________________________________
Layer (type)                 Output Shape              Param #   
=================================================================
separable_conv2d_490 (Separa (None, 32, 32, 512)       2075      
_________________________________________________________________
activation_726 (Activation)  (None, 32, 32, 512)       0         
_________________________________________________________________
dropout_726 (Dropout)        (None, 32, 32, 512)       0         
_________________________________________________________________
separable_conv2d_491 (Separa (None, 32, 32, 512)       267264    
_________________________________________________________________
activation_727 (Activation)  (None, 32, 32, 512)       0         
_________________________________________________________________
dropout_727 (Dropout)        (None, 32, 32, 512)       0         
_________________________________________________________________
max_pooling2d_226 (MaxPoolin (None, 16, 16, 512)       0         
_________________________________________________________________
flatten_247 (Flatten)        (None, 131072)            0         
_________________________________________________________________
dense_483 (Dense)            (None, 128)               16777344  
_________________________________________________________________
batch_normalization_480 (Bat (None, 128)               512       
_________________________________________________________________
activation_728 (Activation)  (None, 128)               0         
_________________________________________________________________
dropout_728 (Dropout)        (None, 128)               0         
_________________________________________________________________
dense_484 (Dense)            (None, 10)                1290      
=================================================================
Total params: 17,048,485
Trainable params: 17,048,229
Non-trainable params: 256
_________________________________________________________________
