Model: "sequential_220"
_________________________________________________________________
Layer (type)                 Output Shape              Param #   
=================================================================
separable_conv2d_436 (Separa (None, 32, 32, 512)       2075      
_________________________________________________________________
batch_normalization_430 (Bat (None, 32, 32, 512)       2048      
_________________________________________________________________
activation_647 (Activation)  (None, 32, 32, 512)       0         
_________________________________________________________________
dropout_647 (Dropout)        (None, 32, 32, 512)       0         
_________________________________________________________________
separable_conv2d_437 (Separa (None, 32, 32, 128)       70272     
_________________________________________________________________
activation_648 (Activation)  (None, 32, 32, 128)       0         
_________________________________________________________________
dropout_648 (Dropout)        (None, 32, 32, 128)       0         
_________________________________________________________________
max_pooling2d_201 (MaxPoolin (None, 16, 16, 128)       0         
_________________________________________________________________
flatten_220 (Flatten)        (None, 32768)             0         
_________________________________________________________________
dense_431 (Dense)            (None, 1024)              33555456  
_________________________________________________________________
batch_normalization_431 (Bat (None, 1024)              4096      
_________________________________________________________________
activation_649 (Activation)  (None, 1024)              0         
_________________________________________________________________
dropout_649 (Dropout)        (None, 1024)              0         
_________________________________________________________________
dense_432 (Dense)            (None, 10)                10250     
=================================================================
Total params: 33,644,197
Trainable params: 33,641,125
Non-trainable params: 3,072
_________________________________________________________________
