Model: "sequential_230"
_________________________________________________________________
Layer (type)                 Output Shape              Param #   
=================================================================
separable_conv2d_456 (Separa (None, 32, 32, 512)       2075      
_________________________________________________________________
batch_normalization_449 (Bat (None, 32, 32, 512)       2048      
_________________________________________________________________
activation_677 (Activation)  (None, 32, 32, 512)       0         
_________________________________________________________________
dropout_677 (Dropout)        (None, 32, 32, 512)       0         
_________________________________________________________________
separable_conv2d_457 (Separa (None, 32, 32, 128)       70272     
_________________________________________________________________
activation_678 (Activation)  (None, 32, 32, 128)       0         
_________________________________________________________________
dropout_678 (Dropout)        (None, 32, 32, 128)       0         
_________________________________________________________________
max_pooling2d_211 (MaxPoolin (None, 16, 16, 128)       0         
_________________________________________________________________
flatten_230 (Flatten)        (None, 32768)             0         
_________________________________________________________________
dense_451 (Dense)            (None, 1024)              33555456  
_________________________________________________________________
batch_normalization_450 (Bat (None, 1024)              4096      
_________________________________________________________________
activation_679 (Activation)  (None, 1024)              0         
_________________________________________________________________
dropout_679 (Dropout)        (None, 1024)              0         
_________________________________________________________________
dense_452 (Dense)            (None, 10)                10250     
=================================================================
Total params: 33,644,197
Trainable params: 33,641,125
Non-trainable params: 3,072
_________________________________________________________________
