Model: "sequential_8"
_________________________________________________________________
Layer (type)                 Output Shape              Param #   
=================================================================
separable_conv2d_22 (Separab (None, 32, 32, 16)        91        
_________________________________________________________________
activation_27 (Activation)   (None, 32, 32, 16)        0         
_________________________________________________________________
dropout_27 (Dropout)         (None, 32, 32, 16)        0         
_________________________________________________________________
separable_conv2d_23 (Separab (None, 32, 32, 8)         280       
_________________________________________________________________
batch_normalization_15 (Batc (None, 32, 32, 8)         32        
_________________________________________________________________
activation_28 (Activation)   (None, 32, 32, 8)         0         
_________________________________________________________________
dropout_28 (Dropout)         (None, 32, 32, 8)         0         
_________________________________________________________________
separable_conv2d_24 (Separab (None, 32, 32, 128)       1224      
_________________________________________________________________
activation_29 (Activation)   (None, 32, 32, 128)       0         
_________________________________________________________________
dropout_29 (Dropout)         (None, 32, 32, 128)       0         
_________________________________________________________________
flatten_8 (Flatten)          (None, 131072)            0         
_________________________________________________________________
dense_13 (Dense)             (None, 10)                1310730   
=================================================================
Total params: 1,312,357
Trainable params: 1,312,341
Non-trainable params: 16
_________________________________________________________________
