Model: "sequential_380"
_________________________________________________________________
Layer (type)                 Output Shape              Param #   
=================================================================
separable_conv2d_722 (Separa (None, 32, 32, 256)       1051      
_________________________________________________________________
batch_normalization_714 (Bat (None, 32, 32, 256)       1024      
_________________________________________________________________
activation_1069 (Activation) (None, 32, 32, 256)       0         
_________________________________________________________________
dropout_1069 (Dropout)       (None, 32, 32, 256)       0         
_________________________________________________________________
separable_conv2d_723 (Separa (None, 32, 32, 8)         4360      
_________________________________________________________________
activation_1070 (Activation) (None, 32, 32, 8)         0         
_________________________________________________________________
dropout_1070 (Dropout)       (None, 32, 32, 8)         0         
_________________________________________________________________
max_pooling2d_278 (MaxPoolin (None, 16, 16, 8)         0         
_________________________________________________________________
flatten_380 (Flatten)        (None, 2048)              0         
_________________________________________________________________
dense_727 (Dense)            (None, 512)               1049088   
_________________________________________________________________
activation_1071 (Activation) (None, 512)               0         
_________________________________________________________________
dropout_1071 (Dropout)       (None, 512)               0         
_________________________________________________________________
dense_728 (Dense)            (None, 10)                5130      
=================================================================
Total params: 1,060,653
Trainable params: 1,060,141
Non-trainable params: 512
_________________________________________________________________
