Model: "sequential_318"
_________________________________________________________________
Layer (type)                 Output Shape              Param #   
=================================================================
separable_conv2d_613 (Separa (None, 32, 32, 512)       2075      
_________________________________________________________________
batch_normalization_607 (Bat (None, 32, 32, 512)       2048      
_________________________________________________________________
activation_912 (Activation)  (None, 32, 32, 512)       0         
_________________________________________________________________
dropout_912 (Dropout)        (None, 32, 32, 512)       0         
_________________________________________________________________
separable_conv2d_614 (Separa (None, 32, 32, 256)       135936    
_________________________________________________________________
activation_913 (Activation)  (None, 32, 32, 256)       0         
_________________________________________________________________
dropout_913 (Dropout)        (None, 32, 32, 256)       0         
_________________________________________________________________
flatten_318 (Flatten)        (None, 262144)            0         
_________________________________________________________________
dense_617 (Dense)            (None, 128)               33554560  
_________________________________________________________________
batch_normalization_608 (Bat (None, 128)               512       
_________________________________________________________________
activation_914 (Activation)  (None, 128)               0         
_________________________________________________________________
dropout_914 (Dropout)        (None, 128)               0         
_________________________________________________________________
dense_618 (Dense)            (None, 10)                1290      
=================================================================
Total params: 33,696,421
Trainable params: 33,695,141
Non-trainable params: 1,280
_________________________________________________________________
