Model: "sequential_392"
_________________________________________________________________
Layer (type)                 Output Shape              Param #   
=================================================================
separable_conv2d_745 (Separa (None, 32, 32, 512)       2075      
_________________________________________________________________
batch_normalization_733 (Bat (None, 32, 32, 512)       2048      
_________________________________________________________________
activation_1102 (Activation) (None, 32, 32, 512)       0         
_________________________________________________________________
dropout_1102 (Dropout)       (None, 32, 32, 512)       0         
_________________________________________________________________
max_pooling2d_284 (MaxPoolin (None, 16, 16, 512)       0         
_________________________________________________________________
separable_conv2d_746 (Separa (None, 16, 16, 16)        12816     
_________________________________________________________________
activation_1103 (Activation) (None, 16, 16, 16)        0         
_________________________________________________________________
dropout_1103 (Dropout)       (None, 16, 16, 16)        0         
_________________________________________________________________
max_pooling2d_285 (MaxPoolin (None, 8, 8, 16)          0         
_________________________________________________________________
separable_conv2d_747 (Separa (None, 8, 8, 8)           280       
_________________________________________________________________
batch_normalization_734 (Bat (None, 8, 8, 8)           32        
_________________________________________________________________
activation_1104 (Activation) (None, 8, 8, 8)           0         
_________________________________________________________________
dropout_1104 (Dropout)       (None, 8, 8, 8)           0         
_________________________________________________________________
flatten_392 (Flatten)        (None, 512)               0         
_________________________________________________________________
dense_749 (Dense)            (None, 10)                5130      
=================================================================
Total params: 22,381
Trainable params: 21,341
Non-trainable params: 1,040
_________________________________________________________________
