Model: "sequential_343"
_________________________________________________________________
Layer (type)                 Output Shape              Param #   
=================================================================
separable_conv2d_655 (Separa (None, 32, 32, 512)       2075      
_________________________________________________________________
batch_normalization_650 (Bat (None, 32, 32, 512)       2048      
_________________________________________________________________
activation_974 (Activation)  (None, 32, 32, 512)       0         
_________________________________________________________________
dropout_974 (Dropout)        (None, 32, 32, 512)       0         
_________________________________________________________________
separable_conv2d_656 (Separa (None, 32, 32, 512)       267264    
_________________________________________________________________
activation_975 (Activation)  (None, 32, 32, 512)       0         
_________________________________________________________________
dropout_975 (Dropout)        (None, 32, 32, 512)       0         
_________________________________________________________________
flatten_343 (Flatten)        (None, 524288)            0         
_________________________________________________________________
dense_662 (Dense)            (None, 10)                5242890   
=================================================================
Total params: 5,514,277
Trainable params: 5,513,253
Non-trainable params: 1,024
_________________________________________________________________
