Model: "sequential_216"
_________________________________________________________________
Layer (type)                 Output Shape              Param #   
=================================================================
separable_conv2d_428 (Separa (None, 32, 32, 512)       2075      
_________________________________________________________________
batch_normalization_422 (Bat (None, 32, 32, 512)       2048      
_________________________________________________________________
activation_635 (Activation)  (None, 32, 32, 512)       0         
_________________________________________________________________
dropout_635 (Dropout)        (None, 32, 32, 512)       0         
_________________________________________________________________
separable_conv2d_429 (Separa (None, 32, 32, 128)       70272     
_________________________________________________________________
activation_636 (Activation)  (None, 32, 32, 128)       0         
_________________________________________________________________
dropout_636 (Dropout)        (None, 32, 32, 128)       0         
_________________________________________________________________
max_pooling2d_197 (MaxPoolin (None, 16, 16, 128)       0         
_________________________________________________________________
flatten_216 (Flatten)        (None, 32768)             0         
_________________________________________________________________
dense_423 (Dense)            (None, 128)               4194432   
_________________________________________________________________
batch_normalization_423 (Bat (None, 128)               512       
_________________________________________________________________
activation_637 (Activation)  (None, 128)               0         
_________________________________________________________________
dropout_637 (Dropout)        (None, 128)               0         
_________________________________________________________________
dense_424 (Dense)            (None, 10)                1290      
=================================================================
Total params: 4,270,629
Trainable params: 4,269,349
Non-trainable params: 1,280
_________________________________________________________________
