Model: "sequential_169"
_________________________________________________________________
Layer (type)                 Output Shape              Param #   
=================================================================
separable_conv2d_334 (Separa (None, 32, 32, 512)       2075      
_________________________________________________________________
batch_normalization_331 (Bat (None, 32, 32, 512)       2048      
_________________________________________________________________
activation_494 (Activation)  (None, 32, 32, 512)       0         
_________________________________________________________________
dropout_494 (Dropout)        (None, 32, 32, 512)       0         
_________________________________________________________________
separable_conv2d_335 (Separa (None, 32, 32, 128)       70272     
_________________________________________________________________
activation_495 (Activation)  (None, 32, 32, 128)       0         
_________________________________________________________________
dropout_495 (Dropout)        (None, 32, 32, 128)       0         
_________________________________________________________________
max_pooling2d_149 (MaxPoolin (None, 16, 16, 128)       0         
_________________________________________________________________
flatten_169 (Flatten)        (None, 32768)             0         
_________________________________________________________________
dense_329 (Dense)            (None, 128)               4194432   
_________________________________________________________________
batch_normalization_332 (Bat (None, 128)               512       
_________________________________________________________________
activation_496 (Activation)  (None, 128)               0         
_________________________________________________________________
dropout_496 (Dropout)        (None, 128)               0         
_________________________________________________________________
dense_330 (Dense)            (None, 10)                1290      
=================================================================
Total params: 4,270,629
Trainable params: 4,269,349
Non-trainable params: 1,280
_________________________________________________________________
