Model: "sequential_63"
_________________________________________________________________
Layer (type)                 Output Shape              Param #   
=================================================================
separable_conv2d_125 (Separa (None, 32, 32, 512)       2075      
_________________________________________________________________
batch_normalization_121 (Bat (None, 32, 32, 512)       2048      
_________________________________________________________________
activation_182 (Activation)  (None, 32, 32, 512)       0         
_________________________________________________________________
dropout_182 (Dropout)        (None, 32, 32, 512)       0         
_________________________________________________________________
separable_conv2d_126 (Separa (None, 32, 32, 32)        21024     
_________________________________________________________________
activation_183 (Activation)  (None, 32, 32, 32)        0         
_________________________________________________________________
dropout_183 (Dropout)        (None, 32, 32, 32)        0         
_________________________________________________________________
max_pooling2d_48 (MaxPooling (None, 16, 16, 32)        0         
_________________________________________________________________
flatten_63 (Flatten)         (None, 8192)              0         
_________________________________________________________________
dense_120 (Dense)            (None, 256)               2097408   
_________________________________________________________________
batch_normalization_122 (Bat (None, 256)               1024      
_________________________________________________________________
activation_184 (Activation)  (None, 256)               0         
_________________________________________________________________
dropout_184 (Dropout)        (None, 256)               0         
_________________________________________________________________
dense_121 (Dense)            (None, 10)                2570      
=================================================================
Total params: 2,126,149
Trainable params: 2,124,613
Non-trainable params: 1,536
_________________________________________________________________
