Model: "sequential_66"
_________________________________________________________________
Layer (type)                 Output Shape              Param #   
=================================================================
separable_conv2d_131 (Separa (None, 32, 32, 512)       2075      
_________________________________________________________________
batch_normalization_125 (Bat (None, 32, 32, 512)       2048      
_________________________________________________________________
activation_190 (Activation)  (None, 32, 32, 512)       0         
_________________________________________________________________
dropout_190 (Dropout)        (None, 32, 32, 512)       0         
_________________________________________________________________
separable_conv2d_132 (Separa (None, 32, 32, 32)        21024     
_________________________________________________________________
activation_191 (Activation)  (None, 32, 32, 32)        0         
_________________________________________________________________
dropout_191 (Dropout)        (None, 32, 32, 32)        0         
_________________________________________________________________
max_pooling2d_51 (MaxPooling (None, 16, 16, 32)        0         
_________________________________________________________________
flatten_66 (Flatten)         (None, 8192)              0         
_________________________________________________________________
dense_125 (Dense)            (None, 256)               2097408   
_________________________________________________________________
batch_normalization_126 (Bat (None, 256)               1024      
_________________________________________________________________
activation_192 (Activation)  (None, 256)               0         
_________________________________________________________________
dropout_192 (Dropout)        (None, 256)               0         
_________________________________________________________________
dense_126 (Dense)            (None, 10)                2570      
=================================================================
Total params: 2,126,149
Trainable params: 2,124,613
Non-trainable params: 1,536
_________________________________________________________________
