Model: "sequential_91"
_________________________________________________________________
Layer (type)                 Output Shape              Param #   
=================================================================
separable_conv2d_178 (Separa (None, 32, 32, 512)       2075      
_________________________________________________________________
batch_normalization_171 (Bat (None, 32, 32, 512)       2048      
_________________________________________________________________
activation_261 (Activation)  (None, 32, 32, 512)       0         
_________________________________________________________________
dropout_261 (Dropout)        (None, 32, 32, 512)       0         
_________________________________________________________________
separable_conv2d_179 (Separa (None, 32, 32, 32)        21024     
_________________________________________________________________
activation_262 (Activation)  (None, 32, 32, 32)        0         
_________________________________________________________________
dropout_262 (Dropout)        (None, 32, 32, 32)        0         
_________________________________________________________________
max_pooling2d_72 (MaxPooling (None, 16, 16, 32)        0         
_________________________________________________________________
flatten_91 (Flatten)         (None, 8192)              0         
_________________________________________________________________
dense_174 (Dense)            (None, 256)               2097408   
_________________________________________________________________
batch_normalization_172 (Bat (None, 256)               1024      
_________________________________________________________________
activation_263 (Activation)  (None, 256)               0         
_________________________________________________________________
dropout_263 (Dropout)        (None, 256)               0         
_________________________________________________________________
dense_175 (Dense)            (None, 10)                2570      
=================================================================
Total params: 2,126,149
Trainable params: 2,124,613
Non-trainable params: 1,536
_________________________________________________________________
