Model: "sequential_336"
_________________________________________________________________
Layer (type)                 Output Shape              Param #   
=================================================================
separable_conv2d_645 (Separa (None, 32, 32, 16)        91        
_________________________________________________________________
batch_normalization_637 (Bat (None, 32, 32, 16)        64        
_________________________________________________________________
activation_958 (Activation)  (None, 32, 32, 16)        0         
_________________________________________________________________
dropout_958 (Dropout)        (None, 32, 32, 16)        0         
_________________________________________________________________
flatten_336 (Flatten)        (None, 16384)             0         
_________________________________________________________________
dense_649 (Dense)            (None, 128)               2097280   
_________________________________________________________________
batch_normalization_638 (Bat (None, 128)               512       
_________________________________________________________________
activation_959 (Activation)  (None, 128)               0         
_________________________________________________________________
dropout_959 (Dropout)        (None, 128)               0         
_________________________________________________________________
dense_650 (Dense)            (None, 10)                1290      
=================================================================
Total params: 2,099,237
Trainable params: 2,098,949
Non-trainable params: 288
_________________________________________________________________
