Model: "sequential_130"
_________________________________________________________________
Layer (type)                 Output Shape              Param #   
=================================================================
separable_conv2d_256 (Separa (None, 32, 32, 512)       2075      
_________________________________________________________________
batch_normalization_250 (Bat (None, 32, 32, 512)       2048      
_________________________________________________________________
activation_378 (Activation)  (None, 32, 32, 512)       0         
_________________________________________________________________
dropout_378 (Dropout)        (None, 32, 32, 512)       0         
_________________________________________________________________
separable_conv2d_257 (Separa (None, 32, 32, 32)        21024     
_________________________________________________________________
activation_379 (Activation)  (None, 32, 32, 32)        0         
_________________________________________________________________
dropout_379 (Dropout)        (None, 32, 32, 32)        0         
_________________________________________________________________
max_pooling2d_110 (MaxPoolin (None, 16, 16, 32)        0         
_________________________________________________________________
flatten_130 (Flatten)        (None, 8192)              0         
_________________________________________________________________
dense_252 (Dense)            (None, 256)               2097408   
_________________________________________________________________
batch_normalization_251 (Bat (None, 256)               1024      
_________________________________________________________________
activation_380 (Activation)  (None, 256)               0         
_________________________________________________________________
dropout_380 (Dropout)        (None, 256)               0         
_________________________________________________________________
dense_253 (Dense)            (None, 10)                2570      
=================================================================
Total params: 2,126,149
Trainable params: 2,124,613
Non-trainable params: 1,536
_________________________________________________________________
