Model: "sequential_201"
_________________________________________________________________
Layer (type)                 Output Shape              Param #   
=================================================================
separable_conv2d_398 (Separa (None, 32, 32, 512)       2075      
_________________________________________________________________
batch_normalization_394 (Bat (None, 32, 32, 512)       2048      
_________________________________________________________________
activation_590 (Activation)  (None, 32, 32, 512)       0         
_________________________________________________________________
dropout_590 (Dropout)        (None, 32, 32, 512)       0         
_________________________________________________________________
separable_conv2d_399 (Separa (None, 32, 32, 128)       70272     
_________________________________________________________________
activation_591 (Activation)  (None, 32, 32, 128)       0         
_________________________________________________________________
dropout_591 (Dropout)        (None, 32, 32, 128)       0         
_________________________________________________________________
max_pooling2d_184 (MaxPoolin (None, 16, 16, 128)       0         
_________________________________________________________________
flatten_201 (Flatten)        (None, 32768)             0         
_________________________________________________________________
dense_393 (Dense)            (None, 128)               4194432   
_________________________________________________________________
batch_normalization_395 (Bat (None, 128)               512       
_________________________________________________________________
activation_592 (Activation)  (None, 128)               0         
_________________________________________________________________
dropout_592 (Dropout)        (None, 128)               0         
_________________________________________________________________
dense_394 (Dense)            (None, 10)                1290      
=================================================================
Total params: 4,270,629
Trainable params: 4,269,349
Non-trainable params: 1,280
_________________________________________________________________
