Model: "sequential_129"
_________________________________________________________________
Layer (type)                 Output Shape              Param #   
=================================================================
separable_conv2d_254 (Separa (None, 32, 32, 512)       2075      
_________________________________________________________________
batch_normalization_247 (Bat (None, 32, 32, 512)       2048      
_________________________________________________________________
activation_375 (Activation)  (None, 32, 32, 512)       0         
_________________________________________________________________
dropout_375 (Dropout)        (None, 32, 32, 512)       0         
_________________________________________________________________
separable_conv2d_255 (Separa (None, 32, 32, 32)        21024     
_________________________________________________________________
batch_normalization_248 (Bat (None, 32, 32, 32)        128       
_________________________________________________________________
activation_376 (Activation)  (None, 32, 32, 32)        0         
_________________________________________________________________
dropout_376 (Dropout)        (None, 32, 32, 32)        0         
_________________________________________________________________
max_pooling2d_109 (MaxPoolin (None, 16, 16, 32)        0         
_________________________________________________________________
flatten_129 (Flatten)        (None, 8192)              0         
_________________________________________________________________
dense_250 (Dense)            (None, 256)               2097408   
_________________________________________________________________
batch_normalization_249 (Bat (None, 256)               1024      
_________________________________________________________________
activation_377 (Activation)  (None, 256)               0         
_________________________________________________________________
dropout_377 (Dropout)        (None, 256)               0         
_________________________________________________________________
dense_251 (Dense)            (None, 10)                2570      
=================================================================
Total params: 2,126,277
Trainable params: 2,124,677
Non-trainable params: 1,600
_________________________________________________________________
