Model: "sequential_330"
_________________________________________________________________
Layer (type)                 Output Shape              Param #   
=================================================================
separable_conv2d_634 (Separa (None, 32, 32, 512)       2075      
_________________________________________________________________
batch_normalization_628 (Bat (None, 32, 32, 512)       2048      
_________________________________________________________________
activation_944 (Activation)  (None, 32, 32, 512)       0         
_________________________________________________________________
dropout_944 (Dropout)        (None, 32, 32, 512)       0         
_________________________________________________________________
separable_conv2d_635 (Separa (None, 32, 32, 128)       70272     
_________________________________________________________________
activation_945 (Activation)  (None, 32, 32, 128)       0         
_________________________________________________________________
dropout_945 (Dropout)        (None, 32, 32, 128)       0         
_________________________________________________________________
flatten_330 (Flatten)        (None, 131072)            0         
_________________________________________________________________
dense_640 (Dense)            (None, 10)                1310730   
=================================================================
Total params: 1,385,125
Trainable params: 1,384,101
Non-trainable params: 1,024
_________________________________________________________________
