Model: "sequential_338"
_________________________________________________________________
Layer (type)                 Output Shape              Param #   
=================================================================
separable_conv2d_648 (Separa (None, 32, 32, 512)       2075      
_________________________________________________________________
batch_normalization_641 (Bat (None, 32, 32, 512)       2048      
_________________________________________________________________
activation_963 (Activation)  (None, 32, 32, 512)       0         
_________________________________________________________________
dropout_963 (Dropout)        (None, 32, 32, 512)       0         
_________________________________________________________________
flatten_338 (Flatten)        (None, 524288)            0         
_________________________________________________________________
dense_653 (Dense)            (None, 128)               67108992  
_________________________________________________________________
batch_normalization_642 (Bat (None, 128)               512       
_________________________________________________________________
activation_964 (Activation)  (None, 128)               0         
_________________________________________________________________
dropout_964 (Dropout)        (None, 128)               0         
_________________________________________________________________
dense_654 (Dense)            (None, 10)                1290      
=================================================================
Total params: 67,114,917
Trainable params: 67,113,637
Non-trainable params: 1,280
_________________________________________________________________
