Model: "sequential_122"
_________________________________________________________________
Layer (type)                 Output Shape              Param #   
=================================================================
separable_conv2d_240 (Separa (None, 32, 32, 512)       2075      
_________________________________________________________________
batch_normalization_232 (Bat (None, 32, 32, 512)       2048      
_________________________________________________________________
activation_354 (Activation)  (None, 32, 32, 512)       0         
_________________________________________________________________
dropout_354 (Dropout)        (None, 32, 32, 512)       0         
_________________________________________________________________
separable_conv2d_241 (Separa (None, 32, 32, 32)        21024     
_________________________________________________________________
activation_355 (Activation)  (None, 32, 32, 32)        0         
_________________________________________________________________
dropout_355 (Dropout)        (None, 32, 32, 32)        0         
_________________________________________________________________
max_pooling2d_102 (MaxPoolin (None, 16, 16, 32)        0         
_________________________________________________________________
flatten_122 (Flatten)        (None, 8192)              0         
_________________________________________________________________
dense_236 (Dense)            (None, 256)               2097408   
_________________________________________________________________
batch_normalization_233 (Bat (None, 256)               1024      
_________________________________________________________________
activation_356 (Activation)  (None, 256)               0         
_________________________________________________________________
dropout_356 (Dropout)        (None, 256)               0         
_________________________________________________________________
dense_237 (Dense)            (None, 10)                2570      
=================================================================
Total params: 2,126,149
Trainable params: 2,124,613
Non-trainable params: 1,536
_________________________________________________________________
