Model: "sequential_395"
_________________________________________________________________
Layer (type)                 Output Shape              Param #   
=================================================================
separable_conv2d_751 (Separa (None, 32, 32, 32)        155       
_________________________________________________________________
batch_normalization_738 (Bat (None, 32, 32, 32)        128       
_________________________________________________________________
activation_1110 (Activation) (None, 32, 32, 32)        0         
_________________________________________________________________
dropout_1110 (Dropout)       (None, 32, 32, 32)        0         
_________________________________________________________________
separable_conv2d_752 (Separa (None, 32, 32, 8)         552       
_________________________________________________________________
activation_1111 (Activation) (None, 32, 32, 8)         0         
_________________________________________________________________
dropout_1111 (Dropout)       (None, 32, 32, 8)         0         
_________________________________________________________________
max_pooling2d_287 (MaxPoolin (None, 16, 16, 8)         0         
_________________________________________________________________
flatten_395 (Flatten)        (None, 2048)              0         
_________________________________________________________________
dense_754 (Dense)            (None, 10)                20490     
=================================================================
Total params: 21,325
Trainable params: 21,261
Non-trainable params: 64
_________________________________________________________________
