Model: "sequential_200"
_________________________________________________________________
Layer (type)                 Output Shape              Param #   
=================================================================
separable_conv2d_396 (Separa (None, 32, 32, 512)       2075      
_________________________________________________________________
batch_normalization_392 (Bat (None, 32, 32, 512)       2048      
_________________________________________________________________
activation_587 (Activation)  (None, 32, 32, 512)       0         
_________________________________________________________________
dropout_587 (Dropout)        (None, 32, 32, 512)       0         
_________________________________________________________________
separable_conv2d_397 (Separa (None, 32, 32, 128)       70272     
_________________________________________________________________
activation_588 (Activation)  (None, 32, 32, 128)       0         
_________________________________________________________________
dropout_588 (Dropout)        (None, 32, 32, 128)       0         
_________________________________________________________________
max_pooling2d_183 (MaxPoolin (None, 16, 16, 128)       0         
_________________________________________________________________
flatten_200 (Flatten)        (None, 32768)             0         
_________________________________________________________________
dense_391 (Dense)            (None, 128)               4194432   
_________________________________________________________________
batch_normalization_393 (Bat (None, 128)               512       
_________________________________________________________________
activation_589 (Activation)  (None, 128)               0         
_________________________________________________________________
dropout_589 (Dropout)        (None, 128)               0         
_________________________________________________________________
dense_392 (Dense)            (None, 10)                1290      
=================================================================
Total params: 4,270,629
Trainable params: 4,269,349
Non-trainable params: 1,280
_________________________________________________________________
