Model: "sequential_112"
_________________________________________________________________
Layer (type)                 Output Shape              Param #   
=================================================================
separable_conv2d_220 (Separa (None, 32, 32, 512)       2075      
_________________________________________________________________
batch_normalization_212 (Bat (None, 32, 32, 512)       2048      
_________________________________________________________________
activation_324 (Activation)  (None, 32, 32, 512)       0         
_________________________________________________________________
dropout_324 (Dropout)        (None, 32, 32, 512)       0         
_________________________________________________________________
separable_conv2d_221 (Separa (None, 32, 32, 32)        21024     
_________________________________________________________________
activation_325 (Activation)  (None, 32, 32, 32)        0         
_________________________________________________________________
dropout_325 (Dropout)        (None, 32, 32, 32)        0         
_________________________________________________________________
max_pooling2d_92 (MaxPooling (None, 16, 16, 32)        0         
_________________________________________________________________
flatten_112 (Flatten)        (None, 8192)              0         
_________________________________________________________________
dense_216 (Dense)            (None, 256)               2097408   
_________________________________________________________________
batch_normalization_213 (Bat (None, 256)               1024      
_________________________________________________________________
activation_326 (Activation)  (None, 256)               0         
_________________________________________________________________
dropout_326 (Dropout)        (None, 256)               0         
_________________________________________________________________
dense_217 (Dense)            (None, 10)                2570      
=================================================================
Total params: 2,126,149
Trainable params: 2,124,613
Non-trainable params: 1,536
_________________________________________________________________
