Model: "sequential_244"
_________________________________________________________________
Layer (type)                 Output Shape              Param #   
=================================================================
separable_conv2d_484 (Separa (None, 32, 32, 512)       2075      
_________________________________________________________________
batch_normalization_474 (Bat (None, 32, 32, 512)       2048      
_________________________________________________________________
activation_717 (Activation)  (None, 32, 32, 512)       0         
_________________________________________________________________
dropout_717 (Dropout)        (None, 32, 32, 512)       0         
_________________________________________________________________
separable_conv2d_485 (Separa (None, 32, 32, 128)       70272     
_________________________________________________________________
activation_718 (Activation)  (None, 32, 32, 128)       0         
_________________________________________________________________
dropout_718 (Dropout)        (None, 32, 32, 128)       0         
_________________________________________________________________
flatten_244 (Flatten)        (None, 131072)            0         
_________________________________________________________________
dense_477 (Dense)            (None, 512)               67109376  
_________________________________________________________________
batch_normalization_475 (Bat (None, 512)               2048      
_________________________________________________________________
activation_719 (Activation)  (None, 512)               0         
_________________________________________________________________
dropout_719 (Dropout)        (None, 512)               0         
_________________________________________________________________
dense_478 (Dense)            (None, 10)                5130      
=================================================================
Total params: 67,190,949
Trainable params: 67,188,901
Non-trainable params: 2,048
_________________________________________________________________
