Model: "sequential_285"
_________________________________________________________________
Layer (type)                 Output Shape              Param #   
=================================================================
separable_conv2d_556 (Separa (None, 32, 32, 512)       2075      
_________________________________________________________________
batch_normalization_544 (Bat (None, 32, 32, 512)       2048      
_________________________________________________________________
activation_825 (Activation)  (None, 32, 32, 512)       0         
_________________________________________________________________
dropout_825 (Dropout)        (None, 32, 32, 512)       0         
_________________________________________________________________
separable_conv2d_557 (Separa (None, 32, 32, 32)        21024     
_________________________________________________________________
activation_826 (Activation)  (None, 32, 32, 32)        0         
_________________________________________________________________
dropout_826 (Dropout)        (None, 32, 32, 32)        0         
_________________________________________________________________
flatten_285 (Flatten)        (None, 32768)             0         
_________________________________________________________________
dense_554 (Dense)            (None, 128)               4194432   
_________________________________________________________________
batch_normalization_545 (Bat (None, 128)               512       
_________________________________________________________________
activation_827 (Activation)  (None, 128)               0         
_________________________________________________________________
dropout_827 (Dropout)        (None, 128)               0         
_________________________________________________________________
dense_555 (Dense)            (None, 10)                1290      
=================================================================
Total params: 4,221,381
Trainable params: 4,220,101
Non-trainable params: 1,280
_________________________________________________________________
