Model: "sequential_290"
_________________________________________________________________
Layer (type)                 Output Shape              Param #   
=================================================================
separable_conv2d_565 (Separa (None, 32, 32, 512)       2075      
_________________________________________________________________
batch_normalization_552 (Bat (None, 32, 32, 512)       2048      
_________________________________________________________________
activation_838 (Activation)  (None, 32, 32, 512)       0         
_________________________________________________________________
dropout_838 (Dropout)        (None, 32, 32, 512)       0         
_________________________________________________________________
max_pooling2d_247 (MaxPoolin (None, 16, 16, 512)       0         
_________________________________________________________________
separable_conv2d_566 (Separa (None, 16, 16, 512)       267264    
_________________________________________________________________
batch_normalization_553 (Bat (None, 16, 16, 512)       2048      
_________________________________________________________________
activation_839 (Activation)  (None, 16, 16, 512)       0         
_________________________________________________________________
dropout_839 (Dropout)        (None, 16, 16, 512)       0         
_________________________________________________________________
flatten_290 (Flatten)        (None, 131072)            0         
_________________________________________________________________
dense_563 (Dense)            (None, 128)               16777344  
_________________________________________________________________
batch_normalization_554 (Bat (None, 128)               512       
_________________________________________________________________
activation_840 (Activation)  (None, 128)               0         
_________________________________________________________________
dropout_840 (Dropout)        (None, 128)               0         
_________________________________________________________________
dense_564 (Dense)            (None, 10)                1290      
=================================================================
Total params: 17,052,581
Trainable params: 17,050,277
Non-trainable params: 2,304
_________________________________________________________________
