Model: "sequential_190"
_________________________________________________________________
Layer (type)                 Output Shape              Param #   
=================================================================
separable_conv2d_376 (Separa (None, 32, 32, 512)       2075      
_________________________________________________________________
batch_normalization_373 (Bat (None, 32, 32, 512)       2048      
_________________________________________________________________
activation_557 (Activation)  (None, 32, 32, 512)       0         
_________________________________________________________________
dropout_557 (Dropout)        (None, 32, 32, 512)       0         
_________________________________________________________________
separable_conv2d_377 (Separa (None, 32, 32, 128)       70272     
_________________________________________________________________
activation_558 (Activation)  (None, 32, 32, 128)       0         
_________________________________________________________________
dropout_558 (Dropout)        (None, 32, 32, 128)       0         
_________________________________________________________________
max_pooling2d_172 (MaxPoolin (None, 16, 16, 128)       0         
_________________________________________________________________
flatten_190 (Flatten)        (None, 32768)             0         
_________________________________________________________________
dense_371 (Dense)            (None, 128)               4194432   
_________________________________________________________________
batch_normalization_374 (Bat (None, 128)               512       
_________________________________________________________________
activation_559 (Activation)  (None, 128)               0         
_________________________________________________________________
dropout_559 (Dropout)        (None, 128)               0         
_________________________________________________________________
dense_372 (Dense)            (None, 10)                1290      
=================================================================
Total params: 4,270,629
Trainable params: 4,269,349
Non-trainable params: 1,280
_________________________________________________________________
