Model: "sequential_68"
_________________________________________________________________
Layer (type)                 Output Shape              Param #   
=================================================================
separable_conv2d_135 (Separa (None, 32, 32, 512)       2075      
_________________________________________________________________
batch_normalization_129 (Bat (None, 32, 32, 512)       2048      
_________________________________________________________________
activation_196 (Activation)  (None, 32, 32, 512)       0         
_________________________________________________________________
dropout_196 (Dropout)        (None, 32, 32, 512)       0         
_________________________________________________________________
separable_conv2d_136 (Separa (None, 32, 32, 32)        21024     
_________________________________________________________________
activation_197 (Activation)  (None, 32, 32, 32)        0         
_________________________________________________________________
dropout_197 (Dropout)        (None, 32, 32, 32)        0         
_________________________________________________________________
max_pooling2d_54 (MaxPooling (None, 16, 16, 32)        0         
_________________________________________________________________
flatten_68 (Flatten)         (None, 8192)              0         
_________________________________________________________________
dense_129 (Dense)            (None, 256)               2097408   
_________________________________________________________________
batch_normalization_130 (Bat (None, 256)               1024      
_________________________________________________________________
activation_198 (Activation)  (None, 256)               0         
_________________________________________________________________
dropout_198 (Dropout)        (None, 256)               0         
_________________________________________________________________
dense_130 (Dense)            (None, 10)                2570      
=================================================================
Total params: 2,126,149
Trainable params: 2,124,613
Non-trainable params: 1,536
_________________________________________________________________
