Model: "sequential_376"
_________________________________________________________________
Layer (type)                 Output Shape              Param #   
=================================================================
separable_conv2d_714 (Separa (None, 32, 32, 32)        155       
_________________________________________________________________
batch_normalization_706 (Bat (None, 32, 32, 32)        128       
_________________________________________________________________
activation_1057 (Activation) (None, 32, 32, 32)        0         
_________________________________________________________________
dropout_1057 (Dropout)       (None, 32, 32, 32)        0         
_________________________________________________________________
separable_conv2d_715 (Separa (None, 32, 32, 128)       4512      
_________________________________________________________________
activation_1058 (Activation) (None, 32, 32, 128)       0         
_________________________________________________________________
dropout_1058 (Dropout)       (None, 32, 32, 128)       0         
_________________________________________________________________
flatten_376 (Flatten)        (None, 131072)            0         
_________________________________________________________________
dense_719 (Dense)            (None, 512)               67109376  
_________________________________________________________________
batch_normalization_707 (Bat (None, 512)               2048      
_________________________________________________________________
activation_1059 (Activation) (None, 512)               0         
_________________________________________________________________
dropout_1059 (Dropout)       (None, 512)               0         
_________________________________________________________________
dense_720 (Dense)            (None, 10)                5130      
=================================================================
Total params: 67,121,349
Trainable params: 67,120,261
Non-trainable params: 1,088
_________________________________________________________________
