Model: "sequential_264"
_________________________________________________________________
Layer (type)                 Output Shape              Param #   
=================================================================
separable_conv2d_521 (Separa (None, 32, 32, 512)       2075      
_________________________________________________________________
batch_normalization_509 (Bat (None, 32, 32, 512)       2048      
_________________________________________________________________
activation_773 (Activation)  (None, 32, 32, 512)       0         
_________________________________________________________________
dropout_773 (Dropout)        (None, 32, 32, 512)       0         
_________________________________________________________________
separable_conv2d_522 (Separa (None, 32, 32, 32)        21024     
_________________________________________________________________
activation_774 (Activation)  (None, 32, 32, 32)        0         
_________________________________________________________________
dropout_774 (Dropout)        (None, 32, 32, 32)        0         
_________________________________________________________________
flatten_264 (Flatten)        (None, 32768)             0         
_________________________________________________________________
dense_516 (Dense)            (None, 256)               8388864   
_________________________________________________________________
batch_normalization_510 (Bat (None, 256)               1024      
_________________________________________________________________
activation_775 (Activation)  (None, 256)               0         
_________________________________________________________________
dropout_775 (Dropout)        (None, 256)               0         
_________________________________________________________________
dense_517 (Dense)            (None, 10)                2570      
=================================================================
Total params: 8,417,605
Trainable params: 8,416,069
Non-trainable params: 1,536
_________________________________________________________________
