Model: "sequential_289"
_________________________________________________________________
Layer (type)                 Output Shape              Param #   
=================================================================
separable_conv2d_564 (Separa (None, 32, 32, 16)        91        
_________________________________________________________________
batch_normalization_551 (Bat (None, 32, 32, 16)        64        
_________________________________________________________________
activation_836 (Activation)  (None, 32, 32, 16)        0         
_________________________________________________________________
dropout_836 (Dropout)        (None, 32, 32, 16)        0         
_________________________________________________________________
flatten_289 (Flatten)        (None, 16384)             0         
_________________________________________________________________
dense_561 (Dense)            (None, 128)               2097280   
_________________________________________________________________
activation_837 (Activation)  (None, 128)               0         
_________________________________________________________________
dropout_837 (Dropout)        (None, 128)               0         
_________________________________________________________________
dense_562 (Dense)            (None, 10)                1290      
=================================================================
Total params: 2,098,725
Trainable params: 2,098,693
Non-trainable params: 32
_________________________________________________________________
