Model: "sequential_377"
_________________________________________________________________
Layer (type)                 Output Shape              Param #   
=================================================================
separable_conv2d_716 (Separa (None, 32, 32, 512)       2075      
_________________________________________________________________
batch_normalization_708 (Bat (None, 32, 32, 512)       2048      
_________________________________________________________________
activation_1060 (Activation) (None, 32, 32, 512)       0         
_________________________________________________________________
dropout_1060 (Dropout)       (None, 32, 32, 512)       0         
_________________________________________________________________
separable_conv2d_717 (Separa (None, 32, 32, 8)         8712      
_________________________________________________________________
batch_normalization_709 (Bat (None, 32, 32, 8)         32        
_________________________________________________________________
activation_1061 (Activation) (None, 32, 32, 8)         0         
_________________________________________________________________
dropout_1061 (Dropout)       (None, 32, 32, 8)         0         
_________________________________________________________________
max_pooling2d_275 (MaxPoolin (None, 16, 16, 8)         0         
_________________________________________________________________
flatten_377 (Flatten)        (None, 2048)              0         
_________________________________________________________________
dense_721 (Dense)            (None, 128)               262272    
_________________________________________________________________
batch_normalization_710 (Bat (None, 128)               512       
_________________________________________________________________
activation_1062 (Activation) (None, 128)               0         
_________________________________________________________________
dropout_1062 (Dropout)       (None, 128)               0         
_________________________________________________________________
dense_722 (Dense)            (None, 10)                1290      
=================================================================
Total params: 276,941
Trainable params: 275,645
Non-trainable params: 1,296
_________________________________________________________________
