Model: "sequential_151"
_________________________________________________________________
Layer (type)                 Output Shape              Param #   
=================================================================
separable_conv2d_298 (Separa (None, 32, 32, 512)       2075      
_________________________________________________________________
batch_normalization_294 (Bat (None, 32, 32, 512)       2048      
_________________________________________________________________
activation_440 (Activation)  (None, 32, 32, 512)       0         
_________________________________________________________________
dropout_440 (Dropout)        (None, 32, 32, 512)       0         
_________________________________________________________________
separable_conv2d_299 (Separa (None, 32, 32, 128)       70272     
_________________________________________________________________
activation_441 (Activation)  (None, 32, 32, 128)       0         
_________________________________________________________________
dropout_441 (Dropout)        (None, 32, 32, 128)       0         
_________________________________________________________________
max_pooling2d_131 (MaxPoolin (None, 16, 16, 128)       0         
_________________________________________________________________
flatten_151 (Flatten)        (None, 32768)             0         
_________________________________________________________________
dense_293 (Dense)            (None, 128)               4194432   
_________________________________________________________________
batch_normalization_295 (Bat (None, 128)               512       
_________________________________________________________________
activation_442 (Activation)  (None, 128)               0         
_________________________________________________________________
dropout_442 (Dropout)        (None, 128)               0         
_________________________________________________________________
dense_294 (Dense)            (None, 10)                1290      
=================================================================
Total params: 4,270,629
Trainable params: 4,269,349
Non-trainable params: 1,280
_________________________________________________________________
