Model: "sequential_118"
_________________________________________________________________
Layer (type)                 Output Shape              Param #   
=================================================================
separable_conv2d_232 (Separa (None, 32, 32, 512)       2075      
_________________________________________________________________
batch_normalization_224 (Bat (None, 32, 32, 512)       2048      
_________________________________________________________________
activation_342 (Activation)  (None, 32, 32, 512)       0         
_________________________________________________________________
dropout_342 (Dropout)        (None, 32, 32, 512)       0         
_________________________________________________________________
separable_conv2d_233 (Separa (None, 32, 32, 32)        21024     
_________________________________________________________________
activation_343 (Activation)  (None, 32, 32, 32)        0         
_________________________________________________________________
dropout_343 (Dropout)        (None, 32, 32, 32)        0         
_________________________________________________________________
max_pooling2d_98 (MaxPooling (None, 16, 16, 32)        0         
_________________________________________________________________
flatten_118 (Flatten)        (None, 8192)              0         
_________________________________________________________________
dense_228 (Dense)            (None, 256)               2097408   
_________________________________________________________________
batch_normalization_225 (Bat (None, 256)               1024      
_________________________________________________________________
activation_344 (Activation)  (None, 256)               0         
_________________________________________________________________
dropout_344 (Dropout)        (None, 256)               0         
_________________________________________________________________
dense_229 (Dense)            (None, 10)                2570      
=================================================================
Total params: 2,126,149
Trainable params: 2,124,613
Non-trainable params: 1,536
_________________________________________________________________
