Model: "sequential_71"
_________________________________________________________________
Layer (type)                 Output Shape              Param #   
=================================================================
separable_conv2d_141 (Separa (None, 32, 32, 512)       2075      
_________________________________________________________________
batch_normalization_135 (Bat (None, 32, 32, 512)       2048      
_________________________________________________________________
activation_205 (Activation)  (None, 32, 32, 512)       0         
_________________________________________________________________
dropout_205 (Dropout)        (None, 32, 32, 512)       0         
_________________________________________________________________
separable_conv2d_142 (Separa (None, 32, 32, 32)        21024     
_________________________________________________________________
activation_206 (Activation)  (None, 32, 32, 32)        0         
_________________________________________________________________
dropout_206 (Dropout)        (None, 32, 32, 32)        0         
_________________________________________________________________
max_pooling2d_56 (MaxPooling (None, 16, 16, 32)        0         
_________________________________________________________________
flatten_71 (Flatten)         (None, 8192)              0         
_________________________________________________________________
dense_135 (Dense)            (None, 256)               2097408   
_________________________________________________________________
batch_normalization_136 (Bat (None, 256)               1024      
_________________________________________________________________
activation_207 (Activation)  (None, 256)               0         
_________________________________________________________________
dropout_207 (Dropout)        (None, 256)               0         
_________________________________________________________________
dense_136 (Dense)            (None, 10)                2570      
=================================================================
Total params: 2,126,149
Trainable params: 2,124,613
Non-trainable params: 1,536
_________________________________________________________________
