Model: "sequential_7"
_________________________________________________________________
Layer (type)                 Output Shape              Param #   
=================================================================
separable_conv2d_21 (Separab (None, 32, 32, 8)         59        
_________________________________________________________________
activation_25 (Activation)   (None, 32, 32, 8)         0         
_________________________________________________________________
dropout_25 (Dropout)         (None, 32, 32, 8)         0         
_________________________________________________________________
flatten_7 (Flatten)          (None, 8192)              0         
_________________________________________________________________
dense_11 (Dense)             (None, 128)               1048704   
_________________________________________________________________
batch_normalization_14 (Batc (None, 128)               512       
_________________________________________________________________
activation_26 (Activation)   (None, 128)               0         
_________________________________________________________________
dropout_26 (Dropout)         (None, 128)               0         
_________________________________________________________________
dense_12 (Dense)             (None, 10)                1290      
=================================================================
Total params: 1,050,565
Trainable params: 1,050,309
Non-trainable params: 256
_________________________________________________________________
