Model: "sequential_20"
_________________________________________________________________
Layer (type)                 Output Shape              Param #   
=================================================================
separable_conv2d_48 (Separab (None, 32, 32, 8)         59        
_________________________________________________________________
batch_normalization_37 (Batc (None, 32, 32, 8)         32        
_________________________________________________________________
activation_63 (Activation)   (None, 32, 32, 8)         0         
_________________________________________________________________
dropout_63 (Dropout)         (None, 32, 32, 8)         0         
_________________________________________________________________
flatten_20 (Flatten)         (None, 8192)              0         
_________________________________________________________________
dense_35 (Dense)             (None, 256)               2097408   
_________________________________________________________________
batch_normalization_38 (Batc (None, 256)               1024      
_________________________________________________________________
activation_64 (Activation)   (None, 256)               0         
_________________________________________________________________
dropout_64 (Dropout)         (None, 256)               0         
_________________________________________________________________
dense_36 (Dense)             (None, 10)                2570      
=================================================================
Total params: 2,101,093
Trainable params: 2,100,565
Non-trainable params: 528
_________________________________________________________________
