Model: "sequential_219"
_________________________________________________________________
Layer (type)                 Output Shape              Param #   
=================================================================
separable_conv2d_434 (Separa (None, 32, 32, 512)       2075      
_________________________________________________________________
batch_normalization_428 (Bat (None, 32, 32, 512)       2048      
_________________________________________________________________
activation_644 (Activation)  (None, 32, 32, 512)       0         
_________________________________________________________________
dropout_644 (Dropout)        (None, 32, 32, 512)       0         
_________________________________________________________________
separable_conv2d_435 (Separa (None, 32, 32, 128)       70272     
_________________________________________________________________
activation_645 (Activation)  (None, 32, 32, 128)       0         
_________________________________________________________________
dropout_645 (Dropout)        (None, 32, 32, 128)       0         
_________________________________________________________________
max_pooling2d_200 (MaxPoolin (None, 16, 16, 128)       0         
_________________________________________________________________
flatten_219 (Flatten)        (None, 32768)             0         
_________________________________________________________________
dense_429 (Dense)            (None, 128)               4194432   
_________________________________________________________________
batch_normalization_429 (Bat (None, 128)               512       
_________________________________________________________________
activation_646 (Activation)  (None, 128)               0         
_________________________________________________________________
dropout_646 (Dropout)        (None, 128)               0         
_________________________________________________________________
dense_430 (Dense)            (None, 10)                1290      
=================================================================
Total params: 4,270,629
Trainable params: 4,269,349
Non-trainable params: 1,280
_________________________________________________________________
