Model: "sequential_136"
_________________________________________________________________
Layer (type)                 Output Shape              Param #   
=================================================================
separable_conv2d_268 (Separa (None, 32, 32, 512)       2075      
_________________________________________________________________
batch_normalization_262 (Bat (None, 32, 32, 512)       2048      
_________________________________________________________________
activation_395 (Activation)  (None, 32, 32, 512)       0         
_________________________________________________________________
dropout_395 (Dropout)        (None, 32, 32, 512)       0         
_________________________________________________________________
separable_conv2d_269 (Separa (None, 32, 32, 32)        21024     
_________________________________________________________________
activation_396 (Activation)  (None, 32, 32, 32)        0         
_________________________________________________________________
dropout_396 (Dropout)        (None, 32, 32, 32)        0         
_________________________________________________________________
max_pooling2d_116 (MaxPoolin (None, 16, 16, 32)        0         
_________________________________________________________________
flatten_136 (Flatten)        (None, 8192)              0         
_________________________________________________________________
dense_263 (Dense)            (None, 256)               2097408   
_________________________________________________________________
batch_normalization_263 (Bat (None, 256)               1024      
_________________________________________________________________
activation_397 (Activation)  (None, 256)               0         
_________________________________________________________________
dropout_397 (Dropout)        (None, 256)               0         
_________________________________________________________________
dense_264 (Dense)            (None, 10)                2570      
=================================================================
Total params: 2,126,149
Trainable params: 2,124,613
Non-trainable params: 1,536
_________________________________________________________________
