Model: "sequential_159"
_________________________________________________________________
Layer (type)                 Output Shape              Param #   
=================================================================
separable_conv2d_314 (Separa (None, 32, 32, 512)       2075      
_________________________________________________________________
batch_normalization_311 (Bat (None, 32, 32, 512)       2048      
_________________________________________________________________
activation_464 (Activation)  (None, 32, 32, 512)       0         
_________________________________________________________________
dropout_464 (Dropout)        (None, 32, 32, 512)       0         
_________________________________________________________________
separable_conv2d_315 (Separa (None, 32, 32, 32)        21024     
_________________________________________________________________
activation_465 (Activation)  (None, 32, 32, 32)        0         
_________________________________________________________________
dropout_465 (Dropout)        (None, 32, 32, 32)        0         
_________________________________________________________________
max_pooling2d_138 (MaxPoolin (None, 16, 16, 32)        0         
_________________________________________________________________
flatten_159 (Flatten)        (None, 8192)              0         
_________________________________________________________________
dense_309 (Dense)            (None, 256)               2097408   
_________________________________________________________________
batch_normalization_312 (Bat (None, 256)               1024      
_________________________________________________________________
activation_466 (Activation)  (None, 256)               0         
_________________________________________________________________
dropout_466 (Dropout)        (None, 256)               0         
_________________________________________________________________
dense_310 (Dense)            (None, 10)                2570      
=================================================================
Total params: 2,126,149
Trainable params: 2,124,613
Non-trainable params: 1,536
_________________________________________________________________
