Model: "sequential_385"
_________________________________________________________________
Layer (type)                 Output Shape              Param #   
=================================================================
separable_conv2d_732 (Separa (None, 32, 32, 32)        155       
_________________________________________________________________
activation_1083 (Activation) (None, 32, 32, 32)        0         
_________________________________________________________________
dropout_1083 (Dropout)       (None, 32, 32, 32)        0         
_________________________________________________________________
separable_conv2d_733 (Separa (None, 32, 32, 16)        816       
_________________________________________________________________
activation_1084 (Activation) (None, 32, 32, 16)        0         
_________________________________________________________________
dropout_1084 (Dropout)       (None, 32, 32, 16)        0         
_________________________________________________________________
flatten_385 (Flatten)        (None, 16384)             0         
_________________________________________________________________
dense_736 (Dense)            (None, 1024)              16778240  
_________________________________________________________________
batch_normalization_722 (Bat (None, 1024)              4096      
_________________________________________________________________
activation_1085 (Activation) (None, 1024)              0         
_________________________________________________________________
dropout_1085 (Dropout)       (None, 1024)              0         
_________________________________________________________________
dense_737 (Dense)            (None, 10)                10250     
=================================================================
Total params: 16,793,557
Trainable params: 16,791,509
Non-trainable params: 2,048
_________________________________________________________________
