Model: "sequential_109"
_________________________________________________________________
Layer (type)                 Output Shape              Param #   
=================================================================
separable_conv2d_214 (Separa (None, 32, 32, 512)       2075      
_________________________________________________________________
batch_normalization_205 (Bat (None, 32, 32, 512)       2048      
_________________________________________________________________
activation_315 (Activation)  (None, 32, 32, 512)       0         
_________________________________________________________________
dropout_315 (Dropout)        (None, 32, 32, 512)       0         
_________________________________________________________________
separable_conv2d_215 (Separa (None, 32, 32, 32)        21024     
_________________________________________________________________
activation_316 (Activation)  (None, 32, 32, 32)        0         
_________________________________________________________________
dropout_316 (Dropout)        (None, 32, 32, 32)        0         
_________________________________________________________________
max_pooling2d_89 (MaxPooling (None, 16, 16, 32)        0         
_________________________________________________________________
flatten_109 (Flatten)        (None, 8192)              0         
_________________________________________________________________
dense_210 (Dense)            (None, 256)               2097408   
_________________________________________________________________
batch_normalization_206 (Bat (None, 256)               1024      
_________________________________________________________________
activation_317 (Activation)  (None, 256)               0         
_________________________________________________________________
dropout_317 (Dropout)        (None, 256)               0         
_________________________________________________________________
dense_211 (Dense)            (None, 10)                2570      
=================================================================
Total params: 2,126,149
Trainable params: 2,124,613
Non-trainable params: 1,536
_________________________________________________________________
