Model: "sequential_307"
_________________________________________________________________
Layer (type)                 Output Shape              Param #   
=================================================================
separable_conv2d_594 (Separa (None, 32, 32, 512)       2075      
_________________________________________________________________
batch_normalization_586 (Bat (None, 32, 32, 512)       2048      
_________________________________________________________________
activation_883 (Activation)  (None, 32, 32, 512)       0         
_________________________________________________________________
dropout_883 (Dropout)        (None, 32, 32, 512)       0         
_________________________________________________________________
max_pooling2d_251 (MaxPoolin (None, 16, 16, 512)       0         
_________________________________________________________________
flatten_307 (Flatten)        (None, 131072)            0         
_________________________________________________________________
dense_596 (Dense)            (None, 128)               16777344  
_________________________________________________________________
batch_normalization_587 (Bat (None, 128)               512       
_________________________________________________________________
activation_884 (Activation)  (None, 128)               0         
_________________________________________________________________
dropout_884 (Dropout)        (None, 128)               0         
_________________________________________________________________
dense_597 (Dense)            (None, 10)                1290      
=================================================================
Total params: 16,783,269
Trainable params: 16,781,989
Non-trainable params: 1,280
_________________________________________________________________
