Model: "sequential_82"
_________________________________________________________________
Layer (type)                 Output Shape              Param #   
=================================================================
separable_conv2d_161 (Separa (None, 32, 32, 512)       2075      
_________________________________________________________________
batch_normalization_156 (Bat (None, 32, 32, 512)       2048      
_________________________________________________________________
activation_236 (Activation)  (None, 32, 32, 512)       0         
_________________________________________________________________
dropout_236 (Dropout)        (None, 32, 32, 512)       0         
_________________________________________________________________
separable_conv2d_162 (Separa (None, 32, 32, 32)        21024     
_________________________________________________________________
activation_237 (Activation)  (None, 32, 32, 32)        0         
_________________________________________________________________
dropout_237 (Dropout)        (None, 32, 32, 32)        0         
_________________________________________________________________
max_pooling2d_65 (MaxPooling (None, 16, 16, 32)        0         
_________________________________________________________________
flatten_82 (Flatten)         (None, 8192)              0         
_________________________________________________________________
dense_157 (Dense)            (None, 256)               2097408   
_________________________________________________________________
batch_normalization_157 (Bat (None, 256)               1024      
_________________________________________________________________
activation_238 (Activation)  (None, 256)               0         
_________________________________________________________________
dropout_238 (Dropout)        (None, 256)               0         
_________________________________________________________________
dense_158 (Dense)            (None, 10)                2570      
=================================================================
Total params: 2,126,149
Trainable params: 2,124,613
Non-trainable params: 1,536
_________________________________________________________________
