Model: "sequential_280"
_________________________________________________________________
Layer (type)                 Output Shape              Param #   
=================================================================
separable_conv2d_549 (Separa (None, 32, 32, 512)       2075      
_________________________________________________________________
batch_normalization_537 (Bat (None, 32, 32, 512)       2048      
_________________________________________________________________
activation_814 (Activation)  (None, 32, 32, 512)       0         
_________________________________________________________________
dropout_814 (Dropout)        (None, 32, 32, 512)       0         
_________________________________________________________________
flatten_280 (Flatten)        (None, 524288)            0         
_________________________________________________________________
dense_545 (Dense)            (None, 128)               67108992  
_________________________________________________________________
batch_normalization_538 (Bat (None, 128)               512       
_________________________________________________________________
activation_815 (Activation)  (None, 128)               0         
_________________________________________________________________
dropout_815 (Dropout)        (None, 128)               0         
_________________________________________________________________
dense_546 (Dense)            (None, 10)                1290      
=================================================================
Total params: 67,114,917
Trainable params: 67,113,637
Non-trainable params: 1,280
_________________________________________________________________
