Model: "sequential_52"
_________________________________________________________________
Layer (type)                 Output Shape              Param #   
=================================================================
separable_conv2d_105 (Separa (None, 32, 32, 512)       2075      
_________________________________________________________________
activation_152 (Activation)  (None, 32, 32, 512)       0         
_________________________________________________________________
dropout_152 (Dropout)        (None, 32, 32, 512)       0         
_________________________________________________________________
separable_conv2d_106 (Separa (None, 32, 32, 32)        21024     
_________________________________________________________________
activation_153 (Activation)  (None, 32, 32, 32)        0         
_________________________________________________________________
dropout_153 (Dropout)        (None, 32, 32, 32)        0         
_________________________________________________________________
max_pooling2d_39 (MaxPooling (None, 16, 16, 32)        0         
_________________________________________________________________
flatten_52 (Flatten)         (None, 8192)              0         
_________________________________________________________________
dense_99 (Dense)             (None, 10)                81930     
=================================================================
Total params: 105,029
Trainable params: 105,029
Non-trainable params: 0
_________________________________________________________________
