Model: "sequential_27"
_________________________________________________________________
Layer (type)                 Output Shape              Param #   
=================================================================
separable_conv2d_61 (Separab (None, 32, 32, 512)       2075      
_________________________________________________________________
batch_normalization_51 (Batc (None, 32, 32, 512)       2048      
_________________________________________________________________
activation_83 (Activation)   (None, 32, 32, 512)       0         
_________________________________________________________________
dropout_83 (Dropout)         (None, 32, 32, 512)       0         
_________________________________________________________________
separable_conv2d_62 (Separab (None, 32, 32, 32)        21024     
_________________________________________________________________
activation_84 (Activation)   (None, 32, 32, 32)        0         
_________________________________________________________________
dropout_84 (Dropout)         (None, 32, 32, 32)        0         
_________________________________________________________________
max_pooling2d_23 (MaxPooling (None, 16, 16, 32)        0         
_________________________________________________________________
flatten_27 (Flatten)         (None, 8192)              0         
_________________________________________________________________
dense_49 (Dense)             (None, 256)               2097408   
_________________________________________________________________
batch_normalization_52 (Batc (None, 256)               1024      
_________________________________________________________________
activation_85 (Activation)   (None, 256)               0         
_________________________________________________________________
dropout_85 (Dropout)         (None, 256)               0         
_________________________________________________________________
dense_50 (Dense)             (None, 10)                2570      
=================================================================
Total params: 2,126,149
Trainable params: 2,124,613
Non-trainable params: 1,536
_________________________________________________________________
