Model: "sequential_50"
_________________________________________________________________
Layer (type)                 Output Shape              Param #   
=================================================================
separable_conv2d_101 (Separa (None, 32, 32, 512)       2075      
_________________________________________________________________
batch_normalization_97 (Batc (None, 32, 32, 512)       2048      
_________________________________________________________________
activation_146 (Activation)  (None, 32, 32, 512)       0         
_________________________________________________________________
dropout_146 (Dropout)        (None, 32, 32, 512)       0         
_________________________________________________________________
separable_conv2d_102 (Separa (None, 32, 32, 32)        21024     
_________________________________________________________________
activation_147 (Activation)  (None, 32, 32, 32)        0         
_________________________________________________________________
dropout_147 (Dropout)        (None, 32, 32, 32)        0         
_________________________________________________________________
max_pooling2d_37 (MaxPooling (None, 16, 16, 32)        0         
_________________________________________________________________
flatten_50 (Flatten)         (None, 8192)              0         
_________________________________________________________________
dense_95 (Dense)             (None, 256)               2097408   
_________________________________________________________________
batch_normalization_98 (Batc (None, 256)               1024      
_________________________________________________________________
activation_148 (Activation)  (None, 256)               0         
_________________________________________________________________
dropout_148 (Dropout)        (None, 256)               0         
_________________________________________________________________
dense_96 (Dense)             (None, 10)                2570      
=================================================================
Total params: 2,126,149
Trainable params: 2,124,613
Non-trainable params: 1,536
_________________________________________________________________
