Model: "sequential_278"
_________________________________________________________________
Layer (type)                 Output Shape              Param #   
=================================================================
separable_conv2d_545 (Separa (None, 32, 32, 512)       2075      
_________________________________________________________________
batch_normalization_533 (Bat (None, 32, 32, 512)       2048      
_________________________________________________________________
activation_808 (Activation)  (None, 32, 32, 512)       0         
_________________________________________________________________
dropout_808 (Dropout)        (None, 32, 32, 512)       0         
_________________________________________________________________
separable_conv2d_546 (Separa (None, 32, 32, 32)        21024     
_________________________________________________________________
activation_809 (Activation)  (None, 32, 32, 32)        0         
_________________________________________________________________
dropout_809 (Dropout)        (None, 32, 32, 32)        0         
_________________________________________________________________
flatten_278 (Flatten)        (None, 32768)             0         
_________________________________________________________________
dense_541 (Dense)            (None, 128)               4194432   
_________________________________________________________________
batch_normalization_534 (Bat (None, 128)               512       
_________________________________________________________________
activation_810 (Activation)  (None, 128)               0         
_________________________________________________________________
dropout_810 (Dropout)        (None, 128)               0         
_________________________________________________________________
dense_542 (Dense)            (None, 10)                1290      
=================================================================
Total params: 4,221,381
Trainable params: 4,220,101
Non-trainable params: 1,280
_________________________________________________________________
