Model: "sequential_321"
_________________________________________________________________
Layer (type)                 Output Shape              Param #   
=================================================================
separable_conv2d_617 (Separa (None, 32, 32, 16)        91        
_________________________________________________________________
batch_normalization_613 (Bat (None, 32, 32, 16)        64        
_________________________________________________________________
activation_919 (Activation)  (None, 32, 32, 16)        0         
_________________________________________________________________
dropout_919 (Dropout)        (None, 32, 32, 16)        0         
_________________________________________________________________
flatten_321 (Flatten)        (None, 16384)             0         
_________________________________________________________________
dense_623 (Dense)            (None, 16)                262160    
_________________________________________________________________
activation_920 (Activation)  (None, 16)                0         
_________________________________________________________________
dropout_920 (Dropout)        (None, 16)                0         
_________________________________________________________________
dense_624 (Dense)            (None, 10)                170       
=================================================================
Total params: 262,485
Trainable params: 262,453
Non-trainable params: 32
_________________________________________________________________
