Model: "sequential_397"
_________________________________________________________________
Layer (type)                 Output Shape              Param #   
=================================================================
separable_conv2d_754 (Separa (None, 32, 32, 256)       1051      
_________________________________________________________________
batch_normalization_740 (Bat (None, 32, 32, 256)       1024      
_________________________________________________________________
activation_1114 (Activation) (None, 32, 32, 256)       0         
_________________________________________________________________
dropout_1114 (Dropout)       (None, 32, 32, 256)       0         
_________________________________________________________________
separable_conv2d_755 (Separa (None, 32, 32, 8)         4360      
_________________________________________________________________
activation_1115 (Activation) (None, 32, 32, 8)         0         
_________________________________________________________________
dropout_1115 (Dropout)       (None, 32, 32, 8)         0         
_________________________________________________________________
flatten_397 (Flatten)        (None, 8192)              0         
_________________________________________________________________
dense_757 (Dense)            (None, 512)               4194816   
_________________________________________________________________
activation_1116 (Activation) (None, 512)               0         
_________________________________________________________________
dropout_1116 (Dropout)       (None, 512)               0         
_________________________________________________________________
dense_758 (Dense)            (None, 10)                5130      
=================================================================
Total params: 4,206,381
Trainable params: 4,205,869
Non-trainable params: 512
_________________________________________________________________
