Model: "sequential_258"
_________________________________________________________________
Layer (type)                 Output Shape              Param #   
=================================================================
separable_conv2d_511 (Separa (None, 32, 32, 512)       2075      
_________________________________________________________________
batch_normalization_499 (Bat (None, 32, 32, 512)       2048      
_________________________________________________________________
activation_757 (Activation)  (None, 32, 32, 512)       0         
_________________________________________________________________
dropout_757 (Dropout)        (None, 32, 32, 512)       0         
_________________________________________________________________
flatten_258 (Flatten)        (None, 524288)            0         
_________________________________________________________________
dense_504 (Dense)            (None, 1024)              536871936 
_________________________________________________________________
batch_normalization_500 (Bat (None, 1024)              4096      
_________________________________________________________________
activation_758 (Activation)  (None, 1024)              0         
_________________________________________________________________
dropout_758 (Dropout)        (None, 1024)              0         
_________________________________________________________________
dense_505 (Dense)            (None, 10)                10250     
=================================================================
Total params: 536,890,405
Trainable params: 536,887,333
Non-trainable params: 3,072
_________________________________________________________________
