Model: "sequential_222"
_________________________________________________________________
Layer (type)                 Output Shape              Param #   
=================================================================
separable_conv2d_440 (Separa (None, 32, 32, 512)       2075      
_________________________________________________________________
batch_normalization_434 (Bat (None, 32, 32, 512)       2048      
_________________________________________________________________
activation_653 (Activation)  (None, 32, 32, 512)       0         
_________________________________________________________________
dropout_653 (Dropout)        (None, 32, 32, 512)       0         
_________________________________________________________________
separable_conv2d_441 (Separa (None, 32, 32, 128)       70272     
_________________________________________________________________
activation_654 (Activation)  (None, 32, 32, 128)       0         
_________________________________________________________________
dropout_654 (Dropout)        (None, 32, 32, 128)       0         
_________________________________________________________________
max_pooling2d_204 (MaxPoolin (None, 16, 16, 128)       0         
_________________________________________________________________
flatten_222 (Flatten)        (None, 32768)             0         
_________________________________________________________________
dense_435 (Dense)            (None, 128)               4194432   
_________________________________________________________________
batch_normalization_435 (Bat (None, 128)               512       
_________________________________________________________________
activation_655 (Activation)  (None, 128)               0         
_________________________________________________________________
dropout_655 (Dropout)        (None, 128)               0         
_________________________________________________________________
dense_436 (Dense)            (None, 10)                1290      
=================================================================
Total params: 4,270,629
Trainable params: 4,269,349
Non-trainable params: 1,280
_________________________________________________________________
