Model: "sequential_127"
_________________________________________________________________
Layer (type)                 Output Shape              Param #   
=================================================================
separable_conv2d_250 (Separa (None, 32, 32, 512)       2075      
_________________________________________________________________
batch_normalization_243 (Bat (None, 32, 32, 512)       2048      
_________________________________________________________________
activation_369 (Activation)  (None, 32, 32, 512)       0         
_________________________________________________________________
dropout_369 (Dropout)        (None, 32, 32, 512)       0         
_________________________________________________________________
separable_conv2d_251 (Separa (None, 32, 32, 32)        21024     
_________________________________________________________________
activation_370 (Activation)  (None, 32, 32, 32)        0         
_________________________________________________________________
dropout_370 (Dropout)        (None, 32, 32, 32)        0         
_________________________________________________________________
max_pooling2d_107 (MaxPoolin (None, 16, 16, 32)        0         
_________________________________________________________________
flatten_127 (Flatten)        (None, 8192)              0         
_________________________________________________________________
dense_246 (Dense)            (None, 256)               2097408   
_________________________________________________________________
batch_normalization_244 (Bat (None, 256)               1024      
_________________________________________________________________
activation_371 (Activation)  (None, 256)               0         
_________________________________________________________________
dropout_371 (Dropout)        (None, 256)               0         
_________________________________________________________________
dense_247 (Dense)            (None, 10)                2570      
=================================================================
Total params: 2,126,149
Trainable params: 2,124,613
Non-trainable params: 1,536
_________________________________________________________________
