Model: "sequential_104"
_________________________________________________________________
Layer (type)                 Output Shape              Param #   
=================================================================
separable_conv2d_204 (Separa (None, 32, 32, 512)       2075      
_________________________________________________________________
batch_normalization_195 (Bat (None, 32, 32, 512)       2048      
_________________________________________________________________
activation_300 (Activation)  (None, 32, 32, 512)       0         
_________________________________________________________________
dropout_300 (Dropout)        (None, 32, 32, 512)       0         
_________________________________________________________________
separable_conv2d_205 (Separa (None, 32, 32, 32)        21024     
_________________________________________________________________
activation_301 (Activation)  (None, 32, 32, 32)        0         
_________________________________________________________________
dropout_301 (Dropout)        (None, 32, 32, 32)        0         
_________________________________________________________________
max_pooling2d_84 (MaxPooling (None, 16, 16, 32)        0         
_________________________________________________________________
flatten_104 (Flatten)        (None, 8192)              0         
_________________________________________________________________
dense_200 (Dense)            (None, 256)               2097408   
_________________________________________________________________
batch_normalization_196 (Bat (None, 256)               1024      
_________________________________________________________________
activation_302 (Activation)  (None, 256)               0         
_________________________________________________________________
dropout_302 (Dropout)        (None, 256)               0         
_________________________________________________________________
dense_201 (Dense)            (None, 10)                2570      
=================================================================
Total params: 2,126,149
Trainable params: 2,124,613
Non-trainable params: 1,536
_________________________________________________________________
