Model: "sequential_269"
_________________________________________________________________
Layer (type)                 Output Shape              Param #   
=================================================================
separable_conv2d_530 (Separa (None, 32, 32, 512)       2075      
_________________________________________________________________
batch_normalization_519 (Bat (None, 32, 32, 512)       2048      
_________________________________________________________________
activation_787 (Activation)  (None, 32, 32, 512)       0         
_________________________________________________________________
dropout_787 (Dropout)        (None, 32, 32, 512)       0         
_________________________________________________________________
separable_conv2d_531 (Separa (None, 32, 32, 32)        21024     
_________________________________________________________________
activation_788 (Activation)  (None, 32, 32, 32)        0         
_________________________________________________________________
dropout_788 (Dropout)        (None, 32, 32, 32)        0         
_________________________________________________________________
flatten_269 (Flatten)        (None, 32768)             0         
_________________________________________________________________
dense_526 (Dense)            (None, 10)                327690    
=================================================================
Total params: 352,837
Trainable params: 351,813
Non-trainable params: 1,024
_________________________________________________________________
