Model: "sequential_243"
_________________________________________________________________
Layer (type)                 Output Shape              Param #   
=================================================================
separable_conv2d_482 (Separa (None, 32, 32, 512)       2075      
_________________________________________________________________
batch_normalization_472 (Bat (None, 32, 32, 512)       2048      
_________________________________________________________________
activation_714 (Activation)  (None, 32, 32, 512)       0         
_________________________________________________________________
dropout_714 (Dropout)        (None, 32, 32, 512)       0         
_________________________________________________________________
separable_conv2d_483 (Separa (None, 32, 32, 32)        21024     
_________________________________________________________________
activation_715 (Activation)  (None, 32, 32, 32)        0         
_________________________________________________________________
dropout_715 (Dropout)        (None, 32, 32, 32)        0         
_________________________________________________________________
flatten_243 (Flatten)        (None, 32768)             0         
_________________________________________________________________
dense_475 (Dense)            (None, 128)               4194432   
_________________________________________________________________
batch_normalization_473 (Bat (None, 128)               512       
_________________________________________________________________
activation_716 (Activation)  (None, 128)               0         
_________________________________________________________________
dropout_716 (Dropout)        (None, 128)               0         
_________________________________________________________________
dense_476 (Dense)            (None, 10)                1290      
=================================================================
Total params: 4,221,381
Trainable params: 4,220,101
Non-trainable params: 1,280
_________________________________________________________________
