Model: "sequential_30"
_________________________________________________________________
Layer (type)                 Output Shape              Param #   
=================================================================
separable_conv2d_66 (Separab (None, 32, 32, 512)       2075      
_________________________________________________________________
batch_normalization_57 (Batc (None, 32, 32, 512)       2048      
_________________________________________________________________
activation_91 (Activation)   (None, 32, 32, 512)       0         
_________________________________________________________________
dropout_91 (Dropout)         (None, 32, 32, 512)       0         
_________________________________________________________________
flatten_30 (Flatten)         (None, 524288)            0         
_________________________________________________________________
dense_55 (Dense)             (None, 256)               134217984 
_________________________________________________________________
batch_normalization_58 (Batc (None, 256)               1024      
_________________________________________________________________
activation_92 (Activation)   (None, 256)               0         
_________________________________________________________________
dropout_92 (Dropout)         (None, 256)               0         
_________________________________________________________________
dense_56 (Dense)             (None, 10)                2570      
=================================================================
Total params: 134,225,701
Trainable params: 134,224,165
Non-trainable params: 1,536
_________________________________________________________________
