Model: "sequential_147"
_________________________________________________________________
Layer (type)                 Output Shape              Param #   
=================================================================
separable_conv2d_290 (Separa (None, 32, 32, 512)       2075      
_________________________________________________________________
batch_normalization_286 (Bat (None, 32, 32, 512)       2048      
_________________________________________________________________
activation_428 (Activation)  (None, 32, 32, 512)       0         
_________________________________________________________________
dropout_428 (Dropout)        (None, 32, 32, 512)       0         
_________________________________________________________________
separable_conv2d_291 (Separa (None, 32, 32, 128)       70272     
_________________________________________________________________
activation_429 (Activation)  (None, 32, 32, 128)       0         
_________________________________________________________________
dropout_429 (Dropout)        (None, 32, 32, 128)       0         
_________________________________________________________________
max_pooling2d_127 (MaxPoolin (None, 16, 16, 128)       0         
_________________________________________________________________
flatten_147 (Flatten)        (None, 32768)             0         
_________________________________________________________________
dense_285 (Dense)            (None, 128)               4194432   
_________________________________________________________________
batch_normalization_287 (Bat (None, 128)               512       
_________________________________________________________________
activation_430 (Activation)  (None, 128)               0         
_________________________________________________________________
dropout_430 (Dropout)        (None, 128)               0         
_________________________________________________________________
dense_286 (Dense)            (None, 10)                1290      
=================================================================
Total params: 4,270,629
Trainable params: 4,269,349
Non-trainable params: 1,280
_________________________________________________________________
