Model: "sequential_83"
_________________________________________________________________
Layer (type)                 Output Shape              Param #   
=================================================================
separable_conv2d_163 (Separa (None, 32, 32, 512)       2075      
_________________________________________________________________
batch_normalization_158 (Bat (None, 32, 32, 512)       2048      
_________________________________________________________________
activation_239 (Activation)  (None, 32, 32, 512)       0         
_________________________________________________________________
dropout_239 (Dropout)        (None, 32, 32, 512)       0         
_________________________________________________________________
separable_conv2d_164 (Separa (None, 32, 32, 32)        21024     
_________________________________________________________________
activation_240 (Activation)  (None, 32, 32, 32)        0         
_________________________________________________________________
dropout_240 (Dropout)        (None, 32, 32, 32)        0         
_________________________________________________________________
max_pooling2d_66 (MaxPooling (None, 16, 16, 32)        0         
_________________________________________________________________
flatten_83 (Flatten)         (None, 8192)              0         
_________________________________________________________________
dense_159 (Dense)            (None, 256)               2097408   
_________________________________________________________________
batch_normalization_159 (Bat (None, 256)               1024      
_________________________________________________________________
activation_241 (Activation)  (None, 256)               0         
_________________________________________________________________
dropout_241 (Dropout)        (None, 256)               0         
_________________________________________________________________
dense_160 (Dense)            (None, 10)                2570      
=================================================================
Total params: 2,126,149
Trainable params: 2,124,613
Non-trainable params: 1,536
_________________________________________________________________
