Model: "sequential_207"
_________________________________________________________________
Layer (type)                 Output Shape              Param #   
=================================================================
separable_conv2d_410 (Separa (None, 32, 32, 128)       539       
_________________________________________________________________
batch_normalization_405 (Bat (None, 32, 32, 128)       512       
_________________________________________________________________
activation_608 (Activation)  (None, 32, 32, 128)       0         
_________________________________________________________________
dropout_608 (Dropout)        (None, 32, 32, 128)       0         
_________________________________________________________________
separable_conv2d_411 (Separa (None, 32, 32, 128)       17664     
_________________________________________________________________
activation_609 (Activation)  (None, 32, 32, 128)       0         
_________________________________________________________________
dropout_609 (Dropout)        (None, 32, 32, 128)       0         
_________________________________________________________________
flatten_207 (Flatten)        (None, 131072)            0         
_________________________________________________________________
dense_405 (Dense)            (None, 32)                4194336   
_________________________________________________________________
batch_normalization_406 (Bat (None, 32)                128       
_________________________________________________________________
activation_610 (Activation)  (None, 32)                0         
_________________________________________________________________
dropout_610 (Dropout)        (None, 32)                0         
_________________________________________________________________
dense_406 (Dense)            (None, 10)                330       
=================================================================
Total params: 4,213,509
Trainable params: 4,213,189
Non-trainable params: 320
_________________________________________________________________
