Model: "sequential_353"
_________________________________________________________________
Layer (type)                 Output Shape              Param #   
=================================================================
separable_conv2d_671 (Separa (None, 32, 32, 512)       2075      
_________________________________________________________________
batch_normalization_664 (Bat (None, 32, 32, 512)       2048      
_________________________________________________________________
activation_995 (Activation)  (None, 32, 32, 512)       0         
_________________________________________________________________
dropout_995 (Dropout)        (None, 32, 32, 512)       0         
_________________________________________________________________
separable_conv2d_672 (Separa (None, 32, 32, 8)         8712      
_________________________________________________________________
activation_996 (Activation)  (None, 32, 32, 8)         0         
_________________________________________________________________
dropout_996 (Dropout)        (None, 32, 32, 8)         0         
_________________________________________________________________
flatten_353 (Flatten)        (None, 8192)              0         
_________________________________________________________________
dense_677 (Dense)            (None, 10)                81930     
=================================================================
Total params: 94,765
Trainable params: 93,741
Non-trainable params: 1,024
_________________________________________________________________
