Model: "sequential_260"
_________________________________________________________________
Layer (type)                 Output Shape              Param #   
=================================================================
separable_conv2d_514 (Separa (None, 32, 32, 128)       539       
_________________________________________________________________
batch_normalization_502 (Bat (None, 32, 32, 128)       512       
_________________________________________________________________
activation_762 (Activation)  (None, 32, 32, 128)       0         
_________________________________________________________________
dropout_762 (Dropout)        (None, 32, 32, 128)       0         
_________________________________________________________________
separable_conv2d_515 (Separa (None, 32, 32, 128)       17664     
_________________________________________________________________
activation_763 (Activation)  (None, 32, 32, 128)       0         
_________________________________________________________________
dropout_763 (Dropout)        (None, 32, 32, 128)       0         
_________________________________________________________________
flatten_260 (Flatten)        (None, 131072)            0         
_________________________________________________________________
dense_508 (Dense)            (None, 128)               16777344  
_________________________________________________________________
batch_normalization_503 (Bat (None, 128)               512       
_________________________________________________________________
activation_764 (Activation)  (None, 128)               0         
_________________________________________________________________
dropout_764 (Dropout)        (None, 128)               0         
_________________________________________________________________
dense_509 (Dense)            (None, 10)                1290      
=================================================================
Total params: 16,797,861
Trainable params: 16,797,349
Non-trainable params: 512
_________________________________________________________________
