Model: "sequential_314"
_________________________________________________________________
Layer (type)                 Output Shape              Param #   
=================================================================
separable_conv2d_605 (Separa (None, 32, 32, 512)       2075      
_________________________________________________________________
activation_900 (Activation)  (None, 32, 32, 512)       0         
_________________________________________________________________
dropout_900 (Dropout)        (None, 32, 32, 512)       0         
_________________________________________________________________
max_pooling2d_254 (MaxPoolin (None, 16, 16, 512)       0         
_________________________________________________________________
separable_conv2d_606 (Separa (None, 16, 16, 512)       267264    
_________________________________________________________________
batch_normalization_600 (Bat (None, 16, 16, 512)       2048      
_________________________________________________________________
activation_901 (Activation)  (None, 16, 16, 512)       0         
_________________________________________________________________
dropout_901 (Dropout)        (None, 16, 16, 512)       0         
_________________________________________________________________
flatten_314 (Flatten)        (None, 131072)            0         
_________________________________________________________________
dense_609 (Dense)            (None, 128)               16777344  
_________________________________________________________________
activation_902 (Activation)  (None, 128)               0         
_________________________________________________________________
dropout_902 (Dropout)        (None, 128)               0         
_________________________________________________________________
dense_610 (Dense)            (None, 10)                1290      
=================================================================
Total params: 17,050,021
Trainable params: 17,048,997
Non-trainable params: 1,024
_________________________________________________________________
