Model: "sequential_354"
_________________________________________________________________
Layer (type)                 Output Shape              Param #   
=================================================================
separable_conv2d_673 (Separa (None, 32, 32, 512)       2075      
_________________________________________________________________
batch_normalization_665 (Bat (None, 32, 32, 512)       2048      
_________________________________________________________________
activation_997 (Activation)  (None, 32, 32, 512)       0         
_________________________________________________________________
dropout_997 (Dropout)        (None, 32, 32, 512)       0         
_________________________________________________________________
separable_conv2d_674 (Separa (None, 32, 32, 32)        21024     
_________________________________________________________________
activation_998 (Activation)  (None, 32, 32, 32)        0         
_________________________________________________________________
dropout_998 (Dropout)        (None, 32, 32, 32)        0         
_________________________________________________________________
flatten_354 (Flatten)        (None, 32768)             0         
_________________________________________________________________
dense_678 (Dense)            (None, 512)               16777728  
_________________________________________________________________
batch_normalization_666 (Bat (None, 512)               2048      
_________________________________________________________________
activation_999 (Activation)  (None, 512)               0         
_________________________________________________________________
dropout_999 (Dropout)        (None, 512)               0         
_________________________________________________________________
dense_679 (Dense)            (None, 10)                5130      
=================================================================
Total params: 16,810,053
Trainable params: 16,808,005
Non-trainable params: 2,048
_________________________________________________________________
