Model: "sequential_254"
_________________________________________________________________
Layer (type)                 Output Shape              Param #   
=================================================================
separable_conv2d_503 (Separa (None, 32, 32, 512)       2075      
_________________________________________________________________
activation_745 (Activation)  (None, 32, 32, 512)       0         
_________________________________________________________________
dropout_745 (Dropout)        (None, 32, 32, 512)       0         
_________________________________________________________________
separable_conv2d_504 (Separa (None, 32, 32, 512)       267264    
_________________________________________________________________
activation_746 (Activation)  (None, 32, 32, 512)       0         
_________________________________________________________________
dropout_746 (Dropout)        (None, 32, 32, 512)       0         
_________________________________________________________________
max_pooling2d_231 (MaxPoolin (None, 16, 16, 512)       0         
_________________________________________________________________
flatten_254 (Flatten)        (None, 131072)            0         
_________________________________________________________________
dense_496 (Dense)            (None, 128)               16777344  
_________________________________________________________________
batch_normalization_492 (Bat (None, 128)               512       
_________________________________________________________________
activation_747 (Activation)  (None, 128)               0         
_________________________________________________________________
dropout_747 (Dropout)        (None, 128)               0         
_________________________________________________________________
dense_497 (Dense)            (None, 10)                1290      
=================================================================
Total params: 17,048,485
Trainable params: 17,048,229
Non-trainable params: 256
_________________________________________________________________
