Model: "sequential_115"
_________________________________________________________________
Layer (type)                 Output Shape              Param #   
=================================================================
separable_conv2d_226 (Separa (None, 32, 32, 512)       2075      
_________________________________________________________________
batch_normalization_218 (Bat (None, 32, 32, 512)       2048      
_________________________________________________________________
activation_333 (Activation)  (None, 32, 32, 512)       0         
_________________________________________________________________
dropout_333 (Dropout)        (None, 32, 32, 512)       0         
_________________________________________________________________
separable_conv2d_227 (Separa (None, 32, 32, 32)        21024     
_________________________________________________________________
activation_334 (Activation)  (None, 32, 32, 32)        0         
_________________________________________________________________
dropout_334 (Dropout)        (None, 32, 32, 32)        0         
_________________________________________________________________
max_pooling2d_95 (MaxPooling (None, 16, 16, 32)        0         
_________________________________________________________________
flatten_115 (Flatten)        (None, 8192)              0         
_________________________________________________________________
dense_222 (Dense)            (None, 64)                524352    
_________________________________________________________________
batch_normalization_219 (Bat (None, 64)                256       
_________________________________________________________________
activation_335 (Activation)  (None, 64)                0         
_________________________________________________________________
dropout_335 (Dropout)        (None, 64)                0         
_________________________________________________________________
dense_223 (Dense)            (None, 10)                650       
=================================================================
Total params: 550,405
Trainable params: 549,253
Non-trainable params: 1,152
_________________________________________________________________
