Model: "sequential_274"
_________________________________________________________________
Layer (type)                 Output Shape              Param #   
=================================================================
separable_conv2d_538 (Separa (None, 32, 32, 128)       539       
_________________________________________________________________
batch_normalization_526 (Bat (None, 32, 32, 128)       512       
_________________________________________________________________
activation_798 (Activation)  (None, 32, 32, 128)       0         
_________________________________________________________________
dropout_798 (Dropout)        (None, 32, 32, 128)       0         
_________________________________________________________________
flatten_274 (Flatten)        (None, 131072)            0         
_________________________________________________________________
dense_534 (Dense)            (None, 128)               16777344  
_________________________________________________________________
batch_normalization_527 (Bat (None, 128)               512       
_________________________________________________________________
activation_799 (Activation)  (None, 128)               0         
_________________________________________________________________
dropout_799 (Dropout)        (None, 128)               0         
_________________________________________________________________
dense_535 (Dense)            (None, 10)                1290      
=================================================================
Total params: 16,780,197
Trainable params: 16,779,685
Non-trainable params: 512
_________________________________________________________________
