Model: "sequential_340"
_________________________________________________________________
Layer (type)                 Output Shape              Param #   
=================================================================
separable_conv2d_650 (Separa (None, 32, 32, 512)       2075      
_________________________________________________________________
batch_normalization_645 (Bat (None, 32, 32, 512)       2048      
_________________________________________________________________
activation_967 (Activation)  (None, 32, 32, 512)       0         
_________________________________________________________________
dropout_967 (Dropout)        (None, 32, 32, 512)       0         
_________________________________________________________________
separable_conv2d_651 (Separa (None, 32, 32, 8)         8712      
_________________________________________________________________
activation_968 (Activation)  (None, 32, 32, 8)         0         
_________________________________________________________________
dropout_968 (Dropout)        (None, 32, 32, 8)         0         
_________________________________________________________________
max_pooling2d_263 (MaxPoolin (None, 16, 16, 8)         0         
_________________________________________________________________
flatten_340 (Flatten)        (None, 2048)              0         
_________________________________________________________________
dense_657 (Dense)            (None, 512)               1049088   
_________________________________________________________________
batch_normalization_646 (Bat (None, 512)               2048      
_________________________________________________________________
activation_969 (Activation)  (None, 512)               0         
_________________________________________________________________
dropout_969 (Dropout)        (None, 512)               0         
_________________________________________________________________
dense_658 (Dense)            (None, 10)                5130      
=================================================================
Total params: 1,069,101
Trainable params: 1,067,053
Non-trainable params: 2,048
_________________________________________________________________
