Model: "sequential_102"
_________________________________________________________________
Layer (type)                 Output Shape              Param #   
=================================================================
separable_conv2d_200 (Separa (None, 32, 32, 512)       2075      
_________________________________________________________________
batch_normalization_191 (Bat (None, 32, 32, 512)       2048      
_________________________________________________________________
activation_294 (Activation)  (None, 32, 32, 512)       0         
_________________________________________________________________
dropout_294 (Dropout)        (None, 32, 32, 512)       0         
_________________________________________________________________
separable_conv2d_201 (Separa (None, 32, 32, 32)        21024     
_________________________________________________________________
activation_295 (Activation)  (None, 32, 32, 32)        0         
_________________________________________________________________
dropout_295 (Dropout)        (None, 32, 32, 32)        0         
_________________________________________________________________
max_pooling2d_82 (MaxPooling (None, 16, 16, 32)        0         
_________________________________________________________________
flatten_102 (Flatten)        (None, 8192)              0         
_________________________________________________________________
dense_196 (Dense)            (None, 256)               2097408   
_________________________________________________________________
batch_normalization_192 (Bat (None, 256)               1024      
_________________________________________________________________
activation_296 (Activation)  (None, 256)               0         
_________________________________________________________________
dropout_296 (Dropout)        (None, 256)               0         
_________________________________________________________________
dense_197 (Dense)            (None, 10)                2570      
=================================================================
Total params: 2,126,149
Trainable params: 2,124,613
Non-trainable params: 1,536
_________________________________________________________________
