Model: "sequential_75"
_________________________________________________________________
Layer (type)                 Output Shape              Param #   
=================================================================
separable_conv2d_149 (Separa (None, 32, 32, 512)       2075      
_________________________________________________________________
batch_normalization_142 (Bat (None, 32, 32, 512)       2048      
_________________________________________________________________
activation_217 (Activation)  (None, 32, 32, 512)       0         
_________________________________________________________________
dropout_217 (Dropout)        (None, 32, 32, 512)       0         
_________________________________________________________________
flatten_75 (Flatten)         (None, 524288)            0         
_________________________________________________________________
dense_143 (Dense)            (None, 256)               134217984 
_________________________________________________________________
batch_normalization_143 (Bat (None, 256)               1024      
_________________________________________________________________
activation_218 (Activation)  (None, 256)               0         
_________________________________________________________________
dropout_218 (Dropout)        (None, 256)               0         
_________________________________________________________________
dense_144 (Dense)            (None, 10)                2570      
=================================================================
Total params: 134,225,701
Trainable params: 134,224,165
Non-trainable params: 1,536
_________________________________________________________________
