Model: "sequential_379"
_________________________________________________________________
Layer (type)                 Output Shape              Param #   
=================================================================
separable_conv2d_720 (Separa (None, 32, 32, 512)       2075      
_________________________________________________________________
batch_normalization_713 (Bat (None, 32, 32, 512)       2048      
_________________________________________________________________
activation_1066 (Activation) (None, 32, 32, 512)       0         
_________________________________________________________________
dropout_1066 (Dropout)       (None, 32, 32, 512)       0         
_________________________________________________________________
max_pooling2d_276 (MaxPoolin (None, 16, 16, 512)       0         
_________________________________________________________________
separable_conv2d_721 (Separa (None, 16, 16, 16)        12816     
_________________________________________________________________
activation_1067 (Activation) (None, 16, 16, 16)        0         
_________________________________________________________________
dropout_1067 (Dropout)       (None, 16, 16, 16)        0         
_________________________________________________________________
max_pooling2d_277 (MaxPoolin (None, 8, 8, 16)          0         
_________________________________________________________________
flatten_379 (Flatten)        (None, 1024)              0         
_________________________________________________________________
dense_725 (Dense)            (None, 512)               524800    
_________________________________________________________________
activation_1068 (Activation) (None, 512)               0         
_________________________________________________________________
dropout_1068 (Dropout)       (None, 512)               0         
_________________________________________________________________
dense_726 (Dense)            (None, 10)                5130      
=================================================================
Total params: 546,869
Trainable params: 545,845
Non-trainable params: 1,024
_________________________________________________________________
