Model: "sequential_45"
_________________________________________________________________
Layer (type)                 Output Shape              Param #   
=================================================================
separable_conv2d_92 (Separab (None, 32, 32, 512)       2075      
_________________________________________________________________
batch_normalization_87 (Batc (None, 32, 32, 512)       2048      
_________________________________________________________________
activation_132 (Activation)  (None, 32, 32, 512)       0         
_________________________________________________________________
dropout_132 (Dropout)        (None, 32, 32, 512)       0         
_________________________________________________________________
separable_conv2d_93 (Separab (None, 32, 32, 32)        21024     
_________________________________________________________________
activation_133 (Activation)  (None, 32, 32, 32)        0         
_________________________________________________________________
dropout_133 (Dropout)        (None, 32, 32, 32)        0         
_________________________________________________________________
max_pooling2d_33 (MaxPooling (None, 16, 16, 32)        0         
_________________________________________________________________
flatten_45 (Flatten)         (None, 8192)              0         
_________________________________________________________________
dense_85 (Dense)             (None, 256)               2097408   
_________________________________________________________________
batch_normalization_88 (Batc (None, 256)               1024      
_________________________________________________________________
activation_134 (Activation)  (None, 256)               0         
_________________________________________________________________
dropout_134 (Dropout)        (None, 256)               0         
_________________________________________________________________
dense_86 (Dense)             (None, 10)                2570      
=================================================================
Total params: 2,126,149
Trainable params: 2,124,613
Non-trainable params: 1,536
_________________________________________________________________
