Model: "sequential_142"
_________________________________________________________________
Layer (type)                 Output Shape              Param #   
=================================================================
separable_conv2d_280 (Separa (None, 32, 32, 512)       2075      
_________________________________________________________________
batch_normalization_275 (Bat (None, 32, 32, 512)       2048      
_________________________________________________________________
activation_413 (Activation)  (None, 32, 32, 512)       0         
_________________________________________________________________
dropout_413 (Dropout)        (None, 32, 32, 512)       0         
_________________________________________________________________
separable_conv2d_281 (Separa (None, 32, 32, 128)       70272     
_________________________________________________________________
batch_normalization_276 (Bat (None, 32, 32, 128)       512       
_________________________________________________________________
activation_414 (Activation)  (None, 32, 32, 128)       0         
_________________________________________________________________
dropout_414 (Dropout)        (None, 32, 32, 128)       0         
_________________________________________________________________
max_pooling2d_122 (MaxPoolin (None, 16, 16, 128)       0         
_________________________________________________________________
flatten_142 (Flatten)        (None, 32768)             0         
_________________________________________________________________
dense_275 (Dense)            (None, 128)               4194432   
_________________________________________________________________
batch_normalization_277 (Bat (None, 128)               512       
_________________________________________________________________
activation_415 (Activation)  (None, 128)               0         
_________________________________________________________________
dropout_415 (Dropout)        (None, 128)               0         
_________________________________________________________________
dense_276 (Dense)            (None, 10)                1290      
=================================================================
Total params: 4,271,141
Trainable params: 4,269,605
Non-trainable params: 1,536
_________________________________________________________________
