Model: "sequential_121"
_________________________________________________________________
Layer (type)                 Output Shape              Param #   
=================================================================
separable_conv2d_238 (Separa (None, 32, 32, 512)       2075      
_________________________________________________________________
batch_normalization_230 (Bat (None, 32, 32, 512)       2048      
_________________________________________________________________
activation_351 (Activation)  (None, 32, 32, 512)       0         
_________________________________________________________________
dropout_351 (Dropout)        (None, 32, 32, 512)       0         
_________________________________________________________________
separable_conv2d_239 (Separa (None, 32, 32, 32)        21024     
_________________________________________________________________
activation_352 (Activation)  (None, 32, 32, 32)        0         
_________________________________________________________________
dropout_352 (Dropout)        (None, 32, 32, 32)        0         
_________________________________________________________________
max_pooling2d_101 (MaxPoolin (None, 16, 16, 32)        0         
_________________________________________________________________
flatten_121 (Flatten)        (None, 8192)              0         
_________________________________________________________________
dense_234 (Dense)            (None, 256)               2097408   
_________________________________________________________________
batch_normalization_231 (Bat (None, 256)               1024      
_________________________________________________________________
activation_353 (Activation)  (None, 256)               0         
_________________________________________________________________
dropout_353 (Dropout)        (None, 256)               0         
_________________________________________________________________
dense_235 (Dense)            (None, 10)                2570      
=================================================================
Total params: 2,126,149
Trainable params: 2,124,613
Non-trainable params: 1,536
_________________________________________________________________
