Model: "sequential_267"
_________________________________________________________________
Layer (type)                 Output Shape              Param #   
=================================================================
separable_conv2d_527 (Separa (None, 32, 32, 512)       2075      
_________________________________________________________________
batch_normalization_515 (Bat (None, 32, 32, 512)       2048      
_________________________________________________________________
activation_782 (Activation)  (None, 32, 32, 512)       0         
_________________________________________________________________
dropout_782 (Dropout)        (None, 32, 32, 512)       0         
_________________________________________________________________
max_pooling2d_238 (MaxPoolin (None, 16, 16, 512)       0         
_________________________________________________________________
separable_conv2d_528 (Separa (None, 16, 16, 512)       267264    
_________________________________________________________________
activation_783 (Activation)  (None, 16, 16, 512)       0         
_________________________________________________________________
dropout_783 (Dropout)        (None, 16, 16, 512)       0         
_________________________________________________________________
max_pooling2d_239 (MaxPoolin (None, 8, 8, 512)         0         
_________________________________________________________________
flatten_267 (Flatten)        (None, 32768)             0         
_________________________________________________________________
dense_522 (Dense)            (None, 128)               4194432   
_________________________________________________________________
batch_normalization_516 (Bat (None, 128)               512       
_________________________________________________________________
activation_784 (Activation)  (None, 128)               0         
_________________________________________________________________
dropout_784 (Dropout)        (None, 128)               0         
_________________________________________________________________
dense_523 (Dense)            (None, 10)                1290      
=================================================================
Total params: 4,467,621
Trainable params: 4,466,341
Non-trainable params: 1,280
_________________________________________________________________
