Model: "sequential_396"
_________________________________________________________________
Layer (type)                 Output Shape              Param #   
=================================================================
separable_conv2d_753 (Separa (None, 32, 32, 64)        283       
_________________________________________________________________
batch_normalization_739 (Bat (None, 32, 32, 64)        256       
_________________________________________________________________
activation_1112 (Activation) (None, 32, 32, 64)        0         
_________________________________________________________________
dropout_1112 (Dropout)       (None, 32, 32, 64)        0         
_________________________________________________________________
flatten_396 (Flatten)        (None, 65536)             0         
_________________________________________________________________
dense_755 (Dense)            (None, 512)               33554944  
_________________________________________________________________
activation_1113 (Activation) (None, 512)               0         
_________________________________________________________________
dropout_1113 (Dropout)       (None, 512)               0         
_________________________________________________________________
dense_756 (Dense)            (None, 10)                5130      
=================================================================
Total params: 33,560,613
Trainable params: 33,560,485
Non-trainable params: 128
_________________________________________________________________
