Model: "sequential_331"
_________________________________________________________________
Layer (type)                 Output Shape              Param #   
=================================================================
separable_conv2d_636 (Separa (None, 32, 32, 512)       2075      
_________________________________________________________________
batch_normalization_629 (Bat (None, 32, 32, 512)       2048      
_________________________________________________________________
activation_946 (Activation)  (None, 32, 32, 512)       0         
_________________________________________________________________
dropout_946 (Dropout)        (None, 32, 32, 512)       0         
_________________________________________________________________
separable_conv2d_637 (Separa (None, 32, 32, 512)       267264    
_________________________________________________________________
activation_947 (Activation)  (None, 32, 32, 512)       0         
_________________________________________________________________
dropout_947 (Dropout)        (None, 32, 32, 512)       0         
_________________________________________________________________
flatten_331 (Flatten)        (None, 524288)            0         
_________________________________________________________________
dense_641 (Dense)            (None, 10)                5242890   
=================================================================
Total params: 5,514,277
Trainable params: 5,513,253
Non-trainable params: 1,024
_________________________________________________________________
