Model: "sequential_259"
_________________________________________________________________
Layer (type)                 Output Shape              Param #   
=================================================================
separable_conv2d_512 (Separa (None, 32, 32, 256)       1051      
_________________________________________________________________
activation_759 (Activation)  (None, 32, 32, 256)       0         
_________________________________________________________________
dropout_759 (Dropout)        (None, 32, 32, 256)       0         
_________________________________________________________________
separable_conv2d_513 (Separa (None, 32, 32, 512)       133888    
_________________________________________________________________
activation_760 (Activation)  (None, 32, 32, 512)       0         
_________________________________________________________________
dropout_760 (Dropout)        (None, 32, 32, 512)       0         
_________________________________________________________________
max_pooling2d_234 (MaxPoolin (None, 16, 16, 512)       0         
_________________________________________________________________
flatten_259 (Flatten)        (None, 131072)            0         
_________________________________________________________________
dense_506 (Dense)            (None, 1024)              134218752 
_________________________________________________________________
batch_normalization_501 (Bat (None, 1024)              4096      
_________________________________________________________________
activation_761 (Activation)  (None, 1024)              0         
_________________________________________________________________
dropout_761 (Dropout)        (None, 1024)              0         
_________________________________________________________________
dense_507 (Dense)            (None, 10)                10250     
=================================================================
Total params: 134,368,037
Trainable params: 134,365,989
Non-trainable params: 2,048
_________________________________________________________________
