Model: "sequential_351"
_________________________________________________________________
Layer (type)                 Output Shape              Param #   
=================================================================
separable_conv2d_668 (Separa (None, 32, 32, 16)        91        
_________________________________________________________________
batch_normalization_660 (Bat (None, 32, 32, 16)        64        
_________________________________________________________________
activation_990 (Activation)  (None, 32, 32, 16)        0         
_________________________________________________________________
dropout_990 (Dropout)        (None, 32, 32, 16)        0         
_________________________________________________________________
flatten_351 (Flatten)        (None, 16384)             0         
_________________________________________________________________
dense_673 (Dense)            (None, 128)               2097280   
_________________________________________________________________
batch_normalization_661 (Bat (None, 128)               512       
_________________________________________________________________
activation_991 (Activation)  (None, 128)               0         
_________________________________________________________________
dropout_991 (Dropout)        (None, 128)               0         
_________________________________________________________________
dense_674 (Dense)            (None, 10)                1290      
=================================================================
Total params: 2,099,237
Trainable params: 2,098,949
Non-trainable params: 288
_________________________________________________________________
