Model: "sequential_85"
_________________________________________________________________
Layer (type)                 Output Shape              Param #   
=================================================================
separable_conv2d_167 (Separa (None, 32, 32, 512)       2075      
_________________________________________________________________
batch_normalization_161 (Bat (None, 32, 32, 512)       2048      
_________________________________________________________________
activation_245 (Activation)  (None, 32, 32, 512)       0         
_________________________________________________________________
dropout_245 (Dropout)        (None, 32, 32, 512)       0         
_________________________________________________________________
separable_conv2d_168 (Separa (None, 32, 32, 32)        21024     
_________________________________________________________________
activation_246 (Activation)  (None, 32, 32, 32)        0         
_________________________________________________________________
dropout_246 (Dropout)        (None, 32, 32, 32)        0         
_________________________________________________________________
max_pooling2d_68 (MaxPooling (None, 16, 16, 32)        0         
_________________________________________________________________
flatten_85 (Flatten)         (None, 8192)              0         
_________________________________________________________________
dense_163 (Dense)            (None, 10)                81930     
=================================================================
Total params: 107,077
Trainable params: 106,053
Non-trainable params: 1,024
_________________________________________________________________
