Model: "sequential_96"
_________________________________________________________________
Layer (type)                 Output Shape              Param #   
=================================================================
separable_conv2d_188 (Separa (None, 32, 32, 512)       2075      
_________________________________________________________________
activation_276 (Activation)  (None, 32, 32, 512)       0         
_________________________________________________________________
dropout_276 (Dropout)        (None, 32, 32, 512)       0         
_________________________________________________________________
separable_conv2d_189 (Separa (None, 32, 32, 32)        21024     
_________________________________________________________________
activation_277 (Activation)  (None, 32, 32, 32)        0         
_________________________________________________________________
dropout_277 (Dropout)        (None, 32, 32, 32)        0         
_________________________________________________________________
max_pooling2d_76 (MaxPooling (None, 16, 16, 32)        0         
_________________________________________________________________
flatten_96 (Flatten)         (None, 8192)              0         
_________________________________________________________________
dense_184 (Dense)            (None, 256)               2097408   
_________________________________________________________________
batch_normalization_181 (Bat (None, 256)               1024      
_________________________________________________________________
activation_278 (Activation)  (None, 256)               0         
_________________________________________________________________
dropout_278 (Dropout)        (None, 256)               0         
_________________________________________________________________
dense_185 (Dense)            (None, 10)                2570      
=================================================================
Total params: 2,124,101
Trainable params: 2,123,589
Non-trainable params: 512
_________________________________________________________________
