Model: "sequential_62"
_________________________________________________________________
Layer (type)                 Output Shape              Param #   
=================================================================
separable_conv2d_123 (Separa (None, 32, 32, 512)       2075      
_________________________________________________________________
batch_normalization_119 (Bat (None, 32, 32, 512)       2048      
_________________________________________________________________
activation_179 (Activation)  (None, 32, 32, 512)       0         
_________________________________________________________________
dropout_179 (Dropout)        (None, 32, 32, 512)       0         
_________________________________________________________________
separable_conv2d_124 (Separa (None, 32, 32, 32)        21024     
_________________________________________________________________
activation_180 (Activation)  (None, 32, 32, 32)        0         
_________________________________________________________________
dropout_180 (Dropout)        (None, 32, 32, 32)        0         
_________________________________________________________________
max_pooling2d_47 (MaxPooling (None, 16, 16, 32)        0         
_________________________________________________________________
flatten_62 (Flatten)         (None, 8192)              0         
_________________________________________________________________
dense_118 (Dense)            (None, 256)               2097408   
_________________________________________________________________
batch_normalization_120 (Bat (None, 256)               1024      
_________________________________________________________________
activation_181 (Activation)  (None, 256)               0         
_________________________________________________________________
dropout_181 (Dropout)        (None, 256)               0         
_________________________________________________________________
dense_119 (Dense)            (None, 10)                2570      
=================================================================
Total params: 2,126,149
Trainable params: 2,124,613
Non-trainable params: 1,536
_________________________________________________________________
