Model: "sequential_337"
_________________________________________________________________
Layer (type)                 Output Shape              Param #   
=================================================================
separable_conv2d_646 (Separa (None, 32, 32, 512)       2075      
_________________________________________________________________
batch_normalization_639 (Bat (None, 32, 32, 512)       2048      
_________________________________________________________________
activation_960 (Activation)  (None, 32, 32, 512)       0         
_________________________________________________________________
dropout_960 (Dropout)        (None, 32, 32, 512)       0         
_________________________________________________________________
separable_conv2d_647 (Separa (None, 32, 32, 128)       70272     
_________________________________________________________________
activation_961 (Activation)  (None, 32, 32, 128)       0         
_________________________________________________________________
dropout_961 (Dropout)        (None, 32, 32, 128)       0         
_________________________________________________________________
max_pooling2d_262 (MaxPoolin (None, 16, 16, 128)       0         
_________________________________________________________________
flatten_337 (Flatten)        (None, 32768)             0         
_________________________________________________________________
dense_651 (Dense)            (None, 128)               4194432   
_________________________________________________________________
batch_normalization_640 (Bat (None, 128)               512       
_________________________________________________________________
activation_962 (Activation)  (None, 128)               0         
_________________________________________________________________
dropout_962 (Dropout)        (None, 128)               0         
_________________________________________________________________
dense_652 (Dense)            (None, 10)                1290      
=================================================================
Total params: 4,270,629
Trainable params: 4,269,349
Non-trainable params: 1,280
_________________________________________________________________
