Model: "sequential_16"
_________________________________________________________________
Layer (type)                 Output Shape              Param #   
=================================================================
separable_conv2d_41 (Separab (None, 32, 32, 512)       2075      
_________________________________________________________________
batch_normalization_29 (Batc (None, 32, 32, 512)       2048      
_________________________________________________________________
activation_52 (Activation)   (None, 32, 32, 512)       0         
_________________________________________________________________
dropout_52 (Dropout)         (None, 32, 32, 512)       0         
_________________________________________________________________
separable_conv2d_42 (Separab (None, 32, 32, 32)        21024     
_________________________________________________________________
activation_53 (Activation)   (None, 32, 32, 32)        0         
_________________________________________________________________
dropout_53 (Dropout)         (None, 32, 32, 32)        0         
_________________________________________________________________
max_pooling2d_15 (MaxPooling (None, 16, 16, 32)        0         
_________________________________________________________________
flatten_16 (Flatten)         (None, 8192)              0         
_________________________________________________________________
dense_27 (Dense)             (None, 256)               2097408   
_________________________________________________________________
batch_normalization_30 (Batc (None, 256)               1024      
_________________________________________________________________
activation_54 (Activation)   (None, 256)               0         
_________________________________________________________________
dropout_54 (Dropout)         (None, 256)               0         
_________________________________________________________________
dense_28 (Dense)             (None, 10)                2570      
=================================================================
Total params: 2,126,149
Trainable params: 2,124,613
Non-trainable params: 1,536
_________________________________________________________________
