Model: "sequential_329"
_________________________________________________________________
Layer (type)                 Output Shape              Param #   
=================================================================
separable_conv2d_632 (Separa (None, 32, 32, 512)       2075      
_________________________________________________________________
batch_normalization_626 (Bat (None, 32, 32, 512)       2048      
_________________________________________________________________
activation_941 (Activation)  (None, 32, 32, 512)       0         
_________________________________________________________________
dropout_941 (Dropout)        (None, 32, 32, 512)       0         
_________________________________________________________________
separable_conv2d_633 (Separa (None, 32, 32, 32)        21024     
_________________________________________________________________
activation_942 (Activation)  (None, 32, 32, 32)        0         
_________________________________________________________________
dropout_942 (Dropout)        (None, 32, 32, 32)        0         
_________________________________________________________________
flatten_329 (Flatten)        (None, 32768)             0         
_________________________________________________________________
dense_638 (Dense)            (None, 128)               4194432   
_________________________________________________________________
batch_normalization_627 (Bat (None, 128)               512       
_________________________________________________________________
activation_943 (Activation)  (None, 128)               0         
_________________________________________________________________
dropout_943 (Dropout)        (None, 128)               0         
_________________________________________________________________
dense_639 (Dense)            (None, 10)                1290      
=================================================================
Total params: 4,221,381
Trainable params: 4,220,101
Non-trainable params: 1,280
_________________________________________________________________
