Model: "sequential_248"
_________________________________________________________________
Layer (type)                 Output Shape              Param #   
=================================================================
separable_conv2d_492 (Separa (None, 32, 32, 512)       2075      
_________________________________________________________________
batch_normalization_481 (Bat (None, 32, 32, 512)       2048      
_________________________________________________________________
activation_729 (Activation)  (None, 32, 32, 512)       0         
_________________________________________________________________
dropout_729 (Dropout)        (None, 32, 32, 512)       0         
_________________________________________________________________
flatten_248 (Flatten)        (None, 524288)            0         
_________________________________________________________________
dense_485 (Dense)            (None, 128)               67108992  
_________________________________________________________________
batch_normalization_482 (Bat (None, 128)               512       
_________________________________________________________________
activation_730 (Activation)  (None, 128)               0         
_________________________________________________________________
dropout_730 (Dropout)        (None, 128)               0         
_________________________________________________________________
dense_486 (Dense)            (None, 10)                1290      
=================================================================
Total params: 67,114,917
Trainable params: 67,113,637
Non-trainable params: 1,280
_________________________________________________________________
