Model: "sequential_125"
_________________________________________________________________
Layer (type)                 Output Shape              Param #   
=================================================================
separable_conv2d_246 (Separa (None, 32, 32, 512)       2075      
_________________________________________________________________
batch_normalization_238 (Bat (None, 32, 32, 512)       2048      
_________________________________________________________________
activation_363 (Activation)  (None, 32, 32, 512)       0         
_________________________________________________________________
dropout_363 (Dropout)        (None, 32, 32, 512)       0         
_________________________________________________________________
separable_conv2d_247 (Separa (None, 32, 32, 32)        21024     
_________________________________________________________________
batch_normalization_239 (Bat (None, 32, 32, 32)        128       
_________________________________________________________________
activation_364 (Activation)  (None, 32, 32, 32)        0         
_________________________________________________________________
dropout_364 (Dropout)        (None, 32, 32, 32)        0         
_________________________________________________________________
max_pooling2d_105 (MaxPoolin (None, 16, 16, 32)        0         
_________________________________________________________________
flatten_125 (Flatten)        (None, 8192)              0         
_________________________________________________________________
dense_242 (Dense)            (None, 256)               2097408   
_________________________________________________________________
batch_normalization_240 (Bat (None, 256)               1024      
_________________________________________________________________
activation_365 (Activation)  (None, 256)               0         
_________________________________________________________________
dropout_365 (Dropout)        (None, 256)               0         
_________________________________________________________________
dense_243 (Dense)            (None, 10)                2570      
=================================================================
Total params: 2,126,277
Trainable params: 2,124,677
Non-trainable params: 1,600
_________________________________________________________________
