Model: "sequential_297"
_________________________________________________________________
Layer (type)                 Output Shape              Param #   
=================================================================
separable_conv2d_578 (Separa (None, 32, 32, 512)       2075      
_________________________________________________________________
batch_normalization_566 (Bat (None, 32, 32, 512)       2048      
_________________________________________________________________
activation_857 (Activation)  (None, 32, 32, 512)       0         
_________________________________________________________________
dropout_857 (Dropout)        (None, 32, 32, 512)       0         
_________________________________________________________________
separable_conv2d_579 (Separa (None, 32, 32, 512)       267264    
_________________________________________________________________
activation_858 (Activation)  (None, 32, 32, 512)       0         
_________________________________________________________________
dropout_858 (Dropout)        (None, 32, 32, 512)       0         
_________________________________________________________________
flatten_297 (Flatten)        (None, 524288)            0         
_________________________________________________________________
dense_576 (Dense)            (None, 128)               67108992  
_________________________________________________________________
batch_normalization_567 (Bat (None, 128)               512       
_________________________________________________________________
activation_859 (Activation)  (None, 128)               0         
_________________________________________________________________
dropout_859 (Dropout)        (None, 128)               0         
_________________________________________________________________
dense_577 (Dense)            (None, 10)                1290      
=================================================================
Total params: 67,382,181
Trainable params: 67,380,901
Non-trainable params: 1,280
_________________________________________________________________
