Model: "sequential_378"
_________________________________________________________________
Layer (type)                 Output Shape              Param #   
=================================================================
separable_conv2d_718 (Separa (None, 32, 32, 512)       2075      
_________________________________________________________________
batch_normalization_711 (Bat (None, 32, 32, 512)       2048      
_________________________________________________________________
activation_1063 (Activation) (None, 32, 32, 512)       0         
_________________________________________________________________
dropout_1063 (Dropout)       (None, 32, 32, 512)       0         
_________________________________________________________________
separable_conv2d_719 (Separa (None, 32, 32, 8)         8712      
_________________________________________________________________
activation_1064 (Activation) (None, 32, 32, 8)         0         
_________________________________________________________________
dropout_1064 (Dropout)       (None, 32, 32, 8)         0         
_________________________________________________________________
flatten_378 (Flatten)        (None, 8192)              0         
_________________________________________________________________
dense_723 (Dense)            (None, 512)               4194816   
_________________________________________________________________
batch_normalization_712 (Bat (None, 512)               2048      
_________________________________________________________________
activation_1065 (Activation) (None, 512)               0         
_________________________________________________________________
dropout_1065 (Dropout)       (None, 512)               0         
_________________________________________________________________
dense_724 (Dense)            (None, 10)                5130      
=================================================================
Total params: 4,214,829
Trainable params: 4,212,781
Non-trainable params: 2,048
_________________________________________________________________
