Model: "sequential_369"
_________________________________________________________________
Layer (type)                 Output Shape              Param #   
=================================================================
separable_conv2d_701 (Separa (None, 32, 32, 512)       2075      
_________________________________________________________________
batch_normalization_691 (Bat (None, 32, 32, 512)       2048      
_________________________________________________________________
activation_1038 (Activation) (None, 32, 32, 512)       0         
_________________________________________________________________
dropout_1038 (Dropout)       (None, 32, 32, 512)       0         
_________________________________________________________________
separable_conv2d_702 (Separa (None, 32, 32, 16)        12816     
_________________________________________________________________
activation_1039 (Activation) (None, 32, 32, 16)        0         
_________________________________________________________________
dropout_1039 (Dropout)       (None, 32, 32, 16)        0         
_________________________________________________________________
flatten_369 (Flatten)        (None, 16384)             0         
_________________________________________________________________
dense_706 (Dense)            (None, 10)                163850    
=================================================================
Total params: 180,789
Trainable params: 179,765
Non-trainable params: 1,024
_________________________________________________________________
