Model: "sequential_43"
_________________________________________________________________
Layer (type)                 Output Shape              Param #   
=================================================================
separable_conv2d_89 (Separab (None, 32, 32, 512)       2075      
_________________________________________________________________
batch_normalization_83 (Batc (None, 32, 32, 512)       2048      
_________________________________________________________________
activation_127 (Activation)  (None, 32, 32, 512)       0         
_________________________________________________________________
dropout_127 (Dropout)        (None, 32, 32, 512)       0         
_________________________________________________________________
flatten_43 (Flatten)         (None, 524288)            0         
_________________________________________________________________
dense_81 (Dense)             (None, 256)               134217984 
_________________________________________________________________
batch_normalization_84 (Batc (None, 256)               1024      
_________________________________________________________________
activation_128 (Activation)  (None, 256)               0         
_________________________________________________________________
dropout_128 (Dropout)        (None, 256)               0         
_________________________________________________________________
dense_82 (Dense)             (None, 10)                2570      
=================================================================
Total params: 134,225,701
Trainable params: 134,224,165
Non-trainable params: 1,536
_________________________________________________________________
