Model: "sequential_249"
_________________________________________________________________
Layer (type)                 Output Shape              Param #   
=================================================================
separable_conv2d_493 (Separa (None, 32, 32, 512)       2075      
_________________________________________________________________
batch_normalization_483 (Bat (None, 32, 32, 512)       2048      
_________________________________________________________________
activation_731 (Activation)  (None, 32, 32, 512)       0         
_________________________________________________________________
dropout_731 (Dropout)        (None, 32, 32, 512)       0         
_________________________________________________________________
separable_conv2d_494 (Separa (None, 32, 32, 128)       70272     
_________________________________________________________________
activation_732 (Activation)  (None, 32, 32, 128)       0         
_________________________________________________________________
dropout_732 (Dropout)        (None, 32, 32, 128)       0         
_________________________________________________________________
max_pooling2d_227 (MaxPoolin (None, 16, 16, 128)       0         
_________________________________________________________________
flatten_249 (Flatten)        (None, 32768)             0         
_________________________________________________________________
dense_487 (Dense)            (None, 1024)              33555456  
_________________________________________________________________
batch_normalization_484 (Bat (None, 1024)              4096      
_________________________________________________________________
activation_733 (Activation)  (None, 1024)              0         
_________________________________________________________________
dropout_733 (Dropout)        (None, 1024)              0         
_________________________________________________________________
dense_488 (Dense)            (None, 10)                10250     
=================================================================
Total params: 33,644,197
Trainable params: 33,641,125
Non-trainable params: 3,072
_________________________________________________________________
