Model: "sequential_41"
_________________________________________________________________
Layer (type)                 Output Shape              Param #   
=================================================================
separable_conv2d_86 (Separab (None, 32, 32, 8)         59        
_________________________________________________________________
activation_122 (Activation)  (None, 32, 32, 8)         0         
_________________________________________________________________
dropout_122 (Dropout)        (None, 32, 32, 8)         0         
_________________________________________________________________
separable_conv2d_87 (Separab (None, 32, 32, 8)         144       
_________________________________________________________________
batch_normalization_79 (Batc (None, 32, 32, 8)         32        
_________________________________________________________________
activation_123 (Activation)  (None, 32, 32, 8)         0         
_________________________________________________________________
dropout_123 (Dropout)        (None, 32, 32, 8)         0         
_________________________________________________________________
flatten_41 (Flatten)         (None, 8192)              0         
_________________________________________________________________
dense_77 (Dense)             (None, 256)               2097408   
_________________________________________________________________
batch_normalization_80 (Batc (None, 256)               1024      
_________________________________________________________________
activation_124 (Activation)  (None, 256)               0         
_________________________________________________________________
dropout_124 (Dropout)        (None, 256)               0         
_________________________________________________________________
dense_78 (Dense)             (None, 10)                2570      
=================================================================
Total params: 2,101,237
Trainable params: 2,100,709
Non-trainable params: 528
_________________________________________________________________
