Model: "sequential_73"
_________________________________________________________________
Layer (type)                 Output Shape              Param #   
=================================================================
separable_conv2d_145 (Separa (None, 32, 32, 512)       2075      
_________________________________________________________________
batch_normalization_139 (Bat (None, 32, 32, 512)       2048      
_________________________________________________________________
activation_211 (Activation)  (None, 32, 32, 512)       0         
_________________________________________________________________
dropout_211 (Dropout)        (None, 32, 32, 512)       0         
_________________________________________________________________
separable_conv2d_146 (Separa (None, 32, 32, 32)        21024     
_________________________________________________________________
activation_212 (Activation)  (None, 32, 32, 32)        0         
_________________________________________________________________
dropout_212 (Dropout)        (None, 32, 32, 32)        0         
_________________________________________________________________
max_pooling2d_58 (MaxPooling (None, 16, 16, 32)        0         
_________________________________________________________________
flatten_73 (Flatten)         (None, 8192)              0         
_________________________________________________________________
dense_139 (Dense)            (None, 64)                524352    
_________________________________________________________________
batch_normalization_140 (Bat (None, 64)                256       
_________________________________________________________________
activation_213 (Activation)  (None, 64)                0         
_________________________________________________________________
dropout_213 (Dropout)        (None, 64)                0         
_________________________________________________________________
dense_140 (Dense)            (None, 10)                650       
=================================================================
Total params: 550,405
Trainable params: 549,253
Non-trainable params: 1,152
_________________________________________________________________
