Model: "sequential_384"
_________________________________________________________________
Layer (type)                 Output Shape              Param #   
=================================================================
separable_conv2d_730 (Separa (None, 32, 32, 64)        283       
_________________________________________________________________
batch_normalization_720 (Bat (None, 32, 32, 64)        256       
_________________________________________________________________
activation_1080 (Activation) (None, 32, 32, 64)        0         
_________________________________________________________________
dropout_1080 (Dropout)       (None, 32, 32, 64)        0         
_________________________________________________________________
separable_conv2d_731 (Separa (None, 32, 32, 8)         1096      
_________________________________________________________________
activation_1081 (Activation) (None, 32, 32, 8)         0         
_________________________________________________________________
dropout_1081 (Dropout)       (None, 32, 32, 8)         0         
_________________________________________________________________
max_pooling2d_281 (MaxPoolin (None, 16, 16, 8)         0         
_________________________________________________________________
flatten_384 (Flatten)        (None, 2048)              0         
_________________________________________________________________
dense_734 (Dense)            (None, 64)                131136    
_________________________________________________________________
batch_normalization_721 (Bat (None, 64)                256       
_________________________________________________________________
activation_1082 (Activation) (None, 64)                0         
_________________________________________________________________
dropout_1082 (Dropout)       (None, 64)                0         
_________________________________________________________________
dense_735 (Dense)            (None, 10)                650       
=================================================================
Total params: 133,677
Trainable params: 133,421
Non-trainable params: 256
_________________________________________________________________
