Model: "sequential_6"
_________________________________________________________________
Layer (type)                 Output Shape              Param #   
=================================================================
separable_conv2d_17 (Separab (None, 32, 32, 16)        91        
_________________________________________________________________
batch_normalization_11 (Batc (None, 32, 32, 16)        64        
_________________________________________________________________
activation_21 (Activation)   (None, 32, 32, 16)        0         
_________________________________________________________________
dropout_21 (Dropout)         (None, 32, 32, 16)        0         
_________________________________________________________________
max_pooling2d_6 (MaxPooling2 (None, 16, 16, 16)        0         
_________________________________________________________________
separable_conv2d_18 (Separab (None, 16, 16, 128)       2320      
_________________________________________________________________
batch_normalization_12 (Batc (None, 16, 16, 128)       512       
_________________________________________________________________
activation_22 (Activation)   (None, 16, 16, 128)       0         
_________________________________________________________________
dropout_22 (Dropout)         (None, 16, 16, 128)       0         
_________________________________________________________________
max_pooling2d_7 (MaxPooling2 (None, 8, 8, 128)         0         
_________________________________________________________________
separable_conv2d_19 (Separab (None, 8, 8, 128)         17664     
_________________________________________________________________
activation_23 (Activation)   (None, 8, 8, 128)         0         
_________________________________________________________________
dropout_23 (Dropout)         (None, 8, 8, 128)         0         
_________________________________________________________________
separable_conv2d_20 (Separab (None, 8, 8, 128)         17664     
_________________________________________________________________
batch_normalization_13 (Batc (None, 8, 8, 128)         512       
_________________________________________________________________
activation_24 (Activation)   (None, 8, 8, 128)         0         
_________________________________________________________________
dropout_24 (Dropout)         (None, 8, 8, 128)         0         
_________________________________________________________________
max_pooling2d_8 (MaxPooling2 (None, 4, 4, 128)         0         
_________________________________________________________________
flatten_6 (Flatten)          (None, 2048)              0         
_________________________________________________________________
dense_10 (Dense)             (None, 10)                20490     
=================================================================
Total params: 59,317
Trainable params: 58,773
Non-trainable params: 544
_________________________________________________________________
