Model: "sequential_268"
_________________________________________________________________
Layer (type)                 Output Shape              Param #   
=================================================================
separable_conv2d_529 (Separa (None, 32, 32, 512)       2075      
_________________________________________________________________
batch_normalization_517 (Bat (None, 32, 32, 512)       2048      
_________________________________________________________________
activation_785 (Activation)  (None, 32, 32, 512)       0         
_________________________________________________________________
dropout_785 (Dropout)        (None, 32, 32, 512)       0         
_________________________________________________________________
flatten_268 (Flatten)        (None, 524288)            0         
_________________________________________________________________
dense_524 (Dense)            (None, 1024)              536871936 
_________________________________________________________________
batch_normalization_518 (Bat (None, 1024)              4096      
_________________________________________________________________
activation_786 (Activation)  (None, 1024)              0         
_________________________________________________________________
dropout_786 (Dropout)        (None, 1024)              0         
_________________________________________________________________
dense_525 (Dense)            (None, 10)                10250     
=================================================================
Total params: 536,890,405
Trainable params: 536,887,333
Non-trainable params: 3,072
_________________________________________________________________
