Model: "sequential_47"
_________________________________________________________________
Layer (type)                 Output Shape              Param #   
=================================================================
separable_conv2d_96 (Separab (None, 32, 32, 512)       2075      
_________________________________________________________________
batch_normalization_91 (Batc (None, 32, 32, 512)       2048      
_________________________________________________________________
activation_138 (Activation)  (None, 32, 32, 512)       0         
_________________________________________________________________
dropout_138 (Dropout)        (None, 32, 32, 512)       0         
_________________________________________________________________
separable_conv2d_97 (Separab (None, 32, 32, 32)        21024     
_________________________________________________________________
activation_139 (Activation)  (None, 32, 32, 32)        0         
_________________________________________________________________
dropout_139 (Dropout)        (None, 32, 32, 32)        0         
_________________________________________________________________
max_pooling2d_35 (MaxPooling (None, 16, 16, 32)        0         
_________________________________________________________________
flatten_47 (Flatten)         (None, 8192)              0         
_________________________________________________________________
dense_89 (Dense)             (None, 256)               2097408   
_________________________________________________________________
batch_normalization_92 (Batc (None, 256)               1024      
_________________________________________________________________
activation_140 (Activation)  (None, 256)               0         
_________________________________________________________________
dropout_140 (Dropout)        (None, 256)               0         
_________________________________________________________________
dense_90 (Dense)             (None, 10)                2570      
=================================================================
Total params: 2,126,149
Trainable params: 2,124,613
Non-trainable params: 1,536
_________________________________________________________________
