Model: "sequential_198"
_________________________________________________________________
Layer (type)                 Output Shape              Param #   
=================================================================
separable_conv2d_392 (Separa (None, 32, 32, 512)       2075      
_________________________________________________________________
batch_normalization_389 (Bat (None, 32, 32, 512)       2048      
_________________________________________________________________
activation_581 (Activation)  (None, 32, 32, 512)       0         
_________________________________________________________________
dropout_581 (Dropout)        (None, 32, 32, 512)       0         
_________________________________________________________________
separable_conv2d_393 (Separa (None, 32, 32, 128)       70272     
_________________________________________________________________
activation_582 (Activation)  (None, 32, 32, 128)       0         
_________________________________________________________________
dropout_582 (Dropout)        (None, 32, 32, 128)       0         
_________________________________________________________________
max_pooling2d_181 (MaxPoolin (None, 16, 16, 128)       0         
_________________________________________________________________
flatten_198 (Flatten)        (None, 32768)             0         
_________________________________________________________________
dense_387 (Dense)            (None, 32)                1048608   
_________________________________________________________________
batch_normalization_390 (Bat (None, 32)                128       
_________________________________________________________________
activation_583 (Activation)  (None, 32)                0         
_________________________________________________________________
dropout_583 (Dropout)        (None, 32)                0         
_________________________________________________________________
dense_388 (Dense)            (None, 10)                330       
=================================================================
Total params: 1,123,461
Trainable params: 1,122,373
Non-trainable params: 1,088
_________________________________________________________________
