Model: "sequential_77"
_________________________________________________________________
Layer (type)                 Output Shape              Param #   
=================================================================
separable_conv2d_151 (Separa (None, 32, 32, 512)       2075      
_________________________________________________________________
batch_normalization_146 (Bat (None, 32, 32, 512)       2048      
_________________________________________________________________
activation_221 (Activation)  (None, 32, 32, 512)       0         
_________________________________________________________________
dropout_221 (Dropout)        (None, 32, 32, 512)       0         
_________________________________________________________________
separable_conv2d_152 (Separa (None, 32, 32, 32)        21024     
_________________________________________________________________
activation_222 (Activation)  (None, 32, 32, 32)        0         
_________________________________________________________________
dropout_222 (Dropout)        (None, 32, 32, 32)        0         
_________________________________________________________________
max_pooling2d_60 (MaxPooling (None, 16, 16, 32)        0         
_________________________________________________________________
flatten_77 (Flatten)         (None, 8192)              0         
_________________________________________________________________
dense_147 (Dense)            (None, 256)               2097408   
_________________________________________________________________
batch_normalization_147 (Bat (None, 256)               1024      
_________________________________________________________________
activation_223 (Activation)  (None, 256)               0         
_________________________________________________________________
dropout_223 (Dropout)        (None, 256)               0         
_________________________________________________________________
dense_148 (Dense)            (None, 10)                2570      
=================================================================
Total params: 2,126,149
Trainable params: 2,124,613
Non-trainable params: 1,536
_________________________________________________________________
