Model: "sequential_262"
_________________________________________________________________
Layer (type)                 Output Shape              Param #   
=================================================================
separable_conv2d_518 (Separa (None, 32, 32, 128)       539       
_________________________________________________________________
batch_normalization_505 (Bat (None, 32, 32, 128)       512       
_________________________________________________________________
activation_768 (Activation)  (None, 32, 32, 128)       0         
_________________________________________________________________
dropout_768 (Dropout)        (None, 32, 32, 128)       0         
_________________________________________________________________
flatten_262 (Flatten)        (None, 131072)            0         
_________________________________________________________________
dense_512 (Dense)            (None, 128)               16777344  
_________________________________________________________________
batch_normalization_506 (Bat (None, 128)               512       
_________________________________________________________________
activation_769 (Activation)  (None, 128)               0         
_________________________________________________________________
dropout_769 (Dropout)        (None, 128)               0         
_________________________________________________________________
dense_513 (Dense)            (None, 10)                1290      
=================================================================
Total params: 16,780,197
Trainable params: 16,779,685
Non-trainable params: 512
_________________________________________________________________
