Model: "sequential_72"
_________________________________________________________________
Layer (type)                 Output Shape              Param #   
=================================================================
separable_conv2d_143 (Separa (None, 32, 32, 512)       2075      
_________________________________________________________________
batch_normalization_137 (Bat (None, 32, 32, 512)       2048      
_________________________________________________________________
activation_208 (Activation)  (None, 32, 32, 512)       0         
_________________________________________________________________
dropout_208 (Dropout)        (None, 32, 32, 512)       0         
_________________________________________________________________
separable_conv2d_144 (Separa (None, 32, 32, 32)        21024     
_________________________________________________________________
activation_209 (Activation)  (None, 32, 32, 32)        0         
_________________________________________________________________
dropout_209 (Dropout)        (None, 32, 32, 32)        0         
_________________________________________________________________
max_pooling2d_57 (MaxPooling (None, 16, 16, 32)        0         
_________________________________________________________________
flatten_72 (Flatten)         (None, 8192)              0         
_________________________________________________________________
dense_137 (Dense)            (None, 256)               2097408   
_________________________________________________________________
batch_normalization_138 (Bat (None, 256)               1024      
_________________________________________________________________
activation_210 (Activation)  (None, 256)               0         
_________________________________________________________________
dropout_210 (Dropout)        (None, 256)               0         
_________________________________________________________________
dense_138 (Dense)            (None, 10)                2570      
=================================================================
Total params: 2,126,149
Trainable params: 2,124,613
Non-trainable params: 1,536
_________________________________________________________________
