Model: "sequential_78"
_________________________________________________________________
Layer (type)                 Output Shape              Param #   
=================================================================
separable_conv2d_153 (Separa (None, 32, 32, 512)       2075      
_________________________________________________________________
batch_normalization_148 (Bat (None, 32, 32, 512)       2048      
_________________________________________________________________
activation_224 (Activation)  (None, 32, 32, 512)       0         
_________________________________________________________________
dropout_224 (Dropout)        (None, 32, 32, 512)       0         
_________________________________________________________________
separable_conv2d_154 (Separa (None, 32, 32, 32)        21024     
_________________________________________________________________
activation_225 (Activation)  (None, 32, 32, 32)        0         
_________________________________________________________________
dropout_225 (Dropout)        (None, 32, 32, 32)        0         
_________________________________________________________________
max_pooling2d_61 (MaxPooling (None, 16, 16, 32)        0         
_________________________________________________________________
flatten_78 (Flatten)         (None, 8192)              0         
_________________________________________________________________
dense_149 (Dense)            (None, 256)               2097408   
_________________________________________________________________
batch_normalization_149 (Bat (None, 256)               1024      
_________________________________________________________________
activation_226 (Activation)  (None, 256)               0         
_________________________________________________________________
dropout_226 (Dropout)        (None, 256)               0         
_________________________________________________________________
dense_150 (Dense)            (None, 10)                2570      
=================================================================
Total params: 2,126,149
Trainable params: 2,124,613
Non-trainable params: 1,536
_________________________________________________________________
