Model: "sequential_328"
_________________________________________________________________
Layer (type)                 Output Shape              Param #   
=================================================================
separable_conv2d_630 (Separa (None, 32, 32, 512)       2075      
_________________________________________________________________
batch_normalization_624 (Bat (None, 32, 32, 512)       2048      
_________________________________________________________________
activation_938 (Activation)  (None, 32, 32, 512)       0         
_________________________________________________________________
dropout_938 (Dropout)        (None, 32, 32, 512)       0         
_________________________________________________________________
separable_conv2d_631 (Separa (None, 32, 32, 8)         8712      
_________________________________________________________________
activation_939 (Activation)  (None, 32, 32, 8)         0         
_________________________________________________________________
dropout_939 (Dropout)        (None, 32, 32, 8)         0         
_________________________________________________________________
flatten_328 (Flatten)        (None, 8192)              0         
_________________________________________________________________
dense_636 (Dense)            (None, 128)               1048704   
_________________________________________________________________
batch_normalization_625 (Bat (None, 128)               512       
_________________________________________________________________
activation_940 (Activation)  (None, 128)               0         
_________________________________________________________________
dropout_940 (Dropout)        (None, 128)               0         
_________________________________________________________________
dense_637 (Dense)            (None, 10)                1290      
=================================================================
Total params: 1,063,341
Trainable params: 1,062,061
Non-trainable params: 1,280
_________________________________________________________________
