Model: "sequential_55"
_________________________________________________________________
Layer (type)                 Output Shape              Param #   
=================================================================
separable_conv2d_111 (Separa (None, 32, 32, 512)       2075      
_________________________________________________________________
batch_normalization_105 (Bat (None, 32, 32, 512)       2048      
_________________________________________________________________
activation_160 (Activation)  (None, 32, 32, 512)       0         
_________________________________________________________________
dropout_160 (Dropout)        (None, 32, 32, 512)       0         
_________________________________________________________________
separable_conv2d_112 (Separa (None, 32, 32, 64)        37440     
_________________________________________________________________
activation_161 (Activation)  (None, 32, 32, 64)        0         
_________________________________________________________________
dropout_161 (Dropout)        (None, 32, 32, 64)        0         
_________________________________________________________________
max_pooling2d_42 (MaxPooling (None, 16, 16, 64)        0         
_________________________________________________________________
flatten_55 (Flatten)         (None, 16384)             0         
_________________________________________________________________
dense_104 (Dense)            (None, 256)               4194560   
_________________________________________________________________
batch_normalization_106 (Bat (None, 256)               1024      
_________________________________________________________________
activation_162 (Activation)  (None, 256)               0         
_________________________________________________________________
dropout_162 (Dropout)        (None, 256)               0         
_________________________________________________________________
dense_105 (Dense)            (None, 10)                2570      
=================================================================
Total params: 4,239,717
Trainable params: 4,238,181
Non-trainable params: 1,536
_________________________________________________________________
