Model: "sequential_80"
_________________________________________________________________
Layer (type)                 Output Shape              Param #   
=================================================================
separable_conv2d_157 (Separa (None, 32, 32, 512)       2075      
_________________________________________________________________
batch_normalization_152 (Bat (None, 32, 32, 512)       2048      
_________________________________________________________________
activation_230 (Activation)  (None, 32, 32, 512)       0         
_________________________________________________________________
dropout_230 (Dropout)        (None, 32, 32, 512)       0         
_________________________________________________________________
separable_conv2d_158 (Separa (None, 32, 32, 32)        21024     
_________________________________________________________________
activation_231 (Activation)  (None, 32, 32, 32)        0         
_________________________________________________________________
dropout_231 (Dropout)        (None, 32, 32, 32)        0         
_________________________________________________________________
max_pooling2d_63 (MaxPooling (None, 16, 16, 32)        0         
_________________________________________________________________
flatten_80 (Flatten)         (None, 8192)              0         
_________________________________________________________________
dense_153 (Dense)            (None, 256)               2097408   
_________________________________________________________________
batch_normalization_153 (Bat (None, 256)               1024      
_________________________________________________________________
activation_232 (Activation)  (None, 256)               0         
_________________________________________________________________
dropout_232 (Dropout)        (None, 256)               0         
_________________________________________________________________
dense_154 (Dense)            (None, 10)                2570      
=================================================================
Total params: 2,126,149
Trainable params: 2,124,613
Non-trainable params: 1,536
_________________________________________________________________
