Model: "sequential_86"
_________________________________________________________________
Layer (type)                 Output Shape              Param #   
=================================================================
separable_conv2d_169 (Separa (None, 32, 32, 512)       2075      
_________________________________________________________________
batch_normalization_162 (Bat (None, 32, 32, 512)       2048      
_________________________________________________________________
activation_247 (Activation)  (None, 32, 32, 512)       0         
_________________________________________________________________
dropout_247 (Dropout)        (None, 32, 32, 512)       0         
_________________________________________________________________
flatten_86 (Flatten)         (None, 524288)            0         
_________________________________________________________________
dense_164 (Dense)            (None, 256)               134217984 
_________________________________________________________________
batch_normalization_163 (Bat (None, 256)               1024      
_________________________________________________________________
activation_248 (Activation)  (None, 256)               0         
_________________________________________________________________
dropout_248 (Dropout)        (None, 256)               0         
_________________________________________________________________
dense_165 (Dense)            (None, 10)                2570      
=================================================================
Total params: 134,225,701
Trainable params: 134,224,165
Non-trainable params: 1,536
_________________________________________________________________
