Model: "sequential_46"
_________________________________________________________________
Layer (type)                 Output Shape              Param #   
=================================================================
separable_conv2d_94 (Separab (None, 32, 32, 512)       2075      
_________________________________________________________________
batch_normalization_89 (Batc (None, 32, 32, 512)       2048      
_________________________________________________________________
activation_135 (Activation)  (None, 32, 32, 512)       0         
_________________________________________________________________
dropout_135 (Dropout)        (None, 32, 32, 512)       0         
_________________________________________________________________
separable_conv2d_95 (Separab (None, 32, 32, 32)        21024     
_________________________________________________________________
activation_136 (Activation)  (None, 32, 32, 32)        0         
_________________________________________________________________
dropout_136 (Dropout)        (None, 32, 32, 32)        0         
_________________________________________________________________
max_pooling2d_34 (MaxPooling (None, 16, 16, 32)        0         
_________________________________________________________________
flatten_46 (Flatten)         (None, 8192)              0         
_________________________________________________________________
dense_87 (Dense)             (None, 256)               2097408   
_________________________________________________________________
batch_normalization_90 (Batc (None, 256)               1024      
_________________________________________________________________
activation_137 (Activation)  (None, 256)               0         
_________________________________________________________________
dropout_137 (Dropout)        (None, 256)               0         
_________________________________________________________________
dense_88 (Dense)             (None, 10)                2570      
=================================================================
Total params: 2,126,149
Trainable params: 2,124,613
Non-trainable params: 1,536
_________________________________________________________________
