Model: "sequential_213"
_________________________________________________________________
Layer (type)                 Output Shape              Param #   
=================================================================
separable_conv2d_422 (Separa (None, 32, 32, 512)       2075      
_________________________________________________________________
batch_normalization_417 (Bat (None, 32, 32, 512)       2048      
_________________________________________________________________
activation_626 (Activation)  (None, 32, 32, 512)       0         
_________________________________________________________________
dropout_626 (Dropout)        (None, 32, 32, 512)       0         
_________________________________________________________________
separable_conv2d_423 (Separa (None, 32, 32, 128)       70272     
_________________________________________________________________
activation_627 (Activation)  (None, 32, 32, 128)       0         
_________________________________________________________________
dropout_627 (Dropout)        (None, 32, 32, 128)       0         
_________________________________________________________________
max_pooling2d_195 (MaxPoolin (None, 16, 16, 128)       0         
_________________________________________________________________
flatten_213 (Flatten)        (None, 32768)             0         
_________________________________________________________________
dense_417 (Dense)            (None, 128)               4194432   
_________________________________________________________________
batch_normalization_418 (Bat (None, 128)               512       
_________________________________________________________________
activation_628 (Activation)  (None, 128)               0         
_________________________________________________________________
dropout_628 (Dropout)        (None, 128)               0         
_________________________________________________________________
dense_418 (Dense)            (None, 10)                1290      
=================================================================
Total params: 4,270,629
Trainable params: 4,269,349
Non-trainable params: 1,280
_________________________________________________________________
