Model: "sequential_58"
_________________________________________________________________
Layer (type)                 Output Shape              Param #   
=================================================================
separable_conv2d_116 (Separa (None, 32, 32, 512)       2075      
_________________________________________________________________
batch_normalization_111 (Bat (None, 32, 32, 512)       2048      
_________________________________________________________________
activation_168 (Activation)  (None, 32, 32, 512)       0         
_________________________________________________________________
dropout_168 (Dropout)        (None, 32, 32, 512)       0         
_________________________________________________________________
separable_conv2d_117 (Separa (None, 32, 32, 32)        21024     
_________________________________________________________________
activation_169 (Activation)  (None, 32, 32, 32)        0         
_________________________________________________________________
dropout_169 (Dropout)        (None, 32, 32, 32)        0         
_________________________________________________________________
max_pooling2d_44 (MaxPooling (None, 16, 16, 32)        0         
_________________________________________________________________
flatten_58 (Flatten)         (None, 8192)              0         
_________________________________________________________________
dense_110 (Dense)            (None, 256)               2097408   
_________________________________________________________________
batch_normalization_112 (Bat (None, 256)               1024      
_________________________________________________________________
activation_170 (Activation)  (None, 256)               0         
_________________________________________________________________
dropout_170 (Dropout)        (None, 256)               0         
_________________________________________________________________
dense_111 (Dense)            (None, 10)                2570      
=================================================================
Total params: 2,126,149
Trainable params: 2,124,613
Non-trainable params: 1,536
_________________________________________________________________
