Model: "sequential_356"
_________________________________________________________________
Layer (type)                 Output Shape              Param #   
=================================================================
separable_conv2d_676 (Separa (None, 32, 32, 16)        91        
_________________________________________________________________
batch_normalization_669 (Bat (None, 32, 32, 16)        64        
_________________________________________________________________
activation_1002 (Activation) (None, 32, 32, 16)        0         
_________________________________________________________________
dropout_1002 (Dropout)       (None, 32, 32, 16)        0         
_________________________________________________________________
flatten_356 (Flatten)        (None, 16384)             0         
_________________________________________________________________
dense_682 (Dense)            (None, 10)                163850    
=================================================================
Total params: 164,005
Trainable params: 163,973
Non-trainable params: 32
_________________________________________________________________
