Model: "sequential_363"
_________________________________________________________________
Layer (type)                 Output Shape              Param #   
=================================================================
separable_conv2d_690 (Separa (None, 32, 32, 128)       539       
_________________________________________________________________
batch_normalization_680 (Bat (None, 32, 32, 128)       512       
_________________________________________________________________
activation_1022 (Activation) (None, 32, 32, 128)       0         
_________________________________________________________________
dropout_1022 (Dropout)       (None, 32, 32, 128)       0         
_________________________________________________________________
flatten_363 (Flatten)        (None, 131072)            0         
_________________________________________________________________
dense_695 (Dense)            (None, 10)                1310730   
=================================================================
Total params: 1,311,781
Trainable params: 1,311,525
Non-trainable params: 256
_________________________________________________________________
