Model: "sequential_171"
_________________________________________________________________
Layer (type)                 Output Shape              Param #   
=================================================================
separable_conv2d_338 (Separa (None, 32, 32, 512)       2075      
_________________________________________________________________
batch_normalization_335 (Bat (None, 32, 32, 512)       2048      
_________________________________________________________________
activation_500 (Activation)  (None, 32, 32, 512)       0         
_________________________________________________________________
dropout_500 (Dropout)        (None, 32, 32, 512)       0         
_________________________________________________________________
max_pooling2d_151 (MaxPoolin (None, 16, 16, 512)       0         
_________________________________________________________________
separable_conv2d_339 (Separa (None, 16, 16, 128)       70272     
_________________________________________________________________
activation_501 (Activation)  (None, 16, 16, 128)       0         
_________________________________________________________________
dropout_501 (Dropout)        (None, 16, 16, 128)       0         
_________________________________________________________________
max_pooling2d_152 (MaxPoolin (None, 8, 8, 128)         0         
_________________________________________________________________
flatten_171 (Flatten)        (None, 8192)              0         
_________________________________________________________________
dense_333 (Dense)            (None, 128)               1048704   
_________________________________________________________________
batch_normalization_336 (Bat (None, 128)               512       
_________________________________________________________________
activation_502 (Activation)  (None, 128)               0         
_________________________________________________________________
dropout_502 (Dropout)        (None, 128)               0         
_________________________________________________________________
dense_334 (Dense)            (None, 10)                1290      
=================================================================
Total params: 1,124,901
Trainable params: 1,123,621
Non-trainable params: 1,280
_________________________________________________________________
