Model: "sequential_25"
_________________________________________________________________
Layer (type)                 Output Shape              Param #   
=================================================================
separable_conv2d_57 (Separab (None, 32, 32, 512)       2075      
_________________________________________________________________
batch_normalization_47 (Batc (None, 32, 32, 512)       2048      
_________________________________________________________________
activation_77 (Activation)   (None, 32, 32, 512)       0         
_________________________________________________________________
dropout_77 (Dropout)         (None, 32, 32, 512)       0         
_________________________________________________________________
separable_conv2d_58 (Separab (None, 32, 32, 32)        21024     
_________________________________________________________________
activation_78 (Activation)   (None, 32, 32, 32)        0         
_________________________________________________________________
dropout_78 (Dropout)         (None, 32, 32, 32)        0         
_________________________________________________________________
max_pooling2d_21 (MaxPooling (None, 16, 16, 32)        0         
_________________________________________________________________
flatten_25 (Flatten)         (None, 8192)              0         
_________________________________________________________________
dense_45 (Dense)             (None, 256)               2097408   
_________________________________________________________________
batch_normalization_48 (Batc (None, 256)               1024      
_________________________________________________________________
activation_79 (Activation)   (None, 256)               0         
_________________________________________________________________
dropout_79 (Dropout)         (None, 256)               0         
_________________________________________________________________
dense_46 (Dense)             (None, 10)                2570      
=================================================================
Total params: 2,126,149
Trainable params: 2,124,613
Non-trainable params: 1,536
_________________________________________________________________
