Model: "sequential_179"
_________________________________________________________________
Layer (type)                 Output Shape              Param #   
=================================================================
separable_conv2d_354 (Separa (None, 32, 32, 8)         59        
_________________________________________________________________
batch_normalization_351 (Bat (None, 32, 32, 8)         32        
_________________________________________________________________
activation_524 (Activation)  (None, 32, 32, 8)         0         
_________________________________________________________________
dropout_524 (Dropout)        (None, 32, 32, 8)         0         
_________________________________________________________________
separable_conv2d_355 (Separa (None, 32, 32, 128)       1224      
_________________________________________________________________
activation_525 (Activation)  (None, 32, 32, 128)       0         
_________________________________________________________________
dropout_525 (Dropout)        (None, 32, 32, 128)       0         
_________________________________________________________________
max_pooling2d_160 (MaxPoolin (None, 16, 16, 128)       0         
_________________________________________________________________
flatten_179 (Flatten)        (None, 32768)             0         
_________________________________________________________________
dense_349 (Dense)            (None, 128)               4194432   
_________________________________________________________________
batch_normalization_352 (Bat (None, 128)               512       
_________________________________________________________________
activation_526 (Activation)  (None, 128)               0         
_________________________________________________________________
dropout_526 (Dropout)        (None, 128)               0         
_________________________________________________________________
dense_350 (Dense)            (None, 10)                1290      
=================================================================
Total params: 4,197,549
Trainable params: 4,197,277
Non-trainable params: 272
_________________________________________________________________
