Model: "sequential_56"
_________________________________________________________________
Layer (type)                 Output Shape              Param #   
=================================================================
separable_conv2d_113 (Separa (None, 32, 32, 512)       2075      
_________________________________________________________________
batch_normalization_107 (Bat (None, 32, 32, 512)       2048      
_________________________________________________________________
activation_163 (Activation)  (None, 32, 32, 512)       0         
_________________________________________________________________
dropout_163 (Dropout)        (None, 32, 32, 512)       0         
_________________________________________________________________
flatten_56 (Flatten)         (None, 524288)            0         
_________________________________________________________________
dense_106 (Dense)            (None, 256)               134217984 
_________________________________________________________________
batch_normalization_108 (Bat (None, 256)               1024      
_________________________________________________________________
activation_164 (Activation)  (None, 256)               0         
_________________________________________________________________
dropout_164 (Dropout)        (None, 256)               0         
_________________________________________________________________
dense_107 (Dense)            (None, 10)                2570      
=================================================================
Total params: 134,225,701
Trainable params: 134,224,165
Non-trainable params: 1,536
_________________________________________________________________
