Model: "sequential_335"
_________________________________________________________________
Layer (type)                 Output Shape              Param #   
=================================================================
separable_conv2d_644 (Separa (None, 32, 32, 16)        91        
_________________________________________________________________
batch_normalization_635 (Bat (None, 32, 32, 16)        64        
_________________________________________________________________
activation_956 (Activation)  (None, 32, 32, 16)        0         
_________________________________________________________________
dropout_956 (Dropout)        (None, 32, 32, 16)        0         
_________________________________________________________________
flatten_335 (Flatten)        (None, 16384)             0         
_________________________________________________________________
dense_647 (Dense)            (None, 128)               2097280   
_________________________________________________________________
batch_normalization_636 (Bat (None, 128)               512       
_________________________________________________________________
activation_957 (Activation)  (None, 128)               0         
_________________________________________________________________
dropout_957 (Dropout)        (None, 128)               0         
_________________________________________________________________
dense_648 (Dense)            (None, 10)                1290      
=================================================================
Total params: 2,099,237
Trainable params: 2,098,949
Non-trainable params: 288
_________________________________________________________________
