Model: "sequential_195"
_________________________________________________________________
Layer (type)                 Output Shape              Param #   
=================================================================
separable_conv2d_386 (Separa (None, 32, 32, 8)         59        
_________________________________________________________________
batch_normalization_383 (Bat (None, 32, 32, 8)         32        
_________________________________________________________________
activation_572 (Activation)  (None, 32, 32, 8)         0         
_________________________________________________________________
dropout_572 (Dropout)        (None, 32, 32, 8)         0         
_________________________________________________________________
max_pooling2d_177 (MaxPoolin (None, 16, 16, 8)         0         
_________________________________________________________________
separable_conv2d_387 (Separa (None, 16, 16, 128)       1224      
_________________________________________________________________
activation_573 (Activation)  (None, 16, 16, 128)       0         
_________________________________________________________________
dropout_573 (Dropout)        (None, 16, 16, 128)       0         
_________________________________________________________________
max_pooling2d_178 (MaxPoolin (None, 8, 8, 128)         0         
_________________________________________________________________
flatten_195 (Flatten)        (None, 8192)              0         
_________________________________________________________________
dense_381 (Dense)            (None, 32)                262176    
_________________________________________________________________
batch_normalization_384 (Bat (None, 32)                128       
_________________________________________________________________
activation_574 (Activation)  (None, 32)                0         
_________________________________________________________________
dropout_574 (Dropout)        (None, 32)                0         
_________________________________________________________________
dense_382 (Dense)            (None, 10)                330       
=================================================================
Total params: 263,949
Trainable params: 263,869
Non-trainable params: 80
_________________________________________________________________
