Model: "sequential_110"
_________________________________________________________________
Layer (type)                 Output Shape              Param #   
=================================================================
separable_conv2d_216 (Separa (None, 32, 32, 512)       2075      
_________________________________________________________________
batch_normalization_207 (Bat (None, 32, 32, 512)       2048      
_________________________________________________________________
activation_318 (Activation)  (None, 32, 32, 512)       0         
_________________________________________________________________
dropout_318 (Dropout)        (None, 32, 32, 512)       0         
_________________________________________________________________
separable_conv2d_217 (Separa (None, 32, 32, 32)        21024     
_________________________________________________________________
batch_normalization_208 (Bat (None, 32, 32, 32)        128       
_________________________________________________________________
activation_319 (Activation)  (None, 32, 32, 32)        0         
_________________________________________________________________
dropout_319 (Dropout)        (None, 32, 32, 32)        0         
_________________________________________________________________
max_pooling2d_90 (MaxPooling (None, 16, 16, 32)        0         
_________________________________________________________________
flatten_110 (Flatten)        (None, 8192)              0         
_________________________________________________________________
dense_212 (Dense)            (None, 256)               2097408   
_________________________________________________________________
batch_normalization_209 (Bat (None, 256)               1024      
_________________________________________________________________
activation_320 (Activation)  (None, 256)               0         
_________________________________________________________________
dropout_320 (Dropout)        (None, 256)               0         
_________________________________________________________________
dense_213 (Dense)            (None, 10)                2570      
=================================================================
Total params: 2,126,277
Trainable params: 2,124,677
Non-trainable params: 1,600
_________________________________________________________________
