Model: "sequential_28"
_________________________________________________________________
Layer (type)                 Output Shape              Param #   
=================================================================
separable_conv2d_63 (Separab (None, 32, 32, 8)         59        
_________________________________________________________________
batch_normalization_53 (Batc (None, 32, 32, 8)         32        
_________________________________________________________________
activation_86 (Activation)   (None, 32, 32, 8)         0         
_________________________________________________________________
dropout_86 (Dropout)         (None, 32, 32, 8)         0         
_________________________________________________________________
flatten_28 (Flatten)         (None, 8192)              0         
_________________________________________________________________
dense_51 (Dense)             (None, 256)               2097408   
_________________________________________________________________
batch_normalization_54 (Batc (None, 256)               1024      
_________________________________________________________________
activation_87 (Activation)   (None, 256)               0         
_________________________________________________________________
dropout_87 (Dropout)         (None, 256)               0         
_________________________________________________________________
dense_52 (Dense)             (None, 10)                2570      
=================================================================
Total params: 2,101,093
Trainable params: 2,100,565
Non-trainable params: 528
_________________________________________________________________
