Model: "sequential_107"
_________________________________________________________________
Layer (type)                 Output Shape              Param #   
=================================================================
separable_conv2d_210 (Separa (None, 32, 32, 512)       2075      
_________________________________________________________________
batch_normalization_201 (Bat (None, 32, 32, 512)       2048      
_________________________________________________________________
activation_309 (Activation)  (None, 32, 32, 512)       0         
_________________________________________________________________
dropout_309 (Dropout)        (None, 32, 32, 512)       0         
_________________________________________________________________
separable_conv2d_211 (Separa (None, 32, 32, 32)        21024     
_________________________________________________________________
activation_310 (Activation)  (None, 32, 32, 32)        0         
_________________________________________________________________
dropout_310 (Dropout)        (None, 32, 32, 32)        0         
_________________________________________________________________
max_pooling2d_87 (MaxPooling (None, 16, 16, 32)        0         
_________________________________________________________________
flatten_107 (Flatten)        (None, 8192)              0         
_________________________________________________________________
dense_206 (Dense)            (None, 64)                524352    
_________________________________________________________________
batch_normalization_202 (Bat (None, 64)                256       
_________________________________________________________________
activation_311 (Activation)  (None, 64)                0         
_________________________________________________________________
dropout_311 (Dropout)        (None, 64)                0         
_________________________________________________________________
dense_207 (Dense)            (None, 10)                650       
=================================================================
Total params: 550,405
Trainable params: 549,253
Non-trainable params: 1,152
_________________________________________________________________
