Model: "sequential_37"
_________________________________________________________________
Layer (type)                 Output Shape              Param #   
=================================================================
separable_conv2d_79 (Separab (None, 32, 32, 512)       2075      
_________________________________________________________________
batch_normalization_71 (Batc (None, 32, 32, 512)       2048      
_________________________________________________________________
activation_111 (Activation)  (None, 32, 32, 512)       0         
_________________________________________________________________
dropout_111 (Dropout)        (None, 32, 32, 512)       0         
_________________________________________________________________
separable_conv2d_80 (Separab (None, 32, 32, 32)        21024     
_________________________________________________________________
activation_112 (Activation)  (None, 32, 32, 32)        0         
_________________________________________________________________
dropout_112 (Dropout)        (None, 32, 32, 32)        0         
_________________________________________________________________
max_pooling2d_29 (MaxPooling (None, 16, 16, 32)        0         
_________________________________________________________________
flatten_37 (Flatten)         (None, 8192)              0         
_________________________________________________________________
dense_69 (Dense)             (None, 256)               2097408   
_________________________________________________________________
batch_normalization_72 (Batc (None, 256)               1024      
_________________________________________________________________
activation_113 (Activation)  (None, 256)               0         
_________________________________________________________________
dropout_113 (Dropout)        (None, 256)               0         
_________________________________________________________________
dense_70 (Dense)             (None, 10)                2570      
=================================================================
Total params: 2,126,149
Trainable params: 2,124,613
Non-trainable params: 1,536
_________________________________________________________________
