Model: "sequential_291"
_________________________________________________________________
Layer (type)                 Output Shape              Param #   
=================================================================
separable_conv2d_567 (Separa (None, 32, 32, 512)       2075      
_________________________________________________________________
batch_normalization_555 (Bat (None, 32, 32, 512)       2048      
_________________________________________________________________
activation_841 (Activation)  (None, 32, 32, 512)       0         
_________________________________________________________________
dropout_841 (Dropout)        (None, 32, 32, 512)       0         
_________________________________________________________________
flatten_291 (Flatten)        (None, 524288)            0         
_________________________________________________________________
dense_565 (Dense)            (None, 128)               67108992  
_________________________________________________________________
batch_normalization_556 (Bat (None, 128)               512       
_________________________________________________________________
activation_842 (Activation)  (None, 128)               0         
_________________________________________________________________
dropout_842 (Dropout)        (None, 128)               0         
_________________________________________________________________
dense_566 (Dense)            (None, 10)                1290      
=================================================================
Total params: 67,114,917
Trainable params: 67,113,637
Non-trainable params: 1,280
_________________________________________________________________
