Model: "sequential_9"
_________________________________________________________________
Layer (type)                 Output Shape              Param #   
=================================================================
separable_conv2d_25 (Separab (None, 32, 32, 8)         59        
_________________________________________________________________
activation_30 (Activation)   (None, 32, 32, 8)         0         
_________________________________________________________________
dropout_30 (Dropout)         (None, 32, 32, 8)         0         
_________________________________________________________________
separable_conv2d_26 (Separab (None, 32, 32, 128)       1224      
_________________________________________________________________
activation_31 (Activation)   (None, 32, 32, 128)       0         
_________________________________________________________________
dropout_31 (Dropout)         (None, 32, 32, 128)       0         
_________________________________________________________________
flatten_9 (Flatten)          (None, 131072)            0         
_________________________________________________________________
dense_14 (Dense)             (None, 512)               67109376  
_________________________________________________________________
batch_normalization_16 (Batc (None, 512)               2048      
_________________________________________________________________
activation_32 (Activation)   (None, 512)               0         
_________________________________________________________________
dropout_32 (Dropout)         (None, 512)               0         
_________________________________________________________________
dense_15 (Dense)             (None, 10)                5130      
=================================================================
Total params: 67,117,837
Trainable params: 67,116,813
Non-trainable params: 1,024
_________________________________________________________________
