Model: "sequential_101"
_________________________________________________________________
Layer (type)                 Output Shape              Param #   
=================================================================
separable_conv2d_198 (Separa (None, 32, 32, 512)       2075      
_________________________________________________________________
batch_normalization_189 (Bat (None, 32, 32, 512)       2048      
_________________________________________________________________
activation_291 (Activation)  (None, 32, 32, 512)       0         
_________________________________________________________________
dropout_291 (Dropout)        (None, 32, 32, 512)       0         
_________________________________________________________________
separable_conv2d_199 (Separa (None, 32, 32, 32)        21024     
_________________________________________________________________
activation_292 (Activation)  (None, 32, 32, 32)        0         
_________________________________________________________________
dropout_292 (Dropout)        (None, 32, 32, 32)        0         
_________________________________________________________________
max_pooling2d_81 (MaxPooling (None, 16, 16, 32)        0         
_________________________________________________________________
flatten_101 (Flatten)        (None, 8192)              0         
_________________________________________________________________
dense_194 (Dense)            (None, 64)                524352    
_________________________________________________________________
batch_normalization_190 (Bat (None, 64)                256       
_________________________________________________________________
activation_293 (Activation)  (None, 64)                0         
_________________________________________________________________
dropout_293 (Dropout)        (None, 64)                0         
_________________________________________________________________
dense_195 (Dense)            (None, 10)                650       
=================================================================
Total params: 550,405
Trainable params: 549,253
Non-trainable params: 1,152
_________________________________________________________________
