Model: "sequential_124"
_________________________________________________________________
Layer (type)                 Output Shape              Param #   
=================================================================
separable_conv2d_244 (Separa (None, 32, 32, 512)       2075      
_________________________________________________________________
batch_normalization_236 (Bat (None, 32, 32, 512)       2048      
_________________________________________________________________
activation_360 (Activation)  (None, 32, 32, 512)       0         
_________________________________________________________________
dropout_360 (Dropout)        (None, 32, 32, 512)       0         
_________________________________________________________________
separable_conv2d_245 (Separa (None, 32, 32, 32)        21024     
_________________________________________________________________
activation_361 (Activation)  (None, 32, 32, 32)        0         
_________________________________________________________________
dropout_361 (Dropout)        (None, 32, 32, 32)        0         
_________________________________________________________________
max_pooling2d_104 (MaxPoolin (None, 16, 16, 32)        0         
_________________________________________________________________
flatten_124 (Flatten)        (None, 8192)              0         
_________________________________________________________________
dense_240 (Dense)            (None, 256)               2097408   
_________________________________________________________________
batch_normalization_237 (Bat (None, 256)               1024      
_________________________________________________________________
activation_362 (Activation)  (None, 256)               0         
_________________________________________________________________
dropout_362 (Dropout)        (None, 256)               0         
_________________________________________________________________
dense_241 (Dense)            (None, 10)                2570      
=================================================================
Total params: 2,126,149
Trainable params: 2,124,613
Non-trainable params: 1,536
_________________________________________________________________
