Model: "sequential_48"
_________________________________________________________________
Layer (type)                 Output Shape              Param #   
=================================================================
separable_conv2d_98 (Separab (None, 32, 32, 512)       2075      
_________________________________________________________________
batch_normalization_93 (Batc (None, 32, 32, 512)       2048      
_________________________________________________________________
activation_141 (Activation)  (None, 32, 32, 512)       0         
_________________________________________________________________
dropout_141 (Dropout)        (None, 32, 32, 512)       0         
_________________________________________________________________
separable_conv2d_99 (Separab (None, 32, 32, 32)        21024     
_________________________________________________________________
activation_142 (Activation)  (None, 32, 32, 32)        0         
_________________________________________________________________
dropout_142 (Dropout)        (None, 32, 32, 32)        0         
_________________________________________________________________
max_pooling2d_36 (MaxPooling (None, 16, 16, 32)        0         
_________________________________________________________________
flatten_48 (Flatten)         (None, 8192)              0         
_________________________________________________________________
dense_91 (Dense)             (None, 256)               2097408   
_________________________________________________________________
batch_normalization_94 (Batc (None, 256)               1024      
_________________________________________________________________
activation_143 (Activation)  (None, 256)               0         
_________________________________________________________________
dropout_143 (Dropout)        (None, 256)               0         
_________________________________________________________________
dense_92 (Dense)             (None, 10)                2570      
=================================================================
Total params: 2,126,149
Trainable params: 2,124,613
Non-trainable params: 1,536
_________________________________________________________________
