Model: "sequential_229"
_________________________________________________________________
Layer (type)                 Output Shape              Param #   
=================================================================
separable_conv2d_454 (Separa (None, 32, 32, 16)        91        
_________________________________________________________________
batch_normalization_447 (Bat (None, 32, 32, 16)        64        
_________________________________________________________________
activation_674 (Activation)  (None, 32, 32, 16)        0         
_________________________________________________________________
dropout_674 (Dropout)        (None, 32, 32, 16)        0         
_________________________________________________________________
separable_conv2d_455 (Separa (None, 32, 32, 128)       2320      
_________________________________________________________________
activation_675 (Activation)  (None, 32, 32, 128)       0         
_________________________________________________________________
dropout_675 (Dropout)        (None, 32, 32, 128)       0         
_________________________________________________________________
max_pooling2d_210 (MaxPoolin (None, 16, 16, 128)       0         
_________________________________________________________________
flatten_229 (Flatten)        (None, 32768)             0         
_________________________________________________________________
dense_449 (Dense)            (None, 128)               4194432   
_________________________________________________________________
batch_normalization_448 (Bat (None, 128)               512       
_________________________________________________________________
activation_676 (Activation)  (None, 128)               0         
_________________________________________________________________
dropout_676 (Dropout)        (None, 128)               0         
_________________________________________________________________
dense_450 (Dense)            (None, 10)                1290      
=================================================================
Total params: 4,198,709
Trainable params: 4,198,421
Non-trainable params: 288
_________________________________________________________________
