Model: "sequential_113"
_________________________________________________________________
Layer (type)                 Output Shape              Param #   
=================================================================
separable_conv2d_222 (Separa (None, 32, 32, 512)       2075      
_________________________________________________________________
batch_normalization_214 (Bat (None, 32, 32, 512)       2048      
_________________________________________________________________
activation_327 (Activation)  (None, 32, 32, 512)       0         
_________________________________________________________________
dropout_327 (Dropout)        (None, 32, 32, 512)       0         
_________________________________________________________________
separable_conv2d_223 (Separa (None, 32, 32, 32)        21024     
_________________________________________________________________
activation_328 (Activation)  (None, 32, 32, 32)        0         
_________________________________________________________________
dropout_328 (Dropout)        (None, 32, 32, 32)        0         
_________________________________________________________________
max_pooling2d_93 (MaxPooling (None, 16, 16, 32)        0         
_________________________________________________________________
flatten_113 (Flatten)        (None, 8192)              0         
_________________________________________________________________
dense_218 (Dense)            (None, 256)               2097408   
_________________________________________________________________
batch_normalization_215 (Bat (None, 256)               1024      
_________________________________________________________________
activation_329 (Activation)  (None, 256)               0         
_________________________________________________________________
dropout_329 (Dropout)        (None, 256)               0         
_________________________________________________________________
dense_219 (Dense)            (None, 10)                2570      
=================================================================
Total params: 2,126,149
Trainable params: 2,124,613
Non-trainable params: 1,536
_________________________________________________________________
