Model: "sequential_160"
_________________________________________________________________
Layer (type)                 Output Shape              Param #   
=================================================================
separable_conv2d_316 (Separa (None, 32, 32, 512)       2075      
_________________________________________________________________
batch_normalization_313 (Bat (None, 32, 32, 512)       2048      
_________________________________________________________________
activation_467 (Activation)  (None, 32, 32, 512)       0         
_________________________________________________________________
dropout_467 (Dropout)        (None, 32, 32, 512)       0         
_________________________________________________________________
separable_conv2d_317 (Separa (None, 32, 32, 128)       70272     
_________________________________________________________________
activation_468 (Activation)  (None, 32, 32, 128)       0         
_________________________________________________________________
dropout_468 (Dropout)        (None, 32, 32, 128)       0         
_________________________________________________________________
max_pooling2d_139 (MaxPoolin (None, 16, 16, 128)       0         
_________________________________________________________________
flatten_160 (Flatten)        (None, 32768)             0         
_________________________________________________________________
dense_311 (Dense)            (None, 128)               4194432   
_________________________________________________________________
batch_normalization_314 (Bat (None, 128)               512       
_________________________________________________________________
activation_469 (Activation)  (None, 128)               0         
_________________________________________________________________
dropout_469 (Dropout)        (None, 128)               0         
_________________________________________________________________
dense_312 (Dense)            (None, 10)                1290      
=================================================================
Total params: 4,270,629
Trainable params: 4,269,349
Non-trainable params: 1,280
_________________________________________________________________
