Model: "sequential_246"
_________________________________________________________________
Layer (type)                 Output Shape              Param #   
=================================================================
separable_conv2d_488 (Separa (None, 32, 32, 128)       539       
_________________________________________________________________
batch_normalization_478 (Bat (None, 32, 32, 128)       512       
_________________________________________________________________
activation_723 (Activation)  (None, 32, 32, 128)       0         
_________________________________________________________________
dropout_723 (Dropout)        (None, 32, 32, 128)       0         
_________________________________________________________________
separable_conv2d_489 (Separa (None, 32, 32, 128)       17664     
_________________________________________________________________
activation_724 (Activation)  (None, 32, 32, 128)       0         
_________________________________________________________________
dropout_724 (Dropout)        (None, 32, 32, 128)       0         
_________________________________________________________________
flatten_246 (Flatten)        (None, 131072)            0         
_________________________________________________________________
dense_481 (Dense)            (None, 128)               16777344  
_________________________________________________________________
batch_normalization_479 (Bat (None, 128)               512       
_________________________________________________________________
activation_725 (Activation)  (None, 128)               0         
_________________________________________________________________
dropout_725 (Dropout)        (None, 128)               0         
_________________________________________________________________
dense_482 (Dense)            (None, 10)                1290      
=================================================================
Total params: 16,797,861
Trainable params: 16,797,349
Non-trainable params: 512
_________________________________________________________________
