Model: "sequential_155"
_________________________________________________________________
Layer (type)                 Output Shape              Param #   
=================================================================
separable_conv2d_306 (Separa (None, 32, 32, 512)       2075      
_________________________________________________________________
batch_normalization_302 (Bat (None, 32, 32, 512)       2048      
_________________________________________________________________
activation_452 (Activation)  (None, 32, 32, 512)       0         
_________________________________________________________________
dropout_452 (Dropout)        (None, 32, 32, 512)       0         
_________________________________________________________________
separable_conv2d_307 (Separa (None, 32, 32, 128)       70272     
_________________________________________________________________
activation_453 (Activation)  (None, 32, 32, 128)       0         
_________________________________________________________________
dropout_453 (Dropout)        (None, 32, 32, 128)       0         
_________________________________________________________________
max_pooling2d_134 (MaxPoolin (None, 16, 16, 128)       0         
_________________________________________________________________
flatten_155 (Flatten)        (None, 32768)             0         
_________________________________________________________________
dense_301 (Dense)            (None, 128)               4194432   
_________________________________________________________________
batch_normalization_303 (Bat (None, 128)               512       
_________________________________________________________________
activation_454 (Activation)  (None, 128)               0         
_________________________________________________________________
dropout_454 (Dropout)        (None, 128)               0         
_________________________________________________________________
dense_302 (Dense)            (None, 10)                1290      
=================================================================
Total params: 4,270,629
Trainable params: 4,269,349
Non-trainable params: 1,280
_________________________________________________________________
