Model: "sequential_39"
_________________________________________________________________
Layer (type)                 Output Shape              Param #   
=================================================================
separable_conv2d_83 (Separab (None, 32, 32, 8)         59        
_________________________________________________________________
batch_normalization_75 (Batc (None, 32, 32, 8)         32        
_________________________________________________________________
activation_117 (Activation)  (None, 32, 32, 8)         0         
_________________________________________________________________
dropout_117 (Dropout)        (None, 32, 32, 8)         0         
_________________________________________________________________
flatten_39 (Flatten)         (None, 8192)              0         
_________________________________________________________________
dense_73 (Dense)             (None, 256)               2097408   
_________________________________________________________________
batch_normalization_76 (Batc (None, 256)               1024      
_________________________________________________________________
activation_118 (Activation)  (None, 256)               0         
_________________________________________________________________
dropout_118 (Dropout)        (None, 256)               0         
_________________________________________________________________
dense_74 (Dense)             (None, 10)                2570      
=================================================================
Total params: 2,101,093
Trainable params: 2,100,565
Non-trainable params: 528
_________________________________________________________________
