Model: "sequential_126"
_________________________________________________________________
Layer (type)                 Output Shape              Param #   
=================================================================
separable_conv2d_248 (Separa (None, 32, 32, 512)       2075      
_________________________________________________________________
batch_normalization_241 (Bat (None, 32, 32, 512)       2048      
_________________________________________________________________
activation_366 (Activation)  (None, 32, 32, 512)       0         
_________________________________________________________________
dropout_366 (Dropout)        (None, 32, 32, 512)       0         
_________________________________________________________________
separable_conv2d_249 (Separa (None, 32, 32, 32)        21024     
_________________________________________________________________
activation_367 (Activation)  (None, 32, 32, 32)        0         
_________________________________________________________________
dropout_367 (Dropout)        (None, 32, 32, 32)        0         
_________________________________________________________________
max_pooling2d_106 (MaxPoolin (None, 16, 16, 32)        0         
_________________________________________________________________
flatten_126 (Flatten)        (None, 8192)              0         
_________________________________________________________________
dense_244 (Dense)            (None, 256)               2097408   
_________________________________________________________________
batch_normalization_242 (Bat (None, 256)               1024      
_________________________________________________________________
activation_368 (Activation)  (None, 256)               0         
_________________________________________________________________
dropout_368 (Dropout)        (None, 256)               0         
_________________________________________________________________
dense_245 (Dense)            (None, 10)                2570      
=================================================================
Total params: 2,126,149
Trainable params: 2,124,613
Non-trainable params: 1,536
_________________________________________________________________
