Model: "sequential_177"
_________________________________________________________________
Layer (type)                 Output Shape              Param #   
=================================================================
separable_conv2d_350 (Separa (None, 32, 32, 512)       2075      
_________________________________________________________________
batch_normalization_347 (Bat (None, 32, 32, 512)       2048      
_________________________________________________________________
activation_518 (Activation)  (None, 32, 32, 512)       0         
_________________________________________________________________
dropout_518 (Dropout)        (None, 32, 32, 512)       0         
_________________________________________________________________
separable_conv2d_351 (Separa (None, 32, 32, 128)       70272     
_________________________________________________________________
activation_519 (Activation)  (None, 32, 32, 128)       0         
_________________________________________________________________
dropout_519 (Dropout)        (None, 32, 32, 128)       0         
_________________________________________________________________
max_pooling2d_158 (MaxPoolin (None, 16, 16, 128)       0         
_________________________________________________________________
flatten_177 (Flatten)        (None, 32768)             0         
_________________________________________________________________
dense_345 (Dense)            (None, 32)                1048608   
_________________________________________________________________
batch_normalization_348 (Bat (None, 32)                128       
_________________________________________________________________
activation_520 (Activation)  (None, 32)                0         
_________________________________________________________________
dropout_520 (Dropout)        (None, 32)                0         
_________________________________________________________________
dense_346 (Dense)            (None, 10)                330       
=================================================================
Total params: 1,123,461
Trainable params: 1,122,373
Non-trainable params: 1,088
_________________________________________________________________
