Model: "sequential_152"
_________________________________________________________________
Layer (type)                 Output Shape              Param #   
=================================================================
separable_conv2d_300 (Separa (None, 32, 32, 512)       2075      
_________________________________________________________________
batch_normalization_296 (Bat (None, 32, 32, 512)       2048      
_________________________________________________________________
activation_443 (Activation)  (None, 32, 32, 512)       0         
_________________________________________________________________
dropout_443 (Dropout)        (None, 32, 32, 512)       0         
_________________________________________________________________
separable_conv2d_301 (Separa (None, 32, 32, 32)        21024     
_________________________________________________________________
activation_444 (Activation)  (None, 32, 32, 32)        0         
_________________________________________________________________
dropout_444 (Dropout)        (None, 32, 32, 32)        0         
_________________________________________________________________
flatten_152 (Flatten)        (None, 32768)             0         
_________________________________________________________________
dense_295 (Dense)            (None, 256)               8388864   
_________________________________________________________________
batch_normalization_297 (Bat (None, 256)               1024      
_________________________________________________________________
activation_445 (Activation)  (None, 256)               0         
_________________________________________________________________
dropout_445 (Dropout)        (None, 256)               0         
_________________________________________________________________
dense_296 (Dense)            (None, 10)                2570      
=================================================================
Total params: 8,417,605
Trainable params: 8,416,069
Non-trainable params: 1,536
_________________________________________________________________
