Model: "sequential_240"
_________________________________________________________________
Layer (type)                 Output Shape              Param #   
=================================================================
separable_conv2d_476 (Separa (None, 32, 32, 512)       2075      
_________________________________________________________________
activation_706 (Activation)  (None, 32, 32, 512)       0         
_________________________________________________________________
dropout_706 (Dropout)        (None, 32, 32, 512)       0         
_________________________________________________________________
separable_conv2d_477 (Separa (None, 32, 32, 512)       267264    
_________________________________________________________________
activation_707 (Activation)  (None, 32, 32, 512)       0         
_________________________________________________________________
dropout_707 (Dropout)        (None, 32, 32, 512)       0         
_________________________________________________________________
max_pooling2d_221 (MaxPoolin (None, 16, 16, 512)       0         
_________________________________________________________________
flatten_240 (Flatten)        (None, 131072)            0         
_________________________________________________________________
dense_470 (Dense)            (None, 1024)              134218752 
_________________________________________________________________
batch_normalization_468 (Bat (None, 1024)              4096      
_________________________________________________________________
activation_708 (Activation)  (None, 1024)              0         
_________________________________________________________________
dropout_708 (Dropout)        (None, 1024)              0         
_________________________________________________________________
dense_471 (Dense)            (None, 10)                10250     
=================================================================
Total params: 134,502,437
Trainable params: 134,500,389
Non-trainable params: 2,048
_________________________________________________________________
