Model: "sequential_191"
_________________________________________________________________
Layer (type)                 Output Shape              Param #   
=================================================================
separable_conv2d_378 (Separa (None, 32, 32, 256)       1051      
_________________________________________________________________
batch_normalization_375 (Bat (None, 32, 32, 256)       1024      
_________________________________________________________________
activation_560 (Activation)  (None, 32, 32, 256)       0         
_________________________________________________________________
dropout_560 (Dropout)        (None, 32, 32, 256)       0         
_________________________________________________________________
separable_conv2d_379 (Separa (None, 32, 32, 512)       133888    
_________________________________________________________________
activation_561 (Activation)  (None, 32, 32, 512)       0         
_________________________________________________________________
dropout_561 (Dropout)        (None, 32, 32, 512)       0         
_________________________________________________________________
max_pooling2d_173 (MaxPoolin (None, 16, 16, 512)       0         
_________________________________________________________________
flatten_191 (Flatten)        (None, 131072)            0         
_________________________________________________________________
dense_373 (Dense)            (None, 128)               16777344  
_________________________________________________________________
batch_normalization_376 (Bat (None, 128)               512       
_________________________________________________________________
activation_562 (Activation)  (None, 128)               0         
_________________________________________________________________
dropout_562 (Dropout)        (None, 128)               0         
_________________________________________________________________
dense_374 (Dense)            (None, 10)                1290      
=================================================================
Total params: 16,915,109
Trainable params: 16,914,341
Non-trainable params: 768
_________________________________________________________________
