Model: "sequential_134"
_________________________________________________________________
Layer (type)                 Output Shape              Param #   
=================================================================
separable_conv2d_264 (Separa (None, 32, 32, 512)       2075      
_________________________________________________________________
batch_normalization_258 (Bat (None, 32, 32, 512)       2048      
_________________________________________________________________
activation_389 (Activation)  (None, 32, 32, 512)       0         
_________________________________________________________________
dropout_389 (Dropout)        (None, 32, 32, 512)       0         
_________________________________________________________________
separable_conv2d_265 (Separa (None, 32, 32, 32)        21024     
_________________________________________________________________
activation_390 (Activation)  (None, 32, 32, 32)        0         
_________________________________________________________________
dropout_390 (Dropout)        (None, 32, 32, 32)        0         
_________________________________________________________________
max_pooling2d_114 (MaxPoolin (None, 16, 16, 32)        0         
_________________________________________________________________
flatten_134 (Flatten)        (None, 8192)              0         
_________________________________________________________________
dense_259 (Dense)            (None, 256)               2097408   
_________________________________________________________________
batch_normalization_259 (Bat (None, 256)               1024      
_________________________________________________________________
activation_391 (Activation)  (None, 256)               0         
_________________________________________________________________
dropout_391 (Dropout)        (None, 256)               0         
_________________________________________________________________
dense_260 (Dense)            (None, 10)                2570      
=================================================================
Total params: 2,126,149
Trainable params: 2,124,613
Non-trainable params: 1,536
_________________________________________________________________
