Model: "sequential_90"
_________________________________________________________________
Layer (type)                 Output Shape              Param #   
=================================================================
separable_conv2d_176 (Separa (None, 32, 32, 512)       2075      
_________________________________________________________________
batch_normalization_169 (Bat (None, 32, 32, 512)       2048      
_________________________________________________________________
activation_258 (Activation)  (None, 32, 32, 512)       0         
_________________________________________________________________
dropout_258 (Dropout)        (None, 32, 32, 512)       0         
_________________________________________________________________
separable_conv2d_177 (Separa (None, 32, 32, 32)        21024     
_________________________________________________________________
activation_259 (Activation)  (None, 32, 32, 32)        0         
_________________________________________________________________
dropout_259 (Dropout)        (None, 32, 32, 32)        0         
_________________________________________________________________
max_pooling2d_71 (MaxPooling (None, 16, 16, 32)        0         
_________________________________________________________________
flatten_90 (Flatten)         (None, 8192)              0         
_________________________________________________________________
dense_172 (Dense)            (None, 256)               2097408   
_________________________________________________________________
batch_normalization_170 (Bat (None, 256)               1024      
_________________________________________________________________
activation_260 (Activation)  (None, 256)               0         
_________________________________________________________________
dropout_260 (Dropout)        (None, 256)               0         
_________________________________________________________________
dense_173 (Dense)            (None, 10)                2570      
=================================================================
Total params: 2,126,149
Trainable params: 2,124,613
Non-trainable params: 1,536
_________________________________________________________________
