Model: "sequential_208"
_________________________________________________________________
Layer (type)                 Output Shape              Param #   
=================================================================
separable_conv2d_412 (Separa (None, 32, 32, 64)        283       
_________________________________________________________________
batch_normalization_407 (Bat (None, 32, 32, 64)        256       
_________________________________________________________________
activation_611 (Activation)  (None, 32, 32, 64)        0         
_________________________________________________________________
dropout_611 (Dropout)        (None, 32, 32, 64)        0         
_________________________________________________________________
separable_conv2d_413 (Separa (None, 32, 32, 128)       8896      
_________________________________________________________________
activation_612 (Activation)  (None, 32, 32, 128)       0         
_________________________________________________________________
dropout_612 (Dropout)        (None, 32, 32, 128)       0         
_________________________________________________________________
max_pooling2d_190 (MaxPoolin (None, 16, 16, 128)       0         
_________________________________________________________________
flatten_208 (Flatten)        (None, 32768)             0         
_________________________________________________________________
dense_407 (Dense)            (None, 128)               4194432   
_________________________________________________________________
batch_normalization_408 (Bat (None, 128)               512       
_________________________________________________________________
activation_613 (Activation)  (None, 128)               0         
_________________________________________________________________
dropout_613 (Dropout)        (None, 128)               0         
_________________________________________________________________
dense_408 (Dense)            (None, 10)                1290      
=================================================================
Total params: 4,205,669
Trainable params: 4,205,285
Non-trainable params: 384
_________________________________________________________________
