Model: "sequential_389"
_________________________________________________________________
Layer (type)                 Output Shape              Param #   
=================================================================
separable_conv2d_739 (Separa (None, 32, 32, 512)       2075      
_________________________________________________________________
batch_normalization_728 (Bat (None, 32, 32, 512)       2048      
_________________________________________________________________
activation_1093 (Activation) (None, 32, 32, 512)       0         
_________________________________________________________________
dropout_1093 (Dropout)       (None, 32, 32, 512)       0         
_________________________________________________________________
separable_conv2d_740 (Separa (None, 32, 32, 64)        37440     
_________________________________________________________________
activation_1094 (Activation) (None, 32, 32, 64)        0         
_________________________________________________________________
dropout_1094 (Dropout)       (None, 32, 32, 64)        0         
_________________________________________________________________
flatten_389 (Flatten)        (None, 65536)             0         
_________________________________________________________________
dense_743 (Dense)            (None, 128)               8388736   
_________________________________________________________________
batch_normalization_729 (Bat (None, 128)               512       
_________________________________________________________________
activation_1095 (Activation) (None, 128)               0         
_________________________________________________________________
dropout_1095 (Dropout)       (None, 128)               0         
_________________________________________________________________
dense_744 (Dense)            (None, 10)                1290      
=================================================================
Total params: 8,432,101
Trainable params: 8,430,821
Non-trainable params: 1,280
_________________________________________________________________
