Model: "sequential_67"
_________________________________________________________________
Layer (type)                 Output Shape              Param #   
=================================================================
separable_conv2d_133 (Separa (None, 32, 32, 512)       2075      
_________________________________________________________________
batch_normalization_127 (Bat (None, 32, 32, 512)       2048      
_________________________________________________________________
activation_193 (Activation)  (None, 32, 32, 512)       0         
_________________________________________________________________
dropout_193 (Dropout)        (None, 32, 32, 512)       0         
_________________________________________________________________
max_pooling2d_52 (MaxPooling (None, 16, 16, 512)       0         
_________________________________________________________________
separable_conv2d_134 (Separa (None, 16, 16, 32)        21024     
_________________________________________________________________
activation_194 (Activation)  (None, 16, 16, 32)        0         
_________________________________________________________________
dropout_194 (Dropout)        (None, 16, 16, 32)        0         
_________________________________________________________________
max_pooling2d_53 (MaxPooling (None, 8, 8, 32)          0         
_________________________________________________________________
flatten_67 (Flatten)         (None, 2048)              0         
_________________________________________________________________
dense_127 (Dense)            (None, 256)               524544    
_________________________________________________________________
batch_normalization_128 (Bat (None, 256)               1024      
_________________________________________________________________
activation_195 (Activation)  (None, 256)               0         
_________________________________________________________________
dropout_195 (Dropout)        (None, 256)               0         
_________________________________________________________________
dense_128 (Dense)            (None, 10)                2570      
=================================================================
Total params: 553,285
Trainable params: 551,749
Non-trainable params: 1,536
_________________________________________________________________
