Model: "sequential_34"
_________________________________________________________________
Layer (type)                 Output Shape              Param #   
=================================================================
separable_conv2d_73 (Separab (None, 32, 32, 8)         59        
_________________________________________________________________
activation_102 (Activation)  (None, 32, 32, 8)         0         
_________________________________________________________________
dropout_102 (Dropout)        (None, 32, 32, 8)         0         
_________________________________________________________________
separable_conv2d_74 (Separab (None, 32, 32, 128)       1224      
_________________________________________________________________
batch_normalization_65 (Batc (None, 32, 32, 128)       512       
_________________________________________________________________
activation_103 (Activation)  (None, 32, 32, 128)       0         
_________________________________________________________________
dropout_103 (Dropout)        (None, 32, 32, 128)       0         
_________________________________________________________________
flatten_34 (Flatten)         (None, 131072)            0         
_________________________________________________________________
dense_63 (Dense)             (None, 256)               33554688  
_________________________________________________________________
batch_normalization_66 (Batc (None, 256)               1024      
_________________________________________________________________
activation_104 (Activation)  (None, 256)               0         
_________________________________________________________________
dropout_104 (Dropout)        (None, 256)               0         
_________________________________________________________________
dense_64 (Dense)             (None, 10)                2570      
=================================================================
Total params: 33,560,077
Trainable params: 33,559,309
Non-trainable params: 768
_________________________________________________________________
