Model: "sequential_81"
_________________________________________________________________
Layer (type)                 Output Shape              Param #   
=================================================================
separable_conv2d_159 (Separa (None, 32, 32, 512)       2075      
_________________________________________________________________
batch_normalization_154 (Bat (None, 32, 32, 512)       2048      
_________________________________________________________________
activation_233 (Activation)  (None, 32, 32, 512)       0         
_________________________________________________________________
dropout_233 (Dropout)        (None, 32, 32, 512)       0         
_________________________________________________________________
separable_conv2d_160 (Separa (None, 32, 32, 32)        21024     
_________________________________________________________________
activation_234 (Activation)  (None, 32, 32, 32)        0         
_________________________________________________________________
dropout_234 (Dropout)        (None, 32, 32, 32)        0         
_________________________________________________________________
max_pooling2d_64 (MaxPooling (None, 16, 16, 32)        0         
_________________________________________________________________
flatten_81 (Flatten)         (None, 8192)              0         
_________________________________________________________________
dense_155 (Dense)            (None, 256)               2097408   
_________________________________________________________________
batch_normalization_155 (Bat (None, 256)               1024      
_________________________________________________________________
activation_235 (Activation)  (None, 256)               0         
_________________________________________________________________
dropout_235 (Dropout)        (None, 256)               0         
_________________________________________________________________
dense_156 (Dense)            (None, 10)                2570      
=================================================================
Total params: 2,126,149
Trainable params: 2,124,613
Non-trainable params: 1,536
_________________________________________________________________
