Model: "sequential_398"
_________________________________________________________________
Layer (type)                 Output Shape              Param #   
=================================================================
separable_conv2d_756 (Separa (None, 32, 32, 32)        155       
_________________________________________________________________
activation_1117 (Activation) (None, 32, 32, 32)        0         
_________________________________________________________________
dropout_1117 (Dropout)       (None, 32, 32, 32)        0         
_________________________________________________________________
separable_conv2d_757 (Separa (None, 32, 32, 16)        816       
_________________________________________________________________
activation_1118 (Activation) (None, 32, 32, 16)        0         
_________________________________________________________________
dropout_1118 (Dropout)       (None, 32, 32, 16)        0         
_________________________________________________________________
flatten_398 (Flatten)        (None, 16384)             0         
_________________________________________________________________
dense_759 (Dense)            (None, 1024)              16778240  
_________________________________________________________________
batch_normalization_741 (Bat (None, 1024)              4096      
_________________________________________________________________
activation_1119 (Activation) (None, 1024)              0         
_________________________________________________________________
dropout_1119 (Dropout)       (None, 1024)              0         
_________________________________________________________________
dense_760 (Dense)            (None, 10)                10250     
=================================================================
Total params: 16,793,557
Trainable params: 16,791,509
Non-trainable params: 2,048
_________________________________________________________________
