Model: "sequential_326"
_________________________________________________________________
Layer (type)                 Output Shape              Param #   
=================================================================
separable_conv2d_626 (Separa (None, 32, 32, 512)       2075      
_________________________________________________________________
batch_normalization_621 (Bat (None, 32, 32, 512)       2048      
_________________________________________________________________
activation_933 (Activation)  (None, 32, 32, 512)       0         
_________________________________________________________________
dropout_933 (Dropout)        (None, 32, 32, 512)       0         
_________________________________________________________________
separable_conv2d_627 (Separa (None, 32, 32, 128)       70272     
_________________________________________________________________
activation_934 (Activation)  (None, 32, 32, 128)       0         
_________________________________________________________________
dropout_934 (Dropout)        (None, 32, 32, 128)       0         
_________________________________________________________________
flatten_326 (Flatten)        (None, 131072)            0         
_________________________________________________________________
dense_633 (Dense)            (None, 10)                1310730   
=================================================================
Total params: 1,385,125
Trainable params: 1,384,101
Non-trainable params: 1,024
_________________________________________________________________
