Model: "sequential_272"
_________________________________________________________________
Layer (type)                 Output Shape              Param #   
=================================================================
separable_conv2d_535 (Separa (None, 32, 32, 512)       2075      
_________________________________________________________________
batch_normalization_522 (Bat (None, 32, 32, 512)       2048      
_________________________________________________________________
activation_793 (Activation)  (None, 32, 32, 512)       0         
_________________________________________________________________
dropout_793 (Dropout)        (None, 32, 32, 512)       0         
_________________________________________________________________
max_pooling2d_240 (MaxPoolin (None, 16, 16, 512)       0         
_________________________________________________________________
flatten_272 (Flatten)        (None, 131072)            0         
_________________________________________________________________
dense_530 (Dense)            (None, 128)               16777344  
_________________________________________________________________
batch_normalization_523 (Bat (None, 128)               512       
_________________________________________________________________
activation_794 (Activation)  (None, 128)               0         
_________________________________________________________________
dropout_794 (Dropout)        (None, 128)               0         
_________________________________________________________________
dense_531 (Dense)            (None, 10)                1290      
=================================================================
Total params: 16,783,269
Trainable params: 16,781,989
Non-trainable params: 1,280
_________________________________________________________________
