Model: "sequential_366"
_________________________________________________________________
Layer (type)                 Output Shape              Param #   
=================================================================
separable_conv2d_695 (Separa (None, 32, 32, 512)       2075      
_________________________________________________________________
batch_normalization_685 (Bat (None, 32, 32, 512)       2048      
_________________________________________________________________
activation_1029 (Activation) (None, 32, 32, 512)       0         
_________________________________________________________________
dropout_1029 (Dropout)       (None, 32, 32, 512)       0         
_________________________________________________________________
separable_conv2d_696 (Separa (None, 32, 32, 8)         8712      
_________________________________________________________________
activation_1030 (Activation) (None, 32, 32, 8)         0         
_________________________________________________________________
dropout_1030 (Dropout)       (None, 32, 32, 8)         0         
_________________________________________________________________
max_pooling2d_269 (MaxPoolin (None, 16, 16, 8)         0         
_________________________________________________________________
flatten_366 (Flatten)        (None, 2048)              0         
_________________________________________________________________
dense_700 (Dense)            (None, 512)               1049088   
_________________________________________________________________
batch_normalization_686 (Bat (None, 512)               2048      
_________________________________________________________________
activation_1031 (Activation) (None, 512)               0         
_________________________________________________________________
dropout_1031 (Dropout)       (None, 512)               0         
_________________________________________________________________
dense_701 (Dense)            (None, 10)                5130      
=================================================================
Total params: 1,069,101
Trainable params: 1,067,053
Non-trainable params: 2,048
_________________________________________________________________
