Model: "sequential_161"
_________________________________________________________________
Layer (type)                 Output Shape              Param #   
=================================================================
separable_conv2d_318 (Separa (None, 32, 32, 512)       2075      
_________________________________________________________________
batch_normalization_315 (Bat (None, 32, 32, 512)       2048      
_________________________________________________________________
activation_470 (Activation)  (None, 32, 32, 512)       0         
_________________________________________________________________
dropout_470 (Dropout)        (None, 32, 32, 512)       0         
_________________________________________________________________
separable_conv2d_319 (Separa (None, 32, 32, 128)       70272     
_________________________________________________________________
activation_471 (Activation)  (None, 32, 32, 128)       0         
_________________________________________________________________
dropout_471 (Dropout)        (None, 32, 32, 128)       0         
_________________________________________________________________
max_pooling2d_140 (MaxPoolin (None, 16, 16, 128)       0         
_________________________________________________________________
flatten_161 (Flatten)        (None, 32768)             0         
_________________________________________________________________
dense_313 (Dense)            (None, 128)               4194432   
_________________________________________________________________
batch_normalization_316 (Bat (None, 128)               512       
_________________________________________________________________
activation_472 (Activation)  (None, 128)               0         
_________________________________________________________________
dropout_472 (Dropout)        (None, 128)               0         
_________________________________________________________________
dense_314 (Dense)            (None, 10)                1290      
=================================================================
Total params: 4,270,629
Trainable params: 4,269,349
Non-trainable params: 1,280
_________________________________________________________________
