Model: "sequential_358"
_________________________________________________________________
Layer (type)                 Output Shape              Param #   
=================================================================
separable_conv2d_679 (Separa (None, 32, 32, 16)        91        
_________________________________________________________________
batch_normalization_672 (Bat (None, 32, 32, 16)        64        
_________________________________________________________________
activation_1006 (Activation) (None, 32, 32, 16)        0         
_________________________________________________________________
dropout_1006 (Dropout)       (None, 32, 32, 16)        0         
_________________________________________________________________
separable_conv2d_680 (Separa (None, 32, 32, 8)         280       
_________________________________________________________________
activation_1007 (Activation) (None, 32, 32, 8)         0         
_________________________________________________________________
dropout_1007 (Dropout)       (None, 32, 32, 8)         0         
_________________________________________________________________
flatten_358 (Flatten)        (None, 8192)              0         
_________________________________________________________________
dense_685 (Dense)            (None, 512)               4194816   
_________________________________________________________________
activation_1008 (Activation) (None, 512)               0         
_________________________________________________________________
dropout_1008 (Dropout)       (None, 512)               0         
_________________________________________________________________
dense_686 (Dense)            (None, 10)                5130      
=================================================================
Total params: 4,200,381
Trainable params: 4,200,349
Non-trainable params: 32
_________________________________________________________________
