Model: "sequential_97"
_________________________________________________________________
Layer (type)                 Output Shape              Param #   
=================================================================
separable_conv2d_190 (Separa (None, 32, 32, 512)       2075      
_________________________________________________________________
batch_normalization_182 (Bat (None, 32, 32, 512)       2048      
_________________________________________________________________
activation_279 (Activation)  (None, 32, 32, 512)       0         
_________________________________________________________________
dropout_279 (Dropout)        (None, 32, 32, 512)       0         
_________________________________________________________________
separable_conv2d_191 (Separa (None, 32, 32, 32)        21024     
_________________________________________________________________
activation_280 (Activation)  (None, 32, 32, 32)        0         
_________________________________________________________________
dropout_280 (Dropout)        (None, 32, 32, 32)        0         
_________________________________________________________________
max_pooling2d_77 (MaxPooling (None, 16, 16, 32)        0         
_________________________________________________________________
flatten_97 (Flatten)         (None, 8192)              0         
_________________________________________________________________
dense_186 (Dense)            (None, 256)               2097408   
_________________________________________________________________
batch_normalization_183 (Bat (None, 256)               1024      
_________________________________________________________________
activation_281 (Activation)  (None, 256)               0         
_________________________________________________________________
dropout_281 (Dropout)        (None, 256)               0         
_________________________________________________________________
dense_187 (Dense)            (None, 10)                2570      
=================================================================
Total params: 2,126,149
Trainable params: 2,124,613
Non-trainable params: 1,536
_________________________________________________________________
