Model: "sequential_54"
_________________________________________________________________
Layer (type)                 Output Shape              Param #   
=================================================================
separable_conv2d_109 (Separa (None, 32, 32, 512)       2075      
_________________________________________________________________
batch_normalization_103 (Bat (None, 32, 32, 512)       2048      
_________________________________________________________________
activation_157 (Activation)  (None, 32, 32, 512)       0         
_________________________________________________________________
dropout_157 (Dropout)        (None, 32, 32, 512)       0         
_________________________________________________________________
separable_conv2d_110 (Separa (None, 32, 32, 32)        21024     
_________________________________________________________________
activation_158 (Activation)  (None, 32, 32, 32)        0         
_________________________________________________________________
dropout_158 (Dropout)        (None, 32, 32, 32)        0         
_________________________________________________________________
max_pooling2d_41 (MaxPooling (None, 16, 16, 32)        0         
_________________________________________________________________
flatten_54 (Flatten)         (None, 8192)              0         
_________________________________________________________________
dense_102 (Dense)            (None, 256)               2097408   
_________________________________________________________________
batch_normalization_104 (Bat (None, 256)               1024      
_________________________________________________________________
activation_159 (Activation)  (None, 256)               0         
_________________________________________________________________
dropout_159 (Dropout)        (None, 256)               0         
_________________________________________________________________
dense_103 (Dense)            (None, 10)                2570      
=================================================================
Total params: 2,126,149
Trainable params: 2,124,613
Non-trainable params: 1,536
_________________________________________________________________
