Model: "sequential_26"
_________________________________________________________________
Layer (type)                 Output Shape              Param #   
=================================================================
separable_conv2d_59 (Separab (None, 32, 32, 512)       2075      
_________________________________________________________________
batch_normalization_49 (Batc (None, 32, 32, 512)       2048      
_________________________________________________________________
activation_80 (Activation)   (None, 32, 32, 512)       0         
_________________________________________________________________
dropout_80 (Dropout)         (None, 32, 32, 512)       0         
_________________________________________________________________
separable_conv2d_60 (Separab (None, 32, 32, 32)        21024     
_________________________________________________________________
activation_81 (Activation)   (None, 32, 32, 32)        0         
_________________________________________________________________
dropout_81 (Dropout)         (None, 32, 32, 32)        0         
_________________________________________________________________
max_pooling2d_22 (MaxPooling (None, 16, 16, 32)        0         
_________________________________________________________________
flatten_26 (Flatten)         (None, 8192)              0         
_________________________________________________________________
dense_47 (Dense)             (None, 256)               2097408   
_________________________________________________________________
batch_normalization_50 (Batc (None, 256)               1024      
_________________________________________________________________
activation_82 (Activation)   (None, 256)               0         
_________________________________________________________________
dropout_82 (Dropout)         (None, 256)               0         
_________________________________________________________________
dense_48 (Dense)             (None, 10)                2570      
=================================================================
Total params: 2,126,149
Trainable params: 2,124,613
Non-trainable params: 1,536
_________________________________________________________________
