Model: "sequential"
_________________________________________________________________
Layer (type)                 Output Shape              Param #   
=================================================================
separable_conv2d (SeparableC (None, 32, 32, 512)       2075      
_________________________________________________________________
batch_normalization (BatchNo (None, 32, 32, 512)       2048      
_________________________________________________________________
activation (Activation)      (None, 32, 32, 512)       0         
_________________________________________________________________
dropout (Dropout)            (None, 32, 32, 512)       0         
_________________________________________________________________
separable_conv2d_1 (Separabl (None, 32, 32, 32)        21024     
_________________________________________________________________
activation_1 (Activation)    (None, 32, 32, 32)        0         
_________________________________________________________________
dropout_1 (Dropout)          (None, 32, 32, 32)        0         
_________________________________________________________________
max_pooling2d (MaxPooling2D) (None, 16, 16, 32)        0         
_________________________________________________________________
flatten (Flatten)            (None, 8192)              0         
_________________________________________________________________
dense (Dense)                (None, 256)               2097408   
_________________________________________________________________
batch_normalization_1 (Batch (None, 256)               1024      
_________________________________________________________________
activation_2 (Activation)    (None, 256)               0         
_________________________________________________________________
dropout_2 (Dropout)          (None, 256)               0         
_________________________________________________________________
dense_1 (Dense)              (None, 10)                2570      
=================================================================
Total params: 2,126,149
Trainable params: 2,124,613
Non-trainable params: 1,536
_________________________________________________________________
