Model: "sequential_334"
_________________________________________________________________
Layer (type)                 Output Shape              Param #   
=================================================================
separable_conv2d_642 (Separa (None, 32, 32, 512)       2075      
_________________________________________________________________
batch_normalization_633 (Bat (None, 32, 32, 512)       2048      
_________________________________________________________________
activation_953 (Activation)  (None, 32, 32, 512)       0         
_________________________________________________________________
dropout_953 (Dropout)        (None, 32, 32, 512)       0         
_________________________________________________________________
separable_conv2d_643 (Separa (None, 32, 32, 8)         8712      
_________________________________________________________________
activation_954 (Activation)  (None, 32, 32, 8)         0         
_________________________________________________________________
dropout_954 (Dropout)        (None, 32, 32, 8)         0         
_________________________________________________________________
flatten_334 (Flatten)        (None, 8192)              0         
_________________________________________________________________
dense_645 (Dense)            (None, 256)               2097408   
_________________________________________________________________
batch_normalization_634 (Bat (None, 256)               1024      
_________________________________________________________________
activation_955 (Activation)  (None, 256)               0         
_________________________________________________________________
dropout_955 (Dropout)        (None, 256)               0         
_________________________________________________________________
dense_646 (Dense)            (None, 10)                2570      
=================================================================
Total params: 2,113,837
Trainable params: 2,112,301
Non-trainable params: 1,536
_________________________________________________________________
