Model: "sequential_342"
_________________________________________________________________
Layer (type)                 Output Shape              Param #   
=================================================================
separable_conv2d_654 (Separa (None, 32, 32, 128)       539       
_________________________________________________________________
batch_normalization_649 (Bat (None, 32, 32, 128)       512       
_________________________________________________________________
activation_973 (Activation)  (None, 32, 32, 128)       0         
_________________________________________________________________
dropout_973 (Dropout)        (None, 32, 32, 128)       0         
_________________________________________________________________
flatten_342 (Flatten)        (None, 131072)            0         
_________________________________________________________________
dense_661 (Dense)            (None, 10)                1310730   
=================================================================
Total params: 1,311,781
Trainable params: 1,311,525
Non-trainable params: 256
_________________________________________________________________
