Model: "sequential_245"
_________________________________________________________________
Layer (type)                 Output Shape              Param #   
=================================================================
separable_conv2d_486 (Separa (None, 32, 32, 512)       2075      
_________________________________________________________________
batch_normalization_476 (Bat (None, 32, 32, 512)       2048      
_________________________________________________________________
activation_720 (Activation)  (None, 32, 32, 512)       0         
_________________________________________________________________
dropout_720 (Dropout)        (None, 32, 32, 512)       0         
_________________________________________________________________
max_pooling2d_224 (MaxPoolin (None, 16, 16, 512)       0         
_________________________________________________________________
separable_conv2d_487 (Separa (None, 16, 16, 512)       267264    
_________________________________________________________________
activation_721 (Activation)  (None, 16, 16, 512)       0         
_________________________________________________________________
dropout_721 (Dropout)        (None, 16, 16, 512)       0         
_________________________________________________________________
max_pooling2d_225 (MaxPoolin (None, 8, 8, 512)         0         
_________________________________________________________________
flatten_245 (Flatten)        (None, 32768)             0         
_________________________________________________________________
dense_479 (Dense)            (None, 128)               4194432   
_________________________________________________________________
batch_normalization_477 (Bat (None, 128)               512       
_________________________________________________________________
activation_722 (Activation)  (None, 128)               0         
_________________________________________________________________
dropout_722 (Dropout)        (None, 128)               0         
_________________________________________________________________
dense_480 (Dense)            (None, 10)                1290      
=================================================================
Total params: 4,467,621
Trainable params: 4,466,341
Non-trainable params: 1,280
_________________________________________________________________
