Model: "sequential_157"
_________________________________________________________________
Layer (type)                 Output Shape              Param #   
=================================================================
separable_conv2d_310 (Separa (None, 32, 32, 512)       2075      
_________________________________________________________________
batch_normalization_306 (Bat (None, 32, 32, 512)       2048      
_________________________________________________________________
activation_458 (Activation)  (None, 32, 32, 512)       0         
_________________________________________________________________
dropout_458 (Dropout)        (None, 32, 32, 512)       0         
_________________________________________________________________
separable_conv2d_311 (Separa (None, 32, 32, 128)       70272     
_________________________________________________________________
batch_normalization_307 (Bat (None, 32, 32, 128)       512       
_________________________________________________________________
activation_459 (Activation)  (None, 32, 32, 128)       0         
_________________________________________________________________
dropout_459 (Dropout)        (None, 32, 32, 128)       0         
_________________________________________________________________
max_pooling2d_136 (MaxPoolin (None, 16, 16, 128)       0         
_________________________________________________________________
flatten_157 (Flatten)        (None, 32768)             0         
_________________________________________________________________
dense_305 (Dense)            (None, 128)               4194432   
_________________________________________________________________
batch_normalization_308 (Bat (None, 128)               512       
_________________________________________________________________
activation_460 (Activation)  (None, 128)               0         
_________________________________________________________________
dropout_460 (Dropout)        (None, 128)               0         
_________________________________________________________________
dense_306 (Dense)            (None, 10)                1290      
=================================================================
Total params: 4,271,141
Trainable params: 4,269,605
Non-trainable params: 1,536
_________________________________________________________________
