Model: "sequential_234"
_________________________________________________________________
Layer (type)                 Output Shape              Param #   
=================================================================
separable_conv2d_464 (Separa (None, 32, 32, 512)       2075      
_________________________________________________________________
batch_normalization_457 (Bat (None, 32, 32, 512)       2048      
_________________________________________________________________
activation_689 (Activation)  (None, 32, 32, 512)       0         
_________________________________________________________________
dropout_689 (Dropout)        (None, 32, 32, 512)       0         
_________________________________________________________________
separable_conv2d_465 (Separa (None, 32, 32, 128)       70272     
_________________________________________________________________
activation_690 (Activation)  (None, 32, 32, 128)       0         
_________________________________________________________________
dropout_690 (Dropout)        (None, 32, 32, 128)       0         
_________________________________________________________________
max_pooling2d_215 (MaxPoolin (None, 16, 16, 128)       0         
_________________________________________________________________
flatten_234 (Flatten)        (None, 32768)             0         
_________________________________________________________________
dense_459 (Dense)            (None, 128)               4194432   
_________________________________________________________________
batch_normalization_458 (Bat (None, 128)               512       
_________________________________________________________________
activation_691 (Activation)  (None, 128)               0         
_________________________________________________________________
dropout_691 (Dropout)        (None, 128)               0         
_________________________________________________________________
dense_460 (Dense)            (None, 10)                1290      
=================================================================
Total params: 4,270,629
Trainable params: 4,269,349
Non-trainable params: 1,280
_________________________________________________________________
