Model: "sequential_316"
_________________________________________________________________
Layer (type)                 Output Shape              Param #   
=================================================================
separable_conv2d_609 (Separa (None, 32, 32, 128)       539       
_________________________________________________________________
batch_normalization_603 (Bat (None, 32, 32, 128)       512       
_________________________________________________________________
activation_906 (Activation)  (None, 32, 32, 128)       0         
_________________________________________________________________
dropout_906 (Dropout)        (None, 32, 32, 128)       0         
_________________________________________________________________
max_pooling2d_255 (MaxPoolin (None, 16, 16, 128)       0         
_________________________________________________________________
separable_conv2d_610 (Separa (None, 16, 16, 512)       67200     
_________________________________________________________________
batch_normalization_604 (Bat (None, 16, 16, 512)       2048      
_________________________________________________________________
activation_907 (Activation)  (None, 16, 16, 512)       0         
_________________________________________________________________
dropout_907 (Dropout)        (None, 16, 16, 512)       0         
_________________________________________________________________
flatten_316 (Flatten)        (None, 131072)            0         
_________________________________________________________________
dense_613 (Dense)            (None, 256)               33554688  
_________________________________________________________________
batch_normalization_605 (Bat (None, 256)               1024      
_________________________________________________________________
activation_908 (Activation)  (None, 256)               0         
_________________________________________________________________
dropout_908 (Dropout)        (None, 256)               0         
_________________________________________________________________
dense_614 (Dense)            (None, 10)                2570      
=================================================================
Total params: 33,628,581
Trainable params: 33,626,789
Non-trainable params: 1,792
_________________________________________________________________
