Model: "sequential_239"
_________________________________________________________________
Layer (type)                 Output Shape              Param #   
=================================================================
separable_conv2d_474 (Separa (None, 32, 32, 512)       2075      
_________________________________________________________________
batch_normalization_466 (Bat (None, 32, 32, 512)       2048      
_________________________________________________________________
activation_703 (Activation)  (None, 32, 32, 512)       0         
_________________________________________________________________
dropout_703 (Dropout)        (None, 32, 32, 512)       0         
_________________________________________________________________
separable_conv2d_475 (Separa (None, 32, 32, 128)       70272     
_________________________________________________________________
activation_704 (Activation)  (None, 32, 32, 128)       0         
_________________________________________________________________
dropout_704 (Dropout)        (None, 32, 32, 128)       0         
_________________________________________________________________
max_pooling2d_220 (MaxPoolin (None, 16, 16, 128)       0         
_________________________________________________________________
flatten_239 (Flatten)        (None, 32768)             0         
_________________________________________________________________
dense_468 (Dense)            (None, 1024)              33555456  
_________________________________________________________________
batch_normalization_467 (Bat (None, 1024)              4096      
_________________________________________________________________
activation_705 (Activation)  (None, 1024)              0         
_________________________________________________________________
dropout_705 (Dropout)        (None, 1024)              0         
_________________________________________________________________
dense_469 (Dense)            (None, 10)                10250     
=================================================================
Total params: 33,644,197
Trainable params: 33,641,125
Non-trainable params: 3,072
_________________________________________________________________
