Model: "sequential_277"
_________________________________________________________________
Layer (type)                 Output Shape              Param #   
=================================================================
separable_conv2d_543 (Separa (None, 32, 32, 512)       2075      
_________________________________________________________________
batch_normalization_531 (Bat (None, 32, 32, 512)       2048      
_________________________________________________________________
activation_805 (Activation)  (None, 32, 32, 512)       0         
_________________________________________________________________
dropout_805 (Dropout)        (None, 32, 32, 512)       0         
_________________________________________________________________
separable_conv2d_544 (Separa (None, 32, 32, 32)        21024     
_________________________________________________________________
activation_806 (Activation)  (None, 32, 32, 32)        0         
_________________________________________________________________
dropout_806 (Dropout)        (None, 32, 32, 32)        0         
_________________________________________________________________
flatten_277 (Flatten)        (None, 32768)             0         
_________________________________________________________________
dense_539 (Dense)            (None, 128)               4194432   
_________________________________________________________________
batch_normalization_532 (Bat (None, 128)               512       
_________________________________________________________________
activation_807 (Activation)  (None, 128)               0         
_________________________________________________________________
dropout_807 (Dropout)        (None, 128)               0         
_________________________________________________________________
dense_540 (Dense)            (None, 10)                1290      
=================================================================
Total params: 4,221,381
Trainable params: 4,220,101
Non-trainable params: 1,280
_________________________________________________________________
