Model: "sequential_183"
_________________________________________________________________
Layer (type)                 Output Shape              Param #   
=================================================================
separable_conv2d_362 (Separa (None, 32, 32, 8)         59        
_________________________________________________________________
batch_normalization_359 (Bat (None, 32, 32, 8)         32        
_________________________________________________________________
activation_536 (Activation)  (None, 32, 32, 8)         0         
_________________________________________________________________
dropout_536 (Dropout)        (None, 32, 32, 8)         0         
_________________________________________________________________
max_pooling2d_164 (MaxPoolin (None, 16, 16, 8)         0         
_________________________________________________________________
separable_conv2d_363 (Separa (None, 16, 16, 128)       1224      
_________________________________________________________________
activation_537 (Activation)  (None, 16, 16, 128)       0         
_________________________________________________________________
dropout_537 (Dropout)        (None, 16, 16, 128)       0         
_________________________________________________________________
max_pooling2d_165 (MaxPoolin (None, 8, 8, 128)         0         
_________________________________________________________________
flatten_183 (Flatten)        (None, 8192)              0         
_________________________________________________________________
dense_357 (Dense)            (None, 32)                262176    
_________________________________________________________________
batch_normalization_360 (Bat (None, 32)                128       
_________________________________________________________________
activation_538 (Activation)  (None, 32)                0         
_________________________________________________________________
dropout_538 (Dropout)        (None, 32)                0         
_________________________________________________________________
dense_358 (Dense)            (None, 10)                330       
=================================================================
Total params: 263,949
Trainable params: 263,869
Non-trainable params: 80
_________________________________________________________________
