Model: "sequential_257"
_________________________________________________________________
Layer (type)                 Output Shape              Param #   
=================================================================
separable_conv2d_509 (Separa (None, 32, 32, 128)       539       
_________________________________________________________________
batch_normalization_497 (Bat (None, 32, 32, 128)       512       
_________________________________________________________________
activation_754 (Activation)  (None, 32, 32, 128)       0         
_________________________________________________________________
dropout_754 (Dropout)        (None, 32, 32, 128)       0         
_________________________________________________________________
separable_conv2d_510 (Separa (None, 32, 32, 128)       17664     
_________________________________________________________________
activation_755 (Activation)  (None, 32, 32, 128)       0         
_________________________________________________________________
dropout_755 (Dropout)        (None, 32, 32, 128)       0         
_________________________________________________________________
flatten_257 (Flatten)        (None, 131072)            0         
_________________________________________________________________
dense_502 (Dense)            (None, 128)               16777344  
_________________________________________________________________
batch_normalization_498 (Bat (None, 128)               512       
_________________________________________________________________
activation_756 (Activation)  (None, 128)               0         
_________________________________________________________________
dropout_756 (Dropout)        (None, 128)               0         
_________________________________________________________________
dense_503 (Dense)            (None, 10)                1290      
=================================================================
Total params: 16,797,861
Trainable params: 16,797,349
Non-trainable params: 512
_________________________________________________________________
