Model: "sequential_359"
_________________________________________________________________
Layer (type)                 Output Shape              Param #   
=================================================================
separable_conv2d_681 (Separa (None, 32, 32, 512)       2075      
_________________________________________________________________
batch_normalization_673 (Bat (None, 32, 32, 512)       2048      
_________________________________________________________________
activation_1009 (Activation) (None, 32, 32, 512)       0         
_________________________________________________________________
dropout_1009 (Dropout)       (None, 32, 32, 512)       0         
_________________________________________________________________
separable_conv2d_682 (Separa (None, 32, 32, 8)         8712      
_________________________________________________________________
activation_1010 (Activation) (None, 32, 32, 8)         0         
_________________________________________________________________
dropout_1010 (Dropout)       (None, 32, 32, 8)         0         
_________________________________________________________________
max_pooling2d_265 (MaxPoolin (None, 16, 16, 8)         0         
_________________________________________________________________
flatten_359 (Flatten)        (None, 2048)              0         
_________________________________________________________________
dense_687 (Dense)            (None, 512)               1049088   
_________________________________________________________________
batch_normalization_674 (Bat (None, 512)               2048      
_________________________________________________________________
activation_1011 (Activation) (None, 512)               0         
_________________________________________________________________
dropout_1011 (Dropout)       (None, 512)               0         
_________________________________________________________________
dense_688 (Dense)            (None, 10)                5130      
=================================================================
Total params: 1,069,101
Trainable params: 1,067,053
Non-trainable params: 2,048
_________________________________________________________________
