Model: "sequential_84"
_________________________________________________________________
Layer (type)                 Output Shape              Param #   
=================================================================
separable_conv2d_165 (Separa (None, 32, 32, 512)       2075      
_________________________________________________________________
activation_242 (Activation)  (None, 32, 32, 512)       0         
_________________________________________________________________
dropout_242 (Dropout)        (None, 32, 32, 512)       0         
_________________________________________________________________
separable_conv2d_166 (Separa (None, 32, 32, 32)        21024     
_________________________________________________________________
activation_243 (Activation)  (None, 32, 32, 32)        0         
_________________________________________________________________
dropout_243 (Dropout)        (None, 32, 32, 32)        0         
_________________________________________________________________
max_pooling2d_67 (MaxPooling (None, 16, 16, 32)        0         
_________________________________________________________________
flatten_84 (Flatten)         (None, 8192)              0         
_________________________________________________________________
dense_161 (Dense)            (None, 256)               2097408   
_________________________________________________________________
batch_normalization_160 (Bat (None, 256)               1024      
_________________________________________________________________
activation_244 (Activation)  (None, 256)               0         
_________________________________________________________________
dropout_244 (Dropout)        (None, 256)               0         
_________________________________________________________________
dense_162 (Dense)            (None, 10)                2570      
=================================================================
Total params: 2,124,101
Trainable params: 2,123,589
Non-trainable params: 512
_________________________________________________________________
