Model: "sequential_288"
_________________________________________________________________
Layer (type)                 Output Shape              Param #   
=================================================================
separable_conv2d_562 (Separa (None, 32, 32, 512)       2075      
_________________________________________________________________
batch_normalization_550 (Bat (None, 32, 32, 512)       2048      
_________________________________________________________________
activation_834 (Activation)  (None, 32, 32, 512)       0         
_________________________________________________________________
dropout_834 (Dropout)        (None, 32, 32, 512)       0         
_________________________________________________________________
separable_conv2d_563 (Separa (None, 32, 32, 32)        21024     
_________________________________________________________________
activation_835 (Activation)  (None, 32, 32, 32)        0         
_________________________________________________________________
dropout_835 (Dropout)        (None, 32, 32, 32)        0         
_________________________________________________________________
flatten_288 (Flatten)        (None, 32768)             0         
_________________________________________________________________
dense_560 (Dense)            (None, 10)                327690    
=================================================================
Total params: 352,837
Trainable params: 351,813
Non-trainable params: 1,024
_________________________________________________________________
