Model: "sequential_309"
_________________________________________________________________
Layer (type)                 Output Shape              Param #   
=================================================================
separable_conv2d_597 (Separa (None, 32, 32, 512)       2075      
_________________________________________________________________
batch_normalization_590 (Bat (None, 32, 32, 512)       2048      
_________________________________________________________________
activation_888 (Activation)  (None, 32, 32, 512)       0         
_________________________________________________________________
dropout_888 (Dropout)        (None, 32, 32, 512)       0         
_________________________________________________________________
max_pooling2d_252 (MaxPoolin (None, 16, 16, 512)       0         
_________________________________________________________________
separable_conv2d_598 (Separa (None, 16, 16, 512)       267264    
_________________________________________________________________
batch_normalization_591 (Bat (None, 16, 16, 512)       2048      
_________________________________________________________________
activation_889 (Activation)  (None, 16, 16, 512)       0         
_________________________________________________________________
dropout_889 (Dropout)        (None, 16, 16, 512)       0         
_________________________________________________________________
flatten_309 (Flatten)        (None, 131072)            0         
_________________________________________________________________
dense_600 (Dense)            (None, 128)               16777344  
_________________________________________________________________
batch_normalization_592 (Bat (None, 128)               512       
_________________________________________________________________
activation_890 (Activation)  (None, 128)               0         
_________________________________________________________________
dropout_890 (Dropout)        (None, 128)               0         
_________________________________________________________________
dense_601 (Dense)            (None, 10)                1290      
=================================================================
Total params: 17,052,581
Trainable params: 17,050,277
Non-trainable params: 2,304
_________________________________________________________________
