Model: "sequential_10"
_________________________________________________________________
Layer (type)                 Output Shape              Param #   
=================================================================
separable_conv2d_27 (Separab (None, 32, 32, 512)       2075      
_________________________________________________________________
batch_normalization_17 (Batc (None, 32, 32, 512)       2048      
_________________________________________________________________
activation_33 (Activation)   (None, 32, 32, 512)       0         
_________________________________________________________________
dropout_33 (Dropout)         (None, 32, 32, 512)       0         
_________________________________________________________________
separable_conv2d_28 (Separab (None, 32, 32, 32)        21024     
_________________________________________________________________
activation_34 (Activation)   (None, 32, 32, 32)        0         
_________________________________________________________________
dropout_34 (Dropout)         (None, 32, 32, 32)        0         
_________________________________________________________________
max_pooling2d_9 (MaxPooling2 (None, 16, 16, 32)        0         
_________________________________________________________________
flatten_10 (Flatten)         (None, 8192)              0         
_________________________________________________________________
dense_16 (Dense)             (None, 256)               2097408   
_________________________________________________________________
batch_normalization_18 (Batc (None, 256)               1024      
_________________________________________________________________
activation_35 (Activation)   (None, 256)               0         
_________________________________________________________________
dropout_35 (Dropout)         (None, 256)               0         
_________________________________________________________________
dense_17 (Dense)             (None, 10)                2570      
=================================================================
Total params: 2,126,149
Trainable params: 2,124,613
Non-trainable params: 1,536
_________________________________________________________________
