Model: "sequential_250"
_________________________________________________________________
Layer (type)                 Output Shape              Param #   
=================================================================
separable_conv2d_495 (Separa (None, 32, 32, 512)       2075      
_________________________________________________________________
batch_normalization_485 (Bat (None, 32, 32, 512)       2048      
_________________________________________________________________
activation_734 (Activation)  (None, 32, 32, 512)       0         
_________________________________________________________________
dropout_734 (Dropout)        (None, 32, 32, 512)       0         
_________________________________________________________________
separable_conv2d_496 (Separa (None, 32, 32, 32)        21024     
_________________________________________________________________
activation_735 (Activation)  (None, 32, 32, 32)        0         
_________________________________________________________________
dropout_735 (Dropout)        (None, 32, 32, 32)        0         
_________________________________________________________________
flatten_250 (Flatten)        (None, 32768)             0         
_________________________________________________________________
dense_489 (Dense)            (None, 10)                327690    
=================================================================
Total params: 352,837
Trainable params: 351,813
Non-trainable params: 1,024
_________________________________________________________________
