Model: "sequential_357"
_________________________________________________________________
Layer (type)                 Output Shape              Param #   
=================================================================
separable_conv2d_677 (Separa (None, 32, 32, 512)       2075      
_________________________________________________________________
batch_normalization_670 (Bat (None, 32, 32, 512)       2048      
_________________________________________________________________
activation_1003 (Activation) (None, 32, 32, 512)       0         
_________________________________________________________________
dropout_1003 (Dropout)       (None, 32, 32, 512)       0         
_________________________________________________________________
separable_conv2d_678 (Separa (None, 32, 32, 8)         8712      
_________________________________________________________________
activation_1004 (Activation) (None, 32, 32, 8)         0         
_________________________________________________________________
dropout_1004 (Dropout)       (None, 32, 32, 8)         0         
_________________________________________________________________
max_pooling2d_264 (MaxPoolin (None, 16, 16, 8)         0         
_________________________________________________________________
flatten_357 (Flatten)        (None, 2048)              0         
_________________________________________________________________
dense_683 (Dense)            (None, 512)               1049088   
_________________________________________________________________
batch_normalization_671 (Bat (None, 512)               2048      
_________________________________________________________________
activation_1005 (Activation) (None, 512)               0         
_________________________________________________________________
dropout_1005 (Dropout)       (None, 512)               0         
_________________________________________________________________
dense_684 (Dense)            (None, 10)                5130      
=================================================================
Total params: 1,069,101
Trainable params: 1,067,053
Non-trainable params: 2,048
_________________________________________________________________
