Model: "sequential_69"
_________________________________________________________________
Layer (type)                 Output Shape              Param #   
=================================================================
separable_conv2d_137 (Separa (None, 32, 32, 512)       2075      
_________________________________________________________________
batch_normalization_131 (Bat (None, 32, 32, 512)       2048      
_________________________________________________________________
activation_199 (Activation)  (None, 32, 32, 512)       0         
_________________________________________________________________
dropout_199 (Dropout)        (None, 32, 32, 512)       0         
_________________________________________________________________
separable_conv2d_138 (Separa (None, 32, 32, 32)        21024     
_________________________________________________________________
activation_200 (Activation)  (None, 32, 32, 32)        0         
_________________________________________________________________
dropout_200 (Dropout)        (None, 32, 32, 32)        0         
_________________________________________________________________
max_pooling2d_55 (MaxPooling (None, 16, 16, 32)        0         
_________________________________________________________________
flatten_69 (Flatten)         (None, 8192)              0         
_________________________________________________________________
dense_131 (Dense)            (None, 256)               2097408   
_________________________________________________________________
batch_normalization_132 (Bat (None, 256)               1024      
_________________________________________________________________
activation_201 (Activation)  (None, 256)               0         
_________________________________________________________________
dropout_201 (Dropout)        (None, 256)               0         
_________________________________________________________________
dense_132 (Dense)            (None, 10)                2570      
=================================================================
Total params: 2,126,149
Trainable params: 2,124,613
Non-trainable params: 1,536
_________________________________________________________________
