Model: "sequential_360"
_________________________________________________________________
Layer (type)                 Output Shape              Param #   
=================================================================
separable_conv2d_683 (Separa (None, 32, 32, 512)       2075      
_________________________________________________________________
batch_normalization_675 (Bat (None, 32, 32, 512)       2048      
_________________________________________________________________
activation_1012 (Activation) (None, 32, 32, 512)       0         
_________________________________________________________________
dropout_1012 (Dropout)       (None, 32, 32, 512)       0         
_________________________________________________________________
max_pooling2d_266 (MaxPoolin (None, 16, 16, 512)       0         
_________________________________________________________________
separable_conv2d_684 (Separa (None, 16, 16, 8)         8712      
_________________________________________________________________
activation_1013 (Activation) (None, 16, 16, 8)         0         
_________________________________________________________________
dropout_1013 (Dropout)       (None, 16, 16, 8)         0         
_________________________________________________________________
max_pooling2d_267 (MaxPoolin (None, 8, 8, 8)           0         
_________________________________________________________________
flatten_360 (Flatten)        (None, 512)               0         
_________________________________________________________________
dense_689 (Dense)            (None, 512)               262656    
_________________________________________________________________
batch_normalization_676 (Bat (None, 512)               2048      
_________________________________________________________________
activation_1014 (Activation) (None, 512)               0         
_________________________________________________________________
dropout_1014 (Dropout)       (None, 512)               0         
_________________________________________________________________
dense_690 (Dense)            (None, 10)                5130      
=================================================================
Total params: 282,669
Trainable params: 280,621
Non-trainable params: 2,048
_________________________________________________________________
