Model: "sequential_306"
_________________________________________________________________
Layer (type)                 Output Shape              Param #   
=================================================================
separable_conv2d_592 (Separa (None, 32, 32, 512)       2075      
_________________________________________________________________
batch_normalization_584 (Bat (None, 32, 32, 512)       2048      
_________________________________________________________________
activation_880 (Activation)  (None, 32, 32, 512)       0         
_________________________________________________________________
dropout_880 (Dropout)        (None, 32, 32, 512)       0         
_________________________________________________________________
separable_conv2d_593 (Separa (None, 32, 32, 512)       267264    
_________________________________________________________________
activation_881 (Activation)  (None, 32, 32, 512)       0         
_________________________________________________________________
dropout_881 (Dropout)        (None, 32, 32, 512)       0         
_________________________________________________________________
flatten_306 (Flatten)        (None, 524288)            0         
_________________________________________________________________
dense_594 (Dense)            (None, 128)               67108992  
_________________________________________________________________
batch_normalization_585 (Bat (None, 128)               512       
_________________________________________________________________
activation_882 (Activation)  (None, 128)               0         
_________________________________________________________________
dropout_882 (Dropout)        (None, 128)               0         
_________________________________________________________________
dense_595 (Dense)            (None, 10)                1290      
=================================================================
Total params: 67,382,181
Trainable params: 67,380,901
Non-trainable params: 1,280
_________________________________________________________________
