Model: "sequential_76"
_________________________________________________________________
Layer (type)                 Output Shape              Param #   
=================================================================
separable_conv2d_150 (Separa (None, 32, 32, 512)       2075      
_________________________________________________________________
batch_normalization_144 (Bat (None, 32, 32, 512)       2048      
_________________________________________________________________
activation_219 (Activation)  (None, 32, 32, 512)       0         
_________________________________________________________________
dropout_219 (Dropout)        (None, 32, 32, 512)       0         
_________________________________________________________________
flatten_76 (Flatten)         (None, 524288)            0         
_________________________________________________________________
dense_145 (Dense)            (None, 256)               134217984 
_________________________________________________________________
batch_normalization_145 (Bat (None, 256)               1024      
_________________________________________________________________
activation_220 (Activation)  (None, 256)               0         
_________________________________________________________________
dropout_220 (Dropout)        (None, 256)               0         
_________________________________________________________________
dense_146 (Dense)            (None, 10)                2570      
=================================================================
Total params: 134,225,701
Trainable params: 134,224,165
Non-trainable params: 1,536
_________________________________________________________________
