Model: "sequential_36"
_________________________________________________________________
Layer (type)                 Output Shape              Param #   
=================================================================
separable_conv2d_77 (Separab (None, 32, 32, 512)       2075      
_________________________________________________________________
batch_normalization_69 (Batc (None, 32, 32, 512)       2048      
_________________________________________________________________
activation_108 (Activation)  (None, 32, 32, 512)       0         
_________________________________________________________________
dropout_108 (Dropout)        (None, 32, 32, 512)       0         
_________________________________________________________________
separable_conv2d_78 (Separab (None, 32, 32, 32)        21024     
_________________________________________________________________
activation_109 (Activation)  (None, 32, 32, 32)        0         
_________________________________________________________________
dropout_109 (Dropout)        (None, 32, 32, 32)        0         
_________________________________________________________________
max_pooling2d_28 (MaxPooling (None, 16, 16, 32)        0         
_________________________________________________________________
flatten_36 (Flatten)         (None, 8192)              0         
_________________________________________________________________
dense_67 (Dense)             (None, 256)               2097408   
_________________________________________________________________
batch_normalization_70 (Batc (None, 256)               1024      
_________________________________________________________________
activation_110 (Activation)  (None, 256)               0         
_________________________________________________________________
dropout_110 (Dropout)        (None, 256)               0         
_________________________________________________________________
dense_68 (Dense)             (None, 10)                2570      
=================================================================
Total params: 2,126,149
Trainable params: 2,124,613
Non-trainable params: 1,536
_________________________________________________________________
