Model: "sequential_32"
_________________________________________________________________
Layer (type)                 Output Shape              Param #   
=================================================================
separable_conv2d_69 (Separab (None, 32, 32, 512)       2075      
_________________________________________________________________
batch_normalization_61 (Batc (None, 32, 32, 512)       2048      
_________________________________________________________________
activation_96 (Activation)   (None, 32, 32, 512)       0         
_________________________________________________________________
dropout_96 (Dropout)         (None, 32, 32, 512)       0         
_________________________________________________________________
separable_conv2d_70 (Separab (None, 32, 32, 32)        21024     
_________________________________________________________________
activation_97 (Activation)   (None, 32, 32, 32)        0         
_________________________________________________________________
dropout_97 (Dropout)         (None, 32, 32, 32)        0         
_________________________________________________________________
max_pooling2d_25 (MaxPooling (None, 16, 16, 32)        0         
_________________________________________________________________
flatten_32 (Flatten)         (None, 8192)              0         
_________________________________________________________________
dense_59 (Dense)             (None, 256)               2097408   
_________________________________________________________________
batch_normalization_62 (Batc (None, 256)               1024      
_________________________________________________________________
activation_98 (Activation)   (None, 256)               0         
_________________________________________________________________
dropout_98 (Dropout)         (None, 256)               0         
_________________________________________________________________
dense_60 (Dense)             (None, 10)                2570      
=================================================================
Total params: 2,126,149
Trainable params: 2,124,613
Non-trainable params: 1,536
_________________________________________________________________
