Model: "sequential_319"
_________________________________________________________________
Layer (type)                 Output Shape              Param #   
=================================================================
separable_conv2d_615 (Separa (None, 32, 32, 16)        91        
_________________________________________________________________
batch_normalization_609 (Bat (None, 32, 32, 16)        64        
_________________________________________________________________
activation_915 (Activation)  (None, 32, 32, 16)        0         
_________________________________________________________________
dropout_915 (Dropout)        (None, 32, 32, 16)        0         
_________________________________________________________________
flatten_319 (Flatten)        (None, 16384)             0         
_________________________________________________________________
dense_619 (Dense)            (None, 128)               2097280   
_________________________________________________________________
batch_normalization_610 (Bat (None, 128)               512       
_________________________________________________________________
activation_916 (Activation)  (None, 128)               0         
_________________________________________________________________
dropout_916 (Dropout)        (None, 128)               0         
_________________________________________________________________
dense_620 (Dense)            (None, 10)                1290      
=================================================================
Total params: 2,099,237
Trainable params: 2,098,949
Non-trainable params: 288
_________________________________________________________________
