Model: "sequential_114"
_________________________________________________________________
Layer (type)                 Output Shape              Param #   
=================================================================
separable_conv2d_224 (Separa (None, 32, 32, 512)       2075      
_________________________________________________________________
batch_normalization_216 (Bat (None, 32, 32, 512)       2048      
_________________________________________________________________
activation_330 (Activation)  (None, 32, 32, 512)       0         
_________________________________________________________________
dropout_330 (Dropout)        (None, 32, 32, 512)       0         
_________________________________________________________________
separable_conv2d_225 (Separa (None, 32, 32, 32)        21024     
_________________________________________________________________
activation_331 (Activation)  (None, 32, 32, 32)        0         
_________________________________________________________________
dropout_331 (Dropout)        (None, 32, 32, 32)        0         
_________________________________________________________________
max_pooling2d_94 (MaxPooling (None, 16, 16, 32)        0         
_________________________________________________________________
flatten_114 (Flatten)        (None, 8192)              0         
_________________________________________________________________
dense_220 (Dense)            (None, 256)               2097408   
_________________________________________________________________
batch_normalization_217 (Bat (None, 256)               1024      
_________________________________________________________________
activation_332 (Activation)  (None, 256)               0         
_________________________________________________________________
dropout_332 (Dropout)        (None, 256)               0         
_________________________________________________________________
dense_221 (Dense)            (None, 10)                2570      
=================================================================
Total params: 2,126,149
Trainable params: 2,124,613
Non-trainable params: 1,536
_________________________________________________________________
