Model: "sequential_368"
_________________________________________________________________
Layer (type)                 Output Shape              Param #   
=================================================================
separable_conv2d_699 (Separa (None, 32, 32, 512)       2075      
_________________________________________________________________
batch_normalization_689 (Bat (None, 32, 32, 512)       2048      
_________________________________________________________________
activation_1035 (Activation) (None, 32, 32, 512)       0         
_________________________________________________________________
dropout_1035 (Dropout)       (None, 32, 32, 512)       0         
_________________________________________________________________
separable_conv2d_700 (Separa (None, 32, 32, 64)        37440     
_________________________________________________________________
activation_1036 (Activation) (None, 32, 32, 64)        0         
_________________________________________________________________
dropout_1036 (Dropout)       (None, 32, 32, 64)        0         
_________________________________________________________________
max_pooling2d_271 (MaxPoolin (None, 16, 16, 64)        0         
_________________________________________________________________
flatten_368 (Flatten)        (None, 16384)             0         
_________________________________________________________________
dense_704 (Dense)            (None, 512)               8389120   
_________________________________________________________________
batch_normalization_690 (Bat (None, 512)               2048      
_________________________________________________________________
activation_1037 (Activation) (None, 512)               0         
_________________________________________________________________
dropout_1037 (Dropout)       (None, 512)               0         
_________________________________________________________________
dense_705 (Dense)            (None, 10)                5130      
=================================================================
Total params: 8,437,861
Trainable params: 8,435,813
Non-trainable params: 2,048
_________________________________________________________________
