Model: "sequential_233"
_________________________________________________________________
Layer (type)                 Output Shape              Param #   
=================================================================
separable_conv2d_462 (Separa (None, 32, 32, 512)       2075      
_________________________________________________________________
batch_normalization_455 (Bat (None, 32, 32, 512)       2048      
_________________________________________________________________
activation_686 (Activation)  (None, 32, 32, 512)       0         
_________________________________________________________________
dropout_686 (Dropout)        (None, 32, 32, 512)       0         
_________________________________________________________________
max_pooling2d_213 (MaxPoolin (None, 16, 16, 512)       0         
_________________________________________________________________
separable_conv2d_463 (Separa (None, 16, 16, 64)        37440     
_________________________________________________________________
activation_687 (Activation)  (None, 16, 16, 64)        0         
_________________________________________________________________
dropout_687 (Dropout)        (None, 16, 16, 64)        0         
_________________________________________________________________
max_pooling2d_214 (MaxPoolin (None, 8, 8, 64)          0         
_________________________________________________________________
flatten_233 (Flatten)        (None, 4096)              0         
_________________________________________________________________
dense_457 (Dense)            (None, 128)               524416    
_________________________________________________________________
batch_normalization_456 (Bat (None, 128)               512       
_________________________________________________________________
activation_688 (Activation)  (None, 128)               0         
_________________________________________________________________
dropout_688 (Dropout)        (None, 128)               0         
_________________________________________________________________
dense_458 (Dense)            (None, 10)                1290      
=================================================================
Total params: 567,781
Trainable params: 566,501
Non-trainable params: 1,280
_________________________________________________________________
