Model: "sequential_140"
_________________________________________________________________
Layer (type)                 Output Shape              Param #   
=================================================================
separable_conv2d_276 (Separa (None, 32, 32, 512)       2075      
_________________________________________________________________
batch_normalization_271 (Bat (None, 32, 32, 512)       2048      
_________________________________________________________________
activation_407 (Activation)  (None, 32, 32, 512)       0         
_________________________________________________________________
dropout_407 (Dropout)        (None, 32, 32, 512)       0         
_________________________________________________________________
separable_conv2d_277 (Separa (None, 32, 32, 32)        21024     
_________________________________________________________________
activation_408 (Activation)  (None, 32, 32, 32)        0         
_________________________________________________________________
dropout_408 (Dropout)        (None, 32, 32, 32)        0         
_________________________________________________________________
max_pooling2d_120 (MaxPoolin (None, 16, 16, 32)        0         
_________________________________________________________________
flatten_140 (Flatten)        (None, 8192)              0         
_________________________________________________________________
dense_271 (Dense)            (None, 256)               2097408   
_________________________________________________________________
batch_normalization_272 (Bat (None, 256)               1024      
_________________________________________________________________
activation_409 (Activation)  (None, 256)               0         
_________________________________________________________________
dropout_409 (Dropout)        (None, 256)               0         
_________________________________________________________________
dense_272 (Dense)            (None, 10)                2570      
=================================================================
Total params: 2,126,149
Trainable params: 2,124,613
Non-trainable params: 1,536
_________________________________________________________________
