Model: "sequential_53"
_________________________________________________________________
Layer (type)                 Output Shape              Param #   
=================================================================
separable_conv2d_107 (Separa (None, 32, 32, 512)       2075      
_________________________________________________________________
batch_normalization_101 (Bat (None, 32, 32, 512)       2048      
_________________________________________________________________
activation_154 (Activation)  (None, 32, 32, 512)       0         
_________________________________________________________________
dropout_154 (Dropout)        (None, 32, 32, 512)       0         
_________________________________________________________________
separable_conv2d_108 (Separa (None, 32, 32, 32)        21024     
_________________________________________________________________
activation_155 (Activation)  (None, 32, 32, 32)        0         
_________________________________________________________________
dropout_155 (Dropout)        (None, 32, 32, 32)        0         
_________________________________________________________________
max_pooling2d_40 (MaxPooling (None, 16, 16, 32)        0         
_________________________________________________________________
flatten_53 (Flatten)         (None, 8192)              0         
_________________________________________________________________
dense_100 (Dense)            (None, 256)               2097408   
_________________________________________________________________
batch_normalization_102 (Bat (None, 256)               1024      
_________________________________________________________________
activation_156 (Activation)  (None, 256)               0         
_________________________________________________________________
dropout_156 (Dropout)        (None, 256)               0         
_________________________________________________________________
dense_101 (Dense)            (None, 10)                2570      
=================================================================
Total params: 2,126,149
Trainable params: 2,124,613
Non-trainable params: 1,536
_________________________________________________________________
