Model: "sequential_372"
_________________________________________________________________
Layer (type)                 Output Shape              Param #   
=================================================================
separable_conv2d_707 (Separa (None, 32, 32, 512)       2075      
_________________________________________________________________
batch_normalization_696 (Bat (None, 32, 32, 512)       2048      
_________________________________________________________________
activation_1046 (Activation) (None, 32, 32, 512)       0         
_________________________________________________________________
dropout_1046 (Dropout)       (None, 32, 32, 512)       0         
_________________________________________________________________
separable_conv2d_708 (Separa (None, 32, 32, 64)        37440     
_________________________________________________________________
activation_1047 (Activation) (None, 32, 32, 64)        0         
_________________________________________________________________
dropout_1047 (Dropout)       (None, 32, 32, 64)        0         
_________________________________________________________________
max_pooling2d_273 (MaxPoolin (None, 16, 16, 64)        0         
_________________________________________________________________
flatten_372 (Flatten)        (None, 16384)             0         
_________________________________________________________________
dense_711 (Dense)            (None, 512)               8389120   
_________________________________________________________________
batch_normalization_697 (Bat (None, 512)               2048      
_________________________________________________________________
activation_1048 (Activation) (None, 512)               0         
_________________________________________________________________
dropout_1048 (Dropout)       (None, 512)               0         
_________________________________________________________________
dense_712 (Dense)            (None, 10)                5130      
=================================================================
Total params: 8,437,861
Trainable params: 8,435,813
Non-trainable params: 2,048
_________________________________________________________________
