Model: "sequential_163"
_________________________________________________________________
Layer (type)                 Output Shape              Param #   
=================================================================
separable_conv2d_322 (Separa (None, 32, 32, 512)       2075      
_________________________________________________________________
batch_normalization_319 (Bat (None, 32, 32, 512)       2048      
_________________________________________________________________
activation_476 (Activation)  (None, 32, 32, 512)       0         
_________________________________________________________________
dropout_476 (Dropout)        (None, 32, 32, 512)       0         
_________________________________________________________________
separable_conv2d_323 (Separa (None, 32, 32, 128)       70272     
_________________________________________________________________
activation_477 (Activation)  (None, 32, 32, 128)       0         
_________________________________________________________________
dropout_477 (Dropout)        (None, 32, 32, 128)       0         
_________________________________________________________________
max_pooling2d_142 (MaxPoolin (None, 16, 16, 128)       0         
_________________________________________________________________
flatten_163 (Flatten)        (None, 32768)             0         
_________________________________________________________________
dense_317 (Dense)            (None, 128)               4194432   
_________________________________________________________________
batch_normalization_320 (Bat (None, 128)               512       
_________________________________________________________________
activation_478 (Activation)  (None, 128)               0         
_________________________________________________________________
dropout_478 (Dropout)        (None, 128)               0         
_________________________________________________________________
dense_318 (Dense)            (None, 10)                1290      
=================================================================
Total params: 4,270,629
Trainable params: 4,269,349
Non-trainable params: 1,280
_________________________________________________________________
