Model: "sequential_98"
_________________________________________________________________
Layer (type)                 Output Shape              Param #   
=================================================================
separable_conv2d_192 (Separa (None, 32, 32, 512)       2075      
_________________________________________________________________
activation_282 (Activation)  (None, 32, 32, 512)       0         
_________________________________________________________________
dropout_282 (Dropout)        (None, 32, 32, 512)       0         
_________________________________________________________________
separable_conv2d_193 (Separa (None, 32, 32, 32)        21024     
_________________________________________________________________
activation_283 (Activation)  (None, 32, 32, 32)        0         
_________________________________________________________________
dropout_283 (Dropout)        (None, 32, 32, 32)        0         
_________________________________________________________________
max_pooling2d_78 (MaxPooling (None, 16, 16, 32)        0         
_________________________________________________________________
flatten_98 (Flatten)         (None, 8192)              0         
_________________________________________________________________
dense_188 (Dense)            (None, 256)               2097408   
_________________________________________________________________
batch_normalization_184 (Bat (None, 256)               1024      
_________________________________________________________________
activation_284 (Activation)  (None, 256)               0         
_________________________________________________________________
dropout_284 (Dropout)        (None, 256)               0         
_________________________________________________________________
dense_189 (Dense)            (None, 10)                2570      
=================================================================
Total params: 2,124,101
Trainable params: 2,123,589
Non-trainable params: 512
_________________________________________________________________
