Model: "sequential_224"
_________________________________________________________________
Layer (type)                 Output Shape              Param #   
=================================================================
separable_conv2d_444 (Separa (None, 32, 32, 512)       2075      
_________________________________________________________________
batch_normalization_438 (Bat (None, 32, 32, 512)       2048      
_________________________________________________________________
activation_659 (Activation)  (None, 32, 32, 512)       0         
_________________________________________________________________
dropout_659 (Dropout)        (None, 32, 32, 512)       0         
_________________________________________________________________
separable_conv2d_445 (Separa (None, 32, 32, 128)       70272     
_________________________________________________________________
activation_660 (Activation)  (None, 32, 32, 128)       0         
_________________________________________________________________
dropout_660 (Dropout)        (None, 32, 32, 128)       0         
_________________________________________________________________
max_pooling2d_206 (MaxPoolin (None, 16, 16, 128)       0         
_________________________________________________________________
flatten_224 (Flatten)        (None, 32768)             0         
_________________________________________________________________
dense_439 (Dense)            (None, 128)               4194432   
_________________________________________________________________
batch_normalization_439 (Bat (None, 128)               512       
_________________________________________________________________
activation_661 (Activation)  (None, 128)               0         
_________________________________________________________________
dropout_661 (Dropout)        (None, 128)               0         
_________________________________________________________________
dense_440 (Dense)            (None, 10)                1290      
=================================================================
Total params: 4,270,629
Trainable params: 4,269,349
Non-trainable params: 1,280
_________________________________________________________________
