Model: "sequential_189"
_________________________________________________________________
Layer (type)                 Output Shape              Param #   
=================================================================
separable_conv2d_374 (Separa (None, 32, 32, 512)       2075      
_________________________________________________________________
batch_normalization_371 (Bat (None, 32, 32, 512)       2048      
_________________________________________________________________
activation_554 (Activation)  (None, 32, 32, 512)       0         
_________________________________________________________________
dropout_554 (Dropout)        (None, 32, 32, 512)       0         
_________________________________________________________________
separable_conv2d_375 (Separa (None, 32, 32, 128)       70272     
_________________________________________________________________
activation_555 (Activation)  (None, 32, 32, 128)       0         
_________________________________________________________________
dropout_555 (Dropout)        (None, 32, 32, 128)       0         
_________________________________________________________________
max_pooling2d_171 (MaxPoolin (None, 16, 16, 128)       0         
_________________________________________________________________
flatten_189 (Flatten)        (None, 32768)             0         
_________________________________________________________________
dense_369 (Dense)            (None, 128)               4194432   
_________________________________________________________________
batch_normalization_372 (Bat (None, 128)               512       
_________________________________________________________________
activation_556 (Activation)  (None, 128)               0         
_________________________________________________________________
dropout_556 (Dropout)        (None, 128)               0         
_________________________________________________________________
dense_370 (Dense)            (None, 10)                1290      
=================================================================
Total params: 4,270,629
Trainable params: 4,269,349
Non-trainable params: 1,280
_________________________________________________________________
