Model: "sequential_137"
_________________________________________________________________
Layer (type)                 Output Shape              Param #   
=================================================================
separable_conv2d_270 (Separa (None, 32, 32, 512)       2075      
_________________________________________________________________
batch_normalization_264 (Bat (None, 32, 32, 512)       2048      
_________________________________________________________________
activation_398 (Activation)  (None, 32, 32, 512)       0         
_________________________________________________________________
dropout_398 (Dropout)        (None, 32, 32, 512)       0         
_________________________________________________________________
separable_conv2d_271 (Separa (None, 32, 32, 32)        21024     
_________________________________________________________________
activation_399 (Activation)  (None, 32, 32, 32)        0         
_________________________________________________________________
dropout_399 (Dropout)        (None, 32, 32, 32)        0         
_________________________________________________________________
max_pooling2d_117 (MaxPoolin (None, 16, 16, 32)        0         
_________________________________________________________________
flatten_137 (Flatten)        (None, 8192)              0         
_________________________________________________________________
dense_265 (Dense)            (None, 256)               2097408   
_________________________________________________________________
batch_normalization_265 (Bat (None, 256)               1024      
_________________________________________________________________
activation_400 (Activation)  (None, 256)               0         
_________________________________________________________________
dropout_400 (Dropout)        (None, 256)               0         
_________________________________________________________________
dense_266 (Dense)            (None, 10)                2570      
=================================================================
Total params: 2,126,149
Trainable params: 2,124,613
Non-trainable params: 1,536
_________________________________________________________________
