Model: "sequential_88"
_________________________________________________________________
Layer (type)                 Output Shape              Param #   
=================================================================
separable_conv2d_172 (Separa (None, 32, 32, 512)       2075      
_________________________________________________________________
activation_252 (Activation)  (None, 32, 32, 512)       0         
_________________________________________________________________
dropout_252 (Dropout)        (None, 32, 32, 512)       0         
_________________________________________________________________
separable_conv2d_173 (Separa (None, 32, 32, 32)        21024     
_________________________________________________________________
activation_253 (Activation)  (None, 32, 32, 32)        0         
_________________________________________________________________
dropout_253 (Dropout)        (None, 32, 32, 32)        0         
_________________________________________________________________
max_pooling2d_70 (MaxPooling (None, 16, 16, 32)        0         
_________________________________________________________________
flatten_88 (Flatten)         (None, 8192)              0         
_________________________________________________________________
dense_168 (Dense)            (None, 256)               2097408   
_________________________________________________________________
batch_normalization_166 (Bat (None, 256)               1024      
_________________________________________________________________
activation_254 (Activation)  (None, 256)               0         
_________________________________________________________________
dropout_254 (Dropout)        (None, 256)               0         
_________________________________________________________________
dense_169 (Dense)            (None, 10)                2570      
=================================================================
Total params: 2,124,101
Trainable params: 2,123,589
Non-trainable params: 512
_________________________________________________________________
