Model: "sequential_205"
_________________________________________________________________
Layer (type)                 Output Shape              Param #   
=================================================================
separable_conv2d_406 (Separa (None, 32, 32, 256)       1051      
_________________________________________________________________
batch_normalization_402 (Bat (None, 32, 32, 256)       1024      
_________________________________________________________________
activation_602 (Activation)  (None, 32, 32, 256)       0         
_________________________________________________________________
dropout_602 (Dropout)        (None, 32, 32, 256)       0         
_________________________________________________________________
separable_conv2d_407 (Separa (None, 32, 32, 512)       133888    
_________________________________________________________________
activation_603 (Activation)  (None, 32, 32, 512)       0         
_________________________________________________________________
dropout_603 (Dropout)        (None, 32, 32, 512)       0         
_________________________________________________________________
max_pooling2d_188 (MaxPoolin (None, 16, 16, 512)       0         
_________________________________________________________________
flatten_205 (Flatten)        (None, 131072)            0         
_________________________________________________________________
dense_401 (Dense)            (None, 128)               16777344  
_________________________________________________________________
activation_604 (Activation)  (None, 128)               0         
_________________________________________________________________
dropout_604 (Dropout)        (None, 128)               0         
_________________________________________________________________
dense_402 (Dense)            (None, 10)                1290      
=================================================================
Total params: 16,914,597
Trainable params: 16,914,085
Non-trainable params: 512
_________________________________________________________________
