Model: "sequential_322"
_________________________________________________________________
Layer (type)                 Output Shape              Param #   
=================================================================
separable_conv2d_618 (Separa (None, 32, 32, 64)        283       
_________________________________________________________________
batch_normalization_614 (Bat (None, 32, 32, 64)        256       
_________________________________________________________________
activation_921 (Activation)  (None, 32, 32, 64)        0         
_________________________________________________________________
dropout_921 (Dropout)        (None, 32, 32, 64)        0         
_________________________________________________________________
max_pooling2d_257 (MaxPoolin (None, 16, 16, 64)        0         
_________________________________________________________________
separable_conv2d_619 (Separa (None, 16, 16, 128)       8896      
_________________________________________________________________
activation_922 (Activation)  (None, 16, 16, 128)       0         
_________________________________________________________________
dropout_922 (Dropout)        (None, 16, 16, 128)       0         
_________________________________________________________________
flatten_322 (Flatten)        (None, 32768)             0         
_________________________________________________________________
dense_625 (Dense)            (None, 128)               4194432   
_________________________________________________________________
batch_normalization_615 (Bat (None, 128)               512       
_________________________________________________________________
activation_923 (Activation)  (None, 128)               0         
_________________________________________________________________
dropout_923 (Dropout)        (None, 128)               0         
_________________________________________________________________
dense_626 (Dense)            (None, 10)                1290      
=================================================================
Total params: 4,205,669
Trainable params: 4,205,285
Non-trainable params: 384
_________________________________________________________________
