Model: "sequential_132"
_________________________________________________________________
Layer (type)                 Output Shape              Param #   
=================================================================
separable_conv2d_260 (Separa (None, 32, 32, 512)       2075      
_________________________________________________________________
batch_normalization_255 (Bat (None, 32, 32, 512)       2048      
_________________________________________________________________
activation_384 (Activation)  (None, 32, 32, 512)       0         
_________________________________________________________________
dropout_384 (Dropout)        (None, 32, 32, 512)       0         
_________________________________________________________________
separable_conv2d_261 (Separa (None, 32, 32, 128)       70272     
_________________________________________________________________
activation_385 (Activation)  (None, 32, 32, 128)       0         
_________________________________________________________________
dropout_385 (Dropout)        (None, 32, 32, 128)       0         
_________________________________________________________________
max_pooling2d_112 (MaxPoolin (None, 16, 16, 128)       0         
_________________________________________________________________
flatten_132 (Flatten)        (None, 32768)             0         
_________________________________________________________________
dense_256 (Dense)            (None, 128)               4194432   
_________________________________________________________________
batch_normalization_256 (Bat (None, 128)               512       
_________________________________________________________________
activation_386 (Activation)  (None, 128)               0         
_________________________________________________________________
dropout_386 (Dropout)        (None, 128)               0         
_________________________________________________________________
dense_257 (Dense)            (None, 10)                1290      
=================================================================
Total params: 4,270,629
Trainable params: 4,269,349
Non-trainable params: 1,280
_________________________________________________________________
