Model: "sequential_300"
_________________________________________________________________
Layer (type)                 Output Shape              Param #   
=================================================================
separable_conv2d_582 (Separa (None, 32, 32, 16)        91        
_________________________________________________________________
batch_normalization_572 (Bat (None, 32, 32, 16)        64        
_________________________________________________________________
activation_864 (Activation)  (None, 32, 32, 16)        0         
_________________________________________________________________
dropout_864 (Dropout)        (None, 32, 32, 16)        0         
_________________________________________________________________
flatten_300 (Flatten)        (None, 16384)             0         
_________________________________________________________________
dense_582 (Dense)            (None, 128)               2097280   
_________________________________________________________________
batch_normalization_573 (Bat (None, 128)               512       
_________________________________________________________________
activation_865 (Activation)  (None, 128)               0         
_________________________________________________________________
dropout_865 (Dropout)        (None, 128)               0         
_________________________________________________________________
dense_583 (Dense)            (None, 10)                1290      
=================================================================
Total params: 2,099,237
Trainable params: 2,098,949
Non-trainable params: 288
_________________________________________________________________
