Model: "sequential_180"
_________________________________________________________________
Layer (type)                 Output Shape              Param #   
=================================================================
separable_conv2d_356 (Separa (None, 32, 32, 512)       2075      
_________________________________________________________________
batch_normalization_353 (Bat (None, 32, 32, 512)       2048      
_________________________________________________________________
activation_527 (Activation)  (None, 32, 32, 512)       0         
_________________________________________________________________
dropout_527 (Dropout)        (None, 32, 32, 512)       0         
_________________________________________________________________
separable_conv2d_357 (Separa (None, 32, 32, 128)       70272     
_________________________________________________________________
activation_528 (Activation)  (None, 32, 32, 128)       0         
_________________________________________________________________
dropout_528 (Dropout)        (None, 32, 32, 128)       0         
_________________________________________________________________
max_pooling2d_161 (MaxPoolin (None, 16, 16, 128)       0         
_________________________________________________________________
flatten_180 (Flatten)        (None, 32768)             0         
_________________________________________________________________
dense_351 (Dense)            (None, 32)                1048608   
_________________________________________________________________
batch_normalization_354 (Bat (None, 32)                128       
_________________________________________________________________
activation_529 (Activation)  (None, 32)                0         
_________________________________________________________________
dropout_529 (Dropout)        (None, 32)                0         
_________________________________________________________________
dense_352 (Dense)            (None, 10)                330       
=================================================================
Total params: 1,123,461
Trainable params: 1,122,373
Non-trainable params: 1,088
_________________________________________________________________
