Model: "sequential_209"
_________________________________________________________________
Layer (type)                 Output Shape              Param #   
=================================================================
separable_conv2d_414 (Separa (None, 32, 32, 512)       2075      
_________________________________________________________________
batch_normalization_409 (Bat (None, 32, 32, 512)       2048      
_________________________________________________________________
activation_614 (Activation)  (None, 32, 32, 512)       0         
_________________________________________________________________
dropout_614 (Dropout)        (None, 32, 32, 512)       0         
_________________________________________________________________
separable_conv2d_415 (Separa (None, 32, 32, 128)       70272     
_________________________________________________________________
activation_615 (Activation)  (None, 32, 32, 128)       0         
_________________________________________________________________
dropout_615 (Dropout)        (None, 32, 32, 128)       0         
_________________________________________________________________
max_pooling2d_191 (MaxPoolin (None, 16, 16, 128)       0         
_________________________________________________________________
flatten_209 (Flatten)        (None, 32768)             0         
_________________________________________________________________
dense_409 (Dense)            (None, 128)               4194432   
_________________________________________________________________
batch_normalization_410 (Bat (None, 128)               512       
_________________________________________________________________
activation_616 (Activation)  (None, 128)               0         
_________________________________________________________________
dropout_616 (Dropout)        (None, 128)               0         
_________________________________________________________________
dense_410 (Dense)            (None, 10)                1290      
=================================================================
Total params: 4,270,629
Trainable params: 4,269,349
Non-trainable params: 1,280
_________________________________________________________________
