Model: "sequential_99"
_________________________________________________________________
Layer (type)                 Output Shape              Param #   
=================================================================
conv2d_586 (Conv2D)          (None, 32, 32, 16)        448       
_________________________________________________________________
activation_840 (Activation)  (None, 32, 32, 16)        0         
_________________________________________________________________
dropout_840 (Dropout)        (None, 32, 32, 16)        0         
_________________________________________________________________
conv2d_587 (Conv2D)          (None, 32, 32, 16)        2320      
_________________________________________________________________
batch_normalization_400 (Bat (None, 32, 32, 16)        64        
_________________________________________________________________
activation_841 (Activation)  (None, 32, 32, 16)        0         
_________________________________________________________________
dropout_841 (Dropout)        (None, 32, 32, 16)        0         
_________________________________________________________________
conv2d_588 (Conv2D)          (None, 32, 32, 32)        4640      
_________________________________________________________________
activation_842 (Activation)  (None, 32, 32, 32)        0         
_________________________________________________________________
dropout_842 (Dropout)        (None, 32, 32, 32)        0         
_________________________________________________________________
conv2d_589 (Conv2D)          (None, 32, 32, 16)        4624      
_________________________________________________________________
activation_843 (Activation)  (None, 32, 32, 16)        0         
_________________________________________________________________
dropout_843 (Dropout)        (None, 32, 32, 16)        0         
_________________________________________________________________
conv2d_590 (Conv2D)          (None, 32, 32, 64)        9280      
_________________________________________________________________
activation_844 (Activation)  (None, 32, 32, 64)        0         
_________________________________________________________________
dropout_844 (Dropout)        (None, 32, 32, 64)        0         
_________________________________________________________________
conv2d_591 (Conv2D)          (None, 32, 32, 32)        18464     
_________________________________________________________________
batch_normalization_401 (Bat (None, 32, 32, 32)        128       
_________________________________________________________________
activation_845 (Activation)  (None, 32, 32, 32)        0         
_________________________________________________________________
dropout_845 (Dropout)        (None, 32, 32, 32)        0         
_________________________________________________________________
flatten_99 (Flatten)         (None, 32768)             0         
_________________________________________________________________
dense_353 (Dense)            (None, 32)                1048608   
_________________________________________________________________
batch_normalization_402 (Bat (None, 32)                128       
_________________________________________________________________
activation_846 (Activation)  (None, 32)                0         
_________________________________________________________________
dropout_846 (Dropout)        (None, 32)                0         
_________________________________________________________________
dense_354 (Dense)            (None, 256)               8448      
_________________________________________________________________
activation_847 (Activation)  (None, 256)               0         
_________________________________________________________________
dropout_847 (Dropout)        (None, 256)               0         
_________________________________________________________________
dense_355 (Dense)            (None, 512)               131584    
_________________________________________________________________
batch_normalization_403 (Bat (None, 512)               2048      
_________________________________________________________________
activation_848 (Activation)  (None, 512)               0         
_________________________________________________________________
dropout_848 (Dropout)        (None, 512)               0         
_________________________________________________________________
dense_356 (Dense)            (None, 10)                5130      
=================================================================
Total params: 1,235,914
Trainable params: 1,234,730
Non-trainable params: 1,184
_________________________________________________________________
