Model: "sequential_3"
_________________________________________________________________
Layer (type)                 Output Shape              Param #   
=================================================================
conv2d_23 (Conv2D)           (None, 32, 32, 16)        448       
_________________________________________________________________
batch_normalization_17 (Batc (None, 32, 32, 16)        64        
_________________________________________________________________
activation_35 (Activation)   (None, 32, 32, 16)        0         
_________________________________________________________________
dropout_35 (Dropout)         (None, 32, 32, 16)        0         
_________________________________________________________________
max_pooling2d_5 (MaxPooling2 (None, 16, 16, 16)        0         
_________________________________________________________________
conv2d_24 (Conv2D)           (None, 16, 16, 512)       74240     
_________________________________________________________________
batch_normalization_18 (Batc (None, 16, 16, 512)       2048      
_________________________________________________________________
activation_36 (Activation)   (None, 16, 16, 512)       0         
_________________________________________________________________
dropout_36 (Dropout)         (None, 16, 16, 512)       0         
_________________________________________________________________
conv2d_25 (Conv2D)           (None, 16, 16, 8)         36872     
_________________________________________________________________
batch_normalization_19 (Batc (None, 16, 16, 8)         32        
_________________________________________________________________
activation_37 (Activation)   (None, 16, 16, 8)         0         
_________________________________________________________________
dropout_37 (Dropout)         (None, 16, 16, 8)         0         
_________________________________________________________________
max_pooling2d_6 (MaxPooling2 (None, 8, 8, 8)           0         
_________________________________________________________________
conv2d_26 (Conv2D)           (None, 8, 8, 16)          1168      
_________________________________________________________________
batch_normalization_20 (Batc (None, 8, 8, 16)          64        
_________________________________________________________________
activation_38 (Activation)   (None, 8, 8, 16)          0         
_________________________________________________________________
dropout_38 (Dropout)         (None, 8, 8, 16)          0         
_________________________________________________________________
max_pooling2d_7 (MaxPooling2 (None, 4, 4, 16)          0         
_________________________________________________________________
conv2d_27 (Conv2D)           (None, 4, 4, 256)         37120     
_________________________________________________________________
batch_normalization_21 (Batc (None, 4, 4, 256)         1024      
_________________________________________________________________
activation_39 (Activation)   (None, 4, 4, 256)         0         
_________________________________________________________________
dropout_39 (Dropout)         (None, 4, 4, 256)         0         
_________________________________________________________________
conv2d_28 (Conv2D)           (None, 4, 4, 8)           18440     
_________________________________________________________________
batch_normalization_22 (Batc (None, 4, 4, 8)           32        
_________________________________________________________________
activation_40 (Activation)   (None, 4, 4, 8)           0         
_________________________________________________________________
dropout_40 (Dropout)         (None, 4, 4, 8)           0         
_________________________________________________________________
conv2d_29 (Conv2D)           (None, 4, 4, 8)           584       
_________________________________________________________________
batch_normalization_23 (Batc (None, 4, 4, 8)           32        
_________________________________________________________________
activation_41 (Activation)   (None, 4, 4, 8)           0         
_________________________________________________________________
dropout_41 (Dropout)         (None, 4, 4, 8)           0         
_________________________________________________________________
conv2d_30 (Conv2D)           (None, 4, 4, 64)          4672      
_________________________________________________________________
activation_42 (Activation)   (None, 4, 4, 64)          0         
_________________________________________________________________
dropout_42 (Dropout)         (None, 4, 4, 64)          0         
_________________________________________________________________
conv2d_31 (Conv2D)           (None, 4, 4, 256)         147712    
_________________________________________________________________
activation_43 (Activation)   (None, 4, 4, 256)         0         
_________________________________________________________________
dropout_43 (Dropout)         (None, 4, 4, 256)         0         
_________________________________________________________________
conv2d_32 (Conv2D)           (None, 4, 4, 256)         590080    
_________________________________________________________________
batch_normalization_24 (Batc (None, 4, 4, 256)         1024      
_________________________________________________________________
activation_44 (Activation)   (None, 4, 4, 256)         0         
_________________________________________________________________
dropout_44 (Dropout)         (None, 4, 4, 256)         0         
_________________________________________________________________
conv2d_33 (Conv2D)           (None, 4, 4, 16)          36880     
_________________________________________________________________
batch_normalization_25 (Batc (None, 4, 4, 16)          64        
_________________________________________________________________
activation_45 (Activation)   (None, 4, 4, 16)          0         
_________________________________________________________________
dropout_45 (Dropout)         (None, 4, 4, 16)          0         
_________________________________________________________________
flatten_3 (Flatten)          (None, 256)               0         
_________________________________________________________________
dense_15 (Dense)             (None, 512)               131584    
_________________________________________________________________
activation_46 (Activation)   (None, 512)               0         
_________________________________________________________________
dropout_46 (Dropout)         (None, 512)               0         
_________________________________________________________________
dense_16 (Dense)             (None, 64)                32832     
_________________________________________________________________
activation_47 (Activation)   (None, 64)                0         
_________________________________________________________________
dropout_47 (Dropout)         (None, 64)                0         
_________________________________________________________________
dense_17 (Dense)             (None, 32)                2080      
_________________________________________________________________
batch_normalization_26 (Batc (None, 32)                128       
_________________________________________________________________
activation_48 (Activation)   (None, 32)                0         
_________________________________________________________________
dropout_48 (Dropout)         (None, 32)                0         
_________________________________________________________________
dense_18 (Dense)             (None, 512)               16896     
_________________________________________________________________
activation_49 (Activation)   (None, 512)               0         
_________________________________________________________________
dropout_49 (Dropout)         (None, 512)               0         
_________________________________________________________________
dense_19 (Dense)             (None, 128)               65664     
_________________________________________________________________
activation_50 (Activation)   (None, 128)               0         
_________________________________________________________________
dropout_50 (Dropout)         (None, 128)               0         
_________________________________________________________________
dense_20 (Dense)             (None, 10)                1290      
=================================================================
Total params: 1,203,074
Trainable params: 1,200,818
Non-trainable params: 2,256
_________________________________________________________________
