Model: "sequential_371"
_________________________________________________________________
Layer (type)                 Output Shape              Param #   
=================================================================
conv2d_1666 (Conv2D)         (None, 32, 32, 512)       14336     
_________________________________________________________________
activation_2427 (Activation) (None, 32, 32, 512)       0         
_________________________________________________________________
dropout_2427 (Dropout)       (None, 32, 32, 512)       0         
_________________________________________________________________
conv2d_1667 (Conv2D)         (None, 32, 32, 128)       589952    
_________________________________________________________________
activation_2428 (Activation) (None, 32, 32, 128)       0         
_________________________________________________________________
dropout_2428 (Dropout)       (None, 32, 32, 128)       0         
_________________________________________________________________
conv2d_1668 (Conv2D)         (None, 32, 32, 1024)      1180672   
_________________________________________________________________
activation_2429 (Activation) (None, 32, 32, 1024)      0         
_________________________________________________________________
dropout_2429 (Dropout)       (None, 32, 32, 1024)      0         
_________________________________________________________________
max_pooling2d_349 (MaxPoolin (None, 16, 16, 1024)      0         
_________________________________________________________________
conv2d_1669 (Conv2D)         (None, 16, 16, 1024)      9438208   
_________________________________________________________________
batch_normalization_1219 (Ba (None, 16, 16, 1024)      4096      
_________________________________________________________________
activation_2430 (Activation) (None, 16, 16, 1024)      0         
_________________________________________________________________
dropout_2430 (Dropout)       (None, 16, 16, 1024)      0         
_________________________________________________________________
flatten_371 (Flatten)        (None, 262144)            0         
_________________________________________________________________
dense_1132 (Dense)           (None, 256)               67109120  
_________________________________________________________________
activation_2431 (Activation) (None, 256)               0         
_________________________________________________________________
dropout_2431 (Dropout)       (None, 256)               0         
_________________________________________________________________
dense_1133 (Dense)           (None, 512)               131584    
_________________________________________________________________
batch_normalization_1220 (Ba (None, 512)               2048      
_________________________________________________________________
activation_2432 (Activation) (None, 512)               0         
_________________________________________________________________
dropout_2432 (Dropout)       (None, 512)               0         
_________________________________________________________________
dense_1134 (Dense)           (None, 10)                5130      
=================================================================
Total params: 78,475,146
Trainable params: 78,472,074
Non-trainable params: 3,072
_________________________________________________________________
