Model: "sequential_185"
_________________________________________________________________
Layer (type)                 Output Shape              Param #   
=================================================================
conv2d_944 (Conv2D)          (None, 32, 32, 16)        448       
_________________________________________________________________
activation_1385 (Activation) (None, 32, 32, 16)        0         
_________________________________________________________________
dropout_1385 (Dropout)       (None, 32, 32, 16)        0         
_________________________________________________________________
conv2d_945 (Conv2D)          (None, 32, 32, 128)       18560     
_________________________________________________________________
batch_normalization_672 (Bat (None, 32, 32, 128)       512       
_________________________________________________________________
activation_1386 (Activation) (None, 32, 32, 128)       0         
_________________________________________________________________
dropout_1386 (Dropout)       (None, 32, 32, 128)       0         
_________________________________________________________________
max_pooling2d_162 (MaxPoolin (None, 16, 16, 128)       0         
_________________________________________________________________
conv2d_946 (Conv2D)          (None, 16, 16, 32)        36896     
_________________________________________________________________
activation_1387 (Activation) (None, 16, 16, 32)        0         
_________________________________________________________________
dropout_1387 (Dropout)       (None, 16, 16, 32)        0         
_________________________________________________________________
conv2d_947 (Conv2D)          (None, 16, 16, 128)       36992     
_________________________________________________________________
batch_normalization_673 (Bat (None, 16, 16, 128)       512       
_________________________________________________________________
activation_1388 (Activation) (None, 16, 16, 128)       0         
_________________________________________________________________
dropout_1388 (Dropout)       (None, 16, 16, 128)       0         
_________________________________________________________________
flatten_185 (Flatten)        (None, 32768)             0         
_________________________________________________________________
dense_626 (Dense)            (None, 256)               8388864   
_________________________________________________________________
activation_1389 (Activation) (None, 256)               0         
_________________________________________________________________
dropout_1389 (Dropout)       (None, 256)               0         
_________________________________________________________________
dense_627 (Dense)            (None, 512)               131584    
_________________________________________________________________
batch_normalization_674 (Bat (None, 512)               2048      
_________________________________________________________________
activation_1390 (Activation) (None, 512)               0         
_________________________________________________________________
dropout_1390 (Dropout)       (None, 512)               0         
_________________________________________________________________
dense_628 (Dense)            (None, 10)                5130      
=================================================================
Total params: 8,621,546
Trainable params: 8,620,010
Non-trainable params: 1,536
_________________________________________________________________
