Model: "sequential_156"
_________________________________________________________________
Layer (type)                 Output Shape              Param #   
=================================================================
conv2d_828 (Conv2D)          (None, 32, 32, 16)        448       
_________________________________________________________________
activation_1211 (Activation) (None, 32, 32, 16)        0         
_________________________________________________________________
dropout_1211 (Dropout)       (None, 32, 32, 16)        0         
_________________________________________________________________
conv2d_829 (Conv2D)          (None, 32, 32, 128)       18560     
_________________________________________________________________
batch_normalization_585 (Bat (None, 32, 32, 128)       512       
_________________________________________________________________
activation_1212 (Activation) (None, 32, 32, 128)       0         
_________________________________________________________________
dropout_1212 (Dropout)       (None, 32, 32, 128)       0         
_________________________________________________________________
max_pooling2d_133 (MaxPoolin (None, 16, 16, 128)       0         
_________________________________________________________________
conv2d_830 (Conv2D)          (None, 16, 16, 32)        36896     
_________________________________________________________________
activation_1213 (Activation) (None, 16, 16, 32)        0         
_________________________________________________________________
dropout_1213 (Dropout)       (None, 16, 16, 32)        0         
_________________________________________________________________
conv2d_831 (Conv2D)          (None, 16, 16, 128)       36992     
_________________________________________________________________
batch_normalization_586 (Bat (None, 16, 16, 128)       512       
_________________________________________________________________
activation_1214 (Activation) (None, 16, 16, 128)       0         
_________________________________________________________________
dropout_1214 (Dropout)       (None, 16, 16, 128)       0         
_________________________________________________________________
flatten_156 (Flatten)        (None, 32768)             0         
_________________________________________________________________
dense_539 (Dense)            (None, 16)                524304    
_________________________________________________________________
activation_1215 (Activation) (None, 16)                0         
_________________________________________________________________
dropout_1215 (Dropout)       (None, 16)                0         
_________________________________________________________________
dense_540 (Dense)            (None, 512)               8704      
_________________________________________________________________
batch_normalization_587 (Bat (None, 512)               2048      
_________________________________________________________________
activation_1216 (Activation) (None, 512)               0         
_________________________________________________________________
dropout_1216 (Dropout)       (None, 512)               0         
_________________________________________________________________
dense_541 (Dense)            (None, 10)                5130      
=================================================================
Total params: 634,106
Trainable params: 632,570
Non-trainable params: 1,536
_________________________________________________________________
