Model: "sequential_333"
_________________________________________________________________
Layer (type)                 Output Shape              Param #   
=================================================================
conv2d_1515 (Conv2D)         (None, 32, 32, 16)        448       
_________________________________________________________________
activation_2211 (Activation) (None, 32, 32, 16)        0         
_________________________________________________________________
dropout_2211 (Dropout)       (None, 32, 32, 16)        0         
_________________________________________________________________
conv2d_1516 (Conv2D)         (None, 32, 32, 128)       18560     
_________________________________________________________________
batch_normalization_1114 (Ba (None, 32, 32, 128)       512       
_________________________________________________________________
activation_2212 (Activation) (None, 32, 32, 128)       0         
_________________________________________________________________
dropout_2212 (Dropout)       (None, 32, 32, 128)       0         
_________________________________________________________________
conv2d_1517 (Conv2D)         (None, 32, 32, 256)       295168    
_________________________________________________________________
activation_2213 (Activation) (None, 32, 32, 256)       0         
_________________________________________________________________
dropout_2213 (Dropout)       (None, 32, 32, 256)       0         
_________________________________________________________________
conv2d_1518 (Conv2D)         (None, 32, 32, 1024)      2360320   
_________________________________________________________________
batch_normalization_1115 (Ba (None, 32, 32, 1024)      4096      
_________________________________________________________________
activation_2214 (Activation) (None, 32, 32, 1024)      0         
_________________________________________________________________
dropout_2214 (Dropout)       (None, 32, 32, 1024)      0         
_________________________________________________________________
flatten_333 (Flatten)        (None, 1048576)           0         
_________________________________________________________________
dense_1029 (Dense)           (None, 256)               268435712 
_________________________________________________________________
activation_2215 (Activation) (None, 256)               0         
_________________________________________________________________
dropout_2215 (Dropout)       (None, 256)               0         
_________________________________________________________________
dense_1030 (Dense)           (None, 512)               131584    
_________________________________________________________________
batch_normalization_1116 (Ba (None, 512)               2048      
_________________________________________________________________
activation_2216 (Activation) (None, 512)               0         
_________________________________________________________________
dropout_2216 (Dropout)       (None, 512)               0         
_________________________________________________________________
dense_1031 (Dense)           (None, 10)                5130      
=================================================================
Total params: 271,253,578
Trainable params: 271,250,250
Non-trainable params: 3,328
_________________________________________________________________
