Model: "sequential_143"
_________________________________________________________________
Layer (type)                 Output Shape              Param #   
=================================================================
conv2d_776 (Conv2D)          (None, 32, 32, 16)        448       
_________________________________________________________________
activation_1133 (Activation) (None, 32, 32, 16)        0         
_________________________________________________________________
dropout_1133 (Dropout)       (None, 32, 32, 16)        0         
_________________________________________________________________
conv2d_777 (Conv2D)          (None, 32, 32, 128)       18560     
_________________________________________________________________
batch_normalization_546 (Bat (None, 32, 32, 128)       512       
_________________________________________________________________
activation_1134 (Activation) (None, 32, 32, 128)       0         
_________________________________________________________________
dropout_1134 (Dropout)       (None, 32, 32, 128)       0         
_________________________________________________________________
max_pooling2d_121 (MaxPoolin (None, 16, 16, 128)       0         
_________________________________________________________________
conv2d_778 (Conv2D)          (None, 16, 16, 32)        36896     
_________________________________________________________________
activation_1135 (Activation) (None, 16, 16, 32)        0         
_________________________________________________________________
dropout_1135 (Dropout)       (None, 16, 16, 32)        0         
_________________________________________________________________
conv2d_779 (Conv2D)          (None, 16, 16, 1024)      295936    
_________________________________________________________________
batch_normalization_547 (Bat (None, 16, 16, 1024)      4096      
_________________________________________________________________
activation_1136 (Activation) (None, 16, 16, 1024)      0         
_________________________________________________________________
dropout_1136 (Dropout)       (None, 16, 16, 1024)      0         
_________________________________________________________________
flatten_143 (Flatten)        (None, 262144)            0         
_________________________________________________________________
dense_500 (Dense)            (None, 256)               67109120  
_________________________________________________________________
activation_1137 (Activation) (None, 256)               0         
_________________________________________________________________
dropout_1137 (Dropout)       (None, 256)               0         
_________________________________________________________________
dense_501 (Dense)            (None, 512)               131584    
_________________________________________________________________
batch_normalization_548 (Bat (None, 512)               2048      
_________________________________________________________________
activation_1138 (Activation) (None, 512)               0         
_________________________________________________________________
dropout_1138 (Dropout)       (None, 512)               0         
_________________________________________________________________
dense_502 (Dense)            (None, 10)                5130      
=================================================================
Total params: 67,604,330
Trainable params: 67,601,002
Non-trainable params: 3,328
_________________________________________________________________
