Model: "sequential_92"
_________________________________________________________________
Layer (type)                 Output Shape              Param #   
=================================================================
conv2d_555 (Conv2D)          (None, 32, 32, 1024)      28672     
_________________________________________________________________
activation_789 (Activation)  (None, 32, 32, 1024)      0         
_________________________________________________________________
dropout_789 (Dropout)        (None, 32, 32, 1024)      0         
_________________________________________________________________
conv2d_556 (Conv2D)          (None, 32, 32, 16)        147472    
_________________________________________________________________
batch_normalization_375 (Bat (None, 32, 32, 16)        64        
_________________________________________________________________
activation_790 (Activation)  (None, 32, 32, 16)        0         
_________________________________________________________________
dropout_790 (Dropout)        (None, 32, 32, 16)        0         
_________________________________________________________________
conv2d_557 (Conv2D)          (None, 32, 32, 32)        4640      
_________________________________________________________________
activation_791 (Activation)  (None, 32, 32, 32)        0         
_________________________________________________________________
dropout_791 (Dropout)        (None, 32, 32, 32)        0         
_________________________________________________________________
conv2d_558 (Conv2D)          (None, 32, 32, 64)        18496     
_________________________________________________________________
batch_normalization_376 (Bat (None, 32, 32, 64)        256       
_________________________________________________________________
activation_792 (Activation)  (None, 32, 32, 64)        0         
_________________________________________________________________
dropout_792 (Dropout)        (None, 32, 32, 64)        0         
_________________________________________________________________
flatten_92 (Flatten)         (None, 65536)             0         
_________________________________________________________________
dense_326 (Dense)            (None, 16)                1048592   
_________________________________________________________________
activation_793 (Activation)  (None, 16)                0         
_________________________________________________________________
dropout_793 (Dropout)        (None, 16)                0         
_________________________________________________________________
dense_327 (Dense)            (None, 512)               8704      
_________________________________________________________________
batch_normalization_377 (Bat (None, 512)               2048      
_________________________________________________________________
activation_794 (Activation)  (None, 512)               0         
_________________________________________________________________
dropout_794 (Dropout)        (None, 512)               0         
_________________________________________________________________
dense_328 (Dense)            (None, 32)                16416     
_________________________________________________________________
batch_normalization_378 (Bat (None, 32)                128       
_________________________________________________________________
activation_795 (Activation)  (None, 32)                0         
_________________________________________________________________
dropout_795 (Dropout)        (None, 32)                0         
_________________________________________________________________
dense_329 (Dense)            (None, 10)                330       
=================================================================
Total params: 1,275,818
Trainable params: 1,274,570
Non-trainable params: 1,248
_________________________________________________________________
