Model: "sequential_249"
_________________________________________________________________
Layer (type)                 Output Shape              Param #   
=================================================================
conv2d_1196 (Conv2D)         (None, 32, 32, 16)        448       
_________________________________________________________________
activation_1754 (Activation) (None, 32, 32, 16)        0         
_________________________________________________________________
dropout_1754 (Dropout)       (None, 32, 32, 16)        0         
_________________________________________________________________
conv2d_1197 (Conv2D)         (None, 32, 32, 128)       18560     
_________________________________________________________________
batch_normalization_864 (Bat (None, 32, 32, 128)       512       
_________________________________________________________________
activation_1755 (Activation) (None, 32, 32, 128)       0         
_________________________________________________________________
dropout_1755 (Dropout)       (None, 32, 32, 128)       0         
_________________________________________________________________
max_pooling2d_227 (MaxPoolin (None, 16, 16, 128)       0         
_________________________________________________________________
conv2d_1198 (Conv2D)         (None, 16, 16, 32)        36896     
_________________________________________________________________
activation_1756 (Activation) (None, 16, 16, 32)        0         
_________________________________________________________________
dropout_1756 (Dropout)       (None, 16, 16, 32)        0         
_________________________________________________________________
conv2d_1199 (Conv2D)         (None, 16, 16, 1024)      295936    
_________________________________________________________________
batch_normalization_865 (Bat (None, 16, 16, 1024)      4096      
_________________________________________________________________
activation_1757 (Activation) (None, 16, 16, 1024)      0         
_________________________________________________________________
dropout_1757 (Dropout)       (None, 16, 16, 1024)      0         
_________________________________________________________________
flatten_249 (Flatten)        (None, 262144)            0         
_________________________________________________________________
dense_807 (Dense)            (None, 256)               67109120  
_________________________________________________________________
activation_1758 (Activation) (None, 256)               0         
_________________________________________________________________
dropout_1758 (Dropout)       (None, 256)               0         
_________________________________________________________________
dense_808 (Dense)            (None, 512)               131584    
_________________________________________________________________
batch_normalization_866 (Bat (None, 512)               2048      
_________________________________________________________________
activation_1759 (Activation) (None, 512)               0         
_________________________________________________________________
dropout_1759 (Dropout)       (None, 512)               0         
_________________________________________________________________
dense_809 (Dense)            (None, 10)                5130      
=================================================================
Total params: 67,604,330
Trainable params: 67,601,002
Non-trainable params: 3,328
_________________________________________________________________
