Model: "sequential_9"
_________________________________________________________________
Layer (type)                 Output Shape              Param #   
=================================================================
conv2d_66 (Conv2D)           (None, 32, 32, 8)         224       
_________________________________________________________________
activation_95 (Activation)   (None, 32, 32, 8)         0         
_________________________________________________________________
dropout_95 (Dropout)         (None, 32, 32, 8)         0         
_________________________________________________________________
conv2d_67 (Conv2D)           (None, 32, 32, 8)         584       
_________________________________________________________________
batch_normalization_47 (Batc (None, 32, 32, 8)         32        
_________________________________________________________________
activation_96 (Activation)   (None, 32, 32, 8)         0         
_________________________________________________________________
dropout_96 (Dropout)         (None, 32, 32, 8)         0         
_________________________________________________________________
conv2d_68 (Conv2D)           (None, 32, 32, 1024)      74752     
_________________________________________________________________
batch_normalization_48 (Batc (None, 32, 32, 1024)      4096      
_________________________________________________________________
activation_97 (Activation)   (None, 32, 32, 1024)      0         
_________________________________________________________________
dropout_97 (Dropout)         (None, 32, 32, 1024)      0         
_________________________________________________________________
conv2d_69 (Conv2D)           (None, 32, 32, 512)       4719104   
_________________________________________________________________
batch_normalization_49 (Batc (None, 32, 32, 512)       2048      
_________________________________________________________________
activation_98 (Activation)   (None, 32, 32, 512)       0         
_________________________________________________________________
dropout_98 (Dropout)         (None, 32, 32, 512)       0         
_________________________________________________________________
max_pooling2d_14 (MaxPooling (None, 16, 16, 512)       0         
_________________________________________________________________
conv2d_70 (Conv2D)           (None, 16, 16, 1024)      4719616   
_________________________________________________________________
batch_normalization_50 (Batc (None, 16, 16, 1024)      4096      
_________________________________________________________________
activation_99 (Activation)   (None, 16, 16, 1024)      0         
_________________________________________________________________
dropout_99 (Dropout)         (None, 16, 16, 1024)      0         
_________________________________________________________________
conv2d_71 (Conv2D)           (None, 16, 16, 1024)      9438208   
_________________________________________________________________
batch_normalization_51 (Batc (None, 16, 16, 1024)      4096      
_________________________________________________________________
activation_100 (Activation)  (None, 16, 16, 1024)      0         
_________________________________________________________________
dropout_100 (Dropout)        (None, 16, 16, 1024)      0         
_________________________________________________________________
conv2d_72 (Conv2D)           (None, 16, 16, 64)        589888    
_________________________________________________________________
batch_normalization_52 (Batc (None, 16, 16, 64)        256       
_________________________________________________________________
activation_101 (Activation)  (None, 16, 16, 64)        0         
_________________________________________________________________
dropout_101 (Dropout)        (None, 16, 16, 64)        0         
_________________________________________________________________
conv2d_73 (Conv2D)           (None, 16, 16, 512)       295424    
_________________________________________________________________
activation_102 (Activation)  (None, 16, 16, 512)       0         
_________________________________________________________________
dropout_102 (Dropout)        (None, 16, 16, 512)       0         
_________________________________________________________________
max_pooling2d_15 (MaxPooling (None, 8, 8, 512)         0         
_________________________________________________________________
conv2d_74 (Conv2D)           (None, 8, 8, 64)          294976    
_________________________________________________________________
activation_103 (Activation)  (None, 8, 8, 64)          0         
_________________________________________________________________
dropout_103 (Dropout)        (None, 8, 8, 64)          0         
_________________________________________________________________
max_pooling2d_16 (MaxPooling (None, 4, 4, 64)          0         
_________________________________________________________________
conv2d_75 (Conv2D)           (None, 4, 4, 64)          36928     
_________________________________________________________________
activation_104 (Activation)  (None, 4, 4, 64)          0         
_________________________________________________________________
dropout_104 (Dropout)        (None, 4, 4, 64)          0         
_________________________________________________________________
conv2d_76 (Conv2D)           (None, 4, 4, 64)          36928     
_________________________________________________________________
activation_105 (Activation)  (None, 4, 4, 64)          0         
_________________________________________________________________
dropout_105 (Dropout)        (None, 4, 4, 64)          0         
_________________________________________________________________
flatten_9 (Flatten)          (None, 1024)              0         
_________________________________________________________________
dense_38 (Dense)             (None, 64)                65600     
_________________________________________________________________
batch_normalization_53 (Batc (None, 64)                256       
_________________________________________________________________
activation_106 (Activation)  (None, 64)                0         
_________________________________________________________________
dropout_106 (Dropout)        (None, 64)                0         
_________________________________________________________________
dense_39 (Dense)             (None, 256)               16640     
_________________________________________________________________
batch_normalization_54 (Batc (None, 256)               1024      
_________________________________________________________________
activation_107 (Activation)  (None, 256)               0         
_________________________________________________________________
dropout_107 (Dropout)        (None, 256)               0         
_________________________________________________________________
dense_40 (Dense)             (None, 256)               65792     
_________________________________________________________________
batch_normalization_55 (Batc (None, 256)               1024      
_________________________________________________________________
activation_108 (Activation)  (None, 256)               0         
_________________________________________________________________
dropout_108 (Dropout)        (None, 256)               0         
_________________________________________________________________
dense_41 (Dense)             (None, 10)                2570      
=================================================================
Total params: 20,374,162
Trainable params: 20,365,698
Non-trainable params: 8,464
_________________________________________________________________
