Model: "sequential_124"
_________________________________________________________________
Layer (type)                 Output Shape              Param #   
=================================================================
conv2d_698 (Conv2D)          (None, 32, 32, 16)        448       
_________________________________________________________________
activation_1013 (Activation) (None, 32, 32, 16)        0         
_________________________________________________________________
dropout_1013 (Dropout)       (None, 32, 32, 16)        0         
_________________________________________________________________
conv2d_699 (Conv2D)          (None, 32, 32, 128)       18560     
_________________________________________________________________
batch_normalization_484 (Bat (None, 32, 32, 128)       512       
_________________________________________________________________
activation_1014 (Activation) (None, 32, 32, 128)       0         
_________________________________________________________________
dropout_1014 (Dropout)       (None, 32, 32, 128)       0         
_________________________________________________________________
max_pooling2d_107 (MaxPoolin (None, 16, 16, 128)       0         
_________________________________________________________________
conv2d_700 (Conv2D)          (None, 16, 16, 32)        36896     
_________________________________________________________________
activation_1015 (Activation) (None, 16, 16, 32)        0         
_________________________________________________________________
dropout_1015 (Dropout)       (None, 16, 16, 32)        0         
_________________________________________________________________
conv2d_701 (Conv2D)          (None, 16, 16, 1024)      295936    
_________________________________________________________________
batch_normalization_485 (Bat (None, 16, 16, 1024)      4096      
_________________________________________________________________
activation_1016 (Activation) (None, 16, 16, 1024)      0         
_________________________________________________________________
dropout_1016 (Dropout)       (None, 16, 16, 1024)      0         
_________________________________________________________________
flatten_124 (Flatten)        (None, 262144)            0         
_________________________________________________________________
dense_439 (Dense)            (None, 256)               67109120  
_________________________________________________________________
activation_1017 (Activation) (None, 256)               0         
_________________________________________________________________
dropout_1017 (Dropout)       (None, 256)               0         
_________________________________________________________________
dense_440 (Dense)            (None, 512)               131584    
_________________________________________________________________
batch_normalization_486 (Bat (None, 512)               2048      
_________________________________________________________________
activation_1018 (Activation) (None, 512)               0         
_________________________________________________________________
dropout_1018 (Dropout)       (None, 512)               0         
_________________________________________________________________
dense_441 (Dense)            (None, 10)                5130      
=================================================================
Total params: 67,604,330
Trainable params: 67,601,002
Non-trainable params: 3,328
_________________________________________________________________
