Model: "sequential_70"
_________________________________________________________________
Layer (type)                 Output Shape              Param #   
=================================================================
conv2d_442 (Conv2D)          (None, 32, 32, 16)        448       
_________________________________________________________________
activation_616 (Activation)  (None, 32, 32, 16)        0         
_________________________________________________________________
dropout_616 (Dropout)        (None, 32, 32, 16)        0         
_________________________________________________________________
conv2d_443 (Conv2D)          (None, 32, 32, 128)       18560     
_________________________________________________________________
batch_normalization_299 (Bat (None, 32, 32, 128)       512       
_________________________________________________________________
activation_617 (Activation)  (None, 32, 32, 128)       0         
_________________________________________________________________
dropout_617 (Dropout)        (None, 32, 32, 128)       0         
_________________________________________________________________
max_pooling2d_80 (MaxPooling (None, 16, 16, 128)       0         
_________________________________________________________________
conv2d_444 (Conv2D)          (None, 16, 16, 32)        36896     
_________________________________________________________________
activation_618 (Activation)  (None, 16, 16, 32)        0         
_________________________________________________________________
dropout_618 (Dropout)        (None, 16, 16, 32)        0         
_________________________________________________________________
conv2d_445 (Conv2D)          (None, 16, 16, 1024)      295936    
_________________________________________________________________
batch_normalization_300 (Bat (None, 16, 16, 1024)      4096      
_________________________________________________________________
activation_619 (Activation)  (None, 16, 16, 1024)      0         
_________________________________________________________________
dropout_619 (Dropout)        (None, 16, 16, 1024)      0         
_________________________________________________________________
flatten_70 (Flatten)         (None, 262144)            0         
_________________________________________________________________
dense_244 (Dense)            (None, 256)               67109120  
_________________________________________________________________
activation_620 (Activation)  (None, 256)               0         
_________________________________________________________________
dropout_620 (Dropout)        (None, 256)               0         
_________________________________________________________________
dense_245 (Dense)            (None, 512)               131584    
_________________________________________________________________
batch_normalization_301 (Bat (None, 512)               2048      
_________________________________________________________________
activation_621 (Activation)  (None, 512)               0         
_________________________________________________________________
dropout_621 (Dropout)        (None, 512)               0         
_________________________________________________________________
dense_246 (Dense)            (None, 32)                16416     
_________________________________________________________________
batch_normalization_302 (Bat (None, 32)                128       
_________________________________________________________________
activation_622 (Activation)  (None, 32)                0         
_________________________________________________________________
dropout_622 (Dropout)        (None, 32)                0         
_________________________________________________________________
dense_247 (Dense)            (None, 10)                330       
=================================================================
Total params: 67,616,074
Trainable params: 67,612,682
Non-trainable params: 3,392
_________________________________________________________________
