Model: "sequential_365"
_________________________________________________________________
Layer (type)                 Output Shape              Param #   
=================================================================
conv2d_1643 (Conv2D)         (None, 32, 32, 16)        448       
_________________________________________________________________
activation_2393 (Activation) (None, 32, 32, 16)        0         
_________________________________________________________________
dropout_2393 (Dropout)       (None, 32, 32, 16)        0         
_________________________________________________________________
conv2d_1644 (Conv2D)         (None, 32, 32, 128)       18560     
_________________________________________________________________
activation_2394 (Activation) (None, 32, 32, 128)       0         
_________________________________________________________________
dropout_2394 (Dropout)       (None, 32, 32, 128)       0         
_________________________________________________________________
conv2d_1645 (Conv2D)         (None, 32, 32, 1024)      1180672   
_________________________________________________________________
activation_2395 (Activation) (None, 32, 32, 1024)      0         
_________________________________________________________________
dropout_2395 (Dropout)       (None, 32, 32, 1024)      0         
_________________________________________________________________
max_pooling2d_342 (MaxPoolin (None, 16, 16, 1024)      0         
_________________________________________________________________
flatten_365 (Flatten)        (None, 262144)            0         
_________________________________________________________________
dense_1115 (Dense)           (None, 256)               67109120  
_________________________________________________________________
activation_2396 (Activation) (None, 256)               0         
_________________________________________________________________
dropout_2396 (Dropout)       (None, 256)               0         
_________________________________________________________________
dense_1116 (Dense)           (None, 10)                2570      
=================================================================
Total params: 68,311,370
Trainable params: 68,311,370
Non-trainable params: 0
_________________________________________________________________
