Model: "sequential_349"
_________________________________________________________________
Layer (type)                 Output Shape              Param #   
=================================================================
conv2d_1579 (Conv2D)         (None, 32, 32, 16)        448       
_________________________________________________________________
activation_2300 (Activation) (None, 32, 32, 16)        0         
_________________________________________________________________
dropout_2300 (Dropout)       (None, 32, 32, 16)        0         
_________________________________________________________________
conv2d_1580 (Conv2D)         (None, 32, 32, 128)       18560     
_________________________________________________________________
activation_2301 (Activation) (None, 32, 32, 128)       0         
_________________________________________________________________
dropout_2301 (Dropout)       (None, 32, 32, 128)       0         
_________________________________________________________________
conv2d_1581 (Conv2D)         (None, 32, 32, 1024)      1180672   
_________________________________________________________________
activation_2302 (Activation) (None, 32, 32, 1024)      0         
_________________________________________________________________
dropout_2302 (Dropout)       (None, 32, 32, 1024)      0         
_________________________________________________________________
max_pooling2d_324 (MaxPoolin (None, 16, 16, 1024)      0         
_________________________________________________________________
conv2d_1582 (Conv2D)         (None, 16, 16, 1024)      9438208   
_________________________________________________________________
batch_normalization_1163 (Ba (None, 16, 16, 1024)      4096      
_________________________________________________________________
activation_2303 (Activation) (None, 16, 16, 1024)      0         
_________________________________________________________________
dropout_2303 (Dropout)       (None, 16, 16, 1024)      0         
_________________________________________________________________
flatten_349 (Flatten)        (None, 262144)            0         
_________________________________________________________________
dense_1070 (Dense)           (None, 256)               67109120  
_________________________________________________________________
activation_2304 (Activation) (None, 256)               0         
_________________________________________________________________
dropout_2304 (Dropout)       (None, 256)               0         
_________________________________________________________________
dense_1071 (Dense)           (None, 512)               131584    
_________________________________________________________________
batch_normalization_1164 (Ba (None, 512)               2048      
_________________________________________________________________
activation_2305 (Activation) (None, 512)               0         
_________________________________________________________________
dropout_2305 (Dropout)       (None, 512)               0         
_________________________________________________________________
dense_1072 (Dense)           (None, 10)                5130      
=================================================================
Total params: 77,889,866
Trainable params: 77,886,794
Non-trainable params: 3,072
_________________________________________________________________
