Model: "sequential_272"
_________________________________________________________________
Layer (type)                 Output Shape              Param #   
=================================================================
conv2d_1280 (Conv2D)         (None, 32, 32, 16)        448       
_________________________________________________________________
activation_1883 (Activation) (None, 32, 32, 16)        0         
_________________________________________________________________
dropout_1883 (Dropout)       (None, 32, 32, 16)        0         
_________________________________________________________________
conv2d_1281 (Conv2D)         (None, 32, 32, 8)         1160      
_________________________________________________________________
batch_normalization_943 (Bat (None, 32, 32, 8)         32        
_________________________________________________________________
activation_1884 (Activation) (None, 32, 32, 8)         0         
_________________________________________________________________
dropout_1884 (Dropout)       (None, 32, 32, 8)         0         
_________________________________________________________________
max_pooling2d_246 (MaxPoolin (None, 16, 16, 8)         0         
_________________________________________________________________
conv2d_1282 (Conv2D)         (None, 16, 16, 32)        2336      
_________________________________________________________________
activation_1885 (Activation) (None, 16, 16, 32)        0         
_________________________________________________________________
dropout_1885 (Dropout)       (None, 16, 16, 32)        0         
_________________________________________________________________
conv2d_1283 (Conv2D)         (None, 16, 16, 1024)      295936    
_________________________________________________________________
batch_normalization_944 (Bat (None, 16, 16, 1024)      4096      
_________________________________________________________________
activation_1886 (Activation) (None, 16, 16, 1024)      0         
_________________________________________________________________
dropout_1886 (Dropout)       (None, 16, 16, 1024)      0         
_________________________________________________________________
flatten_272 (Flatten)        (None, 262144)            0         
_________________________________________________________________
dense_875 (Dense)            (None, 256)               67109120  
_________________________________________________________________
batch_normalization_945 (Bat (None, 256)               1024      
_________________________________________________________________
activation_1887 (Activation) (None, 256)               0         
_________________________________________________________________
dropout_1887 (Dropout)       (None, 256)               0         
_________________________________________________________________
dense_876 (Dense)            (None, 512)               131584    
_________________________________________________________________
batch_normalization_946 (Bat (None, 512)               2048      
_________________________________________________________________
activation_1888 (Activation) (None, 512)               0         
_________________________________________________________________
dropout_1888 (Dropout)       (None, 512)               0         
_________________________________________________________________
dense_877 (Dense)            (None, 10)                5130      
=================================================================
Total params: 67,552,914
Trainable params: 67,549,314
Non-trainable params: 3,600
_________________________________________________________________
