Model: "sequential_188"
_________________________________________________________________
Layer (type)                 Output Shape              Param #   
=================================================================
conv2d_956 (Conv2D)          (None, 32, 32, 16)        448       
_________________________________________________________________
activation_1403 (Activation) (None, 32, 32, 16)        0         
_________________________________________________________________
dropout_1403 (Dropout)       (None, 32, 32, 16)        0         
_________________________________________________________________
conv2d_957 (Conv2D)          (None, 32, 32, 128)       18560     
_________________________________________________________________
batch_normalization_681 (Bat (None, 32, 32, 128)       512       
_________________________________________________________________
activation_1404 (Activation) (None, 32, 32, 128)       0         
_________________________________________________________________
dropout_1404 (Dropout)       (None, 32, 32, 128)       0         
_________________________________________________________________
max_pooling2d_165 (MaxPoolin (None, 16, 16, 128)       0         
_________________________________________________________________
conv2d_958 (Conv2D)          (None, 16, 16, 32)        36896     
_________________________________________________________________
activation_1405 (Activation) (None, 16, 16, 32)        0         
_________________________________________________________________
dropout_1405 (Dropout)       (None, 16, 16, 32)        0         
_________________________________________________________________
conv2d_959 (Conv2D)          (None, 16, 16, 1024)      295936    
_________________________________________________________________
batch_normalization_682 (Bat (None, 16, 16, 1024)      4096      
_________________________________________________________________
activation_1406 (Activation) (None, 16, 16, 1024)      0         
_________________________________________________________________
dropout_1406 (Dropout)       (None, 16, 16, 1024)      0         
_________________________________________________________________
flatten_188 (Flatten)        (None, 262144)            0         
_________________________________________________________________
dense_635 (Dense)            (None, 256)               67109120  
_________________________________________________________________
activation_1407 (Activation) (None, 256)               0         
_________________________________________________________________
dropout_1407 (Dropout)       (None, 256)               0         
_________________________________________________________________
dense_636 (Dense)            (None, 512)               131584    
_________________________________________________________________
batch_normalization_683 (Bat (None, 512)               2048      
_________________________________________________________________
activation_1408 (Activation) (None, 512)               0         
_________________________________________________________________
dropout_1408 (Dropout)       (None, 512)               0         
_________________________________________________________________
dense_637 (Dense)            (None, 10)                5130      
=================================================================
Total params: 67,604,330
Trainable params: 67,601,002
Non-trainable params: 3,328
_________________________________________________________________
