Model: "sequential_49"
_________________________________________________________________
Layer (type)                 Output Shape              Param #   
=================================================================
conv2d_315 (Conv2D)          (None, 32, 32, 16)        448       
_________________________________________________________________
activation_435 (Activation)  (None, 32, 32, 16)        0         
_________________________________________________________________
dropout_435 (Dropout)        (None, 32, 32, 16)        0         
_________________________________________________________________
conv2d_316 (Conv2D)          (None, 32, 32, 128)       18560     
_________________________________________________________________
batch_normalization_220 (Bat (None, 32, 32, 128)       512       
_________________________________________________________________
activation_436 (Activation)  (None, 32, 32, 128)       0         
_________________________________________________________________
dropout_436 (Dropout)        (None, 32, 32, 128)       0         
_________________________________________________________________
max_pooling2d_62 (MaxPooling (None, 16, 16, 128)       0         
_________________________________________________________________
conv2d_317 (Conv2D)          (None, 16, 16, 32)        36896     
_________________________________________________________________
activation_437 (Activation)  (None, 16, 16, 32)        0         
_________________________________________________________________
dropout_437 (Dropout)        (None, 16, 16, 32)        0         
_________________________________________________________________
conv2d_318 (Conv2D)          (None, 16, 16, 16)        4624      
_________________________________________________________________
activation_438 (Activation)  (None, 16, 16, 16)        0         
_________________________________________________________________
dropout_438 (Dropout)        (None, 16, 16, 16)        0         
_________________________________________________________________
conv2d_319 (Conv2D)          (None, 16, 16, 64)        9280      
_________________________________________________________________
activation_439 (Activation)  (None, 16, 16, 64)        0         
_________________________________________________________________
dropout_439 (Dropout)        (None, 16, 16, 64)        0         
_________________________________________________________________
conv2d_320 (Conv2D)          (None, 16, 16, 32)        18464     
_________________________________________________________________
batch_normalization_221 (Bat (None, 16, 16, 32)        128       
_________________________________________________________________
activation_440 (Activation)  (None, 16, 16, 32)        0         
_________________________________________________________________
dropout_440 (Dropout)        (None, 16, 16, 32)        0         
_________________________________________________________________
flatten_49 (Flatten)         (None, 8192)              0         
_________________________________________________________________
dense_169 (Dense)            (None, 32)                262176    
_________________________________________________________________
batch_normalization_222 (Bat (None, 32)                128       
_________________________________________________________________
activation_441 (Activation)  (None, 32)                0         
_________________________________________________________________
dropout_441 (Dropout)        (None, 32)                0         
_________________________________________________________________
dense_170 (Dense)            (None, 128)               4224      
_________________________________________________________________
activation_442 (Activation)  (None, 128)               0         
_________________________________________________________________
dropout_442 (Dropout)        (None, 128)               0         
_________________________________________________________________
dense_171 (Dense)            (None, 64)                8256      
_________________________________________________________________
batch_normalization_223 (Bat (None, 64)                256       
_________________________________________________________________
activation_443 (Activation)  (None, 64)                0         
_________________________________________________________________
dropout_443 (Dropout)        (None, 64)                0         
_________________________________________________________________
dense_172 (Dense)            (None, 10)                650       
=================================================================
Total params: 364,602
Trainable params: 364,090
Non-trainable params: 512
_________________________________________________________________
