Model: "sequential_85"
_________________________________________________________________
Layer (type)                 Output Shape              Param #   
=================================================================
conv2d_522 (Conv2D)          (None, 32, 32, 1024)      28672     
_________________________________________________________________
activation_737 (Activation)  (None, 32, 32, 1024)      0         
_________________________________________________________________
dropout_737 (Dropout)        (None, 32, 32, 1024)      0         
_________________________________________________________________
conv2d_523 (Conv2D)          (None, 32, 32, 16)        147472    
_________________________________________________________________
batch_normalization_353 (Bat (None, 32, 32, 16)        64        
_________________________________________________________________
activation_738 (Activation)  (None, 32, 32, 16)        0         
_________________________________________________________________
dropout_738 (Dropout)        (None, 32, 32, 16)        0         
_________________________________________________________________
conv2d_524 (Conv2D)          (None, 32, 32, 32)        4640      
_________________________________________________________________
activation_739 (Activation)  (None, 32, 32, 32)        0         
_________________________________________________________________
dropout_739 (Dropout)        (None, 32, 32, 32)        0         
_________________________________________________________________
conv2d_525 (Conv2D)          (None, 32, 32, 16)        4624      
_________________________________________________________________
activation_740 (Activation)  (None, 32, 32, 16)        0         
_________________________________________________________________
dropout_740 (Dropout)        (None, 32, 32, 16)        0         
_________________________________________________________________
conv2d_526 (Conv2D)          (None, 32, 32, 64)        9280      
_________________________________________________________________
activation_741 (Activation)  (None, 32, 32, 64)        0         
_________________________________________________________________
dropout_741 (Dropout)        (None, 32, 32, 64)        0         
_________________________________________________________________
conv2d_527 (Conv2D)          (None, 32, 32, 32)        18464     
_________________________________________________________________
activation_742 (Activation)  (None, 32, 32, 32)        0         
_________________________________________________________________
dropout_742 (Dropout)        (None, 32, 32, 32)        0         
_________________________________________________________________
flatten_85 (Flatten)         (None, 32768)             0         
_________________________________________________________________
dense_300 (Dense)            (None, 32)                1048608   
_________________________________________________________________
batch_normalization_354 (Bat (None, 32)                128       
_________________________________________________________________
activation_743 (Activation)  (None, 32)                0         
_________________________________________________________________
dropout_743 (Dropout)        (None, 32)                0         
_________________________________________________________________
dense_301 (Dense)            (None, 256)               8448      
_________________________________________________________________
activation_744 (Activation)  (None, 256)               0         
_________________________________________________________________
dropout_744 (Dropout)        (None, 256)               0         
_________________________________________________________________
dense_302 (Dense)            (None, 512)               131584    
_________________________________________________________________
batch_normalization_355 (Bat (None, 512)               2048      
_________________________________________________________________
activation_745 (Activation)  (None, 512)               0         
_________________________________________________________________
dropout_745 (Dropout)        (None, 512)               0         
_________________________________________________________________
dense_303 (Dense)            (None, 10)                5130      
=================================================================
Total params: 1,409,162
Trainable params: 1,408,042
Non-trainable params: 1,120
_________________________________________________________________
