Model: "sequential_2"
_________________________________________________________________
Layer (type)                 Output Shape              Param #   
=================================================================
conv2d_15 (Conv2D)           (None, 32, 32, 512)       14336     
_________________________________________________________________
batch_normalization_10 (Batc (None, 32, 32, 512)       2048      
_________________________________________________________________
activation_23 (Activation)   (None, 32, 32, 512)       0         
_________________________________________________________________
dropout_23 (Dropout)         (None, 32, 32, 512)       0         
_________________________________________________________________
max_pooling2d_2 (MaxPooling2 (None, 16, 16, 512)       0         
_________________________________________________________________
conv2d_16 (Conv2D)           (None, 16, 16, 64)        294976    
_________________________________________________________________
activation_24 (Activation)   (None, 16, 16, 64)        0         
_________________________________________________________________
dropout_24 (Dropout)         (None, 16, 16, 64)        0         
_________________________________________________________________
max_pooling2d_3 (MaxPooling2 (None, 8, 8, 64)          0         
_________________________________________________________________
conv2d_17 (Conv2D)           (None, 8, 8, 32)          18464     
_________________________________________________________________
batch_normalization_11 (Batc (None, 8, 8, 32)          128       
_________________________________________________________________
activation_25 (Activation)   (None, 8, 8, 32)          0         
_________________________________________________________________
dropout_25 (Dropout)         (None, 8, 8, 32)          0         
_________________________________________________________________
conv2d_18 (Conv2D)           (None, 8, 8, 16)          4624      
_________________________________________________________________
activation_26 (Activation)   (None, 8, 8, 16)          0         
_________________________________________________________________
dropout_26 (Dropout)         (None, 8, 8, 16)          0         
_________________________________________________________________
max_pooling2d_4 (MaxPooling2 (None, 4, 4, 16)          0         
_________________________________________________________________
conv2d_19 (Conv2D)           (None, 4, 4, 64)          9280      
_________________________________________________________________
batch_normalization_12 (Batc (None, 4, 4, 64)          256       
_________________________________________________________________
activation_27 (Activation)   (None, 4, 4, 64)          0         
_________________________________________________________________
dropout_27 (Dropout)         (None, 4, 4, 64)          0         
_________________________________________________________________
conv2d_20 (Conv2D)           (None, 4, 4, 8)           4616      
_________________________________________________________________
batch_normalization_13 (Batc (None, 4, 4, 8)           32        
_________________________________________________________________
activation_28 (Activation)   (None, 4, 4, 8)           0         
_________________________________________________________________
dropout_28 (Dropout)         (None, 4, 4, 8)           0         
_________________________________________________________________
conv2d_21 (Conv2D)           (None, 4, 4, 32)          2336      
_________________________________________________________________
batch_normalization_14 (Batc (None, 4, 4, 32)          128       
_________________________________________________________________
activation_29 (Activation)   (None, 4, 4, 32)          0         
_________________________________________________________________
dropout_29 (Dropout)         (None, 4, 4, 32)          0         
_________________________________________________________________
conv2d_22 (Conv2D)           (None, 4, 4, 128)         36992     
_________________________________________________________________
batch_normalization_15 (Batc (None, 4, 4, 128)         512       
_________________________________________________________________
activation_30 (Activation)   (None, 4, 4, 128)         0         
_________________________________________________________________
dropout_30 (Dropout)         (None, 4, 4, 128)         0         
_________________________________________________________________
flatten_2 (Flatten)          (None, 2048)              0         
_________________________________________________________________
dense_10 (Dense)             (None, 32)                65568     
_________________________________________________________________
batch_normalization_16 (Batc (None, 32)                128       
_________________________________________________________________
activation_31 (Activation)   (None, 32)                0         
_________________________________________________________________
dropout_31 (Dropout)         (None, 32)                0         
_________________________________________________________________
dense_11 (Dense)             (None, 256)               8448      
_________________________________________________________________
activation_32 (Activation)   (None, 256)               0         
_________________________________________________________________
dropout_32 (Dropout)         (None, 256)               0         
_________________________________________________________________
dense_12 (Dense)             (None, 32)                8224      
_________________________________________________________________
activation_33 (Activation)   (None, 32)                0         
_________________________________________________________________
dropout_33 (Dropout)         (None, 32)                0         
_________________________________________________________________
dense_13 (Dense)             (None, 16)                528       
_________________________________________________________________
activation_34 (Activation)   (None, 16)                0         
_________________________________________________________________
dropout_34 (Dropout)         (None, 16)                0         
_________________________________________________________________
dense_14 (Dense)             (None, 10)                170       
=================================================================
Total params: 471,794
Trainable params: 470,178
Non-trainable params: 1,616
_________________________________________________________________
