Model: "sequential_122"
_________________________________________________________________
Layer (type)                 Output Shape              Param #   
=================================================================
conv2d_690 (Conv2D)          (None, 32, 32, 1024)      28672     
_________________________________________________________________
activation_1000 (Activation) (None, 32, 32, 1024)      0         
_________________________________________________________________
dropout_1000 (Dropout)       (None, 32, 32, 1024)      0         
_________________________________________________________________
conv2d_691 (Conv2D)          (None, 32, 32, 16)        147472    
_________________________________________________________________
batch_normalization_478 (Bat (None, 32, 32, 16)        64        
_________________________________________________________________
activation_1001 (Activation) (None, 32, 32, 16)        0         
_________________________________________________________________
dropout_1001 (Dropout)       (None, 32, 32, 16)        0         
_________________________________________________________________
conv2d_692 (Conv2D)          (None, 32, 32, 32)        4640      
_________________________________________________________________
activation_1002 (Activation) (None, 32, 32, 32)        0         
_________________________________________________________________
dropout_1002 (Dropout)       (None, 32, 32, 32)        0         
_________________________________________________________________
conv2d_693 (Conv2D)          (None, 32, 32, 1024)      295936    
_________________________________________________________________
batch_normalization_479 (Bat (None, 32, 32, 1024)      4096      
_________________________________________________________________
activation_1003 (Activation) (None, 32, 32, 1024)      0         
_________________________________________________________________
dropout_1003 (Dropout)       (None, 32, 32, 1024)      0         
_________________________________________________________________
flatten_122 (Flatten)        (None, 1048576)           0         
_________________________________________________________________
dense_432 (Dense)            (None, 256)               268435712 
_________________________________________________________________
activation_1004 (Activation) (None, 256)               0         
_________________________________________________________________
dropout_1004 (Dropout)       (None, 256)               0         
_________________________________________________________________
dense_433 (Dense)            (None, 512)               131584    
_________________________________________________________________
activation_1005 (Activation) (None, 512)               0         
_________________________________________________________________
dropout_1005 (Dropout)       (None, 512)               0         
_________________________________________________________________
dense_434 (Dense)            (None, 10)                5130      
=================================================================
Total params: 269,053,306
Trainable params: 269,051,226
Non-trainable params: 2,080
_________________________________________________________________
