Model: "sequential_266"
_________________________________________________________________
Layer (type)                 Output Shape              Param #   
=================================================================
conv2d_1260 (Conv2D)         (None, 32, 32, 16)        448       
_________________________________________________________________
activation_1851 (Activation) (None, 32, 32, 16)        0         
_________________________________________________________________
dropout_1851 (Dropout)       (None, 32, 32, 16)        0         
_________________________________________________________________
conv2d_1261 (Conv2D)         (None, 32, 32, 8)         1160      
_________________________________________________________________
batch_normalization_925 (Bat (None, 32, 32, 8)         32        
_________________________________________________________________
activation_1852 (Activation) (None, 32, 32, 8)         0         
_________________________________________________________________
dropout_1852 (Dropout)       (None, 32, 32, 8)         0         
_________________________________________________________________
max_pooling2d_243 (MaxPoolin (None, 16, 16, 8)         0         
_________________________________________________________________
conv2d_1262 (Conv2D)         (None, 16, 16, 32)        2336      
_________________________________________________________________
activation_1853 (Activation) (None, 16, 16, 32)        0         
_________________________________________________________________
dropout_1853 (Dropout)       (None, 16, 16, 32)        0         
_________________________________________________________________
conv2d_1263 (Conv2D)         (None, 16, 16, 1024)      295936    
_________________________________________________________________
batch_normalization_926 (Bat (None, 16, 16, 1024)      4096      
_________________________________________________________________
activation_1854 (Activation) (None, 16, 16, 1024)      0         
_________________________________________________________________
dropout_1854 (Dropout)       (None, 16, 16, 1024)      0         
_________________________________________________________________
flatten_266 (Flatten)        (None, 262144)            0         
_________________________________________________________________
dense_857 (Dense)            (None, 256)               67109120  
_________________________________________________________________
activation_1855 (Activation) (None, 256)               0         
_________________________________________________________________
dropout_1855 (Dropout)       (None, 256)               0         
_________________________________________________________________
dense_858 (Dense)            (None, 512)               131584    
_________________________________________________________________
batch_normalization_927 (Bat (None, 512)               2048      
_________________________________________________________________
activation_1856 (Activation) (None, 512)               0         
_________________________________________________________________
dropout_1856 (Dropout)       (None, 512)               0         
_________________________________________________________________
dense_859 (Dense)            (None, 10)                5130      
=================================================================
Total params: 67,551,890
Trainable params: 67,548,802
Non-trainable params: 3,088
_________________________________________________________________
