Model: "sequential_159"
_________________________________________________________________
Layer (type)                 Output Shape              Param #   
=================================================================
conv2d_840 (Conv2D)          (None, 32, 32, 16)        448       
_________________________________________________________________
activation_1229 (Activation) (None, 32, 32, 16)        0         
_________________________________________________________________
dropout_1229 (Dropout)       (None, 32, 32, 16)        0         
_________________________________________________________________
conv2d_841 (Conv2D)          (None, 32, 32, 128)       18560     
_________________________________________________________________
batch_normalization_594 (Bat (None, 32, 32, 128)       512       
_________________________________________________________________
activation_1230 (Activation) (None, 32, 32, 128)       0         
_________________________________________________________________
dropout_1230 (Dropout)       (None, 32, 32, 128)       0         
_________________________________________________________________
max_pooling2d_136 (MaxPoolin (None, 16, 16, 128)       0         
_________________________________________________________________
conv2d_842 (Conv2D)          (None, 16, 16, 32)        36896     
_________________________________________________________________
activation_1231 (Activation) (None, 16, 16, 32)        0         
_________________________________________________________________
dropout_1231 (Dropout)       (None, 16, 16, 32)        0         
_________________________________________________________________
conv2d_843 (Conv2D)          (None, 16, 16, 128)       36992     
_________________________________________________________________
batch_normalization_595 (Bat (None, 16, 16, 128)       512       
_________________________________________________________________
activation_1232 (Activation) (None, 16, 16, 128)       0         
_________________________________________________________________
dropout_1232 (Dropout)       (None, 16, 16, 128)       0         
_________________________________________________________________
flatten_159 (Flatten)        (None, 32768)             0         
_________________________________________________________________
dense_548 (Dense)            (None, 64)                2097216   
_________________________________________________________________
activation_1233 (Activation) (None, 64)                0         
_________________________________________________________________
dropout_1233 (Dropout)       (None, 64)                0         
_________________________________________________________________
dense_549 (Dense)            (None, 512)               33280     
_________________________________________________________________
batch_normalization_596 (Bat (None, 512)               2048      
_________________________________________________________________
activation_1234 (Activation) (None, 512)               0         
_________________________________________________________________
dropout_1234 (Dropout)       (None, 512)               0         
_________________________________________________________________
dense_550 (Dense)            (None, 10)                5130      
=================================================================
Total params: 2,231,594
Trainable params: 2,230,058
Non-trainable params: 1,536
_________________________________________________________________
