Model: "sequential_205"
_________________________________________________________________
Layer (type)                 Output Shape              Param #   
=================================================================
conv2d_1022 (Conv2D)         (None, 32, 32, 16)        448       
_________________________________________________________________
activation_1502 (Activation) (None, 32, 32, 16)        0         
_________________________________________________________________
dropout_1502 (Dropout)       (None, 32, 32, 16)        0         
_________________________________________________________________
conv2d_1023 (Conv2D)         (None, 32, 32, 128)       18560     
_________________________________________________________________
batch_normalization_729 (Bat (None, 32, 32, 128)       512       
_________________________________________________________________
activation_1503 (Activation) (None, 32, 32, 128)       0         
_________________________________________________________________
dropout_1503 (Dropout)       (None, 32, 32, 128)       0         
_________________________________________________________________
max_pooling2d_182 (MaxPoolin (None, 16, 16, 128)       0         
_________________________________________________________________
conv2d_1024 (Conv2D)         (None, 16, 16, 32)        36896     
_________________________________________________________________
activation_1504 (Activation) (None, 16, 16, 32)        0         
_________________________________________________________________
dropout_1504 (Dropout)       (None, 16, 16, 32)        0         
_________________________________________________________________
conv2d_1025 (Conv2D)         (None, 16, 16, 1024)      295936    
_________________________________________________________________
batch_normalization_730 (Bat (None, 16, 16, 1024)      4096      
_________________________________________________________________
activation_1505 (Activation) (None, 16, 16, 1024)      0         
_________________________________________________________________
dropout_1505 (Dropout)       (None, 16, 16, 1024)      0         
_________________________________________________________________
flatten_205 (Flatten)        (None, 262144)            0         
_________________________________________________________________
dense_685 (Dense)            (None, 256)               67109120  
_________________________________________________________________
activation_1506 (Activation) (None, 256)               0         
_________________________________________________________________
dropout_1506 (Dropout)       (None, 256)               0         
_________________________________________________________________
dense_686 (Dense)            (None, 512)               131584    
_________________________________________________________________
batch_normalization_731 (Bat (None, 512)               2048      
_________________________________________________________________
activation_1507 (Activation) (None, 512)               0         
_________________________________________________________________
dropout_1507 (Dropout)       (None, 512)               0         
_________________________________________________________________
dense_687 (Dense)            (None, 10)                5130      
=================================================================
Total params: 67,604,330
Trainable params: 67,601,002
Non-trainable params: 3,328
_________________________________________________________________
