Model: "sequential_398"
_________________________________________________________________
Layer (type)                 Output Shape              Param #   
=================================================================
conv2d_1770 (Conv2D)         (None, 32, 32, 16)        448       
_________________________________________________________________
activation_2578 (Activation) (None, 32, 32, 16)        0         
_________________________________________________________________
dropout_2578 (Dropout)       (None, 32, 32, 16)        0         
_________________________________________________________________
conv2d_1771 (Conv2D)         (None, 32, 32, 128)       18560     
_________________________________________________________________
activation_2579 (Activation) (None, 32, 32, 128)       0         
_________________________________________________________________
dropout_2579 (Dropout)       (None, 32, 32, 128)       0         
_________________________________________________________________
conv2d_1772 (Conv2D)         (None, 32, 32, 1024)      1180672   
_________________________________________________________________
activation_2580 (Activation) (None, 32, 32, 1024)      0         
_________________________________________________________________
dropout_2580 (Dropout)       (None, 32, 32, 1024)      0         
_________________________________________________________________
max_pooling2d_370 (MaxPoolin (None, 16, 16, 1024)      0         
_________________________________________________________________
conv2d_1773 (Conv2D)         (None, 16, 16, 1024)      9438208   
_________________________________________________________________
batch_normalization_1274 (Ba (None, 16, 16, 1024)      4096      
_________________________________________________________________
activation_2581 (Activation) (None, 16, 16, 1024)      0         
_________________________________________________________________
dropout_2581 (Dropout)       (None, 16, 16, 1024)      0         
_________________________________________________________________
flatten_398 (Flatten)        (None, 262144)            0         
_________________________________________________________________
dense_1206 (Dense)           (None, 256)               67109120  
_________________________________________________________________
activation_2582 (Activation) (None, 256)               0         
_________________________________________________________________
dropout_2582 (Dropout)       (None, 256)               0         
_________________________________________________________________
dense_1207 (Dense)           (None, 10)                2570      
=================================================================
Total params: 77,753,674
Trainable params: 77,751,626
Non-trainable params: 2,048
_________________________________________________________________
