Model: "sequential_373"
_________________________________________________________________
Layer (type)                 Output Shape              Param #   
=================================================================
conv2d_1674 (Conv2D)         (None, 32, 32, 16)        448       
_________________________________________________________________
activation_2439 (Activation) (None, 32, 32, 16)        0         
_________________________________________________________________
dropout_2439 (Dropout)       (None, 32, 32, 16)        0         
_________________________________________________________________
conv2d_1675 (Conv2D)         (None, 32, 32, 128)       18560     
_________________________________________________________________
activation_2440 (Activation) (None, 32, 32, 128)       0         
_________________________________________________________________
dropout_2440 (Dropout)       (None, 32, 32, 128)       0         
_________________________________________________________________
conv2d_1676 (Conv2D)         (None, 32, 32, 1024)      1180672   
_________________________________________________________________
activation_2441 (Activation) (None, 32, 32, 1024)      0         
_________________________________________________________________
dropout_2441 (Dropout)       (None, 32, 32, 1024)      0         
_________________________________________________________________
max_pooling2d_351 (MaxPoolin (None, 16, 16, 1024)      0         
_________________________________________________________________
conv2d_1677 (Conv2D)         (None, 16, 16, 1024)      9438208   
_________________________________________________________________
batch_normalization_1223 (Ba (None, 16, 16, 1024)      4096      
_________________________________________________________________
activation_2442 (Activation) (None, 16, 16, 1024)      0         
_________________________________________________________________
dropout_2442 (Dropout)       (None, 16, 16, 1024)      0         
_________________________________________________________________
flatten_373 (Flatten)        (None, 262144)            0         
_________________________________________________________________
dense_1138 (Dense)           (None, 256)               67109120  
_________________________________________________________________
activation_2443 (Activation) (None, 256)               0         
_________________________________________________________________
dropout_2443 (Dropout)       (None, 256)               0         
_________________________________________________________________
dense_1139 (Dense)           (None, 512)               131584    
_________________________________________________________________
batch_normalization_1224 (Ba (None, 512)               2048      
_________________________________________________________________
activation_2444 (Activation) (None, 512)               0         
_________________________________________________________________
dropout_2444 (Dropout)       (None, 512)               0         
_________________________________________________________________
dense_1140 (Dense)           (None, 10)                5130      
=================================================================
Total params: 77,889,866
Trainable params: 77,886,794
Non-trainable params: 3,072
_________________________________________________________________
