Model: "sequential_343"
_________________________________________________________________
Layer (type)                 Output Shape              Param #   
=================================================================
conv2d_1555 (Conv2D)         (None, 32, 32, 16)        448       
_________________________________________________________________
activation_2265 (Activation) (None, 32, 32, 16)        0         
_________________________________________________________________
dropout_2265 (Dropout)       (None, 32, 32, 16)        0         
_________________________________________________________________
conv2d_1556 (Conv2D)         (None, 32, 32, 128)       18560     
_________________________________________________________________
activation_2266 (Activation) (None, 32, 32, 128)       0         
_________________________________________________________________
dropout_2266 (Dropout)       (None, 32, 32, 128)       0         
_________________________________________________________________
conv2d_1557 (Conv2D)         (None, 32, 32, 1024)      1180672   
_________________________________________________________________
activation_2267 (Activation) (None, 32, 32, 1024)      0         
_________________________________________________________________
dropout_2267 (Dropout)       (None, 32, 32, 1024)      0         
_________________________________________________________________
max_pooling2d_317 (MaxPoolin (None, 16, 16, 1024)      0         
_________________________________________________________________
conv2d_1558 (Conv2D)         (None, 16, 16, 1024)      9438208   
_________________________________________________________________
batch_normalization_1145 (Ba (None, 16, 16, 1024)      4096      
_________________________________________________________________
activation_2268 (Activation) (None, 16, 16, 1024)      0         
_________________________________________________________________
dropout_2268 (Dropout)       (None, 16, 16, 1024)      0         
_________________________________________________________________
flatten_343 (Flatten)        (None, 262144)            0         
_________________________________________________________________
dense_1053 (Dense)           (None, 256)               67109120  
_________________________________________________________________
activation_2269 (Activation) (None, 256)               0         
_________________________________________________________________
dropout_2269 (Dropout)       (None, 256)               0         
_________________________________________________________________
dense_1054 (Dense)           (None, 512)               131584    
_________________________________________________________________
batch_normalization_1146 (Ba (None, 512)               2048      
_________________________________________________________________
activation_2270 (Activation) (None, 512)               0         
_________________________________________________________________
dropout_2270 (Dropout)       (None, 512)               0         
_________________________________________________________________
dense_1055 (Dense)           (None, 10)                5130      
=================================================================
Total params: 77,889,866
Trainable params: 77,886,794
Non-trainable params: 3,072
_________________________________________________________________
