Model: "sequential_74"
_________________________________________________________________
Layer (type)                 Output Shape              Param #   
=================================================================
conv2d_465 (Conv2D)          (None, 32, 32, 16)        448       
_________________________________________________________________
activation_647 (Activation)  (None, 32, 32, 16)        0         
_________________________________________________________________
dropout_647 (Dropout)        (None, 32, 32, 16)        0         
_________________________________________________________________
conv2d_466 (Conv2D)          (None, 32, 32, 128)       18560     
_________________________________________________________________
batch_normalization_310 (Bat (None, 32, 32, 128)       512       
_________________________________________________________________
activation_648 (Activation)  (None, 32, 32, 128)       0         
_________________________________________________________________
dropout_648 (Dropout)        (None, 32, 32, 128)       0         
_________________________________________________________________
max_pooling2d_83 (MaxPooling (None, 16, 16, 128)       0         
_________________________________________________________________
conv2d_467 (Conv2D)          (None, 16, 16, 32)        36896     
_________________________________________________________________
activation_649 (Activation)  (None, 16, 16, 32)        0         
_________________________________________________________________
dropout_649 (Dropout)        (None, 16, 16, 32)        0         
_________________________________________________________________
conv2d_468 (Conv2D)          (None, 16, 16, 16)        4624      
_________________________________________________________________
activation_650 (Activation)  (None, 16, 16, 16)        0         
_________________________________________________________________
dropout_650 (Dropout)        (None, 16, 16, 16)        0         
_________________________________________________________________
conv2d_469 (Conv2D)          (None, 16, 16, 64)        9280      
_________________________________________________________________
activation_651 (Activation)  (None, 16, 16, 64)        0         
_________________________________________________________________
dropout_651 (Dropout)        (None, 16, 16, 64)        0         
_________________________________________________________________
conv2d_470 (Conv2D)          (None, 16, 16, 128)       73856     
_________________________________________________________________
activation_652 (Activation)  (None, 16, 16, 128)       0         
_________________________________________________________________
dropout_652 (Dropout)        (None, 16, 16, 128)       0         
_________________________________________________________________
conv2d_471 (Conv2D)          (None, 16, 16, 32)        36896     
_________________________________________________________________
batch_normalization_311 (Bat (None, 16, 16, 32)        128       
_________________________________________________________________
activation_653 (Activation)  (None, 16, 16, 32)        0         
_________________________________________________________________
dropout_653 (Dropout)        (None, 16, 16, 32)        0         
_________________________________________________________________
flatten_74 (Flatten)         (None, 8192)              0         
_________________________________________________________________
dense_256 (Dense)            (None, 32)                262176    
_________________________________________________________________
batch_normalization_312 (Bat (None, 32)                128       
_________________________________________________________________
activation_654 (Activation)  (None, 32)                0         
_________________________________________________________________
dropout_654 (Dropout)        (None, 32)                0         
_________________________________________________________________
dense_257 (Dense)            (None, 128)               4224      
_________________________________________________________________
activation_655 (Activation)  (None, 128)               0         
_________________________________________________________________
dropout_655 (Dropout)        (None, 128)               0         
_________________________________________________________________
dense_258 (Dense)            (None, 64)                8256      
_________________________________________________________________
batch_normalization_313 (Bat (None, 64)                256       
_________________________________________________________________
activation_656 (Activation)  (None, 64)                0         
_________________________________________________________________
dropout_656 (Dropout)        (None, 64)                0         
_________________________________________________________________
dense_259 (Dense)            (None, 10)                650       
=================================================================
Total params: 456,890
Trainable params: 456,378
Non-trainable params: 512
_________________________________________________________________
