Model: "sequential_175"
_________________________________________________________________
Layer (type)                 Output Shape              Param #   
=================================================================
conv2d_904 (Conv2D)          (None, 32, 32, 16)        448       
_________________________________________________________________
activation_1325 (Activation) (None, 32, 32, 16)        0         
_________________________________________________________________
dropout_1325 (Dropout)       (None, 32, 32, 16)        0         
_________________________________________________________________
conv2d_905 (Conv2D)          (None, 32, 32, 128)       18560     
_________________________________________________________________
batch_normalization_642 (Bat (None, 32, 32, 128)       512       
_________________________________________________________________
activation_1326 (Activation) (None, 32, 32, 128)       0         
_________________________________________________________________
dropout_1326 (Dropout)       (None, 32, 32, 128)       0         
_________________________________________________________________
max_pooling2d_152 (MaxPoolin (None, 16, 16, 128)       0         
_________________________________________________________________
conv2d_906 (Conv2D)          (None, 16, 16, 32)        36896     
_________________________________________________________________
activation_1327 (Activation) (None, 16, 16, 32)        0         
_________________________________________________________________
dropout_1327 (Dropout)       (None, 16, 16, 32)        0         
_________________________________________________________________
conv2d_907 (Conv2D)          (None, 16, 16, 128)       36992     
_________________________________________________________________
batch_normalization_643 (Bat (None, 16, 16, 128)       512       
_________________________________________________________________
activation_1328 (Activation) (None, 16, 16, 128)       0         
_________________________________________________________________
dropout_1328 (Dropout)       (None, 16, 16, 128)       0         
_________________________________________________________________
flatten_175 (Flatten)        (None, 32768)             0         
_________________________________________________________________
dense_596 (Dense)            (None, 256)               8388864   
_________________________________________________________________
activation_1329 (Activation) (None, 256)               0         
_________________________________________________________________
dropout_1329 (Dropout)       (None, 256)               0         
_________________________________________________________________
dense_597 (Dense)            (None, 512)               131584    
_________________________________________________________________
batch_normalization_644 (Bat (None, 512)               2048      
_________________________________________________________________
activation_1330 (Activation) (None, 512)               0         
_________________________________________________________________
dropout_1330 (Dropout)       (None, 512)               0         
_________________________________________________________________
dense_598 (Dense)            (None, 10)                5130      
=================================================================
Total params: 8,621,546
Trainable params: 8,620,010
Non-trainable params: 1,536
_________________________________________________________________
