Model: "sequential_192"
_________________________________________________________________
Layer (type)                 Output Shape              Param #   
=================================================================
conv2d_971 (Conv2D)          (None, 32, 32, 16)        448       
_________________________________________________________________
activation_1426 (Activation) (None, 32, 32, 16)        0         
_________________________________________________________________
dropout_1426 (Dropout)       (None, 32, 32, 16)        0         
_________________________________________________________________
conv2d_972 (Conv2D)          (None, 32, 32, 128)       18560     
_________________________________________________________________
batch_normalization_692 (Bat (None, 32, 32, 128)       512       
_________________________________________________________________
activation_1427 (Activation) (None, 32, 32, 128)       0         
_________________________________________________________________
dropout_1427 (Dropout)       (None, 32, 32, 128)       0         
_________________________________________________________________
max_pooling2d_169 (MaxPoolin (None, 16, 16, 128)       0         
_________________________________________________________________
conv2d_973 (Conv2D)          (None, 16, 16, 32)        36896     
_________________________________________________________________
activation_1428 (Activation) (None, 16, 16, 32)        0         
_________________________________________________________________
dropout_1428 (Dropout)       (None, 16, 16, 32)        0         
_________________________________________________________________
conv2d_974 (Conv2D)          (None, 16, 16, 1024)      295936    
_________________________________________________________________
batch_normalization_693 (Bat (None, 16, 16, 1024)      4096      
_________________________________________________________________
activation_1429 (Activation) (None, 16, 16, 1024)      0         
_________________________________________________________________
dropout_1429 (Dropout)       (None, 16, 16, 1024)      0         
_________________________________________________________________
flatten_192 (Flatten)        (None, 262144)            0         
_________________________________________________________________
dense_647 (Dense)            (None, 256)               67109120  
_________________________________________________________________
activation_1430 (Activation) (None, 256)               0         
_________________________________________________________________
dropout_1430 (Dropout)       (None, 256)               0         
_________________________________________________________________
dense_648 (Dense)            (None, 512)               131584    
_________________________________________________________________
batch_normalization_694 (Bat (None, 512)               2048      
_________________________________________________________________
activation_1431 (Activation) (None, 512)               0         
_________________________________________________________________
dropout_1431 (Dropout)       (None, 512)               0         
_________________________________________________________________
dense_649 (Dense)            (None, 10)                5130      
=================================================================
Total params: 67,604,330
Trainable params: 67,601,002
Non-trainable params: 3,328
_________________________________________________________________
