Model: "sequential_240"
_________________________________________________________________
Layer (type)                 Output Shape              Param #   
=================================================================
conv2d_1161 (Conv2D)         (None, 32, 32, 16)        448       
_________________________________________________________________
activation_1703 (Activation) (None, 32, 32, 16)        0         
_________________________________________________________________
dropout_1703 (Dropout)       (None, 32, 32, 16)        0         
_________________________________________________________________
conv2d_1162 (Conv2D)         (None, 32, 32, 8)         1160      
_________________________________________________________________
batch_normalization_834 (Bat (None, 32, 32, 8)         32        
_________________________________________________________________
activation_1704 (Activation) (None, 32, 32, 8)         0         
_________________________________________________________________
dropout_1704 (Dropout)       (None, 32, 32, 8)         0         
_________________________________________________________________
max_pooling2d_217 (MaxPoolin (None, 16, 16, 8)         0         
_________________________________________________________________
conv2d_1163 (Conv2D)         (None, 16, 16, 32)        2336      
_________________________________________________________________
activation_1705 (Activation) (None, 16, 16, 32)        0         
_________________________________________________________________
dropout_1705 (Dropout)       (None, 16, 16, 32)        0         
_________________________________________________________________
conv2d_1164 (Conv2D)         (None, 16, 16, 1024)      295936    
_________________________________________________________________
batch_normalization_835 (Bat (None, 16, 16, 1024)      4096      
_________________________________________________________________
activation_1706 (Activation) (None, 16, 16, 1024)      0         
_________________________________________________________________
dropout_1706 (Dropout)       (None, 16, 16, 1024)      0         
_________________________________________________________________
flatten_240 (Flatten)        (None, 262144)            0         
_________________________________________________________________
dense_782 (Dense)            (None, 256)               67109120  
_________________________________________________________________
batch_normalization_836 (Bat (None, 256)               1024      
_________________________________________________________________
activation_1707 (Activation) (None, 256)               0         
_________________________________________________________________
dropout_1707 (Dropout)       (None, 256)               0         
_________________________________________________________________
dense_783 (Dense)            (None, 512)               131584    
_________________________________________________________________
batch_normalization_837 (Bat (None, 512)               2048      
_________________________________________________________________
activation_1708 (Activation) (None, 512)               0         
_________________________________________________________________
dropout_1708 (Dropout)       (None, 512)               0         
_________________________________________________________________
dense_784 (Dense)            (None, 10)                5130      
=================================================================
Total params: 67,552,914
Trainable params: 67,549,314
Non-trainable params: 3,600
_________________________________________________________________
