Model: "sequential_191"
_________________________________________________________________
Layer (type)                 Output Shape              Param #   
=================================================================
conv2d_967 (Conv2D)          (None, 32, 32, 16)        448       
_________________________________________________________________
activation_1420 (Activation) (None, 32, 32, 16)        0         
_________________________________________________________________
dropout_1420 (Dropout)       (None, 32, 32, 16)        0         
_________________________________________________________________
conv2d_968 (Conv2D)          (None, 32, 32, 128)       18560     
_________________________________________________________________
batch_normalization_689 (Bat (None, 32, 32, 128)       512       
_________________________________________________________________
activation_1421 (Activation) (None, 32, 32, 128)       0         
_________________________________________________________________
dropout_1421 (Dropout)       (None, 32, 32, 128)       0         
_________________________________________________________________
max_pooling2d_168 (MaxPoolin (None, 16, 16, 128)       0         
_________________________________________________________________
conv2d_969 (Conv2D)          (None, 16, 16, 32)        36896     
_________________________________________________________________
activation_1422 (Activation) (None, 16, 16, 32)        0         
_________________________________________________________________
dropout_1422 (Dropout)       (None, 16, 16, 32)        0         
_________________________________________________________________
conv2d_970 (Conv2D)          (None, 16, 16, 1024)      295936    
_________________________________________________________________
batch_normalization_690 (Bat (None, 16, 16, 1024)      4096      
_________________________________________________________________
activation_1423 (Activation) (None, 16, 16, 1024)      0         
_________________________________________________________________
dropout_1423 (Dropout)       (None, 16, 16, 1024)      0         
_________________________________________________________________
flatten_191 (Flatten)        (None, 262144)            0         
_________________________________________________________________
dense_644 (Dense)            (None, 256)               67109120  
_________________________________________________________________
activation_1424 (Activation) (None, 256)               0         
_________________________________________________________________
dropout_1424 (Dropout)       (None, 256)               0         
_________________________________________________________________
dense_645 (Dense)            (None, 512)               131584    
_________________________________________________________________
batch_normalization_691 (Bat (None, 512)               2048      
_________________________________________________________________
activation_1425 (Activation) (None, 512)               0         
_________________________________________________________________
dropout_1425 (Dropout)       (None, 512)               0         
_________________________________________________________________
dense_646 (Dense)            (None, 10)                5130      
=================================================================
Total params: 67,604,330
Trainable params: 67,601,002
Non-trainable params: 3,328
_________________________________________________________________
