Model: "sequential_177"
_________________________________________________________________
Layer (type)                 Output Shape              Param #   
=================================================================
conv2d_912 (Conv2D)          (None, 32, 32, 16)        448       
_________________________________________________________________
activation_1337 (Activation) (None, 32, 32, 16)        0         
_________________________________________________________________
dropout_1337 (Dropout)       (None, 32, 32, 16)        0         
_________________________________________________________________
conv2d_913 (Conv2D)          (None, 32, 32, 128)       18560     
_________________________________________________________________
batch_normalization_648 (Bat (None, 32, 32, 128)       512       
_________________________________________________________________
activation_1338 (Activation) (None, 32, 32, 128)       0         
_________________________________________________________________
dropout_1338 (Dropout)       (None, 32, 32, 128)       0         
_________________________________________________________________
max_pooling2d_154 (MaxPoolin (None, 16, 16, 128)       0         
_________________________________________________________________
conv2d_914 (Conv2D)          (None, 16, 16, 32)        36896     
_________________________________________________________________
activation_1339 (Activation) (None, 16, 16, 32)        0         
_________________________________________________________________
dropout_1339 (Dropout)       (None, 16, 16, 32)        0         
_________________________________________________________________
conv2d_915 (Conv2D)          (None, 16, 16, 1024)      295936    
_________________________________________________________________
batch_normalization_649 (Bat (None, 16, 16, 1024)      4096      
_________________________________________________________________
activation_1340 (Activation) (None, 16, 16, 1024)      0         
_________________________________________________________________
dropout_1340 (Dropout)       (None, 16, 16, 1024)      0         
_________________________________________________________________
flatten_177 (Flatten)        (None, 262144)            0         
_________________________________________________________________
dense_602 (Dense)            (None, 256)               67109120  
_________________________________________________________________
activation_1341 (Activation) (None, 256)               0         
_________________________________________________________________
dropout_1341 (Dropout)       (None, 256)               0         
_________________________________________________________________
dense_603 (Dense)            (None, 512)               131584    
_________________________________________________________________
batch_normalization_650 (Bat (None, 512)               2048      
_________________________________________________________________
activation_1342 (Activation) (None, 512)               0         
_________________________________________________________________
dropout_1342 (Dropout)       (None, 512)               0         
_________________________________________________________________
dense_604 (Dense)            (None, 10)                5130      
=================================================================
Total params: 67,604,330
Trainable params: 67,601,002
Non-trainable params: 3,328
_________________________________________________________________
