Model: "sequential_251"
_________________________________________________________________
Layer (type)                 Output Shape              Param #   
=================================================================
conv2d_1203 (Conv2D)         (None, 32, 32, 16)        448       
_________________________________________________________________
activation_1765 (Activation) (None, 32, 32, 16)        0         
_________________________________________________________________
dropout_1765 (Dropout)       (None, 32, 32, 16)        0         
_________________________________________________________________
conv2d_1204 (Conv2D)         (None, 32, 32, 128)       18560     
_________________________________________________________________
batch_normalization_870 (Bat (None, 32, 32, 128)       512       
_________________________________________________________________
activation_1766 (Activation) (None, 32, 32, 128)       0         
_________________________________________________________________
dropout_1766 (Dropout)       (None, 32, 32, 128)       0         
_________________________________________________________________
max_pooling2d_228 (MaxPoolin (None, 16, 16, 128)       0         
_________________________________________________________________
conv2d_1205 (Conv2D)         (None, 16, 16, 32)        36896     
_________________________________________________________________
batch_normalization_871 (Bat (None, 16, 16, 32)        128       
_________________________________________________________________
activation_1767 (Activation) (None, 16, 16, 32)        0         
_________________________________________________________________
dropout_1767 (Dropout)       (None, 16, 16, 32)        0         
_________________________________________________________________
flatten_251 (Flatten)        (None, 8192)              0         
_________________________________________________________________
dense_813 (Dense)            (None, 256)               2097408   
_________________________________________________________________
batch_normalization_872 (Bat (None, 256)               1024      
_________________________________________________________________
activation_1768 (Activation) (None, 256)               0         
_________________________________________________________________
dropout_1768 (Dropout)       (None, 256)               0         
_________________________________________________________________
dense_814 (Dense)            (None, 512)               131584    
_________________________________________________________________
batch_normalization_873 (Bat (None, 512)               2048      
_________________________________________________________________
activation_1769 (Activation) (None, 512)               0         
_________________________________________________________________
dropout_1769 (Dropout)       (None, 512)               0         
_________________________________________________________________
dense_815 (Dense)            (None, 10)                5130      
=================================================================
Total params: 2,293,738
Trainable params: 2,291,882
Non-trainable params: 1,856
_________________________________________________________________
