Model: "sequential_235"
_________________________________________________________________
Layer (type)                 Output Shape              Param #   
=================================================================
conv2d_1141 (Conv2D)         (None, 32, 32, 16)        448       
_________________________________________________________________
activation_1673 (Activation) (None, 32, 32, 16)        0         
_________________________________________________________________
dropout_1673 (Dropout)       (None, 32, 32, 16)        0         
_________________________________________________________________
conv2d_1142 (Conv2D)         (None, 32, 32, 128)       18560     
_________________________________________________________________
batch_normalization_816 (Bat (None, 32, 32, 128)       512       
_________________________________________________________________
activation_1674 (Activation) (None, 32, 32, 128)       0         
_________________________________________________________________
dropout_1674 (Dropout)       (None, 32, 32, 128)       0         
_________________________________________________________________
max_pooling2d_212 (MaxPoolin (None, 16, 16, 128)       0         
_________________________________________________________________
conv2d_1143 (Conv2D)         (None, 16, 16, 32)        36896     
_________________________________________________________________
activation_1675 (Activation) (None, 16, 16, 32)        0         
_________________________________________________________________
dropout_1675 (Dropout)       (None, 16, 16, 32)        0         
_________________________________________________________________
conv2d_1144 (Conv2D)         (None, 16, 16, 1024)      295936    
_________________________________________________________________
batch_normalization_817 (Bat (None, 16, 16, 1024)      4096      
_________________________________________________________________
activation_1676 (Activation) (None, 16, 16, 1024)      0         
_________________________________________________________________
dropout_1676 (Dropout)       (None, 16, 16, 1024)      0         
_________________________________________________________________
flatten_235 (Flatten)        (None, 262144)            0         
_________________________________________________________________
dense_767 (Dense)            (None, 256)               67109120  
_________________________________________________________________
activation_1677 (Activation) (None, 256)               0         
_________________________________________________________________
dropout_1677 (Dropout)       (None, 256)               0         
_________________________________________________________________
dense_768 (Dense)            (None, 512)               131584    
_________________________________________________________________
batch_normalization_818 (Bat (None, 512)               2048      
_________________________________________________________________
activation_1678 (Activation) (None, 512)               0         
_________________________________________________________________
dropout_1678 (Dropout)       (None, 512)               0         
_________________________________________________________________
dense_769 (Dense)            (None, 10)                5130      
=================================================================
Total params: 67,604,330
Trainable params: 67,601,002
Non-trainable params: 3,328
_________________________________________________________________
