Model: "sequential_342"
_________________________________________________________________
Layer (type)                 Output Shape              Param #   
=================================================================
conv2d_1551 (Conv2D)         (None, 32, 32, 16)        448       
_________________________________________________________________
activation_2259 (Activation) (None, 32, 32, 16)        0         
_________________________________________________________________
dropout_2259 (Dropout)       (None, 32, 32, 16)        0         
_________________________________________________________________
conv2d_1552 (Conv2D)         (None, 32, 32, 128)       18560     
_________________________________________________________________
activation_2260 (Activation) (None, 32, 32, 128)       0         
_________________________________________________________________
dropout_2260 (Dropout)       (None, 32, 32, 128)       0         
_________________________________________________________________
conv2d_1553 (Conv2D)         (None, 32, 32, 1024)      1180672   
_________________________________________________________________
activation_2261 (Activation) (None, 32, 32, 1024)      0         
_________________________________________________________________
dropout_2261 (Dropout)       (None, 32, 32, 1024)      0         
_________________________________________________________________
max_pooling2d_316 (MaxPoolin (None, 16, 16, 1024)      0         
_________________________________________________________________
conv2d_1554 (Conv2D)         (None, 16, 16, 1024)      9438208   
_________________________________________________________________
batch_normalization_1142 (Ba (None, 16, 16, 1024)      4096      
_________________________________________________________________
activation_2262 (Activation) (None, 16, 16, 1024)      0         
_________________________________________________________________
dropout_2262 (Dropout)       (None, 16, 16, 1024)      0         
_________________________________________________________________
flatten_342 (Flatten)        (None, 262144)            0         
_________________________________________________________________
dense_1050 (Dense)           (None, 64)                16777280  
_________________________________________________________________
batch_normalization_1143 (Ba (None, 64)                256       
_________________________________________________________________
activation_2263 (Activation) (None, 64)                0         
_________________________________________________________________
dropout_2263 (Dropout)       (None, 64)                0         
_________________________________________________________________
dense_1051 (Dense)           (None, 32)                2080      
_________________________________________________________________
batch_normalization_1144 (Ba (None, 32)                128       
_________________________________________________________________
activation_2264 (Activation) (None, 32)                0         
_________________________________________________________________
dropout_2264 (Dropout)       (None, 32)                0         
_________________________________________________________________
dense_1052 (Dense)           (None, 10)                330       
=================================================================
Total params: 27,422,058
Trainable params: 27,419,818
Non-trainable params: 2,240
_________________________________________________________________
