Model: "sequential_163"
_________________________________________________________________
Layer (type)                 Output Shape              Param #   
=================================================================
conv2d_856 (Conv2D)          (None, 32, 32, 16)        448       
_________________________________________________________________
activation_1253 (Activation) (None, 32, 32, 16)        0         
_________________________________________________________________
dropout_1253 (Dropout)       (None, 32, 32, 16)        0         
_________________________________________________________________
conv2d_857 (Conv2D)          (None, 32, 32, 128)       18560     
_________________________________________________________________
batch_normalization_606 (Bat (None, 32, 32, 128)       512       
_________________________________________________________________
activation_1254 (Activation) (None, 32, 32, 128)       0         
_________________________________________________________________
dropout_1254 (Dropout)       (None, 32, 32, 128)       0         
_________________________________________________________________
max_pooling2d_140 (MaxPoolin (None, 16, 16, 128)       0         
_________________________________________________________________
conv2d_858 (Conv2D)          (None, 16, 16, 32)        36896     
_________________________________________________________________
activation_1255 (Activation) (None, 16, 16, 32)        0         
_________________________________________________________________
dropout_1255 (Dropout)       (None, 16, 16, 32)        0         
_________________________________________________________________
conv2d_859 (Conv2D)          (None, 16, 16, 128)       36992     
_________________________________________________________________
batch_normalization_607 (Bat (None, 16, 16, 128)       512       
_________________________________________________________________
activation_1256 (Activation) (None, 16, 16, 128)       0         
_________________________________________________________________
dropout_1256 (Dropout)       (None, 16, 16, 128)       0         
_________________________________________________________________
flatten_163 (Flatten)        (None, 32768)             0         
_________________________________________________________________
dense_560 (Dense)            (None, 16)                524304    
_________________________________________________________________
activation_1257 (Activation) (None, 16)                0         
_________________________________________________________________
dropout_1257 (Dropout)       (None, 16)                0         
_________________________________________________________________
dense_561 (Dense)            (None, 512)               8704      
_________________________________________________________________
batch_normalization_608 (Bat (None, 512)               2048      
_________________________________________________________________
activation_1258 (Activation) (None, 512)               0         
_________________________________________________________________
dropout_1258 (Dropout)       (None, 512)               0         
_________________________________________________________________
dense_562 (Dense)            (None, 10)                5130      
=================================================================
Total params: 634,106
Trainable params: 632,570
Non-trainable params: 1,536
_________________________________________________________________
