Model: "sequential_367"
_________________________________________________________________
Layer (type)                 Output Shape              Param #   
=================================================================
conv2d_1650 (Conv2D)         (None, 32, 32, 16)        448       
_________________________________________________________________
activation_2403 (Activation) (None, 32, 32, 16)        0         
_________________________________________________________________
dropout_2403 (Dropout)       (None, 32, 32, 16)        0         
_________________________________________________________________
max_pooling2d_344 (MaxPoolin (None, 16, 16, 16)        0         
_________________________________________________________________
conv2d_1651 (Conv2D)         (None, 16, 16, 128)       18560     
_________________________________________________________________
activation_2404 (Activation) (None, 16, 16, 128)       0         
_________________________________________________________________
dropout_2404 (Dropout)       (None, 16, 16, 128)       0         
_________________________________________________________________
conv2d_1652 (Conv2D)         (None, 16, 16, 1024)      1180672   
_________________________________________________________________
activation_2405 (Activation) (None, 16, 16, 1024)      0         
_________________________________________________________________
dropout_2405 (Dropout)       (None, 16, 16, 1024)      0         
_________________________________________________________________
max_pooling2d_345 (MaxPoolin (None, 8, 8, 1024)        0         
_________________________________________________________________
conv2d_1653 (Conv2D)         (None, 8, 8, 1024)        9438208   
_________________________________________________________________
batch_normalization_1210 (Ba (None, 8, 8, 1024)        4096      
_________________________________________________________________
activation_2406 (Activation) (None, 8, 8, 1024)        0         
_________________________________________________________________
dropout_2406 (Dropout)       (None, 8, 8, 1024)        0         
_________________________________________________________________
flatten_367 (Flatten)        (None, 65536)             0         
_________________________________________________________________
dense_1120 (Dense)           (None, 256)               16777472  
_________________________________________________________________
activation_2407 (Activation) (None, 256)               0         
_________________________________________________________________
dropout_2407 (Dropout)       (None, 256)               0         
_________________________________________________________________
dense_1121 (Dense)           (None, 512)               131584    
_________________________________________________________________
batch_normalization_1211 (Ba (None, 512)               2048      
_________________________________________________________________
activation_2408 (Activation) (None, 512)               0         
_________________________________________________________________
dropout_2408 (Dropout)       (None, 512)               0         
_________________________________________________________________
dense_1122 (Dense)           (None, 10)                5130      
=================================================================
Total params: 27,558,218
Trainable params: 27,555,146
Non-trainable params: 3,072
_________________________________________________________________
