Model: "sequential_353"
_________________________________________________________________
Layer (type)                 Output Shape              Param #   
=================================================================
conv2d_1595 (Conv2D)         (None, 32, 32, 16)        448       
_________________________________________________________________
activation_2324 (Activation) (None, 32, 32, 16)        0         
_________________________________________________________________
dropout_2324 (Dropout)       (None, 32, 32, 16)        0         
_________________________________________________________________
conv2d_1596 (Conv2D)         (None, 32, 32, 128)       18560     
_________________________________________________________________
batch_normalization_1174 (Ba (None, 32, 32, 128)       512       
_________________________________________________________________
activation_2325 (Activation) (None, 32, 32, 128)       0         
_________________________________________________________________
dropout_2325 (Dropout)       (None, 32, 32, 128)       0         
_________________________________________________________________
conv2d_1597 (Conv2D)         (None, 32, 32, 1024)      1180672   
_________________________________________________________________
activation_2326 (Activation) (None, 32, 32, 1024)      0         
_________________________________________________________________
dropout_2326 (Dropout)       (None, 32, 32, 1024)      0         
_________________________________________________________________
max_pooling2d_328 (MaxPoolin (None, 16, 16, 1024)      0         
_________________________________________________________________
conv2d_1598 (Conv2D)         (None, 16, 16, 1024)      9438208   
_________________________________________________________________
batch_normalization_1175 (Ba (None, 16, 16, 1024)      4096      
_________________________________________________________________
activation_2327 (Activation) (None, 16, 16, 1024)      0         
_________________________________________________________________
dropout_2327 (Dropout)       (None, 16, 16, 1024)      0         
_________________________________________________________________
flatten_353 (Flatten)        (None, 262144)            0         
_________________________________________________________________
dense_1082 (Dense)           (None, 256)               67109120  
_________________________________________________________________
activation_2328 (Activation) (None, 256)               0         
_________________________________________________________________
dropout_2328 (Dropout)       (None, 256)               0         
_________________________________________________________________
dense_1083 (Dense)           (None, 512)               131584    
_________________________________________________________________
batch_normalization_1176 (Ba (None, 512)               2048      
_________________________________________________________________
activation_2329 (Activation) (None, 512)               0         
_________________________________________________________________
dropout_2329 (Dropout)       (None, 512)               0         
_________________________________________________________________
dense_1084 (Dense)           (None, 10)                5130      
=================================================================
Total params: 77,890,378
Trainable params: 77,887,050
Non-trainable params: 3,328
_________________________________________________________________
