Model: "sequential_355"
_________________________________________________________________
Layer (type)                 Output Shape              Param #   
=================================================================
conv2d_1603 (Conv2D)         (None, 32, 32, 16)        448       
_________________________________________________________________
activation_2335 (Activation) (None, 32, 32, 16)        0         
_________________________________________________________________
dropout_2335 (Dropout)       (None, 32, 32, 16)        0         
_________________________________________________________________
max_pooling2d_330 (MaxPoolin (None, 16, 16, 16)        0         
_________________________________________________________________
conv2d_1604 (Conv2D)         (None, 16, 16, 128)       18560     
_________________________________________________________________
batch_normalization_1179 (Ba (None, 16, 16, 128)       512       
_________________________________________________________________
activation_2336 (Activation) (None, 16, 16, 128)       0         
_________________________________________________________________
dropout_2336 (Dropout)       (None, 16, 16, 128)       0         
_________________________________________________________________
conv2d_1605 (Conv2D)         (None, 16, 16, 1024)      1180672   
_________________________________________________________________
activation_2337 (Activation) (None, 16, 16, 1024)      0         
_________________________________________________________________
dropout_2337 (Dropout)       (None, 16, 16, 1024)      0         
_________________________________________________________________
max_pooling2d_331 (MaxPoolin (None, 8, 8, 1024)        0         
_________________________________________________________________
conv2d_1606 (Conv2D)         (None, 8, 8, 8)           73736     
_________________________________________________________________
batch_normalization_1180 (Ba (None, 8, 8, 8)           32        
_________________________________________________________________
activation_2338 (Activation) (None, 8, 8, 8)           0         
_________________________________________________________________
dropout_2338 (Dropout)       (None, 8, 8, 8)           0         
_________________________________________________________________
flatten_355 (Flatten)        (None, 512)               0         
_________________________________________________________________
dense_1087 (Dense)           (None, 10)                5130      
=================================================================
Total params: 1,279,090
Trainable params: 1,278,818
Non-trainable params: 272
_________________________________________________________________
