Model: "sequential_78"
_________________________________________________________________
Layer (type)                 Output Shape              Param #   
=================================================================
conv2d_488 (Conv2D)          (None, 32, 32, 1024)      28672     
_________________________________________________________________
activation_682 (Activation)  (None, 32, 32, 1024)      0         
_________________________________________________________________
dropout_682 (Dropout)        (None, 32, 32, 1024)      0         
_________________________________________________________________
conv2d_489 (Conv2D)          (None, 32, 32, 16)        147472    
_________________________________________________________________
batch_normalization_326 (Bat (None, 32, 32, 16)        64        
_________________________________________________________________
activation_683 (Activation)  (None, 32, 32, 16)        0         
_________________________________________________________________
dropout_683 (Dropout)        (None, 32, 32, 16)        0         
_________________________________________________________________
conv2d_490 (Conv2D)          (None, 32, 32, 32)        4640      
_________________________________________________________________
activation_684 (Activation)  (None, 32, 32, 32)        0         
_________________________________________________________________
dropout_684 (Dropout)        (None, 32, 32, 32)        0         
_________________________________________________________________
conv2d_491 (Conv2D)          (None, 32, 32, 16)        4624      
_________________________________________________________________
activation_685 (Activation)  (None, 32, 32, 16)        0         
_________________________________________________________________
dropout_685 (Dropout)        (None, 32, 32, 16)        0         
_________________________________________________________________
conv2d_492 (Conv2D)          (None, 32, 32, 64)        9280      
_________________________________________________________________
activation_686 (Activation)  (None, 32, 32, 64)        0         
_________________________________________________________________
dropout_686 (Dropout)        (None, 32, 32, 64)        0         
_________________________________________________________________
conv2d_493 (Conv2D)          (None, 32, 32, 32)        18464     
_________________________________________________________________
activation_687 (Activation)  (None, 32, 32, 32)        0         
_________________________________________________________________
dropout_687 (Dropout)        (None, 32, 32, 32)        0         
_________________________________________________________________
flatten_78 (Flatten)         (None, 32768)             0         
_________________________________________________________________
dense_272 (Dense)            (None, 32)                1048608   
_________________________________________________________________
batch_normalization_327 (Bat (None, 32)                128       
_________________________________________________________________
activation_688 (Activation)  (None, 32)                0         
_________________________________________________________________
dropout_688 (Dropout)        (None, 32)                0         
_________________________________________________________________
dense_273 (Dense)            (None, 256)               8448      
_________________________________________________________________
activation_689 (Activation)  (None, 256)               0         
_________________________________________________________________
dropout_689 (Dropout)        (None, 256)               0         
_________________________________________________________________
dense_274 (Dense)            (None, 512)               131584    
_________________________________________________________________
batch_normalization_328 (Bat (None, 512)               2048      
_________________________________________________________________
activation_690 (Activation)  (None, 512)               0         
_________________________________________________________________
dropout_690 (Dropout)        (None, 512)               0         
_________________________________________________________________
dense_275 (Dense)            (None, 10)                5130      
=================================================================
Total params: 1,409,162
Trainable params: 1,408,042
Non-trainable params: 1,120
_________________________________________________________________
