Model: "sequential_358"
_________________________________________________________________
Layer (type)                 Output Shape              Param #   
=================================================================
conv2d_1615 (Conv2D)         (None, 32, 32, 16)        448       
_________________________________________________________________
activation_2351 (Activation) (None, 32, 32, 16)        0         
_________________________________________________________________
dropout_2351 (Dropout)       (None, 32, 32, 16)        0         
_________________________________________________________________
conv2d_1616 (Conv2D)         (None, 32, 32, 128)       18560     
_________________________________________________________________
batch_normalization_1187 (Ba (None, 32, 32, 128)       512       
_________________________________________________________________
activation_2352 (Activation) (None, 32, 32, 128)       0         
_________________________________________________________________
dropout_2352 (Dropout)       (None, 32, 32, 128)       0         
_________________________________________________________________
conv2d_1617 (Conv2D)         (None, 32, 32, 1024)      1180672   
_________________________________________________________________
activation_2353 (Activation) (None, 32, 32, 1024)      0         
_________________________________________________________________
dropout_2353 (Dropout)       (None, 32, 32, 1024)      0         
_________________________________________________________________
max_pooling2d_335 (MaxPoolin (None, 16, 16, 1024)      0         
_________________________________________________________________
conv2d_1618 (Conv2D)         (None, 16, 16, 1024)      9438208   
_________________________________________________________________
batch_normalization_1188 (Ba (None, 16, 16, 1024)      4096      
_________________________________________________________________
activation_2354 (Activation) (None, 16, 16, 1024)      0         
_________________________________________________________________
dropout_2354 (Dropout)       (None, 16, 16, 1024)      0         
_________________________________________________________________
flatten_358 (Flatten)        (None, 262144)            0         
_________________________________________________________________
dense_1094 (Dense)           (None, 256)               67109120  
_________________________________________________________________
activation_2355 (Activation) (None, 256)               0         
_________________________________________________________________
dropout_2355 (Dropout)       (None, 256)               0         
_________________________________________________________________
dense_1095 (Dense)           (None, 512)               131584    
_________________________________________________________________
batch_normalization_1189 (Ba (None, 512)               2048      
_________________________________________________________________
activation_2356 (Activation) (None, 512)               0         
_________________________________________________________________
dropout_2356 (Dropout)       (None, 512)               0         
_________________________________________________________________
dense_1096 (Dense)           (None, 10)                5130      
=================================================================
Total params: 77,890,378
Trainable params: 77,887,050
Non-trainable params: 3,328
_________________________________________________________________
