Model: "sequential_284"
_________________________________________________________________
Layer (type)                 Output Shape              Param #   
=================================================================
conv2d_1326 (Conv2D)         (None, 32, 32, 16)        448       
_________________________________________________________________
activation_1951 (Activation) (None, 32, 32, 16)        0         
_________________________________________________________________
dropout_1951 (Dropout)       (None, 32, 32, 16)        0         
_________________________________________________________________
conv2d_1327 (Conv2D)         (None, 32, 32, 8)         1160      
_________________________________________________________________
batch_normalization_979 (Bat (None, 32, 32, 8)         32        
_________________________________________________________________
activation_1952 (Activation) (None, 32, 32, 8)         0         
_________________________________________________________________
dropout_1952 (Dropout)       (None, 32, 32, 8)         0         
_________________________________________________________________
max_pooling2d_257 (MaxPoolin (None, 16, 16, 8)         0         
_________________________________________________________________
conv2d_1328 (Conv2D)         (None, 16, 16, 32)        2336      
_________________________________________________________________
activation_1953 (Activation) (None, 16, 16, 32)        0         
_________________________________________________________________
dropout_1953 (Dropout)       (None, 16, 16, 32)        0         
_________________________________________________________________
conv2d_1329 (Conv2D)         (None, 16, 16, 1024)      295936    
_________________________________________________________________
batch_normalization_980 (Bat (None, 16, 16, 1024)      4096      
_________________________________________________________________
activation_1954 (Activation) (None, 16, 16, 1024)      0         
_________________________________________________________________
dropout_1954 (Dropout)       (None, 16, 16, 1024)      0         
_________________________________________________________________
flatten_284 (Flatten)        (None, 262144)            0         
_________________________________________________________________
dense_909 (Dense)            (None, 512)               134218240 
_________________________________________________________________
batch_normalization_981 (Bat (None, 512)               2048      
_________________________________________________________________
activation_1955 (Activation) (None, 512)               0         
_________________________________________________________________
dropout_1955 (Dropout)       (None, 512)               0         
_________________________________________________________________
dense_910 (Dense)            (None, 10)                5130      
=================================================================
Total params: 134,529,426
Trainable params: 134,526,338
Non-trainable params: 3,088
_________________________________________________________________
