Model: "sequential_142"
_________________________________________________________________
Layer (type)                 Output Shape              Param #   
=================================================================
conv2d_772 (Conv2D)          (None, 32, 32, 16)        448       
_________________________________________________________________
activation_1127 (Activation) (None, 32, 32, 16)        0         
_________________________________________________________________
dropout_1127 (Dropout)       (None, 32, 32, 16)        0         
_________________________________________________________________
conv2d_773 (Conv2D)          (None, 32, 32, 128)       18560     
_________________________________________________________________
batch_normalization_543 (Bat (None, 32, 32, 128)       512       
_________________________________________________________________
activation_1128 (Activation) (None, 32, 32, 128)       0         
_________________________________________________________________
dropout_1128 (Dropout)       (None, 32, 32, 128)       0         
_________________________________________________________________
max_pooling2d_120 (MaxPoolin (None, 16, 16, 128)       0         
_________________________________________________________________
conv2d_774 (Conv2D)          (None, 16, 16, 32)        36896     
_________________________________________________________________
activation_1129 (Activation) (None, 16, 16, 32)        0         
_________________________________________________________________
dropout_1129 (Dropout)       (None, 16, 16, 32)        0         
_________________________________________________________________
conv2d_775 (Conv2D)          (None, 16, 16, 128)       36992     
_________________________________________________________________
batch_normalization_544 (Bat (None, 16, 16, 128)       512       
_________________________________________________________________
activation_1130 (Activation) (None, 16, 16, 128)       0         
_________________________________________________________________
dropout_1130 (Dropout)       (None, 16, 16, 128)       0         
_________________________________________________________________
flatten_142 (Flatten)        (None, 32768)             0         
_________________________________________________________________
dense_497 (Dense)            (None, 16)                524304    
_________________________________________________________________
activation_1131 (Activation) (None, 16)                0         
_________________________________________________________________
dropout_1131 (Dropout)       (None, 16)                0         
_________________________________________________________________
dense_498 (Dense)            (None, 512)               8704      
_________________________________________________________________
batch_normalization_545 (Bat (None, 512)               2048      
_________________________________________________________________
activation_1132 (Activation) (None, 512)               0         
_________________________________________________________________
dropout_1132 (Dropout)       (None, 512)               0         
_________________________________________________________________
dense_499 (Dense)            (None, 10)                5130      
=================================================================
Total params: 634,106
Trainable params: 632,570
Non-trainable params: 1,536
_________________________________________________________________
