Model: "sequential_374"
_________________________________________________________________
Layer (type)                 Output Shape              Param #   
=================================================================
conv2d_1678 (Conv2D)         (None, 32, 32, 16)        448       
_________________________________________________________________
activation_2445 (Activation) (None, 32, 32, 16)        0         
_________________________________________________________________
dropout_2445 (Dropout)       (None, 32, 32, 16)        0         
_________________________________________________________________
conv2d_1679 (Conv2D)         (None, 32, 32, 128)       18560     
_________________________________________________________________
batch_normalization_1225 (Ba (None, 32, 32, 128)       512       
_________________________________________________________________
activation_2446 (Activation) (None, 32, 32, 128)       0         
_________________________________________________________________
dropout_2446 (Dropout)       (None, 32, 32, 128)       0         
_________________________________________________________________
conv2d_1680 (Conv2D)         (None, 32, 32, 1024)      1180672   
_________________________________________________________________
activation_2447 (Activation) (None, 32, 32, 1024)      0         
_________________________________________________________________
dropout_2447 (Dropout)       (None, 32, 32, 1024)      0         
_________________________________________________________________
max_pooling2d_352 (MaxPoolin (None, 16, 16, 1024)      0         
_________________________________________________________________
conv2d_1681 (Conv2D)         (None, 16, 16, 1024)      9438208   
_________________________________________________________________
batch_normalization_1226 (Ba (None, 16, 16, 1024)      4096      
_________________________________________________________________
activation_2448 (Activation) (None, 16, 16, 1024)      0         
_________________________________________________________________
dropout_2448 (Dropout)       (None, 16, 16, 1024)      0         
_________________________________________________________________
flatten_374 (Flatten)        (None, 262144)            0         
_________________________________________________________________
dense_1141 (Dense)           (None, 64)                16777280  
_________________________________________________________________
batch_normalization_1227 (Ba (None, 64)                256       
_________________________________________________________________
activation_2449 (Activation) (None, 64)                0         
_________________________________________________________________
dropout_2449 (Dropout)       (None, 64)                0         
_________________________________________________________________
dense_1142 (Dense)           (None, 32)                2080      
_________________________________________________________________
activation_2450 (Activation) (None, 32)                0         
_________________________________________________________________
dropout_2450 (Dropout)       (None, 32)                0         
_________________________________________________________________
dense_1143 (Dense)           (None, 10)                330       
=================================================================
Total params: 27,422,442
Trainable params: 27,420,010
Non-trainable params: 2,432
_________________________________________________________________
