Model: "sequential_281"
_________________________________________________________________
Layer (type)                 Output Shape              Param #   
=================================================================
conv2d_1315 (Conv2D)         (None, 32, 32, 16)        448       
_________________________________________________________________
activation_1935 (Activation) (None, 32, 32, 16)        0         
_________________________________________________________________
dropout_1935 (Dropout)       (None, 32, 32, 16)        0         
_________________________________________________________________
conv2d_1316 (Conv2D)         (None, 32, 32, 32)        4640      
_________________________________________________________________
activation_1936 (Activation) (None, 32, 32, 32)        0         
_________________________________________________________________
dropout_1936 (Dropout)       (None, 32, 32, 32)        0         
_________________________________________________________________
max_pooling2d_254 (MaxPoolin (None, 16, 16, 32)        0         
_________________________________________________________________
conv2d_1317 (Conv2D)         (None, 16, 16, 1024)      295936    
_________________________________________________________________
batch_normalization_971 (Bat (None, 16, 16, 1024)      4096      
_________________________________________________________________
activation_1937 (Activation) (None, 16, 16, 1024)      0         
_________________________________________________________________
dropout_1937 (Dropout)       (None, 16, 16, 1024)      0         
_________________________________________________________________
flatten_281 (Flatten)        (None, 262144)            0         
_________________________________________________________________
dense_901 (Dense)            (None, 256)               67109120  
_________________________________________________________________
activation_1938 (Activation) (None, 256)               0         
_________________________________________________________________
dropout_1938 (Dropout)       (None, 256)               0         
_________________________________________________________________
dense_902 (Dense)            (None, 10)                2570      
=================================================================
Total params: 67,416,810
Trainable params: 67,414,762
Non-trainable params: 2,048
_________________________________________________________________
