Model: "sequential_112"
_________________________________________________________________
Layer (type)                 Output Shape              Param #   
=================================================================
conv2d_647 (Conv2D)          (None, 32, 32, 16)        448       
_________________________________________________________________
activation_936 (Activation)  (None, 32, 32, 16)        0         
_________________________________________________________________
dropout_936 (Dropout)        (None, 32, 32, 16)        0         
_________________________________________________________________
conv2d_648 (Conv2D)          (None, 32, 32, 128)       18560     
_________________________________________________________________
batch_normalization_447 (Bat (None, 32, 32, 128)       512       
_________________________________________________________________
activation_937 (Activation)  (None, 32, 32, 128)       0         
_________________________________________________________________
dropout_937 (Dropout)        (None, 32, 32, 128)       0         
_________________________________________________________________
max_pooling2d_99 (MaxPooling (None, 16, 16, 128)       0         
_________________________________________________________________
conv2d_649 (Conv2D)          (None, 16, 16, 32)        36896     
_________________________________________________________________
activation_938 (Activation)  (None, 16, 16, 32)        0         
_________________________________________________________________
dropout_938 (Dropout)        (None, 16, 16, 32)        0         
_________________________________________________________________
conv2d_650 (Conv2D)          (None, 16, 16, 1024)      295936    
_________________________________________________________________
batch_normalization_448 (Bat (None, 16, 16, 1024)      4096      
_________________________________________________________________
activation_939 (Activation)  (None, 16, 16, 1024)      0         
_________________________________________________________________
dropout_939 (Dropout)        (None, 16, 16, 1024)      0         
_________________________________________________________________
flatten_112 (Flatten)        (None, 262144)            0         
_________________________________________________________________
dense_401 (Dense)            (None, 256)               67109120  
_________________________________________________________________
activation_940 (Activation)  (None, 256)               0         
_________________________________________________________________
dropout_940 (Dropout)        (None, 256)               0         
_________________________________________________________________
dense_402 (Dense)            (None, 512)               131584    
_________________________________________________________________
batch_normalization_449 (Bat (None, 512)               2048      
_________________________________________________________________
activation_941 (Activation)  (None, 512)               0         
_________________________________________________________________
dropout_941 (Dropout)        (None, 512)               0         
_________________________________________________________________
dense_403 (Dense)            (None, 10)                5130      
=================================================================
Total params: 67,604,330
Trainable params: 67,601,002
Non-trainable params: 3,328
_________________________________________________________________
