Model: "sequential_275"
_________________________________________________________________
Layer (type)                 Output Shape              Param #   
=================================================================
conv2d_1292 (Conv2D)         (None, 32, 32, 16)        448       
_________________________________________________________________
activation_1900 (Activation) (None, 32, 32, 16)        0         
_________________________________________________________________
dropout_1900 (Dropout)       (None, 32, 32, 16)        0         
_________________________________________________________________
conv2d_1293 (Conv2D)         (None, 32, 32, 32)        4640      
_________________________________________________________________
activation_1901 (Activation) (None, 32, 32, 32)        0         
_________________________________________________________________
dropout_1901 (Dropout)       (None, 32, 32, 32)        0         
_________________________________________________________________
conv2d_1294 (Conv2D)         (None, 32, 32, 1024)      295936    
_________________________________________________________________
batch_normalization_953 (Bat (None, 32, 32, 1024)      4096      
_________________________________________________________________
activation_1902 (Activation) (None, 32, 32, 1024)      0         
_________________________________________________________________
dropout_1902 (Dropout)       (None, 32, 32, 1024)      0         
_________________________________________________________________
flatten_275 (Flatten)        (None, 1048576)           0         
_________________________________________________________________
dense_883 (Dense)            (None, 256)               268435712 
_________________________________________________________________
batch_normalization_954 (Bat (None, 256)               1024      
_________________________________________________________________
activation_1903 (Activation) (None, 256)               0         
_________________________________________________________________
dropout_1903 (Dropout)       (None, 256)               0         
_________________________________________________________________
dense_884 (Dense)            (None, 512)               131584    
_________________________________________________________________
batch_normalization_955 (Bat (None, 512)               2048      
_________________________________________________________________
activation_1904 (Activation) (None, 512)               0         
_________________________________________________________________
dropout_1904 (Dropout)       (None, 512)               0         
_________________________________________________________________
dense_885 (Dense)            (None, 10)                5130      
=================================================================
Total params: 268,880,618
Trainable params: 268,877,034
Non-trainable params: 3,584
_________________________________________________________________
