Model: "sequential_110"
_________________________________________________________________
Layer (type)                 Output Shape              Param #   
=================================================================
conv2d_638 (Conv2D)          (None, 32, 32, 16)        448       
_________________________________________________________________
activation_921 (Activation)  (None, 32, 32, 16)        0         
_________________________________________________________________
dropout_921 (Dropout)        (None, 32, 32, 16)        0         
_________________________________________________________________
conv2d_639 (Conv2D)          (None, 32, 32, 128)       18560     
_________________________________________________________________
batch_normalization_439 (Bat (None, 32, 32, 128)       512       
_________________________________________________________________
activation_922 (Activation)  (None, 32, 32, 128)       0         
_________________________________________________________________
dropout_922 (Dropout)        (None, 32, 32, 128)       0         
_________________________________________________________________
max_pooling2d_98 (MaxPooling (None, 16, 16, 128)       0         
_________________________________________________________________
conv2d_640 (Conv2D)          (None, 16, 16, 32)        36896     
_________________________________________________________________
activation_923 (Activation)  (None, 16, 16, 32)        0         
_________________________________________________________________
dropout_923 (Dropout)        (None, 16, 16, 32)        0         
_________________________________________________________________
conv2d_641 (Conv2D)          (None, 16, 16, 128)       36992     
_________________________________________________________________
batch_normalization_440 (Bat (None, 16, 16, 128)       512       
_________________________________________________________________
activation_924 (Activation)  (None, 16, 16, 128)       0         
_________________________________________________________________
dropout_924 (Dropout)        (None, 16, 16, 128)       0         
_________________________________________________________________
flatten_110 (Flatten)        (None, 32768)             0         
_________________________________________________________________
dense_393 (Dense)            (None, 32)                1048608   
_________________________________________________________________
batch_normalization_441 (Bat (None, 32)                128       
_________________________________________________________________
activation_925 (Activation)  (None, 32)                0         
_________________________________________________________________
dropout_925 (Dropout)        (None, 32)                0         
_________________________________________________________________
dense_394 (Dense)            (None, 256)               8448      
_________________________________________________________________
activation_926 (Activation)  (None, 256)               0         
_________________________________________________________________
dropout_926 (Dropout)        (None, 256)               0         
_________________________________________________________________
dense_395 (Dense)            (None, 512)               131584    
_________________________________________________________________
batch_normalization_442 (Bat (None, 512)               2048      
_________________________________________________________________
activation_927 (Activation)  (None, 512)               0         
_________________________________________________________________
dropout_927 (Dropout)        (None, 512)               0         
_________________________________________________________________
dense_396 (Dense)            (None, 10)                5130      
=================================================================
Total params: 1,289,866
Trainable params: 1,288,266
Non-trainable params: 1,600
_________________________________________________________________
