Model: "sequential_236"
_________________________________________________________________
Layer (type)                 Output Shape              Param #   
=================================================================
conv2d_1145 (Conv2D)         (None, 32, 32, 16)        448       
_________________________________________________________________
activation_1679 (Activation) (None, 32, 32, 16)        0         
_________________________________________________________________
dropout_1679 (Dropout)       (None, 32, 32, 16)        0         
_________________________________________________________________
conv2d_1146 (Conv2D)         (None, 32, 32, 8)         1160      
_________________________________________________________________
batch_normalization_819 (Bat (None, 32, 32, 8)         32        
_________________________________________________________________
activation_1680 (Activation) (None, 32, 32, 8)         0         
_________________________________________________________________
dropout_1680 (Dropout)       (None, 32, 32, 8)         0         
_________________________________________________________________
max_pooling2d_213 (MaxPoolin (None, 16, 16, 8)         0         
_________________________________________________________________
conv2d_1147 (Conv2D)         (None, 16, 16, 32)        2336      
_________________________________________________________________
activation_1681 (Activation) (None, 16, 16, 32)        0         
_________________________________________________________________
dropout_1681 (Dropout)       (None, 16, 16, 32)        0         
_________________________________________________________________
conv2d_1148 (Conv2D)         (None, 16, 16, 1024)      295936    
_________________________________________________________________
batch_normalization_820 (Bat (None, 16, 16, 1024)      4096      
_________________________________________________________________
activation_1682 (Activation) (None, 16, 16, 1024)      0         
_________________________________________________________________
dropout_1682 (Dropout)       (None, 16, 16, 1024)      0         
_________________________________________________________________
flatten_236 (Flatten)        (None, 262144)            0         
_________________________________________________________________
dense_770 (Dense)            (None, 256)               67109120  
_________________________________________________________________
activation_1683 (Activation) (None, 256)               0         
_________________________________________________________________
dropout_1683 (Dropout)       (None, 256)               0         
_________________________________________________________________
dense_771 (Dense)            (None, 512)               131584    
_________________________________________________________________
batch_normalization_821 (Bat (None, 512)               2048      
_________________________________________________________________
activation_1684 (Activation) (None, 512)               0         
_________________________________________________________________
dropout_1684 (Dropout)       (None, 512)               0         
_________________________________________________________________
dense_772 (Dense)            (None, 10)                5130      
=================================================================
Total params: 67,551,890
Trainable params: 67,548,802
Non-trainable params: 3,088
_________________________________________________________________
