Model: "sequential_210"
_________________________________________________________________
Layer (type)                 Output Shape              Param #   
=================================================================
conv2d_1041 (Conv2D)         (None, 32, 32, 16)        448       
_________________________________________________________________
activation_1530 (Activation) (None, 32, 32, 16)        0         
_________________________________________________________________
dropout_1530 (Dropout)       (None, 32, 32, 16)        0         
_________________________________________________________________
conv2d_1042 (Conv2D)         (None, 32, 32, 128)       18560     
_________________________________________________________________
batch_normalization_742 (Bat (None, 32, 32, 128)       512       
_________________________________________________________________
activation_1531 (Activation) (None, 32, 32, 128)       0         
_________________________________________________________________
dropout_1531 (Dropout)       (None, 32, 32, 128)       0         
_________________________________________________________________
max_pooling2d_187 (MaxPoolin (None, 16, 16, 128)       0         
_________________________________________________________________
conv2d_1043 (Conv2D)         (None, 16, 16, 32)        36896     
_________________________________________________________________
activation_1532 (Activation) (None, 16, 16, 32)        0         
_________________________________________________________________
dropout_1532 (Dropout)       (None, 16, 16, 32)        0         
_________________________________________________________________
conv2d_1044 (Conv2D)         (None, 16, 16, 1024)      295936    
_________________________________________________________________
batch_normalization_743 (Bat (None, 16, 16, 1024)      4096      
_________________________________________________________________
activation_1533 (Activation) (None, 16, 16, 1024)      0         
_________________________________________________________________
dropout_1533 (Dropout)       (None, 16, 16, 1024)      0         
_________________________________________________________________
flatten_210 (Flatten)        (None, 262144)            0         
_________________________________________________________________
dense_699 (Dense)            (None, 512)               134218240 
_________________________________________________________________
activation_1534 (Activation) (None, 512)               0         
_________________________________________________________________
dropout_1534 (Dropout)       (None, 512)               0         
_________________________________________________________________
dense_700 (Dense)            (None, 512)               262656    
_________________________________________________________________
batch_normalization_744 (Bat (None, 512)               2048      
_________________________________________________________________
activation_1535 (Activation) (None, 512)               0         
_________________________________________________________________
dropout_1535 (Dropout)       (None, 512)               0         
_________________________________________________________________
dense_701 (Dense)            (None, 10)                5130      
=================================================================
Total params: 134,844,522
Trainable params: 134,841,194
Non-trainable params: 3,328
_________________________________________________________________
