Model: "sequential_176"
_________________________________________________________________
Layer (type)                 Output Shape              Param #   
=================================================================
conv2d_908 (Conv2D)          (None, 32, 32, 16)        448       
_________________________________________________________________
activation_1331 (Activation) (None, 32, 32, 16)        0         
_________________________________________________________________
dropout_1331 (Dropout)       (None, 32, 32, 16)        0         
_________________________________________________________________
conv2d_909 (Conv2D)          (None, 32, 32, 128)       18560     
_________________________________________________________________
batch_normalization_645 (Bat (None, 32, 32, 128)       512       
_________________________________________________________________
activation_1332 (Activation) (None, 32, 32, 128)       0         
_________________________________________________________________
dropout_1332 (Dropout)       (None, 32, 32, 128)       0         
_________________________________________________________________
max_pooling2d_153 (MaxPoolin (None, 16, 16, 128)       0         
_________________________________________________________________
conv2d_910 (Conv2D)          (None, 16, 16, 32)        36896     
_________________________________________________________________
activation_1333 (Activation) (None, 16, 16, 32)        0         
_________________________________________________________________
dropout_1333 (Dropout)       (None, 16, 16, 32)        0         
_________________________________________________________________
conv2d_911 (Conv2D)          (None, 16, 16, 1024)      295936    
_________________________________________________________________
batch_normalization_646 (Bat (None, 16, 16, 1024)      4096      
_________________________________________________________________
activation_1334 (Activation) (None, 16, 16, 1024)      0         
_________________________________________________________________
dropout_1334 (Dropout)       (None, 16, 16, 1024)      0         
_________________________________________________________________
flatten_176 (Flatten)        (None, 262144)            0         
_________________________________________________________________
dense_599 (Dense)            (None, 256)               67109120  
_________________________________________________________________
activation_1335 (Activation) (None, 256)               0         
_________________________________________________________________
dropout_1335 (Dropout)       (None, 256)               0         
_________________________________________________________________
dense_600 (Dense)            (None, 512)               131584    
_________________________________________________________________
batch_normalization_647 (Bat (None, 512)               2048      
_________________________________________________________________
activation_1336 (Activation) (None, 512)               0         
_________________________________________________________________
dropout_1336 (Dropout)       (None, 512)               0         
_________________________________________________________________
dense_601 (Dense)            (None, 10)                5130      
=================================================================
Total params: 67,604,330
Trainable params: 67,601,002
Non-trainable params: 3,328
_________________________________________________________________
