Model: "sequential_30"
_________________________________________________________________
Layer (type)                 Output Shape              Param #   
=================================================================
conv2d_201 (Conv2D)          (None, 32, 32, 16)        448       
_________________________________________________________________
activation_281 (Activation)  (None, 32, 32, 16)        0         
_________________________________________________________________
dropout_281 (Dropout)        (None, 32, 32, 16)        0         
_________________________________________________________________
conv2d_202 (Conv2D)          (None, 32, 32, 128)       18560     
_________________________________________________________________
batch_normalization_148 (Bat (None, 32, 32, 128)       512       
_________________________________________________________________
activation_282 (Activation)  (None, 32, 32, 128)       0         
_________________________________________________________________
dropout_282 (Dropout)        (None, 32, 32, 128)       0         
_________________________________________________________________
max_pooling2d_39 (MaxPooling (None, 16, 16, 128)       0         
_________________________________________________________________
conv2d_203 (Conv2D)          (None, 16, 16, 32)        36896     
_________________________________________________________________
activation_283 (Activation)  (None, 16, 16, 32)        0         
_________________________________________________________________
dropout_283 (Dropout)        (None, 16, 16, 32)        0         
_________________________________________________________________
conv2d_204 (Conv2D)          (None, 16, 16, 16)        4624      
_________________________________________________________________
activation_284 (Activation)  (None, 16, 16, 16)        0         
_________________________________________________________________
dropout_284 (Dropout)        (None, 16, 16, 16)        0         
_________________________________________________________________
conv2d_205 (Conv2D)          (None, 16, 16, 64)        9280      
_________________________________________________________________
activation_285 (Activation)  (None, 16, 16, 64)        0         
_________________________________________________________________
dropout_285 (Dropout)        (None, 16, 16, 64)        0         
_________________________________________________________________
conv2d_206 (Conv2D)          (None, 16, 16, 32)        18464     
_________________________________________________________________
batch_normalization_149 (Bat (None, 16, 16, 32)        128       
_________________________________________________________________
activation_286 (Activation)  (None, 16, 16, 32)        0         
_________________________________________________________________
dropout_286 (Dropout)        (None, 16, 16, 32)        0         
_________________________________________________________________
flatten_30 (Flatten)         (None, 8192)              0         
_________________________________________________________________
dense_110 (Dense)            (None, 32)                262176    
_________________________________________________________________
batch_normalization_150 (Bat (None, 32)                128       
_________________________________________________________________
activation_287 (Activation)  (None, 32)                0         
_________________________________________________________________
dropout_287 (Dropout)        (None, 32)                0         
_________________________________________________________________
dense_111 (Dense)            (None, 128)               4224      
_________________________________________________________________
activation_288 (Activation)  (None, 128)               0         
_________________________________________________________________
dropout_288 (Dropout)        (None, 128)               0         
_________________________________________________________________
dense_112 (Dense)            (None, 64)                8256      
_________________________________________________________________
batch_normalization_151 (Bat (None, 64)                256       
_________________________________________________________________
activation_289 (Activation)  (None, 64)                0         
_________________________________________________________________
dropout_289 (Dropout)        (None, 64)                0         
_________________________________________________________________
dense_113 (Dense)            (None, 10)                650       
=================================================================
Total params: 364,602
Trainable params: 364,090
Non-trainable params: 512
_________________________________________________________________
