Model: "sequential_19"
_________________________________________________________________
Layer (type)                 Output Shape              Param #   
=================================================================
conv2d_134 (Conv2D)          (None, 32, 32, 16)        448       
_________________________________________________________________
activation_187 (Activation)  (None, 32, 32, 16)        0         
_________________________________________________________________
dropout_187 (Dropout)        (None, 32, 32, 16)        0         
_________________________________________________________________
conv2d_135 (Conv2D)          (None, 32, 32, 128)       18560     
_________________________________________________________________
batch_normalization_98 (Batc (None, 32, 32, 128)       512       
_________________________________________________________________
activation_188 (Activation)  (None, 32, 32, 128)       0         
_________________________________________________________________
dropout_188 (Dropout)        (None, 32, 32, 128)       0         
_________________________________________________________________
max_pooling2d_27 (MaxPooling (None, 16, 16, 128)       0         
_________________________________________________________________
conv2d_136 (Conv2D)          (None, 16, 16, 32)        36896     
_________________________________________________________________
activation_189 (Activation)  (None, 16, 16, 32)        0         
_________________________________________________________________
dropout_189 (Dropout)        (None, 16, 16, 32)        0         
_________________________________________________________________
conv2d_137 (Conv2D)          (None, 16, 16, 64)        18496     
_________________________________________________________________
activation_190 (Activation)  (None, 16, 16, 64)        0         
_________________________________________________________________
dropout_190 (Dropout)        (None, 16, 16, 64)        0         
_________________________________________________________________
conv2d_138 (Conv2D)          (None, 16, 16, 64)        36928     
_________________________________________________________________
activation_191 (Activation)  (None, 16, 16, 64)        0         
_________________________________________________________________
dropout_191 (Dropout)        (None, 16, 16, 64)        0         
_________________________________________________________________
conv2d_139 (Conv2D)          (None, 16, 16, 128)       73856     
_________________________________________________________________
batch_normalization_99 (Batc (None, 16, 16, 128)       512       
_________________________________________________________________
activation_192 (Activation)  (None, 16, 16, 128)       0         
_________________________________________________________________
dropout_192 (Dropout)        (None, 16, 16, 128)       0         
_________________________________________________________________
conv2d_140 (Conv2D)          (None, 16, 16, 32)        36896     
_________________________________________________________________
batch_normalization_100 (Bat (None, 16, 16, 32)        128       
_________________________________________________________________
activation_193 (Activation)  (None, 16, 16, 32)        0         
_________________________________________________________________
dropout_193 (Dropout)        (None, 16, 16, 32)        0         
_________________________________________________________________
flatten_19 (Flatten)         (None, 8192)              0         
_________________________________________________________________
dense_72 (Dense)             (None, 32)                262176    
_________________________________________________________________
batch_normalization_101 (Bat (None, 32)                128       
_________________________________________________________________
activation_194 (Activation)  (None, 32)                0         
_________________________________________________________________
dropout_194 (Dropout)        (None, 32)                0         
_________________________________________________________________
dense_73 (Dense)             (None, 128)               4224      
_________________________________________________________________
batch_normalization_102 (Bat (None, 128)               512       
_________________________________________________________________
activation_195 (Activation)  (None, 128)               0         
_________________________________________________________________
dropout_195 (Dropout)        (None, 128)               0         
_________________________________________________________________
dense_74 (Dense)             (None, 64)                8256      
_________________________________________________________________
batch_normalization_103 (Bat (None, 64)                256       
_________________________________________________________________
activation_196 (Activation)  (None, 64)                0         
_________________________________________________________________
dropout_196 (Dropout)        (None, 64)                0         
_________________________________________________________________
dense_75 (Dense)             (None, 10)                650       
=================================================================
Total params: 499,434
Trainable params: 498,410
Non-trainable params: 1,024
_________________________________________________________________
