Model: "sequential_321"
_________________________________________________________________
Layer (type)                 Output Shape              Param #   
=================================================================
conv2d_1467 (Conv2D)         (None, 32, 32, 16)        448       
_________________________________________________________________
batch_normalization_1081 (Ba (None, 32, 32, 16)        64        
_________________________________________________________________
activation_2146 (Activation) (None, 32, 32, 16)        0         
_________________________________________________________________
dropout_2146 (Dropout)       (None, 32, 32, 16)        0         
_________________________________________________________________
conv2d_1468 (Conv2D)         (None, 32, 32, 8)         1160      
_________________________________________________________________
batch_normalization_1082 (Ba (None, 32, 32, 8)         32        
_________________________________________________________________
activation_2147 (Activation) (None, 32, 32, 8)         0         
_________________________________________________________________
dropout_2147 (Dropout)       (None, 32, 32, 8)         0         
_________________________________________________________________
max_pooling2d_298 (MaxPoolin (None, 16, 16, 8)         0         
_________________________________________________________________
conv2d_1469 (Conv2D)         (None, 16, 16, 256)       18688     
_________________________________________________________________
activation_2148 (Activation) (None, 16, 16, 256)       0         
_________________________________________________________________
dropout_2148 (Dropout)       (None, 16, 16, 256)       0         
_________________________________________________________________
conv2d_1470 (Conv2D)         (None, 16, 16, 1024)      2360320   
_________________________________________________________________
batch_normalization_1083 (Ba (None, 16, 16, 1024)      4096      
_________________________________________________________________
activation_2149 (Activation) (None, 16, 16, 1024)      0         
_________________________________________________________________
dropout_2149 (Dropout)       (None, 16, 16, 1024)      0         
_________________________________________________________________
flatten_321 (Flatten)        (None, 262144)            0         
_________________________________________________________________
dense_1000 (Dense)           (None, 512)               134218240 
_________________________________________________________________
batch_normalization_1084 (Ba (None, 512)               2048      
_________________________________________________________________
activation_2150 (Activation) (None, 512)               0         
_________________________________________________________________
dropout_2150 (Dropout)       (None, 512)               0         
_________________________________________________________________
dense_1001 (Dense)           (None, 10)                5130      
=================================================================
Total params: 136,610,226
Trainable params: 136,607,106
Non-trainable params: 3,120
_________________________________________________________________
