Model: "sequential_250"
_________________________________________________________________
Layer (type)                 Output Shape              Param #   
=================================================================
conv2d_1200 (Conv2D)         (None, 32, 32, 16)        448       
_________________________________________________________________
activation_1760 (Activation) (None, 32, 32, 16)        0         
_________________________________________________________________
dropout_1760 (Dropout)       (None, 32, 32, 16)        0         
_________________________________________________________________
conv2d_1201 (Conv2D)         (None, 32, 32, 32)        4640      
_________________________________________________________________
activation_1761 (Activation) (None, 32, 32, 32)        0         
_________________________________________________________________
dropout_1761 (Dropout)       (None, 32, 32, 32)        0         
_________________________________________________________________
conv2d_1202 (Conv2D)         (None, 32, 32, 1024)      295936    
_________________________________________________________________
batch_normalization_867 (Bat (None, 32, 32, 1024)      4096      
_________________________________________________________________
activation_1762 (Activation) (None, 32, 32, 1024)      0         
_________________________________________________________________
dropout_1762 (Dropout)       (None, 32, 32, 1024)      0         
_________________________________________________________________
flatten_250 (Flatten)        (None, 1048576)           0         
_________________________________________________________________
dense_810 (Dense)            (None, 256)               268435712 
_________________________________________________________________
batch_normalization_868 (Bat (None, 256)               1024      
_________________________________________________________________
activation_1763 (Activation) (None, 256)               0         
_________________________________________________________________
dropout_1763 (Dropout)       (None, 256)               0         
_________________________________________________________________
dense_811 (Dense)            (None, 512)               131584    
_________________________________________________________________
batch_normalization_869 (Bat (None, 512)               2048      
_________________________________________________________________
activation_1764 (Activation) (None, 512)               0         
_________________________________________________________________
dropout_1764 (Dropout)       (None, 512)               0         
_________________________________________________________________
dense_812 (Dense)            (None, 10)                5130      
=================================================================
Total params: 268,880,618
Trainable params: 268,877,034
Non-trainable params: 3,584
_________________________________________________________________
