Model: "sequential_154"
_________________________________________________________________
Layer (type)                 Output Shape              Param #   
=================================================================
conv2d_820 (Conv2D)          (None, 32, 32, 16)        448       
_________________________________________________________________
activation_1199 (Activation) (None, 32, 32, 16)        0         
_________________________________________________________________
dropout_1199 (Dropout)       (None, 32, 32, 16)        0         
_________________________________________________________________
conv2d_821 (Conv2D)          (None, 32, 32, 128)       18560     
_________________________________________________________________
batch_normalization_579 (Bat (None, 32, 32, 128)       512       
_________________________________________________________________
activation_1200 (Activation) (None, 32, 32, 128)       0         
_________________________________________________________________
dropout_1200 (Dropout)       (None, 32, 32, 128)       0         
_________________________________________________________________
max_pooling2d_131 (MaxPoolin (None, 16, 16, 128)       0         
_________________________________________________________________
conv2d_822 (Conv2D)          (None, 16, 16, 32)        36896     
_________________________________________________________________
activation_1201 (Activation) (None, 16, 16, 32)        0         
_________________________________________________________________
dropout_1201 (Dropout)       (None, 16, 16, 32)        0         
_________________________________________________________________
conv2d_823 (Conv2D)          (None, 16, 16, 1024)      295936    
_________________________________________________________________
batch_normalization_580 (Bat (None, 16, 16, 1024)      4096      
_________________________________________________________________
activation_1202 (Activation) (None, 16, 16, 1024)      0         
_________________________________________________________________
dropout_1202 (Dropout)       (None, 16, 16, 1024)      0         
_________________________________________________________________
flatten_154 (Flatten)        (None, 262144)            0         
_________________________________________________________________
dense_533 (Dense)            (None, 256)               67109120  
_________________________________________________________________
activation_1203 (Activation) (None, 256)               0         
_________________________________________________________________
dropout_1203 (Dropout)       (None, 256)               0         
_________________________________________________________________
dense_534 (Dense)            (None, 512)               131584    
_________________________________________________________________
batch_normalization_581 (Bat (None, 512)               2048      
_________________________________________________________________
activation_1204 (Activation) (None, 512)               0         
_________________________________________________________________
dropout_1204 (Dropout)       (None, 512)               0         
_________________________________________________________________
dense_535 (Dense)            (None, 10)                5130      
=================================================================
Total params: 67,604,330
Trainable params: 67,601,002
Non-trainable params: 3,328
_________________________________________________________________
