Model: "sequential_370"
_________________________________________________________________
Layer (type)                 Output Shape              Param #   
=================================================================
conv2d_1662 (Conv2D)         (None, 32, 32, 16)        448       
_________________________________________________________________
activation_2421 (Activation) (None, 32, 32, 16)        0         
_________________________________________________________________
dropout_2421 (Dropout)       (None, 32, 32, 16)        0         
_________________________________________________________________
conv2d_1663 (Conv2D)         (None, 32, 32, 128)       18560     
_________________________________________________________________
activation_2422 (Activation) (None, 32, 32, 128)       0         
_________________________________________________________________
dropout_2422 (Dropout)       (None, 32, 32, 128)       0         
_________________________________________________________________
conv2d_1664 (Conv2D)         (None, 32, 32, 1024)      1180672   
_________________________________________________________________
activation_2423 (Activation) (None, 32, 32, 1024)      0         
_________________________________________________________________
dropout_2423 (Dropout)       (None, 32, 32, 1024)      0         
_________________________________________________________________
max_pooling2d_348 (MaxPoolin (None, 16, 16, 1024)      0         
_________________________________________________________________
conv2d_1665 (Conv2D)         (None, 16, 16, 1024)      9438208   
_________________________________________________________________
batch_normalization_1217 (Ba (None, 16, 16, 1024)      4096      
_________________________________________________________________
activation_2424 (Activation) (None, 16, 16, 1024)      0         
_________________________________________________________________
dropout_2424 (Dropout)       (None, 16, 16, 1024)      0         
_________________________________________________________________
flatten_370 (Flatten)        (None, 262144)            0         
_________________________________________________________________
dense_1129 (Dense)           (None, 256)               67109120  
_________________________________________________________________
activation_2425 (Activation) (None, 256)               0         
_________________________________________________________________
dropout_2425 (Dropout)       (None, 256)               0         
_________________________________________________________________
dense_1130 (Dense)           (None, 512)               131584    
_________________________________________________________________
batch_normalization_1218 (Ba (None, 512)               2048      
_________________________________________________________________
activation_2426 (Activation) (None, 512)               0         
_________________________________________________________________
dropout_2426 (Dropout)       (None, 512)               0         
_________________________________________________________________
dense_1131 (Dense)           (None, 10)                5130      
=================================================================
Total params: 77,889,866
Trainable params: 77,886,794
Non-trainable params: 3,072
_________________________________________________________________
