Model: "sequential_229"
_________________________________________________________________
Layer (type)                 Output Shape              Param #   
=================================================================
conv2d_1117 (Conv2D)         (None, 32, 32, 16)        448       
_________________________________________________________________
activation_1638 (Activation) (None, 32, 32, 16)        0         
_________________________________________________________________
dropout_1638 (Dropout)       (None, 32, 32, 16)        0         
_________________________________________________________________
conv2d_1118 (Conv2D)         (None, 32, 32, 128)       18560     
_________________________________________________________________
batch_normalization_798 (Bat (None, 32, 32, 128)       512       
_________________________________________________________________
activation_1639 (Activation) (None, 32, 32, 128)       0         
_________________________________________________________________
dropout_1639 (Dropout)       (None, 32, 32, 128)       0         
_________________________________________________________________
max_pooling2d_206 (MaxPoolin (None, 16, 16, 128)       0         
_________________________________________________________________
conv2d_1119 (Conv2D)         (None, 16, 16, 32)        36896     
_________________________________________________________________
activation_1640 (Activation) (None, 16, 16, 32)        0         
_________________________________________________________________
dropout_1640 (Dropout)       (None, 16, 16, 32)        0         
_________________________________________________________________
conv2d_1120 (Conv2D)         (None, 16, 16, 1024)      295936    
_________________________________________________________________
batch_normalization_799 (Bat (None, 16, 16, 1024)      4096      
_________________________________________________________________
activation_1641 (Activation) (None, 16, 16, 1024)      0         
_________________________________________________________________
dropout_1641 (Dropout)       (None, 16, 16, 1024)      0         
_________________________________________________________________
flatten_229 (Flatten)        (None, 262144)            0         
_________________________________________________________________
dense_750 (Dense)            (None, 512)               134218240 
_________________________________________________________________
activation_1642 (Activation) (None, 512)               0         
_________________________________________________________________
dropout_1642 (Dropout)       (None, 512)               0         
_________________________________________________________________
dense_751 (Dense)            (None, 512)               262656    
_________________________________________________________________
batch_normalization_800 (Bat (None, 512)               2048      
_________________________________________________________________
activation_1643 (Activation) (None, 512)               0         
_________________________________________________________________
dropout_1643 (Dropout)       (None, 512)               0         
_________________________________________________________________
dense_752 (Dense)            (None, 10)                5130      
=================================================================
Total params: 134,844,522
Trainable params: 134,841,194
Non-trainable params: 3,328
_________________________________________________________________
