Model: "sequential_258"
_________________________________________________________________
Layer (type)                 Output Shape              Param #   
=================================================================
conv2d_1230 (Conv2D)         (None, 32, 32, 16)        448       
_________________________________________________________________
activation_1805 (Activation) (None, 32, 32, 16)        0         
_________________________________________________________________
dropout_1805 (Dropout)       (None, 32, 32, 16)        0         
_________________________________________________________________
conv2d_1231 (Conv2D)         (None, 32, 32, 128)       18560     
_________________________________________________________________
batch_normalization_896 (Bat (None, 32, 32, 128)       512       
_________________________________________________________________
activation_1806 (Activation) (None, 32, 32, 128)       0         
_________________________________________________________________
dropout_1806 (Dropout)       (None, 32, 32, 128)       0         
_________________________________________________________________
max_pooling2d_236 (MaxPoolin (None, 16, 16, 128)       0         
_________________________________________________________________
conv2d_1232 (Conv2D)         (None, 16, 16, 32)        36896     
_________________________________________________________________
activation_1807 (Activation) (None, 16, 16, 32)        0         
_________________________________________________________________
dropout_1807 (Dropout)       (None, 16, 16, 32)        0         
_________________________________________________________________
conv2d_1233 (Conv2D)         (None, 16, 16, 1024)      295936    
_________________________________________________________________
batch_normalization_897 (Bat (None, 16, 16, 1024)      4096      
_________________________________________________________________
activation_1808 (Activation) (None, 16, 16, 1024)      0         
_________________________________________________________________
dropout_1808 (Dropout)       (None, 16, 16, 1024)      0         
_________________________________________________________________
flatten_258 (Flatten)        (None, 262144)            0         
_________________________________________________________________
dense_833 (Dense)            (None, 256)               67109120  
_________________________________________________________________
activation_1809 (Activation) (None, 256)               0         
_________________________________________________________________
dropout_1809 (Dropout)       (None, 256)               0         
_________________________________________________________________
dense_834 (Dense)            (None, 512)               131584    
_________________________________________________________________
batch_normalization_898 (Bat (None, 512)               2048      
_________________________________________________________________
activation_1810 (Activation) (None, 512)               0         
_________________________________________________________________
dropout_1810 (Dropout)       (None, 512)               0         
_________________________________________________________________
dense_835 (Dense)            (None, 10)                5130      
=================================================================
Total params: 67,604,330
Trainable params: 67,601,002
Non-trainable params: 3,328
_________________________________________________________________
