Model: "sequential_62"
_________________________________________________________________
Layer (type)                 Output Shape              Param #   
=================================================================
conv2d_392 (Conv2D)          (None, 32, 32, 16)        448       
_________________________________________________________________
activation_548 (Activation)  (None, 32, 32, 16)        0         
_________________________________________________________________
dropout_548 (Dropout)        (None, 32, 32, 16)        0         
_________________________________________________________________
conv2d_393 (Conv2D)          (None, 32, 32, 128)       18560     
_________________________________________________________________
batch_normalization_271 (Bat (None, 32, 32, 128)       512       
_________________________________________________________________
activation_549 (Activation)  (None, 32, 32, 128)       0         
_________________________________________________________________
dropout_549 (Dropout)        (None, 32, 32, 128)       0         
_________________________________________________________________
max_pooling2d_74 (MaxPooling (None, 16, 16, 128)       0         
_________________________________________________________________
conv2d_394 (Conv2D)          (None, 16, 16, 32)        36896     
_________________________________________________________________
activation_550 (Activation)  (None, 16, 16, 32)        0         
_________________________________________________________________
dropout_550 (Dropout)        (None, 16, 16, 32)        0         
_________________________________________________________________
conv2d_395 (Conv2D)          (None, 16, 16, 16)        4624      
_________________________________________________________________
activation_551 (Activation)  (None, 16, 16, 16)        0         
_________________________________________________________________
dropout_551 (Dropout)        (None, 16, 16, 16)        0         
_________________________________________________________________
conv2d_396 (Conv2D)          (None, 16, 16, 1024)      148480    
_________________________________________________________________
batch_normalization_272 (Bat (None, 16, 16, 1024)      4096      
_________________________________________________________________
activation_552 (Activation)  (None, 16, 16, 1024)      0         
_________________________________________________________________
dropout_552 (Dropout)        (None, 16, 16, 1024)      0         
_________________________________________________________________
conv2d_397 (Conv2D)          (None, 16, 16, 128)       1179776   
_________________________________________________________________
activation_553 (Activation)  (None, 16, 16, 128)       0         
_________________________________________________________________
dropout_553 (Dropout)        (None, 16, 16, 128)       0         
_________________________________________________________________
conv2d_398 (Conv2D)          (None, 16, 16, 64)        73792     
_________________________________________________________________
activation_554 (Activation)  (None, 16, 16, 64)        0         
_________________________________________________________________
dropout_554 (Dropout)        (None, 16, 16, 64)        0         
_________________________________________________________________
flatten_62 (Flatten)         (None, 16384)             0         
_________________________________________________________________
dense_218 (Dense)            (None, 512)               8389120   
_________________________________________________________________
activation_555 (Activation)  (None, 512)               0         
_________________________________________________________________
dropout_555 (Dropout)        (None, 512)               0         
_________________________________________________________________
dense_219 (Dense)            (None, 10)                5130      
=================================================================
Total params: 9,861,434
Trainable params: 9,859,130
Non-trainable params: 2,304
_________________________________________________________________
