Model: "sequential_391"
_________________________________________________________________
Layer (type)                 Output Shape              Param #   
=================================================================
conv2d_1744 (Conv2D)         (None, 32, 32, 16)        448       
_________________________________________________________________
activation_2539 (Activation) (None, 32, 32, 16)        0         
_________________________________________________________________
dropout_2539 (Dropout)       (None, 32, 32, 16)        0         
_________________________________________________________________
conv2d_1745 (Conv2D)         (None, 32, 32, 128)       18560     
_________________________________________________________________
activation_2540 (Activation) (None, 32, 32, 128)       0         
_________________________________________________________________
dropout_2540 (Dropout)       (None, 32, 32, 128)       0         
_________________________________________________________________
conv2d_1746 (Conv2D)         (None, 32, 32, 1024)      1180672   
_________________________________________________________________
activation_2541 (Activation) (None, 32, 32, 1024)      0         
_________________________________________________________________
dropout_2541 (Dropout)       (None, 32, 32, 1024)      0         
_________________________________________________________________
max_pooling2d_367 (MaxPoolin (None, 16, 16, 1024)      0         
_________________________________________________________________
conv2d_1747 (Conv2D)         (None, 16, 16, 1024)      9438208   
_________________________________________________________________
batch_normalization_1259 (Ba (None, 16, 16, 1024)      4096      
_________________________________________________________________
activation_2542 (Activation) (None, 16, 16, 1024)      0         
_________________________________________________________________
dropout_2542 (Dropout)       (None, 16, 16, 1024)      0         
_________________________________________________________________
flatten_391 (Flatten)        (None, 262144)            0         
_________________________________________________________________
dense_1186 (Dense)           (None, 32)                8388640   
_________________________________________________________________
batch_normalization_1260 (Ba (None, 32)                128       
_________________________________________________________________
activation_2543 (Activation) (None, 32)                0         
_________________________________________________________________
dropout_2543 (Dropout)       (None, 32)                0         
_________________________________________________________________
dense_1187 (Dense)           (None, 32)                1056      
_________________________________________________________________
activation_2544 (Activation) (None, 32)                0         
_________________________________________________________________
dropout_2544 (Dropout)       (None, 32)                0         
_________________________________________________________________
dense_1188 (Dense)           (None, 10)                330       
=================================================================
Total params: 19,032,138
Trainable params: 19,030,026
Non-trainable params: 2,112
_________________________________________________________________
