Model: "sequential_253"
_________________________________________________________________
Layer (type)                 Output Shape              Param #   
=================================================================
conv2d_1210 (Conv2D)         (None, 32, 32, 16)        448       
_________________________________________________________________
activation_1775 (Activation) (None, 32, 32, 16)        0         
_________________________________________________________________
dropout_1775 (Dropout)       (None, 32, 32, 16)        0         
_________________________________________________________________
conv2d_1211 (Conv2D)         (None, 32, 32, 8)         1160      
_________________________________________________________________
batch_normalization_877 (Bat (None, 32, 32, 8)         32        
_________________________________________________________________
activation_1776 (Activation) (None, 32, 32, 8)         0         
_________________________________________________________________
dropout_1776 (Dropout)       (None, 32, 32, 8)         0         
_________________________________________________________________
max_pooling2d_230 (MaxPoolin (None, 16, 16, 8)         0         
_________________________________________________________________
conv2d_1212 (Conv2D)         (None, 16, 16, 32)        2336      
_________________________________________________________________
activation_1777 (Activation) (None, 16, 16, 32)        0         
_________________________________________________________________
dropout_1777 (Dropout)       (None, 16, 16, 32)        0         
_________________________________________________________________
conv2d_1213 (Conv2D)         (None, 16, 16, 1024)      295936    
_________________________________________________________________
batch_normalization_878 (Bat (None, 16, 16, 1024)      4096      
_________________________________________________________________
activation_1778 (Activation) (None, 16, 16, 1024)      0         
_________________________________________________________________
dropout_1778 (Dropout)       (None, 16, 16, 1024)      0         
_________________________________________________________________
flatten_253 (Flatten)        (None, 262144)            0         
_________________________________________________________________
dense_818 (Dense)            (None, 256)               67109120  
_________________________________________________________________
batch_normalization_879 (Bat (None, 256)               1024      
_________________________________________________________________
activation_1779 (Activation) (None, 256)               0         
_________________________________________________________________
dropout_1779 (Dropout)       (None, 256)               0         
_________________________________________________________________
dense_819 (Dense)            (None, 512)               131584    
_________________________________________________________________
batch_normalization_880 (Bat (None, 512)               2048      
_________________________________________________________________
activation_1780 (Activation) (None, 512)               0         
_________________________________________________________________
dropout_1780 (Dropout)       (None, 512)               0         
_________________________________________________________________
dense_820 (Dense)            (None, 10)                5130      
=================================================================
Total params: 67,552,914
Trainable params: 67,549,314
Non-trainable params: 3,600
_________________________________________________________________
