Model: "sequential_173"
_________________________________________________________________
Layer (type)                 Output Shape              Param #   
=================================================================
conv2d_896 (Conv2D)          (None, 32, 32, 16)        448       
_________________________________________________________________
activation_1313 (Activation) (None, 32, 32, 16)        0         
_________________________________________________________________
dropout_1313 (Dropout)       (None, 32, 32, 16)        0         
_________________________________________________________________
conv2d_897 (Conv2D)          (None, 32, 32, 128)       18560     
_________________________________________________________________
batch_normalization_636 (Bat (None, 32, 32, 128)       512       
_________________________________________________________________
activation_1314 (Activation) (None, 32, 32, 128)       0         
_________________________________________________________________
dropout_1314 (Dropout)       (None, 32, 32, 128)       0         
_________________________________________________________________
max_pooling2d_150 (MaxPoolin (None, 16, 16, 128)       0         
_________________________________________________________________
conv2d_898 (Conv2D)          (None, 16, 16, 32)        36896     
_________________________________________________________________
activation_1315 (Activation) (None, 16, 16, 32)        0         
_________________________________________________________________
dropout_1315 (Dropout)       (None, 16, 16, 32)        0         
_________________________________________________________________
conv2d_899 (Conv2D)          (None, 16, 16, 1024)      295936    
_________________________________________________________________
batch_normalization_637 (Bat (None, 16, 16, 1024)      4096      
_________________________________________________________________
activation_1316 (Activation) (None, 16, 16, 1024)      0         
_________________________________________________________________
dropout_1316 (Dropout)       (None, 16, 16, 1024)      0         
_________________________________________________________________
flatten_173 (Flatten)        (None, 262144)            0         
_________________________________________________________________
dense_590 (Dense)            (None, 256)               67109120  
_________________________________________________________________
activation_1317 (Activation) (None, 256)               0         
_________________________________________________________________
dropout_1317 (Dropout)       (None, 256)               0         
_________________________________________________________________
dense_591 (Dense)            (None, 512)               131584    
_________________________________________________________________
batch_normalization_638 (Bat (None, 512)               2048      
_________________________________________________________________
activation_1318 (Activation) (None, 512)               0         
_________________________________________________________________
dropout_1318 (Dropout)       (None, 512)               0         
_________________________________________________________________
dense_592 (Dense)            (None, 10)                5130      
=================================================================
Total params: 67,604,330
Trainable params: 67,601,002
Non-trainable params: 3,328
_________________________________________________________________
