Model: "sequential_278"
_________________________________________________________________
Layer (type)                 Output Shape              Param #   
=================================================================
conv2d_1303 (Conv2D)         (None, 32, 32, 16)        448       
_________________________________________________________________
activation_1917 (Activation) (None, 32, 32, 16)        0         
_________________________________________________________________
dropout_1917 (Dropout)       (None, 32, 32, 16)        0         
_________________________________________________________________
conv2d_1304 (Conv2D)         (None, 32, 32, 8)         1160      
_________________________________________________________________
batch_normalization_962 (Bat (None, 32, 32, 8)         32        
_________________________________________________________________
activation_1918 (Activation) (None, 32, 32, 8)         0         
_________________________________________________________________
dropout_1918 (Dropout)       (None, 32, 32, 8)         0         
_________________________________________________________________
max_pooling2d_251 (MaxPoolin (None, 16, 16, 8)         0         
_________________________________________________________________
conv2d_1305 (Conv2D)         (None, 16, 16, 32)        2336      
_________________________________________________________________
activation_1919 (Activation) (None, 16, 16, 32)        0         
_________________________________________________________________
dropout_1919 (Dropout)       (None, 16, 16, 32)        0         
_________________________________________________________________
conv2d_1306 (Conv2D)         (None, 16, 16, 1024)      295936    
_________________________________________________________________
batch_normalization_963 (Bat (None, 16, 16, 1024)      4096      
_________________________________________________________________
activation_1920 (Activation) (None, 16, 16, 1024)      0         
_________________________________________________________________
dropout_1920 (Dropout)       (None, 16, 16, 1024)      0         
_________________________________________________________________
flatten_278 (Flatten)        (None, 262144)            0         
_________________________________________________________________
dense_892 (Dense)            (None, 256)               67109120  
_________________________________________________________________
activation_1921 (Activation) (None, 256)               0         
_________________________________________________________________
dropout_1921 (Dropout)       (None, 256)               0         
_________________________________________________________________
dense_893 (Dense)            (None, 512)               131584    
_________________________________________________________________
batch_normalization_964 (Bat (None, 512)               2048      
_________________________________________________________________
activation_1922 (Activation) (None, 512)               0         
_________________________________________________________________
dropout_1922 (Dropout)       (None, 512)               0         
_________________________________________________________________
dense_894 (Dense)            (None, 10)                5130      
=================================================================
Total params: 67,551,890
Trainable params: 67,548,802
Non-trainable params: 3,088
_________________________________________________________________
