Model: "sequential_357"
_________________________________________________________________
Layer (type)                 Output Shape              Param #   
=================================================================
conv2d_1611 (Conv2D)         (None, 32, 32, 16)        448       
_________________________________________________________________
activation_2345 (Activation) (None, 32, 32, 16)        0         
_________________________________________________________________
dropout_2345 (Dropout)       (None, 32, 32, 16)        0         
_________________________________________________________________
conv2d_1612 (Conv2D)         (None, 32, 32, 128)       18560     
_________________________________________________________________
activation_2346 (Activation) (None, 32, 32, 128)       0         
_________________________________________________________________
dropout_2346 (Dropout)       (None, 32, 32, 128)       0         
_________________________________________________________________
conv2d_1613 (Conv2D)         (None, 32, 32, 1024)      1180672   
_________________________________________________________________
activation_2347 (Activation) (None, 32, 32, 1024)      0         
_________________________________________________________________
dropout_2347 (Dropout)       (None, 32, 32, 1024)      0         
_________________________________________________________________
max_pooling2d_334 (MaxPoolin (None, 16, 16, 1024)      0         
_________________________________________________________________
conv2d_1614 (Conv2D)         (None, 16, 16, 1024)      9438208   
_________________________________________________________________
batch_normalization_1185 (Ba (None, 16, 16, 1024)      4096      
_________________________________________________________________
activation_2348 (Activation) (None, 16, 16, 1024)      0         
_________________________________________________________________
dropout_2348 (Dropout)       (None, 16, 16, 1024)      0         
_________________________________________________________________
flatten_357 (Flatten)        (None, 262144)            0         
_________________________________________________________________
dense_1091 (Dense)           (None, 256)               67109120  
_________________________________________________________________
activation_2349 (Activation) (None, 256)               0         
_________________________________________________________________
dropout_2349 (Dropout)       (None, 256)               0         
_________________________________________________________________
dense_1092 (Dense)           (None, 512)               131584    
_________________________________________________________________
batch_normalization_1186 (Ba (None, 512)               2048      
_________________________________________________________________
activation_2350 (Activation) (None, 512)               0         
_________________________________________________________________
dropout_2350 (Dropout)       (None, 512)               0         
_________________________________________________________________
dense_1093 (Dense)           (None, 10)                5130      
=================================================================
Total params: 77,889,866
Trainable params: 77,886,794
Non-trainable params: 3,072
_________________________________________________________________
