Model: "sequential_360"
_________________________________________________________________
Layer (type)                 Output Shape              Param #   
=================================================================
conv2d_1623 (Conv2D)         (None, 32, 32, 16)        448       
_________________________________________________________________
activation_2363 (Activation) (None, 32, 32, 16)        0         
_________________________________________________________________
dropout_2363 (Dropout)       (None, 32, 32, 16)        0         
_________________________________________________________________
conv2d_1624 (Conv2D)         (None, 32, 32, 128)       18560     
_________________________________________________________________
batch_normalization_1193 (Ba (None, 32, 32, 128)       512       
_________________________________________________________________
activation_2364 (Activation) (None, 32, 32, 128)       0         
_________________________________________________________________
dropout_2364 (Dropout)       (None, 32, 32, 128)       0         
_________________________________________________________________
conv2d_1625 (Conv2D)         (None, 32, 32, 1024)      1180672   
_________________________________________________________________
activation_2365 (Activation) (None, 32, 32, 1024)      0         
_________________________________________________________________
dropout_2365 (Dropout)       (None, 32, 32, 1024)      0         
_________________________________________________________________
max_pooling2d_337 (MaxPoolin (None, 16, 16, 1024)      0         
_________________________________________________________________
conv2d_1626 (Conv2D)         (None, 16, 16, 1024)      9438208   
_________________________________________________________________
batch_normalization_1194 (Ba (None, 16, 16, 1024)      4096      
_________________________________________________________________
activation_2366 (Activation) (None, 16, 16, 1024)      0         
_________________________________________________________________
dropout_2366 (Dropout)       (None, 16, 16, 1024)      0         
_________________________________________________________________
flatten_360 (Flatten)        (None, 262144)            0         
_________________________________________________________________
dense_1100 (Dense)           (None, 64)                16777280  
_________________________________________________________________
batch_normalization_1195 (Ba (None, 64)                256       
_________________________________________________________________
activation_2367 (Activation) (None, 64)                0         
_________________________________________________________________
dropout_2367 (Dropout)       (None, 64)                0         
_________________________________________________________________
dense_1101 (Dense)           (None, 32)                2080      
_________________________________________________________________
activation_2368 (Activation) (None, 32)                0         
_________________________________________________________________
dropout_2368 (Dropout)       (None, 32)                0         
_________________________________________________________________
dense_1102 (Dense)           (None, 10)                330       
=================================================================
Total params: 27,422,442
Trainable params: 27,420,010
Non-trainable params: 2,432
_________________________________________________________________
