Model: "sequential_233"
_________________________________________________________________
Layer (type)                 Output Shape              Param #   
=================================================================
conv2d_1133 (Conv2D)         (None, 32, 32, 16)        448       
_________________________________________________________________
activation_1661 (Activation) (None, 32, 32, 16)        0         
_________________________________________________________________
dropout_1661 (Dropout)       (None, 32, 32, 16)        0         
_________________________________________________________________
conv2d_1134 (Conv2D)         (None, 32, 32, 8)         1160      
_________________________________________________________________
batch_normalization_810 (Bat (None, 32, 32, 8)         32        
_________________________________________________________________
activation_1662 (Activation) (None, 32, 32, 8)         0         
_________________________________________________________________
dropout_1662 (Dropout)       (None, 32, 32, 8)         0         
_________________________________________________________________
max_pooling2d_210 (MaxPoolin (None, 16, 16, 8)         0         
_________________________________________________________________
conv2d_1135 (Conv2D)         (None, 16, 16, 32)        2336      
_________________________________________________________________
activation_1663 (Activation) (None, 16, 16, 32)        0         
_________________________________________________________________
dropout_1663 (Dropout)       (None, 16, 16, 32)        0         
_________________________________________________________________
conv2d_1136 (Conv2D)         (None, 16, 16, 1024)      295936    
_________________________________________________________________
batch_normalization_811 (Bat (None, 16, 16, 1024)      4096      
_________________________________________________________________
activation_1664 (Activation) (None, 16, 16, 1024)      0         
_________________________________________________________________
dropout_1664 (Dropout)       (None, 16, 16, 1024)      0         
_________________________________________________________________
flatten_233 (Flatten)        (None, 262144)            0         
_________________________________________________________________
dense_761 (Dense)            (None, 256)               67109120  
_________________________________________________________________
activation_1665 (Activation) (None, 256)               0         
_________________________________________________________________
dropout_1665 (Dropout)       (None, 256)               0         
_________________________________________________________________
dense_762 (Dense)            (None, 512)               131584    
_________________________________________________________________
batch_normalization_812 (Bat (None, 512)               2048      
_________________________________________________________________
activation_1666 (Activation) (None, 512)               0         
_________________________________________________________________
dropout_1666 (Dropout)       (None, 512)               0         
_________________________________________________________________
dense_763 (Dense)            (None, 10)                5130      
=================================================================
Total params: 67,551,890
Trainable params: 67,548,802
Non-trainable params: 3,088
_________________________________________________________________
