Model: "sequential_161"
_________________________________________________________________
Layer (type)                 Output Shape              Param #   
=================================================================
conv2d_848 (Conv2D)          (None, 32, 32, 16)        448       
_________________________________________________________________
activation_1241 (Activation) (None, 32, 32, 16)        0         
_________________________________________________________________
dropout_1241 (Dropout)       (None, 32, 32, 16)        0         
_________________________________________________________________
conv2d_849 (Conv2D)          (None, 32, 32, 128)       18560     
_________________________________________________________________
batch_normalization_600 (Bat (None, 32, 32, 128)       512       
_________________________________________________________________
activation_1242 (Activation) (None, 32, 32, 128)       0         
_________________________________________________________________
dropout_1242 (Dropout)       (None, 32, 32, 128)       0         
_________________________________________________________________
max_pooling2d_138 (MaxPoolin (None, 16, 16, 128)       0         
_________________________________________________________________
conv2d_850 (Conv2D)          (None, 16, 16, 32)        36896     
_________________________________________________________________
activation_1243 (Activation) (None, 16, 16, 32)        0         
_________________________________________________________________
dropout_1243 (Dropout)       (None, 16, 16, 32)        0         
_________________________________________________________________
conv2d_851 (Conv2D)          (None, 16, 16, 1024)      295936    
_________________________________________________________________
batch_normalization_601 (Bat (None, 16, 16, 1024)      4096      
_________________________________________________________________
activation_1244 (Activation) (None, 16, 16, 1024)      0         
_________________________________________________________________
dropout_1244 (Dropout)       (None, 16, 16, 1024)      0         
_________________________________________________________________
flatten_161 (Flatten)        (None, 262144)            0         
_________________________________________________________________
dense_554 (Dense)            (None, 16)                4194320   
_________________________________________________________________
activation_1245 (Activation) (None, 16)                0         
_________________________________________________________________
dropout_1245 (Dropout)       (None, 16)                0         
_________________________________________________________________
dense_555 (Dense)            (None, 512)               8704      
_________________________________________________________________
batch_normalization_602 (Bat (None, 512)               2048      
_________________________________________________________________
activation_1246 (Activation) (None, 512)               0         
_________________________________________________________________
dropout_1246 (Dropout)       (None, 512)               0         
_________________________________________________________________
dense_556 (Dense)            (None, 10)                5130      
=================================================================
Total params: 4,566,650
Trainable params: 4,563,322
Non-trainable params: 3,328
_________________________________________________________________
