Model: "sequential_47"
_________________________________________________________________
Layer (type)                 Output Shape              Param #   
=================================================================
conv2d_303 (Conv2D)          (None, 32, 32, 16)        448       
_________________________________________________________________
activation_417 (Activation)  (None, 32, 32, 16)        0         
_________________________________________________________________
dropout_417 (Dropout)        (None, 32, 32, 16)        0         
_________________________________________________________________
conv2d_304 (Conv2D)          (None, 32, 32, 128)       18560     
_________________________________________________________________
batch_normalization_210 (Bat (None, 32, 32, 128)       512       
_________________________________________________________________
activation_418 (Activation)  (None, 32, 32, 128)       0         
_________________________________________________________________
dropout_418 (Dropout)        (None, 32, 32, 128)       0         
_________________________________________________________________
max_pooling2d_59 (MaxPooling (None, 16, 16, 128)       0         
_________________________________________________________________
conv2d_305 (Conv2D)          (None, 16, 16, 256)       295168    
_________________________________________________________________
activation_419 (Activation)  (None, 16, 16, 256)       0         
_________________________________________________________________
dropout_419 (Dropout)        (None, 16, 16, 256)       0         
_________________________________________________________________
max_pooling2d_60 (MaxPooling (None, 8, 8, 256)         0         
_________________________________________________________________
conv2d_306 (Conv2D)          (None, 8, 8, 32)          73760     
_________________________________________________________________
batch_normalization_211 (Bat (None, 8, 8, 32)          128       
_________________________________________________________________
activation_420 (Activation)  (None, 8, 8, 32)          0         
_________________________________________________________________
dropout_420 (Dropout)        (None, 8, 8, 32)          0         
_________________________________________________________________
conv2d_307 (Conv2D)          (None, 8, 8, 16)          4624      
_________________________________________________________________
activation_421 (Activation)  (None, 8, 8, 16)          0         
_________________________________________________________________
dropout_421 (Dropout)        (None, 8, 8, 16)          0         
_________________________________________________________________
conv2d_308 (Conv2D)          (None, 8, 8, 64)          9280      
_________________________________________________________________
activation_422 (Activation)  (None, 8, 8, 64)          0         
_________________________________________________________________
dropout_422 (Dropout)        (None, 8, 8, 64)          0         
_________________________________________________________________
conv2d_309 (Conv2D)          (None, 8, 8, 32)          18464     
_________________________________________________________________
batch_normalization_212 (Bat (None, 8, 8, 32)          128       
_________________________________________________________________
activation_423 (Activation)  (None, 8, 8, 32)          0         
_________________________________________________________________
dropout_423 (Dropout)        (None, 8, 8, 32)          0         
_________________________________________________________________
flatten_47 (Flatten)         (None, 2048)              0         
_________________________________________________________________
dense_161 (Dense)            (None, 32)                65568     
_________________________________________________________________
batch_normalization_213 (Bat (None, 32)                128       
_________________________________________________________________
activation_424 (Activation)  (None, 32)                0         
_________________________________________________________________
dropout_424 (Dropout)        (None, 32)                0         
_________________________________________________________________
dense_162 (Dense)            (None, 128)               4224      
_________________________________________________________________
activation_425 (Activation)  (None, 128)               0         
_________________________________________________________________
dropout_425 (Dropout)        (None, 128)               0         
_________________________________________________________________
dense_163 (Dense)            (None, 64)                8256      
_________________________________________________________________
batch_normalization_214 (Bat (None, 64)                256       
_________________________________________________________________
activation_426 (Activation)  (None, 64)                0         
_________________________________________________________________
dropout_426 (Dropout)        (None, 64)                0         
_________________________________________________________________
dense_164 (Dense)            (None, 10)                650       
=================================================================
Total params: 500,154
Trainable params: 499,578
Non-trainable params: 576
_________________________________________________________________
