Model: "sequential_295"
_________________________________________________________________
Layer (type)                 Output Shape              Param #   
=================================================================
conv2d_1366 (Conv2D)         (None, 32, 32, 16)        448       
_________________________________________________________________
activation_2008 (Activation) (None, 32, 32, 16)        0         
_________________________________________________________________
dropout_2008 (Dropout)       (None, 32, 32, 16)        0         
_________________________________________________________________
conv2d_1367 (Conv2D)         (None, 32, 32, 128)       18560     
_________________________________________________________________
batch_normalization_1006 (Ba (None, 32, 32, 128)       512       
_________________________________________________________________
activation_2009 (Activation) (None, 32, 32, 128)       0         
_________________________________________________________________
dropout_2009 (Dropout)       (None, 32, 32, 128)       0         
_________________________________________________________________
conv2d_1368 (Conv2D)         (None, 32, 32, 1024)      1180672   
_________________________________________________________________
activation_2010 (Activation) (None, 32, 32, 1024)      0         
_________________________________________________________________
dropout_2010 (Dropout)       (None, 32, 32, 1024)      0         
_________________________________________________________________
max_pooling2d_266 (MaxPoolin (None, 16, 16, 1024)      0         
_________________________________________________________________
conv2d_1369 (Conv2D)         (None, 16, 16, 1024)      9438208   
_________________________________________________________________
batch_normalization_1007 (Ba (None, 16, 16, 1024)      4096      
_________________________________________________________________
activation_2011 (Activation) (None, 16, 16, 1024)      0         
_________________________________________________________________
dropout_2011 (Dropout)       (None, 16, 16, 1024)      0         
_________________________________________________________________
flatten_295 (Flatten)        (None, 262144)            0         
_________________________________________________________________
dense_937 (Dense)            (None, 256)               67109120  
_________________________________________________________________
activation_2012 (Activation) (None, 256)               0         
_________________________________________________________________
dropout_2012 (Dropout)       (None, 256)               0         
_________________________________________________________________
dense_938 (Dense)            (None, 32)                8224      
_________________________________________________________________
batch_normalization_1008 (Ba (None, 32)                128       
_________________________________________________________________
activation_2013 (Activation) (None, 32)                0         
_________________________________________________________________
dropout_2013 (Dropout)       (None, 32)                0         
_________________________________________________________________
dense_939 (Dense)            (None, 10)                330       
=================================================================
Total params: 77,760,298
Trainable params: 77,757,930
Non-trainable params: 2,368
_________________________________________________________________
