Model: "sequential_50"
_________________________________________________________________
Layer (type)                 Output Shape              Param #   
=================================================================
conv2d_321 (Conv2D)          (None, 32, 32, 16)        448       
_________________________________________________________________
activation_444 (Activation)  (None, 32, 32, 16)        0         
_________________________________________________________________
dropout_444 (Dropout)        (None, 32, 32, 16)        0         
_________________________________________________________________
conv2d_322 (Conv2D)          (None, 32, 32, 128)       18560     
_________________________________________________________________
batch_normalization_224 (Bat (None, 32, 32, 128)       512       
_________________________________________________________________
activation_445 (Activation)  (None, 32, 32, 128)       0         
_________________________________________________________________
dropout_445 (Dropout)        (None, 32, 32, 128)       0         
_________________________________________________________________
max_pooling2d_63 (MaxPooling (None, 16, 16, 128)       0         
_________________________________________________________________
conv2d_323 (Conv2D)          (None, 16, 16, 32)        36896     
_________________________________________________________________
activation_446 (Activation)  (None, 16, 16, 32)        0         
_________________________________________________________________
dropout_446 (Dropout)        (None, 16, 16, 32)        0         
_________________________________________________________________
conv2d_324 (Conv2D)          (None, 16, 16, 16)        4624      
_________________________________________________________________
activation_447 (Activation)  (None, 16, 16, 16)        0         
_________________________________________________________________
dropout_447 (Dropout)        (None, 16, 16, 16)        0         
_________________________________________________________________
conv2d_325 (Conv2D)          (None, 16, 16, 1024)      148480    
_________________________________________________________________
batch_normalization_225 (Bat (None, 16, 16, 1024)      4096      
_________________________________________________________________
activation_448 (Activation)  (None, 16, 16, 1024)      0         
_________________________________________________________________
dropout_448 (Dropout)        (None, 16, 16, 1024)      0         
_________________________________________________________________
conv2d_326 (Conv2D)          (None, 16, 16, 128)       1179776   
_________________________________________________________________
activation_449 (Activation)  (None, 16, 16, 128)       0         
_________________________________________________________________
dropout_449 (Dropout)        (None, 16, 16, 128)       0         
_________________________________________________________________
conv2d_327 (Conv2D)          (None, 16, 16, 64)        73792     
_________________________________________________________________
activation_450 (Activation)  (None, 16, 16, 64)        0         
_________________________________________________________________
dropout_450 (Dropout)        (None, 16, 16, 64)        0         
_________________________________________________________________
flatten_50 (Flatten)         (None, 16384)             0         
_________________________________________________________________
dense_173 (Dense)            (None, 512)               8389120   
_________________________________________________________________
activation_451 (Activation)  (None, 512)               0         
_________________________________________________________________
dropout_451 (Dropout)        (None, 512)               0         
_________________________________________________________________
dense_174 (Dense)            (None, 10)                5130      
=================================================================
Total params: 9,861,434
Trainable params: 9,859,130
Non-trainable params: 2,304
_________________________________________________________________
