Model: "sequential_98"
_________________________________________________________________
Layer (type)                 Output Shape              Param #   
=================================================================
conv2d_581 (Conv2D)          (None, 32, 32, 1024)      28672     
_________________________________________________________________
activation_832 (Activation)  (None, 32, 32, 1024)      0         
_________________________________________________________________
dropout_832 (Dropout)        (None, 32, 32, 1024)      0         
_________________________________________________________________
conv2d_582 (Conv2D)          (None, 32, 32, 16)        147472    
_________________________________________________________________
batch_normalization_397 (Bat (None, 32, 32, 16)        64        
_________________________________________________________________
activation_833 (Activation)  (None, 32, 32, 16)        0         
_________________________________________________________________
dropout_833 (Dropout)        (None, 32, 32, 16)        0         
_________________________________________________________________
conv2d_583 (Conv2D)          (None, 32, 32, 32)        4640      
_________________________________________________________________
activation_834 (Activation)  (None, 32, 32, 32)        0         
_________________________________________________________________
dropout_834 (Dropout)        (None, 32, 32, 32)        0         
_________________________________________________________________
conv2d_584 (Conv2D)          (None, 32, 32, 16)        4624      
_________________________________________________________________
activation_835 (Activation)  (None, 32, 32, 16)        0         
_________________________________________________________________
dropout_835 (Dropout)        (None, 32, 32, 16)        0         
_________________________________________________________________
conv2d_585 (Conv2D)          (None, 32, 32, 64)        9280      
_________________________________________________________________
activation_836 (Activation)  (None, 32, 32, 64)        0         
_________________________________________________________________
dropout_836 (Dropout)        (None, 32, 32, 64)        0         
_________________________________________________________________
flatten_98 (Flatten)         (None, 65536)             0         
_________________________________________________________________
dense_349 (Dense)            (None, 256)               16777472  
_________________________________________________________________
activation_837 (Activation)  (None, 256)               0         
_________________________________________________________________
dropout_837 (Dropout)        (None, 256)               0         
_________________________________________________________________
dense_350 (Dense)            (None, 512)               131584    
_________________________________________________________________
batch_normalization_398 (Bat (None, 512)               2048      
_________________________________________________________________
activation_838 (Activation)  (None, 512)               0         
_________________________________________________________________
dropout_838 (Dropout)        (None, 512)               0         
_________________________________________________________________
dense_351 (Dense)            (None, 32)                16416     
_________________________________________________________________
batch_normalization_399 (Bat (None, 32)                128       
_________________________________________________________________
activation_839 (Activation)  (None, 32)                0         
_________________________________________________________________
dropout_839 (Dropout)        (None, 32)                0         
_________________________________________________________________
dense_352 (Dense)            (None, 10)                330       
=================================================================
Total params: 17,122,730
Trainable params: 17,121,610
Non-trainable params: 1,120
_________________________________________________________________
