Model: "sequential_131"
_________________________________________________________________
Layer (type)                 Output Shape              Param #   
=================================================================
conv2d_727 (Conv2D)          (None, 32, 32, 16)        448       
_________________________________________________________________
activation_1057 (Activation) (None, 32, 32, 16)        0         
_________________________________________________________________
dropout_1057 (Dropout)       (None, 32, 32, 16)        0         
_________________________________________________________________
conv2d_728 (Conv2D)          (None, 32, 32, 128)       18560     
_________________________________________________________________
batch_normalization_506 (Bat (None, 32, 32, 128)       512       
_________________________________________________________________
activation_1058 (Activation) (None, 32, 32, 128)       0         
_________________________________________________________________
dropout_1058 (Dropout)       (None, 32, 32, 128)       0         
_________________________________________________________________
max_pooling2d_111 (MaxPoolin (None, 16, 16, 128)       0         
_________________________________________________________________
conv2d_729 (Conv2D)          (None, 16, 16, 32)        36896     
_________________________________________________________________
activation_1059 (Activation) (None, 16, 16, 32)        0         
_________________________________________________________________
dropout_1059 (Dropout)       (None, 16, 16, 32)        0         
_________________________________________________________________
conv2d_730 (Conv2D)          (None, 16, 16, 128)       36992     
_________________________________________________________________
batch_normalization_507 (Bat (None, 16, 16, 128)       512       
_________________________________________________________________
activation_1060 (Activation) (None, 16, 16, 128)       0         
_________________________________________________________________
dropout_1060 (Dropout)       (None, 16, 16, 128)       0         
_________________________________________________________________
flatten_131 (Flatten)        (None, 32768)             0         
_________________________________________________________________
dense_461 (Dense)            (None, 16)                524304    
_________________________________________________________________
activation_1061 (Activation) (None, 16)                0         
_________________________________________________________________
dropout_1061 (Dropout)       (None, 16)                0         
_________________________________________________________________
dense_462 (Dense)            (None, 512)               8704      
_________________________________________________________________
batch_normalization_508 (Bat (None, 512)               2048      
_________________________________________________________________
activation_1062 (Activation) (None, 512)               0         
_________________________________________________________________
dropout_1062 (Dropout)       (None, 512)               0         
_________________________________________________________________
dense_463 (Dense)            (None, 10)                5130      
=================================================================
Total params: 634,106
Trainable params: 632,570
Non-trainable params: 1,536
_________________________________________________________________
