Model: "sequential_268"
_________________________________________________________________
Layer (type)                 Output Shape              Param #   
=================================================================
conv2d_1268 (Conv2D)         (None, 32, 32, 16)        448       
_________________________________________________________________
activation_1863 (Activation) (None, 32, 32, 16)        0         
_________________________________________________________________
dropout_1863 (Dropout)       (None, 32, 32, 16)        0         
_________________________________________________________________
conv2d_1269 (Conv2D)         (None, 32, 32, 32)        4640      
_________________________________________________________________
activation_1864 (Activation) (None, 32, 32, 32)        0         
_________________________________________________________________
dropout_1864 (Dropout)       (None, 32, 32, 32)        0         
_________________________________________________________________
conv2d_1270 (Conv2D)         (None, 32, 32, 1024)      295936    
_________________________________________________________________
batch_normalization_932 (Bat (None, 32, 32, 1024)      4096      
_________________________________________________________________
activation_1865 (Activation) (None, 32, 32, 1024)      0         
_________________________________________________________________
dropout_1865 (Dropout)       (None, 32, 32, 1024)      0         
_________________________________________________________________
flatten_268 (Flatten)        (None, 1048576)           0         
_________________________________________________________________
dense_863 (Dense)            (None, 256)               268435712 
_________________________________________________________________
activation_1866 (Activation) (None, 256)               0         
_________________________________________________________________
dropout_1866 (Dropout)       (None, 256)               0         
_________________________________________________________________
dense_864 (Dense)            (None, 512)               131584    
_________________________________________________________________
batch_normalization_933 (Bat (None, 512)               2048      
_________________________________________________________________
activation_1867 (Activation) (None, 512)               0         
_________________________________________________________________
dropout_1867 (Dropout)       (None, 512)               0         
_________________________________________________________________
dense_865 (Dense)            (None, 10)                5130      
=================================================================
Total params: 268,879,594
Trainable params: 268,876,522
Non-trainable params: 3,072
_________________________________________________________________
