Model: "sequential_165"
_________________________________________________________________
Layer (type)                 Output Shape              Param #   
=================================================================
conv2d_864 (Conv2D)          (None, 32, 32, 16)        448       
_________________________________________________________________
activation_1265 (Activation) (None, 32, 32, 16)        0         
_________________________________________________________________
dropout_1265 (Dropout)       (None, 32, 32, 16)        0         
_________________________________________________________________
conv2d_865 (Conv2D)          (None, 32, 32, 128)       18560     
_________________________________________________________________
batch_normalization_612 (Bat (None, 32, 32, 128)       512       
_________________________________________________________________
activation_1266 (Activation) (None, 32, 32, 128)       0         
_________________________________________________________________
dropout_1266 (Dropout)       (None, 32, 32, 128)       0         
_________________________________________________________________
max_pooling2d_142 (MaxPoolin (None, 16, 16, 128)       0         
_________________________________________________________________
conv2d_866 (Conv2D)          (None, 16, 16, 32)        36896     
_________________________________________________________________
activation_1267 (Activation) (None, 16, 16, 32)        0         
_________________________________________________________________
dropout_1267 (Dropout)       (None, 16, 16, 32)        0         
_________________________________________________________________
conv2d_867 (Conv2D)          (None, 16, 16, 128)       36992     
_________________________________________________________________
batch_normalization_613 (Bat (None, 16, 16, 128)       512       
_________________________________________________________________
activation_1268 (Activation) (None, 16, 16, 128)       0         
_________________________________________________________________
dropout_1268 (Dropout)       (None, 16, 16, 128)       0         
_________________________________________________________________
flatten_165 (Flatten)        (None, 32768)             0         
_________________________________________________________________
dense_566 (Dense)            (None, 16)                524304    
_________________________________________________________________
activation_1269 (Activation) (None, 16)                0         
_________________________________________________________________
dropout_1269 (Dropout)       (None, 16)                0         
_________________________________________________________________
dense_567 (Dense)            (None, 512)               8704      
_________________________________________________________________
batch_normalization_614 (Bat (None, 512)               2048      
_________________________________________________________________
activation_1270 (Activation) (None, 512)               0         
_________________________________________________________________
dropout_1270 (Dropout)       (None, 512)               0         
_________________________________________________________________
dense_568 (Dense)            (None, 10)                5130      
=================================================================
Total params: 634,106
Trainable params: 632,570
Non-trainable params: 1,536
_________________________________________________________________
