Model: "sequential_196"
_________________________________________________________________
Layer (type)                 Output Shape              Param #   
=================================================================
conv2d_987 (Conv2D)          (None, 32, 32, 16)        448       
_________________________________________________________________
activation_1450 (Activation) (None, 32, 32, 16)        0         
_________________________________________________________________
dropout_1450 (Dropout)       (None, 32, 32, 16)        0         
_________________________________________________________________
conv2d_988 (Conv2D)          (None, 32, 32, 128)       18560     
_________________________________________________________________
batch_normalization_704 (Bat (None, 32, 32, 128)       512       
_________________________________________________________________
activation_1451 (Activation) (None, 32, 32, 128)       0         
_________________________________________________________________
dropout_1451 (Dropout)       (None, 32, 32, 128)       0         
_________________________________________________________________
max_pooling2d_173 (MaxPoolin (None, 16, 16, 128)       0         
_________________________________________________________________
conv2d_989 (Conv2D)          (None, 16, 16, 32)        36896     
_________________________________________________________________
activation_1452 (Activation) (None, 16, 16, 32)        0         
_________________________________________________________________
dropout_1452 (Dropout)       (None, 16, 16, 32)        0         
_________________________________________________________________
conv2d_990 (Conv2D)          (None, 16, 16, 1024)      295936    
_________________________________________________________________
batch_normalization_705 (Bat (None, 16, 16, 1024)      4096      
_________________________________________________________________
activation_1453 (Activation) (None, 16, 16, 1024)      0         
_________________________________________________________________
dropout_1453 (Dropout)       (None, 16, 16, 1024)      0         
_________________________________________________________________
flatten_196 (Flatten)        (None, 262144)            0         
_________________________________________________________________
dense_659 (Dense)            (None, 256)               67109120  
_________________________________________________________________
activation_1454 (Activation) (None, 256)               0         
_________________________________________________________________
dropout_1454 (Dropout)       (None, 256)               0         
_________________________________________________________________
dense_660 (Dense)            (None, 512)               131584    
_________________________________________________________________
batch_normalization_706 (Bat (None, 512)               2048      
_________________________________________________________________
activation_1455 (Activation) (None, 512)               0         
_________________________________________________________________
dropout_1455 (Dropout)       (None, 512)               0         
_________________________________________________________________
dense_661 (Dense)            (None, 10)                5130      
=================================================================
Total params: 67,604,330
Trainable params: 67,601,002
Non-trainable params: 3,328
_________________________________________________________________
