Model: "sequential_87"
_________________________________________________________________
Layer (type)                 Output Shape              Param #   
=================================================================
conv2d_531 (Conv2D)          (None, 32, 32, 1024)      28672     
_________________________________________________________________
activation_752 (Activation)  (None, 32, 32, 1024)      0         
_________________________________________________________________
dropout_752 (Dropout)        (None, 32, 32, 1024)      0         
_________________________________________________________________
conv2d_532 (Conv2D)          (None, 32, 32, 32)        294944    
_________________________________________________________________
activation_753 (Activation)  (None, 32, 32, 32)        0         
_________________________________________________________________
dropout_753 (Dropout)        (None, 32, 32, 32)        0         
_________________________________________________________________
conv2d_533 (Conv2D)          (None, 32, 32, 16)        4624      
_________________________________________________________________
activation_754 (Activation)  (None, 32, 32, 16)        0         
_________________________________________________________________
dropout_754 (Dropout)        (None, 32, 32, 16)        0         
_________________________________________________________________
conv2d_534 (Conv2D)          (None, 32, 32, 64)        9280      
_________________________________________________________________
activation_755 (Activation)  (None, 32, 32, 64)        0         
_________________________________________________________________
dropout_755 (Dropout)        (None, 32, 32, 64)        0         
_________________________________________________________________
conv2d_535 (Conv2D)          (None, 32, 32, 32)        18464     
_________________________________________________________________
activation_756 (Activation)  (None, 32, 32, 32)        0         
_________________________________________________________________
dropout_756 (Dropout)        (None, 32, 32, 32)        0         
_________________________________________________________________
flatten_87 (Flatten)         (None, 32768)             0         
_________________________________________________________________
dense_308 (Dense)            (None, 32)                1048608   
_________________________________________________________________
batch_normalization_359 (Bat (None, 32)                128       
_________________________________________________________________
activation_757 (Activation)  (None, 32)                0         
_________________________________________________________________
dropout_757 (Dropout)        (None, 32)                0         
_________________________________________________________________
dense_309 (Dense)            (None, 256)               8448      
_________________________________________________________________
activation_758 (Activation)  (None, 256)               0         
_________________________________________________________________
dropout_758 (Dropout)        (None, 256)               0         
_________________________________________________________________
dense_310 (Dense)            (None, 512)               131584    
_________________________________________________________________
batch_normalization_360 (Bat (None, 512)               2048      
_________________________________________________________________
activation_759 (Activation)  (None, 512)               0         
_________________________________________________________________
dropout_759 (Dropout)        (None, 512)               0         
_________________________________________________________________
dense_311 (Dense)            (None, 10)                5130      
=================================================================
Total params: 1,551,930
Trainable params: 1,550,842
Non-trainable params: 1,088
_________________________________________________________________
