Model: "sequential_340"
_________________________________________________________________
Layer (type)                 Output Shape              Param #   
=================================================================
conv2d_1543 (Conv2D)         (None, 32, 32, 16)        448       
_________________________________________________________________
activation_2248 (Activation) (None, 32, 32, 16)        0         
_________________________________________________________________
dropout_2248 (Dropout)       (None, 32, 32, 16)        0         
_________________________________________________________________
conv2d_1544 (Conv2D)         (None, 32, 32, 128)       18560     
_________________________________________________________________
batch_normalization_1137 (Ba (None, 32, 32, 128)       512       
_________________________________________________________________
activation_2249 (Activation) (None, 32, 32, 128)       0         
_________________________________________________________________
dropout_2249 (Dropout)       (None, 32, 32, 128)       0         
_________________________________________________________________
conv2d_1545 (Conv2D)         (None, 32, 32, 1024)      1180672   
_________________________________________________________________
activation_2250 (Activation) (None, 32, 32, 1024)      0         
_________________________________________________________________
dropout_2250 (Dropout)       (None, 32, 32, 1024)      0         
_________________________________________________________________
max_pooling2d_314 (MaxPoolin (None, 16, 16, 1024)      0         
_________________________________________________________________
conv2d_1546 (Conv2D)         (None, 16, 16, 1024)      9438208   
_________________________________________________________________
batch_normalization_1138 (Ba (None, 16, 16, 1024)      4096      
_________________________________________________________________
activation_2251 (Activation) (None, 16, 16, 1024)      0         
_________________________________________________________________
dropout_2251 (Dropout)       (None, 16, 16, 1024)      0         
_________________________________________________________________
flatten_340 (Flatten)        (None, 262144)            0         
_________________________________________________________________
dense_1045 (Dense)           (None, 256)               67109120  
_________________________________________________________________
activation_2252 (Activation) (None, 256)               0         
_________________________________________________________________
dropout_2252 (Dropout)       (None, 256)               0         
_________________________________________________________________
dense_1046 (Dense)           (None, 512)               131584    
_________________________________________________________________
batch_normalization_1139 (Ba (None, 512)               2048      
_________________________________________________________________
activation_2253 (Activation) (None, 512)               0         
_________________________________________________________________
dropout_2253 (Dropout)       (None, 512)               0         
_________________________________________________________________
dense_1047 (Dense)           (None, 10)                5130      
=================================================================
Total params: 77,890,378
Trainable params: 77,887,050
Non-trainable params: 3,328
_________________________________________________________________
