Model: "sequential_283"
_________________________________________________________________
Layer (type)                 Output Shape              Param #   
=================================================================
conv2d_1322 (Conv2D)         (None, 32, 32, 16)        448       
_________________________________________________________________
activation_1945 (Activation) (None, 32, 32, 16)        0         
_________________________________________________________________
dropout_1945 (Dropout)       (None, 32, 32, 16)        0         
_________________________________________________________________
conv2d_1323 (Conv2D)         (None, 32, 32, 8)         1160      
_________________________________________________________________
batch_normalization_975 (Bat (None, 32, 32, 8)         32        
_________________________________________________________________
activation_1946 (Activation) (None, 32, 32, 8)         0         
_________________________________________________________________
dropout_1946 (Dropout)       (None, 32, 32, 8)         0         
_________________________________________________________________
max_pooling2d_256 (MaxPoolin (None, 16, 16, 8)         0         
_________________________________________________________________
conv2d_1324 (Conv2D)         (None, 16, 16, 32)        2336      
_________________________________________________________________
activation_1947 (Activation) (None, 16, 16, 32)        0         
_________________________________________________________________
dropout_1947 (Dropout)       (None, 16, 16, 32)        0         
_________________________________________________________________
conv2d_1325 (Conv2D)         (None, 16, 16, 1024)      295936    
_________________________________________________________________
batch_normalization_976 (Bat (None, 16, 16, 1024)      4096      
_________________________________________________________________
activation_1948 (Activation) (None, 16, 16, 1024)      0         
_________________________________________________________________
dropout_1948 (Dropout)       (None, 16, 16, 1024)      0         
_________________________________________________________________
flatten_283 (Flatten)        (None, 262144)            0         
_________________________________________________________________
dense_906 (Dense)            (None, 256)               67109120  
_________________________________________________________________
batch_normalization_977 (Bat (None, 256)               1024      
_________________________________________________________________
activation_1949 (Activation) (None, 256)               0         
_________________________________________________________________
dropout_1949 (Dropout)       (None, 256)               0         
_________________________________________________________________
dense_907 (Dense)            (None, 512)               131584    
_________________________________________________________________
batch_normalization_978 (Bat (None, 512)               2048      
_________________________________________________________________
activation_1950 (Activation) (None, 512)               0         
_________________________________________________________________
dropout_1950 (Dropout)       (None, 512)               0         
_________________________________________________________________
dense_908 (Dense)            (None, 10)                5130      
=================================================================
Total params: 67,552,914
Trainable params: 67,549,314
Non-trainable params: 3,600
_________________________________________________________________
