Model: "sequential_228"
_________________________________________________________________
Layer (type)                 Output Shape              Param #   
=================================================================
conv2d_1113 (Conv2D)         (None, 32, 32, 16)        448       
_________________________________________________________________
activation_1632 (Activation) (None, 32, 32, 16)        0         
_________________________________________________________________
dropout_1632 (Dropout)       (None, 32, 32, 16)        0         
_________________________________________________________________
conv2d_1114 (Conv2D)         (None, 32, 32, 128)       18560     
_________________________________________________________________
batch_normalization_795 (Bat (None, 32, 32, 128)       512       
_________________________________________________________________
activation_1633 (Activation) (None, 32, 32, 128)       0         
_________________________________________________________________
dropout_1633 (Dropout)       (None, 32, 32, 128)       0         
_________________________________________________________________
max_pooling2d_205 (MaxPoolin (None, 16, 16, 128)       0         
_________________________________________________________________
conv2d_1115 (Conv2D)         (None, 16, 16, 32)        36896     
_________________________________________________________________
activation_1634 (Activation) (None, 16, 16, 32)        0         
_________________________________________________________________
dropout_1634 (Dropout)       (None, 16, 16, 32)        0         
_________________________________________________________________
conv2d_1116 (Conv2D)         (None, 16, 16, 1024)      295936    
_________________________________________________________________
batch_normalization_796 (Bat (None, 16, 16, 1024)      4096      
_________________________________________________________________
activation_1635 (Activation) (None, 16, 16, 1024)      0         
_________________________________________________________________
dropout_1635 (Dropout)       (None, 16, 16, 1024)      0         
_________________________________________________________________
flatten_228 (Flatten)        (None, 262144)            0         
_________________________________________________________________
dense_747 (Dense)            (None, 256)               67109120  
_________________________________________________________________
activation_1636 (Activation) (None, 256)               0         
_________________________________________________________________
dropout_1636 (Dropout)       (None, 256)               0         
_________________________________________________________________
dense_748 (Dense)            (None, 512)               131584    
_________________________________________________________________
batch_normalization_797 (Bat (None, 512)               2048      
_________________________________________________________________
activation_1637 (Activation) (None, 512)               0         
_________________________________________________________________
dropout_1637 (Dropout)       (None, 512)               0         
_________________________________________________________________
dense_749 (Dense)            (None, 10)                5130      
=================================================================
Total params: 67,604,330
Trainable params: 67,601,002
Non-trainable params: 3,328
_________________________________________________________________
