Model: "sequential_330"
_________________________________________________________________
Layer (type)                 Output Shape              Param #   
=================================================================
conv2d_1503 (Conv2D)         (None, 32, 32, 16)        448       
_________________________________________________________________
activation_2194 (Activation) (None, 32, 32, 16)        0         
_________________________________________________________________
dropout_2194 (Dropout)       (None, 32, 32, 16)        0         
_________________________________________________________________
conv2d_1504 (Conv2D)         (None, 32, 32, 128)       18560     
_________________________________________________________________
activation_2195 (Activation) (None, 32, 32, 128)       0         
_________________________________________________________________
dropout_2195 (Dropout)       (None, 32, 32, 128)       0         
_________________________________________________________________
conv2d_1505 (Conv2D)         (None, 32, 32, 1024)      1180672   
_________________________________________________________________
activation_2196 (Activation) (None, 32, 32, 1024)      0         
_________________________________________________________________
dropout_2196 (Dropout)       (None, 32, 32, 1024)      0         
_________________________________________________________________
max_pooling2d_306 (MaxPoolin (None, 16, 16, 1024)      0         
_________________________________________________________________
conv2d_1506 (Conv2D)         (None, 16, 16, 1024)      9438208   
_________________________________________________________________
batch_normalization_1107 (Ba (None, 16, 16, 1024)      4096      
_________________________________________________________________
activation_2197 (Activation) (None, 16, 16, 1024)      0         
_________________________________________________________________
dropout_2197 (Dropout)       (None, 16, 16, 1024)      0         
_________________________________________________________________
flatten_330 (Flatten)        (None, 262144)            0         
_________________________________________________________________
dense_1021 (Dense)           (None, 256)               67109120  
_________________________________________________________________
activation_2198 (Activation) (None, 256)               0         
_________________________________________________________________
dropout_2198 (Dropout)       (None, 256)               0         
_________________________________________________________________
dense_1022 (Dense)           (None, 512)               131584    
_________________________________________________________________
batch_normalization_1108 (Ba (None, 512)               2048      
_________________________________________________________________
activation_2199 (Activation) (None, 512)               0         
_________________________________________________________________
dropout_2199 (Dropout)       (None, 512)               0         
_________________________________________________________________
dense_1023 (Dense)           (None, 10)                5130      
=================================================================
Total params: 77,889,866
Trainable params: 77,886,794
Non-trainable params: 3,072
_________________________________________________________________
