Model: "sequential_306"
_________________________________________________________________
Layer (type)                 Output Shape              Param #   
=================================================================
conv2d_1408 (Conv2D)         (None, 32, 32, 16)        448       
_________________________________________________________________
batch_normalization_1036 (Ba (None, 32, 32, 16)        64        
_________________________________________________________________
activation_2065 (Activation) (None, 32, 32, 16)        0         
_________________________________________________________________
dropout_2065 (Dropout)       (None, 32, 32, 16)        0         
_________________________________________________________________
conv2d_1409 (Conv2D)         (None, 32, 32, 8)         1160      
_________________________________________________________________
batch_normalization_1037 (Ba (None, 32, 32, 8)         32        
_________________________________________________________________
activation_2066 (Activation) (None, 32, 32, 8)         0         
_________________________________________________________________
dropout_2066 (Dropout)       (None, 32, 32, 8)         0         
_________________________________________________________________
max_pooling2d_278 (MaxPoolin (None, 16, 16, 8)         0         
_________________________________________________________________
conv2d_1410 (Conv2D)         (None, 16, 16, 256)       18688     
_________________________________________________________________
activation_2067 (Activation) (None, 16, 16, 256)       0         
_________________________________________________________________
dropout_2067 (Dropout)       (None, 16, 16, 256)       0         
_________________________________________________________________
max_pooling2d_279 (MaxPoolin (None, 8, 8, 256)         0         
_________________________________________________________________
conv2d_1411 (Conv2D)         (None, 8, 8, 1024)        2360320   
_________________________________________________________________
batch_normalization_1038 (Ba (None, 8, 8, 1024)        4096      
_________________________________________________________________
activation_2068 (Activation) (None, 8, 8, 1024)        0         
_________________________________________________________________
dropout_2068 (Dropout)       (None, 8, 8, 1024)        0         
_________________________________________________________________
flatten_306 (Flatten)        (None, 65536)             0         
_________________________________________________________________
dense_963 (Dense)            (None, 256)               16777472  
_________________________________________________________________
activation_2069 (Activation) (None, 256)               0         
_________________________________________________________________
dropout_2069 (Dropout)       (None, 256)               0         
_________________________________________________________________
dense_964 (Dense)            (None, 10)                2570      
=================================================================
Total params: 19,164,850
Trainable params: 19,162,754
Non-trainable params: 2,096
_________________________________________________________________
