Model: "sequential_116"
_________________________________________________________________
Layer (type)                 Output Shape              Param #   
=================================================================
conv2d_664 (Conv2D)          (None, 32, 32, 1024)      28672     
_________________________________________________________________
activation_961 (Activation)  (None, 32, 32, 1024)      0         
_________________________________________________________________
dropout_961 (Dropout)        (None, 32, 32, 1024)      0         
_________________________________________________________________
conv2d_665 (Conv2D)          (None, 32, 32, 16)        147472    
_________________________________________________________________
batch_normalization_459 (Bat (None, 32, 32, 16)        64        
_________________________________________________________________
activation_962 (Activation)  (None, 32, 32, 16)        0         
_________________________________________________________________
dropout_962 (Dropout)        (None, 32, 32, 16)        0         
_________________________________________________________________
conv2d_666 (Conv2D)          (None, 32, 32, 32)        4640      
_________________________________________________________________
activation_963 (Activation)  (None, 32, 32, 32)        0         
_________________________________________________________________
dropout_963 (Dropout)        (None, 32, 32, 32)        0         
_________________________________________________________________
conv2d_667 (Conv2D)          (None, 32, 32, 16)        4624      
_________________________________________________________________
activation_964 (Activation)  (None, 32, 32, 16)        0         
_________________________________________________________________
dropout_964 (Dropout)        (None, 32, 32, 16)        0         
_________________________________________________________________
conv2d_668 (Conv2D)          (None, 32, 32, 1024)      148480    
_________________________________________________________________
batch_normalization_460 (Bat (None, 32, 32, 1024)      4096      
_________________________________________________________________
activation_965 (Activation)  (None, 32, 32, 1024)      0         
_________________________________________________________________
dropout_965 (Dropout)        (None, 32, 32, 1024)      0         
_________________________________________________________________
flatten_116 (Flatten)        (None, 1048576)           0         
_________________________________________________________________
dense_413 (Dense)            (None, 256)               268435712 
_________________________________________________________________
activation_966 (Activation)  (None, 256)               0         
_________________________________________________________________
dropout_966 (Dropout)        (None, 256)               0         
_________________________________________________________________
dense_414 (Dense)            (None, 512)               131584    
_________________________________________________________________
batch_normalization_461 (Bat (None, 512)               2048      
_________________________________________________________________
activation_967 (Activation)  (None, 512)               0         
_________________________________________________________________
dropout_967 (Dropout)        (None, 512)               0         
_________________________________________________________________
dense_415 (Dense)            (None, 10)                5130      
=================================================================
Total params: 268,912,522
Trainable params: 268,909,418
Non-trainable params: 3,104
_________________________________________________________________
