Model: "sequential_5"
_________________________________________________________________
Layer (type)                 Output Shape              Param #   
=================================================================
conv2d_42 (Conv2D)           (None, 32, 32, 8)         224       
_________________________________________________________________
activation_60 (Activation)   (None, 32, 32, 8)         0         
_________________________________________________________________
dropout_60 (Dropout)         (None, 32, 32, 8)         0         
_________________________________________________________________
conv2d_43 (Conv2D)           (None, 32, 32, 16)        1168      
_________________________________________________________________
activation_61 (Activation)   (None, 32, 32, 16)        0         
_________________________________________________________________
dropout_61 (Dropout)         (None, 32, 32, 16)        0         
_________________________________________________________________
max_pooling2d_9 (MaxPooling2 (None, 16, 16, 16)        0         
_________________________________________________________________
conv2d_44 (Conv2D)           (None, 16, 16, 64)        9280      
_________________________________________________________________
batch_normalization_31 (Batc (None, 16, 16, 64)        256       
_________________________________________________________________
activation_62 (Activation)   (None, 16, 16, 64)        0         
_________________________________________________________________
dropout_62 (Dropout)         (None, 16, 16, 64)        0         
_________________________________________________________________
conv2d_45 (Conv2D)           (None, 16, 16, 32)        18464     
_________________________________________________________________
activation_63 (Activation)   (None, 16, 16, 32)        0         
_________________________________________________________________
dropout_63 (Dropout)         (None, 16, 16, 32)        0         
_________________________________________________________________
conv2d_46 (Conv2D)           (None, 16, 16, 16)        4624      
_________________________________________________________________
activation_64 (Activation)   (None, 16, 16, 16)        0         
_________________________________________________________________
dropout_64 (Dropout)         (None, 16, 16, 16)        0         
_________________________________________________________________
max_pooling2d_10 (MaxPooling (None, 8, 8, 16)          0         
_________________________________________________________________
flatten_5 (Flatten)          (None, 1024)              0         
_________________________________________________________________
dense_23 (Dense)             (None, 32)                32800     
_________________________________________________________________
batch_normalization_32 (Batc (None, 32)                128       
_________________________________________________________________
activation_65 (Activation)   (None, 32)                0         
_________________________________________________________________
dropout_65 (Dropout)         (None, 32)                0         
_________________________________________________________________
dense_24 (Dense)             (None, 16)                528       
_________________________________________________________________
activation_66 (Activation)   (None, 16)                0         
_________________________________________________________________
dropout_66 (Dropout)         (None, 16)                0         
_________________________________________________________________
dense_25 (Dense)             (None, 128)               2176      
_________________________________________________________________
activation_67 (Activation)   (None, 128)               0         
_________________________________________________________________
dropout_67 (Dropout)         (None, 128)               0         
_________________________________________________________________
dense_26 (Dense)             (None, 10)                1290      
=================================================================
Total params: 70,938
Trainable params: 70,746
Non-trainable params: 192
_________________________________________________________________
