Model: "sequential_280"
_________________________________________________________________
Layer (type)                 Output Shape              Param #   
=================================================================
conv2d_1311 (Conv2D)         (None, 32, 32, 16)        448       
_________________________________________________________________
activation_1929 (Activation) (None, 32, 32, 16)        0         
_________________________________________________________________
dropout_1929 (Dropout)       (None, 32, 32, 16)        0         
_________________________________________________________________
conv2d_1312 (Conv2D)         (None, 32, 32, 8)         1160      
_________________________________________________________________
batch_normalization_968 (Bat (None, 32, 32, 8)         32        
_________________________________________________________________
activation_1930 (Activation) (None, 32, 32, 8)         0         
_________________________________________________________________
dropout_1930 (Dropout)       (None, 32, 32, 8)         0         
_________________________________________________________________
max_pooling2d_253 (MaxPoolin (None, 16, 16, 8)         0         
_________________________________________________________________
conv2d_1313 (Conv2D)         (None, 16, 16, 32)        2336      
_________________________________________________________________
activation_1931 (Activation) (None, 16, 16, 32)        0         
_________________________________________________________________
dropout_1931 (Dropout)       (None, 16, 16, 32)        0         
_________________________________________________________________
conv2d_1314 (Conv2D)         (None, 16, 16, 1024)      295936    
_________________________________________________________________
batch_normalization_969 (Bat (None, 16, 16, 1024)      4096      
_________________________________________________________________
activation_1932 (Activation) (None, 16, 16, 1024)      0         
_________________________________________________________________
dropout_1932 (Dropout)       (None, 16, 16, 1024)      0         
_________________________________________________________________
flatten_280 (Flatten)        (None, 262144)            0         
_________________________________________________________________
dense_898 (Dense)            (None, 256)               67109120  
_________________________________________________________________
activation_1933 (Activation) (None, 256)               0         
_________________________________________________________________
dropout_1933 (Dropout)       (None, 256)               0         
_________________________________________________________________
dense_899 (Dense)            (None, 512)               131584    
_________________________________________________________________
batch_normalization_970 (Bat (None, 512)               2048      
_________________________________________________________________
activation_1934 (Activation) (None, 512)               0         
_________________________________________________________________
dropout_1934 (Dropout)       (None, 512)               0         
_________________________________________________________________
dense_900 (Dense)            (None, 10)                5130      
=================================================================
Total params: 67,551,890
Trainable params: 67,548,802
Non-trainable params: 3,088
_________________________________________________________________
