Model: "sequential_303"
_________________________________________________________________
Layer (type)                 Output Shape              Param #   
=================================================================
conv2d_1397 (Conv2D)         (None, 32, 32, 128)       3584      
_________________________________________________________________
activation_2051 (Activation) (None, 32, 32, 128)       0         
_________________________________________________________________
dropout_2051 (Dropout)       (None, 32, 32, 128)       0         
_________________________________________________________________
conv2d_1398 (Conv2D)         (None, 32, 32, 128)       147584    
_________________________________________________________________
batch_normalization_1028 (Ba (None, 32, 32, 128)       512       
_________________________________________________________________
activation_2052 (Activation) (None, 32, 32, 128)       0         
_________________________________________________________________
dropout_2052 (Dropout)       (None, 32, 32, 128)       0         
_________________________________________________________________
conv2d_1399 (Conv2D)         (None, 32, 32, 32)        36896     
_________________________________________________________________
activation_2053 (Activation) (None, 32, 32, 32)        0         
_________________________________________________________________
dropout_2053 (Dropout)       (None, 32, 32, 32)        0         
_________________________________________________________________
max_pooling2d_275 (MaxPoolin (None, 16, 16, 32)        0         
_________________________________________________________________
conv2d_1400 (Conv2D)         (None, 16, 16, 1024)      295936    
_________________________________________________________________
batch_normalization_1029 (Ba (None, 16, 16, 1024)      4096      
_________________________________________________________________
activation_2054 (Activation) (None, 16, 16, 1024)      0         
_________________________________________________________________
dropout_2054 (Dropout)       (None, 16, 16, 1024)      0         
_________________________________________________________________
flatten_303 (Flatten)        (None, 262144)            0         
_________________________________________________________________
dense_957 (Dense)            (None, 512)               134218240 
_________________________________________________________________
batch_normalization_1030 (Ba (None, 512)               2048      
_________________________________________________________________
activation_2055 (Activation) (None, 512)               0         
_________________________________________________________________
dropout_2055 (Dropout)       (None, 512)               0         
_________________________________________________________________
dense_958 (Dense)            (None, 10)                5130      
=================================================================
Total params: 134,714,026
Trainable params: 134,710,698
Non-trainable params: 3,328
_________________________________________________________________
