Model: "sequential_189"
_________________________________________________________________
Layer (type)                 Output Shape              Param #   
=================================================================
conv2d_960 (Conv2D)          (None, 32, 32, 16)        448       
_________________________________________________________________
activation_1409 (Activation) (None, 32, 32, 16)        0         
_________________________________________________________________
dropout_1409 (Dropout)       (None, 32, 32, 16)        0         
_________________________________________________________________
conv2d_961 (Conv2D)          (None, 32, 32, 128)       18560     
_________________________________________________________________
batch_normalization_684 (Bat (None, 32, 32, 128)       512       
_________________________________________________________________
activation_1410 (Activation) (None, 32, 32, 128)       0         
_________________________________________________________________
dropout_1410 (Dropout)       (None, 32, 32, 128)       0         
_________________________________________________________________
max_pooling2d_166 (MaxPoolin (None, 16, 16, 128)       0         
_________________________________________________________________
conv2d_962 (Conv2D)          (None, 16, 16, 32)        36896     
_________________________________________________________________
activation_1411 (Activation) (None, 16, 16, 32)        0         
_________________________________________________________________
dropout_1411 (Dropout)       (None, 16, 16, 32)        0         
_________________________________________________________________
conv2d_963 (Conv2D)          (None, 16, 16, 1024)      295936    
_________________________________________________________________
batch_normalization_685 (Bat (None, 16, 16, 1024)      4096      
_________________________________________________________________
activation_1412 (Activation) (None, 16, 16, 1024)      0         
_________________________________________________________________
dropout_1412 (Dropout)       (None, 16, 16, 1024)      0         
_________________________________________________________________
flatten_189 (Flatten)        (None, 262144)            0         
_________________________________________________________________
dense_638 (Dense)            (None, 16)                4194320   
_________________________________________________________________
activation_1413 (Activation) (None, 16)                0         
_________________________________________________________________
dropout_1413 (Dropout)       (None, 16)                0         
_________________________________________________________________
dense_639 (Dense)            (None, 512)               8704      
_________________________________________________________________
batch_normalization_686 (Bat (None, 512)               2048      
_________________________________________________________________
activation_1414 (Activation) (None, 512)               0         
_________________________________________________________________
dropout_1414 (Dropout)       (None, 512)               0         
_________________________________________________________________
dense_640 (Dense)            (None, 10)                5130      
=================================================================
Total params: 4,566,650
Trainable params: 4,563,322
Non-trainable params: 3,328
_________________________________________________________________
