Model: "sequential_270"
_________________________________________________________________
Layer (type)                 Output Shape              Param #   
=================================================================
conv2d_1274 (Conv2D)         (None, 32, 32, 16)        448       
_________________________________________________________________
activation_1873 (Activation) (None, 32, 32, 16)        0         
_________________________________________________________________
dropout_1873 (Dropout)       (None, 32, 32, 16)        0         
_________________________________________________________________
conv2d_1275 (Conv2D)         (None, 32, 32, 128)       18560     
_________________________________________________________________
batch_normalization_937 (Bat (None, 32, 32, 128)       512       
_________________________________________________________________
activation_1874 (Activation) (None, 32, 32, 128)       0         
_________________________________________________________________
dropout_1874 (Dropout)       (None, 32, 32, 128)       0         
_________________________________________________________________
max_pooling2d_245 (MaxPoolin (None, 16, 16, 128)       0         
_________________________________________________________________
conv2d_1276 (Conv2D)         (None, 16, 16, 32)        36896     
_________________________________________________________________
activation_1875 (Activation) (None, 16, 16, 32)        0         
_________________________________________________________________
dropout_1875 (Dropout)       (None, 16, 16, 32)        0         
_________________________________________________________________
flatten_270 (Flatten)        (None, 8192)              0         
_________________________________________________________________
dense_869 (Dense)            (None, 256)               2097408   
_________________________________________________________________
batch_normalization_938 (Bat (None, 256)               1024      
_________________________________________________________________
activation_1876 (Activation) (None, 256)               0         
_________________________________________________________________
dropout_1876 (Dropout)       (None, 256)               0         
_________________________________________________________________
dense_870 (Dense)            (None, 512)               131584    
_________________________________________________________________
batch_normalization_939 (Bat (None, 512)               2048      
_________________________________________________________________
activation_1877 (Activation) (None, 512)               0         
_________________________________________________________________
dropout_1877 (Dropout)       (None, 512)               0         
_________________________________________________________________
dense_871 (Dense)            (None, 10)                5130      
=================================================================
Total params: 2,293,610
Trainable params: 2,291,818
Non-trainable params: 1,792
_________________________________________________________________
