Model: "sequential_341"
_________________________________________________________________
Layer (type)                 Output Shape              Param #   
=================================================================
conv2d_1547 (Conv2D)         (None, 32, 32, 16)        448       
_________________________________________________________________
activation_2254 (Activation) (None, 32, 32, 16)        0         
_________________________________________________________________
dropout_2254 (Dropout)       (None, 32, 32, 16)        0         
_________________________________________________________________
conv2d_1548 (Conv2D)         (None, 32, 32, 128)       18560     
_________________________________________________________________
activation_2255 (Activation) (None, 32, 32, 128)       0         
_________________________________________________________________
dropout_2255 (Dropout)       (None, 32, 32, 128)       0         
_________________________________________________________________
conv2d_1549 (Conv2D)         (None, 32, 32, 1024)      1180672   
_________________________________________________________________
activation_2256 (Activation) (None, 32, 32, 1024)      0         
_________________________________________________________________
dropout_2256 (Dropout)       (None, 32, 32, 1024)      0         
_________________________________________________________________
max_pooling2d_315 (MaxPoolin (None, 16, 16, 1024)      0         
_________________________________________________________________
conv2d_1550 (Conv2D)         (None, 16, 16, 1024)      9438208   
_________________________________________________________________
batch_normalization_1140 (Ba (None, 16, 16, 1024)      4096      
_________________________________________________________________
activation_2257 (Activation) (None, 16, 16, 1024)      0         
_________________________________________________________________
dropout_2257 (Dropout)       (None, 16, 16, 1024)      0         
_________________________________________________________________
flatten_341 (Flatten)        (None, 262144)            0         
_________________________________________________________________
dense_1048 (Dense)           (None, 512)               134218240 
_________________________________________________________________
batch_normalization_1141 (Ba (None, 512)               2048      
_________________________________________________________________
activation_2258 (Activation) (None, 512)               0         
_________________________________________________________________
dropout_2258 (Dropout)       (None, 512)               0         
_________________________________________________________________
dense_1049 (Dense)           (None, 10)                5130      
=================================================================
Total params: 144,867,402
Trainable params: 144,864,330
Non-trainable params: 3,072
_________________________________________________________________
