Model: "sequential_67"
_________________________________________________________________
Layer (type)                 Output Shape              Param #   
=================================================================
conv2d_423 (Conv2D)          (None, 32, 32, 16)        448       
_________________________________________________________________
activation_590 (Activation)  (None, 32, 32, 16)        0         
_________________________________________________________________
dropout_590 (Dropout)        (None, 32, 32, 16)        0         
_________________________________________________________________
conv2d_424 (Conv2D)          (None, 32, 32, 128)       18560     
_________________________________________________________________
batch_normalization_289 (Bat (None, 32, 32, 128)       512       
_________________________________________________________________
activation_591 (Activation)  (None, 32, 32, 128)       0         
_________________________________________________________________
dropout_591 (Dropout)        (None, 32, 32, 128)       0         
_________________________________________________________________
max_pooling2d_78 (MaxPooling (None, 16, 16, 128)       0         
_________________________________________________________________
conv2d_425 (Conv2D)          (None, 16, 16, 32)        36896     
_________________________________________________________________
activation_592 (Activation)  (None, 16, 16, 32)        0         
_________________________________________________________________
dropout_592 (Dropout)        (None, 16, 16, 32)        0         
_________________________________________________________________
conv2d_426 (Conv2D)          (None, 16, 16, 16)        4624      
_________________________________________________________________
activation_593 (Activation)  (None, 16, 16, 16)        0         
_________________________________________________________________
dropout_593 (Dropout)        (None, 16, 16, 16)        0         
_________________________________________________________________
conv2d_427 (Conv2D)          (None, 16, 16, 64)        9280      
_________________________________________________________________
activation_594 (Activation)  (None, 16, 16, 64)        0         
_________________________________________________________________
dropout_594 (Dropout)        (None, 16, 16, 64)        0         
_________________________________________________________________
conv2d_428 (Conv2D)          (None, 16, 16, 32)        18464     
_________________________________________________________________
batch_normalization_290 (Bat (None, 16, 16, 32)        128       
_________________________________________________________________
activation_595 (Activation)  (None, 16, 16, 32)        0         
_________________________________________________________________
dropout_595 (Dropout)        (None, 16, 16, 32)        0         
_________________________________________________________________
flatten_67 (Flatten)         (None, 8192)              0         
_________________________________________________________________
dense_234 (Dense)            (None, 32)                262176    
_________________________________________________________________
batch_normalization_291 (Bat (None, 32)                128       
_________________________________________________________________
activation_596 (Activation)  (None, 32)                0         
_________________________________________________________________
dropout_596 (Dropout)        (None, 32)                0         
_________________________________________________________________
dense_235 (Dense)            (None, 256)               8448      
_________________________________________________________________
activation_597 (Activation)  (None, 256)               0         
_________________________________________________________________
dropout_597 (Dropout)        (None, 256)               0         
_________________________________________________________________
dense_236 (Dense)            (None, 512)               131584    
_________________________________________________________________
batch_normalization_292 (Bat (None, 512)               2048      
_________________________________________________________________
activation_598 (Activation)  (None, 512)               0         
_________________________________________________________________
dropout_598 (Dropout)        (None, 512)               0         
_________________________________________________________________
dense_237 (Dense)            (None, 10)                5130      
=================================================================
Total params: 498,426
Trainable params: 497,018
Non-trainable params: 1,408
_________________________________________________________________
