Model: "sequential_182"
_________________________________________________________________
Layer (type)                 Output Shape              Param #   
=================================================================
conv2d_932 (Conv2D)          (None, 32, 32, 16)        448       
_________________________________________________________________
activation_1367 (Activation) (None, 32, 32, 16)        0         
_________________________________________________________________
dropout_1367 (Dropout)       (None, 32, 32, 16)        0         
_________________________________________________________________
conv2d_933 (Conv2D)          (None, 32, 32, 128)       18560     
_________________________________________________________________
batch_normalization_663 (Bat (None, 32, 32, 128)       512       
_________________________________________________________________
activation_1368 (Activation) (None, 32, 32, 128)       0         
_________________________________________________________________
dropout_1368 (Dropout)       (None, 32, 32, 128)       0         
_________________________________________________________________
max_pooling2d_159 (MaxPoolin (None, 16, 16, 128)       0         
_________________________________________________________________
conv2d_934 (Conv2D)          (None, 16, 16, 32)        36896     
_________________________________________________________________
activation_1369 (Activation) (None, 16, 16, 32)        0         
_________________________________________________________________
dropout_1369 (Dropout)       (None, 16, 16, 32)        0         
_________________________________________________________________
conv2d_935 (Conv2D)          (None, 16, 16, 1024)      295936    
_________________________________________________________________
batch_normalization_664 (Bat (None, 16, 16, 1024)      4096      
_________________________________________________________________
activation_1370 (Activation) (None, 16, 16, 1024)      0         
_________________________________________________________________
dropout_1370 (Dropout)       (None, 16, 16, 1024)      0         
_________________________________________________________________
flatten_182 (Flatten)        (None, 262144)            0         
_________________________________________________________________
dense_617 (Dense)            (None, 16)                4194320   
_________________________________________________________________
activation_1371 (Activation) (None, 16)                0         
_________________________________________________________________
dropout_1371 (Dropout)       (None, 16)                0         
_________________________________________________________________
dense_618 (Dense)            (None, 512)               8704      
_________________________________________________________________
batch_normalization_665 (Bat (None, 512)               2048      
_________________________________________________________________
activation_1372 (Activation) (None, 512)               0         
_________________________________________________________________
dropout_1372 (Dropout)       (None, 512)               0         
_________________________________________________________________
dense_619 (Dense)            (None, 10)                5130      
=================================================================
Total params: 4,566,650
Trainable params: 4,563,322
Non-trainable params: 3,328
_________________________________________________________________
