Model: "sequential_265"
_________________________________________________________________
Layer (type)                 Output Shape              Param #   
=================================================================
conv2d_1256 (Conv2D)         (None, 32, 32, 16)        448       
_________________________________________________________________
activation_1845 (Activation) (None, 32, 32, 16)        0         
_________________________________________________________________
dropout_1845 (Dropout)       (None, 32, 32, 16)        0         
_________________________________________________________________
conv2d_1257 (Conv2D)         (None, 32, 32, 8)         1160      
_________________________________________________________________
batch_normalization_922 (Bat (None, 32, 32, 8)         32        
_________________________________________________________________
activation_1846 (Activation) (None, 32, 32, 8)         0         
_________________________________________________________________
dropout_1846 (Dropout)       (None, 32, 32, 8)         0         
_________________________________________________________________
max_pooling2d_242 (MaxPoolin (None, 16, 16, 8)         0         
_________________________________________________________________
conv2d_1258 (Conv2D)         (None, 16, 16, 32)        2336      
_________________________________________________________________
activation_1847 (Activation) (None, 16, 16, 32)        0         
_________________________________________________________________
dropout_1847 (Dropout)       (None, 16, 16, 32)        0         
_________________________________________________________________
conv2d_1259 (Conv2D)         (None, 16, 16, 1024)      295936    
_________________________________________________________________
batch_normalization_923 (Bat (None, 16, 16, 1024)      4096      
_________________________________________________________________
activation_1848 (Activation) (None, 16, 16, 1024)      0         
_________________________________________________________________
dropout_1848 (Dropout)       (None, 16, 16, 1024)      0         
_________________________________________________________________
flatten_265 (Flatten)        (None, 262144)            0         
_________________________________________________________________
dense_854 (Dense)            (None, 256)               67109120  
_________________________________________________________________
activation_1849 (Activation) (None, 256)               0         
_________________________________________________________________
dropout_1849 (Dropout)       (None, 256)               0         
_________________________________________________________________
dense_855 (Dense)            (None, 512)               131584    
_________________________________________________________________
batch_normalization_924 (Bat (None, 512)               2048      
_________________________________________________________________
activation_1850 (Activation) (None, 512)               0         
_________________________________________________________________
dropout_1850 (Dropout)       (None, 512)               0         
_________________________________________________________________
dense_856 (Dense)            (None, 10)                5130      
=================================================================
Total params: 67,551,890
Trainable params: 67,548,802
Non-trainable params: 3,088
_________________________________________________________________
