Model: "sequential_198"
_________________________________________________________________
Layer (type)                 Output Shape              Param #   
=================================================================
conv2d_995 (Conv2D)          (None, 32, 32, 16)        448       
_________________________________________________________________
activation_1462 (Activation) (None, 32, 32, 16)        0         
_________________________________________________________________
dropout_1462 (Dropout)       (None, 32, 32, 16)        0         
_________________________________________________________________
conv2d_996 (Conv2D)          (None, 32, 32, 128)       18560     
_________________________________________________________________
batch_normalization_710 (Bat (None, 32, 32, 128)       512       
_________________________________________________________________
activation_1463 (Activation) (None, 32, 32, 128)       0         
_________________________________________________________________
dropout_1463 (Dropout)       (None, 32, 32, 128)       0         
_________________________________________________________________
max_pooling2d_175 (MaxPoolin (None, 16, 16, 128)       0         
_________________________________________________________________
conv2d_997 (Conv2D)          (None, 16, 16, 32)        36896     
_________________________________________________________________
activation_1464 (Activation) (None, 16, 16, 32)        0         
_________________________________________________________________
dropout_1464 (Dropout)       (None, 16, 16, 32)        0         
_________________________________________________________________
conv2d_998 (Conv2D)          (None, 16, 16, 1024)      295936    
_________________________________________________________________
batch_normalization_711 (Bat (None, 16, 16, 1024)      4096      
_________________________________________________________________
activation_1465 (Activation) (None, 16, 16, 1024)      0         
_________________________________________________________________
dropout_1465 (Dropout)       (None, 16, 16, 1024)      0         
_________________________________________________________________
flatten_198 (Flatten)        (None, 262144)            0         
_________________________________________________________________
dense_665 (Dense)            (None, 256)               67109120  
_________________________________________________________________
activation_1466 (Activation) (None, 256)               0         
_________________________________________________________________
dropout_1466 (Dropout)       (None, 256)               0         
_________________________________________________________________
dense_666 (Dense)            (None, 512)               131584    
_________________________________________________________________
batch_normalization_712 (Bat (None, 512)               2048      
_________________________________________________________________
activation_1467 (Activation) (None, 512)               0         
_________________________________________________________________
dropout_1467 (Dropout)       (None, 512)               0         
_________________________________________________________________
dense_667 (Dense)            (None, 10)                5130      
=================================================================
Total params: 67,604,330
Trainable params: 67,601,002
Non-trainable params: 3,328
_________________________________________________________________
