Model: "sequential_155"
_________________________________________________________________
Layer (type)                 Output Shape              Param #   
=================================================================
conv2d_824 (Conv2D)          (None, 32, 32, 16)        448       
_________________________________________________________________
activation_1205 (Activation) (None, 32, 32, 16)        0         
_________________________________________________________________
dropout_1205 (Dropout)       (None, 32, 32, 16)        0         
_________________________________________________________________
conv2d_825 (Conv2D)          (None, 32, 32, 128)       18560     
_________________________________________________________________
batch_normalization_582 (Bat (None, 32, 32, 128)       512       
_________________________________________________________________
activation_1206 (Activation) (None, 32, 32, 128)       0         
_________________________________________________________________
dropout_1206 (Dropout)       (None, 32, 32, 128)       0         
_________________________________________________________________
max_pooling2d_132 (MaxPoolin (None, 16, 16, 128)       0         
_________________________________________________________________
conv2d_826 (Conv2D)          (None, 16, 16, 32)        36896     
_________________________________________________________________
activation_1207 (Activation) (None, 16, 16, 32)        0         
_________________________________________________________________
dropout_1207 (Dropout)       (None, 16, 16, 32)        0         
_________________________________________________________________
conv2d_827 (Conv2D)          (None, 16, 16, 128)       36992     
_________________________________________________________________
batch_normalization_583 (Bat (None, 16, 16, 128)       512       
_________________________________________________________________
activation_1208 (Activation) (None, 16, 16, 128)       0         
_________________________________________________________________
dropout_1208 (Dropout)       (None, 16, 16, 128)       0         
_________________________________________________________________
flatten_155 (Flatten)        (None, 32768)             0         
_________________________________________________________________
dense_536 (Dense)            (None, 256)               8388864   
_________________________________________________________________
activation_1209 (Activation) (None, 256)               0         
_________________________________________________________________
dropout_1209 (Dropout)       (None, 256)               0         
_________________________________________________________________
dense_537 (Dense)            (None, 512)               131584    
_________________________________________________________________
batch_normalization_584 (Bat (None, 512)               2048      
_________________________________________________________________
activation_1210 (Activation) (None, 512)               0         
_________________________________________________________________
dropout_1210 (Dropout)       (None, 512)               0         
_________________________________________________________________
dense_538 (Dense)            (None, 10)                5130      
=================================================================
Total params: 8,621,546
Trainable params: 8,620,010
Non-trainable params: 1,536
_________________________________________________________________
