Model: "sequential_174"
_________________________________________________________________
Layer (type)                 Output Shape              Param #   
=================================================================
conv2d_900 (Conv2D)          (None, 32, 32, 16)        448       
_________________________________________________________________
activation_1319 (Activation) (None, 32, 32, 16)        0         
_________________________________________________________________
dropout_1319 (Dropout)       (None, 32, 32, 16)        0         
_________________________________________________________________
conv2d_901 (Conv2D)          (None, 32, 32, 128)       18560     
_________________________________________________________________
batch_normalization_639 (Bat (None, 32, 32, 128)       512       
_________________________________________________________________
activation_1320 (Activation) (None, 32, 32, 128)       0         
_________________________________________________________________
dropout_1320 (Dropout)       (None, 32, 32, 128)       0         
_________________________________________________________________
max_pooling2d_151 (MaxPoolin (None, 16, 16, 128)       0         
_________________________________________________________________
conv2d_902 (Conv2D)          (None, 16, 16, 32)        36896     
_________________________________________________________________
activation_1321 (Activation) (None, 16, 16, 32)        0         
_________________________________________________________________
dropout_1321 (Dropout)       (None, 16, 16, 32)        0         
_________________________________________________________________
conv2d_903 (Conv2D)          (None, 16, 16, 128)       36992     
_________________________________________________________________
batch_normalization_640 (Bat (None, 16, 16, 128)       512       
_________________________________________________________________
activation_1322 (Activation) (None, 16, 16, 128)       0         
_________________________________________________________________
dropout_1322 (Dropout)       (None, 16, 16, 128)       0         
_________________________________________________________________
flatten_174 (Flatten)        (None, 32768)             0         
_________________________________________________________________
dense_593 (Dense)            (None, 256)               8388864   
_________________________________________________________________
activation_1323 (Activation) (None, 256)               0         
_________________________________________________________________
dropout_1323 (Dropout)       (None, 256)               0         
_________________________________________________________________
dense_594 (Dense)            (None, 512)               131584    
_________________________________________________________________
batch_normalization_641 (Bat (None, 512)               2048      
_________________________________________________________________
activation_1324 (Activation) (None, 512)               0         
_________________________________________________________________
dropout_1324 (Dropout)       (None, 512)               0         
_________________________________________________________________
dense_595 (Dense)            (None, 10)                5130      
=================================================================
Total params: 8,621,546
Trainable params: 8,620,010
Non-trainable params: 1,536
_________________________________________________________________
