Model: "sequential_359"
_________________________________________________________________
Layer (type)                 Output Shape              Param #   
=================================================================
conv2d_1619 (Conv2D)         (None, 32, 32, 16)        448       
_________________________________________________________________
activation_2357 (Activation) (None, 32, 32, 16)        0         
_________________________________________________________________
dropout_2357 (Dropout)       (None, 32, 32, 16)        0         
_________________________________________________________________
conv2d_1620 (Conv2D)         (None, 32, 32, 128)       18560     
_________________________________________________________________
batch_normalization_1190 (Ba (None, 32, 32, 128)       512       
_________________________________________________________________
activation_2358 (Activation) (None, 32, 32, 128)       0         
_________________________________________________________________
dropout_2358 (Dropout)       (None, 32, 32, 128)       0         
_________________________________________________________________
conv2d_1621 (Conv2D)         (None, 32, 32, 1024)      1180672   
_________________________________________________________________
activation_2359 (Activation) (None, 32, 32, 1024)      0         
_________________________________________________________________
dropout_2359 (Dropout)       (None, 32, 32, 1024)      0         
_________________________________________________________________
max_pooling2d_336 (MaxPoolin (None, 16, 16, 1024)      0         
_________________________________________________________________
conv2d_1622 (Conv2D)         (None, 16, 16, 1024)      9438208   
_________________________________________________________________
batch_normalization_1191 (Ba (None, 16, 16, 1024)      4096      
_________________________________________________________________
activation_2360 (Activation) (None, 16, 16, 1024)      0         
_________________________________________________________________
dropout_2360 (Dropout)       (None, 16, 16, 1024)      0         
_________________________________________________________________
flatten_359 (Flatten)        (None, 262144)            0         
_________________________________________________________________
dense_1097 (Dense)           (None, 256)               67109120  
_________________________________________________________________
activation_2361 (Activation) (None, 256)               0         
_________________________________________________________________
dropout_2361 (Dropout)       (None, 256)               0         
_________________________________________________________________
dense_1098 (Dense)           (None, 512)               131584    
_________________________________________________________________
batch_normalization_1192 (Ba (None, 512)               2048      
_________________________________________________________________
activation_2362 (Activation) (None, 512)               0         
_________________________________________________________________
dropout_2362 (Dropout)       (None, 512)               0         
_________________________________________________________________
dense_1099 (Dense)           (None, 10)                5130      
=================================================================
Total params: 77,890,378
Trainable params: 77,887,050
Non-trainable params: 3,328
_________________________________________________________________
