Model: "sequential_368"
_________________________________________________________________
Layer (type)                 Output Shape              Param #   
=================================================================
conv2d_1654 (Conv2D)         (None, 32, 32, 16)        448       
_________________________________________________________________
activation_2409 (Activation) (None, 32, 32, 16)        0         
_________________________________________________________________
dropout_2409 (Dropout)       (None, 32, 32, 16)        0         
_________________________________________________________________
conv2d_1655 (Conv2D)         (None, 32, 32, 128)       18560     
_________________________________________________________________
activation_2410 (Activation) (None, 32, 32, 128)       0         
_________________________________________________________________
dropout_2410 (Dropout)       (None, 32, 32, 128)       0         
_________________________________________________________________
conv2d_1656 (Conv2D)         (None, 32, 32, 1024)      1180672   
_________________________________________________________________
activation_2411 (Activation) (None, 32, 32, 1024)      0         
_________________________________________________________________
dropout_2411 (Dropout)       (None, 32, 32, 1024)      0         
_________________________________________________________________
max_pooling2d_346 (MaxPoolin (None, 16, 16, 1024)      0         
_________________________________________________________________
conv2d_1657 (Conv2D)         (None, 16, 16, 1024)      9438208   
_________________________________________________________________
batch_normalization_1212 (Ba (None, 16, 16, 1024)      4096      
_________________________________________________________________
activation_2412 (Activation) (None, 16, 16, 1024)      0         
_________________________________________________________________
dropout_2412 (Dropout)       (None, 16, 16, 1024)      0         
_________________________________________________________________
flatten_368 (Flatten)        (None, 262144)            0         
_________________________________________________________________
dense_1123 (Dense)           (None, 256)               67109120  
_________________________________________________________________
activation_2413 (Activation) (None, 256)               0         
_________________________________________________________________
dropout_2413 (Dropout)       (None, 256)               0         
_________________________________________________________________
dense_1124 (Dense)           (None, 512)               131584    
_________________________________________________________________
batch_normalization_1213 (Ba (None, 512)               2048      
_________________________________________________________________
activation_2414 (Activation) (None, 512)               0         
_________________________________________________________________
dropout_2414 (Dropout)       (None, 512)               0         
_________________________________________________________________
dense_1125 (Dense)           (None, 10)                5130      
=================================================================
Total params: 77,889,866
Trainable params: 77,886,794
Non-trainable params: 3,072
_________________________________________________________________
