Model: "sequential_14"
_________________________________________________________________
Layer (type)                 Output Shape              Param #   
=================================================================
conv2d_102 (Conv2D)          (None, 32, 32, 16)        448       
_________________________________________________________________
activation_144 (Activation)  (None, 32, 32, 16)        0         
_________________________________________________________________
dropout_144 (Dropout)        (None, 32, 32, 16)        0         
_________________________________________________________________
conv2d_103 (Conv2D)          (None, 32, 32, 128)       18560     
_________________________________________________________________
batch_normalization_76 (Batc (None, 32, 32, 128)       512       
_________________________________________________________________
activation_145 (Activation)  (None, 32, 32, 128)       0         
_________________________________________________________________
dropout_145 (Dropout)        (None, 32, 32, 128)       0         
_________________________________________________________________
max_pooling2d_21 (MaxPooling (None, 16, 16, 128)       0         
_________________________________________________________________
conv2d_104 (Conv2D)          (None, 16, 16, 32)        36896     
_________________________________________________________________
activation_146 (Activation)  (None, 16, 16, 32)        0         
_________________________________________________________________
dropout_146 (Dropout)        (None, 16, 16, 32)        0         
_________________________________________________________________
conv2d_105 (Conv2D)          (None, 16, 16, 16)        4624      
_________________________________________________________________
activation_147 (Activation)  (None, 16, 16, 16)        0         
_________________________________________________________________
dropout_147 (Dropout)        (None, 16, 16, 16)        0         
_________________________________________________________________
conv2d_106 (Conv2D)          (None, 16, 16, 64)        9280      
_________________________________________________________________
activation_148 (Activation)  (None, 16, 16, 64)        0         
_________________________________________________________________
dropout_148 (Dropout)        (None, 16, 16, 64)        0         
_________________________________________________________________
conv2d_107 (Conv2D)          (None, 16, 16, 128)       73856     
_________________________________________________________________
batch_normalization_77 (Batc (None, 16, 16, 128)       512       
_________________________________________________________________
activation_149 (Activation)  (None, 16, 16, 128)       0         
_________________________________________________________________
dropout_149 (Dropout)        (None, 16, 16, 128)       0         
_________________________________________________________________
conv2d_108 (Conv2D)          (None, 16, 16, 32)        36896     
_________________________________________________________________
batch_normalization_78 (Batc (None, 16, 16, 32)        128       
_________________________________________________________________
activation_150 (Activation)  (None, 16, 16, 32)        0         
_________________________________________________________________
dropout_150 (Dropout)        (None, 16, 16, 32)        0         
_________________________________________________________________
flatten_14 (Flatten)         (None, 8192)              0         
_________________________________________________________________
dense_56 (Dense)             (None, 32)                262176    
_________________________________________________________________
batch_normalization_79 (Batc (None, 32)                128       
_________________________________________________________________
activation_151 (Activation)  (None, 32)                0         
_________________________________________________________________
dropout_151 (Dropout)        (None, 32)                0         
_________________________________________________________________
dense_57 (Dense)             (None, 128)               4224      
_________________________________________________________________
activation_152 (Activation)  (None, 128)               0         
_________________________________________________________________
dropout_152 (Dropout)        (None, 128)               0         
_________________________________________________________________
dense_58 (Dense)             (None, 64)                8256      
_________________________________________________________________
batch_normalization_80 (Batc (None, 64)                256       
_________________________________________________________________
activation_153 (Activation)  (None, 64)                0         
_________________________________________________________________
dropout_153 (Dropout)        (None, 64)                0         
_________________________________________________________________
dense_59 (Dense)             (None, 10)                650       
=================================================================
Total params: 457,402
Trainable params: 456,634
Non-trainable params: 768
_________________________________________________________________
