Model: "sequential_46"
_________________________________________________________________
Layer (type)                 Output Shape              Param #   
=================================================================
conv2d_298 (Conv2D)          (None, 32, 32, 256)       7168      
_________________________________________________________________
activation_410 (Activation)  (None, 32, 32, 256)       0         
_________________________________________________________________
dropout_410 (Dropout)        (None, 32, 32, 256)       0         
_________________________________________________________________
conv2d_299 (Conv2D)          (None, 32, 32, 16)        36880     
_________________________________________________________________
batch_normalization_206 (Bat (None, 32, 32, 16)        64        
_________________________________________________________________
activation_411 (Activation)  (None, 32, 32, 16)        0         
_________________________________________________________________
dropout_411 (Dropout)        (None, 32, 32, 16)        0         
_________________________________________________________________
conv2d_300 (Conv2D)          (None, 32, 32, 256)       37120     
_________________________________________________________________
activation_412 (Activation)  (None, 32, 32, 256)       0         
_________________________________________________________________
dropout_412 (Dropout)        (None, 32, 32, 256)       0         
_________________________________________________________________
max_pooling2d_58 (MaxPooling (None, 16, 16, 256)       0         
_________________________________________________________________
conv2d_301 (Conv2D)          (None, 16, 16, 32)        73760     
_________________________________________________________________
batch_normalization_207 (Bat (None, 16, 16, 32)        128       
_________________________________________________________________
activation_413 (Activation)  (None, 16, 16, 32)        0         
_________________________________________________________________
dropout_413 (Dropout)        (None, 16, 16, 32)        0         
_________________________________________________________________
conv2d_302 (Conv2D)          (None, 16, 16, 1024)      295936    
_________________________________________________________________
batch_normalization_208 (Bat (None, 16, 16, 1024)      4096      
_________________________________________________________________
activation_414 (Activation)  (None, 16, 16, 1024)      0         
_________________________________________________________________
dropout_414 (Dropout)        (None, 16, 16, 1024)      0         
_________________________________________________________________
flatten_46 (Flatten)         (None, 262144)            0         
_________________________________________________________________
dense_158 (Dense)            (None, 256)               67109120  
_________________________________________________________________
activation_415 (Activation)  (None, 256)               0         
_________________________________________________________________
dropout_415 (Dropout)        (None, 256)               0         
_________________________________________________________________
dense_159 (Dense)            (None, 64)                16448     
_________________________________________________________________
batch_normalization_209 (Bat (None, 64)                256       
_________________________________________________________________
activation_416 (Activation)  (None, 64)                0         
_________________________________________________________________
dropout_416 (Dropout)        (None, 64)                0         
_________________________________________________________________
dense_160 (Dense)            (None, 10)                650       
=================================================================
Total params: 67,581,626
Trainable params: 67,579,354
Non-trainable params: 2,272
_________________________________________________________________
