Model: "sequential_169"
_________________________________________________________________
Layer (type)                 Output Shape              Param #   
=================================================================
conv2d_880 (Conv2D)          (None, 32, 32, 16)        448       
_________________________________________________________________
activation_1289 (Activation) (None, 32, 32, 16)        0         
_________________________________________________________________
dropout_1289 (Dropout)       (None, 32, 32, 16)        0         
_________________________________________________________________
conv2d_881 (Conv2D)          (None, 32, 32, 128)       18560     
_________________________________________________________________
batch_normalization_624 (Bat (None, 32, 32, 128)       512       
_________________________________________________________________
activation_1290 (Activation) (None, 32, 32, 128)       0         
_________________________________________________________________
dropout_1290 (Dropout)       (None, 32, 32, 128)       0         
_________________________________________________________________
max_pooling2d_146 (MaxPoolin (None, 16, 16, 128)       0         
_________________________________________________________________
conv2d_882 (Conv2D)          (None, 16, 16, 32)        36896     
_________________________________________________________________
activation_1291 (Activation) (None, 16, 16, 32)        0         
_________________________________________________________________
dropout_1291 (Dropout)       (None, 16, 16, 32)        0         
_________________________________________________________________
conv2d_883 (Conv2D)          (None, 16, 16, 1024)      295936    
_________________________________________________________________
batch_normalization_625 (Bat (None, 16, 16, 1024)      4096      
_________________________________________________________________
activation_1292 (Activation) (None, 16, 16, 1024)      0         
_________________________________________________________________
dropout_1292 (Dropout)       (None, 16, 16, 1024)      0         
_________________________________________________________________
flatten_169 (Flatten)        (None, 262144)            0         
_________________________________________________________________
dense_578 (Dense)            (None, 256)               67109120  
_________________________________________________________________
activation_1293 (Activation) (None, 256)               0         
_________________________________________________________________
dropout_1293 (Dropout)       (None, 256)               0         
_________________________________________________________________
dense_579 (Dense)            (None, 512)               131584    
_________________________________________________________________
batch_normalization_626 (Bat (None, 512)               2048      
_________________________________________________________________
activation_1294 (Activation) (None, 512)               0         
_________________________________________________________________
dropout_1294 (Dropout)       (None, 512)               0         
_________________________________________________________________
dense_580 (Dense)            (None, 10)                5130      
=================================================================
Total params: 67,604,330
Trainable params: 67,601,002
Non-trainable params: 3,328
_________________________________________________________________
