Model: "sequential_107"
_________________________________________________________________
Layer (type)                 Output Shape              Param #   
=================================================================
conv2d_624 (Conv2D)          (None, 32, 32, 16)        448       
_________________________________________________________________
activation_899 (Activation)  (None, 32, 32, 16)        0         
_________________________________________________________________
dropout_899 (Dropout)        (None, 32, 32, 16)        0         
_________________________________________________________________
conv2d_625 (Conv2D)          (None, 32, 32, 128)       18560     
_________________________________________________________________
batch_normalization_428 (Bat (None, 32, 32, 128)       512       
_________________________________________________________________
activation_900 (Activation)  (None, 32, 32, 128)       0         
_________________________________________________________________
dropout_900 (Dropout)        (None, 32, 32, 128)       0         
_________________________________________________________________
max_pooling2d_96 (MaxPooling (None, 16, 16, 128)       0         
_________________________________________________________________
conv2d_626 (Conv2D)          (None, 16, 16, 32)        36896     
_________________________________________________________________
activation_901 (Activation)  (None, 16, 16, 32)        0         
_________________________________________________________________
dropout_901 (Dropout)        (None, 16, 16, 32)        0         
_________________________________________________________________
conv2d_627 (Conv2D)          (None, 16, 16, 64)        18496     
_________________________________________________________________
activation_902 (Activation)  (None, 16, 16, 64)        0         
_________________________________________________________________
dropout_902 (Dropout)        (None, 16, 16, 64)        0         
_________________________________________________________________
conv2d_628 (Conv2D)          (None, 16, 16, 32)        18464     
_________________________________________________________________
batch_normalization_429 (Bat (None, 16, 16, 32)        128       
_________________________________________________________________
activation_903 (Activation)  (None, 16, 16, 32)        0         
_________________________________________________________________
dropout_903 (Dropout)        (None, 16, 16, 32)        0         
_________________________________________________________________
flatten_107 (Flatten)        (None, 8192)              0         
_________________________________________________________________
dense_382 (Dense)            (None, 32)                262176    
_________________________________________________________________
batch_normalization_430 (Bat (None, 32)                128       
_________________________________________________________________
activation_904 (Activation)  (None, 32)                0         
_________________________________________________________________
dropout_904 (Dropout)        (None, 32)                0         
_________________________________________________________________
dense_383 (Dense)            (None, 256)               8448      
_________________________________________________________________
activation_905 (Activation)  (None, 256)               0         
_________________________________________________________________
dropout_905 (Dropout)        (None, 256)               0         
_________________________________________________________________
dense_384 (Dense)            (None, 512)               131584    
_________________________________________________________________
batch_normalization_431 (Bat (None, 512)               2048      
_________________________________________________________________
activation_906 (Activation)  (None, 512)               0         
_________________________________________________________________
dropout_906 (Dropout)        (None, 512)               0         
_________________________________________________________________
dense_385 (Dense)            (None, 10)                5130      
=================================================================
Total params: 503,018
Trainable params: 501,610
Non-trainable params: 1,408
_________________________________________________________________
