Model: "sequential_317"
_________________________________________________________________
Layer (type)                 Output Shape              Param #   
=================================================================
conv2d_1451 (Conv2D)         (None, 32, 32, 128)       3584      
_________________________________________________________________
activation_2124 (Activation) (None, 32, 32, 128)       0         
_________________________________________________________________
dropout_2124 (Dropout)       (None, 32, 32, 128)       0         
_________________________________________________________________
conv2d_1452 (Conv2D)         (None, 32, 32, 128)       147584    
_________________________________________________________________
batch_normalization_1070 (Ba (None, 32, 32, 128)       512       
_________________________________________________________________
activation_2125 (Activation) (None, 32, 32, 128)       0         
_________________________________________________________________
dropout_2125 (Dropout)       (None, 32, 32, 128)       0         
_________________________________________________________________
conv2d_1453 (Conv2D)         (None, 32, 32, 32)        36896     
_________________________________________________________________
activation_2126 (Activation) (None, 32, 32, 32)        0         
_________________________________________________________________
dropout_2126 (Dropout)       (None, 32, 32, 32)        0         
_________________________________________________________________
max_pooling2d_294 (MaxPoolin (None, 16, 16, 32)        0         
_________________________________________________________________
conv2d_1454 (Conv2D)         (None, 16, 16, 1024)      295936    
_________________________________________________________________
batch_normalization_1071 (Ba (None, 16, 16, 1024)      4096      
_________________________________________________________________
activation_2127 (Activation) (None, 16, 16, 1024)      0         
_________________________________________________________________
dropout_2127 (Dropout)       (None, 16, 16, 1024)      0         
_________________________________________________________________
flatten_317 (Flatten)        (None, 262144)            0         
_________________________________________________________________
dense_990 (Dense)            (None, 512)               134218240 
_________________________________________________________________
batch_normalization_1072 (Ba (None, 512)               2048      
_________________________________________________________________
activation_2128 (Activation) (None, 512)               0         
_________________________________________________________________
dropout_2128 (Dropout)       (None, 512)               0         
_________________________________________________________________
dense_991 (Dense)            (None, 10)                5130      
=================================================================
Total params: 134,714,026
Trainable params: 134,710,698
Non-trainable params: 3,328
_________________________________________________________________
