Model: "sequential_231"
_________________________________________________________________
Layer (type)                 Output Shape              Param #   
=================================================================
conv2d_1125 (Conv2D)         (None, 32, 32, 16)        448       
_________________________________________________________________
activation_1650 (Activation) (None, 32, 32, 16)        0         
_________________________________________________________________
dropout_1650 (Dropout)       (None, 32, 32, 16)        0         
_________________________________________________________________
conv2d_1126 (Conv2D)         (None, 32, 32, 128)       18560     
_________________________________________________________________
batch_normalization_804 (Bat (None, 32, 32, 128)       512       
_________________________________________________________________
activation_1651 (Activation) (None, 32, 32, 128)       0         
_________________________________________________________________
dropout_1651 (Dropout)       (None, 32, 32, 128)       0         
_________________________________________________________________
max_pooling2d_208 (MaxPoolin (None, 16, 16, 128)       0         
_________________________________________________________________
conv2d_1127 (Conv2D)         (None, 16, 16, 32)        36896     
_________________________________________________________________
activation_1652 (Activation) (None, 16, 16, 32)        0         
_________________________________________________________________
dropout_1652 (Dropout)       (None, 16, 16, 32)        0         
_________________________________________________________________
conv2d_1128 (Conv2D)         (None, 16, 16, 1024)      295936    
_________________________________________________________________
batch_normalization_805 (Bat (None, 16, 16, 1024)      4096      
_________________________________________________________________
activation_1653 (Activation) (None, 16, 16, 1024)      0         
_________________________________________________________________
dropout_1653 (Dropout)       (None, 16, 16, 1024)      0         
_________________________________________________________________
flatten_231 (Flatten)        (None, 262144)            0         
_________________________________________________________________
dense_756 (Dense)            (None, 256)               67109120  
_________________________________________________________________
activation_1654 (Activation) (None, 256)               0         
_________________________________________________________________
dropout_1654 (Dropout)       (None, 256)               0         
_________________________________________________________________
dense_757 (Dense)            (None, 512)               131584    
_________________________________________________________________
batch_normalization_806 (Bat (None, 512)               2048      
_________________________________________________________________
activation_1655 (Activation) (None, 512)               0         
_________________________________________________________________
dropout_1655 (Dropout)       (None, 512)               0         
_________________________________________________________________
dense_758 (Dense)            (None, 10)                5130      
=================================================================
Total params: 67,604,330
Trainable params: 67,601,002
Non-trainable params: 3,328
_________________________________________________________________
