Model: "sequential_199"
_________________________________________________________________
Layer (type)                 Output Shape              Param #   
=================================================================
conv2d_999 (Conv2D)          (None, 32, 32, 16)        448       
_________________________________________________________________
activation_1468 (Activation) (None, 32, 32, 16)        0         
_________________________________________________________________
dropout_1468 (Dropout)       (None, 32, 32, 16)        0         
_________________________________________________________________
conv2d_1000 (Conv2D)         (None, 32, 32, 128)       18560     
_________________________________________________________________
batch_normalization_713 (Bat (None, 32, 32, 128)       512       
_________________________________________________________________
activation_1469 (Activation) (None, 32, 32, 128)       0         
_________________________________________________________________
dropout_1469 (Dropout)       (None, 32, 32, 128)       0         
_________________________________________________________________
max_pooling2d_176 (MaxPoolin (None, 16, 16, 128)       0         
_________________________________________________________________
conv2d_1001 (Conv2D)         (None, 16, 16, 32)        36896     
_________________________________________________________________
activation_1470 (Activation) (None, 16, 16, 32)        0         
_________________________________________________________________
dropout_1470 (Dropout)       (None, 16, 16, 32)        0         
_________________________________________________________________
conv2d_1002 (Conv2D)         (None, 16, 16, 128)       36992     
_________________________________________________________________
batch_normalization_714 (Bat (None, 16, 16, 128)       512       
_________________________________________________________________
activation_1471 (Activation) (None, 16, 16, 128)       0         
_________________________________________________________________
dropout_1471 (Dropout)       (None, 16, 16, 128)       0         
_________________________________________________________________
flatten_199 (Flatten)        (None, 32768)             0         
_________________________________________________________________
dense_668 (Dense)            (None, 16)                524304    
_________________________________________________________________
activation_1472 (Activation) (None, 16)                0         
_________________________________________________________________
dropout_1472 (Dropout)       (None, 16)                0         
_________________________________________________________________
dense_669 (Dense)            (None, 512)               8704      
_________________________________________________________________
batch_normalization_715 (Bat (None, 512)               2048      
_________________________________________________________________
activation_1473 (Activation) (None, 512)               0         
_________________________________________________________________
dropout_1473 (Dropout)       (None, 512)               0         
_________________________________________________________________
dense_670 (Dense)            (None, 10)                5130      
=================================================================
Total params: 634,106
Trainable params: 632,570
Non-trainable params: 1,536
_________________________________________________________________
