Model: "sequential_97"
_________________________________________________________________
Layer (type)                 Output Shape              Param #   
=================================================================
conv2d_577 (Conv2D)          (None, 32, 32, 16)        448       
_________________________________________________________________
activation_825 (Activation)  (None, 32, 32, 16)        0         
_________________________________________________________________
dropout_825 (Dropout)        (None, 32, 32, 16)        0         
_________________________________________________________________
conv2d_578 (Conv2D)          (None, 32, 32, 128)       18560     
_________________________________________________________________
batch_normalization_393 (Bat (None, 32, 32, 128)       512       
_________________________________________________________________
activation_826 (Activation)  (None, 32, 32, 128)       0         
_________________________________________________________________
dropout_826 (Dropout)        (None, 32, 32, 128)       0         
_________________________________________________________________
max_pooling2d_93 (MaxPooling (None, 16, 16, 128)       0         
_________________________________________________________________
conv2d_579 (Conv2D)          (None, 16, 16, 32)        36896     
_________________________________________________________________
activation_827 (Activation)  (None, 16, 16, 32)        0         
_________________________________________________________________
dropout_827 (Dropout)        (None, 16, 16, 32)        0         
_________________________________________________________________
conv2d_580 (Conv2D)          (None, 16, 16, 128)       36992     
_________________________________________________________________
batch_normalization_394 (Bat (None, 16, 16, 128)       512       
_________________________________________________________________
activation_828 (Activation)  (None, 16, 16, 128)       0         
_________________________________________________________________
dropout_828 (Dropout)        (None, 16, 16, 128)       0         
_________________________________________________________________
flatten_97 (Flatten)         (None, 32768)             0         
_________________________________________________________________
dense_345 (Dense)            (None, 256)               8388864   
_________________________________________________________________
activation_829 (Activation)  (None, 256)               0         
_________________________________________________________________
dropout_829 (Dropout)        (None, 256)               0         
_________________________________________________________________
dense_346 (Dense)            (None, 512)               131584    
_________________________________________________________________
batch_normalization_395 (Bat (None, 512)               2048      
_________________________________________________________________
activation_830 (Activation)  (None, 512)               0         
_________________________________________________________________
dropout_830 (Dropout)        (None, 512)               0         
_________________________________________________________________
dense_347 (Dense)            (None, 32)                16416     
_________________________________________________________________
batch_normalization_396 (Bat (None, 32)                128       
_________________________________________________________________
activation_831 (Activation)  (None, 32)                0         
_________________________________________________________________
dropout_831 (Dropout)        (None, 32)                0         
_________________________________________________________________
dense_348 (Dense)            (None, 10)                330       
=================================================================
Total params: 8,633,290
Trainable params: 8,631,690
Non-trainable params: 1,600
_________________________________________________________________
