Model: "sequential_260"
_________________________________________________________________
Layer (type)                 Output Shape              Param #   
=================================================================
conv2d_1238 (Conv2D)         (None, 32, 32, 16)        448       
_________________________________________________________________
activation_1817 (Activation) (None, 32, 32, 16)        0         
_________________________________________________________________
dropout_1817 (Dropout)       (None, 32, 32, 16)        0         
_________________________________________________________________
conv2d_1239 (Conv2D)         (None, 32, 32, 8)         1160      
_________________________________________________________________
batch_normalization_903 (Bat (None, 32, 32, 8)         32        
_________________________________________________________________
activation_1818 (Activation) (None, 32, 32, 8)         0         
_________________________________________________________________
dropout_1818 (Dropout)       (None, 32, 32, 8)         0         
_________________________________________________________________
max_pooling2d_238 (MaxPoolin (None, 16, 16, 8)         0         
_________________________________________________________________
conv2d_1240 (Conv2D)         (None, 16, 16, 32)        2336      
_________________________________________________________________
activation_1819 (Activation) (None, 16, 16, 32)        0         
_________________________________________________________________
dropout_1819 (Dropout)       (None, 16, 16, 32)        0         
_________________________________________________________________
conv2d_1241 (Conv2D)         (None, 16, 16, 1024)      295936    
_________________________________________________________________
batch_normalization_904 (Bat (None, 16, 16, 1024)      4096      
_________________________________________________________________
activation_1820 (Activation) (None, 16, 16, 1024)      0         
_________________________________________________________________
dropout_1820 (Dropout)       (None, 16, 16, 1024)      0         
_________________________________________________________________
flatten_260 (Flatten)        (None, 262144)            0         
_________________________________________________________________
dense_839 (Dense)            (None, 256)               67109120  
_________________________________________________________________
batch_normalization_905 (Bat (None, 256)               1024      
_________________________________________________________________
activation_1821 (Activation) (None, 256)               0         
_________________________________________________________________
dropout_1821 (Dropout)       (None, 256)               0         
_________________________________________________________________
dense_840 (Dense)            (None, 512)               131584    
_________________________________________________________________
batch_normalization_906 (Bat (None, 512)               2048      
_________________________________________________________________
activation_1822 (Activation) (None, 512)               0         
_________________________________________________________________
dropout_1822 (Dropout)       (None, 512)               0         
_________________________________________________________________
dense_841 (Dense)            (None, 10)                5130      
=================================================================
Total params: 67,552,914
Trainable params: 67,549,314
Non-trainable params: 3,600
_________________________________________________________________
