Model: "sequential_75"
_________________________________________________________________
Layer (type)                 Output Shape              Param #   
=================================================================
conv2d_472 (Conv2D)          (None, 32, 32, 1024)      28672     
_________________________________________________________________
activation_657 (Activation)  (None, 32, 32, 1024)      0         
_________________________________________________________________
dropout_657 (Dropout)        (None, 32, 32, 1024)      0         
_________________________________________________________________
conv2d_473 (Conv2D)          (None, 32, 32, 128)       1179776   
_________________________________________________________________
batch_normalization_314 (Bat (None, 32, 32, 128)       512       
_________________________________________________________________
activation_658 (Activation)  (None, 32, 32, 128)       0         
_________________________________________________________________
dropout_658 (Dropout)        (None, 32, 32, 128)       0         
_________________________________________________________________
max_pooling2d_84 (MaxPooling (None, 16, 16, 128)       0         
_________________________________________________________________
conv2d_474 (Conv2D)          (None, 16, 16, 32)        36896     
_________________________________________________________________
activation_659 (Activation)  (None, 16, 16, 32)        0         
_________________________________________________________________
dropout_659 (Dropout)        (None, 16, 16, 32)        0         
_________________________________________________________________
conv2d_475 (Conv2D)          (None, 16, 16, 16)        4624      
_________________________________________________________________
activation_660 (Activation)  (None, 16, 16, 16)        0         
_________________________________________________________________
dropout_660 (Dropout)        (None, 16, 16, 16)        0         
_________________________________________________________________
conv2d_476 (Conv2D)          (None, 16, 16, 64)        9280      
_________________________________________________________________
activation_661 (Activation)  (None, 16, 16, 64)        0         
_________________________________________________________________
dropout_661 (Dropout)        (None, 16, 16, 64)        0         
_________________________________________________________________
conv2d_477 (Conv2D)          (None, 16, 16, 32)        18464     
_________________________________________________________________
batch_normalization_315 (Bat (None, 16, 16, 32)        128       
_________________________________________________________________
activation_662 (Activation)  (None, 16, 16, 32)        0         
_________________________________________________________________
dropout_662 (Dropout)        (None, 16, 16, 32)        0         
_________________________________________________________________
flatten_75 (Flatten)         (None, 8192)              0         
_________________________________________________________________
dense_260 (Dense)            (None, 32)                262176    
_________________________________________________________________
batch_normalization_316 (Bat (None, 32)                128       
_________________________________________________________________
activation_663 (Activation)  (None, 32)                0         
_________________________________________________________________
dropout_663 (Dropout)        (None, 32)                0         
_________________________________________________________________
dense_261 (Dense)            (None, 256)               8448      
_________________________________________________________________
activation_664 (Activation)  (None, 256)               0         
_________________________________________________________________
dropout_664 (Dropout)        (None, 256)               0         
_________________________________________________________________
dense_262 (Dense)            (None, 512)               131584    
_________________________________________________________________
batch_normalization_317 (Bat (None, 512)               2048      
_________________________________________________________________
activation_665 (Activation)  (None, 512)               0         
_________________________________________________________________
dropout_665 (Dropout)        (None, 512)               0         
_________________________________________________________________
dense_263 (Dense)            (None, 10)                5130      
=================================================================
Total params: 1,687,866
Trainable params: 1,686,458
Non-trainable params: 1,408
_________________________________________________________________
