Model: "sequential_224"
_________________________________________________________________
Layer (type)                 Output Shape              Param #   
=================================================================
conv2d_1097 (Conv2D)         (None, 32, 32, 16)        448       
_________________________________________________________________
activation_1611 (Activation) (None, 32, 32, 16)        0         
_________________________________________________________________
dropout_1611 (Dropout)       (None, 32, 32, 16)        0         
_________________________________________________________________
conv2d_1098 (Conv2D)         (None, 32, 32, 8)         1160      
_________________________________________________________________
batch_normalization_783 (Bat (None, 32, 32, 8)         32        
_________________________________________________________________
activation_1612 (Activation) (None, 32, 32, 8)         0         
_________________________________________________________________
dropout_1612 (Dropout)       (None, 32, 32, 8)         0         
_________________________________________________________________
max_pooling2d_201 (MaxPoolin (None, 16, 16, 8)         0         
_________________________________________________________________
conv2d_1099 (Conv2D)         (None, 16, 16, 32)        2336      
_________________________________________________________________
activation_1613 (Activation) (None, 16, 16, 32)        0         
_________________________________________________________________
dropout_1613 (Dropout)       (None, 16, 16, 32)        0         
_________________________________________________________________
conv2d_1100 (Conv2D)         (None, 16, 16, 1024)      295936    
_________________________________________________________________
batch_normalization_784 (Bat (None, 16, 16, 1024)      4096      
_________________________________________________________________
activation_1614 (Activation) (None, 16, 16, 1024)      0         
_________________________________________________________________
dropout_1614 (Dropout)       (None, 16, 16, 1024)      0         
_________________________________________________________________
flatten_224 (Flatten)        (None, 262144)            0         
_________________________________________________________________
dense_738 (Dense)            (None, 512)               134218240 
_________________________________________________________________
batch_normalization_785 (Bat (None, 512)               2048      
_________________________________________________________________
activation_1615 (Activation) (None, 512)               0         
_________________________________________________________________
dropout_1615 (Dropout)       (None, 512)               0         
_________________________________________________________________
dense_739 (Dense)            (None, 10)                5130      
=================================================================
Total params: 134,529,426
Trainable params: 134,526,338
Non-trainable params: 3,088
_________________________________________________________________
