Model: "sequential_58"
_________________________________________________________________
Layer (type)                 Output Shape              Param #   
=================================================================
conv2d_369 (Conv2D)          (None, 32, 32, 16)        448       
_________________________________________________________________
activation_515 (Activation)  (None, 32, 32, 16)        0         
_________________________________________________________________
dropout_515 (Dropout)        (None, 32, 32, 16)        0         
_________________________________________________________________
conv2d_370 (Conv2D)          (None, 32, 32, 128)       18560     
_________________________________________________________________
batch_normalization_257 (Bat (None, 32, 32, 128)       512       
_________________________________________________________________
activation_516 (Activation)  (None, 32, 32, 128)       0         
_________________________________________________________________
dropout_516 (Dropout)        (None, 32, 32, 128)       0         
_________________________________________________________________
max_pooling2d_71 (MaxPooling (None, 16, 16, 128)       0         
_________________________________________________________________
conv2d_371 (Conv2D)          (None, 16, 16, 32)        36896     
_________________________________________________________________
activation_517 (Activation)  (None, 16, 16, 32)        0         
_________________________________________________________________
dropout_517 (Dropout)        (None, 16, 16, 32)        0         
_________________________________________________________________
conv2d_372 (Conv2D)          (None, 16, 16, 16)        4624      
_________________________________________________________________
activation_518 (Activation)  (None, 16, 16, 16)        0         
_________________________________________________________________
dropout_518 (Dropout)        (None, 16, 16, 16)        0         
_________________________________________________________________
conv2d_373 (Conv2D)          (None, 16, 16, 64)        9280      
_________________________________________________________________
activation_519 (Activation)  (None, 16, 16, 64)        0         
_________________________________________________________________
dropout_519 (Dropout)        (None, 16, 16, 64)        0         
_________________________________________________________________
conv2d_374 (Conv2D)          (None, 16, 16, 32)        18464     
_________________________________________________________________
batch_normalization_258 (Bat (None, 16, 16, 32)        128       
_________________________________________________________________
activation_520 (Activation)  (None, 16, 16, 32)        0         
_________________________________________________________________
dropout_520 (Dropout)        (None, 16, 16, 32)        0         
_________________________________________________________________
flatten_58 (Flatten)         (None, 8192)              0         
_________________________________________________________________
dense_204 (Dense)            (None, 32)                262176    
_________________________________________________________________
batch_normalization_259 (Bat (None, 32)                128       
_________________________________________________________________
activation_521 (Activation)  (None, 32)                0         
_________________________________________________________________
dropout_521 (Dropout)        (None, 32)                0         
_________________________________________________________________
dense_205 (Dense)            (None, 128)               4224      
_________________________________________________________________
activation_522 (Activation)  (None, 128)               0         
_________________________________________________________________
dropout_522 (Dropout)        (None, 128)               0         
_________________________________________________________________
dense_206 (Dense)            (None, 64)                8256      
_________________________________________________________________
batch_normalization_260 (Bat (None, 64)                256       
_________________________________________________________________
activation_523 (Activation)  (None, 64)                0         
_________________________________________________________________
dropout_523 (Dropout)        (None, 64)                0         
_________________________________________________________________
dense_207 (Dense)            (None, 10)                650       
=================================================================
Total params: 364,602
Trainable params: 364,090
Non-trainable params: 512
_________________________________________________________________
