Model: "sequential_93"
_________________________________________________________________
Layer (type)                 Output Shape              Param #   
=================================================================
conv2d_559 (Conv2D)          (None, 32, 32, 1024)      28672     
_________________________________________________________________
activation_796 (Activation)  (None, 32, 32, 1024)      0         
_________________________________________________________________
dropout_796 (Dropout)        (None, 32, 32, 1024)      0         
_________________________________________________________________
conv2d_560 (Conv2D)          (None, 32, 32, 16)        147472    
_________________________________________________________________
batch_normalization_379 (Bat (None, 32, 32, 16)        64        
_________________________________________________________________
activation_797 (Activation)  (None, 32, 32, 16)        0         
_________________________________________________________________
dropout_797 (Dropout)        (None, 32, 32, 16)        0         
_________________________________________________________________
conv2d_561 (Conv2D)          (None, 32, 32, 32)        4640      
_________________________________________________________________
batch_normalization_380 (Bat (None, 32, 32, 32)        128       
_________________________________________________________________
activation_798 (Activation)  (None, 32, 32, 32)        0         
_________________________________________________________________
dropout_798 (Dropout)        (None, 32, 32, 32)        0         
_________________________________________________________________
conv2d_562 (Conv2D)          (None, 32, 32, 16)        4624      
_________________________________________________________________
activation_799 (Activation)  (None, 32, 32, 16)        0         
_________________________________________________________________
dropout_799 (Dropout)        (None, 32, 32, 16)        0         
_________________________________________________________________
conv2d_563 (Conv2D)          (None, 32, 32, 64)        9280      
_________________________________________________________________
activation_800 (Activation)  (None, 32, 32, 64)        0         
_________________________________________________________________
dropout_800 (Dropout)        (None, 32, 32, 64)        0         
_________________________________________________________________
conv2d_564 (Conv2D)          (None, 32, 32, 32)        18464     
_________________________________________________________________
activation_801 (Activation)  (None, 32, 32, 32)        0         
_________________________________________________________________
dropout_801 (Dropout)        (None, 32, 32, 32)        0         
_________________________________________________________________
flatten_93 (Flatten)         (None, 32768)             0         
_________________________________________________________________
dense_330 (Dense)            (None, 32)                1048608   
_________________________________________________________________
batch_normalization_381 (Bat (None, 32)                128       
_________________________________________________________________
activation_802 (Activation)  (None, 32)                0         
_________________________________________________________________
dropout_802 (Dropout)        (None, 32)                0         
_________________________________________________________________
dense_331 (Dense)            (None, 256)               8448      
_________________________________________________________________
activation_803 (Activation)  (None, 256)               0         
_________________________________________________________________
dropout_803 (Dropout)        (None, 256)               0         
_________________________________________________________________
dense_332 (Dense)            (None, 512)               131584    
_________________________________________________________________
batch_normalization_382 (Bat (None, 512)               2048      
_________________________________________________________________
activation_804 (Activation)  (None, 512)               0         
_________________________________________________________________
dropout_804 (Dropout)        (None, 512)               0         
_________________________________________________________________
dense_333 (Dense)            (None, 10)                5130      
=================================================================
Total params: 1,409,290
Trainable params: 1,408,106
Non-trainable params: 1,184
_________________________________________________________________
