Model: "sequential_338"
_________________________________________________________________
Layer (type)                 Output Shape              Param #   
=================================================================
conv2d_1535 (Conv2D)         (None, 32, 32, 16)        448       
_________________________________________________________________
batch_normalization_1129 (Ba (None, 32, 32, 16)        64        
_________________________________________________________________
activation_2237 (Activation) (None, 32, 32, 16)        0         
_________________________________________________________________
dropout_2237 (Dropout)       (None, 32, 32, 16)        0         
_________________________________________________________________
conv2d_1536 (Conv2D)         (None, 32, 32, 8)         1160      
_________________________________________________________________
batch_normalization_1130 (Ba (None, 32, 32, 8)         32        
_________________________________________________________________
activation_2238 (Activation) (None, 32, 32, 8)         0         
_________________________________________________________________
dropout_2238 (Dropout)       (None, 32, 32, 8)         0         
_________________________________________________________________
max_pooling2d_312 (MaxPoolin (None, 16, 16, 8)         0         
_________________________________________________________________
conv2d_1537 (Conv2D)         (None, 16, 16, 256)       18688     
_________________________________________________________________
activation_2239 (Activation) (None, 16, 16, 256)       0         
_________________________________________________________________
dropout_2239 (Dropout)       (None, 16, 16, 256)       0         
_________________________________________________________________
conv2d_1538 (Conv2D)         (None, 16, 16, 1024)      2360320   
_________________________________________________________________
batch_normalization_1131 (Ba (None, 16, 16, 1024)      4096      
_________________________________________________________________
activation_2240 (Activation) (None, 16, 16, 1024)      0         
_________________________________________________________________
dropout_2240 (Dropout)       (None, 16, 16, 1024)      0         
_________________________________________________________________
flatten_338 (Flatten)        (None, 262144)            0         
_________________________________________________________________
dense_1040 (Dense)           (None, 512)               134218240 
_________________________________________________________________
batch_normalization_1132 (Ba (None, 512)               2048      
_________________________________________________________________
activation_2241 (Activation) (None, 512)               0         
_________________________________________________________________
dropout_2241 (Dropout)       (None, 512)               0         
_________________________________________________________________
dense_1041 (Dense)           (None, 10)                5130      
=================================================================
Total params: 136,610,226
Trainable params: 136,607,106
Non-trainable params: 3,120
_________________________________________________________________
