Model: "sequential_41"
_________________________________________________________________
Layer (type)                 Output Shape              Param #   
=================================================================
conv2d_268 (Conv2D)          (None, 32, 32, 16)        448       
_________________________________________________________________
activation_368 (Activation)  (None, 32, 32, 16)        0         
_________________________________________________________________
dropout_368 (Dropout)        (None, 32, 32, 16)        0         
_________________________________________________________________
conv2d_269 (Conv2D)          (None, 32, 32, 128)       18560     
_________________________________________________________________
batch_normalization_187 (Bat (None, 32, 32, 128)       512       
_________________________________________________________________
activation_369 (Activation)  (None, 32, 32, 128)       0         
_________________________________________________________________
dropout_369 (Dropout)        (None, 32, 32, 128)       0         
_________________________________________________________________
max_pooling2d_53 (MaxPooling (None, 16, 16, 128)       0         
_________________________________________________________________
conv2d_270 (Conv2D)          (None, 16, 16, 32)        36896     
_________________________________________________________________
activation_370 (Activation)  (None, 16, 16, 32)        0         
_________________________________________________________________
dropout_370 (Dropout)        (None, 16, 16, 32)        0         
_________________________________________________________________
conv2d_271 (Conv2D)          (None, 16, 16, 1024)      295936    
_________________________________________________________________
batch_normalization_188 (Bat (None, 16, 16, 1024)      4096      
_________________________________________________________________
activation_371 (Activation)  (None, 16, 16, 1024)      0         
_________________________________________________________________
dropout_371 (Dropout)        (None, 16, 16, 1024)      0         
_________________________________________________________________
conv2d_272 (Conv2D)          (None, 16, 16, 128)       1179776   
_________________________________________________________________
activation_372 (Activation)  (None, 16, 16, 128)       0         
_________________________________________________________________
dropout_372 (Dropout)        (None, 16, 16, 128)       0         
_________________________________________________________________
conv2d_273 (Conv2D)          (None, 16, 16, 64)        73792     
_________________________________________________________________
activation_373 (Activation)  (None, 16, 16, 64)        0         
_________________________________________________________________
dropout_373 (Dropout)        (None, 16, 16, 64)        0         
_________________________________________________________________
flatten_41 (Flatten)         (None, 16384)             0         
_________________________________________________________________
dense_141 (Dense)            (None, 512)               8389120   
_________________________________________________________________
activation_374 (Activation)  (None, 512)               0         
_________________________________________________________________
dropout_374 (Dropout)        (None, 512)               0         
_________________________________________________________________
dense_142 (Dense)            (None, 10)                5130      
=================================================================
Total params: 10,004,266
Trainable params: 10,001,962
Non-trainable params: 2,304
_________________________________________________________________
