Model: "sequential_24"
_________________________________________________________________
Layer (type)                 Output Shape              Param #   
=================================================================
conv2d_165 (Conv2D)          (None, 32, 32, 16)        448       
_________________________________________________________________
activation_231 (Activation)  (None, 32, 32, 16)        0         
_________________________________________________________________
dropout_231 (Dropout)        (None, 32, 32, 16)        0         
_________________________________________________________________
conv2d_166 (Conv2D)          (None, 32, 32, 128)       18560     
_________________________________________________________________
batch_normalization_123 (Bat (None, 32, 32, 128)       512       
_________________________________________________________________
activation_232 (Activation)  (None, 32, 32, 128)       0         
_________________________________________________________________
dropout_232 (Dropout)        (None, 32, 32, 128)       0         
_________________________________________________________________
max_pooling2d_33 (MaxPooling (None, 16, 16, 128)       0         
_________________________________________________________________
conv2d_167 (Conv2D)          (None, 16, 16, 32)        36896     
_________________________________________________________________
activation_233 (Activation)  (None, 16, 16, 32)        0         
_________________________________________________________________
dropout_233 (Dropout)        (None, 16, 16, 32)        0         
_________________________________________________________________
conv2d_168 (Conv2D)          (None, 16, 16, 1024)      295936    
_________________________________________________________________
batch_normalization_124 (Bat (None, 16, 16, 1024)      4096      
_________________________________________________________________
activation_234 (Activation)  (None, 16, 16, 1024)      0         
_________________________________________________________________
dropout_234 (Dropout)        (None, 16, 16, 1024)      0         
_________________________________________________________________
flatten_24 (Flatten)         (None, 262144)            0         
_________________________________________________________________
dense_90 (Dense)             (None, 256)               67109120  
_________________________________________________________________
activation_235 (Activation)  (None, 256)               0         
_________________________________________________________________
dropout_235 (Dropout)        (None, 256)               0         
_________________________________________________________________
dense_91 (Dense)             (None, 512)               131584    
_________________________________________________________________
batch_normalization_125 (Bat (None, 512)               2048      
_________________________________________________________________
activation_236 (Activation)  (None, 512)               0         
_________________________________________________________________
dropout_236 (Dropout)        (None, 512)               0         
_________________________________________________________________
dense_92 (Dense)             (None, 32)                16416     
_________________________________________________________________
batch_normalization_126 (Bat (None, 32)                128       
_________________________________________________________________
activation_237 (Activation)  (None, 32)                0         
_________________________________________________________________
dropout_237 (Dropout)        (None, 32)                0         
_________________________________________________________________
dense_93 (Dense)             (None, 10)                330       
=================================================================
Total params: 67,616,074
Trainable params: 67,612,682
Non-trainable params: 3,392
_________________________________________________________________
