Model: "sequential_337"
_________________________________________________________________
Layer (type)                 Output Shape              Param #   
=================================================================
conv2d_1531 (Conv2D)         (None, 32, 32, 16)        448       
_________________________________________________________________
batch_normalization_1125 (Ba (None, 32, 32, 16)        64        
_________________________________________________________________
activation_2232 (Activation) (None, 32, 32, 16)        0         
_________________________________________________________________
dropout_2232 (Dropout)       (None, 32, 32, 16)        0         
_________________________________________________________________
conv2d_1532 (Conv2D)         (None, 32, 32, 8)         1160      
_________________________________________________________________
batch_normalization_1126 (Ba (None, 32, 32, 8)         32        
_________________________________________________________________
activation_2233 (Activation) (None, 32, 32, 8)         0         
_________________________________________________________________
dropout_2233 (Dropout)       (None, 32, 32, 8)         0         
_________________________________________________________________
max_pooling2d_311 (MaxPoolin (None, 16, 16, 8)         0         
_________________________________________________________________
conv2d_1533 (Conv2D)         (None, 16, 16, 256)       18688     
_________________________________________________________________
activation_2234 (Activation) (None, 16, 16, 256)       0         
_________________________________________________________________
dropout_2234 (Dropout)       (None, 16, 16, 256)       0         
_________________________________________________________________
conv2d_1534 (Conv2D)         (None, 16, 16, 1024)      2360320   
_________________________________________________________________
batch_normalization_1127 (Ba (None, 16, 16, 1024)      4096      
_________________________________________________________________
activation_2235 (Activation) (None, 16, 16, 1024)      0         
_________________________________________________________________
dropout_2235 (Dropout)       (None, 16, 16, 1024)      0         
_________________________________________________________________
flatten_337 (Flatten)        (None, 262144)            0         
_________________________________________________________________
dense_1038 (Dense)           (None, 512)               134218240 
_________________________________________________________________
batch_normalization_1128 (Ba (None, 512)               2048      
_________________________________________________________________
activation_2236 (Activation) (None, 512)               0         
_________________________________________________________________
dropout_2236 (Dropout)       (None, 512)               0         
_________________________________________________________________
dense_1039 (Dense)           (None, 10)                5130      
=================================================================
Total params: 136,610,226
Trainable params: 136,607,106
Non-trainable params: 3,120
_________________________________________________________________
