Model: "sequential_114"
_________________________________________________________________
Layer (type)                 Output Shape              Param #   
=================================================================
conv2d_655 (Conv2D)          (None, 32, 32, 1024)      28672     
_________________________________________________________________
activation_948 (Activation)  (None, 32, 32, 1024)      0         
_________________________________________________________________
dropout_948 (Dropout)        (None, 32, 32, 1024)      0         
_________________________________________________________________
conv2d_656 (Conv2D)          (None, 32, 32, 16)        147472    
_________________________________________________________________
batch_normalization_453 (Bat (None, 32, 32, 16)        64        
_________________________________________________________________
activation_949 (Activation)  (None, 32, 32, 16)        0         
_________________________________________________________________
dropout_949 (Dropout)        (None, 32, 32, 16)        0         
_________________________________________________________________
conv2d_657 (Conv2D)          (None, 32, 32, 32)        4640      
_________________________________________________________________
activation_950 (Activation)  (None, 32, 32, 32)        0         
_________________________________________________________________
dropout_950 (Dropout)        (None, 32, 32, 32)        0         
_________________________________________________________________
conv2d_658 (Conv2D)          (None, 32, 32, 16)        4624      
_________________________________________________________________
activation_951 (Activation)  (None, 32, 32, 16)        0         
_________________________________________________________________
dropout_951 (Dropout)        (None, 32, 32, 16)        0         
_________________________________________________________________
conv2d_659 (Conv2D)          (None, 32, 32, 1024)      148480    
_________________________________________________________________
batch_normalization_454 (Bat (None, 32, 32, 1024)      4096      
_________________________________________________________________
activation_952 (Activation)  (None, 32, 32, 1024)      0         
_________________________________________________________________
dropout_952 (Dropout)        (None, 32, 32, 1024)      0         
_________________________________________________________________
flatten_114 (Flatten)        (None, 1048576)           0         
_________________________________________________________________
dense_407 (Dense)            (None, 256)               268435712 
_________________________________________________________________
activation_953 (Activation)  (None, 256)               0         
_________________________________________________________________
dropout_953 (Dropout)        (None, 256)               0         
_________________________________________________________________
dense_408 (Dense)            (None, 512)               131584    
_________________________________________________________________
batch_normalization_455 (Bat (None, 512)               2048      
_________________________________________________________________
activation_954 (Activation)  (None, 512)               0         
_________________________________________________________________
dropout_954 (Dropout)        (None, 512)               0         
_________________________________________________________________
dense_409 (Dense)            (None, 10)                5130      
=================================================================
Total params: 268,912,522
Trainable params: 268,909,418
Non-trainable params: 3,104
_________________________________________________________________
