Model: "sequential_36"
_________________________________________________________________
Layer (type)                 Output Shape              Param #   
=================================================================
conv2d_237 (Conv2D)          (None, 32, 32, 16)        448       
_________________________________________________________________
activation_328 (Activation)  (None, 32, 32, 16)        0         
_________________________________________________________________
dropout_328 (Dropout)        (None, 32, 32, 16)        0         
_________________________________________________________________
conv2d_238 (Conv2D)          (None, 32, 32, 128)       18560     
_________________________________________________________________
batch_normalization_169 (Bat (None, 32, 32, 128)       512       
_________________________________________________________________
activation_329 (Activation)  (None, 32, 32, 128)       0         
_________________________________________________________________
dropout_329 (Dropout)        (None, 32, 32, 128)       0         
_________________________________________________________________
max_pooling2d_46 (MaxPooling (None, 16, 16, 128)       0         
_________________________________________________________________
conv2d_239 (Conv2D)          (None, 16, 16, 32)        36896     
_________________________________________________________________
activation_330 (Activation)  (None, 16, 16, 32)        0         
_________________________________________________________________
dropout_330 (Dropout)        (None, 16, 16, 32)        0         
_________________________________________________________________
conv2d_240 (Conv2D)          (None, 16, 16, 512)       147968    
_________________________________________________________________
batch_normalization_170 (Bat (None, 16, 16, 512)       2048      
_________________________________________________________________
activation_331 (Activation)  (None, 16, 16, 512)       0         
_________________________________________________________________
dropout_331 (Dropout)        (None, 16, 16, 512)       0         
_________________________________________________________________
max_pooling2d_47 (MaxPooling (None, 8, 8, 512)         0         
_________________________________________________________________
conv2d_241 (Conv2D)          (None, 8, 8, 512)         2359808   
_________________________________________________________________
batch_normalization_171 (Bat (None, 8, 8, 512)         2048      
_________________________________________________________________
activation_332 (Activation)  (None, 8, 8, 512)         0         
_________________________________________________________________
dropout_332 (Dropout)        (None, 8, 8, 512)         0         
_________________________________________________________________
conv2d_242 (Conv2D)          (None, 8, 8, 128)         589952    
_________________________________________________________________
activation_333 (Activation)  (None, 8, 8, 128)         0         
_________________________________________________________________
dropout_333 (Dropout)        (None, 8, 8, 128)         0         
_________________________________________________________________
conv2d_243 (Conv2D)          (None, 8, 8, 64)          73792     
_________________________________________________________________
activation_334 (Activation)  (None, 8, 8, 64)          0         
_________________________________________________________________
dropout_334 (Dropout)        (None, 8, 8, 64)          0         
_________________________________________________________________
flatten_36 (Flatten)         (None, 4096)              0         
_________________________________________________________________
dense_127 (Dense)            (None, 512)               2097664   
_________________________________________________________________
activation_335 (Activation)  (None, 512)               0         
_________________________________________________________________
dropout_335 (Dropout)        (None, 512)               0         
_________________________________________________________________
dense_128 (Dense)            (None, 10)                5130      
=================================================================
Total params: 5,334,826
Trainable params: 5,332,522
Non-trainable params: 2,304
_________________________________________________________________
