Model: "sequential_80"
_________________________________________________________________
Layer (type)                 Output Shape              Param #   
=================================================================
conv2d_498 (Conv2D)          (None, 32, 32, 16)        448       
_________________________________________________________________
activation_698 (Activation)  (None, 32, 32, 16)        0         
_________________________________________________________________
dropout_698 (Dropout)        (None, 32, 32, 16)        0         
_________________________________________________________________
conv2d_499 (Conv2D)          (None, 32, 32, 16)        2320      
_________________________________________________________________
batch_normalization_333 (Bat (None, 32, 32, 16)        64        
_________________________________________________________________
activation_699 (Activation)  (None, 32, 32, 16)        0         
_________________________________________________________________
dropout_699 (Dropout)        (None, 32, 32, 16)        0         
_________________________________________________________________
conv2d_500 (Conv2D)          (None, 32, 32, 32)        4640      
_________________________________________________________________
activation_700 (Activation)  (None, 32, 32, 32)        0         
_________________________________________________________________
dropout_700 (Dropout)        (None, 32, 32, 32)        0         
_________________________________________________________________
conv2d_501 (Conv2D)          (None, 32, 32, 16)        4624      
_________________________________________________________________
activation_701 (Activation)  (None, 32, 32, 16)        0         
_________________________________________________________________
dropout_701 (Dropout)        (None, 32, 32, 16)        0         
_________________________________________________________________
conv2d_502 (Conv2D)          (None, 32, 32, 64)        9280      
_________________________________________________________________
activation_702 (Activation)  (None, 32, 32, 64)        0         
_________________________________________________________________
dropout_702 (Dropout)        (None, 32, 32, 64)        0         
_________________________________________________________________
conv2d_503 (Conv2D)          (None, 32, 32, 32)        18464     
_________________________________________________________________
batch_normalization_334 (Bat (None, 32, 32, 32)        128       
_________________________________________________________________
activation_703 (Activation)  (None, 32, 32, 32)        0         
_________________________________________________________________
dropout_703 (Dropout)        (None, 32, 32, 32)        0         
_________________________________________________________________
flatten_80 (Flatten)         (None, 32768)             0         
_________________________________________________________________
dense_280 (Dense)            (None, 32)                1048608   
_________________________________________________________________
batch_normalization_335 (Bat (None, 32)                128       
_________________________________________________________________
activation_704 (Activation)  (None, 32)                0         
_________________________________________________________________
dropout_704 (Dropout)        (None, 32)                0         
_________________________________________________________________
dense_281 (Dense)            (None, 256)               8448      
_________________________________________________________________
activation_705 (Activation)  (None, 256)               0         
_________________________________________________________________
dropout_705 (Dropout)        (None, 256)               0         
_________________________________________________________________
dense_282 (Dense)            (None, 512)               131584    
_________________________________________________________________
batch_normalization_336 (Bat (None, 512)               2048      
_________________________________________________________________
activation_706 (Activation)  (None, 512)               0         
_________________________________________________________________
dropout_706 (Dropout)        (None, 512)               0         
_________________________________________________________________
dense_283 (Dense)            (None, 10)                5130      
=================================================================
Total params: 1,235,914
Trainable params: 1,234,730
Non-trainable params: 1,184
_________________________________________________________________
