Model: "sequential_68"
_________________________________________________________________
Layer (type)                 Output Shape              Param #   
=================================================================
conv2d_429 (Conv2D)          (None, 32, 32, 1024)      28672     
_________________________________________________________________
activation_599 (Activation)  (None, 32, 32, 1024)      0         
_________________________________________________________________
dropout_599 (Dropout)        (None, 32, 32, 1024)      0         
_________________________________________________________________
conv2d_430 (Conv2D)          (None, 32, 32, 16)        147472    
_________________________________________________________________
batch_normalization_293 (Bat (None, 32, 32, 16)        64        
_________________________________________________________________
activation_600 (Activation)  (None, 32, 32, 16)        0         
_________________________________________________________________
dropout_600 (Dropout)        (None, 32, 32, 16)        0         
_________________________________________________________________
conv2d_431 (Conv2D)          (None, 32, 32, 32)        4640      
_________________________________________________________________
activation_601 (Activation)  (None, 32, 32, 32)        0         
_________________________________________________________________
dropout_601 (Dropout)        (None, 32, 32, 32)        0         
_________________________________________________________________
conv2d_432 (Conv2D)          (None, 32, 32, 16)        4624      
_________________________________________________________________
activation_602 (Activation)  (None, 32, 32, 16)        0         
_________________________________________________________________
dropout_602 (Dropout)        (None, 32, 32, 16)        0         
_________________________________________________________________
conv2d_433 (Conv2D)          (None, 32, 32, 64)        9280      
_________________________________________________________________
activation_603 (Activation)  (None, 32, 32, 64)        0         
_________________________________________________________________
dropout_603 (Dropout)        (None, 32, 32, 64)        0         
_________________________________________________________________
conv2d_434 (Conv2D)          (None, 32, 32, 32)        18464     
_________________________________________________________________
batch_normalization_294 (Bat (None, 32, 32, 32)        128       
_________________________________________________________________
activation_604 (Activation)  (None, 32, 32, 32)        0         
_________________________________________________________________
dropout_604 (Dropout)        (None, 32, 32, 32)        0         
_________________________________________________________________
flatten_68 (Flatten)         (None, 32768)             0         
_________________________________________________________________
dense_238 (Dense)            (None, 32)                1048608   
_________________________________________________________________
batch_normalization_295 (Bat (None, 32)                128       
_________________________________________________________________
activation_605 (Activation)  (None, 32)                0         
_________________________________________________________________
dropout_605 (Dropout)        (None, 32)                0         
_________________________________________________________________
dense_239 (Dense)            (None, 256)               8448      
_________________________________________________________________
activation_606 (Activation)  (None, 256)               0         
_________________________________________________________________
dropout_606 (Dropout)        (None, 256)               0         
_________________________________________________________________
dense_240 (Dense)            (None, 512)               131584    
_________________________________________________________________
batch_normalization_296 (Bat (None, 512)               2048      
_________________________________________________________________
activation_607 (Activation)  (None, 512)               0         
_________________________________________________________________
dropout_607 (Dropout)        (None, 512)               0         
_________________________________________________________________
dense_241 (Dense)            (None, 10)                5130      
=================================================================
Total params: 1,409,290
Trainable params: 1,408,106
Non-trainable params: 1,184
_________________________________________________________________
