Model: "sequential_6"
_________________________________________________________________
Layer (type)                 Output Shape              Param #   
=================================================================
conv2d_47 (Conv2D)           (None, 32, 32, 128)       3584      
_________________________________________________________________
activation_68 (Activation)   (None, 32, 32, 128)       0         
_________________________________________________________________
dropout_68 (Dropout)         (None, 32, 32, 128)       0         
_________________________________________________________________
conv2d_48 (Conv2D)           (None, 32, 32, 1024)      1180672   
_________________________________________________________________
batch_normalization_33 (Batc (None, 32, 32, 1024)      4096      
_________________________________________________________________
activation_69 (Activation)   (None, 32, 32, 1024)      0         
_________________________________________________________________
dropout_69 (Dropout)         (None, 32, 32, 1024)      0         
_________________________________________________________________
conv2d_49 (Conv2D)           (None, 32, 32, 512)       4719104   
_________________________________________________________________
activation_70 (Activation)   (None, 32, 32, 512)       0         
_________________________________________________________________
dropout_70 (Dropout)         (None, 32, 32, 512)       0         
_________________________________________________________________
conv2d_50 (Conv2D)           (None, 32, 32, 128)       589952    
_________________________________________________________________
batch_normalization_34 (Batc (None, 32, 32, 128)       512       
_________________________________________________________________
activation_71 (Activation)   (None, 32, 32, 128)       0         
_________________________________________________________________
dropout_71 (Dropout)         (None, 32, 32, 128)       0         
_________________________________________________________________
conv2d_51 (Conv2D)           (None, 32, 32, 512)       590336    
_________________________________________________________________
activation_72 (Activation)   (None, 32, 32, 512)       0         
_________________________________________________________________
dropout_72 (Dropout)         (None, 32, 32, 512)       0         
_________________________________________________________________
max_pooling2d_11 (MaxPooling (None, 16, 16, 512)       0         
_________________________________________________________________
conv2d_52 (Conv2D)           (None, 16, 16, 128)       589952    
_________________________________________________________________
activation_73 (Activation)   (None, 16, 16, 128)       0         
_________________________________________________________________
dropout_73 (Dropout)         (None, 16, 16, 128)       0         
_________________________________________________________________
conv2d_53 (Conv2D)           (None, 16, 16, 1024)      1180672   
_________________________________________________________________
batch_normalization_35 (Batc (None, 16, 16, 1024)      4096      
_________________________________________________________________
activation_74 (Activation)   (None, 16, 16, 1024)      0         
_________________________________________________________________
dropout_74 (Dropout)         (None, 16, 16, 1024)      0         
_________________________________________________________________
flatten_6 (Flatten)          (None, 262144)            0         
_________________________________________________________________
dense_27 (Dense)             (None, 512)               134218240 
_________________________________________________________________
activation_75 (Activation)   (None, 512)               0         
_________________________________________________________________
dropout_75 (Dropout)         (None, 512)               0         
_________________________________________________________________
dense_28 (Dense)             (None, 256)               131328    
_________________________________________________________________
batch_normalization_36 (Batc (None, 256)               1024      
_________________________________________________________________
activation_76 (Activation)   (None, 256)               0         
_________________________________________________________________
dropout_76 (Dropout)         (None, 256)               0         
_________________________________________________________________
dense_29 (Dense)             (None, 10)                2570      
=================================================================
Total params: 143,216,138
Trainable params: 143,211,274
Non-trainable params: 4,864
_________________________________________________________________
