Model: "sequential_134"
_________________________________________________________________
Layer (type)                 Output Shape              Param #   
=================================================================
conv2d_739 (Conv2D)          (None, 32, 32, 16)        448       
_________________________________________________________________
activation_1076 (Activation) (None, 32, 32, 16)        0         
_________________________________________________________________
dropout_1076 (Dropout)       (None, 32, 32, 16)        0         
_________________________________________________________________
conv2d_740 (Conv2D)          (None, 32, 32, 128)       18560     
_________________________________________________________________
batch_normalization_516 (Bat (None, 32, 32, 128)       512       
_________________________________________________________________
activation_1077 (Activation) (None, 32, 32, 128)       0         
_________________________________________________________________
dropout_1077 (Dropout)       (None, 32, 32, 128)       0         
_________________________________________________________________
max_pooling2d_114 (MaxPoolin (None, 16, 16, 128)       0         
_________________________________________________________________
conv2d_741 (Conv2D)          (None, 16, 16, 32)        36896     
_________________________________________________________________
activation_1078 (Activation) (None, 16, 16, 32)        0         
_________________________________________________________________
dropout_1078 (Dropout)       (None, 16, 16, 32)        0         
_________________________________________________________________
conv2d_742 (Conv2D)          (None, 16, 16, 1024)      295936    
_________________________________________________________________
batch_normalization_517 (Bat (None, 16, 16, 1024)      4096      
_________________________________________________________________
activation_1079 (Activation) (None, 16, 16, 1024)      0         
_________________________________________________________________
dropout_1079 (Dropout)       (None, 16, 16, 1024)      0         
_________________________________________________________________
flatten_134 (Flatten)        (None, 262144)            0         
_________________________________________________________________
dense_471 (Dense)            (None, 256)               67109120  
_________________________________________________________________
activation_1080 (Activation) (None, 256)               0         
_________________________________________________________________
dropout_1080 (Dropout)       (None, 256)               0         
_________________________________________________________________
dense_472 (Dense)            (None, 512)               131584    
_________________________________________________________________
batch_normalization_518 (Bat (None, 512)               2048      
_________________________________________________________________
activation_1081 (Activation) (None, 512)               0         
_________________________________________________________________
dropout_1081 (Dropout)       (None, 512)               0         
_________________________________________________________________
dense_473 (Dense)            (None, 10)                5130      
=================================================================
Total params: 67,604,330
Trainable params: 67,601,002
Non-trainable params: 3,328
_________________________________________________________________
