Model: "sequential_383"
_________________________________________________________________
Layer (type)                 Output Shape              Param #   
=================================================================
conv2d_1712 (Conv2D)         (None, 32, 32, 16)        448       
_________________________________________________________________
activation_2494 (Activation) (None, 32, 32, 16)        0         
_________________________________________________________________
dropout_2494 (Dropout)       (None, 32, 32, 16)        0         
_________________________________________________________________
conv2d_1713 (Conv2D)         (None, 32, 32, 128)       18560     
_________________________________________________________________
batch_normalization_1244 (Ba (None, 32, 32, 128)       512       
_________________________________________________________________
activation_2495 (Activation) (None, 32, 32, 128)       0         
_________________________________________________________________
dropout_2495 (Dropout)       (None, 32, 32, 128)       0         
_________________________________________________________________
conv2d_1714 (Conv2D)         (None, 32, 32, 1024)      1180672   
_________________________________________________________________
activation_2496 (Activation) (None, 32, 32, 1024)      0         
_________________________________________________________________
dropout_2496 (Dropout)       (None, 32, 32, 1024)      0         
_________________________________________________________________
max_pooling2d_360 (MaxPoolin (None, 16, 16, 1024)      0         
_________________________________________________________________
conv2d_1715 (Conv2D)         (None, 16, 16, 1024)      9438208   
_________________________________________________________________
batch_normalization_1245 (Ba (None, 16, 16, 1024)      4096      
_________________________________________________________________
activation_2497 (Activation) (None, 16, 16, 1024)      0         
_________________________________________________________________
dropout_2497 (Dropout)       (None, 16, 16, 1024)      0         
_________________________________________________________________
flatten_383 (Flatten)        (None, 262144)            0         
_________________________________________________________________
dense_1165 (Dense)           (None, 64)                16777280  
_________________________________________________________________
batch_normalization_1246 (Ba (None, 64)                256       
_________________________________________________________________
activation_2498 (Activation) (None, 64)                0         
_________________________________________________________________
dropout_2498 (Dropout)       (None, 64)                0         
_________________________________________________________________
dense_1166 (Dense)           (None, 32)                2080      
_________________________________________________________________
activation_2499 (Activation) (None, 32)                0         
_________________________________________________________________
dropout_2499 (Dropout)       (None, 32)                0         
_________________________________________________________________
dense_1167 (Dense)           (None, 10)                330       
=================================================================
Total params: 27,422,442
Trainable params: 27,420,010
Non-trainable params: 2,432
_________________________________________________________________
