Model: "sequential_390"
_________________________________________________________________
Layer (type)                 Output Shape              Param #   
=================================================================
conv2d_1740 (Conv2D)         (None, 32, 32, 16)        448       
_________________________________________________________________
activation_2534 (Activation) (None, 32, 32, 16)        0         
_________________________________________________________________
dropout_2534 (Dropout)       (None, 32, 32, 16)        0         
_________________________________________________________________
conv2d_1741 (Conv2D)         (None, 32, 32, 128)       18560     
_________________________________________________________________
activation_2535 (Activation) (None, 32, 32, 128)       0         
_________________________________________________________________
dropout_2535 (Dropout)       (None, 32, 32, 128)       0         
_________________________________________________________________
conv2d_1742 (Conv2D)         (None, 32, 32, 1024)      1180672   
_________________________________________________________________
activation_2536 (Activation) (None, 32, 32, 1024)      0         
_________________________________________________________________
dropout_2536 (Dropout)       (None, 32, 32, 1024)      0         
_________________________________________________________________
max_pooling2d_366 (MaxPoolin (None, 16, 16, 1024)      0         
_________________________________________________________________
conv2d_1743 (Conv2D)         (None, 16, 16, 1024)      9438208   
_________________________________________________________________
batch_normalization_1258 (Ba (None, 16, 16, 1024)      4096      
_________________________________________________________________
activation_2537 (Activation) (None, 16, 16, 1024)      0         
_________________________________________________________________
dropout_2537 (Dropout)       (None, 16, 16, 1024)      0         
_________________________________________________________________
flatten_390 (Flatten)        (None, 262144)            0         
_________________________________________________________________
dense_1184 (Dense)           (None, 256)               67109120  
_________________________________________________________________
activation_2538 (Activation) (None, 256)               0         
_________________________________________________________________
dropout_2538 (Dropout)       (None, 256)               0         
_________________________________________________________________
dense_1185 (Dense)           (None, 10)                2570      
=================================================================
Total params: 77,753,674
Trainable params: 77,751,626
Non-trainable params: 2,048
_________________________________________________________________
