Model: "sequential_64"
_________________________________________________________________
Layer (type)                 Output Shape              Param #   
=================================================================
conv2d_404 (Conv2D)          (None, 32, 32, 1024)      28672     
_________________________________________________________________
activation_562 (Activation)  (None, 32, 32, 1024)      0         
_________________________________________________________________
dropout_562 (Dropout)        (None, 32, 32, 1024)      0         
_________________________________________________________________
conv2d_405 (Conv2D)          (None, 32, 32, 16)        147472    
_________________________________________________________________
batch_normalization_276 (Bat (None, 32, 32, 16)        64        
_________________________________________________________________
activation_563 (Activation)  (None, 32, 32, 16)        0         
_________________________________________________________________
dropout_563 (Dropout)        (None, 32, 32, 16)        0         
_________________________________________________________________
conv2d_406 (Conv2D)          (None, 32, 32, 32)        4640      
_________________________________________________________________
activation_564 (Activation)  (None, 32, 32, 32)        0         
_________________________________________________________________
dropout_564 (Dropout)        (None, 32, 32, 32)        0         
_________________________________________________________________
conv2d_407 (Conv2D)          (None, 32, 32, 16)        4624      
_________________________________________________________________
activation_565 (Activation)  (None, 32, 32, 16)        0         
_________________________________________________________________
dropout_565 (Dropout)        (None, 32, 32, 16)        0         
_________________________________________________________________
conv2d_408 (Conv2D)          (None, 32, 32, 64)        9280      
_________________________________________________________________
activation_566 (Activation)  (None, 32, 32, 64)        0         
_________________________________________________________________
dropout_566 (Dropout)        (None, 32, 32, 64)        0         
_________________________________________________________________
conv2d_409 (Conv2D)          (None, 32, 32, 32)        18464     
_________________________________________________________________
batch_normalization_277 (Bat (None, 32, 32, 32)        128       
_________________________________________________________________
activation_567 (Activation)  (None, 32, 32, 32)        0         
_________________________________________________________________
dropout_567 (Dropout)        (None, 32, 32, 32)        0         
_________________________________________________________________
flatten_64 (Flatten)         (None, 32768)             0         
_________________________________________________________________
dense_222 (Dense)            (None, 32)                1048608   
_________________________________________________________________
batch_normalization_278 (Bat (None, 32)                128       
_________________________________________________________________
activation_568 (Activation)  (None, 32)                0         
_________________________________________________________________
dropout_568 (Dropout)        (None, 32)                0         
_________________________________________________________________
dense_223 (Dense)            (None, 256)               8448      
_________________________________________________________________
activation_569 (Activation)  (None, 256)               0         
_________________________________________________________________
dropout_569 (Dropout)        (None, 256)               0         
_________________________________________________________________
dense_224 (Dense)            (None, 512)               131584    
_________________________________________________________________
batch_normalization_279 (Bat (None, 512)               2048      
_________________________________________________________________
activation_570 (Activation)  (None, 512)               0         
_________________________________________________________________
dropout_570 (Dropout)        (None, 512)               0         
_________________________________________________________________
dense_225 (Dense)            (None, 10)                5130      
=================================================================
Total params: 1,409,290
Trainable params: 1,408,106
Non-trainable params: 1,184
_________________________________________________________________
