Model: "sequential_319"
_________________________________________________________________
Layer (type)                 Output Shape              Param #   
=================================================================
conv2d_1459 (Conv2D)         (None, 32, 32, 16)        448       
_________________________________________________________________
activation_2134 (Activation) (None, 32, 32, 16)        0         
_________________________________________________________________
dropout_2134 (Dropout)       (None, 32, 32, 16)        0         
_________________________________________________________________
conv2d_1460 (Conv2D)         (None, 32, 32, 128)       18560     
_________________________________________________________________
activation_2135 (Activation) (None, 32, 32, 128)       0         
_________________________________________________________________
dropout_2135 (Dropout)       (None, 32, 32, 128)       0         
_________________________________________________________________
conv2d_1461 (Conv2D)         (None, 32, 32, 1024)      1180672   
_________________________________________________________________
activation_2136 (Activation) (None, 32, 32, 1024)      0         
_________________________________________________________________
dropout_2136 (Dropout)       (None, 32, 32, 1024)      0         
_________________________________________________________________
max_pooling2d_296 (MaxPoolin (None, 16, 16, 1024)      0         
_________________________________________________________________
conv2d_1462 (Conv2D)         (None, 16, 16, 1024)      9438208   
_________________________________________________________________
batch_normalization_1075 (Ba (None, 16, 16, 1024)      4096      
_________________________________________________________________
activation_2137 (Activation) (None, 16, 16, 1024)      0         
_________________________________________________________________
dropout_2137 (Dropout)       (None, 16, 16, 1024)      0         
_________________________________________________________________
flatten_319 (Flatten)        (None, 262144)            0         
_________________________________________________________________
dense_994 (Dense)            (None, 256)               67109120  
_________________________________________________________________
activation_2138 (Activation) (None, 256)               0         
_________________________________________________________________
dropout_2138 (Dropout)       (None, 256)               0         
_________________________________________________________________
dense_995 (Dense)            (None, 512)               131584    
_________________________________________________________________
batch_normalization_1076 (Ba (None, 512)               2048      
_________________________________________________________________
activation_2139 (Activation) (None, 512)               0         
_________________________________________________________________
dropout_2139 (Dropout)       (None, 512)               0         
_________________________________________________________________
dense_996 (Dense)            (None, 10)                5130      
=================================================================
Total params: 77,889,866
Trainable params: 77,886,794
Non-trainable params: 3,072
_________________________________________________________________
