Model: "sequential_22"
_________________________________________________________________
Layer (type)                 Output Shape              Param #   
=================================================================
conv2d_151 (Conv2D)          (None, 32, 32, 16)        448       
_________________________________________________________________
activation_213 (Activation)  (None, 32, 32, 16)        0         
_________________________________________________________________
dropout_213 (Dropout)        (None, 32, 32, 16)        0         
_________________________________________________________________
conv2d_152 (Conv2D)          (None, 32, 32, 128)       18560     
_________________________________________________________________
batch_normalization_114 (Bat (None, 32, 32, 128)       512       
_________________________________________________________________
activation_214 (Activation)  (None, 32, 32, 128)       0         
_________________________________________________________________
dropout_214 (Dropout)        (None, 32, 32, 128)       0         
_________________________________________________________________
max_pooling2d_30 (MaxPooling (None, 16, 16, 128)       0         
_________________________________________________________________
conv2d_153 (Conv2D)          (None, 16, 16, 32)        36896     
_________________________________________________________________
activation_215 (Activation)  (None, 16, 16, 32)        0         
_________________________________________________________________
dropout_215 (Dropout)        (None, 16, 16, 32)        0         
_________________________________________________________________
conv2d_154 (Conv2D)          (None, 16, 16, 512)       147968    
_________________________________________________________________
batch_normalization_115 (Bat (None, 16, 16, 512)       2048      
_________________________________________________________________
activation_216 (Activation)  (None, 16, 16, 512)       0         
_________________________________________________________________
dropout_216 (Dropout)        (None, 16, 16, 512)       0         
_________________________________________________________________
max_pooling2d_31 (MaxPooling (None, 8, 8, 512)         0         
_________________________________________________________________
conv2d_155 (Conv2D)          (None, 8, 8, 512)         2359808   
_________________________________________________________________
batch_normalization_116 (Bat (None, 8, 8, 512)         2048      
_________________________________________________________________
activation_217 (Activation)  (None, 8, 8, 512)         0         
_________________________________________________________________
dropout_217 (Dropout)        (None, 8, 8, 512)         0         
_________________________________________________________________
conv2d_156 (Conv2D)          (None, 8, 8, 128)         589952    
_________________________________________________________________
activation_218 (Activation)  (None, 8, 8, 128)         0         
_________________________________________________________________
dropout_218 (Dropout)        (None, 8, 8, 128)         0         
_________________________________________________________________
conv2d_157 (Conv2D)          (None, 8, 8, 64)          73792     
_________________________________________________________________
activation_219 (Activation)  (None, 8, 8, 64)          0         
_________________________________________________________________
dropout_219 (Dropout)        (None, 8, 8, 64)          0         
_________________________________________________________________
flatten_22 (Flatten)         (None, 4096)              0         
_________________________________________________________________
dense_84 (Dense)             (None, 512)               2097664   
_________________________________________________________________
activation_220 (Activation)  (None, 512)               0         
_________________________________________________________________
dropout_220 (Dropout)        (None, 512)               0         
_________________________________________________________________
dense_85 (Dense)             (None, 10)                5130      
=================================================================
Total params: 5,334,826
Trainable params: 5,332,522
Non-trainable params: 2,304
_________________________________________________________________
