Model: "sequential_52"
_________________________________________________________________
Layer (type)                 Output Shape              Param #   
=================================================================
conv2d_335 (Conv2D)          (None, 32, 32, 16)        448       
_________________________________________________________________
activation_462 (Activation)  (None, 32, 32, 16)        0         
_________________________________________________________________
dropout_462 (Dropout)        (None, 32, 32, 16)        0         
_________________________________________________________________
conv2d_336 (Conv2D)          (None, 32, 32, 128)       18560     
_________________________________________________________________
batch_normalization_231 (Bat (None, 32, 32, 128)       512       
_________________________________________________________________
activation_463 (Activation)  (None, 32, 32, 128)       0         
_________________________________________________________________
dropout_463 (Dropout)        (None, 32, 32, 128)       0         
_________________________________________________________________
max_pooling2d_66 (MaxPooling (None, 16, 16, 128)       0         
_________________________________________________________________
conv2d_337 (Conv2D)          (None, 16, 16, 32)        36896     
_________________________________________________________________
activation_464 (Activation)  (None, 16, 16, 32)        0         
_________________________________________________________________
dropout_464 (Dropout)        (None, 16, 16, 32)        0         
_________________________________________________________________
conv2d_338 (Conv2D)          (None, 16, 16, 16)        4624      
_________________________________________________________________
activation_465 (Activation)  (None, 16, 16, 16)        0         
_________________________________________________________________
dropout_465 (Dropout)        (None, 16, 16, 16)        0         
_________________________________________________________________
conv2d_339 (Conv2D)          (None, 16, 16, 64)        9280      
_________________________________________________________________
activation_466 (Activation)  (None, 16, 16, 64)        0         
_________________________________________________________________
dropout_466 (Dropout)        (None, 16, 16, 64)        0         
_________________________________________________________________
conv2d_340 (Conv2D)          (None, 16, 16, 32)        18464     
_________________________________________________________________
batch_normalization_232 (Bat (None, 16, 16, 32)        128       
_________________________________________________________________
activation_467 (Activation)  (None, 16, 16, 32)        0         
_________________________________________________________________
dropout_467 (Dropout)        (None, 16, 16, 32)        0         
_________________________________________________________________
flatten_52 (Flatten)         (None, 8192)              0         
_________________________________________________________________
dense_179 (Dense)            (None, 32)                262176    
_________________________________________________________________
batch_normalization_233 (Bat (None, 32)                128       
_________________________________________________________________
activation_468 (Activation)  (None, 32)                0         
_________________________________________________________________
dropout_468 (Dropout)        (None, 32)                0         
_________________________________________________________________
dense_180 (Dense)            (None, 128)               4224      
_________________________________________________________________
activation_469 (Activation)  (None, 128)               0         
_________________________________________________________________
dropout_469 (Dropout)        (None, 128)               0         
_________________________________________________________________
dense_181 (Dense)            (None, 64)                8256      
_________________________________________________________________
batch_normalization_234 (Bat (None, 64)                256       
_________________________________________________________________
activation_470 (Activation)  (None, 64)                0         
_________________________________________________________________
dropout_470 (Dropout)        (None, 64)                0         
_________________________________________________________________
dense_182 (Dense)            (None, 10)                650       
=================================================================
Total params: 364,602
Trainable params: 364,090
Non-trainable params: 512
_________________________________________________________________
