Model: "sequential_388"
_________________________________________________________________
Layer (type)                 Output Shape              Param #   
=================================================================
conv2d_1732 (Conv2D)         (None, 32, 32, 16)        448       
_________________________________________________________________
activation_2523 (Activation) (None, 32, 32, 16)        0         
_________________________________________________________________
dropout_2523 (Dropout)       (None, 32, 32, 16)        0         
_________________________________________________________________
conv2d_1733 (Conv2D)         (None, 32, 32, 128)       18560     
_________________________________________________________________
activation_2524 (Activation) (None, 32, 32, 128)       0         
_________________________________________________________________
dropout_2524 (Dropout)       (None, 32, 32, 128)       0         
_________________________________________________________________
conv2d_1734 (Conv2D)         (None, 32, 32, 1024)      1180672   
_________________________________________________________________
activation_2525 (Activation) (None, 32, 32, 1024)      0         
_________________________________________________________________
dropout_2525 (Dropout)       (None, 32, 32, 1024)      0         
_________________________________________________________________
max_pooling2d_364 (MaxPoolin (None, 16, 16, 1024)      0         
_________________________________________________________________
conv2d_1735 (Conv2D)         (None, 16, 16, 1024)      9438208   
_________________________________________________________________
batch_normalization_1255 (Ba (None, 16, 16, 1024)      4096      
_________________________________________________________________
activation_2526 (Activation) (None, 16, 16, 1024)      0         
_________________________________________________________________
dropout_2526 (Dropout)       (None, 16, 16, 1024)      0         
_________________________________________________________________
flatten_388 (Flatten)        (None, 262144)            0         
_________________________________________________________________
dense_1179 (Dense)           (None, 256)               67109120  
_________________________________________________________________
activation_2527 (Activation) (None, 256)               0         
_________________________________________________________________
dropout_2527 (Dropout)       (None, 256)               0         
_________________________________________________________________
dense_1180 (Dense)           (None, 10)                2570      
=================================================================
Total params: 77,753,674
Trainable params: 77,751,626
Non-trainable params: 2,048
_________________________________________________________________
