Model: "sequential_40"
_________________________________________________________________
Layer (type)                 Output Shape              Param #   
=================================================================
conv2d_261 (Conv2D)          (None, 32, 32, 16)        448       
_________________________________________________________________
activation_360 (Activation)  (None, 32, 32, 16)        0         
_________________________________________________________________
dropout_360 (Dropout)        (None, 32, 32, 16)        0         
_________________________________________________________________
conv2d_262 (Conv2D)          (None, 32, 32, 128)       18560     
_________________________________________________________________
batch_normalization_185 (Bat (None, 32, 32, 128)       512       
_________________________________________________________________
activation_361 (Activation)  (None, 32, 32, 128)       0         
_________________________________________________________________
dropout_361 (Dropout)        (None, 32, 32, 128)       0         
_________________________________________________________________
max_pooling2d_52 (MaxPooling (None, 16, 16, 128)       0         
_________________________________________________________________
conv2d_263 (Conv2D)          (None, 16, 16, 32)        36896     
_________________________________________________________________
activation_362 (Activation)  (None, 16, 16, 32)        0         
_________________________________________________________________
dropout_362 (Dropout)        (None, 16, 16, 32)        0         
_________________________________________________________________
conv2d_264 (Conv2D)          (None, 16, 16, 16)        4624      
_________________________________________________________________
activation_363 (Activation)  (None, 16, 16, 16)        0         
_________________________________________________________________
dropout_363 (Dropout)        (None, 16, 16, 16)        0         
_________________________________________________________________
conv2d_265 (Conv2D)          (None, 16, 16, 1024)      148480    
_________________________________________________________________
batch_normalization_186 (Bat (None, 16, 16, 1024)      4096      
_________________________________________________________________
activation_364 (Activation)  (None, 16, 16, 1024)      0         
_________________________________________________________________
dropout_364 (Dropout)        (None, 16, 16, 1024)      0         
_________________________________________________________________
conv2d_266 (Conv2D)          (None, 16, 16, 128)       1179776   
_________________________________________________________________
activation_365 (Activation)  (None, 16, 16, 128)       0         
_________________________________________________________________
dropout_365 (Dropout)        (None, 16, 16, 128)       0         
_________________________________________________________________
conv2d_267 (Conv2D)          (None, 16, 16, 64)        73792     
_________________________________________________________________
activation_366 (Activation)  (None, 16, 16, 64)        0         
_________________________________________________________________
dropout_366 (Dropout)        (None, 16, 16, 64)        0         
_________________________________________________________________
flatten_40 (Flatten)         (None, 16384)             0         
_________________________________________________________________
dense_139 (Dense)            (None, 512)               8389120   
_________________________________________________________________
activation_367 (Activation)  (None, 512)               0         
_________________________________________________________________
dropout_367 (Dropout)        (None, 512)               0         
_________________________________________________________________
dense_140 (Dense)            (None, 10)                5130      
=================================================================
Total params: 9,861,434
Trainable params: 9,859,130
Non-trainable params: 2,304
_________________________________________________________________
