Model: "sequential_94"
_________________________________________________________________
Layer (type)                 Output Shape              Param #   
=================================================================
conv2d_565 (Conv2D)          (None, 32, 32, 16)        448       
_________________________________________________________________
activation_805 (Activation)  (None, 32, 32, 16)        0         
_________________________________________________________________
dropout_805 (Dropout)        (None, 32, 32, 16)        0         
_________________________________________________________________
conv2d_566 (Conv2D)          (None, 32, 32, 128)       18560     
_________________________________________________________________
batch_normalization_383 (Bat (None, 32, 32, 128)       512       
_________________________________________________________________
activation_806 (Activation)  (None, 32, 32, 128)       0         
_________________________________________________________________
dropout_806 (Dropout)        (None, 32, 32, 128)       0         
_________________________________________________________________
max_pooling2d_91 (MaxPooling (None, 16, 16, 128)       0         
_________________________________________________________________
conv2d_567 (Conv2D)          (None, 16, 16, 32)        36896     
_________________________________________________________________
activation_807 (Activation)  (None, 16, 16, 32)        0         
_________________________________________________________________
dropout_807 (Dropout)        (None, 16, 16, 32)        0         
_________________________________________________________________
conv2d_568 (Conv2D)          (None, 16, 16, 16)        4624      
_________________________________________________________________
activation_808 (Activation)  (None, 16, 16, 16)        0         
_________________________________________________________________
dropout_808 (Dropout)        (None, 16, 16, 16)        0         
_________________________________________________________________
conv2d_569 (Conv2D)          (None, 16, 16, 1024)      148480    
_________________________________________________________________
batch_normalization_384 (Bat (None, 16, 16, 1024)      4096      
_________________________________________________________________
activation_809 (Activation)  (None, 16, 16, 1024)      0         
_________________________________________________________________
dropout_809 (Dropout)        (None, 16, 16, 1024)      0         
_________________________________________________________________
flatten_94 (Flatten)         (None, 262144)            0         
_________________________________________________________________
dense_334 (Dense)            (None, 256)               67109120  
_________________________________________________________________
activation_810 (Activation)  (None, 256)               0         
_________________________________________________________________
dropout_810 (Dropout)        (None, 256)               0         
_________________________________________________________________
dense_335 (Dense)            (None, 512)               131584    
_________________________________________________________________
batch_normalization_385 (Bat (None, 512)               2048      
_________________________________________________________________
activation_811 (Activation)  (None, 512)               0         
_________________________________________________________________
dropout_811 (Dropout)        (None, 512)               0         
_________________________________________________________________
dense_336 (Dense)            (None, 32)                16416     
_________________________________________________________________
batch_normalization_386 (Bat (None, 32)                128       
_________________________________________________________________
activation_812 (Activation)  (None, 32)                0         
_________________________________________________________________
dropout_812 (Dropout)        (None, 32)                0         
_________________________________________________________________
dense_337 (Dense)            (None, 10)                330       
=================================================================
Total params: 67,473,242
Trainable params: 67,469,850
Non-trainable params: 3,392
_________________________________________________________________
