Model: "sequential_392"
_________________________________________________________________
Layer (type)                 Output Shape              Param #   
=================================================================
conv2d_1748 (Conv2D)         (None, 32, 32, 16)        448       
_________________________________________________________________
activation_2545 (Activation) (None, 32, 32, 16)        0         
_________________________________________________________________
dropout_2545 (Dropout)       (None, 32, 32, 16)        0         
_________________________________________________________________
conv2d_1749 (Conv2D)         (None, 32, 32, 128)       18560     
_________________________________________________________________
activation_2546 (Activation) (None, 32, 32, 128)       0         
_________________________________________________________________
dropout_2546 (Dropout)       (None, 32, 32, 128)       0         
_________________________________________________________________
conv2d_1750 (Conv2D)         (None, 32, 32, 1024)      1180672   
_________________________________________________________________
batch_normalization_1261 (Ba (None, 32, 32, 1024)      4096      
_________________________________________________________________
activation_2547 (Activation) (None, 32, 32, 1024)      0         
_________________________________________________________________
dropout_2547 (Dropout)       (None, 32, 32, 1024)      0         
_________________________________________________________________
flatten_392 (Flatten)        (None, 1048576)           0         
_________________________________________________________________
dense_1189 (Dense)           (None, 64)                67108928  
_________________________________________________________________
batch_normalization_1262 (Ba (None, 64)                256       
_________________________________________________________________
activation_2548 (Activation) (None, 64)                0         
_________________________________________________________________
dropout_2548 (Dropout)       (None, 64)                0         
_________________________________________________________________
dense_1190 (Dense)           (None, 32)                2080      
_________________________________________________________________
activation_2549 (Activation) (None, 32)                0         
_________________________________________________________________
dropout_2549 (Dropout)       (None, 32)                0         
_________________________________________________________________
dense_1191 (Dense)           (None, 10)                330       
=================================================================
Total params: 68,315,370
Trainable params: 68,313,194
Non-trainable params: 2,176
_________________________________________________________________
