Model: "sequential_171"
_________________________________________________________________
Layer (type)                 Output Shape              Param #   
=================================================================
conv2d_888 (Conv2D)          (None, 32, 32, 16)        448       
_________________________________________________________________
activation_1301 (Activation) (None, 32, 32, 16)        0         
_________________________________________________________________
dropout_1301 (Dropout)       (None, 32, 32, 16)        0         
_________________________________________________________________
conv2d_889 (Conv2D)          (None, 32, 32, 128)       18560     
_________________________________________________________________
batch_normalization_630 (Bat (None, 32, 32, 128)       512       
_________________________________________________________________
activation_1302 (Activation) (None, 32, 32, 128)       0         
_________________________________________________________________
dropout_1302 (Dropout)       (None, 32, 32, 128)       0         
_________________________________________________________________
max_pooling2d_148 (MaxPoolin (None, 16, 16, 128)       0         
_________________________________________________________________
conv2d_890 (Conv2D)          (None, 16, 16, 32)        36896     
_________________________________________________________________
activation_1303 (Activation) (None, 16, 16, 32)        0         
_________________________________________________________________
dropout_1303 (Dropout)       (None, 16, 16, 32)        0         
_________________________________________________________________
conv2d_891 (Conv2D)          (None, 16, 16, 1024)      295936    
_________________________________________________________________
batch_normalization_631 (Bat (None, 16, 16, 1024)      4096      
_________________________________________________________________
activation_1304 (Activation) (None, 16, 16, 1024)      0         
_________________________________________________________________
dropout_1304 (Dropout)       (None, 16, 16, 1024)      0         
_________________________________________________________________
flatten_171 (Flatten)        (None, 262144)            0         
_________________________________________________________________
dense_584 (Dense)            (None, 16)                4194320   
_________________________________________________________________
activation_1305 (Activation) (None, 16)                0         
_________________________________________________________________
dropout_1305 (Dropout)       (None, 16)                0         
_________________________________________________________________
dense_585 (Dense)            (None, 512)               8704      
_________________________________________________________________
batch_normalization_632 (Bat (None, 512)               2048      
_________________________________________________________________
activation_1306 (Activation) (None, 512)               0         
_________________________________________________________________
dropout_1306 (Dropout)       (None, 512)               0         
_________________________________________________________________
dense_586 (Dense)            (None, 10)                5130      
=================================================================
Total params: 4,566,650
Trainable params: 4,563,322
Non-trainable params: 3,328
_________________________________________________________________
