Model: "sequential_88"
_________________________________________________________________
Layer (type)                 Output Shape              Param #   
=================================================================
conv2d_536 (Conv2D)          (None, 32, 32, 1024)      28672     
_________________________________________________________________
activation_760 (Activation)  (None, 32, 32, 1024)      0         
_________________________________________________________________
dropout_760 (Dropout)        (None, 32, 32, 1024)      0         
_________________________________________________________________
conv2d_537 (Conv2D)          (None, 32, 32, 16)        147472    
_________________________________________________________________
batch_normalization_361 (Bat (None, 32, 32, 16)        64        
_________________________________________________________________
activation_761 (Activation)  (None, 32, 32, 16)        0         
_________________________________________________________________
dropout_761 (Dropout)        (None, 32, 32, 16)        0         
_________________________________________________________________
conv2d_538 (Conv2D)          (None, 32, 32, 32)        4640      
_________________________________________________________________
activation_762 (Activation)  (None, 32, 32, 32)        0         
_________________________________________________________________
dropout_762 (Dropout)        (None, 32, 32, 32)        0         
_________________________________________________________________
conv2d_539 (Conv2D)          (None, 32, 32, 16)        4624      
_________________________________________________________________
activation_763 (Activation)  (None, 32, 32, 16)        0         
_________________________________________________________________
dropout_763 (Dropout)        (None, 32, 32, 16)        0         
_________________________________________________________________
conv2d_540 (Conv2D)          (None, 32, 32, 64)        9280      
_________________________________________________________________
activation_764 (Activation)  (None, 32, 32, 64)        0         
_________________________________________________________________
dropout_764 (Dropout)        (None, 32, 32, 64)        0         
_________________________________________________________________
conv2d_541 (Conv2D)          (None, 32, 32, 32)        18464     
_________________________________________________________________
batch_normalization_362 (Bat (None, 32, 32, 32)        128       
_________________________________________________________________
activation_765 (Activation)  (None, 32, 32, 32)        0         
_________________________________________________________________
dropout_765 (Dropout)        (None, 32, 32, 32)        0         
_________________________________________________________________
flatten_88 (Flatten)         (None, 32768)             0         
_________________________________________________________________
dense_312 (Dense)            (None, 32)                1048608   
_________________________________________________________________
batch_normalization_363 (Bat (None, 32)                128       
_________________________________________________________________
activation_766 (Activation)  (None, 32)                0         
_________________________________________________________________
dropout_766 (Dropout)        (None, 32)                0         
_________________________________________________________________
dense_313 (Dense)            (None, 256)               8448      
_________________________________________________________________
activation_767 (Activation)  (None, 256)               0         
_________________________________________________________________
dropout_767 (Dropout)        (None, 256)               0         
_________________________________________________________________
dense_314 (Dense)            (None, 512)               131584    
_________________________________________________________________
batch_normalization_364 (Bat (None, 512)               2048      
_________________________________________________________________
activation_768 (Activation)  (None, 512)               0         
_________________________________________________________________
dropout_768 (Dropout)        (None, 512)               0         
_________________________________________________________________
dense_315 (Dense)            (None, 10)                5130      
=================================================================
Total params: 1,409,290
Trainable params: 1,408,106
Non-trainable params: 1,184
_________________________________________________________________
