Model: "sequential_217"
_________________________________________________________________
Layer (type)                 Output Shape              Param #   
=================================================================
conv2d_1069 (Conv2D)         (None, 32, 32, 16)        448       
_________________________________________________________________
activation_1570 (Activation) (None, 32, 32, 16)        0         
_________________________________________________________________
dropout_1570 (Dropout)       (None, 32, 32, 16)        0         
_________________________________________________________________
conv2d_1070 (Conv2D)         (None, 32, 32, 128)       18560     
_________________________________________________________________
batch_normalization_762 (Bat (None, 32, 32, 128)       512       
_________________________________________________________________
activation_1571 (Activation) (None, 32, 32, 128)       0         
_________________________________________________________________
dropout_1571 (Dropout)       (None, 32, 32, 128)       0         
_________________________________________________________________
max_pooling2d_194 (MaxPoolin (None, 16, 16, 128)       0         
_________________________________________________________________
conv2d_1071 (Conv2D)         (None, 16, 16, 32)        36896     
_________________________________________________________________
activation_1572 (Activation) (None, 16, 16, 32)        0         
_________________________________________________________________
dropout_1572 (Dropout)       (None, 16, 16, 32)        0         
_________________________________________________________________
conv2d_1072 (Conv2D)         (None, 16, 16, 1024)      295936    
_________________________________________________________________
batch_normalization_763 (Bat (None, 16, 16, 1024)      4096      
_________________________________________________________________
activation_1573 (Activation) (None, 16, 16, 1024)      0         
_________________________________________________________________
dropout_1573 (Dropout)       (None, 16, 16, 1024)      0         
_________________________________________________________________
flatten_217 (Flatten)        (None, 262144)            0         
_________________________________________________________________
dense_718 (Dense)            (None, 256)               67109120  
_________________________________________________________________
activation_1574 (Activation) (None, 256)               0         
_________________________________________________________________
dropout_1574 (Dropout)       (None, 256)               0         
_________________________________________________________________
dense_719 (Dense)            (None, 512)               131584    
_________________________________________________________________
batch_normalization_764 (Bat (None, 512)               2048      
_________________________________________________________________
activation_1575 (Activation) (None, 512)               0         
_________________________________________________________________
dropout_1575 (Dropout)       (None, 512)               0         
_________________________________________________________________
dense_720 (Dense)            (None, 10)                5130      
=================================================================
Total params: 67,604,330
Trainable params: 67,601,002
Non-trainable params: 3,328
_________________________________________________________________
