Model: "sequential_326"
_________________________________________________________________
Layer (type)                 Output Shape              Param #   
=================================================================
conv2d_1487 (Conv2D)         (None, 32, 32, 128)       3584      
_________________________________________________________________
activation_2174 (Activation) (None, 32, 32, 128)       0         
_________________________________________________________________
dropout_2174 (Dropout)       (None, 32, 32, 128)       0         
_________________________________________________________________
conv2d_1488 (Conv2D)         (None, 32, 32, 128)       147584    
_________________________________________________________________
batch_normalization_1095 (Ba (None, 32, 32, 128)       512       
_________________________________________________________________
activation_2175 (Activation) (None, 32, 32, 128)       0         
_________________________________________________________________
dropout_2175 (Dropout)       (None, 32, 32, 128)       0         
_________________________________________________________________
conv2d_1489 (Conv2D)         (None, 32, 32, 32)        36896     
_________________________________________________________________
activation_2176 (Activation) (None, 32, 32, 32)        0         
_________________________________________________________________
dropout_2176 (Dropout)       (None, 32, 32, 32)        0         
_________________________________________________________________
max_pooling2d_302 (MaxPoolin (None, 16, 16, 32)        0         
_________________________________________________________________
conv2d_1490 (Conv2D)         (None, 16, 16, 1024)      295936    
_________________________________________________________________
batch_normalization_1096 (Ba (None, 16, 16, 1024)      4096      
_________________________________________________________________
activation_2177 (Activation) (None, 16, 16, 1024)      0         
_________________________________________________________________
dropout_2177 (Dropout)       (None, 16, 16, 1024)      0         
_________________________________________________________________
flatten_326 (Flatten)        (None, 262144)            0         
_________________________________________________________________
dense_1013 (Dense)           (None, 512)               134218240 
_________________________________________________________________
batch_normalization_1097 (Ba (None, 512)               2048      
_________________________________________________________________
activation_2178 (Activation) (None, 512)               0         
_________________________________________________________________
dropout_2178 (Dropout)       (None, 512)               0         
_________________________________________________________________
dense_1014 (Dense)           (None, 10)                5130      
=================================================================
Total params: 134,714,026
Trainable params: 134,710,698
Non-trainable params: 3,328
_________________________________________________________________
