Model: "sequential_167"
_________________________________________________________________
Layer (type)                 Output Shape              Param #   
=================================================================
conv2d_872 (Conv2D)          (None, 32, 32, 16)        448       
_________________________________________________________________
activation_1277 (Activation) (None, 32, 32, 16)        0         
_________________________________________________________________
dropout_1277 (Dropout)       (None, 32, 32, 16)        0         
_________________________________________________________________
conv2d_873 (Conv2D)          (None, 32, 32, 128)       18560     
_________________________________________________________________
batch_normalization_618 (Bat (None, 32, 32, 128)       512       
_________________________________________________________________
activation_1278 (Activation) (None, 32, 32, 128)       0         
_________________________________________________________________
dropout_1278 (Dropout)       (None, 32, 32, 128)       0         
_________________________________________________________________
max_pooling2d_144 (MaxPoolin (None, 16, 16, 128)       0         
_________________________________________________________________
conv2d_874 (Conv2D)          (None, 16, 16, 32)        36896     
_________________________________________________________________
activation_1279 (Activation) (None, 16, 16, 32)        0         
_________________________________________________________________
dropout_1279 (Dropout)       (None, 16, 16, 32)        0         
_________________________________________________________________
conv2d_875 (Conv2D)          (None, 16, 16, 1024)      295936    
_________________________________________________________________
batch_normalization_619 (Bat (None, 16, 16, 1024)      4096      
_________________________________________________________________
activation_1280 (Activation) (None, 16, 16, 1024)      0         
_________________________________________________________________
dropout_1280 (Dropout)       (None, 16, 16, 1024)      0         
_________________________________________________________________
flatten_167 (Flatten)        (None, 262144)            0         
_________________________________________________________________
dense_572 (Dense)            (None, 256)               67109120  
_________________________________________________________________
activation_1281 (Activation) (None, 256)               0         
_________________________________________________________________
dropout_1281 (Dropout)       (None, 256)               0         
_________________________________________________________________
dense_573 (Dense)            (None, 512)               131584    
_________________________________________________________________
batch_normalization_620 (Bat (None, 512)               2048      
_________________________________________________________________
activation_1282 (Activation) (None, 512)               0         
_________________________________________________________________
dropout_1282 (Dropout)       (None, 512)               0         
_________________________________________________________________
dense_574 (Dense)            (None, 10)                5130      
=================================================================
Total params: 67,604,330
Trainable params: 67,601,002
Non-trainable params: 3,328
_________________________________________________________________
