Model: "sequential_377"
_________________________________________________________________
Layer (type)                 Output Shape              Param #   
=================================================================
conv2d_1689 (Conv2D)         (None, 32, 32, 16)        448       
_________________________________________________________________
activation_2462 (Activation) (None, 32, 32, 16)        0         
_________________________________________________________________
dropout_2462 (Dropout)       (None, 32, 32, 16)        0         
_________________________________________________________________
conv2d_1690 (Conv2D)         (None, 32, 32, 128)       18560     
_________________________________________________________________
activation_2463 (Activation) (None, 32, 32, 128)       0         
_________________________________________________________________
dropout_2463 (Dropout)       (None, 32, 32, 128)       0         
_________________________________________________________________
conv2d_1691 (Conv2D)         (None, 32, 32, 1024)      1180672   
_________________________________________________________________
activation_2464 (Activation) (None, 32, 32, 1024)      0         
_________________________________________________________________
dropout_2464 (Dropout)       (None, 32, 32, 1024)      0         
_________________________________________________________________
max_pooling2d_356 (MaxPoolin (None, 16, 16, 1024)      0         
_________________________________________________________________
conv2d_1692 (Conv2D)         (None, 16, 16, 1024)      9438208   
_________________________________________________________________
batch_normalization_1232 (Ba (None, 16, 16, 1024)      4096      
_________________________________________________________________
activation_2465 (Activation) (None, 16, 16, 1024)      0         
_________________________________________________________________
dropout_2465 (Dropout)       (None, 16, 16, 1024)      0         
_________________________________________________________________
flatten_377 (Flatten)        (None, 262144)            0         
_________________________________________________________________
dense_1150 (Dense)           (None, 256)               67109120  
_________________________________________________________________
activation_2466 (Activation) (None, 256)               0         
_________________________________________________________________
dropout_2466 (Dropout)       (None, 256)               0         
_________________________________________________________________
dense_1151 (Dense)           (None, 10)                2570      
=================================================================
Total params: 77,753,674
Trainable params: 77,751,626
Non-trainable params: 2,048
_________________________________________________________________
