Model: "sequential_96"
_________________________________________________________________
Layer (type)                 Output Shape              Param #   
=================================================================
conv2d_574 (Conv2D)          (None, 32, 32, 16)        448       
_________________________________________________________________
activation_819 (Activation)  (None, 32, 32, 16)        0         
_________________________________________________________________
dropout_819 (Dropout)        (None, 32, 32, 16)        0         
_________________________________________________________________
conv2d_575 (Conv2D)          (None, 32, 32, 32)        4640      
_________________________________________________________________
activation_820 (Activation)  (None, 32, 32, 32)        0         
_________________________________________________________________
dropout_820 (Dropout)        (None, 32, 32, 32)        0         
_________________________________________________________________
conv2d_576 (Conv2D)          (None, 32, 32, 1024)      295936    
_________________________________________________________________
batch_normalization_390 (Bat (None, 32, 32, 1024)      4096      
_________________________________________________________________
activation_821 (Activation)  (None, 32, 32, 1024)      0         
_________________________________________________________________
dropout_821 (Dropout)        (None, 32, 32, 1024)      0         
_________________________________________________________________
flatten_96 (Flatten)         (None, 1048576)           0         
_________________________________________________________________
dense_341 (Dense)            (None, 256)               268435712 
_________________________________________________________________
activation_822 (Activation)  (None, 256)               0         
_________________________________________________________________
dropout_822 (Dropout)        (None, 256)               0         
_________________________________________________________________
dense_342 (Dense)            (None, 512)               131584    
_________________________________________________________________
batch_normalization_391 (Bat (None, 512)               2048      
_________________________________________________________________
activation_823 (Activation)  (None, 512)               0         
_________________________________________________________________
dropout_823 (Dropout)        (None, 512)               0         
_________________________________________________________________
dense_343 (Dense)            (None, 32)                16416     
_________________________________________________________________
batch_normalization_392 (Bat (None, 32)                128       
_________________________________________________________________
activation_824 (Activation)  (None, 32)                0         
_________________________________________________________________
dropout_824 (Dropout)        (None, 32)                0         
_________________________________________________________________
dense_344 (Dense)            (None, 10)                330       
=================================================================
Total params: 268,891,338
Trainable params: 268,888,202
Non-trainable params: 3,136
_________________________________________________________________
