Model: "sequential_274"
_________________________________________________________________
Layer (type)                 Output Shape              Param #   
=================================================================
conv2d_1288 (Conv2D)         (None, 32, 32, 16)        448       
_________________________________________________________________
activation_1894 (Activation) (None, 32, 32, 16)        0         
_________________________________________________________________
dropout_1894 (Dropout)       (None, 32, 32, 16)        0         
_________________________________________________________________
conv2d_1289 (Conv2D)         (None, 32, 32, 8)         1160      
_________________________________________________________________
batch_normalization_949 (Bat (None, 32, 32, 8)         32        
_________________________________________________________________
activation_1895 (Activation) (None, 32, 32, 8)         0         
_________________________________________________________________
dropout_1895 (Dropout)       (None, 32, 32, 8)         0         
_________________________________________________________________
max_pooling2d_248 (MaxPoolin (None, 16, 16, 8)         0         
_________________________________________________________________
conv2d_1290 (Conv2D)         (None, 16, 16, 32)        2336      
_________________________________________________________________
activation_1896 (Activation) (None, 16, 16, 32)        0         
_________________________________________________________________
dropout_1896 (Dropout)       (None, 16, 16, 32)        0         
_________________________________________________________________
conv2d_1291 (Conv2D)         (None, 16, 16, 1024)      295936    
_________________________________________________________________
batch_normalization_950 (Bat (None, 16, 16, 1024)      4096      
_________________________________________________________________
activation_1897 (Activation) (None, 16, 16, 1024)      0         
_________________________________________________________________
dropout_1897 (Dropout)       (None, 16, 16, 1024)      0         
_________________________________________________________________
flatten_274 (Flatten)        (None, 262144)            0         
_________________________________________________________________
dense_880 (Dense)            (None, 256)               67109120  
_________________________________________________________________
batch_normalization_951 (Bat (None, 256)               1024      
_________________________________________________________________
activation_1898 (Activation) (None, 256)               0         
_________________________________________________________________
dropout_1898 (Dropout)       (None, 256)               0         
_________________________________________________________________
dense_881 (Dense)            (None, 512)               131584    
_________________________________________________________________
batch_normalization_952 (Bat (None, 512)               2048      
_________________________________________________________________
activation_1899 (Activation) (None, 512)               0         
_________________________________________________________________
dropout_1899 (Dropout)       (None, 512)               0         
_________________________________________________________________
dense_882 (Dense)            (None, 10)                5130      
=================================================================
Total params: 67,552,914
Trainable params: 67,549,314
Non-trainable params: 3,600
_________________________________________________________________
