Model: "sequential_252"
_________________________________________________________________
Layer (type)                 Output Shape              Param #   
=================================================================
conv2d_1206 (Conv2D)         (None, 32, 32, 16)        448       
_________________________________________________________________
activation_1770 (Activation) (None, 32, 32, 16)        0         
_________________________________________________________________
dropout_1770 (Dropout)       (None, 32, 32, 16)        0         
_________________________________________________________________
conv2d_1207 (Conv2D)         (None, 32, 32, 8)         1160      
_________________________________________________________________
batch_normalization_874 (Bat (None, 32, 32, 8)         32        
_________________________________________________________________
activation_1771 (Activation) (None, 32, 32, 8)         0         
_________________________________________________________________
dropout_1771 (Dropout)       (None, 32, 32, 8)         0         
_________________________________________________________________
max_pooling2d_229 (MaxPoolin (None, 16, 16, 8)         0         
_________________________________________________________________
conv2d_1208 (Conv2D)         (None, 16, 16, 32)        2336      
_________________________________________________________________
activation_1772 (Activation) (None, 16, 16, 32)        0         
_________________________________________________________________
dropout_1772 (Dropout)       (None, 16, 16, 32)        0         
_________________________________________________________________
conv2d_1209 (Conv2D)         (None, 16, 16, 1024)      295936    
_________________________________________________________________
batch_normalization_875 (Bat (None, 16, 16, 1024)      4096      
_________________________________________________________________
activation_1773 (Activation) (None, 16, 16, 1024)      0         
_________________________________________________________________
dropout_1773 (Dropout)       (None, 16, 16, 1024)      0         
_________________________________________________________________
flatten_252 (Flatten)        (None, 262144)            0         
_________________________________________________________________
dense_816 (Dense)            (None, 512)               134218240 
_________________________________________________________________
batch_normalization_876 (Bat (None, 512)               2048      
_________________________________________________________________
activation_1774 (Activation) (None, 512)               0         
_________________________________________________________________
dropout_1774 (Dropout)       (None, 512)               0         
_________________________________________________________________
dense_817 (Dense)            (None, 10)                5130      
=================================================================
Total params: 134,529,426
Trainable params: 134,526,338
Non-trainable params: 3,088
_________________________________________________________________
