Model: "sequential_221"
_________________________________________________________________
Layer (type)                 Output Shape              Param #   
=================================================================
conv2d_1085 (Conv2D)         (None, 32, 32, 16)        448       
_________________________________________________________________
activation_1593 (Activation) (None, 32, 32, 16)        0         
_________________________________________________________________
dropout_1593 (Dropout)       (None, 32, 32, 16)        0         
_________________________________________________________________
conv2d_1086 (Conv2D)         (None, 32, 32, 128)       18560     
_________________________________________________________________
batch_normalization_774 (Bat (None, 32, 32, 128)       512       
_________________________________________________________________
activation_1594 (Activation) (None, 32, 32, 128)       0         
_________________________________________________________________
dropout_1594 (Dropout)       (None, 32, 32, 128)       0         
_________________________________________________________________
max_pooling2d_198 (MaxPoolin (None, 16, 16, 128)       0         
_________________________________________________________________
conv2d_1087 (Conv2D)         (None, 16, 16, 32)        36896     
_________________________________________________________________
activation_1595 (Activation) (None, 16, 16, 32)        0         
_________________________________________________________________
dropout_1595 (Dropout)       (None, 16, 16, 32)        0         
_________________________________________________________________
conv2d_1088 (Conv2D)         (None, 16, 16, 1024)      295936    
_________________________________________________________________
batch_normalization_775 (Bat (None, 16, 16, 1024)      4096      
_________________________________________________________________
activation_1596 (Activation) (None, 16, 16, 1024)      0         
_________________________________________________________________
dropout_1596 (Dropout)       (None, 16, 16, 1024)      0         
_________________________________________________________________
flatten_221 (Flatten)        (None, 262144)            0         
_________________________________________________________________
dense_729 (Dense)            (None, 256)               67109120  
_________________________________________________________________
activation_1597 (Activation) (None, 256)               0         
_________________________________________________________________
dropout_1597 (Dropout)       (None, 256)               0         
_________________________________________________________________
dense_730 (Dense)            (None, 512)               131584    
_________________________________________________________________
batch_normalization_776 (Bat (None, 512)               2048      
_________________________________________________________________
activation_1598 (Activation) (None, 512)               0         
_________________________________________________________________
dropout_1598 (Dropout)       (None, 512)               0         
_________________________________________________________________
dense_731 (Dense)            (None, 10)                5130      
=================================================================
Total params: 67,604,330
Trainable params: 67,601,002
Non-trainable params: 3,328
_________________________________________________________________
