Model: "sequential_100"
_________________________________________________________________
Layer (type)                 Output Shape              Param #   
=================================================================
conv2d_592 (Conv2D)          (None, 32, 32, 1024)      28672     
_________________________________________________________________
activation_849 (Activation)  (None, 32, 32, 1024)      0         
_________________________________________________________________
dropout_849 (Dropout)        (None, 32, 32, 1024)      0         
_________________________________________________________________
conv2d_593 (Conv2D)          (None, 32, 32, 16)        147472    
_________________________________________________________________
batch_normalization_404 (Bat (None, 32, 32, 16)        64        
_________________________________________________________________
activation_850 (Activation)  (None, 32, 32, 16)        0         
_________________________________________________________________
dropout_850 (Dropout)        (None, 32, 32, 16)        0         
_________________________________________________________________
conv2d_594 (Conv2D)          (None, 32, 32, 32)        4640      
_________________________________________________________________
activation_851 (Activation)  (None, 32, 32, 32)        0         
_________________________________________________________________
dropout_851 (Dropout)        (None, 32, 32, 32)        0         
_________________________________________________________________
conv2d_595 (Conv2D)          (None, 32, 32, 64)        18496     
_________________________________________________________________
batch_normalization_405 (Bat (None, 32, 32, 64)        256       
_________________________________________________________________
activation_852 (Activation)  (None, 32, 32, 64)        0         
_________________________________________________________________
dropout_852 (Dropout)        (None, 32, 32, 64)        0         
_________________________________________________________________
flatten_100 (Flatten)        (None, 65536)             0         
_________________________________________________________________
dense_357 (Dense)            (None, 16)                1048592   
_________________________________________________________________
activation_853 (Activation)  (None, 16)                0         
_________________________________________________________________
dropout_853 (Dropout)        (None, 16)                0         
_________________________________________________________________
dense_358 (Dense)            (None, 512)               8704      
_________________________________________________________________
batch_normalization_406 (Bat (None, 512)               2048      
_________________________________________________________________
activation_854 (Activation)  (None, 512)               0         
_________________________________________________________________
dropout_854 (Dropout)        (None, 512)               0         
_________________________________________________________________
dense_359 (Dense)            (None, 10)                5130      
=================================================================
Total params: 1,264,074
Trainable params: 1,262,890
Non-trainable params: 1,184
_________________________________________________________________
