Model: "sequential_234"
_________________________________________________________________
Layer (type)                 Output Shape              Param #   
=================================================================
conv2d_1137 (Conv2D)         (None, 32, 32, 16)        448       
_________________________________________________________________
activation_1667 (Activation) (None, 32, 32, 16)        0         
_________________________________________________________________
dropout_1667 (Dropout)       (None, 32, 32, 16)        0         
_________________________________________________________________
conv2d_1138 (Conv2D)         (None, 32, 32, 128)       18560     
_________________________________________________________________
batch_normalization_813 (Bat (None, 32, 32, 128)       512       
_________________________________________________________________
activation_1668 (Activation) (None, 32, 32, 128)       0         
_________________________________________________________________
dropout_1668 (Dropout)       (None, 32, 32, 128)       0         
_________________________________________________________________
max_pooling2d_211 (MaxPoolin (None, 16, 16, 128)       0         
_________________________________________________________________
conv2d_1139 (Conv2D)         (None, 16, 16, 32)        36896     
_________________________________________________________________
activation_1669 (Activation) (None, 16, 16, 32)        0         
_________________________________________________________________
dropout_1669 (Dropout)       (None, 16, 16, 32)        0         
_________________________________________________________________
conv2d_1140 (Conv2D)         (None, 16, 16, 1024)      295936    
_________________________________________________________________
batch_normalization_814 (Bat (None, 16, 16, 1024)      4096      
_________________________________________________________________
activation_1670 (Activation) (None, 16, 16, 1024)      0         
_________________________________________________________________
dropout_1670 (Dropout)       (None, 16, 16, 1024)      0         
_________________________________________________________________
flatten_234 (Flatten)        (None, 262144)            0         
_________________________________________________________________
dense_764 (Dense)            (None, 256)               67109120  
_________________________________________________________________
activation_1671 (Activation) (None, 256)               0         
_________________________________________________________________
dropout_1671 (Dropout)       (None, 256)               0         
_________________________________________________________________
dense_765 (Dense)            (None, 512)               131584    
_________________________________________________________________
batch_normalization_815 (Bat (None, 512)               2048      
_________________________________________________________________
activation_1672 (Activation) (None, 512)               0         
_________________________________________________________________
dropout_1672 (Dropout)       (None, 512)               0         
_________________________________________________________________
dense_766 (Dense)            (None, 10)                5130      
=================================================================
Total params: 67,604,330
Trainable params: 67,601,002
Non-trainable params: 3,328
_________________________________________________________________
