Model: "sequential_218"
_________________________________________________________________
Layer (type)                 Output Shape              Param #   
=================================================================
conv2d_1073 (Conv2D)         (None, 32, 32, 16)        448       
_________________________________________________________________
activation_1576 (Activation) (None, 32, 32, 16)        0         
_________________________________________________________________
dropout_1576 (Dropout)       (None, 32, 32, 16)        0         
_________________________________________________________________
conv2d_1074 (Conv2D)         (None, 32, 32, 128)       18560     
_________________________________________________________________
batch_normalization_765 (Bat (None, 32, 32, 128)       512       
_________________________________________________________________
activation_1577 (Activation) (None, 32, 32, 128)       0         
_________________________________________________________________
dropout_1577 (Dropout)       (None, 32, 32, 128)       0         
_________________________________________________________________
max_pooling2d_195 (MaxPoolin (None, 16, 16, 128)       0         
_________________________________________________________________
conv2d_1075 (Conv2D)         (None, 16, 16, 32)        36896     
_________________________________________________________________
activation_1578 (Activation) (None, 16, 16, 32)        0         
_________________________________________________________________
dropout_1578 (Dropout)       (None, 16, 16, 32)        0         
_________________________________________________________________
conv2d_1076 (Conv2D)         (None, 16, 16, 1024)      295936    
_________________________________________________________________
batch_normalization_766 (Bat (None, 16, 16, 1024)      4096      
_________________________________________________________________
activation_1579 (Activation) (None, 16, 16, 1024)      0         
_________________________________________________________________
dropout_1579 (Dropout)       (None, 16, 16, 1024)      0         
_________________________________________________________________
flatten_218 (Flatten)        (None, 262144)            0         
_________________________________________________________________
dense_721 (Dense)            (None, 256)               67109120  
_________________________________________________________________
activation_1580 (Activation) (None, 256)               0         
_________________________________________________________________
dropout_1580 (Dropout)       (None, 256)               0         
_________________________________________________________________
dense_722 (Dense)            (None, 512)               131584    
_________________________________________________________________
batch_normalization_767 (Bat (None, 512)               2048      
_________________________________________________________________
activation_1581 (Activation) (None, 512)               0         
_________________________________________________________________
dropout_1581 (Dropout)       (None, 512)               0         
_________________________________________________________________
dense_723 (Dense)            (None, 10)                5130      
=================================================================
Total params: 67,604,330
Trainable params: 67,601,002
Non-trainable params: 3,328
_________________________________________________________________
