Model: "sequential_59"
_________________________________________________________________
Layer (type)                 Output Shape              Param #   
=================================================================
conv2d_375 (Conv2D)          (None, 32, 32, 16)        448       
_________________________________________________________________
activation_524 (Activation)  (None, 32, 32, 16)        0         
_________________________________________________________________
dropout_524 (Dropout)        (None, 32, 32, 16)        0         
_________________________________________________________________
conv2d_376 (Conv2D)          (None, 32, 32, 128)       18560     
_________________________________________________________________
batch_normalization_261 (Bat (None, 32, 32, 128)       512       
_________________________________________________________________
activation_525 (Activation)  (None, 32, 32, 128)       0         
_________________________________________________________________
dropout_525 (Dropout)        (None, 32, 32, 128)       0         
_________________________________________________________________
max_pooling2d_72 (MaxPooling (None, 16, 16, 128)       0         
_________________________________________________________________
conv2d_377 (Conv2D)          (None, 16, 16, 32)        36896     
_________________________________________________________________
activation_526 (Activation)  (None, 16, 16, 32)        0         
_________________________________________________________________
dropout_526 (Dropout)        (None, 16, 16, 32)        0         
_________________________________________________________________
conv2d_378 (Conv2D)          (None, 16, 16, 16)        4624      
_________________________________________________________________
activation_527 (Activation)  (None, 16, 16, 16)        0         
_________________________________________________________________
dropout_527 (Dropout)        (None, 16, 16, 16)        0         
_________________________________________________________________
conv2d_379 (Conv2D)          (None, 16, 16, 1024)      148480    
_________________________________________________________________
batch_normalization_262 (Bat (None, 16, 16, 1024)      4096      
_________________________________________________________________
activation_528 (Activation)  (None, 16, 16, 1024)      0         
_________________________________________________________________
dropout_528 (Dropout)        (None, 16, 16, 1024)      0         
_________________________________________________________________
conv2d_380 (Conv2D)          (None, 16, 16, 128)       1179776   
_________________________________________________________________
activation_529 (Activation)  (None, 16, 16, 128)       0         
_________________________________________________________________
dropout_529 (Dropout)        (None, 16, 16, 128)       0         
_________________________________________________________________
conv2d_381 (Conv2D)          (None, 16, 16, 64)        73792     
_________________________________________________________________
activation_530 (Activation)  (None, 16, 16, 64)        0         
_________________________________________________________________
dropout_530 (Dropout)        (None, 16, 16, 64)        0         
_________________________________________________________________
flatten_59 (Flatten)         (None, 16384)             0         
_________________________________________________________________
dense_208 (Dense)            (None, 512)               8389120   
_________________________________________________________________
activation_531 (Activation)  (None, 512)               0         
_________________________________________________________________
dropout_531 (Dropout)        (None, 512)               0         
_________________________________________________________________
dense_209 (Dense)            (None, 10)                5130      
=================================================================
Total params: 9,861,434
Trainable params: 9,859,130
Non-trainable params: 2,304
_________________________________________________________________
