Model: "sequential_299"
_________________________________________________________________
Layer (type)                 Output Shape              Param #   
=================================================================
conv2d_1382 (Conv2D)         (None, 32, 32, 16)        448       
_________________________________________________________________
activation_2029 (Activation) (None, 32, 32, 16)        0         
_________________________________________________________________
dropout_2029 (Dropout)       (None, 32, 32, 16)        0         
_________________________________________________________________
conv2d_1383 (Conv2D)         (None, 32, 32, 8)         1160      
_________________________________________________________________
batch_normalization_1017 (Ba (None, 32, 32, 8)         32        
_________________________________________________________________
activation_2030 (Activation) (None, 32, 32, 8)         0         
_________________________________________________________________
dropout_2030 (Dropout)       (None, 32, 32, 8)         0         
_________________________________________________________________
max_pooling2d_271 (MaxPoolin (None, 16, 16, 8)         0         
_________________________________________________________________
conv2d_1384 (Conv2D)         (None, 16, 16, 32)        2336      
_________________________________________________________________
activation_2031 (Activation) (None, 16, 16, 32)        0         
_________________________________________________________________
dropout_2031 (Dropout)       (None, 16, 16, 32)        0         
_________________________________________________________________
conv2d_1385 (Conv2D)         (None, 16, 16, 1024)      295936    
_________________________________________________________________
batch_normalization_1018 (Ba (None, 16, 16, 1024)      4096      
_________________________________________________________________
activation_2032 (Activation) (None, 16, 16, 1024)      0         
_________________________________________________________________
dropout_2032 (Dropout)       (None, 16, 16, 1024)      0         
_________________________________________________________________
flatten_299 (Flatten)        (None, 262144)            0         
_________________________________________________________________
dense_946 (Dense)            (None, 256)               67109120  
_________________________________________________________________
activation_2033 (Activation) (None, 256)               0         
_________________________________________________________________
dropout_2033 (Dropout)       (None, 256)               0         
_________________________________________________________________
dense_947 (Dense)            (None, 512)               131584    
_________________________________________________________________
batch_normalization_1019 (Ba (None, 512)               2048      
_________________________________________________________________
activation_2034 (Activation) (None, 512)               0         
_________________________________________________________________
dropout_2034 (Dropout)       (None, 512)               0         
_________________________________________________________________
dense_948 (Dense)            (None, 10)                5130      
=================================================================
Total params: 67,551,890
Trainable params: 67,548,802
Non-trainable params: 3,088
_________________________________________________________________
