Model: "sequential_351"
_________________________________________________________________
Layer (type)                 Output Shape              Param #   
=================================================================
conv2d_1587 (Conv2D)         (None, 32, 32, 16)        448       
_________________________________________________________________
activation_2312 (Activation) (None, 32, 32, 16)        0         
_________________________________________________________________
dropout_2312 (Dropout)       (None, 32, 32, 16)        0         
_________________________________________________________________
conv2d_1588 (Conv2D)         (None, 32, 32, 128)       18560     
_________________________________________________________________
activation_2313 (Activation) (None, 32, 32, 128)       0         
_________________________________________________________________
dropout_2313 (Dropout)       (None, 32, 32, 128)       0         
_________________________________________________________________
conv2d_1589 (Conv2D)         (None, 32, 32, 1024)      1180672   
_________________________________________________________________
activation_2314 (Activation) (None, 32, 32, 1024)      0         
_________________________________________________________________
dropout_2314 (Dropout)       (None, 32, 32, 1024)      0         
_________________________________________________________________
max_pooling2d_326 (MaxPoolin (None, 16, 16, 1024)      0         
_________________________________________________________________
conv2d_1590 (Conv2D)         (None, 16, 16, 1024)      9438208   
_________________________________________________________________
batch_normalization_1168 (Ba (None, 16, 16, 1024)      4096      
_________________________________________________________________
activation_2315 (Activation) (None, 16, 16, 1024)      0         
_________________________________________________________________
dropout_2315 (Dropout)       (None, 16, 16, 1024)      0         
_________________________________________________________________
flatten_351 (Flatten)        (None, 262144)            0         
_________________________________________________________________
dense_1076 (Dense)           (None, 64)                16777280  
_________________________________________________________________
batch_normalization_1169 (Ba (None, 64)                256       
_________________________________________________________________
activation_2316 (Activation) (None, 64)                0         
_________________________________________________________________
dropout_2316 (Dropout)       (None, 64)                0         
_________________________________________________________________
dense_1077 (Dense)           (None, 16)                1040      
_________________________________________________________________
batch_normalization_1170 (Ba (None, 16)                64        
_________________________________________________________________
activation_2317 (Activation) (None, 16)                0         
_________________________________________________________________
dropout_2317 (Dropout)       (None, 16)                0         
_________________________________________________________________
dense_1078 (Dense)           (None, 10)                170       
=================================================================
Total params: 27,420,794
Trainable params: 27,418,586
Non-trainable params: 2,208
_________________________________________________________________
