Model: "sequential_82"
_________________________________________________________________
Layer (type)                 Output Shape              Param #   
=================================================================
conv2d_508 (Conv2D)          (None, 32, 32, 16)        448       
_________________________________________________________________
activation_714 (Activation)  (None, 32, 32, 16)        0         
_________________________________________________________________
dropout_714 (Dropout)        (None, 32, 32, 16)        0         
_________________________________________________________________
conv2d_509 (Conv2D)          (None, 32, 32, 128)       18560     
_________________________________________________________________
batch_normalization_341 (Bat (None, 32, 32, 128)       512       
_________________________________________________________________
activation_715 (Activation)  (None, 32, 32, 128)       0         
_________________________________________________________________
dropout_715 (Dropout)        (None, 32, 32, 128)       0         
_________________________________________________________________
max_pooling2d_87 (MaxPooling (None, 16, 16, 128)       0         
_________________________________________________________________
conv2d_510 (Conv2D)          (None, 16, 16, 32)        36896     
_________________________________________________________________
activation_716 (Activation)  (None, 16, 16, 32)        0         
_________________________________________________________________
dropout_716 (Dropout)        (None, 16, 16, 32)        0         
_________________________________________________________________
conv2d_511 (Conv2D)          (None, 16, 16, 64)        18496     
_________________________________________________________________
activation_717 (Activation)  (None, 16, 16, 64)        0         
_________________________________________________________________
dropout_717 (Dropout)        (None, 16, 16, 64)        0         
_________________________________________________________________
conv2d_512 (Conv2D)          (None, 16, 16, 32)        18464     
_________________________________________________________________
batch_normalization_342 (Bat (None, 16, 16, 32)        128       
_________________________________________________________________
activation_718 (Activation)  (None, 16, 16, 32)        0         
_________________________________________________________________
dropout_718 (Dropout)        (None, 16, 16, 32)        0         
_________________________________________________________________
flatten_82 (Flatten)         (None, 8192)              0         
_________________________________________________________________
dense_288 (Dense)            (None, 32)                262176    
_________________________________________________________________
batch_normalization_343 (Bat (None, 32)                128       
_________________________________________________________________
activation_719 (Activation)  (None, 32)                0         
_________________________________________________________________
dropout_719 (Dropout)        (None, 32)                0         
_________________________________________________________________
dense_289 (Dense)            (None, 256)               8448      
_________________________________________________________________
activation_720 (Activation)  (None, 256)               0         
_________________________________________________________________
dropout_720 (Dropout)        (None, 256)               0         
_________________________________________________________________
dense_290 (Dense)            (None, 512)               131584    
_________________________________________________________________
batch_normalization_344 (Bat (None, 512)               2048      
_________________________________________________________________
activation_721 (Activation)  (None, 512)               0         
_________________________________________________________________
dropout_721 (Dropout)        (None, 512)               0         
_________________________________________________________________
dense_291 (Dense)            (None, 10)                5130      
=================================================================
Total params: 503,018
Trainable params: 501,610
Non-trainable params: 1,408
_________________________________________________________________
