Model: "sequential_178"
_________________________________________________________________
Layer (type)                 Output Shape              Param #   
=================================================================
conv2d_916 (Conv2D)          (None, 32, 32, 16)        448       
_________________________________________________________________
activation_1343 (Activation) (None, 32, 32, 16)        0         
_________________________________________________________________
dropout_1343 (Dropout)       (None, 32, 32, 16)        0         
_________________________________________________________________
conv2d_917 (Conv2D)          (None, 32, 32, 128)       18560     
_________________________________________________________________
batch_normalization_651 (Bat (None, 32, 32, 128)       512       
_________________________________________________________________
activation_1344 (Activation) (None, 32, 32, 128)       0         
_________________________________________________________________
dropout_1344 (Dropout)       (None, 32, 32, 128)       0         
_________________________________________________________________
max_pooling2d_155 (MaxPoolin (None, 16, 16, 128)       0         
_________________________________________________________________
conv2d_918 (Conv2D)          (None, 16, 16, 32)        36896     
_________________________________________________________________
activation_1345 (Activation) (None, 16, 16, 32)        0         
_________________________________________________________________
dropout_1345 (Dropout)       (None, 16, 16, 32)        0         
_________________________________________________________________
conv2d_919 (Conv2D)          (None, 16, 16, 128)       36992     
_________________________________________________________________
batch_normalization_652 (Bat (None, 16, 16, 128)       512       
_________________________________________________________________
activation_1346 (Activation) (None, 16, 16, 128)       0         
_________________________________________________________________
dropout_1346 (Dropout)       (None, 16, 16, 128)       0         
_________________________________________________________________
flatten_178 (Flatten)        (None, 32768)             0         
_________________________________________________________________
dense_605 (Dense)            (None, 256)               8388864   
_________________________________________________________________
activation_1347 (Activation) (None, 256)               0         
_________________________________________________________________
dropout_1347 (Dropout)       (None, 256)               0         
_________________________________________________________________
dense_606 (Dense)            (None, 512)               131584    
_________________________________________________________________
batch_normalization_653 (Bat (None, 512)               2048      
_________________________________________________________________
activation_1348 (Activation) (None, 512)               0         
_________________________________________________________________
dropout_1348 (Dropout)       (None, 512)               0         
_________________________________________________________________
dense_607 (Dense)            (None, 10)                5130      
=================================================================
Total params: 8,621,546
Trainable params: 8,620,010
Non-trainable params: 1,536
_________________________________________________________________
