Model: "sequential_225"
_________________________________________________________________
Layer (type)                 Output Shape              Param #   
=================================================================
conv2d_1101 (Conv2D)         (None, 32, 32, 16)        448       
_________________________________________________________________
activation_1616 (Activation) (None, 32, 32, 16)        0         
_________________________________________________________________
dropout_1616 (Dropout)       (None, 32, 32, 16)        0         
_________________________________________________________________
conv2d_1102 (Conv2D)         (None, 32, 32, 128)       18560     
_________________________________________________________________
batch_normalization_786 (Bat (None, 32, 32, 128)       512       
_________________________________________________________________
activation_1617 (Activation) (None, 32, 32, 128)       0         
_________________________________________________________________
dropout_1617 (Dropout)       (None, 32, 32, 128)       0         
_________________________________________________________________
max_pooling2d_202 (MaxPoolin (None, 16, 16, 128)       0         
_________________________________________________________________
conv2d_1103 (Conv2D)         (None, 16, 16, 32)        36896     
_________________________________________________________________
activation_1618 (Activation) (None, 16, 16, 32)        0         
_________________________________________________________________
dropout_1618 (Dropout)       (None, 16, 16, 32)        0         
_________________________________________________________________
conv2d_1104 (Conv2D)         (None, 16, 16, 1024)      295936    
_________________________________________________________________
batch_normalization_787 (Bat (None, 16, 16, 1024)      4096      
_________________________________________________________________
activation_1619 (Activation) (None, 16, 16, 1024)      0         
_________________________________________________________________
dropout_1619 (Dropout)       (None, 16, 16, 1024)      0         
_________________________________________________________________
flatten_225 (Flatten)        (None, 262144)            0         
_________________________________________________________________
dense_740 (Dense)            (None, 256)               67109120  
_________________________________________________________________
activation_1620 (Activation) (None, 256)               0         
_________________________________________________________________
dropout_1620 (Dropout)       (None, 256)               0         
_________________________________________________________________
dense_741 (Dense)            (None, 512)               131584    
_________________________________________________________________
batch_normalization_788 (Bat (None, 512)               2048      
_________________________________________________________________
activation_1621 (Activation) (None, 512)               0         
_________________________________________________________________
dropout_1621 (Dropout)       (None, 512)               0         
_________________________________________________________________
dense_742 (Dense)            (None, 10)                5130      
=================================================================
Total params: 67,604,330
Trainable params: 67,601,002
Non-trainable params: 3,328
_________________________________________________________________
