Model: "sequential_187"
_________________________________________________________________
Layer (type)                 Output Shape              Param #   
=================================================================
conv2d_952 (Conv2D)          (None, 32, 32, 16)        448       
_________________________________________________________________
activation_1397 (Activation) (None, 32, 32, 16)        0         
_________________________________________________________________
dropout_1397 (Dropout)       (None, 32, 32, 16)        0         
_________________________________________________________________
conv2d_953 (Conv2D)          (None, 32, 32, 128)       18560     
_________________________________________________________________
batch_normalization_678 (Bat (None, 32, 32, 128)       512       
_________________________________________________________________
activation_1398 (Activation) (None, 32, 32, 128)       0         
_________________________________________________________________
dropout_1398 (Dropout)       (None, 32, 32, 128)       0         
_________________________________________________________________
max_pooling2d_164 (MaxPoolin (None, 16, 16, 128)       0         
_________________________________________________________________
conv2d_954 (Conv2D)          (None, 16, 16, 32)        36896     
_________________________________________________________________
activation_1399 (Activation) (None, 16, 16, 32)        0         
_________________________________________________________________
dropout_1399 (Dropout)       (None, 16, 16, 32)        0         
_________________________________________________________________
conv2d_955 (Conv2D)          (None, 16, 16, 1024)      295936    
_________________________________________________________________
batch_normalization_679 (Bat (None, 16, 16, 1024)      4096      
_________________________________________________________________
activation_1400 (Activation) (None, 16, 16, 1024)      0         
_________________________________________________________________
dropout_1400 (Dropout)       (None, 16, 16, 1024)      0         
_________________________________________________________________
flatten_187 (Flatten)        (None, 262144)            0         
_________________________________________________________________
dense_632 (Dense)            (None, 256)               67109120  
_________________________________________________________________
activation_1401 (Activation) (None, 256)               0         
_________________________________________________________________
dropout_1401 (Dropout)       (None, 256)               0         
_________________________________________________________________
dense_633 (Dense)            (None, 512)               131584    
_________________________________________________________________
batch_normalization_680 (Bat (None, 512)               2048      
_________________________________________________________________
activation_1402 (Activation) (None, 512)               0         
_________________________________________________________________
dropout_1402 (Dropout)       (None, 512)               0         
_________________________________________________________________
dense_634 (Dense)            (None, 10)                5130      
=================================================================
Total params: 67,604,330
Trainable params: 67,601,002
Non-trainable params: 3,328
_________________________________________________________________
