Model: "sequential_200"
_________________________________________________________________
Layer (type)                 Output Shape              Param #   
=================================================================
conv2d_1003 (Conv2D)         (None, 32, 32, 16)        448       
_________________________________________________________________
activation_1474 (Activation) (None, 32, 32, 16)        0         
_________________________________________________________________
dropout_1474 (Dropout)       (None, 32, 32, 16)        0         
_________________________________________________________________
conv2d_1004 (Conv2D)         (None, 32, 32, 128)       18560     
_________________________________________________________________
batch_normalization_716 (Bat (None, 32, 32, 128)       512       
_________________________________________________________________
activation_1475 (Activation) (None, 32, 32, 128)       0         
_________________________________________________________________
dropout_1475 (Dropout)       (None, 32, 32, 128)       0         
_________________________________________________________________
max_pooling2d_177 (MaxPoolin (None, 16, 16, 128)       0         
_________________________________________________________________
conv2d_1005 (Conv2D)         (None, 16, 16, 32)        36896     
_________________________________________________________________
activation_1476 (Activation) (None, 16, 16, 32)        0         
_________________________________________________________________
dropout_1476 (Dropout)       (None, 16, 16, 32)        0         
_________________________________________________________________
conv2d_1006 (Conv2D)         (None, 16, 16, 1024)      295936    
_________________________________________________________________
batch_normalization_717 (Bat (None, 16, 16, 1024)      4096      
_________________________________________________________________
activation_1477 (Activation) (None, 16, 16, 1024)      0         
_________________________________________________________________
dropout_1477 (Dropout)       (None, 16, 16, 1024)      0         
_________________________________________________________________
flatten_200 (Flatten)        (None, 262144)            0         
_________________________________________________________________
dense_671 (Dense)            (None, 256)               67109120  
_________________________________________________________________
activation_1478 (Activation) (None, 256)               0         
_________________________________________________________________
dropout_1478 (Dropout)       (None, 256)               0         
_________________________________________________________________
dense_672 (Dense)            (None, 10)                2570      
=================================================================
Total params: 67,468,138
Trainable params: 67,465,834
Non-trainable params: 2,304
_________________________________________________________________
