Model: "sequential_109"
_________________________________________________________________
Layer (type)                 Output Shape              Param #   
=================================================================
conv2d_634 (Conv2D)          (None, 32, 32, 16)        448       
_________________________________________________________________
activation_915 (Activation)  (None, 32, 32, 16)        0         
_________________________________________________________________
dropout_915 (Dropout)        (None, 32, 32, 16)        0         
_________________________________________________________________
conv2d_635 (Conv2D)          (None, 32, 32, 128)       18560     
_________________________________________________________________
batch_normalization_436 (Bat (None, 32, 32, 128)       512       
_________________________________________________________________
activation_916 (Activation)  (None, 32, 32, 128)       0         
_________________________________________________________________
dropout_916 (Dropout)        (None, 32, 32, 128)       0         
_________________________________________________________________
max_pooling2d_97 (MaxPooling (None, 16, 16, 128)       0         
_________________________________________________________________
conv2d_636 (Conv2D)          (None, 16, 16, 32)        36896     
_________________________________________________________________
activation_917 (Activation)  (None, 16, 16, 32)        0         
_________________________________________________________________
dropout_917 (Dropout)        (None, 16, 16, 32)        0         
_________________________________________________________________
conv2d_637 (Conv2D)          (None, 16, 16, 1024)      295936    
_________________________________________________________________
batch_normalization_437 (Bat (None, 16, 16, 1024)      4096      
_________________________________________________________________
activation_918 (Activation)  (None, 16, 16, 1024)      0         
_________________________________________________________________
dropout_918 (Dropout)        (None, 16, 16, 1024)      0         
_________________________________________________________________
flatten_109 (Flatten)        (None, 262144)            0         
_________________________________________________________________
dense_390 (Dense)            (None, 256)               67109120  
_________________________________________________________________
activation_919 (Activation)  (None, 256)               0         
_________________________________________________________________
dropout_919 (Dropout)        (None, 256)               0         
_________________________________________________________________
dense_391 (Dense)            (None, 512)               131584    
_________________________________________________________________
batch_normalization_438 (Bat (None, 512)               2048      
_________________________________________________________________
activation_920 (Activation)  (None, 512)               0         
_________________________________________________________________
dropout_920 (Dropout)        (None, 512)               0         
_________________________________________________________________
dense_392 (Dense)            (None, 10)                5130      
=================================================================
Total params: 67,604,330
Trainable params: 67,601,002
Non-trainable params: 3,328
_________________________________________________________________
