Model: "sequential_69"
_________________________________________________________________
Layer (type)                 Output Shape              Param #   
=================================================================
conv2d_435 (Conv2D)          (None, 32, 32, 16)        448       
_________________________________________________________________
activation_608 (Activation)  (None, 32, 32, 16)        0         
_________________________________________________________________
dropout_608 (Dropout)        (None, 32, 32, 16)        0         
_________________________________________________________________
conv2d_436 (Conv2D)          (None, 32, 32, 128)       18560     
_________________________________________________________________
batch_normalization_297 (Bat (None, 32, 32, 128)       512       
_________________________________________________________________
activation_609 (Activation)  (None, 32, 32, 128)       0         
_________________________________________________________________
dropout_609 (Dropout)        (None, 32, 32, 128)       0         
_________________________________________________________________
max_pooling2d_79 (MaxPooling (None, 16, 16, 128)       0         
_________________________________________________________________
conv2d_437 (Conv2D)          (None, 16, 16, 32)        36896     
_________________________________________________________________
activation_610 (Activation)  (None, 16, 16, 32)        0         
_________________________________________________________________
dropout_610 (Dropout)        (None, 16, 16, 32)        0         
_________________________________________________________________
conv2d_438 (Conv2D)          (None, 16, 16, 16)        4624      
_________________________________________________________________
activation_611 (Activation)  (None, 16, 16, 16)        0         
_________________________________________________________________
dropout_611 (Dropout)        (None, 16, 16, 16)        0         
_________________________________________________________________
conv2d_439 (Conv2D)          (None, 16, 16, 1024)      148480    
_________________________________________________________________
batch_normalization_298 (Bat (None, 16, 16, 1024)      4096      
_________________________________________________________________
activation_612 (Activation)  (None, 16, 16, 1024)      0         
_________________________________________________________________
dropout_612 (Dropout)        (None, 16, 16, 1024)      0         
_________________________________________________________________
conv2d_440 (Conv2D)          (None, 16, 16, 128)       1179776   
_________________________________________________________________
activation_613 (Activation)  (None, 16, 16, 128)       0         
_________________________________________________________________
dropout_613 (Dropout)        (None, 16, 16, 128)       0         
_________________________________________________________________
conv2d_441 (Conv2D)          (None, 16, 16, 64)        73792     
_________________________________________________________________
activation_614 (Activation)  (None, 16, 16, 64)        0         
_________________________________________________________________
dropout_614 (Dropout)        (None, 16, 16, 64)        0         
_________________________________________________________________
flatten_69 (Flatten)         (None, 16384)             0         
_________________________________________________________________
dense_242 (Dense)            (None, 512)               8389120   
_________________________________________________________________
activation_615 (Activation)  (None, 512)               0         
_________________________________________________________________
dropout_615 (Dropout)        (None, 512)               0         
_________________________________________________________________
dense_243 (Dense)            (None, 10)                5130      
=================================================================
Total params: 9,861,434
Trainable params: 9,859,130
Non-trainable params: 2,304
_________________________________________________________________
