Model: "sequential_329"
_________________________________________________________________
Layer (type)                 Output Shape              Param #   
=================================================================
conv2d_1499 (Conv2D)         (None, 32, 32, 16)        448       
_________________________________________________________________
batch_normalization_1103 (Ba (None, 32, 32, 16)        64        
_________________________________________________________________
activation_2189 (Activation) (None, 32, 32, 16)        0         
_________________________________________________________________
dropout_2189 (Dropout)       (None, 32, 32, 16)        0         
_________________________________________________________________
conv2d_1500 (Conv2D)         (None, 32, 32, 8)         1160      
_________________________________________________________________
batch_normalization_1104 (Ba (None, 32, 32, 8)         32        
_________________________________________________________________
activation_2190 (Activation) (None, 32, 32, 8)         0         
_________________________________________________________________
dropout_2190 (Dropout)       (None, 32, 32, 8)         0         
_________________________________________________________________
max_pooling2d_305 (MaxPoolin (None, 16, 16, 8)         0         
_________________________________________________________________
conv2d_1501 (Conv2D)         (None, 16, 16, 256)       18688     
_________________________________________________________________
activation_2191 (Activation) (None, 16, 16, 256)       0         
_________________________________________________________________
dropout_2191 (Dropout)       (None, 16, 16, 256)       0         
_________________________________________________________________
conv2d_1502 (Conv2D)         (None, 16, 16, 1024)      2360320   
_________________________________________________________________
batch_normalization_1105 (Ba (None, 16, 16, 1024)      4096      
_________________________________________________________________
activation_2192 (Activation) (None, 16, 16, 1024)      0         
_________________________________________________________________
dropout_2192 (Dropout)       (None, 16, 16, 1024)      0         
_________________________________________________________________
flatten_329 (Flatten)        (None, 262144)            0         
_________________________________________________________________
dense_1019 (Dense)           (None, 512)               134218240 
_________________________________________________________________
batch_normalization_1106 (Ba (None, 512)               2048      
_________________________________________________________________
activation_2193 (Activation) (None, 512)               0         
_________________________________________________________________
dropout_2193 (Dropout)       (None, 512)               0         
_________________________________________________________________
dense_1020 (Dense)           (None, 10)                5130      
=================================================================
Total params: 136,610,226
Trainable params: 136,607,106
Non-trainable params: 3,120
_________________________________________________________________
