Model: "sequential_259"
_________________________________________________________________
Layer (type)                 Output Shape              Param #   
=================================================================
conv2d_1234 (Conv2D)         (None, 32, 32, 16)        448       
_________________________________________________________________
activation_1811 (Activation) (None, 32, 32, 16)        0         
_________________________________________________________________
dropout_1811 (Dropout)       (None, 32, 32, 16)        0         
_________________________________________________________________
conv2d_1235 (Conv2D)         (None, 32, 32, 8)         1160      
_________________________________________________________________
batch_normalization_899 (Bat (None, 32, 32, 8)         32        
_________________________________________________________________
activation_1812 (Activation) (None, 32, 32, 8)         0         
_________________________________________________________________
dropout_1812 (Dropout)       (None, 32, 32, 8)         0         
_________________________________________________________________
max_pooling2d_237 (MaxPoolin (None, 16, 16, 8)         0         
_________________________________________________________________
conv2d_1236 (Conv2D)         (None, 16, 16, 32)        2336      
_________________________________________________________________
activation_1813 (Activation) (None, 16, 16, 32)        0         
_________________________________________________________________
dropout_1813 (Dropout)       (None, 16, 16, 32)        0         
_________________________________________________________________
conv2d_1237 (Conv2D)         (None, 16, 16, 1024)      295936    
_________________________________________________________________
batch_normalization_900 (Bat (None, 16, 16, 1024)      4096      
_________________________________________________________________
activation_1814 (Activation) (None, 16, 16, 1024)      0         
_________________________________________________________________
dropout_1814 (Dropout)       (None, 16, 16, 1024)      0         
_________________________________________________________________
flatten_259 (Flatten)        (None, 262144)            0         
_________________________________________________________________
dense_836 (Dense)            (None, 256)               67109120  
_________________________________________________________________
batch_normalization_901 (Bat (None, 256)               1024      
_________________________________________________________________
activation_1815 (Activation) (None, 256)               0         
_________________________________________________________________
dropout_1815 (Dropout)       (None, 256)               0         
_________________________________________________________________
dense_837 (Dense)            (None, 512)               131584    
_________________________________________________________________
batch_normalization_902 (Bat (None, 512)               2048      
_________________________________________________________________
activation_1816 (Activation) (None, 512)               0         
_________________________________________________________________
dropout_1816 (Dropout)       (None, 512)               0         
_________________________________________________________________
dense_838 (Dense)            (None, 10)                5130      
=================================================================
Total params: 67,552,914
Trainable params: 67,549,314
Non-trainable params: 3,600
_________________________________________________________________
