Model: "sequential_312"
_________________________________________________________________
Layer (type)                 Output Shape              Param #   
=================================================================
conv2d_1432 (Conv2D)         (None, 32, 32, 16)        448       
_________________________________________________________________
batch_normalization_1055 (Ba (None, 32, 32, 16)        64        
_________________________________________________________________
activation_2098 (Activation) (None, 32, 32, 16)        0         
_________________________________________________________________
dropout_2098 (Dropout)       (None, 32, 32, 16)        0         
_________________________________________________________________
conv2d_1433 (Conv2D)         (None, 32, 32, 8)         1160      
_________________________________________________________________
batch_normalization_1056 (Ba (None, 32, 32, 8)         32        
_________________________________________________________________
activation_2099 (Activation) (None, 32, 32, 8)         0         
_________________________________________________________________
dropout_2099 (Dropout)       (None, 32, 32, 8)         0         
_________________________________________________________________
max_pooling2d_286 (MaxPoolin (None, 16, 16, 8)         0         
_________________________________________________________________
conv2d_1434 (Conv2D)         (None, 16, 16, 256)       18688     
_________________________________________________________________
activation_2100 (Activation) (None, 16, 16, 256)       0         
_________________________________________________________________
dropout_2100 (Dropout)       (None, 16, 16, 256)       0         
_________________________________________________________________
max_pooling2d_287 (MaxPoolin (None, 8, 8, 256)         0         
_________________________________________________________________
conv2d_1435 (Conv2D)         (None, 8, 8, 1024)        2360320   
_________________________________________________________________
batch_normalization_1057 (Ba (None, 8, 8, 1024)        4096      
_________________________________________________________________
activation_2101 (Activation) (None, 8, 8, 1024)        0         
_________________________________________________________________
dropout_2101 (Dropout)       (None, 8, 8, 1024)        0         
_________________________________________________________________
flatten_312 (Flatten)        (None, 65536)             0         
_________________________________________________________________
dense_978 (Dense)            (None, 512)               33554944  
_________________________________________________________________
batch_normalization_1058 (Ba (None, 512)               2048      
_________________________________________________________________
activation_2102 (Activation) (None, 512)               0         
_________________________________________________________________
dropout_2102 (Dropout)       (None, 512)               0         
_________________________________________________________________
dense_979 (Dense)            (None, 10)                5130      
=================================================================
Total params: 35,946,930
Trainable params: 35,943,810
Non-trainable params: 3,120
_________________________________________________________________
