Model: "sequential_51"
_________________________________________________________________
Layer (type)                 Output Shape              Param #   
=================================================================
conv2d_328 (Conv2D)          (None, 32, 32, 16)        448       
_________________________________________________________________
activation_452 (Activation)  (None, 32, 32, 16)        0         
_________________________________________________________________
dropout_452 (Dropout)        (None, 32, 32, 16)        0         
_________________________________________________________________
conv2d_329 (Conv2D)          (None, 32, 32, 128)       18560     
_________________________________________________________________
batch_normalization_226 (Bat (None, 32, 32, 128)       512       
_________________________________________________________________
activation_453 (Activation)  (None, 32, 32, 128)       0         
_________________________________________________________________
dropout_453 (Dropout)        (None, 32, 32, 128)       0         
_________________________________________________________________
max_pooling2d_64 (MaxPooling (None, 16, 16, 128)       0         
_________________________________________________________________
conv2d_330 (Conv2D)          (None, 16, 16, 256)       295168    
_________________________________________________________________
activation_454 (Activation)  (None, 16, 16, 256)       0         
_________________________________________________________________
dropout_454 (Dropout)        (None, 16, 16, 256)       0         
_________________________________________________________________
max_pooling2d_65 (MaxPooling (None, 8, 8, 256)         0         
_________________________________________________________________
conv2d_331 (Conv2D)          (None, 8, 8, 32)          73760     
_________________________________________________________________
batch_normalization_227 (Bat (None, 8, 8, 32)          128       
_________________________________________________________________
activation_455 (Activation)  (None, 8, 8, 32)          0         
_________________________________________________________________
dropout_455 (Dropout)        (None, 8, 8, 32)          0         
_________________________________________________________________
conv2d_332 (Conv2D)          (None, 8, 8, 16)          4624      
_________________________________________________________________
activation_456 (Activation)  (None, 8, 8, 16)          0         
_________________________________________________________________
dropout_456 (Dropout)        (None, 8, 8, 16)          0         
_________________________________________________________________
conv2d_333 (Conv2D)          (None, 8, 8, 64)          9280      
_________________________________________________________________
activation_457 (Activation)  (None, 8, 8, 64)          0         
_________________________________________________________________
dropout_457 (Dropout)        (None, 8, 8, 64)          0         
_________________________________________________________________
conv2d_334 (Conv2D)          (None, 8, 8, 32)          18464     
_________________________________________________________________
batch_normalization_228 (Bat (None, 8, 8, 32)          128       
_________________________________________________________________
activation_458 (Activation)  (None, 8, 8, 32)          0         
_________________________________________________________________
dropout_458 (Dropout)        (None, 8, 8, 32)          0         
_________________________________________________________________
flatten_51 (Flatten)         (None, 2048)              0         
_________________________________________________________________
dense_175 (Dense)            (None, 32)                65568     
_________________________________________________________________
batch_normalization_229 (Bat (None, 32)                128       
_________________________________________________________________
activation_459 (Activation)  (None, 32)                0         
_________________________________________________________________
dropout_459 (Dropout)        (None, 32)                0         
_________________________________________________________________
dense_176 (Dense)            (None, 128)               4224      
_________________________________________________________________
activation_460 (Activation)  (None, 128)               0         
_________________________________________________________________
dropout_460 (Dropout)        (None, 128)               0         
_________________________________________________________________
dense_177 (Dense)            (None, 64)                8256      
_________________________________________________________________
batch_normalization_230 (Bat (None, 64)                256       
_________________________________________________________________
activation_461 (Activation)  (None, 64)                0         
_________________________________________________________________
dropout_461 (Dropout)        (None, 64)                0         
_________________________________________________________________
dense_178 (Dense)            (None, 10)                650       
=================================================================
Total params: 500,154
Trainable params: 499,578
Non-trainable params: 576
_________________________________________________________________
