Model: "sequential_53"
_________________________________________________________________
Layer (type)                 Output Shape              Param #   
=================================================================
conv2d_341 (Conv2D)          (None, 32, 32, 16)        448       
_________________________________________________________________
activation_471 (Activation)  (None, 32, 32, 16)        0         
_________________________________________________________________
dropout_471 (Dropout)        (None, 32, 32, 16)        0         
_________________________________________________________________
conv2d_342 (Conv2D)          (None, 32, 32, 128)       18560     
_________________________________________________________________
batch_normalization_235 (Bat (None, 32, 32, 128)       512       
_________________________________________________________________
activation_472 (Activation)  (None, 32, 32, 128)       0         
_________________________________________________________________
dropout_472 (Dropout)        (None, 32, 32, 128)       0         
_________________________________________________________________
max_pooling2d_67 (MaxPooling (None, 16, 16, 128)       0         
_________________________________________________________________
conv2d_343 (Conv2D)          (None, 16, 16, 32)        36896     
_________________________________________________________________
activation_473 (Activation)  (None, 16, 16, 32)        0         
_________________________________________________________________
dropout_473 (Dropout)        (None, 16, 16, 32)        0         
_________________________________________________________________
conv2d_344 (Conv2D)          (None, 16, 16, 16)        4624      
_________________________________________________________________
activation_474 (Activation)  (None, 16, 16, 16)        0         
_________________________________________________________________
dropout_474 (Dropout)        (None, 16, 16, 16)        0         
_________________________________________________________________
conv2d_345 (Conv2D)          (None, 16, 16, 64)        9280      
_________________________________________________________________
activation_475 (Activation)  (None, 16, 16, 64)        0         
_________________________________________________________________
dropout_475 (Dropout)        (None, 16, 16, 64)        0         
_________________________________________________________________
conv2d_346 (Conv2D)          (None, 16, 16, 32)        18464     
_________________________________________________________________
batch_normalization_236 (Bat (None, 16, 16, 32)        128       
_________________________________________________________________
activation_476 (Activation)  (None, 16, 16, 32)        0         
_________________________________________________________________
dropout_476 (Dropout)        (None, 16, 16, 32)        0         
_________________________________________________________________
flatten_53 (Flatten)         (None, 8192)              0         
_________________________________________________________________
dense_183 (Dense)            (None, 32)                262176    
_________________________________________________________________
batch_normalization_237 (Bat (None, 32)                128       
_________________________________________________________________
activation_477 (Activation)  (None, 32)                0         
_________________________________________________________________
dropout_477 (Dropout)        (None, 32)                0         
_________________________________________________________________
dense_184 (Dense)            (None, 256)               8448      
_________________________________________________________________
activation_478 (Activation)  (None, 256)               0         
_________________________________________________________________
dropout_478 (Dropout)        (None, 256)               0         
_________________________________________________________________
dense_185 (Dense)            (None, 512)               131584    
_________________________________________________________________
batch_normalization_238 (Bat (None, 512)               2048      
_________________________________________________________________
activation_479 (Activation)  (None, 512)               0         
_________________________________________________________________
dropout_479 (Dropout)        (None, 512)               0         
_________________________________________________________________
dense_186 (Dense)            (None, 32)                16416     
_________________________________________________________________
batch_normalization_239 (Bat (None, 32)                128       
_________________________________________________________________
activation_480 (Activation)  (None, 32)                0         
_________________________________________________________________
dropout_480 (Dropout)        (None, 32)                0         
_________________________________________________________________
dense_187 (Dense)            (None, 10)                330       
=================================================================
Total params: 510,170
Trainable params: 508,698
Non-trainable params: 1,472
_________________________________________________________________
