Model: "sequential_180"
_________________________________________________________________
Layer (type)                 Output Shape              Param #   
=================================================================
conv2d_924 (Conv2D)          (None, 32, 32, 16)        448       
_________________________________________________________________
activation_1355 (Activation) (None, 32, 32, 16)        0         
_________________________________________________________________
dropout_1355 (Dropout)       (None, 32, 32, 16)        0         
_________________________________________________________________
conv2d_925 (Conv2D)          (None, 32, 32, 128)       18560     
_________________________________________________________________
batch_normalization_657 (Bat (None, 32, 32, 128)       512       
_________________________________________________________________
activation_1356 (Activation) (None, 32, 32, 128)       0         
_________________________________________________________________
dropout_1356 (Dropout)       (None, 32, 32, 128)       0         
_________________________________________________________________
max_pooling2d_157 (MaxPoolin (None, 16, 16, 128)       0         
_________________________________________________________________
conv2d_926 (Conv2D)          (None, 16, 16, 32)        36896     
_________________________________________________________________
activation_1357 (Activation) (None, 16, 16, 32)        0         
_________________________________________________________________
dropout_1357 (Dropout)       (None, 16, 16, 32)        0         
_________________________________________________________________
conv2d_927 (Conv2D)          (None, 16, 16, 128)       36992     
_________________________________________________________________
batch_normalization_658 (Bat (None, 16, 16, 128)       512       
_________________________________________________________________
activation_1358 (Activation) (None, 16, 16, 128)       0         
_________________________________________________________________
dropout_1358 (Dropout)       (None, 16, 16, 128)       0         
_________________________________________________________________
flatten_180 (Flatten)        (None, 32768)             0         
_________________________________________________________________
dense_611 (Dense)            (None, 16)                524304    
_________________________________________________________________
activation_1359 (Activation) (None, 16)                0         
_________________________________________________________________
dropout_1359 (Dropout)       (None, 16)                0         
_________________________________________________________________
dense_612 (Dense)            (None, 512)               8704      
_________________________________________________________________
batch_normalization_659 (Bat (None, 512)               2048      
_________________________________________________________________
activation_1360 (Activation) (None, 512)               0         
_________________________________________________________________
dropout_1360 (Dropout)       (None, 512)               0         
_________________________________________________________________
dense_613 (Dense)            (None, 10)                5130      
=================================================================
Total params: 634,106
Trainable params: 632,570
Non-trainable params: 1,536
_________________________________________________________________
