Model: "sequential_297"
_________________________________________________________________
Layer (type)                 Output Shape              Param #   
=================================================================
conv2d_1374 (Conv2D)         (None, 32, 32, 128)       3584      
_________________________________________________________________
activation_2019 (Activation) (None, 32, 32, 128)       0         
_________________________________________________________________
dropout_2019 (Dropout)       (None, 32, 32, 128)       0         
_________________________________________________________________
conv2d_1375 (Conv2D)         (None, 32, 32, 128)       147584    
_________________________________________________________________
batch_normalization_1012 (Ba (None, 32, 32, 128)       512       
_________________________________________________________________
activation_2020 (Activation) (None, 32, 32, 128)       0         
_________________________________________________________________
dropout_2020 (Dropout)       (None, 32, 32, 128)       0         
_________________________________________________________________
conv2d_1376 (Conv2D)         (None, 32, 32, 32)        36896     
_________________________________________________________________
activation_2021 (Activation) (None, 32, 32, 32)        0         
_________________________________________________________________
dropout_2021 (Dropout)       (None, 32, 32, 32)        0         
_________________________________________________________________
max_pooling2d_268 (MaxPoolin (None, 16, 16, 32)        0         
_________________________________________________________________
conv2d_1377 (Conv2D)         (None, 16, 16, 1024)      295936    
_________________________________________________________________
batch_normalization_1013 (Ba (None, 16, 16, 1024)      4096      
_________________________________________________________________
activation_2022 (Activation) (None, 16, 16, 1024)      0         
_________________________________________________________________
dropout_2022 (Dropout)       (None, 16, 16, 1024)      0         
_________________________________________________________________
flatten_297 (Flatten)        (None, 262144)            0         
_________________________________________________________________
dense_942 (Dense)            (None, 512)               134218240 
_________________________________________________________________
batch_normalization_1014 (Ba (None, 512)               2048      
_________________________________________________________________
activation_2023 (Activation) (None, 512)               0         
_________________________________________________________________
dropout_2023 (Dropout)       (None, 512)               0         
_________________________________________________________________
dense_943 (Dense)            (None, 10)                5130      
=================================================================
Total params: 134,714,026
Trainable params: 134,710,698
Non-trainable params: 3,328
_________________________________________________________________
