Model: "sequential_362"
_________________________________________________________________
Layer (type)                 Output Shape              Param #   
=================================================================
conv2d_1631 (Conv2D)         (None, 32, 32, 16)        448       
_________________________________________________________________
activation_2375 (Activation) (None, 32, 32, 16)        0         
_________________________________________________________________
dropout_2375 (Dropout)       (None, 32, 32, 16)        0         
_________________________________________________________________
conv2d_1632 (Conv2D)         (None, 32, 32, 128)       18560     
_________________________________________________________________
activation_2376 (Activation) (None, 32, 32, 128)       0         
_________________________________________________________________
dropout_2376 (Dropout)       (None, 32, 32, 128)       0         
_________________________________________________________________
conv2d_1633 (Conv2D)         (None, 32, 32, 1024)      1180672   
_________________________________________________________________
activation_2377 (Activation) (None, 32, 32, 1024)      0         
_________________________________________________________________
dropout_2377 (Dropout)       (None, 32, 32, 1024)      0         
_________________________________________________________________
max_pooling2d_339 (MaxPoolin (None, 16, 16, 1024)      0         
_________________________________________________________________
conv2d_1634 (Conv2D)         (None, 16, 16, 1024)      9438208   
_________________________________________________________________
batch_normalization_1199 (Ba (None, 16, 16, 1024)      4096      
_________________________________________________________________
activation_2378 (Activation) (None, 16, 16, 1024)      0         
_________________________________________________________________
dropout_2378 (Dropout)       (None, 16, 16, 1024)      0         
_________________________________________________________________
flatten_362 (Flatten)        (None, 262144)            0         
_________________________________________________________________
dense_1106 (Dense)           (None, 256)               67109120  
_________________________________________________________________
activation_2379 (Activation) (None, 256)               0         
_________________________________________________________________
dropout_2379 (Dropout)       (None, 256)               0         
_________________________________________________________________
dense_1107 (Dense)           (None, 512)               131584    
_________________________________________________________________
batch_normalization_1200 (Ba (None, 512)               2048      
_________________________________________________________________
activation_2380 (Activation) (None, 512)               0         
_________________________________________________________________
dropout_2380 (Dropout)       (None, 512)               0         
_________________________________________________________________
dense_1108 (Dense)           (None, 10)                5130      
=================================================================
Total params: 77,889,866
Trainable params: 77,886,794
Non-trainable params: 3,072
_________________________________________________________________
