Model: "sequential_158"
_________________________________________________________________
Layer (type)                 Output Shape              Param #   
=================================================================
conv2d_836 (Conv2D)          (None, 32, 32, 16)        448       
_________________________________________________________________
activation_1223 (Activation) (None, 32, 32, 16)        0         
_________________________________________________________________
dropout_1223 (Dropout)       (None, 32, 32, 16)        0         
_________________________________________________________________
conv2d_837 (Conv2D)          (None, 32, 32, 128)       18560     
_________________________________________________________________
batch_normalization_591 (Bat (None, 32, 32, 128)       512       
_________________________________________________________________
activation_1224 (Activation) (None, 32, 32, 128)       0         
_________________________________________________________________
dropout_1224 (Dropout)       (None, 32, 32, 128)       0         
_________________________________________________________________
max_pooling2d_135 (MaxPoolin (None, 16, 16, 128)       0         
_________________________________________________________________
conv2d_838 (Conv2D)          (None, 16, 16, 32)        36896     
_________________________________________________________________
activation_1225 (Activation) (None, 16, 16, 32)        0         
_________________________________________________________________
dropout_1225 (Dropout)       (None, 16, 16, 32)        0         
_________________________________________________________________
conv2d_839 (Conv2D)          (None, 16, 16, 128)       36992     
_________________________________________________________________
batch_normalization_592 (Bat (None, 16, 16, 128)       512       
_________________________________________________________________
activation_1226 (Activation) (None, 16, 16, 128)       0         
_________________________________________________________________
dropout_1226 (Dropout)       (None, 16, 16, 128)       0         
_________________________________________________________________
flatten_158 (Flatten)        (None, 32768)             0         
_________________________________________________________________
dense_545 (Dense)            (None, 256)               8388864   
_________________________________________________________________
activation_1227 (Activation) (None, 256)               0         
_________________________________________________________________
dropout_1227 (Dropout)       (None, 256)               0         
_________________________________________________________________
dense_546 (Dense)            (None, 512)               131584    
_________________________________________________________________
batch_normalization_593 (Bat (None, 512)               2048      
_________________________________________________________________
activation_1228 (Activation) (None, 512)               0         
_________________________________________________________________
dropout_1228 (Dropout)       (None, 512)               0         
_________________________________________________________________
dense_547 (Dense)            (None, 10)                5130      
=================================================================
Total params: 8,621,546
Trainable params: 8,620,010
Non-trainable params: 1,536
_________________________________________________________________
