Model: "sequential_89"
_________________________________________________________________
Layer (type)                 Output Shape              Param #   
=================================================================
conv2d_542 (Conv2D)          (None, 32, 32, 16)        448       
_________________________________________________________________
activation_769 (Activation)  (None, 32, 32, 16)        0         
_________________________________________________________________
dropout_769 (Dropout)        (None, 32, 32, 16)        0         
_________________________________________________________________
conv2d_543 (Conv2D)          (None, 32, 32, 128)       18560     
_________________________________________________________________
batch_normalization_365 (Bat (None, 32, 32, 128)       512       
_________________________________________________________________
activation_770 (Activation)  (None, 32, 32, 128)       0         
_________________________________________________________________
dropout_770 (Dropout)        (None, 32, 32, 128)       0         
_________________________________________________________________
max_pooling2d_89 (MaxPooling (None, 16, 16, 128)       0         
_________________________________________________________________
conv2d_544 (Conv2D)          (None, 16, 16, 32)        36896     
_________________________________________________________________
activation_771 (Activation)  (None, 16, 16, 32)        0         
_________________________________________________________________
dropout_771 (Dropout)        (None, 16, 16, 32)        0         
_________________________________________________________________
conv2d_545 (Conv2D)          (None, 16, 16, 1024)      295936    
_________________________________________________________________
batch_normalization_366 (Bat (None, 16, 16, 1024)      4096      
_________________________________________________________________
activation_772 (Activation)  (None, 16, 16, 1024)      0         
_________________________________________________________________
dropout_772 (Dropout)        (None, 16, 16, 1024)      0         
_________________________________________________________________
flatten_89 (Flatten)         (None, 262144)            0         
_________________________________________________________________
dense_316 (Dense)            (None, 256)               67109120  
_________________________________________________________________
activation_773 (Activation)  (None, 256)               0         
_________________________________________________________________
dropout_773 (Dropout)        (None, 256)               0         
_________________________________________________________________
dense_317 (Dense)            (None, 512)               131584    
_________________________________________________________________
batch_normalization_367 (Bat (None, 512)               2048      
_________________________________________________________________
activation_774 (Activation)  (None, 512)               0         
_________________________________________________________________
dropout_774 (Dropout)        (None, 512)               0         
_________________________________________________________________
dense_318 (Dense)            (None, 10)                5130      
=================================================================
Total params: 67,604,330
Trainable params: 67,601,002
Non-trainable params: 3,328
_________________________________________________________________
