Model: "sequential_34"
_________________________________________________________________
Layer (type)                 Output Shape              Param #   
=================================================================
conv2d_223 (Conv2D)          (None, 32, 32, 16)        448       
_________________________________________________________________
activation_310 (Activation)  (None, 32, 32, 16)        0         
_________________________________________________________________
dropout_310 (Dropout)        (None, 32, 32, 16)        0         
_________________________________________________________________
conv2d_224 (Conv2D)          (None, 32, 32, 128)       18560     
_________________________________________________________________
batch_normalization_160 (Bat (None, 32, 32, 128)       512       
_________________________________________________________________
activation_311 (Activation)  (None, 32, 32, 128)       0         
_________________________________________________________________
dropout_311 (Dropout)        (None, 32, 32, 128)       0         
_________________________________________________________________
max_pooling2d_44 (MaxPooling (None, 16, 16, 128)       0         
_________________________________________________________________
conv2d_225 (Conv2D)          (None, 16, 16, 32)        36896     
_________________________________________________________________
activation_312 (Activation)  (None, 16, 16, 32)        0         
_________________________________________________________________
dropout_312 (Dropout)        (None, 16, 16, 32)        0         
_________________________________________________________________
conv2d_226 (Conv2D)          (None, 16, 16, 1024)      295936    
_________________________________________________________________
batch_normalization_161 (Bat (None, 16, 16, 1024)      4096      
_________________________________________________________________
activation_313 (Activation)  (None, 16, 16, 1024)      0         
_________________________________________________________________
dropout_313 (Dropout)        (None, 16, 16, 1024)      0         
_________________________________________________________________
conv2d_227 (Conv2D)          (None, 16, 16, 128)       1179776   
_________________________________________________________________
activation_314 (Activation)  (None, 16, 16, 128)       0         
_________________________________________________________________
dropout_314 (Dropout)        (None, 16, 16, 128)       0         
_________________________________________________________________
conv2d_228 (Conv2D)          (None, 16, 16, 64)        73792     
_________________________________________________________________
activation_315 (Activation)  (None, 16, 16, 64)        0         
_________________________________________________________________
dropout_315 (Dropout)        (None, 16, 16, 64)        0         
_________________________________________________________________
flatten_34 (Flatten)         (None, 16384)             0         
_________________________________________________________________
dense_121 (Dense)            (None, 512)               8389120   
_________________________________________________________________
activation_316 (Activation)  (None, 512)               0         
_________________________________________________________________
dropout_316 (Dropout)        (None, 512)               0         
_________________________________________________________________
dense_122 (Dense)            (None, 10)                5130      
=================================================================
Total params: 10,004,266
Trainable params: 10,001,962
Non-trainable params: 2,304
_________________________________________________________________
