Model: "sequential_230"
_________________________________________________________________
Layer (type)                 Output Shape              Param #   
=================================================================
conv2d_1121 (Conv2D)         (None, 32, 32, 16)        448       
_________________________________________________________________
activation_1644 (Activation) (None, 32, 32, 16)        0         
_________________________________________________________________
dropout_1644 (Dropout)       (None, 32, 32, 16)        0         
_________________________________________________________________
conv2d_1122 (Conv2D)         (None, 32, 32, 128)       18560     
_________________________________________________________________
batch_normalization_801 (Bat (None, 32, 32, 128)       512       
_________________________________________________________________
activation_1645 (Activation) (None, 32, 32, 128)       0         
_________________________________________________________________
dropout_1645 (Dropout)       (None, 32, 32, 128)       0         
_________________________________________________________________
max_pooling2d_207 (MaxPoolin (None, 16, 16, 128)       0         
_________________________________________________________________
conv2d_1123 (Conv2D)         (None, 16, 16, 32)        36896     
_________________________________________________________________
activation_1646 (Activation) (None, 16, 16, 32)        0         
_________________________________________________________________
dropout_1646 (Dropout)       (None, 16, 16, 32)        0         
_________________________________________________________________
conv2d_1124 (Conv2D)         (None, 16, 16, 1024)      295936    
_________________________________________________________________
batch_normalization_802 (Bat (None, 16, 16, 1024)      4096      
_________________________________________________________________
activation_1647 (Activation) (None, 16, 16, 1024)      0         
_________________________________________________________________
dropout_1647 (Dropout)       (None, 16, 16, 1024)      0         
_________________________________________________________________
flatten_230 (Flatten)        (None, 262144)            0         
_________________________________________________________________
dense_753 (Dense)            (None, 256)               67109120  
_________________________________________________________________
activation_1648 (Activation) (None, 256)               0         
_________________________________________________________________
dropout_1648 (Dropout)       (None, 256)               0         
_________________________________________________________________
dense_754 (Dense)            (None, 512)               131584    
_________________________________________________________________
batch_normalization_803 (Bat (None, 512)               2048      
_________________________________________________________________
activation_1649 (Activation) (None, 512)               0         
_________________________________________________________________
dropout_1649 (Dropout)       (None, 512)               0         
_________________________________________________________________
dense_755 (Dense)            (None, 10)                5130      
=================================================================
Total params: 67,604,330
Trainable params: 67,601,002
Non-trainable params: 3,328
_________________________________________________________________
