Model: "sequential_263"
_________________________________________________________________
Layer (type)                 Output Shape              Param #   
=================================================================
conv2d_1249 (Conv2D)         (None, 32, 32, 16)        448       
_________________________________________________________________
activation_1834 (Activation) (None, 32, 32, 16)        0         
_________________________________________________________________
dropout_1834 (Dropout)       (None, 32, 32, 16)        0         
_________________________________________________________________
conv2d_1250 (Conv2D)         (None, 32, 32, 8)         1160      
_________________________________________________________________
batch_normalization_915 (Bat (None, 32, 32, 8)         32        
_________________________________________________________________
activation_1835 (Activation) (None, 32, 32, 8)         0         
_________________________________________________________________
dropout_1835 (Dropout)       (None, 32, 32, 8)         0         
_________________________________________________________________
max_pooling2d_240 (MaxPoolin (None, 16, 16, 8)         0         
_________________________________________________________________
conv2d_1251 (Conv2D)         (None, 16, 16, 32)        2336      
_________________________________________________________________
activation_1836 (Activation) (None, 16, 16, 32)        0         
_________________________________________________________________
dropout_1836 (Dropout)       (None, 16, 16, 32)        0         
_________________________________________________________________
conv2d_1252 (Conv2D)         (None, 16, 16, 1024)      295936    
_________________________________________________________________
batch_normalization_916 (Bat (None, 16, 16, 1024)      4096      
_________________________________________________________________
activation_1837 (Activation) (None, 16, 16, 1024)      0         
_________________________________________________________________
dropout_1837 (Dropout)       (None, 16, 16, 1024)      0         
_________________________________________________________________
flatten_263 (Flatten)        (None, 262144)            0         
_________________________________________________________________
dense_848 (Dense)            (None, 256)               67109120  
_________________________________________________________________
batch_normalization_917 (Bat (None, 256)               1024      
_________________________________________________________________
activation_1838 (Activation) (None, 256)               0         
_________________________________________________________________
dropout_1838 (Dropout)       (None, 256)               0         
_________________________________________________________________
dense_849 (Dense)            (None, 512)               131584    
_________________________________________________________________
batch_normalization_918 (Bat (None, 512)               2048      
_________________________________________________________________
activation_1839 (Activation) (None, 512)               0         
_________________________________________________________________
dropout_1839 (Dropout)       (None, 512)               0         
_________________________________________________________________
dense_850 (Dense)            (None, 10)                5130      
=================================================================
Total params: 67,552,914
Trainable params: 67,549,314
Non-trainable params: 3,600
_________________________________________________________________
