Model: "sequential_215"
_________________________________________________________________
Layer (type)                 Output Shape              Param #   
=================================================================
conv2d_1061 (Conv2D)         (None, 32, 32, 16)        448       
_________________________________________________________________
activation_1560 (Activation) (None, 32, 32, 16)        0         
_________________________________________________________________
dropout_1560 (Dropout)       (None, 32, 32, 16)        0         
_________________________________________________________________
conv2d_1062 (Conv2D)         (None, 32, 32, 128)       18560     
_________________________________________________________________
batch_normalization_757 (Bat (None, 32, 32, 128)       512       
_________________________________________________________________
activation_1561 (Activation) (None, 32, 32, 128)       0         
_________________________________________________________________
dropout_1561 (Dropout)       (None, 32, 32, 128)       0         
_________________________________________________________________
max_pooling2d_192 (MaxPoolin (None, 16, 16, 128)       0         
_________________________________________________________________
conv2d_1063 (Conv2D)         (None, 16, 16, 32)        36896     
_________________________________________________________________
activation_1562 (Activation) (None, 16, 16, 32)        0         
_________________________________________________________________
dropout_1562 (Dropout)       (None, 16, 16, 32)        0         
_________________________________________________________________
conv2d_1064 (Conv2D)         (None, 16, 16, 1024)      295936    
_________________________________________________________________
batch_normalization_758 (Bat (None, 16, 16, 1024)      4096      
_________________________________________________________________
activation_1563 (Activation) (None, 16, 16, 1024)      0         
_________________________________________________________________
dropout_1563 (Dropout)       (None, 16, 16, 1024)      0         
_________________________________________________________________
flatten_215 (Flatten)        (None, 262144)            0         
_________________________________________________________________
dense_714 (Dense)            (None, 512)               134218240 
_________________________________________________________________
batch_normalization_759 (Bat (None, 512)               2048      
_________________________________________________________________
activation_1564 (Activation) (None, 512)               0         
_________________________________________________________________
dropout_1564 (Dropout)       (None, 512)               0         
_________________________________________________________________
dense_715 (Dense)            (None, 10)                5130      
=================================================================
Total params: 134,581,866
Trainable params: 134,578,538
Non-trainable params: 3,328
_________________________________________________________________
