Model: "sequential_214"
_________________________________________________________________
Layer (type)                 Output Shape              Param #   
=================================================================
conv2d_1057 (Conv2D)         (None, 32, 32, 16)        448       
_________________________________________________________________
activation_1554 (Activation) (None, 32, 32, 16)        0         
_________________________________________________________________
dropout_1554 (Dropout)       (None, 32, 32, 16)        0         
_________________________________________________________________
conv2d_1058 (Conv2D)         (None, 32, 32, 128)       18560     
_________________________________________________________________
batch_normalization_754 (Bat (None, 32, 32, 128)       512       
_________________________________________________________________
activation_1555 (Activation) (None, 32, 32, 128)       0         
_________________________________________________________________
dropout_1555 (Dropout)       (None, 32, 32, 128)       0         
_________________________________________________________________
max_pooling2d_191 (MaxPoolin (None, 16, 16, 128)       0         
_________________________________________________________________
conv2d_1059 (Conv2D)         (None, 16, 16, 32)        36896     
_________________________________________________________________
activation_1556 (Activation) (None, 16, 16, 32)        0         
_________________________________________________________________
dropout_1556 (Dropout)       (None, 16, 16, 32)        0         
_________________________________________________________________
conv2d_1060 (Conv2D)         (None, 16, 16, 1024)      295936    
_________________________________________________________________
batch_normalization_755 (Bat (None, 16, 16, 1024)      4096      
_________________________________________________________________
activation_1557 (Activation) (None, 16, 16, 1024)      0         
_________________________________________________________________
dropout_1557 (Dropout)       (None, 16, 16, 1024)      0         
_________________________________________________________________
flatten_214 (Flatten)        (None, 262144)            0         
_________________________________________________________________
dense_711 (Dense)            (None, 256)               67109120  
_________________________________________________________________
activation_1558 (Activation) (None, 256)               0         
_________________________________________________________________
dropout_1558 (Dropout)       (None, 256)               0         
_________________________________________________________________
dense_712 (Dense)            (None, 512)               131584    
_________________________________________________________________
batch_normalization_756 (Bat (None, 512)               2048      
_________________________________________________________________
activation_1559 (Activation) (None, 512)               0         
_________________________________________________________________
dropout_1559 (Dropout)       (None, 512)               0         
_________________________________________________________________
dense_713 (Dense)            (None, 10)                5130      
=================================================================
Total params: 67,604,330
Trainable params: 67,601,002
Non-trainable params: 3,328
_________________________________________________________________
