Model: "sequential_288"
_________________________________________________________________
Layer (type)                 Output Shape              Param #   
=================================================================
conv2d_1342 (Conv2D)         (None, 32, 32, 16)        448       
_________________________________________________________________
activation_1974 (Activation) (None, 32, 32, 16)        0         
_________________________________________________________________
dropout_1974 (Dropout)       (None, 32, 32, 16)        0         
_________________________________________________________________
conv2d_1343 (Conv2D)         (None, 32, 32, 32)        4640      
_________________________________________________________________
activation_1975 (Activation) (None, 32, 32, 32)        0         
_________________________________________________________________
dropout_1975 (Dropout)       (None, 32, 32, 32)        0         
_________________________________________________________________
max_pooling2d_261 (MaxPoolin (None, 16, 16, 32)        0         
_________________________________________________________________
conv2d_1344 (Conv2D)         (None, 16, 16, 1024)      295936    
_________________________________________________________________
batch_normalization_991 (Bat (None, 16, 16, 1024)      4096      
_________________________________________________________________
activation_1976 (Activation) (None, 16, 16, 1024)      0         
_________________________________________________________________
dropout_1976 (Dropout)       (None, 16, 16, 1024)      0         
_________________________________________________________________
flatten_288 (Flatten)        (None, 262144)            0         
_________________________________________________________________
dense_920 (Dense)            (None, 256)               67109120  
_________________________________________________________________
activation_1977 (Activation) (None, 256)               0         
_________________________________________________________________
dropout_1977 (Dropout)       (None, 256)               0         
_________________________________________________________________
dense_921 (Dense)            (None, 10)                2570      
=================================================================
Total params: 67,416,810
Trainable params: 67,414,762
Non-trainable params: 2,048
_________________________________________________________________
