Model: "sequential_291"
_________________________________________________________________
Layer (type)                 Output Shape              Param #   
=================================================================
conv2d_1351 (Conv2D)         (None, 32, 32, 16)        448       
_________________________________________________________________
activation_1988 (Activation) (None, 32, 32, 16)        0         
_________________________________________________________________
dropout_1988 (Dropout)       (None, 32, 32, 16)        0         
_________________________________________________________________
conv2d_1352 (Conv2D)         (None, 32, 32, 128)       18560     
_________________________________________________________________
batch_normalization_996 (Bat (None, 32, 32, 128)       512       
_________________________________________________________________
activation_1989 (Activation) (None, 32, 32, 128)       0         
_________________________________________________________________
dropout_1989 (Dropout)       (None, 32, 32, 128)       0         
_________________________________________________________________
conv2d_1353 (Conv2D)         (None, 32, 32, 32)        36896     
_________________________________________________________________
activation_1990 (Activation) (None, 32, 32, 32)        0         
_________________________________________________________________
dropout_1990 (Dropout)       (None, 32, 32, 32)        0         
_________________________________________________________________
conv2d_1354 (Conv2D)         (None, 32, 32, 1024)      295936    
_________________________________________________________________
batch_normalization_997 (Bat (None, 32, 32, 1024)      4096      
_________________________________________________________________
activation_1991 (Activation) (None, 32, 32, 1024)      0         
_________________________________________________________________
dropout_1991 (Dropout)       (None, 32, 32, 1024)      0         
_________________________________________________________________
flatten_291 (Flatten)        (None, 1048576)           0         
_________________________________________________________________
dense_928 (Dense)            (None, 256)               268435712 
_________________________________________________________________
activation_1992 (Activation) (None, 256)               0         
_________________________________________________________________
dropout_1992 (Dropout)       (None, 256)               0         
_________________________________________________________________
dense_929 (Dense)            (None, 10)                2570      
=================================================================
Total params: 268,794,730
Trainable params: 268,792,426
Non-trainable params: 2,304
_________________________________________________________________
