Model: "sequential_65"
_________________________________________________________________
Layer (type)                 Output Shape              Param #   
=================================================================
conv2d_410 (Conv2D)          (None, 32, 32, 16)        448       
_________________________________________________________________
activation_571 (Activation)  (None, 32, 32, 16)        0         
_________________________________________________________________
dropout_571 (Dropout)        (None, 32, 32, 16)        0         
_________________________________________________________________
conv2d_411 (Conv2D)          (None, 32, 32, 128)       18560     
_________________________________________________________________
batch_normalization_280 (Bat (None, 32, 32, 128)       512       
_________________________________________________________________
activation_572 (Activation)  (None, 32, 32, 128)       0         
_________________________________________________________________
dropout_572 (Dropout)        (None, 32, 32, 128)       0         
_________________________________________________________________
max_pooling2d_76 (MaxPooling (None, 16, 16, 128)       0         
_________________________________________________________________
conv2d_412 (Conv2D)          (None, 16, 16, 32)        36896     
_________________________________________________________________
activation_573 (Activation)  (None, 16, 16, 32)        0         
_________________________________________________________________
dropout_573 (Dropout)        (None, 16, 16, 32)        0         
_________________________________________________________________
conv2d_413 (Conv2D)          (None, 16, 16, 16)        4624      
_________________________________________________________________
activation_574 (Activation)  (None, 16, 16, 16)        0         
_________________________________________________________________
dropout_574 (Dropout)        (None, 16, 16, 16)        0         
_________________________________________________________________
conv2d_414 (Conv2D)          (None, 16, 16, 64)        9280      
_________________________________________________________________
activation_575 (Activation)  (None, 16, 16, 64)        0         
_________________________________________________________________
dropout_575 (Dropout)        (None, 16, 16, 64)        0         
_________________________________________________________________
conv2d_415 (Conv2D)          (None, 16, 16, 32)        18464     
_________________________________________________________________
batch_normalization_281 (Bat (None, 16, 16, 32)        128       
_________________________________________________________________
activation_576 (Activation)  (None, 16, 16, 32)        0         
_________________________________________________________________
dropout_576 (Dropout)        (None, 16, 16, 32)        0         
_________________________________________________________________
flatten_65 (Flatten)         (None, 8192)              0         
_________________________________________________________________
dense_226 (Dense)            (None, 32)                262176    
_________________________________________________________________
batch_normalization_282 (Bat (None, 32)                128       
_________________________________________________________________
activation_577 (Activation)  (None, 32)                0         
_________________________________________________________________
dropout_577 (Dropout)        (None, 32)                0         
_________________________________________________________________
dense_227 (Dense)            (None, 128)               4224      
_________________________________________________________________
activation_578 (Activation)  (None, 128)               0         
_________________________________________________________________
dropout_578 (Dropout)        (None, 128)               0         
_________________________________________________________________
dense_228 (Dense)            (None, 64)                8256      
_________________________________________________________________
batch_normalization_283 (Bat (None, 64)                256       
_________________________________________________________________
activation_579 (Activation)  (None, 64)                0         
_________________________________________________________________
dropout_579 (Dropout)        (None, 64)                0         
_________________________________________________________________
dense_229 (Dense)            (None, 10)                650       
=================================================================
Total params: 364,602
Trainable params: 364,090
Non-trainable params: 512
_________________________________________________________________
