Model: "sequential_26"
_________________________________________________________________
Layer (type)                 Output Shape              Param #   
=================================================================
conv2d_176 (Conv2D)          (None, 32, 32, 16)        448       
_________________________________________________________________
activation_246 (Activation)  (None, 32, 32, 16)        0         
_________________________________________________________________
dropout_246 (Dropout)        (None, 32, 32, 16)        0         
_________________________________________________________________
conv2d_177 (Conv2D)          (None, 32, 32, 128)       18560     
_________________________________________________________________
batch_normalization_130 (Bat (None, 32, 32, 128)       512       
_________________________________________________________________
activation_247 (Activation)  (None, 32, 32, 128)       0         
_________________________________________________________________
dropout_247 (Dropout)        (None, 32, 32, 128)       0         
_________________________________________________________________
max_pooling2d_35 (MaxPooling (None, 16, 16, 128)       0         
_________________________________________________________________
conv2d_178 (Conv2D)          (None, 16, 16, 32)        36896     
_________________________________________________________________
activation_248 (Activation)  (None, 16, 16, 32)        0         
_________________________________________________________________
dropout_248 (Dropout)        (None, 16, 16, 32)        0         
_________________________________________________________________
conv2d_179 (Conv2D)          (None, 16, 16, 64)        18496     
_________________________________________________________________
activation_249 (Activation)  (None, 16, 16, 64)        0         
_________________________________________________________________
dropout_249 (Dropout)        (None, 16, 16, 64)        0         
_________________________________________________________________
conv2d_180 (Conv2D)          (None, 16, 16, 64)        36928     
_________________________________________________________________
activation_250 (Activation)  (None, 16, 16, 64)        0         
_________________________________________________________________
dropout_250 (Dropout)        (None, 16, 16, 64)        0         
_________________________________________________________________
conv2d_181 (Conv2D)          (None, 16, 16, 128)       73856     
_________________________________________________________________
batch_normalization_131 (Bat (None, 16, 16, 128)       512       
_________________________________________________________________
activation_251 (Activation)  (None, 16, 16, 128)       0         
_________________________________________________________________
dropout_251 (Dropout)        (None, 16, 16, 128)       0         
_________________________________________________________________
conv2d_182 (Conv2D)          (None, 16, 16, 32)        36896     
_________________________________________________________________
batch_normalization_132 (Bat (None, 16, 16, 32)        128       
_________________________________________________________________
activation_252 (Activation)  (None, 16, 16, 32)        0         
_________________________________________________________________
dropout_252 (Dropout)        (None, 16, 16, 32)        0         
_________________________________________________________________
flatten_26 (Flatten)         (None, 8192)              0         
_________________________________________________________________
dense_96 (Dense)             (None, 32)                262176    
_________________________________________________________________
batch_normalization_133 (Bat (None, 32)                128       
_________________________________________________________________
activation_253 (Activation)  (None, 32)                0         
_________________________________________________________________
dropout_253 (Dropout)        (None, 32)                0         
_________________________________________________________________
dense_97 (Dense)             (None, 128)               4224      
_________________________________________________________________
batch_normalization_134 (Bat (None, 128)               512       
_________________________________________________________________
activation_254 (Activation)  (None, 128)               0         
_________________________________________________________________
dropout_254 (Dropout)        (None, 128)               0         
_________________________________________________________________
dense_98 (Dense)             (None, 64)                8256      
_________________________________________________________________
batch_normalization_135 (Bat (None, 64)                256       
_________________________________________________________________
activation_255 (Activation)  (None, 64)                0         
_________________________________________________________________
dropout_255 (Dropout)        (None, 64)                0         
_________________________________________________________________
dense_99 (Dense)             (None, 10)                650       
=================================================================
Total params: 499,434
Trainable params: 498,410
Non-trainable params: 1,024
_________________________________________________________________
