Model: "sequential_170"
_________________________________________________________________
Layer (type)                 Output Shape              Param #   
=================================================================
conv2d_884 (Conv2D)          (None, 32, 32, 16)        448       
_________________________________________________________________
activation_1295 (Activation) (None, 32, 32, 16)        0         
_________________________________________________________________
dropout_1295 (Dropout)       (None, 32, 32, 16)        0         
_________________________________________________________________
conv2d_885 (Conv2D)          (None, 32, 32, 128)       18560     
_________________________________________________________________
batch_normalization_627 (Bat (None, 32, 32, 128)       512       
_________________________________________________________________
activation_1296 (Activation) (None, 32, 32, 128)       0         
_________________________________________________________________
dropout_1296 (Dropout)       (None, 32, 32, 128)       0         
_________________________________________________________________
max_pooling2d_147 (MaxPoolin (None, 16, 16, 128)       0         
_________________________________________________________________
conv2d_886 (Conv2D)          (None, 16, 16, 32)        36896     
_________________________________________________________________
activation_1297 (Activation) (None, 16, 16, 32)        0         
_________________________________________________________________
dropout_1297 (Dropout)       (None, 16, 16, 32)        0         
_________________________________________________________________
conv2d_887 (Conv2D)          (None, 16, 16, 1024)      295936    
_________________________________________________________________
batch_normalization_628 (Bat (None, 16, 16, 1024)      4096      
_________________________________________________________________
activation_1298 (Activation) (None, 16, 16, 1024)      0         
_________________________________________________________________
dropout_1298 (Dropout)       (None, 16, 16, 1024)      0         
_________________________________________________________________
flatten_170 (Flatten)        (None, 262144)            0         
_________________________________________________________________
dense_581 (Dense)            (None, 16)                4194320   
_________________________________________________________________
activation_1299 (Activation) (None, 16)                0         
_________________________________________________________________
dropout_1299 (Dropout)       (None, 16)                0         
_________________________________________________________________
dense_582 (Dense)            (None, 512)               8704      
_________________________________________________________________
batch_normalization_629 (Bat (None, 512)               2048      
_________________________________________________________________
activation_1300 (Activation) (None, 512)               0         
_________________________________________________________________
dropout_1300 (Dropout)       (None, 512)               0         
_________________________________________________________________
dense_583 (Dense)            (None, 10)                5130      
=================================================================
Total params: 4,566,650
Trainable params: 4,563,322
Non-trainable params: 3,328
_________________________________________________________________
