Model: "sequential"
_________________________________________________________________
Layer (type)                 Output Shape              Param #   
=================================================================
conv2d (Conv2D)              (None, 32, 32, 16)        448       
_________________________________________________________________
activation (Activation)      (None, 32, 32, 16)        0         
_________________________________________________________________
dropout (Dropout)            (None, 32, 32, 16)        0         
_________________________________________________________________
conv2d_1 (Conv2D)            (None, 32, 32, 128)       18560     
_________________________________________________________________
batch_normalization (BatchNo (None, 32, 32, 128)       512       
_________________________________________________________________
activation_1 (Activation)    (None, 32, 32, 128)       0         
_________________________________________________________________
dropout_1 (Dropout)          (None, 32, 32, 128)       0         
_________________________________________________________________
max_pooling2d (MaxPooling2D) (None, 16, 16, 128)       0         
_________________________________________________________________
conv2d_2 (Conv2D)            (None, 16, 16, 32)        36896     
_________________________________________________________________
activation_2 (Activation)    (None, 16, 16, 32)        0         
_________________________________________________________________
dropout_2 (Dropout)          (None, 16, 16, 32)        0         
_________________________________________________________________
conv2d_3 (Conv2D)            (None, 16, 16, 64)        18496     
_________________________________________________________________
activation_3 (Activation)    (None, 16, 16, 64)        0         
_________________________________________________________________
dropout_3 (Dropout)          (None, 16, 16, 64)        0         
_________________________________________________________________
conv2d_4 (Conv2D)            (None, 16, 16, 64)        36928     
_________________________________________________________________
activation_4 (Activation)    (None, 16, 16, 64)        0         
_________________________________________________________________
dropout_4 (Dropout)          (None, 16, 16, 64)        0         
_________________________________________________________________
conv2d_5 (Conv2D)            (None, 16, 16, 128)       73856     
_________________________________________________________________
batch_normalization_1 (Batch (None, 16, 16, 128)       512       
_________________________________________________________________
activation_5 (Activation)    (None, 16, 16, 128)       0         
_________________________________________________________________
dropout_5 (Dropout)          (None, 16, 16, 128)       0         
_________________________________________________________________
conv2d_6 (Conv2D)            (None, 16, 16, 32)        36896     
_________________________________________________________________
batch_normalization_2 (Batch (None, 16, 16, 32)        128       
_________________________________________________________________
activation_6 (Activation)    (None, 16, 16, 32)        0         
_________________________________________________________________
dropout_6 (Dropout)          (None, 16, 16, 32)        0         
_________________________________________________________________
flatten (Flatten)            (None, 8192)              0         
_________________________________________________________________
dense (Dense)                (None, 32)                262176    
_________________________________________________________________
batch_normalization_3 (Batch (None, 32)                128       
_________________________________________________________________
activation_7 (Activation)    (None, 32)                0         
_________________________________________________________________
dropout_7 (Dropout)          (None, 32)                0         
_________________________________________________________________
dense_1 (Dense)              (None, 128)               4224      
_________________________________________________________________
activation_8 (Activation)    (None, 128)               0         
_________________________________________________________________
dropout_8 (Dropout)          (None, 128)               0         
_________________________________________________________________
dense_2 (Dense)              (None, 64)                8256      
_________________________________________________________________
batch_normalization_4 (Batch (None, 64)                256       
_________________________________________________________________
activation_9 (Activation)    (None, 64)                0         
_________________________________________________________________
dropout_9 (Dropout)          (None, 64)                0         
_________________________________________________________________
dense_3 (Dense)              (None, 10)                650       
=================================================================
Total params: 498,922
Trainable params: 498,154
Non-trainable params: 768
_________________________________________________________________
