Model: "sequential_55"
_________________________________________________________________
Layer (type)                 Output Shape              Param #   
=================================================================
conv2d_353 (Conv2D)          (None, 32, 32, 16)        448       
_________________________________________________________________
activation_490 (Activation)  (None, 32, 32, 16)        0         
_________________________________________________________________
dropout_490 (Dropout)        (None, 32, 32, 16)        0         
_________________________________________________________________
conv2d_354 (Conv2D)          (None, 32, 32, 128)       18560     
_________________________________________________________________
batch_normalization_244 (Bat (None, 32, 32, 128)       512       
_________________________________________________________________
activation_491 (Activation)  (None, 32, 32, 128)       0         
_________________________________________________________________
dropout_491 (Dropout)        (None, 32, 32, 128)       0         
_________________________________________________________________
max_pooling2d_68 (MaxPooling (None, 16, 16, 128)       0         
_________________________________________________________________
conv2d_355 (Conv2D)          (None, 16, 16, 32)        36896     
_________________________________________________________________
activation_492 (Activation)  (None, 16, 16, 32)        0         
_________________________________________________________________
dropout_492 (Dropout)        (None, 16, 16, 32)        0         
_________________________________________________________________
conv2d_356 (Conv2D)          (None, 16, 16, 16)        4624      
_________________________________________________________________
activation_493 (Activation)  (None, 16, 16, 16)        0         
_________________________________________________________________
dropout_493 (Dropout)        (None, 16, 16, 16)        0         
_________________________________________________________________
conv2d_357 (Conv2D)          (None, 16, 16, 64)        9280      
_________________________________________________________________
activation_494 (Activation)  (None, 16, 16, 64)        0         
_________________________________________________________________
dropout_494 (Dropout)        (None, 16, 16, 64)        0         
_________________________________________________________________
conv2d_358 (Conv2D)          (None, 16, 16, 32)        18464     
_________________________________________________________________
batch_normalization_245 (Bat (None, 16, 16, 32)        128       
_________________________________________________________________
activation_495 (Activation)  (None, 16, 16, 32)        0         
_________________________________________________________________
dropout_495 (Dropout)        (None, 16, 16, 32)        0         
_________________________________________________________________
flatten_55 (Flatten)         (None, 8192)              0         
_________________________________________________________________
dense_192 (Dense)            (None, 32)                262176    
_________________________________________________________________
batch_normalization_246 (Bat (None, 32)                128       
_________________________________________________________________
activation_496 (Activation)  (None, 32)                0         
_________________________________________________________________
dropout_496 (Dropout)        (None, 32)                0         
_________________________________________________________________
dense_193 (Dense)            (None, 128)               4224      
_________________________________________________________________
activation_497 (Activation)  (None, 128)               0         
_________________________________________________________________
dropout_497 (Dropout)        (None, 128)               0         
_________________________________________________________________
dense_194 (Dense)            (None, 64)                8256      
_________________________________________________________________
batch_normalization_247 (Bat (None, 64)                256       
_________________________________________________________________
activation_498 (Activation)  (None, 64)                0         
_________________________________________________________________
dropout_498 (Dropout)        (None, 64)                0         
_________________________________________________________________
dense_195 (Dense)            (None, 10)                650       
=================================================================
Total params: 364,602
Trainable params: 364,090
Non-trainable params: 512
_________________________________________________________________
