Model: "sequential_223"
_________________________________________________________________
Layer (type)                 Output Shape              Param #   
=================================================================
conv2d_1093 (Conv2D)         (None, 32, 32, 16)        448       
_________________________________________________________________
activation_1605 (Activation) (None, 32, 32, 16)        0         
_________________________________________________________________
dropout_1605 (Dropout)       (None, 32, 32, 16)        0         
_________________________________________________________________
conv2d_1094 (Conv2D)         (None, 32, 32, 128)       18560     
_________________________________________________________________
batch_normalization_780 (Bat (None, 32, 32, 128)       512       
_________________________________________________________________
activation_1606 (Activation) (None, 32, 32, 128)       0         
_________________________________________________________________
dropout_1606 (Dropout)       (None, 32, 32, 128)       0         
_________________________________________________________________
max_pooling2d_200 (MaxPoolin (None, 16, 16, 128)       0         
_________________________________________________________________
conv2d_1095 (Conv2D)         (None, 16, 16, 32)        36896     
_________________________________________________________________
activation_1607 (Activation) (None, 16, 16, 32)        0         
_________________________________________________________________
dropout_1607 (Dropout)       (None, 16, 16, 32)        0         
_________________________________________________________________
conv2d_1096 (Conv2D)         (None, 16, 16, 1024)      295936    
_________________________________________________________________
batch_normalization_781 (Bat (None, 16, 16, 1024)      4096      
_________________________________________________________________
activation_1608 (Activation) (None, 16, 16, 1024)      0         
_________________________________________________________________
dropout_1608 (Dropout)       (None, 16, 16, 1024)      0         
_________________________________________________________________
flatten_223 (Flatten)        (None, 262144)            0         
_________________________________________________________________
dense_735 (Dense)            (None, 256)               67109120  
_________________________________________________________________
activation_1609 (Activation) (None, 256)               0         
_________________________________________________________________
dropout_1609 (Dropout)       (None, 256)               0         
_________________________________________________________________
dense_736 (Dense)            (None, 512)               131584    
_________________________________________________________________
batch_normalization_782 (Bat (None, 512)               2048      
_________________________________________________________________
activation_1610 (Activation) (None, 512)               0         
_________________________________________________________________
dropout_1610 (Dropout)       (None, 512)               0         
_________________________________________________________________
dense_737 (Dense)            (None, 10)                5130      
=================================================================
Total params: 67,604,330
Trainable params: 67,601,002
Non-trainable params: 3,328
_________________________________________________________________
