Model: "sequential_363"
_________________________________________________________________
Layer (type)                 Output Shape              Param #   
=================================================================
conv2d_1635 (Conv2D)         (None, 32, 32, 16)        448       
_________________________________________________________________
activation_2381 (Activation) (None, 32, 32, 16)        0         
_________________________________________________________________
dropout_2381 (Dropout)       (None, 32, 32, 16)        0         
_________________________________________________________________
conv2d_1636 (Conv2D)         (None, 32, 32, 128)       18560     
_________________________________________________________________
activation_2382 (Activation) (None, 32, 32, 128)       0         
_________________________________________________________________
dropout_2382 (Dropout)       (None, 32, 32, 128)       0         
_________________________________________________________________
conv2d_1637 (Conv2D)         (None, 32, 32, 1024)      1180672   
_________________________________________________________________
activation_2383 (Activation) (None, 32, 32, 1024)      0         
_________________________________________________________________
dropout_2383 (Dropout)       (None, 32, 32, 1024)      0         
_________________________________________________________________
max_pooling2d_340 (MaxPoolin (None, 16, 16, 1024)      0         
_________________________________________________________________
conv2d_1638 (Conv2D)         (None, 16, 16, 1024)      9438208   
_________________________________________________________________
batch_normalization_1201 (Ba (None, 16, 16, 1024)      4096      
_________________________________________________________________
activation_2384 (Activation) (None, 16, 16, 1024)      0         
_________________________________________________________________
dropout_2384 (Dropout)       (None, 16, 16, 1024)      0         
_________________________________________________________________
flatten_363 (Flatten)        (None, 262144)            0         
_________________________________________________________________
dense_1109 (Dense)           (None, 256)               67109120  
_________________________________________________________________
activation_2385 (Activation) (None, 256)               0         
_________________________________________________________________
dropout_2385 (Dropout)       (None, 256)               0         
_________________________________________________________________
dense_1110 (Dense)           (None, 512)               131584    
_________________________________________________________________
batch_normalization_1202 (Ba (None, 512)               2048      
_________________________________________________________________
activation_2386 (Activation) (None, 512)               0         
_________________________________________________________________
dropout_2386 (Dropout)       (None, 512)               0         
_________________________________________________________________
dense_1111 (Dense)           (None, 10)                5130      
=================================================================
Total params: 77,889,866
Trainable params: 77,886,794
Non-trainable params: 3,072
_________________________________________________________________
