Model: "sequential_144"
_________________________________________________________________
Layer (type)                 Output Shape              Param #   
=================================================================
conv2d_780 (Conv2D)          (None, 32, 32, 16)        448       
_________________________________________________________________
activation_1139 (Activation) (None, 32, 32, 16)        0         
_________________________________________________________________
dropout_1139 (Dropout)       (None, 32, 32, 16)        0         
_________________________________________________________________
conv2d_781 (Conv2D)          (None, 32, 32, 128)       18560     
_________________________________________________________________
batch_normalization_549 (Bat (None, 32, 32, 128)       512       
_________________________________________________________________
activation_1140 (Activation) (None, 32, 32, 128)       0         
_________________________________________________________________
dropout_1140 (Dropout)       (None, 32, 32, 128)       0         
_________________________________________________________________
max_pooling2d_122 (MaxPoolin (None, 16, 16, 128)       0         
_________________________________________________________________
conv2d_782 (Conv2D)          (None, 16, 16, 32)        36896     
_________________________________________________________________
activation_1141 (Activation) (None, 16, 16, 32)        0         
_________________________________________________________________
dropout_1141 (Dropout)       (None, 16, 16, 32)        0         
_________________________________________________________________
conv2d_783 (Conv2D)          (None, 16, 16, 128)       36992     
_________________________________________________________________
batch_normalization_550 (Bat (None, 16, 16, 128)       512       
_________________________________________________________________
activation_1142 (Activation) (None, 16, 16, 128)       0         
_________________________________________________________________
dropout_1142 (Dropout)       (None, 16, 16, 128)       0         
_________________________________________________________________
flatten_144 (Flatten)        (None, 32768)             0         
_________________________________________________________________
dense_503 (Dense)            (None, 16)                524304    
_________________________________________________________________
activation_1143 (Activation) (None, 16)                0         
_________________________________________________________________
dropout_1143 (Dropout)       (None, 16)                0         
_________________________________________________________________
dense_504 (Dense)            (None, 512)               8704      
_________________________________________________________________
batch_normalization_551 (Bat (None, 512)               2048      
_________________________________________________________________
activation_1144 (Activation) (None, 512)               0         
_________________________________________________________________
dropout_1144 (Dropout)       (None, 512)               0         
_________________________________________________________________
dense_505 (Dense)            (None, 10)                5130      
=================================================================
Total params: 634,106
Trainable params: 632,570
Non-trainable params: 1,536
_________________________________________________________________
