Model: "sequential_137"
_________________________________________________________________
Layer (type)                 Output Shape              Param #   
=================================================================
conv2d_751 (Conv2D)          (None, 32, 32, 16)        448       
_________________________________________________________________
activation_1094 (Activation) (None, 32, 32, 16)        0         
_________________________________________________________________
dropout_1094 (Dropout)       (None, 32, 32, 16)        0         
_________________________________________________________________
conv2d_752 (Conv2D)          (None, 32, 32, 128)       18560     
_________________________________________________________________
batch_normalization_525 (Bat (None, 32, 32, 128)       512       
_________________________________________________________________
activation_1095 (Activation) (None, 32, 32, 128)       0         
_________________________________________________________________
dropout_1095 (Dropout)       (None, 32, 32, 128)       0         
_________________________________________________________________
max_pooling2d_115 (MaxPoolin (None, 16, 16, 128)       0         
_________________________________________________________________
conv2d_753 (Conv2D)          (None, 16, 16, 32)        36896     
_________________________________________________________________
activation_1096 (Activation) (None, 16, 16, 32)        0         
_________________________________________________________________
dropout_1096 (Dropout)       (None, 16, 16, 32)        0         
_________________________________________________________________
conv2d_754 (Conv2D)          (None, 16, 16, 128)       36992     
_________________________________________________________________
batch_normalization_526 (Bat (None, 16, 16, 128)       512       
_________________________________________________________________
activation_1097 (Activation) (None, 16, 16, 128)       0         
_________________________________________________________________
dropout_1097 (Dropout)       (None, 16, 16, 128)       0         
_________________________________________________________________
flatten_137 (Flatten)        (None, 32768)             0         
_________________________________________________________________
dense_480 (Dense)            (None, 32)                1048608   
_________________________________________________________________
batch_normalization_527 (Bat (None, 32)                128       
_________________________________________________________________
activation_1098 (Activation) (None, 32)                0         
_________________________________________________________________
dropout_1098 (Dropout)       (None, 32)                0         
_________________________________________________________________
dense_481 (Dense)            (None, 256)               8448      
_________________________________________________________________
activation_1099 (Activation) (None, 256)               0         
_________________________________________________________________
dropout_1099 (Dropout)       (None, 256)               0         
_________________________________________________________________
dense_482 (Dense)            (None, 512)               131584    
_________________________________________________________________
batch_normalization_528 (Bat (None, 512)               2048      
_________________________________________________________________
activation_1100 (Activation) (None, 512)               0         
_________________________________________________________________
dropout_1100 (Dropout)       (None, 512)               0         
_________________________________________________________________
dense_483 (Dense)            (None, 10)                5130      
=================================================================
Total params: 1,289,866
Trainable params: 1,288,266
Non-trainable params: 1,600
_________________________________________________________________
