Model: "sequential_197"
_________________________________________________________________
Layer (type)                 Output Shape              Param #   
=================================================================
conv2d_991 (Conv2D)          (None, 32, 32, 16)        448       
_________________________________________________________________
activation_1456 (Activation) (None, 32, 32, 16)        0         
_________________________________________________________________
dropout_1456 (Dropout)       (None, 32, 32, 16)        0         
_________________________________________________________________
conv2d_992 (Conv2D)          (None, 32, 32, 128)       18560     
_________________________________________________________________
batch_normalization_707 (Bat (None, 32, 32, 128)       512       
_________________________________________________________________
activation_1457 (Activation) (None, 32, 32, 128)       0         
_________________________________________________________________
dropout_1457 (Dropout)       (None, 32, 32, 128)       0         
_________________________________________________________________
max_pooling2d_174 (MaxPoolin (None, 16, 16, 128)       0         
_________________________________________________________________
conv2d_993 (Conv2D)          (None, 16, 16, 32)        36896     
_________________________________________________________________
activation_1458 (Activation) (None, 16, 16, 32)        0         
_________________________________________________________________
dropout_1458 (Dropout)       (None, 16, 16, 32)        0         
_________________________________________________________________
conv2d_994 (Conv2D)          (None, 16, 16, 1024)      295936    
_________________________________________________________________
batch_normalization_708 (Bat (None, 16, 16, 1024)      4096      
_________________________________________________________________
activation_1459 (Activation) (None, 16, 16, 1024)      0         
_________________________________________________________________
dropout_1459 (Dropout)       (None, 16, 16, 1024)      0         
_________________________________________________________________
flatten_197 (Flatten)        (None, 262144)            0         
_________________________________________________________________
dense_662 (Dense)            (None, 256)               67109120  
_________________________________________________________________
activation_1460 (Activation) (None, 256)               0         
_________________________________________________________________
dropout_1460 (Dropout)       (None, 256)               0         
_________________________________________________________________
dense_663 (Dense)            (None, 512)               131584    
_________________________________________________________________
batch_normalization_709 (Bat (None, 512)               2048      
_________________________________________________________________
activation_1461 (Activation) (None, 512)               0         
_________________________________________________________________
dropout_1461 (Dropout)       (None, 512)               0         
_________________________________________________________________
dense_664 (Dense)            (None, 10)                5130      
=================================================================
Total params: 67,604,330
Trainable params: 67,601,002
Non-trainable params: 3,328
_________________________________________________________________
