Model: "sequential_160"
_________________________________________________________________
Layer (type)                 Output Shape              Param #   
=================================================================
conv2d_844 (Conv2D)          (None, 32, 32, 16)        448       
_________________________________________________________________
activation_1235 (Activation) (None, 32, 32, 16)        0         
_________________________________________________________________
dropout_1235 (Dropout)       (None, 32, 32, 16)        0         
_________________________________________________________________
conv2d_845 (Conv2D)          (None, 32, 32, 128)       18560     
_________________________________________________________________
batch_normalization_597 (Bat (None, 32, 32, 128)       512       
_________________________________________________________________
activation_1236 (Activation) (None, 32, 32, 128)       0         
_________________________________________________________________
dropout_1236 (Dropout)       (None, 32, 32, 128)       0         
_________________________________________________________________
max_pooling2d_137 (MaxPoolin (None, 16, 16, 128)       0         
_________________________________________________________________
conv2d_846 (Conv2D)          (None, 16, 16, 32)        36896     
_________________________________________________________________
activation_1237 (Activation) (None, 16, 16, 32)        0         
_________________________________________________________________
dropout_1237 (Dropout)       (None, 16, 16, 32)        0         
_________________________________________________________________
conv2d_847 (Conv2D)          (None, 16, 16, 128)       36992     
_________________________________________________________________
batch_normalization_598 (Bat (None, 16, 16, 128)       512       
_________________________________________________________________
activation_1238 (Activation) (None, 16, 16, 128)       0         
_________________________________________________________________
dropout_1238 (Dropout)       (None, 16, 16, 128)       0         
_________________________________________________________________
flatten_160 (Flatten)        (None, 32768)             0         
_________________________________________________________________
dense_551 (Dense)            (None, 16)                524304    
_________________________________________________________________
activation_1239 (Activation) (None, 16)                0         
_________________________________________________________________
dropout_1239 (Dropout)       (None, 16)                0         
_________________________________________________________________
dense_552 (Dense)            (None, 512)               8704      
_________________________________________________________________
batch_normalization_599 (Bat (None, 512)               2048      
_________________________________________________________________
activation_1240 (Activation) (None, 512)               0         
_________________________________________________________________
dropout_1240 (Dropout)       (None, 512)               0         
_________________________________________________________________
dense_553 (Dense)            (None, 10)                5130      
=================================================================
Total params: 634,106
Trainable params: 632,570
Non-trainable params: 1,536
_________________________________________________________________
