Model: "sequential_125"
_________________________________________________________________
Layer (type)                 Output Shape              Param #   
=================================================================
conv2d_702 (Conv2D)          (None, 32, 32, 1024)      28672     
_________________________________________________________________
activation_1019 (Activation) (None, 32, 32, 1024)      0         
_________________________________________________________________
dropout_1019 (Dropout)       (None, 32, 32, 1024)      0         
_________________________________________________________________
conv2d_703 (Conv2D)          (None, 32, 32, 16)        147472    
_________________________________________________________________
batch_normalization_487 (Bat (None, 32, 32, 16)        64        
_________________________________________________________________
activation_1020 (Activation) (None, 32, 32, 16)        0         
_________________________________________________________________
dropout_1020 (Dropout)       (None, 32, 32, 16)        0         
_________________________________________________________________
conv2d_704 (Conv2D)          (None, 32, 32, 32)        4640      
_________________________________________________________________
activation_1021 (Activation) (None, 32, 32, 32)        0         
_________________________________________________________________
dropout_1021 (Dropout)       (None, 32, 32, 32)        0         
_________________________________________________________________
conv2d_705 (Conv2D)          (None, 32, 32, 64)        18496     
_________________________________________________________________
batch_normalization_488 (Bat (None, 32, 32, 64)        256       
_________________________________________________________________
activation_1022 (Activation) (None, 32, 32, 64)        0         
_________________________________________________________________
dropout_1022 (Dropout)       (None, 32, 32, 64)        0         
_________________________________________________________________
flatten_125 (Flatten)        (None, 65536)             0         
_________________________________________________________________
dense_442 (Dense)            (None, 16)                1048592   
_________________________________________________________________
activation_1023 (Activation) (None, 16)                0         
_________________________________________________________________
dropout_1023 (Dropout)       (None, 16)                0         
_________________________________________________________________
dense_443 (Dense)            (None, 512)               8704      
_________________________________________________________________
batch_normalization_489 (Bat (None, 512)               2048      
_________________________________________________________________
activation_1024 (Activation) (None, 512)               0         
_________________________________________________________________
dropout_1024 (Dropout)       (None, 512)               0         
_________________________________________________________________
dense_444 (Dense)            (None, 10)                5130      
=================================================================
Total params: 1,264,074
Trainable params: 1,262,890
Non-trainable params: 1,184
_________________________________________________________________
