Model: "sequential_76"
_________________________________________________________________
Layer (type)                 Output Shape              Param #   
=================================================================
conv2d_478 (Conv2D)          (None, 32, 32, 16)        448       
_________________________________________________________________
activation_666 (Activation)  (None, 32, 32, 16)        0         
_________________________________________________________________
dropout_666 (Dropout)        (None, 32, 32, 16)        0         
_________________________________________________________________
conv2d_479 (Conv2D)          (None, 32, 32, 128)       18560     
_________________________________________________________________
batch_normalization_318 (Bat (None, 32, 32, 128)       512       
_________________________________________________________________
activation_667 (Activation)  (None, 32, 32, 128)       0         
_________________________________________________________________
dropout_667 (Dropout)        (None, 32, 32, 128)       0         
_________________________________________________________________
max_pooling2d_85 (MaxPooling (None, 16, 16, 128)       0         
_________________________________________________________________
conv2d_480 (Conv2D)          (None, 16, 16, 32)        36896     
_________________________________________________________________
activation_668 (Activation)  (None, 16, 16, 32)        0         
_________________________________________________________________
dropout_668 (Dropout)        (None, 16, 16, 32)        0         
_________________________________________________________________
conv2d_481 (Conv2D)          (None, 16, 16, 16)        4624      
_________________________________________________________________
activation_669 (Activation)  (None, 16, 16, 16)        0         
_________________________________________________________________
dropout_669 (Dropout)        (None, 16, 16, 16)        0         
_________________________________________________________________
conv2d_482 (Conv2D)          (None, 16, 16, 64)        9280      
_________________________________________________________________
activation_670 (Activation)  (None, 16, 16, 64)        0         
_________________________________________________________________
dropout_670 (Dropout)        (None, 16, 16, 64)        0         
_________________________________________________________________
conv2d_483 (Conv2D)          (None, 16, 16, 32)        18464     
_________________________________________________________________
batch_normalization_319 (Bat (None, 16, 16, 32)        128       
_________________________________________________________________
activation_671 (Activation)  (None, 16, 16, 32)        0         
_________________________________________________________________
dropout_671 (Dropout)        (None, 16, 16, 32)        0         
_________________________________________________________________
flatten_76 (Flatten)         (None, 8192)              0         
_________________________________________________________________
dense_264 (Dense)            (None, 32)                262176    
_________________________________________________________________
batch_normalization_320 (Bat (None, 32)                128       
_________________________________________________________________
activation_672 (Activation)  (None, 32)                0         
_________________________________________________________________
dropout_672 (Dropout)        (None, 32)                0         
_________________________________________________________________
dense_265 (Dense)            (None, 256)               8448      
_________________________________________________________________
activation_673 (Activation)  (None, 256)               0         
_________________________________________________________________
dropout_673 (Dropout)        (None, 256)               0         
_________________________________________________________________
dense_266 (Dense)            (None, 512)               131584    
_________________________________________________________________
batch_normalization_321 (Bat (None, 512)               2048      
_________________________________________________________________
activation_674 (Activation)  (None, 512)               0         
_________________________________________________________________
dropout_674 (Dropout)        (None, 512)               0         
_________________________________________________________________
dense_267 (Dense)            (None, 10)                5130      
=================================================================
Total params: 498,426
Trainable params: 497,018
Non-trainable params: 1,408
_________________________________________________________________
