Model: "sequential_31"
_________________________________________________________________
Layer (type)                 Output Shape              Param #   
=================================================================
conv2d_207 (Conv2D)          (None, 32, 32, 256)       7168      
_________________________________________________________________
activation_290 (Activation)  (None, 32, 32, 256)       0         
_________________________________________________________________
dropout_290 (Dropout)        (None, 32, 32, 256)       0         
_________________________________________________________________
conv2d_208 (Conv2D)          (None, 32, 32, 16)        36880     
_________________________________________________________________
batch_normalization_152 (Bat (None, 32, 32, 16)        64        
_________________________________________________________________
activation_291 (Activation)  (None, 32, 32, 16)        0         
_________________________________________________________________
dropout_291 (Dropout)        (None, 32, 32, 16)        0         
_________________________________________________________________
conv2d_209 (Conv2D)          (None, 32, 32, 256)       37120     
_________________________________________________________________
activation_292 (Activation)  (None, 32, 32, 256)       0         
_________________________________________________________________
dropout_292 (Dropout)        (None, 32, 32, 256)       0         
_________________________________________________________________
max_pooling2d_40 (MaxPooling (None, 16, 16, 256)       0         
_________________________________________________________________
conv2d_210 (Conv2D)          (None, 16, 16, 32)        73760     
_________________________________________________________________
batch_normalization_153 (Bat (None, 16, 16, 32)        128       
_________________________________________________________________
activation_293 (Activation)  (None, 16, 16, 32)        0         
_________________________________________________________________
dropout_293 (Dropout)        (None, 16, 16, 32)        0         
_________________________________________________________________
conv2d_211 (Conv2D)          (None, 16, 16, 1024)      295936    
_________________________________________________________________
batch_normalization_154 (Bat (None, 16, 16, 1024)      4096      
_________________________________________________________________
activation_294 (Activation)  (None, 16, 16, 1024)      0         
_________________________________________________________________
dropout_294 (Dropout)        (None, 16, 16, 1024)      0         
_________________________________________________________________
flatten_31 (Flatten)         (None, 262144)            0         
_________________________________________________________________
dense_114 (Dense)            (None, 256)               67109120  
_________________________________________________________________
activation_295 (Activation)  (None, 256)               0         
_________________________________________________________________
dropout_295 (Dropout)        (None, 256)               0         
_________________________________________________________________
dense_115 (Dense)            (None, 64)                16448     
_________________________________________________________________
batch_normalization_155 (Bat (None, 64)                256       
_________________________________________________________________
activation_296 (Activation)  (None, 64)                0         
_________________________________________________________________
dropout_296 (Dropout)        (None, 64)                0         
_________________________________________________________________
dense_116 (Dense)            (None, 10)                650       
=================================================================
Total params: 67,581,626
Trainable params: 67,579,354
Non-trainable params: 2,272
_________________________________________________________________
