Model: "sequential_257"
_________________________________________________________________
Layer (type)                 Output Shape              Param #   
=================================================================
conv2d_1226 (Conv2D)         (None, 32, 32, 16)        448       
_________________________________________________________________
activation_1799 (Activation) (None, 32, 32, 16)        0         
_________________________________________________________________
dropout_1799 (Dropout)       (None, 32, 32, 16)        0         
_________________________________________________________________
conv2d_1227 (Conv2D)         (None, 32, 32, 128)       18560     
_________________________________________________________________
batch_normalization_893 (Bat (None, 32, 32, 128)       512       
_________________________________________________________________
activation_1800 (Activation) (None, 32, 32, 128)       0         
_________________________________________________________________
dropout_1800 (Dropout)       (None, 32, 32, 128)       0         
_________________________________________________________________
max_pooling2d_235 (MaxPoolin (None, 16, 16, 128)       0         
_________________________________________________________________
conv2d_1228 (Conv2D)         (None, 16, 16, 32)        36896     
_________________________________________________________________
activation_1801 (Activation) (None, 16, 16, 32)        0         
_________________________________________________________________
dropout_1801 (Dropout)       (None, 16, 16, 32)        0         
_________________________________________________________________
conv2d_1229 (Conv2D)         (None, 16, 16, 1024)      295936    
_________________________________________________________________
batch_normalization_894 (Bat (None, 16, 16, 1024)      4096      
_________________________________________________________________
activation_1802 (Activation) (None, 16, 16, 1024)      0         
_________________________________________________________________
dropout_1802 (Dropout)       (None, 16, 16, 1024)      0         
_________________________________________________________________
flatten_257 (Flatten)        (None, 262144)            0         
_________________________________________________________________
dense_830 (Dense)            (None, 256)               67109120  
_________________________________________________________________
activation_1803 (Activation) (None, 256)               0         
_________________________________________________________________
dropout_1803 (Dropout)       (None, 256)               0         
_________________________________________________________________
dense_831 (Dense)            (None, 512)               131584    
_________________________________________________________________
batch_normalization_895 (Bat (None, 512)               2048      
_________________________________________________________________
activation_1804 (Activation) (None, 512)               0         
_________________________________________________________________
dropout_1804 (Dropout)       (None, 512)               0         
_________________________________________________________________
dense_832 (Dense)            (None, 10)                5130      
=================================================================
Total params: 67,604,330
Trainable params: 67,601,002
Non-trainable params: 3,328
_________________________________________________________________
