Model: "sequential_346"
_________________________________________________________________
Layer (type)                 Output Shape              Param #   
=================================================================
conv2d_1567 (Conv2D)         (None, 32, 32, 16)        448       
_________________________________________________________________
activation_2282 (Activation) (None, 32, 32, 16)        0         
_________________________________________________________________
dropout_2282 (Dropout)       (None, 32, 32, 16)        0         
_________________________________________________________________
max_pooling2d_320 (MaxPoolin (None, 16, 16, 16)        0         
_________________________________________________________________
conv2d_1568 (Conv2D)         (None, 16, 16, 128)       18560     
_________________________________________________________________
batch_normalization_1153 (Ba (None, 16, 16, 128)       512       
_________________________________________________________________
activation_2283 (Activation) (None, 16, 16, 128)       0         
_________________________________________________________________
dropout_2283 (Dropout)       (None, 16, 16, 128)       0         
_________________________________________________________________
conv2d_1569 (Conv2D)         (None, 16, 16, 1024)      1180672   
_________________________________________________________________
activation_2284 (Activation) (None, 16, 16, 1024)      0         
_________________________________________________________________
dropout_2284 (Dropout)       (None, 16, 16, 1024)      0         
_________________________________________________________________
max_pooling2d_321 (MaxPoolin (None, 8, 8, 1024)        0         
_________________________________________________________________
conv2d_1570 (Conv2D)         (None, 8, 8, 1024)        9438208   
_________________________________________________________________
batch_normalization_1154 (Ba (None, 8, 8, 1024)        4096      
_________________________________________________________________
activation_2285 (Activation) (None, 8, 8, 1024)        0         
_________________________________________________________________
dropout_2285 (Dropout)       (None, 8, 8, 1024)        0         
_________________________________________________________________
flatten_346 (Flatten)        (None, 65536)             0         
_________________________________________________________________
dense_1061 (Dense)           (None, 64)                4194368   
_________________________________________________________________
batch_normalization_1155 (Ba (None, 64)                256       
_________________________________________________________________
activation_2286 (Activation) (None, 64)                0         
_________________________________________________________________
dropout_2286 (Dropout)       (None, 64)                0         
_________________________________________________________________
dense_1062 (Dense)           (None, 32)                2080      
_________________________________________________________________
batch_normalization_1156 (Ba (None, 32)                128       
_________________________________________________________________
activation_2287 (Activation) (None, 32)                0         
_________________________________________________________________
dropout_2287 (Dropout)       (None, 32)                0         
_________________________________________________________________
dense_1063 (Dense)           (None, 10)                330       
=================================================================
Total params: 14,839,658
Trainable params: 14,837,162
Non-trainable params: 2,496
_________________________________________________________________
