Model: "sequential_364"
_________________________________________________________________
Layer (type)                 Output Shape              Param #   
=================================================================
conv2d_1639 (Conv2D)         (None, 32, 32, 16)        448       
_________________________________________________________________
activation_2387 (Activation) (None, 32, 32, 16)        0         
_________________________________________________________________
dropout_2387 (Dropout)       (None, 32, 32, 16)        0         
_________________________________________________________________
conv2d_1640 (Conv2D)         (None, 32, 32, 128)       18560     
_________________________________________________________________
batch_normalization_1203 (Ba (None, 32, 32, 128)       512       
_________________________________________________________________
activation_2388 (Activation) (None, 32, 32, 128)       0         
_________________________________________________________________
dropout_2388 (Dropout)       (None, 32, 32, 128)       0         
_________________________________________________________________
conv2d_1641 (Conv2D)         (None, 32, 32, 16)        18448     
_________________________________________________________________
activation_2389 (Activation) (None, 32, 32, 16)        0         
_________________________________________________________________
dropout_2389 (Dropout)       (None, 32, 32, 16)        0         
_________________________________________________________________
max_pooling2d_341 (MaxPoolin (None, 16, 16, 16)        0         
_________________________________________________________________
conv2d_1642 (Conv2D)         (None, 16, 16, 1024)      148480    
_________________________________________________________________
batch_normalization_1204 (Ba (None, 16, 16, 1024)      4096      
_________________________________________________________________
activation_2390 (Activation) (None, 16, 16, 1024)      0         
_________________________________________________________________
dropout_2390 (Dropout)       (None, 16, 16, 1024)      0         
_________________________________________________________________
flatten_364 (Flatten)        (None, 262144)            0         
_________________________________________________________________
dense_1112 (Dense)           (None, 64)                16777280  
_________________________________________________________________
batch_normalization_1205 (Ba (None, 64)                256       
_________________________________________________________________
activation_2391 (Activation) (None, 64)                0         
_________________________________________________________________
dropout_2391 (Dropout)       (None, 64)                0         
_________________________________________________________________
dense_1113 (Dense)           (None, 32)                2080      
_________________________________________________________________
batch_normalization_1206 (Ba (None, 32)                128       
_________________________________________________________________
activation_2392 (Activation) (None, 32)                0         
_________________________________________________________________
dropout_2392 (Dropout)       (None, 32)                0         
_________________________________________________________________
dense_1114 (Dense)           (None, 10)                330       
=================================================================
Total params: 16,970,618
Trainable params: 16,968,122
Non-trainable params: 2,496
_________________________________________________________________
