Model: "sequential_168"
_________________________________________________________________
Layer (type)                 Output Shape              Param #   
=================================================================
conv2d_876 (Conv2D)          (None, 32, 32, 16)        448       
_________________________________________________________________
activation_1283 (Activation) (None, 32, 32, 16)        0         
_________________________________________________________________
dropout_1283 (Dropout)       (None, 32, 32, 16)        0         
_________________________________________________________________
conv2d_877 (Conv2D)          (None, 32, 32, 128)       18560     
_________________________________________________________________
batch_normalization_621 (Bat (None, 32, 32, 128)       512       
_________________________________________________________________
activation_1284 (Activation) (None, 32, 32, 128)       0         
_________________________________________________________________
dropout_1284 (Dropout)       (None, 32, 32, 128)       0         
_________________________________________________________________
max_pooling2d_145 (MaxPoolin (None, 16, 16, 128)       0         
_________________________________________________________________
conv2d_878 (Conv2D)          (None, 16, 16, 32)        36896     
_________________________________________________________________
activation_1285 (Activation) (None, 16, 16, 32)        0         
_________________________________________________________________
dropout_1285 (Dropout)       (None, 16, 16, 32)        0         
_________________________________________________________________
conv2d_879 (Conv2D)          (None, 16, 16, 1024)      295936    
_________________________________________________________________
batch_normalization_622 (Bat (None, 16, 16, 1024)      4096      
_________________________________________________________________
activation_1286 (Activation) (None, 16, 16, 1024)      0         
_________________________________________________________________
dropout_1286 (Dropout)       (None, 16, 16, 1024)      0         
_________________________________________________________________
flatten_168 (Flatten)        (None, 262144)            0         
_________________________________________________________________
dense_575 (Dense)            (None, 256)               67109120  
_________________________________________________________________
activation_1287 (Activation) (None, 256)               0         
_________________________________________________________________
dropout_1287 (Dropout)       (None, 256)               0         
_________________________________________________________________
dense_576 (Dense)            (None, 512)               131584    
_________________________________________________________________
batch_normalization_623 (Bat (None, 512)               2048      
_________________________________________________________________
activation_1288 (Activation) (None, 512)               0         
_________________________________________________________________
dropout_1288 (Dropout)       (None, 512)               0         
_________________________________________________________________
dense_577 (Dense)            (None, 10)                5130      
=================================================================
Total params: 67,604,330
Trainable params: 67,601,002
Non-trainable params: 3,328
_________________________________________________________________
