Model: "sequential_108"
_________________________________________________________________
Layer (type)                 Output Shape              Param #   
=================================================================
conv2d_629 (Conv2D)          (None, 32, 32, 1024)      28672     
_________________________________________________________________
activation_907 (Activation)  (None, 32, 32, 1024)      0         
_________________________________________________________________
dropout_907 (Dropout)        (None, 32, 32, 1024)      0         
_________________________________________________________________
conv2d_630 (Conv2D)          (None, 32, 32, 16)        147472    
_________________________________________________________________
batch_normalization_432 (Bat (None, 32, 32, 16)        64        
_________________________________________________________________
activation_908 (Activation)  (None, 32, 32, 16)        0         
_________________________________________________________________
dropout_908 (Dropout)        (None, 32, 32, 16)        0         
_________________________________________________________________
conv2d_631 (Conv2D)          (None, 32, 32, 32)        4640      
_________________________________________________________________
activation_909 (Activation)  (None, 32, 32, 32)        0         
_________________________________________________________________
dropout_909 (Dropout)        (None, 32, 32, 32)        0         
_________________________________________________________________
conv2d_632 (Conv2D)          (None, 32, 32, 16)        4624      
_________________________________________________________________
activation_910 (Activation)  (None, 32, 32, 16)        0         
_________________________________________________________________
dropout_910 (Dropout)        (None, 32, 32, 16)        0         
_________________________________________________________________
conv2d_633 (Conv2D)          (None, 32, 32, 1024)      148480    
_________________________________________________________________
batch_normalization_433 (Bat (None, 32, 32, 1024)      4096      
_________________________________________________________________
activation_911 (Activation)  (None, 32, 32, 1024)      0         
_________________________________________________________________
dropout_911 (Dropout)        (None, 32, 32, 1024)      0         
_________________________________________________________________
flatten_108 (Flatten)        (None, 1048576)           0         
_________________________________________________________________
dense_386 (Dense)            (None, 256)               268435712 
_________________________________________________________________
activation_912 (Activation)  (None, 256)               0         
_________________________________________________________________
dropout_912 (Dropout)        (None, 256)               0         
_________________________________________________________________
dense_387 (Dense)            (None, 512)               131584    
_________________________________________________________________
batch_normalization_434 (Bat (None, 512)               2048      
_________________________________________________________________
activation_913 (Activation)  (None, 512)               0         
_________________________________________________________________
dropout_913 (Dropout)        (None, 512)               0         
_________________________________________________________________
dense_388 (Dense)            (None, 32)                16416     
_________________________________________________________________
batch_normalization_435 (Bat (None, 32)                128       
_________________________________________________________________
activation_914 (Activation)  (None, 32)                0         
_________________________________________________________________
dropout_914 (Dropout)        (None, 32)                0         
_________________________________________________________________
dense_389 (Dense)            (None, 10)                330       
=================================================================
Total params: 268,924,266
Trainable params: 268,921,098
Non-trainable params: 3,168
_________________________________________________________________
