Model: "sequential_204"
_________________________________________________________________
Layer (type)                 Output Shape              Param #   
=================================================================
conv2d_1018 (Conv2D)         (None, 32, 32, 16)        448       
_________________________________________________________________
activation_1496 (Activation) (None, 32, 32, 16)        0         
_________________________________________________________________
dropout_1496 (Dropout)       (None, 32, 32, 16)        0         
_________________________________________________________________
conv2d_1019 (Conv2D)         (None, 32, 32, 128)       18560     
_________________________________________________________________
batch_normalization_726 (Bat (None, 32, 32, 128)       512       
_________________________________________________________________
activation_1497 (Activation) (None, 32, 32, 128)       0         
_________________________________________________________________
dropout_1497 (Dropout)       (None, 32, 32, 128)       0         
_________________________________________________________________
max_pooling2d_181 (MaxPoolin (None, 16, 16, 128)       0         
_________________________________________________________________
conv2d_1020 (Conv2D)         (None, 16, 16, 32)        36896     
_________________________________________________________________
activation_1498 (Activation) (None, 16, 16, 32)        0         
_________________________________________________________________
dropout_1498 (Dropout)       (None, 16, 16, 32)        0         
_________________________________________________________________
conv2d_1021 (Conv2D)         (None, 16, 16, 1024)      295936    
_________________________________________________________________
batch_normalization_727 (Bat (None, 16, 16, 1024)      4096      
_________________________________________________________________
activation_1499 (Activation) (None, 16, 16, 1024)      0         
_________________________________________________________________
dropout_1499 (Dropout)       (None, 16, 16, 1024)      0         
_________________________________________________________________
flatten_204 (Flatten)        (None, 262144)            0         
_________________________________________________________________
dense_682 (Dense)            (None, 256)               67109120  
_________________________________________________________________
activation_1500 (Activation) (None, 256)               0         
_________________________________________________________________
dropout_1500 (Dropout)       (None, 256)               0         
_________________________________________________________________
dense_683 (Dense)            (None, 512)               131584    
_________________________________________________________________
batch_normalization_728 (Bat (None, 512)               2048      
_________________________________________________________________
activation_1501 (Activation) (None, 512)               0         
_________________________________________________________________
dropout_1501 (Dropout)       (None, 512)               0         
_________________________________________________________________
dense_684 (Dense)            (None, 10)                5130      
=================================================================
Total params: 67,604,330
Trainable params: 67,601,002
Non-trainable params: 3,328
_________________________________________________________________
