Model: "sequential_276"
_________________________________________________________________
Layer (type)                 Output Shape              Param #   
=================================================================
conv2d_1295 (Conv2D)         (None, 32, 32, 16)        448       
_________________________________________________________________
activation_1905 (Activation) (None, 32, 32, 16)        0         
_________________________________________________________________
dropout_1905 (Dropout)       (None, 32, 32, 16)        0         
_________________________________________________________________
conv2d_1296 (Conv2D)         (None, 32, 32, 8)         1160      
_________________________________________________________________
batch_normalization_956 (Bat (None, 32, 32, 8)         32        
_________________________________________________________________
activation_1906 (Activation) (None, 32, 32, 8)         0         
_________________________________________________________________
dropout_1906 (Dropout)       (None, 32, 32, 8)         0         
_________________________________________________________________
max_pooling2d_249 (MaxPoolin (None, 16, 16, 8)         0         
_________________________________________________________________
conv2d_1297 (Conv2D)         (None, 16, 16, 32)        2336      
_________________________________________________________________
activation_1907 (Activation) (None, 16, 16, 32)        0         
_________________________________________________________________
dropout_1907 (Dropout)       (None, 16, 16, 32)        0         
_________________________________________________________________
conv2d_1298 (Conv2D)         (None, 16, 16, 1024)      295936    
_________________________________________________________________
batch_normalization_957 (Bat (None, 16, 16, 1024)      4096      
_________________________________________________________________
activation_1908 (Activation) (None, 16, 16, 1024)      0         
_________________________________________________________________
dropout_1908 (Dropout)       (None, 16, 16, 1024)      0         
_________________________________________________________________
flatten_276 (Flatten)        (None, 262144)            0         
_________________________________________________________________
dense_886 (Dense)            (None, 256)               67109120  
_________________________________________________________________
activation_1909 (Activation) (None, 256)               0         
_________________________________________________________________
dropout_1909 (Dropout)       (None, 256)               0         
_________________________________________________________________
dense_887 (Dense)            (None, 512)               131584    
_________________________________________________________________
batch_normalization_958 (Bat (None, 512)               2048      
_________________________________________________________________
activation_1910 (Activation) (None, 512)               0         
_________________________________________________________________
dropout_1910 (Dropout)       (None, 512)               0         
_________________________________________________________________
dense_888 (Dense)            (None, 10)                5130      
=================================================================
Total params: 67,551,890
Trainable params: 67,548,802
Non-trainable params: 3,088
_________________________________________________________________
