Model: "sequential_132"
_________________________________________________________________
Layer (type)                 Output Shape              Param #   
=================================================================
conv2d_731 (Conv2D)          (None, 32, 32, 16)        448       
_________________________________________________________________
activation_1063 (Activation) (None, 32, 32, 16)        0         
_________________________________________________________________
dropout_1063 (Dropout)       (None, 32, 32, 16)        0         
_________________________________________________________________
conv2d_732 (Conv2D)          (None, 32, 32, 128)       18560     
_________________________________________________________________
batch_normalization_509 (Bat (None, 32, 32, 128)       512       
_________________________________________________________________
activation_1064 (Activation) (None, 32, 32, 128)       0         
_________________________________________________________________
dropout_1064 (Dropout)       (None, 32, 32, 128)       0         
_________________________________________________________________
max_pooling2d_112 (MaxPoolin (None, 16, 16, 128)       0         
_________________________________________________________________
conv2d_733 (Conv2D)          (None, 16, 16, 32)        36896     
_________________________________________________________________
activation_1065 (Activation) (None, 16, 16, 32)        0         
_________________________________________________________________
dropout_1065 (Dropout)       (None, 16, 16, 32)        0         
_________________________________________________________________
conv2d_734 (Conv2D)          (None, 16, 16, 1024)      295936    
_________________________________________________________________
batch_normalization_510 (Bat (None, 16, 16, 1024)      4096      
_________________________________________________________________
activation_1066 (Activation) (None, 16, 16, 1024)      0         
_________________________________________________________________
dropout_1066 (Dropout)       (None, 16, 16, 1024)      0         
_________________________________________________________________
flatten_132 (Flatten)        (None, 262144)            0         
_________________________________________________________________
dense_464 (Dense)            (None, 256)               67109120  
_________________________________________________________________
activation_1067 (Activation) (None, 256)               0         
_________________________________________________________________
dropout_1067 (Dropout)       (None, 256)               0         
_________________________________________________________________
dense_465 (Dense)            (None, 512)               131584    
_________________________________________________________________
batch_normalization_511 (Bat (None, 512)               2048      
_________________________________________________________________
activation_1068 (Activation) (None, 512)               0         
_________________________________________________________________
dropout_1068 (Dropout)       (None, 512)               0         
_________________________________________________________________
dense_466 (Dense)            (None, 10)                5130      
=================================================================
Total params: 67,604,330
Trainable params: 67,601,002
Non-trainable params: 3,328
_________________________________________________________________
