Model: "sequential_57"
_________________________________________________________________
Layer (type)                 Output Shape              Param #   
=================================================================
conv2d_363 (Conv2D)          (None, 32, 32, 16)        448       
_________________________________________________________________
activation_506 (Activation)  (None, 32, 32, 16)        0         
_________________________________________________________________
dropout_506 (Dropout)        (None, 32, 32, 16)        0         
_________________________________________________________________
conv2d_364 (Conv2D)          (None, 32, 32, 128)       18560     
_________________________________________________________________
batch_normalization_253 (Bat (None, 32, 32, 128)       512       
_________________________________________________________________
activation_507 (Activation)  (None, 32, 32, 128)       0         
_________________________________________________________________
dropout_507 (Dropout)        (None, 32, 32, 128)       0         
_________________________________________________________________
max_pooling2d_70 (MaxPooling (None, 16, 16, 128)       0         
_________________________________________________________________
conv2d_365 (Conv2D)          (None, 16, 16, 32)        36896     
_________________________________________________________________
activation_508 (Activation)  (None, 16, 16, 32)        0         
_________________________________________________________________
dropout_508 (Dropout)        (None, 16, 16, 32)        0         
_________________________________________________________________
conv2d_366 (Conv2D)          (None, 16, 16, 16)        4624      
_________________________________________________________________
activation_509 (Activation)  (None, 16, 16, 16)        0         
_________________________________________________________________
dropout_509 (Dropout)        (None, 16, 16, 16)        0         
_________________________________________________________________
conv2d_367 (Conv2D)          (None, 16, 16, 64)        9280      
_________________________________________________________________
activation_510 (Activation)  (None, 16, 16, 64)        0         
_________________________________________________________________
dropout_510 (Dropout)        (None, 16, 16, 64)        0         
_________________________________________________________________
conv2d_368 (Conv2D)          (None, 16, 16, 32)        18464     
_________________________________________________________________
batch_normalization_254 (Bat (None, 16, 16, 32)        128       
_________________________________________________________________
activation_511 (Activation)  (None, 16, 16, 32)        0         
_________________________________________________________________
dropout_511 (Dropout)        (None, 16, 16, 32)        0         
_________________________________________________________________
flatten_57 (Flatten)         (None, 8192)              0         
_________________________________________________________________
dense_200 (Dense)            (None, 32)                262176    
_________________________________________________________________
batch_normalization_255 (Bat (None, 32)                128       
_________________________________________________________________
activation_512 (Activation)  (None, 32)                0         
_________________________________________________________________
dropout_512 (Dropout)        (None, 32)                0         
_________________________________________________________________
dense_201 (Dense)            (None, 256)               8448      
_________________________________________________________________
activation_513 (Activation)  (None, 256)               0         
_________________________________________________________________
dropout_513 (Dropout)        (None, 256)               0         
_________________________________________________________________
dense_202 (Dense)            (None, 512)               131584    
_________________________________________________________________
batch_normalization_256 (Bat (None, 512)               2048      
_________________________________________________________________
activation_514 (Activation)  (None, 512)               0         
_________________________________________________________________
dropout_514 (Dropout)        (None, 512)               0         
_________________________________________________________________
dense_203 (Dense)            (None, 10)                5130      
=================================================================
Total params: 498,426
Trainable params: 497,018
Non-trainable params: 1,408
_________________________________________________________________
