Model: "sequential_86"
_________________________________________________________________
Layer (type)                 Output Shape              Param #   
=================================================================
conv2d_528 (Conv2D)          (None, 32, 32, 16)        448       
_________________________________________________________________
activation_746 (Activation)  (None, 32, 32, 16)        0         
_________________________________________________________________
dropout_746 (Dropout)        (None, 32, 32, 16)        0         
_________________________________________________________________
conv2d_529 (Conv2D)          (None, 32, 32, 32)        4640      
_________________________________________________________________
activation_747 (Activation)  (None, 32, 32, 32)        0         
_________________________________________________________________
dropout_747 (Dropout)        (None, 32, 32, 32)        0         
_________________________________________________________________
conv2d_530 (Conv2D)          (None, 32, 32, 1024)      295936    
_________________________________________________________________
batch_normalization_356 (Bat (None, 32, 32, 1024)      4096      
_________________________________________________________________
activation_748 (Activation)  (None, 32, 32, 1024)      0         
_________________________________________________________________
dropout_748 (Dropout)        (None, 32, 32, 1024)      0         
_________________________________________________________________
flatten_86 (Flatten)         (None, 1048576)           0         
_________________________________________________________________
dense_304 (Dense)            (None, 256)               268435712 
_________________________________________________________________
activation_749 (Activation)  (None, 256)               0         
_________________________________________________________________
dropout_749 (Dropout)        (None, 256)               0         
_________________________________________________________________
dense_305 (Dense)            (None, 512)               131584    
_________________________________________________________________
batch_normalization_357 (Bat (None, 512)               2048      
_________________________________________________________________
activation_750 (Activation)  (None, 512)               0         
_________________________________________________________________
dropout_750 (Dropout)        (None, 512)               0         
_________________________________________________________________
dense_306 (Dense)            (None, 32)                16416     
_________________________________________________________________
batch_normalization_358 (Bat (None, 32)                128       
_________________________________________________________________
activation_751 (Activation)  (None, 32)                0         
_________________________________________________________________
dropout_751 (Dropout)        (None, 32)                0         
_________________________________________________________________
dense_307 (Dense)            (None, 10)                330       
=================================================================
Total params: 268,891,338
Trainable params: 268,888,202
Non-trainable params: 3,136
_________________________________________________________________
