Model: "sequential_28"
_________________________________________________________________
Layer (type)                 Output Shape              Param #   
=================================================================
conv2d_190 (Conv2D)          (None, 32, 32, 16)        448       
_________________________________________________________________
activation_264 (Activation)  (None, 32, 32, 16)        0         
_________________________________________________________________
dropout_264 (Dropout)        (None, 32, 32, 16)        0         
_________________________________________________________________
conv2d_191 (Conv2D)          (None, 32, 32, 128)       18560     
_________________________________________________________________
batch_normalization_139 (Bat (None, 32, 32, 128)       512       
_________________________________________________________________
activation_265 (Activation)  (None, 32, 32, 128)       0         
_________________________________________________________________
dropout_265 (Dropout)        (None, 32, 32, 128)       0         
_________________________________________________________________
max_pooling2d_37 (MaxPooling (None, 16, 16, 128)       0         
_________________________________________________________________
conv2d_192 (Conv2D)          (None, 16, 16, 32)        36896     
_________________________________________________________________
activation_266 (Activation)  (None, 16, 16, 32)        0         
_________________________________________________________________
dropout_266 (Dropout)        (None, 16, 16, 32)        0         
_________________________________________________________________
conv2d_193 (Conv2D)          (None, 16, 16, 16)        4624      
_________________________________________________________________
activation_267 (Activation)  (None, 16, 16, 16)        0         
_________________________________________________________________
dropout_267 (Dropout)        (None, 16, 16, 16)        0         
_________________________________________________________________
conv2d_194 (Conv2D)          (None, 16, 16, 64)        9280      
_________________________________________________________________
activation_268 (Activation)  (None, 16, 16, 64)        0         
_________________________________________________________________
dropout_268 (Dropout)        (None, 16, 16, 64)        0         
_________________________________________________________________
conv2d_195 (Conv2D)          (None, 16, 16, 32)        18464     
_________________________________________________________________
batch_normalization_140 (Bat (None, 16, 16, 32)        128       
_________________________________________________________________
activation_269 (Activation)  (None, 16, 16, 32)        0         
_________________________________________________________________
dropout_269 (Dropout)        (None, 16, 16, 32)        0         
_________________________________________________________________
flatten_28 (Flatten)         (None, 8192)              0         
_________________________________________________________________
dense_102 (Dense)            (None, 32)                262176    
_________________________________________________________________
batch_normalization_141 (Bat (None, 32)                128       
_________________________________________________________________
activation_270 (Activation)  (None, 32)                0         
_________________________________________________________________
dropout_270 (Dropout)        (None, 32)                0         
_________________________________________________________________
dense_103 (Dense)            (None, 128)               4224      
_________________________________________________________________
activation_271 (Activation)  (None, 128)               0         
_________________________________________________________________
dropout_271 (Dropout)        (None, 128)               0         
_________________________________________________________________
dense_104 (Dense)            (None, 64)                8256      
_________________________________________________________________
batch_normalization_142 (Bat (None, 64)                256       
_________________________________________________________________
activation_272 (Activation)  (None, 64)                0         
_________________________________________________________________
dropout_272 (Dropout)        (None, 64)                0         
_________________________________________________________________
dense_105 (Dense)            (None, 10)                650       
=================================================================
Total params: 364,602
Trainable params: 364,090
Non-trainable params: 512
_________________________________________________________________
