Model: "sequential_201"
_________________________________________________________________
Layer (type)                 Output Shape              Param #   
=================================================================
conv2d_1007 (Conv2D)         (None, 32, 32, 16)        448       
_________________________________________________________________
activation_1479 (Activation) (None, 32, 32, 16)        0         
_________________________________________________________________
dropout_1479 (Dropout)       (None, 32, 32, 16)        0         
_________________________________________________________________
conv2d_1008 (Conv2D)         (None, 32, 32, 128)       18560     
_________________________________________________________________
batch_normalization_718 (Bat (None, 32, 32, 128)       512       
_________________________________________________________________
activation_1480 (Activation) (None, 32, 32, 128)       0         
_________________________________________________________________
dropout_1480 (Dropout)       (None, 32, 32, 128)       0         
_________________________________________________________________
max_pooling2d_178 (MaxPoolin (None, 16, 16, 128)       0         
_________________________________________________________________
conv2d_1009 (Conv2D)         (None, 16, 16, 32)        36896     
_________________________________________________________________
activation_1481 (Activation) (None, 16, 16, 32)        0         
_________________________________________________________________
dropout_1481 (Dropout)       (None, 16, 16, 32)        0         
_________________________________________________________________
conv2d_1010 (Conv2D)         (None, 16, 16, 1024)      295936    
_________________________________________________________________
batch_normalization_719 (Bat (None, 16, 16, 1024)      4096      
_________________________________________________________________
activation_1482 (Activation) (None, 16, 16, 1024)      0         
_________________________________________________________________
dropout_1482 (Dropout)       (None, 16, 16, 1024)      0         
_________________________________________________________________
flatten_201 (Flatten)        (None, 262144)            0         
_________________________________________________________________
dense_673 (Dense)            (None, 256)               67109120  
_________________________________________________________________
activation_1483 (Activation) (None, 256)               0         
_________________________________________________________________
dropout_1483 (Dropout)       (None, 256)               0         
_________________________________________________________________
dense_674 (Dense)            (None, 512)               131584    
_________________________________________________________________
batch_normalization_720 (Bat (None, 512)               2048      
_________________________________________________________________
activation_1484 (Activation) (None, 512)               0         
_________________________________________________________________
dropout_1484 (Dropout)       (None, 512)               0         
_________________________________________________________________
dense_675 (Dense)            (None, 10)                5130      
=================================================================
Total params: 67,604,330
Trainable params: 67,601,002
Non-trainable params: 3,328
_________________________________________________________________
