Model: "sequential_339"
_________________________________________________________________
Layer (type)                 Output Shape              Param #   
=================================================================
conv2d_1539 (Conv2D)         (None, 32, 32, 16)        448       
_________________________________________________________________
activation_2242 (Activation) (None, 32, 32, 16)        0         
_________________________________________________________________
dropout_2242 (Dropout)       (None, 32, 32, 16)        0         
_________________________________________________________________
conv2d_1540 (Conv2D)         (None, 32, 32, 128)       18560     
_________________________________________________________________
batch_normalization_1133 (Ba (None, 32, 32, 128)       512       
_________________________________________________________________
activation_2243 (Activation) (None, 32, 32, 128)       0         
_________________________________________________________________
dropout_2243 (Dropout)       (None, 32, 32, 128)       0         
_________________________________________________________________
conv2d_1541 (Conv2D)         (None, 32, 32, 1024)      1180672   
_________________________________________________________________
activation_2244 (Activation) (None, 32, 32, 1024)      0         
_________________________________________________________________
dropout_2244 (Dropout)       (None, 32, 32, 1024)      0         
_________________________________________________________________
max_pooling2d_313 (MaxPoolin (None, 16, 16, 1024)      0         
_________________________________________________________________
conv2d_1542 (Conv2D)         (None, 16, 16, 1024)      9438208   
_________________________________________________________________
batch_normalization_1134 (Ba (None, 16, 16, 1024)      4096      
_________________________________________________________________
activation_2245 (Activation) (None, 16, 16, 1024)      0         
_________________________________________________________________
dropout_2245 (Dropout)       (None, 16, 16, 1024)      0         
_________________________________________________________________
flatten_339 (Flatten)        (None, 262144)            0         
_________________________________________________________________
dense_1042 (Dense)           (None, 64)                16777280  
_________________________________________________________________
batch_normalization_1135 (Ba (None, 64)                256       
_________________________________________________________________
activation_2246 (Activation) (None, 64)                0         
_________________________________________________________________
dropout_2246 (Dropout)       (None, 64)                0         
_________________________________________________________________
dense_1043 (Dense)           (None, 32)                2080      
_________________________________________________________________
batch_normalization_1136 (Ba (None, 32)                128       
_________________________________________________________________
activation_2247 (Activation) (None, 32)                0         
_________________________________________________________________
dropout_2247 (Dropout)       (None, 32)                0         
_________________________________________________________________
dense_1044 (Dense)           (None, 10)                330       
=================================================================
Total params: 27,422,570
Trainable params: 27,420,074
Non-trainable params: 2,496
_________________________________________________________________
