Model: "sequential_179"
_________________________________________________________________
Layer (type)                 Output Shape              Param #   
=================================================================
conv2d_920 (Conv2D)          (None, 32, 32, 16)        448       
_________________________________________________________________
activation_1349 (Activation) (None, 32, 32, 16)        0         
_________________________________________________________________
dropout_1349 (Dropout)       (None, 32, 32, 16)        0         
_________________________________________________________________
conv2d_921 (Conv2D)          (None, 32, 32, 128)       18560     
_________________________________________________________________
batch_normalization_654 (Bat (None, 32, 32, 128)       512       
_________________________________________________________________
activation_1350 (Activation) (None, 32, 32, 128)       0         
_________________________________________________________________
dropout_1350 (Dropout)       (None, 32, 32, 128)       0         
_________________________________________________________________
max_pooling2d_156 (MaxPoolin (None, 16, 16, 128)       0         
_________________________________________________________________
conv2d_922 (Conv2D)          (None, 16, 16, 32)        36896     
_________________________________________________________________
activation_1351 (Activation) (None, 16, 16, 32)        0         
_________________________________________________________________
dropout_1351 (Dropout)       (None, 16, 16, 32)        0         
_________________________________________________________________
conv2d_923 (Conv2D)          (None, 16, 16, 128)       36992     
_________________________________________________________________
batch_normalization_655 (Bat (None, 16, 16, 128)       512       
_________________________________________________________________
activation_1352 (Activation) (None, 16, 16, 128)       0         
_________________________________________________________________
dropout_1352 (Dropout)       (None, 16, 16, 128)       0         
_________________________________________________________________
flatten_179 (Flatten)        (None, 32768)             0         
_________________________________________________________________
dense_608 (Dense)            (None, 16)                524304    
_________________________________________________________________
activation_1353 (Activation) (None, 16)                0         
_________________________________________________________________
dropout_1353 (Dropout)       (None, 16)                0         
_________________________________________________________________
dense_609 (Dense)            (None, 512)               8704      
_________________________________________________________________
batch_normalization_656 (Bat (None, 512)               2048      
_________________________________________________________________
activation_1354 (Activation) (None, 512)               0         
_________________________________________________________________
dropout_1354 (Dropout)       (None, 512)               0         
_________________________________________________________________
dense_610 (Dense)            (None, 10)                5130      
=================================================================
Total params: 634,106
Trainable params: 632,570
Non-trainable params: 1,536
_________________________________________________________________
