Model: "sequential_386"
_________________________________________________________________
Layer (type)                 Output Shape              Param #   
=================================================================
conv2d_1724 (Conv2D)         (None, 32, 32, 16)        448       
_________________________________________________________________
activation_2512 (Activation) (None, 32, 32, 16)        0         
_________________________________________________________________
dropout_2512 (Dropout)       (None, 32, 32, 16)        0         
_________________________________________________________________
conv2d_1725 (Conv2D)         (None, 32, 32, 128)       18560     
_________________________________________________________________
activation_2513 (Activation) (None, 32, 32, 128)       0         
_________________________________________________________________
dropout_2513 (Dropout)       (None, 32, 32, 128)       0         
_________________________________________________________________
conv2d_1726 (Conv2D)         (None, 32, 32, 1024)      1180672   
_________________________________________________________________
activation_2514 (Activation) (None, 32, 32, 1024)      0         
_________________________________________________________________
dropout_2514 (Dropout)       (None, 32, 32, 1024)      0         
_________________________________________________________________
max_pooling2d_362 (MaxPoolin (None, 16, 16, 1024)      0         
_________________________________________________________________
conv2d_1727 (Conv2D)         (None, 16, 16, 1024)      9438208   
_________________________________________________________________
batch_normalization_1252 (Ba (None, 16, 16, 1024)      4096      
_________________________________________________________________
activation_2515 (Activation) (None, 16, 16, 1024)      0         
_________________________________________________________________
dropout_2515 (Dropout)       (None, 16, 16, 1024)      0         
_________________________________________________________________
flatten_386 (Flatten)        (None, 262144)            0         
_________________________________________________________________
dense_1174 (Dense)           (None, 256)               67109120  
_________________________________________________________________
activation_2516 (Activation) (None, 256)               0         
_________________________________________________________________
dropout_2516 (Dropout)       (None, 256)               0         
_________________________________________________________________
dense_1175 (Dense)           (None, 10)                2570      
=================================================================
Total params: 77,753,674
Trainable params: 77,751,626
Non-trainable params: 2,048
_________________________________________________________________
