Model: "sequential_166"
_________________________________________________________________
Layer (type)                 Output Shape              Param #   
=================================================================
conv2d_868 (Conv2D)          (None, 32, 32, 16)        448       
_________________________________________________________________
activation_1271 (Activation) (None, 32, 32, 16)        0         
_________________________________________________________________
dropout_1271 (Dropout)       (None, 32, 32, 16)        0         
_________________________________________________________________
conv2d_869 (Conv2D)          (None, 32, 32, 128)       18560     
_________________________________________________________________
batch_normalization_615 (Bat (None, 32, 32, 128)       512       
_________________________________________________________________
activation_1272 (Activation) (None, 32, 32, 128)       0         
_________________________________________________________________
dropout_1272 (Dropout)       (None, 32, 32, 128)       0         
_________________________________________________________________
max_pooling2d_143 (MaxPoolin (None, 16, 16, 128)       0         
_________________________________________________________________
conv2d_870 (Conv2D)          (None, 16, 16, 32)        36896     
_________________________________________________________________
activation_1273 (Activation) (None, 16, 16, 32)        0         
_________________________________________________________________
dropout_1273 (Dropout)       (None, 16, 16, 32)        0         
_________________________________________________________________
conv2d_871 (Conv2D)          (None, 16, 16, 128)       36992     
_________________________________________________________________
batch_normalization_616 (Bat (None, 16, 16, 128)       512       
_________________________________________________________________
activation_1274 (Activation) (None, 16, 16, 128)       0         
_________________________________________________________________
dropout_1274 (Dropout)       (None, 16, 16, 128)       0         
_________________________________________________________________
flatten_166 (Flatten)        (None, 32768)             0         
_________________________________________________________________
dense_569 (Dense)            (None, 16)                524304    
_________________________________________________________________
activation_1275 (Activation) (None, 16)                0         
_________________________________________________________________
dropout_1275 (Dropout)       (None, 16)                0         
_________________________________________________________________
dense_570 (Dense)            (None, 512)               8704      
_________________________________________________________________
batch_normalization_617 (Bat (None, 512)               2048      
_________________________________________________________________
activation_1276 (Activation) (None, 512)               0         
_________________________________________________________________
dropout_1276 (Dropout)       (None, 512)               0         
_________________________________________________________________
dense_571 (Dense)            (None, 10)                5130      
=================================================================
Total params: 634,106
Trainable params: 632,570
Non-trainable params: 1,536
_________________________________________________________________
