Model: "sequential_44"
_________________________________________________________________
Layer (type)                 Output Shape              Param #   
=================================================================
conv2d_286 (Conv2D)          (None, 32, 32, 16)        448       
_________________________________________________________________
activation_391 (Activation)  (None, 32, 32, 16)        0         
_________________________________________________________________
dropout_391 (Dropout)        (None, 32, 32, 16)        0         
_________________________________________________________________
conv2d_287 (Conv2D)          (None, 32, 32, 128)       18560     
_________________________________________________________________
batch_normalization_197 (Bat (None, 32, 32, 128)       512       
_________________________________________________________________
activation_392 (Activation)  (None, 32, 32, 128)       0         
_________________________________________________________________
dropout_392 (Dropout)        (None, 32, 32, 128)       0         
_________________________________________________________________
max_pooling2d_56 (MaxPooling (None, 16, 16, 128)       0         
_________________________________________________________________
conv2d_288 (Conv2D)          (None, 16, 16, 32)        36896     
_________________________________________________________________
activation_393 (Activation)  (None, 16, 16, 32)        0         
_________________________________________________________________
dropout_393 (Dropout)        (None, 16, 16, 32)        0         
_________________________________________________________________
conv2d_289 (Conv2D)          (None, 16, 16, 16)        4624      
_________________________________________________________________
activation_394 (Activation)  (None, 16, 16, 16)        0         
_________________________________________________________________
dropout_394 (Dropout)        (None, 16, 16, 16)        0         
_________________________________________________________________
conv2d_290 (Conv2D)          (None, 16, 16, 64)        9280      
_________________________________________________________________
activation_395 (Activation)  (None, 16, 16, 64)        0         
_________________________________________________________________
dropout_395 (Dropout)        (None, 16, 16, 64)        0         
_________________________________________________________________
conv2d_291 (Conv2D)          (None, 16, 16, 32)        18464     
_________________________________________________________________
batch_normalization_198 (Bat (None, 16, 16, 32)        128       
_________________________________________________________________
activation_396 (Activation)  (None, 16, 16, 32)        0         
_________________________________________________________________
dropout_396 (Dropout)        (None, 16, 16, 32)        0         
_________________________________________________________________
flatten_44 (Flatten)         (None, 8192)              0         
_________________________________________________________________
dense_149 (Dense)            (None, 32)                262176    
_________________________________________________________________
batch_normalization_199 (Bat (None, 32)                128       
_________________________________________________________________
activation_397 (Activation)  (None, 32)                0         
_________________________________________________________________
dropout_397 (Dropout)        (None, 32)                0         
_________________________________________________________________
dense_150 (Dense)            (None, 256)               8448      
_________________________________________________________________
activation_398 (Activation)  (None, 256)               0         
_________________________________________________________________
dropout_398 (Dropout)        (None, 256)               0         
_________________________________________________________________
dense_151 (Dense)            (None, 512)               131584    
_________________________________________________________________
batch_normalization_200 (Bat (None, 512)               2048      
_________________________________________________________________
activation_399 (Activation)  (None, 512)               0         
_________________________________________________________________
dropout_399 (Dropout)        (None, 512)               0         
_________________________________________________________________
dense_152 (Dense)            (None, 32)                16416     
_________________________________________________________________
batch_normalization_201 (Bat (None, 32)                128       
_________________________________________________________________
activation_400 (Activation)  (None, 32)                0         
_________________________________________________________________
dropout_400 (Dropout)        (None, 32)                0         
_________________________________________________________________
dense_153 (Dense)            (None, 10)                330       
=================================================================
Total params: 510,170
Trainable params: 508,698
Non-trainable params: 1,472
_________________________________________________________________
