Model: "sequential_139"
_________________________________________________________________
Layer (type)                 Output Shape              Param #   
=================================================================
conv2d_759 (Conv2D)          (None, 32, 32, 16)        448       
_________________________________________________________________
activation_1107 (Activation) (None, 32, 32, 16)        0         
_________________________________________________________________
dropout_1107 (Dropout)       (None, 32, 32, 16)        0         
_________________________________________________________________
conv2d_760 (Conv2D)          (None, 32, 32, 128)       18560     
_________________________________________________________________
batch_normalization_533 (Bat (None, 32, 32, 128)       512       
_________________________________________________________________
activation_1108 (Activation) (None, 32, 32, 128)       0         
_________________________________________________________________
dropout_1108 (Dropout)       (None, 32, 32, 128)       0         
_________________________________________________________________
max_pooling2d_117 (MaxPoolin (None, 16, 16, 128)       0         
_________________________________________________________________
conv2d_761 (Conv2D)          (None, 16, 16, 32)        36896     
_________________________________________________________________
activation_1109 (Activation) (None, 16, 16, 32)        0         
_________________________________________________________________
dropout_1109 (Dropout)       (None, 16, 16, 32)        0         
_________________________________________________________________
conv2d_762 (Conv2D)          (None, 16, 16, 16)        4624      
_________________________________________________________________
activation_1110 (Activation) (None, 16, 16, 16)        0         
_________________________________________________________________
dropout_1110 (Dropout)       (None, 16, 16, 16)        0         
_________________________________________________________________
conv2d_763 (Conv2D)          (None, 16, 16, 1024)      148480    
_________________________________________________________________
batch_normalization_534 (Bat (None, 16, 16, 1024)      4096      
_________________________________________________________________
activation_1111 (Activation) (None, 16, 16, 1024)      0         
_________________________________________________________________
dropout_1111 (Dropout)       (None, 16, 16, 1024)      0         
_________________________________________________________________
flatten_139 (Flatten)        (None, 262144)            0         
_________________________________________________________________
dense_487 (Dense)            (None, 256)               67109120  
_________________________________________________________________
activation_1112 (Activation) (None, 256)               0         
_________________________________________________________________
dropout_1112 (Dropout)       (None, 256)               0         
_________________________________________________________________
dense_488 (Dense)            (None, 512)               131584    
_________________________________________________________________
batch_normalization_535 (Bat (None, 512)               2048      
_________________________________________________________________
activation_1113 (Activation) (None, 512)               0         
_________________________________________________________________
dropout_1113 (Dropout)       (None, 512)               0         
_________________________________________________________________
dense_489 (Dense)            (None, 32)                16416     
_________________________________________________________________
batch_normalization_536 (Bat (None, 32)                128       
_________________________________________________________________
activation_1114 (Activation) (None, 32)                0         
_________________________________________________________________
dropout_1114 (Dropout)       (None, 32)                0         
_________________________________________________________________
dense_490 (Dense)            (None, 10)                330       
=================================================================
Total params: 67,473,242
Trainable params: 67,469,850
Non-trainable params: 3,392
_________________________________________________________________
