Model: "sequential_183"
_________________________________________________________________
Layer (type)                 Output Shape              Param #   
=================================================================
conv2d_936 (Conv2D)          (None, 32, 32, 16)        448       
_________________________________________________________________
activation_1373 (Activation) (None, 32, 32, 16)        0         
_________________________________________________________________
dropout_1373 (Dropout)       (None, 32, 32, 16)        0         
_________________________________________________________________
conv2d_937 (Conv2D)          (None, 32, 32, 128)       18560     
_________________________________________________________________
batch_normalization_666 (Bat (None, 32, 32, 128)       512       
_________________________________________________________________
activation_1374 (Activation) (None, 32, 32, 128)       0         
_________________________________________________________________
dropout_1374 (Dropout)       (None, 32, 32, 128)       0         
_________________________________________________________________
max_pooling2d_160 (MaxPoolin (None, 16, 16, 128)       0         
_________________________________________________________________
conv2d_938 (Conv2D)          (None, 16, 16, 32)        36896     
_________________________________________________________________
activation_1375 (Activation) (None, 16, 16, 32)        0         
_________________________________________________________________
dropout_1375 (Dropout)       (None, 16, 16, 32)        0         
_________________________________________________________________
conv2d_939 (Conv2D)          (None, 16, 16, 1024)      295936    
_________________________________________________________________
batch_normalization_667 (Bat (None, 16, 16, 1024)      4096      
_________________________________________________________________
activation_1376 (Activation) (None, 16, 16, 1024)      0         
_________________________________________________________________
dropout_1376 (Dropout)       (None, 16, 16, 1024)      0         
_________________________________________________________________
flatten_183 (Flatten)        (None, 262144)            0         
_________________________________________________________________
dense_620 (Dense)            (None, 256)               67109120  
_________________________________________________________________
activation_1377 (Activation) (None, 256)               0         
_________________________________________________________________
dropout_1377 (Dropout)       (None, 256)               0         
_________________________________________________________________
dense_621 (Dense)            (None, 512)               131584    
_________________________________________________________________
batch_normalization_668 (Bat (None, 512)               2048      
_________________________________________________________________
activation_1378 (Activation) (None, 512)               0         
_________________________________________________________________
dropout_1378 (Dropout)       (None, 512)               0         
_________________________________________________________________
dense_622 (Dense)            (None, 10)                5130      
=================================================================
Total params: 67,604,330
Trainable params: 67,601,002
Non-trainable params: 3,328
_________________________________________________________________
