Model: "sequential_389"
_________________________________________________________________
Layer (type)                 Output Shape              Param #   
=================================================================
conv2d_1736 (Conv2D)         (None, 32, 32, 16)        448       
_________________________________________________________________
activation_2528 (Activation) (None, 32, 32, 16)        0         
_________________________________________________________________
dropout_2528 (Dropout)       (None, 32, 32, 16)        0         
_________________________________________________________________
conv2d_1737 (Conv2D)         (None, 32, 32, 512)       74240     
_________________________________________________________________
activation_2529 (Activation) (None, 32, 32, 512)       0         
_________________________________________________________________
dropout_2529 (Dropout)       (None, 32, 32, 512)       0         
_________________________________________________________________
conv2d_1738 (Conv2D)         (None, 32, 32, 1024)      4719616   
_________________________________________________________________
activation_2530 (Activation) (None, 32, 32, 1024)      0         
_________________________________________________________________
dropout_2530 (Dropout)       (None, 32, 32, 1024)      0         
_________________________________________________________________
max_pooling2d_365 (MaxPoolin (None, 16, 16, 1024)      0         
_________________________________________________________________
conv2d_1739 (Conv2D)         (None, 16, 16, 1024)      9438208   
_________________________________________________________________
batch_normalization_1256 (Ba (None, 16, 16, 1024)      4096      
_________________________________________________________________
activation_2531 (Activation) (None, 16, 16, 1024)      0         
_________________________________________________________________
dropout_2531 (Dropout)       (None, 16, 16, 1024)      0         
_________________________________________________________________
flatten_389 (Flatten)        (None, 262144)            0         
_________________________________________________________________
dense_1181 (Dense)           (None, 256)               67109120  
_________________________________________________________________
activation_2532 (Activation) (None, 256)               0         
_________________________________________________________________
dropout_2532 (Dropout)       (None, 256)               0         
_________________________________________________________________
dense_1182 (Dense)           (None, 512)               131584    
_________________________________________________________________
batch_normalization_1257 (Ba (None, 512)               2048      
_________________________________________________________________
activation_2533 (Activation) (None, 512)               0         
_________________________________________________________________
dropout_2533 (Dropout)       (None, 512)               0         
_________________________________________________________________
dense_1183 (Dense)           (None, 10)                5130      
=================================================================
Total params: 81,484,490
Trainable params: 81,481,418
Non-trainable params: 3,072
_________________________________________________________________
