Model: "sequential_61"
_________________________________________________________________
Layer (type)                 Output Shape              Param #   
=================================================================
conv2d_386 (Conv2D)          (None, 32, 32, 16)        448       
_________________________________________________________________
activation_539 (Activation)  (None, 32, 32, 16)        0         
_________________________________________________________________
dropout_539 (Dropout)        (None, 32, 32, 16)        0         
_________________________________________________________________
conv2d_387 (Conv2D)          (None, 32, 32, 128)       18560     
_________________________________________________________________
batch_normalization_267 (Bat (None, 32, 32, 128)       512       
_________________________________________________________________
activation_540 (Activation)  (None, 32, 32, 128)       0         
_________________________________________________________________
dropout_540 (Dropout)        (None, 32, 32, 128)       0         
_________________________________________________________________
max_pooling2d_73 (MaxPooling (None, 16, 16, 128)       0         
_________________________________________________________________
conv2d_388 (Conv2D)          (None, 16, 16, 32)        36896     
_________________________________________________________________
activation_541 (Activation)  (None, 16, 16, 32)        0         
_________________________________________________________________
dropout_541 (Dropout)        (None, 16, 16, 32)        0         
_________________________________________________________________
conv2d_389 (Conv2D)          (None, 16, 16, 16)        4624      
_________________________________________________________________
activation_542 (Activation)  (None, 16, 16, 16)        0         
_________________________________________________________________
dropout_542 (Dropout)        (None, 16, 16, 16)        0         
_________________________________________________________________
conv2d_390 (Conv2D)          (None, 16, 16, 64)        9280      
_________________________________________________________________
activation_543 (Activation)  (None, 16, 16, 64)        0         
_________________________________________________________________
dropout_543 (Dropout)        (None, 16, 16, 64)        0         
_________________________________________________________________
conv2d_391 (Conv2D)          (None, 16, 16, 32)        18464     
_________________________________________________________________
batch_normalization_268 (Bat (None, 16, 16, 32)        128       
_________________________________________________________________
activation_544 (Activation)  (None, 16, 16, 32)        0         
_________________________________________________________________
dropout_544 (Dropout)        (None, 16, 16, 32)        0         
_________________________________________________________________
flatten_61 (Flatten)         (None, 8192)              0         
_________________________________________________________________
dense_214 (Dense)            (None, 32)                262176    
_________________________________________________________________
batch_normalization_269 (Bat (None, 32)                128       
_________________________________________________________________
activation_545 (Activation)  (None, 32)                0         
_________________________________________________________________
dropout_545 (Dropout)        (None, 32)                0         
_________________________________________________________________
dense_215 (Dense)            (None, 128)               4224      
_________________________________________________________________
activation_546 (Activation)  (None, 128)               0         
_________________________________________________________________
dropout_546 (Dropout)        (None, 128)               0         
_________________________________________________________________
dense_216 (Dense)            (None, 64)                8256      
_________________________________________________________________
batch_normalization_270 (Bat (None, 64)                256       
_________________________________________________________________
activation_547 (Activation)  (None, 64)                0         
_________________________________________________________________
dropout_547 (Dropout)        (None, 64)                0         
_________________________________________________________________
dense_217 (Dense)            (None, 10)                650       
=================================================================
Total params: 364,602
Trainable params: 364,090
Non-trainable params: 512
_________________________________________________________________
