Model: "sequential_241"
_________________________________________________________________
Layer (type)                 Output Shape              Param #   
=================================================================
conv2d_1165 (Conv2D)         (None, 32, 32, 16)        448       
_________________________________________________________________
activation_1709 (Activation) (None, 32, 32, 16)        0         
_________________________________________________________________
dropout_1709 (Dropout)       (None, 32, 32, 16)        0         
_________________________________________________________________
conv2d_1166 (Conv2D)         (None, 32, 32, 8)         1160      
_________________________________________________________________
batch_normalization_838 (Bat (None, 32, 32, 8)         32        
_________________________________________________________________
activation_1710 (Activation) (None, 32, 32, 8)         0         
_________________________________________________________________
dropout_1710 (Dropout)       (None, 32, 32, 8)         0         
_________________________________________________________________
max_pooling2d_218 (MaxPoolin (None, 16, 16, 8)         0         
_________________________________________________________________
conv2d_1167 (Conv2D)         (None, 16, 16, 32)        2336      
_________________________________________________________________
activation_1711 (Activation) (None, 16, 16, 32)        0         
_________________________________________________________________
dropout_1711 (Dropout)       (None, 16, 16, 32)        0         
_________________________________________________________________
conv2d_1168 (Conv2D)         (None, 16, 16, 1024)      295936    
_________________________________________________________________
batch_normalization_839 (Bat (None, 16, 16, 1024)      4096      
_________________________________________________________________
activation_1712 (Activation) (None, 16, 16, 1024)      0         
_________________________________________________________________
dropout_1712 (Dropout)       (None, 16, 16, 1024)      0         
_________________________________________________________________
flatten_241 (Flatten)        (None, 262144)            0         
_________________________________________________________________
dense_785 (Dense)            (None, 512)               134218240 
_________________________________________________________________
batch_normalization_840 (Bat (None, 512)               2048      
_________________________________________________________________
activation_1713 (Activation) (None, 512)               0         
_________________________________________________________________
dropout_1713 (Dropout)       (None, 512)               0         
_________________________________________________________________
dense_786 (Dense)            (None, 10)                5130      
=================================================================
Total params: 134,529,426
Trainable params: 134,526,338
Non-trainable params: 3,088
_________________________________________________________________
