Model: "sequential_140"
_________________________________________________________________
Layer (type)                 Output Shape              Param #   
=================================================================
conv2d_764 (Conv2D)          (None, 32, 32, 16)        448       
_________________________________________________________________
activation_1115 (Activation) (None, 32, 32, 16)        0         
_________________________________________________________________
dropout_1115 (Dropout)       (None, 32, 32, 16)        0         
_________________________________________________________________
conv2d_765 (Conv2D)          (None, 32, 32, 128)       18560     
_________________________________________________________________
batch_normalization_537 (Bat (None, 32, 32, 128)       512       
_________________________________________________________________
activation_1116 (Activation) (None, 32, 32, 128)       0         
_________________________________________________________________
dropout_1116 (Dropout)       (None, 32, 32, 128)       0         
_________________________________________________________________
max_pooling2d_118 (MaxPoolin (None, 16, 16, 128)       0         
_________________________________________________________________
conv2d_766 (Conv2D)          (None, 16, 16, 32)        36896     
_________________________________________________________________
activation_1117 (Activation) (None, 16, 16, 32)        0         
_________________________________________________________________
dropout_1117 (Dropout)       (None, 16, 16, 32)        0         
_________________________________________________________________
conv2d_767 (Conv2D)          (None, 16, 16, 128)       36992     
_________________________________________________________________
batch_normalization_538 (Bat (None, 16, 16, 128)       512       
_________________________________________________________________
activation_1118 (Activation) (None, 16, 16, 128)       0         
_________________________________________________________________
dropout_1118 (Dropout)       (None, 16, 16, 128)       0         
_________________________________________________________________
flatten_140 (Flatten)        (None, 32768)             0         
_________________________________________________________________
dense_491 (Dense)            (None, 16)                524304    
_________________________________________________________________
activation_1119 (Activation) (None, 16)                0         
_________________________________________________________________
dropout_1119 (Dropout)       (None, 16)                0         
_________________________________________________________________
dense_492 (Dense)            (None, 512)               8704      
_________________________________________________________________
batch_normalization_539 (Bat (None, 512)               2048      
_________________________________________________________________
activation_1120 (Activation) (None, 512)               0         
_________________________________________________________________
dropout_1120 (Dropout)       (None, 512)               0         
_________________________________________________________________
dense_493 (Dense)            (None, 10)                5130      
=================================================================
Total params: 634,106
Trainable params: 632,570
Non-trainable params: 1,536
_________________________________________________________________
