Model: "sequential_382"
_________________________________________________________________
Layer (type)                 Output Shape              Param #   
=================================================================
conv2d_1708 (Conv2D)         (None, 32, 32, 16)        448       
_________________________________________________________________
activation_2489 (Activation) (None, 32, 32, 16)        0         
_________________________________________________________________
dropout_2489 (Dropout)       (None, 32, 32, 16)        0         
_________________________________________________________________
conv2d_1709 (Conv2D)         (None, 32, 32, 128)       18560     
_________________________________________________________________
activation_2490 (Activation) (None, 32, 32, 128)       0         
_________________________________________________________________
dropout_2490 (Dropout)       (None, 32, 32, 128)       0         
_________________________________________________________________
conv2d_1710 (Conv2D)         (None, 32, 32, 1024)      1180672   
_________________________________________________________________
activation_2491 (Activation) (None, 32, 32, 1024)      0         
_________________________________________________________________
dropout_2491 (Dropout)       (None, 32, 32, 1024)      0         
_________________________________________________________________
max_pooling2d_359 (MaxPoolin (None, 16, 16, 1024)      0         
_________________________________________________________________
conv2d_1711 (Conv2D)         (None, 16, 16, 1024)      9438208   
_________________________________________________________________
batch_normalization_1243 (Ba (None, 16, 16, 1024)      4096      
_________________________________________________________________
activation_2492 (Activation) (None, 16, 16, 1024)      0         
_________________________________________________________________
dropout_2492 (Dropout)       (None, 16, 16, 1024)      0         
_________________________________________________________________
flatten_382 (Flatten)        (None, 262144)            0         
_________________________________________________________________
dense_1163 (Dense)           (None, 256)               67109120  
_________________________________________________________________
activation_2493 (Activation) (None, 256)               0         
_________________________________________________________________
dropout_2493 (Dropout)       (None, 256)               0         
_________________________________________________________________
dense_1164 (Dense)           (None, 10)                2570      
=================================================================
Total params: 77,753,674
Trainable params: 77,751,626
Non-trainable params: 2,048
_________________________________________________________________
