Model: "sequential_77"
_________________________________________________________________
Layer (type)                 Output Shape              Param #   
=================================================================
conv2d_484 (Conv2D)          (None, 32, 32, 16)        448       
_________________________________________________________________
activation_675 (Activation)  (None, 32, 32, 16)        0         
_________________________________________________________________
dropout_675 (Dropout)        (None, 32, 32, 16)        0         
_________________________________________________________________
conv2d_485 (Conv2D)          (None, 32, 32, 128)       18560     
_________________________________________________________________
batch_normalization_322 (Bat (None, 32, 32, 128)       512       
_________________________________________________________________
activation_676 (Activation)  (None, 32, 32, 128)       0         
_________________________________________________________________
dropout_676 (Dropout)        (None, 32, 32, 128)       0         
_________________________________________________________________
max_pooling2d_86 (MaxPooling (None, 16, 16, 128)       0         
_________________________________________________________________
conv2d_486 (Conv2D)          (None, 16, 16, 32)        36896     
_________________________________________________________________
activation_677 (Activation)  (None, 16, 16, 32)        0         
_________________________________________________________________
dropout_677 (Dropout)        (None, 16, 16, 32)        0         
_________________________________________________________________
conv2d_487 (Conv2D)          (None, 16, 16, 1024)      295936    
_________________________________________________________________
batch_normalization_323 (Bat (None, 16, 16, 1024)      4096      
_________________________________________________________________
activation_678 (Activation)  (None, 16, 16, 1024)      0         
_________________________________________________________________
dropout_678 (Dropout)        (None, 16, 16, 1024)      0         
_________________________________________________________________
flatten_77 (Flatten)         (None, 262144)            0         
_________________________________________________________________
dense_268 (Dense)            (None, 256)               67109120  
_________________________________________________________________
activation_679 (Activation)  (None, 256)               0         
_________________________________________________________________
dropout_679 (Dropout)        (None, 256)               0         
_________________________________________________________________
dense_269 (Dense)            (None, 512)               131584    
_________________________________________________________________
batch_normalization_324 (Bat (None, 512)               2048      
_________________________________________________________________
activation_680 (Activation)  (None, 512)               0         
_________________________________________________________________
dropout_680 (Dropout)        (None, 512)               0         
_________________________________________________________________
dense_270 (Dense)            (None, 32)                16416     
_________________________________________________________________
batch_normalization_325 (Bat (None, 32)                128       
_________________________________________________________________
activation_681 (Activation)  (None, 32)                0         
_________________________________________________________________
dropout_681 (Dropout)        (None, 32)                0         
_________________________________________________________________
dense_271 (Dense)            (None, 10)                330       
=================================================================
Total params: 67,616,074
Trainable params: 67,612,682
Non-trainable params: 3,392
_________________________________________________________________
