Model: "sequential_347"
_________________________________________________________________
Layer (type)                 Output Shape              Param #   
=================================================================
conv2d_1571 (Conv2D)         (None, 32, 32, 16)        448       
_________________________________________________________________
activation_2288 (Activation) (None, 32, 32, 16)        0         
_________________________________________________________________
dropout_2288 (Dropout)       (None, 32, 32, 16)        0         
_________________________________________________________________
conv2d_1572 (Conv2D)         (None, 32, 32, 128)       18560     
_________________________________________________________________
batch_normalization_1157 (Ba (None, 32, 32, 128)       512       
_________________________________________________________________
activation_2289 (Activation) (None, 32, 32, 128)       0         
_________________________________________________________________
dropout_2289 (Dropout)       (None, 32, 32, 128)       0         
_________________________________________________________________
conv2d_1573 (Conv2D)         (None, 32, 32, 1024)      1180672   
_________________________________________________________________
activation_2290 (Activation) (None, 32, 32, 1024)      0         
_________________________________________________________________
dropout_2290 (Dropout)       (None, 32, 32, 1024)      0         
_________________________________________________________________
max_pooling2d_322 (MaxPoolin (None, 16, 16, 1024)      0         
_________________________________________________________________
conv2d_1574 (Conv2D)         (None, 16, 16, 1024)      9438208   
_________________________________________________________________
activation_2291 (Activation) (None, 16, 16, 1024)      0         
_________________________________________________________________
dropout_2291 (Dropout)       (None, 16, 16, 1024)      0         
_________________________________________________________________
flatten_347 (Flatten)        (None, 262144)            0         
_________________________________________________________________
dense_1064 (Dense)           (None, 16)                4194320   
_________________________________________________________________
activation_2292 (Activation) (None, 16)                0         
_________________________________________________________________
dropout_2292 (Dropout)       (None, 16)                0         
_________________________________________________________________
dense_1065 (Dense)           (None, 128)               2176      
_________________________________________________________________
batch_normalization_1158 (Ba (None, 128)               512       
_________________________________________________________________
activation_2293 (Activation) (None, 128)               0         
_________________________________________________________________
dropout_2293 (Dropout)       (None, 128)               0         
_________________________________________________________________
dense_1066 (Dense)           (None, 10)                1290      
=================================================================
Total params: 14,836,698
Trainable params: 14,836,186
Non-trainable params: 512
_________________________________________________________________
