Model: "sequential_71"
_________________________________________________________________
Layer (type)                 Output Shape              Param #   
=================================================================
conv2d_446 (Conv2D)          (None, 32, 32, 1024)      28672     
_________________________________________________________________
activation_623 (Activation)  (None, 32, 32, 1024)      0         
_________________________________________________________________
dropout_623 (Dropout)        (None, 32, 32, 1024)      0         
_________________________________________________________________
conv2d_447 (Conv2D)          (None, 32, 32, 16)        147472    
_________________________________________________________________
batch_normalization_303 (Bat (None, 32, 32, 16)        64        
_________________________________________________________________
activation_624 (Activation)  (None, 32, 32, 16)        0         
_________________________________________________________________
dropout_624 (Dropout)        (None, 32, 32, 16)        0         
_________________________________________________________________
conv2d_448 (Conv2D)          (None, 32, 32, 32)        4640      
_________________________________________________________________
activation_625 (Activation)  (None, 32, 32, 32)        0         
_________________________________________________________________
dropout_625 (Dropout)        (None, 32, 32, 32)        0         
_________________________________________________________________
conv2d_449 (Conv2D)          (None, 32, 32, 16)        4624      
_________________________________________________________________
activation_626 (Activation)  (None, 32, 32, 16)        0         
_________________________________________________________________
dropout_626 (Dropout)        (None, 32, 32, 16)        0         
_________________________________________________________________
conv2d_450 (Conv2D)          (None, 32, 32, 64)        9280      
_________________________________________________________________
activation_627 (Activation)  (None, 32, 32, 64)        0         
_________________________________________________________________
dropout_627 (Dropout)        (None, 32, 32, 64)        0         
_________________________________________________________________
conv2d_451 (Conv2D)          (None, 32, 32, 32)        18464     
_________________________________________________________________
batch_normalization_304 (Bat (None, 32, 32, 32)        128       
_________________________________________________________________
activation_628 (Activation)  (None, 32, 32, 32)        0         
_________________________________________________________________
dropout_628 (Dropout)        (None, 32, 32, 32)        0         
_________________________________________________________________
flatten_71 (Flatten)         (None, 32768)             0         
_________________________________________________________________
dense_248 (Dense)            (None, 32)                1048608   
_________________________________________________________________
batch_normalization_305 (Bat (None, 32)                128       
_________________________________________________________________
activation_629 (Activation)  (None, 32)                0         
_________________________________________________________________
dropout_629 (Dropout)        (None, 32)                0         
_________________________________________________________________
dense_249 (Dense)            (None, 256)               8448      
_________________________________________________________________
activation_630 (Activation)  (None, 256)               0         
_________________________________________________________________
dropout_630 (Dropout)        (None, 256)               0         
_________________________________________________________________
dense_250 (Dense)            (None, 512)               131584    
_________________________________________________________________
batch_normalization_306 (Bat (None, 512)               2048      
_________________________________________________________________
activation_631 (Activation)  (None, 512)               0         
_________________________________________________________________
dropout_631 (Dropout)        (None, 512)               0         
_________________________________________________________________
dense_251 (Dense)            (None, 10)                5130      
=================================================================
Total params: 1,409,290
Trainable params: 1,408,106
Non-trainable params: 1,184
_________________________________________________________________
