Model: "sequential_120"
_________________________________________________________________
Layer (type)                 Output Shape              Param #   
=================================================================
conv2d_681 (Conv2D)          (None, 32, 32, 16)        448       
_________________________________________________________________
activation_986 (Activation)  (None, 32, 32, 16)        0         
_________________________________________________________________
dropout_986 (Dropout)        (None, 32, 32, 16)        0         
_________________________________________________________________
conv2d_682 (Conv2D)          (None, 32, 32, 128)       18560     
_________________________________________________________________
batch_normalization_471 (Bat (None, 32, 32, 128)       512       
_________________________________________________________________
activation_987 (Activation)  (None, 32, 32, 128)       0         
_________________________________________________________________
dropout_987 (Dropout)        (None, 32, 32, 128)       0         
_________________________________________________________________
max_pooling2d_104 (MaxPoolin (None, 16, 16, 128)       0         
_________________________________________________________________
conv2d_683 (Conv2D)          (None, 16, 16, 32)        36896     
_________________________________________________________________
activation_988 (Activation)  (None, 16, 16, 32)        0         
_________________________________________________________________
dropout_988 (Dropout)        (None, 16, 16, 32)        0         
_________________________________________________________________
conv2d_684 (Conv2D)          (None, 16, 16, 16)        4624      
_________________________________________________________________
activation_989 (Activation)  (None, 16, 16, 16)        0         
_________________________________________________________________
dropout_989 (Dropout)        (None, 16, 16, 16)        0         
_________________________________________________________________
conv2d_685 (Conv2D)          (None, 16, 16, 1024)      148480    
_________________________________________________________________
batch_normalization_472 (Bat (None, 16, 16, 1024)      4096      
_________________________________________________________________
activation_990 (Activation)  (None, 16, 16, 1024)      0         
_________________________________________________________________
dropout_990 (Dropout)        (None, 16, 16, 1024)      0         
_________________________________________________________________
flatten_120 (Flatten)        (None, 262144)            0         
_________________________________________________________________
dense_425 (Dense)            (None, 256)               67109120  
_________________________________________________________________
activation_991 (Activation)  (None, 256)               0         
_________________________________________________________________
dropout_991 (Dropout)        (None, 256)               0         
_________________________________________________________________
dense_426 (Dense)            (None, 512)               131584    
_________________________________________________________________
batch_normalization_473 (Bat (None, 512)               2048      
_________________________________________________________________
activation_992 (Activation)  (None, 512)               0         
_________________________________________________________________
dropout_992 (Dropout)        (None, 512)               0         
_________________________________________________________________
dense_427 (Dense)            (None, 32)                16416     
_________________________________________________________________
batch_normalization_474 (Bat (None, 32)                128       
_________________________________________________________________
activation_993 (Activation)  (None, 32)                0         
_________________________________________________________________
dropout_993 (Dropout)        (None, 32)                0         
_________________________________________________________________
dense_428 (Dense)            (None, 10)                330       
=================================================================
Total params: 67,473,242
Trainable params: 67,469,850
Non-trainable params: 3,392
_________________________________________________________________
