Model: "sequential_113"
_________________________________________________________________
Layer (type)                 Output Shape              Param #   
=================================================================
conv2d_651 (Conv2D)          (None, 32, 32, 16)        448       
_________________________________________________________________
activation_942 (Activation)  (None, 32, 32, 16)        0         
_________________________________________________________________
dropout_942 (Dropout)        (None, 32, 32, 16)        0         
_________________________________________________________________
conv2d_652 (Conv2D)          (None, 32, 32, 128)       18560     
_________________________________________________________________
batch_normalization_450 (Bat (None, 32, 32, 128)       512       
_________________________________________________________________
activation_943 (Activation)  (None, 32, 32, 128)       0         
_________________________________________________________________
dropout_943 (Dropout)        (None, 32, 32, 128)       0         
_________________________________________________________________
max_pooling2d_100 (MaxPoolin (None, 16, 16, 128)       0         
_________________________________________________________________
conv2d_653 (Conv2D)          (None, 16, 16, 32)        36896     
_________________________________________________________________
activation_944 (Activation)  (None, 16, 16, 32)        0         
_________________________________________________________________
dropout_944 (Dropout)        (None, 16, 16, 32)        0         
_________________________________________________________________
conv2d_654 (Conv2D)          (None, 16, 16, 1024)      295936    
_________________________________________________________________
batch_normalization_451 (Bat (None, 16, 16, 1024)      4096      
_________________________________________________________________
activation_945 (Activation)  (None, 16, 16, 1024)      0         
_________________________________________________________________
dropout_945 (Dropout)        (None, 16, 16, 1024)      0         
_________________________________________________________________
flatten_113 (Flatten)        (None, 262144)            0         
_________________________________________________________________
dense_404 (Dense)            (None, 256)               67109120  
_________________________________________________________________
activation_946 (Activation)  (None, 256)               0         
_________________________________________________________________
dropout_946 (Dropout)        (None, 256)               0         
_________________________________________________________________
dense_405 (Dense)            (None, 512)               131584    
_________________________________________________________________
batch_normalization_452 (Bat (None, 512)               2048      
_________________________________________________________________
activation_947 (Activation)  (None, 512)               0         
_________________________________________________________________
dropout_947 (Dropout)        (None, 512)               0         
_________________________________________________________________
dense_406 (Dense)            (None, 10)                5130      
=================================================================
Total params: 67,604,330
Trainable params: 67,601,002
Non-trainable params: 3,328
_________________________________________________________________
