Model: "sequential_277"
_________________________________________________________________
Layer (type)                 Output Shape              Param #   
=================================================================
conv2d_1299 (Conv2D)         (None, 32, 32, 16)        448       
_________________________________________________________________
activation_1911 (Activation) (None, 32, 32, 16)        0         
_________________________________________________________________
dropout_1911 (Dropout)       (None, 32, 32, 16)        0         
_________________________________________________________________
conv2d_1300 (Conv2D)         (None, 32, 32, 8)         1160      
_________________________________________________________________
batch_normalization_959 (Bat (None, 32, 32, 8)         32        
_________________________________________________________________
activation_1912 (Activation) (None, 32, 32, 8)         0         
_________________________________________________________________
dropout_1912 (Dropout)       (None, 32, 32, 8)         0         
_________________________________________________________________
max_pooling2d_250 (MaxPoolin (None, 16, 16, 8)         0         
_________________________________________________________________
conv2d_1301 (Conv2D)         (None, 16, 16, 32)        2336      
_________________________________________________________________
activation_1913 (Activation) (None, 16, 16, 32)        0         
_________________________________________________________________
dropout_1913 (Dropout)       (None, 16, 16, 32)        0         
_________________________________________________________________
conv2d_1302 (Conv2D)         (None, 16, 16, 1024)      295936    
_________________________________________________________________
batch_normalization_960 (Bat (None, 16, 16, 1024)      4096      
_________________________________________________________________
activation_1914 (Activation) (None, 16, 16, 1024)      0         
_________________________________________________________________
dropout_1914 (Dropout)       (None, 16, 16, 1024)      0         
_________________________________________________________________
flatten_277 (Flatten)        (None, 262144)            0         
_________________________________________________________________
dense_889 (Dense)            (None, 256)               67109120  
_________________________________________________________________
activation_1915 (Activation) (None, 256)               0         
_________________________________________________________________
dropout_1915 (Dropout)       (None, 256)               0         
_________________________________________________________________
dense_890 (Dense)            (None, 512)               131584    
_________________________________________________________________
batch_normalization_961 (Bat (None, 512)               2048      
_________________________________________________________________
activation_1916 (Activation) (None, 512)               0         
_________________________________________________________________
dropout_1916 (Dropout)       (None, 512)               0         
_________________________________________________________________
dense_891 (Dense)            (None, 10)                5130      
=================================================================
Total params: 67,551,890
Trainable params: 67,548,802
Non-trainable params: 3,088
_________________________________________________________________
