Model: "sequential_212"
_________________________________________________________________
Layer (type)                 Output Shape              Param #   
=================================================================
conv2d_1049 (Conv2D)         (None, 32, 32, 16)        448       
_________________________________________________________________
activation_1542 (Activation) (None, 32, 32, 16)        0         
_________________________________________________________________
dropout_1542 (Dropout)       (None, 32, 32, 16)        0         
_________________________________________________________________
conv2d_1050 (Conv2D)         (None, 32, 32, 128)       18560     
_________________________________________________________________
batch_normalization_748 (Bat (None, 32, 32, 128)       512       
_________________________________________________________________
activation_1543 (Activation) (None, 32, 32, 128)       0         
_________________________________________________________________
dropout_1543 (Dropout)       (None, 32, 32, 128)       0         
_________________________________________________________________
max_pooling2d_189 (MaxPoolin (None, 16, 16, 128)       0         
_________________________________________________________________
conv2d_1051 (Conv2D)         (None, 16, 16, 32)        36896     
_________________________________________________________________
activation_1544 (Activation) (None, 16, 16, 32)        0         
_________________________________________________________________
dropout_1544 (Dropout)       (None, 16, 16, 32)        0         
_________________________________________________________________
conv2d_1052 (Conv2D)         (None, 16, 16, 1024)      295936    
_________________________________________________________________
batch_normalization_749 (Bat (None, 16, 16, 1024)      4096      
_________________________________________________________________
activation_1545 (Activation) (None, 16, 16, 1024)      0         
_________________________________________________________________
dropout_1545 (Dropout)       (None, 16, 16, 1024)      0         
_________________________________________________________________
flatten_212 (Flatten)        (None, 262144)            0         
_________________________________________________________________
dense_705 (Dense)            (None, 256)               67109120  
_________________________________________________________________
activation_1546 (Activation) (None, 256)               0         
_________________________________________________________________
dropout_1546 (Dropout)       (None, 256)               0         
_________________________________________________________________
dense_706 (Dense)            (None, 512)               131584    
_________________________________________________________________
batch_normalization_750 (Bat (None, 512)               2048      
_________________________________________________________________
activation_1547 (Activation) (None, 512)               0         
_________________________________________________________________
dropout_1547 (Dropout)       (None, 512)               0         
_________________________________________________________________
dense_707 (Dense)            (None, 10)                5130      
=================================================================
Total params: 67,604,330
Trainable params: 67,601,002
Non-trainable params: 3,328
_________________________________________________________________
