Model: "sequential_304"
_________________________________________________________________
Layer (type)                 Output Shape              Param #   
=================================================================
conv2d_1401 (Conv2D)         (None, 32, 32, 16)        448       
_________________________________________________________________
activation_2056 (Activation) (None, 32, 32, 16)        0         
_________________________________________________________________
dropout_2056 (Dropout)       (None, 32, 32, 16)        0         
_________________________________________________________________
conv2d_1402 (Conv2D)         (None, 32, 32, 8)         1160      
_________________________________________________________________
batch_normalization_1031 (Ba (None, 32, 32, 8)         32        
_________________________________________________________________
activation_2057 (Activation) (None, 32, 32, 8)         0         
_________________________________________________________________
dropout_2057 (Dropout)       (None, 32, 32, 8)         0         
_________________________________________________________________
max_pooling2d_276 (MaxPoolin (None, 16, 16, 8)         0         
_________________________________________________________________
conv2d_1403 (Conv2D)         (None, 16, 16, 32)        2336      
_________________________________________________________________
activation_2058 (Activation) (None, 16, 16, 32)        0         
_________________________________________________________________
dropout_2058 (Dropout)       (None, 16, 16, 32)        0         
_________________________________________________________________
conv2d_1404 (Conv2D)         (None, 16, 16, 1024)      295936    
_________________________________________________________________
batch_normalization_1032 (Ba (None, 16, 16, 1024)      4096      
_________________________________________________________________
activation_2059 (Activation) (None, 16, 16, 1024)      0         
_________________________________________________________________
dropout_2059 (Dropout)       (None, 16, 16, 1024)      0         
_________________________________________________________________
flatten_304 (Flatten)        (None, 262144)            0         
_________________________________________________________________
dense_959 (Dense)            (None, 512)               134218240 
_________________________________________________________________
batch_normalization_1033 (Ba (None, 512)               2048      
_________________________________________________________________
activation_2060 (Activation) (None, 512)               0         
_________________________________________________________________
dropout_2060 (Dropout)       (None, 512)               0         
_________________________________________________________________
dense_960 (Dense)            (None, 10)                5130      
=================================================================
Total params: 134,529,426
Trainable params: 134,526,338
Non-trainable params: 3,088
_________________________________________________________________
