Model: "sequential_310"
_________________________________________________________________
Layer (type)                 Output Shape              Param #   
=================================================================
conv2d_1424 (Conv2D)         (None, 32, 32, 16)        448       
_________________________________________________________________
batch_normalization_1048 (Ba (None, 32, 32, 16)        64        
_________________________________________________________________
activation_2087 (Activation) (None, 32, 32, 16)        0         
_________________________________________________________________
dropout_2087 (Dropout)       (None, 32, 32, 16)        0         
_________________________________________________________________
conv2d_1425 (Conv2D)         (None, 32, 32, 8)         1160      
_________________________________________________________________
batch_normalization_1049 (Ba (None, 32, 32, 8)         32        
_________________________________________________________________
activation_2088 (Activation) (None, 32, 32, 8)         0         
_________________________________________________________________
dropout_2088 (Dropout)       (None, 32, 32, 8)         0         
_________________________________________________________________
max_pooling2d_284 (MaxPoolin (None, 16, 16, 8)         0         
_________________________________________________________________
conv2d_1426 (Conv2D)         (None, 16, 16, 256)       18688     
_________________________________________________________________
activation_2089 (Activation) (None, 16, 16, 256)       0         
_________________________________________________________________
dropout_2089 (Dropout)       (None, 16, 16, 256)       0         
_________________________________________________________________
conv2d_1427 (Conv2D)         (None, 16, 16, 1024)      2360320   
_________________________________________________________________
batch_normalization_1050 (Ba (None, 16, 16, 1024)      4096      
_________________________________________________________________
activation_2090 (Activation) (None, 16, 16, 1024)      0         
_________________________________________________________________
dropout_2090 (Dropout)       (None, 16, 16, 1024)      0         
_________________________________________________________________
flatten_310 (Flatten)        (None, 262144)            0         
_________________________________________________________________
dense_973 (Dense)            (None, 512)               134218240 
_________________________________________________________________
batch_normalization_1051 (Ba (None, 512)               2048      
_________________________________________________________________
activation_2091 (Activation) (None, 512)               0         
_________________________________________________________________
dropout_2091 (Dropout)       (None, 512)               0         
_________________________________________________________________
dense_974 (Dense)            (None, 10)                5130      
=================================================================
Total params: 136,610,226
Trainable params: 136,607,106
Non-trainable params: 3,120
_________________________________________________________________
