Model: "sequential_133"
_________________________________________________________________
Layer (type)                 Output Shape              Param #   
=================================================================
conv2d_735 (Conv2D)          (None, 32, 32, 16)        448       
_________________________________________________________________
activation_1069 (Activation) (None, 32, 32, 16)        0         
_________________________________________________________________
dropout_1069 (Dropout)       (None, 32, 32, 16)        0         
_________________________________________________________________
conv2d_736 (Conv2D)          (None, 32, 32, 128)       18560     
_________________________________________________________________
batch_normalization_512 (Bat (None, 32, 32, 128)       512       
_________________________________________________________________
activation_1070 (Activation) (None, 32, 32, 128)       0         
_________________________________________________________________
dropout_1070 (Dropout)       (None, 32, 32, 128)       0         
_________________________________________________________________
max_pooling2d_113 (MaxPoolin (None, 16, 16, 128)       0         
_________________________________________________________________
conv2d_737 (Conv2D)          (None, 16, 16, 32)        36896     
_________________________________________________________________
activation_1071 (Activation) (None, 16, 16, 32)        0         
_________________________________________________________________
dropout_1071 (Dropout)       (None, 16, 16, 32)        0         
_________________________________________________________________
conv2d_738 (Conv2D)          (None, 16, 16, 128)       36992     
_________________________________________________________________
batch_normalization_513 (Bat (None, 16, 16, 128)       512       
_________________________________________________________________
activation_1072 (Activation) (None, 16, 16, 128)       0         
_________________________________________________________________
dropout_1072 (Dropout)       (None, 16, 16, 128)       0         
_________________________________________________________________
flatten_133 (Flatten)        (None, 32768)             0         
_________________________________________________________________
dense_467 (Dense)            (None, 32)                1048608   
_________________________________________________________________
batch_normalization_514 (Bat (None, 32)                128       
_________________________________________________________________
activation_1073 (Activation) (None, 32)                0         
_________________________________________________________________
dropout_1073 (Dropout)       (None, 32)                0         
_________________________________________________________________
dense_468 (Dense)            (None, 256)               8448      
_________________________________________________________________
activation_1074 (Activation) (None, 256)               0         
_________________________________________________________________
dropout_1074 (Dropout)       (None, 256)               0         
_________________________________________________________________
dense_469 (Dense)            (None, 512)               131584    
_________________________________________________________________
batch_normalization_515 (Bat (None, 512)               2048      
_________________________________________________________________
activation_1075 (Activation) (None, 512)               0         
_________________________________________________________________
dropout_1075 (Dropout)       (None, 512)               0         
_________________________________________________________________
dense_470 (Dense)            (None, 10)                5130      
=================================================================
Total params: 1,289,866
Trainable params: 1,288,266
Non-trainable params: 1,600
_________________________________________________________________
