Model: "sequential_95"
_________________________________________________________________
Layer (type)                 Output Shape              Param #   
=================================================================
conv2d_570 (Conv2D)          (None, 32, 32, 16)        448       
_________________________________________________________________
activation_813 (Activation)  (None, 32, 32, 16)        0         
_________________________________________________________________
dropout_813 (Dropout)        (None, 32, 32, 16)        0         
_________________________________________________________________
conv2d_571 (Conv2D)          (None, 32, 32, 128)       18560     
_________________________________________________________________
batch_normalization_387 (Bat (None, 32, 32, 128)       512       
_________________________________________________________________
activation_814 (Activation)  (None, 32, 32, 128)       0         
_________________________________________________________________
dropout_814 (Dropout)        (None, 32, 32, 128)       0         
_________________________________________________________________
max_pooling2d_92 (MaxPooling (None, 16, 16, 128)       0         
_________________________________________________________________
conv2d_572 (Conv2D)          (None, 16, 16, 32)        36896     
_________________________________________________________________
activation_815 (Activation)  (None, 16, 16, 32)        0         
_________________________________________________________________
dropout_815 (Dropout)        (None, 16, 16, 32)        0         
_________________________________________________________________
conv2d_573 (Conv2D)          (None, 16, 16, 1024)      295936    
_________________________________________________________________
batch_normalization_388 (Bat (None, 16, 16, 1024)      4096      
_________________________________________________________________
activation_816 (Activation)  (None, 16, 16, 1024)      0         
_________________________________________________________________
dropout_816 (Dropout)        (None, 16, 16, 1024)      0         
_________________________________________________________________
flatten_95 (Flatten)         (None, 262144)            0         
_________________________________________________________________
dense_338 (Dense)            (None, 256)               67109120  
_________________________________________________________________
activation_817 (Activation)  (None, 256)               0         
_________________________________________________________________
dropout_817 (Dropout)        (None, 256)               0         
_________________________________________________________________
dense_339 (Dense)            (None, 512)               131584    
_________________________________________________________________
batch_normalization_389 (Bat (None, 512)               2048      
_________________________________________________________________
activation_818 (Activation)  (None, 512)               0         
_________________________________________________________________
dropout_818 (Dropout)        (None, 512)               0         
_________________________________________________________________
dense_340 (Dense)            (None, 10)                5130      
=================================================================
Total params: 67,604,330
Trainable params: 67,601,002
Non-trainable params: 3,328
_________________________________________________________________
