Model: "sequential_300"
_________________________________________________________________
Layer (type)                 Output Shape              Param #   
=================================================================
conv2d_1386 (Conv2D)         (None, 32, 32, 16)        448       
_________________________________________________________________
activation_2035 (Activation) (None, 32, 32, 16)        0         
_________________________________________________________________
dropout_2035 (Dropout)       (None, 32, 32, 16)        0         
_________________________________________________________________
conv2d_1387 (Conv2D)         (None, 32, 32, 128)       18560     
_________________________________________________________________
batch_normalization_1020 (Ba (None, 32, 32, 128)       512       
_________________________________________________________________
activation_2036 (Activation) (None, 32, 32, 128)       0         
_________________________________________________________________
dropout_2036 (Dropout)       (None, 32, 32, 128)       0         
_________________________________________________________________
conv2d_1388 (Conv2D)         (None, 32, 32, 1024)      1180672   
_________________________________________________________________
activation_2037 (Activation) (None, 32, 32, 1024)      0         
_________________________________________________________________
dropout_2037 (Dropout)       (None, 32, 32, 1024)      0         
_________________________________________________________________
max_pooling2d_272 (MaxPoolin (None, 16, 16, 1024)      0         
_________________________________________________________________
conv2d_1389 (Conv2D)         (None, 16, 16, 1024)      9438208   
_________________________________________________________________
batch_normalization_1021 (Ba (None, 16, 16, 1024)      4096      
_________________________________________________________________
activation_2038 (Activation) (None, 16, 16, 1024)      0         
_________________________________________________________________
dropout_2038 (Dropout)       (None, 16, 16, 1024)      0         
_________________________________________________________________
flatten_300 (Flatten)        (None, 262144)            0         
_________________________________________________________________
dense_949 (Dense)            (None, 256)               67109120  
_________________________________________________________________
activation_2039 (Activation) (None, 256)               0         
_________________________________________________________________
dropout_2039 (Dropout)       (None, 256)               0         
_________________________________________________________________
dense_950 (Dense)            (None, 512)               131584    
_________________________________________________________________
batch_normalization_1022 (Ba (None, 512)               2048      
_________________________________________________________________
activation_2040 (Activation) (None, 512)               0         
_________________________________________________________________
dropout_2040 (Dropout)       (None, 512)               0         
_________________________________________________________________
dense_951 (Dense)            (None, 10)                5130      
=================================================================
Total params: 77,890,378
Trainable params: 77,887,050
Non-trainable params: 3,328
_________________________________________________________________
