Model: "sequential_149"
_________________________________________________________________
Layer (type)                 Output Shape              Param #   
=================================================================
conv2d_800 (Conv2D)          (None, 32, 32, 16)        448       
_________________________________________________________________
activation_1169 (Activation) (None, 32, 32, 16)        0         
_________________________________________________________________
dropout_1169 (Dropout)       (None, 32, 32, 16)        0         
_________________________________________________________________
conv2d_801 (Conv2D)          (None, 32, 32, 128)       18560     
_________________________________________________________________
batch_normalization_564 (Bat (None, 32, 32, 128)       512       
_________________________________________________________________
activation_1170 (Activation) (None, 32, 32, 128)       0         
_________________________________________________________________
dropout_1170 (Dropout)       (None, 32, 32, 128)       0         
_________________________________________________________________
max_pooling2d_126 (MaxPoolin (None, 16, 16, 128)       0         
_________________________________________________________________
conv2d_802 (Conv2D)          (None, 16, 16, 32)        36896     
_________________________________________________________________
activation_1171 (Activation) (None, 16, 16, 32)        0         
_________________________________________________________________
dropout_1171 (Dropout)       (None, 16, 16, 32)        0         
_________________________________________________________________
conv2d_803 (Conv2D)          (None, 16, 16, 1024)      295936    
_________________________________________________________________
batch_normalization_565 (Bat (None, 16, 16, 1024)      4096      
_________________________________________________________________
activation_1172 (Activation) (None, 16, 16, 1024)      0         
_________________________________________________________________
dropout_1172 (Dropout)       (None, 16, 16, 1024)      0         
_________________________________________________________________
flatten_149 (Flatten)        (None, 262144)            0         
_________________________________________________________________
dense_518 (Dense)            (None, 256)               67109120  
_________________________________________________________________
activation_1173 (Activation) (None, 256)               0         
_________________________________________________________________
dropout_1173 (Dropout)       (None, 256)               0         
_________________________________________________________________
dense_519 (Dense)            (None, 512)               131584    
_________________________________________________________________
batch_normalization_566 (Bat (None, 512)               2048      
_________________________________________________________________
activation_1174 (Activation) (None, 512)               0         
_________________________________________________________________
dropout_1174 (Dropout)       (None, 512)               0         
_________________________________________________________________
dense_520 (Dense)            (None, 10)                5130      
=================================================================
Total params: 67,604,330
Trainable params: 67,601,002
Non-trainable params: 3,328
_________________________________________________________________
