Model: "sequential_320"
_________________________________________________________________
Layer (type)                 Output Shape              Param #   
=================================================================
conv2d_1463 (Conv2D)         (None, 32, 32, 16)        448       
_________________________________________________________________
activation_2140 (Activation) (None, 32, 32, 16)        0         
_________________________________________________________________
dropout_2140 (Dropout)       (None, 32, 32, 16)        0         
_________________________________________________________________
conv2d_1464 (Conv2D)         (None, 32, 32, 128)       18560     
_________________________________________________________________
batch_normalization_1077 (Ba (None, 32, 32, 128)       512       
_________________________________________________________________
activation_2141 (Activation) (None, 32, 32, 128)       0         
_________________________________________________________________
dropout_2141 (Dropout)       (None, 32, 32, 128)       0         
_________________________________________________________________
conv2d_1465 (Conv2D)         (None, 32, 32, 1024)      1180672   
_________________________________________________________________
activation_2142 (Activation) (None, 32, 32, 1024)      0         
_________________________________________________________________
dropout_2142 (Dropout)       (None, 32, 32, 1024)      0         
_________________________________________________________________
max_pooling2d_297 (MaxPoolin (None, 16, 16, 1024)      0         
_________________________________________________________________
conv2d_1466 (Conv2D)         (None, 16, 16, 1024)      9438208   
_________________________________________________________________
batch_normalization_1078 (Ba (None, 16, 16, 1024)      4096      
_________________________________________________________________
activation_2143 (Activation) (None, 16, 16, 1024)      0         
_________________________________________________________________
dropout_2143 (Dropout)       (None, 16, 16, 1024)      0         
_________________________________________________________________
flatten_320 (Flatten)        (None, 262144)            0         
_________________________________________________________________
dense_997 (Dense)            (None, 64)                16777280  
_________________________________________________________________
batch_normalization_1079 (Ba (None, 64)                256       
_________________________________________________________________
activation_2144 (Activation) (None, 64)                0         
_________________________________________________________________
dropout_2144 (Dropout)       (None, 64)                0         
_________________________________________________________________
dense_998 (Dense)            (None, 32)                2080      
_________________________________________________________________
batch_normalization_1080 (Ba (None, 32)                128       
_________________________________________________________________
activation_2145 (Activation) (None, 32)                0         
_________________________________________________________________
dropout_2145 (Dropout)       (None, 32)                0         
_________________________________________________________________
dense_999 (Dense)            (None, 10)                330       
=================================================================
Total params: 27,422,570
Trainable params: 27,420,074
Non-trainable params: 2,496
_________________________________________________________________
