Model: "sequential_117"
_________________________________________________________________
Layer (type)                 Output Shape              Param #   
=================================================================
conv2d_669 (Conv2D)          (None, 32, 32, 16)        448       
_________________________________________________________________
activation_968 (Activation)  (None, 32, 32, 16)        0         
_________________________________________________________________
dropout_968 (Dropout)        (None, 32, 32, 16)        0         
_________________________________________________________________
conv2d_670 (Conv2D)          (None, 32, 32, 128)       18560     
_________________________________________________________________
batch_normalization_462 (Bat (None, 32, 32, 128)       512       
_________________________________________________________________
activation_969 (Activation)  (None, 32, 32, 128)       0         
_________________________________________________________________
dropout_969 (Dropout)        (None, 32, 32, 128)       0         
_________________________________________________________________
max_pooling2d_102 (MaxPoolin (None, 16, 16, 128)       0         
_________________________________________________________________
conv2d_671 (Conv2D)          (None, 16, 16, 32)        36896     
_________________________________________________________________
activation_970 (Activation)  (None, 16, 16, 32)        0         
_________________________________________________________________
dropout_970 (Dropout)        (None, 16, 16, 32)        0         
_________________________________________________________________
conv2d_672 (Conv2D)          (None, 16, 16, 1024)      295936    
_________________________________________________________________
batch_normalization_463 (Bat (None, 16, 16, 1024)      4096      
_________________________________________________________________
activation_971 (Activation)  (None, 16, 16, 1024)      0         
_________________________________________________________________
dropout_971 (Dropout)        (None, 16, 16, 1024)      0         
_________________________________________________________________
flatten_117 (Flatten)        (None, 262144)            0         
_________________________________________________________________
dense_416 (Dense)            (None, 256)               67109120  
_________________________________________________________________
activation_972 (Activation)  (None, 256)               0         
_________________________________________________________________
dropout_972 (Dropout)        (None, 256)               0         
_________________________________________________________________
dense_417 (Dense)            (None, 512)               131584    
_________________________________________________________________
batch_normalization_464 (Bat (None, 512)               2048      
_________________________________________________________________
activation_973 (Activation)  (None, 512)               0         
_________________________________________________________________
dropout_973 (Dropout)        (None, 512)               0         
_________________________________________________________________
dense_418 (Dense)            (None, 10)                5130      
=================================================================
Total params: 67,604,330
Trainable params: 67,601,002
Non-trainable params: 3,328
_________________________________________________________________
