Model: "sequential_361"
_________________________________________________________________
Layer (type)                 Output Shape              Param #   
=================================================================
conv2d_1627 (Conv2D)         (None, 32, 32, 16)        448       
_________________________________________________________________
activation_2369 (Activation) (None, 32, 32, 16)        0         
_________________________________________________________________
dropout_2369 (Dropout)       (None, 32, 32, 16)        0         
_________________________________________________________________
conv2d_1628 (Conv2D)         (None, 32, 32, 128)       18560     
_________________________________________________________________
batch_normalization_1196 (Ba (None, 32, 32, 128)       512       
_________________________________________________________________
activation_2370 (Activation) (None, 32, 32, 128)       0         
_________________________________________________________________
dropout_2370 (Dropout)       (None, 32, 32, 128)       0         
_________________________________________________________________
conv2d_1629 (Conv2D)         (None, 32, 32, 1024)      1180672   
_________________________________________________________________
activation_2371 (Activation) (None, 32, 32, 1024)      0         
_________________________________________________________________
dropout_2371 (Dropout)       (None, 32, 32, 1024)      0         
_________________________________________________________________
max_pooling2d_338 (MaxPoolin (None, 16, 16, 1024)      0         
_________________________________________________________________
conv2d_1630 (Conv2D)         (None, 16, 16, 1024)      9438208   
_________________________________________________________________
batch_normalization_1197 (Ba (None, 16, 16, 1024)      4096      
_________________________________________________________________
activation_2372 (Activation) (None, 16, 16, 1024)      0         
_________________________________________________________________
dropout_2372 (Dropout)       (None, 16, 16, 1024)      0         
_________________________________________________________________
flatten_361 (Flatten)        (None, 262144)            0         
_________________________________________________________________
dense_1103 (Dense)           (None, 256)               67109120  
_________________________________________________________________
activation_2373 (Activation) (None, 256)               0         
_________________________________________________________________
dropout_2373 (Dropout)       (None, 256)               0         
_________________________________________________________________
dense_1104 (Dense)           (None, 512)               131584    
_________________________________________________________________
batch_normalization_1198 (Ba (None, 512)               2048      
_________________________________________________________________
activation_2374 (Activation) (None, 512)               0         
_________________________________________________________________
dropout_2374 (Dropout)       (None, 512)               0         
_________________________________________________________________
dense_1105 (Dense)           (None, 10)                5130      
=================================================================
Total params: 77,890,378
Trainable params: 77,887,050
Non-trainable params: 3,328
_________________________________________________________________
