Model: "sequential_147"
_________________________________________________________________
Layer (type)                 Output Shape              Param #   
=================================================================
conv2d_792 (Conv2D)          (None, 32, 32, 16)        448       
_________________________________________________________________
activation_1157 (Activation) (None, 32, 32, 16)        0         
_________________________________________________________________
dropout_1157 (Dropout)       (None, 32, 32, 16)        0         
_________________________________________________________________
conv2d_793 (Conv2D)          (None, 32, 32, 128)       18560     
_________________________________________________________________
batch_normalization_558 (Bat (None, 32, 32, 128)       512       
_________________________________________________________________
activation_1158 (Activation) (None, 32, 32, 128)       0         
_________________________________________________________________
dropout_1158 (Dropout)       (None, 32, 32, 128)       0         
_________________________________________________________________
max_pooling2d_124 (MaxPoolin (None, 16, 16, 128)       0         
_________________________________________________________________
conv2d_794 (Conv2D)          (None, 16, 16, 32)        36896     
_________________________________________________________________
activation_1159 (Activation) (None, 16, 16, 32)        0         
_________________________________________________________________
dropout_1159 (Dropout)       (None, 16, 16, 32)        0         
_________________________________________________________________
conv2d_795 (Conv2D)          (None, 16, 16, 1024)      295936    
_________________________________________________________________
batch_normalization_559 (Bat (None, 16, 16, 1024)      4096      
_________________________________________________________________
activation_1160 (Activation) (None, 16, 16, 1024)      0         
_________________________________________________________________
dropout_1160 (Dropout)       (None, 16, 16, 1024)      0         
_________________________________________________________________
flatten_147 (Flatten)        (None, 262144)            0         
_________________________________________________________________
dense_512 (Dense)            (None, 256)               67109120  
_________________________________________________________________
activation_1161 (Activation) (None, 256)               0         
_________________________________________________________________
dropout_1161 (Dropout)       (None, 256)               0         
_________________________________________________________________
dense_513 (Dense)            (None, 512)               131584    
_________________________________________________________________
batch_normalization_560 (Bat (None, 512)               2048      
_________________________________________________________________
activation_1162 (Activation) (None, 512)               0         
_________________________________________________________________
dropout_1162 (Dropout)       (None, 512)               0         
_________________________________________________________________
dense_514 (Dense)            (None, 10)                5130      
=================================================================
Total params: 67,604,330
Trainable params: 67,601,002
Non-trainable params: 3,328
_________________________________________________________________
