Model: "sequential_102"
_________________________________________________________________
Layer (type)                 Output Shape              Param #   
=================================================================
conv2d_601 (Conv2D)          (None, 32, 32, 16)        448       
_________________________________________________________________
activation_863 (Activation)  (None, 32, 32, 16)        0         
_________________________________________________________________
dropout_863 (Dropout)        (None, 32, 32, 16)        0         
_________________________________________________________________
conv2d_602 (Conv2D)          (None, 32, 32, 128)       18560     
_________________________________________________________________
batch_normalization_411 (Bat (None, 32, 32, 128)       512       
_________________________________________________________________
activation_864 (Activation)  (None, 32, 32, 128)       0         
_________________________________________________________________
dropout_864 (Dropout)        (None, 32, 32, 128)       0         
_________________________________________________________________
max_pooling2d_94 (MaxPooling (None, 16, 16, 128)       0         
_________________________________________________________________
conv2d_603 (Conv2D)          (None, 16, 16, 32)        36896     
_________________________________________________________________
activation_865 (Activation)  (None, 16, 16, 32)        0         
_________________________________________________________________
dropout_865 (Dropout)        (None, 16, 16, 32)        0         
_________________________________________________________________
conv2d_604 (Conv2D)          (None, 16, 16, 1024)      295936    
_________________________________________________________________
batch_normalization_412 (Bat (None, 16, 16, 1024)      4096      
_________________________________________________________________
activation_866 (Activation)  (None, 16, 16, 1024)      0         
_________________________________________________________________
dropout_866 (Dropout)        (None, 16, 16, 1024)      0         
_________________________________________________________________
flatten_102 (Flatten)        (None, 262144)            0         
_________________________________________________________________
dense_364 (Dense)            (None, 256)               67109120  
_________________________________________________________________
activation_867 (Activation)  (None, 256)               0         
_________________________________________________________________
dropout_867 (Dropout)        (None, 256)               0         
_________________________________________________________________
dense_365 (Dense)            (None, 512)               131584    
_________________________________________________________________
batch_normalization_413 (Bat (None, 512)               2048      
_________________________________________________________________
activation_868 (Activation)  (None, 512)               0         
_________________________________________________________________
dropout_868 (Dropout)        (None, 512)               0         
_________________________________________________________________
dense_366 (Dense)            (None, 10)                5130      
=================================================================
Total params: 67,604,330
Trainable params: 67,601,002
Non-trainable params: 3,328
_________________________________________________________________
