Model: "sequential_316"
_________________________________________________________________
Layer (type)                 Output Shape              Param #   
=================================================================
conv2d_1448 (Conv2D)         (None, 32, 32, 16)        448       
_________________________________________________________________
activation_2119 (Activation) (None, 32, 32, 16)        0         
_________________________________________________________________
dropout_2119 (Dropout)       (None, 32, 32, 16)        0         
_________________________________________________________________
max_pooling2d_292 (MaxPoolin (None, 16, 16, 16)        0         
_________________________________________________________________
conv2d_1449 (Conv2D)         (None, 16, 16, 32)        4640      
_________________________________________________________________
activation_2120 (Activation) (None, 16, 16, 32)        0         
_________________________________________________________________
dropout_2120 (Dropout)       (None, 16, 16, 32)        0         
_________________________________________________________________
max_pooling2d_293 (MaxPoolin (None, 8, 8, 32)          0         
_________________________________________________________________
conv2d_1450 (Conv2D)         (None, 8, 8, 1024)        295936    
_________________________________________________________________
activation_2121 (Activation) (None, 8, 8, 1024)        0         
_________________________________________________________________
dropout_2121 (Dropout)       (None, 8, 8, 1024)        0         
_________________________________________________________________
flatten_316 (Flatten)        (None, 65536)             0         
_________________________________________________________________
dense_987 (Dense)            (None, 64)                4194368   
_________________________________________________________________
batch_normalization_1068 (Ba (None, 64)                256       
_________________________________________________________________
activation_2122 (Activation) (None, 64)                0         
_________________________________________________________________
dropout_2122 (Dropout)       (None, 64)                0         
_________________________________________________________________
dense_988 (Dense)            (None, 32)                2080      
_________________________________________________________________
batch_normalization_1069 (Ba (None, 32)                128       
_________________________________________________________________
activation_2123 (Activation) (None, 32)                0         
_________________________________________________________________
dropout_2123 (Dropout)       (None, 32)                0         
_________________________________________________________________
dense_989 (Dense)            (None, 10)                330       
=================================================================
Total params: 4,498,186
Trainable params: 4,497,994
Non-trainable params: 192
_________________________________________________________________
