Model: "sequential_248"
_________________________________________________________________
Layer (type)                 Output Shape              Param #   
=================================================================
conv2d_1192 (Conv2D)         (None, 32, 32, 16)        448       
_________________________________________________________________
activation_1748 (Activation) (None, 32, 32, 16)        0         
_________________________________________________________________
dropout_1748 (Dropout)       (None, 32, 32, 16)        0         
_________________________________________________________________
conv2d_1193 (Conv2D)         (None, 32, 32, 128)       18560     
_________________________________________________________________
batch_normalization_861 (Bat (None, 32, 32, 128)       512       
_________________________________________________________________
activation_1749 (Activation) (None, 32, 32, 128)       0         
_________________________________________________________________
dropout_1749 (Dropout)       (None, 32, 32, 128)       0         
_________________________________________________________________
max_pooling2d_226 (MaxPoolin (None, 16, 16, 128)       0         
_________________________________________________________________
conv2d_1194 (Conv2D)         (None, 16, 16, 32)        36896     
_________________________________________________________________
activation_1750 (Activation) (None, 16, 16, 32)        0         
_________________________________________________________________
dropout_1750 (Dropout)       (None, 16, 16, 32)        0         
_________________________________________________________________
conv2d_1195 (Conv2D)         (None, 16, 16, 1024)      295936    
_________________________________________________________________
batch_normalization_862 (Bat (None, 16, 16, 1024)      4096      
_________________________________________________________________
activation_1751 (Activation) (None, 16, 16, 1024)      0         
_________________________________________________________________
dropout_1751 (Dropout)       (None, 16, 16, 1024)      0         
_________________________________________________________________
flatten_248 (Flatten)        (None, 262144)            0         
_________________________________________________________________
dense_804 (Dense)            (None, 256)               67109120  
_________________________________________________________________
activation_1752 (Activation) (None, 256)               0         
_________________________________________________________________
dropout_1752 (Dropout)       (None, 256)               0         
_________________________________________________________________
dense_805 (Dense)            (None, 512)               131584    
_________________________________________________________________
batch_normalization_863 (Bat (None, 512)               2048      
_________________________________________________________________
activation_1753 (Activation) (None, 512)               0         
_________________________________________________________________
dropout_1753 (Dropout)       (None, 512)               0         
_________________________________________________________________
dense_806 (Dense)            (None, 10)                5130      
=================================================================
Total params: 67,604,330
Trainable params: 67,601,002
Non-trainable params: 3,328
_________________________________________________________________
