Model: "sequential_322"
_________________________________________________________________
Layer (type)                 Output Shape              Param #   
=================================================================
conv2d_1471 (Conv2D)         (None, 32, 32, 16)        448       
_________________________________________________________________
activation_2151 (Activation) (None, 32, 32, 16)        0         
_________________________________________________________________
dropout_2151 (Dropout)       (None, 32, 32, 16)        0         
_________________________________________________________________
conv2d_1472 (Conv2D)         (None, 32, 32, 128)       18560     
_________________________________________________________________
batch_normalization_1085 (Ba (None, 32, 32, 128)       512       
_________________________________________________________________
activation_2152 (Activation) (None, 32, 32, 128)       0         
_________________________________________________________________
dropout_2152 (Dropout)       (None, 32, 32, 128)       0         
_________________________________________________________________
conv2d_1473 (Conv2D)         (None, 32, 32, 1024)      1180672   
_________________________________________________________________
activation_2153 (Activation) (None, 32, 32, 1024)      0         
_________________________________________________________________
dropout_2153 (Dropout)       (None, 32, 32, 1024)      0         
_________________________________________________________________
max_pooling2d_299 (MaxPoolin (None, 16, 16, 1024)      0         
_________________________________________________________________
conv2d_1474 (Conv2D)         (None, 16, 16, 1024)      9438208   
_________________________________________________________________
batch_normalization_1086 (Ba (None, 16, 16, 1024)      4096      
_________________________________________________________________
activation_2154 (Activation) (None, 16, 16, 1024)      0         
_________________________________________________________________
dropout_2154 (Dropout)       (None, 16, 16, 1024)      0         
_________________________________________________________________
flatten_322 (Flatten)        (None, 262144)            0         
_________________________________________________________________
dense_1002 (Dense)           (None, 16)                4194320   
_________________________________________________________________
activation_2155 (Activation) (None, 16)                0         
_________________________________________________________________
dropout_2155 (Dropout)       (None, 16)                0         
_________________________________________________________________
dense_1003 (Dense)           (None, 512)               8704      
_________________________________________________________________
batch_normalization_1087 (Ba (None, 512)               2048      
_________________________________________________________________
activation_2156 (Activation) (None, 512)               0         
_________________________________________________________________
dropout_2156 (Dropout)       (None, 512)               0         
_________________________________________________________________
dense_1004 (Dense)           (None, 10)                5130      
=================================================================
Total params: 14,852,698
Trainable params: 14,849,370
Non-trainable params: 3,328
_________________________________________________________________
