Model: "sequential_307"
_________________________________________________________________
Layer (type)                 Output Shape              Param #   
=================================================================
conv2d_1412 (Conv2D)         (None, 32, 32, 16)        448       
_________________________________________________________________
activation_2070 (Activation) (None, 32, 32, 16)        0         
_________________________________________________________________
dropout_2070 (Dropout)       (None, 32, 32, 16)        0         
_________________________________________________________________
conv2d_1413 (Conv2D)         (None, 32, 32, 128)       18560     
_________________________________________________________________
batch_normalization_1039 (Ba (None, 32, 32, 128)       512       
_________________________________________________________________
activation_2071 (Activation) (None, 32, 32, 128)       0         
_________________________________________________________________
dropout_2071 (Dropout)       (None, 32, 32, 128)       0         
_________________________________________________________________
conv2d_1414 (Conv2D)         (None, 32, 32, 1024)      1180672   
_________________________________________________________________
activation_2072 (Activation) (None, 32, 32, 1024)      0         
_________________________________________________________________
dropout_2072 (Dropout)       (None, 32, 32, 1024)      0         
_________________________________________________________________
max_pooling2d_280 (MaxPoolin (None, 16, 16, 1024)      0         
_________________________________________________________________
conv2d_1415 (Conv2D)         (None, 16, 16, 1024)      9438208   
_________________________________________________________________
batch_normalization_1040 (Ba (None, 16, 16, 1024)      4096      
_________________________________________________________________
activation_2073 (Activation) (None, 16, 16, 1024)      0         
_________________________________________________________________
dropout_2073 (Dropout)       (None, 16, 16, 1024)      0         
_________________________________________________________________
flatten_307 (Flatten)        (None, 262144)            0         
_________________________________________________________________
dense_965 (Dense)            (None, 256)               67109120  
_________________________________________________________________
activation_2074 (Activation) (None, 256)               0         
_________________________________________________________________
dropout_2074 (Dropout)       (None, 256)               0         
_________________________________________________________________
dense_966 (Dense)            (None, 32)                8224      
_________________________________________________________________
batch_normalization_1041 (Ba (None, 32)                128       
_________________________________________________________________
activation_2075 (Activation) (None, 32)                0         
_________________________________________________________________
dropout_2075 (Dropout)       (None, 32)                0         
_________________________________________________________________
dense_967 (Dense)            (None, 10)                330       
=================================================================
Total params: 77,760,298
Trainable params: 77,757,930
Non-trainable params: 2,368
_________________________________________________________________
