Model: "sequential_331"
_________________________________________________________________
Layer (type)                 Output Shape              Param #   
=================================================================
conv2d_1507 (Conv2D)         (None, 32, 32, 16)        448       
_________________________________________________________________
activation_2200 (Activation) (None, 32, 32, 16)        0         
_________________________________________________________________
dropout_2200 (Dropout)       (None, 32, 32, 16)        0         
_________________________________________________________________
conv2d_1508 (Conv2D)         (None, 32, 32, 128)       18560     
_________________________________________________________________
activation_2201 (Activation) (None, 32, 32, 128)       0         
_________________________________________________________________
dropout_2201 (Dropout)       (None, 32, 32, 128)       0         
_________________________________________________________________
conv2d_1509 (Conv2D)         (None, 32, 32, 32)        36896     
_________________________________________________________________
activation_2202 (Activation) (None, 32, 32, 32)        0         
_________________________________________________________________
dropout_2202 (Dropout)       (None, 32, 32, 32)        0         
_________________________________________________________________
max_pooling2d_307 (MaxPoolin (None, 16, 16, 32)        0         
_________________________________________________________________
conv2d_1510 (Conv2D)         (None, 16, 16, 1024)      295936    
_________________________________________________________________
batch_normalization_1109 (Ba (None, 16, 16, 1024)      4096      
_________________________________________________________________
activation_2203 (Activation) (None, 16, 16, 1024)      0         
_________________________________________________________________
dropout_2203 (Dropout)       (None, 16, 16, 1024)      0         
_________________________________________________________________
flatten_331 (Flatten)        (None, 262144)            0         
_________________________________________________________________
dense_1024 (Dense)           (None, 512)               134218240 
_________________________________________________________________
batch_normalization_1110 (Ba (None, 512)               2048      
_________________________________________________________________
activation_2204 (Activation) (None, 512)               0         
_________________________________________________________________
dropout_2204 (Dropout)       (None, 512)               0         
_________________________________________________________________
dense_1025 (Dense)           (None, 10)                5130      
=================================================================
Total params: 134,581,354
Trainable params: 134,578,282
Non-trainable params: 3,072
_________________________________________________________________
