Model: "sequential_11"
_________________________________________________________________
Layer (type)                 Output Shape              Param #   
=================================================================
conv2d_82 (Conv2D)           (None, 32, 32, 16)        448       
_________________________________________________________________
activation_117 (Activation)  (None, 32, 32, 16)        0         
_________________________________________________________________
dropout_117 (Dropout)        (None, 32, 32, 16)        0         
_________________________________________________________________
conv2d_83 (Conv2D)           (None, 32, 32, 128)       18560     
_________________________________________________________________
batch_normalization_61 (Batc (None, 32, 32, 128)       512       
_________________________________________________________________
activation_118 (Activation)  (None, 32, 32, 128)       0         
_________________________________________________________________
dropout_118 (Dropout)        (None, 32, 32, 128)       0         
_________________________________________________________________
max_pooling2d_18 (MaxPooling (None, 16, 16, 128)       0         
_________________________________________________________________
conv2d_84 (Conv2D)           (None, 16, 16, 32)        36896     
_________________________________________________________________
activation_119 (Activation)  (None, 16, 16, 32)        0         
_________________________________________________________________
dropout_119 (Dropout)        (None, 16, 16, 32)        0         
_________________________________________________________________
conv2d_85 (Conv2D)           (None, 16, 16, 512)       147968    
_________________________________________________________________
batch_normalization_62 (Batc (None, 16, 16, 512)       2048      
_________________________________________________________________
activation_120 (Activation)  (None, 16, 16, 512)       0         
_________________________________________________________________
dropout_120 (Dropout)        (None, 16, 16, 512)       0         
_________________________________________________________________
max_pooling2d_19 (MaxPooling (None, 8, 8, 512)         0         
_________________________________________________________________
conv2d_86 (Conv2D)           (None, 8, 8, 512)         2359808   
_________________________________________________________________
batch_normalization_63 (Batc (None, 8, 8, 512)         2048      
_________________________________________________________________
activation_121 (Activation)  (None, 8, 8, 512)         0         
_________________________________________________________________
dropout_121 (Dropout)        (None, 8, 8, 512)         0         
_________________________________________________________________
conv2d_87 (Conv2D)           (None, 8, 8, 128)         589952    
_________________________________________________________________
activation_122 (Activation)  (None, 8, 8, 128)         0         
_________________________________________________________________
dropout_122 (Dropout)        (None, 8, 8, 128)         0         
_________________________________________________________________
conv2d_88 (Conv2D)           (None, 8, 8, 64)          73792     
_________________________________________________________________
activation_123 (Activation)  (None, 8, 8, 64)          0         
_________________________________________________________________
dropout_123 (Dropout)        (None, 8, 8, 64)          0         
_________________________________________________________________
flatten_11 (Flatten)         (None, 4096)              0         
_________________________________________________________________
dense_46 (Dense)             (None, 512)               2097664   
_________________________________________________________________
activation_124 (Activation)  (None, 512)               0         
_________________________________________________________________
dropout_124 (Dropout)        (None, 512)               0         
_________________________________________________________________
dense_47 (Dense)             (None, 10)                5130      
=================================================================
Total params: 5,334,826
Trainable params: 5,332,522
Non-trainable params: 2,304
_________________________________________________________________
