Model: "sequential_243"
_________________________________________________________________
Layer (type)                 Output Shape              Param #   
=================================================================
conv2d_1173 (Conv2D)         (None, 32, 32, 16)        448       
_________________________________________________________________
activation_1720 (Activation) (None, 32, 32, 16)        0         
_________________________________________________________________
dropout_1720 (Dropout)       (None, 32, 32, 16)        0         
_________________________________________________________________
conv2d_1174 (Conv2D)         (None, 32, 32, 128)       18560     
_________________________________________________________________
batch_normalization_844 (Bat (None, 32, 32, 128)       512       
_________________________________________________________________
activation_1721 (Activation) (None, 32, 32, 128)       0         
_________________________________________________________________
dropout_1721 (Dropout)       (None, 32, 32, 128)       0         
_________________________________________________________________
max_pooling2d_220 (MaxPoolin (None, 16, 16, 128)       0         
_________________________________________________________________
conv2d_1175 (Conv2D)         (None, 16, 16, 32)        36896     
_________________________________________________________________
activation_1722 (Activation) (None, 16, 16, 32)        0         
_________________________________________________________________
dropout_1722 (Dropout)       (None, 16, 16, 32)        0         
_________________________________________________________________
max_pooling2d_221 (MaxPoolin (None, 8, 8, 32)          0         
_________________________________________________________________
conv2d_1176 (Conv2D)         (None, 8, 8, 1024)        295936    
_________________________________________________________________
activation_1723 (Activation) (None, 8, 8, 1024)        0         
_________________________________________________________________
dropout_1723 (Dropout)       (None, 8, 8, 1024)        0         
_________________________________________________________________
flatten_243 (Flatten)        (None, 65536)             0         
_________________________________________________________________
dense_790 (Dense)            (None, 256)               16777472  
_________________________________________________________________
activation_1724 (Activation) (None, 256)               0         
_________________________________________________________________
dropout_1724 (Dropout)       (None, 256)               0         
_________________________________________________________________
dense_791 (Dense)            (None, 512)               131584    
_________________________________________________________________
batch_normalization_845 (Bat (None, 512)               2048      
_________________________________________________________________
activation_1725 (Activation) (None, 512)               0         
_________________________________________________________________
dropout_1725 (Dropout)       (None, 512)               0         
_________________________________________________________________
dense_792 (Dense)            (None, 10)                5130      
=================================================================
Total params: 17,268,586
Trainable params: 17,267,306
Non-trainable params: 1,280
_________________________________________________________________
