Model: "sequential_207"
_________________________________________________________________
Layer (type)                 Output Shape              Param #   
=================================================================
conv2d_1030 (Conv2D)         (None, 32, 32, 16)        448       
_________________________________________________________________
activation_1513 (Activation) (None, 32, 32, 16)        0         
_________________________________________________________________
dropout_1513 (Dropout)       (None, 32, 32, 16)        0         
_________________________________________________________________
conv2d_1031 (Conv2D)         (None, 32, 32, 128)       18560     
_________________________________________________________________
batch_normalization_735 (Bat (None, 32, 32, 128)       512       
_________________________________________________________________
activation_1514 (Activation) (None, 32, 32, 128)       0         
_________________________________________________________________
dropout_1514 (Dropout)       (None, 32, 32, 128)       0         
_________________________________________________________________
max_pooling2d_184 (MaxPoolin (None, 16, 16, 128)       0         
_________________________________________________________________
conv2d_1032 (Conv2D)         (None, 16, 16, 32)        36896     
_________________________________________________________________
activation_1515 (Activation) (None, 16, 16, 32)        0         
_________________________________________________________________
dropout_1515 (Dropout)       (None, 16, 16, 32)        0         
_________________________________________________________________
conv2d_1033 (Conv2D)         (None, 16, 16, 1024)      295936    
_________________________________________________________________
batch_normalization_736 (Bat (None, 16, 16, 1024)      4096      
_________________________________________________________________
activation_1516 (Activation) (None, 16, 16, 1024)      0         
_________________________________________________________________
dropout_1516 (Dropout)       (None, 16, 16, 1024)      0         
_________________________________________________________________
flatten_207 (Flatten)        (None, 262144)            0         
_________________________________________________________________
dense_690 (Dense)            (None, 256)               67109120  
_________________________________________________________________
activation_1517 (Activation) (None, 256)               0         
_________________________________________________________________
dropout_1517 (Dropout)       (None, 256)               0         
_________________________________________________________________
dense_691 (Dense)            (None, 512)               131584    
_________________________________________________________________
batch_normalization_737 (Bat (None, 512)               2048      
_________________________________________________________________
activation_1518 (Activation) (None, 512)               0         
_________________________________________________________________
dropout_1518 (Dropout)       (None, 512)               0         
_________________________________________________________________
dense_692 (Dense)            (None, 10)                5130      
=================================================================
Total params: 67,604,330
Trainable params: 67,601,002
Non-trainable params: 3,328
_________________________________________________________________
