Model: "sequential_379"
_________________________________________________________________
Layer (type)                 Output Shape              Param #   
=================================================================
conv2d_1697 (Conv2D)         (None, 32, 32, 16)        448       
_________________________________________________________________
activation_2473 (Activation) (None, 32, 32, 16)        0         
_________________________________________________________________
dropout_2473 (Dropout)       (None, 32, 32, 16)        0         
_________________________________________________________________
conv2d_1698 (Conv2D)         (None, 32, 32, 128)       18560     
_________________________________________________________________
batch_normalization_1236 (Ba (None, 32, 32, 128)       512       
_________________________________________________________________
activation_2474 (Activation) (None, 32, 32, 128)       0         
_________________________________________________________________
dropout_2474 (Dropout)       (None, 32, 32, 128)       0         
_________________________________________________________________
conv2d_1699 (Conv2D)         (None, 32, 32, 1024)      1180672   
_________________________________________________________________
activation_2475 (Activation) (None, 32, 32, 1024)      0         
_________________________________________________________________
dropout_2475 (Dropout)       (None, 32, 32, 1024)      0         
_________________________________________________________________
max_pooling2d_357 (MaxPoolin (None, 16, 16, 1024)      0         
_________________________________________________________________
conv2d_1700 (Conv2D)         (None, 16, 16, 1024)      9438208   
_________________________________________________________________
batch_normalization_1237 (Ba (None, 16, 16, 1024)      4096      
_________________________________________________________________
activation_2476 (Activation) (None, 16, 16, 1024)      0         
_________________________________________________________________
dropout_2476 (Dropout)       (None, 16, 16, 1024)      0         
_________________________________________________________________
flatten_379 (Flatten)        (None, 262144)            0         
_________________________________________________________________
dense_1155 (Dense)           (None, 64)                16777280  
_________________________________________________________________
batch_normalization_1238 (Ba (None, 64)                256       
_________________________________________________________________
activation_2477 (Activation) (None, 64)                0         
_________________________________________________________________
dropout_2477 (Dropout)       (None, 64)                0         
_________________________________________________________________
dense_1156 (Dense)           (None, 32)                2080      
_________________________________________________________________
activation_2478 (Activation) (None, 32)                0         
_________________________________________________________________
dropout_2478 (Dropout)       (None, 32)                0         
_________________________________________________________________
dense_1157 (Dense)           (None, 10)                330       
=================================================================
Total params: 27,422,442
Trainable params: 27,420,010
Non-trainable params: 2,432
_________________________________________________________________
