Model: "sequential_150"
_________________________________________________________________
Layer (type)                 Output Shape              Param #   
=================================================================
conv2d_804 (Conv2D)          (None, 32, 32, 16)        448       
_________________________________________________________________
activation_1175 (Activation) (None, 32, 32, 16)        0         
_________________________________________________________________
dropout_1175 (Dropout)       (None, 32, 32, 16)        0         
_________________________________________________________________
conv2d_805 (Conv2D)          (None, 32, 32, 128)       18560     
_________________________________________________________________
batch_normalization_567 (Bat (None, 32, 32, 128)       512       
_________________________________________________________________
activation_1176 (Activation) (None, 32, 32, 128)       0         
_________________________________________________________________
dropout_1176 (Dropout)       (None, 32, 32, 128)       0         
_________________________________________________________________
max_pooling2d_127 (MaxPoolin (None, 16, 16, 128)       0         
_________________________________________________________________
conv2d_806 (Conv2D)          (None, 16, 16, 32)        36896     
_________________________________________________________________
activation_1177 (Activation) (None, 16, 16, 32)        0         
_________________________________________________________________
dropout_1177 (Dropout)       (None, 16, 16, 32)        0         
_________________________________________________________________
conv2d_807 (Conv2D)          (None, 16, 16, 1024)      295936    
_________________________________________________________________
batch_normalization_568 (Bat (None, 16, 16, 1024)      4096      
_________________________________________________________________
activation_1178 (Activation) (None, 16, 16, 1024)      0         
_________________________________________________________________
dropout_1178 (Dropout)       (None, 16, 16, 1024)      0         
_________________________________________________________________
flatten_150 (Flatten)        (None, 262144)            0         
_________________________________________________________________
dense_521 (Dense)            (None, 256)               67109120  
_________________________________________________________________
activation_1179 (Activation) (None, 256)               0         
_________________________________________________________________
dropout_1179 (Dropout)       (None, 256)               0         
_________________________________________________________________
dense_522 (Dense)            (None, 512)               131584    
_________________________________________________________________
batch_normalization_569 (Bat (None, 512)               2048      
_________________________________________________________________
activation_1180 (Activation) (None, 512)               0         
_________________________________________________________________
dropout_1180 (Dropout)       (None, 512)               0         
_________________________________________________________________
dense_523 (Dense)            (None, 10)                5130      
=================================================================
Total params: 67,604,330
Trainable params: 67,601,002
Non-trainable params: 3,328
_________________________________________________________________
