Model: "sequential_325"
_________________________________________________________________
Layer (type)                 Output Shape              Param #   
=================================================================
conv2d_1483 (Conv2D)         (None, 32, 32, 16)        448       
_________________________________________________________________
activation_2168 (Activation) (None, 32, 32, 16)        0         
_________________________________________________________________
dropout_2168 (Dropout)       (None, 32, 32, 16)        0         
_________________________________________________________________
conv2d_1484 (Conv2D)         (None, 32, 32, 128)       18560     
_________________________________________________________________
activation_2169 (Activation) (None, 32, 32, 128)       0         
_________________________________________________________________
dropout_2169 (Dropout)       (None, 32, 32, 128)       0         
_________________________________________________________________
conv2d_1485 (Conv2D)         (None, 32, 32, 1024)      1180672   
_________________________________________________________________
activation_2170 (Activation) (None, 32, 32, 1024)      0         
_________________________________________________________________
dropout_2170 (Dropout)       (None, 32, 32, 1024)      0         
_________________________________________________________________
max_pooling2d_301 (MaxPoolin (None, 16, 16, 1024)      0         
_________________________________________________________________
conv2d_1486 (Conv2D)         (None, 16, 16, 1024)      9438208   
_________________________________________________________________
batch_normalization_1093 (Ba (None, 16, 16, 1024)      4096      
_________________________________________________________________
activation_2171 (Activation) (None, 16, 16, 1024)      0         
_________________________________________________________________
dropout_2171 (Dropout)       (None, 16, 16, 1024)      0         
_________________________________________________________________
flatten_325 (Flatten)        (None, 262144)            0         
_________________________________________________________________
dense_1010 (Dense)           (None, 256)               67109120  
_________________________________________________________________
activation_2172 (Activation) (None, 256)               0         
_________________________________________________________________
dropout_2172 (Dropout)       (None, 256)               0         
_________________________________________________________________
dense_1011 (Dense)           (None, 512)               131584    
_________________________________________________________________
batch_normalization_1094 (Ba (None, 512)               2048      
_________________________________________________________________
activation_2173 (Activation) (None, 512)               0         
_________________________________________________________________
dropout_2173 (Dropout)       (None, 512)               0         
_________________________________________________________________
dense_1012 (Dense)           (None, 10)                5130      
=================================================================
Total params: 77,889,866
Trainable params: 77,886,794
Non-trainable params: 3,072
_________________________________________________________________
