Model: "sequential_172"
_________________________________________________________________
Layer (type)                 Output Shape              Param #   
=================================================================
conv2d_892 (Conv2D)          (None, 32, 32, 16)        448       
_________________________________________________________________
activation_1307 (Activation) (None, 32, 32, 16)        0         
_________________________________________________________________
dropout_1307 (Dropout)       (None, 32, 32, 16)        0         
_________________________________________________________________
conv2d_893 (Conv2D)          (None, 32, 32, 128)       18560     
_________________________________________________________________
batch_normalization_633 (Bat (None, 32, 32, 128)       512       
_________________________________________________________________
activation_1308 (Activation) (None, 32, 32, 128)       0         
_________________________________________________________________
dropout_1308 (Dropout)       (None, 32, 32, 128)       0         
_________________________________________________________________
max_pooling2d_149 (MaxPoolin (None, 16, 16, 128)       0         
_________________________________________________________________
conv2d_894 (Conv2D)          (None, 16, 16, 32)        36896     
_________________________________________________________________
activation_1309 (Activation) (None, 16, 16, 32)        0         
_________________________________________________________________
dropout_1309 (Dropout)       (None, 16, 16, 32)        0         
_________________________________________________________________
conv2d_895 (Conv2D)          (None, 16, 16, 128)       36992     
_________________________________________________________________
batch_normalization_634 (Bat (None, 16, 16, 128)       512       
_________________________________________________________________
activation_1310 (Activation) (None, 16, 16, 128)       0         
_________________________________________________________________
dropout_1310 (Dropout)       (None, 16, 16, 128)       0         
_________________________________________________________________
flatten_172 (Flatten)        (None, 32768)             0         
_________________________________________________________________
dense_587 (Dense)            (None, 16)                524304    
_________________________________________________________________
activation_1311 (Activation) (None, 16)                0         
_________________________________________________________________
dropout_1311 (Dropout)       (None, 16)                0         
_________________________________________________________________
dense_588 (Dense)            (None, 512)               8704      
_________________________________________________________________
batch_normalization_635 (Bat (None, 512)               2048      
_________________________________________________________________
activation_1312 (Activation) (None, 512)               0         
_________________________________________________________________
dropout_1312 (Dropout)       (None, 512)               0         
_________________________________________________________________
dense_589 (Dense)            (None, 10)                5130      
=================================================================
Total params: 634,106
Trainable params: 632,570
Non-trainable params: 1,536
_________________________________________________________________
