Model: "sequential_237"
_________________________________________________________________
Layer (type)                 Output Shape              Param #   
=================================================================
conv2d_1149 (Conv2D)         (None, 32, 32, 16)        448       
_________________________________________________________________
activation_1685 (Activation) (None, 32, 32, 16)        0         
_________________________________________________________________
dropout_1685 (Dropout)       (None, 32, 32, 16)        0         
_________________________________________________________________
conv2d_1150 (Conv2D)         (None, 32, 32, 128)       18560     
_________________________________________________________________
batch_normalization_822 (Bat (None, 32, 32, 128)       512       
_________________________________________________________________
activation_1686 (Activation) (None, 32, 32, 128)       0         
_________________________________________________________________
dropout_1686 (Dropout)       (None, 32, 32, 128)       0         
_________________________________________________________________
max_pooling2d_214 (MaxPoolin (None, 16, 16, 128)       0         
_________________________________________________________________
conv2d_1151 (Conv2D)         (None, 16, 16, 32)        36896     
_________________________________________________________________
activation_1687 (Activation) (None, 16, 16, 32)        0         
_________________________________________________________________
dropout_1687 (Dropout)       (None, 16, 16, 32)        0         
_________________________________________________________________
conv2d_1152 (Conv2D)         (None, 16, 16, 1024)      295936    
_________________________________________________________________
batch_normalization_823 (Bat (None, 16, 16, 1024)      4096      
_________________________________________________________________
activation_1688 (Activation) (None, 16, 16, 1024)      0         
_________________________________________________________________
dropout_1688 (Dropout)       (None, 16, 16, 1024)      0         
_________________________________________________________________
flatten_237 (Flatten)        (None, 262144)            0         
_________________________________________________________________
dense_773 (Dense)            (None, 256)               67109120  
_________________________________________________________________
activation_1689 (Activation) (None, 256)               0         
_________________________________________________________________
dropout_1689 (Dropout)       (None, 256)               0         
_________________________________________________________________
dense_774 (Dense)            (None, 512)               131584    
_________________________________________________________________
batch_normalization_824 (Bat (None, 512)               2048      
_________________________________________________________________
activation_1690 (Activation) (None, 512)               0         
_________________________________________________________________
dropout_1690 (Dropout)       (None, 512)               0         
_________________________________________________________________
dense_775 (Dense)            (None, 10)                5130      
=================================================================
Total params: 67,604,330
Trainable params: 67,601,002
Non-trainable params: 3,328
_________________________________________________________________
