Model: "sequential_206"
_________________________________________________________________
Layer (type)                 Output Shape              Param #   
=================================================================
conv2d_1026 (Conv2D)         (None, 32, 32, 16)        448       
_________________________________________________________________
activation_1508 (Activation) (None, 32, 32, 16)        0         
_________________________________________________________________
dropout_1508 (Dropout)       (None, 32, 32, 16)        0         
_________________________________________________________________
conv2d_1027 (Conv2D)         (None, 32, 32, 128)       18560     
_________________________________________________________________
batch_normalization_732 (Bat (None, 32, 32, 128)       512       
_________________________________________________________________
activation_1509 (Activation) (None, 32, 32, 128)       0         
_________________________________________________________________
dropout_1509 (Dropout)       (None, 32, 32, 128)       0         
_________________________________________________________________
max_pooling2d_183 (MaxPoolin (None, 16, 16, 128)       0         
_________________________________________________________________
conv2d_1028 (Conv2D)         (None, 16, 16, 32)        36896     
_________________________________________________________________
activation_1510 (Activation) (None, 16, 16, 32)        0         
_________________________________________________________________
dropout_1510 (Dropout)       (None, 16, 16, 32)        0         
_________________________________________________________________
conv2d_1029 (Conv2D)         (None, 16, 16, 1024)      295936    
_________________________________________________________________
batch_normalization_733 (Bat (None, 16, 16, 1024)      4096      
_________________________________________________________________
activation_1511 (Activation) (None, 16, 16, 1024)      0         
_________________________________________________________________
dropout_1511 (Dropout)       (None, 16, 16, 1024)      0         
_________________________________________________________________
flatten_206 (Flatten)        (None, 262144)            0         
_________________________________________________________________
dense_688 (Dense)            (None, 512)               134218240 
_________________________________________________________________
batch_normalization_734 (Bat (None, 512)               2048      
_________________________________________________________________
activation_1512 (Activation) (None, 512)               0         
_________________________________________________________________
dropout_1512 (Dropout)       (None, 512)               0         
_________________________________________________________________
dense_689 (Dense)            (None, 10)                5130      
=================================================================
Total params: 134,581,866
Trainable params: 134,578,538
Non-trainable params: 3,328
_________________________________________________________________
