Model: "sequential_162"
_________________________________________________________________
Layer (type)                 Output Shape              Param #   
=================================================================
conv2d_852 (Conv2D)          (None, 32, 32, 16)        448       
_________________________________________________________________
activation_1247 (Activation) (None, 32, 32, 16)        0         
_________________________________________________________________
dropout_1247 (Dropout)       (None, 32, 32, 16)        0         
_________________________________________________________________
conv2d_853 (Conv2D)          (None, 32, 32, 128)       18560     
_________________________________________________________________
batch_normalization_603 (Bat (None, 32, 32, 128)       512       
_________________________________________________________________
activation_1248 (Activation) (None, 32, 32, 128)       0         
_________________________________________________________________
dropout_1248 (Dropout)       (None, 32, 32, 128)       0         
_________________________________________________________________
max_pooling2d_139 (MaxPoolin (None, 16, 16, 128)       0         
_________________________________________________________________
conv2d_854 (Conv2D)          (None, 16, 16, 32)        36896     
_________________________________________________________________
activation_1249 (Activation) (None, 16, 16, 32)        0         
_________________________________________________________________
dropout_1249 (Dropout)       (None, 16, 16, 32)        0         
_________________________________________________________________
conv2d_855 (Conv2D)          (None, 16, 16, 128)       36992     
_________________________________________________________________
batch_normalization_604 (Bat (None, 16, 16, 128)       512       
_________________________________________________________________
activation_1250 (Activation) (None, 16, 16, 128)       0         
_________________________________________________________________
dropout_1250 (Dropout)       (None, 16, 16, 128)       0         
_________________________________________________________________
flatten_162 (Flatten)        (None, 32768)             0         
_________________________________________________________________
dense_557 (Dense)            (None, 256)               8388864   
_________________________________________________________________
activation_1251 (Activation) (None, 256)               0         
_________________________________________________________________
dropout_1251 (Dropout)       (None, 256)               0         
_________________________________________________________________
dense_558 (Dense)            (None, 512)               131584    
_________________________________________________________________
batch_normalization_605 (Bat (None, 512)               2048      
_________________________________________________________________
activation_1252 (Activation) (None, 512)               0         
_________________________________________________________________
dropout_1252 (Dropout)       (None, 512)               0         
_________________________________________________________________
dense_559 (Dense)            (None, 10)                5130      
=================================================================
Total params: 8,621,546
Trainable params: 8,620,010
Non-trainable params: 1,536
_________________________________________________________________
