Model: "sequential_308"
_________________________________________________________________
Layer (type)                 Output Shape              Param #   
=================================================================
conv2d_1416 (Conv2D)         (None, 32, 32, 16)        448       
_________________________________________________________________
activation_2076 (Activation) (None, 32, 32, 16)        0         
_________________________________________________________________
dropout_2076 (Dropout)       (None, 32, 32, 16)        0         
_________________________________________________________________
conv2d_1417 (Conv2D)         (None, 32, 32, 8)         1160      
_________________________________________________________________
batch_normalization_1042 (Ba (None, 32, 32, 8)         32        
_________________________________________________________________
activation_2077 (Activation) (None, 32, 32, 8)         0         
_________________________________________________________________
dropout_2077 (Dropout)       (None, 32, 32, 8)         0         
_________________________________________________________________
max_pooling2d_281 (MaxPoolin (None, 16, 16, 8)         0         
_________________________________________________________________
conv2d_1418 (Conv2D)         (None, 16, 16, 32)        2336      
_________________________________________________________________
activation_2078 (Activation) (None, 16, 16, 32)        0         
_________________________________________________________________
dropout_2078 (Dropout)       (None, 16, 16, 32)        0         
_________________________________________________________________
max_pooling2d_282 (MaxPoolin (None, 8, 8, 32)          0         
_________________________________________________________________
conv2d_1419 (Conv2D)         (None, 8, 8, 1024)        295936    
_________________________________________________________________
batch_normalization_1043 (Ba (None, 8, 8, 1024)        4096      
_________________________________________________________________
activation_2079 (Activation) (None, 8, 8, 1024)        0         
_________________________________________________________________
dropout_2079 (Dropout)       (None, 8, 8, 1024)        0         
_________________________________________________________________
flatten_308 (Flatten)        (None, 65536)             0         
_________________________________________________________________
dense_968 (Dense)            (None, 64)                4194368   
_________________________________________________________________
batch_normalization_1044 (Ba (None, 64)                256       
_________________________________________________________________
activation_2080 (Activation) (None, 64)                0         
_________________________________________________________________
dropout_2080 (Dropout)       (None, 64)                0         
_________________________________________________________________
dense_969 (Dense)            (None, 10)                650       
=================================================================
Total params: 4,499,282
Trainable params: 4,497,090
Non-trainable params: 2,192
_________________________________________________________________
