Model: "sequential_301"
_________________________________________________________________
Layer (type)                 Output Shape              Param #   
=================================================================
conv2d_1390 (Conv2D)         (None, 32, 32, 16)        448       
_________________________________________________________________
activation_2041 (Activation) (None, 32, 32, 16)        0         
_________________________________________________________________
dropout_2041 (Dropout)       (None, 32, 32, 16)        0         
_________________________________________________________________
conv2d_1391 (Conv2D)         (None, 32, 32, 8)         1160      
_________________________________________________________________
batch_normalization_1023 (Ba (None, 32, 32, 8)         32        
_________________________________________________________________
activation_2042 (Activation) (None, 32, 32, 8)         0         
_________________________________________________________________
dropout_2042 (Dropout)       (None, 32, 32, 8)         0         
_________________________________________________________________
max_pooling2d_273 (MaxPoolin (None, 16, 16, 8)         0         
_________________________________________________________________
conv2d_1392 (Conv2D)         (None, 16, 16, 128)       9344      
_________________________________________________________________
activation_2043 (Activation) (None, 16, 16, 128)       0         
_________________________________________________________________
dropout_2043 (Dropout)       (None, 16, 16, 128)       0         
_________________________________________________________________
conv2d_1393 (Conv2D)         (None, 16, 16, 1024)      1180672   
_________________________________________________________________
batch_normalization_1024 (Ba (None, 16, 16, 1024)      4096      
_________________________________________________________________
activation_2044 (Activation) (None, 16, 16, 1024)      0         
_________________________________________________________________
dropout_2044 (Dropout)       (None, 16, 16, 1024)      0         
_________________________________________________________________
flatten_301 (Flatten)        (None, 262144)            0         
_________________________________________________________________
dense_952 (Dense)            (None, 512)               134218240 
_________________________________________________________________
batch_normalization_1025 (Ba (None, 512)               2048      
_________________________________________________________________
activation_2045 (Activation) (None, 512)               0         
_________________________________________________________________
dropout_2045 (Dropout)       (None, 512)               0         
_________________________________________________________________
dense_953 (Dense)            (None, 10)                5130      
=================================================================
Total params: 135,421,170
Trainable params: 135,418,082
Non-trainable params: 3,088
_________________________________________________________________
