Model: "sequential_118"
_________________________________________________________________
Layer (type)                 Output Shape              Param #   
=================================================================
conv2d_673 (Conv2D)          (None, 32, 32, 16)        448       
_________________________________________________________________
activation_974 (Activation)  (None, 32, 32, 16)        0         
_________________________________________________________________
dropout_974 (Dropout)        (None, 32, 32, 16)        0         
_________________________________________________________________
conv2d_674 (Conv2D)          (None, 32, 32, 128)       18560     
_________________________________________________________________
batch_normalization_465 (Bat (None, 32, 32, 128)       512       
_________________________________________________________________
activation_975 (Activation)  (None, 32, 32, 128)       0         
_________________________________________________________________
dropout_975 (Dropout)        (None, 32, 32, 128)       0         
_________________________________________________________________
max_pooling2d_103 (MaxPoolin (None, 16, 16, 128)       0         
_________________________________________________________________
conv2d_675 (Conv2D)          (None, 16, 16, 32)        36896     
_________________________________________________________________
activation_976 (Activation)  (None, 16, 16, 32)        0         
_________________________________________________________________
dropout_976 (Dropout)        (None, 16, 16, 32)        0         
_________________________________________________________________
conv2d_676 (Conv2D)          (None, 16, 16, 1024)      295936    
_________________________________________________________________
batch_normalization_466 (Bat (None, 16, 16, 1024)      4096      
_________________________________________________________________
activation_977 (Activation)  (None, 16, 16, 1024)      0         
_________________________________________________________________
dropout_977 (Dropout)        (None, 16, 16, 1024)      0         
_________________________________________________________________
flatten_118 (Flatten)        (None, 262144)            0         
_________________________________________________________________
dense_419 (Dense)            (None, 256)               67109120  
_________________________________________________________________
activation_978 (Activation)  (None, 256)               0         
_________________________________________________________________
dropout_978 (Dropout)        (None, 256)               0         
_________________________________________________________________
dense_420 (Dense)            (None, 512)               131584    
_________________________________________________________________
batch_normalization_467 (Bat (None, 512)               2048      
_________________________________________________________________
activation_979 (Activation)  (None, 512)               0         
_________________________________________________________________
dropout_979 (Dropout)        (None, 512)               0         
_________________________________________________________________
dense_421 (Dense)            (None, 10)                5130      
=================================================================
Total params: 67,604,330
Trainable params: 67,601,002
Non-trainable params: 3,328
_________________________________________________________________
