Model: "sequential_148"
_________________________________________________________________
Layer (type)                 Output Shape              Param #   
=================================================================
conv2d_796 (Conv2D)          (None, 32, 32, 16)        448       
_________________________________________________________________
activation_1163 (Activation) (None, 32, 32, 16)        0         
_________________________________________________________________
dropout_1163 (Dropout)       (None, 32, 32, 16)        0         
_________________________________________________________________
conv2d_797 (Conv2D)          (None, 32, 32, 128)       18560     
_________________________________________________________________
batch_normalization_561 (Bat (None, 32, 32, 128)       512       
_________________________________________________________________
activation_1164 (Activation) (None, 32, 32, 128)       0         
_________________________________________________________________
dropout_1164 (Dropout)       (None, 32, 32, 128)       0         
_________________________________________________________________
max_pooling2d_125 (MaxPoolin (None, 16, 16, 128)       0         
_________________________________________________________________
conv2d_798 (Conv2D)          (None, 16, 16, 32)        36896     
_________________________________________________________________
activation_1165 (Activation) (None, 16, 16, 32)        0         
_________________________________________________________________
dropout_1165 (Dropout)       (None, 16, 16, 32)        0         
_________________________________________________________________
conv2d_799 (Conv2D)          (None, 16, 16, 128)       36992     
_________________________________________________________________
batch_normalization_562 (Bat (None, 16, 16, 128)       512       
_________________________________________________________________
activation_1166 (Activation) (None, 16, 16, 128)       0         
_________________________________________________________________
dropout_1166 (Dropout)       (None, 16, 16, 128)       0         
_________________________________________________________________
flatten_148 (Flatten)        (None, 32768)             0         
_________________________________________________________________
dense_515 (Dense)            (None, 16)                524304    
_________________________________________________________________
activation_1167 (Activation) (None, 16)                0         
_________________________________________________________________
dropout_1167 (Dropout)       (None, 16)                0         
_________________________________________________________________
dense_516 (Dense)            (None, 512)               8704      
_________________________________________________________________
batch_normalization_563 (Bat (None, 512)               2048      
_________________________________________________________________
activation_1168 (Activation) (None, 512)               0         
_________________________________________________________________
dropout_1168 (Dropout)       (None, 512)               0         
_________________________________________________________________
dense_517 (Dense)            (None, 10)                5130      
=================================================================
Total params: 634,106
Trainable params: 632,570
Non-trainable params: 1,536
_________________________________________________________________
