Model: "sequential_195"
_________________________________________________________________
Layer (type)                 Output Shape              Param #   
=================================================================
conv2d_983 (Conv2D)          (None, 32, 32, 16)        448       
_________________________________________________________________
activation_1444 (Activation) (None, 32, 32, 16)        0         
_________________________________________________________________
dropout_1444 (Dropout)       (None, 32, 32, 16)        0         
_________________________________________________________________
conv2d_984 (Conv2D)          (None, 32, 32, 128)       18560     
_________________________________________________________________
batch_normalization_701 (Bat (None, 32, 32, 128)       512       
_________________________________________________________________
activation_1445 (Activation) (None, 32, 32, 128)       0         
_________________________________________________________________
dropout_1445 (Dropout)       (None, 32, 32, 128)       0         
_________________________________________________________________
max_pooling2d_172 (MaxPoolin (None, 16, 16, 128)       0         
_________________________________________________________________
conv2d_985 (Conv2D)          (None, 16, 16, 32)        36896     
_________________________________________________________________
activation_1446 (Activation) (None, 16, 16, 32)        0         
_________________________________________________________________
dropout_1446 (Dropout)       (None, 16, 16, 32)        0         
_________________________________________________________________
conv2d_986 (Conv2D)          (None, 16, 16, 1024)      295936    
_________________________________________________________________
batch_normalization_702 (Bat (None, 16, 16, 1024)      4096      
_________________________________________________________________
activation_1447 (Activation) (None, 16, 16, 1024)      0         
_________________________________________________________________
dropout_1447 (Dropout)       (None, 16, 16, 1024)      0         
_________________________________________________________________
flatten_195 (Flatten)        (None, 262144)            0         
_________________________________________________________________
dense_656 (Dense)            (None, 256)               67109120  
_________________________________________________________________
activation_1448 (Activation) (None, 256)               0         
_________________________________________________________________
dropout_1448 (Dropout)       (None, 256)               0         
_________________________________________________________________
dense_657 (Dense)            (None, 512)               131584    
_________________________________________________________________
batch_normalization_703 (Bat (None, 512)               2048      
_________________________________________________________________
activation_1449 (Activation) (None, 512)               0         
_________________________________________________________________
dropout_1449 (Dropout)       (None, 512)               0         
_________________________________________________________________
dense_658 (Dense)            (None, 10)                5130      
=================================================================
Total params: 67,604,330
Trainable params: 67,601,002
Non-trainable params: 3,328
_________________________________________________________________
