Model: "sequential_222"
_________________________________________________________________
Layer (type)                 Output Shape              Param #   
=================================================================
conv2d_1089 (Conv2D)         (None, 32, 32, 16)        448       
_________________________________________________________________
activation_1599 (Activation) (None, 32, 32, 16)        0         
_________________________________________________________________
dropout_1599 (Dropout)       (None, 32, 32, 16)        0         
_________________________________________________________________
conv2d_1090 (Conv2D)         (None, 32, 32, 128)       18560     
_________________________________________________________________
batch_normalization_777 (Bat (None, 32, 32, 128)       512       
_________________________________________________________________
activation_1600 (Activation) (None, 32, 32, 128)       0         
_________________________________________________________________
dropout_1600 (Dropout)       (None, 32, 32, 128)       0         
_________________________________________________________________
max_pooling2d_199 (MaxPoolin (None, 16, 16, 128)       0         
_________________________________________________________________
conv2d_1091 (Conv2D)         (None, 16, 16, 32)        36896     
_________________________________________________________________
activation_1601 (Activation) (None, 16, 16, 32)        0         
_________________________________________________________________
dropout_1601 (Dropout)       (None, 16, 16, 32)        0         
_________________________________________________________________
conv2d_1092 (Conv2D)         (None, 16, 16, 1024)      295936    
_________________________________________________________________
batch_normalization_778 (Bat (None, 16, 16, 1024)      4096      
_________________________________________________________________
activation_1602 (Activation) (None, 16, 16, 1024)      0         
_________________________________________________________________
dropout_1602 (Dropout)       (None, 16, 16, 1024)      0         
_________________________________________________________________
flatten_222 (Flatten)        (None, 262144)            0         
_________________________________________________________________
dense_732 (Dense)            (None, 256)               67109120  
_________________________________________________________________
activation_1603 (Activation) (None, 256)               0         
_________________________________________________________________
dropout_1603 (Dropout)       (None, 256)               0         
_________________________________________________________________
dense_733 (Dense)            (None, 512)               131584    
_________________________________________________________________
batch_normalization_779 (Bat (None, 512)               2048      
_________________________________________________________________
activation_1604 (Activation) (None, 512)               0         
_________________________________________________________________
dropout_1604 (Dropout)       (None, 512)               0         
_________________________________________________________________
dense_734 (Dense)            (None, 10)                5130      
=================================================================
Total params: 67,604,330
Trainable params: 67,601,002
Non-trainable params: 3,328
_________________________________________________________________
