Model: "sequential_332"
_________________________________________________________________
Layer (type)                 Output Shape              Param #   
=================================================================
conv2d_1511 (Conv2D)         (None, 32, 32, 16)        448       
_________________________________________________________________
activation_2205 (Activation) (None, 32, 32, 16)        0         
_________________________________________________________________
dropout_2205 (Dropout)       (None, 32, 32, 16)        0         
_________________________________________________________________
conv2d_1512 (Conv2D)         (None, 32, 32, 128)       18560     
_________________________________________________________________
batch_normalization_1111 (Ba (None, 32, 32, 128)       512       
_________________________________________________________________
activation_2206 (Activation) (None, 32, 32, 128)       0         
_________________________________________________________________
dropout_2206 (Dropout)       (None, 32, 32, 128)       0         
_________________________________________________________________
conv2d_1513 (Conv2D)         (None, 32, 32, 1024)      1180672   
_________________________________________________________________
activation_2207 (Activation) (None, 32, 32, 1024)      0         
_________________________________________________________________
dropout_2207 (Dropout)       (None, 32, 32, 1024)      0         
_________________________________________________________________
max_pooling2d_308 (MaxPoolin (None, 16, 16, 1024)      0         
_________________________________________________________________
conv2d_1514 (Conv2D)         (None, 16, 16, 1024)      9438208   
_________________________________________________________________
batch_normalization_1112 (Ba (None, 16, 16, 1024)      4096      
_________________________________________________________________
activation_2208 (Activation) (None, 16, 16, 1024)      0         
_________________________________________________________________
dropout_2208 (Dropout)       (None, 16, 16, 1024)      0         
_________________________________________________________________
flatten_332 (Flatten)        (None, 262144)            0         
_________________________________________________________________
dense_1026 (Dense)           (None, 16)                4194320   
_________________________________________________________________
activation_2209 (Activation) (None, 16)                0         
_________________________________________________________________
dropout_2209 (Dropout)       (None, 16)                0         
_________________________________________________________________
dense_1027 (Dense)           (None, 512)               8704      
_________________________________________________________________
batch_normalization_1113 (Ba (None, 512)               2048      
_________________________________________________________________
activation_2210 (Activation) (None, 512)               0         
_________________________________________________________________
dropout_2210 (Dropout)       (None, 512)               0         
_________________________________________________________________
dense_1028 (Dense)           (None, 10)                5130      
=================================================================
Total params: 14,852,698
Trainable params: 14,849,370
Non-trainable params: 3,328
_________________________________________________________________
