Model: "sequential_33"
_________________________________________________________________
Layer (type)                 Output Shape              Param #   
=================================================================
conv2d_216 (Conv2D)          (None, 32, 32, 16)        448       
_________________________________________________________________
activation_302 (Activation)  (None, 32, 32, 16)        0         
_________________________________________________________________
dropout_302 (Dropout)        (None, 32, 32, 16)        0         
_________________________________________________________________
conv2d_217 (Conv2D)          (None, 32, 32, 128)       18560     
_________________________________________________________________
batch_normalization_157 (Bat (None, 32, 32, 128)       512       
_________________________________________________________________
activation_303 (Activation)  (None, 32, 32, 128)       0         
_________________________________________________________________
dropout_303 (Dropout)        (None, 32, 32, 128)       0         
_________________________________________________________________
max_pooling2d_42 (MaxPooling (None, 16, 16, 128)       0         
_________________________________________________________________
conv2d_218 (Conv2D)          (None, 16, 16, 32)        36896     
_________________________________________________________________
activation_304 (Activation)  (None, 16, 16, 32)        0         
_________________________________________________________________
dropout_304 (Dropout)        (None, 16, 16, 32)        0         
_________________________________________________________________
conv2d_219 (Conv2D)          (None, 16, 16, 512)       147968    
_________________________________________________________________
batch_normalization_158 (Bat (None, 16, 16, 512)       2048      
_________________________________________________________________
activation_305 (Activation)  (None, 16, 16, 512)       0         
_________________________________________________________________
dropout_305 (Dropout)        (None, 16, 16, 512)       0         
_________________________________________________________________
max_pooling2d_43 (MaxPooling (None, 8, 8, 512)         0         
_________________________________________________________________
conv2d_220 (Conv2D)          (None, 8, 8, 512)         2359808   
_________________________________________________________________
batch_normalization_159 (Bat (None, 8, 8, 512)         2048      
_________________________________________________________________
activation_306 (Activation)  (None, 8, 8, 512)         0         
_________________________________________________________________
dropout_306 (Dropout)        (None, 8, 8, 512)         0         
_________________________________________________________________
conv2d_221 (Conv2D)          (None, 8, 8, 128)         589952    
_________________________________________________________________
activation_307 (Activation)  (None, 8, 8, 128)         0         
_________________________________________________________________
dropout_307 (Dropout)        (None, 8, 8, 128)         0         
_________________________________________________________________
conv2d_222 (Conv2D)          (None, 8, 8, 64)          73792     
_________________________________________________________________
activation_308 (Activation)  (None, 8, 8, 64)          0         
_________________________________________________________________
dropout_308 (Dropout)        (None, 8, 8, 64)          0         
_________________________________________________________________
flatten_33 (Flatten)         (None, 4096)              0         
_________________________________________________________________
dense_119 (Dense)            (None, 512)               2097664   
_________________________________________________________________
activation_309 (Activation)  (None, 512)               0         
_________________________________________________________________
dropout_309 (Dropout)        (None, 512)               0         
_________________________________________________________________
dense_120 (Dense)            (None, 10)                5130      
=================================================================
Total params: 5,334,826
Trainable params: 5,332,522
Non-trainable params: 2,304
_________________________________________________________________
