Model: "sequential_328"
_________________________________________________________________
Layer (type)                 Output Shape              Param #   
=================================================================
conv2d_1495 (Conv2D)         (None, 32, 32, 16)        448       
_________________________________________________________________
activation_2184 (Activation) (None, 32, 32, 16)        0         
_________________________________________________________________
dropout_2184 (Dropout)       (None, 32, 32, 16)        0         
_________________________________________________________________
conv2d_1496 (Conv2D)         (None, 32, 32, 128)       18560     
_________________________________________________________________
activation_2185 (Activation) (None, 32, 32, 128)       0         
_________________________________________________________________
dropout_2185 (Dropout)       (None, 32, 32, 128)       0         
_________________________________________________________________
conv2d_1497 (Conv2D)         (None, 32, 32, 1024)      1180672   
_________________________________________________________________
activation_2186 (Activation) (None, 32, 32, 1024)      0         
_________________________________________________________________
dropout_2186 (Dropout)       (None, 32, 32, 1024)      0         
_________________________________________________________________
max_pooling2d_304 (MaxPoolin (None, 16, 16, 1024)      0         
_________________________________________________________________
conv2d_1498 (Conv2D)         (None, 16, 16, 1024)      9438208   
_________________________________________________________________
batch_normalization_1101 (Ba (None, 16, 16, 1024)      4096      
_________________________________________________________________
activation_2187 (Activation) (None, 16, 16, 1024)      0         
_________________________________________________________________
dropout_2187 (Dropout)       (None, 16, 16, 1024)      0         
_________________________________________________________________
flatten_328 (Flatten)        (None, 262144)            0         
_________________________________________________________________
dense_1017 (Dense)           (None, 512)               134218240 
_________________________________________________________________
batch_normalization_1102 (Ba (None, 512)               2048      
_________________________________________________________________
activation_2188 (Activation) (None, 512)               0         
_________________________________________________________________
dropout_2188 (Dropout)       (None, 512)               0         
_________________________________________________________________
dense_1018 (Dense)           (None, 10)                5130      
=================================================================
Total params: 144,867,402
Trainable params: 144,864,330
Non-trainable params: 3,072
_________________________________________________________________
