Model: "sequential_242"
_________________________________________________________________
Layer (type)                 Output Shape              Param #   
=================================================================
conv2d_1169 (Conv2D)         (None, 32, 32, 16)        448       
_________________________________________________________________
activation_1714 (Activation) (None, 32, 32, 16)        0         
_________________________________________________________________
dropout_1714 (Dropout)       (None, 32, 32, 16)        0         
_________________________________________________________________
conv2d_1170 (Conv2D)         (None, 32, 32, 8)         1160      
_________________________________________________________________
batch_normalization_841 (Bat (None, 32, 32, 8)         32        
_________________________________________________________________
activation_1715 (Activation) (None, 32, 32, 8)         0         
_________________________________________________________________
dropout_1715 (Dropout)       (None, 32, 32, 8)         0         
_________________________________________________________________
max_pooling2d_219 (MaxPoolin (None, 16, 16, 8)         0         
_________________________________________________________________
conv2d_1171 (Conv2D)         (None, 16, 16, 32)        2336      
_________________________________________________________________
activation_1716 (Activation) (None, 16, 16, 32)        0         
_________________________________________________________________
dropout_1716 (Dropout)       (None, 16, 16, 32)        0         
_________________________________________________________________
conv2d_1172 (Conv2D)         (None, 16, 16, 1024)      295936    
_________________________________________________________________
batch_normalization_842 (Bat (None, 16, 16, 1024)      4096      
_________________________________________________________________
activation_1717 (Activation) (None, 16, 16, 1024)      0         
_________________________________________________________________
dropout_1717 (Dropout)       (None, 16, 16, 1024)      0         
_________________________________________________________________
flatten_242 (Flatten)        (None, 262144)            0         
_________________________________________________________________
dense_787 (Dense)            (None, 256)               67109120  
_________________________________________________________________
activation_1718 (Activation) (None, 256)               0         
_________________________________________________________________
dropout_1718 (Dropout)       (None, 256)               0         
_________________________________________________________________
dense_788 (Dense)            (None, 512)               131584    
_________________________________________________________________
batch_normalization_843 (Bat (None, 512)               2048      
_________________________________________________________________
activation_1719 (Activation) (None, 512)               0         
_________________________________________________________________
dropout_1719 (Dropout)       (None, 512)               0         
_________________________________________________________________
dense_789 (Dense)            (None, 10)                5130      
=================================================================
Total params: 67,551,890
Trainable params: 67,548,802
Non-trainable params: 3,088
_________________________________________________________________
