Model: "sequential_128"
_________________________________________________________________
Layer (type)                 Output Shape              Param #   
=================================================================
conv2d_715 (Conv2D)          (None, 32, 32, 16)        448       
_________________________________________________________________
activation_1038 (Activation) (None, 32, 32, 16)        0         
_________________________________________________________________
dropout_1038 (Dropout)       (None, 32, 32, 16)        0         
_________________________________________________________________
conv2d_716 (Conv2D)          (None, 32, 32, 256)       37120     
_________________________________________________________________
batch_normalization_496 (Bat (None, 32, 32, 256)       1024      
_________________________________________________________________
activation_1039 (Activation) (None, 32, 32, 256)       0         
_________________________________________________________________
dropout_1039 (Dropout)       (None, 32, 32, 256)       0         
_________________________________________________________________
max_pooling2d_108 (MaxPoolin (None, 16, 16, 256)       0         
_________________________________________________________________
conv2d_717 (Conv2D)          (None, 16, 16, 32)        73760     
_________________________________________________________________
activation_1040 (Activation) (None, 16, 16, 32)        0         
_________________________________________________________________
dropout_1040 (Dropout)       (None, 16, 16, 32)        0         
_________________________________________________________________
conv2d_718 (Conv2D)          (None, 16, 16, 1024)      295936    
_________________________________________________________________
batch_normalization_497 (Bat (None, 16, 16, 1024)      4096      
_________________________________________________________________
activation_1041 (Activation) (None, 16, 16, 1024)      0         
_________________________________________________________________
dropout_1041 (Dropout)       (None, 16, 16, 1024)      0         
_________________________________________________________________
flatten_128 (Flatten)        (None, 262144)            0         
_________________________________________________________________
dense_451 (Dense)            (None, 256)               67109120  
_________________________________________________________________
activation_1042 (Activation) (None, 256)               0         
_________________________________________________________________
dropout_1042 (Dropout)       (None, 256)               0         
_________________________________________________________________
dense_452 (Dense)            (None, 512)               131584    
_________________________________________________________________
batch_normalization_498 (Bat (None, 512)               2048      
_________________________________________________________________
activation_1043 (Activation) (None, 512)               0         
_________________________________________________________________
dropout_1043 (Dropout)       (None, 512)               0         
_________________________________________________________________
dense_453 (Dense)            (None, 10)                5130      
=================================================================
Total params: 67,660,266
Trainable params: 67,656,682
Non-trainable params: 3,584
_________________________________________________________________
