Model: "sequential_286"
_________________________________________________________________
Layer (type)                 Output Shape              Param #   
=================================================================
conv2d_1334 (Conv2D)         (None, 32, 32, 16)        448       
_________________________________________________________________
activation_1962 (Activation) (None, 32, 32, 16)        0         
_________________________________________________________________
dropout_1962 (Dropout)       (None, 32, 32, 16)        0         
_________________________________________________________________
conv2d_1335 (Conv2D)         (None, 32, 32, 8)         1160      
_________________________________________________________________
batch_normalization_985 (Bat (None, 32, 32, 8)         32        
_________________________________________________________________
activation_1963 (Activation) (None, 32, 32, 8)         0         
_________________________________________________________________
dropout_1963 (Dropout)       (None, 32, 32, 8)         0         
_________________________________________________________________
max_pooling2d_259 (MaxPoolin (None, 16, 16, 8)         0         
_________________________________________________________________
conv2d_1336 (Conv2D)         (None, 16, 16, 32)        2336      
_________________________________________________________________
activation_1964 (Activation) (None, 16, 16, 32)        0         
_________________________________________________________________
dropout_1964 (Dropout)       (None, 16, 16, 32)        0         
_________________________________________________________________
conv2d_1337 (Conv2D)         (None, 16, 16, 1024)      295936    
_________________________________________________________________
batch_normalization_986 (Bat (None, 16, 16, 1024)      4096      
_________________________________________________________________
activation_1965 (Activation) (None, 16, 16, 1024)      0         
_________________________________________________________________
dropout_1965 (Dropout)       (None, 16, 16, 1024)      0         
_________________________________________________________________
flatten_286 (Flatten)        (None, 262144)            0         
_________________________________________________________________
dense_914 (Dense)            (None, 256)               67109120  
_________________________________________________________________
activation_1966 (Activation) (None, 256)               0         
_________________________________________________________________
dropout_1966 (Dropout)       (None, 256)               0         
_________________________________________________________________
dense_915 (Dense)            (None, 512)               131584    
_________________________________________________________________
batch_normalization_987 (Bat (None, 512)               2048      
_________________________________________________________________
activation_1967 (Activation) (None, 512)               0         
_________________________________________________________________
dropout_1967 (Dropout)       (None, 512)               0         
_________________________________________________________________
dense_916 (Dense)            (None, 10)                5130      
=================================================================
Total params: 67,551,890
Trainable params: 67,548,802
Non-trainable params: 3,088
_________________________________________________________________
