Model: "sequential_146"
_________________________________________________________________
Layer (type)                 Output Shape              Param #   
=================================================================
conv2d_788 (Conv2D)          (None, 32, 32, 16)        448       
_________________________________________________________________
activation_1151 (Activation) (None, 32, 32, 16)        0         
_________________________________________________________________
dropout_1151 (Dropout)       (None, 32, 32, 16)        0         
_________________________________________________________________
conv2d_789 (Conv2D)          (None, 32, 32, 128)       18560     
_________________________________________________________________
batch_normalization_555 (Bat (None, 32, 32, 128)       512       
_________________________________________________________________
activation_1152 (Activation) (None, 32, 32, 128)       0         
_________________________________________________________________
dropout_1152 (Dropout)       (None, 32, 32, 128)       0         
_________________________________________________________________
max_pooling2d_123 (MaxPoolin (None, 16, 16, 128)       0         
_________________________________________________________________
conv2d_790 (Conv2D)          (None, 16, 16, 32)        36896     
_________________________________________________________________
activation_1153 (Activation) (None, 16, 16, 32)        0         
_________________________________________________________________
dropout_1153 (Dropout)       (None, 16, 16, 32)        0         
_________________________________________________________________
conv2d_791 (Conv2D)          (None, 16, 16, 128)       36992     
_________________________________________________________________
batch_normalization_556 (Bat (None, 16, 16, 128)       512       
_________________________________________________________________
activation_1154 (Activation) (None, 16, 16, 128)       0         
_________________________________________________________________
dropout_1154 (Dropout)       (None, 16, 16, 128)       0         
_________________________________________________________________
flatten_146 (Flatten)        (None, 32768)             0         
_________________________________________________________________
dense_509 (Dense)            (None, 16)                524304    
_________________________________________________________________
activation_1155 (Activation) (None, 16)                0         
_________________________________________________________________
dropout_1155 (Dropout)       (None, 16)                0         
_________________________________________________________________
dense_510 (Dense)            (None, 512)               8704      
_________________________________________________________________
batch_normalization_557 (Bat (None, 512)               2048      
_________________________________________________________________
activation_1156 (Activation) (None, 512)               0         
_________________________________________________________________
dropout_1156 (Dropout)       (None, 512)               0         
_________________________________________________________________
dense_511 (Dense)            (None, 10)                5130      
=================================================================
Total params: 634,106
Trainable params: 632,570
Non-trainable params: 1,536
_________________________________________________________________
