Model: "sequential_279"
_________________________________________________________________
Layer (type)                 Output Shape              Param #   
=================================================================
conv2d_1307 (Conv2D)         (None, 32, 32, 16)        448       
_________________________________________________________________
activation_1923 (Activation) (None, 32, 32, 16)        0         
_________________________________________________________________
dropout_1923 (Dropout)       (None, 32, 32, 16)        0         
_________________________________________________________________
conv2d_1308 (Conv2D)         (None, 32, 32, 8)         1160      
_________________________________________________________________
batch_normalization_965 (Bat (None, 32, 32, 8)         32        
_________________________________________________________________
activation_1924 (Activation) (None, 32, 32, 8)         0         
_________________________________________________________________
dropout_1924 (Dropout)       (None, 32, 32, 8)         0         
_________________________________________________________________
max_pooling2d_252 (MaxPoolin (None, 16, 16, 8)         0         
_________________________________________________________________
conv2d_1309 (Conv2D)         (None, 16, 16, 32)        2336      
_________________________________________________________________
activation_1925 (Activation) (None, 16, 16, 32)        0         
_________________________________________________________________
dropout_1925 (Dropout)       (None, 16, 16, 32)        0         
_________________________________________________________________
conv2d_1310 (Conv2D)         (None, 16, 16, 1024)      295936    
_________________________________________________________________
batch_normalization_966 (Bat (None, 16, 16, 1024)      4096      
_________________________________________________________________
activation_1926 (Activation) (None, 16, 16, 1024)      0         
_________________________________________________________________
dropout_1926 (Dropout)       (None, 16, 16, 1024)      0         
_________________________________________________________________
flatten_279 (Flatten)        (None, 262144)            0         
_________________________________________________________________
dense_895 (Dense)            (None, 256)               67109120  
_________________________________________________________________
activation_1927 (Activation) (None, 256)               0         
_________________________________________________________________
dropout_1927 (Dropout)       (None, 256)               0         
_________________________________________________________________
dense_896 (Dense)            (None, 512)               131584    
_________________________________________________________________
batch_normalization_967 (Bat (None, 512)               2048      
_________________________________________________________________
activation_1928 (Activation) (None, 512)               0         
_________________________________________________________________
dropout_1928 (Dropout)       (None, 512)               0         
_________________________________________________________________
dense_897 (Dense)            (None, 10)                5130      
=================================================================
Total params: 67,551,890
Trainable params: 67,548,802
Non-trainable params: 3,088
_________________________________________________________________
