Model: "sequential_232"
_________________________________________________________________
Layer (type)                 Output Shape              Param #   
=================================================================
conv2d_1129 (Conv2D)         (None, 32, 32, 16)        448       
_________________________________________________________________
activation_1656 (Activation) (None, 32, 32, 16)        0         
_________________________________________________________________
dropout_1656 (Dropout)       (None, 32, 32, 16)        0         
_________________________________________________________________
conv2d_1130 (Conv2D)         (None, 32, 32, 128)       18560     
_________________________________________________________________
batch_normalization_807 (Bat (None, 32, 32, 128)       512       
_________________________________________________________________
activation_1657 (Activation) (None, 32, 32, 128)       0         
_________________________________________________________________
dropout_1657 (Dropout)       (None, 32, 32, 128)       0         
_________________________________________________________________
max_pooling2d_209 (MaxPoolin (None, 16, 16, 128)       0         
_________________________________________________________________
conv2d_1131 (Conv2D)         (None, 16, 16, 32)        36896     
_________________________________________________________________
activation_1658 (Activation) (None, 16, 16, 32)        0         
_________________________________________________________________
dropout_1658 (Dropout)       (None, 16, 16, 32)        0         
_________________________________________________________________
conv2d_1132 (Conv2D)         (None, 16, 16, 1024)      295936    
_________________________________________________________________
batch_normalization_808 (Bat (None, 16, 16, 1024)      4096      
_________________________________________________________________
activation_1659 (Activation) (None, 16, 16, 1024)      0         
_________________________________________________________________
dropout_1659 (Dropout)       (None, 16, 16, 1024)      0         
_________________________________________________________________
flatten_232 (Flatten)        (None, 262144)            0         
_________________________________________________________________
dense_759 (Dense)            (None, 512)               134218240 
_________________________________________________________________
batch_normalization_809 (Bat (None, 512)               2048      
_________________________________________________________________
activation_1660 (Activation) (None, 512)               0         
_________________________________________________________________
dropout_1660 (Dropout)       (None, 512)               0         
_________________________________________________________________
dense_760 (Dense)            (None, 10)                5130      
=================================================================
Total params: 134,581,866
Trainable params: 134,578,538
Non-trainable params: 3,328
_________________________________________________________________
