Model: "sequential_119"
_________________________________________________________________
Layer (type)                 Output Shape              Param #   
=================================================================
conv2d_677 (Conv2D)          (None, 32, 32, 1024)      28672     
_________________________________________________________________
activation_980 (Activation)  (None, 32, 32, 1024)      0         
_________________________________________________________________
dropout_980 (Dropout)        (None, 32, 32, 1024)      0         
_________________________________________________________________
conv2d_678 (Conv2D)          (None, 32, 32, 16)        147472    
_________________________________________________________________
batch_normalization_468 (Bat (None, 32, 32, 16)        64        
_________________________________________________________________
activation_981 (Activation)  (None, 32, 32, 16)        0         
_________________________________________________________________
dropout_981 (Dropout)        (None, 32, 32, 16)        0         
_________________________________________________________________
conv2d_679 (Conv2D)          (None, 32, 32, 32)        4640      
_________________________________________________________________
activation_982 (Activation)  (None, 32, 32, 32)        0         
_________________________________________________________________
dropout_982 (Dropout)        (None, 32, 32, 32)        0         
_________________________________________________________________
conv2d_680 (Conv2D)          (None, 32, 32, 64)        18496     
_________________________________________________________________
batch_normalization_469 (Bat (None, 32, 32, 64)        256       
_________________________________________________________________
activation_983 (Activation)  (None, 32, 32, 64)        0         
_________________________________________________________________
dropout_983 (Dropout)        (None, 32, 32, 64)        0         
_________________________________________________________________
flatten_119 (Flatten)        (None, 65536)             0         
_________________________________________________________________
dense_422 (Dense)            (None, 16)                1048592   
_________________________________________________________________
activation_984 (Activation)  (None, 16)                0         
_________________________________________________________________
dropout_984 (Dropout)        (None, 16)                0         
_________________________________________________________________
dense_423 (Dense)            (None, 512)               8704      
_________________________________________________________________
batch_normalization_470 (Bat (None, 512)               2048      
_________________________________________________________________
activation_985 (Activation)  (None, 512)               0         
_________________________________________________________________
dropout_985 (Dropout)        (None, 512)               0         
_________________________________________________________________
dense_424 (Dense)            (None, 10)                5130      
=================================================================
Total params: 1,264,074
Trainable params: 1,262,890
Non-trainable params: 1,184
_________________________________________________________________
