Model: "sequential_289"
_________________________________________________________________
Layer (type)                 Output Shape              Param #   
=================================================================
conv2d_1345 (Conv2D)         (None, 32, 32, 16)        448       
_________________________________________________________________
activation_1978 (Activation) (None, 32, 32, 16)        0         
_________________________________________________________________
dropout_1978 (Dropout)       (None, 32, 32, 16)        0         
_________________________________________________________________
conv2d_1346 (Conv2D)         (None, 32, 32, 128)       18560     
_________________________________________________________________
batch_normalization_992 (Bat (None, 32, 32, 128)       512       
_________________________________________________________________
activation_1979 (Activation) (None, 32, 32, 128)       0         
_________________________________________________________________
dropout_1979 (Dropout)       (None, 32, 32, 128)       0         
_________________________________________________________________
max_pooling2d_262 (MaxPoolin (None, 16, 16, 128)       0         
_________________________________________________________________
conv2d_1347 (Conv2D)         (None, 16, 16, 32)        36896     
_________________________________________________________________
activation_1980 (Activation) (None, 16, 16, 32)        0         
_________________________________________________________________
dropout_1980 (Dropout)       (None, 16, 16, 32)        0         
_________________________________________________________________
flatten_289 (Flatten)        (None, 8192)              0         
_________________________________________________________________
dense_922 (Dense)            (None, 256)               2097408   
_________________________________________________________________
activation_1981 (Activation) (None, 256)               0         
_________________________________________________________________
dropout_1981 (Dropout)       (None, 256)               0         
_________________________________________________________________
dense_923 (Dense)            (None, 512)               131584    
_________________________________________________________________
batch_normalization_993 (Bat (None, 512)               2048      
_________________________________________________________________
activation_1982 (Activation) (None, 512)               0         
_________________________________________________________________
dropout_1982 (Dropout)       (None, 512)               0         
_________________________________________________________________
dense_924 (Dense)            (None, 10)                5130      
=================================================================
Total params: 2,292,586
Trainable params: 2,291,306
Non-trainable params: 1,280
_________________________________________________________________
