Model: "sequential_264"
_________________________________________________________________
Layer (type)                 Output Shape              Param #   
=================================================================
conv2d_1253 (Conv2D)         (None, 32, 32, 16)        448       
_________________________________________________________________
activation_1840 (Activation) (None, 32, 32, 16)        0         
_________________________________________________________________
dropout_1840 (Dropout)       (None, 32, 32, 16)        0         
_________________________________________________________________
conv2d_1254 (Conv2D)         (None, 32, 32, 128)       18560     
_________________________________________________________________
batch_normalization_919 (Bat (None, 32, 32, 128)       512       
_________________________________________________________________
activation_1841 (Activation) (None, 32, 32, 128)       0         
_________________________________________________________________
dropout_1841 (Dropout)       (None, 32, 32, 128)       0         
_________________________________________________________________
max_pooling2d_241 (MaxPoolin (None, 16, 16, 128)       0         
_________________________________________________________________
conv2d_1255 (Conv2D)         (None, 16, 16, 32)        36896     
_________________________________________________________________
activation_1842 (Activation) (None, 16, 16, 32)        0         
_________________________________________________________________
dropout_1842 (Dropout)       (None, 16, 16, 32)        0         
_________________________________________________________________
flatten_264 (Flatten)        (None, 8192)              0         
_________________________________________________________________
dense_851 (Dense)            (None, 256)               2097408   
_________________________________________________________________
batch_normalization_920 (Bat (None, 256)               1024      
_________________________________________________________________
activation_1843 (Activation) (None, 256)               0         
_________________________________________________________________
dropout_1843 (Dropout)       (None, 256)               0         
_________________________________________________________________
dense_852 (Dense)            (None, 512)               131584    
_________________________________________________________________
batch_normalization_921 (Bat (None, 512)               2048      
_________________________________________________________________
activation_1844 (Activation) (None, 512)               0         
_________________________________________________________________
dropout_1844 (Dropout)       (None, 512)               0         
_________________________________________________________________
dense_853 (Dense)            (None, 10)                5130      
=================================================================
Total params: 2,293,610
Trainable params: 2,291,818
Non-trainable params: 1,792
_________________________________________________________________
