Model: "sequential_23"
_________________________________________________________________
Layer (type)                 Output Shape              Param #   
=================================================================
conv2d_158 (Conv2D)          (None, 32, 32, 16)        448       
_________________________________________________________________
activation_221 (Activation)  (None, 32, 32, 16)        0         
_________________________________________________________________
dropout_221 (Dropout)        (None, 32, 32, 16)        0         
_________________________________________________________________
conv2d_159 (Conv2D)          (None, 32, 32, 128)       18560     
_________________________________________________________________
batch_normalization_117 (Bat (None, 32, 32, 128)       512       
_________________________________________________________________
activation_222 (Activation)  (None, 32, 32, 128)       0         
_________________________________________________________________
dropout_222 (Dropout)        (None, 32, 32, 128)       0         
_________________________________________________________________
max_pooling2d_32 (MaxPooling (None, 16, 16, 128)       0         
_________________________________________________________________
conv2d_160 (Conv2D)          (None, 16, 16, 32)        36896     
_________________________________________________________________
activation_223 (Activation)  (None, 16, 16, 32)        0         
_________________________________________________________________
dropout_223 (Dropout)        (None, 16, 16, 32)        0         
_________________________________________________________________
conv2d_161 (Conv2D)          (None, 16, 16, 512)       147968    
_________________________________________________________________
batch_normalization_118 (Bat (None, 16, 16, 512)       2048      
_________________________________________________________________
activation_224 (Activation)  (None, 16, 16, 512)       0         
_________________________________________________________________
dropout_224 (Dropout)        (None, 16, 16, 512)       0         
_________________________________________________________________
conv2d_162 (Conv2D)          (None, 16, 16, 64)        294976    
_________________________________________________________________
activation_225 (Activation)  (None, 16, 16, 64)        0         
_________________________________________________________________
dropout_225 (Dropout)        (None, 16, 16, 64)        0         
_________________________________________________________________
conv2d_163 (Conv2D)          (None, 16, 16, 128)       73856     
_________________________________________________________________
batch_normalization_119 (Bat (None, 16, 16, 128)       512       
_________________________________________________________________
activation_226 (Activation)  (None, 16, 16, 128)       0         
_________________________________________________________________
dropout_226 (Dropout)        (None, 16, 16, 128)       0         
_________________________________________________________________
conv2d_164 (Conv2D)          (None, 16, 16, 32)        36896     
_________________________________________________________________
batch_normalization_120 (Bat (None, 16, 16, 32)        128       
_________________________________________________________________
activation_227 (Activation)  (None, 16, 16, 32)        0         
_________________________________________________________________
dropout_227 (Dropout)        (None, 16, 16, 32)        0         
_________________________________________________________________
flatten_23 (Flatten)         (None, 8192)              0         
_________________________________________________________________
dense_86 (Dense)             (None, 32)                262176    
_________________________________________________________________
batch_normalization_121 (Bat (None, 32)                128       
_________________________________________________________________
activation_228 (Activation)  (None, 32)                0         
_________________________________________________________________
dropout_228 (Dropout)        (None, 32)                0         
_________________________________________________________________
dense_87 (Dense)             (None, 128)               4224      
_________________________________________________________________
activation_229 (Activation)  (None, 128)               0         
_________________________________________________________________
dropout_229 (Dropout)        (None, 128)               0         
_________________________________________________________________
dense_88 (Dense)             (None, 64)                8256      
_________________________________________________________________
batch_normalization_122 (Bat (None, 64)                256       
_________________________________________________________________
activation_230 (Activation)  (None, 64)                0         
_________________________________________________________________
dropout_230 (Dropout)        (None, 64)                0         
_________________________________________________________________
dense_89 (Dense)             (None, 10)                650       
=================================================================
Total params: 888,490
Trainable params: 886,698
Non-trainable params: 1,792
_________________________________________________________________
