Model: "sequential_311"
_________________________________________________________________
Layer (type)                 Output Shape              Param #   
=================================================================
conv2d_1428 (Conv2D)         (None, 32, 32, 16)        448       
_________________________________________________________________
activation_2092 (Activation) (None, 32, 32, 16)        0         
_________________________________________________________________
dropout_2092 (Dropout)       (None, 32, 32, 16)        0         
_________________________________________________________________
conv2d_1429 (Conv2D)         (None, 32, 32, 128)       18560     
_________________________________________________________________
batch_normalization_1052 (Ba (None, 32, 32, 128)       512       
_________________________________________________________________
activation_2093 (Activation) (None, 32, 32, 128)       0         
_________________________________________________________________
dropout_2093 (Dropout)       (None, 32, 32, 128)       0         
_________________________________________________________________
conv2d_1430 (Conv2D)         (None, 32, 32, 1024)      1180672   
_________________________________________________________________
activation_2094 (Activation) (None, 32, 32, 1024)      0         
_________________________________________________________________
dropout_2094 (Dropout)       (None, 32, 32, 1024)      0         
_________________________________________________________________
max_pooling2d_285 (MaxPoolin (None, 16, 16, 1024)      0         
_________________________________________________________________
conv2d_1431 (Conv2D)         (None, 16, 16, 1024)      9438208   
_________________________________________________________________
batch_normalization_1053 (Ba (None, 16, 16, 1024)      4096      
_________________________________________________________________
activation_2095 (Activation) (None, 16, 16, 1024)      0         
_________________________________________________________________
dropout_2095 (Dropout)       (None, 16, 16, 1024)      0         
_________________________________________________________________
flatten_311 (Flatten)        (None, 262144)            0         
_________________________________________________________________
dense_975 (Dense)            (None, 16)                4194320   
_________________________________________________________________
activation_2096 (Activation) (None, 16)                0         
_________________________________________________________________
dropout_2096 (Dropout)       (None, 16)                0         
_________________________________________________________________
dense_976 (Dense)            (None, 512)               8704      
_________________________________________________________________
batch_normalization_1054 (Ba (None, 512)               2048      
_________________________________________________________________
activation_2097 (Activation) (None, 512)               0         
_________________________________________________________________
dropout_2097 (Dropout)       (None, 512)               0         
_________________________________________________________________
dense_977 (Dense)            (None, 10)                5130      
=================================================================
Total params: 14,852,698
Trainable params: 14,849,370
Non-trainable params: 3,328
_________________________________________________________________
