Model: "sequential_323"
_________________________________________________________________
Layer (type)                 Output Shape              Param #   
=================================================================
conv2d_1475 (Conv2D)         (None, 32, 32, 16)        448       
_________________________________________________________________
activation_2157 (Activation) (None, 32, 32, 16)        0         
_________________________________________________________________
dropout_2157 (Dropout)       (None, 32, 32, 16)        0         
_________________________________________________________________
conv2d_1476 (Conv2D)         (None, 32, 32, 128)       18560     
_________________________________________________________________
batch_normalization_1088 (Ba (None, 32, 32, 128)       512       
_________________________________________________________________
activation_2158 (Activation) (None, 32, 32, 128)       0         
_________________________________________________________________
dropout_2158 (Dropout)       (None, 32, 32, 128)       0         
_________________________________________________________________
conv2d_1477 (Conv2D)         (None, 32, 32, 256)       295168    
_________________________________________________________________
activation_2159 (Activation) (None, 32, 32, 256)       0         
_________________________________________________________________
dropout_2159 (Dropout)       (None, 32, 32, 256)       0         
_________________________________________________________________
conv2d_1478 (Conv2D)         (None, 32, 32, 1024)      2360320   
_________________________________________________________________
batch_normalization_1089 (Ba (None, 32, 32, 1024)      4096      
_________________________________________________________________
activation_2160 (Activation) (None, 32, 32, 1024)      0         
_________________________________________________________________
dropout_2160 (Dropout)       (None, 32, 32, 1024)      0         
_________________________________________________________________
flatten_323 (Flatten)        (None, 1048576)           0         
_________________________________________________________________
dense_1005 (Dense)           (None, 512)               536871424 
_________________________________________________________________
batch_normalization_1090 (Ba (None, 512)               2048      
_________________________________________________________________
activation_2161 (Activation) (None, 512)               0         
_________________________________________________________________
dropout_2161 (Dropout)       (None, 512)               0         
_________________________________________________________________
dense_1006 (Dense)           (None, 10)                5130      
=================================================================
Total params: 539,557,706
Trainable params: 539,554,378
Non-trainable params: 3,328
_________________________________________________________________
