Model: "sequential_219"
_________________________________________________________________
Layer (type)                 Output Shape              Param #   
=================================================================
conv2d_1077 (Conv2D)         (None, 32, 32, 16)        448       
_________________________________________________________________
activation_1582 (Activation) (None, 32, 32, 16)        0         
_________________________________________________________________
dropout_1582 (Dropout)       (None, 32, 32, 16)        0         
_________________________________________________________________
conv2d_1078 (Conv2D)         (None, 32, 32, 128)       18560     
_________________________________________________________________
batch_normalization_768 (Bat (None, 32, 32, 128)       512       
_________________________________________________________________
activation_1583 (Activation) (None, 32, 32, 128)       0         
_________________________________________________________________
dropout_1583 (Dropout)       (None, 32, 32, 128)       0         
_________________________________________________________________
max_pooling2d_196 (MaxPoolin (None, 16, 16, 128)       0         
_________________________________________________________________
conv2d_1079 (Conv2D)         (None, 16, 16, 32)        36896     
_________________________________________________________________
activation_1584 (Activation) (None, 16, 16, 32)        0         
_________________________________________________________________
dropout_1584 (Dropout)       (None, 16, 16, 32)        0         
_________________________________________________________________
conv2d_1080 (Conv2D)         (None, 16, 16, 1024)      295936    
_________________________________________________________________
batch_normalization_769 (Bat (None, 16, 16, 1024)      4096      
_________________________________________________________________
activation_1585 (Activation) (None, 16, 16, 1024)      0         
_________________________________________________________________
dropout_1585 (Dropout)       (None, 16, 16, 1024)      0         
_________________________________________________________________
flatten_219 (Flatten)        (None, 262144)            0         
_________________________________________________________________
dense_724 (Dense)            (None, 256)               67109120  
_________________________________________________________________
activation_1586 (Activation) (None, 256)               0         
_________________________________________________________________
dropout_1586 (Dropout)       (None, 256)               0         
_________________________________________________________________
dense_725 (Dense)            (None, 10)                2570      
=================================================================
Total params: 67,468,138
Trainable params: 67,465,834
Non-trainable params: 2,304
_________________________________________________________________
