Model: "sequential_106"
_________________________________________________________________
Layer (type)                 Output Shape              Param #   
=================================================================
conv2d_618 (Conv2D)          (None, 32, 32, 16)        448       
_________________________________________________________________
activation_890 (Activation)  (None, 32, 32, 16)        0         
_________________________________________________________________
dropout_890 (Dropout)        (None, 32, 32, 16)        0         
_________________________________________________________________
conv2d_619 (Conv2D)          (None, 32, 32, 16)        2320      
_________________________________________________________________
batch_normalization_424 (Bat (None, 32, 32, 16)        64        
_________________________________________________________________
activation_891 (Activation)  (None, 32, 32, 16)        0         
_________________________________________________________________
dropout_891 (Dropout)        (None, 32, 32, 16)        0         
_________________________________________________________________
conv2d_620 (Conv2D)          (None, 32, 32, 32)        4640      
_________________________________________________________________
activation_892 (Activation)  (None, 32, 32, 32)        0         
_________________________________________________________________
dropout_892 (Dropout)        (None, 32, 32, 32)        0         
_________________________________________________________________
conv2d_621 (Conv2D)          (None, 32, 32, 16)        4624      
_________________________________________________________________
activation_893 (Activation)  (None, 32, 32, 16)        0         
_________________________________________________________________
dropout_893 (Dropout)        (None, 32, 32, 16)        0         
_________________________________________________________________
conv2d_622 (Conv2D)          (None, 32, 32, 64)        9280      
_________________________________________________________________
activation_894 (Activation)  (None, 32, 32, 64)        0         
_________________________________________________________________
dropout_894 (Dropout)        (None, 32, 32, 64)        0         
_________________________________________________________________
conv2d_623 (Conv2D)          (None, 32, 32, 32)        18464     
_________________________________________________________________
batch_normalization_425 (Bat (None, 32, 32, 32)        128       
_________________________________________________________________
activation_895 (Activation)  (None, 32, 32, 32)        0         
_________________________________________________________________
dropout_895 (Dropout)        (None, 32, 32, 32)        0         
_________________________________________________________________
flatten_106 (Flatten)        (None, 32768)             0         
_________________________________________________________________
dense_378 (Dense)            (None, 32)                1048608   
_________________________________________________________________
batch_normalization_426 (Bat (None, 32)                128       
_________________________________________________________________
activation_896 (Activation)  (None, 32)                0         
_________________________________________________________________
dropout_896 (Dropout)        (None, 32)                0         
_________________________________________________________________
dense_379 (Dense)            (None, 512)               16896     
_________________________________________________________________
activation_897 (Activation)  (None, 512)               0         
_________________________________________________________________
dropout_897 (Dropout)        (None, 512)               0         
_________________________________________________________________
dense_380 (Dense)            (None, 512)               262656    
_________________________________________________________________
batch_normalization_427 (Bat (None, 512)               2048      
_________________________________________________________________
activation_898 (Activation)  (None, 512)               0         
_________________________________________________________________
dropout_898 (Dropout)        (None, 512)               0         
_________________________________________________________________
dense_381 (Dense)            (None, 10)                5130      
=================================================================
Total params: 1,375,434
Trainable params: 1,374,250
Non-trainable params: 1,184
_________________________________________________________________
