Model: "sequential_105"
_________________________________________________________________
Layer (type)                 Output Shape              Param #   
=================================================================
conv2d_613 (Conv2D)          (None, 32, 32, 16)        448       
_________________________________________________________________
activation_882 (Activation)  (None, 32, 32, 16)        0         
_________________________________________________________________
dropout_882 (Dropout)        (None, 32, 32, 16)        0         
_________________________________________________________________
conv2d_614 (Conv2D)          (None, 32, 32, 16)        2320      
_________________________________________________________________
batch_normalization_420 (Bat (None, 32, 32, 16)        64        
_________________________________________________________________
activation_883 (Activation)  (None, 32, 32, 16)        0         
_________________________________________________________________
dropout_883 (Dropout)        (None, 32, 32, 16)        0         
_________________________________________________________________
conv2d_615 (Conv2D)          (None, 32, 32, 32)        4640      
_________________________________________________________________
activation_884 (Activation)  (None, 32, 32, 32)        0         
_________________________________________________________________
dropout_884 (Dropout)        (None, 32, 32, 32)        0         
_________________________________________________________________
conv2d_616 (Conv2D)          (None, 32, 32, 16)        4624      
_________________________________________________________________
activation_885 (Activation)  (None, 32, 32, 16)        0         
_________________________________________________________________
dropout_885 (Dropout)        (None, 32, 32, 16)        0         
_________________________________________________________________
conv2d_617 (Conv2D)          (None, 32, 32, 1024)      148480    
_________________________________________________________________
batch_normalization_421 (Bat (None, 32, 32, 1024)      4096      
_________________________________________________________________
activation_886 (Activation)  (None, 32, 32, 1024)      0         
_________________________________________________________________
dropout_886 (Dropout)        (None, 32, 32, 1024)      0         
_________________________________________________________________
flatten_105 (Flatten)        (None, 1048576)           0         
_________________________________________________________________
dense_374 (Dense)            (None, 256)               268435712 
_________________________________________________________________
activation_887 (Activation)  (None, 256)               0         
_________________________________________________________________
dropout_887 (Dropout)        (None, 256)               0         
_________________________________________________________________
dense_375 (Dense)            (None, 512)               131584    
_________________________________________________________________
batch_normalization_422 (Bat (None, 512)               2048      
_________________________________________________________________
activation_888 (Activation)  (None, 512)               0         
_________________________________________________________________
dropout_888 (Dropout)        (None, 512)               0         
_________________________________________________________________
dense_376 (Dense)            (None, 32)                16416     
_________________________________________________________________
batch_normalization_423 (Bat (None, 32)                128       
_________________________________________________________________
activation_889 (Activation)  (None, 32)                0         
_________________________________________________________________
dropout_889 (Dropout)        (None, 32)                0         
_________________________________________________________________
dense_377 (Dense)            (None, 10)                330       
=================================================================
Total params: 268,750,890
Trainable params: 268,747,722
Non-trainable params: 3,168
_________________________________________________________________
