Model: "sequential_84"
_________________________________________________________________
Layer (type)                 Output Shape              Param #   
=================================================================
conv2d_518 (Conv2D)          (None, 32, 32, 16)        448       
_________________________________________________________________
activation_730 (Activation)  (None, 32, 32, 16)        0         
_________________________________________________________________
dropout_730 (Dropout)        (None, 32, 32, 16)        0         
_________________________________________________________________
conv2d_519 (Conv2D)          (None, 32, 32, 128)       18560     
_________________________________________________________________
batch_normalization_349 (Bat (None, 32, 32, 128)       512       
_________________________________________________________________
activation_731 (Activation)  (None, 32, 32, 128)       0         
_________________________________________________________________
dropout_731 (Dropout)        (None, 32, 32, 128)       0         
_________________________________________________________________
max_pooling2d_88 (MaxPooling (None, 16, 16, 128)       0         
_________________________________________________________________
conv2d_520 (Conv2D)          (None, 16, 16, 32)        36896     
_________________________________________________________________
activation_732 (Activation)  (None, 16, 16, 32)        0         
_________________________________________________________________
dropout_732 (Dropout)        (None, 16, 16, 32)        0         
_________________________________________________________________
conv2d_521 (Conv2D)          (None, 16, 16, 1024)      295936    
_________________________________________________________________
batch_normalization_350 (Bat (None, 16, 16, 1024)      4096      
_________________________________________________________________
activation_733 (Activation)  (None, 16, 16, 1024)      0         
_________________________________________________________________
dropout_733 (Dropout)        (None, 16, 16, 1024)      0         
_________________________________________________________________
flatten_84 (Flatten)         (None, 262144)            0         
_________________________________________________________________
dense_296 (Dense)            (None, 256)               67109120  
_________________________________________________________________
activation_734 (Activation)  (None, 256)               0         
_________________________________________________________________
dropout_734 (Dropout)        (None, 256)               0         
_________________________________________________________________
dense_297 (Dense)            (None, 512)               131584    
_________________________________________________________________
batch_normalization_351 (Bat (None, 512)               2048      
_________________________________________________________________
activation_735 (Activation)  (None, 512)               0         
_________________________________________________________________
dropout_735 (Dropout)        (None, 512)               0         
_________________________________________________________________
dense_298 (Dense)            (None, 32)                16416     
_________________________________________________________________
batch_normalization_352 (Bat (None, 32)                128       
_________________________________________________________________
activation_736 (Activation)  (None, 32)                0         
_________________________________________________________________
dropout_736 (Dropout)        (None, 32)                0         
_________________________________________________________________
dense_299 (Dense)            (None, 10)                330       
=================================================================
Total params: 67,616,074
Trainable params: 67,612,682
Non-trainable params: 3,392
_________________________________________________________________
