Model: "sequential_384"
_________________________________________________________________
Layer (type)                 Output Shape              Param #   
=================================================================
conv2d_1716 (Conv2D)         (None, 32, 32, 16)        448       
_________________________________________________________________
activation_2500 (Activation) (None, 32, 32, 16)        0         
_________________________________________________________________
dropout_2500 (Dropout)       (None, 32, 32, 16)        0         
_________________________________________________________________
conv2d_1717 (Conv2D)         (None, 32, 32, 128)       18560     
_________________________________________________________________
activation_2501 (Activation) (None, 32, 32, 128)       0         
_________________________________________________________________
dropout_2501 (Dropout)       (None, 32, 32, 128)       0         
_________________________________________________________________
conv2d_1718 (Conv2D)         (None, 32, 32, 1024)      1180672   
_________________________________________________________________
activation_2502 (Activation) (None, 32, 32, 1024)      0         
_________________________________________________________________
dropout_2502 (Dropout)       (None, 32, 32, 1024)      0         
_________________________________________________________________
max_pooling2d_361 (MaxPoolin (None, 16, 16, 1024)      0         
_________________________________________________________________
conv2d_1719 (Conv2D)         (None, 16, 16, 1024)      9438208   
_________________________________________________________________
batch_normalization_1247 (Ba (None, 16, 16, 1024)      4096      
_________________________________________________________________
activation_2503 (Activation) (None, 16, 16, 1024)      0         
_________________________________________________________________
dropout_2503 (Dropout)       (None, 16, 16, 1024)      0         
_________________________________________________________________
flatten_384 (Flatten)        (None, 262144)            0         
_________________________________________________________________
dense_1168 (Dense)           (None, 256)               67109120  
_________________________________________________________________
activation_2504 (Activation) (None, 256)               0         
_________________________________________________________________
dropout_2504 (Dropout)       (None, 256)               0         
_________________________________________________________________
dense_1169 (Dense)           (None, 512)               131584    
_________________________________________________________________
batch_normalization_1248 (Ba (None, 512)               2048      
_________________________________________________________________
activation_2505 (Activation) (None, 512)               0         
_________________________________________________________________
dropout_2505 (Dropout)       (None, 512)               0         
_________________________________________________________________
dense_1170 (Dense)           (None, 10)                5130      
=================================================================
Total params: 77,889,866
Trainable params: 77,886,794
Non-trainable params: 3,072
_________________________________________________________________
