Model: "sequential_296"
_________________________________________________________________
Layer (type)                 Output Shape              Param #   
=================================================================
conv2d_1370 (Conv2D)         (None, 32, 32, 16)        448       
_________________________________________________________________
activation_2014 (Activation) (None, 32, 32, 16)        0         
_________________________________________________________________
dropout_2014 (Dropout)       (None, 32, 32, 16)        0         
_________________________________________________________________
conv2d_1371 (Conv2D)         (None, 32, 32, 8)         1160      
_________________________________________________________________
batch_normalization_1009 (Ba (None, 32, 32, 8)         32        
_________________________________________________________________
activation_2015 (Activation) (None, 32, 32, 8)         0         
_________________________________________________________________
dropout_2015 (Dropout)       (None, 32, 32, 8)         0         
_________________________________________________________________
max_pooling2d_267 (MaxPoolin (None, 16, 16, 8)         0         
_________________________________________________________________
conv2d_1372 (Conv2D)         (None, 16, 16, 32)        2336      
_________________________________________________________________
activation_2016 (Activation) (None, 16, 16, 32)        0         
_________________________________________________________________
dropout_2016 (Dropout)       (None, 16, 16, 32)        0         
_________________________________________________________________
conv2d_1373 (Conv2D)         (None, 16, 16, 1024)      295936    
_________________________________________________________________
batch_normalization_1010 (Ba (None, 16, 16, 1024)      4096      
_________________________________________________________________
activation_2017 (Activation) (None, 16, 16, 1024)      0         
_________________________________________________________________
dropout_2017 (Dropout)       (None, 16, 16, 1024)      0         
_________________________________________________________________
flatten_296 (Flatten)        (None, 262144)            0         
_________________________________________________________________
dense_940 (Dense)            (None, 512)               134218240 
_________________________________________________________________
batch_normalization_1011 (Ba (None, 512)               2048      
_________________________________________________________________
activation_2018 (Activation) (None, 512)               0         
_________________________________________________________________
dropout_2018 (Dropout)       (None, 512)               0         
_________________________________________________________________
dense_941 (Dense)            (None, 10)                5130      
=================================================================
Total params: 134,529,426
Trainable params: 134,526,338
Non-trainable params: 3,088
_________________________________________________________________
