Model: "sequential_271"
_________________________________________________________________
Layer (type)                 Output Shape              Param #   
=================================================================
conv2d_1277 (Conv2D)         (None, 32, 32, 16)        448       
_________________________________________________________________
activation_1878 (Activation) (None, 32, 32, 16)        0         
_________________________________________________________________
dropout_1878 (Dropout)       (None, 32, 32, 16)        0         
_________________________________________________________________
conv2d_1278 (Conv2D)         (None, 32, 32, 32)        4640      
_________________________________________________________________
activation_1879 (Activation) (None, 32, 32, 32)        0         
_________________________________________________________________
dropout_1879 (Dropout)       (None, 32, 32, 32)        0         
_________________________________________________________________
conv2d_1279 (Conv2D)         (None, 32, 32, 1024)      295936    
_________________________________________________________________
batch_normalization_940 (Bat (None, 32, 32, 1024)      4096      
_________________________________________________________________
activation_1880 (Activation) (None, 32, 32, 1024)      0         
_________________________________________________________________
dropout_1880 (Dropout)       (None, 32, 32, 1024)      0         
_________________________________________________________________
flatten_271 (Flatten)        (None, 1048576)           0         
_________________________________________________________________
dense_872 (Dense)            (None, 256)               268435712 
_________________________________________________________________
batch_normalization_941 (Bat (None, 256)               1024      
_________________________________________________________________
activation_1881 (Activation) (None, 256)               0         
_________________________________________________________________
dropout_1881 (Dropout)       (None, 256)               0         
_________________________________________________________________
dense_873 (Dense)            (None, 512)               131584    
_________________________________________________________________
batch_normalization_942 (Bat (None, 512)               2048      
_________________________________________________________________
activation_1882 (Activation) (None, 512)               0         
_________________________________________________________________
dropout_1882 (Dropout)       (None, 512)               0         
_________________________________________________________________
dense_874 (Dense)            (None, 10)                5130      
=================================================================
Total params: 268,880,618
Trainable params: 268,877,034
Non-trainable params: 3,584
_________________________________________________________________
