Model: "sequential_129"
_________________________________________________________________
Layer (type)                 Output Shape              Param #   
=================================================================
conv2d_719 (Conv2D)          (None, 32, 32, 16)        448       
_________________________________________________________________
activation_1044 (Activation) (None, 32, 32, 16)        0         
_________________________________________________________________
dropout_1044 (Dropout)       (None, 32, 32, 16)        0         
_________________________________________________________________
conv2d_720 (Conv2D)          (None, 32, 32, 128)       18560     
_________________________________________________________________
batch_normalization_499 (Bat (None, 32, 32, 128)       512       
_________________________________________________________________
activation_1045 (Activation) (None, 32, 32, 128)       0         
_________________________________________________________________
dropout_1045 (Dropout)       (None, 32, 32, 128)       0         
_________________________________________________________________
max_pooling2d_109 (MaxPoolin (None, 16, 16, 128)       0         
_________________________________________________________________
conv2d_721 (Conv2D)          (None, 16, 16, 32)        36896     
_________________________________________________________________
activation_1046 (Activation) (None, 16, 16, 32)        0         
_________________________________________________________________
dropout_1046 (Dropout)       (None, 16, 16, 32)        0         
_________________________________________________________________
conv2d_722 (Conv2D)          (None, 16, 16, 128)       36992     
_________________________________________________________________
batch_normalization_500 (Bat (None, 16, 16, 128)       512       
_________________________________________________________________
activation_1047 (Activation) (None, 16, 16, 128)       0         
_________________________________________________________________
dropout_1047 (Dropout)       (None, 16, 16, 128)       0         
_________________________________________________________________
flatten_129 (Flatten)        (None, 32768)             0         
_________________________________________________________________
dense_454 (Dense)            (None, 32)                1048608   
_________________________________________________________________
batch_normalization_501 (Bat (None, 32)                128       
_________________________________________________________________
activation_1048 (Activation) (None, 32)                0         
_________________________________________________________________
dropout_1048 (Dropout)       (None, 32)                0         
_________________________________________________________________
dense_455 (Dense)            (None, 256)               8448      
_________________________________________________________________
activation_1049 (Activation) (None, 256)               0         
_________________________________________________________________
dropout_1049 (Dropout)       (None, 256)               0         
_________________________________________________________________
dense_456 (Dense)            (None, 512)               131584    
_________________________________________________________________
batch_normalization_502 (Bat (None, 512)               2048      
_________________________________________________________________
activation_1050 (Activation) (None, 512)               0         
_________________________________________________________________
dropout_1050 (Dropout)       (None, 512)               0         
_________________________________________________________________
dense_457 (Dense)            (None, 10)                5130      
=================================================================
Total params: 1,289,866
Trainable params: 1,288,266
Non-trainable params: 1,600
_________________________________________________________________
