Model: "sequential_314"
_________________________________________________________________
Layer (type)                 Output Shape              Param #   
=================================================================
conv2d_1440 (Conv2D)         (None, 32, 32, 16)        448       
_________________________________________________________________
activation_2109 (Activation) (None, 32, 32, 16)        0         
_________________________________________________________________
dropout_2109 (Dropout)       (None, 32, 32, 16)        0         
_________________________________________________________________
conv2d_1441 (Conv2D)         (None, 32, 32, 128)       18560     
_________________________________________________________________
batch_normalization_1062 (Ba (None, 32, 32, 128)       512       
_________________________________________________________________
activation_2110 (Activation) (None, 32, 32, 128)       0         
_________________________________________________________________
dropout_2110 (Dropout)       (None, 32, 32, 128)       0         
_________________________________________________________________
conv2d_1442 (Conv2D)         (None, 32, 32, 1024)      1180672   
_________________________________________________________________
activation_2111 (Activation) (None, 32, 32, 1024)      0         
_________________________________________________________________
dropout_2111 (Dropout)       (None, 32, 32, 1024)      0         
_________________________________________________________________
max_pooling2d_289 (MaxPoolin (None, 16, 16, 1024)      0         
_________________________________________________________________
conv2d_1443 (Conv2D)         (None, 16, 16, 1024)      9438208   
_________________________________________________________________
batch_normalization_1063 (Ba (None, 16, 16, 1024)      4096      
_________________________________________________________________
activation_2112 (Activation) (None, 16, 16, 1024)      0         
_________________________________________________________________
dropout_2112 (Dropout)       (None, 16, 16, 1024)      0         
_________________________________________________________________
flatten_314 (Flatten)        (None, 262144)            0         
_________________________________________________________________
dense_983 (Dense)            (None, 256)               67109120  
_________________________________________________________________
activation_2113 (Activation) (None, 256)               0         
_________________________________________________________________
dropout_2113 (Dropout)       (None, 256)               0         
_________________________________________________________________
dense_984 (Dense)            (None, 32)                8224      
_________________________________________________________________
batch_normalization_1064 (Ba (None, 32)                128       
_________________________________________________________________
activation_2114 (Activation) (None, 32)                0         
_________________________________________________________________
dropout_2114 (Dropout)       (None, 32)                0         
_________________________________________________________________
dense_985 (Dense)            (None, 10)                330       
=================================================================
Total params: 77,760,298
Trainable params: 77,757,930
Non-trainable params: 2,368
_________________________________________________________________
