Model: "sequential_313"
_________________________________________________________________
Layer (type)                 Output Shape              Param #   
=================================================================
conv2d_1436 (Conv2D)         (None, 32, 32, 16)        448       
_________________________________________________________________
activation_2103 (Activation) (None, 32, 32, 16)        0         
_________________________________________________________________
dropout_2103 (Dropout)       (None, 32, 32, 16)        0         
_________________________________________________________________
conv2d_1437 (Conv2D)         (None, 32, 32, 128)       18560     
_________________________________________________________________
batch_normalization_1059 (Ba (None, 32, 32, 128)       512       
_________________________________________________________________
activation_2104 (Activation) (None, 32, 32, 128)       0         
_________________________________________________________________
dropout_2104 (Dropout)       (None, 32, 32, 128)       0         
_________________________________________________________________
conv2d_1438 (Conv2D)         (None, 32, 32, 1024)      1180672   
_________________________________________________________________
activation_2105 (Activation) (None, 32, 32, 1024)      0         
_________________________________________________________________
dropout_2105 (Dropout)       (None, 32, 32, 1024)      0         
_________________________________________________________________
max_pooling2d_288 (MaxPoolin (None, 16, 16, 1024)      0         
_________________________________________________________________
conv2d_1439 (Conv2D)         (None, 16, 16, 1024)      9438208   
_________________________________________________________________
batch_normalization_1060 (Ba (None, 16, 16, 1024)      4096      
_________________________________________________________________
activation_2106 (Activation) (None, 16, 16, 1024)      0         
_________________________________________________________________
dropout_2106 (Dropout)       (None, 16, 16, 1024)      0         
_________________________________________________________________
flatten_313 (Flatten)        (None, 262144)            0         
_________________________________________________________________
dense_980 (Dense)            (None, 256)               67109120  
_________________________________________________________________
activation_2107 (Activation) (None, 256)               0         
_________________________________________________________________
dropout_2107 (Dropout)       (None, 256)               0         
_________________________________________________________________
dense_981 (Dense)            (None, 32)                8224      
_________________________________________________________________
batch_normalization_1061 (Ba (None, 32)                128       
_________________________________________________________________
activation_2108 (Activation) (None, 32)                0         
_________________________________________________________________
dropout_2108 (Dropout)       (None, 32)                0         
_________________________________________________________________
dense_982 (Dense)            (None, 10)                330       
=================================================================
Total params: 77,760,298
Trainable params: 77,757,930
Non-trainable params: 2,368
_________________________________________________________________
