Model: "sequential_152"
_________________________________________________________________
Layer (type)                 Output Shape              Param #   
=================================================================
conv2d_812 (Conv2D)          (None, 32, 32, 16)        448       
_________________________________________________________________
activation_1187 (Activation) (None, 32, 32, 16)        0         
_________________________________________________________________
dropout_1187 (Dropout)       (None, 32, 32, 16)        0         
_________________________________________________________________
conv2d_813 (Conv2D)          (None, 32, 32, 128)       18560     
_________________________________________________________________
batch_normalization_573 (Bat (None, 32, 32, 128)       512       
_________________________________________________________________
activation_1188 (Activation) (None, 32, 32, 128)       0         
_________________________________________________________________
dropout_1188 (Dropout)       (None, 32, 32, 128)       0         
_________________________________________________________________
max_pooling2d_129 (MaxPoolin (None, 16, 16, 128)       0         
_________________________________________________________________
conv2d_814 (Conv2D)          (None, 16, 16, 32)        36896     
_________________________________________________________________
activation_1189 (Activation) (None, 16, 16, 32)        0         
_________________________________________________________________
dropout_1189 (Dropout)       (None, 16, 16, 32)        0         
_________________________________________________________________
conv2d_815 (Conv2D)          (None, 16, 16, 1024)      295936    
_________________________________________________________________
batch_normalization_574 (Bat (None, 16, 16, 1024)      4096      
_________________________________________________________________
activation_1190 (Activation) (None, 16, 16, 1024)      0         
_________________________________________________________________
dropout_1190 (Dropout)       (None, 16, 16, 1024)      0         
_________________________________________________________________
flatten_152 (Flatten)        (None, 262144)            0         
_________________________________________________________________
dense_527 (Dense)            (None, 256)               67109120  
_________________________________________________________________
activation_1191 (Activation) (None, 256)               0         
_________________________________________________________________
dropout_1191 (Dropout)       (None, 256)               0         
_________________________________________________________________
dense_528 (Dense)            (None, 512)               131584    
_________________________________________________________________
batch_normalization_575 (Bat (None, 512)               2048      
_________________________________________________________________
activation_1192 (Activation) (None, 512)               0         
_________________________________________________________________
dropout_1192 (Dropout)       (None, 512)               0         
_________________________________________________________________
dense_529 (Dense)            (None, 10)                5130      
=================================================================
Total params: 67,604,330
Trainable params: 67,601,002
Non-trainable params: 3,328
_________________________________________________________________
