Model: "sequential_83"
_________________________________________________________________
Layer (type)                 Output Shape              Param #   
=================================================================
conv2d_513 (Conv2D)          (None, 32, 32, 1024)      28672     
_________________________________________________________________
activation_722 (Activation)  (None, 32, 32, 1024)      0         
_________________________________________________________________
dropout_722 (Dropout)        (None, 32, 32, 1024)      0         
_________________________________________________________________
conv2d_514 (Conv2D)          (None, 32, 32, 16)        147472    
_________________________________________________________________
batch_normalization_345 (Bat (None, 32, 32, 16)        64        
_________________________________________________________________
activation_723 (Activation)  (None, 32, 32, 16)        0         
_________________________________________________________________
dropout_723 (Dropout)        (None, 32, 32, 16)        0         
_________________________________________________________________
conv2d_515 (Conv2D)          (None, 32, 32, 32)        4640      
_________________________________________________________________
activation_724 (Activation)  (None, 32, 32, 32)        0         
_________________________________________________________________
dropout_724 (Dropout)        (None, 32, 32, 32)        0         
_________________________________________________________________
conv2d_516 (Conv2D)          (None, 32, 32, 16)        4624      
_________________________________________________________________
activation_725 (Activation)  (None, 32, 32, 16)        0         
_________________________________________________________________
dropout_725 (Dropout)        (None, 32, 32, 16)        0         
_________________________________________________________________
conv2d_517 (Conv2D)          (None, 32, 32, 1024)      148480    
_________________________________________________________________
batch_normalization_346 (Bat (None, 32, 32, 1024)      4096      
_________________________________________________________________
activation_726 (Activation)  (None, 32, 32, 1024)      0         
_________________________________________________________________
dropout_726 (Dropout)        (None, 32, 32, 1024)      0         
_________________________________________________________________
flatten_83 (Flatten)         (None, 1048576)           0         
_________________________________________________________________
dense_292 (Dense)            (None, 256)               268435712 
_________________________________________________________________
activation_727 (Activation)  (None, 256)               0         
_________________________________________________________________
dropout_727 (Dropout)        (None, 256)               0         
_________________________________________________________________
dense_293 (Dense)            (None, 512)               131584    
_________________________________________________________________
batch_normalization_347 (Bat (None, 512)               2048      
_________________________________________________________________
activation_728 (Activation)  (None, 512)               0         
_________________________________________________________________
dropout_728 (Dropout)        (None, 512)               0         
_________________________________________________________________
dense_294 (Dense)            (None, 32)                16416     
_________________________________________________________________
batch_normalization_348 (Bat (None, 32)                128       
_________________________________________________________________
activation_729 (Activation)  (None, 32)                0         
_________________________________________________________________
dropout_729 (Dropout)        (None, 32)                0         
_________________________________________________________________
dense_295 (Dense)            (None, 10)                330       
=================================================================
Total params: 268,924,266
Trainable params: 268,921,098
Non-trainable params: 3,168
_________________________________________________________________
