Model: "sequential_352"
_________________________________________________________________
Layer (type)                 Output Shape              Param #   
=================================================================
conv2d_1591 (Conv2D)         (None, 32, 32, 16)        448       
_________________________________________________________________
activation_2318 (Activation) (None, 32, 32, 16)        0         
_________________________________________________________________
dropout_2318 (Dropout)       (None, 32, 32, 16)        0         
_________________________________________________________________
conv2d_1592 (Conv2D)         (None, 32, 32, 128)       18560     
_________________________________________________________________
batch_normalization_1171 (Ba (None, 32, 32, 128)       512       
_________________________________________________________________
activation_2319 (Activation) (None, 32, 32, 128)       0         
_________________________________________________________________
dropout_2319 (Dropout)       (None, 32, 32, 128)       0         
_________________________________________________________________
conv2d_1593 (Conv2D)         (None, 32, 32, 1024)      1180672   
_________________________________________________________________
activation_2320 (Activation) (None, 32, 32, 1024)      0         
_________________________________________________________________
dropout_2320 (Dropout)       (None, 32, 32, 1024)      0         
_________________________________________________________________
max_pooling2d_327 (MaxPoolin (None, 16, 16, 1024)      0         
_________________________________________________________________
conv2d_1594 (Conv2D)         (None, 16, 16, 1024)      9438208   
_________________________________________________________________
batch_normalization_1172 (Ba (None, 16, 16, 1024)      4096      
_________________________________________________________________
activation_2321 (Activation) (None, 16, 16, 1024)      0         
_________________________________________________________________
dropout_2321 (Dropout)       (None, 16, 16, 1024)      0         
_________________________________________________________________
flatten_352 (Flatten)        (None, 262144)            0         
_________________________________________________________________
dense_1079 (Dense)           (None, 256)               67109120  
_________________________________________________________________
activation_2322 (Activation) (None, 256)               0         
_________________________________________________________________
dropout_2322 (Dropout)       (None, 256)               0         
_________________________________________________________________
dense_1080 (Dense)           (None, 512)               131584    
_________________________________________________________________
batch_normalization_1173 (Ba (None, 512)               2048      
_________________________________________________________________
activation_2323 (Activation) (None, 512)               0         
_________________________________________________________________
dropout_2323 (Dropout)       (None, 512)               0         
_________________________________________________________________
dense_1081 (Dense)           (None, 10)                5130      
=================================================================
Total params: 77,890,378
Trainable params: 77,887,050
Non-trainable params: 3,328
_________________________________________________________________
