Model: "sequential_273"
_________________________________________________________________
Layer (type)                 Output Shape              Param #   
=================================================================
conv2d_1284 (Conv2D)         (None, 32, 32, 16)        448       
_________________________________________________________________
activation_1889 (Activation) (None, 32, 32, 16)        0         
_________________________________________________________________
dropout_1889 (Dropout)       (None, 32, 32, 16)        0         
_________________________________________________________________
conv2d_1285 (Conv2D)         (None, 32, 32, 128)       18560     
_________________________________________________________________
batch_normalization_947 (Bat (None, 32, 32, 128)       512       
_________________________________________________________________
activation_1890 (Activation) (None, 32, 32, 128)       0         
_________________________________________________________________
dropout_1890 (Dropout)       (None, 32, 32, 128)       0         
_________________________________________________________________
conv2d_1286 (Conv2D)         (None, 32, 32, 32)        36896     
_________________________________________________________________
activation_1891 (Activation) (None, 32, 32, 32)        0         
_________________________________________________________________
dropout_1891 (Dropout)       (None, 32, 32, 32)        0         
_________________________________________________________________
max_pooling2d_247 (MaxPoolin (None, 16, 16, 32)        0         
_________________________________________________________________
conv2d_1287 (Conv2D)         (None, 16, 16, 1024)      295936    
_________________________________________________________________
batch_normalization_948 (Bat (None, 16, 16, 1024)      4096      
_________________________________________________________________
activation_1892 (Activation) (None, 16, 16, 1024)      0         
_________________________________________________________________
dropout_1892 (Dropout)       (None, 16, 16, 1024)      0         
_________________________________________________________________
flatten_273 (Flatten)        (None, 262144)            0         
_________________________________________________________________
dense_878 (Dense)            (None, 256)               67109120  
_________________________________________________________________
activation_1893 (Activation) (None, 256)               0         
_________________________________________________________________
dropout_1893 (Dropout)       (None, 256)               0         
_________________________________________________________________
dense_879 (Dense)            (None, 10)                2570      
=================================================================
Total params: 67,468,138
Trainable params: 67,465,834
Non-trainable params: 2,304
_________________________________________________________________
