Model: "sequential_181"
_________________________________________________________________
Layer (type)                 Output Shape              Param #   
=================================================================
conv2d_928 (Conv2D)          (None, 32, 32, 16)        448       
_________________________________________________________________
activation_1361 (Activation) (None, 32, 32, 16)        0         
_________________________________________________________________
dropout_1361 (Dropout)       (None, 32, 32, 16)        0         
_________________________________________________________________
conv2d_929 (Conv2D)          (None, 32, 32, 128)       18560     
_________________________________________________________________
batch_normalization_660 (Bat (None, 32, 32, 128)       512       
_________________________________________________________________
activation_1362 (Activation) (None, 32, 32, 128)       0         
_________________________________________________________________
dropout_1362 (Dropout)       (None, 32, 32, 128)       0         
_________________________________________________________________
max_pooling2d_158 (MaxPoolin (None, 16, 16, 128)       0         
_________________________________________________________________
conv2d_930 (Conv2D)          (None, 16, 16, 32)        36896     
_________________________________________________________________
activation_1363 (Activation) (None, 16, 16, 32)        0         
_________________________________________________________________
dropout_1363 (Dropout)       (None, 16, 16, 32)        0         
_________________________________________________________________
conv2d_931 (Conv2D)          (None, 16, 16, 1024)      295936    
_________________________________________________________________
batch_normalization_661 (Bat (None, 16, 16, 1024)      4096      
_________________________________________________________________
activation_1364 (Activation) (None, 16, 16, 1024)      0         
_________________________________________________________________
dropout_1364 (Dropout)       (None, 16, 16, 1024)      0         
_________________________________________________________________
flatten_181 (Flatten)        (None, 262144)            0         
_________________________________________________________________
dense_614 (Dense)            (None, 256)               67109120  
_________________________________________________________________
activation_1365 (Activation) (None, 256)               0         
_________________________________________________________________
dropout_1365 (Dropout)       (None, 256)               0         
_________________________________________________________________
dense_615 (Dense)            (None, 512)               131584    
_________________________________________________________________
batch_normalization_662 (Bat (None, 512)               2048      
_________________________________________________________________
activation_1366 (Activation) (None, 512)               0         
_________________________________________________________________
dropout_1366 (Dropout)       (None, 512)               0         
_________________________________________________________________
dense_616 (Dense)            (None, 10)                5130      
=================================================================
Total params: 67,604,330
Trainable params: 67,601,002
Non-trainable params: 3,328
_________________________________________________________________
