Model: "sequential_36"
_________________________________________________________________
Layer (type)                 Output Shape              Param #   
=================================================================
separable_conv2d_412 (Separa (None, 32, 32, 32)        155       
_________________________________________________________________
activation_451 (Activation)  (None, 32, 32, 32)        0         
_________________________________________________________________
dropout_451 (Dropout)        (None, 32, 32, 32)        0         
_________________________________________________________________
separable_conv2d_413 (Separa (None, 32, 32, 128)       4512      
_________________________________________________________________
batch_normalization_250 (Bat (None, 32, 32, 128)       512       
_________________________________________________________________
activation_452 (Activation)  (None, 32, 32, 128)       0         
_________________________________________________________________
dropout_452 (Dropout)        (None, 32, 32, 128)       0         
_________________________________________________________________
separable_conv2d_414 (Separa (None, 32, 32, 8)         2184      
_________________________________________________________________
activation_453 (Activation)  (None, 32, 32, 8)         0         
_________________________________________________________________
dropout_453 (Dropout)        (None, 32, 32, 8)         0         
_________________________________________________________________
separable_conv2d_415 (Separa (None, 32, 32, 64)        648       
_________________________________________________________________
activation_454 (Activation)  (None, 32, 32, 64)        0         
_________________________________________________________________
dropout_454 (Dropout)        (None, 32, 32, 64)        0         
_________________________________________________________________
max_pooling2d_97 (MaxPooling (None, 16, 16, 64)        0         
_________________________________________________________________
separable_conv2d_416 (Separa (None, 16, 16, 8)         1096      
_________________________________________________________________
activation_455 (Activation)  (None, 16, 16, 8)         0         
_________________________________________________________________
dropout_455 (Dropout)        (None, 16, 16, 8)         0         
_________________________________________________________________
separable_conv2d_417 (Separa (None, 16, 16, 128)       1224      
_________________________________________________________________
batch_normalization_251 (Bat (None, 16, 16, 128)       512       
_________________________________________________________________
activation_456 (Activation)  (None, 16, 16, 128)       0         
_________________________________________________________________
dropout_456 (Dropout)        (None, 16, 16, 128)       0         
_________________________________________________________________
separable_conv2d_418 (Separa (None, 16, 16, 64)        9408      
_________________________________________________________________
batch_normalization_252 (Bat (None, 16, 16, 64)        256       
_________________________________________________________________
activation_457 (Activation)  (None, 16, 16, 64)        0         
_________________________________________________________________
dropout_457 (Dropout)        (None, 16, 16, 64)        0         
_________________________________________________________________
separable_conv2d_419 (Separa (None, 16, 16, 512)       33856     
_________________________________________________________________
batch_normalization_253 (Bat (None, 16, 16, 512)       2048      
_________________________________________________________________
activation_458 (Activation)  (None, 16, 16, 512)       0         
_________________________________________________________________
dropout_458 (Dropout)        (None, 16, 16, 512)       0         
_________________________________________________________________
max_pooling2d_98 (MaxPooling (None, 8, 8, 512)         0         
_________________________________________________________________
separable_conv2d_420 (Separa (None, 8, 8, 32)          21024     
_________________________________________________________________
batch_normalization_254 (Bat (None, 8, 8, 32)          128       
_________________________________________________________________
activation_459 (Activation)  (None, 8, 8, 32)          0         
_________________________________________________________________
dropout_459 (Dropout)        (None, 8, 8, 32)          0         
_________________________________________________________________
max_pooling2d_99 (MaxPooling (None, 4, 4, 32)          0         
_________________________________________________________________
separable_conv2d_421 (Separa (None, 4, 4, 128)         4512      
_________________________________________________________________
activation_460 (Activation)  (None, 4, 4, 128)         0         
_________________________________________________________________
dropout_460 (Dropout)        (None, 4, 4, 128)         0         
_________________________________________________________________
separable_conv2d_422 (Separa (None, 4, 4, 32)          5280      
_________________________________________________________________
batch_normalization_255 (Bat (None, 4, 4, 32)          128       
_________________________________________________________________
activation_461 (Activation)  (None, 4, 4, 32)          0         
_________________________________________________________________
dropout_461 (Dropout)        (None, 4, 4, 32)          0         
_________________________________________________________________
separable_conv2d_423 (Separa (None, 4, 4, 256)         8736      
_________________________________________________________________
batch_normalization_256 (Bat (None, 4, 4, 256)         1024      
_________________________________________________________________
activation_462 (Activation)  (None, 4, 4, 256)         0         
_________________________________________________________________
dropout_462 (Dropout)        (None, 4, 4, 256)         0         
_________________________________________________________________
flatten_36 (Flatten)         (None, 4096)              0         
_________________________________________________________________
dense_75 (Dense)             (None, 2048)              8390656   
_________________________________________________________________
batch_normalization_257 (Bat (None, 2048)              8192      
_________________________________________________________________
activation_463 (Activation)  (None, 2048)              0         
_________________________________________________________________
dropout_463 (Dropout)        (None, 2048)              0         
_________________________________________________________________
dense_76 (Dense)             (None, 100)               204900    
=================================================================
Total params: 8,700,991
Trainable params: 8,694,591
Non-trainable params: 6,400
_________________________________________________________________
