Model: "sequential_271"
_________________________________________________________________
Layer (type)                 Output Shape              Param #   
=================================================================
separable_conv2d_3012 (Separ (None, 32, 32, 32)        155       
_________________________________________________________________
activation_3286 (Activation) (None, 32, 32, 32)        0         
_________________________________________________________________
dropout_3286 (Dropout)       (None, 32, 32, 32)        0         
_________________________________________________________________
separable_conv2d_3013 (Separ (None, 32, 32, 256)       8736      
_________________________________________________________________
batch_normalization_1921 (Ba (None, 32, 32, 256)       1024      
_________________________________________________________________
activation_3287 (Activation) (None, 32, 32, 256)       0         
_________________________________________________________________
dropout_3287 (Dropout)       (None, 32, 32, 256)       0         
_________________________________________________________________
separable_conv2d_3014 (Separ (None, 32, 32, 8)         4360      
_________________________________________________________________
activation_3288 (Activation) (None, 32, 32, 8)         0         
_________________________________________________________________
dropout_3288 (Dropout)       (None, 32, 32, 8)         0         
_________________________________________________________________
separable_conv2d_3015 (Separ (None, 32, 32, 64)        648       
_________________________________________________________________
activation_3289 (Activation) (None, 32, 32, 64)        0         
_________________________________________________________________
dropout_3289 (Dropout)       (None, 32, 32, 64)        0         
_________________________________________________________________
max_pooling2d_788 (MaxPoolin (None, 16, 16, 64)        0         
_________________________________________________________________
separable_conv2d_3016 (Separ (None, 16, 16, 16)        1616      
_________________________________________________________________
activation_3290 (Activation) (None, 16, 16, 16)        0         
_________________________________________________________________
dropout_3290 (Dropout)       (None, 16, 16, 16)        0         
_________________________________________________________________
separable_conv2d_3017 (Separ (None, 16, 16, 128)       2320      
_________________________________________________________________
batch_normalization_1922 (Ba (None, 16, 16, 128)       512       
_________________________________________________________________
activation_3291 (Activation) (None, 16, 16, 128)       0         
_________________________________________________________________
dropout_3291 (Dropout)       (None, 16, 16, 128)       0         
_________________________________________________________________
separable_conv2d_3018 (Separ (None, 16, 16, 64)        9408      
_________________________________________________________________
batch_normalization_1923 (Ba (None, 16, 16, 64)        256       
_________________________________________________________________
activation_3292 (Activation) (None, 16, 16, 64)        0         
_________________________________________________________________
dropout_3292 (Dropout)       (None, 16, 16, 64)        0         
_________________________________________________________________
separable_conv2d_3019 (Separ (None, 16, 16, 128)       8896      
_________________________________________________________________
activation_3293 (Activation) (None, 16, 16, 128)       0         
_________________________________________________________________
dropout_3293 (Dropout)       (None, 16, 16, 128)       0         
_________________________________________________________________
separable_conv2d_3020 (Separ (None, 16, 16, 32)        5280      
_________________________________________________________________
batch_normalization_1924 (Ba (None, 16, 16, 32)        128       
_________________________________________________________________
activation_3294 (Activation) (None, 16, 16, 32)        0         
_________________________________________________________________
dropout_3294 (Dropout)       (None, 16, 16, 32)        0         
_________________________________________________________________
separable_conv2d_3021 (Separ (None, 16, 16, 512)       17184     
_________________________________________________________________
batch_normalization_1925 (Ba (None, 16, 16, 512)       2048      
_________________________________________________________________
activation_3295 (Activation) (None, 16, 16, 512)       0         
_________________________________________________________________
dropout_3295 (Dropout)       (None, 16, 16, 512)       0         
_________________________________________________________________
max_pooling2d_789 (MaxPoolin (None, 8, 8, 512)         0         
_________________________________________________________________
flatten_271 (Flatten)        (None, 32768)             0         
_________________________________________________________________
dense_545 (Dense)            (None, 2048)              67110912  
_________________________________________________________________
batch_normalization_1926 (Ba (None, 2048)              8192      
_________________________________________________________________
activation_3296 (Activation) (None, 2048)              0         
_________________________________________________________________
dropout_3296 (Dropout)       (None, 2048)              0         
_________________________________________________________________
dense_546 (Dense)            (None, 100)               204900    
=================================================================
Total params: 67,386,575
Trainable params: 67,380,495
Non-trainable params: 6,080
_________________________________________________________________
