Model: "sequential_176"
_________________________________________________________________
Layer (type)                 Output Shape              Param #   
=================================================================
separable_conv2d_2001 (Separ (None, 32, 32, 32)        155       
_________________________________________________________________
activation_2180 (Activation) (None, 32, 32, 32)        0         
_________________________________________________________________
dropout_2180 (Dropout)       (None, 32, 32, 32)        0         
_________________________________________________________________
separable_conv2d_2002 (Separ (None, 32, 32, 256)       8736      
_________________________________________________________________
batch_normalization_1295 (Ba (None, 32, 32, 256)       1024      
_________________________________________________________________
activation_2181 (Activation) (None, 32, 32, 256)       0         
_________________________________________________________________
dropout_2181 (Dropout)       (None, 32, 32, 256)       0         
_________________________________________________________________
separable_conv2d_2003 (Separ (None, 32, 32, 8)         4360      
_________________________________________________________________
activation_2182 (Activation) (None, 32, 32, 8)         0         
_________________________________________________________________
dropout_2182 (Dropout)       (None, 32, 32, 8)         0         
_________________________________________________________________
separable_conv2d_2004 (Separ (None, 32, 32, 64)        648       
_________________________________________________________________
activation_2183 (Activation) (None, 32, 32, 64)        0         
_________________________________________________________________
dropout_2183 (Dropout)       (None, 32, 32, 64)        0         
_________________________________________________________________
max_pooling2d_516 (MaxPoolin (None, 16, 16, 64)        0         
_________________________________________________________________
separable_conv2d_2005 (Separ (None, 16, 16, 8)         1096      
_________________________________________________________________
activation_2184 (Activation) (None, 16, 16, 8)         0         
_________________________________________________________________
dropout_2184 (Dropout)       (None, 16, 16, 8)         0         
_________________________________________________________________
separable_conv2d_2006 (Separ (None, 16, 16, 128)       1224      
_________________________________________________________________
batch_normalization_1296 (Ba (None, 16, 16, 128)       512       
_________________________________________________________________
activation_2185 (Activation) (None, 16, 16, 128)       0         
_________________________________________________________________
dropout_2185 (Dropout)       (None, 16, 16, 128)       0         
_________________________________________________________________
separable_conv2d_2007 (Separ (None, 16, 16, 64)        9408      
_________________________________________________________________
batch_normalization_1297 (Ba (None, 16, 16, 64)        256       
_________________________________________________________________
activation_2186 (Activation) (None, 16, 16, 64)        0         
_________________________________________________________________
dropout_2186 (Dropout)       (None, 16, 16, 64)        0         
_________________________________________________________________
separable_conv2d_2008 (Separ (None, 16, 16, 512)       33856     
_________________________________________________________________
batch_normalization_1298 (Ba (None, 16, 16, 512)       2048      
_________________________________________________________________
activation_2187 (Activation) (None, 16, 16, 512)       0         
_________________________________________________________________
dropout_2187 (Dropout)       (None, 16, 16, 512)       0         
_________________________________________________________________
max_pooling2d_517 (MaxPoolin (None, 8, 8, 512)         0         
_________________________________________________________________
separable_conv2d_2009 (Separ (None, 8, 8, 128)         70272     
_________________________________________________________________
activation_2188 (Activation) (None, 8, 8, 128)         0         
_________________________________________________________________
dropout_2188 (Dropout)       (None, 8, 8, 128)         0         
_________________________________________________________________
separable_conv2d_2010 (Separ (None, 8, 8, 32)          5280      
_________________________________________________________________
batch_normalization_1299 (Ba (None, 8, 8, 32)          128       
_________________________________________________________________
activation_2189 (Activation) (None, 8, 8, 32)          0         
_________________________________________________________________
dropout_2189 (Dropout)       (None, 8, 8, 32)          0         
_________________________________________________________________
separable_conv2d_2011 (Separ (None, 8, 8, 256)         8736      
_________________________________________________________________
batch_normalization_1300 (Ba (None, 8, 8, 256)         1024      
_________________________________________________________________
activation_2190 (Activation) (None, 8, 8, 256)         0         
_________________________________________________________________
dropout_2190 (Dropout)       (None, 8, 8, 256)         0         
_________________________________________________________________
max_pooling2d_518 (MaxPoolin (None, 4, 4, 256)         0         
_________________________________________________________________
flatten_176 (Flatten)        (None, 4096)              0         
_________________________________________________________________
dense_355 (Dense)            (None, 2048)              8390656   
_________________________________________________________________
batch_normalization_1301 (Ba (None, 2048)              8192      
_________________________________________________________________
activation_2191 (Activation) (None, 2048)              0         
_________________________________________________________________
dropout_2191 (Dropout)       (None, 2048)              0         
_________________________________________________________________
dense_356 (Dense)            (None, 100)               204900    
=================================================================
Total params: 8,752,511
Trainable params: 8,745,919
Non-trainable params: 6,592
_________________________________________________________________
