Model: "sequential_211"
_________________________________________________________________
Layer (type)                 Output Shape              Param #   
=================================================================
separable_conv2d_2377 (Separ (None, 32, 32, 32)        155       
_________________________________________________________________
activation_2591 (Activation) (None, 32, 32, 32)        0         
_________________________________________________________________
dropout_2591 (Dropout)       (None, 32, 32, 32)        0         
_________________________________________________________________
separable_conv2d_2378 (Separ (None, 32, 32, 256)       8736      
_________________________________________________________________
batch_normalization_1526 (Ba (None, 32, 32, 256)       1024      
_________________________________________________________________
activation_2592 (Activation) (None, 32, 32, 256)       0         
_________________________________________________________________
dropout_2592 (Dropout)       (None, 32, 32, 256)       0         
_________________________________________________________________
separable_conv2d_2379 (Separ (None, 32, 32, 8)         4360      
_________________________________________________________________
activation_2593 (Activation) (None, 32, 32, 8)         0         
_________________________________________________________________
dropout_2593 (Dropout)       (None, 32, 32, 8)         0         
_________________________________________________________________
separable_conv2d_2380 (Separ (None, 32, 32, 64)        648       
_________________________________________________________________
activation_2594 (Activation) (None, 32, 32, 64)        0         
_________________________________________________________________
dropout_2594 (Dropout)       (None, 32, 32, 64)        0         
_________________________________________________________________
max_pooling2d_618 (MaxPoolin (None, 16, 16, 64)        0         
_________________________________________________________________
separable_conv2d_2381 (Separ (None, 16, 16, 16)        1616      
_________________________________________________________________
activation_2595 (Activation) (None, 16, 16, 16)        0         
_________________________________________________________________
dropout_2595 (Dropout)       (None, 16, 16, 16)        0         
_________________________________________________________________
separable_conv2d_2382 (Separ (None, 16, 16, 128)       2320      
_________________________________________________________________
batch_normalization_1527 (Ba (None, 16, 16, 128)       512       
_________________________________________________________________
activation_2596 (Activation) (None, 16, 16, 128)       0         
_________________________________________________________________
dropout_2596 (Dropout)       (None, 16, 16, 128)       0         
_________________________________________________________________
separable_conv2d_2383 (Separ (None, 16, 16, 64)        9408      
_________________________________________________________________
batch_normalization_1528 (Ba (None, 16, 16, 64)        256       
_________________________________________________________________
activation_2597 (Activation) (None, 16, 16, 64)        0         
_________________________________________________________________
dropout_2597 (Dropout)       (None, 16, 16, 64)        0         
_________________________________________________________________
separable_conv2d_2384 (Separ (None, 16, 16, 512)       33856     
_________________________________________________________________
batch_normalization_1529 (Ba (None, 16, 16, 512)       2048      
_________________________________________________________________
activation_2598 (Activation) (None, 16, 16, 512)       0         
_________________________________________________________________
dropout_2598 (Dropout)       (None, 16, 16, 512)       0         
_________________________________________________________________
max_pooling2d_619 (MaxPoolin (None, 8, 8, 512)         0         
_________________________________________________________________
separable_conv2d_2385 (Separ (None, 8, 8, 128)         70272     
_________________________________________________________________
activation_2599 (Activation) (None, 8, 8, 128)         0         
_________________________________________________________________
dropout_2599 (Dropout)       (None, 8, 8, 128)         0         
_________________________________________________________________
separable_conv2d_2386 (Separ (None, 8, 8, 32)          5280      
_________________________________________________________________
batch_normalization_1530 (Ba (None, 8, 8, 32)          128       
_________________________________________________________________
activation_2600 (Activation) (None, 8, 8, 32)          0         
_________________________________________________________________
dropout_2600 (Dropout)       (None, 8, 8, 32)          0         
_________________________________________________________________
separable_conv2d_2387 (Separ (None, 8, 8, 256)         8736      
_________________________________________________________________
batch_normalization_1531 (Ba (None, 8, 8, 256)         1024      
_________________________________________________________________
activation_2601 (Activation) (None, 8, 8, 256)         0         
_________________________________________________________________
dropout_2601 (Dropout)       (None, 8, 8, 256)         0         
_________________________________________________________________
max_pooling2d_620 (MaxPoolin (None, 4, 4, 256)         0         
_________________________________________________________________
flatten_211 (Flatten)        (None, 4096)              0         
_________________________________________________________________
dense_425 (Dense)            (None, 2048)              8390656   
_________________________________________________________________
batch_normalization_1532 (Ba (None, 2048)              8192      
_________________________________________________________________
activation_2602 (Activation) (None, 2048)              0         
_________________________________________________________________
dropout_2602 (Dropout)       (None, 2048)              0         
_________________________________________________________________
dense_426 (Dense)            (None, 100)               204900    
=================================================================
Total params: 8,754,127
Trainable params: 8,747,535
Non-trainable params: 6,592
_________________________________________________________________
