Model: "sequential_154"
_________________________________________________________________
Layer (type)                 Output Shape              Param #   
=================================================================
separable_conv2d_1763 (Separ (None, 32, 32, 32)        155       
_________________________________________________________________
activation_1920 (Activation) (None, 32, 32, 32)        0         
_________________________________________________________________
dropout_1920 (Dropout)       (None, 32, 32, 32)        0         
_________________________________________________________________
separable_conv2d_1764 (Separ (None, 32, 32, 128)       4512      
_________________________________________________________________
batch_normalization_1145 (Ba (None, 32, 32, 128)       512       
_________________________________________________________________
activation_1921 (Activation) (None, 32, 32, 128)       0         
_________________________________________________________________
dropout_1921 (Dropout)       (None, 32, 32, 128)       0         
_________________________________________________________________
separable_conv2d_1765 (Separ (None, 32, 32, 8)         2184      
_________________________________________________________________
activation_1922 (Activation) (None, 32, 32, 8)         0         
_________________________________________________________________
dropout_1922 (Dropout)       (None, 32, 32, 8)         0         
_________________________________________________________________
separable_conv2d_1766 (Separ (None, 32, 32, 64)        648       
_________________________________________________________________
activation_1923 (Activation) (None, 32, 32, 64)        0         
_________________________________________________________________
dropout_1923 (Dropout)       (None, 32, 32, 64)        0         
_________________________________________________________________
max_pooling2d_451 (MaxPoolin (None, 16, 16, 64)        0         
_________________________________________________________________
separable_conv2d_1767 (Separ (None, 16, 16, 8)         1096      
_________________________________________________________________
activation_1924 (Activation) (None, 16, 16, 8)         0         
_________________________________________________________________
dropout_1924 (Dropout)       (None, 16, 16, 8)         0         
_________________________________________________________________
separable_conv2d_1768 (Separ (None, 16, 16, 128)       1224      
_________________________________________________________________
batch_normalization_1146 (Ba (None, 16, 16, 128)       512       
_________________________________________________________________
activation_1925 (Activation) (None, 16, 16, 128)       0         
_________________________________________________________________
dropout_1925 (Dropout)       (None, 16, 16, 128)       0         
_________________________________________________________________
separable_conv2d_1769 (Separ (None, 16, 16, 64)        9408      
_________________________________________________________________
batch_normalization_1147 (Ba (None, 16, 16, 64)        256       
_________________________________________________________________
activation_1926 (Activation) (None, 16, 16, 64)        0         
_________________________________________________________________
dropout_1926 (Dropout)       (None, 16, 16, 64)        0         
_________________________________________________________________
separable_conv2d_1770 (Separ (None, 16, 16, 512)       33856     
_________________________________________________________________
batch_normalization_1148 (Ba (None, 16, 16, 512)       2048      
_________________________________________________________________
activation_1927 (Activation) (None, 16, 16, 512)       0         
_________________________________________________________________
dropout_1927 (Dropout)       (None, 16, 16, 512)       0         
_________________________________________________________________
max_pooling2d_452 (MaxPoolin (None, 8, 8, 512)         0         
_________________________________________________________________
separable_conv2d_1771 (Separ (None, 8, 8, 128)         70272     
_________________________________________________________________
activation_1928 (Activation) (None, 8, 8, 128)         0         
_________________________________________________________________
dropout_1928 (Dropout)       (None, 8, 8, 128)         0         
_________________________________________________________________
separable_conv2d_1772 (Separ (None, 8, 8, 32)          5280      
_________________________________________________________________
batch_normalization_1149 (Ba (None, 8, 8, 32)          128       
_________________________________________________________________
activation_1929 (Activation) (None, 8, 8, 32)          0         
_________________________________________________________________
dropout_1929 (Dropout)       (None, 8, 8, 32)          0         
_________________________________________________________________
separable_conv2d_1773 (Separ (None, 8, 8, 256)         8736      
_________________________________________________________________
batch_normalization_1150 (Ba (None, 8, 8, 256)         1024      
_________________________________________________________________
activation_1930 (Activation) (None, 8, 8, 256)         0         
_________________________________________________________________
dropout_1930 (Dropout)       (None, 8, 8, 256)         0         
_________________________________________________________________
max_pooling2d_453 (MaxPoolin (None, 4, 4, 256)         0         
_________________________________________________________________
flatten_154 (Flatten)        (None, 4096)              0         
_________________________________________________________________
dense_311 (Dense)            (None, 2048)              8390656   
_________________________________________________________________
batch_normalization_1151 (Ba (None, 2048)              8192      
_________________________________________________________________
activation_1931 (Activation) (None, 2048)              0         
_________________________________________________________________
dropout_1931 (Dropout)       (None, 2048)              0         
_________________________________________________________________
dense_312 (Dense)            (None, 100)               204900    
=================================================================
Total params: 8,745,599
Trainable params: 8,739,263
Non-trainable params: 6,336
_________________________________________________________________
