Model: "sequential_130"
_________________________________________________________________
Layer (type)                 Output Shape              Param #   
=================================================================
separable_conv2d_1496 (Separ (None, 32, 32, 32)        155       
_________________________________________________________________
activation_1629 (Activation) (None, 32, 32, 32)        0         
_________________________________________________________________
dropout_1629 (Dropout)       (None, 32, 32, 32)        0         
_________________________________________________________________
separable_conv2d_1497 (Separ (None, 32, 32, 128)       4512      
_________________________________________________________________
batch_normalization_970 (Bat (None, 32, 32, 128)       512       
_________________________________________________________________
activation_1630 (Activation) (None, 32, 32, 128)       0         
_________________________________________________________________
dropout_1630 (Dropout)       (None, 32, 32, 128)       0         
_________________________________________________________________
separable_conv2d_1498 (Separ (None, 32, 32, 8)         2184      
_________________________________________________________________
activation_1631 (Activation) (None, 32, 32, 8)         0         
_________________________________________________________________
dropout_1631 (Dropout)       (None, 32, 32, 8)         0         
_________________________________________________________________
separable_conv2d_1499 (Separ (None, 32, 32, 64)        648       
_________________________________________________________________
activation_1632 (Activation) (None, 32, 32, 64)        0         
_________________________________________________________________
dropout_1632 (Dropout)       (None, 32, 32, 64)        0         
_________________________________________________________________
max_pooling2d_379 (MaxPoolin (None, 16, 16, 64)        0         
_________________________________________________________________
separable_conv2d_1500 (Separ (None, 16, 16, 8)         1096      
_________________________________________________________________
activation_1633 (Activation) (None, 16, 16, 8)         0         
_________________________________________________________________
dropout_1633 (Dropout)       (None, 16, 16, 8)         0         
_________________________________________________________________
separable_conv2d_1501 (Separ (None, 16, 16, 128)       1224      
_________________________________________________________________
batch_normalization_971 (Bat (None, 16, 16, 128)       512       
_________________________________________________________________
activation_1634 (Activation) (None, 16, 16, 128)       0         
_________________________________________________________________
dropout_1634 (Dropout)       (None, 16, 16, 128)       0         
_________________________________________________________________
separable_conv2d_1502 (Separ (None, 16, 16, 64)        9408      
_________________________________________________________________
batch_normalization_972 (Bat (None, 16, 16, 64)        256       
_________________________________________________________________
activation_1635 (Activation) (None, 16, 16, 64)        0         
_________________________________________________________________
dropout_1635 (Dropout)       (None, 16, 16, 64)        0         
_________________________________________________________________
separable_conv2d_1503 (Separ (None, 16, 16, 512)       33856     
_________________________________________________________________
batch_normalization_973 (Bat (None, 16, 16, 512)       2048      
_________________________________________________________________
activation_1636 (Activation) (None, 16, 16, 512)       0         
_________________________________________________________________
dropout_1636 (Dropout)       (None, 16, 16, 512)       0         
_________________________________________________________________
max_pooling2d_380 (MaxPoolin (None, 8, 8, 512)         0         
_________________________________________________________________
separable_conv2d_1504 (Separ (None, 8, 8, 32)          21024     
_________________________________________________________________
batch_normalization_974 (Bat (None, 8, 8, 32)          128       
_________________________________________________________________
activation_1637 (Activation) (None, 8, 8, 32)          0         
_________________________________________________________________
dropout_1637 (Dropout)       (None, 8, 8, 32)          0         
_________________________________________________________________
max_pooling2d_381 (MaxPoolin (None, 4, 4, 32)          0         
_________________________________________________________________
separable_conv2d_1505 (Separ (None, 4, 4, 128)         4512      
_________________________________________________________________
activation_1638 (Activation) (None, 4, 4, 128)         0         
_________________________________________________________________
dropout_1638 (Dropout)       (None, 4, 4, 128)         0         
_________________________________________________________________
separable_conv2d_1506 (Separ (None, 4, 4, 32)          5280      
_________________________________________________________________
batch_normalization_975 (Bat (None, 4, 4, 32)          128       
_________________________________________________________________
activation_1639 (Activation) (None, 4, 4, 32)          0         
_________________________________________________________________
dropout_1639 (Dropout)       (None, 4, 4, 32)          0         
_________________________________________________________________
separable_conv2d_1507 (Separ (None, 4, 4, 256)         8736      
_________________________________________________________________
batch_normalization_976 (Bat (None, 4, 4, 256)         1024      
_________________________________________________________________
activation_1640 (Activation) (None, 4, 4, 256)         0         
_________________________________________________________________
dropout_1640 (Dropout)       (None, 4, 4, 256)         0         
_________________________________________________________________
flatten_130 (Flatten)        (None, 4096)              0         
_________________________________________________________________
dense_263 (Dense)            (None, 2048)              8390656   
_________________________________________________________________
batch_normalization_977 (Bat (None, 2048)              8192      
_________________________________________________________________
activation_1641 (Activation) (None, 2048)              0         
_________________________________________________________________
dropout_1641 (Dropout)       (None, 2048)              0         
_________________________________________________________________
dense_264 (Dense)            (None, 100)               204900    
=================================================================
Total params: 8,700,991
Trainable params: 8,694,591
Non-trainable params: 6,400
_________________________________________________________________
