Model: "sequential_188"
_________________________________________________________________
Layer (type)                 Output Shape              Param #   
=================================================================
separable_conv2d_2131 (Separ (None, 32, 32, 32)        155       
_________________________________________________________________
activation_2322 (Activation) (None, 32, 32, 32)        0         
_________________________________________________________________
dropout_2322 (Dropout)       (None, 32, 32, 32)        0         
_________________________________________________________________
separable_conv2d_2132 (Separ (None, 32, 32, 256)       8736      
_________________________________________________________________
batch_normalization_1377 (Ba (None, 32, 32, 256)       1024      
_________________________________________________________________
activation_2323 (Activation) (None, 32, 32, 256)       0         
_________________________________________________________________
dropout_2323 (Dropout)       (None, 32, 32, 256)       0         
_________________________________________________________________
separable_conv2d_2133 (Separ (None, 32, 32, 8)         4360      
_________________________________________________________________
batch_normalization_1378 (Ba (None, 32, 32, 8)         32        
_________________________________________________________________
activation_2324 (Activation) (None, 32, 32, 8)         0         
_________________________________________________________________
dropout_2324 (Dropout)       (None, 32, 32, 8)         0         
_________________________________________________________________
separable_conv2d_2134 (Separ (None, 32, 32, 64)        648       
_________________________________________________________________
activation_2325 (Activation) (None, 32, 32, 64)        0         
_________________________________________________________________
dropout_2325 (Dropout)       (None, 32, 32, 64)        0         
_________________________________________________________________
max_pooling2d_551 (MaxPoolin (None, 16, 16, 64)        0         
_________________________________________________________________
separable_conv2d_2135 (Separ (None, 16, 16, 16)        1616      
_________________________________________________________________
activation_2326 (Activation) (None, 16, 16, 16)        0         
_________________________________________________________________
dropout_2326 (Dropout)       (None, 16, 16, 16)        0         
_________________________________________________________________
separable_conv2d_2136 (Separ (None, 16, 16, 128)       2320      
_________________________________________________________________
activation_2327 (Activation) (None, 16, 16, 128)       0         
_________________________________________________________________
dropout_2327 (Dropout)       (None, 16, 16, 128)       0         
_________________________________________________________________
separable_conv2d_2137 (Separ (None, 16, 16, 64)        9408      
_________________________________________________________________
batch_normalization_1379 (Ba (None, 16, 16, 64)        256       
_________________________________________________________________
activation_2328 (Activation) (None, 16, 16, 64)        0         
_________________________________________________________________
dropout_2328 (Dropout)       (None, 16, 16, 64)        0         
_________________________________________________________________
separable_conv2d_2138 (Separ (None, 16, 16, 512)       33856     
_________________________________________________________________
batch_normalization_1380 (Ba (None, 16, 16, 512)       2048      
_________________________________________________________________
activation_2329 (Activation) (None, 16, 16, 512)       0         
_________________________________________________________________
dropout_2329 (Dropout)       (None, 16, 16, 512)       0         
_________________________________________________________________
max_pooling2d_552 (MaxPoolin (None, 8, 8, 512)         0         
_________________________________________________________________
separable_conv2d_2139 (Separ (None, 8, 8, 128)         70272     
_________________________________________________________________
activation_2330 (Activation) (None, 8, 8, 128)         0         
_________________________________________________________________
dropout_2330 (Dropout)       (None, 8, 8, 128)         0         
_________________________________________________________________
separable_conv2d_2140 (Separ (None, 8, 8, 32)          5280      
_________________________________________________________________
batch_normalization_1381 (Ba (None, 8, 8, 32)          128       
_________________________________________________________________
activation_2331 (Activation) (None, 8, 8, 32)          0         
_________________________________________________________________
dropout_2331 (Dropout)       (None, 8, 8, 32)          0         
_________________________________________________________________
separable_conv2d_2141 (Separ (None, 8, 8, 256)         8736      
_________________________________________________________________
batch_normalization_1382 (Ba (None, 8, 8, 256)         1024      
_________________________________________________________________
activation_2332 (Activation) (None, 8, 8, 256)         0         
_________________________________________________________________
dropout_2332 (Dropout)       (None, 8, 8, 256)         0         
_________________________________________________________________
max_pooling2d_553 (MaxPoolin (None, 4, 4, 256)         0         
_________________________________________________________________
flatten_188 (Flatten)        (None, 4096)              0         
_________________________________________________________________
dense_379 (Dense)            (None, 2048)              8390656   
_________________________________________________________________
batch_normalization_1383 (Ba (None, 2048)              8192      
_________________________________________________________________
activation_2333 (Activation) (None, 2048)              0         
_________________________________________________________________
dropout_2333 (Dropout)       (None, 2048)              0         
_________________________________________________________________
dense_380 (Dense)            (None, 100)               204900    
=================================================================
Total params: 8,753,647
Trainable params: 8,747,295
Non-trainable params: 6,352
_________________________________________________________________
