Model: "sequential_239"
_________________________________________________________________
Layer (type)                 Output Shape              Param #   
=================================================================
separable_conv2d_2678 (Separ (None, 32, 32, 32)        155       
_________________________________________________________________
activation_2920 (Activation) (None, 32, 32, 32)        0         
_________________________________________________________________
dropout_2920 (Dropout)       (None, 32, 32, 32)        0         
_________________________________________________________________
separable_conv2d_2679 (Separ (None, 32, 32, 256)       8736      
_________________________________________________________________
batch_normalization_1712 (Ba (None, 32, 32, 256)       1024      
_________________________________________________________________
activation_2921 (Activation) (None, 32, 32, 256)       0         
_________________________________________________________________
dropout_2921 (Dropout)       (None, 32, 32, 256)       0         
_________________________________________________________________
separable_conv2d_2680 (Separ (None, 32, 32, 8)         4360      
_________________________________________________________________
activation_2922 (Activation) (None, 32, 32, 8)         0         
_________________________________________________________________
dropout_2922 (Dropout)       (None, 32, 32, 8)         0         
_________________________________________________________________
separable_conv2d_2681 (Separ (None, 32, 32, 64)        648       
_________________________________________________________________
activation_2923 (Activation) (None, 32, 32, 64)        0         
_________________________________________________________________
dropout_2923 (Dropout)       (None, 32, 32, 64)        0         
_________________________________________________________________
max_pooling2d_699 (MaxPoolin (None, 16, 16, 64)        0         
_________________________________________________________________
separable_conv2d_2682 (Separ (None, 16, 16, 16)        1616      
_________________________________________________________________
activation_2924 (Activation) (None, 16, 16, 16)        0         
_________________________________________________________________
dropout_2924 (Dropout)       (None, 16, 16, 16)        0         
_________________________________________________________________
separable_conv2d_2683 (Separ (None, 16, 16, 128)       2320      
_________________________________________________________________
batch_normalization_1713 (Ba (None, 16, 16, 128)       512       
_________________________________________________________________
activation_2925 (Activation) (None, 16, 16, 128)       0         
_________________________________________________________________
dropout_2925 (Dropout)       (None, 16, 16, 128)       0         
_________________________________________________________________
separable_conv2d_2684 (Separ (None, 16, 16, 64)        9408      
_________________________________________________________________
batch_normalization_1714 (Ba (None, 16, 16, 64)        256       
_________________________________________________________________
activation_2926 (Activation) (None, 16, 16, 64)        0         
_________________________________________________________________
dropout_2926 (Dropout)       (None, 16, 16, 64)        0         
_________________________________________________________________
separable_conv2d_2685 (Separ (None, 16, 16, 512)       33856     
_________________________________________________________________
batch_normalization_1715 (Ba (None, 16, 16, 512)       2048      
_________________________________________________________________
activation_2927 (Activation) (None, 16, 16, 512)       0         
_________________________________________________________________
dropout_2927 (Dropout)       (None, 16, 16, 512)       0         
_________________________________________________________________
max_pooling2d_700 (MaxPoolin (None, 8, 8, 512)         0         
_________________________________________________________________
separable_conv2d_2686 (Separ (None, 8, 8, 128)         70272     
_________________________________________________________________
activation_2928 (Activation) (None, 8, 8, 128)         0         
_________________________________________________________________
dropout_2928 (Dropout)       (None, 8, 8, 128)         0         
_________________________________________________________________
separable_conv2d_2687 (Separ (None, 8, 8, 32)          5280      
_________________________________________________________________
activation_2929 (Activation) (None, 8, 8, 32)          0         
_________________________________________________________________
dropout_2929 (Dropout)       (None, 8, 8, 32)          0         
_________________________________________________________________
separable_conv2d_2688 (Separ (None, 8, 8, 256)         8736      
_________________________________________________________________
batch_normalization_1716 (Ba (None, 8, 8, 256)         1024      
_________________________________________________________________
activation_2930 (Activation) (None, 8, 8, 256)         0         
_________________________________________________________________
dropout_2930 (Dropout)       (None, 8, 8, 256)         0         
_________________________________________________________________
max_pooling2d_701 (MaxPoolin (None, 4, 4, 256)         0         
_________________________________________________________________
flatten_239 (Flatten)        (None, 4096)              0         
_________________________________________________________________
dense_481 (Dense)            (None, 2048)              8390656   
_________________________________________________________________
batch_normalization_1717 (Ba (None, 2048)              8192      
_________________________________________________________________
activation_2931 (Activation) (None, 2048)              0         
_________________________________________________________________
dropout_2931 (Dropout)       (None, 2048)              0         
_________________________________________________________________
dense_482 (Dense)            (None, 100)               204900    
=================================================================
Total params: 8,753,999
Trainable params: 8,747,471
Non-trainable params: 6,528
_________________________________________________________________
