Model: "sequential_87"
_________________________________________________________________
Layer (type)                 Output Shape              Param #   
=================================================================
separable_conv2d_1011 (Separ (None, 32, 32, 32)        155       
_________________________________________________________________
activation_1101 (Activation) (None, 32, 32, 32)        0         
_________________________________________________________________
dropout_1101 (Dropout)       (None, 32, 32, 32)        0         
_________________________________________________________________
separable_conv2d_1012 (Separ (None, 32, 32, 256)       8736      
_________________________________________________________________
batch_normalization_644 (Bat (None, 32, 32, 256)       1024      
_________________________________________________________________
activation_1102 (Activation) (None, 32, 32, 256)       0         
_________________________________________________________________
dropout_1102 (Dropout)       (None, 32, 32, 256)       0         
_________________________________________________________________
separable_conv2d_1013 (Separ (None, 32, 32, 8)         4360      
_________________________________________________________________
activation_1103 (Activation) (None, 32, 32, 8)         0         
_________________________________________________________________
dropout_1103 (Dropout)       (None, 32, 32, 8)         0         
_________________________________________________________________
separable_conv2d_1014 (Separ (None, 32, 32, 64)        648       
_________________________________________________________________
activation_1104 (Activation) (None, 32, 32, 64)        0         
_________________________________________________________________
dropout_1104 (Dropout)       (None, 32, 32, 64)        0         
_________________________________________________________________
max_pooling2d_250 (MaxPoolin (None, 16, 16, 64)        0         
_________________________________________________________________
separable_conv2d_1015 (Separ (None, 16, 16, 8)         1096      
_________________________________________________________________
activation_1105 (Activation) (None, 16, 16, 8)         0         
_________________________________________________________________
dropout_1105 (Dropout)       (None, 16, 16, 8)         0         
_________________________________________________________________
separable_conv2d_1016 (Separ (None, 16, 16, 128)       1224      
_________________________________________________________________
batch_normalization_645 (Bat (None, 16, 16, 128)       512       
_________________________________________________________________
activation_1106 (Activation) (None, 16, 16, 128)       0         
_________________________________________________________________
dropout_1106 (Dropout)       (None, 16, 16, 128)       0         
_________________________________________________________________
separable_conv2d_1017 (Separ (None, 16, 16, 64)        9408      
_________________________________________________________________
batch_normalization_646 (Bat (None, 16, 16, 64)        256       
_________________________________________________________________
activation_1107 (Activation) (None, 16, 16, 64)        0         
_________________________________________________________________
dropout_1107 (Dropout)       (None, 16, 16, 64)        0         
_________________________________________________________________
separable_conv2d_1018 (Separ (None, 16, 16, 512)       33856     
_________________________________________________________________
batch_normalization_647 (Bat (None, 16, 16, 512)       2048      
_________________________________________________________________
activation_1108 (Activation) (None, 16, 16, 512)       0         
_________________________________________________________________
dropout_1108 (Dropout)       (None, 16, 16, 512)       0         
_________________________________________________________________
max_pooling2d_251 (MaxPoolin (None, 8, 8, 512)         0         
_________________________________________________________________
separable_conv2d_1019 (Separ (None, 8, 8, 32)          21024     
_________________________________________________________________
batch_normalization_648 (Bat (None, 8, 8, 32)          128       
_________________________________________________________________
activation_1109 (Activation) (None, 8, 8, 32)          0         
_________________________________________________________________
dropout_1109 (Dropout)       (None, 8, 8, 32)          0         
_________________________________________________________________
max_pooling2d_252 (MaxPoolin (None, 4, 4, 32)          0         
_________________________________________________________________
separable_conv2d_1020 (Separ (None, 4, 4, 128)         4512      
_________________________________________________________________
activation_1110 (Activation) (None, 4, 4, 128)         0         
_________________________________________________________________
dropout_1110 (Dropout)       (None, 4, 4, 128)         0         
_________________________________________________________________
separable_conv2d_1021 (Separ (None, 4, 4, 32)          5280      
_________________________________________________________________
batch_normalization_649 (Bat (None, 4, 4, 32)          128       
_________________________________________________________________
activation_1111 (Activation) (None, 4, 4, 32)          0         
_________________________________________________________________
dropout_1111 (Dropout)       (None, 4, 4, 32)          0         
_________________________________________________________________
separable_conv2d_1022 (Separ (None, 4, 4, 256)         8736      
_________________________________________________________________
batch_normalization_650 (Bat (None, 4, 4, 256)         1024      
_________________________________________________________________
activation_1112 (Activation) (None, 4, 4, 256)         0         
_________________________________________________________________
dropout_1112 (Dropout)       (None, 4, 4, 256)         0         
_________________________________________________________________
flatten_87 (Flatten)         (None, 4096)              0         
_________________________________________________________________
dense_177 (Dense)            (None, 2048)              8390656   
_________________________________________________________________
batch_normalization_651 (Bat (None, 2048)              8192      
_________________________________________________________________
activation_1113 (Activation) (None, 2048)              0         
_________________________________________________________________
dropout_1113 (Dropout)       (None, 2048)              0         
_________________________________________________________________
dense_178 (Dense)            (None, 100)               204900    
=================================================================
Total params: 8,707,903
Trainable params: 8,701,247
Non-trainable params: 6,656
_________________________________________________________________
