Model: "sequential_32"
_________________________________________________________________
Layer (type)                 Output Shape              Param #   
=================================================================
separable_conv2d_364 (Separa (None, 32, 32, 32)        155       
_________________________________________________________________
activation_399 (Activation)  (None, 32, 32, 32)        0         
_________________________________________________________________
dropout_399 (Dropout)        (None, 32, 32, 32)        0         
_________________________________________________________________
separable_conv2d_365 (Separa (None, 32, 32, 128)       4512      
_________________________________________________________________
batch_normalization_219 (Bat (None, 32, 32, 128)       512       
_________________________________________________________________
activation_400 (Activation)  (None, 32, 32, 128)       0         
_________________________________________________________________
dropout_400 (Dropout)        (None, 32, 32, 128)       0         
_________________________________________________________________
separable_conv2d_366 (Separa (None, 32, 32, 8)         2184      
_________________________________________________________________
activation_401 (Activation)  (None, 32, 32, 8)         0         
_________________________________________________________________
dropout_401 (Dropout)        (None, 32, 32, 8)         0         
_________________________________________________________________
separable_conv2d_367 (Separa (None, 32, 32, 64)        648       
_________________________________________________________________
activation_402 (Activation)  (None, 32, 32, 64)        0         
_________________________________________________________________
dropout_402 (Dropout)        (None, 32, 32, 64)        0         
_________________________________________________________________
max_pooling2d_85 (MaxPooling (None, 16, 16, 64)        0         
_________________________________________________________________
separable_conv2d_368 (Separa (None, 16, 16, 8)         1096      
_________________________________________________________________
activation_403 (Activation)  (None, 16, 16, 8)         0         
_________________________________________________________________
dropout_403 (Dropout)        (None, 16, 16, 8)         0         
_________________________________________________________________
separable_conv2d_369 (Separa (None, 16, 16, 128)       1224      
_________________________________________________________________
batch_normalization_220 (Bat (None, 16, 16, 128)       512       
_________________________________________________________________
activation_404 (Activation)  (None, 16, 16, 128)       0         
_________________________________________________________________
dropout_404 (Dropout)        (None, 16, 16, 128)       0         
_________________________________________________________________
separable_conv2d_370 (Separa (None, 16, 16, 64)        9408      
_________________________________________________________________
batch_normalization_221 (Bat (None, 16, 16, 64)        256       
_________________________________________________________________
activation_405 (Activation)  (None, 16, 16, 64)        0         
_________________________________________________________________
dropout_405 (Dropout)        (None, 16, 16, 64)        0         
_________________________________________________________________
separable_conv2d_371 (Separa (None, 16, 16, 512)       33856     
_________________________________________________________________
batch_normalization_222 (Bat (None, 16, 16, 512)       2048      
_________________________________________________________________
activation_406 (Activation)  (None, 16, 16, 512)       0         
_________________________________________________________________
dropout_406 (Dropout)        (None, 16, 16, 512)       0         
_________________________________________________________________
max_pooling2d_86 (MaxPooling (None, 8, 8, 512)         0         
_________________________________________________________________
separable_conv2d_372 (Separa (None, 8, 8, 32)          21024     
_________________________________________________________________
batch_normalization_223 (Bat (None, 8, 8, 32)          128       
_________________________________________________________________
activation_407 (Activation)  (None, 8, 8, 32)          0         
_________________________________________________________________
dropout_407 (Dropout)        (None, 8, 8, 32)          0         
_________________________________________________________________
max_pooling2d_87 (MaxPooling (None, 4, 4, 32)          0         
_________________________________________________________________
separable_conv2d_373 (Separa (None, 4, 4, 128)         4512      
_________________________________________________________________
activation_408 (Activation)  (None, 4, 4, 128)         0         
_________________________________________________________________
dropout_408 (Dropout)        (None, 4, 4, 128)         0         
_________________________________________________________________
separable_conv2d_374 (Separa (None, 4, 4, 32)          5280      
_________________________________________________________________
batch_normalization_224 (Bat (None, 4, 4, 32)          128       
_________________________________________________________________
activation_409 (Activation)  (None, 4, 4, 32)          0         
_________________________________________________________________
dropout_409 (Dropout)        (None, 4, 4, 32)          0         
_________________________________________________________________
separable_conv2d_375 (Separa (None, 4, 4, 256)         8736      
_________________________________________________________________
batch_normalization_225 (Bat (None, 4, 4, 256)         1024      
_________________________________________________________________
activation_410 (Activation)  (None, 4, 4, 256)         0         
_________________________________________________________________
dropout_410 (Dropout)        (None, 4, 4, 256)         0         
_________________________________________________________________
flatten_32 (Flatten)         (None, 4096)              0         
_________________________________________________________________
dense_67 (Dense)             (None, 2048)              8390656   
_________________________________________________________________
batch_normalization_226 (Bat (None, 2048)              8192      
_________________________________________________________________
activation_411 (Activation)  (None, 2048)              0         
_________________________________________________________________
dropout_411 (Dropout)        (None, 2048)              0         
_________________________________________________________________
dense_68 (Dense)             (None, 100)               204900    
=================================================================
Total params: 8,700,991
Trainable params: 8,694,591
Non-trainable params: 6,400
_________________________________________________________________
