Model: "sequential_268"
_________________________________________________________________
Layer (type)                 Output Shape              Param #   
=================================================================
separable_conv2d_2982 (Separ (None, 32, 32, 32)        155       
_________________________________________________________________
activation_3253 (Activation) (None, 32, 32, 32)        0         
_________________________________________________________________
dropout_3253 (Dropout)       (None, 32, 32, 32)        0         
_________________________________________________________________
separable_conv2d_2983 (Separ (None, 32, 32, 256)       8736      
_________________________________________________________________
batch_normalization_1902 (Ba (None, 32, 32, 256)       1024      
_________________________________________________________________
activation_3254 (Activation) (None, 32, 32, 256)       0         
_________________________________________________________________
dropout_3254 (Dropout)       (None, 32, 32, 256)       0         
_________________________________________________________________
separable_conv2d_2984 (Separ (None, 32, 32, 8)         4360      
_________________________________________________________________
activation_3255 (Activation) (None, 32, 32, 8)         0         
_________________________________________________________________
dropout_3255 (Dropout)       (None, 32, 32, 8)         0         
_________________________________________________________________
separable_conv2d_2985 (Separ (None, 32, 32, 64)        648       
_________________________________________________________________
activation_3256 (Activation) (None, 32, 32, 64)        0         
_________________________________________________________________
dropout_3256 (Dropout)       (None, 32, 32, 64)        0         
_________________________________________________________________
max_pooling2d_779 (MaxPoolin (None, 16, 16, 64)        0         
_________________________________________________________________
separable_conv2d_2986 (Separ (None, 16, 16, 16)        1616      
_________________________________________________________________
activation_3257 (Activation) (None, 16, 16, 16)        0         
_________________________________________________________________
dropout_3257 (Dropout)       (None, 16, 16, 16)        0         
_________________________________________________________________
separable_conv2d_2987 (Separ (None, 16, 16, 256)       4496      
_________________________________________________________________
batch_normalization_1903 (Ba (None, 16, 16, 256)       1024      
_________________________________________________________________
activation_3258 (Activation) (None, 16, 16, 256)       0         
_________________________________________________________________
dropout_3258 (Dropout)       (None, 16, 16, 256)       0         
_________________________________________________________________
separable_conv2d_2988 (Separ (None, 16, 16, 64)        18752     
_________________________________________________________________
batch_normalization_1904 (Ba (None, 16, 16, 64)        256       
_________________________________________________________________
activation_3259 (Activation) (None, 16, 16, 64)        0         
_________________________________________________________________
dropout_3259 (Dropout)       (None, 16, 16, 64)        0         
_________________________________________________________________
separable_conv2d_2989 (Separ (None, 16, 16, 512)       33856     
_________________________________________________________________
batch_normalization_1905 (Ba (None, 16, 16, 512)       2048      
_________________________________________________________________
activation_3260 (Activation) (None, 16, 16, 512)       0         
_________________________________________________________________
dropout_3260 (Dropout)       (None, 16, 16, 512)       0         
_________________________________________________________________
max_pooling2d_780 (MaxPoolin (None, 8, 8, 512)         0         
_________________________________________________________________
separable_conv2d_2990 (Separ (None, 8, 8, 128)         70272     
_________________________________________________________________
activation_3261 (Activation) (None, 8, 8, 128)         0         
_________________________________________________________________
dropout_3261 (Dropout)       (None, 8, 8, 128)         0         
_________________________________________________________________
separable_conv2d_2991 (Separ (None, 8, 8, 32)          5280      
_________________________________________________________________
batch_normalization_1906 (Ba (None, 8, 8, 32)          128       
_________________________________________________________________
activation_3262 (Activation) (None, 8, 8, 32)          0         
_________________________________________________________________
dropout_3262 (Dropout)       (None, 8, 8, 32)          0         
_________________________________________________________________
separable_conv2d_2992 (Separ (None, 8, 8, 256)         8736      
_________________________________________________________________
batch_normalization_1907 (Ba (None, 8, 8, 256)         1024      
_________________________________________________________________
activation_3263 (Activation) (None, 8, 8, 256)         0         
_________________________________________________________________
dropout_3263 (Dropout)       (None, 8, 8, 256)         0         
_________________________________________________________________
max_pooling2d_781 (MaxPoolin (None, 4, 4, 256)         0         
_________________________________________________________________
flatten_268 (Flatten)        (None, 4096)              0         
_________________________________________________________________
dense_539 (Dense)            (None, 2048)              8390656   
_________________________________________________________________
batch_normalization_1908 (Ba (None, 2048)              8192      
_________________________________________________________________
activation_3264 (Activation) (None, 2048)              0         
_________________________________________________________________
dropout_3264 (Dropout)       (None, 2048)              0         
_________________________________________________________________
dense_540 (Dense)            (None, 100)               204900    
=================================================================
Total params: 8,766,159
Trainable params: 8,759,311
Non-trainable params: 6,848
_________________________________________________________________
