Model: "sequential_237"
_________________________________________________________________
Layer (type)                 Output Shape              Param #   
=================================================================
separable_conv2d_2656 (Separ (None, 32, 32, 32)        155       
_________________________________________________________________
activation_2896 (Activation) (None, 32, 32, 32)        0         
_________________________________________________________________
dropout_2896 (Dropout)       (None, 32, 32, 32)        0         
_________________________________________________________________
separable_conv2d_2657 (Separ (None, 32, 32, 256)       8736      
_________________________________________________________________
batch_normalization_1698 (Ba (None, 32, 32, 256)       1024      
_________________________________________________________________
activation_2897 (Activation) (None, 32, 32, 256)       0         
_________________________________________________________________
dropout_2897 (Dropout)       (None, 32, 32, 256)       0         
_________________________________________________________________
separable_conv2d_2658 (Separ (None, 32, 32, 8)         4360      
_________________________________________________________________
activation_2898 (Activation) (None, 32, 32, 8)         0         
_________________________________________________________________
dropout_2898 (Dropout)       (None, 32, 32, 8)         0         
_________________________________________________________________
separable_conv2d_2659 (Separ (None, 32, 32, 64)        648       
_________________________________________________________________
activation_2899 (Activation) (None, 32, 32, 64)        0         
_________________________________________________________________
dropout_2899 (Dropout)       (None, 32, 32, 64)        0         
_________________________________________________________________
max_pooling2d_693 (MaxPoolin (None, 16, 16, 64)        0         
_________________________________________________________________
separable_conv2d_2660 (Separ (None, 16, 16, 16)        1616      
_________________________________________________________________
activation_2900 (Activation) (None, 16, 16, 16)        0         
_________________________________________________________________
dropout_2900 (Dropout)       (None, 16, 16, 16)        0         
_________________________________________________________________
separable_conv2d_2661 (Separ (None, 16, 16, 128)       2320      
_________________________________________________________________
batch_normalization_1699 (Ba (None, 16, 16, 128)       512       
_________________________________________________________________
activation_2901 (Activation) (None, 16, 16, 128)       0         
_________________________________________________________________
dropout_2901 (Dropout)       (None, 16, 16, 128)       0         
_________________________________________________________________
separable_conv2d_2662 (Separ (None, 16, 16, 64)        9408      
_________________________________________________________________
batch_normalization_1700 (Ba (None, 16, 16, 64)        256       
_________________________________________________________________
activation_2902 (Activation) (None, 16, 16, 64)        0         
_________________________________________________________________
dropout_2902 (Dropout)       (None, 16, 16, 64)        0         
_________________________________________________________________
separable_conv2d_2663 (Separ (None, 16, 16, 512)       33856     
_________________________________________________________________
batch_normalization_1701 (Ba (None, 16, 16, 512)       2048      
_________________________________________________________________
activation_2903 (Activation) (None, 16, 16, 512)       0         
_________________________________________________________________
dropout_2903 (Dropout)       (None, 16, 16, 512)       0         
_________________________________________________________________
max_pooling2d_694 (MaxPoolin (None, 8, 8, 512)         0         
_________________________________________________________________
separable_conv2d_2664 (Separ (None, 8, 8, 128)         70272     
_________________________________________________________________
activation_2904 (Activation) (None, 8, 8, 128)         0         
_________________________________________________________________
dropout_2904 (Dropout)       (None, 8, 8, 128)         0         
_________________________________________________________________
separable_conv2d_2665 (Separ (None, 8, 8, 32)          5280      
_________________________________________________________________
batch_normalization_1702 (Ba (None, 8, 8, 32)          128       
_________________________________________________________________
activation_2905 (Activation) (None, 8, 8, 32)          0         
_________________________________________________________________
dropout_2905 (Dropout)       (None, 8, 8, 32)          0         
_________________________________________________________________
separable_conv2d_2666 (Separ (None, 8, 8, 256)         8736      
_________________________________________________________________
batch_normalization_1703 (Ba (None, 8, 8, 256)         1024      
_________________________________________________________________
activation_2906 (Activation) (None, 8, 8, 256)         0         
_________________________________________________________________
dropout_2906 (Dropout)       (None, 8, 8, 256)         0         
_________________________________________________________________
max_pooling2d_695 (MaxPoolin (None, 4, 4, 256)         0         
_________________________________________________________________
flatten_237 (Flatten)        (None, 4096)              0         
_________________________________________________________________
dense_477 (Dense)            (None, 2048)              8390656   
_________________________________________________________________
batch_normalization_1704 (Ba (None, 2048)              8192      
_________________________________________________________________
activation_2907 (Activation) (None, 2048)              0         
_________________________________________________________________
dropout_2907 (Dropout)       (None, 2048)              0         
_________________________________________________________________
dense_478 (Dense)            (None, 100)               204900    
=================================================================
Total params: 8,754,127
Trainable params: 8,747,535
Non-trainable params: 6,592
_________________________________________________________________
