Model: "sequential_20"
_________________________________________________________________
Layer (type)                 Output Shape              Param #   
=================================================================
separable_conv2d_222 (Separa (None, 32, 32, 32)        155       
_________________________________________________________________
activation_245 (Activation)  (None, 32, 32, 32)        0         
_________________________________________________________________
dropout_245 (Dropout)        (None, 32, 32, 32)        0         
_________________________________________________________________
separable_conv2d_223 (Separa (None, 32, 32, 128)       4512      
_________________________________________________________________
batch_normalization_125 (Bat (None, 32, 32, 128)       512       
_________________________________________________________________
activation_246 (Activation)  (None, 32, 32, 128)       0         
_________________________________________________________________
dropout_246 (Dropout)        (None, 32, 32, 128)       0         
_________________________________________________________________
separable_conv2d_224 (Separa (None, 32, 32, 8)         2184      
_________________________________________________________________
activation_247 (Activation)  (None, 32, 32, 8)         0         
_________________________________________________________________
dropout_247 (Dropout)        (None, 32, 32, 8)         0         
_________________________________________________________________
separable_conv2d_225 (Separa (None, 32, 32, 64)        648       
_________________________________________________________________
activation_248 (Activation)  (None, 32, 32, 64)        0         
_________________________________________________________________
dropout_248 (Dropout)        (None, 32, 32, 64)        0         
_________________________________________________________________
max_pooling2d_49 (MaxPooling (None, 16, 16, 64)        0         
_________________________________________________________________
separable_conv2d_226 (Separa (None, 16, 16, 8)         1096      
_________________________________________________________________
activation_249 (Activation)  (None, 16, 16, 8)         0         
_________________________________________________________________
dropout_249 (Dropout)        (None, 16, 16, 8)         0         
_________________________________________________________________
separable_conv2d_227 (Separa (None, 16, 16, 128)       1224      
_________________________________________________________________
batch_normalization_126 (Bat (None, 16, 16, 128)       512       
_________________________________________________________________
activation_250 (Activation)  (None, 16, 16, 128)       0         
_________________________________________________________________
dropout_250 (Dropout)        (None, 16, 16, 128)       0         
_________________________________________________________________
separable_conv2d_228 (Separa (None, 16, 16, 64)        9408      
_________________________________________________________________
batch_normalization_127 (Bat (None, 16, 16, 64)        256       
_________________________________________________________________
activation_251 (Activation)  (None, 16, 16, 64)        0         
_________________________________________________________________
dropout_251 (Dropout)        (None, 16, 16, 64)        0         
_________________________________________________________________
separable_conv2d_229 (Separa (None, 16, 16, 512)       33856     
_________________________________________________________________
batch_normalization_128 (Bat (None, 16, 16, 512)       2048      
_________________________________________________________________
activation_252 (Activation)  (None, 16, 16, 512)       0         
_________________________________________________________________
dropout_252 (Dropout)        (None, 16, 16, 512)       0         
_________________________________________________________________
max_pooling2d_50 (MaxPooling (None, 8, 8, 512)         0         
_________________________________________________________________
separable_conv2d_230 (Separa (None, 8, 8, 32)          21024     
_________________________________________________________________
batch_normalization_129 (Bat (None, 8, 8, 32)          128       
_________________________________________________________________
activation_253 (Activation)  (None, 8, 8, 32)          0         
_________________________________________________________________
dropout_253 (Dropout)        (None, 8, 8, 32)          0         
_________________________________________________________________
max_pooling2d_51 (MaxPooling (None, 4, 4, 32)          0         
_________________________________________________________________
separable_conv2d_231 (Separa (None, 4, 4, 128)         4512      
_________________________________________________________________
activation_254 (Activation)  (None, 4, 4, 128)         0         
_________________________________________________________________
dropout_254 (Dropout)        (None, 4, 4, 128)         0         
_________________________________________________________________
separable_conv2d_232 (Separa (None, 4, 4, 32)          5280      
_________________________________________________________________
batch_normalization_130 (Bat (None, 4, 4, 32)          128       
_________________________________________________________________
activation_255 (Activation)  (None, 4, 4, 32)          0         
_________________________________________________________________
dropout_255 (Dropout)        (None, 4, 4, 32)          0         
_________________________________________________________________
separable_conv2d_233 (Separa (None, 4, 4, 256)         8736      
_________________________________________________________________
batch_normalization_131 (Bat (None, 4, 4, 256)         1024      
_________________________________________________________________
activation_256 (Activation)  (None, 4, 4, 256)         0         
_________________________________________________________________
dropout_256 (Dropout)        (None, 4, 4, 256)         0         
_________________________________________________________________
flatten_20 (Flatten)         (None, 4096)              0         
_________________________________________________________________
dense_43 (Dense)             (None, 2048)              8390656   
_________________________________________________________________
batch_normalization_132 (Bat (None, 2048)              8192      
_________________________________________________________________
activation_257 (Activation)  (None, 2048)              0         
_________________________________________________________________
dropout_257 (Dropout)        (None, 2048)              0         
_________________________________________________________________
dense_44 (Dense)             (None, 100)               204900    
=================================================================
Total params: 8,700,991
Trainable params: 8,694,591
Non-trainable params: 6,400
_________________________________________________________________
