Model: "sequential_74"
_________________________________________________________________
Layer (type)                 Output Shape              Param #   
=================================================================
separable_conv2d_858 (Separa (None, 32, 32, 32)        155       
_________________________________________________________________
activation_935 (Activation)  (None, 32, 32, 32)        0         
_________________________________________________________________
dropout_935 (Dropout)        (None, 32, 32, 32)        0         
_________________________________________________________________
separable_conv2d_859 (Separa (None, 32, 32, 128)       4512      
_________________________________________________________________
batch_normalization_541 (Bat (None, 32, 32, 128)       512       
_________________________________________________________________
activation_936 (Activation)  (None, 32, 32, 128)       0         
_________________________________________________________________
dropout_936 (Dropout)        (None, 32, 32, 128)       0         
_________________________________________________________________
separable_conv2d_860 (Separa (None, 32, 32, 8)         2184      
_________________________________________________________________
activation_937 (Activation)  (None, 32, 32, 8)         0         
_________________________________________________________________
dropout_937 (Dropout)        (None, 32, 32, 8)         0         
_________________________________________________________________
separable_conv2d_861 (Separa (None, 32, 32, 64)        648       
_________________________________________________________________
activation_938 (Activation)  (None, 32, 32, 64)        0         
_________________________________________________________________
dropout_938 (Dropout)        (None, 32, 32, 64)        0         
_________________________________________________________________
max_pooling2d_211 (MaxPoolin (None, 16, 16, 64)        0         
_________________________________________________________________
separable_conv2d_862 (Separa (None, 16, 16, 8)         1096      
_________________________________________________________________
activation_939 (Activation)  (None, 16, 16, 8)         0         
_________________________________________________________________
dropout_939 (Dropout)        (None, 16, 16, 8)         0         
_________________________________________________________________
separable_conv2d_863 (Separa (None, 16, 16, 128)       1224      
_________________________________________________________________
batch_normalization_542 (Bat (None, 16, 16, 128)       512       
_________________________________________________________________
activation_940 (Activation)  (None, 16, 16, 128)       0         
_________________________________________________________________
dropout_940 (Dropout)        (None, 16, 16, 128)       0         
_________________________________________________________________
separable_conv2d_864 (Separa (None, 16, 16, 64)        9408      
_________________________________________________________________
batch_normalization_543 (Bat (None, 16, 16, 64)        256       
_________________________________________________________________
activation_941 (Activation)  (None, 16, 16, 64)        0         
_________________________________________________________________
dropout_941 (Dropout)        (None, 16, 16, 64)        0         
_________________________________________________________________
separable_conv2d_865 (Separa (None, 16, 16, 512)       33856     
_________________________________________________________________
batch_normalization_544 (Bat (None, 16, 16, 512)       2048      
_________________________________________________________________
activation_942 (Activation)  (None, 16, 16, 512)       0         
_________________________________________________________________
dropout_942 (Dropout)        (None, 16, 16, 512)       0         
_________________________________________________________________
max_pooling2d_212 (MaxPoolin (None, 8, 8, 512)         0         
_________________________________________________________________
separable_conv2d_866 (Separa (None, 8, 8, 32)          21024     
_________________________________________________________________
batch_normalization_545 (Bat (None, 8, 8, 32)          128       
_________________________________________________________________
activation_943 (Activation)  (None, 8, 8, 32)          0         
_________________________________________________________________
dropout_943 (Dropout)        (None, 8, 8, 32)          0         
_________________________________________________________________
max_pooling2d_213 (MaxPoolin (None, 4, 4, 32)          0         
_________________________________________________________________
separable_conv2d_867 (Separa (None, 4, 4, 128)         4512      
_________________________________________________________________
activation_944 (Activation)  (None, 4, 4, 128)         0         
_________________________________________________________________
dropout_944 (Dropout)        (None, 4, 4, 128)         0         
_________________________________________________________________
separable_conv2d_868 (Separa (None, 4, 4, 32)          5280      
_________________________________________________________________
batch_normalization_546 (Bat (None, 4, 4, 32)          128       
_________________________________________________________________
activation_945 (Activation)  (None, 4, 4, 32)          0         
_________________________________________________________________
dropout_945 (Dropout)        (None, 4, 4, 32)          0         
_________________________________________________________________
separable_conv2d_869 (Separa (None, 4, 4, 256)         8736      
_________________________________________________________________
batch_normalization_547 (Bat (None, 4, 4, 256)         1024      
_________________________________________________________________
activation_946 (Activation)  (None, 4, 4, 256)         0         
_________________________________________________________________
dropout_946 (Dropout)        (None, 4, 4, 256)         0         
_________________________________________________________________
flatten_74 (Flatten)         (None, 4096)              0         
_________________________________________________________________
dense_151 (Dense)            (None, 2048)              8390656   
_________________________________________________________________
batch_normalization_548 (Bat (None, 2048)              8192      
_________________________________________________________________
activation_947 (Activation)  (None, 2048)              0         
_________________________________________________________________
dropout_947 (Dropout)        (None, 2048)              0         
_________________________________________________________________
dense_152 (Dense)            (None, 100)               204900    
=================================================================
Total params: 8,700,991
Trainable params: 8,694,591
Non-trainable params: 6,400
_________________________________________________________________
