Model: "sequential_44"
_________________________________________________________________
Layer (type)                 Output Shape              Param #   
=================================================================
separable_conv2d_506 (Separa (None, 32, 32, 32)        155       
_________________________________________________________________
activation_553 (Activation)  (None, 32, 32, 32)        0         
_________________________________________________________________
dropout_553 (Dropout)        (None, 32, 32, 32)        0         
_________________________________________________________________
separable_conv2d_507 (Separa (None, 32, 32, 128)       4512      
_________________________________________________________________
batch_normalization_309 (Bat (None, 32, 32, 128)       512       
_________________________________________________________________
activation_554 (Activation)  (None, 32, 32, 128)       0         
_________________________________________________________________
dropout_554 (Dropout)        (None, 32, 32, 128)       0         
_________________________________________________________________
separable_conv2d_508 (Separa (None, 32, 32, 8)         2184      
_________________________________________________________________
activation_555 (Activation)  (None, 32, 32, 8)         0         
_________________________________________________________________
dropout_555 (Dropout)        (None, 32, 32, 8)         0         
_________________________________________________________________
separable_conv2d_509 (Separa (None, 32, 32, 64)        648       
_________________________________________________________________
activation_556 (Activation)  (None, 32, 32, 64)        0         
_________________________________________________________________
dropout_556 (Dropout)        (None, 32, 32, 64)        0         
_________________________________________________________________
max_pooling2d_121 (MaxPoolin (None, 16, 16, 64)        0         
_________________________________________________________________
separable_conv2d_510 (Separa (None, 16, 16, 8)         1096      
_________________________________________________________________
activation_557 (Activation)  (None, 16, 16, 8)         0         
_________________________________________________________________
dropout_557 (Dropout)        (None, 16, 16, 8)         0         
_________________________________________________________________
separable_conv2d_511 (Separa (None, 16, 16, 128)       1224      
_________________________________________________________________
batch_normalization_310 (Bat (None, 16, 16, 128)       512       
_________________________________________________________________
activation_558 (Activation)  (None, 16, 16, 128)       0         
_________________________________________________________________
dropout_558 (Dropout)        (None, 16, 16, 128)       0         
_________________________________________________________________
separable_conv2d_512 (Separa (None, 16, 16, 64)        9408      
_________________________________________________________________
batch_normalization_311 (Bat (None, 16, 16, 64)        256       
_________________________________________________________________
activation_559 (Activation)  (None, 16, 16, 64)        0         
_________________________________________________________________
dropout_559 (Dropout)        (None, 16, 16, 64)        0         
_________________________________________________________________
separable_conv2d_513 (Separa (None, 16, 16, 512)       33856     
_________________________________________________________________
batch_normalization_312 (Bat (None, 16, 16, 512)       2048      
_________________________________________________________________
activation_560 (Activation)  (None, 16, 16, 512)       0         
_________________________________________________________________
dropout_560 (Dropout)        (None, 16, 16, 512)       0         
_________________________________________________________________
max_pooling2d_122 (MaxPoolin (None, 8, 8, 512)         0         
_________________________________________________________________
separable_conv2d_514 (Separa (None, 8, 8, 128)         70272     
_________________________________________________________________
activation_561 (Activation)  (None, 8, 8, 128)         0         
_________________________________________________________________
dropout_561 (Dropout)        (None, 8, 8, 128)         0         
_________________________________________________________________
separable_conv2d_515 (Separa (None, 8, 8, 32)          5280      
_________________________________________________________________
batch_normalization_313 (Bat (None, 8, 8, 32)          128       
_________________________________________________________________
activation_562 (Activation)  (None, 8, 8, 32)          0         
_________________________________________________________________
dropout_562 (Dropout)        (None, 8, 8, 32)          0         
_________________________________________________________________
separable_conv2d_516 (Separa (None, 8, 8, 256)         8736      
_________________________________________________________________
batch_normalization_314 (Bat (None, 8, 8, 256)         1024      
_________________________________________________________________
activation_563 (Activation)  (None, 8, 8, 256)         0         
_________________________________________________________________
dropout_563 (Dropout)        (None, 8, 8, 256)         0         
_________________________________________________________________
max_pooling2d_123 (MaxPoolin (None, 4, 4, 256)         0         
_________________________________________________________________
flatten_44 (Flatten)         (None, 4096)              0         
_________________________________________________________________
dense_91 (Dense)             (None, 2048)              8390656   
_________________________________________________________________
batch_normalization_315 (Bat (None, 2048)              8192      
_________________________________________________________________
activation_564 (Activation)  (None, 2048)              0         
_________________________________________________________________
dropout_564 (Dropout)        (None, 2048)              0         
_________________________________________________________________
dense_92 (Dense)             (None, 100)               204900    
=================================================================
Total params: 8,745,599
Trainable params: 8,739,263
Non-trainable params: 6,336
_________________________________________________________________
