Model: "sequential_201"
_________________________________________________________________
Layer (type)                 Output Shape              Param #   
=================================================================
separable_conv2d_2272 (Separ (None, 32, 32, 32)        155       
_________________________________________________________________
activation_2476 (Activation) (None, 32, 32, 32)        0         
_________________________________________________________________
dropout_2476 (Dropout)       (None, 32, 32, 32)        0         
_________________________________________________________________
separable_conv2d_2273 (Separ (None, 32, 32, 256)       8736      
_________________________________________________________________
batch_normalization_1460 (Ba (None, 32, 32, 256)       1024      
_________________________________________________________________
activation_2477 (Activation) (None, 32, 32, 256)       0         
_________________________________________________________________
dropout_2477 (Dropout)       (None, 32, 32, 256)       0         
_________________________________________________________________
separable_conv2d_2274 (Separ (None, 32, 32, 8)         4360      
_________________________________________________________________
activation_2478 (Activation) (None, 32, 32, 8)         0         
_________________________________________________________________
dropout_2478 (Dropout)       (None, 32, 32, 8)         0         
_________________________________________________________________
separable_conv2d_2275 (Separ (None, 32, 32, 64)        648       
_________________________________________________________________
activation_2479 (Activation) (None, 32, 32, 64)        0         
_________________________________________________________________
dropout_2479 (Dropout)       (None, 32, 32, 64)        0         
_________________________________________________________________
max_pooling2d_590 (MaxPoolin (None, 16, 16, 64)        0         
_________________________________________________________________
separable_conv2d_2276 (Separ (None, 16, 16, 16)        1616      
_________________________________________________________________
activation_2480 (Activation) (None, 16, 16, 16)        0         
_________________________________________________________________
dropout_2480 (Dropout)       (None, 16, 16, 16)        0         
_________________________________________________________________
separable_conv2d_2277 (Separ (None, 16, 16, 128)       2320      
_________________________________________________________________
batch_normalization_1461 (Ba (None, 16, 16, 128)       512       
_________________________________________________________________
activation_2481 (Activation) (None, 16, 16, 128)       0         
_________________________________________________________________
dropout_2481 (Dropout)       (None, 16, 16, 128)       0         
_________________________________________________________________
separable_conv2d_2278 (Separ (None, 16, 16, 64)        9408      
_________________________________________________________________
batch_normalization_1462 (Ba (None, 16, 16, 64)        256       
_________________________________________________________________
activation_2482 (Activation) (None, 16, 16, 64)        0         
_________________________________________________________________
dropout_2482 (Dropout)       (None, 16, 16, 64)        0         
_________________________________________________________________
separable_conv2d_2279 (Separ (None, 16, 16, 512)       33856     
_________________________________________________________________
batch_normalization_1463 (Ba (None, 16, 16, 512)       2048      
_________________________________________________________________
activation_2483 (Activation) (None, 16, 16, 512)       0         
_________________________________________________________________
dropout_2483 (Dropout)       (None, 16, 16, 512)       0         
_________________________________________________________________
max_pooling2d_591 (MaxPoolin (None, 8, 8, 512)         0         
_________________________________________________________________
separable_conv2d_2280 (Separ (None, 8, 8, 128)         70272     
_________________________________________________________________
activation_2484 (Activation) (None, 8, 8, 128)         0         
_________________________________________________________________
dropout_2484 (Dropout)       (None, 8, 8, 128)         0         
_________________________________________________________________
separable_conv2d_2281 (Separ (None, 8, 8, 32)          5280      
_________________________________________________________________
batch_normalization_1464 (Ba (None, 8, 8, 32)          128       
_________________________________________________________________
activation_2485 (Activation) (None, 8, 8, 32)          0         
_________________________________________________________________
dropout_2485 (Dropout)       (None, 8, 8, 32)          0         
_________________________________________________________________
separable_conv2d_2282 (Separ (None, 8, 8, 256)         8736      
_________________________________________________________________
batch_normalization_1465 (Ba (None, 8, 8, 256)         1024      
_________________________________________________________________
activation_2486 (Activation) (None, 8, 8, 256)         0         
_________________________________________________________________
dropout_2486 (Dropout)       (None, 8, 8, 256)         0         
_________________________________________________________________
max_pooling2d_592 (MaxPoolin (None, 4, 4, 256)         0         
_________________________________________________________________
flatten_201 (Flatten)        (None, 4096)              0         
_________________________________________________________________
dense_405 (Dense)            (None, 2048)              8390656   
_________________________________________________________________
batch_normalization_1466 (Ba (None, 2048)              8192      
_________________________________________________________________
activation_2487 (Activation) (None, 2048)              0         
_________________________________________________________________
dropout_2487 (Dropout)       (None, 2048)              0         
_________________________________________________________________
dense_406 (Dense)            (None, 100)               204900    
=================================================================
Total params: 8,754,127
Trainable params: 8,747,535
Non-trainable params: 6,592
_________________________________________________________________
