Model: "sequential_150"
_________________________________________________________________
Layer (type)                 Output Shape              Param #   
=================================================================
separable_conv2d_1719 (Separ (None, 32, 32, 32)        155       
_________________________________________________________________
activation_1872 (Activation) (None, 32, 32, 32)        0         
_________________________________________________________________
dropout_1872 (Dropout)       (None, 32, 32, 32)        0         
_________________________________________________________________
separable_conv2d_1720 (Separ (None, 32, 32, 256)       8736      
_________________________________________________________________
batch_normalization_1116 (Ba (None, 32, 32, 256)       1024      
_________________________________________________________________
activation_1873 (Activation) (None, 32, 32, 256)       0         
_________________________________________________________________
dropout_1873 (Dropout)       (None, 32, 32, 256)       0         
_________________________________________________________________
separable_conv2d_1721 (Separ (None, 32, 32, 8)         4360      
_________________________________________________________________
activation_1874 (Activation) (None, 32, 32, 8)         0         
_________________________________________________________________
dropout_1874 (Dropout)       (None, 32, 32, 8)         0         
_________________________________________________________________
max_pooling2d_439 (MaxPoolin (None, 16, 16, 8)         0         
_________________________________________________________________
separable_conv2d_1722 (Separ (None, 16, 16, 64)        648       
_________________________________________________________________
activation_1875 (Activation) (None, 16, 16, 64)        0         
_________________________________________________________________
dropout_1875 (Dropout)       (None, 16, 16, 64)        0         
_________________________________________________________________
max_pooling2d_440 (MaxPoolin (None, 8, 8, 64)          0         
_________________________________________________________________
separable_conv2d_1723 (Separ (None, 8, 8, 8)           1096      
_________________________________________________________________
activation_1876 (Activation) (None, 8, 8, 8)           0         
_________________________________________________________________
dropout_1876 (Dropout)       (None, 8, 8, 8)           0         
_________________________________________________________________
separable_conv2d_1724 (Separ (None, 8, 8, 128)         1224      
_________________________________________________________________
batch_normalization_1117 (Ba (None, 8, 8, 128)         512       
_________________________________________________________________
activation_1877 (Activation) (None, 8, 8, 128)         0         
_________________________________________________________________
dropout_1877 (Dropout)       (None, 8, 8, 128)         0         
_________________________________________________________________
separable_conv2d_1725 (Separ (None, 8, 8, 64)          9408      
_________________________________________________________________
batch_normalization_1118 (Ba (None, 8, 8, 64)          256       
_________________________________________________________________
activation_1878 (Activation) (None, 8, 8, 64)          0         
_________________________________________________________________
dropout_1878 (Dropout)       (None, 8, 8, 64)          0         
_________________________________________________________________
separable_conv2d_1726 (Separ (None, 8, 8, 512)         33856     
_________________________________________________________________
batch_normalization_1119 (Ba (None, 8, 8, 512)         2048      
_________________________________________________________________
activation_1879 (Activation) (None, 8, 8, 512)         0         
_________________________________________________________________
dropout_1879 (Dropout)       (None, 8, 8, 512)         0         
_________________________________________________________________
max_pooling2d_441 (MaxPoolin (None, 4, 4, 512)         0         
_________________________________________________________________
separable_conv2d_1727 (Separ (None, 4, 4, 32)          21024     
_________________________________________________________________
batch_normalization_1120 (Ba (None, 4, 4, 32)          128       
_________________________________________________________________
activation_1880 (Activation) (None, 4, 4, 32)          0         
_________________________________________________________________
dropout_1880 (Dropout)       (None, 4, 4, 32)          0         
_________________________________________________________________
separable_conv2d_1728 (Separ (None, 4, 4, 32)          1344      
_________________________________________________________________
batch_normalization_1121 (Ba (None, 4, 4, 32)          128       
_________________________________________________________________
activation_1881 (Activation) (None, 4, 4, 32)          0         
_________________________________________________________________
dropout_1881 (Dropout)       (None, 4, 4, 32)          0         
_________________________________________________________________
separable_conv2d_1729 (Separ (None, 4, 4, 256)         8736      
_________________________________________________________________
batch_normalization_1122 (Ba (None, 4, 4, 256)         1024      
_________________________________________________________________
activation_1882 (Activation) (None, 4, 4, 256)         0         
_________________________________________________________________
dropout_1882 (Dropout)       (None, 4, 4, 256)         0         
_________________________________________________________________
flatten_150 (Flatten)        (None, 4096)              0         
_________________________________________________________________
dense_303 (Dense)            (None, 2048)              8390656   
_________________________________________________________________
batch_normalization_1123 (Ba (None, 2048)              8192      
_________________________________________________________________
activation_1883 (Activation) (None, 2048)              0         
_________________________________________________________________
dropout_1883 (Dropout)       (None, 2048)              0         
_________________________________________________________________
dense_304 (Dense)            (None, 100)               204900    
=================================================================
Total params: 8,699,455
Trainable params: 8,692,799
Non-trainable params: 6,656
_________________________________________________________________
