Model: "sequential_351"
_________________________________________________________________
Layer (type)                 Output Shape              Param #   
=================================================================
separable_conv2d_3787 (Separ (None, 32, 32, 32)        155       
_________________________________________________________________
activation_4141 (Activation) (None, 32, 32, 32)        0         
_________________________________________________________________
dropout_4141 (Dropout)       (None, 32, 32, 32)        0         
_________________________________________________________________
separable_conv2d_3788 (Separ (None, 32, 32, 256)       8736      
_________________________________________________________________
batch_normalization_2378 (Ba (None, 32, 32, 256)       1024      
_________________________________________________________________
activation_4142 (Activation) (None, 32, 32, 256)       0         
_________________________________________________________________
dropout_4142 (Dropout)       (None, 32, 32, 256)       0         
_________________________________________________________________
separable_conv2d_3789 (Separ (None, 32, 32, 8)         4360      
_________________________________________________________________
activation_4143 (Activation) (None, 32, 32, 8)         0         
_________________________________________________________________
dropout_4143 (Dropout)       (None, 32, 32, 8)         0         
_________________________________________________________________
separable_conv2d_3790 (Separ (None, 32, 32, 64)        648       
_________________________________________________________________
activation_4144 (Activation) (None, 32, 32, 64)        0         
_________________________________________________________________
dropout_4144 (Dropout)       (None, 32, 32, 64)        0         
_________________________________________________________________
max_pooling2d_979 (MaxPoolin (None, 16, 16, 64)        0         
_________________________________________________________________
separable_conv2d_3791 (Separ (None, 16, 16, 16)        1616      
_________________________________________________________________
activation_4145 (Activation) (None, 16, 16, 16)        0         
_________________________________________________________________
dropout_4145 (Dropout)       (None, 16, 16, 16)        0         
_________________________________________________________________
separable_conv2d_3792 (Separ (None, 16, 16, 128)       2320      
_________________________________________________________________
batch_normalization_2379 (Ba (None, 16, 16, 128)       512       
_________________________________________________________________
activation_4146 (Activation) (None, 16, 16, 128)       0         
_________________________________________________________________
dropout_4146 (Dropout)       (None, 16, 16, 128)       0         
_________________________________________________________________
separable_conv2d_3793 (Separ (None, 16, 16, 64)        9408      
_________________________________________________________________
batch_normalization_2380 (Ba (None, 16, 16, 64)        256       
_________________________________________________________________
activation_4147 (Activation) (None, 16, 16, 64)        0         
_________________________________________________________________
dropout_4147 (Dropout)       (None, 16, 16, 64)        0         
_________________________________________________________________
separable_conv2d_3794 (Separ (None, 16, 16, 128)       8896      
_________________________________________________________________
activation_4148 (Activation) (None, 16, 16, 128)       0         
_________________________________________________________________
dropout_4148 (Dropout)       (None, 16, 16, 128)       0         
_________________________________________________________________
separable_conv2d_3795 (Separ (None, 16, 16, 32)        5280      
_________________________________________________________________
batch_normalization_2381 (Ba (None, 16, 16, 32)        128       
_________________________________________________________________
activation_4149 (Activation) (None, 16, 16, 32)        0         
_________________________________________________________________
dropout_4149 (Dropout)       (None, 16, 16, 32)        0         
_________________________________________________________________
separable_conv2d_3796 (Separ (None, 16, 16, 512)       17184     
_________________________________________________________________
batch_normalization_2382 (Ba (None, 16, 16, 512)       2048      
_________________________________________________________________
activation_4150 (Activation) (None, 16, 16, 512)       0         
_________________________________________________________________
dropout_4150 (Dropout)       (None, 16, 16, 512)       0         
_________________________________________________________________
max_pooling2d_980 (MaxPoolin (None, 8, 8, 512)         0         
_________________________________________________________________
flatten_351 (Flatten)        (None, 32768)             0         
_________________________________________________________________
dense_705 (Dense)            (None, 2048)              67110912  
_________________________________________________________________
batch_normalization_2383 (Ba (None, 2048)              8192      
_________________________________________________________________
activation_4151 (Activation) (None, 2048)              0         
_________________________________________________________________
dropout_4151 (Dropout)       (None, 2048)              0         
_________________________________________________________________
dense_706 (Dense)            (None, 100)               204900    
=================================================================
Total params: 67,386,575
Trainable params: 67,380,495
Non-trainable params: 6,080
_________________________________________________________________
