Model: "sequential_164"
_________________________________________________________________
Layer (type)                 Output Shape              Param #   
=================================================================
separable_conv2d_1872 (Separ (None, 32, 32, 32)        155       
_________________________________________________________________
activation_2039 (Activation) (None, 32, 32, 32)        0         
_________________________________________________________________
dropout_2039 (Dropout)       (None, 32, 32, 32)        0         
_________________________________________________________________
separable_conv2d_1873 (Separ (None, 32, 32, 256)       8736      
_________________________________________________________________
batch_normalization_1215 (Ba (None, 32, 32, 256)       1024      
_________________________________________________________________
activation_2040 (Activation) (None, 32, 32, 256)       0         
_________________________________________________________________
dropout_2040 (Dropout)       (None, 32, 32, 256)       0         
_________________________________________________________________
separable_conv2d_1874 (Separ (None, 32, 32, 8)         4360      
_________________________________________________________________
activation_2041 (Activation) (None, 32, 32, 8)         0         
_________________________________________________________________
dropout_2041 (Dropout)       (None, 32, 32, 8)         0         
_________________________________________________________________
separable_conv2d_1875 (Separ (None, 32, 32, 64)        648       
_________________________________________________________________
activation_2042 (Activation) (None, 32, 32, 64)        0         
_________________________________________________________________
dropout_2042 (Dropout)       (None, 32, 32, 64)        0         
_________________________________________________________________
max_pooling2d_481 (MaxPoolin (None, 16, 16, 64)        0         
_________________________________________________________________
separable_conv2d_1876 (Separ (None, 16, 16, 8)         1096      
_________________________________________________________________
activation_2043 (Activation) (None, 16, 16, 8)         0         
_________________________________________________________________
dropout_2043 (Dropout)       (None, 16, 16, 8)         0         
_________________________________________________________________
separable_conv2d_1877 (Separ (None, 16, 16, 128)       1224      
_________________________________________________________________
batch_normalization_1216 (Ba (None, 16, 16, 128)       512       
_________________________________________________________________
activation_2044 (Activation) (None, 16, 16, 128)       0         
_________________________________________________________________
dropout_2044 (Dropout)       (None, 16, 16, 128)       0         
_________________________________________________________________
separable_conv2d_1878 (Separ (None, 16, 16, 64)        9408      
_________________________________________________________________
batch_normalization_1217 (Ba (None, 16, 16, 64)        256       
_________________________________________________________________
activation_2045 (Activation) (None, 16, 16, 64)        0         
_________________________________________________________________
dropout_2045 (Dropout)       (None, 16, 16, 64)        0         
_________________________________________________________________
separable_conv2d_1879 (Separ (None, 16, 16, 512)       33856     
_________________________________________________________________
batch_normalization_1218 (Ba (None, 16, 16, 512)       2048      
_________________________________________________________________
activation_2046 (Activation) (None, 16, 16, 512)       0         
_________________________________________________________________
dropout_2046 (Dropout)       (None, 16, 16, 512)       0         
_________________________________________________________________
max_pooling2d_482 (MaxPoolin (None, 8, 8, 512)         0         
_________________________________________________________________
separable_conv2d_1880 (Separ (None, 8, 8, 128)         70272     
_________________________________________________________________
activation_2047 (Activation) (None, 8, 8, 128)         0         
_________________________________________________________________
dropout_2047 (Dropout)       (None, 8, 8, 128)         0         
_________________________________________________________________
separable_conv2d_1881 (Separ (None, 8, 8, 32)          5280      
_________________________________________________________________
batch_normalization_1219 (Ba (None, 8, 8, 32)          128       
_________________________________________________________________
activation_2048 (Activation) (None, 8, 8, 32)          0         
_________________________________________________________________
dropout_2048 (Dropout)       (None, 8, 8, 32)          0         
_________________________________________________________________
separable_conv2d_1882 (Separ (None, 8, 8, 256)         8736      
_________________________________________________________________
batch_normalization_1220 (Ba (None, 8, 8, 256)         1024      
_________________________________________________________________
activation_2049 (Activation) (None, 8, 8, 256)         0         
_________________________________________________________________
dropout_2049 (Dropout)       (None, 8, 8, 256)         0         
_________________________________________________________________
max_pooling2d_483 (MaxPoolin (None, 4, 4, 256)         0         
_________________________________________________________________
flatten_164 (Flatten)        (None, 4096)              0         
_________________________________________________________________
dense_331 (Dense)            (None, 2048)              8390656   
_________________________________________________________________
batch_normalization_1221 (Ba (None, 2048)              8192      
_________________________________________________________________
activation_2050 (Activation) (None, 2048)              0         
_________________________________________________________________
dropout_2050 (Dropout)       (None, 2048)              0         
_________________________________________________________________
dense_332 (Dense)            (None, 100)               204900    
=================================================================
Total params: 8,752,511
Trainable params: 8,745,919
Non-trainable params: 6,592
_________________________________________________________________
