Model: "sequential_330"
_________________________________________________________________
Layer (type)                 Output Shape              Param #   
=================================================================
separable_conv2d_3589 (Separ (None, 32, 32, 32)        155       
_________________________________________________________________
activation_3922 (Activation) (None, 32, 32, 32)        0         
_________________________________________________________________
dropout_3922 (Dropout)       (None, 32, 32, 32)        0         
_________________________________________________________________
separable_conv2d_3590 (Separ (None, 32, 32, 256)       8736      
_________________________________________________________________
batch_normalization_2266 (Ba (None, 32, 32, 256)       1024      
_________________________________________________________________
activation_3923 (Activation) (None, 32, 32, 256)       0         
_________________________________________________________________
dropout_3923 (Dropout)       (None, 32, 32, 256)       0         
_________________________________________________________________
separable_conv2d_3591 (Separ (None, 32, 32, 8)         4360      
_________________________________________________________________
activation_3924 (Activation) (None, 32, 32, 8)         0         
_________________________________________________________________
dropout_3924 (Dropout)       (None, 32, 32, 8)         0         
_________________________________________________________________
separable_conv2d_3592 (Separ (None, 32, 32, 64)        648       
_________________________________________________________________
activation_3925 (Activation) (None, 32, 32, 64)        0         
_________________________________________________________________
dropout_3925 (Dropout)       (None, 32, 32, 64)        0         
_________________________________________________________________
max_pooling2d_931 (MaxPoolin (None, 16, 16, 64)        0         
_________________________________________________________________
separable_conv2d_3593 (Separ (None, 16, 16, 256)       17216     
_________________________________________________________________
batch_normalization_2267 (Ba (None, 16, 16, 256)       1024      
_________________________________________________________________
activation_3926 (Activation) (None, 16, 16, 256)       0         
_________________________________________________________________
dropout_3926 (Dropout)       (None, 16, 16, 256)       0         
_________________________________________________________________
separable_conv2d_3594 (Separ (None, 16, 16, 512)       133888    
_________________________________________________________________
batch_normalization_2268 (Ba (None, 16, 16, 512)       2048      
_________________________________________________________________
activation_3927 (Activation) (None, 16, 16, 512)       0         
_________________________________________________________________
dropout_3927 (Dropout)       (None, 16, 16, 512)       0         
_________________________________________________________________
max_pooling2d_932 (MaxPoolin (None, 8, 8, 512)         0         
_________________________________________________________________
separable_conv2d_3595 (Separ (None, 8, 8, 128)         70272     
_________________________________________________________________
activation_3928 (Activation) (None, 8, 8, 128)         0         
_________________________________________________________________
dropout_3928 (Dropout)       (None, 8, 8, 128)         0         
_________________________________________________________________
separable_conv2d_3596 (Separ (None, 8, 8, 64)          9408      
_________________________________________________________________
batch_normalization_2269 (Ba (None, 8, 8, 64)          256       
_________________________________________________________________
activation_3929 (Activation) (None, 8, 8, 64)          0         
_________________________________________________________________
dropout_3929 (Dropout)       (None, 8, 8, 64)          0         
_________________________________________________________________
separable_conv2d_3597 (Separ (None, 8, 8, 512)         33856     
_________________________________________________________________
batch_normalization_2270 (Ba (None, 8, 8, 512)         2048      
_________________________________________________________________
activation_3930 (Activation) (None, 8, 8, 512)         0         
_________________________________________________________________
dropout_3930 (Dropout)       (None, 8, 8, 512)         0         
_________________________________________________________________
max_pooling2d_933 (MaxPoolin (None, 4, 4, 512)         0         
_________________________________________________________________
flatten_330 (Flatten)        (None, 8192)              0         
_________________________________________________________________
dense_663 (Dense)            (None, 2048)              16779264  
_________________________________________________________________
batch_normalization_2271 (Ba (None, 2048)              8192      
_________________________________________________________________
activation_3931 (Activation) (None, 2048)              0         
_________________________________________________________________
dropout_3931 (Dropout)       (None, 2048)              0         
_________________________________________________________________
dense_664 (Dense)            (None, 100)               204900    
=================================================================
Total params: 17,277,295
Trainable params: 17,269,999
Non-trainable params: 7,296
_________________________________________________________________
