Model: "sequential_230"
_________________________________________________________________
Layer (type)                 Output Shape              Param #   
=================================================================
separable_conv2d_2579 (Separ (None, 32, 32, 32)        155       
_________________________________________________________________
activation_2812 (Activation) (None, 32, 32, 32)        0         
_________________________________________________________________
dropout_2812 (Dropout)       (None, 32, 32, 32)        0         
_________________________________________________________________
separable_conv2d_2580 (Separ (None, 32, 32, 256)       8736      
_________________________________________________________________
batch_normalization_1650 (Ba (None, 32, 32, 256)       1024      
_________________________________________________________________
activation_2813 (Activation) (None, 32, 32, 256)       0         
_________________________________________________________________
dropout_2813 (Dropout)       (None, 32, 32, 256)       0         
_________________________________________________________________
separable_conv2d_2581 (Separ (None, 32, 32, 8)         4360      
_________________________________________________________________
activation_2814 (Activation) (None, 32, 32, 8)         0         
_________________________________________________________________
dropout_2814 (Dropout)       (None, 32, 32, 8)         0         
_________________________________________________________________
separable_conv2d_2582 (Separ (None, 32, 32, 64)        648       
_________________________________________________________________
activation_2815 (Activation) (None, 32, 32, 64)        0         
_________________________________________________________________
dropout_2815 (Dropout)       (None, 32, 32, 64)        0         
_________________________________________________________________
max_pooling2d_672 (MaxPoolin (None, 16, 16, 64)        0         
_________________________________________________________________
separable_conv2d_2583 (Separ (None, 16, 16, 16)        1616      
_________________________________________________________________
activation_2816 (Activation) (None, 16, 16, 16)        0         
_________________________________________________________________
dropout_2816 (Dropout)       (None, 16, 16, 16)        0         
_________________________________________________________________
separable_conv2d_2584 (Separ (None, 16, 16, 128)       2320      
_________________________________________________________________
batch_normalization_1651 (Ba (None, 16, 16, 128)       512       
_________________________________________________________________
activation_2817 (Activation) (None, 16, 16, 128)       0         
_________________________________________________________________
dropout_2817 (Dropout)       (None, 16, 16, 128)       0         
_________________________________________________________________
separable_conv2d_2585 (Separ (None, 16, 16, 64)        9408      
_________________________________________________________________
batch_normalization_1652 (Ba (None, 16, 16, 64)        256       
_________________________________________________________________
activation_2818 (Activation) (None, 16, 16, 64)        0         
_________________________________________________________________
dropout_2818 (Dropout)       (None, 16, 16, 64)        0         
_________________________________________________________________
separable_conv2d_2586 (Separ (None, 16, 16, 512)       33856     
_________________________________________________________________
batch_normalization_1653 (Ba (None, 16, 16, 512)       2048      
_________________________________________________________________
activation_2819 (Activation) (None, 16, 16, 512)       0         
_________________________________________________________________
dropout_2819 (Dropout)       (None, 16, 16, 512)       0         
_________________________________________________________________
max_pooling2d_673 (MaxPoolin (None, 8, 8, 512)         0         
_________________________________________________________________
separable_conv2d_2587 (Separ (None, 8, 8, 128)         70272     
_________________________________________________________________
activation_2820 (Activation) (None, 8, 8, 128)         0         
_________________________________________________________________
dropout_2820 (Dropout)       (None, 8, 8, 128)         0         
_________________________________________________________________
separable_conv2d_2588 (Separ (None, 8, 8, 32)          5280      
_________________________________________________________________
batch_normalization_1654 (Ba (None, 8, 8, 32)          128       
_________________________________________________________________
activation_2821 (Activation) (None, 8, 8, 32)          0         
_________________________________________________________________
dropout_2821 (Dropout)       (None, 8, 8, 32)          0         
_________________________________________________________________
separable_conv2d_2589 (Separ (None, 8, 8, 256)         8736      
_________________________________________________________________
batch_normalization_1655 (Ba (None, 8, 8, 256)         1024      
_________________________________________________________________
activation_2822 (Activation) (None, 8, 8, 256)         0         
_________________________________________________________________
dropout_2822 (Dropout)       (None, 8, 8, 256)         0         
_________________________________________________________________
max_pooling2d_674 (MaxPoolin (None, 4, 4, 256)         0         
_________________________________________________________________
flatten_230 (Flatten)        (None, 4096)              0         
_________________________________________________________________
dense_463 (Dense)            (None, 2048)              8390656   
_________________________________________________________________
batch_normalization_1656 (Ba (None, 2048)              8192      
_________________________________________________________________
activation_2823 (Activation) (None, 2048)              0         
_________________________________________________________________
dropout_2823 (Dropout)       (None, 2048)              0         
_________________________________________________________________
dense_464 (Dense)            (None, 100)               204900    
=================================================================
Total params: 8,754,127
Trainable params: 8,747,535
Non-trainable params: 6,592
_________________________________________________________________
