Model: "sequential_53"
_________________________________________________________________
Layer (type)                 Output Shape              Param #   
=================================================================
separable_conv2d_611 (Separa (None, 32, 32, 32)        155       
_________________________________________________________________
activation_667 (Activation)  (None, 32, 32, 32)        0         
_________________________________________________________________
dropout_667 (Dropout)        (None, 32, 32, 32)        0         
_________________________________________________________________
separable_conv2d_612 (Separa (None, 32, 32, 128)       4512      
_________________________________________________________________
batch_normalization_376 (Bat (None, 32, 32, 128)       512       
_________________________________________________________________
activation_668 (Activation)  (None, 32, 32, 128)       0         
_________________________________________________________________
dropout_668 (Dropout)        (None, 32, 32, 128)       0         
_________________________________________________________________
separable_conv2d_613 (Separa (None, 32, 32, 8)         2184      
_________________________________________________________________
activation_669 (Activation)  (None, 32, 32, 8)         0         
_________________________________________________________________
dropout_669 (Dropout)        (None, 32, 32, 8)         0         
_________________________________________________________________
separable_conv2d_614 (Separa (None, 32, 32, 64)        648       
_________________________________________________________________
activation_670 (Activation)  (None, 32, 32, 64)        0         
_________________________________________________________________
dropout_670 (Dropout)        (None, 32, 32, 64)        0         
_________________________________________________________________
max_pooling2d_148 (MaxPoolin (None, 16, 16, 64)        0         
_________________________________________________________________
separable_conv2d_615 (Separa (None, 16, 16, 8)         1096      
_________________________________________________________________
activation_671 (Activation)  (None, 16, 16, 8)         0         
_________________________________________________________________
dropout_671 (Dropout)        (None, 16, 16, 8)         0         
_________________________________________________________________
separable_conv2d_616 (Separa (None, 16, 16, 128)       1224      
_________________________________________________________________
batch_normalization_377 (Bat (None, 16, 16, 128)       512       
_________________________________________________________________
activation_672 (Activation)  (None, 16, 16, 128)       0         
_________________________________________________________________
dropout_672 (Dropout)        (None, 16, 16, 128)       0         
_________________________________________________________________
separable_conv2d_617 (Separa (None, 16, 16, 64)        9408      
_________________________________________________________________
batch_normalization_378 (Bat (None, 16, 16, 64)        256       
_________________________________________________________________
activation_673 (Activation)  (None, 16, 16, 64)        0         
_________________________________________________________________
dropout_673 (Dropout)        (None, 16, 16, 64)        0         
_________________________________________________________________
separable_conv2d_618 (Separa (None, 16, 16, 512)       33856     
_________________________________________________________________
activation_674 (Activation)  (None, 16, 16, 512)       0         
_________________________________________________________________
dropout_674 (Dropout)        (None, 16, 16, 512)       0         
_________________________________________________________________
max_pooling2d_149 (MaxPoolin (None, 8, 8, 512)         0         
_________________________________________________________________
separable_conv2d_619 (Separa (None, 8, 8, 32)          21024     
_________________________________________________________________
batch_normalization_379 (Bat (None, 8, 8, 32)          128       
_________________________________________________________________
activation_675 (Activation)  (None, 8, 8, 32)          0         
_________________________________________________________________
dropout_675 (Dropout)        (None, 8, 8, 32)          0         
_________________________________________________________________
max_pooling2d_150 (MaxPoolin (None, 4, 4, 32)          0         
_________________________________________________________________
separable_conv2d_620 (Separa (None, 4, 4, 128)         4512      
_________________________________________________________________
activation_676 (Activation)  (None, 4, 4, 128)         0         
_________________________________________________________________
dropout_676 (Dropout)        (None, 4, 4, 128)         0         
_________________________________________________________________
separable_conv2d_621 (Separa (None, 4, 4, 32)          5280      
_________________________________________________________________
batch_normalization_380 (Bat (None, 4, 4, 32)          128       
_________________________________________________________________
activation_677 (Activation)  (None, 4, 4, 32)          0         
_________________________________________________________________
dropout_677 (Dropout)        (None, 4, 4, 32)          0         
_________________________________________________________________
separable_conv2d_622 (Separa (None, 4, 4, 256)         8736      
_________________________________________________________________
batch_normalization_381 (Bat (None, 4, 4, 256)         1024      
_________________________________________________________________
activation_678 (Activation)  (None, 4, 4, 256)         0         
_________________________________________________________________
dropout_678 (Dropout)        (None, 4, 4, 256)         0         
_________________________________________________________________
flatten_53 (Flatten)         (None, 4096)              0         
_________________________________________________________________
dense_109 (Dense)            (None, 2048)              8390656   
_________________________________________________________________
batch_normalization_382 (Bat (None, 2048)              8192      
_________________________________________________________________
activation_679 (Activation)  (None, 2048)              0         
_________________________________________________________________
dropout_679 (Dropout)        (None, 2048)              0         
_________________________________________________________________
dense_110 (Dense)            (None, 100)               204900    
=================================================================
Total params: 8,698,943
Trainable params: 8,693,567
Non-trainable params: 5,376
_________________________________________________________________
