Model: "sequential_194"
_________________________________________________________________
Layer (type)                 Output Shape              Param #   
=================================================================
separable_conv2d_2196 (Separ (None, 32, 32, 32)        155       
_________________________________________________________________
activation_2393 (Activation) (None, 32, 32, 32)        0         
_________________________________________________________________
dropout_2393 (Dropout)       (None, 32, 32, 32)        0         
_________________________________________________________________
separable_conv2d_2197 (Separ (None, 32, 32, 256)       8736      
_________________________________________________________________
batch_normalization_1416 (Ba (None, 32, 32, 256)       1024      
_________________________________________________________________
activation_2394 (Activation) (None, 32, 32, 256)       0         
_________________________________________________________________
dropout_2394 (Dropout)       (None, 32, 32, 256)       0         
_________________________________________________________________
separable_conv2d_2198 (Separ (None, 32, 32, 8)         4360      
_________________________________________________________________
activation_2395 (Activation) (None, 32, 32, 8)         0         
_________________________________________________________________
dropout_2395 (Dropout)       (None, 32, 32, 8)         0         
_________________________________________________________________
separable_conv2d_2199 (Separ (None, 32, 32, 64)        648       
_________________________________________________________________
activation_2396 (Activation) (None, 32, 32, 64)        0         
_________________________________________________________________
dropout_2396 (Dropout)       (None, 32, 32, 64)        0         
_________________________________________________________________
max_pooling2d_569 (MaxPoolin (None, 16, 16, 64)        0         
_________________________________________________________________
separable_conv2d_2200 (Separ (None, 16, 16, 16)        1616      
_________________________________________________________________
activation_2397 (Activation) (None, 16, 16, 16)        0         
_________________________________________________________________
dropout_2397 (Dropout)       (None, 16, 16, 16)        0         
_________________________________________________________________
separable_conv2d_2201 (Separ (None, 16, 16, 128)       2320      
_________________________________________________________________
batch_normalization_1417 (Ba (None, 16, 16, 128)       512       
_________________________________________________________________
activation_2398 (Activation) (None, 16, 16, 128)       0         
_________________________________________________________________
dropout_2398 (Dropout)       (None, 16, 16, 128)       0         
_________________________________________________________________
separable_conv2d_2202 (Separ (None, 16, 16, 64)        9408      
_________________________________________________________________
batch_normalization_1418 (Ba (None, 16, 16, 64)        256       
_________________________________________________________________
activation_2399 (Activation) (None, 16, 16, 64)        0         
_________________________________________________________________
dropout_2399 (Dropout)       (None, 16, 16, 64)        0         
_________________________________________________________________
separable_conv2d_2203 (Separ (None, 16, 16, 512)       33856     
_________________________________________________________________
batch_normalization_1419 (Ba (None, 16, 16, 512)       2048      
_________________________________________________________________
activation_2400 (Activation) (None, 16, 16, 512)       0         
_________________________________________________________________
dropout_2400 (Dropout)       (None, 16, 16, 512)       0         
_________________________________________________________________
max_pooling2d_570 (MaxPoolin (None, 8, 8, 512)         0         
_________________________________________________________________
separable_conv2d_2204 (Separ (None, 8, 8, 128)         70272     
_________________________________________________________________
activation_2401 (Activation) (None, 8, 8, 128)         0         
_________________________________________________________________
dropout_2401 (Dropout)       (None, 8, 8, 128)         0         
_________________________________________________________________
separable_conv2d_2205 (Separ (None, 8, 8, 32)          5280      
_________________________________________________________________
activation_2402 (Activation) (None, 8, 8, 32)          0         
_________________________________________________________________
dropout_2402 (Dropout)       (None, 8, 8, 32)          0         
_________________________________________________________________
separable_conv2d_2206 (Separ (None, 8, 8, 256)         8736      
_________________________________________________________________
batch_normalization_1420 (Ba (None, 8, 8, 256)         1024      
_________________________________________________________________
activation_2403 (Activation) (None, 8, 8, 256)         0         
_________________________________________________________________
dropout_2403 (Dropout)       (None, 8, 8, 256)         0         
_________________________________________________________________
max_pooling2d_571 (MaxPoolin (None, 4, 4, 256)         0         
_________________________________________________________________
flatten_194 (Flatten)        (None, 4096)              0         
_________________________________________________________________
dense_391 (Dense)            (None, 2048)              8390656   
_________________________________________________________________
batch_normalization_1421 (Ba (None, 2048)              8192      
_________________________________________________________________
activation_2404 (Activation) (None, 2048)              0         
_________________________________________________________________
dropout_2404 (Dropout)       (None, 2048)              0         
_________________________________________________________________
dense_392 (Dense)            (None, 100)               204900    
=================================================================
Total params: 8,753,999
Trainable params: 8,747,471
Non-trainable params: 6,528
_________________________________________________________________
