Model: "sequential_180"
_________________________________________________________________
Layer (type)                 Output Shape              Param #   
=================================================================
separable_conv2d_2045 (Separ (None, 32, 32, 32)        155       
_________________________________________________________________
activation_2228 (Activation) (None, 32, 32, 32)        0         
_________________________________________________________________
dropout_2228 (Dropout)       (None, 32, 32, 32)        0         
_________________________________________________________________
separable_conv2d_2046 (Separ (None, 32, 32, 256)       8736      
_________________________________________________________________
batch_normalization_1323 (Ba (None, 32, 32, 256)       1024      
_________________________________________________________________
activation_2229 (Activation) (None, 32, 32, 256)       0         
_________________________________________________________________
dropout_2229 (Dropout)       (None, 32, 32, 256)       0         
_________________________________________________________________
separable_conv2d_2047 (Separ (None, 32, 32, 8)         4360      
_________________________________________________________________
activation_2230 (Activation) (None, 32, 32, 8)         0         
_________________________________________________________________
dropout_2230 (Dropout)       (None, 32, 32, 8)         0         
_________________________________________________________________
separable_conv2d_2048 (Separ (None, 32, 32, 64)        648       
_________________________________________________________________
activation_2231 (Activation) (None, 32, 32, 64)        0         
_________________________________________________________________
dropout_2231 (Dropout)       (None, 32, 32, 64)        0         
_________________________________________________________________
max_pooling2d_528 (MaxPoolin (None, 16, 16, 64)        0         
_________________________________________________________________
separable_conv2d_2049 (Separ (None, 16, 16, 16)        1616      
_________________________________________________________________
activation_2232 (Activation) (None, 16, 16, 16)        0         
_________________________________________________________________
dropout_2232 (Dropout)       (None, 16, 16, 16)        0         
_________________________________________________________________
separable_conv2d_2050 (Separ (None, 16, 16, 128)       2320      
_________________________________________________________________
batch_normalization_1324 (Ba (None, 16, 16, 128)       512       
_________________________________________________________________
activation_2233 (Activation) (None, 16, 16, 128)       0         
_________________________________________________________________
dropout_2233 (Dropout)       (None, 16, 16, 128)       0         
_________________________________________________________________
separable_conv2d_2051 (Separ (None, 16, 16, 64)        9408      
_________________________________________________________________
batch_normalization_1325 (Ba (None, 16, 16, 64)        256       
_________________________________________________________________
activation_2234 (Activation) (None, 16, 16, 64)        0         
_________________________________________________________________
dropout_2234 (Dropout)       (None, 16, 16, 64)        0         
_________________________________________________________________
separable_conv2d_2052 (Separ (None, 16, 16, 512)       33856     
_________________________________________________________________
batch_normalization_1326 (Ba (None, 16, 16, 512)       2048      
_________________________________________________________________
activation_2235 (Activation) (None, 16, 16, 512)       0         
_________________________________________________________________
dropout_2235 (Dropout)       (None, 16, 16, 512)       0         
_________________________________________________________________
max_pooling2d_529 (MaxPoolin (None, 8, 8, 512)         0         
_________________________________________________________________
separable_conv2d_2053 (Separ (None, 8, 8, 128)         70272     
_________________________________________________________________
activation_2236 (Activation) (None, 8, 8, 128)         0         
_________________________________________________________________
dropout_2236 (Dropout)       (None, 8, 8, 128)         0         
_________________________________________________________________
separable_conv2d_2054 (Separ (None, 8, 8, 32)          5280      
_________________________________________________________________
batch_normalization_1327 (Ba (None, 8, 8, 32)          128       
_________________________________________________________________
activation_2237 (Activation) (None, 8, 8, 32)          0         
_________________________________________________________________
dropout_2237 (Dropout)       (None, 8, 8, 32)          0         
_________________________________________________________________
separable_conv2d_2055 (Separ (None, 8, 8, 256)         8736      
_________________________________________________________________
batch_normalization_1328 (Ba (None, 8, 8, 256)         1024      
_________________________________________________________________
activation_2238 (Activation) (None, 8, 8, 256)         0         
_________________________________________________________________
dropout_2238 (Dropout)       (None, 8, 8, 256)         0         
_________________________________________________________________
max_pooling2d_530 (MaxPoolin (None, 4, 4, 256)         0         
_________________________________________________________________
flatten_180 (Flatten)        (None, 4096)              0         
_________________________________________________________________
dense_363 (Dense)            (None, 2048)              8390656   
_________________________________________________________________
batch_normalization_1329 (Ba (None, 2048)              8192      
_________________________________________________________________
activation_2239 (Activation) (None, 2048)              0         
_________________________________________________________________
dropout_2239 (Dropout)       (None, 2048)              0         
_________________________________________________________________
dense_364 (Dense)            (None, 100)               204900    
=================================================================
Total params: 8,754,127
Trainable params: 8,747,535
Non-trainable params: 6,592
_________________________________________________________________
