Model: "sequential_1"
_________________________________________________________________
Layer (type)                 Output Shape              Param #   
=================================================================
separable_conv2d_11 (Separab (None, 32, 32, 8)         59        
_________________________________________________________________
activation_12 (Activation)   (None, 32, 32, 8)         0         
_________________________________________________________________
dropout_12 (Dropout)         (None, 32, 32, 8)         0         
_________________________________________________________________
separable_conv2d_12 (Separab (None, 32, 32, 16)        216       
_________________________________________________________________
batch_normalization_3 (Batch (None, 32, 32, 16)        64        
_________________________________________________________________
activation_13 (Activation)   (None, 32, 32, 16)        0         
_________________________________________________________________
dropout_13 (Dropout)         (None, 32, 32, 16)        0         
_________________________________________________________________
separable_conv2d_13 (Separab (None, 32, 32, 1024)      17552     
_________________________________________________________________
activation_14 (Activation)   (None, 32, 32, 1024)      0         
_________________________________________________________________
dropout_14 (Dropout)         (None, 32, 32, 1024)      0         
_________________________________________________________________
separable_conv2d_14 (Separab (None, 32, 32, 16)        25616     
_________________________________________________________________
batch_normalization_4 (Batch (None, 32, 32, 16)        64        
_________________________________________________________________
activation_15 (Activation)   (None, 32, 32, 16)        0         
_________________________________________________________________
dropout_15 (Dropout)         (None, 32, 32, 16)        0         
_________________________________________________________________
max_pooling2d_3 (MaxPooling2 (None, 16, 16, 16)        0         
_________________________________________________________________
separable_conv2d_15 (Separab (None, 16, 16, 256)       4496      
_________________________________________________________________
batch_normalization_5 (Batch (None, 16, 16, 256)       1024      
_________________________________________________________________
activation_16 (Activation)   (None, 16, 16, 256)       0         
_________________________________________________________________
dropout_16 (Dropout)         (None, 16, 16, 256)       0         
_________________________________________________________________
max_pooling2d_4 (MaxPooling2 (None, 8, 8, 256)         0         
_________________________________________________________________
separable_conv2d_16 (Separab (None, 8, 8, 32)          10528     
_________________________________________________________________
batch_normalization_6 (Batch (None, 8, 8, 32)          128       
_________________________________________________________________
activation_17 (Activation)   (None, 8, 8, 32)          0         
_________________________________________________________________
dropout_17 (Dropout)         (None, 8, 8, 32)          0         
_________________________________________________________________
max_pooling2d_5 (MaxPooling2 (None, 4, 4, 32)          0         
_________________________________________________________________
separable_conv2d_17 (Separab (None, 4, 4, 8)           552       
_________________________________________________________________
batch_normalization_7 (Batch (None, 4, 4, 8)           32        
_________________________________________________________________
activation_18 (Activation)   (None, 4, 4, 8)           0         
_________________________________________________________________
dropout_18 (Dropout)         (None, 4, 4, 8)           0         
_________________________________________________________________
separable_conv2d_18 (Separab (None, 4, 4, 512)         4680      
_________________________________________________________________
activation_19 (Activation)   (None, 4, 4, 512)         0         
_________________________________________________________________
dropout_19 (Dropout)         (None, 4, 4, 512)         0         
_________________________________________________________________
separable_conv2d_19 (Separab (None, 4, 4, 1024)        529920    
_________________________________________________________________
activation_20 (Activation)   (None, 4, 4, 1024)        0         
_________________________________________________________________
dropout_20 (Dropout)         (None, 4, 4, 1024)        0         
_________________________________________________________________
separable_conv2d_20 (Separab (None, 4, 4, 256)         271616    
_________________________________________________________________
batch_normalization_8 (Batch (None, 4, 4, 256)         1024      
_________________________________________________________________
activation_21 (Activation)   (None, 4, 4, 256)         0         
_________________________________________________________________
dropout_21 (Dropout)         (None, 4, 4, 256)         0         
_________________________________________________________________
separable_conv2d_21 (Separab (None, 4, 4, 256)         68096     
_________________________________________________________________
batch_normalization_9 (Batch (None, 4, 4, 256)         1024      
_________________________________________________________________
activation_22 (Activation)   (None, 4, 4, 256)         0         
_________________________________________________________________
dropout_22 (Dropout)         (None, 4, 4, 256)         0         
_________________________________________________________________
separable_conv2d_22 (Separab (None, 4, 4, 32)          10528     
_________________________________________________________________
batch_normalization_10 (Batc (None, 4, 4, 32)          128       
_________________________________________________________________
activation_23 (Activation)   (None, 4, 4, 32)          0         
_________________________________________________________________
dropout_23 (Dropout)         (None, 4, 4, 32)          0         
_________________________________________________________________
flatten_1 (Flatten)          (None, 512)               0         
_________________________________________________________________
dense_2 (Dense)              (None, 64)                32832     
_________________________________________________________________
activation_24 (Activation)   (None, 64)                0         
_________________________________________________________________
dropout_24 (Dropout)         (None, 64)                0         
_________________________________________________________________
dense_3 (Dense)              (None, 100)               6500      
=================================================================
Total params: 986,679
Trainable params: 984,935
Non-trainable params: 1,744
_________________________________________________________________
