Model: "sequential_140"
_________________________________________________________________
Layer (type)                 Output Shape              Param #   
=================================================================
separable_conv2d_1610 (Separ (None, 32, 32, 32)        155       
_________________________________________________________________
activation_1753 (Activation) (None, 32, 32, 32)        0         
_________________________________________________________________
dropout_1753 (Dropout)       (None, 32, 32, 32)        0         
_________________________________________________________________
separable_conv2d_1611 (Separ (None, 32, 32, 256)       8736      
_________________________________________________________________
batch_normalization_1045 (Ba (None, 32, 32, 256)       1024      
_________________________________________________________________
activation_1754 (Activation) (None, 32, 32, 256)       0         
_________________________________________________________________
dropout_1754 (Dropout)       (None, 32, 32, 256)       0         
_________________________________________________________________
separable_conv2d_1612 (Separ (None, 32, 32, 8)         4360      
_________________________________________________________________
activation_1755 (Activation) (None, 32, 32, 8)         0         
_________________________________________________________________
dropout_1755 (Dropout)       (None, 32, 32, 8)         0         
_________________________________________________________________
separable_conv2d_1613 (Separ (None, 32, 32, 64)        648       
_________________________________________________________________
activation_1756 (Activation) (None, 32, 32, 64)        0         
_________________________________________________________________
dropout_1756 (Dropout)       (None, 32, 32, 64)        0         
_________________________________________________________________
max_pooling2d_409 (MaxPoolin (None, 16, 16, 64)        0         
_________________________________________________________________
separable_conv2d_1614 (Separ (None, 16, 16, 16)        1616      
_________________________________________________________________
activation_1757 (Activation) (None, 16, 16, 16)        0         
_________________________________________________________________
dropout_1757 (Dropout)       (None, 16, 16, 16)        0         
_________________________________________________________________
separable_conv2d_1615 (Separ (None, 16, 16, 128)       2320      
_________________________________________________________________
batch_normalization_1046 (Ba (None, 16, 16, 128)       512       
_________________________________________________________________
activation_1758 (Activation) (None, 16, 16, 128)       0         
_________________________________________________________________
dropout_1758 (Dropout)       (None, 16, 16, 128)       0         
_________________________________________________________________
separable_conv2d_1616 (Separ (None, 16, 16, 64)        9408      
_________________________________________________________________
batch_normalization_1047 (Ba (None, 16, 16, 64)        256       
_________________________________________________________________
activation_1759 (Activation) (None, 16, 16, 64)        0         
_________________________________________________________________
dropout_1759 (Dropout)       (None, 16, 16, 64)        0         
_________________________________________________________________
separable_conv2d_1617 (Separ (None, 16, 16, 512)       33856     
_________________________________________________________________
batch_normalization_1048 (Ba (None, 16, 16, 512)       2048      
_________________________________________________________________
activation_1760 (Activation) (None, 16, 16, 512)       0         
_________________________________________________________________
dropout_1760 (Dropout)       (None, 16, 16, 512)       0         
_________________________________________________________________
max_pooling2d_410 (MaxPoolin (None, 8, 8, 512)         0         
_________________________________________________________________
separable_conv2d_1618 (Separ (None, 8, 8, 128)         70272     
_________________________________________________________________
activation_1761 (Activation) (None, 8, 8, 128)         0         
_________________________________________________________________
dropout_1761 (Dropout)       (None, 8, 8, 128)         0         
_________________________________________________________________
separable_conv2d_1619 (Separ (None, 8, 8, 32)          5280      
_________________________________________________________________
batch_normalization_1049 (Ba (None, 8, 8, 32)          128       
_________________________________________________________________
activation_1762 (Activation) (None, 8, 8, 32)          0         
_________________________________________________________________
dropout_1762 (Dropout)       (None, 8, 8, 32)          0         
_________________________________________________________________
separable_conv2d_1620 (Separ (None, 8, 8, 256)         8736      
_________________________________________________________________
batch_normalization_1050 (Ba (None, 8, 8, 256)         1024      
_________________________________________________________________
activation_1763 (Activation) (None, 8, 8, 256)         0         
_________________________________________________________________
dropout_1763 (Dropout)       (None, 8, 8, 256)         0         
_________________________________________________________________
max_pooling2d_411 (MaxPoolin (None, 4, 4, 256)         0         
_________________________________________________________________
flatten_140 (Flatten)        (None, 4096)              0         
_________________________________________________________________
dense_283 (Dense)            (None, 2048)              8390656   
_________________________________________________________________
batch_normalization_1051 (Ba (None, 2048)              8192      
_________________________________________________________________
activation_1764 (Activation) (None, 2048)              0         
_________________________________________________________________
dropout_1764 (Dropout)       (None, 2048)              0         
_________________________________________________________________
dense_284 (Dense)            (None, 100)               204900    
=================================================================
Total params: 8,754,127
Trainable params: 8,747,535
Non-trainable params: 6,592
_________________________________________________________________
