Model: "sequential_30"
_________________________________________________________________
Layer (type)                 Output Shape              Param #   
=================================================================
separable_conv2d_340 (Separa (None, 32, 32, 32)        155       
_________________________________________________________________
activation_373 (Activation)  (None, 32, 32, 32)        0         
_________________________________________________________________
dropout_373 (Dropout)        (None, 32, 32, 32)        0         
_________________________________________________________________
separable_conv2d_341 (Separa (None, 32, 32, 128)       4512      
_________________________________________________________________
batch_normalization_203 (Bat (None, 32, 32, 128)       512       
_________________________________________________________________
activation_374 (Activation)  (None, 32, 32, 128)       0         
_________________________________________________________________
dropout_374 (Dropout)        (None, 32, 32, 128)       0         
_________________________________________________________________
separable_conv2d_342 (Separa (None, 32, 32, 8)         2184      
_________________________________________________________________
activation_375 (Activation)  (None, 32, 32, 8)         0         
_________________________________________________________________
dropout_375 (Dropout)        (None, 32, 32, 8)         0         
_________________________________________________________________
separable_conv2d_343 (Separa (None, 32, 32, 64)        648       
_________________________________________________________________
activation_376 (Activation)  (None, 32, 32, 64)        0         
_________________________________________________________________
dropout_376 (Dropout)        (None, 32, 32, 64)        0         
_________________________________________________________________
max_pooling2d_79 (MaxPooling (None, 16, 16, 64)        0         
_________________________________________________________________
separable_conv2d_344 (Separa (None, 16, 16, 8)         1096      
_________________________________________________________________
activation_377 (Activation)  (None, 16, 16, 8)         0         
_________________________________________________________________
dropout_377 (Dropout)        (None, 16, 16, 8)         0         
_________________________________________________________________
separable_conv2d_345 (Separa (None, 16, 16, 128)       1224      
_________________________________________________________________
batch_normalization_204 (Bat (None, 16, 16, 128)       512       
_________________________________________________________________
activation_378 (Activation)  (None, 16, 16, 128)       0         
_________________________________________________________________
dropout_378 (Dropout)        (None, 16, 16, 128)       0         
_________________________________________________________________
separable_conv2d_346 (Separa (None, 16, 16, 64)        9408      
_________________________________________________________________
batch_normalization_205 (Bat (None, 16, 16, 64)        256       
_________________________________________________________________
activation_379 (Activation)  (None, 16, 16, 64)        0         
_________________________________________________________________
dropout_379 (Dropout)        (None, 16, 16, 64)        0         
_________________________________________________________________
separable_conv2d_347 (Separa (None, 16, 16, 512)       33856     
_________________________________________________________________
batch_normalization_206 (Bat (None, 16, 16, 512)       2048      
_________________________________________________________________
activation_380 (Activation)  (None, 16, 16, 512)       0         
_________________________________________________________________
dropout_380 (Dropout)        (None, 16, 16, 512)       0         
_________________________________________________________________
max_pooling2d_80 (MaxPooling (None, 8, 8, 512)         0         
_________________________________________________________________
separable_conv2d_348 (Separa (None, 8, 8, 32)          21024     
_________________________________________________________________
batch_normalization_207 (Bat (None, 8, 8, 32)          128       
_________________________________________________________________
activation_381 (Activation)  (None, 8, 8, 32)          0         
_________________________________________________________________
dropout_381 (Dropout)        (None, 8, 8, 32)          0         
_________________________________________________________________
max_pooling2d_81 (MaxPooling (None, 4, 4, 32)          0         
_________________________________________________________________
separable_conv2d_349 (Separa (None, 4, 4, 128)         4512      
_________________________________________________________________
activation_382 (Activation)  (None, 4, 4, 128)         0         
_________________________________________________________________
dropout_382 (Dropout)        (None, 4, 4, 128)         0         
_________________________________________________________________
separable_conv2d_350 (Separa (None, 4, 4, 32)          5280      
_________________________________________________________________
batch_normalization_208 (Bat (None, 4, 4, 32)          128       
_________________________________________________________________
activation_383 (Activation)  (None, 4, 4, 32)          0         
_________________________________________________________________
dropout_383 (Dropout)        (None, 4, 4, 32)          0         
_________________________________________________________________
separable_conv2d_351 (Separa (None, 4, 4, 256)         8736      
_________________________________________________________________
batch_normalization_209 (Bat (None, 4, 4, 256)         1024      
_________________________________________________________________
activation_384 (Activation)  (None, 4, 4, 256)         0         
_________________________________________________________________
dropout_384 (Dropout)        (None, 4, 4, 256)         0         
_________________________________________________________________
flatten_30 (Flatten)         (None, 4096)              0         
_________________________________________________________________
dense_63 (Dense)             (None, 2048)              8390656   
_________________________________________________________________
batch_normalization_210 (Bat (None, 2048)              8192      
_________________________________________________________________
activation_385 (Activation)  (None, 2048)              0         
_________________________________________________________________
dropout_385 (Dropout)        (None, 2048)              0         
_________________________________________________________________
dense_64 (Dense)             (None, 100)               204900    
=================================================================
Total params: 8,700,991
Trainable params: 8,694,591
Non-trainable params: 6,400
_________________________________________________________________
