Model: "sequential_59"
_________________________________________________________________
Layer (type)                 Output Shape              Param #   
=================================================================
separable_conv2d_682 (Separa (None, 32, 32, 32)        155       
_________________________________________________________________
activation_744 (Activation)  (None, 32, 32, 32)        0         
_________________________________________________________________
dropout_744 (Dropout)        (None, 32, 32, 32)        0         
_________________________________________________________________
separable_conv2d_683 (Separa (None, 32, 32, 128)       4512      
_________________________________________________________________
batch_normalization_423 (Bat (None, 32, 32, 128)       512       
_________________________________________________________________
activation_745 (Activation)  (None, 32, 32, 128)       0         
_________________________________________________________________
dropout_745 (Dropout)        (None, 32, 32, 128)       0         
_________________________________________________________________
separable_conv2d_684 (Separa (None, 32, 32, 8)         2184      
_________________________________________________________________
activation_746 (Activation)  (None, 32, 32, 8)         0         
_________________________________________________________________
dropout_746 (Dropout)        (None, 32, 32, 8)         0         
_________________________________________________________________
separable_conv2d_685 (Separa (None, 32, 32, 64)        648       
_________________________________________________________________
activation_747 (Activation)  (None, 32, 32, 64)        0         
_________________________________________________________________
dropout_747 (Dropout)        (None, 32, 32, 64)        0         
_________________________________________________________________
max_pooling2d_166 (MaxPoolin (None, 16, 16, 64)        0         
_________________________________________________________________
separable_conv2d_686 (Separa (None, 16, 16, 8)         1096      
_________________________________________________________________
activation_748 (Activation)  (None, 16, 16, 8)         0         
_________________________________________________________________
dropout_748 (Dropout)        (None, 16, 16, 8)         0         
_________________________________________________________________
separable_conv2d_687 (Separa (None, 16, 16, 128)       1224      
_________________________________________________________________
batch_normalization_424 (Bat (None, 16, 16, 128)       512       
_________________________________________________________________
activation_749 (Activation)  (None, 16, 16, 128)       0         
_________________________________________________________________
dropout_749 (Dropout)        (None, 16, 16, 128)       0         
_________________________________________________________________
separable_conv2d_688 (Separa (None, 16, 16, 64)        9408      
_________________________________________________________________
batch_normalization_425 (Bat (None, 16, 16, 64)        256       
_________________________________________________________________
activation_750 (Activation)  (None, 16, 16, 64)        0         
_________________________________________________________________
dropout_750 (Dropout)        (None, 16, 16, 64)        0         
_________________________________________________________________
separable_conv2d_689 (Separa (None, 16, 16, 512)       33856     
_________________________________________________________________
batch_normalization_426 (Bat (None, 16, 16, 512)       2048      
_________________________________________________________________
activation_751 (Activation)  (None, 16, 16, 512)       0         
_________________________________________________________________
dropout_751 (Dropout)        (None, 16, 16, 512)       0         
_________________________________________________________________
max_pooling2d_167 (MaxPoolin (None, 8, 8, 512)         0         
_________________________________________________________________
separable_conv2d_690 (Separa (None, 8, 8, 32)          21024     
_________________________________________________________________
batch_normalization_427 (Bat (None, 8, 8, 32)          128       
_________________________________________________________________
activation_752 (Activation)  (None, 8, 8, 32)          0         
_________________________________________________________________
dropout_752 (Dropout)        (None, 8, 8, 32)          0         
_________________________________________________________________
max_pooling2d_168 (MaxPoolin (None, 4, 4, 32)          0         
_________________________________________________________________
separable_conv2d_691 (Separa (None, 4, 4, 128)         4512      
_________________________________________________________________
activation_753 (Activation)  (None, 4, 4, 128)         0         
_________________________________________________________________
dropout_753 (Dropout)        (None, 4, 4, 128)         0         
_________________________________________________________________
separable_conv2d_692 (Separa (None, 4, 4, 32)          5280      
_________________________________________________________________
batch_normalization_428 (Bat (None, 4, 4, 32)          128       
_________________________________________________________________
activation_754 (Activation)  (None, 4, 4, 32)          0         
_________________________________________________________________
dropout_754 (Dropout)        (None, 4, 4, 32)          0         
_________________________________________________________________
separable_conv2d_693 (Separa (None, 4, 4, 256)         8736      
_________________________________________________________________
batch_normalization_429 (Bat (None, 4, 4, 256)         1024      
_________________________________________________________________
activation_755 (Activation)  (None, 4, 4, 256)         0         
_________________________________________________________________
dropout_755 (Dropout)        (None, 4, 4, 256)         0         
_________________________________________________________________
flatten_59 (Flatten)         (None, 4096)              0         
_________________________________________________________________
dense_121 (Dense)            (None, 2048)              8390656   
_________________________________________________________________
batch_normalization_430 (Bat (None, 2048)              8192      
_________________________________________________________________
activation_756 (Activation)  (None, 2048)              0         
_________________________________________________________________
dropout_756 (Dropout)        (None, 2048)              0         
_________________________________________________________________
dense_122 (Dense)            (None, 100)               204900    
=================================================================
Total params: 8,700,991
Trainable params: 8,694,591
Non-trainable params: 6,400
_________________________________________________________________
