Model: "sequential_383"
_________________________________________________________________
Layer (type)                 Output Shape              Param #   
=================================================================
separable_conv2d_4078 (Separ (None, 32, 32, 32)        155       
_________________________________________________________________
activation_4464 (Activation) (None, 32, 32, 32)        0         
_________________________________________________________________
dropout_4464 (Dropout)       (None, 32, 32, 32)        0         
_________________________________________________________________
separable_conv2d_4079 (Separ (None, 32, 32, 256)       8736      
_________________________________________________________________
batch_normalization_2541 (Ba (None, 32, 32, 256)       1024      
_________________________________________________________________
activation_4465 (Activation) (None, 32, 32, 256)       0         
_________________________________________________________________
dropout_4465 (Dropout)       (None, 32, 32, 256)       0         
_________________________________________________________________
separable_conv2d_4080 (Separ (None, 32, 32, 8)         4360      
_________________________________________________________________
batch_normalization_2542 (Ba (None, 32, 32, 8)         32        
_________________________________________________________________
activation_4466 (Activation) (None, 32, 32, 8)         0         
_________________________________________________________________
dropout_4466 (Dropout)       (None, 32, 32, 8)         0         
_________________________________________________________________
separable_conv2d_4081 (Separ (None, 32, 32, 64)        648       
_________________________________________________________________
activation_4467 (Activation) (None, 32, 32, 64)        0         
_________________________________________________________________
dropout_4467 (Dropout)       (None, 32, 32, 64)        0         
_________________________________________________________________
max_pooling2d_1050 (MaxPooli (None, 16, 16, 64)        0         
_________________________________________________________________
separable_conv2d_4082 (Separ (None, 16, 16, 16)        1616      
_________________________________________________________________
activation_4468 (Activation) (None, 16, 16, 16)        0         
_________________________________________________________________
dropout_4468 (Dropout)       (None, 16, 16, 16)        0         
_________________________________________________________________
separable_conv2d_4083 (Separ (None, 16, 16, 128)       2320      
_________________________________________________________________
batch_normalization_2543 (Ba (None, 16, 16, 128)       512       
_________________________________________________________________
activation_4469 (Activation) (None, 16, 16, 128)       0         
_________________________________________________________________
dropout_4469 (Dropout)       (None, 16, 16, 128)       0         
_________________________________________________________________
separable_conv2d_4084 (Separ (None, 16, 16, 64)        9408      
_________________________________________________________________
batch_normalization_2544 (Ba (None, 16, 16, 64)        256       
_________________________________________________________________
activation_4470 (Activation) (None, 16, 16, 64)        0         
_________________________________________________________________
dropout_4470 (Dropout)       (None, 16, 16, 64)        0         
_________________________________________________________________
separable_conv2d_4085 (Separ (None, 16, 16, 32)        2656      
_________________________________________________________________
activation_4471 (Activation) (None, 16, 16, 32)        0         
_________________________________________________________________
dropout_4471 (Dropout)       (None, 16, 16, 32)        0         
_________________________________________________________________
separable_conv2d_4086 (Separ (None, 16, 16, 256)       8736      
_________________________________________________________________
batch_normalization_2545 (Ba (None, 16, 16, 256)       1024      
_________________________________________________________________
activation_4472 (Activation) (None, 16, 16, 256)       0         
_________________________________________________________________
dropout_4472 (Dropout)       (None, 16, 16, 256)       0         
_________________________________________________________________
max_pooling2d_1051 (MaxPooli (None, 8, 8, 256)         0         
_________________________________________________________________
flatten_383 (Flatten)        (None, 16384)             0         
_________________________________________________________________
dense_769 (Dense)            (None, 2048)              33556480  
_________________________________________________________________
batch_normalization_2546 (Ba (None, 2048)              8192      
_________________________________________________________________
activation_4473 (Activation) (None, 2048)              0         
_________________________________________________________________
dropout_4473 (Dropout)       (None, 2048)              0         
_________________________________________________________________
dense_770 (Dense)            (None, 100)               204900    
=================================================================
Total params: 33,811,055
Trainable params: 33,805,535
Non-trainable params: 5,520
_________________________________________________________________
