Model: "sequential_312"
_________________________________________________________________
Layer (type)                 Output Shape              Param #   
=================================================================
separable_conv2d_3416 (Separ (None, 32, 32, 32)        155       
_________________________________________________________________
activation_3731 (Activation) (None, 32, 32, 32)        0         
_________________________________________________________________
dropout_3731 (Dropout)       (None, 32, 32, 32)        0         
_________________________________________________________________
separable_conv2d_3417 (Separ (None, 32, 32, 256)       8736      
_________________________________________________________________
batch_normalization_2167 (Ba (None, 32, 32, 256)       1024      
_________________________________________________________________
activation_3732 (Activation) (None, 32, 32, 256)       0         
_________________________________________________________________
dropout_3732 (Dropout)       (None, 32, 32, 256)       0         
_________________________________________________________________
separable_conv2d_3418 (Separ (None, 32, 32, 8)         4360      
_________________________________________________________________
activation_3733 (Activation) (None, 32, 32, 8)         0         
_________________________________________________________________
dropout_3733 (Dropout)       (None, 32, 32, 8)         0         
_________________________________________________________________
separable_conv2d_3419 (Separ (None, 32, 32, 64)        648       
_________________________________________________________________
activation_3734 (Activation) (None, 32, 32, 64)        0         
_________________________________________________________________
dropout_3734 (Dropout)       (None, 32, 32, 64)        0         
_________________________________________________________________
max_pooling2d_890 (MaxPoolin (None, 16, 16, 64)        0         
_________________________________________________________________
separable_conv2d_3420 (Separ (None, 16, 16, 16)        1616      
_________________________________________________________________
activation_3735 (Activation) (None, 16, 16, 16)        0         
_________________________________________________________________
dropout_3735 (Dropout)       (None, 16, 16, 16)        0         
_________________________________________________________________
separable_conv2d_3421 (Separ (None, 16, 16, 128)       2320      
_________________________________________________________________
batch_normalization_2168 (Ba (None, 16, 16, 128)       512       
_________________________________________________________________
activation_3736 (Activation) (None, 16, 16, 128)       0         
_________________________________________________________________
dropout_3736 (Dropout)       (None, 16, 16, 128)       0         
_________________________________________________________________
separable_conv2d_3422 (Separ (None, 16, 16, 64)        9408      
_________________________________________________________________
batch_normalization_2169 (Ba (None, 16, 16, 64)        256       
_________________________________________________________________
activation_3737 (Activation) (None, 16, 16, 64)        0         
_________________________________________________________________
dropout_3737 (Dropout)       (None, 16, 16, 64)        0         
_________________________________________________________________
max_pooling2d_891 (MaxPoolin (None, 8, 8, 64)          0         
_________________________________________________________________
separable_conv2d_3423 (Separ (None, 8, 8, 512)         33856     
_________________________________________________________________
batch_normalization_2170 (Ba (None, 8, 8, 512)         2048      
_________________________________________________________________
activation_3738 (Activation) (None, 8, 8, 512)         0         
_________________________________________________________________
dropout_3738 (Dropout)       (None, 8, 8, 512)         0         
_________________________________________________________________
max_pooling2d_892 (MaxPoolin (None, 4, 4, 512)         0         
_________________________________________________________________
separable_conv2d_3424 (Separ (None, 4, 4, 128)         70272     
_________________________________________________________________
activation_3739 (Activation) (None, 4, 4, 128)         0         
_________________________________________________________________
dropout_3739 (Dropout)       (None, 4, 4, 128)         0         
_________________________________________________________________
separable_conv2d_3425 (Separ (None, 4, 4, 32)          5280      
_________________________________________________________________
activation_3740 (Activation) (None, 4, 4, 32)          0         
_________________________________________________________________
dropout_3740 (Dropout)       (None, 4, 4, 32)          0         
_________________________________________________________________
separable_conv2d_3426 (Separ (None, 4, 4, 256)         8736      
_________________________________________________________________
batch_normalization_2171 (Ba (None, 4, 4, 256)         1024      
_________________________________________________________________
activation_3741 (Activation) (None, 4, 4, 256)         0         
_________________________________________________________________
dropout_3741 (Dropout)       (None, 4, 4, 256)         0         
_________________________________________________________________
flatten_312 (Flatten)        (None, 4096)              0         
_________________________________________________________________
dense_627 (Dense)            (None, 2048)              8390656   
_________________________________________________________________
batch_normalization_2172 (Ba (None, 2048)              8192      
_________________________________________________________________
activation_3742 (Activation) (None, 2048)              0         
_________________________________________________________________
dropout_3742 (Dropout)       (None, 2048)              0         
_________________________________________________________________
dense_628 (Dense)            (None, 100)               204900    
=================================================================
Total params: 8,753,999
Trainable params: 8,747,471
Non-trainable params: 6,528
_________________________________________________________________
