Model: "sequential_199"
_________________________________________________________________
Layer (type)                 Output Shape              Param #   
=================================================================
separable_conv2d_2251 (Separ (None, 32, 32, 32)        155       
_________________________________________________________________
activation_2453 (Activation) (None, 32, 32, 32)        0         
_________________________________________________________________
dropout_2453 (Dropout)       (None, 32, 32, 32)        0         
_________________________________________________________________
separable_conv2d_2252 (Separ (None, 32, 32, 8)         552       
_________________________________________________________________
activation_2454 (Activation) (None, 32, 32, 8)         0         
_________________________________________________________________
dropout_2454 (Dropout)       (None, 32, 32, 8)         0         
_________________________________________________________________
separable_conv2d_2253 (Separ (None, 32, 32, 64)        648       
_________________________________________________________________
activation_2455 (Activation) (None, 32, 32, 64)        0         
_________________________________________________________________
dropout_2455 (Dropout)       (None, 32, 32, 64)        0         
_________________________________________________________________
max_pooling2d_584 (MaxPoolin (None, 16, 16, 64)        0         
_________________________________________________________________
separable_conv2d_2254 (Separ (None, 16, 16, 8)         1096      
_________________________________________________________________
activation_2456 (Activation) (None, 16, 16, 8)         0         
_________________________________________________________________
dropout_2456 (Dropout)       (None, 16, 16, 8)         0         
_________________________________________________________________
separable_conv2d_2255 (Separ (None, 16, 16, 128)       1224      
_________________________________________________________________
batch_normalization_1449 (Ba (None, 16, 16, 128)       512       
_________________________________________________________________
activation_2457 (Activation) (None, 16, 16, 128)       0         
_________________________________________________________________
dropout_2457 (Dropout)       (None, 16, 16, 128)       0         
_________________________________________________________________
separable_conv2d_2256 (Separ (None, 16, 16, 64)        9408      
_________________________________________________________________
batch_normalization_1450 (Ba (None, 16, 16, 64)        256       
_________________________________________________________________
activation_2458 (Activation) (None, 16, 16, 64)        0         
_________________________________________________________________
dropout_2458 (Dropout)       (None, 16, 16, 64)        0         
_________________________________________________________________
separable_conv2d_2257 (Separ (None, 16, 16, 512)       33856     
_________________________________________________________________
batch_normalization_1451 (Ba (None, 16, 16, 512)       2048      
_________________________________________________________________
activation_2459 (Activation) (None, 16, 16, 512)       0         
_________________________________________________________________
dropout_2459 (Dropout)       (None, 16, 16, 512)       0         
_________________________________________________________________
max_pooling2d_585 (MaxPoolin (None, 8, 8, 512)         0         
_________________________________________________________________
separable_conv2d_2258 (Separ (None, 8, 8, 128)         70272     
_________________________________________________________________
activation_2460 (Activation) (None, 8, 8, 128)         0         
_________________________________________________________________
dropout_2460 (Dropout)       (None, 8, 8, 128)         0         
_________________________________________________________________
separable_conv2d_2259 (Separ (None, 8, 8, 32)          5280      
_________________________________________________________________
activation_2461 (Activation) (None, 8, 8, 32)          0         
_________________________________________________________________
dropout_2461 (Dropout)       (None, 8, 8, 32)          0         
_________________________________________________________________
separable_conv2d_2260 (Separ (None, 8, 8, 256)         8736      
_________________________________________________________________
batch_normalization_1452 (Ba (None, 8, 8, 256)         1024      
_________________________________________________________________
activation_2462 (Activation) (None, 8, 8, 256)         0         
_________________________________________________________________
dropout_2462 (Dropout)       (None, 8, 8, 256)         0         
_________________________________________________________________
max_pooling2d_586 (MaxPoolin (None, 4, 4, 256)         0         
_________________________________________________________________
flatten_199 (Flatten)        (None, 4096)              0         
_________________________________________________________________
dense_401 (Dense)            (None, 2048)              8390656   
_________________________________________________________________
batch_normalization_1453 (Ba (None, 2048)              8192      
_________________________________________________________________
activation_2463 (Activation) (None, 2048)              0         
_________________________________________________________________
dropout_2463 (Dropout)       (None, 2048)              0         
_________________________________________________________________
dense_402 (Dense)            (None, 100)               204900    
=================================================================
Total params: 8,738,815
Trainable params: 8,732,799
Non-trainable params: 6,016
_________________________________________________________________
