Model: "sequential_50"
_________________________________________________________________
Layer (type)                 Output Shape              Param #   
=================================================================
separable_conv2d_575 (Separa (None, 32, 32, 32)        155       
_________________________________________________________________
activation_628 (Activation)  (None, 32, 32, 32)        0         
_________________________________________________________________
dropout_628 (Dropout)        (None, 32, 32, 32)        0         
_________________________________________________________________
separable_conv2d_576 (Separa (None, 32, 32, 128)       4512      
_________________________________________________________________
batch_normalization_353 (Bat (None, 32, 32, 128)       512       
_________________________________________________________________
activation_629 (Activation)  (None, 32, 32, 128)       0         
_________________________________________________________________
dropout_629 (Dropout)        (None, 32, 32, 128)       0         
_________________________________________________________________
separable_conv2d_577 (Separa (None, 32, 32, 8)         2184      
_________________________________________________________________
activation_630 (Activation)  (None, 32, 32, 8)         0         
_________________________________________________________________
dropout_630 (Dropout)        (None, 32, 32, 8)         0         
_________________________________________________________________
separable_conv2d_578 (Separa (None, 32, 32, 64)        648       
_________________________________________________________________
activation_631 (Activation)  (None, 32, 32, 64)        0         
_________________________________________________________________
dropout_631 (Dropout)        (None, 32, 32, 64)        0         
_________________________________________________________________
max_pooling2d_139 (MaxPoolin (None, 16, 16, 64)        0         
_________________________________________________________________
separable_conv2d_579 (Separa (None, 16, 16, 8)         1096      
_________________________________________________________________
activation_632 (Activation)  (None, 16, 16, 8)         0         
_________________________________________________________________
dropout_632 (Dropout)        (None, 16, 16, 8)         0         
_________________________________________________________________
separable_conv2d_580 (Separa (None, 16, 16, 128)       1224      
_________________________________________________________________
batch_normalization_354 (Bat (None, 16, 16, 128)       512       
_________________________________________________________________
activation_633 (Activation)  (None, 16, 16, 128)       0         
_________________________________________________________________
dropout_633 (Dropout)        (None, 16, 16, 128)       0         
_________________________________________________________________
separable_conv2d_581 (Separa (None, 16, 16, 64)        9408      
_________________________________________________________________
batch_normalization_355 (Bat (None, 16, 16, 64)        256       
_________________________________________________________________
activation_634 (Activation)  (None, 16, 16, 64)        0         
_________________________________________________________________
dropout_634 (Dropout)        (None, 16, 16, 64)        0         
_________________________________________________________________
separable_conv2d_582 (Separa (None, 16, 16, 512)       33856     
_________________________________________________________________
activation_635 (Activation)  (None, 16, 16, 512)       0         
_________________________________________________________________
dropout_635 (Dropout)        (None, 16, 16, 512)       0         
_________________________________________________________________
max_pooling2d_140 (MaxPoolin (None, 8, 8, 512)         0         
_________________________________________________________________
separable_conv2d_583 (Separa (None, 8, 8, 32)          21024     
_________________________________________________________________
batch_normalization_356 (Bat (None, 8, 8, 32)          128       
_________________________________________________________________
activation_636 (Activation)  (None, 8, 8, 32)          0         
_________________________________________________________________
dropout_636 (Dropout)        (None, 8, 8, 32)          0         
_________________________________________________________________
max_pooling2d_141 (MaxPoolin (None, 4, 4, 32)          0         
_________________________________________________________________
separable_conv2d_584 (Separa (None, 4, 4, 128)         4512      
_________________________________________________________________
activation_637 (Activation)  (None, 4, 4, 128)         0         
_________________________________________________________________
dropout_637 (Dropout)        (None, 4, 4, 128)         0         
_________________________________________________________________
separable_conv2d_585 (Separa (None, 4, 4, 32)          5280      
_________________________________________________________________
batch_normalization_357 (Bat (None, 4, 4, 32)          128       
_________________________________________________________________
activation_638 (Activation)  (None, 4, 4, 32)          0         
_________________________________________________________________
dropout_638 (Dropout)        (None, 4, 4, 32)          0         
_________________________________________________________________
separable_conv2d_586 (Separa (None, 4, 4, 256)         8736      
_________________________________________________________________
batch_normalization_358 (Bat (None, 4, 4, 256)         1024      
_________________________________________________________________
activation_639 (Activation)  (None, 4, 4, 256)         0         
_________________________________________________________________
dropout_639 (Dropout)        (None, 4, 4, 256)         0         
_________________________________________________________________
flatten_50 (Flatten)         (None, 4096)              0         
_________________________________________________________________
dense_103 (Dense)            (None, 2048)              8390656   
_________________________________________________________________
batch_normalization_359 (Bat (None, 2048)              8192      
_________________________________________________________________
activation_640 (Activation)  (None, 2048)              0         
_________________________________________________________________
dropout_640 (Dropout)        (None, 2048)              0         
_________________________________________________________________
dense_104 (Dense)            (None, 100)               204900    
=================================================================
Total params: 8,698,943
Trainable params: 8,693,567
Non-trainable params: 5,376
_________________________________________________________________
