Model: "sequential_151"
_________________________________________________________________
Layer (type)                 Output Shape              Param #   
=================================================================
separable_conv2d_1730 (Separ (None, 32, 32, 32)        155       
_________________________________________________________________
activation_1884 (Activation) (None, 32, 32, 32)        0         
_________________________________________________________________
dropout_1884 (Dropout)       (None, 32, 32, 32)        0         
_________________________________________________________________
separable_conv2d_1731 (Separ (None, 32, 32, 128)       4512      
_________________________________________________________________
batch_normalization_1124 (Ba (None, 32, 32, 128)       512       
_________________________________________________________________
activation_1885 (Activation) (None, 32, 32, 128)       0         
_________________________________________________________________
dropout_1885 (Dropout)       (None, 32, 32, 128)       0         
_________________________________________________________________
separable_conv2d_1732 (Separ (None, 32, 32, 8)         2184      
_________________________________________________________________
activation_1886 (Activation) (None, 32, 32, 8)         0         
_________________________________________________________________
dropout_1886 (Dropout)       (None, 32, 32, 8)         0         
_________________________________________________________________
separable_conv2d_1733 (Separ (None, 32, 32, 64)        648       
_________________________________________________________________
activation_1887 (Activation) (None, 32, 32, 64)        0         
_________________________________________________________________
dropout_1887 (Dropout)       (None, 32, 32, 64)        0         
_________________________________________________________________
max_pooling2d_442 (MaxPoolin (None, 16, 16, 64)        0         
_________________________________________________________________
separable_conv2d_1734 (Separ (None, 16, 16, 8)         1096      
_________________________________________________________________
activation_1888 (Activation) (None, 16, 16, 8)         0         
_________________________________________________________________
dropout_1888 (Dropout)       (None, 16, 16, 8)         0         
_________________________________________________________________
separable_conv2d_1735 (Separ (None, 16, 16, 128)       1224      
_________________________________________________________________
batch_normalization_1125 (Ba (None, 16, 16, 128)       512       
_________________________________________________________________
activation_1889 (Activation) (None, 16, 16, 128)       0         
_________________________________________________________________
dropout_1889 (Dropout)       (None, 16, 16, 128)       0         
_________________________________________________________________
separable_conv2d_1736 (Separ (None, 16, 16, 64)        9408      
_________________________________________________________________
batch_normalization_1126 (Ba (None, 16, 16, 64)        256       
_________________________________________________________________
activation_1890 (Activation) (None, 16, 16, 64)        0         
_________________________________________________________________
dropout_1890 (Dropout)       (None, 16, 16, 64)        0         
_________________________________________________________________
separable_conv2d_1737 (Separ (None, 16, 16, 512)       33856     
_________________________________________________________________
batch_normalization_1127 (Ba (None, 16, 16, 512)       2048      
_________________________________________________________________
activation_1891 (Activation) (None, 16, 16, 512)       0         
_________________________________________________________________
dropout_1891 (Dropout)       (None, 16, 16, 512)       0         
_________________________________________________________________
max_pooling2d_443 (MaxPoolin (None, 8, 8, 512)         0         
_________________________________________________________________
separable_conv2d_1738 (Separ (None, 8, 8, 128)         70272     
_________________________________________________________________
activation_1892 (Activation) (None, 8, 8, 128)         0         
_________________________________________________________________
dropout_1892 (Dropout)       (None, 8, 8, 128)         0         
_________________________________________________________________
separable_conv2d_1739 (Separ (None, 8, 8, 32)          5280      
_________________________________________________________________
batch_normalization_1128 (Ba (None, 8, 8, 32)          128       
_________________________________________________________________
activation_1893 (Activation) (None, 8, 8, 32)          0         
_________________________________________________________________
dropout_1893 (Dropout)       (None, 8, 8, 32)          0         
_________________________________________________________________
separable_conv2d_1740 (Separ (None, 8, 8, 256)         8736      
_________________________________________________________________
batch_normalization_1129 (Ba (None, 8, 8, 256)         1024      
_________________________________________________________________
activation_1894 (Activation) (None, 8, 8, 256)         0         
_________________________________________________________________
dropout_1894 (Dropout)       (None, 8, 8, 256)         0         
_________________________________________________________________
max_pooling2d_444 (MaxPoolin (None, 4, 4, 256)         0         
_________________________________________________________________
flatten_151 (Flatten)        (None, 4096)              0         
_________________________________________________________________
dense_305 (Dense)            (None, 2048)              8390656   
_________________________________________________________________
batch_normalization_1130 (Ba (None, 2048)              8192      
_________________________________________________________________
activation_1895 (Activation) (None, 2048)              0         
_________________________________________________________________
dropout_1895 (Dropout)       (None, 2048)              0         
_________________________________________________________________
dense_306 (Dense)            (None, 100)               204900    
=================================================================
Total params: 8,745,599
Trainable params: 8,739,263
Non-trainable params: 6,336
_________________________________________________________________
