Model: "sequential_83"
_________________________________________________________________
Layer (type)                 Output Shape              Param #   
=================================================================
separable_conv2d_964 (Separa (None, 32, 32, 32)        155       
_________________________________________________________________
activation_1050 (Activation) (None, 32, 32, 32)        0         
_________________________________________________________________
dropout_1050 (Dropout)       (None, 32, 32, 32)        0         
_________________________________________________________________
separable_conv2d_965 (Separa (None, 32, 32, 128)       4512      
_________________________________________________________________
batch_normalization_612 (Bat (None, 32, 32, 128)       512       
_________________________________________________________________
activation_1051 (Activation) (None, 32, 32, 128)       0         
_________________________________________________________________
dropout_1051 (Dropout)       (None, 32, 32, 128)       0         
_________________________________________________________________
separable_conv2d_966 (Separa (None, 32, 32, 8)         2184      
_________________________________________________________________
activation_1052 (Activation) (None, 32, 32, 8)         0         
_________________________________________________________________
dropout_1052 (Dropout)       (None, 32, 32, 8)         0         
_________________________________________________________________
separable_conv2d_967 (Separa (None, 32, 32, 64)        648       
_________________________________________________________________
activation_1053 (Activation) (None, 32, 32, 64)        0         
_________________________________________________________________
dropout_1053 (Dropout)       (None, 32, 32, 64)        0         
_________________________________________________________________
max_pooling2d_238 (MaxPoolin (None, 16, 16, 64)        0         
_________________________________________________________________
separable_conv2d_968 (Separa (None, 16, 16, 8)         1096      
_________________________________________________________________
activation_1054 (Activation) (None, 16, 16, 8)         0         
_________________________________________________________________
dropout_1054 (Dropout)       (None, 16, 16, 8)         0         
_________________________________________________________________
separable_conv2d_969 (Separa (None, 16, 16, 128)       1224      
_________________________________________________________________
batch_normalization_613 (Bat (None, 16, 16, 128)       512       
_________________________________________________________________
activation_1055 (Activation) (None, 16, 16, 128)       0         
_________________________________________________________________
dropout_1055 (Dropout)       (None, 16, 16, 128)       0         
_________________________________________________________________
separable_conv2d_970 (Separa (None, 16, 16, 64)        9408      
_________________________________________________________________
batch_normalization_614 (Bat (None, 16, 16, 64)        256       
_________________________________________________________________
activation_1056 (Activation) (None, 16, 16, 64)        0         
_________________________________________________________________
dropout_1056 (Dropout)       (None, 16, 16, 64)        0         
_________________________________________________________________
separable_conv2d_971 (Separa (None, 16, 16, 512)       33856     
_________________________________________________________________
batch_normalization_615 (Bat (None, 16, 16, 512)       2048      
_________________________________________________________________
activation_1057 (Activation) (None, 16, 16, 512)       0         
_________________________________________________________________
dropout_1057 (Dropout)       (None, 16, 16, 512)       0         
_________________________________________________________________
max_pooling2d_239 (MaxPoolin (None, 8, 8, 512)         0         
_________________________________________________________________
separable_conv2d_972 (Separa (None, 8, 8, 32)          21024     
_________________________________________________________________
batch_normalization_616 (Bat (None, 8, 8, 32)          128       
_________________________________________________________________
activation_1058 (Activation) (None, 8, 8, 32)          0         
_________________________________________________________________
dropout_1058 (Dropout)       (None, 8, 8, 32)          0         
_________________________________________________________________
max_pooling2d_240 (MaxPoolin (None, 4, 4, 32)          0         
_________________________________________________________________
separable_conv2d_973 (Separa (None, 4, 4, 128)         4512      
_________________________________________________________________
activation_1059 (Activation) (None, 4, 4, 128)         0         
_________________________________________________________________
dropout_1059 (Dropout)       (None, 4, 4, 128)         0         
_________________________________________________________________
separable_conv2d_974 (Separa (None, 4, 4, 32)          5280      
_________________________________________________________________
batch_normalization_617 (Bat (None, 4, 4, 32)          128       
_________________________________________________________________
activation_1060 (Activation) (None, 4, 4, 32)          0         
_________________________________________________________________
dropout_1060 (Dropout)       (None, 4, 4, 32)          0         
_________________________________________________________________
separable_conv2d_975 (Separa (None, 4, 4, 256)         8736      
_________________________________________________________________
batch_normalization_618 (Bat (None, 4, 4, 256)         1024      
_________________________________________________________________
activation_1061 (Activation) (None, 4, 4, 256)         0         
_________________________________________________________________
dropout_1061 (Dropout)       (None, 4, 4, 256)         0         
_________________________________________________________________
flatten_83 (Flatten)         (None, 4096)              0         
_________________________________________________________________
dense_169 (Dense)            (None, 2048)              8390656   
_________________________________________________________________
batch_normalization_619 (Bat (None, 2048)              8192      
_________________________________________________________________
activation_1062 (Activation) (None, 2048)              0         
_________________________________________________________________
dropout_1062 (Dropout)       (None, 2048)              0         
_________________________________________________________________
dense_170 (Dense)            (None, 100)               204900    
=================================================================
Total params: 8,700,991
Trainable params: 8,694,591
Non-trainable params: 6,400
_________________________________________________________________
