Model: "sequential_91"
_________________________________________________________________
Layer (type)                 Output Shape              Param #   
=================================================================
separable_conv2d_1057 (Separ (None, 32, 32, 32)        155       
_________________________________________________________________
activation_1151 (Activation) (None, 32, 32, 32)        0         
_________________________________________________________________
dropout_1151 (Dropout)       (None, 32, 32, 32)        0         
_________________________________________________________________
separable_conv2d_1058 (Separ (None, 32, 32, 128)       4512      
_________________________________________________________________
batch_normalization_676 (Bat (None, 32, 32, 128)       512       
_________________________________________________________________
activation_1152 (Activation) (None, 32, 32, 128)       0         
_________________________________________________________________
dropout_1152 (Dropout)       (None, 32, 32, 128)       0         
_________________________________________________________________
separable_conv2d_1059 (Separ (None, 32, 32, 8)         2184      
_________________________________________________________________
activation_1153 (Activation) (None, 32, 32, 8)         0         
_________________________________________________________________
dropout_1153 (Dropout)       (None, 32, 32, 8)         0         
_________________________________________________________________
separable_conv2d_1060 (Separ (None, 32, 32, 64)        648       
_________________________________________________________________
activation_1154 (Activation) (None, 32, 32, 64)        0         
_________________________________________________________________
dropout_1154 (Dropout)       (None, 32, 32, 64)        0         
_________________________________________________________________
max_pooling2d_262 (MaxPoolin (None, 16, 16, 64)        0         
_________________________________________________________________
separable_conv2d_1061 (Separ (None, 16, 16, 8)         1096      
_________________________________________________________________
activation_1155 (Activation) (None, 16, 16, 8)         0         
_________________________________________________________________
dropout_1155 (Dropout)       (None, 16, 16, 8)         0         
_________________________________________________________________
separable_conv2d_1062 (Separ (None, 16, 16, 128)       1224      
_________________________________________________________________
batch_normalization_677 (Bat (None, 16, 16, 128)       512       
_________________________________________________________________
activation_1156 (Activation) (None, 16, 16, 128)       0         
_________________________________________________________________
dropout_1156 (Dropout)       (None, 16, 16, 128)       0         
_________________________________________________________________
separable_conv2d_1063 (Separ (None, 16, 16, 64)        9408      
_________________________________________________________________
batch_normalization_678 (Bat (None, 16, 16, 64)        256       
_________________________________________________________________
activation_1157 (Activation) (None, 16, 16, 64)        0         
_________________________________________________________________
dropout_1157 (Dropout)       (None, 16, 16, 64)        0         
_________________________________________________________________
separable_conv2d_1064 (Separ (None, 16, 16, 512)       33856     
_________________________________________________________________
batch_normalization_679 (Bat (None, 16, 16, 512)       2048      
_________________________________________________________________
activation_1158 (Activation) (None, 16, 16, 512)       0         
_________________________________________________________________
dropout_1158 (Dropout)       (None, 16, 16, 512)       0         
_________________________________________________________________
max_pooling2d_263 (MaxPoolin (None, 8, 8, 512)         0         
_________________________________________________________________
separable_conv2d_1065 (Separ (None, 8, 8, 128)         70272     
_________________________________________________________________
activation_1159 (Activation) (None, 8, 8, 128)         0         
_________________________________________________________________
dropout_1159 (Dropout)       (None, 8, 8, 128)         0         
_________________________________________________________________
separable_conv2d_1066 (Separ (None, 8, 8, 32)          5280      
_________________________________________________________________
batch_normalization_680 (Bat (None, 8, 8, 32)          128       
_________________________________________________________________
activation_1160 (Activation) (None, 8, 8, 32)          0         
_________________________________________________________________
dropout_1160 (Dropout)       (None, 8, 8, 32)          0         
_________________________________________________________________
separable_conv2d_1067 (Separ (None, 8, 8, 256)         8736      
_________________________________________________________________
batch_normalization_681 (Bat (None, 8, 8, 256)         1024      
_________________________________________________________________
activation_1161 (Activation) (None, 8, 8, 256)         0         
_________________________________________________________________
dropout_1161 (Dropout)       (None, 8, 8, 256)         0         
_________________________________________________________________
max_pooling2d_264 (MaxPoolin (None, 4, 4, 256)         0         
_________________________________________________________________
flatten_91 (Flatten)         (None, 4096)              0         
_________________________________________________________________
dense_185 (Dense)            (None, 2048)              8390656   
_________________________________________________________________
batch_normalization_682 (Bat (None, 2048)              8192      
_________________________________________________________________
activation_1162 (Activation) (None, 2048)              0         
_________________________________________________________________
dropout_1162 (Dropout)       (None, 2048)              0         
_________________________________________________________________
dense_186 (Dense)            (None, 100)               204900    
=================================================================
Total params: 8,745,599
Trainable params: 8,739,263
Non-trainable params: 6,336
_________________________________________________________________
