Model: "sequential_156"
_________________________________________________________________
Layer (type)                 Output Shape              Param #   
=================================================================
separable_conv2d_1785 (Separ (None, 32, 32, 32)        155       
_________________________________________________________________
activation_1944 (Activation) (None, 32, 32, 32)        0         
_________________________________________________________________
dropout_1944 (Dropout)       (None, 32, 32, 32)        0         
_________________________________________________________________
separable_conv2d_1786 (Separ (None, 32, 32, 256)       8736      
_________________________________________________________________
batch_normalization_1159 (Ba (None, 32, 32, 256)       1024      
_________________________________________________________________
activation_1945 (Activation) (None, 32, 32, 256)       0         
_________________________________________________________________
dropout_1945 (Dropout)       (None, 32, 32, 256)       0         
_________________________________________________________________
separable_conv2d_1787 (Separ (None, 32, 32, 8)         4360      
_________________________________________________________________
activation_1946 (Activation) (None, 32, 32, 8)         0         
_________________________________________________________________
dropout_1946 (Dropout)       (None, 32, 32, 8)         0         
_________________________________________________________________
separable_conv2d_1788 (Separ (None, 32, 32, 64)        648       
_________________________________________________________________
activation_1947 (Activation) (None, 32, 32, 64)        0         
_________________________________________________________________
dropout_1947 (Dropout)       (None, 32, 32, 64)        0         
_________________________________________________________________
max_pooling2d_457 (MaxPoolin (None, 16, 16, 64)        0         
_________________________________________________________________
separable_conv2d_1789 (Separ (None, 16, 16, 16)        1616      
_________________________________________________________________
activation_1948 (Activation) (None, 16, 16, 16)        0         
_________________________________________________________________
dropout_1948 (Dropout)       (None, 16, 16, 16)        0         
_________________________________________________________________
separable_conv2d_1790 (Separ (None, 16, 16, 128)       2320      
_________________________________________________________________
batch_normalization_1160 (Ba (None, 16, 16, 128)       512       
_________________________________________________________________
activation_1949 (Activation) (None, 16, 16, 128)       0         
_________________________________________________________________
dropout_1949 (Dropout)       (None, 16, 16, 128)       0         
_________________________________________________________________
separable_conv2d_1791 (Separ (None, 16, 16, 64)        9408      
_________________________________________________________________
batch_normalization_1161 (Ba (None, 16, 16, 64)        256       
_________________________________________________________________
activation_1950 (Activation) (None, 16, 16, 64)        0         
_________________________________________________________________
dropout_1950 (Dropout)       (None, 16, 16, 64)        0         
_________________________________________________________________
separable_conv2d_1792 (Separ (None, 16, 16, 512)       33856     
_________________________________________________________________
batch_normalization_1162 (Ba (None, 16, 16, 512)       2048      
_________________________________________________________________
activation_1951 (Activation) (None, 16, 16, 512)       0         
_________________________________________________________________
dropout_1951 (Dropout)       (None, 16, 16, 512)       0         
_________________________________________________________________
max_pooling2d_458 (MaxPoolin (None, 8, 8, 512)         0         
_________________________________________________________________
separable_conv2d_1793 (Separ (None, 8, 8, 128)         70272     
_________________________________________________________________
activation_1952 (Activation) (None, 8, 8, 128)         0         
_________________________________________________________________
dropout_1952 (Dropout)       (None, 8, 8, 128)         0         
_________________________________________________________________
separable_conv2d_1794 (Separ (None, 8, 8, 32)          5280      
_________________________________________________________________
batch_normalization_1163 (Ba (None, 8, 8, 32)          128       
_________________________________________________________________
activation_1953 (Activation) (None, 8, 8, 32)          0         
_________________________________________________________________
dropout_1953 (Dropout)       (None, 8, 8, 32)          0         
_________________________________________________________________
separable_conv2d_1795 (Separ (None, 8, 8, 256)         8736      
_________________________________________________________________
batch_normalization_1164 (Ba (None, 8, 8, 256)         1024      
_________________________________________________________________
activation_1954 (Activation) (None, 8, 8, 256)         0         
_________________________________________________________________
dropout_1954 (Dropout)       (None, 8, 8, 256)         0         
_________________________________________________________________
max_pooling2d_459 (MaxPoolin (None, 4, 4, 256)         0         
_________________________________________________________________
flatten_156 (Flatten)        (None, 4096)              0         
_________________________________________________________________
dense_315 (Dense)            (None, 2048)              8390656   
_________________________________________________________________
batch_normalization_1165 (Ba (None, 2048)              8192      
_________________________________________________________________
activation_1955 (Activation) (None, 2048)              0         
_________________________________________________________________
dropout_1955 (Dropout)       (None, 2048)              0         
_________________________________________________________________
dense_316 (Dense)            (None, 100)               204900    
=================================================================
Total params: 8,754,127
Trainable params: 8,747,535
Non-trainable params: 6,592
_________________________________________________________________
