Model: "sequential_58"
_________________________________________________________________
Layer (type)                 Output Shape              Param #   
=================================================================
separable_conv2d_671 (Separa (None, 32, 32, 32)        155       
_________________________________________________________________
activation_732 (Activation)  (None, 32, 32, 32)        0         
_________________________________________________________________
dropout_732 (Dropout)        (None, 32, 32, 32)        0         
_________________________________________________________________
separable_conv2d_672 (Separa (None, 32, 32, 128)       4512      
_________________________________________________________________
batch_normalization_415 (Bat (None, 32, 32, 128)       512       
_________________________________________________________________
activation_733 (Activation)  (None, 32, 32, 128)       0         
_________________________________________________________________
dropout_733 (Dropout)        (None, 32, 32, 128)       0         
_________________________________________________________________
separable_conv2d_673 (Separa (None, 32, 32, 8)         2184      
_________________________________________________________________
activation_734 (Activation)  (None, 32, 32, 8)         0         
_________________________________________________________________
dropout_734 (Dropout)        (None, 32, 32, 8)         0         
_________________________________________________________________
separable_conv2d_674 (Separa (None, 32, 32, 64)        648       
_________________________________________________________________
activation_735 (Activation)  (None, 32, 32, 64)        0         
_________________________________________________________________
dropout_735 (Dropout)        (None, 32, 32, 64)        0         
_________________________________________________________________
max_pooling2d_163 (MaxPoolin (None, 16, 16, 64)        0         
_________________________________________________________________
separable_conv2d_675 (Separa (None, 16, 16, 8)         1096      
_________________________________________________________________
activation_736 (Activation)  (None, 16, 16, 8)         0         
_________________________________________________________________
dropout_736 (Dropout)        (None, 16, 16, 8)         0         
_________________________________________________________________
separable_conv2d_676 (Separa (None, 16, 16, 128)       1224      
_________________________________________________________________
batch_normalization_416 (Bat (None, 16, 16, 128)       512       
_________________________________________________________________
activation_737 (Activation)  (None, 16, 16, 128)       0         
_________________________________________________________________
dropout_737 (Dropout)        (None, 16, 16, 128)       0         
_________________________________________________________________
separable_conv2d_677 (Separa (None, 16, 16, 64)        9408      
_________________________________________________________________
batch_normalization_417 (Bat (None, 16, 16, 64)        256       
_________________________________________________________________
activation_738 (Activation)  (None, 16, 16, 64)        0         
_________________________________________________________________
dropout_738 (Dropout)        (None, 16, 16, 64)        0         
_________________________________________________________________
separable_conv2d_678 (Separa (None, 16, 16, 512)       33856     
_________________________________________________________________
batch_normalization_418 (Bat (None, 16, 16, 512)       2048      
_________________________________________________________________
activation_739 (Activation)  (None, 16, 16, 512)       0         
_________________________________________________________________
dropout_739 (Dropout)        (None, 16, 16, 512)       0         
_________________________________________________________________
max_pooling2d_164 (MaxPoolin (None, 8, 8, 512)         0         
_________________________________________________________________
separable_conv2d_679 (Separa (None, 8, 8, 32)          21024     
_________________________________________________________________
batch_normalization_419 (Bat (None, 8, 8, 32)          128       
_________________________________________________________________
activation_740 (Activation)  (None, 8, 8, 32)          0         
_________________________________________________________________
dropout_740 (Dropout)        (None, 8, 8, 32)          0         
_________________________________________________________________
max_pooling2d_165 (MaxPoolin (None, 4, 4, 32)          0         
_________________________________________________________________
separable_conv2d_680 (Separa (None, 4, 4, 32)          1344      
_________________________________________________________________
batch_normalization_420 (Bat (None, 4, 4, 32)          128       
_________________________________________________________________
activation_741 (Activation)  (None, 4, 4, 32)          0         
_________________________________________________________________
dropout_741 (Dropout)        (None, 4, 4, 32)          0         
_________________________________________________________________
separable_conv2d_681 (Separa (None, 4, 4, 256)         8736      
_________________________________________________________________
batch_normalization_421 (Bat (None, 4, 4, 256)         1024      
_________________________________________________________________
activation_742 (Activation)  (None, 4, 4, 256)         0         
_________________________________________________________________
dropout_742 (Dropout)        (None, 4, 4, 256)         0         
_________________________________________________________________
flatten_58 (Flatten)         (None, 4096)              0         
_________________________________________________________________
dense_119 (Dense)            (None, 2048)              8390656   
_________________________________________________________________
batch_normalization_422 (Bat (None, 2048)              8192      
_________________________________________________________________
activation_743 (Activation)  (None, 2048)              0         
_________________________________________________________________
dropout_743 (Dropout)        (None, 2048)              0         
_________________________________________________________________
dense_120 (Dense)            (None, 100)               204900    
=================================================================
Total params: 8,692,543
Trainable params: 8,686,143
Non-trainable params: 6,400
_________________________________________________________________
