Model: "sequential_41"
_________________________________________________________________
Layer (type)                 Output Shape              Param #   
=================================================================
separable_conv2d_471 (Separa (None, 32, 32, 32)        155       
_________________________________________________________________
activation_515 (Activation)  (None, 32, 32, 32)        0         
_________________________________________________________________
dropout_515 (Dropout)        (None, 32, 32, 32)        0         
_________________________________________________________________
separable_conv2d_472 (Separa (None, 32, 32, 128)       4512      
_________________________________________________________________
batch_normalization_285 (Bat (None, 32, 32, 128)       512       
_________________________________________________________________
activation_516 (Activation)  (None, 32, 32, 128)       0         
_________________________________________________________________
dropout_516 (Dropout)        (None, 32, 32, 128)       0         
_________________________________________________________________
separable_conv2d_473 (Separa (None, 32, 32, 8)         2184      
_________________________________________________________________
activation_517 (Activation)  (None, 32, 32, 8)         0         
_________________________________________________________________
dropout_517 (Dropout)        (None, 32, 32, 8)         0         
_________________________________________________________________
separable_conv2d_474 (Separa (None, 32, 32, 64)        648       
_________________________________________________________________
activation_518 (Activation)  (None, 32, 32, 64)        0         
_________________________________________________________________
dropout_518 (Dropout)        (None, 32, 32, 64)        0         
_________________________________________________________________
max_pooling2d_112 (MaxPoolin (None, 16, 16, 64)        0         
_________________________________________________________________
separable_conv2d_475 (Separa (None, 16, 16, 8)         1096      
_________________________________________________________________
activation_519 (Activation)  (None, 16, 16, 8)         0         
_________________________________________________________________
dropout_519 (Dropout)        (None, 16, 16, 8)         0         
_________________________________________________________________
separable_conv2d_476 (Separa (None, 16, 16, 128)       1224      
_________________________________________________________________
batch_normalization_286 (Bat (None, 16, 16, 128)       512       
_________________________________________________________________
activation_520 (Activation)  (None, 16, 16, 128)       0         
_________________________________________________________________
dropout_520 (Dropout)        (None, 16, 16, 128)       0         
_________________________________________________________________
separable_conv2d_477 (Separa (None, 16, 16, 64)        9408      
_________________________________________________________________
batch_normalization_287 (Bat (None, 16, 16, 64)        256       
_________________________________________________________________
activation_521 (Activation)  (None, 16, 16, 64)        0         
_________________________________________________________________
dropout_521 (Dropout)        (None, 16, 16, 64)        0         
_________________________________________________________________
separable_conv2d_478 (Separa (None, 16, 16, 512)       33856     
_________________________________________________________________
batch_normalization_288 (Bat (None, 16, 16, 512)       2048      
_________________________________________________________________
activation_522 (Activation)  (None, 16, 16, 512)       0         
_________________________________________________________________
dropout_522 (Dropout)        (None, 16, 16, 512)       0         
_________________________________________________________________
max_pooling2d_113 (MaxPoolin (None, 8, 8, 512)         0         
_________________________________________________________________
separable_conv2d_479 (Separa (None, 8, 8, 32)          21024     
_________________________________________________________________
batch_normalization_289 (Bat (None, 8, 8, 32)          128       
_________________________________________________________________
activation_523 (Activation)  (None, 8, 8, 32)          0         
_________________________________________________________________
dropout_523 (Dropout)        (None, 8, 8, 32)          0         
_________________________________________________________________
max_pooling2d_114 (MaxPoolin (None, 4, 4, 32)          0         
_________________________________________________________________
separable_conv2d_480 (Separa (None, 4, 4, 128)         4512      
_________________________________________________________________
activation_524 (Activation)  (None, 4, 4, 128)         0         
_________________________________________________________________
dropout_524 (Dropout)        (None, 4, 4, 128)         0         
_________________________________________________________________
separable_conv2d_481 (Separa (None, 4, 4, 32)          5280      
_________________________________________________________________
batch_normalization_290 (Bat (None, 4, 4, 32)          128       
_________________________________________________________________
activation_525 (Activation)  (None, 4, 4, 32)          0         
_________________________________________________________________
dropout_525 (Dropout)        (None, 4, 4, 32)          0         
_________________________________________________________________
separable_conv2d_482 (Separa (None, 4, 4, 256)         8736      
_________________________________________________________________
batch_normalization_291 (Bat (None, 4, 4, 256)         1024      
_________________________________________________________________
activation_526 (Activation)  (None, 4, 4, 256)         0         
_________________________________________________________________
dropout_526 (Dropout)        (None, 4, 4, 256)         0         
_________________________________________________________________
flatten_41 (Flatten)         (None, 4096)              0         
_________________________________________________________________
dense_85 (Dense)             (None, 2048)              8390656   
_________________________________________________________________
batch_normalization_292 (Bat (None, 2048)              8192      
_________________________________________________________________
activation_527 (Activation)  (None, 2048)              0         
_________________________________________________________________
dropout_527 (Dropout)        (None, 2048)              0         
_________________________________________________________________
dense_86 (Dense)             (None, 100)               204900    
=================================================================
Total params: 8,700,991
Trainable params: 8,694,591
Non-trainable params: 6,400
_________________________________________________________________
