Model: "sequential_162"
_________________________________________________________________
Layer (type)                 Output Shape              Param #   
=================================================================
separable_conv2d_1851 (Separ (None, 32, 32, 32)        155       
_________________________________________________________________
activation_2016 (Activation) (None, 32, 32, 32)        0         
_________________________________________________________________
dropout_2016 (Dropout)       (None, 32, 32, 32)        0         
_________________________________________________________________
separable_conv2d_1852 (Separ (None, 32, 32, 256)       8736      
_________________________________________________________________
batch_normalization_1201 (Ba (None, 32, 32, 256)       1024      
_________________________________________________________________
activation_2017 (Activation) (None, 32, 32, 256)       0         
_________________________________________________________________
dropout_2017 (Dropout)       (None, 32, 32, 256)       0         
_________________________________________________________________
separable_conv2d_1853 (Separ (None, 32, 32, 8)         4360      
_________________________________________________________________
activation_2018 (Activation) (None, 32, 32, 8)         0         
_________________________________________________________________
dropout_2018 (Dropout)       (None, 32, 32, 8)         0         
_________________________________________________________________
separable_conv2d_1854 (Separ (None, 32, 32, 64)        648       
_________________________________________________________________
activation_2019 (Activation) (None, 32, 32, 64)        0         
_________________________________________________________________
dropout_2019 (Dropout)       (None, 32, 32, 64)        0         
_________________________________________________________________
max_pooling2d_475 (MaxPoolin (None, 16, 16, 64)        0         
_________________________________________________________________
separable_conv2d_1855 (Separ (None, 16, 16, 16)        1616      
_________________________________________________________________
activation_2020 (Activation) (None, 16, 16, 16)        0         
_________________________________________________________________
dropout_2020 (Dropout)       (None, 16, 16, 16)        0         
_________________________________________________________________
separable_conv2d_1856 (Separ (None, 16, 16, 128)       2320      
_________________________________________________________________
batch_normalization_1202 (Ba (None, 16, 16, 128)       512       
_________________________________________________________________
activation_2021 (Activation) (None, 16, 16, 128)       0         
_________________________________________________________________
dropout_2021 (Dropout)       (None, 16, 16, 128)       0         
_________________________________________________________________
separable_conv2d_1857 (Separ (None, 16, 16, 64)        9408      
_________________________________________________________________
batch_normalization_1203 (Ba (None, 16, 16, 64)        256       
_________________________________________________________________
activation_2022 (Activation) (None, 16, 16, 64)        0         
_________________________________________________________________
dropout_2022 (Dropout)       (None, 16, 16, 64)        0         
_________________________________________________________________
separable_conv2d_1858 (Separ (None, 16, 16, 512)       33856     
_________________________________________________________________
batch_normalization_1204 (Ba (None, 16, 16, 512)       2048      
_________________________________________________________________
activation_2023 (Activation) (None, 16, 16, 512)       0         
_________________________________________________________________
dropout_2023 (Dropout)       (None, 16, 16, 512)       0         
_________________________________________________________________
max_pooling2d_476 (MaxPoolin (None, 8, 8, 512)         0         
_________________________________________________________________
separable_conv2d_1859 (Separ (None, 8, 8, 128)         70272     
_________________________________________________________________
activation_2024 (Activation) (None, 8, 8, 128)         0         
_________________________________________________________________
dropout_2024 (Dropout)       (None, 8, 8, 128)         0         
_________________________________________________________________
separable_conv2d_1860 (Separ (None, 8, 8, 32)          5280      
_________________________________________________________________
batch_normalization_1205 (Ba (None, 8, 8, 32)          128       
_________________________________________________________________
activation_2025 (Activation) (None, 8, 8, 32)          0         
_________________________________________________________________
dropout_2025 (Dropout)       (None, 8, 8, 32)          0         
_________________________________________________________________
separable_conv2d_1861 (Separ (None, 8, 8, 256)         8736      
_________________________________________________________________
batch_normalization_1206 (Ba (None, 8, 8, 256)         1024      
_________________________________________________________________
activation_2026 (Activation) (None, 8, 8, 256)         0         
_________________________________________________________________
dropout_2026 (Dropout)       (None, 8, 8, 256)         0         
_________________________________________________________________
max_pooling2d_477 (MaxPoolin (None, 4, 4, 256)         0         
_________________________________________________________________
flatten_162 (Flatten)        (None, 4096)              0         
_________________________________________________________________
dense_327 (Dense)            (None, 2048)              8390656   
_________________________________________________________________
batch_normalization_1207 (Ba (None, 2048)              8192      
_________________________________________________________________
activation_2027 (Activation) (None, 2048)              0         
_________________________________________________________________
dropout_2027 (Dropout)       (None, 2048)              0         
_________________________________________________________________
dense_328 (Dense)            (None, 100)               204900    
=================================================================
Total params: 8,754,127
Trainable params: 8,747,535
Non-trainable params: 6,592
_________________________________________________________________
