Model: "sequential_97"
_________________________________________________________________
Layer (type)                 Output Shape              Param #   
=================================================================
separable_conv2d_1126 (Separ (None, 32, 32, 32)        155       
_________________________________________________________________
activation_1226 (Activation) (None, 32, 32, 32)        0         
_________________________________________________________________
dropout_1226 (Dropout)       (None, 32, 32, 32)        0         
_________________________________________________________________
separable_conv2d_1127 (Separ (None, 32, 32, 128)       4512      
_________________________________________________________________
batch_normalization_721 (Bat (None, 32, 32, 128)       512       
_________________________________________________________________
activation_1227 (Activation) (None, 32, 32, 128)       0         
_________________________________________________________________
dropout_1227 (Dropout)       (None, 32, 32, 128)       0         
_________________________________________________________________
separable_conv2d_1128 (Separ (None, 32, 32, 8)         2184      
_________________________________________________________________
activation_1228 (Activation) (None, 32, 32, 8)         0         
_________________________________________________________________
dropout_1228 (Dropout)       (None, 32, 32, 8)         0         
_________________________________________________________________
separable_conv2d_1129 (Separ (None, 32, 32, 64)        648       
_________________________________________________________________
activation_1229 (Activation) (None, 32, 32, 64)        0         
_________________________________________________________________
dropout_1229 (Dropout)       (None, 32, 32, 64)        0         
_________________________________________________________________
max_pooling2d_280 (MaxPoolin (None, 16, 16, 64)        0         
_________________________________________________________________
separable_conv2d_1130 (Separ (None, 16, 16, 8)         1096      
_________________________________________________________________
activation_1230 (Activation) (None, 16, 16, 8)         0         
_________________________________________________________________
dropout_1230 (Dropout)       (None, 16, 16, 8)         0         
_________________________________________________________________
separable_conv2d_1131 (Separ (None, 16, 16, 128)       1224      
_________________________________________________________________
batch_normalization_722 (Bat (None, 16, 16, 128)       512       
_________________________________________________________________
activation_1231 (Activation) (None, 16, 16, 128)       0         
_________________________________________________________________
dropout_1231 (Dropout)       (None, 16, 16, 128)       0         
_________________________________________________________________
separable_conv2d_1132 (Separ (None, 16, 16, 64)        9408      
_________________________________________________________________
batch_normalization_723 (Bat (None, 16, 16, 64)        256       
_________________________________________________________________
activation_1232 (Activation) (None, 16, 16, 64)        0         
_________________________________________________________________
dropout_1232 (Dropout)       (None, 16, 16, 64)        0         
_________________________________________________________________
separable_conv2d_1133 (Separ (None, 16, 16, 512)       33856     
_________________________________________________________________
batch_normalization_724 (Bat (None, 16, 16, 512)       2048      
_________________________________________________________________
activation_1233 (Activation) (None, 16, 16, 512)       0         
_________________________________________________________________
dropout_1233 (Dropout)       (None, 16, 16, 512)       0         
_________________________________________________________________
max_pooling2d_281 (MaxPoolin (None, 8, 8, 512)         0         
_________________________________________________________________
separable_conv2d_1134 (Separ (None, 8, 8, 32)          21024     
_________________________________________________________________
batch_normalization_725 (Bat (None, 8, 8, 32)          128       
_________________________________________________________________
activation_1234 (Activation) (None, 8, 8, 32)          0         
_________________________________________________________________
dropout_1234 (Dropout)       (None, 8, 8, 32)          0         
_________________________________________________________________
max_pooling2d_282 (MaxPoolin (None, 4, 4, 32)          0         
_________________________________________________________________
separable_conv2d_1135 (Separ (None, 4, 4, 128)         4512      
_________________________________________________________________
activation_1235 (Activation) (None, 4, 4, 128)         0         
_________________________________________________________________
dropout_1235 (Dropout)       (None, 4, 4, 128)         0         
_________________________________________________________________
separable_conv2d_1136 (Separ (None, 4, 4, 32)          5280      
_________________________________________________________________
batch_normalization_726 (Bat (None, 4, 4, 32)          128       
_________________________________________________________________
activation_1236 (Activation) (None, 4, 4, 32)          0         
_________________________________________________________________
dropout_1236 (Dropout)       (None, 4, 4, 32)          0         
_________________________________________________________________
separable_conv2d_1137 (Separ (None, 4, 4, 256)         8736      
_________________________________________________________________
batch_normalization_727 (Bat (None, 4, 4, 256)         1024      
_________________________________________________________________
activation_1237 (Activation) (None, 4, 4, 256)         0         
_________________________________________________________________
dropout_1237 (Dropout)       (None, 4, 4, 256)         0         
_________________________________________________________________
flatten_97 (Flatten)         (None, 4096)              0         
_________________________________________________________________
dense_197 (Dense)            (None, 2048)              8390656   
_________________________________________________________________
batch_normalization_728 (Bat (None, 2048)              8192      
_________________________________________________________________
activation_1238 (Activation) (None, 2048)              0         
_________________________________________________________________
dropout_1238 (Dropout)       (None, 2048)              0         
_________________________________________________________________
dense_198 (Dense)            (None, 100)               204900    
=================================================================
Total params: 8,700,991
Trainable params: 8,694,591
Non-trainable params: 6,400
_________________________________________________________________
