Model: "sequential_282"
_________________________________________________________________
Layer (type)                 Output Shape              Param #   
=================================================================
separable_conv2d_3122 (Separ (None, 32, 32, 32)        155       
_________________________________________________________________
activation_3407 (Activation) (None, 32, 32, 32)        0         
_________________________________________________________________
dropout_3407 (Dropout)       (None, 32, 32, 32)        0         
_________________________________________________________________
separable_conv2d_3123 (Separ (None, 32, 32, 256)       8736      
_________________________________________________________________
batch_normalization_1990 (Ba (None, 32, 32, 256)       1024      
_________________________________________________________________
activation_3408 (Activation) (None, 32, 32, 256)       0         
_________________________________________________________________
dropout_3408 (Dropout)       (None, 32, 32, 256)       0         
_________________________________________________________________
separable_conv2d_3124 (Separ (None, 32, 32, 8)         4360      
_________________________________________________________________
activation_3409 (Activation) (None, 32, 32, 8)         0         
_________________________________________________________________
dropout_3409 (Dropout)       (None, 32, 32, 8)         0         
_________________________________________________________________
separable_conv2d_3125 (Separ (None, 32, 32, 64)        648       
_________________________________________________________________
activation_3410 (Activation) (None, 32, 32, 64)        0         
_________________________________________________________________
dropout_3410 (Dropout)       (None, 32, 32, 64)        0         
_________________________________________________________________
max_pooling2d_817 (MaxPoolin (None, 16, 16, 64)        0         
_________________________________________________________________
separable_conv2d_3126 (Separ (None, 16, 16, 16)        1616      
_________________________________________________________________
activation_3411 (Activation) (None, 16, 16, 16)        0         
_________________________________________________________________
dropout_3411 (Dropout)       (None, 16, 16, 16)        0         
_________________________________________________________________
separable_conv2d_3127 (Separ (None, 16, 16, 128)       2320      
_________________________________________________________________
batch_normalization_1991 (Ba (None, 16, 16, 128)       512       
_________________________________________________________________
activation_3412 (Activation) (None, 16, 16, 128)       0         
_________________________________________________________________
dropout_3412 (Dropout)       (None, 16, 16, 128)       0         
_________________________________________________________________
separable_conv2d_3128 (Separ (None, 16, 16, 64)        9408      
_________________________________________________________________
batch_normalization_1992 (Ba (None, 16, 16, 64)        256       
_________________________________________________________________
activation_3413 (Activation) (None, 16, 16, 64)        0         
_________________________________________________________________
dropout_3413 (Dropout)       (None, 16, 16, 64)        0         
_________________________________________________________________
separable_conv2d_3129 (Separ (None, 16, 16, 512)       33856     
_________________________________________________________________
batch_normalization_1993 (Ba (None, 16, 16, 512)       2048      
_________________________________________________________________
activation_3414 (Activation) (None, 16, 16, 512)       0         
_________________________________________________________________
dropout_3414 (Dropout)       (None, 16, 16, 512)       0         
_________________________________________________________________
max_pooling2d_818 (MaxPoolin (None, 8, 8, 512)         0         
_________________________________________________________________
separable_conv2d_3130 (Separ (None, 8, 8, 128)         70272     
_________________________________________________________________
activation_3415 (Activation) (None, 8, 8, 128)         0         
_________________________________________________________________
dropout_3415 (Dropout)       (None, 8, 8, 128)         0         
_________________________________________________________________
separable_conv2d_3131 (Separ (None, 8, 8, 32)          5280      
_________________________________________________________________
batch_normalization_1994 (Ba (None, 8, 8, 32)          128       
_________________________________________________________________
activation_3416 (Activation) (None, 8, 8, 32)          0         
_________________________________________________________________
dropout_3416 (Dropout)       (None, 8, 8, 32)          0         
_________________________________________________________________
separable_conv2d_3132 (Separ (None, 8, 8, 256)         8736      
_________________________________________________________________
batch_normalization_1995 (Ba (None, 8, 8, 256)         1024      
_________________________________________________________________
activation_3417 (Activation) (None, 8, 8, 256)         0         
_________________________________________________________________
dropout_3417 (Dropout)       (None, 8, 8, 256)         0         
_________________________________________________________________
max_pooling2d_819 (MaxPoolin (None, 4, 4, 256)         0         
_________________________________________________________________
flatten_282 (Flatten)        (None, 4096)              0         
_________________________________________________________________
dense_567 (Dense)            (None, 512)               2097664   
_________________________________________________________________
batch_normalization_1996 (Ba (None, 512)               2048      
_________________________________________________________________
activation_3418 (Activation) (None, 512)               0         
_________________________________________________________________
dropout_3418 (Dropout)       (None, 512)               0         
_________________________________________________________________
dense_568 (Dense)            (None, 100)               51300     
=================================================================
Total params: 2,301,391
Trainable params: 2,297,871
Non-trainable params: 3,520
_________________________________________________________________
