Model: "sequential_231"
_________________________________________________________________
Layer (type)                 Output Shape              Param #   
=================================================================
separable_conv2d_2590 (Separ (None, 32, 32, 32)        155       
_________________________________________________________________
activation_2824 (Activation) (None, 32, 32, 32)        0         
_________________________________________________________________
dropout_2824 (Dropout)       (None, 32, 32, 32)        0         
_________________________________________________________________
separable_conv2d_2591 (Separ (None, 32, 32, 256)       8736      
_________________________________________________________________
batch_normalization_1657 (Ba (None, 32, 32, 256)       1024      
_________________________________________________________________
activation_2825 (Activation) (None, 32, 32, 256)       0         
_________________________________________________________________
dropout_2825 (Dropout)       (None, 32, 32, 256)       0         
_________________________________________________________________
separable_conv2d_2592 (Separ (None, 32, 32, 8)         4360      
_________________________________________________________________
activation_2826 (Activation) (None, 32, 32, 8)         0         
_________________________________________________________________
dropout_2826 (Dropout)       (None, 32, 32, 8)         0         
_________________________________________________________________
separable_conv2d_2593 (Separ (None, 32, 32, 64)        648       
_________________________________________________________________
activation_2827 (Activation) (None, 32, 32, 64)        0         
_________________________________________________________________
dropout_2827 (Dropout)       (None, 32, 32, 64)        0         
_________________________________________________________________
max_pooling2d_675 (MaxPoolin (None, 16, 16, 64)        0         
_________________________________________________________________
separable_conv2d_2594 (Separ (None, 16, 16, 16)        1616      
_________________________________________________________________
activation_2828 (Activation) (None, 16, 16, 16)        0         
_________________________________________________________________
dropout_2828 (Dropout)       (None, 16, 16, 16)        0         
_________________________________________________________________
separable_conv2d_2595 (Separ (None, 16, 16, 256)       4496      
_________________________________________________________________
batch_normalization_1658 (Ba (None, 16, 16, 256)       1024      
_________________________________________________________________
activation_2829 (Activation) (None, 16, 16, 256)       0         
_________________________________________________________________
dropout_2829 (Dropout)       (None, 16, 16, 256)       0         
_________________________________________________________________
separable_conv2d_2596 (Separ (None, 16, 16, 64)        18752     
_________________________________________________________________
batch_normalization_1659 (Ba (None, 16, 16, 64)        256       
_________________________________________________________________
activation_2830 (Activation) (None, 16, 16, 64)        0         
_________________________________________________________________
dropout_2830 (Dropout)       (None, 16, 16, 64)        0         
_________________________________________________________________
separable_conv2d_2597 (Separ (None, 16, 16, 512)       33856     
_________________________________________________________________
batch_normalization_1660 (Ba (None, 16, 16, 512)       2048      
_________________________________________________________________
activation_2831 (Activation) (None, 16, 16, 512)       0         
_________________________________________________________________
dropout_2831 (Dropout)       (None, 16, 16, 512)       0         
_________________________________________________________________
max_pooling2d_676 (MaxPoolin (None, 8, 8, 512)         0         
_________________________________________________________________
separable_conv2d_2598 (Separ (None, 8, 8, 128)         70272     
_________________________________________________________________
activation_2832 (Activation) (None, 8, 8, 128)         0         
_________________________________________________________________
dropout_2832 (Dropout)       (None, 8, 8, 128)         0         
_________________________________________________________________
separable_conv2d_2599 (Separ (None, 8, 8, 32)          5280      
_________________________________________________________________
batch_normalization_1661 (Ba (None, 8, 8, 32)          128       
_________________________________________________________________
activation_2833 (Activation) (None, 8, 8, 32)          0         
_________________________________________________________________
dropout_2833 (Dropout)       (None, 8, 8, 32)          0         
_________________________________________________________________
separable_conv2d_2600 (Separ (None, 8, 8, 256)         8736      
_________________________________________________________________
batch_normalization_1662 (Ba (None, 8, 8, 256)         1024      
_________________________________________________________________
activation_2834 (Activation) (None, 8, 8, 256)         0         
_________________________________________________________________
dropout_2834 (Dropout)       (None, 8, 8, 256)         0         
_________________________________________________________________
max_pooling2d_677 (MaxPoolin (None, 4, 4, 256)         0         
_________________________________________________________________
flatten_231 (Flatten)        (None, 4096)              0         
_________________________________________________________________
dense_465 (Dense)            (None, 2048)              8390656   
_________________________________________________________________
batch_normalization_1663 (Ba (None, 2048)              8192      
_________________________________________________________________
activation_2835 (Activation) (None, 2048)              0         
_________________________________________________________________
dropout_2835 (Dropout)       (None, 2048)              0         
_________________________________________________________________
dense_466 (Dense)            (None, 100)               204900    
=================================================================
Total params: 8,766,159
Trainable params: 8,759,311
Non-trainable params: 6,848
_________________________________________________________________
