Model: "sequential_251"
_________________________________________________________________
Layer (type)                 Output Shape              Param #   
=================================================================
separable_conv2d_2802 (Separ (None, 32, 32, 32)        155       
_________________________________________________________________
activation_3056 (Activation) (None, 32, 32, 32)        0         
_________________________________________________________________
dropout_3056 (Dropout)       (None, 32, 32, 32)        0         
_________________________________________________________________
separable_conv2d_2803 (Separ (None, 32, 32, 256)       8736      
_________________________________________________________________
batch_normalization_1790 (Ba (None, 32, 32, 256)       1024      
_________________________________________________________________
activation_3057 (Activation) (None, 32, 32, 256)       0         
_________________________________________________________________
dropout_3057 (Dropout)       (None, 32, 32, 256)       0         
_________________________________________________________________
separable_conv2d_2804 (Separ (None, 32, 32, 8)         4360      
_________________________________________________________________
activation_3058 (Activation) (None, 32, 32, 8)         0         
_________________________________________________________________
dropout_3058 (Dropout)       (None, 32, 32, 8)         0         
_________________________________________________________________
separable_conv2d_2805 (Separ (None, 32, 32, 64)        648       
_________________________________________________________________
activation_3059 (Activation) (None, 32, 32, 64)        0         
_________________________________________________________________
dropout_3059 (Dropout)       (None, 32, 32, 64)        0         
_________________________________________________________________
max_pooling2d_731 (MaxPoolin (None, 16, 16, 64)        0         
_________________________________________________________________
separable_conv2d_2806 (Separ (None, 16, 16, 16)        1616      
_________________________________________________________________
activation_3060 (Activation) (None, 16, 16, 16)        0         
_________________________________________________________________
dropout_3060 (Dropout)       (None, 16, 16, 16)        0         
_________________________________________________________________
separable_conv2d_2807 (Separ (None, 16, 16, 256)       4496      
_________________________________________________________________
batch_normalization_1791 (Ba (None, 16, 16, 256)       1024      
_________________________________________________________________
activation_3061 (Activation) (None, 16, 16, 256)       0         
_________________________________________________________________
dropout_3061 (Dropout)       (None, 16, 16, 256)       0         
_________________________________________________________________
separable_conv2d_2808 (Separ (None, 16, 16, 64)        18752     
_________________________________________________________________
batch_normalization_1792 (Ba (None, 16, 16, 64)        256       
_________________________________________________________________
activation_3062 (Activation) (None, 16, 16, 64)        0         
_________________________________________________________________
dropout_3062 (Dropout)       (None, 16, 16, 64)        0         
_________________________________________________________________
separable_conv2d_2809 (Separ (None, 16, 16, 512)       33856     
_________________________________________________________________
batch_normalization_1793 (Ba (None, 16, 16, 512)       2048      
_________________________________________________________________
activation_3063 (Activation) (None, 16, 16, 512)       0         
_________________________________________________________________
dropout_3063 (Dropout)       (None, 16, 16, 512)       0         
_________________________________________________________________
max_pooling2d_732 (MaxPoolin (None, 8, 8, 512)         0         
_________________________________________________________________
separable_conv2d_2810 (Separ (None, 8, 8, 128)         70272     
_________________________________________________________________
activation_3064 (Activation) (None, 8, 8, 128)         0         
_________________________________________________________________
dropout_3064 (Dropout)       (None, 8, 8, 128)         0         
_________________________________________________________________
separable_conv2d_2811 (Separ (None, 8, 8, 32)          5280      
_________________________________________________________________
batch_normalization_1794 (Ba (None, 8, 8, 32)          128       
_________________________________________________________________
activation_3065 (Activation) (None, 8, 8, 32)          0         
_________________________________________________________________
dropout_3065 (Dropout)       (None, 8, 8, 32)          0         
_________________________________________________________________
separable_conv2d_2812 (Separ (None, 8, 8, 256)         8736      
_________________________________________________________________
batch_normalization_1795 (Ba (None, 8, 8, 256)         1024      
_________________________________________________________________
activation_3066 (Activation) (None, 8, 8, 256)         0         
_________________________________________________________________
dropout_3066 (Dropout)       (None, 8, 8, 256)         0         
_________________________________________________________________
max_pooling2d_733 (MaxPoolin (None, 4, 4, 256)         0         
_________________________________________________________________
flatten_251 (Flatten)        (None, 4096)              0         
_________________________________________________________________
dense_505 (Dense)            (None, 2048)              8390656   
_________________________________________________________________
batch_normalization_1796 (Ba (None, 2048)              8192      
_________________________________________________________________
activation_3067 (Activation) (None, 2048)              0         
_________________________________________________________________
dropout_3067 (Dropout)       (None, 2048)              0         
_________________________________________________________________
dense_506 (Dense)            (None, 100)               204900    
=================================================================
Total params: 8,766,159
Trainable params: 8,759,311
Non-trainable params: 6,848
_________________________________________________________________
