Model: "sequential_42"
_________________________________________________________________
Layer (type)                 Output Shape              Param #   
=================================================================
separable_conv2d_483 (Separa (None, 32, 32, 32)        155       
_________________________________________________________________
activation_528 (Activation)  (None, 32, 32, 32)        0         
_________________________________________________________________
dropout_528 (Dropout)        (None, 32, 32, 32)        0         
_________________________________________________________________
separable_conv2d_484 (Separa (None, 32, 32, 128)       4512      
_________________________________________________________________
batch_normalization_293 (Bat (None, 32, 32, 128)       512       
_________________________________________________________________
activation_529 (Activation)  (None, 32, 32, 128)       0         
_________________________________________________________________
dropout_529 (Dropout)        (None, 32, 32, 128)       0         
_________________________________________________________________
separable_conv2d_485 (Separa (None, 32, 32, 8)         2184      
_________________________________________________________________
activation_530 (Activation)  (None, 32, 32, 8)         0         
_________________________________________________________________
dropout_530 (Dropout)        (None, 32, 32, 8)         0         
_________________________________________________________________
separable_conv2d_486 (Separa (None, 32, 32, 64)        648       
_________________________________________________________________
activation_531 (Activation)  (None, 32, 32, 64)        0         
_________________________________________________________________
dropout_531 (Dropout)        (None, 32, 32, 64)        0         
_________________________________________________________________
max_pooling2d_115 (MaxPoolin (None, 16, 16, 64)        0         
_________________________________________________________________
separable_conv2d_487 (Separa (None, 16, 16, 8)         1096      
_________________________________________________________________
activation_532 (Activation)  (None, 16, 16, 8)         0         
_________________________________________________________________
dropout_532 (Dropout)        (None, 16, 16, 8)         0         
_________________________________________________________________
separable_conv2d_488 (Separa (None, 16, 16, 128)       1224      
_________________________________________________________________
batch_normalization_294 (Bat (None, 16, 16, 128)       512       
_________________________________________________________________
activation_533 (Activation)  (None, 16, 16, 128)       0         
_________________________________________________________________
dropout_533 (Dropout)        (None, 16, 16, 128)       0         
_________________________________________________________________
separable_conv2d_489 (Separa (None, 16, 16, 64)        9408      
_________________________________________________________________
batch_normalization_295 (Bat (None, 16, 16, 64)        256       
_________________________________________________________________
activation_534 (Activation)  (None, 16, 16, 64)        0         
_________________________________________________________________
dropout_534 (Dropout)        (None, 16, 16, 64)        0         
_________________________________________________________________
separable_conv2d_490 (Separa (None, 16, 16, 512)       33856     
_________________________________________________________________
batch_normalization_296 (Bat (None, 16, 16, 512)       2048      
_________________________________________________________________
activation_535 (Activation)  (None, 16, 16, 512)       0         
_________________________________________________________________
dropout_535 (Dropout)        (None, 16, 16, 512)       0         
_________________________________________________________________
max_pooling2d_116 (MaxPoolin (None, 8, 8, 512)         0         
_________________________________________________________________
separable_conv2d_491 (Separa (None, 8, 8, 32)          21024     
_________________________________________________________________
batch_normalization_297 (Bat (None, 8, 8, 32)          128       
_________________________________________________________________
activation_536 (Activation)  (None, 8, 8, 32)          0         
_________________________________________________________________
dropout_536 (Dropout)        (None, 8, 8, 32)          0         
_________________________________________________________________
max_pooling2d_117 (MaxPoolin (None, 4, 4, 32)          0         
_________________________________________________________________
separable_conv2d_492 (Separa (None, 4, 4, 128)         4512      
_________________________________________________________________
activation_537 (Activation)  (None, 4, 4, 128)         0         
_________________________________________________________________
dropout_537 (Dropout)        (None, 4, 4, 128)         0         
_________________________________________________________________
separable_conv2d_493 (Separa (None, 4, 4, 32)          5280      
_________________________________________________________________
batch_normalization_298 (Bat (None, 4, 4, 32)          128       
_________________________________________________________________
activation_538 (Activation)  (None, 4, 4, 32)          0         
_________________________________________________________________
dropout_538 (Dropout)        (None, 4, 4, 32)          0         
_________________________________________________________________
separable_conv2d_494 (Separa (None, 4, 4, 256)         8736      
_________________________________________________________________
batch_normalization_299 (Bat (None, 4, 4, 256)         1024      
_________________________________________________________________
activation_539 (Activation)  (None, 4, 4, 256)         0         
_________________________________________________________________
dropout_539 (Dropout)        (None, 4, 4, 256)         0         
_________________________________________________________________
flatten_42 (Flatten)         (None, 4096)              0         
_________________________________________________________________
dense_87 (Dense)             (None, 2048)              8390656   
_________________________________________________________________
batch_normalization_300 (Bat (None, 2048)              8192      
_________________________________________________________________
activation_540 (Activation)  (None, 2048)              0         
_________________________________________________________________
dropout_540 (Dropout)        (None, 2048)              0         
_________________________________________________________________
dense_88 (Dense)             (None, 100)               204900    
=================================================================
Total params: 8,700,991
Trainable params: 8,694,591
Non-trainable params: 6,400
_________________________________________________________________
