Model: "sequential_281"
_________________________________________________________________
Layer (type)                 Output Shape              Param #   
=================================================================
separable_conv2d_3112 (Separ (None, 32, 32, 32)        155       
_________________________________________________________________
activation_3396 (Activation) (None, 32, 32, 32)        0         
_________________________________________________________________
dropout_3396 (Dropout)       (None, 32, 32, 32)        0         
_________________________________________________________________
separable_conv2d_3113 (Separ (None, 32, 32, 256)       8736      
_________________________________________________________________
batch_normalization_1983 (Ba (None, 32, 32, 256)       1024      
_________________________________________________________________
activation_3397 (Activation) (None, 32, 32, 256)       0         
_________________________________________________________________
dropout_3397 (Dropout)       (None, 32, 32, 256)       0         
_________________________________________________________________
separable_conv2d_3114 (Separ (None, 32, 32, 8)         4360      
_________________________________________________________________
activation_3398 (Activation) (None, 32, 32, 8)         0         
_________________________________________________________________
dropout_3398 (Dropout)       (None, 32, 32, 8)         0         
_________________________________________________________________
separable_conv2d_3115 (Separ (None, 32, 32, 64)        648       
_________________________________________________________________
activation_3399 (Activation) (None, 32, 32, 64)        0         
_________________________________________________________________
dropout_3399 (Dropout)       (None, 32, 32, 64)        0         
_________________________________________________________________
max_pooling2d_814 (MaxPoolin (None, 16, 16, 64)        0         
_________________________________________________________________
separable_conv2d_3116 (Separ (None, 16, 16, 16)        1616      
_________________________________________________________________
activation_3400 (Activation) (None, 16, 16, 16)        0         
_________________________________________________________________
dropout_3400 (Dropout)       (None, 16, 16, 16)        0         
_________________________________________________________________
separable_conv2d_3117 (Separ (None, 16, 16, 128)       2320      
_________________________________________________________________
batch_normalization_1984 (Ba (None, 16, 16, 128)       512       
_________________________________________________________________
activation_3401 (Activation) (None, 16, 16, 128)       0         
_________________________________________________________________
dropout_3401 (Dropout)       (None, 16, 16, 128)       0         
_________________________________________________________________
separable_conv2d_3118 (Separ (None, 16, 16, 64)        9408      
_________________________________________________________________
batch_normalization_1985 (Ba (None, 16, 16, 64)        256       
_________________________________________________________________
activation_3402 (Activation) (None, 16, 16, 64)        0         
_________________________________________________________________
dropout_3402 (Dropout)       (None, 16, 16, 64)        0         
_________________________________________________________________
separable_conv2d_3119 (Separ (None, 16, 16, 512)       33856     
_________________________________________________________________
batch_normalization_1986 (Ba (None, 16, 16, 512)       2048      
_________________________________________________________________
activation_3403 (Activation) (None, 16, 16, 512)       0         
_________________________________________________________________
dropout_3403 (Dropout)       (None, 16, 16, 512)       0         
_________________________________________________________________
max_pooling2d_815 (MaxPoolin (None, 8, 8, 512)         0         
_________________________________________________________________
separable_conv2d_3120 (Separ (None, 8, 8, 64)          37440     
_________________________________________________________________
batch_normalization_1987 (Ba (None, 8, 8, 64)          256       
_________________________________________________________________
activation_3404 (Activation) (None, 8, 8, 64)          0         
_________________________________________________________________
dropout_3404 (Dropout)       (None, 8, 8, 64)          0         
_________________________________________________________________
separable_conv2d_3121 (Separ (None, 8, 8, 512)         33856     
_________________________________________________________________
batch_normalization_1988 (Ba (None, 8, 8, 512)         2048      
_________________________________________________________________
activation_3405 (Activation) (None, 8, 8, 512)         0         
_________________________________________________________________
dropout_3405 (Dropout)       (None, 8, 8, 512)         0         
_________________________________________________________________
max_pooling2d_816 (MaxPoolin (None, 4, 4, 512)         0         
_________________________________________________________________
flatten_281 (Flatten)        (None, 8192)              0         
_________________________________________________________________
dense_565 (Dense)            (None, 2048)              16779264  
_________________________________________________________________
batch_normalization_1989 (Ba (None, 2048)              8192      
_________________________________________________________________
activation_3406 (Activation) (None, 2048)              0         
_________________________________________________________________
dropout_3406 (Dropout)       (None, 2048)              0         
_________________________________________________________________
dense_566 (Dense)            (None, 100)               204900    
=================================================================
Total params: 17,130,895
Trainable params: 17,123,727
Non-trainable params: 7,168
_________________________________________________________________
