Model: "sequential_178"
_________________________________________________________________
Layer (type)                 Output Shape              Param #   
=================================================================
separable_conv2d_2023 (Separ (None, 32, 32, 32)        155       
_________________________________________________________________
activation_2204 (Activation) (None, 32, 32, 32)        0         
_________________________________________________________________
dropout_2204 (Dropout)       (None, 32, 32, 32)        0         
_________________________________________________________________
separable_conv2d_2024 (Separ (None, 32, 32, 256)       8736      
_________________________________________________________________
batch_normalization_1309 (Ba (None, 32, 32, 256)       1024      
_________________________________________________________________
activation_2205 (Activation) (None, 32, 32, 256)       0         
_________________________________________________________________
dropout_2205 (Dropout)       (None, 32, 32, 256)       0         
_________________________________________________________________
separable_conv2d_2025 (Separ (None, 32, 32, 8)         4360      
_________________________________________________________________
activation_2206 (Activation) (None, 32, 32, 8)         0         
_________________________________________________________________
dropout_2206 (Dropout)       (None, 32, 32, 8)         0         
_________________________________________________________________
max_pooling2d_522 (MaxPoolin (None, 16, 16, 8)         0         
_________________________________________________________________
separable_conv2d_2026 (Separ (None, 16, 16, 64)        648       
_________________________________________________________________
activation_2207 (Activation) (None, 16, 16, 64)        0         
_________________________________________________________________
dropout_2207 (Dropout)       (None, 16, 16, 64)        0         
_________________________________________________________________
max_pooling2d_523 (MaxPoolin (None, 8, 8, 64)          0         
_________________________________________________________________
separable_conv2d_2027 (Separ (None, 8, 8, 8)           1096      
_________________________________________________________________
activation_2208 (Activation) (None, 8, 8, 8)           0         
_________________________________________________________________
dropout_2208 (Dropout)       (None, 8, 8, 8)           0         
_________________________________________________________________
separable_conv2d_2028 (Separ (None, 8, 8, 256)         2376      
_________________________________________________________________
batch_normalization_1310 (Ba (None, 8, 8, 256)         1024      
_________________________________________________________________
activation_2209 (Activation) (None, 8, 8, 256)         0         
_________________________________________________________________
dropout_2209 (Dropout)       (None, 8, 8, 256)         0         
_________________________________________________________________
separable_conv2d_2029 (Separ (None, 8, 8, 64)          18752     
_________________________________________________________________
batch_normalization_1311 (Ba (None, 8, 8, 64)          256       
_________________________________________________________________
activation_2210 (Activation) (None, 8, 8, 64)          0         
_________________________________________________________________
dropout_2210 (Dropout)       (None, 8, 8, 64)          0         
_________________________________________________________________
separable_conv2d_2030 (Separ (None, 8, 8, 512)         33856     
_________________________________________________________________
batch_normalization_1312 (Ba (None, 8, 8, 512)         2048      
_________________________________________________________________
activation_2211 (Activation) (None, 8, 8, 512)         0         
_________________________________________________________________
dropout_2211 (Dropout)       (None, 8, 8, 512)         0         
_________________________________________________________________
max_pooling2d_524 (MaxPoolin (None, 4, 4, 512)         0         
_________________________________________________________________
separable_conv2d_2031 (Separ (None, 4, 4, 128)         70272     
_________________________________________________________________
activation_2212 (Activation) (None, 4, 4, 128)         0         
_________________________________________________________________
dropout_2212 (Dropout)       (None, 4, 4, 128)         0         
_________________________________________________________________
separable_conv2d_2032 (Separ (None, 4, 4, 32)          5280      
_________________________________________________________________
batch_normalization_1313 (Ba (None, 4, 4, 32)          128       
_________________________________________________________________
activation_2213 (Activation) (None, 4, 4, 32)          0         
_________________________________________________________________
dropout_2213 (Dropout)       (None, 4, 4, 32)          0         
_________________________________________________________________
separable_conv2d_2033 (Separ (None, 4, 4, 256)         8736      
_________________________________________________________________
batch_normalization_1314 (Ba (None, 4, 4, 256)         1024      
_________________________________________________________________
activation_2214 (Activation) (None, 4, 4, 256)         0         
_________________________________________________________________
dropout_2214 (Dropout)       (None, 4, 4, 256)         0         
_________________________________________________________________
flatten_178 (Flatten)        (None, 4096)              0         
_________________________________________________________________
dense_359 (Dense)            (None, 2048)              8390656   
_________________________________________________________________
batch_normalization_1315 (Ba (None, 2048)              8192      
_________________________________________________________________
activation_2215 (Activation) (None, 2048)              0         
_________________________________________________________________
dropout_2215 (Dropout)       (None, 2048)              0         
_________________________________________________________________
dense_360 (Dense)            (None, 100)               204900    
=================================================================
Total params: 8,763,519
Trainable params: 8,756,671
Non-trainable params: 6,848
_________________________________________________________________
