Model: "sequential_378"
_________________________________________________________________
Layer (type)                 Output Shape              Param #   
=================================================================
separable_conv2d_4035 (Separ (None, 32, 32, 32)        155       
_________________________________________________________________
activation_4416 (Activation) (None, 32, 32, 32)        0         
_________________________________________________________________
dropout_4416 (Dropout)       (None, 32, 32, 32)        0         
_________________________________________________________________
separable_conv2d_4036 (Separ (None, 32, 32, 8)         552       
_________________________________________________________________
activation_4417 (Activation) (None, 32, 32, 8)         0         
_________________________________________________________________
dropout_4417 (Dropout)       (None, 32, 32, 8)         0         
_________________________________________________________________
separable_conv2d_4037 (Separ (None, 32, 32, 64)        648       
_________________________________________________________________
activation_4418 (Activation) (None, 32, 32, 64)        0         
_________________________________________________________________
dropout_4418 (Dropout)       (None, 32, 32, 64)        0         
_________________________________________________________________
max_pooling2d_1040 (MaxPooli (None, 16, 16, 64)        0         
_________________________________________________________________
separable_conv2d_4038 (Separ (None, 16, 16, 16)        1616      
_________________________________________________________________
activation_4419 (Activation) (None, 16, 16, 16)        0         
_________________________________________________________________
dropout_4419 (Dropout)       (None, 16, 16, 16)        0         
_________________________________________________________________
separable_conv2d_4039 (Separ (None, 16, 16, 128)       2320      
_________________________________________________________________
batch_normalization_2517 (Ba (None, 16, 16, 128)       512       
_________________________________________________________________
activation_4420 (Activation) (None, 16, 16, 128)       0         
_________________________________________________________________
dropout_4420 (Dropout)       (None, 16, 16, 128)       0         
_________________________________________________________________
separable_conv2d_4040 (Separ (None, 16, 16, 64)        9408      
_________________________________________________________________
batch_normalization_2518 (Ba (None, 16, 16, 64)        256       
_________________________________________________________________
activation_4421 (Activation) (None, 16, 16, 64)        0         
_________________________________________________________________
dropout_4421 (Dropout)       (None, 16, 16, 64)        0         
_________________________________________________________________
separable_conv2d_4041 (Separ (None, 16, 16, 32)        2656      
_________________________________________________________________
activation_4422 (Activation) (None, 16, 16, 32)        0         
_________________________________________________________________
dropout_4422 (Dropout)       (None, 16, 16, 32)        0         
_________________________________________________________________
separable_conv2d_4042 (Separ (None, 16, 16, 256)       8736      
_________________________________________________________________
batch_normalization_2519 (Ba (None, 16, 16, 256)       1024      
_________________________________________________________________
activation_4423 (Activation) (None, 16, 16, 256)       0         
_________________________________________________________________
dropout_4423 (Dropout)       (None, 16, 16, 256)       0         
_________________________________________________________________
max_pooling2d_1041 (MaxPooli (None, 8, 8, 256)         0         
_________________________________________________________________
flatten_378 (Flatten)        (None, 16384)             0         
_________________________________________________________________
dense_759 (Dense)            (None, 2048)              33556480  
_________________________________________________________________
batch_normalization_2520 (Ba (None, 2048)              8192      
_________________________________________________________________
activation_4424 (Activation) (None, 2048)              0         
_________________________________________________________________
dropout_4424 (Dropout)       (None, 2048)              0         
_________________________________________________________________
dense_760 (Dense)            (None, 100)               204900    
=================================================================
Total params: 33,797,455
Trainable params: 33,792,463
Non-trainable params: 4,992
_________________________________________________________________
