Model: "sequential_70"
_________________________________________________________________
Layer (type)                 Output Shape              Param #   
=================================================================
separable_conv2d_810 (Separa (None, 32, 32, 32)        155       
_________________________________________________________________
activation_883 (Activation)  (None, 32, 32, 32)        0         
_________________________________________________________________
dropout_883 (Dropout)        (None, 32, 32, 32)        0         
_________________________________________________________________
separable_conv2d_811 (Separa (None, 32, 32, 128)       4512      
_________________________________________________________________
batch_normalization_510 (Bat (None, 32, 32, 128)       512       
_________________________________________________________________
activation_884 (Activation)  (None, 32, 32, 128)       0         
_________________________________________________________________
dropout_884 (Dropout)        (None, 32, 32, 128)       0         
_________________________________________________________________
separable_conv2d_812 (Separa (None, 32, 32, 8)         2184      
_________________________________________________________________
activation_885 (Activation)  (None, 32, 32, 8)         0         
_________________________________________________________________
dropout_885 (Dropout)        (None, 32, 32, 8)         0         
_________________________________________________________________
separable_conv2d_813 (Separa (None, 32, 32, 64)        648       
_________________________________________________________________
activation_886 (Activation)  (None, 32, 32, 64)        0         
_________________________________________________________________
dropout_886 (Dropout)        (None, 32, 32, 64)        0         
_________________________________________________________________
max_pooling2d_199 (MaxPoolin (None, 16, 16, 64)        0         
_________________________________________________________________
separable_conv2d_814 (Separa (None, 16, 16, 8)         1096      
_________________________________________________________________
activation_887 (Activation)  (None, 16, 16, 8)         0         
_________________________________________________________________
dropout_887 (Dropout)        (None, 16, 16, 8)         0         
_________________________________________________________________
separable_conv2d_815 (Separa (None, 16, 16, 128)       1224      
_________________________________________________________________
batch_normalization_511 (Bat (None, 16, 16, 128)       512       
_________________________________________________________________
activation_888 (Activation)  (None, 16, 16, 128)       0         
_________________________________________________________________
dropout_888 (Dropout)        (None, 16, 16, 128)       0         
_________________________________________________________________
separable_conv2d_816 (Separa (None, 16, 16, 64)        9408      
_________________________________________________________________
batch_normalization_512 (Bat (None, 16, 16, 64)        256       
_________________________________________________________________
activation_889 (Activation)  (None, 16, 16, 64)        0         
_________________________________________________________________
dropout_889 (Dropout)        (None, 16, 16, 64)        0         
_________________________________________________________________
separable_conv2d_817 (Separa (None, 16, 16, 512)       33856     
_________________________________________________________________
batch_normalization_513 (Bat (None, 16, 16, 512)       2048      
_________________________________________________________________
activation_890 (Activation)  (None, 16, 16, 512)       0         
_________________________________________________________________
dropout_890 (Dropout)        (None, 16, 16, 512)       0         
_________________________________________________________________
max_pooling2d_200 (MaxPoolin (None, 8, 8, 512)         0         
_________________________________________________________________
separable_conv2d_818 (Separa (None, 8, 8, 32)          21024     
_________________________________________________________________
batch_normalization_514 (Bat (None, 8, 8, 32)          128       
_________________________________________________________________
activation_891 (Activation)  (None, 8, 8, 32)          0         
_________________________________________________________________
dropout_891 (Dropout)        (None, 8, 8, 32)          0         
_________________________________________________________________
max_pooling2d_201 (MaxPoolin (None, 4, 4, 32)          0         
_________________________________________________________________
separable_conv2d_819 (Separa (None, 4, 4, 128)         4512      
_________________________________________________________________
activation_892 (Activation)  (None, 4, 4, 128)         0         
_________________________________________________________________
dropout_892 (Dropout)        (None, 4, 4, 128)         0         
_________________________________________________________________
separable_conv2d_820 (Separa (None, 4, 4, 32)          5280      
_________________________________________________________________
batch_normalization_515 (Bat (None, 4, 4, 32)          128       
_________________________________________________________________
activation_893 (Activation)  (None, 4, 4, 32)          0         
_________________________________________________________________
dropout_893 (Dropout)        (None, 4, 4, 32)          0         
_________________________________________________________________
separable_conv2d_821 (Separa (None, 4, 4, 256)         8736      
_________________________________________________________________
batch_normalization_516 (Bat (None, 4, 4, 256)         1024      
_________________________________________________________________
activation_894 (Activation)  (None, 4, 4, 256)         0         
_________________________________________________________________
dropout_894 (Dropout)        (None, 4, 4, 256)         0         
_________________________________________________________________
flatten_70 (Flatten)         (None, 4096)              0         
_________________________________________________________________
dense_143 (Dense)            (None, 2048)              8390656   
_________________________________________________________________
batch_normalization_517 (Bat (None, 2048)              8192      
_________________________________________________________________
activation_895 (Activation)  (None, 2048)              0         
_________________________________________________________________
dropout_895 (Dropout)        (None, 2048)              0         
_________________________________________________________________
dense_144 (Dense)            (None, 100)               204900    
=================================================================
Total params: 8,700,991
Trainable params: 8,694,591
Non-trainable params: 6,400
_________________________________________________________________
