Model: "sequential_4"
_________________________________________________________________
Layer (type)                 Output Shape              Param #   
=================================================================
separable_conv2d_45 (Separab (None, 32, 32, 1024)      4123      
_________________________________________________________________
batch_normalization_27 (Batc (None, 32, 32, 1024)      4096      
_________________________________________________________________
activation_47 (Activation)   (None, 32, 32, 1024)      0         
_________________________________________________________________
dropout_47 (Dropout)         (None, 32, 32, 1024)      0         
_________________________________________________________________
separable_conv2d_46 (Separab (None, 32, 32, 512)       534016    
_________________________________________________________________
activation_48 (Activation)   (None, 32, 32, 512)       0         
_________________________________________________________________
dropout_48 (Dropout)         (None, 32, 32, 512)       0         
_________________________________________________________________
separable_conv2d_47 (Separab (None, 32, 32, 32)        21024     
_________________________________________________________________
activation_49 (Activation)   (None, 32, 32, 32)        0         
_________________________________________________________________
dropout_49 (Dropout)         (None, 32, 32, 32)        0         
_________________________________________________________________
separable_conv2d_48 (Separab (None, 32, 32, 64)        2400      
_________________________________________________________________
batch_normalization_28 (Batc (None, 32, 32, 64)        256       
_________________________________________________________________
activation_50 (Activation)   (None, 32, 32, 64)        0         
_________________________________________________________________
dropout_50 (Dropout)         (None, 32, 32, 64)        0         
_________________________________________________________________
separable_conv2d_49 (Separab (None, 32, 32, 8)         1096      
_________________________________________________________________
batch_normalization_29 (Batc (None, 32, 32, 8)         32        
_________________________________________________________________
activation_51 (Activation)   (None, 32, 32, 8)         0         
_________________________________________________________________
dropout_51 (Dropout)         (None, 32, 32, 8)         0         
_________________________________________________________________
separable_conv2d_50 (Separab (None, 32, 32, 64)        648       
_________________________________________________________________
batch_normalization_30 (Batc (None, 32, 32, 64)        256       
_________________________________________________________________
activation_52 (Activation)   (None, 32, 32, 64)        0         
_________________________________________________________________
dropout_52 (Dropout)         (None, 32, 32, 64)        0         
_________________________________________________________________
separable_conv2d_51 (Separab (None, 32, 32, 32)        2656      
_________________________________________________________________
activation_53 (Activation)   (None, 32, 32, 32)        0         
_________________________________________________________________
dropout_53 (Dropout)         (None, 32, 32, 32)        0         
_________________________________________________________________
separable_conv2d_52 (Separab (None, 32, 32, 128)       4512      
_________________________________________________________________
activation_54 (Activation)   (None, 32, 32, 128)       0         
_________________________________________________________________
dropout_54 (Dropout)         (None, 32, 32, 128)       0         
_________________________________________________________________
separable_conv2d_53 (Separab (None, 32, 32, 128)       17664     
_________________________________________________________________
activation_55 (Activation)   (None, 32, 32, 128)       0         
_________________________________________________________________
dropout_55 (Dropout)         (None, 32, 32, 128)       0         
_________________________________________________________________
separable_conv2d_54 (Separab (None, 32, 32, 512)       67200     
_________________________________________________________________
batch_normalization_31 (Batc (None, 32, 32, 512)       2048      
_________________________________________________________________
activation_56 (Activation)   (None, 32, 32, 512)       0         
_________________________________________________________________
dropout_56 (Dropout)         (None, 32, 32, 512)       0         
_________________________________________________________________
separable_conv2d_55 (Separab (None, 32, 32, 64)        37440     
_________________________________________________________________
batch_normalization_32 (Batc (None, 32, 32, 64)        256       
_________________________________________________________________
activation_57 (Activation)   (None, 32, 32, 64)        0         
_________________________________________________________________
dropout_57 (Dropout)         (None, 32, 32, 64)        0         
_________________________________________________________________
separable_conv2d_56 (Separab (None, 32, 32, 8)         1096      
_________________________________________________________________
batch_normalization_33 (Batc (None, 32, 32, 8)         32        
_________________________________________________________________
activation_58 (Activation)   (None, 32, 32, 8)         0         
_________________________________________________________________
dropout_58 (Dropout)         (None, 32, 32, 8)         0         
_________________________________________________________________
flatten_4 (Flatten)          (None, 8192)              0         
_________________________________________________________________
dense_6 (Dense)              (None, 100)               819300    
=================================================================
Total params: 1,520,151
Trainable params: 1,516,663
Non-trainable params: 3,488
_________________________________________________________________
