Model: "sequential_292"
_________________________________________________________________
Layer (type)                 Output Shape              Param #   
=================================================================
separable_conv2d_3222 (Separ (None, 32, 32, 32)        155       
_________________________________________________________________
activation_3517 (Activation) (None, 32, 32, 32)        0         
_________________________________________________________________
dropout_3517 (Dropout)       (None, 32, 32, 32)        0         
_________________________________________________________________
separable_conv2d_3223 (Separ (None, 32, 32, 256)       8736      
_________________________________________________________________
batch_normalization_2052 (Ba (None, 32, 32, 256)       1024      
_________________________________________________________________
activation_3518 (Activation) (None, 32, 32, 256)       0         
_________________________________________________________________
dropout_3518 (Dropout)       (None, 32, 32, 256)       0         
_________________________________________________________________
separable_conv2d_3224 (Separ (None, 32, 32, 8)         4360      
_________________________________________________________________
activation_3519 (Activation) (None, 32, 32, 8)         0         
_________________________________________________________________
dropout_3519 (Dropout)       (None, 32, 32, 8)         0         
_________________________________________________________________
separable_conv2d_3225 (Separ (None, 32, 32, 64)        648       
_________________________________________________________________
activation_3520 (Activation) (None, 32, 32, 64)        0         
_________________________________________________________________
dropout_3520 (Dropout)       (None, 32, 32, 64)        0         
_________________________________________________________________
max_pooling2d_843 (MaxPoolin (None, 16, 16, 64)        0         
_________________________________________________________________
separable_conv2d_3226 (Separ (None, 16, 16, 16)        1616      
_________________________________________________________________
activation_3521 (Activation) (None, 16, 16, 16)        0         
_________________________________________________________________
dropout_3521 (Dropout)       (None, 16, 16, 16)        0         
_________________________________________________________________
separable_conv2d_3227 (Separ (None, 16, 16, 128)       2320      
_________________________________________________________________
batch_normalization_2053 (Ba (None, 16, 16, 128)       512       
_________________________________________________________________
activation_3522 (Activation) (None, 16, 16, 128)       0         
_________________________________________________________________
dropout_3522 (Dropout)       (None, 16, 16, 128)       0         
_________________________________________________________________
separable_conv2d_3228 (Separ (None, 16, 16, 64)        9408      
_________________________________________________________________
batch_normalization_2054 (Ba (None, 16, 16, 64)        256       
_________________________________________________________________
activation_3523 (Activation) (None, 16, 16, 64)        0         
_________________________________________________________________
dropout_3523 (Dropout)       (None, 16, 16, 64)        0         
_________________________________________________________________
separable_conv2d_3229 (Separ (None, 16, 16, 128)       8896      
_________________________________________________________________
activation_3524 (Activation) (None, 16, 16, 128)       0         
_________________________________________________________________
dropout_3524 (Dropout)       (None, 16, 16, 128)       0         
_________________________________________________________________
separable_conv2d_3230 (Separ (None, 16, 16, 32)        5280      
_________________________________________________________________
batch_normalization_2055 (Ba (None, 16, 16, 32)        128       
_________________________________________________________________
activation_3525 (Activation) (None, 16, 16, 32)        0         
_________________________________________________________________
dropout_3525 (Dropout)       (None, 16, 16, 32)        0         
_________________________________________________________________
separable_conv2d_3231 (Separ (None, 16, 16, 512)       17184     
_________________________________________________________________
batch_normalization_2056 (Ba (None, 16, 16, 512)       2048      
_________________________________________________________________
activation_3526 (Activation) (None, 16, 16, 512)       0         
_________________________________________________________________
dropout_3526 (Dropout)       (None, 16, 16, 512)       0         
_________________________________________________________________
max_pooling2d_844 (MaxPoolin (None, 8, 8, 512)         0         
_________________________________________________________________
flatten_292 (Flatten)        (None, 32768)             0         
_________________________________________________________________
dense_587 (Dense)            (None, 2048)              67110912  
_________________________________________________________________
batch_normalization_2057 (Ba (None, 2048)              8192      
_________________________________________________________________
activation_3527 (Activation) (None, 2048)              0         
_________________________________________________________________
dropout_3527 (Dropout)       (None, 2048)              0         
_________________________________________________________________
dense_588 (Dense)            (None, 100)               204900    
=================================================================
Total params: 67,386,575
Trainable params: 67,380,495
Non-trainable params: 6,080
_________________________________________________________________
