Model: "sequential_143"
_________________________________________________________________
Layer (type)                 Output Shape              Param #   
=================================================================
separable_conv2d_1643 (Separ (None, 32, 32, 32)        155       
_________________________________________________________________
activation_1789 (Activation) (None, 32, 32, 32)        0         
_________________________________________________________________
dropout_1789 (Dropout)       (None, 32, 32, 32)        0         
_________________________________________________________________
separable_conv2d_1644 (Separ (None, 32, 32, 128)       4512      
_________________________________________________________________
batch_normalization_1066 (Ba (None, 32, 32, 128)       512       
_________________________________________________________________
activation_1790 (Activation) (None, 32, 32, 128)       0         
_________________________________________________________________
dropout_1790 (Dropout)       (None, 32, 32, 128)       0         
_________________________________________________________________
separable_conv2d_1645 (Separ (None, 32, 32, 8)         2184      
_________________________________________________________________
activation_1791 (Activation) (None, 32, 32, 8)         0         
_________________________________________________________________
dropout_1791 (Dropout)       (None, 32, 32, 8)         0         
_________________________________________________________________
separable_conv2d_1646 (Separ (None, 32, 32, 64)        648       
_________________________________________________________________
activation_1792 (Activation) (None, 32, 32, 64)        0         
_________________________________________________________________
dropout_1792 (Dropout)       (None, 32, 32, 64)        0         
_________________________________________________________________
max_pooling2d_418 (MaxPoolin (None, 16, 16, 64)        0         
_________________________________________________________________
separable_conv2d_1647 (Separ (None, 16, 16, 8)         1096      
_________________________________________________________________
activation_1793 (Activation) (None, 16, 16, 8)         0         
_________________________________________________________________
dropout_1793 (Dropout)       (None, 16, 16, 8)         0         
_________________________________________________________________
separable_conv2d_1648 (Separ (None, 16, 16, 128)       1224      
_________________________________________________________________
batch_normalization_1067 (Ba (None, 16, 16, 128)       512       
_________________________________________________________________
activation_1794 (Activation) (None, 16, 16, 128)       0         
_________________________________________________________________
dropout_1794 (Dropout)       (None, 16, 16, 128)       0         
_________________________________________________________________
separable_conv2d_1649 (Separ (None, 16, 16, 64)        9408      
_________________________________________________________________
batch_normalization_1068 (Ba (None, 16, 16, 64)        256       
_________________________________________________________________
activation_1795 (Activation) (None, 16, 16, 64)        0         
_________________________________________________________________
dropout_1795 (Dropout)       (None, 16, 16, 64)        0         
_________________________________________________________________
separable_conv2d_1650 (Separ (None, 16, 16, 512)       33856     
_________________________________________________________________
batch_normalization_1069 (Ba (None, 16, 16, 512)       2048      
_________________________________________________________________
activation_1796 (Activation) (None, 16, 16, 512)       0         
_________________________________________________________________
dropout_1796 (Dropout)       (None, 16, 16, 512)       0         
_________________________________________________________________
max_pooling2d_419 (MaxPoolin (None, 8, 8, 512)         0         
_________________________________________________________________
separable_conv2d_1651 (Separ (None, 8, 8, 32)          21024     
_________________________________________________________________
batch_normalization_1070 (Ba (None, 8, 8, 32)          128       
_________________________________________________________________
activation_1797 (Activation) (None, 8, 8, 32)          0         
_________________________________________________________________
dropout_1797 (Dropout)       (None, 8, 8, 32)          0         
_________________________________________________________________
max_pooling2d_420 (MaxPoolin (None, 4, 4, 32)          0         
_________________________________________________________________
separable_conv2d_1652 (Separ (None, 4, 4, 128)         4512      
_________________________________________________________________
activation_1798 (Activation) (None, 4, 4, 128)         0         
_________________________________________________________________
dropout_1798 (Dropout)       (None, 4, 4, 128)         0         
_________________________________________________________________
separable_conv2d_1653 (Separ (None, 4, 4, 32)          5280      
_________________________________________________________________
batch_normalization_1071 (Ba (None, 4, 4, 32)          128       
_________________________________________________________________
activation_1799 (Activation) (None, 4, 4, 32)          0         
_________________________________________________________________
dropout_1799 (Dropout)       (None, 4, 4, 32)          0         
_________________________________________________________________
separable_conv2d_1654 (Separ (None, 4, 4, 256)         8736      
_________________________________________________________________
batch_normalization_1072 (Ba (None, 4, 4, 256)         1024      
_________________________________________________________________
activation_1800 (Activation) (None, 4, 4, 256)         0         
_________________________________________________________________
dropout_1800 (Dropout)       (None, 4, 4, 256)         0         
_________________________________________________________________
flatten_143 (Flatten)        (None, 4096)              0         
_________________________________________________________________
dense_289 (Dense)            (None, 2048)              8390656   
_________________________________________________________________
batch_normalization_1073 (Ba (None, 2048)              8192      
_________________________________________________________________
activation_1801 (Activation) (None, 2048)              0         
_________________________________________________________________
dropout_1801 (Dropout)       (None, 2048)              0         
_________________________________________________________________
dense_290 (Dense)            (None, 100)               204900    
=================================================================
Total params: 8,700,991
Trainable params: 8,694,591
Non-trainable params: 6,400
_________________________________________________________________
