Model: "sequential_357"
_________________________________________________________________
Layer (type)                 Output Shape              Param #   
=================================================================
separable_conv2d_3843 (Separ (None, 32, 32, 32)        155       
_________________________________________________________________
activation_4203 (Activation) (None, 32, 32, 32)        0         
_________________________________________________________________
dropout_4203 (Dropout)       (None, 32, 32, 32)        0         
_________________________________________________________________
separable_conv2d_3844 (Separ (None, 32, 32, 16)        816       
_________________________________________________________________
batch_normalization_2409 (Ba (None, 32, 32, 16)        64        
_________________________________________________________________
activation_4204 (Activation) (None, 32, 32, 16)        0         
_________________________________________________________________
dropout_4204 (Dropout)       (None, 32, 32, 16)        0         
_________________________________________________________________
separable_conv2d_3845 (Separ (None, 32, 32, 8)         280       
_________________________________________________________________
activation_4205 (Activation) (None, 32, 32, 8)         0         
_________________________________________________________________
dropout_4205 (Dropout)       (None, 32, 32, 8)         0         
_________________________________________________________________
separable_conv2d_3846 (Separ (None, 32, 32, 64)        648       
_________________________________________________________________
activation_4206 (Activation) (None, 32, 32, 64)        0         
_________________________________________________________________
dropout_4206 (Dropout)       (None, 32, 32, 64)        0         
_________________________________________________________________
max_pooling2d_993 (MaxPoolin (None, 16, 16, 64)        0         
_________________________________________________________________
separable_conv2d_3847 (Separ (None, 16, 16, 256)       17216     
_________________________________________________________________
batch_normalization_2410 (Ba (None, 16, 16, 256)       1024      
_________________________________________________________________
activation_4207 (Activation) (None, 16, 16, 256)       0         
_________________________________________________________________
dropout_4207 (Dropout)       (None, 16, 16, 256)       0         
_________________________________________________________________
separable_conv2d_3848 (Separ (None, 16, 16, 512)       133888    
_________________________________________________________________
batch_normalization_2411 (Ba (None, 16, 16, 512)       2048      
_________________________________________________________________
activation_4208 (Activation) (None, 16, 16, 512)       0         
_________________________________________________________________
dropout_4208 (Dropout)       (None, 16, 16, 512)       0         
_________________________________________________________________
max_pooling2d_994 (MaxPoolin (None, 8, 8, 512)         0         
_________________________________________________________________
separable_conv2d_3849 (Separ (None, 8, 8, 128)         70272     
_________________________________________________________________
activation_4209 (Activation) (None, 8, 8, 128)         0         
_________________________________________________________________
dropout_4209 (Dropout)       (None, 8, 8, 128)         0         
_________________________________________________________________
separable_conv2d_3850 (Separ (None, 8, 8, 64)          9408      
_________________________________________________________________
batch_normalization_2412 (Ba (None, 8, 8, 64)          256       
_________________________________________________________________
activation_4210 (Activation) (None, 8, 8, 64)          0         
_________________________________________________________________
dropout_4210 (Dropout)       (None, 8, 8, 64)          0         
_________________________________________________________________
separable_conv2d_3851 (Separ (None, 8, 8, 512)         33856     
_________________________________________________________________
batch_normalization_2413 (Ba (None, 8, 8, 512)         2048      
_________________________________________________________________
activation_4211 (Activation) (None, 8, 8, 512)         0         
_________________________________________________________________
dropout_4211 (Dropout)       (None, 8, 8, 512)         0         
_________________________________________________________________
max_pooling2d_995 (MaxPoolin (None, 4, 4, 512)         0         
_________________________________________________________________
flatten_357 (Flatten)        (None, 8192)              0         
_________________________________________________________________
dense_717 (Dense)            (None, 2048)              16779264  
_________________________________________________________________
batch_normalization_2414 (Ba (None, 2048)              8192      
_________________________________________________________________
activation_4212 (Activation) (None, 2048)              0         
_________________________________________________________________
dropout_4212 (Dropout)       (None, 2048)              0         
_________________________________________________________________
dense_718 (Dense)            (None, 100)               204900    
=================================================================
Total params: 17,264,335
Trainable params: 17,257,519
Non-trainable params: 6,816
_________________________________________________________________
