Model: "sequential_141"
_________________________________________________________________
Layer (type)                 Output Shape              Param #   
=================================================================
separable_conv2d_1621 (Separ (None, 32, 32, 32)        155       
_________________________________________________________________
activation_1765 (Activation) (None, 32, 32, 32)        0         
_________________________________________________________________
dropout_1765 (Dropout)       (None, 32, 32, 32)        0         
_________________________________________________________________
separable_conv2d_1622 (Separ (None, 32, 32, 256)       8736      
_________________________________________________________________
batch_normalization_1052 (Ba (None, 32, 32, 256)       1024      
_________________________________________________________________
activation_1766 (Activation) (None, 32, 32, 256)       0         
_________________________________________________________________
dropout_1766 (Dropout)       (None, 32, 32, 256)       0         
_________________________________________________________________
separable_conv2d_1623 (Separ (None, 32, 32, 8)         4360      
_________________________________________________________________
activation_1767 (Activation) (None, 32, 32, 8)         0         
_________________________________________________________________
dropout_1767 (Dropout)       (None, 32, 32, 8)         0         
_________________________________________________________________
separable_conv2d_1624 (Separ (None, 32, 32, 64)        648       
_________________________________________________________________
activation_1768 (Activation) (None, 32, 32, 64)        0         
_________________________________________________________________
dropout_1768 (Dropout)       (None, 32, 32, 64)        0         
_________________________________________________________________
max_pooling2d_412 (MaxPoolin (None, 16, 16, 64)        0         
_________________________________________________________________
separable_conv2d_1625 (Separ (None, 16, 16, 8)         1096      
_________________________________________________________________
activation_1769 (Activation) (None, 16, 16, 8)         0         
_________________________________________________________________
dropout_1769 (Dropout)       (None, 16, 16, 8)         0         
_________________________________________________________________
separable_conv2d_1626 (Separ (None, 16, 16, 128)       1224      
_________________________________________________________________
batch_normalization_1053 (Ba (None, 16, 16, 128)       512       
_________________________________________________________________
activation_1770 (Activation) (None, 16, 16, 128)       0         
_________________________________________________________________
dropout_1770 (Dropout)       (None, 16, 16, 128)       0         
_________________________________________________________________
separable_conv2d_1627 (Separ (None, 16, 16, 64)        9408      
_________________________________________________________________
batch_normalization_1054 (Ba (None, 16, 16, 64)        256       
_________________________________________________________________
activation_1771 (Activation) (None, 16, 16, 64)        0         
_________________________________________________________________
dropout_1771 (Dropout)       (None, 16, 16, 64)        0         
_________________________________________________________________
separable_conv2d_1628 (Separ (None, 16, 16, 512)       33856     
_________________________________________________________________
batch_normalization_1055 (Ba (None, 16, 16, 512)       2048      
_________________________________________________________________
activation_1772 (Activation) (None, 16, 16, 512)       0         
_________________________________________________________________
dropout_1772 (Dropout)       (None, 16, 16, 512)       0         
_________________________________________________________________
max_pooling2d_413 (MaxPoolin (None, 8, 8, 512)         0         
_________________________________________________________________
separable_conv2d_1629 (Separ (None, 8, 8, 128)         70272     
_________________________________________________________________
activation_1773 (Activation) (None, 8, 8, 128)         0         
_________________________________________________________________
dropout_1773 (Dropout)       (None, 8, 8, 128)         0         
_________________________________________________________________
separable_conv2d_1630 (Separ (None, 8, 8, 32)          5280      
_________________________________________________________________
batch_normalization_1056 (Ba (None, 8, 8, 32)          128       
_________________________________________________________________
activation_1774 (Activation) (None, 8, 8, 32)          0         
_________________________________________________________________
dropout_1774 (Dropout)       (None, 8, 8, 32)          0         
_________________________________________________________________
separable_conv2d_1631 (Separ (None, 8, 8, 256)         8736      
_________________________________________________________________
batch_normalization_1057 (Ba (None, 8, 8, 256)         1024      
_________________________________________________________________
activation_1775 (Activation) (None, 8, 8, 256)         0         
_________________________________________________________________
dropout_1775 (Dropout)       (None, 8, 8, 256)         0         
_________________________________________________________________
max_pooling2d_414 (MaxPoolin (None, 4, 4, 256)         0         
_________________________________________________________________
flatten_141 (Flatten)        (None, 4096)              0         
_________________________________________________________________
dense_285 (Dense)            (None, 2048)              8390656   
_________________________________________________________________
batch_normalization_1058 (Ba (None, 2048)              8192      
_________________________________________________________________
activation_1776 (Activation) (None, 2048)              0         
_________________________________________________________________
dropout_1776 (Dropout)       (None, 2048)              0         
_________________________________________________________________
dense_286 (Dense)            (None, 100)               204900    
=================================================================
Total params: 8,752,511
Trainable params: 8,745,919
Non-trainable params: 6,592
_________________________________________________________________
