Model: "sequential_69"
_________________________________________________________________
Layer (type)                 Output Shape              Param #   
=================================================================
separable_conv2d_798 (Separa (None, 32, 32, 32)        155       
_________________________________________________________________
activation_870 (Activation)  (None, 32, 32, 32)        0         
_________________________________________________________________
dropout_870 (Dropout)        (None, 32, 32, 32)        0         
_________________________________________________________________
separable_conv2d_799 (Separa (None, 32, 32, 256)       8736      
_________________________________________________________________
batch_normalization_502 (Bat (None, 32, 32, 256)       1024      
_________________________________________________________________
activation_871 (Activation)  (None, 32, 32, 256)       0         
_________________________________________________________________
dropout_871 (Dropout)        (None, 32, 32, 256)       0         
_________________________________________________________________
separable_conv2d_800 (Separa (None, 32, 32, 8)         4360      
_________________________________________________________________
activation_872 (Activation)  (None, 32, 32, 8)         0         
_________________________________________________________________
dropout_872 (Dropout)        (None, 32, 32, 8)         0         
_________________________________________________________________
separable_conv2d_801 (Separa (None, 32, 32, 64)        648       
_________________________________________________________________
activation_873 (Activation)  (None, 32, 32, 64)        0         
_________________________________________________________________
dropout_873 (Dropout)        (None, 32, 32, 64)        0         
_________________________________________________________________
max_pooling2d_196 (MaxPoolin (None, 16, 16, 64)        0         
_________________________________________________________________
separable_conv2d_802 (Separa (None, 16, 16, 8)         1096      
_________________________________________________________________
activation_874 (Activation)  (None, 16, 16, 8)         0         
_________________________________________________________________
dropout_874 (Dropout)        (None, 16, 16, 8)         0         
_________________________________________________________________
separable_conv2d_803 (Separa (None, 16, 16, 128)       1224      
_________________________________________________________________
batch_normalization_503 (Bat (None, 16, 16, 128)       512       
_________________________________________________________________
activation_875 (Activation)  (None, 16, 16, 128)       0         
_________________________________________________________________
dropout_875 (Dropout)        (None, 16, 16, 128)       0         
_________________________________________________________________
separable_conv2d_804 (Separa (None, 16, 16, 64)        9408      
_________________________________________________________________
batch_normalization_504 (Bat (None, 16, 16, 64)        256       
_________________________________________________________________
activation_876 (Activation)  (None, 16, 16, 64)        0         
_________________________________________________________________
dropout_876 (Dropout)        (None, 16, 16, 64)        0         
_________________________________________________________________
separable_conv2d_805 (Separa (None, 16, 16, 512)       33856     
_________________________________________________________________
batch_normalization_505 (Bat (None, 16, 16, 512)       2048      
_________________________________________________________________
activation_877 (Activation)  (None, 16, 16, 512)       0         
_________________________________________________________________
dropout_877 (Dropout)        (None, 16, 16, 512)       0         
_________________________________________________________________
max_pooling2d_197 (MaxPoolin (None, 8, 8, 512)         0         
_________________________________________________________________
separable_conv2d_806 (Separa (None, 8, 8, 32)          21024     
_________________________________________________________________
batch_normalization_506 (Bat (None, 8, 8, 32)          128       
_________________________________________________________________
activation_878 (Activation)  (None, 8, 8, 32)          0         
_________________________________________________________________
dropout_878 (Dropout)        (None, 8, 8, 32)          0         
_________________________________________________________________
max_pooling2d_198 (MaxPoolin (None, 4, 4, 32)          0         
_________________________________________________________________
separable_conv2d_807 (Separa (None, 4, 4, 128)         4512      
_________________________________________________________________
activation_879 (Activation)  (None, 4, 4, 128)         0         
_________________________________________________________________
dropout_879 (Dropout)        (None, 4, 4, 128)         0         
_________________________________________________________________
separable_conv2d_808 (Separa (None, 4, 4, 32)          5280      
_________________________________________________________________
batch_normalization_507 (Bat (None, 4, 4, 32)          128       
_________________________________________________________________
activation_880 (Activation)  (None, 4, 4, 32)          0         
_________________________________________________________________
dropout_880 (Dropout)        (None, 4, 4, 32)          0         
_________________________________________________________________
separable_conv2d_809 (Separa (None, 4, 4, 256)         8736      
_________________________________________________________________
batch_normalization_508 (Bat (None, 4, 4, 256)         1024      
_________________________________________________________________
activation_881 (Activation)  (None, 4, 4, 256)         0         
_________________________________________________________________
dropout_881 (Dropout)        (None, 4, 4, 256)         0         
_________________________________________________________________
flatten_69 (Flatten)         (None, 4096)              0         
_________________________________________________________________
dense_141 (Dense)            (None, 2048)              8390656   
_________________________________________________________________
batch_normalization_509 (Bat (None, 2048)              8192      
_________________________________________________________________
activation_882 (Activation)  (None, 2048)              0         
_________________________________________________________________
dropout_882 (Dropout)        (None, 2048)              0         
_________________________________________________________________
dense_142 (Dense)            (None, 100)               204900    
=================================================================
Total params: 8,707,903
Trainable params: 8,701,247
Non-trainable params: 6,656
_________________________________________________________________
