Model: "sequential_37"
_________________________________________________________________
Layer (type)                 Output Shape              Param #   
=================================================================
separable_conv2d_424 (Separa (None, 32, 32, 32)        155       
_________________________________________________________________
activation_464 (Activation)  (None, 32, 32, 32)        0         
_________________________________________________________________
dropout_464 (Dropout)        (None, 32, 32, 32)        0         
_________________________________________________________________
separable_conv2d_425 (Separa (None, 32, 32, 128)       4512      
_________________________________________________________________
batch_normalization_258 (Bat (None, 32, 32, 128)       512       
_________________________________________________________________
activation_465 (Activation)  (None, 32, 32, 128)       0         
_________________________________________________________________
dropout_465 (Dropout)        (None, 32, 32, 128)       0         
_________________________________________________________________
separable_conv2d_426 (Separa (None, 32, 32, 8)         2184      
_________________________________________________________________
activation_466 (Activation)  (None, 32, 32, 8)         0         
_________________________________________________________________
dropout_466 (Dropout)        (None, 32, 32, 8)         0         
_________________________________________________________________
separable_conv2d_427 (Separa (None, 32, 32, 64)        648       
_________________________________________________________________
activation_467 (Activation)  (None, 32, 32, 64)        0         
_________________________________________________________________
dropout_467 (Dropout)        (None, 32, 32, 64)        0         
_________________________________________________________________
max_pooling2d_100 (MaxPoolin (None, 16, 16, 64)        0         
_________________________________________________________________
separable_conv2d_428 (Separa (None, 16, 16, 8)         1096      
_________________________________________________________________
activation_468 (Activation)  (None, 16, 16, 8)         0         
_________________________________________________________________
dropout_468 (Dropout)        (None, 16, 16, 8)         0         
_________________________________________________________________
separable_conv2d_429 (Separa (None, 16, 16, 128)       1224      
_________________________________________________________________
batch_normalization_259 (Bat (None, 16, 16, 128)       512       
_________________________________________________________________
activation_469 (Activation)  (None, 16, 16, 128)       0         
_________________________________________________________________
dropout_469 (Dropout)        (None, 16, 16, 128)       0         
_________________________________________________________________
separable_conv2d_430 (Separa (None, 16, 16, 64)        9408      
_________________________________________________________________
batch_normalization_260 (Bat (None, 16, 16, 64)        256       
_________________________________________________________________
activation_470 (Activation)  (None, 16, 16, 64)        0         
_________________________________________________________________
dropout_470 (Dropout)        (None, 16, 16, 64)        0         
_________________________________________________________________
separable_conv2d_431 (Separa (None, 16, 16, 512)       33856     
_________________________________________________________________
batch_normalization_261 (Bat (None, 16, 16, 512)       2048      
_________________________________________________________________
activation_471 (Activation)  (None, 16, 16, 512)       0         
_________________________________________________________________
dropout_471 (Dropout)        (None, 16, 16, 512)       0         
_________________________________________________________________
max_pooling2d_101 (MaxPoolin (None, 8, 8, 512)         0         
_________________________________________________________________
separable_conv2d_432 (Separa (None, 8, 8, 32)          21024     
_________________________________________________________________
batch_normalization_262 (Bat (None, 8, 8, 32)          128       
_________________________________________________________________
activation_472 (Activation)  (None, 8, 8, 32)          0         
_________________________________________________________________
dropout_472 (Dropout)        (None, 8, 8, 32)          0         
_________________________________________________________________
max_pooling2d_102 (MaxPoolin (None, 4, 4, 32)          0         
_________________________________________________________________
separable_conv2d_433 (Separa (None, 4, 4, 128)         4512      
_________________________________________________________________
activation_473 (Activation)  (None, 4, 4, 128)         0         
_________________________________________________________________
dropout_473 (Dropout)        (None, 4, 4, 128)         0         
_________________________________________________________________
separable_conv2d_434 (Separa (None, 4, 4, 32)          5280      
_________________________________________________________________
batch_normalization_263 (Bat (None, 4, 4, 32)          128       
_________________________________________________________________
activation_474 (Activation)  (None, 4, 4, 32)          0         
_________________________________________________________________
dropout_474 (Dropout)        (None, 4, 4, 32)          0         
_________________________________________________________________
separable_conv2d_435 (Separa (None, 4, 4, 256)         8736      
_________________________________________________________________
batch_normalization_264 (Bat (None, 4, 4, 256)         1024      
_________________________________________________________________
activation_475 (Activation)  (None, 4, 4, 256)         0         
_________________________________________________________________
dropout_475 (Dropout)        (None, 4, 4, 256)         0         
_________________________________________________________________
flatten_37 (Flatten)         (None, 4096)              0         
_________________________________________________________________
dense_77 (Dense)             (None, 2048)              8390656   
_________________________________________________________________
batch_normalization_265 (Bat (None, 2048)              8192      
_________________________________________________________________
activation_476 (Activation)  (None, 2048)              0         
_________________________________________________________________
dropout_476 (Dropout)        (None, 2048)              0         
_________________________________________________________________
dense_78 (Dense)             (None, 100)               204900    
=================================================================
Total params: 8,700,991
Trainable params: 8,694,591
Non-trainable params: 6,400
_________________________________________________________________
