Model: "sequential_55"
_________________________________________________________________
Layer (type)                 Output Shape              Param #   
=================================================================
separable_conv2d_635 (Separa (None, 32, 32, 32)        155       
_________________________________________________________________
activation_693 (Activation)  (None, 32, 32, 32)        0         
_________________________________________________________________
dropout_693 (Dropout)        (None, 32, 32, 32)        0         
_________________________________________________________________
separable_conv2d_636 (Separa (None, 32, 32, 128)       4512      
_________________________________________________________________
batch_normalization_391 (Bat (None, 32, 32, 128)       512       
_________________________________________________________________
activation_694 (Activation)  (None, 32, 32, 128)       0         
_________________________________________________________________
dropout_694 (Dropout)        (None, 32, 32, 128)       0         
_________________________________________________________________
separable_conv2d_637 (Separa (None, 32, 32, 8)         2184      
_________________________________________________________________
activation_695 (Activation)  (None, 32, 32, 8)         0         
_________________________________________________________________
dropout_695 (Dropout)        (None, 32, 32, 8)         0         
_________________________________________________________________
separable_conv2d_638 (Separa (None, 32, 32, 64)        648       
_________________________________________________________________
activation_696 (Activation)  (None, 32, 32, 64)        0         
_________________________________________________________________
dropout_696 (Dropout)        (None, 32, 32, 64)        0         
_________________________________________________________________
max_pooling2d_154 (MaxPoolin (None, 16, 16, 64)        0         
_________________________________________________________________
separable_conv2d_639 (Separa (None, 16, 16, 8)         1096      
_________________________________________________________________
activation_697 (Activation)  (None, 16, 16, 8)         0         
_________________________________________________________________
dropout_697 (Dropout)        (None, 16, 16, 8)         0         
_________________________________________________________________
separable_conv2d_640 (Separa (None, 16, 16, 128)       1224      
_________________________________________________________________
batch_normalization_392 (Bat (None, 16, 16, 128)       512       
_________________________________________________________________
activation_698 (Activation)  (None, 16, 16, 128)       0         
_________________________________________________________________
dropout_698 (Dropout)        (None, 16, 16, 128)       0         
_________________________________________________________________
separable_conv2d_641 (Separa (None, 16, 16, 64)        9408      
_________________________________________________________________
batch_normalization_393 (Bat (None, 16, 16, 64)        256       
_________________________________________________________________
activation_699 (Activation)  (None, 16, 16, 64)        0         
_________________________________________________________________
dropout_699 (Dropout)        (None, 16, 16, 64)        0         
_________________________________________________________________
separable_conv2d_642 (Separa (None, 16, 16, 512)       33856     
_________________________________________________________________
batch_normalization_394 (Bat (None, 16, 16, 512)       2048      
_________________________________________________________________
activation_700 (Activation)  (None, 16, 16, 512)       0         
_________________________________________________________________
dropout_700 (Dropout)        (None, 16, 16, 512)       0         
_________________________________________________________________
max_pooling2d_155 (MaxPoolin (None, 8, 8, 512)         0         
_________________________________________________________________
separable_conv2d_643 (Separa (None, 8, 8, 32)          21024     
_________________________________________________________________
batch_normalization_395 (Bat (None, 8, 8, 32)          128       
_________________________________________________________________
activation_701 (Activation)  (None, 8, 8, 32)          0         
_________________________________________________________________
dropout_701 (Dropout)        (None, 8, 8, 32)          0         
_________________________________________________________________
max_pooling2d_156 (MaxPoolin (None, 4, 4, 32)          0         
_________________________________________________________________
separable_conv2d_644 (Separa (None, 4, 4, 128)         4512      
_________________________________________________________________
activation_702 (Activation)  (None, 4, 4, 128)         0         
_________________________________________________________________
dropout_702 (Dropout)        (None, 4, 4, 128)         0         
_________________________________________________________________
separable_conv2d_645 (Separa (None, 4, 4, 32)          5280      
_________________________________________________________________
batch_normalization_396 (Bat (None, 4, 4, 32)          128       
_________________________________________________________________
activation_703 (Activation)  (None, 4, 4, 32)          0         
_________________________________________________________________
dropout_703 (Dropout)        (None, 4, 4, 32)          0         
_________________________________________________________________
separable_conv2d_646 (Separa (None, 4, 4, 256)         8736      
_________________________________________________________________
batch_normalization_397 (Bat (None, 4, 4, 256)         1024      
_________________________________________________________________
activation_704 (Activation)  (None, 4, 4, 256)         0         
_________________________________________________________________
dropout_704 (Dropout)        (None, 4, 4, 256)         0         
_________________________________________________________________
flatten_55 (Flatten)         (None, 4096)              0         
_________________________________________________________________
dense_113 (Dense)            (None, 2048)              8390656   
_________________________________________________________________
batch_normalization_398 (Bat (None, 2048)              8192      
_________________________________________________________________
activation_705 (Activation)  (None, 2048)              0         
_________________________________________________________________
dropout_705 (Dropout)        (None, 2048)              0         
_________________________________________________________________
dense_114 (Dense)            (None, 100)               204900    
=================================================================
Total params: 8,700,991
Trainable params: 8,694,591
Non-trainable params: 6,400
_________________________________________________________________
