Model: "sequential_16"
_________________________________________________________________
Layer (type)                 Output Shape              Param #   
=================================================================
separable_conv2d_179 (Separa (None, 32, 32, 32)        155       
_________________________________________________________________
activation_198 (Activation)  (None, 32, 32, 32)        0         
_________________________________________________________________
dropout_198 (Dropout)        (None, 32, 32, 32)        0         
_________________________________________________________________
separable_conv2d_180 (Separa (None, 32, 32, 128)       4512      
_________________________________________________________________
batch_normalization_96 (Batc (None, 32, 32, 128)       512       
_________________________________________________________________
activation_199 (Activation)  (None, 32, 32, 128)       0         
_________________________________________________________________
dropout_199 (Dropout)        (None, 32, 32, 128)       0         
_________________________________________________________________
separable_conv2d_181 (Separa (None, 32, 32, 8)         2184      
_________________________________________________________________
activation_200 (Activation)  (None, 32, 32, 8)         0         
_________________________________________________________________
dropout_200 (Dropout)        (None, 32, 32, 8)         0         
_________________________________________________________________
separable_conv2d_182 (Separa (None, 32, 32, 64)        648       
_________________________________________________________________
activation_201 (Activation)  (None, 32, 32, 64)        0         
_________________________________________________________________
dropout_201 (Dropout)        (None, 32, 32, 64)        0         
_________________________________________________________________
max_pooling2d_37 (MaxPooling (None, 16, 16, 64)        0         
_________________________________________________________________
separable_conv2d_183 (Separa (None, 16, 16, 8)         1096      
_________________________________________________________________
activation_202 (Activation)  (None, 16, 16, 8)         0         
_________________________________________________________________
dropout_202 (Dropout)        (None, 16, 16, 8)         0         
_________________________________________________________________
separable_conv2d_184 (Separa (None, 16, 16, 128)       1224      
_________________________________________________________________
batch_normalization_97 (Batc (None, 16, 16, 128)       512       
_________________________________________________________________
activation_203 (Activation)  (None, 16, 16, 128)       0         
_________________________________________________________________
dropout_203 (Dropout)        (None, 16, 16, 128)       0         
_________________________________________________________________
separable_conv2d_185 (Separa (None, 16, 16, 64)        9408      
_________________________________________________________________
batch_normalization_98 (Batc (None, 16, 16, 64)        256       
_________________________________________________________________
activation_204 (Activation)  (None, 16, 16, 64)        0         
_________________________________________________________________
dropout_204 (Dropout)        (None, 16, 16, 64)        0         
_________________________________________________________________
separable_conv2d_186 (Separa (None, 16, 16, 512)       33856     
_________________________________________________________________
batch_normalization_99 (Batc (None, 16, 16, 512)       2048      
_________________________________________________________________
activation_205 (Activation)  (None, 16, 16, 512)       0         
_________________________________________________________________
dropout_205 (Dropout)        (None, 16, 16, 512)       0         
_________________________________________________________________
max_pooling2d_38 (MaxPooling (None, 8, 8, 512)         0         
_________________________________________________________________
separable_conv2d_187 (Separa (None, 8, 8, 32)          21024     
_________________________________________________________________
batch_normalization_100 (Bat (None, 8, 8, 32)          128       
_________________________________________________________________
activation_206 (Activation)  (None, 8, 8, 32)          0         
_________________________________________________________________
dropout_206 (Dropout)        (None, 8, 8, 32)          0         
_________________________________________________________________
max_pooling2d_39 (MaxPooling (None, 4, 4, 32)          0         
_________________________________________________________________
separable_conv2d_188 (Separa (None, 4, 4, 128)         4512      
_________________________________________________________________
activation_207 (Activation)  (None, 4, 4, 128)         0         
_________________________________________________________________
dropout_207 (Dropout)        (None, 4, 4, 128)         0         
_________________________________________________________________
separable_conv2d_189 (Separa (None, 4, 4, 32)          5280      
_________________________________________________________________
batch_normalization_101 (Bat (None, 4, 4, 32)          128       
_________________________________________________________________
activation_208 (Activation)  (None, 4, 4, 32)          0         
_________________________________________________________________
dropout_208 (Dropout)        (None, 4, 4, 32)          0         
_________________________________________________________________
separable_conv2d_190 (Separa (None, 4, 4, 256)         8736      
_________________________________________________________________
batch_normalization_102 (Bat (None, 4, 4, 256)         1024      
_________________________________________________________________
activation_209 (Activation)  (None, 4, 4, 256)         0         
_________________________________________________________________
dropout_209 (Dropout)        (None, 4, 4, 256)         0         
_________________________________________________________________
flatten_16 (Flatten)         (None, 4096)              0         
_________________________________________________________________
dense_35 (Dense)             (None, 2048)              8390656   
_________________________________________________________________
batch_normalization_103 (Bat (None, 2048)              8192      
_________________________________________________________________
activation_210 (Activation)  (None, 2048)              0         
_________________________________________________________________
dropout_210 (Dropout)        (None, 2048)              0         
_________________________________________________________________
dense_36 (Dense)             (None, 100)               204900    
=================================================================
Total params: 8,700,991
Trainable params: 8,694,591
Non-trainable params: 6,400
_________________________________________________________________
