Model: "sequential_136"
_________________________________________________________________
Layer (type)                 Output Shape              Param #   
=================================================================
separable_conv2d_1563 (Separ (None, 32, 32, 32)        155       
_________________________________________________________________
activation_1702 (Activation) (None, 32, 32, 32)        0         
_________________________________________________________________
dropout_1702 (Dropout)       (None, 32, 32, 32)        0         
_________________________________________________________________
separable_conv2d_1564 (Separ (None, 32, 32, 128)       4512      
_________________________________________________________________
batch_normalization_1013 (Ba (None, 32, 32, 128)       512       
_________________________________________________________________
activation_1703 (Activation) (None, 32, 32, 128)       0         
_________________________________________________________________
dropout_1703 (Dropout)       (None, 32, 32, 128)       0         
_________________________________________________________________
separable_conv2d_1565 (Separ (None, 32, 32, 8)         2184      
_________________________________________________________________
activation_1704 (Activation) (None, 32, 32, 8)         0         
_________________________________________________________________
dropout_1704 (Dropout)       (None, 32, 32, 8)         0         
_________________________________________________________________
separable_conv2d_1566 (Separ (None, 32, 32, 8)         144       
_________________________________________________________________
activation_1705 (Activation) (None, 32, 32, 8)         0         
_________________________________________________________________
dropout_1705 (Dropout)       (None, 32, 32, 8)         0         
_________________________________________________________________
max_pooling2d_397 (MaxPoolin (None, 16, 16, 8)         0         
_________________________________________________________________
separable_conv2d_1567 (Separ (None, 16, 16, 8)         144       
_________________________________________________________________
activation_1706 (Activation) (None, 16, 16, 8)         0         
_________________________________________________________________
dropout_1706 (Dropout)       (None, 16, 16, 8)         0         
_________________________________________________________________
separable_conv2d_1568 (Separ (None, 16, 16, 128)       1224      
_________________________________________________________________
batch_normalization_1014 (Ba (None, 16, 16, 128)       512       
_________________________________________________________________
activation_1707 (Activation) (None, 16, 16, 128)       0         
_________________________________________________________________
dropout_1707 (Dropout)       (None, 16, 16, 128)       0         
_________________________________________________________________
separable_conv2d_1569 (Separ (None, 16, 16, 64)        9408      
_________________________________________________________________
batch_normalization_1015 (Ba (None, 16, 16, 64)        256       
_________________________________________________________________
activation_1708 (Activation) (None, 16, 16, 64)        0         
_________________________________________________________________
dropout_1708 (Dropout)       (None, 16, 16, 64)        0         
_________________________________________________________________
separable_conv2d_1570 (Separ (None, 16, 16, 512)       33856     
_________________________________________________________________
batch_normalization_1016 (Ba (None, 16, 16, 512)       2048      
_________________________________________________________________
activation_1709 (Activation) (None, 16, 16, 512)       0         
_________________________________________________________________
dropout_1709 (Dropout)       (None, 16, 16, 512)       0         
_________________________________________________________________
max_pooling2d_398 (MaxPoolin (None, 8, 8, 512)         0         
_________________________________________________________________
separable_conv2d_1571 (Separ (None, 8, 8, 32)          21024     
_________________________________________________________________
batch_normalization_1017 (Ba (None, 8, 8, 32)          128       
_________________________________________________________________
activation_1710 (Activation) (None, 8, 8, 32)          0         
_________________________________________________________________
dropout_1710 (Dropout)       (None, 8, 8, 32)          0         
_________________________________________________________________
max_pooling2d_399 (MaxPoolin (None, 4, 4, 32)          0         
_________________________________________________________________
separable_conv2d_1572 (Separ (None, 4, 4, 128)         4512      
_________________________________________________________________
activation_1711 (Activation) (None, 4, 4, 128)         0         
_________________________________________________________________
dropout_1711 (Dropout)       (None, 4, 4, 128)         0         
_________________________________________________________________
separable_conv2d_1573 (Separ (None, 4, 4, 32)          5280      
_________________________________________________________________
batch_normalization_1018 (Ba (None, 4, 4, 32)          128       
_________________________________________________________________
activation_1712 (Activation) (None, 4, 4, 32)          0         
_________________________________________________________________
dropout_1712 (Dropout)       (None, 4, 4, 32)          0         
_________________________________________________________________
separable_conv2d_1574 (Separ (None, 4, 4, 256)         8736      
_________________________________________________________________
batch_normalization_1019 (Ba (None, 4, 4, 256)         1024      
_________________________________________________________________
activation_1713 (Activation) (None, 4, 4, 256)         0         
_________________________________________________________________
dropout_1713 (Dropout)       (None, 4, 4, 256)         0         
_________________________________________________________________
flatten_136 (Flatten)        (None, 4096)              0         
_________________________________________________________________
dense_275 (Dense)            (None, 2048)              8390656   
_________________________________________________________________
batch_normalization_1020 (Ba (None, 2048)              8192      
_________________________________________________________________
activation_1714 (Activation) (None, 2048)              0         
_________________________________________________________________
dropout_1714 (Dropout)       (None, 2048)              0         
_________________________________________________________________
dense_276 (Dense)            (None, 100)               204900    
=================================================================
Total params: 8,699,535
Trainable params: 8,693,135
Non-trainable params: 6,400
_________________________________________________________________
