Model: "sequential_215"
_________________________________________________________________
Layer (type)                 Output Shape              Param #   
=================================================================
separable_conv2d_2421 (Separ (None, 32, 32, 32)        155       
_________________________________________________________________
activation_2639 (Activation) (None, 32, 32, 32)        0         
_________________________________________________________________
dropout_2639 (Dropout)       (None, 32, 32, 32)        0         
_________________________________________________________________
separable_conv2d_2422 (Separ (None, 32, 32, 128)       4512      
_________________________________________________________________
batch_normalization_1553 (Ba (None, 32, 32, 128)       512       
_________________________________________________________________
activation_2640 (Activation) (None, 32, 32, 128)       0         
_________________________________________________________________
dropout_2640 (Dropout)       (None, 32, 32, 128)       0         
_________________________________________________________________
separable_conv2d_2423 (Separ (None, 32, 32, 8)         2184      
_________________________________________________________________
activation_2641 (Activation) (None, 32, 32, 8)         0         
_________________________________________________________________
dropout_2641 (Dropout)       (None, 32, 32, 8)         0         
_________________________________________________________________
separable_conv2d_2424 (Separ (None, 32, 32, 64)        648       
_________________________________________________________________
activation_2642 (Activation) (None, 32, 32, 64)        0         
_________________________________________________________________
dropout_2642 (Dropout)       (None, 32, 32, 64)        0         
_________________________________________________________________
max_pooling2d_630 (MaxPoolin (None, 16, 16, 64)        0         
_________________________________________________________________
separable_conv2d_2425 (Separ (None, 16, 16, 8)         1096      
_________________________________________________________________
activation_2643 (Activation) (None, 16, 16, 8)         0         
_________________________________________________________________
dropout_2643 (Dropout)       (None, 16, 16, 8)         0         
_________________________________________________________________
separable_conv2d_2426 (Separ (None, 16, 16, 128)       1224      
_________________________________________________________________
batch_normalization_1554 (Ba (None, 16, 16, 128)       512       
_________________________________________________________________
activation_2644 (Activation) (None, 16, 16, 128)       0         
_________________________________________________________________
dropout_2644 (Dropout)       (None, 16, 16, 128)       0         
_________________________________________________________________
separable_conv2d_2427 (Separ (None, 16, 16, 64)        9408      
_________________________________________________________________
batch_normalization_1555 (Ba (None, 16, 16, 64)        256       
_________________________________________________________________
activation_2645 (Activation) (None, 16, 16, 64)        0         
_________________________________________________________________
dropout_2645 (Dropout)       (None, 16, 16, 64)        0         
_________________________________________________________________
separable_conv2d_2428 (Separ (None, 16, 16, 512)       33856     
_________________________________________________________________
batch_normalization_1556 (Ba (None, 16, 16, 512)       2048      
_________________________________________________________________
activation_2646 (Activation) (None, 16, 16, 512)       0         
_________________________________________________________________
dropout_2646 (Dropout)       (None, 16, 16, 512)       0         
_________________________________________________________________
max_pooling2d_631 (MaxPoolin (None, 8, 8, 512)         0         
_________________________________________________________________
separable_conv2d_2429 (Separ (None, 8, 8, 128)         70272     
_________________________________________________________________
activation_2647 (Activation) (None, 8, 8, 128)         0         
_________________________________________________________________
dropout_2647 (Dropout)       (None, 8, 8, 128)         0         
_________________________________________________________________
separable_conv2d_2430 (Separ (None, 8, 8, 32)          5280      
_________________________________________________________________
batch_normalization_1557 (Ba (None, 8, 8, 32)          128       
_________________________________________________________________
activation_2648 (Activation) (None, 8, 8, 32)          0         
_________________________________________________________________
dropout_2648 (Dropout)       (None, 8, 8, 32)          0         
_________________________________________________________________
separable_conv2d_2431 (Separ (None, 8, 8, 256)         8736      
_________________________________________________________________
batch_normalization_1558 (Ba (None, 8, 8, 256)         1024      
_________________________________________________________________
activation_2649 (Activation) (None, 8, 8, 256)         0         
_________________________________________________________________
dropout_2649 (Dropout)       (None, 8, 8, 256)         0         
_________________________________________________________________
max_pooling2d_632 (MaxPoolin (None, 4, 4, 256)         0         
_________________________________________________________________
flatten_215 (Flatten)        (None, 4096)              0         
_________________________________________________________________
dense_433 (Dense)            (None, 2048)              8390656   
_________________________________________________________________
batch_normalization_1559 (Ba (None, 2048)              8192      
_________________________________________________________________
activation_2650 (Activation) (None, 2048)              0         
_________________________________________________________________
dropout_2650 (Dropout)       (None, 2048)              0         
_________________________________________________________________
dense_434 (Dense)            (None, 100)               204900    
=================================================================
Total params: 8,745,599
Trainable params: 8,739,263
Non-trainable params: 6,336
_________________________________________________________________
