Model: "sequential_72"
_________________________________________________________________
Layer (type)                 Output Shape              Param #   
=================================================================
separable_conv2d_834 (Separa (None, 32, 32, 32)        155       
_________________________________________________________________
activation_909 (Activation)  (None, 32, 32, 32)        0         
_________________________________________________________________
dropout_909 (Dropout)        (None, 32, 32, 32)        0         
_________________________________________________________________
separable_conv2d_835 (Separa (None, 32, 32, 128)       4512      
_________________________________________________________________
batch_normalization_526 (Bat (None, 32, 32, 128)       512       
_________________________________________________________________
activation_910 (Activation)  (None, 32, 32, 128)       0         
_________________________________________________________________
dropout_910 (Dropout)        (None, 32, 32, 128)       0         
_________________________________________________________________
separable_conv2d_836 (Separa (None, 32, 32, 8)         2184      
_________________________________________________________________
activation_911 (Activation)  (None, 32, 32, 8)         0         
_________________________________________________________________
dropout_911 (Dropout)        (None, 32, 32, 8)         0         
_________________________________________________________________
separable_conv2d_837 (Separa (None, 32, 32, 64)        648       
_________________________________________________________________
activation_912 (Activation)  (None, 32, 32, 64)        0         
_________________________________________________________________
dropout_912 (Dropout)        (None, 32, 32, 64)        0         
_________________________________________________________________
max_pooling2d_205 (MaxPoolin (None, 16, 16, 64)        0         
_________________________________________________________________
separable_conv2d_838 (Separa (None, 16, 16, 8)         1096      
_________________________________________________________________
activation_913 (Activation)  (None, 16, 16, 8)         0         
_________________________________________________________________
dropout_913 (Dropout)        (None, 16, 16, 8)         0         
_________________________________________________________________
separable_conv2d_839 (Separa (None, 16, 16, 128)       1224      
_________________________________________________________________
batch_normalization_527 (Bat (None, 16, 16, 128)       512       
_________________________________________________________________
activation_914 (Activation)  (None, 16, 16, 128)       0         
_________________________________________________________________
dropout_914 (Dropout)        (None, 16, 16, 128)       0         
_________________________________________________________________
separable_conv2d_840 (Separa (None, 16, 16, 64)        9408      
_________________________________________________________________
batch_normalization_528 (Bat (None, 16, 16, 64)        256       
_________________________________________________________________
activation_915 (Activation)  (None, 16, 16, 64)        0         
_________________________________________________________________
dropout_915 (Dropout)        (None, 16, 16, 64)        0         
_________________________________________________________________
separable_conv2d_841 (Separa (None, 16, 16, 512)       33856     
_________________________________________________________________
batch_normalization_529 (Bat (None, 16, 16, 512)       2048      
_________________________________________________________________
activation_916 (Activation)  (None, 16, 16, 512)       0         
_________________________________________________________________
dropout_916 (Dropout)        (None, 16, 16, 512)       0         
_________________________________________________________________
max_pooling2d_206 (MaxPoolin (None, 8, 8, 512)         0         
_________________________________________________________________
separable_conv2d_842 (Separa (None, 8, 8, 32)          21024     
_________________________________________________________________
batch_normalization_530 (Bat (None, 8, 8, 32)          128       
_________________________________________________________________
activation_917 (Activation)  (None, 8, 8, 32)          0         
_________________________________________________________________
dropout_917 (Dropout)        (None, 8, 8, 32)          0         
_________________________________________________________________
max_pooling2d_207 (MaxPoolin (None, 4, 4, 32)          0         
_________________________________________________________________
separable_conv2d_843 (Separa (None, 4, 4, 128)         4512      
_________________________________________________________________
activation_918 (Activation)  (None, 4, 4, 128)         0         
_________________________________________________________________
dropout_918 (Dropout)        (None, 4, 4, 128)         0         
_________________________________________________________________
separable_conv2d_844 (Separa (None, 4, 4, 32)          5280      
_________________________________________________________________
batch_normalization_531 (Bat (None, 4, 4, 32)          128       
_________________________________________________________________
activation_919 (Activation)  (None, 4, 4, 32)          0         
_________________________________________________________________
dropout_919 (Dropout)        (None, 4, 4, 32)          0         
_________________________________________________________________
separable_conv2d_845 (Separa (None, 4, 4, 256)         8736      
_________________________________________________________________
batch_normalization_532 (Bat (None, 4, 4, 256)         1024      
_________________________________________________________________
activation_920 (Activation)  (None, 4, 4, 256)         0         
_________________________________________________________________
dropout_920 (Dropout)        (None, 4, 4, 256)         0         
_________________________________________________________________
flatten_72 (Flatten)         (None, 4096)              0         
_________________________________________________________________
dense_147 (Dense)            (None, 2048)              8390656   
_________________________________________________________________
batch_normalization_533 (Bat (None, 2048)              8192      
_________________________________________________________________
activation_921 (Activation)  (None, 2048)              0         
_________________________________________________________________
dropout_921 (Dropout)        (None, 2048)              0         
_________________________________________________________________
dense_148 (Dense)            (None, 100)               204900    
=================================================================
Total params: 8,700,991
Trainable params: 8,694,591
Non-trainable params: 6,400
_________________________________________________________________
