Model: "sequential_244"
_________________________________________________________________
Layer (type)                 Output Shape              Param #   
=================================================================
separable_conv2d_2733 (Separ (None, 32, 32, 32)        155       
_________________________________________________________________
activation_2980 (Activation) (None, 32, 32, 32)        0         
_________________________________________________________________
dropout_2980 (Dropout)       (None, 32, 32, 32)        0         
_________________________________________________________________
separable_conv2d_2734 (Separ (None, 32, 32, 256)       8736      
_________________________________________________________________
batch_normalization_1745 (Ba (None, 32, 32, 256)       1024      
_________________________________________________________________
activation_2981 (Activation) (None, 32, 32, 256)       0         
_________________________________________________________________
dropout_2981 (Dropout)       (None, 32, 32, 256)       0         
_________________________________________________________________
separable_conv2d_2735 (Separ (None, 32, 32, 8)         4360      
_________________________________________________________________
activation_2982 (Activation) (None, 32, 32, 8)         0         
_________________________________________________________________
dropout_2982 (Dropout)       (None, 32, 32, 8)         0         
_________________________________________________________________
separable_conv2d_2736 (Separ (None, 32, 32, 64)        648       
_________________________________________________________________
activation_2983 (Activation) (None, 32, 32, 64)        0         
_________________________________________________________________
dropout_2983 (Dropout)       (None, 32, 32, 64)        0         
_________________________________________________________________
max_pooling2d_714 (MaxPoolin (None, 16, 16, 64)        0         
_________________________________________________________________
separable_conv2d_2737 (Separ (None, 16, 16, 16)        1616      
_________________________________________________________________
activation_2984 (Activation) (None, 16, 16, 16)        0         
_________________________________________________________________
dropout_2984 (Dropout)       (None, 16, 16, 16)        0         
_________________________________________________________________
separable_conv2d_2738 (Separ (None, 16, 16, 128)       2320      
_________________________________________________________________
batch_normalization_1746 (Ba (None, 16, 16, 128)       512       
_________________________________________________________________
activation_2985 (Activation) (None, 16, 16, 128)       0         
_________________________________________________________________
dropout_2985 (Dropout)       (None, 16, 16, 128)       0         
_________________________________________________________________
separable_conv2d_2739 (Separ (None, 16, 16, 64)        9408      
_________________________________________________________________
batch_normalization_1747 (Ba (None, 16, 16, 64)        256       
_________________________________________________________________
activation_2986 (Activation) (None, 16, 16, 64)        0         
_________________________________________________________________
dropout_2986 (Dropout)       (None, 16, 16, 64)        0         
_________________________________________________________________
separable_conv2d_2740 (Separ (None, 16, 16, 32)        2656      
_________________________________________________________________
batch_normalization_1748 (Ba (None, 16, 16, 32)        128       
_________________________________________________________________
activation_2987 (Activation) (None, 16, 16, 32)        0         
_________________________________________________________________
dropout_2987 (Dropout)       (None, 16, 16, 32)        0         
_________________________________________________________________
separable_conv2d_2741 (Separ (None, 16, 16, 512)       17184     
_________________________________________________________________
batch_normalization_1749 (Ba (None, 16, 16, 512)       2048      
_________________________________________________________________
activation_2988 (Activation) (None, 16, 16, 512)       0         
_________________________________________________________________
dropout_2988 (Dropout)       (None, 16, 16, 512)       0         
_________________________________________________________________
max_pooling2d_715 (MaxPoolin (None, 8, 8, 512)         0         
_________________________________________________________________
flatten_244 (Flatten)        (None, 32768)             0         
_________________________________________________________________
dense_491 (Dense)            (None, 2048)              67110912  
_________________________________________________________________
batch_normalization_1750 (Ba (None, 2048)              8192      
_________________________________________________________________
activation_2989 (Activation) (None, 2048)              0         
_________________________________________________________________
dropout_2989 (Dropout)       (None, 2048)              0         
_________________________________________________________________
dense_492 (Dense)            (None, 100)               204900    
=================================================================
Total params: 67,375,055
Trainable params: 67,368,975
Non-trainable params: 6,080
_________________________________________________________________
