Model: "sequential_198"
_________________________________________________________________
Layer (type)                 Output Shape              Param #   
=================================================================
separable_conv2d_2240 (Separ (None, 32, 32, 32)        155       
_________________________________________________________________
activation_2441 (Activation) (None, 32, 32, 32)        0         
_________________________________________________________________
dropout_2441 (Dropout)       (None, 32, 32, 32)        0         
_________________________________________________________________
separable_conv2d_2241 (Separ (None, 32, 32, 256)       8736      
_________________________________________________________________
batch_normalization_1443 (Ba (None, 32, 32, 256)       1024      
_________________________________________________________________
activation_2442 (Activation) (None, 32, 32, 256)       0         
_________________________________________________________________
dropout_2442 (Dropout)       (None, 32, 32, 256)       0         
_________________________________________________________________
separable_conv2d_2242 (Separ (None, 32, 32, 8)         4360      
_________________________________________________________________
activation_2443 (Activation) (None, 32, 32, 8)         0         
_________________________________________________________________
dropout_2443 (Dropout)       (None, 32, 32, 8)         0         
_________________________________________________________________
separable_conv2d_2243 (Separ (None, 32, 32, 256)       2376      
_________________________________________________________________
activation_2444 (Activation) (None, 32, 32, 256)       0         
_________________________________________________________________
dropout_2444 (Dropout)       (None, 32, 32, 256)       0         
_________________________________________________________________
max_pooling2d_581 (MaxPoolin (None, 16, 16, 256)       0         
_________________________________________________________________
separable_conv2d_2244 (Separ (None, 16, 16, 8)         4360      
_________________________________________________________________
activation_2445 (Activation) (None, 16, 16, 8)         0         
_________________________________________________________________
dropout_2445 (Dropout)       (None, 16, 16, 8)         0         
_________________________________________________________________
separable_conv2d_2245 (Separ (None, 16, 16, 128)       1224      
_________________________________________________________________
batch_normalization_1444 (Ba (None, 16, 16, 128)       512       
_________________________________________________________________
activation_2446 (Activation) (None, 16, 16, 128)       0         
_________________________________________________________________
dropout_2446 (Dropout)       (None, 16, 16, 128)       0         
_________________________________________________________________
separable_conv2d_2246 (Separ (None, 16, 16, 64)        9408      
_________________________________________________________________
batch_normalization_1445 (Ba (None, 16, 16, 64)        256       
_________________________________________________________________
activation_2447 (Activation) (None, 16, 16, 64)        0         
_________________________________________________________________
dropout_2447 (Dropout)       (None, 16, 16, 64)        0         
_________________________________________________________________
separable_conv2d_2247 (Separ (None, 16, 16, 512)       33856     
_________________________________________________________________
batch_normalization_1446 (Ba (None, 16, 16, 512)       2048      
_________________________________________________________________
activation_2448 (Activation) (None, 16, 16, 512)       0         
_________________________________________________________________
dropout_2448 (Dropout)       (None, 16, 16, 512)       0         
_________________________________________________________________
max_pooling2d_582 (MaxPoolin (None, 8, 8, 512)         0         
_________________________________________________________________
separable_conv2d_2248 (Separ (None, 8, 8, 128)         70272     
_________________________________________________________________
activation_2449 (Activation) (None, 8, 8, 128)         0         
_________________________________________________________________
dropout_2449 (Dropout)       (None, 8, 8, 128)         0         
_________________________________________________________________
separable_conv2d_2249 (Separ (None, 8, 8, 32)          5280      
_________________________________________________________________
activation_2450 (Activation) (None, 8, 8, 32)          0         
_________________________________________________________________
dropout_2450 (Dropout)       (None, 8, 8, 32)          0         
_________________________________________________________________
separable_conv2d_2250 (Separ (None, 8, 8, 256)         8736      
_________________________________________________________________
batch_normalization_1447 (Ba (None, 8, 8, 256)         1024      
_________________________________________________________________
activation_2451 (Activation) (None, 8, 8, 256)         0         
_________________________________________________________________
dropout_2451 (Dropout)       (None, 8, 8, 256)         0         
_________________________________________________________________
max_pooling2d_583 (MaxPoolin (None, 4, 4, 256)         0         
_________________________________________________________________
flatten_198 (Flatten)        (None, 4096)              0         
_________________________________________________________________
dense_399 (Dense)            (None, 2048)              8390656   
_________________________________________________________________
batch_normalization_1448 (Ba (None, 2048)              8192      
_________________________________________________________________
activation_2452 (Activation) (None, 2048)              0         
_________________________________________________________________
dropout_2452 (Dropout)       (None, 2048)              0         
_________________________________________________________________
dense_400 (Dense)            (None, 100)               204900    
=================================================================
Total params: 8,757,375
Trainable params: 8,750,847
Non-trainable params: 6,528
_________________________________________________________________
