Model: "sequential_299"
_________________________________________________________________
Layer (type)                 Output Shape              Param #   
=================================================================
separable_conv2d_3290 (Separ (None, 32, 32, 32)        155       
_________________________________________________________________
activation_3592 (Activation) (None, 32, 32, 32)        0         
_________________________________________________________________
dropout_3592 (Dropout)       (None, 32, 32, 32)        0         
_________________________________________________________________
separable_conv2d_3291 (Separ (None, 32, 32, 256)       8736      
_________________________________________________________________
batch_normalization_2095 (Ba (None, 32, 32, 256)       1024      
_________________________________________________________________
activation_3593 (Activation) (None, 32, 32, 256)       0         
_________________________________________________________________
dropout_3593 (Dropout)       (None, 32, 32, 256)       0         
_________________________________________________________________
separable_conv2d_3292 (Separ (None, 32, 32, 8)         4360      
_________________________________________________________________
activation_3594 (Activation) (None, 32, 32, 8)         0         
_________________________________________________________________
dropout_3594 (Dropout)       (None, 32, 32, 8)         0         
_________________________________________________________________
separable_conv2d_3293 (Separ (None, 32, 32, 64)        648       
_________________________________________________________________
activation_3595 (Activation) (None, 32, 32, 64)        0         
_________________________________________________________________
dropout_3595 (Dropout)       (None, 32, 32, 64)        0         
_________________________________________________________________
max_pooling2d_860 (MaxPoolin (None, 16, 16, 64)        0         
_________________________________________________________________
separable_conv2d_3294 (Separ (None, 16, 16, 16)        1616      
_________________________________________________________________
activation_3596 (Activation) (None, 16, 16, 16)        0         
_________________________________________________________________
dropout_3596 (Dropout)       (None, 16, 16, 16)        0         
_________________________________________________________________
separable_conv2d_3295 (Separ (None, 16, 16, 128)       2320      
_________________________________________________________________
batch_normalization_2096 (Ba (None, 16, 16, 128)       512       
_________________________________________________________________
activation_3597 (Activation) (None, 16, 16, 128)       0         
_________________________________________________________________
dropout_3597 (Dropout)       (None, 16, 16, 128)       0         
_________________________________________________________________
separable_conv2d_3296 (Separ (None, 16, 16, 64)        9408      
_________________________________________________________________
batch_normalization_2097 (Ba (None, 16, 16, 64)        256       
_________________________________________________________________
activation_3598 (Activation) (None, 16, 16, 64)        0         
_________________________________________________________________
dropout_3598 (Dropout)       (None, 16, 16, 64)        0         
_________________________________________________________________
separable_conv2d_3297 (Separ (None, 16, 16, 512)       33856     
_________________________________________________________________
batch_normalization_2098 (Ba (None, 16, 16, 512)       2048      
_________________________________________________________________
activation_3599 (Activation) (None, 16, 16, 512)       0         
_________________________________________________________________
dropout_3599 (Dropout)       (None, 16, 16, 512)       0         
_________________________________________________________________
max_pooling2d_861 (MaxPoolin (None, 8, 8, 512)         0         
_________________________________________________________________
separable_conv2d_3298 (Separ (None, 8, 8, 128)         70272     
_________________________________________________________________
activation_3600 (Activation) (None, 8, 8, 128)         0         
_________________________________________________________________
dropout_3600 (Dropout)       (None, 8, 8, 128)         0         
_________________________________________________________________
separable_conv2d_3299 (Separ (None, 8, 8, 32)          5280      
_________________________________________________________________
batch_normalization_2099 (Ba (None, 8, 8, 32)          128       
_________________________________________________________________
activation_3601 (Activation) (None, 8, 8, 32)          0         
_________________________________________________________________
dropout_3601 (Dropout)       (None, 8, 8, 32)          0         
_________________________________________________________________
separable_conv2d_3300 (Separ (None, 8, 8, 256)         8736      
_________________________________________________________________
batch_normalization_2100 (Ba (None, 8, 8, 256)         1024      
_________________________________________________________________
activation_3602 (Activation) (None, 8, 8, 256)         0         
_________________________________________________________________
dropout_3602 (Dropout)       (None, 8, 8, 256)         0         
_________________________________________________________________
max_pooling2d_862 (MaxPoolin (None, 4, 4, 256)         0         
_________________________________________________________________
flatten_299 (Flatten)        (None, 4096)              0         
_________________________________________________________________
dense_601 (Dense)            (None, 2048)              8390656   
_________________________________________________________________
batch_normalization_2101 (Ba (None, 2048)              8192      
_________________________________________________________________
activation_3603 (Activation) (None, 2048)              0         
_________________________________________________________________
dropout_3603 (Dropout)       (None, 2048)              0         
_________________________________________________________________
dense_602 (Dense)            (None, 100)               204900    
=================================================================
Total params: 8,754,127
Trainable params: 8,747,535
Non-trainable params: 6,592
_________________________________________________________________
