Model: "sequential_352"
_________________________________________________________________
Layer (type)                 Output Shape              Param #   
=================================================================
separable_conv2d_3797 (Separ (None, 32, 32, 32)        155       
_________________________________________________________________
activation_4152 (Activation) (None, 32, 32, 32)        0         
_________________________________________________________________
dropout_4152 (Dropout)       (None, 32, 32, 32)        0         
_________________________________________________________________
separable_conv2d_3798 (Separ (None, 32, 32, 256)       8736      
_________________________________________________________________
batch_normalization_2384 (Ba (None, 32, 32, 256)       1024      
_________________________________________________________________
activation_4153 (Activation) (None, 32, 32, 256)       0         
_________________________________________________________________
dropout_4153 (Dropout)       (None, 32, 32, 256)       0         
_________________________________________________________________
max_pooling2d_981 (MaxPoolin (None, 16, 16, 256)       0         
_________________________________________________________________
separable_conv2d_3799 (Separ (None, 16, 16, 8)         4360      
_________________________________________________________________
activation_4154 (Activation) (None, 16, 16, 8)         0         
_________________________________________________________________
dropout_4154 (Dropout)       (None, 16, 16, 8)         0         
_________________________________________________________________
separable_conv2d_3800 (Separ (None, 16, 16, 64)        648       
_________________________________________________________________
activation_4155 (Activation) (None, 16, 16, 64)        0         
_________________________________________________________________
dropout_4155 (Dropout)       (None, 16, 16, 64)        0         
_________________________________________________________________
max_pooling2d_982 (MaxPoolin (None, 8, 8, 64)          0         
_________________________________________________________________
separable_conv2d_3801 (Separ (None, 8, 8, 16)          1616      
_________________________________________________________________
activation_4156 (Activation) (None, 8, 8, 16)          0         
_________________________________________________________________
dropout_4156 (Dropout)       (None, 8, 8, 16)          0         
_________________________________________________________________
separable_conv2d_3802 (Separ (None, 8, 8, 128)         2320      
_________________________________________________________________
batch_normalization_2385 (Ba (None, 8, 8, 128)         512       
_________________________________________________________________
activation_4157 (Activation) (None, 8, 8, 128)         0         
_________________________________________________________________
dropout_4157 (Dropout)       (None, 8, 8, 128)         0         
_________________________________________________________________
separable_conv2d_3803 (Separ (None, 8, 8, 128)         17664     
_________________________________________________________________
batch_normalization_2386 (Ba (None, 8, 8, 128)         512       
_________________________________________________________________
activation_4158 (Activation) (None, 8, 8, 128)         0         
_________________________________________________________________
dropout_4158 (Dropout)       (None, 8, 8, 128)         0         
_________________________________________________________________
separable_conv2d_3804 (Separ (None, 8, 8, 32)          5280      
_________________________________________________________________
activation_4159 (Activation) (None, 8, 8, 32)          0         
_________________________________________________________________
dropout_4159 (Dropout)       (None, 8, 8, 32)          0         
_________________________________________________________________
separable_conv2d_3805 (Separ (None, 8, 8, 512)         17184     
_________________________________________________________________
batch_normalization_2387 (Ba (None, 8, 8, 512)         2048      
_________________________________________________________________
activation_4160 (Activation) (None, 8, 8, 512)         0         
_________________________________________________________________
dropout_4160 (Dropout)       (None, 8, 8, 512)         0         
_________________________________________________________________
max_pooling2d_983 (MaxPoolin (None, 4, 4, 512)         0         
_________________________________________________________________
flatten_352 (Flatten)        (None, 8192)              0         
_________________________________________________________________
dense_707 (Dense)            (None, 2048)              16779264  
_________________________________________________________________
batch_normalization_2388 (Ba (None, 2048)              8192      
_________________________________________________________________
activation_4161 (Activation) (None, 2048)              0         
_________________________________________________________________
dropout_4161 (Dropout)       (None, 2048)              0         
_________________________________________________________________
dense_708 (Dense)            (None, 100)               204900    
=================================================================
Total params: 17,054,415
Trainable params: 17,048,271
Non-trainable params: 6,144
_________________________________________________________________
