Model: "sequential_184"
_________________________________________________________________
Layer (type)                 Output Shape              Param #   
=================================================================
separable_conv2d_2089 (Separ (None, 32, 32, 32)        155       
_________________________________________________________________
activation_2276 (Activation) (None, 32, 32, 32)        0         
_________________________________________________________________
dropout_2276 (Dropout)       (None, 32, 32, 32)        0         
_________________________________________________________________
separable_conv2d_2090 (Separ (None, 32, 32, 256)       8736      
_________________________________________________________________
batch_normalization_1349 (Ba (None, 32, 32, 256)       1024      
_________________________________________________________________
activation_2277 (Activation) (None, 32, 32, 256)       0         
_________________________________________________________________
dropout_2277 (Dropout)       (None, 32, 32, 256)       0         
_________________________________________________________________
separable_conv2d_2091 (Separ (None, 32, 32, 8)         4360      
_________________________________________________________________
activation_2278 (Activation) (None, 32, 32, 8)         0         
_________________________________________________________________
dropout_2278 (Dropout)       (None, 32, 32, 8)         0         
_________________________________________________________________
separable_conv2d_2092 (Separ (None, 32, 32, 64)        648       
_________________________________________________________________
activation_2279 (Activation) (None, 32, 32, 64)        0         
_________________________________________________________________
dropout_2279 (Dropout)       (None, 32, 32, 64)        0         
_________________________________________________________________
max_pooling2d_540 (MaxPoolin (None, 16, 16, 64)        0         
_________________________________________________________________
separable_conv2d_2093 (Separ (None, 16, 16, 16)        1616      
_________________________________________________________________
activation_2280 (Activation) (None, 16, 16, 16)        0         
_________________________________________________________________
dropout_2280 (Dropout)       (None, 16, 16, 16)        0         
_________________________________________________________________
separable_conv2d_2094 (Separ (None, 16, 16, 256)       4496      
_________________________________________________________________
batch_normalization_1350 (Ba (None, 16, 16, 256)       1024      
_________________________________________________________________
activation_2281 (Activation) (None, 16, 16, 256)       0         
_________________________________________________________________
dropout_2281 (Dropout)       (None, 16, 16, 256)       0         
_________________________________________________________________
separable_conv2d_2095 (Separ (None, 16, 16, 64)        18752     
_________________________________________________________________
batch_normalization_1351 (Ba (None, 16, 16, 64)        256       
_________________________________________________________________
activation_2282 (Activation) (None, 16, 16, 64)        0         
_________________________________________________________________
dropout_2282 (Dropout)       (None, 16, 16, 64)        0         
_________________________________________________________________
separable_conv2d_2096 (Separ (None, 16, 16, 512)       33856     
_________________________________________________________________
batch_normalization_1352 (Ba (None, 16, 16, 512)       2048      
_________________________________________________________________
activation_2283 (Activation) (None, 16, 16, 512)       0         
_________________________________________________________________
dropout_2283 (Dropout)       (None, 16, 16, 512)       0         
_________________________________________________________________
max_pooling2d_541 (MaxPoolin (None, 8, 8, 512)         0         
_________________________________________________________________
separable_conv2d_2097 (Separ (None, 8, 8, 128)         70272     
_________________________________________________________________
activation_2284 (Activation) (None, 8, 8, 128)         0         
_________________________________________________________________
dropout_2284 (Dropout)       (None, 8, 8, 128)         0         
_________________________________________________________________
separable_conv2d_2098 (Separ (None, 8, 8, 32)          5280      
_________________________________________________________________
batch_normalization_1353 (Ba (None, 8, 8, 32)          128       
_________________________________________________________________
activation_2285 (Activation) (None, 8, 8, 32)          0         
_________________________________________________________________
dropout_2285 (Dropout)       (None, 8, 8, 32)          0         
_________________________________________________________________
separable_conv2d_2099 (Separ (None, 8, 8, 256)         8736      
_________________________________________________________________
batch_normalization_1354 (Ba (None, 8, 8, 256)         1024      
_________________________________________________________________
activation_2286 (Activation) (None, 8, 8, 256)         0         
_________________________________________________________________
dropout_2286 (Dropout)       (None, 8, 8, 256)         0         
_________________________________________________________________
max_pooling2d_542 (MaxPoolin (None, 4, 4, 256)         0         
_________________________________________________________________
flatten_184 (Flatten)        (None, 4096)              0         
_________________________________________________________________
dense_371 (Dense)            (None, 2048)              8390656   
_________________________________________________________________
batch_normalization_1355 (Ba (None, 2048)              8192      
_________________________________________________________________
activation_2287 (Activation) (None, 2048)              0         
_________________________________________________________________
dropout_2287 (Dropout)       (None, 2048)              0         
_________________________________________________________________
dense_372 (Dense)            (None, 100)               204900    
=================================================================
Total params: 8,766,159
Trainable params: 8,759,311
Non-trainable params: 6,848
_________________________________________________________________
