Model: "sequential_31"
_________________________________________________________________
Layer (type)                 Output Shape              Param #   
=================================================================
separable_conv2d_352 (Separa (None, 32, 32, 32)        155       
_________________________________________________________________
activation_386 (Activation)  (None, 32, 32, 32)        0         
_________________________________________________________________
dropout_386 (Dropout)        (None, 32, 32, 32)        0         
_________________________________________________________________
separable_conv2d_353 (Separa (None, 32, 32, 128)       4512      
_________________________________________________________________
batch_normalization_211 (Bat (None, 32, 32, 128)       512       
_________________________________________________________________
activation_387 (Activation)  (None, 32, 32, 128)       0         
_________________________________________________________________
dropout_387 (Dropout)        (None, 32, 32, 128)       0         
_________________________________________________________________
separable_conv2d_354 (Separa (None, 32, 32, 8)         2184      
_________________________________________________________________
activation_388 (Activation)  (None, 32, 32, 8)         0         
_________________________________________________________________
dropout_388 (Dropout)        (None, 32, 32, 8)         0         
_________________________________________________________________
separable_conv2d_355 (Separa (None, 32, 32, 64)        648       
_________________________________________________________________
activation_389 (Activation)  (None, 32, 32, 64)        0         
_________________________________________________________________
dropout_389 (Dropout)        (None, 32, 32, 64)        0         
_________________________________________________________________
max_pooling2d_82 (MaxPooling (None, 16, 16, 64)        0         
_________________________________________________________________
separable_conv2d_356 (Separa (None, 16, 16, 8)         1096      
_________________________________________________________________
activation_390 (Activation)  (None, 16, 16, 8)         0         
_________________________________________________________________
dropout_390 (Dropout)        (None, 16, 16, 8)         0         
_________________________________________________________________
separable_conv2d_357 (Separa (None, 16, 16, 128)       1224      
_________________________________________________________________
batch_normalization_212 (Bat (None, 16, 16, 128)       512       
_________________________________________________________________
activation_391 (Activation)  (None, 16, 16, 128)       0         
_________________________________________________________________
dropout_391 (Dropout)        (None, 16, 16, 128)       0         
_________________________________________________________________
separable_conv2d_358 (Separa (None, 16, 16, 64)        9408      
_________________________________________________________________
batch_normalization_213 (Bat (None, 16, 16, 64)        256       
_________________________________________________________________
activation_392 (Activation)  (None, 16, 16, 64)        0         
_________________________________________________________________
dropout_392 (Dropout)        (None, 16, 16, 64)        0         
_________________________________________________________________
separable_conv2d_359 (Separa (None, 16, 16, 512)       33856     
_________________________________________________________________
batch_normalization_214 (Bat (None, 16, 16, 512)       2048      
_________________________________________________________________
activation_393 (Activation)  (None, 16, 16, 512)       0         
_________________________________________________________________
dropout_393 (Dropout)        (None, 16, 16, 512)       0         
_________________________________________________________________
max_pooling2d_83 (MaxPooling (None, 8, 8, 512)         0         
_________________________________________________________________
separable_conv2d_360 (Separa (None, 8, 8, 32)          21024     
_________________________________________________________________
batch_normalization_215 (Bat (None, 8, 8, 32)          128       
_________________________________________________________________
activation_394 (Activation)  (None, 8, 8, 32)          0         
_________________________________________________________________
dropout_394 (Dropout)        (None, 8, 8, 32)          0         
_________________________________________________________________
max_pooling2d_84 (MaxPooling (None, 4, 4, 32)          0         
_________________________________________________________________
separable_conv2d_361 (Separa (None, 4, 4, 128)         4512      
_________________________________________________________________
activation_395 (Activation)  (None, 4, 4, 128)         0         
_________________________________________________________________
dropout_395 (Dropout)        (None, 4, 4, 128)         0         
_________________________________________________________________
separable_conv2d_362 (Separa (None, 4, 4, 32)          5280      
_________________________________________________________________
batch_normalization_216 (Bat (None, 4, 4, 32)          128       
_________________________________________________________________
activation_396 (Activation)  (None, 4, 4, 32)          0         
_________________________________________________________________
dropout_396 (Dropout)        (None, 4, 4, 32)          0         
_________________________________________________________________
separable_conv2d_363 (Separa (None, 4, 4, 256)         8736      
_________________________________________________________________
batch_normalization_217 (Bat (None, 4, 4, 256)         1024      
_________________________________________________________________
activation_397 (Activation)  (None, 4, 4, 256)         0         
_________________________________________________________________
dropout_397 (Dropout)        (None, 4, 4, 256)         0         
_________________________________________________________________
flatten_31 (Flatten)         (None, 4096)              0         
_________________________________________________________________
dense_65 (Dense)             (None, 2048)              8390656   
_________________________________________________________________
batch_normalization_218 (Bat (None, 2048)              8192      
_________________________________________________________________
activation_398 (Activation)  (None, 2048)              0         
_________________________________________________________________
dropout_398 (Dropout)        (None, 2048)              0         
_________________________________________________________________
dense_66 (Dense)             (None, 100)               204900    
=================================================================
Total params: 8,700,991
Trainable params: 8,694,591
Non-trainable params: 6,400
_________________________________________________________________
