Model: "sequential_363"
_________________________________________________________________
Layer (type)                 Output Shape              Param #   
=================================================================
separable_conv2d_3896 (Separ (None, 32, 32, 32)        155       
_________________________________________________________________
activation_4262 (Activation) (None, 32, 32, 32)        0         
_________________________________________________________________
dropout_4262 (Dropout)       (None, 32, 32, 32)        0         
_________________________________________________________________
separable_conv2d_3897 (Separ (None, 32, 32, 256)       8736      
_________________________________________________________________
batch_normalization_2441 (Ba (None, 32, 32, 256)       1024      
_________________________________________________________________
activation_4263 (Activation) (None, 32, 32, 256)       0         
_________________________________________________________________
dropout_4263 (Dropout)       (None, 32, 32, 256)       0         
_________________________________________________________________
separable_conv2d_3898 (Separ (None, 32, 32, 8)         4360      
_________________________________________________________________
activation_4264 (Activation) (None, 32, 32, 8)         0         
_________________________________________________________________
dropout_4264 (Dropout)       (None, 32, 32, 8)         0         
_________________________________________________________________
separable_conv2d_3899 (Separ (None, 32, 32, 64)        648       
_________________________________________________________________
activation_4265 (Activation) (None, 32, 32, 64)        0         
_________________________________________________________________
dropout_4265 (Dropout)       (None, 32, 32, 64)        0         
_________________________________________________________________
max_pooling2d_1006 (MaxPooli (None, 16, 16, 64)        0         
_________________________________________________________________
separable_conv2d_3900 (Separ (None, 16, 16, 16)        1616      
_________________________________________________________________
activation_4266 (Activation) (None, 16, 16, 16)        0         
_________________________________________________________________
dropout_4266 (Dropout)       (None, 16, 16, 16)        0         
_________________________________________________________________
separable_conv2d_3901 (Separ (None, 16, 16, 128)       2320      
_________________________________________________________________
batch_normalization_2442 (Ba (None, 16, 16, 128)       512       
_________________________________________________________________
activation_4267 (Activation) (None, 16, 16, 128)       0         
_________________________________________________________________
dropout_4267 (Dropout)       (None, 16, 16, 128)       0         
_________________________________________________________________
separable_conv2d_3902 (Separ (None, 16, 16, 64)        9408      
_________________________________________________________________
activation_4268 (Activation) (None, 16, 16, 64)        0         
_________________________________________________________________
dropout_4268 (Dropout)       (None, 16, 16, 64)        0         
_________________________________________________________________
separable_conv2d_3903 (Separ (None, 16, 16, 32)        2656      
_________________________________________________________________
activation_4269 (Activation) (None, 16, 16, 32)        0         
_________________________________________________________________
dropout_4269 (Dropout)       (None, 16, 16, 32)        0         
_________________________________________________________________
separable_conv2d_3904 (Separ (None, 16, 16, 256)       8736      
_________________________________________________________________
batch_normalization_2443 (Ba (None, 16, 16, 256)       1024      
_________________________________________________________________
activation_4270 (Activation) (None, 16, 16, 256)       0         
_________________________________________________________________
dropout_4270 (Dropout)       (None, 16, 16, 256)       0         
_________________________________________________________________
max_pooling2d_1007 (MaxPooli (None, 8, 8, 256)         0         
_________________________________________________________________
flatten_363 (Flatten)        (None, 16384)             0         
_________________________________________________________________
dense_729 (Dense)            (None, 2048)              33556480  
_________________________________________________________________
batch_normalization_2444 (Ba (None, 2048)              8192      
_________________________________________________________________
activation_4271 (Activation) (None, 2048)              0         
_________________________________________________________________
dropout_4271 (Dropout)       (None, 2048)              0         
_________________________________________________________________
dense_730 (Dense)            (None, 100)               204900    
=================================================================
Total params: 33,810,767
Trainable params: 33,805,391
Non-trainable params: 5,376
_________________________________________________________________
