Model: "sequential_240"
_________________________________________________________________
Layer (type)                 Output Shape              Param #   
=================================================================
separable_conv2d_2689 (Separ (None, 32, 32, 32)        155       
_________________________________________________________________
activation_2932 (Activation) (None, 32, 32, 32)        0         
_________________________________________________________________
dropout_2932 (Dropout)       (None, 32, 32, 32)        0         
_________________________________________________________________
separable_conv2d_2690 (Separ (None, 32, 32, 256)       8736      
_________________________________________________________________
batch_normalization_1718 (Ba (None, 32, 32, 256)       1024      
_________________________________________________________________
activation_2933 (Activation) (None, 32, 32, 256)       0         
_________________________________________________________________
dropout_2933 (Dropout)       (None, 32, 32, 256)       0         
_________________________________________________________________
separable_conv2d_2691 (Separ (None, 32, 32, 8)         4360      
_________________________________________________________________
activation_2934 (Activation) (None, 32, 32, 8)         0         
_________________________________________________________________
dropout_2934 (Dropout)       (None, 32, 32, 8)         0         
_________________________________________________________________
separable_conv2d_2692 (Separ (None, 32, 32, 64)        648       
_________________________________________________________________
activation_2935 (Activation) (None, 32, 32, 64)        0         
_________________________________________________________________
dropout_2935 (Dropout)       (None, 32, 32, 64)        0         
_________________________________________________________________
max_pooling2d_702 (MaxPoolin (None, 16, 16, 64)        0         
_________________________________________________________________
separable_conv2d_2693 (Separ (None, 16, 16, 16)        1616      
_________________________________________________________________
activation_2936 (Activation) (None, 16, 16, 16)        0         
_________________________________________________________________
dropout_2936 (Dropout)       (None, 16, 16, 16)        0         
_________________________________________________________________
separable_conv2d_2694 (Separ (None, 16, 16, 128)       2320      
_________________________________________________________________
batch_normalization_1719 (Ba (None, 16, 16, 128)       512       
_________________________________________________________________
activation_2937 (Activation) (None, 16, 16, 128)       0         
_________________________________________________________________
dropout_2937 (Dropout)       (None, 16, 16, 128)       0         
_________________________________________________________________
separable_conv2d_2695 (Separ (None, 16, 16, 64)        9408      
_________________________________________________________________
batch_normalization_1720 (Ba (None, 16, 16, 64)        256       
_________________________________________________________________
activation_2938 (Activation) (None, 16, 16, 64)        0         
_________________________________________________________________
dropout_2938 (Dropout)       (None, 16, 16, 64)        0         
_________________________________________________________________
separable_conv2d_2696 (Separ (None, 16, 16, 512)       33856     
_________________________________________________________________
batch_normalization_1721 (Ba (None, 16, 16, 512)       2048      
_________________________________________________________________
activation_2939 (Activation) (None, 16, 16, 512)       0         
_________________________________________________________________
dropout_2939 (Dropout)       (None, 16, 16, 512)       0         
_________________________________________________________________
max_pooling2d_703 (MaxPoolin (None, 8, 8, 512)         0         
_________________________________________________________________
separable_conv2d_2697 (Separ (None, 8, 8, 128)         70272     
_________________________________________________________________
activation_2940 (Activation) (None, 8, 8, 128)         0         
_________________________________________________________________
dropout_2940 (Dropout)       (None, 8, 8, 128)         0         
_________________________________________________________________
separable_conv2d_2698 (Separ (None, 8, 8, 32)          5280      
_________________________________________________________________
batch_normalization_1722 (Ba (None, 8, 8, 32)          128       
_________________________________________________________________
activation_2941 (Activation) (None, 8, 8, 32)          0         
_________________________________________________________________
dropout_2941 (Dropout)       (None, 8, 8, 32)          0         
_________________________________________________________________
separable_conv2d_2699 (Separ (None, 8, 8, 256)         8736      
_________________________________________________________________
batch_normalization_1723 (Ba (None, 8, 8, 256)         1024      
_________________________________________________________________
activation_2942 (Activation) (None, 8, 8, 256)         0         
_________________________________________________________________
dropout_2942 (Dropout)       (None, 8, 8, 256)         0         
_________________________________________________________________
max_pooling2d_704 (MaxPoolin (None, 4, 4, 256)         0         
_________________________________________________________________
flatten_240 (Flatten)        (None, 4096)              0         
_________________________________________________________________
dense_483 (Dense)            (None, 2048)              8390656   
_________________________________________________________________
batch_normalization_1724 (Ba (None, 2048)              8192      
_________________________________________________________________
activation_2943 (Activation) (None, 2048)              0         
_________________________________________________________________
dropout_2943 (Dropout)       (None, 2048)              0         
_________________________________________________________________
dense_484 (Dense)            (None, 100)               204900    
=================================================================
Total params: 8,754,127
Trainable params: 8,747,535
Non-trainable params: 6,592
_________________________________________________________________
