Model: "sequential_56"
_________________________________________________________________
Layer (type)                 Output Shape              Param #   
=================================================================
separable_conv2d_647 (Separa (None, 32, 32, 32)        155       
_________________________________________________________________
activation_706 (Activation)  (None, 32, 32, 32)        0         
_________________________________________________________________
dropout_706 (Dropout)        (None, 32, 32, 32)        0         
_________________________________________________________________
separable_conv2d_648 (Separa (None, 32, 32, 128)       4512      
_________________________________________________________________
batch_normalization_399 (Bat (None, 32, 32, 128)       512       
_________________________________________________________________
activation_707 (Activation)  (None, 32, 32, 128)       0         
_________________________________________________________________
dropout_707 (Dropout)        (None, 32, 32, 128)       0         
_________________________________________________________________
separable_conv2d_649 (Separa (None, 32, 32, 8)         2184      
_________________________________________________________________
activation_708 (Activation)  (None, 32, 32, 8)         0         
_________________________________________________________________
dropout_708 (Dropout)        (None, 32, 32, 8)         0         
_________________________________________________________________
separable_conv2d_650 (Separa (None, 32, 32, 64)        648       
_________________________________________________________________
activation_709 (Activation)  (None, 32, 32, 64)        0         
_________________________________________________________________
dropout_709 (Dropout)        (None, 32, 32, 64)        0         
_________________________________________________________________
max_pooling2d_157 (MaxPoolin (None, 16, 16, 64)        0         
_________________________________________________________________
separable_conv2d_651 (Separa (None, 16, 16, 8)         1096      
_________________________________________________________________
activation_710 (Activation)  (None, 16, 16, 8)         0         
_________________________________________________________________
dropout_710 (Dropout)        (None, 16, 16, 8)         0         
_________________________________________________________________
separable_conv2d_652 (Separa (None, 16, 16, 128)       1224      
_________________________________________________________________
batch_normalization_400 (Bat (None, 16, 16, 128)       512       
_________________________________________________________________
activation_711 (Activation)  (None, 16, 16, 128)       0         
_________________________________________________________________
dropout_711 (Dropout)        (None, 16, 16, 128)       0         
_________________________________________________________________
separable_conv2d_653 (Separa (None, 16, 16, 64)        9408      
_________________________________________________________________
batch_normalization_401 (Bat (None, 16, 16, 64)        256       
_________________________________________________________________
activation_712 (Activation)  (None, 16, 16, 64)        0         
_________________________________________________________________
dropout_712 (Dropout)        (None, 16, 16, 64)        0         
_________________________________________________________________
separable_conv2d_654 (Separa (None, 16, 16, 512)       33856     
_________________________________________________________________
batch_normalization_402 (Bat (None, 16, 16, 512)       2048      
_________________________________________________________________
activation_713 (Activation)  (None, 16, 16, 512)       0         
_________________________________________________________________
dropout_713 (Dropout)        (None, 16, 16, 512)       0         
_________________________________________________________________
max_pooling2d_158 (MaxPoolin (None, 8, 8, 512)         0         
_________________________________________________________________
separable_conv2d_655 (Separa (None, 8, 8, 32)          21024     
_________________________________________________________________
batch_normalization_403 (Bat (None, 8, 8, 32)          128       
_________________________________________________________________
activation_714 (Activation)  (None, 8, 8, 32)          0         
_________________________________________________________________
dropout_714 (Dropout)        (None, 8, 8, 32)          0         
_________________________________________________________________
max_pooling2d_159 (MaxPoolin (None, 4, 4, 32)          0         
_________________________________________________________________
separable_conv2d_656 (Separa (None, 4, 4, 128)         4512      
_________________________________________________________________
activation_715 (Activation)  (None, 4, 4, 128)         0         
_________________________________________________________________
dropout_715 (Dropout)        (None, 4, 4, 128)         0         
_________________________________________________________________
separable_conv2d_657 (Separa (None, 4, 4, 32)          5280      
_________________________________________________________________
batch_normalization_404 (Bat (None, 4, 4, 32)          128       
_________________________________________________________________
activation_716 (Activation)  (None, 4, 4, 32)          0         
_________________________________________________________________
dropout_716 (Dropout)        (None, 4, 4, 32)          0         
_________________________________________________________________
separable_conv2d_658 (Separa (None, 4, 4, 256)         8736      
_________________________________________________________________
batch_normalization_405 (Bat (None, 4, 4, 256)         1024      
_________________________________________________________________
activation_717 (Activation)  (None, 4, 4, 256)         0         
_________________________________________________________________
dropout_717 (Dropout)        (None, 4, 4, 256)         0         
_________________________________________________________________
flatten_56 (Flatten)         (None, 4096)              0         
_________________________________________________________________
dense_115 (Dense)            (None, 2048)              8390656   
_________________________________________________________________
batch_normalization_406 (Bat (None, 2048)              8192      
_________________________________________________________________
activation_718 (Activation)  (None, 2048)              0         
_________________________________________________________________
dropout_718 (Dropout)        (None, 2048)              0         
_________________________________________________________________
dense_116 (Dense)            (None, 100)               204900    
=================================================================
Total params: 8,700,991
Trainable params: 8,694,591
Non-trainable params: 6,400
_________________________________________________________________
