Model: "sequential_163"
_________________________________________________________________
Layer (type)                 Output Shape              Param #   
=================================================================
separable_conv2d_1862 (Separ (None, 32, 32, 32)        155       
_________________________________________________________________
activation_2028 (Activation) (None, 32, 32, 32)        0         
_________________________________________________________________
dropout_2028 (Dropout)       (None, 32, 32, 32)        0         
_________________________________________________________________
separable_conv2d_1863 (Separ (None, 32, 32, 256)       8736      
_________________________________________________________________
batch_normalization_1208 (Ba (None, 32, 32, 256)       1024      
_________________________________________________________________
activation_2029 (Activation) (None, 32, 32, 256)       0         
_________________________________________________________________
dropout_2029 (Dropout)       (None, 32, 32, 256)       0         
_________________________________________________________________
separable_conv2d_1864 (Separ (None, 32, 32, 8)         4360      
_________________________________________________________________
activation_2030 (Activation) (None, 32, 32, 8)         0         
_________________________________________________________________
dropout_2030 (Dropout)       (None, 32, 32, 8)         0         
_________________________________________________________________
separable_conv2d_1865 (Separ (None, 32, 32, 64)        648       
_________________________________________________________________
activation_2031 (Activation) (None, 32, 32, 64)        0         
_________________________________________________________________
dropout_2031 (Dropout)       (None, 32, 32, 64)        0         
_________________________________________________________________
max_pooling2d_478 (MaxPoolin (None, 16, 16, 64)        0         
_________________________________________________________________
separable_conv2d_1866 (Separ (None, 16, 16, 16)        1616      
_________________________________________________________________
activation_2032 (Activation) (None, 16, 16, 16)        0         
_________________________________________________________________
dropout_2032 (Dropout)       (None, 16, 16, 16)        0         
_________________________________________________________________
separable_conv2d_1867 (Separ (None, 16, 16, 64)        1232      
_________________________________________________________________
batch_normalization_1209 (Ba (None, 16, 16, 64)        256       
_________________________________________________________________
activation_2033 (Activation) (None, 16, 16, 64)        0         
_________________________________________________________________
dropout_2033 (Dropout)       (None, 16, 16, 64)        0         
_________________________________________________________________
separable_conv2d_1868 (Separ (None, 16, 16, 512)       33856     
_________________________________________________________________
batch_normalization_1210 (Ba (None, 16, 16, 512)       2048      
_________________________________________________________________
activation_2034 (Activation) (None, 16, 16, 512)       0         
_________________________________________________________________
dropout_2034 (Dropout)       (None, 16, 16, 512)       0         
_________________________________________________________________
max_pooling2d_479 (MaxPoolin (None, 8, 8, 512)         0         
_________________________________________________________________
separable_conv2d_1869 (Separ (None, 8, 8, 128)         70272     
_________________________________________________________________
batch_normalization_1211 (Ba (None, 8, 8, 128)         512       
_________________________________________________________________
activation_2035 (Activation) (None, 8, 8, 128)         0         
_________________________________________________________________
dropout_2035 (Dropout)       (None, 8, 8, 128)         0         
_________________________________________________________________
separable_conv2d_1870 (Separ (None, 8, 8, 32)          5280      
_________________________________________________________________
batch_normalization_1212 (Ba (None, 8, 8, 32)          128       
_________________________________________________________________
activation_2036 (Activation) (None, 8, 8, 32)          0         
_________________________________________________________________
dropout_2036 (Dropout)       (None, 8, 8, 32)          0         
_________________________________________________________________
separable_conv2d_1871 (Separ (None, 8, 8, 256)         8736      
_________________________________________________________________
batch_normalization_1213 (Ba (None, 8, 8, 256)         1024      
_________________________________________________________________
activation_2037 (Activation) (None, 8, 8, 256)         0         
_________________________________________________________________
dropout_2037 (Dropout)       (None, 8, 8, 256)         0         
_________________________________________________________________
max_pooling2d_480 (MaxPoolin (None, 4, 4, 256)         0         
_________________________________________________________________
flatten_163 (Flatten)        (None, 4096)              0         
_________________________________________________________________
dense_329 (Dense)            (None, 2048)              8390656   
_________________________________________________________________
batch_normalization_1214 (Ba (None, 2048)              8192      
_________________________________________________________________
activation_2038 (Activation) (None, 2048)              0         
_________________________________________________________________
dropout_2038 (Dropout)       (None, 2048)              0         
_________________________________________________________________
dense_330 (Dense)            (None, 100)               204900    
=================================================================
Total params: 8,743,631
Trainable params: 8,737,039
Non-trainable params: 6,592
_________________________________________________________________
