Model: "sequential_343"
_________________________________________________________________
Layer (type)                 Output Shape              Param #   
=================================================================
separable_conv2d_3712 (Separ (None, 32, 32, 32)        155       
_________________________________________________________________
activation_4058 (Activation) (None, 32, 32, 32)        0         
_________________________________________________________________
dropout_4058 (Dropout)       (None, 32, 32, 32)        0         
_________________________________________________________________
separable_conv2d_3713 (Separ (None, 32, 32, 256)       8736      
_________________________________________________________________
batch_normalization_2334 (Ba (None, 32, 32, 256)       1024      
_________________________________________________________________
activation_4059 (Activation) (None, 32, 32, 256)       0         
_________________________________________________________________
dropout_4059 (Dropout)       (None, 32, 32, 256)       0         
_________________________________________________________________
separable_conv2d_3714 (Separ (None, 32, 32, 8)         4360      
_________________________________________________________________
activation_4060 (Activation) (None, 32, 32, 8)         0         
_________________________________________________________________
dropout_4060 (Dropout)       (None, 32, 32, 8)         0         
_________________________________________________________________
separable_conv2d_3715 (Separ (None, 32, 32, 64)        648       
_________________________________________________________________
activation_4061 (Activation) (None, 32, 32, 64)        0         
_________________________________________________________________
dropout_4061 (Dropout)       (None, 32, 32, 64)        0         
_________________________________________________________________
max_pooling2d_961 (MaxPoolin (None, 16, 16, 64)        0         
_________________________________________________________________
separable_conv2d_3716 (Separ (None, 16, 16, 16)        1616      
_________________________________________________________________
activation_4062 (Activation) (None, 16, 16, 16)        0         
_________________________________________________________________
dropout_4062 (Dropout)       (None, 16, 16, 16)        0         
_________________________________________________________________
separable_conv2d_3717 (Separ (None, 16, 16, 128)       2320      
_________________________________________________________________
batch_normalization_2335 (Ba (None, 16, 16, 128)       512       
_________________________________________________________________
activation_4063 (Activation) (None, 16, 16, 128)       0         
_________________________________________________________________
dropout_4063 (Dropout)       (None, 16, 16, 128)       0         
_________________________________________________________________
separable_conv2d_3718 (Separ (None, 16, 16, 64)        9408      
_________________________________________________________________
batch_normalization_2336 (Ba (None, 16, 16, 64)        256       
_________________________________________________________________
activation_4064 (Activation) (None, 16, 16, 64)        0         
_________________________________________________________________
dropout_4064 (Dropout)       (None, 16, 16, 64)        0         
_________________________________________________________________
separable_conv2d_3719 (Separ (None, 16, 16, 32)        2656      
_________________________________________________________________
activation_4065 (Activation) (None, 16, 16, 32)        0         
_________________________________________________________________
dropout_4065 (Dropout)       (None, 16, 16, 32)        0         
_________________________________________________________________
separable_conv2d_3720 (Separ (None, 16, 16, 512)       17184     
_________________________________________________________________
batch_normalization_2337 (Ba (None, 16, 16, 512)       2048      
_________________________________________________________________
activation_4066 (Activation) (None, 16, 16, 512)       0         
_________________________________________________________________
dropout_4066 (Dropout)       (None, 16, 16, 512)       0         
_________________________________________________________________
max_pooling2d_962 (MaxPoolin (None, 8, 8, 512)         0         
_________________________________________________________________
flatten_343 (Flatten)        (None, 32768)             0         
_________________________________________________________________
dense_689 (Dense)            (None, 2048)              67110912  
_________________________________________________________________
batch_normalization_2338 (Ba (None, 2048)              8192      
_________________________________________________________________
activation_4067 (Activation) (None, 2048)              0         
_________________________________________________________________
dropout_4067 (Dropout)       (None, 2048)              0         
_________________________________________________________________
dense_690 (Dense)            (None, 100)               204900    
=================================================================
Total params: 67,374,927
Trainable params: 67,368,911
Non-trainable params: 6,016
_________________________________________________________________
