Model: "sequential_359"
_________________________________________________________________
Layer (type)                 Output Shape              Param #   
=================================================================
separable_conv2d_3861 (Separ (None, 32, 32, 32)        155       
_________________________________________________________________
activation_4223 (Activation) (None, 32, 32, 32)        0         
_________________________________________________________________
dropout_4223 (Dropout)       (None, 32, 32, 32)        0         
_________________________________________________________________
separable_conv2d_3862 (Separ (None, 32, 32, 256)       8736      
_________________________________________________________________
batch_normalization_2420 (Ba (None, 32, 32, 256)       1024      
_________________________________________________________________
activation_4224 (Activation) (None, 32, 32, 256)       0         
_________________________________________________________________
dropout_4224 (Dropout)       (None, 32, 32, 256)       0         
_________________________________________________________________
separable_conv2d_3863 (Separ (None, 32, 32, 8)         4360      
_________________________________________________________________
batch_normalization_2421 (Ba (None, 32, 32, 8)         32        
_________________________________________________________________
activation_4225 (Activation) (None, 32, 32, 8)         0         
_________________________________________________________________
dropout_4225 (Dropout)       (None, 32, 32, 8)         0         
_________________________________________________________________
separable_conv2d_3864 (Separ (None, 32, 32, 64)        648       
_________________________________________________________________
activation_4226 (Activation) (None, 32, 32, 64)        0         
_________________________________________________________________
dropout_4226 (Dropout)       (None, 32, 32, 64)        0         
_________________________________________________________________
max_pooling2d_998 (MaxPoolin (None, 16, 16, 64)        0         
_________________________________________________________________
separable_conv2d_3865 (Separ (None, 16, 16, 16)        1616      
_________________________________________________________________
activation_4227 (Activation) (None, 16, 16, 16)        0         
_________________________________________________________________
dropout_4227 (Dropout)       (None, 16, 16, 16)        0         
_________________________________________________________________
separable_conv2d_3866 (Separ (None, 16, 16, 128)       2320      
_________________________________________________________________
batch_normalization_2422 (Ba (None, 16, 16, 128)       512       
_________________________________________________________________
activation_4228 (Activation) (None, 16, 16, 128)       0         
_________________________________________________________________
dropout_4228 (Dropout)       (None, 16, 16, 128)       0         
_________________________________________________________________
separable_conv2d_3867 (Separ (None, 16, 16, 64)        9408      
_________________________________________________________________
batch_normalization_2423 (Ba (None, 16, 16, 64)        256       
_________________________________________________________________
activation_4229 (Activation) (None, 16, 16, 64)        0         
_________________________________________________________________
dropout_4229 (Dropout)       (None, 16, 16, 64)        0         
_________________________________________________________________
separable_conv2d_3868 (Separ (None, 16, 16, 32)        2656      
_________________________________________________________________
activation_4230 (Activation) (None, 16, 16, 32)        0         
_________________________________________________________________
dropout_4230 (Dropout)       (None, 16, 16, 32)        0         
_________________________________________________________________
separable_conv2d_3869 (Separ (None, 16, 16, 256)       8736      
_________________________________________________________________
batch_normalization_2424 (Ba (None, 16, 16, 256)       1024      
_________________________________________________________________
activation_4231 (Activation) (None, 16, 16, 256)       0         
_________________________________________________________________
dropout_4231 (Dropout)       (None, 16, 16, 256)       0         
_________________________________________________________________
max_pooling2d_999 (MaxPoolin (None, 8, 8, 256)         0         
_________________________________________________________________
flatten_359 (Flatten)        (None, 16384)             0         
_________________________________________________________________
dense_721 (Dense)            (None, 2048)              33556480  
_________________________________________________________________
batch_normalization_2425 (Ba (None, 2048)              8192      
_________________________________________________________________
activation_4232 (Activation) (None, 2048)              0         
_________________________________________________________________
dropout_4232 (Dropout)       (None, 2048)              0         
_________________________________________________________________
dense_722 (Dense)            (None, 100)               204900    
=================================================================
Total params: 33,811,055
Trainable params: 33,805,535
Non-trainable params: 5,520
_________________________________________________________________
