Model: "sequential_264"
_________________________________________________________________
Layer (type)                 Output Shape              Param #   
=================================================================
separable_conv2d_2939 (Separ (None, 32, 32, 32)        155       
_________________________________________________________________
activation_3206 (Activation) (None, 32, 32, 32)        0         
_________________________________________________________________
dropout_3206 (Dropout)       (None, 32, 32, 32)        0         
_________________________________________________________________
separable_conv2d_2940 (Separ (None, 32, 32, 256)       8736      
_________________________________________________________________
batch_normalization_1876 (Ba (None, 32, 32, 256)       1024      
_________________________________________________________________
activation_3207 (Activation) (None, 32, 32, 256)       0         
_________________________________________________________________
dropout_3207 (Dropout)       (None, 32, 32, 256)       0         
_________________________________________________________________
separable_conv2d_2941 (Separ (None, 32, 32, 8)         4360      
_________________________________________________________________
activation_3208 (Activation) (None, 32, 32, 8)         0         
_________________________________________________________________
dropout_3208 (Dropout)       (None, 32, 32, 8)         0         
_________________________________________________________________
separable_conv2d_2942 (Separ (None, 32, 32, 256)       2376      
_________________________________________________________________
activation_3209 (Activation) (None, 32, 32, 256)       0         
_________________________________________________________________
dropout_3209 (Dropout)       (None, 32, 32, 256)       0         
_________________________________________________________________
max_pooling2d_767 (MaxPoolin (None, 16, 16, 256)       0         
_________________________________________________________________
separable_conv2d_2943 (Separ (None, 16, 16, 8)         4360      
_________________________________________________________________
activation_3210 (Activation) (None, 16, 16, 8)         0         
_________________________________________________________________
dropout_3210 (Dropout)       (None, 16, 16, 8)         0         
_________________________________________________________________
separable_conv2d_2944 (Separ (None, 16, 16, 256)       2376      
_________________________________________________________________
batch_normalization_1877 (Ba (None, 16, 16, 256)       1024      
_________________________________________________________________
activation_3211 (Activation) (None, 16, 16, 256)       0         
_________________________________________________________________
dropout_3211 (Dropout)       (None, 16, 16, 256)       0         
_________________________________________________________________
separable_conv2d_2945 (Separ (None, 16, 16, 64)        18752     
_________________________________________________________________
batch_normalization_1878 (Ba (None, 16, 16, 64)        256       
_________________________________________________________________
activation_3212 (Activation) (None, 16, 16, 64)        0         
_________________________________________________________________
dropout_3212 (Dropout)       (None, 16, 16, 64)        0         
_________________________________________________________________
separable_conv2d_2946 (Separ (None, 16, 16, 512)       33856     
_________________________________________________________________
batch_normalization_1879 (Ba (None, 16, 16, 512)       2048      
_________________________________________________________________
activation_3213 (Activation) (None, 16, 16, 512)       0         
_________________________________________________________________
dropout_3213 (Dropout)       (None, 16, 16, 512)       0         
_________________________________________________________________
max_pooling2d_768 (MaxPoolin (None, 8, 8, 512)         0         
_________________________________________________________________
separable_conv2d_2947 (Separ (None, 8, 8, 128)         70272     
_________________________________________________________________
activation_3214 (Activation) (None, 8, 8, 128)         0         
_________________________________________________________________
dropout_3214 (Dropout)       (None, 8, 8, 128)         0         
_________________________________________________________________
separable_conv2d_2948 (Separ (None, 8, 8, 32)          5280      
_________________________________________________________________
batch_normalization_1880 (Ba (None, 8, 8, 32)          128       
_________________________________________________________________
activation_3215 (Activation) (None, 8, 8, 32)          0         
_________________________________________________________________
dropout_3215 (Dropout)       (None, 8, 8, 32)          0         
_________________________________________________________________
separable_conv2d_2949 (Separ (None, 8, 8, 256)         8736      
_________________________________________________________________
batch_normalization_1881 (Ba (None, 8, 8, 256)         1024      
_________________________________________________________________
activation_3216 (Activation) (None, 8, 8, 256)         0         
_________________________________________________________________
dropout_3216 (Dropout)       (None, 8, 8, 256)         0         
_________________________________________________________________
max_pooling2d_769 (MaxPoolin (None, 4, 4, 256)         0         
_________________________________________________________________
flatten_264 (Flatten)        (None, 4096)              0         
_________________________________________________________________
dense_531 (Dense)            (None, 2048)              8390656   
_________________________________________________________________
batch_normalization_1882 (Ba (None, 2048)              8192      
_________________________________________________________________
activation_3217 (Activation) (None, 2048)              0         
_________________________________________________________________
dropout_3217 (Dropout)       (None, 2048)              0         
_________________________________________________________________
dense_532 (Dense)            (None, 100)               204900    
=================================================================
Total params: 8,768,511
Trainable params: 8,761,663
Non-trainable params: 6,848
_________________________________________________________________
