Model: "sequential_221"
_________________________________________________________________
Layer (type)                 Output Shape              Param #   
=================================================================
separable_conv2d_2487 (Separ (None, 32, 32, 32)        155       
_________________________________________________________________
activation_2711 (Activation) (None, 32, 32, 32)        0         
_________________________________________________________________
dropout_2711 (Dropout)       (None, 32, 32, 32)        0         
_________________________________________________________________
separable_conv2d_2488 (Separ (None, 32, 32, 256)       8736      
_________________________________________________________________
batch_normalization_1592 (Ba (None, 32, 32, 256)       1024      
_________________________________________________________________
activation_2712 (Activation) (None, 32, 32, 256)       0         
_________________________________________________________________
dropout_2712 (Dropout)       (None, 32, 32, 256)       0         
_________________________________________________________________
separable_conv2d_2489 (Separ (None, 32, 32, 8)         4360      
_________________________________________________________________
activation_2713 (Activation) (None, 32, 32, 8)         0         
_________________________________________________________________
dropout_2713 (Dropout)       (None, 32, 32, 8)         0         
_________________________________________________________________
separable_conv2d_2490 (Separ (None, 32, 32, 64)        648       
_________________________________________________________________
activation_2714 (Activation) (None, 32, 32, 64)        0         
_________________________________________________________________
dropout_2714 (Dropout)       (None, 32, 32, 64)        0         
_________________________________________________________________
max_pooling2d_648 (MaxPoolin (None, 16, 16, 64)        0         
_________________________________________________________________
separable_conv2d_2491 (Separ (None, 16, 16, 16)        1616      
_________________________________________________________________
activation_2715 (Activation) (None, 16, 16, 16)        0         
_________________________________________________________________
dropout_2715 (Dropout)       (None, 16, 16, 16)        0         
_________________________________________________________________
separable_conv2d_2492 (Separ (None, 16, 16, 128)       2320      
_________________________________________________________________
batch_normalization_1593 (Ba (None, 16, 16, 128)       512       
_________________________________________________________________
activation_2716 (Activation) (None, 16, 16, 128)       0         
_________________________________________________________________
dropout_2716 (Dropout)       (None, 16, 16, 128)       0         
_________________________________________________________________
separable_conv2d_2493 (Separ (None, 16, 16, 64)        9408      
_________________________________________________________________
batch_normalization_1594 (Ba (None, 16, 16, 64)        256       
_________________________________________________________________
activation_2717 (Activation) (None, 16, 16, 64)        0         
_________________________________________________________________
dropout_2717 (Dropout)       (None, 16, 16, 64)        0         
_________________________________________________________________
separable_conv2d_2494 (Separ (None, 16, 16, 32)        2656      
_________________________________________________________________
batch_normalization_1595 (Ba (None, 16, 16, 32)        128       
_________________________________________________________________
activation_2718 (Activation) (None, 16, 16, 32)        0         
_________________________________________________________________
dropout_2718 (Dropout)       (None, 16, 16, 32)        0         
_________________________________________________________________
separable_conv2d_2495 (Separ (None, 16, 16, 512)       17184     
_________________________________________________________________
batch_normalization_1596 (Ba (None, 16, 16, 512)       2048      
_________________________________________________________________
activation_2719 (Activation) (None, 16, 16, 512)       0         
_________________________________________________________________
dropout_2719 (Dropout)       (None, 16, 16, 512)       0         
_________________________________________________________________
max_pooling2d_649 (MaxPoolin (None, 8, 8, 512)         0         
_________________________________________________________________
flatten_221 (Flatten)        (None, 32768)             0         
_________________________________________________________________
dense_445 (Dense)            (None, 2048)              67110912  
_________________________________________________________________
batch_normalization_1597 (Ba (None, 2048)              8192      
_________________________________________________________________
activation_2720 (Activation) (None, 2048)              0         
_________________________________________________________________
dropout_2720 (Dropout)       (None, 2048)              0         
_________________________________________________________________
dense_446 (Dense)            (None, 100)               204900    
=================================================================
Total params: 67,375,055
Trainable params: 67,368,975
Non-trainable params: 6,080
_________________________________________________________________
