Model: "sequential_228"
_________________________________________________________________
Layer (type)                 Output Shape              Param #   
=================================================================
separable_conv2d_2558 (Separ (None, 32, 32, 32)        155       
_________________________________________________________________
activation_2789 (Activation) (None, 32, 32, 32)        0         
_________________________________________________________________
dropout_2789 (Dropout)       (None, 32, 32, 32)        0         
_________________________________________________________________
separable_conv2d_2559 (Separ (None, 32, 32, 256)       8736      
_________________________________________________________________
batch_normalization_1637 (Ba (None, 32, 32, 256)       1024      
_________________________________________________________________
activation_2790 (Activation) (None, 32, 32, 256)       0         
_________________________________________________________________
dropout_2790 (Dropout)       (None, 32, 32, 256)       0         
_________________________________________________________________
separable_conv2d_2560 (Separ (None, 32, 32, 8)         4360      
_________________________________________________________________
activation_2791 (Activation) (None, 32, 32, 8)         0         
_________________________________________________________________
dropout_2791 (Dropout)       (None, 32, 32, 8)         0         
_________________________________________________________________
separable_conv2d_2561 (Separ (None, 32, 32, 64)        648       
_________________________________________________________________
activation_2792 (Activation) (None, 32, 32, 64)        0         
_________________________________________________________________
dropout_2792 (Dropout)       (None, 32, 32, 64)        0         
_________________________________________________________________
max_pooling2d_667 (MaxPoolin (None, 16, 16, 64)        0         
_________________________________________________________________
separable_conv2d_2562 (Separ (None, 16, 16, 16)        1616      
_________________________________________________________________
activation_2793 (Activation) (None, 16, 16, 16)        0         
_________________________________________________________________
dropout_2793 (Dropout)       (None, 16, 16, 16)        0         
_________________________________________________________________
separable_conv2d_2563 (Separ (None, 16, 16, 256)       4496      
_________________________________________________________________
batch_normalization_1638 (Ba (None, 16, 16, 256)       1024      
_________________________________________________________________
activation_2794 (Activation) (None, 16, 16, 256)       0         
_________________________________________________________________
dropout_2794 (Dropout)       (None, 16, 16, 256)       0         
_________________________________________________________________
separable_conv2d_2564 (Separ (None, 16, 16, 64)        18752     
_________________________________________________________________
batch_normalization_1639 (Ba (None, 16, 16, 64)        256       
_________________________________________________________________
activation_2795 (Activation) (None, 16, 16, 64)        0         
_________________________________________________________________
dropout_2795 (Dropout)       (None, 16, 16, 64)        0         
_________________________________________________________________
separable_conv2d_2565 (Separ (None, 16, 16, 512)       33856     
_________________________________________________________________
batch_normalization_1640 (Ba (None, 16, 16, 512)       2048      
_________________________________________________________________
activation_2796 (Activation) (None, 16, 16, 512)       0         
_________________________________________________________________
dropout_2796 (Dropout)       (None, 16, 16, 512)       0         
_________________________________________________________________
max_pooling2d_668 (MaxPoolin (None, 8, 8, 512)         0         
_________________________________________________________________
separable_conv2d_2566 (Separ (None, 8, 8, 128)         70272     
_________________________________________________________________
activation_2797 (Activation) (None, 8, 8, 128)         0         
_________________________________________________________________
dropout_2797 (Dropout)       (None, 8, 8, 128)         0         
_________________________________________________________________
separable_conv2d_2567 (Separ (None, 8, 8, 32)          5280      
_________________________________________________________________
batch_normalization_1641 (Ba (None, 8, 8, 32)          128       
_________________________________________________________________
activation_2798 (Activation) (None, 8, 8, 32)          0         
_________________________________________________________________
dropout_2798 (Dropout)       (None, 8, 8, 32)          0         
_________________________________________________________________
separable_conv2d_2568 (Separ (None, 8, 8, 256)         8736      
_________________________________________________________________
batch_normalization_1642 (Ba (None, 8, 8, 256)         1024      
_________________________________________________________________
activation_2799 (Activation) (None, 8, 8, 256)         0         
_________________________________________________________________
dropout_2799 (Dropout)       (None, 8, 8, 256)         0         
_________________________________________________________________
max_pooling2d_669 (MaxPoolin (None, 4, 4, 256)         0         
_________________________________________________________________
flatten_228 (Flatten)        (None, 4096)              0         
_________________________________________________________________
dense_459 (Dense)            (None, 2048)              8390656   
_________________________________________________________________
batch_normalization_1643 (Ba (None, 2048)              8192      
_________________________________________________________________
activation_2800 (Activation) (None, 2048)              0         
_________________________________________________________________
dropout_2800 (Dropout)       (None, 2048)              0         
_________________________________________________________________
dense_460 (Dense)            (None, 100)               204900    
=================================================================
Total params: 8,766,159
Trainable params: 8,759,311
Non-trainable params: 6,848
_________________________________________________________________
