Model: "sequential_329"
_________________________________________________________________
Layer (type)                 Output Shape              Param #   
=================================================================
separable_conv2d_3580 (Separ (None, 32, 32, 32)        155       
_________________________________________________________________
activation_3912 (Activation) (None, 32, 32, 32)        0         
_________________________________________________________________
dropout_3912 (Dropout)       (None, 32, 32, 32)        0         
_________________________________________________________________
separable_conv2d_3581 (Separ (None, 32, 32, 256)       8736      
_________________________________________________________________
batch_normalization_2260 (Ba (None, 32, 32, 256)       1024      
_________________________________________________________________
activation_3913 (Activation) (None, 32, 32, 256)       0         
_________________________________________________________________
dropout_3913 (Dropout)       (None, 32, 32, 256)       0         
_________________________________________________________________
separable_conv2d_3582 (Separ (None, 32, 32, 8)         4360      
_________________________________________________________________
activation_3914 (Activation) (None, 32, 32, 8)         0         
_________________________________________________________________
dropout_3914 (Dropout)       (None, 32, 32, 8)         0         
_________________________________________________________________
separable_conv2d_3583 (Separ (None, 32, 32, 64)        648       
_________________________________________________________________
activation_3915 (Activation) (None, 32, 32, 64)        0         
_________________________________________________________________
dropout_3915 (Dropout)       (None, 32, 32, 64)        0         
_________________________________________________________________
max_pooling2d_928 (MaxPoolin (None, 16, 16, 64)        0         
_________________________________________________________________
separable_conv2d_3584 (Separ (None, 16, 16, 256)       17216     
_________________________________________________________________
batch_normalization_2261 (Ba (None, 16, 16, 256)       1024      
_________________________________________________________________
activation_3916 (Activation) (None, 16, 16, 256)       0         
_________________________________________________________________
dropout_3916 (Dropout)       (None, 16, 16, 256)       0         
_________________________________________________________________
separable_conv2d_3585 (Separ (None, 16, 16, 512)       133888    
_________________________________________________________________
batch_normalization_2262 (Ba (None, 16, 16, 512)       2048      
_________________________________________________________________
activation_3917 (Activation) (None, 16, 16, 512)       0         
_________________________________________________________________
dropout_3917 (Dropout)       (None, 16, 16, 512)       0         
_________________________________________________________________
max_pooling2d_929 (MaxPoolin (None, 8, 8, 512)         0         
_________________________________________________________________
separable_conv2d_3586 (Separ (None, 8, 8, 128)         70272     
_________________________________________________________________
activation_3918 (Activation) (None, 8, 8, 128)         0         
_________________________________________________________________
dropout_3918 (Dropout)       (None, 8, 8, 128)         0         
_________________________________________________________________
separable_conv2d_3587 (Separ (None, 8, 8, 64)          9408      
_________________________________________________________________
batch_normalization_2263 (Ba (None, 8, 8, 64)          256       
_________________________________________________________________
activation_3919 (Activation) (None, 8, 8, 64)          0         
_________________________________________________________________
dropout_3919 (Dropout)       (None, 8, 8, 64)          0         
_________________________________________________________________
separable_conv2d_3588 (Separ (None, 8, 8, 512)         33856     
_________________________________________________________________
batch_normalization_2264 (Ba (None, 8, 8, 512)         2048      
_________________________________________________________________
activation_3920 (Activation) (None, 8, 8, 512)         0         
_________________________________________________________________
dropout_3920 (Dropout)       (None, 8, 8, 512)         0         
_________________________________________________________________
max_pooling2d_930 (MaxPoolin (None, 4, 4, 512)         0         
_________________________________________________________________
flatten_329 (Flatten)        (None, 8192)              0         
_________________________________________________________________
dense_661 (Dense)            (None, 2048)              16779264  
_________________________________________________________________
batch_normalization_2265 (Ba (None, 2048)              8192      
_________________________________________________________________
activation_3921 (Activation) (None, 2048)              0         
_________________________________________________________________
dropout_3921 (Dropout)       (None, 2048)              0         
_________________________________________________________________
dense_662 (Dense)            (None, 100)               204900    
=================================================================
Total params: 17,277,295
Trainable params: 17,269,999
Non-trainable params: 7,296
_________________________________________________________________
