Model: "sequential_323"
_________________________________________________________________
Layer (type)                 Output Shape              Param #   
=================================================================
separable_conv2d_3523 (Separ (None, 32, 32, 32)        155       
_________________________________________________________________
activation_3849 (Activation) (None, 32, 32, 32)        0         
_________________________________________________________________
dropout_3849 (Dropout)       (None, 32, 32, 32)        0         
_________________________________________________________________
separable_conv2d_3524 (Separ (None, 32, 32, 256)       8736      
_________________________________________________________________
batch_normalization_2229 (Ba (None, 32, 32, 256)       1024      
_________________________________________________________________
activation_3850 (Activation) (None, 32, 32, 256)       0         
_________________________________________________________________
dropout_3850 (Dropout)       (None, 32, 32, 256)       0         
_________________________________________________________________
separable_conv2d_3525 (Separ (None, 32, 32, 8)         4360      
_________________________________________________________________
activation_3851 (Activation) (None, 32, 32, 8)         0         
_________________________________________________________________
dropout_3851 (Dropout)       (None, 32, 32, 8)         0         
_________________________________________________________________
separable_conv2d_3526 (Separ (None, 32, 32, 64)        648       
_________________________________________________________________
activation_3852 (Activation) (None, 32, 32, 64)        0         
_________________________________________________________________
dropout_3852 (Dropout)       (None, 32, 32, 64)        0         
_________________________________________________________________
max_pooling2d_915 (MaxPoolin (None, 16, 16, 64)        0         
_________________________________________________________________
separable_conv2d_3527 (Separ (None, 16, 16, 16)        1616      
_________________________________________________________________
activation_3853 (Activation) (None, 16, 16, 16)        0         
_________________________________________________________________
dropout_3853 (Dropout)       (None, 16, 16, 16)        0         
_________________________________________________________________
separable_conv2d_3528 (Separ (None, 16, 16, 128)       2320      
_________________________________________________________________
batch_normalization_2230 (Ba (None, 16, 16, 128)       512       
_________________________________________________________________
activation_3854 (Activation) (None, 16, 16, 128)       0         
_________________________________________________________________
dropout_3854 (Dropout)       (None, 16, 16, 128)       0         
_________________________________________________________________
separable_conv2d_3529 (Separ (None, 16, 16, 128)       17664     
_________________________________________________________________
batch_normalization_2231 (Ba (None, 16, 16, 128)       512       
_________________________________________________________________
activation_3855 (Activation) (None, 16, 16, 128)       0         
_________________________________________________________________
dropout_3855 (Dropout)       (None, 16, 16, 128)       0         
_________________________________________________________________
separable_conv2d_3530 (Separ (None, 16, 16, 32)        5280      
_________________________________________________________________
activation_3856 (Activation) (None, 16, 16, 32)        0         
_________________________________________________________________
dropout_3856 (Dropout)       (None, 16, 16, 32)        0         
_________________________________________________________________
separable_conv2d_3531 (Separ (None, 16, 16, 256)       8736      
_________________________________________________________________
batch_normalization_2232 (Ba (None, 16, 16, 256)       1024      
_________________________________________________________________
activation_3857 (Activation) (None, 16, 16, 256)       0         
_________________________________________________________________
dropout_3857 (Dropout)       (None, 16, 16, 256)       0         
_________________________________________________________________
max_pooling2d_916 (MaxPoolin (None, 8, 8, 256)         0         
_________________________________________________________________
flatten_323 (Flatten)        (None, 16384)             0         
_________________________________________________________________
dense_649 (Dense)            (None, 2048)              33556480  
_________________________________________________________________
batch_normalization_2233 (Ba (None, 2048)              8192      
_________________________________________________________________
activation_3858 (Activation) (None, 2048)              0         
_________________________________________________________________
dropout_3858 (Dropout)       (None, 2048)              0         
_________________________________________________________________
dense_650 (Dense)            (None, 100)               204900    
=================================================================
Total params: 33,822,159
Trainable params: 33,816,527
Non-trainable params: 5,632
_________________________________________________________________
