Model: "sequential_318"
_________________________________________________________________
Layer (type)                 Output Shape              Param #   
=================================================================
separable_conv2d_3473 (Separ (None, 32, 32, 32)        155       
_________________________________________________________________
activation_3794 (Activation) (None, 32, 32, 32)        0         
_________________________________________________________________
dropout_3794 (Dropout)       (None, 32, 32, 32)        0         
_________________________________________________________________
separable_conv2d_3474 (Separ (None, 32, 32, 256)       8736      
_________________________________________________________________
batch_normalization_2200 (Ba (None, 32, 32, 256)       1024      
_________________________________________________________________
activation_3795 (Activation) (None, 32, 32, 256)       0         
_________________________________________________________________
dropout_3795 (Dropout)       (None, 32, 32, 256)       0         
_________________________________________________________________
separable_conv2d_3475 (Separ (None, 32, 32, 8)         4360      
_________________________________________________________________
activation_3796 (Activation) (None, 32, 32, 8)         0         
_________________________________________________________________
dropout_3796 (Dropout)       (None, 32, 32, 8)         0         
_________________________________________________________________
separable_conv2d_3476 (Separ (None, 32, 32, 64)        648       
_________________________________________________________________
activation_3797 (Activation) (None, 32, 32, 64)        0         
_________________________________________________________________
dropout_3797 (Dropout)       (None, 32, 32, 64)        0         
_________________________________________________________________
max_pooling2d_903 (MaxPoolin (None, 16, 16, 64)        0         
_________________________________________________________________
separable_conv2d_3477 (Separ (None, 16, 16, 16)        1616      
_________________________________________________________________
activation_3798 (Activation) (None, 16, 16, 16)        0         
_________________________________________________________________
dropout_3798 (Dropout)       (None, 16, 16, 16)        0         
_________________________________________________________________
separable_conv2d_3478 (Separ (None, 16, 16, 128)       2320      
_________________________________________________________________
batch_normalization_2201 (Ba (None, 16, 16, 128)       512       
_________________________________________________________________
activation_3799 (Activation) (None, 16, 16, 128)       0         
_________________________________________________________________
dropout_3799 (Dropout)       (None, 16, 16, 128)       0         
_________________________________________________________________
separable_conv2d_3479 (Separ (None, 16, 16, 64)        9408      
_________________________________________________________________
batch_normalization_2202 (Ba (None, 16, 16, 64)        256       
_________________________________________________________________
activation_3800 (Activation) (None, 16, 16, 64)        0         
_________________________________________________________________
dropout_3800 (Dropout)       (None, 16, 16, 64)        0         
_________________________________________________________________
separable_conv2d_3480 (Separ (None, 16, 16, 512)       33856     
_________________________________________________________________
batch_normalization_2203 (Ba (None, 16, 16, 512)       2048      
_________________________________________________________________
activation_3801 (Activation) (None, 16, 16, 512)       0         
_________________________________________________________________
dropout_3801 (Dropout)       (None, 16, 16, 512)       0         
_________________________________________________________________
max_pooling2d_904 (MaxPoolin (None, 8, 8, 512)         0         
_________________________________________________________________
separable_conv2d_3481 (Separ (None, 8, 8, 128)         70272     
_________________________________________________________________
activation_3802 (Activation) (None, 8, 8, 128)         0         
_________________________________________________________________
dropout_3802 (Dropout)       (None, 8, 8, 128)         0         
_________________________________________________________________
separable_conv2d_3482 (Separ (None, 8, 8, 32)          5280      
_________________________________________________________________
batch_normalization_2204 (Ba (None, 8, 8, 32)          128       
_________________________________________________________________
activation_3803 (Activation) (None, 8, 8, 32)          0         
_________________________________________________________________
dropout_3803 (Dropout)       (None, 8, 8, 32)          0         
_________________________________________________________________
separable_conv2d_3483 (Separ (None, 8, 8, 256)         8736      
_________________________________________________________________
batch_normalization_2205 (Ba (None, 8, 8, 256)         1024      
_________________________________________________________________
activation_3804 (Activation) (None, 8, 8, 256)         0         
_________________________________________________________________
dropout_3804 (Dropout)       (None, 8, 8, 256)         0         
_________________________________________________________________
max_pooling2d_905 (MaxPoolin (None, 4, 4, 256)         0         
_________________________________________________________________
flatten_318 (Flatten)        (None, 4096)              0         
_________________________________________________________________
dense_639 (Dense)            (None, 2048)              8390656   
_________________________________________________________________
batch_normalization_2206 (Ba (None, 2048)              8192      
_________________________________________________________________
activation_3805 (Activation) (None, 2048)              0         
_________________________________________________________________
dropout_3805 (Dropout)       (None, 2048)              0         
_________________________________________________________________
dense_640 (Dense)            (None, 100)               204900    
=================================================================
Total params: 8,754,127
Trainable params: 8,747,535
Non-trainable params: 6,592
_________________________________________________________________
