Model: "sequential_248"
_________________________________________________________________
Layer (type)                 Output Shape              Param #   
=================================================================
separable_conv2d_2772 (Separ (None, 32, 32, 32)        155       
_________________________________________________________________
activation_3023 (Activation) (None, 32, 32, 32)        0         
_________________________________________________________________
dropout_3023 (Dropout)       (None, 32, 32, 32)        0         
_________________________________________________________________
separable_conv2d_2773 (Separ (None, 32, 32, 256)       8736      
_________________________________________________________________
batch_normalization_1771 (Ba (None, 32, 32, 256)       1024      
_________________________________________________________________
activation_3024 (Activation) (None, 32, 32, 256)       0         
_________________________________________________________________
dropout_3024 (Dropout)       (None, 32, 32, 256)       0         
_________________________________________________________________
separable_conv2d_2774 (Separ (None, 32, 32, 8)         4360      
_________________________________________________________________
activation_3025 (Activation) (None, 32, 32, 8)         0         
_________________________________________________________________
dropout_3025 (Dropout)       (None, 32, 32, 8)         0         
_________________________________________________________________
separable_conv2d_2775 (Separ (None, 32, 32, 64)        648       
_________________________________________________________________
activation_3026 (Activation) (None, 32, 32, 64)        0         
_________________________________________________________________
dropout_3026 (Dropout)       (None, 32, 32, 64)        0         
_________________________________________________________________
max_pooling2d_724 (MaxPoolin (None, 16, 16, 64)        0         
_________________________________________________________________
separable_conv2d_2776 (Separ (None, 16, 16, 16)        1616      
_________________________________________________________________
activation_3027 (Activation) (None, 16, 16, 16)        0         
_________________________________________________________________
dropout_3027 (Dropout)       (None, 16, 16, 16)        0         
_________________________________________________________________
separable_conv2d_2777 (Separ (None, 16, 16, 128)       2320      
_________________________________________________________________
batch_normalization_1772 (Ba (None, 16, 16, 128)       512       
_________________________________________________________________
activation_3028 (Activation) (None, 16, 16, 128)       0         
_________________________________________________________________
dropout_3028 (Dropout)       (None, 16, 16, 128)       0         
_________________________________________________________________
separable_conv2d_2778 (Separ (None, 16, 16, 64)        9408      
_________________________________________________________________
batch_normalization_1773 (Ba (None, 16, 16, 64)        256       
_________________________________________________________________
activation_3029 (Activation) (None, 16, 16, 64)        0         
_________________________________________________________________
dropout_3029 (Dropout)       (None, 16, 16, 64)        0         
_________________________________________________________________
separable_conv2d_2779 (Separ (None, 16, 16, 128)       8896      
_________________________________________________________________
activation_3030 (Activation) (None, 16, 16, 128)       0         
_________________________________________________________________
dropout_3030 (Dropout)       (None, 16, 16, 128)       0         
_________________________________________________________________
separable_conv2d_2780 (Separ (None, 16, 16, 32)        5280      
_________________________________________________________________
batch_normalization_1774 (Ba (None, 16, 16, 32)        128       
_________________________________________________________________
activation_3031 (Activation) (None, 16, 16, 32)        0         
_________________________________________________________________
dropout_3031 (Dropout)       (None, 16, 16, 32)        0         
_________________________________________________________________
separable_conv2d_2781 (Separ (None, 16, 16, 8)         552       
_________________________________________________________________
batch_normalization_1775 (Ba (None, 16, 16, 8)         32        
_________________________________________________________________
activation_3032 (Activation) (None, 16, 16, 8)         0         
_________________________________________________________________
dropout_3032 (Dropout)       (None, 16, 16, 8)         0         
_________________________________________________________________
max_pooling2d_725 (MaxPoolin (None, 8, 8, 8)           0         
_________________________________________________________________
flatten_248 (Flatten)        (None, 512)               0         
_________________________________________________________________
dense_499 (Dense)            (None, 2048)              1050624   
_________________________________________________________________
batch_normalization_1776 (Ba (None, 2048)              8192      
_________________________________________________________________
activation_3033 (Activation) (None, 2048)              0         
_________________________________________________________________
dropout_3033 (Dropout)       (None, 2048)              0         
_________________________________________________________________
dense_500 (Dense)            (None, 100)               204900    
=================================================================
Total params: 1,307,639
Trainable params: 1,302,567
Non-trainable params: 5,072
_________________________________________________________________
