Model: "sequential_190"
_________________________________________________________________
Layer (type)                 Output Shape              Param #   
=================================================================
separable_conv2d_2153 (Separ (None, 32, 32, 32)        155       
_________________________________________________________________
activation_2346 (Activation) (None, 32, 32, 32)        0         
_________________________________________________________________
dropout_2346 (Dropout)       (None, 32, 32, 32)        0         
_________________________________________________________________
separable_conv2d_2154 (Separ (None, 32, 32, 128)       4512      
_________________________________________________________________
batch_normalization_1391 (Ba (None, 32, 32, 128)       512       
_________________________________________________________________
activation_2347 (Activation) (None, 32, 32, 128)       0         
_________________________________________________________________
dropout_2347 (Dropout)       (None, 32, 32, 128)       0         
_________________________________________________________________
separable_conv2d_2155 (Separ (None, 32, 32, 8)         2184      
_________________________________________________________________
activation_2348 (Activation) (None, 32, 32, 8)         0         
_________________________________________________________________
dropout_2348 (Dropout)       (None, 32, 32, 8)         0         
_________________________________________________________________
separable_conv2d_2156 (Separ (None, 32, 32, 64)        648       
_________________________________________________________________
activation_2349 (Activation) (None, 32, 32, 64)        0         
_________________________________________________________________
dropout_2349 (Dropout)       (None, 32, 32, 64)        0         
_________________________________________________________________
max_pooling2d_557 (MaxPoolin (None, 16, 16, 64)        0         
_________________________________________________________________
separable_conv2d_2157 (Separ (None, 16, 16, 8)         1096      
_________________________________________________________________
activation_2350 (Activation) (None, 16, 16, 8)         0         
_________________________________________________________________
dropout_2350 (Dropout)       (None, 16, 16, 8)         0         
_________________________________________________________________
separable_conv2d_2158 (Separ (None, 16, 16, 128)       1224      
_________________________________________________________________
batch_normalization_1392 (Ba (None, 16, 16, 128)       512       
_________________________________________________________________
activation_2351 (Activation) (None, 16, 16, 128)       0         
_________________________________________________________________
dropout_2351 (Dropout)       (None, 16, 16, 128)       0         
_________________________________________________________________
separable_conv2d_2159 (Separ (None, 16, 16, 64)        9408      
_________________________________________________________________
batch_normalization_1393 (Ba (None, 16, 16, 64)        256       
_________________________________________________________________
activation_2352 (Activation) (None, 16, 16, 64)        0         
_________________________________________________________________
dropout_2352 (Dropout)       (None, 16, 16, 64)        0         
_________________________________________________________________
separable_conv2d_2160 (Separ (None, 16, 16, 512)       33856     
_________________________________________________________________
batch_normalization_1394 (Ba (None, 16, 16, 512)       2048      
_________________________________________________________________
activation_2353 (Activation) (None, 16, 16, 512)       0         
_________________________________________________________________
dropout_2353 (Dropout)       (None, 16, 16, 512)       0         
_________________________________________________________________
max_pooling2d_558 (MaxPoolin (None, 8, 8, 512)         0         
_________________________________________________________________
separable_conv2d_2161 (Separ (None, 8, 8, 128)         70272     
_________________________________________________________________
activation_2354 (Activation) (None, 8, 8, 128)         0         
_________________________________________________________________
dropout_2354 (Dropout)       (None, 8, 8, 128)         0         
_________________________________________________________________
separable_conv2d_2162 (Separ (None, 8, 8, 32)          5280      
_________________________________________________________________
batch_normalization_1395 (Ba (None, 8, 8, 32)          128       
_________________________________________________________________
activation_2355 (Activation) (None, 8, 8, 32)          0         
_________________________________________________________________
dropout_2355 (Dropout)       (None, 8, 8, 32)          0         
_________________________________________________________________
separable_conv2d_2163 (Separ (None, 8, 8, 256)         8736      
_________________________________________________________________
batch_normalization_1396 (Ba (None, 8, 8, 256)         1024      
_________________________________________________________________
activation_2356 (Activation) (None, 8, 8, 256)         0         
_________________________________________________________________
dropout_2356 (Dropout)       (None, 8, 8, 256)         0         
_________________________________________________________________
max_pooling2d_559 (MaxPoolin (None, 4, 4, 256)         0         
_________________________________________________________________
flatten_190 (Flatten)        (None, 4096)              0         
_________________________________________________________________
dense_383 (Dense)            (None, 2048)              8390656   
_________________________________________________________________
batch_normalization_1397 (Ba (None, 2048)              8192      
_________________________________________________________________
activation_2357 (Activation) (None, 2048)              0         
_________________________________________________________________
dropout_2357 (Dropout)       (None, 2048)              0         
_________________________________________________________________
dense_384 (Dense)            (None, 100)               204900    
=================================================================
Total params: 8,745,599
Trainable params: 8,739,263
Non-trainable params: 6,336
_________________________________________________________________
