Model: "sequential_47"
_________________________________________________________________
Layer (type)                 Output Shape              Param #   
=================================================================
separable_conv2d_539 (Separa (None, 32, 32, 32)        155       
_________________________________________________________________
activation_589 (Activation)  (None, 32, 32, 32)        0         
_________________________________________________________________
dropout_589 (Dropout)        (None, 32, 32, 32)        0         
_________________________________________________________________
separable_conv2d_540 (Separa (None, 32, 32, 128)       4512      
_________________________________________________________________
batch_normalization_329 (Bat (None, 32, 32, 128)       512       
_________________________________________________________________
activation_590 (Activation)  (None, 32, 32, 128)       0         
_________________________________________________________________
dropout_590 (Dropout)        (None, 32, 32, 128)       0         
_________________________________________________________________
separable_conv2d_541 (Separa (None, 32, 32, 8)         2184      
_________________________________________________________________
activation_591 (Activation)  (None, 32, 32, 8)         0         
_________________________________________________________________
dropout_591 (Dropout)        (None, 32, 32, 8)         0         
_________________________________________________________________
separable_conv2d_542 (Separa (None, 32, 32, 64)        648       
_________________________________________________________________
activation_592 (Activation)  (None, 32, 32, 64)        0         
_________________________________________________________________
dropout_592 (Dropout)        (None, 32, 32, 64)        0         
_________________________________________________________________
max_pooling2d_130 (MaxPoolin (None, 16, 16, 64)        0         
_________________________________________________________________
separable_conv2d_543 (Separa (None, 16, 16, 8)         1096      
_________________________________________________________________
activation_593 (Activation)  (None, 16, 16, 8)         0         
_________________________________________________________________
dropout_593 (Dropout)        (None, 16, 16, 8)         0         
_________________________________________________________________
separable_conv2d_544 (Separa (None, 16, 16, 128)       1224      
_________________________________________________________________
batch_normalization_330 (Bat (None, 16, 16, 128)       512       
_________________________________________________________________
activation_594 (Activation)  (None, 16, 16, 128)       0         
_________________________________________________________________
dropout_594 (Dropout)        (None, 16, 16, 128)       0         
_________________________________________________________________
separable_conv2d_545 (Separa (None, 16, 16, 64)        9408      
_________________________________________________________________
batch_normalization_331 (Bat (None, 16, 16, 64)        256       
_________________________________________________________________
activation_595 (Activation)  (None, 16, 16, 64)        0         
_________________________________________________________________
dropout_595 (Dropout)        (None, 16, 16, 64)        0         
_________________________________________________________________
separable_conv2d_546 (Separa (None, 16, 16, 512)       33856     
_________________________________________________________________
batch_normalization_332 (Bat (None, 16, 16, 512)       2048      
_________________________________________________________________
activation_596 (Activation)  (None, 16, 16, 512)       0         
_________________________________________________________________
dropout_596 (Dropout)        (None, 16, 16, 512)       0         
_________________________________________________________________
max_pooling2d_131 (MaxPoolin (None, 8, 8, 512)         0         
_________________________________________________________________
separable_conv2d_547 (Separa (None, 8, 8, 32)          21024     
_________________________________________________________________
batch_normalization_333 (Bat (None, 8, 8, 32)          128       
_________________________________________________________________
activation_597 (Activation)  (None, 8, 8, 32)          0         
_________________________________________________________________
dropout_597 (Dropout)        (None, 8, 8, 32)          0         
_________________________________________________________________
max_pooling2d_132 (MaxPoolin (None, 4, 4, 32)          0         
_________________________________________________________________
separable_conv2d_548 (Separa (None, 4, 4, 128)         4512      
_________________________________________________________________
activation_598 (Activation)  (None, 4, 4, 128)         0         
_________________________________________________________________
dropout_598 (Dropout)        (None, 4, 4, 128)         0         
_________________________________________________________________
separable_conv2d_549 (Separa (None, 4, 4, 32)          5280      
_________________________________________________________________
batch_normalization_334 (Bat (None, 4, 4, 32)          128       
_________________________________________________________________
activation_599 (Activation)  (None, 4, 4, 32)          0         
_________________________________________________________________
dropout_599 (Dropout)        (None, 4, 4, 32)          0         
_________________________________________________________________
separable_conv2d_550 (Separa (None, 4, 4, 256)         8736      
_________________________________________________________________
batch_normalization_335 (Bat (None, 4, 4, 256)         1024      
_________________________________________________________________
activation_600 (Activation)  (None, 4, 4, 256)         0         
_________________________________________________________________
dropout_600 (Dropout)        (None, 4, 4, 256)         0         
_________________________________________________________________
flatten_47 (Flatten)         (None, 4096)              0         
_________________________________________________________________
dense_97 (Dense)             (None, 2048)              8390656   
_________________________________________________________________
batch_normalization_336 (Bat (None, 2048)              8192      
_________________________________________________________________
activation_601 (Activation)  (None, 2048)              0         
_________________________________________________________________
dropout_601 (Dropout)        (None, 2048)              0         
_________________________________________________________________
dense_98 (Dense)             (None, 100)               204900    
=================================================================
Total params: 8,700,991
Trainable params: 8,694,591
Non-trainable params: 6,400
_________________________________________________________________
