Model: "sequential_360"
_________________________________________________________________
Layer (type)                 Output Shape              Param #   
=================================================================
separable_conv2d_3870 (Separ (None, 32, 32, 32)        155       
_________________________________________________________________
activation_4233 (Activation) (None, 32, 32, 32)        0         
_________________________________________________________________
dropout_4233 (Dropout)       (None, 32, 32, 32)        0         
_________________________________________________________________
separable_conv2d_3871 (Separ (None, 32, 32, 256)       8736      
_________________________________________________________________
batch_normalization_2426 (Ba (None, 32, 32, 256)       1024      
_________________________________________________________________
activation_4234 (Activation) (None, 32, 32, 256)       0         
_________________________________________________________________
dropout_4234 (Dropout)       (None, 32, 32, 256)       0         
_________________________________________________________________
separable_conv2d_3872 (Separ (None, 32, 32, 8)         4360      
_________________________________________________________________
activation_4235 (Activation) (None, 32, 32, 8)         0         
_________________________________________________________________
dropout_4235 (Dropout)       (None, 32, 32, 8)         0         
_________________________________________________________________
separable_conv2d_3873 (Separ (None, 32, 32, 64)        648       
_________________________________________________________________
activation_4236 (Activation) (None, 32, 32, 64)        0         
_________________________________________________________________
dropout_4236 (Dropout)       (None, 32, 32, 64)        0         
_________________________________________________________________
max_pooling2d_1000 (MaxPooli (None, 16, 16, 64)        0         
_________________________________________________________________
separable_conv2d_3874 (Separ (None, 16, 16, 128)       8896      
_________________________________________________________________
batch_normalization_2427 (Ba (None, 16, 16, 128)       512       
_________________________________________________________________
activation_4237 (Activation) (None, 16, 16, 128)       0         
_________________________________________________________________
dropout_4237 (Dropout)       (None, 16, 16, 128)       0         
_________________________________________________________________
separable_conv2d_3875 (Separ (None, 16, 16, 64)        9408      
_________________________________________________________________
activation_4238 (Activation) (None, 16, 16, 64)        0         
_________________________________________________________________
dropout_4238 (Dropout)       (None, 16, 16, 64)        0         
_________________________________________________________________
separable_conv2d_3876 (Separ (None, 16, 16, 64)        4736      
_________________________________________________________________
batch_normalization_2428 (Ba (None, 16, 16, 64)        256       
_________________________________________________________________
activation_4239 (Activation) (None, 16, 16, 64)        0         
_________________________________________________________________
dropout_4239 (Dropout)       (None, 16, 16, 64)        0         
_________________________________________________________________
separable_conv2d_3877 (Separ (None, 16, 16, 256)       17216     
_________________________________________________________________
batch_normalization_2429 (Ba (None, 16, 16, 256)       1024      
_________________________________________________________________
activation_4240 (Activation) (None, 16, 16, 256)       0         
_________________________________________________________________
dropout_4240 (Dropout)       (None, 16, 16, 256)       0         
_________________________________________________________________
max_pooling2d_1001 (MaxPooli (None, 8, 8, 256)         0         
_________________________________________________________________
flatten_360 (Flatten)        (None, 16384)             0         
_________________________________________________________________
dense_723 (Dense)            (None, 2048)              33556480  
_________________________________________________________________
batch_normalization_2430 (Ba (None, 2048)              8192      
_________________________________________________________________
activation_4241 (Activation) (None, 2048)              0         
_________________________________________________________________
dropout_4241 (Dropout)       (None, 2048)              0         
_________________________________________________________________
dense_724 (Dense)            (None, 100)               204900    
=================================================================
Total params: 33,826,543
Trainable params: 33,821,039
Non-trainable params: 5,504
_________________________________________________________________
