Model: "sequential_296"
_________________________________________________________________
Layer (type)                 Output Shape              Param #   
=================================================================
separable_conv2d_3261 (Separ (None, 32, 32, 32)        155       
_________________________________________________________________
activation_3560 (Activation) (None, 32, 32, 32)        0         
_________________________________________________________________
dropout_3560 (Dropout)       (None, 32, 32, 32)        0         
_________________________________________________________________
separable_conv2d_3262 (Separ (None, 32, 32, 256)       8736      
_________________________________________________________________
batch_normalization_2077 (Ba (None, 32, 32, 256)       1024      
_________________________________________________________________
activation_3561 (Activation) (None, 32, 32, 256)       0         
_________________________________________________________________
dropout_3561 (Dropout)       (None, 32, 32, 256)       0         
_________________________________________________________________
separable_conv2d_3263 (Separ (None, 32, 32, 8)         4360      
_________________________________________________________________
activation_3562 (Activation) (None, 32, 32, 8)         0         
_________________________________________________________________
dropout_3562 (Dropout)       (None, 32, 32, 8)         0         
_________________________________________________________________
separable_conv2d_3264 (Separ (None, 32, 32, 64)        648       
_________________________________________________________________
activation_3563 (Activation) (None, 32, 32, 64)        0         
_________________________________________________________________
dropout_3563 (Dropout)       (None, 32, 32, 64)        0         
_________________________________________________________________
max_pooling2d_853 (MaxPoolin (None, 16, 16, 64)        0         
_________________________________________________________________
separable_conv2d_3265 (Separ (None, 16, 16, 16)        1616      
_________________________________________________________________
activation_3564 (Activation) (None, 16, 16, 16)        0         
_________________________________________________________________
dropout_3564 (Dropout)       (None, 16, 16, 16)        0         
_________________________________________________________________
separable_conv2d_3266 (Separ (None, 16, 16, 128)       2320      
_________________________________________________________________
batch_normalization_2078 (Ba (None, 16, 16, 128)       512       
_________________________________________________________________
activation_3565 (Activation) (None, 16, 16, 128)       0         
_________________________________________________________________
dropout_3565 (Dropout)       (None, 16, 16, 128)       0         
_________________________________________________________________
separable_conv2d_3267 (Separ (None, 16, 16, 64)        9408      
_________________________________________________________________
batch_normalization_2079 (Ba (None, 16, 16, 64)        256       
_________________________________________________________________
activation_3566 (Activation) (None, 16, 16, 64)        0         
_________________________________________________________________
dropout_3566 (Dropout)       (None, 16, 16, 64)        0         
_________________________________________________________________
separable_conv2d_3268 (Separ (None, 16, 16, 512)       33856     
_________________________________________________________________
batch_normalization_2080 (Ba (None, 16, 16, 512)       2048      
_________________________________________________________________
activation_3567 (Activation) (None, 16, 16, 512)       0         
_________________________________________________________________
dropout_3567 (Dropout)       (None, 16, 16, 512)       0         
_________________________________________________________________
max_pooling2d_854 (MaxPoolin (None, 8, 8, 512)         0         
_________________________________________________________________
separable_conv2d_3269 (Separ (None, 8, 8, 128)         70272     
_________________________________________________________________
activation_3568 (Activation) (None, 8, 8, 128)         0         
_________________________________________________________________
dropout_3568 (Dropout)       (None, 8, 8, 128)         0         
_________________________________________________________________
separable_conv2d_3270 (Separ (None, 8, 8, 32)          5280      
_________________________________________________________________
batch_normalization_2081 (Ba (None, 8, 8, 32)          128       
_________________________________________________________________
activation_3569 (Activation) (None, 8, 8, 32)          0         
_________________________________________________________________
dropout_3569 (Dropout)       (None, 8, 8, 32)          0         
_________________________________________________________________
separable_conv2d_3271 (Separ (None, 8, 8, 256)         8736      
_________________________________________________________________
batch_normalization_2082 (Ba (None, 8, 8, 256)         1024      
_________________________________________________________________
activation_3570 (Activation) (None, 8, 8, 256)         0         
_________________________________________________________________
dropout_3570 (Dropout)       (None, 8, 8, 256)         0         
_________________________________________________________________
max_pooling2d_855 (MaxPoolin (None, 4, 4, 256)         0         
_________________________________________________________________
flatten_296 (Flatten)        (None, 4096)              0         
_________________________________________________________________
dense_595 (Dense)            (None, 2048)              8390656   
_________________________________________________________________
batch_normalization_2083 (Ba (None, 2048)              8192      
_________________________________________________________________
activation_3571 (Activation) (None, 2048)              0         
_________________________________________________________________
dropout_3571 (Dropout)       (None, 2048)              0         
_________________________________________________________________
dense_596 (Dense)            (None, 100)               204900    
=================================================================
Total params: 8,754,127
Trainable params: 8,747,535
Non-trainable params: 6,592
_________________________________________________________________
