Model: "sequential_247"
_________________________________________________________________
Layer (type)                 Output Shape              Param #   
=================================================================
separable_conv2d_2763 (Separ (None, 32, 32, 32)        155       
_________________________________________________________________
activation_3013 (Activation) (None, 32, 32, 32)        0         
_________________________________________________________________
dropout_3013 (Dropout)       (None, 32, 32, 32)        0         
_________________________________________________________________
separable_conv2d_2764 (Separ (None, 32, 32, 256)       8736      
_________________________________________________________________
batch_normalization_1765 (Ba (None, 32, 32, 256)       1024      
_________________________________________________________________
activation_3014 (Activation) (None, 32, 32, 256)       0         
_________________________________________________________________
dropout_3014 (Dropout)       (None, 32, 32, 256)       0         
_________________________________________________________________
separable_conv2d_2765 (Separ (None, 32, 32, 8)         4360      
_________________________________________________________________
activation_3015 (Activation) (None, 32, 32, 8)         0         
_________________________________________________________________
dropout_3015 (Dropout)       (None, 32, 32, 8)         0         
_________________________________________________________________
separable_conv2d_2766 (Separ (None, 32, 32, 64)        648       
_________________________________________________________________
activation_3016 (Activation) (None, 32, 32, 64)        0         
_________________________________________________________________
dropout_3016 (Dropout)       (None, 32, 32, 64)        0         
_________________________________________________________________
max_pooling2d_722 (MaxPoolin (None, 16, 16, 64)        0         
_________________________________________________________________
separable_conv2d_2767 (Separ (None, 16, 16, 16)        1616      
_________________________________________________________________
activation_3017 (Activation) (None, 16, 16, 16)        0         
_________________________________________________________________
dropout_3017 (Dropout)       (None, 16, 16, 16)        0         
_________________________________________________________________
separable_conv2d_2768 (Separ (None, 16, 16, 128)       2320      
_________________________________________________________________
batch_normalization_1766 (Ba (None, 16, 16, 128)       512       
_________________________________________________________________
activation_3018 (Activation) (None, 16, 16, 128)       0         
_________________________________________________________________
dropout_3018 (Dropout)       (None, 16, 16, 128)       0         
_________________________________________________________________
separable_conv2d_2769 (Separ (None, 16, 16, 64)        9408      
_________________________________________________________________
batch_normalization_1767 (Ba (None, 16, 16, 64)        256       
_________________________________________________________________
activation_3019 (Activation) (None, 16, 16, 64)        0         
_________________________________________________________________
dropout_3019 (Dropout)       (None, 16, 16, 64)        0         
_________________________________________________________________
separable_conv2d_2770 (Separ (None, 16, 16, 32)        2656      
_________________________________________________________________
batch_normalization_1768 (Ba (None, 16, 16, 32)        128       
_________________________________________________________________
activation_3020 (Activation) (None, 16, 16, 32)        0         
_________________________________________________________________
dropout_3020 (Dropout)       (None, 16, 16, 32)        0         
_________________________________________________________________
separable_conv2d_2771 (Separ (None, 16, 16, 256)       8736      
_________________________________________________________________
batch_normalization_1769 (Ba (None, 16, 16, 256)       1024      
_________________________________________________________________
activation_3021 (Activation) (None, 16, 16, 256)       0         
_________________________________________________________________
dropout_3021 (Dropout)       (None, 16, 16, 256)       0         
_________________________________________________________________
max_pooling2d_723 (MaxPoolin (None, 8, 8, 256)         0         
_________________________________________________________________
flatten_247 (Flatten)        (None, 16384)             0         
_________________________________________________________________
dense_497 (Dense)            (None, 2048)              33556480  
_________________________________________________________________
batch_normalization_1770 (Ba (None, 2048)              8192      
_________________________________________________________________
activation_3022 (Activation) (None, 2048)              0         
_________________________________________________________________
dropout_3022 (Dropout)       (None, 2048)              0         
_________________________________________________________________
dense_498 (Dense)            (None, 100)               204900    
=================================================================
Total params: 33,811,151
Trainable params: 33,805,583
Non-trainable params: 5,568
_________________________________________________________________
