Model: "sequential_39"
_________________________________________________________________
Layer (type)                 Output Shape              Param #   
=================================================================
separable_conv2d_448 (Separa (None, 32, 32, 256)       1051      
_________________________________________________________________
activation_490 (Activation)  (None, 32, 32, 256)       0         
_________________________________________________________________
dropout_490 (Dropout)        (None, 32, 32, 256)       0         
_________________________________________________________________
max_pooling2d_106 (MaxPoolin (None, 16, 16, 256)       0         
_________________________________________________________________
separable_conv2d_449 (Separa (None, 16, 16, 16)        6416      
_________________________________________________________________
batch_normalization_274 (Bat (None, 16, 16, 16)        64        
_________________________________________________________________
activation_491 (Activation)  (None, 16, 16, 16)        0         
_________________________________________________________________
dropout_491 (Dropout)        (None, 16, 16, 16)        0         
_________________________________________________________________
max_pooling2d_107 (MaxPoolin (None, 8, 8, 16)          0         
_________________________________________________________________
separable_conv2d_450 (Separa (None, 8, 8, 8)           280       
_________________________________________________________________
activation_492 (Activation)  (None, 8, 8, 8)           0         
_________________________________________________________________
dropout_492 (Dropout)        (None, 8, 8, 8)           0         
_________________________________________________________________
max_pooling2d_108 (MaxPoolin (None, 4, 4, 8)           0         
_________________________________________________________________
separable_conv2d_451 (Separa (None, 4, 4, 16)          216       
_________________________________________________________________
activation_493 (Activation)  (None, 4, 4, 16)          0         
_________________________________________________________________
dropout_493 (Dropout)        (None, 4, 4, 16)          0         
_________________________________________________________________
separable_conv2d_452 (Separa (None, 4, 4, 256)         4496      
_________________________________________________________________
activation_494 (Activation)  (None, 4, 4, 256)         0         
_________________________________________________________________
dropout_494 (Dropout)        (None, 4, 4, 256)         0         
_________________________________________________________________
separable_conv2d_453 (Separa (None, 4, 4, 128)         35200     
_________________________________________________________________
activation_495 (Activation)  (None, 4, 4, 128)         0         
_________________________________________________________________
dropout_495 (Dropout)        (None, 4, 4, 128)         0         
_________________________________________________________________
separable_conv2d_454 (Separa (None, 4, 4, 256)         34176     
_________________________________________________________________
batch_normalization_275 (Bat (None, 4, 4, 256)         1024      
_________________________________________________________________
activation_496 (Activation)  (None, 4, 4, 256)         0         
_________________________________________________________________
dropout_496 (Dropout)        (None, 4, 4, 256)         0         
_________________________________________________________________
separable_conv2d_455 (Separa (None, 4, 4, 1024)        265472    
_________________________________________________________________
batch_normalization_276 (Bat (None, 4, 4, 1024)        4096      
_________________________________________________________________
activation_497 (Activation)  (None, 4, 4, 1024)        0         
_________________________________________________________________
dropout_497 (Dropout)        (None, 4, 4, 1024)        0         
_________________________________________________________________
separable_conv2d_456 (Separa (None, 4, 4, 8)           17416     
_________________________________________________________________
activation_498 (Activation)  (None, 4, 4, 8)           0         
_________________________________________________________________
dropout_498 (Dropout)        (None, 4, 4, 8)           0         
_________________________________________________________________
separable_conv2d_457 (Separa (None, 4, 4, 32)          360       
_________________________________________________________________
activation_499 (Activation)  (None, 4, 4, 32)          0         
_________________________________________________________________
dropout_499 (Dropout)        (None, 4, 4, 32)          0         
_________________________________________________________________
separable_conv2d_458 (Separa (None, 4, 4, 64)          2400      
_________________________________________________________________
activation_500 (Activation)  (None, 4, 4, 64)          0         
_________________________________________________________________
dropout_500 (Dropout)        (None, 4, 4, 64)          0         
_________________________________________________________________
flatten_39 (Flatten)         (None, 1024)              0         
_________________________________________________________________
dense_81 (Dense)             (None, 4096)              4198400   
_________________________________________________________________
activation_501 (Activation)  (None, 4096)              0         
_________________________________________________________________
dropout_501 (Dropout)        (None, 4096)              0         
_________________________________________________________________
dense_82 (Dense)             (None, 100)               409700    
=================================================================
Total params: 4,980,767
Trainable params: 4,978,175
Non-trainable params: 2,592
_________________________________________________________________
