Model: "sequential_88"
_________________________________________________________________
Layer (type)                 Output Shape              Param #   
=================================================================
separable_conv2d_1023 (Separ (None, 32, 32, 32)        155       
_________________________________________________________________
activation_1114 (Activation) (None, 32, 32, 32)        0         
_________________________________________________________________
dropout_1114 (Dropout)       (None, 32, 32, 32)        0         
_________________________________________________________________
separable_conv2d_1024 (Separ (None, 32, 32, 128)       4512      
_________________________________________________________________
batch_normalization_652 (Bat (None, 32, 32, 128)       512       
_________________________________________________________________
activation_1115 (Activation) (None, 32, 32, 128)       0         
_________________________________________________________________
dropout_1115 (Dropout)       (None, 32, 32, 128)       0         
_________________________________________________________________
separable_conv2d_1025 (Separ (None, 32, 32, 8)         2184      
_________________________________________________________________
activation_1116 (Activation) (None, 32, 32, 8)         0         
_________________________________________________________________
dropout_1116 (Dropout)       (None, 32, 32, 8)         0         
_________________________________________________________________
separable_conv2d_1026 (Separ (None, 32, 32, 64)        648       
_________________________________________________________________
activation_1117 (Activation) (None, 32, 32, 64)        0         
_________________________________________________________________
dropout_1117 (Dropout)       (None, 32, 32, 64)        0         
_________________________________________________________________
max_pooling2d_253 (MaxPoolin (None, 16, 16, 64)        0         
_________________________________________________________________
separable_conv2d_1027 (Separ (None, 16, 16, 8)         1096      
_________________________________________________________________
activation_1118 (Activation) (None, 16, 16, 8)         0         
_________________________________________________________________
dropout_1118 (Dropout)       (None, 16, 16, 8)         0         
_________________________________________________________________
separable_conv2d_1028 (Separ (None, 16, 16, 128)       1224      
_________________________________________________________________
batch_normalization_653 (Bat (None, 16, 16, 128)       512       
_________________________________________________________________
activation_1119 (Activation) (None, 16, 16, 128)       0         
_________________________________________________________________
dropout_1119 (Dropout)       (None, 16, 16, 128)       0         
_________________________________________________________________
separable_conv2d_1029 (Separ (None, 16, 16, 64)        9408      
_________________________________________________________________
batch_normalization_654 (Bat (None, 16, 16, 64)        256       
_________________________________________________________________
activation_1120 (Activation) (None, 16, 16, 64)        0         
_________________________________________________________________
dropout_1120 (Dropout)       (None, 16, 16, 64)        0         
_________________________________________________________________
separable_conv2d_1030 (Separ (None, 16, 16, 512)       33856     
_________________________________________________________________
batch_normalization_655 (Bat (None, 16, 16, 512)       2048      
_________________________________________________________________
activation_1121 (Activation) (None, 16, 16, 512)       0         
_________________________________________________________________
dropout_1121 (Dropout)       (None, 16, 16, 512)       0         
_________________________________________________________________
max_pooling2d_254 (MaxPoolin (None, 8, 8, 512)         0         
_________________________________________________________________
separable_conv2d_1031 (Separ (None, 8, 8, 32)          21024     
_________________________________________________________________
batch_normalization_656 (Bat (None, 8, 8, 32)          128       
_________________________________________________________________
activation_1122 (Activation) (None, 8, 8, 32)          0         
_________________________________________________________________
dropout_1122 (Dropout)       (None, 8, 8, 32)          0         
_________________________________________________________________
max_pooling2d_255 (MaxPoolin (None, 4, 4, 32)          0         
_________________________________________________________________
separable_conv2d_1032 (Separ (None, 4, 4, 32)          1344      
_________________________________________________________________
batch_normalization_657 (Bat (None, 4, 4, 32)          128       
_________________________________________________________________
activation_1123 (Activation) (None, 4, 4, 32)          0         
_________________________________________________________________
dropout_1123 (Dropout)       (None, 4, 4, 32)          0         
_________________________________________________________________
separable_conv2d_1033 (Separ (None, 4, 4, 256)         8736      
_________________________________________________________________
batch_normalization_658 (Bat (None, 4, 4, 256)         1024      
_________________________________________________________________
activation_1124 (Activation) (None, 4, 4, 256)         0         
_________________________________________________________________
dropout_1124 (Dropout)       (None, 4, 4, 256)         0         
_________________________________________________________________
flatten_88 (Flatten)         (None, 4096)              0         
_________________________________________________________________
dense_179 (Dense)            (None, 2048)              8390656   
_________________________________________________________________
batch_normalization_659 (Bat (None, 2048)              8192      
_________________________________________________________________
activation_1125 (Activation) (None, 2048)              0         
_________________________________________________________________
dropout_1125 (Dropout)       (None, 2048)              0         
_________________________________________________________________
dense_180 (Dense)            (None, 100)               204900    
=================================================================
Total params: 8,692,543
Trainable params: 8,686,143
Non-trainable params: 6,400
_________________________________________________________________
