Model: "sequential_25"
_________________________________________________________________
Layer (type)                 Output Shape              Param #   
=================================================================
separable_conv2d_282 (Separa (None, 32, 32, 32)        155       
_________________________________________________________________
activation_310 (Activation)  (None, 32, 32, 32)        0         
_________________________________________________________________
dropout_310 (Dropout)        (None, 32, 32, 32)        0         
_________________________________________________________________
separable_conv2d_283 (Separa (None, 32, 32, 128)       4512      
_________________________________________________________________
batch_normalization_165 (Bat (None, 32, 32, 128)       512       
_________________________________________________________________
activation_311 (Activation)  (None, 32, 32, 128)       0         
_________________________________________________________________
dropout_311 (Dropout)        (None, 32, 32, 128)       0         
_________________________________________________________________
separable_conv2d_284 (Separa (None, 32, 32, 8)         2184      
_________________________________________________________________
activation_312 (Activation)  (None, 32, 32, 8)         0         
_________________________________________________________________
dropout_312 (Dropout)        (None, 32, 32, 8)         0         
_________________________________________________________________
separable_conv2d_285 (Separa (None, 32, 32, 64)        648       
_________________________________________________________________
activation_313 (Activation)  (None, 32, 32, 64)        0         
_________________________________________________________________
dropout_313 (Dropout)        (None, 32, 32, 64)        0         
_________________________________________________________________
max_pooling2d_64 (MaxPooling (None, 16, 16, 64)        0         
_________________________________________________________________
separable_conv2d_286 (Separa (None, 16, 16, 8)         1096      
_________________________________________________________________
activation_314 (Activation)  (None, 16, 16, 8)         0         
_________________________________________________________________
dropout_314 (Dropout)        (None, 16, 16, 8)         0         
_________________________________________________________________
separable_conv2d_287 (Separa (None, 16, 16, 128)       1224      
_________________________________________________________________
batch_normalization_166 (Bat (None, 16, 16, 128)       512       
_________________________________________________________________
activation_315 (Activation)  (None, 16, 16, 128)       0         
_________________________________________________________________
dropout_315 (Dropout)        (None, 16, 16, 128)       0         
_________________________________________________________________
separable_conv2d_288 (Separa (None, 16, 16, 64)        9408      
_________________________________________________________________
batch_normalization_167 (Bat (None, 16, 16, 64)        256       
_________________________________________________________________
activation_316 (Activation)  (None, 16, 16, 64)        0         
_________________________________________________________________
dropout_316 (Dropout)        (None, 16, 16, 64)        0         
_________________________________________________________________
separable_conv2d_289 (Separa (None, 16, 16, 512)       33856     
_________________________________________________________________
batch_normalization_168 (Bat (None, 16, 16, 512)       2048      
_________________________________________________________________
activation_317 (Activation)  (None, 16, 16, 512)       0         
_________________________________________________________________
dropout_317 (Dropout)        (None, 16, 16, 512)       0         
_________________________________________________________________
max_pooling2d_65 (MaxPooling (None, 8, 8, 512)         0         
_________________________________________________________________
separable_conv2d_290 (Separa (None, 8, 8, 32)          21024     
_________________________________________________________________
batch_normalization_169 (Bat (None, 8, 8, 32)          128       
_________________________________________________________________
activation_318 (Activation)  (None, 8, 8, 32)          0         
_________________________________________________________________
dropout_318 (Dropout)        (None, 8, 8, 32)          0         
_________________________________________________________________
max_pooling2d_66 (MaxPooling (None, 4, 4, 32)          0         
_________________________________________________________________
separable_conv2d_291 (Separa (None, 4, 4, 32)          1344      
_________________________________________________________________
batch_normalization_170 (Bat (None, 4, 4, 32)          128       
_________________________________________________________________
activation_319 (Activation)  (None, 4, 4, 32)          0         
_________________________________________________________________
dropout_319 (Dropout)        (None, 4, 4, 32)          0         
_________________________________________________________________
separable_conv2d_292 (Separa (None, 4, 4, 256)         8736      
_________________________________________________________________
batch_normalization_171 (Bat (None, 4, 4, 256)         1024      
_________________________________________________________________
activation_320 (Activation)  (None, 4, 4, 256)         0         
_________________________________________________________________
dropout_320 (Dropout)        (None, 4, 4, 256)         0         
_________________________________________________________________
flatten_25 (Flatten)         (None, 4096)              0         
_________________________________________________________________
dense_53 (Dense)             (None, 2048)              8390656   
_________________________________________________________________
batch_normalization_172 (Bat (None, 2048)              8192      
_________________________________________________________________
activation_321 (Activation)  (None, 2048)              0         
_________________________________________________________________
dropout_321 (Dropout)        (None, 2048)              0         
_________________________________________________________________
dense_54 (Dense)             (None, 100)               204900    
=================================================================
Total params: 8,692,543
Trainable params: 8,686,143
Non-trainable params: 6,400
_________________________________________________________________
