Model: "sequential_165"
_________________________________________________________________
Layer (type)                 Output Shape              Param #   
=================================================================
separable_conv2d_1883 (Separ (None, 32, 32, 32)        155       
_________________________________________________________________
activation_2051 (Activation) (None, 32, 32, 32)        0         
_________________________________________________________________
dropout_2051 (Dropout)       (None, 32, 32, 32)        0         
_________________________________________________________________
separable_conv2d_1884 (Separ (None, 32, 32, 128)       4512      
_________________________________________________________________
batch_normalization_1222 (Ba (None, 32, 32, 128)       512       
_________________________________________________________________
activation_2052 (Activation) (None, 32, 32, 128)       0         
_________________________________________________________________
dropout_2052 (Dropout)       (None, 32, 32, 128)       0         
_________________________________________________________________
separable_conv2d_1885 (Separ (None, 32, 32, 8)         2184      
_________________________________________________________________
activation_2053 (Activation) (None, 32, 32, 8)         0         
_________________________________________________________________
dropout_2053 (Dropout)       (None, 32, 32, 8)         0         
_________________________________________________________________
separable_conv2d_1886 (Separ (None, 32, 32, 64)        648       
_________________________________________________________________
activation_2054 (Activation) (None, 32, 32, 64)        0         
_________________________________________________________________
dropout_2054 (Dropout)       (None, 32, 32, 64)        0         
_________________________________________________________________
max_pooling2d_484 (MaxPoolin (None, 16, 16, 64)        0         
_________________________________________________________________
separable_conv2d_1887 (Separ (None, 16, 16, 8)         1096      
_________________________________________________________________
activation_2055 (Activation) (None, 16, 16, 8)         0         
_________________________________________________________________
dropout_2055 (Dropout)       (None, 16, 16, 8)         0         
_________________________________________________________________
separable_conv2d_1888 (Separ (None, 16, 16, 128)       1224      
_________________________________________________________________
batch_normalization_1223 (Ba (None, 16, 16, 128)       512       
_________________________________________________________________
activation_2056 (Activation) (None, 16, 16, 128)       0         
_________________________________________________________________
dropout_2056 (Dropout)       (None, 16, 16, 128)       0         
_________________________________________________________________
separable_conv2d_1889 (Separ (None, 16, 16, 64)        9408      
_________________________________________________________________
batch_normalization_1224 (Ba (None, 16, 16, 64)        256       
_________________________________________________________________
activation_2057 (Activation) (None, 16, 16, 64)        0         
_________________________________________________________________
dropout_2057 (Dropout)       (None, 16, 16, 64)        0         
_________________________________________________________________
separable_conv2d_1890 (Separ (None, 16, 16, 128)       8896      
_________________________________________________________________
activation_2058 (Activation) (None, 16, 16, 128)       0         
_________________________________________________________________
dropout_2058 (Dropout)       (None, 16, 16, 128)       0         
_________________________________________________________________
separable_conv2d_1891 (Separ (None, 16, 16, 32)        5280      
_________________________________________________________________
batch_normalization_1225 (Ba (None, 16, 16, 32)        128       
_________________________________________________________________
activation_2059 (Activation) (None, 16, 16, 32)        0         
_________________________________________________________________
dropout_2059 (Dropout)       (None, 16, 16, 32)        0         
_________________________________________________________________
separable_conv2d_1892 (Separ (None, 16, 16, 256)       8736      
_________________________________________________________________
batch_normalization_1226 (Ba (None, 16, 16, 256)       1024      
_________________________________________________________________
activation_2060 (Activation) (None, 16, 16, 256)       0         
_________________________________________________________________
dropout_2060 (Dropout)       (None, 16, 16, 256)       0         
_________________________________________________________________
max_pooling2d_485 (MaxPoolin (None, 8, 8, 256)         0         
_________________________________________________________________
flatten_165 (Flatten)        (None, 16384)             0         
_________________________________________________________________
dense_333 (Dense)            (None, 2048)              33556480  
_________________________________________________________________
batch_normalization_1227 (Ba (None, 2048)              8192      
_________________________________________________________________
activation_2061 (Activation) (None, 2048)              0         
_________________________________________________________________
dropout_2061 (Dropout)       (None, 2048)              0         
_________________________________________________________________
dense_334 (Dense)            (None, 100)               204900    
=================================================================
Total params: 33,814,143
Trainable params: 33,808,831
Non-trainable params: 5,312
_________________________________________________________________
