Model: "sequential_277"
_________________________________________________________________
Layer (type)                 Output Shape              Param #   
=================================================================
separable_conv2d_3072 (Separ (None, 32, 32, 32)        155       
_________________________________________________________________
activation_3352 (Activation) (None, 32, 32, 32)        0         
_________________________________________________________________
dropout_3352 (Dropout)       (None, 32, 32, 32)        0         
_________________________________________________________________
separable_conv2d_3073 (Separ (None, 32, 32, 256)       8736      
_________________________________________________________________
batch_normalization_1958 (Ba (None, 32, 32, 256)       1024      
_________________________________________________________________
activation_3353 (Activation) (None, 32, 32, 256)       0         
_________________________________________________________________
dropout_3353 (Dropout)       (None, 32, 32, 256)       0         
_________________________________________________________________
separable_conv2d_3074 (Separ (None, 32, 32, 8)         4360      
_________________________________________________________________
activation_3354 (Activation) (None, 32, 32, 8)         0         
_________________________________________________________________
dropout_3354 (Dropout)       (None, 32, 32, 8)         0         
_________________________________________________________________
separable_conv2d_3075 (Separ (None, 32, 32, 64)        648       
_________________________________________________________________
activation_3355 (Activation) (None, 32, 32, 64)        0         
_________________________________________________________________
dropout_3355 (Dropout)       (None, 32, 32, 64)        0         
_________________________________________________________________
max_pooling2d_803 (MaxPoolin (None, 16, 16, 64)        0         
_________________________________________________________________
separable_conv2d_3076 (Separ (None, 16, 16, 16)        1616      
_________________________________________________________________
activation_3356 (Activation) (None, 16, 16, 16)        0         
_________________________________________________________________
dropout_3356 (Dropout)       (None, 16, 16, 16)        0         
_________________________________________________________________
separable_conv2d_3077 (Separ (None, 16, 16, 128)       2320      
_________________________________________________________________
batch_normalization_1959 (Ba (None, 16, 16, 128)       512       
_________________________________________________________________
activation_3357 (Activation) (None, 16, 16, 128)       0         
_________________________________________________________________
dropout_3357 (Dropout)       (None, 16, 16, 128)       0         
_________________________________________________________________
separable_conv2d_3078 (Separ (None, 16, 16, 64)        9408      
_________________________________________________________________
batch_normalization_1960 (Ba (None, 16, 16, 64)        256       
_________________________________________________________________
activation_3358 (Activation) (None, 16, 16, 64)        0         
_________________________________________________________________
dropout_3358 (Dropout)       (None, 16, 16, 64)        0         
_________________________________________________________________
separable_conv2d_3079 (Separ (None, 16, 16, 64)        4736      
_________________________________________________________________
batch_normalization_1961 (Ba (None, 16, 16, 64)        256       
_________________________________________________________________
activation_3359 (Activation) (None, 16, 16, 64)        0         
_________________________________________________________________
dropout_3359 (Dropout)       (None, 16, 16, 64)        0         
_________________________________________________________________
separable_conv2d_3080 (Separ (None, 16, 16, 512)       33856     
_________________________________________________________________
batch_normalization_1962 (Ba (None, 16, 16, 512)       2048      
_________________________________________________________________
activation_3360 (Activation) (None, 16, 16, 512)       0         
_________________________________________________________________
dropout_3360 (Dropout)       (None, 16, 16, 512)       0         
_________________________________________________________________
max_pooling2d_804 (MaxPoolin (None, 8, 8, 512)         0         
_________________________________________________________________
flatten_277 (Flatten)        (None, 32768)             0         
_________________________________________________________________
dense_557 (Dense)            (None, 2048)              67110912  
_________________________________________________________________
batch_normalization_1963 (Ba (None, 2048)              8192      
_________________________________________________________________
activation_3361 (Activation) (None, 2048)              0         
_________________________________________________________________
dropout_3361 (Dropout)       (None, 2048)              0         
_________________________________________________________________
dense_558 (Dense)            (None, 100)               204900    
=================================================================
Total params: 67,393,935
Trainable params: 67,387,791
Non-trainable params: 6,144
_________________________________________________________________
