Model: "sequential_22"
_________________________________________________________________
Layer (type)                 Output Shape              Param #   
=================================================================
separable_conv2d_246 (Separa (None, 32, 32, 32)        155       
_________________________________________________________________
activation_271 (Activation)  (None, 32, 32, 32)        0         
_________________________________________________________________
dropout_271 (Dropout)        (None, 32, 32, 32)        0         
_________________________________________________________________
separable_conv2d_247 (Separa (None, 32, 32, 128)       4512      
_________________________________________________________________
batch_normalization_141 (Bat (None, 32, 32, 128)       512       
_________________________________________________________________
activation_272 (Activation)  (None, 32, 32, 128)       0         
_________________________________________________________________
dropout_272 (Dropout)        (None, 32, 32, 128)       0         
_________________________________________________________________
separable_conv2d_248 (Separa (None, 32, 32, 8)         2184      
_________________________________________________________________
activation_273 (Activation)  (None, 32, 32, 8)         0         
_________________________________________________________________
dropout_273 (Dropout)        (None, 32, 32, 8)         0         
_________________________________________________________________
separable_conv2d_249 (Separa (None, 32, 32, 64)        648       
_________________________________________________________________
activation_274 (Activation)  (None, 32, 32, 64)        0         
_________________________________________________________________
dropout_274 (Dropout)        (None, 32, 32, 64)        0         
_________________________________________________________________
max_pooling2d_55 (MaxPooling (None, 16, 16, 64)        0         
_________________________________________________________________
separable_conv2d_250 (Separa (None, 16, 16, 8)         1096      
_________________________________________________________________
activation_275 (Activation)  (None, 16, 16, 8)         0         
_________________________________________________________________
dropout_275 (Dropout)        (None, 16, 16, 8)         0         
_________________________________________________________________
separable_conv2d_251 (Separa (None, 16, 16, 128)       1224      
_________________________________________________________________
batch_normalization_142 (Bat (None, 16, 16, 128)       512       
_________________________________________________________________
activation_276 (Activation)  (None, 16, 16, 128)       0         
_________________________________________________________________
dropout_276 (Dropout)        (None, 16, 16, 128)       0         
_________________________________________________________________
separable_conv2d_252 (Separa (None, 16, 16, 64)        9408      
_________________________________________________________________
batch_normalization_143 (Bat (None, 16, 16, 64)        256       
_________________________________________________________________
activation_277 (Activation)  (None, 16, 16, 64)        0         
_________________________________________________________________
dropout_277 (Dropout)        (None, 16, 16, 64)        0         
_________________________________________________________________
separable_conv2d_253 (Separa (None, 16, 16, 512)       33856     
_________________________________________________________________
batch_normalization_144 (Bat (None, 16, 16, 512)       2048      
_________________________________________________________________
activation_278 (Activation)  (None, 16, 16, 512)       0         
_________________________________________________________________
dropout_278 (Dropout)        (None, 16, 16, 512)       0         
_________________________________________________________________
max_pooling2d_56 (MaxPooling (None, 8, 8, 512)         0         
_________________________________________________________________
separable_conv2d_254 (Separa (None, 8, 8, 32)          21024     
_________________________________________________________________
batch_normalization_145 (Bat (None, 8, 8, 32)          128       
_________________________________________________________________
activation_279 (Activation)  (None, 8, 8, 32)          0         
_________________________________________________________________
dropout_279 (Dropout)        (None, 8, 8, 32)          0         
_________________________________________________________________
max_pooling2d_57 (MaxPooling (None, 4, 4, 32)          0         
_________________________________________________________________
separable_conv2d_255 (Separa (None, 4, 4, 128)         4512      
_________________________________________________________________
activation_280 (Activation)  (None, 4, 4, 128)         0         
_________________________________________________________________
dropout_280 (Dropout)        (None, 4, 4, 128)         0         
_________________________________________________________________
separable_conv2d_256 (Separa (None, 4, 4, 32)          5280      
_________________________________________________________________
batch_normalization_146 (Bat (None, 4, 4, 32)          128       
_________________________________________________________________
activation_281 (Activation)  (None, 4, 4, 32)          0         
_________________________________________________________________
dropout_281 (Dropout)        (None, 4, 4, 32)          0         
_________________________________________________________________
separable_conv2d_257 (Separa (None, 4, 4, 256)         8736      
_________________________________________________________________
batch_normalization_147 (Bat (None, 4, 4, 256)         1024      
_________________________________________________________________
activation_282 (Activation)  (None, 4, 4, 256)         0         
_________________________________________________________________
dropout_282 (Dropout)        (None, 4, 4, 256)         0         
_________________________________________________________________
flatten_22 (Flatten)         (None, 4096)              0         
_________________________________________________________________
dense_47 (Dense)             (None, 2048)              8390656   
_________________________________________________________________
batch_normalization_148 (Bat (None, 2048)              8192      
_________________________________________________________________
activation_283 (Activation)  (None, 2048)              0         
_________________________________________________________________
dropout_283 (Dropout)        (None, 2048)              0         
_________________________________________________________________
dense_48 (Dense)             (None, 100)               204900    
=================================================================
Total params: 8,700,991
Trainable params: 8,694,591
Non-trainable params: 6,400
_________________________________________________________________
