Model: "sequential_57"
_________________________________________________________________
Layer (type)                 Output Shape              Param #   
=================================================================
separable_conv2d_659 (Separa (None, 32, 32, 32)        155       
_________________________________________________________________
activation_719 (Activation)  (None, 32, 32, 32)        0         
_________________________________________________________________
dropout_719 (Dropout)        (None, 32, 32, 32)        0         
_________________________________________________________________
separable_conv2d_660 (Separa (None, 32, 32, 128)       4512      
_________________________________________________________________
batch_normalization_407 (Bat (None, 32, 32, 128)       512       
_________________________________________________________________
activation_720 (Activation)  (None, 32, 32, 128)       0         
_________________________________________________________________
dropout_720 (Dropout)        (None, 32, 32, 128)       0         
_________________________________________________________________
separable_conv2d_661 (Separa (None, 32, 32, 8)         2184      
_________________________________________________________________
activation_721 (Activation)  (None, 32, 32, 8)         0         
_________________________________________________________________
dropout_721 (Dropout)        (None, 32, 32, 8)         0         
_________________________________________________________________
separable_conv2d_662 (Separa (None, 32, 32, 64)        648       
_________________________________________________________________
activation_722 (Activation)  (None, 32, 32, 64)        0         
_________________________________________________________________
dropout_722 (Dropout)        (None, 32, 32, 64)        0         
_________________________________________________________________
max_pooling2d_160 (MaxPoolin (None, 16, 16, 64)        0         
_________________________________________________________________
separable_conv2d_663 (Separa (None, 16, 16, 8)         1096      
_________________________________________________________________
activation_723 (Activation)  (None, 16, 16, 8)         0         
_________________________________________________________________
dropout_723 (Dropout)        (None, 16, 16, 8)         0         
_________________________________________________________________
separable_conv2d_664 (Separa (None, 16, 16, 128)       1224      
_________________________________________________________________
batch_normalization_408 (Bat (None, 16, 16, 128)       512       
_________________________________________________________________
activation_724 (Activation)  (None, 16, 16, 128)       0         
_________________________________________________________________
dropout_724 (Dropout)        (None, 16, 16, 128)       0         
_________________________________________________________________
separable_conv2d_665 (Separa (None, 16, 16, 64)        9408      
_________________________________________________________________
batch_normalization_409 (Bat (None, 16, 16, 64)        256       
_________________________________________________________________
activation_725 (Activation)  (None, 16, 16, 64)        0         
_________________________________________________________________
dropout_725 (Dropout)        (None, 16, 16, 64)        0         
_________________________________________________________________
separable_conv2d_666 (Separa (None, 16, 16, 512)       33856     
_________________________________________________________________
batch_normalization_410 (Bat (None, 16, 16, 512)       2048      
_________________________________________________________________
activation_726 (Activation)  (None, 16, 16, 512)       0         
_________________________________________________________________
dropout_726 (Dropout)        (None, 16, 16, 512)       0         
_________________________________________________________________
max_pooling2d_161 (MaxPoolin (None, 8, 8, 512)         0         
_________________________________________________________________
separable_conv2d_667 (Separa (None, 8, 8, 32)          21024     
_________________________________________________________________
batch_normalization_411 (Bat (None, 8, 8, 32)          128       
_________________________________________________________________
activation_727 (Activation)  (None, 8, 8, 32)          0         
_________________________________________________________________
dropout_727 (Dropout)        (None, 8, 8, 32)          0         
_________________________________________________________________
max_pooling2d_162 (MaxPoolin (None, 4, 4, 32)          0         
_________________________________________________________________
separable_conv2d_668 (Separa (None, 4, 4, 128)         4512      
_________________________________________________________________
activation_728 (Activation)  (None, 4, 4, 128)         0         
_________________________________________________________________
dropout_728 (Dropout)        (None, 4, 4, 128)         0         
_________________________________________________________________
separable_conv2d_669 (Separa (None, 4, 4, 32)          5280      
_________________________________________________________________
batch_normalization_412 (Bat (None, 4, 4, 32)          128       
_________________________________________________________________
activation_729 (Activation)  (None, 4, 4, 32)          0         
_________________________________________________________________
dropout_729 (Dropout)        (None, 4, 4, 32)          0         
_________________________________________________________________
separable_conv2d_670 (Separa (None, 4, 4, 256)         8736      
_________________________________________________________________
batch_normalization_413 (Bat (None, 4, 4, 256)         1024      
_________________________________________________________________
activation_730 (Activation)  (None, 4, 4, 256)         0         
_________________________________________________________________
dropout_730 (Dropout)        (None, 4, 4, 256)         0         
_________________________________________________________________
flatten_57 (Flatten)         (None, 4096)              0         
_________________________________________________________________
dense_117 (Dense)            (None, 2048)              8390656   
_________________________________________________________________
batch_normalization_414 (Bat (None, 2048)              8192      
_________________________________________________________________
activation_731 (Activation)  (None, 2048)              0         
_________________________________________________________________
dropout_731 (Dropout)        (None, 2048)              0         
_________________________________________________________________
dense_118 (Dense)            (None, 100)               204900    
=================================================================
Total params: 8,700,991
Trainable params: 8,694,591
Non-trainable params: 6,400
_________________________________________________________________
