Model: "sequential_395"
_________________________________________________________________
Layer (type)                 Output Shape              Param #   
=================================================================
separable_conv2d_4188 (Separ (None, 32, 32, 32)        155       
_________________________________________________________________
activation_4586 (Activation) (None, 32, 32, 32)        0         
_________________________________________________________________
dropout_4586 (Dropout)       (None, 32, 32, 32)        0         
_________________________________________________________________
separable_conv2d_4189 (Separ (None, 32, 32, 256)       8736      
_________________________________________________________________
batch_normalization_2603 (Ba (None, 32, 32, 256)       1024      
_________________________________________________________________
activation_4587 (Activation) (None, 32, 32, 256)       0         
_________________________________________________________________
dropout_4587 (Dropout)       (None, 32, 32, 256)       0         
_________________________________________________________________
separable_conv2d_4190 (Separ (None, 32, 32, 8)         4360      
_________________________________________________________________
activation_4588 (Activation) (None, 32, 32, 8)         0         
_________________________________________________________________
dropout_4588 (Dropout)       (None, 32, 32, 8)         0         
_________________________________________________________________
separable_conv2d_4191 (Separ (None, 32, 32, 64)        648       
_________________________________________________________________
activation_4589 (Activation) (None, 32, 32, 64)        0         
_________________________________________________________________
dropout_4589 (Dropout)       (None, 32, 32, 64)        0         
_________________________________________________________________
max_pooling2d_1077 (MaxPooli (None, 16, 16, 64)        0         
_________________________________________________________________
separable_conv2d_4192 (Separ (None, 16, 16, 128)       8896      
_________________________________________________________________
batch_normalization_2604 (Ba (None, 16, 16, 128)       512       
_________________________________________________________________
activation_4590 (Activation) (None, 16, 16, 128)       0         
_________________________________________________________________
dropout_4590 (Dropout)       (None, 16, 16, 128)       0         
_________________________________________________________________
separable_conv2d_4193 (Separ (None, 16, 16, 64)        9408      
_________________________________________________________________
activation_4591 (Activation) (None, 16, 16, 64)        0         
_________________________________________________________________
dropout_4591 (Dropout)       (None, 16, 16, 64)        0         
_________________________________________________________________
separable_conv2d_4194 (Separ (None, 16, 16, 64)        4736      
_________________________________________________________________
batch_normalization_2605 (Ba (None, 16, 16, 64)        256       
_________________________________________________________________
activation_4592 (Activation) (None, 16, 16, 64)        0         
_________________________________________________________________
dropout_4592 (Dropout)       (None, 16, 16, 64)        0         
_________________________________________________________________
separable_conv2d_4195 (Separ (None, 16, 16, 256)       17216     
_________________________________________________________________
batch_normalization_2606 (Ba (None, 16, 16, 256)       1024      
_________________________________________________________________
activation_4593 (Activation) (None, 16, 16, 256)       0         
_________________________________________________________________
dropout_4593 (Dropout)       (None, 16, 16, 256)       0         
_________________________________________________________________
max_pooling2d_1078 (MaxPooli (None, 8, 8, 256)         0         
_________________________________________________________________
flatten_395 (Flatten)        (None, 16384)             0         
_________________________________________________________________
dense_793 (Dense)            (None, 2048)              33556480  
_________________________________________________________________
batch_normalization_2607 (Ba (None, 2048)              8192      
_________________________________________________________________
activation_4594 (Activation) (None, 2048)              0         
_________________________________________________________________
dropout_4594 (Dropout)       (None, 2048)              0         
_________________________________________________________________
dense_794 (Dense)            (None, 100)               204900    
=================================================================
Total params: 33,826,543
Trainable params: 33,821,039
Non-trainable params: 5,504
_________________________________________________________________
