Model: "sequential_146"
_________________________________________________________________
Layer (type)                 Output Shape              Param #   
=================================================================
separable_conv2d_1676 (Separ (None, 32, 32, 32)        155       
_________________________________________________________________
activation_1825 (Activation) (None, 32, 32, 32)        0         
_________________________________________________________________
dropout_1825 (Dropout)       (None, 32, 32, 32)        0         
_________________________________________________________________
separable_conv2d_1677 (Separ (None, 32, 32, 256)       8736      
_________________________________________________________________
batch_normalization_1087 (Ba (None, 32, 32, 256)       1024      
_________________________________________________________________
activation_1826 (Activation) (None, 32, 32, 256)       0         
_________________________________________________________________
dropout_1826 (Dropout)       (None, 32, 32, 256)       0         
_________________________________________________________________
separable_conv2d_1678 (Separ (None, 32, 32, 8)         4360      
_________________________________________________________________
activation_1827 (Activation) (None, 32, 32, 8)         0         
_________________________________________________________________
dropout_1827 (Dropout)       (None, 32, 32, 8)         0         
_________________________________________________________________
max_pooling2d_427 (MaxPoolin (None, 16, 16, 8)         0         
_________________________________________________________________
separable_conv2d_1679 (Separ (None, 16, 16, 64)        648       
_________________________________________________________________
activation_1828 (Activation) (None, 16, 16, 64)        0         
_________________________________________________________________
dropout_1828 (Dropout)       (None, 16, 16, 64)        0         
_________________________________________________________________
max_pooling2d_428 (MaxPoolin (None, 8, 8, 64)          0         
_________________________________________________________________
separable_conv2d_1680 (Separ (None, 8, 8, 8)           1096      
_________________________________________________________________
activation_1829 (Activation) (None, 8, 8, 8)           0         
_________________________________________________________________
dropout_1829 (Dropout)       (None, 8, 8, 8)           0         
_________________________________________________________________
separable_conv2d_1681 (Separ (None, 8, 8, 256)         2376      
_________________________________________________________________
batch_normalization_1088 (Ba (None, 8, 8, 256)         1024      
_________________________________________________________________
activation_1830 (Activation) (None, 8, 8, 256)         0         
_________________________________________________________________
dropout_1830 (Dropout)       (None, 8, 8, 256)         0         
_________________________________________________________________
separable_conv2d_1682 (Separ (None, 8, 8, 64)          18752     
_________________________________________________________________
batch_normalization_1089 (Ba (None, 8, 8, 64)          256       
_________________________________________________________________
activation_1831 (Activation) (None, 8, 8, 64)          0         
_________________________________________________________________
dropout_1831 (Dropout)       (None, 8, 8, 64)          0         
_________________________________________________________________
separable_conv2d_1683 (Separ (None, 8, 8, 512)         33856     
_________________________________________________________________
batch_normalization_1090 (Ba (None, 8, 8, 512)         2048      
_________________________________________________________________
activation_1832 (Activation) (None, 8, 8, 512)         0         
_________________________________________________________________
dropout_1832 (Dropout)       (None, 8, 8, 512)         0         
_________________________________________________________________
max_pooling2d_429 (MaxPoolin (None, 4, 4, 512)         0         
_________________________________________________________________
separable_conv2d_1684 (Separ (None, 4, 4, 128)         70272     
_________________________________________________________________
activation_1833 (Activation) (None, 4, 4, 128)         0         
_________________________________________________________________
dropout_1833 (Dropout)       (None, 4, 4, 128)         0         
_________________________________________________________________
separable_conv2d_1685 (Separ (None, 4, 4, 32)          5280      
_________________________________________________________________
batch_normalization_1091 (Ba (None, 4, 4, 32)          128       
_________________________________________________________________
activation_1834 (Activation) (None, 4, 4, 32)          0         
_________________________________________________________________
dropout_1834 (Dropout)       (None, 4, 4, 32)          0         
_________________________________________________________________
separable_conv2d_1686 (Separ (None, 4, 4, 256)         8736      
_________________________________________________________________
batch_normalization_1092 (Ba (None, 4, 4, 256)         1024      
_________________________________________________________________
activation_1835 (Activation) (None, 4, 4, 256)         0         
_________________________________________________________________
dropout_1835 (Dropout)       (None, 4, 4, 256)         0         
_________________________________________________________________
flatten_146 (Flatten)        (None, 4096)              0         
_________________________________________________________________
dense_295 (Dense)            (None, 2048)              8390656   
_________________________________________________________________
batch_normalization_1093 (Ba (None, 2048)              8192      
_________________________________________________________________
activation_1836 (Activation) (None, 2048)              0         
_________________________________________________________________
dropout_1836 (Dropout)       (None, 2048)              0         
_________________________________________________________________
dense_296 (Dense)            (None, 100)               204900    
=================================================================
Total params: 8,763,519
Trainable params: 8,756,671
Non-trainable params: 6,848
_________________________________________________________________
