Model: "sequential_135"
_________________________________________________________________
Layer (type)                 Output Shape              Param #   
=================================================================
separable_conv2d_1552 (Separ (None, 32, 32, 32)        155       
_________________________________________________________________
activation_1690 (Activation) (None, 32, 32, 32)        0         
_________________________________________________________________
dropout_1690 (Dropout)       (None, 32, 32, 32)        0         
_________________________________________________________________
separable_conv2d_1553 (Separ (None, 32, 32, 256)       8736      
_________________________________________________________________
batch_normalization_1007 (Ba (None, 32, 32, 256)       1024      
_________________________________________________________________
activation_1691 (Activation) (None, 32, 32, 256)       0         
_________________________________________________________________
dropout_1691 (Dropout)       (None, 32, 32, 256)       0         
_________________________________________________________________
separable_conv2d_1554 (Separ (None, 32, 32, 8)         4360      
_________________________________________________________________
activation_1692 (Activation) (None, 32, 32, 8)         0         
_________________________________________________________________
dropout_1692 (Dropout)       (None, 32, 32, 8)         0         
_________________________________________________________________
separable_conv2d_1555 (Separ (None, 32, 32, 64)        648       
_________________________________________________________________
activation_1693 (Activation) (None, 32, 32, 64)        0         
_________________________________________________________________
dropout_1693 (Dropout)       (None, 32, 32, 64)        0         
_________________________________________________________________
max_pooling2d_394 (MaxPoolin (None, 16, 16, 64)        0         
_________________________________________________________________
separable_conv2d_1556 (Separ (None, 16, 16, 16)        1616      
_________________________________________________________________
activation_1694 (Activation) (None, 16, 16, 16)        0         
_________________________________________________________________
dropout_1694 (Dropout)       (None, 16, 16, 16)        0         
_________________________________________________________________
separable_conv2d_1557 (Separ (None, 16, 16, 128)       2320      
_________________________________________________________________
batch_normalization_1008 (Ba (None, 16, 16, 128)       512       
_________________________________________________________________
activation_1695 (Activation) (None, 16, 16, 128)       0         
_________________________________________________________________
dropout_1695 (Dropout)       (None, 16, 16, 128)       0         
_________________________________________________________________
separable_conv2d_1558 (Separ (None, 16, 16, 64)        9408      
_________________________________________________________________
batch_normalization_1009 (Ba (None, 16, 16, 64)        256       
_________________________________________________________________
activation_1696 (Activation) (None, 16, 16, 64)        0         
_________________________________________________________________
dropout_1696 (Dropout)       (None, 16, 16, 64)        0         
_________________________________________________________________
separable_conv2d_1559 (Separ (None, 16, 16, 512)       33856     
_________________________________________________________________
batch_normalization_1010 (Ba (None, 16, 16, 512)       2048      
_________________________________________________________________
activation_1697 (Activation) (None, 16, 16, 512)       0         
_________________________________________________________________
dropout_1697 (Dropout)       (None, 16, 16, 512)       0         
_________________________________________________________________
max_pooling2d_395 (MaxPoolin (None, 8, 8, 512)         0         
_________________________________________________________________
separable_conv2d_1560 (Separ (None, 8, 8, 128)         70272     
_________________________________________________________________
activation_1698 (Activation) (None, 8, 8, 128)         0         
_________________________________________________________________
dropout_1698 (Dropout)       (None, 8, 8, 128)         0         
_________________________________________________________________
separable_conv2d_1561 (Separ (None, 8, 8, 32)          5280      
_________________________________________________________________
batch_normalization_1011 (Ba (None, 8, 8, 32)          128       
_________________________________________________________________
activation_1699 (Activation) (None, 8, 8, 32)          0         
_________________________________________________________________
dropout_1699 (Dropout)       (None, 8, 8, 32)          0         
_________________________________________________________________
separable_conv2d_1562 (Separ (None, 8, 8, 256)         8736      
_________________________________________________________________
activation_1700 (Activation) (None, 8, 8, 256)         0         
_________________________________________________________________
dropout_1700 (Dropout)       (None, 8, 8, 256)         0         
_________________________________________________________________
max_pooling2d_396 (MaxPoolin (None, 4, 4, 256)         0         
_________________________________________________________________
flatten_135 (Flatten)        (None, 4096)              0         
_________________________________________________________________
dense_273 (Dense)            (None, 2048)              8390656   
_________________________________________________________________
batch_normalization_1012 (Ba (None, 2048)              8192      
_________________________________________________________________
activation_1701 (Activation) (None, 2048)              0         
_________________________________________________________________
dropout_1701 (Dropout)       (None, 2048)              0         
_________________________________________________________________
dense_274 (Dense)            (None, 100)               204900    
=================================================================
Total params: 8,753,103
Trainable params: 8,747,023
Non-trainable params: 6,080
_________________________________________________________________
