Model: "sequential_108"
_________________________________________________________________
Layer (type)                 Output Shape              Param #   
=================================================================
separable_conv2d_1251 (Separ (None, 32, 32, 32)        155       
_________________________________________________________________
activation_1362 (Activation) (None, 32, 32, 32)        0         
_________________________________________________________________
dropout_1362 (Dropout)       (None, 32, 32, 32)        0         
_________________________________________________________________
separable_conv2d_1252 (Separ (None, 32, 32, 128)       4512      
_________________________________________________________________
batch_normalization_805 (Bat (None, 32, 32, 128)       512       
_________________________________________________________________
activation_1363 (Activation) (None, 32, 32, 128)       0         
_________________________________________________________________
dropout_1363 (Dropout)       (None, 32, 32, 128)       0         
_________________________________________________________________
separable_conv2d_1253 (Separ (None, 32, 32, 8)         2184      
_________________________________________________________________
batch_normalization_806 (Bat (None, 32, 32, 8)         32        
_________________________________________________________________
activation_1364 (Activation) (None, 32, 32, 8)         0         
_________________________________________________________________
dropout_1364 (Dropout)       (None, 32, 32, 8)         0         
_________________________________________________________________
separable_conv2d_1254 (Separ (None, 32, 32, 64)        648       
_________________________________________________________________
activation_1365 (Activation) (None, 32, 32, 64)        0         
_________________________________________________________________
dropout_1365 (Dropout)       (None, 32, 32, 64)        0         
_________________________________________________________________
max_pooling2d_313 (MaxPoolin (None, 16, 16, 64)        0         
_________________________________________________________________
separable_conv2d_1255 (Separ (None, 16, 16, 8)         1096      
_________________________________________________________________
activation_1366 (Activation) (None, 16, 16, 8)         0         
_________________________________________________________________
dropout_1366 (Dropout)       (None, 16, 16, 8)         0         
_________________________________________________________________
separable_conv2d_1256 (Separ (None, 16, 16, 128)       1224      
_________________________________________________________________
batch_normalization_807 (Bat (None, 16, 16, 128)       512       
_________________________________________________________________
activation_1367 (Activation) (None, 16, 16, 128)       0         
_________________________________________________________________
dropout_1367 (Dropout)       (None, 16, 16, 128)       0         
_________________________________________________________________
separable_conv2d_1257 (Separ (None, 16, 16, 64)        9408      
_________________________________________________________________
batch_normalization_808 (Bat (None, 16, 16, 64)        256       
_________________________________________________________________
activation_1368 (Activation) (None, 16, 16, 64)        0         
_________________________________________________________________
dropout_1368 (Dropout)       (None, 16, 16, 64)        0         
_________________________________________________________________
separable_conv2d_1258 (Separ (None, 16, 16, 512)       33856     
_________________________________________________________________
batch_normalization_809 (Bat (None, 16, 16, 512)       2048      
_________________________________________________________________
activation_1369 (Activation) (None, 16, 16, 512)       0         
_________________________________________________________________
dropout_1369 (Dropout)       (None, 16, 16, 512)       0         
_________________________________________________________________
max_pooling2d_314 (MaxPoolin (None, 8, 8, 512)         0         
_________________________________________________________________
separable_conv2d_1259 (Separ (None, 8, 8, 32)          21024     
_________________________________________________________________
batch_normalization_810 (Bat (None, 8, 8, 32)          128       
_________________________________________________________________
activation_1370 (Activation) (None, 8, 8, 32)          0         
_________________________________________________________________
dropout_1370 (Dropout)       (None, 8, 8, 32)          0         
_________________________________________________________________
max_pooling2d_315 (MaxPoolin (None, 4, 4, 32)          0         
_________________________________________________________________
separable_conv2d_1260 (Separ (None, 4, 4, 128)         4512      
_________________________________________________________________
activation_1371 (Activation) (None, 4, 4, 128)         0         
_________________________________________________________________
dropout_1371 (Dropout)       (None, 4, 4, 128)         0         
_________________________________________________________________
separable_conv2d_1261 (Separ (None, 4, 4, 32)          5280      
_________________________________________________________________
batch_normalization_811 (Bat (None, 4, 4, 32)          128       
_________________________________________________________________
activation_1372 (Activation) (None, 4, 4, 32)          0         
_________________________________________________________________
dropout_1372 (Dropout)       (None, 4, 4, 32)          0         
_________________________________________________________________
separable_conv2d_1262 (Separ (None, 4, 4, 256)         8736      
_________________________________________________________________
batch_normalization_812 (Bat (None, 4, 4, 256)         1024      
_________________________________________________________________
activation_1373 (Activation) (None, 4, 4, 256)         0         
_________________________________________________________________
dropout_1373 (Dropout)       (None, 4, 4, 256)         0         
_________________________________________________________________
flatten_108 (Flatten)        (None, 4096)              0         
_________________________________________________________________
dense_219 (Dense)            (None, 2048)              8390656   
_________________________________________________________________
batch_normalization_813 (Bat (None, 2048)              8192      
_________________________________________________________________
activation_1374 (Activation) (None, 2048)              0         
_________________________________________________________________
dropout_1374 (Dropout)       (None, 2048)              0         
_________________________________________________________________
dense_220 (Dense)            (None, 100)               204900    
=================================================================
Total params: 8,701,023
Trainable params: 8,694,607
Non-trainable params: 6,416
_________________________________________________________________
