Model: "sequential_243"
_________________________________________________________________
Layer (type)                 Output Shape              Param #   
=================================================================
separable_conv2d_2722 (Separ (None, 32, 32, 32)        155       
_________________________________________________________________
activation_2968 (Activation) (None, 32, 32, 32)        0         
_________________________________________________________________
dropout_2968 (Dropout)       (None, 32, 32, 32)        0         
_________________________________________________________________
separable_conv2d_2723 (Separ (None, 32, 32, 256)       8736      
_________________________________________________________________
batch_normalization_1738 (Ba (None, 32, 32, 256)       1024      
_________________________________________________________________
activation_2969 (Activation) (None, 32, 32, 256)       0         
_________________________________________________________________
dropout_2969 (Dropout)       (None, 32, 32, 256)       0         
_________________________________________________________________
separable_conv2d_2724 (Separ (None, 32, 32, 8)         4360      
_________________________________________________________________
activation_2970 (Activation) (None, 32, 32, 8)         0         
_________________________________________________________________
dropout_2970 (Dropout)       (None, 32, 32, 8)         0         
_________________________________________________________________
separable_conv2d_2725 (Separ (None, 32, 32, 256)       2376      
_________________________________________________________________
activation_2971 (Activation) (None, 32, 32, 256)       0         
_________________________________________________________________
dropout_2971 (Dropout)       (None, 32, 32, 256)       0         
_________________________________________________________________
max_pooling2d_711 (MaxPoolin (None, 16, 16, 256)       0         
_________________________________________________________________
separable_conv2d_2726 (Separ (None, 16, 16, 8)         4360      
_________________________________________________________________
activation_2972 (Activation) (None, 16, 16, 8)         0         
_________________________________________________________________
dropout_2972 (Dropout)       (None, 16, 16, 8)         0         
_________________________________________________________________
separable_conv2d_2727 (Separ (None, 16, 16, 256)       2376      
_________________________________________________________________
batch_normalization_1739 (Ba (None, 16, 16, 256)       1024      
_________________________________________________________________
activation_2973 (Activation) (None, 16, 16, 256)       0         
_________________________________________________________________
dropout_2973 (Dropout)       (None, 16, 16, 256)       0         
_________________________________________________________________
separable_conv2d_2728 (Separ (None, 16, 16, 64)        18752     
_________________________________________________________________
batch_normalization_1740 (Ba (None, 16, 16, 64)        256       
_________________________________________________________________
activation_2974 (Activation) (None, 16, 16, 64)        0         
_________________________________________________________________
dropout_2974 (Dropout)       (None, 16, 16, 64)        0         
_________________________________________________________________
separable_conv2d_2729 (Separ (None, 16, 16, 512)       33856     
_________________________________________________________________
batch_normalization_1741 (Ba (None, 16, 16, 512)       2048      
_________________________________________________________________
activation_2975 (Activation) (None, 16, 16, 512)       0         
_________________________________________________________________
dropout_2975 (Dropout)       (None, 16, 16, 512)       0         
_________________________________________________________________
max_pooling2d_712 (MaxPoolin (None, 8, 8, 512)         0         
_________________________________________________________________
separable_conv2d_2730 (Separ (None, 8, 8, 128)         70272     
_________________________________________________________________
activation_2976 (Activation) (None, 8, 8, 128)         0         
_________________________________________________________________
dropout_2976 (Dropout)       (None, 8, 8, 128)         0         
_________________________________________________________________
separable_conv2d_2731 (Separ (None, 8, 8, 32)          5280      
_________________________________________________________________
batch_normalization_1742 (Ba (None, 8, 8, 32)          128       
_________________________________________________________________
activation_2977 (Activation) (None, 8, 8, 32)          0         
_________________________________________________________________
dropout_2977 (Dropout)       (None, 8, 8, 32)          0         
_________________________________________________________________
separable_conv2d_2732 (Separ (None, 8, 8, 256)         8736      
_________________________________________________________________
batch_normalization_1743 (Ba (None, 8, 8, 256)         1024      
_________________________________________________________________
activation_2978 (Activation) (None, 8, 8, 256)         0         
_________________________________________________________________
dropout_2978 (Dropout)       (None, 8, 8, 256)         0         
_________________________________________________________________
max_pooling2d_713 (MaxPoolin (None, 4, 4, 256)         0         
_________________________________________________________________
flatten_243 (Flatten)        (None, 4096)              0         
_________________________________________________________________
dense_489 (Dense)            (None, 2048)              8390656   
_________________________________________________________________
batch_normalization_1744 (Ba (None, 2048)              8192      
_________________________________________________________________
activation_2979 (Activation) (None, 2048)              0         
_________________________________________________________________
dropout_2979 (Dropout)       (None, 2048)              0         
_________________________________________________________________
dense_490 (Dense)            (None, 100)               204900    
=================================================================
Total params: 8,768,511
Trainable params: 8,761,663
Non-trainable params: 6,848
_________________________________________________________________
