Model: "sequential_209"
_________________________________________________________________
Layer (type)                 Output Shape              Param #   
=================================================================
separable_conv2d_2355 (Separ (None, 32, 32, 32)        155       
_________________________________________________________________
activation_2567 (Activation) (None, 32, 32, 32)        0         
_________________________________________________________________
dropout_2567 (Dropout)       (None, 32, 32, 32)        0         
_________________________________________________________________
separable_conv2d_2356 (Separ (None, 32, 32, 256)       8736      
_________________________________________________________________
batch_normalization_1513 (Ba (None, 32, 32, 256)       1024      
_________________________________________________________________
activation_2568 (Activation) (None, 32, 32, 256)       0         
_________________________________________________________________
dropout_2568 (Dropout)       (None, 32, 32, 256)       0         
_________________________________________________________________
separable_conv2d_2357 (Separ (None, 32, 32, 8)         4360      
_________________________________________________________________
activation_2569 (Activation) (None, 32, 32, 8)         0         
_________________________________________________________________
dropout_2569 (Dropout)       (None, 32, 32, 8)         0         
_________________________________________________________________
separable_conv2d_2358 (Separ (None, 32, 32, 64)        648       
_________________________________________________________________
activation_2570 (Activation) (None, 32, 32, 64)        0         
_________________________________________________________________
dropout_2570 (Dropout)       (None, 32, 32, 64)        0         
_________________________________________________________________
max_pooling2d_612 (MaxPoolin (None, 16, 16, 64)        0         
_________________________________________________________________
separable_conv2d_2359 (Separ (None, 16, 16, 16)        1616      
_________________________________________________________________
activation_2571 (Activation) (None, 16, 16, 16)        0         
_________________________________________________________________
dropout_2571 (Dropout)       (None, 16, 16, 16)        0         
_________________________________________________________________
separable_conv2d_2360 (Separ (None, 16, 16, 128)       2320      
_________________________________________________________________
batch_normalization_1514 (Ba (None, 16, 16, 128)       512       
_________________________________________________________________
activation_2572 (Activation) (None, 16, 16, 128)       0         
_________________________________________________________________
dropout_2572 (Dropout)       (None, 16, 16, 128)       0         
_________________________________________________________________
separable_conv2d_2361 (Separ (None, 16, 16, 64)        9408      
_________________________________________________________________
batch_normalization_1515 (Ba (None, 16, 16, 64)        256       
_________________________________________________________________
activation_2573 (Activation) (None, 16, 16, 64)        0         
_________________________________________________________________
dropout_2573 (Dropout)       (None, 16, 16, 64)        0         
_________________________________________________________________
separable_conv2d_2362 (Separ (None, 16, 16, 512)       33856     
_________________________________________________________________
batch_normalization_1516 (Ba (None, 16, 16, 512)       2048      
_________________________________________________________________
activation_2574 (Activation) (None, 16, 16, 512)       0         
_________________________________________________________________
dropout_2574 (Dropout)       (None, 16, 16, 512)       0         
_________________________________________________________________
max_pooling2d_613 (MaxPoolin (None, 8, 8, 512)         0         
_________________________________________________________________
separable_conv2d_2363 (Separ (None, 8, 8, 128)         70272     
_________________________________________________________________
activation_2575 (Activation) (None, 8, 8, 128)         0         
_________________________________________________________________
dropout_2575 (Dropout)       (None, 8, 8, 128)         0         
_________________________________________________________________
separable_conv2d_2364 (Separ (None, 8, 8, 32)          5280      
_________________________________________________________________
activation_2576 (Activation) (None, 8, 8, 32)          0         
_________________________________________________________________
dropout_2576 (Dropout)       (None, 8, 8, 32)          0         
_________________________________________________________________
separable_conv2d_2365 (Separ (None, 8, 8, 256)         8736      
_________________________________________________________________
batch_normalization_1517 (Ba (None, 8, 8, 256)         1024      
_________________________________________________________________
activation_2577 (Activation) (None, 8, 8, 256)         0         
_________________________________________________________________
dropout_2577 (Dropout)       (None, 8, 8, 256)         0         
_________________________________________________________________
max_pooling2d_614 (MaxPoolin (None, 4, 4, 256)         0         
_________________________________________________________________
flatten_209 (Flatten)        (None, 4096)              0         
_________________________________________________________________
dense_421 (Dense)            (None, 2048)              8390656   
_________________________________________________________________
batch_normalization_1518 (Ba (None, 2048)              8192      
_________________________________________________________________
activation_2578 (Activation) (None, 2048)              0         
_________________________________________________________________
dropout_2578 (Dropout)       (None, 2048)              0         
_________________________________________________________________
dense_422 (Dense)            (None, 100)               204900    
=================================================================
Total params: 8,753,999
Trainable params: 8,747,471
Non-trainable params: 6,528
_________________________________________________________________
