Model: "sequential_219"
_________________________________________________________________
Layer (type)                 Output Shape              Param #   
=================================================================
separable_conv2d_2465 (Separ (None, 32, 32, 32)        155       
_________________________________________________________________
activation_2687 (Activation) (None, 32, 32, 32)        0         
_________________________________________________________________
dropout_2687 (Dropout)       (None, 32, 32, 32)        0         
_________________________________________________________________
separable_conv2d_2466 (Separ (None, 32, 32, 256)       8736      
_________________________________________________________________
batch_normalization_1578 (Ba (None, 32, 32, 256)       1024      
_________________________________________________________________
activation_2688 (Activation) (None, 32, 32, 256)       0         
_________________________________________________________________
dropout_2688 (Dropout)       (None, 32, 32, 256)       0         
_________________________________________________________________
separable_conv2d_2467 (Separ (None, 32, 32, 8)         4360      
_________________________________________________________________
activation_2689 (Activation) (None, 32, 32, 8)         0         
_________________________________________________________________
dropout_2689 (Dropout)       (None, 32, 32, 8)         0         
_________________________________________________________________
separable_conv2d_2468 (Separ (None, 32, 32, 64)        648       
_________________________________________________________________
activation_2690 (Activation) (None, 32, 32, 64)        0         
_________________________________________________________________
dropout_2690 (Dropout)       (None, 32, 32, 64)        0         
_________________________________________________________________
max_pooling2d_642 (MaxPoolin (None, 16, 16, 64)        0         
_________________________________________________________________
separable_conv2d_2469 (Separ (None, 16, 16, 16)        1616      
_________________________________________________________________
activation_2691 (Activation) (None, 16, 16, 16)        0         
_________________________________________________________________
dropout_2691 (Dropout)       (None, 16, 16, 16)        0         
_________________________________________________________________
separable_conv2d_2470 (Separ (None, 16, 16, 128)       2320      
_________________________________________________________________
batch_normalization_1579 (Ba (None, 16, 16, 128)       512       
_________________________________________________________________
activation_2692 (Activation) (None, 16, 16, 128)       0         
_________________________________________________________________
dropout_2692 (Dropout)       (None, 16, 16, 128)       0         
_________________________________________________________________
separable_conv2d_2471 (Separ (None, 16, 16, 64)        9408      
_________________________________________________________________
batch_normalization_1580 (Ba (None, 16, 16, 64)        256       
_________________________________________________________________
activation_2693 (Activation) (None, 16, 16, 64)        0         
_________________________________________________________________
dropout_2693 (Dropout)       (None, 16, 16, 64)        0         
_________________________________________________________________
separable_conv2d_2472 (Separ (None, 16, 16, 512)       33856     
_________________________________________________________________
batch_normalization_1581 (Ba (None, 16, 16, 512)       2048      
_________________________________________________________________
activation_2694 (Activation) (None, 16, 16, 512)       0         
_________________________________________________________________
dropout_2694 (Dropout)       (None, 16, 16, 512)       0         
_________________________________________________________________
max_pooling2d_643 (MaxPoolin (None, 8, 8, 512)         0         
_________________________________________________________________
separable_conv2d_2473 (Separ (None, 8, 8, 128)         70272     
_________________________________________________________________
activation_2695 (Activation) (None, 8, 8, 128)         0         
_________________________________________________________________
dropout_2695 (Dropout)       (None, 8, 8, 128)         0         
_________________________________________________________________
separable_conv2d_2474 (Separ (None, 8, 8, 32)          5280      
_________________________________________________________________
batch_normalization_1582 (Ba (None, 8, 8, 32)          128       
_________________________________________________________________
activation_2696 (Activation) (None, 8, 8, 32)          0         
_________________________________________________________________
dropout_2696 (Dropout)       (None, 8, 8, 32)          0         
_________________________________________________________________
separable_conv2d_2475 (Separ (None, 8, 8, 256)         8736      
_________________________________________________________________
batch_normalization_1583 (Ba (None, 8, 8, 256)         1024      
_________________________________________________________________
activation_2697 (Activation) (None, 8, 8, 256)         0         
_________________________________________________________________
dropout_2697 (Dropout)       (None, 8, 8, 256)         0         
_________________________________________________________________
max_pooling2d_644 (MaxPoolin (None, 4, 4, 256)         0         
_________________________________________________________________
flatten_219 (Flatten)        (None, 4096)              0         
_________________________________________________________________
dense_441 (Dense)            (None, 2048)              8390656   
_________________________________________________________________
batch_normalization_1584 (Ba (None, 2048)              8192      
_________________________________________________________________
activation_2698 (Activation) (None, 2048)              0         
_________________________________________________________________
dropout_2698 (Dropout)       (None, 2048)              0         
_________________________________________________________________
dense_442 (Dense)            (None, 100)               204900    
=================================================================
Total params: 8,754,127
Trainable params: 8,747,535
Non-trainable params: 6,592
_________________________________________________________________
