Model: "sequential_267"
_________________________________________________________________
Layer (type)                 Output Shape              Param #   
=================================================================
separable_conv2d_2972 (Separ (None, 32, 32, 32)        155       
_________________________________________________________________
activation_3242 (Activation) (None, 32, 32, 32)        0         
_________________________________________________________________
dropout_3242 (Dropout)       (None, 32, 32, 32)        0         
_________________________________________________________________
separable_conv2d_2973 (Separ (None, 32, 32, 256)       8736      
_________________________________________________________________
batch_normalization_1895 (Ba (None, 32, 32, 256)       1024      
_________________________________________________________________
activation_3243 (Activation) (None, 32, 32, 256)       0         
_________________________________________________________________
dropout_3243 (Dropout)       (None, 32, 32, 256)       0         
_________________________________________________________________
separable_conv2d_2974 (Separ (None, 32, 32, 8)         4360      
_________________________________________________________________
activation_3244 (Activation) (None, 32, 32, 8)         0         
_________________________________________________________________
dropout_3244 (Dropout)       (None, 32, 32, 8)         0         
_________________________________________________________________
separable_conv2d_2975 (Separ (None, 32, 32, 64)        648       
_________________________________________________________________
activation_3245 (Activation) (None, 32, 32, 64)        0         
_________________________________________________________________
dropout_3245 (Dropout)       (None, 32, 32, 64)        0         
_________________________________________________________________
max_pooling2d_776 (MaxPoolin (None, 16, 16, 64)        0         
_________________________________________________________________
separable_conv2d_2976 (Separ (None, 16, 16, 256)       17216     
_________________________________________________________________
batch_normalization_1896 (Ba (None, 16, 16, 256)       1024      
_________________________________________________________________
activation_3246 (Activation) (None, 16, 16, 256)       0         
_________________________________________________________________
dropout_3246 (Dropout)       (None, 16, 16, 256)       0         
_________________________________________________________________
separable_conv2d_2977 (Separ (None, 16, 16, 64)        18752     
_________________________________________________________________
batch_normalization_1897 (Ba (None, 16, 16, 64)        256       
_________________________________________________________________
activation_3247 (Activation) (None, 16, 16, 64)        0         
_________________________________________________________________
dropout_3247 (Dropout)       (None, 16, 16, 64)        0         
_________________________________________________________________
max_pooling2d_777 (MaxPoolin (None, 8, 8, 64)          0         
_________________________________________________________________
separable_conv2d_2978 (Separ (None, 8, 8, 512)         33856     
_________________________________________________________________
batch_normalization_1898 (Ba (None, 8, 8, 512)         2048      
_________________________________________________________________
activation_3248 (Activation) (None, 8, 8, 512)         0         
_________________________________________________________________
dropout_3248 (Dropout)       (None, 8, 8, 512)         0         
_________________________________________________________________
max_pooling2d_778 (MaxPoolin (None, 4, 4, 512)         0         
_________________________________________________________________
separable_conv2d_2979 (Separ (None, 4, 4, 128)         70272     
_________________________________________________________________
activation_3249 (Activation) (None, 4, 4, 128)         0         
_________________________________________________________________
dropout_3249 (Dropout)       (None, 4, 4, 128)         0         
_________________________________________________________________
separable_conv2d_2980 (Separ (None, 4, 4, 32)          5280      
_________________________________________________________________
batch_normalization_1899 (Ba (None, 4, 4, 32)          128       
_________________________________________________________________
activation_3250 (Activation) (None, 4, 4, 32)          0         
_________________________________________________________________
dropout_3250 (Dropout)       (None, 4, 4, 32)          0         
_________________________________________________________________
separable_conv2d_2981 (Separ (None, 4, 4, 256)         8736      
_________________________________________________________________
batch_normalization_1900 (Ba (None, 4, 4, 256)         1024      
_________________________________________________________________
activation_3251 (Activation) (None, 4, 4, 256)         0         
_________________________________________________________________
dropout_3251 (Dropout)       (None, 4, 4, 256)         0         
_________________________________________________________________
flatten_267 (Flatten)        (None, 4096)              0         
_________________________________________________________________
dense_537 (Dense)            (None, 2048)              8390656   
_________________________________________________________________
batch_normalization_1901 (Ba (None, 2048)              8192      
_________________________________________________________________
activation_3252 (Activation) (None, 2048)              0         
_________________________________________________________________
dropout_3252 (Dropout)       (None, 2048)              0         
_________________________________________________________________
dense_538 (Dense)            (None, 100)               204900    
=================================================================
Total params: 8,777,263
Trainable params: 8,770,415
Non-trainable params: 6,848
_________________________________________________________________
