Model: "sequential_278"
_________________________________________________________________
Layer (type)                 Output Shape              Param #   
=================================================================
separable_conv2d_3081 (Separ (None, 32, 32, 32)        155       
_________________________________________________________________
activation_3362 (Activation) (None, 32, 32, 32)        0         
_________________________________________________________________
dropout_3362 (Dropout)       (None, 32, 32, 32)        0         
_________________________________________________________________
separable_conv2d_3082 (Separ (None, 32, 32, 256)       8736      
_________________________________________________________________
batch_normalization_1964 (Ba (None, 32, 32, 256)       1024      
_________________________________________________________________
activation_3363 (Activation) (None, 32, 32, 256)       0         
_________________________________________________________________
dropout_3363 (Dropout)       (None, 32, 32, 256)       0         
_________________________________________________________________
separable_conv2d_3083 (Separ (None, 32, 32, 8)         4360      
_________________________________________________________________
activation_3364 (Activation) (None, 32, 32, 8)         0         
_________________________________________________________________
dropout_3364 (Dropout)       (None, 32, 32, 8)         0         
_________________________________________________________________
separable_conv2d_3084 (Separ (None, 32, 32, 64)        648       
_________________________________________________________________
activation_3365 (Activation) (None, 32, 32, 64)        0         
_________________________________________________________________
dropout_3365 (Dropout)       (None, 32, 32, 64)        0         
_________________________________________________________________
max_pooling2d_805 (MaxPoolin (None, 16, 16, 64)        0         
_________________________________________________________________
separable_conv2d_3085 (Separ (None, 16, 16, 256)       17216     
_________________________________________________________________
batch_normalization_1965 (Ba (None, 16, 16, 256)       1024      
_________________________________________________________________
activation_3366 (Activation) (None, 16, 16, 256)       0         
_________________________________________________________________
dropout_3366 (Dropout)       (None, 16, 16, 256)       0         
_________________________________________________________________
separable_conv2d_3086 (Separ (None, 16, 16, 512)       133888    
_________________________________________________________________
batch_normalization_1966 (Ba (None, 16, 16, 512)       2048      
_________________________________________________________________
activation_3367 (Activation) (None, 16, 16, 512)       0         
_________________________________________________________________
dropout_3367 (Dropout)       (None, 16, 16, 512)       0         
_________________________________________________________________
max_pooling2d_806 (MaxPoolin (None, 8, 8, 512)         0         
_________________________________________________________________
separable_conv2d_3087 (Separ (None, 8, 8, 128)         70272     
_________________________________________________________________
activation_3368 (Activation) (None, 8, 8, 128)         0         
_________________________________________________________________
dropout_3368 (Dropout)       (None, 8, 8, 128)         0         
_________________________________________________________________
separable_conv2d_3088 (Separ (None, 8, 8, 32)          5280      
_________________________________________________________________
activation_3369 (Activation) (None, 8, 8, 32)          0         
_________________________________________________________________
dropout_3369 (Dropout)       (None, 8, 8, 32)          0         
_________________________________________________________________
separable_conv2d_3089 (Separ (None, 8, 8, 256)         8736      
_________________________________________________________________
batch_normalization_1967 (Ba (None, 8, 8, 256)         1024      
_________________________________________________________________
activation_3370 (Activation) (None, 8, 8, 256)         0         
_________________________________________________________________
dropout_3370 (Dropout)       (None, 8, 8, 256)         0         
_________________________________________________________________
max_pooling2d_807 (MaxPoolin (None, 4, 4, 256)         0         
_________________________________________________________________
flatten_278 (Flatten)        (None, 4096)              0         
_________________________________________________________________
dense_559 (Dense)            (None, 2048)              8390656   
_________________________________________________________________
batch_normalization_1968 (Ba (None, 2048)              8192      
_________________________________________________________________
activation_3371 (Activation) (None, 2048)              0         
_________________________________________________________________
dropout_3371 (Dropout)       (None, 2048)              0         
_________________________________________________________________
dense_560 (Dense)            (None, 100)               204900    
=================================================================
Total params: 8,858,159
Trainable params: 8,851,503
Non-trainable params: 6,656
_________________________________________________________________
