Model: "sequential_276"
_________________________________________________________________
Layer (type)                 Output Shape              Param #   
=================================================================
separable_conv2d_3061 (Separ (None, 32, 32, 32)        155       
_________________________________________________________________
activation_3340 (Activation) (None, 32, 32, 32)        0         
_________________________________________________________________
dropout_3340 (Dropout)       (None, 32, 32, 32)        0         
_________________________________________________________________
separable_conv2d_3062 (Separ (None, 32, 32, 256)       8736      
_________________________________________________________________
batch_normalization_1952 (Ba (None, 32, 32, 256)       1024      
_________________________________________________________________
activation_3341 (Activation) (None, 32, 32, 256)       0         
_________________________________________________________________
dropout_3341 (Dropout)       (None, 32, 32, 256)       0         
_________________________________________________________________
separable_conv2d_3063 (Separ (None, 32, 32, 8)         4360      
_________________________________________________________________
activation_3342 (Activation) (None, 32, 32, 8)         0         
_________________________________________________________________
dropout_3342 (Dropout)       (None, 32, 32, 8)         0         
_________________________________________________________________
separable_conv2d_3064 (Separ (None, 32, 32, 64)        648       
_________________________________________________________________
activation_3343 (Activation) (None, 32, 32, 64)        0         
_________________________________________________________________
dropout_3343 (Dropout)       (None, 32, 32, 64)        0         
_________________________________________________________________
max_pooling2d_800 (MaxPoolin (None, 16, 16, 64)        0         
_________________________________________________________________
separable_conv2d_3065 (Separ (None, 16, 16, 16)        1616      
_________________________________________________________________
activation_3344 (Activation) (None, 16, 16, 16)        0         
_________________________________________________________________
dropout_3344 (Dropout)       (None, 16, 16, 16)        0         
_________________________________________________________________
separable_conv2d_3066 (Separ (None, 16, 16, 256)       4496      
_________________________________________________________________
batch_normalization_1953 (Ba (None, 16, 16, 256)       1024      
_________________________________________________________________
activation_3345 (Activation) (None, 16, 16, 256)       0         
_________________________________________________________________
dropout_3345 (Dropout)       (None, 16, 16, 256)       0         
_________________________________________________________________
separable_conv2d_3067 (Separ (None, 16, 16, 64)        18752     
_________________________________________________________________
batch_normalization_1954 (Ba (None, 16, 16, 64)        256       
_________________________________________________________________
activation_3346 (Activation) (None, 16, 16, 64)        0         
_________________________________________________________________
dropout_3346 (Dropout)       (None, 16, 16, 64)        0         
_________________________________________________________________
separable_conv2d_3068 (Separ (None, 16, 16, 512)       33856     
_________________________________________________________________
batch_normalization_1955 (Ba (None, 16, 16, 512)       2048      
_________________________________________________________________
activation_3347 (Activation) (None, 16, 16, 512)       0         
_________________________________________________________________
dropout_3347 (Dropout)       (None, 16, 16, 512)       0         
_________________________________________________________________
max_pooling2d_801 (MaxPoolin (None, 8, 8, 512)         0         
_________________________________________________________________
separable_conv2d_3069 (Separ (None, 8, 8, 128)         70272     
_________________________________________________________________
activation_3348 (Activation) (None, 8, 8, 128)         0         
_________________________________________________________________
dropout_3348 (Dropout)       (None, 8, 8, 128)         0         
_________________________________________________________________
separable_conv2d_3070 (Separ (None, 8, 8, 32)          5280      
_________________________________________________________________
activation_3349 (Activation) (None, 8, 8, 32)          0         
_________________________________________________________________
dropout_3349 (Dropout)       (None, 8, 8, 32)          0         
_________________________________________________________________
separable_conv2d_3071 (Separ (None, 8, 8, 256)         8736      
_________________________________________________________________
batch_normalization_1956 (Ba (None, 8, 8, 256)         1024      
_________________________________________________________________
activation_3350 (Activation) (None, 8, 8, 256)         0         
_________________________________________________________________
dropout_3350 (Dropout)       (None, 8, 8, 256)         0         
_________________________________________________________________
max_pooling2d_802 (MaxPoolin (None, 4, 4, 256)         0         
_________________________________________________________________
flatten_276 (Flatten)        (None, 4096)              0         
_________________________________________________________________
dense_555 (Dense)            (None, 2048)              8390656   
_________________________________________________________________
batch_normalization_1957 (Ba (None, 2048)              8192      
_________________________________________________________________
activation_3351 (Activation) (None, 2048)              0         
_________________________________________________________________
dropout_3351 (Dropout)       (None, 2048)              0         
_________________________________________________________________
dense_556 (Dense)            (None, 100)               204900    
=================================================================
Total params: 8,766,031
Trainable params: 8,759,247
Non-trainable params: 6,784
_________________________________________________________________
