Model: "sequential_223"
_________________________________________________________________
Layer (type)                 Output Shape              Param #   
=================================================================
separable_conv2d_2506 (Separ (None, 32, 32, 32)        155       
_________________________________________________________________
activation_2732 (Activation) (None, 32, 32, 32)        0         
_________________________________________________________________
dropout_2732 (Dropout)       (None, 32, 32, 32)        0         
_________________________________________________________________
separable_conv2d_2507 (Separ (None, 32, 32, 256)       8736      
_________________________________________________________________
batch_normalization_1604 (Ba (None, 32, 32, 256)       1024      
_________________________________________________________________
activation_2733 (Activation) (None, 32, 32, 256)       0         
_________________________________________________________________
dropout_2733 (Dropout)       (None, 32, 32, 256)       0         
_________________________________________________________________
separable_conv2d_2508 (Separ (None, 32, 32, 8)         4360      
_________________________________________________________________
activation_2734 (Activation) (None, 32, 32, 8)         0         
_________________________________________________________________
dropout_2734 (Dropout)       (None, 32, 32, 8)         0         
_________________________________________________________________
separable_conv2d_2509 (Separ (None, 32, 32, 64)        648       
_________________________________________________________________
activation_2735 (Activation) (None, 32, 32, 64)        0         
_________________________________________________________________
dropout_2735 (Dropout)       (None, 32, 32, 64)        0         
_________________________________________________________________
max_pooling2d_653 (MaxPoolin (None, 16, 16, 64)        0         
_________________________________________________________________
separable_conv2d_2510 (Separ (None, 16, 16, 16)        1616      
_________________________________________________________________
activation_2736 (Activation) (None, 16, 16, 16)        0         
_________________________________________________________________
dropout_2736 (Dropout)       (None, 16, 16, 16)        0         
_________________________________________________________________
separable_conv2d_2511 (Separ (None, 16, 16, 128)       2320      
_________________________________________________________________
batch_normalization_1605 (Ba (None, 16, 16, 128)       512       
_________________________________________________________________
activation_2737 (Activation) (None, 16, 16, 128)       0         
_________________________________________________________________
dropout_2737 (Dropout)       (None, 16, 16, 128)       0         
_________________________________________________________________
separable_conv2d_2512 (Separ (None, 16, 16, 64)        9408      
_________________________________________________________________
batch_normalization_1606 (Ba (None, 16, 16, 64)        256       
_________________________________________________________________
activation_2738 (Activation) (None, 16, 16, 64)        0         
_________________________________________________________________
dropout_2738 (Dropout)       (None, 16, 16, 64)        0         
_________________________________________________________________
separable_conv2d_2513 (Separ (None, 16, 16, 512)       33856     
_________________________________________________________________
batch_normalization_1607 (Ba (None, 16, 16, 512)       2048      
_________________________________________________________________
activation_2739 (Activation) (None, 16, 16, 512)       0         
_________________________________________________________________
dropout_2739 (Dropout)       (None, 16, 16, 512)       0         
_________________________________________________________________
max_pooling2d_654 (MaxPoolin (None, 8, 8, 512)         0         
_________________________________________________________________
separable_conv2d_2514 (Separ (None, 8, 8, 128)         70272     
_________________________________________________________________
activation_2740 (Activation) (None, 8, 8, 128)         0         
_________________________________________________________________
dropout_2740 (Dropout)       (None, 8, 8, 128)         0         
_________________________________________________________________
separable_conv2d_2515 (Separ (None, 8, 8, 32)          5280      
_________________________________________________________________
batch_normalization_1608 (Ba (None, 8, 8, 32)          128       
_________________________________________________________________
activation_2741 (Activation) (None, 8, 8, 32)          0         
_________________________________________________________________
dropout_2741 (Dropout)       (None, 8, 8, 32)          0         
_________________________________________________________________
separable_conv2d_2516 (Separ (None, 8, 8, 256)         8736      
_________________________________________________________________
batch_normalization_1609 (Ba (None, 8, 8, 256)         1024      
_________________________________________________________________
activation_2742 (Activation) (None, 8, 8, 256)         0         
_________________________________________________________________
dropout_2742 (Dropout)       (None, 8, 8, 256)         0         
_________________________________________________________________
max_pooling2d_655 (MaxPoolin (None, 4, 4, 256)         0         
_________________________________________________________________
flatten_223 (Flatten)        (None, 4096)              0         
_________________________________________________________________
dense_449 (Dense)            (None, 2048)              8390656   
_________________________________________________________________
batch_normalization_1610 (Ba (None, 2048)              8192      
_________________________________________________________________
activation_2743 (Activation) (None, 2048)              0         
_________________________________________________________________
dropout_2743 (Dropout)       (None, 2048)              0         
_________________________________________________________________
dense_450 (Dense)            (None, 100)               204900    
=================================================================
Total params: 8,754,127
Trainable params: 8,747,535
Non-trainable params: 6,592
_________________________________________________________________
