Model: "sequential_204"
_________________________________________________________________
Layer (type)                 Output Shape              Param #   
=================================================================
separable_conv2d_2303 (Separ (None, 32, 32, 32)        155       
_________________________________________________________________
activation_2510 (Activation) (None, 32, 32, 32)        0         
_________________________________________________________________
dropout_2510 (Dropout)       (None, 32, 32, 32)        0         
_________________________________________________________________
separable_conv2d_2304 (Separ (None, 32, 32, 256)       8736      
_________________________________________________________________
batch_normalization_1480 (Ba (None, 32, 32, 256)       1024      
_________________________________________________________________
activation_2511 (Activation) (None, 32, 32, 256)       0         
_________________________________________________________________
dropout_2511 (Dropout)       (None, 32, 32, 256)       0         
_________________________________________________________________
separable_conv2d_2305 (Separ (None, 32, 32, 8)         4360      
_________________________________________________________________
activation_2512 (Activation) (None, 32, 32, 8)         0         
_________________________________________________________________
dropout_2512 (Dropout)       (None, 32, 32, 8)         0         
_________________________________________________________________
separable_conv2d_2306 (Separ (None, 32, 32, 64)        648       
_________________________________________________________________
activation_2513 (Activation) (None, 32, 32, 64)        0         
_________________________________________________________________
dropout_2513 (Dropout)       (None, 32, 32, 64)        0         
_________________________________________________________________
max_pooling2d_598 (MaxPoolin (None, 16, 16, 64)        0         
_________________________________________________________________
separable_conv2d_2307 (Separ (None, 16, 16, 16)        1616      
_________________________________________________________________
activation_2514 (Activation) (None, 16, 16, 16)        0         
_________________________________________________________________
dropout_2514 (Dropout)       (None, 16, 16, 16)        0         
_________________________________________________________________
separable_conv2d_2308 (Separ (None, 16, 16, 128)       2320      
_________________________________________________________________
batch_normalization_1481 (Ba (None, 16, 16, 128)       512       
_________________________________________________________________
activation_2515 (Activation) (None, 16, 16, 128)       0         
_________________________________________________________________
dropout_2515 (Dropout)       (None, 16, 16, 128)       0         
_________________________________________________________________
separable_conv2d_2309 (Separ (None, 16, 16, 64)        9408      
_________________________________________________________________
batch_normalization_1482 (Ba (None, 16, 16, 64)        256       
_________________________________________________________________
activation_2516 (Activation) (None, 16, 16, 64)        0         
_________________________________________________________________
dropout_2516 (Dropout)       (None, 16, 16, 64)        0         
_________________________________________________________________
separable_conv2d_2310 (Separ (None, 16, 16, 512)       33856     
_________________________________________________________________
batch_normalization_1483 (Ba (None, 16, 16, 512)       2048      
_________________________________________________________________
activation_2517 (Activation) (None, 16, 16, 512)       0         
_________________________________________________________________
dropout_2517 (Dropout)       (None, 16, 16, 512)       0         
_________________________________________________________________
max_pooling2d_599 (MaxPoolin (None, 8, 8, 512)         0         
_________________________________________________________________
separable_conv2d_2311 (Separ (None, 8, 8, 128)         70272     
_________________________________________________________________
activation_2518 (Activation) (None, 8, 8, 128)         0         
_________________________________________________________________
dropout_2518 (Dropout)       (None, 8, 8, 128)         0         
_________________________________________________________________
separable_conv2d_2312 (Separ (None, 8, 8, 32)          5280      
_________________________________________________________________
batch_normalization_1484 (Ba (None, 8, 8, 32)          128       
_________________________________________________________________
activation_2519 (Activation) (None, 8, 8, 32)          0         
_________________________________________________________________
dropout_2519 (Dropout)       (None, 8, 8, 32)          0         
_________________________________________________________________
separable_conv2d_2313 (Separ (None, 8, 8, 256)         8736      
_________________________________________________________________
batch_normalization_1485 (Ba (None, 8, 8, 256)         1024      
_________________________________________________________________
activation_2520 (Activation) (None, 8, 8, 256)         0         
_________________________________________________________________
dropout_2520 (Dropout)       (None, 8, 8, 256)         0         
_________________________________________________________________
max_pooling2d_600 (MaxPoolin (None, 4, 4, 256)         0         
_________________________________________________________________
flatten_204 (Flatten)        (None, 4096)              0         
_________________________________________________________________
dense_411 (Dense)            (None, 2048)              8390656   
_________________________________________________________________
batch_normalization_1486 (Ba (None, 2048)              8192      
_________________________________________________________________
activation_2521 (Activation) (None, 2048)              0         
_________________________________________________________________
dropout_2521 (Dropout)       (None, 2048)              0         
_________________________________________________________________
dense_412 (Dense)            (None, 100)               204900    
=================================================================
Total params: 8,754,127
Trainable params: 8,747,535
Non-trainable params: 6,592
_________________________________________________________________
