Model: "sequential_298"
_________________________________________________________________
Layer (type)                 Output Shape              Param #   
=================================================================
separable_conv2d_3281 (Separ (None, 32, 32, 32)        155       
_________________________________________________________________
activation_3582 (Activation) (None, 32, 32, 32)        0         
_________________________________________________________________
dropout_3582 (Dropout)       (None, 32, 32, 32)        0         
_________________________________________________________________
separable_conv2d_3282 (Separ (None, 32, 32, 256)       8736      
_________________________________________________________________
batch_normalization_2089 (Ba (None, 32, 32, 256)       1024      
_________________________________________________________________
activation_3583 (Activation) (None, 32, 32, 256)       0         
_________________________________________________________________
dropout_3583 (Dropout)       (None, 32, 32, 256)       0         
_________________________________________________________________
separable_conv2d_3283 (Separ (None, 32, 32, 8)         4360      
_________________________________________________________________
activation_3584 (Activation) (None, 32, 32, 8)         0         
_________________________________________________________________
dropout_3584 (Dropout)       (None, 32, 32, 8)         0         
_________________________________________________________________
separable_conv2d_3284 (Separ (None, 32, 32, 64)        648       
_________________________________________________________________
activation_3585 (Activation) (None, 32, 32, 64)        0         
_________________________________________________________________
dropout_3585 (Dropout)       (None, 32, 32, 64)        0         
_________________________________________________________________
max_pooling2d_858 (MaxPoolin (None, 16, 16, 64)        0         
_________________________________________________________________
separable_conv2d_3285 (Separ (None, 16, 16, 16)        1616      
_________________________________________________________________
activation_3586 (Activation) (None, 16, 16, 16)        0         
_________________________________________________________________
dropout_3586 (Dropout)       (None, 16, 16, 16)        0         
_________________________________________________________________
separable_conv2d_3286 (Separ (None, 16, 16, 128)       2320      
_________________________________________________________________
batch_normalization_2090 (Ba (None, 16, 16, 128)       512       
_________________________________________________________________
activation_3587 (Activation) (None, 16, 16, 128)       0         
_________________________________________________________________
dropout_3587 (Dropout)       (None, 16, 16, 128)       0         
_________________________________________________________________
separable_conv2d_3287 (Separ (None, 16, 16, 64)        9408      
_________________________________________________________________
batch_normalization_2091 (Ba (None, 16, 16, 64)        256       
_________________________________________________________________
activation_3588 (Activation) (None, 16, 16, 64)        0         
_________________________________________________________________
dropout_3588 (Dropout)       (None, 16, 16, 64)        0         
_________________________________________________________________
separable_conv2d_3288 (Separ (None, 16, 16, 64)        4736      
_________________________________________________________________
batch_normalization_2092 (Ba (None, 16, 16, 64)        256       
_________________________________________________________________
activation_3589 (Activation) (None, 16, 16, 64)        0         
_________________________________________________________________
dropout_3589 (Dropout)       (None, 16, 16, 64)        0         
_________________________________________________________________
separable_conv2d_3289 (Separ (None, 16, 16, 512)       33856     
_________________________________________________________________
batch_normalization_2093 (Ba (None, 16, 16, 512)       2048      
_________________________________________________________________
activation_3590 (Activation) (None, 16, 16, 512)       0         
_________________________________________________________________
dropout_3590 (Dropout)       (None, 16, 16, 512)       0         
_________________________________________________________________
max_pooling2d_859 (MaxPoolin (None, 8, 8, 512)         0         
_________________________________________________________________
flatten_298 (Flatten)        (None, 32768)             0         
_________________________________________________________________
dense_599 (Dense)            (None, 2048)              67110912  
_________________________________________________________________
batch_normalization_2094 (Ba (None, 2048)              8192      
_________________________________________________________________
activation_3591 (Activation) (None, 2048)              0         
_________________________________________________________________
dropout_3591 (Dropout)       (None, 2048)              0         
_________________________________________________________________
dense_600 (Dense)            (None, 100)               204900    
=================================================================
Total params: 67,393,935
Trainable params: 67,387,791
Non-trainable params: 6,144
_________________________________________________________________
