Model: "sequential_84"
_________________________________________________________________
Layer (type)                 Output Shape              Param #   
=================================================================
separable_conv2d_976 (Separa (None, 32, 32, 32)        155       
_________________________________________________________________
activation_1063 (Activation) (None, 32, 32, 32)        0         
_________________________________________________________________
dropout_1063 (Dropout)       (None, 32, 32, 32)        0         
_________________________________________________________________
separable_conv2d_977 (Separa (None, 32, 32, 128)       4512      
_________________________________________________________________
batch_normalization_620 (Bat (None, 32, 32, 128)       512       
_________________________________________________________________
activation_1064 (Activation) (None, 32, 32, 128)       0         
_________________________________________________________________
dropout_1064 (Dropout)       (None, 32, 32, 128)       0         
_________________________________________________________________
separable_conv2d_978 (Separa (None, 32, 32, 8)         2184      
_________________________________________________________________
activation_1065 (Activation) (None, 32, 32, 8)         0         
_________________________________________________________________
dropout_1065 (Dropout)       (None, 32, 32, 8)         0         
_________________________________________________________________
separable_conv2d_979 (Separa (None, 32, 32, 8)         144       
_________________________________________________________________
activation_1066 (Activation) (None, 32, 32, 8)         0         
_________________________________________________________________
dropout_1066 (Dropout)       (None, 32, 32, 8)         0         
_________________________________________________________________
max_pooling2d_241 (MaxPoolin (None, 16, 16, 8)         0         
_________________________________________________________________
separable_conv2d_980 (Separa (None, 16, 16, 8)         144       
_________________________________________________________________
activation_1067 (Activation) (None, 16, 16, 8)         0         
_________________________________________________________________
dropout_1067 (Dropout)       (None, 16, 16, 8)         0         
_________________________________________________________________
separable_conv2d_981 (Separa (None, 16, 16, 128)       1224      
_________________________________________________________________
batch_normalization_621 (Bat (None, 16, 16, 128)       512       
_________________________________________________________________
activation_1068 (Activation) (None, 16, 16, 128)       0         
_________________________________________________________________
dropout_1068 (Dropout)       (None, 16, 16, 128)       0         
_________________________________________________________________
separable_conv2d_982 (Separa (None, 16, 16, 64)        9408      
_________________________________________________________________
batch_normalization_622 (Bat (None, 16, 16, 64)        256       
_________________________________________________________________
activation_1069 (Activation) (None, 16, 16, 64)        0         
_________________________________________________________________
dropout_1069 (Dropout)       (None, 16, 16, 64)        0         
_________________________________________________________________
separable_conv2d_983 (Separa (None, 16, 16, 512)       33856     
_________________________________________________________________
batch_normalization_623 (Bat (None, 16, 16, 512)       2048      
_________________________________________________________________
activation_1070 (Activation) (None, 16, 16, 512)       0         
_________________________________________________________________
dropout_1070 (Dropout)       (None, 16, 16, 512)       0         
_________________________________________________________________
max_pooling2d_242 (MaxPoolin (None, 8, 8, 512)         0         
_________________________________________________________________
separable_conv2d_984 (Separa (None, 8, 8, 32)          21024     
_________________________________________________________________
batch_normalization_624 (Bat (None, 8, 8, 32)          128       
_________________________________________________________________
activation_1071 (Activation) (None, 8, 8, 32)          0         
_________________________________________________________________
dropout_1071 (Dropout)       (None, 8, 8, 32)          0         
_________________________________________________________________
max_pooling2d_243 (MaxPoolin (None, 4, 4, 32)          0         
_________________________________________________________________
separable_conv2d_985 (Separa (None, 4, 4, 128)         4512      
_________________________________________________________________
activation_1072 (Activation) (None, 4, 4, 128)         0         
_________________________________________________________________
dropout_1072 (Dropout)       (None, 4, 4, 128)         0         
_________________________________________________________________
separable_conv2d_986 (Separa (None, 4, 4, 32)          5280      
_________________________________________________________________
batch_normalization_625 (Bat (None, 4, 4, 32)          128       
_________________________________________________________________
activation_1073 (Activation) (None, 4, 4, 32)          0         
_________________________________________________________________
dropout_1073 (Dropout)       (None, 4, 4, 32)          0         
_________________________________________________________________
separable_conv2d_987 (Separa (None, 4, 4, 256)         8736      
_________________________________________________________________
batch_normalization_626 (Bat (None, 4, 4, 256)         1024      
_________________________________________________________________
activation_1074 (Activation) (None, 4, 4, 256)         0         
_________________________________________________________________
dropout_1074 (Dropout)       (None, 4, 4, 256)         0         
_________________________________________________________________
flatten_84 (Flatten)         (None, 4096)              0         
_________________________________________________________________
dense_171 (Dense)            (None, 2048)              8390656   
_________________________________________________________________
batch_normalization_627 (Bat (None, 2048)              8192      
_________________________________________________________________
activation_1075 (Activation) (None, 2048)              0         
_________________________________________________________________
dropout_1075 (Dropout)       (None, 2048)              0         
_________________________________________________________________
dense_172 (Dense)            (None, 100)               204900    
=================================================================
Total params: 8,699,535
Trainable params: 8,693,135
Non-trainable params: 6,400
_________________________________________________________________
