Model: "sequential_33"
_________________________________________________________________
Layer (type)                 Output Shape              Param #   
=================================================================
separable_conv2d_376 (Separa (None, 32, 32, 32)        155       
_________________________________________________________________
activation_412 (Activation)  (None, 32, 32, 32)        0         
_________________________________________________________________
dropout_412 (Dropout)        (None, 32, 32, 32)        0         
_________________________________________________________________
separable_conv2d_377 (Separa (None, 32, 32, 128)       4512      
_________________________________________________________________
batch_normalization_227 (Bat (None, 32, 32, 128)       512       
_________________________________________________________________
activation_413 (Activation)  (None, 32, 32, 128)       0         
_________________________________________________________________
dropout_413 (Dropout)        (None, 32, 32, 128)       0         
_________________________________________________________________
separable_conv2d_378 (Separa (None, 32, 32, 8)         2184      
_________________________________________________________________
activation_414 (Activation)  (None, 32, 32, 8)         0         
_________________________________________________________________
dropout_414 (Dropout)        (None, 32, 32, 8)         0         
_________________________________________________________________
separable_conv2d_379 (Separa (None, 32, 32, 64)        648       
_________________________________________________________________
activation_415 (Activation)  (None, 32, 32, 64)        0         
_________________________________________________________________
dropout_415 (Dropout)        (None, 32, 32, 64)        0         
_________________________________________________________________
max_pooling2d_88 (MaxPooling (None, 16, 16, 64)        0         
_________________________________________________________________
separable_conv2d_380 (Separa (None, 16, 16, 8)         1096      
_________________________________________________________________
activation_416 (Activation)  (None, 16, 16, 8)         0         
_________________________________________________________________
dropout_416 (Dropout)        (None, 16, 16, 8)         0         
_________________________________________________________________
separable_conv2d_381 (Separa (None, 16, 16, 128)       1224      
_________________________________________________________________
batch_normalization_228 (Bat (None, 16, 16, 128)       512       
_________________________________________________________________
activation_417 (Activation)  (None, 16, 16, 128)       0         
_________________________________________________________________
dropout_417 (Dropout)        (None, 16, 16, 128)       0         
_________________________________________________________________
separable_conv2d_382 (Separa (None, 16, 16, 64)        9408      
_________________________________________________________________
batch_normalization_229 (Bat (None, 16, 16, 64)        256       
_________________________________________________________________
activation_418 (Activation)  (None, 16, 16, 64)        0         
_________________________________________________________________
dropout_418 (Dropout)        (None, 16, 16, 64)        0         
_________________________________________________________________
separable_conv2d_383 (Separa (None, 16, 16, 512)       33856     
_________________________________________________________________
batch_normalization_230 (Bat (None, 16, 16, 512)       2048      
_________________________________________________________________
activation_419 (Activation)  (None, 16, 16, 512)       0         
_________________________________________________________________
dropout_419 (Dropout)        (None, 16, 16, 512)       0         
_________________________________________________________________
max_pooling2d_89 (MaxPooling (None, 8, 8, 512)         0         
_________________________________________________________________
separable_conv2d_384 (Separa (None, 8, 8, 32)          21024     
_________________________________________________________________
batch_normalization_231 (Bat (None, 8, 8, 32)          128       
_________________________________________________________________
activation_420 (Activation)  (None, 8, 8, 32)          0         
_________________________________________________________________
dropout_420 (Dropout)        (None, 8, 8, 32)          0         
_________________________________________________________________
max_pooling2d_90 (MaxPooling (None, 4, 4, 32)          0         
_________________________________________________________________
separable_conv2d_385 (Separa (None, 4, 4, 128)         4512      
_________________________________________________________________
activation_421 (Activation)  (None, 4, 4, 128)         0         
_________________________________________________________________
dropout_421 (Dropout)        (None, 4, 4, 128)         0         
_________________________________________________________________
separable_conv2d_386 (Separa (None, 4, 4, 32)          5280      
_________________________________________________________________
batch_normalization_232 (Bat (None, 4, 4, 32)          128       
_________________________________________________________________
activation_422 (Activation)  (None, 4, 4, 32)          0         
_________________________________________________________________
dropout_422 (Dropout)        (None, 4, 4, 32)          0         
_________________________________________________________________
separable_conv2d_387 (Separa (None, 4, 4, 256)         8736      
_________________________________________________________________
batch_normalization_233 (Bat (None, 4, 4, 256)         1024      
_________________________________________________________________
activation_423 (Activation)  (None, 4, 4, 256)         0         
_________________________________________________________________
dropout_423 (Dropout)        (None, 4, 4, 256)         0         
_________________________________________________________________
flatten_33 (Flatten)         (None, 4096)              0         
_________________________________________________________________
dense_69 (Dense)             (None, 2048)              8390656   
_________________________________________________________________
batch_normalization_234 (Bat (None, 2048)              8192      
_________________________________________________________________
activation_424 (Activation)  (None, 2048)              0         
_________________________________________________________________
dropout_424 (Dropout)        (None, 2048)              0         
_________________________________________________________________
dense_70 (Dense)             (None, 100)               204900    
=================================================================
Total params: 8,700,991
Trainable params: 8,694,591
Non-trainable params: 6,400
_________________________________________________________________
