Model: "sequential_128"
_________________________________________________________________
Layer (type)                 Output Shape              Param #   
=================================================================
separable_conv2d_1474 (Separ (None, 32, 32, 32)        155       
_________________________________________________________________
activation_1605 (Activation) (None, 32, 32, 32)        0         
_________________________________________________________________
dropout_1605 (Dropout)       (None, 32, 32, 32)        0         
_________________________________________________________________
separable_conv2d_1475 (Separ (None, 32, 32, 256)       8736      
_________________________________________________________________
batch_normalization_957 (Bat (None, 32, 32, 256)       1024      
_________________________________________________________________
activation_1606 (Activation) (None, 32, 32, 256)       0         
_________________________________________________________________
dropout_1606 (Dropout)       (None, 32, 32, 256)       0         
_________________________________________________________________
separable_conv2d_1476 (Separ (None, 32, 32, 8)         4360      
_________________________________________________________________
activation_1607 (Activation) (None, 32, 32, 8)         0         
_________________________________________________________________
dropout_1607 (Dropout)       (None, 32, 32, 8)         0         
_________________________________________________________________
separable_conv2d_1477 (Separ (None, 32, 32, 64)        648       
_________________________________________________________________
activation_1608 (Activation) (None, 32, 32, 64)        0         
_________________________________________________________________
dropout_1608 (Dropout)       (None, 32, 32, 64)        0         
_________________________________________________________________
max_pooling2d_373 (MaxPoolin (None, 16, 16, 64)        0         
_________________________________________________________________
separable_conv2d_1478 (Separ (None, 16, 16, 16)        1616      
_________________________________________________________________
activation_1609 (Activation) (None, 16, 16, 16)        0         
_________________________________________________________________
dropout_1609 (Dropout)       (None, 16, 16, 16)        0         
_________________________________________________________________
separable_conv2d_1479 (Separ (None, 16, 16, 128)       2320      
_________________________________________________________________
batch_normalization_958 (Bat (None, 16, 16, 128)       512       
_________________________________________________________________
activation_1610 (Activation) (None, 16, 16, 128)       0         
_________________________________________________________________
dropout_1610 (Dropout)       (None, 16, 16, 128)       0         
_________________________________________________________________
separable_conv2d_1480 (Separ (None, 16, 16, 64)        9408      
_________________________________________________________________
batch_normalization_959 (Bat (None, 16, 16, 64)        256       
_________________________________________________________________
activation_1611 (Activation) (None, 16, 16, 64)        0         
_________________________________________________________________
dropout_1611 (Dropout)       (None, 16, 16, 64)        0         
_________________________________________________________________
separable_conv2d_1481 (Separ (None, 16, 16, 512)       33856     
_________________________________________________________________
batch_normalization_960 (Bat (None, 16, 16, 512)       2048      
_________________________________________________________________
activation_1612 (Activation) (None, 16, 16, 512)       0         
_________________________________________________________________
dropout_1612 (Dropout)       (None, 16, 16, 512)       0         
_________________________________________________________________
max_pooling2d_374 (MaxPoolin (None, 8, 8, 512)         0         
_________________________________________________________________
separable_conv2d_1482 (Separ (None, 8, 8, 128)         70272     
_________________________________________________________________
activation_1613 (Activation) (None, 8, 8, 128)         0         
_________________________________________________________________
dropout_1613 (Dropout)       (None, 8, 8, 128)         0         
_________________________________________________________________
separable_conv2d_1483 (Separ (None, 8, 8, 32)          5280      
_________________________________________________________________
activation_1614 (Activation) (None, 8, 8, 32)          0         
_________________________________________________________________
dropout_1614 (Dropout)       (None, 8, 8, 32)          0         
_________________________________________________________________
separable_conv2d_1484 (Separ (None, 8, 8, 256)         8736      
_________________________________________________________________
batch_normalization_961 (Bat (None, 8, 8, 256)         1024      
_________________________________________________________________
activation_1615 (Activation) (None, 8, 8, 256)         0         
_________________________________________________________________
dropout_1615 (Dropout)       (None, 8, 8, 256)         0         
_________________________________________________________________
max_pooling2d_375 (MaxPoolin (None, 4, 4, 256)         0         
_________________________________________________________________
flatten_128 (Flatten)        (None, 4096)              0         
_________________________________________________________________
dense_259 (Dense)            (None, 2048)              8390656   
_________________________________________________________________
batch_normalization_962 (Bat (None, 2048)              8192      
_________________________________________________________________
activation_1616 (Activation) (None, 2048)              0         
_________________________________________________________________
dropout_1616 (Dropout)       (None, 2048)              0         
_________________________________________________________________
dense_260 (Dense)            (None, 100)               204900    
=================================================================
Total params: 8,753,999
Trainable params: 8,747,471
Non-trainable params: 6,528
_________________________________________________________________
