Model: "sequential_195"
_________________________________________________________________
Layer (type)                 Output Shape              Param #   
=================================================================
separable_conv2d_2207 (Separ (None, 32, 32, 32)        155       
_________________________________________________________________
activation_2405 (Activation) (None, 32, 32, 32)        0         
_________________________________________________________________
dropout_2405 (Dropout)       (None, 32, 32, 32)        0         
_________________________________________________________________
separable_conv2d_2208 (Separ (None, 32, 32, 256)       8736      
_________________________________________________________________
batch_normalization_1422 (Ba (None, 32, 32, 256)       1024      
_________________________________________________________________
activation_2406 (Activation) (None, 32, 32, 256)       0         
_________________________________________________________________
dropout_2406 (Dropout)       (None, 32, 32, 256)       0         
_________________________________________________________________
separable_conv2d_2209 (Separ (None, 32, 32, 8)         4360      
_________________________________________________________________
activation_2407 (Activation) (None, 32, 32, 8)         0         
_________________________________________________________________
dropout_2407 (Dropout)       (None, 32, 32, 8)         0         
_________________________________________________________________
separable_conv2d_2210 (Separ (None, 32, 32, 64)        648       
_________________________________________________________________
activation_2408 (Activation) (None, 32, 32, 64)        0         
_________________________________________________________________
dropout_2408 (Dropout)       (None, 32, 32, 64)        0         
_________________________________________________________________
max_pooling2d_572 (MaxPoolin (None, 16, 16, 64)        0         
_________________________________________________________________
separable_conv2d_2211 (Separ (None, 16, 16, 16)        1616      
_________________________________________________________________
activation_2409 (Activation) (None, 16, 16, 16)        0         
_________________________________________________________________
dropout_2409 (Dropout)       (None, 16, 16, 16)        0         
_________________________________________________________________
separable_conv2d_2212 (Separ (None, 16, 16, 128)       2320      
_________________________________________________________________
batch_normalization_1423 (Ba (None, 16, 16, 128)       512       
_________________________________________________________________
activation_2410 (Activation) (None, 16, 16, 128)       0         
_________________________________________________________________
dropout_2410 (Dropout)       (None, 16, 16, 128)       0         
_________________________________________________________________
separable_conv2d_2213 (Separ (None, 16, 16, 64)        9408      
_________________________________________________________________
batch_normalization_1424 (Ba (None, 16, 16, 64)        256       
_________________________________________________________________
activation_2411 (Activation) (None, 16, 16, 64)        0         
_________________________________________________________________
dropout_2411 (Dropout)       (None, 16, 16, 64)        0         
_________________________________________________________________
separable_conv2d_2214 (Separ (None, 16, 16, 512)       33856     
_________________________________________________________________
batch_normalization_1425 (Ba (None, 16, 16, 512)       2048      
_________________________________________________________________
activation_2412 (Activation) (None, 16, 16, 512)       0         
_________________________________________________________________
dropout_2412 (Dropout)       (None, 16, 16, 512)       0         
_________________________________________________________________
max_pooling2d_573 (MaxPoolin (None, 8, 8, 512)         0         
_________________________________________________________________
separable_conv2d_2215 (Separ (None, 8, 8, 128)         70272     
_________________________________________________________________
activation_2413 (Activation) (None, 8, 8, 128)         0         
_________________________________________________________________
dropout_2413 (Dropout)       (None, 8, 8, 128)         0         
_________________________________________________________________
separable_conv2d_2216 (Separ (None, 8, 8, 32)          5280      
_________________________________________________________________
batch_normalization_1426 (Ba (None, 8, 8, 32)          128       
_________________________________________________________________
activation_2414 (Activation) (None, 8, 8, 32)          0         
_________________________________________________________________
dropout_2414 (Dropout)       (None, 8, 8, 32)          0         
_________________________________________________________________
separable_conv2d_2217 (Separ (None, 8, 8, 256)         8736      
_________________________________________________________________
batch_normalization_1427 (Ba (None, 8, 8, 256)         1024      
_________________________________________________________________
activation_2415 (Activation) (None, 8, 8, 256)         0         
_________________________________________________________________
dropout_2415 (Dropout)       (None, 8, 8, 256)         0         
_________________________________________________________________
max_pooling2d_574 (MaxPoolin (None, 4, 4, 256)         0         
_________________________________________________________________
flatten_195 (Flatten)        (None, 4096)              0         
_________________________________________________________________
dense_393 (Dense)            (None, 2048)              8390656   
_________________________________________________________________
batch_normalization_1428 (Ba (None, 2048)              8192      
_________________________________________________________________
activation_2416 (Activation) (None, 2048)              0         
_________________________________________________________________
dropout_2416 (Dropout)       (None, 2048)              0         
_________________________________________________________________
dense_394 (Dense)            (None, 100)               204900    
=================================================================
Total params: 8,754,127
Trainable params: 8,747,535
Non-trainable params: 6,592
_________________________________________________________________
