Model: "sequential_379"
_________________________________________________________________
Layer (type)                 Output Shape              Param #   
=================================================================
separable_conv2d_4043 (Separ (None, 32, 32, 32)        155       
_________________________________________________________________
activation_4425 (Activation) (None, 32, 32, 32)        0         
_________________________________________________________________
dropout_4425 (Dropout)       (None, 32, 32, 32)        0         
_________________________________________________________________
separable_conv2d_4044 (Separ (None, 32, 32, 8)         552       
_________________________________________________________________
activation_4426 (Activation) (None, 32, 32, 8)         0         
_________________________________________________________________
dropout_4426 (Dropout)       (None, 32, 32, 8)         0         
_________________________________________________________________
separable_conv2d_4045 (Separ (None, 32, 32, 64)        648       
_________________________________________________________________
activation_4427 (Activation) (None, 32, 32, 64)        0         
_________________________________________________________________
dropout_4427 (Dropout)       (None, 32, 32, 64)        0         
_________________________________________________________________
max_pooling2d_1042 (MaxPooli (None, 16, 16, 64)        0         
_________________________________________________________________
separable_conv2d_4046 (Separ (None, 16, 16, 16)        1616      
_________________________________________________________________
activation_4428 (Activation) (None, 16, 16, 16)        0         
_________________________________________________________________
dropout_4428 (Dropout)       (None, 16, 16, 16)        0         
_________________________________________________________________
separable_conv2d_4047 (Separ (None, 16, 16, 128)       2320      
_________________________________________________________________
batch_normalization_2521 (Ba (None, 16, 16, 128)       512       
_________________________________________________________________
activation_4429 (Activation) (None, 16, 16, 128)       0         
_________________________________________________________________
dropout_4429 (Dropout)       (None, 16, 16, 128)       0         
_________________________________________________________________
separable_conv2d_4048 (Separ (None, 16, 16, 64)        9408      
_________________________________________________________________
batch_normalization_2522 (Ba (None, 16, 16, 64)        256       
_________________________________________________________________
activation_4430 (Activation) (None, 16, 16, 64)        0         
_________________________________________________________________
dropout_4430 (Dropout)       (None, 16, 16, 64)        0         
_________________________________________________________________
separable_conv2d_4049 (Separ (None, 16, 16, 32)        2656      
_________________________________________________________________
activation_4431 (Activation) (None, 16, 16, 32)        0         
_________________________________________________________________
dropout_4431 (Dropout)       (None, 16, 16, 32)        0         
_________________________________________________________________
separable_conv2d_4050 (Separ (None, 16, 16, 256)       8736      
_________________________________________________________________
batch_normalization_2523 (Ba (None, 16, 16, 256)       1024      
_________________________________________________________________
activation_4432 (Activation) (None, 16, 16, 256)       0         
_________________________________________________________________
dropout_4432 (Dropout)       (None, 16, 16, 256)       0         
_________________________________________________________________
max_pooling2d_1043 (MaxPooli (None, 8, 8, 256)         0         
_________________________________________________________________
flatten_379 (Flatten)        (None, 16384)             0         
_________________________________________________________________
dense_761 (Dense)            (None, 2048)              33556480  
_________________________________________________________________
batch_normalization_2524 (Ba (None, 2048)              8192      
_________________________________________________________________
activation_4433 (Activation) (None, 2048)              0         
_________________________________________________________________
dropout_4433 (Dropout)       (None, 2048)              0         
_________________________________________________________________
dense_762 (Dense)            (None, 100)               204900    
=================================================================
Total params: 33,797,455
Trainable params: 33,792,463
Non-trainable params: 4,992
_________________________________________________________________
