Model: "sequential_370"
_________________________________________________________________
Layer (type)                 Output Shape              Param #   
=================================================================
separable_conv2d_3961 (Separ (None, 32, 32, 32)        155       
_________________________________________________________________
activation_4334 (Activation) (None, 32, 32, 32)        0         
_________________________________________________________________
dropout_4334 (Dropout)       (None, 32, 32, 32)        0         
_________________________________________________________________
separable_conv2d_3962 (Separ (None, 32, 32, 256)       8736      
_________________________________________________________________
batch_normalization_2477 (Ba (None, 32, 32, 256)       1024      
_________________________________________________________________
activation_4335 (Activation) (None, 32, 32, 256)       0         
_________________________________________________________________
dropout_4335 (Dropout)       (None, 32, 32, 256)       0         
_________________________________________________________________
separable_conv2d_3963 (Separ (None, 32, 32, 8)         4360      
_________________________________________________________________
activation_4336 (Activation) (None, 32, 32, 8)         0         
_________________________________________________________________
dropout_4336 (Dropout)       (None, 32, 32, 8)         0         
_________________________________________________________________
separable_conv2d_3964 (Separ (None, 32, 32, 64)        648       
_________________________________________________________________
activation_4337 (Activation) (None, 32, 32, 64)        0         
_________________________________________________________________
dropout_4337 (Dropout)       (None, 32, 32, 64)        0         
_________________________________________________________________
max_pooling2d_1022 (MaxPooli (None, 16, 16, 64)        0         
_________________________________________________________________
separable_conv2d_3965 (Separ (None, 16, 16, 16)        1616      
_________________________________________________________________
activation_4338 (Activation) (None, 16, 16, 16)        0         
_________________________________________________________________
dropout_4338 (Dropout)       (None, 16, 16, 16)        0         
_________________________________________________________________
separable_conv2d_3966 (Separ (None, 16, 16, 128)       2320      
_________________________________________________________________
batch_normalization_2478 (Ba (None, 16, 16, 128)       512       
_________________________________________________________________
activation_4339 (Activation) (None, 16, 16, 128)       0         
_________________________________________________________________
dropout_4339 (Dropout)       (None, 16, 16, 128)       0         
_________________________________________________________________
separable_conv2d_3967 (Separ (None, 16, 16, 64)        9408      
_________________________________________________________________
batch_normalization_2479 (Ba (None, 16, 16, 64)        256       
_________________________________________________________________
activation_4340 (Activation) (None, 16, 16, 64)        0         
_________________________________________________________________
dropout_4340 (Dropout)       (None, 16, 16, 64)        0         
_________________________________________________________________
separable_conv2d_3968 (Separ (None, 16, 16, 128)       8896      
_________________________________________________________________
activation_4341 (Activation) (None, 16, 16, 128)       0         
_________________________________________________________________
dropout_4341 (Dropout)       (None, 16, 16, 128)       0         
_________________________________________________________________
separable_conv2d_3969 (Separ (None, 16, 16, 32)        5280      
_________________________________________________________________
batch_normalization_2480 (Ba (None, 16, 16, 32)        128       
_________________________________________________________________
activation_4342 (Activation) (None, 16, 16, 32)        0         
_________________________________________________________________
dropout_4342 (Dropout)       (None, 16, 16, 32)        0         
_________________________________________________________________
separable_conv2d_3970 (Separ (None, 16, 16, 512)       17184     
_________________________________________________________________
batch_normalization_2481 (Ba (None, 16, 16, 512)       2048      
_________________________________________________________________
activation_4343 (Activation) (None, 16, 16, 512)       0         
_________________________________________________________________
dropout_4343 (Dropout)       (None, 16, 16, 512)       0         
_________________________________________________________________
max_pooling2d_1023 (MaxPooli (None, 8, 8, 512)         0         
_________________________________________________________________
flatten_370 (Flatten)        (None, 32768)             0         
_________________________________________________________________
dense_743 (Dense)            (None, 2048)              67110912  
_________________________________________________________________
batch_normalization_2482 (Ba (None, 2048)              8192      
_________________________________________________________________
activation_4344 (Activation) (None, 2048)              0         
_________________________________________________________________
dropout_4344 (Dropout)       (None, 2048)              0         
_________________________________________________________________
dense_744 (Dense)            (None, 100)               204900    
=================================================================
Total params: 67,386,575
Trainable params: 67,380,495
Non-trainable params: 6,080
_________________________________________________________________
