Model: "sequential_117"
_________________________________________________________________
Layer (type)                 Output Shape              Param #   
=================================================================
separable_conv2d_1352 (Separ (None, 32, 32, 32)        155       
_________________________________________________________________
activation_1472 (Activation) (None, 32, 32, 32)        0         
_________________________________________________________________
dropout_1472 (Dropout)       (None, 32, 32, 32)        0         
_________________________________________________________________
separable_conv2d_1353 (Separ (None, 32, 32, 128)       4512      
_________________________________________________________________
batch_normalization_876 (Bat (None, 32, 32, 128)       512       
_________________________________________________________________
activation_1473 (Activation) (None, 32, 32, 128)       0         
_________________________________________________________________
dropout_1473 (Dropout)       (None, 32, 32, 128)       0         
_________________________________________________________________
separable_conv2d_1354 (Separ (None, 32, 32, 8)         2184      
_________________________________________________________________
activation_1474 (Activation) (None, 32, 32, 8)         0         
_________________________________________________________________
dropout_1474 (Dropout)       (None, 32, 32, 8)         0         
_________________________________________________________________
separable_conv2d_1355 (Separ (None, 32, 32, 64)        648       
_________________________________________________________________
activation_1475 (Activation) (None, 32, 32, 64)        0         
_________________________________________________________________
dropout_1475 (Dropout)       (None, 32, 32, 64)        0         
_________________________________________________________________
max_pooling2d_340 (MaxPoolin (None, 16, 16, 64)        0         
_________________________________________________________________
separable_conv2d_1356 (Separ (None, 16, 16, 8)         1096      
_________________________________________________________________
activation_1476 (Activation) (None, 16, 16, 8)         0         
_________________________________________________________________
dropout_1476 (Dropout)       (None, 16, 16, 8)         0         
_________________________________________________________________
separable_conv2d_1357 (Separ (None, 16, 16, 128)       1224      
_________________________________________________________________
batch_normalization_877 (Bat (None, 16, 16, 128)       512       
_________________________________________________________________
activation_1477 (Activation) (None, 16, 16, 128)       0         
_________________________________________________________________
dropout_1477 (Dropout)       (None, 16, 16, 128)       0         
_________________________________________________________________
separable_conv2d_1358 (Separ (None, 16, 16, 64)        9408      
_________________________________________________________________
batch_normalization_878 (Bat (None, 16, 16, 64)        256       
_________________________________________________________________
activation_1478 (Activation) (None, 16, 16, 64)        0         
_________________________________________________________________
dropout_1478 (Dropout)       (None, 16, 16, 64)        0         
_________________________________________________________________
separable_conv2d_1359 (Separ (None, 16, 16, 512)       33856     
_________________________________________________________________
batch_normalization_879 (Bat (None, 16, 16, 512)       2048      
_________________________________________________________________
activation_1479 (Activation) (None, 16, 16, 512)       0         
_________________________________________________________________
dropout_1479 (Dropout)       (None, 16, 16, 512)       0         
_________________________________________________________________
max_pooling2d_341 (MaxPoolin (None, 8, 8, 512)         0         
_________________________________________________________________
separable_conv2d_1360 (Separ (None, 8, 8, 128)         70272     
_________________________________________________________________
activation_1480 (Activation) (None, 8, 8, 128)         0         
_________________________________________________________________
dropout_1480 (Dropout)       (None, 8, 8, 128)         0         
_________________________________________________________________
separable_conv2d_1361 (Separ (None, 8, 8, 32)          5280      
_________________________________________________________________
batch_normalization_880 (Bat (None, 8, 8, 32)          128       
_________________________________________________________________
activation_1481 (Activation) (None, 8, 8, 32)          0         
_________________________________________________________________
dropout_1481 (Dropout)       (None, 8, 8, 32)          0         
_________________________________________________________________
separable_conv2d_1362 (Separ (None, 8, 8, 256)         8736      
_________________________________________________________________
batch_normalization_881 (Bat (None, 8, 8, 256)         1024      
_________________________________________________________________
activation_1482 (Activation) (None, 8, 8, 256)         0         
_________________________________________________________________
dropout_1482 (Dropout)       (None, 8, 8, 256)         0         
_________________________________________________________________
max_pooling2d_342 (MaxPoolin (None, 4, 4, 256)         0         
_________________________________________________________________
flatten_117 (Flatten)        (None, 4096)              0         
_________________________________________________________________
dense_237 (Dense)            (None, 2048)              8390656   
_________________________________________________________________
batch_normalization_882 (Bat (None, 2048)              8192      
_________________________________________________________________
activation_1483 (Activation) (None, 2048)              0         
_________________________________________________________________
dropout_1483 (Dropout)       (None, 2048)              0         
_________________________________________________________________
dense_238 (Dense)            (None, 100)               204900    
=================================================================
Total params: 8,745,599
Trainable params: 8,739,263
Non-trainable params: 6,336
_________________________________________________________________
