Model: "sequential_123"
_________________________________________________________________
Layer (type)                 Output Shape              Param #   
=================================================================
separable_conv2d_1420 (Separ (None, 32, 32, 32)        155       
_________________________________________________________________
activation_1546 (Activation) (None, 32, 32, 32)        0         
_________________________________________________________________
dropout_1546 (Dropout)       (None, 32, 32, 32)        0         
_________________________________________________________________
separable_conv2d_1421 (Separ (None, 32, 32, 256)       8736      
_________________________________________________________________
batch_normalization_922 (Bat (None, 32, 32, 256)       1024      
_________________________________________________________________
activation_1547 (Activation) (None, 32, 32, 256)       0         
_________________________________________________________________
dropout_1547 (Dropout)       (None, 32, 32, 256)       0         
_________________________________________________________________
separable_conv2d_1422 (Separ (None, 32, 32, 8)         4360      
_________________________________________________________________
activation_1548 (Activation) (None, 32, 32, 8)         0         
_________________________________________________________________
dropout_1548 (Dropout)       (None, 32, 32, 8)         0         
_________________________________________________________________
max_pooling2d_358 (MaxPoolin (None, 16, 16, 8)         0         
_________________________________________________________________
separable_conv2d_1423 (Separ (None, 16, 16, 64)        648       
_________________________________________________________________
activation_1549 (Activation) (None, 16, 16, 64)        0         
_________________________________________________________________
dropout_1549 (Dropout)       (None, 16, 16, 64)        0         
_________________________________________________________________
max_pooling2d_359 (MaxPoolin (None, 8, 8, 64)          0         
_________________________________________________________________
separable_conv2d_1424 (Separ (None, 8, 8, 8)           1096      
_________________________________________________________________
activation_1550 (Activation) (None, 8, 8, 8)           0         
_________________________________________________________________
dropout_1550 (Dropout)       (None, 8, 8, 8)           0         
_________________________________________________________________
separable_conv2d_1425 (Separ (None, 8, 8, 128)         1224      
_________________________________________________________________
batch_normalization_923 (Bat (None, 8, 8, 128)         512       
_________________________________________________________________
activation_1551 (Activation) (None, 8, 8, 128)         0         
_________________________________________________________________
dropout_1551 (Dropout)       (None, 8, 8, 128)         0         
_________________________________________________________________
separable_conv2d_1426 (Separ (None, 8, 8, 64)          9408      
_________________________________________________________________
batch_normalization_924 (Bat (None, 8, 8, 64)          256       
_________________________________________________________________
activation_1552 (Activation) (None, 8, 8, 64)          0         
_________________________________________________________________
dropout_1552 (Dropout)       (None, 8, 8, 64)          0         
_________________________________________________________________
separable_conv2d_1427 (Separ (None, 8, 8, 512)         33856     
_________________________________________________________________
batch_normalization_925 (Bat (None, 8, 8, 512)         2048      
_________________________________________________________________
activation_1553 (Activation) (None, 8, 8, 512)         0         
_________________________________________________________________
dropout_1553 (Dropout)       (None, 8, 8, 512)         0         
_________________________________________________________________
max_pooling2d_360 (MaxPoolin (None, 4, 4, 512)         0         
_________________________________________________________________
separable_conv2d_1428 (Separ (None, 4, 4, 128)         70272     
_________________________________________________________________
activation_1554 (Activation) (None, 4, 4, 128)         0         
_________________________________________________________________
dropout_1554 (Dropout)       (None, 4, 4, 128)         0         
_________________________________________________________________
separable_conv2d_1429 (Separ (None, 4, 4, 32)          5280      
_________________________________________________________________
batch_normalization_926 (Bat (None, 4, 4, 32)          128       
_________________________________________________________________
activation_1555 (Activation) (None, 4, 4, 32)          0         
_________________________________________________________________
dropout_1555 (Dropout)       (None, 4, 4, 32)          0         
_________________________________________________________________
separable_conv2d_1430 (Separ (None, 4, 4, 512)         17184     
_________________________________________________________________
batch_normalization_927 (Bat (None, 4, 4, 512)         2048      
_________________________________________________________________
activation_1556 (Activation) (None, 4, 4, 512)         0         
_________________________________________________________________
dropout_1556 (Dropout)       (None, 4, 4, 512)         0         
_________________________________________________________________
flatten_123 (Flatten)        (None, 8192)              0         
_________________________________________________________________
dense_249 (Dense)            (None, 2048)              16779264  
_________________________________________________________________
batch_normalization_928 (Bat (None, 2048)              8192      
_________________________________________________________________
activation_1557 (Activation) (None, 2048)              0         
_________________________________________________________________
dropout_1557 (Dropout)       (None, 2048)              0         
_________________________________________________________________
dense_250 (Dense)            (None, 100)               204900    
=================================================================
Total params: 17,150,591
Trainable params: 17,143,487
Non-trainable params: 7,104
_________________________________________________________________
