Model: "sequential_326"
_________________________________________________________________
Layer (type)                 Output Shape              Param #   
=================================================================
separable_conv2d_3552 (Separ (None, 32, 32, 32)        155       
_________________________________________________________________
activation_3881 (Activation) (None, 32, 32, 32)        0         
_________________________________________________________________
dropout_3881 (Dropout)       (None, 32, 32, 32)        0         
_________________________________________________________________
separable_conv2d_3553 (Separ (None, 32, 32, 256)       8736      
_________________________________________________________________
batch_normalization_2245 (Ba (None, 32, 32, 256)       1024      
_________________________________________________________________
activation_3882 (Activation) (None, 32, 32, 256)       0         
_________________________________________________________________
dropout_3882 (Dropout)       (None, 32, 32, 256)       0         
_________________________________________________________________
separable_conv2d_3554 (Separ (None, 32, 32, 8)         4360      
_________________________________________________________________
activation_3883 (Activation) (None, 32, 32, 8)         0         
_________________________________________________________________
dropout_3883 (Dropout)       (None, 32, 32, 8)         0         
_________________________________________________________________
separable_conv2d_3555 (Separ (None, 32, 32, 64)        648       
_________________________________________________________________
activation_3884 (Activation) (None, 32, 32, 64)        0         
_________________________________________________________________
dropout_3884 (Dropout)       (None, 32, 32, 64)        0         
_________________________________________________________________
max_pooling2d_921 (MaxPoolin (None, 16, 16, 64)        0         
_________________________________________________________________
separable_conv2d_3556 (Separ (None, 16, 16, 16)        1616      
_________________________________________________________________
activation_3885 (Activation) (None, 16, 16, 16)        0         
_________________________________________________________________
dropout_3885 (Dropout)       (None, 16, 16, 16)        0         
_________________________________________________________________
separable_conv2d_3557 (Separ (None, 16, 16, 128)       2320      
_________________________________________________________________
batch_normalization_2246 (Ba (None, 16, 16, 128)       512       
_________________________________________________________________
activation_3886 (Activation) (None, 16, 16, 128)       0         
_________________________________________________________________
dropout_3886 (Dropout)       (None, 16, 16, 128)       0         
_________________________________________________________________
separable_conv2d_3558 (Separ (None, 16, 16, 64)        9408      
_________________________________________________________________
batch_normalization_2247 (Ba (None, 16, 16, 64)        256       
_________________________________________________________________
activation_3887 (Activation) (None, 16, 16, 64)        0         
_________________________________________________________________
dropout_3887 (Dropout)       (None, 16, 16, 64)        0         
_________________________________________________________________
max_pooling2d_922 (MaxPoolin (None, 8, 8, 64)          0         
_________________________________________________________________
separable_conv2d_3559 (Separ (None, 8, 8, 32)          2656      
_________________________________________________________________
activation_3888 (Activation) (None, 8, 8, 32)          0         
_________________________________________________________________
dropout_3888 (Dropout)       (None, 8, 8, 32)          0         
_________________________________________________________________
separable_conv2d_3560 (Separ (None, 8, 8, 256)         8736      
_________________________________________________________________
batch_normalization_2248 (Ba (None, 8, 8, 256)         1024      
_________________________________________________________________
activation_3889 (Activation) (None, 8, 8, 256)         0         
_________________________________________________________________
dropout_3889 (Dropout)       (None, 8, 8, 256)         0         
_________________________________________________________________
max_pooling2d_923 (MaxPoolin (None, 4, 4, 256)         0         
_________________________________________________________________
flatten_326 (Flatten)        (None, 4096)              0         
_________________________________________________________________
dense_655 (Dense)            (None, 2048)              8390656   
_________________________________________________________________
batch_normalization_2249 (Ba (None, 2048)              8192      
_________________________________________________________________
activation_3890 (Activation) (None, 2048)              0         
_________________________________________________________________
dropout_3890 (Dropout)       (None, 2048)              0         
_________________________________________________________________
dense_656 (Dense)            (None, 100)               204900    
=================================================================
Total params: 8,645,199
Trainable params: 8,639,695
Non-trainable params: 5,504
_________________________________________________________________
