Model: "sequential_126"
_________________________________________________________________
Layer (type)                 Output Shape              Param #   
=================================================================
separable_conv2d_1453 (Separ (None, 32, 32, 32)        155       
_________________________________________________________________
activation_1582 (Activation) (None, 32, 32, 32)        0         
_________________________________________________________________
dropout_1582 (Dropout)       (None, 32, 32, 32)        0         
_________________________________________________________________
separable_conv2d_1454 (Separ (None, 32, 32, 256)       8736      
_________________________________________________________________
batch_normalization_943 (Bat (None, 32, 32, 256)       1024      
_________________________________________________________________
activation_1583 (Activation) (None, 32, 32, 256)       0         
_________________________________________________________________
dropout_1583 (Dropout)       (None, 32, 32, 256)       0         
_________________________________________________________________
separable_conv2d_1455 (Separ (None, 32, 32, 8)         4360      
_________________________________________________________________
activation_1584 (Activation) (None, 32, 32, 8)         0         
_________________________________________________________________
dropout_1584 (Dropout)       (None, 32, 32, 8)         0         
_________________________________________________________________
max_pooling2d_367 (MaxPoolin (None, 16, 16, 8)         0         
_________________________________________________________________
separable_conv2d_1456 (Separ (None, 16, 16, 64)        648       
_________________________________________________________________
activation_1585 (Activation) (None, 16, 16, 64)        0         
_________________________________________________________________
dropout_1585 (Dropout)       (None, 16, 16, 64)        0         
_________________________________________________________________
max_pooling2d_368 (MaxPoolin (None, 8, 8, 64)          0         
_________________________________________________________________
separable_conv2d_1457 (Separ (None, 8, 8, 8)           1096      
_________________________________________________________________
activation_1586 (Activation) (None, 8, 8, 8)           0         
_________________________________________________________________
dropout_1586 (Dropout)       (None, 8, 8, 8)           0         
_________________________________________________________________
separable_conv2d_1458 (Separ (None, 8, 8, 128)         1224      
_________________________________________________________________
batch_normalization_944 (Bat (None, 8, 8, 128)         512       
_________________________________________________________________
activation_1587 (Activation) (None, 8, 8, 128)         0         
_________________________________________________________________
dropout_1587 (Dropout)       (None, 8, 8, 128)         0         
_________________________________________________________________
separable_conv2d_1459 (Separ (None, 8, 8, 64)          9408      
_________________________________________________________________
batch_normalization_945 (Bat (None, 8, 8, 64)          256       
_________________________________________________________________
activation_1588 (Activation) (None, 8, 8, 64)          0         
_________________________________________________________________
dropout_1588 (Dropout)       (None, 8, 8, 64)          0         
_________________________________________________________________
separable_conv2d_1460 (Separ (None, 8, 8, 512)         33856     
_________________________________________________________________
batch_normalization_946 (Bat (None, 8, 8, 512)         2048      
_________________________________________________________________
activation_1589 (Activation) (None, 8, 8, 512)         0         
_________________________________________________________________
dropout_1589 (Dropout)       (None, 8, 8, 512)         0         
_________________________________________________________________
max_pooling2d_369 (MaxPoolin (None, 4, 4, 512)         0         
_________________________________________________________________
separable_conv2d_1461 (Separ (None, 4, 4, 128)         70272     
_________________________________________________________________
activation_1590 (Activation) (None, 4, 4, 128)         0         
_________________________________________________________________
dropout_1590 (Dropout)       (None, 4, 4, 128)         0         
_________________________________________________________________
separable_conv2d_1462 (Separ (None, 4, 4, 32)          5280      
_________________________________________________________________
batch_normalization_947 (Bat (None, 4, 4, 32)          128       
_________________________________________________________________
activation_1591 (Activation) (None, 4, 4, 32)          0         
_________________________________________________________________
dropout_1591 (Dropout)       (None, 4, 4, 32)          0         
_________________________________________________________________
separable_conv2d_1463 (Separ (None, 4, 4, 512)         17184     
_________________________________________________________________
batch_normalization_948 (Bat (None, 4, 4, 512)         2048      
_________________________________________________________________
activation_1592 (Activation) (None, 4, 4, 512)         0         
_________________________________________________________________
dropout_1592 (Dropout)       (None, 4, 4, 512)         0         
_________________________________________________________________
flatten_126 (Flatten)        (None, 8192)              0         
_________________________________________________________________
dense_255 (Dense)            (None, 2048)              16779264  
_________________________________________________________________
batch_normalization_949 (Bat (None, 2048)              8192      
_________________________________________________________________
activation_1593 (Activation) (None, 2048)              0         
_________________________________________________________________
dropout_1593 (Dropout)       (None, 2048)              0         
_________________________________________________________________
dense_256 (Dense)            (None, 100)               204900    
=================================================================
Total params: 17,150,591
Trainable params: 17,143,487
Non-trainable params: 7,104
_________________________________________________________________
