Model: "sequential_249"
_________________________________________________________________
Layer (type)                 Output Shape              Param #   
=================================================================
separable_conv2d_2782 (Separ (None, 32, 32, 32)        155       
_________________________________________________________________
activation_3034 (Activation) (None, 32, 32, 32)        0         
_________________________________________________________________
dropout_3034 (Dropout)       (None, 32, 32, 32)        0         
_________________________________________________________________
separable_conv2d_2783 (Separ (None, 32, 32, 256)       8736      
_________________________________________________________________
batch_normalization_1777 (Ba (None, 32, 32, 256)       1024      
_________________________________________________________________
activation_3035 (Activation) (None, 32, 32, 256)       0         
_________________________________________________________________
dropout_3035 (Dropout)       (None, 32, 32, 256)       0         
_________________________________________________________________
separable_conv2d_2784 (Separ (None, 32, 32, 8)         4360      
_________________________________________________________________
activation_3036 (Activation) (None, 32, 32, 8)         0         
_________________________________________________________________
dropout_3036 (Dropout)       (None, 32, 32, 8)         0         
_________________________________________________________________
separable_conv2d_2785 (Separ (None, 32, 32, 64)        648       
_________________________________________________________________
activation_3037 (Activation) (None, 32, 32, 64)        0         
_________________________________________________________________
dropout_3037 (Dropout)       (None, 32, 32, 64)        0         
_________________________________________________________________
max_pooling2d_726 (MaxPoolin (None, 16, 16, 64)        0         
_________________________________________________________________
separable_conv2d_2786 (Separ (None, 16, 16, 16)        1616      
_________________________________________________________________
activation_3038 (Activation) (None, 16, 16, 16)        0         
_________________________________________________________________
dropout_3038 (Dropout)       (None, 16, 16, 16)        0         
_________________________________________________________________
separable_conv2d_2787 (Separ (None, 16, 16, 128)       2320      
_________________________________________________________________
batch_normalization_1778 (Ba (None, 16, 16, 128)       512       
_________________________________________________________________
activation_3039 (Activation) (None, 16, 16, 128)       0         
_________________________________________________________________
dropout_3039 (Dropout)       (None, 16, 16, 128)       0         
_________________________________________________________________
separable_conv2d_2788 (Separ (None, 16, 16, 64)        9408      
_________________________________________________________________
batch_normalization_1779 (Ba (None, 16, 16, 64)        256       
_________________________________________________________________
activation_3040 (Activation) (None, 16, 16, 64)        0         
_________________________________________________________________
dropout_3040 (Dropout)       (None, 16, 16, 64)        0         
_________________________________________________________________
separable_conv2d_2789 (Separ (None, 16, 16, 32)        2656      
_________________________________________________________________
batch_normalization_1780 (Ba (None, 16, 16, 32)        128       
_________________________________________________________________
activation_3041 (Activation) (None, 16, 16, 32)        0         
_________________________________________________________________
dropout_3041 (Dropout)       (None, 16, 16, 32)        0         
_________________________________________________________________
separable_conv2d_2790 (Separ (None, 16, 16, 512)       17184     
_________________________________________________________________
batch_normalization_1781 (Ba (None, 16, 16, 512)       2048      
_________________________________________________________________
activation_3042 (Activation) (None, 16, 16, 512)       0         
_________________________________________________________________
dropout_3042 (Dropout)       (None, 16, 16, 512)       0         
_________________________________________________________________
max_pooling2d_727 (MaxPoolin (None, 8, 8, 512)         0         
_________________________________________________________________
flatten_249 (Flatten)        (None, 32768)             0         
_________________________________________________________________
dense_501 (Dense)            (None, 2048)              67110912  
_________________________________________________________________
batch_normalization_1782 (Ba (None, 2048)              8192      
_________________________________________________________________
activation_3043 (Activation) (None, 2048)              0         
_________________________________________________________________
dropout_3043 (Dropout)       (None, 2048)              0         
_________________________________________________________________
dense_502 (Dense)            (None, 100)               204900    
=================================================================
Total params: 67,375,055
Trainable params: 67,368,975
Non-trainable params: 6,080
_________________________________________________________________
