Model: "sequential_175"
_________________________________________________________________
Layer (type)                 Output Shape              Param #   
=================================================================
separable_conv2d_1990 (Separ (None, 32, 32, 32)        155       
_________________________________________________________________
activation_2168 (Activation) (None, 32, 32, 32)        0         
_________________________________________________________________
dropout_2168 (Dropout)       (None, 32, 32, 32)        0         
_________________________________________________________________
separable_conv2d_1991 (Separ (None, 32, 32, 256)       8736      
_________________________________________________________________
batch_normalization_1288 (Ba (None, 32, 32, 256)       1024      
_________________________________________________________________
activation_2169 (Activation) (None, 32, 32, 256)       0         
_________________________________________________________________
dropout_2169 (Dropout)       (None, 32, 32, 256)       0         
_________________________________________________________________
separable_conv2d_1992 (Separ (None, 32, 32, 8)         4360      
_________________________________________________________________
activation_2170 (Activation) (None, 32, 32, 8)         0         
_________________________________________________________________
dropout_2170 (Dropout)       (None, 32, 32, 8)         0         
_________________________________________________________________
max_pooling2d_513 (MaxPoolin (None, 16, 16, 8)         0         
_________________________________________________________________
separable_conv2d_1993 (Separ (None, 16, 16, 64)        648       
_________________________________________________________________
activation_2171 (Activation) (None, 16, 16, 64)        0         
_________________________________________________________________
dropout_2171 (Dropout)       (None, 16, 16, 64)        0         
_________________________________________________________________
max_pooling2d_514 (MaxPoolin (None, 8, 8, 64)          0         
_________________________________________________________________
separable_conv2d_1994 (Separ (None, 8, 8, 16)          1616      
_________________________________________________________________
activation_2172 (Activation) (None, 8, 8, 16)          0         
_________________________________________________________________
dropout_2172 (Dropout)       (None, 8, 8, 16)          0         
_________________________________________________________________
separable_conv2d_1995 (Separ (None, 8, 8, 256)         4496      
_________________________________________________________________
batch_normalization_1289 (Ba (None, 8, 8, 256)         1024      
_________________________________________________________________
activation_2173 (Activation) (None, 8, 8, 256)         0         
_________________________________________________________________
dropout_2173 (Dropout)       (None, 8, 8, 256)         0         
_________________________________________________________________
separable_conv2d_1996 (Separ (None, 8, 8, 64)          18752     
_________________________________________________________________
batch_normalization_1290 (Ba (None, 8, 8, 64)          256       
_________________________________________________________________
activation_2174 (Activation) (None, 8, 8, 64)          0         
_________________________________________________________________
dropout_2174 (Dropout)       (None, 8, 8, 64)          0         
_________________________________________________________________
separable_conv2d_1997 (Separ (None, 8, 8, 512)         33856     
_________________________________________________________________
batch_normalization_1291 (Ba (None, 8, 8, 512)         2048      
_________________________________________________________________
activation_2175 (Activation) (None, 8, 8, 512)         0         
_________________________________________________________________
dropout_2175 (Dropout)       (None, 8, 8, 512)         0         
_________________________________________________________________
max_pooling2d_515 (MaxPoolin (None, 4, 4, 512)         0         
_________________________________________________________________
separable_conv2d_1998 (Separ (None, 4, 4, 128)         70272     
_________________________________________________________________
activation_2176 (Activation) (None, 4, 4, 128)         0         
_________________________________________________________________
dropout_2176 (Dropout)       (None, 4, 4, 128)         0         
_________________________________________________________________
separable_conv2d_1999 (Separ (None, 4, 4, 32)          5280      
_________________________________________________________________
batch_normalization_1292 (Ba (None, 4, 4, 32)          128       
_________________________________________________________________
activation_2177 (Activation) (None, 4, 4, 32)          0         
_________________________________________________________________
dropout_2177 (Dropout)       (None, 4, 4, 32)          0         
_________________________________________________________________
separable_conv2d_2000 (Separ (None, 4, 4, 256)         8736      
_________________________________________________________________
batch_normalization_1293 (Ba (None, 4, 4, 256)         1024      
_________________________________________________________________
activation_2178 (Activation) (None, 4, 4, 256)         0         
_________________________________________________________________
dropout_2178 (Dropout)       (None, 4, 4, 256)         0         
_________________________________________________________________
flatten_175 (Flatten)        (None, 4096)              0         
_________________________________________________________________
dense_353 (Dense)            (None, 2048)              8390656   
_________________________________________________________________
batch_normalization_1294 (Ba (None, 2048)              8192      
_________________________________________________________________
activation_2179 (Activation) (None, 2048)              0         
_________________________________________________________________
dropout_2179 (Dropout)       (None, 2048)              0         
_________________________________________________________________
dense_354 (Dense)            (None, 100)               204900    
=================================================================
Total params: 8,766,159
Trainable params: 8,759,311
Non-trainable params: 6,848
_________________________________________________________________
