Model: "sequential_49"
_________________________________________________________________
Layer (type)                 Output Shape              Param #   
=================================================================
separable_conv2d_563 (Separa (None, 32, 32, 32)        155       
_________________________________________________________________
activation_615 (Activation)  (None, 32, 32, 32)        0         
_________________________________________________________________
dropout_615 (Dropout)        (None, 32, 32, 32)        0         
_________________________________________________________________
separable_conv2d_564 (Separa (None, 32, 32, 128)       4512      
_________________________________________________________________
batch_normalization_345 (Bat (None, 32, 32, 128)       512       
_________________________________________________________________
activation_616 (Activation)  (None, 32, 32, 128)       0         
_________________________________________________________________
dropout_616 (Dropout)        (None, 32, 32, 128)       0         
_________________________________________________________________
separable_conv2d_565 (Separa (None, 32, 32, 8)         2184      
_________________________________________________________________
activation_617 (Activation)  (None, 32, 32, 8)         0         
_________________________________________________________________
dropout_617 (Dropout)        (None, 32, 32, 8)         0         
_________________________________________________________________
separable_conv2d_566 (Separa (None, 32, 32, 64)        648       
_________________________________________________________________
activation_618 (Activation)  (None, 32, 32, 64)        0         
_________________________________________________________________
dropout_618 (Dropout)        (None, 32, 32, 64)        0         
_________________________________________________________________
max_pooling2d_136 (MaxPoolin (None, 16, 16, 64)        0         
_________________________________________________________________
separable_conv2d_567 (Separa (None, 16, 16, 8)         1096      
_________________________________________________________________
activation_619 (Activation)  (None, 16, 16, 8)         0         
_________________________________________________________________
dropout_619 (Dropout)        (None, 16, 16, 8)         0         
_________________________________________________________________
separable_conv2d_568 (Separa (None, 16, 16, 128)       1224      
_________________________________________________________________
batch_normalization_346 (Bat (None, 16, 16, 128)       512       
_________________________________________________________________
activation_620 (Activation)  (None, 16, 16, 128)       0         
_________________________________________________________________
dropout_620 (Dropout)        (None, 16, 16, 128)       0         
_________________________________________________________________
separable_conv2d_569 (Separa (None, 16, 16, 64)        9408      
_________________________________________________________________
batch_normalization_347 (Bat (None, 16, 16, 64)        256       
_________________________________________________________________
activation_621 (Activation)  (None, 16, 16, 64)        0         
_________________________________________________________________
dropout_621 (Dropout)        (None, 16, 16, 64)        0         
_________________________________________________________________
separable_conv2d_570 (Separa (None, 16, 16, 512)       33856     
_________________________________________________________________
batch_normalization_348 (Bat (None, 16, 16, 512)       2048      
_________________________________________________________________
activation_622 (Activation)  (None, 16, 16, 512)       0         
_________________________________________________________________
dropout_622 (Dropout)        (None, 16, 16, 512)       0         
_________________________________________________________________
max_pooling2d_137 (MaxPoolin (None, 8, 8, 512)         0         
_________________________________________________________________
separable_conv2d_571 (Separa (None, 8, 8, 32)          21024     
_________________________________________________________________
batch_normalization_349 (Bat (None, 8, 8, 32)          128       
_________________________________________________________________
activation_623 (Activation)  (None, 8, 8, 32)          0         
_________________________________________________________________
dropout_623 (Dropout)        (None, 8, 8, 32)          0         
_________________________________________________________________
max_pooling2d_138 (MaxPoolin (None, 4, 4, 32)          0         
_________________________________________________________________
separable_conv2d_572 (Separa (None, 4, 4, 128)         4512      
_________________________________________________________________
activation_624 (Activation)  (None, 4, 4, 128)         0         
_________________________________________________________________
dropout_624 (Dropout)        (None, 4, 4, 128)         0         
_________________________________________________________________
separable_conv2d_573 (Separa (None, 4, 4, 32)          5280      
_________________________________________________________________
batch_normalization_350 (Bat (None, 4, 4, 32)          128       
_________________________________________________________________
activation_625 (Activation)  (None, 4, 4, 32)          0         
_________________________________________________________________
dropout_625 (Dropout)        (None, 4, 4, 32)          0         
_________________________________________________________________
separable_conv2d_574 (Separa (None, 4, 4, 256)         8736      
_________________________________________________________________
batch_normalization_351 (Bat (None, 4, 4, 256)         1024      
_________________________________________________________________
activation_626 (Activation)  (None, 4, 4, 256)         0         
_________________________________________________________________
dropout_626 (Dropout)        (None, 4, 4, 256)         0         
_________________________________________________________________
flatten_49 (Flatten)         (None, 4096)              0         
_________________________________________________________________
dense_101 (Dense)            (None, 2048)              8390656   
_________________________________________________________________
batch_normalization_352 (Bat (None, 2048)              8192      
_________________________________________________________________
activation_627 (Activation)  (None, 2048)              0         
_________________________________________________________________
dropout_627 (Dropout)        (None, 2048)              0         
_________________________________________________________________
dense_102 (Dense)            (None, 100)               204900    
=================================================================
Total params: 8,700,991
Trainable params: 8,694,591
Non-trainable params: 6,400
_________________________________________________________________
