Model: "sequential_212"
_________________________________________________________________
Layer (type)                 Output Shape              Param #   
=================================================================
separable_conv2d_2388 (Separ (None, 32, 32, 32)        155       
_________________________________________________________________
activation_2603 (Activation) (None, 32, 32, 32)        0         
_________________________________________________________________
dropout_2603 (Dropout)       (None, 32, 32, 32)        0         
_________________________________________________________________
separable_conv2d_2389 (Separ (None, 32, 32, 128)       4512      
_________________________________________________________________
batch_normalization_1533 (Ba (None, 32, 32, 128)       512       
_________________________________________________________________
activation_2604 (Activation) (None, 32, 32, 128)       0         
_________________________________________________________________
dropout_2604 (Dropout)       (None, 32, 32, 128)       0         
_________________________________________________________________
separable_conv2d_2390 (Separ (None, 32, 32, 8)         2184      
_________________________________________________________________
activation_2605 (Activation) (None, 32, 32, 8)         0         
_________________________________________________________________
dropout_2605 (Dropout)       (None, 32, 32, 8)         0         
_________________________________________________________________
separable_conv2d_2391 (Separ (None, 32, 32, 64)        648       
_________________________________________________________________
activation_2606 (Activation) (None, 32, 32, 64)        0         
_________________________________________________________________
dropout_2606 (Dropout)       (None, 32, 32, 64)        0         
_________________________________________________________________
max_pooling2d_621 (MaxPoolin (None, 16, 16, 64)        0         
_________________________________________________________________
separable_conv2d_2392 (Separ (None, 16, 16, 8)         1096      
_________________________________________________________________
activation_2607 (Activation) (None, 16, 16, 8)         0         
_________________________________________________________________
dropout_2607 (Dropout)       (None, 16, 16, 8)         0         
_________________________________________________________________
separable_conv2d_2393 (Separ (None, 16, 16, 128)       1224      
_________________________________________________________________
batch_normalization_1534 (Ba (None, 16, 16, 128)       512       
_________________________________________________________________
activation_2608 (Activation) (None, 16, 16, 128)       0         
_________________________________________________________________
dropout_2608 (Dropout)       (None, 16, 16, 128)       0         
_________________________________________________________________
separable_conv2d_2394 (Separ (None, 16, 16, 64)        9408      
_________________________________________________________________
batch_normalization_1535 (Ba (None, 16, 16, 64)        256       
_________________________________________________________________
activation_2609 (Activation) (None, 16, 16, 64)        0         
_________________________________________________________________
dropout_2609 (Dropout)       (None, 16, 16, 64)        0         
_________________________________________________________________
separable_conv2d_2395 (Separ (None, 16, 16, 512)       33856     
_________________________________________________________________
batch_normalization_1536 (Ba (None, 16, 16, 512)       2048      
_________________________________________________________________
activation_2610 (Activation) (None, 16, 16, 512)       0         
_________________________________________________________________
dropout_2610 (Dropout)       (None, 16, 16, 512)       0         
_________________________________________________________________
max_pooling2d_622 (MaxPoolin (None, 8, 8, 512)         0         
_________________________________________________________________
separable_conv2d_2396 (Separ (None, 8, 8, 128)         70272     
_________________________________________________________________
activation_2611 (Activation) (None, 8, 8, 128)         0         
_________________________________________________________________
dropout_2611 (Dropout)       (None, 8, 8, 128)         0         
_________________________________________________________________
separable_conv2d_2397 (Separ (None, 8, 8, 32)          5280      
_________________________________________________________________
batch_normalization_1537 (Ba (None, 8, 8, 32)          128       
_________________________________________________________________
activation_2612 (Activation) (None, 8, 8, 32)          0         
_________________________________________________________________
dropout_2612 (Dropout)       (None, 8, 8, 32)          0         
_________________________________________________________________
separable_conv2d_2398 (Separ (None, 8, 8, 256)         8736      
_________________________________________________________________
batch_normalization_1538 (Ba (None, 8, 8, 256)         1024      
_________________________________________________________________
activation_2613 (Activation) (None, 8, 8, 256)         0         
_________________________________________________________________
dropout_2613 (Dropout)       (None, 8, 8, 256)         0         
_________________________________________________________________
max_pooling2d_623 (MaxPoolin (None, 4, 4, 256)         0         
_________________________________________________________________
flatten_212 (Flatten)        (None, 4096)              0         
_________________________________________________________________
dense_427 (Dense)            (None, 2048)              8390656   
_________________________________________________________________
batch_normalization_1539 (Ba (None, 2048)              8192      
_________________________________________________________________
activation_2614 (Activation) (None, 2048)              0         
_________________________________________________________________
dropout_2614 (Dropout)       (None, 2048)              0         
_________________________________________________________________
dense_428 (Dense)            (None, 100)               204900    
=================================================================
Total params: 8,745,599
Trainable params: 8,739,263
Non-trainable params: 6,336
_________________________________________________________________
