Model: "sequential_166"
_________________________________________________________________
Layer (type)                 Output Shape              Param #   
=================================================================
separable_conv2d_1893 (Separ (None, 32, 32, 32)        155       
_________________________________________________________________
activation_2062 (Activation) (None, 32, 32, 32)        0         
_________________________________________________________________
dropout_2062 (Dropout)       (None, 32, 32, 32)        0         
_________________________________________________________________
separable_conv2d_1894 (Separ (None, 32, 32, 256)       8736      
_________________________________________________________________
batch_normalization_1228 (Ba (None, 32, 32, 256)       1024      
_________________________________________________________________
activation_2063 (Activation) (None, 32, 32, 256)       0         
_________________________________________________________________
dropout_2063 (Dropout)       (None, 32, 32, 256)       0         
_________________________________________________________________
separable_conv2d_1895 (Separ (None, 32, 32, 8)         4360      
_________________________________________________________________
activation_2064 (Activation) (None, 32, 32, 8)         0         
_________________________________________________________________
dropout_2064 (Dropout)       (None, 32, 32, 8)         0         
_________________________________________________________________
separable_conv2d_1896 (Separ (None, 32, 32, 64)        648       
_________________________________________________________________
activation_2065 (Activation) (None, 32, 32, 64)        0         
_________________________________________________________________
dropout_2065 (Dropout)       (None, 32, 32, 64)        0         
_________________________________________________________________
max_pooling2d_486 (MaxPoolin (None, 16, 16, 64)        0         
_________________________________________________________________
separable_conv2d_1897 (Separ (None, 16, 16, 16)        1616      
_________________________________________________________________
activation_2066 (Activation) (None, 16, 16, 16)        0         
_________________________________________________________________
dropout_2066 (Dropout)       (None, 16, 16, 16)        0         
_________________________________________________________________
separable_conv2d_1898 (Separ (None, 16, 16, 128)       2320      
_________________________________________________________________
batch_normalization_1229 (Ba (None, 16, 16, 128)       512       
_________________________________________________________________
activation_2067 (Activation) (None, 16, 16, 128)       0         
_________________________________________________________________
dropout_2067 (Dropout)       (None, 16, 16, 128)       0         
_________________________________________________________________
separable_conv2d_1899 (Separ (None, 16, 16, 64)        9408      
_________________________________________________________________
batch_normalization_1230 (Ba (None, 16, 16, 64)        256       
_________________________________________________________________
activation_2068 (Activation) (None, 16, 16, 64)        0         
_________________________________________________________________
dropout_2068 (Dropout)       (None, 16, 16, 64)        0         
_________________________________________________________________
separable_conv2d_1900 (Separ (None, 16, 16, 512)       33856     
_________________________________________________________________
batch_normalization_1231 (Ba (None, 16, 16, 512)       2048      
_________________________________________________________________
activation_2069 (Activation) (None, 16, 16, 512)       0         
_________________________________________________________________
dropout_2069 (Dropout)       (None, 16, 16, 512)       0         
_________________________________________________________________
max_pooling2d_487 (MaxPoolin (None, 8, 8, 512)         0         
_________________________________________________________________
separable_conv2d_1901 (Separ (None, 8, 8, 128)         70272     
_________________________________________________________________
activation_2070 (Activation) (None, 8, 8, 128)         0         
_________________________________________________________________
dropout_2070 (Dropout)       (None, 8, 8, 128)         0         
_________________________________________________________________
separable_conv2d_1902 (Separ (None, 8, 8, 32)          5280      
_________________________________________________________________
activation_2071 (Activation) (None, 8, 8, 32)          0         
_________________________________________________________________
dropout_2071 (Dropout)       (None, 8, 8, 32)          0         
_________________________________________________________________
separable_conv2d_1903 (Separ (None, 8, 8, 256)         8736      
_________________________________________________________________
batch_normalization_1232 (Ba (None, 8, 8, 256)         1024      
_________________________________________________________________
activation_2072 (Activation) (None, 8, 8, 256)         0         
_________________________________________________________________
dropout_2072 (Dropout)       (None, 8, 8, 256)         0         
_________________________________________________________________
max_pooling2d_488 (MaxPoolin (None, 4, 4, 256)         0         
_________________________________________________________________
flatten_166 (Flatten)        (None, 4096)              0         
_________________________________________________________________
dense_335 (Dense)            (None, 2048)              8390656   
_________________________________________________________________
batch_normalization_1233 (Ba (None, 2048)              8192      
_________________________________________________________________
activation_2073 (Activation) (None, 2048)              0         
_________________________________________________________________
dropout_2073 (Dropout)       (None, 2048)              0         
_________________________________________________________________
dense_336 (Dense)            (None, 100)               204900    
=================================================================
Total params: 8,753,999
Trainable params: 8,747,471
Non-trainable params: 6,528
_________________________________________________________________
