Model: "sequential_253"
_________________________________________________________________
Layer (type)                 Output Shape              Param #   
=================================================================
separable_conv2d_2822 (Separ (None, 32, 32, 32)        155       
_________________________________________________________________
activation_3078 (Activation) (None, 32, 32, 32)        0         
_________________________________________________________________
dropout_3078 (Dropout)       (None, 32, 32, 32)        0         
_________________________________________________________________
separable_conv2d_2823 (Separ (None, 32, 32, 256)       8736      
_________________________________________________________________
batch_normalization_1803 (Ba (None, 32, 32, 256)       1024      
_________________________________________________________________
activation_3079 (Activation) (None, 32, 32, 256)       0         
_________________________________________________________________
dropout_3079 (Dropout)       (None, 32, 32, 256)       0         
_________________________________________________________________
separable_conv2d_2824 (Separ (None, 32, 32, 8)         4360      
_________________________________________________________________
activation_3080 (Activation) (None, 32, 32, 8)         0         
_________________________________________________________________
dropout_3080 (Dropout)       (None, 32, 32, 8)         0         
_________________________________________________________________
separable_conv2d_2825 (Separ (None, 32, 32, 64)        648       
_________________________________________________________________
activation_3081 (Activation) (None, 32, 32, 64)        0         
_________________________________________________________________
dropout_3081 (Dropout)       (None, 32, 32, 64)        0         
_________________________________________________________________
max_pooling2d_737 (MaxPoolin (None, 16, 16, 64)        0         
_________________________________________________________________
separable_conv2d_2826 (Separ (None, 16, 16, 16)        1616      
_________________________________________________________________
activation_3082 (Activation) (None, 16, 16, 16)        0         
_________________________________________________________________
dropout_3082 (Dropout)       (None, 16, 16, 16)        0         
_________________________________________________________________
separable_conv2d_2827 (Separ (None, 16, 16, 256)       4496      
_________________________________________________________________
batch_normalization_1804 (Ba (None, 16, 16, 256)       1024      
_________________________________________________________________
activation_3083 (Activation) (None, 16, 16, 256)       0         
_________________________________________________________________
dropout_3083 (Dropout)       (None, 16, 16, 256)       0         
_________________________________________________________________
separable_conv2d_2828 (Separ (None, 16, 16, 64)        18752     
_________________________________________________________________
batch_normalization_1805 (Ba (None, 16, 16, 64)        256       
_________________________________________________________________
activation_3084 (Activation) (None, 16, 16, 64)        0         
_________________________________________________________________
dropout_3084 (Dropout)       (None, 16, 16, 64)        0         
_________________________________________________________________
separable_conv2d_2829 (Separ (None, 16, 16, 512)       33856     
_________________________________________________________________
batch_normalization_1806 (Ba (None, 16, 16, 512)       2048      
_________________________________________________________________
activation_3085 (Activation) (None, 16, 16, 512)       0         
_________________________________________________________________
dropout_3085 (Dropout)       (None, 16, 16, 512)       0         
_________________________________________________________________
max_pooling2d_738 (MaxPoolin (None, 8, 8, 512)         0         
_________________________________________________________________
separable_conv2d_2830 (Separ (None, 8, 8, 128)         70272     
_________________________________________________________________
activation_3086 (Activation) (None, 8, 8, 128)         0         
_________________________________________________________________
dropout_3086 (Dropout)       (None, 8, 8, 128)         0         
_________________________________________________________________
separable_conv2d_2831 (Separ (None, 8, 8, 32)          5280      
_________________________________________________________________
batch_normalization_1807 (Ba (None, 8, 8, 32)          128       
_________________________________________________________________
activation_3087 (Activation) (None, 8, 8, 32)          0         
_________________________________________________________________
dropout_3087 (Dropout)       (None, 8, 8, 32)          0         
_________________________________________________________________
separable_conv2d_2832 (Separ (None, 8, 8, 8)           552       
_________________________________________________________________
batch_normalization_1808 (Ba (None, 8, 8, 8)           32        
_________________________________________________________________
activation_3088 (Activation) (None, 8, 8, 8)           0         
_________________________________________________________________
dropout_3088 (Dropout)       (None, 8, 8, 8)           0         
_________________________________________________________________
max_pooling2d_739 (MaxPoolin (None, 4, 4, 8)           0         
_________________________________________________________________
flatten_253 (Flatten)        (None, 128)               0         
_________________________________________________________________
dense_509 (Dense)            (None, 2048)              264192    
_________________________________________________________________
batch_normalization_1809 (Ba (None, 2048)              8192      
_________________________________________________________________
activation_3089 (Activation) (None, 2048)              0         
_________________________________________________________________
dropout_3089 (Dropout)       (None, 2048)              0         
_________________________________________________________________
dense_510 (Dense)            (None, 100)               204900    
=================================================================
Total params: 630,519
Trainable params: 624,167
Non-trainable params: 6,352
_________________________________________________________________
