Model: "sequential_274"
_________________________________________________________________
Layer (type)                 Output Shape              Param #   
=================================================================
separable_conv2d_3041 (Separ (None, 32, 32, 32)        155       
_________________________________________________________________
activation_3318 (Activation) (None, 32, 32, 32)        0         
_________________________________________________________________
dropout_3318 (Dropout)       (None, 32, 32, 32)        0         
_________________________________________________________________
separable_conv2d_3042 (Separ (None, 32, 32, 256)       8736      
_________________________________________________________________
batch_normalization_1939 (Ba (None, 32, 32, 256)       1024      
_________________________________________________________________
activation_3319 (Activation) (None, 32, 32, 256)       0         
_________________________________________________________________
dropout_3319 (Dropout)       (None, 32, 32, 256)       0         
_________________________________________________________________
separable_conv2d_3043 (Separ (None, 32, 32, 8)         4360      
_________________________________________________________________
activation_3320 (Activation) (None, 32, 32, 8)         0         
_________________________________________________________________
dropout_3320 (Dropout)       (None, 32, 32, 8)         0         
_________________________________________________________________
separable_conv2d_3044 (Separ (None, 32, 32, 64)        648       
_________________________________________________________________
activation_3321 (Activation) (None, 32, 32, 64)        0         
_________________________________________________________________
dropout_3321 (Dropout)       (None, 32, 32, 64)        0         
_________________________________________________________________
max_pooling2d_795 (MaxPoolin (None, 16, 16, 64)        0         
_________________________________________________________________
separable_conv2d_3045 (Separ (None, 16, 16, 16)        1616      
_________________________________________________________________
activation_3322 (Activation) (None, 16, 16, 16)        0         
_________________________________________________________________
dropout_3322 (Dropout)       (None, 16, 16, 16)        0         
_________________________________________________________________
separable_conv2d_3046 (Separ (None, 16, 16, 128)       2320      
_________________________________________________________________
batch_normalization_1940 (Ba (None, 16, 16, 128)       512       
_________________________________________________________________
activation_3323 (Activation) (None, 16, 16, 128)       0         
_________________________________________________________________
dropout_3323 (Dropout)       (None, 16, 16, 128)       0         
_________________________________________________________________
separable_conv2d_3047 (Separ (None, 16, 16, 64)        9408      
_________________________________________________________________
batch_normalization_1941 (Ba (None, 16, 16, 64)        256       
_________________________________________________________________
activation_3324 (Activation) (None, 16, 16, 64)        0         
_________________________________________________________________
dropout_3324 (Dropout)       (None, 16, 16, 64)        0         
_________________________________________________________________
separable_conv2d_3048 (Separ (None, 16, 16, 512)       33856     
_________________________________________________________________
batch_normalization_1942 (Ba (None, 16, 16, 512)       2048      
_________________________________________________________________
activation_3325 (Activation) (None, 16, 16, 512)       0         
_________________________________________________________________
dropout_3325 (Dropout)       (None, 16, 16, 512)       0         
_________________________________________________________________
max_pooling2d_796 (MaxPoolin (None, 8, 8, 512)         0         
_________________________________________________________________
separable_conv2d_3049 (Separ (None, 8, 8, 128)         70272     
_________________________________________________________________
activation_3326 (Activation) (None, 8, 8, 128)         0         
_________________________________________________________________
dropout_3326 (Dropout)       (None, 8, 8, 128)         0         
_________________________________________________________________
separable_conv2d_3050 (Separ (None, 8, 8, 32)          5280      
_________________________________________________________________
batch_normalization_1943 (Ba (None, 8, 8, 32)          128       
_________________________________________________________________
activation_3327 (Activation) (None, 8, 8, 32)          0         
_________________________________________________________________
dropout_3327 (Dropout)       (None, 8, 8, 32)          0         
_________________________________________________________________
separable_conv2d_3051 (Separ (None, 8, 8, 256)         8736      
_________________________________________________________________
batch_normalization_1944 (Ba (None, 8, 8, 256)         1024      
_________________________________________________________________
activation_3328 (Activation) (None, 8, 8, 256)         0         
_________________________________________________________________
dropout_3328 (Dropout)       (None, 8, 8, 256)         0         
_________________________________________________________________
max_pooling2d_797 (MaxPoolin (None, 4, 4, 256)         0         
_________________________________________________________________
flatten_274 (Flatten)        (None, 4096)              0         
_________________________________________________________________
dense_551 (Dense)            (None, 2048)              8390656   
_________________________________________________________________
batch_normalization_1945 (Ba (None, 2048)              8192      
_________________________________________________________________
activation_3329 (Activation) (None, 2048)              0         
_________________________________________________________________
dropout_3329 (Dropout)       (None, 2048)              0         
_________________________________________________________________
dense_552 (Dense)            (None, 100)               204900    
=================================================================
Total params: 8,754,127
Trainable params: 8,747,535
Non-trainable params: 6,592
_________________________________________________________________
