Model: "sequential_35"
_________________________________________________________________
Layer (type)                 Output Shape              Param #   
=================================================================
separable_conv2d_400 (Separa (None, 32, 32, 32)        155       
_________________________________________________________________
activation_438 (Activation)  (None, 32, 32, 32)        0         
_________________________________________________________________
dropout_438 (Dropout)        (None, 32, 32, 32)        0         
_________________________________________________________________
separable_conv2d_401 (Separa (None, 32, 32, 128)       4512      
_________________________________________________________________
batch_normalization_243 (Bat (None, 32, 32, 128)       512       
_________________________________________________________________
activation_439 (Activation)  (None, 32, 32, 128)       0         
_________________________________________________________________
dropout_439 (Dropout)        (None, 32, 32, 128)       0         
_________________________________________________________________
separable_conv2d_402 (Separa (None, 32, 32, 8)         2184      
_________________________________________________________________
activation_440 (Activation)  (None, 32, 32, 8)         0         
_________________________________________________________________
dropout_440 (Dropout)        (None, 32, 32, 8)         0         
_________________________________________________________________
separable_conv2d_403 (Separa (None, 32, 32, 64)        648       
_________________________________________________________________
activation_441 (Activation)  (None, 32, 32, 64)        0         
_________________________________________________________________
dropout_441 (Dropout)        (None, 32, 32, 64)        0         
_________________________________________________________________
max_pooling2d_94 (MaxPooling (None, 16, 16, 64)        0         
_________________________________________________________________
separable_conv2d_404 (Separa (None, 16, 16, 8)         1096      
_________________________________________________________________
activation_442 (Activation)  (None, 16, 16, 8)         0         
_________________________________________________________________
dropout_442 (Dropout)        (None, 16, 16, 8)         0         
_________________________________________________________________
separable_conv2d_405 (Separa (None, 16, 16, 128)       1224      
_________________________________________________________________
batch_normalization_244 (Bat (None, 16, 16, 128)       512       
_________________________________________________________________
activation_443 (Activation)  (None, 16, 16, 128)       0         
_________________________________________________________________
dropout_443 (Dropout)        (None, 16, 16, 128)       0         
_________________________________________________________________
separable_conv2d_406 (Separa (None, 16, 16, 64)        9408      
_________________________________________________________________
batch_normalization_245 (Bat (None, 16, 16, 64)        256       
_________________________________________________________________
activation_444 (Activation)  (None, 16, 16, 64)        0         
_________________________________________________________________
dropout_444 (Dropout)        (None, 16, 16, 64)        0         
_________________________________________________________________
separable_conv2d_407 (Separa (None, 16, 16, 512)       33856     
_________________________________________________________________
activation_445 (Activation)  (None, 16, 16, 512)       0         
_________________________________________________________________
dropout_445 (Dropout)        (None, 16, 16, 512)       0         
_________________________________________________________________
max_pooling2d_95 (MaxPooling (None, 8, 8, 512)         0         
_________________________________________________________________
separable_conv2d_408 (Separa (None, 8, 8, 32)          21024     
_________________________________________________________________
batch_normalization_246 (Bat (None, 8, 8, 32)          128       
_________________________________________________________________
activation_446 (Activation)  (None, 8, 8, 32)          0         
_________________________________________________________________
dropout_446 (Dropout)        (None, 8, 8, 32)          0         
_________________________________________________________________
max_pooling2d_96 (MaxPooling (None, 4, 4, 32)          0         
_________________________________________________________________
separable_conv2d_409 (Separa (None, 4, 4, 128)         4512      
_________________________________________________________________
activation_447 (Activation)  (None, 4, 4, 128)         0         
_________________________________________________________________
dropout_447 (Dropout)        (None, 4, 4, 128)         0         
_________________________________________________________________
separable_conv2d_410 (Separa (None, 4, 4, 32)          5280      
_________________________________________________________________
batch_normalization_247 (Bat (None, 4, 4, 32)          128       
_________________________________________________________________
activation_448 (Activation)  (None, 4, 4, 32)          0         
_________________________________________________________________
dropout_448 (Dropout)        (None, 4, 4, 32)          0         
_________________________________________________________________
separable_conv2d_411 (Separa (None, 4, 4, 256)         8736      
_________________________________________________________________
batch_normalization_248 (Bat (None, 4, 4, 256)         1024      
_________________________________________________________________
activation_449 (Activation)  (None, 4, 4, 256)         0         
_________________________________________________________________
dropout_449 (Dropout)        (None, 4, 4, 256)         0         
_________________________________________________________________
flatten_35 (Flatten)         (None, 4096)              0         
_________________________________________________________________
dense_73 (Dense)             (None, 2048)              8390656   
_________________________________________________________________
batch_normalization_249 (Bat (None, 2048)              8192      
_________________________________________________________________
activation_450 (Activation)  (None, 2048)              0         
_________________________________________________________________
dropout_450 (Dropout)        (None, 2048)              0         
_________________________________________________________________
dense_74 (Dense)             (None, 100)               204900    
=================================================================
Total params: 8,698,943
Trainable params: 8,693,567
Non-trainable params: 5,376
_________________________________________________________________
