Model: "sequential_259"
_________________________________________________________________
Layer (type)                 Output Shape              Param #   
=================================================================
separable_conv2d_2887 (Separ (None, 32, 32, 32)        155       
_________________________________________________________________
activation_3149 (Activation) (None, 32, 32, 32)        0         
_________________________________________________________________
dropout_3149 (Dropout)       (None, 32, 32, 32)        0         
_________________________________________________________________
separable_conv2d_2888 (Separ (None, 32, 32, 256)       8736      
_________________________________________________________________
batch_normalization_1843 (Ba (None, 32, 32, 256)       1024      
_________________________________________________________________
activation_3150 (Activation) (None, 32, 32, 256)       0         
_________________________________________________________________
dropout_3150 (Dropout)       (None, 32, 32, 256)       0         
_________________________________________________________________
separable_conv2d_2889 (Separ (None, 32, 32, 8)         4360      
_________________________________________________________________
activation_3151 (Activation) (None, 32, 32, 8)         0         
_________________________________________________________________
dropout_3151 (Dropout)       (None, 32, 32, 8)         0         
_________________________________________________________________
separable_conv2d_2890 (Separ (None, 32, 32, 64)        648       
_________________________________________________________________
activation_3152 (Activation) (None, 32, 32, 64)        0         
_________________________________________________________________
dropout_3152 (Dropout)       (None, 32, 32, 64)        0         
_________________________________________________________________
max_pooling2d_754 (MaxPoolin (None, 16, 16, 64)        0         
_________________________________________________________________
separable_conv2d_2891 (Separ (None, 16, 16, 16)        1616      
_________________________________________________________________
activation_3153 (Activation) (None, 16, 16, 16)        0         
_________________________________________________________________
dropout_3153 (Dropout)       (None, 16, 16, 16)        0         
_________________________________________________________________
separable_conv2d_2892 (Separ (None, 16, 16, 256)       4496      
_________________________________________________________________
batch_normalization_1844 (Ba (None, 16, 16, 256)       1024      
_________________________________________________________________
activation_3154 (Activation) (None, 16, 16, 256)       0         
_________________________________________________________________
dropout_3154 (Dropout)       (None, 16, 16, 256)       0         
_________________________________________________________________
separable_conv2d_2893 (Separ (None, 16, 16, 64)        18752     
_________________________________________________________________
batch_normalization_1845 (Ba (None, 16, 16, 64)        256       
_________________________________________________________________
activation_3155 (Activation) (None, 16, 16, 64)        0         
_________________________________________________________________
dropout_3155 (Dropout)       (None, 16, 16, 64)        0         
_________________________________________________________________
separable_conv2d_2894 (Separ (None, 16, 16, 512)       33856     
_________________________________________________________________
batch_normalization_1846 (Ba (None, 16, 16, 512)       2048      
_________________________________________________________________
activation_3156 (Activation) (None, 16, 16, 512)       0         
_________________________________________________________________
dropout_3156 (Dropout)       (None, 16, 16, 512)       0         
_________________________________________________________________
max_pooling2d_755 (MaxPoolin (None, 8, 8, 512)         0         
_________________________________________________________________
separable_conv2d_2895 (Separ (None, 8, 8, 128)         70272     
_________________________________________________________________
activation_3157 (Activation) (None, 8, 8, 128)         0         
_________________________________________________________________
dropout_3157 (Dropout)       (None, 8, 8, 128)         0         
_________________________________________________________________
separable_conv2d_2896 (Separ (None, 8, 8, 32)          5280      
_________________________________________________________________
batch_normalization_1847 (Ba (None, 8, 8, 32)          128       
_________________________________________________________________
activation_3158 (Activation) (None, 8, 8, 32)          0         
_________________________________________________________________
dropout_3158 (Dropout)       (None, 8, 8, 32)          0         
_________________________________________________________________
separable_conv2d_2897 (Separ (None, 8, 8, 256)         8736      
_________________________________________________________________
batch_normalization_1848 (Ba (None, 8, 8, 256)         1024      
_________________________________________________________________
activation_3159 (Activation) (None, 8, 8, 256)         0         
_________________________________________________________________
dropout_3159 (Dropout)       (None, 8, 8, 256)         0         
_________________________________________________________________
max_pooling2d_756 (MaxPoolin (None, 4, 4, 256)         0         
_________________________________________________________________
flatten_259 (Flatten)        (None, 4096)              0         
_________________________________________________________________
dense_521 (Dense)            (None, 2048)              8390656   
_________________________________________________________________
batch_normalization_1849 (Ba (None, 2048)              8192      
_________________________________________________________________
activation_3160 (Activation) (None, 2048)              0         
_________________________________________________________________
dropout_3160 (Dropout)       (None, 2048)              0         
_________________________________________________________________
dense_522 (Dense)            (None, 100)               204900    
=================================================================
Total params: 8,766,159
Trainable params: 8,759,311
Non-trainable params: 6,848
_________________________________________________________________
