Model: "sequential_307"
_________________________________________________________________
Layer (type)                 Output Shape              Param #   
=================================================================
separable_conv2d_3367 (Separ (None, 32, 32, 32)        155       
_________________________________________________________________
activation_3677 (Activation) (None, 32, 32, 32)        0         
_________________________________________________________________
dropout_3677 (Dropout)       (None, 32, 32, 32)        0         
_________________________________________________________________
separable_conv2d_3368 (Separ (None, 32, 32, 256)       8736      
_________________________________________________________________
batch_normalization_2140 (Ba (None, 32, 32, 256)       1024      
_________________________________________________________________
activation_3678 (Activation) (None, 32, 32, 256)       0         
_________________________________________________________________
dropout_3678 (Dropout)       (None, 32, 32, 256)       0         
_________________________________________________________________
separable_conv2d_3369 (Separ (None, 32, 32, 8)         4360      
_________________________________________________________________
activation_3679 (Activation) (None, 32, 32, 8)         0         
_________________________________________________________________
dropout_3679 (Dropout)       (None, 32, 32, 8)         0         
_________________________________________________________________
separable_conv2d_3370 (Separ (None, 32, 32, 64)        648       
_________________________________________________________________
activation_3680 (Activation) (None, 32, 32, 64)        0         
_________________________________________________________________
dropout_3680 (Dropout)       (None, 32, 32, 64)        0         
_________________________________________________________________
max_pooling2d_879 (MaxPoolin (None, 16, 16, 64)        0         
_________________________________________________________________
separable_conv2d_3371 (Separ (None, 16, 16, 16)        1616      
_________________________________________________________________
activation_3681 (Activation) (None, 16, 16, 16)        0         
_________________________________________________________________
dropout_3681 (Dropout)       (None, 16, 16, 16)        0         
_________________________________________________________________
separable_conv2d_3372 (Separ (None, 16, 16, 128)       2320      
_________________________________________________________________
batch_normalization_2141 (Ba (None, 16, 16, 128)       512       
_________________________________________________________________
activation_3682 (Activation) (None, 16, 16, 128)       0         
_________________________________________________________________
dropout_3682 (Dropout)       (None, 16, 16, 128)       0         
_________________________________________________________________
separable_conv2d_3373 (Separ (None, 16, 16, 128)       17664     
_________________________________________________________________
batch_normalization_2142 (Ba (None, 16, 16, 128)       512       
_________________________________________________________________
activation_3683 (Activation) (None, 16, 16, 128)       0         
_________________________________________________________________
dropout_3683 (Dropout)       (None, 16, 16, 128)       0         
_________________________________________________________________
separable_conv2d_3374 (Separ (None, 16, 16, 32)        5280      
_________________________________________________________________
activation_3684 (Activation) (None, 16, 16, 32)        0         
_________________________________________________________________
dropout_3684 (Dropout)       (None, 16, 16, 32)        0         
_________________________________________________________________
separable_conv2d_3375 (Separ (None, 16, 16, 256)       8736      
_________________________________________________________________
batch_normalization_2143 (Ba (None, 16, 16, 256)       1024      
_________________________________________________________________
activation_3685 (Activation) (None, 16, 16, 256)       0         
_________________________________________________________________
dropout_3685 (Dropout)       (None, 16, 16, 256)       0         
_________________________________________________________________
max_pooling2d_880 (MaxPoolin (None, 8, 8, 256)         0         
_________________________________________________________________
flatten_307 (Flatten)        (None, 16384)             0         
_________________________________________________________________
dense_617 (Dense)            (None, 2048)              33556480  
_________________________________________________________________
batch_normalization_2144 (Ba (None, 2048)              8192      
_________________________________________________________________
activation_3686 (Activation) (None, 2048)              0         
_________________________________________________________________
dropout_3686 (Dropout)       (None, 2048)              0         
_________________________________________________________________
dense_618 (Dense)            (None, 100)               204900    
=================================================================
Total params: 33,822,159
Trainable params: 33,816,527
Non-trainable params: 5,632
_________________________________________________________________
