Model: "sequential_288"
_________________________________________________________________
Layer (type)                 Output Shape              Param #   
=================================================================
separable_conv2d_3184 (Separ (None, 32, 32, 32)        155       
_________________________________________________________________
activation_3475 (Activation) (None, 32, 32, 32)        0         
_________________________________________________________________
dropout_3475 (Dropout)       (None, 32, 32, 32)        0         
_________________________________________________________________
separable_conv2d_3185 (Separ (None, 32, 32, 256)       8736      
_________________________________________________________________
batch_normalization_2029 (Ba (None, 32, 32, 256)       1024      
_________________________________________________________________
activation_3476 (Activation) (None, 32, 32, 256)       0         
_________________________________________________________________
dropout_3476 (Dropout)       (None, 32, 32, 256)       0         
_________________________________________________________________
separable_conv2d_3186 (Separ (None, 32, 32, 8)         4360      
_________________________________________________________________
activation_3477 (Activation) (None, 32, 32, 8)         0         
_________________________________________________________________
dropout_3477 (Dropout)       (None, 32, 32, 8)         0         
_________________________________________________________________
separable_conv2d_3187 (Separ (None, 32, 32, 64)        648       
_________________________________________________________________
activation_3478 (Activation) (None, 32, 32, 64)        0         
_________________________________________________________________
dropout_3478 (Dropout)       (None, 32, 32, 64)        0         
_________________________________________________________________
max_pooling2d_834 (MaxPoolin (None, 16, 16, 64)        0         
_________________________________________________________________
separable_conv2d_3188 (Separ (None, 16, 16, 256)       17216     
_________________________________________________________________
batch_normalization_2030 (Ba (None, 16, 16, 256)       1024      
_________________________________________________________________
activation_3479 (Activation) (None, 16, 16, 256)       0         
_________________________________________________________________
dropout_3479 (Dropout)       (None, 16, 16, 256)       0         
_________________________________________________________________
separable_conv2d_3189 (Separ (None, 16, 16, 64)        18752     
_________________________________________________________________
batch_normalization_2031 (Ba (None, 16, 16, 64)        256       
_________________________________________________________________
activation_3480 (Activation) (None, 16, 16, 64)        0         
_________________________________________________________________
dropout_3480 (Dropout)       (None, 16, 16, 64)        0         
_________________________________________________________________
separable_conv2d_3190 (Separ (None, 16, 16, 64)        4736      
_________________________________________________________________
batch_normalization_2032 (Ba (None, 16, 16, 64)        256       
_________________________________________________________________
activation_3481 (Activation) (None, 16, 16, 64)        0         
_________________________________________________________________
dropout_3481 (Dropout)       (None, 16, 16, 64)        0         
_________________________________________________________________
separable_conv2d_3191 (Separ (None, 16, 16, 512)       33856     
_________________________________________________________________
batch_normalization_2033 (Ba (None, 16, 16, 512)       2048      
_________________________________________________________________
activation_3482 (Activation) (None, 16, 16, 512)       0         
_________________________________________________________________
dropout_3482 (Dropout)       (None, 16, 16, 512)       0         
_________________________________________________________________
max_pooling2d_835 (MaxPoolin (None, 8, 8, 512)         0         
_________________________________________________________________
flatten_288 (Flatten)        (None, 32768)             0         
_________________________________________________________________
dense_579 (Dense)            (None, 2048)              67110912  
_________________________________________________________________
batch_normalization_2034 (Ba (None, 2048)              8192      
_________________________________________________________________
activation_3483 (Activation) (None, 2048)              0         
_________________________________________________________________
dropout_3483 (Dropout)       (None, 2048)              0         
_________________________________________________________________
dense_580 (Dense)            (None, 100)               204900    
=================================================================
Total params: 67,417,071
Trainable params: 67,410,671
Non-trainable params: 6,400
_________________________________________________________________
