Model: "sequential_265"
_________________________________________________________________
Layer (type)                 Output Shape              Param #   
=================================================================
separable_conv2d_2950 (Separ (None, 32, 32, 32)        155       
_________________________________________________________________
activation_3218 (Activation) (None, 32, 32, 32)        0         
_________________________________________________________________
dropout_3218 (Dropout)       (None, 32, 32, 32)        0         
_________________________________________________________________
separable_conv2d_2951 (Separ (None, 32, 32, 256)       8736      
_________________________________________________________________
batch_normalization_1883 (Ba (None, 32, 32, 256)       1024      
_________________________________________________________________
activation_3219 (Activation) (None, 32, 32, 256)       0         
_________________________________________________________________
dropout_3219 (Dropout)       (None, 32, 32, 256)       0         
_________________________________________________________________
separable_conv2d_2952 (Separ (None, 32, 32, 8)         4360      
_________________________________________________________________
activation_3220 (Activation) (None, 32, 32, 8)         0         
_________________________________________________________________
dropout_3220 (Dropout)       (None, 32, 32, 8)         0         
_________________________________________________________________
separable_conv2d_2953 (Separ (None, 32, 32, 64)        648       
_________________________________________________________________
activation_3221 (Activation) (None, 32, 32, 64)        0         
_________________________________________________________________
dropout_3221 (Dropout)       (None, 32, 32, 64)        0         
_________________________________________________________________
max_pooling2d_770 (MaxPoolin (None, 16, 16, 64)        0         
_________________________________________________________________
separable_conv2d_2954 (Separ (None, 16, 16, 16)        1616      
_________________________________________________________________
activation_3222 (Activation) (None, 16, 16, 16)        0         
_________________________________________________________________
dropout_3222 (Dropout)       (None, 16, 16, 16)        0         
_________________________________________________________________
separable_conv2d_2955 (Separ (None, 16, 16, 256)       4496      
_________________________________________________________________
batch_normalization_1884 (Ba (None, 16, 16, 256)       1024      
_________________________________________________________________
activation_3223 (Activation) (None, 16, 16, 256)       0         
_________________________________________________________________
dropout_3223 (Dropout)       (None, 16, 16, 256)       0         
_________________________________________________________________
separable_conv2d_2956 (Separ (None, 16, 16, 64)        18752     
_________________________________________________________________
batch_normalization_1885 (Ba (None, 16, 16, 64)        256       
_________________________________________________________________
activation_3224 (Activation) (None, 16, 16, 64)        0         
_________________________________________________________________
dropout_3224 (Dropout)       (None, 16, 16, 64)        0         
_________________________________________________________________
separable_conv2d_2957 (Separ (None, 16, 16, 512)       33856     
_________________________________________________________________
batch_normalization_1886 (Ba (None, 16, 16, 512)       2048      
_________________________________________________________________
activation_3225 (Activation) (None, 16, 16, 512)       0         
_________________________________________________________________
dropout_3225 (Dropout)       (None, 16, 16, 512)       0         
_________________________________________________________________
max_pooling2d_771 (MaxPoolin (None, 8, 8, 512)         0         
_________________________________________________________________
separable_conv2d_2958 (Separ (None, 8, 8, 128)         70272     
_________________________________________________________________
activation_3226 (Activation) (None, 8, 8, 128)         0         
_________________________________________________________________
dropout_3226 (Dropout)       (None, 8, 8, 128)         0         
_________________________________________________________________
separable_conv2d_2959 (Separ (None, 8, 8, 32)          5280      
_________________________________________________________________
activation_3227 (Activation) (None, 8, 8, 32)          0         
_________________________________________________________________
dropout_3227 (Dropout)       (None, 8, 8, 32)          0         
_________________________________________________________________
separable_conv2d_2960 (Separ (None, 8, 8, 64)          2400      
_________________________________________________________________
batch_normalization_1887 (Ba (None, 8, 8, 64)          256       
_________________________________________________________________
activation_3228 (Activation) (None, 8, 8, 64)          0         
_________________________________________________________________
dropout_3228 (Dropout)       (None, 8, 8, 64)          0         
_________________________________________________________________
max_pooling2d_772 (MaxPoolin (None, 4, 4, 64)          0         
_________________________________________________________________
flatten_265 (Flatten)        (None, 1024)              0         
_________________________________________________________________
dense_533 (Dense)            (None, 2048)              2099200   
_________________________________________________________________
batch_normalization_1888 (Ba (None, 2048)              8192      
_________________________________________________________________
activation_3229 (Activation) (None, 2048)              0         
_________________________________________________________________
dropout_3229 (Dropout)       (None, 2048)              0         
_________________________________________________________________
dense_534 (Dense)            (None, 100)               204900    
=================================================================
Total params: 2,467,471
Trainable params: 2,461,071
Non-trainable params: 6,400
_________________________________________________________________
