Model: "sequential_21"
_________________________________________________________________
Layer (type)                 Output Shape              Param #   
=================================================================
separable_conv2d_234 (Separa (None, 32, 32, 32)        155       
_________________________________________________________________
activation_258 (Activation)  (None, 32, 32, 32)        0         
_________________________________________________________________
dropout_258 (Dropout)        (None, 32, 32, 32)        0         
_________________________________________________________________
separable_conv2d_235 (Separa (None, 32, 32, 128)       4512      
_________________________________________________________________
batch_normalization_133 (Bat (None, 32, 32, 128)       512       
_________________________________________________________________
activation_259 (Activation)  (None, 32, 32, 128)       0         
_________________________________________________________________
dropout_259 (Dropout)        (None, 32, 32, 128)       0         
_________________________________________________________________
separable_conv2d_236 (Separa (None, 32, 32, 8)         2184      
_________________________________________________________________
activation_260 (Activation)  (None, 32, 32, 8)         0         
_________________________________________________________________
dropout_260 (Dropout)        (None, 32, 32, 8)         0         
_________________________________________________________________
separable_conv2d_237 (Separa (None, 32, 32, 64)        648       
_________________________________________________________________
activation_261 (Activation)  (None, 32, 32, 64)        0         
_________________________________________________________________
dropout_261 (Dropout)        (None, 32, 32, 64)        0         
_________________________________________________________________
max_pooling2d_52 (MaxPooling (None, 16, 16, 64)        0         
_________________________________________________________________
separable_conv2d_238 (Separa (None, 16, 16, 8)         1096      
_________________________________________________________________
activation_262 (Activation)  (None, 16, 16, 8)         0         
_________________________________________________________________
dropout_262 (Dropout)        (None, 16, 16, 8)         0         
_________________________________________________________________
separable_conv2d_239 (Separa (None, 16, 16, 128)       1224      
_________________________________________________________________
batch_normalization_134 (Bat (None, 16, 16, 128)       512       
_________________________________________________________________
activation_263 (Activation)  (None, 16, 16, 128)       0         
_________________________________________________________________
dropout_263 (Dropout)        (None, 16, 16, 128)       0         
_________________________________________________________________
separable_conv2d_240 (Separa (None, 16, 16, 64)        9408      
_________________________________________________________________
batch_normalization_135 (Bat (None, 16, 16, 64)        256       
_________________________________________________________________
activation_264 (Activation)  (None, 16, 16, 64)        0         
_________________________________________________________________
dropout_264 (Dropout)        (None, 16, 16, 64)        0         
_________________________________________________________________
separable_conv2d_241 (Separa (None, 16, 16, 512)       33856     
_________________________________________________________________
batch_normalization_136 (Bat (None, 16, 16, 512)       2048      
_________________________________________________________________
activation_265 (Activation)  (None, 16, 16, 512)       0         
_________________________________________________________________
dropout_265 (Dropout)        (None, 16, 16, 512)       0         
_________________________________________________________________
max_pooling2d_53 (MaxPooling (None, 8, 8, 512)         0         
_________________________________________________________________
separable_conv2d_242 (Separa (None, 8, 8, 32)          21024     
_________________________________________________________________
batch_normalization_137 (Bat (None, 8, 8, 32)          128       
_________________________________________________________________
activation_266 (Activation)  (None, 8, 8, 32)          0         
_________________________________________________________________
dropout_266 (Dropout)        (None, 8, 8, 32)          0         
_________________________________________________________________
max_pooling2d_54 (MaxPooling (None, 4, 4, 32)          0         
_________________________________________________________________
separable_conv2d_243 (Separa (None, 4, 4, 128)         4512      
_________________________________________________________________
activation_267 (Activation)  (None, 4, 4, 128)         0         
_________________________________________________________________
dropout_267 (Dropout)        (None, 4, 4, 128)         0         
_________________________________________________________________
separable_conv2d_244 (Separa (None, 4, 4, 32)          5280      
_________________________________________________________________
batch_normalization_138 (Bat (None, 4, 4, 32)          128       
_________________________________________________________________
activation_268 (Activation)  (None, 4, 4, 32)          0         
_________________________________________________________________
dropout_268 (Dropout)        (None, 4, 4, 32)          0         
_________________________________________________________________
separable_conv2d_245 (Separa (None, 4, 4, 256)         8736      
_________________________________________________________________
batch_normalization_139 (Bat (None, 4, 4, 256)         1024      
_________________________________________________________________
activation_269 (Activation)  (None, 4, 4, 256)         0         
_________________________________________________________________
dropout_269 (Dropout)        (None, 4, 4, 256)         0         
_________________________________________________________________
flatten_21 (Flatten)         (None, 4096)              0         
_________________________________________________________________
dense_45 (Dense)             (None, 2048)              8390656   
_________________________________________________________________
batch_normalization_140 (Bat (None, 2048)              8192      
_________________________________________________________________
activation_270 (Activation)  (None, 2048)              0         
_________________________________________________________________
dropout_270 (Dropout)        (None, 2048)              0         
_________________________________________________________________
dense_46 (Dense)             (None, 100)               204900    
=================================================================
Total params: 8,700,991
Trainable params: 8,694,591
Non-trainable params: 6,400
_________________________________________________________________
