Model: "sequential_227"
_________________________________________________________________
Layer (type)                 Output Shape              Param #   
=================================================================
separable_conv2d_2547 (Separ (None, 32, 32, 32)        155       
_________________________________________________________________
activation_2777 (Activation) (None, 32, 32, 32)        0         
_________________________________________________________________
dropout_2777 (Dropout)       (None, 32, 32, 32)        0         
_________________________________________________________________
separable_conv2d_2548 (Separ (None, 32, 32, 256)       8736      
_________________________________________________________________
batch_normalization_1631 (Ba (None, 32, 32, 256)       1024      
_________________________________________________________________
activation_2778 (Activation) (None, 32, 32, 256)       0         
_________________________________________________________________
dropout_2778 (Dropout)       (None, 32, 32, 256)       0         
_________________________________________________________________
separable_conv2d_2549 (Separ (None, 32, 32, 8)         4360      
_________________________________________________________________
activation_2779 (Activation) (None, 32, 32, 8)         0         
_________________________________________________________________
dropout_2779 (Dropout)       (None, 32, 32, 8)         0         
_________________________________________________________________
separable_conv2d_2550 (Separ (None, 32, 32, 64)        648       
_________________________________________________________________
activation_2780 (Activation) (None, 32, 32, 64)        0         
_________________________________________________________________
dropout_2780 (Dropout)       (None, 32, 32, 64)        0         
_________________________________________________________________
max_pooling2d_664 (MaxPoolin (None, 16, 16, 64)        0         
_________________________________________________________________
separable_conv2d_2551 (Separ (None, 16, 16, 16)        1616      
_________________________________________________________________
activation_2781 (Activation) (None, 16, 16, 16)        0         
_________________________________________________________________
dropout_2781 (Dropout)       (None, 16, 16, 16)        0         
_________________________________________________________________
separable_conv2d_2552 (Separ (None, 16, 16, 256)       4496      
_________________________________________________________________
batch_normalization_1632 (Ba (None, 16, 16, 256)       1024      
_________________________________________________________________
activation_2782 (Activation) (None, 16, 16, 256)       0         
_________________________________________________________________
dropout_2782 (Dropout)       (None, 16, 16, 256)       0         
_________________________________________________________________
separable_conv2d_2553 (Separ (None, 16, 16, 64)        18752     
_________________________________________________________________
batch_normalization_1633 (Ba (None, 16, 16, 64)        256       
_________________________________________________________________
activation_2783 (Activation) (None, 16, 16, 64)        0         
_________________________________________________________________
dropout_2783 (Dropout)       (None, 16, 16, 64)        0         
_________________________________________________________________
separable_conv2d_2554 (Separ (None, 16, 16, 512)       33856     
_________________________________________________________________
batch_normalization_1634 (Ba (None, 16, 16, 512)       2048      
_________________________________________________________________
activation_2784 (Activation) (None, 16, 16, 512)       0         
_________________________________________________________________
dropout_2784 (Dropout)       (None, 16, 16, 512)       0         
_________________________________________________________________
max_pooling2d_665 (MaxPoolin (None, 8, 8, 512)         0         
_________________________________________________________________
separable_conv2d_2555 (Separ (None, 8, 8, 128)         70272     
_________________________________________________________________
activation_2785 (Activation) (None, 8, 8, 128)         0         
_________________________________________________________________
dropout_2785 (Dropout)       (None, 8, 8, 128)         0         
_________________________________________________________________
separable_conv2d_2556 (Separ (None, 8, 8, 32)          5280      
_________________________________________________________________
activation_2786 (Activation) (None, 8, 8, 32)          0         
_________________________________________________________________
dropout_2786 (Dropout)       (None, 8, 8, 32)          0         
_________________________________________________________________
separable_conv2d_2557 (Separ (None, 8, 8, 256)         8736      
_________________________________________________________________
batch_normalization_1635 (Ba (None, 8, 8, 256)         1024      
_________________________________________________________________
activation_2787 (Activation) (None, 8, 8, 256)         0         
_________________________________________________________________
dropout_2787 (Dropout)       (None, 8, 8, 256)         0         
_________________________________________________________________
max_pooling2d_666 (MaxPoolin (None, 4, 4, 256)         0         
_________________________________________________________________
flatten_227 (Flatten)        (None, 4096)              0         
_________________________________________________________________
dense_457 (Dense)            (None, 2048)              8390656   
_________________________________________________________________
batch_normalization_1636 (Ba (None, 2048)              8192      
_________________________________________________________________
activation_2788 (Activation) (None, 2048)              0         
_________________________________________________________________
dropout_2788 (Dropout)       (None, 2048)              0         
_________________________________________________________________
dense_458 (Dense)            (None, 100)               204900    
=================================================================
Total params: 8,766,031
Trainable params: 8,759,247
Non-trainable params: 6,784
_________________________________________________________________
