Model: "sequential_225"
_________________________________________________________________
Layer (type)                 Output Shape              Param #   
=================================================================
separable_conv2d_2527 (Separ (None, 32, 32, 32)        155       
_________________________________________________________________
activation_2755 (Activation) (None, 32, 32, 32)        0         
_________________________________________________________________
dropout_2755 (Dropout)       (None, 32, 32, 32)        0         
_________________________________________________________________
separable_conv2d_2528 (Separ (None, 32, 32, 256)       8736      
_________________________________________________________________
batch_normalization_1618 (Ba (None, 32, 32, 256)       1024      
_________________________________________________________________
activation_2756 (Activation) (None, 32, 32, 256)       0         
_________________________________________________________________
dropout_2756 (Dropout)       (None, 32, 32, 256)       0         
_________________________________________________________________
separable_conv2d_2529 (Separ (None, 32, 32, 8)         4360      
_________________________________________________________________
activation_2757 (Activation) (None, 32, 32, 8)         0         
_________________________________________________________________
dropout_2757 (Dropout)       (None, 32, 32, 8)         0         
_________________________________________________________________
separable_conv2d_2530 (Separ (None, 32, 32, 64)        648       
_________________________________________________________________
activation_2758 (Activation) (None, 32, 32, 64)        0         
_________________________________________________________________
dropout_2758 (Dropout)       (None, 32, 32, 64)        0         
_________________________________________________________________
max_pooling2d_659 (MaxPoolin (None, 16, 16, 64)        0         
_________________________________________________________________
separable_conv2d_2531 (Separ (None, 16, 16, 16)        1616      
_________________________________________________________________
activation_2759 (Activation) (None, 16, 16, 16)        0         
_________________________________________________________________
dropout_2759 (Dropout)       (None, 16, 16, 16)        0         
_________________________________________________________________
separable_conv2d_2532 (Separ (None, 16, 16, 128)       2320      
_________________________________________________________________
batch_normalization_1619 (Ba (None, 16, 16, 128)       512       
_________________________________________________________________
activation_2760 (Activation) (None, 16, 16, 128)       0         
_________________________________________________________________
dropout_2760 (Dropout)       (None, 16, 16, 128)       0         
_________________________________________________________________
separable_conv2d_2533 (Separ (None, 16, 16, 64)        9408      
_________________________________________________________________
batch_normalization_1620 (Ba (None, 16, 16, 64)        256       
_________________________________________________________________
activation_2761 (Activation) (None, 16, 16, 64)        0         
_________________________________________________________________
dropout_2761 (Dropout)       (None, 16, 16, 64)        0         
_________________________________________________________________
separable_conv2d_2534 (Separ (None, 16, 16, 32)        2656      
_________________________________________________________________
batch_normalization_1621 (Ba (None, 16, 16, 32)        128       
_________________________________________________________________
activation_2762 (Activation) (None, 16, 16, 32)        0         
_________________________________________________________________
dropout_2762 (Dropout)       (None, 16, 16, 32)        0         
_________________________________________________________________
separable_conv2d_2535 (Separ (None, 16, 16, 512)       17184     
_________________________________________________________________
batch_normalization_1622 (Ba (None, 16, 16, 512)       2048      
_________________________________________________________________
activation_2763 (Activation) (None, 16, 16, 512)       0         
_________________________________________________________________
dropout_2763 (Dropout)       (None, 16, 16, 512)       0         
_________________________________________________________________
max_pooling2d_660 (MaxPoolin (None, 8, 8, 512)         0         
_________________________________________________________________
flatten_225 (Flatten)        (None, 32768)             0         
_________________________________________________________________
dense_453 (Dense)            (None, 2048)              67110912  
_________________________________________________________________
batch_normalization_1623 (Ba (None, 2048)              8192      
_________________________________________________________________
activation_2764 (Activation) (None, 2048)              0         
_________________________________________________________________
dropout_2764 (Dropout)       (None, 2048)              0         
_________________________________________________________________
dense_454 (Dense)            (None, 100)               204900    
=================================================================
Total params: 67,375,055
Trainable params: 67,368,975
Non-trainable params: 6,080
_________________________________________________________________
