Model: "sequential_398"
_________________________________________________________________
Layer (type)                 Output Shape              Param #   
=================================================================
separable_conv2d_4215 (Separ (None, 32, 32, 32)        155       
_________________________________________________________________
activation_4616 (Activation) (None, 32, 32, 32)        0         
_________________________________________________________________
dropout_4616 (Dropout)       (None, 32, 32, 32)        0         
_________________________________________________________________
separable_conv2d_4216 (Separ (None, 32, 32, 256)       8736      
_________________________________________________________________
batch_normalization_2618 (Ba (None, 32, 32, 256)       1024      
_________________________________________________________________
activation_4617 (Activation) (None, 32, 32, 256)       0         
_________________________________________________________________
dropout_4617 (Dropout)       (None, 32, 32, 256)       0         
_________________________________________________________________
separable_conv2d_4217 (Separ (None, 32, 32, 8)         4360      
_________________________________________________________________
activation_4618 (Activation) (None, 32, 32, 8)         0         
_________________________________________________________________
dropout_4618 (Dropout)       (None, 32, 32, 8)         0         
_________________________________________________________________
separable_conv2d_4218 (Separ (None, 32, 32, 64)        648       
_________________________________________________________________
activation_4619 (Activation) (None, 32, 32, 64)        0         
_________________________________________________________________
dropout_4619 (Dropout)       (None, 32, 32, 64)        0         
_________________________________________________________________
max_pooling2d_1083 (MaxPooli (None, 16, 16, 64)        0         
_________________________________________________________________
separable_conv2d_4219 (Separ (None, 16, 16, 16)        1616      
_________________________________________________________________
activation_4620 (Activation) (None, 16, 16, 16)        0         
_________________________________________________________________
dropout_4620 (Dropout)       (None, 16, 16, 16)        0         
_________________________________________________________________
separable_conv2d_4220 (Separ (None, 16, 16, 128)       2320      
_________________________________________________________________
batch_normalization_2619 (Ba (None, 16, 16, 128)       512       
_________________________________________________________________
activation_4621 (Activation) (None, 16, 16, 128)       0         
_________________________________________________________________
dropout_4621 (Dropout)       (None, 16, 16, 128)       0         
_________________________________________________________________
separable_conv2d_4221 (Separ (None, 16, 16, 64)        9408      
_________________________________________________________________
activation_4622 (Activation) (None, 16, 16, 64)        0         
_________________________________________________________________
dropout_4622 (Dropout)       (None, 16, 16, 64)        0         
_________________________________________________________________
separable_conv2d_4222 (Separ (None, 16, 16, 32)        2656      
_________________________________________________________________
activation_4623 (Activation) (None, 16, 16, 32)        0         
_________________________________________________________________
dropout_4623 (Dropout)       (None, 16, 16, 32)        0         
_________________________________________________________________
separable_conv2d_4223 (Separ (None, 16, 16, 256)       8736      
_________________________________________________________________
batch_normalization_2620 (Ba (None, 16, 16, 256)       1024      
_________________________________________________________________
activation_4624 (Activation) (None, 16, 16, 256)       0         
_________________________________________________________________
dropout_4624 (Dropout)       (None, 16, 16, 256)       0         
_________________________________________________________________
max_pooling2d_1084 (MaxPooli (None, 8, 8, 256)         0         
_________________________________________________________________
flatten_398 (Flatten)        (None, 16384)             0         
_________________________________________________________________
dense_799 (Dense)            (None, 2048)              33556480  
_________________________________________________________________
batch_normalization_2621 (Ba (None, 2048)              8192      
_________________________________________________________________
activation_4625 (Activation) (None, 2048)              0         
_________________________________________________________________
dropout_4625 (Dropout)       (None, 2048)              0         
_________________________________________________________________
dense_800 (Dense)            (None, 100)               204900    
=================================================================
Total params: 33,810,767
Trainable params: 33,805,391
Non-trainable params: 5,376
_________________________________________________________________
