Model: "sequential_27"
_________________________________________________________________
Layer (type)                 Output Shape              Param #   
=================================================================
separable_conv2d_305 (Separa (None, 32, 32, 32)        155       
_________________________________________________________________
activation_335 (Activation)  (None, 32, 32, 32)        0         
_________________________________________________________________
dropout_335 (Dropout)        (None, 32, 32, 32)        0         
_________________________________________________________________
separable_conv2d_306 (Separa (None, 32, 32, 128)       4512      
_________________________________________________________________
batch_normalization_181 (Bat (None, 32, 32, 128)       512       
_________________________________________________________________
activation_336 (Activation)  (None, 32, 32, 128)       0         
_________________________________________________________________
dropout_336 (Dropout)        (None, 32, 32, 128)       0         
_________________________________________________________________
separable_conv2d_307 (Separa (None, 32, 32, 8)         2184      
_________________________________________________________________
activation_337 (Activation)  (None, 32, 32, 8)         0         
_________________________________________________________________
dropout_337 (Dropout)        (None, 32, 32, 8)         0         
_________________________________________________________________
separable_conv2d_308 (Separa (None, 32, 32, 64)        648       
_________________________________________________________________
activation_338 (Activation)  (None, 32, 32, 64)        0         
_________________________________________________________________
dropout_338 (Dropout)        (None, 32, 32, 64)        0         
_________________________________________________________________
max_pooling2d_70 (MaxPooling (None, 16, 16, 64)        0         
_________________________________________________________________
separable_conv2d_309 (Separa (None, 16, 16, 8)         1096      
_________________________________________________________________
activation_339 (Activation)  (None, 16, 16, 8)         0         
_________________________________________________________________
dropout_339 (Dropout)        (None, 16, 16, 8)         0         
_________________________________________________________________
separable_conv2d_310 (Separa (None, 16, 16, 128)       1224      
_________________________________________________________________
batch_normalization_182 (Bat (None, 16, 16, 128)       512       
_________________________________________________________________
activation_340 (Activation)  (None, 16, 16, 128)       0         
_________________________________________________________________
dropout_340 (Dropout)        (None, 16, 16, 128)       0         
_________________________________________________________________
separable_conv2d_311 (Separa (None, 16, 16, 64)        9408      
_________________________________________________________________
batch_normalization_183 (Bat (None, 16, 16, 64)        256       
_________________________________________________________________
activation_341 (Activation)  (None, 16, 16, 64)        0         
_________________________________________________________________
dropout_341 (Dropout)        (None, 16, 16, 64)        0         
_________________________________________________________________
separable_conv2d_312 (Separa (None, 16, 16, 512)       33856     
_________________________________________________________________
activation_342 (Activation)  (None, 16, 16, 512)       0         
_________________________________________________________________
dropout_342 (Dropout)        (None, 16, 16, 512)       0         
_________________________________________________________________
max_pooling2d_71 (MaxPooling (None, 8, 8, 512)         0         
_________________________________________________________________
separable_conv2d_313 (Separa (None, 8, 8, 32)          21024     
_________________________________________________________________
batch_normalization_184 (Bat (None, 8, 8, 32)          128       
_________________________________________________________________
activation_343 (Activation)  (None, 8, 8, 32)          0         
_________________________________________________________________
dropout_343 (Dropout)        (None, 8, 8, 32)          0         
_________________________________________________________________
max_pooling2d_72 (MaxPooling (None, 4, 4, 32)          0         
_________________________________________________________________
separable_conv2d_314 (Separa (None, 4, 4, 128)         4512      
_________________________________________________________________
activation_344 (Activation)  (None, 4, 4, 128)         0         
_________________________________________________________________
dropout_344 (Dropout)        (None, 4, 4, 128)         0         
_________________________________________________________________
separable_conv2d_315 (Separa (None, 4, 4, 32)          5280      
_________________________________________________________________
batch_normalization_185 (Bat (None, 4, 4, 32)          128       
_________________________________________________________________
activation_345 (Activation)  (None, 4, 4, 32)          0         
_________________________________________________________________
dropout_345 (Dropout)        (None, 4, 4, 32)          0         
_________________________________________________________________
separable_conv2d_316 (Separa (None, 4, 4, 256)         8736      
_________________________________________________________________
batch_normalization_186 (Bat (None, 4, 4, 256)         1024      
_________________________________________________________________
activation_346 (Activation)  (None, 4, 4, 256)         0         
_________________________________________________________________
dropout_346 (Dropout)        (None, 4, 4, 256)         0         
_________________________________________________________________
flatten_27 (Flatten)         (None, 4096)              0         
_________________________________________________________________
dense_57 (Dense)             (None, 2048)              8390656   
_________________________________________________________________
batch_normalization_187 (Bat (None, 2048)              8192      
_________________________________________________________________
activation_347 (Activation)  (None, 2048)              0         
_________________________________________________________________
dropout_347 (Dropout)        (None, 2048)              0         
_________________________________________________________________
dense_58 (Dense)             (None, 100)               204900    
=================================================================
Total params: 8,698,943
Trainable params: 8,693,567
Non-trainable params: 5,376
_________________________________________________________________
