Model: "sequential_48"
_________________________________________________________________
Layer (type)                 Output Shape              Param #   
=================================================================
separable_conv2d_551 (Separa (None, 32, 32, 32)        155       
_________________________________________________________________
activation_602 (Activation)  (None, 32, 32, 32)        0         
_________________________________________________________________
dropout_602 (Dropout)        (None, 32, 32, 32)        0         
_________________________________________________________________
separable_conv2d_552 (Separa (None, 32, 32, 128)       4512      
_________________________________________________________________
batch_normalization_337 (Bat (None, 32, 32, 128)       512       
_________________________________________________________________
activation_603 (Activation)  (None, 32, 32, 128)       0         
_________________________________________________________________
dropout_603 (Dropout)        (None, 32, 32, 128)       0         
_________________________________________________________________
separable_conv2d_553 (Separa (None, 32, 32, 8)         2184      
_________________________________________________________________
activation_604 (Activation)  (None, 32, 32, 8)         0         
_________________________________________________________________
dropout_604 (Dropout)        (None, 32, 32, 8)         0         
_________________________________________________________________
separable_conv2d_554 (Separa (None, 32, 32, 64)        648       
_________________________________________________________________
activation_605 (Activation)  (None, 32, 32, 64)        0         
_________________________________________________________________
dropout_605 (Dropout)        (None, 32, 32, 64)        0         
_________________________________________________________________
max_pooling2d_133 (MaxPoolin (None, 16, 16, 64)        0         
_________________________________________________________________
separable_conv2d_555 (Separa (None, 16, 16, 8)         1096      
_________________________________________________________________
activation_606 (Activation)  (None, 16, 16, 8)         0         
_________________________________________________________________
dropout_606 (Dropout)        (None, 16, 16, 8)         0         
_________________________________________________________________
separable_conv2d_556 (Separa (None, 16, 16, 128)       1224      
_________________________________________________________________
batch_normalization_338 (Bat (None, 16, 16, 128)       512       
_________________________________________________________________
activation_607 (Activation)  (None, 16, 16, 128)       0         
_________________________________________________________________
dropout_607 (Dropout)        (None, 16, 16, 128)       0         
_________________________________________________________________
separable_conv2d_557 (Separa (None, 16, 16, 64)        9408      
_________________________________________________________________
batch_normalization_339 (Bat (None, 16, 16, 64)        256       
_________________________________________________________________
activation_608 (Activation)  (None, 16, 16, 64)        0         
_________________________________________________________________
dropout_608 (Dropout)        (None, 16, 16, 64)        0         
_________________________________________________________________
separable_conv2d_558 (Separa (None, 16, 16, 512)       33856     
_________________________________________________________________
batch_normalization_340 (Bat (None, 16, 16, 512)       2048      
_________________________________________________________________
activation_609 (Activation)  (None, 16, 16, 512)       0         
_________________________________________________________________
dropout_609 (Dropout)        (None, 16, 16, 512)       0         
_________________________________________________________________
max_pooling2d_134 (MaxPoolin (None, 8, 8, 512)         0         
_________________________________________________________________
separable_conv2d_559 (Separa (None, 8, 8, 32)          21024     
_________________________________________________________________
batch_normalization_341 (Bat (None, 8, 8, 32)          128       
_________________________________________________________________
activation_610 (Activation)  (None, 8, 8, 32)          0         
_________________________________________________________________
dropout_610 (Dropout)        (None, 8, 8, 32)          0         
_________________________________________________________________
max_pooling2d_135 (MaxPoolin (None, 4, 4, 32)          0         
_________________________________________________________________
separable_conv2d_560 (Separa (None, 4, 4, 128)         4512      
_________________________________________________________________
activation_611 (Activation)  (None, 4, 4, 128)         0         
_________________________________________________________________
dropout_611 (Dropout)        (None, 4, 4, 128)         0         
_________________________________________________________________
separable_conv2d_561 (Separa (None, 4, 4, 32)          5280      
_________________________________________________________________
batch_normalization_342 (Bat (None, 4, 4, 32)          128       
_________________________________________________________________
activation_612 (Activation)  (None, 4, 4, 32)          0         
_________________________________________________________________
dropout_612 (Dropout)        (None, 4, 4, 32)          0         
_________________________________________________________________
separable_conv2d_562 (Separa (None, 4, 4, 256)         8736      
_________________________________________________________________
batch_normalization_343 (Bat (None, 4, 4, 256)         1024      
_________________________________________________________________
activation_613 (Activation)  (None, 4, 4, 256)         0         
_________________________________________________________________
dropout_613 (Dropout)        (None, 4, 4, 256)         0         
_________________________________________________________________
flatten_48 (Flatten)         (None, 4096)              0         
_________________________________________________________________
dense_99 (Dense)             (None, 2048)              8390656   
_________________________________________________________________
batch_normalization_344 (Bat (None, 2048)              8192      
_________________________________________________________________
activation_614 (Activation)  (None, 2048)              0         
_________________________________________________________________
dropout_614 (Dropout)        (None, 2048)              0         
_________________________________________________________________
dense_100 (Dense)            (None, 100)               204900    
=================================================================
Total params: 8,700,991
Trainable params: 8,694,591
Non-trainable params: 6,400
_________________________________________________________________
