Model: "sequential_137"
_________________________________________________________________
Layer (type)                 Output Shape              Param #   
=================================================================
separable_conv2d_1575 (Separ (None, 32, 32, 32)        155       
_________________________________________________________________
activation_1715 (Activation) (None, 32, 32, 32)        0         
_________________________________________________________________
dropout_1715 (Dropout)       (None, 32, 32, 32)        0         
_________________________________________________________________
separable_conv2d_1576 (Separ (None, 32, 32, 128)       4512      
_________________________________________________________________
batch_normalization_1021 (Ba (None, 32, 32, 128)       512       
_________________________________________________________________
activation_1716 (Activation) (None, 32, 32, 128)       0         
_________________________________________________________________
dropout_1716 (Dropout)       (None, 32, 32, 128)       0         
_________________________________________________________________
separable_conv2d_1577 (Separ (None, 32, 32, 8)         2184      
_________________________________________________________________
activation_1717 (Activation) (None, 32, 32, 8)         0         
_________________________________________________________________
dropout_1717 (Dropout)       (None, 32, 32, 8)         0         
_________________________________________________________________
separable_conv2d_1578 (Separ (None, 32, 32, 64)        648       
_________________________________________________________________
activation_1718 (Activation) (None, 32, 32, 64)        0         
_________________________________________________________________
dropout_1718 (Dropout)       (None, 32, 32, 64)        0         
_________________________________________________________________
max_pooling2d_400 (MaxPoolin (None, 16, 16, 64)        0         
_________________________________________________________________
separable_conv2d_1579 (Separ (None, 16, 16, 8)         1096      
_________________________________________________________________
activation_1719 (Activation) (None, 16, 16, 8)         0         
_________________________________________________________________
dropout_1719 (Dropout)       (None, 16, 16, 8)         0         
_________________________________________________________________
separable_conv2d_1580 (Separ (None, 16, 16, 128)       1224      
_________________________________________________________________
batch_normalization_1022 (Ba (None, 16, 16, 128)       512       
_________________________________________________________________
activation_1720 (Activation) (None, 16, 16, 128)       0         
_________________________________________________________________
dropout_1720 (Dropout)       (None, 16, 16, 128)       0         
_________________________________________________________________
separable_conv2d_1581 (Separ (None, 16, 16, 64)        9408      
_________________________________________________________________
batch_normalization_1023 (Ba (None, 16, 16, 64)        256       
_________________________________________________________________
activation_1721 (Activation) (None, 16, 16, 64)        0         
_________________________________________________________________
dropout_1721 (Dropout)       (None, 16, 16, 64)        0         
_________________________________________________________________
separable_conv2d_1582 (Separ (None, 16, 16, 512)       33856     
_________________________________________________________________
batch_normalization_1024 (Ba (None, 16, 16, 512)       2048      
_________________________________________________________________
activation_1722 (Activation) (None, 16, 16, 512)       0         
_________________________________________________________________
dropout_1722 (Dropout)       (None, 16, 16, 512)       0         
_________________________________________________________________
max_pooling2d_401 (MaxPoolin (None, 8, 8, 512)         0         
_________________________________________________________________
separable_conv2d_1583 (Separ (None, 8, 8, 32)          21024     
_________________________________________________________________
batch_normalization_1025 (Ba (None, 8, 8, 32)          128       
_________________________________________________________________
activation_1723 (Activation) (None, 8, 8, 32)          0         
_________________________________________________________________
dropout_1723 (Dropout)       (None, 8, 8, 32)          0         
_________________________________________________________________
max_pooling2d_402 (MaxPoolin (None, 4, 4, 32)          0         
_________________________________________________________________
separable_conv2d_1584 (Separ (None, 4, 4, 128)         4512      
_________________________________________________________________
activation_1724 (Activation) (None, 4, 4, 128)         0         
_________________________________________________________________
dropout_1724 (Dropout)       (None, 4, 4, 128)         0         
_________________________________________________________________
separable_conv2d_1585 (Separ (None, 4, 4, 32)          5280      
_________________________________________________________________
batch_normalization_1026 (Ba (None, 4, 4, 32)          128       
_________________________________________________________________
activation_1725 (Activation) (None, 4, 4, 32)          0         
_________________________________________________________________
dropout_1725 (Dropout)       (None, 4, 4, 32)          0         
_________________________________________________________________
separable_conv2d_1586 (Separ (None, 4, 4, 256)         8736      
_________________________________________________________________
batch_normalization_1027 (Ba (None, 4, 4, 256)         1024      
_________________________________________________________________
activation_1726 (Activation) (None, 4, 4, 256)         0         
_________________________________________________________________
dropout_1726 (Dropout)       (None, 4, 4, 256)         0         
_________________________________________________________________
flatten_137 (Flatten)        (None, 4096)              0         
_________________________________________________________________
dense_277 (Dense)            (None, 2048)              8390656   
_________________________________________________________________
batch_normalization_1028 (Ba (None, 2048)              8192      
_________________________________________________________________
activation_1727 (Activation) (None, 2048)              0         
_________________________________________________________________
dropout_1727 (Dropout)       (None, 2048)              0         
_________________________________________________________________
dense_278 (Dense)            (None, 100)               204900    
=================================================================
Total params: 8,700,991
Trainable params: 8,694,591
Non-trainable params: 6,400
_________________________________________________________________
