Model: "sequential_179"
_________________________________________________________________
Layer (type)                 Output Shape              Param #   
=================================================================
separable_conv2d_2034 (Separ (None, 32, 32, 32)        155       
_________________________________________________________________
activation_2216 (Activation) (None, 32, 32, 32)        0         
_________________________________________________________________
dropout_2216 (Dropout)       (None, 32, 32, 32)        0         
_________________________________________________________________
separable_conv2d_2035 (Separ (None, 32, 32, 256)       8736      
_________________________________________________________________
batch_normalization_1316 (Ba (None, 32, 32, 256)       1024      
_________________________________________________________________
activation_2217 (Activation) (None, 32, 32, 256)       0         
_________________________________________________________________
dropout_2217 (Dropout)       (None, 32, 32, 256)       0         
_________________________________________________________________
separable_conv2d_2036 (Separ (None, 32, 32, 8)         4360      
_________________________________________________________________
activation_2218 (Activation) (None, 32, 32, 8)         0         
_________________________________________________________________
dropout_2218 (Dropout)       (None, 32, 32, 8)         0         
_________________________________________________________________
separable_conv2d_2037 (Separ (None, 32, 32, 64)        648       
_________________________________________________________________
activation_2219 (Activation) (None, 32, 32, 64)        0         
_________________________________________________________________
dropout_2219 (Dropout)       (None, 32, 32, 64)        0         
_________________________________________________________________
max_pooling2d_525 (MaxPoolin (None, 16, 16, 64)        0         
_________________________________________________________________
separable_conv2d_2038 (Separ (None, 16, 16, 16)        1616      
_________________________________________________________________
activation_2220 (Activation) (None, 16, 16, 16)        0         
_________________________________________________________________
dropout_2220 (Dropout)       (None, 16, 16, 16)        0         
_________________________________________________________________
separable_conv2d_2039 (Separ (None, 16, 16, 128)       2320      
_________________________________________________________________
batch_normalization_1317 (Ba (None, 16, 16, 128)       512       
_________________________________________________________________
activation_2221 (Activation) (None, 16, 16, 128)       0         
_________________________________________________________________
dropout_2221 (Dropout)       (None, 16, 16, 128)       0         
_________________________________________________________________
separable_conv2d_2040 (Separ (None, 16, 16, 64)        9408      
_________________________________________________________________
batch_normalization_1318 (Ba (None, 16, 16, 64)        256       
_________________________________________________________________
activation_2222 (Activation) (None, 16, 16, 64)        0         
_________________________________________________________________
dropout_2222 (Dropout)       (None, 16, 16, 64)        0         
_________________________________________________________________
separable_conv2d_2041 (Separ (None, 16, 16, 512)       33856     
_________________________________________________________________
batch_normalization_1319 (Ba (None, 16, 16, 512)       2048      
_________________________________________________________________
activation_2223 (Activation) (None, 16, 16, 512)       0         
_________________________________________________________________
dropout_2223 (Dropout)       (None, 16, 16, 512)       0         
_________________________________________________________________
max_pooling2d_526 (MaxPoolin (None, 8, 8, 512)         0         
_________________________________________________________________
separable_conv2d_2042 (Separ (None, 8, 8, 128)         70272     
_________________________________________________________________
activation_2224 (Activation) (None, 8, 8, 128)         0         
_________________________________________________________________
dropout_2224 (Dropout)       (None, 8, 8, 128)         0         
_________________________________________________________________
separable_conv2d_2043 (Separ (None, 8, 8, 32)          5280      
_________________________________________________________________
batch_normalization_1320 (Ba (None, 8, 8, 32)          128       
_________________________________________________________________
activation_2225 (Activation) (None, 8, 8, 32)          0         
_________________________________________________________________
dropout_2225 (Dropout)       (None, 8, 8, 32)          0         
_________________________________________________________________
separable_conv2d_2044 (Separ (None, 8, 8, 256)         8736      
_________________________________________________________________
batch_normalization_1321 (Ba (None, 8, 8, 256)         1024      
_________________________________________________________________
activation_2226 (Activation) (None, 8, 8, 256)         0         
_________________________________________________________________
dropout_2226 (Dropout)       (None, 8, 8, 256)         0         
_________________________________________________________________
max_pooling2d_527 (MaxPoolin (None, 4, 4, 256)         0         
_________________________________________________________________
flatten_179 (Flatten)        (None, 4096)              0         
_________________________________________________________________
dense_361 (Dense)            (None, 2048)              8390656   
_________________________________________________________________
batch_normalization_1322 (Ba (None, 2048)              8192      
_________________________________________________________________
activation_2227 (Activation) (None, 2048)              0         
_________________________________________________________________
dropout_2227 (Dropout)       (None, 2048)              0         
_________________________________________________________________
dense_362 (Dense)            (None, 100)               204900    
=================================================================
Total params: 8,754,127
Trainable params: 8,747,535
Non-trainable params: 6,592
_________________________________________________________________
