Model: "sequential_94"
_________________________________________________________________
Layer (type)                 Output Shape              Param #   
=================================================================
separable_conv2d_1091 (Separ (None, 32, 32, 32)        155       
_________________________________________________________________
activation_1188 (Activation) (None, 32, 32, 32)        0         
_________________________________________________________________
dropout_1188 (Dropout)       (None, 32, 32, 32)        0         
_________________________________________________________________
separable_conv2d_1092 (Separ (None, 32, 32, 128)       4512      
_________________________________________________________________
batch_normalization_698 (Bat (None, 32, 32, 128)       512       
_________________________________________________________________
activation_1189 (Activation) (None, 32, 32, 128)       0         
_________________________________________________________________
dropout_1189 (Dropout)       (None, 32, 32, 128)       0         
_________________________________________________________________
separable_conv2d_1093 (Separ (None, 32, 32, 8)         2184      
_________________________________________________________________
activation_1190 (Activation) (None, 32, 32, 8)         0         
_________________________________________________________________
dropout_1190 (Dropout)       (None, 32, 32, 8)         0         
_________________________________________________________________
separable_conv2d_1094 (Separ (None, 32, 32, 64)        648       
_________________________________________________________________
activation_1191 (Activation) (None, 32, 32, 64)        0         
_________________________________________________________________
dropout_1191 (Dropout)       (None, 32, 32, 64)        0         
_________________________________________________________________
max_pooling2d_271 (MaxPoolin (None, 16, 16, 64)        0         
_________________________________________________________________
separable_conv2d_1095 (Separ (None, 16, 16, 8)         1096      
_________________________________________________________________
activation_1192 (Activation) (None, 16, 16, 8)         0         
_________________________________________________________________
dropout_1192 (Dropout)       (None, 16, 16, 8)         0         
_________________________________________________________________
separable_conv2d_1096 (Separ (None, 16, 16, 128)       1224      
_________________________________________________________________
batch_normalization_699 (Bat (None, 16, 16, 128)       512       
_________________________________________________________________
activation_1193 (Activation) (None, 16, 16, 128)       0         
_________________________________________________________________
dropout_1193 (Dropout)       (None, 16, 16, 128)       0         
_________________________________________________________________
separable_conv2d_1097 (Separ (None, 16, 16, 64)        9408      
_________________________________________________________________
batch_normalization_700 (Bat (None, 16, 16, 64)        256       
_________________________________________________________________
activation_1194 (Activation) (None, 16, 16, 64)        0         
_________________________________________________________________
dropout_1194 (Dropout)       (None, 16, 16, 64)        0         
_________________________________________________________________
separable_conv2d_1098 (Separ (None, 16, 16, 512)       33856     
_________________________________________________________________
batch_normalization_701 (Bat (None, 16, 16, 512)       2048      
_________________________________________________________________
activation_1195 (Activation) (None, 16, 16, 512)       0         
_________________________________________________________________
dropout_1195 (Dropout)       (None, 16, 16, 512)       0         
_________________________________________________________________
max_pooling2d_272 (MaxPoolin (None, 8, 8, 512)         0         
_________________________________________________________________
separable_conv2d_1099 (Separ (None, 8, 8, 32)          21024     
_________________________________________________________________
batch_normalization_702 (Bat (None, 8, 8, 32)          128       
_________________________________________________________________
activation_1196 (Activation) (None, 8, 8, 32)          0         
_________________________________________________________________
dropout_1196 (Dropout)       (None, 8, 8, 32)          0         
_________________________________________________________________
separable_conv2d_1100 (Separ (None, 8, 8, 128)         4512      
_________________________________________________________________
activation_1197 (Activation) (None, 8, 8, 128)         0         
_________________________________________________________________
dropout_1197 (Dropout)       (None, 8, 8, 128)         0         
_________________________________________________________________
separable_conv2d_1101 (Separ (None, 8, 8, 32)          5280      
_________________________________________________________________
batch_normalization_703 (Bat (None, 8, 8, 32)          128       
_________________________________________________________________
activation_1198 (Activation) (None, 8, 8, 32)          0         
_________________________________________________________________
dropout_1198 (Dropout)       (None, 8, 8, 32)          0         
_________________________________________________________________
separable_conv2d_1102 (Separ (None, 8, 8, 256)         8736      
_________________________________________________________________
batch_normalization_704 (Bat (None, 8, 8, 256)         1024      
_________________________________________________________________
activation_1199 (Activation) (None, 8, 8, 256)         0         
_________________________________________________________________
dropout_1199 (Dropout)       (None, 8, 8, 256)         0         
_________________________________________________________________
max_pooling2d_273 (MaxPoolin (None, 4, 4, 256)         0         
_________________________________________________________________
flatten_94 (Flatten)         (None, 4096)              0         
_________________________________________________________________
dense_191 (Dense)            (None, 2048)              8390656   
_________________________________________________________________
batch_normalization_705 (Bat (None, 2048)              8192      
_________________________________________________________________
activation_1200 (Activation) (None, 2048)              0         
_________________________________________________________________
dropout_1200 (Dropout)       (None, 2048)              0         
_________________________________________________________________
dense_192 (Dense)            (None, 100)               204900    
=================================================================
Total params: 8,700,991
Trainable params: 8,694,591
Non-trainable params: 6,400
_________________________________________________________________
