Model: "sequential_51"
_________________________________________________________________
Layer (type)                 Output Shape              Param #   
=================================================================
separable_conv2d_587 (Separa (None, 32, 32, 32)        155       
_________________________________________________________________
activation_641 (Activation)  (None, 32, 32, 32)        0         
_________________________________________________________________
dropout_641 (Dropout)        (None, 32, 32, 32)        0         
_________________________________________________________________
separable_conv2d_588 (Separa (None, 32, 32, 128)       4512      
_________________________________________________________________
batch_normalization_360 (Bat (None, 32, 32, 128)       512       
_________________________________________________________________
activation_642 (Activation)  (None, 32, 32, 128)       0         
_________________________________________________________________
dropout_642 (Dropout)        (None, 32, 32, 128)       0         
_________________________________________________________________
separable_conv2d_589 (Separa (None, 32, 32, 8)         2184      
_________________________________________________________________
activation_643 (Activation)  (None, 32, 32, 8)         0         
_________________________________________________________________
dropout_643 (Dropout)        (None, 32, 32, 8)         0         
_________________________________________________________________
separable_conv2d_590 (Separa (None, 32, 32, 64)        648       
_________________________________________________________________
activation_644 (Activation)  (None, 32, 32, 64)        0         
_________________________________________________________________
dropout_644 (Dropout)        (None, 32, 32, 64)        0         
_________________________________________________________________
max_pooling2d_142 (MaxPoolin (None, 16, 16, 64)        0         
_________________________________________________________________
separable_conv2d_591 (Separa (None, 16, 16, 8)         1096      
_________________________________________________________________
activation_645 (Activation)  (None, 16, 16, 8)         0         
_________________________________________________________________
dropout_645 (Dropout)        (None, 16, 16, 8)         0         
_________________________________________________________________
separable_conv2d_592 (Separa (None, 16, 16, 128)       1224      
_________________________________________________________________
batch_normalization_361 (Bat (None, 16, 16, 128)       512       
_________________________________________________________________
activation_646 (Activation)  (None, 16, 16, 128)       0         
_________________________________________________________________
dropout_646 (Dropout)        (None, 16, 16, 128)       0         
_________________________________________________________________
separable_conv2d_593 (Separa (None, 16, 16, 64)        9408      
_________________________________________________________________
batch_normalization_362 (Bat (None, 16, 16, 64)        256       
_________________________________________________________________
activation_647 (Activation)  (None, 16, 16, 64)        0         
_________________________________________________________________
dropout_647 (Dropout)        (None, 16, 16, 64)        0         
_________________________________________________________________
separable_conv2d_594 (Separa (None, 16, 16, 512)       33856     
_________________________________________________________________
batch_normalization_363 (Bat (None, 16, 16, 512)       2048      
_________________________________________________________________
activation_648 (Activation)  (None, 16, 16, 512)       0         
_________________________________________________________________
dropout_648 (Dropout)        (None, 16, 16, 512)       0         
_________________________________________________________________
max_pooling2d_143 (MaxPoolin (None, 8, 8, 512)         0         
_________________________________________________________________
separable_conv2d_595 (Separa (None, 8, 8, 32)          21024     
_________________________________________________________________
batch_normalization_364 (Bat (None, 8, 8, 32)          128       
_________________________________________________________________
activation_649 (Activation)  (None, 8, 8, 32)          0         
_________________________________________________________________
dropout_649 (Dropout)        (None, 8, 8, 32)          0         
_________________________________________________________________
max_pooling2d_144 (MaxPoolin (None, 4, 4, 32)          0         
_________________________________________________________________
separable_conv2d_596 (Separa (None, 4, 4, 128)         4512      
_________________________________________________________________
activation_650 (Activation)  (None, 4, 4, 128)         0         
_________________________________________________________________
dropout_650 (Dropout)        (None, 4, 4, 128)         0         
_________________________________________________________________
separable_conv2d_597 (Separa (None, 4, 4, 32)          5280      
_________________________________________________________________
batch_normalization_365 (Bat (None, 4, 4, 32)          128       
_________________________________________________________________
activation_651 (Activation)  (None, 4, 4, 32)          0         
_________________________________________________________________
dropout_651 (Dropout)        (None, 4, 4, 32)          0         
_________________________________________________________________
separable_conv2d_598 (Separa (None, 4, 4, 256)         8736      
_________________________________________________________________
batch_normalization_366 (Bat (None, 4, 4, 256)         1024      
_________________________________________________________________
activation_652 (Activation)  (None, 4, 4, 256)         0         
_________________________________________________________________
dropout_652 (Dropout)        (None, 4, 4, 256)         0         
_________________________________________________________________
flatten_51 (Flatten)         (None, 4096)              0         
_________________________________________________________________
dense_105 (Dense)            (None, 2048)              8390656   
_________________________________________________________________
batch_normalization_367 (Bat (None, 2048)              8192      
_________________________________________________________________
activation_653 (Activation)  (None, 2048)              0         
_________________________________________________________________
dropout_653 (Dropout)        (None, 2048)              0         
_________________________________________________________________
dense_106 (Dense)            (None, 100)               204900    
=================================================================
Total params: 8,700,991
Trainable params: 8,694,591
Non-trainable params: 6,400
_________________________________________________________________
