Model: "sequential_174"
_________________________________________________________________
Layer (type)                 Output Shape              Param #   
=================================================================
separable_conv2d_1979 (Separ (None, 32, 32, 32)        155       
_________________________________________________________________
activation_2156 (Activation) (None, 32, 32, 32)        0         
_________________________________________________________________
dropout_2156 (Dropout)       (None, 32, 32, 32)        0         
_________________________________________________________________
separable_conv2d_1980 (Separ (None, 32, 32, 128)       4512      
_________________________________________________________________
batch_normalization_1281 (Ba (None, 32, 32, 128)       512       
_________________________________________________________________
activation_2157 (Activation) (None, 32, 32, 128)       0         
_________________________________________________________________
dropout_2157 (Dropout)       (None, 32, 32, 128)       0         
_________________________________________________________________
separable_conv2d_1981 (Separ (None, 32, 32, 8)         2184      
_________________________________________________________________
activation_2158 (Activation) (None, 32, 32, 8)         0         
_________________________________________________________________
dropout_2158 (Dropout)       (None, 32, 32, 8)         0         
_________________________________________________________________
separable_conv2d_1982 (Separ (None, 32, 32, 64)        648       
_________________________________________________________________
activation_2159 (Activation) (None, 32, 32, 64)        0         
_________________________________________________________________
dropout_2159 (Dropout)       (None, 32, 32, 64)        0         
_________________________________________________________________
max_pooling2d_510 (MaxPoolin (None, 16, 16, 64)        0         
_________________________________________________________________
separable_conv2d_1983 (Separ (None, 16, 16, 8)         1096      
_________________________________________________________________
activation_2160 (Activation) (None, 16, 16, 8)         0         
_________________________________________________________________
dropout_2160 (Dropout)       (None, 16, 16, 8)         0         
_________________________________________________________________
separable_conv2d_1984 (Separ (None, 16, 16, 128)       1224      
_________________________________________________________________
batch_normalization_1282 (Ba (None, 16, 16, 128)       512       
_________________________________________________________________
activation_2161 (Activation) (None, 16, 16, 128)       0         
_________________________________________________________________
dropout_2161 (Dropout)       (None, 16, 16, 128)       0         
_________________________________________________________________
separable_conv2d_1985 (Separ (None, 16, 16, 64)        9408      
_________________________________________________________________
batch_normalization_1283 (Ba (None, 16, 16, 64)        256       
_________________________________________________________________
activation_2162 (Activation) (None, 16, 16, 64)        0         
_________________________________________________________________
dropout_2162 (Dropout)       (None, 16, 16, 64)        0         
_________________________________________________________________
separable_conv2d_1986 (Separ (None, 16, 16, 512)       33856     
_________________________________________________________________
batch_normalization_1284 (Ba (None, 16, 16, 512)       2048      
_________________________________________________________________
activation_2163 (Activation) (None, 16, 16, 512)       0         
_________________________________________________________________
dropout_2163 (Dropout)       (None, 16, 16, 512)       0         
_________________________________________________________________
max_pooling2d_511 (MaxPoolin (None, 8, 8, 512)         0         
_________________________________________________________________
separable_conv2d_1987 (Separ (None, 8, 8, 128)         70272     
_________________________________________________________________
activation_2164 (Activation) (None, 8, 8, 128)         0         
_________________________________________________________________
dropout_2164 (Dropout)       (None, 8, 8, 128)         0         
_________________________________________________________________
separable_conv2d_1988 (Separ (None, 8, 8, 32)          5280      
_________________________________________________________________
batch_normalization_1285 (Ba (None, 8, 8, 32)          128       
_________________________________________________________________
activation_2165 (Activation) (None, 8, 8, 32)          0         
_________________________________________________________________
dropout_2165 (Dropout)       (None, 8, 8, 32)          0         
_________________________________________________________________
separable_conv2d_1989 (Separ (None, 8, 8, 256)         8736      
_________________________________________________________________
batch_normalization_1286 (Ba (None, 8, 8, 256)         1024      
_________________________________________________________________
activation_2166 (Activation) (None, 8, 8, 256)         0         
_________________________________________________________________
dropout_2166 (Dropout)       (None, 8, 8, 256)         0         
_________________________________________________________________
max_pooling2d_512 (MaxPoolin (None, 4, 4, 256)         0         
_________________________________________________________________
flatten_174 (Flatten)        (None, 4096)              0         
_________________________________________________________________
dense_351 (Dense)            (None, 2048)              8390656   
_________________________________________________________________
batch_normalization_1287 (Ba (None, 2048)              8192      
_________________________________________________________________
activation_2167 (Activation) (None, 2048)              0         
_________________________________________________________________
dropout_2167 (Dropout)       (None, 2048)              0         
_________________________________________________________________
dense_352 (Dense)            (None, 100)               204900    
=================================================================
Total params: 8,745,599
Trainable params: 8,739,263
Non-trainable params: 6,336
_________________________________________________________________
