Model: "sequential_202"
_________________________________________________________________
Layer (type)                 Output Shape              Param #   
=================================================================
separable_conv2d_2283 (Separ (None, 32, 32, 32)        155       
_________________________________________________________________
activation_2488 (Activation) (None, 32, 32, 32)        0         
_________________________________________________________________
dropout_2488 (Dropout)       (None, 32, 32, 32)        0         
_________________________________________________________________
separable_conv2d_2284 (Separ (None, 32, 32, 256)       8736      
_________________________________________________________________
batch_normalization_1467 (Ba (None, 32, 32, 256)       1024      
_________________________________________________________________
activation_2489 (Activation) (None, 32, 32, 256)       0         
_________________________________________________________________
dropout_2489 (Dropout)       (None, 32, 32, 256)       0         
_________________________________________________________________
separable_conv2d_2285 (Separ (None, 32, 32, 8)         4360      
_________________________________________________________________
activation_2490 (Activation) (None, 32, 32, 8)         0         
_________________________________________________________________
dropout_2490 (Dropout)       (None, 32, 32, 8)         0         
_________________________________________________________________
separable_conv2d_2286 (Separ (None, 32, 32, 64)        648       
_________________________________________________________________
activation_2491 (Activation) (None, 32, 32, 64)        0         
_________________________________________________________________
dropout_2491 (Dropout)       (None, 32, 32, 64)        0         
_________________________________________________________________
max_pooling2d_593 (MaxPoolin (None, 16, 16, 64)        0         
_________________________________________________________________
separable_conv2d_2287 (Separ (None, 16, 16, 16)        1616      
_________________________________________________________________
activation_2492 (Activation) (None, 16, 16, 16)        0         
_________________________________________________________________
dropout_2492 (Dropout)       (None, 16, 16, 16)        0         
_________________________________________________________________
separable_conv2d_2288 (Separ (None, 16, 16, 256)       4496      
_________________________________________________________________
batch_normalization_1468 (Ba (None, 16, 16, 256)       1024      
_________________________________________________________________
activation_2493 (Activation) (None, 16, 16, 256)       0         
_________________________________________________________________
dropout_2493 (Dropout)       (None, 16, 16, 256)       0         
_________________________________________________________________
separable_conv2d_2289 (Separ (None, 16, 16, 64)        18752     
_________________________________________________________________
batch_normalization_1469 (Ba (None, 16, 16, 64)        256       
_________________________________________________________________
activation_2494 (Activation) (None, 16, 16, 64)        0         
_________________________________________________________________
dropout_2494 (Dropout)       (None, 16, 16, 64)        0         
_________________________________________________________________
separable_conv2d_2290 (Separ (None, 16, 16, 512)       33856     
_________________________________________________________________
batch_normalization_1470 (Ba (None, 16, 16, 512)       2048      
_________________________________________________________________
activation_2495 (Activation) (None, 16, 16, 512)       0         
_________________________________________________________________
dropout_2495 (Dropout)       (None, 16, 16, 512)       0         
_________________________________________________________________
max_pooling2d_594 (MaxPoolin (None, 8, 8, 512)         0         
_________________________________________________________________
separable_conv2d_2291 (Separ (None, 8, 8, 128)         70272     
_________________________________________________________________
activation_2496 (Activation) (None, 8, 8, 128)         0         
_________________________________________________________________
dropout_2496 (Dropout)       (None, 8, 8, 128)         0         
_________________________________________________________________
separable_conv2d_2292 (Separ (None, 8, 8, 32)          5280      
_________________________________________________________________
batch_normalization_1471 (Ba (None, 8, 8, 32)          128       
_________________________________________________________________
activation_2497 (Activation) (None, 8, 8, 32)          0         
_________________________________________________________________
dropout_2497 (Dropout)       (None, 8, 8, 32)          0         
_________________________________________________________________
separable_conv2d_2293 (Separ (None, 8, 8, 256)         8736      
_________________________________________________________________
batch_normalization_1472 (Ba (None, 8, 8, 256)         1024      
_________________________________________________________________
activation_2498 (Activation) (None, 8, 8, 256)         0         
_________________________________________________________________
dropout_2498 (Dropout)       (None, 8, 8, 256)         0         
_________________________________________________________________
max_pooling2d_595 (MaxPoolin (None, 4, 4, 256)         0         
_________________________________________________________________
flatten_202 (Flatten)        (None, 4096)              0         
_________________________________________________________________
dense_407 (Dense)            (None, 2048)              8390656   
_________________________________________________________________
batch_normalization_1473 (Ba (None, 2048)              8192      
_________________________________________________________________
activation_2499 (Activation) (None, 2048)              0         
_________________________________________________________________
dropout_2499 (Dropout)       (None, 2048)              0         
_________________________________________________________________
dense_408 (Dense)            (None, 100)               204900    
=================================================================
Total params: 8,766,159
Trainable params: 8,759,311
Non-trainable params: 6,848
_________________________________________________________________
