Model: "sequential_99"
_________________________________________________________________
Layer (type)                 Output Shape              Param #   
=================================================================
separable_conv2d_1149 (Separ (None, 32, 32, 32)        155       
_________________________________________________________________
activation_1251 (Activation) (None, 32, 32, 32)        0         
_________________________________________________________________
dropout_1251 (Dropout)       (None, 32, 32, 32)        0         
_________________________________________________________________
separable_conv2d_1150 (Separ (None, 32, 32, 128)       4512      
_________________________________________________________________
batch_normalization_737 (Bat (None, 32, 32, 128)       512       
_________________________________________________________________
activation_1252 (Activation) (None, 32, 32, 128)       0         
_________________________________________________________________
dropout_1252 (Dropout)       (None, 32, 32, 128)       0         
_________________________________________________________________
separable_conv2d_1151 (Separ (None, 32, 32, 8)         2184      
_________________________________________________________________
activation_1253 (Activation) (None, 32, 32, 8)         0         
_________________________________________________________________
dropout_1253 (Dropout)       (None, 32, 32, 8)         0         
_________________________________________________________________
separable_conv2d_1152 (Separ (None, 32, 32, 64)        648       
_________________________________________________________________
activation_1254 (Activation) (None, 32, 32, 64)        0         
_________________________________________________________________
dropout_1254 (Dropout)       (None, 32, 32, 64)        0         
_________________________________________________________________
max_pooling2d_286 (MaxPoolin (None, 16, 16, 64)        0         
_________________________________________________________________
separable_conv2d_1153 (Separ (None, 16, 16, 8)         1096      
_________________________________________________________________
activation_1255 (Activation) (None, 16, 16, 8)         0         
_________________________________________________________________
dropout_1255 (Dropout)       (None, 16, 16, 8)         0         
_________________________________________________________________
separable_conv2d_1154 (Separ (None, 16, 16, 128)       1224      
_________________________________________________________________
batch_normalization_738 (Bat (None, 16, 16, 128)       512       
_________________________________________________________________
activation_1256 (Activation) (None, 16, 16, 128)       0         
_________________________________________________________________
dropout_1256 (Dropout)       (None, 16, 16, 128)       0         
_________________________________________________________________
separable_conv2d_1155 (Separ (None, 16, 16, 64)        9408      
_________________________________________________________________
batch_normalization_739 (Bat (None, 16, 16, 64)        256       
_________________________________________________________________
activation_1257 (Activation) (None, 16, 16, 64)        0         
_________________________________________________________________
dropout_1257 (Dropout)       (None, 16, 16, 64)        0         
_________________________________________________________________
separable_conv2d_1156 (Separ (None, 16, 16, 512)       33856     
_________________________________________________________________
batch_normalization_740 (Bat (None, 16, 16, 512)       2048      
_________________________________________________________________
activation_1258 (Activation) (None, 16, 16, 512)       0         
_________________________________________________________________
dropout_1258 (Dropout)       (None, 16, 16, 512)       0         
_________________________________________________________________
max_pooling2d_287 (MaxPoolin (None, 8, 8, 512)         0         
_________________________________________________________________
separable_conv2d_1157 (Separ (None, 8, 8, 32)          21024     
_________________________________________________________________
batch_normalization_741 (Bat (None, 8, 8, 32)          128       
_________________________________________________________________
activation_1259 (Activation) (None, 8, 8, 32)          0         
_________________________________________________________________
dropout_1259 (Dropout)       (None, 8, 8, 32)          0         
_________________________________________________________________
max_pooling2d_288 (MaxPoolin (None, 4, 4, 32)          0         
_________________________________________________________________
separable_conv2d_1158 (Separ (None, 4, 4, 32)          1344      
_________________________________________________________________
batch_normalization_742 (Bat (None, 4, 4, 32)          128       
_________________________________________________________________
activation_1260 (Activation) (None, 4, 4, 32)          0         
_________________________________________________________________
dropout_1260 (Dropout)       (None, 4, 4, 32)          0         
_________________________________________________________________
separable_conv2d_1159 (Separ (None, 4, 4, 256)         8736      
_________________________________________________________________
batch_normalization_743 (Bat (None, 4, 4, 256)         1024      
_________________________________________________________________
activation_1261 (Activation) (None, 4, 4, 256)         0         
_________________________________________________________________
dropout_1261 (Dropout)       (None, 4, 4, 256)         0         
_________________________________________________________________
flatten_99 (Flatten)         (None, 4096)              0         
_________________________________________________________________
dense_201 (Dense)            (None, 2048)              8390656   
_________________________________________________________________
batch_normalization_744 (Bat (None, 2048)              8192      
_________________________________________________________________
activation_1262 (Activation) (None, 2048)              0         
_________________________________________________________________
dropout_1262 (Dropout)       (None, 2048)              0         
_________________________________________________________________
dense_202 (Dense)            (None, 100)               204900    
=================================================================
Total params: 8,692,543
Trainable params: 8,686,143
Non-trainable params: 6,400
_________________________________________________________________
