Model: "sequential_148"
_________________________________________________________________
Layer (type)                 Output Shape              Param #   
=================================================================
separable_conv2d_1697 (Separ (None, 32, 32, 32)        155       
_________________________________________________________________
activation_1848 (Activation) (None, 32, 32, 32)        0         
_________________________________________________________________
dropout_1848 (Dropout)       (None, 32, 32, 32)        0         
_________________________________________________________________
separable_conv2d_1698 (Separ (None, 32, 32, 256)       8736      
_________________________________________________________________
batch_normalization_1101 (Ba (None, 32, 32, 256)       1024      
_________________________________________________________________
activation_1849 (Activation) (None, 32, 32, 256)       0         
_________________________________________________________________
dropout_1849 (Dropout)       (None, 32, 32, 256)       0         
_________________________________________________________________
separable_conv2d_1699 (Separ (None, 32, 32, 512)       133888    
_________________________________________________________________
activation_1850 (Activation) (None, 32, 32, 512)       0         
_________________________________________________________________
dropout_1850 (Dropout)       (None, 32, 32, 512)       0         
_________________________________________________________________
separable_conv2d_1700 (Separ (None, 32, 32, 64)        37440     
_________________________________________________________________
activation_1851 (Activation) (None, 32, 32, 64)        0         
_________________________________________________________________
dropout_1851 (Dropout)       (None, 32, 32, 64)        0         
_________________________________________________________________
max_pooling2d_433 (MaxPoolin (None, 16, 16, 64)        0         
_________________________________________________________________
separable_conv2d_1701 (Separ (None, 16, 16, 8)         1096      
_________________________________________________________________
activation_1852 (Activation) (None, 16, 16, 8)         0         
_________________________________________________________________
dropout_1852 (Dropout)       (None, 16, 16, 8)         0         
_________________________________________________________________
separable_conv2d_1702 (Separ (None, 16, 16, 128)       1224      
_________________________________________________________________
batch_normalization_1102 (Ba (None, 16, 16, 128)       512       
_________________________________________________________________
activation_1853 (Activation) (None, 16, 16, 128)       0         
_________________________________________________________________
dropout_1853 (Dropout)       (None, 16, 16, 128)       0         
_________________________________________________________________
separable_conv2d_1703 (Separ (None, 16, 16, 64)        9408      
_________________________________________________________________
batch_normalization_1103 (Ba (None, 16, 16, 64)        256       
_________________________________________________________________
activation_1854 (Activation) (None, 16, 16, 64)        0         
_________________________________________________________________
dropout_1854 (Dropout)       (None, 16, 16, 64)        0         
_________________________________________________________________
separable_conv2d_1704 (Separ (None, 16, 16, 512)       33856     
_________________________________________________________________
batch_normalization_1104 (Ba (None, 16, 16, 512)       2048      
_________________________________________________________________
activation_1855 (Activation) (None, 16, 16, 512)       0         
_________________________________________________________________
dropout_1855 (Dropout)       (None, 16, 16, 512)       0         
_________________________________________________________________
max_pooling2d_434 (MaxPoolin (None, 8, 8, 512)         0         
_________________________________________________________________
separable_conv2d_1705 (Separ (None, 8, 8, 32)          21024     
_________________________________________________________________
batch_normalization_1105 (Ba (None, 8, 8, 32)          128       
_________________________________________________________________
activation_1856 (Activation) (None, 8, 8, 32)          0         
_________________________________________________________________
dropout_1856 (Dropout)       (None, 8, 8, 32)          0         
_________________________________________________________________
max_pooling2d_435 (MaxPoolin (None, 4, 4, 32)          0         
_________________________________________________________________
separable_conv2d_1706 (Separ (None, 4, 4, 128)         4512      
_________________________________________________________________
activation_1857 (Activation) (None, 4, 4, 128)         0         
_________________________________________________________________
dropout_1857 (Dropout)       (None, 4, 4, 128)         0         
_________________________________________________________________
separable_conv2d_1707 (Separ (None, 4, 4, 32)          5280      
_________________________________________________________________
batch_normalization_1106 (Ba (None, 4, 4, 32)          128       
_________________________________________________________________
activation_1858 (Activation) (None, 4, 4, 32)          0         
_________________________________________________________________
dropout_1858 (Dropout)       (None, 4, 4, 32)          0         
_________________________________________________________________
flatten_148 (Flatten)        (None, 512)               0         
_________________________________________________________________
dense_299 (Dense)            (None, 2048)              1050624   
_________________________________________________________________
batch_normalization_1107 (Ba (None, 2048)              8192      
_________________________________________________________________
activation_1859 (Activation) (None, 2048)              0         
_________________________________________________________________
dropout_1859 (Dropout)       (None, 2048)              0         
_________________________________________________________________
dense_300 (Dense)            (None, 100)               204900    
=================================================================
Total params: 1,524,431
Trainable params: 1,518,287
Non-trainable params: 6,144
_________________________________________________________________
