Model: "sequential_95"
_________________________________________________________________
Layer (type)                 Output Shape              Param #   
=================================================================
separable_conv2d_1103 (Separ (None, 32, 32, 32)        155       
_________________________________________________________________
activation_1201 (Activation) (None, 32, 32, 32)        0         
_________________________________________________________________
dropout_1201 (Dropout)       (None, 32, 32, 32)        0         
_________________________________________________________________
separable_conv2d_1104 (Separ (None, 32, 32, 256)       8736      
_________________________________________________________________
batch_normalization_706 (Bat (None, 32, 32, 256)       1024      
_________________________________________________________________
activation_1202 (Activation) (None, 32, 32, 256)       0         
_________________________________________________________________
dropout_1202 (Dropout)       (None, 32, 32, 256)       0         
_________________________________________________________________
separable_conv2d_1105 (Separ (None, 32, 32, 8)         4360      
_________________________________________________________________
activation_1203 (Activation) (None, 32, 32, 8)         0         
_________________________________________________________________
dropout_1203 (Dropout)       (None, 32, 32, 8)         0         
_________________________________________________________________
separable_conv2d_1106 (Separ (None, 32, 32, 64)        648       
_________________________________________________________________
activation_1204 (Activation) (None, 32, 32, 64)        0         
_________________________________________________________________
dropout_1204 (Dropout)       (None, 32, 32, 64)        0         
_________________________________________________________________
max_pooling2d_274 (MaxPoolin (None, 16, 16, 64)        0         
_________________________________________________________________
separable_conv2d_1107 (Separ (None, 16, 16, 8)         1096      
_________________________________________________________________
activation_1205 (Activation) (None, 16, 16, 8)         0         
_________________________________________________________________
dropout_1205 (Dropout)       (None, 16, 16, 8)         0         
_________________________________________________________________
separable_conv2d_1108 (Separ (None, 16, 16, 128)       1224      
_________________________________________________________________
batch_normalization_707 (Bat (None, 16, 16, 128)       512       
_________________________________________________________________
activation_1206 (Activation) (None, 16, 16, 128)       0         
_________________________________________________________________
dropout_1206 (Dropout)       (None, 16, 16, 128)       0         
_________________________________________________________________
separable_conv2d_1109 (Separ (None, 16, 16, 64)        9408      
_________________________________________________________________
batch_normalization_708 (Bat (None, 16, 16, 64)        256       
_________________________________________________________________
activation_1207 (Activation) (None, 16, 16, 64)        0         
_________________________________________________________________
dropout_1207 (Dropout)       (None, 16, 16, 64)        0         
_________________________________________________________________
separable_conv2d_1110 (Separ (None, 16, 16, 512)       33856     
_________________________________________________________________
batch_normalization_709 (Bat (None, 16, 16, 512)       2048      
_________________________________________________________________
activation_1208 (Activation) (None, 16, 16, 512)       0         
_________________________________________________________________
dropout_1208 (Dropout)       (None, 16, 16, 512)       0         
_________________________________________________________________
max_pooling2d_275 (MaxPoolin (None, 8, 8, 512)         0         
_________________________________________________________________
separable_conv2d_1111 (Separ (None, 8, 8, 128)         70272     
_________________________________________________________________
activation_1209 (Activation) (None, 8, 8, 128)         0         
_________________________________________________________________
dropout_1209 (Dropout)       (None, 8, 8, 128)         0         
_________________________________________________________________
separable_conv2d_1112 (Separ (None, 8, 8, 32)          5280      
_________________________________________________________________
batch_normalization_710 (Bat (None, 8, 8, 32)          128       
_________________________________________________________________
activation_1210 (Activation) (None, 8, 8, 32)          0         
_________________________________________________________________
dropout_1210 (Dropout)       (None, 8, 8, 32)          0         
_________________________________________________________________
separable_conv2d_1113 (Separ (None, 8, 8, 256)         8736      
_________________________________________________________________
batch_normalization_711 (Bat (None, 8, 8, 256)         1024      
_________________________________________________________________
activation_1211 (Activation) (None, 8, 8, 256)         0         
_________________________________________________________________
dropout_1211 (Dropout)       (None, 8, 8, 256)         0         
_________________________________________________________________
max_pooling2d_276 (MaxPoolin (None, 4, 4, 256)         0         
_________________________________________________________________
flatten_95 (Flatten)         (None, 4096)              0         
_________________________________________________________________
dense_193 (Dense)            (None, 2048)              8390656   
_________________________________________________________________
batch_normalization_712 (Bat (None, 2048)              8192      
_________________________________________________________________
activation_1212 (Activation) (None, 2048)              0         
_________________________________________________________________
dropout_1212 (Dropout)       (None, 2048)              0         
_________________________________________________________________
dense_194 (Dense)            (None, 100)               204900    
=================================================================
Total params: 8,752,511
Trainable params: 8,745,919
Non-trainable params: 6,592
_________________________________________________________________
