Model: "sequential_366"
_________________________________________________________________
Layer (type)                 Output Shape              Param #   
=================================================================
separable_conv2d_3925 (Separ (None, 32, 32, 32)        155       
_________________________________________________________________
activation_4294 (Activation) (None, 32, 32, 32)        0         
_________________________________________________________________
dropout_4294 (Dropout)       (None, 32, 32, 32)        0         
_________________________________________________________________
separable_conv2d_3926 (Separ (None, 32, 32, 256)       8736      
_________________________________________________________________
batch_normalization_2455 (Ba (None, 32, 32, 256)       1024      
_________________________________________________________________
activation_4295 (Activation) (None, 32, 32, 256)       0         
_________________________________________________________________
dropout_4295 (Dropout)       (None, 32, 32, 256)       0         
_________________________________________________________________
separable_conv2d_3927 (Separ (None, 32, 32, 8)         4360      
_________________________________________________________________
activation_4296 (Activation) (None, 32, 32, 8)         0         
_________________________________________________________________
dropout_4296 (Dropout)       (None, 32, 32, 8)         0         
_________________________________________________________________
separable_conv2d_3928 (Separ (None, 32, 32, 64)        648       
_________________________________________________________________
activation_4297 (Activation) (None, 32, 32, 64)        0         
_________________________________________________________________
dropout_4297 (Dropout)       (None, 32, 32, 64)        0         
_________________________________________________________________
max_pooling2d_1013 (MaxPooli (None, 16, 16, 64)        0         
_________________________________________________________________
separable_conv2d_3929 (Separ (None, 16, 16, 16)        1616      
_________________________________________________________________
activation_4298 (Activation) (None, 16, 16, 16)        0         
_________________________________________________________________
dropout_4298 (Dropout)       (None, 16, 16, 16)        0         
_________________________________________________________________
separable_conv2d_3930 (Separ (None, 16, 16, 128)       2320      
_________________________________________________________________
batch_normalization_2456 (Ba (None, 16, 16, 128)       512       
_________________________________________________________________
activation_4299 (Activation) (None, 16, 16, 128)       0         
_________________________________________________________________
dropout_4299 (Dropout)       (None, 16, 16, 128)       0         
_________________________________________________________________
separable_conv2d_3931 (Separ (None, 16, 16, 64)        9408      
_________________________________________________________________
batch_normalization_2457 (Ba (None, 16, 16, 64)        256       
_________________________________________________________________
activation_4300 (Activation) (None, 16, 16, 64)        0         
_________________________________________________________________
dropout_4300 (Dropout)       (None, 16, 16, 64)        0         
_________________________________________________________________
max_pooling2d_1014 (MaxPooli (None, 8, 8, 64)          0         
_________________________________________________________________
separable_conv2d_3932 (Separ (None, 8, 8, 32)          2656      
_________________________________________________________________
activation_4301 (Activation) (None, 8, 8, 32)          0         
_________________________________________________________________
dropout_4301 (Dropout)       (None, 8, 8, 32)          0         
_________________________________________________________________
separable_conv2d_3933 (Separ (None, 8, 8, 256)         8736      
_________________________________________________________________
batch_normalization_2458 (Ba (None, 8, 8, 256)         1024      
_________________________________________________________________
activation_4302 (Activation) (None, 8, 8, 256)         0         
_________________________________________________________________
dropout_4302 (Dropout)       (None, 8, 8, 256)         0         
_________________________________________________________________
max_pooling2d_1015 (MaxPooli (None, 4, 4, 256)         0         
_________________________________________________________________
flatten_366 (Flatten)        (None, 4096)              0         
_________________________________________________________________
dense_735 (Dense)            (None, 2048)              8390656   
_________________________________________________________________
batch_normalization_2459 (Ba (None, 2048)              8192      
_________________________________________________________________
activation_4303 (Activation) (None, 2048)              0         
_________________________________________________________________
dropout_4303 (Dropout)       (None, 2048)              0         
_________________________________________________________________
dense_736 (Dense)            (None, 100)               204900    
=================================================================
Total params: 8,645,199
Trainable params: 8,639,695
Non-trainable params: 5,504
_________________________________________________________________
