Model: "sequential_280"
_________________________________________________________________
Layer (type)                 Output Shape              Param #   
=================================================================
separable_conv2d_3101 (Separ (None, 32, 32, 32)        155       
_________________________________________________________________
activation_3384 (Activation) (None, 32, 32, 32)        0         
_________________________________________________________________
dropout_3384 (Dropout)       (None, 32, 32, 32)        0         
_________________________________________________________________
separable_conv2d_3102 (Separ (None, 32, 32, 256)       8736      
_________________________________________________________________
batch_normalization_1976 (Ba (None, 32, 32, 256)       1024      
_________________________________________________________________
activation_3385 (Activation) (None, 32, 32, 256)       0         
_________________________________________________________________
dropout_3385 (Dropout)       (None, 32, 32, 256)       0         
_________________________________________________________________
separable_conv2d_3103 (Separ (None, 32, 32, 8)         4360      
_________________________________________________________________
activation_3386 (Activation) (None, 32, 32, 8)         0         
_________________________________________________________________
dropout_3386 (Dropout)       (None, 32, 32, 8)         0         
_________________________________________________________________
separable_conv2d_3104 (Separ (None, 32, 32, 64)        648       
_________________________________________________________________
activation_3387 (Activation) (None, 32, 32, 64)        0         
_________________________________________________________________
dropout_3387 (Dropout)       (None, 32, 32, 64)        0         
_________________________________________________________________
max_pooling2d_811 (MaxPoolin (None, 16, 16, 64)        0         
_________________________________________________________________
separable_conv2d_3105 (Separ (None, 16, 16, 16)        1616      
_________________________________________________________________
activation_3388 (Activation) (None, 16, 16, 16)        0         
_________________________________________________________________
dropout_3388 (Dropout)       (None, 16, 16, 16)        0         
_________________________________________________________________
separable_conv2d_3106 (Separ (None, 16, 16, 128)       2320      
_________________________________________________________________
batch_normalization_1977 (Ba (None, 16, 16, 128)       512       
_________________________________________________________________
activation_3389 (Activation) (None, 16, 16, 128)       0         
_________________________________________________________________
dropout_3389 (Dropout)       (None, 16, 16, 128)       0         
_________________________________________________________________
separable_conv2d_3107 (Separ (None, 16, 16, 64)        9408      
_________________________________________________________________
batch_normalization_1978 (Ba (None, 16, 16, 64)        256       
_________________________________________________________________
activation_3390 (Activation) (None, 16, 16, 64)        0         
_________________________________________________________________
dropout_3390 (Dropout)       (None, 16, 16, 64)        0         
_________________________________________________________________
separable_conv2d_3108 (Separ (None, 16, 16, 512)       33856     
_________________________________________________________________
batch_normalization_1979 (Ba (None, 16, 16, 512)       2048      
_________________________________________________________________
activation_3391 (Activation) (None, 16, 16, 512)       0         
_________________________________________________________________
dropout_3391 (Dropout)       (None, 16, 16, 512)       0         
_________________________________________________________________
max_pooling2d_812 (MaxPoolin (None, 8, 8, 512)         0         
_________________________________________________________________
separable_conv2d_3109 (Separ (None, 8, 8, 128)         70272     
_________________________________________________________________
activation_3392 (Activation) (None, 8, 8, 128)         0         
_________________________________________________________________
dropout_3392 (Dropout)       (None, 8, 8, 128)         0         
_________________________________________________________________
separable_conv2d_3110 (Separ (None, 8, 8, 32)          5280      
_________________________________________________________________
batch_normalization_1980 (Ba (None, 8, 8, 32)          128       
_________________________________________________________________
activation_3393 (Activation) (None, 8, 8, 32)          0         
_________________________________________________________________
dropout_3393 (Dropout)       (None, 8, 8, 32)          0         
_________________________________________________________________
separable_conv2d_3111 (Separ (None, 8, 8, 256)         8736      
_________________________________________________________________
batch_normalization_1981 (Ba (None, 8, 8, 256)         1024      
_________________________________________________________________
activation_3394 (Activation) (None, 8, 8, 256)         0         
_________________________________________________________________
dropout_3394 (Dropout)       (None, 8, 8, 256)         0         
_________________________________________________________________
max_pooling2d_813 (MaxPoolin (None, 4, 4, 256)         0         
_________________________________________________________________
flatten_280 (Flatten)        (None, 4096)              0         
_________________________________________________________________
dense_563 (Dense)            (None, 2048)              8390656   
_________________________________________________________________
batch_normalization_1982 (Ba (None, 2048)              8192      
_________________________________________________________________
activation_3395 (Activation) (None, 2048)              0         
_________________________________________________________________
dropout_3395 (Dropout)       (None, 2048)              0         
_________________________________________________________________
dense_564 (Dense)            (None, 100)               204900    
=================================================================
Total params: 8,754,127
Trainable params: 8,747,535
Non-trainable params: 6,592
_________________________________________________________________
