Model: "sequential_285"
_________________________________________________________________
Layer (type)                 Output Shape              Param #   
=================================================================
separable_conv2d_3153 (Separ (None, 32, 32, 32)        155       
_________________________________________________________________
activation_3441 (Activation) (None, 32, 32, 32)        0         
_________________________________________________________________
dropout_3441 (Dropout)       (None, 32, 32, 32)        0         
_________________________________________________________________
separable_conv2d_3154 (Separ (None, 32, 32, 256)       8736      
_________________________________________________________________
batch_normalization_2010 (Ba (None, 32, 32, 256)       1024      
_________________________________________________________________
activation_3442 (Activation) (None, 32, 32, 256)       0         
_________________________________________________________________
dropout_3442 (Dropout)       (None, 32, 32, 256)       0         
_________________________________________________________________
separable_conv2d_3155 (Separ (None, 32, 32, 8)         4360      
_________________________________________________________________
activation_3443 (Activation) (None, 32, 32, 8)         0         
_________________________________________________________________
dropout_3443 (Dropout)       (None, 32, 32, 8)         0         
_________________________________________________________________
separable_conv2d_3156 (Separ (None, 32, 32, 64)        648       
_________________________________________________________________
activation_3444 (Activation) (None, 32, 32, 64)        0         
_________________________________________________________________
dropout_3444 (Dropout)       (None, 32, 32, 64)        0         
_________________________________________________________________
max_pooling2d_825 (MaxPoolin (None, 16, 16, 64)        0         
_________________________________________________________________
separable_conv2d_3157 (Separ (None, 16, 16, 16)        1616      
_________________________________________________________________
activation_3445 (Activation) (None, 16, 16, 16)        0         
_________________________________________________________________
dropout_3445 (Dropout)       (None, 16, 16, 16)        0         
_________________________________________________________________
separable_conv2d_3158 (Separ (None, 16, 16, 128)       2320      
_________________________________________________________________
batch_normalization_2011 (Ba (None, 16, 16, 128)       512       
_________________________________________________________________
activation_3446 (Activation) (None, 16, 16, 128)       0         
_________________________________________________________________
dropout_3446 (Dropout)       (None, 16, 16, 128)       0         
_________________________________________________________________
separable_conv2d_3159 (Separ (None, 16, 16, 64)        9408      
_________________________________________________________________
batch_normalization_2012 (Ba (None, 16, 16, 64)        256       
_________________________________________________________________
activation_3447 (Activation) (None, 16, 16, 64)        0         
_________________________________________________________________
dropout_3447 (Dropout)       (None, 16, 16, 64)        0         
_________________________________________________________________
separable_conv2d_3160 (Separ (None, 16, 16, 512)       33856     
_________________________________________________________________
batch_normalization_2013 (Ba (None, 16, 16, 512)       2048      
_________________________________________________________________
activation_3448 (Activation) (None, 16, 16, 512)       0         
_________________________________________________________________
dropout_3448 (Dropout)       (None, 16, 16, 512)       0         
_________________________________________________________________
max_pooling2d_826 (MaxPoolin (None, 8, 8, 512)         0         
_________________________________________________________________
separable_conv2d_3161 (Separ (None, 8, 8, 128)         70272     
_________________________________________________________________
activation_3449 (Activation) (None, 8, 8, 128)         0         
_________________________________________________________________
dropout_3449 (Dropout)       (None, 8, 8, 128)         0         
_________________________________________________________________
separable_conv2d_3162 (Separ (None, 8, 8, 32)          5280      
_________________________________________________________________
batch_normalization_2014 (Ba (None, 8, 8, 32)          128       
_________________________________________________________________
activation_3450 (Activation) (None, 8, 8, 32)          0         
_________________________________________________________________
dropout_3450 (Dropout)       (None, 8, 8, 32)          0         
_________________________________________________________________
separable_conv2d_3163 (Separ (None, 8, 8, 256)         8736      
_________________________________________________________________
batch_normalization_2015 (Ba (None, 8, 8, 256)         1024      
_________________________________________________________________
activation_3451 (Activation) (None, 8, 8, 256)         0         
_________________________________________________________________
dropout_3451 (Dropout)       (None, 8, 8, 256)         0         
_________________________________________________________________
max_pooling2d_827 (MaxPoolin (None, 4, 4, 256)         0         
_________________________________________________________________
flatten_285 (Flatten)        (None, 4096)              0         
_________________________________________________________________
dense_573 (Dense)            (None, 2048)              8390656   
_________________________________________________________________
batch_normalization_2016 (Ba (None, 2048)              8192      
_________________________________________________________________
activation_3452 (Activation) (None, 2048)              0         
_________________________________________________________________
dropout_3452 (Dropout)       (None, 2048)              0         
_________________________________________________________________
dense_574 (Dense)            (None, 100)               204900    
=================================================================
Total params: 8,754,127
Trainable params: 8,747,535
Non-trainable params: 6,592
_________________________________________________________________
