Model: "sequential_52"
_________________________________________________________________
Layer (type)                 Output Shape              Param #   
=================================================================
separable_conv2d_599 (Separa (None, 32, 32, 32)        155       
_________________________________________________________________
activation_654 (Activation)  (None, 32, 32, 32)        0         
_________________________________________________________________
dropout_654 (Dropout)        (None, 32, 32, 32)        0         
_________________________________________________________________
separable_conv2d_600 (Separa (None, 32, 32, 128)       4512      
_________________________________________________________________
batch_normalization_368 (Bat (None, 32, 32, 128)       512       
_________________________________________________________________
activation_655 (Activation)  (None, 32, 32, 128)       0         
_________________________________________________________________
dropout_655 (Dropout)        (None, 32, 32, 128)       0         
_________________________________________________________________
separable_conv2d_601 (Separa (None, 32, 32, 8)         2184      
_________________________________________________________________
activation_656 (Activation)  (None, 32, 32, 8)         0         
_________________________________________________________________
dropout_656 (Dropout)        (None, 32, 32, 8)         0         
_________________________________________________________________
separable_conv2d_602 (Separa (None, 32, 32, 64)        648       
_________________________________________________________________
activation_657 (Activation)  (None, 32, 32, 64)        0         
_________________________________________________________________
dropout_657 (Dropout)        (None, 32, 32, 64)        0         
_________________________________________________________________
max_pooling2d_145 (MaxPoolin (None, 16, 16, 64)        0         
_________________________________________________________________
separable_conv2d_603 (Separa (None, 16, 16, 8)         1096      
_________________________________________________________________
activation_658 (Activation)  (None, 16, 16, 8)         0         
_________________________________________________________________
dropout_658 (Dropout)        (None, 16, 16, 8)         0         
_________________________________________________________________
separable_conv2d_604 (Separa (None, 16, 16, 128)       1224      
_________________________________________________________________
batch_normalization_369 (Bat (None, 16, 16, 128)       512       
_________________________________________________________________
activation_659 (Activation)  (None, 16, 16, 128)       0         
_________________________________________________________________
dropout_659 (Dropout)        (None, 16, 16, 128)       0         
_________________________________________________________________
separable_conv2d_605 (Separa (None, 16, 16, 64)        9408      
_________________________________________________________________
batch_normalization_370 (Bat (None, 16, 16, 64)        256       
_________________________________________________________________
activation_660 (Activation)  (None, 16, 16, 64)        0         
_________________________________________________________________
dropout_660 (Dropout)        (None, 16, 16, 64)        0         
_________________________________________________________________
separable_conv2d_606 (Separa (None, 16, 16, 512)       33856     
_________________________________________________________________
batch_normalization_371 (Bat (None, 16, 16, 512)       2048      
_________________________________________________________________
activation_661 (Activation)  (None, 16, 16, 512)       0         
_________________________________________________________________
dropout_661 (Dropout)        (None, 16, 16, 512)       0         
_________________________________________________________________
max_pooling2d_146 (MaxPoolin (None, 8, 8, 512)         0         
_________________________________________________________________
separable_conv2d_607 (Separa (None, 8, 8, 32)          21024     
_________________________________________________________________
batch_normalization_372 (Bat (None, 8, 8, 32)          128       
_________________________________________________________________
activation_662 (Activation)  (None, 8, 8, 32)          0         
_________________________________________________________________
dropout_662 (Dropout)        (None, 8, 8, 32)          0         
_________________________________________________________________
max_pooling2d_147 (MaxPoolin (None, 4, 4, 32)          0         
_________________________________________________________________
separable_conv2d_608 (Separa (None, 4, 4, 128)         4512      
_________________________________________________________________
activation_663 (Activation)  (None, 4, 4, 128)         0         
_________________________________________________________________
dropout_663 (Dropout)        (None, 4, 4, 128)         0         
_________________________________________________________________
separable_conv2d_609 (Separa (None, 4, 4, 32)          5280      
_________________________________________________________________
batch_normalization_373 (Bat (None, 4, 4, 32)          128       
_________________________________________________________________
activation_664 (Activation)  (None, 4, 4, 32)          0         
_________________________________________________________________
dropout_664 (Dropout)        (None, 4, 4, 32)          0         
_________________________________________________________________
separable_conv2d_610 (Separa (None, 4, 4, 256)         8736      
_________________________________________________________________
batch_normalization_374 (Bat (None, 4, 4, 256)         1024      
_________________________________________________________________
activation_665 (Activation)  (None, 4, 4, 256)         0         
_________________________________________________________________
dropout_665 (Dropout)        (None, 4, 4, 256)         0         
_________________________________________________________________
flatten_52 (Flatten)         (None, 4096)              0         
_________________________________________________________________
dense_107 (Dense)            (None, 2048)              8390656   
_________________________________________________________________
batch_normalization_375 (Bat (None, 2048)              8192      
_________________________________________________________________
activation_666 (Activation)  (None, 2048)              0         
_________________________________________________________________
dropout_666 (Dropout)        (None, 2048)              0         
_________________________________________________________________
dense_108 (Dense)            (None, 100)               204900    
=================================================================
Total params: 8,700,991
Trainable params: 8,694,591
Non-trainable params: 6,400
_________________________________________________________________
