Model: "sequential_34"
_________________________________________________________________
Layer (type)                 Output Shape              Param #   
=================================================================
separable_conv2d_388 (Separa (None, 32, 32, 32)        155       
_________________________________________________________________
activation_425 (Activation)  (None, 32, 32, 32)        0         
_________________________________________________________________
dropout_425 (Dropout)        (None, 32, 32, 32)        0         
_________________________________________________________________
separable_conv2d_389 (Separa (None, 32, 32, 128)       4512      
_________________________________________________________________
batch_normalization_235 (Bat (None, 32, 32, 128)       512       
_________________________________________________________________
activation_426 (Activation)  (None, 32, 32, 128)       0         
_________________________________________________________________
dropout_426 (Dropout)        (None, 32, 32, 128)       0         
_________________________________________________________________
separable_conv2d_390 (Separa (None, 32, 32, 8)         2184      
_________________________________________________________________
activation_427 (Activation)  (None, 32, 32, 8)         0         
_________________________________________________________________
dropout_427 (Dropout)        (None, 32, 32, 8)         0         
_________________________________________________________________
separable_conv2d_391 (Separa (None, 32, 32, 64)        648       
_________________________________________________________________
activation_428 (Activation)  (None, 32, 32, 64)        0         
_________________________________________________________________
dropout_428 (Dropout)        (None, 32, 32, 64)        0         
_________________________________________________________________
max_pooling2d_91 (MaxPooling (None, 16, 16, 64)        0         
_________________________________________________________________
separable_conv2d_392 (Separa (None, 16, 16, 8)         1096      
_________________________________________________________________
activation_429 (Activation)  (None, 16, 16, 8)         0         
_________________________________________________________________
dropout_429 (Dropout)        (None, 16, 16, 8)         0         
_________________________________________________________________
separable_conv2d_393 (Separa (None, 16, 16, 128)       1224      
_________________________________________________________________
batch_normalization_236 (Bat (None, 16, 16, 128)       512       
_________________________________________________________________
activation_430 (Activation)  (None, 16, 16, 128)       0         
_________________________________________________________________
dropout_430 (Dropout)        (None, 16, 16, 128)       0         
_________________________________________________________________
separable_conv2d_394 (Separa (None, 16, 16, 64)        9408      
_________________________________________________________________
batch_normalization_237 (Bat (None, 16, 16, 64)        256       
_________________________________________________________________
activation_431 (Activation)  (None, 16, 16, 64)        0         
_________________________________________________________________
dropout_431 (Dropout)        (None, 16, 16, 64)        0         
_________________________________________________________________
separable_conv2d_395 (Separa (None, 16, 16, 512)       33856     
_________________________________________________________________
batch_normalization_238 (Bat (None, 16, 16, 512)       2048      
_________________________________________________________________
activation_432 (Activation)  (None, 16, 16, 512)       0         
_________________________________________________________________
dropout_432 (Dropout)        (None, 16, 16, 512)       0         
_________________________________________________________________
max_pooling2d_92 (MaxPooling (None, 8, 8, 512)         0         
_________________________________________________________________
separable_conv2d_396 (Separa (None, 8, 8, 32)          21024     
_________________________________________________________________
batch_normalization_239 (Bat (None, 8, 8, 32)          128       
_________________________________________________________________
activation_433 (Activation)  (None, 8, 8, 32)          0         
_________________________________________________________________
dropout_433 (Dropout)        (None, 8, 8, 32)          0         
_________________________________________________________________
max_pooling2d_93 (MaxPooling (None, 4, 4, 32)          0         
_________________________________________________________________
separable_conv2d_397 (Separa (None, 4, 4, 128)         4512      
_________________________________________________________________
activation_434 (Activation)  (None, 4, 4, 128)         0         
_________________________________________________________________
dropout_434 (Dropout)        (None, 4, 4, 128)         0         
_________________________________________________________________
separable_conv2d_398 (Separa (None, 4, 4, 32)          5280      
_________________________________________________________________
batch_normalization_240 (Bat (None, 4, 4, 32)          128       
_________________________________________________________________
activation_435 (Activation)  (None, 4, 4, 32)          0         
_________________________________________________________________
dropout_435 (Dropout)        (None, 4, 4, 32)          0         
_________________________________________________________________
separable_conv2d_399 (Separa (None, 4, 4, 256)         8736      
_________________________________________________________________
batch_normalization_241 (Bat (None, 4, 4, 256)         1024      
_________________________________________________________________
activation_436 (Activation)  (None, 4, 4, 256)         0         
_________________________________________________________________
dropout_436 (Dropout)        (None, 4, 4, 256)         0         
_________________________________________________________________
flatten_34 (Flatten)         (None, 4096)              0         
_________________________________________________________________
dense_71 (Dense)             (None, 2048)              8390656   
_________________________________________________________________
batch_normalization_242 (Bat (None, 2048)              8192      
_________________________________________________________________
activation_437 (Activation)  (None, 2048)              0         
_________________________________________________________________
dropout_437 (Dropout)        (None, 2048)              0         
_________________________________________________________________
dense_72 (Dense)             (None, 100)               204900    
=================================================================
Total params: 8,700,991
Trainable params: 8,694,591
Non-trainable params: 6,400
_________________________________________________________________
