Model: "sequential_96"
_________________________________________________________________
Layer (type)                 Output Shape              Param #   
=================================================================
separable_conv2d_1114 (Separ (None, 32, 32, 32)        155       
_________________________________________________________________
activation_1213 (Activation) (None, 32, 32, 32)        0         
_________________________________________________________________
dropout_1213 (Dropout)       (None, 32, 32, 32)        0         
_________________________________________________________________
separable_conv2d_1115 (Separ (None, 32, 32, 128)       4512      
_________________________________________________________________
batch_normalization_713 (Bat (None, 32, 32, 128)       512       
_________________________________________________________________
activation_1214 (Activation) (None, 32, 32, 128)       0         
_________________________________________________________________
dropout_1214 (Dropout)       (None, 32, 32, 128)       0         
_________________________________________________________________
separable_conv2d_1116 (Separ (None, 32, 32, 8)         2184      
_________________________________________________________________
activation_1215 (Activation) (None, 32, 32, 8)         0         
_________________________________________________________________
dropout_1215 (Dropout)       (None, 32, 32, 8)         0         
_________________________________________________________________
separable_conv2d_1117 (Separ (None, 32, 32, 64)        648       
_________________________________________________________________
activation_1216 (Activation) (None, 32, 32, 64)        0         
_________________________________________________________________
dropout_1216 (Dropout)       (None, 32, 32, 64)        0         
_________________________________________________________________
max_pooling2d_277 (MaxPoolin (None, 16, 16, 64)        0         
_________________________________________________________________
separable_conv2d_1118 (Separ (None, 16, 16, 8)         1096      
_________________________________________________________________
activation_1217 (Activation) (None, 16, 16, 8)         0         
_________________________________________________________________
dropout_1217 (Dropout)       (None, 16, 16, 8)         0         
_________________________________________________________________
separable_conv2d_1119 (Separ (None, 16, 16, 128)       1224      
_________________________________________________________________
batch_normalization_714 (Bat (None, 16, 16, 128)       512       
_________________________________________________________________
activation_1218 (Activation) (None, 16, 16, 128)       0         
_________________________________________________________________
dropout_1218 (Dropout)       (None, 16, 16, 128)       0         
_________________________________________________________________
separable_conv2d_1120 (Separ (None, 16, 16, 64)        9408      
_________________________________________________________________
batch_normalization_715 (Bat (None, 16, 16, 64)        256       
_________________________________________________________________
activation_1219 (Activation) (None, 16, 16, 64)        0         
_________________________________________________________________
dropout_1219 (Dropout)       (None, 16, 16, 64)        0         
_________________________________________________________________
separable_conv2d_1121 (Separ (None, 16, 16, 512)       33856     
_________________________________________________________________
batch_normalization_716 (Bat (None, 16, 16, 512)       2048      
_________________________________________________________________
activation_1220 (Activation) (None, 16, 16, 512)       0         
_________________________________________________________________
dropout_1220 (Dropout)       (None, 16, 16, 512)       0         
_________________________________________________________________
max_pooling2d_278 (MaxPoolin (None, 8, 8, 512)         0         
_________________________________________________________________
separable_conv2d_1122 (Separ (None, 8, 8, 32)          21024     
_________________________________________________________________
batch_normalization_717 (Bat (None, 8, 8, 32)          128       
_________________________________________________________________
activation_1221 (Activation) (None, 8, 8, 32)          0         
_________________________________________________________________
dropout_1221 (Dropout)       (None, 8, 8, 32)          0         
_________________________________________________________________
max_pooling2d_279 (MaxPoolin (None, 4, 4, 32)          0         
_________________________________________________________________
separable_conv2d_1123 (Separ (None, 4, 4, 128)         4512      
_________________________________________________________________
activation_1222 (Activation) (None, 4, 4, 128)         0         
_________________________________________________________________
dropout_1222 (Dropout)       (None, 4, 4, 128)         0         
_________________________________________________________________
separable_conv2d_1124 (Separ (None, 4, 4, 32)          5280      
_________________________________________________________________
batch_normalization_718 (Bat (None, 4, 4, 32)          128       
_________________________________________________________________
activation_1223 (Activation) (None, 4, 4, 32)          0         
_________________________________________________________________
dropout_1223 (Dropout)       (None, 4, 4, 32)          0         
_________________________________________________________________
separable_conv2d_1125 (Separ (None, 4, 4, 256)         8736      
_________________________________________________________________
batch_normalization_719 (Bat (None, 4, 4, 256)         1024      
_________________________________________________________________
activation_1224 (Activation) (None, 4, 4, 256)         0         
_________________________________________________________________
dropout_1224 (Dropout)       (None, 4, 4, 256)         0         
_________________________________________________________________
flatten_96 (Flatten)         (None, 4096)              0         
_________________________________________________________________
dense_195 (Dense)            (None, 2048)              8390656   
_________________________________________________________________
batch_normalization_720 (Bat (None, 2048)              8192      
_________________________________________________________________
activation_1225 (Activation) (None, 2048)              0         
_________________________________________________________________
dropout_1225 (Dropout)       (None, 2048)              0         
_________________________________________________________________
dense_196 (Dense)            (None, 100)               204900    
=================================================================
Total params: 8,700,991
Trainable params: 8,694,591
Non-trainable params: 6,400
_________________________________________________________________
