Model: "sequential_236"
_________________________________________________________________
Layer (type)                 Output Shape              Param #   
=================================================================
separable_conv2d_2645 (Separ (None, 32, 32, 32)        155       
_________________________________________________________________
activation_2884 (Activation) (None, 32, 32, 32)        0         
_________________________________________________________________
dropout_2884 (Dropout)       (None, 32, 32, 32)        0         
_________________________________________________________________
separable_conv2d_2646 (Separ (None, 32, 32, 256)       8736      
_________________________________________________________________
batch_normalization_1691 (Ba (None, 32, 32, 256)       1024      
_________________________________________________________________
activation_2885 (Activation) (None, 32, 32, 256)       0         
_________________________________________________________________
dropout_2885 (Dropout)       (None, 32, 32, 256)       0         
_________________________________________________________________
separable_conv2d_2647 (Separ (None, 32, 32, 8)         4360      
_________________________________________________________________
activation_2886 (Activation) (None, 32, 32, 8)         0         
_________________________________________________________________
dropout_2886 (Dropout)       (None, 32, 32, 8)         0         
_________________________________________________________________
separable_conv2d_2648 (Separ (None, 32, 32, 64)        648       
_________________________________________________________________
activation_2887 (Activation) (None, 32, 32, 64)        0         
_________________________________________________________________
dropout_2887 (Dropout)       (None, 32, 32, 64)        0         
_________________________________________________________________
max_pooling2d_690 (MaxPoolin (None, 16, 16, 64)        0         
_________________________________________________________________
separable_conv2d_2649 (Separ (None, 16, 16, 16)        1616      
_________________________________________________________________
activation_2888 (Activation) (None, 16, 16, 16)        0         
_________________________________________________________________
dropout_2888 (Dropout)       (None, 16, 16, 16)        0         
_________________________________________________________________
separable_conv2d_2650 (Separ (None, 16, 16, 128)       2320      
_________________________________________________________________
batch_normalization_1692 (Ba (None, 16, 16, 128)       512       
_________________________________________________________________
activation_2889 (Activation) (None, 16, 16, 128)       0         
_________________________________________________________________
dropout_2889 (Dropout)       (None, 16, 16, 128)       0         
_________________________________________________________________
separable_conv2d_2651 (Separ (None, 16, 16, 64)        9408      
_________________________________________________________________
batch_normalization_1693 (Ba (None, 16, 16, 64)        256       
_________________________________________________________________
activation_2890 (Activation) (None, 16, 16, 64)        0         
_________________________________________________________________
dropout_2890 (Dropout)       (None, 16, 16, 64)        0         
_________________________________________________________________
separable_conv2d_2652 (Separ (None, 16, 16, 512)       33856     
_________________________________________________________________
batch_normalization_1694 (Ba (None, 16, 16, 512)       2048      
_________________________________________________________________
activation_2891 (Activation) (None, 16, 16, 512)       0         
_________________________________________________________________
dropout_2891 (Dropout)       (None, 16, 16, 512)       0         
_________________________________________________________________
max_pooling2d_691 (MaxPoolin (None, 8, 8, 512)         0         
_________________________________________________________________
separable_conv2d_2653 (Separ (None, 8, 8, 128)         70272     
_________________________________________________________________
activation_2892 (Activation) (None, 8, 8, 128)         0         
_________________________________________________________________
dropout_2892 (Dropout)       (None, 8, 8, 128)         0         
_________________________________________________________________
separable_conv2d_2654 (Separ (None, 8, 8, 32)          5280      
_________________________________________________________________
batch_normalization_1695 (Ba (None, 8, 8, 32)          128       
_________________________________________________________________
activation_2893 (Activation) (None, 8, 8, 32)          0         
_________________________________________________________________
dropout_2893 (Dropout)       (None, 8, 8, 32)          0         
_________________________________________________________________
separable_conv2d_2655 (Separ (None, 8, 8, 256)         8736      
_________________________________________________________________
batch_normalization_1696 (Ba (None, 8, 8, 256)         1024      
_________________________________________________________________
activation_2894 (Activation) (None, 8, 8, 256)         0         
_________________________________________________________________
dropout_2894 (Dropout)       (None, 8, 8, 256)         0         
_________________________________________________________________
max_pooling2d_692 (MaxPoolin (None, 4, 4, 256)         0         
_________________________________________________________________
flatten_236 (Flatten)        (None, 4096)              0         
_________________________________________________________________
dense_475 (Dense)            (None, 2048)              8390656   
_________________________________________________________________
batch_normalization_1697 (Ba (None, 2048)              8192      
_________________________________________________________________
activation_2895 (Activation) (None, 2048)              0         
_________________________________________________________________
dropout_2895 (Dropout)       (None, 2048)              0         
_________________________________________________________________
dense_476 (Dense)            (None, 100)               204900    
=================================================================
Total params: 8,754,127
Trainable params: 8,747,535
Non-trainable params: 6,592
_________________________________________________________________
