Model: "sequential_340"
_________________________________________________________________
Layer (type)                 Output Shape              Param #   
=================================================================
separable_conv2d_3686 (Separ (None, 32, 32, 32)        155       
_________________________________________________________________
activation_4029 (Activation) (None, 32, 32, 32)        0         
_________________________________________________________________
dropout_4029 (Dropout)       (None, 32, 32, 32)        0         
_________________________________________________________________
separable_conv2d_3687 (Separ (None, 32, 32, 8)         552       
_________________________________________________________________
activation_4030 (Activation) (None, 32, 32, 8)         0         
_________________________________________________________________
dropout_4030 (Dropout)       (None, 32, 32, 8)         0         
_________________________________________________________________
separable_conv2d_3688 (Separ (None, 32, 32, 64)        648       
_________________________________________________________________
activation_4031 (Activation) (None, 32, 32, 64)        0         
_________________________________________________________________
dropout_4031 (Dropout)       (None, 32, 32, 64)        0         
_________________________________________________________________
max_pooling2d_955 (MaxPoolin (None, 16, 16, 64)        0         
_________________________________________________________________
separable_conv2d_3689 (Separ (None, 16, 16, 16)        1616      
_________________________________________________________________
activation_4032 (Activation) (None, 16, 16, 16)        0         
_________________________________________________________________
dropout_4032 (Dropout)       (None, 16, 16, 16)        0         
_________________________________________________________________
separable_conv2d_3690 (Separ (None, 16, 16, 128)       2320      
_________________________________________________________________
batch_normalization_2320 (Ba (None, 16, 16, 128)       512       
_________________________________________________________________
activation_4033 (Activation) (None, 16, 16, 128)       0         
_________________________________________________________________
dropout_4033 (Dropout)       (None, 16, 16, 128)       0         
_________________________________________________________________
separable_conv2d_3691 (Separ (None, 16, 16, 64)        9408      
_________________________________________________________________
batch_normalization_2321 (Ba (None, 16, 16, 64)        256       
_________________________________________________________________
activation_4034 (Activation) (None, 16, 16, 64)        0         
_________________________________________________________________
dropout_4034 (Dropout)       (None, 16, 16, 64)        0         
_________________________________________________________________
separable_conv2d_3692 (Separ (None, 16, 16, 32)        2656      
_________________________________________________________________
activation_4035 (Activation) (None, 16, 16, 32)        0         
_________________________________________________________________
dropout_4035 (Dropout)       (None, 16, 16, 32)        0         
_________________________________________________________________
separable_conv2d_3693 (Separ (None, 16, 16, 256)       8736      
_________________________________________________________________
batch_normalization_2322 (Ba (None, 16, 16, 256)       1024      
_________________________________________________________________
activation_4036 (Activation) (None, 16, 16, 256)       0         
_________________________________________________________________
dropout_4036 (Dropout)       (None, 16, 16, 256)       0         
_________________________________________________________________
max_pooling2d_956 (MaxPoolin (None, 8, 8, 256)         0         
_________________________________________________________________
flatten_340 (Flatten)        (None, 16384)             0         
_________________________________________________________________
dense_683 (Dense)            (None, 2048)              33556480  
_________________________________________________________________
batch_normalization_2323 (Ba (None, 2048)              8192      
_________________________________________________________________
activation_4037 (Activation) (None, 2048)              0         
_________________________________________________________________
dropout_4037 (Dropout)       (None, 2048)              0         
_________________________________________________________________
dense_684 (Dense)            (None, 100)               204900    
=================================================================
Total params: 33,797,455
Trainable params: 33,792,463
Non-trainable params: 4,992
_________________________________________________________________
