Model: "sequential_356"
_________________________________________________________________
Layer (type)                 Output Shape              Param #   
=================================================================
separable_conv2d_3834 (Separ (None, 32, 32, 32)        155       
_________________________________________________________________
activation_4193 (Activation) (None, 32, 32, 32)        0         
_________________________________________________________________
dropout_4193 (Dropout)       (None, 32, 32, 32)        0         
_________________________________________________________________
separable_conv2d_3835 (Separ (None, 32, 32, 256)       8736      
_________________________________________________________________
batch_normalization_2404 (Ba (None, 32, 32, 256)       1024      
_________________________________________________________________
activation_4194 (Activation) (None, 32, 32, 256)       0         
_________________________________________________________________
dropout_4194 (Dropout)       (None, 32, 32, 256)       0         
_________________________________________________________________
separable_conv2d_3836 (Separ (None, 32, 32, 8)         4360      
_________________________________________________________________
activation_4195 (Activation) (None, 32, 32, 8)         0         
_________________________________________________________________
dropout_4195 (Dropout)       (None, 32, 32, 8)         0         
_________________________________________________________________
separable_conv2d_3837 (Separ (None, 32, 32, 64)        648       
_________________________________________________________________
activation_4196 (Activation) (None, 32, 32, 64)        0         
_________________________________________________________________
dropout_4196 (Dropout)       (None, 32, 32, 64)        0         
_________________________________________________________________
max_pooling2d_991 (MaxPoolin (None, 16, 16, 64)        0         
_________________________________________________________________
separable_conv2d_3838 (Separ (None, 16, 16, 16)        1616      
_________________________________________________________________
activation_4197 (Activation) (None, 16, 16, 16)        0         
_________________________________________________________________
dropout_4197 (Dropout)       (None, 16, 16, 16)        0         
_________________________________________________________________
separable_conv2d_3839 (Separ (None, 16, 16, 128)       2320      
_________________________________________________________________
batch_normalization_2405 (Ba (None, 16, 16, 128)       512       
_________________________________________________________________
activation_4198 (Activation) (None, 16, 16, 128)       0         
_________________________________________________________________
dropout_4198 (Dropout)       (None, 16, 16, 128)       0         
_________________________________________________________________
separable_conv2d_3840 (Separ (None, 16, 16, 64)        9408      
_________________________________________________________________
activation_4199 (Activation) (None, 16, 16, 64)        0         
_________________________________________________________________
dropout_4199 (Dropout)       (None, 16, 16, 64)        0         
_________________________________________________________________
separable_conv2d_3841 (Separ (None, 16, 16, 64)        4736      
_________________________________________________________________
batch_normalization_2406 (Ba (None, 16, 16, 64)        256       
_________________________________________________________________
activation_4200 (Activation) (None, 16, 16, 64)        0         
_________________________________________________________________
dropout_4200 (Dropout)       (None, 16, 16, 64)        0         
_________________________________________________________________
separable_conv2d_3842 (Separ (None, 16, 16, 512)       33856     
_________________________________________________________________
batch_normalization_2407 (Ba (None, 16, 16, 512)       2048      
_________________________________________________________________
activation_4201 (Activation) (None, 16, 16, 512)       0         
_________________________________________________________________
dropout_4201 (Dropout)       (None, 16, 16, 512)       0         
_________________________________________________________________
max_pooling2d_992 (MaxPoolin (None, 8, 8, 512)         0         
_________________________________________________________________
flatten_356 (Flatten)        (None, 32768)             0         
_________________________________________________________________
dense_715 (Dense)            (None, 2048)              67110912  
_________________________________________________________________
batch_normalization_2408 (Ba (None, 2048)              8192      
_________________________________________________________________
activation_4202 (Activation) (None, 2048)              0         
_________________________________________________________________
dropout_4202 (Dropout)       (None, 2048)              0         
_________________________________________________________________
dense_716 (Dense)            (None, 100)               204900    
=================================================================
Total params: 67,393,679
Trainable params: 67,387,663
Non-trainable params: 6,016
_________________________________________________________________
