Model: "sequential_134"
_________________________________________________________________
Layer (type)                 Output Shape              Param #   
=================================================================
separable_conv2d_1541 (Separ (None, 32, 32, 32)        155       
_________________________________________________________________
activation_1678 (Activation) (None, 32, 32, 32)        0         
_________________________________________________________________
dropout_1678 (Dropout)       (None, 32, 32, 32)        0         
_________________________________________________________________
separable_conv2d_1542 (Separ (None, 32, 32, 256)       8736      
_________________________________________________________________
batch_normalization_1000 (Ba (None, 32, 32, 256)       1024      
_________________________________________________________________
activation_1679 (Activation) (None, 32, 32, 256)       0         
_________________________________________________________________
dropout_1679 (Dropout)       (None, 32, 32, 256)       0         
_________________________________________________________________
separable_conv2d_1543 (Separ (None, 32, 32, 8)         4360      
_________________________________________________________________
activation_1680 (Activation) (None, 32, 32, 8)         0         
_________________________________________________________________
dropout_1680 (Dropout)       (None, 32, 32, 8)         0         
_________________________________________________________________
max_pooling2d_391 (MaxPoolin (None, 16, 16, 8)         0         
_________________________________________________________________
separable_conv2d_1544 (Separ (None, 16, 16, 64)        648       
_________________________________________________________________
activation_1681 (Activation) (None, 16, 16, 64)        0         
_________________________________________________________________
dropout_1681 (Dropout)       (None, 16, 16, 64)        0         
_________________________________________________________________
max_pooling2d_392 (MaxPoolin (None, 8, 8, 64)          0         
_________________________________________________________________
separable_conv2d_1545 (Separ (None, 8, 8, 8)           1096      
_________________________________________________________________
activation_1682 (Activation) (None, 8, 8, 8)           0         
_________________________________________________________________
dropout_1682 (Dropout)       (None, 8, 8, 8)           0         
_________________________________________________________________
separable_conv2d_1546 (Separ (None, 8, 8, 256)         2376      
_________________________________________________________________
batch_normalization_1001 (Ba (None, 8, 8, 256)         1024      
_________________________________________________________________
activation_1683 (Activation) (None, 8, 8, 256)         0         
_________________________________________________________________
dropout_1683 (Dropout)       (None, 8, 8, 256)         0         
_________________________________________________________________
separable_conv2d_1547 (Separ (None, 8, 8, 64)          18752     
_________________________________________________________________
batch_normalization_1002 (Ba (None, 8, 8, 64)          256       
_________________________________________________________________
activation_1684 (Activation) (None, 8, 8, 64)          0         
_________________________________________________________________
dropout_1684 (Dropout)       (None, 8, 8, 64)          0         
_________________________________________________________________
separable_conv2d_1548 (Separ (None, 8, 8, 512)         33856     
_________________________________________________________________
batch_normalization_1003 (Ba (None, 8, 8, 512)         2048      
_________________________________________________________________
activation_1685 (Activation) (None, 8, 8, 512)         0         
_________________________________________________________________
dropout_1685 (Dropout)       (None, 8, 8, 512)         0         
_________________________________________________________________
max_pooling2d_393 (MaxPoolin (None, 4, 4, 512)         0         
_________________________________________________________________
separable_conv2d_1549 (Separ (None, 4, 4, 128)         70272     
_________________________________________________________________
activation_1686 (Activation) (None, 4, 4, 128)         0         
_________________________________________________________________
dropout_1686 (Dropout)       (None, 4, 4, 128)         0         
_________________________________________________________________
separable_conv2d_1550 (Separ (None, 4, 4, 32)          5280      
_________________________________________________________________
batch_normalization_1004 (Ba (None, 4, 4, 32)          128       
_________________________________________________________________
activation_1687 (Activation) (None, 4, 4, 32)          0         
_________________________________________________________________
dropout_1687 (Dropout)       (None, 4, 4, 32)          0         
_________________________________________________________________
separable_conv2d_1551 (Separ (None, 4, 4, 256)         8736      
_________________________________________________________________
batch_normalization_1005 (Ba (None, 4, 4, 256)         1024      
_________________________________________________________________
activation_1688 (Activation) (None, 4, 4, 256)         0         
_________________________________________________________________
dropout_1688 (Dropout)       (None, 4, 4, 256)         0         
_________________________________________________________________
flatten_134 (Flatten)        (None, 4096)              0         
_________________________________________________________________
dense_271 (Dense)            (None, 2048)              8390656   
_________________________________________________________________
batch_normalization_1006 (Ba (None, 2048)              8192      
_________________________________________________________________
activation_1689 (Activation) (None, 2048)              0         
_________________________________________________________________
dropout_1689 (Dropout)       (None, 2048)              0         
_________________________________________________________________
dense_272 (Dense)            (None, 100)               204900    
=================================================================
Total params: 8,763,519
Trainable params: 8,756,671
Non-trainable params: 6,848
_________________________________________________________________
