Model: "sequential_106"
_________________________________________________________________
Layer (type)                 Output Shape              Param #   
=================================================================
separable_conv2d_1228 (Separ (None, 32, 32, 32)        155       
_________________________________________________________________
activation_1337 (Activation) (None, 32, 32, 32)        0         
_________________________________________________________________
dropout_1337 (Dropout)       (None, 32, 32, 32)        0         
_________________________________________________________________
separable_conv2d_1229 (Separ (None, 32, 32, 128)       4512      
_________________________________________________________________
batch_normalization_790 (Bat (None, 32, 32, 128)       512       
_________________________________________________________________
activation_1338 (Activation) (None, 32, 32, 128)       0         
_________________________________________________________________
dropout_1338 (Dropout)       (None, 32, 32, 128)       0         
_________________________________________________________________
separable_conv2d_1230 (Separ (None, 32, 32, 8)         2184      
_________________________________________________________________
activation_1339 (Activation) (None, 32, 32, 8)         0         
_________________________________________________________________
dropout_1339 (Dropout)       (None, 32, 32, 8)         0         
_________________________________________________________________
separable_conv2d_1231 (Separ (None, 32, 32, 64)        648       
_________________________________________________________________
activation_1340 (Activation) (None, 32, 32, 64)        0         
_________________________________________________________________
dropout_1340 (Dropout)       (None, 32, 32, 64)        0         
_________________________________________________________________
max_pooling2d_307 (MaxPoolin (None, 16, 16, 64)        0         
_________________________________________________________________
separable_conv2d_1232 (Separ (None, 16, 16, 8)         1096      
_________________________________________________________________
activation_1341 (Activation) (None, 16, 16, 8)         0         
_________________________________________________________________
dropout_1341 (Dropout)       (None, 16, 16, 8)         0         
_________________________________________________________________
separable_conv2d_1233 (Separ (None, 16, 16, 128)       1224      
_________________________________________________________________
batch_normalization_791 (Bat (None, 16, 16, 128)       512       
_________________________________________________________________
activation_1342 (Activation) (None, 16, 16, 128)       0         
_________________________________________________________________
dropout_1342 (Dropout)       (None, 16, 16, 128)       0         
_________________________________________________________________
separable_conv2d_1234 (Separ (None, 16, 16, 64)        9408      
_________________________________________________________________
batch_normalization_792 (Bat (None, 16, 16, 64)        256       
_________________________________________________________________
activation_1343 (Activation) (None, 16, 16, 64)        0         
_________________________________________________________________
dropout_1343 (Dropout)       (None, 16, 16, 64)        0         
_________________________________________________________________
separable_conv2d_1235 (Separ (None, 16, 16, 512)       33856     
_________________________________________________________________
batch_normalization_793 (Bat (None, 16, 16, 512)       2048      
_________________________________________________________________
activation_1344 (Activation) (None, 16, 16, 512)       0         
_________________________________________________________________
dropout_1344 (Dropout)       (None, 16, 16, 512)       0         
_________________________________________________________________
max_pooling2d_308 (MaxPoolin (None, 8, 8, 512)         0         
_________________________________________________________________
separable_conv2d_1236 (Separ (None, 8, 8, 32)          21024     
_________________________________________________________________
batch_normalization_794 (Bat (None, 8, 8, 32)          128       
_________________________________________________________________
activation_1345 (Activation) (None, 8, 8, 32)          0         
_________________________________________________________________
dropout_1345 (Dropout)       (None, 8, 8, 32)          0         
_________________________________________________________________
max_pooling2d_309 (MaxPoolin (None, 4, 4, 32)          0         
_________________________________________________________________
separable_conv2d_1237 (Separ (None, 4, 4, 128)         4512      
_________________________________________________________________
activation_1346 (Activation) (None, 4, 4, 128)         0         
_________________________________________________________________
dropout_1346 (Dropout)       (None, 4, 4, 128)         0         
_________________________________________________________________
separable_conv2d_1238 (Separ (None, 4, 4, 32)          5280      
_________________________________________________________________
batch_normalization_795 (Bat (None, 4, 4, 32)          128       
_________________________________________________________________
activation_1347 (Activation) (None, 4, 4, 32)          0         
_________________________________________________________________
dropout_1347 (Dropout)       (None, 4, 4, 32)          0         
_________________________________________________________________
separable_conv2d_1239 (Separ (None, 4, 4, 512)         17184     
_________________________________________________________________
batch_normalization_796 (Bat (None, 4, 4, 512)         2048      
_________________________________________________________________
activation_1348 (Activation) (None, 4, 4, 512)         0         
_________________________________________________________________
dropout_1348 (Dropout)       (None, 4, 4, 512)         0         
_________________________________________________________________
flatten_106 (Flatten)        (None, 8192)              0         
_________________________________________________________________
dense_215 (Dense)            (None, 2048)              16779264  
_________________________________________________________________
batch_normalization_797 (Bat (None, 2048)              8192      
_________________________________________________________________
activation_1349 (Activation) (None, 2048)              0         
_________________________________________________________________
dropout_1349 (Dropout)       (None, 2048)              0         
_________________________________________________________________
dense_216 (Dense)            (None, 100)               204900    
=================================================================
Total params: 17,099,071
Trainable params: 17,092,159
Non-trainable params: 6,912
_________________________________________________________________
