Model: "sequential_314"
_________________________________________________________________
Layer (type)                 Output Shape              Param #   
=================================================================
separable_conv2d_3436 (Separ (None, 32, 32, 32)        155       
_________________________________________________________________
activation_3753 (Activation) (None, 32, 32, 32)        0         
_________________________________________________________________
dropout_3753 (Dropout)       (None, 32, 32, 32)        0         
_________________________________________________________________
separable_conv2d_3437 (Separ (None, 32, 32, 256)       8736      
_________________________________________________________________
batch_normalization_2179 (Ba (None, 32, 32, 256)       1024      
_________________________________________________________________
activation_3754 (Activation) (None, 32, 32, 256)       0         
_________________________________________________________________
dropout_3754 (Dropout)       (None, 32, 32, 256)       0         
_________________________________________________________________
separable_conv2d_3438 (Separ (None, 32, 32, 8)         4360      
_________________________________________________________________
activation_3755 (Activation) (None, 32, 32, 8)         0         
_________________________________________________________________
dropout_3755 (Dropout)       (None, 32, 32, 8)         0         
_________________________________________________________________
separable_conv2d_3439 (Separ (None, 32, 32, 64)        648       
_________________________________________________________________
activation_3756 (Activation) (None, 32, 32, 64)        0         
_________________________________________________________________
dropout_3756 (Dropout)       (None, 32, 32, 64)        0         
_________________________________________________________________
max_pooling2d_895 (MaxPoolin (None, 16, 16, 64)        0         
_________________________________________________________________
separable_conv2d_3440 (Separ (None, 16, 16, 16)        1616      
_________________________________________________________________
activation_3757 (Activation) (None, 16, 16, 16)        0         
_________________________________________________________________
dropout_3757 (Dropout)       (None, 16, 16, 16)        0         
_________________________________________________________________
separable_conv2d_3441 (Separ (None, 16, 16, 128)       2320      
_________________________________________________________________
batch_normalization_2180 (Ba (None, 16, 16, 128)       512       
_________________________________________________________________
activation_3758 (Activation) (None, 16, 16, 128)       0         
_________________________________________________________________
dropout_3758 (Dropout)       (None, 16, 16, 128)       0         
_________________________________________________________________
separable_conv2d_3442 (Separ (None, 16, 16, 64)        9408      
_________________________________________________________________
activation_3759 (Activation) (None, 16, 16, 64)        0         
_________________________________________________________________
dropout_3759 (Dropout)       (None, 16, 16, 64)        0         
_________________________________________________________________
separable_conv2d_3443 (Separ (None, 16, 16, 64)        4736      
_________________________________________________________________
batch_normalization_2181 (Ba (None, 16, 16, 64)        256       
_________________________________________________________________
activation_3760 (Activation) (None, 16, 16, 64)        0         
_________________________________________________________________
dropout_3760 (Dropout)       (None, 16, 16, 64)        0         
_________________________________________________________________
separable_conv2d_3444 (Separ (None, 16, 16, 512)       33856     
_________________________________________________________________
batch_normalization_2182 (Ba (None, 16, 16, 512)       2048      
_________________________________________________________________
activation_3761 (Activation) (None, 16, 16, 512)       0         
_________________________________________________________________
dropout_3761 (Dropout)       (None, 16, 16, 512)       0         
_________________________________________________________________
max_pooling2d_896 (MaxPoolin (None, 8, 8, 512)         0         
_________________________________________________________________
flatten_314 (Flatten)        (None, 32768)             0         
_________________________________________________________________
dense_631 (Dense)            (None, 2048)              67110912  
_________________________________________________________________
batch_normalization_2183 (Ba (None, 2048)              8192      
_________________________________________________________________
activation_3762 (Activation) (None, 2048)              0         
_________________________________________________________________
dropout_3762 (Dropout)       (None, 2048)              0         
_________________________________________________________________
dense_632 (Dense)            (None, 100)               204900    
=================================================================
Total params: 67,393,679
Trainable params: 67,387,663
Non-trainable params: 6,016
_________________________________________________________________
