Model: "sequential_220"
_________________________________________________________________
Layer (type)                 Output Shape              Param #   
=================================================================
separable_conv2d_2476 (Separ (None, 32, 32, 32)        155       
_________________________________________________________________
activation_2699 (Activation) (None, 32, 32, 32)        0         
_________________________________________________________________
dropout_2699 (Dropout)       (None, 32, 32, 32)        0         
_________________________________________________________________
separable_conv2d_2477 (Separ (None, 32, 32, 256)       8736      
_________________________________________________________________
batch_normalization_1585 (Ba (None, 32, 32, 256)       1024      
_________________________________________________________________
activation_2700 (Activation) (None, 32, 32, 256)       0         
_________________________________________________________________
dropout_2700 (Dropout)       (None, 32, 32, 256)       0         
_________________________________________________________________
separable_conv2d_2478 (Separ (None, 32, 32, 8)         4360      
_________________________________________________________________
activation_2701 (Activation) (None, 32, 32, 8)         0         
_________________________________________________________________
dropout_2701 (Dropout)       (None, 32, 32, 8)         0         
_________________________________________________________________
separable_conv2d_2479 (Separ (None, 32, 32, 64)        648       
_________________________________________________________________
activation_2702 (Activation) (None, 32, 32, 64)        0         
_________________________________________________________________
dropout_2702 (Dropout)       (None, 32, 32, 64)        0         
_________________________________________________________________
max_pooling2d_645 (MaxPoolin (None, 16, 16, 64)        0         
_________________________________________________________________
separable_conv2d_2480 (Separ (None, 16, 16, 16)        1616      
_________________________________________________________________
activation_2703 (Activation) (None, 16, 16, 16)        0         
_________________________________________________________________
dropout_2703 (Dropout)       (None, 16, 16, 16)        0         
_________________________________________________________________
separable_conv2d_2481 (Separ (None, 16, 16, 256)       4496      
_________________________________________________________________
batch_normalization_1586 (Ba (None, 16, 16, 256)       1024      
_________________________________________________________________
activation_2704 (Activation) (None, 16, 16, 256)       0         
_________________________________________________________________
dropout_2704 (Dropout)       (None, 16, 16, 256)       0         
_________________________________________________________________
separable_conv2d_2482 (Separ (None, 16, 16, 64)        18752     
_________________________________________________________________
batch_normalization_1587 (Ba (None, 16, 16, 64)        256       
_________________________________________________________________
activation_2705 (Activation) (None, 16, 16, 64)        0         
_________________________________________________________________
dropout_2705 (Dropout)       (None, 16, 16, 64)        0         
_________________________________________________________________
separable_conv2d_2483 (Separ (None, 16, 16, 512)       33856     
_________________________________________________________________
batch_normalization_1588 (Ba (None, 16, 16, 512)       2048      
_________________________________________________________________
activation_2706 (Activation) (None, 16, 16, 512)       0         
_________________________________________________________________
dropout_2706 (Dropout)       (None, 16, 16, 512)       0         
_________________________________________________________________
max_pooling2d_646 (MaxPoolin (None, 8, 8, 512)         0         
_________________________________________________________________
separable_conv2d_2484 (Separ (None, 8, 8, 128)         70272     
_________________________________________________________________
activation_2707 (Activation) (None, 8, 8, 128)         0         
_________________________________________________________________
dropout_2707 (Dropout)       (None, 8, 8, 128)         0         
_________________________________________________________________
separable_conv2d_2485 (Separ (None, 8, 8, 32)          5280      
_________________________________________________________________
batch_normalization_1589 (Ba (None, 8, 8, 32)          128       
_________________________________________________________________
activation_2708 (Activation) (None, 8, 8, 32)          0         
_________________________________________________________________
dropout_2708 (Dropout)       (None, 8, 8, 32)          0         
_________________________________________________________________
separable_conv2d_2486 (Separ (None, 8, 8, 256)         8736      
_________________________________________________________________
batch_normalization_1590 (Ba (None, 8, 8, 256)         1024      
_________________________________________________________________
activation_2709 (Activation) (None, 8, 8, 256)         0         
_________________________________________________________________
dropout_2709 (Dropout)       (None, 8, 8, 256)         0         
_________________________________________________________________
max_pooling2d_647 (MaxPoolin (None, 4, 4, 256)         0         
_________________________________________________________________
flatten_220 (Flatten)        (None, 4096)              0         
_________________________________________________________________
dense_443 (Dense)            (None, 2048)              8390656   
_________________________________________________________________
batch_normalization_1591 (Ba (None, 2048)              8192      
_________________________________________________________________
activation_2710 (Activation) (None, 2048)              0         
_________________________________________________________________
dropout_2710 (Dropout)       (None, 2048)              0         
_________________________________________________________________
dense_444 (Dense)            (None, 100)               204900    
=================================================================
Total params: 8,766,159
Trainable params: 8,759,311
Non-trainable params: 6,848
_________________________________________________________________
