Model: "sequential_149"
_________________________________________________________________
Layer (type)                 Output Shape              Param #   
=================================================================
separable_conv2d_1708 (Separ (None, 32, 32, 32)        155       
_________________________________________________________________
activation_1860 (Activation) (None, 32, 32, 32)        0         
_________________________________________________________________
dropout_1860 (Dropout)       (None, 32, 32, 32)        0         
_________________________________________________________________
separable_conv2d_1709 (Separ (None, 32, 32, 128)       4512      
_________________________________________________________________
batch_normalization_1108 (Ba (None, 32, 32, 128)       512       
_________________________________________________________________
activation_1861 (Activation) (None, 32, 32, 128)       0         
_________________________________________________________________
dropout_1861 (Dropout)       (None, 32, 32, 128)       0         
_________________________________________________________________
separable_conv2d_1710 (Separ (None, 32, 32, 8)         2184      
_________________________________________________________________
activation_1862 (Activation) (None, 32, 32, 8)         0         
_________________________________________________________________
dropout_1862 (Dropout)       (None, 32, 32, 8)         0         
_________________________________________________________________
separable_conv2d_1711 (Separ (None, 32, 32, 64)        648       
_________________________________________________________________
activation_1863 (Activation) (None, 32, 32, 64)        0         
_________________________________________________________________
dropout_1863 (Dropout)       (None, 32, 32, 64)        0         
_________________________________________________________________
max_pooling2d_436 (MaxPoolin (None, 16, 16, 64)        0         
_________________________________________________________________
separable_conv2d_1712 (Separ (None, 16, 16, 8)         1096      
_________________________________________________________________
activation_1864 (Activation) (None, 16, 16, 8)         0         
_________________________________________________________________
dropout_1864 (Dropout)       (None, 16, 16, 8)         0         
_________________________________________________________________
separable_conv2d_1713 (Separ (None, 16, 16, 128)       1224      
_________________________________________________________________
batch_normalization_1109 (Ba (None, 16, 16, 128)       512       
_________________________________________________________________
activation_1865 (Activation) (None, 16, 16, 128)       0         
_________________________________________________________________
dropout_1865 (Dropout)       (None, 16, 16, 128)       0         
_________________________________________________________________
separable_conv2d_1714 (Separ (None, 16, 16, 64)        9408      
_________________________________________________________________
batch_normalization_1110 (Ba (None, 16, 16, 64)        256       
_________________________________________________________________
activation_1866 (Activation) (None, 16, 16, 64)        0         
_________________________________________________________________
dropout_1866 (Dropout)       (None, 16, 16, 64)        0         
_________________________________________________________________
separable_conv2d_1715 (Separ (None, 16, 16, 512)       33856     
_________________________________________________________________
batch_normalization_1111 (Ba (None, 16, 16, 512)       2048      
_________________________________________________________________
activation_1867 (Activation) (None, 16, 16, 512)       0         
_________________________________________________________________
dropout_1867 (Dropout)       (None, 16, 16, 512)       0         
_________________________________________________________________
max_pooling2d_437 (MaxPoolin (None, 8, 8, 512)         0         
_________________________________________________________________
separable_conv2d_1716 (Separ (None, 8, 8, 32)          21024     
_________________________________________________________________
batch_normalization_1112 (Ba (None, 8, 8, 32)          128       
_________________________________________________________________
activation_1868 (Activation) (None, 8, 8, 32)          0         
_________________________________________________________________
dropout_1868 (Dropout)       (None, 8, 8, 32)          0         
_________________________________________________________________
separable_conv2d_1717 (Separ (None, 8, 8, 32)          1344      
_________________________________________________________________
batch_normalization_1113 (Ba (None, 8, 8, 32)          128       
_________________________________________________________________
activation_1869 (Activation) (None, 8, 8, 32)          0         
_________________________________________________________________
dropout_1869 (Dropout)       (None, 8, 8, 32)          0         
_________________________________________________________________
separable_conv2d_1718 (Separ (None, 8, 8, 256)         8736      
_________________________________________________________________
batch_normalization_1114 (Ba (None, 8, 8, 256)         1024      
_________________________________________________________________
activation_1870 (Activation) (None, 8, 8, 256)         0         
_________________________________________________________________
dropout_1870 (Dropout)       (None, 8, 8, 256)         0         
_________________________________________________________________
max_pooling2d_438 (MaxPoolin (None, 4, 4, 256)         0         
_________________________________________________________________
flatten_149 (Flatten)        (None, 4096)              0         
_________________________________________________________________
dense_301 (Dense)            (None, 2048)              8390656   
_________________________________________________________________
batch_normalization_1115 (Ba (None, 2048)              8192      
_________________________________________________________________
activation_1871 (Activation) (None, 2048)              0         
_________________________________________________________________
dropout_1871 (Dropout)       (None, 2048)              0         
_________________________________________________________________
dense_302 (Dense)            (None, 100)               204900    
=================================================================
Total params: 8,692,543
Trainable params: 8,686,143
Non-trainable params: 6,400
_________________________________________________________________
