Model: "sequential_387"
_________________________________________________________________
Layer (type)                 Output Shape              Param #   
=================================================================
separable_conv2d_4115 (Separ (None, 32, 32, 32)        155       
_________________________________________________________________
activation_4505 (Activation) (None, 32, 32, 32)        0         
_________________________________________________________________
dropout_4505 (Dropout)       (None, 32, 32, 32)        0         
_________________________________________________________________
separable_conv2d_4116 (Separ (None, 32, 32, 256)       8736      
_________________________________________________________________
batch_normalization_2562 (Ba (None, 32, 32, 256)       1024      
_________________________________________________________________
activation_4506 (Activation) (None, 32, 32, 256)       0         
_________________________________________________________________
dropout_4506 (Dropout)       (None, 32, 32, 256)       0         
_________________________________________________________________
separable_conv2d_4117 (Separ (None, 32, 32, 8)         4360      
_________________________________________________________________
activation_4507 (Activation) (None, 32, 32, 8)         0         
_________________________________________________________________
dropout_4507 (Dropout)       (None, 32, 32, 8)         0         
_________________________________________________________________
separable_conv2d_4118 (Separ (None, 32, 32, 64)        648       
_________________________________________________________________
activation_4508 (Activation) (None, 32, 32, 64)        0         
_________________________________________________________________
dropout_4508 (Dropout)       (None, 32, 32, 64)        0         
_________________________________________________________________
max_pooling2d_1059 (MaxPooli (None, 16, 16, 64)        0         
_________________________________________________________________
separable_conv2d_4119 (Separ (None, 16, 16, 16)        1616      
_________________________________________________________________
activation_4509 (Activation) (None, 16, 16, 16)        0         
_________________________________________________________________
dropout_4509 (Dropout)       (None, 16, 16, 16)        0         
_________________________________________________________________
separable_conv2d_4120 (Separ (None, 16, 16, 128)       2320      
_________________________________________________________________
batch_normalization_2563 (Ba (None, 16, 16, 128)       512       
_________________________________________________________________
activation_4510 (Activation) (None, 16, 16, 128)       0         
_________________________________________________________________
dropout_4510 (Dropout)       (None, 16, 16, 128)       0         
_________________________________________________________________
separable_conv2d_4121 (Separ (None, 16, 16, 64)        9408      
_________________________________________________________________
activation_4511 (Activation) (None, 16, 16, 64)        0         
_________________________________________________________________
dropout_4511 (Dropout)       (None, 16, 16, 64)        0         
_________________________________________________________________
separable_conv2d_4122 (Separ (None, 16, 16, 32)        2656      
_________________________________________________________________
activation_4512 (Activation) (None, 16, 16, 32)        0         
_________________________________________________________________
dropout_4512 (Dropout)       (None, 16, 16, 32)        0         
_________________________________________________________________
separable_conv2d_4123 (Separ (None, 16, 16, 256)       8736      
_________________________________________________________________
activation_4513 (Activation) (None, 16, 16, 256)       0         
_________________________________________________________________
dropout_4513 (Dropout)       (None, 16, 16, 256)       0         
_________________________________________________________________
max_pooling2d_1060 (MaxPooli (None, 8, 8, 256)         0         
_________________________________________________________________
flatten_387 (Flatten)        (None, 16384)             0         
_________________________________________________________________
dense_777 (Dense)            (None, 2048)              33556480  
_________________________________________________________________
batch_normalization_2564 (Ba (None, 2048)              8192      
_________________________________________________________________
activation_4514 (Activation) (None, 2048)              0         
_________________________________________________________________
dropout_4514 (Dropout)       (None, 2048)              0         
_________________________________________________________________
dense_778 (Dense)            (None, 100)               204900    
=================================================================
Total params: 33,809,743
Trainable params: 33,804,879
Non-trainable params: 4,864
_________________________________________________________________
