Model: "sequential_290"
_________________________________________________________________
Layer (type)                 Output Shape              Param #   
=================================================================
separable_conv2d_3202 (Separ (None, 32, 32, 32)        155       
_________________________________________________________________
activation_3495 (Activation) (None, 32, 32, 32)        0         
_________________________________________________________________
dropout_3495 (Dropout)       (None, 32, 32, 32)        0         
_________________________________________________________________
separable_conv2d_3203 (Separ (None, 32, 32, 256)       8736      
_________________________________________________________________
batch_normalization_2040 (Ba (None, 32, 32, 256)       1024      
_________________________________________________________________
activation_3496 (Activation) (None, 32, 32, 256)       0         
_________________________________________________________________
dropout_3496 (Dropout)       (None, 32, 32, 256)       0         
_________________________________________________________________
separable_conv2d_3204 (Separ (None, 32, 32, 8)         4360      
_________________________________________________________________
activation_3497 (Activation) (None, 32, 32, 8)         0         
_________________________________________________________________
dropout_3497 (Dropout)       (None, 32, 32, 8)         0         
_________________________________________________________________
separable_conv2d_3205 (Separ (None, 32, 32, 64)        648       
_________________________________________________________________
activation_3498 (Activation) (None, 32, 32, 64)        0         
_________________________________________________________________
dropout_3498 (Dropout)       (None, 32, 32, 64)        0         
_________________________________________________________________
max_pooling2d_838 (MaxPoolin (None, 16, 16, 64)        0         
_________________________________________________________________
separable_conv2d_3206 (Separ (None, 16, 16, 16)        1616      
_________________________________________________________________
activation_3499 (Activation) (None, 16, 16, 16)        0         
_________________________________________________________________
dropout_3499 (Dropout)       (None, 16, 16, 16)        0         
_________________________________________________________________
separable_conv2d_3207 (Separ (None, 16, 16, 128)       2320      
_________________________________________________________________
batch_normalization_2041 (Ba (None, 16, 16, 128)       512       
_________________________________________________________________
activation_3500 (Activation) (None, 16, 16, 128)       0         
_________________________________________________________________
dropout_3500 (Dropout)       (None, 16, 16, 128)       0         
_________________________________________________________________
separable_conv2d_3208 (Separ (None, 16, 16, 64)        9408      
_________________________________________________________________
batch_normalization_2042 (Ba (None, 16, 16, 64)        256       
_________________________________________________________________
activation_3501 (Activation) (None, 16, 16, 64)        0         
_________________________________________________________________
dropout_3501 (Dropout)       (None, 16, 16, 64)        0         
_________________________________________________________________
separable_conv2d_3209 (Separ (None, 16, 16, 128)       8896      
_________________________________________________________________
activation_3502 (Activation) (None, 16, 16, 128)       0         
_________________________________________________________________
dropout_3502 (Dropout)       (None, 16, 16, 128)       0         
_________________________________________________________________
separable_conv2d_3210 (Separ (None, 16, 16, 32)        5280      
_________________________________________________________________
batch_normalization_2043 (Ba (None, 16, 16, 32)        128       
_________________________________________________________________
activation_3503 (Activation) (None, 16, 16, 32)        0         
_________________________________________________________________
dropout_3503 (Dropout)       (None, 16, 16, 32)        0         
_________________________________________________________________
separable_conv2d_3211 (Separ (None, 16, 16, 512)       17184     
_________________________________________________________________
batch_normalization_2044 (Ba (None, 16, 16, 512)       2048      
_________________________________________________________________
activation_3504 (Activation) (None, 16, 16, 512)       0         
_________________________________________________________________
dropout_3504 (Dropout)       (None, 16, 16, 512)       0         
_________________________________________________________________
max_pooling2d_839 (MaxPoolin (None, 8, 8, 512)         0         
_________________________________________________________________
flatten_290 (Flatten)        (None, 32768)             0         
_________________________________________________________________
dense_583 (Dense)            (None, 2048)              67110912  
_________________________________________________________________
batch_normalization_2045 (Ba (None, 2048)              8192      
_________________________________________________________________
activation_3505 (Activation) (None, 2048)              0         
_________________________________________________________________
dropout_3505 (Dropout)       (None, 2048)              0         
_________________________________________________________________
dense_584 (Dense)            (None, 100)               204900    
=================================================================
Total params: 67,386,575
Trainable params: 67,380,495
Non-trainable params: 6,080
_________________________________________________________________
