Model: "sequential_371"
_________________________________________________________________
Layer (type)                 Output Shape              Param #   
=================================================================
separable_conv2d_3971 (Separ (None, 32, 32, 32)        155       
_________________________________________________________________
activation_4345 (Activation) (None, 32, 32, 32)        0         
_________________________________________________________________
dropout_4345 (Dropout)       (None, 32, 32, 32)        0         
_________________________________________________________________
separable_conv2d_3972 (Separ (None, 32, 32, 16)        816       
_________________________________________________________________
batch_normalization_2483 (Ba (None, 32, 32, 16)        64        
_________________________________________________________________
activation_4346 (Activation) (None, 32, 32, 16)        0         
_________________________________________________________________
dropout_4346 (Dropout)       (None, 32, 32, 16)        0         
_________________________________________________________________
separable_conv2d_3973 (Separ (None, 32, 32, 8)         280       
_________________________________________________________________
activation_4347 (Activation) (None, 32, 32, 8)         0         
_________________________________________________________________
dropout_4347 (Dropout)       (None, 32, 32, 8)         0         
_________________________________________________________________
separable_conv2d_3974 (Separ (None, 32, 32, 64)        648       
_________________________________________________________________
activation_4348 (Activation) (None, 32, 32, 64)        0         
_________________________________________________________________
dropout_4348 (Dropout)       (None, 32, 32, 64)        0         
_________________________________________________________________
max_pooling2d_1024 (MaxPooli (None, 16, 16, 64)        0         
_________________________________________________________________
separable_conv2d_3975 (Separ (None, 16, 16, 16)        1616      
_________________________________________________________________
activation_4349 (Activation) (None, 16, 16, 16)        0         
_________________________________________________________________
dropout_4349 (Dropout)       (None, 16, 16, 16)        0         
_________________________________________________________________
separable_conv2d_3976 (Separ (None, 16, 16, 128)       2320      
_________________________________________________________________
batch_normalization_2484 (Ba (None, 16, 16, 128)       512       
_________________________________________________________________
activation_4350 (Activation) (None, 16, 16, 128)       0         
_________________________________________________________________
dropout_4350 (Dropout)       (None, 16, 16, 128)       0         
_________________________________________________________________
separable_conv2d_3977 (Separ (None, 16, 16, 64)        9408      
_________________________________________________________________
batch_normalization_2485 (Ba (None, 16, 16, 64)        256       
_________________________________________________________________
activation_4351 (Activation) (None, 16, 16, 64)        0         
_________________________________________________________________
dropout_4351 (Dropout)       (None, 16, 16, 64)        0         
_________________________________________________________________
max_pooling2d_1025 (MaxPooli (None, 8, 8, 64)          0         
_________________________________________________________________
separable_conv2d_3978 (Separ (None, 8, 8, 32)          2656      
_________________________________________________________________
activation_4352 (Activation) (None, 8, 8, 32)          0         
_________________________________________________________________
dropout_4352 (Dropout)       (None, 8, 8, 32)          0         
_________________________________________________________________
separable_conv2d_3979 (Separ (None, 8, 8, 256)         8736      
_________________________________________________________________
batch_normalization_2486 (Ba (None, 8, 8, 256)         1024      
_________________________________________________________________
activation_4353 (Activation) (None, 8, 8, 256)         0         
_________________________________________________________________
dropout_4353 (Dropout)       (None, 8, 8, 256)         0         
_________________________________________________________________
max_pooling2d_1026 (MaxPooli (None, 4, 4, 256)         0         
_________________________________________________________________
flatten_371 (Flatten)        (None, 4096)              0         
_________________________________________________________________
dense_745 (Dense)            (None, 2048)              8390656   
_________________________________________________________________
batch_normalization_2487 (Ba (None, 2048)              8192      
_________________________________________________________________
activation_4354 (Activation) (None, 2048)              0         
_________________________________________________________________
dropout_4354 (Dropout)       (None, 2048)              0         
_________________________________________________________________
dense_746 (Dense)            (None, 100)               204900    
=================================================================
Total params: 8,632,239
Trainable params: 8,627,215
Non-trainable params: 5,024
_________________________________________________________________
