Model: "sequential_172"
_________________________________________________________________
Layer (type)                 Output Shape              Param #   
=================================================================
separable_conv2d_1957 (Separ (None, 32, 32, 32)        155       
_________________________________________________________________
activation_2132 (Activation) (None, 32, 32, 32)        0         
_________________________________________________________________
dropout_2132 (Dropout)       (None, 32, 32, 32)        0         
_________________________________________________________________
separable_conv2d_1958 (Separ (None, 32, 32, 256)       8736      
_________________________________________________________________
batch_normalization_1267 (Ba (None, 32, 32, 256)       1024      
_________________________________________________________________
activation_2133 (Activation) (None, 32, 32, 256)       0         
_________________________________________________________________
dropout_2133 (Dropout)       (None, 32, 32, 256)       0         
_________________________________________________________________
separable_conv2d_1959 (Separ (None, 32, 32, 8)         4360      
_________________________________________________________________
activation_2134 (Activation) (None, 32, 32, 8)         0         
_________________________________________________________________
dropout_2134 (Dropout)       (None, 32, 32, 8)         0         
_________________________________________________________________
separable_conv2d_1960 (Separ (None, 32, 32, 64)        648       
_________________________________________________________________
activation_2135 (Activation) (None, 32, 32, 64)        0         
_________________________________________________________________
dropout_2135 (Dropout)       (None, 32, 32, 64)        0         
_________________________________________________________________
max_pooling2d_504 (MaxPoolin (None, 16, 16, 64)        0         
_________________________________________________________________
separable_conv2d_1961 (Separ (None, 16, 16, 16)        1616      
_________________________________________________________________
activation_2136 (Activation) (None, 16, 16, 16)        0         
_________________________________________________________________
dropout_2136 (Dropout)       (None, 16, 16, 16)        0         
_________________________________________________________________
separable_conv2d_1962 (Separ (None, 16, 16, 128)       2320      
_________________________________________________________________
batch_normalization_1268 (Ba (None, 16, 16, 128)       512       
_________________________________________________________________
activation_2137 (Activation) (None, 16, 16, 128)       0         
_________________________________________________________________
dropout_2137 (Dropout)       (None, 16, 16, 128)       0         
_________________________________________________________________
separable_conv2d_1963 (Separ (None, 16, 16, 64)        9408      
_________________________________________________________________
batch_normalization_1269 (Ba (None, 16, 16, 64)        256       
_________________________________________________________________
activation_2138 (Activation) (None, 16, 16, 64)        0         
_________________________________________________________________
dropout_2138 (Dropout)       (None, 16, 16, 64)        0         
_________________________________________________________________
separable_conv2d_1964 (Separ (None, 16, 16, 512)       33856     
_________________________________________________________________
batch_normalization_1270 (Ba (None, 16, 16, 512)       2048      
_________________________________________________________________
activation_2139 (Activation) (None, 16, 16, 512)       0         
_________________________________________________________________
dropout_2139 (Dropout)       (None, 16, 16, 512)       0         
_________________________________________________________________
max_pooling2d_505 (MaxPoolin (None, 8, 8, 512)         0         
_________________________________________________________________
separable_conv2d_1965 (Separ (None, 8, 8, 128)         70272     
_________________________________________________________________
activation_2140 (Activation) (None, 8, 8, 128)         0         
_________________________________________________________________
dropout_2140 (Dropout)       (None, 8, 8, 128)         0         
_________________________________________________________________
separable_conv2d_1966 (Separ (None, 8, 8, 32)          5280      
_________________________________________________________________
batch_normalization_1271 (Ba (None, 8, 8, 32)          128       
_________________________________________________________________
activation_2141 (Activation) (None, 8, 8, 32)          0         
_________________________________________________________________
dropout_2141 (Dropout)       (None, 8, 8, 32)          0         
_________________________________________________________________
separable_conv2d_1967 (Separ (None, 8, 8, 256)         8736      
_________________________________________________________________
batch_normalization_1272 (Ba (None, 8, 8, 256)         1024      
_________________________________________________________________
activation_2142 (Activation) (None, 8, 8, 256)         0         
_________________________________________________________________
dropout_2142 (Dropout)       (None, 8, 8, 256)         0         
_________________________________________________________________
max_pooling2d_506 (MaxPoolin (None, 4, 4, 256)         0         
_________________________________________________________________
flatten_172 (Flatten)        (None, 4096)              0         
_________________________________________________________________
dense_347 (Dense)            (None, 2048)              8390656   
_________________________________________________________________
batch_normalization_1273 (Ba (None, 2048)              8192      
_________________________________________________________________
activation_2143 (Activation) (None, 2048)              0         
_________________________________________________________________
dropout_2143 (Dropout)       (None, 2048)              0         
_________________________________________________________________
dense_348 (Dense)            (None, 100)               204900    
=================================================================
Total params: 8,754,127
Trainable params: 8,747,535
Non-trainable params: 6,592
_________________________________________________________________
