Model: "sequential_339"
_________________________________________________________________
Layer (type)                 Output Shape              Param #   
=================================================================
separable_conv2d_3676 (Separ (None, 32, 32, 32)        155       
_________________________________________________________________
activation_4018 (Activation) (None, 32, 32, 32)        0         
_________________________________________________________________
dropout_4018 (Dropout)       (None, 32, 32, 32)        0         
_________________________________________________________________
separable_conv2d_3677 (Separ (None, 32, 32, 256)       8736      
_________________________________________________________________
batch_normalization_2315 (Ba (None, 32, 32, 256)       1024      
_________________________________________________________________
activation_4019 (Activation) (None, 32, 32, 256)       0         
_________________________________________________________________
dropout_4019 (Dropout)       (None, 32, 32, 256)       0         
_________________________________________________________________
separable_conv2d_3678 (Separ (None, 32, 32, 8)         4360      
_________________________________________________________________
activation_4020 (Activation) (None, 32, 32, 8)         0         
_________________________________________________________________
dropout_4020 (Dropout)       (None, 32, 32, 8)         0         
_________________________________________________________________
separable_conv2d_3679 (Separ (None, 32, 32, 64)        648       
_________________________________________________________________
activation_4021 (Activation) (None, 32, 32, 64)        0         
_________________________________________________________________
dropout_4021 (Dropout)       (None, 32, 32, 64)        0         
_________________________________________________________________
max_pooling2d_952 (MaxPoolin (None, 16, 16, 64)        0         
_________________________________________________________________
separable_conv2d_3680 (Separ (None, 16, 16, 16)        1616      
_________________________________________________________________
activation_4022 (Activation) (None, 16, 16, 16)        0         
_________________________________________________________________
dropout_4022 (Dropout)       (None, 16, 16, 16)        0         
_________________________________________________________________
separable_conv2d_3681 (Separ (None, 16, 16, 128)       2320      
_________________________________________________________________
batch_normalization_2316 (Ba (None, 16, 16, 128)       512       
_________________________________________________________________
activation_4023 (Activation) (None, 16, 16, 128)       0         
_________________________________________________________________
dropout_4023 (Dropout)       (None, 16, 16, 128)       0         
_________________________________________________________________
separable_conv2d_3682 (Separ (None, 16, 16, 512)       67200     
_________________________________________________________________
batch_normalization_2317 (Ba (None, 16, 16, 512)       2048      
_________________________________________________________________
activation_4024 (Activation) (None, 16, 16, 512)       0         
_________________________________________________________________
dropout_4024 (Dropout)       (None, 16, 16, 512)       0         
_________________________________________________________________
max_pooling2d_953 (MaxPoolin (None, 8, 8, 512)         0         
_________________________________________________________________
separable_conv2d_3683 (Separ (None, 8, 8, 128)         70272     
_________________________________________________________________
activation_4025 (Activation) (None, 8, 8, 128)         0         
_________________________________________________________________
dropout_4025 (Dropout)       (None, 8, 8, 128)         0         
_________________________________________________________________
separable_conv2d_3684 (Separ (None, 8, 8, 32)          5280      
_________________________________________________________________
activation_4026 (Activation) (None, 8, 8, 32)          0         
_________________________________________________________________
dropout_4026 (Dropout)       (None, 8, 8, 32)          0         
_________________________________________________________________
separable_conv2d_3685 (Separ (None, 8, 8, 512)         17184     
_________________________________________________________________
batch_normalization_2318 (Ba (None, 8, 8, 512)         2048      
_________________________________________________________________
activation_4027 (Activation) (None, 8, 8, 512)         0         
_________________________________________________________________
dropout_4027 (Dropout)       (None, 8, 8, 512)         0         
_________________________________________________________________
max_pooling2d_954 (MaxPoolin (None, 4, 4, 512)         0         
_________________________________________________________________
flatten_339 (Flatten)        (None, 8192)              0         
_________________________________________________________________
dense_681 (Dense)            (None, 2048)              16779264  
_________________________________________________________________
batch_normalization_2319 (Ba (None, 2048)              8192      
_________________________________________________________________
activation_4028 (Activation) (None, 2048)              0         
_________________________________________________________________
dropout_4028 (Dropout)       (None, 2048)              0         
_________________________________________________________________
dense_682 (Dense)            (None, 100)               204900    
=================================================================
Total params: 17,175,759
Trainable params: 17,168,847
Non-trainable params: 6,912
_________________________________________________________________
