Model: "sequential_82"
_________________________________________________________________
Layer (type)                 Output Shape              Param #   
=================================================================
separable_conv2d_952 (Separa (None, 32, 32, 32)        155       
_________________________________________________________________
activation_1037 (Activation) (None, 32, 32, 32)        0         
_________________________________________________________________
dropout_1037 (Dropout)       (None, 32, 32, 32)        0         
_________________________________________________________________
separable_conv2d_953 (Separa (None, 32, 32, 128)       4512      
_________________________________________________________________
batch_normalization_604 (Bat (None, 32, 32, 128)       512       
_________________________________________________________________
activation_1038 (Activation) (None, 32, 32, 128)       0         
_________________________________________________________________
dropout_1038 (Dropout)       (None, 32, 32, 128)       0         
_________________________________________________________________
separable_conv2d_954 (Separa (None, 32, 32, 8)         2184      
_________________________________________________________________
activation_1039 (Activation) (None, 32, 32, 8)         0         
_________________________________________________________________
dropout_1039 (Dropout)       (None, 32, 32, 8)         0         
_________________________________________________________________
separable_conv2d_955 (Separa (None, 32, 32, 64)        648       
_________________________________________________________________
activation_1040 (Activation) (None, 32, 32, 64)        0         
_________________________________________________________________
dropout_1040 (Dropout)       (None, 32, 32, 64)        0         
_________________________________________________________________
max_pooling2d_235 (MaxPoolin (None, 16, 16, 64)        0         
_________________________________________________________________
separable_conv2d_956 (Separa (None, 16, 16, 8)         1096      
_________________________________________________________________
activation_1041 (Activation) (None, 16, 16, 8)         0         
_________________________________________________________________
dropout_1041 (Dropout)       (None, 16, 16, 8)         0         
_________________________________________________________________
separable_conv2d_957 (Separa (None, 16, 16, 128)       1224      
_________________________________________________________________
batch_normalization_605 (Bat (None, 16, 16, 128)       512       
_________________________________________________________________
activation_1042 (Activation) (None, 16, 16, 128)       0         
_________________________________________________________________
dropout_1042 (Dropout)       (None, 16, 16, 128)       0         
_________________________________________________________________
separable_conv2d_958 (Separa (None, 16, 16, 64)        9408      
_________________________________________________________________
batch_normalization_606 (Bat (None, 16, 16, 64)        256       
_________________________________________________________________
activation_1043 (Activation) (None, 16, 16, 64)        0         
_________________________________________________________________
dropout_1043 (Dropout)       (None, 16, 16, 64)        0         
_________________________________________________________________
separable_conv2d_959 (Separa (None, 16, 16, 512)       33856     
_________________________________________________________________
batch_normalization_607 (Bat (None, 16, 16, 512)       2048      
_________________________________________________________________
activation_1044 (Activation) (None, 16, 16, 512)       0         
_________________________________________________________________
dropout_1044 (Dropout)       (None, 16, 16, 512)       0         
_________________________________________________________________
max_pooling2d_236 (MaxPoolin (None, 8, 8, 512)         0         
_________________________________________________________________
separable_conv2d_960 (Separa (None, 8, 8, 32)          21024     
_________________________________________________________________
batch_normalization_608 (Bat (None, 8, 8, 32)          128       
_________________________________________________________________
activation_1045 (Activation) (None, 8, 8, 32)          0         
_________________________________________________________________
dropout_1045 (Dropout)       (None, 8, 8, 32)          0         
_________________________________________________________________
max_pooling2d_237 (MaxPoolin (None, 4, 4, 32)          0         
_________________________________________________________________
separable_conv2d_961 (Separa (None, 4, 4, 128)         4512      
_________________________________________________________________
activation_1046 (Activation) (None, 4, 4, 128)         0         
_________________________________________________________________
dropout_1046 (Dropout)       (None, 4, 4, 128)         0         
_________________________________________________________________
separable_conv2d_962 (Separa (None, 4, 4, 8)           2184      
_________________________________________________________________
batch_normalization_609 (Bat (None, 4, 4, 8)           32        
_________________________________________________________________
activation_1047 (Activation) (None, 4, 4, 8)           0         
_________________________________________________________________
dropout_1047 (Dropout)       (None, 4, 4, 8)           0         
_________________________________________________________________
separable_conv2d_963 (Separa (None, 4, 4, 256)         2376      
_________________________________________________________________
batch_normalization_610 (Bat (None, 4, 4, 256)         1024      
_________________________________________________________________
activation_1048 (Activation) (None, 4, 4, 256)         0         
_________________________________________________________________
dropout_1048 (Dropout)       (None, 4, 4, 256)         0         
_________________________________________________________________
flatten_82 (Flatten)         (None, 4096)              0         
_________________________________________________________________
dense_167 (Dense)            (None, 2048)              8390656   
_________________________________________________________________
batch_normalization_611 (Bat (None, 2048)              8192      
_________________________________________________________________
activation_1049 (Activation) (None, 2048)              0         
_________________________________________________________________
dropout_1049 (Dropout)       (None, 2048)              0         
_________________________________________________________________
dense_168 (Dense)            (None, 100)               204900    
=================================================================
Total params: 8,691,439
Trainable params: 8,685,087
Non-trainable params: 6,352
_________________________________________________________________
