Model: "sequential_324"
_________________________________________________________________
Layer (type)                 Output Shape              Param #   
=================================================================
separable_conv2d_3532 (Separ (None, 32, 32, 32)        155       
_________________________________________________________________
activation_3859 (Activation) (None, 32, 32, 32)        0         
_________________________________________________________________
dropout_3859 (Dropout)       (None, 32, 32, 32)        0         
_________________________________________________________________
separable_conv2d_3533 (Separ (None, 32, 32, 256)       8736      
_________________________________________________________________
batch_normalization_2234 (Ba (None, 32, 32, 256)       1024      
_________________________________________________________________
activation_3860 (Activation) (None, 32, 32, 256)       0         
_________________________________________________________________
dropout_3860 (Dropout)       (None, 32, 32, 256)       0         
_________________________________________________________________
separable_conv2d_3534 (Separ (None, 32, 32, 8)         4360      
_________________________________________________________________
activation_3861 (Activation) (None, 32, 32, 8)         0         
_________________________________________________________________
dropout_3861 (Dropout)       (None, 32, 32, 8)         0         
_________________________________________________________________
separable_conv2d_3535 (Separ (None, 32, 32, 64)        648       
_________________________________________________________________
activation_3862 (Activation) (None, 32, 32, 64)        0         
_________________________________________________________________
dropout_3862 (Dropout)       (None, 32, 32, 64)        0         
_________________________________________________________________
max_pooling2d_917 (MaxPoolin (None, 16, 16, 64)        0         
_________________________________________________________________
separable_conv2d_3536 (Separ (None, 16, 16, 16)        1616      
_________________________________________________________________
activation_3863 (Activation) (None, 16, 16, 16)        0         
_________________________________________________________________
dropout_3863 (Dropout)       (None, 16, 16, 16)        0         
_________________________________________________________________
separable_conv2d_3537 (Separ (None, 16, 16, 128)       2320      
_________________________________________________________________
batch_normalization_2235 (Ba (None, 16, 16, 128)       512       
_________________________________________________________________
activation_3864 (Activation) (None, 16, 16, 128)       0         
_________________________________________________________________
dropout_3864 (Dropout)       (None, 16, 16, 128)       0         
_________________________________________________________________
separable_conv2d_3538 (Separ (None, 16, 16, 64)        9408      
_________________________________________________________________
batch_normalization_2236 (Ba (None, 16, 16, 64)        256       
_________________________________________________________________
activation_3865 (Activation) (None, 16, 16, 64)        0         
_________________________________________________________________
dropout_3865 (Dropout)       (None, 16, 16, 64)        0         
_________________________________________________________________
separable_conv2d_3539 (Separ (None, 16, 16, 128)       8896      
_________________________________________________________________
activation_3866 (Activation) (None, 16, 16, 128)       0         
_________________________________________________________________
dropout_3866 (Dropout)       (None, 16, 16, 128)       0         
_________________________________________________________________
separable_conv2d_3540 (Separ (None, 16, 16, 64)        9408      
_________________________________________________________________
batch_normalization_2237 (Ba (None, 16, 16, 64)        256       
_________________________________________________________________
activation_3867 (Activation) (None, 16, 16, 64)        0         
_________________________________________________________________
dropout_3867 (Dropout)       (None, 16, 16, 64)        0         
_________________________________________________________________
separable_conv2d_3541 (Separ (None, 16, 16, 512)       33856     
_________________________________________________________________
batch_normalization_2238 (Ba (None, 16, 16, 512)       2048      
_________________________________________________________________
activation_3868 (Activation) (None, 16, 16, 512)       0         
_________________________________________________________________
dropout_3868 (Dropout)       (None, 16, 16, 512)       0         
_________________________________________________________________
max_pooling2d_918 (MaxPoolin (None, 8, 8, 512)         0         
_________________________________________________________________
flatten_324 (Flatten)        (None, 32768)             0         
_________________________________________________________________
dense_651 (Dense)            (None, 2048)              67110912  
_________________________________________________________________
batch_normalization_2239 (Ba (None, 2048)              8192      
_________________________________________________________________
activation_3869 (Activation) (None, 2048)              0         
_________________________________________________________________
dropout_3869 (Dropout)       (None, 2048)              0         
_________________________________________________________________
dense_652 (Dense)            (None, 100)               204900    
=================================================================
Total params: 67,407,503
Trainable params: 67,401,359
Non-trainable params: 6,144
_________________________________________________________________
