Model: "sequential_28"
_________________________________________________________________
Layer (type)                 Output Shape              Param #   
=================================================================
separable_conv2d_317 (Separa (None, 32, 32, 32)        155       
_________________________________________________________________
activation_348 (Activation)  (None, 32, 32, 32)        0         
_________________________________________________________________
dropout_348 (Dropout)        (None, 32, 32, 32)        0         
_________________________________________________________________
separable_conv2d_318 (Separa (None, 32, 32, 128)       4512      
_________________________________________________________________
batch_normalization_188 (Bat (None, 32, 32, 128)       512       
_________________________________________________________________
activation_349 (Activation)  (None, 32, 32, 128)       0         
_________________________________________________________________
dropout_349 (Dropout)        (None, 32, 32, 128)       0         
_________________________________________________________________
separable_conv2d_319 (Separa (None, 32, 32, 8)         2184      
_________________________________________________________________
activation_350 (Activation)  (None, 32, 32, 8)         0         
_________________________________________________________________
dropout_350 (Dropout)        (None, 32, 32, 8)         0         
_________________________________________________________________
separable_conv2d_320 (Separa (None, 32, 32, 64)        648       
_________________________________________________________________
activation_351 (Activation)  (None, 32, 32, 64)        0         
_________________________________________________________________
dropout_351 (Dropout)        (None, 32, 32, 64)        0         
_________________________________________________________________
max_pooling2d_73 (MaxPooling (None, 16, 16, 64)        0         
_________________________________________________________________
separable_conv2d_321 (Separa (None, 16, 16, 8)         1096      
_________________________________________________________________
activation_352 (Activation)  (None, 16, 16, 8)         0         
_________________________________________________________________
dropout_352 (Dropout)        (None, 16, 16, 8)         0         
_________________________________________________________________
separable_conv2d_322 (Separa (None, 16, 16, 128)       1224      
_________________________________________________________________
batch_normalization_189 (Bat (None, 16, 16, 128)       512       
_________________________________________________________________
activation_353 (Activation)  (None, 16, 16, 128)       0         
_________________________________________________________________
dropout_353 (Dropout)        (None, 16, 16, 128)       0         
_________________________________________________________________
separable_conv2d_323 (Separa (None, 16, 16, 64)        9408      
_________________________________________________________________
batch_normalization_190 (Bat (None, 16, 16, 64)        256       
_________________________________________________________________
activation_354 (Activation)  (None, 16, 16, 64)        0         
_________________________________________________________________
dropout_354 (Dropout)        (None, 16, 16, 64)        0         
_________________________________________________________________
separable_conv2d_324 (Separa (None, 16, 16, 512)       33856     
_________________________________________________________________
batch_normalization_191 (Bat (None, 16, 16, 512)       2048      
_________________________________________________________________
activation_355 (Activation)  (None, 16, 16, 512)       0         
_________________________________________________________________
dropout_355 (Dropout)        (None, 16, 16, 512)       0         
_________________________________________________________________
max_pooling2d_74 (MaxPooling (None, 8, 8, 512)         0         
_________________________________________________________________
separable_conv2d_325 (Separa (None, 8, 8, 128)         70272     
_________________________________________________________________
activation_356 (Activation)  (None, 8, 8, 128)         0         
_________________________________________________________________
dropout_356 (Dropout)        (None, 8, 8, 128)         0         
_________________________________________________________________
separable_conv2d_326 (Separa (None, 8, 8, 32)          5280      
_________________________________________________________________
batch_normalization_192 (Bat (None, 8, 8, 32)          128       
_________________________________________________________________
activation_357 (Activation)  (None, 8, 8, 32)          0         
_________________________________________________________________
dropout_357 (Dropout)        (None, 8, 8, 32)          0         
_________________________________________________________________
separable_conv2d_327 (Separa (None, 8, 8, 512)         17184     
_________________________________________________________________
batch_normalization_193 (Bat (None, 8, 8, 512)         2048      
_________________________________________________________________
activation_358 (Activation)  (None, 8, 8, 512)         0         
_________________________________________________________________
dropout_358 (Dropout)        (None, 8, 8, 512)         0         
_________________________________________________________________
max_pooling2d_75 (MaxPooling (None, 4, 4, 512)         0         
_________________________________________________________________
flatten_28 (Flatten)         (None, 8192)              0         
_________________________________________________________________
dense_59 (Dense)             (None, 2048)              16779264  
_________________________________________________________________
batch_normalization_194 (Bat (None, 2048)              8192      
_________________________________________________________________
activation_359 (Activation)  (None, 2048)              0         
_________________________________________________________________
dropout_359 (Dropout)        (None, 2048)              0         
_________________________________________________________________
dense_60 (Dense)             (None, 100)               204900    
=================================================================
Total params: 17,143,679
Trainable params: 17,136,831
Non-trainable params: 6,848
_________________________________________________________________
