Model: "sequential_258"
_________________________________________________________________
Layer (type)                 Output Shape              Param #   
=================================================================
separable_conv2d_2876 (Separ (None, 32, 32, 32)        155       
_________________________________________________________________
activation_3137 (Activation) (None, 32, 32, 32)        0         
_________________________________________________________________
dropout_3137 (Dropout)       (None, 32, 32, 32)        0         
_________________________________________________________________
separable_conv2d_2877 (Separ (None, 32, 32, 256)       8736      
_________________________________________________________________
batch_normalization_1836 (Ba (None, 32, 32, 256)       1024      
_________________________________________________________________
activation_3138 (Activation) (None, 32, 32, 256)       0         
_________________________________________________________________
dropout_3138 (Dropout)       (None, 32, 32, 256)       0         
_________________________________________________________________
separable_conv2d_2878 (Separ (None, 32, 32, 8)         4360      
_________________________________________________________________
activation_3139 (Activation) (None, 32, 32, 8)         0         
_________________________________________________________________
dropout_3139 (Dropout)       (None, 32, 32, 8)         0         
_________________________________________________________________
separable_conv2d_2879 (Separ (None, 32, 32, 64)        648       
_________________________________________________________________
activation_3140 (Activation) (None, 32, 32, 64)        0         
_________________________________________________________________
dropout_3140 (Dropout)       (None, 32, 32, 64)        0         
_________________________________________________________________
max_pooling2d_751 (MaxPoolin (None, 16, 16, 64)        0         
_________________________________________________________________
separable_conv2d_2880 (Separ (None, 16, 16, 16)        1616      
_________________________________________________________________
activation_3141 (Activation) (None, 16, 16, 16)        0         
_________________________________________________________________
dropout_3141 (Dropout)       (None, 16, 16, 16)        0         
_________________________________________________________________
separable_conv2d_2881 (Separ (None, 16, 16, 128)       2320      
_________________________________________________________________
batch_normalization_1837 (Ba (None, 16, 16, 128)       512       
_________________________________________________________________
activation_3142 (Activation) (None, 16, 16, 128)       0         
_________________________________________________________________
dropout_3142 (Dropout)       (None, 16, 16, 128)       0         
_________________________________________________________________
separable_conv2d_2882 (Separ (None, 16, 16, 64)        9408      
_________________________________________________________________
batch_normalization_1838 (Ba (None, 16, 16, 64)        256       
_________________________________________________________________
activation_3143 (Activation) (None, 16, 16, 64)        0         
_________________________________________________________________
dropout_3143 (Dropout)       (None, 16, 16, 64)        0         
_________________________________________________________________
separable_conv2d_2883 (Separ (None, 16, 16, 512)       33856     
_________________________________________________________________
batch_normalization_1839 (Ba (None, 16, 16, 512)       2048      
_________________________________________________________________
activation_3144 (Activation) (None, 16, 16, 512)       0         
_________________________________________________________________
dropout_3144 (Dropout)       (None, 16, 16, 512)       0         
_________________________________________________________________
max_pooling2d_752 (MaxPoolin (None, 8, 8, 512)         0         
_________________________________________________________________
separable_conv2d_2884 (Separ (None, 8, 8, 128)         70272     
_________________________________________________________________
activation_3145 (Activation) (None, 8, 8, 128)         0         
_________________________________________________________________
dropout_3145 (Dropout)       (None, 8, 8, 128)         0         
_________________________________________________________________
separable_conv2d_2885 (Separ (None, 8, 8, 32)          5280      
_________________________________________________________________
batch_normalization_1840 (Ba (None, 8, 8, 32)          128       
_________________________________________________________________
activation_3146 (Activation) (None, 8, 8, 32)          0         
_________________________________________________________________
dropout_3146 (Dropout)       (None, 8, 8, 32)          0         
_________________________________________________________________
separable_conv2d_2886 (Separ (None, 8, 8, 256)         8736      
_________________________________________________________________
batch_normalization_1841 (Ba (None, 8, 8, 256)         1024      
_________________________________________________________________
activation_3147 (Activation) (None, 8, 8, 256)         0         
_________________________________________________________________
dropout_3147 (Dropout)       (None, 8, 8, 256)         0         
_________________________________________________________________
max_pooling2d_753 (MaxPoolin (None, 4, 4, 256)         0         
_________________________________________________________________
flatten_258 (Flatten)        (None, 4096)              0         
_________________________________________________________________
dense_519 (Dense)            (None, 2048)              8390656   
_________________________________________________________________
batch_normalization_1842 (Ba (None, 2048)              8192      
_________________________________________________________________
activation_3148 (Activation) (None, 2048)              0         
_________________________________________________________________
dropout_3148 (Dropout)       (None, 2048)              0         
_________________________________________________________________
dense_520 (Dense)            (None, 100)               204900    
=================================================================
Total params: 8,754,127
Trainable params: 8,747,535
Non-trainable params: 6,592
_________________________________________________________________
