Model: "sequential_29"
_________________________________________________________________
Layer (type)                 Output Shape              Param #   
=================================================================
separable_conv2d_328 (Separa (None, 32, 32, 32)        155       
_________________________________________________________________
activation_360 (Activation)  (None, 32, 32, 32)        0         
_________________________________________________________________
dropout_360 (Dropout)        (None, 32, 32, 32)        0         
_________________________________________________________________
separable_conv2d_329 (Separa (None, 32, 32, 128)       4512      
_________________________________________________________________
batch_normalization_195 (Bat (None, 32, 32, 128)       512       
_________________________________________________________________
activation_361 (Activation)  (None, 32, 32, 128)       0         
_________________________________________________________________
dropout_361 (Dropout)        (None, 32, 32, 128)       0         
_________________________________________________________________
separable_conv2d_330 (Separa (None, 32, 32, 8)         2184      
_________________________________________________________________
activation_362 (Activation)  (None, 32, 32, 8)         0         
_________________________________________________________________
dropout_362 (Dropout)        (None, 32, 32, 8)         0         
_________________________________________________________________
separable_conv2d_331 (Separa (None, 32, 32, 64)        648       
_________________________________________________________________
activation_363 (Activation)  (None, 32, 32, 64)        0         
_________________________________________________________________
dropout_363 (Dropout)        (None, 32, 32, 64)        0         
_________________________________________________________________
max_pooling2d_76 (MaxPooling (None, 16, 16, 64)        0         
_________________________________________________________________
separable_conv2d_332 (Separa (None, 16, 16, 8)         1096      
_________________________________________________________________
activation_364 (Activation)  (None, 16, 16, 8)         0         
_________________________________________________________________
dropout_364 (Dropout)        (None, 16, 16, 8)         0         
_________________________________________________________________
separable_conv2d_333 (Separa (None, 16, 16, 128)       1224      
_________________________________________________________________
batch_normalization_196 (Bat (None, 16, 16, 128)       512       
_________________________________________________________________
activation_365 (Activation)  (None, 16, 16, 128)       0         
_________________________________________________________________
dropout_365 (Dropout)        (None, 16, 16, 128)       0         
_________________________________________________________________
separable_conv2d_334 (Separa (None, 16, 16, 64)        9408      
_________________________________________________________________
batch_normalization_197 (Bat (None, 16, 16, 64)        256       
_________________________________________________________________
activation_366 (Activation)  (None, 16, 16, 64)        0         
_________________________________________________________________
dropout_366 (Dropout)        (None, 16, 16, 64)        0         
_________________________________________________________________
separable_conv2d_335 (Separa (None, 16, 16, 512)       33856     
_________________________________________________________________
batch_normalization_198 (Bat (None, 16, 16, 512)       2048      
_________________________________________________________________
activation_367 (Activation)  (None, 16, 16, 512)       0         
_________________________________________________________________
dropout_367 (Dropout)        (None, 16, 16, 512)       0         
_________________________________________________________________
max_pooling2d_77 (MaxPooling (None, 8, 8, 512)         0         
_________________________________________________________________
separable_conv2d_336 (Separa (None, 8, 8, 32)          21024     
_________________________________________________________________
batch_normalization_199 (Bat (None, 8, 8, 32)          128       
_________________________________________________________________
activation_368 (Activation)  (None, 8, 8, 32)          0         
_________________________________________________________________
dropout_368 (Dropout)        (None, 8, 8, 32)          0         
_________________________________________________________________
max_pooling2d_78 (MaxPooling (None, 4, 4, 32)          0         
_________________________________________________________________
separable_conv2d_337 (Separa (None, 4, 4, 128)         4512      
_________________________________________________________________
activation_369 (Activation)  (None, 4, 4, 128)         0         
_________________________________________________________________
dropout_369 (Dropout)        (None, 4, 4, 128)         0         
_________________________________________________________________
separable_conv2d_338 (Separa (None, 4, 4, 32)          5280      
_________________________________________________________________
batch_normalization_200 (Bat (None, 4, 4, 32)          128       
_________________________________________________________________
activation_370 (Activation)  (None, 4, 4, 32)          0         
_________________________________________________________________
dropout_370 (Dropout)        (None, 4, 4, 32)          0         
_________________________________________________________________
separable_conv2d_339 (Separa (None, 4, 4, 256)         8736      
_________________________________________________________________
batch_normalization_201 (Bat (None, 4, 4, 256)         1024      
_________________________________________________________________
activation_371 (Activation)  (None, 4, 4, 256)         0         
_________________________________________________________________
dropout_371 (Dropout)        (None, 4, 4, 256)         0         
_________________________________________________________________
flatten_29 (Flatten)         (None, 4096)              0         
_________________________________________________________________
dense_61 (Dense)             (None, 2048)              8390656   
_________________________________________________________________
batch_normalization_202 (Bat (None, 2048)              8192      
_________________________________________________________________
activation_372 (Activation)  (None, 2048)              0         
_________________________________________________________________
dropout_372 (Dropout)        (None, 2048)              0         
_________________________________________________________________
dense_62 (Dense)             (None, 100)               204900    
=================================================================
Total params: 8,700,991
Trainable params: 8,694,591
Non-trainable params: 6,400
_________________________________________________________________
