Model: "sequential_116"
_________________________________________________________________
Layer (type)                 Output Shape              Param #   
=================================================================
separable_conv2d_1341 (Separ (None, 32, 32, 32)        155       
_________________________________________________________________
activation_1460 (Activation) (None, 32, 32, 32)        0         
_________________________________________________________________
dropout_1460 (Dropout)       (None, 32, 32, 32)        0         
_________________________________________________________________
separable_conv2d_1342 (Separ (None, 32, 32, 128)       4512      
_________________________________________________________________
batch_normalization_868 (Bat (None, 32, 32, 128)       512       
_________________________________________________________________
activation_1461 (Activation) (None, 32, 32, 128)       0         
_________________________________________________________________
dropout_1461 (Dropout)       (None, 32, 32, 128)       0         
_________________________________________________________________
separable_conv2d_1343 (Separ (None, 32, 32, 8)         2184      
_________________________________________________________________
activation_1462 (Activation) (None, 32, 32, 8)         0         
_________________________________________________________________
dropout_1462 (Dropout)       (None, 32, 32, 8)         0         
_________________________________________________________________
separable_conv2d_1344 (Separ (None, 32, 32, 64)        648       
_________________________________________________________________
activation_1463 (Activation) (None, 32, 32, 64)        0         
_________________________________________________________________
dropout_1463 (Dropout)       (None, 32, 32, 64)        0         
_________________________________________________________________
max_pooling2d_337 (MaxPoolin (None, 16, 16, 64)        0         
_________________________________________________________________
separable_conv2d_1345 (Separ (None, 16, 16, 8)         1096      
_________________________________________________________________
activation_1464 (Activation) (None, 16, 16, 8)         0         
_________________________________________________________________
dropout_1464 (Dropout)       (None, 16, 16, 8)         0         
_________________________________________________________________
separable_conv2d_1346 (Separ (None, 16, 16, 128)       1224      
_________________________________________________________________
batch_normalization_869 (Bat (None, 16, 16, 128)       512       
_________________________________________________________________
activation_1465 (Activation) (None, 16, 16, 128)       0         
_________________________________________________________________
dropout_1465 (Dropout)       (None, 16, 16, 128)       0         
_________________________________________________________________
separable_conv2d_1347 (Separ (None, 16, 16, 64)        9408      
_________________________________________________________________
batch_normalization_870 (Bat (None, 16, 16, 64)        256       
_________________________________________________________________
activation_1466 (Activation) (None, 16, 16, 64)        0         
_________________________________________________________________
dropout_1466 (Dropout)       (None, 16, 16, 64)        0         
_________________________________________________________________
separable_conv2d_1348 (Separ (None, 16, 16, 512)       33856     
_________________________________________________________________
batch_normalization_871 (Bat (None, 16, 16, 512)       2048      
_________________________________________________________________
activation_1467 (Activation) (None, 16, 16, 512)       0         
_________________________________________________________________
dropout_1467 (Dropout)       (None, 16, 16, 512)       0         
_________________________________________________________________
max_pooling2d_338 (MaxPoolin (None, 8, 8, 512)         0         
_________________________________________________________________
separable_conv2d_1349 (Separ (None, 8, 8, 32)          21024     
_________________________________________________________________
batch_normalization_872 (Bat (None, 8, 8, 32)          128       
_________________________________________________________________
activation_1468 (Activation) (None, 8, 8, 32)          0         
_________________________________________________________________
dropout_1468 (Dropout)       (None, 8, 8, 32)          0         
_________________________________________________________________
max_pooling2d_339 (MaxPoolin (None, 4, 4, 32)          0         
_________________________________________________________________
separable_conv2d_1350 (Separ (None, 4, 4, 32)          1344      
_________________________________________________________________
batch_normalization_873 (Bat (None, 4, 4, 32)          128       
_________________________________________________________________
activation_1469 (Activation) (None, 4, 4, 32)          0         
_________________________________________________________________
dropout_1469 (Dropout)       (None, 4, 4, 32)          0         
_________________________________________________________________
separable_conv2d_1351 (Separ (None, 4, 4, 256)         8736      
_________________________________________________________________
batch_normalization_874 (Bat (None, 4, 4, 256)         1024      
_________________________________________________________________
activation_1470 (Activation) (None, 4, 4, 256)         0         
_________________________________________________________________
dropout_1470 (Dropout)       (None, 4, 4, 256)         0         
_________________________________________________________________
flatten_116 (Flatten)        (None, 4096)              0         
_________________________________________________________________
dense_235 (Dense)            (None, 2048)              8390656   
_________________________________________________________________
batch_normalization_875 (Bat (None, 2048)              8192      
_________________________________________________________________
activation_1471 (Activation) (None, 2048)              0         
_________________________________________________________________
dropout_1471 (Dropout)       (None, 2048)              0         
_________________________________________________________________
dense_236 (Dense)            (None, 100)               204900    
=================================================================
Total params: 8,692,543
Trainable params: 8,686,143
Non-trainable params: 6,400
_________________________________________________________________
