Model: "sequential_216"
_________________________________________________________________
Layer (type)                 Output Shape              Param #   
=================================================================
separable_conv2d_2432 (Separ (None, 32, 32, 256)       1051      
_________________________________________________________________
activation_2651 (Activation) (None, 32, 32, 256)       0         
_________________________________________________________________
dropout_2651 (Dropout)       (None, 32, 32, 256)       0         
_________________________________________________________________
separable_conv2d_2433 (Separ (None, 32, 32, 128)       35200     
_________________________________________________________________
batch_normalization_1560 (Ba (None, 32, 32, 128)       512       
_________________________________________________________________
activation_2652 (Activation) (None, 32, 32, 128)       0         
_________________________________________________________________
dropout_2652 (Dropout)       (None, 32, 32, 128)       0         
_________________________________________________________________
separable_conv2d_2434 (Separ (None, 32, 32, 8)         2184      
_________________________________________________________________
activation_2653 (Activation) (None, 32, 32, 8)         0         
_________________________________________________________________
dropout_2653 (Dropout)       (None, 32, 32, 8)         0         
_________________________________________________________________
separable_conv2d_2435 (Separ (None, 32, 32, 64)        648       
_________________________________________________________________
activation_2654 (Activation) (None, 32, 32, 64)        0         
_________________________________________________________________
dropout_2654 (Dropout)       (None, 32, 32, 64)        0         
_________________________________________________________________
max_pooling2d_633 (MaxPoolin (None, 16, 16, 64)        0         
_________________________________________________________________
separable_conv2d_2436 (Separ (None, 16, 16, 8)         1096      
_________________________________________________________________
activation_2655 (Activation) (None, 16, 16, 8)         0         
_________________________________________________________________
dropout_2655 (Dropout)       (None, 16, 16, 8)         0         
_________________________________________________________________
separable_conv2d_2437 (Separ (None, 16, 16, 128)       1224      
_________________________________________________________________
batch_normalization_1561 (Ba (None, 16, 16, 128)       512       
_________________________________________________________________
activation_2656 (Activation) (None, 16, 16, 128)       0         
_________________________________________________________________
dropout_2656 (Dropout)       (None, 16, 16, 128)       0         
_________________________________________________________________
separable_conv2d_2438 (Separ (None, 16, 16, 64)        9408      
_________________________________________________________________
batch_normalization_1562 (Ba (None, 16, 16, 64)        256       
_________________________________________________________________
activation_2657 (Activation) (None, 16, 16, 64)        0         
_________________________________________________________________
dropout_2657 (Dropout)       (None, 16, 16, 64)        0         
_________________________________________________________________
separable_conv2d_2439 (Separ (None, 16, 16, 512)       33856     
_________________________________________________________________
batch_normalization_1563 (Ba (None, 16, 16, 512)       2048      
_________________________________________________________________
activation_2658 (Activation) (None, 16, 16, 512)       0         
_________________________________________________________________
dropout_2658 (Dropout)       (None, 16, 16, 512)       0         
_________________________________________________________________
max_pooling2d_634 (MaxPoolin (None, 8, 8, 512)         0         
_________________________________________________________________
separable_conv2d_2440 (Separ (None, 8, 8, 128)         70272     
_________________________________________________________________
activation_2659 (Activation) (None, 8, 8, 128)         0         
_________________________________________________________________
dropout_2659 (Dropout)       (None, 8, 8, 128)         0         
_________________________________________________________________
separable_conv2d_2441 (Separ (None, 8, 8, 32)          5280      
_________________________________________________________________
activation_2660 (Activation) (None, 8, 8, 32)          0         
_________________________________________________________________
dropout_2660 (Dropout)       (None, 8, 8, 32)          0         
_________________________________________________________________
separable_conv2d_2442 (Separ (None, 8, 8, 256)         8736      
_________________________________________________________________
batch_normalization_1564 (Ba (None, 8, 8, 256)         1024      
_________________________________________________________________
activation_2661 (Activation) (None, 8, 8, 256)         0         
_________________________________________________________________
dropout_2661 (Dropout)       (None, 8, 8, 256)         0         
_________________________________________________________________
max_pooling2d_635 (MaxPoolin (None, 4, 4, 256)         0         
_________________________________________________________________
flatten_216 (Flatten)        (None, 4096)              0         
_________________________________________________________________
dense_435 (Dense)            (None, 2048)              8390656   
_________________________________________________________________
batch_normalization_1565 (Ba (None, 2048)              8192      
_________________________________________________________________
activation_2662 (Activation) (None, 2048)              0         
_________________________________________________________________
dropout_2662 (Dropout)       (None, 2048)              0         
_________________________________________________________________
dense_436 (Dense)            (None, 100)               204900    
=================================================================
Total params: 8,777,055
Trainable params: 8,770,783
Non-trainable params: 6,272
_________________________________________________________________
