Model: "sequential_144"
_________________________________________________________________
Layer (type)                 Output Shape              Param #   
=================================================================
separable_conv2d_1655 (Separ (None, 32, 32, 32)        155       
_________________________________________________________________
activation_1802 (Activation) (None, 32, 32, 32)        0         
_________________________________________________________________
dropout_1802 (Dropout)       (None, 32, 32, 32)        0         
_________________________________________________________________
separable_conv2d_1656 (Separ (None, 32, 32, 256)       8736      
_________________________________________________________________
batch_normalization_1074 (Ba (None, 32, 32, 256)       1024      
_________________________________________________________________
activation_1803 (Activation) (None, 32, 32, 256)       0         
_________________________________________________________________
dropout_1803 (Dropout)       (None, 32, 32, 256)       0         
_________________________________________________________________
separable_conv2d_1657 (Separ (None, 32, 32, 8)         4360      
_________________________________________________________________
activation_1804 (Activation) (None, 32, 32, 8)         0         
_________________________________________________________________
dropout_1804 (Dropout)       (None, 32, 32, 8)         0         
_________________________________________________________________
separable_conv2d_1658 (Separ (None, 32, 32, 64)        648       
_________________________________________________________________
activation_1805 (Activation) (None, 32, 32, 64)        0         
_________________________________________________________________
dropout_1805 (Dropout)       (None, 32, 32, 64)        0         
_________________________________________________________________
max_pooling2d_421 (MaxPoolin (None, 16, 16, 64)        0         
_________________________________________________________________
separable_conv2d_1659 (Separ (None, 16, 16, 16)        1616      
_________________________________________________________________
activation_1806 (Activation) (None, 16, 16, 16)        0         
_________________________________________________________________
dropout_1806 (Dropout)       (None, 16, 16, 16)        0         
_________________________________________________________________
separable_conv2d_1660 (Separ (None, 16, 16, 128)       2320      
_________________________________________________________________
batch_normalization_1075 (Ba (None, 16, 16, 128)       512       
_________________________________________________________________
activation_1807 (Activation) (None, 16, 16, 128)       0         
_________________________________________________________________
dropout_1807 (Dropout)       (None, 16, 16, 128)       0         
_________________________________________________________________
separable_conv2d_1661 (Separ (None, 16, 16, 64)        9408      
_________________________________________________________________
batch_normalization_1076 (Ba (None, 16, 16, 64)        256       
_________________________________________________________________
activation_1808 (Activation) (None, 16, 16, 64)        0         
_________________________________________________________________
dropout_1808 (Dropout)       (None, 16, 16, 64)        0         
_________________________________________________________________
separable_conv2d_1662 (Separ (None, 16, 16, 512)       33856     
_________________________________________________________________
batch_normalization_1077 (Ba (None, 16, 16, 512)       2048      
_________________________________________________________________
activation_1809 (Activation) (None, 16, 16, 512)       0         
_________________________________________________________________
dropout_1809 (Dropout)       (None, 16, 16, 512)       0         
_________________________________________________________________
max_pooling2d_422 (MaxPoolin (None, 8, 8, 512)         0         
_________________________________________________________________
separable_conv2d_1663 (Separ (None, 8, 8, 128)         70272     
_________________________________________________________________
activation_1810 (Activation) (None, 8, 8, 128)         0         
_________________________________________________________________
dropout_1810 (Dropout)       (None, 8, 8, 128)         0         
_________________________________________________________________
separable_conv2d_1664 (Separ (None, 8, 8, 32)          5280      
_________________________________________________________________
activation_1811 (Activation) (None, 8, 8, 32)          0         
_________________________________________________________________
dropout_1811 (Dropout)       (None, 8, 8, 32)          0         
_________________________________________________________________
separable_conv2d_1665 (Separ (None, 8, 8, 256)         8736      
_________________________________________________________________
batch_normalization_1078 (Ba (None, 8, 8, 256)         1024      
_________________________________________________________________
activation_1812 (Activation) (None, 8, 8, 256)         0         
_________________________________________________________________
dropout_1812 (Dropout)       (None, 8, 8, 256)         0         
_________________________________________________________________
max_pooling2d_423 (MaxPoolin (None, 4, 4, 256)         0         
_________________________________________________________________
flatten_144 (Flatten)        (None, 4096)              0         
_________________________________________________________________
dense_291 (Dense)            (None, 2048)              8390656   
_________________________________________________________________
batch_normalization_1079 (Ba (None, 2048)              8192      
_________________________________________________________________
activation_1813 (Activation) (None, 2048)              0         
_________________________________________________________________
dropout_1813 (Dropout)       (None, 2048)              0         
_________________________________________________________________
dense_292 (Dense)            (None, 100)               204900    
=================================================================
Total params: 8,753,999
Trainable params: 8,747,471
Non-trainable params: 6,528
_________________________________________________________________
