Model: "sequential_305"
_________________________________________________________________
Layer (type)                 Output Shape              Param #   
=================================================================
separable_conv2d_3348 (Separ (None, 32, 32, 32)        155       
_________________________________________________________________
activation_3656 (Activation) (None, 32, 32, 32)        0         
_________________________________________________________________
dropout_3656 (Dropout)       (None, 32, 32, 32)        0         
_________________________________________________________________
separable_conv2d_3349 (Separ (None, 32, 32, 256)       8736      
_________________________________________________________________
batch_normalization_2128 (Ba (None, 32, 32, 256)       1024      
_________________________________________________________________
activation_3657 (Activation) (None, 32, 32, 256)       0         
_________________________________________________________________
dropout_3657 (Dropout)       (None, 32, 32, 256)       0         
_________________________________________________________________
separable_conv2d_3350 (Separ (None, 32, 32, 8)         4360      
_________________________________________________________________
activation_3658 (Activation) (None, 32, 32, 8)         0         
_________________________________________________________________
dropout_3658 (Dropout)       (None, 32, 32, 8)         0         
_________________________________________________________________
separable_conv2d_3351 (Separ (None, 32, 32, 64)        648       
_________________________________________________________________
activation_3659 (Activation) (None, 32, 32, 64)        0         
_________________________________________________________________
dropout_3659 (Dropout)       (None, 32, 32, 64)        0         
_________________________________________________________________
max_pooling2d_874 (MaxPoolin (None, 16, 16, 64)        0         
_________________________________________________________________
separable_conv2d_3352 (Separ (None, 16, 16, 256)       17216     
_________________________________________________________________
batch_normalization_2129 (Ba (None, 16, 16, 256)       1024      
_________________________________________________________________
activation_3660 (Activation) (None, 16, 16, 256)       0         
_________________________________________________________________
dropout_3660 (Dropout)       (None, 16, 16, 256)       0         
_________________________________________________________________
separable_conv2d_3353 (Separ (None, 16, 16, 512)       133888    
_________________________________________________________________
batch_normalization_2130 (Ba (None, 16, 16, 512)       2048      
_________________________________________________________________
activation_3661 (Activation) (None, 16, 16, 512)       0         
_________________________________________________________________
dropout_3661 (Dropout)       (None, 16, 16, 512)       0         
_________________________________________________________________
max_pooling2d_875 (MaxPoolin (None, 8, 8, 512)         0         
_________________________________________________________________
separable_conv2d_3354 (Separ (None, 8, 8, 128)         70272     
_________________________________________________________________
activation_3662 (Activation) (None, 8, 8, 128)         0         
_________________________________________________________________
dropout_3662 (Dropout)       (None, 8, 8, 128)         0         
_________________________________________________________________
separable_conv2d_3355 (Separ (None, 8, 8, 64)          9408      
_________________________________________________________________
batch_normalization_2131 (Ba (None, 8, 8, 64)          256       
_________________________________________________________________
activation_3663 (Activation) (None, 8, 8, 64)          0         
_________________________________________________________________
dropout_3663 (Dropout)       (None, 8, 8, 64)          0         
_________________________________________________________________
separable_conv2d_3356 (Separ (None, 8, 8, 512)         33856     
_________________________________________________________________
batch_normalization_2132 (Ba (None, 8, 8, 512)         2048      
_________________________________________________________________
activation_3664 (Activation) (None, 8, 8, 512)         0         
_________________________________________________________________
dropout_3664 (Dropout)       (None, 8, 8, 512)         0         
_________________________________________________________________
max_pooling2d_876 (MaxPoolin (None, 4, 4, 512)         0         
_________________________________________________________________
flatten_305 (Flatten)        (None, 8192)              0         
_________________________________________________________________
dense_613 (Dense)            (None, 2048)              16779264  
_________________________________________________________________
batch_normalization_2133 (Ba (None, 2048)              8192      
_________________________________________________________________
activation_3665 (Activation) (None, 2048)              0         
_________________________________________________________________
dropout_3665 (Dropout)       (None, 2048)              0         
_________________________________________________________________
dense_614 (Dense)            (None, 100)               204900    
=================================================================
Total params: 17,277,295
Trainable params: 17,269,999
Non-trainable params: 7,296
_________________________________________________________________
