Model: "sequential_113"
_________________________________________________________________
Layer (type)                 Output Shape              Param #   
=================================================================
separable_conv2d_1308 (Separ (None, 32, 32, 32)        155       
_________________________________________________________________
activation_1424 (Activation) (None, 32, 32, 32)        0         
_________________________________________________________________
dropout_1424 (Dropout)       (None, 32, 32, 32)        0         
_________________________________________________________________
separable_conv2d_1309 (Separ (None, 32, 32, 256)       8736      
_________________________________________________________________
batch_normalization_845 (Bat (None, 32, 32, 256)       1024      
_________________________________________________________________
activation_1425 (Activation) (None, 32, 32, 256)       0         
_________________________________________________________________
dropout_1425 (Dropout)       (None, 32, 32, 256)       0         
_________________________________________________________________
separable_conv2d_1310 (Separ (None, 32, 32, 8)         4360      
_________________________________________________________________
activation_1426 (Activation) (None, 32, 32, 8)         0         
_________________________________________________________________
dropout_1426 (Dropout)       (None, 32, 32, 8)         0         
_________________________________________________________________
separable_conv2d_1311 (Separ (None, 32, 32, 64)        648       
_________________________________________________________________
activation_1427 (Activation) (None, 32, 32, 64)        0         
_________________________________________________________________
dropout_1427 (Dropout)       (None, 32, 32, 64)        0         
_________________________________________________________________
max_pooling2d_328 (MaxPoolin (None, 16, 16, 64)        0         
_________________________________________________________________
separable_conv2d_1312 (Separ (None, 16, 16, 8)         1096      
_________________________________________________________________
activation_1428 (Activation) (None, 16, 16, 8)         0         
_________________________________________________________________
dropout_1428 (Dropout)       (None, 16, 16, 8)         0         
_________________________________________________________________
separable_conv2d_1313 (Separ (None, 16, 16, 128)       1224      
_________________________________________________________________
batch_normalization_846 (Bat (None, 16, 16, 128)       512       
_________________________________________________________________
activation_1429 (Activation) (None, 16, 16, 128)       0         
_________________________________________________________________
dropout_1429 (Dropout)       (None, 16, 16, 128)       0         
_________________________________________________________________
separable_conv2d_1314 (Separ (None, 16, 16, 64)        9408      
_________________________________________________________________
batch_normalization_847 (Bat (None, 16, 16, 64)        256       
_________________________________________________________________
activation_1430 (Activation) (None, 16, 16, 64)        0         
_________________________________________________________________
dropout_1430 (Dropout)       (None, 16, 16, 64)        0         
_________________________________________________________________
separable_conv2d_1315 (Separ (None, 16, 16, 512)       33856     
_________________________________________________________________
batch_normalization_848 (Bat (None, 16, 16, 512)       2048      
_________________________________________________________________
activation_1431 (Activation) (None, 16, 16, 512)       0         
_________________________________________________________________
dropout_1431 (Dropout)       (None, 16, 16, 512)       0         
_________________________________________________________________
max_pooling2d_329 (MaxPoolin (None, 8, 8, 512)         0         
_________________________________________________________________
separable_conv2d_1316 (Separ (None, 8, 8, 32)          21024     
_________________________________________________________________
batch_normalization_849 (Bat (None, 8, 8, 32)          128       
_________________________________________________________________
activation_1432 (Activation) (None, 8, 8, 32)          0         
_________________________________________________________________
dropout_1432 (Dropout)       (None, 8, 8, 32)          0         
_________________________________________________________________
max_pooling2d_330 (MaxPoolin (None, 4, 4, 32)          0         
_________________________________________________________________
separable_conv2d_1317 (Separ (None, 4, 4, 32)          1344      
_________________________________________________________________
batch_normalization_850 (Bat (None, 4, 4, 32)          128       
_________________________________________________________________
activation_1433 (Activation) (None, 4, 4, 32)          0         
_________________________________________________________________
dropout_1433 (Dropout)       (None, 4, 4, 32)          0         
_________________________________________________________________
separable_conv2d_1318 (Separ (None, 4, 4, 256)         8736      
_________________________________________________________________
batch_normalization_851 (Bat (None, 4, 4, 256)         1024      
_________________________________________________________________
activation_1434 (Activation) (None, 4, 4, 256)         0         
_________________________________________________________________
dropout_1434 (Dropout)       (None, 4, 4, 256)         0         
_________________________________________________________________
flatten_113 (Flatten)        (None, 4096)              0         
_________________________________________________________________
dense_229 (Dense)            (None, 2048)              8390656   
_________________________________________________________________
batch_normalization_852 (Bat (None, 2048)              8192      
_________________________________________________________________
activation_1435 (Activation) (None, 2048)              0         
_________________________________________________________________
dropout_1435 (Dropout)       (None, 2048)              0         
_________________________________________________________________
dense_230 (Dense)            (None, 100)               204900    
=================================================================
Total params: 8,699,455
Trainable params: 8,692,799
Non-trainable params: 6,656
_________________________________________________________________
