Model: "sequential_345"
_________________________________________________________________
Layer (type)                 Output Shape              Param #   
=================================================================
separable_conv2d_3730 (Separ (None, 32, 32, 128)       539       
_________________________________________________________________
activation_4078 (Activation) (None, 32, 32, 128)       0         
_________________________________________________________________
dropout_4078 (Dropout)       (None, 32, 32, 128)       0         
_________________________________________________________________
separable_conv2d_3731 (Separ (None, 32, 32, 256)       34176     
_________________________________________________________________
batch_normalization_2344 (Ba (None, 32, 32, 256)       1024      
_________________________________________________________________
activation_4079 (Activation) (None, 32, 32, 256)       0         
_________________________________________________________________
dropout_4079 (Dropout)       (None, 32, 32, 256)       0         
_________________________________________________________________
separable_conv2d_3732 (Separ (None, 32, 32, 8)         4360      
_________________________________________________________________
activation_4080 (Activation) (None, 32, 32, 8)         0         
_________________________________________________________________
dropout_4080 (Dropout)       (None, 32, 32, 8)         0         
_________________________________________________________________
separable_conv2d_3733 (Separ (None, 32, 32, 64)        648       
_________________________________________________________________
activation_4081 (Activation) (None, 32, 32, 64)        0         
_________________________________________________________________
dropout_4081 (Dropout)       (None, 32, 32, 64)        0         
_________________________________________________________________
max_pooling2d_965 (MaxPoolin (None, 16, 16, 64)        0         
_________________________________________________________________
separable_conv2d_3734 (Separ (None, 16, 16, 16)        1616      
_________________________________________________________________
activation_4082 (Activation) (None, 16, 16, 16)        0         
_________________________________________________________________
dropout_4082 (Dropout)       (None, 16, 16, 16)        0         
_________________________________________________________________
separable_conv2d_3735 (Separ (None, 16, 16, 128)       2320      
_________________________________________________________________
batch_normalization_2345 (Ba (None, 16, 16, 128)       512       
_________________________________________________________________
activation_4083 (Activation) (None, 16, 16, 128)       0         
_________________________________________________________________
dropout_4083 (Dropout)       (None, 16, 16, 128)       0         
_________________________________________________________________
separable_conv2d_3736 (Separ (None, 16, 16, 64)        9408      
_________________________________________________________________
batch_normalization_2346 (Ba (None, 16, 16, 64)        256       
_________________________________________________________________
activation_4084 (Activation) (None, 16, 16, 64)        0         
_________________________________________________________________
dropout_4084 (Dropout)       (None, 16, 16, 64)        0         
_________________________________________________________________
separable_conv2d_3737 (Separ (None, 16, 16, 64)        4736      
_________________________________________________________________
batch_normalization_2347 (Ba (None, 16, 16, 64)        256       
_________________________________________________________________
activation_4085 (Activation) (None, 16, 16, 64)        0         
_________________________________________________________________
dropout_4085 (Dropout)       (None, 16, 16, 64)        0         
_________________________________________________________________
separable_conv2d_3738 (Separ (None, 16, 16, 512)       33856     
_________________________________________________________________
batch_normalization_2348 (Ba (None, 16, 16, 512)       2048      
_________________________________________________________________
activation_4086 (Activation) (None, 16, 16, 512)       0         
_________________________________________________________________
dropout_4086 (Dropout)       (None, 16, 16, 512)       0         
_________________________________________________________________
max_pooling2d_966 (MaxPoolin (None, 8, 8, 512)         0         
_________________________________________________________________
flatten_345 (Flatten)        (None, 32768)             0         
_________________________________________________________________
dense_693 (Dense)            (None, 2048)              67110912  
_________________________________________________________________
batch_normalization_2349 (Ba (None, 2048)              8192      
_________________________________________________________________
activation_4087 (Activation) (None, 2048)              0         
_________________________________________________________________
dropout_4087 (Dropout)       (None, 2048)              0         
_________________________________________________________________
dense_694 (Dense)            (None, 100)               204900    
=================================================================
Total params: 67,419,759
Trainable params: 67,413,615
Non-trainable params: 6,144
_________________________________________________________________
