Model: "sequential_13"
_________________________________________________________________
Layer (type)                 Output Shape              Param #   
=================================================================
separable_conv2d_144 (Separa (None, 32, 32, 1024)      4123      
_________________________________________________________________
batch_normalization_75 (Batc (None, 32, 32, 1024)      4096      
_________________________________________________________________
activation_157 (Activation)  (None, 32, 32, 1024)      0         
_________________________________________________________________
dropout_157 (Dropout)        (None, 32, 32, 1024)      0         
_________________________________________________________________
separable_conv2d_145 (Separa (None, 32, 32, 512)       534016    
_________________________________________________________________
batch_normalization_76 (Batc (None, 32, 32, 512)       2048      
_________________________________________________________________
activation_158 (Activation)  (None, 32, 32, 512)       0         
_________________________________________________________________
dropout_158 (Dropout)        (None, 32, 32, 512)       0         
_________________________________________________________________
separable_conv2d_146 (Separa (None, 32, 32, 8)         8712      
_________________________________________________________________
batch_normalization_77 (Batc (None, 32, 32, 8)         32        
_________________________________________________________________
activation_159 (Activation)  (None, 32, 32, 8)         0         
_________________________________________________________________
dropout_159 (Dropout)        (None, 32, 32, 8)         0         
_________________________________________________________________
max_pooling2d_30 (MaxPooling (None, 16, 16, 8)         0         
_________________________________________________________________
separable_conv2d_147 (Separa (None, 16, 16, 8)         144       
_________________________________________________________________
activation_160 (Activation)  (None, 16, 16, 8)         0         
_________________________________________________________________
dropout_160 (Dropout)        (None, 16, 16, 8)         0         
_________________________________________________________________
separable_conv2d_148 (Separa (None, 16, 16, 512)       4680      
_________________________________________________________________
batch_normalization_78 (Batc (None, 16, 16, 512)       2048      
_________________________________________________________________
activation_161 (Activation)  (None, 16, 16, 512)       0         
_________________________________________________________________
dropout_161 (Dropout)        (None, 16, 16, 512)       0         
_________________________________________________________________
separable_conv2d_149 (Separa (None, 16, 16, 128)       70272     
_________________________________________________________________
activation_162 (Activation)  (None, 16, 16, 128)       0         
_________________________________________________________________
dropout_162 (Dropout)        (None, 16, 16, 128)       0         
_________________________________________________________________
max_pooling2d_31 (MaxPooling (None, 8, 8, 128)         0         
_________________________________________________________________
separable_conv2d_150 (Separa (None, 8, 8, 64)          9408      
_________________________________________________________________
activation_163 (Activation)  (None, 8, 8, 64)          0         
_________________________________________________________________
dropout_163 (Dropout)        (None, 8, 8, 64)          0         
_________________________________________________________________
separable_conv2d_151 (Separa (None, 8, 8, 1024)        67136     
_________________________________________________________________
activation_164 (Activation)  (None, 8, 8, 1024)        0         
_________________________________________________________________
dropout_164 (Dropout)        (None, 8, 8, 1024)        0         
_________________________________________________________________
separable_conv2d_152 (Separa (None, 8, 8, 16)          25616     
_________________________________________________________________
batch_normalization_79 (Batc (None, 8, 8, 16)          64        
_________________________________________________________________
activation_165 (Activation)  (None, 8, 8, 16)          0         
_________________________________________________________________
dropout_165 (Dropout)        (None, 8, 8, 16)          0         
_________________________________________________________________
max_pooling2d_32 (MaxPooling (None, 4, 4, 16)          0         
_________________________________________________________________
separable_conv2d_153 (Separa (None, 4, 4, 64)          1232      
_________________________________________________________________
batch_normalization_80 (Batc (None, 4, 4, 64)          256       
_________________________________________________________________
activation_166 (Activation)  (None, 4, 4, 64)          0         
_________________________________________________________________
dropout_166 (Dropout)        (None, 4, 4, 64)          0         
_________________________________________________________________
separable_conv2d_154 (Separa (None, 4, 4, 64)          4736      
_________________________________________________________________
activation_167 (Activation)  (None, 4, 4, 64)          0         
_________________________________________________________________
dropout_167 (Dropout)        (None, 4, 4, 64)          0         
_________________________________________________________________
separable_conv2d_155 (Separa (None, 4, 4, 256)         17216     
_________________________________________________________________
batch_normalization_81 (Batc (None, 4, 4, 256)         1024      
_________________________________________________________________
activation_168 (Activation)  (None, 4, 4, 256)         0         
_________________________________________________________________
dropout_168 (Dropout)        (None, 4, 4, 256)         0         
_________________________________________________________________
separable_conv2d_156 (Separa (None, 4, 4, 256)         68096     
_________________________________________________________________
activation_169 (Activation)  (None, 4, 4, 256)         0         
_________________________________________________________________
dropout_169 (Dropout)        (None, 4, 4, 256)         0         
_________________________________________________________________
flatten_13 (Flatten)         (None, 4096)              0         
_________________________________________________________________
dense_26 (Dense)             (None, 512)               2097664   
_________________________________________________________________
batch_normalization_82 (Batc (None, 512)               2048      
_________________________________________________________________
activation_170 (Activation)  (None, 512)               0         
_________________________________________________________________
dropout_170 (Dropout)        (None, 512)               0         
_________________________________________________________________
dense_27 (Dense)             (None, 64)                32832     
_________________________________________________________________
activation_171 (Activation)  (None, 64)                0         
_________________________________________________________________
dropout_171 (Dropout)        (None, 64)                0         
_________________________________________________________________
dense_28 (Dense)             (None, 512)               33280     
_________________________________________________________________
activation_172 (Activation)  (None, 512)               0         
_________________________________________________________________
dropout_172 (Dropout)        (None, 512)               0         
_________________________________________________________________
dense_29 (Dense)             (None, 100)               51300     
=================================================================
Total params: 3,042,079
Trainable params: 3,036,271
Non-trainable params: 5,808
_________________________________________________________________
