Model: "sequential_110"
_________________________________________________________________
Layer (type)                 Output Shape              Param #   
=================================================================
separable_conv2d_1274 (Separ (None, 32, 32, 32)        155       
_________________________________________________________________
activation_1387 (Activation) (None, 32, 32, 32)        0         
_________________________________________________________________
dropout_1387 (Dropout)       (None, 32, 32, 32)        0         
_________________________________________________________________
separable_conv2d_1275 (Separ (None, 32, 32, 128)       4512      
_________________________________________________________________
batch_normalization_822 (Bat (None, 32, 32, 128)       512       
_________________________________________________________________
activation_1388 (Activation) (None, 32, 32, 128)       0         
_________________________________________________________________
dropout_1388 (Dropout)       (None, 32, 32, 128)       0         
_________________________________________________________________
separable_conv2d_1276 (Separ (None, 32, 32, 8)         2184      
_________________________________________________________________
activation_1389 (Activation) (None, 32, 32, 8)         0         
_________________________________________________________________
dropout_1389 (Dropout)       (None, 32, 32, 8)         0         
_________________________________________________________________
separable_conv2d_1277 (Separ (None, 32, 32, 64)        648       
_________________________________________________________________
activation_1390 (Activation) (None, 32, 32, 64)        0         
_________________________________________________________________
dropout_1390 (Dropout)       (None, 32, 32, 64)        0         
_________________________________________________________________
max_pooling2d_319 (MaxPoolin (None, 16, 16, 64)        0         
_________________________________________________________________
separable_conv2d_1278 (Separ (None, 16, 16, 8)         1096      
_________________________________________________________________
activation_1391 (Activation) (None, 16, 16, 8)         0         
_________________________________________________________________
dropout_1391 (Dropout)       (None, 16, 16, 8)         0         
_________________________________________________________________
separable_conv2d_1279 (Separ (None, 16, 16, 128)       1224      
_________________________________________________________________
batch_normalization_823 (Bat (None, 16, 16, 128)       512       
_________________________________________________________________
activation_1392 (Activation) (None, 16, 16, 128)       0         
_________________________________________________________________
dropout_1392 (Dropout)       (None, 16, 16, 128)       0         
_________________________________________________________________
separable_conv2d_1280 (Separ (None, 16, 16, 64)        9408      
_________________________________________________________________
batch_normalization_824 (Bat (None, 16, 16, 64)        256       
_________________________________________________________________
activation_1393 (Activation) (None, 16, 16, 64)        0         
_________________________________________________________________
dropout_1393 (Dropout)       (None, 16, 16, 64)        0         
_________________________________________________________________
separable_conv2d_1281 (Separ (None, 16, 16, 512)       33856     
_________________________________________________________________
batch_normalization_825 (Bat (None, 16, 16, 512)       2048      
_________________________________________________________________
activation_1394 (Activation) (None, 16, 16, 512)       0         
_________________________________________________________________
dropout_1394 (Dropout)       (None, 16, 16, 512)       0         
_________________________________________________________________
max_pooling2d_320 (MaxPoolin (None, 8, 8, 512)         0         
_________________________________________________________________
separable_conv2d_1282 (Separ (None, 8, 8, 32)          21024     
_________________________________________________________________
batch_normalization_826 (Bat (None, 8, 8, 32)          128       
_________________________________________________________________
activation_1395 (Activation) (None, 8, 8, 32)          0         
_________________________________________________________________
dropout_1395 (Dropout)       (None, 8, 8, 32)          0         
_________________________________________________________________
separable_conv2d_1283 (Separ (None, 8, 8, 128)         4512      
_________________________________________________________________
activation_1396 (Activation) (None, 8, 8, 128)         0         
_________________________________________________________________
dropout_1396 (Dropout)       (None, 8, 8, 128)         0         
_________________________________________________________________
separable_conv2d_1284 (Separ (None, 8, 8, 32)          5280      
_________________________________________________________________
batch_normalization_827 (Bat (None, 8, 8, 32)          128       
_________________________________________________________________
activation_1397 (Activation) (None, 8, 8, 32)          0         
_________________________________________________________________
dropout_1397 (Dropout)       (None, 8, 8, 32)          0         
_________________________________________________________________
separable_conv2d_1285 (Separ (None, 8, 8, 256)         8736      
_________________________________________________________________
batch_normalization_828 (Bat (None, 8, 8, 256)         1024      
_________________________________________________________________
activation_1398 (Activation) (None, 8, 8, 256)         0         
_________________________________________________________________
dropout_1398 (Dropout)       (None, 8, 8, 256)         0         
_________________________________________________________________
max_pooling2d_321 (MaxPoolin (None, 4, 4, 256)         0         
_________________________________________________________________
flatten_110 (Flatten)        (None, 4096)              0         
_________________________________________________________________
dense_223 (Dense)            (None, 2048)              8390656   
_________________________________________________________________
batch_normalization_829 (Bat (None, 2048)              8192      
_________________________________________________________________
activation_1399 (Activation) (None, 2048)              0         
_________________________________________________________________
dropout_1399 (Dropout)       (None, 2048)              0         
_________________________________________________________________
dense_224 (Dense)            (None, 100)               204900    
=================================================================
Total params: 8,700,991
Trainable params: 8,694,591
Non-trainable params: 6,400
_________________________________________________________________
