Model: "sequential_208"
_________________________________________________________________
Layer (type)                 Output Shape              Param #   
=================================================================
separable_conv2d_2344 (Separ (None, 32, 32, 32)        155       
_________________________________________________________________
activation_2555 (Activation) (None, 32, 32, 32)        0         
_________________________________________________________________
dropout_2555 (Dropout)       (None, 32, 32, 32)        0         
_________________________________________________________________
separable_conv2d_2345 (Separ (None, 32, 32, 256)       8736      
_________________________________________________________________
batch_normalization_1506 (Ba (None, 32, 32, 256)       1024      
_________________________________________________________________
activation_2556 (Activation) (None, 32, 32, 256)       0         
_________________________________________________________________
dropout_2556 (Dropout)       (None, 32, 32, 256)       0         
_________________________________________________________________
separable_conv2d_2346 (Separ (None, 32, 32, 8)         4360      
_________________________________________________________________
activation_2557 (Activation) (None, 32, 32, 8)         0         
_________________________________________________________________
dropout_2557 (Dropout)       (None, 32, 32, 8)         0         
_________________________________________________________________
separable_conv2d_2347 (Separ (None, 32, 32, 64)        648       
_________________________________________________________________
activation_2558 (Activation) (None, 32, 32, 64)        0         
_________________________________________________________________
dropout_2558 (Dropout)       (None, 32, 32, 64)        0         
_________________________________________________________________
max_pooling2d_609 (MaxPoolin (None, 16, 16, 64)        0         
_________________________________________________________________
separable_conv2d_2348 (Separ (None, 16, 16, 16)        1616      
_________________________________________________________________
activation_2559 (Activation) (None, 16, 16, 16)        0         
_________________________________________________________________
dropout_2559 (Dropout)       (None, 16, 16, 16)        0         
_________________________________________________________________
separable_conv2d_2349 (Separ (None, 16, 16, 256)       4496      
_________________________________________________________________
batch_normalization_1507 (Ba (None, 16, 16, 256)       1024      
_________________________________________________________________
activation_2560 (Activation) (None, 16, 16, 256)       0         
_________________________________________________________________
dropout_2560 (Dropout)       (None, 16, 16, 256)       0         
_________________________________________________________________
separable_conv2d_2350 (Separ (None, 16, 16, 64)        18752     
_________________________________________________________________
batch_normalization_1508 (Ba (None, 16, 16, 64)        256       
_________________________________________________________________
activation_2561 (Activation) (None, 16, 16, 64)        0         
_________________________________________________________________
dropout_2561 (Dropout)       (None, 16, 16, 64)        0         
_________________________________________________________________
separable_conv2d_2351 (Separ (None, 16, 16, 512)       33856     
_________________________________________________________________
batch_normalization_1509 (Ba (None, 16, 16, 512)       2048      
_________________________________________________________________
activation_2562 (Activation) (None, 16, 16, 512)       0         
_________________________________________________________________
dropout_2562 (Dropout)       (None, 16, 16, 512)       0         
_________________________________________________________________
max_pooling2d_610 (MaxPoolin (None, 8, 8, 512)         0         
_________________________________________________________________
separable_conv2d_2352 (Separ (None, 8, 8, 128)         70272     
_________________________________________________________________
activation_2563 (Activation) (None, 8, 8, 128)         0         
_________________________________________________________________
dropout_2563 (Dropout)       (None, 8, 8, 128)         0         
_________________________________________________________________
separable_conv2d_2353 (Separ (None, 8, 8, 32)          5280      
_________________________________________________________________
batch_normalization_1510 (Ba (None, 8, 8, 32)          128       
_________________________________________________________________
activation_2564 (Activation) (None, 8, 8, 32)          0         
_________________________________________________________________
dropout_2564 (Dropout)       (None, 8, 8, 32)          0         
_________________________________________________________________
separable_conv2d_2354 (Separ (None, 8, 8, 256)         8736      
_________________________________________________________________
batch_normalization_1511 (Ba (None, 8, 8, 256)         1024      
_________________________________________________________________
activation_2565 (Activation) (None, 8, 8, 256)         0         
_________________________________________________________________
dropout_2565 (Dropout)       (None, 8, 8, 256)         0         
_________________________________________________________________
max_pooling2d_611 (MaxPoolin (None, 4, 4, 256)         0         
_________________________________________________________________
flatten_208 (Flatten)        (None, 4096)              0         
_________________________________________________________________
dense_419 (Dense)            (None, 2048)              8390656   
_________________________________________________________________
batch_normalization_1512 (Ba (None, 2048)              8192      
_________________________________________________________________
activation_2566 (Activation) (None, 2048)              0         
_________________________________________________________________
dropout_2566 (Dropout)       (None, 2048)              0         
_________________________________________________________________
dense_420 (Dense)            (None, 100)               204900    
=================================================================
Total params: 8,766,159
Trainable params: 8,759,311
Non-trainable params: 6,848
_________________________________________________________________
