Model: "sequential_193"
_________________________________________________________________
Layer (type)                 Output Shape              Param #   
=================================================================
separable_conv2d_2185 (Separ (None, 32, 32, 32)        155       
_________________________________________________________________
activation_2381 (Activation) (None, 32, 32, 32)        0         
_________________________________________________________________
dropout_2381 (Dropout)       (None, 32, 32, 32)        0         
_________________________________________________________________
separable_conv2d_2186 (Separ (None, 32, 32, 256)       8736      
_________________________________________________________________
batch_normalization_1410 (Ba (None, 32, 32, 256)       1024      
_________________________________________________________________
activation_2382 (Activation) (None, 32, 32, 256)       0         
_________________________________________________________________
dropout_2382 (Dropout)       (None, 32, 32, 256)       0         
_________________________________________________________________
separable_conv2d_2187 (Separ (None, 32, 32, 8)         4360      
_________________________________________________________________
activation_2383 (Activation) (None, 32, 32, 8)         0         
_________________________________________________________________
dropout_2383 (Dropout)       (None, 32, 32, 8)         0         
_________________________________________________________________
separable_conv2d_2188 (Separ (None, 32, 32, 64)        648       
_________________________________________________________________
activation_2384 (Activation) (None, 32, 32, 64)        0         
_________________________________________________________________
dropout_2384 (Dropout)       (None, 32, 32, 64)        0         
_________________________________________________________________
max_pooling2d_566 (MaxPoolin (None, 16, 16, 64)        0         
_________________________________________________________________
separable_conv2d_2189 (Separ (None, 16, 16, 16)        1616      
_________________________________________________________________
activation_2385 (Activation) (None, 16, 16, 16)        0         
_________________________________________________________________
dropout_2385 (Dropout)       (None, 16, 16, 16)        0         
_________________________________________________________________
separable_conv2d_2190 (Separ (None, 16, 16, 128)       2320      
_________________________________________________________________
batch_normalization_1411 (Ba (None, 16, 16, 128)       512       
_________________________________________________________________
activation_2386 (Activation) (None, 16, 16, 128)       0         
_________________________________________________________________
dropout_2386 (Dropout)       (None, 16, 16, 128)       0         
_________________________________________________________________
separable_conv2d_2191 (Separ (None, 16, 16, 64)        9408      
_________________________________________________________________
batch_normalization_1412 (Ba (None, 16, 16, 64)        256       
_________________________________________________________________
activation_2387 (Activation) (None, 16, 16, 64)        0         
_________________________________________________________________
dropout_2387 (Dropout)       (None, 16, 16, 64)        0         
_________________________________________________________________
separable_conv2d_2192 (Separ (None, 16, 16, 512)       33856     
_________________________________________________________________
batch_normalization_1413 (Ba (None, 16, 16, 512)       2048      
_________________________________________________________________
activation_2388 (Activation) (None, 16, 16, 512)       0         
_________________________________________________________________
dropout_2388 (Dropout)       (None, 16, 16, 512)       0         
_________________________________________________________________
max_pooling2d_567 (MaxPoolin (None, 8, 8, 512)         0         
_________________________________________________________________
separable_conv2d_2193 (Separ (None, 8, 8, 128)         70272     
_________________________________________________________________
activation_2389 (Activation) (None, 8, 8, 128)         0         
_________________________________________________________________
dropout_2389 (Dropout)       (None, 8, 8, 128)         0         
_________________________________________________________________
separable_conv2d_2194 (Separ (None, 8, 8, 32)          5280      
_________________________________________________________________
activation_2390 (Activation) (None, 8, 8, 32)          0         
_________________________________________________________________
dropout_2390 (Dropout)       (None, 8, 8, 32)          0         
_________________________________________________________________
separable_conv2d_2195 (Separ (None, 8, 8, 256)         8736      
_________________________________________________________________
batch_normalization_1414 (Ba (None, 8, 8, 256)         1024      
_________________________________________________________________
activation_2391 (Activation) (None, 8, 8, 256)         0         
_________________________________________________________________
dropout_2391 (Dropout)       (None, 8, 8, 256)         0         
_________________________________________________________________
max_pooling2d_568 (MaxPoolin (None, 4, 4, 256)         0         
_________________________________________________________________
flatten_193 (Flatten)        (None, 4096)              0         
_________________________________________________________________
dense_389 (Dense)            (None, 2048)              8390656   
_________________________________________________________________
batch_normalization_1415 (Ba (None, 2048)              8192      
_________________________________________________________________
activation_2392 (Activation) (None, 2048)              0         
_________________________________________________________________
dropout_2392 (Dropout)       (None, 2048)              0         
_________________________________________________________________
dense_390 (Dense)            (None, 100)               204900    
=================================================================
Total params: 8,753,999
Trainable params: 8,747,471
Non-trainable params: 6,528
_________________________________________________________________
