Model: "sequential_295"
_________________________________________________________________
Layer (type)                 Output Shape              Param #   
=================================================================
separable_conv2d_3252 (Separ (None, 32, 32, 32)        155       
_________________________________________________________________
activation_3550 (Activation) (None, 32, 32, 32)        0         
_________________________________________________________________
dropout_3550 (Dropout)       (None, 32, 32, 32)        0         
_________________________________________________________________
separable_conv2d_3253 (Separ (None, 32, 32, 256)       8736      
_________________________________________________________________
batch_normalization_2071 (Ba (None, 32, 32, 256)       1024      
_________________________________________________________________
activation_3551 (Activation) (None, 32, 32, 256)       0         
_________________________________________________________________
dropout_3551 (Dropout)       (None, 32, 32, 256)       0         
_________________________________________________________________
separable_conv2d_3254 (Separ (None, 32, 32, 8)         4360      
_________________________________________________________________
activation_3552 (Activation) (None, 32, 32, 8)         0         
_________________________________________________________________
dropout_3552 (Dropout)       (None, 32, 32, 8)         0         
_________________________________________________________________
separable_conv2d_3255 (Separ (None, 32, 32, 64)        648       
_________________________________________________________________
activation_3553 (Activation) (None, 32, 32, 64)        0         
_________________________________________________________________
dropout_3553 (Dropout)       (None, 32, 32, 64)        0         
_________________________________________________________________
max_pooling2d_850 (MaxPoolin (None, 16, 16, 64)        0         
_________________________________________________________________
separable_conv2d_3256 (Separ (None, 16, 16, 256)       17216     
_________________________________________________________________
batch_normalization_2072 (Ba (None, 16, 16, 256)       1024      
_________________________________________________________________
activation_3554 (Activation) (None, 16, 16, 256)       0         
_________________________________________________________________
dropout_3554 (Dropout)       (None, 16, 16, 256)       0         
_________________________________________________________________
separable_conv2d_3257 (Separ (None, 16, 16, 512)       133888    
_________________________________________________________________
batch_normalization_2073 (Ba (None, 16, 16, 512)       2048      
_________________________________________________________________
activation_3555 (Activation) (None, 16, 16, 512)       0         
_________________________________________________________________
dropout_3555 (Dropout)       (None, 16, 16, 512)       0         
_________________________________________________________________
max_pooling2d_851 (MaxPoolin (None, 8, 8, 512)         0         
_________________________________________________________________
separable_conv2d_3258 (Separ (None, 8, 8, 128)         70272     
_________________________________________________________________
activation_3556 (Activation) (None, 8, 8, 128)         0         
_________________________________________________________________
dropout_3556 (Dropout)       (None, 8, 8, 128)         0         
_________________________________________________________________
separable_conv2d_3259 (Separ (None, 8, 8, 64)          9408      
_________________________________________________________________
batch_normalization_2074 (Ba (None, 8, 8, 64)          256       
_________________________________________________________________
activation_3557 (Activation) (None, 8, 8, 64)          0         
_________________________________________________________________
dropout_3557 (Dropout)       (None, 8, 8, 64)          0         
_________________________________________________________________
separable_conv2d_3260 (Separ (None, 8, 8, 512)         33856     
_________________________________________________________________
batch_normalization_2075 (Ba (None, 8, 8, 512)         2048      
_________________________________________________________________
activation_3558 (Activation) (None, 8, 8, 512)         0         
_________________________________________________________________
dropout_3558 (Dropout)       (None, 8, 8, 512)         0         
_________________________________________________________________
max_pooling2d_852 (MaxPoolin (None, 4, 4, 512)         0         
_________________________________________________________________
flatten_295 (Flatten)        (None, 8192)              0         
_________________________________________________________________
dense_593 (Dense)            (None, 2048)              16779264  
_________________________________________________________________
batch_normalization_2076 (Ba (None, 2048)              8192      
_________________________________________________________________
activation_3559 (Activation) (None, 2048)              0         
_________________________________________________________________
dropout_3559 (Dropout)       (None, 2048)              0         
_________________________________________________________________
dense_594 (Dense)            (None, 100)               204900    
=================================================================
Total params: 17,277,295
Trainable params: 17,269,999
Non-trainable params: 7,296
_________________________________________________________________
