Model: "sequential_80"
_________________________________________________________________
Layer (type)                 Output Shape              Param #   
=================================================================
separable_conv2d_928 (Separa (None, 32, 32, 32)        155       
_________________________________________________________________
activation_1011 (Activation) (None, 32, 32, 32)        0         
_________________________________________________________________
dropout_1011 (Dropout)       (None, 32, 32, 32)        0         
_________________________________________________________________
separable_conv2d_929 (Separa (None, 32, 32, 128)       4512      
_________________________________________________________________
batch_normalization_587 (Bat (None, 32, 32, 128)       512       
_________________________________________________________________
activation_1012 (Activation) (None, 32, 32, 128)       0         
_________________________________________________________________
dropout_1012 (Dropout)       (None, 32, 32, 128)       0         
_________________________________________________________________
separable_conv2d_930 (Separa (None, 32, 32, 8)         2184      
_________________________________________________________________
batch_normalization_588 (Bat (None, 32, 32, 8)         32        
_________________________________________________________________
activation_1013 (Activation) (None, 32, 32, 8)         0         
_________________________________________________________________
dropout_1013 (Dropout)       (None, 32, 32, 8)         0         
_________________________________________________________________
separable_conv2d_931 (Separa (None, 32, 32, 64)        648       
_________________________________________________________________
activation_1014 (Activation) (None, 32, 32, 64)        0         
_________________________________________________________________
dropout_1014 (Dropout)       (None, 32, 32, 64)        0         
_________________________________________________________________
max_pooling2d_229 (MaxPoolin (None, 16, 16, 64)        0         
_________________________________________________________________
separable_conv2d_932 (Separa (None, 16, 16, 8)         1096      
_________________________________________________________________
activation_1015 (Activation) (None, 16, 16, 8)         0         
_________________________________________________________________
dropout_1015 (Dropout)       (None, 16, 16, 8)         0         
_________________________________________________________________
separable_conv2d_933 (Separa (None, 16, 16, 128)       1224      
_________________________________________________________________
batch_normalization_589 (Bat (None, 16, 16, 128)       512       
_________________________________________________________________
activation_1016 (Activation) (None, 16, 16, 128)       0         
_________________________________________________________________
dropout_1016 (Dropout)       (None, 16, 16, 128)       0         
_________________________________________________________________
separable_conv2d_934 (Separa (None, 16, 16, 64)        9408      
_________________________________________________________________
batch_normalization_590 (Bat (None, 16, 16, 64)        256       
_________________________________________________________________
activation_1017 (Activation) (None, 16, 16, 64)        0         
_________________________________________________________________
dropout_1017 (Dropout)       (None, 16, 16, 64)        0         
_________________________________________________________________
separable_conv2d_935 (Separa (None, 16, 16, 512)       33856     
_________________________________________________________________
batch_normalization_591 (Bat (None, 16, 16, 512)       2048      
_________________________________________________________________
activation_1018 (Activation) (None, 16, 16, 512)       0         
_________________________________________________________________
dropout_1018 (Dropout)       (None, 16, 16, 512)       0         
_________________________________________________________________
max_pooling2d_230 (MaxPoolin (None, 8, 8, 512)         0         
_________________________________________________________________
separable_conv2d_936 (Separa (None, 8, 8, 32)          21024     
_________________________________________________________________
batch_normalization_592 (Bat (None, 8, 8, 32)          128       
_________________________________________________________________
activation_1019 (Activation) (None, 8, 8, 32)          0         
_________________________________________________________________
dropout_1019 (Dropout)       (None, 8, 8, 32)          0         
_________________________________________________________________
max_pooling2d_231 (MaxPoolin (None, 4, 4, 32)          0         
_________________________________________________________________
separable_conv2d_937 (Separa (None, 4, 4, 128)         4512      
_________________________________________________________________
activation_1020 (Activation) (None, 4, 4, 128)         0         
_________________________________________________________________
dropout_1020 (Dropout)       (None, 4, 4, 128)         0         
_________________________________________________________________
separable_conv2d_938 (Separa (None, 4, 4, 32)          5280      
_________________________________________________________________
batch_normalization_593 (Bat (None, 4, 4, 32)          128       
_________________________________________________________________
activation_1021 (Activation) (None, 4, 4, 32)          0         
_________________________________________________________________
dropout_1021 (Dropout)       (None, 4, 4, 32)          0         
_________________________________________________________________
separable_conv2d_939 (Separa (None, 4, 4, 256)         8736      
_________________________________________________________________
batch_normalization_594 (Bat (None, 4, 4, 256)         1024      
_________________________________________________________________
activation_1022 (Activation) (None, 4, 4, 256)         0         
_________________________________________________________________
dropout_1022 (Dropout)       (None, 4, 4, 256)         0         
_________________________________________________________________
flatten_80 (Flatten)         (None, 4096)              0         
_________________________________________________________________
dense_163 (Dense)            (None, 2048)              8390656   
_________________________________________________________________
batch_normalization_595 (Bat (None, 2048)              8192      
_________________________________________________________________
activation_1023 (Activation) (None, 2048)              0         
_________________________________________________________________
dropout_1023 (Dropout)       (None, 2048)              0         
_________________________________________________________________
dense_164 (Dense)            (None, 100)               204900    
=================================================================
Total params: 8,701,023
Trainable params: 8,694,607
Non-trainable params: 6,416
_________________________________________________________________
