Model: "sequential_214"
_________________________________________________________________
Layer (type)                 Output Shape              Param #   
=================================================================
separable_conv2d_2410 (Separ (None, 32, 32, 32)        155       
_________________________________________________________________
activation_2627 (Activation) (None, 32, 32, 32)        0         
_________________________________________________________________
dropout_2627 (Dropout)       (None, 32, 32, 32)        0         
_________________________________________________________________
separable_conv2d_2411 (Separ (None, 32, 32, 256)       8736      
_________________________________________________________________
batch_normalization_1546 (Ba (None, 32, 32, 256)       1024      
_________________________________________________________________
activation_2628 (Activation) (None, 32, 32, 256)       0         
_________________________________________________________________
dropout_2628 (Dropout)       (None, 32, 32, 256)       0         
_________________________________________________________________
separable_conv2d_2412 (Separ (None, 32, 32, 8)         4360      
_________________________________________________________________
activation_2629 (Activation) (None, 32, 32, 8)         0         
_________________________________________________________________
dropout_2629 (Dropout)       (None, 32, 32, 8)         0         
_________________________________________________________________
separable_conv2d_2413 (Separ (None, 32, 32, 64)        648       
_________________________________________________________________
activation_2630 (Activation) (None, 32, 32, 64)        0         
_________________________________________________________________
dropout_2630 (Dropout)       (None, 32, 32, 64)        0         
_________________________________________________________________
max_pooling2d_627 (MaxPoolin (None, 16, 16, 64)        0         
_________________________________________________________________
separable_conv2d_2414 (Separ (None, 16, 16, 16)        1616      
_________________________________________________________________
activation_2631 (Activation) (None, 16, 16, 16)        0         
_________________________________________________________________
dropout_2631 (Dropout)       (None, 16, 16, 16)        0         
_________________________________________________________________
separable_conv2d_2415 (Separ (None, 16, 16, 256)       4496      
_________________________________________________________________
batch_normalization_1547 (Ba (None, 16, 16, 256)       1024      
_________________________________________________________________
activation_2632 (Activation) (None, 16, 16, 256)       0         
_________________________________________________________________
dropout_2632 (Dropout)       (None, 16, 16, 256)       0         
_________________________________________________________________
separable_conv2d_2416 (Separ (None, 16, 16, 64)        18752     
_________________________________________________________________
batch_normalization_1548 (Ba (None, 16, 16, 64)        256       
_________________________________________________________________
activation_2633 (Activation) (None, 16, 16, 64)        0         
_________________________________________________________________
dropout_2633 (Dropout)       (None, 16, 16, 64)        0         
_________________________________________________________________
separable_conv2d_2417 (Separ (None, 16, 16, 512)       33856     
_________________________________________________________________
batch_normalization_1549 (Ba (None, 16, 16, 512)       2048      
_________________________________________________________________
activation_2634 (Activation) (None, 16, 16, 512)       0         
_________________________________________________________________
dropout_2634 (Dropout)       (None, 16, 16, 512)       0         
_________________________________________________________________
max_pooling2d_628 (MaxPoolin (None, 8, 8, 512)         0         
_________________________________________________________________
separable_conv2d_2418 (Separ (None, 8, 8, 128)         70272     
_________________________________________________________________
activation_2635 (Activation) (None, 8, 8, 128)         0         
_________________________________________________________________
dropout_2635 (Dropout)       (None, 8, 8, 128)         0         
_________________________________________________________________
separable_conv2d_2419 (Separ (None, 8, 8, 32)          5280      
_________________________________________________________________
batch_normalization_1550 (Ba (None, 8, 8, 32)          128       
_________________________________________________________________
activation_2636 (Activation) (None, 8, 8, 32)          0         
_________________________________________________________________
dropout_2636 (Dropout)       (None, 8, 8, 32)          0         
_________________________________________________________________
separable_conv2d_2420 (Separ (None, 8, 8, 256)         8736      
_________________________________________________________________
batch_normalization_1551 (Ba (None, 8, 8, 256)         1024      
_________________________________________________________________
activation_2637 (Activation) (None, 8, 8, 256)         0         
_________________________________________________________________
dropout_2637 (Dropout)       (None, 8, 8, 256)         0         
_________________________________________________________________
max_pooling2d_629 (MaxPoolin (None, 4, 4, 256)         0         
_________________________________________________________________
flatten_214 (Flatten)        (None, 4096)              0         
_________________________________________________________________
dense_431 (Dense)            (None, 2048)              8390656   
_________________________________________________________________
batch_normalization_1552 (Ba (None, 2048)              8192      
_________________________________________________________________
activation_2638 (Activation) (None, 2048)              0         
_________________________________________________________________
dropout_2638 (Dropout)       (None, 2048)              0         
_________________________________________________________________
dense_432 (Dense)            (None, 100)               204900    
=================================================================
Total params: 8,766,159
Trainable params: 8,759,311
Non-trainable params: 6,848
_________________________________________________________________
