Model: "sequential_54"
_________________________________________________________________
Layer (type)                 Output Shape              Param #   
=================================================================
separable_conv2d_623 (Separa (None, 32, 32, 32)        155       
_________________________________________________________________
activation_680 (Activation)  (None, 32, 32, 32)        0         
_________________________________________________________________
dropout_680 (Dropout)        (None, 32, 32, 32)        0         
_________________________________________________________________
separable_conv2d_624 (Separa (None, 32, 32, 128)       4512      
_________________________________________________________________
batch_normalization_383 (Bat (None, 32, 32, 128)       512       
_________________________________________________________________
activation_681 (Activation)  (None, 32, 32, 128)       0         
_________________________________________________________________
dropout_681 (Dropout)        (None, 32, 32, 128)       0         
_________________________________________________________________
separable_conv2d_625 (Separa (None, 32, 32, 8)         2184      
_________________________________________________________________
activation_682 (Activation)  (None, 32, 32, 8)         0         
_________________________________________________________________
dropout_682 (Dropout)        (None, 32, 32, 8)         0         
_________________________________________________________________
separable_conv2d_626 (Separa (None, 32, 32, 64)        648       
_________________________________________________________________
activation_683 (Activation)  (None, 32, 32, 64)        0         
_________________________________________________________________
dropout_683 (Dropout)        (None, 32, 32, 64)        0         
_________________________________________________________________
max_pooling2d_151 (MaxPoolin (None, 16, 16, 64)        0         
_________________________________________________________________
separable_conv2d_627 (Separa (None, 16, 16, 8)         1096      
_________________________________________________________________
activation_684 (Activation)  (None, 16, 16, 8)         0         
_________________________________________________________________
dropout_684 (Dropout)        (None, 16, 16, 8)         0         
_________________________________________________________________
separable_conv2d_628 (Separa (None, 16, 16, 128)       1224      
_________________________________________________________________
batch_normalization_384 (Bat (None, 16, 16, 128)       512       
_________________________________________________________________
activation_685 (Activation)  (None, 16, 16, 128)       0         
_________________________________________________________________
dropout_685 (Dropout)        (None, 16, 16, 128)       0         
_________________________________________________________________
separable_conv2d_629 (Separa (None, 16, 16, 64)        9408      
_________________________________________________________________
batch_normalization_385 (Bat (None, 16, 16, 64)        256       
_________________________________________________________________
activation_686 (Activation)  (None, 16, 16, 64)        0         
_________________________________________________________________
dropout_686 (Dropout)        (None, 16, 16, 64)        0         
_________________________________________________________________
separable_conv2d_630 (Separa (None, 16, 16, 512)       33856     
_________________________________________________________________
batch_normalization_386 (Bat (None, 16, 16, 512)       2048      
_________________________________________________________________
activation_687 (Activation)  (None, 16, 16, 512)       0         
_________________________________________________________________
dropout_687 (Dropout)        (None, 16, 16, 512)       0         
_________________________________________________________________
max_pooling2d_152 (MaxPoolin (None, 8, 8, 512)         0         
_________________________________________________________________
separable_conv2d_631 (Separa (None, 8, 8, 32)          21024     
_________________________________________________________________
batch_normalization_387 (Bat (None, 8, 8, 32)          128       
_________________________________________________________________
activation_688 (Activation)  (None, 8, 8, 32)          0         
_________________________________________________________________
dropout_688 (Dropout)        (None, 8, 8, 32)          0         
_________________________________________________________________
max_pooling2d_153 (MaxPoolin (None, 4, 4, 32)          0         
_________________________________________________________________
separable_conv2d_632 (Separa (None, 4, 4, 128)         4512      
_________________________________________________________________
activation_689 (Activation)  (None, 4, 4, 128)         0         
_________________________________________________________________
dropout_689 (Dropout)        (None, 4, 4, 128)         0         
_________________________________________________________________
separable_conv2d_633 (Separa (None, 4, 4, 32)          5280      
_________________________________________________________________
batch_normalization_388 (Bat (None, 4, 4, 32)          128       
_________________________________________________________________
activation_690 (Activation)  (None, 4, 4, 32)          0         
_________________________________________________________________
dropout_690 (Dropout)        (None, 4, 4, 32)          0         
_________________________________________________________________
separable_conv2d_634 (Separa (None, 4, 4, 256)         8736      
_________________________________________________________________
batch_normalization_389 (Bat (None, 4, 4, 256)         1024      
_________________________________________________________________
activation_691 (Activation)  (None, 4, 4, 256)         0         
_________________________________________________________________
dropout_691 (Dropout)        (None, 4, 4, 256)         0         
_________________________________________________________________
flatten_54 (Flatten)         (None, 4096)              0         
_________________________________________________________________
dense_111 (Dense)            (None, 2048)              8390656   
_________________________________________________________________
batch_normalization_390 (Bat (None, 2048)              8192      
_________________________________________________________________
activation_692 (Activation)  (None, 2048)              0         
_________________________________________________________________
dropout_692 (Dropout)        (None, 2048)              0         
_________________________________________________________________
dense_112 (Dense)            (None, 100)               204900    
=================================================================
Total params: 8,700,991
Trainable params: 8,694,591
Non-trainable params: 6,400
_________________________________________________________________
