Model: "sequential_348"
_________________________________________________________________
Layer (type)                 Output Shape              Param #   
=================================================================
separable_conv2d_3759 (Separ (None, 32, 32, 32)        155       
_________________________________________________________________
activation_4110 (Activation) (None, 32, 32, 32)        0         
_________________________________________________________________
dropout_4110 (Dropout)       (None, 32, 32, 32)        0         
_________________________________________________________________
separable_conv2d_3760 (Separ (None, 32, 32, 256)       8736      
_________________________________________________________________
batch_normalization_2363 (Ba (None, 32, 32, 256)       1024      
_________________________________________________________________
activation_4111 (Activation) (None, 32, 32, 256)       0         
_________________________________________________________________
dropout_4111 (Dropout)       (None, 32, 32, 256)       0         
_________________________________________________________________
separable_conv2d_3761 (Separ (None, 32, 32, 8)         4360      
_________________________________________________________________
activation_4112 (Activation) (None, 32, 32, 8)         0         
_________________________________________________________________
dropout_4112 (Dropout)       (None, 32, 32, 8)         0         
_________________________________________________________________
separable_conv2d_3762 (Separ (None, 32, 32, 64)        648       
_________________________________________________________________
activation_4113 (Activation) (None, 32, 32, 64)        0         
_________________________________________________________________
dropout_4113 (Dropout)       (None, 32, 32, 64)        0         
_________________________________________________________________
max_pooling2d_972 (MaxPoolin (None, 16, 16, 64)        0         
_________________________________________________________________
separable_conv2d_3763 (Separ (None, 16, 16, 16)        1616      
_________________________________________________________________
activation_4114 (Activation) (None, 16, 16, 16)        0         
_________________________________________________________________
dropout_4114 (Dropout)       (None, 16, 16, 16)        0         
_________________________________________________________________
separable_conv2d_3764 (Separ (None, 16, 16, 128)       2320      
_________________________________________________________________
batch_normalization_2364 (Ba (None, 16, 16, 128)       512       
_________________________________________________________________
activation_4115 (Activation) (None, 16, 16, 128)       0         
_________________________________________________________________
dropout_4115 (Dropout)       (None, 16, 16, 128)       0         
_________________________________________________________________
separable_conv2d_3765 (Separ (None, 16, 16, 64)        9408      
_________________________________________________________________
batch_normalization_2365 (Ba (None, 16, 16, 64)        256       
_________________________________________________________________
activation_4116 (Activation) (None, 16, 16, 64)        0         
_________________________________________________________________
dropout_4116 (Dropout)       (None, 16, 16, 64)        0         
_________________________________________________________________
max_pooling2d_973 (MaxPoolin (None, 8, 8, 64)          0         
_________________________________________________________________
separable_conv2d_3766 (Separ (None, 8, 8, 32)          2656      
_________________________________________________________________
activation_4117 (Activation) (None, 8, 8, 32)          0         
_________________________________________________________________
dropout_4117 (Dropout)       (None, 8, 8, 32)          0         
_________________________________________________________________
separable_conv2d_3767 (Separ (None, 8, 8, 256)         8736      
_________________________________________________________________
batch_normalization_2366 (Ba (None, 8, 8, 256)         1024      
_________________________________________________________________
activation_4118 (Activation) (None, 8, 8, 256)         0         
_________________________________________________________________
dropout_4118 (Dropout)       (None, 8, 8, 256)         0         
_________________________________________________________________
max_pooling2d_974 (MaxPoolin (None, 4, 4, 256)         0         
_________________________________________________________________
flatten_348 (Flatten)        (None, 4096)              0         
_________________________________________________________________
dense_699 (Dense)            (None, 2048)              8390656   
_________________________________________________________________
batch_normalization_2367 (Ba (None, 2048)              8192      
_________________________________________________________________
activation_4119 (Activation) (None, 2048)              0         
_________________________________________________________________
dropout_4119 (Dropout)       (None, 2048)              0         
_________________________________________________________________
dense_700 (Dense)            (None, 100)               204900    
=================================================================
Total params: 8,645,199
Trainable params: 8,639,695
Non-trainable params: 5,504
_________________________________________________________________
