Model: "sequential_217"
_________________________________________________________________
Layer (type)                 Output Shape              Param #   
=================================================================
separable_conv2d_2443 (Separ (None, 32, 32, 32)        155       
_________________________________________________________________
activation_2663 (Activation) (None, 32, 32, 32)        0         
_________________________________________________________________
dropout_2663 (Dropout)       (None, 32, 32, 32)        0         
_________________________________________________________________
separable_conv2d_2444 (Separ (None, 32, 32, 256)       8736      
_________________________________________________________________
batch_normalization_1566 (Ba (None, 32, 32, 256)       1024      
_________________________________________________________________
activation_2664 (Activation) (None, 32, 32, 256)       0         
_________________________________________________________________
dropout_2664 (Dropout)       (None, 32, 32, 256)       0         
_________________________________________________________________
separable_conv2d_2445 (Separ (None, 32, 32, 8)         4360      
_________________________________________________________________
activation_2665 (Activation) (None, 32, 32, 8)         0         
_________________________________________________________________
dropout_2665 (Dropout)       (None, 32, 32, 8)         0         
_________________________________________________________________
separable_conv2d_2446 (Separ (None, 32, 32, 256)       2376      
_________________________________________________________________
activation_2666 (Activation) (None, 32, 32, 256)       0         
_________________________________________________________________
dropout_2666 (Dropout)       (None, 32, 32, 256)       0         
_________________________________________________________________
max_pooling2d_636 (MaxPoolin (None, 16, 16, 256)       0         
_________________________________________________________________
separable_conv2d_2447 (Separ (None, 16, 16, 8)         4360      
_________________________________________________________________
activation_2667 (Activation) (None, 16, 16, 8)         0         
_________________________________________________________________
dropout_2667 (Dropout)       (None, 16, 16, 8)         0         
_________________________________________________________________
separable_conv2d_2448 (Separ (None, 16, 16, 128)       1224      
_________________________________________________________________
batch_normalization_1567 (Ba (None, 16, 16, 128)       512       
_________________________________________________________________
activation_2668 (Activation) (None, 16, 16, 128)       0         
_________________________________________________________________
dropout_2668 (Dropout)       (None, 16, 16, 128)       0         
_________________________________________________________________
separable_conv2d_2449 (Separ (None, 16, 16, 64)        9408      
_________________________________________________________________
batch_normalization_1568 (Ba (None, 16, 16, 64)        256       
_________________________________________________________________
activation_2669 (Activation) (None, 16, 16, 64)        0         
_________________________________________________________________
dropout_2669 (Dropout)       (None, 16, 16, 64)        0         
_________________________________________________________________
separable_conv2d_2450 (Separ (None, 16, 16, 512)       33856     
_________________________________________________________________
batch_normalization_1569 (Ba (None, 16, 16, 512)       2048      
_________________________________________________________________
activation_2670 (Activation) (None, 16, 16, 512)       0         
_________________________________________________________________
dropout_2670 (Dropout)       (None, 16, 16, 512)       0         
_________________________________________________________________
max_pooling2d_637 (MaxPoolin (None, 8, 8, 512)         0         
_________________________________________________________________
separable_conv2d_2451 (Separ (None, 8, 8, 128)         70272     
_________________________________________________________________
activation_2671 (Activation) (None, 8, 8, 128)         0         
_________________________________________________________________
dropout_2671 (Dropout)       (None, 8, 8, 128)         0         
_________________________________________________________________
separable_conv2d_2452 (Separ (None, 8, 8, 32)          5280      
_________________________________________________________________
activation_2672 (Activation) (None, 8, 8, 32)          0         
_________________________________________________________________
dropout_2672 (Dropout)       (None, 8, 8, 32)          0         
_________________________________________________________________
separable_conv2d_2453 (Separ (None, 8, 8, 256)         8736      
_________________________________________________________________
batch_normalization_1570 (Ba (None, 8, 8, 256)         1024      
_________________________________________________________________
activation_2673 (Activation) (None, 8, 8, 256)         0         
_________________________________________________________________
dropout_2673 (Dropout)       (None, 8, 8, 256)         0         
_________________________________________________________________
max_pooling2d_638 (MaxPoolin (None, 4, 4, 256)         0         
_________________________________________________________________
flatten_217 (Flatten)        (None, 4096)              0         
_________________________________________________________________
dense_437 (Dense)            (None, 2048)              8390656   
_________________________________________________________________
batch_normalization_1571 (Ba (None, 2048)              8192      
_________________________________________________________________
activation_2674 (Activation) (None, 2048)              0         
_________________________________________________________________
dropout_2674 (Dropout)       (None, 2048)              0         
_________________________________________________________________
dense_438 (Dense)            (None, 100)               204900    
=================================================================
Total params: 8,757,375
Trainable params: 8,750,847
Non-trainable params: 6,528
_________________________________________________________________
