Model: "sequential_200"
_________________________________________________________________
Layer (type)                 Output Shape              Param #   
=================================================================
separable_conv2d_2261 (Separ (None, 32, 32, 32)        155       
_________________________________________________________________
activation_2464 (Activation) (None, 32, 32, 32)        0         
_________________________________________________________________
dropout_2464 (Dropout)       (None, 32, 32, 32)        0         
_________________________________________________________________
separable_conv2d_2262 (Separ (None, 32, 32, 256)       8736      
_________________________________________________________________
batch_normalization_1454 (Ba (None, 32, 32, 256)       1024      
_________________________________________________________________
activation_2465 (Activation) (None, 32, 32, 256)       0         
_________________________________________________________________
dropout_2465 (Dropout)       (None, 32, 32, 256)       0         
_________________________________________________________________
separable_conv2d_2263 (Separ (None, 32, 32, 8)         4360      
_________________________________________________________________
activation_2466 (Activation) (None, 32, 32, 8)         0         
_________________________________________________________________
dropout_2466 (Dropout)       (None, 32, 32, 8)         0         
_________________________________________________________________
separable_conv2d_2264 (Separ (None, 32, 32, 64)        648       
_________________________________________________________________
activation_2467 (Activation) (None, 32, 32, 64)        0         
_________________________________________________________________
dropout_2467 (Dropout)       (None, 32, 32, 64)        0         
_________________________________________________________________
max_pooling2d_587 (MaxPoolin (None, 16, 16, 64)        0         
_________________________________________________________________
separable_conv2d_2265 (Separ (None, 16, 16, 16)        1616      
_________________________________________________________________
activation_2468 (Activation) (None, 16, 16, 16)        0         
_________________________________________________________________
dropout_2468 (Dropout)       (None, 16, 16, 16)        0         
_________________________________________________________________
separable_conv2d_2266 (Separ (None, 16, 16, 128)       2320      
_________________________________________________________________
batch_normalization_1455 (Ba (None, 16, 16, 128)       512       
_________________________________________________________________
activation_2469 (Activation) (None, 16, 16, 128)       0         
_________________________________________________________________
dropout_2469 (Dropout)       (None, 16, 16, 128)       0         
_________________________________________________________________
separable_conv2d_2267 (Separ (None, 16, 16, 64)        9408      
_________________________________________________________________
batch_normalization_1456 (Ba (None, 16, 16, 64)        256       
_________________________________________________________________
activation_2470 (Activation) (None, 16, 16, 64)        0         
_________________________________________________________________
dropout_2470 (Dropout)       (None, 16, 16, 64)        0         
_________________________________________________________________
separable_conv2d_2268 (Separ (None, 16, 16, 512)       33856     
_________________________________________________________________
batch_normalization_1457 (Ba (None, 16, 16, 512)       2048      
_________________________________________________________________
activation_2471 (Activation) (None, 16, 16, 512)       0         
_________________________________________________________________
dropout_2471 (Dropout)       (None, 16, 16, 512)       0         
_________________________________________________________________
max_pooling2d_588 (MaxPoolin (None, 8, 8, 512)         0         
_________________________________________________________________
separable_conv2d_2269 (Separ (None, 8, 8, 128)         70272     
_________________________________________________________________
activation_2472 (Activation) (None, 8, 8, 128)         0         
_________________________________________________________________
dropout_2472 (Dropout)       (None, 8, 8, 128)         0         
_________________________________________________________________
separable_conv2d_2270 (Separ (None, 8, 8, 32)          5280      
_________________________________________________________________
activation_2473 (Activation) (None, 8, 8, 32)          0         
_________________________________________________________________
dropout_2473 (Dropout)       (None, 8, 8, 32)          0         
_________________________________________________________________
separable_conv2d_2271 (Separ (None, 8, 8, 256)         8736      
_________________________________________________________________
batch_normalization_1458 (Ba (None, 8, 8, 256)         1024      
_________________________________________________________________
activation_2474 (Activation) (None, 8, 8, 256)         0         
_________________________________________________________________
dropout_2474 (Dropout)       (None, 8, 8, 256)         0         
_________________________________________________________________
max_pooling2d_589 (MaxPoolin (None, 4, 4, 256)         0         
_________________________________________________________________
flatten_200 (Flatten)        (None, 4096)              0         
_________________________________________________________________
dense_403 (Dense)            (None, 2048)              8390656   
_________________________________________________________________
batch_normalization_1459 (Ba (None, 2048)              8192      
_________________________________________________________________
activation_2475 (Activation) (None, 2048)              0         
_________________________________________________________________
dropout_2475 (Dropout)       (None, 2048)              0         
_________________________________________________________________
dense_404 (Dense)            (None, 100)               204900    
=================================================================
Total params: 8,753,999
Trainable params: 8,747,471
Non-trainable params: 6,528
_________________________________________________________________
