Model: "sequential_78"
_________________________________________________________________
Layer (type)                 Output Shape              Param #   
=================================================================
separable_conv2d_904 (Separa (None, 32, 32, 32)        155       
_________________________________________________________________
activation_985 (Activation)  (None, 32, 32, 32)        0         
_________________________________________________________________
dropout_985 (Dropout)        (None, 32, 32, 32)        0         
_________________________________________________________________
separable_conv2d_905 (Separa (None, 32, 32, 128)       4512      
_________________________________________________________________
batch_normalization_571 (Bat (None, 32, 32, 128)       512       
_________________________________________________________________
activation_986 (Activation)  (None, 32, 32, 128)       0         
_________________________________________________________________
dropout_986 (Dropout)        (None, 32, 32, 128)       0         
_________________________________________________________________
separable_conv2d_906 (Separa (None, 32, 32, 8)         2184      
_________________________________________________________________
activation_987 (Activation)  (None, 32, 32, 8)         0         
_________________________________________________________________
dropout_987 (Dropout)        (None, 32, 32, 8)         0         
_________________________________________________________________
separable_conv2d_907 (Separa (None, 32, 32, 64)        648       
_________________________________________________________________
activation_988 (Activation)  (None, 32, 32, 64)        0         
_________________________________________________________________
dropout_988 (Dropout)        (None, 32, 32, 64)        0         
_________________________________________________________________
max_pooling2d_223 (MaxPoolin (None, 16, 16, 64)        0         
_________________________________________________________________
separable_conv2d_908 (Separa (None, 16, 16, 8)         1096      
_________________________________________________________________
activation_989 (Activation)  (None, 16, 16, 8)         0         
_________________________________________________________________
dropout_989 (Dropout)        (None, 16, 16, 8)         0         
_________________________________________________________________
separable_conv2d_909 (Separa (None, 16, 16, 128)       1224      
_________________________________________________________________
batch_normalization_572 (Bat (None, 16, 16, 128)       512       
_________________________________________________________________
activation_990 (Activation)  (None, 16, 16, 128)       0         
_________________________________________________________________
dropout_990 (Dropout)        (None, 16, 16, 128)       0         
_________________________________________________________________
separable_conv2d_910 (Separa (None, 16, 16, 64)        9408      
_________________________________________________________________
batch_normalization_573 (Bat (None, 16, 16, 64)        256       
_________________________________________________________________
activation_991 (Activation)  (None, 16, 16, 64)        0         
_________________________________________________________________
dropout_991 (Dropout)        (None, 16, 16, 64)        0         
_________________________________________________________________
separable_conv2d_911 (Separa (None, 16, 16, 512)       33856     
_________________________________________________________________
batch_normalization_574 (Bat (None, 16, 16, 512)       2048      
_________________________________________________________________
activation_992 (Activation)  (None, 16, 16, 512)       0         
_________________________________________________________________
dropout_992 (Dropout)        (None, 16, 16, 512)       0         
_________________________________________________________________
max_pooling2d_224 (MaxPoolin (None, 8, 8, 512)         0         
_________________________________________________________________
separable_conv2d_912 (Separa (None, 8, 8, 32)          21024     
_________________________________________________________________
batch_normalization_575 (Bat (None, 8, 8, 32)          128       
_________________________________________________________________
activation_993 (Activation)  (None, 8, 8, 32)          0         
_________________________________________________________________
dropout_993 (Dropout)        (None, 8, 8, 32)          0         
_________________________________________________________________
max_pooling2d_225 (MaxPoolin (None, 4, 4, 32)          0         
_________________________________________________________________
separable_conv2d_913 (Separa (None, 4, 4, 128)         4512      
_________________________________________________________________
activation_994 (Activation)  (None, 4, 4, 128)         0         
_________________________________________________________________
dropout_994 (Dropout)        (None, 4, 4, 128)         0         
_________________________________________________________________
separable_conv2d_914 (Separa (None, 4, 4, 32)          5280      
_________________________________________________________________
batch_normalization_576 (Bat (None, 4, 4, 32)          128       
_________________________________________________________________
activation_995 (Activation)  (None, 4, 4, 32)          0         
_________________________________________________________________
dropout_995 (Dropout)        (None, 4, 4, 32)          0         
_________________________________________________________________
separable_conv2d_915 (Separa (None, 4, 4, 256)         8736      
_________________________________________________________________
batch_normalization_577 (Bat (None, 4, 4, 256)         1024      
_________________________________________________________________
activation_996 (Activation)  (None, 4, 4, 256)         0         
_________________________________________________________________
dropout_996 (Dropout)        (None, 4, 4, 256)         0         
_________________________________________________________________
flatten_78 (Flatten)         (None, 4096)              0         
_________________________________________________________________
dense_159 (Dense)            (None, 2048)              8390656   
_________________________________________________________________
batch_normalization_578 (Bat (None, 2048)              8192      
_________________________________________________________________
activation_997 (Activation)  (None, 2048)              0         
_________________________________________________________________
dropout_997 (Dropout)        (None, 2048)              0         
_________________________________________________________________
dense_160 (Dense)            (None, 100)               204900    
=================================================================
Total params: 8,700,991
Trainable params: 8,694,591
Non-trainable params: 6,400
_________________________________________________________________
