Model: "sequential_183"
_________________________________________________________________
Layer (type)                 Output Shape              Param #   
=================================================================
separable_conv2d_2078 (Separ (None, 32, 32, 32)        155       
_________________________________________________________________
activation_2264 (Activation) (None, 32, 32, 32)        0         
_________________________________________________________________
dropout_2264 (Dropout)       (None, 32, 32, 32)        0         
_________________________________________________________________
separable_conv2d_2079 (Separ (None, 32, 32, 256)       8736      
_________________________________________________________________
batch_normalization_1342 (Ba (None, 32, 32, 256)       1024      
_________________________________________________________________
activation_2265 (Activation) (None, 32, 32, 256)       0         
_________________________________________________________________
dropout_2265 (Dropout)       (None, 32, 32, 256)       0         
_________________________________________________________________
separable_conv2d_2080 (Separ (None, 32, 32, 8)         4360      
_________________________________________________________________
activation_2266 (Activation) (None, 32, 32, 8)         0         
_________________________________________________________________
dropout_2266 (Dropout)       (None, 32, 32, 8)         0         
_________________________________________________________________
separable_conv2d_2081 (Separ (None, 32, 32, 64)        648       
_________________________________________________________________
activation_2267 (Activation) (None, 32, 32, 64)        0         
_________________________________________________________________
dropout_2267 (Dropout)       (None, 32, 32, 64)        0         
_________________________________________________________________
max_pooling2d_537 (MaxPoolin (None, 16, 16, 64)        0         
_________________________________________________________________
separable_conv2d_2082 (Separ (None, 16, 16, 16)        1616      
_________________________________________________________________
activation_2268 (Activation) (None, 16, 16, 16)        0         
_________________________________________________________________
dropout_2268 (Dropout)       (None, 16, 16, 16)        0         
_________________________________________________________________
separable_conv2d_2083 (Separ (None, 16, 16, 256)       4496      
_________________________________________________________________
batch_normalization_1343 (Ba (None, 16, 16, 256)       1024      
_________________________________________________________________
activation_2269 (Activation) (None, 16, 16, 256)       0         
_________________________________________________________________
dropout_2269 (Dropout)       (None, 16, 16, 256)       0         
_________________________________________________________________
separable_conv2d_2084 (Separ (None, 16, 16, 64)        18752     
_________________________________________________________________
batch_normalization_1344 (Ba (None, 16, 16, 64)        256       
_________________________________________________________________
activation_2270 (Activation) (None, 16, 16, 64)        0         
_________________________________________________________________
dropout_2270 (Dropout)       (None, 16, 16, 64)        0         
_________________________________________________________________
separable_conv2d_2085 (Separ (None, 16, 16, 512)       33856     
_________________________________________________________________
batch_normalization_1345 (Ba (None, 16, 16, 512)       2048      
_________________________________________________________________
activation_2271 (Activation) (None, 16, 16, 512)       0         
_________________________________________________________________
dropout_2271 (Dropout)       (None, 16, 16, 512)       0         
_________________________________________________________________
max_pooling2d_538 (MaxPoolin (None, 8, 8, 512)         0         
_________________________________________________________________
separable_conv2d_2086 (Separ (None, 8, 8, 128)         70272     
_________________________________________________________________
activation_2272 (Activation) (None, 8, 8, 128)         0         
_________________________________________________________________
dropout_2272 (Dropout)       (None, 8, 8, 128)         0         
_________________________________________________________________
separable_conv2d_2087 (Separ (None, 8, 8, 32)          5280      
_________________________________________________________________
batch_normalization_1346 (Ba (None, 8, 8, 32)          128       
_________________________________________________________________
activation_2273 (Activation) (None, 8, 8, 32)          0         
_________________________________________________________________
dropout_2273 (Dropout)       (None, 8, 8, 32)          0         
_________________________________________________________________
separable_conv2d_2088 (Separ (None, 8, 8, 256)         8736      
_________________________________________________________________
batch_normalization_1347 (Ba (None, 8, 8, 256)         1024      
_________________________________________________________________
activation_2274 (Activation) (None, 8, 8, 256)         0         
_________________________________________________________________
dropout_2274 (Dropout)       (None, 8, 8, 256)         0         
_________________________________________________________________
max_pooling2d_539 (MaxPoolin (None, 4, 4, 256)         0         
_________________________________________________________________
flatten_183 (Flatten)        (None, 4096)              0         
_________________________________________________________________
dense_369 (Dense)            (None, 2048)              8390656   
_________________________________________________________________
batch_normalization_1348 (Ba (None, 2048)              8192      
_________________________________________________________________
activation_2275 (Activation) (None, 2048)              0         
_________________________________________________________________
dropout_2275 (Dropout)       (None, 2048)              0         
_________________________________________________________________
dense_370 (Dense)            (None, 100)               204900    
=================================================================
Total params: 8,766,159
Trainable params: 8,759,311
Non-trainable params: 6,848
_________________________________________________________________
