Model: "sequential_18"
_________________________________________________________________
Layer (type)                 Output Shape              Param #   
=================================================================
separable_conv2d_204 (Separa (None, 32, 32, 64)        283       
_________________________________________________________________
activation_224 (Activation)  (None, 32, 32, 64)        0         
_________________________________________________________________
dropout_224 (Dropout)        (None, 32, 32, 64)        0         
_________________________________________________________________
max_pooling2d_43 (MaxPooling (None, 16, 16, 64)        0         
_________________________________________________________________
separable_conv2d_205 (Separa (None, 16, 16, 32)        2656      
_________________________________________________________________
activation_225 (Activation)  (None, 16, 16, 32)        0         
_________________________________________________________________
dropout_225 (Dropout)        (None, 16, 16, 32)        0         
_________________________________________________________________
separable_conv2d_206 (Separa (None, 16, 16, 32)        1344      
_________________________________________________________________
batch_normalization_113 (Bat (None, 16, 16, 32)        128       
_________________________________________________________________
activation_226 (Activation)  (None, 16, 16, 32)        0         
_________________________________________________________________
dropout_226 (Dropout)        (None, 16, 16, 32)        0         
_________________________________________________________________
separable_conv2d_207 (Separa (None, 16, 16, 64)        2400      
_________________________________________________________________
activation_227 (Activation)  (None, 16, 16, 64)        0         
_________________________________________________________________
dropout_227 (Dropout)        (None, 16, 16, 64)        0         
_________________________________________________________________
max_pooling2d_44 (MaxPooling (None, 8, 8, 64)          0         
_________________________________________________________________
separable_conv2d_208 (Separa (None, 8, 8, 32)          2656      
_________________________________________________________________
batch_normalization_114 (Bat (None, 8, 8, 32)          128       
_________________________________________________________________
activation_228 (Activation)  (None, 8, 8, 32)          0         
_________________________________________________________________
dropout_228 (Dropout)        (None, 8, 8, 32)          0         
_________________________________________________________________
separable_conv2d_209 (Separa (None, 8, 8, 256)         8736      
_________________________________________________________________
activation_229 (Activation)  (None, 8, 8, 256)         0         
_________________________________________________________________
dropout_229 (Dropout)        (None, 8, 8, 256)         0         
_________________________________________________________________
max_pooling2d_45 (MaxPooling (None, 4, 4, 256)         0         
_________________________________________________________________
separable_conv2d_210 (Separa (None, 4, 4, 1024)        265472    
_________________________________________________________________
activation_230 (Activation)  (None, 4, 4, 1024)        0         
_________________________________________________________________
dropout_230 (Dropout)        (None, 4, 4, 1024)        0         
_________________________________________________________________
separable_conv2d_211 (Separa (None, 4, 4, 64)          74816     
_________________________________________________________________
batch_normalization_115 (Bat (None, 4, 4, 64)          256       
_________________________________________________________________
activation_231 (Activation)  (None, 4, 4, 64)          0         
_________________________________________________________________
dropout_231 (Dropout)        (None, 4, 4, 64)          0         
_________________________________________________________________
separable_conv2d_212 (Separa (None, 4, 4, 8)           1096      
_________________________________________________________________
activation_232 (Activation)  (None, 4, 4, 8)           0         
_________________________________________________________________
dropout_232 (Dropout)        (None, 4, 4, 8)           0         
_________________________________________________________________
separable_conv2d_213 (Separa (None, 4, 4, 128)         1224      
_________________________________________________________________
activation_233 (Activation)  (None, 4, 4, 128)         0         
_________________________________________________________________
dropout_233 (Dropout)        (None, 4, 4, 128)         0         
_________________________________________________________________
flatten_18 (Flatten)         (None, 2048)              0         
_________________________________________________________________
dense_38 (Dense)             (None, 100)               204900    
=================================================================
Total params: 566,095
Trainable params: 565,839
Non-trainable params: 256
_________________________________________________________________
