Model: "sequential_399"
_________________________________________________________________
Layer (type)                 Output Shape              Param #   
=================================================================
separable_conv2d_4224 (Separ (None, 32, 32, 32)        155       
_________________________________________________________________
activation_4626 (Activation) (None, 32, 32, 32)        0         
_________________________________________________________________
dropout_4626 (Dropout)       (None, 32, 32, 32)        0         
_________________________________________________________________
separable_conv2d_4225 (Separ (None, 32, 32, 256)       8736      
_________________________________________________________________
batch_normalization_2622 (Ba (None, 32, 32, 256)       1024      
_________________________________________________________________
activation_4627 (Activation) (None, 32, 32, 256)       0         
_________________________________________________________________
dropout_4627 (Dropout)       (None, 32, 32, 256)       0         
_________________________________________________________________
separable_conv2d_4226 (Separ (None, 32, 32, 8)         4360      
_________________________________________________________________
activation_4628 (Activation) (None, 32, 32, 8)         0         
_________________________________________________________________
dropout_4628 (Dropout)       (None, 32, 32, 8)         0         
_________________________________________________________________
separable_conv2d_4227 (Separ (None, 32, 32, 64)        648       
_________________________________________________________________
activation_4629 (Activation) (None, 32, 32, 64)        0         
_________________________________________________________________
dropout_4629 (Dropout)       (None, 32, 32, 64)        0         
_________________________________________________________________
max_pooling2d_1085 (MaxPooli (None, 16, 16, 64)        0         
_________________________________________________________________
separable_conv2d_4228 (Separ (None, 16, 16, 128)       8896      
_________________________________________________________________
batch_normalization_2623 (Ba (None, 16, 16, 128)       512       
_________________________________________________________________
activation_4630 (Activation) (None, 16, 16, 128)       0         
_________________________________________________________________
dropout_4630 (Dropout)       (None, 16, 16, 128)       0         
_________________________________________________________________
separable_conv2d_4229 (Separ (None, 16, 16, 64)        9408      
_________________________________________________________________
activation_4631 (Activation) (None, 16, 16, 64)        0         
_________________________________________________________________
dropout_4631 (Dropout)       (None, 16, 16, 64)        0         
_________________________________________________________________
separable_conv2d_4230 (Separ (None, 16, 16, 64)        4736      
_________________________________________________________________
batch_normalization_2624 (Ba (None, 16, 16, 64)        256       
_________________________________________________________________
activation_4632 (Activation) (None, 16, 16, 64)        0         
_________________________________________________________________
dropout_4632 (Dropout)       (None, 16, 16, 64)        0         
_________________________________________________________________
separable_conv2d_4231 (Separ (None, 16, 16, 256)       17216     
_________________________________________________________________
batch_normalization_2625 (Ba (None, 16, 16, 256)       1024      
_________________________________________________________________
activation_4633 (Activation) (None, 16, 16, 256)       0         
_________________________________________________________________
dropout_4633 (Dropout)       (None, 16, 16, 256)       0         
_________________________________________________________________
max_pooling2d_1086 (MaxPooli (None, 8, 8, 256)         0         
_________________________________________________________________
flatten_399 (Flatten)        (None, 16384)             0         
_________________________________________________________________
dense_801 (Dense)            (None, 2048)              33556480  
_________________________________________________________________
batch_normalization_2626 (Ba (None, 2048)              8192      
_________________________________________________________________
activation_4634 (Activation) (None, 2048)              0         
_________________________________________________________________
dropout_4634 (Dropout)       (None, 2048)              0         
_________________________________________________________________
dense_802 (Dense)            (None, 100)               204900    
=================================================================
Total params: 33,826,543
Trainable params: 33,821,039
Non-trainable params: 5,504
_________________________________________________________________
