Model: "sequential_376"
_________________________________________________________________
Layer (type)                 Output Shape              Param #   
=================================================================
separable_conv2d_4017 (Separ (None, 32, 32, 128)       539       
_________________________________________________________________
activation_4396 (Activation) (None, 32, 32, 128)       0         
_________________________________________________________________
dropout_4396 (Dropout)       (None, 32, 32, 128)       0         
_________________________________________________________________
separable_conv2d_4018 (Separ (None, 32, 32, 256)       34176     
_________________________________________________________________
batch_normalization_2509 (Ba (None, 32, 32, 256)       1024      
_________________________________________________________________
activation_4397 (Activation) (None, 32, 32, 256)       0         
_________________________________________________________________
dropout_4397 (Dropout)       (None, 32, 32, 256)       0         
_________________________________________________________________
separable_conv2d_4019 (Separ (None, 32, 32, 8)         4360      
_________________________________________________________________
activation_4398 (Activation) (None, 32, 32, 8)         0         
_________________________________________________________________
dropout_4398 (Dropout)       (None, 32, 32, 8)         0         
_________________________________________________________________
separable_conv2d_4020 (Separ (None, 32, 32, 64)        648       
_________________________________________________________________
activation_4399 (Activation) (None, 32, 32, 64)        0         
_________________________________________________________________
dropout_4399 (Dropout)       (None, 32, 32, 64)        0         
_________________________________________________________________
max_pooling2d_1036 (MaxPooli (None, 16, 16, 64)        0         
_________________________________________________________________
separable_conv2d_4021 (Separ (None, 16, 16, 16)        1616      
_________________________________________________________________
activation_4400 (Activation) (None, 16, 16, 16)        0         
_________________________________________________________________
dropout_4400 (Dropout)       (None, 16, 16, 16)        0         
_________________________________________________________________
separable_conv2d_4022 (Separ (None, 16, 16, 128)       2320      
_________________________________________________________________
batch_normalization_2510 (Ba (None, 16, 16, 128)       512       
_________________________________________________________________
activation_4401 (Activation) (None, 16, 16, 128)       0         
_________________________________________________________________
dropout_4401 (Dropout)       (None, 16, 16, 128)       0         
_________________________________________________________________
separable_conv2d_4023 (Separ (None, 16, 16, 64)        9408      
_________________________________________________________________
batch_normalization_2511 (Ba (None, 16, 16, 64)        256       
_________________________________________________________________
activation_4402 (Activation) (None, 16, 16, 64)        0         
_________________________________________________________________
dropout_4402 (Dropout)       (None, 16, 16, 64)        0         
_________________________________________________________________
separable_conv2d_4024 (Separ (None, 16, 16, 32)        2656      
_________________________________________________________________
activation_4403 (Activation) (None, 16, 16, 32)        0         
_________________________________________________________________
dropout_4403 (Dropout)       (None, 16, 16, 32)        0         
_________________________________________________________________
separable_conv2d_4025 (Separ (None, 16, 16, 256)       8736      
_________________________________________________________________
batch_normalization_2512 (Ba (None, 16, 16, 256)       1024      
_________________________________________________________________
activation_4404 (Activation) (None, 16, 16, 256)       0         
_________________________________________________________________
dropout_4404 (Dropout)       (None, 16, 16, 256)       0         
_________________________________________________________________
max_pooling2d_1037 (MaxPooli (None, 8, 8, 256)         0         
_________________________________________________________________
flatten_376 (Flatten)        (None, 16384)             0         
_________________________________________________________________
dense_755 (Dense)            (None, 2048)              33556480  
_________________________________________________________________
batch_normalization_2513 (Ba (None, 2048)              8192      
_________________________________________________________________
activation_4405 (Activation) (None, 2048)              0         
_________________________________________________________________
dropout_4405 (Dropout)       (None, 2048)              0         
_________________________________________________________________
dense_756 (Dense)            (None, 100)               204900    
=================================================================
Total params: 33,836,847
Trainable params: 33,831,343
Non-trainable params: 5,504
_________________________________________________________________
