Model: "sequential_369"
_________________________________________________________________
Layer (type)                 Output Shape              Param #   
=================================================================
separable_conv2d_3952 (Separ (None, 32, 32, 32)        155       
_________________________________________________________________
activation_4324 (Activation) (None, 32, 32, 32)        0         
_________________________________________________________________
dropout_4324 (Dropout)       (None, 32, 32, 32)        0         
_________________________________________________________________
separable_conv2d_3953 (Separ (None, 32, 32, 256)       8736      
_________________________________________________________________
batch_normalization_2471 (Ba (None, 32, 32, 256)       1024      
_________________________________________________________________
activation_4325 (Activation) (None, 32, 32, 256)       0         
_________________________________________________________________
dropout_4325 (Dropout)       (None, 32, 32, 256)       0         
_________________________________________________________________
separable_conv2d_3954 (Separ (None, 32, 32, 8)         4360      
_________________________________________________________________
batch_normalization_2472 (Ba (None, 32, 32, 8)         32        
_________________________________________________________________
activation_4326 (Activation) (None, 32, 32, 8)         0         
_________________________________________________________________
dropout_4326 (Dropout)       (None, 32, 32, 8)         0         
_________________________________________________________________
separable_conv2d_3955 (Separ (None, 32, 32, 64)        648       
_________________________________________________________________
activation_4327 (Activation) (None, 32, 32, 64)        0         
_________________________________________________________________
dropout_4327 (Dropout)       (None, 32, 32, 64)        0         
_________________________________________________________________
max_pooling2d_1020 (MaxPooli (None, 16, 16, 64)        0         
_________________________________________________________________
separable_conv2d_3956 (Separ (None, 16, 16, 16)        1616      
_________________________________________________________________
activation_4328 (Activation) (None, 16, 16, 16)        0         
_________________________________________________________________
dropout_4328 (Dropout)       (None, 16, 16, 16)        0         
_________________________________________________________________
separable_conv2d_3957 (Separ (None, 16, 16, 128)       2320      
_________________________________________________________________
batch_normalization_2473 (Ba (None, 16, 16, 128)       512       
_________________________________________________________________
activation_4329 (Activation) (None, 16, 16, 128)       0         
_________________________________________________________________
dropout_4329 (Dropout)       (None, 16, 16, 128)       0         
_________________________________________________________________
separable_conv2d_3958 (Separ (None, 16, 16, 64)        9408      
_________________________________________________________________
batch_normalization_2474 (Ba (None, 16, 16, 64)        256       
_________________________________________________________________
activation_4330 (Activation) (None, 16, 16, 64)        0         
_________________________________________________________________
dropout_4330 (Dropout)       (None, 16, 16, 64)        0         
_________________________________________________________________
separable_conv2d_3959 (Separ (None, 16, 16, 32)        2656      
_________________________________________________________________
activation_4331 (Activation) (None, 16, 16, 32)        0         
_________________________________________________________________
dropout_4331 (Dropout)       (None, 16, 16, 32)        0         
_________________________________________________________________
separable_conv2d_3960 (Separ (None, 16, 16, 256)       8736      
_________________________________________________________________
batch_normalization_2475 (Ba (None, 16, 16, 256)       1024      
_________________________________________________________________
activation_4332 (Activation) (None, 16, 16, 256)       0         
_________________________________________________________________
dropout_4332 (Dropout)       (None, 16, 16, 256)       0         
_________________________________________________________________
max_pooling2d_1021 (MaxPooli (None, 8, 8, 256)         0         
_________________________________________________________________
flatten_369 (Flatten)        (None, 16384)             0         
_________________________________________________________________
dense_741 (Dense)            (None, 2048)              33556480  
_________________________________________________________________
batch_normalization_2476 (Ba (None, 2048)              8192      
_________________________________________________________________
activation_4333 (Activation) (None, 2048)              0         
_________________________________________________________________
dropout_4333 (Dropout)       (None, 2048)              0         
_________________________________________________________________
dense_742 (Dense)            (None, 100)               204900    
=================================================================
Total params: 33,811,055
Trainable params: 33,805,535
Non-trainable params: 5,520
_________________________________________________________________
