Model: "sequential_269"
_________________________________________________________________
Layer (type)                 Output Shape              Param #   
=================================================================
separable_conv2d_2993 (Separ (None, 32, 32, 32)        155       
_________________________________________________________________
activation_3265 (Activation) (None, 32, 32, 32)        0         
_________________________________________________________________
dropout_3265 (Dropout)       (None, 32, 32, 32)        0         
_________________________________________________________________
separable_conv2d_2994 (Separ (None, 32, 32, 256)       8736      
_________________________________________________________________
batch_normalization_1909 (Ba (None, 32, 32, 256)       1024      
_________________________________________________________________
activation_3266 (Activation) (None, 32, 32, 256)       0         
_________________________________________________________________
dropout_3266 (Dropout)       (None, 32, 32, 256)       0         
_________________________________________________________________
separable_conv2d_2995 (Separ (None, 32, 32, 8)         4360      
_________________________________________________________________
activation_3267 (Activation) (None, 32, 32, 8)         0         
_________________________________________________________________
dropout_3267 (Dropout)       (None, 32, 32, 8)         0         
_________________________________________________________________
separable_conv2d_2996 (Separ (None, 32, 32, 64)        648       
_________________________________________________________________
activation_3268 (Activation) (None, 32, 32, 64)        0         
_________________________________________________________________
dropout_3268 (Dropout)       (None, 32, 32, 64)        0         
_________________________________________________________________
max_pooling2d_782 (MaxPoolin (None, 16, 16, 64)        0         
_________________________________________________________________
separable_conv2d_2997 (Separ (None, 16, 16, 256)       17216     
_________________________________________________________________
batch_normalization_1910 (Ba (None, 16, 16, 256)       1024      
_________________________________________________________________
activation_3269 (Activation) (None, 16, 16, 256)       0         
_________________________________________________________________
dropout_3269 (Dropout)       (None, 16, 16, 256)       0         
_________________________________________________________________
separable_conv2d_2998 (Separ (None, 16, 16, 64)        18752     
_________________________________________________________________
batch_normalization_1911 (Ba (None, 16, 16, 64)        256       
_________________________________________________________________
activation_3270 (Activation) (None, 16, 16, 64)        0         
_________________________________________________________________
dropout_3270 (Dropout)       (None, 16, 16, 64)        0         
_________________________________________________________________
separable_conv2d_2999 (Separ (None, 16, 16, 512)       33856     
_________________________________________________________________
batch_normalization_1912 (Ba (None, 16, 16, 512)       2048      
_________________________________________________________________
activation_3271 (Activation) (None, 16, 16, 512)       0         
_________________________________________________________________
dropout_3271 (Dropout)       (None, 16, 16, 512)       0         
_________________________________________________________________
max_pooling2d_783 (MaxPoolin (None, 8, 8, 512)         0         
_________________________________________________________________
separable_conv2d_3000 (Separ (None, 8, 8, 128)         70272     
_________________________________________________________________
activation_3272 (Activation) (None, 8, 8, 128)         0         
_________________________________________________________________
dropout_3272 (Dropout)       (None, 8, 8, 128)         0         
_________________________________________________________________
separable_conv2d_3001 (Separ (None, 8, 8, 256)         34176     
_________________________________________________________________
batch_normalization_1913 (Ba (None, 8, 8, 256)         1024      
_________________________________________________________________
activation_3273 (Activation) (None, 8, 8, 256)         0         
_________________________________________________________________
dropout_3273 (Dropout)       (None, 8, 8, 256)         0         
_________________________________________________________________
max_pooling2d_784 (MaxPoolin (None, 4, 4, 256)         0         
_________________________________________________________________
flatten_269 (Flatten)        (None, 4096)              0         
_________________________________________________________________
dense_541 (Dense)            (None, 2048)              8390656   
_________________________________________________________________
batch_normalization_1914 (Ba (None, 2048)              8192      
_________________________________________________________________
activation_3274 (Activation) (None, 2048)              0         
_________________________________________________________________
dropout_3274 (Dropout)       (None, 2048)              0         
_________________________________________________________________
dense_542 (Dense)            (None, 100)               204900    
=================================================================
Total params: 8,797,295
Trainable params: 8,790,511
Non-trainable params: 6,784
_________________________________________________________________
