Model: "sequential_368"
_________________________________________________________________
Layer (type)                 Output Shape              Param #   
=================================================================
separable_conv2d_3943 (Separ (None, 32, 32, 32)        155       
_________________________________________________________________
activation_4314 (Activation) (None, 32, 32, 32)        0         
_________________________________________________________________
dropout_4314 (Dropout)       (None, 32, 32, 32)        0         
_________________________________________________________________
separable_conv2d_3944 (Separ (None, 32, 32, 256)       8736      
_________________________________________________________________
batch_normalization_2466 (Ba (None, 32, 32, 256)       1024      
_________________________________________________________________
activation_4315 (Activation) (None, 32, 32, 256)       0         
_________________________________________________________________
dropout_4315 (Dropout)       (None, 32, 32, 256)       0         
_________________________________________________________________
separable_conv2d_3945 (Separ (None, 32, 32, 8)         4360      
_________________________________________________________________
activation_4316 (Activation) (None, 32, 32, 8)         0         
_________________________________________________________________
dropout_4316 (Dropout)       (None, 32, 32, 8)         0         
_________________________________________________________________
separable_conv2d_3946 (Separ (None, 32, 32, 64)        648       
_________________________________________________________________
activation_4317 (Activation) (None, 32, 32, 64)        0         
_________________________________________________________________
dropout_4317 (Dropout)       (None, 32, 32, 64)        0         
_________________________________________________________________
max_pooling2d_1018 (MaxPooli (None, 16, 16, 64)        0         
_________________________________________________________________
separable_conv2d_3947 (Separ (None, 16, 16, 16)        1616      
_________________________________________________________________
activation_4318 (Activation) (None, 16, 16, 16)        0         
_________________________________________________________________
dropout_4318 (Dropout)       (None, 16, 16, 16)        0         
_________________________________________________________________
separable_conv2d_3948 (Separ (None, 16, 16, 128)       2320      
_________________________________________________________________
batch_normalization_2467 (Ba (None, 16, 16, 128)       512       
_________________________________________________________________
activation_4319 (Activation) (None, 16, 16, 128)       0         
_________________________________________________________________
dropout_4319 (Dropout)       (None, 16, 16, 128)       0         
_________________________________________________________________
separable_conv2d_3949 (Separ (None, 16, 16, 64)        9408      
_________________________________________________________________
activation_4320 (Activation) (None, 16, 16, 64)        0         
_________________________________________________________________
dropout_4320 (Dropout)       (None, 16, 16, 64)        0         
_________________________________________________________________
separable_conv2d_3950 (Separ (None, 16, 16, 64)        4736      
_________________________________________________________________
batch_normalization_2468 (Ba (None, 16, 16, 64)        256       
_________________________________________________________________
activation_4321 (Activation) (None, 16, 16, 64)        0         
_________________________________________________________________
dropout_4321 (Dropout)       (None, 16, 16, 64)        0         
_________________________________________________________________
separable_conv2d_3951 (Separ (None, 16, 16, 512)       33856     
_________________________________________________________________
batch_normalization_2469 (Ba (None, 16, 16, 512)       2048      
_________________________________________________________________
activation_4322 (Activation) (None, 16, 16, 512)       0         
_________________________________________________________________
dropout_4322 (Dropout)       (None, 16, 16, 512)       0         
_________________________________________________________________
max_pooling2d_1019 (MaxPooli (None, 8, 8, 512)         0         
_________________________________________________________________
flatten_368 (Flatten)        (None, 32768)             0         
_________________________________________________________________
dense_739 (Dense)            (None, 2048)              67110912  
_________________________________________________________________
batch_normalization_2470 (Ba (None, 2048)              8192      
_________________________________________________________________
activation_4323 (Activation) (None, 2048)              0         
_________________________________________________________________
dropout_4323 (Dropout)       (None, 2048)              0         
_________________________________________________________________
dense_740 (Dense)            (None, 100)               204900    
=================================================================
Total params: 67,393,679
Trainable params: 67,387,663
Non-trainable params: 6,016
_________________________________________________________________
