Model: "sequential_131"
_________________________________________________________________
Layer (type)                 Output Shape              Param #   
=================================================================
separable_conv2d_1508 (Separ (None, 32, 32, 32)        155       
_________________________________________________________________
activation_1642 (Activation) (None, 32, 32, 32)        0         
_________________________________________________________________
dropout_1642 (Dropout)       (None, 32, 32, 32)        0         
_________________________________________________________________
separable_conv2d_1509 (Separ (None, 32, 32, 256)       8736      
_________________________________________________________________
batch_normalization_978 (Bat (None, 32, 32, 256)       1024      
_________________________________________________________________
activation_1643 (Activation) (None, 32, 32, 256)       0         
_________________________________________________________________
dropout_1643 (Dropout)       (None, 32, 32, 256)       0         
_________________________________________________________________
separable_conv2d_1510 (Separ (None, 32, 32, 8)         4360      
_________________________________________________________________
activation_1644 (Activation) (None, 32, 32, 8)         0         
_________________________________________________________________
dropout_1644 (Dropout)       (None, 32, 32, 8)         0         
_________________________________________________________________
separable_conv2d_1511 (Separ (None, 32, 32, 64)        648       
_________________________________________________________________
activation_1645 (Activation) (None, 32, 32, 64)        0         
_________________________________________________________________
dropout_1645 (Dropout)       (None, 32, 32, 64)        0         
_________________________________________________________________
max_pooling2d_382 (MaxPoolin (None, 16, 16, 64)        0         
_________________________________________________________________
separable_conv2d_1512 (Separ (None, 16, 16, 8)         1096      
_________________________________________________________________
activation_1646 (Activation) (None, 16, 16, 8)         0         
_________________________________________________________________
dropout_1646 (Dropout)       (None, 16, 16, 8)         0         
_________________________________________________________________
separable_conv2d_1513 (Separ (None, 16, 16, 128)       1224      
_________________________________________________________________
batch_normalization_979 (Bat (None, 16, 16, 128)       512       
_________________________________________________________________
activation_1647 (Activation) (None, 16, 16, 128)       0         
_________________________________________________________________
dropout_1647 (Dropout)       (None, 16, 16, 128)       0         
_________________________________________________________________
separable_conv2d_1514 (Separ (None, 16, 16, 64)        9408      
_________________________________________________________________
batch_normalization_980 (Bat (None, 16, 16, 64)        256       
_________________________________________________________________
activation_1648 (Activation) (None, 16, 16, 64)        0         
_________________________________________________________________
dropout_1648 (Dropout)       (None, 16, 16, 64)        0         
_________________________________________________________________
separable_conv2d_1515 (Separ (None, 16, 16, 512)       33856     
_________________________________________________________________
batch_normalization_981 (Bat (None, 16, 16, 512)       2048      
_________________________________________________________________
activation_1649 (Activation) (None, 16, 16, 512)       0         
_________________________________________________________________
dropout_1649 (Dropout)       (None, 16, 16, 512)       0         
_________________________________________________________________
max_pooling2d_383 (MaxPoolin (None, 8, 8, 512)         0         
_________________________________________________________________
separable_conv2d_1516 (Separ (None, 8, 8, 128)         70272     
_________________________________________________________________
activation_1650 (Activation) (None, 8, 8, 128)         0         
_________________________________________________________________
dropout_1650 (Dropout)       (None, 8, 8, 128)         0         
_________________________________________________________________
separable_conv2d_1517 (Separ (None, 8, 8, 32)          5280      
_________________________________________________________________
batch_normalization_982 (Bat (None, 8, 8, 32)          128       
_________________________________________________________________
activation_1651 (Activation) (None, 8, 8, 32)          0         
_________________________________________________________________
dropout_1651 (Dropout)       (None, 8, 8, 32)          0         
_________________________________________________________________
separable_conv2d_1518 (Separ (None, 8, 8, 256)         8736      
_________________________________________________________________
batch_normalization_983 (Bat (None, 8, 8, 256)         1024      
_________________________________________________________________
activation_1652 (Activation) (None, 8, 8, 256)         0         
_________________________________________________________________
dropout_1652 (Dropout)       (None, 8, 8, 256)         0         
_________________________________________________________________
max_pooling2d_384 (MaxPoolin (None, 4, 4, 256)         0         
_________________________________________________________________
flatten_131 (Flatten)        (None, 4096)              0         
_________________________________________________________________
dense_265 (Dense)            (None, 2048)              8390656   
_________________________________________________________________
batch_normalization_984 (Bat (None, 2048)              8192      
_________________________________________________________________
activation_1653 (Activation) (None, 2048)              0         
_________________________________________________________________
dropout_1653 (Dropout)       (None, 2048)              0         
_________________________________________________________________
dense_266 (Dense)            (None, 100)               204900    
=================================================================
Total params: 8,752,511
Trainable params: 8,745,919
Non-trainable params: 6,592
_________________________________________________________________
