Model: "sequential_62"
_________________________________________________________________
Layer (type)                 Output Shape              Param #   
=================================================================
separable_conv2d_717 (Separa (None, 32, 32, 32)        155       
_________________________________________________________________
activation_782 (Activation)  (None, 32, 32, 32)        0         
_________________________________________________________________
dropout_782 (Dropout)        (None, 32, 32, 32)        0         
_________________________________________________________________
separable_conv2d_718 (Separa (None, 32, 32, 256)       8736      
_________________________________________________________________
batch_normalization_447 (Bat (None, 32, 32, 256)       1024      
_________________________________________________________________
activation_783 (Activation)  (None, 32, 32, 256)       0         
_________________________________________________________________
dropout_783 (Dropout)        (None, 32, 32, 256)       0         
_________________________________________________________________
separable_conv2d_719 (Separa (None, 32, 32, 8)         4360      
_________________________________________________________________
activation_784 (Activation)  (None, 32, 32, 8)         0         
_________________________________________________________________
dropout_784 (Dropout)        (None, 32, 32, 8)         0         
_________________________________________________________________
separable_conv2d_720 (Separa (None, 32, 32, 64)        648       
_________________________________________________________________
activation_785 (Activation)  (None, 32, 32, 64)        0         
_________________________________________________________________
dropout_785 (Dropout)        (None, 32, 32, 64)        0         
_________________________________________________________________
max_pooling2d_175 (MaxPoolin (None, 16, 16, 64)        0         
_________________________________________________________________
separable_conv2d_721 (Separa (None, 16, 16, 8)         1096      
_________________________________________________________________
activation_786 (Activation)  (None, 16, 16, 8)         0         
_________________________________________________________________
dropout_786 (Dropout)        (None, 16, 16, 8)         0         
_________________________________________________________________
separable_conv2d_722 (Separa (None, 16, 16, 128)       1224      
_________________________________________________________________
batch_normalization_448 (Bat (None, 16, 16, 128)       512       
_________________________________________________________________
activation_787 (Activation)  (None, 16, 16, 128)       0         
_________________________________________________________________
dropout_787 (Dropout)        (None, 16, 16, 128)       0         
_________________________________________________________________
separable_conv2d_723 (Separa (None, 16, 16, 64)        9408      
_________________________________________________________________
batch_normalization_449 (Bat (None, 16, 16, 64)        256       
_________________________________________________________________
activation_788 (Activation)  (None, 16, 16, 64)        0         
_________________________________________________________________
dropout_788 (Dropout)        (None, 16, 16, 64)        0         
_________________________________________________________________
separable_conv2d_724 (Separa (None, 16, 16, 512)       33856     
_________________________________________________________________
batch_normalization_450 (Bat (None, 16, 16, 512)       2048      
_________________________________________________________________
activation_789 (Activation)  (None, 16, 16, 512)       0         
_________________________________________________________________
dropout_789 (Dropout)        (None, 16, 16, 512)       0         
_________________________________________________________________
max_pooling2d_176 (MaxPoolin (None, 8, 8, 512)         0         
_________________________________________________________________
separable_conv2d_725 (Separa (None, 8, 8, 128)         70272     
_________________________________________________________________
activation_790 (Activation)  (None, 8, 8, 128)         0         
_________________________________________________________________
dropout_790 (Dropout)        (None, 8, 8, 128)         0         
_________________________________________________________________
separable_conv2d_726 (Separa (None, 8, 8, 32)          5280      
_________________________________________________________________
batch_normalization_451 (Bat (None, 8, 8, 32)          128       
_________________________________________________________________
activation_791 (Activation)  (None, 8, 8, 32)          0         
_________________________________________________________________
dropout_791 (Dropout)        (None, 8, 8, 32)          0         
_________________________________________________________________
separable_conv2d_727 (Separa (None, 8, 8, 512)         17184     
_________________________________________________________________
batch_normalization_452 (Bat (None, 8, 8, 512)         2048      
_________________________________________________________________
activation_792 (Activation)  (None, 8, 8, 512)         0         
_________________________________________________________________
dropout_792 (Dropout)        (None, 8, 8, 512)         0         
_________________________________________________________________
max_pooling2d_177 (MaxPoolin (None, 4, 4, 512)         0         
_________________________________________________________________
flatten_62 (Flatten)         (None, 8192)              0         
_________________________________________________________________
dense_127 (Dense)            (None, 2048)              16779264  
_________________________________________________________________
batch_normalization_453 (Bat (None, 2048)              8192      
_________________________________________________________________
activation_793 (Activation)  (None, 2048)              0         
_________________________________________________________________
dropout_793 (Dropout)        (None, 2048)              0         
_________________________________________________________________
dense_128 (Dense)            (None, 100)               204900    
=================================================================
Total params: 17,150,591
Trainable params: 17,143,487
Non-trainable params: 7,104
_________________________________________________________________
