Model: "sequential_347"
_________________________________________________________________
Layer (type)                 Output Shape              Param #   
=================================================================
separable_conv2d_3749 (Separ (None, 32, 32, 32)        155       
_________________________________________________________________
activation_4099 (Activation) (None, 32, 32, 32)        0         
_________________________________________________________________
dropout_4099 (Dropout)       (None, 32, 32, 32)        0         
_________________________________________________________________
separable_conv2d_3750 (Separ (None, 32, 32, 256)       8736      
_________________________________________________________________
batch_normalization_2357 (Ba (None, 32, 32, 256)       1024      
_________________________________________________________________
activation_4100 (Activation) (None, 32, 32, 256)       0         
_________________________________________________________________
dropout_4100 (Dropout)       (None, 32, 32, 256)       0         
_________________________________________________________________
separable_conv2d_3751 (Separ (None, 32, 32, 8)         4360      
_________________________________________________________________
activation_4101 (Activation) (None, 32, 32, 8)         0         
_________________________________________________________________
dropout_4101 (Dropout)       (None, 32, 32, 8)         0         
_________________________________________________________________
separable_conv2d_3752 (Separ (None, 32, 32, 64)        648       
_________________________________________________________________
activation_4102 (Activation) (None, 32, 32, 64)        0         
_________________________________________________________________
dropout_4102 (Dropout)       (None, 32, 32, 64)        0         
_________________________________________________________________
max_pooling2d_970 (MaxPoolin (None, 16, 16, 64)        0         
_________________________________________________________________
separable_conv2d_3753 (Separ (None, 16, 16, 16)        1616      
_________________________________________________________________
activation_4103 (Activation) (None, 16, 16, 16)        0         
_________________________________________________________________
dropout_4103 (Dropout)       (None, 16, 16, 16)        0         
_________________________________________________________________
separable_conv2d_3754 (Separ (None, 16, 16, 128)       2320      
_________________________________________________________________
batch_normalization_2358 (Ba (None, 16, 16, 128)       512       
_________________________________________________________________
activation_4104 (Activation) (None, 16, 16, 128)       0         
_________________________________________________________________
dropout_4104 (Dropout)       (None, 16, 16, 128)       0         
_________________________________________________________________
separable_conv2d_3755 (Separ (None, 16, 16, 64)        9408      
_________________________________________________________________
batch_normalization_2359 (Ba (None, 16, 16, 64)        256       
_________________________________________________________________
activation_4105 (Activation) (None, 16, 16, 64)        0         
_________________________________________________________________
dropout_4105 (Dropout)       (None, 16, 16, 64)        0         
_________________________________________________________________
separable_conv2d_3756 (Separ (None, 16, 16, 128)       8896      
_________________________________________________________________
activation_4106 (Activation) (None, 16, 16, 128)       0         
_________________________________________________________________
dropout_4106 (Dropout)       (None, 16, 16, 128)       0         
_________________________________________________________________
separable_conv2d_3757 (Separ (None, 16, 16, 64)        9408      
_________________________________________________________________
batch_normalization_2360 (Ba (None, 16, 16, 64)        256       
_________________________________________________________________
activation_4107 (Activation) (None, 16, 16, 64)        0         
_________________________________________________________________
dropout_4107 (Dropout)       (None, 16, 16, 64)        0         
_________________________________________________________________
separable_conv2d_3758 (Separ (None, 16, 16, 512)       33856     
_________________________________________________________________
batch_normalization_2361 (Ba (None, 16, 16, 512)       2048      
_________________________________________________________________
activation_4108 (Activation) (None, 16, 16, 512)       0         
_________________________________________________________________
dropout_4108 (Dropout)       (None, 16, 16, 512)       0         
_________________________________________________________________
max_pooling2d_971 (MaxPoolin (None, 8, 8, 512)         0         
_________________________________________________________________
flatten_347 (Flatten)        (None, 32768)             0         
_________________________________________________________________
dense_697 (Dense)            (None, 2048)              67110912  
_________________________________________________________________
batch_normalization_2362 (Ba (None, 2048)              8192      
_________________________________________________________________
activation_4109 (Activation) (None, 2048)              0         
_________________________________________________________________
dropout_4109 (Dropout)       (None, 2048)              0         
_________________________________________________________________
dense_698 (Dense)            (None, 100)               204900    
=================================================================
Total params: 67,407,503
Trainable params: 67,401,359
Non-trainable params: 6,144
_________________________________________________________________
