Model: "sequential_71"
_________________________________________________________________
Layer (type)                 Output Shape              Param #   
=================================================================
separable_conv2d_822 (Separa (None, 32, 32, 32)        155       
_________________________________________________________________
activation_896 (Activation)  (None, 32, 32, 32)        0         
_________________________________________________________________
dropout_896 (Dropout)        (None, 32, 32, 32)        0         
_________________________________________________________________
separable_conv2d_823 (Separa (None, 32, 32, 128)       4512      
_________________________________________________________________
batch_normalization_518 (Bat (None, 32, 32, 128)       512       
_________________________________________________________________
activation_897 (Activation)  (None, 32, 32, 128)       0         
_________________________________________________________________
dropout_897 (Dropout)        (None, 32, 32, 128)       0         
_________________________________________________________________
separable_conv2d_824 (Separa (None, 32, 32, 8)         2184      
_________________________________________________________________
activation_898 (Activation)  (None, 32, 32, 8)         0         
_________________________________________________________________
dropout_898 (Dropout)        (None, 32, 32, 8)         0         
_________________________________________________________________
separable_conv2d_825 (Separa (None, 32, 32, 64)        648       
_________________________________________________________________
activation_899 (Activation)  (None, 32, 32, 64)        0         
_________________________________________________________________
dropout_899 (Dropout)        (None, 32, 32, 64)        0         
_________________________________________________________________
max_pooling2d_202 (MaxPoolin (None, 16, 16, 64)        0         
_________________________________________________________________
separable_conv2d_826 (Separa (None, 16, 16, 8)         1096      
_________________________________________________________________
activation_900 (Activation)  (None, 16, 16, 8)         0         
_________________________________________________________________
dropout_900 (Dropout)        (None, 16, 16, 8)         0         
_________________________________________________________________
separable_conv2d_827 (Separa (None, 16, 16, 128)       1224      
_________________________________________________________________
batch_normalization_519 (Bat (None, 16, 16, 128)       512       
_________________________________________________________________
activation_901 (Activation)  (None, 16, 16, 128)       0         
_________________________________________________________________
dropout_901 (Dropout)        (None, 16, 16, 128)       0         
_________________________________________________________________
separable_conv2d_828 (Separa (None, 16, 16, 64)        9408      
_________________________________________________________________
batch_normalization_520 (Bat (None, 16, 16, 64)        256       
_________________________________________________________________
activation_902 (Activation)  (None, 16, 16, 64)        0         
_________________________________________________________________
dropout_902 (Dropout)        (None, 16, 16, 64)        0         
_________________________________________________________________
separable_conv2d_829 (Separa (None, 16, 16, 512)       33856     
_________________________________________________________________
batch_normalization_521 (Bat (None, 16, 16, 512)       2048      
_________________________________________________________________
activation_903 (Activation)  (None, 16, 16, 512)       0         
_________________________________________________________________
dropout_903 (Dropout)        (None, 16, 16, 512)       0         
_________________________________________________________________
max_pooling2d_203 (MaxPoolin (None, 8, 8, 512)         0         
_________________________________________________________________
separable_conv2d_830 (Separa (None, 8, 8, 32)          21024     
_________________________________________________________________
batch_normalization_522 (Bat (None, 8, 8, 32)          128       
_________________________________________________________________
activation_904 (Activation)  (None, 8, 8, 32)          0         
_________________________________________________________________
dropout_904 (Dropout)        (None, 8, 8, 32)          0         
_________________________________________________________________
max_pooling2d_204 (MaxPoolin (None, 4, 4, 32)          0         
_________________________________________________________________
separable_conv2d_831 (Separa (None, 4, 4, 128)         4512      
_________________________________________________________________
activation_905 (Activation)  (None, 4, 4, 128)         0         
_________________________________________________________________
dropout_905 (Dropout)        (None, 4, 4, 128)         0         
_________________________________________________________________
separable_conv2d_832 (Separa (None, 4, 4, 32)          5280      
_________________________________________________________________
batch_normalization_523 (Bat (None, 4, 4, 32)          128       
_________________________________________________________________
activation_906 (Activation)  (None, 4, 4, 32)          0         
_________________________________________________________________
dropout_906 (Dropout)        (None, 4, 4, 32)          0         
_________________________________________________________________
separable_conv2d_833 (Separa (None, 4, 4, 256)         8736      
_________________________________________________________________
batch_normalization_524 (Bat (None, 4, 4, 256)         1024      
_________________________________________________________________
activation_907 (Activation)  (None, 4, 4, 256)         0         
_________________________________________________________________
dropout_907 (Dropout)        (None, 4, 4, 256)         0         
_________________________________________________________________
flatten_71 (Flatten)         (None, 4096)              0         
_________________________________________________________________
dense_145 (Dense)            (None, 2048)              8390656   
_________________________________________________________________
batch_normalization_525 (Bat (None, 2048)              8192      
_________________________________________________________________
activation_908 (Activation)  (None, 2048)              0         
_________________________________________________________________
dropout_908 (Dropout)        (None, 2048)              0         
_________________________________________________________________
dense_146 (Dense)            (None, 100)               204900    
=================================================================
Total params: 8,700,991
Trainable params: 8,694,591
Non-trainable params: 6,400
_________________________________________________________________
