Model: "sequential_169"
_________________________________________________________________
Layer (type)                 Output Shape              Param #   
=================================================================
separable_conv2d_1924 (Separ (None, 32, 32, 32)        155       
_________________________________________________________________
activation_2096 (Activation) (None, 32, 32, 32)        0         
_________________________________________________________________
dropout_2096 (Dropout)       (None, 32, 32, 32)        0         
_________________________________________________________________
separable_conv2d_1925 (Separ (None, 32, 32, 128)       4512      
_________________________________________________________________
batch_normalization_1247 (Ba (None, 32, 32, 128)       512       
_________________________________________________________________
activation_2097 (Activation) (None, 32, 32, 128)       0         
_________________________________________________________________
dropout_2097 (Dropout)       (None, 32, 32, 128)       0         
_________________________________________________________________
separable_conv2d_1926 (Separ (None, 32, 32, 8)         2184      
_________________________________________________________________
activation_2098 (Activation) (None, 32, 32, 8)         0         
_________________________________________________________________
dropout_2098 (Dropout)       (None, 32, 32, 8)         0         
_________________________________________________________________
separable_conv2d_1927 (Separ (None, 32, 32, 64)        648       
_________________________________________________________________
activation_2099 (Activation) (None, 32, 32, 64)        0         
_________________________________________________________________
dropout_2099 (Dropout)       (None, 32, 32, 64)        0         
_________________________________________________________________
max_pooling2d_495 (MaxPoolin (None, 16, 16, 64)        0         
_________________________________________________________________
separable_conv2d_1928 (Separ (None, 16, 16, 8)         1096      
_________________________________________________________________
activation_2100 (Activation) (None, 16, 16, 8)         0         
_________________________________________________________________
dropout_2100 (Dropout)       (None, 16, 16, 8)         0         
_________________________________________________________________
separable_conv2d_1929 (Separ (None, 16, 16, 128)       1224      
_________________________________________________________________
batch_normalization_1248 (Ba (None, 16, 16, 128)       512       
_________________________________________________________________
activation_2101 (Activation) (None, 16, 16, 128)       0         
_________________________________________________________________
dropout_2101 (Dropout)       (None, 16, 16, 128)       0         
_________________________________________________________________
separable_conv2d_1930 (Separ (None, 16, 16, 64)        9408      
_________________________________________________________________
batch_normalization_1249 (Ba (None, 16, 16, 64)        256       
_________________________________________________________________
activation_2102 (Activation) (None, 16, 16, 64)        0         
_________________________________________________________________
dropout_2102 (Dropout)       (None, 16, 16, 64)        0         
_________________________________________________________________
separable_conv2d_1931 (Separ (None, 16, 16, 512)       33856     
_________________________________________________________________
batch_normalization_1250 (Ba (None, 16, 16, 512)       2048      
_________________________________________________________________
activation_2103 (Activation) (None, 16, 16, 512)       0         
_________________________________________________________________
dropout_2103 (Dropout)       (None, 16, 16, 512)       0         
_________________________________________________________________
max_pooling2d_496 (MaxPoolin (None, 8, 8, 512)         0         
_________________________________________________________________
separable_conv2d_1932 (Separ (None, 8, 8, 128)         70272     
_________________________________________________________________
activation_2104 (Activation) (None, 8, 8, 128)         0         
_________________________________________________________________
dropout_2104 (Dropout)       (None, 8, 8, 128)         0         
_________________________________________________________________
separable_conv2d_1933 (Separ (None, 8, 8, 32)          5280      
_________________________________________________________________
batch_normalization_1251 (Ba (None, 8, 8, 32)          128       
_________________________________________________________________
activation_2105 (Activation) (None, 8, 8, 32)          0         
_________________________________________________________________
dropout_2105 (Dropout)       (None, 8, 8, 32)          0         
_________________________________________________________________
separable_conv2d_1934 (Separ (None, 8, 8, 256)         8736      
_________________________________________________________________
batch_normalization_1252 (Ba (None, 8, 8, 256)         1024      
_________________________________________________________________
activation_2106 (Activation) (None, 8, 8, 256)         0         
_________________________________________________________________
dropout_2106 (Dropout)       (None, 8, 8, 256)         0         
_________________________________________________________________
max_pooling2d_497 (MaxPoolin (None, 4, 4, 256)         0         
_________________________________________________________________
flatten_169 (Flatten)        (None, 4096)              0         
_________________________________________________________________
dense_341 (Dense)            (None, 2048)              8390656   
_________________________________________________________________
batch_normalization_1253 (Ba (None, 2048)              8192      
_________________________________________________________________
activation_2107 (Activation) (None, 2048)              0         
_________________________________________________________________
dropout_2107 (Dropout)       (None, 2048)              0         
_________________________________________________________________
dense_342 (Dense)            (None, 100)               204900    
=================================================================
Total params: 8,745,599
Trainable params: 8,739,263
Non-trainable params: 6,336
_________________________________________________________________
