Model: "sequential_152"
_________________________________________________________________
Layer (type)                 Output Shape              Param #   
=================================================================
separable_conv2d_1741 (Separ (None, 32, 32, 32)        155       
_________________________________________________________________
activation_1896 (Activation) (None, 32, 32, 32)        0         
_________________________________________________________________
dropout_1896 (Dropout)       (None, 32, 32, 32)        0         
_________________________________________________________________
separable_conv2d_1742 (Separ (None, 32, 32, 128)       4512      
_________________________________________________________________
batch_normalization_1131 (Ba (None, 32, 32, 128)       512       
_________________________________________________________________
activation_1897 (Activation) (None, 32, 32, 128)       0         
_________________________________________________________________
dropout_1897 (Dropout)       (None, 32, 32, 128)       0         
_________________________________________________________________
separable_conv2d_1743 (Separ (None, 32, 32, 8)         2184      
_________________________________________________________________
activation_1898 (Activation) (None, 32, 32, 8)         0         
_________________________________________________________________
dropout_1898 (Dropout)       (None, 32, 32, 8)         0         
_________________________________________________________________
separable_conv2d_1744 (Separ (None, 32, 32, 64)        648       
_________________________________________________________________
activation_1899 (Activation) (None, 32, 32, 64)        0         
_________________________________________________________________
dropout_1899 (Dropout)       (None, 32, 32, 64)        0         
_________________________________________________________________
max_pooling2d_445 (MaxPoolin (None, 16, 16, 64)        0         
_________________________________________________________________
separable_conv2d_1745 (Separ (None, 16, 16, 8)         1096      
_________________________________________________________________
activation_1900 (Activation) (None, 16, 16, 8)         0         
_________________________________________________________________
dropout_1900 (Dropout)       (None, 16, 16, 8)         0         
_________________________________________________________________
separable_conv2d_1746 (Separ (None, 16, 16, 128)       1224      
_________________________________________________________________
batch_normalization_1132 (Ba (None, 16, 16, 128)       512       
_________________________________________________________________
activation_1901 (Activation) (None, 16, 16, 128)       0         
_________________________________________________________________
dropout_1901 (Dropout)       (None, 16, 16, 128)       0         
_________________________________________________________________
separable_conv2d_1747 (Separ (None, 16, 16, 64)        9408      
_________________________________________________________________
batch_normalization_1133 (Ba (None, 16, 16, 64)        256       
_________________________________________________________________
activation_1902 (Activation) (None, 16, 16, 64)        0         
_________________________________________________________________
dropout_1902 (Dropout)       (None, 16, 16, 64)        0         
_________________________________________________________________
separable_conv2d_1748 (Separ (None, 16, 16, 512)       33856     
_________________________________________________________________
batch_normalization_1134 (Ba (None, 16, 16, 512)       2048      
_________________________________________________________________
activation_1903 (Activation) (None, 16, 16, 512)       0         
_________________________________________________________________
dropout_1903 (Dropout)       (None, 16, 16, 512)       0         
_________________________________________________________________
max_pooling2d_446 (MaxPoolin (None, 8, 8, 512)         0         
_________________________________________________________________
separable_conv2d_1749 (Separ (None, 8, 8, 128)         70272     
_________________________________________________________________
activation_1904 (Activation) (None, 8, 8, 128)         0         
_________________________________________________________________
dropout_1904 (Dropout)       (None, 8, 8, 128)         0         
_________________________________________________________________
separable_conv2d_1750 (Separ (None, 8, 8, 32)          5280      
_________________________________________________________________
batch_normalization_1135 (Ba (None, 8, 8, 32)          128       
_________________________________________________________________
activation_1905 (Activation) (None, 8, 8, 32)          0         
_________________________________________________________________
dropout_1905 (Dropout)       (None, 8, 8, 32)          0         
_________________________________________________________________
separable_conv2d_1751 (Separ (None, 8, 8, 256)         8736      
_________________________________________________________________
batch_normalization_1136 (Ba (None, 8, 8, 256)         1024      
_________________________________________________________________
activation_1906 (Activation) (None, 8, 8, 256)         0         
_________________________________________________________________
dropout_1906 (Dropout)       (None, 8, 8, 256)         0         
_________________________________________________________________
max_pooling2d_447 (MaxPoolin (None, 4, 4, 256)         0         
_________________________________________________________________
flatten_152 (Flatten)        (None, 4096)              0         
_________________________________________________________________
dense_307 (Dense)            (None, 2048)              8390656   
_________________________________________________________________
batch_normalization_1137 (Ba (None, 2048)              8192      
_________________________________________________________________
activation_1907 (Activation) (None, 2048)              0         
_________________________________________________________________
dropout_1907 (Dropout)       (None, 2048)              0         
_________________________________________________________________
dense_308 (Dense)            (None, 100)               204900    
=================================================================
Total params: 8,745,599
Trainable params: 8,739,263
Non-trainable params: 6,336
_________________________________________________________________
