Model: "sequential_229"
_________________________________________________________________
Layer (type)                 Output Shape              Param #   
=================================================================
separable_conv2d_2569 (Separ (None, 32, 32, 32)        155       
_________________________________________________________________
activation_2801 (Activation) (None, 32, 32, 32)        0         
_________________________________________________________________
dropout_2801 (Dropout)       (None, 32, 32, 32)        0         
_________________________________________________________________
separable_conv2d_2570 (Separ (None, 32, 32, 256)       8736      
_________________________________________________________________
batch_normalization_1644 (Ba (None, 32, 32, 256)       1024      
_________________________________________________________________
activation_2802 (Activation) (None, 32, 32, 256)       0         
_________________________________________________________________
dropout_2802 (Dropout)       (None, 32, 32, 256)       0         
_________________________________________________________________
separable_conv2d_2571 (Separ (None, 32, 32, 8)         4360      
_________________________________________________________________
activation_2803 (Activation) (None, 32, 32, 8)         0         
_________________________________________________________________
dropout_2803 (Dropout)       (None, 32, 32, 8)         0         
_________________________________________________________________
separable_conv2d_2572 (Separ (None, 32, 32, 64)        648       
_________________________________________________________________
activation_2804 (Activation) (None, 32, 32, 64)        0         
_________________________________________________________________
dropout_2804 (Dropout)       (None, 32, 32, 64)        0         
_________________________________________________________________
max_pooling2d_670 (MaxPoolin (None, 16, 16, 64)        0         
_________________________________________________________________
separable_conv2d_2573 (Separ (None, 16, 16, 16)        1616      
_________________________________________________________________
activation_2805 (Activation) (None, 16, 16, 16)        0         
_________________________________________________________________
dropout_2805 (Dropout)       (None, 16, 16, 16)        0         
_________________________________________________________________
separable_conv2d_2574 (Separ (None, 16, 16, 128)       2320      
_________________________________________________________________
batch_normalization_1645 (Ba (None, 16, 16, 128)       512       
_________________________________________________________________
activation_2806 (Activation) (None, 16, 16, 128)       0         
_________________________________________________________________
dropout_2806 (Dropout)       (None, 16, 16, 128)       0         
_________________________________________________________________
separable_conv2d_2575 (Separ (None, 16, 16, 64)        9408      
_________________________________________________________________
batch_normalization_1646 (Ba (None, 16, 16, 64)        256       
_________________________________________________________________
activation_2807 (Activation) (None, 16, 16, 64)        0         
_________________________________________________________________
dropout_2807 (Dropout)       (None, 16, 16, 64)        0         
_________________________________________________________________
separable_conv2d_2576 (Separ (None, 16, 16, 128)       8896      
_________________________________________________________________
activation_2808 (Activation) (None, 16, 16, 128)       0         
_________________________________________________________________
dropout_2808 (Dropout)       (None, 16, 16, 128)       0         
_________________________________________________________________
separable_conv2d_2577 (Separ (None, 16, 16, 32)        5280      
_________________________________________________________________
batch_normalization_1647 (Ba (None, 16, 16, 32)        128       
_________________________________________________________________
activation_2809 (Activation) (None, 16, 16, 32)        0         
_________________________________________________________________
dropout_2809 (Dropout)       (None, 16, 16, 32)        0         
_________________________________________________________________
separable_conv2d_2578 (Separ (None, 16, 16, 8)         552       
_________________________________________________________________
batch_normalization_1648 (Ba (None, 16, 16, 8)         32        
_________________________________________________________________
activation_2810 (Activation) (None, 16, 16, 8)         0         
_________________________________________________________________
dropout_2810 (Dropout)       (None, 16, 16, 8)         0         
_________________________________________________________________
max_pooling2d_671 (MaxPoolin (None, 8, 8, 8)           0         
_________________________________________________________________
flatten_229 (Flatten)        (None, 512)               0         
_________________________________________________________________
dense_461 (Dense)            (None, 2048)              1050624   
_________________________________________________________________
batch_normalization_1649 (Ba (None, 2048)              8192      
_________________________________________________________________
activation_2811 (Activation) (None, 2048)              0         
_________________________________________________________________
dropout_2811 (Dropout)       (None, 2048)              0         
_________________________________________________________________
dense_462 (Dense)            (None, 100)               204900    
=================================================================
Total params: 1,307,639
Trainable params: 1,302,567
Non-trainable params: 5,072
_________________________________________________________________
