Model: "sequential_262"
_________________________________________________________________
Layer (type)                 Output Shape              Param #   
=================================================================
separable_conv2d_2918 (Separ (None, 32, 32, 32)        155       
_________________________________________________________________
activation_3183 (Activation) (None, 32, 32, 32)        0         
_________________________________________________________________
dropout_3183 (Dropout)       (None, 32, 32, 32)        0         
_________________________________________________________________
separable_conv2d_2919 (Separ (None, 32, 32, 256)       8736      
_________________________________________________________________
batch_normalization_1863 (Ba (None, 32, 32, 256)       1024      
_________________________________________________________________
activation_3184 (Activation) (None, 32, 32, 256)       0         
_________________________________________________________________
dropout_3184 (Dropout)       (None, 32, 32, 256)       0         
_________________________________________________________________
separable_conv2d_2920 (Separ (None, 32, 32, 8)         4360      
_________________________________________________________________
activation_3185 (Activation) (None, 32, 32, 8)         0         
_________________________________________________________________
dropout_3185 (Dropout)       (None, 32, 32, 8)         0         
_________________________________________________________________
separable_conv2d_2921 (Separ (None, 32, 32, 64)        648       
_________________________________________________________________
activation_3186 (Activation) (None, 32, 32, 64)        0         
_________________________________________________________________
dropout_3186 (Dropout)       (None, 32, 32, 64)        0         
_________________________________________________________________
max_pooling2d_762 (MaxPoolin (None, 16, 16, 64)        0         
_________________________________________________________________
separable_conv2d_2922 (Separ (None, 16, 16, 16)        1616      
_________________________________________________________________
activation_3187 (Activation) (None, 16, 16, 16)        0         
_________________________________________________________________
dropout_3187 (Dropout)       (None, 16, 16, 16)        0         
_________________________________________________________________
separable_conv2d_2923 (Separ (None, 16, 16, 128)       2320      
_________________________________________________________________
batch_normalization_1864 (Ba (None, 16, 16, 128)       512       
_________________________________________________________________
activation_3188 (Activation) (None, 16, 16, 128)       0         
_________________________________________________________________
dropout_3188 (Dropout)       (None, 16, 16, 128)       0         
_________________________________________________________________
separable_conv2d_2924 (Separ (None, 16, 16, 64)        9408      
_________________________________________________________________
batch_normalization_1865 (Ba (None, 16, 16, 64)        256       
_________________________________________________________________
activation_3189 (Activation) (None, 16, 16, 64)        0         
_________________________________________________________________
dropout_3189 (Dropout)       (None, 16, 16, 64)        0         
_________________________________________________________________
separable_conv2d_2925 (Separ (None, 16, 16, 128)       8896      
_________________________________________________________________
activation_3190 (Activation) (None, 16, 16, 128)       0         
_________________________________________________________________
dropout_3190 (Dropout)       (None, 16, 16, 128)       0         
_________________________________________________________________
separable_conv2d_2926 (Separ (None, 16, 16, 32)        5280      
_________________________________________________________________
batch_normalization_1866 (Ba (None, 16, 16, 32)        128       
_________________________________________________________________
activation_3191 (Activation) (None, 16, 16, 32)        0         
_________________________________________________________________
dropout_3191 (Dropout)       (None, 16, 16, 32)        0         
_________________________________________________________________
separable_conv2d_2927 (Separ (None, 16, 16, 512)       17184     
_________________________________________________________________
batch_normalization_1867 (Ba (None, 16, 16, 512)       2048      
_________________________________________________________________
activation_3192 (Activation) (None, 16, 16, 512)       0         
_________________________________________________________________
dropout_3192 (Dropout)       (None, 16, 16, 512)       0         
_________________________________________________________________
max_pooling2d_763 (MaxPoolin (None, 8, 8, 512)         0         
_________________________________________________________________
flatten_262 (Flatten)        (None, 32768)             0         
_________________________________________________________________
dense_527 (Dense)            (None, 2048)              67110912  
_________________________________________________________________
batch_normalization_1868 (Ba (None, 2048)              8192      
_________________________________________________________________
activation_3193 (Activation) (None, 2048)              0         
_________________________________________________________________
dropout_3193 (Dropout)       (None, 2048)              0         
_________________________________________________________________
dense_528 (Dense)            (None, 100)               204900    
=================================================================
Total params: 67,386,575
Trainable params: 67,380,495
Non-trainable params: 6,080
_________________________________________________________________
