Model: "sequential_111"
_________________________________________________________________
Layer (type)                 Output Shape              Param #   
=================================================================
separable_conv2d_1286 (Separ (None, 32, 32, 32)        155       
_________________________________________________________________
activation_1400 (Activation) (None, 32, 32, 32)        0         
_________________________________________________________________
dropout_1400 (Dropout)       (None, 32, 32, 32)        0         
_________________________________________________________________
separable_conv2d_1287 (Separ (None, 32, 32, 256)       8736      
_________________________________________________________________
batch_normalization_830 (Bat (None, 32, 32, 256)       1024      
_________________________________________________________________
activation_1401 (Activation) (None, 32, 32, 256)       0         
_________________________________________________________________
dropout_1401 (Dropout)       (None, 32, 32, 256)       0         
_________________________________________________________________
separable_conv2d_1288 (Separ (None, 32, 32, 8)         4360      
_________________________________________________________________
activation_1402 (Activation) (None, 32, 32, 8)         0         
_________________________________________________________________
dropout_1402 (Dropout)       (None, 32, 32, 8)         0         
_________________________________________________________________
separable_conv2d_1289 (Separ (None, 32, 32, 64)        648       
_________________________________________________________________
activation_1403 (Activation) (None, 32, 32, 64)        0         
_________________________________________________________________
dropout_1403 (Dropout)       (None, 32, 32, 64)        0         
_________________________________________________________________
max_pooling2d_322 (MaxPoolin (None, 16, 16, 64)        0         
_________________________________________________________________
separable_conv2d_1290 (Separ (None, 16, 16, 8)         1096      
_________________________________________________________________
activation_1404 (Activation) (None, 16, 16, 8)         0         
_________________________________________________________________
dropout_1404 (Dropout)       (None, 16, 16, 8)         0         
_________________________________________________________________
separable_conv2d_1291 (Separ (None, 16, 16, 128)       1224      
_________________________________________________________________
batch_normalization_831 (Bat (None, 16, 16, 128)       512       
_________________________________________________________________
activation_1405 (Activation) (None, 16, 16, 128)       0         
_________________________________________________________________
dropout_1405 (Dropout)       (None, 16, 16, 128)       0         
_________________________________________________________________
separable_conv2d_1292 (Separ (None, 16, 16, 64)        9408      
_________________________________________________________________
batch_normalization_832 (Bat (None, 16, 16, 64)        256       
_________________________________________________________________
activation_1406 (Activation) (None, 16, 16, 64)        0         
_________________________________________________________________
dropout_1406 (Dropout)       (None, 16, 16, 64)        0         
_________________________________________________________________
separable_conv2d_1293 (Separ (None, 16, 16, 512)       33856     
_________________________________________________________________
batch_normalization_833 (Bat (None, 16, 16, 512)       2048      
_________________________________________________________________
activation_1407 (Activation) (None, 16, 16, 512)       0         
_________________________________________________________________
dropout_1407 (Dropout)       (None, 16, 16, 512)       0         
_________________________________________________________________
max_pooling2d_323 (MaxPoolin (None, 8, 8, 512)         0         
_________________________________________________________________
separable_conv2d_1294 (Separ (None, 8, 8, 32)          21024     
_________________________________________________________________
batch_normalization_834 (Bat (None, 8, 8, 32)          128       
_________________________________________________________________
activation_1408 (Activation) (None, 8, 8, 32)          0         
_________________________________________________________________
dropout_1408 (Dropout)       (None, 8, 8, 32)          0         
_________________________________________________________________
separable_conv2d_1295 (Separ (None, 8, 8, 8)           552       
_________________________________________________________________
batch_normalization_835 (Bat (None, 8, 8, 8)           32        
_________________________________________________________________
activation_1409 (Activation) (None, 8, 8, 8)           0         
_________________________________________________________________
dropout_1409 (Dropout)       (None, 8, 8, 8)           0         
_________________________________________________________________
separable_conv2d_1296 (Separ (None, 8, 8, 256)         2376      
_________________________________________________________________
batch_normalization_836 (Bat (None, 8, 8, 256)         1024      
_________________________________________________________________
activation_1410 (Activation) (None, 8, 8, 256)         0         
_________________________________________________________________
dropout_1410 (Dropout)       (None, 8, 8, 256)         0         
_________________________________________________________________
max_pooling2d_324 (MaxPoolin (None, 4, 4, 256)         0         
_________________________________________________________________
flatten_111 (Flatten)        (None, 4096)              0         
_________________________________________________________________
dense_225 (Dense)            (None, 2048)              8390656   
_________________________________________________________________
batch_normalization_837 (Bat (None, 2048)              8192      
_________________________________________________________________
activation_1411 (Activation) (None, 2048)              0         
_________________________________________________________________
dropout_1411 (Dropout)       (None, 2048)              0         
_________________________________________________________________
dense_226 (Dense)            (None, 100)               204900    
=================================================================
Total params: 8,692,207
Trainable params: 8,685,599
Non-trainable params: 6,608
_________________________________________________________________
