Model: "sequential_392"
_________________________________________________________________
Layer (type)                 Output Shape              Param #   
=================================================================
separable_conv2d_4161 (Separ (None, 32, 32, 128)       539       
_________________________________________________________________
activation_4556 (Activation) (None, 32, 32, 128)       0         
_________________________________________________________________
dropout_4556 (Dropout)       (None, 32, 32, 128)       0         
_________________________________________________________________
separable_conv2d_4162 (Separ (None, 32, 32, 256)       34176     
_________________________________________________________________
batch_normalization_2588 (Ba (None, 32, 32, 256)       1024      
_________________________________________________________________
activation_4557 (Activation) (None, 32, 32, 256)       0         
_________________________________________________________________
dropout_4557 (Dropout)       (None, 32, 32, 256)       0         
_________________________________________________________________
separable_conv2d_4163 (Separ (None, 32, 32, 8)         4360      
_________________________________________________________________
activation_4558 (Activation) (None, 32, 32, 8)         0         
_________________________________________________________________
dropout_4558 (Dropout)       (None, 32, 32, 8)         0         
_________________________________________________________________
separable_conv2d_4164 (Separ (None, 32, 32, 64)        648       
_________________________________________________________________
activation_4559 (Activation) (None, 32, 32, 64)        0         
_________________________________________________________________
dropout_4559 (Dropout)       (None, 32, 32, 64)        0         
_________________________________________________________________
max_pooling2d_1071 (MaxPooli (None, 16, 16, 64)        0         
_________________________________________________________________
separable_conv2d_4165 (Separ (None, 16, 16, 16)        1616      
_________________________________________________________________
activation_4560 (Activation) (None, 16, 16, 16)        0         
_________________________________________________________________
dropout_4560 (Dropout)       (None, 16, 16, 16)        0         
_________________________________________________________________
separable_conv2d_4166 (Separ (None, 16, 16, 128)       2320      
_________________________________________________________________
batch_normalization_2589 (Ba (None, 16, 16, 128)       512       
_________________________________________________________________
activation_4561 (Activation) (None, 16, 16, 128)       0         
_________________________________________________________________
dropout_4561 (Dropout)       (None, 16, 16, 128)       0         
_________________________________________________________________
separable_conv2d_4167 (Separ (None, 16, 16, 64)        9408      
_________________________________________________________________
batch_normalization_2590 (Ba (None, 16, 16, 64)        256       
_________________________________________________________________
activation_4562 (Activation) (None, 16, 16, 64)        0         
_________________________________________________________________
dropout_4562 (Dropout)       (None, 16, 16, 64)        0         
_________________________________________________________________
separable_conv2d_4168 (Separ (None, 16, 16, 32)        2656      
_________________________________________________________________
activation_4563 (Activation) (None, 16, 16, 32)        0         
_________________________________________________________________
dropout_4563 (Dropout)       (None, 16, 16, 32)        0         
_________________________________________________________________
separable_conv2d_4169 (Separ (None, 16, 16, 256)       8736      
_________________________________________________________________
batch_normalization_2591 (Ba (None, 16, 16, 256)       1024      
_________________________________________________________________
activation_4564 (Activation) (None, 16, 16, 256)       0         
_________________________________________________________________
dropout_4564 (Dropout)       (None, 16, 16, 256)       0         
_________________________________________________________________
max_pooling2d_1072 (MaxPooli (None, 8, 8, 256)         0         
_________________________________________________________________
flatten_392 (Flatten)        (None, 16384)             0         
_________________________________________________________________
dense_787 (Dense)            (None, 2048)              33556480  
_________________________________________________________________
batch_normalization_2592 (Ba (None, 2048)              8192      
_________________________________________________________________
activation_4565 (Activation) (None, 2048)              0         
_________________________________________________________________
dropout_4565 (Dropout)       (None, 2048)              0         
_________________________________________________________________
dense_788 (Dense)            (None, 100)               204900    
=================================================================
Total params: 33,836,847
Trainable params: 33,831,343
Non-trainable params: 5,504
_________________________________________________________________
