Model: "sequential_60"
_________________________________________________________________
Layer (type)                 Output Shape              Param #   
=================================================================
separable_conv2d_694 (Separa (None, 32, 32, 32)        155       
_________________________________________________________________
activation_757 (Activation)  (None, 32, 32, 32)        0         
_________________________________________________________________
dropout_757 (Dropout)        (None, 32, 32, 32)        0         
_________________________________________________________________
separable_conv2d_695 (Separa (None, 32, 32, 128)       4512      
_________________________________________________________________
batch_normalization_431 (Bat (None, 32, 32, 128)       512       
_________________________________________________________________
activation_758 (Activation)  (None, 32, 32, 128)       0         
_________________________________________________________________
dropout_758 (Dropout)        (None, 32, 32, 128)       0         
_________________________________________________________________
separable_conv2d_696 (Separa (None, 32, 32, 8)         2184      
_________________________________________________________________
activation_759 (Activation)  (None, 32, 32, 8)         0         
_________________________________________________________________
dropout_759 (Dropout)        (None, 32, 32, 8)         0         
_________________________________________________________________
separable_conv2d_697 (Separa (None, 32, 32, 64)        648       
_________________________________________________________________
activation_760 (Activation)  (None, 32, 32, 64)        0         
_________________________________________________________________
dropout_760 (Dropout)        (None, 32, 32, 64)        0         
_________________________________________________________________
max_pooling2d_169 (MaxPoolin (None, 16, 16, 64)        0         
_________________________________________________________________
separable_conv2d_698 (Separa (None, 16, 16, 8)         1096      
_________________________________________________________________
activation_761 (Activation)  (None, 16, 16, 8)         0         
_________________________________________________________________
dropout_761 (Dropout)        (None, 16, 16, 8)         0         
_________________________________________________________________
separable_conv2d_699 (Separa (None, 16, 16, 128)       1224      
_________________________________________________________________
batch_normalization_432 (Bat (None, 16, 16, 128)       512       
_________________________________________________________________
activation_762 (Activation)  (None, 16, 16, 128)       0         
_________________________________________________________________
dropout_762 (Dropout)        (None, 16, 16, 128)       0         
_________________________________________________________________
separable_conv2d_700 (Separa (None, 16, 16, 64)        9408      
_________________________________________________________________
batch_normalization_433 (Bat (None, 16, 16, 64)        256       
_________________________________________________________________
activation_763 (Activation)  (None, 16, 16, 64)        0         
_________________________________________________________________
dropout_763 (Dropout)        (None, 16, 16, 64)        0         
_________________________________________________________________
separable_conv2d_701 (Separa (None, 16, 16, 512)       33856     
_________________________________________________________________
batch_normalization_434 (Bat (None, 16, 16, 512)       2048      
_________________________________________________________________
activation_764 (Activation)  (None, 16, 16, 512)       0         
_________________________________________________________________
dropout_764 (Dropout)        (None, 16, 16, 512)       0         
_________________________________________________________________
max_pooling2d_170 (MaxPoolin (None, 8, 8, 512)         0         
_________________________________________________________________
separable_conv2d_702 (Separa (None, 8, 8, 32)          21024     
_________________________________________________________________
batch_normalization_435 (Bat (None, 8, 8, 32)          128       
_________________________________________________________________
activation_765 (Activation)  (None, 8, 8, 32)          0         
_________________________________________________________________
dropout_765 (Dropout)        (None, 8, 8, 32)          0         
_________________________________________________________________
max_pooling2d_171 (MaxPoolin (None, 4, 4, 32)          0         
_________________________________________________________________
separable_conv2d_703 (Separa (None, 4, 4, 32)          1344      
_________________________________________________________________
batch_normalization_436 (Bat (None, 4, 4, 32)          128       
_________________________________________________________________
activation_766 (Activation)  (None, 4, 4, 32)          0         
_________________________________________________________________
dropout_766 (Dropout)        (None, 4, 4, 32)          0         
_________________________________________________________________
separable_conv2d_704 (Separa (None, 4, 4, 256)         8736      
_________________________________________________________________
batch_normalization_437 (Bat (None, 4, 4, 256)         1024      
_________________________________________________________________
activation_767 (Activation)  (None, 4, 4, 256)         0         
_________________________________________________________________
dropout_767 (Dropout)        (None, 4, 4, 256)         0         
_________________________________________________________________
flatten_60 (Flatten)         (None, 4096)              0         
_________________________________________________________________
dense_123 (Dense)            (None, 2048)              8390656   
_________________________________________________________________
batch_normalization_438 (Bat (None, 2048)              8192      
_________________________________________________________________
activation_768 (Activation)  (None, 2048)              0         
_________________________________________________________________
dropout_768 (Dropout)        (None, 2048)              0         
_________________________________________________________________
dense_124 (Dense)            (None, 100)               204900    
=================================================================
Total params: 8,692,543
Trainable params: 8,686,143
Non-trainable params: 6,400
_________________________________________________________________
