Model: "sequential_350"
_________________________________________________________________
Layer (type)                 Output Shape              Param #   
=================================================================
separable_conv2d_3778 (Separ (None, 32, 32, 32)        155       
_________________________________________________________________
activation_4131 (Activation) (None, 32, 32, 32)        0         
_________________________________________________________________
dropout_4131 (Dropout)       (None, 32, 32, 32)        0         
_________________________________________________________________
separable_conv2d_3779 (Separ (None, 32, 32, 256)       8736      
_________________________________________________________________
batch_normalization_2374 (Ba (None, 32, 32, 256)       1024      
_________________________________________________________________
activation_4132 (Activation) (None, 32, 32, 256)       0         
_________________________________________________________________
dropout_4132 (Dropout)       (None, 32, 32, 256)       0         
_________________________________________________________________
separable_conv2d_3780 (Separ (None, 32, 32, 8)         4360      
_________________________________________________________________
activation_4133 (Activation) (None, 32, 32, 8)         0         
_________________________________________________________________
dropout_4133 (Dropout)       (None, 32, 32, 8)         0         
_________________________________________________________________
separable_conv2d_3781 (Separ (None, 32, 32, 64)        648       
_________________________________________________________________
activation_4134 (Activation) (None, 32, 32, 64)        0         
_________________________________________________________________
dropout_4134 (Dropout)       (None, 32, 32, 64)        0         
_________________________________________________________________
max_pooling2d_977 (MaxPoolin (None, 16, 16, 64)        0         
_________________________________________________________________
separable_conv2d_3782 (Separ (None, 16, 16, 16)        1616      
_________________________________________________________________
activation_4135 (Activation) (None, 16, 16, 16)        0         
_________________________________________________________________
dropout_4135 (Dropout)       (None, 16, 16, 16)        0         
_________________________________________________________________
separable_conv2d_3783 (Separ (None, 16, 16, 128)       2320      
_________________________________________________________________
batch_normalization_2375 (Ba (None, 16, 16, 128)       512       
_________________________________________________________________
activation_4136 (Activation) (None, 16, 16, 128)       0         
_________________________________________________________________
dropout_4136 (Dropout)       (None, 16, 16, 128)       0         
_________________________________________________________________
separable_conv2d_3784 (Separ (None, 16, 16, 64)        9408      
_________________________________________________________________
activation_4137 (Activation) (None, 16, 16, 64)        0         
_________________________________________________________________
dropout_4137 (Dropout)       (None, 16, 16, 64)        0         
_________________________________________________________________
separable_conv2d_3785 (Separ (None, 16, 16, 32)        2656      
_________________________________________________________________
activation_4138 (Activation) (None, 16, 16, 32)        0         
_________________________________________________________________
dropout_4138 (Dropout)       (None, 16, 16, 32)        0         
_________________________________________________________________
separable_conv2d_3786 (Separ (None, 16, 16, 256)       8736      
_________________________________________________________________
batch_normalization_2376 (Ba (None, 16, 16, 256)       1024      
_________________________________________________________________
activation_4139 (Activation) (None, 16, 16, 256)       0         
_________________________________________________________________
dropout_4139 (Dropout)       (None, 16, 16, 256)       0         
_________________________________________________________________
max_pooling2d_978 (MaxPoolin (None, 8, 8, 256)         0         
_________________________________________________________________
flatten_350 (Flatten)        (None, 16384)             0         
_________________________________________________________________
dense_703 (Dense)            (None, 2048)              33556480  
_________________________________________________________________
batch_normalization_2377 (Ba (None, 2048)              8192      
_________________________________________________________________
activation_4140 (Activation) (None, 2048)              0         
_________________________________________________________________
dropout_4140 (Dropout)       (None, 2048)              0         
_________________________________________________________________
dense_704 (Dense)            (None, 100)               204900    
=================================================================
Total params: 33,810,767
Trainable params: 33,805,391
Non-trainable params: 5,376
_________________________________________________________________
