Model: "sequential_294"
_________________________________________________________________
Layer (type)                 Output Shape              Param #   
=================================================================
separable_conv2d_3243 (Separ (None, 32, 32, 32)        155       
_________________________________________________________________
activation_3540 (Activation) (None, 32, 32, 32)        0         
_________________________________________________________________
dropout_3540 (Dropout)       (None, 32, 32, 32)        0         
_________________________________________________________________
separable_conv2d_3244 (Separ (None, 32, 32, 256)       8736      
_________________________________________________________________
batch_normalization_2065 (Ba (None, 32, 32, 256)       1024      
_________________________________________________________________
activation_3541 (Activation) (None, 32, 32, 256)       0         
_________________________________________________________________
dropout_3541 (Dropout)       (None, 32, 32, 256)       0         
_________________________________________________________________
separable_conv2d_3245 (Separ (None, 32, 32, 8)         4360      
_________________________________________________________________
activation_3542 (Activation) (None, 32, 32, 8)         0         
_________________________________________________________________
dropout_3542 (Dropout)       (None, 32, 32, 8)         0         
_________________________________________________________________
separable_conv2d_3246 (Separ (None, 32, 32, 64)        648       
_________________________________________________________________
activation_3543 (Activation) (None, 32, 32, 64)        0         
_________________________________________________________________
dropout_3543 (Dropout)       (None, 32, 32, 64)        0         
_________________________________________________________________
max_pooling2d_848 (MaxPoolin (None, 16, 16, 64)        0         
_________________________________________________________________
separable_conv2d_3247 (Separ (None, 16, 16, 16)        1616      
_________________________________________________________________
activation_3544 (Activation) (None, 16, 16, 16)        0         
_________________________________________________________________
dropout_3544 (Dropout)       (None, 16, 16, 16)        0         
_________________________________________________________________
separable_conv2d_3248 (Separ (None, 16, 16, 128)       2320      
_________________________________________________________________
batch_normalization_2066 (Ba (None, 16, 16, 128)       512       
_________________________________________________________________
activation_3545 (Activation) (None, 16, 16, 128)       0         
_________________________________________________________________
dropout_3545 (Dropout)       (None, 16, 16, 128)       0         
_________________________________________________________________
separable_conv2d_3249 (Separ (None, 16, 16, 64)        9408      
_________________________________________________________________
batch_normalization_2067 (Ba (None, 16, 16, 64)        256       
_________________________________________________________________
activation_3546 (Activation) (None, 16, 16, 64)        0         
_________________________________________________________________
dropout_3546 (Dropout)       (None, 16, 16, 64)        0         
_________________________________________________________________
separable_conv2d_3250 (Separ (None, 16, 16, 64)        4736      
_________________________________________________________________
batch_normalization_2068 (Ba (None, 16, 16, 64)        256       
_________________________________________________________________
activation_3547 (Activation) (None, 16, 16, 64)        0         
_________________________________________________________________
dropout_3547 (Dropout)       (None, 16, 16, 64)        0         
_________________________________________________________________
separable_conv2d_3251 (Separ (None, 16, 16, 512)       33856     
_________________________________________________________________
batch_normalization_2069 (Ba (None, 16, 16, 512)       2048      
_________________________________________________________________
activation_3548 (Activation) (None, 16, 16, 512)       0         
_________________________________________________________________
dropout_3548 (Dropout)       (None, 16, 16, 512)       0         
_________________________________________________________________
max_pooling2d_849 (MaxPoolin (None, 8, 8, 512)         0         
_________________________________________________________________
flatten_294 (Flatten)        (None, 32768)             0         
_________________________________________________________________
dense_591 (Dense)            (None, 2048)              67110912  
_________________________________________________________________
batch_normalization_2070 (Ba (None, 2048)              8192      
_________________________________________________________________
activation_3549 (Activation) (None, 2048)              0         
_________________________________________________________________
dropout_3549 (Dropout)       (None, 2048)              0         
_________________________________________________________________
dense_592 (Dense)            (None, 100)               204900    
=================================================================
Total params: 67,393,935
Trainable params: 67,387,791
Non-trainable params: 6,144
_________________________________________________________________
