Model: "sequential_367"
_________________________________________________________________
Layer (type)                 Output Shape              Param #   
=================================================================
separable_conv2d_3934 (Separ (None, 32, 32, 32)        155       
_________________________________________________________________
activation_4304 (Activation) (None, 32, 32, 32)        0         
_________________________________________________________________
dropout_4304 (Dropout)       (None, 32, 32, 32)        0         
_________________________________________________________________
separable_conv2d_3935 (Separ (None, 32, 32, 256)       8736      
_________________________________________________________________
batch_normalization_2460 (Ba (None, 32, 32, 256)       1024      
_________________________________________________________________
activation_4305 (Activation) (None, 32, 32, 256)       0         
_________________________________________________________________
dropout_4305 (Dropout)       (None, 32, 32, 256)       0         
_________________________________________________________________
separable_conv2d_3936 (Separ (None, 32, 32, 8)         4360      
_________________________________________________________________
batch_normalization_2461 (Ba (None, 32, 32, 8)         32        
_________________________________________________________________
activation_4306 (Activation) (None, 32, 32, 8)         0         
_________________________________________________________________
dropout_4306 (Dropout)       (None, 32, 32, 8)         0         
_________________________________________________________________
separable_conv2d_3937 (Separ (None, 32, 32, 64)        648       
_________________________________________________________________
activation_4307 (Activation) (None, 32, 32, 64)        0         
_________________________________________________________________
dropout_4307 (Dropout)       (None, 32, 32, 64)        0         
_________________________________________________________________
max_pooling2d_1016 (MaxPooli (None, 16, 16, 64)        0         
_________________________________________________________________
separable_conv2d_3938 (Separ (None, 16, 16, 16)        1616      
_________________________________________________________________
activation_4308 (Activation) (None, 16, 16, 16)        0         
_________________________________________________________________
dropout_4308 (Dropout)       (None, 16, 16, 16)        0         
_________________________________________________________________
separable_conv2d_3939 (Separ (None, 16, 16, 128)       2320      
_________________________________________________________________
batch_normalization_2462 (Ba (None, 16, 16, 128)       512       
_________________________________________________________________
activation_4309 (Activation) (None, 16, 16, 128)       0         
_________________________________________________________________
dropout_4309 (Dropout)       (None, 16, 16, 128)       0         
_________________________________________________________________
separable_conv2d_3940 (Separ (None, 16, 16, 64)        9408      
_________________________________________________________________
batch_normalization_2463 (Ba (None, 16, 16, 64)        256       
_________________________________________________________________
activation_4310 (Activation) (None, 16, 16, 64)        0         
_________________________________________________________________
dropout_4310 (Dropout)       (None, 16, 16, 64)        0         
_________________________________________________________________
separable_conv2d_3941 (Separ (None, 16, 16, 32)        2656      
_________________________________________________________________
activation_4311 (Activation) (None, 16, 16, 32)        0         
_________________________________________________________________
dropout_4311 (Dropout)       (None, 16, 16, 32)        0         
_________________________________________________________________
separable_conv2d_3942 (Separ (None, 16, 16, 256)       8736      
_________________________________________________________________
batch_normalization_2464 (Ba (None, 16, 16, 256)       1024      
_________________________________________________________________
activation_4312 (Activation) (None, 16, 16, 256)       0         
_________________________________________________________________
dropout_4312 (Dropout)       (None, 16, 16, 256)       0         
_________________________________________________________________
max_pooling2d_1017 (MaxPooli (None, 8, 8, 256)         0         
_________________________________________________________________
flatten_367 (Flatten)        (None, 16384)             0         
_________________________________________________________________
dense_737 (Dense)            (None, 2048)              33556480  
_________________________________________________________________
batch_normalization_2465 (Ba (None, 2048)              8192      
_________________________________________________________________
activation_4313 (Activation) (None, 2048)              0         
_________________________________________________________________
dropout_4313 (Dropout)       (None, 2048)              0         
_________________________________________________________________
dense_738 (Dense)            (None, 100)               204900    
=================================================================
Total params: 33,811,055
Trainable params: 33,805,535
Non-trainable params: 5,520
_________________________________________________________________
