Model: "sequential_11"
_________________________________________________________________
Layer (type)                 Output Shape              Param #   
=================================================================
separable_conv2d_125 (Separa (None, 32, 32, 32)        155       
_________________________________________________________________
activation_132 (Activation)  (None, 32, 32, 32)        0         
_________________________________________________________________
dropout_132 (Dropout)        (None, 32, 32, 32)        0         
_________________________________________________________________
max_pooling2d_26 (MaxPooling (None, 16, 16, 32)        0         
_________________________________________________________________
separable_conv2d_126 (Separa (None, 16, 16, 1024)      34080     
_________________________________________________________________
activation_133 (Activation)  (None, 16, 16, 1024)      0         
_________________________________________________________________
dropout_133 (Dropout)        (None, 16, 16, 1024)      0         
_________________________________________________________________
separable_conv2d_127 (Separa (None, 16, 16, 256)       271616    
_________________________________________________________________
activation_134 (Activation)  (None, 16, 16, 256)       0         
_________________________________________________________________
dropout_134 (Dropout)        (None, 16, 16, 256)       0         
_________________________________________________________________
separable_conv2d_128 (Separa (None, 16, 16, 16)        6416      
_________________________________________________________________
activation_135 (Activation)  (None, 16, 16, 16)        0         
_________________________________________________________________
dropout_135 (Dropout)        (None, 16, 16, 16)        0         
_________________________________________________________________
separable_conv2d_129 (Separa (None, 16, 16, 16)        416       
_________________________________________________________________
batch_normalization_65 (Batc (None, 16, 16, 16)        64        
_________________________________________________________________
activation_136 (Activation)  (None, 16, 16, 16)        0         
_________________________________________________________________
dropout_136 (Dropout)        (None, 16, 16, 16)        0         
_________________________________________________________________
separable_conv2d_130 (Separa (None, 16, 16, 1024)      17552     
_________________________________________________________________
activation_137 (Activation)  (None, 16, 16, 1024)      0         
_________________________________________________________________
dropout_137 (Dropout)        (None, 16, 16, 1024)      0         
_________________________________________________________________
separable_conv2d_131 (Separa (None, 16, 16, 64)        74816     
_________________________________________________________________
batch_normalization_66 (Batc (None, 16, 16, 64)        256       
_________________________________________________________________
activation_138 (Activation)  (None, 16, 16, 64)        0         
_________________________________________________________________
dropout_138 (Dropout)        (None, 16, 16, 64)        0         
_________________________________________________________________
separable_conv2d_132 (Separa (None, 16, 16, 1024)      67136     
_________________________________________________________________
batch_normalization_67 (Batc (None, 16, 16, 1024)      4096      
_________________________________________________________________
activation_139 (Activation)  (None, 16, 16, 1024)      0         
_________________________________________________________________
dropout_139 (Dropout)        (None, 16, 16, 1024)      0         
_________________________________________________________________
separable_conv2d_133 (Separa (None, 16, 16, 128)       140416    
_________________________________________________________________
activation_140 (Activation)  (None, 16, 16, 128)       0         
_________________________________________________________________
dropout_140 (Dropout)        (None, 16, 16, 128)       0         
_________________________________________________________________
separable_conv2d_134 (Separa (None, 16, 16, 8)         2184      
_________________________________________________________________
batch_normalization_68 (Batc (None, 16, 16, 8)         32        
_________________________________________________________________
activation_141 (Activation)  (None, 16, 16, 8)         0         
_________________________________________________________________
dropout_141 (Dropout)        (None, 16, 16, 8)         0         
_________________________________________________________________
flatten_11 (Flatten)         (None, 2048)              0         
_________________________________________________________________
dense_18 (Dense)             (None, 128)               262272    
_________________________________________________________________
activation_142 (Activation)  (None, 128)               0         
_________________________________________________________________
dropout_142 (Dropout)        (None, 128)               0         
_________________________________________________________________
dense_19 (Dense)             (None, 16)                2064      
_________________________________________________________________
activation_143 (Activation)  (None, 16)                0         
_________________________________________________________________
dropout_143 (Dropout)        (None, 16)                0         
_________________________________________________________________
dense_20 (Dense)             (None, 256)               4352      
_________________________________________________________________
batch_normalization_69 (Batc (None, 256)               1024      
_________________________________________________________________
activation_144 (Activation)  (None, 256)               0         
_________________________________________________________________
dropout_144 (Dropout)        (None, 256)               0         
_________________________________________________________________
dense_21 (Dense)             (None, 100)               25700     
=================================================================
Total params: 914,647
Trainable params: 911,911
Non-trainable params: 2,736
_________________________________________________________________
