Model: "sequential_26"
_________________________________________________________________
Layer (type)                 Output Shape              Param #   
=================================================================
separable_conv2d_293 (Separa (None, 32, 32, 32)        155       
_________________________________________________________________
activation_322 (Activation)  (None, 32, 32, 32)        0         
_________________________________________________________________
dropout_322 (Dropout)        (None, 32, 32, 32)        0         
_________________________________________________________________
separable_conv2d_294 (Separa (None, 32, 32, 128)       4512      
_________________________________________________________________
batch_normalization_173 (Bat (None, 32, 32, 128)       512       
_________________________________________________________________
activation_323 (Activation)  (None, 32, 32, 128)       0         
_________________________________________________________________
dropout_323 (Dropout)        (None, 32, 32, 128)       0         
_________________________________________________________________
separable_conv2d_295 (Separa (None, 32, 32, 8)         2184      
_________________________________________________________________
activation_324 (Activation)  (None, 32, 32, 8)         0         
_________________________________________________________________
dropout_324 (Dropout)        (None, 32, 32, 8)         0         
_________________________________________________________________
separable_conv2d_296 (Separa (None, 32, 32, 64)        648       
_________________________________________________________________
activation_325 (Activation)  (None, 32, 32, 64)        0         
_________________________________________________________________
dropout_325 (Dropout)        (None, 32, 32, 64)        0         
_________________________________________________________________
max_pooling2d_67 (MaxPooling (None, 16, 16, 64)        0         
_________________________________________________________________
separable_conv2d_297 (Separa (None, 16, 16, 8)         1096      
_________________________________________________________________
activation_326 (Activation)  (None, 16, 16, 8)         0         
_________________________________________________________________
dropout_326 (Dropout)        (None, 16, 16, 8)         0         
_________________________________________________________________
separable_conv2d_298 (Separa (None, 16, 16, 128)       1224      
_________________________________________________________________
batch_normalization_174 (Bat (None, 16, 16, 128)       512       
_________________________________________________________________
activation_327 (Activation)  (None, 16, 16, 128)       0         
_________________________________________________________________
dropout_327 (Dropout)        (None, 16, 16, 128)       0         
_________________________________________________________________
separable_conv2d_299 (Separa (None, 16, 16, 64)        9408      
_________________________________________________________________
batch_normalization_175 (Bat (None, 16, 16, 64)        256       
_________________________________________________________________
activation_328 (Activation)  (None, 16, 16, 64)        0         
_________________________________________________________________
dropout_328 (Dropout)        (None, 16, 16, 64)        0         
_________________________________________________________________
separable_conv2d_300 (Separa (None, 16, 16, 512)       33856     
_________________________________________________________________
batch_normalization_176 (Bat (None, 16, 16, 512)       2048      
_________________________________________________________________
activation_329 (Activation)  (None, 16, 16, 512)       0         
_________________________________________________________________
dropout_329 (Dropout)        (None, 16, 16, 512)       0         
_________________________________________________________________
max_pooling2d_68 (MaxPooling (None, 8, 8, 512)         0         
_________________________________________________________________
separable_conv2d_301 (Separa (None, 8, 8, 32)          21024     
_________________________________________________________________
batch_normalization_177 (Bat (None, 8, 8, 32)          128       
_________________________________________________________________
activation_330 (Activation)  (None, 8, 8, 32)          0         
_________________________________________________________________
dropout_330 (Dropout)        (None, 8, 8, 32)          0         
_________________________________________________________________
max_pooling2d_69 (MaxPooling (None, 4, 4, 32)          0         
_________________________________________________________________
separable_conv2d_302 (Separa (None, 4, 4, 128)         4512      
_________________________________________________________________
activation_331 (Activation)  (None, 4, 4, 128)         0         
_________________________________________________________________
dropout_331 (Dropout)        (None, 4, 4, 128)         0         
_________________________________________________________________
separable_conv2d_303 (Separa (None, 4, 4, 32)          5280      
_________________________________________________________________
batch_normalization_178 (Bat (None, 4, 4, 32)          128       
_________________________________________________________________
activation_332 (Activation)  (None, 4, 4, 32)          0         
_________________________________________________________________
dropout_332 (Dropout)        (None, 4, 4, 32)          0         
_________________________________________________________________
separable_conv2d_304 (Separa (None, 4, 4, 256)         8736      
_________________________________________________________________
batch_normalization_179 (Bat (None, 4, 4, 256)         1024      
_________________________________________________________________
activation_333 (Activation)  (None, 4, 4, 256)         0         
_________________________________________________________________
dropout_333 (Dropout)        (None, 4, 4, 256)         0         
_________________________________________________________________
flatten_26 (Flatten)         (None, 4096)              0         
_________________________________________________________________
dense_55 (Dense)             (None, 2048)              8390656   
_________________________________________________________________
batch_normalization_180 (Bat (None, 2048)              8192      
_________________________________________________________________
activation_334 (Activation)  (None, 2048)              0         
_________________________________________________________________
dropout_334 (Dropout)        (None, 2048)              0         
_________________________________________________________________
dense_56 (Dense)             (None, 100)               204900    
=================================================================
Total params: 8,700,991
Trainable params: 8,694,591
Non-trainable params: 6,400
_________________________________________________________________
