Model: "sequential_23"
_________________________________________________________________
Layer (type)                 Output Shape              Param #   
=================================================================
separable_conv2d_258 (Separa (None, 32, 32, 32)        155       
_________________________________________________________________
activation_284 (Activation)  (None, 32, 32, 32)        0         
_________________________________________________________________
dropout_284 (Dropout)        (None, 32, 32, 32)        0         
_________________________________________________________________
separable_conv2d_259 (Separa (None, 32, 32, 128)       4512      
_________________________________________________________________
batch_normalization_149 (Bat (None, 32, 32, 128)       512       
_________________________________________________________________
activation_285 (Activation)  (None, 32, 32, 128)       0         
_________________________________________________________________
dropout_285 (Dropout)        (None, 32, 32, 128)       0         
_________________________________________________________________
separable_conv2d_260 (Separa (None, 32, 32, 8)         2184      
_________________________________________________________________
activation_286 (Activation)  (None, 32, 32, 8)         0         
_________________________________________________________________
dropout_286 (Dropout)        (None, 32, 32, 8)         0         
_________________________________________________________________
separable_conv2d_261 (Separa (None, 32, 32, 64)        648       
_________________________________________________________________
activation_287 (Activation)  (None, 32, 32, 64)        0         
_________________________________________________________________
dropout_287 (Dropout)        (None, 32, 32, 64)        0         
_________________________________________________________________
max_pooling2d_58 (MaxPooling (None, 16, 16, 64)        0         
_________________________________________________________________
separable_conv2d_262 (Separa (None, 16, 16, 8)         1096      
_________________________________________________________________
activation_288 (Activation)  (None, 16, 16, 8)         0         
_________________________________________________________________
dropout_288 (Dropout)        (None, 16, 16, 8)         0         
_________________________________________________________________
separable_conv2d_263 (Separa (None, 16, 16, 128)       1224      
_________________________________________________________________
batch_normalization_150 (Bat (None, 16, 16, 128)       512       
_________________________________________________________________
activation_289 (Activation)  (None, 16, 16, 128)       0         
_________________________________________________________________
dropout_289 (Dropout)        (None, 16, 16, 128)       0         
_________________________________________________________________
separable_conv2d_264 (Separa (None, 16, 16, 64)        9408      
_________________________________________________________________
batch_normalization_151 (Bat (None, 16, 16, 64)        256       
_________________________________________________________________
activation_290 (Activation)  (None, 16, 16, 64)        0         
_________________________________________________________________
dropout_290 (Dropout)        (None, 16, 16, 64)        0         
_________________________________________________________________
separable_conv2d_265 (Separa (None, 16, 16, 512)       33856     
_________________________________________________________________
batch_normalization_152 (Bat (None, 16, 16, 512)       2048      
_________________________________________________________________
activation_291 (Activation)  (None, 16, 16, 512)       0         
_________________________________________________________________
dropout_291 (Dropout)        (None, 16, 16, 512)       0         
_________________________________________________________________
max_pooling2d_59 (MaxPooling (None, 8, 8, 512)         0         
_________________________________________________________________
separable_conv2d_266 (Separa (None, 8, 8, 32)          21024     
_________________________________________________________________
batch_normalization_153 (Bat (None, 8, 8, 32)          128       
_________________________________________________________________
activation_292 (Activation)  (None, 8, 8, 32)          0         
_________________________________________________________________
dropout_292 (Dropout)        (None, 8, 8, 32)          0         
_________________________________________________________________
max_pooling2d_60 (MaxPooling (None, 4, 4, 32)          0         
_________________________________________________________________
separable_conv2d_267 (Separa (None, 4, 4, 128)         4512      
_________________________________________________________________
activation_293 (Activation)  (None, 4, 4, 128)         0         
_________________________________________________________________
dropout_293 (Dropout)        (None, 4, 4, 128)         0         
_________________________________________________________________
separable_conv2d_268 (Separa (None, 4, 4, 32)          5280      
_________________________________________________________________
batch_normalization_154 (Bat (None, 4, 4, 32)          128       
_________________________________________________________________
activation_294 (Activation)  (None, 4, 4, 32)          0         
_________________________________________________________________
dropout_294 (Dropout)        (None, 4, 4, 32)          0         
_________________________________________________________________
separable_conv2d_269 (Separa (None, 4, 4, 256)         8736      
_________________________________________________________________
batch_normalization_155 (Bat (None, 4, 4, 256)         1024      
_________________________________________________________________
activation_295 (Activation)  (None, 4, 4, 256)         0         
_________________________________________________________________
dropout_295 (Dropout)        (None, 4, 4, 256)         0         
_________________________________________________________________
flatten_23 (Flatten)         (None, 4096)              0         
_________________________________________________________________
dense_49 (Dense)             (None, 2048)              8390656   
_________________________________________________________________
batch_normalization_156 (Bat (None, 2048)              8192      
_________________________________________________________________
activation_296 (Activation)  (None, 2048)              0         
_________________________________________________________________
dropout_296 (Dropout)        (None, 2048)              0         
_________________________________________________________________
dense_50 (Dense)             (None, 100)               204900    
=================================================================
Total params: 8,700,991
Trainable params: 8,694,591
Non-trainable params: 6,400
_________________________________________________________________
