Model: "sequential_100"
_________________________________________________________________
Layer (type)                 Output Shape              Param #   
=================================================================
separable_conv2d_1160 (Separ (None, 32, 32, 32)        155       
_________________________________________________________________
activation_1263 (Activation) (None, 32, 32, 32)        0         
_________________________________________________________________
dropout_1263 (Dropout)       (None, 32, 32, 32)        0         
_________________________________________________________________
separable_conv2d_1161 (Separ (None, 32, 32, 128)       4512      
_________________________________________________________________
batch_normalization_745 (Bat (None, 32, 32, 128)       512       
_________________________________________________________________
activation_1264 (Activation) (None, 32, 32, 128)       0         
_________________________________________________________________
dropout_1264 (Dropout)       (None, 32, 32, 128)       0         
_________________________________________________________________
separable_conv2d_1162 (Separ (None, 32, 32, 8)         2184      
_________________________________________________________________
activation_1265 (Activation) (None, 32, 32, 8)         0         
_________________________________________________________________
dropout_1265 (Dropout)       (None, 32, 32, 8)         0         
_________________________________________________________________
separable_conv2d_1163 (Separ (None, 32, 32, 8)         144       
_________________________________________________________________
activation_1266 (Activation) (None, 32, 32, 8)         0         
_________________________________________________________________
dropout_1266 (Dropout)       (None, 32, 32, 8)         0         
_________________________________________________________________
max_pooling2d_289 (MaxPoolin (None, 16, 16, 8)         0         
_________________________________________________________________
separable_conv2d_1164 (Separ (None, 16, 16, 8)         144       
_________________________________________________________________
activation_1267 (Activation) (None, 16, 16, 8)         0         
_________________________________________________________________
dropout_1267 (Dropout)       (None, 16, 16, 8)         0         
_________________________________________________________________
separable_conv2d_1165 (Separ (None, 16, 16, 128)       1224      
_________________________________________________________________
batch_normalization_746 (Bat (None, 16, 16, 128)       512       
_________________________________________________________________
activation_1268 (Activation) (None, 16, 16, 128)       0         
_________________________________________________________________
dropout_1268 (Dropout)       (None, 16, 16, 128)       0         
_________________________________________________________________
separable_conv2d_1166 (Separ (None, 16, 16, 64)        9408      
_________________________________________________________________
batch_normalization_747 (Bat (None, 16, 16, 64)        256       
_________________________________________________________________
activation_1269 (Activation) (None, 16, 16, 64)        0         
_________________________________________________________________
dropout_1269 (Dropout)       (None, 16, 16, 64)        0         
_________________________________________________________________
separable_conv2d_1167 (Separ (None, 16, 16, 512)       33856     
_________________________________________________________________
batch_normalization_748 (Bat (None, 16, 16, 512)       2048      
_________________________________________________________________
activation_1270 (Activation) (None, 16, 16, 512)       0         
_________________________________________________________________
dropout_1270 (Dropout)       (None, 16, 16, 512)       0         
_________________________________________________________________
max_pooling2d_290 (MaxPoolin (None, 8, 8, 512)         0         
_________________________________________________________________
separable_conv2d_1168 (Separ (None, 8, 8, 32)          21024     
_________________________________________________________________
batch_normalization_749 (Bat (None, 8, 8, 32)          128       
_________________________________________________________________
activation_1271 (Activation) (None, 8, 8, 32)          0         
_________________________________________________________________
dropout_1271 (Dropout)       (None, 8, 8, 32)          0         
_________________________________________________________________
max_pooling2d_291 (MaxPoolin (None, 4, 4, 32)          0         
_________________________________________________________________
separable_conv2d_1169 (Separ (None, 4, 4, 128)         4512      
_________________________________________________________________
activation_1272 (Activation) (None, 4, 4, 128)         0         
_________________________________________________________________
dropout_1272 (Dropout)       (None, 4, 4, 128)         0         
_________________________________________________________________
separable_conv2d_1170 (Separ (None, 4, 4, 32)          5280      
_________________________________________________________________
batch_normalization_750 (Bat (None, 4, 4, 32)          128       
_________________________________________________________________
activation_1273 (Activation) (None, 4, 4, 32)          0         
_________________________________________________________________
dropout_1273 (Dropout)       (None, 4, 4, 32)          0         
_________________________________________________________________
separable_conv2d_1171 (Separ (None, 4, 4, 256)         8736      
_________________________________________________________________
batch_normalization_751 (Bat (None, 4, 4, 256)         1024      
_________________________________________________________________
activation_1274 (Activation) (None, 4, 4, 256)         0         
_________________________________________________________________
dropout_1274 (Dropout)       (None, 4, 4, 256)         0         
_________________________________________________________________
flatten_100 (Flatten)        (None, 4096)              0         
_________________________________________________________________
dense_203 (Dense)            (None, 2048)              8390656   
_________________________________________________________________
batch_normalization_752 (Bat (None, 2048)              8192      
_________________________________________________________________
activation_1275 (Activation) (None, 2048)              0         
_________________________________________________________________
dropout_1275 (Dropout)       (None, 2048)              0         
_________________________________________________________________
dense_204 (Dense)            (None, 100)               204900    
=================================================================
Total params: 8,699,535
Trainable params: 8,693,135
Non-trainable params: 6,400
_________________________________________________________________
