Model: "sequential_256"
_________________________________________________________________
Layer (type)                 Output Shape              Param #   
=================================================================
separable_conv2d_2854 (Separ (None, 32, 32, 32)        155       
_________________________________________________________________
activation_3113 (Activation) (None, 32, 32, 32)        0         
_________________________________________________________________
dropout_3113 (Dropout)       (None, 32, 32, 32)        0         
_________________________________________________________________
separable_conv2d_2855 (Separ (None, 32, 32, 256)       8736      
_________________________________________________________________
batch_normalization_1822 (Ba (None, 32, 32, 256)       1024      
_________________________________________________________________
activation_3114 (Activation) (None, 32, 32, 256)       0         
_________________________________________________________________
dropout_3114 (Dropout)       (None, 32, 32, 256)       0         
_________________________________________________________________
separable_conv2d_2856 (Separ (None, 32, 32, 8)         4360      
_________________________________________________________________
activation_3115 (Activation) (None, 32, 32, 8)         0         
_________________________________________________________________
dropout_3115 (Dropout)       (None, 32, 32, 8)         0         
_________________________________________________________________
separable_conv2d_2857 (Separ (None, 32, 32, 64)        648       
_________________________________________________________________
activation_3116 (Activation) (None, 32, 32, 64)        0         
_________________________________________________________________
dropout_3116 (Dropout)       (None, 32, 32, 64)        0         
_________________________________________________________________
max_pooling2d_745 (MaxPoolin (None, 16, 16, 64)        0         
_________________________________________________________________
separable_conv2d_2858 (Separ (None, 16, 16, 16)        1616      
_________________________________________________________________
activation_3117 (Activation) (None, 16, 16, 16)        0         
_________________________________________________________________
dropout_3117 (Dropout)       (None, 16, 16, 16)        0         
_________________________________________________________________
separable_conv2d_2859 (Separ (None, 16, 16, 128)       2320      
_________________________________________________________________
batch_normalization_1823 (Ba (None, 16, 16, 128)       512       
_________________________________________________________________
activation_3118 (Activation) (None, 16, 16, 128)       0         
_________________________________________________________________
dropout_3118 (Dropout)       (None, 16, 16, 128)       0         
_________________________________________________________________
separable_conv2d_2860 (Separ (None, 16, 16, 64)        9408      
_________________________________________________________________
batch_normalization_1824 (Ba (None, 16, 16, 64)        256       
_________________________________________________________________
activation_3119 (Activation) (None, 16, 16, 64)        0         
_________________________________________________________________
dropout_3119 (Dropout)       (None, 16, 16, 64)        0         
_________________________________________________________________
separable_conv2d_2861 (Separ (None, 16, 16, 512)       33856     
_________________________________________________________________
batch_normalization_1825 (Ba (None, 16, 16, 512)       2048      
_________________________________________________________________
activation_3120 (Activation) (None, 16, 16, 512)       0         
_________________________________________________________________
dropout_3120 (Dropout)       (None, 16, 16, 512)       0         
_________________________________________________________________
max_pooling2d_746 (MaxPoolin (None, 8, 8, 512)         0         
_________________________________________________________________
separable_conv2d_2862 (Separ (None, 8, 8, 128)         70272     
_________________________________________________________________
activation_3121 (Activation) (None, 8, 8, 128)         0         
_________________________________________________________________
dropout_3121 (Dropout)       (None, 8, 8, 128)         0         
_________________________________________________________________
separable_conv2d_2863 (Separ (None, 8, 8, 32)          5280      
_________________________________________________________________
batch_normalization_1826 (Ba (None, 8, 8, 32)          128       
_________________________________________________________________
activation_3122 (Activation) (None, 8, 8, 32)          0         
_________________________________________________________________
dropout_3122 (Dropout)       (None, 8, 8, 32)          0         
_________________________________________________________________
separable_conv2d_2864 (Separ (None, 8, 8, 256)         8736      
_________________________________________________________________
batch_normalization_1827 (Ba (None, 8, 8, 256)         1024      
_________________________________________________________________
activation_3123 (Activation) (None, 8, 8, 256)         0         
_________________________________________________________________
dropout_3123 (Dropout)       (None, 8, 8, 256)         0         
_________________________________________________________________
max_pooling2d_747 (MaxPoolin (None, 4, 4, 256)         0         
_________________________________________________________________
flatten_256 (Flatten)        (None, 4096)              0         
_________________________________________________________________
dense_515 (Dense)            (None, 2048)              8390656   
_________________________________________________________________
batch_normalization_1828 (Ba (None, 2048)              8192      
_________________________________________________________________
activation_3124 (Activation) (None, 2048)              0         
_________________________________________________________________
dropout_3124 (Dropout)       (None, 2048)              0         
_________________________________________________________________
dense_516 (Dense)            (None, 100)               204900    
=================================================================
Total params: 8,754,127
Trainable params: 8,747,535
Non-trainable params: 6,592
_________________________________________________________________
