Model: "sequential_303"
_________________________________________________________________
Layer (type)                 Output Shape              Param #   
=================================================================
separable_conv2d_3329 (Separ (None, 32, 32, 32)        155       
_________________________________________________________________
activation_3635 (Activation) (None, 32, 32, 32)        0         
_________________________________________________________________
dropout_3635 (Dropout)       (None, 32, 32, 32)        0         
_________________________________________________________________
separable_conv2d_3330 (Separ (None, 32, 32, 256)       8736      
_________________________________________________________________
batch_normalization_2117 (Ba (None, 32, 32, 256)       1024      
_________________________________________________________________
activation_3636 (Activation) (None, 32, 32, 256)       0         
_________________________________________________________________
dropout_3636 (Dropout)       (None, 32, 32, 256)       0         
_________________________________________________________________
separable_conv2d_3331 (Separ (None, 32, 32, 8)         4360      
_________________________________________________________________
activation_3637 (Activation) (None, 32, 32, 8)         0         
_________________________________________________________________
dropout_3637 (Dropout)       (None, 32, 32, 8)         0         
_________________________________________________________________
separable_conv2d_3332 (Separ (None, 32, 32, 64)        648       
_________________________________________________________________
activation_3638 (Activation) (None, 32, 32, 64)        0         
_________________________________________________________________
dropout_3638 (Dropout)       (None, 32, 32, 64)        0         
_________________________________________________________________
max_pooling2d_870 (MaxPoolin (None, 16, 16, 64)        0         
_________________________________________________________________
separable_conv2d_3333 (Separ (None, 16, 16, 16)        1616      
_________________________________________________________________
activation_3639 (Activation) (None, 16, 16, 16)        0         
_________________________________________________________________
dropout_3639 (Dropout)       (None, 16, 16, 16)        0         
_________________________________________________________________
separable_conv2d_3334 (Separ (None, 16, 16, 128)       2320      
_________________________________________________________________
batch_normalization_2118 (Ba (None, 16, 16, 128)       512       
_________________________________________________________________
activation_3640 (Activation) (None, 16, 16, 128)       0         
_________________________________________________________________
dropout_3640 (Dropout)       (None, 16, 16, 128)       0         
_________________________________________________________________
separable_conv2d_3335 (Separ (None, 16, 16, 64)        9408      
_________________________________________________________________
batch_normalization_2119 (Ba (None, 16, 16, 64)        256       
_________________________________________________________________
activation_3641 (Activation) (None, 16, 16, 64)        0         
_________________________________________________________________
dropout_3641 (Dropout)       (None, 16, 16, 64)        0         
_________________________________________________________________
separable_conv2d_3336 (Separ (None, 16, 16, 128)       8896      
_________________________________________________________________
activation_3642 (Activation) (None, 16, 16, 128)       0         
_________________________________________________________________
dropout_3642 (Dropout)       (None, 16, 16, 128)       0         
_________________________________________________________________
separable_conv2d_3337 (Separ (None, 16, 16, 32)        5280      
_________________________________________________________________
batch_normalization_2120 (Ba (None, 16, 16, 32)        128       
_________________________________________________________________
activation_3643 (Activation) (None, 16, 16, 32)        0         
_________________________________________________________________
dropout_3643 (Dropout)       (None, 16, 16, 32)        0         
_________________________________________________________________
separable_conv2d_3338 (Separ (None, 16, 16, 512)       17184     
_________________________________________________________________
batch_normalization_2121 (Ba (None, 16, 16, 512)       2048      
_________________________________________________________________
activation_3644 (Activation) (None, 16, 16, 512)       0         
_________________________________________________________________
dropout_3644 (Dropout)       (None, 16, 16, 512)       0         
_________________________________________________________________
max_pooling2d_871 (MaxPoolin (None, 8, 8, 512)         0         
_________________________________________________________________
flatten_303 (Flatten)        (None, 32768)             0         
_________________________________________________________________
dense_609 (Dense)            (None, 2048)              67110912  
_________________________________________________________________
batch_normalization_2122 (Ba (None, 2048)              8192      
_________________________________________________________________
activation_3645 (Activation) (None, 2048)              0         
_________________________________________________________________
dropout_3645 (Dropout)       (None, 2048)              0         
_________________________________________________________________
dense_610 (Dense)            (None, 100)               204900    
=================================================================
Total params: 67,386,575
Trainable params: 67,380,495
Non-trainable params: 6,080
_________________________________________________________________
