Model: "sequential_349"
_________________________________________________________________
Layer (type)                 Output Shape              Param #   
=================================================================
separable_conv2d_3768 (Separ (None, 32, 32, 32)        155       
_________________________________________________________________
activation_4120 (Activation) (None, 32, 32, 32)        0         
_________________________________________________________________
dropout_4120 (Dropout)       (None, 32, 32, 32)        0         
_________________________________________________________________
separable_conv2d_3769 (Separ (None, 32, 32, 256)       8736      
_________________________________________________________________
batch_normalization_2368 (Ba (None, 32, 32, 256)       1024      
_________________________________________________________________
activation_4121 (Activation) (None, 32, 32, 256)       0         
_________________________________________________________________
dropout_4121 (Dropout)       (None, 32, 32, 256)       0         
_________________________________________________________________
separable_conv2d_3770 (Separ (None, 32, 32, 8)         4360      
_________________________________________________________________
activation_4122 (Activation) (None, 32, 32, 8)         0         
_________________________________________________________________
dropout_4122 (Dropout)       (None, 32, 32, 8)         0         
_________________________________________________________________
separable_conv2d_3771 (Separ (None, 32, 32, 64)        648       
_________________________________________________________________
activation_4123 (Activation) (None, 32, 32, 64)        0         
_________________________________________________________________
dropout_4123 (Dropout)       (None, 32, 32, 64)        0         
_________________________________________________________________
max_pooling2d_975 (MaxPoolin (None, 16, 16, 64)        0         
_________________________________________________________________
separable_conv2d_3772 (Separ (None, 16, 16, 16)        1616      
_________________________________________________________________
activation_4124 (Activation) (None, 16, 16, 16)        0         
_________________________________________________________________
dropout_4124 (Dropout)       (None, 16, 16, 16)        0         
_________________________________________________________________
separable_conv2d_3773 (Separ (None, 16, 16, 128)       2320      
_________________________________________________________________
batch_normalization_2369 (Ba (None, 16, 16, 128)       512       
_________________________________________________________________
activation_4125 (Activation) (None, 16, 16, 128)       0         
_________________________________________________________________
dropout_4125 (Dropout)       (None, 16, 16, 128)       0         
_________________________________________________________________
separable_conv2d_3774 (Separ (None, 16, 16, 64)        9408      
_________________________________________________________________
batch_normalization_2370 (Ba (None, 16, 16, 64)        256       
_________________________________________________________________
activation_4126 (Activation) (None, 16, 16, 64)        0         
_________________________________________________________________
dropout_4126 (Dropout)       (None, 16, 16, 64)        0         
_________________________________________________________________
separable_conv2d_3775 (Separ (None, 16, 16, 128)       8896      
_________________________________________________________________
activation_4127 (Activation) (None, 16, 16, 128)       0         
_________________________________________________________________
dropout_4127 (Dropout)       (None, 16, 16, 128)       0         
_________________________________________________________________
separable_conv2d_3776 (Separ (None, 16, 16, 32)        5280      
_________________________________________________________________
batch_normalization_2371 (Ba (None, 16, 16, 32)        128       
_________________________________________________________________
activation_4128 (Activation) (None, 16, 16, 32)        0         
_________________________________________________________________
dropout_4128 (Dropout)       (None, 16, 16, 32)        0         
_________________________________________________________________
separable_conv2d_3777 (Separ (None, 16, 16, 512)       17184     
_________________________________________________________________
batch_normalization_2372 (Ba (None, 16, 16, 512)       2048      
_________________________________________________________________
activation_4129 (Activation) (None, 16, 16, 512)       0         
_________________________________________________________________
dropout_4129 (Dropout)       (None, 16, 16, 512)       0         
_________________________________________________________________
max_pooling2d_976 (MaxPoolin (None, 8, 8, 512)         0         
_________________________________________________________________
flatten_349 (Flatten)        (None, 32768)             0         
_________________________________________________________________
dense_701 (Dense)            (None, 2048)              67110912  
_________________________________________________________________
batch_normalization_2373 (Ba (None, 2048)              8192      
_________________________________________________________________
activation_4130 (Activation) (None, 2048)              0         
_________________________________________________________________
dropout_4130 (Dropout)       (None, 2048)              0         
_________________________________________________________________
dense_702 (Dense)            (None, 100)               204900    
=================================================================
Total params: 67,386,575
Trainable params: 67,380,495
Non-trainable params: 6,080
_________________________________________________________________
