Model: "sequential_93"
_________________________________________________________________
Layer (type)                 Output Shape              Param #   
=================================================================
separable_conv2d_1080 (Separ (None, 32, 32, 32)        155       
_________________________________________________________________
activation_1176 (Activation) (None, 32, 32, 32)        0         
_________________________________________________________________
dropout_1176 (Dropout)       (None, 32, 32, 32)        0         
_________________________________________________________________
separable_conv2d_1081 (Separ (None, 32, 32, 256)       8736      
_________________________________________________________________
batch_normalization_691 (Bat (None, 32, 32, 256)       1024      
_________________________________________________________________
activation_1177 (Activation) (None, 32, 32, 256)       0         
_________________________________________________________________
dropout_1177 (Dropout)       (None, 32, 32, 256)       0         
_________________________________________________________________
separable_conv2d_1082 (Separ (None, 32, 32, 8)         4360      
_________________________________________________________________
activation_1178 (Activation) (None, 32, 32, 8)         0         
_________________________________________________________________
dropout_1178 (Dropout)       (None, 32, 32, 8)         0         
_________________________________________________________________
separable_conv2d_1083 (Separ (None, 32, 32, 64)        648       
_________________________________________________________________
activation_1179 (Activation) (None, 32, 32, 64)        0         
_________________________________________________________________
dropout_1179 (Dropout)       (None, 32, 32, 64)        0         
_________________________________________________________________
max_pooling2d_268 (MaxPoolin (None, 16, 16, 64)        0         
_________________________________________________________________
separable_conv2d_1084 (Separ (None, 16, 16, 8)         1096      
_________________________________________________________________
activation_1180 (Activation) (None, 16, 16, 8)         0         
_________________________________________________________________
dropout_1180 (Dropout)       (None, 16, 16, 8)         0         
_________________________________________________________________
separable_conv2d_1085 (Separ (None, 16, 16, 128)       1224      
_________________________________________________________________
batch_normalization_692 (Bat (None, 16, 16, 128)       512       
_________________________________________________________________
activation_1181 (Activation) (None, 16, 16, 128)       0         
_________________________________________________________________
dropout_1181 (Dropout)       (None, 16, 16, 128)       0         
_________________________________________________________________
separable_conv2d_1086 (Separ (None, 16, 16, 64)        9408      
_________________________________________________________________
batch_normalization_693 (Bat (None, 16, 16, 64)        256       
_________________________________________________________________
activation_1182 (Activation) (None, 16, 16, 64)        0         
_________________________________________________________________
dropout_1182 (Dropout)       (None, 16, 16, 64)        0         
_________________________________________________________________
separable_conv2d_1087 (Separ (None, 16, 16, 512)       33856     
_________________________________________________________________
batch_normalization_694 (Bat (None, 16, 16, 512)       2048      
_________________________________________________________________
activation_1183 (Activation) (None, 16, 16, 512)       0         
_________________________________________________________________
dropout_1183 (Dropout)       (None, 16, 16, 512)       0         
_________________________________________________________________
max_pooling2d_269 (MaxPoolin (None, 8, 8, 512)         0         
_________________________________________________________________
separable_conv2d_1088 (Separ (None, 8, 8, 128)         70272     
_________________________________________________________________
activation_1184 (Activation) (None, 8, 8, 128)         0         
_________________________________________________________________
dropout_1184 (Dropout)       (None, 8, 8, 128)         0         
_________________________________________________________________
separable_conv2d_1089 (Separ (None, 8, 8, 32)          5280      
_________________________________________________________________
batch_normalization_695 (Bat (None, 8, 8, 32)          128       
_________________________________________________________________
activation_1185 (Activation) (None, 8, 8, 32)          0         
_________________________________________________________________
dropout_1185 (Dropout)       (None, 8, 8, 32)          0         
_________________________________________________________________
separable_conv2d_1090 (Separ (None, 8, 8, 512)         17184     
_________________________________________________________________
batch_normalization_696 (Bat (None, 8, 8, 512)         2048      
_________________________________________________________________
activation_1186 (Activation) (None, 8, 8, 512)         0         
_________________________________________________________________
dropout_1186 (Dropout)       (None, 8, 8, 512)         0         
_________________________________________________________________
max_pooling2d_270 (MaxPoolin (None, 4, 4, 512)         0         
_________________________________________________________________
flatten_93 (Flatten)         (None, 8192)              0         
_________________________________________________________________
dense_189 (Dense)            (None, 2048)              16779264  
_________________________________________________________________
batch_normalization_697 (Bat (None, 2048)              8192      
_________________________________________________________________
activation_1187 (Activation) (None, 2048)              0         
_________________________________________________________________
dropout_1187 (Dropout)       (None, 2048)              0         
_________________________________________________________________
dense_190 (Dense)            (None, 100)               204900    
=================================================================
Total params: 17,150,591
Trainable params: 17,143,487
Non-trainable params: 7,104
_________________________________________________________________
