Model: "sequential_120"
_________________________________________________________________
Layer (type)                 Output Shape              Param #   
=================================================================
separable_conv2d_1387 (Separ (None, 32, 32, 32)        155       
_________________________________________________________________
activation_1510 (Activation) (None, 32, 32, 32)        0         
_________________________________________________________________
dropout_1510 (Dropout)       (None, 32, 32, 32)        0         
_________________________________________________________________
separable_conv2d_1388 (Separ (None, 32, 32, 128)       4512      
_________________________________________________________________
batch_normalization_900 (Bat (None, 32, 32, 128)       512       
_________________________________________________________________
activation_1511 (Activation) (None, 32, 32, 128)       0         
_________________________________________________________________
dropout_1511 (Dropout)       (None, 32, 32, 128)       0         
_________________________________________________________________
separable_conv2d_1389 (Separ (None, 32, 32, 8)         2184      
_________________________________________________________________
activation_1512 (Activation) (None, 32, 32, 8)         0         
_________________________________________________________________
dropout_1512 (Dropout)       (None, 32, 32, 8)         0         
_________________________________________________________________
separable_conv2d_1390 (Separ (None, 32, 32, 64)        648       
_________________________________________________________________
activation_1513 (Activation) (None, 32, 32, 64)        0         
_________________________________________________________________
dropout_1513 (Dropout)       (None, 32, 32, 64)        0         
_________________________________________________________________
max_pooling2d_349 (MaxPoolin (None, 16, 16, 64)        0         
_________________________________________________________________
separable_conv2d_1391 (Separ (None, 16, 16, 8)         1096      
_________________________________________________________________
activation_1514 (Activation) (None, 16, 16, 8)         0         
_________________________________________________________________
dropout_1514 (Dropout)       (None, 16, 16, 8)         0         
_________________________________________________________________
separable_conv2d_1392 (Separ (None, 16, 16, 128)       1224      
_________________________________________________________________
batch_normalization_901 (Bat (None, 16, 16, 128)       512       
_________________________________________________________________
activation_1515 (Activation) (None, 16, 16, 128)       0         
_________________________________________________________________
dropout_1515 (Dropout)       (None, 16, 16, 128)       0         
_________________________________________________________________
separable_conv2d_1393 (Separ (None, 16, 16, 64)        9408      
_________________________________________________________________
batch_normalization_902 (Bat (None, 16, 16, 64)        256       
_________________________________________________________________
activation_1516 (Activation) (None, 16, 16, 64)        0         
_________________________________________________________________
dropout_1516 (Dropout)       (None, 16, 16, 64)        0         
_________________________________________________________________
separable_conv2d_1394 (Separ (None, 16, 16, 512)       33856     
_________________________________________________________________
batch_normalization_903 (Bat (None, 16, 16, 512)       2048      
_________________________________________________________________
activation_1517 (Activation) (None, 16, 16, 512)       0         
_________________________________________________________________
dropout_1517 (Dropout)       (None, 16, 16, 512)       0         
_________________________________________________________________
max_pooling2d_350 (MaxPoolin (None, 8, 8, 512)         0         
_________________________________________________________________
separable_conv2d_1395 (Separ (None, 8, 8, 32)          21024     
_________________________________________________________________
batch_normalization_904 (Bat (None, 8, 8, 32)          128       
_________________________________________________________________
activation_1518 (Activation) (None, 8, 8, 32)          0         
_________________________________________________________________
dropout_1518 (Dropout)       (None, 8, 8, 32)          0         
_________________________________________________________________
max_pooling2d_351 (MaxPoolin (None, 4, 4, 32)          0         
_________________________________________________________________
separable_conv2d_1396 (Separ (None, 4, 4, 32)          1344      
_________________________________________________________________
batch_normalization_905 (Bat (None, 4, 4, 32)          128       
_________________________________________________________________
activation_1519 (Activation) (None, 4, 4, 32)          0         
_________________________________________________________________
dropout_1519 (Dropout)       (None, 4, 4, 32)          0         
_________________________________________________________________
separable_conv2d_1397 (Separ (None, 4, 4, 256)         8736      
_________________________________________________________________
batch_normalization_906 (Bat (None, 4, 4, 256)         1024      
_________________________________________________________________
activation_1520 (Activation) (None, 4, 4, 256)         0         
_________________________________________________________________
dropout_1520 (Dropout)       (None, 4, 4, 256)         0         
_________________________________________________________________
flatten_120 (Flatten)        (None, 4096)              0         
_________________________________________________________________
dense_243 (Dense)            (None, 2048)              8390656   
_________________________________________________________________
batch_normalization_907 (Bat (None, 2048)              8192      
_________________________________________________________________
activation_1521 (Activation) (None, 2048)              0         
_________________________________________________________________
dropout_1521 (Dropout)       (None, 2048)              0         
_________________________________________________________________
dense_244 (Dense)            (None, 100)               204900    
=================================================================
Total params: 8,692,543
Trainable params: 8,686,143
Non-trainable params: 6,400
_________________________________________________________________
