Model: "sequential_372"
_________________________________________________________________
Layer (type)                 Output Shape              Param #   
=================================================================
separable_conv2d_3980 (Separ (None, 32, 32, 32)        155       
_________________________________________________________________
activation_4355 (Activation) (None, 32, 32, 32)        0         
_________________________________________________________________
dropout_4355 (Dropout)       (None, 32, 32, 32)        0         
_________________________________________________________________
separable_conv2d_3981 (Separ (None, 32, 32, 256)       8736      
_________________________________________________________________
batch_normalization_2488 (Ba (None, 32, 32, 256)       1024      
_________________________________________________________________
activation_4356 (Activation) (None, 32, 32, 256)       0         
_________________________________________________________________
dropout_4356 (Dropout)       (None, 32, 32, 256)       0         
_________________________________________________________________
separable_conv2d_3982 (Separ (None, 32, 32, 8)         4360      
_________________________________________________________________
activation_4357 (Activation) (None, 32, 32, 8)         0         
_________________________________________________________________
dropout_4357 (Dropout)       (None, 32, 32, 8)         0         
_________________________________________________________________
separable_conv2d_3983 (Separ (None, 32, 32, 64)        648       
_________________________________________________________________
activation_4358 (Activation) (None, 32, 32, 64)        0         
_________________________________________________________________
dropout_4358 (Dropout)       (None, 32, 32, 64)        0         
_________________________________________________________________
max_pooling2d_1027 (MaxPooli (None, 16, 16, 64)        0         
_________________________________________________________________
separable_conv2d_3984 (Separ (None, 16, 16, 16)        1616      
_________________________________________________________________
activation_4359 (Activation) (None, 16, 16, 16)        0         
_________________________________________________________________
dropout_4359 (Dropout)       (None, 16, 16, 16)        0         
_________________________________________________________________
separable_conv2d_3985 (Separ (None, 16, 16, 128)       2320      
_________________________________________________________________
batch_normalization_2489 (Ba (None, 16, 16, 128)       512       
_________________________________________________________________
activation_4360 (Activation) (None, 16, 16, 128)       0         
_________________________________________________________________
dropout_4360 (Dropout)       (None, 16, 16, 128)       0         
_________________________________________________________________
separable_conv2d_3986 (Separ (None, 16, 16, 64)        9408      
_________________________________________________________________
activation_4361 (Activation) (None, 16, 16, 64)        0         
_________________________________________________________________
dropout_4361 (Dropout)       (None, 16, 16, 64)        0         
_________________________________________________________________
separable_conv2d_3987 (Separ (None, 16, 16, 32)        2656      
_________________________________________________________________
activation_4362 (Activation) (None, 16, 16, 32)        0         
_________________________________________________________________
dropout_4362 (Dropout)       (None, 16, 16, 32)        0         
_________________________________________________________________
separable_conv2d_3988 (Separ (None, 16, 16, 256)       8736      
_________________________________________________________________
batch_normalization_2490 (Ba (None, 16, 16, 256)       1024      
_________________________________________________________________
activation_4363 (Activation) (None, 16, 16, 256)       0         
_________________________________________________________________
dropout_4363 (Dropout)       (None, 16, 16, 256)       0         
_________________________________________________________________
max_pooling2d_1028 (MaxPooli (None, 8, 8, 256)         0         
_________________________________________________________________
flatten_372 (Flatten)        (None, 16384)             0         
_________________________________________________________________
dense_747 (Dense)            (None, 2048)              33556480  
_________________________________________________________________
batch_normalization_2491 (Ba (None, 2048)              8192      
_________________________________________________________________
activation_4364 (Activation) (None, 2048)              0         
_________________________________________________________________
dropout_4364 (Dropout)       (None, 2048)              0         
_________________________________________________________________
dense_748 (Dense)            (None, 100)               204900    
=================================================================
Total params: 33,810,767
Trainable params: 33,805,391
Non-trainable params: 5,376
_________________________________________________________________
