Model: "sequential_319"
_________________________________________________________________
Layer (type)                 Output Shape              Param #   
=================================================================
separable_conv2d_3484 (Separ (None, 32, 32, 32)        155       
_________________________________________________________________
activation_3806 (Activation) (None, 32, 32, 32)        0         
_________________________________________________________________
dropout_3806 (Dropout)       (None, 32, 32, 32)        0         
_________________________________________________________________
separable_conv2d_3485 (Separ (None, 32, 32, 256)       8736      
_________________________________________________________________
batch_normalization_2207 (Ba (None, 32, 32, 256)       1024      
_________________________________________________________________
activation_3807 (Activation) (None, 32, 32, 256)       0         
_________________________________________________________________
dropout_3807 (Dropout)       (None, 32, 32, 256)       0         
_________________________________________________________________
separable_conv2d_3486 (Separ (None, 32, 32, 8)         4360      
_________________________________________________________________
activation_3808 (Activation) (None, 32, 32, 8)         0         
_________________________________________________________________
dropout_3808 (Dropout)       (None, 32, 32, 8)         0         
_________________________________________________________________
separable_conv2d_3487 (Separ (None, 32, 32, 64)        648       
_________________________________________________________________
activation_3809 (Activation) (None, 32, 32, 64)        0         
_________________________________________________________________
dropout_3809 (Dropout)       (None, 32, 32, 64)        0         
_________________________________________________________________
max_pooling2d_906 (MaxPoolin (None, 16, 16, 64)        0         
_________________________________________________________________
separable_conv2d_3488 (Separ (None, 16, 16, 16)        1616      
_________________________________________________________________
activation_3810 (Activation) (None, 16, 16, 16)        0         
_________________________________________________________________
dropout_3810 (Dropout)       (None, 16, 16, 16)        0         
_________________________________________________________________
separable_conv2d_3489 (Separ (None, 16, 16, 128)       2320      
_________________________________________________________________
batch_normalization_2208 (Ba (None, 16, 16, 128)       512       
_________________________________________________________________
activation_3811 (Activation) (None, 16, 16, 128)       0         
_________________________________________________________________
dropout_3811 (Dropout)       (None, 16, 16, 128)       0         
_________________________________________________________________
separable_conv2d_3490 (Separ (None, 16, 16, 64)        9408      
_________________________________________________________________
batch_normalization_2209 (Ba (None, 16, 16, 64)        256       
_________________________________________________________________
activation_3812 (Activation) (None, 16, 16, 64)        0         
_________________________________________________________________
dropout_3812 (Dropout)       (None, 16, 16, 64)        0         
_________________________________________________________________
separable_conv2d_3491 (Separ (None, 16, 16, 512)       33856     
_________________________________________________________________
batch_normalization_2210 (Ba (None, 16, 16, 512)       2048      
_________________________________________________________________
activation_3813 (Activation) (None, 16, 16, 512)       0         
_________________________________________________________________
dropout_3813 (Dropout)       (None, 16, 16, 512)       0         
_________________________________________________________________
max_pooling2d_907 (MaxPoolin (None, 8, 8, 512)         0         
_________________________________________________________________
separable_conv2d_3492 (Separ (None, 8, 8, 128)         70272     
_________________________________________________________________
activation_3814 (Activation) (None, 8, 8, 128)         0         
_________________________________________________________________
dropout_3814 (Dropout)       (None, 8, 8, 128)         0         
_________________________________________________________________
separable_conv2d_3493 (Separ (None, 8, 8, 32)          5280      
_________________________________________________________________
batch_normalization_2211 (Ba (None, 8, 8, 32)          128       
_________________________________________________________________
activation_3815 (Activation) (None, 8, 8, 32)          0         
_________________________________________________________________
dropout_3815 (Dropout)       (None, 8, 8, 32)          0         
_________________________________________________________________
separable_conv2d_3494 (Separ (None, 8, 8, 256)         8736      
_________________________________________________________________
batch_normalization_2212 (Ba (None, 8, 8, 256)         1024      
_________________________________________________________________
activation_3816 (Activation) (None, 8, 8, 256)         0         
_________________________________________________________________
dropout_3816 (Dropout)       (None, 8, 8, 256)         0         
_________________________________________________________________
max_pooling2d_908 (MaxPoolin (None, 4, 4, 256)         0         
_________________________________________________________________
flatten_319 (Flatten)        (None, 4096)              0         
_________________________________________________________________
dense_641 (Dense)            (None, 2048)              8390656   
_________________________________________________________________
batch_normalization_2213 (Ba (None, 2048)              8192      
_________________________________________________________________
activation_3817 (Activation) (None, 2048)              0         
_________________________________________________________________
dropout_3817 (Dropout)       (None, 2048)              0         
_________________________________________________________________
dense_642 (Dense)            (None, 100)               204900    
=================================================================
Total params: 8,754,127
Trainable params: 8,747,535
Non-trainable params: 6,592
_________________________________________________________________
