Model: "sequential_261"
_________________________________________________________________
Layer (type)                 Output Shape              Param #   
=================================================================
separable_conv2d_2909 (Separ (None, 32, 32, 32)        155       
_________________________________________________________________
activation_3173 (Activation) (None, 32, 32, 32)        0         
_________________________________________________________________
dropout_3173 (Dropout)       (None, 32, 32, 32)        0         
_________________________________________________________________
separable_conv2d_2910 (Separ (None, 32, 32, 256)       8736      
_________________________________________________________________
batch_normalization_1857 (Ba (None, 32, 32, 256)       1024      
_________________________________________________________________
activation_3174 (Activation) (None, 32, 32, 256)       0         
_________________________________________________________________
dropout_3174 (Dropout)       (None, 32, 32, 256)       0         
_________________________________________________________________
separable_conv2d_2911 (Separ (None, 32, 32, 8)         4360      
_________________________________________________________________
activation_3175 (Activation) (None, 32, 32, 8)         0         
_________________________________________________________________
dropout_3175 (Dropout)       (None, 32, 32, 8)         0         
_________________________________________________________________
separable_conv2d_2912 (Separ (None, 32, 32, 64)        648       
_________________________________________________________________
activation_3176 (Activation) (None, 32, 32, 64)        0         
_________________________________________________________________
dropout_3176 (Dropout)       (None, 32, 32, 64)        0         
_________________________________________________________________
max_pooling2d_760 (MaxPoolin (None, 16, 16, 64)        0         
_________________________________________________________________
separable_conv2d_2913 (Separ (None, 16, 16, 16)        1616      
_________________________________________________________________
activation_3177 (Activation) (None, 16, 16, 16)        0         
_________________________________________________________________
dropout_3177 (Dropout)       (None, 16, 16, 16)        0         
_________________________________________________________________
separable_conv2d_2914 (Separ (None, 16, 16, 128)       2320      
_________________________________________________________________
batch_normalization_1858 (Ba (None, 16, 16, 128)       512       
_________________________________________________________________
activation_3178 (Activation) (None, 16, 16, 128)       0         
_________________________________________________________________
dropout_3178 (Dropout)       (None, 16, 16, 128)       0         
_________________________________________________________________
separable_conv2d_2915 (Separ (None, 16, 16, 64)        9408      
_________________________________________________________________
batch_normalization_1859 (Ba (None, 16, 16, 64)        256       
_________________________________________________________________
activation_3179 (Activation) (None, 16, 16, 64)        0         
_________________________________________________________________
dropout_3179 (Dropout)       (None, 16, 16, 64)        0         
_________________________________________________________________
separable_conv2d_2916 (Separ (None, 16, 16, 32)        2656      
_________________________________________________________________
batch_normalization_1860 (Ba (None, 16, 16, 32)        128       
_________________________________________________________________
activation_3180 (Activation) (None, 16, 16, 32)        0         
_________________________________________________________________
dropout_3180 (Dropout)       (None, 16, 16, 32)        0         
_________________________________________________________________
separable_conv2d_2917 (Separ (None, 16, 16, 512)       17184     
_________________________________________________________________
batch_normalization_1861 (Ba (None, 16, 16, 512)       2048      
_________________________________________________________________
activation_3181 (Activation) (None, 16, 16, 512)       0         
_________________________________________________________________
dropout_3181 (Dropout)       (None, 16, 16, 512)       0         
_________________________________________________________________
max_pooling2d_761 (MaxPoolin (None, 8, 8, 512)         0         
_________________________________________________________________
flatten_261 (Flatten)        (None, 32768)             0         
_________________________________________________________________
dense_525 (Dense)            (None, 2048)              67110912  
_________________________________________________________________
batch_normalization_1862 (Ba (None, 2048)              8192      
_________________________________________________________________
activation_3182 (Activation) (None, 2048)              0         
_________________________________________________________________
dropout_3182 (Dropout)       (None, 2048)              0         
_________________________________________________________________
dense_526 (Dense)            (None, 100)               204900    
=================================================================
Total params: 67,375,055
Trainable params: 67,368,975
Non-trainable params: 6,080
_________________________________________________________________
