Model: "sequential_310"
_________________________________________________________________
Layer (type)                 Output Shape              Param #   
=================================================================
separable_conv2d_3396 (Separ (None, 32, 32, 32)        155       
_________________________________________________________________
activation_3709 (Activation) (None, 32, 32, 32)        0         
_________________________________________________________________
dropout_3709 (Dropout)       (None, 32, 32, 32)        0         
_________________________________________________________________
separable_conv2d_3397 (Separ (None, 32, 32, 256)       8736      
_________________________________________________________________
batch_normalization_2156 (Ba (None, 32, 32, 256)       1024      
_________________________________________________________________
activation_3710 (Activation) (None, 32, 32, 256)       0         
_________________________________________________________________
dropout_3710 (Dropout)       (None, 32, 32, 256)       0         
_________________________________________________________________
separable_conv2d_3398 (Separ (None, 32, 32, 8)         4360      
_________________________________________________________________
activation_3711 (Activation) (None, 32, 32, 8)         0         
_________________________________________________________________
dropout_3711 (Dropout)       (None, 32, 32, 8)         0         
_________________________________________________________________
separable_conv2d_3399 (Separ (None, 32, 32, 64)        648       
_________________________________________________________________
activation_3712 (Activation) (None, 32, 32, 64)        0         
_________________________________________________________________
dropout_3712 (Dropout)       (None, 32, 32, 64)        0         
_________________________________________________________________
max_pooling2d_886 (MaxPoolin (None, 16, 16, 64)        0         
_________________________________________________________________
separable_conv2d_3400 (Separ (None, 16, 16, 16)        1616      
_________________________________________________________________
activation_3713 (Activation) (None, 16, 16, 16)        0         
_________________________________________________________________
dropout_3713 (Dropout)       (None, 16, 16, 16)        0         
_________________________________________________________________
separable_conv2d_3401 (Separ (None, 16, 16, 128)       2320      
_________________________________________________________________
batch_normalization_2157 (Ba (None, 16, 16, 128)       512       
_________________________________________________________________
activation_3714 (Activation) (None, 16, 16, 128)       0         
_________________________________________________________________
dropout_3714 (Dropout)       (None, 16, 16, 128)       0         
_________________________________________________________________
separable_conv2d_3402 (Separ (None, 16, 16, 64)        9408      
_________________________________________________________________
batch_normalization_2158 (Ba (None, 16, 16, 64)        256       
_________________________________________________________________
activation_3715 (Activation) (None, 16, 16, 64)        0         
_________________________________________________________________
dropout_3715 (Dropout)       (None, 16, 16, 64)        0         
_________________________________________________________________
separable_conv2d_3403 (Separ (None, 16, 16, 128)       8896      
_________________________________________________________________
activation_3716 (Activation) (None, 16, 16, 128)       0         
_________________________________________________________________
dropout_3716 (Dropout)       (None, 16, 16, 128)       0         
_________________________________________________________________
separable_conv2d_3404 (Separ (None, 16, 16, 64)        9408      
_________________________________________________________________
batch_normalization_2159 (Ba (None, 16, 16, 64)        256       
_________________________________________________________________
activation_3717 (Activation) (None, 16, 16, 64)        0         
_________________________________________________________________
dropout_3717 (Dropout)       (None, 16, 16, 64)        0         
_________________________________________________________________
separable_conv2d_3405 (Separ (None, 16, 16, 512)       33856     
_________________________________________________________________
batch_normalization_2160 (Ba (None, 16, 16, 512)       2048      
_________________________________________________________________
activation_3718 (Activation) (None, 16, 16, 512)       0         
_________________________________________________________________
dropout_3718 (Dropout)       (None, 16, 16, 512)       0         
_________________________________________________________________
max_pooling2d_887 (MaxPoolin (None, 8, 8, 512)         0         
_________________________________________________________________
flatten_310 (Flatten)        (None, 32768)             0         
_________________________________________________________________
dense_623 (Dense)            (None, 2048)              67110912  
_________________________________________________________________
batch_normalization_2161 (Ba (None, 2048)              8192      
_________________________________________________________________
activation_3719 (Activation) (None, 2048)              0         
_________________________________________________________________
dropout_3719 (Dropout)       (None, 2048)              0         
_________________________________________________________________
dense_624 (Dense)            (None, 100)               204900    
=================================================================
Total params: 67,407,503
Trainable params: 67,401,359
Non-trainable params: 6,144
_________________________________________________________________
