Model: "sequential_155"
_________________________________________________________________
Layer (type)                 Output Shape              Param #   
=================================================================
separable_conv2d_1774 (Separ (None, 32, 32, 32)        155       
_________________________________________________________________
activation_1932 (Activation) (None, 32, 32, 32)        0         
_________________________________________________________________
dropout_1932 (Dropout)       (None, 32, 32, 32)        0         
_________________________________________________________________
separable_conv2d_1775 (Separ (None, 32, 32, 128)       4512      
_________________________________________________________________
batch_normalization_1152 (Ba (None, 32, 32, 128)       512       
_________________________________________________________________
activation_1933 (Activation) (None, 32, 32, 128)       0         
_________________________________________________________________
dropout_1933 (Dropout)       (None, 32, 32, 128)       0         
_________________________________________________________________
separable_conv2d_1776 (Separ (None, 32, 32, 8)         2184      
_________________________________________________________________
activation_1934 (Activation) (None, 32, 32, 8)         0         
_________________________________________________________________
dropout_1934 (Dropout)       (None, 32, 32, 8)         0         
_________________________________________________________________
separable_conv2d_1777 (Separ (None, 32, 32, 64)        648       
_________________________________________________________________
activation_1935 (Activation) (None, 32, 32, 64)        0         
_________________________________________________________________
dropout_1935 (Dropout)       (None, 32, 32, 64)        0         
_________________________________________________________________
max_pooling2d_454 (MaxPoolin (None, 16, 16, 64)        0         
_________________________________________________________________
separable_conv2d_1778 (Separ (None, 16, 16, 8)         1096      
_________________________________________________________________
activation_1936 (Activation) (None, 16, 16, 8)         0         
_________________________________________________________________
dropout_1936 (Dropout)       (None, 16, 16, 8)         0         
_________________________________________________________________
separable_conv2d_1779 (Separ (None, 16, 16, 128)       1224      
_________________________________________________________________
batch_normalization_1153 (Ba (None, 16, 16, 128)       512       
_________________________________________________________________
activation_1937 (Activation) (None, 16, 16, 128)       0         
_________________________________________________________________
dropout_1937 (Dropout)       (None, 16, 16, 128)       0         
_________________________________________________________________
separable_conv2d_1780 (Separ (None, 16, 16, 64)        9408      
_________________________________________________________________
batch_normalization_1154 (Ba (None, 16, 16, 64)        256       
_________________________________________________________________
activation_1938 (Activation) (None, 16, 16, 64)        0         
_________________________________________________________________
dropout_1938 (Dropout)       (None, 16, 16, 64)        0         
_________________________________________________________________
separable_conv2d_1781 (Separ (None, 16, 16, 512)       33856     
_________________________________________________________________
activation_1939 (Activation) (None, 16, 16, 512)       0         
_________________________________________________________________
dropout_1939 (Dropout)       (None, 16, 16, 512)       0         
_________________________________________________________________
max_pooling2d_455 (MaxPoolin (None, 8, 8, 512)         0         
_________________________________________________________________
separable_conv2d_1782 (Separ (None, 8, 8, 32)          21024     
_________________________________________________________________
batch_normalization_1155 (Ba (None, 8, 8, 32)          128       
_________________________________________________________________
activation_1940 (Activation) (None, 8, 8, 32)          0         
_________________________________________________________________
dropout_1940 (Dropout)       (None, 8, 8, 32)          0         
_________________________________________________________________
max_pooling2d_456 (MaxPoolin (None, 4, 4, 32)          0         
_________________________________________________________________
separable_conv2d_1783 (Separ (None, 4, 4, 32)          1344      
_________________________________________________________________
batch_normalization_1156 (Ba (None, 4, 4, 32)          128       
_________________________________________________________________
activation_1941 (Activation) (None, 4, 4, 32)          0         
_________________________________________________________________
dropout_1941 (Dropout)       (None, 4, 4, 32)          0         
_________________________________________________________________
separable_conv2d_1784 (Separ (None, 4, 4, 256)         8736      
_________________________________________________________________
batch_normalization_1157 (Ba (None, 4, 4, 256)         1024      
_________________________________________________________________
activation_1942 (Activation) (None, 4, 4, 256)         0         
_________________________________________________________________
dropout_1942 (Dropout)       (None, 4, 4, 256)         0         
_________________________________________________________________
flatten_155 (Flatten)        (None, 4096)              0         
_________________________________________________________________
dense_313 (Dense)            (None, 2048)              8390656   
_________________________________________________________________
batch_normalization_1158 (Ba (None, 2048)              8192      
_________________________________________________________________
activation_1943 (Activation) (None, 2048)              0         
_________________________________________________________________
dropout_1943 (Dropout)       (None, 2048)              0         
_________________________________________________________________
dense_314 (Dense)            (None, 100)               204900    
=================================================================
Total params: 8,690,495
Trainable params: 8,685,119
Non-trainable params: 5,376
_________________________________________________________________
