Model: "sequential_86"
_________________________________________________________________
Layer (type)                 Output Shape              Param #   
=================================================================
separable_conv2d_999 (Separa (None, 32, 32, 32)        155       
_________________________________________________________________
activation_1088 (Activation) (None, 32, 32, 32)        0         
_________________________________________________________________
dropout_1088 (Dropout)       (None, 32, 32, 32)        0         
_________________________________________________________________
separable_conv2d_1000 (Separ (None, 32, 32, 128)       4512      
_________________________________________________________________
batch_normalization_636 (Bat (None, 32, 32, 128)       512       
_________________________________________________________________
activation_1089 (Activation) (None, 32, 32, 128)       0         
_________________________________________________________________
dropout_1089 (Dropout)       (None, 32, 32, 128)       0         
_________________________________________________________________
separable_conv2d_1001 (Separ (None, 32, 32, 8)         2184      
_________________________________________________________________
activation_1090 (Activation) (None, 32, 32, 8)         0         
_________________________________________________________________
dropout_1090 (Dropout)       (None, 32, 32, 8)         0         
_________________________________________________________________
separable_conv2d_1002 (Separ (None, 32, 32, 64)        648       
_________________________________________________________________
activation_1091 (Activation) (None, 32, 32, 64)        0         
_________________________________________________________________
dropout_1091 (Dropout)       (None, 32, 32, 64)        0         
_________________________________________________________________
max_pooling2d_247 (MaxPoolin (None, 16, 16, 64)        0         
_________________________________________________________________
separable_conv2d_1003 (Separ (None, 16, 16, 8)         1096      
_________________________________________________________________
activation_1092 (Activation) (None, 16, 16, 8)         0         
_________________________________________________________________
dropout_1092 (Dropout)       (None, 16, 16, 8)         0         
_________________________________________________________________
separable_conv2d_1004 (Separ (None, 16, 16, 128)       1224      
_________________________________________________________________
batch_normalization_637 (Bat (None, 16, 16, 128)       512       
_________________________________________________________________
activation_1093 (Activation) (None, 16, 16, 128)       0         
_________________________________________________________________
dropout_1093 (Dropout)       (None, 16, 16, 128)       0         
_________________________________________________________________
separable_conv2d_1005 (Separ (None, 16, 16, 64)        9408      
_________________________________________________________________
batch_normalization_638 (Bat (None, 16, 16, 64)        256       
_________________________________________________________________
activation_1094 (Activation) (None, 16, 16, 64)        0         
_________________________________________________________________
dropout_1094 (Dropout)       (None, 16, 16, 64)        0         
_________________________________________________________________
separable_conv2d_1006 (Separ (None, 16, 16, 512)       33856     
_________________________________________________________________
batch_normalization_639 (Bat (None, 16, 16, 512)       2048      
_________________________________________________________________
activation_1095 (Activation) (None, 16, 16, 512)       0         
_________________________________________________________________
dropout_1095 (Dropout)       (None, 16, 16, 512)       0         
_________________________________________________________________
max_pooling2d_248 (MaxPoolin (None, 8, 8, 512)         0         
_________________________________________________________________
separable_conv2d_1007 (Separ (None, 8, 8, 32)          21024     
_________________________________________________________________
batch_normalization_640 (Bat (None, 8, 8, 32)          128       
_________________________________________________________________
activation_1096 (Activation) (None, 8, 8, 32)          0         
_________________________________________________________________
dropout_1096 (Dropout)       (None, 8, 8, 32)          0         
_________________________________________________________________
max_pooling2d_249 (MaxPoolin (None, 4, 4, 32)          0         
_________________________________________________________________
separable_conv2d_1008 (Separ (None, 4, 4, 128)         4512      
_________________________________________________________________
activation_1097 (Activation) (None, 4, 4, 128)         0         
_________________________________________________________________
dropout_1097 (Dropout)       (None, 4, 4, 128)         0         
_________________________________________________________________
separable_conv2d_1009 (Separ (None, 4, 4, 32)          5280      
_________________________________________________________________
batch_normalization_641 (Bat (None, 4, 4, 32)          128       
_________________________________________________________________
activation_1098 (Activation) (None, 4, 4, 32)          0         
_________________________________________________________________
dropout_1098 (Dropout)       (None, 4, 4, 32)          0         
_________________________________________________________________
separable_conv2d_1010 (Separ (None, 4, 4, 256)         8736      
_________________________________________________________________
batch_normalization_642 (Bat (None, 4, 4, 256)         1024      
_________________________________________________________________
activation_1099 (Activation) (None, 4, 4, 256)         0         
_________________________________________________________________
dropout_1099 (Dropout)       (None, 4, 4, 256)         0         
_________________________________________________________________
flatten_86 (Flatten)         (None, 4096)              0         
_________________________________________________________________
dense_175 (Dense)            (None, 2048)              8390656   
_________________________________________________________________
batch_normalization_643 (Bat (None, 2048)              8192      
_________________________________________________________________
activation_1100 (Activation) (None, 2048)              0         
_________________________________________________________________
dropout_1100 (Dropout)       (None, 2048)              0         
_________________________________________________________________
dense_176 (Dense)            (None, 100)               204900    
=================================================================
Total params: 8,700,991
Trainable params: 8,694,591
Non-trainable params: 6,400
_________________________________________________________________
