Model: "sequential_234"
_________________________________________________________________
Layer (type)                 Output Shape              Param #   
=================================================================
separable_conv2d_2623 (Separ (None, 32, 32, 32)        155       
_________________________________________________________________
activation_2860 (Activation) (None, 32, 32, 32)        0         
_________________________________________________________________
dropout_2860 (Dropout)       (None, 32, 32, 32)        0         
_________________________________________________________________
separable_conv2d_2624 (Separ (None, 32, 32, 256)       8736      
_________________________________________________________________
batch_normalization_1678 (Ba (None, 32, 32, 256)       1024      
_________________________________________________________________
activation_2861 (Activation) (None, 32, 32, 256)       0         
_________________________________________________________________
dropout_2861 (Dropout)       (None, 32, 32, 256)       0         
_________________________________________________________________
separable_conv2d_2625 (Separ (None, 32, 32, 8)         4360      
_________________________________________________________________
activation_2862 (Activation) (None, 32, 32, 8)         0         
_________________________________________________________________
dropout_2862 (Dropout)       (None, 32, 32, 8)         0         
_________________________________________________________________
separable_conv2d_2626 (Separ (None, 32, 32, 256)       2376      
_________________________________________________________________
activation_2863 (Activation) (None, 32, 32, 256)       0         
_________________________________________________________________
dropout_2863 (Dropout)       (None, 32, 32, 256)       0         
_________________________________________________________________
max_pooling2d_684 (MaxPoolin (None, 16, 16, 256)       0         
_________________________________________________________________
separable_conv2d_2627 (Separ (None, 16, 16, 8)         4360      
_________________________________________________________________
activation_2864 (Activation) (None, 16, 16, 8)         0         
_________________________________________________________________
dropout_2864 (Dropout)       (None, 16, 16, 8)         0         
_________________________________________________________________
separable_conv2d_2628 (Separ (None, 16, 16, 128)       1224      
_________________________________________________________________
batch_normalization_1679 (Ba (None, 16, 16, 128)       512       
_________________________________________________________________
activation_2865 (Activation) (None, 16, 16, 128)       0         
_________________________________________________________________
dropout_2865 (Dropout)       (None, 16, 16, 128)       0         
_________________________________________________________________
separable_conv2d_2629 (Separ (None, 16, 16, 64)        9408      
_________________________________________________________________
batch_normalization_1680 (Ba (None, 16, 16, 64)        256       
_________________________________________________________________
activation_2866 (Activation) (None, 16, 16, 64)        0         
_________________________________________________________________
dropout_2866 (Dropout)       (None, 16, 16, 64)        0         
_________________________________________________________________
separable_conv2d_2630 (Separ (None, 16, 16, 512)       33856     
_________________________________________________________________
batch_normalization_1681 (Ba (None, 16, 16, 512)       2048      
_________________________________________________________________
activation_2867 (Activation) (None, 16, 16, 512)       0         
_________________________________________________________________
dropout_2867 (Dropout)       (None, 16, 16, 512)       0         
_________________________________________________________________
max_pooling2d_685 (MaxPoolin (None, 8, 8, 512)         0         
_________________________________________________________________
separable_conv2d_2631 (Separ (None, 8, 8, 128)         70272     
_________________________________________________________________
activation_2868 (Activation) (None, 8, 8, 128)         0         
_________________________________________________________________
dropout_2868 (Dropout)       (None, 8, 8, 128)         0         
_________________________________________________________________
separable_conv2d_2632 (Separ (None, 8, 8, 32)          5280      
_________________________________________________________________
activation_2869 (Activation) (None, 8, 8, 32)          0         
_________________________________________________________________
dropout_2869 (Dropout)       (None, 8, 8, 32)          0         
_________________________________________________________________
separable_conv2d_2633 (Separ (None, 8, 8, 256)         8736      
_________________________________________________________________
batch_normalization_1682 (Ba (None, 8, 8, 256)         1024      
_________________________________________________________________
activation_2870 (Activation) (None, 8, 8, 256)         0         
_________________________________________________________________
dropout_2870 (Dropout)       (None, 8, 8, 256)         0         
_________________________________________________________________
max_pooling2d_686 (MaxPoolin (None, 4, 4, 256)         0         
_________________________________________________________________
flatten_234 (Flatten)        (None, 4096)              0         
_________________________________________________________________
dense_471 (Dense)            (None, 2048)              8390656   
_________________________________________________________________
batch_normalization_1683 (Ba (None, 2048)              8192      
_________________________________________________________________
activation_2871 (Activation) (None, 2048)              0         
_________________________________________________________________
dropout_2871 (Dropout)       (None, 2048)              0         
_________________________________________________________________
dense_472 (Dense)            (None, 100)               204900    
=================================================================
Total params: 8,757,375
Trainable params: 8,750,847
Non-trainable params: 6,528
_________________________________________________________________
