Model: "sequential_73"
_________________________________________________________________
Layer (type)                 Output Shape              Param #   
=================================================================
separable_conv2d_846 (Separa (None, 32, 32, 32)        155       
_________________________________________________________________
activation_922 (Activation)  (None, 32, 32, 32)        0         
_________________________________________________________________
dropout_922 (Dropout)        (None, 32, 32, 32)        0         
_________________________________________________________________
separable_conv2d_847 (Separa (None, 32, 32, 128)       4512      
_________________________________________________________________
batch_normalization_534 (Bat (None, 32, 32, 128)       512       
_________________________________________________________________
activation_923 (Activation)  (None, 32, 32, 128)       0         
_________________________________________________________________
dropout_923 (Dropout)        (None, 32, 32, 128)       0         
_________________________________________________________________
separable_conv2d_848 (Separa (None, 32, 32, 8)         2184      
_________________________________________________________________
activation_924 (Activation)  (None, 32, 32, 8)         0         
_________________________________________________________________
dropout_924 (Dropout)        (None, 32, 32, 8)         0         
_________________________________________________________________
separable_conv2d_849 (Separa (None, 32, 32, 64)        648       
_________________________________________________________________
activation_925 (Activation)  (None, 32, 32, 64)        0         
_________________________________________________________________
dropout_925 (Dropout)        (None, 32, 32, 64)        0         
_________________________________________________________________
max_pooling2d_208 (MaxPoolin (None, 16, 16, 64)        0         
_________________________________________________________________
separable_conv2d_850 (Separa (None, 16, 16, 8)         1096      
_________________________________________________________________
activation_926 (Activation)  (None, 16, 16, 8)         0         
_________________________________________________________________
dropout_926 (Dropout)        (None, 16, 16, 8)         0         
_________________________________________________________________
separable_conv2d_851 (Separa (None, 16, 16, 128)       1224      
_________________________________________________________________
batch_normalization_535 (Bat (None, 16, 16, 128)       512       
_________________________________________________________________
activation_927 (Activation)  (None, 16, 16, 128)       0         
_________________________________________________________________
dropout_927 (Dropout)        (None, 16, 16, 128)       0         
_________________________________________________________________
separable_conv2d_852 (Separa (None, 16, 16, 64)        9408      
_________________________________________________________________
batch_normalization_536 (Bat (None, 16, 16, 64)        256       
_________________________________________________________________
activation_928 (Activation)  (None, 16, 16, 64)        0         
_________________________________________________________________
dropout_928 (Dropout)        (None, 16, 16, 64)        0         
_________________________________________________________________
separable_conv2d_853 (Separa (None, 16, 16, 512)       33856     
_________________________________________________________________
activation_929 (Activation)  (None, 16, 16, 512)       0         
_________________________________________________________________
dropout_929 (Dropout)        (None, 16, 16, 512)       0         
_________________________________________________________________
max_pooling2d_209 (MaxPoolin (None, 8, 8, 512)         0         
_________________________________________________________________
separable_conv2d_854 (Separa (None, 8, 8, 32)          21024     
_________________________________________________________________
batch_normalization_537 (Bat (None, 8, 8, 32)          128       
_________________________________________________________________
activation_930 (Activation)  (None, 8, 8, 32)          0         
_________________________________________________________________
dropout_930 (Dropout)        (None, 8, 8, 32)          0         
_________________________________________________________________
max_pooling2d_210 (MaxPoolin (None, 4, 4, 32)          0         
_________________________________________________________________
separable_conv2d_855 (Separa (None, 4, 4, 128)         4512      
_________________________________________________________________
activation_931 (Activation)  (None, 4, 4, 128)         0         
_________________________________________________________________
dropout_931 (Dropout)        (None, 4, 4, 128)         0         
_________________________________________________________________
separable_conv2d_856 (Separa (None, 4, 4, 32)          5280      
_________________________________________________________________
batch_normalization_538 (Bat (None, 4, 4, 32)          128       
_________________________________________________________________
activation_932 (Activation)  (None, 4, 4, 32)          0         
_________________________________________________________________
dropout_932 (Dropout)        (None, 4, 4, 32)          0         
_________________________________________________________________
separable_conv2d_857 (Separa (None, 4, 4, 256)         8736      
_________________________________________________________________
batch_normalization_539 (Bat (None, 4, 4, 256)         1024      
_________________________________________________________________
activation_933 (Activation)  (None, 4, 4, 256)         0         
_________________________________________________________________
dropout_933 (Dropout)        (None, 4, 4, 256)         0         
_________________________________________________________________
flatten_73 (Flatten)         (None, 4096)              0         
_________________________________________________________________
dense_149 (Dense)            (None, 2048)              8390656   
_________________________________________________________________
batch_normalization_540 (Bat (None, 2048)              8192      
_________________________________________________________________
activation_934 (Activation)  (None, 2048)              0         
_________________________________________________________________
dropout_934 (Dropout)        (None, 2048)              0         
_________________________________________________________________
dense_150 (Dense)            (None, 100)               204900    
=================================================================
Total params: 8,698,943
Trainable params: 8,693,567
Non-trainable params: 5,376
_________________________________________________________________
