Model: "sequential_196"
_________________________________________________________________
Layer (type)                 Output Shape              Param #   
=================================================================
separable_conv2d_2218 (Separ (None, 32, 32, 32)        155       
_________________________________________________________________
activation_2417 (Activation) (None, 32, 32, 32)        0         
_________________________________________________________________
dropout_2417 (Dropout)       (None, 32, 32, 32)        0         
_________________________________________________________________
separable_conv2d_2219 (Separ (None, 32, 32, 128)       4512      
_________________________________________________________________
batch_normalization_1429 (Ba (None, 32, 32, 128)       512       
_________________________________________________________________
activation_2418 (Activation) (None, 32, 32, 128)       0         
_________________________________________________________________
dropout_2418 (Dropout)       (None, 32, 32, 128)       0         
_________________________________________________________________
separable_conv2d_2220 (Separ (None, 32, 32, 8)         2184      
_________________________________________________________________
activation_2419 (Activation) (None, 32, 32, 8)         0         
_________________________________________________________________
dropout_2419 (Dropout)       (None, 32, 32, 8)         0         
_________________________________________________________________
separable_conv2d_2221 (Separ (None, 32, 32, 64)        648       
_________________________________________________________________
activation_2420 (Activation) (None, 32, 32, 64)        0         
_________________________________________________________________
dropout_2420 (Dropout)       (None, 32, 32, 64)        0         
_________________________________________________________________
max_pooling2d_575 (MaxPoolin (None, 16, 16, 64)        0         
_________________________________________________________________
separable_conv2d_2222 (Separ (None, 16, 16, 8)         1096      
_________________________________________________________________
activation_2421 (Activation) (None, 16, 16, 8)         0         
_________________________________________________________________
dropout_2421 (Dropout)       (None, 16, 16, 8)         0         
_________________________________________________________________
separable_conv2d_2223 (Separ (None, 16, 16, 128)       1224      
_________________________________________________________________
batch_normalization_1430 (Ba (None, 16, 16, 128)       512       
_________________________________________________________________
activation_2422 (Activation) (None, 16, 16, 128)       0         
_________________________________________________________________
dropout_2422 (Dropout)       (None, 16, 16, 128)       0         
_________________________________________________________________
separable_conv2d_2224 (Separ (None, 16, 16, 64)        9408      
_________________________________________________________________
batch_normalization_1431 (Ba (None, 16, 16, 64)        256       
_________________________________________________________________
activation_2423 (Activation) (None, 16, 16, 64)        0         
_________________________________________________________________
dropout_2423 (Dropout)       (None, 16, 16, 64)        0         
_________________________________________________________________
separable_conv2d_2225 (Separ (None, 16, 16, 512)       33856     
_________________________________________________________________
batch_normalization_1432 (Ba (None, 16, 16, 512)       2048      
_________________________________________________________________
activation_2424 (Activation) (None, 16, 16, 512)       0         
_________________________________________________________________
dropout_2424 (Dropout)       (None, 16, 16, 512)       0         
_________________________________________________________________
max_pooling2d_576 (MaxPoolin (None, 8, 8, 512)         0         
_________________________________________________________________
separable_conv2d_2226 (Separ (None, 8, 8, 128)         70272     
_________________________________________________________________
activation_2425 (Activation) (None, 8, 8, 128)         0         
_________________________________________________________________
dropout_2425 (Dropout)       (None, 8, 8, 128)         0         
_________________________________________________________________
separable_conv2d_2227 (Separ (None, 8, 8, 32)          5280      
_________________________________________________________________
batch_normalization_1433 (Ba (None, 8, 8, 32)          128       
_________________________________________________________________
activation_2426 (Activation) (None, 8, 8, 32)          0         
_________________________________________________________________
dropout_2426 (Dropout)       (None, 8, 8, 32)          0         
_________________________________________________________________
separable_conv2d_2228 (Separ (None, 8, 8, 256)         8736      
_________________________________________________________________
batch_normalization_1434 (Ba (None, 8, 8, 256)         1024      
_________________________________________________________________
activation_2427 (Activation) (None, 8, 8, 256)         0         
_________________________________________________________________
dropout_2427 (Dropout)       (None, 8, 8, 256)         0         
_________________________________________________________________
max_pooling2d_577 (MaxPoolin (None, 4, 4, 256)         0         
_________________________________________________________________
flatten_196 (Flatten)        (None, 4096)              0         
_________________________________________________________________
dense_395 (Dense)            (None, 2048)              8390656   
_________________________________________________________________
batch_normalization_1435 (Ba (None, 2048)              8192      
_________________________________________________________________
activation_2428 (Activation) (None, 2048)              0         
_________________________________________________________________
dropout_2428 (Dropout)       (None, 2048)              0         
_________________________________________________________________
dense_396 (Dense)            (None, 100)               204900    
=================================================================
Total params: 8,745,599
Trainable params: 8,739,263
Non-trainable params: 6,336
_________________________________________________________________
