Model: "sequential_129"
_________________________________________________________________
Layer (type)                 Output Shape              Param #   
=================================================================
separable_conv2d_1485 (Separ (None, 32, 32, 32)        155       
_________________________________________________________________
activation_1617 (Activation) (None, 32, 32, 32)        0         
_________________________________________________________________
dropout_1617 (Dropout)       (None, 32, 32, 32)        0         
_________________________________________________________________
separable_conv2d_1486 (Separ (None, 32, 32, 256)       8736      
_________________________________________________________________
batch_normalization_963 (Bat (None, 32, 32, 256)       1024      
_________________________________________________________________
activation_1618 (Activation) (None, 32, 32, 256)       0         
_________________________________________________________________
dropout_1618 (Dropout)       (None, 32, 32, 256)       0         
_________________________________________________________________
separable_conv2d_1487 (Separ (None, 32, 32, 8)         4360      
_________________________________________________________________
activation_1619 (Activation) (None, 32, 32, 8)         0         
_________________________________________________________________
dropout_1619 (Dropout)       (None, 32, 32, 8)         0         
_________________________________________________________________
separable_conv2d_1488 (Separ (None, 32, 32, 64)        648       
_________________________________________________________________
activation_1620 (Activation) (None, 32, 32, 64)        0         
_________________________________________________________________
dropout_1620 (Dropout)       (None, 32, 32, 64)        0         
_________________________________________________________________
max_pooling2d_376 (MaxPoolin (None, 16, 16, 64)        0         
_________________________________________________________________
separable_conv2d_1489 (Separ (None, 16, 16, 8)         1096      
_________________________________________________________________
activation_1621 (Activation) (None, 16, 16, 8)         0         
_________________________________________________________________
dropout_1621 (Dropout)       (None, 16, 16, 8)         0         
_________________________________________________________________
separable_conv2d_1490 (Separ (None, 16, 16, 128)       1224      
_________________________________________________________________
batch_normalization_964 (Bat (None, 16, 16, 128)       512       
_________________________________________________________________
activation_1622 (Activation) (None, 16, 16, 128)       0         
_________________________________________________________________
dropout_1622 (Dropout)       (None, 16, 16, 128)       0         
_________________________________________________________________
separable_conv2d_1491 (Separ (None, 16, 16, 64)        9408      
_________________________________________________________________
batch_normalization_965 (Bat (None, 16, 16, 64)        256       
_________________________________________________________________
activation_1623 (Activation) (None, 16, 16, 64)        0         
_________________________________________________________________
dropout_1623 (Dropout)       (None, 16, 16, 64)        0         
_________________________________________________________________
separable_conv2d_1492 (Separ (None, 16, 16, 512)       33856     
_________________________________________________________________
batch_normalization_966 (Bat (None, 16, 16, 512)       2048      
_________________________________________________________________
activation_1624 (Activation) (None, 16, 16, 512)       0         
_________________________________________________________________
dropout_1624 (Dropout)       (None, 16, 16, 512)       0         
_________________________________________________________________
max_pooling2d_377 (MaxPoolin (None, 8, 8, 512)         0         
_________________________________________________________________
separable_conv2d_1493 (Separ (None, 8, 8, 128)         70272     
_________________________________________________________________
activation_1625 (Activation) (None, 8, 8, 128)         0         
_________________________________________________________________
dropout_1625 (Dropout)       (None, 8, 8, 128)         0         
_________________________________________________________________
separable_conv2d_1494 (Separ (None, 8, 8, 32)          5280      
_________________________________________________________________
batch_normalization_967 (Bat (None, 8, 8, 32)          128       
_________________________________________________________________
activation_1626 (Activation) (None, 8, 8, 32)          0         
_________________________________________________________________
dropout_1626 (Dropout)       (None, 8, 8, 32)          0         
_________________________________________________________________
separable_conv2d_1495 (Separ (None, 8, 8, 256)         8736      
_________________________________________________________________
batch_normalization_968 (Bat (None, 8, 8, 256)         1024      
_________________________________________________________________
activation_1627 (Activation) (None, 8, 8, 256)         0         
_________________________________________________________________
dropout_1627 (Dropout)       (None, 8, 8, 256)         0         
_________________________________________________________________
max_pooling2d_378 (MaxPoolin (None, 4, 4, 256)         0         
_________________________________________________________________
flatten_129 (Flatten)        (None, 4096)              0         
_________________________________________________________________
dense_261 (Dense)            (None, 2048)              8390656   
_________________________________________________________________
batch_normalization_969 (Bat (None, 2048)              8192      
_________________________________________________________________
activation_1628 (Activation) (None, 2048)              0         
_________________________________________________________________
dropout_1628 (Dropout)       (None, 2048)              0         
_________________________________________________________________
dense_262 (Dense)            (None, 100)               204900    
=================================================================
Total params: 8,752,511
Trainable params: 8,745,919
Non-trainable params: 6,592
_________________________________________________________________
