Model: "sequential_5"
_________________________________________________________________
Layer (type)                 Output Shape              Param #   
=================================================================
separable_conv2d_57 (Separab (None, 32, 32, 8)         59        
_________________________________________________________________
batch_normalization_34 (Batc (None, 32, 32, 8)         32        
_________________________________________________________________
activation_59 (Activation)   (None, 32, 32, 8)         0         
_________________________________________________________________
dropout_59 (Dropout)         (None, 32, 32, 8)         0         
_________________________________________________________________
separable_conv2d_58 (Separab (None, 32, 32, 32)        360       
_________________________________________________________________
activation_60 (Activation)   (None, 32, 32, 32)        0         
_________________________________________________________________
dropout_60 (Dropout)         (None, 32, 32, 32)        0         
_________________________________________________________________
separable_conv2d_59 (Separab (None, 32, 32, 32)        1344      
_________________________________________________________________
activation_61 (Activation)   (None, 32, 32, 32)        0         
_________________________________________________________________
dropout_61 (Dropout)         (None, 32, 32, 32)        0         
_________________________________________________________________
separable_conv2d_60 (Separab (None, 32, 32, 8)         552       
_________________________________________________________________
activation_62 (Activation)   (None, 32, 32, 8)         0         
_________________________________________________________________
dropout_62 (Dropout)         (None, 32, 32, 8)         0         
_________________________________________________________________
max_pooling2d_11 (MaxPooling (None, 16, 16, 8)         0         
_________________________________________________________________
separable_conv2d_61 (Separab (None, 16, 16, 128)       1224      
_________________________________________________________________
batch_normalization_35 (Batc (None, 16, 16, 128)       512       
_________________________________________________________________
activation_63 (Activation)   (None, 16, 16, 128)       0         
_________________________________________________________________
dropout_63 (Dropout)         (None, 16, 16, 128)       0         
_________________________________________________________________
separable_conv2d_62 (Separab (None, 16, 16, 32)        5280      
_________________________________________________________________
activation_64 (Activation)   (None, 16, 16, 32)        0         
_________________________________________________________________
dropout_64 (Dropout)         (None, 16, 16, 32)        0         
_________________________________________________________________
separable_conv2d_63 (Separab (None, 16, 16, 512)       17184     
_________________________________________________________________
batch_normalization_36 (Batc (None, 16, 16, 512)       2048      
_________________________________________________________________
activation_65 (Activation)   (None, 16, 16, 512)       0         
_________________________________________________________________
dropout_65 (Dropout)         (None, 16, 16, 512)       0         
_________________________________________________________________
max_pooling2d_12 (MaxPooling (None, 8, 8, 512)         0         
_________________________________________________________________
separable_conv2d_64 (Separab (None, 8, 8, 1024)        529920    
_________________________________________________________________
batch_normalization_37 (Batc (None, 8, 8, 1024)        4096      
_________________________________________________________________
activation_66 (Activation)   (None, 8, 8, 1024)        0         
_________________________________________________________________
dropout_66 (Dropout)         (None, 8, 8, 1024)        0         
_________________________________________________________________
separable_conv2d_65 (Separab (None, 8, 8, 32)          42016     
_________________________________________________________________
activation_67 (Activation)   (None, 8, 8, 32)          0         
_________________________________________________________________
dropout_67 (Dropout)         (None, 8, 8, 32)          0         
_________________________________________________________________
separable_conv2d_66 (Separab (None, 8, 8, 512)         17184     
_________________________________________________________________
batch_normalization_38 (Batc (None, 8, 8, 512)         2048      
_________________________________________________________________
activation_68 (Activation)   (None, 8, 8, 512)         0         
_________________________________________________________________
dropout_68 (Dropout)         (None, 8, 8, 512)         0         
_________________________________________________________________
flatten_5 (Flatten)          (None, 32768)             0         
_________________________________________________________________
dense_7 (Dense)              (None, 100)               3276900   
=================================================================
Total params: 3,900,759
Trainable params: 3,896,391
Non-trainable params: 4,368
_________________________________________________________________
