Model: "sequential_380"
_________________________________________________________________
Layer (type)                 Output Shape              Param #   
=================================================================
separable_conv2d_4051 (Separ (None, 32, 32, 32)        155       
_________________________________________________________________
activation_4434 (Activation) (None, 32, 32, 32)        0         
_________________________________________________________________
dropout_4434 (Dropout)       (None, 32, 32, 32)        0         
_________________________________________________________________
separable_conv2d_4052 (Separ (None, 32, 32, 256)       8736      
_________________________________________________________________
batch_normalization_2525 (Ba (None, 32, 32, 256)       1024      
_________________________________________________________________
activation_4435 (Activation) (None, 32, 32, 256)       0         
_________________________________________________________________
dropout_4435 (Dropout)       (None, 32, 32, 256)       0         
_________________________________________________________________
separable_conv2d_4053 (Separ (None, 32, 32, 8)         4360      
_________________________________________________________________
activation_4436 (Activation) (None, 32, 32, 8)         0         
_________________________________________________________________
dropout_4436 (Dropout)       (None, 32, 32, 8)         0         
_________________________________________________________________
separable_conv2d_4054 (Separ (None, 32, 32, 64)        648       
_________________________________________________________________
activation_4437 (Activation) (None, 32, 32, 64)        0         
_________________________________________________________________
dropout_4437 (Dropout)       (None, 32, 32, 64)        0         
_________________________________________________________________
max_pooling2d_1044 (MaxPooli (None, 16, 16, 64)        0         
_________________________________________________________________
separable_conv2d_4055 (Separ (None, 16, 16, 128)       8896      
_________________________________________________________________
batch_normalization_2526 (Ba (None, 16, 16, 128)       512       
_________________________________________________________________
activation_4438 (Activation) (None, 16, 16, 128)       0         
_________________________________________________________________
dropout_4438 (Dropout)       (None, 16, 16, 128)       0         
_________________________________________________________________
separable_conv2d_4056 (Separ (None, 16, 16, 64)        9408      
_________________________________________________________________
batch_normalization_2527 (Ba (None, 16, 16, 64)        256       
_________________________________________________________________
activation_4439 (Activation) (None, 16, 16, 64)        0         
_________________________________________________________________
dropout_4439 (Dropout)       (None, 16, 16, 64)        0         
_________________________________________________________________
separable_conv2d_4057 (Separ (None, 16, 16, 32)        2656      
_________________________________________________________________
activation_4440 (Activation) (None, 16, 16, 32)        0         
_________________________________________________________________
dropout_4440 (Dropout)       (None, 16, 16, 32)        0         
_________________________________________________________________
separable_conv2d_4058 (Separ (None, 16, 16, 256)       8736      
_________________________________________________________________
batch_normalization_2528 (Ba (None, 16, 16, 256)       1024      
_________________________________________________________________
activation_4441 (Activation) (None, 16, 16, 256)       0         
_________________________________________________________________
dropout_4441 (Dropout)       (None, 16, 16, 256)       0         
_________________________________________________________________
max_pooling2d_1045 (MaxPooli (None, 8, 8, 256)         0         
_________________________________________________________________
flatten_380 (Flatten)        (None, 16384)             0         
_________________________________________________________________
dense_763 (Dense)            (None, 2048)              33556480  
_________________________________________________________________
batch_normalization_2529 (Ba (None, 2048)              8192      
_________________________________________________________________
activation_4442 (Activation) (None, 2048)              0         
_________________________________________________________________
dropout_4442 (Dropout)       (None, 2048)              0         
_________________________________________________________________
dense_764 (Dense)            (None, 100)               204900    
=================================================================
Total params: 33,815,983
Trainable params: 33,810,479
Non-trainable params: 5,504
_________________________________________________________________
