Model: "sequential_79"
_________________________________________________________________
Layer (type)                 Output Shape              Param #   
=================================================================
separable_conv2d_916 (Separa (None, 32, 32, 32)        155       
_________________________________________________________________
activation_998 (Activation)  (None, 32, 32, 32)        0         
_________________________________________________________________
dropout_998 (Dropout)        (None, 32, 32, 32)        0         
_________________________________________________________________
separable_conv2d_917 (Separa (None, 32, 32, 128)       4512      
_________________________________________________________________
batch_normalization_579 (Bat (None, 32, 32, 128)       512       
_________________________________________________________________
activation_999 (Activation)  (None, 32, 32, 128)       0         
_________________________________________________________________
dropout_999 (Dropout)        (None, 32, 32, 128)       0         
_________________________________________________________________
separable_conv2d_918 (Separa (None, 32, 32, 8)         2184      
_________________________________________________________________
activation_1000 (Activation) (None, 32, 32, 8)         0         
_________________________________________________________________
dropout_1000 (Dropout)       (None, 32, 32, 8)         0         
_________________________________________________________________
separable_conv2d_919 (Separa (None, 32, 32, 64)        648       
_________________________________________________________________
activation_1001 (Activation) (None, 32, 32, 64)        0         
_________________________________________________________________
dropout_1001 (Dropout)       (None, 32, 32, 64)        0         
_________________________________________________________________
max_pooling2d_226 (MaxPoolin (None, 16, 16, 64)        0         
_________________________________________________________________
separable_conv2d_920 (Separa (None, 16, 16, 8)         1096      
_________________________________________________________________
activation_1002 (Activation) (None, 16, 16, 8)         0         
_________________________________________________________________
dropout_1002 (Dropout)       (None, 16, 16, 8)         0         
_________________________________________________________________
separable_conv2d_921 (Separa (None, 16, 16, 128)       1224      
_________________________________________________________________
batch_normalization_580 (Bat (None, 16, 16, 128)       512       
_________________________________________________________________
activation_1003 (Activation) (None, 16, 16, 128)       0         
_________________________________________________________________
dropout_1003 (Dropout)       (None, 16, 16, 128)       0         
_________________________________________________________________
separable_conv2d_922 (Separa (None, 16, 16, 64)        9408      
_________________________________________________________________
batch_normalization_581 (Bat (None, 16, 16, 64)        256       
_________________________________________________________________
activation_1004 (Activation) (None, 16, 16, 64)        0         
_________________________________________________________________
dropout_1004 (Dropout)       (None, 16, 16, 64)        0         
_________________________________________________________________
separable_conv2d_923 (Separa (None, 16, 16, 512)       33856     
_________________________________________________________________
batch_normalization_582 (Bat (None, 16, 16, 512)       2048      
_________________________________________________________________
activation_1005 (Activation) (None, 16, 16, 512)       0         
_________________________________________________________________
dropout_1005 (Dropout)       (None, 16, 16, 512)       0         
_________________________________________________________________
max_pooling2d_227 (MaxPoolin (None, 8, 8, 512)         0         
_________________________________________________________________
separable_conv2d_924 (Separa (None, 8, 8, 32)          21024     
_________________________________________________________________
batch_normalization_583 (Bat (None, 8, 8, 32)          128       
_________________________________________________________________
activation_1006 (Activation) (None, 8, 8, 32)          0         
_________________________________________________________________
dropout_1006 (Dropout)       (None, 8, 8, 32)          0         
_________________________________________________________________
max_pooling2d_228 (MaxPoolin (None, 4, 4, 32)          0         
_________________________________________________________________
separable_conv2d_925 (Separa (None, 4, 4, 128)         4512      
_________________________________________________________________
activation_1007 (Activation) (None, 4, 4, 128)         0         
_________________________________________________________________
dropout_1007 (Dropout)       (None, 4, 4, 128)         0         
_________________________________________________________________
separable_conv2d_926 (Separa (None, 4, 4, 32)          5280      
_________________________________________________________________
batch_normalization_584 (Bat (None, 4, 4, 32)          128       
_________________________________________________________________
activation_1008 (Activation) (None, 4, 4, 32)          0         
_________________________________________________________________
dropout_1008 (Dropout)       (None, 4, 4, 32)          0         
_________________________________________________________________
separable_conv2d_927 (Separa (None, 4, 4, 256)         8736      
_________________________________________________________________
batch_normalization_585 (Bat (None, 4, 4, 256)         1024      
_________________________________________________________________
activation_1009 (Activation) (None, 4, 4, 256)         0         
_________________________________________________________________
dropout_1009 (Dropout)       (None, 4, 4, 256)         0         
_________________________________________________________________
flatten_79 (Flatten)         (None, 4096)              0         
_________________________________________________________________
dense_161 (Dense)            (None, 2048)              8390656   
_________________________________________________________________
batch_normalization_586 (Bat (None, 2048)              8192      
_________________________________________________________________
activation_1010 (Activation) (None, 2048)              0         
_________________________________________________________________
dropout_1010 (Dropout)       (None, 2048)              0         
_________________________________________________________________
dense_162 (Dense)            (None, 100)               204900    
=================================================================
Total params: 8,700,991
Trainable params: 8,694,591
Non-trainable params: 6,400
_________________________________________________________________
