Model: "sequential_210"
_________________________________________________________________
Layer (type)                 Output Shape              Param #   
=================================================================
separable_conv2d_2366 (Separ (None, 32, 32, 32)        155       
_________________________________________________________________
activation_2579 (Activation) (None, 32, 32, 32)        0         
_________________________________________________________________
dropout_2579 (Dropout)       (None, 32, 32, 32)        0         
_________________________________________________________________
separable_conv2d_2367 (Separ (None, 32, 32, 256)       8736      
_________________________________________________________________
batch_normalization_1519 (Ba (None, 32, 32, 256)       1024      
_________________________________________________________________
activation_2580 (Activation) (None, 32, 32, 256)       0         
_________________________________________________________________
dropout_2580 (Dropout)       (None, 32, 32, 256)       0         
_________________________________________________________________
separable_conv2d_2368 (Separ (None, 32, 32, 8)         4360      
_________________________________________________________________
activation_2581 (Activation) (None, 32, 32, 8)         0         
_________________________________________________________________
dropout_2581 (Dropout)       (None, 32, 32, 8)         0         
_________________________________________________________________
separable_conv2d_2369 (Separ (None, 32, 32, 64)        648       
_________________________________________________________________
activation_2582 (Activation) (None, 32, 32, 64)        0         
_________________________________________________________________
dropout_2582 (Dropout)       (None, 32, 32, 64)        0         
_________________________________________________________________
max_pooling2d_615 (MaxPoolin (None, 16, 16, 64)        0         
_________________________________________________________________
separable_conv2d_2370 (Separ (None, 16, 16, 16)        1616      
_________________________________________________________________
activation_2583 (Activation) (None, 16, 16, 16)        0         
_________________________________________________________________
dropout_2583 (Dropout)       (None, 16, 16, 16)        0         
_________________________________________________________________
separable_conv2d_2371 (Separ (None, 16, 16, 128)       2320      
_________________________________________________________________
batch_normalization_1520 (Ba (None, 16, 16, 128)       512       
_________________________________________________________________
activation_2584 (Activation) (None, 16, 16, 128)       0         
_________________________________________________________________
dropout_2584 (Dropout)       (None, 16, 16, 128)       0         
_________________________________________________________________
separable_conv2d_2372 (Separ (None, 16, 16, 64)        9408      
_________________________________________________________________
batch_normalization_1521 (Ba (None, 16, 16, 64)        256       
_________________________________________________________________
activation_2585 (Activation) (None, 16, 16, 64)        0         
_________________________________________________________________
dropout_2585 (Dropout)       (None, 16, 16, 64)        0         
_________________________________________________________________
separable_conv2d_2373 (Separ (None, 16, 16, 512)       33856     
_________________________________________________________________
batch_normalization_1522 (Ba (None, 16, 16, 512)       2048      
_________________________________________________________________
activation_2586 (Activation) (None, 16, 16, 512)       0         
_________________________________________________________________
dropout_2586 (Dropout)       (None, 16, 16, 512)       0         
_________________________________________________________________
max_pooling2d_616 (MaxPoolin (None, 8, 8, 512)         0         
_________________________________________________________________
separable_conv2d_2374 (Separ (None, 8, 8, 128)         70272     
_________________________________________________________________
activation_2587 (Activation) (None, 8, 8, 128)         0         
_________________________________________________________________
dropout_2587 (Dropout)       (None, 8, 8, 128)         0         
_________________________________________________________________
separable_conv2d_2375 (Separ (None, 8, 8, 32)          5280      
_________________________________________________________________
batch_normalization_1523 (Ba (None, 8, 8, 32)          128       
_________________________________________________________________
activation_2588 (Activation) (None, 8, 8, 32)          0         
_________________________________________________________________
dropout_2588 (Dropout)       (None, 8, 8, 32)          0         
_________________________________________________________________
separable_conv2d_2376 (Separ (None, 8, 8, 256)         8736      
_________________________________________________________________
batch_normalization_1524 (Ba (None, 8, 8, 256)         1024      
_________________________________________________________________
activation_2589 (Activation) (None, 8, 8, 256)         0         
_________________________________________________________________
dropout_2589 (Dropout)       (None, 8, 8, 256)         0         
_________________________________________________________________
max_pooling2d_617 (MaxPoolin (None, 4, 4, 256)         0         
_________________________________________________________________
flatten_210 (Flatten)        (None, 4096)              0         
_________________________________________________________________
dense_423 (Dense)            (None, 2048)              8390656   
_________________________________________________________________
batch_normalization_1525 (Ba (None, 2048)              8192      
_________________________________________________________________
activation_2590 (Activation) (None, 2048)              0         
_________________________________________________________________
dropout_2590 (Dropout)       (None, 2048)              0         
_________________________________________________________________
dense_424 (Dense)            (None, 100)               204900    
=================================================================
Total params: 8,754,127
Trainable params: 8,747,535
Non-trainable params: 6,592
_________________________________________________________________
