Model: "sequential_138"
_________________________________________________________________
Layer (type)                 Output Shape              Param #   
=================================================================
separable_conv2d_1587 (Separ (None, 32, 32, 32)        155       
_________________________________________________________________
activation_1728 (Activation) (None, 32, 32, 32)        0         
_________________________________________________________________
dropout_1728 (Dropout)       (None, 32, 32, 32)        0         
_________________________________________________________________
separable_conv2d_1588 (Separ (None, 32, 32, 128)       4512      
_________________________________________________________________
batch_normalization_1029 (Ba (None, 32, 32, 128)       512       
_________________________________________________________________
activation_1729 (Activation) (None, 32, 32, 128)       0         
_________________________________________________________________
dropout_1729 (Dropout)       (None, 32, 32, 128)       0         
_________________________________________________________________
separable_conv2d_1589 (Separ (None, 32, 32, 8)         2184      
_________________________________________________________________
activation_1730 (Activation) (None, 32, 32, 8)         0         
_________________________________________________________________
dropout_1730 (Dropout)       (None, 32, 32, 8)         0         
_________________________________________________________________
separable_conv2d_1590 (Separ (None, 32, 32, 64)        648       
_________________________________________________________________
activation_1731 (Activation) (None, 32, 32, 64)        0         
_________________________________________________________________
dropout_1731 (Dropout)       (None, 32, 32, 64)        0         
_________________________________________________________________
max_pooling2d_403 (MaxPoolin (None, 16, 16, 64)        0         
_________________________________________________________________
separable_conv2d_1591 (Separ (None, 16, 16, 8)         1096      
_________________________________________________________________
activation_1732 (Activation) (None, 16, 16, 8)         0         
_________________________________________________________________
dropout_1732 (Dropout)       (None, 16, 16, 8)         0         
_________________________________________________________________
separable_conv2d_1592 (Separ (None, 16, 16, 128)       1224      
_________________________________________________________________
batch_normalization_1030 (Ba (None, 16, 16, 128)       512       
_________________________________________________________________
activation_1733 (Activation) (None, 16, 16, 128)       0         
_________________________________________________________________
dropout_1733 (Dropout)       (None, 16, 16, 128)       0         
_________________________________________________________________
separable_conv2d_1593 (Separ (None, 16, 16, 64)        9408      
_________________________________________________________________
batch_normalization_1031 (Ba (None, 16, 16, 64)        256       
_________________________________________________________________
activation_1734 (Activation) (None, 16, 16, 64)        0         
_________________________________________________________________
dropout_1734 (Dropout)       (None, 16, 16, 64)        0         
_________________________________________________________________
separable_conv2d_1594 (Separ (None, 16, 16, 512)       33856     
_________________________________________________________________
batch_normalization_1032 (Ba (None, 16, 16, 512)       2048      
_________________________________________________________________
activation_1735 (Activation) (None, 16, 16, 512)       0         
_________________________________________________________________
dropout_1735 (Dropout)       (None, 16, 16, 512)       0         
_________________________________________________________________
max_pooling2d_404 (MaxPoolin (None, 8, 8, 512)         0         
_________________________________________________________________
separable_conv2d_1595 (Separ (None, 8, 8, 32)          21024     
_________________________________________________________________
batch_normalization_1033 (Ba (None, 8, 8, 32)          128       
_________________________________________________________________
activation_1736 (Activation) (None, 8, 8, 32)          0         
_________________________________________________________________
dropout_1736 (Dropout)       (None, 8, 8, 32)          0         
_________________________________________________________________
separable_conv2d_1596 (Separ (None, 8, 8, 32)          1344      
_________________________________________________________________
batch_normalization_1034 (Ba (None, 8, 8, 32)          128       
_________________________________________________________________
activation_1737 (Activation) (None, 8, 8, 32)          0         
_________________________________________________________________
dropout_1737 (Dropout)       (None, 8, 8, 32)          0         
_________________________________________________________________
separable_conv2d_1597 (Separ (None, 8, 8, 512)         17184     
_________________________________________________________________
batch_normalization_1035 (Ba (None, 8, 8, 512)         2048      
_________________________________________________________________
activation_1738 (Activation) (None, 8, 8, 512)         0         
_________________________________________________________________
dropout_1738 (Dropout)       (None, 8, 8, 512)         0         
_________________________________________________________________
max_pooling2d_405 (MaxPoolin (None, 4, 4, 512)         0         
_________________________________________________________________
flatten_138 (Flatten)        (None, 8192)              0         
_________________________________________________________________
dense_279 (Dense)            (None, 2048)              16779264  
_________________________________________________________________
batch_normalization_1036 (Ba (None, 2048)              8192      
_________________________________________________________________
activation_1739 (Activation) (None, 2048)              0         
_________________________________________________________________
dropout_1739 (Dropout)       (None, 2048)              0         
_________________________________________________________________
dense_280 (Dense)            (None, 100)               204900    
=================================================================
Total params: 17,090,623
Trainable params: 17,083,711
Non-trainable params: 6,912
_________________________________________________________________
