Model: "sequential_118"
_________________________________________________________________
Layer (type)                 Output Shape              Param #   
=================================================================
separable_conv2d_1363 (Separ (None, 32, 32, 32)        155       
_________________________________________________________________
activation_1484 (Activation) (None, 32, 32, 32)        0         
_________________________________________________________________
dropout_1484 (Dropout)       (None, 32, 32, 32)        0         
_________________________________________________________________
separable_conv2d_1364 (Separ (None, 32, 32, 128)       4512      
_________________________________________________________________
batch_normalization_883 (Bat (None, 32, 32, 128)       512       
_________________________________________________________________
activation_1485 (Activation) (None, 32, 32, 128)       0         
_________________________________________________________________
dropout_1485 (Dropout)       (None, 32, 32, 128)       0         
_________________________________________________________________
separable_conv2d_1365 (Separ (None, 32, 32, 8)         2184      
_________________________________________________________________
activation_1486 (Activation) (None, 32, 32, 8)         0         
_________________________________________________________________
dropout_1486 (Dropout)       (None, 32, 32, 8)         0         
_________________________________________________________________
separable_conv2d_1366 (Separ (None, 32, 32, 8)         144       
_________________________________________________________________
activation_1487 (Activation) (None, 32, 32, 8)         0         
_________________________________________________________________
dropout_1487 (Dropout)       (None, 32, 32, 8)         0         
_________________________________________________________________
max_pooling2d_343 (MaxPoolin (None, 16, 16, 8)         0         
_________________________________________________________________
separable_conv2d_1367 (Separ (None, 16, 16, 8)         144       
_________________________________________________________________
activation_1488 (Activation) (None, 16, 16, 8)         0         
_________________________________________________________________
dropout_1488 (Dropout)       (None, 16, 16, 8)         0         
_________________________________________________________________
separable_conv2d_1368 (Separ (None, 16, 16, 128)       1224      
_________________________________________________________________
batch_normalization_884 (Bat (None, 16, 16, 128)       512       
_________________________________________________________________
activation_1489 (Activation) (None, 16, 16, 128)       0         
_________________________________________________________________
dropout_1489 (Dropout)       (None, 16, 16, 128)       0         
_________________________________________________________________
separable_conv2d_1369 (Separ (None, 16, 16, 64)        9408      
_________________________________________________________________
batch_normalization_885 (Bat (None, 16, 16, 64)        256       
_________________________________________________________________
activation_1490 (Activation) (None, 16, 16, 64)        0         
_________________________________________________________________
dropout_1490 (Dropout)       (None, 16, 16, 64)        0         
_________________________________________________________________
separable_conv2d_1370 (Separ (None, 16, 16, 512)       33856     
_________________________________________________________________
batch_normalization_886 (Bat (None, 16, 16, 512)       2048      
_________________________________________________________________
activation_1491 (Activation) (None, 16, 16, 512)       0         
_________________________________________________________________
dropout_1491 (Dropout)       (None, 16, 16, 512)       0         
_________________________________________________________________
max_pooling2d_344 (MaxPoolin (None, 8, 8, 512)         0         
_________________________________________________________________
separable_conv2d_1371 (Separ (None, 8, 8, 32)          21024     
_________________________________________________________________
batch_normalization_887 (Bat (None, 8, 8, 32)          128       
_________________________________________________________________
activation_1492 (Activation) (None, 8, 8, 32)          0         
_________________________________________________________________
dropout_1492 (Dropout)       (None, 8, 8, 32)          0         
_________________________________________________________________
max_pooling2d_345 (MaxPoolin (None, 4, 4, 32)          0         
_________________________________________________________________
separable_conv2d_1372 (Separ (None, 4, 4, 128)         4512      
_________________________________________________________________
activation_1493 (Activation) (None, 4, 4, 128)         0         
_________________________________________________________________
dropout_1493 (Dropout)       (None, 4, 4, 128)         0         
_________________________________________________________________
separable_conv2d_1373 (Separ (None, 4, 4, 32)          5280      
_________________________________________________________________
batch_normalization_888 (Bat (None, 4, 4, 32)          128       
_________________________________________________________________
activation_1494 (Activation) (None, 4, 4, 32)          0         
_________________________________________________________________
dropout_1494 (Dropout)       (None, 4, 4, 32)          0         
_________________________________________________________________
separable_conv2d_1374 (Separ (None, 4, 4, 256)         8736      
_________________________________________________________________
batch_normalization_889 (Bat (None, 4, 4, 256)         1024      
_________________________________________________________________
activation_1495 (Activation) (None, 4, 4, 256)         0         
_________________________________________________________________
dropout_1495 (Dropout)       (None, 4, 4, 256)         0         
_________________________________________________________________
flatten_118 (Flatten)        (None, 4096)              0         
_________________________________________________________________
dense_239 (Dense)            (None, 2048)              8390656   
_________________________________________________________________
batch_normalization_890 (Bat (None, 2048)              8192      
_________________________________________________________________
activation_1496 (Activation) (None, 2048)              0         
_________________________________________________________________
dropout_1496 (Dropout)       (None, 2048)              0         
_________________________________________________________________
dense_240 (Dense)            (None, 100)               204900    
=================================================================
Total params: 8,699,535
Trainable params: 8,693,135
Non-trainable params: 6,400
_________________________________________________________________
