Model: "sequential_250"
_________________________________________________________________
Layer (type)                 Output Shape              Param #   
=================================================================
separable_conv2d_2791 (Separ (None, 32, 32, 32)        155       
_________________________________________________________________
activation_3044 (Activation) (None, 32, 32, 32)        0         
_________________________________________________________________
dropout_3044 (Dropout)       (None, 32, 32, 32)        0         
_________________________________________________________________
separable_conv2d_2792 (Separ (None, 32, 32, 256)       8736      
_________________________________________________________________
batch_normalization_1783 (Ba (None, 32, 32, 256)       1024      
_________________________________________________________________
activation_3045 (Activation) (None, 32, 32, 256)       0         
_________________________________________________________________
dropout_3045 (Dropout)       (None, 32, 32, 256)       0         
_________________________________________________________________
separable_conv2d_2793 (Separ (None, 32, 32, 8)         4360      
_________________________________________________________________
activation_3046 (Activation) (None, 32, 32, 8)         0         
_________________________________________________________________
dropout_3046 (Dropout)       (None, 32, 32, 8)         0         
_________________________________________________________________
separable_conv2d_2794 (Separ (None, 32, 32, 64)        648       
_________________________________________________________________
activation_3047 (Activation) (None, 32, 32, 64)        0         
_________________________________________________________________
dropout_3047 (Dropout)       (None, 32, 32, 64)        0         
_________________________________________________________________
max_pooling2d_728 (MaxPoolin (None, 16, 16, 64)        0         
_________________________________________________________________
separable_conv2d_2795 (Separ (None, 16, 16, 16)        1616      
_________________________________________________________________
activation_3048 (Activation) (None, 16, 16, 16)        0         
_________________________________________________________________
dropout_3048 (Dropout)       (None, 16, 16, 16)        0         
_________________________________________________________________
separable_conv2d_2796 (Separ (None, 16, 16, 128)       2320      
_________________________________________________________________
batch_normalization_1784 (Ba (None, 16, 16, 128)       512       
_________________________________________________________________
activation_3049 (Activation) (None, 16, 16, 128)       0         
_________________________________________________________________
dropout_3049 (Dropout)       (None, 16, 16, 128)       0         
_________________________________________________________________
separable_conv2d_2797 (Separ (None, 16, 16, 64)        9408      
_________________________________________________________________
batch_normalization_1785 (Ba (None, 16, 16, 64)        256       
_________________________________________________________________
activation_3050 (Activation) (None, 16, 16, 64)        0         
_________________________________________________________________
dropout_3050 (Dropout)       (None, 16, 16, 64)        0         
_________________________________________________________________
separable_conv2d_2798 (Separ (None, 16, 16, 512)       33856     
_________________________________________________________________
batch_normalization_1786 (Ba (None, 16, 16, 512)       2048      
_________________________________________________________________
activation_3051 (Activation) (None, 16, 16, 512)       0         
_________________________________________________________________
dropout_3051 (Dropout)       (None, 16, 16, 512)       0         
_________________________________________________________________
max_pooling2d_729 (MaxPoolin (None, 8, 8, 512)         0         
_________________________________________________________________
separable_conv2d_2799 (Separ (None, 8, 8, 128)         70272     
_________________________________________________________________
activation_3052 (Activation) (None, 8, 8, 128)         0         
_________________________________________________________________
dropout_3052 (Dropout)       (None, 8, 8, 128)         0         
_________________________________________________________________
separable_conv2d_2800 (Separ (None, 8, 8, 32)          5280      
_________________________________________________________________
batch_normalization_1787 (Ba (None, 8, 8, 32)          128       
_________________________________________________________________
activation_3053 (Activation) (None, 8, 8, 32)          0         
_________________________________________________________________
dropout_3053 (Dropout)       (None, 8, 8, 32)          0         
_________________________________________________________________
separable_conv2d_2801 (Separ (None, 8, 8, 256)         8736      
_________________________________________________________________
batch_normalization_1788 (Ba (None, 8, 8, 256)         1024      
_________________________________________________________________
activation_3054 (Activation) (None, 8, 8, 256)         0         
_________________________________________________________________
dropout_3054 (Dropout)       (None, 8, 8, 256)         0         
_________________________________________________________________
max_pooling2d_730 (MaxPoolin (None, 4, 4, 256)         0         
_________________________________________________________________
flatten_250 (Flatten)        (None, 4096)              0         
_________________________________________________________________
dense_503 (Dense)            (None, 2048)              8390656   
_________________________________________________________________
batch_normalization_1789 (Ba (None, 2048)              8192      
_________________________________________________________________
activation_3055 (Activation) (None, 2048)              0         
_________________________________________________________________
dropout_3055 (Dropout)       (None, 2048)              0         
_________________________________________________________________
dense_504 (Dense)            (None, 100)               204900    
=================================================================
Total params: 8,754,127
Trainable params: 8,747,535
Non-trainable params: 6,592
_________________________________________________________________
