Model: "sequential_346"
_________________________________________________________________
Layer (type)                 Output Shape              Param #   
=================================================================
separable_conv2d_3739 (Separ (None, 32, 32, 32)        155       
_________________________________________________________________
activation_4088 (Activation) (None, 32, 32, 32)        0         
_________________________________________________________________
dropout_4088 (Dropout)       (None, 32, 32, 32)        0         
_________________________________________________________________
separable_conv2d_3740 (Separ (None, 32, 32, 256)       8736      
_________________________________________________________________
batch_normalization_2350 (Ba (None, 32, 32, 256)       1024      
_________________________________________________________________
activation_4089 (Activation) (None, 32, 32, 256)       0         
_________________________________________________________________
dropout_4089 (Dropout)       (None, 32, 32, 256)       0         
_________________________________________________________________
separable_conv2d_3741 (Separ (None, 32, 32, 8)         4360      
_________________________________________________________________
activation_4090 (Activation) (None, 32, 32, 8)         0         
_________________________________________________________________
dropout_4090 (Dropout)       (None, 32, 32, 8)         0         
_________________________________________________________________
separable_conv2d_3742 (Separ (None, 32, 32, 64)        648       
_________________________________________________________________
activation_4091 (Activation) (None, 32, 32, 64)        0         
_________________________________________________________________
dropout_4091 (Dropout)       (None, 32, 32, 64)        0         
_________________________________________________________________
max_pooling2d_967 (MaxPoolin (None, 16, 16, 64)        0         
_________________________________________________________________
separable_conv2d_3743 (Separ (None, 16, 16, 16)        1616      
_________________________________________________________________
activation_4092 (Activation) (None, 16, 16, 16)        0         
_________________________________________________________________
dropout_4092 (Dropout)       (None, 16, 16, 16)        0         
_________________________________________________________________
separable_conv2d_3744 (Separ (None, 16, 16, 128)       2320      
_________________________________________________________________
batch_normalization_2351 (Ba (None, 16, 16, 128)       512       
_________________________________________________________________
activation_4093 (Activation) (None, 16, 16, 128)       0         
_________________________________________________________________
dropout_4093 (Dropout)       (None, 16, 16, 128)       0         
_________________________________________________________________
separable_conv2d_3745 (Separ (None, 16, 16, 64)        9408      
_________________________________________________________________
batch_normalization_2352 (Ba (None, 16, 16, 64)        256       
_________________________________________________________________
activation_4094 (Activation) (None, 16, 16, 64)        0         
_________________________________________________________________
dropout_4094 (Dropout)       (None, 16, 16, 64)        0         
_________________________________________________________________
separable_conv2d_3746 (Separ (None, 16, 16, 512)       33856     
_________________________________________________________________
batch_normalization_2353 (Ba (None, 16, 16, 512)       2048      
_________________________________________________________________
activation_4095 (Activation) (None, 16, 16, 512)       0         
_________________________________________________________________
dropout_4095 (Dropout)       (None, 16, 16, 512)       0         
_________________________________________________________________
max_pooling2d_968 (MaxPoolin (None, 8, 8, 512)         0         
_________________________________________________________________
separable_conv2d_3747 (Separ (None, 8, 8, 64)          37440     
_________________________________________________________________
batch_normalization_2354 (Ba (None, 8, 8, 64)          256       
_________________________________________________________________
activation_4096 (Activation) (None, 8, 8, 64)          0         
_________________________________________________________________
dropout_4096 (Dropout)       (None, 8, 8, 64)          0         
_________________________________________________________________
separable_conv2d_3748 (Separ (None, 8, 8, 512)         33856     
_________________________________________________________________
batch_normalization_2355 (Ba (None, 8, 8, 512)         2048      
_________________________________________________________________
activation_4097 (Activation) (None, 8, 8, 512)         0         
_________________________________________________________________
dropout_4097 (Dropout)       (None, 8, 8, 512)         0         
_________________________________________________________________
max_pooling2d_969 (MaxPoolin (None, 4, 4, 512)         0         
_________________________________________________________________
flatten_346 (Flatten)        (None, 8192)              0         
_________________________________________________________________
dense_695 (Dense)            (None, 2048)              16779264  
_________________________________________________________________
batch_normalization_2356 (Ba (None, 2048)              8192      
_________________________________________________________________
activation_4098 (Activation) (None, 2048)              0         
_________________________________________________________________
dropout_4098 (Dropout)       (None, 2048)              0         
_________________________________________________________________
dense_696 (Dense)            (None, 100)               204900    
=================================================================
Total params: 17,130,895
Trainable params: 17,123,727
Non-trainable params: 7,168
_________________________________________________________________
