Model: "sequential_124"
_________________________________________________________________
Layer (type)                 Output Shape              Param #   
=================================================================
separable_conv2d_1431 (Separ (None, 32, 32, 32)        155       
_________________________________________________________________
activation_1558 (Activation) (None, 32, 32, 32)        0         
_________________________________________________________________
dropout_1558 (Dropout)       (None, 32, 32, 32)        0         
_________________________________________________________________
separable_conv2d_1432 (Separ (None, 32, 32, 128)       4512      
_________________________________________________________________
batch_normalization_929 (Bat (None, 32, 32, 128)       512       
_________________________________________________________________
activation_1559 (Activation) (None, 32, 32, 128)       0         
_________________________________________________________________
dropout_1559 (Dropout)       (None, 32, 32, 128)       0         
_________________________________________________________________
separable_conv2d_1433 (Separ (None, 32, 32, 8)         2184      
_________________________________________________________________
activation_1560 (Activation) (None, 32, 32, 8)         0         
_________________________________________________________________
dropout_1560 (Dropout)       (None, 32, 32, 8)         0         
_________________________________________________________________
separable_conv2d_1434 (Separ (None, 32, 32, 64)        648       
_________________________________________________________________
activation_1561 (Activation) (None, 32, 32, 64)        0         
_________________________________________________________________
dropout_1561 (Dropout)       (None, 32, 32, 64)        0         
_________________________________________________________________
max_pooling2d_361 (MaxPoolin (None, 16, 16, 64)        0         
_________________________________________________________________
separable_conv2d_1435 (Separ (None, 16, 16, 8)         1096      
_________________________________________________________________
activation_1562 (Activation) (None, 16, 16, 8)         0         
_________________________________________________________________
dropout_1562 (Dropout)       (None, 16, 16, 8)         0         
_________________________________________________________________
separable_conv2d_1436 (Separ (None, 16, 16, 1024)      9288      
_________________________________________________________________
batch_normalization_930 (Bat (None, 16, 16, 1024)      4096      
_________________________________________________________________
activation_1563 (Activation) (None, 16, 16, 1024)      0         
_________________________________________________________________
dropout_1563 (Dropout)       (None, 16, 16, 1024)      0         
_________________________________________________________________
separable_conv2d_1437 (Separ (None, 16, 16, 64)        74816     
_________________________________________________________________
batch_normalization_931 (Bat (None, 16, 16, 64)        256       
_________________________________________________________________
activation_1564 (Activation) (None, 16, 16, 64)        0         
_________________________________________________________________
dropout_1564 (Dropout)       (None, 16, 16, 64)        0         
_________________________________________________________________
separable_conv2d_1438 (Separ (None, 16, 16, 512)       33856     
_________________________________________________________________
batch_normalization_932 (Bat (None, 16, 16, 512)       2048      
_________________________________________________________________
activation_1565 (Activation) (None, 16, 16, 512)       0         
_________________________________________________________________
dropout_1565 (Dropout)       (None, 16, 16, 512)       0         
_________________________________________________________________
max_pooling2d_362 (MaxPoolin (None, 8, 8, 512)         0         
_________________________________________________________________
separable_conv2d_1439 (Separ (None, 8, 8, 128)         70272     
_________________________________________________________________
activation_1566 (Activation) (None, 8, 8, 128)         0         
_________________________________________________________________
dropout_1566 (Dropout)       (None, 8, 8, 128)         0         
_________________________________________________________________
separable_conv2d_1440 (Separ (None, 8, 8, 32)          5280      
_________________________________________________________________
batch_normalization_933 (Bat (None, 8, 8, 32)          128       
_________________________________________________________________
activation_1567 (Activation) (None, 8, 8, 32)          0         
_________________________________________________________________
dropout_1567 (Dropout)       (None, 8, 8, 32)          0         
_________________________________________________________________
separable_conv2d_1441 (Separ (None, 8, 8, 256)         8736      
_________________________________________________________________
batch_normalization_934 (Bat (None, 8, 8, 256)         1024      
_________________________________________________________________
activation_1568 (Activation) (None, 8, 8, 256)         0         
_________________________________________________________________
dropout_1568 (Dropout)       (None, 8, 8, 256)         0         
_________________________________________________________________
max_pooling2d_363 (MaxPoolin (None, 4, 4, 256)         0         
_________________________________________________________________
flatten_124 (Flatten)        (None, 4096)              0         
_________________________________________________________________
dense_251 (Dense)            (None, 2048)              8390656   
_________________________________________________________________
batch_normalization_935 (Bat (None, 2048)              8192      
_________________________________________________________________
activation_1569 (Activation) (None, 2048)              0         
_________________________________________________________________
dropout_1569 (Dropout)       (None, 2048)              0         
_________________________________________________________________
dense_252 (Dense)            (None, 100)               204900    
=================================================================
Total params: 8,822,655
Trainable params: 8,814,527
Non-trainable params: 8,128
_________________________________________________________________
