Model: "sequential_85"
_________________________________________________________________
Layer (type)                 Output Shape              Param #   
=================================================================
separable_conv2d_988 (Separa (None, 32, 32, 32)        155       
_________________________________________________________________
activation_1076 (Activation) (None, 32, 32, 32)        0         
_________________________________________________________________
dropout_1076 (Dropout)       (None, 32, 32, 32)        0         
_________________________________________________________________
separable_conv2d_989 (Separa (None, 32, 32, 128)       4512      
_________________________________________________________________
batch_normalization_628 (Bat (None, 32, 32, 128)       512       
_________________________________________________________________
activation_1077 (Activation) (None, 32, 32, 128)       0         
_________________________________________________________________
dropout_1077 (Dropout)       (None, 32, 32, 128)       0         
_________________________________________________________________
separable_conv2d_990 (Separa (None, 32, 32, 8)         2184      
_________________________________________________________________
activation_1078 (Activation) (None, 32, 32, 8)         0         
_________________________________________________________________
dropout_1078 (Dropout)       (None, 32, 32, 8)         0         
_________________________________________________________________
separable_conv2d_991 (Separa (None, 32, 32, 16)        216       
_________________________________________________________________
activation_1079 (Activation) (None, 32, 32, 16)        0         
_________________________________________________________________
dropout_1079 (Dropout)       (None, 32, 32, 16)        0         
_________________________________________________________________
max_pooling2d_244 (MaxPoolin (None, 16, 16, 16)        0         
_________________________________________________________________
separable_conv2d_992 (Separa (None, 16, 16, 8)         280       
_________________________________________________________________
activation_1080 (Activation) (None, 16, 16, 8)         0         
_________________________________________________________________
dropout_1080 (Dropout)       (None, 16, 16, 8)         0         
_________________________________________________________________
separable_conv2d_993 (Separa (None, 16, 16, 128)       1224      
_________________________________________________________________
batch_normalization_629 (Bat (None, 16, 16, 128)       512       
_________________________________________________________________
activation_1081 (Activation) (None, 16, 16, 128)       0         
_________________________________________________________________
dropout_1081 (Dropout)       (None, 16, 16, 128)       0         
_________________________________________________________________
separable_conv2d_994 (Separa (None, 16, 16, 64)        9408      
_________________________________________________________________
batch_normalization_630 (Bat (None, 16, 16, 64)        256       
_________________________________________________________________
activation_1082 (Activation) (None, 16, 16, 64)        0         
_________________________________________________________________
dropout_1082 (Dropout)       (None, 16, 16, 64)        0         
_________________________________________________________________
separable_conv2d_995 (Separa (None, 16, 16, 512)       33856     
_________________________________________________________________
batch_normalization_631 (Bat (None, 16, 16, 512)       2048      
_________________________________________________________________
activation_1083 (Activation) (None, 16, 16, 512)       0         
_________________________________________________________________
dropout_1083 (Dropout)       (None, 16, 16, 512)       0         
_________________________________________________________________
max_pooling2d_245 (MaxPoolin (None, 8, 8, 512)         0         
_________________________________________________________________
separable_conv2d_996 (Separa (None, 8, 8, 32)          21024     
_________________________________________________________________
batch_normalization_632 (Bat (None, 8, 8, 32)          128       
_________________________________________________________________
activation_1084 (Activation) (None, 8, 8, 32)          0         
_________________________________________________________________
dropout_1084 (Dropout)       (None, 8, 8, 32)          0         
_________________________________________________________________
max_pooling2d_246 (MaxPoolin (None, 4, 4, 32)          0         
_________________________________________________________________
separable_conv2d_997 (Separa (None, 4, 4, 32)          1344      
_________________________________________________________________
batch_normalization_633 (Bat (None, 4, 4, 32)          128       
_________________________________________________________________
activation_1085 (Activation) (None, 4, 4, 32)          0         
_________________________________________________________________
dropout_1085 (Dropout)       (None, 4, 4, 32)          0         
_________________________________________________________________
separable_conv2d_998 (Separa (None, 4, 4, 256)         8736      
_________________________________________________________________
batch_normalization_634 (Bat (None, 4, 4, 256)         1024      
_________________________________________________________________
activation_1086 (Activation) (None, 4, 4, 256)         0         
_________________________________________________________________
dropout_1086 (Dropout)       (None, 4, 4, 256)         0         
_________________________________________________________________
flatten_85 (Flatten)         (None, 4096)              0         
_________________________________________________________________
dense_173 (Dense)            (None, 2048)              8390656   
_________________________________________________________________
batch_normalization_635 (Bat (None, 2048)              8192      
_________________________________________________________________
activation_1087 (Activation) (None, 2048)              0         
_________________________________________________________________
dropout_1087 (Dropout)       (None, 2048)              0         
_________________________________________________________________
dense_174 (Dense)            (None, 100)               204900    
=================================================================
Total params: 8,691,295
Trainable params: 8,684,895
Non-trainable params: 6,400
_________________________________________________________________
