Model: "sequential_252"
_________________________________________________________________
Layer (type)                 Output Shape              Param #   
=================================================================
separable_conv2d_2813 (Separ (None, 32, 32, 32)        155       
_________________________________________________________________
activation_3068 (Activation) (None, 32, 32, 32)        0         
_________________________________________________________________
dropout_3068 (Dropout)       (None, 32, 32, 32)        0         
_________________________________________________________________
separable_conv2d_2814 (Separ (None, 32, 32, 256)       8736      
_________________________________________________________________
batch_normalization_1797 (Ba (None, 32, 32, 256)       1024      
_________________________________________________________________
activation_3069 (Activation) (None, 32, 32, 256)       0         
_________________________________________________________________
dropout_3069 (Dropout)       (None, 32, 32, 256)       0         
_________________________________________________________________
separable_conv2d_2815 (Separ (None, 32, 32, 8)         4360      
_________________________________________________________________
activation_3070 (Activation) (None, 32, 32, 8)         0         
_________________________________________________________________
dropout_3070 (Dropout)       (None, 32, 32, 8)         0         
_________________________________________________________________
separable_conv2d_2816 (Separ (None, 32, 32, 64)        648       
_________________________________________________________________
activation_3071 (Activation) (None, 32, 32, 64)        0         
_________________________________________________________________
dropout_3071 (Dropout)       (None, 32, 32, 64)        0         
_________________________________________________________________
max_pooling2d_734 (MaxPoolin (None, 16, 16, 64)        0         
_________________________________________________________________
separable_conv2d_2817 (Separ (None, 16, 16, 256)       17216     
_________________________________________________________________
batch_normalization_1798 (Ba (None, 16, 16, 256)       1024      
_________________________________________________________________
activation_3072 (Activation) (None, 16, 16, 256)       0         
_________________________________________________________________
dropout_3072 (Dropout)       (None, 16, 16, 256)       0         
_________________________________________________________________
separable_conv2d_2818 (Separ (None, 16, 16, 64)        18752     
_________________________________________________________________
batch_normalization_1799 (Ba (None, 16, 16, 64)        256       
_________________________________________________________________
activation_3073 (Activation) (None, 16, 16, 64)        0         
_________________________________________________________________
dropout_3073 (Dropout)       (None, 16, 16, 64)        0         
_________________________________________________________________
separable_conv2d_2819 (Separ (None, 16, 16, 512)       33856     
_________________________________________________________________
batch_normalization_1800 (Ba (None, 16, 16, 512)       2048      
_________________________________________________________________
activation_3074 (Activation) (None, 16, 16, 512)       0         
_________________________________________________________________
dropout_3074 (Dropout)       (None, 16, 16, 512)       0         
_________________________________________________________________
max_pooling2d_735 (MaxPoolin (None, 8, 8, 512)         0         
_________________________________________________________________
separable_conv2d_2820 (Separ (None, 8, 8, 128)         70272     
_________________________________________________________________
activation_3075 (Activation) (None, 8, 8, 128)         0         
_________________________________________________________________
dropout_3075 (Dropout)       (None, 8, 8, 128)         0         
_________________________________________________________________
separable_conv2d_2821 (Separ (None, 8, 8, 256)         34176     
_________________________________________________________________
batch_normalization_1801 (Ba (None, 8, 8, 256)         1024      
_________________________________________________________________
activation_3076 (Activation) (None, 8, 8, 256)         0         
_________________________________________________________________
dropout_3076 (Dropout)       (None, 8, 8, 256)         0         
_________________________________________________________________
max_pooling2d_736 (MaxPoolin (None, 4, 4, 256)         0         
_________________________________________________________________
flatten_252 (Flatten)        (None, 4096)              0         
_________________________________________________________________
dense_507 (Dense)            (None, 2048)              8390656   
_________________________________________________________________
batch_normalization_1802 (Ba (None, 2048)              8192      
_________________________________________________________________
activation_3077 (Activation) (None, 2048)              0         
_________________________________________________________________
dropout_3077 (Dropout)       (None, 2048)              0         
_________________________________________________________________
dense_508 (Dense)            (None, 100)               204900    
=================================================================
Total params: 8,797,295
Trainable params: 8,790,511
Non-trainable params: 6,784
_________________________________________________________________
