Model: "sequential_98"
_________________________________________________________________
Layer (type)                 Output Shape              Param #   
=================================================================
separable_conv2d_1138 (Separ (None, 32, 32, 32)        155       
_________________________________________________________________
activation_1239 (Activation) (None, 32, 32, 32)        0         
_________________________________________________________________
dropout_1239 (Dropout)       (None, 32, 32, 32)        0         
_________________________________________________________________
separable_conv2d_1139 (Separ (None, 32, 32, 256)       8736      
_________________________________________________________________
batch_normalization_729 (Bat (None, 32, 32, 256)       1024      
_________________________________________________________________
activation_1240 (Activation) (None, 32, 32, 256)       0         
_________________________________________________________________
dropout_1240 (Dropout)       (None, 32, 32, 256)       0         
_________________________________________________________________
separable_conv2d_1140 (Separ (None, 32, 32, 8)         4360      
_________________________________________________________________
activation_1241 (Activation) (None, 32, 32, 8)         0         
_________________________________________________________________
dropout_1241 (Dropout)       (None, 32, 32, 8)         0         
_________________________________________________________________
separable_conv2d_1141 (Separ (None, 32, 32, 64)        648       
_________________________________________________________________
activation_1242 (Activation) (None, 32, 32, 64)        0         
_________________________________________________________________
dropout_1242 (Dropout)       (None, 32, 32, 64)        0         
_________________________________________________________________
max_pooling2d_283 (MaxPoolin (None, 16, 16, 64)        0         
_________________________________________________________________
separable_conv2d_1142 (Separ (None, 16, 16, 8)         1096      
_________________________________________________________________
activation_1243 (Activation) (None, 16, 16, 8)         0         
_________________________________________________________________
dropout_1243 (Dropout)       (None, 16, 16, 8)         0         
_________________________________________________________________
separable_conv2d_1143 (Separ (None, 16, 16, 128)       1224      
_________________________________________________________________
batch_normalization_730 (Bat (None, 16, 16, 128)       512       
_________________________________________________________________
activation_1244 (Activation) (None, 16, 16, 128)       0         
_________________________________________________________________
dropout_1244 (Dropout)       (None, 16, 16, 128)       0         
_________________________________________________________________
separable_conv2d_1144 (Separ (None, 16, 16, 64)        9408      
_________________________________________________________________
batch_normalization_731 (Bat (None, 16, 16, 64)        256       
_________________________________________________________________
activation_1245 (Activation) (None, 16, 16, 64)        0         
_________________________________________________________________
dropout_1245 (Dropout)       (None, 16, 16, 64)        0         
_________________________________________________________________
separable_conv2d_1145 (Separ (None, 16, 16, 512)       33856     
_________________________________________________________________
batch_normalization_732 (Bat (None, 16, 16, 512)       2048      
_________________________________________________________________
activation_1246 (Activation) (None, 16, 16, 512)       0         
_________________________________________________________________
dropout_1246 (Dropout)       (None, 16, 16, 512)       0         
_________________________________________________________________
max_pooling2d_284 (MaxPoolin (None, 8, 8, 512)         0         
_________________________________________________________________
separable_conv2d_1146 (Separ (None, 8, 8, 32)          21024     
_________________________________________________________________
batch_normalization_733 (Bat (None, 8, 8, 32)          128       
_________________________________________________________________
activation_1247 (Activation) (None, 8, 8, 32)          0         
_________________________________________________________________
dropout_1247 (Dropout)       (None, 8, 8, 32)          0         
_________________________________________________________________
separable_conv2d_1147 (Separ (None, 8, 8, 32)          1344      
_________________________________________________________________
batch_normalization_734 (Bat (None, 8, 8, 32)          128       
_________________________________________________________________
activation_1248 (Activation) (None, 8, 8, 32)          0         
_________________________________________________________________
dropout_1248 (Dropout)       (None, 8, 8, 32)          0         
_________________________________________________________________
separable_conv2d_1148 (Separ (None, 8, 8, 512)         17184     
_________________________________________________________________
batch_normalization_735 (Bat (None, 8, 8, 512)         2048      
_________________________________________________________________
activation_1249 (Activation) (None, 8, 8, 512)         0         
_________________________________________________________________
dropout_1249 (Dropout)       (None, 8, 8, 512)         0         
_________________________________________________________________
max_pooling2d_285 (MaxPoolin (None, 4, 4, 512)         0         
_________________________________________________________________
flatten_98 (Flatten)         (None, 8192)              0         
_________________________________________________________________
dense_199 (Dense)            (None, 2048)              16779264  
_________________________________________________________________
batch_normalization_736 (Bat (None, 2048)              8192      
_________________________________________________________________
activation_1250 (Activation) (None, 2048)              0         
_________________________________________________________________
dropout_1250 (Dropout)       (None, 2048)              0         
_________________________________________________________________
dense_200 (Dense)            (None, 100)               204900    
=================================================================
Total params: 17,097,535
Trainable params: 17,090,367
Non-trainable params: 7,168
_________________________________________________________________
