Model: "sequential_275"
_________________________________________________________________
Layer (type)                 Output Shape              Param #   
=================================================================
separable_conv2d_3052 (Separ (None, 32, 32, 32)        155       
_________________________________________________________________
activation_3330 (Activation) (None, 32, 32, 32)        0         
_________________________________________________________________
dropout_3330 (Dropout)       (None, 32, 32, 32)        0         
_________________________________________________________________
separable_conv2d_3053 (Separ (None, 32, 32, 256)       8736      
_________________________________________________________________
batch_normalization_1946 (Ba (None, 32, 32, 256)       1024      
_________________________________________________________________
activation_3331 (Activation) (None, 32, 32, 256)       0         
_________________________________________________________________
dropout_3331 (Dropout)       (None, 32, 32, 256)       0         
_________________________________________________________________
separable_conv2d_3054 (Separ (None, 32, 32, 8)         4360      
_________________________________________________________________
activation_3332 (Activation) (None, 32, 32, 8)         0         
_________________________________________________________________
dropout_3332 (Dropout)       (None, 32, 32, 8)         0         
_________________________________________________________________
separable_conv2d_3055 (Separ (None, 32, 32, 64)        648       
_________________________________________________________________
activation_3333 (Activation) (None, 32, 32, 64)        0         
_________________________________________________________________
dropout_3333 (Dropout)       (None, 32, 32, 64)        0         
_________________________________________________________________
max_pooling2d_798 (MaxPoolin (None, 16, 16, 64)        0         
_________________________________________________________________
separable_conv2d_3056 (Separ (None, 16, 16, 16)        1616      
_________________________________________________________________
activation_3334 (Activation) (None, 16, 16, 16)        0         
_________________________________________________________________
dropout_3334 (Dropout)       (None, 16, 16, 16)        0         
_________________________________________________________________
separable_conv2d_3057 (Separ (None, 16, 16, 128)       2320      
_________________________________________________________________
batch_normalization_1947 (Ba (None, 16, 16, 128)       512       
_________________________________________________________________
activation_3335 (Activation) (None, 16, 16, 128)       0         
_________________________________________________________________
dropout_3335 (Dropout)       (None, 16, 16, 128)       0         
_________________________________________________________________
separable_conv2d_3058 (Separ (None, 16, 16, 64)        9408      
_________________________________________________________________
batch_normalization_1948 (Ba (None, 16, 16, 64)        256       
_________________________________________________________________
activation_3336 (Activation) (None, 16, 16, 64)        0         
_________________________________________________________________
dropout_3336 (Dropout)       (None, 16, 16, 64)        0         
_________________________________________________________________
separable_conv2d_3059 (Separ (None, 16, 16, 32)        2656      
_________________________________________________________________
batch_normalization_1949 (Ba (None, 16, 16, 32)        128       
_________________________________________________________________
activation_3337 (Activation) (None, 16, 16, 32)        0         
_________________________________________________________________
dropout_3337 (Dropout)       (None, 16, 16, 32)        0         
_________________________________________________________________
separable_conv2d_3060 (Separ (None, 16, 16, 256)       8736      
_________________________________________________________________
batch_normalization_1950 (Ba (None, 16, 16, 256)       1024      
_________________________________________________________________
activation_3338 (Activation) (None, 16, 16, 256)       0         
_________________________________________________________________
dropout_3338 (Dropout)       (None, 16, 16, 256)       0         
_________________________________________________________________
max_pooling2d_799 (MaxPoolin (None, 8, 8, 256)         0         
_________________________________________________________________
flatten_275 (Flatten)        (None, 16384)             0         
_________________________________________________________________
dense_553 (Dense)            (None, 2048)              33556480  
_________________________________________________________________
batch_normalization_1951 (Ba (None, 2048)              8192      
_________________________________________________________________
activation_3339 (Activation) (None, 2048)              0         
_________________________________________________________________
dropout_3339 (Dropout)       (None, 2048)              0         
_________________________________________________________________
dense_554 (Dense)            (None, 100)               204900    
=================================================================
Total params: 33,811,151
Trainable params: 33,805,583
Non-trainable params: 5,568
_________________________________________________________________
