Model: "sequential_245"
_________________________________________________________________
Layer (type)                 Output Shape              Param #   
=================================================================
separable_conv2d_2742 (Separ (None, 32, 32, 32)        155       
_________________________________________________________________
activation_2990 (Activation) (None, 32, 32, 32)        0         
_________________________________________________________________
dropout_2990 (Dropout)       (None, 32, 32, 32)        0         
_________________________________________________________________
separable_conv2d_2743 (Separ (None, 32, 32, 256)       8736      
_________________________________________________________________
batch_normalization_1751 (Ba (None, 32, 32, 256)       1024      
_________________________________________________________________
activation_2991 (Activation) (None, 32, 32, 256)       0         
_________________________________________________________________
dropout_2991 (Dropout)       (None, 32, 32, 256)       0         
_________________________________________________________________
separable_conv2d_2744 (Separ (None, 32, 32, 8)         4360      
_________________________________________________________________
activation_2992 (Activation) (None, 32, 32, 8)         0         
_________________________________________________________________
dropout_2992 (Dropout)       (None, 32, 32, 8)         0         
_________________________________________________________________
separable_conv2d_2745 (Separ (None, 32, 32, 64)        648       
_________________________________________________________________
activation_2993 (Activation) (None, 32, 32, 64)        0         
_________________________________________________________________
dropout_2993 (Dropout)       (None, 32, 32, 64)        0         
_________________________________________________________________
max_pooling2d_716 (MaxPoolin (None, 16, 16, 64)        0         
_________________________________________________________________
separable_conv2d_2746 (Separ (None, 16, 16, 256)       17216     
_________________________________________________________________
batch_normalization_1752 (Ba (None, 16, 16, 256)       1024      
_________________________________________________________________
activation_2994 (Activation) (None, 16, 16, 256)       0         
_________________________________________________________________
dropout_2994 (Dropout)       (None, 16, 16, 256)       0         
_________________________________________________________________
separable_conv2d_2747 (Separ (None, 16, 16, 64)        18752     
_________________________________________________________________
batch_normalization_1753 (Ba (None, 16, 16, 64)        256       
_________________________________________________________________
activation_2995 (Activation) (None, 16, 16, 64)        0         
_________________________________________________________________
dropout_2995 (Dropout)       (None, 16, 16, 64)        0         
_________________________________________________________________
max_pooling2d_717 (MaxPoolin (None, 8, 8, 64)          0         
_________________________________________________________________
separable_conv2d_2748 (Separ (None, 8, 8, 512)         33856     
_________________________________________________________________
batch_normalization_1754 (Ba (None, 8, 8, 512)         2048      
_________________________________________________________________
activation_2996 (Activation) (None, 8, 8, 512)         0         
_________________________________________________________________
dropout_2996 (Dropout)       (None, 8, 8, 512)         0         
_________________________________________________________________
max_pooling2d_718 (MaxPoolin (None, 4, 4, 512)         0         
_________________________________________________________________
separable_conv2d_2749 (Separ (None, 4, 4, 128)         70272     
_________________________________________________________________
activation_2997 (Activation) (None, 4, 4, 128)         0         
_________________________________________________________________
dropout_2997 (Dropout)       (None, 4, 4, 128)         0         
_________________________________________________________________
separable_conv2d_2750 (Separ (None, 4, 4, 32)          5280      
_________________________________________________________________
batch_normalization_1755 (Ba (None, 4, 4, 32)          128       
_________________________________________________________________
activation_2998 (Activation) (None, 4, 4, 32)          0         
_________________________________________________________________
dropout_2998 (Dropout)       (None, 4, 4, 32)          0         
_________________________________________________________________
separable_conv2d_2751 (Separ (None, 4, 4, 256)         8736      
_________________________________________________________________
batch_normalization_1756 (Ba (None, 4, 4, 256)         1024      
_________________________________________________________________
activation_2999 (Activation) (None, 4, 4, 256)         0         
_________________________________________________________________
dropout_2999 (Dropout)       (None, 4, 4, 256)         0         
_________________________________________________________________
flatten_245 (Flatten)        (None, 4096)              0         
_________________________________________________________________
dense_493 (Dense)            (None, 2048)              8390656   
_________________________________________________________________
batch_normalization_1757 (Ba (None, 2048)              8192      
_________________________________________________________________
activation_3000 (Activation) (None, 2048)              0         
_________________________________________________________________
dropout_3000 (Dropout)       (None, 2048)              0         
_________________________________________________________________
dense_494 (Dense)            (None, 100)               204900    
=================================================================
Total params: 8,777,263
Trainable params: 8,770,415
Non-trainable params: 6,848
_________________________________________________________________
