Model: "sequential_279"
_________________________________________________________________
Layer (type)                 Output Shape              Param #   
=================================================================
separable_conv2d_3090 (Separ (None, 32, 32, 32)        155       
_________________________________________________________________
activation_3372 (Activation) (None, 32, 32, 32)        0         
_________________________________________________________________
dropout_3372 (Dropout)       (None, 32, 32, 32)        0         
_________________________________________________________________
separable_conv2d_3091 (Separ (None, 32, 32, 256)       8736      
_________________________________________________________________
batch_normalization_1969 (Ba (None, 32, 32, 256)       1024      
_________________________________________________________________
activation_3373 (Activation) (None, 32, 32, 256)       0         
_________________________________________________________________
dropout_3373 (Dropout)       (None, 32, 32, 256)       0         
_________________________________________________________________
separable_conv2d_3092 (Separ (None, 32, 32, 8)         4360      
_________________________________________________________________
activation_3374 (Activation) (None, 32, 32, 8)         0         
_________________________________________________________________
dropout_3374 (Dropout)       (None, 32, 32, 8)         0         
_________________________________________________________________
separable_conv2d_3093 (Separ (None, 32, 32, 64)        648       
_________________________________________________________________
activation_3375 (Activation) (None, 32, 32, 64)        0         
_________________________________________________________________
dropout_3375 (Dropout)       (None, 32, 32, 64)        0         
_________________________________________________________________
max_pooling2d_808 (MaxPoolin (None, 16, 16, 64)        0         
_________________________________________________________________
separable_conv2d_3094 (Separ (None, 16, 16, 16)        1616      
_________________________________________________________________
activation_3376 (Activation) (None, 16, 16, 16)        0         
_________________________________________________________________
dropout_3376 (Dropout)       (None, 16, 16, 16)        0         
_________________________________________________________________
separable_conv2d_3095 (Separ (None, 16, 16, 128)       2320      
_________________________________________________________________
batch_normalization_1970 (Ba (None, 16, 16, 128)       512       
_________________________________________________________________
activation_3377 (Activation) (None, 16, 16, 128)       0         
_________________________________________________________________
dropout_3377 (Dropout)       (None, 16, 16, 128)       0         
_________________________________________________________________
separable_conv2d_3096 (Separ (None, 16, 16, 64)        9408      
_________________________________________________________________
batch_normalization_1971 (Ba (None, 16, 16, 64)        256       
_________________________________________________________________
activation_3378 (Activation) (None, 16, 16, 64)        0         
_________________________________________________________________
dropout_3378 (Dropout)       (None, 16, 16, 64)        0         
_________________________________________________________________
separable_conv2d_3097 (Separ (None, 16, 16, 512)       33856     
_________________________________________________________________
batch_normalization_1972 (Ba (None, 16, 16, 512)       2048      
_________________________________________________________________
activation_3379 (Activation) (None, 16, 16, 512)       0         
_________________________________________________________________
dropout_3379 (Dropout)       (None, 16, 16, 512)       0         
_________________________________________________________________
max_pooling2d_809 (MaxPoolin (None, 8, 8, 512)         0         
_________________________________________________________________
separable_conv2d_3098 (Separ (None, 8, 8, 128)         70272     
_________________________________________________________________
activation_3380 (Activation) (None, 8, 8, 128)         0         
_________________________________________________________________
dropout_3380 (Dropout)       (None, 8, 8, 128)         0         
_________________________________________________________________
separable_conv2d_3099 (Separ (None, 8, 8, 32)          5280      
_________________________________________________________________
batch_normalization_1973 (Ba (None, 8, 8, 32)          128       
_________________________________________________________________
activation_3381 (Activation) (None, 8, 8, 32)          0         
_________________________________________________________________
dropout_3381 (Dropout)       (None, 8, 8, 32)          0         
_________________________________________________________________
separable_conv2d_3100 (Separ (None, 8, 8, 256)         8736      
_________________________________________________________________
batch_normalization_1974 (Ba (None, 8, 8, 256)         1024      
_________________________________________________________________
activation_3382 (Activation) (None, 8, 8, 256)         0         
_________________________________________________________________
dropout_3382 (Dropout)       (None, 8, 8, 256)         0         
_________________________________________________________________
max_pooling2d_810 (MaxPoolin (None, 4, 4, 256)         0         
_________________________________________________________________
flatten_279 (Flatten)        (None, 4096)              0         
_________________________________________________________________
dense_561 (Dense)            (None, 2048)              8390656   
_________________________________________________________________
batch_normalization_1975 (Ba (None, 2048)              8192      
_________________________________________________________________
activation_3383 (Activation) (None, 2048)              0         
_________________________________________________________________
dropout_3383 (Dropout)       (None, 2048)              0         
_________________________________________________________________
dense_562 (Dense)            (None, 100)               204900    
=================================================================
Total params: 8,754,127
Trainable params: 8,747,535
Non-trainable params: 6,592
_________________________________________________________________
