Model: "sequential_103"
_________________________________________________________________
Layer (type)                 Output Shape              Param #   
=================================================================
separable_conv2d_1194 (Separ (None, 32, 32, 32)        155       
_________________________________________________________________
activation_1300 (Activation) (None, 32, 32, 32)        0         
_________________________________________________________________
dropout_1300 (Dropout)       (None, 32, 32, 32)        0         
_________________________________________________________________
separable_conv2d_1195 (Separ (None, 32, 32, 128)       4512      
_________________________________________________________________
batch_normalization_767 (Bat (None, 32, 32, 128)       512       
_________________________________________________________________
activation_1301 (Activation) (None, 32, 32, 128)       0         
_________________________________________________________________
dropout_1301 (Dropout)       (None, 32, 32, 128)       0         
_________________________________________________________________
separable_conv2d_1196 (Separ (None, 32, 32, 8)         2184      
_________________________________________________________________
activation_1302 (Activation) (None, 32, 32, 8)         0         
_________________________________________________________________
dropout_1302 (Dropout)       (None, 32, 32, 8)         0         
_________________________________________________________________
separable_conv2d_1197 (Separ (None, 32, 32, 64)        648       
_________________________________________________________________
activation_1303 (Activation) (None, 32, 32, 64)        0         
_________________________________________________________________
dropout_1303 (Dropout)       (None, 32, 32, 64)        0         
_________________________________________________________________
max_pooling2d_298 (MaxPoolin (None, 16, 16, 64)        0         
_________________________________________________________________
separable_conv2d_1198 (Separ (None, 16, 16, 8)         1096      
_________________________________________________________________
activation_1304 (Activation) (None, 16, 16, 8)         0         
_________________________________________________________________
dropout_1304 (Dropout)       (None, 16, 16, 8)         0         
_________________________________________________________________
separable_conv2d_1199 (Separ (None, 16, 16, 128)       1224      
_________________________________________________________________
batch_normalization_768 (Bat (None, 16, 16, 128)       512       
_________________________________________________________________
activation_1305 (Activation) (None, 16, 16, 128)       0         
_________________________________________________________________
dropout_1305 (Dropout)       (None, 16, 16, 128)       0         
_________________________________________________________________
separable_conv2d_1200 (Separ (None, 16, 16, 64)        9408      
_________________________________________________________________
batch_normalization_769 (Bat (None, 16, 16, 64)        256       
_________________________________________________________________
activation_1306 (Activation) (None, 16, 16, 64)        0         
_________________________________________________________________
dropout_1306 (Dropout)       (None, 16, 16, 64)        0         
_________________________________________________________________
separable_conv2d_1201 (Separ (None, 16, 16, 512)       33856     
_________________________________________________________________
batch_normalization_770 (Bat (None, 16, 16, 512)       2048      
_________________________________________________________________
activation_1307 (Activation) (None, 16, 16, 512)       0         
_________________________________________________________________
dropout_1307 (Dropout)       (None, 16, 16, 512)       0         
_________________________________________________________________
max_pooling2d_299 (MaxPoolin (None, 8, 8, 512)         0         
_________________________________________________________________
separable_conv2d_1202 (Separ (None, 8, 8, 32)          21024     
_________________________________________________________________
batch_normalization_771 (Bat (None, 8, 8, 32)          128       
_________________________________________________________________
activation_1308 (Activation) (None, 8, 8, 32)          0         
_________________________________________________________________
dropout_1308 (Dropout)       (None, 8, 8, 32)          0         
_________________________________________________________________
max_pooling2d_300 (MaxPoolin (None, 4, 4, 32)          0         
_________________________________________________________________
separable_conv2d_1203 (Separ (None, 4, 4, 32)          1344      
_________________________________________________________________
batch_normalization_772 (Bat (None, 4, 4, 32)          128       
_________________________________________________________________
activation_1309 (Activation) (None, 4, 4, 32)          0         
_________________________________________________________________
dropout_1309 (Dropout)       (None, 4, 4, 32)          0         
_________________________________________________________________
separable_conv2d_1204 (Separ (None, 4, 4, 256)         8736      
_________________________________________________________________
batch_normalization_773 (Bat (None, 4, 4, 256)         1024      
_________________________________________________________________
activation_1310 (Activation) (None, 4, 4, 256)         0         
_________________________________________________________________
dropout_1310 (Dropout)       (None, 4, 4, 256)         0         
_________________________________________________________________
flatten_103 (Flatten)        (None, 4096)              0         
_________________________________________________________________
dense_209 (Dense)            (None, 2048)              8390656   
_________________________________________________________________
batch_normalization_774 (Bat (None, 2048)              8192      
_________________________________________________________________
activation_1311 (Activation) (None, 2048)              0         
_________________________________________________________________
dropout_1311 (Dropout)       (None, 2048)              0         
_________________________________________________________________
dense_210 (Dense)            (None, 100)               204900    
=================================================================
Total params: 8,692,543
Trainable params: 8,686,143
Non-trainable params: 6,400
_________________________________________________________________
