Model: "sequential_112"
_________________________________________________________________
Layer (type)                 Output Shape              Param #   
=================================================================
separable_conv2d_1297 (Separ (None, 32, 32, 32)        155       
_________________________________________________________________
activation_1412 (Activation) (None, 32, 32, 32)        0         
_________________________________________________________________
dropout_1412 (Dropout)       (None, 32, 32, 32)        0         
_________________________________________________________________
separable_conv2d_1298 (Separ (None, 32, 32, 256)       8736      
_________________________________________________________________
batch_normalization_838 (Bat (None, 32, 32, 256)       1024      
_________________________________________________________________
activation_1413 (Activation) (None, 32, 32, 256)       0         
_________________________________________________________________
dropout_1413 (Dropout)       (None, 32, 32, 256)       0         
_________________________________________________________________
separable_conv2d_1299 (Separ (None, 32, 32, 8)         4360      
_________________________________________________________________
activation_1414 (Activation) (None, 32, 32, 8)         0         
_________________________________________________________________
dropout_1414 (Dropout)       (None, 32, 32, 8)         0         
_________________________________________________________________
separable_conv2d_1300 (Separ (None, 32, 32, 64)        648       
_________________________________________________________________
activation_1415 (Activation) (None, 32, 32, 64)        0         
_________________________________________________________________
dropout_1415 (Dropout)       (None, 32, 32, 64)        0         
_________________________________________________________________
max_pooling2d_325 (MaxPoolin (None, 16, 16, 64)        0         
_________________________________________________________________
separable_conv2d_1301 (Separ (None, 16, 16, 8)         1096      
_________________________________________________________________
activation_1416 (Activation) (None, 16, 16, 8)         0         
_________________________________________________________________
dropout_1416 (Dropout)       (None, 16, 16, 8)         0         
_________________________________________________________________
separable_conv2d_1302 (Separ (None, 16, 16, 128)       1224      
_________________________________________________________________
batch_normalization_839 (Bat (None, 16, 16, 128)       512       
_________________________________________________________________
activation_1417 (Activation) (None, 16, 16, 128)       0         
_________________________________________________________________
dropout_1417 (Dropout)       (None, 16, 16, 128)       0         
_________________________________________________________________
separable_conv2d_1303 (Separ (None, 16, 16, 64)        9408      
_________________________________________________________________
batch_normalization_840 (Bat (None, 16, 16, 64)        256       
_________________________________________________________________
activation_1418 (Activation) (None, 16, 16, 64)        0         
_________________________________________________________________
dropout_1418 (Dropout)       (None, 16, 16, 64)        0         
_________________________________________________________________
separable_conv2d_1304 (Separ (None, 16, 16, 512)       33856     
_________________________________________________________________
batch_normalization_841 (Bat (None, 16, 16, 512)       2048      
_________________________________________________________________
activation_1419 (Activation) (None, 16, 16, 512)       0         
_________________________________________________________________
dropout_1419 (Dropout)       (None, 16, 16, 512)       0         
_________________________________________________________________
max_pooling2d_326 (MaxPoolin (None, 8, 8, 512)         0         
_________________________________________________________________
separable_conv2d_1305 (Separ (None, 8, 8, 128)         70272     
_________________________________________________________________
activation_1420 (Activation) (None, 8, 8, 128)         0         
_________________________________________________________________
dropout_1420 (Dropout)       (None, 8, 8, 128)         0         
_________________________________________________________________
separable_conv2d_1306 (Separ (None, 8, 8, 32)          5280      
_________________________________________________________________
batch_normalization_842 (Bat (None, 8, 8, 32)          128       
_________________________________________________________________
activation_1421 (Activation) (None, 8, 8, 32)          0         
_________________________________________________________________
dropout_1421 (Dropout)       (None, 8, 8, 32)          0         
_________________________________________________________________
separable_conv2d_1307 (Separ (None, 8, 8, 256)         8736      
_________________________________________________________________
batch_normalization_843 (Bat (None, 8, 8, 256)         1024      
_________________________________________________________________
activation_1422 (Activation) (None, 8, 8, 256)         0         
_________________________________________________________________
dropout_1422 (Dropout)       (None, 8, 8, 256)         0         
_________________________________________________________________
max_pooling2d_327 (MaxPoolin (None, 4, 4, 256)         0         
_________________________________________________________________
flatten_112 (Flatten)        (None, 4096)              0         
_________________________________________________________________
dense_227 (Dense)            (None, 2048)              8390656   
_________________________________________________________________
batch_normalization_844 (Bat (None, 2048)              8192      
_________________________________________________________________
activation_1423 (Activation) (None, 2048)              0         
_________________________________________________________________
dropout_1423 (Dropout)       (None, 2048)              0         
_________________________________________________________________
dense_228 (Dense)            (None, 100)               204900    
=================================================================
Total params: 8,752,511
Trainable params: 8,745,919
Non-trainable params: 6,592
_________________________________________________________________
