Model: "sequential_263"
_________________________________________________________________
Layer (type)                 Output Shape              Param #   
=================================================================
separable_conv2d_2928 (Separ (None, 32, 32, 32)        155       
_________________________________________________________________
activation_3194 (Activation) (None, 32, 32, 32)        0         
_________________________________________________________________
dropout_3194 (Dropout)       (None, 32, 32, 32)        0         
_________________________________________________________________
separable_conv2d_2929 (Separ (None, 32, 32, 256)       8736      
_________________________________________________________________
batch_normalization_1869 (Ba (None, 32, 32, 256)       1024      
_________________________________________________________________
activation_3195 (Activation) (None, 32, 32, 256)       0         
_________________________________________________________________
dropout_3195 (Dropout)       (None, 32, 32, 256)       0         
_________________________________________________________________
separable_conv2d_2930 (Separ (None, 32, 32, 8)         4360      
_________________________________________________________________
activation_3196 (Activation) (None, 32, 32, 8)         0         
_________________________________________________________________
dropout_3196 (Dropout)       (None, 32, 32, 8)         0         
_________________________________________________________________
separable_conv2d_2931 (Separ (None, 32, 32, 64)        648       
_________________________________________________________________
activation_3197 (Activation) (None, 32, 32, 64)        0         
_________________________________________________________________
dropout_3197 (Dropout)       (None, 32, 32, 64)        0         
_________________________________________________________________
max_pooling2d_764 (MaxPoolin (None, 16, 16, 64)        0         
_________________________________________________________________
separable_conv2d_2932 (Separ (None, 16, 16, 16)        1616      
_________________________________________________________________
activation_3198 (Activation) (None, 16, 16, 16)        0         
_________________________________________________________________
dropout_3198 (Dropout)       (None, 16, 16, 16)        0         
_________________________________________________________________
separable_conv2d_2933 (Separ (None, 16, 16, 128)       2320      
_________________________________________________________________
batch_normalization_1870 (Ba (None, 16, 16, 128)       512       
_________________________________________________________________
activation_3199 (Activation) (None, 16, 16, 128)       0         
_________________________________________________________________
dropout_3199 (Dropout)       (None, 16, 16, 128)       0         
_________________________________________________________________
separable_conv2d_2934 (Separ (None, 16, 16, 64)        9408      
_________________________________________________________________
batch_normalization_1871 (Ba (None, 16, 16, 64)        256       
_________________________________________________________________
activation_3200 (Activation) (None, 16, 16, 64)        0         
_________________________________________________________________
dropout_3200 (Dropout)       (None, 16, 16, 64)        0         
_________________________________________________________________
separable_conv2d_2935 (Separ (None, 16, 16, 512)       33856     
_________________________________________________________________
batch_normalization_1872 (Ba (None, 16, 16, 512)       2048      
_________________________________________________________________
activation_3201 (Activation) (None, 16, 16, 512)       0         
_________________________________________________________________
dropout_3201 (Dropout)       (None, 16, 16, 512)       0         
_________________________________________________________________
max_pooling2d_765 (MaxPoolin (None, 8, 8, 512)         0         
_________________________________________________________________
separable_conv2d_2936 (Separ (None, 8, 8, 128)         70272     
_________________________________________________________________
activation_3202 (Activation) (None, 8, 8, 128)         0         
_________________________________________________________________
dropout_3202 (Dropout)       (None, 8, 8, 128)         0         
_________________________________________________________________
separable_conv2d_2937 (Separ (None, 8, 8, 32)          5280      
_________________________________________________________________
batch_normalization_1873 (Ba (None, 8, 8, 32)          128       
_________________________________________________________________
activation_3203 (Activation) (None, 8, 8, 32)          0         
_________________________________________________________________
dropout_3203 (Dropout)       (None, 8, 8, 32)          0         
_________________________________________________________________
separable_conv2d_2938 (Separ (None, 8, 8, 256)         8736      
_________________________________________________________________
batch_normalization_1874 (Ba (None, 8, 8, 256)         1024      
_________________________________________________________________
activation_3204 (Activation) (None, 8, 8, 256)         0         
_________________________________________________________________
dropout_3204 (Dropout)       (None, 8, 8, 256)         0         
_________________________________________________________________
max_pooling2d_766 (MaxPoolin (None, 4, 4, 256)         0         
_________________________________________________________________
flatten_263 (Flatten)        (None, 4096)              0         
_________________________________________________________________
dense_529 (Dense)            (None, 2048)              8390656   
_________________________________________________________________
batch_normalization_1875 (Ba (None, 2048)              8192      
_________________________________________________________________
activation_3205 (Activation) (None, 2048)              0         
_________________________________________________________________
dropout_3205 (Dropout)       (None, 2048)              0         
_________________________________________________________________
dense_530 (Dense)            (None, 100)               204900    
=================================================================
Total params: 8,754,127
Trainable params: 8,747,535
Non-trainable params: 6,592
_________________________________________________________________
