Model: "sequential_241"
_________________________________________________________________
Layer (type)                 Output Shape              Param #   
=================================================================
separable_conv2d_2700 (Separ (None, 32, 32, 32)        155       
_________________________________________________________________
activation_2944 (Activation) (None, 32, 32, 32)        0         
_________________________________________________________________
dropout_2944 (Dropout)       (None, 32, 32, 32)        0         
_________________________________________________________________
separable_conv2d_2701 (Separ (None, 32, 32, 256)       8736      
_________________________________________________________________
batch_normalization_1725 (Ba (None, 32, 32, 256)       1024      
_________________________________________________________________
activation_2945 (Activation) (None, 32, 32, 256)       0         
_________________________________________________________________
dropout_2945 (Dropout)       (None, 32, 32, 256)       0         
_________________________________________________________________
separable_conv2d_2702 (Separ (None, 32, 32, 8)         4360      
_________________________________________________________________
activation_2946 (Activation) (None, 32, 32, 8)         0         
_________________________________________________________________
dropout_2946 (Dropout)       (None, 32, 32, 8)         0         
_________________________________________________________________
separable_conv2d_2703 (Separ (None, 32, 32, 64)        648       
_________________________________________________________________
activation_2947 (Activation) (None, 32, 32, 64)        0         
_________________________________________________________________
dropout_2947 (Dropout)       (None, 32, 32, 64)        0         
_________________________________________________________________
max_pooling2d_705 (MaxPoolin (None, 16, 16, 64)        0         
_________________________________________________________________
separable_conv2d_2704 (Separ (None, 16, 16, 16)        1616      
_________________________________________________________________
activation_2948 (Activation) (None, 16, 16, 16)        0         
_________________________________________________________________
dropout_2948 (Dropout)       (None, 16, 16, 16)        0         
_________________________________________________________________
separable_conv2d_2705 (Separ (None, 16, 16, 256)       4496      
_________________________________________________________________
batch_normalization_1726 (Ba (None, 16, 16, 256)       1024      
_________________________________________________________________
activation_2949 (Activation) (None, 16, 16, 256)       0         
_________________________________________________________________
dropout_2949 (Dropout)       (None, 16, 16, 256)       0         
_________________________________________________________________
separable_conv2d_2706 (Separ (None, 16, 16, 64)        18752     
_________________________________________________________________
batch_normalization_1727 (Ba (None, 16, 16, 64)        256       
_________________________________________________________________
activation_2950 (Activation) (None, 16, 16, 64)        0         
_________________________________________________________________
dropout_2950 (Dropout)       (None, 16, 16, 64)        0         
_________________________________________________________________
separable_conv2d_2707 (Separ (None, 16, 16, 512)       33856     
_________________________________________________________________
batch_normalization_1728 (Ba (None, 16, 16, 512)       2048      
_________________________________________________________________
activation_2951 (Activation) (None, 16, 16, 512)       0         
_________________________________________________________________
dropout_2951 (Dropout)       (None, 16, 16, 512)       0         
_________________________________________________________________
max_pooling2d_706 (MaxPoolin (None, 8, 8, 512)         0         
_________________________________________________________________
separable_conv2d_2708 (Separ (None, 8, 8, 128)         70272     
_________________________________________________________________
activation_2952 (Activation) (None, 8, 8, 128)         0         
_________________________________________________________________
dropout_2952 (Dropout)       (None, 8, 8, 128)         0         
_________________________________________________________________
separable_conv2d_2709 (Separ (None, 8, 8, 32)          5280      
_________________________________________________________________
activation_2953 (Activation) (None, 8, 8, 32)          0         
_________________________________________________________________
dropout_2953 (Dropout)       (None, 8, 8, 32)          0         
_________________________________________________________________
separable_conv2d_2710 (Separ (None, 8, 8, 256)         8736      
_________________________________________________________________
batch_normalization_1729 (Ba (None, 8, 8, 256)         1024      
_________________________________________________________________
activation_2954 (Activation) (None, 8, 8, 256)         0         
_________________________________________________________________
dropout_2954 (Dropout)       (None, 8, 8, 256)         0         
_________________________________________________________________
max_pooling2d_707 (MaxPoolin (None, 4, 4, 256)         0         
_________________________________________________________________
flatten_241 (Flatten)        (None, 4096)              0         
_________________________________________________________________
dense_485 (Dense)            (None, 2048)              8390656   
_________________________________________________________________
batch_normalization_1730 (Ba (None, 2048)              8192      
_________________________________________________________________
activation_2955 (Activation) (None, 2048)              0         
_________________________________________________________________
dropout_2955 (Dropout)       (None, 2048)              0         
_________________________________________________________________
dense_486 (Dense)            (None, 100)               204900    
=================================================================
Total params: 8,766,031
Trainable params: 8,759,247
Non-trainable params: 6,784
_________________________________________________________________
