Model: "sequential_122"
_________________________________________________________________
Layer (type)                 Output Shape              Param #   
=================================================================
separable_conv2d_1409 (Separ (None, 32, 32, 32)        155       
_________________________________________________________________
activation_1534 (Activation) (None, 32, 32, 32)        0         
_________________________________________________________________
dropout_1534 (Dropout)       (None, 32, 32, 32)        0         
_________________________________________________________________
separable_conv2d_1410 (Separ (None, 32, 32, 256)       8736      
_________________________________________________________________
batch_normalization_915 (Bat (None, 32, 32, 256)       1024      
_________________________________________________________________
activation_1535 (Activation) (None, 32, 32, 256)       0         
_________________________________________________________________
dropout_1535 (Dropout)       (None, 32, 32, 256)       0         
_________________________________________________________________
separable_conv2d_1411 (Separ (None, 32, 32, 8)         4360      
_________________________________________________________________
activation_1536 (Activation) (None, 32, 32, 8)         0         
_________________________________________________________________
dropout_1536 (Dropout)       (None, 32, 32, 8)         0         
_________________________________________________________________
separable_conv2d_1412 (Separ (None, 32, 32, 64)        648       
_________________________________________________________________
activation_1537 (Activation) (None, 32, 32, 64)        0         
_________________________________________________________________
dropout_1537 (Dropout)       (None, 32, 32, 64)        0         
_________________________________________________________________
max_pooling2d_355 (MaxPoolin (None, 16, 16, 64)        0         
_________________________________________________________________
separable_conv2d_1413 (Separ (None, 16, 16, 8)         1096      
_________________________________________________________________
activation_1538 (Activation) (None, 16, 16, 8)         0         
_________________________________________________________________
dropout_1538 (Dropout)       (None, 16, 16, 8)         0         
_________________________________________________________________
separable_conv2d_1414 (Separ (None, 16, 16, 128)       1224      
_________________________________________________________________
batch_normalization_916 (Bat (None, 16, 16, 128)       512       
_________________________________________________________________
activation_1539 (Activation) (None, 16, 16, 128)       0         
_________________________________________________________________
dropout_1539 (Dropout)       (None, 16, 16, 128)       0         
_________________________________________________________________
separable_conv2d_1415 (Separ (None, 16, 16, 64)        9408      
_________________________________________________________________
batch_normalization_917 (Bat (None, 16, 16, 64)        256       
_________________________________________________________________
activation_1540 (Activation) (None, 16, 16, 64)        0         
_________________________________________________________________
dropout_1540 (Dropout)       (None, 16, 16, 64)        0         
_________________________________________________________________
separable_conv2d_1416 (Separ (None, 16, 16, 512)       33856     
_________________________________________________________________
batch_normalization_918 (Bat (None, 16, 16, 512)       2048      
_________________________________________________________________
activation_1541 (Activation) (None, 16, 16, 512)       0         
_________________________________________________________________
dropout_1541 (Dropout)       (None, 16, 16, 512)       0         
_________________________________________________________________
max_pooling2d_356 (MaxPoolin (None, 8, 8, 512)         0         
_________________________________________________________________
separable_conv2d_1417 (Separ (None, 8, 8, 128)         70272     
_________________________________________________________________
activation_1542 (Activation) (None, 8, 8, 128)         0         
_________________________________________________________________
dropout_1542 (Dropout)       (None, 8, 8, 128)         0         
_________________________________________________________________
separable_conv2d_1418 (Separ (None, 8, 8, 32)          5280      
_________________________________________________________________
batch_normalization_919 (Bat (None, 8, 8, 32)          128       
_________________________________________________________________
activation_1543 (Activation) (None, 8, 8, 32)          0         
_________________________________________________________________
dropout_1543 (Dropout)       (None, 8, 8, 32)          0         
_________________________________________________________________
separable_conv2d_1419 (Separ (None, 8, 8, 512)         17184     
_________________________________________________________________
batch_normalization_920 (Bat (None, 8, 8, 512)         2048      
_________________________________________________________________
activation_1544 (Activation) (None, 8, 8, 512)         0         
_________________________________________________________________
dropout_1544 (Dropout)       (None, 8, 8, 512)         0         
_________________________________________________________________
max_pooling2d_357 (MaxPoolin (None, 4, 4, 512)         0         
_________________________________________________________________
flatten_122 (Flatten)        (None, 8192)              0         
_________________________________________________________________
dense_247 (Dense)            (None, 2048)              16779264  
_________________________________________________________________
batch_normalization_921 (Bat (None, 2048)              8192      
_________________________________________________________________
activation_1545 (Activation) (None, 2048)              0         
_________________________________________________________________
dropout_1545 (Dropout)       (None, 2048)              0         
_________________________________________________________________
dense_248 (Dense)            (None, 100)               204900    
=================================================================
Total params: 17,150,591
Trainable params: 17,143,487
Non-trainable params: 7,104
_________________________________________________________________
