Model: "sequential_185"
_________________________________________________________________
Layer (type)                 Output Shape              Param #   
=================================================================
separable_conv2d_2100 (Separ (None, 32, 32, 32)        155       
_________________________________________________________________
activation_2288 (Activation) (None, 32, 32, 32)        0         
_________________________________________________________________
dropout_2288 (Dropout)       (None, 32, 32, 32)        0         
_________________________________________________________________
separable_conv2d_2101 (Separ (None, 32, 32, 256)       8736      
_________________________________________________________________
batch_normalization_1356 (Ba (None, 32, 32, 256)       1024      
_________________________________________________________________
activation_2289 (Activation) (None, 32, 32, 256)       0         
_________________________________________________________________
dropout_2289 (Dropout)       (None, 32, 32, 256)       0         
_________________________________________________________________
separable_conv2d_2102 (Separ (None, 32, 32, 1024)      265472    
_________________________________________________________________
activation_2290 (Activation) (None, 32, 32, 1024)      0         
_________________________________________________________________
dropout_2290 (Dropout)       (None, 32, 32, 1024)      0         
_________________________________________________________________
separable_conv2d_2103 (Separ (None, 32, 32, 64)        74816     
_________________________________________________________________
activation_2291 (Activation) (None, 32, 32, 64)        0         
_________________________________________________________________
dropout_2291 (Dropout)       (None, 32, 32, 64)        0         
_________________________________________________________________
max_pooling2d_543 (MaxPoolin (None, 16, 16, 64)        0         
_________________________________________________________________
separable_conv2d_2104 (Separ (None, 16, 16, 128)       8896      
_________________________________________________________________
batch_normalization_1357 (Ba (None, 16, 16, 128)       512       
_________________________________________________________________
activation_2292 (Activation) (None, 16, 16, 128)       0         
_________________________________________________________________
dropout_2292 (Dropout)       (None, 16, 16, 128)       0         
_________________________________________________________________
separable_conv2d_2105 (Separ (None, 16, 16, 64)        9408      
_________________________________________________________________
batch_normalization_1358 (Ba (None, 16, 16, 64)        256       
_________________________________________________________________
activation_2293 (Activation) (None, 16, 16, 64)        0         
_________________________________________________________________
dropout_2293 (Dropout)       (None, 16, 16, 64)        0         
_________________________________________________________________
separable_conv2d_2106 (Separ (None, 16, 16, 512)       33856     
_________________________________________________________________
batch_normalization_1359 (Ba (None, 16, 16, 512)       2048      
_________________________________________________________________
activation_2294 (Activation) (None, 16, 16, 512)       0         
_________________________________________________________________
dropout_2294 (Dropout)       (None, 16, 16, 512)       0         
_________________________________________________________________
max_pooling2d_544 (MaxPoolin (None, 8, 8, 512)         0         
_________________________________________________________________
separable_conv2d_2107 (Separ (None, 8, 8, 32)          21024     
_________________________________________________________________
batch_normalization_1360 (Ba (None, 8, 8, 32)          128       
_________________________________________________________________
activation_2295 (Activation) (None, 8, 8, 32)          0         
_________________________________________________________________
dropout_2295 (Dropout)       (None, 8, 8, 32)          0         
_________________________________________________________________
max_pooling2d_545 (MaxPoolin (None, 4, 4, 32)          0         
_________________________________________________________________
separable_conv2d_2108 (Separ (None, 4, 4, 128)         4512      
_________________________________________________________________
activation_2296 (Activation) (None, 4, 4, 128)         0         
_________________________________________________________________
dropout_2296 (Dropout)       (None, 4, 4, 128)         0         
_________________________________________________________________
separable_conv2d_2109 (Separ (None, 4, 4, 32)          5280      
_________________________________________________________________
batch_normalization_1361 (Ba (None, 4, 4, 32)          128       
_________________________________________________________________
activation_2297 (Activation) (None, 4, 4, 32)          0         
_________________________________________________________________
dropout_2297 (Dropout)       (None, 4, 4, 32)          0         
_________________________________________________________________
separable_conv2d_2110 (Separ (None, 4, 4, 256)         8736      
_________________________________________________________________
batch_normalization_1362 (Ba (None, 4, 4, 256)         1024      
_________________________________________________________________
activation_2298 (Activation) (None, 4, 4, 256)         0         
_________________________________________________________________
dropout_2298 (Dropout)       (None, 4, 4, 256)         0         
_________________________________________________________________
flatten_185 (Flatten)        (None, 4096)              0         
_________________________________________________________________
dense_373 (Dense)            (None, 2048)              8390656   
_________________________________________________________________
batch_normalization_1363 (Ba (None, 2048)              8192      
_________________________________________________________________
activation_2299 (Activation) (None, 2048)              0         
_________________________________________________________________
dropout_2299 (Dropout)       (None, 2048)              0         
_________________________________________________________________
dense_374 (Dense)            (None, 100)               204900    
=================================================================
Total params: 9,049,759
Trainable params: 9,043,103
Non-trainable params: 6,656
_________________________________________________________________
