Model: "sequential_385"
_________________________________________________________________
Layer (type)                 Output Shape              Param #   
=================================================================
separable_conv2d_4096 (Separ (None, 32, 32, 128)       539       
_________________________________________________________________
activation_4484 (Activation) (None, 32, 32, 128)       0         
_________________________________________________________________
dropout_4484 (Dropout)       (None, 32, 32, 128)       0         
_________________________________________________________________
separable_conv2d_4097 (Separ (None, 32, 32, 256)       34176     
_________________________________________________________________
batch_normalization_2552 (Ba (None, 32, 32, 256)       1024      
_________________________________________________________________
activation_4485 (Activation) (None, 32, 32, 256)       0         
_________________________________________________________________
dropout_4485 (Dropout)       (None, 32, 32, 256)       0         
_________________________________________________________________
separable_conv2d_4098 (Separ (None, 32, 32, 8)         4360      
_________________________________________________________________
activation_4486 (Activation) (None, 32, 32, 8)         0         
_________________________________________________________________
dropout_4486 (Dropout)       (None, 32, 32, 8)         0         
_________________________________________________________________
separable_conv2d_4099 (Separ (None, 32, 32, 64)        648       
_________________________________________________________________
activation_4487 (Activation) (None, 32, 32, 64)        0         
_________________________________________________________________
dropout_4487 (Dropout)       (None, 32, 32, 64)        0         
_________________________________________________________________
max_pooling2d_1055 (MaxPooli (None, 16, 16, 64)        0         
_________________________________________________________________
separable_conv2d_4100 (Separ (None, 16, 16, 16)        1616      
_________________________________________________________________
activation_4488 (Activation) (None, 16, 16, 16)        0         
_________________________________________________________________
dropout_4488 (Dropout)       (None, 16, 16, 16)        0         
_________________________________________________________________
separable_conv2d_4101 (Separ (None, 16, 16, 128)       2320      
_________________________________________________________________
batch_normalization_2553 (Ba (None, 16, 16, 128)       512       
_________________________________________________________________
activation_4489 (Activation) (None, 16, 16, 128)       0         
_________________________________________________________________
dropout_4489 (Dropout)       (None, 16, 16, 128)       0         
_________________________________________________________________
separable_conv2d_4102 (Separ (None, 16, 16, 64)        9408      
_________________________________________________________________
batch_normalization_2554 (Ba (None, 16, 16, 64)        256       
_________________________________________________________________
activation_4490 (Activation) (None, 16, 16, 64)        0         
_________________________________________________________________
dropout_4490 (Dropout)       (None, 16, 16, 64)        0         
_________________________________________________________________
separable_conv2d_4103 (Separ (None, 16, 16, 32)        2656      
_________________________________________________________________
activation_4491 (Activation) (None, 16, 16, 32)        0         
_________________________________________________________________
dropout_4491 (Dropout)       (None, 16, 16, 32)        0         
_________________________________________________________________
separable_conv2d_4104 (Separ (None, 16, 16, 256)       8736      
_________________________________________________________________
batch_normalization_2555 (Ba (None, 16, 16, 256)       1024      
_________________________________________________________________
activation_4492 (Activation) (None, 16, 16, 256)       0         
_________________________________________________________________
dropout_4492 (Dropout)       (None, 16, 16, 256)       0         
_________________________________________________________________
max_pooling2d_1056 (MaxPooli (None, 8, 8, 256)         0         
_________________________________________________________________
flatten_385 (Flatten)        (None, 16384)             0         
_________________________________________________________________
dense_773 (Dense)            (None, 2048)              33556480  
_________________________________________________________________
batch_normalization_2556 (Ba (None, 2048)              8192      
_________________________________________________________________
activation_4493 (Activation) (None, 2048)              0         
_________________________________________________________________
dropout_4493 (Dropout)       (None, 2048)              0         
_________________________________________________________________
dense_774 (Dense)            (None, 100)               204900    
=================================================================
Total params: 33,836,847
Trainable params: 33,831,343
Non-trainable params: 5,504
_________________________________________________________________
