Model: "sequential_358"
_________________________________________________________________
Layer (type)                 Output Shape              Param #   
=================================================================
separable_conv2d_3852 (Separ (None, 32, 32, 32)        155       
_________________________________________________________________
activation_4213 (Activation) (None, 32, 32, 32)        0         
_________________________________________________________________
dropout_4213 (Dropout)       (None, 32, 32, 32)        0         
_________________________________________________________________
separable_conv2d_3853 (Separ (None, 32, 32, 256)       8736      
_________________________________________________________________
batch_normalization_2415 (Ba (None, 32, 32, 256)       1024      
_________________________________________________________________
activation_4214 (Activation) (None, 32, 32, 256)       0         
_________________________________________________________________
dropout_4214 (Dropout)       (None, 32, 32, 256)       0         
_________________________________________________________________
separable_conv2d_3854 (Separ (None, 32, 32, 8)         4360      
_________________________________________________________________
activation_4215 (Activation) (None, 32, 32, 8)         0         
_________________________________________________________________
dropout_4215 (Dropout)       (None, 32, 32, 8)         0         
_________________________________________________________________
separable_conv2d_3855 (Separ (None, 32, 32, 64)        648       
_________________________________________________________________
activation_4216 (Activation) (None, 32, 32, 64)        0         
_________________________________________________________________
dropout_4216 (Dropout)       (None, 32, 32, 64)        0         
_________________________________________________________________
max_pooling2d_996 (MaxPoolin (None, 16, 16, 64)        0         
_________________________________________________________________
separable_conv2d_3856 (Separ (None, 16, 16, 16)        1616      
_________________________________________________________________
activation_4217 (Activation) (None, 16, 16, 16)        0         
_________________________________________________________________
dropout_4217 (Dropout)       (None, 16, 16, 16)        0         
_________________________________________________________________
separable_conv2d_3857 (Separ (None, 16, 16, 128)       2320      
_________________________________________________________________
batch_normalization_2416 (Ba (None, 16, 16, 128)       512       
_________________________________________________________________
activation_4218 (Activation) (None, 16, 16, 128)       0         
_________________________________________________________________
dropout_4218 (Dropout)       (None, 16, 16, 128)       0         
_________________________________________________________________
separable_conv2d_3858 (Separ (None, 16, 16, 64)        9408      
_________________________________________________________________
batch_normalization_2417 (Ba (None, 16, 16, 64)        256       
_________________________________________________________________
activation_4219 (Activation) (None, 16, 16, 64)        0         
_________________________________________________________________
dropout_4219 (Dropout)       (None, 16, 16, 64)        0         
_________________________________________________________________
separable_conv2d_3859 (Separ (None, 16, 16, 32)        2656      
_________________________________________________________________
activation_4220 (Activation) (None, 16, 16, 32)        0         
_________________________________________________________________
dropout_4220 (Dropout)       (None, 16, 16, 32)        0         
_________________________________________________________________
separable_conv2d_3860 (Separ (None, 16, 16, 512)       17184     
_________________________________________________________________
batch_normalization_2418 (Ba (None, 16, 16, 512)       2048      
_________________________________________________________________
activation_4221 (Activation) (None, 16, 16, 512)       0         
_________________________________________________________________
dropout_4221 (Dropout)       (None, 16, 16, 512)       0         
_________________________________________________________________
max_pooling2d_997 (MaxPoolin (None, 8, 8, 512)         0         
_________________________________________________________________
flatten_358 (Flatten)        (None, 32768)             0         
_________________________________________________________________
dense_719 (Dense)            (None, 2048)              67110912  
_________________________________________________________________
batch_normalization_2419 (Ba (None, 2048)              8192      
_________________________________________________________________
activation_4222 (Activation) (None, 2048)              0         
_________________________________________________________________
dropout_4222 (Dropout)       (None, 2048)              0         
_________________________________________________________________
dense_720 (Dense)            (None, 100)               204900    
=================================================================
Total params: 67,374,927
Trainable params: 67,368,911
Non-trainable params: 6,016
_________________________________________________________________
