Model: "sequential_317"
_________________________________________________________________
Layer (type)                 Output Shape              Param #   
=================================================================
separable_conv2d_3465 (Separ (None, 32, 32, 32)        155       
_________________________________________________________________
activation_3785 (Activation) (None, 32, 32, 32)        0         
_________________________________________________________________
dropout_3785 (Dropout)       (None, 32, 32, 32)        0         
_________________________________________________________________
separable_conv2d_3466 (Separ (None, 32, 32, 256)       8736      
_________________________________________________________________
batch_normalization_2194 (Ba (None, 32, 32, 256)       1024      
_________________________________________________________________
activation_3786 (Activation) (None, 32, 32, 256)       0         
_________________________________________________________________
dropout_3786 (Dropout)       (None, 32, 32, 256)       0         
_________________________________________________________________
separable_conv2d_3467 (Separ (None, 32, 32, 8)         4360      
_________________________________________________________________
activation_3787 (Activation) (None, 32, 32, 8)         0         
_________________________________________________________________
dropout_3787 (Dropout)       (None, 32, 32, 8)         0         
_________________________________________________________________
separable_conv2d_3468 (Separ (None, 32, 32, 64)        648       
_________________________________________________________________
activation_3788 (Activation) (None, 32, 32, 64)        0         
_________________________________________________________________
dropout_3788 (Dropout)       (None, 32, 32, 64)        0         
_________________________________________________________________
max_pooling2d_901 (MaxPoolin (None, 16, 16, 64)        0         
_________________________________________________________________
separable_conv2d_3469 (Separ (None, 16, 16, 256)       17216     
_________________________________________________________________
batch_normalization_2195 (Ba (None, 16, 16, 256)       1024      
_________________________________________________________________
activation_3789 (Activation) (None, 16, 16, 256)       0         
_________________________________________________________________
dropout_3789 (Dropout)       (None, 16, 16, 256)       0         
_________________________________________________________________
separable_conv2d_3470 (Separ (None, 16, 16, 64)        18752     
_________________________________________________________________
batch_normalization_2196 (Ba (None, 16, 16, 64)        256       
_________________________________________________________________
activation_3790 (Activation) (None, 16, 16, 64)        0         
_________________________________________________________________
dropout_3790 (Dropout)       (None, 16, 16, 64)        0         
_________________________________________________________________
separable_conv2d_3471 (Separ (None, 16, 16, 64)        4736      
_________________________________________________________________
batch_normalization_2197 (Ba (None, 16, 16, 64)        256       
_________________________________________________________________
activation_3791 (Activation) (None, 16, 16, 64)        0         
_________________________________________________________________
dropout_3791 (Dropout)       (None, 16, 16, 64)        0         
_________________________________________________________________
separable_conv2d_3472 (Separ (None, 16, 16, 512)       33856     
_________________________________________________________________
batch_normalization_2198 (Ba (None, 16, 16, 512)       2048      
_________________________________________________________________
activation_3792 (Activation) (None, 16, 16, 512)       0         
_________________________________________________________________
dropout_3792 (Dropout)       (None, 16, 16, 512)       0         
_________________________________________________________________
max_pooling2d_902 (MaxPoolin (None, 8, 8, 512)         0         
_________________________________________________________________
flatten_317 (Flatten)        (None, 32768)             0         
_________________________________________________________________
dense_637 (Dense)            (None, 2048)              67110912  
_________________________________________________________________
batch_normalization_2199 (Ba (None, 2048)              8192      
_________________________________________________________________
activation_3793 (Activation) (None, 2048)              0         
_________________________________________________________________
dropout_3793 (Dropout)       (None, 2048)              0         
_________________________________________________________________
dense_638 (Dense)            (None, 100)               204900    
=================================================================
Total params: 67,417,071
Trainable params: 67,410,671
Non-trainable params: 6,400
_________________________________________________________________
