Model: "sequential_325"
_________________________________________________________________
Layer (type)                 Output Shape              Param #   
=================================================================
separable_conv2d_3542 (Separ (None, 32, 32, 32)        155       
_________________________________________________________________
activation_3870 (Activation) (None, 32, 32, 32)        0         
_________________________________________________________________
dropout_3870 (Dropout)       (None, 32, 32, 32)        0         
_________________________________________________________________
separable_conv2d_3543 (Separ (None, 32, 32, 256)       8736      
_________________________________________________________________
batch_normalization_2240 (Ba (None, 32, 32, 256)       1024      
_________________________________________________________________
activation_3871 (Activation) (None, 32, 32, 256)       0         
_________________________________________________________________
dropout_3871 (Dropout)       (None, 32, 32, 256)       0         
_________________________________________________________________
separable_conv2d_3544 (Separ (None, 32, 32, 8)         4360      
_________________________________________________________________
activation_3872 (Activation) (None, 32, 32, 8)         0         
_________________________________________________________________
dropout_3872 (Dropout)       (None, 32, 32, 8)         0         
_________________________________________________________________
separable_conv2d_3545 (Separ (None, 32, 32, 64)        648       
_________________________________________________________________
activation_3873 (Activation) (None, 32, 32, 64)        0         
_________________________________________________________________
dropout_3873 (Dropout)       (None, 32, 32, 64)        0         
_________________________________________________________________
max_pooling2d_919 (MaxPoolin (None, 16, 16, 64)        0         
_________________________________________________________________
separable_conv2d_3546 (Separ (None, 16, 16, 16)        1616      
_________________________________________________________________
activation_3874 (Activation) (None, 16, 16, 16)        0         
_________________________________________________________________
dropout_3874 (Dropout)       (None, 16, 16, 16)        0         
_________________________________________________________________
separable_conv2d_3547 (Separ (None, 16, 16, 128)       2320      
_________________________________________________________________
batch_normalization_2241 (Ba (None, 16, 16, 128)       512       
_________________________________________________________________
activation_3875 (Activation) (None, 16, 16, 128)       0         
_________________________________________________________________
dropout_3875 (Dropout)       (None, 16, 16, 128)       0         
_________________________________________________________________
separable_conv2d_3548 (Separ (None, 16, 16, 256)       34176     
_________________________________________________________________
batch_normalization_2242 (Ba (None, 16, 16, 256)       1024      
_________________________________________________________________
activation_3876 (Activation) (None, 16, 16, 256)       0         
_________________________________________________________________
dropout_3876 (Dropout)       (None, 16, 16, 256)       0         
_________________________________________________________________
separable_conv2d_3549 (Separ (None, 16, 16, 128)       35200     
_________________________________________________________________
activation_3877 (Activation) (None, 16, 16, 128)       0         
_________________________________________________________________
dropout_3877 (Dropout)       (None, 16, 16, 128)       0         
_________________________________________________________________
separable_conv2d_3550 (Separ (None, 16, 16, 32)        5280      
_________________________________________________________________
activation_3878 (Activation) (None, 16, 16, 32)        0         
_________________________________________________________________
dropout_3878 (Dropout)       (None, 16, 16, 32)        0         
_________________________________________________________________
separable_conv2d_3551 (Separ (None, 16, 16, 256)       8736      
_________________________________________________________________
batch_normalization_2243 (Ba (None, 16, 16, 256)       1024      
_________________________________________________________________
activation_3879 (Activation) (None, 16, 16, 256)       0         
_________________________________________________________________
dropout_3879 (Dropout)       (None, 16, 16, 256)       0         
_________________________________________________________________
max_pooling2d_920 (MaxPoolin (None, 8, 8, 256)         0         
_________________________________________________________________
flatten_325 (Flatten)        (None, 16384)             0         
_________________________________________________________________
dense_653 (Dense)            (None, 2048)              33556480  
_________________________________________________________________
batch_normalization_2244 (Ba (None, 2048)              8192      
_________________________________________________________________
activation_3880 (Activation) (None, 2048)              0         
_________________________________________________________________
dropout_3880 (Dropout)       (None, 2048)              0         
_________________________________________________________________
dense_654 (Dense)            (None, 100)               204900    
=================================================================
Total params: 33,874,383
Trainable params: 33,868,495
Non-trainable params: 5,888
_________________________________________________________________
