Model: "sequential_24"
_________________________________________________________________
Layer (type)                 Output Shape              Param #   
=================================================================
separable_conv2d_270 (Separa (None, 32, 32, 32)        155       
_________________________________________________________________
activation_297 (Activation)  (None, 32, 32, 32)        0         
_________________________________________________________________
dropout_297 (Dropout)        (None, 32, 32, 32)        0         
_________________________________________________________________
separable_conv2d_271 (Separa (None, 32, 32, 128)       4512      
_________________________________________________________________
batch_normalization_157 (Bat (None, 32, 32, 128)       512       
_________________________________________________________________
activation_298 (Activation)  (None, 32, 32, 128)       0         
_________________________________________________________________
dropout_298 (Dropout)        (None, 32, 32, 128)       0         
_________________________________________________________________
separable_conv2d_272 (Separa (None, 32, 32, 8)         2184      
_________________________________________________________________
activation_299 (Activation)  (None, 32, 32, 8)         0         
_________________________________________________________________
dropout_299 (Dropout)        (None, 32, 32, 8)         0         
_________________________________________________________________
separable_conv2d_273 (Separa (None, 32, 32, 64)        648       
_________________________________________________________________
activation_300 (Activation)  (None, 32, 32, 64)        0         
_________________________________________________________________
dropout_300 (Dropout)        (None, 32, 32, 64)        0         
_________________________________________________________________
max_pooling2d_61 (MaxPooling (None, 16, 16, 64)        0         
_________________________________________________________________
separable_conv2d_274 (Separa (None, 16, 16, 8)         1096      
_________________________________________________________________
activation_301 (Activation)  (None, 16, 16, 8)         0         
_________________________________________________________________
dropout_301 (Dropout)        (None, 16, 16, 8)         0         
_________________________________________________________________
separable_conv2d_275 (Separa (None, 16, 16, 128)       1224      
_________________________________________________________________
batch_normalization_158 (Bat (None, 16, 16, 128)       512       
_________________________________________________________________
activation_302 (Activation)  (None, 16, 16, 128)       0         
_________________________________________________________________
dropout_302 (Dropout)        (None, 16, 16, 128)       0         
_________________________________________________________________
separable_conv2d_276 (Separa (None, 16, 16, 64)        9408      
_________________________________________________________________
batch_normalization_159 (Bat (None, 16, 16, 64)        256       
_________________________________________________________________
activation_303 (Activation)  (None, 16, 16, 64)        0         
_________________________________________________________________
dropout_303 (Dropout)        (None, 16, 16, 64)        0         
_________________________________________________________________
separable_conv2d_277 (Separa (None, 16, 16, 512)       33856     
_________________________________________________________________
batch_normalization_160 (Bat (None, 16, 16, 512)       2048      
_________________________________________________________________
activation_304 (Activation)  (None, 16, 16, 512)       0         
_________________________________________________________________
dropout_304 (Dropout)        (None, 16, 16, 512)       0         
_________________________________________________________________
max_pooling2d_62 (MaxPooling (None, 8, 8, 512)         0         
_________________________________________________________________
separable_conv2d_278 (Separa (None, 8, 8, 32)          21024     
_________________________________________________________________
batch_normalization_161 (Bat (None, 8, 8, 32)          128       
_________________________________________________________________
activation_305 (Activation)  (None, 8, 8, 32)          0         
_________________________________________________________________
dropout_305 (Dropout)        (None, 8, 8, 32)          0         
_________________________________________________________________
max_pooling2d_63 (MaxPooling (None, 4, 4, 32)          0         
_________________________________________________________________
separable_conv2d_279 (Separa (None, 4, 4, 128)         4512      
_________________________________________________________________
activation_306 (Activation)  (None, 4, 4, 128)         0         
_________________________________________________________________
dropout_306 (Dropout)        (None, 4, 4, 128)         0         
_________________________________________________________________
separable_conv2d_280 (Separa (None, 4, 4, 32)          5280      
_________________________________________________________________
batch_normalization_162 (Bat (None, 4, 4, 32)          128       
_________________________________________________________________
activation_307 (Activation)  (None, 4, 4, 32)          0         
_________________________________________________________________
dropout_307 (Dropout)        (None, 4, 4, 32)          0         
_________________________________________________________________
separable_conv2d_281 (Separa (None, 4, 4, 256)         8736      
_________________________________________________________________
batch_normalization_163 (Bat (None, 4, 4, 256)         1024      
_________________________________________________________________
activation_308 (Activation)  (None, 4, 4, 256)         0         
_________________________________________________________________
dropout_308 (Dropout)        (None, 4, 4, 256)         0         
_________________________________________________________________
flatten_24 (Flatten)         (None, 4096)              0         
_________________________________________________________________
dense_51 (Dense)             (None, 2048)              8390656   
_________________________________________________________________
batch_normalization_164 (Bat (None, 2048)              8192      
_________________________________________________________________
activation_309 (Activation)  (None, 2048)              0         
_________________________________________________________________
dropout_309 (Dropout)        (None, 2048)              0         
_________________________________________________________________
dense_52 (Dense)             (None, 100)               204900    
=================================================================
Total params: 8,700,991
Trainable params: 8,694,591
Non-trainable params: 6,400
_________________________________________________________________
