Model: "sequential_293"
_________________________________________________________________
Layer (type)                 Output Shape              Param #   
=================================================================
separable_conv2d_3232 (Separ (None, 32, 32, 32)        155       
_________________________________________________________________
activation_3528 (Activation) (None, 32, 32, 32)        0         
_________________________________________________________________
dropout_3528 (Dropout)       (None, 32, 32, 32)        0         
_________________________________________________________________
separable_conv2d_3233 (Separ (None, 32, 32, 256)       8736      
_________________________________________________________________
batch_normalization_2058 (Ba (None, 32, 32, 256)       1024      
_________________________________________________________________
activation_3529 (Activation) (None, 32, 32, 256)       0         
_________________________________________________________________
dropout_3529 (Dropout)       (None, 32, 32, 256)       0         
_________________________________________________________________
separable_conv2d_3234 (Separ (None, 32, 32, 8)         4360      
_________________________________________________________________
activation_3530 (Activation) (None, 32, 32, 8)         0         
_________________________________________________________________
dropout_3530 (Dropout)       (None, 32, 32, 8)         0         
_________________________________________________________________
separable_conv2d_3235 (Separ (None, 32, 32, 64)        648       
_________________________________________________________________
activation_3531 (Activation) (None, 32, 32, 64)        0         
_________________________________________________________________
dropout_3531 (Dropout)       (None, 32, 32, 64)        0         
_________________________________________________________________
max_pooling2d_845 (MaxPoolin (None, 16, 16, 64)        0         
_________________________________________________________________
separable_conv2d_3236 (Separ (None, 16, 16, 16)        1616      
_________________________________________________________________
activation_3532 (Activation) (None, 16, 16, 16)        0         
_________________________________________________________________
dropout_3532 (Dropout)       (None, 16, 16, 16)        0         
_________________________________________________________________
separable_conv2d_3237 (Separ (None, 16, 16, 128)       2320      
_________________________________________________________________
batch_normalization_2059 (Ba (None, 16, 16, 128)       512       
_________________________________________________________________
activation_3533 (Activation) (None, 16, 16, 128)       0         
_________________________________________________________________
dropout_3533 (Dropout)       (None, 16, 16, 128)       0         
_________________________________________________________________
separable_conv2d_3238 (Separ (None, 16, 16, 64)        9408      
_________________________________________________________________
batch_normalization_2060 (Ba (None, 16, 16, 64)        256       
_________________________________________________________________
activation_3534 (Activation) (None, 16, 16, 64)        0         
_________________________________________________________________
dropout_3534 (Dropout)       (None, 16, 16, 64)        0         
_________________________________________________________________
separable_conv2d_3239 (Separ (None, 16, 16, 512)       33856     
_________________________________________________________________
batch_normalization_2061 (Ba (None, 16, 16, 512)       2048      
_________________________________________________________________
activation_3535 (Activation) (None, 16, 16, 512)       0         
_________________________________________________________________
dropout_3535 (Dropout)       (None, 16, 16, 512)       0         
_________________________________________________________________
max_pooling2d_846 (MaxPoolin (None, 8, 8, 512)         0         
_________________________________________________________________
separable_conv2d_3240 (Separ (None, 8, 8, 128)         70272     
_________________________________________________________________
activation_3536 (Activation) (None, 8, 8, 128)         0         
_________________________________________________________________
dropout_3536 (Dropout)       (None, 8, 8, 128)         0         
_________________________________________________________________
separable_conv2d_3241 (Separ (None, 8, 8, 32)          5280      
_________________________________________________________________
batch_normalization_2062 (Ba (None, 8, 8, 32)          128       
_________________________________________________________________
activation_3537 (Activation) (None, 8, 8, 32)          0         
_________________________________________________________________
dropout_3537 (Dropout)       (None, 8, 8, 32)          0         
_________________________________________________________________
separable_conv2d_3242 (Separ (None, 8, 8, 256)         8736      
_________________________________________________________________
batch_normalization_2063 (Ba (None, 8, 8, 256)         1024      
_________________________________________________________________
activation_3538 (Activation) (None, 8, 8, 256)         0         
_________________________________________________________________
dropout_3538 (Dropout)       (None, 8, 8, 256)         0         
_________________________________________________________________
max_pooling2d_847 (MaxPoolin (None, 4, 4, 256)         0         
_________________________________________________________________
flatten_293 (Flatten)        (None, 4096)              0         
_________________________________________________________________
dense_589 (Dense)            (None, 2048)              8390656   
_________________________________________________________________
batch_normalization_2064 (Ba (None, 2048)              8192      
_________________________________________________________________
activation_3539 (Activation) (None, 2048)              0         
_________________________________________________________________
dropout_3539 (Dropout)       (None, 2048)              0         
_________________________________________________________________
dense_590 (Dense)            (None, 100)               204900    
=================================================================
Total params: 8,754,127
Trainable params: 8,747,535
Non-trainable params: 6,592
_________________________________________________________________
