Model: "sequential_173"
_________________________________________________________________
Layer (type)                 Output Shape              Param #   
=================================================================
separable_conv2d_1968 (Separ (None, 32, 32, 32)        155       
_________________________________________________________________
activation_2144 (Activation) (None, 32, 32, 32)        0         
_________________________________________________________________
dropout_2144 (Dropout)       (None, 32, 32, 32)        0         
_________________________________________________________________
separable_conv2d_1969 (Separ (None, 32, 32, 256)       8736      
_________________________________________________________________
batch_normalization_1274 (Ba (None, 32, 32, 256)       1024      
_________________________________________________________________
activation_2145 (Activation) (None, 32, 32, 256)       0         
_________________________________________________________________
dropout_2145 (Dropout)       (None, 32, 32, 256)       0         
_________________________________________________________________
separable_conv2d_1970 (Separ (None, 32, 32, 8)         4360      
_________________________________________________________________
activation_2146 (Activation) (None, 32, 32, 8)         0         
_________________________________________________________________
dropout_2146 (Dropout)       (None, 32, 32, 8)         0         
_________________________________________________________________
separable_conv2d_1971 (Separ (None, 32, 32, 64)        648       
_________________________________________________________________
activation_2147 (Activation) (None, 32, 32, 64)        0         
_________________________________________________________________
dropout_2147 (Dropout)       (None, 32, 32, 64)        0         
_________________________________________________________________
max_pooling2d_507 (MaxPoolin (None, 16, 16, 64)        0         
_________________________________________________________________
separable_conv2d_1972 (Separ (None, 16, 16, 16)        1616      
_________________________________________________________________
activation_2148 (Activation) (None, 16, 16, 16)        0         
_________________________________________________________________
dropout_2148 (Dropout)       (None, 16, 16, 16)        0         
_________________________________________________________________
separable_conv2d_1973 (Separ (None, 16, 16, 256)       4496      
_________________________________________________________________
batch_normalization_1275 (Ba (None, 16, 16, 256)       1024      
_________________________________________________________________
activation_2149 (Activation) (None, 16, 16, 256)       0         
_________________________________________________________________
dropout_2149 (Dropout)       (None, 16, 16, 256)       0         
_________________________________________________________________
separable_conv2d_1974 (Separ (None, 16, 16, 64)        18752     
_________________________________________________________________
batch_normalization_1276 (Ba (None, 16, 16, 64)        256       
_________________________________________________________________
activation_2150 (Activation) (None, 16, 16, 64)        0         
_________________________________________________________________
dropout_2150 (Dropout)       (None, 16, 16, 64)        0         
_________________________________________________________________
separable_conv2d_1975 (Separ (None, 16, 16, 512)       33856     
_________________________________________________________________
batch_normalization_1277 (Ba (None, 16, 16, 512)       2048      
_________________________________________________________________
activation_2151 (Activation) (None, 16, 16, 512)       0         
_________________________________________________________________
dropout_2151 (Dropout)       (None, 16, 16, 512)       0         
_________________________________________________________________
max_pooling2d_508 (MaxPoolin (None, 8, 8, 512)         0         
_________________________________________________________________
separable_conv2d_1976 (Separ (None, 8, 8, 128)         70272     
_________________________________________________________________
activation_2152 (Activation) (None, 8, 8, 128)         0         
_________________________________________________________________
dropout_2152 (Dropout)       (None, 8, 8, 128)         0         
_________________________________________________________________
separable_conv2d_1977 (Separ (None, 8, 8, 32)          5280      
_________________________________________________________________
batch_normalization_1278 (Ba (None, 8, 8, 32)          128       
_________________________________________________________________
activation_2153 (Activation) (None, 8, 8, 32)          0         
_________________________________________________________________
dropout_2153 (Dropout)       (None, 8, 8, 32)          0         
_________________________________________________________________
separable_conv2d_1978 (Separ (None, 8, 8, 256)         8736      
_________________________________________________________________
batch_normalization_1279 (Ba (None, 8, 8, 256)         1024      
_________________________________________________________________
activation_2154 (Activation) (None, 8, 8, 256)         0         
_________________________________________________________________
dropout_2154 (Dropout)       (None, 8, 8, 256)         0         
_________________________________________________________________
max_pooling2d_509 (MaxPoolin (None, 4, 4, 256)         0         
_________________________________________________________________
flatten_173 (Flatten)        (None, 4096)              0         
_________________________________________________________________
dense_349 (Dense)            (None, 2048)              8390656   
_________________________________________________________________
batch_normalization_1280 (Ba (None, 2048)              8192      
_________________________________________________________________
activation_2155 (Activation) (None, 2048)              0         
_________________________________________________________________
dropout_2155 (Dropout)       (None, 2048)              0         
_________________________________________________________________
dense_350 (Dense)            (None, 100)               204900    
=================================================================
Total params: 8,766,159
Trainable params: 8,759,311
Non-trainable params: 6,848
_________________________________________________________________
