Model: "sequential_300"
_________________________________________________________________
Layer (type)                 Output Shape              Param #   
=================================================================
separable_conv2d_3301 (Separ (None, 32, 32, 32)        155       
_________________________________________________________________
activation_3604 (Activation) (None, 32, 32, 32)        0         
_________________________________________________________________
dropout_3604 (Dropout)       (None, 32, 32, 32)        0         
_________________________________________________________________
separable_conv2d_3302 (Separ (None, 32, 32, 256)       8736      
_________________________________________________________________
batch_normalization_2102 (Ba (None, 32, 32, 256)       1024      
_________________________________________________________________
activation_3605 (Activation) (None, 32, 32, 256)       0         
_________________________________________________________________
dropout_3605 (Dropout)       (None, 32, 32, 256)       0         
_________________________________________________________________
separable_conv2d_3303 (Separ (None, 32, 32, 8)         4360      
_________________________________________________________________
activation_3606 (Activation) (None, 32, 32, 8)         0         
_________________________________________________________________
dropout_3606 (Dropout)       (None, 32, 32, 8)         0         
_________________________________________________________________
separable_conv2d_3304 (Separ (None, 32, 32, 64)        648       
_________________________________________________________________
activation_3607 (Activation) (None, 32, 32, 64)        0         
_________________________________________________________________
dropout_3607 (Dropout)       (None, 32, 32, 64)        0         
_________________________________________________________________
max_pooling2d_863 (MaxPoolin (None, 16, 16, 64)        0         
_________________________________________________________________
separable_conv2d_3305 (Separ (None, 16, 16, 16)        1616      
_________________________________________________________________
activation_3608 (Activation) (None, 16, 16, 16)        0         
_________________________________________________________________
dropout_3608 (Dropout)       (None, 16, 16, 16)        0         
_________________________________________________________________
separable_conv2d_3306 (Separ (None, 16, 16, 128)       2320      
_________________________________________________________________
batch_normalization_2103 (Ba (None, 16, 16, 128)       512       
_________________________________________________________________
activation_3609 (Activation) (None, 16, 16, 128)       0         
_________________________________________________________________
dropout_3609 (Dropout)       (None, 16, 16, 128)       0         
_________________________________________________________________
separable_conv2d_3307 (Separ (None, 16, 16, 512)       67200     
_________________________________________________________________
batch_normalization_2104 (Ba (None, 16, 16, 512)       2048      
_________________________________________________________________
activation_3610 (Activation) (None, 16, 16, 512)       0         
_________________________________________________________________
dropout_3610 (Dropout)       (None, 16, 16, 512)       0         
_________________________________________________________________
max_pooling2d_864 (MaxPoolin (None, 8, 8, 512)         0         
_________________________________________________________________
separable_conv2d_3308 (Separ (None, 8, 8, 128)         70272     
_________________________________________________________________
activation_3611 (Activation) (None, 8, 8, 128)         0         
_________________________________________________________________
dropout_3611 (Dropout)       (None, 8, 8, 128)         0         
_________________________________________________________________
separable_conv2d_3309 (Separ (None, 8, 8, 32)          5280      
_________________________________________________________________
activation_3612 (Activation) (None, 8, 8, 32)          0         
_________________________________________________________________
dropout_3612 (Dropout)       (None, 8, 8, 32)          0         
_________________________________________________________________
separable_conv2d_3310 (Separ (None, 8, 8, 512)         17184     
_________________________________________________________________
batch_normalization_2105 (Ba (None, 8, 8, 512)         2048      
_________________________________________________________________
activation_3613 (Activation) (None, 8, 8, 512)         0         
_________________________________________________________________
dropout_3613 (Dropout)       (None, 8, 8, 512)         0         
_________________________________________________________________
max_pooling2d_865 (MaxPoolin (None, 4, 4, 512)         0         
_________________________________________________________________
flatten_300 (Flatten)        (None, 8192)              0         
_________________________________________________________________
dense_603 (Dense)            (None, 2048)              16779264  
_________________________________________________________________
batch_normalization_2106 (Ba (None, 2048)              8192      
_________________________________________________________________
activation_3614 (Activation) (None, 2048)              0         
_________________________________________________________________
dropout_3614 (Dropout)       (None, 2048)              0         
_________________________________________________________________
dense_604 (Dense)            (None, 100)               204900    
=================================================================
Total params: 17,175,759
Trainable params: 17,168,847
Non-trainable params: 6,912
_________________________________________________________________
