Model: "sequential_65"
_________________________________________________________________
Layer (type)                 Output Shape              Param #   
=================================================================
separable_conv2d_751 (Separa (None, 32, 32, 32)        155       
_________________________________________________________________
activation_819 (Activation)  (None, 32, 32, 32)        0         
_________________________________________________________________
dropout_819 (Dropout)        (None, 32, 32, 32)        0         
_________________________________________________________________
separable_conv2d_752 (Separa (None, 32, 32, 128)       4512      
_________________________________________________________________
batch_normalization_470 (Bat (None, 32, 32, 128)       512       
_________________________________________________________________
activation_820 (Activation)  (None, 32, 32, 128)       0         
_________________________________________________________________
dropout_820 (Dropout)        (None, 32, 32, 128)       0         
_________________________________________________________________
separable_conv2d_753 (Separa (None, 32, 32, 8)         2184      
_________________________________________________________________
activation_821 (Activation)  (None, 32, 32, 8)         0         
_________________________________________________________________
dropout_821 (Dropout)        (None, 32, 32, 8)         0         
_________________________________________________________________
separable_conv2d_754 (Separa (None, 32, 32, 16)        216       
_________________________________________________________________
activation_822 (Activation)  (None, 32, 32, 16)        0         
_________________________________________________________________
dropout_822 (Dropout)        (None, 32, 32, 16)        0         
_________________________________________________________________
max_pooling2d_184 (MaxPoolin (None, 16, 16, 16)        0         
_________________________________________________________________
separable_conv2d_755 (Separa (None, 16, 16, 8)         280       
_________________________________________________________________
activation_823 (Activation)  (None, 16, 16, 8)         0         
_________________________________________________________________
dropout_823 (Dropout)        (None, 16, 16, 8)         0         
_________________________________________________________________
separable_conv2d_756 (Separa (None, 16, 16, 128)       1224      
_________________________________________________________________
batch_normalization_471 (Bat (None, 16, 16, 128)       512       
_________________________________________________________________
activation_824 (Activation)  (None, 16, 16, 128)       0         
_________________________________________________________________
dropout_824 (Dropout)        (None, 16, 16, 128)       0         
_________________________________________________________________
separable_conv2d_757 (Separa (None, 16, 16, 64)        9408      
_________________________________________________________________
batch_normalization_472 (Bat (None, 16, 16, 64)        256       
_________________________________________________________________
activation_825 (Activation)  (None, 16, 16, 64)        0         
_________________________________________________________________
dropout_825 (Dropout)        (None, 16, 16, 64)        0         
_________________________________________________________________
separable_conv2d_758 (Separa (None, 16, 16, 512)       33856     
_________________________________________________________________
batch_normalization_473 (Bat (None, 16, 16, 512)       2048      
_________________________________________________________________
activation_826 (Activation)  (None, 16, 16, 512)       0         
_________________________________________________________________
dropout_826 (Dropout)        (None, 16, 16, 512)       0         
_________________________________________________________________
max_pooling2d_185 (MaxPoolin (None, 8, 8, 512)         0         
_________________________________________________________________
separable_conv2d_759 (Separa (None, 8, 8, 32)          21024     
_________________________________________________________________
batch_normalization_474 (Bat (None, 8, 8, 32)          128       
_________________________________________________________________
activation_827 (Activation)  (None, 8, 8, 32)          0         
_________________________________________________________________
dropout_827 (Dropout)        (None, 8, 8, 32)          0         
_________________________________________________________________
max_pooling2d_186 (MaxPoolin (None, 4, 4, 32)          0         
_________________________________________________________________
separable_conv2d_760 (Separa (None, 4, 4, 32)          1344      
_________________________________________________________________
batch_normalization_475 (Bat (None, 4, 4, 32)          128       
_________________________________________________________________
activation_828 (Activation)  (None, 4, 4, 32)          0         
_________________________________________________________________
dropout_828 (Dropout)        (None, 4, 4, 32)          0         
_________________________________________________________________
separable_conv2d_761 (Separa (None, 4, 4, 256)         8736      
_________________________________________________________________
batch_normalization_476 (Bat (None, 4, 4, 256)         1024      
_________________________________________________________________
activation_829 (Activation)  (None, 4, 4, 256)         0         
_________________________________________________________________
dropout_829 (Dropout)        (None, 4, 4, 256)         0         
_________________________________________________________________
flatten_65 (Flatten)         (None, 4096)              0         
_________________________________________________________________
dense_133 (Dense)            (None, 2048)              8390656   
_________________________________________________________________
batch_normalization_477 (Bat (None, 2048)              8192      
_________________________________________________________________
activation_830 (Activation)  (None, 2048)              0         
_________________________________________________________________
dropout_830 (Dropout)        (None, 2048)              0         
_________________________________________________________________
dense_134 (Dense)            (None, 100)               204900    
=================================================================
Total params: 8,691,295
Trainable params: 8,684,895
Non-trainable params: 6,400
_________________________________________________________________
