Model: "sequential_64"
_________________________________________________________________
Layer (type)                 Output Shape              Param #   
=================================================================
separable_conv2d_739 (Separa (None, 32, 32, 32)        155       
_________________________________________________________________
activation_806 (Activation)  (None, 32, 32, 32)        0         
_________________________________________________________________
dropout_806 (Dropout)        (None, 32, 32, 32)        0         
_________________________________________________________________
separable_conv2d_740 (Separa (None, 32, 32, 128)       4512      
_________________________________________________________________
batch_normalization_462 (Bat (None, 32, 32, 128)       512       
_________________________________________________________________
activation_807 (Activation)  (None, 32, 32, 128)       0         
_________________________________________________________________
dropout_807 (Dropout)        (None, 32, 32, 128)       0         
_________________________________________________________________
separable_conv2d_741 (Separa (None, 32, 32, 8)         2184      
_________________________________________________________________
activation_808 (Activation)  (None, 32, 32, 8)         0         
_________________________________________________________________
dropout_808 (Dropout)        (None, 32, 32, 8)         0         
_________________________________________________________________
separable_conv2d_742 (Separa (None, 32, 32, 64)        648       
_________________________________________________________________
activation_809 (Activation)  (None, 32, 32, 64)        0         
_________________________________________________________________
dropout_809 (Dropout)        (None, 32, 32, 64)        0         
_________________________________________________________________
max_pooling2d_181 (MaxPoolin (None, 16, 16, 64)        0         
_________________________________________________________________
separable_conv2d_743 (Separa (None, 16, 16, 8)         1096      
_________________________________________________________________
activation_810 (Activation)  (None, 16, 16, 8)         0         
_________________________________________________________________
dropout_810 (Dropout)        (None, 16, 16, 8)         0         
_________________________________________________________________
separable_conv2d_744 (Separa (None, 16, 16, 128)       1224      
_________________________________________________________________
batch_normalization_463 (Bat (None, 16, 16, 128)       512       
_________________________________________________________________
activation_811 (Activation)  (None, 16, 16, 128)       0         
_________________________________________________________________
dropout_811 (Dropout)        (None, 16, 16, 128)       0         
_________________________________________________________________
separable_conv2d_745 (Separa (None, 16, 16, 64)        9408      
_________________________________________________________________
batch_normalization_464 (Bat (None, 16, 16, 64)        256       
_________________________________________________________________
activation_812 (Activation)  (None, 16, 16, 64)        0         
_________________________________________________________________
dropout_812 (Dropout)        (None, 16, 16, 64)        0         
_________________________________________________________________
separable_conv2d_746 (Separa (None, 16, 16, 512)       33856     
_________________________________________________________________
batch_normalization_465 (Bat (None, 16, 16, 512)       2048      
_________________________________________________________________
activation_813 (Activation)  (None, 16, 16, 512)       0         
_________________________________________________________________
dropout_813 (Dropout)        (None, 16, 16, 512)       0         
_________________________________________________________________
max_pooling2d_182 (MaxPoolin (None, 8, 8, 512)         0         
_________________________________________________________________
separable_conv2d_747 (Separa (None, 8, 8, 32)          21024     
_________________________________________________________________
batch_normalization_466 (Bat (None, 8, 8, 32)          128       
_________________________________________________________________
activation_814 (Activation)  (None, 8, 8, 32)          0         
_________________________________________________________________
dropout_814 (Dropout)        (None, 8, 8, 32)          0         
_________________________________________________________________
max_pooling2d_183 (MaxPoolin (None, 4, 4, 32)          0         
_________________________________________________________________
separable_conv2d_748 (Separa (None, 4, 4, 128)         4512      
_________________________________________________________________
activation_815 (Activation)  (None, 4, 4, 128)         0         
_________________________________________________________________
dropout_815 (Dropout)        (None, 4, 4, 128)         0         
_________________________________________________________________
separable_conv2d_749 (Separa (None, 4, 4, 32)          5280      
_________________________________________________________________
batch_normalization_467 (Bat (None, 4, 4, 32)          128       
_________________________________________________________________
activation_816 (Activation)  (None, 4, 4, 32)          0         
_________________________________________________________________
dropout_816 (Dropout)        (None, 4, 4, 32)          0         
_________________________________________________________________
separable_conv2d_750 (Separa (None, 4, 4, 256)         8736      
_________________________________________________________________
batch_normalization_468 (Bat (None, 4, 4, 256)         1024      
_________________________________________________________________
activation_817 (Activation)  (None, 4, 4, 256)         0         
_________________________________________________________________
dropout_817 (Dropout)        (None, 4, 4, 256)         0         
_________________________________________________________________
flatten_64 (Flatten)         (None, 4096)              0         
_________________________________________________________________
dense_131 (Dense)            (None, 2048)              8390656   
_________________________________________________________________
batch_normalization_469 (Bat (None, 2048)              8192      
_________________________________________________________________
activation_818 (Activation)  (None, 2048)              0         
_________________________________________________________________
dropout_818 (Dropout)        (None, 2048)              0         
_________________________________________________________________
dense_132 (Dense)            (None, 100)               204900    
=================================================================
Total params: 8,700,991
Trainable params: 8,694,591
Non-trainable params: 6,400
_________________________________________________________________
