Model: "sequential_81"
_________________________________________________________________
Layer (type)                 Output Shape              Param #   
=================================================================
separable_conv2d_940 (Separa (None, 32, 32, 32)        155       
_________________________________________________________________
activation_1024 (Activation) (None, 32, 32, 32)        0         
_________________________________________________________________
dropout_1024 (Dropout)       (None, 32, 32, 32)        0         
_________________________________________________________________
separable_conv2d_941 (Separa (None, 32, 32, 128)       4512      
_________________________________________________________________
batch_normalization_596 (Bat (None, 32, 32, 128)       512       
_________________________________________________________________
activation_1025 (Activation) (None, 32, 32, 128)       0         
_________________________________________________________________
dropout_1025 (Dropout)       (None, 32, 32, 128)       0         
_________________________________________________________________
separable_conv2d_942 (Separa (None, 32, 32, 8)         2184      
_________________________________________________________________
activation_1026 (Activation) (None, 32, 32, 8)         0         
_________________________________________________________________
dropout_1026 (Dropout)       (None, 32, 32, 8)         0         
_________________________________________________________________
separable_conv2d_943 (Separa (None, 32, 32, 64)        648       
_________________________________________________________________
activation_1027 (Activation) (None, 32, 32, 64)        0         
_________________________________________________________________
dropout_1027 (Dropout)       (None, 32, 32, 64)        0         
_________________________________________________________________
max_pooling2d_232 (MaxPoolin (None, 16, 16, 64)        0         
_________________________________________________________________
separable_conv2d_944 (Separa (None, 16, 16, 8)         1096      
_________________________________________________________________
activation_1028 (Activation) (None, 16, 16, 8)         0         
_________________________________________________________________
dropout_1028 (Dropout)       (None, 16, 16, 8)         0         
_________________________________________________________________
separable_conv2d_945 (Separa (None, 16, 16, 128)       1224      
_________________________________________________________________
batch_normalization_597 (Bat (None, 16, 16, 128)       512       
_________________________________________________________________
activation_1029 (Activation) (None, 16, 16, 128)       0         
_________________________________________________________________
dropout_1029 (Dropout)       (None, 16, 16, 128)       0         
_________________________________________________________________
separable_conv2d_946 (Separa (None, 16, 16, 64)        9408      
_________________________________________________________________
batch_normalization_598 (Bat (None, 16, 16, 64)        256       
_________________________________________________________________
activation_1030 (Activation) (None, 16, 16, 64)        0         
_________________________________________________________________
dropout_1030 (Dropout)       (None, 16, 16, 64)        0         
_________________________________________________________________
separable_conv2d_947 (Separa (None, 16, 16, 512)       33856     
_________________________________________________________________
batch_normalization_599 (Bat (None, 16, 16, 512)       2048      
_________________________________________________________________
activation_1031 (Activation) (None, 16, 16, 512)       0         
_________________________________________________________________
dropout_1031 (Dropout)       (None, 16, 16, 512)       0         
_________________________________________________________________
max_pooling2d_233 (MaxPoolin (None, 8, 8, 512)         0         
_________________________________________________________________
separable_conv2d_948 (Separa (None, 8, 8, 32)          21024     
_________________________________________________________________
batch_normalization_600 (Bat (None, 8, 8, 32)          128       
_________________________________________________________________
activation_1032 (Activation) (None, 8, 8, 32)          0         
_________________________________________________________________
dropout_1032 (Dropout)       (None, 8, 8, 32)          0         
_________________________________________________________________
max_pooling2d_234 (MaxPoolin (None, 4, 4, 32)          0         
_________________________________________________________________
separable_conv2d_949 (Separa (None, 4, 4, 128)         4512      
_________________________________________________________________
activation_1033 (Activation) (None, 4, 4, 128)         0         
_________________________________________________________________
dropout_1033 (Dropout)       (None, 4, 4, 128)         0         
_________________________________________________________________
separable_conv2d_950 (Separa (None, 4, 4, 32)          5280      
_________________________________________________________________
batch_normalization_601 (Bat (None, 4, 4, 32)          128       
_________________________________________________________________
activation_1034 (Activation) (None, 4, 4, 32)          0         
_________________________________________________________________
dropout_1034 (Dropout)       (None, 4, 4, 32)          0         
_________________________________________________________________
separable_conv2d_951 (Separa (None, 4, 4, 256)         8736      
_________________________________________________________________
batch_normalization_602 (Bat (None, 4, 4, 256)         1024      
_________________________________________________________________
activation_1035 (Activation) (None, 4, 4, 256)         0         
_________________________________________________________________
dropout_1035 (Dropout)       (None, 4, 4, 256)         0         
_________________________________________________________________
flatten_81 (Flatten)         (None, 4096)              0         
_________________________________________________________________
dense_165 (Dense)            (None, 2048)              8390656   
_________________________________________________________________
batch_normalization_603 (Bat (None, 2048)              8192      
_________________________________________________________________
activation_1036 (Activation) (None, 2048)              0         
_________________________________________________________________
dropout_1036 (Dropout)       (None, 2048)              0         
_________________________________________________________________
dense_166 (Dense)            (None, 100)               204900    
=================================================================
Total params: 8,700,991
Trainable params: 8,694,591
Non-trainable params: 6,400
_________________________________________________________________
