Model: "sequential_306"
_________________________________________________________________
Layer (type)                 Output Shape              Param #   
=================================================================
separable_conv2d_3357 (Separ (None, 32, 32, 32)        155       
_________________________________________________________________
activation_3666 (Activation) (None, 32, 32, 32)        0         
_________________________________________________________________
dropout_3666 (Dropout)       (None, 32, 32, 32)        0         
_________________________________________________________________
separable_conv2d_3358 (Separ (None, 32, 32, 256)       8736      
_________________________________________________________________
batch_normalization_2134 (Ba (None, 32, 32, 256)       1024      
_________________________________________________________________
activation_3667 (Activation) (None, 32, 32, 256)       0         
_________________________________________________________________
dropout_3667 (Dropout)       (None, 32, 32, 256)       0         
_________________________________________________________________
separable_conv2d_3359 (Separ (None, 32, 32, 8)         4360      
_________________________________________________________________
activation_3668 (Activation) (None, 32, 32, 8)         0         
_________________________________________________________________
dropout_3668 (Dropout)       (None, 32, 32, 8)         0         
_________________________________________________________________
separable_conv2d_3360 (Separ (None, 32, 32, 64)        648       
_________________________________________________________________
activation_3669 (Activation) (None, 32, 32, 64)        0         
_________________________________________________________________
dropout_3669 (Dropout)       (None, 32, 32, 64)        0         
_________________________________________________________________
max_pooling2d_877 (MaxPoolin (None, 16, 16, 64)        0         
_________________________________________________________________
separable_conv2d_3361 (Separ (None, 16, 16, 16)        1616      
_________________________________________________________________
activation_3670 (Activation) (None, 16, 16, 16)        0         
_________________________________________________________________
dropout_3670 (Dropout)       (None, 16, 16, 16)        0         
_________________________________________________________________
separable_conv2d_3362 (Separ (None, 16, 16, 128)       2320      
_________________________________________________________________
batch_normalization_2135 (Ba (None, 16, 16, 128)       512       
_________________________________________________________________
activation_3671 (Activation) (None, 16, 16, 128)       0         
_________________________________________________________________
dropout_3671 (Dropout)       (None, 16, 16, 128)       0         
_________________________________________________________________
separable_conv2d_3363 (Separ (None, 16, 16, 64)        9408      
_________________________________________________________________
batch_normalization_2136 (Ba (None, 16, 16, 64)        256       
_________________________________________________________________
activation_3672 (Activation) (None, 16, 16, 64)        0         
_________________________________________________________________
dropout_3672 (Dropout)       (None, 16, 16, 64)        0         
_________________________________________________________________
separable_conv2d_3364 (Separ (None, 16, 16, 128)       8896      
_________________________________________________________________
activation_3673 (Activation) (None, 16, 16, 128)       0         
_________________________________________________________________
dropout_3673 (Dropout)       (None, 16, 16, 128)       0         
_________________________________________________________________
separable_conv2d_3365 (Separ (None, 16, 16, 32)        5280      
_________________________________________________________________
batch_normalization_2137 (Ba (None, 16, 16, 32)        128       
_________________________________________________________________
activation_3674 (Activation) (None, 16, 16, 32)        0         
_________________________________________________________________
dropout_3674 (Dropout)       (None, 16, 16, 32)        0         
_________________________________________________________________
separable_conv2d_3366 (Separ (None, 16, 16, 512)       17184     
_________________________________________________________________
batch_normalization_2138 (Ba (None, 16, 16, 512)       2048      
_________________________________________________________________
activation_3675 (Activation) (None, 16, 16, 512)       0         
_________________________________________________________________
dropout_3675 (Dropout)       (None, 16, 16, 512)       0         
_________________________________________________________________
max_pooling2d_878 (MaxPoolin (None, 8, 8, 512)         0         
_________________________________________________________________
flatten_306 (Flatten)        (None, 32768)             0         
_________________________________________________________________
dense_615 (Dense)            (None, 2048)              67110912  
_________________________________________________________________
batch_normalization_2139 (Ba (None, 2048)              8192      
_________________________________________________________________
activation_3676 (Activation) (None, 2048)              0         
_________________________________________________________________
dropout_3676 (Dropout)       (None, 2048)              0         
_________________________________________________________________
dense_616 (Dense)            (None, 100)               204900    
=================================================================
Total params: 67,386,575
Trainable params: 67,380,495
Non-trainable params: 6,080
_________________________________________________________________
