Model: "sequential_191"
_________________________________________________________________
Layer (type)                 Output Shape              Param #   
=================================================================
separable_conv2d_2164 (Separ (None, 32, 32, 32)        155       
_________________________________________________________________
activation_2358 (Activation) (None, 32, 32, 32)        0         
_________________________________________________________________
dropout_2358 (Dropout)       (None, 32, 32, 32)        0         
_________________________________________________________________
separable_conv2d_2165 (Separ (None, 32, 32, 256)       8736      
_________________________________________________________________
batch_normalization_1398 (Ba (None, 32, 32, 256)       1024      
_________________________________________________________________
activation_2359 (Activation) (None, 32, 32, 256)       0         
_________________________________________________________________
dropout_2359 (Dropout)       (None, 32, 32, 256)       0         
_________________________________________________________________
separable_conv2d_2166 (Separ (None, 32, 32, 8)         4360      
_________________________________________________________________
activation_2360 (Activation) (None, 32, 32, 8)         0         
_________________________________________________________________
dropout_2360 (Dropout)       (None, 32, 32, 8)         0         
_________________________________________________________________
separable_conv2d_2167 (Separ (None, 32, 32, 64)        648       
_________________________________________________________________
activation_2361 (Activation) (None, 32, 32, 64)        0         
_________________________________________________________________
dropout_2361 (Dropout)       (None, 32, 32, 64)        0         
_________________________________________________________________
max_pooling2d_560 (MaxPoolin (None, 16, 16, 64)        0         
_________________________________________________________________
separable_conv2d_2168 (Separ (None, 16, 16, 16)        1616      
_________________________________________________________________
activation_2362 (Activation) (None, 16, 16, 16)        0         
_________________________________________________________________
dropout_2362 (Dropout)       (None, 16, 16, 16)        0         
_________________________________________________________________
separable_conv2d_2169 (Separ (None, 16, 16, 128)       2320      
_________________________________________________________________
batch_normalization_1399 (Ba (None, 16, 16, 128)       512       
_________________________________________________________________
activation_2363 (Activation) (None, 16, 16, 128)       0         
_________________________________________________________________
dropout_2363 (Dropout)       (None, 16, 16, 128)       0         
_________________________________________________________________
separable_conv2d_2170 (Separ (None, 16, 16, 64)        9408      
_________________________________________________________________
batch_normalization_1400 (Ba (None, 16, 16, 64)        256       
_________________________________________________________________
activation_2364 (Activation) (None, 16, 16, 64)        0         
_________________________________________________________________
dropout_2364 (Dropout)       (None, 16, 16, 64)        0         
_________________________________________________________________
separable_conv2d_2171 (Separ (None, 16, 16, 512)       33856     
_________________________________________________________________
batch_normalization_1401 (Ba (None, 16, 16, 512)       2048      
_________________________________________________________________
activation_2365 (Activation) (None, 16, 16, 512)       0         
_________________________________________________________________
dropout_2365 (Dropout)       (None, 16, 16, 512)       0         
_________________________________________________________________
max_pooling2d_561 (MaxPoolin (None, 8, 8, 512)         0         
_________________________________________________________________
separable_conv2d_2172 (Separ (None, 8, 8, 128)         70272     
_________________________________________________________________
activation_2366 (Activation) (None, 8, 8, 128)         0         
_________________________________________________________________
dropout_2366 (Dropout)       (None, 8, 8, 128)         0         
_________________________________________________________________
separable_conv2d_2173 (Separ (None, 8, 8, 32)          5280      
_________________________________________________________________
batch_normalization_1402 (Ba (None, 8, 8, 32)          128       
_________________________________________________________________
activation_2367 (Activation) (None, 8, 8, 32)          0         
_________________________________________________________________
dropout_2367 (Dropout)       (None, 8, 8, 32)          0         
_________________________________________________________________
separable_conv2d_2174 (Separ (None, 8, 8, 256)         8736      
_________________________________________________________________
batch_normalization_1403 (Ba (None, 8, 8, 256)         1024      
_________________________________________________________________
activation_2368 (Activation) (None, 8, 8, 256)         0         
_________________________________________________________________
dropout_2368 (Dropout)       (None, 8, 8, 256)         0         
_________________________________________________________________
max_pooling2d_562 (MaxPoolin (None, 4, 4, 256)         0         
_________________________________________________________________
flatten_191 (Flatten)        (None, 4096)              0         
_________________________________________________________________
dense_385 (Dense)            (None, 2048)              8390656   
_________________________________________________________________
batch_normalization_1404 (Ba (None, 2048)              8192      
_________________________________________________________________
activation_2369 (Activation) (None, 2048)              0         
_________________________________________________________________
dropout_2369 (Dropout)       (None, 2048)              0         
_________________________________________________________________
dense_386 (Dense)            (None, 100)               204900    
=================================================================
Total params: 8,754,127
Trainable params: 8,747,535
Non-trainable params: 6,592
_________________________________________________________________
