Model: "sequential_331"
_________________________________________________________________
Layer (type)                 Output Shape              Param #   
=================================================================
separable_conv2d_3598 (Separ (None, 32, 32, 32)        155       
_________________________________________________________________
activation_3932 (Activation) (None, 32, 32, 32)        0         
_________________________________________________________________
dropout_3932 (Dropout)       (None, 32, 32, 32)        0         
_________________________________________________________________
separable_conv2d_3599 (Separ (None, 32, 32, 256)       8736      
_________________________________________________________________
batch_normalization_2272 (Ba (None, 32, 32, 256)       1024      
_________________________________________________________________
activation_3933 (Activation) (None, 32, 32, 256)       0         
_________________________________________________________________
dropout_3933 (Dropout)       (None, 32, 32, 256)       0         
_________________________________________________________________
separable_conv2d_3600 (Separ (None, 32, 32, 8)         4360      
_________________________________________________________________
activation_3934 (Activation) (None, 32, 32, 8)         0         
_________________________________________________________________
dropout_3934 (Dropout)       (None, 32, 32, 8)         0         
_________________________________________________________________
separable_conv2d_3601 (Separ (None, 32, 32, 64)        648       
_________________________________________________________________
activation_3935 (Activation) (None, 32, 32, 64)        0         
_________________________________________________________________
dropout_3935 (Dropout)       (None, 32, 32, 64)        0         
_________________________________________________________________
max_pooling2d_934 (MaxPoolin (None, 16, 16, 64)        0         
_________________________________________________________________
separable_conv2d_3602 (Separ (None, 16, 16, 16)        1616      
_________________________________________________________________
activation_3936 (Activation) (None, 16, 16, 16)        0         
_________________________________________________________________
dropout_3936 (Dropout)       (None, 16, 16, 16)        0         
_________________________________________________________________
separable_conv2d_3603 (Separ (None, 16, 16, 128)       2320      
_________________________________________________________________
batch_normalization_2273 (Ba (None, 16, 16, 128)       512       
_________________________________________________________________
activation_3937 (Activation) (None, 16, 16, 128)       0         
_________________________________________________________________
dropout_3937 (Dropout)       (None, 16, 16, 128)       0         
_________________________________________________________________
separable_conv2d_3604 (Separ (None, 16, 16, 64)        9408      
_________________________________________________________________
activation_3938 (Activation) (None, 16, 16, 64)        0         
_________________________________________________________________
dropout_3938 (Dropout)       (None, 16, 16, 64)        0         
_________________________________________________________________
separable_conv2d_3605 (Separ (None, 16, 16, 64)        4736      
_________________________________________________________________
batch_normalization_2274 (Ba (None, 16, 16, 64)        256       
_________________________________________________________________
activation_3939 (Activation) (None, 16, 16, 64)        0         
_________________________________________________________________
dropout_3939 (Dropout)       (None, 16, 16, 64)        0         
_________________________________________________________________
separable_conv2d_3606 (Separ (None, 16, 16, 512)       33856     
_________________________________________________________________
batch_normalization_2275 (Ba (None, 16, 16, 512)       2048      
_________________________________________________________________
activation_3940 (Activation) (None, 16, 16, 512)       0         
_________________________________________________________________
dropout_3940 (Dropout)       (None, 16, 16, 512)       0         
_________________________________________________________________
max_pooling2d_935 (MaxPoolin (None, 8, 8, 512)         0         
_________________________________________________________________
flatten_331 (Flatten)        (None, 32768)             0         
_________________________________________________________________
dense_665 (Dense)            (None, 2048)              67110912  
_________________________________________________________________
batch_normalization_2276 (Ba (None, 2048)              8192      
_________________________________________________________________
activation_3941 (Activation) (None, 2048)              0         
_________________________________________________________________
dropout_3941 (Dropout)       (None, 2048)              0         
_________________________________________________________________
dense_666 (Dense)            (None, 100)               204900    
=================================================================
Total params: 67,393,679
Trainable params: 67,387,663
Non-trainable params: 6,016
_________________________________________________________________
