Model: "sequential_139"
_________________________________________________________________
Layer (type)                 Output Shape              Param #   
=================================================================
separable_conv2d_1598 (Separ (None, 32, 32, 32)        155       
_________________________________________________________________
activation_1740 (Activation) (None, 32, 32, 32)        0         
_________________________________________________________________
dropout_1740 (Dropout)       (None, 32, 32, 32)        0         
_________________________________________________________________
separable_conv2d_1599 (Separ (None, 32, 32, 128)       4512      
_________________________________________________________________
batch_normalization_1037 (Ba (None, 32, 32, 128)       512       
_________________________________________________________________
activation_1741 (Activation) (None, 32, 32, 128)       0         
_________________________________________________________________
dropout_1741 (Dropout)       (None, 32, 32, 128)       0         
_________________________________________________________________
separable_conv2d_1600 (Separ (None, 32, 32, 8)         2184      
_________________________________________________________________
activation_1742 (Activation) (None, 32, 32, 8)         0         
_________________________________________________________________
dropout_1742 (Dropout)       (None, 32, 32, 8)         0         
_________________________________________________________________
separable_conv2d_1601 (Separ (None, 32, 32, 8)         144       
_________________________________________________________________
activation_1743 (Activation) (None, 32, 32, 8)         0         
_________________________________________________________________
dropout_1743 (Dropout)       (None, 32, 32, 8)         0         
_________________________________________________________________
max_pooling2d_406 (MaxPoolin (None, 16, 16, 8)         0         
_________________________________________________________________
separable_conv2d_1602 (Separ (None, 16, 16, 8)         144       
_________________________________________________________________
activation_1744 (Activation) (None, 16, 16, 8)         0         
_________________________________________________________________
dropout_1744 (Dropout)       (None, 16, 16, 8)         0         
_________________________________________________________________
separable_conv2d_1603 (Separ (None, 16, 16, 128)       1224      
_________________________________________________________________
batch_normalization_1038 (Ba (None, 16, 16, 128)       512       
_________________________________________________________________
activation_1745 (Activation) (None, 16, 16, 128)       0         
_________________________________________________________________
dropout_1745 (Dropout)       (None, 16, 16, 128)       0         
_________________________________________________________________
separable_conv2d_1604 (Separ (None, 16, 16, 64)        9408      
_________________________________________________________________
batch_normalization_1039 (Ba (None, 16, 16, 64)        256       
_________________________________________________________________
activation_1746 (Activation) (None, 16, 16, 64)        0         
_________________________________________________________________
dropout_1746 (Dropout)       (None, 16, 16, 64)        0         
_________________________________________________________________
separable_conv2d_1605 (Separ (None, 16, 16, 512)       33856     
_________________________________________________________________
batch_normalization_1040 (Ba (None, 16, 16, 512)       2048      
_________________________________________________________________
activation_1747 (Activation) (None, 16, 16, 512)       0         
_________________________________________________________________
dropout_1747 (Dropout)       (None, 16, 16, 512)       0         
_________________________________________________________________
max_pooling2d_407 (MaxPoolin (None, 8, 8, 512)         0         
_________________________________________________________________
separable_conv2d_1606 (Separ (None, 8, 8, 32)          21024     
_________________________________________________________________
batch_normalization_1041 (Ba (None, 8, 8, 32)          128       
_________________________________________________________________
activation_1748 (Activation) (None, 8, 8, 32)          0         
_________________________________________________________________
dropout_1748 (Dropout)       (None, 8, 8, 32)          0         
_________________________________________________________________
max_pooling2d_408 (MaxPoolin (None, 4, 4, 32)          0         
_________________________________________________________________
separable_conv2d_1607 (Separ (None, 4, 4, 128)         4512      
_________________________________________________________________
activation_1749 (Activation) (None, 4, 4, 128)         0         
_________________________________________________________________
dropout_1749 (Dropout)       (None, 4, 4, 128)         0         
_________________________________________________________________
separable_conv2d_1608 (Separ (None, 4, 4, 32)          5280      
_________________________________________________________________
batch_normalization_1042 (Ba (None, 4, 4, 32)          128       
_________________________________________________________________
activation_1750 (Activation) (None, 4, 4, 32)          0         
_________________________________________________________________
dropout_1750 (Dropout)       (None, 4, 4, 32)          0         
_________________________________________________________________
separable_conv2d_1609 (Separ (None, 4, 4, 256)         8736      
_________________________________________________________________
batch_normalization_1043 (Ba (None, 4, 4, 256)         1024      
_________________________________________________________________
activation_1751 (Activation) (None, 4, 4, 256)         0         
_________________________________________________________________
dropout_1751 (Dropout)       (None, 4, 4, 256)         0         
_________________________________________________________________
flatten_139 (Flatten)        (None, 4096)              0         
_________________________________________________________________
dense_281 (Dense)            (None, 2048)              8390656   
_________________________________________________________________
batch_normalization_1044 (Ba (None, 2048)              8192      
_________________________________________________________________
activation_1752 (Activation) (None, 2048)              0         
_________________________________________________________________
dropout_1752 (Dropout)       (None, 2048)              0         
_________________________________________________________________
dense_282 (Dense)            (None, 100)               204900    
=================================================================
Total params: 8,699,535
Trainable params: 8,693,135
Non-trainable params: 6,400
_________________________________________________________________
