Model: "sequential_332"
_________________________________________________________________
Layer (type)                 Output Shape              Param #   
=================================================================
separable_conv2d_3607 (Separ (None, 32, 32, 32)        155       
_________________________________________________________________
activation_3942 (Activation) (None, 32, 32, 32)        0         
_________________________________________________________________
dropout_3942 (Dropout)       (None, 32, 32, 32)        0         
_________________________________________________________________
separable_conv2d_3608 (Separ (None, 32, 32, 256)       8736      
_________________________________________________________________
batch_normalization_2277 (Ba (None, 32, 32, 256)       1024      
_________________________________________________________________
activation_3943 (Activation) (None, 32, 32, 256)       0         
_________________________________________________________________
dropout_3943 (Dropout)       (None, 32, 32, 256)       0         
_________________________________________________________________
separable_conv2d_3609 (Separ (None, 32, 32, 8)         4360      
_________________________________________________________________
activation_3944 (Activation) (None, 32, 32, 8)         0         
_________________________________________________________________
dropout_3944 (Dropout)       (None, 32, 32, 8)         0         
_________________________________________________________________
separable_conv2d_3610 (Separ (None, 32, 32, 64)        648       
_________________________________________________________________
activation_3945 (Activation) (None, 32, 32, 64)        0         
_________________________________________________________________
dropout_3945 (Dropout)       (None, 32, 32, 64)        0         
_________________________________________________________________
max_pooling2d_936 (MaxPoolin (None, 16, 16, 64)        0         
_________________________________________________________________
separable_conv2d_3611 (Separ (None, 16, 16, 16)        1616      
_________________________________________________________________
activation_3946 (Activation) (None, 16, 16, 16)        0         
_________________________________________________________________
dropout_3946 (Dropout)       (None, 16, 16, 16)        0         
_________________________________________________________________
separable_conv2d_3612 (Separ (None, 16, 16, 128)       2320      
_________________________________________________________________
batch_normalization_2278 (Ba (None, 16, 16, 128)       512       
_________________________________________________________________
activation_3947 (Activation) (None, 16, 16, 128)       0         
_________________________________________________________________
dropout_3947 (Dropout)       (None, 16, 16, 128)       0         
_________________________________________________________________
separable_conv2d_3613 (Separ (None, 16, 16, 64)        9408      
_________________________________________________________________
batch_normalization_2279 (Ba (None, 16, 16, 64)        256       
_________________________________________________________________
activation_3948 (Activation) (None, 16, 16, 64)        0         
_________________________________________________________________
dropout_3948 (Dropout)       (None, 16, 16, 64)        0         
_________________________________________________________________
separable_conv2d_3614 (Separ (None, 16, 16, 128)       8896      
_________________________________________________________________
activation_3949 (Activation) (None, 16, 16, 128)       0         
_________________________________________________________________
dropout_3949 (Dropout)       (None, 16, 16, 128)       0         
_________________________________________________________________
separable_conv2d_3615 (Separ (None, 16, 16, 32)        5280      
_________________________________________________________________
batch_normalization_2280 (Ba (None, 16, 16, 32)        128       
_________________________________________________________________
activation_3950 (Activation) (None, 16, 16, 32)        0         
_________________________________________________________________
dropout_3950 (Dropout)       (None, 16, 16, 32)        0         
_________________________________________________________________
separable_conv2d_3616 (Separ (None, 16, 16, 512)       17184     
_________________________________________________________________
batch_normalization_2281 (Ba (None, 16, 16, 512)       2048      
_________________________________________________________________
activation_3951 (Activation) (None, 16, 16, 512)       0         
_________________________________________________________________
dropout_3951 (Dropout)       (None, 16, 16, 512)       0         
_________________________________________________________________
max_pooling2d_937 (MaxPoolin (None, 8, 8, 512)         0         
_________________________________________________________________
flatten_332 (Flatten)        (None, 32768)             0         
_________________________________________________________________
dense_667 (Dense)            (None, 2048)              67110912  
_________________________________________________________________
batch_normalization_2282 (Ba (None, 2048)              8192      
_________________________________________________________________
activation_3952 (Activation) (None, 2048)              0         
_________________________________________________________________
dropout_3952 (Dropout)       (None, 2048)              0         
_________________________________________________________________
dense_668 (Dense)            (None, 100)               204900    
=================================================================
Total params: 67,386,575
Trainable params: 67,380,495
Non-trainable params: 6,080
_________________________________________________________________
