Model: "sequential_238"
_________________________________________________________________
Layer (type)                 Output Shape              Param #   
=================================================================
separable_conv2d_2667 (Separ (None, 32, 32, 32)        155       
_________________________________________________________________
activation_2908 (Activation) (None, 32, 32, 32)        0         
_________________________________________________________________
dropout_2908 (Dropout)       (None, 32, 32, 32)        0         
_________________________________________________________________
separable_conv2d_2668 (Separ (None, 32, 32, 256)       8736      
_________________________________________________________________
batch_normalization_1705 (Ba (None, 32, 32, 256)       1024      
_________________________________________________________________
activation_2909 (Activation) (None, 32, 32, 256)       0         
_________________________________________________________________
dropout_2909 (Dropout)       (None, 32, 32, 256)       0         
_________________________________________________________________
separable_conv2d_2669 (Separ (None, 32, 32, 8)         4360      
_________________________________________________________________
activation_2910 (Activation) (None, 32, 32, 8)         0         
_________________________________________________________________
dropout_2910 (Dropout)       (None, 32, 32, 8)         0         
_________________________________________________________________
separable_conv2d_2670 (Separ (None, 32, 32, 64)        648       
_________________________________________________________________
activation_2911 (Activation) (None, 32, 32, 64)        0         
_________________________________________________________________
dropout_2911 (Dropout)       (None, 32, 32, 64)        0         
_________________________________________________________________
max_pooling2d_696 (MaxPoolin (None, 16, 16, 64)        0         
_________________________________________________________________
separable_conv2d_2671 (Separ (None, 16, 16, 16)        1616      
_________________________________________________________________
activation_2912 (Activation) (None, 16, 16, 16)        0         
_________________________________________________________________
dropout_2912 (Dropout)       (None, 16, 16, 16)        0         
_________________________________________________________________
separable_conv2d_2672 (Separ (None, 16, 16, 128)       2320      
_________________________________________________________________
batch_normalization_1706 (Ba (None, 16, 16, 128)       512       
_________________________________________________________________
activation_2913 (Activation) (None, 16, 16, 128)       0         
_________________________________________________________________
dropout_2913 (Dropout)       (None, 16, 16, 128)       0         
_________________________________________________________________
separable_conv2d_2673 (Separ (None, 16, 16, 64)        9408      
_________________________________________________________________
batch_normalization_1707 (Ba (None, 16, 16, 64)        256       
_________________________________________________________________
activation_2914 (Activation) (None, 16, 16, 64)        0         
_________________________________________________________________
dropout_2914 (Dropout)       (None, 16, 16, 64)        0         
_________________________________________________________________
separable_conv2d_2674 (Separ (None, 16, 16, 512)       33856     
_________________________________________________________________
batch_normalization_1708 (Ba (None, 16, 16, 512)       2048      
_________________________________________________________________
activation_2915 (Activation) (None, 16, 16, 512)       0         
_________________________________________________________________
dropout_2915 (Dropout)       (None, 16, 16, 512)       0         
_________________________________________________________________
max_pooling2d_697 (MaxPoolin (None, 8, 8, 512)         0         
_________________________________________________________________
separable_conv2d_2675 (Separ (None, 8, 8, 128)         70272     
_________________________________________________________________
activation_2916 (Activation) (None, 8, 8, 128)         0         
_________________________________________________________________
dropout_2916 (Dropout)       (None, 8, 8, 128)         0         
_________________________________________________________________
separable_conv2d_2676 (Separ (None, 8, 8, 32)          5280      
_________________________________________________________________
batch_normalization_1709 (Ba (None, 8, 8, 32)          128       
_________________________________________________________________
activation_2917 (Activation) (None, 8, 8, 32)          0         
_________________________________________________________________
dropout_2917 (Dropout)       (None, 8, 8, 32)          0         
_________________________________________________________________
separable_conv2d_2677 (Separ (None, 8, 8, 256)         8736      
_________________________________________________________________
batch_normalization_1710 (Ba (None, 8, 8, 256)         1024      
_________________________________________________________________
activation_2918 (Activation) (None, 8, 8, 256)         0         
_________________________________________________________________
dropout_2918 (Dropout)       (None, 8, 8, 256)         0         
_________________________________________________________________
max_pooling2d_698 (MaxPoolin (None, 4, 4, 256)         0         
_________________________________________________________________
flatten_238 (Flatten)        (None, 4096)              0         
_________________________________________________________________
dense_479 (Dense)            (None, 2048)              8390656   
_________________________________________________________________
batch_normalization_1711 (Ba (None, 2048)              8192      
_________________________________________________________________
activation_2919 (Activation) (None, 2048)              0         
_________________________________________________________________
dropout_2919 (Dropout)       (None, 2048)              0         
_________________________________________________________________
dense_480 (Dense)            (None, 100)               204900    
=================================================================
Total params: 8,754,127
Trainable params: 8,747,535
Non-trainable params: 6,592
_________________________________________________________________
