Model: "sequential_107"
_________________________________________________________________
Layer (type)                 Output Shape              Param #   
=================================================================
separable_conv2d_1240 (Separ (None, 32, 32, 32)        155       
_________________________________________________________________
activation_1350 (Activation) (None, 32, 32, 32)        0         
_________________________________________________________________
dropout_1350 (Dropout)       (None, 32, 32, 32)        0         
_________________________________________________________________
separable_conv2d_1241 (Separ (None, 32, 32, 256)       8736      
_________________________________________________________________
batch_normalization_798 (Bat (None, 32, 32, 256)       1024      
_________________________________________________________________
activation_1351 (Activation) (None, 32, 32, 256)       0         
_________________________________________________________________
dropout_1351 (Dropout)       (None, 32, 32, 256)       0         
_________________________________________________________________
separable_conv2d_1242 (Separ (None, 32, 32, 8)         4360      
_________________________________________________________________
activation_1352 (Activation) (None, 32, 32, 8)         0         
_________________________________________________________________
dropout_1352 (Dropout)       (None, 32, 32, 8)         0         
_________________________________________________________________
separable_conv2d_1243 (Separ (None, 32, 32, 64)        648       
_________________________________________________________________
activation_1353 (Activation) (None, 32, 32, 64)        0         
_________________________________________________________________
dropout_1353 (Dropout)       (None, 32, 32, 64)        0         
_________________________________________________________________
max_pooling2d_310 (MaxPoolin (None, 16, 16, 64)        0         
_________________________________________________________________
separable_conv2d_1244 (Separ (None, 16, 16, 8)         1096      
_________________________________________________________________
activation_1354 (Activation) (None, 16, 16, 8)         0         
_________________________________________________________________
dropout_1354 (Dropout)       (None, 16, 16, 8)         0         
_________________________________________________________________
separable_conv2d_1245 (Separ (None, 16, 16, 128)       1224      
_________________________________________________________________
batch_normalization_799 (Bat (None, 16, 16, 128)       512       
_________________________________________________________________
activation_1355 (Activation) (None, 16, 16, 128)       0         
_________________________________________________________________
dropout_1355 (Dropout)       (None, 16, 16, 128)       0         
_________________________________________________________________
separable_conv2d_1246 (Separ (None, 16, 16, 64)        9408      
_________________________________________________________________
batch_normalization_800 (Bat (None, 16, 16, 64)        256       
_________________________________________________________________
activation_1356 (Activation) (None, 16, 16, 64)        0         
_________________________________________________________________
dropout_1356 (Dropout)       (None, 16, 16, 64)        0         
_________________________________________________________________
separable_conv2d_1247 (Separ (None, 16, 16, 512)       33856     
_________________________________________________________________
batch_normalization_801 (Bat (None, 16, 16, 512)       2048      
_________________________________________________________________
activation_1357 (Activation) (None, 16, 16, 512)       0         
_________________________________________________________________
dropout_1357 (Dropout)       (None, 16, 16, 512)       0         
_________________________________________________________________
max_pooling2d_311 (MaxPoolin (None, 8, 8, 512)         0         
_________________________________________________________________
separable_conv2d_1248 (Separ (None, 8, 8, 128)         70272     
_________________________________________________________________
activation_1358 (Activation) (None, 8, 8, 128)         0         
_________________________________________________________________
dropout_1358 (Dropout)       (None, 8, 8, 128)         0         
_________________________________________________________________
separable_conv2d_1249 (Separ (None, 8, 8, 32)          5280      
_________________________________________________________________
batch_normalization_802 (Bat (None, 8, 8, 32)          128       
_________________________________________________________________
activation_1359 (Activation) (None, 8, 8, 32)          0         
_________________________________________________________________
dropout_1359 (Dropout)       (None, 8, 8, 32)          0         
_________________________________________________________________
separable_conv2d_1250 (Separ (None, 8, 8, 256)         8736      
_________________________________________________________________
batch_normalization_803 (Bat (None, 8, 8, 256)         1024      
_________________________________________________________________
activation_1360 (Activation) (None, 8, 8, 256)         0         
_________________________________________________________________
dropout_1360 (Dropout)       (None, 8, 8, 256)         0         
_________________________________________________________________
max_pooling2d_312 (MaxPoolin (None, 4, 4, 256)         0         
_________________________________________________________________
flatten_107 (Flatten)        (None, 4096)              0         
_________________________________________________________________
dense_217 (Dense)            (None, 2048)              8390656   
_________________________________________________________________
batch_normalization_804 (Bat (None, 2048)              8192      
_________________________________________________________________
activation_1361 (Activation) (None, 2048)              0         
_________________________________________________________________
dropout_1361 (Dropout)       (None, 2048)              0         
_________________________________________________________________
dense_218 (Dense)            (None, 100)               204900    
=================================================================
Total params: 8,752,511
Trainable params: 8,745,919
Non-trainable params: 6,592
_________________________________________________________________
