Model: "sequential_119"
_________________________________________________________________
Layer (type)                 Output Shape              Param #   
=================================================================
separable_conv2d_1375 (Separ (None, 32, 32, 32)        155       
_________________________________________________________________
activation_1497 (Activation) (None, 32, 32, 32)        0         
_________________________________________________________________
dropout_1497 (Dropout)       (None, 32, 32, 32)        0         
_________________________________________________________________
separable_conv2d_1376 (Separ (None, 32, 32, 128)       4512      
_________________________________________________________________
batch_normalization_891 (Bat (None, 32, 32, 128)       512       
_________________________________________________________________
activation_1498 (Activation) (None, 32, 32, 128)       0         
_________________________________________________________________
dropout_1498 (Dropout)       (None, 32, 32, 128)       0         
_________________________________________________________________
separable_conv2d_1377 (Separ (None, 32, 32, 8)         2184      
_________________________________________________________________
batch_normalization_892 (Bat (None, 32, 32, 8)         32        
_________________________________________________________________
activation_1499 (Activation) (None, 32, 32, 8)         0         
_________________________________________________________________
dropout_1499 (Dropout)       (None, 32, 32, 8)         0         
_________________________________________________________________
separable_conv2d_1378 (Separ (None, 32, 32, 64)        648       
_________________________________________________________________
activation_1500 (Activation) (None, 32, 32, 64)        0         
_________________________________________________________________
dropout_1500 (Dropout)       (None, 32, 32, 64)        0         
_________________________________________________________________
max_pooling2d_346 (MaxPoolin (None, 16, 16, 64)        0         
_________________________________________________________________
separable_conv2d_1379 (Separ (None, 16, 16, 8)         1096      
_________________________________________________________________
activation_1501 (Activation) (None, 16, 16, 8)         0         
_________________________________________________________________
dropout_1501 (Dropout)       (None, 16, 16, 8)         0         
_________________________________________________________________
separable_conv2d_1380 (Separ (None, 16, 16, 128)       1224      
_________________________________________________________________
batch_normalization_893 (Bat (None, 16, 16, 128)       512       
_________________________________________________________________
activation_1502 (Activation) (None, 16, 16, 128)       0         
_________________________________________________________________
dropout_1502 (Dropout)       (None, 16, 16, 128)       0         
_________________________________________________________________
separable_conv2d_1381 (Separ (None, 16, 16, 64)        9408      
_________________________________________________________________
batch_normalization_894 (Bat (None, 16, 16, 64)        256       
_________________________________________________________________
activation_1503 (Activation) (None, 16, 16, 64)        0         
_________________________________________________________________
dropout_1503 (Dropout)       (None, 16, 16, 64)        0         
_________________________________________________________________
separable_conv2d_1382 (Separ (None, 16, 16, 512)       33856     
_________________________________________________________________
batch_normalization_895 (Bat (None, 16, 16, 512)       2048      
_________________________________________________________________
activation_1504 (Activation) (None, 16, 16, 512)       0         
_________________________________________________________________
dropout_1504 (Dropout)       (None, 16, 16, 512)       0         
_________________________________________________________________
max_pooling2d_347 (MaxPoolin (None, 8, 8, 512)         0         
_________________________________________________________________
separable_conv2d_1383 (Separ (None, 8, 8, 32)          21024     
_________________________________________________________________
batch_normalization_896 (Bat (None, 8, 8, 32)          128       
_________________________________________________________________
activation_1505 (Activation) (None, 8, 8, 32)          0         
_________________________________________________________________
dropout_1505 (Dropout)       (None, 8, 8, 32)          0         
_________________________________________________________________
max_pooling2d_348 (MaxPoolin (None, 4, 4, 32)          0         
_________________________________________________________________
separable_conv2d_1384 (Separ (None, 4, 4, 128)         4512      
_________________________________________________________________
activation_1506 (Activation) (None, 4, 4, 128)         0         
_________________________________________________________________
dropout_1506 (Dropout)       (None, 4, 4, 128)         0         
_________________________________________________________________
separable_conv2d_1385 (Separ (None, 4, 4, 32)          5280      
_________________________________________________________________
batch_normalization_897 (Bat (None, 4, 4, 32)          128       
_________________________________________________________________
activation_1507 (Activation) (None, 4, 4, 32)          0         
_________________________________________________________________
dropout_1507 (Dropout)       (None, 4, 4, 32)          0         
_________________________________________________________________
separable_conv2d_1386 (Separ (None, 4, 4, 256)         8736      
_________________________________________________________________
batch_normalization_898 (Bat (None, 4, 4, 256)         1024      
_________________________________________________________________
activation_1508 (Activation) (None, 4, 4, 256)         0         
_________________________________________________________________
dropout_1508 (Dropout)       (None, 4, 4, 256)         0         
_________________________________________________________________
flatten_119 (Flatten)        (None, 4096)              0         
_________________________________________________________________
dense_241 (Dense)            (None, 2048)              8390656   
_________________________________________________________________
batch_normalization_899 (Bat (None, 2048)              8192      
_________________________________________________________________
activation_1509 (Activation) (None, 2048)              0         
_________________________________________________________________
dropout_1509 (Dropout)       (None, 2048)              0         
_________________________________________________________________
dense_242 (Dense)            (None, 100)               204900    
=================================================================
Total params: 8,701,023
Trainable params: 8,694,607
Non-trainable params: 6,416
_________________________________________________________________
