Model: "sequential_177"
_________________________________________________________________
Layer (type)                 Output Shape              Param #   
=================================================================
separable_conv2d_2012 (Separ (None, 32, 32, 32)        155       
_________________________________________________________________
activation_2192 (Activation) (None, 32, 32, 32)        0         
_________________________________________________________________
dropout_2192 (Dropout)       (None, 32, 32, 32)        0         
_________________________________________________________________
separable_conv2d_2013 (Separ (None, 32, 32, 256)       8736      
_________________________________________________________________
batch_normalization_1302 (Ba (None, 32, 32, 256)       1024      
_________________________________________________________________
activation_2193 (Activation) (None, 32, 32, 256)       0         
_________________________________________________________________
dropout_2193 (Dropout)       (None, 32, 32, 256)       0         
_________________________________________________________________
separable_conv2d_2014 (Separ (None, 32, 32, 8)         4360      
_________________________________________________________________
activation_2194 (Activation) (None, 32, 32, 8)         0         
_________________________________________________________________
dropout_2194 (Dropout)       (None, 32, 32, 8)         0         
_________________________________________________________________
separable_conv2d_2015 (Separ (None, 32, 32, 64)        648       
_________________________________________________________________
activation_2195 (Activation) (None, 32, 32, 64)        0         
_________________________________________________________________
dropout_2195 (Dropout)       (None, 32, 32, 64)        0         
_________________________________________________________________
max_pooling2d_519 (MaxPoolin (None, 16, 16, 64)        0         
_________________________________________________________________
separable_conv2d_2016 (Separ (None, 16, 16, 16)        1616      
_________________________________________________________________
activation_2196 (Activation) (None, 16, 16, 16)        0         
_________________________________________________________________
dropout_2196 (Dropout)       (None, 16, 16, 16)        0         
_________________________________________________________________
separable_conv2d_2017 (Separ (None, 16, 16, 256)       4496      
_________________________________________________________________
batch_normalization_1303 (Ba (None, 16, 16, 256)       1024      
_________________________________________________________________
activation_2197 (Activation) (None, 16, 16, 256)       0         
_________________________________________________________________
dropout_2197 (Dropout)       (None, 16, 16, 256)       0         
_________________________________________________________________
separable_conv2d_2018 (Separ (None, 16, 16, 64)        18752     
_________________________________________________________________
batch_normalization_1304 (Ba (None, 16, 16, 64)        256       
_________________________________________________________________
activation_2198 (Activation) (None, 16, 16, 64)        0         
_________________________________________________________________
dropout_2198 (Dropout)       (None, 16, 16, 64)        0         
_________________________________________________________________
separable_conv2d_2019 (Separ (None, 16, 16, 512)       33856     
_________________________________________________________________
batch_normalization_1305 (Ba (None, 16, 16, 512)       2048      
_________________________________________________________________
activation_2199 (Activation) (None, 16, 16, 512)       0         
_________________________________________________________________
dropout_2199 (Dropout)       (None, 16, 16, 512)       0         
_________________________________________________________________
max_pooling2d_520 (MaxPoolin (None, 8, 8, 512)         0         
_________________________________________________________________
separable_conv2d_2020 (Separ (None, 8, 8, 128)         70272     
_________________________________________________________________
activation_2200 (Activation) (None, 8, 8, 128)         0         
_________________________________________________________________
dropout_2200 (Dropout)       (None, 8, 8, 128)         0         
_________________________________________________________________
separable_conv2d_2021 (Separ (None, 8, 8, 32)          5280      
_________________________________________________________________
batch_normalization_1306 (Ba (None, 8, 8, 32)          128       
_________________________________________________________________
activation_2201 (Activation) (None, 8, 8, 32)          0         
_________________________________________________________________
dropout_2201 (Dropout)       (None, 8, 8, 32)          0         
_________________________________________________________________
separable_conv2d_2022 (Separ (None, 8, 8, 256)         8736      
_________________________________________________________________
batch_normalization_1307 (Ba (None, 8, 8, 256)         1024      
_________________________________________________________________
activation_2202 (Activation) (None, 8, 8, 256)         0         
_________________________________________________________________
dropout_2202 (Dropout)       (None, 8, 8, 256)         0         
_________________________________________________________________
max_pooling2d_521 (MaxPoolin (None, 4, 4, 256)         0         
_________________________________________________________________
flatten_177 (Flatten)        (None, 4096)              0         
_________________________________________________________________
dense_357 (Dense)            (None, 2048)              8390656   
_________________________________________________________________
batch_normalization_1308 (Ba (None, 2048)              8192      
_________________________________________________________________
activation_2203 (Activation) (None, 2048)              0         
_________________________________________________________________
dropout_2203 (Dropout)       (None, 2048)              0         
_________________________________________________________________
dense_358 (Dense)            (None, 100)               204900    
=================================================================
Total params: 8,766,159
Trainable params: 8,759,311
Non-trainable params: 6,848
_________________________________________________________________
