Model: "sequential_157"
_________________________________________________________________
Layer (type)                 Output Shape              Param #   
=================================================================
separable_conv2d_1796 (Separ (None, 32, 32, 32)        155       
_________________________________________________________________
activation_1956 (Activation) (None, 32, 32, 32)        0         
_________________________________________________________________
dropout_1956 (Dropout)       (None, 32, 32, 32)        0         
_________________________________________________________________
separable_conv2d_1797 (Separ (None, 32, 32, 128)       4512      
_________________________________________________________________
batch_normalization_1166 (Ba (None, 32, 32, 128)       512       
_________________________________________________________________
activation_1957 (Activation) (None, 32, 32, 128)       0         
_________________________________________________________________
dropout_1957 (Dropout)       (None, 32, 32, 128)       0         
_________________________________________________________________
separable_conv2d_1798 (Separ (None, 32, 32, 8)         2184      
_________________________________________________________________
activation_1958 (Activation) (None, 32, 32, 8)         0         
_________________________________________________________________
dropout_1958 (Dropout)       (None, 32, 32, 8)         0         
_________________________________________________________________
separable_conv2d_1799 (Separ (None, 32, 32, 64)        648       
_________________________________________________________________
activation_1959 (Activation) (None, 32, 32, 64)        0         
_________________________________________________________________
dropout_1959 (Dropout)       (None, 32, 32, 64)        0         
_________________________________________________________________
max_pooling2d_460 (MaxPoolin (None, 16, 16, 64)        0         
_________________________________________________________________
separable_conv2d_1800 (Separ (None, 16, 16, 8)         1096      
_________________________________________________________________
activation_1960 (Activation) (None, 16, 16, 8)         0         
_________________________________________________________________
dropout_1960 (Dropout)       (None, 16, 16, 8)         0         
_________________________________________________________________
separable_conv2d_1801 (Separ (None, 16, 16, 128)       1224      
_________________________________________________________________
batch_normalization_1167 (Ba (None, 16, 16, 128)       512       
_________________________________________________________________
activation_1961 (Activation) (None, 16, 16, 128)       0         
_________________________________________________________________
dropout_1961 (Dropout)       (None, 16, 16, 128)       0         
_________________________________________________________________
separable_conv2d_1802 (Separ (None, 16, 16, 64)        9408      
_________________________________________________________________
batch_normalization_1168 (Ba (None, 16, 16, 64)        256       
_________________________________________________________________
activation_1962 (Activation) (None, 16, 16, 64)        0         
_________________________________________________________________
dropout_1962 (Dropout)       (None, 16, 16, 64)        0         
_________________________________________________________________
separable_conv2d_1803 (Separ (None, 16, 16, 512)       33856     
_________________________________________________________________
batch_normalization_1169 (Ba (None, 16, 16, 512)       2048      
_________________________________________________________________
activation_1963 (Activation) (None, 16, 16, 512)       0         
_________________________________________________________________
dropout_1963 (Dropout)       (None, 16, 16, 512)       0         
_________________________________________________________________
max_pooling2d_461 (MaxPoolin (None, 8, 8, 512)         0         
_________________________________________________________________
separable_conv2d_1804 (Separ (None, 8, 8, 128)         70272     
_________________________________________________________________
activation_1964 (Activation) (None, 8, 8, 128)         0         
_________________________________________________________________
dropout_1964 (Dropout)       (None, 8, 8, 128)         0         
_________________________________________________________________
separable_conv2d_1805 (Separ (None, 8, 8, 32)          5280      
_________________________________________________________________
batch_normalization_1170 (Ba (None, 8, 8, 32)          128       
_________________________________________________________________
activation_1965 (Activation) (None, 8, 8, 32)          0         
_________________________________________________________________
dropout_1965 (Dropout)       (None, 8, 8, 32)          0         
_________________________________________________________________
separable_conv2d_1806 (Separ (None, 8, 8, 256)         8736      
_________________________________________________________________
batch_normalization_1171 (Ba (None, 8, 8, 256)         1024      
_________________________________________________________________
activation_1966 (Activation) (None, 8, 8, 256)         0         
_________________________________________________________________
dropout_1966 (Dropout)       (None, 8, 8, 256)         0         
_________________________________________________________________
max_pooling2d_462 (MaxPoolin (None, 4, 4, 256)         0         
_________________________________________________________________
flatten_157 (Flatten)        (None, 4096)              0         
_________________________________________________________________
dense_317 (Dense)            (None, 2048)              8390656   
_________________________________________________________________
batch_normalization_1172 (Ba (None, 2048)              8192      
_________________________________________________________________
activation_1967 (Activation) (None, 2048)              0         
_________________________________________________________________
dropout_1967 (Dropout)       (None, 2048)              0         
_________________________________________________________________
dense_318 (Dense)            (None, 100)               204900    
=================================================================
Total params: 8,745,599
Trainable params: 8,739,263
Non-trainable params: 6,336
_________________________________________________________________
