Model: "sequential_114"
_________________________________________________________________
Layer (type)                 Output Shape              Param #   
=================================================================
separable_conv2d_1319 (Separ (None, 32, 32, 32)        155       
_________________________________________________________________
activation_1436 (Activation) (None, 32, 32, 32)        0         
_________________________________________________________________
dropout_1436 (Dropout)       (None, 32, 32, 32)        0         
_________________________________________________________________
separable_conv2d_1320 (Separ (None, 32, 32, 128)       4512      
_________________________________________________________________
batch_normalization_853 (Bat (None, 32, 32, 128)       512       
_________________________________________________________________
activation_1437 (Activation) (None, 32, 32, 128)       0         
_________________________________________________________________
dropout_1437 (Dropout)       (None, 32, 32, 128)       0         
_________________________________________________________________
separable_conv2d_1321 (Separ (None, 32, 32, 8)         2184      
_________________________________________________________________
activation_1438 (Activation) (None, 32, 32, 8)         0         
_________________________________________________________________
dropout_1438 (Dropout)       (None, 32, 32, 8)         0         
_________________________________________________________________
separable_conv2d_1322 (Separ (None, 32, 32, 64)        648       
_________________________________________________________________
activation_1439 (Activation) (None, 32, 32, 64)        0         
_________________________________________________________________
dropout_1439 (Dropout)       (None, 32, 32, 64)        0         
_________________________________________________________________
max_pooling2d_331 (MaxPoolin (None, 16, 16, 64)        0         
_________________________________________________________________
separable_conv2d_1323 (Separ (None, 16, 16, 8)         1096      
_________________________________________________________________
activation_1440 (Activation) (None, 16, 16, 8)         0         
_________________________________________________________________
dropout_1440 (Dropout)       (None, 16, 16, 8)         0         
_________________________________________________________________
separable_conv2d_1324 (Separ (None, 16, 16, 128)       1224      
_________________________________________________________________
batch_normalization_854 (Bat (None, 16, 16, 128)       512       
_________________________________________________________________
activation_1441 (Activation) (None, 16, 16, 128)       0         
_________________________________________________________________
dropout_1441 (Dropout)       (None, 16, 16, 128)       0         
_________________________________________________________________
separable_conv2d_1325 (Separ (None, 16, 16, 64)        9408      
_________________________________________________________________
batch_normalization_855 (Bat (None, 16, 16, 64)        256       
_________________________________________________________________
activation_1442 (Activation) (None, 16, 16, 64)        0         
_________________________________________________________________
dropout_1442 (Dropout)       (None, 16, 16, 64)        0         
_________________________________________________________________
separable_conv2d_1326 (Separ (None, 16, 16, 512)       33856     
_________________________________________________________________
batch_normalization_856 (Bat (None, 16, 16, 512)       2048      
_________________________________________________________________
activation_1443 (Activation) (None, 16, 16, 512)       0         
_________________________________________________________________
dropout_1443 (Dropout)       (None, 16, 16, 512)       0         
_________________________________________________________________
max_pooling2d_332 (MaxPoolin (None, 8, 8, 512)         0         
_________________________________________________________________
separable_conv2d_1327 (Separ (None, 8, 8, 32)          21024     
_________________________________________________________________
batch_normalization_857 (Bat (None, 8, 8, 32)          128       
_________________________________________________________________
activation_1444 (Activation) (None, 8, 8, 32)          0         
_________________________________________________________________
dropout_1444 (Dropout)       (None, 8, 8, 32)          0         
_________________________________________________________________
separable_conv2d_1328 (Separ (None, 8, 8, 32)          1344      
_________________________________________________________________
batch_normalization_858 (Bat (None, 8, 8, 32)          128       
_________________________________________________________________
activation_1445 (Activation) (None, 8, 8, 32)          0         
_________________________________________________________________
dropout_1445 (Dropout)       (None, 8, 8, 32)          0         
_________________________________________________________________
separable_conv2d_1329 (Separ (None, 8, 8, 512)         17184     
_________________________________________________________________
batch_normalization_859 (Bat (None, 8, 8, 512)         2048      
_________________________________________________________________
activation_1446 (Activation) (None, 8, 8, 512)         0         
_________________________________________________________________
dropout_1446 (Dropout)       (None, 8, 8, 512)         0         
_________________________________________________________________
max_pooling2d_333 (MaxPoolin (None, 4, 4, 512)         0         
_________________________________________________________________
flatten_114 (Flatten)        (None, 8192)              0         
_________________________________________________________________
dense_231 (Dense)            (None, 2048)              16779264  
_________________________________________________________________
batch_normalization_860 (Bat (None, 2048)              8192      
_________________________________________________________________
activation_1447 (Activation) (None, 2048)              0         
_________________________________________________________________
dropout_1447 (Dropout)       (None, 2048)              0         
_________________________________________________________________
dense_232 (Dense)            (None, 100)               204900    
=================================================================
Total params: 17,090,623
Trainable params: 17,083,711
Non-trainable params: 6,912
_________________________________________________________________
