Model: "sequential_266"
_________________________________________________________________
Layer (type)                 Output Shape              Param #   
=================================================================
separable_conv2d_2961 (Separ (None, 32, 32, 32)        155       
_________________________________________________________________
activation_3230 (Activation) (None, 32, 32, 32)        0         
_________________________________________________________________
dropout_3230 (Dropout)       (None, 32, 32, 32)        0         
_________________________________________________________________
separable_conv2d_2962 (Separ (None, 32, 32, 256)       8736      
_________________________________________________________________
batch_normalization_1889 (Ba (None, 32, 32, 256)       1024      
_________________________________________________________________
activation_3231 (Activation) (None, 32, 32, 256)       0         
_________________________________________________________________
dropout_3231 (Dropout)       (None, 32, 32, 256)       0         
_________________________________________________________________
separable_conv2d_2963 (Separ (None, 32, 32, 8)         4360      
_________________________________________________________________
activation_3232 (Activation) (None, 32, 32, 8)         0         
_________________________________________________________________
dropout_3232 (Dropout)       (None, 32, 32, 8)         0         
_________________________________________________________________
separable_conv2d_2964 (Separ (None, 32, 32, 64)        648       
_________________________________________________________________
activation_3233 (Activation) (None, 32, 32, 64)        0         
_________________________________________________________________
dropout_3233 (Dropout)       (None, 32, 32, 64)        0         
_________________________________________________________________
max_pooling2d_773 (MaxPoolin (None, 16, 16, 64)        0         
_________________________________________________________________
separable_conv2d_2965 (Separ (None, 16, 16, 16)        1616      
_________________________________________________________________
activation_3234 (Activation) (None, 16, 16, 16)        0         
_________________________________________________________________
dropout_3234 (Dropout)       (None, 16, 16, 16)        0         
_________________________________________________________________
separable_conv2d_2966 (Separ (None, 16, 16, 256)       4496      
_________________________________________________________________
batch_normalization_1890 (Ba (None, 16, 16, 256)       1024      
_________________________________________________________________
activation_3235 (Activation) (None, 16, 16, 256)       0         
_________________________________________________________________
dropout_3235 (Dropout)       (None, 16, 16, 256)       0         
_________________________________________________________________
separable_conv2d_2967 (Separ (None, 16, 16, 64)        18752     
_________________________________________________________________
batch_normalization_1891 (Ba (None, 16, 16, 64)        256       
_________________________________________________________________
activation_3236 (Activation) (None, 16, 16, 64)        0         
_________________________________________________________________
dropout_3236 (Dropout)       (None, 16, 16, 64)        0         
_________________________________________________________________
separable_conv2d_2968 (Separ (None, 16, 16, 512)       33856     
_________________________________________________________________
batch_normalization_1892 (Ba (None, 16, 16, 512)       2048      
_________________________________________________________________
activation_3237 (Activation) (None, 16, 16, 512)       0         
_________________________________________________________________
dropout_3237 (Dropout)       (None, 16, 16, 512)       0         
_________________________________________________________________
max_pooling2d_774 (MaxPoolin (None, 8, 8, 512)         0         
_________________________________________________________________
separable_conv2d_2969 (Separ (None, 8, 8, 128)         70272     
_________________________________________________________________
activation_3238 (Activation) (None, 8, 8, 128)         0         
_________________________________________________________________
dropout_3238 (Dropout)       (None, 8, 8, 128)         0         
_________________________________________________________________
separable_conv2d_2970 (Separ (None, 8, 8, 32)          5280      
_________________________________________________________________
activation_3239 (Activation) (None, 8, 8, 32)          0         
_________________________________________________________________
dropout_3239 (Dropout)       (None, 8, 8, 32)          0         
_________________________________________________________________
separable_conv2d_2971 (Separ (None, 8, 8, 256)         8736      
_________________________________________________________________
batch_normalization_1893 (Ba (None, 8, 8, 256)         1024      
_________________________________________________________________
activation_3240 (Activation) (None, 8, 8, 256)         0         
_________________________________________________________________
dropout_3240 (Dropout)       (None, 8, 8, 256)         0         
_________________________________________________________________
max_pooling2d_775 (MaxPoolin (None, 4, 4, 256)         0         
_________________________________________________________________
flatten_266 (Flatten)        (None, 4096)              0         
_________________________________________________________________
dense_535 (Dense)            (None, 2048)              8390656   
_________________________________________________________________
batch_normalization_1894 (Ba (None, 2048)              8192      
_________________________________________________________________
activation_3241 (Activation) (None, 2048)              0         
_________________________________________________________________
dropout_3241 (Dropout)       (None, 2048)              0         
_________________________________________________________________
dense_536 (Dense)            (None, 100)               204900    
=================================================================
Total params: 8,766,031
Trainable params: 8,759,247
Non-trainable params: 6,784
_________________________________________________________________
