Model: "sequential_121"
_________________________________________________________________
Layer (type)                 Output Shape              Param #   
=================================================================
separable_conv2d_1398 (Separ (None, 32, 32, 32)        155       
_________________________________________________________________
activation_1522 (Activation) (None, 32, 32, 32)        0         
_________________________________________________________________
dropout_1522 (Dropout)       (None, 32, 32, 32)        0         
_________________________________________________________________
separable_conv2d_1399 (Separ (None, 32, 32, 256)       8736      
_________________________________________________________________
batch_normalization_908 (Bat (None, 32, 32, 256)       1024      
_________________________________________________________________
activation_1523 (Activation) (None, 32, 32, 256)       0         
_________________________________________________________________
dropout_1523 (Dropout)       (None, 32, 32, 256)       0         
_________________________________________________________________
separable_conv2d_1400 (Separ (None, 32, 32, 512)       133888    
_________________________________________________________________
activation_1524 (Activation) (None, 32, 32, 512)       0         
_________________________________________________________________
dropout_1524 (Dropout)       (None, 32, 32, 512)       0         
_________________________________________________________________
separable_conv2d_1401 (Separ (None, 32, 32, 64)        37440     
_________________________________________________________________
activation_1525 (Activation) (None, 32, 32, 64)        0         
_________________________________________________________________
dropout_1525 (Dropout)       (None, 32, 32, 64)        0         
_________________________________________________________________
max_pooling2d_352 (MaxPoolin (None, 16, 16, 64)        0         
_________________________________________________________________
separable_conv2d_1402 (Separ (None, 16, 16, 8)         1096      
_________________________________________________________________
activation_1526 (Activation) (None, 16, 16, 8)         0         
_________________________________________________________________
dropout_1526 (Dropout)       (None, 16, 16, 8)         0         
_________________________________________________________________
separable_conv2d_1403 (Separ (None, 16, 16, 128)       1224      
_________________________________________________________________
batch_normalization_909 (Bat (None, 16, 16, 128)       512       
_________________________________________________________________
activation_1527 (Activation) (None, 16, 16, 128)       0         
_________________________________________________________________
dropout_1527 (Dropout)       (None, 16, 16, 128)       0         
_________________________________________________________________
separable_conv2d_1404 (Separ (None, 16, 16, 64)        9408      
_________________________________________________________________
batch_normalization_910 (Bat (None, 16, 16, 64)        256       
_________________________________________________________________
activation_1528 (Activation) (None, 16, 16, 64)        0         
_________________________________________________________________
dropout_1528 (Dropout)       (None, 16, 16, 64)        0         
_________________________________________________________________
separable_conv2d_1405 (Separ (None, 16, 16, 512)       33856     
_________________________________________________________________
batch_normalization_911 (Bat (None, 16, 16, 512)       2048      
_________________________________________________________________
activation_1529 (Activation) (None, 16, 16, 512)       0         
_________________________________________________________________
dropout_1529 (Dropout)       (None, 16, 16, 512)       0         
_________________________________________________________________
max_pooling2d_353 (MaxPoolin (None, 8, 8, 512)         0         
_________________________________________________________________
separable_conv2d_1406 (Separ (None, 8, 8, 128)         70272     
_________________________________________________________________
activation_1530 (Activation) (None, 8, 8, 128)         0         
_________________________________________________________________
dropout_1530 (Dropout)       (None, 8, 8, 128)         0         
_________________________________________________________________
separable_conv2d_1407 (Separ (None, 8, 8, 32)          5280      
_________________________________________________________________
batch_normalization_912 (Bat (None, 8, 8, 32)          128       
_________________________________________________________________
activation_1531 (Activation) (None, 8, 8, 32)          0         
_________________________________________________________________
dropout_1531 (Dropout)       (None, 8, 8, 32)          0         
_________________________________________________________________
separable_conv2d_1408 (Separ (None, 8, 8, 256)         8736      
_________________________________________________________________
batch_normalization_913 (Bat (None, 8, 8, 256)         1024      
_________________________________________________________________
activation_1532 (Activation) (None, 8, 8, 256)         0         
_________________________________________________________________
dropout_1532 (Dropout)       (None, 8, 8, 256)         0         
_________________________________________________________________
max_pooling2d_354 (MaxPoolin (None, 4, 4, 256)         0         
_________________________________________________________________
flatten_121 (Flatten)        (None, 4096)              0         
_________________________________________________________________
dense_245 (Dense)            (None, 2048)              8390656   
_________________________________________________________________
batch_normalization_914 (Bat (None, 2048)              8192      
_________________________________________________________________
activation_1533 (Activation) (None, 2048)              0         
_________________________________________________________________
dropout_1533 (Dropout)       (None, 2048)              0         
_________________________________________________________________
dense_246 (Dense)            (None, 100)               204900    
=================================================================
Total params: 8,918,831
Trainable params: 8,912,239
Non-trainable params: 6,592
_________________________________________________________________
