Model: "sequential_192"
_________________________________________________________________
Layer (type)                 Output Shape              Param #   
=================================================================
separable_conv2d_2175 (Separ (None, 32, 32, 32)        155       
_________________________________________________________________
activation_2370 (Activation) (None, 32, 32, 32)        0         
_________________________________________________________________
dropout_2370 (Dropout)       (None, 32, 32, 32)        0         
_________________________________________________________________
max_pooling2d_563 (MaxPoolin (None, 16, 16, 32)        0         
_________________________________________________________________
separable_conv2d_2176 (Separ (None, 16, 16, 256)       8736      
_________________________________________________________________
batch_normalization_1405 (Ba (None, 16, 16, 256)       1024      
_________________________________________________________________
activation_2371 (Activation) (None, 16, 16, 256)       0         
_________________________________________________________________
dropout_2371 (Dropout)       (None, 16, 16, 256)       0         
_________________________________________________________________
separable_conv2d_2177 (Separ (None, 16, 16, 8)         4360      
_________________________________________________________________
activation_2372 (Activation) (None, 16, 16, 8)         0         
_________________________________________________________________
dropout_2372 (Dropout)       (None, 16, 16, 8)         0         
_________________________________________________________________
max_pooling2d_564 (MaxPoolin (None, 8, 8, 8)           0         
_________________________________________________________________
separable_conv2d_2178 (Separ (None, 8, 8, 64)          648       
_________________________________________________________________
activation_2373 (Activation) (None, 8, 8, 64)          0         
_________________________________________________________________
dropout_2373 (Dropout)       (None, 8, 8, 64)          0         
_________________________________________________________________
max_pooling2d_565 (MaxPoolin (None, 4, 4, 64)          0         
_________________________________________________________________
separable_conv2d_2179 (Separ (None, 4, 4, 8)           1096      
_________________________________________________________________
activation_2374 (Activation) (None, 4, 4, 8)           0         
_________________________________________________________________
dropout_2374 (Dropout)       (None, 4, 4, 8)           0         
_________________________________________________________________
separable_conv2d_2180 (Separ (None, 4, 4, 128)         1224      
_________________________________________________________________
batch_normalization_1406 (Ba (None, 4, 4, 128)         512       
_________________________________________________________________
activation_2375 (Activation) (None, 4, 4, 128)         0         
_________________________________________________________________
dropout_2375 (Dropout)       (None, 4, 4, 128)         0         
_________________________________________________________________
separable_conv2d_2181 (Separ (None, 4, 4, 64)          9408      
_________________________________________________________________
batch_normalization_1407 (Ba (None, 4, 4, 64)          256       
_________________________________________________________________
activation_2376 (Activation) (None, 4, 4, 64)          0         
_________________________________________________________________
dropout_2376 (Dropout)       (None, 4, 4, 64)          0         
_________________________________________________________________
separable_conv2d_2182 (Separ (None, 4, 4, 128)         8896      
_________________________________________________________________
activation_2377 (Activation) (None, 4, 4, 128)         0         
_________________________________________________________________
dropout_2377 (Dropout)       (None, 4, 4, 128)         0         
_________________________________________________________________
separable_conv2d_2183 (Separ (None, 4, 4, 32)          5280      
_________________________________________________________________
activation_2378 (Activation) (None, 4, 4, 32)          0         
_________________________________________________________________
dropout_2378 (Dropout)       (None, 4, 4, 32)          0         
_________________________________________________________________
separable_conv2d_2184 (Separ (None, 4, 4, 256)         8736      
_________________________________________________________________
batch_normalization_1408 (Ba (None, 4, 4, 256)         1024      
_________________________________________________________________
activation_2379 (Activation) (None, 4, 4, 256)         0         
_________________________________________________________________
dropout_2379 (Dropout)       (None, 4, 4, 256)         0         
_________________________________________________________________
flatten_192 (Flatten)        (None, 4096)              0         
_________________________________________________________________
dense_387 (Dense)            (None, 2048)              8390656   
_________________________________________________________________
batch_normalization_1409 (Ba (None, 2048)              8192      
_________________________________________________________________
activation_2380 (Activation) (None, 2048)              0         
_________________________________________________________________
dropout_2380 (Dropout)       (None, 2048)              0         
_________________________________________________________________
dense_388 (Dense)            (None, 100)               204900    
=================================================================
Total params: 8,655,103
Trainable params: 8,649,599
Non-trainable params: 5,504
_________________________________________________________________
