Model: "sequential_92"
_________________________________________________________________
Layer (type)                 Output Shape              Param #   
=================================================================
separable_conv2d_1068 (Separ (None, 32, 32, 32)        155       
_________________________________________________________________
activation_1163 (Activation) (None, 32, 32, 32)        0         
_________________________________________________________________
dropout_1163 (Dropout)       (None, 32, 32, 32)        0         
_________________________________________________________________
separable_conv2d_1069 (Separ (None, 32, 32, 128)       4512      
_________________________________________________________________
batch_normalization_683 (Bat (None, 32, 32, 128)       512       
_________________________________________________________________
activation_1164 (Activation) (None, 32, 32, 128)       0         
_________________________________________________________________
dropout_1164 (Dropout)       (None, 32, 32, 128)       0         
_________________________________________________________________
separable_conv2d_1070 (Separ (None, 32, 32, 8)         2184      
_________________________________________________________________
activation_1165 (Activation) (None, 32, 32, 8)         0         
_________________________________________________________________
dropout_1165 (Dropout)       (None, 32, 32, 8)         0         
_________________________________________________________________
separable_conv2d_1071 (Separ (None, 32, 32, 64)        648       
_________________________________________________________________
activation_1166 (Activation) (None, 32, 32, 64)        0         
_________________________________________________________________
dropout_1166 (Dropout)       (None, 32, 32, 64)        0         
_________________________________________________________________
max_pooling2d_265 (MaxPoolin (None, 16, 16, 64)        0         
_________________________________________________________________
separable_conv2d_1072 (Separ (None, 16, 16, 8)         1096      
_________________________________________________________________
activation_1167 (Activation) (None, 16, 16, 8)         0         
_________________________________________________________________
dropout_1167 (Dropout)       (None, 16, 16, 8)         0         
_________________________________________________________________
separable_conv2d_1073 (Separ (None, 16, 16, 128)       1224      
_________________________________________________________________
batch_normalization_684 (Bat (None, 16, 16, 128)       512       
_________________________________________________________________
activation_1168 (Activation) (None, 16, 16, 128)       0         
_________________________________________________________________
dropout_1168 (Dropout)       (None, 16, 16, 128)       0         
_________________________________________________________________
separable_conv2d_1074 (Separ (None, 16, 16, 64)        9408      
_________________________________________________________________
batch_normalization_685 (Bat (None, 16, 16, 64)        256       
_________________________________________________________________
activation_1169 (Activation) (None, 16, 16, 64)        0         
_________________________________________________________________
dropout_1169 (Dropout)       (None, 16, 16, 64)        0         
_________________________________________________________________
separable_conv2d_1075 (Separ (None, 16, 16, 512)       33856     
_________________________________________________________________
batch_normalization_686 (Bat (None, 16, 16, 512)       2048      
_________________________________________________________________
activation_1170 (Activation) (None, 16, 16, 512)       0         
_________________________________________________________________
dropout_1170 (Dropout)       (None, 16, 16, 512)       0         
_________________________________________________________________
max_pooling2d_266 (MaxPoolin (None, 8, 8, 512)         0         
_________________________________________________________________
separable_conv2d_1076 (Separ (None, 8, 8, 32)          21024     
_________________________________________________________________
batch_normalization_687 (Bat (None, 8, 8, 32)          128       
_________________________________________________________________
activation_1171 (Activation) (None, 8, 8, 32)          0         
_________________________________________________________________
dropout_1171 (Dropout)       (None, 8, 8, 32)          0         
_________________________________________________________________
max_pooling2d_267 (MaxPoolin (None, 4, 4, 32)          0         
_________________________________________________________________
separable_conv2d_1077 (Separ (None, 4, 4, 128)         4512      
_________________________________________________________________
activation_1172 (Activation) (None, 4, 4, 128)         0         
_________________________________________________________________
dropout_1172 (Dropout)       (None, 4, 4, 128)         0         
_________________________________________________________________
separable_conv2d_1078 (Separ (None, 4, 4, 32)          5280      
_________________________________________________________________
batch_normalization_688 (Bat (None, 4, 4, 32)          128       
_________________________________________________________________
activation_1173 (Activation) (None, 4, 4, 32)          0         
_________________________________________________________________
dropout_1173 (Dropout)       (None, 4, 4, 32)          0         
_________________________________________________________________
separable_conv2d_1079 (Separ (None, 4, 4, 512)         17184     
_________________________________________________________________
batch_normalization_689 (Bat (None, 4, 4, 512)         2048      
_________________________________________________________________
activation_1174 (Activation) (None, 4, 4, 512)         0         
_________________________________________________________________
dropout_1174 (Dropout)       (None, 4, 4, 512)         0         
_________________________________________________________________
flatten_92 (Flatten)         (None, 8192)              0         
_________________________________________________________________
dense_187 (Dense)            (None, 2048)              16779264  
_________________________________________________________________
batch_normalization_690 (Bat (None, 2048)              8192      
_________________________________________________________________
activation_1175 (Activation) (None, 2048)              0         
_________________________________________________________________
dropout_1175 (Dropout)       (None, 2048)              0         
_________________________________________________________________
dense_188 (Dense)            (None, 100)               204900    
=================================================================
Total params: 17,099,071
Trainable params: 17,092,159
Non-trainable params: 6,912
_________________________________________________________________
