Model: "sequential_374"
_________________________________________________________________
Layer (type)                 Output Shape              Param #   
=================================================================
separable_conv2d_3999 (Separ (None, 32, 32, 32)        155       
_________________________________________________________________
activation_4376 (Activation) (None, 32, 32, 32)        0         
_________________________________________________________________
dropout_4376 (Dropout)       (None, 32, 32, 32)        0         
_________________________________________________________________
separable_conv2d_4000 (Separ (None, 32, 32, 256)       8736      
_________________________________________________________________
batch_normalization_2498 (Ba (None, 32, 32, 256)       1024      
_________________________________________________________________
activation_4377 (Activation) (None, 32, 32, 256)       0         
_________________________________________________________________
dropout_4377 (Dropout)       (None, 32, 32, 256)       0         
_________________________________________________________________
max_pooling2d_1031 (MaxPooli (None, 16, 16, 256)       0         
_________________________________________________________________
separable_conv2d_4001 (Separ (None, 16, 16, 8)         4360      
_________________________________________________________________
activation_4378 (Activation) (None, 16, 16, 8)         0         
_________________________________________________________________
dropout_4378 (Dropout)       (None, 16, 16, 8)         0         
_________________________________________________________________
separable_conv2d_4002 (Separ (None, 16, 16, 64)        648       
_________________________________________________________________
activation_4379 (Activation) (None, 16, 16, 64)        0         
_________________________________________________________________
dropout_4379 (Dropout)       (None, 16, 16, 64)        0         
_________________________________________________________________
max_pooling2d_1032 (MaxPooli (None, 8, 8, 64)          0         
_________________________________________________________________
separable_conv2d_4003 (Separ (None, 8, 8, 16)          1616      
_________________________________________________________________
activation_4380 (Activation) (None, 8, 8, 16)          0         
_________________________________________________________________
dropout_4380 (Dropout)       (None, 8, 8, 16)          0         
_________________________________________________________________
separable_conv2d_4004 (Separ (None, 8, 8, 128)         2320      
_________________________________________________________________
batch_normalization_2499 (Ba (None, 8, 8, 128)         512       
_________________________________________________________________
activation_4381 (Activation) (None, 8, 8, 128)         0         
_________________________________________________________________
dropout_4381 (Dropout)       (None, 8, 8, 128)         0         
_________________________________________________________________
separable_conv2d_4005 (Separ (None, 8, 8, 128)         17664     
_________________________________________________________________
batch_normalization_2500 (Ba (None, 8, 8, 128)         512       
_________________________________________________________________
activation_4382 (Activation) (None, 8, 8, 128)         0         
_________________________________________________________________
dropout_4382 (Dropout)       (None, 8, 8, 128)         0         
_________________________________________________________________
separable_conv2d_4006 (Separ (None, 8, 8, 32)          5280      
_________________________________________________________________
activation_4383 (Activation) (None, 8, 8, 32)          0         
_________________________________________________________________
dropout_4383 (Dropout)       (None, 8, 8, 32)          0         
_________________________________________________________________
separable_conv2d_4007 (Separ (None, 8, 8, 512)         17184     
_________________________________________________________________
batch_normalization_2501 (Ba (None, 8, 8, 512)         2048      
_________________________________________________________________
activation_4384 (Activation) (None, 8, 8, 512)         0         
_________________________________________________________________
dropout_4384 (Dropout)       (None, 8, 8, 512)         0         
_________________________________________________________________
max_pooling2d_1033 (MaxPooli (None, 4, 4, 512)         0         
_________________________________________________________________
flatten_374 (Flatten)        (None, 8192)              0         
_________________________________________________________________
dense_751 (Dense)            (None, 2048)              16779264  
_________________________________________________________________
batch_normalization_2502 (Ba (None, 2048)              8192      
_________________________________________________________________
activation_4385 (Activation) (None, 2048)              0         
_________________________________________________________________
dropout_4385 (Dropout)       (None, 2048)              0         
_________________________________________________________________
dense_752 (Dense)            (None, 100)               204900    
=================================================================
Total params: 17,054,415
Trainable params: 17,048,271
Non-trainable params: 6,144
_________________________________________________________________
