Model: "sequential_335"
_________________________________________________________________
Layer (type)                 Output Shape              Param #   
=================================================================
separable_conv2d_3637 (Separ (None, 32, 32, 32)        155       
_________________________________________________________________
activation_3975 (Activation) (None, 32, 32, 32)        0         
_________________________________________________________________
dropout_3975 (Dropout)       (None, 32, 32, 32)        0         
_________________________________________________________________
separable_conv2d_3638 (Separ (None, 32, 32, 256)       8736      
_________________________________________________________________
batch_normalization_2293 (Ba (None, 32, 32, 256)       1024      
_________________________________________________________________
activation_3976 (Activation) (None, 32, 32, 256)       0         
_________________________________________________________________
dropout_3976 (Dropout)       (None, 32, 32, 256)       0         
_________________________________________________________________
separable_conv2d_3639 (Separ (None, 32, 32, 8)         4360      
_________________________________________________________________
activation_3977 (Activation) (None, 32, 32, 8)         0         
_________________________________________________________________
dropout_3977 (Dropout)       (None, 32, 32, 8)         0         
_________________________________________________________________
separable_conv2d_3640 (Separ (None, 32, 32, 64)        648       
_________________________________________________________________
activation_3978 (Activation) (None, 32, 32, 64)        0         
_________________________________________________________________
dropout_3978 (Dropout)       (None, 32, 32, 64)        0         
_________________________________________________________________
max_pooling2d_942 (MaxPoolin (None, 16, 16, 64)        0         
_________________________________________________________________
separable_conv2d_3641 (Separ (None, 16, 16, 16)        1616      
_________________________________________________________________
activation_3979 (Activation) (None, 16, 16, 16)        0         
_________________________________________________________________
dropout_3979 (Dropout)       (None, 16, 16, 16)        0         
_________________________________________________________________
separable_conv2d_3642 (Separ (None, 16, 16, 128)       2320      
_________________________________________________________________
batch_normalization_2294 (Ba (None, 16, 16, 128)       512       
_________________________________________________________________
activation_3980 (Activation) (None, 16, 16, 128)       0         
_________________________________________________________________
dropout_3980 (Dropout)       (None, 16, 16, 128)       0         
_________________________________________________________________
separable_conv2d_3643 (Separ (None, 16, 16, 64)        9408      
_________________________________________________________________
batch_normalization_2295 (Ba (None, 16, 16, 64)        256       
_________________________________________________________________
activation_3981 (Activation) (None, 16, 16, 64)        0         
_________________________________________________________________
dropout_3981 (Dropout)       (None, 16, 16, 64)        0         
_________________________________________________________________
separable_conv2d_3644 (Separ (None, 16, 16, 512)       33856     
_________________________________________________________________
batch_normalization_2296 (Ba (None, 16, 16, 512)       2048      
_________________________________________________________________
activation_3982 (Activation) (None, 16, 16, 512)       0         
_________________________________________________________________
dropout_3982 (Dropout)       (None, 16, 16, 512)       0         
_________________________________________________________________
max_pooling2d_943 (MaxPoolin (None, 8, 8, 512)         0         
_________________________________________________________________
separable_conv2d_3645 (Separ (None, 8, 8, 128)         70272     
_________________________________________________________________
activation_3983 (Activation) (None, 8, 8, 128)         0         
_________________________________________________________________
dropout_3983 (Dropout)       (None, 8, 8, 128)         0         
_________________________________________________________________
separable_conv2d_3646 (Separ (None, 8, 8, 32)          5280      
_________________________________________________________________
batch_normalization_2297 (Ba (None, 8, 8, 32)          128       
_________________________________________________________________
activation_3984 (Activation) (None, 8, 8, 32)          0         
_________________________________________________________________
dropout_3984 (Dropout)       (None, 8, 8, 32)          0         
_________________________________________________________________
separable_conv2d_3647 (Separ (None, 8, 8, 256)         8736      
_________________________________________________________________
batch_normalization_2298 (Ba (None, 8, 8, 256)         1024      
_________________________________________________________________
activation_3985 (Activation) (None, 8, 8, 256)         0         
_________________________________________________________________
dropout_3985 (Dropout)       (None, 8, 8, 256)         0         
_________________________________________________________________
max_pooling2d_944 (MaxPoolin (None, 4, 4, 256)         0         
_________________________________________________________________
flatten_335 (Flatten)        (None, 4096)              0         
_________________________________________________________________
dense_673 (Dense)            (None, 2048)              8390656   
_________________________________________________________________
batch_normalization_2299 (Ba (None, 2048)              8192      
_________________________________________________________________
activation_3986 (Activation) (None, 2048)              0         
_________________________________________________________________
dropout_3986 (Dropout)       (None, 2048)              0         
_________________________________________________________________
dense_674 (Dense)            (None, 100)               204900    
=================================================================
Total params: 8,754,127
Trainable params: 8,747,535
Non-trainable params: 6,592
_________________________________________________________________
