Model: "sequential_233"
_________________________________________________________________
Layer (type)                 Output Shape              Param #   
=================================================================
separable_conv2d_2612 (Separ (None, 32, 32, 32)        155       
_________________________________________________________________
activation_2848 (Activation) (None, 32, 32, 32)        0         
_________________________________________________________________
dropout_2848 (Dropout)       (None, 32, 32, 32)        0         
_________________________________________________________________
separable_conv2d_2613 (Separ (None, 32, 32, 256)       8736      
_________________________________________________________________
batch_normalization_1671 (Ba (None, 32, 32, 256)       1024      
_________________________________________________________________
activation_2849 (Activation) (None, 32, 32, 256)       0         
_________________________________________________________________
dropout_2849 (Dropout)       (None, 32, 32, 256)       0         
_________________________________________________________________
separable_conv2d_2614 (Separ (None, 32, 32, 8)         4360      
_________________________________________________________________
activation_2850 (Activation) (None, 32, 32, 8)         0         
_________________________________________________________________
dropout_2850 (Dropout)       (None, 32, 32, 8)         0         
_________________________________________________________________
separable_conv2d_2615 (Separ (None, 32, 32, 64)        648       
_________________________________________________________________
activation_2851 (Activation) (None, 32, 32, 64)        0         
_________________________________________________________________
dropout_2851 (Dropout)       (None, 32, 32, 64)        0         
_________________________________________________________________
max_pooling2d_681 (MaxPoolin (None, 16, 16, 64)        0         
_________________________________________________________________
separable_conv2d_2616 (Separ (None, 16, 16, 16)        1616      
_________________________________________________________________
activation_2852 (Activation) (None, 16, 16, 16)        0         
_________________________________________________________________
dropout_2852 (Dropout)       (None, 16, 16, 16)        0         
_________________________________________________________________
separable_conv2d_2617 (Separ (None, 16, 16, 256)       4496      
_________________________________________________________________
batch_normalization_1672 (Ba (None, 16, 16, 256)       1024      
_________________________________________________________________
activation_2853 (Activation) (None, 16, 16, 256)       0         
_________________________________________________________________
dropout_2853 (Dropout)       (None, 16, 16, 256)       0         
_________________________________________________________________
separable_conv2d_2618 (Separ (None, 16, 16, 64)        18752     
_________________________________________________________________
batch_normalization_1673 (Ba (None, 16, 16, 64)        256       
_________________________________________________________________
activation_2854 (Activation) (None, 16, 16, 64)        0         
_________________________________________________________________
dropout_2854 (Dropout)       (None, 16, 16, 64)        0         
_________________________________________________________________
separable_conv2d_2619 (Separ (None, 16, 16, 512)       33856     
_________________________________________________________________
batch_normalization_1674 (Ba (None, 16, 16, 512)       2048      
_________________________________________________________________
activation_2855 (Activation) (None, 16, 16, 512)       0         
_________________________________________________________________
dropout_2855 (Dropout)       (None, 16, 16, 512)       0         
_________________________________________________________________
max_pooling2d_682 (MaxPoolin (None, 8, 8, 512)         0         
_________________________________________________________________
separable_conv2d_2620 (Separ (None, 8, 8, 128)         70272     
_________________________________________________________________
activation_2856 (Activation) (None, 8, 8, 128)         0         
_________________________________________________________________
dropout_2856 (Dropout)       (None, 8, 8, 128)         0         
_________________________________________________________________
separable_conv2d_2621 (Separ (None, 8, 8, 32)          5280      
_________________________________________________________________
batch_normalization_1675 (Ba (None, 8, 8, 32)          128       
_________________________________________________________________
activation_2857 (Activation) (None, 8, 8, 32)          0         
_________________________________________________________________
dropout_2857 (Dropout)       (None, 8, 8, 32)          0         
_________________________________________________________________
separable_conv2d_2622 (Separ (None, 8, 8, 256)         8736      
_________________________________________________________________
batch_normalization_1676 (Ba (None, 8, 8, 256)         1024      
_________________________________________________________________
activation_2858 (Activation) (None, 8, 8, 256)         0         
_________________________________________________________________
dropout_2858 (Dropout)       (None, 8, 8, 256)         0         
_________________________________________________________________
max_pooling2d_683 (MaxPoolin (None, 4, 4, 256)         0         
_________________________________________________________________
flatten_233 (Flatten)        (None, 4096)              0         
_________________________________________________________________
dense_469 (Dense)            (None, 2048)              8390656   
_________________________________________________________________
batch_normalization_1677 (Ba (None, 2048)              8192      
_________________________________________________________________
activation_2859 (Activation) (None, 2048)              0         
_________________________________________________________________
dropout_2859 (Dropout)       (None, 2048)              0         
_________________________________________________________________
dense_470 (Dense)            (None, 100)               204900    
=================================================================
Total params: 8,766,159
Trainable params: 8,759,311
Non-trainable params: 6,848
_________________________________________________________________
