Model: "sequential_38"
_________________________________________________________________
Layer (type)                 Output Shape              Param #   
=================================================================
separable_conv2d_436 (Separa (None, 32, 32, 32)        155       
_________________________________________________________________
activation_477 (Activation)  (None, 32, 32, 32)        0         
_________________________________________________________________
dropout_477 (Dropout)        (None, 32, 32, 32)        0         
_________________________________________________________________
separable_conv2d_437 (Separa (None, 32, 32, 128)       4512      
_________________________________________________________________
batch_normalization_266 (Bat (None, 32, 32, 128)       512       
_________________________________________________________________
activation_478 (Activation)  (None, 32, 32, 128)       0         
_________________________________________________________________
dropout_478 (Dropout)        (None, 32, 32, 128)       0         
_________________________________________________________________
separable_conv2d_438 (Separa (None, 32, 32, 8)         2184      
_________________________________________________________________
activation_479 (Activation)  (None, 32, 32, 8)         0         
_________________________________________________________________
dropout_479 (Dropout)        (None, 32, 32, 8)         0         
_________________________________________________________________
separable_conv2d_439 (Separa (None, 32, 32, 64)        648       
_________________________________________________________________
activation_480 (Activation)  (None, 32, 32, 64)        0         
_________________________________________________________________
dropout_480 (Dropout)        (None, 32, 32, 64)        0         
_________________________________________________________________
max_pooling2d_103 (MaxPoolin (None, 16, 16, 64)        0         
_________________________________________________________________
separable_conv2d_440 (Separa (None, 16, 16, 8)         1096      
_________________________________________________________________
activation_481 (Activation)  (None, 16, 16, 8)         0         
_________________________________________________________________
dropout_481 (Dropout)        (None, 16, 16, 8)         0         
_________________________________________________________________
separable_conv2d_441 (Separa (None, 16, 16, 128)       1224      
_________________________________________________________________
batch_normalization_267 (Bat (None, 16, 16, 128)       512       
_________________________________________________________________
activation_482 (Activation)  (None, 16, 16, 128)       0         
_________________________________________________________________
dropout_482 (Dropout)        (None, 16, 16, 128)       0         
_________________________________________________________________
separable_conv2d_442 (Separa (None, 16, 16, 64)        9408      
_________________________________________________________________
batch_normalization_268 (Bat (None, 16, 16, 64)        256       
_________________________________________________________________
activation_483 (Activation)  (None, 16, 16, 64)        0         
_________________________________________________________________
dropout_483 (Dropout)        (None, 16, 16, 64)        0         
_________________________________________________________________
separable_conv2d_443 (Separa (None, 16, 16, 512)       33856     
_________________________________________________________________
batch_normalization_269 (Bat (None, 16, 16, 512)       2048      
_________________________________________________________________
activation_484 (Activation)  (None, 16, 16, 512)       0         
_________________________________________________________________
dropout_484 (Dropout)        (None, 16, 16, 512)       0         
_________________________________________________________________
max_pooling2d_104 (MaxPoolin (None, 8, 8, 512)         0         
_________________________________________________________________
separable_conv2d_444 (Separa (None, 8, 8, 32)          21024     
_________________________________________________________________
batch_normalization_270 (Bat (None, 8, 8, 32)          128       
_________________________________________________________________
activation_485 (Activation)  (None, 8, 8, 32)          0         
_________________________________________________________________
dropout_485 (Dropout)        (None, 8, 8, 32)          0         
_________________________________________________________________
max_pooling2d_105 (MaxPoolin (None, 4, 4, 32)          0         
_________________________________________________________________
separable_conv2d_445 (Separa (None, 4, 4, 128)         4512      
_________________________________________________________________
activation_486 (Activation)  (None, 4, 4, 128)         0         
_________________________________________________________________
dropout_486 (Dropout)        (None, 4, 4, 128)         0         
_________________________________________________________________
separable_conv2d_446 (Separa (None, 4, 4, 32)          5280      
_________________________________________________________________
batch_normalization_271 (Bat (None, 4, 4, 32)          128       
_________________________________________________________________
activation_487 (Activation)  (None, 4, 4, 32)          0         
_________________________________________________________________
dropout_487 (Dropout)        (None, 4, 4, 32)          0         
_________________________________________________________________
separable_conv2d_447 (Separa (None, 4, 4, 256)         8736      
_________________________________________________________________
batch_normalization_272 (Bat (None, 4, 4, 256)         1024      
_________________________________________________________________
activation_488 (Activation)  (None, 4, 4, 256)         0         
_________________________________________________________________
dropout_488 (Dropout)        (None, 4, 4, 256)         0         
_________________________________________________________________
flatten_38 (Flatten)         (None, 4096)              0         
_________________________________________________________________
dense_79 (Dense)             (None, 2048)              8390656   
_________________________________________________________________
batch_normalization_273 (Bat (None, 2048)              8192      
_________________________________________________________________
activation_489 (Activation)  (None, 2048)              0         
_________________________________________________________________
dropout_489 (Dropout)        (None, 2048)              0         
_________________________________________________________________
dense_80 (Dense)             (None, 100)               204900    
=================================================================
Total params: 8,700,991
Trainable params: 8,694,591
Non-trainable params: 6,400
_________________________________________________________________
