Model: "sequential_353"
_________________________________________________________________
Layer (type)                 Output Shape              Param #   
=================================================================
separable_conv2d_3806 (Separ (None, 32, 32, 32)        155       
_________________________________________________________________
activation_4162 (Activation) (None, 32, 32, 32)        0         
_________________________________________________________________
dropout_4162 (Dropout)       (None, 32, 32, 32)        0         
_________________________________________________________________
separable_conv2d_3807 (Separ (None, 32, 32, 256)       8736      
_________________________________________________________________
batch_normalization_2389 (Ba (None, 32, 32, 256)       1024      
_________________________________________________________________
activation_4163 (Activation) (None, 32, 32, 256)       0         
_________________________________________________________________
dropout_4163 (Dropout)       (None, 32, 32, 256)       0         
_________________________________________________________________
separable_conv2d_3808 (Separ (None, 32, 32, 8)         4360      
_________________________________________________________________
activation_4164 (Activation) (None, 32, 32, 8)         0         
_________________________________________________________________
dropout_4164 (Dropout)       (None, 32, 32, 8)         0         
_________________________________________________________________
separable_conv2d_3809 (Separ (None, 32, 32, 64)        648       
_________________________________________________________________
activation_4165 (Activation) (None, 32, 32, 64)        0         
_________________________________________________________________
dropout_4165 (Dropout)       (None, 32, 32, 64)        0         
_________________________________________________________________
max_pooling2d_984 (MaxPoolin (None, 16, 16, 64)        0         
_________________________________________________________________
separable_conv2d_3810 (Separ (None, 16, 16, 16)        1616      
_________________________________________________________________
activation_4166 (Activation) (None, 16, 16, 16)        0         
_________________________________________________________________
dropout_4166 (Dropout)       (None, 16, 16, 16)        0         
_________________________________________________________________
separable_conv2d_3811 (Separ (None, 16, 16, 128)       2320      
_________________________________________________________________
batch_normalization_2390 (Ba (None, 16, 16, 128)       512       
_________________________________________________________________
activation_4167 (Activation) (None, 16, 16, 128)       0         
_________________________________________________________________
dropout_4167 (Dropout)       (None, 16, 16, 128)       0         
_________________________________________________________________
separable_conv2d_3812 (Separ (None, 16, 16, 64)        9408      
_________________________________________________________________
batch_normalization_2391 (Ba (None, 16, 16, 64)        256       
_________________________________________________________________
activation_4168 (Activation) (None, 16, 16, 64)        0         
_________________________________________________________________
dropout_4168 (Dropout)       (None, 16, 16, 64)        0         
_________________________________________________________________
max_pooling2d_985 (MaxPoolin (None, 8, 8, 64)          0         
_________________________________________________________________
separable_conv2d_3813 (Separ (None, 8, 8, 32)          2656      
_________________________________________________________________
activation_4169 (Activation) (None, 8, 8, 32)          0         
_________________________________________________________________
dropout_4169 (Dropout)       (None, 8, 8, 32)          0         
_________________________________________________________________
separable_conv2d_3814 (Separ (None, 8, 8, 256)         8736      
_________________________________________________________________
batch_normalization_2392 (Ba (None, 8, 8, 256)         1024      
_________________________________________________________________
activation_4170 (Activation) (None, 8, 8, 256)         0         
_________________________________________________________________
dropout_4170 (Dropout)       (None, 8, 8, 256)         0         
_________________________________________________________________
max_pooling2d_986 (MaxPoolin (None, 4, 4, 256)         0         
_________________________________________________________________
flatten_353 (Flatten)        (None, 4096)              0         
_________________________________________________________________
dense_709 (Dense)            (None, 2048)              8390656   
_________________________________________________________________
batch_normalization_2393 (Ba (None, 2048)              8192      
_________________________________________________________________
activation_4171 (Activation) (None, 2048)              0         
_________________________________________________________________
dropout_4171 (Dropout)       (None, 2048)              0         
_________________________________________________________________
dense_710 (Dense)            (None, 100)               204900    
=================================================================
Total params: 8,645,199
Trainable params: 8,639,695
Non-trainable params: 5,504
_________________________________________________________________
