Model: "sequential_341"
_________________________________________________________________
Layer (type)                 Output Shape              Param #   
=================================================================
separable_conv2d_3694 (Separ (None, 32, 32, 32)        155       
_________________________________________________________________
activation_4038 (Activation) (None, 32, 32, 32)        0         
_________________________________________________________________
dropout_4038 (Dropout)       (None, 32, 32, 32)        0         
_________________________________________________________________
separable_conv2d_3695 (Separ (None, 32, 32, 256)       8736      
_________________________________________________________________
batch_normalization_2324 (Ba (None, 32, 32, 256)       1024      
_________________________________________________________________
activation_4039 (Activation) (None, 32, 32, 256)       0         
_________________________________________________________________
dropout_4039 (Dropout)       (None, 32, 32, 256)       0         
_________________________________________________________________
separable_conv2d_3696 (Separ (None, 32, 32, 8)         4360      
_________________________________________________________________
activation_4040 (Activation) (None, 32, 32, 8)         0         
_________________________________________________________________
dropout_4040 (Dropout)       (None, 32, 32, 8)         0         
_________________________________________________________________
separable_conv2d_3697 (Separ (None, 32, 32, 64)        648       
_________________________________________________________________
activation_4041 (Activation) (None, 32, 32, 64)        0         
_________________________________________________________________
dropout_4041 (Dropout)       (None, 32, 32, 64)        0         
_________________________________________________________________
max_pooling2d_957 (MaxPoolin (None, 16, 16, 64)        0         
_________________________________________________________________
separable_conv2d_3698 (Separ (None, 16, 16, 16)        1616      
_________________________________________________________________
activation_4042 (Activation) (None, 16, 16, 16)        0         
_________________________________________________________________
dropout_4042 (Dropout)       (None, 16, 16, 16)        0         
_________________________________________________________________
separable_conv2d_3699 (Separ (None, 16, 16, 128)       2320      
_________________________________________________________________
batch_normalization_2325 (Ba (None, 16, 16, 128)       512       
_________________________________________________________________
activation_4043 (Activation) (None, 16, 16, 128)       0         
_________________________________________________________________
dropout_4043 (Dropout)       (None, 16, 16, 128)       0         
_________________________________________________________________
separable_conv2d_3700 (Separ (None, 16, 16, 64)        9408      
_________________________________________________________________
activation_4044 (Activation) (None, 16, 16, 64)        0         
_________________________________________________________________
dropout_4044 (Dropout)       (None, 16, 16, 64)        0         
_________________________________________________________________
separable_conv2d_3701 (Separ (None, 16, 16, 64)        4736      
_________________________________________________________________
batch_normalization_2326 (Ba (None, 16, 16, 64)        256       
_________________________________________________________________
activation_4045 (Activation) (None, 16, 16, 64)        0         
_________________________________________________________________
dropout_4045 (Dropout)       (None, 16, 16, 64)        0         
_________________________________________________________________
separable_conv2d_3702 (Separ (None, 16, 16, 512)       33856     
_________________________________________________________________
batch_normalization_2327 (Ba (None, 16, 16, 512)       2048      
_________________________________________________________________
activation_4046 (Activation) (None, 16, 16, 512)       0         
_________________________________________________________________
dropout_4046 (Dropout)       (None, 16, 16, 512)       0         
_________________________________________________________________
max_pooling2d_958 (MaxPoolin (None, 8, 8, 512)         0         
_________________________________________________________________
flatten_341 (Flatten)        (None, 32768)             0         
_________________________________________________________________
dense_685 (Dense)            (None, 2048)              67110912  
_________________________________________________________________
batch_normalization_2328 (Ba (None, 2048)              8192      
_________________________________________________________________
activation_4047 (Activation) (None, 2048)              0         
_________________________________________________________________
dropout_4047 (Dropout)       (None, 2048)              0         
_________________________________________________________________
dense_686 (Dense)            (None, 100)               204900    
=================================================================
Total params: 67,393,679
Trainable params: 67,387,663
Non-trainable params: 6,016
_________________________________________________________________
