Model: "sequential_2"
_________________________________________________________________
Layer (type)                 Output Shape              Param #   
=================================================================
separable_conv2d_23 (Separab (None, 32, 32, 32)        155       
_________________________________________________________________
batch_normalization_11 (Batc (None, 32, 32, 32)        128       
_________________________________________________________________
activation_25 (Activation)   (None, 32, 32, 32)        0         
_________________________________________________________________
dropout_25 (Dropout)         (None, 32, 32, 32)        0         
_________________________________________________________________
separable_conv2d_24 (Separab (None, 32, 32, 16)        816       
_________________________________________________________________
batch_normalization_12 (Batc (None, 32, 32, 16)        64        
_________________________________________________________________
activation_26 (Activation)   (None, 32, 32, 16)        0         
_________________________________________________________________
dropout_26 (Dropout)         (None, 32, 32, 16)        0         
_________________________________________________________________
max_pooling2d_6 (MaxPooling2 (None, 16, 16, 16)        0         
_________________________________________________________________
separable_conv2d_25 (Separab (None, 16, 16, 64)        1232      
_________________________________________________________________
activation_27 (Activation)   (None, 16, 16, 64)        0         
_________________________________________________________________
dropout_27 (Dropout)         (None, 16, 16, 64)        0         
_________________________________________________________________
separable_conv2d_26 (Separab (None, 16, 16, 8)         1096      
_________________________________________________________________
batch_normalization_13 (Batc (None, 16, 16, 8)         32        
_________________________________________________________________
activation_28 (Activation)   (None, 16, 16, 8)         0         
_________________________________________________________________
dropout_28 (Dropout)         (None, 16, 16, 8)         0         
_________________________________________________________________
separable_conv2d_27 (Separab (None, 16, 16, 64)        648       
_________________________________________________________________
batch_normalization_14 (Batc (None, 16, 16, 64)        256       
_________________________________________________________________
activation_29 (Activation)   (None, 16, 16, 64)        0         
_________________________________________________________________
dropout_29 (Dropout)         (None, 16, 16, 64)        0         
_________________________________________________________________
separable_conv2d_28 (Separab (None, 16, 16, 16)        1616      
_________________________________________________________________
batch_normalization_15 (Batc (None, 16, 16, 16)        64        
_________________________________________________________________
activation_30 (Activation)   (None, 16, 16, 16)        0         
_________________________________________________________________
dropout_30 (Dropout)         (None, 16, 16, 16)        0         
_________________________________________________________________
separable_conv2d_29 (Separab (None, 16, 16, 8)         280       
_________________________________________________________________
batch_normalization_16 (Batc (None, 16, 16, 8)         32        
_________________________________________________________________
activation_31 (Activation)   (None, 16, 16, 8)         0         
_________________________________________________________________
dropout_31 (Dropout)         (None, 16, 16, 8)         0         
_________________________________________________________________
separable_conv2d_30 (Separab (None, 16, 16, 32)        360       
_________________________________________________________________
batch_normalization_17 (Batc (None, 16, 16, 32)        128       
_________________________________________________________________
activation_32 (Activation)   (None, 16, 16, 32)        0         
_________________________________________________________________
dropout_32 (Dropout)         (None, 16, 16, 32)        0         
_________________________________________________________________
separable_conv2d_31 (Separab (None, 16, 16, 32)        1344      
_________________________________________________________________
activation_33 (Activation)   (None, 16, 16, 32)        0         
_________________________________________________________________
dropout_33 (Dropout)         (None, 16, 16, 32)        0         
_________________________________________________________________
separable_conv2d_32 (Separab (None, 16, 16, 1024)      34080     
_________________________________________________________________
batch_normalization_18 (Batc (None, 16, 16, 1024)      4096      
_________________________________________________________________
activation_34 (Activation)   (None, 16, 16, 1024)      0         
_________________________________________________________________
dropout_34 (Dropout)         (None, 16, 16, 1024)      0         
_________________________________________________________________
max_pooling2d_7 (MaxPooling2 (None, 8, 8, 1024)        0         
_________________________________________________________________
flatten_2 (Flatten)          (None, 65536)             0         
_________________________________________________________________
dense_4 (Dense)              (None, 100)               6553700   
=================================================================
Total params: 6,600,127
Trainable params: 6,597,727
Non-trainable params: 2,400
_________________________________________________________________
