Model: "sequential_287"
_________________________________________________________________
Layer (type)                 Output Shape              Param #   
=================================================================
separable_conv2d_3174 (Separ (None, 32, 32, 32)        155       
_________________________________________________________________
activation_3464 (Activation) (None, 32, 32, 32)        0         
_________________________________________________________________
dropout_3464 (Dropout)       (None, 32, 32, 32)        0         
_________________________________________________________________
separable_conv2d_3175 (Separ (None, 32, 32, 256)       8736      
_________________________________________________________________
batch_normalization_2022 (Ba (None, 32, 32, 256)       1024      
_________________________________________________________________
activation_3465 (Activation) (None, 32, 32, 256)       0         
_________________________________________________________________
dropout_3465 (Dropout)       (None, 32, 32, 256)       0         
_________________________________________________________________
separable_conv2d_3176 (Separ (None, 32, 32, 8)         4360      
_________________________________________________________________
activation_3466 (Activation) (None, 32, 32, 8)         0         
_________________________________________________________________
dropout_3466 (Dropout)       (None, 32, 32, 8)         0         
_________________________________________________________________
separable_conv2d_3177 (Separ (None, 32, 32, 64)        648       
_________________________________________________________________
activation_3467 (Activation) (None, 32, 32, 64)        0         
_________________________________________________________________
dropout_3467 (Dropout)       (None, 32, 32, 64)        0         
_________________________________________________________________
max_pooling2d_831 (MaxPoolin (None, 16, 16, 64)        0         
_________________________________________________________________
separable_conv2d_3178 (Separ (None, 16, 16, 256)       17216     
_________________________________________________________________
batch_normalization_2023 (Ba (None, 16, 16, 256)       1024      
_________________________________________________________________
activation_3468 (Activation) (None, 16, 16, 256)       0         
_________________________________________________________________
dropout_3468 (Dropout)       (None, 16, 16, 256)       0         
_________________________________________________________________
separable_conv2d_3179 (Separ (None, 16, 16, 64)        18752     
_________________________________________________________________
batch_normalization_2024 (Ba (None, 16, 16, 64)        256       
_________________________________________________________________
activation_3469 (Activation) (None, 16, 16, 64)        0         
_________________________________________________________________
dropout_3469 (Dropout)       (None, 16, 16, 64)        0         
_________________________________________________________________
max_pooling2d_832 (MaxPoolin (None, 8, 8, 64)          0         
_________________________________________________________________
separable_conv2d_3180 (Separ (None, 8, 8, 512)         33856     
_________________________________________________________________
batch_normalization_2025 (Ba (None, 8, 8, 512)         2048      
_________________________________________________________________
activation_3470 (Activation) (None, 8, 8, 512)         0         
_________________________________________________________________
dropout_3470 (Dropout)       (None, 8, 8, 512)         0         
_________________________________________________________________
max_pooling2d_833 (MaxPoolin (None, 4, 4, 512)         0         
_________________________________________________________________
separable_conv2d_3181 (Separ (None, 4, 4, 128)         70272     
_________________________________________________________________
activation_3471 (Activation) (None, 4, 4, 128)         0         
_________________________________________________________________
dropout_3471 (Dropout)       (None, 4, 4, 128)         0         
_________________________________________________________________
separable_conv2d_3182 (Separ (None, 4, 4, 32)          5280      
_________________________________________________________________
batch_normalization_2026 (Ba (None, 4, 4, 32)          128       
_________________________________________________________________
activation_3472 (Activation) (None, 4, 4, 32)          0         
_________________________________________________________________
dropout_3472 (Dropout)       (None, 4, 4, 32)          0         
_________________________________________________________________
separable_conv2d_3183 (Separ (None, 4, 4, 256)         8736      
_________________________________________________________________
batch_normalization_2027 (Ba (None, 4, 4, 256)         1024      
_________________________________________________________________
activation_3473 (Activation) (None, 4, 4, 256)         0         
_________________________________________________________________
dropout_3473 (Dropout)       (None, 4, 4, 256)         0         
_________________________________________________________________
flatten_287 (Flatten)        (None, 4096)              0         
_________________________________________________________________
dense_577 (Dense)            (None, 2048)              8390656   
_________________________________________________________________
batch_normalization_2028 (Ba (None, 2048)              8192      
_________________________________________________________________
activation_3474 (Activation) (None, 2048)              0         
_________________________________________________________________
dropout_3474 (Dropout)       (None, 2048)              0         
_________________________________________________________________
dense_578 (Dense)            (None, 100)               204900    
=================================================================
Total params: 8,777,263
Trainable params: 8,770,415
Non-trainable params: 6,848
_________________________________________________________________
