Model: "sequential_328"
_________________________________________________________________
Layer (type)                 Output Shape              Param #   
=================================================================
separable_conv2d_3571 (Separ (None, 32, 32, 128)       539       
_________________________________________________________________
activation_3902 (Activation) (None, 32, 32, 128)       0         
_________________________________________________________________
dropout_3902 (Dropout)       (None, 32, 32, 128)       0         
_________________________________________________________________
separable_conv2d_3572 (Separ (None, 32, 32, 256)       34176     
_________________________________________________________________
batch_normalization_2255 (Ba (None, 32, 32, 256)       1024      
_________________________________________________________________
activation_3903 (Activation) (None, 32, 32, 256)       0         
_________________________________________________________________
dropout_3903 (Dropout)       (None, 32, 32, 256)       0         
_________________________________________________________________
separable_conv2d_3573 (Separ (None, 32, 32, 8)         4360      
_________________________________________________________________
activation_3904 (Activation) (None, 32, 32, 8)         0         
_________________________________________________________________
dropout_3904 (Dropout)       (None, 32, 32, 8)         0         
_________________________________________________________________
separable_conv2d_3574 (Separ (None, 32, 32, 64)        648       
_________________________________________________________________
activation_3905 (Activation) (None, 32, 32, 64)        0         
_________________________________________________________________
dropout_3905 (Dropout)       (None, 32, 32, 64)        0         
_________________________________________________________________
max_pooling2d_926 (MaxPoolin (None, 16, 16, 64)        0         
_________________________________________________________________
separable_conv2d_3575 (Separ (None, 16, 16, 16)        1616      
_________________________________________________________________
activation_3906 (Activation) (None, 16, 16, 16)        0         
_________________________________________________________________
dropout_3906 (Dropout)       (None, 16, 16, 16)        0         
_________________________________________________________________
separable_conv2d_3576 (Separ (None, 16, 16, 128)       2320      
_________________________________________________________________
batch_normalization_2256 (Ba (None, 16, 16, 128)       512       
_________________________________________________________________
activation_3907 (Activation) (None, 16, 16, 128)       0         
_________________________________________________________________
dropout_3907 (Dropout)       (None, 16, 16, 128)       0         
_________________________________________________________________
separable_conv2d_3577 (Separ (None, 16, 16, 64)        9408      
_________________________________________________________________
batch_normalization_2257 (Ba (None, 16, 16, 64)        256       
_________________________________________________________________
activation_3908 (Activation) (None, 16, 16, 64)        0         
_________________________________________________________________
dropout_3908 (Dropout)       (None, 16, 16, 64)        0         
_________________________________________________________________
separable_conv2d_3578 (Separ (None, 16, 16, 32)        2656      
_________________________________________________________________
activation_3909 (Activation) (None, 16, 16, 32)        0         
_________________________________________________________________
dropout_3909 (Dropout)       (None, 16, 16, 32)        0         
_________________________________________________________________
separable_conv2d_3579 (Separ (None, 16, 16, 512)       17184     
_________________________________________________________________
batch_normalization_2258 (Ba (None, 16, 16, 512)       2048      
_________________________________________________________________
activation_3910 (Activation) (None, 16, 16, 512)       0         
_________________________________________________________________
dropout_3910 (Dropout)       (None, 16, 16, 512)       0         
_________________________________________________________________
max_pooling2d_927 (MaxPoolin (None, 8, 8, 512)         0         
_________________________________________________________________
flatten_328 (Flatten)        (None, 32768)             0         
_________________________________________________________________
dense_659 (Dense)            (None, 2048)              67110912  
_________________________________________________________________
batch_normalization_2259 (Ba (None, 2048)              8192      
_________________________________________________________________
activation_3911 (Activation) (None, 2048)              0         
_________________________________________________________________
dropout_3911 (Dropout)       (None, 2048)              0         
_________________________________________________________________
dense_660 (Dense)            (None, 100)               204900    
=================================================================
Total params: 67,400,751
Trainable params: 67,394,735
Non-trainable params: 6,016
_________________________________________________________________
