Model: "sequential_76"
_________________________________________________________________
Layer (type)                 Output Shape              Param #   
=================================================================
separable_conv2d_880 (Separa (None, 32, 32, 32)        155       
_________________________________________________________________
activation_959 (Activation)  (None, 32, 32, 32)        0         
_________________________________________________________________
dropout_959 (Dropout)        (None, 32, 32, 32)        0         
_________________________________________________________________
separable_conv2d_881 (Separa (None, 32, 32, 128)       4512      
_________________________________________________________________
batch_normalization_555 (Bat (None, 32, 32, 128)       512       
_________________________________________________________________
activation_960 (Activation)  (None, 32, 32, 128)       0         
_________________________________________________________________
dropout_960 (Dropout)        (None, 32, 32, 128)       0         
_________________________________________________________________
separable_conv2d_882 (Separa (None, 32, 32, 8)         2184      
_________________________________________________________________
activation_961 (Activation)  (None, 32, 32, 8)         0         
_________________________________________________________________
dropout_961 (Dropout)        (None, 32, 32, 8)         0         
_________________________________________________________________
separable_conv2d_883 (Separa (None, 32, 32, 64)        648       
_________________________________________________________________
activation_962 (Activation)  (None, 32, 32, 64)        0         
_________________________________________________________________
dropout_962 (Dropout)        (None, 32, 32, 64)        0         
_________________________________________________________________
max_pooling2d_217 (MaxPoolin (None, 16, 16, 64)        0         
_________________________________________________________________
separable_conv2d_884 (Separa (None, 16, 16, 8)         1096      
_________________________________________________________________
activation_963 (Activation)  (None, 16, 16, 8)         0         
_________________________________________________________________
dropout_963 (Dropout)        (None, 16, 16, 8)         0         
_________________________________________________________________
separable_conv2d_885 (Separa (None, 16, 16, 128)       1224      
_________________________________________________________________
batch_normalization_556 (Bat (None, 16, 16, 128)       512       
_________________________________________________________________
activation_964 (Activation)  (None, 16, 16, 128)       0         
_________________________________________________________________
dropout_964 (Dropout)        (None, 16, 16, 128)       0         
_________________________________________________________________
separable_conv2d_886 (Separa (None, 16, 16, 64)        9408      
_________________________________________________________________
batch_normalization_557 (Bat (None, 16, 16, 64)        256       
_________________________________________________________________
activation_965 (Activation)  (None, 16, 16, 64)        0         
_________________________________________________________________
dropout_965 (Dropout)        (None, 16, 16, 64)        0         
_________________________________________________________________
separable_conv2d_887 (Separa (None, 16, 16, 512)       33856     
_________________________________________________________________
batch_normalization_558 (Bat (None, 16, 16, 512)       2048      
_________________________________________________________________
activation_966 (Activation)  (None, 16, 16, 512)       0         
_________________________________________________________________
dropout_966 (Dropout)        (None, 16, 16, 512)       0         
_________________________________________________________________
max_pooling2d_218 (MaxPoolin (None, 8, 8, 512)         0         
_________________________________________________________________
separable_conv2d_888 (Separa (None, 8, 8, 32)          21024     
_________________________________________________________________
batch_normalization_559 (Bat (None, 8, 8, 32)          128       
_________________________________________________________________
activation_967 (Activation)  (None, 8, 8, 32)          0         
_________________________________________________________________
dropout_967 (Dropout)        (None, 8, 8, 32)          0         
_________________________________________________________________
max_pooling2d_219 (MaxPoolin (None, 4, 4, 32)          0         
_________________________________________________________________
separable_conv2d_889 (Separa (None, 4, 4, 128)         4512      
_________________________________________________________________
activation_968 (Activation)  (None, 4, 4, 128)         0         
_________________________________________________________________
dropout_968 (Dropout)        (None, 4, 4, 128)         0         
_________________________________________________________________
separable_conv2d_890 (Separa (None, 4, 4, 32)          5280      
_________________________________________________________________
batch_normalization_560 (Bat (None, 4, 4, 32)          128       
_________________________________________________________________
activation_969 (Activation)  (None, 4, 4, 32)          0         
_________________________________________________________________
dropout_969 (Dropout)        (None, 4, 4, 32)          0         
_________________________________________________________________
separable_conv2d_891 (Separa (None, 4, 4, 256)         8736      
_________________________________________________________________
batch_normalization_561 (Bat (None, 4, 4, 256)         1024      
_________________________________________________________________
activation_970 (Activation)  (None, 4, 4, 256)         0         
_________________________________________________________________
dropout_970 (Dropout)        (None, 4, 4, 256)         0         
_________________________________________________________________
flatten_76 (Flatten)         (None, 4096)              0         
_________________________________________________________________
dense_155 (Dense)            (None, 2048)              8390656   
_________________________________________________________________
batch_normalization_562 (Bat (None, 2048)              8192      
_________________________________________________________________
activation_971 (Activation)  (None, 2048)              0         
_________________________________________________________________
dropout_971 (Dropout)        (None, 2048)              0         
_________________________________________________________________
dense_156 (Dense)            (None, 100)               204900    
=================================================================
Total params: 8,700,991
Trainable params: 8,694,591
Non-trainable params: 6,400
_________________________________________________________________
