Model: "sequential_232"
_________________________________________________________________
Layer (type)                 Output Shape              Param #   
=================================================================
separable_conv2d_2601 (Separ (None, 32, 32, 32)        155       
_________________________________________________________________
activation_2836 (Activation) (None, 32, 32, 32)        0         
_________________________________________________________________
dropout_2836 (Dropout)       (None, 32, 32, 32)        0         
_________________________________________________________________
separable_conv2d_2602 (Separ (None, 32, 32, 256)       8736      
_________________________________________________________________
batch_normalization_1664 (Ba (None, 32, 32, 256)       1024      
_________________________________________________________________
activation_2837 (Activation) (None, 32, 32, 256)       0         
_________________________________________________________________
dropout_2837 (Dropout)       (None, 32, 32, 256)       0         
_________________________________________________________________
separable_conv2d_2603 (Separ (None, 32, 32, 8)         4360      
_________________________________________________________________
activation_2838 (Activation) (None, 32, 32, 8)         0         
_________________________________________________________________
dropout_2838 (Dropout)       (None, 32, 32, 8)         0         
_________________________________________________________________
separable_conv2d_2604 (Separ (None, 32, 32, 64)        648       
_________________________________________________________________
activation_2839 (Activation) (None, 32, 32, 64)        0         
_________________________________________________________________
dropout_2839 (Dropout)       (None, 32, 32, 64)        0         
_________________________________________________________________
max_pooling2d_678 (MaxPoolin (None, 16, 16, 64)        0         
_________________________________________________________________
separable_conv2d_2605 (Separ (None, 16, 16, 16)        1616      
_________________________________________________________________
activation_2840 (Activation) (None, 16, 16, 16)        0         
_________________________________________________________________
dropout_2840 (Dropout)       (None, 16, 16, 16)        0         
_________________________________________________________________
separable_conv2d_2606 (Separ (None, 16, 16, 128)       2320      
_________________________________________________________________
batch_normalization_1665 (Ba (None, 16, 16, 128)       512       
_________________________________________________________________
activation_2841 (Activation) (None, 16, 16, 128)       0         
_________________________________________________________________
dropout_2841 (Dropout)       (None, 16, 16, 128)       0         
_________________________________________________________________
separable_conv2d_2607 (Separ (None, 16, 16, 64)        9408      
_________________________________________________________________
batch_normalization_1666 (Ba (None, 16, 16, 64)        256       
_________________________________________________________________
activation_2842 (Activation) (None, 16, 16, 64)        0         
_________________________________________________________________
dropout_2842 (Dropout)       (None, 16, 16, 64)        0         
_________________________________________________________________
separable_conv2d_2608 (Separ (None, 16, 16, 512)       33856     
_________________________________________________________________
batch_normalization_1667 (Ba (None, 16, 16, 512)       2048      
_________________________________________________________________
activation_2843 (Activation) (None, 16, 16, 512)       0         
_________________________________________________________________
dropout_2843 (Dropout)       (None, 16, 16, 512)       0         
_________________________________________________________________
max_pooling2d_679 (MaxPoolin (None, 8, 8, 512)         0         
_________________________________________________________________
separable_conv2d_2609 (Separ (None, 8, 8, 128)         70272     
_________________________________________________________________
activation_2844 (Activation) (None, 8, 8, 128)         0         
_________________________________________________________________
dropout_2844 (Dropout)       (None, 8, 8, 128)         0         
_________________________________________________________________
separable_conv2d_2610 (Separ (None, 8, 8, 32)          5280      
_________________________________________________________________
batch_normalization_1668 (Ba (None, 8, 8, 32)          128       
_________________________________________________________________
activation_2845 (Activation) (None, 8, 8, 32)          0         
_________________________________________________________________
dropout_2845 (Dropout)       (None, 8, 8, 32)          0         
_________________________________________________________________
separable_conv2d_2611 (Separ (None, 8, 8, 256)         8736      
_________________________________________________________________
batch_normalization_1669 (Ba (None, 8, 8, 256)         1024      
_________________________________________________________________
activation_2846 (Activation) (None, 8, 8, 256)         0         
_________________________________________________________________
dropout_2846 (Dropout)       (None, 8, 8, 256)         0         
_________________________________________________________________
max_pooling2d_680 (MaxPoolin (None, 4, 4, 256)         0         
_________________________________________________________________
flatten_232 (Flatten)        (None, 4096)              0         
_________________________________________________________________
dense_467 (Dense)            (None, 2048)              8390656   
_________________________________________________________________
batch_normalization_1670 (Ba (None, 2048)              8192      
_________________________________________________________________
activation_2847 (Activation) (None, 2048)              0         
_________________________________________________________________
dropout_2847 (Dropout)       (None, 2048)              0         
_________________________________________________________________
dense_468 (Dense)            (None, 100)               204900    
=================================================================
Total params: 8,754,127
Trainable params: 8,747,535
Non-trainable params: 6,592
_________________________________________________________________
