Model: "sequential_68"
_________________________________________________________________
Layer (type)                 Output Shape              Param #   
=================================================================
separable_conv2d_786 (Separa (None, 32, 32, 32)        155       
_________________________________________________________________
activation_857 (Activation)  (None, 32, 32, 32)        0         
_________________________________________________________________
dropout_857 (Dropout)        (None, 32, 32, 32)        0         
_________________________________________________________________
separable_conv2d_787 (Separa (None, 32, 32, 128)       4512      
_________________________________________________________________
batch_normalization_494 (Bat (None, 32, 32, 128)       512       
_________________________________________________________________
activation_858 (Activation)  (None, 32, 32, 128)       0         
_________________________________________________________________
dropout_858 (Dropout)        (None, 32, 32, 128)       0         
_________________________________________________________________
separable_conv2d_788 (Separa (None, 32, 32, 8)         2184      
_________________________________________________________________
activation_859 (Activation)  (None, 32, 32, 8)         0         
_________________________________________________________________
dropout_859 (Dropout)        (None, 32, 32, 8)         0         
_________________________________________________________________
separable_conv2d_789 (Separa (None, 32, 32, 64)        648       
_________________________________________________________________
activation_860 (Activation)  (None, 32, 32, 64)        0         
_________________________________________________________________
dropout_860 (Dropout)        (None, 32, 32, 64)        0         
_________________________________________________________________
max_pooling2d_193 (MaxPoolin (None, 16, 16, 64)        0         
_________________________________________________________________
separable_conv2d_790 (Separa (None, 16, 16, 8)         1096      
_________________________________________________________________
activation_861 (Activation)  (None, 16, 16, 8)         0         
_________________________________________________________________
dropout_861 (Dropout)        (None, 16, 16, 8)         0         
_________________________________________________________________
separable_conv2d_791 (Separa (None, 16, 16, 128)       1224      
_________________________________________________________________
batch_normalization_495 (Bat (None, 16, 16, 128)       512       
_________________________________________________________________
activation_862 (Activation)  (None, 16, 16, 128)       0         
_________________________________________________________________
dropout_862 (Dropout)        (None, 16, 16, 128)       0         
_________________________________________________________________
separable_conv2d_792 (Separa (None, 16, 16, 64)        9408      
_________________________________________________________________
batch_normalization_496 (Bat (None, 16, 16, 64)        256       
_________________________________________________________________
activation_863 (Activation)  (None, 16, 16, 64)        0         
_________________________________________________________________
dropout_863 (Dropout)        (None, 16, 16, 64)        0         
_________________________________________________________________
separable_conv2d_793 (Separa (None, 16, 16, 512)       33856     
_________________________________________________________________
batch_normalization_497 (Bat (None, 16, 16, 512)       2048      
_________________________________________________________________
activation_864 (Activation)  (None, 16, 16, 512)       0         
_________________________________________________________________
dropout_864 (Dropout)        (None, 16, 16, 512)       0         
_________________________________________________________________
max_pooling2d_194 (MaxPoolin (None, 8, 8, 512)         0         
_________________________________________________________________
separable_conv2d_794 (Separa (None, 8, 8, 32)          21024     
_________________________________________________________________
batch_normalization_498 (Bat (None, 8, 8, 32)          128       
_________________________________________________________________
activation_865 (Activation)  (None, 8, 8, 32)          0         
_________________________________________________________________
dropout_865 (Dropout)        (None, 8, 8, 32)          0         
_________________________________________________________________
max_pooling2d_195 (MaxPoolin (None, 4, 4, 32)          0         
_________________________________________________________________
separable_conv2d_795 (Separa (None, 4, 4, 128)         4512      
_________________________________________________________________
activation_866 (Activation)  (None, 4, 4, 128)         0         
_________________________________________________________________
dropout_866 (Dropout)        (None, 4, 4, 128)         0         
_________________________________________________________________
separable_conv2d_796 (Separa (None, 4, 4, 32)          5280      
_________________________________________________________________
batch_normalization_499 (Bat (None, 4, 4, 32)          128       
_________________________________________________________________
activation_867 (Activation)  (None, 4, 4, 32)          0         
_________________________________________________________________
dropout_867 (Dropout)        (None, 4, 4, 32)          0         
_________________________________________________________________
separable_conv2d_797 (Separa (None, 4, 4, 512)         17184     
_________________________________________________________________
batch_normalization_500 (Bat (None, 4, 4, 512)         2048      
_________________________________________________________________
activation_868 (Activation)  (None, 4, 4, 512)         0         
_________________________________________________________________
dropout_868 (Dropout)        (None, 4, 4, 512)         0         
_________________________________________________________________
flatten_68 (Flatten)         (None, 8192)              0         
_________________________________________________________________
dense_139 (Dense)            (None, 2048)              16779264  
_________________________________________________________________
batch_normalization_501 (Bat (None, 2048)              8192      
_________________________________________________________________
activation_869 (Activation)  (None, 2048)              0         
_________________________________________________________________
dropout_869 (Dropout)        (None, 2048)              0         
_________________________________________________________________
dense_140 (Dense)            (None, 100)               204900    
=================================================================
Total params: 17,099,071
Trainable params: 17,092,159
Non-trainable params: 6,912
_________________________________________________________________
