Model: "sequential_115"
_________________________________________________________________
Layer (type)                 Output Shape              Param #   
=================================================================
separable_conv2d_1330 (Separ (None, 32, 32, 32)        155       
_________________________________________________________________
activation_1448 (Activation) (None, 32, 32, 32)        0         
_________________________________________________________________
dropout_1448 (Dropout)       (None, 32, 32, 32)        0         
_________________________________________________________________
separable_conv2d_1331 (Separ (None, 32, 32, 128)       4512      
_________________________________________________________________
batch_normalization_861 (Bat (None, 32, 32, 128)       512       
_________________________________________________________________
activation_1449 (Activation) (None, 32, 32, 128)       0         
_________________________________________________________________
dropout_1449 (Dropout)       (None, 32, 32, 128)       0         
_________________________________________________________________
separable_conv2d_1332 (Separ (None, 32, 32, 8)         2184      
_________________________________________________________________
activation_1450 (Activation) (None, 32, 32, 8)         0         
_________________________________________________________________
dropout_1450 (Dropout)       (None, 32, 32, 8)         0         
_________________________________________________________________
separable_conv2d_1333 (Separ (None, 32, 32, 64)        648       
_________________________________________________________________
activation_1451 (Activation) (None, 32, 32, 64)        0         
_________________________________________________________________
dropout_1451 (Dropout)       (None, 32, 32, 64)        0         
_________________________________________________________________
max_pooling2d_334 (MaxPoolin (None, 16, 16, 64)        0         
_________________________________________________________________
separable_conv2d_1334 (Separ (None, 16, 16, 8)         1096      
_________________________________________________________________
activation_1452 (Activation) (None, 16, 16, 8)         0         
_________________________________________________________________
dropout_1452 (Dropout)       (None, 16, 16, 8)         0         
_________________________________________________________________
separable_conv2d_1335 (Separ (None, 16, 16, 1024)      9288      
_________________________________________________________________
batch_normalization_862 (Bat (None, 16, 16, 1024)      4096      
_________________________________________________________________
activation_1453 (Activation) (None, 16, 16, 1024)      0         
_________________________________________________________________
dropout_1453 (Dropout)       (None, 16, 16, 1024)      0         
_________________________________________________________________
separable_conv2d_1336 (Separ (None, 16, 16, 64)        74816     
_________________________________________________________________
batch_normalization_863 (Bat (None, 16, 16, 64)        256       
_________________________________________________________________
activation_1454 (Activation) (None, 16, 16, 64)        0         
_________________________________________________________________
dropout_1454 (Dropout)       (None, 16, 16, 64)        0         
_________________________________________________________________
separable_conv2d_1337 (Separ (None, 16, 16, 512)       33856     
_________________________________________________________________
batch_normalization_864 (Bat (None, 16, 16, 512)       2048      
_________________________________________________________________
activation_1455 (Activation) (None, 16, 16, 512)       0         
_________________________________________________________________
dropout_1455 (Dropout)       (None, 16, 16, 512)       0         
_________________________________________________________________
max_pooling2d_335 (MaxPoolin (None, 8, 8, 512)         0         
_________________________________________________________________
separable_conv2d_1338 (Separ (None, 8, 8, 128)         70272     
_________________________________________________________________
activation_1456 (Activation) (None, 8, 8, 128)         0         
_________________________________________________________________
dropout_1456 (Dropout)       (None, 8, 8, 128)         0         
_________________________________________________________________
separable_conv2d_1339 (Separ (None, 8, 8, 32)          5280      
_________________________________________________________________
batch_normalization_865 (Bat (None, 8, 8, 32)          128       
_________________________________________________________________
activation_1457 (Activation) (None, 8, 8, 32)          0         
_________________________________________________________________
dropout_1457 (Dropout)       (None, 8, 8, 32)          0         
_________________________________________________________________
separable_conv2d_1340 (Separ (None, 8, 8, 256)         8736      
_________________________________________________________________
batch_normalization_866 (Bat (None, 8, 8, 256)         1024      
_________________________________________________________________
activation_1458 (Activation) (None, 8, 8, 256)         0         
_________________________________________________________________
dropout_1458 (Dropout)       (None, 8, 8, 256)         0         
_________________________________________________________________
max_pooling2d_336 (MaxPoolin (None, 4, 4, 256)         0         
_________________________________________________________________
flatten_115 (Flatten)        (None, 4096)              0         
_________________________________________________________________
dense_233 (Dense)            (None, 2048)              8390656   
_________________________________________________________________
batch_normalization_867 (Bat (None, 2048)              8192      
_________________________________________________________________
activation_1459 (Activation) (None, 2048)              0         
_________________________________________________________________
dropout_1459 (Dropout)       (None, 2048)              0         
_________________________________________________________________
dense_234 (Dense)            (None, 100)               204900    
=================================================================
Total params: 8,822,655
Trainable params: 8,814,527
Non-trainable params: 8,128
_________________________________________________________________
