Model: "sequential_255"
_________________________________________________________________
Layer (type)                 Output Shape              Param #   
=================================================================
separable_conv2d_2843 (Separ (None, 32, 32, 32)        155       
_________________________________________________________________
activation_3101 (Activation) (None, 32, 32, 32)        0         
_________________________________________________________________
dropout_3101 (Dropout)       (None, 32, 32, 32)        0         
_________________________________________________________________
separable_conv2d_2844 (Separ (None, 32, 32, 1024)      34080     
_________________________________________________________________
batch_normalization_1816 (Ba (None, 32, 32, 1024)      4096      
_________________________________________________________________
activation_3102 (Activation) (None, 32, 32, 1024)      0         
_________________________________________________________________
dropout_3102 (Dropout)       (None, 32, 32, 1024)      0         
_________________________________________________________________
separable_conv2d_2845 (Separ (None, 32, 32, 8)         17416     
_________________________________________________________________
activation_3103 (Activation) (None, 32, 32, 8)         0         
_________________________________________________________________
dropout_3103 (Dropout)       (None, 32, 32, 8)         0         
_________________________________________________________________
separable_conv2d_2846 (Separ (None, 32, 32, 64)        648       
_________________________________________________________________
activation_3104 (Activation) (None, 32, 32, 64)        0         
_________________________________________________________________
dropout_3104 (Dropout)       (None, 32, 32, 64)        0         
_________________________________________________________________
max_pooling2d_742 (MaxPoolin (None, 16, 16, 64)        0         
_________________________________________________________________
separable_conv2d_2847 (Separ (None, 16, 16, 16)        1616      
_________________________________________________________________
activation_3105 (Activation) (None, 16, 16, 16)        0         
_________________________________________________________________
dropout_3105 (Dropout)       (None, 16, 16, 16)        0         
_________________________________________________________________
separable_conv2d_2848 (Separ (None, 16, 16, 256)       4496      
_________________________________________________________________
batch_normalization_1817 (Ba (None, 16, 16, 256)       1024      
_________________________________________________________________
activation_3106 (Activation) (None, 16, 16, 256)       0         
_________________________________________________________________
dropout_3106 (Dropout)       (None, 16, 16, 256)       0         
_________________________________________________________________
separable_conv2d_2849 (Separ (None, 16, 16, 64)        18752     
_________________________________________________________________
batch_normalization_1818 (Ba (None, 16, 16, 64)        256       
_________________________________________________________________
activation_3107 (Activation) (None, 16, 16, 64)        0         
_________________________________________________________________
dropout_3107 (Dropout)       (None, 16, 16, 64)        0         
_________________________________________________________________
separable_conv2d_2850 (Separ (None, 16, 16, 512)       33856     
_________________________________________________________________
batch_normalization_1819 (Ba (None, 16, 16, 512)       2048      
_________________________________________________________________
activation_3108 (Activation) (None, 16, 16, 512)       0         
_________________________________________________________________
dropout_3108 (Dropout)       (None, 16, 16, 512)       0         
_________________________________________________________________
max_pooling2d_743 (MaxPoolin (None, 8, 8, 512)         0         
_________________________________________________________________
separable_conv2d_2851 (Separ (None, 8, 8, 128)         70272     
_________________________________________________________________
activation_3109 (Activation) (None, 8, 8, 128)         0         
_________________________________________________________________
dropout_3109 (Dropout)       (None, 8, 8, 128)         0         
_________________________________________________________________
separable_conv2d_2852 (Separ (None, 8, 8, 32)          5280      
_________________________________________________________________
activation_3110 (Activation) (None, 8, 8, 32)          0         
_________________________________________________________________
dropout_3110 (Dropout)       (None, 8, 8, 32)          0         
_________________________________________________________________
separable_conv2d_2853 (Separ (None, 8, 8, 256)         8736      
_________________________________________________________________
batch_normalization_1820 (Ba (None, 8, 8, 256)         1024      
_________________________________________________________________
activation_3111 (Activation) (None, 8, 8, 256)         0         
_________________________________________________________________
dropout_3111 (Dropout)       (None, 8, 8, 256)         0         
_________________________________________________________________
max_pooling2d_744 (MaxPoolin (None, 4, 4, 256)         0         
_________________________________________________________________
flatten_255 (Flatten)        (None, 4096)              0         
_________________________________________________________________
dense_513 (Dense)            (None, 2048)              8390656   
_________________________________________________________________
batch_normalization_1821 (Ba (None, 2048)              8192      
_________________________________________________________________
activation_3112 (Activation) (None, 2048)              0         
_________________________________________________________________
dropout_3112 (Dropout)       (None, 2048)              0         
_________________________________________________________________
dense_514 (Dense)            (None, 100)               204900    
=================================================================
Total params: 8,807,503
Trainable params: 8,799,183
Non-trainable params: 8,320
_________________________________________________________________
