Model: "sequential_89"
_________________________________________________________________
Layer (type)                 Output Shape              Param #   
=================================================================
separable_conv2d_1034 (Separ (None, 32, 32, 32)        155       
_________________________________________________________________
activation_1126 (Activation) (None, 32, 32, 32)        0         
_________________________________________________________________
dropout_1126 (Dropout)       (None, 32, 32, 32)        0         
_________________________________________________________________
separable_conv2d_1035 (Separ (None, 32, 32, 128)       4512      
_________________________________________________________________
batch_normalization_660 (Bat (None, 32, 32, 128)       512       
_________________________________________________________________
activation_1127 (Activation) (None, 32, 32, 128)       0         
_________________________________________________________________
dropout_1127 (Dropout)       (None, 32, 32, 128)       0         
_________________________________________________________________
separable_conv2d_1036 (Separ (None, 32, 32, 8)         2184      
_________________________________________________________________
activation_1128 (Activation) (None, 32, 32, 8)         0         
_________________________________________________________________
dropout_1128 (Dropout)       (None, 32, 32, 8)         0         
_________________________________________________________________
separable_conv2d_1037 (Separ (None, 32, 32, 64)        648       
_________________________________________________________________
activation_1129 (Activation) (None, 32, 32, 64)        0         
_________________________________________________________________
dropout_1129 (Dropout)       (None, 32, 32, 64)        0         
_________________________________________________________________
max_pooling2d_256 (MaxPoolin (None, 16, 16, 64)        0         
_________________________________________________________________
separable_conv2d_1038 (Separ (None, 16, 16, 8)         1096      
_________________________________________________________________
activation_1130 (Activation) (None, 16, 16, 8)         0         
_________________________________________________________________
dropout_1130 (Dropout)       (None, 16, 16, 8)         0         
_________________________________________________________________
separable_conv2d_1039 (Separ (None, 16, 16, 128)       1224      
_________________________________________________________________
batch_normalization_661 (Bat (None, 16, 16, 128)       512       
_________________________________________________________________
activation_1131 (Activation) (None, 16, 16, 128)       0         
_________________________________________________________________
dropout_1131 (Dropout)       (None, 16, 16, 128)       0         
_________________________________________________________________
separable_conv2d_1040 (Separ (None, 16, 16, 64)        9408      
_________________________________________________________________
batch_normalization_662 (Bat (None, 16, 16, 64)        256       
_________________________________________________________________
activation_1132 (Activation) (None, 16, 16, 64)        0         
_________________________________________________________________
dropout_1132 (Dropout)       (None, 16, 16, 64)        0         
_________________________________________________________________
separable_conv2d_1041 (Separ (None, 16, 16, 512)       33856     
_________________________________________________________________
batch_normalization_663 (Bat (None, 16, 16, 512)       2048      
_________________________________________________________________
activation_1133 (Activation) (None, 16, 16, 512)       0         
_________________________________________________________________
dropout_1133 (Dropout)       (None, 16, 16, 512)       0         
_________________________________________________________________
max_pooling2d_257 (MaxPoolin (None, 8, 8, 512)         0         
_________________________________________________________________
separable_conv2d_1042 (Separ (None, 8, 8, 32)          21024     
_________________________________________________________________
batch_normalization_664 (Bat (None, 8, 8, 32)          128       
_________________________________________________________________
activation_1134 (Activation) (None, 8, 8, 32)          0         
_________________________________________________________________
dropout_1134 (Dropout)       (None, 8, 8, 32)          0         
_________________________________________________________________
max_pooling2d_258 (MaxPoolin (None, 4, 4, 32)          0         
_________________________________________________________________
separable_conv2d_1043 (Separ (None, 4, 4, 128)         4512      
_________________________________________________________________
activation_1135 (Activation) (None, 4, 4, 128)         0         
_________________________________________________________________
dropout_1135 (Dropout)       (None, 4, 4, 128)         0         
_________________________________________________________________
separable_conv2d_1044 (Separ (None, 4, 4, 32)          5280      
_________________________________________________________________
batch_normalization_665 (Bat (None, 4, 4, 32)          128       
_________________________________________________________________
activation_1136 (Activation) (None, 4, 4, 32)          0         
_________________________________________________________________
dropout_1136 (Dropout)       (None, 4, 4, 32)          0         
_________________________________________________________________
separable_conv2d_1045 (Separ (None, 4, 4, 256)         8736      
_________________________________________________________________
batch_normalization_666 (Bat (None, 4, 4, 256)         1024      
_________________________________________________________________
activation_1137 (Activation) (None, 4, 4, 256)         0         
_________________________________________________________________
dropout_1137 (Dropout)       (None, 4, 4, 256)         0         
_________________________________________________________________
flatten_89 (Flatten)         (None, 4096)              0         
_________________________________________________________________
dense_181 (Dense)            (None, 2048)              8390656   
_________________________________________________________________
batch_normalization_667 (Bat (None, 2048)              8192      
_________________________________________________________________
activation_1138 (Activation) (None, 2048)              0         
_________________________________________________________________
dropout_1138 (Dropout)       (None, 2048)              0         
_________________________________________________________________
dense_182 (Dense)            (None, 100)               204900    
=================================================================
Total params: 8,700,991
Trainable params: 8,694,591
Non-trainable params: 6,400
_________________________________________________________________
