Model: "sequential_77"
_________________________________________________________________
Layer (type)                 Output Shape              Param #   
=================================================================
separable_conv2d_892 (Separa (None, 32, 32, 32)        155       
_________________________________________________________________
activation_972 (Activation)  (None, 32, 32, 32)        0         
_________________________________________________________________
dropout_972 (Dropout)        (None, 32, 32, 32)        0         
_________________________________________________________________
separable_conv2d_893 (Separa (None, 32, 32, 128)       4512      
_________________________________________________________________
batch_normalization_563 (Bat (None, 32, 32, 128)       512       
_________________________________________________________________
activation_973 (Activation)  (None, 32, 32, 128)       0         
_________________________________________________________________
dropout_973 (Dropout)        (None, 32, 32, 128)       0         
_________________________________________________________________
separable_conv2d_894 (Separa (None, 32, 32, 8)         2184      
_________________________________________________________________
activation_974 (Activation)  (None, 32, 32, 8)         0         
_________________________________________________________________
dropout_974 (Dropout)        (None, 32, 32, 8)         0         
_________________________________________________________________
separable_conv2d_895 (Separa (None, 32, 32, 64)        648       
_________________________________________________________________
activation_975 (Activation)  (None, 32, 32, 64)        0         
_________________________________________________________________
dropout_975 (Dropout)        (None, 32, 32, 64)        0         
_________________________________________________________________
max_pooling2d_220 (MaxPoolin (None, 16, 16, 64)        0         
_________________________________________________________________
separable_conv2d_896 (Separa (None, 16, 16, 8)         1096      
_________________________________________________________________
activation_976 (Activation)  (None, 16, 16, 8)         0         
_________________________________________________________________
dropout_976 (Dropout)        (None, 16, 16, 8)         0         
_________________________________________________________________
separable_conv2d_897 (Separa (None, 16, 16, 128)       1224      
_________________________________________________________________
batch_normalization_564 (Bat (None, 16, 16, 128)       512       
_________________________________________________________________
activation_977 (Activation)  (None, 16, 16, 128)       0         
_________________________________________________________________
dropout_977 (Dropout)        (None, 16, 16, 128)       0         
_________________________________________________________________
separable_conv2d_898 (Separa (None, 16, 16, 64)        9408      
_________________________________________________________________
batch_normalization_565 (Bat (None, 16, 16, 64)        256       
_________________________________________________________________
activation_978 (Activation)  (None, 16, 16, 64)        0         
_________________________________________________________________
dropout_978 (Dropout)        (None, 16, 16, 64)        0         
_________________________________________________________________
separable_conv2d_899 (Separa (None, 16, 16, 512)       33856     
_________________________________________________________________
batch_normalization_566 (Bat (None, 16, 16, 512)       2048      
_________________________________________________________________
activation_979 (Activation)  (None, 16, 16, 512)       0         
_________________________________________________________________
dropout_979 (Dropout)        (None, 16, 16, 512)       0         
_________________________________________________________________
max_pooling2d_221 (MaxPoolin (None, 8, 8, 512)         0         
_________________________________________________________________
separable_conv2d_900 (Separa (None, 8, 8, 32)          21024     
_________________________________________________________________
batch_normalization_567 (Bat (None, 8, 8, 32)          128       
_________________________________________________________________
activation_980 (Activation)  (None, 8, 8, 32)          0         
_________________________________________________________________
dropout_980 (Dropout)        (None, 8, 8, 32)          0         
_________________________________________________________________
max_pooling2d_222 (MaxPoolin (None, 4, 4, 32)          0         
_________________________________________________________________
separable_conv2d_901 (Separa (None, 4, 4, 128)         4512      
_________________________________________________________________
activation_981 (Activation)  (None, 4, 4, 128)         0         
_________________________________________________________________
dropout_981 (Dropout)        (None, 4, 4, 128)         0         
_________________________________________________________________
separable_conv2d_902 (Separa (None, 4, 4, 32)          5280      
_________________________________________________________________
batch_normalization_568 (Bat (None, 4, 4, 32)          128       
_________________________________________________________________
activation_982 (Activation)  (None, 4, 4, 32)          0         
_________________________________________________________________
dropout_982 (Dropout)        (None, 4, 4, 32)          0         
_________________________________________________________________
separable_conv2d_903 (Separa (None, 4, 4, 256)         8736      
_________________________________________________________________
batch_normalization_569 (Bat (None, 4, 4, 256)         1024      
_________________________________________________________________
activation_983 (Activation)  (None, 4, 4, 256)         0         
_________________________________________________________________
dropout_983 (Dropout)        (None, 4, 4, 256)         0         
_________________________________________________________________
flatten_77 (Flatten)         (None, 4096)              0         
_________________________________________________________________
dense_157 (Dense)            (None, 2048)              8390656   
_________________________________________________________________
batch_normalization_570 (Bat (None, 2048)              8192      
_________________________________________________________________
activation_984 (Activation)  (None, 2048)              0         
_________________________________________________________________
dropout_984 (Dropout)        (None, 2048)              0         
_________________________________________________________________
dense_158 (Dense)            (None, 100)               204900    
=================================================================
Total params: 8,700,991
Trainable params: 8,694,591
Non-trainable params: 6,400
_________________________________________________________________
