Model: "sequential_222"
_________________________________________________________________
Layer (type)                 Output Shape              Param #   
=================================================================
separable_conv2d_2496 (Separ (None, 32, 32, 32)        155       
_________________________________________________________________
activation_2721 (Activation) (None, 32, 32, 32)        0         
_________________________________________________________________
dropout_2721 (Dropout)       (None, 32, 32, 32)        0         
_________________________________________________________________
separable_conv2d_2497 (Separ (None, 32, 32, 256)       8736      
_________________________________________________________________
batch_normalization_1598 (Ba (None, 32, 32, 256)       1024      
_________________________________________________________________
activation_2722 (Activation) (None, 32, 32, 256)       0         
_________________________________________________________________
dropout_2722 (Dropout)       (None, 32, 32, 256)       0         
_________________________________________________________________
separable_conv2d_2498 (Separ (None, 32, 32, 8)         4360      
_________________________________________________________________
activation_2723 (Activation) (None, 32, 32, 8)         0         
_________________________________________________________________
dropout_2723 (Dropout)       (None, 32, 32, 8)         0         
_________________________________________________________________
separable_conv2d_2499 (Separ (None, 32, 32, 64)        648       
_________________________________________________________________
activation_2724 (Activation) (None, 32, 32, 64)        0         
_________________________________________________________________
dropout_2724 (Dropout)       (None, 32, 32, 64)        0         
_________________________________________________________________
max_pooling2d_650 (MaxPoolin (None, 16, 16, 64)        0         
_________________________________________________________________
separable_conv2d_2500 (Separ (None, 16, 16, 8)         1096      
_________________________________________________________________
activation_2725 (Activation) (None, 16, 16, 8)         0         
_________________________________________________________________
dropout_2725 (Dropout)       (None, 16, 16, 8)         0         
_________________________________________________________________
separable_conv2d_2501 (Separ (None, 16, 16, 128)       1224      
_________________________________________________________________
batch_normalization_1599 (Ba (None, 16, 16, 128)       512       
_________________________________________________________________
activation_2726 (Activation) (None, 16, 16, 128)       0         
_________________________________________________________________
dropout_2726 (Dropout)       (None, 16, 16, 128)       0         
_________________________________________________________________
separable_conv2d_2502 (Separ (None, 16, 16, 64)        9408      
_________________________________________________________________
batch_normalization_1600 (Ba (None, 16, 16, 64)        256       
_________________________________________________________________
activation_2727 (Activation) (None, 16, 16, 64)        0         
_________________________________________________________________
dropout_2727 (Dropout)       (None, 16, 16, 64)        0         
_________________________________________________________________
separable_conv2d_2503 (Separ (None, 16, 16, 512)       33856     
_________________________________________________________________
batch_normalization_1601 (Ba (None, 16, 16, 512)       2048      
_________________________________________________________________
activation_2728 (Activation) (None, 16, 16, 512)       0         
_________________________________________________________________
dropout_2728 (Dropout)       (None, 16, 16, 512)       0         
_________________________________________________________________
max_pooling2d_651 (MaxPoolin (None, 8, 8, 512)         0         
_________________________________________________________________
separable_conv2d_2504 (Separ (None, 8, 8, 128)         70272     
_________________________________________________________________
activation_2729 (Activation) (None, 8, 8, 128)         0         
_________________________________________________________________
dropout_2729 (Dropout)       (None, 8, 8, 128)         0         
_________________________________________________________________
separable_conv2d_2505 (Separ (None, 8, 8, 256)         34176     
_________________________________________________________________
batch_normalization_1602 (Ba (None, 8, 8, 256)         1024      
_________________________________________________________________
activation_2730 (Activation) (None, 8, 8, 256)         0         
_________________________________________________________________
dropout_2730 (Dropout)       (None, 8, 8, 256)         0         
_________________________________________________________________
max_pooling2d_652 (MaxPoolin (None, 4, 4, 256)         0         
_________________________________________________________________
flatten_222 (Flatten)        (None, 4096)              0         
_________________________________________________________________
dense_447 (Dense)            (None, 2048)              8390656   
_________________________________________________________________
batch_normalization_1603 (Ba (None, 2048)              8192      
_________________________________________________________________
activation_2731 (Activation) (None, 2048)              0         
_________________________________________________________________
dropout_2731 (Dropout)       (None, 2048)              0         
_________________________________________________________________
dense_448 (Dense)            (None, 100)               204900    
=================================================================
Total params: 8,772,543
Trainable params: 8,766,015
Non-trainable params: 6,528
_________________________________________________________________
