Model: "sequential_40"
_________________________________________________________________
Layer (type)                 Output Shape              Param #   
=================================================================
separable_conv2d_459 (Separa (None, 32, 32, 32)        155       
_________________________________________________________________
activation_502 (Activation)  (None, 32, 32, 32)        0         
_________________________________________________________________
dropout_502 (Dropout)        (None, 32, 32, 32)        0         
_________________________________________________________________
separable_conv2d_460 (Separa (None, 32, 32, 128)       4512      
_________________________________________________________________
batch_normalization_277 (Bat (None, 32, 32, 128)       512       
_________________________________________________________________
activation_503 (Activation)  (None, 32, 32, 128)       0         
_________________________________________________________________
dropout_503 (Dropout)        (None, 32, 32, 128)       0         
_________________________________________________________________
separable_conv2d_461 (Separa (None, 32, 32, 8)         2184      
_________________________________________________________________
activation_504 (Activation)  (None, 32, 32, 8)         0         
_________________________________________________________________
dropout_504 (Dropout)        (None, 32, 32, 8)         0         
_________________________________________________________________
separable_conv2d_462 (Separa (None, 32, 32, 64)        648       
_________________________________________________________________
activation_505 (Activation)  (None, 32, 32, 64)        0         
_________________________________________________________________
dropout_505 (Dropout)        (None, 32, 32, 64)        0         
_________________________________________________________________
max_pooling2d_109 (MaxPoolin (None, 16, 16, 64)        0         
_________________________________________________________________
separable_conv2d_463 (Separa (None, 16, 16, 8)         1096      
_________________________________________________________________
activation_506 (Activation)  (None, 16, 16, 8)         0         
_________________________________________________________________
dropout_506 (Dropout)        (None, 16, 16, 8)         0         
_________________________________________________________________
separable_conv2d_464 (Separa (None, 16, 16, 128)       1224      
_________________________________________________________________
batch_normalization_278 (Bat (None, 16, 16, 128)       512       
_________________________________________________________________
activation_507 (Activation)  (None, 16, 16, 128)       0         
_________________________________________________________________
dropout_507 (Dropout)        (None, 16, 16, 128)       0         
_________________________________________________________________
separable_conv2d_465 (Separa (None, 16, 16, 64)        9408      
_________________________________________________________________
batch_normalization_279 (Bat (None, 16, 16, 64)        256       
_________________________________________________________________
activation_508 (Activation)  (None, 16, 16, 64)        0         
_________________________________________________________________
dropout_508 (Dropout)        (None, 16, 16, 64)        0         
_________________________________________________________________
separable_conv2d_466 (Separa (None, 16, 16, 512)       33856     
_________________________________________________________________
batch_normalization_280 (Bat (None, 16, 16, 512)       2048      
_________________________________________________________________
activation_509 (Activation)  (None, 16, 16, 512)       0         
_________________________________________________________________
dropout_509 (Dropout)        (None, 16, 16, 512)       0         
_________________________________________________________________
max_pooling2d_110 (MaxPoolin (None, 8, 8, 512)         0         
_________________________________________________________________
separable_conv2d_467 (Separa (None, 8, 8, 32)          21024     
_________________________________________________________________
batch_normalization_281 (Bat (None, 8, 8, 32)          128       
_________________________________________________________________
activation_510 (Activation)  (None, 8, 8, 32)          0         
_________________________________________________________________
dropout_510 (Dropout)        (None, 8, 8, 32)          0         
_________________________________________________________________
max_pooling2d_111 (MaxPoolin (None, 4, 4, 32)          0         
_________________________________________________________________
separable_conv2d_468 (Separa (None, 4, 4, 128)         4512      
_________________________________________________________________
activation_511 (Activation)  (None, 4, 4, 128)         0         
_________________________________________________________________
dropout_511 (Dropout)        (None, 4, 4, 128)         0         
_________________________________________________________________
separable_conv2d_469 (Separa (None, 4, 4, 32)          5280      
_________________________________________________________________
batch_normalization_282 (Bat (None, 4, 4, 32)          128       
_________________________________________________________________
activation_512 (Activation)  (None, 4, 4, 32)          0         
_________________________________________________________________
dropout_512 (Dropout)        (None, 4, 4, 32)          0         
_________________________________________________________________
separable_conv2d_470 (Separa (None, 4, 4, 256)         8736      
_________________________________________________________________
batch_normalization_283 (Bat (None, 4, 4, 256)         1024      
_________________________________________________________________
activation_513 (Activation)  (None, 4, 4, 256)         0         
_________________________________________________________________
dropout_513 (Dropout)        (None, 4, 4, 256)         0         
_________________________________________________________________
flatten_40 (Flatten)         (None, 4096)              0         
_________________________________________________________________
dense_83 (Dense)             (None, 2048)              8390656   
_________________________________________________________________
batch_normalization_284 (Bat (None, 2048)              8192      
_________________________________________________________________
activation_514 (Activation)  (None, 2048)              0         
_________________________________________________________________
dropout_514 (Dropout)        (None, 2048)              0         
_________________________________________________________________
dense_84 (Dense)             (None, 100)               204900    
=================================================================
Total params: 8,700,991
Trainable params: 8,694,591
Non-trainable params: 6,400
_________________________________________________________________
