Model: "sequential_213"
_________________________________________________________________
Layer (type)                 Output Shape              Param #   
=================================================================
separable_conv2d_2399 (Separ (None, 32, 32, 32)        155       
_________________________________________________________________
activation_2615 (Activation) (None, 32, 32, 32)        0         
_________________________________________________________________
dropout_2615 (Dropout)       (None, 32, 32, 32)        0         
_________________________________________________________________
separable_conv2d_2400 (Separ (None, 32, 32, 256)       8736      
_________________________________________________________________
batch_normalization_1540 (Ba (None, 32, 32, 256)       1024      
_________________________________________________________________
activation_2616 (Activation) (None, 32, 32, 256)       0         
_________________________________________________________________
dropout_2616 (Dropout)       (None, 32, 32, 256)       0         
_________________________________________________________________
separable_conv2d_2401 (Separ (None, 32, 32, 8)         4360      
_________________________________________________________________
activation_2617 (Activation) (None, 32, 32, 8)         0         
_________________________________________________________________
dropout_2617 (Dropout)       (None, 32, 32, 8)         0         
_________________________________________________________________
separable_conv2d_2402 (Separ (None, 32, 32, 256)       2376      
_________________________________________________________________
activation_2618 (Activation) (None, 32, 32, 256)       0         
_________________________________________________________________
dropout_2618 (Dropout)       (None, 32, 32, 256)       0         
_________________________________________________________________
max_pooling2d_624 (MaxPoolin (None, 16, 16, 256)       0         
_________________________________________________________________
separable_conv2d_2403 (Separ (None, 16, 16, 8)         4360      
_________________________________________________________________
activation_2619 (Activation) (None, 16, 16, 8)         0         
_________________________________________________________________
dropout_2619 (Dropout)       (None, 16, 16, 8)         0         
_________________________________________________________________
separable_conv2d_2404 (Separ (None, 16, 16, 128)       1224      
_________________________________________________________________
batch_normalization_1541 (Ba (None, 16, 16, 128)       512       
_________________________________________________________________
activation_2620 (Activation) (None, 16, 16, 128)       0         
_________________________________________________________________
dropout_2620 (Dropout)       (None, 16, 16, 128)       0         
_________________________________________________________________
separable_conv2d_2405 (Separ (None, 16, 16, 64)        9408      
_________________________________________________________________
batch_normalization_1542 (Ba (None, 16, 16, 64)        256       
_________________________________________________________________
activation_2621 (Activation) (None, 16, 16, 64)        0         
_________________________________________________________________
dropout_2621 (Dropout)       (None, 16, 16, 64)        0         
_________________________________________________________________
separable_conv2d_2406 (Separ (None, 16, 16, 512)       33856     
_________________________________________________________________
batch_normalization_1543 (Ba (None, 16, 16, 512)       2048      
_________________________________________________________________
activation_2622 (Activation) (None, 16, 16, 512)       0         
_________________________________________________________________
dropout_2622 (Dropout)       (None, 16, 16, 512)       0         
_________________________________________________________________
max_pooling2d_625 (MaxPoolin (None, 8, 8, 512)         0         
_________________________________________________________________
separable_conv2d_2407 (Separ (None, 8, 8, 128)         70272     
_________________________________________________________________
activation_2623 (Activation) (None, 8, 8, 128)         0         
_________________________________________________________________
dropout_2623 (Dropout)       (None, 8, 8, 128)         0         
_________________________________________________________________
separable_conv2d_2408 (Separ (None, 8, 8, 32)          5280      
_________________________________________________________________
activation_2624 (Activation) (None, 8, 8, 32)          0         
_________________________________________________________________
dropout_2624 (Dropout)       (None, 8, 8, 32)          0         
_________________________________________________________________
separable_conv2d_2409 (Separ (None, 8, 8, 256)         8736      
_________________________________________________________________
batch_normalization_1544 (Ba (None, 8, 8, 256)         1024      
_________________________________________________________________
activation_2625 (Activation) (None, 8, 8, 256)         0         
_________________________________________________________________
dropout_2625 (Dropout)       (None, 8, 8, 256)         0         
_________________________________________________________________
max_pooling2d_626 (MaxPoolin (None, 4, 4, 256)         0         
_________________________________________________________________
flatten_213 (Flatten)        (None, 4096)              0         
_________________________________________________________________
dense_429 (Dense)            (None, 2048)              8390656   
_________________________________________________________________
batch_normalization_1545 (Ba (None, 2048)              8192      
_________________________________________________________________
activation_2626 (Activation) (None, 2048)              0         
_________________________________________________________________
dropout_2626 (Dropout)       (None, 2048)              0         
_________________________________________________________________
dense_430 (Dense)            (None, 100)               204900    
=================================================================
Total params: 8,757,375
Trainable params: 8,750,847
Non-trainable params: 6,528
_________________________________________________________________
