Model: "sequential_147"
_________________________________________________________________
Layer (type)                 Output Shape              Param #   
=================================================================
separable_conv2d_1687 (Separ (None, 32, 32, 32)        155       
_________________________________________________________________
activation_1837 (Activation) (None, 32, 32, 32)        0         
_________________________________________________________________
dropout_1837 (Dropout)       (None, 32, 32, 32)        0         
_________________________________________________________________
separable_conv2d_1688 (Separ (None, 32, 32, 256)       8736      
_________________________________________________________________
batch_normalization_1094 (Ba (None, 32, 32, 256)       1024      
_________________________________________________________________
activation_1838 (Activation) (None, 32, 32, 256)       0         
_________________________________________________________________
dropout_1838 (Dropout)       (None, 32, 32, 256)       0         
_________________________________________________________________
separable_conv2d_1689 (Separ (None, 32, 32, 8)         4360      
_________________________________________________________________
activation_1839 (Activation) (None, 32, 32, 8)         0         
_________________________________________________________________
dropout_1839 (Dropout)       (None, 32, 32, 8)         0         
_________________________________________________________________
max_pooling2d_430 (MaxPoolin (None, 16, 16, 8)         0         
_________________________________________________________________
separable_conv2d_1690 (Separ (None, 16, 16, 64)        648       
_________________________________________________________________
activation_1840 (Activation) (None, 16, 16, 64)        0         
_________________________________________________________________
dropout_1840 (Dropout)       (None, 16, 16, 64)        0         
_________________________________________________________________
max_pooling2d_431 (MaxPoolin (None, 8, 8, 64)          0         
_________________________________________________________________
separable_conv2d_1691 (Separ (None, 8, 8, 8)           1096      
_________________________________________________________________
activation_1841 (Activation) (None, 8, 8, 8)           0         
_________________________________________________________________
dropout_1841 (Dropout)       (None, 8, 8, 8)           0         
_________________________________________________________________
separable_conv2d_1692 (Separ (None, 8, 8, 128)         1224      
_________________________________________________________________
batch_normalization_1095 (Ba (None, 8, 8, 128)         512       
_________________________________________________________________
activation_1842 (Activation) (None, 8, 8, 128)         0         
_________________________________________________________________
dropout_1842 (Dropout)       (None, 8, 8, 128)         0         
_________________________________________________________________
separable_conv2d_1693 (Separ (None, 8, 8, 64)          9408      
_________________________________________________________________
batch_normalization_1096 (Ba (None, 8, 8, 64)          256       
_________________________________________________________________
activation_1843 (Activation) (None, 8, 8, 64)          0         
_________________________________________________________________
dropout_1843 (Dropout)       (None, 8, 8, 64)          0         
_________________________________________________________________
separable_conv2d_1694 (Separ (None, 8, 8, 512)         33856     
_________________________________________________________________
batch_normalization_1097 (Ba (None, 8, 8, 512)         2048      
_________________________________________________________________
activation_1844 (Activation) (None, 8, 8, 512)         0         
_________________________________________________________________
dropout_1844 (Dropout)       (None, 8, 8, 512)         0         
_________________________________________________________________
max_pooling2d_432 (MaxPoolin (None, 4, 4, 512)         0         
_________________________________________________________________
separable_conv2d_1695 (Separ (None, 4, 4, 32)          21024     
_________________________________________________________________
batch_normalization_1098 (Ba (None, 4, 4, 32)          128       
_________________________________________________________________
activation_1845 (Activation) (None, 4, 4, 32)          0         
_________________________________________________________________
dropout_1845 (Dropout)       (None, 4, 4, 32)          0         
_________________________________________________________________
separable_conv2d_1696 (Separ (None, 4, 4, 512)         17184     
_________________________________________________________________
batch_normalization_1099 (Ba (None, 4, 4, 512)         2048      
_________________________________________________________________
activation_1846 (Activation) (None, 4, 4, 512)         0         
_________________________________________________________________
dropout_1846 (Dropout)       (None, 4, 4, 512)         0         
_________________________________________________________________
flatten_147 (Flatten)        (None, 8192)              0         
_________________________________________________________________
dense_297 (Dense)            (None, 2048)              16779264  
_________________________________________________________________
batch_normalization_1100 (Ba (None, 2048)              8192      
_________________________________________________________________
activation_1847 (Activation) (None, 2048)              0         
_________________________________________________________________
dropout_1847 (Dropout)       (None, 2048)              0         
_________________________________________________________________
dense_298 (Dense)            (None, 100)               204900    
=================================================================
Total params: 17,096,063
Trainable params: 17,088,959
Non-trainable params: 7,104
_________________________________________________________________
