Model: "sequential_242"
_________________________________________________________________
Layer (type)                 Output Shape              Param #   
=================================================================
separable_conv2d_2711 (Separ (None, 32, 32, 32)        155       
_________________________________________________________________
activation_2956 (Activation) (None, 32, 32, 32)        0         
_________________________________________________________________
dropout_2956 (Dropout)       (None, 32, 32, 32)        0         
_________________________________________________________________
separable_conv2d_2712 (Separ (None, 32, 32, 256)       8736      
_________________________________________________________________
batch_normalization_1731 (Ba (None, 32, 32, 256)       1024      
_________________________________________________________________
activation_2957 (Activation) (None, 32, 32, 256)       0         
_________________________________________________________________
dropout_2957 (Dropout)       (None, 32, 32, 256)       0         
_________________________________________________________________
separable_conv2d_2713 (Separ (None, 32, 32, 8)         4360      
_________________________________________________________________
activation_2958 (Activation) (None, 32, 32, 8)         0         
_________________________________________________________________
dropout_2958 (Dropout)       (None, 32, 32, 8)         0         
_________________________________________________________________
separable_conv2d_2714 (Separ (None, 32, 32, 64)        648       
_________________________________________________________________
activation_2959 (Activation) (None, 32, 32, 64)        0         
_________________________________________________________________
dropout_2959 (Dropout)       (None, 32, 32, 64)        0         
_________________________________________________________________
max_pooling2d_708 (MaxPoolin (None, 16, 16, 64)        0         
_________________________________________________________________
separable_conv2d_2715 (Separ (None, 16, 16, 16)        1616      
_________________________________________________________________
activation_2960 (Activation) (None, 16, 16, 16)        0         
_________________________________________________________________
dropout_2960 (Dropout)       (None, 16, 16, 16)        0         
_________________________________________________________________
separable_conv2d_2716 (Separ (None, 16, 16, 128)       2320      
_________________________________________________________________
batch_normalization_1732 (Ba (None, 16, 16, 128)       512       
_________________________________________________________________
activation_2961 (Activation) (None, 16, 16, 128)       0         
_________________________________________________________________
dropout_2961 (Dropout)       (None, 16, 16, 128)       0         
_________________________________________________________________
separable_conv2d_2717 (Separ (None, 16, 16, 64)        9408      
_________________________________________________________________
batch_normalization_1733 (Ba (None, 16, 16, 64)        256       
_________________________________________________________________
activation_2962 (Activation) (None, 16, 16, 64)        0         
_________________________________________________________________
dropout_2962 (Dropout)       (None, 16, 16, 64)        0         
_________________________________________________________________
separable_conv2d_2718 (Separ (None, 16, 16, 512)       33856     
_________________________________________________________________
batch_normalization_1734 (Ba (None, 16, 16, 512)       2048      
_________________________________________________________________
activation_2963 (Activation) (None, 16, 16, 512)       0         
_________________________________________________________________
dropout_2963 (Dropout)       (None, 16, 16, 512)       0         
_________________________________________________________________
max_pooling2d_709 (MaxPoolin (None, 8, 8, 512)         0         
_________________________________________________________________
separable_conv2d_2719 (Separ (None, 8, 8, 128)         70272     
_________________________________________________________________
activation_2964 (Activation) (None, 8, 8, 128)         0         
_________________________________________________________________
dropout_2964 (Dropout)       (None, 8, 8, 128)         0         
_________________________________________________________________
separable_conv2d_2720 (Separ (None, 8, 8, 32)          5280      
_________________________________________________________________
batch_normalization_1735 (Ba (None, 8, 8, 32)          128       
_________________________________________________________________
activation_2965 (Activation) (None, 8, 8, 32)          0         
_________________________________________________________________
dropout_2965 (Dropout)       (None, 8, 8, 32)          0         
_________________________________________________________________
separable_conv2d_2721 (Separ (None, 8, 8, 256)         8736      
_________________________________________________________________
batch_normalization_1736 (Ba (None, 8, 8, 256)         1024      
_________________________________________________________________
activation_2966 (Activation) (None, 8, 8, 256)         0         
_________________________________________________________________
dropout_2966 (Dropout)       (None, 8, 8, 256)         0         
_________________________________________________________________
max_pooling2d_710 (MaxPoolin (None, 4, 4, 256)         0         
_________________________________________________________________
flatten_242 (Flatten)        (None, 4096)              0         
_________________________________________________________________
dense_487 (Dense)            (None, 2048)              8390656   
_________________________________________________________________
batch_normalization_1737 (Ba (None, 2048)              8192      
_________________________________________________________________
activation_2967 (Activation) (None, 2048)              0         
_________________________________________________________________
dropout_2967 (Dropout)       (None, 2048)              0         
_________________________________________________________________
dense_488 (Dense)            (None, 100)               204900    
=================================================================
Total params: 8,754,127
Trainable params: 8,747,535
Non-trainable params: 6,592
_________________________________________________________________
