Model: "sequential_142"
_________________________________________________________________
Layer (type)                 Output Shape              Param #   
=================================================================
separable_conv2d_1632 (Separ (None, 32, 32, 32)        155       
_________________________________________________________________
activation_1777 (Activation) (None, 32, 32, 32)        0         
_________________________________________________________________
dropout_1777 (Dropout)       (None, 32, 32, 32)        0         
_________________________________________________________________
separable_conv2d_1633 (Separ (None, 32, 32, 256)       8736      
_________________________________________________________________
batch_normalization_1059 (Ba (None, 32, 32, 256)       1024      
_________________________________________________________________
activation_1778 (Activation) (None, 32, 32, 256)       0         
_________________________________________________________________
dropout_1778 (Dropout)       (None, 32, 32, 256)       0         
_________________________________________________________________
separable_conv2d_1634 (Separ (None, 32, 32, 8)         4360      
_________________________________________________________________
activation_1779 (Activation) (None, 32, 32, 8)         0         
_________________________________________________________________
dropout_1779 (Dropout)       (None, 32, 32, 8)         0         
_________________________________________________________________
separable_conv2d_1635 (Separ (None, 32, 32, 64)        648       
_________________________________________________________________
activation_1780 (Activation) (None, 32, 32, 64)        0         
_________________________________________________________________
dropout_1780 (Dropout)       (None, 32, 32, 64)        0         
_________________________________________________________________
max_pooling2d_415 (MaxPoolin (None, 16, 16, 64)        0         
_________________________________________________________________
separable_conv2d_1636 (Separ (None, 16, 16, 16)        1616      
_________________________________________________________________
activation_1781 (Activation) (None, 16, 16, 16)        0         
_________________________________________________________________
dropout_1781 (Dropout)       (None, 16, 16, 16)        0         
_________________________________________________________________
separable_conv2d_1637 (Separ (None, 16, 16, 256)       4496      
_________________________________________________________________
batch_normalization_1060 (Ba (None, 16, 16, 256)       1024      
_________________________________________________________________
activation_1782 (Activation) (None, 16, 16, 256)       0         
_________________________________________________________________
dropout_1782 (Dropout)       (None, 16, 16, 256)       0         
_________________________________________________________________
separable_conv2d_1638 (Separ (None, 16, 16, 64)        18752     
_________________________________________________________________
batch_normalization_1061 (Ba (None, 16, 16, 64)        256       
_________________________________________________________________
activation_1783 (Activation) (None, 16, 16, 64)        0         
_________________________________________________________________
dropout_1783 (Dropout)       (None, 16, 16, 64)        0         
_________________________________________________________________
separable_conv2d_1639 (Separ (None, 16, 16, 512)       33856     
_________________________________________________________________
batch_normalization_1062 (Ba (None, 16, 16, 512)       2048      
_________________________________________________________________
activation_1784 (Activation) (None, 16, 16, 512)       0         
_________________________________________________________________
dropout_1784 (Dropout)       (None, 16, 16, 512)       0         
_________________________________________________________________
max_pooling2d_416 (MaxPoolin (None, 8, 8, 512)         0         
_________________________________________________________________
separable_conv2d_1640 (Separ (None, 8, 8, 128)         70272     
_________________________________________________________________
activation_1785 (Activation) (None, 8, 8, 128)         0         
_________________________________________________________________
dropout_1785 (Dropout)       (None, 8, 8, 128)         0         
_________________________________________________________________
separable_conv2d_1641 (Separ (None, 8, 8, 32)          5280      
_________________________________________________________________
batch_normalization_1063 (Ba (None, 8, 8, 32)          128       
_________________________________________________________________
activation_1786 (Activation) (None, 8, 8, 32)          0         
_________________________________________________________________
dropout_1786 (Dropout)       (None, 8, 8, 32)          0         
_________________________________________________________________
separable_conv2d_1642 (Separ (None, 8, 8, 256)         8736      
_________________________________________________________________
batch_normalization_1064 (Ba (None, 8, 8, 256)         1024      
_________________________________________________________________
activation_1787 (Activation) (None, 8, 8, 256)         0         
_________________________________________________________________
dropout_1787 (Dropout)       (None, 8, 8, 256)         0         
_________________________________________________________________
max_pooling2d_417 (MaxPoolin (None, 4, 4, 256)         0         
_________________________________________________________________
flatten_142 (Flatten)        (None, 4096)              0         
_________________________________________________________________
dense_287 (Dense)            (None, 2048)              8390656   
_________________________________________________________________
batch_normalization_1065 (Ba (None, 2048)              8192      
_________________________________________________________________
activation_1788 (Activation) (None, 2048)              0         
_________________________________________________________________
dropout_1788 (Dropout)       (None, 2048)              0         
_________________________________________________________________
dense_288 (Dense)            (None, 100)               204900    
=================================================================
Total params: 8,766,159
Trainable params: 8,759,311
Non-trainable params: 6,848
_________________________________________________________________
