Model: "sequential_361"
_________________________________________________________________
Layer (type)                 Output Shape              Param #   
=================================================================
separable_conv2d_3878 (Separ (None, 32, 32, 32)        155       
_________________________________________________________________
activation_4242 (Activation) (None, 32, 32, 32)        0         
_________________________________________________________________
dropout_4242 (Dropout)       (None, 32, 32, 32)        0         
_________________________________________________________________
separable_conv2d_3879 (Separ (None, 32, 32, 256)       8736      
_________________________________________________________________
batch_normalization_2431 (Ba (None, 32, 32, 256)       1024      
_________________________________________________________________
activation_4243 (Activation) (None, 32, 32, 256)       0         
_________________________________________________________________
dropout_4243 (Dropout)       (None, 32, 32, 256)       0         
_________________________________________________________________
separable_conv2d_3880 (Separ (None, 32, 32, 8)         4360      
_________________________________________________________________
activation_4244 (Activation) (None, 32, 32, 8)         0         
_________________________________________________________________
dropout_4244 (Dropout)       (None, 32, 32, 8)         0         
_________________________________________________________________
separable_conv2d_3881 (Separ (None, 32, 32, 64)        648       
_________________________________________________________________
activation_4245 (Activation) (None, 32, 32, 64)        0         
_________________________________________________________________
dropout_4245 (Dropout)       (None, 32, 32, 64)        0         
_________________________________________________________________
max_pooling2d_1002 (MaxPooli (None, 16, 16, 64)        0         
_________________________________________________________________
separable_conv2d_3882 (Separ (None, 16, 16, 16)        1616      
_________________________________________________________________
activation_4246 (Activation) (None, 16, 16, 16)        0         
_________________________________________________________________
dropout_4246 (Dropout)       (None, 16, 16, 16)        0         
_________________________________________________________________
separable_conv2d_3883 (Separ (None, 16, 16, 128)       2320      
_________________________________________________________________
batch_normalization_2432 (Ba (None, 16, 16, 128)       512       
_________________________________________________________________
activation_4247 (Activation) (None, 16, 16, 128)       0         
_________________________________________________________________
dropout_4247 (Dropout)       (None, 16, 16, 128)       0         
_________________________________________________________________
separable_conv2d_3884 (Separ (None, 16, 16, 64)        9408      
_________________________________________________________________
activation_4248 (Activation) (None, 16, 16, 64)        0         
_________________________________________________________________
dropout_4248 (Dropout)       (None, 16, 16, 64)        0         
_________________________________________________________________
separable_conv2d_3885 (Separ (None, 16, 16, 64)        4736      
_________________________________________________________________
batch_normalization_2433 (Ba (None, 16, 16, 64)        256       
_________________________________________________________________
activation_4249 (Activation) (None, 16, 16, 64)        0         
_________________________________________________________________
dropout_4249 (Dropout)       (None, 16, 16, 64)        0         
_________________________________________________________________
separable_conv2d_3886 (Separ (None, 16, 16, 512)       33856     
_________________________________________________________________
batch_normalization_2434 (Ba (None, 16, 16, 512)       2048      
_________________________________________________________________
activation_4250 (Activation) (None, 16, 16, 512)       0         
_________________________________________________________________
dropout_4250 (Dropout)       (None, 16, 16, 512)       0         
_________________________________________________________________
max_pooling2d_1003 (MaxPooli (None, 8, 8, 512)         0         
_________________________________________________________________
flatten_361 (Flatten)        (None, 32768)             0         
_________________________________________________________________
dense_725 (Dense)            (None, 2048)              67110912  
_________________________________________________________________
batch_normalization_2435 (Ba (None, 2048)              8192      
_________________________________________________________________
activation_4251 (Activation) (None, 2048)              0         
_________________________________________________________________
dropout_4251 (Dropout)       (None, 2048)              0         
_________________________________________________________________
dense_726 (Dense)            (None, 100)               204900    
=================================================================
Total params: 67,393,679
Trainable params: 67,387,663
Non-trainable params: 6,016
_________________________________________________________________
