Model: "sequential_354"
_________________________________________________________________
Layer (type)                 Output Shape              Param #   
=================================================================
separable_conv2d_3815 (Separ (None, 32, 32, 128)       539       
_________________________________________________________________
activation_4172 (Activation) (None, 32, 32, 128)       0         
_________________________________________________________________
dropout_4172 (Dropout)       (None, 32, 32, 128)       0         
_________________________________________________________________
separable_conv2d_3816 (Separ (None, 32, 32, 256)       34176     
_________________________________________________________________
batch_normalization_2394 (Ba (None, 32, 32, 256)       1024      
_________________________________________________________________
activation_4173 (Activation) (None, 32, 32, 256)       0         
_________________________________________________________________
dropout_4173 (Dropout)       (None, 32, 32, 256)       0         
_________________________________________________________________
separable_conv2d_3817 (Separ (None, 32, 32, 8)         4360      
_________________________________________________________________
activation_4174 (Activation) (None, 32, 32, 8)         0         
_________________________________________________________________
dropout_4174 (Dropout)       (None, 32, 32, 8)         0         
_________________________________________________________________
separable_conv2d_3818 (Separ (None, 32, 32, 64)        648       
_________________________________________________________________
activation_4175 (Activation) (None, 32, 32, 64)        0         
_________________________________________________________________
dropout_4175 (Dropout)       (None, 32, 32, 64)        0         
_________________________________________________________________
max_pooling2d_987 (MaxPoolin (None, 16, 16, 64)        0         
_________________________________________________________________
separable_conv2d_3819 (Separ (None, 16, 16, 16)        1616      
_________________________________________________________________
activation_4176 (Activation) (None, 16, 16, 16)        0         
_________________________________________________________________
dropout_4176 (Dropout)       (None, 16, 16, 16)        0         
_________________________________________________________________
separable_conv2d_3820 (Separ (None, 16, 16, 128)       2320      
_________________________________________________________________
batch_normalization_2395 (Ba (None, 16, 16, 128)       512       
_________________________________________________________________
activation_4177 (Activation) (None, 16, 16, 128)       0         
_________________________________________________________________
dropout_4177 (Dropout)       (None, 16, 16, 128)       0         
_________________________________________________________________
separable_conv2d_3821 (Separ (None, 16, 16, 64)        9408      
_________________________________________________________________
batch_normalization_2396 (Ba (None, 16, 16, 64)        256       
_________________________________________________________________
activation_4178 (Activation) (None, 16, 16, 64)        0         
_________________________________________________________________
dropout_4178 (Dropout)       (None, 16, 16, 64)        0         
_________________________________________________________________
separable_conv2d_3822 (Separ (None, 16, 16, 32)        2656      
_________________________________________________________________
activation_4179 (Activation) (None, 16, 16, 32)        0         
_________________________________________________________________
dropout_4179 (Dropout)       (None, 16, 16, 32)        0         
_________________________________________________________________
separable_conv2d_3823 (Separ (None, 16, 16, 256)       8736      
_________________________________________________________________
batch_normalization_2397 (Ba (None, 16, 16, 256)       1024      
_________________________________________________________________
activation_4180 (Activation) (None, 16, 16, 256)       0         
_________________________________________________________________
dropout_4180 (Dropout)       (None, 16, 16, 256)       0         
_________________________________________________________________
max_pooling2d_988 (MaxPoolin (None, 8, 8, 256)         0         
_________________________________________________________________
flatten_354 (Flatten)        (None, 16384)             0         
_________________________________________________________________
dense_711 (Dense)            (None, 2048)              33556480  
_________________________________________________________________
batch_normalization_2398 (Ba (None, 2048)              8192      
_________________________________________________________________
activation_4181 (Activation) (None, 2048)              0         
_________________________________________________________________
dropout_4181 (Dropout)       (None, 2048)              0         
_________________________________________________________________
dense_712 (Dense)            (None, 100)               204900    
=================================================================
Total params: 33,836,847
Trainable params: 33,831,343
Non-trainable params: 5,504
_________________________________________________________________
