Model: "sequential_127"
_________________________________________________________________
Layer (type)                 Output Shape              Param #   
=================================================================
separable_conv2d_1464 (Separ (None, 32, 32, 32)        155       
_________________________________________________________________
activation_1594 (Activation) (None, 32, 32, 32)        0         
_________________________________________________________________
dropout_1594 (Dropout)       (None, 32, 32, 32)        0         
_________________________________________________________________
separable_conv2d_1465 (Separ (None, 32, 32, 256)       8736      
_________________________________________________________________
batch_normalization_950 (Bat (None, 32, 32, 256)       1024      
_________________________________________________________________
activation_1595 (Activation) (None, 32, 32, 256)       0         
_________________________________________________________________
dropout_1595 (Dropout)       (None, 32, 32, 256)       0         
_________________________________________________________________
separable_conv2d_1466 (Separ (None, 32, 32, 8)         4360      
_________________________________________________________________
activation_1596 (Activation) (None, 32, 32, 8)         0         
_________________________________________________________________
dropout_1596 (Dropout)       (None, 32, 32, 8)         0         
_________________________________________________________________
max_pooling2d_370 (MaxPoolin (None, 16, 16, 8)         0         
_________________________________________________________________
separable_conv2d_1467 (Separ (None, 16, 16, 64)        648       
_________________________________________________________________
activation_1597 (Activation) (None, 16, 16, 64)        0         
_________________________________________________________________
dropout_1597 (Dropout)       (None, 16, 16, 64)        0         
_________________________________________________________________
max_pooling2d_371 (MaxPoolin (None, 8, 8, 64)          0         
_________________________________________________________________
separable_conv2d_1468 (Separ (None, 8, 8, 8)           1096      
_________________________________________________________________
activation_1598 (Activation) (None, 8, 8, 8)           0         
_________________________________________________________________
dropout_1598 (Dropout)       (None, 8, 8, 8)           0         
_________________________________________________________________
separable_conv2d_1469 (Separ (None, 8, 8, 128)         1224      
_________________________________________________________________
batch_normalization_951 (Bat (None, 8, 8, 128)         512       
_________________________________________________________________
activation_1599 (Activation) (None, 8, 8, 128)         0         
_________________________________________________________________
dropout_1599 (Dropout)       (None, 8, 8, 128)         0         
_________________________________________________________________
separable_conv2d_1470 (Separ (None, 8, 8, 64)          9408      
_________________________________________________________________
batch_normalization_952 (Bat (None, 8, 8, 64)          256       
_________________________________________________________________
activation_1600 (Activation) (None, 8, 8, 64)          0         
_________________________________________________________________
dropout_1600 (Dropout)       (None, 8, 8, 64)          0         
_________________________________________________________________
separable_conv2d_1471 (Separ (None, 8, 8, 512)         33856     
_________________________________________________________________
batch_normalization_953 (Bat (None, 8, 8, 512)         2048      
_________________________________________________________________
activation_1601 (Activation) (None, 8, 8, 512)         0         
_________________________________________________________________
dropout_1601 (Dropout)       (None, 8, 8, 512)         0         
_________________________________________________________________
max_pooling2d_372 (MaxPoolin (None, 4, 4, 512)         0         
_________________________________________________________________
separable_conv2d_1472 (Separ (None, 4, 4, 32)          21024     
_________________________________________________________________
batch_normalization_954 (Bat (None, 4, 4, 32)          128       
_________________________________________________________________
activation_1602 (Activation) (None, 4, 4, 32)          0         
_________________________________________________________________
dropout_1602 (Dropout)       (None, 4, 4, 32)          0         
_________________________________________________________________
separable_conv2d_1473 (Separ (None, 4, 4, 512)         17184     
_________________________________________________________________
batch_normalization_955 (Bat (None, 4, 4, 512)         2048      
_________________________________________________________________
activation_1603 (Activation) (None, 4, 4, 512)         0         
_________________________________________________________________
dropout_1603 (Dropout)       (None, 4, 4, 512)         0         
_________________________________________________________________
flatten_127 (Flatten)        (None, 8192)              0         
_________________________________________________________________
dense_257 (Dense)            (None, 2048)              16779264  
_________________________________________________________________
batch_normalization_956 (Bat (None, 2048)              8192      
_________________________________________________________________
activation_1604 (Activation) (None, 2048)              0         
_________________________________________________________________
dropout_1604 (Dropout)       (None, 2048)              0         
_________________________________________________________________
dense_258 (Dense)            (None, 100)               204900    
=================================================================
Total params: 17,096,063
Trainable params: 17,088,959
Non-trainable params: 7,104
_________________________________________________________________
