Model: "sequential_66"
_________________________________________________________________
Layer (type)                 Output Shape              Param #   
=================================================================
separable_conv2d_762 (Separa (None, 32, 32, 32)        155       
_________________________________________________________________
activation_831 (Activation)  (None, 32, 32, 32)        0         
_________________________________________________________________
dropout_831 (Dropout)        (None, 32, 32, 32)        0         
_________________________________________________________________
separable_conv2d_763 (Separa (None, 32, 32, 128)       4512      
_________________________________________________________________
batch_normalization_478 (Bat (None, 32, 32, 128)       512       
_________________________________________________________________
activation_832 (Activation)  (None, 32, 32, 128)       0         
_________________________________________________________________
dropout_832 (Dropout)        (None, 32, 32, 128)       0         
_________________________________________________________________
separable_conv2d_764 (Separa (None, 32, 32, 8)         2184      
_________________________________________________________________
activation_833 (Activation)  (None, 32, 32, 8)         0         
_________________________________________________________________
dropout_833 (Dropout)        (None, 32, 32, 8)         0         
_________________________________________________________________
separable_conv2d_765 (Separa (None, 32, 32, 64)        648       
_________________________________________________________________
activation_834 (Activation)  (None, 32, 32, 64)        0         
_________________________________________________________________
dropout_834 (Dropout)        (None, 32, 32, 64)        0         
_________________________________________________________________
max_pooling2d_187 (MaxPoolin (None, 16, 16, 64)        0         
_________________________________________________________________
separable_conv2d_766 (Separa (None, 16, 16, 8)         1096      
_________________________________________________________________
activation_835 (Activation)  (None, 16, 16, 8)         0         
_________________________________________________________________
dropout_835 (Dropout)        (None, 16, 16, 8)         0         
_________________________________________________________________
separable_conv2d_767 (Separa (None, 16, 16, 128)       1224      
_________________________________________________________________
batch_normalization_479 (Bat (None, 16, 16, 128)       512       
_________________________________________________________________
activation_836 (Activation)  (None, 16, 16, 128)       0         
_________________________________________________________________
dropout_836 (Dropout)        (None, 16, 16, 128)       0         
_________________________________________________________________
separable_conv2d_768 (Separa (None, 16, 16, 64)        9408      
_________________________________________________________________
batch_normalization_480 (Bat (None, 16, 16, 64)        256       
_________________________________________________________________
activation_837 (Activation)  (None, 16, 16, 64)        0         
_________________________________________________________________
dropout_837 (Dropout)        (None, 16, 16, 64)        0         
_________________________________________________________________
separable_conv2d_769 (Separa (None, 16, 16, 512)       33856     
_________________________________________________________________
batch_normalization_481 (Bat (None, 16, 16, 512)       2048      
_________________________________________________________________
activation_838 (Activation)  (None, 16, 16, 512)       0         
_________________________________________________________________
dropout_838 (Dropout)        (None, 16, 16, 512)       0         
_________________________________________________________________
max_pooling2d_188 (MaxPoolin (None, 8, 8, 512)         0         
_________________________________________________________________
separable_conv2d_770 (Separa (None, 8, 8, 32)          21024     
_________________________________________________________________
batch_normalization_482 (Bat (None, 8, 8, 32)          128       
_________________________________________________________________
activation_839 (Activation)  (None, 8, 8, 32)          0         
_________________________________________________________________
dropout_839 (Dropout)        (None, 8, 8, 32)          0         
_________________________________________________________________
max_pooling2d_189 (MaxPoolin (None, 4, 4, 32)          0         
_________________________________________________________________
separable_conv2d_771 (Separa (None, 4, 4, 128)         4512      
_________________________________________________________________
activation_840 (Activation)  (None, 4, 4, 128)         0         
_________________________________________________________________
dropout_840 (Dropout)        (None, 4, 4, 128)         0         
_________________________________________________________________
separable_conv2d_772 (Separa (None, 4, 4, 32)          5280      
_________________________________________________________________
batch_normalization_483 (Bat (None, 4, 4, 32)          128       
_________________________________________________________________
activation_841 (Activation)  (None, 4, 4, 32)          0         
_________________________________________________________________
dropout_841 (Dropout)        (None, 4, 4, 32)          0         
_________________________________________________________________
separable_conv2d_773 (Separa (None, 4, 4, 256)         8736      
_________________________________________________________________
batch_normalization_484 (Bat (None, 4, 4, 256)         1024      
_________________________________________________________________
activation_842 (Activation)  (None, 4, 4, 256)         0         
_________________________________________________________________
dropout_842 (Dropout)        (None, 4, 4, 256)         0         
_________________________________________________________________
flatten_66 (Flatten)         (None, 4096)              0         
_________________________________________________________________
dense_135 (Dense)            (None, 2048)              8390656   
_________________________________________________________________
batch_normalization_485 (Bat (None, 2048)              8192      
_________________________________________________________________
activation_843 (Activation)  (None, 2048)              0         
_________________________________________________________________
dropout_843 (Dropout)        (None, 2048)              0         
_________________________________________________________________
dense_136 (Dense)            (None, 100)               204900    
=================================================================
Total params: 8,700,991
Trainable params: 8,694,591
Non-trainable params: 6,400
_________________________________________________________________
