Model: "sequential_313"
_________________________________________________________________
Layer (type)                 Output Shape              Param #   
=================================================================
separable_conv2d_3427 (Separ (None, 32, 32, 32)        155       
_________________________________________________________________
activation_3743 (Activation) (None, 32, 32, 32)        0         
_________________________________________________________________
dropout_3743 (Dropout)       (None, 32, 32, 32)        0         
_________________________________________________________________
separable_conv2d_3428 (Separ (None, 32, 32, 256)       8736      
_________________________________________________________________
batch_normalization_2173 (Ba (None, 32, 32, 256)       1024      
_________________________________________________________________
activation_3744 (Activation) (None, 32, 32, 256)       0         
_________________________________________________________________
dropout_3744 (Dropout)       (None, 32, 32, 256)       0         
_________________________________________________________________
separable_conv2d_3429 (Separ (None, 32, 32, 8)         4360      
_________________________________________________________________
activation_3745 (Activation) (None, 32, 32, 8)         0         
_________________________________________________________________
dropout_3745 (Dropout)       (None, 32, 32, 8)         0         
_________________________________________________________________
separable_conv2d_3430 (Separ (None, 32, 32, 64)        648       
_________________________________________________________________
activation_3746 (Activation) (None, 32, 32, 64)        0         
_________________________________________________________________
dropout_3746 (Dropout)       (None, 32, 32, 64)        0         
_________________________________________________________________
max_pooling2d_893 (MaxPoolin (None, 16, 16, 64)        0         
_________________________________________________________________
separable_conv2d_3431 (Separ (None, 16, 16, 16)        1616      
_________________________________________________________________
activation_3747 (Activation) (None, 16, 16, 16)        0         
_________________________________________________________________
dropout_3747 (Dropout)       (None, 16, 16, 16)        0         
_________________________________________________________________
separable_conv2d_3432 (Separ (None, 16, 16, 128)       2320      
_________________________________________________________________
batch_normalization_2174 (Ba (None, 16, 16, 128)       512       
_________________________________________________________________
activation_3748 (Activation) (None, 16, 16, 128)       0         
_________________________________________________________________
dropout_3748 (Dropout)       (None, 16, 16, 128)       0         
_________________________________________________________________
separable_conv2d_3433 (Separ (None, 16, 16, 64)        9408      
_________________________________________________________________
batch_normalization_2175 (Ba (None, 16, 16, 64)        256       
_________________________________________________________________
activation_3749 (Activation) (None, 16, 16, 64)        0         
_________________________________________________________________
dropout_3749 (Dropout)       (None, 16, 16, 64)        0         
_________________________________________________________________
separable_conv2d_3434 (Separ (None, 16, 16, 64)        4736      
_________________________________________________________________
batch_normalization_2176 (Ba (None, 16, 16, 64)        256       
_________________________________________________________________
activation_3750 (Activation) (None, 16, 16, 64)        0         
_________________________________________________________________
dropout_3750 (Dropout)       (None, 16, 16, 64)        0         
_________________________________________________________________
separable_conv2d_3435 (Separ (None, 16, 16, 512)       33856     
_________________________________________________________________
batch_normalization_2177 (Ba (None, 16, 16, 512)       2048      
_________________________________________________________________
activation_3751 (Activation) (None, 16, 16, 512)       0         
_________________________________________________________________
dropout_3751 (Dropout)       (None, 16, 16, 512)       0         
_________________________________________________________________
max_pooling2d_894 (MaxPoolin (None, 8, 8, 512)         0         
_________________________________________________________________
flatten_313 (Flatten)        (None, 32768)             0         
_________________________________________________________________
dense_629 (Dense)            (None, 2048)              67110912  
_________________________________________________________________
batch_normalization_2178 (Ba (None, 2048)              8192      
_________________________________________________________________
activation_3752 (Activation) (None, 2048)              0         
_________________________________________________________________
dropout_3752 (Dropout)       (None, 2048)              0         
_________________________________________________________________
dense_630 (Dense)            (None, 100)               204900    
=================================================================
Total params: 67,393,935
Trainable params: 67,387,791
Non-trainable params: 6,144
_________________________________________________________________
