Model: "sequential_377"
_________________________________________________________________
Layer (type)                 Output Shape              Param #   
=================================================================
separable_conv2d_4026 (Separ (None, 32, 32, 32)        155       
_________________________________________________________________
activation_4406 (Activation) (None, 32, 32, 32)        0         
_________________________________________________________________
dropout_4406 (Dropout)       (None, 32, 32, 32)        0         
_________________________________________________________________
separable_conv2d_4027 (Separ (None, 32, 32, 256)       8736      
_________________________________________________________________
batch_normalization_2514 (Ba (None, 32, 32, 256)       1024      
_________________________________________________________________
activation_4407 (Activation) (None, 32, 32, 256)       0         
_________________________________________________________________
dropout_4407 (Dropout)       (None, 32, 32, 256)       0         
_________________________________________________________________
separable_conv2d_4028 (Separ (None, 32, 32, 8)         4360      
_________________________________________________________________
activation_4408 (Activation) (None, 32, 32, 8)         0         
_________________________________________________________________
dropout_4408 (Dropout)       (None, 32, 32, 8)         0         
_________________________________________________________________
separable_conv2d_4029 (Separ (None, 32, 32, 64)        648       
_________________________________________________________________
activation_4409 (Activation) (None, 32, 32, 64)        0         
_________________________________________________________________
dropout_4409 (Dropout)       (None, 32, 32, 64)        0         
_________________________________________________________________
max_pooling2d_1038 (MaxPooli (None, 16, 16, 64)        0         
_________________________________________________________________
separable_conv2d_4030 (Separ (None, 16, 16, 16)        1616      
_________________________________________________________________
activation_4410 (Activation) (None, 16, 16, 16)        0         
_________________________________________________________________
dropout_4410 (Dropout)       (None, 16, 16, 16)        0         
_________________________________________________________________
separable_conv2d_4031 (Separ (None, 16, 16, 128)       2320      
_________________________________________________________________
batch_normalization_2515 (Ba (None, 16, 16, 128)       512       
_________________________________________________________________
activation_4411 (Activation) (None, 16, 16, 128)       0         
_________________________________________________________________
dropout_4411 (Dropout)       (None, 16, 16, 128)       0         
_________________________________________________________________
separable_conv2d_4032 (Separ (None, 16, 16, 64)        9408      
_________________________________________________________________
activation_4412 (Activation) (None, 16, 16, 64)        0         
_________________________________________________________________
dropout_4412 (Dropout)       (None, 16, 16, 64)        0         
_________________________________________________________________
separable_conv2d_4033 (Separ (None, 16, 16, 32)        2656      
_________________________________________________________________
activation_4413 (Activation) (None, 16, 16, 32)        0         
_________________________________________________________________
dropout_4413 (Dropout)       (None, 16, 16, 32)        0         
_________________________________________________________________
separable_conv2d_4034 (Separ (None, 16, 16, 256)       8736      
_________________________________________________________________
activation_4414 (Activation) (None, 16, 16, 256)       0         
_________________________________________________________________
dropout_4414 (Dropout)       (None, 16, 16, 256)       0         
_________________________________________________________________
max_pooling2d_1039 (MaxPooli (None, 8, 8, 256)         0         
_________________________________________________________________
flatten_377 (Flatten)        (None, 16384)             0         
_________________________________________________________________
dense_757 (Dense)            (None, 2048)              33556480  
_________________________________________________________________
batch_normalization_2516 (Ba (None, 2048)              8192      
_________________________________________________________________
activation_4415 (Activation) (None, 2048)              0         
_________________________________________________________________
dropout_4415 (Dropout)       (None, 2048)              0         
_________________________________________________________________
dense_758 (Dense)            (None, 100)               204900    
=================================================================
Total params: 33,809,743
Trainable params: 33,804,879
Non-trainable params: 4,864
_________________________________________________________________
