Model: "sequential_231"
_________________________________________________________________
Layer (type)                 Output Shape              Param #   
=================================================================
separable_conv2d_578 (Separa (None, 32, 32, 512)       2075      
_________________________________________________________________
batch_normalization_616 (Bat (None, 32, 32, 512)       2048      
_________________________________________________________________
activation_805 (Activation)  (None, 32, 32, 512)       0         
_________________________________________________________________
dropout_805 (Dropout)        (None, 32, 32, 512)       0         
_________________________________________________________________
max_pooling2d_219 (MaxPoolin (None, 16, 16, 512)       0         
_________________________________________________________________
separable_conv2d_579 (Separa (None, 16, 16, 64)        37440     
_________________________________________________________________
batch_normalization_617 (Bat (None, 16, 16, 64)        256       
_________________________________________________________________
activation_806 (Activation)  (None, 16, 16, 64)        0         
_________________________________________________________________
dropout_806 (Dropout)        (None, 16, 16, 64)        0         
_________________________________________________________________
max_pooling2d_220 (MaxPoolin (None, 8, 8, 64)          0         
_________________________________________________________________
separable_conv2d_580 (Separa (None, 8, 8, 16)          1616      
_________________________________________________________________
activation_807 (Activation)  (None, 8, 8, 16)          0         
_________________________________________________________________
dropout_807 (Dropout)        (None, 8, 8, 16)          0         
_________________________________________________________________
flatten_231 (Flatten)        (None, 1024)              0         
_________________________________________________________________
dense_458 (Dense)            (None, 128)               131200    
_________________________________________________________________
batch_normalization_618 (Bat (None, 128)               512       
_________________________________________________________________
activation_808 (Activation)  (None, 128)               0         
_________________________________________________________________
dropout_808 (Dropout)        (None, 128)               0         
_________________________________________________________________
dense_459 (Dense)            (None, 100)               12900     
=================================================================
Total params: 188,047
Trainable params: 186,639
Non-trainable params: 1,408
_________________________________________________________________
