Model: "sequential_472"
_________________________________________________________________
Layer (type)                 Output Shape              Param #   
=================================================================
separable_conv2d_1267 (Separ (None, 32, 32, 512)       2075      
_________________________________________________________________
batch_normalization_1329 (Ba (None, 32, 32, 512)       2048      
_________________________________________________________________
activation_1804 (Activation) (None, 32, 32, 512)       0         
_________________________________________________________________
dropout_1804 (Dropout)       (None, 32, 32, 512)       0         
_________________________________________________________________
max_pooling2d_504 (MaxPoolin (None, 16, 16, 512)       0         
_________________________________________________________________
separable_conv2d_1268 (Separ (None, 16, 16, 32)        21024     
_________________________________________________________________
batch_normalization_1330 (Ba (None, 16, 16, 32)        128       
_________________________________________________________________
activation_1805 (Activation) (None, 16, 16, 32)        0         
_________________________________________________________________
dropout_1805 (Dropout)       (None, 16, 16, 32)        0         
_________________________________________________________________
separable_conv2d_1269 (Separ (None, 16, 16, 16)        816       
_________________________________________________________________
activation_1806 (Activation) (None, 16, 16, 16)        0         
_________________________________________________________________
dropout_1806 (Dropout)       (None, 16, 16, 16)        0         
_________________________________________________________________
flatten_472 (Flatten)        (None, 4096)              0         
_________________________________________________________________
dense_1009 (Dense)           (None, 512)               2097664   
_________________________________________________________________
activation_1807 (Activation) (None, 512)               0         
_________________________________________________________________
dropout_1807 (Dropout)       (None, 512)               0         
_________________________________________________________________
dense_1010 (Dense)           (None, 100)               51300     
=================================================================
Total params: 2,175,055
Trainable params: 2,173,967
Non-trainable params: 1,088
_________________________________________________________________
