Model: "sequential_258"
_________________________________________________________________
Layer (type)                 Output Shape              Param #   
=================================================================
separable_conv2d_654 (Separa (None, 32, 32, 512)       2075      
_________________________________________________________________
batch_normalization_704 (Bat (None, 32, 32, 512)       2048      
_________________________________________________________________
activation_915 (Activation)  (None, 32, 32, 512)       0         
_________________________________________________________________
dropout_915 (Dropout)        (None, 32, 32, 512)       0         
_________________________________________________________________
max_pooling2d_252 (MaxPoolin (None, 16, 16, 512)       0         
_________________________________________________________________
separable_conv2d_655 (Separa (None, 16, 16, 128)       70272     
_________________________________________________________________
batch_normalization_705 (Bat (None, 16, 16, 128)       512       
_________________________________________________________________
activation_916 (Activation)  (None, 16, 16, 128)       0         
_________________________________________________________________
dropout_916 (Dropout)        (None, 16, 16, 128)       0         
_________________________________________________________________
flatten_258 (Flatten)        (None, 32768)             0         
_________________________________________________________________
dense_519 (Dense)            (None, 512)               16777728  
_________________________________________________________________
batch_normalization_706 (Bat (None, 512)               2048      
_________________________________________________________________
activation_917 (Activation)  (None, 512)               0         
_________________________________________________________________
dropout_917 (Dropout)        (None, 512)               0         
_________________________________________________________________
dense_520 (Dense)            (None, 1024)              525312    
_________________________________________________________________
batch_normalization_707 (Bat (None, 1024)              4096      
_________________________________________________________________
activation_918 (Activation)  (None, 1024)              0         
_________________________________________________________________
dropout_918 (Dropout)        (None, 1024)              0         
_________________________________________________________________
dense_521 (Dense)            (None, 100)               102500    
=================================================================
Total params: 17,486,591
Trainable params: 17,482,239
Non-trainable params: 4,352
_________________________________________________________________
