Model: "sequential_395"
_________________________________________________________________
Layer (type)                 Output Shape              Param #   
=================================================================
separable_conv2d_1041 (Separ (None, 32, 32, 512)       2075      
_________________________________________________________________
batch_normalization_1093 (Ba (None, 32, 32, 512)       2048      
_________________________________________________________________
activation_1453 (Activation) (None, 32, 32, 512)       0         
_________________________________________________________________
dropout_1453 (Dropout)       (None, 32, 32, 512)       0         
_________________________________________________________________
max_pooling2d_419 (MaxPoolin (None, 16, 16, 512)       0         
_________________________________________________________________
separable_conv2d_1042 (Separ (None, 16, 16, 64)        37440     
_________________________________________________________________
activation_1454 (Activation) (None, 16, 16, 64)        0         
_________________________________________________________________
dropout_1454 (Dropout)       (None, 16, 16, 64)        0         
_________________________________________________________________
separable_conv2d_1043 (Separ (None, 16, 16, 64)        4736      
_________________________________________________________________
activation_1455 (Activation) (None, 16, 16, 64)        0         
_________________________________________________________________
dropout_1455 (Dropout)       (None, 16, 16, 64)        0         
_________________________________________________________________
flatten_395 (Flatten)        (None, 16384)             0         
_________________________________________________________________
dense_807 (Dense)            (None, 100)               1638500   
=================================================================
Total params: 1,684,799
Trainable params: 1,683,775
Non-trainable params: 1,024
_________________________________________________________________
