Model: "sequential_265"
_________________________________________________________________
Layer (type)                 Output Shape              Param #   
=================================================================
separable_conv2d_671 (Separa (None, 32, 32, 512)       2075      
_________________________________________________________________
batch_normalization_726 (Bat (None, 32, 32, 512)       2048      
_________________________________________________________________
activation_940 (Activation)  (None, 32, 32, 512)       0         
_________________________________________________________________
dropout_940 (Dropout)        (None, 32, 32, 512)       0         
_________________________________________________________________
separable_conv2d_672 (Separa (None, 32, 32, 64)        37440     
_________________________________________________________________
batch_normalization_727 (Bat (None, 32, 32, 64)        256       
_________________________________________________________________
activation_941 (Activation)  (None, 32, 32, 64)        0         
_________________________________________________________________
dropout_941 (Dropout)        (None, 32, 32, 64)        0         
_________________________________________________________________
max_pooling2d_260 (MaxPoolin (None, 16, 16, 64)        0         
_________________________________________________________________
separable_conv2d_673 (Separa (None, 16, 16, 16)        1616      
_________________________________________________________________
activation_942 (Activation)  (None, 16, 16, 16)        0         
_________________________________________________________________
dropout_942 (Dropout)        (None, 16, 16, 16)        0         
_________________________________________________________________
flatten_265 (Flatten)        (None, 4096)              0         
_________________________________________________________________
dense_534 (Dense)            (None, 128)               524416    
_________________________________________________________________
batch_normalization_728 (Bat (None, 128)               512       
_________________________________________________________________
activation_943 (Activation)  (None, 128)               0         
_________________________________________________________________
dropout_943 (Dropout)        (None, 128)               0         
_________________________________________________________________
dense_535 (Dense)            (None, 100)               12900     
=================================================================
Total params: 581,263
Trainable params: 579,855
Non-trainable params: 1,408
_________________________________________________________________
