Model: "sequential_213"
_________________________________________________________________
Layer (type)                 Output Shape              Param #   
=================================================================
separable_conv2d_528 (Separa (None, 32, 32, 512)       2075      
_________________________________________________________________
batch_normalization_559 (Bat (None, 32, 32, 512)       2048      
_________________________________________________________________
activation_733 (Activation)  (None, 32, 32, 512)       0         
_________________________________________________________________
dropout_733 (Dropout)        (None, 32, 32, 512)       0         
_________________________________________________________________
max_pooling2d_199 (MaxPoolin (None, 16, 16, 512)       0         
_________________________________________________________________
separable_conv2d_529 (Separa (None, 16, 16, 64)        37440     
_________________________________________________________________
batch_normalization_560 (Bat (None, 16, 16, 64)        256       
_________________________________________________________________
activation_734 (Activation)  (None, 16, 16, 64)        0         
_________________________________________________________________
dropout_734 (Dropout)        (None, 16, 16, 64)        0         
_________________________________________________________________
max_pooling2d_200 (MaxPoolin (None, 8, 8, 64)          0         
_________________________________________________________________
separable_conv2d_530 (Separa (None, 8, 8, 16)          1616      
_________________________________________________________________
activation_735 (Activation)  (None, 8, 8, 16)          0         
_________________________________________________________________
dropout_735 (Dropout)        (None, 8, 8, 16)          0         
_________________________________________________________________
flatten_213 (Flatten)        (None, 1024)              0         
_________________________________________________________________
dense_418 (Dense)            (None, 512)               524800    
_________________________________________________________________
batch_normalization_561 (Bat (None, 512)               2048      
_________________________________________________________________
activation_736 (Activation)  (None, 512)               0         
_________________________________________________________________
dropout_736 (Dropout)        (None, 512)               0         
_________________________________________________________________
dense_419 (Dense)            (None, 100)               51300     
=================================================================
Total params: 621,583
Trainable params: 619,407
Non-trainable params: 2,176
_________________________________________________________________
