Model: "sequential_4"
_________________________________________________________________
Layer (type)                 Output Shape              Param #   
=================================================================
separable_conv2d_9 (Separabl (None, 32, 32, 8)         59        
_________________________________________________________________
batch_normalization_9 (Batch (None, 32, 32, 8)         32        
_________________________________________________________________
activation_12 (Activation)   (None, 32, 32, 8)         0         
_________________________________________________________________
dropout_12 (Dropout)         (None, 32, 32, 8)         0         
_________________________________________________________________
separable_conv2d_10 (Separab (None, 32, 32, 64)        648       
_________________________________________________________________
batch_normalization_10 (Batc (None, 32, 32, 64)        256       
_________________________________________________________________
activation_13 (Activation)   (None, 32, 32, 64)        0         
_________________________________________________________________
dropout_13 (Dropout)         (None, 32, 32, 64)        0         
_________________________________________________________________
flatten_4 (Flatten)          (None, 65536)             0         
_________________________________________________________________
dense_7 (Dense)              (None, 100)               6553700   
=================================================================
Total params: 6,554,695
Trainable params: 6,554,551
Non-trainable params: 144
_________________________________________________________________
