Model: "sequential_517"
_________________________________________________________________
Layer (type)                 Output Shape              Param #   
=================================================================
separable_conv2d_1398 (Separ (None, 32, 32, 256)       1051      
_________________________________________________________________
batch_normalization_1476 (Ba (None, 32, 32, 256)       1024      
_________________________________________________________________
activation_2010 (Activation) (None, 32, 32, 256)       0         
_________________________________________________________________
dropout_2010 (Dropout)       (None, 32, 32, 256)       0         
_________________________________________________________________
max_pooling2d_554 (MaxPoolin (None, 16, 16, 256)       0         
_________________________________________________________________
separable_conv2d_1399 (Separ (None, 16, 16, 128)       35200     
_________________________________________________________________
batch_normalization_1477 (Ba (None, 16, 16, 128)       512       
_________________________________________________________________
activation_2011 (Activation) (None, 16, 16, 128)       0         
_________________________________________________________________
dropout_2011 (Dropout)       (None, 16, 16, 128)       0         
_________________________________________________________________
separable_conv2d_1400 (Separ (None, 16, 16, 16)        3216      
_________________________________________________________________
activation_2012 (Activation) (None, 16, 16, 16)        0         
_________________________________________________________________
dropout_2012 (Dropout)       (None, 16, 16, 16)        0         
_________________________________________________________________
flatten_517 (Flatten)        (None, 4096)              0         
_________________________________________________________________
dense_1129 (Dense)           (None, 512)               2097664   
_________________________________________________________________
batch_normalization_1478 (Ba (None, 512)               2048      
_________________________________________________________________
activation_2013 (Activation) (None, 512)               0         
_________________________________________________________________
dropout_2013 (Dropout)       (None, 512)               0         
_________________________________________________________________
dense_1130 (Dense)           (None, 256)               131328    
_________________________________________________________________
activation_2014 (Activation) (None, 256)               0         
_________________________________________________________________
dropout_2014 (Dropout)       (None, 256)               0         
_________________________________________________________________
dense_1131 (Dense)           (None, 100)               25700     
=================================================================
Total params: 2,297,743
Trainable params: 2,295,951
Non-trainable params: 1,792
_________________________________________________________________
