Model: "sequential_519"
_________________________________________________________________
Layer (type)                 Output Shape              Param #   
=================================================================
separable_conv2d_1404 (Separ (None, 32, 32, 256)       1051      
_________________________________________________________________
batch_normalization_1482 (Ba (None, 32, 32, 256)       1024      
_________________________________________________________________
activation_2019 (Activation) (None, 32, 32, 256)       0         
_________________________________________________________________
dropout_2019 (Dropout)       (None, 32, 32, 256)       0         
_________________________________________________________________
max_pooling2d_556 (MaxPoolin (None, 16, 16, 256)       0         
_________________________________________________________________
separable_conv2d_1405 (Separ (None, 16, 16, 64)        18752     
_________________________________________________________________
batch_normalization_1483 (Ba (None, 16, 16, 64)        256       
_________________________________________________________________
activation_2020 (Activation) (None, 16, 16, 64)        0         
_________________________________________________________________
dropout_2020 (Dropout)       (None, 16, 16, 64)        0         
_________________________________________________________________
separable_conv2d_1406 (Separ (None, 16, 16, 16)        1616      
_________________________________________________________________
activation_2021 (Activation) (None, 16, 16, 16)        0         
_________________________________________________________________
dropout_2021 (Dropout)       (None, 16, 16, 16)        0         
_________________________________________________________________
flatten_519 (Flatten)        (None, 4096)              0         
_________________________________________________________________
dense_1134 (Dense)           (None, 512)               2097664   
_________________________________________________________________
batch_normalization_1484 (Ba (None, 512)               2048      
_________________________________________________________________
activation_2022 (Activation) (None, 512)               0         
_________________________________________________________________
dropout_2022 (Dropout)       (None, 512)               0         
_________________________________________________________________
dense_1135 (Dense)           (None, 256)               131328    
_________________________________________________________________
activation_2023 (Activation) (None, 256)               0         
_________________________________________________________________
dropout_2023 (Dropout)       (None, 256)               0         
_________________________________________________________________
dense_1136 (Dense)           (None, 100)               25700     
=================================================================
Total params: 2,279,439
Trainable params: 2,277,775
Non-trainable params: 1,664
_________________________________________________________________
