Model: "sequential_219"
_________________________________________________________________
Layer (type)                 Output Shape              Param #   
=================================================================
separable_conv2d_544 (Separa (None, 32, 32, 256)       1051      
_________________________________________________________________
batch_normalization_578 (Bat (None, 32, 32, 256)       1024      
_________________________________________________________________
activation_757 (Activation)  (None, 32, 32, 256)       0         
_________________________________________________________________
dropout_757 (Dropout)        (None, 32, 32, 256)       0         
_________________________________________________________________
max_pooling2d_206 (MaxPoolin (None, 16, 16, 256)       0         
_________________________________________________________________
separable_conv2d_545 (Separa (None, 16, 16, 128)       35200     
_________________________________________________________________
batch_normalization_579 (Bat (None, 16, 16, 128)       512       
_________________________________________________________________
activation_758 (Activation)  (None, 16, 16, 128)       0         
_________________________________________________________________
dropout_758 (Dropout)        (None, 16, 16, 128)       0         
_________________________________________________________________
separable_conv2d_546 (Separa (None, 16, 16, 16)        3216      
_________________________________________________________________
activation_759 (Activation)  (None, 16, 16, 16)        0         
_________________________________________________________________
dropout_759 (Dropout)        (None, 16, 16, 16)        0         
_________________________________________________________________
flatten_219 (Flatten)        (None, 4096)              0         
_________________________________________________________________
dense_432 (Dense)            (None, 256)               1048832   
_________________________________________________________________
batch_normalization_580 (Bat (None, 256)               1024      
_________________________________________________________________
activation_760 (Activation)  (None, 256)               0         
_________________________________________________________________
dropout_760 (Dropout)        (None, 256)               0         
_________________________________________________________________
dense_433 (Dense)            (None, 100)               25700     
=================================================================
Total params: 1,116,559
Trainable params: 1,115,279
Non-trainable params: 1,280
_________________________________________________________________
