Model: "sequential_375"
_________________________________________________________________
Layer (type)                 Output Shape              Param #   
=================================================================
separable_conv2d_984 (Separa (None, 32, 32, 256)       1051      
_________________________________________________________________
batch_normalization_1034 (Ba (None, 32, 32, 256)       1024      
_________________________________________________________________
activation_1369 (Activation) (None, 32, 32, 256)       0         
_________________________________________________________________
dropout_1369 (Dropout)       (None, 32, 32, 256)       0         
_________________________________________________________________
max_pooling2d_395 (MaxPoolin (None, 16, 16, 256)       0         
_________________________________________________________________
separable_conv2d_985 (Separa (None, 16, 16, 128)       35200     
_________________________________________________________________
batch_normalization_1035 (Ba (None, 16, 16, 128)       512       
_________________________________________________________________
activation_1370 (Activation) (None, 16, 16, 128)       0         
_________________________________________________________________
dropout_1370 (Dropout)       (None, 16, 16, 128)       0         
_________________________________________________________________
separable_conv2d_986 (Separa (None, 16, 16, 64)        9408      
_________________________________________________________________
activation_1371 (Activation) (None, 16, 16, 64)        0         
_________________________________________________________________
dropout_1371 (Dropout)       (None, 16, 16, 64)        0         
_________________________________________________________________
flatten_375 (Flatten)        (None, 16384)             0         
_________________________________________________________________
dense_760 (Dense)            (None, 100)               1638500   
=================================================================
Total params: 1,685,695
Trainable params: 1,684,927
Non-trainable params: 768
_________________________________________________________________
