Model: "sequential_23"
_________________________________________________________________
Layer (type)                 Output Shape              Param #   
=================================================================
separable_conv2d_66 (Separab (None, 32, 32, 32)        155       
_________________________________________________________________
activation_88 (Activation)   (None, 32, 32, 32)        0         
_________________________________________________________________
dropout_88 (Dropout)         (None, 32, 32, 32)        0         
_________________________________________________________________
flatten_23 (Flatten)         (None, 32768)             0         
_________________________________________________________________
dense_45 (Dense)             (None, 256)               8388864   
_________________________________________________________________
batch_normalization_49 (Batc (None, 256)               1024      
_________________________________________________________________
activation_89 (Activation)   (None, 256)               0         
_________________________________________________________________
dropout_89 (Dropout)         (None, 256)               0         
_________________________________________________________________
dense_46 (Dense)             (None, 100)               25700     
=================================================================
Total params: 8,415,743
Trainable params: 8,415,231
Non-trainable params: 512
_________________________________________________________________
