Model: "sequential_372"
_________________________________________________________________
Layer (type)                 Output Shape              Param #   
=================================================================
separable_conv2d_975 (Separa (None, 32, 32, 512)       2075      
_________________________________________________________________
batch_normalization_1025 (Ba (None, 32, 32, 512)       2048      
_________________________________________________________________
activation_1357 (Activation) (None, 32, 32, 512)       0         
_________________________________________________________________
dropout_1357 (Dropout)       (None, 32, 32, 512)       0         
_________________________________________________________________
max_pooling2d_390 (MaxPoolin (None, 16, 16, 512)       0         
_________________________________________________________________
separable_conv2d_976 (Separa (None, 16, 16, 64)        37440     
_________________________________________________________________
activation_1358 (Activation) (None, 16, 16, 64)        0         
_________________________________________________________________
dropout_1358 (Dropout)       (None, 16, 16, 64)        0         
_________________________________________________________________
max_pooling2d_391 (MaxPoolin (None, 8, 8, 64)          0         
_________________________________________________________________
separable_conv2d_977 (Separa (None, 8, 8, 16)          1616      
_________________________________________________________________
activation_1359 (Activation) (None, 8, 8, 16)          0         
_________________________________________________________________
dropout_1359 (Dropout)       (None, 8, 8, 16)          0         
_________________________________________________________________
flatten_372 (Flatten)        (None, 1024)              0         
_________________________________________________________________
dense_754 (Dense)            (None, 128)               131200    
_________________________________________________________________
batch_normalization_1026 (Ba (None, 128)               512       
_________________________________________________________________
activation_1360 (Activation) (None, 128)               0         
_________________________________________________________________
dropout_1360 (Dropout)       (None, 128)               0         
_________________________________________________________________
dense_755 (Dense)            (None, 100)               12900     
=================================================================
Total params: 187,791
Trainable params: 186,511
Non-trainable params: 1,280
_________________________________________________________________
