Model: "sequential_509"
_________________________________________________________________
Layer (type)                 Output Shape              Param #   
=================================================================
separable_conv2d_1374 (Separ (None, 32, 32, 256)       1051      
_________________________________________________________________
batch_normalization_1450 (Ba (None, 32, 32, 256)       1024      
_________________________________________________________________
activation_1974 (Activation) (None, 32, 32, 256)       0         
_________________________________________________________________
dropout_1974 (Dropout)       (None, 32, 32, 256)       0         
_________________________________________________________________
max_pooling2d_545 (MaxPoolin (None, 16, 16, 256)       0         
_________________________________________________________________
separable_conv2d_1375 (Separ (None, 16, 16, 64)        18752     
_________________________________________________________________
batch_normalization_1451 (Ba (None, 16, 16, 64)        256       
_________________________________________________________________
activation_1975 (Activation) (None, 16, 16, 64)        0         
_________________________________________________________________
dropout_1975 (Dropout)       (None, 16, 16, 64)        0         
_________________________________________________________________
max_pooling2d_546 (MaxPoolin (None, 8, 8, 64)          0         
_________________________________________________________________
separable_conv2d_1376 (Separ (None, 8, 8, 16)          1616      
_________________________________________________________________
activation_1976 (Activation) (None, 8, 8, 16)          0         
_________________________________________________________________
dropout_1976 (Dropout)       (None, 8, 8, 16)          0         
_________________________________________________________________
flatten_509 (Flatten)        (None, 1024)              0         
_________________________________________________________________
dense_1109 (Dense)           (None, 32)                32800     
_________________________________________________________________
batch_normalization_1452 (Ba (None, 32)                128       
_________________________________________________________________
activation_1977 (Activation) (None, 32)                0         
_________________________________________________________________
dropout_1977 (Dropout)       (None, 32)                0         
_________________________________________________________________
dense_1110 (Dense)           (None, 256)               8448      
_________________________________________________________________
batch_normalization_1453 (Ba (None, 256)               1024      
_________________________________________________________________
activation_1978 (Activation) (None, 256)               0         
_________________________________________________________________
dropout_1978 (Dropout)       (None, 256)               0         
_________________________________________________________________
dense_1111 (Dense)           (None, 100)               25700     
=================================================================
Total params: 90,799
Trainable params: 89,583
Non-trainable params: 1,216
_________________________________________________________________
