Model: "sequential_496"
_________________________________________________________________
Layer (type)                 Output Shape              Param #   
=================================================================
separable_conv2d_1335 (Separ (None, 32, 32, 256)       1051      
_________________________________________________________________
batch_normalization_1403 (Ba (None, 32, 32, 256)       1024      
_________________________________________________________________
activation_1913 (Activation) (None, 32, 32, 256)       0         
_________________________________________________________________
dropout_1913 (Dropout)       (None, 32, 32, 256)       0         
_________________________________________________________________
max_pooling2d_531 (MaxPoolin (None, 16, 16, 256)       0         
_________________________________________________________________
separable_conv2d_1336 (Separ (None, 16, 16, 128)       35200     
_________________________________________________________________
batch_normalization_1404 (Ba (None, 16, 16, 128)       512       
_________________________________________________________________
activation_1914 (Activation) (None, 16, 16, 128)       0         
_________________________________________________________________
dropout_1914 (Dropout)       (None, 16, 16, 128)       0         
_________________________________________________________________
separable_conv2d_1337 (Separ (None, 16, 16, 16)        3216      
_________________________________________________________________
activation_1915 (Activation) (None, 16, 16, 16)        0         
_________________________________________________________________
dropout_1915 (Dropout)       (None, 16, 16, 16)        0         
_________________________________________________________________
flatten_496 (Flatten)        (None, 4096)              0         
_________________________________________________________________
dense_1074 (Dense)           (None, 512)               2097664   
_________________________________________________________________
batch_normalization_1405 (Ba (None, 512)               2048      
_________________________________________________________________
activation_1916 (Activation) (None, 512)               0         
_________________________________________________________________
dropout_1916 (Dropout)       (None, 512)               0         
_________________________________________________________________
dense_1075 (Dense)           (None, 256)               131328    
_________________________________________________________________
activation_1917 (Activation) (None, 256)               0         
_________________________________________________________________
dropout_1917 (Dropout)       (None, 256)               0         
_________________________________________________________________
dense_1076 (Dense)           (None, 100)               25700     
=================================================================
Total params: 2,297,743
Trainable params: 2,295,951
Non-trainable params: 1,792
_________________________________________________________________
