Model: "sequential_33"
_________________________________________________________________
Layer (type)                 Output Shape              Param #   
=================================================================
separable_conv2d_86 (Separab (None, 32, 32, 256)       1051      
_________________________________________________________________
batch_normalization_67 (Batc (None, 32, 32, 256)       1024      
_________________________________________________________________
activation_117 (Activation)  (None, 32, 32, 256)       0         
_________________________________________________________________
dropout_117 (Dropout)        (None, 32, 32, 256)       0         
_________________________________________________________________
max_pooling2d_27 (MaxPooling (None, 16, 16, 256)       0         
_________________________________________________________________
separable_conv2d_87 (Separab (None, 16, 16, 128)       35200     
_________________________________________________________________
batch_normalization_68 (Batc (None, 16, 16, 128)       512       
_________________________________________________________________
activation_118 (Activation)  (None, 16, 16, 128)       0         
_________________________________________________________________
dropout_118 (Dropout)        (None, 16, 16, 128)       0         
_________________________________________________________________
flatten_33 (Flatten)         (None, 32768)             0         
_________________________________________________________________
dense_64 (Dense)             (None, 512)               16777728  
_________________________________________________________________
batch_normalization_69 (Batc (None, 512)               2048      
_________________________________________________________________
activation_119 (Activation)  (None, 512)               0         
_________________________________________________________________
dropout_119 (Dropout)        (None, 512)               0         
_________________________________________________________________
dense_65 (Dense)             (None, 256)               131328    
_________________________________________________________________
batch_normalization_70 (Batc (None, 256)               1024      
_________________________________________________________________
activation_120 (Activation)  (None, 256)               0         
_________________________________________________________________
dropout_120 (Dropout)        (None, 256)               0         
_________________________________________________________________
dense_66 (Dense)             (None, 100)               25700     
=================================================================
Total params: 16,975,615
Trainable params: 16,973,311
Non-trainable params: 2,304
_________________________________________________________________
