Model: "sequential_385"
_________________________________________________________________
Layer (type)                 Output Shape              Param #   
=================================================================
separable_conv2d_1013 (Separ (None, 32, 32, 512)       2075      
_________________________________________________________________
batch_normalization_1064 (Ba (None, 32, 32, 512)       2048      
_________________________________________________________________
activation_1411 (Activation) (None, 32, 32, 512)       0         
_________________________________________________________________
dropout_1411 (Dropout)       (None, 32, 32, 512)       0         
_________________________________________________________________
max_pooling2d_406 (MaxPoolin (None, 16, 16, 512)       0         
_________________________________________________________________
separable_conv2d_1014 (Separ (None, 16, 16, 64)        37440     
_________________________________________________________________
activation_1412 (Activation) (None, 16, 16, 64)        0         
_________________________________________________________________
dropout_1412 (Dropout)       (None, 16, 16, 64)        0         
_________________________________________________________________
max_pooling2d_407 (MaxPoolin (None, 8, 8, 64)          0         
_________________________________________________________________
flatten_385 (Flatten)        (None, 4096)              0         
_________________________________________________________________
dense_783 (Dense)            (None, 100)               409700    
=================================================================
Total params: 451,263
Trainable params: 450,239
Non-trainable params: 1,024
_________________________________________________________________
