Model: "sequential_251"
_________________________________________________________________
Layer (type)                 Output Shape              Param #   
=================================================================
separable_conv2d_634 (Separa (None, 32, 32, 256)       1051      
_________________________________________________________________
batch_normalization_682 (Bat (None, 32, 32, 256)       1024      
_________________________________________________________________
activation_887 (Activation)  (None, 32, 32, 256)       0         
_________________________________________________________________
dropout_887 (Dropout)        (None, 32, 32, 256)       0         
_________________________________________________________________
max_pooling2d_243 (MaxPoolin (None, 16, 16, 256)       0         
_________________________________________________________________
separable_conv2d_635 (Separa (None, 16, 16, 64)        18752     
_________________________________________________________________
batch_normalization_683 (Bat (None, 16, 16, 64)        256       
_________________________________________________________________
activation_888 (Activation)  (None, 16, 16, 64)        0         
_________________________________________________________________
dropout_888 (Dropout)        (None, 16, 16, 64)        0         
_________________________________________________________________
max_pooling2d_244 (MaxPoolin (None, 8, 8, 64)          0         
_________________________________________________________________
separable_conv2d_636 (Separa (None, 8, 8, 16)          1616      
_________________________________________________________________
activation_889 (Activation)  (None, 8, 8, 16)          0         
_________________________________________________________________
dropout_889 (Dropout)        (None, 8, 8, 16)          0         
_________________________________________________________________
flatten_251 (Flatten)        (None, 1024)              0         
_________________________________________________________________
dense_504 (Dense)            (None, 512)               524800    
_________________________________________________________________
batch_normalization_684 (Bat (None, 512)               2048      
_________________________________________________________________
activation_890 (Activation)  (None, 512)               0         
_________________________________________________________________
dropout_890 (Dropout)        (None, 512)               0         
_________________________________________________________________
dense_505 (Dense)            (None, 256)               131328    
_________________________________________________________________
batch_normalization_685 (Bat (None, 256)               1024      
_________________________________________________________________
activation_891 (Activation)  (None, 256)               0         
_________________________________________________________________
dropout_891 (Dropout)        (None, 256)               0         
_________________________________________________________________
dense_506 (Dense)            (None, 100)               25700     
=================================================================
Total params: 707,599
Trainable params: 705,423
Non-trainable params: 2,176
_________________________________________________________________
