Model: "sequential_179"
_________________________________________________________________
Layer (type)                 Output Shape              Param #   
=================================================================
separable_conv2d_437 (Separa (None, 32, 32, 256)       1051      
_________________________________________________________________
batch_normalization_455 (Bat (None, 32, 32, 256)       1024      
_________________________________________________________________
activation_605 (Activation)  (None, 32, 32, 256)       0         
_________________________________________________________________
dropout_605 (Dropout)        (None, 32, 32, 256)       0         
_________________________________________________________________
separable_conv2d_438 (Separa (None, 32, 32, 64)        18752     
_________________________________________________________________
activation_606 (Activation)  (None, 32, 32, 64)        0         
_________________________________________________________________
dropout_606 (Dropout)        (None, 32, 32, 64)        0         
_________________________________________________________________
max_pooling2d_158 (MaxPoolin (None, 16, 16, 64)        0         
_________________________________________________________________
separable_conv2d_439 (Separa (None, 16, 16, 16)        1616      
_________________________________________________________________
activation_607 (Activation)  (None, 16, 16, 16)        0         
_________________________________________________________________
dropout_607 (Dropout)        (None, 16, 16, 16)        0         
_________________________________________________________________
flatten_179 (Flatten)        (None, 4096)              0         
_________________________________________________________________
dense_347 (Dense)            (None, 100)               409700    
=================================================================
Total params: 432,143
Trainable params: 431,631
Non-trainable params: 512
_________________________________________________________________
