Model: "sequential_5"
_________________________________________________________________
Layer (type)                 Output Shape              Param #   
=================================================================
separable_conv2d_11 (Separab (None, 32, 32, 512)       2075      
_________________________________________________________________
batch_normalization_11 (Batc (None, 32, 32, 512)       2048      
_________________________________________________________________
activation_14 (Activation)   (None, 32, 32, 512)       0         
_________________________________________________________________
dropout_14 (Dropout)         (None, 32, 32, 512)       0         
_________________________________________________________________
separable_conv2d_12 (Separab (None, 32, 32, 16)        12816     
_________________________________________________________________
activation_15 (Activation)   (None, 32, 32, 16)        0         
_________________________________________________________________
dropout_15 (Dropout)         (None, 32, 32, 16)        0         
_________________________________________________________________
separable_conv2d_13 (Separab (None, 32, 32, 512)       8848      
_________________________________________________________________
activation_16 (Activation)   (None, 32, 32, 512)       0         
_________________________________________________________________
dropout_16 (Dropout)         (None, 32, 32, 512)       0         
_________________________________________________________________
flatten_5 (Flatten)          (None, 524288)            0         
_________________________________________________________________
dense_8 (Dense)              (None, 512)               268435968 
_________________________________________________________________
activation_17 (Activation)   (None, 512)               0         
_________________________________________________________________
dropout_17 (Dropout)         (None, 512)               0         
_________________________________________________________________
dense_9 (Dense)              (None, 16)                8208      
_________________________________________________________________
batch_normalization_12 (Batc (None, 16)                64        
_________________________________________________________________
activation_18 (Activation)   (None, 16)                0         
_________________________________________________________________
dropout_18 (Dropout)         (None, 16)                0         
_________________________________________________________________
dense_10 (Dense)             (None, 100)               1700      
=================================================================
Total params: 268,471,727
Trainable params: 268,470,671
Non-trainable params: 1,056
_________________________________________________________________
