Model: "sequential_594"
_________________________________________________________________
Layer (type)                 Output Shape              Param #   
=================================================================
separable_conv2d_1626 (Separ (None, 32, 32, 512)       2075      
_________________________________________________________________
batch_normalization_1724 (Ba (None, 32, 32, 512)       2048      
_________________________________________________________________
activation_2354 (Activation) (None, 32, 32, 512)       0         
_________________________________________________________________
dropout_2354 (Dropout)       (None, 32, 32, 512)       0         
_________________________________________________________________
max_pooling2d_617 (MaxPoolin (None, 16, 16, 512)       0         
_________________________________________________________________
separable_conv2d_1627 (Separ (None, 16, 16, 256)       135936    
_________________________________________________________________
batch_normalization_1725 (Ba (None, 16, 16, 256)       1024      
_________________________________________________________________
activation_2355 (Activation) (None, 16, 16, 256)       0         
_________________________________________________________________
dropout_2355 (Dropout)       (None, 16, 16, 256)       0         
_________________________________________________________________
separable_conv2d_1628 (Separ (None, 16, 16, 16)        6416      
_________________________________________________________________
activation_2356 (Activation) (None, 16, 16, 16)        0         
_________________________________________________________________
dropout_2356 (Dropout)       (None, 16, 16, 16)        0         
_________________________________________________________________
flatten_594 (Flatten)        (None, 4096)              0         
_________________________________________________________________
dense_1322 (Dense)           (None, 32)                131104    
_________________________________________________________________
batch_normalization_1726 (Ba (None, 32)                128       
_________________________________________________________________
activation_2357 (Activation) (None, 32)                0         
_________________________________________________________________
dropout_2357 (Dropout)       (None, 32)                0         
_________________________________________________________________
dense_1323 (Dense)           (None, 256)               8448      
_________________________________________________________________
batch_normalization_1727 (Ba (None, 256)               1024      
_________________________________________________________________
activation_2358 (Activation) (None, 256)               0         
_________________________________________________________________
dropout_2358 (Dropout)       (None, 256)               0         
_________________________________________________________________
dense_1324 (Dense)           (None, 100)               25700     
=================================================================
Total params: 313,903
Trainable params: 311,791
Non-trainable params: 2,112
_________________________________________________________________
