Model: "sequential_308"
_________________________________________________________________
Layer (type)                 Output Shape              Param #   
=================================================================
separable_conv2d_795 (Separa (None, 32, 32, 512)       2075      
_________________________________________________________________
batch_normalization_853 (Bat (None, 32, 32, 512)       2048      
_________________________________________________________________
activation_1111 (Activation) (None, 32, 32, 512)       0         
_________________________________________________________________
dropout_1111 (Dropout)       (None, 32, 32, 512)       0         
_________________________________________________________________
max_pooling2d_311 (MaxPoolin (None, 16, 16, 512)       0         
_________________________________________________________________
separable_conv2d_796 (Separa (None, 16, 16, 64)        37440     
_________________________________________________________________
activation_1112 (Activation) (None, 16, 16, 64)        0         
_________________________________________________________________
dropout_1112 (Dropout)       (None, 16, 16, 64)        0         
_________________________________________________________________
max_pooling2d_312 (MaxPoolin (None, 8, 8, 64)          0         
_________________________________________________________________
separable_conv2d_797 (Separa (None, 8, 8, 16)          1616      
_________________________________________________________________
activation_1113 (Activation) (None, 8, 8, 16)          0         
_________________________________________________________________
dropout_1113 (Dropout)       (None, 8, 8, 16)          0         
_________________________________________________________________
flatten_308 (Flatten)        (None, 1024)              0         
_________________________________________________________________
dense_624 (Dense)            (None, 100)               102500    
=================================================================
Total params: 145,679
Trainable params: 144,655
Non-trainable params: 1,024
_________________________________________________________________
