Model: "sequential_83"
_________________________________________________________________
Layer (type)                 Output Shape              Param #   
=================================================================
separable_conv2d_195 (Separa (None, 32, 32, 512)       2075      
_________________________________________________________________
activation_264 (Activation)  (None, 32, 32, 512)       0         
_________________________________________________________________
dropout_264 (Dropout)        (None, 32, 32, 512)       0         
_________________________________________________________________
flatten_83 (Flatten)         (None, 524288)            0         
_________________________________________________________________
dense_152 (Dense)            (None, 256)               134217984 
_________________________________________________________________
batch_normalization_177 (Bat (None, 256)               1024      
_________________________________________________________________
activation_265 (Activation)  (None, 256)               0         
_________________________________________________________________
dropout_265 (Dropout)        (None, 256)               0         
_________________________________________________________________
dense_153 (Dense)            (None, 100)               25700     
=================================================================
Total params: 134,246,783
Trainable params: 134,246,271
Non-trainable params: 512
_________________________________________________________________
