Model: "sequential_387"
_________________________________________________________________
Layer (type)                 Output Shape              Param #   
=================================================================
separable_conv2d_1018 (Separ (None, 32, 32, 512)       2075      
_________________________________________________________________
activation_1418 (Activation) (None, 32, 32, 512)       0         
_________________________________________________________________
dropout_1418 (Dropout)       (None, 32, 32, 512)       0         
_________________________________________________________________
max_pooling2d_410 (MaxPoolin (None, 16, 16, 512)       0         
_________________________________________________________________
separable_conv2d_1019 (Separ (None, 16, 16, 64)        37440     
_________________________________________________________________
activation_1419 (Activation) (None, 16, 16, 64)        0         
_________________________________________________________________
dropout_1419 (Dropout)       (None, 16, 16, 64)        0         
_________________________________________________________________
separable_conv2d_1020 (Separ (None, 16, 16, 64)        4736      
_________________________________________________________________
activation_1420 (Activation) (None, 16, 16, 64)        0         
_________________________________________________________________
dropout_1420 (Dropout)       (None, 16, 16, 64)        0         
_________________________________________________________________
flatten_387 (Flatten)        (None, 16384)             0         
_________________________________________________________________
dense_787 (Dense)            (None, 100)               1638500   
=================================================================
Total params: 1,682,751
Trainable params: 1,682,751
Non-trainable params: 0
_________________________________________________________________
