Model: "sequential_560"
_________________________________________________________________
Layer (type)                 Output Shape              Param #   
=================================================================
separable_conv2d_1525 (Separ (None, 32, 32, 512)       2075      
_________________________________________________________________
batch_normalization_1619 (Ba (None, 32, 32, 512)       2048      
_________________________________________________________________
activation_2207 (Activation) (None, 32, 32, 512)       0         
_________________________________________________________________
dropout_2207 (Dropout)       (None, 32, 32, 512)       0         
_________________________________________________________________
separable_conv2d_1526 (Separ (None, 32, 32, 64)        37440     
_________________________________________________________________
batch_normalization_1620 (Ba (None, 32, 32, 64)        256       
_________________________________________________________________
activation_2208 (Activation) (None, 32, 32, 64)        0         
_________________________________________________________________
dropout_2208 (Dropout)       (None, 32, 32, 64)        0         
_________________________________________________________________
separable_conv2d_1527 (Separ (None, 32, 32, 512)       33856     
_________________________________________________________________
batch_normalization_1621 (Ba (None, 32, 32, 512)       2048      
_________________________________________________________________
activation_2209 (Activation) (None, 32, 32, 512)       0         
_________________________________________________________________
dropout_2209 (Dropout)       (None, 32, 32, 512)       0         
_________________________________________________________________
flatten_560 (Flatten)        (None, 524288)            0         
_________________________________________________________________
dense_1242 (Dense)           (None, 256)               134217984 
_________________________________________________________________
activation_2210 (Activation) (None, 256)               0         
_________________________________________________________________
dropout_2210 (Dropout)       (None, 256)               0         
_________________________________________________________________
dense_1243 (Dense)           (None, 100)               25700     
=================================================================
Total params: 134,321,407
Trainable params: 134,319,231
Non-trainable params: 2,176
_________________________________________________________________
