Model: "sequential_57"
_________________________________________________________________
Layer (type)                 Output Shape              Param #   
=================================================================
separable_conv2d_137 (Separa (None, 32, 32, 8)         59        
_________________________________________________________________
batch_normalization_118 (Bat (None, 32, 32, 8)         32        
_________________________________________________________________
activation_185 (Activation)  (None, 32, 32, 8)         0         
_________________________________________________________________
dropout_185 (Dropout)        (None, 32, 32, 8)         0         
_________________________________________________________________
separable_conv2d_138 (Separa (None, 32, 32, 64)        648       
_________________________________________________________________
batch_normalization_119 (Bat (None, 32, 32, 64)        256       
_________________________________________________________________
activation_186 (Activation)  (None, 32, 32, 64)        0         
_________________________________________________________________
dropout_186 (Dropout)        (None, 32, 32, 64)        0         
_________________________________________________________________
flatten_57 (Flatten)         (None, 65536)             0         
_________________________________________________________________
dense_105 (Dense)            (None, 100)               6553700   
=================================================================
Total params: 6,554,695
Trainable params: 6,554,551
Non-trainable params: 144
_________________________________________________________________
