Model: "sequential_355"
_________________________________________________________________
Layer (type)                 Output Shape              Param #   
=================================================================
separable_conv2d_927 (Separa (None, 32, 32, 512)       2075      
_________________________________________________________________
batch_normalization_985 (Bat (None, 32, 32, 512)       2048      
_________________________________________________________________
activation_1292 (Activation) (None, 32, 32, 512)       0         
_________________________________________________________________
dropout_1292 (Dropout)       (None, 32, 32, 512)       0         
_________________________________________________________________
separable_conv2d_928 (Separa (None, 32, 32, 128)       70272     
_________________________________________________________________
batch_normalization_986 (Bat (None, 32, 32, 128)       512       
_________________________________________________________________
activation_1293 (Activation) (None, 32, 32, 128)       0         
_________________________________________________________________
dropout_1293 (Dropout)       (None, 32, 32, 128)       0         
_________________________________________________________________
separable_conv2d_929 (Separa (None, 32, 32, 16)        3216      
_________________________________________________________________
activation_1294 (Activation) (None, 32, 32, 16)        0         
_________________________________________________________________
dropout_1294 (Dropout)       (None, 32, 32, 16)        0         
_________________________________________________________________
flatten_355 (Flatten)        (None, 16384)             0         
_________________________________________________________________
dense_720 (Dense)            (None, 128)               2097280   
_________________________________________________________________
batch_normalization_987 (Bat (None, 128)               512       
_________________________________________________________________
activation_1295 (Activation) (None, 128)               0         
_________________________________________________________________
dropout_1295 (Dropout)       (None, 128)               0         
_________________________________________________________________
dense_721 (Dense)            (None, 100)               12900     
=================================================================
Total params: 2,188,815
Trainable params: 2,187,279
Non-trainable params: 1,536
_________________________________________________________________
