Model: "sequential_578"
_________________________________________________________________
Layer (type)                 Output Shape              Param #   
=================================================================
separable_conv2d_1579 (Separ (None, 32, 32, 256)       1051      
_________________________________________________________________
batch_normalization_1677 (Ba (None, 32, 32, 256)       1024      
_________________________________________________________________
activation_2285 (Activation) (None, 32, 32, 256)       0         
_________________________________________________________________
dropout_2285 (Dropout)       (None, 32, 32, 256)       0         
_________________________________________________________________
max_pooling2d_606 (MaxPoolin (None, 16, 16, 256)       0         
_________________________________________________________________
separable_conv2d_1580 (Separ (None, 16, 16, 128)       35200     
_________________________________________________________________
batch_normalization_1678 (Ba (None, 16, 16, 128)       512       
_________________________________________________________________
activation_2286 (Activation) (None, 16, 16, 128)       0         
_________________________________________________________________
dropout_2286 (Dropout)       (None, 16, 16, 128)       0         
_________________________________________________________________
separable_conv2d_1581 (Separ (None, 16, 16, 16)        3216      
_________________________________________________________________
activation_2287 (Activation) (None, 16, 16, 16)        0         
_________________________________________________________________
dropout_2287 (Dropout)       (None, 16, 16, 16)        0         
_________________________________________________________________
flatten_578 (Flatten)        (None, 4096)              0         
_________________________________________________________________
dense_1284 (Dense)           (None, 512)               2097664   
_________________________________________________________________
batch_normalization_1679 (Ba (None, 512)               2048      
_________________________________________________________________
activation_2288 (Activation) (None, 512)               0         
_________________________________________________________________
dropout_2288 (Dropout)       (None, 512)               0         
_________________________________________________________________
dense_1285 (Dense)           (None, 256)               131328    
_________________________________________________________________
activation_2289 (Activation) (None, 256)               0         
_________________________________________________________________
dropout_2289 (Dropout)       (None, 256)               0         
_________________________________________________________________
dense_1286 (Dense)           (None, 100)               25700     
=================================================================
Total params: 2,297,743
Trainable params: 2,295,951
Non-trainable params: 1,792
_________________________________________________________________
