Model: "sequential_357"
_________________________________________________________________
Layer (type)                 Output Shape              Param #   
=================================================================
separable_conv2d_933 (Separa (None, 32, 32, 512)       2075      
_________________________________________________________________
batch_normalization_990 (Bat (None, 32, 32, 512)       2048      
_________________________________________________________________
activation_1300 (Activation) (None, 32, 32, 512)       0         
_________________________________________________________________
dropout_1300 (Dropout)       (None, 32, 32, 512)       0         
_________________________________________________________________
max_pooling2d_372 (MaxPoolin (None, 16, 16, 512)       0         
_________________________________________________________________
separable_conv2d_934 (Separa (None, 16, 16, 64)        37440     
_________________________________________________________________
batch_normalization_991 (Bat (None, 16, 16, 64)        256       
_________________________________________________________________
activation_1301 (Activation) (None, 16, 16, 64)        0         
_________________________________________________________________
dropout_1301 (Dropout)       (None, 16, 16, 64)        0         
_________________________________________________________________
max_pooling2d_373 (MaxPoolin (None, 8, 8, 64)          0         
_________________________________________________________________
separable_conv2d_935 (Separa (None, 8, 8, 16)          1616      
_________________________________________________________________
activation_1302 (Activation) (None, 8, 8, 16)          0         
_________________________________________________________________
dropout_1302 (Dropout)       (None, 8, 8, 16)          0         
_________________________________________________________________
flatten_357 (Flatten)        (None, 1024)              0         
_________________________________________________________________
dense_724 (Dense)            (None, 512)               524800    
_________________________________________________________________
batch_normalization_992 (Bat (None, 512)               2048      
_________________________________________________________________
activation_1303 (Activation) (None, 512)               0         
_________________________________________________________________
dropout_1303 (Dropout)       (None, 512)               0         
_________________________________________________________________
dense_725 (Dense)            (None, 256)               131328    
_________________________________________________________________
batch_normalization_993 (Bat (None, 256)               1024      
_________________________________________________________________
activation_1304 (Activation) (None, 256)               0         
_________________________________________________________________
dropout_1304 (Dropout)       (None, 256)               0         
_________________________________________________________________
dense_726 (Dense)            (None, 100)               25700     
=================================================================
Total params: 728,335
Trainable params: 725,647
Non-trainable params: 2,688
_________________________________________________________________
