Model: "sequential_525"
_________________________________________________________________
Layer (type)                 Output Shape              Param #   
=================================================================
separable_conv2d_1422 (Separ (None, 32, 32, 256)       1051      
_________________________________________________________________
batch_normalization_1504 (Ba (None, 32, 32, 256)       1024      
_________________________________________________________________
activation_2048 (Activation) (None, 32, 32, 256)       0         
_________________________________________________________________
dropout_2048 (Dropout)       (None, 32, 32, 256)       0         
_________________________________________________________________
max_pooling2d_561 (MaxPoolin (None, 16, 16, 256)       0         
_________________________________________________________________
separable_conv2d_1423 (Separ (None, 16, 16, 128)       35200     
_________________________________________________________________
batch_normalization_1505 (Ba (None, 16, 16, 128)       512       
_________________________________________________________________
activation_2049 (Activation) (None, 16, 16, 128)       0         
_________________________________________________________________
dropout_2049 (Dropout)       (None, 16, 16, 128)       0         
_________________________________________________________________
separable_conv2d_1424 (Separ (None, 16, 16, 16)        3216      
_________________________________________________________________
activation_2050 (Activation) (None, 16, 16, 16)        0         
_________________________________________________________________
dropout_2050 (Dropout)       (None, 16, 16, 16)        0         
_________________________________________________________________
flatten_525 (Flatten)        (None, 4096)              0         
_________________________________________________________________
dense_1151 (Dense)           (None, 512)               2097664   
_________________________________________________________________
batch_normalization_1506 (Ba (None, 512)               2048      
_________________________________________________________________
activation_2051 (Activation) (None, 512)               0         
_________________________________________________________________
dropout_2051 (Dropout)       (None, 512)               0         
_________________________________________________________________
dense_1152 (Dense)           (None, 256)               131328    
_________________________________________________________________
activation_2052 (Activation) (None, 256)               0         
_________________________________________________________________
dropout_2052 (Dropout)       (None, 256)               0         
_________________________________________________________________
dense_1153 (Dense)           (None, 100)               25700     
=================================================================
Total params: 2,297,743
Trainable params: 2,295,951
Non-trainable params: 1,792
_________________________________________________________________
