Model: "sequential_575"
_________________________________________________________________
Layer (type)                 Output Shape              Param #   
=================================================================
separable_conv2d_1570 (Separ (None, 32, 32, 512)       2075      
_________________________________________________________________
batch_normalization_1668 (Ba (None, 32, 32, 512)       2048      
_________________________________________________________________
activation_2273 (Activation) (None, 32, 32, 512)       0         
_________________________________________________________________
dropout_2273 (Dropout)       (None, 32, 32, 512)       0         
_________________________________________________________________
separable_conv2d_1571 (Separ (None, 32, 32, 32)        21024     
_________________________________________________________________
batch_normalization_1669 (Ba (None, 32, 32, 32)        128       
_________________________________________________________________
activation_2274 (Activation) (None, 32, 32, 32)        0         
_________________________________________________________________
dropout_2274 (Dropout)       (None, 32, 32, 32)        0         
_________________________________________________________________
separable_conv2d_1572 (Separ (None, 32, 32, 16)        816       
_________________________________________________________________
activation_2275 (Activation) (None, 32, 32, 16)        0         
_________________________________________________________________
dropout_2275 (Dropout)       (None, 32, 32, 16)        0         
_________________________________________________________________
flatten_575 (Flatten)        (None, 16384)             0         
_________________________________________________________________
dense_1278 (Dense)           (None, 512)               8389120   
_________________________________________________________________
batch_normalization_1670 (Ba (None, 512)               2048      
_________________________________________________________________
activation_2276 (Activation) (None, 512)               0         
_________________________________________________________________
dropout_2276 (Dropout)       (None, 512)               0         
_________________________________________________________________
dense_1279 (Dense)           (None, 100)               51300     
=================================================================
Total params: 8,468,559
Trainable params: 8,466,447
Non-trainable params: 2,112
_________________________________________________________________
