Model: "sequential_92"
_________________________________________________________________
Layer (type)                 Output Shape              Param #   
=================================================================
separable_conv2d_215 (Separa (None, 32, 32, 512)       2075      
_________________________________________________________________
batch_normalization_198 (Bat (None, 32, 32, 512)       2048      
_________________________________________________________________
activation_288 (Activation)  (None, 32, 32, 512)       0         
_________________________________________________________________
dropout_288 (Dropout)        (None, 32, 32, 512)       0         
_________________________________________________________________
separable_conv2d_216 (Separa (None, 32, 32, 64)        37440     
_________________________________________________________________
batch_normalization_199 (Bat (None, 32, 32, 64)        256       
_________________________________________________________________
activation_289 (Activation)  (None, 32, 32, 64)        0         
_________________________________________________________________
dropout_289 (Dropout)        (None, 32, 32, 64)        0         
_________________________________________________________________
max_pooling2d_67 (MaxPooling (None, 16, 16, 64)        0         
_________________________________________________________________
separable_conv2d_217 (Separa (None, 16, 16, 16)        1616      
_________________________________________________________________
activation_290 (Activation)  (None, 16, 16, 16)        0         
_________________________________________________________________
dropout_290 (Dropout)        (None, 16, 16, 16)        0         
_________________________________________________________________
flatten_92 (Flatten)         (None, 4096)              0         
_________________________________________________________________
dense_165 (Dense)            (None, 512)               2097664   
_________________________________________________________________
batch_normalization_200 (Bat (None, 512)               2048      
_________________________________________________________________
activation_291 (Activation)  (None, 512)               0         
_________________________________________________________________
dropout_291 (Dropout)        (None, 512)               0         
_________________________________________________________________
dense_166 (Dense)            (None, 256)               131328    
_________________________________________________________________
batch_normalization_201 (Bat (None, 256)               1024      
_________________________________________________________________
activation_292 (Activation)  (None, 256)               0         
_________________________________________________________________
dropout_292 (Dropout)        (None, 256)               0         
_________________________________________________________________
dense_167 (Dense)            (None, 100)               25700     
=================================================================
Total params: 2,301,199
Trainable params: 2,298,511
Non-trainable params: 2,688
_________________________________________________________________
