Model: "sequential_589"
_________________________________________________________________
Layer (type)                 Output Shape              Param #   
=================================================================
separable_conv2d_1611 (Separ (None, 32, 32, 512)       2075      
_________________________________________________________________
batch_normalization_1710 (Ba (None, 32, 32, 512)       2048      
_________________________________________________________________
activation_2333 (Activation) (None, 32, 32, 512)       0         
_________________________________________________________________
dropout_2333 (Dropout)       (None, 32, 32, 512)       0         
_________________________________________________________________
separable_conv2d_1612 (Separ (None, 32, 32, 32)        21024     
_________________________________________________________________
batch_normalization_1711 (Ba (None, 32, 32, 32)        128       
_________________________________________________________________
activation_2334 (Activation) (None, 32, 32, 32)        0         
_________________________________________________________________
dropout_2334 (Dropout)       (None, 32, 32, 32)        0         
_________________________________________________________________
separable_conv2d_1613 (Separ (None, 32, 32, 16)        816       
_________________________________________________________________
activation_2335 (Activation) (None, 32, 32, 16)        0         
_________________________________________________________________
dropout_2335 (Dropout)       (None, 32, 32, 16)        0         
_________________________________________________________________
flatten_589 (Flatten)        (None, 16384)             0         
_________________________________________________________________
dense_1311 (Dense)           (None, 512)               8389120   
_________________________________________________________________
batch_normalization_1712 (Ba (None, 512)               2048      
_________________________________________________________________
activation_2336 (Activation) (None, 512)               0         
_________________________________________________________________
dropout_2336 (Dropout)       (None, 512)               0         
_________________________________________________________________
dense_1312 (Dense)           (None, 100)               51300     
=================================================================
Total params: 8,468,559
Trainable params: 8,466,447
Non-trainable params: 2,112
_________________________________________________________________
