Model: "sequential_571"
_________________________________________________________________
Layer (type)                 Output Shape              Param #   
=================================================================
separable_conv2d_1558 (Separ (None, 32, 32, 8)         59        
_________________________________________________________________
batch_normalization_1656 (Ba (None, 32, 32, 8)         32        
_________________________________________________________________
activation_2255 (Activation) (None, 32, 32, 8)         0         
_________________________________________________________________
dropout_2255 (Dropout)       (None, 32, 32, 8)         0         
_________________________________________________________________
max_pooling2d_601 (MaxPoolin (None, 16, 16, 8)         0         
_________________________________________________________________
separable_conv2d_1559 (Separ (None, 16, 16, 128)       1224      
_________________________________________________________________
batch_normalization_1657 (Ba (None, 16, 16, 128)       512       
_________________________________________________________________
activation_2256 (Activation) (None, 16, 16, 128)       0         
_________________________________________________________________
dropout_2256 (Dropout)       (None, 16, 16, 128)       0         
_________________________________________________________________
separable_conv2d_1560 (Separ (None, 16, 16, 16)        3216      
_________________________________________________________________
activation_2257 (Activation) (None, 16, 16, 16)        0         
_________________________________________________________________
dropout_2257 (Dropout)       (None, 16, 16, 16)        0         
_________________________________________________________________
flatten_571 (Flatten)        (None, 4096)              0         
_________________________________________________________________
dense_1268 (Dense)           (None, 256)               1048832   
_________________________________________________________________
activation_2258 (Activation) (None, 256)               0         
_________________________________________________________________
dropout_2258 (Dropout)       (None, 256)               0         
_________________________________________________________________
dense_1269 (Dense)           (None, 100)               25700     
=================================================================
Total params: 1,079,575
Trainable params: 1,079,303
Non-trainable params: 272
_________________________________________________________________
