Model: "sequential_573"
_________________________________________________________________
Layer (type)                 Output Shape              Param #   
=================================================================
separable_conv2d_1564 (Separ (None, 32, 32, 128)       539       
_________________________________________________________________
batch_normalization_1660 (Ba (None, 32, 32, 128)       512       
_________________________________________________________________
activation_2263 (Activation) (None, 32, 32, 128)       0         
_________________________________________________________________
dropout_2263 (Dropout)       (None, 32, 32, 128)       0         
_________________________________________________________________
max_pooling2d_602 (MaxPoolin (None, 16, 16, 128)       0         
_________________________________________________________________
separable_conv2d_1565 (Separ (None, 16, 16, 64)        9408      
_________________________________________________________________
batch_normalization_1661 (Ba (None, 16, 16, 64)        256       
_________________________________________________________________
activation_2264 (Activation) (None, 16, 16, 64)        0         
_________________________________________________________________
dropout_2264 (Dropout)       (None, 16, 16, 64)        0         
_________________________________________________________________
separable_conv2d_1566 (Separ (None, 16, 16, 16)        1616      
_________________________________________________________________
activation_2265 (Activation) (None, 16, 16, 16)        0         
_________________________________________________________________
dropout_2265 (Dropout)       (None, 16, 16, 16)        0         
_________________________________________________________________
flatten_573 (Flatten)        (None, 4096)              0         
_________________________________________________________________
dense_1272 (Dense)           (None, 1024)              4195328   
_________________________________________________________________
batch_normalization_1662 (Ba (None, 1024)              4096      
_________________________________________________________________
activation_2266 (Activation) (None, 1024)              0         
_________________________________________________________________
dropout_2266 (Dropout)       (None, 1024)              0         
_________________________________________________________________
dense_1273 (Dense)           (None, 256)               262400    
_________________________________________________________________
batch_normalization_1663 (Ba (None, 256)               1024      
_________________________________________________________________
activation_2267 (Activation) (None, 256)               0         
_________________________________________________________________
dropout_2267 (Dropout)       (None, 256)               0         
_________________________________________________________________
dense_1274 (Dense)           (None, 100)               25700     
=================================================================
Total params: 4,500,879
Trainable params: 4,497,935
Non-trainable params: 2,944
_________________________________________________________________
