Model: "sequential_232"
_________________________________________________________________
Layer (type)                 Output Shape              Param #   
=================================================================
separable_conv2d_581 (Separa (None, 32, 32, 8)         59        
_________________________________________________________________
activation_809 (Activation)  (None, 32, 32, 8)         0         
_________________________________________________________________
dropout_809 (Dropout)        (None, 32, 32, 8)         0         
_________________________________________________________________
separable_conv2d_582 (Separa (None, 32, 32, 64)        648       
_________________________________________________________________
batch_normalization_619 (Bat (None, 32, 32, 64)        256       
_________________________________________________________________
activation_810 (Activation)  (None, 32, 32, 64)        0         
_________________________________________________________________
dropout_810 (Dropout)        (None, 32, 32, 64)        0         
_________________________________________________________________
max_pooling2d_221 (MaxPoolin (None, 16, 16, 64)        0         
_________________________________________________________________
separable_conv2d_583 (Separa (None, 16, 16, 16)        1616      
_________________________________________________________________
activation_811 (Activation)  (None, 16, 16, 16)        0         
_________________________________________________________________
dropout_811 (Dropout)        (None, 16, 16, 16)        0         
_________________________________________________________________
flatten_232 (Flatten)        (None, 4096)              0         
_________________________________________________________________
dense_460 (Dense)            (None, 512)               2097664   
_________________________________________________________________
batch_normalization_620 (Bat (None, 512)               2048      
_________________________________________________________________
activation_812 (Activation)  (None, 512)               0         
_________________________________________________________________
dropout_812 (Dropout)        (None, 512)               0         
_________________________________________________________________
dense_461 (Dense)            (None, 64)                32832     
_________________________________________________________________
batch_normalization_621 (Bat (None, 64)                256       
_________________________________________________________________
activation_813 (Activation)  (None, 64)                0         
_________________________________________________________________
dropout_813 (Dropout)        (None, 64)                0         
_________________________________________________________________
dense_462 (Dense)            (None, 100)               6500      
=================================================================
Total params: 2,141,879
Trainable params: 2,140,599
Non-trainable params: 1,280
_________________________________________________________________
