Model: "sequential_58"
_________________________________________________________________
Layer (type)                 Output Shape              Param #   
=================================================================
separable_conv2d_139 (Separa (None, 32, 32, 256)       1051      
_________________________________________________________________
batch_normalization_120 (Bat (None, 32, 32, 256)       1024      
_________________________________________________________________
activation_187 (Activation)  (None, 32, 32, 256)       0         
_________________________________________________________________
dropout_187 (Dropout)        (None, 32, 32, 256)       0         
_________________________________________________________________
max_pooling2d_44 (MaxPooling (None, 16, 16, 256)       0         
_________________________________________________________________
separable_conv2d_140 (Separa (None, 16, 16, 128)       35200     
_________________________________________________________________
batch_normalization_121 (Bat (None, 16, 16, 128)       512       
_________________________________________________________________
activation_188 (Activation)  (None, 16, 16, 128)       0         
_________________________________________________________________
dropout_188 (Dropout)        (None, 16, 16, 128)       0         
_________________________________________________________________
flatten_58 (Flatten)         (None, 32768)             0         
_________________________________________________________________
dense_106 (Dense)            (None, 128)               4194432   
_________________________________________________________________
batch_normalization_122 (Bat (None, 128)               512       
_________________________________________________________________
activation_189 (Activation)  (None, 128)               0         
_________________________________________________________________
dropout_189 (Dropout)        (None, 128)               0         
_________________________________________________________________
dense_107 (Dense)            (None, 100)               12900     
=================================================================
Total params: 4,245,631
Trainable params: 4,244,607
Non-trainable params: 1,024
_________________________________________________________________
