Model: "sequential_116"
_________________________________________________________________
Layer (type)                 Output Shape              Param #   
=================================================================
separable_conv2d_272 (Separa (None, 32, 32, 512)       2075      
_________________________________________________________________
batch_normalization_265 (Bat (None, 32, 32, 512)       2048      
_________________________________________________________________
activation_369 (Activation)  (None, 32, 32, 512)       0         
_________________________________________________________________
dropout_369 (Dropout)        (None, 32, 32, 512)       0         
_________________________________________________________________
separable_conv2d_273 (Separa (None, 32, 32, 64)        37440     
_________________________________________________________________
batch_normalization_266 (Bat (None, 32, 32, 64)        256       
_________________________________________________________________
activation_370 (Activation)  (None, 32, 32, 64)        0         
_________________________________________________________________
dropout_370 (Dropout)        (None, 32, 32, 64)        0         
_________________________________________________________________
max_pooling2d_88 (MaxPooling (None, 16, 16, 64)        0         
_________________________________________________________________
separable_conv2d_274 (Separa (None, 16, 16, 16)        1616      
_________________________________________________________________
activation_371 (Activation)  (None, 16, 16, 16)        0         
_________________________________________________________________
dropout_371 (Dropout)        (None, 16, 16, 16)        0         
_________________________________________________________________
flatten_116 (Flatten)        (None, 4096)              0         
_________________________________________________________________
dense_213 (Dense)            (None, 512)               2097664   
_________________________________________________________________
batch_normalization_267 (Bat (None, 512)               2048      
_________________________________________________________________
activation_372 (Activation)  (None, 512)               0         
_________________________________________________________________
dropout_372 (Dropout)        (None, 512)               0         
_________________________________________________________________
dense_214 (Dense)            (None, 256)               131328    
_________________________________________________________________
batch_normalization_268 (Bat (None, 256)               1024      
_________________________________________________________________
activation_373 (Activation)  (None, 256)               0         
_________________________________________________________________
dropout_373 (Dropout)        (None, 256)               0         
_________________________________________________________________
dense_215 (Dense)            (None, 100)               25700     
=================================================================
Total params: 2,301,199
Trainable params: 2,298,511
Non-trainable params: 2,688
_________________________________________________________________
