Model: "sequential_76"
_________________________________________________________________
Layer (type)                 Output Shape              Param #   
=================================================================
separable_conv2d_179 (Separa (None, 32, 32, 512)       2075      
_________________________________________________________________
activation_243 (Activation)  (None, 32, 32, 512)       0         
_________________________________________________________________
dropout_243 (Dropout)        (None, 32, 32, 512)       0         
_________________________________________________________________
flatten_76 (Flatten)         (None, 524288)            0         
_________________________________________________________________
dense_140 (Dense)            (None, 128)               67108992  
_________________________________________________________________
batch_normalization_163 (Bat (None, 128)               512       
_________________________________________________________________
activation_244 (Activation)  (None, 128)               0         
_________________________________________________________________
dropout_244 (Dropout)        (None, 128)               0         
_________________________________________________________________
dense_141 (Dense)            (None, 100)               12900     
=================================================================
Total params: 67,124,479
Trainable params: 67,124,223
Non-trainable params: 256
_________________________________________________________________
