Model: "sequential_545"
_________________________________________________________________
Layer (type)                 Output Shape              Param #   
=================================================================
separable_conv2d_1480 (Separ (None, 32, 32, 256)       1051      
_________________________________________________________________
batch_normalization_1569 (Ba (None, 32, 32, 256)       1024      
_________________________________________________________________
activation_2137 (Activation) (None, 32, 32, 256)       0         
_________________________________________________________________
dropout_2137 (Dropout)       (None, 32, 32, 256)       0         
_________________________________________________________________
max_pooling2d_579 (MaxPoolin (None, 16, 16, 256)       0         
_________________________________________________________________
separable_conv2d_1481 (Separ (None, 16, 16, 128)       35200     
_________________________________________________________________
batch_normalization_1570 (Ba (None, 16, 16, 128)       512       
_________________________________________________________________
activation_2138 (Activation) (None, 16, 16, 128)       0         
_________________________________________________________________
dropout_2138 (Dropout)       (None, 16, 16, 128)       0         
_________________________________________________________________
separable_conv2d_1482 (Separ (None, 16, 16, 16)        3216      
_________________________________________________________________
activation_2139 (Activation) (None, 16, 16, 16)        0         
_________________________________________________________________
dropout_2139 (Dropout)       (None, 16, 16, 16)        0         
_________________________________________________________________
flatten_545 (Flatten)        (None, 4096)              0         
_________________________________________________________________
dense_1202 (Dense)           (None, 2048)              8390656   
_________________________________________________________________
batch_normalization_1571 (Ba (None, 2048)              8192      
_________________________________________________________________
activation_2140 (Activation) (None, 2048)              0         
_________________________________________________________________
dropout_2140 (Dropout)       (None, 2048)              0         
_________________________________________________________________
dense_1203 (Dense)           (None, 256)               524544    
_________________________________________________________________
activation_2141 (Activation) (None, 256)               0         
_________________________________________________________________
dropout_2141 (Dropout)       (None, 256)               0         
_________________________________________________________________
dense_1204 (Dense)           (None, 100)               25700     
=================================================================
Total params: 8,990,095
Trainable params: 8,985,231
Non-trainable params: 4,864
_________________________________________________________________
