Model: "sequential_157"
_________________________________________________________________
Layer (type)                 Output Shape              Param #   
=================================================================
separable_conv2d_380 (Separa (None, 32, 32, 512)       2075      
_________________________________________________________________
batch_normalization_388 (Bat (None, 32, 32, 512)       2048      
_________________________________________________________________
activation_523 (Activation)  (None, 32, 32, 512)       0         
_________________________________________________________________
dropout_523 (Dropout)        (None, 32, 32, 512)       0         
_________________________________________________________________
max_pooling2d_133 (MaxPoolin (None, 16, 16, 512)       0         
_________________________________________________________________
separable_conv2d_381 (Separa (None, 16, 16, 128)       70272     
_________________________________________________________________
batch_normalization_389 (Bat (None, 16, 16, 128)       512       
_________________________________________________________________
activation_524 (Activation)  (None, 16, 16, 128)       0         
_________________________________________________________________
dropout_524 (Dropout)        (None, 16, 16, 128)       0         
_________________________________________________________________
flatten_157 (Flatten)        (None, 32768)             0         
_________________________________________________________________
dense_300 (Dense)            (None, 100)               3276900   
=================================================================
Total params: 3,351,807
Trainable params: 3,350,527
Non-trainable params: 1,280
_________________________________________________________________
