Model: "sequential_11"
_________________________________________________________________
Layer (type)                 Output Shape              Param #   
=================================================================
separable_conv2d_29 (Separab (None, 32, 32, 64)        283       
_________________________________________________________________
activation_40 (Activation)   (None, 32, 32, 64)        0         
_________________________________________________________________
dropout_40 (Dropout)         (None, 32, 32, 64)        0         
_________________________________________________________________
max_pooling2d_13 (MaxPooling (None, 16, 16, 64)        0         
_________________________________________________________________
flatten_11 (Flatten)         (None, 16384)             0         
_________________________________________________________________
dense_22 (Dense)             (None, 128)               2097280   
_________________________________________________________________
batch_normalization_26 (Batc (None, 128)               512       
_________________________________________________________________
activation_41 (Activation)   (None, 128)               0         
_________________________________________________________________
dropout_41 (Dropout)         (None, 128)               0         
_________________________________________________________________
dense_23 (Dense)             (None, 100)               12900     
=================================================================
Total params: 2,110,975
Trainable params: 2,110,719
Non-trainable params: 256
_________________________________________________________________
