Model: "sequential_248"
_________________________________________________________________
Layer (type)                 Output Shape              Param #   
=================================================================
separable_conv2d_625 (Separa (None, 32, 32, 256)       1051      
_________________________________________________________________
batch_normalization_672 (Bat (None, 32, 32, 256)       1024      
_________________________________________________________________
activation_875 (Activation)  (None, 32, 32, 256)       0         
_________________________________________________________________
dropout_875 (Dropout)        (None, 32, 32, 256)       0         
_________________________________________________________________
max_pooling2d_239 (MaxPoolin (None, 16, 16, 256)       0         
_________________________________________________________________
separable_conv2d_626 (Separa (None, 16, 16, 128)       35200     
_________________________________________________________________
batch_normalization_673 (Bat (None, 16, 16, 128)       512       
_________________________________________________________________
activation_876 (Activation)  (None, 16, 16, 128)       0         
_________________________________________________________________
dropout_876 (Dropout)        (None, 16, 16, 128)       0         
_________________________________________________________________
flatten_248 (Flatten)        (None, 32768)             0         
_________________________________________________________________
dense_498 (Dense)            (None, 128)               4194432   
_________________________________________________________________
batch_normalization_674 (Bat (None, 128)               512       
_________________________________________________________________
activation_877 (Activation)  (None, 128)               0         
_________________________________________________________________
dropout_877 (Dropout)        (None, 128)               0         
_________________________________________________________________
dense_499 (Dense)            (None, 100)               12900     
=================================================================
Total params: 4,245,631
Trainable params: 4,244,607
Non-trainable params: 1,024
_________________________________________________________________
