Model: "sequential_183"
_________________________________________________________________
Layer (type)                 Output Shape              Param #   
=================================================================
separable_conv2d_449 (Separa (None, 32, 32, 512)       2075      
_________________________________________________________________
batch_normalization_466 (Bat (None, 32, 32, 512)       2048      
_________________________________________________________________
activation_621 (Activation)  (None, 32, 32, 512)       0         
_________________________________________________________________
dropout_621 (Dropout)        (None, 32, 32, 512)       0         
_________________________________________________________________
separable_conv2d_450 (Separa (None, 32, 32, 64)        37440     
_________________________________________________________________
batch_normalization_467 (Bat (None, 32, 32, 64)        256       
_________________________________________________________________
activation_622 (Activation)  (None, 32, 32, 64)        0         
_________________________________________________________________
dropout_622 (Dropout)        (None, 32, 32, 64)        0         
_________________________________________________________________
max_pooling2d_163 (MaxPoolin (None, 16, 16, 64)        0         
_________________________________________________________________
separable_conv2d_451 (Separa (None, 16, 16, 64)        4736      
_________________________________________________________________
activation_623 (Activation)  (None, 16, 16, 64)        0         
_________________________________________________________________
dropout_623 (Dropout)        (None, 16, 16, 64)        0         
_________________________________________________________________
flatten_183 (Flatten)        (None, 16384)             0         
_________________________________________________________________
dense_355 (Dense)            (None, 512)               8389120   
_________________________________________________________________
batch_normalization_468 (Bat (None, 512)               2048      
_________________________________________________________________
activation_624 (Activation)  (None, 512)               0         
_________________________________________________________________
dropout_624 (Dropout)        (None, 512)               0         
_________________________________________________________________
dense_356 (Dense)            (None, 100)               51300     
=================================================================
Total params: 8,489,023
Trainable params: 8,486,847
Non-trainable params: 2,176
_________________________________________________________________
