Model: "sequential_171"
_________________________________________________________________
Layer (type)                 Output Shape              Param #   
=================================================================
separable_conv2d_415 (Separa (None, 32, 32, 256)       1051      
_________________________________________________________________
batch_normalization_431 (Bat (None, 32, 32, 256)       1024      
_________________________________________________________________
activation_574 (Activation)  (None, 32, 32, 256)       0         
_________________________________________________________________
dropout_574 (Dropout)        (None, 32, 32, 256)       0         
_________________________________________________________________
max_pooling2d_148 (MaxPoolin (None, 16, 16, 256)       0         
_________________________________________________________________
separable_conv2d_416 (Separa (None, 16, 16, 128)       35200     
_________________________________________________________________
batch_normalization_432 (Bat (None, 16, 16, 128)       512       
_________________________________________________________________
activation_575 (Activation)  (None, 16, 16, 128)       0         
_________________________________________________________________
dropout_575 (Dropout)        (None, 16, 16, 128)       0         
_________________________________________________________________
flatten_171 (Flatten)        (None, 32768)             0         
_________________________________________________________________
dense_330 (Dense)            (None, 128)               4194432   
_________________________________________________________________
batch_normalization_433 (Bat (None, 128)               512       
_________________________________________________________________
activation_576 (Activation)  (None, 128)               0         
_________________________________________________________________
dropout_576 (Dropout)        (None, 128)               0         
_________________________________________________________________
dense_331 (Dense)            (None, 100)               12900     
=================================================================
Total params: 4,245,631
Trainable params: 4,244,607
Non-trainable params: 1,024
_________________________________________________________________
