Model: "sequential_187"
_________________________________________________________________
Layer (type)                 Output Shape              Param #   
=================================================================
separable_conv2d_460 (Separa (None, 32, 32, 512)       2075      
_________________________________________________________________
batch_normalization_479 (Bat (None, 32, 32, 512)       2048      
_________________________________________________________________
activation_637 (Activation)  (None, 32, 32, 512)       0         
_________________________________________________________________
dropout_637 (Dropout)        (None, 32, 32, 512)       0         
_________________________________________________________________
separable_conv2d_461 (Separa (None, 32, 32, 64)        37440     
_________________________________________________________________
batch_normalization_480 (Bat (None, 32, 32, 64)        256       
_________________________________________________________________
activation_638 (Activation)  (None, 32, 32, 64)        0         
_________________________________________________________________
dropout_638 (Dropout)        (None, 32, 32, 64)        0         
_________________________________________________________________
max_pooling2d_168 (MaxPoolin (None, 16, 16, 64)        0         
_________________________________________________________________
flatten_187 (Flatten)        (None, 16384)             0         
_________________________________________________________________
dense_364 (Dense)            (None, 128)               2097280   
_________________________________________________________________
batch_normalization_481 (Bat (None, 128)               512       
_________________________________________________________________
activation_639 (Activation)  (None, 128)               0         
_________________________________________________________________
dropout_639 (Dropout)        (None, 128)               0         
_________________________________________________________________
dense_365 (Dense)            (None, 100)               12900     
=================================================================
Total params: 2,152,511
Trainable params: 2,151,103
Non-trainable params: 1,408
_________________________________________________________________
