Model: "sequential_139"
_________________________________________________________________
Layer (type)                 Output Shape              Param #   
=================================================================
separable_conv2d_330 (Separa (None, 32, 32, 256)       1051      
_________________________________________________________________
batch_normalization_334 (Bat (None, 32, 32, 256)       1024      
_________________________________________________________________
activation_453 (Activation)  (None, 32, 32, 256)       0         
_________________________________________________________________
dropout_453 (Dropout)        (None, 32, 32, 256)       0         
_________________________________________________________________
max_pooling2d_113 (MaxPoolin (None, 16, 16, 256)       0         
_________________________________________________________________
separable_conv2d_331 (Separa (None, 16, 16, 128)       35200     
_________________________________________________________________
batch_normalization_335 (Bat (None, 16, 16, 128)       512       
_________________________________________________________________
activation_454 (Activation)  (None, 16, 16, 128)       0         
_________________________________________________________________
dropout_454 (Dropout)        (None, 16, 16, 128)       0         
_________________________________________________________________
flatten_139 (Flatten)        (None, 32768)             0         
_________________________________________________________________
dense_262 (Dense)            (None, 128)               4194432   
_________________________________________________________________
batch_normalization_336 (Bat (None, 128)               512       
_________________________________________________________________
activation_455 (Activation)  (None, 128)               0         
_________________________________________________________________
dropout_455 (Dropout)        (None, 128)               0         
_________________________________________________________________
dense_263 (Dense)            (None, 100)               12900     
=================================================================
Total params: 4,245,631
Trainable params: 4,244,607
Non-trainable params: 1,024
_________________________________________________________________
