Model: "sequential_367"
_________________________________________________________________
Layer (type)                 Output Shape              Param #   
=================================================================
separable_conv2d_961 (Separa (None, 32, 32, 512)       2075      
_________________________________________________________________
batch_normalization_1012 (Ba (None, 32, 32, 512)       2048      
_________________________________________________________________
activation_1337 (Activation) (None, 32, 32, 512)       0         
_________________________________________________________________
dropout_1337 (Dropout)       (None, 32, 32, 512)       0         
_________________________________________________________________
max_pooling2d_384 (MaxPoolin (None, 16, 16, 512)       0         
_________________________________________________________________
separable_conv2d_962 (Separa (None, 16, 16, 128)       70272     
_________________________________________________________________
batch_normalization_1013 (Ba (None, 16, 16, 128)       512       
_________________________________________________________________
activation_1338 (Activation) (None, 16, 16, 128)       0         
_________________________________________________________________
dropout_1338 (Dropout)       (None, 16, 16, 128)       0         
_________________________________________________________________
separable_conv2d_963 (Separa (None, 16, 16, 16)        3216      
_________________________________________________________________
activation_1339 (Activation) (None, 16, 16, 16)        0         
_________________________________________________________________
dropout_1339 (Dropout)       (None, 16, 16, 16)        0         
_________________________________________________________________
flatten_367 (Flatten)        (None, 4096)              0         
_________________________________________________________________
dense_743 (Dense)            (None, 512)               2097664   
_________________________________________________________________
batch_normalization_1014 (Ba (None, 512)               2048      
_________________________________________________________________
activation_1340 (Activation) (None, 512)               0         
_________________________________________________________________
dropout_1340 (Dropout)       (None, 512)               0         
_________________________________________________________________
dense_744 (Dense)            (None, 256)               131328    
_________________________________________________________________
batch_normalization_1015 (Ba (None, 256)               1024      
_________________________________________________________________
activation_1341 (Activation) (None, 256)               0         
_________________________________________________________________
dropout_1341 (Dropout)       (None, 256)               0         
_________________________________________________________________
dense_745 (Dense)            (None, 100)               25700     
=================================================================
Total params: 2,335,887
Trainable params: 2,333,071
Non-trainable params: 2,816
_________________________________________________________________
