Model: "sequential_63"
_________________________________________________________________
Layer (type)                 Output Shape              Param #   
=================================================================
separable_conv2d_149 (Separa (None, 32, 32, 1024)      4123      
_________________________________________________________________
activation_202 (Activation)  (None, 32, 32, 1024)      0         
_________________________________________________________________
dropout_202 (Dropout)        (None, 32, 32, 1024)      0         
_________________________________________________________________
separable_conv2d_150 (Separa (None, 32, 32, 32)        42016     
_________________________________________________________________
batch_normalization_133 (Bat (None, 32, 32, 32)        128       
_________________________________________________________________
activation_203 (Activation)  (None, 32, 32, 32)        0         
_________________________________________________________________
dropout_203 (Dropout)        (None, 32, 32, 32)        0         
_________________________________________________________________
max_pooling2d_47 (MaxPooling (None, 16, 16, 32)        0         
_________________________________________________________________
flatten_63 (Flatten)         (None, 8192)              0         
_________________________________________________________________
dense_116 (Dense)            (None, 100)               819300    
=================================================================
Total params: 865,567
Trainable params: 865,503
Non-trainable params: 64
_________________________________________________________________
