Model: "sequential_305"
_________________________________________________________________
Layer (type)                 Output Shape              Param #   
=================================================================
separable_conv2d_786 (Separa (None, 32, 32, 512)       2075      
_________________________________________________________________
batch_normalization_846 (Bat (None, 32, 32, 512)       2048      
_________________________________________________________________
activation_1100 (Activation) (None, 32, 32, 512)       0         
_________________________________________________________________
dropout_1100 (Dropout)       (None, 32, 32, 512)       0         
_________________________________________________________________
separable_conv2d_787 (Separa (None, 32, 32, 64)        37440     
_________________________________________________________________
batch_normalization_847 (Bat (None, 32, 32, 64)        256       
_________________________________________________________________
activation_1101 (Activation) (None, 32, 32, 64)        0         
_________________________________________________________________
dropout_1101 (Dropout)       (None, 32, 32, 64)        0         
_________________________________________________________________
max_pooling2d_308 (MaxPoolin (None, 16, 16, 64)        0         
_________________________________________________________________
separable_conv2d_788 (Separa (None, 16, 16, 16)        1616      
_________________________________________________________________
activation_1102 (Activation) (None, 16, 16, 16)        0         
_________________________________________________________________
dropout_1102 (Dropout)       (None, 16, 16, 16)        0         
_________________________________________________________________
flatten_305 (Flatten)        (None, 4096)              0         
_________________________________________________________________
dense_619 (Dense)            (None, 128)               524416    
_________________________________________________________________
batch_normalization_848 (Bat (None, 128)               512       
_________________________________________________________________
activation_1103 (Activation) (None, 128)               0         
_________________________________________________________________
dropout_1103 (Dropout)       (None, 128)               0         
_________________________________________________________________
dense_620 (Dense)            (None, 100)               12900     
=================================================================
Total params: 581,263
Trainable params: 579,855
Non-trainable params: 1,408
_________________________________________________________________
