Model: "sequential_196"
_________________________________________________________________
Layer (type)                 Output Shape              Param #   
=================================================================
separable_conv2d_480 (Separa (None, 32, 32, 512)       2075      
_________________________________________________________________
batch_normalization_506 (Bat (None, 32, 32, 512)       2048      
_________________________________________________________________
activation_667 (Activation)  (None, 32, 32, 512)       0         
_________________________________________________________________
dropout_667 (Dropout)        (None, 32, 32, 512)       0         
_________________________________________________________________
separable_conv2d_481 (Separa (None, 32, 32, 64)        37440     
_________________________________________________________________
batch_normalization_507 (Bat (None, 32, 32, 64)        256       
_________________________________________________________________
activation_668 (Activation)  (None, 32, 32, 64)        0         
_________________________________________________________________
dropout_668 (Dropout)        (None, 32, 32, 64)        0         
_________________________________________________________________
max_pooling2d_176 (MaxPoolin (None, 16, 16, 64)        0         
_________________________________________________________________
separable_conv2d_482 (Separa (None, 16, 16, 16)        1616      
_________________________________________________________________
activation_669 (Activation)  (None, 16, 16, 16)        0         
_________________________________________________________________
dropout_669 (Dropout)        (None, 16, 16, 16)        0         
_________________________________________________________________
flatten_196 (Flatten)        (None, 4096)              0         
_________________________________________________________________
dense_383 (Dense)            (None, 128)               524416    
_________________________________________________________________
batch_normalization_508 (Bat (None, 128)               512       
_________________________________________________________________
activation_670 (Activation)  (None, 128)               0         
_________________________________________________________________
dropout_670 (Dropout)        (None, 128)               0         
_________________________________________________________________
dense_384 (Dense)            (None, 100)               12900     
=================================================================
Total params: 581,263
Trainable params: 579,855
Non-trainable params: 1,408
_________________________________________________________________
