Model: "sequential_25"
_________________________________________________________________
Layer (type)                 Output Shape              Param #   
=================================================================
separable_conv2d_69 (Separab (None, 32, 32, 8)         59        
_________________________________________________________________
batch_normalization_53 (Batc (None, 32, 32, 8)         32        
_________________________________________________________________
activation_93 (Activation)   (None, 32, 32, 8)         0         
_________________________________________________________________
dropout_93 (Dropout)         (None, 32, 32, 8)         0         
_________________________________________________________________
separable_conv2d_70 (Separab (None, 32, 32, 64)        648       
_________________________________________________________________
batch_normalization_54 (Batc (None, 32, 32, 64)        256       
_________________________________________________________________
activation_94 (Activation)   (None, 32, 32, 64)        0         
_________________________________________________________________
dropout_94 (Dropout)         (None, 32, 32, 64)        0         
_________________________________________________________________
flatten_25 (Flatten)         (None, 65536)             0         
_________________________________________________________________
dense_49 (Dense)             (None, 100)               6553700   
=================================================================
Total params: 6,554,695
Trainable params: 6,554,551
Non-trainable params: 144
_________________________________________________________________
