Model: "sequential_427"
_________________________________________________________________
Layer (type)                 Output Shape              Param #   
=================================================================
separable_conv2d_1135 (Separ (None, 32, 32, 256)       1051      
_________________________________________________________________
batch_normalization_1185 (Ba (None, 32, 32, 256)       1024      
_________________________________________________________________
activation_1595 (Activation) (None, 32, 32, 256)       0         
_________________________________________________________________
dropout_1595 (Dropout)       (None, 32, 32, 256)       0         
_________________________________________________________________
max_pooling2d_456 (MaxPoolin (None, 16, 16, 256)       0         
_________________________________________________________________
separable_conv2d_1136 (Separ (None, 16, 16, 128)       35200     
_________________________________________________________________
batch_normalization_1186 (Ba (None, 16, 16, 128)       512       
_________________________________________________________________
activation_1596 (Activation) (None, 16, 16, 128)       0         
_________________________________________________________________
dropout_1596 (Dropout)       (None, 16, 16, 128)       0         
_________________________________________________________________
separable_conv2d_1137 (Separ (None, 16, 16, 16)        3216      
_________________________________________________________________
activation_1597 (Activation) (None, 16, 16, 16)        0         
_________________________________________________________________
dropout_1597 (Dropout)       (None, 16, 16, 16)        0         
_________________________________________________________________
flatten_427 (Flatten)        (None, 4096)              0         
_________________________________________________________________
dense_887 (Dense)            (None, 256)               1048832   
_________________________________________________________________
batch_normalization_1187 (Ba (None, 256)               1024      
_________________________________________________________________
activation_1598 (Activation) (None, 256)               0         
_________________________________________________________________
dropout_1598 (Dropout)       (None, 256)               0         
_________________________________________________________________
dense_888 (Dense)            (None, 256)               65792     
_________________________________________________________________
batch_normalization_1188 (Ba (None, 256)               1024      
_________________________________________________________________
activation_1599 (Activation) (None, 256)               0         
_________________________________________________________________
dropout_1599 (Dropout)       (None, 256)               0         
_________________________________________________________________
dense_889 (Dense)            (None, 100)               25700     
=================================================================
Total params: 1,183,375
Trainable params: 1,181,583
Non-trainable params: 1,792
_________________________________________________________________
