Model: "sequential_74"
_________________________________________________________________
Layer (type)                 Output Shape              Param #   
=================================================================
separable_conv2d_175 (Separa (None, 32, 32, 8)         59        
_________________________________________________________________
batch_normalization_158 (Bat (None, 32, 32, 8)         32        
_________________________________________________________________
activation_236 (Activation)  (None, 32, 32, 8)         0         
_________________________________________________________________
dropout_236 (Dropout)        (None, 32, 32, 8)         0         
_________________________________________________________________
separable_conv2d_176 (Separa (None, 32, 32, 16)        216       
_________________________________________________________________
activation_237 (Activation)  (None, 32, 32, 16)        0         
_________________________________________________________________
dropout_237 (Dropout)        (None, 32, 32, 16)        0         
_________________________________________________________________
flatten_74 (Flatten)         (None, 16384)             0         
_________________________________________________________________
dense_135 (Dense)            (None, 512)               8389120   
_________________________________________________________________
batch_normalization_159 (Bat (None, 512)               2048      
_________________________________________________________________
activation_238 (Activation)  (None, 512)               0         
_________________________________________________________________
dropout_238 (Dropout)        (None, 512)               0         
_________________________________________________________________
dense_136 (Dense)            (None, 256)               131328    
_________________________________________________________________
batch_normalization_160 (Bat (None, 256)               1024      
_________________________________________________________________
activation_239 (Activation)  (None, 256)               0         
_________________________________________________________________
dropout_239 (Dropout)        (None, 256)               0         
_________________________________________________________________
dense_137 (Dense)            (None, 100)               25700     
=================================================================
Total params: 8,549,527
Trainable params: 8,547,975
Non-trainable params: 1,552
_________________________________________________________________
