Model: "sequential_164"
_________________________________________________________________
Layer (type)                 Output Shape              Param #   
=================================================================
separable_conv2d_397 (Separa (None, 32, 32, 256)       1051      
_________________________________________________________________
batch_normalization_410 (Bat (None, 32, 32, 256)       1024      
_________________________________________________________________
activation_549 (Activation)  (None, 32, 32, 256)       0         
_________________________________________________________________
dropout_549 (Dropout)        (None, 32, 32, 256)       0         
_________________________________________________________________
max_pooling2d_140 (MaxPoolin (None, 16, 16, 256)       0         
_________________________________________________________________
separable_conv2d_398 (Separa (None, 16, 16, 128)       35200     
_________________________________________________________________
batch_normalization_411 (Bat (None, 16, 16, 128)       512       
_________________________________________________________________
activation_550 (Activation)  (None, 16, 16, 128)       0         
_________________________________________________________________
dropout_550 (Dropout)        (None, 16, 16, 128)       0         
_________________________________________________________________
flatten_164 (Flatten)        (None, 32768)             0         
_________________________________________________________________
dense_316 (Dense)            (None, 128)               4194432   
_________________________________________________________________
batch_normalization_412 (Bat (None, 128)               512       
_________________________________________________________________
activation_551 (Activation)  (None, 128)               0         
_________________________________________________________________
dropout_551 (Dropout)        (None, 128)               0         
_________________________________________________________________
dense_317 (Dense)            (None, 100)               12900     
=================================================================
Total params: 4,245,631
Trainable params: 4,244,607
Non-trainable params: 1,024
_________________________________________________________________
