Model: "sequential_61"
_________________________________________________________________
Layer (type)                 Output Shape              Param #   
=================================================================
separable_conv2d_145 (Separa (None, 32, 32, 8)         59        
_________________________________________________________________
batch_normalization_127 (Bat (None, 32, 32, 8)         32        
_________________________________________________________________
activation_195 (Activation)  (None, 32, 32, 8)         0         
_________________________________________________________________
dropout_195 (Dropout)        (None, 32, 32, 8)         0         
_________________________________________________________________
flatten_61 (Flatten)         (None, 8192)              0         
_________________________________________________________________
dense_111 (Dense)            (None, 128)               1048704   
_________________________________________________________________
batch_normalization_128 (Bat (None, 128)               512       
_________________________________________________________________
activation_196 (Activation)  (None, 128)               0         
_________________________________________________________________
dropout_196 (Dropout)        (None, 128)               0         
_________________________________________________________________
dense_112 (Dense)            (None, 100)               12900     
=================================================================
Total params: 1,062,207
Trainable params: 1,061,935
Non-trainable params: 272
_________________________________________________________________
