Model: "sequential_514"
_________________________________________________________________
Layer (type)                 Output Shape              Param #   
=================================================================
separable_conv2d_1389 (Separ (None, 32, 32, 512)       2075      
_________________________________________________________________
activation_1995 (Activation) (None, 32, 32, 512)       0         
_________________________________________________________________
dropout_1995 (Dropout)       (None, 32, 32, 512)       0         
_________________________________________________________________
separable_conv2d_1390 (Separ (None, 32, 32, 256)       135936    
_________________________________________________________________
batch_normalization_1467 (Ba (None, 32, 32, 256)       1024      
_________________________________________________________________
activation_1996 (Activation) (None, 32, 32, 256)       0         
_________________________________________________________________
dropout_1996 (Dropout)       (None, 32, 32, 256)       0         
_________________________________________________________________
separable_conv2d_1391 (Separ (None, 32, 32, 16)        6416      
_________________________________________________________________
activation_1997 (Activation) (None, 32, 32, 16)        0         
_________________________________________________________________
dropout_1997 (Dropout)       (None, 32, 32, 16)        0         
_________________________________________________________________
flatten_514 (Flatten)        (None, 16384)             0         
_________________________________________________________________
dense_1120 (Dense)           (None, 512)               8389120   
_________________________________________________________________
batch_normalization_1468 (Ba (None, 512)               2048      
_________________________________________________________________
activation_1998 (Activation) (None, 512)               0         
_________________________________________________________________
dropout_1998 (Dropout)       (None, 512)               0         
_________________________________________________________________
dense_1121 (Dense)           (None, 256)               131328    
_________________________________________________________________
batch_normalization_1469 (Ba (None, 256)               1024      
_________________________________________________________________
activation_1999 (Activation) (None, 256)               0         
_________________________________________________________________
dropout_1999 (Dropout)       (None, 256)               0         
_________________________________________________________________
dense_1122 (Dense)           (None, 100)               25700     
=================================================================
Total params: 8,694,671
Trainable params: 8,692,623
Non-trainable params: 2,048
_________________________________________________________________
