Model: "sequential_388"
_________________________________________________________________
Layer (type)                 Output Shape              Param #   
=================================================================
separable_conv2d_1021 (Separ (None, 32, 32, 512)       2075      
_________________________________________________________________
batch_normalization_1069 (Ba (None, 32, 32, 512)       2048      
_________________________________________________________________
activation_1421 (Activation) (None, 32, 32, 512)       0         
_________________________________________________________________
dropout_1421 (Dropout)       (None, 32, 32, 512)       0         
_________________________________________________________________
max_pooling2d_411 (MaxPoolin (None, 16, 16, 512)       0         
_________________________________________________________________
separable_conv2d_1022 (Separ (None, 16, 16, 128)       70272     
_________________________________________________________________
batch_normalization_1070 (Ba (None, 16, 16, 128)       512       
_________________________________________________________________
activation_1422 (Activation) (None, 16, 16, 128)       0         
_________________________________________________________________
dropout_1422 (Dropout)       (None, 16, 16, 128)       0         
_________________________________________________________________
separable_conv2d_1023 (Separ (None, 16, 16, 16)        3216      
_________________________________________________________________
activation_1423 (Activation) (None, 16, 16, 16)        0         
_________________________________________________________________
dropout_1423 (Dropout)       (None, 16, 16, 16)        0         
_________________________________________________________________
flatten_388 (Flatten)        (None, 4096)              0         
_________________________________________________________________
dense_788 (Dense)            (None, 512)               2097664   
_________________________________________________________________
batch_normalization_1071 (Ba (None, 512)               2048      
_________________________________________________________________
activation_1424 (Activation) (None, 512)               0         
_________________________________________________________________
dropout_1424 (Dropout)       (None, 512)               0         
_________________________________________________________________
dense_789 (Dense)            (None, 256)               131328    
_________________________________________________________________
batch_normalization_1072 (Ba (None, 256)               1024      
_________________________________________________________________
activation_1425 (Activation) (None, 256)               0         
_________________________________________________________________
dropout_1425 (Dropout)       (None, 256)               0         
_________________________________________________________________
dense_790 (Dense)            (None, 100)               25700     
=================================================================
Total params: 2,335,887
Trainable params: 2,333,071
Non-trainable params: 2,816
_________________________________________________________________
