Model: "sequential_334"
_________________________________________________________________
Layer (type)                 Output Shape              Param #   
=================================================================
separable_conv2d_868 (Separa (None, 32, 32, 256)       1051      
_________________________________________________________________
batch_normalization_927 (Bat (None, 32, 32, 256)       1024      
_________________________________________________________________
activation_1208 (Activation) (None, 32, 32, 256)       0         
_________________________________________________________________
dropout_1208 (Dropout)       (None, 32, 32, 256)       0         
_________________________________________________________________
max_pooling2d_342 (MaxPoolin (None, 16, 16, 256)       0         
_________________________________________________________________
separable_conv2d_869 (Separa (None, 16, 16, 128)       35200     
_________________________________________________________________
batch_normalization_928 (Bat (None, 16, 16, 128)       512       
_________________________________________________________________
activation_1209 (Activation) (None, 16, 16, 128)       0         
_________________________________________________________________
dropout_1209 (Dropout)       (None, 16, 16, 128)       0         
_________________________________________________________________
max_pooling2d_343 (MaxPoolin (None, 8, 8, 128)         0         
_________________________________________________________________
separable_conv2d_870 (Separa (None, 8, 8, 16)          3216      
_________________________________________________________________
activation_1210 (Activation) (None, 8, 8, 16)          0         
_________________________________________________________________
dropout_1210 (Dropout)       (None, 8, 8, 16)          0         
_________________________________________________________________
flatten_334 (Flatten)        (None, 1024)              0         
_________________________________________________________________
dense_674 (Dense)            (None, 512)               524800    
_________________________________________________________________
batch_normalization_929 (Bat (None, 512)               2048      
_________________________________________________________________
activation_1211 (Activation) (None, 512)               0         
_________________________________________________________________
dropout_1211 (Dropout)       (None, 512)               0         
_________________________________________________________________
dense_675 (Dense)            (None, 100)               51300     
=================================================================
Total params: 619,151
Trainable params: 617,359
Non-trainable params: 1,792
_________________________________________________________________
