Model: "sequential_523"
_________________________________________________________________
Layer (type)                 Output Shape              Param #   
=================================================================
separable_conv2d_1416 (Separ (None, 32, 32, 512)       2075      
_________________________________________________________________
batch_normalization_1496 (Ba (None, 32, 32, 512)       2048      
_________________________________________________________________
activation_2039 (Activation) (None, 32, 32, 512)       0         
_________________________________________________________________
dropout_2039 (Dropout)       (None, 32, 32, 512)       0         
_________________________________________________________________
separable_conv2d_1417 (Separ (None, 32, 32, 256)       135936    
_________________________________________________________________
batch_normalization_1497 (Ba (None, 32, 32, 256)       1024      
_________________________________________________________________
activation_2040 (Activation) (None, 32, 32, 256)       0         
_________________________________________________________________
dropout_2040 (Dropout)       (None, 32, 32, 256)       0         
_________________________________________________________________
separable_conv2d_1418 (Separ (None, 32, 32, 16)        6416      
_________________________________________________________________
batch_normalization_1498 (Ba (None, 32, 32, 16)        64        
_________________________________________________________________
activation_2041 (Activation) (None, 32, 32, 16)        0         
_________________________________________________________________
dropout_2041 (Dropout)       (None, 32, 32, 16)        0         
_________________________________________________________________
flatten_523 (Flatten)        (None, 16384)             0         
_________________________________________________________________
dense_1146 (Dense)           (None, 256)               4194560   
_________________________________________________________________
batch_normalization_1499 (Ba (None, 256)               1024      
_________________________________________________________________
activation_2042 (Activation) (None, 256)               0         
_________________________________________________________________
dropout_2042 (Dropout)       (None, 256)               0         
_________________________________________________________________
dense_1147 (Dense)           (None, 100)               25700     
=================================================================
Total params: 4,368,847
Trainable params: 4,366,767
Non-trainable params: 2,080
_________________________________________________________________
