Model: "sequential_208"
_________________________________________________________________
Layer (type)                 Output Shape              Param #   
=================================================================
separable_conv2d_513 (Separa (None, 32, 32, 256)       1051      
_________________________________________________________________
batch_normalization_543 (Bat (None, 32, 32, 256)       1024      
_________________________________________________________________
activation_713 (Activation)  (None, 32, 32, 256)       0         
_________________________________________________________________
dropout_713 (Dropout)        (None, 32, 32, 256)       0         
_________________________________________________________________
max_pooling2d_191 (MaxPoolin (None, 16, 16, 256)       0         
_________________________________________________________________
separable_conv2d_514 (Separa (None, 16, 16, 128)       35200     
_________________________________________________________________
batch_normalization_544 (Bat (None, 16, 16, 128)       512       
_________________________________________________________________
activation_714 (Activation)  (None, 16, 16, 128)       0         
_________________________________________________________________
dropout_714 (Dropout)        (None, 16, 16, 128)       0         
_________________________________________________________________
separable_conv2d_515 (Separa (None, 16, 16, 16)        3216      
_________________________________________________________________
activation_715 (Activation)  (None, 16, 16, 16)        0         
_________________________________________________________________
dropout_715 (Dropout)        (None, 16, 16, 16)        0         
_________________________________________________________________
flatten_208 (Flatten)        (None, 4096)              0         
_________________________________________________________________
dense_408 (Dense)            (None, 512)               2097664   
_________________________________________________________________
batch_normalization_545 (Bat (None, 512)               2048      
_________________________________________________________________
activation_716 (Activation)  (None, 512)               0         
_________________________________________________________________
dropout_716 (Dropout)        (None, 512)               0         
_________________________________________________________________
dense_409 (Dense)            (None, 100)               51300     
=================================================================
Total params: 2,192,015
Trainable params: 2,190,223
Non-trainable params: 1,792
_________________________________________________________________
