Model: "sequential_505"
_________________________________________________________________
Layer (type)                 Output Shape              Param #   
=================================================================
separable_conv2d_1362 (Separ (None, 32, 32, 256)       1051      
_________________________________________________________________
batch_normalization_1436 (Ba (None, 32, 32, 256)       1024      
_________________________________________________________________
activation_1956 (Activation) (None, 32, 32, 256)       0         
_________________________________________________________________
dropout_1956 (Dropout)       (None, 32, 32, 256)       0         
_________________________________________________________________
max_pooling2d_541 (MaxPoolin (None, 16, 16, 256)       0         
_________________________________________________________________
separable_conv2d_1363 (Separ (None, 16, 16, 64)        18752     
_________________________________________________________________
batch_normalization_1437 (Ba (None, 16, 16, 64)        256       
_________________________________________________________________
activation_1957 (Activation) (None, 16, 16, 64)        0         
_________________________________________________________________
dropout_1957 (Dropout)       (None, 16, 16, 64)        0         
_________________________________________________________________
separable_conv2d_1364 (Separ (None, 16, 16, 16)        1616      
_________________________________________________________________
activation_1958 (Activation) (None, 16, 16, 16)        0         
_________________________________________________________________
dropout_1958 (Dropout)       (None, 16, 16, 16)        0         
_________________________________________________________________
flatten_505 (Flatten)        (None, 4096)              0         
_________________________________________________________________
dense_1099 (Dense)           (None, 512)               2097664   
_________________________________________________________________
batch_normalization_1438 (Ba (None, 512)               2048      
_________________________________________________________________
activation_1959 (Activation) (None, 512)               0         
_________________________________________________________________
dropout_1959 (Dropout)       (None, 512)               0         
_________________________________________________________________
dense_1100 (Dense)           (None, 256)               131328    
_________________________________________________________________
batch_normalization_1439 (Ba (None, 256)               1024      
_________________________________________________________________
activation_1960 (Activation) (None, 256)               0         
_________________________________________________________________
dropout_1960 (Dropout)       (None, 256)               0         
_________________________________________________________________
dense_1101 (Dense)           (None, 100)               25700     
=================================================================
Total params: 2,280,463
Trainable params: 2,278,287
Non-trainable params: 2,176
_________________________________________________________________
