Model: "sequential_463"
_________________________________________________________________
Layer (type)                 Output Shape              Param #   
=================================================================
separable_conv2d_1241 (Separ (None, 32, 32, 512)       2075      
_________________________________________________________________
batch_normalization_1301 (Ba (None, 32, 32, 512)       2048      
_________________________________________________________________
activation_1762 (Activation) (None, 32, 32, 512)       0         
_________________________________________________________________
dropout_1762 (Dropout)       (None, 32, 32, 512)       0         
_________________________________________________________________
max_pooling2d_495 (MaxPoolin (None, 16, 16, 512)       0         
_________________________________________________________________
separable_conv2d_1242 (Separ (None, 16, 16, 64)        37440     
_________________________________________________________________
batch_normalization_1302 (Ba (None, 16, 16, 64)        256       
_________________________________________________________________
activation_1763 (Activation) (None, 16, 16, 64)        0         
_________________________________________________________________
dropout_1763 (Dropout)       (None, 16, 16, 64)        0         
_________________________________________________________________
separable_conv2d_1243 (Separ (None, 16, 16, 16)        1616      
_________________________________________________________________
activation_1764 (Activation) (None, 16, 16, 16)        0         
_________________________________________________________________
dropout_1764 (Dropout)       (None, 16, 16, 16)        0         
_________________________________________________________________
flatten_463 (Flatten)        (None, 4096)              0         
_________________________________________________________________
dense_984 (Dense)            (None, 128)               524416    
_________________________________________________________________
batch_normalization_1303 (Ba (None, 128)               512       
_________________________________________________________________
activation_1765 (Activation) (None, 128)               0         
_________________________________________________________________
dropout_1765 (Dropout)       (None, 128)               0         
_________________________________________________________________
dense_985 (Dense)            (None, 256)               33024     
_________________________________________________________________
batch_normalization_1304 (Ba (None, 256)               1024      
_________________________________________________________________
activation_1766 (Activation) (None, 256)               0         
_________________________________________________________________
dropout_1766 (Dropout)       (None, 256)               0         
_________________________________________________________________
dense_986 (Dense)            (None, 100)               25700     
=================================================================
Total params: 628,111
Trainable params: 626,191
Non-trainable params: 1,920
_________________________________________________________________
