Model: "sequential_366"
_________________________________________________________________
Layer (type)                 Output Shape              Param #   
=================================================================
separable_conv2d_959 (Separa (None, 32, 32, 512)       2075      
_________________________________________________________________
batch_normalization_1011 (Ba (None, 32, 32, 512)       2048      
_________________________________________________________________
activation_1335 (Activation) (None, 32, 32, 512)       0         
_________________________________________________________________
dropout_1335 (Dropout)       (None, 32, 32, 512)       0         
_________________________________________________________________
max_pooling2d_382 (MaxPoolin (None, 16, 16, 512)       0         
_________________________________________________________________
separable_conv2d_960 (Separa (None, 16, 16, 64)        37440     
_________________________________________________________________
activation_1336 (Activation) (None, 16, 16, 64)        0         
_________________________________________________________________
dropout_1336 (Dropout)       (None, 16, 16, 64)        0         
_________________________________________________________________
max_pooling2d_383 (MaxPoolin (None, 8, 8, 64)          0         
_________________________________________________________________
flatten_366 (Flatten)        (None, 4096)              0         
_________________________________________________________________
dense_742 (Dense)            (None, 100)               409700    
=================================================================
Total params: 451,263
Trainable params: 450,239
Non-trainable params: 1,024
_________________________________________________________________
