Model: "sequential_321"
_________________________________________________________________
Layer (type)                 Output Shape              Param #   
=================================================================
separable_conv2d_831 (Separa (None, 32, 32, 512)       2075      
_________________________________________________________________
batch_normalization_889 (Bat (None, 32, 32, 512)       2048      
_________________________________________________________________
activation_1158 (Activation) (None, 32, 32, 512)       0         
_________________________________________________________________
dropout_1158 (Dropout)       (None, 32, 32, 512)       0         
_________________________________________________________________
separable_conv2d_832 (Separa (None, 32, 32, 64)        37440     
_________________________________________________________________
batch_normalization_890 (Bat (None, 32, 32, 64)        256       
_________________________________________________________________
activation_1159 (Activation) (None, 32, 32, 64)        0         
_________________________________________________________________
dropout_1159 (Dropout)       (None, 32, 32, 64)        0         
_________________________________________________________________
max_pooling2d_327 (MaxPoolin (None, 16, 16, 64)        0         
_________________________________________________________________
separable_conv2d_833 (Separa (None, 16, 16, 16)        1616      
_________________________________________________________________
activation_1160 (Activation) (None, 16, 16, 16)        0         
_________________________________________________________________
dropout_1160 (Dropout)       (None, 16, 16, 16)        0         
_________________________________________________________________
flatten_321 (Flatten)        (None, 4096)              0         
_________________________________________________________________
dense_648 (Dense)            (None, 128)               524416    
_________________________________________________________________
batch_normalization_891 (Bat (None, 128)               512       
_________________________________________________________________
activation_1161 (Activation) (None, 128)               0         
_________________________________________________________________
dropout_1161 (Dropout)       (None, 128)               0         
_________________________________________________________________
dense_649 (Dense)            (None, 100)               12900     
=================================================================
Total params: 581,263
Trainable params: 579,855
Non-trainable params: 1,408
_________________________________________________________________
