Model: "sequential_322"
_________________________________________________________________
Layer (type)                 Output Shape              Param #   
=================================================================
separable_conv2d_834 (Separa (None, 32, 32, 256)       1051      
_________________________________________________________________
batch_normalization_892 (Bat (None, 32, 32, 256)       1024      
_________________________________________________________________
activation_1162 (Activation) (None, 32, 32, 256)       0         
_________________________________________________________________
dropout_1162 (Dropout)       (None, 32, 32, 256)       0         
_________________________________________________________________
max_pooling2d_328 (MaxPoolin (None, 16, 16, 256)       0         
_________________________________________________________________
separable_conv2d_835 (Separa (None, 16, 16, 128)       35200     
_________________________________________________________________
batch_normalization_893 (Bat (None, 16, 16, 128)       512       
_________________________________________________________________
activation_1163 (Activation) (None, 16, 16, 128)       0         
_________________________________________________________________
dropout_1163 (Dropout)       (None, 16, 16, 128)       0         
_________________________________________________________________
separable_conv2d_836 (Separa (None, 16, 16, 64)        9408      
_________________________________________________________________
activation_1164 (Activation) (None, 16, 16, 64)        0         
_________________________________________________________________
dropout_1164 (Dropout)       (None, 16, 16, 64)        0         
_________________________________________________________________
flatten_322 (Flatten)        (None, 16384)             0         
_________________________________________________________________
dense_650 (Dense)            (None, 512)               8389120   
_________________________________________________________________
batch_normalization_894 (Bat (None, 512)               2048      
_________________________________________________________________
activation_1165 (Activation) (None, 512)               0         
_________________________________________________________________
dropout_1165 (Dropout)       (None, 512)               0         
_________________________________________________________________
dense_651 (Dense)            (None, 100)               51300     
=================================================================
Total params: 8,489,663
Trainable params: 8,487,871
Non-trainable params: 1,792
_________________________________________________________________
