Model: "sequential_549"
_________________________________________________________________
Layer (type)                 Output Shape              Param #   
=================================================================
separable_conv2d_1492 (Separ (None, 32, 32, 256)       1051      
_________________________________________________________________
batch_normalization_1581 (Ba (None, 32, 32, 256)       1024      
_________________________________________________________________
activation_2156 (Activation) (None, 32, 32, 256)       0         
_________________________________________________________________
dropout_2156 (Dropout)       (None, 32, 32, 256)       0         
_________________________________________________________________
max_pooling2d_582 (MaxPoolin (None, 16, 16, 256)       0         
_________________________________________________________________
separable_conv2d_1493 (Separ (None, 16, 16, 128)       35200     
_________________________________________________________________
batch_normalization_1582 (Ba (None, 16, 16, 128)       512       
_________________________________________________________________
activation_2157 (Activation) (None, 16, 16, 128)       0         
_________________________________________________________________
dropout_2157 (Dropout)       (None, 16, 16, 128)       0         
_________________________________________________________________
separable_conv2d_1494 (Separ (None, 16, 16, 16)        3216      
_________________________________________________________________
activation_2158 (Activation) (None, 16, 16, 16)        0         
_________________________________________________________________
dropout_2158 (Dropout)       (None, 16, 16, 16)        0         
_________________________________________________________________
flatten_549 (Flatten)        (None, 4096)              0         
_________________________________________________________________
dense_1213 (Dense)           (None, 512)               2097664   
_________________________________________________________________
batch_normalization_1583 (Ba (None, 512)               2048      
_________________________________________________________________
activation_2159 (Activation) (None, 512)               0         
_________________________________________________________________
dropout_2159 (Dropout)       (None, 512)               0         
_________________________________________________________________
dense_1214 (Dense)           (None, 256)               131328    
_________________________________________________________________
activation_2160 (Activation) (None, 256)               0         
_________________________________________________________________
dropout_2160 (Dropout)       (None, 256)               0         
_________________________________________________________________
dense_1215 (Dense)           (None, 100)               25700     
=================================================================
Total params: 2,297,743
Trainable params: 2,295,951
Non-trainable params: 1,792
_________________________________________________________________
