Model: "sequential_531"
_________________________________________________________________
Layer (type)                 Output Shape              Param #   
=================================================================
separable_conv2d_1439 (Separ (None, 32, 32, 256)       1051      
_________________________________________________________________
batch_normalization_1521 (Ba (None, 32, 32, 256)       1024      
_________________________________________________________________
activation_2073 (Activation) (None, 32, 32, 256)       0         
_________________________________________________________________
dropout_2073 (Dropout)       (None, 32, 32, 256)       0         
_________________________________________________________________
max_pooling2d_567 (MaxPoolin (None, 16, 16, 256)       0         
_________________________________________________________________
separable_conv2d_1440 (Separ (None, 16, 16, 16)        6416      
_________________________________________________________________
batch_normalization_1522 (Ba (None, 16, 16, 16)        64        
_________________________________________________________________
activation_2074 (Activation) (None, 16, 16, 16)        0         
_________________________________________________________________
dropout_2074 (Dropout)       (None, 16, 16, 16)        0         
_________________________________________________________________
separable_conv2d_1441 (Separ (None, 16, 16, 16)        416       
_________________________________________________________________
activation_2075 (Activation) (None, 16, 16, 16)        0         
_________________________________________________________________
dropout_2075 (Dropout)       (None, 16, 16, 16)        0         
_________________________________________________________________
flatten_531 (Flatten)        (None, 4096)              0         
_________________________________________________________________
dense_1165 (Dense)           (None, 512)               2097664   
_________________________________________________________________
batch_normalization_1523 (Ba (None, 512)               2048      
_________________________________________________________________
activation_2076 (Activation) (None, 512)               0         
_________________________________________________________________
dropout_2076 (Dropout)       (None, 512)               0         
_________________________________________________________________
dense_1166 (Dense)           (None, 100)               51300     
=================================================================
Total params: 2,159,983
Trainable params: 2,158,415
Non-trainable params: 1,568
_________________________________________________________________
