Model: "sequential_434"
_________________________________________________________________
Layer (type)                 Output Shape              Param #   
=================================================================
separable_conv2d_1156 (Separ (None, 32, 32, 256)       1051      
_________________________________________________________________
batch_normalization_1208 (Ba (None, 32, 32, 256)       1024      
_________________________________________________________________
activation_1628 (Activation) (None, 32, 32, 256)       0         
_________________________________________________________________
dropout_1628 (Dropout)       (None, 32, 32, 256)       0         
_________________________________________________________________
max_pooling2d_464 (MaxPoolin (None, 16, 16, 256)       0         
_________________________________________________________________
separable_conv2d_1157 (Separ (None, 16, 16, 128)       35200     
_________________________________________________________________
batch_normalization_1209 (Ba (None, 16, 16, 128)       512       
_________________________________________________________________
activation_1629 (Activation) (None, 16, 16, 128)       0         
_________________________________________________________________
dropout_1629 (Dropout)       (None, 16, 16, 128)       0         
_________________________________________________________________
separable_conv2d_1158 (Separ (None, 16, 16, 16)        3216      
_________________________________________________________________
activation_1630 (Activation) (None, 16, 16, 16)        0         
_________________________________________________________________
dropout_1630 (Dropout)       (None, 16, 16, 16)        0         
_________________________________________________________________
flatten_434 (Flatten)        (None, 4096)              0         
_________________________________________________________________
dense_906 (Dense)            (None, 512)               2097664   
_________________________________________________________________
batch_normalization_1210 (Ba (None, 512)               2048      
_________________________________________________________________
activation_1631 (Activation) (None, 512)               0         
_________________________________________________________________
dropout_1631 (Dropout)       (None, 512)               0         
_________________________________________________________________
dense_907 (Dense)            (None, 16)                8208      
_________________________________________________________________
batch_normalization_1211 (Ba (None, 16)                64        
_________________________________________________________________
activation_1632 (Activation) (None, 16)                0         
_________________________________________________________________
dropout_1632 (Dropout)       (None, 16)                0         
_________________________________________________________________
dense_908 (Dense)            (None, 100)               1700      
=================================================================
Total params: 2,150,687
Trainable params: 2,148,863
Non-trainable params: 1,824
_________________________________________________________________
