Model: "sequential_117"
_________________________________________________________________
Layer (type)                 Output Shape              Param #   
=================================================================
separable_conv2d_275 (Separa (None, 32, 32, 512)       2075      
_________________________________________________________________
batch_normalization_269 (Bat (None, 32, 32, 512)       2048      
_________________________________________________________________
activation_374 (Activation)  (None, 32, 32, 512)       0         
_________________________________________________________________
dropout_374 (Dropout)        (None, 32, 32, 512)       0         
_________________________________________________________________
max_pooling2d_89 (MaxPooling (None, 16, 16, 512)       0         
_________________________________________________________________
flatten_117 (Flatten)        (None, 131072)            0         
_________________________________________________________________
dense_216 (Dense)            (None, 128)               16777344  
_________________________________________________________________
batch_normalization_270 (Bat (None, 128)               512       
_________________________________________________________________
activation_375 (Activation)  (None, 128)               0         
_________________________________________________________________
dropout_375 (Dropout)        (None, 128)               0         
_________________________________________________________________
dense_217 (Dense)            (None, 100)               12900     
=================================================================
Total params: 16,794,879
Trainable params: 16,793,599
Non-trainable params: 1,280
_________________________________________________________________
