Model: "sequential_389"
_________________________________________________________________
Layer (type)                 Output Shape              Param #   
=================================================================
separable_conv2d_1024 (Separ (None, 32, 32, 512)       2075      
_________________________________________________________________
batch_normalization_1073 (Ba (None, 32, 32, 512)       2048      
_________________________________________________________________
activation_1426 (Activation) (None, 32, 32, 512)       0         
_________________________________________________________________
dropout_1426 (Dropout)       (None, 32, 32, 512)       0         
_________________________________________________________________
max_pooling2d_412 (MaxPoolin (None, 16, 16, 512)       0         
_________________________________________________________________
separable_conv2d_1025 (Separ (None, 16, 16, 16)        12816     
_________________________________________________________________
activation_1427 (Activation) (None, 16, 16, 16)        0         
_________________________________________________________________
dropout_1427 (Dropout)       (None, 16, 16, 16)        0         
_________________________________________________________________
flatten_389 (Flatten)        (None, 4096)              0         
_________________________________________________________________
dense_791 (Dense)            (None, 512)               2097664   
_________________________________________________________________
batch_normalization_1074 (Ba (None, 512)               2048      
_________________________________________________________________
activation_1428 (Activation) (None, 512)               0         
_________________________________________________________________
dropout_1428 (Dropout)       (None, 512)               0         
_________________________________________________________________
dense_792 (Dense)            (None, 256)               131328    
_________________________________________________________________
batch_normalization_1075 (Ba (None, 256)               1024      
_________________________________________________________________
activation_1429 (Activation) (None, 256)               0         
_________________________________________________________________
dropout_1429 (Dropout)       (None, 256)               0         
_________________________________________________________________
dense_793 (Dense)            (None, 100)               25700     
=================================================================
Total params: 2,274,703
Trainable params: 2,272,143
Non-trainable params: 2,560
_________________________________________________________________
