Model: "sequential_309"
_________________________________________________________________
Layer (type)                 Output Shape              Param #   
=================================================================
separable_conv2d_798 (Separa (None, 32, 32, 512)       2075      
_________________________________________________________________
batch_normalization_854 (Bat (None, 32, 32, 512)       2048      
_________________________________________________________________
activation_1114 (Activation) (None, 32, 32, 512)       0         
_________________________________________________________________
dropout_1114 (Dropout)       (None, 32, 32, 512)       0         
_________________________________________________________________
separable_conv2d_799 (Separa (None, 32, 32, 128)       70272     
_________________________________________________________________
batch_normalization_855 (Bat (None, 32, 32, 128)       512       
_________________________________________________________________
activation_1115 (Activation) (None, 32, 32, 128)       0         
_________________________________________________________________
dropout_1115 (Dropout)       (None, 32, 32, 128)       0         
_________________________________________________________________
max_pooling2d_313 (MaxPoolin (None, 16, 16, 128)       0         
_________________________________________________________________
separable_conv2d_800 (Separa (None, 16, 16, 16)        3216      
_________________________________________________________________
activation_1116 (Activation) (None, 16, 16, 16)        0         
_________________________________________________________________
dropout_1116 (Dropout)       (None, 16, 16, 16)        0         
_________________________________________________________________
flatten_309 (Flatten)        (None, 4096)              0         
_________________________________________________________________
dense_625 (Dense)            (None, 128)               524416    
_________________________________________________________________
batch_normalization_856 (Bat (None, 128)               512       
_________________________________________________________________
activation_1117 (Activation) (None, 128)               0         
_________________________________________________________________
dropout_1117 (Dropout)       (None, 128)               0         
_________________________________________________________________
dense_626 (Dense)            (None, 100)               12900     
=================================================================
Total params: 615,951
Trainable params: 614,415
Non-trainable params: 1,536
_________________________________________________________________
