Model: "sequential_500"
_________________________________________________________________
Layer (type)                 Output Shape              Param #   
=================================================================
separable_conv2d_1347 (Separ (None, 32, 32, 512)       2075      
_________________________________________________________________
batch_normalization_1419 (Ba (None, 32, 32, 512)       2048      
_________________________________________________________________
activation_1932 (Activation) (None, 32, 32, 512)       0         
_________________________________________________________________
dropout_1932 (Dropout)       (None, 32, 32, 512)       0         
_________________________________________________________________
separable_conv2d_1348 (Separ (None, 32, 32, 128)       70272     
_________________________________________________________________
batch_normalization_1420 (Ba (None, 32, 32, 128)       512       
_________________________________________________________________
activation_1933 (Activation) (None, 32, 32, 128)       0         
_________________________________________________________________
dropout_1933 (Dropout)       (None, 32, 32, 128)       0         
_________________________________________________________________
separable_conv2d_1349 (Separ (None, 32, 32, 16)        3216      
_________________________________________________________________
activation_1934 (Activation) (None, 32, 32, 16)        0         
_________________________________________________________________
dropout_1934 (Dropout)       (None, 32, 32, 16)        0         
_________________________________________________________________
flatten_500 (Flatten)        (None, 16384)             0         
_________________________________________________________________
dense_1085 (Dense)           (None, 512)               8389120   
_________________________________________________________________
batch_normalization_1421 (Ba (None, 512)               2048      
_________________________________________________________________
activation_1935 (Activation) (None, 512)               0         
_________________________________________________________________
dropout_1935 (Dropout)       (None, 512)               0         
_________________________________________________________________
dense_1086 (Dense)           (None, 256)               131328    
_________________________________________________________________
batch_normalization_1422 (Ba (None, 256)               1024      
_________________________________________________________________
activation_1936 (Activation) (None, 256)               0         
_________________________________________________________________
dropout_1936 (Dropout)       (None, 256)               0         
_________________________________________________________________
dense_1087 (Dense)           (None, 100)               25700     
=================================================================
Total params: 8,627,343
Trainable params: 8,624,527
Non-trainable params: 2,816
_________________________________________________________________
