Model: "sequential_207"
_________________________________________________________________
Layer (type)                 Output Shape              Param #   
=================================================================
separable_conv2d_511 (Separa (None, 32, 32, 512)       2075      
_________________________________________________________________
batch_normalization_540 (Bat (None, 32, 32, 512)       2048      
_________________________________________________________________
activation_710 (Activation)  (None, 32, 32, 512)       0         
_________________________________________________________________
dropout_710 (Dropout)        (None, 32, 32, 512)       0         
_________________________________________________________________
max_pooling2d_190 (MaxPoolin (None, 16, 16, 512)       0         
_________________________________________________________________
separable_conv2d_512 (Separa (None, 16, 16, 128)       70272     
_________________________________________________________________
batch_normalization_541 (Bat (None, 16, 16, 128)       512       
_________________________________________________________________
activation_711 (Activation)  (None, 16, 16, 128)       0         
_________________________________________________________________
dropout_711 (Dropout)        (None, 16, 16, 128)       0         
_________________________________________________________________
flatten_207 (Flatten)        (None, 32768)             0         
_________________________________________________________________
dense_406 (Dense)            (None, 128)               4194432   
_________________________________________________________________
batch_normalization_542 (Bat (None, 128)               512       
_________________________________________________________________
activation_712 (Activation)  (None, 128)               0         
_________________________________________________________________
dropout_712 (Dropout)        (None, 128)               0         
_________________________________________________________________
dense_407 (Dense)            (None, 100)               12900     
=================================================================
Total params: 4,282,751
Trainable params: 4,281,215
Non-trainable params: 1,536
_________________________________________________________________
