Model: "sequential_45"
_________________________________________________________________
Layer (type)                 Output Shape              Param #   
=================================================================
separable_conv2d_110 (Separa (None, 32, 32, 512)       2075      
_________________________________________________________________
batch_normalization_90 (Batc (None, 32, 32, 512)       2048      
_________________________________________________________________
activation_150 (Activation)  (None, 32, 32, 512)       0         
_________________________________________________________________
dropout_150 (Dropout)        (None, 32, 32, 512)       0         
_________________________________________________________________
separable_conv2d_111 (Separa (None, 32, 32, 64)        37440     
_________________________________________________________________
batch_normalization_91 (Batc (None, 32, 32, 64)        256       
_________________________________________________________________
activation_151 (Activation)  (None, 32, 32, 64)        0         
_________________________________________________________________
dropout_151 (Dropout)        (None, 32, 32, 64)        0         
_________________________________________________________________
max_pooling2d_36 (MaxPooling (None, 16, 16, 64)        0         
_________________________________________________________________
separable_conv2d_112 (Separa (None, 16, 16, 16)        1616      
_________________________________________________________________
activation_152 (Activation)  (None, 16, 16, 16)        0         
_________________________________________________________________
dropout_152 (Dropout)        (None, 16, 16, 16)        0         
_________________________________________________________________
separable_conv2d_113 (Separa (None, 16, 16, 32)        688       
_________________________________________________________________
batch_normalization_92 (Batc (None, 16, 16, 32)        128       
_________________________________________________________________
activation_153 (Activation)  (None, 16, 16, 32)        0         
_________________________________________________________________
dropout_153 (Dropout)        (None, 16, 16, 32)        0         
_________________________________________________________________
flatten_45 (Flatten)         (None, 8192)              0         
_________________________________________________________________
dense_85 (Dense)             (None, 256)               2097408   
_________________________________________________________________
activation_154 (Activation)  (None, 256)               0         
_________________________________________________________________
dropout_154 (Dropout)        (None, 256)               0         
_________________________________________________________________
dense_86 (Dense)             (None, 1024)              263168    
_________________________________________________________________
batch_normalization_93 (Batc (None, 1024)              4096      
_________________________________________________________________
activation_155 (Activation)  (None, 1024)              0         
_________________________________________________________________
dropout_155 (Dropout)        (None, 1024)              0         
_________________________________________________________________
dense_87 (Dense)             (None, 100)               102500    
=================================================================
Total params: 2,511,423
Trainable params: 2,508,159
Non-trainable params: 3,264
_________________________________________________________________
