Model: "sequential_506"
_________________________________________________________________
Layer (type)                 Output Shape              Param #   
=================================================================
separable_conv2d_1365 (Separ (None, 32, 32, 512)       2075      
_________________________________________________________________
batch_normalization_1440 (Ba (None, 32, 32, 512)       2048      
_________________________________________________________________
activation_1961 (Activation) (None, 32, 32, 512)       0         
_________________________________________________________________
dropout_1961 (Dropout)       (None, 32, 32, 512)       0         
_________________________________________________________________
separable_conv2d_1366 (Separ (None, 32, 32, 128)       70272     
_________________________________________________________________
batch_normalization_1441 (Ba (None, 32, 32, 128)       512       
_________________________________________________________________
activation_1962 (Activation) (None, 32, 32, 128)       0         
_________________________________________________________________
dropout_1962 (Dropout)       (None, 32, 32, 128)       0         
_________________________________________________________________
separable_conv2d_1367 (Separ (None, 32, 32, 16)        3216      
_________________________________________________________________
activation_1963 (Activation) (None, 32, 32, 16)        0         
_________________________________________________________________
dropout_1963 (Dropout)       (None, 32, 32, 16)        0         
_________________________________________________________________
flatten_506 (Flatten)        (None, 16384)             0         
_________________________________________________________________
dense_1102 (Dense)           (None, 512)               8389120   
_________________________________________________________________
batch_normalization_1442 (Ba (None, 512)               2048      
_________________________________________________________________
activation_1964 (Activation) (None, 512)               0         
_________________________________________________________________
dropout_1964 (Dropout)       (None, 512)               0         
_________________________________________________________________
dense_1103 (Dense)           (None, 256)               131328    
_________________________________________________________________
activation_1965 (Activation) (None, 256)               0         
_________________________________________________________________
dropout_1965 (Dropout)       (None, 256)               0         
_________________________________________________________________
dense_1104 (Dense)           (None, 100)               25700     
=================================================================
Total params: 8,626,319
Trainable params: 8,624,015
Non-trainable params: 2,304
_________________________________________________________________
