Model: "sequential_350"
_________________________________________________________________
Layer (type)                 Output Shape              Param #   
=================================================================
separable_conv2d_914 (Separa (None, 32, 32, 512)       2075      
_________________________________________________________________
batch_normalization_973 (Bat (None, 32, 32, 512)       2048      
_________________________________________________________________
activation_1275 (Activation) (None, 32, 32, 512)       0         
_________________________________________________________________
dropout_1275 (Dropout)       (None, 32, 32, 512)       0         
_________________________________________________________________
separable_conv2d_915 (Separa (None, 32, 32, 64)        37440     
_________________________________________________________________
batch_normalization_974 (Bat (None, 32, 32, 64)        256       
_________________________________________________________________
activation_1276 (Activation) (None, 32, 32, 64)        0         
_________________________________________________________________
dropout_1276 (Dropout)       (None, 32, 32, 64)        0         
_________________________________________________________________
max_pooling2d_363 (MaxPoolin (None, 16, 16, 64)        0         
_________________________________________________________________
separable_conv2d_916 (Separa (None, 16, 16, 16)        1616      
_________________________________________________________________
activation_1277 (Activation) (None, 16, 16, 16)        0         
_________________________________________________________________
dropout_1277 (Dropout)       (None, 16, 16, 16)        0         
_________________________________________________________________
flatten_350 (Flatten)        (None, 4096)              0         
_________________________________________________________________
dense_711 (Dense)            (None, 128)               524416    
_________________________________________________________________
batch_normalization_975 (Bat (None, 128)               512       
_________________________________________________________________
activation_1278 (Activation) (None, 128)               0         
_________________________________________________________________
dropout_1278 (Dropout)       (None, 128)               0         
_________________________________________________________________
dense_712 (Dense)            (None, 100)               12900     
=================================================================
Total params: 581,263
Trainable params: 579,855
Non-trainable params: 1,408
_________________________________________________________________
