Model: "sequential_484"
_________________________________________________________________
Layer (type)                 Output Shape              Param #   
=================================================================
separable_conv2d_1301 (Separ (None, 32, 32, 512)       2075      
_________________________________________________________________
batch_normalization_1363 (Ba (None, 32, 32, 512)       2048      
_________________________________________________________________
activation_1857 (Activation) (None, 32, 32, 512)       0         
_________________________________________________________________
dropout_1857 (Dropout)       (None, 32, 32, 512)       0         
_________________________________________________________________
max_pooling2d_518 (MaxPoolin (None, 16, 16, 512)       0         
_________________________________________________________________
separable_conv2d_1302 (Separ (None, 16, 16, 64)        37440     
_________________________________________________________________
batch_normalization_1364 (Ba (None, 16, 16, 64)        256       
_________________________________________________________________
activation_1858 (Activation) (None, 16, 16, 64)        0         
_________________________________________________________________
dropout_1858 (Dropout)       (None, 16, 16, 64)        0         
_________________________________________________________________
separable_conv2d_1303 (Separ (None, 16, 16, 512)       33856     
_________________________________________________________________
activation_1859 (Activation) (None, 16, 16, 512)       0         
_________________________________________________________________
dropout_1859 (Dropout)       (None, 16, 16, 512)       0         
_________________________________________________________________
flatten_484 (Flatten)        (None, 131072)            0         
_________________________________________________________________
dense_1040 (Dense)           (None, 256)               33554688  
_________________________________________________________________
batch_normalization_1365 (Ba (None, 256)               1024      
_________________________________________________________________
activation_1860 (Activation) (None, 256)               0         
_________________________________________________________________
dropout_1860 (Dropout)       (None, 256)               0         
_________________________________________________________________
dense_1041 (Dense)           (None, 100)               25700     
=================================================================
Total params: 33,657,087
Trainable params: 33,655,423
Non-trainable params: 1,664
_________________________________________________________________
