Model: "sequential_424"
_________________________________________________________________
Layer (type)                 Output Shape              Param #   
=================================================================
separable_conv2d_1126 (Separ (None, 32, 32, 512)       2075      
_________________________________________________________________
batch_normalization_1176 (Ba (None, 32, 32, 512)       2048      
_________________________________________________________________
activation_1581 (Activation) (None, 32, 32, 512)       0         
_________________________________________________________________
dropout_1581 (Dropout)       (None, 32, 32, 512)       0         
_________________________________________________________________
max_pooling2d_453 (MaxPoolin (None, 16, 16, 512)       0         
_________________________________________________________________
separable_conv2d_1127 (Separ (None, 16, 16, 64)        37440     
_________________________________________________________________
activation_1582 (Activation) (None, 16, 16, 64)        0         
_________________________________________________________________
dropout_1582 (Dropout)       (None, 16, 16, 64)        0         
_________________________________________________________________
separable_conv2d_1128 (Separ (None, 16, 16, 16)        1616      
_________________________________________________________________
activation_1583 (Activation) (None, 16, 16, 16)        0         
_________________________________________________________________
dropout_1583 (Dropout)       (None, 16, 16, 16)        0         
_________________________________________________________________
flatten_424 (Flatten)        (None, 4096)              0         
_________________________________________________________________
dense_879 (Dense)            (None, 512)               2097664   
_________________________________________________________________
batch_normalization_1177 (Ba (None, 512)               2048      
_________________________________________________________________
activation_1584 (Activation) (None, 512)               0         
_________________________________________________________________
dropout_1584 (Dropout)       (None, 512)               0         
_________________________________________________________________
dense_880 (Dense)            (None, 256)               131328    
_________________________________________________________________
batch_normalization_1178 (Ba (None, 256)               1024      
_________________________________________________________________
activation_1585 (Activation) (None, 256)               0         
_________________________________________________________________
dropout_1585 (Dropout)       (None, 256)               0         
_________________________________________________________________
dense_881 (Dense)            (None, 100)               25700     
=================================================================
Total params: 2,300,943
Trainable params: 2,298,383
Non-trainable params: 2,560
_________________________________________________________________
