Model: "sequential_245"
_________________________________________________________________
Layer (type)                 Output Shape              Param #   
=================================================================
separable_conv2d_617 (Separa (None, 32, 32, 512)       2075      
_________________________________________________________________
batch_normalization_662 (Bat (None, 32, 32, 512)       2048      
_________________________________________________________________
activation_863 (Activation)  (None, 32, 32, 512)       0         
_________________________________________________________________
dropout_863 (Dropout)        (None, 32, 32, 512)       0         
_________________________________________________________________
separable_conv2d_618 (Separa (None, 32, 32, 128)       70272     
_________________________________________________________________
batch_normalization_663 (Bat (None, 32, 32, 128)       512       
_________________________________________________________________
activation_864 (Activation)  (None, 32, 32, 128)       0         
_________________________________________________________________
dropout_864 (Dropout)        (None, 32, 32, 128)       0         
_________________________________________________________________
max_pooling2d_236 (MaxPoolin (None, 16, 16, 128)       0         
_________________________________________________________________
separable_conv2d_619 (Separa (None, 16, 16, 16)        3216      
_________________________________________________________________
activation_865 (Activation)  (None, 16, 16, 16)        0         
_________________________________________________________________
dropout_865 (Dropout)        (None, 16, 16, 16)        0         
_________________________________________________________________
flatten_245 (Flatten)        (None, 4096)              0         
_________________________________________________________________
dense_491 (Dense)            (None, 128)               524416    
_________________________________________________________________
batch_normalization_664 (Bat (None, 128)               512       
_________________________________________________________________
activation_866 (Activation)  (None, 128)               0         
_________________________________________________________________
dropout_866 (Dropout)        (None, 128)               0         
_________________________________________________________________
dense_492 (Dense)            (None, 100)               12900     
=================================================================
Total params: 615,951
Trainable params: 614,415
Non-trainable params: 1,536
_________________________________________________________________
