Model: "sequential_220"
_________________________________________________________________
Layer (type)                 Output Shape              Param #   
=================================================================
separable_conv2d_547 (Separa (None, 32, 32, 512)       2075      
_________________________________________________________________
batch_normalization_581 (Bat (None, 32, 32, 512)       2048      
_________________________________________________________________
activation_761 (Activation)  (None, 32, 32, 512)       0         
_________________________________________________________________
dropout_761 (Dropout)        (None, 32, 32, 512)       0         
_________________________________________________________________
max_pooling2d_207 (MaxPoolin (None, 16, 16, 512)       0         
_________________________________________________________________
separable_conv2d_548 (Separa (None, 16, 16, 64)        37440     
_________________________________________________________________
batch_normalization_582 (Bat (None, 16, 16, 64)        256       
_________________________________________________________________
activation_762 (Activation)  (None, 16, 16, 64)        0         
_________________________________________________________________
dropout_762 (Dropout)        (None, 16, 16, 64)        0         
_________________________________________________________________
max_pooling2d_208 (MaxPoolin (None, 8, 8, 64)          0         
_________________________________________________________________
separable_conv2d_549 (Separa (None, 8, 8, 16)          1616      
_________________________________________________________________
activation_763 (Activation)  (None, 8, 8, 16)          0         
_________________________________________________________________
dropout_763 (Dropout)        (None, 8, 8, 16)          0         
_________________________________________________________________
flatten_220 (Flatten)        (None, 1024)              0         
_________________________________________________________________
dense_434 (Dense)            (None, 128)               131200    
_________________________________________________________________
batch_normalization_583 (Bat (None, 128)               512       
_________________________________________________________________
activation_764 (Activation)  (None, 128)               0         
_________________________________________________________________
dropout_764 (Dropout)        (None, 128)               0         
_________________________________________________________________
dense_435 (Dense)            (None, 100)               12900     
=================================================================
Total params: 188,047
Trainable params: 186,639
Non-trainable params: 1,408
_________________________________________________________________
