Model: "sequential_205"
_________________________________________________________________
Layer (type)                 Output Shape              Param #   
=================================================================
separable_conv2d_505 (Separa (None, 32, 32, 256)       1051      
_________________________________________________________________
batch_normalization_533 (Bat (None, 32, 32, 256)       1024      
_________________________________________________________________
activation_701 (Activation)  (None, 32, 32, 256)       0         
_________________________________________________________________
dropout_701 (Dropout)        (None, 32, 32, 256)       0         
_________________________________________________________________
max_pooling2d_187 (MaxPoolin (None, 16, 16, 256)       0         
_________________________________________________________________
separable_conv2d_506 (Separa (None, 16, 16, 128)       35200     
_________________________________________________________________
batch_normalization_534 (Bat (None, 16, 16, 128)       512       
_________________________________________________________________
activation_702 (Activation)  (None, 16, 16, 128)       0         
_________________________________________________________________
dropout_702 (Dropout)        (None, 16, 16, 128)       0         
_________________________________________________________________
max_pooling2d_188 (MaxPoolin (None, 8, 8, 128)         0         
_________________________________________________________________
separable_conv2d_507 (Separa (None, 8, 8, 16)          3216      
_________________________________________________________________
activation_703 (Activation)  (None, 8, 8, 16)          0         
_________________________________________________________________
dropout_703 (Dropout)        (None, 8, 8, 16)          0         
_________________________________________________________________
flatten_205 (Flatten)        (None, 1024)              0         
_________________________________________________________________
dense_401 (Dense)            (None, 128)               131200    
_________________________________________________________________
batch_normalization_535 (Bat (None, 128)               512       
_________________________________________________________________
activation_704 (Activation)  (None, 128)               0         
_________________________________________________________________
dropout_704 (Dropout)        (None, 128)               0         
_________________________________________________________________
dense_402 (Dense)            (None, 100)               12900     
=================================================================
Total params: 185,615
Trainable params: 184,591
Non-trainable params: 1,024
_________________________________________________________________
