Model: "sequential_197"
_________________________________________________________________
Layer (type)                 Output Shape              Param #   
=================================================================
separable_conv2d_483 (Separa (None, 32, 32, 256)       1051      
_________________________________________________________________
batch_normalization_509 (Bat (None, 32, 32, 256)       1024      
_________________________________________________________________
activation_671 (Activation)  (None, 32, 32, 256)       0         
_________________________________________________________________
dropout_671 (Dropout)        (None, 32, 32, 256)       0         
_________________________________________________________________
max_pooling2d_177 (MaxPoolin (None, 16, 16, 256)       0         
_________________________________________________________________
separable_conv2d_484 (Separa (None, 16, 16, 128)       35200     
_________________________________________________________________
batch_normalization_510 (Bat (None, 16, 16, 128)       512       
_________________________________________________________________
activation_672 (Activation)  (None, 16, 16, 128)       0         
_________________________________________________________________
dropout_672 (Dropout)        (None, 16, 16, 128)       0         
_________________________________________________________________
max_pooling2d_178 (MaxPoolin (None, 8, 8, 128)         0         
_________________________________________________________________
separable_conv2d_485 (Separa (None, 8, 8, 16)          3216      
_________________________________________________________________
activation_673 (Activation)  (None, 8, 8, 16)          0         
_________________________________________________________________
dropout_673 (Dropout)        (None, 8, 8, 16)          0         
_________________________________________________________________
flatten_197 (Flatten)        (None, 1024)              0         
_________________________________________________________________
dense_385 (Dense)            (None, 128)               131200    
_________________________________________________________________
batch_normalization_511 (Bat (None, 128)               512       
_________________________________________________________________
activation_674 (Activation)  (None, 128)               0         
_________________________________________________________________
dropout_674 (Dropout)        (None, 128)               0         
_________________________________________________________________
dense_386 (Dense)            (None, 100)               12900     
=================================================================
Total params: 185,615
Trainable params: 184,591
Non-trainable params: 1,024
_________________________________________________________________
