Model: "sequential_346"
_________________________________________________________________
Layer (type)                 Output Shape              Param #   
=================================================================
separable_conv2d_902 (Separa (None, 32, 32, 256)       1051      
_________________________________________________________________
batch_normalization_962 (Bat (None, 32, 32, 256)       1024      
_________________________________________________________________
activation_1259 (Activation) (None, 32, 32, 256)       0         
_________________________________________________________________
dropout_1259 (Dropout)       (None, 32, 32, 256)       0         
_________________________________________________________________
max_pooling2d_360 (MaxPoolin (None, 16, 16, 256)       0         
_________________________________________________________________
separable_conv2d_903 (Separa (None, 16, 16, 128)       35200     
_________________________________________________________________
batch_normalization_963 (Bat (None, 16, 16, 128)       512       
_________________________________________________________________
activation_1260 (Activation) (None, 16, 16, 128)       0         
_________________________________________________________________
dropout_1260 (Dropout)       (None, 16, 16, 128)       0         
_________________________________________________________________
separable_conv2d_904 (Separa (None, 16, 16, 64)        9408      
_________________________________________________________________
activation_1261 (Activation) (None, 16, 16, 64)        0         
_________________________________________________________________
dropout_1261 (Dropout)       (None, 16, 16, 64)        0         
_________________________________________________________________
flatten_346 (Flatten)        (None, 16384)             0         
_________________________________________________________________
dense_703 (Dense)            (None, 100)               1638500   
=================================================================
Total params: 1,685,695
Trainable params: 1,684,927
Non-trainable params: 768
_________________________________________________________________
