Model: "sequential_518"
_________________________________________________________________
Layer (type)                 Output Shape              Param #   
=================================================================
separable_conv2d_1401 (Separ (None, 32, 32, 512)       2075      
_________________________________________________________________
batch_normalization_1479 (Ba (None, 32, 32, 512)       2048      
_________________________________________________________________
activation_2015 (Activation) (None, 32, 32, 512)       0         
_________________________________________________________________
dropout_2015 (Dropout)       (None, 32, 32, 512)       0         
_________________________________________________________________
max_pooling2d_555 (MaxPoolin (None, 16, 16, 512)       0         
_________________________________________________________________
separable_conv2d_1402 (Separ (None, 16, 16, 64)        37440     
_________________________________________________________________
batch_normalization_1480 (Ba (None, 16, 16, 64)        256       
_________________________________________________________________
activation_2016 (Activation) (None, 16, 16, 64)        0         
_________________________________________________________________
dropout_2016 (Dropout)       (None, 16, 16, 64)        0         
_________________________________________________________________
separable_conv2d_1403 (Separ (None, 16, 16, 512)       33856     
_________________________________________________________________
activation_2017 (Activation) (None, 16, 16, 512)       0         
_________________________________________________________________
dropout_2017 (Dropout)       (None, 16, 16, 512)       0         
_________________________________________________________________
flatten_518 (Flatten)        (None, 131072)            0         
_________________________________________________________________
dense_1132 (Dense)           (None, 256)               33554688  
_________________________________________________________________
batch_normalization_1481 (Ba (None, 256)               1024      
_________________________________________________________________
activation_2018 (Activation) (None, 256)               0         
_________________________________________________________________
dropout_2018 (Dropout)       (None, 256)               0         
_________________________________________________________________
dense_1133 (Dense)           (None, 100)               25700     
=================================================================
Total params: 33,657,087
Trainable params: 33,655,423
Non-trainable params: 1,664
_________________________________________________________________
