Model: "sequential_236"
_________________________________________________________________
Layer (type)                 Output Shape              Param #   
=================================================================
separable_conv2d_592 (Separa (None, 32, 32, 512)       2075      
_________________________________________________________________
batch_normalization_633 (Bat (None, 32, 32, 512)       2048      
_________________________________________________________________
activation_827 (Activation)  (None, 32, 32, 512)       0         
_________________________________________________________________
dropout_827 (Dropout)        (None, 32, 32, 512)       0         
_________________________________________________________________
max_pooling2d_227 (MaxPoolin (None, 16, 16, 512)       0         
_________________________________________________________________
separable_conv2d_593 (Separa (None, 16, 16, 128)       70272     
_________________________________________________________________
batch_normalization_634 (Bat (None, 16, 16, 128)       512       
_________________________________________________________________
activation_828 (Activation)  (None, 16, 16, 128)       0         
_________________________________________________________________
dropout_828 (Dropout)        (None, 16, 16, 128)       0         
_________________________________________________________________
separable_conv2d_594 (Separa (None, 16, 16, 16)        3216      
_________________________________________________________________
activation_829 (Activation)  (None, 16, 16, 16)        0         
_________________________________________________________________
dropout_829 (Dropout)        (None, 16, 16, 16)        0         
_________________________________________________________________
flatten_236 (Flatten)        (None, 4096)              0         
_________________________________________________________________
dense_471 (Dense)            (None, 512)               2097664   
_________________________________________________________________
batch_normalization_635 (Bat (None, 512)               2048      
_________________________________________________________________
activation_830 (Activation)  (None, 512)               0         
_________________________________________________________________
dropout_830 (Dropout)        (None, 512)               0         
_________________________________________________________________
dense_472 (Dense)            (None, 100)               51300     
=================================================================
Total params: 2,229,135
Trainable params: 2,226,831
Non-trainable params: 2,304
_________________________________________________________________
