Model: "sequential_32"
_________________________________________________________________
Layer (type)                 Output Shape              Param #   
=================================================================
separable_conv2d_85 (Separab (None, 32, 32, 512)       2075      
_________________________________________________________________
activation_114 (Activation)  (None, 32, 32, 512)       0         
_________________________________________________________________
dropout_114 (Dropout)        (None, 32, 32, 512)       0         
_________________________________________________________________
flatten_32 (Flatten)         (None, 524288)            0         
_________________________________________________________________
dense_61 (Dense)             (None, 512)               268435968 
_________________________________________________________________
batch_normalization_65 (Batc (None, 512)               2048      
_________________________________________________________________
activation_115 (Activation)  (None, 512)               0         
_________________________________________________________________
dropout_115 (Dropout)        (None, 512)               0         
_________________________________________________________________
dense_62 (Dense)             (None, 256)               131328    
_________________________________________________________________
batch_normalization_66 (Batc (None, 256)               1024      
_________________________________________________________________
activation_116 (Activation)  (None, 256)               0         
_________________________________________________________________
dropout_116 (Dropout)        (None, 256)               0         
_________________________________________________________________
dense_63 (Dense)             (None, 100)               25700     
=================================================================
Total params: 268,598,143
Trainable params: 268,596,607
Non-trainable params: 1,536
_________________________________________________________________
