Model: "sequential_460"
_________________________________________________________________
Layer (type)                 Output Shape              Param #   
=================================================================
separable_conv2d_1232 (Separ (None, 32, 32, 256)       1051      
_________________________________________________________________
batch_normalization_1289 (Ba (None, 32, 32, 256)       1024      
_________________________________________________________________
activation_1747 (Activation) (None, 32, 32, 256)       0         
_________________________________________________________________
dropout_1747 (Dropout)       (None, 32, 32, 256)       0         
_________________________________________________________________
max_pooling2d_491 (MaxPoolin (None, 16, 16, 256)       0         
_________________________________________________________________
separable_conv2d_1233 (Separ (None, 16, 16, 64)        18752     
_________________________________________________________________
batch_normalization_1290 (Ba (None, 16, 16, 64)        256       
_________________________________________________________________
activation_1748 (Activation) (None, 16, 16, 64)        0         
_________________________________________________________________
dropout_1748 (Dropout)       (None, 16, 16, 64)        0         
_________________________________________________________________
max_pooling2d_492 (MaxPoolin (None, 8, 8, 64)          0         
_________________________________________________________________
separable_conv2d_1234 (Separ (None, 8, 8, 16)          1616      
_________________________________________________________________
activation_1749 (Activation) (None, 8, 8, 16)          0         
_________________________________________________________________
dropout_1749 (Dropout)       (None, 8, 8, 16)          0         
_________________________________________________________________
flatten_460 (Flatten)        (None, 1024)              0         
_________________________________________________________________
dense_975 (Dense)            (None, 512)               524800    
_________________________________________________________________
batch_normalization_1291 (Ba (None, 512)               2048      
_________________________________________________________________
activation_1750 (Activation) (None, 512)               0         
_________________________________________________________________
dropout_1750 (Dropout)       (None, 512)               0         
_________________________________________________________________
dense_976 (Dense)            (None, 256)               131328    
_________________________________________________________________
batch_normalization_1292 (Ba (None, 256)               1024      
_________________________________________________________________
activation_1751 (Activation) (None, 256)               0         
_________________________________________________________________
dropout_1751 (Dropout)       (None, 256)               0         
_________________________________________________________________
dense_977 (Dense)            (None, 100)               25700     
=================================================================
Total params: 707,599
Trainable params: 705,423
Non-trainable params: 2,176
_________________________________________________________________
