Model: "sequential_410"
_________________________________________________________________
Layer (type)                 Output Shape              Param #   
=================================================================
separable_conv2d_1085 (Separ (None, 32, 32, 256)       1051      
_________________________________________________________________
batch_normalization_1139 (Ba (None, 32, 32, 256)       1024      
_________________________________________________________________
activation_1520 (Activation) (None, 32, 32, 256)       0         
_________________________________________________________________
dropout_1520 (Dropout)       (None, 32, 32, 256)       0         
_________________________________________________________________
max_pooling2d_436 (MaxPoolin (None, 16, 16, 256)       0         
_________________________________________________________________
separable_conv2d_1086 (Separ (None, 16, 16, 128)       35200     
_________________________________________________________________
batch_normalization_1140 (Ba (None, 16, 16, 128)       512       
_________________________________________________________________
activation_1521 (Activation) (None, 16, 16, 128)       0         
_________________________________________________________________
dropout_1521 (Dropout)       (None, 16, 16, 128)       0         
_________________________________________________________________
separable_conv2d_1087 (Separ (None, 16, 16, 16)        3216      
_________________________________________________________________
activation_1522 (Activation) (None, 16, 16, 16)        0         
_________________________________________________________________
dropout_1522 (Dropout)       (None, 16, 16, 16)        0         
_________________________________________________________________
flatten_410 (Flatten)        (None, 4096)              0         
_________________________________________________________________
dense_845 (Dense)            (None, 256)               1048832   
_________________________________________________________________
batch_normalization_1141 (Ba (None, 256)               1024      
_________________________________________________________________
activation_1523 (Activation) (None, 256)               0         
_________________________________________________________________
dropout_1523 (Dropout)       (None, 256)               0         
_________________________________________________________________
dense_846 (Dense)            (None, 256)               65792     
_________________________________________________________________
batch_normalization_1142 (Ba (None, 256)               1024      
_________________________________________________________________
activation_1524 (Activation) (None, 256)               0         
_________________________________________________________________
dropout_1524 (Dropout)       (None, 256)               0         
_________________________________________________________________
dense_847 (Dense)            (None, 100)               25700     
=================================================================
Total params: 1,183,375
Trainable params: 1,181,583
Non-trainable params: 1,792
_________________________________________________________________
