Model: "sequential_413"
_________________________________________________________________
Layer (type)                 Output Shape              Param #   
=================================================================
separable_conv2d_1094 (Separ (None, 32, 32, 512)       2075      
_________________________________________________________________
batch_normalization_1150 (Ba (None, 32, 32, 512)       2048      
_________________________________________________________________
activation_1535 (Activation) (None, 32, 32, 512)       0         
_________________________________________________________________
dropout_1535 (Dropout)       (None, 32, 32, 512)       0         
_________________________________________________________________
max_pooling2d_440 (MaxPoolin (None, 16, 16, 512)       0         
_________________________________________________________________
separable_conv2d_1095 (Separ (None, 16, 16, 256)       135936    
_________________________________________________________________
batch_normalization_1151 (Ba (None, 16, 16, 256)       1024      
_________________________________________________________________
activation_1536 (Activation) (None, 16, 16, 256)       0         
_________________________________________________________________
dropout_1536 (Dropout)       (None, 16, 16, 256)       0         
_________________________________________________________________
max_pooling2d_441 (MaxPoolin (None, 8, 8, 256)         0         
_________________________________________________________________
flatten_413 (Flatten)        (None, 16384)             0         
_________________________________________________________________
dense_854 (Dense)            (None, 100)               1638500   
=================================================================
Total params: 1,779,583
Trainable params: 1,778,047
Non-trainable params: 1,536
_________________________________________________________________
