Model: "sequential_26"
_________________________________________________________________
Layer (type)                 Output Shape              Param #   
=================================================================
separable_conv2d_71 (Separab (None, 32, 32, 512)       2075      
_________________________________________________________________
activation_95 (Activation)   (None, 32, 32, 512)       0         
_________________________________________________________________
dropout_95 (Dropout)         (None, 32, 32, 512)       0         
_________________________________________________________________
separable_conv2d_72 (Separab (None, 32, 32, 16)        12816     
_________________________________________________________________
activation_96 (Activation)   (None, 32, 32, 16)        0         
_________________________________________________________________
dropout_96 (Dropout)         (None, 32, 32, 16)        0         
_________________________________________________________________
flatten_26 (Flatten)         (None, 16384)             0         
_________________________________________________________________
dense_50 (Dense)             (None, 64)                1048640   
_________________________________________________________________
batch_normalization_55 (Batc (None, 64)                256       
_________________________________________________________________
activation_97 (Activation)   (None, 64)                0         
_________________________________________________________________
dropout_97 (Dropout)         (None, 64)                0         
_________________________________________________________________
dense_51 (Dense)             (None, 100)               6500      
=================================================================
Total params: 1,070,287
Trainable params: 1,070,159
Non-trainable params: 128
_________________________________________________________________
