Model: "sequential_270"
_________________________________________________________________
Layer (type)                 Output Shape              Param #   
=================================================================
separable_conv2d_685 (Separa (None, 32, 32, 8)         59        
_________________________________________________________________
batch_normalization_741 (Bat (None, 32, 32, 8)         32        
_________________________________________________________________
activation_960 (Activation)  (None, 32, 32, 8)         0         
_________________________________________________________________
dropout_960 (Dropout)        (None, 32, 32, 8)         0         
_________________________________________________________________
separable_conv2d_686 (Separa (None, 32, 32, 64)        648       
_________________________________________________________________
batch_normalization_742 (Bat (None, 32, 32, 64)        256       
_________________________________________________________________
activation_961 (Activation)  (None, 32, 32, 64)        0         
_________________________________________________________________
dropout_961 (Dropout)        (None, 32, 32, 64)        0         
_________________________________________________________________
max_pooling2d_267 (MaxPoolin (None, 16, 16, 64)        0         
_________________________________________________________________
separable_conv2d_687 (Separa (None, 16, 16, 16)        1616      
_________________________________________________________________
activation_962 (Activation)  (None, 16, 16, 16)        0         
_________________________________________________________________
dropout_962 (Dropout)        (None, 16, 16, 16)        0         
_________________________________________________________________
flatten_270 (Flatten)        (None, 4096)              0         
_________________________________________________________________
dense_545 (Dense)            (None, 512)               2097664   
_________________________________________________________________
batch_normalization_743 (Bat (None, 512)               2048      
_________________________________________________________________
activation_963 (Activation)  (None, 512)               0         
_________________________________________________________________
dropout_963 (Dropout)        (None, 512)               0         
_________________________________________________________________
dense_546 (Dense)            (None, 100)               51300     
=================================================================
Total params: 2,153,623
Trainable params: 2,152,455
Non-trainable params: 1,168
_________________________________________________________________
