Model: "sequential_67"
_________________________________________________________________
Layer (type)                 Output Shape              Param #   
=================================================================
separable_conv2d_158 (Separa (None, 32, 32, 256)       1051      
_________________________________________________________________
batch_normalization_141 (Bat (None, 32, 32, 256)       1024      
_________________________________________________________________
activation_214 (Activation)  (None, 32, 32, 256)       0         
_________________________________________________________________
dropout_214 (Dropout)        (None, 32, 32, 256)       0         
_________________________________________________________________
max_pooling2d_50 (MaxPooling (None, 16, 16, 256)       0         
_________________________________________________________________
separable_conv2d_159 (Separa (None, 16, 16, 128)       35200     
_________________________________________________________________
batch_normalization_142 (Bat (None, 16, 16, 128)       512       
_________________________________________________________________
activation_215 (Activation)  (None, 16, 16, 128)       0         
_________________________________________________________________
dropout_215 (Dropout)        (None, 16, 16, 128)       0         
_________________________________________________________________
flatten_67 (Flatten)         (None, 32768)             0         
_________________________________________________________________
dense_123 (Dense)            (None, 256)               8388864   
_________________________________________________________________
batch_normalization_143 (Bat (None, 256)               1024      
_________________________________________________________________
activation_216 (Activation)  (None, 256)               0         
_________________________________________________________________
dropout_216 (Dropout)        (None, 256)               0         
_________________________________________________________________
dense_124 (Dense)            (None, 100)               25700     
=================================================================
Total params: 8,453,375
Trainable params: 8,452,095
Non-trainable params: 1,280
_________________________________________________________________
