Model: "sequential_400"
_________________________________________________________________
Layer (type)                 Output Shape              Param #   
=================================================================
separable_conv2d_1056 (Separ (None, 32, 32, 512)       2075      
_________________________________________________________________
batch_normalization_1107 (Ba (None, 32, 32, 512)       2048      
_________________________________________________________________
activation_1476 (Activation) (None, 32, 32, 512)       0         
_________________________________________________________________
dropout_1476 (Dropout)       (None, 32, 32, 512)       0         
_________________________________________________________________
max_pooling2d_426 (MaxPoolin (None, 16, 16, 512)       0         
_________________________________________________________________
separable_conv2d_1057 (Separ (None, 16, 16, 64)        37440     
_________________________________________________________________
activation_1477 (Activation) (None, 16, 16, 64)        0         
_________________________________________________________________
dropout_1477 (Dropout)       (None, 16, 16, 64)        0         
_________________________________________________________________
separable_conv2d_1058 (Separ (None, 16, 16, 16)        1616      
_________________________________________________________________
activation_1478 (Activation) (None, 16, 16, 16)        0         
_________________________________________________________________
dropout_1478 (Dropout)       (None, 16, 16, 16)        0         
_________________________________________________________________
flatten_400 (Flatten)        (None, 4096)              0         
_________________________________________________________________
dense_820 (Dense)            (None, 512)               2097664   
_________________________________________________________________
batch_normalization_1108 (Ba (None, 512)               2048      
_________________________________________________________________
activation_1479 (Activation) (None, 512)               0         
_________________________________________________________________
dropout_1479 (Dropout)       (None, 512)               0         
_________________________________________________________________
dense_821 (Dense)            (None, 256)               131328    
_________________________________________________________________
batch_normalization_1109 (Ba (None, 256)               1024      
_________________________________________________________________
activation_1480 (Activation) (None, 256)               0         
_________________________________________________________________
dropout_1480 (Dropout)       (None, 256)               0         
_________________________________________________________________
dense_822 (Dense)            (None, 100)               25700     
=================================================================
Total params: 2,300,943
Trainable params: 2,298,383
Non-trainable params: 2,560
_________________________________________________________________
