Model: "sequential_580"
_________________________________________________________________
Layer (type)                 Output Shape              Param #   
=================================================================
separable_conv2d_1584 (Separ (None, 32, 32, 512)       2075      
_________________________________________________________________
batch_normalization_1683 (Ba (None, 32, 32, 512)       2048      
_________________________________________________________________
activation_2294 (Activation) (None, 32, 32, 512)       0         
_________________________________________________________________
dropout_2294 (Dropout)       (None, 32, 32, 512)       0         
_________________________________________________________________
separable_conv2d_1585 (Separ (None, 32, 32, 32)        21024     
_________________________________________________________________
batch_normalization_1684 (Ba (None, 32, 32, 32)        128       
_________________________________________________________________
activation_2295 (Activation) (None, 32, 32, 32)        0         
_________________________________________________________________
dropout_2295 (Dropout)       (None, 32, 32, 32)        0         
_________________________________________________________________
separable_conv2d_1586 (Separ (None, 32, 32, 16)        816       
_________________________________________________________________
activation_2296 (Activation) (None, 32, 32, 16)        0         
_________________________________________________________________
dropout_2296 (Dropout)       (None, 32, 32, 16)        0         
_________________________________________________________________
flatten_580 (Flatten)        (None, 16384)             0         
_________________________________________________________________
dense_1290 (Dense)           (None, 512)               8389120   
_________________________________________________________________
batch_normalization_1685 (Ba (None, 512)               2048      
_________________________________________________________________
activation_2297 (Activation) (None, 512)               0         
_________________________________________________________________
dropout_2297 (Dropout)       (None, 512)               0         
_________________________________________________________________
dense_1291 (Dense)           (None, 100)               51300     
=================================================================
Total params: 8,468,559
Trainable params: 8,466,447
Non-trainable params: 2,112
_________________________________________________________________
