Model: "sequential_358"
_________________________________________________________________
Layer (type)                 Output Shape              Param #   
=================================================================
separable_conv2d_936 (Separa (None, 32, 32, 256)       1051      
_________________________________________________________________
activation_1305 (Activation) (None, 32, 32, 256)       0         
_________________________________________________________________
dropout_1305 (Dropout)       (None, 32, 32, 256)       0         
_________________________________________________________________
max_pooling2d_374 (MaxPoolin (None, 16, 16, 256)       0         
_________________________________________________________________
separable_conv2d_937 (Separa (None, 16, 16, 128)       35200     
_________________________________________________________________
activation_1306 (Activation) (None, 16, 16, 128)       0         
_________________________________________________________________
dropout_1306 (Dropout)       (None, 16, 16, 128)       0         
_________________________________________________________________
separable_conv2d_938 (Separa (None, 16, 16, 64)        9408      
_________________________________________________________________
activation_1307 (Activation) (None, 16, 16, 64)        0         
_________________________________________________________________
dropout_1307 (Dropout)       (None, 16, 16, 64)        0         
_________________________________________________________________
flatten_358 (Flatten)        (None, 16384)             0         
_________________________________________________________________
dense_727 (Dense)            (None, 100)               1638500   
=================================================================
Total params: 1,684,159
Trainable params: 1,684,159
Non-trainable params: 0
_________________________________________________________________
