Model: "sequential_503"
_________________________________________________________________
Layer (type)                 Output Shape              Param #   
=================================================================
separable_conv2d_1356 (Separ (None, 32, 32, 256)       1051      
_________________________________________________________________
batch_normalization_1430 (Ba (None, 32, 32, 256)       1024      
_________________________________________________________________
activation_1946 (Activation) (None, 32, 32, 256)       0         
_________________________________________________________________
dropout_1946 (Dropout)       (None, 32, 32, 256)       0         
_________________________________________________________________
max_pooling2d_539 (MaxPoolin (None, 16, 16, 256)       0         
_________________________________________________________________
separable_conv2d_1357 (Separ (None, 16, 16, 64)        18752     
_________________________________________________________________
batch_normalization_1431 (Ba (None, 16, 16, 64)        256       
_________________________________________________________________
activation_1947 (Activation) (None, 16, 16, 64)        0         
_________________________________________________________________
dropout_1947 (Dropout)       (None, 16, 16, 64)        0         
_________________________________________________________________
separable_conv2d_1358 (Separ (None, 16, 16, 16)        1616      
_________________________________________________________________
activation_1948 (Activation) (None, 16, 16, 16)        0         
_________________________________________________________________
dropout_1948 (Dropout)       (None, 16, 16, 16)        0         
_________________________________________________________________
flatten_503 (Flatten)        (None, 4096)              0         
_________________________________________________________________
dense_1093 (Dense)           (None, 512)               2097664   
_________________________________________________________________
batch_normalization_1432 (Ba (None, 512)               2048      
_________________________________________________________________
activation_1949 (Activation) (None, 512)               0         
_________________________________________________________________
dropout_1949 (Dropout)       (None, 512)               0         
_________________________________________________________________
dense_1094 (Dense)           (None, 256)               131328    
_________________________________________________________________
activation_1950 (Activation) (None, 256)               0         
_________________________________________________________________
dropout_1950 (Dropout)       (None, 256)               0         
_________________________________________________________________
dense_1095 (Dense)           (None, 100)               25700     
=================================================================
Total params: 2,279,439
Trainable params: 2,277,775
Non-trainable params: 1,664
_________________________________________________________________
