Model: "sequential_504"
_________________________________________________________________
Layer (type)                 Output Shape              Param #   
=================================================================
separable_conv2d_1359 (Separ (None, 32, 32, 256)       1051      
_________________________________________________________________
batch_normalization_1433 (Ba (None, 32, 32, 256)       1024      
_________________________________________________________________
activation_1951 (Activation) (None, 32, 32, 256)       0         
_________________________________________________________________
dropout_1951 (Dropout)       (None, 32, 32, 256)       0         
_________________________________________________________________
separable_conv2d_1360 (Separ (None, 32, 32, 64)        18752     
_________________________________________________________________
activation_1952 (Activation) (None, 32, 32, 64)        0         
_________________________________________________________________
dropout_1952 (Dropout)       (None, 32, 32, 64)        0         
_________________________________________________________________
max_pooling2d_540 (MaxPoolin (None, 16, 16, 64)        0         
_________________________________________________________________
separable_conv2d_1361 (Separ (None, 16, 16, 256)       17216     
_________________________________________________________________
activation_1953 (Activation) (None, 16, 16, 256)       0         
_________________________________________________________________
dropout_1953 (Dropout)       (None, 16, 16, 256)       0         
_________________________________________________________________
flatten_504 (Flatten)        (None, 65536)             0         
_________________________________________________________________
dense_1096 (Dense)           (None, 512)               33554944  
_________________________________________________________________
batch_normalization_1434 (Ba (None, 512)               2048      
_________________________________________________________________
activation_1954 (Activation) (None, 512)               0         
_________________________________________________________________
dropout_1954 (Dropout)       (None, 512)               0         
_________________________________________________________________
dense_1097 (Dense)           (None, 256)               131328    
_________________________________________________________________
batch_normalization_1435 (Ba (None, 256)               1024      
_________________________________________________________________
activation_1955 (Activation) (None, 256)               0         
_________________________________________________________________
dropout_1955 (Dropout)       (None, 256)               0         
_________________________________________________________________
dense_1098 (Dense)           (None, 100)               25700     
=================================================================
Total params: 33,753,087
Trainable params: 33,751,039
Non-trainable params: 2,048
_________________________________________________________________
