Model: "sequential_577"
_________________________________________________________________
Layer (type)                 Output Shape              Param #   
=================================================================
separable_conv2d_1576 (Separ (None, 32, 32, 512)       2075      
_________________________________________________________________
batch_normalization_1674 (Ba (None, 32, 32, 512)       2048      
_________________________________________________________________
activation_2281 (Activation) (None, 32, 32, 512)       0         
_________________________________________________________________
dropout_2281 (Dropout)       (None, 32, 32, 512)       0         
_________________________________________________________________
separable_conv2d_1577 (Separ (None, 32, 32, 32)        21024     
_________________________________________________________________
batch_normalization_1675 (Ba (None, 32, 32, 32)        128       
_________________________________________________________________
activation_2282 (Activation) (None, 32, 32, 32)        0         
_________________________________________________________________
dropout_2282 (Dropout)       (None, 32, 32, 32)        0         
_________________________________________________________________
separable_conv2d_1578 (Separ (None, 32, 32, 16)        816       
_________________________________________________________________
activation_2283 (Activation) (None, 32, 32, 16)        0         
_________________________________________________________________
dropout_2283 (Dropout)       (None, 32, 32, 16)        0         
_________________________________________________________________
flatten_577 (Flatten)        (None, 16384)             0         
_________________________________________________________________
dense_1282 (Dense)           (None, 512)               8389120   
_________________________________________________________________
batch_normalization_1676 (Ba (None, 512)               2048      
_________________________________________________________________
activation_2284 (Activation) (None, 512)               0         
_________________________________________________________________
dropout_2284 (Dropout)       (None, 512)               0         
_________________________________________________________________
dense_1283 (Dense)           (None, 100)               51300     
=================================================================
Total params: 8,468,559
Trainable params: 8,466,447
Non-trainable params: 2,112
_________________________________________________________________
