Model: "sequential_498"
_________________________________________________________________
Layer (type)                 Output Shape              Param #   
=================================================================
separable_conv2d_1341 (Separ (None, 32, 32, 256)       1051      
_________________________________________________________________
batch_normalization_1410 (Ba (None, 32, 32, 256)       1024      
_________________________________________________________________
activation_1923 (Activation) (None, 32, 32, 256)       0         
_________________________________________________________________
dropout_1923 (Dropout)       (None, 32, 32, 256)       0         
_________________________________________________________________
max_pooling2d_534 (MaxPoolin (None, 16, 16, 256)       0         
_________________________________________________________________
separable_conv2d_1342 (Separ (None, 16, 16, 128)       35200     
_________________________________________________________________
batch_normalization_1411 (Ba (None, 16, 16, 128)       512       
_________________________________________________________________
activation_1924 (Activation) (None, 16, 16, 128)       0         
_________________________________________________________________
dropout_1924 (Dropout)       (None, 16, 16, 128)       0         
_________________________________________________________________
separable_conv2d_1343 (Separ (None, 16, 16, 16)        3216      
_________________________________________________________________
batch_normalization_1412 (Ba (None, 16, 16, 16)        64        
_________________________________________________________________
activation_1925 (Activation) (None, 16, 16, 16)        0         
_________________________________________________________________
dropout_1925 (Dropout)       (None, 16, 16, 16)        0         
_________________________________________________________________
flatten_498 (Flatten)        (None, 4096)              0         
_________________________________________________________________
dense_1080 (Dense)           (None, 128)               524416    
_________________________________________________________________
batch_normalization_1413 (Ba (None, 128)               512       
_________________________________________________________________
activation_1926 (Activation) (None, 128)               0         
_________________________________________________________________
dropout_1926 (Dropout)       (None, 128)               0         
_________________________________________________________________
dense_1081 (Dense)           (None, 100)               12900     
=================================================================
Total params: 578,895
Trainable params: 577,839
Non-trainable params: 1,056
_________________________________________________________________
