Model: "sequential_414"
_________________________________________________________________
Layer (type)                 Output Shape              Param #   
=================================================================
separable_conv2d_1096 (Separ (None, 32, 32, 512)       2075      
_________________________________________________________________
batch_normalization_1152 (Ba (None, 32, 32, 512)       2048      
_________________________________________________________________
activation_1537 (Activation) (None, 32, 32, 512)       0         
_________________________________________________________________
dropout_1537 (Dropout)       (None, 32, 32, 512)       0         
_________________________________________________________________
max_pooling2d_442 (MaxPoolin (None, 16, 16, 512)       0         
_________________________________________________________________
separable_conv2d_1097 (Separ (None, 16, 16, 64)        37440     
_________________________________________________________________
activation_1538 (Activation) (None, 16, 16, 64)        0         
_________________________________________________________________
dropout_1538 (Dropout)       (None, 16, 16, 64)        0         
_________________________________________________________________
separable_conv2d_1098 (Separ (None, 16, 16, 16)        1616      
_________________________________________________________________
activation_1539 (Activation) (None, 16, 16, 16)        0         
_________________________________________________________________
dropout_1539 (Dropout)       (None, 16, 16, 16)        0         
_________________________________________________________________
flatten_414 (Flatten)        (None, 4096)              0         
_________________________________________________________________
dense_855 (Dense)            (None, 512)               2097664   
_________________________________________________________________
batch_normalization_1153 (Ba (None, 512)               2048      
_________________________________________________________________
activation_1540 (Activation) (None, 512)               0         
_________________________________________________________________
dropout_1540 (Dropout)       (None, 512)               0         
_________________________________________________________________
dense_856 (Dense)            (None, 256)               131328    
_________________________________________________________________
batch_normalization_1154 (Ba (None, 256)               1024      
_________________________________________________________________
activation_1541 (Activation) (None, 256)               0         
_________________________________________________________________
dropout_1541 (Dropout)       (None, 256)               0         
_________________________________________________________________
dense_857 (Dense)            (None, 100)               25700     
=================================================================
Total params: 2,300,943
Trainable params: 2,298,383
Non-trainable params: 2,560
_________________________________________________________________
