Model: "sequential_37"
_________________________________________________________________
Layer (type)                 Output Shape              Param #   
=================================================================
separable_conv2d_95 (Separab (None, 32, 32, 8)         59        
_________________________________________________________________
batch_normalization_78 (Batc (None, 32, 32, 8)         32        
_________________________________________________________________
activation_130 (Activation)  (None, 32, 32, 8)         0         
_________________________________________________________________
dropout_130 (Dropout)        (None, 32, 32, 8)         0         
_________________________________________________________________
max_pooling2d_31 (MaxPooling (None, 16, 16, 8)         0         
_________________________________________________________________
separable_conv2d_96 (Separab (None, 16, 16, 16)        216       
_________________________________________________________________
activation_131 (Activation)  (None, 16, 16, 16)        0         
_________________________________________________________________
dropout_131 (Dropout)        (None, 16, 16, 16)        0         
_________________________________________________________________
flatten_37 (Flatten)         (None, 4096)              0         
_________________________________________________________________
dense_72 (Dense)             (None, 256)               1048832   
_________________________________________________________________
batch_normalization_79 (Batc (None, 256)               1024      
_________________________________________________________________
activation_132 (Activation)  (None, 256)               0         
_________________________________________________________________
dropout_132 (Dropout)        (None, 256)               0         
_________________________________________________________________
dense_73 (Dense)             (None, 100)               25700     
=================================================================
Total params: 1,075,863
Trainable params: 1,075,335
Non-trainable params: 528
_________________________________________________________________
