Model: "sequential_333"
_________________________________________________________________
Layer (type)                 Output Shape              Param #   
=================================================================
separable_conv2d_866 (Separa (None, 32, 32, 512)       2075      
_________________________________________________________________
batch_normalization_923 (Bat (None, 32, 32, 512)       2048      
_________________________________________________________________
activation_1204 (Activation) (None, 32, 32, 512)       0         
_________________________________________________________________
dropout_1204 (Dropout)       (None, 32, 32, 512)       0         
_________________________________________________________________
max_pooling2d_341 (MaxPoolin (None, 16, 16, 512)       0         
_________________________________________________________________
separable_conv2d_867 (Separa (None, 16, 16, 256)       135936    
_________________________________________________________________
batch_normalization_924 (Bat (None, 16, 16, 256)       1024      
_________________________________________________________________
activation_1205 (Activation) (None, 16, 16, 256)       0         
_________________________________________________________________
dropout_1205 (Dropout)       (None, 16, 16, 256)       0         
_________________________________________________________________
flatten_333 (Flatten)        (None, 65536)             0         
_________________________________________________________________
dense_671 (Dense)            (None, 512)               33554944  
_________________________________________________________________
batch_normalization_925 (Bat (None, 512)               2048      
_________________________________________________________________
activation_1206 (Activation) (None, 512)               0         
_________________________________________________________________
dropout_1206 (Dropout)       (None, 512)               0         
_________________________________________________________________
dense_672 (Dense)            (None, 256)               131328    
_________________________________________________________________
batch_normalization_926 (Bat (None, 256)               1024      
_________________________________________________________________
activation_1207 (Activation) (None, 256)               0         
_________________________________________________________________
dropout_1207 (Dropout)       (None, 256)               0         
_________________________________________________________________
dense_673 (Dense)            (None, 100)               25700     
=================================================================
Total params: 33,856,127
Trainable params: 33,853,055
Non-trainable params: 3,072
_________________________________________________________________
