Model: "sequential_190"
_________________________________________________________________
Layer (type)                 Output Shape              Param #   
=================================================================
separable_conv2d_465 (Separa (None, 32, 32, 512)       2075      
_________________________________________________________________
batch_normalization_487 (Bat (None, 32, 32, 512)       2048      
_________________________________________________________________
activation_645 (Activation)  (None, 32, 32, 512)       0         
_________________________________________________________________
dropout_645 (Dropout)        (None, 32, 32, 512)       0         
_________________________________________________________________
separable_conv2d_466 (Separa (None, 32, 32, 64)        37440     
_________________________________________________________________
batch_normalization_488 (Bat (None, 32, 32, 64)        256       
_________________________________________________________________
activation_646 (Activation)  (None, 32, 32, 64)        0         
_________________________________________________________________
dropout_646 (Dropout)        (None, 32, 32, 64)        0         
_________________________________________________________________
max_pooling2d_170 (MaxPoolin (None, 16, 16, 64)        0         
_________________________________________________________________
flatten_190 (Flatten)        (None, 16384)             0         
_________________________________________________________________
dense_370 (Dense)            (None, 512)               8389120   
_________________________________________________________________
batch_normalization_489 (Bat (None, 512)               2048      
_________________________________________________________________
activation_647 (Activation)  (None, 512)               0         
_________________________________________________________________
dropout_647 (Dropout)        (None, 512)               0         
_________________________________________________________________
dense_371 (Dense)            (None, 100)               51300     
=================================================================
Total params: 8,484,287
Trainable params: 8,482,111
Non-trainable params: 2,176
_________________________________________________________________
