Model: "sequential_72"
_________________________________________________________________
Layer (type)                 Output Shape              Param #   
=================================================================
separable_conv2d_171 (Separa (None, 32, 32, 256)       1051      
_________________________________________________________________
batch_normalization_155 (Bat (None, 32, 32, 256)       1024      
_________________________________________________________________
activation_231 (Activation)  (None, 32, 32, 256)       0         
_________________________________________________________________
dropout_231 (Dropout)        (None, 32, 32, 256)       0         
_________________________________________________________________
max_pooling2d_55 (MaxPooling (None, 16, 16, 256)       0         
_________________________________________________________________
separable_conv2d_172 (Separa (None, 16, 16, 128)       35200     
_________________________________________________________________
batch_normalization_156 (Bat (None, 16, 16, 128)       512       
_________________________________________________________________
activation_232 (Activation)  (None, 16, 16, 128)       0         
_________________________________________________________________
dropout_232 (Dropout)        (None, 16, 16, 128)       0         
_________________________________________________________________
flatten_72 (Flatten)         (None, 32768)             0         
_________________________________________________________________
dense_132 (Dense)            (None, 128)               4194432   
_________________________________________________________________
batch_normalization_157 (Bat (None, 128)               512       
_________________________________________________________________
activation_233 (Activation)  (None, 128)               0         
_________________________________________________________________
dropout_233 (Dropout)        (None, 128)               0         
_________________________________________________________________
dense_133 (Dense)            (None, 100)               12900     
=================================================================
Total params: 4,245,631
Trainable params: 4,244,607
Non-trainable params: 1,024
_________________________________________________________________
