Model: "sequential_202"
_________________________________________________________________
Layer (type)                 Output Shape              Param #   
=================================================================
separable_conv2d_497 (Separa (None, 32, 32, 256)       1051      
_________________________________________________________________
batch_normalization_524 (Bat (None, 32, 32, 256)       1024      
_________________________________________________________________
activation_690 (Activation)  (None, 32, 32, 256)       0         
_________________________________________________________________
dropout_690 (Dropout)        (None, 32, 32, 256)       0         
_________________________________________________________________
max_pooling2d_184 (MaxPoolin (None, 16, 16, 256)       0         
_________________________________________________________________
separable_conv2d_498 (Separa (None, 16, 16, 128)       35200     
_________________________________________________________________
batch_normalization_525 (Bat (None, 16, 16, 128)       512       
_________________________________________________________________
activation_691 (Activation)  (None, 16, 16, 128)       0         
_________________________________________________________________
dropout_691 (Dropout)        (None, 16, 16, 128)       0         
_________________________________________________________________
separable_conv2d_499 (Separa (None, 16, 16, 16)        3216      
_________________________________________________________________
activation_692 (Activation)  (None, 16, 16, 16)        0         
_________________________________________________________________
dropout_692 (Dropout)        (None, 16, 16, 16)        0         
_________________________________________________________________
flatten_202 (Flatten)        (None, 4096)              0         
_________________________________________________________________
dense_395 (Dense)            (None, 100)               409700    
=================================================================
Total params: 450,703
Trainable params: 449,935
Non-trainable params: 768
_________________________________________________________________
