Model: "sequential_478"
_________________________________________________________________
Layer (type)                 Output Shape              Param #   
=================================================================
separable_conv2d_1284 (Separ (None, 32, 32, 512)       2075      
_________________________________________________________________
batch_normalization_1345 (Ba (None, 32, 32, 512)       2048      
_________________________________________________________________
activation_1830 (Activation) (None, 32, 32, 512)       0         
_________________________________________________________________
dropout_1830 (Dropout)       (None, 32, 32, 512)       0         
_________________________________________________________________
max_pooling2d_510 (MaxPoolin (None, 16, 16, 512)       0         
_________________________________________________________________
separable_conv2d_1285 (Separ (None, 16, 16, 128)       70272     
_________________________________________________________________
batch_normalization_1346 (Ba (None, 16, 16, 128)       512       
_________________________________________________________________
activation_1831 (Activation) (None, 16, 16, 128)       0         
_________________________________________________________________
dropout_1831 (Dropout)       (None, 16, 16, 128)       0         
_________________________________________________________________
separable_conv2d_1286 (Separ (None, 16, 16, 512)       67200     
_________________________________________________________________
activation_1832 (Activation) (None, 16, 16, 512)       0         
_________________________________________________________________
dropout_1832 (Dropout)       (None, 16, 16, 512)       0         
_________________________________________________________________
flatten_478 (Flatten)        (None, 131072)            0         
_________________________________________________________________
dense_1024 (Dense)           (None, 256)               33554688  
_________________________________________________________________
batch_normalization_1347 (Ba (None, 256)               1024      
_________________________________________________________________
activation_1833 (Activation) (None, 256)               0         
_________________________________________________________________
dropout_1833 (Dropout)       (None, 256)               0         
_________________________________________________________________
dense_1025 (Dense)           (None, 100)               25700     
=================================================================
Total params: 33,723,519
Trainable params: 33,721,727
Non-trainable params: 1,792
_________________________________________________________________
