Model: "sequential_52"
_________________________________________________________________
Layer (type)                 Output Shape              Param #   
=================================================================
separable_conv2d_123 (Separa (None, 32, 32, 256)       1051      
_________________________________________________________________
batch_normalization_106 (Bat (None, 32, 32, 256)       1024      
_________________________________________________________________
activation_170 (Activation)  (None, 32, 32, 256)       0         
_________________________________________________________________
dropout_170 (Dropout)        (None, 32, 32, 256)       0         
_________________________________________________________________
max_pooling2d_39 (MaxPooling (None, 16, 16, 256)       0         
_________________________________________________________________
separable_conv2d_124 (Separa (None, 16, 16, 128)       35200     
_________________________________________________________________
batch_normalization_107 (Bat (None, 16, 16, 128)       512       
_________________________________________________________________
activation_171 (Activation)  (None, 16, 16, 128)       0         
_________________________________________________________________
dropout_171 (Dropout)        (None, 16, 16, 128)       0         
_________________________________________________________________
separable_conv2d_125 (Separa (None, 16, 16, 16)        3216      
_________________________________________________________________
activation_172 (Activation)  (None, 16, 16, 16)        0         
_________________________________________________________________
dropout_172 (Dropout)        (None, 16, 16, 16)        0         
_________________________________________________________________
flatten_52 (Flatten)         (None, 4096)              0         
_________________________________________________________________
dense_99 (Dense)             (None, 100)               409700    
=================================================================
Total params: 450,703
Trainable params: 449,935
Non-trainable params: 768
_________________________________________________________________
