Model: "sequential_278"
_________________________________________________________________
Layer (type)                 Output Shape              Param #   
=================================================================
separable_conv2d_709 (Separa (None, 32, 32, 256)       1051      
_________________________________________________________________
batch_normalization_767 (Bat (None, 32, 32, 256)       1024      
_________________________________________________________________
activation_994 (Activation)  (None, 32, 32, 256)       0         
_________________________________________________________________
dropout_994 (Dropout)        (None, 32, 32, 256)       0         
_________________________________________________________________
max_pooling2d_275 (MaxPoolin (None, 16, 16, 256)       0         
_________________________________________________________________
separable_conv2d_710 (Separa (None, 16, 16, 8)         4360      
_________________________________________________________________
batch_normalization_768 (Bat (None, 16, 16, 8)         32        
_________________________________________________________________
activation_995 (Activation)  (None, 16, 16, 8)         0         
_________________________________________________________________
dropout_995 (Dropout)        (None, 16, 16, 8)         0         
_________________________________________________________________
flatten_278 (Flatten)        (None, 2048)              0         
_________________________________________________________________
dense_563 (Dense)            (None, 128)               262272    
_________________________________________________________________
batch_normalization_769 (Bat (None, 128)               512       
_________________________________________________________________
activation_996 (Activation)  (None, 128)               0         
_________________________________________________________________
dropout_996 (Dropout)        (None, 128)               0         
_________________________________________________________________
dense_564 (Dense)            (None, 100)               12900     
=================================================================
Total params: 282,151
Trainable params: 281,367
Non-trainable params: 784
_________________________________________________________________
