Model: "sequential_194"
_________________________________________________________________
Layer (type)                 Output Shape              Param #   
=================================================================
separable_conv2d_474 (Separa (None, 32, 32, 512)       2075      
_________________________________________________________________
batch_normalization_499 (Bat (None, 32, 32, 512)       2048      
_________________________________________________________________
activation_658 (Activation)  (None, 32, 32, 512)       0         
_________________________________________________________________
dropout_658 (Dropout)        (None, 32, 32, 512)       0         
_________________________________________________________________
separable_conv2d_475 (Separa (None, 32, 32, 64)        37440     
_________________________________________________________________
batch_normalization_500 (Bat (None, 32, 32, 64)        256       
_________________________________________________________________
activation_659 (Activation)  (None, 32, 32, 64)        0         
_________________________________________________________________
dropout_659 (Dropout)        (None, 32, 32, 64)        0         
_________________________________________________________________
max_pooling2d_174 (MaxPoolin (None, 16, 16, 64)        0         
_________________________________________________________________
separable_conv2d_476 (Separa (None, 16, 16, 64)        4736      
_________________________________________________________________
activation_660 (Activation)  (None, 16, 16, 64)        0         
_________________________________________________________________
dropout_660 (Dropout)        (None, 16, 16, 64)        0         
_________________________________________________________________
flatten_194 (Flatten)        (None, 16384)             0         
_________________________________________________________________
dense_378 (Dense)            (None, 512)               8389120   
_________________________________________________________________
batch_normalization_501 (Bat (None, 512)               2048      
_________________________________________________________________
activation_661 (Activation)  (None, 512)               0         
_________________________________________________________________
dropout_661 (Dropout)        (None, 512)               0         
_________________________________________________________________
dense_379 (Dense)            (None, 256)               131328    
_________________________________________________________________
batch_normalization_502 (Bat (None, 256)               1024      
_________________________________________________________________
activation_662 (Activation)  (None, 256)               0         
_________________________________________________________________
dropout_662 (Dropout)        (None, 256)               0         
_________________________________________________________________
dense_380 (Dense)            (None, 100)               25700     
=================================================================
Total params: 8,595,775
Trainable params: 8,593,087
Non-trainable params: 2,688
_________________________________________________________________
