Model: "sequential_107"
_________________________________________________________________
Layer (type)                 Output Shape              Param #   
=================================================================
separable_conv2d_251 (Separa (None, 32, 32, 256)       1051      
_________________________________________________________________
batch_normalization_243 (Bat (None, 32, 32, 256)       1024      
_________________________________________________________________
activation_343 (Activation)  (None, 32, 32, 256)       0         
_________________________________________________________________
dropout_343 (Dropout)        (None, 32, 32, 256)       0         
_________________________________________________________________
separable_conv2d_252 (Separa (None, 32, 32, 64)        18752     
_________________________________________________________________
batch_normalization_244 (Bat (None, 32, 32, 64)        256       
_________________________________________________________________
activation_344 (Activation)  (None, 32, 32, 64)        0         
_________________________________________________________________
dropout_344 (Dropout)        (None, 32, 32, 64)        0         
_________________________________________________________________
max_pooling2d_80 (MaxPooling (None, 16, 16, 64)        0         
_________________________________________________________________
separable_conv2d_253 (Separa (None, 16, 16, 64)        4736      
_________________________________________________________________
activation_345 (Activation)  (None, 16, 16, 64)        0         
_________________________________________________________________
dropout_345 (Dropout)        (None, 16, 16, 64)        0         
_________________________________________________________________
flatten_107 (Flatten)        (None, 16384)             0         
_________________________________________________________________
dense_199 (Dense)            (None, 128)               2097280   
_________________________________________________________________
batch_normalization_245 (Bat (None, 128)               512       
_________________________________________________________________
activation_346 (Activation)  (None, 128)               0         
_________________________________________________________________
dropout_346 (Dropout)        (None, 128)               0         
_________________________________________________________________
dense_200 (Dense)            (None, 100)               12900     
=================================================================
Total params: 2,136,511
Trainable params: 2,135,615
Non-trainable params: 896
_________________________________________________________________
