Model: "sequential_135"
_________________________________________________________________
Layer (type)                 Output Shape              Param #   
=================================================================
separable_conv2d_320 (Separa (None, 32, 32, 512)       2075      
_________________________________________________________________
batch_normalization_321 (Bat (None, 32, 32, 512)       2048      
_________________________________________________________________
activation_438 (Activation)  (None, 32, 32, 512)       0         
_________________________________________________________________
dropout_438 (Dropout)        (None, 32, 32, 512)       0         
_________________________________________________________________
separable_conv2d_321 (Separa (None, 32, 32, 64)        37440     
_________________________________________________________________
batch_normalization_322 (Bat (None, 32, 32, 64)        256       
_________________________________________________________________
activation_439 (Activation)  (None, 32, 32, 64)        0         
_________________________________________________________________
dropout_439 (Dropout)        (None, 32, 32, 64)        0         
_________________________________________________________________
max_pooling2d_108 (MaxPoolin (None, 16, 16, 64)        0         
_________________________________________________________________
separable_conv2d_322 (Separa (None, 16, 16, 16)        1616      
_________________________________________________________________
activation_440 (Activation)  (None, 16, 16, 16)        0         
_________________________________________________________________
dropout_440 (Dropout)        (None, 16, 16, 16)        0         
_________________________________________________________________
flatten_135 (Flatten)        (None, 4096)              0         
_________________________________________________________________
dense_253 (Dense)            (None, 512)               2097664   
_________________________________________________________________
batch_normalization_323 (Bat (None, 512)               2048      
_________________________________________________________________
activation_441 (Activation)  (None, 512)               0         
_________________________________________________________________
dropout_441 (Dropout)        (None, 512)               0         
_________________________________________________________________
dense_254 (Dense)            (None, 256)               131328    
_________________________________________________________________
batch_normalization_324 (Bat (None, 256)               1024      
_________________________________________________________________
activation_442 (Activation)  (None, 256)               0         
_________________________________________________________________
dropout_442 (Dropout)        (None, 256)               0         
_________________________________________________________________
dense_255 (Dense)            (None, 100)               25700     
=================================================================
Total params: 2,301,199
Trainable params: 2,298,511
Non-trainable params: 2,688
_________________________________________________________________
