Model: "sequential_401"
_________________________________________________________________
Layer (type)                 Output Shape              Param #   
=================================================================
separable_conv2d_1059 (Separ (None, 32, 32, 512)       2075      
_________________________________________________________________
batch_normalization_1110 (Ba (None, 32, 32, 512)       2048      
_________________________________________________________________
activation_1481 (Activation) (None, 32, 32, 512)       0         
_________________________________________________________________
dropout_1481 (Dropout)       (None, 32, 32, 512)       0         
_________________________________________________________________
max_pooling2d_427 (MaxPoolin (None, 16, 16, 512)       0         
_________________________________________________________________
separable_conv2d_1060 (Separ (None, 16, 16, 128)       70272     
_________________________________________________________________
batch_normalization_1111 (Ba (None, 16, 16, 128)       512       
_________________________________________________________________
activation_1482 (Activation) (None, 16, 16, 128)       0         
_________________________________________________________________
dropout_1482 (Dropout)       (None, 16, 16, 128)       0         
_________________________________________________________________
separable_conv2d_1061 (Separ (None, 16, 16, 16)        3216      
_________________________________________________________________
activation_1483 (Activation) (None, 16, 16, 16)        0         
_________________________________________________________________
dropout_1483 (Dropout)       (None, 16, 16, 16)        0         
_________________________________________________________________
flatten_401 (Flatten)        (None, 4096)              0         
_________________________________________________________________
dense_823 (Dense)            (None, 512)               2097664   
_________________________________________________________________
batch_normalization_1112 (Ba (None, 512)               2048      
_________________________________________________________________
activation_1484 (Activation) (None, 512)               0         
_________________________________________________________________
dropout_1484 (Dropout)       (None, 512)               0         
_________________________________________________________________
dense_824 (Dense)            (None, 64)                32832     
_________________________________________________________________
batch_normalization_1113 (Ba (None, 64)                256       
_________________________________________________________________
activation_1485 (Activation) (None, 64)                0         
_________________________________________________________________
dropout_1485 (Dropout)       (None, 64)                0         
_________________________________________________________________
dense_825 (Dense)            (None, 100)               6500      
=================================================================
Total params: 2,217,423
Trainable params: 2,214,991
Non-trainable params: 2,432
_________________________________________________________________
