Model: "sequential_133"
_________________________________________________________________
Layer (type)                 Output Shape              Param #   
=================================================================
separable_conv2d_315 (Separa (None, 32, 32, 512)       2075      
_________________________________________________________________
batch_normalization_315 (Bat (None, 32, 32, 512)       2048      
_________________________________________________________________
activation_431 (Activation)  (None, 32, 32, 512)       0         
_________________________________________________________________
dropout_431 (Dropout)        (None, 32, 32, 512)       0         
_________________________________________________________________
separable_conv2d_316 (Separa (None, 32, 32, 64)        37440     
_________________________________________________________________
batch_normalization_316 (Bat (None, 32, 32, 64)        256       
_________________________________________________________________
activation_432 (Activation)  (None, 32, 32, 64)        0         
_________________________________________________________________
dropout_432 (Dropout)        (None, 32, 32, 64)        0         
_________________________________________________________________
max_pooling2d_106 (MaxPoolin (None, 16, 16, 64)        0         
_________________________________________________________________
separable_conv2d_317 (Separa (None, 16, 16, 16)        1616      
_________________________________________________________________
activation_433 (Activation)  (None, 16, 16, 16)        0         
_________________________________________________________________
dropout_433 (Dropout)        (None, 16, 16, 16)        0         
_________________________________________________________________
flatten_133 (Flatten)        (None, 4096)              0         
_________________________________________________________________
dense_249 (Dense)            (None, 128)               524416    
_________________________________________________________________
batch_normalization_317 (Bat (None, 128)               512       
_________________________________________________________________
activation_434 (Activation)  (None, 128)               0         
_________________________________________________________________
dropout_434 (Dropout)        (None, 128)               0         
_________________________________________________________________
dense_250 (Dense)            (None, 100)               12900     
=================================================================
Total params: 581,263
Trainable params: 579,855
Non-trainable params: 1,408
_________________________________________________________________
