Model: "sequential_296"
_________________________________________________________________
Layer (type)                 Output Shape              Param #   
=================================================================
separable_conv2d_759 (Separa (None, 32, 32, 512)       2075      
_________________________________________________________________
batch_normalization_819 (Bat (None, 32, 32, 512)       2048      
_________________________________________________________________
activation_1063 (Activation) (None, 32, 32, 512)       0         
_________________________________________________________________
dropout_1063 (Dropout)       (None, 32, 32, 512)       0         
_________________________________________________________________
max_pooling2d_296 (MaxPoolin (None, 16, 16, 512)       0         
_________________________________________________________________
separable_conv2d_760 (Separa (None, 16, 16, 128)       70272     
_________________________________________________________________
batch_normalization_820 (Bat (None, 16, 16, 128)       512       
_________________________________________________________________
activation_1064 (Activation) (None, 16, 16, 128)       0         
_________________________________________________________________
dropout_1064 (Dropout)       (None, 16, 16, 128)       0         
_________________________________________________________________
max_pooling2d_297 (MaxPoolin (None, 8, 8, 128)         0         
_________________________________________________________________
separable_conv2d_761 (Separa (None, 8, 8, 16)          3216      
_________________________________________________________________
activation_1065 (Activation) (None, 8, 8, 16)          0         
_________________________________________________________________
dropout_1065 (Dropout)       (None, 8, 8, 16)          0         
_________________________________________________________________
flatten_296 (Flatten)        (None, 1024)              0         
_________________________________________________________________
dense_600 (Dense)            (None, 128)               131200    
_________________________________________________________________
batch_normalization_821 (Bat (None, 128)               512       
_________________________________________________________________
activation_1066 (Activation) (None, 128)               0         
_________________________________________________________________
dropout_1066 (Dropout)       (None, 128)               0         
_________________________________________________________________
dense_601 (Dense)            (None, 100)               12900     
=================================================================
Total params: 222,735
Trainable params: 221,199
Non-trainable params: 1,536
_________________________________________________________________
