Model: "sequential_158"
_________________________________________________________________
Layer (type)                 Output Shape              Param #   
=================================================================
separable_conv2d_382 (Separa (None, 32, 32, 512)       2075      
_________________________________________________________________
batch_normalization_390 (Bat (None, 32, 32, 512)       2048      
_________________________________________________________________
activation_525 (Activation)  (None, 32, 32, 512)       0         
_________________________________________________________________
dropout_525 (Dropout)        (None, 32, 32, 512)       0         
_________________________________________________________________
separable_conv2d_383 (Separa (None, 32, 32, 64)        37440     
_________________________________________________________________
batch_normalization_391 (Bat (None, 32, 32, 64)        256       
_________________________________________________________________
activation_526 (Activation)  (None, 32, 32, 64)        0         
_________________________________________________________________
dropout_526 (Dropout)        (None, 32, 32, 64)        0         
_________________________________________________________________
max_pooling2d_134 (MaxPoolin (None, 16, 16, 64)        0         
_________________________________________________________________
flatten_158 (Flatten)        (None, 16384)             0         
_________________________________________________________________
dense_301 (Dense)            (None, 128)               2097280   
_________________________________________________________________
batch_normalization_392 (Bat (None, 128)               512       
_________________________________________________________________
activation_527 (Activation)  (None, 128)               0         
_________________________________________________________________
dropout_527 (Dropout)        (None, 128)               0         
_________________________________________________________________
dense_302 (Dense)            (None, 100)               12900     
=================================================================
Total params: 2,152,511
Trainable params: 2,151,103
Non-trainable params: 1,408
_________________________________________________________________
