Model: "sequential_407"
_________________________________________________________________
Layer (type)                 Output Shape              Param #   
=================================================================
separable_conv2d_1077 (Separ (None, 32, 32, 512)       2075      
_________________________________________________________________
batch_normalization_1131 (Ba (None, 32, 32, 512)       2048      
_________________________________________________________________
activation_1508 (Activation) (None, 32, 32, 512)       0         
_________________________________________________________________
dropout_1508 (Dropout)       (None, 32, 32, 512)       0         
_________________________________________________________________
max_pooling2d_432 (MaxPoolin (None, 16, 16, 512)       0         
_________________________________________________________________
separable_conv2d_1078 (Separ (None, 16, 16, 16)        12816     
_________________________________________________________________
activation_1509 (Activation) (None, 16, 16, 16)        0         
_________________________________________________________________
dropout_1509 (Dropout)       (None, 16, 16, 16)        0         
_________________________________________________________________
flatten_407 (Flatten)        (None, 4096)              0         
_________________________________________________________________
dense_838 (Dense)            (None, 512)               2097664   
_________________________________________________________________
batch_normalization_1132 (Ba (None, 512)               2048      
_________________________________________________________________
activation_1510 (Activation) (None, 512)               0         
_________________________________________________________________
dropout_1510 (Dropout)       (None, 512)               0         
_________________________________________________________________
dense_839 (Dense)            (None, 256)               131328    
_________________________________________________________________
batch_normalization_1133 (Ba (None, 256)               1024      
_________________________________________________________________
activation_1511 (Activation) (None, 256)               0         
_________________________________________________________________
dropout_1511 (Dropout)       (None, 256)               0         
_________________________________________________________________
dense_840 (Dense)            (None, 100)               25700     
=================================================================
Total params: 2,274,703
Trainable params: 2,272,143
Non-trainable params: 2,560
_________________________________________________________________
