Model: "sequential_124"
_________________________________________________________________
Layer (type)                 Output Shape              Param #   
=================================================================
separable_conv2d_292 (Separa (None, 32, 32, 256)       1051      
_________________________________________________________________
batch_normalization_289 (Bat (None, 32, 32, 256)       1024      
_________________________________________________________________
activation_398 (Activation)  (None, 32, 32, 256)       0         
_________________________________________________________________
dropout_398 (Dropout)        (None, 32, 32, 256)       0         
_________________________________________________________________
separable_conv2d_293 (Separa (None, 32, 32, 64)        18752     
_________________________________________________________________
batch_normalization_290 (Bat (None, 32, 32, 64)        256       
_________________________________________________________________
activation_399 (Activation)  (None, 32, 32, 64)        0         
_________________________________________________________________
dropout_399 (Dropout)        (None, 32, 32, 64)        0         
_________________________________________________________________
max_pooling2d_97 (MaxPooling (None, 16, 16, 64)        0         
_________________________________________________________________
separable_conv2d_294 (Separa (None, 16, 16, 16)        1616      
_________________________________________________________________
activation_400 (Activation)  (None, 16, 16, 16)        0         
_________________________________________________________________
dropout_400 (Dropout)        (None, 16, 16, 16)        0         
_________________________________________________________________
flatten_124 (Flatten)        (None, 4096)              0         
_________________________________________________________________
dense_230 (Dense)            (None, 512)               2097664   
_________________________________________________________________
batch_normalization_291 (Bat (None, 512)               2048      
_________________________________________________________________
activation_401 (Activation)  (None, 512)               0         
_________________________________________________________________
dropout_401 (Dropout)        (None, 512)               0         
_________________________________________________________________
dense_231 (Dense)            (None, 100)               51300     
=================================================================
Total params: 2,173,711
Trainable params: 2,172,047
Non-trainable params: 1,664
_________________________________________________________________
