Model: "sequential_470"
_________________________________________________________________
Layer (type)                 Output Shape              Param #   
=================================================================
separable_conv2d_1262 (Separ (None, 32, 32, 512)       2075      
_________________________________________________________________
activation_1796 (Activation) (None, 32, 32, 512)       0         
_________________________________________________________________
dropout_1796 (Dropout)       (None, 32, 32, 512)       0         
_________________________________________________________________
max_pooling2d_503 (MaxPoolin (None, 16, 16, 512)       0         
_________________________________________________________________
separable_conv2d_1263 (Separ (None, 16, 16, 128)       70272     
_________________________________________________________________
batch_normalization_1323 (Ba (None, 16, 16, 128)       512       
_________________________________________________________________
activation_1797 (Activation) (None, 16, 16, 128)       0         
_________________________________________________________________
dropout_1797 (Dropout)       (None, 16, 16, 128)       0         
_________________________________________________________________
flatten_470 (Flatten)        (None, 32768)             0         
_________________________________________________________________
dense_1004 (Dense)           (None, 256)               8388864   
_________________________________________________________________
batch_normalization_1324 (Ba (None, 256)               1024      
_________________________________________________________________
activation_1798 (Activation) (None, 256)               0         
_________________________________________________________________
dropout_1798 (Dropout)       (None, 256)               0         
_________________________________________________________________
dense_1005 (Dense)           (None, 100)               25700     
=================================================================
Total params: 8,488,447
Trainable params: 8,487,679
Non-trainable params: 768
_________________________________________________________________
