Model: "sequential_327"
_________________________________________________________________
Layer (type)                 Output Shape              Param #   
=================================================================
separable_conv2d_850 (Separa (None, 32, 32, 512)       2075      
_________________________________________________________________
batch_normalization_903 (Bat (None, 32, 32, 512)       2048      
_________________________________________________________________
activation_1180 (Activation) (None, 32, 32, 512)       0         
_________________________________________________________________
dropout_1180 (Dropout)       (None, 32, 32, 512)       0         
_________________________________________________________________
max_pooling2d_335 (MaxPoolin (None, 16, 16, 512)       0         
_________________________________________________________________
separable_conv2d_851 (Separa (None, 16, 16, 256)       135936    
_________________________________________________________________
batch_normalization_904 (Bat (None, 16, 16, 256)       1024      
_________________________________________________________________
activation_1181 (Activation) (None, 16, 16, 256)       0         
_________________________________________________________________
dropout_1181 (Dropout)       (None, 16, 16, 256)       0         
_________________________________________________________________
flatten_327 (Flatten)        (None, 65536)             0         
_________________________________________________________________
dense_657 (Dense)            (None, 512)               33554944  
_________________________________________________________________
batch_normalization_905 (Bat (None, 512)               2048      
_________________________________________________________________
activation_1182 (Activation) (None, 512)               0         
_________________________________________________________________
dropout_1182 (Dropout)       (None, 512)               0         
_________________________________________________________________
dense_658 (Dense)            (None, 256)               131328    
_________________________________________________________________
batch_normalization_906 (Bat (None, 256)               1024      
_________________________________________________________________
activation_1183 (Activation) (None, 256)               0         
_________________________________________________________________
dropout_1183 (Dropout)       (None, 256)               0         
_________________________________________________________________
dense_659 (Dense)            (None, 100)               25700     
=================================================================
Total params: 33,856,127
Trainable params: 33,853,055
Non-trainable params: 3,072
_________________________________________________________________
