Model: "sequential_553"
_________________________________________________________________
Layer (type)                 Output Shape              Param #   
=================================================================
separable_conv2d_1504 (Separ (None, 32, 32, 512)       2075      
_________________________________________________________________
activation_2175 (Activation) (None, 32, 32, 512)       0         
_________________________________________________________________
dropout_2175 (Dropout)       (None, 32, 32, 512)       0         
_________________________________________________________________
separable_conv2d_1505 (Separ (None, 32, 32, 256)       135936    
_________________________________________________________________
batch_normalization_1595 (Ba (None, 32, 32, 256)       1024      
_________________________________________________________________
activation_2176 (Activation) (None, 32, 32, 256)       0         
_________________________________________________________________
dropout_2176 (Dropout)       (None, 32, 32, 256)       0         
_________________________________________________________________
max_pooling2d_585 (MaxPoolin (None, 16, 16, 256)       0         
_________________________________________________________________
separable_conv2d_1506 (Separ (None, 16, 16, 16)        6416      
_________________________________________________________________
activation_2177 (Activation) (None, 16, 16, 16)        0         
_________________________________________________________________
dropout_2177 (Dropout)       (None, 16, 16, 16)        0         
_________________________________________________________________
flatten_553 (Flatten)        (None, 4096)              0         
_________________________________________________________________
dense_1224 (Dense)           (None, 32)                131104    
_________________________________________________________________
batch_normalization_1596 (Ba (None, 32)                128       
_________________________________________________________________
activation_2178 (Activation) (None, 32)                0         
_________________________________________________________________
dropout_2178 (Dropout)       (None, 32)                0         
_________________________________________________________________
dense_1225 (Dense)           (None, 256)               8448      
_________________________________________________________________
batch_normalization_1597 (Ba (None, 256)               1024      
_________________________________________________________________
activation_2179 (Activation) (None, 256)               0         
_________________________________________________________________
dropout_2179 (Dropout)       (None, 256)               0         
_________________________________________________________________
dense_1226 (Dense)           (None, 100)               25700     
=================================================================
Total params: 311,855
Trainable params: 310,767
Non-trainable params: 1,088
_________________________________________________________________
