Model: "sequential_423"
_________________________________________________________________
Layer (type)                 Output Shape              Param #   
=================================================================
separable_conv2d_1123 (Separ (None, 32, 32, 256)       1051      
_________________________________________________________________
batch_normalization_1172 (Ba (None, 32, 32, 256)       1024      
_________________________________________________________________
activation_1576 (Activation) (None, 32, 32, 256)       0         
_________________________________________________________________
dropout_1576 (Dropout)       (None, 32, 32, 256)       0         
_________________________________________________________________
max_pooling2d_452 (MaxPoolin (None, 16, 16, 256)       0         
_________________________________________________________________
separable_conv2d_1124 (Separ (None, 16, 16, 32)        10528     
_________________________________________________________________
batch_normalization_1173 (Ba (None, 16, 16, 32)        128       
_________________________________________________________________
activation_1577 (Activation) (None, 16, 16, 32)        0         
_________________________________________________________________
dropout_1577 (Dropout)       (None, 16, 16, 32)        0         
_________________________________________________________________
separable_conv2d_1125 (Separ (None, 16, 16, 16)        816       
_________________________________________________________________
activation_1578 (Activation) (None, 16, 16, 16)        0         
_________________________________________________________________
dropout_1578 (Dropout)       (None, 16, 16, 16)        0         
_________________________________________________________________
flatten_423 (Flatten)        (None, 4096)              0         
_________________________________________________________________
dense_876 (Dense)            (None, 512)               2097664   
_________________________________________________________________
batch_normalization_1174 (Ba (None, 512)               2048      
_________________________________________________________________
activation_1579 (Activation) (None, 512)               0         
_________________________________________________________________
dropout_1579 (Dropout)       (None, 512)               0         
_________________________________________________________________
dense_877 (Dense)            (None, 256)               131328    
_________________________________________________________________
batch_normalization_1175 (Ba (None, 256)               1024      
_________________________________________________________________
activation_1580 (Activation) (None, 256)               0         
_________________________________________________________________
dropout_1580 (Dropout)       (None, 256)               0         
_________________________________________________________________
dense_878 (Dense)            (None, 100)               25700     
=================================================================
Total params: 2,271,311
Trainable params: 2,269,199
Non-trainable params: 2,112
_________________________________________________________________
