Model: "sequential_316"
_________________________________________________________________
Layer (type)                 Output Shape              Param #   
=================================================================
separable_conv2d_817 (Separa (None, 32, 32, 512)       2075      
_________________________________________________________________
batch_normalization_875 (Bat (None, 32, 32, 512)       2048      
_________________________________________________________________
activation_1140 (Activation) (None, 32, 32, 512)       0         
_________________________________________________________________
dropout_1140 (Dropout)       (None, 32, 32, 512)       0         
_________________________________________________________________
max_pooling2d_321 (MaxPoolin (None, 16, 16, 512)       0         
_________________________________________________________________
separable_conv2d_818 (Separa (None, 16, 16, 256)       135936    
_________________________________________________________________
batch_normalization_876 (Bat (None, 16, 16, 256)       1024      
_________________________________________________________________
activation_1141 (Activation) (None, 16, 16, 256)       0         
_________________________________________________________________
dropout_1141 (Dropout)       (None, 16, 16, 256)       0         
_________________________________________________________________
flatten_316 (Flatten)        (None, 65536)             0         
_________________________________________________________________
dense_639 (Dense)            (None, 512)               33554944  
_________________________________________________________________
batch_normalization_877 (Bat (None, 512)               2048      
_________________________________________________________________
activation_1142 (Activation) (None, 512)               0         
_________________________________________________________________
dropout_1142 (Dropout)       (None, 512)               0         
_________________________________________________________________
dense_640 (Dense)            (None, 256)               131328    
_________________________________________________________________
batch_normalization_878 (Bat (None, 256)               1024      
_________________________________________________________________
activation_1143 (Activation) (None, 256)               0         
_________________________________________________________________
dropout_1143 (Dropout)       (None, 256)               0         
_________________________________________________________________
dense_641 (Dense)            (None, 100)               25700     
=================================================================
Total params: 33,856,127
Trainable params: 33,853,055
Non-trainable params: 3,072
_________________________________________________________________
