Model: "sequential_428"
_________________________________________________________________
Layer (type)                 Output Shape              Param #   
=================================================================
separable_conv2d_1138 (Separ (None, 32, 32, 512)       2075      
_________________________________________________________________
batch_normalization_1189 (Ba (None, 32, 32, 512)       2048      
_________________________________________________________________
activation_1600 (Activation) (None, 32, 32, 512)       0         
_________________________________________________________________
dropout_1600 (Dropout)       (None, 32, 32, 512)       0         
_________________________________________________________________
max_pooling2d_457 (MaxPoolin (None, 16, 16, 512)       0         
_________________________________________________________________
separable_conv2d_1139 (Separ (None, 16, 16, 64)        37440     
_________________________________________________________________
activation_1601 (Activation) (None, 16, 16, 64)        0         
_________________________________________________________________
dropout_1601 (Dropout)       (None, 16, 16, 64)        0         
_________________________________________________________________
max_pooling2d_458 (MaxPoolin (None, 8, 8, 64)          0         
_________________________________________________________________
separable_conv2d_1140 (Separ (None, 8, 8, 16)          1616      
_________________________________________________________________
activation_1602 (Activation) (None, 8, 8, 16)          0         
_________________________________________________________________
dropout_1602 (Dropout)       (None, 8, 8, 16)          0         
_________________________________________________________________
flatten_428 (Flatten)        (None, 1024)              0         
_________________________________________________________________
dense_890 (Dense)            (None, 512)               524800    
_________________________________________________________________
activation_1603 (Activation) (None, 512)               0         
_________________________________________________________________
dropout_1603 (Dropout)       (None, 512)               0         
_________________________________________________________________
dense_891 (Dense)            (None, 256)               131328    
_________________________________________________________________
batch_normalization_1190 (Ba (None, 256)               1024      
_________________________________________________________________
activation_1604 (Activation) (None, 256)               0         
_________________________________________________________________
dropout_1604 (Dropout)       (None, 256)               0         
_________________________________________________________________
dense_892 (Dense)            (None, 100)               25700     
=================================================================
Total params: 726,031
Trainable params: 724,495
Non-trainable params: 1,536
_________________________________________________________________
