Model: "sequential_471"
_________________________________________________________________
Layer (type)                 Output Shape              Param #   
=================================================================
separable_conv2d_1264 (Separ (None, 32, 32, 512)       2075      
_________________________________________________________________
batch_normalization_1325 (Ba (None, 32, 32, 512)       2048      
_________________________________________________________________
activation_1799 (Activation) (None, 32, 32, 512)       0         
_________________________________________________________________
dropout_1799 (Dropout)       (None, 32, 32, 512)       0         
_________________________________________________________________
separable_conv2d_1265 (Separ (None, 32, 32, 128)       70272     
_________________________________________________________________
batch_normalization_1326 (Ba (None, 32, 32, 128)       512       
_________________________________________________________________
activation_1800 (Activation) (None, 32, 32, 128)       0         
_________________________________________________________________
dropout_1800 (Dropout)       (None, 32, 32, 128)       0         
_________________________________________________________________
separable_conv2d_1266 (Separ (None, 32, 32, 16)        3216      
_________________________________________________________________
activation_1801 (Activation) (None, 32, 32, 16)        0         
_________________________________________________________________
dropout_1801 (Dropout)       (None, 32, 32, 16)        0         
_________________________________________________________________
flatten_471 (Flatten)        (None, 16384)             0         
_________________________________________________________________
dense_1006 (Dense)           (None, 512)               8389120   
_________________________________________________________________
batch_normalization_1327 (Ba (None, 512)               2048      
_________________________________________________________________
activation_1802 (Activation) (None, 512)               0         
_________________________________________________________________
dropout_1802 (Dropout)       (None, 512)               0         
_________________________________________________________________
dense_1007 (Dense)           (None, 256)               131328    
_________________________________________________________________
batch_normalization_1328 (Ba (None, 256)               1024      
_________________________________________________________________
activation_1803 (Activation) (None, 256)               0         
_________________________________________________________________
dropout_1803 (Dropout)       (None, 256)               0         
_________________________________________________________________
dense_1008 (Dense)           (None, 100)               25700     
=================================================================
Total params: 8,627,343
Trainable params: 8,624,527
Non-trainable params: 2,816
_________________________________________________________________
