Model: "sequential_529"
_________________________________________________________________
Layer (type)                 Output Shape              Param #   
=================================================================
separable_conv2d_1433 (Separ (None, 32, 32, 256)       1051      
_________________________________________________________________
batch_normalization_1515 (Ba (None, 32, 32, 256)       1024      
_________________________________________________________________
activation_2065 (Activation) (None, 32, 32, 256)       0         
_________________________________________________________________
dropout_2065 (Dropout)       (None, 32, 32, 256)       0         
_________________________________________________________________
max_pooling2d_565 (MaxPoolin (None, 16, 16, 256)       0         
_________________________________________________________________
separable_conv2d_1434 (Separ (None, 16, 16, 64)        18752     
_________________________________________________________________
batch_normalization_1516 (Ba (None, 16, 16, 64)        256       
_________________________________________________________________
activation_2066 (Activation) (None, 16, 16, 64)        0         
_________________________________________________________________
dropout_2066 (Dropout)       (None, 16, 16, 64)        0         
_________________________________________________________________
separable_conv2d_1435 (Separ (None, 16, 16, 16)        1616      
_________________________________________________________________
activation_2067 (Activation) (None, 16, 16, 16)        0         
_________________________________________________________________
dropout_2067 (Dropout)       (None, 16, 16, 16)        0         
_________________________________________________________________
flatten_529 (Flatten)        (None, 4096)              0         
_________________________________________________________________
dense_1161 (Dense)           (None, 2048)              8390656   
_________________________________________________________________
batch_normalization_1517 (Ba (None, 2048)              8192      
_________________________________________________________________
activation_2068 (Activation) (None, 2048)              0         
_________________________________________________________________
dropout_2068 (Dropout)       (None, 2048)              0         
_________________________________________________________________
dense_1162 (Dense)           (None, 100)               204900    
=================================================================
Total params: 8,626,447
Trainable params: 8,621,711
Non-trainable params: 4,736
_________________________________________________________________
