Model: "sequential_538"
_________________________________________________________________
Layer (type)                 Output Shape              Param #   
=================================================================
separable_conv2d_1459 (Separ (None, 32, 32, 256)       1051      
_________________________________________________________________
batch_normalization_1544 (Ba (None, 32, 32, 256)       1024      
_________________________________________________________________
activation_2104 (Activation) (None, 32, 32, 256)       0         
_________________________________________________________________
dropout_2104 (Dropout)       (None, 32, 32, 256)       0         
_________________________________________________________________
max_pooling2d_574 (MaxPoolin (None, 16, 16, 256)       0         
_________________________________________________________________
separable_conv2d_1460 (Separ (None, 16, 16, 64)        18752     
_________________________________________________________________
batch_normalization_1545 (Ba (None, 16, 16, 64)        256       
_________________________________________________________________
activation_2105 (Activation) (None, 16, 16, 64)        0         
_________________________________________________________________
dropout_2105 (Dropout)       (None, 16, 16, 64)        0         
_________________________________________________________________
separable_conv2d_1461 (Separ (None, 16, 16, 16)        1616      
_________________________________________________________________
activation_2106 (Activation) (None, 16, 16, 16)        0         
_________________________________________________________________
dropout_2106 (Dropout)       (None, 16, 16, 16)        0         
_________________________________________________________________
flatten_538 (Flatten)        (None, 4096)              0         
_________________________________________________________________
dense_1183 (Dense)           (None, 512)               2097664   
_________________________________________________________________
batch_normalization_1546 (Ba (None, 512)               2048      
_________________________________________________________________
activation_2107 (Activation) (None, 512)               0         
_________________________________________________________________
dropout_2107 (Dropout)       (None, 512)               0         
_________________________________________________________________
dense_1184 (Dense)           (None, 256)               131328    
_________________________________________________________________
batch_normalization_1547 (Ba (None, 256)               1024      
_________________________________________________________________
activation_2108 (Activation) (None, 256)               0         
_________________________________________________________________
dropout_2108 (Dropout)       (None, 256)               0         
_________________________________________________________________
dense_1185 (Dense)           (None, 100)               25700     
=================================================================
Total params: 2,280,463
Trainable params: 2,278,287
Non-trainable params: 2,176
_________________________________________________________________
