Model: "sequential_447"
_________________________________________________________________
Layer (type)                 Output Shape              Param #   
=================================================================
separable_conv2d_1193 (Separ (None, 32, 32, 512)       2075      
_________________________________________________________________
batch_normalization_1249 (Ba (None, 32, 32, 512)       2048      
_________________________________________________________________
activation_1687 (Activation) (None, 32, 32, 512)       0         
_________________________________________________________________
dropout_1687 (Dropout)       (None, 32, 32, 512)       0         
_________________________________________________________________
max_pooling2d_481 (MaxPoolin (None, 16, 16, 512)       0         
_________________________________________________________________
separable_conv2d_1194 (Separ (None, 16, 16, 128)       70272     
_________________________________________________________________
batch_normalization_1250 (Ba (None, 16, 16, 128)       512       
_________________________________________________________________
activation_1688 (Activation) (None, 16, 16, 128)       0         
_________________________________________________________________
dropout_1688 (Dropout)       (None, 16, 16, 128)       0         
_________________________________________________________________
separable_conv2d_1195 (Separ (None, 16, 16, 16)        3216      
_________________________________________________________________
activation_1689 (Activation) (None, 16, 16, 16)        0         
_________________________________________________________________
dropout_1689 (Dropout)       (None, 16, 16, 16)        0         
_________________________________________________________________
flatten_447 (Flatten)        (None, 4096)              0         
_________________________________________________________________
dense_941 (Dense)            (None, 256)               1048832   
_________________________________________________________________
batch_normalization_1251 (Ba (None, 256)               1024      
_________________________________________________________________
activation_1690 (Activation) (None, 256)               0         
_________________________________________________________________
dropout_1690 (Dropout)       (None, 256)               0         
_________________________________________________________________
dense_942 (Dense)            (None, 100)               25700     
=================================================================
Total params: 1,153,679
Trainable params: 1,151,887
Non-trainable params: 1,792
_________________________________________________________________
