Model: "sequential_250"
_________________________________________________________________
Layer (type)                 Output Shape              Param #   
=================================================================
separable_conv2d_630 (Separa (None, 32, 32, 256)       1051      
_________________________________________________________________
batch_normalization_678 (Bat (None, 32, 32, 256)       1024      
_________________________________________________________________
activation_882 (Activation)  (None, 32, 32, 256)       0         
_________________________________________________________________
dropout_882 (Dropout)        (None, 32, 32, 256)       0         
_________________________________________________________________
max_pooling2d_241 (MaxPoolin (None, 16, 16, 256)       0         
_________________________________________________________________
separable_conv2d_631 (Separa (None, 16, 16, 128)       35200     
_________________________________________________________________
batch_normalization_679 (Bat (None, 16, 16, 128)       512       
_________________________________________________________________
activation_883 (Activation)  (None, 16, 16, 128)       0         
_________________________________________________________________
dropout_883 (Dropout)        (None, 16, 16, 128)       0         
_________________________________________________________________
separable_conv2d_632 (Separa (None, 16, 16, 16)        3216      
_________________________________________________________________
activation_884 (Activation)  (None, 16, 16, 16)        0         
_________________________________________________________________
dropout_884 (Dropout)        (None, 16, 16, 16)        0         
_________________________________________________________________
separable_conv2d_633 (Separa (None, 16, 16, 8)         280       
_________________________________________________________________
batch_normalization_680 (Bat (None, 16, 16, 8)         32        
_________________________________________________________________
activation_885 (Activation)  (None, 16, 16, 8)         0         
_________________________________________________________________
dropout_885 (Dropout)        (None, 16, 16, 8)         0         
_________________________________________________________________
max_pooling2d_242 (MaxPoolin (None, 8, 8, 8)           0         
_________________________________________________________________
flatten_250 (Flatten)        (None, 512)               0         
_________________________________________________________________
dense_502 (Dense)            (None, 512)               262656    
_________________________________________________________________
batch_normalization_681 (Bat (None, 512)               2048      
_________________________________________________________________
activation_886 (Activation)  (None, 512)               0         
_________________________________________________________________
dropout_886 (Dropout)        (None, 512)               0         
_________________________________________________________________
dense_503 (Dense)            (None, 100)               51300     
=================================================================
Total params: 357,319
Trainable params: 355,511
Non-trainable params: 1,808
_________________________________________________________________
