Model: "sequential_111"
_________________________________________________________________
Layer (type)                 Output Shape              Param #   
=================================================================
separable_conv2d_261 (Separa (None, 32, 32, 256)       1051      
_________________________________________________________________
batch_normalization_253 (Bat (None, 32, 32, 256)       1024      
_________________________________________________________________
activation_356 (Activation)  (None, 32, 32, 256)       0         
_________________________________________________________________
dropout_356 (Dropout)        (None, 32, 32, 256)       0         
_________________________________________________________________
max_pooling2d_83 (MaxPooling (None, 16, 16, 256)       0         
_________________________________________________________________
separable_conv2d_262 (Separa (None, 16, 16, 128)       35200     
_________________________________________________________________
batch_normalization_254 (Bat (None, 16, 16, 128)       512       
_________________________________________________________________
activation_357 (Activation)  (None, 16, 16, 128)       0         
_________________________________________________________________
dropout_357 (Dropout)        (None, 16, 16, 128)       0         
_________________________________________________________________
flatten_111 (Flatten)        (None, 32768)             0         
_________________________________________________________________
dense_206 (Dense)            (None, 128)               4194432   
_________________________________________________________________
batch_normalization_255 (Bat (None, 128)               512       
_________________________________________________________________
activation_358 (Activation)  (None, 128)               0         
_________________________________________________________________
dropout_358 (Dropout)        (None, 128)               0         
_________________________________________________________________
dense_207 (Dense)            (None, 100)               12900     
=================================================================
Total params: 4,245,631
Trainable params: 4,244,607
Non-trainable params: 1,024
_________________________________________________________________
