Model: "sequential_24"
_________________________________________________________________
Layer (type)                 Output Shape              Param #   
=================================================================
separable_conv2d_67 (Separab (None, 32, 32, 256)       1051      
_________________________________________________________________
batch_normalization_50 (Batc (None, 32, 32, 256)       1024      
_________________________________________________________________
activation_90 (Activation)   (None, 32, 32, 256)       0         
_________________________________________________________________
dropout_90 (Dropout)         (None, 32, 32, 256)       0         
_________________________________________________________________
max_pooling2d_24 (MaxPooling (None, 16, 16, 256)       0         
_________________________________________________________________
separable_conv2d_68 (Separab (None, 16, 16, 128)       35200     
_________________________________________________________________
batch_normalization_51 (Batc (None, 16, 16, 128)       512       
_________________________________________________________________
activation_91 (Activation)   (None, 16, 16, 128)       0         
_________________________________________________________________
dropout_91 (Dropout)         (None, 16, 16, 128)       0         
_________________________________________________________________
flatten_24 (Flatten)         (None, 32768)             0         
_________________________________________________________________
dense_47 (Dense)             (None, 256)               8388864   
_________________________________________________________________
batch_normalization_52 (Batc (None, 256)               1024      
_________________________________________________________________
activation_92 (Activation)   (None, 256)               0         
_________________________________________________________________
dropout_92 (Dropout)         (None, 256)               0         
_________________________________________________________________
dense_48 (Dense)             (None, 100)               25700     
=================================================================
Total params: 8,453,375
Trainable params: 8,452,095
Non-trainable params: 1,280
_________________________________________________________________
