Model: "sequential_136"
_________________________________________________________________
Layer (type)                 Output Shape              Param #   
=================================================================
separable_conv2d_323 (Separa (None, 32, 32, 256)       1051      
_________________________________________________________________
batch_normalization_325 (Bat (None, 32, 32, 256)       1024      
_________________________________________________________________
activation_443 (Activation)  (None, 32, 32, 256)       0         
_________________________________________________________________
dropout_443 (Dropout)        (None, 32, 32, 256)       0         
_________________________________________________________________
max_pooling2d_109 (MaxPoolin (None, 16, 16, 256)       0         
_________________________________________________________________
separable_conv2d_324 (Separa (None, 16, 16, 128)       35200     
_________________________________________________________________
batch_normalization_326 (Bat (None, 16, 16, 128)       512       
_________________________________________________________________
activation_444 (Activation)  (None, 16, 16, 128)       0         
_________________________________________________________________
dropout_444 (Dropout)        (None, 16, 16, 128)       0         
_________________________________________________________________
max_pooling2d_110 (MaxPoolin (None, 8, 8, 128)         0         
_________________________________________________________________
flatten_136 (Flatten)        (None, 8192)              0         
_________________________________________________________________
dense_256 (Dense)            (None, 128)               1048704   
_________________________________________________________________
batch_normalization_327 (Bat (None, 128)               512       
_________________________________________________________________
activation_445 (Activation)  (None, 128)               0         
_________________________________________________________________
dropout_445 (Dropout)        (None, 128)               0         
_________________________________________________________________
dense_257 (Dense)            (None, 100)               12900     
=================================================================
Total params: 1,099,903
Trainable params: 1,098,879
Non-trainable params: 1,024
_________________________________________________________________
