Model: "sequential_227"
_________________________________________________________________
Layer (type)                 Output Shape              Param #   
=================================================================
separable_conv2d_567 (Separa (None, 32, 32, 256)       1051      
_________________________________________________________________
batch_normalization_602 (Bat (None, 32, 32, 256)       1024      
_________________________________________________________________
activation_788 (Activation)  (None, 32, 32, 256)       0         
_________________________________________________________________
dropout_788 (Dropout)        (None, 32, 32, 256)       0         
_________________________________________________________________
separable_conv2d_568 (Separa (None, 32, 32, 64)        18752     
_________________________________________________________________
batch_normalization_603 (Bat (None, 32, 32, 64)        256       
_________________________________________________________________
activation_789 (Activation)  (None, 32, 32, 64)        0         
_________________________________________________________________
dropout_789 (Dropout)        (None, 32, 32, 64)        0         
_________________________________________________________________
max_pooling2d_215 (MaxPoolin (None, 16, 16, 64)        0         
_________________________________________________________________
separable_conv2d_569 (Separa (None, 16, 16, 64)        4736      
_________________________________________________________________
activation_790 (Activation)  (None, 16, 16, 64)        0         
_________________________________________________________________
dropout_790 (Dropout)        (None, 16, 16, 64)        0         
_________________________________________________________________
flatten_227 (Flatten)        (None, 16384)             0         
_________________________________________________________________
dense_448 (Dense)            (None, 512)               8389120   
_________________________________________________________________
batch_normalization_604 (Bat (None, 512)               2048      
_________________________________________________________________
activation_791 (Activation)  (None, 512)               0         
_________________________________________________________________
dropout_791 (Dropout)        (None, 512)               0         
_________________________________________________________________
dense_449 (Dense)            (None, 100)               51300     
=================================================================
Total params: 8,468,287
Trainable params: 8,466,623
Non-trainable params: 1,664
_________________________________________________________________
