Model: "sequential_249"
_________________________________________________________________
Layer (type)                 Output Shape              Param #   
=================================================================
separable_conv2d_627 (Separa (None, 32, 32, 512)       2075      
_________________________________________________________________
batch_normalization_675 (Bat (None, 32, 32, 512)       2048      
_________________________________________________________________
activation_878 (Activation)  (None, 32, 32, 512)       0         
_________________________________________________________________
dropout_878 (Dropout)        (None, 32, 32, 512)       0         
_________________________________________________________________
max_pooling2d_240 (MaxPoolin (None, 16, 16, 512)       0         
_________________________________________________________________
separable_conv2d_628 (Separa (None, 16, 16, 128)       70272     
_________________________________________________________________
batch_normalization_676 (Bat (None, 16, 16, 128)       512       
_________________________________________________________________
activation_879 (Activation)  (None, 16, 16, 128)       0         
_________________________________________________________________
dropout_879 (Dropout)        (None, 16, 16, 128)       0         
_________________________________________________________________
separable_conv2d_629 (Separa (None, 16, 16, 16)        3216      
_________________________________________________________________
activation_880 (Activation)  (None, 16, 16, 16)        0         
_________________________________________________________________
dropout_880 (Dropout)        (None, 16, 16, 16)        0         
_________________________________________________________________
flatten_249 (Flatten)        (None, 4096)              0         
_________________________________________________________________
dense_500 (Dense)            (None, 512)               2097664   
_________________________________________________________________
batch_normalization_677 (Bat (None, 512)               2048      
_________________________________________________________________
activation_881 (Activation)  (None, 512)               0         
_________________________________________________________________
dropout_881 (Dropout)        (None, 512)               0         
_________________________________________________________________
dense_501 (Dense)            (None, 100)               51300     
=================================================================
Total params: 2,229,135
Trainable params: 2,226,831
Non-trainable params: 2,304
_________________________________________________________________
