Model: "sequential_126"
_________________________________________________________________
Layer (type)                 Output Shape              Param #   
=================================================================
separable_conv2d_298 (Separa (None, 32, 32, 256)       1051      
_________________________________________________________________
batch_normalization_294 (Bat (None, 32, 32, 256)       1024      
_________________________________________________________________
activation_405 (Activation)  (None, 32, 32, 256)       0         
_________________________________________________________________
dropout_405 (Dropout)        (None, 32, 32, 256)       0         
_________________________________________________________________
separable_conv2d_299 (Separa (None, 32, 32, 64)        18752     
_________________________________________________________________
activation_406 (Activation)  (None, 32, 32, 64)        0         
_________________________________________________________________
dropout_406 (Dropout)        (None, 32, 32, 64)        0         
_________________________________________________________________
max_pooling2d_99 (MaxPooling (None, 16, 16, 64)        0         
_________________________________________________________________
separable_conv2d_300 (Separa (None, 16, 16, 16)        1616      
_________________________________________________________________
activation_407 (Activation)  (None, 16, 16, 16)        0         
_________________________________________________________________
dropout_407 (Dropout)        (None, 16, 16, 16)        0         
_________________________________________________________________
flatten_126 (Flatten)        (None, 4096)              0         
_________________________________________________________________
dense_233 (Dense)            (None, 128)               524416    
_________________________________________________________________
batch_normalization_295 (Bat (None, 128)               512       
_________________________________________________________________
activation_408 (Activation)  (None, 128)               0         
_________________________________________________________________
dropout_408 (Dropout)        (None, 128)               0         
_________________________________________________________________
dense_234 (Dense)            (None, 100)               12900     
=================================================================
Total params: 560,271
Trainable params: 559,503
Non-trainable params: 768
_________________________________________________________________
