Model: "sequential_450"
_________________________________________________________________
Layer (type)                 Output Shape              Param #   
=================================================================
separable_conv2d_1202 (Separ (None, 32, 32, 512)       2075      
_________________________________________________________________
batch_normalization_1259 (Ba (None, 32, 32, 512)       2048      
_________________________________________________________________
activation_1701 (Activation) (None, 32, 32, 512)       0         
_________________________________________________________________
dropout_1701 (Dropout)       (None, 32, 32, 512)       0         
_________________________________________________________________
max_pooling2d_484 (MaxPoolin (None, 16, 16, 512)       0         
_________________________________________________________________
separable_conv2d_1203 (Separ (None, 16, 16, 64)        37440     
_________________________________________________________________
activation_1702 (Activation) (None, 16, 16, 64)        0         
_________________________________________________________________
dropout_1702 (Dropout)       (None, 16, 16, 64)        0         
_________________________________________________________________
separable_conv2d_1204 (Separ (None, 16, 16, 16)        1616      
_________________________________________________________________
activation_1703 (Activation) (None, 16, 16, 16)        0         
_________________________________________________________________
dropout_1703 (Dropout)       (None, 16, 16, 16)        0         
_________________________________________________________________
flatten_450 (Flatten)        (None, 4096)              0         
_________________________________________________________________
dense_949 (Dense)            (None, 512)               2097664   
_________________________________________________________________
batch_normalization_1260 (Ba (None, 512)               2048      
_________________________________________________________________
activation_1704 (Activation) (None, 512)               0         
_________________________________________________________________
dropout_1704 (Dropout)       (None, 512)               0         
_________________________________________________________________
dense_950 (Dense)            (None, 256)               131328    
_________________________________________________________________
batch_normalization_1261 (Ba (None, 256)               1024      
_________________________________________________________________
activation_1705 (Activation) (None, 256)               0         
_________________________________________________________________
dropout_1705 (Dropout)       (None, 256)               0         
_________________________________________________________________
dense_951 (Dense)            (None, 100)               25700     
=================================================================
Total params: 2,300,943
Trainable params: 2,298,383
Non-trainable params: 2,560
_________________________________________________________________
