Model: "sequential_482"
_________________________________________________________________
Layer (type)                 Output Shape              Param #   
=================================================================
separable_conv2d_1295 (Separ (None, 32, 32, 512)       2075      
_________________________________________________________________
batch_normalization_1355 (Ba (None, 32, 32, 512)       2048      
_________________________________________________________________
activation_1847 (Activation) (None, 32, 32, 512)       0         
_________________________________________________________________
dropout_1847 (Dropout)       (None, 32, 32, 512)       0         
_________________________________________________________________
max_pooling2d_515 (MaxPoolin (None, 16, 16, 512)       0         
_________________________________________________________________
separable_conv2d_1296 (Separ (None, 16, 16, 64)        37440     
_________________________________________________________________
batch_normalization_1356 (Ba (None, 16, 16, 64)        256       
_________________________________________________________________
activation_1848 (Activation) (None, 16, 16, 64)        0         
_________________________________________________________________
dropout_1848 (Dropout)       (None, 16, 16, 64)        0         
_________________________________________________________________
separable_conv2d_1297 (Separ (None, 16, 16, 16)        1616      
_________________________________________________________________
activation_1849 (Activation) (None, 16, 16, 16)        0         
_________________________________________________________________
dropout_1849 (Dropout)       (None, 16, 16, 16)        0         
_________________________________________________________________
flatten_482 (Flatten)        (None, 4096)              0         
_________________________________________________________________
dense_1034 (Dense)           (None, 128)               524416    
_________________________________________________________________
batch_normalization_1357 (Ba (None, 128)               512       
_________________________________________________________________
activation_1850 (Activation) (None, 128)               0         
_________________________________________________________________
dropout_1850 (Dropout)       (None, 128)               0         
_________________________________________________________________
dense_1035 (Dense)           (None, 256)               33024     
_________________________________________________________________
batch_normalization_1358 (Ba (None, 256)               1024      
_________________________________________________________________
activation_1851 (Activation) (None, 256)               0         
_________________________________________________________________
dropout_1851 (Dropout)       (None, 256)               0         
_________________________________________________________________
dense_1036 (Dense)           (None, 100)               25700     
=================================================================
Total params: 628,111
Trainable params: 626,191
Non-trainable params: 1,920
_________________________________________________________________
