Model: "sequential_48"
_________________________________________________________________
Layer (type)                 Output Shape              Param #   
=================================================================
separable_conv2d_118 (Separa (None, 32, 32, 32)        155       
_________________________________________________________________
activation_162 (Activation)  (None, 32, 32, 32)        0         
_________________________________________________________________
dropout_162 (Dropout)        (None, 32, 32, 32)        0         
_________________________________________________________________
flatten_48 (Flatten)         (None, 32768)             0         
_________________________________________________________________
dense_92 (Dense)             (None, 256)               8388864   
_________________________________________________________________
batch_normalization_100 (Bat (None, 256)               1024      
_________________________________________________________________
activation_163 (Activation)  (None, 256)               0         
_________________________________________________________________
dropout_163 (Dropout)        (None, 256)               0         
_________________________________________________________________
dense_93 (Dense)             (None, 100)               25700     
=================================================================
Total params: 8,415,743
Trainable params: 8,415,231
Non-trainable params: 512
_________________________________________________________________
