Model: "sequential_131"
_________________________________________________________________
Layer (type)                 Output Shape              Param #   
=================================================================
separable_conv2d_309 (Separa (None, 32, 32, 512)       2075      
_________________________________________________________________
batch_normalization_307 (Bat (None, 32, 32, 512)       2048      
_________________________________________________________________
activation_421 (Activation)  (None, 32, 32, 512)       0         
_________________________________________________________________
dropout_421 (Dropout)        (None, 32, 32, 512)       0         
_________________________________________________________________
separable_conv2d_310 (Separa (None, 32, 32, 64)        37440     
_________________________________________________________________
batch_normalization_308 (Bat (None, 32, 32, 64)        256       
_________________________________________________________________
activation_422 (Activation)  (None, 32, 32, 64)        0         
_________________________________________________________________
dropout_422 (Dropout)        (None, 32, 32, 64)        0         
_________________________________________________________________
max_pooling2d_104 (MaxPoolin (None, 16, 16, 64)        0         
_________________________________________________________________
separable_conv2d_311 (Separa (None, 16, 16, 16)        1616      
_________________________________________________________________
activation_423 (Activation)  (None, 16, 16, 16)        0         
_________________________________________________________________
dropout_423 (Dropout)        (None, 16, 16, 16)        0         
_________________________________________________________________
flatten_131 (Flatten)        (None, 4096)              0         
_________________________________________________________________
dense_243 (Dense)            (None, 512)               2097664   
_________________________________________________________________
batch_normalization_309 (Bat (None, 512)               2048      
_________________________________________________________________
activation_424 (Activation)  (None, 512)               0         
_________________________________________________________________
dropout_424 (Dropout)        (None, 512)               0         
_________________________________________________________________
dense_244 (Dense)            (None, 256)               131328    
_________________________________________________________________
batch_normalization_310 (Bat (None, 256)               1024      
_________________________________________________________________
activation_425 (Activation)  (None, 256)               0         
_________________________________________________________________
dropout_425 (Dropout)        (None, 256)               0         
_________________________________________________________________
dense_245 (Dense)            (None, 100)               25700     
=================================================================
Total params: 2,301,199
Trainable params: 2,298,511
Non-trainable params: 2,688
_________________________________________________________________
