Model: "sequential_163"
_________________________________________________________________
Layer (type)                 Output Shape              Param #   
=================================================================
separable_conv2d_395 (Separa (None, 32, 32, 256)       1051      
_________________________________________________________________
batch_normalization_407 (Bat (None, 32, 32, 256)       1024      
_________________________________________________________________
activation_546 (Activation)  (None, 32, 32, 256)       0         
_________________________________________________________________
dropout_546 (Dropout)        (None, 32, 32, 256)       0         
_________________________________________________________________
max_pooling2d_139 (MaxPoolin (None, 16, 16, 256)       0         
_________________________________________________________________
separable_conv2d_396 (Separa (None, 16, 16, 128)       35200     
_________________________________________________________________
batch_normalization_408 (Bat (None, 16, 16, 128)       512       
_________________________________________________________________
activation_547 (Activation)  (None, 16, 16, 128)       0         
_________________________________________________________________
dropout_547 (Dropout)        (None, 16, 16, 128)       0         
_________________________________________________________________
flatten_163 (Flatten)        (None, 32768)             0         
_________________________________________________________________
dense_314 (Dense)            (None, 128)               4194432   
_________________________________________________________________
batch_normalization_409 (Bat (None, 128)               512       
_________________________________________________________________
activation_548 (Activation)  (None, 128)               0         
_________________________________________________________________
dropout_548 (Dropout)        (None, 128)               0         
_________________________________________________________________
dense_315 (Dense)            (None, 100)               12900     
=================================================================
Total params: 4,245,631
Trainable params: 4,244,607
Non-trainable params: 1,024
_________________________________________________________________
