Model: "sequential_162"
_________________________________________________________________
Layer (type)                 Output Shape              Param #   
=================================================================
separable_conv2d_392 (Separa (None, 32, 32, 512)       2075      
_________________________________________________________________
batch_normalization_403 (Bat (None, 32, 32, 512)       2048      
_________________________________________________________________
activation_541 (Activation)  (None, 32, 32, 512)       0         
_________________________________________________________________
dropout_541 (Dropout)        (None, 32, 32, 512)       0         
_________________________________________________________________
separable_conv2d_393 (Separa (None, 32, 32, 64)        37440     
_________________________________________________________________
batch_normalization_404 (Bat (None, 32, 32, 64)        256       
_________________________________________________________________
activation_542 (Activation)  (None, 32, 32, 64)        0         
_________________________________________________________________
dropout_542 (Dropout)        (None, 32, 32, 64)        0         
_________________________________________________________________
max_pooling2d_138 (MaxPoolin (None, 16, 16, 64)        0         
_________________________________________________________________
separable_conv2d_394 (Separa (None, 16, 16, 64)        4736      
_________________________________________________________________
activation_543 (Activation)  (None, 16, 16, 64)        0         
_________________________________________________________________
dropout_543 (Dropout)        (None, 16, 16, 64)        0         
_________________________________________________________________
flatten_162 (Flatten)        (None, 16384)             0         
_________________________________________________________________
dense_311 (Dense)            (None, 512)               8389120   
_________________________________________________________________
batch_normalization_405 (Bat (None, 512)               2048      
_________________________________________________________________
activation_544 (Activation)  (None, 512)               0         
_________________________________________________________________
dropout_544 (Dropout)        (None, 512)               0         
_________________________________________________________________
dense_312 (Dense)            (None, 256)               131328    
_________________________________________________________________
batch_normalization_406 (Bat (None, 256)               1024      
_________________________________________________________________
activation_545 (Activation)  (None, 256)               0         
_________________________________________________________________
dropout_545 (Dropout)        (None, 256)               0         
_________________________________________________________________
dense_313 (Dense)            (None, 100)               25700     
=================================================================
Total params: 8,595,775
Trainable params: 8,593,087
Non-trainable params: 2,688
_________________________________________________________________
