Model: "sequential_211"
_________________________________________________________________
Layer (type)                 Output Shape              Param #   
=================================================================
separable_conv2d_523 (Separa (None, 32, 32, 512)       2075      
_________________________________________________________________
batch_normalization_553 (Bat (None, 32, 32, 512)       2048      
_________________________________________________________________
activation_726 (Activation)  (None, 32, 32, 512)       0         
_________________________________________________________________
dropout_726 (Dropout)        (None, 32, 32, 512)       0         
_________________________________________________________________
separable_conv2d_524 (Separa (None, 32, 32, 64)        37440     
_________________________________________________________________
batch_normalization_554 (Bat (None, 32, 32, 64)        256       
_________________________________________________________________
activation_727 (Activation)  (None, 32, 32, 64)        0         
_________________________________________________________________
dropout_727 (Dropout)        (None, 32, 32, 64)        0         
_________________________________________________________________
max_pooling2d_197 (MaxPoolin (None, 16, 16, 64)        0         
_________________________________________________________________
separable_conv2d_525 (Separa (None, 16, 16, 64)        4736      
_________________________________________________________________
activation_728 (Activation)  (None, 16, 16, 64)        0         
_________________________________________________________________
dropout_728 (Dropout)        (None, 16, 16, 64)        0         
_________________________________________________________________
flatten_211 (Flatten)        (None, 16384)             0         
_________________________________________________________________
dense_414 (Dense)            (None, 512)               8389120   
_________________________________________________________________
batch_normalization_555 (Bat (None, 512)               2048      
_________________________________________________________________
activation_729 (Activation)  (None, 512)               0         
_________________________________________________________________
dropout_729 (Dropout)        (None, 512)               0         
_________________________________________________________________
dense_415 (Dense)            (None, 256)               131328    
_________________________________________________________________
batch_normalization_556 (Bat (None, 256)               1024      
_________________________________________________________________
activation_730 (Activation)  (None, 256)               0         
_________________________________________________________________
dropout_730 (Dropout)        (None, 256)               0         
_________________________________________________________________
dense_416 (Dense)            (None, 100)               25700     
=================================================================
Total params: 8,595,775
Trainable params: 8,593,087
Non-trainable params: 2,688
_________________________________________________________________
