Model: "sequential_554"
_________________________________________________________________
Layer (type)                 Output Shape              Param #   
=================================================================
separable_conv2d_1507 (Separ (None, 32, 32, 512)       2075      
_________________________________________________________________
batch_normalization_1598 (Ba (None, 32, 32, 512)       2048      
_________________________________________________________________
activation_2180 (Activation) (None, 32, 32, 512)       0         
_________________________________________________________________
dropout_2180 (Dropout)       (None, 32, 32, 512)       0         
_________________________________________________________________
separable_conv2d_1508 (Separ (None, 32, 32, 32)        21024     
_________________________________________________________________
batch_normalization_1599 (Ba (None, 32, 32, 32)        128       
_________________________________________________________________
activation_2181 (Activation) (None, 32, 32, 32)        0         
_________________________________________________________________
dropout_2181 (Dropout)       (None, 32, 32, 32)        0         
_________________________________________________________________
separable_conv2d_1509 (Separ (None, 32, 32, 16)        816       
_________________________________________________________________
activation_2182 (Activation) (None, 32, 32, 16)        0         
_________________________________________________________________
dropout_2182 (Dropout)       (None, 32, 32, 16)        0         
_________________________________________________________________
flatten_554 (Flatten)        (None, 16384)             0         
_________________________________________________________________
dense_1227 (Dense)           (None, 512)               8389120   
_________________________________________________________________
batch_normalization_1600 (Ba (None, 512)               2048      
_________________________________________________________________
activation_2183 (Activation) (None, 512)               0         
_________________________________________________________________
dropout_2183 (Dropout)       (None, 512)               0         
_________________________________________________________________
dense_1228 (Dense)           (None, 100)               51300     
=================================================================
Total params: 8,468,559
Trainable params: 8,466,447
Non-trainable params: 2,112
_________________________________________________________________
