Model: "sequential_144"
_________________________________________________________________
Layer (type)                 Output Shape              Param #   
=================================================================
separable_conv2d_343 (Separa (None, 32, 32, 256)       1051      
_________________________________________________________________
batch_normalization_346 (Bat (None, 32, 32, 256)       1024      
_________________________________________________________________
activation_470 (Activation)  (None, 32, 32, 256)       0         
_________________________________________________________________
dropout_470 (Dropout)        (None, 32, 32, 256)       0         
_________________________________________________________________
max_pooling2d_119 (MaxPoolin (None, 16, 16, 256)       0         
_________________________________________________________________
separable_conv2d_344 (Separa (None, 16, 16, 128)       35200     
_________________________________________________________________
batch_normalization_347 (Bat (None, 16, 16, 128)       512       
_________________________________________________________________
activation_471 (Activation)  (None, 16, 16, 128)       0         
_________________________________________________________________
dropout_471 (Dropout)        (None, 16, 16, 128)       0         
_________________________________________________________________
flatten_144 (Flatten)        (None, 32768)             0         
_________________________________________________________________
dense_271 (Dense)            (None, 128)               4194432   
_________________________________________________________________
batch_normalization_348 (Bat (None, 128)               512       
_________________________________________________________________
activation_472 (Activation)  (None, 128)               0         
_________________________________________________________________
dropout_472 (Dropout)        (None, 128)               0         
_________________________________________________________________
dense_272 (Dense)            (None, 100)               12900     
=================================================================
Total params: 4,245,631
Trainable params: 4,244,607
Non-trainable params: 1,024
_________________________________________________________________
