Model: "sequential_264"
_________________________________________________________________
Layer (type)                 Output Shape              Param #   
=================================================================
separable_conv2d_669 (Separa (None, 32, 32, 512)       2075      
_________________________________________________________________
batch_normalization_723 (Bat (None, 32, 32, 512)       2048      
_________________________________________________________________
activation_937 (Activation)  (None, 32, 32, 512)       0         
_________________________________________________________________
dropout_937 (Dropout)        (None, 32, 32, 512)       0         
_________________________________________________________________
max_pooling2d_259 (MaxPoolin (None, 16, 16, 512)       0         
_________________________________________________________________
separable_conv2d_670 (Separa (None, 16, 16, 128)       70272     
_________________________________________________________________
batch_normalization_724 (Bat (None, 16, 16, 128)       512       
_________________________________________________________________
activation_938 (Activation)  (None, 16, 16, 128)       0         
_________________________________________________________________
dropout_938 (Dropout)        (None, 16, 16, 128)       0         
_________________________________________________________________
flatten_264 (Flatten)        (None, 32768)             0         
_________________________________________________________________
dense_532 (Dense)            (None, 128)               4194432   
_________________________________________________________________
batch_normalization_725 (Bat (None, 128)               512       
_________________________________________________________________
activation_939 (Activation)  (None, 128)               0         
_________________________________________________________________
dropout_939 (Dropout)        (None, 128)               0         
_________________________________________________________________
dense_533 (Dense)            (None, 100)               12900     
=================================================================
Total params: 4,282,751
Trainable params: 4,281,215
Non-trainable params: 1,536
_________________________________________________________________
