Model: "sequential_354"
_________________________________________________________________
Layer (type)                 Output Shape              Param #   
=================================================================
separable_conv2d_924 (Separa (None, 32, 32, 512)       2075      
_________________________________________________________________
batch_normalization_983 (Bat (None, 32, 32, 512)       2048      
_________________________________________________________________
activation_1288 (Activation) (None, 32, 32, 512)       0         
_________________________________________________________________
dropout_1288 (Dropout)       (None, 32, 32, 512)       0         
_________________________________________________________________
max_pooling2d_368 (MaxPoolin (None, 16, 16, 512)       0         
_________________________________________________________________
separable_conv2d_925 (Separa (None, 16, 16, 64)        37440     
_________________________________________________________________
activation_1289 (Activation) (None, 16, 16, 64)        0         
_________________________________________________________________
dropout_1289 (Dropout)       (None, 16, 16, 64)        0         
_________________________________________________________________
max_pooling2d_369 (MaxPoolin (None, 8, 8, 64)          0         
_________________________________________________________________
separable_conv2d_926 (Separa (None, 8, 8, 16)          1616      
_________________________________________________________________
activation_1290 (Activation) (None, 8, 8, 16)          0         
_________________________________________________________________
dropout_1290 (Dropout)       (None, 8, 8, 16)          0         
_________________________________________________________________
flatten_354 (Flatten)        (None, 1024)              0         
_________________________________________________________________
dense_718 (Dense)            (None, 128)               131200    
_________________________________________________________________
batch_normalization_984 (Bat (None, 128)               512       
_________________________________________________________________
activation_1291 (Activation) (None, 128)               0         
_________________________________________________________________
dropout_1291 (Dropout)       (None, 128)               0         
_________________________________________________________________
dense_719 (Dense)            (None, 100)               12900     
=================================================================
Total params: 187,791
Trainable params: 186,511
Non-trainable params: 1,280
_________________________________________________________________
