Model: "sequential_96"
_________________________________________________________________
Layer (type)                 Output Shape              Param #   
=================================================================
separable_conv2d_225 (Separa (None, 32, 32, 256)       1051      
_________________________________________________________________
batch_normalization_211 (Bat (None, 32, 32, 256)       1024      
_________________________________________________________________
activation_303 (Activation)  (None, 32, 32, 256)       0         
_________________________________________________________________
dropout_303 (Dropout)        (None, 32, 32, 256)       0         
_________________________________________________________________
separable_conv2d_226 (Separa (None, 32, 32, 64)        18752     
_________________________________________________________________
batch_normalization_212 (Bat (None, 32, 32, 64)        256       
_________________________________________________________________
activation_304 (Activation)  (None, 32, 32, 64)        0         
_________________________________________________________________
dropout_304 (Dropout)        (None, 32, 32, 64)        0         
_________________________________________________________________
max_pooling2d_71 (MaxPooling (None, 16, 16, 64)        0         
_________________________________________________________________
separable_conv2d_227 (Separa (None, 16, 16, 16)        1616      
_________________________________________________________________
activation_305 (Activation)  (None, 16, 16, 16)        0         
_________________________________________________________________
dropout_305 (Dropout)        (None, 16, 16, 16)        0         
_________________________________________________________________
flatten_96 (Flatten)         (None, 4096)              0         
_________________________________________________________________
dense_174 (Dense)            (None, 512)               2097664   
_________________________________________________________________
batch_normalization_213 (Bat (None, 512)               2048      
_________________________________________________________________
activation_306 (Activation)  (None, 512)               0         
_________________________________________________________________
dropout_306 (Dropout)        (None, 512)               0         
_________________________________________________________________
dense_175 (Dense)            (None, 256)               131328    
_________________________________________________________________
batch_normalization_214 (Bat (None, 256)               1024      
_________________________________________________________________
activation_307 (Activation)  (None, 256)               0         
_________________________________________________________________
dropout_307 (Dropout)        (None, 256)               0         
_________________________________________________________________
dense_176 (Dense)            (None, 100)               25700     
=================================================================
Total params: 2,280,463
Trainable params: 2,278,287
Non-trainable params: 2,176
_________________________________________________________________
