Model: "sequential_431"
_________________________________________________________________
Layer (type)                 Output Shape              Param #   
=================================================================
separable_conv2d_1147 (Separ (None, 32, 32, 512)       2075      
_________________________________________________________________
batch_normalization_1199 (Ba (None, 32, 32, 512)       2048      
_________________________________________________________________
activation_1615 (Activation) (None, 32, 32, 512)       0         
_________________________________________________________________
dropout_1615 (Dropout)       (None, 32, 32, 512)       0         
_________________________________________________________________
max_pooling2d_460 (MaxPoolin (None, 16, 16, 512)       0         
_________________________________________________________________
separable_conv2d_1148 (Separ (None, 16, 16, 64)        37440     
_________________________________________________________________
batch_normalization_1200 (Ba (None, 16, 16, 64)        256       
_________________________________________________________________
activation_1616 (Activation) (None, 16, 16, 64)        0         
_________________________________________________________________
dropout_1616 (Dropout)       (None, 16, 16, 64)        0         
_________________________________________________________________
separable_conv2d_1149 (Separ (None, 16, 16, 16)        1616      
_________________________________________________________________
activation_1617 (Activation) (None, 16, 16, 16)        0         
_________________________________________________________________
dropout_1617 (Dropout)       (None, 16, 16, 16)        0         
_________________________________________________________________
flatten_431 (Flatten)        (None, 4096)              0         
_________________________________________________________________
dense_899 (Dense)            (None, 100)               409700    
=================================================================
Total params: 453,135
Trainable params: 451,983
Non-trainable params: 1,152
_________________________________________________________________
