Model: "sequential_513"
_________________________________________________________________
Layer (type)                 Output Shape              Param #   
=================================================================
separable_conv2d_1386 (Separ (None, 32, 32, 256)       1051      
_________________________________________________________________
batch_normalization_1465 (Ba (None, 32, 32, 256)       1024      
_________________________________________________________________
activation_1991 (Activation) (None, 32, 32, 256)       0         
_________________________________________________________________
dropout_1991 (Dropout)       (None, 32, 32, 256)       0         
_________________________________________________________________
max_pooling2d_551 (MaxPoolin (None, 16, 16, 256)       0         
_________________________________________________________________
separable_conv2d_1387 (Separ (None, 16, 16, 128)       35200     
_________________________________________________________________
batch_normalization_1466 (Ba (None, 16, 16, 128)       512       
_________________________________________________________________
activation_1992 (Activation) (None, 16, 16, 128)       0         
_________________________________________________________________
dropout_1992 (Dropout)       (None, 16, 16, 128)       0         
_________________________________________________________________
separable_conv2d_1388 (Separ (None, 16, 16, 16)        3216      
_________________________________________________________________
activation_1993 (Activation) (None, 16, 16, 16)        0         
_________________________________________________________________
dropout_1993 (Dropout)       (None, 16, 16, 16)        0         
_________________________________________________________________
flatten_513 (Flatten)        (None, 4096)              0         
_________________________________________________________________
dense_1118 (Dense)           (None, 128)               524416    
_________________________________________________________________
activation_1994 (Activation) (None, 128)               0         
_________________________________________________________________
dropout_1994 (Dropout)       (None, 128)               0         
_________________________________________________________________
dense_1119 (Dense)           (None, 100)               12900     
=================================================================
Total params: 578,319
Trainable params: 577,551
Non-trainable params: 768
_________________________________________________________________
