Model: "sequential_7"
_________________________________________________________________
Layer (type)                 Output Shape              Param #   
=================================================================
separable_conv2d_17 (Separab (None, 32, 32, 256)       1051      
_________________________________________________________________
batch_normalization_16 (Batc (None, 32, 32, 256)       1024      
_________________________________________________________________
activation_23 (Activation)   (None, 32, 32, 256)       0         
_________________________________________________________________
dropout_23 (Dropout)         (None, 32, 32, 256)       0         
_________________________________________________________________
max_pooling2d_6 (MaxPooling2 (None, 16, 16, 256)       0         
_________________________________________________________________
separable_conv2d_18 (Separab (None, 16, 16, 128)       35200     
_________________________________________________________________
batch_normalization_17 (Batc (None, 16, 16, 128)       512       
_________________________________________________________________
activation_24 (Activation)   (None, 16, 16, 128)       0         
_________________________________________________________________
dropout_24 (Dropout)         (None, 16, 16, 128)       0         
_________________________________________________________________
flatten_7 (Flatten)          (None, 32768)             0         
_________________________________________________________________
dense_13 (Dense)             (None, 512)               16777728  
_________________________________________________________________
batch_normalization_18 (Batc (None, 512)               2048      
_________________________________________________________________
activation_25 (Activation)   (None, 512)               0         
_________________________________________________________________
dropout_25 (Dropout)         (None, 512)               0         
_________________________________________________________________
dense_14 (Dense)             (None, 256)               131328    
_________________________________________________________________
batch_normalization_19 (Batc (None, 256)               1024      
_________________________________________________________________
activation_26 (Activation)   (None, 256)               0         
_________________________________________________________________
dropout_26 (Dropout)         (None, 256)               0         
_________________________________________________________________
dense_15 (Dense)             (None, 100)               25700     
=================================================================
Total params: 16,975,615
Trainable params: 16,973,311
Non-trainable params: 2,304
_________________________________________________________________
