Model: "sequential_50"
_________________________________________________________________
Layer (type)                 Output Shape              Param #   
=================================================================
separable_conv2d_120 (Separa (None, 32, 32, 256)       1051      
_________________________________________________________________
batch_normalization_102 (Bat (None, 32, 32, 256)       1024      
_________________________________________________________________
activation_165 (Activation)  (None, 32, 32, 256)       0         
_________________________________________________________________
dropout_165 (Dropout)        (None, 32, 32, 256)       0         
_________________________________________________________________
max_pooling2d_38 (MaxPooling (None, 16, 16, 256)       0         
_________________________________________________________________
separable_conv2d_121 (Separa (None, 16, 16, 128)       35200     
_________________________________________________________________
batch_normalization_103 (Bat (None, 16, 16, 128)       512       
_________________________________________________________________
activation_166 (Activation)  (None, 16, 16, 128)       0         
_________________________________________________________________
dropout_166 (Dropout)        (None, 16, 16, 128)       0         
_________________________________________________________________
flatten_50 (Flatten)         (None, 32768)             0         
_________________________________________________________________
dense_95 (Dense)             (None, 256)               8388864   
_________________________________________________________________
batch_normalization_104 (Bat (None, 256)               1024      
_________________________________________________________________
activation_167 (Activation)  (None, 256)               0         
_________________________________________________________________
dropout_167 (Dropout)        (None, 256)               0         
_________________________________________________________________
dense_96 (Dense)             (None, 100)               25700     
=================================================================
Total params: 8,453,375
Trainable params: 8,452,095
Non-trainable params: 1,280
_________________________________________________________________
