Model: "sequential_291"
_________________________________________________________________
Layer (type)                 Output Shape              Param #   
=================================================================
separable_conv2d_743 (Separa (None, 32, 32, 512)       2075      
_________________________________________________________________
batch_normalization_807 (Bat (None, 32, 32, 512)       2048      
_________________________________________________________________
activation_1043 (Activation) (None, 32, 32, 512)       0         
_________________________________________________________________
dropout_1043 (Dropout)       (None, 32, 32, 512)       0         
_________________________________________________________________
separable_conv2d_744 (Separa (None, 32, 32, 128)       70272     
_________________________________________________________________
batch_normalization_808 (Bat (None, 32, 32, 128)       512       
_________________________________________________________________
activation_1044 (Activation) (None, 32, 32, 128)       0         
_________________________________________________________________
dropout_1044 (Dropout)       (None, 32, 32, 128)       0         
_________________________________________________________________
max_pooling2d_290 (MaxPoolin (None, 16, 16, 128)       0         
_________________________________________________________________
separable_conv2d_745 (Separa (None, 16, 16, 16)        3216      
_________________________________________________________________
activation_1045 (Activation) (None, 16, 16, 16)        0         
_________________________________________________________________
dropout_1045 (Dropout)       (None, 16, 16, 16)        0         
_________________________________________________________________
separable_conv2d_746 (Separa (None, 16, 16, 128)       2320      
_________________________________________________________________
activation_1046 (Activation) (None, 16, 16, 128)       0         
_________________________________________________________________
dropout_1046 (Dropout)       (None, 16, 16, 128)       0         
_________________________________________________________________
max_pooling2d_291 (MaxPoolin (None, 8, 8, 128)         0         
_________________________________________________________________
flatten_291 (Flatten)        (None, 8192)              0         
_________________________________________________________________
dense_591 (Dense)            (None, 100)               819300    
=================================================================
Total params: 899,743
Trainable params: 898,463
Non-trainable params: 1,280
_________________________________________________________________
