Model: "sequential_180"
_________________________________________________________________
Layer (type)                 Output Shape              Param #   
=================================================================
separable_conv2d_440 (Separa (None, 32, 32, 256)       1051      
_________________________________________________________________
batch_normalization_456 (Bat (None, 32, 32, 256)       1024      
_________________________________________________________________
activation_608 (Activation)  (None, 32, 32, 256)       0         
_________________________________________________________________
dropout_608 (Dropout)        (None, 32, 32, 256)       0         
_________________________________________________________________
max_pooling2d_159 (MaxPoolin (None, 16, 16, 256)       0         
_________________________________________________________________
separable_conv2d_441 (Separa (None, 16, 16, 128)       35200     
_________________________________________________________________
batch_normalization_457 (Bat (None, 16, 16, 128)       512       
_________________________________________________________________
activation_609 (Activation)  (None, 16, 16, 128)       0         
_________________________________________________________________
dropout_609 (Dropout)        (None, 16, 16, 128)       0         
_________________________________________________________________
separable_conv2d_442 (Separa (None, 16, 16, 16)        3216      
_________________________________________________________________
activation_610 (Activation)  (None, 16, 16, 16)        0         
_________________________________________________________________
dropout_610 (Dropout)        (None, 16, 16, 16)        0         
_________________________________________________________________
flatten_180 (Flatten)        (None, 4096)              0         
_________________________________________________________________
dense_348 (Dense)            (None, 256)               1048832   
_________________________________________________________________
batch_normalization_458 (Bat (None, 256)               1024      
_________________________________________________________________
activation_611 (Activation)  (None, 256)               0         
_________________________________________________________________
dropout_611 (Dropout)        (None, 256)               0         
_________________________________________________________________
dense_349 (Dense)            (None, 100)               25700     
=================================================================
Total params: 1,116,559
Trainable params: 1,115,279
Non-trainable params: 1,280
_________________________________________________________________
