Model: "sequential_81"
_________________________________________________________________
Layer (type)                 Output Shape              Param #   
=================================================================
separable_conv2d_190 (Separa (None, 32, 32, 256)       1051      
_________________________________________________________________
batch_normalization_172 (Bat (None, 32, 32, 256)       1024      
_________________________________________________________________
activation_256 (Activation)  (None, 32, 32, 256)       0         
_________________________________________________________________
dropout_256 (Dropout)        (None, 32, 32, 256)       0         
_________________________________________________________________
separable_conv2d_191 (Separa (None, 32, 32, 64)        18752     
_________________________________________________________________
batch_normalization_173 (Bat (None, 32, 32, 64)        256       
_________________________________________________________________
activation_257 (Activation)  (None, 32, 32, 64)        0         
_________________________________________________________________
dropout_257 (Dropout)        (None, 32, 32, 64)        0         
_________________________________________________________________
max_pooling2d_59 (MaxPooling (None, 16, 16, 64)        0         
_________________________________________________________________
separable_conv2d_192 (Separa (None, 16, 16, 16)        1616      
_________________________________________________________________
activation_258 (Activation)  (None, 16, 16, 16)        0         
_________________________________________________________________
dropout_258 (Dropout)        (None, 16, 16, 16)        0         
_________________________________________________________________
flatten_81 (Flatten)         (None, 4096)              0         
_________________________________________________________________
dense_147 (Dense)            (None, 256)               1048832   
_________________________________________________________________
batch_normalization_174 (Bat (None, 256)               1024      
_________________________________________________________________
activation_259 (Activation)  (None, 256)               0         
_________________________________________________________________
dropout_259 (Dropout)        (None, 256)               0         
_________________________________________________________________
dense_148 (Dense)            (None, 100)               25700     
=================================================================
Total params: 1,098,255
Trainable params: 1,097,103
Non-trainable params: 1,152
_________________________________________________________________
