Model: "sequential_386"
_________________________________________________________________
Layer (type)                 Output Shape              Param #   
=================================================================
separable_conv2d_1015 (Separ (None, 32, 32, 512)       2075      
_________________________________________________________________
batch_normalization_1065 (Ba (None, 32, 32, 512)       2048      
_________________________________________________________________
activation_1413 (Activation) (None, 32, 32, 512)       0         
_________________________________________________________________
dropout_1413 (Dropout)       (None, 32, 32, 512)       0         
_________________________________________________________________
max_pooling2d_408 (MaxPoolin (None, 16, 16, 512)       0         
_________________________________________________________________
separable_conv2d_1016 (Separ (None, 16, 16, 64)        37440     
_________________________________________________________________
batch_normalization_1066 (Ba (None, 16, 16, 64)        256       
_________________________________________________________________
activation_1414 (Activation) (None, 16, 16, 64)        0         
_________________________________________________________________
dropout_1414 (Dropout)       (None, 16, 16, 64)        0         
_________________________________________________________________
max_pooling2d_409 (MaxPoolin (None, 8, 8, 64)          0         
_________________________________________________________________
separable_conv2d_1017 (Separ (None, 8, 8, 16)          1616      
_________________________________________________________________
activation_1415 (Activation) (None, 8, 8, 16)          0         
_________________________________________________________________
dropout_1415 (Dropout)       (None, 8, 8, 16)          0         
_________________________________________________________________
flatten_386 (Flatten)        (None, 1024)              0         
_________________________________________________________________
dense_784 (Dense)            (None, 512)               524800    
_________________________________________________________________
batch_normalization_1067 (Ba (None, 512)               2048      
_________________________________________________________________
activation_1416 (Activation) (None, 512)               0         
_________________________________________________________________
dropout_1416 (Dropout)       (None, 512)               0         
_________________________________________________________________
dense_785 (Dense)            (None, 16)                8208      
_________________________________________________________________
batch_normalization_1068 (Ba (None, 16)                64        
_________________________________________________________________
activation_1417 (Activation) (None, 16)                0         
_________________________________________________________________
dropout_1417 (Dropout)       (None, 16)                0         
_________________________________________________________________
dense_786 (Dense)            (None, 100)               1700      
=================================================================
Total params: 580,255
Trainable params: 578,047
Non-trainable params: 2,208
_________________________________________________________________
