Model: "sequential_535"
_________________________________________________________________
Layer (type)                 Output Shape              Param #   
=================================================================
separable_conv2d_1450 (Separ (None, 32, 32, 512)       2075      
_________________________________________________________________
activation_2090 (Activation) (None, 32, 32, 512)       0         
_________________________________________________________________
dropout_2090 (Dropout)       (None, 32, 32, 512)       0         
_________________________________________________________________
separable_conv2d_1451 (Separ (None, 32, 32, 256)       135936    
_________________________________________________________________
batch_normalization_1534 (Ba (None, 32, 32, 256)       1024      
_________________________________________________________________
activation_2091 (Activation) (None, 32, 32, 256)       0         
_________________________________________________________________
dropout_2091 (Dropout)       (None, 32, 32, 256)       0         
_________________________________________________________________
max_pooling2d_570 (MaxPoolin (None, 16, 16, 256)       0         
_________________________________________________________________
separable_conv2d_1452 (Separ (None, 16, 16, 16)        6416      
_________________________________________________________________
activation_2092 (Activation) (None, 16, 16, 16)        0         
_________________________________________________________________
dropout_2092 (Dropout)       (None, 16, 16, 16)        0         
_________________________________________________________________
flatten_535 (Flatten)        (None, 4096)              0         
_________________________________________________________________
dense_1175 (Dense)           (None, 32)                131104    
_________________________________________________________________
batch_normalization_1535 (Ba (None, 32)                128       
_________________________________________________________________
activation_2093 (Activation) (None, 32)                0         
_________________________________________________________________
dropout_2093 (Dropout)       (None, 32)                0         
_________________________________________________________________
dense_1176 (Dense)           (None, 256)               8448      
_________________________________________________________________
batch_normalization_1536 (Ba (None, 256)               1024      
_________________________________________________________________
activation_2094 (Activation) (None, 256)               0         
_________________________________________________________________
dropout_2094 (Dropout)       (None, 256)               0         
_________________________________________________________________
dense_1177 (Dense)           (None, 100)               25700     
=================================================================
Total params: 311,855
Trainable params: 310,767
Non-trainable params: 1,088
_________________________________________________________________
