Model: "sequential_348"
_________________________________________________________________
Layer (type)                 Output Shape              Param #   
=================================================================
separable_conv2d_908 (Separa (None, 32, 32, 256)       1051      
_________________________________________________________________
batch_normalization_967 (Bat (None, 32, 32, 256)       1024      
_________________________________________________________________
activation_1266 (Activation) (None, 32, 32, 256)       0         
_________________________________________________________________
dropout_1266 (Dropout)       (None, 32, 32, 256)       0         
_________________________________________________________________
separable_conv2d_909 (Separa (None, 32, 32, 128)       35200     
_________________________________________________________________
batch_normalization_968 (Bat (None, 32, 32, 128)       512       
_________________________________________________________________
activation_1267 (Activation) (None, 32, 32, 128)       0         
_________________________________________________________________
dropout_1267 (Dropout)       (None, 32, 32, 128)       0         
_________________________________________________________________
separable_conv2d_910 (Separa (None, 32, 32, 64)        9408      
_________________________________________________________________
activation_1268 (Activation) (None, 32, 32, 64)        0         
_________________________________________________________________
dropout_1268 (Dropout)       (None, 32, 32, 64)        0         
_________________________________________________________________
flatten_348 (Flatten)        (None, 65536)             0         
_________________________________________________________________
dense_706 (Dense)            (None, 512)               33554944  
_________________________________________________________________
batch_normalization_969 (Bat (None, 512)               2048      
_________________________________________________________________
activation_1269 (Activation) (None, 512)               0         
_________________________________________________________________
dropout_1269 (Dropout)       (None, 512)               0         
_________________________________________________________________
dense_707 (Dense)            (None, 256)               131328    
_________________________________________________________________
batch_normalization_970 (Bat (None, 256)               1024      
_________________________________________________________________
activation_1270 (Activation) (None, 256)               0         
_________________________________________________________________
dropout_1270 (Dropout)       (None, 256)               0         
_________________________________________________________________
dense_708 (Dense)            (None, 100)               25700     
=================================================================
Total params: 33,762,239
Trainable params: 33,759,935
Non-trainable params: 2,304
_________________________________________________________________
