Model: "sequential_582"
_________________________________________________________________
Layer (type)                 Output Shape              Param #   
=================================================================
separable_conv2d_1590 (Separ (None, 32, 32, 256)       1051      
_________________________________________________________________
batch_normalization_1690 (Ba (None, 32, 32, 256)       1024      
_________________________________________________________________
activation_2303 (Activation) (None, 32, 32, 256)       0         
_________________________________________________________________
dropout_2303 (Dropout)       (None, 32, 32, 256)       0         
_________________________________________________________________
max_pooling2d_608 (MaxPoolin (None, 16, 16, 256)       0         
_________________________________________________________________
separable_conv2d_1591 (Separ (None, 16, 16, 64)        18752     
_________________________________________________________________
batch_normalization_1691 (Ba (None, 16, 16, 64)        256       
_________________________________________________________________
activation_2304 (Activation) (None, 16, 16, 64)        0         
_________________________________________________________________
dropout_2304 (Dropout)       (None, 16, 16, 64)        0         
_________________________________________________________________
separable_conv2d_1592 (Separ (None, 16, 16, 16)        1616      
_________________________________________________________________
activation_2305 (Activation) (None, 16, 16, 16)        0         
_________________________________________________________________
dropout_2305 (Dropout)       (None, 16, 16, 16)        0         
_________________________________________________________________
flatten_582 (Flatten)        (None, 4096)              0         
_________________________________________________________________
dense_1295 (Dense)           (None, 512)               2097664   
_________________________________________________________________
batch_normalization_1692 (Ba (None, 512)               2048      
_________________________________________________________________
activation_2306 (Activation) (None, 512)               0         
_________________________________________________________________
dropout_2306 (Dropout)       (None, 512)               0         
_________________________________________________________________
dense_1296 (Dense)           (None, 256)               131328    
_________________________________________________________________
batch_normalization_1693 (Ba (None, 256)               1024      
_________________________________________________________________
activation_2307 (Activation) (None, 256)               0         
_________________________________________________________________
dropout_2307 (Dropout)       (None, 256)               0         
_________________________________________________________________
dense_1297 (Dense)           (None, 100)               25700     
=================================================================
Total params: 2,280,463
Trainable params: 2,278,287
Non-trainable params: 2,176
_________________________________________________________________
