Model: "sequential_21"
_________________________________________________________________
Layer (type)                 Output Shape              Param #   
=================================================================
separable_conv2d_61 (Separab (None, 32, 32, 64)        283       
_________________________________________________________________
activation_79 (Activation)   (None, 32, 32, 64)        0         
_________________________________________________________________
dropout_79 (Dropout)         (None, 32, 32, 64)        0         
_________________________________________________________________
max_pooling2d_23 (MaxPooling (None, 16, 16, 64)        0         
_________________________________________________________________
separable_conv2d_62 (Separab (None, 16, 16, 1024)      67136     
_________________________________________________________________
batch_normalization_43 (Batc (None, 16, 16, 1024)      4096      
_________________________________________________________________
activation_80 (Activation)   (None, 16, 16, 1024)      0         
_________________________________________________________________
dropout_80 (Dropout)         (None, 16, 16, 1024)      0         
_________________________________________________________________
separable_conv2d_63 (Separab (None, 16, 16, 32)        42016     
_________________________________________________________________
batch_normalization_44 (Batc (None, 16, 16, 32)        128       
_________________________________________________________________
activation_81 (Activation)   (None, 16, 16, 32)        0         
_________________________________________________________________
dropout_81 (Dropout)         (None, 16, 16, 32)        0         
_________________________________________________________________
flatten_21 (Flatten)         (None, 8192)              0         
_________________________________________________________________
dense_39 (Dense)             (None, 256)               2097408   
_________________________________________________________________
activation_82 (Activation)   (None, 256)               0         
_________________________________________________________________
dropout_82 (Dropout)         (None, 256)               0         
_________________________________________________________________
dense_40 (Dense)             (None, 1024)              263168    
_________________________________________________________________
batch_normalization_45 (Batc (None, 1024)              4096      
_________________________________________________________________
activation_83 (Activation)   (None, 1024)              0         
_________________________________________________________________
dropout_83 (Dropout)         (None, 1024)              0         
_________________________________________________________________
dense_41 (Dense)             (None, 100)               102500    
=================================================================
Total params: 2,580,831
Trainable params: 2,576,671
Non-trainable params: 4,160
_________________________________________________________________
