Model: "sequential_200"
_________________________________________________________________
Layer (type)                 Output Shape              Param #   
=================================================================
separable_conv2d_491 (Separa (None, 32, 32, 512)       2075      
_________________________________________________________________
batch_normalization_518 (Bat (None, 32, 32, 512)       2048      
_________________________________________________________________
activation_682 (Activation)  (None, 32, 32, 512)       0         
_________________________________________________________________
dropout_682 (Dropout)        (None, 32, 32, 512)       0         
_________________________________________________________________
separable_conv2d_492 (Separa (None, 32, 32, 64)        37440     
_________________________________________________________________
batch_normalization_519 (Bat (None, 32, 32, 64)        256       
_________________________________________________________________
activation_683 (Activation)  (None, 32, 32, 64)        0         
_________________________________________________________________
dropout_683 (Dropout)        (None, 32, 32, 64)        0         
_________________________________________________________________
max_pooling2d_181 (MaxPoolin (None, 16, 16, 64)        0         
_________________________________________________________________
separable_conv2d_493 (Separa (None, 16, 16, 16)        1616      
_________________________________________________________________
activation_684 (Activation)  (None, 16, 16, 16)        0         
_________________________________________________________________
dropout_684 (Dropout)        (None, 16, 16, 16)        0         
_________________________________________________________________
flatten_200 (Flatten)        (None, 4096)              0         
_________________________________________________________________
dense_391 (Dense)            (None, 128)               524416    
_________________________________________________________________
batch_normalization_520 (Bat (None, 128)               512       
_________________________________________________________________
activation_685 (Activation)  (None, 128)               0         
_________________________________________________________________
dropout_685 (Dropout)        (None, 128)               0         
_________________________________________________________________
dense_392 (Dense)            (None, 100)               12900     
=================================================================
Total params: 581,263
Trainable params: 579,855
Non-trainable params: 1,408
_________________________________________________________________
