Model: "sequential_299"
_________________________________________________________________
Layer (type)                 Output Shape              Param #   
=================================================================
separable_conv2d_767 (Separa (None, 32, 32, 512)       2075      
_________________________________________________________________
batch_normalization_829 (Bat (None, 32, 32, 512)       2048      
_________________________________________________________________
activation_1075 (Activation) (None, 32, 32, 512)       0         
_________________________________________________________________
dropout_1075 (Dropout)       (None, 32, 32, 512)       0         
_________________________________________________________________
max_pooling2d_300 (MaxPoolin (None, 16, 16, 512)       0         
_________________________________________________________________
separable_conv2d_768 (Separa (None, 16, 16, 128)       70272     
_________________________________________________________________
batch_normalization_830 (Bat (None, 16, 16, 128)       512       
_________________________________________________________________
activation_1076 (Activation) (None, 16, 16, 128)       0         
_________________________________________________________________
dropout_1076 (Dropout)       (None, 16, 16, 128)       0         
_________________________________________________________________
separable_conv2d_769 (Separa (None, 16, 16, 16)        3216      
_________________________________________________________________
activation_1077 (Activation) (None, 16, 16, 16)        0         
_________________________________________________________________
dropout_1077 (Dropout)       (None, 16, 16, 16)        0         
_________________________________________________________________
flatten_299 (Flatten)        (None, 4096)              0         
_________________________________________________________________
dense_607 (Dense)            (None, 128)               524416    
_________________________________________________________________
batch_normalization_831 (Bat (None, 128)               512       
_________________________________________________________________
activation_1078 (Activation) (None, 128)               0         
_________________________________________________________________
dropout_1078 (Dropout)       (None, 128)               0         
_________________________________________________________________
dense_608 (Dense)            (None, 100)               12900     
=================================================================
Total params: 615,951
Trainable params: 614,415
Non-trainable params: 1,536
_________________________________________________________________
