Model: "sequential_181"
_________________________________________________________________
Layer (type)                 Output Shape              Param #   
=================================================================
separable_conv2d_443 (Separa (None, 32, 32, 256)       1051      
_________________________________________________________________
batch_normalization_459 (Bat (None, 32, 32, 256)       1024      
_________________________________________________________________
activation_612 (Activation)  (None, 32, 32, 256)       0         
_________________________________________________________________
dropout_612 (Dropout)        (None, 32, 32, 256)       0         
_________________________________________________________________
separable_conv2d_444 (Separa (None, 32, 32, 64)        18752     
_________________________________________________________________
activation_613 (Activation)  (None, 32, 32, 64)        0         
_________________________________________________________________
dropout_613 (Dropout)        (None, 32, 32, 64)        0         
_________________________________________________________________
max_pooling2d_160 (MaxPoolin (None, 16, 16, 64)        0         
_________________________________________________________________
separable_conv2d_445 (Separa (None, 16, 16, 16)        1616      
_________________________________________________________________
batch_normalization_460 (Bat (None, 16, 16, 16)        64        
_________________________________________________________________
activation_614 (Activation)  (None, 16, 16, 16)        0         
_________________________________________________________________
dropout_614 (Dropout)        (None, 16, 16, 16)        0         
_________________________________________________________________
flatten_181 (Flatten)        (None, 4096)              0         
_________________________________________________________________
dense_350 (Dense)            (None, 128)               524416    
_________________________________________________________________
batch_normalization_461 (Bat (None, 128)               512       
_________________________________________________________________
activation_615 (Activation)  (None, 128)               0         
_________________________________________________________________
dropout_615 (Dropout)        (None, 128)               0         
_________________________________________________________________
dense_351 (Dense)            (None, 256)               33024     
_________________________________________________________________
batch_normalization_462 (Bat (None, 256)               1024      
_________________________________________________________________
activation_616 (Activation)  (None, 256)               0         
_________________________________________________________________
dropout_616 (Dropout)        (None, 256)               0         
_________________________________________________________________
dense_352 (Dense)            (None, 100)               25700     
=================================================================
Total params: 607,183
Trainable params: 605,871
Non-trainable params: 1,312
_________________________________________________________________
