Model: "sequential_458"
_________________________________________________________________
Layer (type)                 Output Shape              Param #   
=================================================================
separable_conv2d_1226 (Separ (None, 32, 32, 512)       2075      
_________________________________________________________________
batch_normalization_1284 (Ba (None, 32, 32, 512)       2048      
_________________________________________________________________
activation_1738 (Activation) (None, 32, 32, 512)       0         
_________________________________________________________________
dropout_1738 (Dropout)       (None, 32, 32, 512)       0         
_________________________________________________________________
max_pooling2d_488 (MaxPoolin (None, 16, 16, 512)       0         
_________________________________________________________________
separable_conv2d_1227 (Separ (None, 16, 16, 128)       70272     
_________________________________________________________________
batch_normalization_1285 (Ba (None, 16, 16, 128)       512       
_________________________________________________________________
activation_1739 (Activation) (None, 16, 16, 128)       0         
_________________________________________________________________
dropout_1739 (Dropout)       (None, 16, 16, 128)       0         
_________________________________________________________________
separable_conv2d_1228 (Separ (None, 16, 16, 512)       67200     
_________________________________________________________________
activation_1740 (Activation) (None, 16, 16, 512)       0         
_________________________________________________________________
dropout_1740 (Dropout)       (None, 16, 16, 512)       0         
_________________________________________________________________
flatten_458 (Flatten)        (None, 131072)            0         
_________________________________________________________________
dense_970 (Dense)            (None, 256)               33554688  
_________________________________________________________________
batch_normalization_1286 (Ba (None, 256)               1024      
_________________________________________________________________
activation_1741 (Activation) (None, 256)               0         
_________________________________________________________________
dropout_1741 (Dropout)       (None, 256)               0         
_________________________________________________________________
dense_971 (Dense)            (None, 100)               25700     
=================================================================
Total params: 33,723,519
Trainable params: 33,721,727
Non-trainable params: 1,792
_________________________________________________________________
