Model: "sequential_234"
_________________________________________________________________
Layer (type)                 Output Shape              Param #   
=================================================================
separable_conv2d_586 (Separa (None, 32, 32, 256)       1051      
_________________________________________________________________
batch_normalization_625 (Bat (None, 32, 32, 256)       1024      
_________________________________________________________________
activation_817 (Activation)  (None, 32, 32, 256)       0         
_________________________________________________________________
dropout_817 (Dropout)        (None, 32, 32, 256)       0         
_________________________________________________________________
max_pooling2d_223 (MaxPoolin (None, 16, 16, 256)       0         
_________________________________________________________________
separable_conv2d_587 (Separa (None, 16, 16, 64)        18752     
_________________________________________________________________
batch_normalization_626 (Bat (None, 16, 16, 64)        256       
_________________________________________________________________
activation_818 (Activation)  (None, 16, 16, 64)        0         
_________________________________________________________________
dropout_818 (Dropout)        (None, 16, 16, 64)        0         
_________________________________________________________________
max_pooling2d_224 (MaxPoolin (None, 8, 8, 64)          0         
_________________________________________________________________
separable_conv2d_588 (Separa (None, 8, 8, 16)          1616      
_________________________________________________________________
activation_819 (Activation)  (None, 8, 8, 16)          0         
_________________________________________________________________
dropout_819 (Dropout)        (None, 8, 8, 16)          0         
_________________________________________________________________
flatten_234 (Flatten)        (None, 1024)              0         
_________________________________________________________________
dense_465 (Dense)            (None, 512)               524800    
_________________________________________________________________
batch_normalization_627 (Bat (None, 512)               2048      
_________________________________________________________________
activation_820 (Activation)  (None, 512)               0         
_________________________________________________________________
dropout_820 (Dropout)        (None, 512)               0         
_________________________________________________________________
dense_466 (Dense)            (None, 256)               131328    
_________________________________________________________________
batch_normalization_628 (Bat (None, 256)               1024      
_________________________________________________________________
activation_821 (Activation)  (None, 256)               0         
_________________________________________________________________
dropout_821 (Dropout)        (None, 256)               0         
_________________________________________________________________
dense_467 (Dense)            (None, 100)               25700     
=================================================================
Total params: 707,599
Trainable params: 705,423
Non-trainable params: 2,176
_________________________________________________________________
