Model: "sequential_143"
_________________________________________________________________
Layer (type)                 Output Shape              Param #   
=================================================================
separable_conv2d_340 (Separa (None, 32, 32, 256)       1051      
_________________________________________________________________
batch_normalization_344 (Bat (None, 32, 32, 256)       1024      
_________________________________________________________________
activation_466 (Activation)  (None, 32, 32, 256)       0         
_________________________________________________________________
dropout_466 (Dropout)        (None, 32, 32, 256)       0         
_________________________________________________________________
max_pooling2d_117 (MaxPoolin (None, 16, 16, 256)       0         
_________________________________________________________________
separable_conv2d_341 (Separa (None, 16, 16, 64)        18752     
_________________________________________________________________
activation_467 (Activation)  (None, 16, 16, 64)        0         
_________________________________________________________________
dropout_467 (Dropout)        (None, 16, 16, 64)        0         
_________________________________________________________________
max_pooling2d_118 (MaxPoolin (None, 8, 8, 64)          0         
_________________________________________________________________
separable_conv2d_342 (Separa (None, 8, 8, 16)          1616      
_________________________________________________________________
activation_468 (Activation)  (None, 8, 8, 16)          0         
_________________________________________________________________
dropout_468 (Dropout)        (None, 8, 8, 16)          0         
_________________________________________________________________
flatten_143 (Flatten)        (None, 1024)              0         
_________________________________________________________________
dense_269 (Dense)            (None, 128)               131200    
_________________________________________________________________
batch_normalization_345 (Bat (None, 128)               512       
_________________________________________________________________
activation_469 (Activation)  (None, 128)               0         
_________________________________________________________________
dropout_469 (Dropout)        (None, 128)               0         
_________________________________________________________________
dense_270 (Dense)            (None, 100)               12900     
=================================================================
Total params: 167,055
Trainable params: 166,287
Non-trainable params: 768
_________________________________________________________________
