Model: "sequential_38"
_________________________________________________________________
Layer (type)                 Output Shape              Param #   
=================================================================
separable_conv2d_97 (Separab (None, 32, 32, 64)        283       
_________________________________________________________________
activation_133 (Activation)  (None, 32, 32, 64)        0         
_________________________________________________________________
dropout_133 (Dropout)        (None, 32, 32, 64)        0         
_________________________________________________________________
max_pooling2d_32 (MaxPooling (None, 16, 16, 64)        0         
_________________________________________________________________
flatten_38 (Flatten)         (None, 16384)             0         
_________________________________________________________________
dense_74 (Dense)             (None, 128)               2097280   
_________________________________________________________________
batch_normalization_80 (Batc (None, 128)               512       
_________________________________________________________________
activation_134 (Activation)  (None, 128)               0         
_________________________________________________________________
dropout_134 (Dropout)        (None, 128)               0         
_________________________________________________________________
dense_75 (Dense)             (None, 100)               12900     
=================================================================
Total params: 2,110,975
Trainable params: 2,110,719
Non-trainable params: 256
_________________________________________________________________
