Model: "sequential_402"
_________________________________________________________________
Layer (type)                 Output Shape              Param #   
=================================================================
separable_conv2d_1062 (Separ (None, 32, 32, 256)       1051      
_________________________________________________________________
batch_normalization_1114 (Ba (None, 32, 32, 256)       1024      
_________________________________________________________________
activation_1486 (Activation) (None, 32, 32, 256)       0         
_________________________________________________________________
dropout_1486 (Dropout)       (None, 32, 32, 256)       0         
_________________________________________________________________
max_pooling2d_428 (MaxPoolin (None, 16, 16, 256)       0         
_________________________________________________________________
separable_conv2d_1063 (Separ (None, 16, 16, 32)        10528     
_________________________________________________________________
batch_normalization_1115 (Ba (None, 16, 16, 32)        128       
_________________________________________________________________
activation_1487 (Activation) (None, 16, 16, 32)        0         
_________________________________________________________________
dropout_1487 (Dropout)       (None, 16, 16, 32)        0         
_________________________________________________________________
separable_conv2d_1064 (Separ (None, 16, 16, 16)        816       
_________________________________________________________________
activation_1488 (Activation) (None, 16, 16, 16)        0         
_________________________________________________________________
dropout_1488 (Dropout)       (None, 16, 16, 16)        0         
_________________________________________________________________
flatten_402 (Flatten)        (None, 4096)              0         
_________________________________________________________________
dense_826 (Dense)            (None, 512)               2097664   
_________________________________________________________________
batch_normalization_1116 (Ba (None, 512)               2048      
_________________________________________________________________
activation_1489 (Activation) (None, 512)               0         
_________________________________________________________________
dropout_1489 (Dropout)       (None, 512)               0         
_________________________________________________________________
dense_827 (Dense)            (None, 256)               131328    
_________________________________________________________________
batch_normalization_1117 (Ba (None, 256)               1024      
_________________________________________________________________
activation_1490 (Activation) (None, 256)               0         
_________________________________________________________________
dropout_1490 (Dropout)       (None, 256)               0         
_________________________________________________________________
dense_828 (Dense)            (None, 100)               25700     
=================================================================
Total params: 2,271,311
Trainable params: 2,269,199
Non-trainable params: 2,112
_________________________________________________________________
