Model: "sequential_153"
_________________________________________________________________
Layer (type)                 Output Shape              Param #   
=================================================================
separable_conv2d_368 (Separa (None, 32, 32, 512)       2075      
_________________________________________________________________
batch_normalization_374 (Bat (None, 32, 32, 512)       2048      
_________________________________________________________________
activation_505 (Activation)  (None, 32, 32, 512)       0         
_________________________________________________________________
dropout_505 (Dropout)        (None, 32, 32, 512)       0         
_________________________________________________________________
separable_conv2d_369 (Separa (None, 32, 32, 64)        37440     
_________________________________________________________________
batch_normalization_375 (Bat (None, 32, 32, 64)        256       
_________________________________________________________________
activation_506 (Activation)  (None, 32, 32, 64)        0         
_________________________________________________________________
dropout_506 (Dropout)        (None, 32, 32, 64)        0         
_________________________________________________________________
max_pooling2d_129 (MaxPoolin (None, 16, 16, 64)        0         
_________________________________________________________________
separable_conv2d_370 (Separa (None, 16, 16, 16)        1616      
_________________________________________________________________
activation_507 (Activation)  (None, 16, 16, 16)        0         
_________________________________________________________________
dropout_507 (Dropout)        (None, 16, 16, 16)        0         
_________________________________________________________________
flatten_153 (Flatten)        (None, 4096)              0         
_________________________________________________________________
dense_290 (Dense)            (None, 128)               524416    
_________________________________________________________________
batch_normalization_376 (Bat (None, 128)               512       
_________________________________________________________________
activation_508 (Activation)  (None, 128)               0         
_________________________________________________________________
dropout_508 (Dropout)        (None, 128)               0         
_________________________________________________________________
dense_291 (Dense)            (None, 256)               33024     
_________________________________________________________________
batch_normalization_377 (Bat (None, 256)               1024      
_________________________________________________________________
activation_509 (Activation)  (None, 256)               0         
_________________________________________________________________
dropout_509 (Dropout)        (None, 256)               0         
_________________________________________________________________
dense_292 (Dense)            (None, 100)               25700     
=================================================================
Total params: 628,111
Trainable params: 626,191
Non-trainable params: 1,920
_________________________________________________________________
