Model: "sequential_486"
_________________________________________________________________
Layer (type)                 Output Shape              Param #   
=================================================================
separable_conv2d_1305 (Separ (None, 32, 32, 512)       2075      
_________________________________________________________________
batch_normalization_1368 (Ba (None, 32, 32, 512)       2048      
_________________________________________________________________
activation_1864 (Activation) (None, 32, 32, 512)       0         
_________________________________________________________________
dropout_1864 (Dropout)       (None, 32, 32, 512)       0         
_________________________________________________________________
separable_conv2d_1306 (Separ (None, 32, 32, 128)       70272     
_________________________________________________________________
batch_normalization_1369 (Ba (None, 32, 32, 128)       512       
_________________________________________________________________
activation_1865 (Activation) (None, 32, 32, 128)       0         
_________________________________________________________________
dropout_1865 (Dropout)       (None, 32, 32, 128)       0         
_________________________________________________________________
separable_conv2d_1307 (Separ (None, 32, 32, 16)        3216      
_________________________________________________________________
activation_1866 (Activation) (None, 32, 32, 16)        0         
_________________________________________________________________
dropout_1866 (Dropout)       (None, 32, 32, 16)        0         
_________________________________________________________________
flatten_486 (Flatten)        (None, 16384)             0         
_________________________________________________________________
dense_1045 (Dense)           (None, 512)               8389120   
_________________________________________________________________
batch_normalization_1370 (Ba (None, 512)               2048      
_________________________________________________________________
activation_1867 (Activation) (None, 512)               0         
_________________________________________________________________
dropout_1867 (Dropout)       (None, 512)               0         
_________________________________________________________________
dense_1046 (Dense)           (None, 256)               131328    
_________________________________________________________________
activation_1868 (Activation) (None, 256)               0         
_________________________________________________________________
dropout_1868 (Dropout)       (None, 256)               0         
_________________________________________________________________
dense_1047 (Dense)           (None, 100)               25700     
=================================================================
Total params: 8,626,319
Trainable params: 8,624,015
Non-trainable params: 2,304
_________________________________________________________________
