Model: "sequential_218"
_________________________________________________________________
Layer (type)                 Output Shape              Param #   
=================================================================
separable_conv2d_541 (Separa (None, 32, 32, 8)         59        
_________________________________________________________________
batch_normalization_574 (Bat (None, 32, 32, 8)         32        
_________________________________________________________________
activation_752 (Activation)  (None, 32, 32, 8)         0         
_________________________________________________________________
dropout_752 (Dropout)        (None, 32, 32, 8)         0         
_________________________________________________________________
separable_conv2d_542 (Separa (None, 32, 32, 64)        648       
_________________________________________________________________
batch_normalization_575 (Bat (None, 32, 32, 64)        256       
_________________________________________________________________
activation_753 (Activation)  (None, 32, 32, 64)        0         
_________________________________________________________________
dropout_753 (Dropout)        (None, 32, 32, 64)        0         
_________________________________________________________________
max_pooling2d_205 (MaxPoolin (None, 16, 16, 64)        0         
_________________________________________________________________
separable_conv2d_543 (Separa (None, 16, 16, 16)        1616      
_________________________________________________________________
activation_754 (Activation)  (None, 16, 16, 16)        0         
_________________________________________________________________
dropout_754 (Dropout)        (None, 16, 16, 16)        0         
_________________________________________________________________
flatten_218 (Flatten)        (None, 4096)              0         
_________________________________________________________________
dense_429 (Dense)            (None, 512)               2097664   
_________________________________________________________________
batch_normalization_576 (Bat (None, 512)               2048      
_________________________________________________________________
activation_755 (Activation)  (None, 512)               0         
_________________________________________________________________
dropout_755 (Dropout)        (None, 512)               0         
_________________________________________________________________
dense_430 (Dense)            (None, 256)               131328    
_________________________________________________________________
batch_normalization_577 (Bat (None, 256)               1024      
_________________________________________________________________
activation_756 (Activation)  (None, 256)               0         
_________________________________________________________________
dropout_756 (Dropout)        (None, 256)               0         
_________________________________________________________________
dense_431 (Dense)            (None, 100)               25700     
=================================================================
Total params: 2,260,375
Trainable params: 2,258,695
Non-trainable params: 1,680
_________________________________________________________________
