Model: "sequential_454"
_________________________________________________________________
Layer (type)                 Output Shape              Param #   
=================================================================
separable_conv2d_1214 (Separ (None, 32, 32, 64)        283       
_________________________________________________________________
batch_normalization_1271 (Ba (None, 32, 32, 64)        256       
_________________________________________________________________
activation_1719 (Activation) (None, 32, 32, 64)        0         
_________________________________________________________________
dropout_1719 (Dropout)       (None, 32, 32, 64)        0         
_________________________________________________________________
separable_conv2d_1215 (Separ (None, 32, 32, 128)       8896      
_________________________________________________________________
batch_normalization_1272 (Ba (None, 32, 32, 128)       512       
_________________________________________________________________
activation_1720 (Activation) (None, 32, 32, 128)       0         
_________________________________________________________________
dropout_1720 (Dropout)       (None, 32, 32, 128)       0         
_________________________________________________________________
separable_conv2d_1216 (Separ (None, 32, 32, 1024)      133248    
_________________________________________________________________
activation_1721 (Activation) (None, 32, 32, 1024)      0         
_________________________________________________________________
dropout_1721 (Dropout)       (None, 32, 32, 1024)      0         
_________________________________________________________________
flatten_454 (Flatten)        (None, 1048576)           0         
_________________________________________________________________
dense_959 (Dense)            (None, 512)               536871424 
_________________________________________________________________
batch_normalization_1273 (Ba (None, 512)               2048      
_________________________________________________________________
activation_1722 (Activation) (None, 512)               0         
_________________________________________________________________
dropout_1722 (Dropout)       (None, 512)               0         
_________________________________________________________________
dense_960 (Dense)            (None, 256)               131328    
_________________________________________________________________
batch_normalization_1274 (Ba (None, 256)               1024      
_________________________________________________________________
activation_1723 (Activation) (None, 256)               0         
_________________________________________________________________
dropout_1723 (Dropout)       (None, 256)               0         
_________________________________________________________________
dense_961 (Dense)            (None, 100)               25700     
=================================================================
Total params: 537,174,719
Trainable params: 537,172,799
Non-trainable params: 1,920
_________________________________________________________________
