Model: "sequential_142"
_________________________________________________________________
Layer (type)                 Output Shape              Param #   
=================================================================
separable_conv2d_337 (Separa (None, 32, 32, 64)        283       
_________________________________________________________________
batch_normalization_341 (Bat (None, 32, 32, 64)        256       
_________________________________________________________________
activation_462 (Activation)  (None, 32, 32, 64)        0         
_________________________________________________________________
dropout_462 (Dropout)        (None, 32, 32, 64)        0         
_________________________________________________________________
separable_conv2d_338 (Separa (None, 32, 32, 64)        4736      
_________________________________________________________________
batch_normalization_342 (Bat (None, 32, 32, 64)        256       
_________________________________________________________________
activation_463 (Activation)  (None, 32, 32, 64)        0         
_________________________________________________________________
dropout_463 (Dropout)        (None, 32, 32, 64)        0         
_________________________________________________________________
max_pooling2d_116 (MaxPoolin (None, 16, 16, 64)        0         
_________________________________________________________________
separable_conv2d_339 (Separa (None, 16, 16, 16)        1616      
_________________________________________________________________
activation_464 (Activation)  (None, 16, 16, 16)        0         
_________________________________________________________________
dropout_464 (Dropout)        (None, 16, 16, 16)        0         
_________________________________________________________________
flatten_142 (Flatten)        (None, 4096)              0         
_________________________________________________________________
dense_267 (Dense)            (None, 128)               524416    
_________________________________________________________________
batch_normalization_343 (Bat (None, 128)               512       
_________________________________________________________________
activation_465 (Activation)  (None, 128)               0         
_________________________________________________________________
dropout_465 (Dropout)        (None, 128)               0         
_________________________________________________________________
dense_268 (Dense)            (None, 100)               12900     
=================================================================
Total params: 544,975
Trainable params: 544,463
Non-trainable params: 512
_________________________________________________________________
