Model: "sequential_398"
_________________________________________________________________
Layer (type)                 Output Shape              Param #   
=================================================================
separable_conv2d_1050 (Separ (None, 32, 32, 512)       2075      
_________________________________________________________________
batch_normalization_1100 (Ba (None, 32, 32, 512)       2048      
_________________________________________________________________
activation_1466 (Activation) (None, 32, 32, 512)       0         
_________________________________________________________________
dropout_1466 (Dropout)       (None, 32, 32, 512)       0         
_________________________________________________________________
max_pooling2d_423 (MaxPoolin (None, 16, 16, 512)       0         
_________________________________________________________________
separable_conv2d_1051 (Separ (None, 16, 16, 128)       70272     
_________________________________________________________________
batch_normalization_1101 (Ba (None, 16, 16, 128)       512       
_________________________________________________________________
activation_1467 (Activation) (None, 16, 16, 128)       0         
_________________________________________________________________
dropout_1467 (Dropout)       (None, 16, 16, 128)       0         
_________________________________________________________________
separable_conv2d_1052 (Separ (None, 16, 16, 16)        3216      
_________________________________________________________________
activation_1468 (Activation) (None, 16, 16, 16)        0         
_________________________________________________________________
dropout_1468 (Dropout)       (None, 16, 16, 16)        0         
_________________________________________________________________
flatten_398 (Flatten)        (None, 4096)              0         
_________________________________________________________________
dense_814 (Dense)            (None, 512)               2097664   
_________________________________________________________________
batch_normalization_1102 (Ba (None, 512)               2048      
_________________________________________________________________
activation_1469 (Activation) (None, 512)               0         
_________________________________________________________________
dropout_1469 (Dropout)       (None, 512)               0         
_________________________________________________________________
dense_815 (Dense)            (None, 256)               131328    
_________________________________________________________________
batch_normalization_1103 (Ba (None, 256)               1024      
_________________________________________________________________
activation_1470 (Activation) (None, 256)               0         
_________________________________________________________________
dropout_1470 (Dropout)       (None, 256)               0         
_________________________________________________________________
dense_816 (Dense)            (None, 100)               25700     
=================================================================
Total params: 2,335,887
Trainable params: 2,333,071
Non-trainable params: 2,816
_________________________________________________________________
