Model: "sequential_89"
_________________________________________________________________
Layer (type)                 Output Shape              Param #   
=================================================================
separable_conv2d_208 (Separa (None, 32, 32, 256)       1051      
_________________________________________________________________
batch_normalization_190 (Bat (None, 32, 32, 256)       1024      
_________________________________________________________________
activation_280 (Activation)  (None, 32, 32, 256)       0         
_________________________________________________________________
dropout_280 (Dropout)        (None, 32, 32, 256)       0         
_________________________________________________________________
max_pooling2d_64 (MaxPooling (None, 16, 16, 256)       0         
_________________________________________________________________
separable_conv2d_209 (Separa (None, 16, 16, 128)       35200     
_________________________________________________________________
batch_normalization_191 (Bat (None, 16, 16, 128)       512       
_________________________________________________________________
activation_281 (Activation)  (None, 16, 16, 128)       0         
_________________________________________________________________
dropout_281 (Dropout)        (None, 16, 16, 128)       0         
_________________________________________________________________
separable_conv2d_210 (Separa (None, 16, 16, 64)        9408      
_________________________________________________________________
batch_normalization_192 (Bat (None, 16, 16, 64)        256       
_________________________________________________________________
activation_282 (Activation)  (None, 16, 16, 64)        0         
_________________________________________________________________
dropout_282 (Dropout)        (None, 16, 16, 64)        0         
_________________________________________________________________
flatten_89 (Flatten)         (None, 16384)             0         
_________________________________________________________________
dense_161 (Dense)            (None, 100)               1638500   
=================================================================
Total params: 1,685,951
Trainable params: 1,685,055
Non-trainable params: 896
_________________________________________________________________
