Model: "sequential_123"
_________________________________________________________________
Layer (type)                 Output Shape              Param #   
=================================================================
separable_conv2d_289 (Separa (None, 32, 32, 256)       1051      
_________________________________________________________________
batch_normalization_286 (Bat (None, 32, 32, 256)       1024      
_________________________________________________________________
activation_394 (Activation)  (None, 32, 32, 256)       0         
_________________________________________________________________
dropout_394 (Dropout)        (None, 32, 32, 256)       0         
_________________________________________________________________
max_pooling2d_95 (MaxPooling (None, 16, 16, 256)       0         
_________________________________________________________________
separable_conv2d_290 (Separa (None, 16, 16, 8)         4360      
_________________________________________________________________
batch_normalization_287 (Bat (None, 16, 16, 8)         32        
_________________________________________________________________
activation_395 (Activation)  (None, 16, 16, 8)         0         
_________________________________________________________________
dropout_395 (Dropout)        (None, 16, 16, 8)         0         
_________________________________________________________________
max_pooling2d_96 (MaxPooling (None, 8, 8, 8)           0         
_________________________________________________________________
separable_conv2d_291 (Separa (None, 8, 8, 128)         1224      
_________________________________________________________________
activation_396 (Activation)  (None, 8, 8, 128)         0         
_________________________________________________________________
dropout_396 (Dropout)        (None, 8, 8, 128)         0         
_________________________________________________________________
flatten_123 (Flatten)        (None, 8192)              0         
_________________________________________________________________
dense_228 (Dense)            (None, 256)               2097408   
_________________________________________________________________
batch_normalization_288 (Bat (None, 256)               1024      
_________________________________________________________________
activation_397 (Activation)  (None, 256)               0         
_________________________________________________________________
dropout_397 (Dropout)        (None, 256)               0         
_________________________________________________________________
dense_229 (Dense)            (None, 100)               25700     
=================================================================
Total params: 2,131,823
Trainable params: 2,130,783
Non-trainable params: 1,040
_________________________________________________________________
