Model: "sequential_455"
_________________________________________________________________
Layer (type)                 Output Shape              Param #   
=================================================================
separable_conv2d_1217 (Separ (None, 32, 32, 512)       2075      
_________________________________________________________________
batch_normalization_1275 (Ba (None, 32, 32, 512)       2048      
_________________________________________________________________
activation_1724 (Activation) (None, 32, 32, 512)       0         
_________________________________________________________________
dropout_1724 (Dropout)       (None, 32, 32, 512)       0         
_________________________________________________________________
max_pooling2d_486 (MaxPoolin (None, 16, 16, 512)       0         
_________________________________________________________________
separable_conv2d_1218 (Separ (None, 16, 16, 32)        21024     
_________________________________________________________________
batch_normalization_1276 (Ba (None, 16, 16, 32)        128       
_________________________________________________________________
activation_1725 (Activation) (None, 16, 16, 32)        0         
_________________________________________________________________
dropout_1725 (Dropout)       (None, 16, 16, 32)        0         
_________________________________________________________________
separable_conv2d_1219 (Separ (None, 16, 16, 16)        816       
_________________________________________________________________
activation_1726 (Activation) (None, 16, 16, 16)        0         
_________________________________________________________________
dropout_1726 (Dropout)       (None, 16, 16, 16)        0         
_________________________________________________________________
flatten_455 (Flatten)        (None, 4096)              0         
_________________________________________________________________
dense_962 (Dense)            (None, 512)               2097664   
_________________________________________________________________
activation_1727 (Activation) (None, 512)               0         
_________________________________________________________________
dropout_1727 (Dropout)       (None, 512)               0         
_________________________________________________________________
dense_963 (Dense)            (None, 100)               51300     
=================================================================
Total params: 2,175,055
Trainable params: 2,173,967
Non-trainable params: 1,088
_________________________________________________________________
