Model: "sequential_290"
_________________________________________________________________
Layer (type)                 Output Shape              Param #   
=================================================================
separable_conv2d_740 (Separa (None, 32, 32, 512)       2075      
_________________________________________________________________
batch_normalization_804 (Bat (None, 32, 32, 512)       2048      
_________________________________________________________________
activation_1039 (Activation) (None, 32, 32, 512)       0         
_________________________________________________________________
dropout_1039 (Dropout)       (None, 32, 32, 512)       0         
_________________________________________________________________
separable_conv2d_741 (Separa (None, 32, 32, 128)       70272     
_________________________________________________________________
batch_normalization_805 (Bat (None, 32, 32, 128)       512       
_________________________________________________________________
activation_1040 (Activation) (None, 32, 32, 128)       0         
_________________________________________________________________
dropout_1040 (Dropout)       (None, 32, 32, 128)       0         
_________________________________________________________________
max_pooling2d_289 (MaxPoolin (None, 16, 16, 128)       0         
_________________________________________________________________
separable_conv2d_742 (Separa (None, 16, 16, 16)        3216      
_________________________________________________________________
activation_1041 (Activation) (None, 16, 16, 16)        0         
_________________________________________________________________
dropout_1041 (Dropout)       (None, 16, 16, 16)        0         
_________________________________________________________________
flatten_290 (Flatten)        (None, 4096)              0         
_________________________________________________________________
dense_589 (Dense)            (None, 128)               524416    
_________________________________________________________________
batch_normalization_806 (Bat (None, 128)               512       
_________________________________________________________________
activation_1042 (Activation) (None, 128)               0         
_________________________________________________________________
dropout_1042 (Dropout)       (None, 128)               0         
_________________________________________________________________
dense_590 (Dense)            (None, 100)               12900     
=================================================================
Total params: 615,951
Trainable params: 614,415
Non-trainable params: 1,536
_________________________________________________________________
