Model: "sequential_97"
_________________________________________________________________
Layer (type)                 Output Shape              Param #   
=================================================================
separable_conv2d_228 (Separa (None, 32, 32, 256)       1051      
_________________________________________________________________
batch_normalization_215 (Bat (None, 32, 32, 256)       1024      
_________________________________________________________________
activation_308 (Activation)  (None, 32, 32, 256)       0         
_________________________________________________________________
dropout_308 (Dropout)        (None, 32, 32, 256)       0         
_________________________________________________________________
max_pooling2d_72 (MaxPooling (None, 16, 16, 256)       0         
_________________________________________________________________
separable_conv2d_229 (Separa (None, 16, 16, 128)       35200     
_________________________________________________________________
batch_normalization_216 (Bat (None, 16, 16, 128)       512       
_________________________________________________________________
activation_309 (Activation)  (None, 16, 16, 128)       0         
_________________________________________________________________
dropout_309 (Dropout)        (None, 16, 16, 128)       0         
_________________________________________________________________
flatten_97 (Flatten)         (None, 32768)             0         
_________________________________________________________________
dense_177 (Dense)            (None, 128)               4194432   
_________________________________________________________________
batch_normalization_217 (Bat (None, 128)               512       
_________________________________________________________________
activation_310 (Activation)  (None, 128)               0         
_________________________________________________________________
dropout_310 (Dropout)        (None, 128)               0         
_________________________________________________________________
dense_178 (Dense)            (None, 100)               12900     
=================================================================
Total params: 4,245,631
Trainable params: 4,244,607
Non-trainable params: 1,024
_________________________________________________________________
