Model: "sequential_175"
_________________________________________________________________
Layer (type)                 Output Shape              Param #   
=================================================================
separable_conv2d_426 (Separa (None, 32, 32, 256)       1051      
_________________________________________________________________
batch_normalization_443 (Bat (None, 32, 32, 256)       1024      
_________________________________________________________________
activation_590 (Activation)  (None, 32, 32, 256)       0         
_________________________________________________________________
dropout_590 (Dropout)        (None, 32, 32, 256)       0         
_________________________________________________________________
max_pooling2d_152 (MaxPoolin (None, 16, 16, 256)       0         
_________________________________________________________________
separable_conv2d_427 (Separa (None, 16, 16, 128)       35200     
_________________________________________________________________
batch_normalization_444 (Bat (None, 16, 16, 128)       512       
_________________________________________________________________
activation_591 (Activation)  (None, 16, 16, 128)       0         
_________________________________________________________________
dropout_591 (Dropout)        (None, 16, 16, 128)       0         
_________________________________________________________________
flatten_175 (Flatten)        (None, 32768)             0         
_________________________________________________________________
dense_339 (Dense)            (None, 128)               4194432   
_________________________________________________________________
batch_normalization_445 (Bat (None, 128)               512       
_________________________________________________________________
activation_592 (Activation)  (None, 128)               0         
_________________________________________________________________
dropout_592 (Dropout)        (None, 128)               0         
_________________________________________________________________
dense_340 (Dense)            (None, 100)               12900     
=================================================================
Total params: 4,245,631
Trainable params: 4,244,607
Non-trainable params: 1,024
_________________________________________________________________
