Model: "sequential_195"
_________________________________________________________________
Layer (type)                 Output Shape              Param #   
=================================================================
separable_conv2d_477 (Separa (None, 32, 32, 512)       2075      
_________________________________________________________________
batch_normalization_503 (Bat (None, 32, 32, 512)       2048      
_________________________________________________________________
activation_663 (Activation)  (None, 32, 32, 512)       0         
_________________________________________________________________
dropout_663 (Dropout)        (None, 32, 32, 512)       0         
_________________________________________________________________
separable_conv2d_478 (Separa (None, 32, 32, 64)        37440     
_________________________________________________________________
batch_normalization_504 (Bat (None, 32, 32, 64)        256       
_________________________________________________________________
activation_664 (Activation)  (None, 32, 32, 64)        0         
_________________________________________________________________
dropout_664 (Dropout)        (None, 32, 32, 64)        0         
_________________________________________________________________
max_pooling2d_175 (MaxPoolin (None, 16, 16, 64)        0         
_________________________________________________________________
separable_conv2d_479 (Separa (None, 16, 16, 64)        4736      
_________________________________________________________________
activation_665 (Activation)  (None, 16, 16, 64)        0         
_________________________________________________________________
dropout_665 (Dropout)        (None, 16, 16, 64)        0         
_________________________________________________________________
flatten_195 (Flatten)        (None, 16384)             0         
_________________________________________________________________
dense_381 (Dense)            (None, 128)               2097280   
_________________________________________________________________
batch_normalization_505 (Bat (None, 128)               512       
_________________________________________________________________
activation_666 (Activation)  (None, 128)               0         
_________________________________________________________________
dropout_666 (Dropout)        (None, 128)               0         
_________________________________________________________________
dense_382 (Dense)            (None, 100)               12900     
=================================================================
Total params: 2,157,247
Trainable params: 2,155,839
Non-trainable params: 1,408
_________________________________________________________________
