Model: "sequential_583"
_________________________________________________________________
Layer (type)                 Output Shape              Param #   
=================================================================
separable_conv2d_1593 (Separ (None, 32, 32, 256)       1051      
_________________________________________________________________
batch_normalization_1694 (Ba (None, 32, 32, 256)       1024      
_________________________________________________________________
activation_2308 (Activation) (None, 32, 32, 256)       0         
_________________________________________________________________
dropout_2308 (Dropout)       (None, 32, 32, 256)       0         
_________________________________________________________________
max_pooling2d_609 (MaxPoolin (None, 16, 16, 256)       0         
_________________________________________________________________
separable_conv2d_1594 (Separ (None, 16, 16, 256)       68096     
_________________________________________________________________
batch_normalization_1695 (Ba (None, 16, 16, 256)       1024      
_________________________________________________________________
activation_2309 (Activation) (None, 16, 16, 256)       0         
_________________________________________________________________
dropout_2309 (Dropout)       (None, 16, 16, 256)       0         
_________________________________________________________________
separable_conv2d_1595 (Separ (None, 16, 16, 128)       35200     
_________________________________________________________________
activation_2310 (Activation) (None, 16, 16, 128)       0         
_________________________________________________________________
dropout_2310 (Dropout)       (None, 16, 16, 128)       0         
_________________________________________________________________
flatten_583 (Flatten)        (None, 32768)             0         
_________________________________________________________________
dense_1298 (Dense)           (None, 256)               8388864   
_________________________________________________________________
activation_2311 (Activation) (None, 256)               0         
_________________________________________________________________
dropout_2311 (Dropout)       (None, 256)               0         
_________________________________________________________________
dense_1299 (Dense)           (None, 100)               25700     
=================================================================
Total params: 8,520,959
Trainable params: 8,519,935
Non-trainable params: 1,024
_________________________________________________________________
