Model: "sequential_593"
_________________________________________________________________
Layer (type)                 Output Shape              Param #   
=================================================================
separable_conv2d_1623 (Separ (None, 32, 32, 256)       1051      
_________________________________________________________________
activation_2350 (Activation) (None, 32, 32, 256)       0         
_________________________________________________________________
dropout_2350 (Dropout)       (None, 32, 32, 256)       0         
_________________________________________________________________
separable_conv2d_1624 (Separ (None, 32, 32, 32)        10528     
_________________________________________________________________
batch_normalization_1722 (Ba (None, 32, 32, 32)        128       
_________________________________________________________________
activation_2351 (Activation) (None, 32, 32, 32)        0         
_________________________________________________________________
dropout_2351 (Dropout)       (None, 32, 32, 32)        0         
_________________________________________________________________
separable_conv2d_1625 (Separ (None, 32, 32, 16)        816       
_________________________________________________________________
activation_2352 (Activation) (None, 32, 32, 16)        0         
_________________________________________________________________
dropout_2352 (Dropout)       (None, 32, 32, 16)        0         
_________________________________________________________________
flatten_593 (Flatten)        (None, 16384)             0         
_________________________________________________________________
dense_1320 (Dense)           (None, 512)               8389120   
_________________________________________________________________
batch_normalization_1723 (Ba (None, 512)               2048      
_________________________________________________________________
activation_2353 (Activation) (None, 512)               0         
_________________________________________________________________
dropout_2353 (Dropout)       (None, 512)               0         
_________________________________________________________________
dense_1321 (Dense)           (None, 100)               51300     
=================================================================
Total params: 8,454,991
Trainable params: 8,453,903
Non-trainable params: 1,088
_________________________________________________________________
