Model: "sequential_159"
_________________________________________________________________
Layer (type)                 Output Shape              Param #   
=================================================================
separable_conv2d_384 (Separa (None, 32, 32, 256)       1051      
_________________________________________________________________
batch_normalization_393 (Bat (None, 32, 32, 256)       1024      
_________________________________________________________________
activation_528 (Activation)  (None, 32, 32, 256)       0         
_________________________________________________________________
dropout_528 (Dropout)        (None, 32, 32, 256)       0         
_________________________________________________________________
max_pooling2d_135 (MaxPoolin (None, 16, 16, 256)       0         
_________________________________________________________________
separable_conv2d_385 (Separa (None, 16, 16, 128)       35200     
_________________________________________________________________
batch_normalization_394 (Bat (None, 16, 16, 128)       512       
_________________________________________________________________
activation_529 (Activation)  (None, 16, 16, 128)       0         
_________________________________________________________________
dropout_529 (Dropout)        (None, 16, 16, 128)       0         
_________________________________________________________________
flatten_159 (Flatten)        (None, 32768)             0         
_________________________________________________________________
dense_303 (Dense)            (None, 128)               4194432   
_________________________________________________________________
batch_normalization_395 (Bat (None, 128)               512       
_________________________________________________________________
activation_530 (Activation)  (None, 128)               0         
_________________________________________________________________
dropout_530 (Dropout)        (None, 128)               0         
_________________________________________________________________
dense_304 (Dense)            (None, 100)               12900     
=================================================================
Total params: 4,245,631
Trainable params: 4,244,607
Non-trainable params: 1,024
_________________________________________________________________
