Model: "sequential_397"
_________________________________________________________________
Layer (type)                 Output Shape              Param #   
=================================================================
separable_conv2d_1047 (Separ (None, 32, 32, 256)       1051      
_________________________________________________________________
activation_1461 (Activation) (None, 32, 32, 256)       0         
_________________________________________________________________
dropout_1461 (Dropout)       (None, 32, 32, 256)       0         
_________________________________________________________________
max_pooling2d_422 (MaxPoolin (None, 16, 16, 256)       0         
_________________________________________________________________
separable_conv2d_1048 (Separ (None, 16, 16, 128)       35200     
_________________________________________________________________
activation_1462 (Activation) (None, 16, 16, 128)       0         
_________________________________________________________________
dropout_1462 (Dropout)       (None, 16, 16, 128)       0         
_________________________________________________________________
separable_conv2d_1049 (Separ (None, 16, 16, 16)        3216      
_________________________________________________________________
activation_1463 (Activation) (None, 16, 16, 16)        0         
_________________________________________________________________
dropout_1463 (Dropout)       (None, 16, 16, 16)        0         
_________________________________________________________________
flatten_397 (Flatten)        (None, 4096)              0         
_________________________________________________________________
dense_811 (Dense)            (None, 512)               2097664   
_________________________________________________________________
batch_normalization_1098 (Ba (None, 512)               2048      
_________________________________________________________________
activation_1464 (Activation) (None, 512)               0         
_________________________________________________________________
dropout_1464 (Dropout)       (None, 512)               0         
_________________________________________________________________
dense_812 (Dense)            (None, 256)               131328    
_________________________________________________________________
batch_normalization_1099 (Ba (None, 256)               1024      
_________________________________________________________________
activation_1465 (Activation) (None, 256)               0         
_________________________________________________________________
dropout_1465 (Dropout)       (None, 256)               0         
_________________________________________________________________
dense_813 (Dense)            (None, 100)               25700     
=================================================================
Total params: 2,297,231
Trainable params: 2,295,695
Non-trainable params: 1,536
_________________________________________________________________
