Model: "sequential_347"
_________________________________________________________________
Layer (type)                 Output Shape              Param #   
=================================================================
separable_conv2d_905 (Separa (None, 32, 32, 256)       1051      
_________________________________________________________________
batch_normalization_964 (Bat (None, 32, 32, 256)       1024      
_________________________________________________________________
activation_1262 (Activation) (None, 32, 32, 256)       0         
_________________________________________________________________
dropout_1262 (Dropout)       (None, 32, 32, 256)       0         
_________________________________________________________________
max_pooling2d_361 (MaxPoolin (None, 16, 16, 256)       0         
_________________________________________________________________
separable_conv2d_906 (Separa (None, 16, 16, 128)       35200     
_________________________________________________________________
batch_normalization_965 (Bat (None, 16, 16, 128)       512       
_________________________________________________________________
activation_1263 (Activation) (None, 16, 16, 128)       0         
_________________________________________________________________
dropout_1263 (Dropout)       (None, 16, 16, 128)       0         
_________________________________________________________________
separable_conv2d_907 (Separa (None, 16, 16, 64)        9408      
_________________________________________________________________
activation_1264 (Activation) (None, 16, 16, 64)        0         
_________________________________________________________________
dropout_1264 (Dropout)       (None, 16, 16, 64)        0         
_________________________________________________________________
flatten_347 (Flatten)        (None, 16384)             0         
_________________________________________________________________
dense_704 (Dense)            (None, 512)               8389120   
_________________________________________________________________
batch_normalization_966 (Bat (None, 512)               2048      
_________________________________________________________________
activation_1265 (Activation) (None, 512)               0         
_________________________________________________________________
dropout_1265 (Dropout)       (None, 512)               0         
_________________________________________________________________
dense_705 (Dense)            (None, 100)               51300     
=================================================================
Total params: 8,489,663
Trainable params: 8,487,871
Non-trainable params: 1,792
_________________________________________________________________
