Model: "sequential_564"
_________________________________________________________________
Layer (type)                 Output Shape              Param #   
=================================================================
separable_conv2d_1537 (Separ (None, 32, 32, 256)       1051      
_________________________________________________________________
batch_normalization_1633 (Ba (None, 32, 32, 256)       1024      
_________________________________________________________________
activation_2225 (Activation) (None, 32, 32, 256)       0         
_________________________________________________________________
dropout_2225 (Dropout)       (None, 32, 32, 256)       0         
_________________________________________________________________
max_pooling2d_595 (MaxPoolin (None, 16, 16, 256)       0         
_________________________________________________________________
separable_conv2d_1538 (Separ (None, 16, 16, 128)       35200     
_________________________________________________________________
batch_normalization_1634 (Ba (None, 16, 16, 128)       512       
_________________________________________________________________
activation_2226 (Activation) (None, 16, 16, 128)       0         
_________________________________________________________________
dropout_2226 (Dropout)       (None, 16, 16, 128)       0         
_________________________________________________________________
separable_conv2d_1539 (Separ (None, 16, 16, 32)        5280      
_________________________________________________________________
activation_2227 (Activation) (None, 16, 16, 32)        0         
_________________________________________________________________
dropout_2227 (Dropout)       (None, 16, 16, 32)        0         
_________________________________________________________________
flatten_564 (Flatten)        (None, 8192)              0         
_________________________________________________________________
dense_1252 (Dense)           (None, 2048)              16779264  
_________________________________________________________________
batch_normalization_1635 (Ba (None, 2048)              8192      
_________________________________________________________________
activation_2228 (Activation) (None, 2048)              0         
_________________________________________________________________
dropout_2228 (Dropout)       (None, 2048)              0         
_________________________________________________________________
dense_1253 (Dense)           (None, 100)               204900    
=================================================================
Total params: 17,035,423
Trainable params: 17,030,559
Non-trainable params: 4,864
_________________________________________________________________
