Model: "sequential_138"
_________________________________________________________________
Layer (type)                 Output Shape              Param #   
=================================================================
separable_conv2d_328 (Separa (None, 32, 32, 512)       2075      
_________________________________________________________________
batch_normalization_331 (Bat (None, 32, 32, 512)       2048      
_________________________________________________________________
activation_450 (Activation)  (None, 32, 32, 512)       0         
_________________________________________________________________
dropout_450 (Dropout)        (None, 32, 32, 512)       0         
_________________________________________________________________
separable_conv2d_329 (Separa (None, 32, 32, 64)        37440     
_________________________________________________________________
batch_normalization_332 (Bat (None, 32, 32, 64)        256       
_________________________________________________________________
activation_451 (Activation)  (None, 32, 32, 64)        0         
_________________________________________________________________
dropout_451 (Dropout)        (None, 32, 32, 64)        0         
_________________________________________________________________
max_pooling2d_112 (MaxPoolin (None, 16, 16, 64)        0         
_________________________________________________________________
flatten_138 (Flatten)        (None, 16384)             0         
_________________________________________________________________
dense_260 (Dense)            (None, 128)               2097280   
_________________________________________________________________
batch_normalization_333 (Bat (None, 128)               512       
_________________________________________________________________
activation_452 (Activation)  (None, 128)               0         
_________________________________________________________________
dropout_452 (Dropout)        (None, 128)               0         
_________________________________________________________________
dense_261 (Dense)            (None, 100)               12900     
=================================================================
Total params: 2,152,511
Trainable params: 2,151,103
Non-trainable params: 1,408
_________________________________________________________________
