Model: "sequential_243"
_________________________________________________________________
Layer (type)                 Output Shape              Param #   
=================================================================
separable_conv2d_612 (Separa (None, 32, 32, 512)       2075      
_________________________________________________________________
batch_normalization_656 (Bat (None, 32, 32, 512)       2048      
_________________________________________________________________
activation_856 (Activation)  (None, 32, 32, 512)       0         
_________________________________________________________________
dropout_856 (Dropout)        (None, 32, 32, 512)       0         
_________________________________________________________________
separable_conv2d_613 (Separa (None, 32, 32, 128)       70272     
_________________________________________________________________
batch_normalization_657 (Bat (None, 32, 32, 128)       512       
_________________________________________________________________
activation_857 (Activation)  (None, 32, 32, 128)       0         
_________________________________________________________________
dropout_857 (Dropout)        (None, 32, 32, 128)       0         
_________________________________________________________________
max_pooling2d_234 (MaxPoolin (None, 16, 16, 128)       0         
_________________________________________________________________
separable_conv2d_614 (Separa (None, 16, 16, 16)        3216      
_________________________________________________________________
activation_858 (Activation)  (None, 16, 16, 16)        0         
_________________________________________________________________
dropout_858 (Dropout)        (None, 16, 16, 16)        0         
_________________________________________________________________
flatten_243 (Flatten)        (None, 4096)              0         
_________________________________________________________________
dense_487 (Dense)            (None, 128)               524416    
_________________________________________________________________
batch_normalization_658 (Bat (None, 128)               512       
_________________________________________________________________
activation_859 (Activation)  (None, 128)               0         
_________________________________________________________________
dropout_859 (Dropout)        (None, 128)               0         
_________________________________________________________________
dense_488 (Dense)            (None, 100)               12900     
=================================================================
Total params: 615,951
Trainable params: 614,415
Non-trainable params: 1,536
_________________________________________________________________
