Model: "sequential_253"
_________________________________________________________________
Layer (type)                 Output Shape              Param #   
=================================================================
separable_conv2d_639 (Separa (None, 32, 32, 8)         59        
_________________________________________________________________
batch_normalization_689 (Bat (None, 32, 32, 8)         32        
_________________________________________________________________
activation_895 (Activation)  (None, 32, 32, 8)         0         
_________________________________________________________________
dropout_895 (Dropout)        (None, 32, 32, 8)         0         
_________________________________________________________________
separable_conv2d_640 (Separa (None, 32, 32, 64)        648       
_________________________________________________________________
batch_normalization_690 (Bat (None, 32, 32, 64)        256       
_________________________________________________________________
activation_896 (Activation)  (None, 32, 32, 64)        0         
_________________________________________________________________
dropout_896 (Dropout)        (None, 32, 32, 64)        0         
_________________________________________________________________
max_pooling2d_246 (MaxPoolin (None, 16, 16, 64)        0         
_________________________________________________________________
separable_conv2d_641 (Separa (None, 16, 16, 16)        1616      
_________________________________________________________________
activation_897 (Activation)  (None, 16, 16, 16)        0         
_________________________________________________________________
dropout_897 (Dropout)        (None, 16, 16, 16)        0         
_________________________________________________________________
flatten_253 (Flatten)        (None, 4096)              0         
_________________________________________________________________
dense_509 (Dense)            (None, 100)               409700    
=================================================================
Total params: 412,311
Trainable params: 412,167
Non-trainable params: 144
_________________________________________________________________
