Model: "sequential_453"
_________________________________________________________________
Layer (type)                 Output Shape              Param #   
=================================================================
separable_conv2d_1211 (Separ (None, 32, 32, 512)       2075      
_________________________________________________________________
activation_1715 (Activation) (None, 32, 32, 512)       0         
_________________________________________________________________
dropout_1715 (Dropout)       (None, 32, 32, 512)       0         
_________________________________________________________________
max_pooling2d_485 (MaxPoolin (None, 16, 16, 512)       0         
_________________________________________________________________
separable_conv2d_1212 (Separ (None, 16, 16, 128)       70272     
_________________________________________________________________
batch_normalization_1269 (Ba (None, 16, 16, 128)       512       
_________________________________________________________________
activation_1716 (Activation) (None, 16, 16, 128)       0         
_________________________________________________________________
dropout_1716 (Dropout)       (None, 16, 16, 128)       0         
_________________________________________________________________
separable_conv2d_1213 (Separ (None, 16, 16, 1024)      133248    
_________________________________________________________________
activation_1717 (Activation) (None, 16, 16, 1024)      0         
_________________________________________________________________
dropout_1717 (Dropout)       (None, 16, 16, 1024)      0         
_________________________________________________________________
flatten_453 (Flatten)        (None, 262144)            0         
_________________________________________________________________
dense_957 (Dense)            (None, 256)               67109120  
_________________________________________________________________
batch_normalization_1270 (Ba (None, 256)               1024      
_________________________________________________________________
activation_1718 (Activation) (None, 256)               0         
_________________________________________________________________
dropout_1718 (Dropout)       (None, 256)               0         
_________________________________________________________________
dense_958 (Dense)            (None, 100)               25700     
=================================================================
Total params: 67,341,951
Trainable params: 67,341,183
Non-trainable params: 768
_________________________________________________________________
