Model: "sequential_528"
_________________________________________________________________
Layer (type)                 Output Shape              Param #   
=================================================================
separable_conv2d_1430 (Separ (None, 32, 32, 256)       1051      
_________________________________________________________________
batch_normalization_1512 (Ba (None, 32, 32, 256)       1024      
_________________________________________________________________
activation_2061 (Activation) (None, 32, 32, 256)       0         
_________________________________________________________________
dropout_2061 (Dropout)       (None, 32, 32, 256)       0         
_________________________________________________________________
max_pooling2d_564 (MaxPoolin (None, 16, 16, 256)       0         
_________________________________________________________________
separable_conv2d_1431 (Separ (None, 16, 16, 128)       35200     
_________________________________________________________________
batch_normalization_1513 (Ba (None, 16, 16, 128)       512       
_________________________________________________________________
activation_2062 (Activation) (None, 16, 16, 128)       0         
_________________________________________________________________
dropout_2062 (Dropout)       (None, 16, 16, 128)       0         
_________________________________________________________________
separable_conv2d_1432 (Separ (None, 16, 16, 32)        5280      
_________________________________________________________________
activation_2063 (Activation) (None, 16, 16, 32)        0         
_________________________________________________________________
dropout_2063 (Dropout)       (None, 16, 16, 32)        0         
_________________________________________________________________
flatten_528 (Flatten)        (None, 8192)              0         
_________________________________________________________________
dense_1159 (Dense)           (None, 128)               1048704   
_________________________________________________________________
batch_normalization_1514 (Ba (None, 128)               512       
_________________________________________________________________
activation_2064 (Activation) (None, 128)               0         
_________________________________________________________________
dropout_2064 (Dropout)       (None, 128)               0         
_________________________________________________________________
dense_1160 (Dense)           (None, 100)               12900     
=================================================================
Total params: 1,105,183
Trainable params: 1,104,159
Non-trainable params: 1,024
_________________________________________________________________
