Model: "sequential_15"
_________________________________________________________________
Layer (type)                 Output Shape              Param #   
=================================================================
separable_conv2d_38 (Separab (None, 32, 32, 1024)      4123      
_________________________________________________________________
activation_54 (Activation)   (None, 32, 32, 1024)      0         
_________________________________________________________________
dropout_54 (Dropout)         (None, 32, 32, 1024)      0         
_________________________________________________________________
separable_conv2d_39 (Separab (None, 32, 32, 256)       271616    
_________________________________________________________________
activation_55 (Activation)   (None, 32, 32, 256)       0         
_________________________________________________________________
dropout_55 (Dropout)         (None, 32, 32, 256)       0         
_________________________________________________________________
separable_conv2d_40 (Separab (None, 32, 32, 64)        18752     
_________________________________________________________________
batch_normalization_33 (Batc (None, 32, 32, 64)        256       
_________________________________________________________________
activation_56 (Activation)   (None, 32, 32, 64)        0         
_________________________________________________________________
dropout_56 (Dropout)         (None, 32, 32, 64)        0         
_________________________________________________________________
flatten_15 (Flatten)         (None, 65536)             0         
_________________________________________________________________
dense_31 (Dense)             (None, 100)               6553700   
=================================================================
Total params: 6,848,447
Trainable params: 6,848,319
Non-trainable params: 128
_________________________________________________________________
