Model: "sequential_382"
_________________________________________________________________
Layer (type)                 Output Shape              Param #   
=================================================================
separable_conv2d_1004 (Separ (None, 32, 32, 512)       2075      
_________________________________________________________________
batch_normalization_1052 (Ba (None, 32, 32, 512)       2048      
_________________________________________________________________
activation_1396 (Activation) (None, 32, 32, 512)       0         
_________________________________________________________________
dropout_1396 (Dropout)       (None, 32, 32, 512)       0         
_________________________________________________________________
max_pooling2d_404 (MaxPoolin (None, 16, 16, 512)       0         
_________________________________________________________________
separable_conv2d_1005 (Separ (None, 16, 16, 128)       70272     
_________________________________________________________________
batch_normalization_1053 (Ba (None, 16, 16, 128)       512       
_________________________________________________________________
activation_1397 (Activation) (None, 16, 16, 128)       0         
_________________________________________________________________
dropout_1397 (Dropout)       (None, 16, 16, 128)       0         
_________________________________________________________________
separable_conv2d_1006 (Separ (None, 16, 16, 16)        3216      
_________________________________________________________________
activation_1398 (Activation) (None, 16, 16, 16)        0         
_________________________________________________________________
dropout_1398 (Dropout)       (None, 16, 16, 16)        0         
_________________________________________________________________
flatten_382 (Flatten)        (None, 4096)              0         
_________________________________________________________________
dense_774 (Dense)            (None, 512)               2097664   
_________________________________________________________________
batch_normalization_1054 (Ba (None, 512)               2048      
_________________________________________________________________
activation_1399 (Activation) (None, 512)               0         
_________________________________________________________________
dropout_1399 (Dropout)       (None, 512)               0         
_________________________________________________________________
dense_775 (Dense)            (None, 256)               131328    
_________________________________________________________________
batch_normalization_1055 (Ba (None, 256)               1024      
_________________________________________________________________
activation_1400 (Activation) (None, 256)               0         
_________________________________________________________________
dropout_1400 (Dropout)       (None, 256)               0         
_________________________________________________________________
dense_776 (Dense)            (None, 100)               25700     
=================================================================
Total params: 2,335,887
Trainable params: 2,333,071
Non-trainable params: 2,816
_________________________________________________________________
