Model: "sequential_591"
_________________________________________________________________
Layer (type)                 Output Shape              Param #   
=================================================================
separable_conv2d_1617 (Separ (None, 32, 32, 256)       1051      
_________________________________________________________________
batch_normalization_1715 (Ba (None, 32, 32, 256)       1024      
_________________________________________________________________
activation_2341 (Activation) (None, 32, 32, 256)       0         
_________________________________________________________________
dropout_2341 (Dropout)       (None, 32, 32, 256)       0         
_________________________________________________________________
max_pooling2d_615 (MaxPoolin (None, 16, 16, 256)       0         
_________________________________________________________________
separable_conv2d_1618 (Separ (None, 16, 16, 128)       35200     
_________________________________________________________________
batch_normalization_1716 (Ba (None, 16, 16, 128)       512       
_________________________________________________________________
activation_2342 (Activation) (None, 16, 16, 128)       0         
_________________________________________________________________
dropout_2342 (Dropout)       (None, 16, 16, 128)       0         
_________________________________________________________________
separable_conv2d_1619 (Separ (None, 16, 16, 32)        5280      
_________________________________________________________________
activation_2343 (Activation) (None, 16, 16, 32)        0         
_________________________________________________________________
dropout_2343 (Dropout)       (None, 16, 16, 32)        0         
_________________________________________________________________
flatten_591 (Flatten)        (None, 8192)              0         
_________________________________________________________________
dense_1315 (Dense)           (None, 2048)              16779264  
_________________________________________________________________
batch_normalization_1717 (Ba (None, 2048)              8192      
_________________________________________________________________
activation_2344 (Activation) (None, 2048)              0         
_________________________________________________________________
dropout_2344 (Dropout)       (None, 2048)              0         
_________________________________________________________________
dense_1316 (Dense)           (None, 100)               204900    
=================================================================
Total params: 17,035,423
Trainable params: 17,030,559
Non-trainable params: 4,864
_________________________________________________________________
