Model: "sequential_178"
_________________________________________________________________
Layer (type)                 Output Shape              Param #   
=================================================================
separable_conv2d_434 (Separa (None, 32, 32, 512)       2075      
_________________________________________________________________
batch_normalization_452 (Bat (None, 32, 32, 512)       2048      
_________________________________________________________________
activation_601 (Activation)  (None, 32, 32, 512)       0         
_________________________________________________________________
dropout_601 (Dropout)        (None, 32, 32, 512)       0         
_________________________________________________________________
max_pooling2d_156 (MaxPoolin (None, 16, 16, 512)       0         
_________________________________________________________________
separable_conv2d_435 (Separa (None, 16, 16, 64)        37440     
_________________________________________________________________
batch_normalization_453 (Bat (None, 16, 16, 64)        256       
_________________________________________________________________
activation_602 (Activation)  (None, 16, 16, 64)        0         
_________________________________________________________________
dropout_602 (Dropout)        (None, 16, 16, 64)        0         
_________________________________________________________________
max_pooling2d_157 (MaxPoolin (None, 8, 8, 64)          0         
_________________________________________________________________
separable_conv2d_436 (Separa (None, 8, 8, 16)          1616      
_________________________________________________________________
activation_603 (Activation)  (None, 8, 8, 16)          0         
_________________________________________________________________
dropout_603 (Dropout)        (None, 8, 8, 16)          0         
_________________________________________________________________
flatten_178 (Flatten)        (None, 1024)              0         
_________________________________________________________________
dense_345 (Dense)            (None, 512)               524800    
_________________________________________________________________
batch_normalization_454 (Bat (None, 512)               2048      
_________________________________________________________________
activation_604 (Activation)  (None, 512)               0         
_________________________________________________________________
dropout_604 (Dropout)        (None, 512)               0         
_________________________________________________________________
dense_346 (Dense)            (None, 100)               51300     
=================================================================
Total params: 621,583
Trainable params: 619,407
Non-trainable params: 2,176
_________________________________________________________________
