Model: "sequential_345"
_________________________________________________________________
Layer (type)                 Output Shape              Param #   
=================================================================
separable_conv2d_899 (Separa (None, 32, 32, 512)       2075      
_________________________________________________________________
batch_normalization_959 (Bat (None, 32, 32, 512)       2048      
_________________________________________________________________
activation_1255 (Activation) (None, 32, 32, 512)       0         
_________________________________________________________________
dropout_1255 (Dropout)       (None, 32, 32, 512)       0         
_________________________________________________________________
separable_conv2d_900 (Separa (None, 32, 32, 128)       70272     
_________________________________________________________________
batch_normalization_960 (Bat (None, 32, 32, 128)       512       
_________________________________________________________________
activation_1256 (Activation) (None, 32, 32, 128)       0         
_________________________________________________________________
dropout_1256 (Dropout)       (None, 32, 32, 128)       0         
_________________________________________________________________
separable_conv2d_901 (Separa (None, 32, 32, 16)        3216      
_________________________________________________________________
activation_1257 (Activation) (None, 32, 32, 16)        0         
_________________________________________________________________
dropout_1257 (Dropout)       (None, 32, 32, 16)        0         
_________________________________________________________________
flatten_345 (Flatten)        (None, 16384)             0         
_________________________________________________________________
dense_701 (Dense)            (None, 128)               2097280   
_________________________________________________________________
batch_normalization_961 (Bat (None, 128)               512       
_________________________________________________________________
activation_1258 (Activation) (None, 128)               0         
_________________________________________________________________
dropout_1258 (Dropout)       (None, 128)               0         
_________________________________________________________________
dense_702 (Dense)            (None, 100)               12900     
=================================================================
Total params: 2,188,815
Trainable params: 2,187,279
Non-trainable params: 1,536
_________________________________________________________________
