Model: "sequential_209"
_________________________________________________________________
Layer (type)                 Output Shape              Param #   
=================================================================
separable_conv2d_516 (Separa (None, 32, 32, 512)       2075      
_________________________________________________________________
batch_normalization_546 (Bat (None, 32, 32, 512)       2048      
_________________________________________________________________
activation_717 (Activation)  (None, 32, 32, 512)       0         
_________________________________________________________________
dropout_717 (Dropout)        (None, 32, 32, 512)       0         
_________________________________________________________________
max_pooling2d_192 (MaxPoolin (None, 16, 16, 512)       0         
_________________________________________________________________
separable_conv2d_517 (Separa (None, 16, 16, 64)        37440     
_________________________________________________________________
batch_normalization_547 (Bat (None, 16, 16, 64)        256       
_________________________________________________________________
activation_718 (Activation)  (None, 16, 16, 64)        0         
_________________________________________________________________
dropout_718 (Dropout)        (None, 16, 16, 64)        0         
_________________________________________________________________
max_pooling2d_193 (MaxPoolin (None, 8, 8, 64)          0         
_________________________________________________________________
separable_conv2d_518 (Separa (None, 8, 8, 16)          1616      
_________________________________________________________________
activation_719 (Activation)  (None, 8, 8, 16)          0         
_________________________________________________________________
dropout_719 (Dropout)        (None, 8, 8, 16)          0         
_________________________________________________________________
separable_conv2d_519 (Separa (None, 8, 8, 8)           280       
_________________________________________________________________
batch_normalization_548 (Bat (None, 8, 8, 8)           32        
_________________________________________________________________
activation_720 (Activation)  (None, 8, 8, 8)           0         
_________________________________________________________________
dropout_720 (Dropout)        (None, 8, 8, 8)           0         
_________________________________________________________________
max_pooling2d_194 (MaxPoolin (None, 4, 4, 8)           0         
_________________________________________________________________
flatten_209 (Flatten)        (None, 128)               0         
_________________________________________________________________
dense_410 (Dense)            (None, 512)               66048     
_________________________________________________________________
batch_normalization_549 (Bat (None, 512)               2048      
_________________________________________________________________
activation_721 (Activation)  (None, 512)               0         
_________________________________________________________________
dropout_721 (Dropout)        (None, 512)               0         
_________________________________________________________________
dense_411 (Dense)            (None, 100)               51300     
=================================================================
Total params: 163,143
Trainable params: 160,951
Non-trainable params: 2,192
_________________________________________________________________
