Model: "sequential_165"
_________________________________________________________________
Layer (type)                 Output Shape              Param #   
=================================================================
separable_conv2d_399 (Separa (None, 32, 32, 256)       1051      
_________________________________________________________________
batch_normalization_413 (Bat (None, 32, 32, 256)       1024      
_________________________________________________________________
activation_552 (Activation)  (None, 32, 32, 256)       0         
_________________________________________________________________
dropout_552 (Dropout)        (None, 32, 32, 256)       0         
_________________________________________________________________
max_pooling2d_141 (MaxPoolin (None, 16, 16, 256)       0         
_________________________________________________________________
separable_conv2d_400 (Separa (None, 16, 16, 128)       35200     
_________________________________________________________________
batch_normalization_414 (Bat (None, 16, 16, 128)       512       
_________________________________________________________________
activation_553 (Activation)  (None, 16, 16, 128)       0         
_________________________________________________________________
dropout_553 (Dropout)        (None, 16, 16, 128)       0         
_________________________________________________________________
max_pooling2d_142 (MaxPoolin (None, 8, 8, 128)         0         
_________________________________________________________________
separable_conv2d_401 (Separa (None, 8, 8, 16)          3216      
_________________________________________________________________
activation_554 (Activation)  (None, 8, 8, 16)          0         
_________________________________________________________________
dropout_554 (Dropout)        (None, 8, 8, 16)          0         
_________________________________________________________________
flatten_165 (Flatten)        (None, 1024)              0         
_________________________________________________________________
dense_318 (Dense)            (None, 128)               131200    
_________________________________________________________________
batch_normalization_415 (Bat (None, 128)               512       
_________________________________________________________________
activation_555 (Activation)  (None, 128)               0         
_________________________________________________________________
dropout_555 (Dropout)        (None, 128)               0         
_________________________________________________________________
dense_319 (Dense)            (None, 100)               12900     
=================================================================
Total params: 185,615
Trainable params: 184,591
Non-trainable params: 1,024
_________________________________________________________________
