Model: "sequential_511"
_________________________________________________________________
Layer (type)                 Output Shape              Param #   
=================================================================
separable_conv2d_1380 (Separ (None, 32, 32, 256)       1051      
_________________________________________________________________
batch_normalization_1458 (Ba (None, 32, 32, 256)       1024      
_________________________________________________________________
activation_1983 (Activation) (None, 32, 32, 256)       0         
_________________________________________________________________
dropout_1983 (Dropout)       (None, 32, 32, 256)       0         
_________________________________________________________________
max_pooling2d_549 (MaxPoolin (None, 16, 16, 256)       0         
_________________________________________________________________
separable_conv2d_1381 (Separ (None, 16, 16, 128)       35200     
_________________________________________________________________
batch_normalization_1459 (Ba (None, 16, 16, 128)       512       
_________________________________________________________________
activation_1984 (Activation) (None, 16, 16, 128)       0         
_________________________________________________________________
dropout_1984 (Dropout)       (None, 16, 16, 128)       0         
_________________________________________________________________
separable_conv2d_1382 (Separ (None, 16, 16, 16)        3216      
_________________________________________________________________
batch_normalization_1460 (Ba (None, 16, 16, 16)        64        
_________________________________________________________________
activation_1985 (Activation) (None, 16, 16, 16)        0         
_________________________________________________________________
dropout_1985 (Dropout)       (None, 16, 16, 16)        0         
_________________________________________________________________
flatten_511 (Flatten)        (None, 4096)              0         
_________________________________________________________________
dense_1114 (Dense)           (None, 128)               524416    
_________________________________________________________________
batch_normalization_1461 (Ba (None, 128)               512       
_________________________________________________________________
activation_1986 (Activation) (None, 128)               0         
_________________________________________________________________
dropout_1986 (Dropout)       (None, 128)               0         
_________________________________________________________________
dense_1115 (Dense)           (None, 100)               12900     
=================================================================
Total params: 578,895
Trainable params: 577,839
Non-trainable params: 1,056
_________________________________________________________________
