Model: "sequential_494"
_________________________________________________________________
Layer (type)                 Output Shape              Param #   
=================================================================
separable_conv2d_1329 (Separ (None, 32, 32, 256)       1051      
_________________________________________________________________
batch_normalization_1395 (Ba (None, 32, 32, 256)       1024      
_________________________________________________________________
activation_1903 (Activation) (None, 32, 32, 256)       0         
_________________________________________________________________
dropout_1903 (Dropout)       (None, 32, 32, 256)       0         
_________________________________________________________________
max_pooling2d_527 (MaxPoolin (None, 16, 16, 256)       0         
_________________________________________________________________
separable_conv2d_1330 (Separ (None, 16, 16, 64)        18752     
_________________________________________________________________
batch_normalization_1396 (Ba (None, 16, 16, 64)        256       
_________________________________________________________________
activation_1904 (Activation) (None, 16, 16, 64)        0         
_________________________________________________________________
dropout_1904 (Dropout)       (None, 16, 16, 64)        0         
_________________________________________________________________
max_pooling2d_528 (MaxPoolin (None, 8, 8, 64)          0         
_________________________________________________________________
separable_conv2d_1331 (Separ (None, 8, 8, 16)          1616      
_________________________________________________________________
activation_1905 (Activation) (None, 8, 8, 16)          0         
_________________________________________________________________
dropout_1905 (Dropout)       (None, 8, 8, 16)          0         
_________________________________________________________________
flatten_494 (Flatten)        (None, 1024)              0         
_________________________________________________________________
dense_1068 (Dense)           (None, 512)               524800    
_________________________________________________________________
batch_normalization_1397 (Ba (None, 512)               2048      
_________________________________________________________________
activation_1906 (Activation) (None, 512)               0         
_________________________________________________________________
dropout_1906 (Dropout)       (None, 512)               0         
_________________________________________________________________
dense_1069 (Dense)           (None, 256)               131328    
_________________________________________________________________
batch_normalization_1398 (Ba (None, 256)               1024      
_________________________________________________________________
activation_1907 (Activation) (None, 256)               0         
_________________________________________________________________
dropout_1907 (Dropout)       (None, 256)               0         
_________________________________________________________________
dense_1070 (Dense)           (None, 100)               25700     
=================================================================
Total params: 707,599
Trainable params: 705,423
Non-trainable params: 2,176
_________________________________________________________________
