Model: "sequential_314"
_________________________________________________________________
Layer (type)                 Output Shape              Param #   
=================================================================
separable_conv2d_812 (Separa (None, 32, 32, 512)       2075      
_________________________________________________________________
batch_normalization_869 (Bat (None, 32, 32, 512)       2048      
_________________________________________________________________
activation_1133 (Activation) (None, 32, 32, 512)       0         
_________________________________________________________________
dropout_1133 (Dropout)       (None, 32, 32, 512)       0         
_________________________________________________________________
max_pooling2d_319 (MaxPoolin (None, 16, 16, 512)       0         
_________________________________________________________________
separable_conv2d_813 (Separa (None, 16, 16, 128)       70272     
_________________________________________________________________
batch_normalization_870 (Bat (None, 16, 16, 128)       512       
_________________________________________________________________
activation_1134 (Activation) (None, 16, 16, 128)       0         
_________________________________________________________________
dropout_1134 (Dropout)       (None, 16, 16, 128)       0         
_________________________________________________________________
flatten_314 (Flatten)        (None, 32768)             0         
_________________________________________________________________
dense_635 (Dense)            (None, 128)               4194432   
_________________________________________________________________
batch_normalization_871 (Bat (None, 128)               512       
_________________________________________________________________
activation_1135 (Activation) (None, 128)               0         
_________________________________________________________________
dropout_1135 (Dropout)       (None, 128)               0         
_________________________________________________________________
dense_636 (Dense)            (None, 100)               12900     
=================================================================
Total params: 4,282,751
Trainable params: 4,281,215
Non-trainable params: 1,536
_________________________________________________________________
