Model: "sequential_426"
_________________________________________________________________
Layer (type)                 Output Shape              Param #   
=================================================================
separable_conv2d_1132 (Separ (None, 32, 32, 256)       1051      
_________________________________________________________________
batch_normalization_1182 (Ba (None, 32, 32, 256)       1024      
_________________________________________________________________
activation_1590 (Activation) (None, 32, 32, 256)       0         
_________________________________________________________________
dropout_1590 (Dropout)       (None, 32, 32, 256)       0         
_________________________________________________________________
max_pooling2d_455 (MaxPoolin (None, 16, 16, 256)       0         
_________________________________________________________________
separable_conv2d_1133 (Separ (None, 16, 16, 128)       35200     
_________________________________________________________________
batch_normalization_1183 (Ba (None, 16, 16, 128)       512       
_________________________________________________________________
activation_1591 (Activation) (None, 16, 16, 128)       0         
_________________________________________________________________
dropout_1591 (Dropout)       (None, 16, 16, 128)       0         
_________________________________________________________________
separable_conv2d_1134 (Separ (None, 16, 16, 16)        3216      
_________________________________________________________________
activation_1592 (Activation) (None, 16, 16, 16)        0         
_________________________________________________________________
dropout_1592 (Dropout)       (None, 16, 16, 16)        0         
_________________________________________________________________
flatten_426 (Flatten)        (None, 4096)              0         
_________________________________________________________________
dense_884 (Dense)            (None, 512)               2097664   
_________________________________________________________________
activation_1593 (Activation) (None, 512)               0         
_________________________________________________________________
dropout_1593 (Dropout)       (None, 512)               0         
_________________________________________________________________
dense_885 (Dense)            (None, 256)               131328    
_________________________________________________________________
batch_normalization_1184 (Ba (None, 256)               1024      
_________________________________________________________________
activation_1594 (Activation) (None, 256)               0         
_________________________________________________________________
dropout_1594 (Dropout)       (None, 256)               0         
_________________________________________________________________
dense_886 (Dense)            (None, 100)               25700     
=================================================================
Total params: 2,296,719
Trainable params: 2,295,439
Non-trainable params: 1,280
_________________________________________________________________
