Model: "sequential_415"
_________________________________________________________________
Layer (type)                 Output Shape              Param #   
=================================================================
separable_conv2d_1099 (Separ (None, 32, 32, 512)       2075      
_________________________________________________________________
batch_normalization_1155 (Ba (None, 32, 32, 512)       2048      
_________________________________________________________________
activation_1542 (Activation) (None, 32, 32, 512)       0         
_________________________________________________________________
dropout_1542 (Dropout)       (None, 32, 32, 512)       0         
_________________________________________________________________
max_pooling2d_443 (MaxPoolin (None, 16, 16, 512)       0         
_________________________________________________________________
separable_conv2d_1100 (Separ (None, 16, 16, 64)        37440     
_________________________________________________________________
activation_1543 (Activation) (None, 16, 16, 64)        0         
_________________________________________________________________
dropout_1543 (Dropout)       (None, 16, 16, 64)        0         
_________________________________________________________________
separable_conv2d_1101 (Separ (None, 16, 16, 512)       33856     
_________________________________________________________________
activation_1544 (Activation) (None, 16, 16, 512)       0         
_________________________________________________________________
dropout_1544 (Dropout)       (None, 16, 16, 512)       0         
_________________________________________________________________
flatten_415 (Flatten)        (None, 131072)            0         
_________________________________________________________________
dense_858 (Dense)            (None, 100)               13107300  
=================================================================
Total params: 13,182,719
Trainable params: 13,181,695
Non-trainable params: 1,024
_________________________________________________________________
