Model: "sequential_94"
_________________________________________________________________
Layer (type)                 Output Shape              Param #   
=================================================================
separable_conv2d_220 (Separa (None, 32, 32, 256)       1051      
_________________________________________________________________
batch_normalization_205 (Bat (None, 32, 32, 256)       1024      
_________________________________________________________________
activation_296 (Activation)  (None, 32, 32, 256)       0         
_________________________________________________________________
dropout_296 (Dropout)        (None, 32, 32, 256)       0         
_________________________________________________________________
max_pooling2d_69 (MaxPooling (None, 16, 16, 256)       0         
_________________________________________________________________
separable_conv2d_221 (Separa (None, 16, 16, 128)       35200     
_________________________________________________________________
batch_normalization_206 (Bat (None, 16, 16, 128)       512       
_________________________________________________________________
activation_297 (Activation)  (None, 16, 16, 128)       0         
_________________________________________________________________
dropout_297 (Dropout)        (None, 16, 16, 128)       0         
_________________________________________________________________
flatten_94 (Flatten)         (None, 32768)             0         
_________________________________________________________________
dense_170 (Dense)            (None, 128)               4194432   
_________________________________________________________________
batch_normalization_207 (Bat (None, 128)               512       
_________________________________________________________________
activation_298 (Activation)  (None, 128)               0         
_________________________________________________________________
dropout_298 (Dropout)        (None, 128)               0         
_________________________________________________________________
dense_171 (Dense)            (None, 100)               12900     
=================================================================
Total params: 4,245,631
Trainable params: 4,244,607
Non-trainable params: 1,024
_________________________________________________________________
