Model: "sequential_169"
_________________________________________________________________
Layer (type)                 Output Shape              Param #   
=================================================================
separable_conv2d_410 (Separa (None, 32, 32, 512)       2075      
_________________________________________________________________
batch_normalization_425 (Bat (None, 32, 32, 512)       2048      
_________________________________________________________________
activation_567 (Activation)  (None, 32, 32, 512)       0         
_________________________________________________________________
dropout_567 (Dropout)        (None, 32, 32, 512)       0         
_________________________________________________________________
separable_conv2d_411 (Separa (None, 32, 32, 64)        37440     
_________________________________________________________________
batch_normalization_426 (Bat (None, 32, 32, 64)        256       
_________________________________________________________________
activation_568 (Activation)  (None, 32, 32, 64)        0         
_________________________________________________________________
dropout_568 (Dropout)        (None, 32, 32, 64)        0         
_________________________________________________________________
max_pooling2d_146 (MaxPoolin (None, 16, 16, 64)        0         
_________________________________________________________________
separable_conv2d_412 (Separa (None, 16, 16, 16)        1616      
_________________________________________________________________
activation_569 (Activation)  (None, 16, 16, 16)        0         
_________________________________________________________________
dropout_569 (Dropout)        (None, 16, 16, 16)        0         
_________________________________________________________________
flatten_169 (Flatten)        (None, 4096)              0         
_________________________________________________________________
dense_326 (Dense)            (None, 128)               524416    
_________________________________________________________________
batch_normalization_427 (Bat (None, 128)               512       
_________________________________________________________________
activation_570 (Activation)  (None, 128)               0         
_________________________________________________________________
dropout_570 (Dropout)        (None, 128)               0         
_________________________________________________________________
dense_327 (Dense)            (None, 100)               12900     
=================================================================
Total params: 581,263
Trainable params: 579,855
Non-trainable params: 1,408
_________________________________________________________________
