Model: "sequential_277"
_________________________________________________________________
Layer (type)                 Output Shape              Param #   
=================================================================
separable_conv2d_706 (Separa (None, 32, 32, 512)       2075      
_________________________________________________________________
batch_normalization_764 (Bat (None, 32, 32, 512)       2048      
_________________________________________________________________
activation_990 (Activation)  (None, 32, 32, 512)       0         
_________________________________________________________________
dropout_990 (Dropout)        (None, 32, 32, 512)       0         
_________________________________________________________________
separable_conv2d_707 (Separa (None, 32, 32, 128)       70272     
_________________________________________________________________
batch_normalization_765 (Bat (None, 32, 32, 128)       512       
_________________________________________________________________
activation_991 (Activation)  (None, 32, 32, 128)       0         
_________________________________________________________________
dropout_991 (Dropout)        (None, 32, 32, 128)       0         
_________________________________________________________________
max_pooling2d_274 (MaxPoolin (None, 16, 16, 128)       0         
_________________________________________________________________
separable_conv2d_708 (Separa (None, 16, 16, 16)        3216      
_________________________________________________________________
activation_992 (Activation)  (None, 16, 16, 16)        0         
_________________________________________________________________
dropout_992 (Dropout)        (None, 16, 16, 16)        0         
_________________________________________________________________
flatten_277 (Flatten)        (None, 4096)              0         
_________________________________________________________________
dense_561 (Dense)            (None, 128)               524416    
_________________________________________________________________
batch_normalization_766 (Bat (None, 128)               512       
_________________________________________________________________
activation_993 (Activation)  (None, 128)               0         
_________________________________________________________________
dropout_993 (Dropout)        (None, 128)               0         
_________________________________________________________________
dense_562 (Dense)            (None, 100)               12900     
=================================================================
Total params: 615,951
Trainable params: 614,415
Non-trainable params: 1,536
_________________________________________________________________
