Model: "sequential_31"
_________________________________________________________________
Layer (type)                 Output Shape              Param #   
=================================================================
separable_conv2d_81 (Separab (None, 32, 32, 512)       2075      
_________________________________________________________________
batch_normalization_61 (Batc (None, 32, 32, 512)       2048      
_________________________________________________________________
activation_108 (Activation)  (None, 32, 32, 512)       0         
_________________________________________________________________
dropout_108 (Dropout)        (None, 32, 32, 512)       0         
_________________________________________________________________
separable_conv2d_82 (Separab (None, 32, 32, 64)        37440     
_________________________________________________________________
batch_normalization_62 (Batc (None, 32, 32, 64)        256       
_________________________________________________________________
activation_109 (Activation)  (None, 32, 32, 64)        0         
_________________________________________________________________
dropout_109 (Dropout)        (None, 32, 32, 64)        0         
_________________________________________________________________
separable_conv2d_83 (Separab (None, 32, 32, 16)        1616      
_________________________________________________________________
activation_110 (Activation)  (None, 32, 32, 16)        0         
_________________________________________________________________
dropout_110 (Dropout)        (None, 32, 32, 16)        0         
_________________________________________________________________
separable_conv2d_84 (Separab (None, 32, 32, 32)        688       
_________________________________________________________________
batch_normalization_63 (Batc (None, 32, 32, 32)        128       
_________________________________________________________________
activation_111 (Activation)  (None, 32, 32, 32)        0         
_________________________________________________________________
dropout_111 (Dropout)        (None, 32, 32, 32)        0         
_________________________________________________________________
flatten_31 (Flatten)         (None, 32768)             0         
_________________________________________________________________
dense_58 (Dense)             (None, 256)               8388864   
_________________________________________________________________
activation_112 (Activation)  (None, 256)               0         
_________________________________________________________________
dropout_112 (Dropout)        (None, 256)               0         
_________________________________________________________________
dense_59 (Dense)             (None, 1024)              263168    
_________________________________________________________________
batch_normalization_64 (Batc (None, 1024)              4096      
_________________________________________________________________
activation_113 (Activation)  (None, 1024)              0         
_________________________________________________________________
dropout_113 (Dropout)        (None, 1024)              0         
_________________________________________________________________
dense_60 (Dense)             (None, 100)               102500    
=================================================================
Total params: 8,802,879
Trainable params: 8,799,615
Non-trainable params: 3,264
_________________________________________________________________
