Model: "sequential_260"
_________________________________________________________________
Layer (type)                 Output Shape              Param #   
=================================================================
separable_conv2d_659 (Separa (None, 32, 32, 512)       2075      
_________________________________________________________________
batch_normalization_711 (Bat (None, 32, 32, 512)       2048      
_________________________________________________________________
activation_923 (Activation)  (None, 32, 32, 512)       0         
_________________________________________________________________
dropout_923 (Dropout)        (None, 32, 32, 512)       0         
_________________________________________________________________
max_pooling2d_255 (MaxPoolin (None, 16, 16, 512)       0         
_________________________________________________________________
separable_conv2d_660 (Separa (None, 16, 16, 128)       70272     
_________________________________________________________________
batch_normalization_712 (Bat (None, 16, 16, 128)       512       
_________________________________________________________________
activation_924 (Activation)  (None, 16, 16, 128)       0         
_________________________________________________________________
dropout_924 (Dropout)        (None, 16, 16, 128)       0         
_________________________________________________________________
separable_conv2d_661 (Separa (None, 16, 16, 16)        3216      
_________________________________________________________________
activation_925 (Activation)  (None, 16, 16, 16)        0         
_________________________________________________________________
dropout_925 (Dropout)        (None, 16, 16, 16)        0         
_________________________________________________________________
flatten_260 (Flatten)        (None, 4096)              0         
_________________________________________________________________
dense_524 (Dense)            (None, 128)               524416    
_________________________________________________________________
batch_normalization_713 (Bat (None, 128)               512       
_________________________________________________________________
activation_926 (Activation)  (None, 128)               0         
_________________________________________________________________
dropout_926 (Dropout)        (None, 128)               0         
_________________________________________________________________
dense_525 (Dense)            (None, 100)               12900     
=================================================================
Total params: 615,951
Trainable params: 614,415
Non-trainable params: 1,536
_________________________________________________________________
