Model: "sequential_281"
_________________________________________________________________
Layer (type)                 Output Shape              Param #   
=================================================================
separable_conv2d_717 (Separa (None, 32, 32, 512)       2075      
_________________________________________________________________
batch_normalization_775 (Bat (None, 32, 32, 512)       2048      
_________________________________________________________________
activation_1004 (Activation) (None, 32, 32, 512)       0         
_________________________________________________________________
dropout_1004 (Dropout)       (None, 32, 32, 512)       0         
_________________________________________________________________
max_pooling2d_279 (MaxPoolin (None, 16, 16, 512)       0         
_________________________________________________________________
separable_conv2d_718 (Separa (None, 16, 16, 128)       70272     
_________________________________________________________________
batch_normalization_776 (Bat (None, 16, 16, 128)       512       
_________________________________________________________________
activation_1005 (Activation) (None, 16, 16, 128)       0         
_________________________________________________________________
dropout_1005 (Dropout)       (None, 16, 16, 128)       0         
_________________________________________________________________
flatten_281 (Flatten)        (None, 32768)             0         
_________________________________________________________________
dense_568 (Dense)            (None, 512)               16777728  
_________________________________________________________________
batch_normalization_777 (Bat (None, 512)               2048      
_________________________________________________________________
activation_1006 (Activation) (None, 512)               0         
_________________________________________________________________
dropout_1006 (Dropout)       (None, 512)               0         
_________________________________________________________________
dense_569 (Dense)            (None, 256)               131328    
_________________________________________________________________
batch_normalization_778 (Bat (None, 256)               1024      
_________________________________________________________________
activation_1007 (Activation) (None, 256)               0         
_________________________________________________________________
dropout_1007 (Dropout)       (None, 256)               0         
_________________________________________________________________
dense_570 (Dense)            (None, 100)               25700     
=================================================================
Total params: 17,012,735
Trainable params: 17,009,919
Non-trainable params: 2,816
_________________________________________________________________
