Model: "sequential_464"
_________________________________________________________________
Layer (type)                 Output Shape              Param #   
=================================================================
separable_conv2d_1244 (Separ (None, 32, 32, 64)        283       
_________________________________________________________________
batch_normalization_1305 (Ba (None, 32, 32, 64)        256       
_________________________________________________________________
activation_1767 (Activation) (None, 32, 32, 64)        0         
_________________________________________________________________
dropout_1767 (Dropout)       (None, 32, 32, 64)        0         
_________________________________________________________________
separable_conv2d_1245 (Separ (None, 32, 32, 128)       8896      
_________________________________________________________________
batch_normalization_1306 (Ba (None, 32, 32, 128)       512       
_________________________________________________________________
activation_1768 (Activation) (None, 32, 32, 128)       0         
_________________________________________________________________
dropout_1768 (Dropout)       (None, 32, 32, 128)       0         
_________________________________________________________________
separable_conv2d_1246 (Separ (None, 32, 32, 1024)      133248    
_________________________________________________________________
activation_1769 (Activation) (None, 32, 32, 1024)      0         
_________________________________________________________________
dropout_1769 (Dropout)       (None, 32, 32, 1024)      0         
_________________________________________________________________
flatten_464 (Flatten)        (None, 1048576)           0         
_________________________________________________________________
dense_987 (Dense)            (None, 512)               536871424 
_________________________________________________________________
batch_normalization_1307 (Ba (None, 512)               2048      
_________________________________________________________________
activation_1770 (Activation) (None, 512)               0         
_________________________________________________________________
dropout_1770 (Dropout)       (None, 512)               0         
_________________________________________________________________
dense_988 (Dense)            (None, 256)               131328    
_________________________________________________________________
batch_normalization_1308 (Ba (None, 256)               1024      
_________________________________________________________________
activation_1771 (Activation) (None, 256)               0         
_________________________________________________________________
dropout_1771 (Dropout)       (None, 256)               0         
_________________________________________________________________
dense_989 (Dense)            (None, 100)               25700     
=================================================================
Total params: 537,174,719
Trainable params: 537,172,799
Non-trainable params: 1,920
_________________________________________________________________
