Model: "sequential_268"
_________________________________________________________________
Layer (type)                 Output Shape              Param #   
=================================================================
separable_conv2d_679 (Separa (None, 32, 32, 512)       2075      
_________________________________________________________________
batch_normalization_735 (Bat (None, 32, 32, 512)       2048      
_________________________________________________________________
activation_952 (Activation)  (None, 32, 32, 512)       0         
_________________________________________________________________
dropout_952 (Dropout)        (None, 32, 32, 512)       0         
_________________________________________________________________
max_pooling2d_264 (MaxPoolin (None, 16, 16, 512)       0         
_________________________________________________________________
separable_conv2d_680 (Separa (None, 16, 16, 64)        37440     
_________________________________________________________________
batch_normalization_736 (Bat (None, 16, 16, 64)        256       
_________________________________________________________________
activation_953 (Activation)  (None, 16, 16, 64)        0         
_________________________________________________________________
dropout_953 (Dropout)        (None, 16, 16, 64)        0         
_________________________________________________________________
max_pooling2d_265 (MaxPoolin (None, 8, 8, 64)          0         
_________________________________________________________________
separable_conv2d_681 (Separa (None, 8, 8, 16)          1616      
_________________________________________________________________
activation_954 (Activation)  (None, 8, 8, 16)          0         
_________________________________________________________________
dropout_954 (Dropout)        (None, 8, 8, 16)          0         
_________________________________________________________________
flatten_268 (Flatten)        (None, 1024)              0         
_________________________________________________________________
dense_541 (Dense)            (None, 100)               102500    
=================================================================
Total params: 145,935
Trainable params: 144,783
Non-trainable params: 1,152
_________________________________________________________________
