Model: "sequential_28"
_________________________________________________________________
Layer (type)                 Output Shape              Param #   
=================================================================
separable_conv2d_74 (Separab (None, 32, 32, 8)         59        
_________________________________________________________________
batch_normalization_57 (Batc (None, 32, 32, 8)         32        
_________________________________________________________________
activation_100 (Activation)  (None, 32, 32, 8)         0         
_________________________________________________________________
dropout_100 (Dropout)        (None, 32, 32, 8)         0         
_________________________________________________________________
separable_conv2d_75 (Separab (None, 32, 32, 64)        648       
_________________________________________________________________
activation_101 (Activation)  (None, 32, 32, 64)        0         
_________________________________________________________________
dropout_101 (Dropout)        (None, 32, 32, 64)        0         
_________________________________________________________________
separable_conv2d_76 (Separab (None, 32, 32, 32)        2656      
_________________________________________________________________
activation_102 (Activation)  (None, 32, 32, 32)        0         
_________________________________________________________________
dropout_102 (Dropout)        (None, 32, 32, 32)        0         
_________________________________________________________________
flatten_28 (Flatten)         (None, 32768)             0         
_________________________________________________________________
dense_54 (Dense)             (None, 100)               3276900   
=================================================================
Total params: 3,280,295
Trainable params: 3,280,279
Non-trainable params: 16
_________________________________________________________________
