Model: "sequential_66"
_________________________________________________________________
Layer (type)                 Output Shape              Param #   
=================================================================
separable_conv2d_155 (Separa (None, 32, 32, 512)       2075      
_________________________________________________________________
batch_normalization_137 (Bat (None, 32, 32, 512)       2048      
_________________________________________________________________
activation_209 (Activation)  (None, 32, 32, 512)       0         
_________________________________________________________________
dropout_209 (Dropout)        (None, 32, 32, 512)       0         
_________________________________________________________________
separable_conv2d_156 (Separa (None, 32, 32, 64)        37440     
_________________________________________________________________
batch_normalization_138 (Bat (None, 32, 32, 64)        256       
_________________________________________________________________
activation_210 (Activation)  (None, 32, 32, 64)        0         
_________________________________________________________________
dropout_210 (Dropout)        (None, 32, 32, 64)        0         
_________________________________________________________________
max_pooling2d_49 (MaxPooling (None, 16, 16, 64)        0         
_________________________________________________________________
separable_conv2d_157 (Separa (None, 16, 16, 128)       8896      
_________________________________________________________________
activation_211 (Activation)  (None, 16, 16, 128)       0         
_________________________________________________________________
dropout_211 (Dropout)        (None, 16, 16, 128)       0         
_________________________________________________________________
flatten_66 (Flatten)         (None, 32768)             0         
_________________________________________________________________
dense_120 (Dense)            (None, 512)               16777728  
_________________________________________________________________
batch_normalization_139 (Bat (None, 512)               2048      
_________________________________________________________________
activation_212 (Activation)  (None, 512)               0         
_________________________________________________________________
dropout_212 (Dropout)        (None, 512)               0         
_________________________________________________________________
dense_121 (Dense)            (None, 256)               131328    
_________________________________________________________________
batch_normalization_140 (Bat (None, 256)               1024      
_________________________________________________________________
activation_213 (Activation)  (None, 256)               0         
_________________________________________________________________
dropout_213 (Dropout)        (None, 256)               0         
_________________________________________________________________
dense_122 (Dense)            (None, 100)               25700     
=================================================================
Total params: 16,988,543
Trainable params: 16,985,855
Non-trainable params: 2,688
_________________________________________________________________
