Model: "sequential_544"
_________________________________________________________________
Layer (type)                 Output Shape              Param #   
=================================================================
separable_conv2d_1477 (Separ (None, 32, 32, 256)       1051      
_________________________________________________________________
batch_normalization_1565 (Ba (None, 32, 32, 256)       1024      
_________________________________________________________________
activation_2132 (Activation) (None, 32, 32, 256)       0         
_________________________________________________________________
dropout_2132 (Dropout)       (None, 32, 32, 256)       0         
_________________________________________________________________
max_pooling2d_578 (MaxPoolin (None, 16, 16, 256)       0         
_________________________________________________________________
separable_conv2d_1478 (Separ (None, 16, 16, 64)        18752     
_________________________________________________________________
batch_normalization_1566 (Ba (None, 16, 16, 64)        256       
_________________________________________________________________
activation_2133 (Activation) (None, 16, 16, 64)        0         
_________________________________________________________________
dropout_2133 (Dropout)       (None, 16, 16, 64)        0         
_________________________________________________________________
separable_conv2d_1479 (Separ (None, 16, 16, 16)        1616      
_________________________________________________________________
activation_2134 (Activation) (None, 16, 16, 16)        0         
_________________________________________________________________
dropout_2134 (Dropout)       (None, 16, 16, 16)        0         
_________________________________________________________________
flatten_544 (Flatten)        (None, 4096)              0         
_________________________________________________________________
dense_1199 (Dense)           (None, 512)               2097664   
_________________________________________________________________
batch_normalization_1567 (Ba (None, 512)               2048      
_________________________________________________________________
activation_2135 (Activation) (None, 512)               0         
_________________________________________________________________
dropout_2135 (Dropout)       (None, 512)               0         
_________________________________________________________________
dense_1200 (Dense)           (None, 256)               131328    
_________________________________________________________________
batch_normalization_1568 (Ba (None, 256)               1024      
_________________________________________________________________
activation_2136 (Activation) (None, 256)               0         
_________________________________________________________________
dropout_2136 (Dropout)       (None, 256)               0         
_________________________________________________________________
dense_1201 (Dense)           (None, 100)               25700     
=================================================================
Total params: 2,280,463
Trainable params: 2,278,287
Non-trainable params: 2,176
_________________________________________________________________
