Model: "sequential_420"
_________________________________________________________________
Layer (type)                 Output Shape              Param #   
=================================================================
separable_conv2d_1114 (Separ (None, 32, 32, 256)       1051      
_________________________________________________________________
batch_normalization_1166 (Ba (None, 32, 32, 256)       1024      
_________________________________________________________________
activation_1563 (Activation) (None, 32, 32, 256)       0         
_________________________________________________________________
dropout_1563 (Dropout)       (None, 32, 32, 256)       0         
_________________________________________________________________
max_pooling2d_448 (MaxPoolin (None, 16, 16, 256)       0         
_________________________________________________________________
separable_conv2d_1115 (Separ (None, 16, 16, 64)        18752     
_________________________________________________________________
activation_1564 (Activation) (None, 16, 16, 64)        0         
_________________________________________________________________
dropout_1564 (Dropout)       (None, 16, 16, 64)        0         
_________________________________________________________________
max_pooling2d_449 (MaxPoolin (None, 8, 8, 64)          0         
_________________________________________________________________
separable_conv2d_1116 (Separ (None, 8, 8, 256)         17216     
_________________________________________________________________
activation_1565 (Activation) (None, 8, 8, 256)         0         
_________________________________________________________________
dropout_1565 (Dropout)       (None, 8, 8, 256)         0         
_________________________________________________________________
flatten_420 (Flatten)        (None, 16384)             0         
_________________________________________________________________
dense_869 (Dense)            (None, 512)               8389120   
_________________________________________________________________
batch_normalization_1167 (Ba (None, 512)               2048      
_________________________________________________________________
activation_1566 (Activation) (None, 512)               0         
_________________________________________________________________
dropout_1566 (Dropout)       (None, 512)               0         
_________________________________________________________________
dense_870 (Dense)            (None, 16)                8208      
_________________________________________________________________
batch_normalization_1168 (Ba (None, 16)                64        
_________________________________________________________________
activation_1567 (Activation) (None, 16)                0         
_________________________________________________________________
dropout_1567 (Dropout)       (None, 16)                0         
_________________________________________________________________
dense_871 (Dense)            (None, 100)               1700      
=================================================================
Total params: 8,439,183
Trainable params: 8,437,615
Non-trainable params: 1,568
_________________________________________________________________
