Model: "sequential_193"
_________________________________________________________________
Layer (type)                 Output Shape              Param #   
=================================================================
separable_conv2d_472 (Separa (None, 32, 32, 512)       2075      
_________________________________________________________________
batch_normalization_496 (Bat (None, 32, 32, 512)       2048      
_________________________________________________________________
activation_655 (Activation)  (None, 32, 32, 512)       0         
_________________________________________________________________
dropout_655 (Dropout)        (None, 32, 32, 512)       0         
_________________________________________________________________
max_pooling2d_173 (MaxPoolin (None, 16, 16, 512)       0         
_________________________________________________________________
separable_conv2d_473 (Separa (None, 16, 16, 128)       70272     
_________________________________________________________________
batch_normalization_497 (Bat (None, 16, 16, 128)       512       
_________________________________________________________________
activation_656 (Activation)  (None, 16, 16, 128)       0         
_________________________________________________________________
dropout_656 (Dropout)        (None, 16, 16, 128)       0         
_________________________________________________________________
flatten_193 (Flatten)        (None, 32768)             0         
_________________________________________________________________
dense_376 (Dense)            (None, 128)               4194432   
_________________________________________________________________
batch_normalization_498 (Bat (None, 128)               512       
_________________________________________________________________
activation_657 (Activation)  (None, 128)               0         
_________________________________________________________________
dropout_657 (Dropout)        (None, 128)               0         
_________________________________________________________________
dense_377 (Dense)            (None, 100)               12900     
=================================================================
Total params: 4,282,751
Trainable params: 4,281,215
Non-trainable params: 1,536
_________________________________________________________________
