Model: "sequential_381"
_________________________________________________________________
Layer (type)                 Output Shape              Param #   
=================================================================
separable_conv2d_1002 (Separ (None, 32, 32, 512)       2075      
_________________________________________________________________
batch_normalization_1048 (Ba (None, 32, 32, 512)       2048      
_________________________________________________________________
activation_1392 (Activation) (None, 32, 32, 512)       0         
_________________________________________________________________
dropout_1392 (Dropout)       (None, 32, 32, 512)       0         
_________________________________________________________________
max_pooling2d_402 (MaxPoolin (None, 16, 16, 512)       0         
_________________________________________________________________
separable_conv2d_1003 (Separ (None, 16, 16, 256)       135936    
_________________________________________________________________
batch_normalization_1049 (Ba (None, 16, 16, 256)       1024      
_________________________________________________________________
activation_1393 (Activation) (None, 16, 16, 256)       0         
_________________________________________________________________
dropout_1393 (Dropout)       (None, 16, 16, 256)       0         
_________________________________________________________________
max_pooling2d_403 (MaxPoolin (None, 8, 8, 256)         0         
_________________________________________________________________
flatten_381 (Flatten)        (None, 16384)             0         
_________________________________________________________________
dense_771 (Dense)            (None, 512)               8389120   
_________________________________________________________________
batch_normalization_1050 (Ba (None, 512)               2048      
_________________________________________________________________
activation_1394 (Activation) (None, 512)               0         
_________________________________________________________________
dropout_1394 (Dropout)       (None, 512)               0         
_________________________________________________________________
dense_772 (Dense)            (None, 256)               131328    
_________________________________________________________________
batch_normalization_1051 (Ba (None, 256)               1024      
_________________________________________________________________
activation_1395 (Activation) (None, 256)               0         
_________________________________________________________________
dropout_1395 (Dropout)       (None, 256)               0         
_________________________________________________________________
dense_773 (Dense)            (None, 100)               25700     
=================================================================
Total params: 8,690,303
Trainable params: 8,687,231
Non-trainable params: 3,072
_________________________________________________________________
