Model: "sequential_229"
_________________________________________________________________
Layer (type)                 Output Shape              Param #   
=================================================================
separable_conv2d_573 (Separa (None, 32, 32, 8)         59        
_________________________________________________________________
batch_normalization_608 (Bat (None, 32, 32, 8)         32        
_________________________________________________________________
activation_796 (Activation)  (None, 32, 32, 8)         0         
_________________________________________________________________
dropout_796 (Dropout)        (None, 32, 32, 8)         0         
_________________________________________________________________
separable_conv2d_574 (Separa (None, 32, 32, 64)        648       
_________________________________________________________________
batch_normalization_609 (Bat (None, 32, 32, 64)        256       
_________________________________________________________________
activation_797 (Activation)  (None, 32, 32, 64)        0         
_________________________________________________________________
dropout_797 (Dropout)        (None, 32, 32, 64)        0         
_________________________________________________________________
max_pooling2d_217 (MaxPoolin (None, 16, 16, 64)        0         
_________________________________________________________________
separable_conv2d_575 (Separa (None, 16, 16, 16)        1616      
_________________________________________________________________
activation_798 (Activation)  (None, 16, 16, 16)        0         
_________________________________________________________________
dropout_798 (Dropout)        (None, 16, 16, 16)        0         
_________________________________________________________________
flatten_229 (Flatten)        (None, 4096)              0         
_________________________________________________________________
dense_452 (Dense)            (None, 512)               2097664   
_________________________________________________________________
batch_normalization_610 (Bat (None, 512)               2048      
_________________________________________________________________
activation_799 (Activation)  (None, 512)               0         
_________________________________________________________________
dropout_799 (Dropout)        (None, 512)               0         
_________________________________________________________________
dense_453 (Dense)            (None, 256)               131328    
_________________________________________________________________
batch_normalization_611 (Bat (None, 256)               1024      
_________________________________________________________________
activation_800 (Activation)  (None, 256)               0         
_________________________________________________________________
dropout_800 (Dropout)        (None, 256)               0         
_________________________________________________________________
dense_454 (Dense)            (None, 100)               25700     
=================================================================
Total params: 2,260,375
Trainable params: 2,258,695
Non-trainable params: 1,680
_________________________________________________________________
