Model: "sequential_221"
_________________________________________________________________
Layer (type)                 Output Shape              Param #   
=================================================================
separable_conv2d_550 (Separa (None, 32, 32, 512)       2075      
_________________________________________________________________
batch_normalization_584 (Bat (None, 32, 32, 512)       2048      
_________________________________________________________________
activation_765 (Activation)  (None, 32, 32, 512)       0         
_________________________________________________________________
dropout_765 (Dropout)        (None, 32, 32, 512)       0         
_________________________________________________________________
separable_conv2d_551 (Separa (None, 32, 32, 64)        37440     
_________________________________________________________________
batch_normalization_585 (Bat (None, 32, 32, 64)        256       
_________________________________________________________________
activation_766 (Activation)  (None, 32, 32, 64)        0         
_________________________________________________________________
dropout_766 (Dropout)        (None, 32, 32, 64)        0         
_________________________________________________________________
max_pooling2d_209 (MaxPoolin (None, 16, 16, 64)        0         
_________________________________________________________________
separable_conv2d_552 (Separa (None, 16, 16, 16)        1616      
_________________________________________________________________
activation_767 (Activation)  (None, 16, 16, 16)        0         
_________________________________________________________________
dropout_767 (Dropout)        (None, 16, 16, 16)        0         
_________________________________________________________________
flatten_221 (Flatten)        (None, 4096)              0         
_________________________________________________________________
dense_436 (Dense)            (None, 128)               524416    
_________________________________________________________________
batch_normalization_586 (Bat (None, 128)               512       
_________________________________________________________________
activation_768 (Activation)  (None, 128)               0         
_________________________________________________________________
dropout_768 (Dropout)        (None, 128)               0         
_________________________________________________________________
dense_437 (Dense)            (None, 100)               12900     
=================================================================
Total params: 581,263
Trainable params: 579,855
Non-trainable params: 1,408
_________________________________________________________________
