Model: "sequential_150"
_________________________________________________________________
Layer (type)                 Output Shape              Param #   
=================================================================
separable_conv2d_359 (Separa (None, 32, 32, 256)       1051      
_________________________________________________________________
batch_normalization_366 (Bat (None, 32, 32, 256)       1024      
_________________________________________________________________
activation_493 (Activation)  (None, 32, 32, 256)       0         
_________________________________________________________________
dropout_493 (Dropout)        (None, 32, 32, 256)       0         
_________________________________________________________________
separable_conv2d_360 (Separa (None, 32, 32, 64)        18752     
_________________________________________________________________
activation_494 (Activation)  (None, 32, 32, 64)        0         
_________________________________________________________________
dropout_494 (Dropout)        (None, 32, 32, 64)        0         
_________________________________________________________________
max_pooling2d_126 (MaxPoolin (None, 16, 16, 64)        0         
_________________________________________________________________
separable_conv2d_361 (Separa (None, 16, 16, 16)        1616      
_________________________________________________________________
activation_495 (Activation)  (None, 16, 16, 16)        0         
_________________________________________________________________
dropout_495 (Dropout)        (None, 16, 16, 16)        0         
_________________________________________________________________
flatten_150 (Flatten)        (None, 4096)              0         
_________________________________________________________________
dense_284 (Dense)            (None, 128)               524416    
_________________________________________________________________
batch_normalization_367 (Bat (None, 128)               512       
_________________________________________________________________
activation_496 (Activation)  (None, 128)               0         
_________________________________________________________________
dropout_496 (Dropout)        (None, 128)               0         
_________________________________________________________________
dense_285 (Dense)            (None, 100)               12900     
=================================================================
Total params: 560,271
Trainable params: 559,503
Non-trainable params: 768
_________________________________________________________________
