Model: "sequential_507"
_________________________________________________________________
Layer (type)                 Output Shape              Param #   
=================================================================
separable_conv2d_1368 (Separ (None, 32, 32, 512)       2075      
_________________________________________________________________
batch_normalization_1443 (Ba (None, 32, 32, 512)       2048      
_________________________________________________________________
activation_1966 (Activation) (None, 32, 32, 512)       0         
_________________________________________________________________
dropout_1966 (Dropout)       (None, 32, 32, 512)       0         
_________________________________________________________________
max_pooling2d_542 (MaxPoolin (None, 16, 16, 512)       0         
_________________________________________________________________
separable_conv2d_1369 (Separ (None, 16, 16, 64)        37440     
_________________________________________________________________
batch_normalization_1444 (Ba (None, 16, 16, 64)        256       
_________________________________________________________________
activation_1967 (Activation) (None, 16, 16, 64)        0         
_________________________________________________________________
dropout_1967 (Dropout)       (None, 16, 16, 64)        0         
_________________________________________________________________
max_pooling2d_543 (MaxPoolin (None, 8, 8, 64)          0         
_________________________________________________________________
separable_conv2d_1370 (Separ (None, 8, 8, 16)          1616      
_________________________________________________________________
activation_1968 (Activation) (None, 8, 8, 16)          0         
_________________________________________________________________
dropout_1968 (Dropout)       (None, 8, 8, 16)          0         
_________________________________________________________________
flatten_507 (Flatten)        (None, 1024)              0         
_________________________________________________________________
dense_1105 (Dense)           (None, 512)               524800    
_________________________________________________________________
batch_normalization_1445 (Ba (None, 512)               2048      
_________________________________________________________________
activation_1969 (Activation) (None, 512)               0         
_________________________________________________________________
dropout_1969 (Dropout)       (None, 512)               0         
_________________________________________________________________
dense_1106 (Dense)           (None, 100)               51300     
=================================================================
Total params: 621,583
Trainable params: 619,407
Non-trainable params: 2,176
_________________________________________________________________
