Model: "sequential_379"
_________________________________________________________________
Layer (type)                 Output Shape              Param #   
=================================================================
separable_conv2d_996 (Separa (None, 32, 32, 256)       1051      
_________________________________________________________________
batch_normalization_1045 (Ba (None, 32, 32, 256)       1024      
_________________________________________________________________
activation_1384 (Activation) (None, 32, 32, 256)       0         
_________________________________________________________________
dropout_1384 (Dropout)       (None, 32, 32, 256)       0         
_________________________________________________________________
max_pooling2d_399 (MaxPoolin (None, 16, 16, 256)       0         
_________________________________________________________________
separable_conv2d_997 (Separa (None, 16, 16, 64)        18752     
_________________________________________________________________
activation_1385 (Activation) (None, 16, 16, 64)        0         
_________________________________________________________________
dropout_1385 (Dropout)       (None, 16, 16, 64)        0         
_________________________________________________________________
max_pooling2d_400 (MaxPoolin (None, 8, 8, 64)          0         
_________________________________________________________________
separable_conv2d_998 (Separa (None, 8, 8, 16)          1616      
_________________________________________________________________
activation_1386 (Activation) (None, 8, 8, 16)          0         
_________________________________________________________________
dropout_1386 (Dropout)       (None, 8, 8, 16)          0         
_________________________________________________________________
flatten_379 (Flatten)        (None, 1024)              0         
_________________________________________________________________
dense_767 (Dense)            (None, 512)               524800    
_________________________________________________________________
activation_1387 (Activation) (None, 512)               0         
_________________________________________________________________
dropout_1387 (Dropout)       (None, 512)               0         
_________________________________________________________________
dense_768 (Dense)            (None, 256)               131328    
_________________________________________________________________
batch_normalization_1046 (Ba (None, 256)               1024      
_________________________________________________________________
activation_1388 (Activation) (None, 256)               0         
_________________________________________________________________
dropout_1388 (Dropout)       (None, 256)               0         
_________________________________________________________________
dense_769 (Dense)            (None, 100)               25700     
=================================================================
Total params: 705,295
Trainable params: 704,271
Non-trainable params: 1,024
_________________________________________________________________
