Model: "sequential_177"
_________________________________________________________________
Layer (type)                 Output Shape              Param #   
=================================================================
separable_conv2d_431 (Separa (None, 32, 32, 256)       1051      
_________________________________________________________________
batch_normalization_449 (Bat (None, 32, 32, 256)       1024      
_________________________________________________________________
activation_597 (Activation)  (None, 32, 32, 256)       0         
_________________________________________________________________
dropout_597 (Dropout)        (None, 32, 32, 256)       0         
_________________________________________________________________
max_pooling2d_154 (MaxPoolin (None, 16, 16, 256)       0         
_________________________________________________________________
separable_conv2d_432 (Separa (None, 16, 16, 128)       35200     
_________________________________________________________________
batch_normalization_450 (Bat (None, 16, 16, 128)       512       
_________________________________________________________________
activation_598 (Activation)  (None, 16, 16, 128)       0         
_________________________________________________________________
dropout_598 (Dropout)        (None, 16, 16, 128)       0         
_________________________________________________________________
max_pooling2d_155 (MaxPoolin (None, 8, 8, 128)         0         
_________________________________________________________________
separable_conv2d_433 (Separa (None, 8, 8, 16)          3216      
_________________________________________________________________
activation_599 (Activation)  (None, 8, 8, 16)          0         
_________________________________________________________________
dropout_599 (Dropout)        (None, 8, 8, 16)          0         
_________________________________________________________________
flatten_177 (Flatten)        (None, 1024)              0         
_________________________________________________________________
dense_343 (Dense)            (None, 512)               524800    
_________________________________________________________________
batch_normalization_451 (Bat (None, 512)               2048      
_________________________________________________________________
activation_600 (Activation)  (None, 512)               0         
_________________________________________________________________
dropout_600 (Dropout)        (None, 512)               0         
_________________________________________________________________
dense_344 (Dense)            (None, 100)               51300     
=================================================================
Total params: 619,151
Trainable params: 617,359
Non-trainable params: 1,792
_________________________________________________________________
