Model: "sequential_546"
_________________________________________________________________
Layer (type)                 Output Shape              Param #   
=================================================================
separable_conv2d_1483 (Separ (None, 32, 32, 128)       539       
_________________________________________________________________
batch_normalization_1572 (Ba (None, 32, 32, 128)       512       
_________________________________________________________________
activation_2142 (Activation) (None, 32, 32, 128)       0         
_________________________________________________________________
dropout_2142 (Dropout)       (None, 32, 32, 128)       0         
_________________________________________________________________
max_pooling2d_580 (MaxPoolin (None, 16, 16, 128)       0         
_________________________________________________________________
separable_conv2d_1484 (Separ (None, 16, 16, 64)        9408      
_________________________________________________________________
batch_normalization_1573 (Ba (None, 16, 16, 64)        256       
_________________________________________________________________
activation_2143 (Activation) (None, 16, 16, 64)        0         
_________________________________________________________________
dropout_2143 (Dropout)       (None, 16, 16, 64)        0         
_________________________________________________________________
separable_conv2d_1485 (Separ (None, 16, 16, 16)        1616      
_________________________________________________________________
activation_2144 (Activation) (None, 16, 16, 16)        0         
_________________________________________________________________
dropout_2144 (Dropout)       (None, 16, 16, 16)        0         
_________________________________________________________________
flatten_546 (Flatten)        (None, 4096)              0         
_________________________________________________________________
dense_1205 (Dense)           (None, 1024)              4195328   
_________________________________________________________________
batch_normalization_1574 (Ba (None, 1024)              4096      
_________________________________________________________________
activation_2145 (Activation) (None, 1024)              0         
_________________________________________________________________
dropout_2145 (Dropout)       (None, 1024)              0         
_________________________________________________________________
dense_1206 (Dense)           (None, 256)               262400    
_________________________________________________________________
batch_normalization_1575 (Ba (None, 256)               1024      
_________________________________________________________________
activation_2146 (Activation) (None, 256)               0         
_________________________________________________________________
dropout_2146 (Dropout)       (None, 256)               0         
_________________________________________________________________
dense_1207 (Dense)           (None, 100)               25700     
=================================================================
Total params: 4,500,879
Trainable params: 4,497,935
Non-trainable params: 2,944
_________________________________________________________________
