Model: "sequential_536"
_________________________________________________________________
Layer (type)                 Output Shape              Param #   
=================================================================
separable_conv2d_1453 (Separ (None, 32, 32, 512)       2075      
_________________________________________________________________
batch_normalization_1537 (Ba (None, 32, 32, 512)       2048      
_________________________________________________________________
activation_2095 (Activation) (None, 32, 32, 512)       0         
_________________________________________________________________
dropout_2095 (Dropout)       (None, 32, 32, 512)       0         
_________________________________________________________________
max_pooling2d_571 (MaxPoolin (None, 16, 16, 512)       0         
_________________________________________________________________
separable_conv2d_1454 (Separ (None, 16, 16, 64)        37440     
_________________________________________________________________
batch_normalization_1538 (Ba (None, 16, 16, 64)        256       
_________________________________________________________________
activation_2096 (Activation) (None, 16, 16, 64)        0         
_________________________________________________________________
dropout_2096 (Dropout)       (None, 16, 16, 64)        0         
_________________________________________________________________
separable_conv2d_1455 (Separ (None, 16, 16, 512)       33856     
_________________________________________________________________
activation_2097 (Activation) (None, 16, 16, 512)       0         
_________________________________________________________________
dropout_2097 (Dropout)       (None, 16, 16, 512)       0         
_________________________________________________________________
flatten_536 (Flatten)        (None, 131072)            0         
_________________________________________________________________
dense_1178 (Dense)           (None, 256)               33554688  
_________________________________________________________________
batch_normalization_1539 (Ba (None, 256)               1024      
_________________________________________________________________
activation_2098 (Activation) (None, 256)               0         
_________________________________________________________________
dropout_2098 (Dropout)       (None, 256)               0         
_________________________________________________________________
dense_1179 (Dense)           (None, 100)               25700     
=================================================================
Total params: 33,657,087
Trainable params: 33,655,423
Non-trainable params: 1,664
_________________________________________________________________
