Model: "sequential_120"
_________________________________________________________________
Layer (type)                 Output Shape              Param #   
=================================================================
separable_conv2d_282 (Separa (None, 32, 32, 256)       1051      
_________________________________________________________________
batch_normalization_276 (Bat (None, 32, 32, 256)       1024      
_________________________________________________________________
activation_383 (Activation)  (None, 32, 32, 256)       0         
_________________________________________________________________
dropout_383 (Dropout)        (None, 32, 32, 256)       0         
_________________________________________________________________
max_pooling2d_92 (MaxPooling (None, 16, 16, 256)       0         
_________________________________________________________________
separable_conv2d_283 (Separa (None, 16, 16, 128)       35200     
_________________________________________________________________
batch_normalization_277 (Bat (None, 16, 16, 128)       512       
_________________________________________________________________
activation_384 (Activation)  (None, 16, 16, 128)       0         
_________________________________________________________________
dropout_384 (Dropout)        (None, 16, 16, 128)       0         
_________________________________________________________________
flatten_120 (Flatten)        (None, 32768)             0         
_________________________________________________________________
dense_221 (Dense)            (None, 128)               4194432   
_________________________________________________________________
batch_normalization_278 (Bat (None, 128)               512       
_________________________________________________________________
activation_385 (Activation)  (None, 128)               0         
_________________________________________________________________
dropout_385 (Dropout)        (None, 128)               0         
_________________________________________________________________
dense_222 (Dense)            (None, 100)               12900     
=================================================================
Total params: 4,245,631
Trainable params: 4,244,607
Non-trainable params: 1,024
_________________________________________________________________
