Model: "sequential_141"
_________________________________________________________________
Layer (type)                 Output Shape              Param #   
=================================================================
separable_conv2d_335 (Separa (None, 32, 32, 256)       1051      
_________________________________________________________________
batch_normalization_338 (Bat (None, 32, 32, 256)       1024      
_________________________________________________________________
activation_459 (Activation)  (None, 32, 32, 256)       0         
_________________________________________________________________
dropout_459 (Dropout)        (None, 32, 32, 256)       0         
_________________________________________________________________
max_pooling2d_115 (MaxPoolin (None, 16, 16, 256)       0         
_________________________________________________________________
separable_conv2d_336 (Separa (None, 16, 16, 128)       35200     
_________________________________________________________________
batch_normalization_339 (Bat (None, 16, 16, 128)       512       
_________________________________________________________________
activation_460 (Activation)  (None, 16, 16, 128)       0         
_________________________________________________________________
dropout_460 (Dropout)        (None, 16, 16, 128)       0         
_________________________________________________________________
flatten_141 (Flatten)        (None, 32768)             0         
_________________________________________________________________
dense_265 (Dense)            (None, 128)               4194432   
_________________________________________________________________
batch_normalization_340 (Bat (None, 128)               512       
_________________________________________________________________
activation_461 (Activation)  (None, 128)               0         
_________________________________________________________________
dropout_461 (Dropout)        (None, 128)               0         
_________________________________________________________________
dense_266 (Dense)            (None, 100)               12900     
=================================================================
Total params: 4,245,631
Trainable params: 4,244,607
Non-trainable params: 1,024
_________________________________________________________________
