Model: "sequential_100"
_________________________________________________________________
Layer (type)                 Output Shape              Param #   
=================================================================
separable_conv2d_233 (Separa (None, 32, 32, 256)       1051      
_________________________________________________________________
batch_normalization_221 (Bat (None, 32, 32, 256)       1024      
_________________________________________________________________
activation_315 (Activation)  (None, 32, 32, 256)       0         
_________________________________________________________________
dropout_315 (Dropout)        (None, 32, 32, 256)       0         
_________________________________________________________________
max_pooling2d_74 (MaxPooling (None, 16, 16, 256)       0         
_________________________________________________________________
separable_conv2d_234 (Separa (None, 16, 16, 128)       35200     
_________________________________________________________________
batch_normalization_222 (Bat (None, 16, 16, 128)       512       
_________________________________________________________________
activation_316 (Activation)  (None, 16, 16, 128)       0         
_________________________________________________________________
dropout_316 (Dropout)        (None, 16, 16, 128)       0         
_________________________________________________________________
flatten_100 (Flatten)        (None, 32768)             0         
_________________________________________________________________
dense_182 (Dense)            (None, 128)               4194432   
_________________________________________________________________
batch_normalization_223 (Bat (None, 128)               512       
_________________________________________________________________
activation_317 (Activation)  (None, 128)               0         
_________________________________________________________________
dropout_317 (Dropout)        (None, 128)               0         
_________________________________________________________________
dense_183 (Dense)            (None, 100)               12900     
=================================================================
Total params: 4,245,631
Trainable params: 4,244,607
Non-trainable params: 1,024
_________________________________________________________________
