Model: "sequential_485"
_________________________________________________________________
Layer (type)                 Output Shape              Param #   
=================================================================
separable_conv2d_1304 (Separ (None, 32, 32, 512)       2075      
_________________________________________________________________
activation_1861 (Activation) (None, 32, 32, 512)       0         
_________________________________________________________________
dropout_1861 (Dropout)       (None, 32, 32, 512)       0         
_________________________________________________________________
max_pooling2d_519 (MaxPoolin (None, 16, 16, 512)       0         
_________________________________________________________________
flatten_485 (Flatten)        (None, 131072)            0         
_________________________________________________________________
dense_1042 (Dense)           (None, 512)               67109376  
_________________________________________________________________
batch_normalization_1366 (Ba (None, 512)               2048      
_________________________________________________________________
activation_1862 (Activation) (None, 512)               0         
_________________________________________________________________
dropout_1862 (Dropout)       (None, 512)               0         
_________________________________________________________________
dense_1043 (Dense)           (None, 256)               131328    
_________________________________________________________________
batch_normalization_1367 (Ba (None, 256)               1024      
_________________________________________________________________
activation_1863 (Activation) (None, 256)               0         
_________________________________________________________________
dropout_1863 (Dropout)       (None, 256)               0         
_________________________________________________________________
dense_1044 (Dense)           (None, 100)               25700     
=================================================================
Total params: 67,271,551
Trainable params: 67,270,015
Non-trainable params: 1,536
_________________________________________________________________
