Model: "sequential_44"
_________________________________________________________________
Layer (type)                 Output Shape              Param #   
=================================================================
separable_conv2d_108 (Separa (None, 32, 32, 256)       1051      
_________________________________________________________________
batch_normalization_87 (Batc (None, 32, 32, 256)       1024      
_________________________________________________________________
activation_147 (Activation)  (None, 32, 32, 256)       0         
_________________________________________________________________
dropout_147 (Dropout)        (None, 32, 32, 256)       0         
_________________________________________________________________
max_pooling2d_35 (MaxPooling (None, 16, 16, 256)       0         
_________________________________________________________________
separable_conv2d_109 (Separa (None, 16, 16, 8)         4360      
_________________________________________________________________
batch_normalization_88 (Batc (None, 16, 16, 8)         32        
_________________________________________________________________
activation_148 (Activation)  (None, 16, 16, 8)         0         
_________________________________________________________________
dropout_148 (Dropout)        (None, 16, 16, 8)         0         
_________________________________________________________________
flatten_44 (Flatten)         (None, 2048)              0         
_________________________________________________________________
dense_83 (Dense)             (None, 128)               262272    
_________________________________________________________________
batch_normalization_89 (Batc (None, 128)               512       
_________________________________________________________________
activation_149 (Activation)  (None, 128)               0         
_________________________________________________________________
dropout_149 (Dropout)        (None, 128)               0         
_________________________________________________________________
dense_84 (Dense)             (None, 100)               12900     
=================================================================
Total params: 282,151
Trainable params: 281,367
Non-trainable params: 784
_________________________________________________________________
