Model: "sequential_497"
_________________________________________________________________
Layer (type)                 Output Shape              Param #   
=================================================================
separable_conv2d_1338 (Separ (None, 32, 32, 512)       2075      
_________________________________________________________________
batch_normalization_1406 (Ba (None, 32, 32, 512)       2048      
_________________________________________________________________
activation_1918 (Activation) (None, 32, 32, 512)       0         
_________________________________________________________________
dropout_1918 (Dropout)       (None, 32, 32, 512)       0         
_________________________________________________________________
max_pooling2d_532 (MaxPoolin (None, 16, 16, 512)       0         
_________________________________________________________________
separable_conv2d_1339 (Separ (None, 16, 16, 64)        37440     
_________________________________________________________________
batch_normalization_1407 (Ba (None, 16, 16, 64)        256       
_________________________________________________________________
activation_1919 (Activation) (None, 16, 16, 64)        0         
_________________________________________________________________
dropout_1919 (Dropout)       (None, 16, 16, 64)        0         
_________________________________________________________________
max_pooling2d_533 (MaxPoolin (None, 8, 8, 64)          0         
_________________________________________________________________
separable_conv2d_1340 (Separ (None, 8, 8, 1024)        67136     
_________________________________________________________________
activation_1920 (Activation) (None, 8, 8, 1024)        0         
_________________________________________________________________
dropout_1920 (Dropout)       (None, 8, 8, 1024)        0         
_________________________________________________________________
flatten_497 (Flatten)        (None, 65536)             0         
_________________________________________________________________
dense_1077 (Dense)           (None, 512)               33554944  
_________________________________________________________________
batch_normalization_1408 (Ba (None, 512)               2048      
_________________________________________________________________
activation_1921 (Activation) (None, 512)               0         
_________________________________________________________________
dropout_1921 (Dropout)       (None, 512)               0         
_________________________________________________________________
dense_1078 (Dense)           (None, 256)               131328    
_________________________________________________________________
batch_normalization_1409 (Ba (None, 256)               1024      
_________________________________________________________________
activation_1922 (Activation) (None, 256)               0         
_________________________________________________________________
dropout_1922 (Dropout)       (None, 256)               0         
_________________________________________________________________
dense_1079 (Dense)           (None, 100)               25700     
=================================================================
Total params: 33,823,999
Trainable params: 33,821,311
Non-trainable params: 2,688
_________________________________________________________________
