Model: "sequential_390"
_________________________________________________________________
Layer (type)                 Output Shape              Param #   
=================================================================
separable_conv2d_1026 (Separ (None, 32, 32, 512)       2075      
_________________________________________________________________
batch_normalization_1076 (Ba (None, 32, 32, 512)       2048      
_________________________________________________________________
activation_1430 (Activation) (None, 32, 32, 512)       0         
_________________________________________________________________
dropout_1430 (Dropout)       (None, 32, 32, 512)       0         
_________________________________________________________________
max_pooling2d_413 (MaxPoolin (None, 16, 16, 512)       0         
_________________________________________________________________
separable_conv2d_1027 (Separ (None, 16, 16, 128)       70272     
_________________________________________________________________
batch_normalization_1077 (Ba (None, 16, 16, 128)       512       
_________________________________________________________________
activation_1431 (Activation) (None, 16, 16, 128)       0         
_________________________________________________________________
dropout_1431 (Dropout)       (None, 16, 16, 128)       0         
_________________________________________________________________
separable_conv2d_1028 (Separ (None, 16, 16, 16)        3216      
_________________________________________________________________
activation_1432 (Activation) (None, 16, 16, 16)        0         
_________________________________________________________________
dropout_1432 (Dropout)       (None, 16, 16, 16)        0         
_________________________________________________________________
flatten_390 (Flatten)        (None, 4096)              0         
_________________________________________________________________
dense_794 (Dense)            (None, 512)               2097664   
_________________________________________________________________
batch_normalization_1078 (Ba (None, 512)               2048      
_________________________________________________________________
activation_1433 (Activation) (None, 512)               0         
_________________________________________________________________
dropout_1433 (Dropout)       (None, 512)               0         
_________________________________________________________________
dense_795 (Dense)            (None, 64)                32832     
_________________________________________________________________
batch_normalization_1079 (Ba (None, 64)                256       
_________________________________________________________________
activation_1434 (Activation) (None, 64)                0         
_________________________________________________________________
dropout_1434 (Dropout)       (None, 64)                0         
_________________________________________________________________
dense_796 (Dense)            (None, 100)               6500      
=================================================================
Total params: 2,217,423
Trainable params: 2,214,991
Non-trainable params: 2,432
_________________________________________________________________
