Model: "sequential_436"
_________________________________________________________________
Layer (type)                 Output Shape              Param #   
=================================================================
separable_conv2d_1162 (Separ (None, 32, 32, 512)       2075      
_________________________________________________________________
batch_normalization_1214 (Ba (None, 32, 32, 512)       2048      
_________________________________________________________________
activation_1637 (Activation) (None, 32, 32, 512)       0         
_________________________________________________________________
dropout_1637 (Dropout)       (None, 32, 32, 512)       0         
_________________________________________________________________
max_pooling2d_466 (MaxPoolin (None, 16, 16, 512)       0         
_________________________________________________________________
separable_conv2d_1163 (Separ (None, 16, 16, 64)        37440     
_________________________________________________________________
batch_normalization_1215 (Ba (None, 16, 16, 64)        256       
_________________________________________________________________
activation_1638 (Activation) (None, 16, 16, 64)        0         
_________________________________________________________________
dropout_1638 (Dropout)       (None, 16, 16, 64)        0         
_________________________________________________________________
max_pooling2d_467 (MaxPoolin (None, 8, 8, 64)          0         
_________________________________________________________________
separable_conv2d_1164 (Separ (None, 8, 8, 16)          1616      
_________________________________________________________________
activation_1639 (Activation) (None, 8, 8, 16)          0         
_________________________________________________________________
dropout_1639 (Dropout)       (None, 8, 8, 16)          0         
_________________________________________________________________
flatten_436 (Flatten)        (None, 1024)              0         
_________________________________________________________________
dense_911 (Dense)            (None, 512)               524800    
_________________________________________________________________
batch_normalization_1216 (Ba (None, 512)               2048      
_________________________________________________________________
activation_1640 (Activation) (None, 512)               0         
_________________________________________________________________
dropout_1640 (Dropout)       (None, 512)               0         
_________________________________________________________________
dense_912 (Dense)            (None, 16)                8208      
_________________________________________________________________
batch_normalization_1217 (Ba (None, 16)                64        
_________________________________________________________________
activation_1641 (Activation) (None, 16)                0         
_________________________________________________________________
dropout_1641 (Dropout)       (None, 16)                0         
_________________________________________________________________
dense_913 (Dense)            (None, 100)               1700      
=================================================================
Total params: 580,255
Trainable params: 578,047
Non-trainable params: 2,208
_________________________________________________________________
