Model: "sequential_161"
_________________________________________________________________
Layer (type)                 Output Shape              Param #   
=================================================================
separable_conv2d_389 (Separa (None, 32, 32, 256)       1051      
_________________________________________________________________
batch_normalization_400 (Bat (None, 32, 32, 256)       1024      
_________________________________________________________________
activation_536 (Activation)  (None, 32, 32, 256)       0         
_________________________________________________________________
dropout_536 (Dropout)        (None, 32, 32, 256)       0         
_________________________________________________________________
separable_conv2d_390 (Separa (None, 32, 32, 64)        18752     
_________________________________________________________________
activation_537 (Activation)  (None, 32, 32, 64)        0         
_________________________________________________________________
dropout_537 (Dropout)        (None, 32, 32, 64)        0         
_________________________________________________________________
max_pooling2d_137 (MaxPoolin (None, 16, 16, 64)        0         
_________________________________________________________________
separable_conv2d_391 (Separa (None, 16, 16, 16)        1616      
_________________________________________________________________
activation_538 (Activation)  (None, 16, 16, 16)        0         
_________________________________________________________________
dropout_538 (Dropout)        (None, 16, 16, 16)        0         
_________________________________________________________________
flatten_161 (Flatten)        (None, 4096)              0         
_________________________________________________________________
dense_308 (Dense)            (None, 128)               524416    
_________________________________________________________________
batch_normalization_401 (Bat (None, 128)               512       
_________________________________________________________________
activation_539 (Activation)  (None, 128)               0         
_________________________________________________________________
dropout_539 (Dropout)        (None, 128)               0         
_________________________________________________________________
dense_309 (Dense)            (None, 256)               33024     
_________________________________________________________________
batch_normalization_402 (Bat (None, 256)               1024      
_________________________________________________________________
activation_540 (Activation)  (None, 256)               0         
_________________________________________________________________
dropout_540 (Dropout)        (None, 256)               0         
_________________________________________________________________
dense_310 (Dense)            (None, 100)               25700     
=================================================================
Total params: 607,119
Trainable params: 605,839
Non-trainable params: 1,280
_________________________________________________________________
