Model: "sequential_201"
_________________________________________________________________
Layer (type)                 Output Shape              Param #   
=================================================================
separable_conv2d_494 (Separa (None, 32, 32, 256)       1051      
_________________________________________________________________
batch_normalization_521 (Bat (None, 32, 32, 256)       1024      
_________________________________________________________________
activation_686 (Activation)  (None, 32, 32, 256)       0         
_________________________________________________________________
dropout_686 (Dropout)        (None, 32, 32, 256)       0         
_________________________________________________________________
max_pooling2d_182 (MaxPoolin (None, 16, 16, 256)       0         
_________________________________________________________________
separable_conv2d_495 (Separa (None, 16, 16, 64)        18752     
_________________________________________________________________
batch_normalization_522 (Bat (None, 16, 16, 64)        256       
_________________________________________________________________
activation_687 (Activation)  (None, 16, 16, 64)        0         
_________________________________________________________________
dropout_687 (Dropout)        (None, 16, 16, 64)        0         
_________________________________________________________________
max_pooling2d_183 (MaxPoolin (None, 8, 8, 64)          0         
_________________________________________________________________
separable_conv2d_496 (Separa (None, 8, 8, 16)          1616      
_________________________________________________________________
activation_688 (Activation)  (None, 8, 8, 16)          0         
_________________________________________________________________
dropout_688 (Dropout)        (None, 8, 8, 16)          0         
_________________________________________________________________
flatten_201 (Flatten)        (None, 1024)              0         
_________________________________________________________________
dense_393 (Dense)            (None, 128)               131200    
_________________________________________________________________
batch_normalization_523 (Bat (None, 128)               512       
_________________________________________________________________
activation_689 (Activation)  (None, 128)               0         
_________________________________________________________________
dropout_689 (Dropout)        (None, 128)               0         
_________________________________________________________________
dense_394 (Dense)            (None, 100)               12900     
=================================================================
Total params: 167,311
Trainable params: 166,415
Non-trainable params: 896
_________________________________________________________________
