Model: "sequential_479"
_________________________________________________________________
Layer (type)                 Output Shape              Param #   
=================================================================
separable_conv2d_1287 (Separ (None, 32, 32, 256)       1051      
_________________________________________________________________
batch_normalization_1348 (Ba (None, 32, 32, 256)       1024      
_________________________________________________________________
activation_1834 (Activation) (None, 32, 32, 256)       0         
_________________________________________________________________
dropout_1834 (Dropout)       (None, 32, 32, 256)       0         
_________________________________________________________________
max_pooling2d_511 (MaxPoolin (None, 16, 16, 256)       0         
_________________________________________________________________
separable_conv2d_1288 (Separ (None, 16, 16, 64)        18752     
_________________________________________________________________
activation_1835 (Activation) (None, 16, 16, 64)        0         
_________________________________________________________________
dropout_1835 (Dropout)       (None, 16, 16, 64)        0         
_________________________________________________________________
max_pooling2d_512 (MaxPoolin (None, 8, 8, 64)          0         
_________________________________________________________________
separable_conv2d_1289 (Separ (None, 8, 8, 256)         17216     
_________________________________________________________________
activation_1836 (Activation) (None, 8, 8, 256)         0         
_________________________________________________________________
dropout_1836 (Dropout)       (None, 8, 8, 256)         0         
_________________________________________________________________
flatten_479 (Flatten)        (None, 16384)             0         
_________________________________________________________________
dense_1026 (Dense)           (None, 512)               8389120   
_________________________________________________________________
batch_normalization_1349 (Ba (None, 512)               2048      
_________________________________________________________________
activation_1837 (Activation) (None, 512)               0         
_________________________________________________________________
dropout_1837 (Dropout)       (None, 512)               0         
_________________________________________________________________
dense_1027 (Dense)           (None, 16)                8208      
_________________________________________________________________
batch_normalization_1350 (Ba (None, 16)                64        
_________________________________________________________________
activation_1838 (Activation) (None, 16)                0         
_________________________________________________________________
dropout_1838 (Dropout)       (None, 16)                0         
_________________________________________________________________
dense_1028 (Dense)           (None, 100)               1700      
=================================================================
Total params: 8,439,183
Trainable params: 8,437,615
Non-trainable params: 1,568
_________________________________________________________________
