Model: "sequential_597"
_________________________________________________________________
Layer (type)                 Output Shape              Param #   
=================================================================
separable_conv2d_1635 (Separ (None, 32, 32, 256)       1051      
_________________________________________________________________
batch_normalization_1737 (Ba (None, 32, 32, 256)       1024      
_________________________________________________________________
activation_2369 (Activation) (None, 32, 32, 256)       0         
_________________________________________________________________
dropout_2369 (Dropout)       (None, 32, 32, 256)       0         
_________________________________________________________________
max_pooling2d_619 (MaxPoolin (None, 16, 16, 256)       0         
_________________________________________________________________
separable_conv2d_1636 (Separ (None, 16, 16, 128)       35200     
_________________________________________________________________
batch_normalization_1738 (Ba (None, 16, 16, 128)       512       
_________________________________________________________________
activation_2370 (Activation) (None, 16, 16, 128)       0         
_________________________________________________________________
dropout_2370 (Dropout)       (None, 16, 16, 128)       0         
_________________________________________________________________
separable_conv2d_1637 (Separ (None, 16, 16, 16)        3216      
_________________________________________________________________
activation_2371 (Activation) (None, 16, 16, 16)        0         
_________________________________________________________________
dropout_2371 (Dropout)       (None, 16, 16, 16)        0         
_________________________________________________________________
flatten_597 (Flatten)        (None, 4096)              0         
_________________________________________________________________
dense_1331 (Dense)           (None, 512)               2097664   
_________________________________________________________________
batch_normalization_1739 (Ba (None, 512)               2048      
_________________________________________________________________
activation_2372 (Activation) (None, 512)               0         
_________________________________________________________________
dropout_2372 (Dropout)       (None, 512)               0         
_________________________________________________________________
dense_1332 (Dense)           (None, 100)               51300     
=================================================================
Total params: 2,192,015
Trainable params: 2,190,223
Non-trainable params: 1,792
_________________________________________________________________
