Model: "sequential_335"
_________________________________________________________________
Layer (type)                 Output Shape              Param #   
=================================================================
separable_conv2d_871 (Separa (None, 32, 32, 512)       2075      
_________________________________________________________________
batch_normalization_930 (Bat (None, 32, 32, 512)       2048      
_________________________________________________________________
activation_1212 (Activation) (None, 32, 32, 512)       0         
_________________________________________________________________
dropout_1212 (Dropout)       (None, 32, 32, 512)       0         
_________________________________________________________________
max_pooling2d_344 (MaxPoolin (None, 16, 16, 512)       0         
_________________________________________________________________
separable_conv2d_872 (Separa (None, 16, 16, 64)        37440     
_________________________________________________________________
activation_1213 (Activation) (None, 16, 16, 64)        0         
_________________________________________________________________
dropout_1213 (Dropout)       (None, 16, 16, 64)        0         
_________________________________________________________________
max_pooling2d_345 (MaxPoolin (None, 8, 8, 64)          0         
_________________________________________________________________
separable_conv2d_873 (Separa (None, 8, 8, 16)          1616      
_________________________________________________________________
activation_1214 (Activation) (None, 8, 8, 16)          0         
_________________________________________________________________
dropout_1214 (Dropout)       (None, 8, 8, 16)          0         
_________________________________________________________________
flatten_335 (Flatten)        (None, 1024)              0         
_________________________________________________________________
dense_676 (Dense)            (None, 512)               524800    
_________________________________________________________________
batch_normalization_931 (Bat (None, 512)               2048      
_________________________________________________________________
activation_1215 (Activation) (None, 512)               0         
_________________________________________________________________
dropout_1215 (Dropout)       (None, 512)               0         
_________________________________________________________________
dense_677 (Dense)            (None, 256)               131328    
_________________________________________________________________
batch_normalization_932 (Bat (None, 256)               1024      
_________________________________________________________________
activation_1216 (Activation) (None, 256)               0         
_________________________________________________________________
dropout_1216 (Dropout)       (None, 256)               0         
_________________________________________________________________
dense_678 (Dense)            (None, 100)               25700     
=================================================================
Total params: 728,079
Trainable params: 725,519
Non-trainable params: 2,560
_________________________________________________________________
