Model: "sequential_282"
_________________________________________________________________
Layer (type)                 Output Shape              Param #   
=================================================================
separable_conv2d_719 (Separa (None, 32, 32, 256)       1051      
_________________________________________________________________
batch_normalization_779 (Bat (None, 32, 32, 256)       1024      
_________________________________________________________________
activation_1008 (Activation) (None, 32, 32, 256)       0         
_________________________________________________________________
dropout_1008 (Dropout)       (None, 32, 32, 256)       0         
_________________________________________________________________
max_pooling2d_280 (MaxPoolin (None, 16, 16, 256)       0         
_________________________________________________________________
separable_conv2d_720 (Separa (None, 16, 16, 128)       35200     
_________________________________________________________________
batch_normalization_780 (Bat (None, 16, 16, 128)       512       
_________________________________________________________________
activation_1009 (Activation) (None, 16, 16, 128)       0         
_________________________________________________________________
dropout_1009 (Dropout)       (None, 16, 16, 128)       0         
_________________________________________________________________
flatten_282 (Flatten)        (None, 32768)             0         
_________________________________________________________________
dense_571 (Dense)            (None, 128)               4194432   
_________________________________________________________________
batch_normalization_781 (Bat (None, 128)               512       
_________________________________________________________________
activation_1010 (Activation) (None, 128)               0         
_________________________________________________________________
dropout_1010 (Dropout)       (None, 128)               0         
_________________________________________________________________
dense_572 (Dense)            (None, 100)               12900     
=================================================================
Total params: 4,245,631
Trainable params: 4,244,607
Non-trainable params: 1,024
_________________________________________________________________
