Model: "sequential_17"
_________________________________________________________________
Layer (type)                 Output Shape              Param #   
=================================================================
separable_conv2d_45 (Separab (None, 32, 32, 256)       1051      
_________________________________________________________________
activation_61 (Activation)   (None, 32, 32, 256)       0         
_________________________________________________________________
dropout_61 (Dropout)         (None, 32, 32, 256)       0         
_________________________________________________________________
max_pooling2d_17 (MaxPooling (None, 16, 16, 256)       0         
_________________________________________________________________
separable_conv2d_46 (Separab (None, 16, 16, 8)         4360      
_________________________________________________________________
batch_normalization_35 (Batc (None, 16, 16, 8)         32        
_________________________________________________________________
activation_62 (Activation)   (None, 16, 16, 8)         0         
_________________________________________________________________
dropout_62 (Dropout)         (None, 16, 16, 8)         0         
_________________________________________________________________
separable_conv2d_47 (Separab (None, 16, 16, 64)        648       
_________________________________________________________________
activation_63 (Activation)   (None, 16, 16, 64)        0         
_________________________________________________________________
dropout_63 (Dropout)         (None, 16, 16, 64)        0         
_________________________________________________________________
separable_conv2d_48 (Separab (None, 16, 16, 32)        2656      
_________________________________________________________________
activation_64 (Activation)   (None, 16, 16, 32)        0         
_________________________________________________________________
dropout_64 (Dropout)         (None, 16, 16, 32)        0         
_________________________________________________________________
flatten_17 (Flatten)         (None, 8192)              0         
_________________________________________________________________
dense_33 (Dense)             (None, 100)               819300    
=================================================================
Total params: 828,047
Trainable params: 828,031
Non-trainable params: 16
_________________________________________________________________
