Model: "sequential_468"
_________________________________________________________________
Layer (type)                 Output Shape              Param #   
=================================================================
separable_conv2d_1256 (Separ (None, 32, 32, 512)       2075      
_________________________________________________________________
batch_normalization_1318 (Ba (None, 32, 32, 512)       2048      
_________________________________________________________________
activation_1787 (Activation) (None, 32, 32, 512)       0         
_________________________________________________________________
dropout_1787 (Dropout)       (None, 32, 32, 512)       0         
_________________________________________________________________
max_pooling2d_500 (MaxPoolin (None, 16, 16, 512)       0         
_________________________________________________________________
separable_conv2d_1257 (Separ (None, 16, 16, 64)        37440     
_________________________________________________________________
activation_1788 (Activation) (None, 16, 16, 64)        0         
_________________________________________________________________
dropout_1788 (Dropout)       (None, 16, 16, 64)        0         
_________________________________________________________________
separable_conv2d_1258 (Separ (None, 16, 16, 16)        1616      
_________________________________________________________________
activation_1789 (Activation) (None, 16, 16, 16)        0         
_________________________________________________________________
dropout_1789 (Dropout)       (None, 16, 16, 16)        0         
_________________________________________________________________
flatten_468 (Flatten)        (None, 4096)              0         
_________________________________________________________________
dense_999 (Dense)            (None, 512)               2097664   
_________________________________________________________________
batch_normalization_1319 (Ba (None, 512)               2048      
_________________________________________________________________
activation_1790 (Activation) (None, 512)               0         
_________________________________________________________________
dropout_1790 (Dropout)       (None, 512)               0         
_________________________________________________________________
dense_1000 (Dense)           (None, 256)               131328    
_________________________________________________________________
batch_normalization_1320 (Ba (None, 256)               1024      
_________________________________________________________________
activation_1791 (Activation) (None, 256)               0         
_________________________________________________________________
dropout_1791 (Dropout)       (None, 256)               0         
_________________________________________________________________
dense_1001 (Dense)           (None, 100)               25700     
=================================================================
Total params: 2,300,943
Trainable params: 2,298,383
Non-trainable params: 2,560
_________________________________________________________________
