Model: "sequential_6"
_________________________________________________________________
Layer (type)                 Output Shape              Param #   
=================================================================
separable_conv2d_14 (Separab (None, 32, 32, 512)       2075      
_________________________________________________________________
batch_normalization_13 (Batc (None, 32, 32, 512)       2048      
_________________________________________________________________
activation_19 (Activation)   (None, 32, 32, 512)       0         
_________________________________________________________________
dropout_19 (Dropout)         (None, 32, 32, 512)       0         
_________________________________________________________________
separable_conv2d_15 (Separab (None, 32, 32, 64)        37440     
_________________________________________________________________
batch_normalization_14 (Batc (None, 32, 32, 64)        256       
_________________________________________________________________
activation_20 (Activation)   (None, 32, 32, 64)        0         
_________________________________________________________________
dropout_20 (Dropout)         (None, 32, 32, 64)        0         
_________________________________________________________________
max_pooling2d_5 (MaxPooling2 (None, 16, 16, 64)        0         
_________________________________________________________________
separable_conv2d_16 (Separab (None, 16, 16, 16)        1616      
_________________________________________________________________
activation_21 (Activation)   (None, 16, 16, 16)        0         
_________________________________________________________________
dropout_21 (Dropout)         (None, 16, 16, 16)        0         
_________________________________________________________________
flatten_6 (Flatten)          (None, 4096)              0         
_________________________________________________________________
dense_11 (Dense)             (None, 256)               1048832   
_________________________________________________________________
batch_normalization_15 (Batc (None, 256)               1024      
_________________________________________________________________
activation_22 (Activation)   (None, 256)               0         
_________________________________________________________________
dropout_22 (Dropout)         (None, 256)               0         
_________________________________________________________________
dense_12 (Dense)             (None, 100)               25700     
=================================================================
Total params: 1,118,991
Trainable params: 1,117,327
Non-trainable params: 1,664
_________________________________________________________________
