Model: "sequential_84"
_________________________________________________________________
Layer (type)                 Output Shape              Param #   
=================================================================
separable_conv2d_196 (Separa (None, 32, 32, 256)       1051      
_________________________________________________________________
batch_normalization_178 (Bat (None, 32, 32, 256)       1024      
_________________________________________________________________
activation_266 (Activation)  (None, 32, 32, 256)       0         
_________________________________________________________________
dropout_266 (Dropout)        (None, 32, 32, 256)       0         
_________________________________________________________________
max_pooling2d_60 (MaxPooling (None, 16, 16, 256)       0         
_________________________________________________________________
separable_conv2d_197 (Separa (None, 16, 16, 8)         4360      
_________________________________________________________________
batch_normalization_179 (Bat (None, 16, 16, 8)         32        
_________________________________________________________________
activation_267 (Activation)  (None, 16, 16, 8)         0         
_________________________________________________________________
dropout_267 (Dropout)        (None, 16, 16, 8)         0         
_________________________________________________________________
flatten_84 (Flatten)         (None, 2048)              0         
_________________________________________________________________
dense_154 (Dense)            (None, 100)               204900    
=================================================================
Total params: 211,367
Trainable params: 210,839
Non-trainable params: 528
_________________________________________________________________
