Model: "sequential_149"
_________________________________________________________________
Layer (type)                 Output Shape              Param #   
=================================================================
separable_conv2d_356 (Separa (None, 32, 32, 512)       2075      
_________________________________________________________________
batch_normalization_362 (Bat (None, 32, 32, 512)       2048      
_________________________________________________________________
activation_488 (Activation)  (None, 32, 32, 512)       0         
_________________________________________________________________
dropout_488 (Dropout)        (None, 32, 32, 512)       0         
_________________________________________________________________
max_pooling2d_124 (MaxPoolin (None, 16, 16, 512)       0         
_________________________________________________________________
separable_conv2d_357 (Separa (None, 16, 16, 64)        37440     
_________________________________________________________________
batch_normalization_363 (Bat (None, 16, 16, 64)        256       
_________________________________________________________________
activation_489 (Activation)  (None, 16, 16, 64)        0         
_________________________________________________________________
dropout_489 (Dropout)        (None, 16, 16, 64)        0         
_________________________________________________________________
max_pooling2d_125 (MaxPoolin (None, 8, 8, 64)          0         
_________________________________________________________________
separable_conv2d_358 (Separa (None, 8, 8, 16)          1616      
_________________________________________________________________
activation_490 (Activation)  (None, 8, 8, 16)          0         
_________________________________________________________________
dropout_490 (Dropout)        (None, 8, 8, 16)          0         
_________________________________________________________________
flatten_149 (Flatten)        (None, 1024)              0         
_________________________________________________________________
dense_281 (Dense)            (None, 512)               524800    
_________________________________________________________________
batch_normalization_364 (Bat (None, 512)               2048      
_________________________________________________________________
activation_491 (Activation)  (None, 512)               0         
_________________________________________________________________
dropout_491 (Dropout)        (None, 512)               0         
_________________________________________________________________
dense_282 (Dense)            (None, 256)               131328    
_________________________________________________________________
batch_normalization_365 (Bat (None, 256)               1024      
_________________________________________________________________
activation_492 (Activation)  (None, 256)               0         
_________________________________________________________________
dropout_492 (Dropout)        (None, 256)               0         
_________________________________________________________________
dense_283 (Dense)            (None, 100)               25700     
=================================================================
Total params: 728,335
Trainable params: 725,647
Non-trainable params: 2,688
_________________________________________________________________
