Model: "sequential_226"
_________________________________________________________________
Layer (type)                 Output Shape              Param #   
=================================================================
separable_conv2d_564 (Separa (None, 32, 32, 256)       1051      
_________________________________________________________________
batch_normalization_599 (Bat (None, 32, 32, 256)       1024      
_________________________________________________________________
activation_784 (Activation)  (None, 32, 32, 256)       0         
_________________________________________________________________
dropout_784 (Dropout)        (None, 32, 32, 256)       0         
_________________________________________________________________
max_pooling2d_214 (MaxPoolin (None, 16, 16, 256)       0         
_________________________________________________________________
separable_conv2d_565 (Separa (None, 16, 16, 128)       35200     
_________________________________________________________________
batch_normalization_600 (Bat (None, 16, 16, 128)       512       
_________________________________________________________________
activation_785 (Activation)  (None, 16, 16, 128)       0         
_________________________________________________________________
dropout_785 (Dropout)        (None, 16, 16, 128)       0         
_________________________________________________________________
separable_conv2d_566 (Separa (None, 16, 16, 16)        3216      
_________________________________________________________________
activation_786 (Activation)  (None, 16, 16, 16)        0         
_________________________________________________________________
dropout_786 (Dropout)        (None, 16, 16, 16)        0         
_________________________________________________________________
flatten_226 (Flatten)        (None, 4096)              0         
_________________________________________________________________
dense_446 (Dense)            (None, 512)               2097664   
_________________________________________________________________
batch_normalization_601 (Bat (None, 512)               2048      
_________________________________________________________________
activation_787 (Activation)  (None, 512)               0         
_________________________________________________________________
dropout_787 (Dropout)        (None, 512)               0         
_________________________________________________________________
dense_447 (Dense)            (None, 100)               51300     
=================================================================
Total params: 2,192,015
Trainable params: 2,190,223
Non-trainable params: 1,792
_________________________________________________________________
