Model: "sequential_526"
_________________________________________________________________
Layer (type)                 Output Shape              Param #   
=================================================================
separable_conv2d_1425 (Separ (None, 32, 32, 256)       1051      
_________________________________________________________________
batch_normalization_1507 (Ba (None, 32, 32, 256)       1024      
_________________________________________________________________
activation_2053 (Activation) (None, 32, 32, 256)       0         
_________________________________________________________________
dropout_2053 (Dropout)       (None, 32, 32, 256)       0         
_________________________________________________________________
max_pooling2d_562 (MaxPoolin (None, 16, 16, 256)       0         
_________________________________________________________________
separable_conv2d_1426 (Separ (None, 16, 16, 64)        18752     
_________________________________________________________________
batch_normalization_1508 (Ba (None, 16, 16, 64)        256       
_________________________________________________________________
activation_2054 (Activation) (None, 16, 16, 64)        0         
_________________________________________________________________
dropout_2054 (Dropout)       (None, 16, 16, 64)        0         
_________________________________________________________________
separable_conv2d_1427 (Separ (None, 16, 16, 16)        1616      
_________________________________________________________________
activation_2055 (Activation) (None, 16, 16, 16)        0         
_________________________________________________________________
dropout_2055 (Dropout)       (None, 16, 16, 16)        0         
_________________________________________________________________
flatten_526 (Flatten)        (None, 4096)              0         
_________________________________________________________________
dense_1154 (Dense)           (None, 16)                65552     
_________________________________________________________________
activation_2056 (Activation) (None, 16)                0         
_________________________________________________________________
dropout_2056 (Dropout)       (None, 16)                0         
_________________________________________________________________
dense_1155 (Dense)           (None, 100)               1700      
=================================================================
Total params: 89,951
Trainable params: 89,311
Non-trainable params: 640
_________________________________________________________________
