Model: "sequential_448"
_________________________________________________________________
Layer (type)                 Output Shape              Param #   
=================================================================
separable_conv2d_1196 (Separ (None, 32, 32, 256)       1051      
_________________________________________________________________
batch_normalization_1252 (Ba (None, 32, 32, 256)       1024      
_________________________________________________________________
activation_1691 (Activation) (None, 32, 32, 256)       0         
_________________________________________________________________
dropout_1691 (Dropout)       (None, 32, 32, 256)       0         
_________________________________________________________________
max_pooling2d_482 (MaxPoolin (None, 16, 16, 256)       0         
_________________________________________________________________
separable_conv2d_1197 (Separ (None, 16, 16, 128)       35200     
_________________________________________________________________
batch_normalization_1253 (Ba (None, 16, 16, 128)       512       
_________________________________________________________________
activation_1692 (Activation) (None, 16, 16, 128)       0         
_________________________________________________________________
dropout_1692 (Dropout)       (None, 16, 16, 128)       0         
_________________________________________________________________
separable_conv2d_1198 (Separ (None, 16, 16, 16)        3216      
_________________________________________________________________
activation_1693 (Activation) (None, 16, 16, 16)        0         
_________________________________________________________________
dropout_1693 (Dropout)       (None, 16, 16, 16)        0         
_________________________________________________________________
flatten_448 (Flatten)        (None, 4096)              0         
_________________________________________________________________
dense_943 (Dense)            (None, 512)               2097664   
_________________________________________________________________
activation_1694 (Activation) (None, 512)               0         
_________________________________________________________________
dropout_1694 (Dropout)       (None, 512)               0         
_________________________________________________________________
dense_944 (Dense)            (None, 256)               131328    
_________________________________________________________________
batch_normalization_1254 (Ba (None, 256)               1024      
_________________________________________________________________
activation_1695 (Activation) (None, 256)               0         
_________________________________________________________________
dropout_1695 (Dropout)       (None, 256)               0         
_________________________________________________________________
dense_945 (Dense)            (None, 100)               25700     
=================================================================
Total params: 2,296,719
Trainable params: 2,295,439
Non-trainable params: 1,280
_________________________________________________________________
