Model: "sequential_539"
_________________________________________________________________
Layer (type)                 Output Shape              Param #   
=================================================================
separable_conv2d_1462 (Separ (None, 32, 32, 512)       2075      
_________________________________________________________________
batch_normalization_1548 (Ba (None, 32, 32, 512)       2048      
_________________________________________________________________
activation_2109 (Activation) (None, 32, 32, 512)       0         
_________________________________________________________________
dropout_2109 (Dropout)       (None, 32, 32, 512)       0         
_________________________________________________________________
separable_conv2d_1463 (Separ (None, 32, 32, 32)        21024     
_________________________________________________________________
batch_normalization_1549 (Ba (None, 32, 32, 32)        128       
_________________________________________________________________
activation_2110 (Activation) (None, 32, 32, 32)        0         
_________________________________________________________________
dropout_2110 (Dropout)       (None, 32, 32, 32)        0         
_________________________________________________________________
separable_conv2d_1464 (Separ (None, 32, 32, 16)        816       
_________________________________________________________________
activation_2111 (Activation) (None, 32, 32, 16)        0         
_________________________________________________________________
dropout_2111 (Dropout)       (None, 32, 32, 16)        0         
_________________________________________________________________
flatten_539 (Flatten)        (None, 16384)             0         
_________________________________________________________________
dense_1186 (Dense)           (None, 512)               8389120   
_________________________________________________________________
batch_normalization_1550 (Ba (None, 512)               2048      
_________________________________________________________________
activation_2112 (Activation) (None, 512)               0         
_________________________________________________________________
dropout_2112 (Dropout)       (None, 512)               0         
_________________________________________________________________
dense_1187 (Dense)           (None, 256)               131328    
_________________________________________________________________
batch_normalization_1551 (Ba (None, 256)               1024      
_________________________________________________________________
activation_2113 (Activation) (None, 256)               0         
_________________________________________________________________
dropout_2113 (Dropout)       (None, 256)               0         
_________________________________________________________________
dense_1188 (Dense)           (None, 100)               25700     
=================================================================
Total params: 8,575,311
Trainable params: 8,572,687
Non-trainable params: 2,624
_________________________________________________________________
