Model: "sequential_524"
_________________________________________________________________
Layer (type)                 Output Shape              Param #   
=================================================================
separable_conv2d_1419 (Separ (None, 32, 32, 512)       2075      
_________________________________________________________________
batch_normalization_1500 (Ba (None, 32, 32, 512)       2048      
_________________________________________________________________
activation_2043 (Activation) (None, 32, 32, 512)       0         
_________________________________________________________________
dropout_2043 (Dropout)       (None, 32, 32, 512)       0         
_________________________________________________________________
separable_conv2d_1420 (Separ (None, 32, 32, 128)       70272     
_________________________________________________________________
batch_normalization_1501 (Ba (None, 32, 32, 128)       512       
_________________________________________________________________
activation_2044 (Activation) (None, 32, 32, 128)       0         
_________________________________________________________________
dropout_2044 (Dropout)       (None, 32, 32, 128)       0         
_________________________________________________________________
separable_conv2d_1421 (Separ (None, 32, 32, 16)        3216      
_________________________________________________________________
activation_2045 (Activation) (None, 32, 32, 16)        0         
_________________________________________________________________
dropout_2045 (Dropout)       (None, 32, 32, 16)        0         
_________________________________________________________________
flatten_524 (Flatten)        (None, 16384)             0         
_________________________________________________________________
dense_1148 (Dense)           (None, 512)               8389120   
_________________________________________________________________
batch_normalization_1502 (Ba (None, 512)               2048      
_________________________________________________________________
activation_2046 (Activation) (None, 512)               0         
_________________________________________________________________
dropout_2046 (Dropout)       (None, 512)               0         
_________________________________________________________________
dense_1149 (Dense)           (None, 256)               131328    
_________________________________________________________________
batch_normalization_1503 (Ba (None, 256)               1024      
_________________________________________________________________
activation_2047 (Activation) (None, 256)               0         
_________________________________________________________________
dropout_2047 (Dropout)       (None, 256)               0         
_________________________________________________________________
dense_1150 (Dense)           (None, 100)               25700     
=================================================================
Total params: 8,627,343
Trainable params: 8,624,527
Non-trainable params: 2,816
_________________________________________________________________
