Model: "sequential_87"
_________________________________________________________________
Layer (type)                 Output Shape              Param #   
=================================================================
separable_conv2d_203 (Separa (None, 32, 32, 256)       1051      
_________________________________________________________________
batch_normalization_185 (Bat (None, 32, 32, 256)       1024      
_________________________________________________________________
activation_274 (Activation)  (None, 32, 32, 256)       0         
_________________________________________________________________
dropout_274 (Dropout)        (None, 32, 32, 256)       0         
_________________________________________________________________
max_pooling2d_62 (MaxPooling (None, 16, 16, 256)       0         
_________________________________________________________________
separable_conv2d_204 (Separa (None, 16, 16, 128)       35200     
_________________________________________________________________
batch_normalization_186 (Bat (None, 16, 16, 128)       512       
_________________________________________________________________
activation_275 (Activation)  (None, 16, 16, 128)       0         
_________________________________________________________________
dropout_275 (Dropout)        (None, 16, 16, 128)       0         
_________________________________________________________________
flatten_87 (Flatten)         (None, 32768)             0         
_________________________________________________________________
dense_158 (Dense)            (None, 256)               8388864   
_________________________________________________________________
batch_normalization_187 (Bat (None, 256)               1024      
_________________________________________________________________
activation_276 (Activation)  (None, 256)               0         
_________________________________________________________________
dropout_276 (Dropout)        (None, 256)               0         
_________________________________________________________________
dense_159 (Dense)            (None, 100)               25700     
=================================================================
Total params: 8,453,375
Trainable params: 8,452,095
Non-trainable params: 1,280
_________________________________________________________________
