Model: "sequential_328"
_________________________________________________________________
Layer (type)                 Output Shape              Param #   
=================================================================
separable_conv2d_852 (Separa (None, 32, 32, 512)       2075      
_________________________________________________________________
batch_normalization_907 (Bat (None, 32, 32, 512)       2048      
_________________________________________________________________
activation_1184 (Activation) (None, 32, 32, 512)       0         
_________________________________________________________________
dropout_1184 (Dropout)       (None, 32, 32, 512)       0         
_________________________________________________________________
max_pooling2d_336 (MaxPoolin (None, 16, 16, 512)       0         
_________________________________________________________________
separable_conv2d_853 (Separa (None, 16, 16, 64)        37440     
_________________________________________________________________
batch_normalization_908 (Bat (None, 16, 16, 64)        256       
_________________________________________________________________
activation_1185 (Activation) (None, 16, 16, 64)        0         
_________________________________________________________________
dropout_1185 (Dropout)       (None, 16, 16, 64)        0         
_________________________________________________________________
max_pooling2d_337 (MaxPoolin (None, 8, 8, 64)          0         
_________________________________________________________________
separable_conv2d_854 (Separa (None, 8, 8, 16)          1616      
_________________________________________________________________
activation_1186 (Activation) (None, 8, 8, 16)          0         
_________________________________________________________________
dropout_1186 (Dropout)       (None, 8, 8, 16)          0         
_________________________________________________________________
flatten_328 (Flatten)        (None, 1024)              0         
_________________________________________________________________
dense_660 (Dense)            (None, 512)               524800    
_________________________________________________________________
batch_normalization_909 (Bat (None, 512)               2048      
_________________________________________________________________
activation_1187 (Activation) (None, 512)               0         
_________________________________________________________________
dropout_1187 (Dropout)       (None, 512)               0         
_________________________________________________________________
dense_661 (Dense)            (None, 256)               131328    
_________________________________________________________________
batch_normalization_910 (Bat (None, 256)               1024      
_________________________________________________________________
activation_1188 (Activation) (None, 256)               0         
_________________________________________________________________
dropout_1188 (Dropout)       (None, 256)               0         
_________________________________________________________________
dense_662 (Dense)            (None, 100)               25700     
=================================================================
Total params: 728,335
Trainable params: 725,647
Non-trainable params: 2,688
_________________________________________________________________
