Model: "sequential_295"
_________________________________________________________________
Layer (type)                 Output Shape              Param #   
=================================================================
separable_conv2d_756 (Separa (None, 32, 32, 256)       1051      
_________________________________________________________________
batch_normalization_815 (Bat (None, 32, 32, 256)       1024      
_________________________________________________________________
activation_1058 (Activation) (None, 32, 32, 256)       0         
_________________________________________________________________
dropout_1058 (Dropout)       (None, 32, 32, 256)       0         
_________________________________________________________________
max_pooling2d_295 (MaxPoolin (None, 16, 16, 256)       0         
_________________________________________________________________
separable_conv2d_757 (Separa (None, 16, 16, 128)       35200     
_________________________________________________________________
batch_normalization_816 (Bat (None, 16, 16, 128)       512       
_________________________________________________________________
activation_1059 (Activation) (None, 16, 16, 128)       0         
_________________________________________________________________
dropout_1059 (Dropout)       (None, 16, 16, 128)       0         
_________________________________________________________________
separable_conv2d_758 (Separa (None, 16, 16, 64)        9408      
_________________________________________________________________
activation_1060 (Activation) (None, 16, 16, 64)        0         
_________________________________________________________________
dropout_1060 (Dropout)       (None, 16, 16, 64)        0         
_________________________________________________________________
flatten_295 (Flatten)        (None, 16384)             0         
_________________________________________________________________
dense_597 (Dense)            (None, 512)               8389120   
_________________________________________________________________
batch_normalization_817 (Bat (None, 512)               2048      
_________________________________________________________________
activation_1061 (Activation) (None, 512)               0         
_________________________________________________________________
dropout_1061 (Dropout)       (None, 512)               0         
_________________________________________________________________
dense_598 (Dense)            (None, 256)               131328    
_________________________________________________________________
batch_normalization_818 (Bat (None, 256)               1024      
_________________________________________________________________
activation_1062 (Activation) (None, 256)               0         
_________________________________________________________________
dropout_1062 (Dropout)       (None, 256)               0         
_________________________________________________________________
dense_599 (Dense)            (None, 100)               25700     
=================================================================
Total params: 8,596,415
Trainable params: 8,594,111
Non-trainable params: 2,304
_________________________________________________________________
