Model: "sequential_272"
_________________________________________________________________
Layer (type)                 Output Shape              Param #   
=================================================================
separable_conv2d_692 (Separa (None, 32, 32, 8)         59        
_________________________________________________________________
batch_normalization_747 (Bat (None, 32, 32, 8)         32        
_________________________________________________________________
activation_969 (Activation)  (None, 32, 32, 8)         0         
_________________________________________________________________
dropout_969 (Dropout)        (None, 32, 32, 8)         0         
_________________________________________________________________
separable_conv2d_693 (Separa (None, 32, 32, 64)        648       
_________________________________________________________________
batch_normalization_748 (Bat (None, 32, 32, 64)        256       
_________________________________________________________________
activation_970 (Activation)  (None, 32, 32, 64)        0         
_________________________________________________________________
dropout_970 (Dropout)        (None, 32, 32, 64)        0         
_________________________________________________________________
max_pooling2d_269 (MaxPoolin (None, 16, 16, 64)        0         
_________________________________________________________________
separable_conv2d_694 (Separa (None, 16, 16, 16)        1616      
_________________________________________________________________
activation_971 (Activation)  (None, 16, 16, 16)        0         
_________________________________________________________________
dropout_971 (Dropout)        (None, 16, 16, 16)        0         
_________________________________________________________________
flatten_272 (Flatten)        (None, 4096)              0         
_________________________________________________________________
dense_549 (Dense)            (None, 100)               409700    
=================================================================
Total params: 412,311
Trainable params: 412,167
Non-trainable params: 144
_________________________________________________________________
