Model: "sequential_406"
_________________________________________________________________
Layer (type)                 Output Shape              Param #   
=================================================================
separable_conv2d_1074 (Separ (None, 32, 32, 512)       2075      
_________________________________________________________________
batch_normalization_1128 (Ba (None, 32, 32, 512)       2048      
_________________________________________________________________
activation_1504 (Activation) (None, 32, 32, 512)       0         
_________________________________________________________________
dropout_1504 (Dropout)       (None, 32, 32, 512)       0         
_________________________________________________________________
max_pooling2d_431 (MaxPoolin (None, 16, 16, 512)       0         
_________________________________________________________________
separable_conv2d_1075 (Separ (None, 16, 16, 128)       70272     
_________________________________________________________________
batch_normalization_1129 (Ba (None, 16, 16, 128)       512       
_________________________________________________________________
activation_1505 (Activation) (None, 16, 16, 128)       0         
_________________________________________________________________
dropout_1505 (Dropout)       (None, 16, 16, 128)       0         
_________________________________________________________________
separable_conv2d_1076 (Separ (None, 16, 16, 16)        3216      
_________________________________________________________________
activation_1506 (Activation) (None, 16, 16, 16)        0         
_________________________________________________________________
dropout_1506 (Dropout)       (None, 16, 16, 16)        0         
_________________________________________________________________
flatten_406 (Flatten)        (None, 4096)              0         
_________________________________________________________________
dense_836 (Dense)            (None, 256)               1048832   
_________________________________________________________________
batch_normalization_1130 (Ba (None, 256)               1024      
_________________________________________________________________
activation_1507 (Activation) (None, 256)               0         
_________________________________________________________________
dropout_1507 (Dropout)       (None, 256)               0         
_________________________________________________________________
dense_837 (Dense)            (None, 100)               25700     
=================================================================
Total params: 1,153,679
Trainable params: 1,151,887
Non-trainable params: 1,792
_________________________________________________________________
