Model: "sequential_443"
_________________________________________________________________
Layer (type)                 Output Shape              Param #   
=================================================================
separable_conv2d_1181 (Separ (None, 32, 32, 512)       2075      
_________________________________________________________________
batch_normalization_1236 (Ba (None, 32, 32, 512)       2048      
_________________________________________________________________
activation_1670 (Activation) (None, 32, 32, 512)       0         
_________________________________________________________________
dropout_1670 (Dropout)       (None, 32, 32, 512)       0         
_________________________________________________________________
max_pooling2d_475 (MaxPoolin (None, 16, 16, 512)       0         
_________________________________________________________________
separable_conv2d_1182 (Separ (None, 16, 16, 64)        37440     
_________________________________________________________________
batch_normalization_1237 (Ba (None, 16, 16, 64)        256       
_________________________________________________________________
activation_1671 (Activation) (None, 16, 16, 64)        0         
_________________________________________________________________
dropout_1671 (Dropout)       (None, 16, 16, 64)        0         
_________________________________________________________________
max_pooling2d_476 (MaxPoolin (None, 8, 8, 64)          0         
_________________________________________________________________
separable_conv2d_1183 (Separ (None, 8, 8, 16)          1616      
_________________________________________________________________
activation_1672 (Activation) (None, 8, 8, 16)          0         
_________________________________________________________________
dropout_1672 (Dropout)       (None, 8, 8, 16)          0         
_________________________________________________________________
flatten_443 (Flatten)        (None, 1024)              0         
_________________________________________________________________
dense_932 (Dense)            (None, 512)               524800    
_________________________________________________________________
batch_normalization_1238 (Ba (None, 512)               2048      
_________________________________________________________________
activation_1673 (Activation) (None, 512)               0         
_________________________________________________________________
dropout_1673 (Dropout)       (None, 512)               0         
_________________________________________________________________
dense_933 (Dense)            (None, 16)                8208      
_________________________________________________________________
batch_normalization_1239 (Ba (None, 16)                64        
_________________________________________________________________
activation_1674 (Activation) (None, 16)                0         
_________________________________________________________________
dropout_1674 (Dropout)       (None, 16)                0         
_________________________________________________________________
dense_934 (Dense)            (None, 100)               1700      
=================================================================
Total params: 580,255
Trainable params: 578,047
Non-trainable params: 2,208
_________________________________________________________________
