Model: "sequential_521"
_________________________________________________________________
Layer (type)                 Output Shape              Param #   
=================================================================
separable_conv2d_1410 (Separ (None, 32, 32, 512)       2075      
_________________________________________________________________
batch_normalization_1489 (Ba (None, 32, 32, 512)       2048      
_________________________________________________________________
activation_2029 (Activation) (None, 32, 32, 512)       0         
_________________________________________________________________
dropout_2029 (Dropout)       (None, 32, 32, 512)       0         
_________________________________________________________________
max_pooling2d_558 (MaxPoolin (None, 16, 16, 512)       0         
_________________________________________________________________
separable_conv2d_1411 (Separ (None, 16, 16, 64)        37440     
_________________________________________________________________
batch_normalization_1490 (Ba (None, 16, 16, 64)        256       
_________________________________________________________________
activation_2030 (Activation) (None, 16, 16, 64)        0         
_________________________________________________________________
dropout_2030 (Dropout)       (None, 16, 16, 64)        0         
_________________________________________________________________
max_pooling2d_559 (MaxPoolin (None, 8, 8, 64)          0         
_________________________________________________________________
separable_conv2d_1412 (Separ (None, 8, 8, 16)          1616      
_________________________________________________________________
batch_normalization_1491 (Ba (None, 8, 8, 16)          64        
_________________________________________________________________
activation_2031 (Activation) (None, 8, 8, 16)          0         
_________________________________________________________________
dropout_2031 (Dropout)       (None, 8, 8, 16)          0         
_________________________________________________________________
flatten_521 (Flatten)        (None, 1024)              0         
_________________________________________________________________
dense_1140 (Dense)           (None, 512)               524800    
_________________________________________________________________
batch_normalization_1492 (Ba (None, 512)               2048      
_________________________________________________________________
activation_2032 (Activation) (None, 512)               0         
_________________________________________________________________
dropout_2032 (Dropout)       (None, 512)               0         
_________________________________________________________________
dense_1141 (Dense)           (None, 256)               131328    
_________________________________________________________________
activation_2033 (Activation) (None, 256)               0         
_________________________________________________________________
dropout_2033 (Dropout)       (None, 256)               0         
_________________________________________________________________
dense_1142 (Dense)           (None, 100)               25700     
=================================================================
Total params: 727,375
Trainable params: 725,167
Non-trainable params: 2,208
_________________________________________________________________
