Model: "sequential_244"
_________________________________________________________________
Layer (type)                 Output Shape              Param #   
=================================================================
separable_conv2d_615 (Separa (None, 32, 32, 512)       2075      
_________________________________________________________________
batch_normalization_659 (Bat (None, 32, 32, 512)       2048      
_________________________________________________________________
activation_860 (Activation)  (None, 32, 32, 512)       0         
_________________________________________________________________
dropout_860 (Dropout)        (None, 32, 32, 512)       0         
_________________________________________________________________
max_pooling2d_235 (MaxPoolin (None, 16, 16, 512)       0         
_________________________________________________________________
separable_conv2d_616 (Separa (None, 16, 16, 128)       70272     
_________________________________________________________________
batch_normalization_660 (Bat (None, 16, 16, 128)       512       
_________________________________________________________________
activation_861 (Activation)  (None, 16, 16, 128)       0         
_________________________________________________________________
dropout_861 (Dropout)        (None, 16, 16, 128)       0         
_________________________________________________________________
flatten_244 (Flatten)        (None, 32768)             0         
_________________________________________________________________
dense_489 (Dense)            (None, 128)               4194432   
_________________________________________________________________
batch_normalization_661 (Bat (None, 128)               512       
_________________________________________________________________
activation_862 (Activation)  (None, 128)               0         
_________________________________________________________________
dropout_862 (Dropout)        (None, 128)               0         
_________________________________________________________________
dense_490 (Dense)            (None, 100)               12900     
=================================================================
Total params: 4,282,751
Trainable params: 4,281,215
Non-trainable params: 1,536
_________________________________________________________________
