Model: "sequential_130"
_________________________________________________________________
Layer (type)                 Output Shape              Param #   
=================================================================
separable_conv2d_308 (Separa (None, 32, 32, 512)       2075      
_________________________________________________________________
batch_normalization_305 (Bat (None, 32, 32, 512)       2048      
_________________________________________________________________
activation_419 (Activation)  (None, 32, 32, 512)       0         
_________________________________________________________________
dropout_419 (Dropout)        (None, 32, 32, 512)       0         
_________________________________________________________________
max_pooling2d_103 (MaxPoolin (None, 16, 16, 512)       0         
_________________________________________________________________
flatten_130 (Flatten)        (None, 131072)            0         
_________________________________________________________________
dense_241 (Dense)            (None, 128)               16777344  
_________________________________________________________________
batch_normalization_306 (Bat (None, 128)               512       
_________________________________________________________________
activation_420 (Activation)  (None, 128)               0         
_________________________________________________________________
dropout_420 (Dropout)        (None, 128)               0         
_________________________________________________________________
dense_242 (Dense)            (None, 100)               12900     
=================================================================
Total params: 16,794,879
Trainable params: 16,793,599
Non-trainable params: 1,280
_________________________________________________________________
