Model: "sequential_10"
_________________________________________________________________
Layer (type)                 Output Shape              Param #   
=================================================================
separable_conv2d_25 (Separab (None, 32, 32, 512)       2075      
_________________________________________________________________
activation_35 (Activation)   (None, 32, 32, 512)       0         
_________________________________________________________________
dropout_35 (Dropout)         (None, 32, 32, 512)       0         
_________________________________________________________________
max_pooling2d_10 (MaxPooling (None, 16, 16, 512)       0         
_________________________________________________________________
separable_conv2d_26 (Separab (None, 16, 16, 16)        12816     
_________________________________________________________________
activation_36 (Activation)   (None, 16, 16, 16)        0         
_________________________________________________________________
dropout_36 (Dropout)         (None, 16, 16, 16)        0         
_________________________________________________________________
separable_conv2d_27 (Separab (None, 16, 16, 64)        1232      
_________________________________________________________________
batch_normalization_25 (Batc (None, 16, 16, 64)        256       
_________________________________________________________________
activation_37 (Activation)   (None, 16, 16, 64)        0         
_________________________________________________________________
dropout_37 (Dropout)         (None, 16, 16, 64)        0         
_________________________________________________________________
max_pooling2d_11 (MaxPooling (None, 8, 8, 64)          0         
_________________________________________________________________
separable_conv2d_28 (Separab (None, 8, 8, 1024)        67136     
_________________________________________________________________
activation_38 (Activation)   (None, 8, 8, 1024)        0         
_________________________________________________________________
dropout_38 (Dropout)         (None, 8, 8, 1024)        0         
_________________________________________________________________
max_pooling2d_12 (MaxPooling (None, 4, 4, 1024)        0         
_________________________________________________________________
flatten_10 (Flatten)         (None, 16384)             0         
_________________________________________________________________
dense_20 (Dense)             (None, 64)                1048640   
_________________________________________________________________
activation_39 (Activation)   (None, 64)                0         
_________________________________________________________________
dropout_39 (Dropout)         (None, 64)                0         
_________________________________________________________________
dense_21 (Dense)             (None, 100)               6500      
=================================================================
Total params: 1,138,655
Trainable params: 1,138,527
Non-trainable params: 128
_________________________________________________________________
