Model: "sequential_156"
_________________________________________________________________
Layer (type)                 Output Shape              Param #   
=================================================================
separable_conv2d_377 (Separa (None, 32, 32, 512)       2075      
_________________________________________________________________
batch_normalization_385 (Bat (None, 32, 32, 512)       2048      
_________________________________________________________________
activation_519 (Activation)  (None, 32, 32, 512)       0         
_________________________________________________________________
dropout_519 (Dropout)        (None, 32, 32, 512)       0         
_________________________________________________________________
max_pooling2d_132 (MaxPoolin (None, 16, 16, 512)       0         
_________________________________________________________________
separable_conv2d_378 (Separa (None, 16, 16, 128)       70272     
_________________________________________________________________
batch_normalization_386 (Bat (None, 16, 16, 128)       512       
_________________________________________________________________
activation_520 (Activation)  (None, 16, 16, 128)       0         
_________________________________________________________________
dropout_520 (Dropout)        (None, 16, 16, 128)       0         
_________________________________________________________________
separable_conv2d_379 (Separa (None, 16, 16, 16)        3216      
_________________________________________________________________
activation_521 (Activation)  (None, 16, 16, 16)        0         
_________________________________________________________________
dropout_521 (Dropout)        (None, 16, 16, 16)        0         
_________________________________________________________________
flatten_156 (Flatten)        (None, 4096)              0         
_________________________________________________________________
dense_298 (Dense)            (None, 512)               2097664   
_________________________________________________________________
batch_normalization_387 (Bat (None, 512)               2048      
_________________________________________________________________
activation_522 (Activation)  (None, 512)               0         
_________________________________________________________________
dropout_522 (Dropout)        (None, 512)               0         
_________________________________________________________________
dense_299 (Dense)            (None, 100)               51300     
=================================================================
Total params: 2,229,135
Trainable params: 2,226,831
Non-trainable params: 2,304
_________________________________________________________________
