Model: "sequential_239"
_________________________________________________________________
Layer (type)                 Output Shape              Param #   
=================================================================
separable_conv2d_601 (Separa (None, 32, 32, 512)       2075      
_________________________________________________________________
batch_normalization_643 (Bat (None, 32, 32, 512)       2048      
_________________________________________________________________
activation_840 (Activation)  (None, 32, 32, 512)       0         
_________________________________________________________________
dropout_840 (Dropout)        (None, 32, 32, 512)       0         
_________________________________________________________________
separable_conv2d_602 (Separa (None, 32, 32, 128)       70272     
_________________________________________________________________
batch_normalization_644 (Bat (None, 32, 32, 128)       512       
_________________________________________________________________
activation_841 (Activation)  (None, 32, 32, 128)       0         
_________________________________________________________________
dropout_841 (Dropout)        (None, 32, 32, 128)       0         
_________________________________________________________________
max_pooling2d_231 (MaxPoolin (None, 16, 16, 128)       0         
_________________________________________________________________
separable_conv2d_603 (Separa (None, 16, 16, 16)        3216      
_________________________________________________________________
activation_842 (Activation)  (None, 16, 16, 16)        0         
_________________________________________________________________
dropout_842 (Dropout)        (None, 16, 16, 16)        0         
_________________________________________________________________
flatten_239 (Flatten)        (None, 4096)              0         
_________________________________________________________________
dense_478 (Dense)            (None, 128)               524416    
_________________________________________________________________
batch_normalization_645 (Bat (None, 128)               512       
_________________________________________________________________
activation_843 (Activation)  (None, 128)               0         
_________________________________________________________________
dropout_843 (Dropout)        (None, 128)               0         
_________________________________________________________________
dense_479 (Dense)            (None, 100)               12900     
=================================================================
Total params: 615,951
Trainable params: 614,415
Non-trainable params: 1,536
_________________________________________________________________
