Model: "sequential_313"
_________________________________________________________________
Layer (type)                 Output Shape              Param #   
=================================================================
separable_conv2d_809 (Separa (None, 32, 32, 256)       1051      
_________________________________________________________________
batch_normalization_865 (Bat (None, 32, 32, 256)       1024      
_________________________________________________________________
activation_1128 (Activation) (None, 32, 32, 256)       0         
_________________________________________________________________
dropout_1128 (Dropout)       (None, 32, 32, 256)       0         
_________________________________________________________________
max_pooling2d_318 (MaxPoolin (None, 16, 16, 256)       0         
_________________________________________________________________
separable_conv2d_810 (Separa (None, 16, 16, 128)       35200     
_________________________________________________________________
batch_normalization_866 (Bat (None, 16, 16, 128)       512       
_________________________________________________________________
activation_1129 (Activation) (None, 16, 16, 128)       0         
_________________________________________________________________
dropout_1129 (Dropout)       (None, 16, 16, 128)       0         
_________________________________________________________________
separable_conv2d_811 (Separa (None, 16, 16, 64)        9408      
_________________________________________________________________
activation_1130 (Activation) (None, 16, 16, 64)        0         
_________________________________________________________________
dropout_1130 (Dropout)       (None, 16, 16, 64)        0         
_________________________________________________________________
flatten_313 (Flatten)        (None, 16384)             0         
_________________________________________________________________
dense_632 (Dense)            (None, 512)               8389120   
_________________________________________________________________
batch_normalization_867 (Bat (None, 512)               2048      
_________________________________________________________________
activation_1131 (Activation) (None, 512)               0         
_________________________________________________________________
dropout_1131 (Dropout)       (None, 512)               0         
_________________________________________________________________
dense_633 (Dense)            (None, 256)               131328    
_________________________________________________________________
batch_normalization_868 (Bat (None, 256)               1024      
_________________________________________________________________
activation_1132 (Activation) (None, 256)               0         
_________________________________________________________________
dropout_1132 (Dropout)       (None, 256)               0         
_________________________________________________________________
dense_634 (Dense)            (None, 100)               25700     
=================================================================
Total params: 8,596,415
Trainable params: 8,594,111
Non-trainable params: 2,304
_________________________________________________________________
