Model: "sequential_373"
_________________________________________________________________
Layer (type)                 Output Shape              Param #   
=================================================================
separable_conv2d_978 (Separa (None, 32, 32, 512)       2075      
_________________________________________________________________
batch_normalization_1027 (Ba (None, 32, 32, 512)       2048      
_________________________________________________________________
activation_1361 (Activation) (None, 32, 32, 512)       0         
_________________________________________________________________
dropout_1361 (Dropout)       (None, 32, 32, 512)       0         
_________________________________________________________________
max_pooling2d_392 (MaxPoolin (None, 16, 16, 512)       0         
_________________________________________________________________
separable_conv2d_979 (Separa (None, 16, 16, 64)        37440     
_________________________________________________________________
batch_normalization_1028 (Ba (None, 16, 16, 64)        256       
_________________________________________________________________
activation_1362 (Activation) (None, 16, 16, 64)        0         
_________________________________________________________________
dropout_1362 (Dropout)       (None, 16, 16, 64)        0         
_________________________________________________________________
max_pooling2d_393 (MaxPoolin (None, 8, 8, 64)          0         
_________________________________________________________________
separable_conv2d_980 (Separa (None, 8, 8, 16)          1616      
_________________________________________________________________
activation_1363 (Activation) (None, 8, 8, 16)          0         
_________________________________________________________________
dropout_1363 (Dropout)       (None, 8, 8, 16)          0         
_________________________________________________________________
flatten_373 (Flatten)        (None, 1024)              0         
_________________________________________________________________
dense_756 (Dense)            (None, 512)               524800    
_________________________________________________________________
batch_normalization_1029 (Ba (None, 512)               2048      
_________________________________________________________________
activation_1364 (Activation) (None, 512)               0         
_________________________________________________________________
dropout_1364 (Dropout)       (None, 512)               0         
_________________________________________________________________
dense_757 (Dense)            (None, 16)                8208      
_________________________________________________________________
batch_normalization_1030 (Ba (None, 16)                64        
_________________________________________________________________
activation_1365 (Activation) (None, 16)                0         
_________________________________________________________________
dropout_1365 (Dropout)       (None, 16)                0         
_________________________________________________________________
dense_758 (Dense)            (None, 100)               1700      
=================================================================
Total params: 580,255
Trainable params: 578,047
Non-trainable params: 2,208
_________________________________________________________________
