Model: "sequential_563"
_________________________________________________________________
Layer (type)                 Output Shape              Param #   
=================================================================
separable_conv2d_1534 (Separ (None, 32, 32, 256)       1051      
_________________________________________________________________
batch_normalization_1630 (Ba (None, 32, 32, 256)       1024      
_________________________________________________________________
activation_2221 (Activation) (None, 32, 32, 256)       0         
_________________________________________________________________
dropout_2221 (Dropout)       (None, 32, 32, 256)       0         
_________________________________________________________________
max_pooling2d_593 (MaxPoolin (None, 16, 16, 256)       0         
_________________________________________________________________
separable_conv2d_1535 (Separ (None, 16, 16, 64)        18752     
_________________________________________________________________
batch_normalization_1631 (Ba (None, 16, 16, 64)        256       
_________________________________________________________________
activation_2222 (Activation) (None, 16, 16, 64)        0         
_________________________________________________________________
dropout_2222 (Dropout)       (None, 16, 16, 64)        0         
_________________________________________________________________
separable_conv2d_1536 (Separ (None, 16, 16, 16)        1616      
_________________________________________________________________
activation_2223 (Activation) (None, 16, 16, 16)        0         
_________________________________________________________________
dropout_2223 (Dropout)       (None, 16, 16, 16)        0         
_________________________________________________________________
max_pooling2d_594 (MaxPoolin (None, 8, 8, 16)          0         
_________________________________________________________________
flatten_563 (Flatten)        (None, 1024)              0         
_________________________________________________________________
dense_1250 (Dense)           (None, 32)                32800     
_________________________________________________________________
batch_normalization_1632 (Ba (None, 32)                128       
_________________________________________________________________
activation_2224 (Activation) (None, 32)                0         
_________________________________________________________________
dropout_2224 (Dropout)       (None, 32)                0         
_________________________________________________________________
dense_1251 (Dense)           (None, 100)               3300      
=================================================================
Total params: 58,927
Trainable params: 58,223
Non-trainable params: 704
_________________________________________________________________
