Model: "sequential_256"
_________________________________________________________________
Layer (type)                 Output Shape              Param #   
=================================================================
separable_conv2d_648 (Separa (None, 32, 32, 8)         59        
_________________________________________________________________
batch_normalization_697 (Bat (None, 32, 32, 8)         32        
_________________________________________________________________
activation_906 (Activation)  (None, 32, 32, 8)         0         
_________________________________________________________________
dropout_906 (Dropout)        (None, 32, 32, 8)         0         
_________________________________________________________________
separable_conv2d_649 (Separa (None, 32, 32, 64)        648       
_________________________________________________________________
batch_normalization_698 (Bat (None, 32, 32, 64)        256       
_________________________________________________________________
activation_907 (Activation)  (None, 32, 32, 64)        0         
_________________________________________________________________
dropout_907 (Dropout)        (None, 32, 32, 64)        0         
_________________________________________________________________
max_pooling2d_249 (MaxPoolin (None, 16, 16, 64)        0         
_________________________________________________________________
separable_conv2d_650 (Separa (None, 16, 16, 16)        1616      
_________________________________________________________________
activation_908 (Activation)  (None, 16, 16, 16)        0         
_________________________________________________________________
dropout_908 (Dropout)        (None, 16, 16, 16)        0         
_________________________________________________________________
flatten_256 (Flatten)        (None, 4096)              0         
_________________________________________________________________
dense_514 (Dense)            (None, 512)               2097664   
_________________________________________________________________
batch_normalization_699 (Bat (None, 512)               2048      
_________________________________________________________________
activation_909 (Activation)  (None, 512)               0         
_________________________________________________________________
dropout_909 (Dropout)        (None, 512)               0         
_________________________________________________________________
dense_515 (Dense)            (None, 256)               131328    
_________________________________________________________________
batch_normalization_700 (Bat (None, 256)               1024      
_________________________________________________________________
activation_910 (Activation)  (None, 256)               0         
_________________________________________________________________
dropout_910 (Dropout)        (None, 256)               0         
_________________________________________________________________
dense_516 (Dense)            (None, 100)               25700     
=================================================================
Total params: 2,260,375
Trainable params: 2,258,695
Non-trainable params: 1,680
_________________________________________________________________
