Model: "sequential_362"
_________________________________________________________________
Layer (type)                 Output Shape              Param #   
=================================================================
separable_conv2d_948 (Separa (None, 32, 32, 256)       1051      
_________________________________________________________________
batch_normalization_1004 (Ba (None, 32, 32, 256)       1024      
_________________________________________________________________
activation_1322 (Activation) (None, 32, 32, 256)       0         
_________________________________________________________________
dropout_1322 (Dropout)       (None, 32, 32, 256)       0         
_________________________________________________________________
max_pooling2d_377 (MaxPoolin (None, 16, 16, 256)       0         
_________________________________________________________________
separable_conv2d_949 (Separa (None, 16, 16, 128)       35200     
_________________________________________________________________
batch_normalization_1005 (Ba (None, 16, 16, 128)       512       
_________________________________________________________________
activation_1323 (Activation) (None, 16, 16, 128)       0         
_________________________________________________________________
dropout_1323 (Dropout)       (None, 16, 16, 128)       0         
_________________________________________________________________
separable_conv2d_950 (Separa (None, 16, 16, 16)        3216      
_________________________________________________________________
activation_1324 (Activation) (None, 16, 16, 16)        0         
_________________________________________________________________
dropout_1324 (Dropout)       (None, 16, 16, 16)        0         
_________________________________________________________________
flatten_362 (Flatten)        (None, 4096)              0         
_________________________________________________________________
dense_736 (Dense)            (None, 64)                262208    
_________________________________________________________________
activation_1325 (Activation) (None, 64)                0         
_________________________________________________________________
dropout_1325 (Dropout)       (None, 64)                0         
_________________________________________________________________
dense_737 (Dense)            (None, 100)               6500      
=================================================================
Total params: 309,711
Trainable params: 308,943
Non-trainable params: 768
_________________________________________________________________
