Model: "sequential_527"
_________________________________________________________________
Layer (type)                 Output Shape              Param #   
=================================================================
separable_conv2d_1428 (Separ (None, 32, 32, 256)       1051      
_________________________________________________________________
batch_normalization_1509 (Ba (None, 32, 32, 256)       1024      
_________________________________________________________________
activation_2057 (Activation) (None, 32, 32, 256)       0         
_________________________________________________________________
dropout_2057 (Dropout)       (None, 32, 32, 256)       0         
_________________________________________________________________
max_pooling2d_563 (MaxPoolin (None, 16, 16, 256)       0         
_________________________________________________________________
separable_conv2d_1429 (Separ (None, 16, 16, 16)        6416      
_________________________________________________________________
activation_2058 (Activation) (None, 16, 16, 16)        0         
_________________________________________________________________
dropout_2058 (Dropout)       (None, 16, 16, 16)        0         
_________________________________________________________________
flatten_527 (Flatten)        (None, 4096)              0         
_________________________________________________________________
dense_1156 (Dense)           (None, 512)               2097664   
_________________________________________________________________
batch_normalization_1510 (Ba (None, 512)               2048      
_________________________________________________________________
activation_2059 (Activation) (None, 512)               0         
_________________________________________________________________
dropout_2059 (Dropout)       (None, 512)               0         
_________________________________________________________________
dense_1157 (Dense)           (None, 256)               131328    
_________________________________________________________________
batch_normalization_1511 (Ba (None, 256)               1024      
_________________________________________________________________
activation_2060 (Activation) (None, 256)               0         
_________________________________________________________________
dropout_2060 (Dropout)       (None, 256)               0         
_________________________________________________________________
dense_1158 (Dense)           (None, 100)               25700     
=================================================================
Total params: 2,266,255
Trainable params: 2,264,207
Non-trainable params: 2,048
_________________________________________________________________
