Model: "sequential_170"
_________________________________________________________________
Layer (type)                 Output Shape              Param #   
=================================================================
separable_conv2d_413 (Separa (None, 32, 32, 256)       1051      
_________________________________________________________________
batch_normalization_428 (Bat (None, 32, 32, 256)       1024      
_________________________________________________________________
activation_571 (Activation)  (None, 32, 32, 256)       0         
_________________________________________________________________
dropout_571 (Dropout)        (None, 32, 32, 256)       0         
_________________________________________________________________
max_pooling2d_147 (MaxPoolin (None, 16, 16, 256)       0         
_________________________________________________________________
separable_conv2d_414 (Separa (None, 16, 16, 128)       35200     
_________________________________________________________________
batch_normalization_429 (Bat (None, 16, 16, 128)       512       
_________________________________________________________________
activation_572 (Activation)  (None, 16, 16, 128)       0         
_________________________________________________________________
dropout_572 (Dropout)        (None, 16, 16, 128)       0         
_________________________________________________________________
flatten_170 (Flatten)        (None, 32768)             0         
_________________________________________________________________
dense_328 (Dense)            (None, 128)               4194432   
_________________________________________________________________
batch_normalization_430 (Bat (None, 128)               512       
_________________________________________________________________
activation_573 (Activation)  (None, 128)               0         
_________________________________________________________________
dropout_573 (Dropout)        (None, 128)               0         
_________________________________________________________________
dense_329 (Dense)            (None, 100)               12900     
=================================================================
Total params: 4,245,631
Trainable params: 4,244,607
Non-trainable params: 1,024
_________________________________________________________________
