Model: "sequential_49"
_________________________________________________________________
Layer (type)                 Output Shape              Param #   
=================================================================
separable_conv2d_119 (Separa (None, 32, 32, 8)         59        
_________________________________________________________________
batch_normalization_101 (Bat (None, 32, 32, 8)         32        
_________________________________________________________________
activation_164 (Activation)  (None, 32, 32, 8)         0         
_________________________________________________________________
dropout_164 (Dropout)        (None, 32, 32, 8)         0         
_________________________________________________________________
flatten_49 (Flatten)         (None, 8192)              0         
_________________________________________________________________
dense_94 (Dense)             (None, 100)               819300    
=================================================================
Total params: 819,391
Trainable params: 819,375
Non-trainable params: 16
_________________________________________________________________
