Model: "sequential_481"
_________________________________________________________________
Layer (type)                 Output Shape              Param #   
=================================================================
separable_conv2d_1293 (Separ (None, 32, 32, 512)       2075      
_________________________________________________________________
activation_1844 (Activation) (None, 32, 32, 512)       0         
_________________________________________________________________
dropout_1844 (Dropout)       (None, 32, 32, 512)       0         
_________________________________________________________________
max_pooling2d_514 (MaxPoolin (None, 16, 16, 512)       0         
_________________________________________________________________
separable_conv2d_1294 (Separ (None, 16, 16, 1024)      529920    
_________________________________________________________________
activation_1845 (Activation) (None, 16, 16, 1024)      0         
_________________________________________________________________
dropout_1845 (Dropout)       (None, 16, 16, 1024)      0         
_________________________________________________________________
flatten_481 (Flatten)        (None, 262144)            0         
_________________________________________________________________
dense_1032 (Dense)           (None, 256)               67109120  
_________________________________________________________________
batch_normalization_1354 (Ba (None, 256)               1024      
_________________________________________________________________
activation_1846 (Activation) (None, 256)               0         
_________________________________________________________________
dropout_1846 (Dropout)       (None, 256)               0         
_________________________________________________________________
dense_1033 (Dense)           (None, 100)               25700     
=================================================================
Total params: 67,667,839
Trainable params: 67,667,327
Non-trainable params: 512
_________________________________________________________________
