Model: "sequential_185"
_________________________________________________________________
Layer (type)                 Output Shape              Param #   
=================================================================
separable_conv2d_454 (Separa (None, 32, 32, 512)       2075      
_________________________________________________________________
batch_normalization_472 (Bat (None, 32, 32, 512)       2048      
_________________________________________________________________
activation_628 (Activation)  (None, 32, 32, 512)       0         
_________________________________________________________________
dropout_628 (Dropout)        (None, 32, 32, 512)       0         
_________________________________________________________________
separable_conv2d_455 (Separa (None, 32, 32, 64)        37440     
_________________________________________________________________
batch_normalization_473 (Bat (None, 32, 32, 64)        256       
_________________________________________________________________
activation_629 (Activation)  (None, 32, 32, 64)        0         
_________________________________________________________________
dropout_629 (Dropout)        (None, 32, 32, 64)        0         
_________________________________________________________________
max_pooling2d_165 (MaxPoolin (None, 16, 16, 64)        0         
_________________________________________________________________
separable_conv2d_456 (Separa (None, 16, 16, 16)        1616      
_________________________________________________________________
activation_630 (Activation)  (None, 16, 16, 16)        0         
_________________________________________________________________
dropout_630 (Dropout)        (None, 16, 16, 16)        0         
_________________________________________________________________
flatten_185 (Flatten)        (None, 4096)              0         
_________________________________________________________________
dense_359 (Dense)            (None, 512)               2097664   
_________________________________________________________________
batch_normalization_474 (Bat (None, 512)               2048      
_________________________________________________________________
activation_631 (Activation)  (None, 512)               0         
_________________________________________________________________
dropout_631 (Dropout)        (None, 512)               0         
_________________________________________________________________
dense_360 (Dense)            (None, 256)               131328    
_________________________________________________________________
batch_normalization_475 (Bat (None, 256)               1024      
_________________________________________________________________
activation_632 (Activation)  (None, 256)               0         
_________________________________________________________________
dropout_632 (Dropout)        (None, 256)               0         
_________________________________________________________________
dense_361 (Dense)            (None, 100)               25700     
=================================================================
Total params: 2,301,199
Trainable params: 2,298,511
Non-trainable params: 2,688
_________________________________________________________________
