Model: "sequential_451"
_________________________________________________________________
Layer (type)                 Output Shape              Param #   
=================================================================
separable_conv2d_1205 (Separ (None, 32, 32, 64)        283       
_________________________________________________________________
batch_normalization_1262 (Ba (None, 32, 32, 64)        256       
_________________________________________________________________
activation_1706 (Activation) (None, 32, 32, 64)        0         
_________________________________________________________________
dropout_1706 (Dropout)       (None, 32, 32, 64)        0         
_________________________________________________________________
separable_conv2d_1206 (Separ (None, 32, 32, 128)       8896      
_________________________________________________________________
batch_normalization_1263 (Ba (None, 32, 32, 128)       512       
_________________________________________________________________
activation_1707 (Activation) (None, 32, 32, 128)       0         
_________________________________________________________________
dropout_1707 (Dropout)       (None, 32, 32, 128)       0         
_________________________________________________________________
separable_conv2d_1207 (Separ (None, 32, 32, 1024)      133248    
_________________________________________________________________
activation_1708 (Activation) (None, 32, 32, 1024)      0         
_________________________________________________________________
dropout_1708 (Dropout)       (None, 32, 32, 1024)      0         
_________________________________________________________________
flatten_451 (Flatten)        (None, 1048576)           0         
_________________________________________________________________
dense_952 (Dense)            (None, 512)               536871424 
_________________________________________________________________
batch_normalization_1264 (Ba (None, 512)               2048      
_________________________________________________________________
activation_1709 (Activation) (None, 512)               0         
_________________________________________________________________
dropout_1709 (Dropout)       (None, 512)               0         
_________________________________________________________________
dense_953 (Dense)            (None, 16)                8208      
_________________________________________________________________
batch_normalization_1265 (Ba (None, 16)                64        
_________________________________________________________________
activation_1710 (Activation) (None, 16)                0         
_________________________________________________________________
dropout_1710 (Dropout)       (None, 16)                0         
_________________________________________________________________
dense_954 (Dense)            (None, 100)               1700      
=================================================================
Total params: 537,026,639
Trainable params: 537,025,199
Non-trainable params: 1,440
_________________________________________________________________
