Model: "sequential_349"
_________________________________________________________________
Layer (type)                 Output Shape              Param #   
=================================================================
separable_conv2d_911 (Separa (None, 32, 32, 256)       1051      
_________________________________________________________________
batch_normalization_971 (Bat (None, 32, 32, 256)       1024      
_________________________________________________________________
activation_1271 (Activation) (None, 32, 32, 256)       0         
_________________________________________________________________
dropout_1271 (Dropout)       (None, 32, 32, 256)       0         
_________________________________________________________________
max_pooling2d_362 (MaxPoolin (None, 16, 16, 256)       0         
_________________________________________________________________
separable_conv2d_912 (Separa (None, 16, 16, 128)       35200     
_________________________________________________________________
batch_normalization_972 (Bat (None, 16, 16, 128)       512       
_________________________________________________________________
activation_1272 (Activation) (None, 16, 16, 128)       0         
_________________________________________________________________
dropout_1272 (Dropout)       (None, 16, 16, 128)       0         
_________________________________________________________________
separable_conv2d_913 (Separa (None, 16, 16, 16)        3216      
_________________________________________________________________
activation_1273 (Activation) (None, 16, 16, 16)        0         
_________________________________________________________________
dropout_1273 (Dropout)       (None, 16, 16, 16)        0         
_________________________________________________________________
flatten_349 (Flatten)        (None, 4096)              0         
_________________________________________________________________
dense_709 (Dense)            (None, 64)                262208    
_________________________________________________________________
activation_1274 (Activation) (None, 64)                0         
_________________________________________________________________
dropout_1274 (Dropout)       (None, 64)                0         
_________________________________________________________________
dense_710 (Dense)            (None, 100)               6500      
=================================================================
Total params: 309,711
Trainable params: 308,943
Non-trainable params: 768
_________________________________________________________________
