Model: "sequential_325"
_________________________________________________________________
Layer (type)                 Output Shape              Param #   
=================================================================
separable_conv2d_843 (Separa (None, 32, 32, 512)       2075      
_________________________________________________________________
batch_normalization_899 (Bat (None, 32, 32, 512)       2048      
_________________________________________________________________
activation_1172 (Activation) (None, 32, 32, 512)       0         
_________________________________________________________________
dropout_1172 (Dropout)       (None, 32, 32, 512)       0         
_________________________________________________________________
separable_conv2d_844 (Separa (None, 32, 32, 128)       70272     
_________________________________________________________________
batch_normalization_900 (Bat (None, 32, 32, 128)       512       
_________________________________________________________________
activation_1173 (Activation) (None, 32, 32, 128)       0         
_________________________________________________________________
dropout_1173 (Dropout)       (None, 32, 32, 128)       0         
_________________________________________________________________
max_pooling2d_331 (MaxPoolin (None, 16, 16, 128)       0         
_________________________________________________________________
separable_conv2d_845 (Separa (None, 16, 16, 16)        3216      
_________________________________________________________________
activation_1174 (Activation) (None, 16, 16, 16)        0         
_________________________________________________________________
dropout_1174 (Dropout)       (None, 16, 16, 16)        0         
_________________________________________________________________
separable_conv2d_846 (Separa (None, 16, 16, 128)       2320      
_________________________________________________________________
activation_1175 (Activation) (None, 16, 16, 128)       0         
_________________________________________________________________
dropout_1175 (Dropout)       (None, 16, 16, 128)       0         
_________________________________________________________________
max_pooling2d_332 (MaxPoolin (None, 8, 8, 128)         0         
_________________________________________________________________
flatten_325 (Flatten)        (None, 8192)              0         
_________________________________________________________________
dense_654 (Dense)            (None, 256)               2097408   
_________________________________________________________________
batch_normalization_901 (Bat (None, 256)               1024      
_________________________________________________________________
activation_1176 (Activation) (None, 256)               0         
_________________________________________________________________
dropout_1176 (Dropout)       (None, 256)               0         
_________________________________________________________________
dense_655 (Dense)            (None, 100)               25700     
=================================================================
Total params: 2,204,575
Trainable params: 2,202,783
Non-trainable params: 1,792
_________________________________________________________________
