Model: "sequential_12"
_________________________________________________________________
Layer (type)                 Output Shape              Param #   
=================================================================
separable_conv2d_30 (Separab (None, 32, 32, 32)        155       
_________________________________________________________________
batch_normalization_27 (Batc (None, 32, 32, 32)        128       
_________________________________________________________________
activation_42 (Activation)   (None, 32, 32, 32)        0         
_________________________________________________________________
dropout_42 (Dropout)         (None, 32, 32, 32)        0         
_________________________________________________________________
flatten_12 (Flatten)         (None, 32768)             0         
_________________________________________________________________
dense_24 (Dense)             (None, 100)               3276900   
=================================================================
Total params: 3,277,183
Trainable params: 3,277,119
Non-trainable params: 64
_________________________________________________________________
