Model: "sequential_77"
_________________________________________________________________
Layer (type)                 Output Shape              Param #   
=================================================================
separable_conv2d_180 (Separa (None, 32, 32, 32)        155       
_________________________________________________________________
activation_245 (Activation)  (None, 32, 32, 32)        0         
_________________________________________________________________
dropout_245 (Dropout)        (None, 32, 32, 32)        0         
_________________________________________________________________
flatten_77 (Flatten)         (None, 32768)             0         
_________________________________________________________________
dense_142 (Dense)            (None, 128)               4194432   
_________________________________________________________________
batch_normalization_164 (Bat (None, 128)               512       
_________________________________________________________________
activation_246 (Activation)  (None, 128)               0         
_________________________________________________________________
dropout_246 (Dropout)        (None, 128)               0         
_________________________________________________________________
dense_143 (Dense)            (None, 100)               12900     
=================================================================
Total params: 4,207,999
Trainable params: 4,207,743
Non-trainable params: 256
_________________________________________________________________
