Model: "sequential_71"
_________________________________________________________________
Layer (type)                 Output Shape              Param #   
=================================================================
separable_conv2d_169 (Separa (None, 32, 32, 256)       1051      
_________________________________________________________________
batch_normalization_153 (Bat (None, 32, 32, 256)       1024      
_________________________________________________________________
activation_229 (Activation)  (None, 32, 32, 256)       0         
_________________________________________________________________
dropout_229 (Dropout)        (None, 32, 32, 256)       0         
_________________________________________________________________
max_pooling2d_54 (MaxPooling (None, 16, 16, 256)       0         
_________________________________________________________________
separable_conv2d_170 (Separa (None, 16, 16, 8)         4360      
_________________________________________________________________
batch_normalization_154 (Bat (None, 16, 16, 8)         32        
_________________________________________________________________
activation_230 (Activation)  (None, 16, 16, 8)         0         
_________________________________________________________________
dropout_230 (Dropout)        (None, 16, 16, 8)         0         
_________________________________________________________________
flatten_71 (Flatten)         (None, 2048)              0         
_________________________________________________________________
dense_131 (Dense)            (None, 100)               204900    
=================================================================
Total params: 211,367
Trainable params: 210,839
Non-trainable params: 528
_________________________________________________________________
