Model: "sequential_442"
_________________________________________________________________
Layer (type)                 Output Shape              Param #   
=================================================================
separable_conv2d_1179 (Separ (None, 32, 32, 256)       1051      
_________________________________________________________________
batch_normalization_1234 (Ba (None, 32, 32, 256)       1024      
_________________________________________________________________
activation_1666 (Activation) (None, 32, 32, 256)       0         
_________________________________________________________________
dropout_1666 (Dropout)       (None, 32, 32, 256)       0         
_________________________________________________________________
max_pooling2d_474 (MaxPoolin (None, 16, 16, 256)       0         
_________________________________________________________________
separable_conv2d_1180 (Separ (None, 16, 16, 16)        6416      
_________________________________________________________________
activation_1667 (Activation) (None, 16, 16, 16)        0         
_________________________________________________________________
dropout_1667 (Dropout)       (None, 16, 16, 16)        0         
_________________________________________________________________
flatten_442 (Flatten)        (None, 4096)              0         
_________________________________________________________________
dense_929 (Dense)            (None, 512)               2097664   
_________________________________________________________________
batch_normalization_1235 (Ba (None, 512)               2048      
_________________________________________________________________
activation_1668 (Activation) (None, 512)               0         
_________________________________________________________________
dropout_1668 (Dropout)       (None, 512)               0         
_________________________________________________________________
dense_930 (Dense)            (None, 256)               131328    
_________________________________________________________________
activation_1669 (Activation) (None, 256)               0         
_________________________________________________________________
dropout_1669 (Dropout)       (None, 256)               0         
_________________________________________________________________
dense_931 (Dense)            (None, 100)               25700     
=================================================================
Total params: 2,265,231
Trainable params: 2,263,695
Non-trainable params: 1,536
_________________________________________________________________
