Model: "sequential_439"
_________________________________________________________________
Layer (type)                 Output Shape              Param #   
=================================================================
separable_conv2d_1170 (Separ (None, 32, 32, 512)       2075      
_________________________________________________________________
batch_normalization_1224 (Ba (None, 32, 32, 512)       2048      
_________________________________________________________________
activation_1651 (Activation) (None, 32, 32, 512)       0         
_________________________________________________________________
dropout_1651 (Dropout)       (None, 32, 32, 512)       0         
_________________________________________________________________
max_pooling2d_470 (MaxPoolin (None, 16, 16, 512)       0         
_________________________________________________________________
separable_conv2d_1171 (Separ (None, 16, 16, 64)        37440     
_________________________________________________________________
activation_1652 (Activation) (None, 16, 16, 64)        0         
_________________________________________________________________
dropout_1652 (Dropout)       (None, 16, 16, 64)        0         
_________________________________________________________________
separable_conv2d_1172 (Separ (None, 16, 16, 16)        1616      
_________________________________________________________________
activation_1653 (Activation) (None, 16, 16, 16)        0         
_________________________________________________________________
dropout_1653 (Dropout)       (None, 16, 16, 16)        0         
_________________________________________________________________
flatten_439 (Flatten)        (None, 4096)              0         
_________________________________________________________________
dense_920 (Dense)            (None, 512)               2097664   
_________________________________________________________________
batch_normalization_1225 (Ba (None, 512)               2048      
_________________________________________________________________
activation_1654 (Activation) (None, 512)               0         
_________________________________________________________________
dropout_1654 (Dropout)       (None, 512)               0         
_________________________________________________________________
dense_921 (Dense)            (None, 256)               131328    
_________________________________________________________________
batch_normalization_1226 (Ba (None, 256)               1024      
_________________________________________________________________
activation_1655 (Activation) (None, 256)               0         
_________________________________________________________________
dropout_1655 (Dropout)       (None, 256)               0         
_________________________________________________________________
dense_922 (Dense)            (None, 100)               25700     
=================================================================
Total params: 2,300,943
Trainable params: 2,298,383
Non-trainable params: 2,560
_________________________________________________________________
