Model: "sequential_459"
_________________________________________________________________
Layer (type)                 Output Shape              Param #   
=================================================================
separable_conv2d_1229 (Separ (None, 32, 32, 512)       2075      
_________________________________________________________________
batch_normalization_1287 (Ba (None, 32, 32, 512)       2048      
_________________________________________________________________
activation_1742 (Activation) (None, 32, 32, 512)       0         
_________________________________________________________________
dropout_1742 (Dropout)       (None, 32, 32, 512)       0         
_________________________________________________________________
max_pooling2d_489 (MaxPoolin (None, 16, 16, 512)       0         
_________________________________________________________________
separable_conv2d_1230 (Separ (None, 16, 16, 64)        37440     
_________________________________________________________________
activation_1743 (Activation) (None, 16, 16, 64)        0         
_________________________________________________________________
dropout_1743 (Dropout)       (None, 16, 16, 64)        0         
_________________________________________________________________
max_pooling2d_490 (MaxPoolin (None, 8, 8, 64)          0         
_________________________________________________________________
separable_conv2d_1231 (Separ (None, 8, 8, 256)         17216     
_________________________________________________________________
activation_1744 (Activation) (None, 8, 8, 256)         0         
_________________________________________________________________
dropout_1744 (Dropout)       (None, 8, 8, 256)         0         
_________________________________________________________________
flatten_459 (Flatten)        (None, 16384)             0         
_________________________________________________________________
dense_972 (Dense)            (None, 512)               8389120   
_________________________________________________________________
batch_normalization_1288 (Ba (None, 512)               2048      
_________________________________________________________________
activation_1745 (Activation) (None, 512)               0         
_________________________________________________________________
dropout_1745 (Dropout)       (None, 512)               0         
_________________________________________________________________
dense_973 (Dense)            (None, 16)                8208      
_________________________________________________________________
activation_1746 (Activation) (None, 16)                0         
_________________________________________________________________
dropout_1746 (Dropout)       (None, 16)                0         
_________________________________________________________________
dense_974 (Dense)            (None, 100)               1700      
=================================================================
Total params: 8,459,855
Trainable params: 8,457,807
Non-trainable params: 2,048
_________________________________________________________________
