Model: "sequential_324"
_________________________________________________________________
Layer (type)                 Output Shape              Param #   
=================================================================
separable_conv2d_840 (Separa (None, 32, 32, 256)       1051      
_________________________________________________________________
batch_normalization_897 (Bat (None, 32, 32, 256)       1024      
_________________________________________________________________
activation_1169 (Activation) (None, 32, 32, 256)       0         
_________________________________________________________________
dropout_1169 (Dropout)       (None, 32, 32, 256)       0         
_________________________________________________________________
max_pooling2d_330 (MaxPoolin (None, 16, 16, 256)       0         
_________________________________________________________________
separable_conv2d_841 (Separa (None, 16, 16, 128)       35200     
_________________________________________________________________
batch_normalization_898 (Bat (None, 16, 16, 128)       512       
_________________________________________________________________
activation_1170 (Activation) (None, 16, 16, 128)       0         
_________________________________________________________________
dropout_1170 (Dropout)       (None, 16, 16, 128)       0         
_________________________________________________________________
separable_conv2d_842 (Separa (None, 16, 16, 64)        9408      
_________________________________________________________________
activation_1171 (Activation) (None, 16, 16, 64)        0         
_________________________________________________________________
dropout_1171 (Dropout)       (None, 16, 16, 64)        0         
_________________________________________________________________
flatten_324 (Flatten)        (None, 16384)             0         
_________________________________________________________________
dense_653 (Dense)            (None, 100)               1638500   
=================================================================
Total params: 1,685,695
Trainable params: 1,684,927
Non-trainable params: 768
_________________________________________________________________
