Model: "sequential_217"
_________________________________________________________________
Layer (type)                 Output Shape              Param #   
=================================================================
separable_conv2d_538 (Separa (None, 32, 32, 8)         59        
_________________________________________________________________
activation_747 (Activation)  (None, 32, 32, 8)         0         
_________________________________________________________________
dropout_747 (Dropout)        (None, 32, 32, 8)         0         
_________________________________________________________________
separable_conv2d_539 (Separa (None, 32, 32, 64)        648       
_________________________________________________________________
batch_normalization_571 (Bat (None, 32, 32, 64)        256       
_________________________________________________________________
activation_748 (Activation)  (None, 32, 32, 64)        0         
_________________________________________________________________
dropout_748 (Dropout)        (None, 32, 32, 64)        0         
_________________________________________________________________
max_pooling2d_204 (MaxPoolin (None, 16, 16, 64)        0         
_________________________________________________________________
separable_conv2d_540 (Separa (None, 16, 16, 16)        1616      
_________________________________________________________________
activation_749 (Activation)  (None, 16, 16, 16)        0         
_________________________________________________________________
dropout_749 (Dropout)        (None, 16, 16, 16)        0         
_________________________________________________________________
flatten_217 (Flatten)        (None, 4096)              0         
_________________________________________________________________
dense_426 (Dense)            (None, 512)               2097664   
_________________________________________________________________
batch_normalization_572 (Bat (None, 512)               2048      
_________________________________________________________________
activation_750 (Activation)  (None, 512)               0         
_________________________________________________________________
dropout_750 (Dropout)        (None, 512)               0         
_________________________________________________________________
dense_427 (Dense)            (None, 64)                32832     
_________________________________________________________________
batch_normalization_573 (Bat (None, 64)                256       
_________________________________________________________________
activation_751 (Activation)  (None, 64)                0         
_________________________________________________________________
dropout_751 (Dropout)        (None, 64)                0         
_________________________________________________________________
dense_428 (Dense)            (None, 100)               6500      
=================================================================
Total params: 2,141,879
Trainable params: 2,140,599
Non-trainable params: 1,280
_________________________________________________________________
