Model: "sequential_252"
_________________________________________________________________
Layer (type)                 Output Shape              Param #   
=================================================================
separable_conv2d_637 (Separa (None, 32, 32, 256)       1051      
_________________________________________________________________
batch_normalization_686 (Bat (None, 32, 32, 256)       1024      
_________________________________________________________________
activation_892 (Activation)  (None, 32, 32, 256)       0         
_________________________________________________________________
dropout_892 (Dropout)        (None, 32, 32, 256)       0         
_________________________________________________________________
max_pooling2d_245 (MaxPoolin (None, 16, 16, 256)       0         
_________________________________________________________________
separable_conv2d_638 (Separa (None, 16, 16, 128)       35200     
_________________________________________________________________
batch_normalization_687 (Bat (None, 16, 16, 128)       512       
_________________________________________________________________
activation_893 (Activation)  (None, 16, 16, 128)       0         
_________________________________________________________________
dropout_893 (Dropout)        (None, 16, 16, 128)       0         
_________________________________________________________________
flatten_252 (Flatten)        (None, 32768)             0         
_________________________________________________________________
dense_507 (Dense)            (None, 256)               8388864   
_________________________________________________________________
batch_normalization_688 (Bat (None, 256)               1024      
_________________________________________________________________
activation_894 (Activation)  (None, 256)               0         
_________________________________________________________________
dropout_894 (Dropout)        (None, 256)               0         
_________________________________________________________________
dense_508 (Dense)            (None, 100)               25700     
=================================================================
Total params: 8,453,375
Trainable params: 8,452,095
Non-trainable params: 1,280
_________________________________________________________________
