Model: "sequential_286"
_________________________________________________________________
Layer (type)                 Output Shape              Param #   
=================================================================
separable_conv2d_730 (Separa (None, 32, 32, 512)       2075      
_________________________________________________________________
batch_normalization_790 (Bat (None, 32, 32, 512)       2048      
_________________________________________________________________
activation_1022 (Activation) (None, 32, 32, 512)       0         
_________________________________________________________________
dropout_1022 (Dropout)       (None, 32, 32, 512)       0         
_________________________________________________________________
max_pooling2d_285 (MaxPoolin (None, 16, 16, 512)       0         
_________________________________________________________________
separable_conv2d_731 (Separa (None, 16, 16, 128)       70272     
_________________________________________________________________
batch_normalization_791 (Bat (None, 16, 16, 128)       512       
_________________________________________________________________
activation_1023 (Activation) (None, 16, 16, 128)       0         
_________________________________________________________________
dropout_1023 (Dropout)       (None, 16, 16, 128)       0         
_________________________________________________________________
flatten_286 (Flatten)        (None, 32768)             0         
_________________________________________________________________
dense_578 (Dense)            (None, 128)               4194432   
_________________________________________________________________
batch_normalization_792 (Bat (None, 128)               512       
_________________________________________________________________
activation_1024 (Activation) (None, 128)               0         
_________________________________________________________________
dropout_1024 (Dropout)       (None, 128)               0         
_________________________________________________________________
dense_579 (Dense)            (None, 100)               12900     
=================================================================
Total params: 4,282,751
Trainable params: 4,281,215
Non-trainable params: 1,536
_________________________________________________________________
