Model: "sequential_105"
_________________________________________________________________
Layer (type)                 Output Shape              Param #   
=================================================================
separable_conv2d_245 (Separa (None, 32, 32, 256)       1051      
_________________________________________________________________
batch_normalization_236 (Bat (None, 32, 32, 256)       1024      
_________________________________________________________________
activation_334 (Activation)  (None, 32, 32, 256)       0         
_________________________________________________________________
dropout_334 (Dropout)        (None, 32, 32, 256)       0         
_________________________________________________________________
separable_conv2d_246 (Separa (None, 32, 32, 64)        18752     
_________________________________________________________________
batch_normalization_237 (Bat (None, 32, 32, 64)        256       
_________________________________________________________________
activation_335 (Activation)  (None, 32, 32, 64)        0         
_________________________________________________________________
dropout_335 (Dropout)        (None, 32, 32, 64)        0         
_________________________________________________________________
max_pooling2d_78 (MaxPooling (None, 16, 16, 64)        0         
_________________________________________________________________
separable_conv2d_247 (Separa (None, 16, 16, 128)       8896      
_________________________________________________________________
activation_336 (Activation)  (None, 16, 16, 128)       0         
_________________________________________________________________
dropout_336 (Dropout)        (None, 16, 16, 128)       0         
_________________________________________________________________
flatten_105 (Flatten)        (None, 32768)             0         
_________________________________________________________________
dense_194 (Dense)            (None, 256)               8388864   
_________________________________________________________________
batch_normalization_238 (Bat (None, 256)               1024      
_________________________________________________________________
activation_337 (Activation)  (None, 256)               0         
_________________________________________________________________
dropout_337 (Dropout)        (None, 256)               0         
_________________________________________________________________
dense_195 (Dense)            (None, 100)               25700     
=================================================================
Total params: 8,445,567
Trainable params: 8,444,415
Non-trainable params: 1,152
_________________________________________________________________
