Model: "sequential_556"
_________________________________________________________________
Layer (type)                 Output Shape              Param #   
=================================================================
separable_conv2d_1513 (Separ (None, 32, 32, 256)       1051      
_________________________________________________________________
batch_normalization_1605 (Ba (None, 32, 32, 256)       1024      
_________________________________________________________________
activation_2189 (Activation) (None, 32, 32, 256)       0         
_________________________________________________________________
dropout_2189 (Dropout)       (None, 32, 32, 256)       0         
_________________________________________________________________
max_pooling2d_587 (MaxPoolin (None, 16, 16, 256)       0         
_________________________________________________________________
separable_conv2d_1514 (Separ (None, 16, 16, 64)        18752     
_________________________________________________________________
batch_normalization_1606 (Ba (None, 16, 16, 64)        256       
_________________________________________________________________
activation_2190 (Activation) (None, 16, 16, 64)        0         
_________________________________________________________________
dropout_2190 (Dropout)       (None, 16, 16, 64)        0         
_________________________________________________________________
separable_conv2d_1515 (Separ (None, 16, 16, 8)         1096      
_________________________________________________________________
activation_2191 (Activation) (None, 16, 16, 8)         0         
_________________________________________________________________
dropout_2191 (Dropout)       (None, 16, 16, 8)         0         
_________________________________________________________________
flatten_556 (Flatten)        (None, 2048)              0         
_________________________________________________________________
dense_1232 (Dense)           (None, 32)                65568     
_________________________________________________________________
batch_normalization_1607 (Ba (None, 32)                128       
_________________________________________________________________
activation_2192 (Activation) (None, 32)                0         
_________________________________________________________________
dropout_2192 (Dropout)       (None, 32)                0         
_________________________________________________________________
dense_1233 (Dense)           (None, 256)               8448      
_________________________________________________________________
batch_normalization_1608 (Ba (None, 256)               1024      
_________________________________________________________________
activation_2193 (Activation) (None, 256)               0         
_________________________________________________________________
dropout_2193 (Dropout)       (None, 256)               0         
_________________________________________________________________
dense_1234 (Dense)           (None, 100)               25700     
=================================================================
Total params: 123,047
Trainable params: 121,831
Non-trainable params: 1,216
_________________________________________________________________
