Model: "sequential_55"
_________________________________________________________________
Layer (type)                 Output Shape              Param #   
=================================================================
separable_conv2d_132 (Separa (None, 32, 32, 256)       1051      
_________________________________________________________________
batch_normalization_113 (Bat (None, 32, 32, 256)       1024      
_________________________________________________________________
activation_180 (Activation)  (None, 32, 32, 256)       0         
_________________________________________________________________
dropout_180 (Dropout)        (None, 32, 32, 256)       0         
_________________________________________________________________
max_pooling2d_42 (MaxPooling (None, 16, 16, 256)       0         
_________________________________________________________________
separable_conv2d_133 (Separa (None, 16, 16, 128)       35200     
_________________________________________________________________
batch_normalization_114 (Bat (None, 16, 16, 128)       512       
_________________________________________________________________
activation_181 (Activation)  (None, 16, 16, 128)       0         
_________________________________________________________________
dropout_181 (Dropout)        (None, 16, 16, 128)       0         
_________________________________________________________________
separable_conv2d_134 (Separa (None, 16, 16, 64)        9408      
_________________________________________________________________
batch_normalization_115 (Bat (None, 16, 16, 64)        256       
_________________________________________________________________
activation_182 (Activation)  (None, 16, 16, 64)        0         
_________________________________________________________________
dropout_182 (Dropout)        (None, 16, 16, 64)        0         
_________________________________________________________________
flatten_55 (Flatten)         (None, 16384)             0         
_________________________________________________________________
dense_103 (Dense)            (None, 100)               1638500   
=================================================================
Total params: 1,685,951
Trainable params: 1,685,055
Non-trainable params: 896
_________________________________________________________________
