Model: "sequential_332"
_________________________________________________________________
Layer (type)                 Output Shape              Param #   
=================================================================
separable_conv2d_863 (Separa (None, 32, 32, 256)       1051      
_________________________________________________________________
batch_normalization_921 (Bat (None, 32, 32, 256)       1024      
_________________________________________________________________
activation_1201 (Activation) (None, 32, 32, 256)       0         
_________________________________________________________________
dropout_1201 (Dropout)       (None, 32, 32, 256)       0         
_________________________________________________________________
separable_conv2d_864 (Separa (None, 32, 32, 8)         4360      
_________________________________________________________________
batch_normalization_922 (Bat (None, 32, 32, 8)         32        
_________________________________________________________________
activation_1202 (Activation) (None, 32, 32, 8)         0         
_________________________________________________________________
dropout_1202 (Dropout)       (None, 32, 32, 8)         0         
_________________________________________________________________
separable_conv2d_865 (Separa (None, 32, 32, 16)        216       
_________________________________________________________________
activation_1203 (Activation) (None, 32, 32, 16)        0         
_________________________________________________________________
dropout_1203 (Dropout)       (None, 32, 32, 16)        0         
_________________________________________________________________
flatten_332 (Flatten)        (None, 16384)             0         
_________________________________________________________________
dense_670 (Dense)            (None, 100)               1638500   
=================================================================
Total params: 1,645,183
Trainable params: 1,644,655
Non-trainable params: 528
_________________________________________________________________
