Model: "sequential_275"
_________________________________________________________________
Layer (type)                 Output Shape              Param #   
=================================================================
separable_conv2d_701 (Separa (None, 32, 32, 512)       2075      
_________________________________________________________________
batch_normalization_757 (Bat (None, 32, 32, 512)       2048      
_________________________________________________________________
activation_982 (Activation)  (None, 32, 32, 512)       0         
_________________________________________________________________
dropout_982 (Dropout)        (None, 32, 32, 512)       0         
_________________________________________________________________
max_pooling2d_272 (MaxPoolin (None, 16, 16, 512)       0         
_________________________________________________________________
separable_conv2d_702 (Separa (None, 16, 16, 128)       70272     
_________________________________________________________________
batch_normalization_758 (Bat (None, 16, 16, 128)       512       
_________________________________________________________________
activation_983 (Activation)  (None, 16, 16, 128)       0         
_________________________________________________________________
dropout_983 (Dropout)        (None, 16, 16, 128)       0         
_________________________________________________________________
flatten_275 (Flatten)        (None, 32768)             0         
_________________________________________________________________
dense_556 (Dense)            (None, 512)               16777728  
_________________________________________________________________
batch_normalization_759 (Bat (None, 512)               2048      
_________________________________________________________________
activation_984 (Activation)  (None, 512)               0         
_________________________________________________________________
dropout_984 (Dropout)        (None, 512)               0         
_________________________________________________________________
dense_557 (Dense)            (None, 256)               131328    
_________________________________________________________________
batch_normalization_760 (Bat (None, 256)               1024      
_________________________________________________________________
activation_985 (Activation)  (None, 256)               0         
_________________________________________________________________
dropout_985 (Dropout)        (None, 256)               0         
_________________________________________________________________
dense_558 (Dense)            (None, 100)               25700     
=================================================================
Total params: 17,012,735
Trainable params: 17,009,919
Non-trainable params: 2,816
_________________________________________________________________
