Model: "sequential_330"
_________________________________________________________________
Layer (type)                 Output Shape              Param #   
=================================================================
separable_conv2d_858 (Separa (None, 32, 32, 512)       2075      
_________________________________________________________________
batch_normalization_914 (Bat (None, 32, 32, 512)       2048      
_________________________________________________________________
activation_1193 (Activation) (None, 32, 32, 512)       0         
_________________________________________________________________
dropout_1193 (Dropout)       (None, 32, 32, 512)       0         
_________________________________________________________________
max_pooling2d_339 (MaxPoolin (None, 16, 16, 512)       0         
_________________________________________________________________
separable_conv2d_859 (Separa (None, 16, 16, 128)       70272     
_________________________________________________________________
batch_normalization_915 (Bat (None, 16, 16, 128)       512       
_________________________________________________________________
activation_1194 (Activation) (None, 16, 16, 128)       0         
_________________________________________________________________
dropout_1194 (Dropout)       (None, 16, 16, 128)       0         
_________________________________________________________________
flatten_330 (Flatten)        (None, 32768)             0         
_________________________________________________________________
dense_665 (Dense)            (None, 512)               16777728  
_________________________________________________________________
batch_normalization_916 (Bat (None, 512)               2048      
_________________________________________________________________
activation_1195 (Activation) (None, 512)               0         
_________________________________________________________________
dropout_1195 (Dropout)       (None, 512)               0         
_________________________________________________________________
dense_666 (Dense)            (None, 256)               131328    
_________________________________________________________________
batch_normalization_917 (Bat (None, 256)               1024      
_________________________________________________________________
activation_1196 (Activation) (None, 256)               0         
_________________________________________________________________
dropout_1196 (Dropout)       (None, 256)               0         
_________________________________________________________________
dense_667 (Dense)            (None, 100)               25700     
=================================================================
Total params: 17,012,735
Trainable params: 17,009,919
Non-trainable params: 2,816
_________________________________________________________________
