Model: "sequential_489"
_________________________________________________________________
Layer (type)                 Output Shape              Param #   
=================================================================
separable_conv2d_1314 (Separ (None, 32, 32, 512)       2075      
_________________________________________________________________
batch_normalization_1377 (Ba (None, 32, 32, 512)       2048      
_________________________________________________________________
activation_1879 (Activation) (None, 32, 32, 512)       0         
_________________________________________________________________
dropout_1879 (Dropout)       (None, 32, 32, 512)       0         
_________________________________________________________________
max_pooling2d_521 (MaxPoolin (None, 16, 16, 512)       0         
_________________________________________________________________
separable_conv2d_1315 (Separ (None, 16, 16, 64)        37440     
_________________________________________________________________
batch_normalization_1378 (Ba (None, 16, 16, 64)        256       
_________________________________________________________________
activation_1880 (Activation) (None, 16, 16, 64)        0         
_________________________________________________________________
dropout_1880 (Dropout)       (None, 16, 16, 64)        0         
_________________________________________________________________
max_pooling2d_522 (MaxPoolin (None, 8, 8, 64)          0         
_________________________________________________________________
separable_conv2d_1316 (Separ (None, 8, 8, 16)          1616      
_________________________________________________________________
activation_1881 (Activation) (None, 8, 8, 16)          0         
_________________________________________________________________
dropout_1881 (Dropout)       (None, 8, 8, 16)          0         
_________________________________________________________________
flatten_489 (Flatten)        (None, 1024)              0         
_________________________________________________________________
dense_1054 (Dense)           (None, 512)               524800    
_________________________________________________________________
batch_normalization_1379 (Ba (None, 512)               2048      
_________________________________________________________________
activation_1882 (Activation) (None, 512)               0         
_________________________________________________________________
dropout_1882 (Dropout)       (None, 512)               0         
_________________________________________________________________
dense_1055 (Dense)           (None, 100)               51300     
=================================================================
Total params: 621,583
Trainable params: 619,407
Non-trainable params: 2,176
_________________________________________________________________
