Model: "sequential_82"
_________________________________________________________________
Layer (type)                 Output Shape              Param #   
=================================================================
separable_conv2d_193 (Separa (None, 32, 32, 32)        155       
_________________________________________________________________
activation_260 (Activation)  (None, 32, 32, 32)        0         
_________________________________________________________________
dropout_260 (Dropout)        (None, 32, 32, 32)        0         
_________________________________________________________________
separable_conv2d_194 (Separa (None, 32, 32, 16)        816       
_________________________________________________________________
activation_261 (Activation)  (None, 32, 32, 16)        0         
_________________________________________________________________
dropout_261 (Dropout)        (None, 32, 32, 16)        0         
_________________________________________________________________
flatten_82 (Flatten)         (None, 16384)             0         
_________________________________________________________________
dense_149 (Dense)            (None, 512)               8389120   
_________________________________________________________________
batch_normalization_175 (Bat (None, 512)               2048      
_________________________________________________________________
activation_262 (Activation)  (None, 512)               0         
_________________________________________________________________
dropout_262 (Dropout)        (None, 512)               0         
_________________________________________________________________
dense_150 (Dense)            (None, 256)               131328    
_________________________________________________________________
batch_normalization_176 (Bat (None, 256)               1024      
_________________________________________________________________
activation_263 (Activation)  (None, 256)               0         
_________________________________________________________________
dropout_263 (Dropout)        (None, 256)               0         
_________________________________________________________________
dense_151 (Dense)            (None, 100)               25700     
=================================================================
Total params: 8,550,191
Trainable params: 8,548,655
Non-trainable params: 1,536
_________________________________________________________________
