Model: "sequential_532"
_________________________________________________________________
Layer (type)                 Output Shape              Param #   
=================================================================
separable_conv2d_1442 (Separ (None, 32, 32, 8)         59        
_________________________________________________________________
batch_normalization_1524 (Ba (None, 32, 32, 8)         32        
_________________________________________________________________
activation_2077 (Activation) (None, 32, 32, 8)         0         
_________________________________________________________________
dropout_2077 (Dropout)       (None, 32, 32, 8)         0         
_________________________________________________________________
separable_conv2d_1443 (Separ (None, 32, 32, 16)        216       
_________________________________________________________________
batch_normalization_1525 (Ba (None, 32, 32, 16)        64        
_________________________________________________________________
activation_2078 (Activation) (None, 32, 32, 16)        0         
_________________________________________________________________
dropout_2078 (Dropout)       (None, 32, 32, 16)        0         
_________________________________________________________________
flatten_532 (Flatten)        (None, 16384)             0         
_________________________________________________________________
dense_1167 (Dense)           (None, 256)               4194560   
_________________________________________________________________
batch_normalization_1526 (Ba (None, 256)               1024      
_________________________________________________________________
activation_2079 (Activation) (None, 256)               0         
_________________________________________________________________
dropout_2079 (Dropout)       (None, 256)               0         
_________________________________________________________________
dense_1168 (Dense)           (None, 100)               25700     
=================================================================
Total params: 4,221,655
Trainable params: 4,221,095
Non-trainable params: 560
_________________________________________________________________
