Model: "sequential_369"
_________________________________________________________________
Layer (type)                 Output Shape              Param #   
=================================================================
separable_conv2d_967 (Separa (None, 32, 32, 256)       1051      
_________________________________________________________________
batch_normalization_1017 (Ba (None, 32, 32, 256)       1024      
_________________________________________________________________
activation_1345 (Activation) (None, 32, 32, 256)       0         
_________________________________________________________________
dropout_1345 (Dropout)       (None, 32, 32, 256)       0         
_________________________________________________________________
max_pooling2d_386 (MaxPoolin (None, 16, 16, 256)       0         
_________________________________________________________________
separable_conv2d_968 (Separa (None, 16, 16, 256)       68096     
_________________________________________________________________
batch_normalization_1018 (Ba (None, 16, 16, 256)       1024      
_________________________________________________________________
activation_1346 (Activation) (None, 16, 16, 256)       0         
_________________________________________________________________
dropout_1346 (Dropout)       (None, 16, 16, 256)       0         
_________________________________________________________________
max_pooling2d_387 (MaxPoolin (None, 8, 8, 256)         0         
_________________________________________________________________
flatten_369 (Flatten)        (None, 16384)             0         
_________________________________________________________________
dense_747 (Dense)            (None, 512)               8389120   
_________________________________________________________________
batch_normalization_1019 (Ba (None, 512)               2048      
_________________________________________________________________
activation_1347 (Activation) (None, 512)               0         
_________________________________________________________________
dropout_1347 (Dropout)       (None, 512)               0         
_________________________________________________________________
dense_748 (Dense)            (None, 256)               131328    
_________________________________________________________________
batch_normalization_1020 (Ba (None, 256)               1024      
_________________________________________________________________
activation_1348 (Activation) (None, 256)               0         
_________________________________________________________________
dropout_1348 (Dropout)       (None, 256)               0         
_________________________________________________________________
dense_749 (Dense)            (None, 100)               25700     
=================================================================
Total params: 8,620,415
Trainable params: 8,617,855
Non-trainable params: 2,560
_________________________________________________________________
