Model: "sequential_551"
_________________________________________________________________
Layer (type)                 Output Shape              Param #   
=================================================================
separable_conv2d_1498 (Separ (None, 32, 32, 256)       1051      
_________________________________________________________________
batch_normalization_1588 (Ba (None, 32, 32, 256)       1024      
_________________________________________________________________
activation_2166 (Activation) (None, 32, 32, 256)       0         
_________________________________________________________________
dropout_2166 (Dropout)       (None, 32, 32, 256)       0         
_________________________________________________________________
max_pooling2d_583 (MaxPoolin (None, 16, 16, 256)       0         
_________________________________________________________________
separable_conv2d_1499 (Separ (None, 16, 16, 64)        18752     
_________________________________________________________________
batch_normalization_1589 (Ba (None, 16, 16, 64)        256       
_________________________________________________________________
activation_2167 (Activation) (None, 16, 16, 64)        0         
_________________________________________________________________
dropout_2167 (Dropout)       (None, 16, 16, 64)        0         
_________________________________________________________________
separable_conv2d_1500 (Separ (None, 16, 16, 16)        1616      
_________________________________________________________________
batch_normalization_1590 (Ba (None, 16, 16, 16)        64        
_________________________________________________________________
activation_2168 (Activation) (None, 16, 16, 16)        0         
_________________________________________________________________
dropout_2168 (Dropout)       (None, 16, 16, 16)        0         
_________________________________________________________________
flatten_551 (Flatten)        (None, 4096)              0         
_________________________________________________________________
dense_1219 (Dense)           (None, 256)               1048832   
_________________________________________________________________
activation_2169 (Activation) (None, 256)               0         
_________________________________________________________________
dropout_2169 (Dropout)       (None, 256)               0         
_________________________________________________________________
dense_1220 (Dense)           (None, 100)               25700     
=================================================================
Total params: 1,097,295
Trainable params: 1,096,623
Non-trainable params: 672
_________________________________________________________________
