Model: "sequential_403"
_________________________________________________________________
Layer (type)                 Output Shape              Param #   
=================================================================
separable_conv2d_1065 (Separ (None, 32, 32, 512)       2075      
_________________________________________________________________
batch_normalization_1118 (Ba (None, 32, 32, 512)       2048      
_________________________________________________________________
activation_1491 (Activation) (None, 32, 32, 512)       0         
_________________________________________________________________
dropout_1491 (Dropout)       (None, 32, 32, 512)       0         
_________________________________________________________________
separable_conv2d_1066 (Separ (None, 32, 32, 128)       70272     
_________________________________________________________________
batch_normalization_1119 (Ba (None, 32, 32, 128)       512       
_________________________________________________________________
activation_1492 (Activation) (None, 32, 32, 128)       0         
_________________________________________________________________
dropout_1492 (Dropout)       (None, 32, 32, 128)       0         
_________________________________________________________________
separable_conv2d_1067 (Separ (None, 32, 32, 1024)      133248    
_________________________________________________________________
activation_1493 (Activation) (None, 32, 32, 1024)      0         
_________________________________________________________________
dropout_1493 (Dropout)       (None, 32, 32, 1024)      0         
_________________________________________________________________
flatten_403 (Flatten)        (None, 1048576)           0         
_________________________________________________________________
dense_829 (Dense)            (None, 100)               104857700 
=================================================================
Total params: 105,065,855
Trainable params: 105,064,575
Non-trainable params: 1,280
_________________________________________________________________
