Model: "sequential_584"
_________________________________________________________________
Layer (type)                 Output Shape              Param #   
=================================================================
separable_conv2d_1596 (Separ (None, 32, 32, 256)       1051      
_________________________________________________________________
batch_normalization_1696 (Ba (None, 32, 32, 256)       1024      
_________________________________________________________________
activation_2312 (Activation) (None, 32, 32, 256)       0         
_________________________________________________________________
dropout_2312 (Dropout)       (None, 32, 32, 256)       0         
_________________________________________________________________
max_pooling2d_610 (MaxPoolin (None, 16, 16, 256)       0         
_________________________________________________________________
separable_conv2d_1597 (Separ (None, 16, 16, 128)       35200     
_________________________________________________________________
batch_normalization_1697 (Ba (None, 16, 16, 128)       512       
_________________________________________________________________
activation_2313 (Activation) (None, 16, 16, 128)       0         
_________________________________________________________________
dropout_2313 (Dropout)       (None, 16, 16, 128)       0         
_________________________________________________________________
separable_conv2d_1598 (Separ (None, 16, 16, 32)        5280      
_________________________________________________________________
activation_2314 (Activation) (None, 16, 16, 32)        0         
_________________________________________________________________
dropout_2314 (Dropout)       (None, 16, 16, 32)        0         
_________________________________________________________________
flatten_584 (Flatten)        (None, 8192)              0         
_________________________________________________________________
dense_1300 (Dense)           (None, 2048)              16779264  
_________________________________________________________________
batch_normalization_1698 (Ba (None, 2048)              8192      
_________________________________________________________________
activation_2315 (Activation) (None, 2048)              0         
_________________________________________________________________
dropout_2315 (Dropout)       (None, 2048)              0         
_________________________________________________________________
dense_1301 (Dense)           (None, 100)               204900    
=================================================================
Total params: 17,035,423
Trainable params: 17,030,559
Non-trainable params: 4,864
_________________________________________________________________
