Model: "sequential_483"
_________________________________________________________________
Layer (type)                 Output Shape              Param #   
=================================================================
separable_conv2d_1298 (Separ (None, 32, 32, 256)       1051      
_________________________________________________________________
batch_normalization_1359 (Ba (None, 32, 32, 256)       1024      
_________________________________________________________________
activation_1852 (Activation) (None, 32, 32, 256)       0         
_________________________________________________________________
dropout_1852 (Dropout)       (None, 32, 32, 256)       0         
_________________________________________________________________
max_pooling2d_516 (MaxPoolin (None, 16, 16, 256)       0         
_________________________________________________________________
separable_conv2d_1299 (Separ (None, 16, 16, 64)        18752     
_________________________________________________________________
batch_normalization_1360 (Ba (None, 16, 16, 64)        256       
_________________________________________________________________
activation_1853 (Activation) (None, 16, 16, 64)        0         
_________________________________________________________________
dropout_1853 (Dropout)       (None, 16, 16, 64)        0         
_________________________________________________________________
max_pooling2d_517 (MaxPoolin (None, 8, 8, 64)          0         
_________________________________________________________________
separable_conv2d_1300 (Separ (None, 8, 8, 16)          1616      
_________________________________________________________________
activation_1854 (Activation) (None, 8, 8, 16)          0         
_________________________________________________________________
dropout_1854 (Dropout)       (None, 8, 8, 16)          0         
_________________________________________________________________
flatten_483 (Flatten)        (None, 1024)              0         
_________________________________________________________________
dense_1037 (Dense)           (None, 512)               524800    
_________________________________________________________________
batch_normalization_1361 (Ba (None, 512)               2048      
_________________________________________________________________
activation_1855 (Activation) (None, 512)               0         
_________________________________________________________________
dropout_1855 (Dropout)       (None, 512)               0         
_________________________________________________________________
dense_1038 (Dense)           (None, 256)               131328    
_________________________________________________________________
batch_normalization_1362 (Ba (None, 256)               1024      
_________________________________________________________________
activation_1856 (Activation) (None, 256)               0         
_________________________________________________________________
dropout_1856 (Dropout)       (None, 256)               0         
_________________________________________________________________
dense_1039 (Dense)           (None, 100)               25700     
=================================================================
Total params: 707,599
Trainable params: 705,423
Non-trainable params: 2,176
_________________________________________________________________
