Model: "sequential_441"
_________________________________________________________________
Layer (type)                 Output Shape              Param #   
=================================================================
separable_conv2d_1176 (Separ (None, 32, 32, 512)       2075      
_________________________________________________________________
batch_normalization_1230 (Ba (None, 32, 32, 512)       2048      
_________________________________________________________________
activation_1661 (Activation) (None, 32, 32, 512)       0         
_________________________________________________________________
dropout_1661 (Dropout)       (None, 32, 32, 512)       0         
_________________________________________________________________
max_pooling2d_473 (MaxPoolin (None, 16, 16, 512)       0         
_________________________________________________________________
separable_conv2d_1177 (Separ (None, 16, 16, 64)        37440     
_________________________________________________________________
batch_normalization_1231 (Ba (None, 16, 16, 64)        256       
_________________________________________________________________
activation_1662 (Activation) (None, 16, 16, 64)        0         
_________________________________________________________________
dropout_1662 (Dropout)       (None, 16, 16, 64)        0         
_________________________________________________________________
separable_conv2d_1178 (Separ (None, 16, 16, 16)        1616      
_________________________________________________________________
activation_1663 (Activation) (None, 16, 16, 16)        0         
_________________________________________________________________
dropout_1663 (Dropout)       (None, 16, 16, 16)        0         
_________________________________________________________________
flatten_441 (Flatten)        (None, 4096)              0         
_________________________________________________________________
dense_926 (Dense)            (None, 128)               524416    
_________________________________________________________________
batch_normalization_1232 (Ba (None, 128)               512       
_________________________________________________________________
activation_1664 (Activation) (None, 128)               0         
_________________________________________________________________
dropout_1664 (Dropout)       (None, 128)               0         
_________________________________________________________________
dense_927 (Dense)            (None, 256)               33024     
_________________________________________________________________
batch_normalization_1233 (Ba (None, 256)               1024      
_________________________________________________________________
activation_1665 (Activation) (None, 256)               0         
_________________________________________________________________
dropout_1665 (Dropout)       (None, 256)               0         
_________________________________________________________________
dense_928 (Dense)            (None, 100)               25700     
=================================================================
Total params: 628,111
Trainable params: 626,191
Non-trainable params: 1,920
_________________________________________________________________
