Model: "sequential_91"
_________________________________________________________________
Layer (type)                 Output Shape              Param #   
=================================================================
separable_conv2d_213 (Separa (None, 32, 32, 256)       1051      
_________________________________________________________________
batch_normalization_195 (Bat (None, 32, 32, 256)       1024      
_________________________________________________________________
activation_285 (Activation)  (None, 32, 32, 256)       0         
_________________________________________________________________
dropout_285 (Dropout)        (None, 32, 32, 256)       0         
_________________________________________________________________
max_pooling2d_66 (MaxPooling (None, 16, 16, 256)       0         
_________________________________________________________________
separable_conv2d_214 (Separa (None, 16, 16, 128)       35200     
_________________________________________________________________
batch_normalization_196 (Bat (None, 16, 16, 128)       512       
_________________________________________________________________
activation_286 (Activation)  (None, 16, 16, 128)       0         
_________________________________________________________________
dropout_286 (Dropout)        (None, 16, 16, 128)       0         
_________________________________________________________________
flatten_91 (Flatten)         (None, 32768)             0         
_________________________________________________________________
dense_163 (Dense)            (None, 128)               4194432   
_________________________________________________________________
batch_normalization_197 (Bat (None, 128)               512       
_________________________________________________________________
activation_287 (Activation)  (None, 128)               0         
_________________________________________________________________
dropout_287 (Dropout)        (None, 128)               0         
_________________________________________________________________
dense_164 (Dense)            (None, 100)               12900     
=================================================================
Total params: 4,245,631
Trainable params: 4,244,607
Non-trainable params: 1,024
_________________________________________________________________
