Model: "sequential_186"
_________________________________________________________________
Layer (type)                 Output Shape              Param #   
=================================================================
separable_conv2d_457 (Separa (None, 32, 32, 512)       2075      
_________________________________________________________________
batch_normalization_476 (Bat (None, 32, 32, 512)       2048      
_________________________________________________________________
activation_633 (Activation)  (None, 32, 32, 512)       0         
_________________________________________________________________
dropout_633 (Dropout)        (None, 32, 32, 512)       0         
_________________________________________________________________
max_pooling2d_166 (MaxPoolin (None, 16, 16, 512)       0         
_________________________________________________________________
separable_conv2d_458 (Separa (None, 16, 16, 64)        37440     
_________________________________________________________________
batch_normalization_477 (Bat (None, 16, 16, 64)        256       
_________________________________________________________________
activation_634 (Activation)  (None, 16, 16, 64)        0         
_________________________________________________________________
dropout_634 (Dropout)        (None, 16, 16, 64)        0         
_________________________________________________________________
max_pooling2d_167 (MaxPoolin (None, 8, 8, 64)          0         
_________________________________________________________________
separable_conv2d_459 (Separa (None, 8, 8, 16)          1616      
_________________________________________________________________
activation_635 (Activation)  (None, 8, 8, 16)          0         
_________________________________________________________________
dropout_635 (Dropout)        (None, 8, 8, 16)          0         
_________________________________________________________________
flatten_186 (Flatten)        (None, 1024)              0         
_________________________________________________________________
dense_362 (Dense)            (None, 128)               131200    
_________________________________________________________________
batch_normalization_478 (Bat (None, 128)               512       
_________________________________________________________________
activation_636 (Activation)  (None, 128)               0         
_________________________________________________________________
dropout_636 (Dropout)        (None, 128)               0         
_________________________________________________________________
dense_363 (Dense)            (None, 100)               12900     
=================================================================
Total params: 188,047
Trainable params: 186,639
Non-trainable params: 1,408
_________________________________________________________________
