Model: "sequential_307"
_________________________________________________________________
Layer (type)                 Output Shape              Param #   
=================================================================
separable_conv2d_792 (Separa (None, 32, 32, 512)       2075      
_________________________________________________________________
activation_1108 (Activation) (None, 32, 32, 512)       0         
_________________________________________________________________
dropout_1108 (Dropout)       (None, 32, 32, 512)       0         
_________________________________________________________________
separable_conv2d_793 (Separa (None, 32, 32, 64)        37440     
_________________________________________________________________
batch_normalization_852 (Bat (None, 32, 32, 64)        256       
_________________________________________________________________
activation_1109 (Activation) (None, 32, 32, 64)        0         
_________________________________________________________________
dropout_1109 (Dropout)       (None, 32, 32, 64)        0         
_________________________________________________________________
max_pooling2d_310 (MaxPoolin (None, 16, 16, 64)        0         
_________________________________________________________________
separable_conv2d_794 (Separa (None, 16, 16, 16)        1616      
_________________________________________________________________
activation_1110 (Activation) (None, 16, 16, 16)        0         
_________________________________________________________________
dropout_1110 (Dropout)       (None, 16, 16, 16)        0         
_________________________________________________________________
flatten_307 (Flatten)        (None, 4096)              0         
_________________________________________________________________
dense_623 (Dense)            (None, 100)               409700    
=================================================================
Total params: 451,087
Trainable params: 450,959
Non-trainable params: 128
_________________________________________________________________
