Model: "sequential_36"
_________________________________________________________________
Layer (type)                 Output Shape              Param #   
=================================================================
separable_conv2d_92 (Separab (None, 32, 32, 8)         59        
_________________________________________________________________
batch_normalization_75 (Batc (None, 32, 32, 8)         32        
_________________________________________________________________
activation_127 (Activation)  (None, 32, 32, 8)         0         
_________________________________________________________________
dropout_127 (Dropout)        (None, 32, 32, 8)         0         
_________________________________________________________________
max_pooling2d_30 (MaxPooling (None, 16, 16, 8)         0         
_________________________________________________________________
separable_conv2d_93 (Separab (None, 16, 16, 64)        648       
_________________________________________________________________
batch_normalization_76 (Batc (None, 16, 16, 64)        256       
_________________________________________________________________
activation_128 (Activation)  (None, 16, 16, 64)        0         
_________________________________________________________________
dropout_128 (Dropout)        (None, 16, 16, 64)        0         
_________________________________________________________________
separable_conv2d_94 (Separab (None, 16, 16, 8)         1096      
_________________________________________________________________
batch_normalization_77 (Batc (None, 16, 16, 8)         32        
_________________________________________________________________
activation_129 (Activation)  (None, 16, 16, 8)         0         
_________________________________________________________________
dropout_129 (Dropout)        (None, 16, 16, 8)         0         
_________________________________________________________________
flatten_36 (Flatten)         (None, 2048)              0         
_________________________________________________________________
dense_71 (Dense)             (None, 100)               204900    
=================================================================
Total params: 207,023
Trainable params: 206,863
Non-trainable params: 160
_________________________________________________________________
