Model: "sequential_435"
_________________________________________________________________
Layer (type)                 Output Shape              Param #   
=================================================================
separable_conv2d_1159 (Separ (None, 32, 32, 512)       2075      
_________________________________________________________________
batch_normalization_1212 (Ba (None, 32, 32, 512)       2048      
_________________________________________________________________
activation_1633 (Activation) (None, 32, 32, 512)       0         
_________________________________________________________________
dropout_1633 (Dropout)       (None, 32, 32, 512)       0         
_________________________________________________________________
max_pooling2d_465 (MaxPoolin (None, 16, 16, 512)       0         
_________________________________________________________________
separable_conv2d_1160 (Separ (None, 16, 16, 64)        37440     
_________________________________________________________________
activation_1634 (Activation) (None, 16, 16, 64)        0         
_________________________________________________________________
dropout_1634 (Dropout)       (None, 16, 16, 64)        0         
_________________________________________________________________
separable_conv2d_1161 (Separ (None, 16, 16, 512)       33856     
_________________________________________________________________
activation_1635 (Activation) (None, 16, 16, 512)       0         
_________________________________________________________________
dropout_1635 (Dropout)       (None, 16, 16, 512)       0         
_________________________________________________________________
flatten_435 (Flatten)        (None, 131072)            0         
_________________________________________________________________
dense_909 (Dense)            (None, 256)               33554688  
_________________________________________________________________
batch_normalization_1213 (Ba (None, 256)               1024      
_________________________________________________________________
activation_1636 (Activation) (None, 256)               0         
_________________________________________________________________
dropout_1636 (Dropout)       (None, 256)               0         
_________________________________________________________________
dense_910 (Dense)            (None, 100)               25700     
=================================================================
Total params: 33,656,831
Trainable params: 33,655,295
Non-trainable params: 1,536
_________________________________________________________________
