Model: "sequential_304"
_________________________________________________________________
Layer (type)                 Output Shape              Param #   
=================================================================
separable_conv2d_783 (Separa (None, 32, 32, 256)       1051      
_________________________________________________________________
batch_normalization_843 (Bat (None, 32, 32, 256)       1024      
_________________________________________________________________
activation_1096 (Activation) (None, 32, 32, 256)       0         
_________________________________________________________________
dropout_1096 (Dropout)       (None, 32, 32, 256)       0         
_________________________________________________________________
max_pooling2d_306 (MaxPoolin (None, 16, 16, 256)       0         
_________________________________________________________________
separable_conv2d_784 (Separa (None, 16, 16, 128)       35200     
_________________________________________________________________
batch_normalization_844 (Bat (None, 16, 16, 128)       512       
_________________________________________________________________
activation_1097 (Activation) (None, 16, 16, 128)       0         
_________________________________________________________________
dropout_1097 (Dropout)       (None, 16, 16, 128)       0         
_________________________________________________________________
max_pooling2d_307 (MaxPoolin (None, 8, 8, 128)         0         
_________________________________________________________________
separable_conv2d_785 (Separa (None, 8, 8, 16)          3216      
_________________________________________________________________
activation_1098 (Activation) (None, 8, 8, 16)          0         
_________________________________________________________________
dropout_1098 (Dropout)       (None, 8, 8, 16)          0         
_________________________________________________________________
flatten_304 (Flatten)        (None, 1024)              0         
_________________________________________________________________
dense_617 (Dense)            (None, 128)               131200    
_________________________________________________________________
batch_normalization_845 (Bat (None, 128)               512       
_________________________________________________________________
activation_1099 (Activation) (None, 128)               0         
_________________________________________________________________
dropout_1099 (Dropout)       (None, 128)               0         
_________________________________________________________________
dense_618 (Dense)            (None, 100)               12900     
=================================================================
Total params: 185,615
Trainable params: 184,591
Non-trainable params: 1,024
_________________________________________________________________
