Model: "sequential_567"
_________________________________________________________________
Layer (type)                 Output Shape              Param #   
=================================================================
separable_conv2d_1546 (Separ (None, 32, 32, 256)       1051      
_________________________________________________________________
batch_normalization_1644 (Ba (None, 32, 32, 256)       1024      
_________________________________________________________________
activation_2238 (Activation) (None, 32, 32, 256)       0         
_________________________________________________________________
dropout_2238 (Dropout)       (None, 32, 32, 256)       0         
_________________________________________________________________
max_pooling2d_597 (MaxPoolin (None, 16, 16, 256)       0         
_________________________________________________________________
separable_conv2d_1547 (Separ (None, 16, 16, 128)       35200     
_________________________________________________________________
batch_normalization_1645 (Ba (None, 16, 16, 128)       512       
_________________________________________________________________
activation_2239 (Activation) (None, 16, 16, 128)       0         
_________________________________________________________________
dropout_2239 (Dropout)       (None, 16, 16, 128)       0         
_________________________________________________________________
separable_conv2d_1548 (Separ (None, 16, 16, 32)        5280      
_________________________________________________________________
activation_2240 (Activation) (None, 16, 16, 32)        0         
_________________________________________________________________
dropout_2240 (Dropout)       (None, 16, 16, 32)        0         
_________________________________________________________________
flatten_567 (Flatten)        (None, 8192)              0         
_________________________________________________________________
dense_1259 (Dense)           (None, 128)               1048704   
_________________________________________________________________
batch_normalization_1646 (Ba (None, 128)               512       
_________________________________________________________________
activation_2241 (Activation) (None, 128)               0         
_________________________________________________________________
dropout_2241 (Dropout)       (None, 128)               0         
_________________________________________________________________
dense_1260 (Dense)           (None, 100)               12900     
=================================================================
Total params: 1,105,183
Trainable params: 1,104,159
Non-trainable params: 1,024
_________________________________________________________________
