Model: "sequential_337"
_________________________________________________________________
Layer (type)                 Output Shape              Param #   
=================================================================
separable_conv2d_877 (Separa (None, 32, 32, 256)       1051      
_________________________________________________________________
batch_normalization_936 (Bat (None, 32, 32, 256)       1024      
_________________________________________________________________
activation_1221 (Activation) (None, 32, 32, 256)       0         
_________________________________________________________________
dropout_1221 (Dropout)       (None, 32, 32, 256)       0         
_________________________________________________________________
max_pooling2d_346 (MaxPoolin (None, 16, 16, 256)       0         
_________________________________________________________________
separable_conv2d_878 (Separa (None, 16, 16, 128)       35200     
_________________________________________________________________
batch_normalization_937 (Bat (None, 16, 16, 128)       512       
_________________________________________________________________
activation_1222 (Activation) (None, 16, 16, 128)       0         
_________________________________________________________________
dropout_1222 (Dropout)       (None, 16, 16, 128)       0         
_________________________________________________________________
flatten_337 (Flatten)        (None, 32768)             0         
_________________________________________________________________
dense_681 (Dense)            (None, 512)               16777728  
_________________________________________________________________
batch_normalization_938 (Bat (None, 512)               2048      
_________________________________________________________________
activation_1223 (Activation) (None, 512)               0         
_________________________________________________________________
dropout_1223 (Dropout)       (None, 512)               0         
_________________________________________________________________
dense_682 (Dense)            (None, 256)               131328    
_________________________________________________________________
batch_normalization_939 (Bat (None, 256)               1024      
_________________________________________________________________
activation_1224 (Activation) (None, 256)               0         
_________________________________________________________________
dropout_1224 (Dropout)       (None, 256)               0         
_________________________________________________________________
dense_683 (Dense)            (None, 100)               25700     
=================================================================
Total params: 16,975,615
Trainable params: 16,973,311
Non-trainable params: 2,304
_________________________________________________________________
