Model: "sequential_53"
_________________________________________________________________
Layer (type)                 Output Shape              Param #   
=================================================================
separable_conv2d_126 (Separa (None, 32, 32, 8)         59        
_________________________________________________________________
batch_normalization_108 (Bat (None, 32, 32, 8)         32        
_________________________________________________________________
activation_173 (Activation)  (None, 32, 32, 8)         0         
_________________________________________________________________
dropout_173 (Dropout)        (None, 32, 32, 8)         0         
_________________________________________________________________
max_pooling2d_40 (MaxPooling (None, 16, 16, 8)         0         
_________________________________________________________________
separable_conv2d_127 (Separa (None, 16, 16, 64)        648       
_________________________________________________________________
batch_normalization_109 (Bat (None, 16, 16, 64)        256       
_________________________________________________________________
activation_174 (Activation)  (None, 16, 16, 64)        0         
_________________________________________________________________
dropout_174 (Dropout)        (None, 16, 16, 64)        0         
_________________________________________________________________
separable_conv2d_128 (Separa (None, 16, 16, 8)         1096      
_________________________________________________________________
batch_normalization_110 (Bat (None, 16, 16, 8)         32        
_________________________________________________________________
activation_175 (Activation)  (None, 16, 16, 8)         0         
_________________________________________________________________
dropout_175 (Dropout)        (None, 16, 16, 8)         0         
_________________________________________________________________
flatten_53 (Flatten)         (None, 2048)              0         
_________________________________________________________________
dense_100 (Dense)            (None, 100)               204900    
=================================================================
Total params: 207,023
Trainable params: 206,863
Non-trainable params: 160
_________________________________________________________________
