Model: "sequential_317"
_________________________________________________________________
Layer (type)                 Output Shape              Param #   
=================================================================
separable_conv2d_819 (Separa (None, 32, 32, 512)       2075      
_________________________________________________________________
batch_normalization_879 (Bat (None, 32, 32, 512)       2048      
_________________________________________________________________
activation_1144 (Activation) (None, 32, 32, 512)       0         
_________________________________________________________________
dropout_1144 (Dropout)       (None, 32, 32, 512)       0         
_________________________________________________________________
max_pooling2d_322 (MaxPoolin (None, 16, 16, 512)       0         
_________________________________________________________________
separable_conv2d_820 (Separa (None, 16, 16, 128)       70272     
_________________________________________________________________
batch_normalization_880 (Bat (None, 16, 16, 128)       512       
_________________________________________________________________
activation_1145 (Activation) (None, 16, 16, 128)       0         
_________________________________________________________________
dropout_1145 (Dropout)       (None, 16, 16, 128)       0         
_________________________________________________________________
max_pooling2d_323 (MaxPoolin (None, 8, 8, 128)         0         
_________________________________________________________________
separable_conv2d_821 (Separa (None, 8, 8, 16)          3216      
_________________________________________________________________
activation_1146 (Activation) (None, 8, 8, 16)          0         
_________________________________________________________________
dropout_1146 (Dropout)       (None, 8, 8, 16)          0         
_________________________________________________________________
flatten_317 (Flatten)        (None, 1024)              0         
_________________________________________________________________
dense_642 (Dense)            (None, 128)               131200    
_________________________________________________________________
batch_normalization_881 (Bat (None, 128)               512       
_________________________________________________________________
activation_1147 (Activation) (None, 128)               0         
_________________________________________________________________
dropout_1147 (Dropout)       (None, 128)               0         
_________________________________________________________________
dense_643 (Dense)            (None, 100)               12900     
=================================================================
Total params: 222,735
Trainable params: 221,199
Non-trainable params: 1,536
_________________________________________________________________
