Model: "sequential_338"
_________________________________________________________________
Layer (type)                 Output Shape              Param #   
=================================================================
separable_conv2d_879 (Separa (None, 32, 32, 512)       2075      
_________________________________________________________________
batch_normalization_940 (Bat (None, 32, 32, 512)       2048      
_________________________________________________________________
activation_1225 (Activation) (None, 32, 32, 512)       0         
_________________________________________________________________
dropout_1225 (Dropout)       (None, 32, 32, 512)       0         
_________________________________________________________________
max_pooling2d_347 (MaxPoolin (None, 16, 16, 512)       0         
_________________________________________________________________
separable_conv2d_880 (Separa (None, 16, 16, 64)        37440     
_________________________________________________________________
activation_1226 (Activation) (None, 16, 16, 64)        0         
_________________________________________________________________
dropout_1226 (Dropout)       (None, 16, 16, 64)        0         
_________________________________________________________________
max_pooling2d_348 (MaxPoolin (None, 8, 8, 64)          0         
_________________________________________________________________
separable_conv2d_881 (Separa (None, 8, 8, 16)          1616      
_________________________________________________________________
activation_1227 (Activation) (None, 8, 8, 16)          0         
_________________________________________________________________
dropout_1227 (Dropout)       (None, 8, 8, 16)          0         
_________________________________________________________________
flatten_338 (Flatten)        (None, 1024)              0         
_________________________________________________________________
dense_684 (Dense)            (None, 100)               102500    
=================================================================
Total params: 145,679
Trainable params: 144,655
Non-trainable params: 1,024
_________________________________________________________________
