Model: "sequential_326"
_________________________________________________________________
Layer (type)                 Output Shape              Param #   
=================================================================
separable_conv2d_847 (Separa (None, 32, 32, 512)       2075      
_________________________________________________________________
batch_normalization_902 (Bat (None, 32, 32, 512)       2048      
_________________________________________________________________
activation_1177 (Activation) (None, 32, 32, 512)       0         
_________________________________________________________________
dropout_1177 (Dropout)       (None, 32, 32, 512)       0         
_________________________________________________________________
max_pooling2d_333 (MaxPoolin (None, 16, 16, 512)       0         
_________________________________________________________________
separable_conv2d_848 (Separa (None, 16, 16, 64)        37440     
_________________________________________________________________
activation_1178 (Activation) (None, 16, 16, 64)        0         
_________________________________________________________________
dropout_1178 (Dropout)       (None, 16, 16, 64)        0         
_________________________________________________________________
max_pooling2d_334 (MaxPoolin (None, 8, 8, 64)          0         
_________________________________________________________________
separable_conv2d_849 (Separa (None, 8, 8, 16)          1616      
_________________________________________________________________
activation_1179 (Activation) (None, 8, 8, 16)          0         
_________________________________________________________________
dropout_1179 (Dropout)       (None, 8, 8, 16)          0         
_________________________________________________________________
flatten_326 (Flatten)        (None, 1024)              0         
_________________________________________________________________
dense_656 (Dense)            (None, 100)               102500    
=================================================================
Total params: 145,679
Trainable params: 144,655
Non-trainable params: 1,024
_________________________________________________________________
