Model: "sequential_294"
_________________________________________________________________
Layer (type)                 Output Shape              Param #   
=================================================================
separable_conv2d_753 (Separa (None, 32, 32, 512)       2075      
_________________________________________________________________
batch_normalization_812 (Bat (None, 32, 32, 512)       2048      
_________________________________________________________________
activation_1054 (Activation) (None, 32, 32, 512)       0         
_________________________________________________________________
dropout_1054 (Dropout)       (None, 32, 32, 512)       0         
_________________________________________________________________
max_pooling2d_294 (MaxPoolin (None, 16, 16, 512)       0         
_________________________________________________________________
separable_conv2d_754 (Separa (None, 16, 16, 128)       70272     
_________________________________________________________________
batch_normalization_813 (Bat (None, 16, 16, 128)       512       
_________________________________________________________________
activation_1055 (Activation) (None, 16, 16, 128)       0         
_________________________________________________________________
dropout_1055 (Dropout)       (None, 16, 16, 128)       0         
_________________________________________________________________
separable_conv2d_755 (Separa (None, 16, 16, 16)        3216      
_________________________________________________________________
activation_1056 (Activation) (None, 16, 16, 16)        0         
_________________________________________________________________
dropout_1056 (Dropout)       (None, 16, 16, 16)        0         
_________________________________________________________________
flatten_294 (Flatten)        (None, 4096)              0         
_________________________________________________________________
dense_595 (Dense)            (None, 128)               524416    
_________________________________________________________________
batch_normalization_814 (Bat (None, 128)               512       
_________________________________________________________________
activation_1057 (Activation) (None, 128)               0         
_________________________________________________________________
dropout_1057 (Dropout)       (None, 128)               0         
_________________________________________________________________
dense_596 (Dense)            (None, 100)               12900     
=================================================================
Total params: 615,951
Trainable params: 614,415
Non-trainable params: 1,536
_________________________________________________________________
