Model: "sequential_288"
_________________________________________________________________
Layer (type)                 Output Shape              Param #   
=================================================================
separable_conv2d_735 (Separa (None, 32, 32, 512)       2075      
_________________________________________________________________
batch_normalization_796 (Bat (None, 32, 32, 512)       2048      
_________________________________________________________________
activation_1030 (Activation) (None, 32, 32, 512)       0         
_________________________________________________________________
dropout_1030 (Dropout)       (None, 32, 32, 512)       0         
_________________________________________________________________
separable_conv2d_736 (Separa (None, 32, 32, 128)       70272     
_________________________________________________________________
batch_normalization_797 (Bat (None, 32, 32, 128)       512       
_________________________________________________________________
activation_1031 (Activation) (None, 32, 32, 128)       0         
_________________________________________________________________
dropout_1031 (Dropout)       (None, 32, 32, 128)       0         
_________________________________________________________________
max_pooling2d_287 (MaxPoolin (None, 16, 16, 128)       0         
_________________________________________________________________
flatten_288 (Flatten)        (None, 32768)             0         
_________________________________________________________________
dense_583 (Dense)            (None, 512)               16777728  
_________________________________________________________________
batch_normalization_798 (Bat (None, 512)               2048      
_________________________________________________________________
activation_1032 (Activation) (None, 512)               0         
_________________________________________________________________
dropout_1032 (Dropout)       (None, 512)               0         
_________________________________________________________________
dense_584 (Dense)            (None, 256)               131328    
_________________________________________________________________
batch_normalization_799 (Bat (None, 256)               1024      
_________________________________________________________________
activation_1033 (Activation) (None, 256)               0         
_________________________________________________________________
dropout_1033 (Dropout)       (None, 256)               0         
_________________________________________________________________
dense_585 (Dense)            (None, 100)               25700     
=================================================================
Total params: 17,012,735
Trainable params: 17,009,919
Non-trainable params: 2,816
_________________________________________________________________
