Model: "sequential_261"
_________________________________________________________________
Layer (type)                 Output Shape              Param #   
=================================================================
separable_conv2d_662 (Separa (None, 32, 32, 8)         59        
_________________________________________________________________
batch_normalization_714 (Bat (None, 32, 32, 8)         32        
_________________________________________________________________
activation_927 (Activation)  (None, 32, 32, 8)         0         
_________________________________________________________________
dropout_927 (Dropout)        (None, 32, 32, 8)         0         
_________________________________________________________________
separable_conv2d_663 (Separa (None, 32, 32, 64)        648       
_________________________________________________________________
batch_normalization_715 (Bat (None, 32, 32, 64)        256       
_________________________________________________________________
activation_928 (Activation)  (None, 32, 32, 64)        0         
_________________________________________________________________
dropout_928 (Dropout)        (None, 32, 32, 64)        0         
_________________________________________________________________
max_pooling2d_256 (MaxPoolin (None, 16, 16, 64)        0         
_________________________________________________________________
separable_conv2d_664 (Separa (None, 16, 16, 256)       17216     
_________________________________________________________________
activation_929 (Activation)  (None, 16, 16, 256)       0         
_________________________________________________________________
dropout_929 (Dropout)        (None, 16, 16, 256)       0         
_________________________________________________________________
flatten_261 (Flatten)        (None, 65536)             0         
_________________________________________________________________
dense_526 (Dense)            (None, 64)                4194368   
_________________________________________________________________
batch_normalization_716 (Bat (None, 64)                256       
_________________________________________________________________
activation_930 (Activation)  (None, 64)                0         
_________________________________________________________________
dropout_930 (Dropout)        (None, 64)                0         
_________________________________________________________________
dense_527 (Dense)            (None, 100)               6500      
=================================================================
Total params: 4,219,335
Trainable params: 4,219,063
Non-trainable params: 272
_________________________________________________________________
