Model: "sequential_421"
_________________________________________________________________
Layer (type)                 Output Shape              Param #   
=================================================================
separable_conv2d_1117 (Separ (None, 32, 32, 512)       2075      
_________________________________________________________________
activation_1568 (Activation) (None, 32, 32, 512)       0         
_________________________________________________________________
dropout_1568 (Dropout)       (None, 32, 32, 512)       0         
_________________________________________________________________
max_pooling2d_450 (MaxPoolin (None, 16, 16, 512)       0         
_________________________________________________________________
separable_conv2d_1118 (Separ (None, 16, 16, 64)        37440     
_________________________________________________________________
activation_1569 (Activation) (None, 16, 16, 64)        0         
_________________________________________________________________
dropout_1569 (Dropout)       (None, 16, 16, 64)        0         
_________________________________________________________________
separable_conv2d_1119 (Separ (None, 16, 16, 16)        1616      
_________________________________________________________________
activation_1570 (Activation) (None, 16, 16, 16)        0         
_________________________________________________________________
dropout_1570 (Dropout)       (None, 16, 16, 16)        0         
_________________________________________________________________
flatten_421 (Flatten)        (None, 4096)              0         
_________________________________________________________________
dense_872 (Dense)            (None, 256)               1048832   
_________________________________________________________________
batch_normalization_1169 (Ba (None, 256)               1024      
_________________________________________________________________
activation_1571 (Activation) (None, 256)               0         
_________________________________________________________________
dropout_1571 (Dropout)       (None, 256)               0         
_________________________________________________________________
dense_873 (Dense)            (None, 100)               25700     
=================================================================
Total params: 1,116,687
Trainable params: 1,116,175
Non-trainable params: 512
_________________________________________________________________
