Model: "sequential_235"
_________________________________________________________________
Layer (type)                 Output Shape              Param #   
=================================================================
separable_conv2d_589 (Separa (None, 32, 32, 256)       1051      
_________________________________________________________________
batch_normalization_629 (Bat (None, 32, 32, 256)       1024      
_________________________________________________________________
activation_822 (Activation)  (None, 32, 32, 256)       0         
_________________________________________________________________
dropout_822 (Dropout)        (None, 32, 32, 256)       0         
_________________________________________________________________
max_pooling2d_225 (MaxPoolin (None, 16, 16, 256)       0         
_________________________________________________________________
separable_conv2d_590 (Separa (None, 16, 16, 64)        18752     
_________________________________________________________________
batch_normalization_630 (Bat (None, 16, 16, 64)        256       
_________________________________________________________________
activation_823 (Activation)  (None, 16, 16, 64)        0         
_________________________________________________________________
dropout_823 (Dropout)        (None, 16, 16, 64)        0         
_________________________________________________________________
max_pooling2d_226 (MaxPoolin (None, 8, 8, 64)          0         
_________________________________________________________________
separable_conv2d_591 (Separa (None, 8, 8, 16)          1616      
_________________________________________________________________
activation_824 (Activation)  (None, 8, 8, 16)          0         
_________________________________________________________________
dropout_824 (Dropout)        (None, 8, 8, 16)          0         
_________________________________________________________________
flatten_235 (Flatten)        (None, 1024)              0         
_________________________________________________________________
dense_468 (Dense)            (None, 512)               524800    
_________________________________________________________________
batch_normalization_631 (Bat (None, 512)               2048      
_________________________________________________________________
activation_825 (Activation)  (None, 512)               0         
_________________________________________________________________
dropout_825 (Dropout)        (None, 512)               0         
_________________________________________________________________
dense_469 (Dense)            (None, 256)               131328    
_________________________________________________________________
batch_normalization_632 (Bat (None, 256)               1024      
_________________________________________________________________
activation_826 (Activation)  (None, 256)               0         
_________________________________________________________________
dropout_826 (Dropout)        (None, 256)               0         
_________________________________________________________________
dense_470 (Dense)            (None, 100)               25700     
=================================================================
Total params: 707,599
Trainable params: 705,423
Non-trainable params: 2,176
_________________________________________________________________
