Model: "sequential_276"
_________________________________________________________________
Layer (type)                 Output Shape              Param #   
=================================================================
separable_conv2d_703 (Separa (None, 32, 32, 256)       1051      
_________________________________________________________________
batch_normalization_761 (Bat (None, 32, 32, 256)       1024      
_________________________________________________________________
activation_986 (Activation)  (None, 32, 32, 256)       0         
_________________________________________________________________
dropout_986 (Dropout)        (None, 32, 32, 256)       0         
_________________________________________________________________
separable_conv2d_704 (Separa (None, 32, 32, 64)        18752     
_________________________________________________________________
batch_normalization_762 (Bat (None, 32, 32, 64)        256       
_________________________________________________________________
activation_987 (Activation)  (None, 32, 32, 64)        0         
_________________________________________________________________
dropout_987 (Dropout)        (None, 32, 32, 64)        0         
_________________________________________________________________
max_pooling2d_273 (MaxPoolin (None, 16, 16, 64)        0         
_________________________________________________________________
separable_conv2d_705 (Separa (None, 16, 16, 16)        1616      
_________________________________________________________________
activation_988 (Activation)  (None, 16, 16, 16)        0         
_________________________________________________________________
dropout_988 (Dropout)        (None, 16, 16, 16)        0         
_________________________________________________________________
flatten_276 (Flatten)        (None, 4096)              0         
_________________________________________________________________
dense_559 (Dense)            (None, 128)               524416    
_________________________________________________________________
batch_normalization_763 (Bat (None, 128)               512       
_________________________________________________________________
activation_989 (Activation)  (None, 128)               0         
_________________________________________________________________
dropout_989 (Dropout)        (None, 128)               0         
_________________________________________________________________
dense_560 (Dense)            (None, 100)               12900     
=================================================================
Total params: 560,527
Trainable params: 559,631
Non-trainable params: 896
_________________________________________________________________
