Model: "sequential_419"
_________________________________________________________________
Layer (type)                 Output Shape              Param #   
=================================================================
separable_conv2d_1111 (Separ (None, 32, 32, 256)       1051      
_________________________________________________________________
activation_1560 (Activation) (None, 32, 32, 256)       0         
_________________________________________________________________
dropout_1560 (Dropout)       (None, 32, 32, 256)       0         
_________________________________________________________________
max_pooling2d_447 (MaxPoolin (None, 16, 16, 256)       0         
_________________________________________________________________
separable_conv2d_1112 (Separ (None, 16, 16, 64)        18752     
_________________________________________________________________
batch_normalization_1165 (Ba (None, 16, 16, 64)        256       
_________________________________________________________________
activation_1561 (Activation) (None, 16, 16, 64)        0         
_________________________________________________________________
dropout_1561 (Dropout)       (None, 16, 16, 64)        0         
_________________________________________________________________
separable_conv2d_1113 (Separ (None, 16, 16, 64)        4736      
_________________________________________________________________
activation_1562 (Activation) (None, 16, 16, 64)        0         
_________________________________________________________________
dropout_1562 (Dropout)       (None, 16, 16, 64)        0         
_________________________________________________________________
flatten_419 (Flatten)        (None, 16384)             0         
_________________________________________________________________
dense_868 (Dense)            (None, 100)               1638500   
=================================================================
Total params: 1,663,295
Trainable params: 1,663,167
Non-trainable params: 128
_________________________________________________________________
