Model: "sequential_280"
_________________________________________________________________
Layer (type)                 Output Shape              Param #   
=================================================================
separable_conv2d_714 (Separa (None, 32, 32, 512)       2075      
_________________________________________________________________
batch_normalization_773 (Bat (None, 32, 32, 512)       2048      
_________________________________________________________________
activation_1001 (Activation) (None, 32, 32, 512)       0         
_________________________________________________________________
dropout_1001 (Dropout)       (None, 32, 32, 512)       0         
_________________________________________________________________
max_pooling2d_277 (MaxPoolin (None, 16, 16, 512)       0         
_________________________________________________________________
separable_conv2d_715 (Separa (None, 16, 16, 64)        37440     
_________________________________________________________________
batch_normalization_774 (Bat (None, 16, 16, 64)        256       
_________________________________________________________________
activation_1002 (Activation) (None, 16, 16, 64)        0         
_________________________________________________________________
dropout_1002 (Dropout)       (None, 16, 16, 64)        0         
_________________________________________________________________
max_pooling2d_278 (MaxPoolin (None, 8, 8, 64)          0         
_________________________________________________________________
separable_conv2d_716 (Separa (None, 8, 8, 16)          1616      
_________________________________________________________________
activation_1003 (Activation) (None, 8, 8, 16)          0         
_________________________________________________________________
dropout_1003 (Dropout)       (None, 8, 8, 16)          0         
_________________________________________________________________
flatten_280 (Flatten)        (None, 1024)              0         
_________________________________________________________________
dense_567 (Dense)            (None, 100)               102500    
=================================================================
Total params: 145,935
Trainable params: 144,783
Non-trainable params: 1,152
_________________________________________________________________
