Model: "sequential_336"
_________________________________________________________________
Layer (type)                 Output Shape              Param #   
=================================================================
separable_conv2d_874 (Separa (None, 32, 32, 256)       1051      
_________________________________________________________________
batch_normalization_933 (Bat (None, 32, 32, 256)       1024      
_________________________________________________________________
activation_1217 (Activation) (None, 32, 32, 256)       0         
_________________________________________________________________
dropout_1217 (Dropout)       (None, 32, 32, 256)       0         
_________________________________________________________________
separable_conv2d_875 (Separa (None, 32, 32, 128)       35200     
_________________________________________________________________
batch_normalization_934 (Bat (None, 32, 32, 128)       512       
_________________________________________________________________
activation_1218 (Activation) (None, 32, 32, 128)       0         
_________________________________________________________________
dropout_1218 (Dropout)       (None, 32, 32, 128)       0         
_________________________________________________________________
separable_conv2d_876 (Separa (None, 32, 32, 64)        9408      
_________________________________________________________________
activation_1219 (Activation) (None, 32, 32, 64)        0         
_________________________________________________________________
dropout_1219 (Dropout)       (None, 32, 32, 64)        0         
_________________________________________________________________
flatten_336 (Flatten)        (None, 65536)             0         
_________________________________________________________________
dense_679 (Dense)            (None, 128)               8388736   
_________________________________________________________________
batch_normalization_935 (Bat (None, 128)               512       
_________________________________________________________________
activation_1220 (Activation) (None, 128)               0         
_________________________________________________________________
dropout_1220 (Dropout)       (None, 128)               0         
_________________________________________________________________
dense_680 (Dense)            (None, 100)               12900     
=================================================================
Total params: 8,449,343
Trainable params: 8,448,319
Non-trainable params: 1,024
_________________________________________________________________
