Model: "sequential_85"
_________________________________________________________________
Layer (type)                 Output Shape              Param #   
=================================================================
separable_conv2d_198 (Separa (None, 32, 32, 256)       1051      
_________________________________________________________________
batch_normalization_180 (Bat (None, 32, 32, 256)       1024      
_________________________________________________________________
activation_268 (Activation)  (None, 32, 32, 256)       0         
_________________________________________________________________
dropout_268 (Dropout)        (None, 32, 32, 256)       0         
_________________________________________________________________
separable_conv2d_199 (Separa (None, 32, 32, 128)       35200     
_________________________________________________________________
batch_normalization_181 (Bat (None, 32, 32, 128)       512       
_________________________________________________________________
activation_269 (Activation)  (None, 32, 32, 128)       0         
_________________________________________________________________
dropout_269 (Dropout)        (None, 32, 32, 128)       0         
_________________________________________________________________
separable_conv2d_200 (Separa (None, 32, 32, 64)        9408      
_________________________________________________________________
batch_normalization_182 (Bat (None, 32, 32, 64)        256       
_________________________________________________________________
activation_270 (Activation)  (None, 32, 32, 64)        0         
_________________________________________________________________
dropout_270 (Dropout)        (None, 32, 32, 64)        0         
_________________________________________________________________
flatten_85 (Flatten)         (None, 65536)             0         
_________________________________________________________________
dense_155 (Dense)            (None, 256)               16777472  
_________________________________________________________________
batch_normalization_183 (Bat (None, 256)               1024      
_________________________________________________________________
activation_271 (Activation)  (None, 256)               0         
_________________________________________________________________
dropout_271 (Dropout)        (None, 256)               0         
_________________________________________________________________
dense_156 (Dense)            (None, 100)               25700     
=================================================================
Total params: 16,851,647
Trainable params: 16,850,239
Non-trainable params: 1,408
_________________________________________________________________
