Model: "sequential_574"
_________________________________________________________________
Layer (type)                 Output Shape              Param #   
=================================================================
separable_conv2d_1567 (Separ (None, 32, 32, 256)       1051      
_________________________________________________________________
batch_normalization_1664 (Ba (None, 32, 32, 256)       1024      
_________________________________________________________________
activation_2268 (Activation) (None, 32, 32, 256)       0         
_________________________________________________________________
dropout_2268 (Dropout)       (None, 32, 32, 256)       0         
_________________________________________________________________
max_pooling2d_603 (MaxPoolin (None, 16, 16, 256)       0         
_________________________________________________________________
separable_conv2d_1568 (Separ (None, 16, 16, 64)        18752     
_________________________________________________________________
batch_normalization_1665 (Ba (None, 16, 16, 64)        256       
_________________________________________________________________
activation_2269 (Activation) (None, 16, 16, 64)        0         
_________________________________________________________________
dropout_2269 (Dropout)       (None, 16, 16, 64)        0         
_________________________________________________________________
separable_conv2d_1569 (Separ (None, 16, 16, 16)        1616      
_________________________________________________________________
activation_2270 (Activation) (None, 16, 16, 16)        0         
_________________________________________________________________
dropout_2270 (Dropout)       (None, 16, 16, 16)        0         
_________________________________________________________________
flatten_574 (Flatten)        (None, 4096)              0         
_________________________________________________________________
dense_1275 (Dense)           (None, 512)               2097664   
_________________________________________________________________
batch_normalization_1666 (Ba (None, 512)               2048      
_________________________________________________________________
activation_2271 (Activation) (None, 512)               0         
_________________________________________________________________
dropout_2271 (Dropout)       (None, 512)               0         
_________________________________________________________________
dense_1276 (Dense)           (None, 256)               131328    
_________________________________________________________________
batch_normalization_1667 (Ba (None, 256)               1024      
_________________________________________________________________
activation_2272 (Activation) (None, 256)               0         
_________________________________________________________________
dropout_2272 (Dropout)       (None, 256)               0         
_________________________________________________________________
dense_1277 (Dense)           (None, 100)               25700     
=================================================================
Total params: 2,280,463
Trainable params: 2,278,287
Non-trainable params: 2,176
_________________________________________________________________
