Model: "sequential_129"
_________________________________________________________________
Layer (type)                 Output Shape              Param #   
=================================================================
separable_conv2d_305 (Separa (None, 32, 32, 256)       1051      
_________________________________________________________________
batch_normalization_301 (Bat (None, 32, 32, 256)       1024      
_________________________________________________________________
activation_414 (Activation)  (None, 32, 32, 256)       0         
_________________________________________________________________
dropout_414 (Dropout)        (None, 32, 32, 256)       0         
_________________________________________________________________
separable_conv2d_306 (Separa (None, 32, 32, 64)        18752     
_________________________________________________________________
batch_normalization_302 (Bat (None, 32, 32, 64)        256       
_________________________________________________________________
activation_415 (Activation)  (None, 32, 32, 64)        0         
_________________________________________________________________
dropout_415 (Dropout)        (None, 32, 32, 64)        0         
_________________________________________________________________
max_pooling2d_102 (MaxPoolin (None, 16, 16, 64)        0         
_________________________________________________________________
separable_conv2d_307 (Separa (None, 16, 16, 16)        1616      
_________________________________________________________________
activation_416 (Activation)  (None, 16, 16, 16)        0         
_________________________________________________________________
dropout_416 (Dropout)        (None, 16, 16, 16)        0         
_________________________________________________________________
flatten_129 (Flatten)        (None, 4096)              0         
_________________________________________________________________
dense_238 (Dense)            (None, 512)               2097664   
_________________________________________________________________
batch_normalization_303 (Bat (None, 512)               2048      
_________________________________________________________________
activation_417 (Activation)  (None, 512)               0         
_________________________________________________________________
dropout_417 (Dropout)        (None, 512)               0         
_________________________________________________________________
dense_239 (Dense)            (None, 256)               131328    
_________________________________________________________________
batch_normalization_304 (Bat (None, 256)               1024      
_________________________________________________________________
activation_418 (Activation)  (None, 256)               0         
_________________________________________________________________
dropout_418 (Dropout)        (None, 256)               0         
_________________________________________________________________
dense_240 (Dense)            (None, 100)               25700     
=================================================================
Total params: 2,280,463
Trainable params: 2,278,287
Non-trainable params: 2,176
_________________________________________________________________
