Model: "sequential_257"
_________________________________________________________________
Layer (type)                 Output Shape              Param #   
=================================================================
separable_conv2d_651 (Separa (None, 32, 32, 512)       2075      
_________________________________________________________________
batch_normalization_701 (Bat (None, 32, 32, 512)       2048      
_________________________________________________________________
activation_911 (Activation)  (None, 32, 32, 512)       0         
_________________________________________________________________
dropout_911 (Dropout)        (None, 32, 32, 512)       0         
_________________________________________________________________
max_pooling2d_250 (MaxPoolin (None, 16, 16, 512)       0         
_________________________________________________________________
separable_conv2d_652 (Separa (None, 16, 16, 64)        37440     
_________________________________________________________________
batch_normalization_702 (Bat (None, 16, 16, 64)        256       
_________________________________________________________________
activation_912 (Activation)  (None, 16, 16, 64)        0         
_________________________________________________________________
dropout_912 (Dropout)        (None, 16, 16, 64)        0         
_________________________________________________________________
max_pooling2d_251 (MaxPoolin (None, 8, 8, 64)          0         
_________________________________________________________________
separable_conv2d_653 (Separa (None, 8, 8, 16)          1616      
_________________________________________________________________
activation_913 (Activation)  (None, 8, 8, 16)          0         
_________________________________________________________________
dropout_913 (Dropout)        (None, 8, 8, 16)          0         
_________________________________________________________________
flatten_257 (Flatten)        (None, 1024)              0         
_________________________________________________________________
dense_517 (Dense)            (None, 128)               131200    
_________________________________________________________________
batch_normalization_703 (Bat (None, 128)               512       
_________________________________________________________________
activation_914 (Activation)  (None, 128)               0         
_________________________________________________________________
dropout_914 (Dropout)        (None, 128)               0         
_________________________________________________________________
dense_518 (Dense)            (None, 100)               12900     
=================================================================
Total params: 188,047
Trainable params: 186,639
Non-trainable params: 1,408
_________________________________________________________________
