Model: "sequential_145"
_________________________________________________________________
Layer (type)                 Output Shape              Param #   
=================================================================
separable_conv2d_345 (Separa (None, 32, 32, 256)       1051      
_________________________________________________________________
batch_normalization_349 (Bat (None, 32, 32, 256)       1024      
_________________________________________________________________
activation_473 (Activation)  (None, 32, 32, 256)       0         
_________________________________________________________________
dropout_473 (Dropout)        (None, 32, 32, 256)       0         
_________________________________________________________________
max_pooling2d_120 (MaxPoolin (None, 16, 16, 256)       0         
_________________________________________________________________
separable_conv2d_346 (Separa (None, 16, 16, 128)       35200     
_________________________________________________________________
batch_normalization_350 (Bat (None, 16, 16, 128)       512       
_________________________________________________________________
activation_474 (Activation)  (None, 16, 16, 128)       0         
_________________________________________________________________
dropout_474 (Dropout)        (None, 16, 16, 128)       0         
_________________________________________________________________
flatten_145 (Flatten)        (None, 32768)             0         
_________________________________________________________________
dense_273 (Dense)            (None, 128)               4194432   
_________________________________________________________________
batch_normalization_351 (Bat (None, 128)               512       
_________________________________________________________________
activation_475 (Activation)  (None, 128)               0         
_________________________________________________________________
dropout_475 (Dropout)        (None, 128)               0         
_________________________________________________________________
dense_274 (Dense)            (None, 100)               12900     
=================================================================
Total params: 4,245,631
Trainable params: 4,244,607
Non-trainable params: 1,024
_________________________________________________________________
