Model: "sequential_86"
_________________________________________________________________
Layer (type)                 Output Shape              Param #   
=================================================================
separable_conv2d_201 (Separa (None, 32, 32, 256)       1051      
_________________________________________________________________
batch_normalization_184 (Bat (None, 32, 32, 256)       1024      
_________________________________________________________________
activation_272 (Activation)  (None, 32, 32, 256)       0         
_________________________________________________________________
dropout_272 (Dropout)        (None, 32, 32, 256)       0         
_________________________________________________________________
max_pooling2d_61 (MaxPooling (None, 16, 16, 256)       0         
_________________________________________________________________
separable_conv2d_202 (Separa (None, 16, 16, 128)       35200     
_________________________________________________________________
activation_273 (Activation)  (None, 16, 16, 128)       0         
_________________________________________________________________
dropout_273 (Dropout)        (None, 16, 16, 128)       0         
_________________________________________________________________
flatten_86 (Flatten)         (None, 32768)             0         
_________________________________________________________________
dense_157 (Dense)            (None, 100)               3276900   
=================================================================
Total params: 3,314,175
Trainable params: 3,313,663
Non-trainable params: 512
_________________________________________________________________
