Model: "sequential_42"
_________________________________________________________________
Layer (type)                 Output Shape              Param #   
=================================================================
separable_conv2d_103 (Separa (None, 32, 32, 512)       2075      
_________________________________________________________________
batch_normalization_83 (Batc (None, 32, 32, 512)       2048      
_________________________________________________________________
activation_140 (Activation)  (None, 32, 32, 512)       0         
_________________________________________________________________
dropout_140 (Dropout)        (None, 32, 32, 512)       0         
_________________________________________________________________
separable_conv2d_104 (Separa (None, 32, 32, 64)        37440     
_________________________________________________________________
batch_normalization_84 (Batc (None, 32, 32, 64)        256       
_________________________________________________________________
activation_141 (Activation)  (None, 32, 32, 64)        0         
_________________________________________________________________
dropout_141 (Dropout)        (None, 32, 32, 64)        0         
_________________________________________________________________
max_pooling2d_34 (MaxPooling (None, 16, 16, 64)        0         
_________________________________________________________________
separable_conv2d_105 (Separa (None, 16, 16, 16)        1616      
_________________________________________________________________
activation_142 (Activation)  (None, 16, 16, 16)        0         
_________________________________________________________________
dropout_142 (Dropout)        (None, 16, 16, 16)        0         
_________________________________________________________________
flatten_42 (Flatten)         (None, 4096)              0         
_________________________________________________________________
dense_79 (Dense)             (None, 512)               2097664   
_________________________________________________________________
batch_normalization_85 (Batc (None, 512)               2048      
_________________________________________________________________
activation_143 (Activation)  (None, 512)               0         
_________________________________________________________________
dropout_143 (Dropout)        (None, 512)               0         
_________________________________________________________________
dense_80 (Dense)             (None, 256)               131328    
_________________________________________________________________
batch_normalization_86 (Batc (None, 256)               1024      
_________________________________________________________________
activation_144 (Activation)  (None, 256)               0         
_________________________________________________________________
dropout_144 (Dropout)        (None, 256)               0         
_________________________________________________________________
dense_81 (Dense)             (None, 100)               25700     
=================================================================
Total params: 2,301,199
Trainable params: 2,298,511
Non-trainable params: 2,688
_________________________________________________________________
