Model: "sequential_122"
_________________________________________________________________
Layer (type)                 Output Shape              Param #   
=================================================================
separable_conv2d_287 (Separa (None, 32, 32, 256)       1051      
_________________________________________________________________
batch_normalization_283 (Bat (None, 32, 32, 256)       1024      
_________________________________________________________________
activation_391 (Activation)  (None, 32, 32, 256)       0         
_________________________________________________________________
dropout_391 (Dropout)        (None, 32, 32, 256)       0         
_________________________________________________________________
max_pooling2d_94 (MaxPooling (None, 16, 16, 256)       0         
_________________________________________________________________
separable_conv2d_288 (Separa (None, 16, 16, 128)       35200     
_________________________________________________________________
batch_normalization_284 (Bat (None, 16, 16, 128)       512       
_________________________________________________________________
activation_392 (Activation)  (None, 16, 16, 128)       0         
_________________________________________________________________
dropout_392 (Dropout)        (None, 16, 16, 128)       0         
_________________________________________________________________
flatten_122 (Flatten)        (None, 32768)             0         
_________________________________________________________________
dense_226 (Dense)            (None, 256)               8388864   
_________________________________________________________________
batch_normalization_285 (Bat (None, 256)               1024      
_________________________________________________________________
activation_393 (Activation)  (None, 256)               0         
_________________________________________________________________
dropout_393 (Dropout)        (None, 256)               0         
_________________________________________________________________
dense_227 (Dense)            (None, 100)               25700     
=================================================================
Total params: 8,453,375
Trainable params: 8,452,095
Non-trainable params: 1,280
_________________________________________________________________
