Model: "sequential_118"
_________________________________________________________________
Layer (type)                 Output Shape              Param #   
=================================================================
separable_conv2d_276 (Separa (None, 32, 32, 512)       2075      
_________________________________________________________________
batch_normalization_271 (Bat (None, 32, 32, 512)       2048      
_________________________________________________________________
activation_376 (Activation)  (None, 32, 32, 512)       0         
_________________________________________________________________
dropout_376 (Dropout)        (None, 32, 32, 512)       0         
_________________________________________________________________
separable_conv2d_277 (Separa (None, 32, 32, 64)        37440     
_________________________________________________________________
batch_normalization_272 (Bat (None, 32, 32, 64)        256       
_________________________________________________________________
activation_377 (Activation)  (None, 32, 32, 64)        0         
_________________________________________________________________
dropout_377 (Dropout)        (None, 32, 32, 64)        0         
_________________________________________________________________
max_pooling2d_90 (MaxPooling (None, 16, 16, 64)        0         
_________________________________________________________________
separable_conv2d_278 (Separa (None, 16, 16, 16)        1616      
_________________________________________________________________
activation_378 (Activation)  (None, 16, 16, 16)        0         
_________________________________________________________________
dropout_378 (Dropout)        (None, 16, 16, 16)        0         
_________________________________________________________________
flatten_118 (Flatten)        (None, 4096)              0         
_________________________________________________________________
dense_218 (Dense)            (None, 128)               524416    
_________________________________________________________________
batch_normalization_273 (Bat (None, 128)               512       
_________________________________________________________________
activation_379 (Activation)  (None, 128)               0         
_________________________________________________________________
dropout_379 (Dropout)        (None, 128)               0         
_________________________________________________________________
dense_219 (Dense)            (None, 100)               12900     
=================================================================
Total params: 581,263
Trainable params: 579,855
Non-trainable params: 1,408
_________________________________________________________________
