Model: "sequential_445"
_________________________________________________________________
Layer (type)                 Output Shape              Param #   
=================================================================
separable_conv2d_1187 (Separ (None, 32, 32, 256)       1051      
_________________________________________________________________
batch_normalization_1242 (Ba (None, 32, 32, 256)       1024      
_________________________________________________________________
activation_1678 (Activation) (None, 32, 32, 256)       0         
_________________________________________________________________
dropout_1678 (Dropout)       (None, 32, 32, 256)       0         
_________________________________________________________________
max_pooling2d_478 (MaxPoolin (None, 16, 16, 256)       0         
_________________________________________________________________
separable_conv2d_1188 (Separ (None, 16, 16, 128)       35200     
_________________________________________________________________
batch_normalization_1243 (Ba (None, 16, 16, 128)       512       
_________________________________________________________________
activation_1679 (Activation) (None, 16, 16, 128)       0         
_________________________________________________________________
dropout_1679 (Dropout)       (None, 16, 16, 128)       0         
_________________________________________________________________
separable_conv2d_1189 (Separ (None, 16, 16, 512)       67200     
_________________________________________________________________
activation_1680 (Activation) (None, 16, 16, 512)       0         
_________________________________________________________________
dropout_1680 (Dropout)       (None, 16, 16, 512)       0         
_________________________________________________________________
flatten_445 (Flatten)        (None, 131072)            0         
_________________________________________________________________
dense_936 (Dense)            (None, 64)                8388672   
_________________________________________________________________
batch_normalization_1244 (Ba (None, 64)                256       
_________________________________________________________________
activation_1681 (Activation) (None, 64)                0         
_________________________________________________________________
dropout_1681 (Dropout)       (None, 64)                0         
_________________________________________________________________
dense_937 (Dense)            (None, 100)               6500      
=================================================================
Total params: 8,500,415
Trainable params: 8,499,519
Non-trainable params: 896
_________________________________________________________________
