Model: "sequential_409"
_________________________________________________________________
Layer (type)                 Output Shape              Param #   
=================================================================
separable_conv2d_1082 (Separ (None, 32, 32, 256)       1051      
_________________________________________________________________
batch_normalization_1136 (Ba (None, 32, 32, 256)       1024      
_________________________________________________________________
activation_1515 (Activation) (None, 32, 32, 256)       0         
_________________________________________________________________
dropout_1515 (Dropout)       (None, 32, 32, 256)       0         
_________________________________________________________________
max_pooling2d_434 (MaxPoolin (None, 16, 16, 256)       0         
_________________________________________________________________
separable_conv2d_1083 (Separ (None, 16, 16, 64)        18752     
_________________________________________________________________
activation_1516 (Activation) (None, 16, 16, 64)        0         
_________________________________________________________________
dropout_1516 (Dropout)       (None, 16, 16, 64)        0         
_________________________________________________________________
max_pooling2d_435 (MaxPoolin (None, 8, 8, 64)          0         
_________________________________________________________________
separable_conv2d_1084 (Separ (None, 8, 8, 16)          1616      
_________________________________________________________________
activation_1517 (Activation) (None, 8, 8, 16)          0         
_________________________________________________________________
dropout_1517 (Dropout)       (None, 8, 8, 16)          0         
_________________________________________________________________
flatten_409 (Flatten)        (None, 1024)              0         
_________________________________________________________________
dense_842 (Dense)            (None, 512)               524800    
_________________________________________________________________
batch_normalization_1137 (Ba (None, 512)               2048      
_________________________________________________________________
activation_1518 (Activation) (None, 512)               0         
_________________________________________________________________
dropout_1518 (Dropout)       (None, 512)               0         
_________________________________________________________________
dense_843 (Dense)            (None, 256)               131328    
_________________________________________________________________
batch_normalization_1138 (Ba (None, 256)               1024      
_________________________________________________________________
activation_1519 (Activation) (None, 256)               0         
_________________________________________________________________
dropout_1519 (Dropout)       (None, 256)               0         
_________________________________________________________________
dense_844 (Dense)            (None, 100)               25700     
=================================================================
Total params: 707,343
Trainable params: 705,295
Non-trainable params: 2,048
_________________________________________________________________
