Model: "sequential_557"
_________________________________________________________________
Layer (type)                 Output Shape              Param #   
=================================================================
separable_conv2d_1516 (Separ (None, 32, 32, 256)       1051      
_________________________________________________________________
batch_normalization_1609 (Ba (None, 32, 32, 256)       1024      
_________________________________________________________________
activation_2194 (Activation) (None, 32, 32, 256)       0         
_________________________________________________________________
dropout_2194 (Dropout)       (None, 32, 32, 256)       0         
_________________________________________________________________
max_pooling2d_588 (MaxPoolin (None, 16, 16, 256)       0         
_________________________________________________________________
separable_conv2d_1517 (Separ (None, 16, 16, 128)       35200     
_________________________________________________________________
batch_normalization_1610 (Ba (None, 16, 16, 128)       512       
_________________________________________________________________
activation_2195 (Activation) (None, 16, 16, 128)       0         
_________________________________________________________________
dropout_2195 (Dropout)       (None, 16, 16, 128)       0         
_________________________________________________________________
separable_conv2d_1518 (Separ (None, 16, 16, 32)        5280      
_________________________________________________________________
activation_2196 (Activation) (None, 16, 16, 32)        0         
_________________________________________________________________
dropout_2196 (Dropout)       (None, 16, 16, 32)        0         
_________________________________________________________________
flatten_557 (Flatten)        (None, 8192)              0         
_________________________________________________________________
dense_1235 (Dense)           (None, 128)               1048704   
_________________________________________________________________
batch_normalization_1611 (Ba (None, 128)               512       
_________________________________________________________________
activation_2197 (Activation) (None, 128)               0         
_________________________________________________________________
dropout_2197 (Dropout)       (None, 128)               0         
_________________________________________________________________
dense_1236 (Dense)           (None, 100)               12900     
=================================================================
Total params: 1,105,183
Trainable params: 1,104,159
Non-trainable params: 1,024
_________________________________________________________________
