Model: "sequential_174"
_________________________________________________________________
Layer (type)                 Output Shape              Param #   
=================================================================
separable_conv2d_423 (Separa (None, 32, 32, 256)       1051      
_________________________________________________________________
batch_normalization_441 (Bat (None, 32, 32, 256)       1024      
_________________________________________________________________
activation_586 (Activation)  (None, 32, 32, 256)       0         
_________________________________________________________________
dropout_586 (Dropout)        (None, 32, 32, 256)       0         
_________________________________________________________________
separable_conv2d_424 (Separa (None, 32, 32, 64)        18752     
_________________________________________________________________
activation_587 (Activation)  (None, 32, 32, 64)        0         
_________________________________________________________________
dropout_587 (Dropout)        (None, 32, 32, 64)        0         
_________________________________________________________________
max_pooling2d_151 (MaxPoolin (None, 16, 16, 64)        0         
_________________________________________________________________
separable_conv2d_425 (Separa (None, 16, 16, 16)        1616      
_________________________________________________________________
activation_588 (Activation)  (None, 16, 16, 16)        0         
_________________________________________________________________
dropout_588 (Dropout)        (None, 16, 16, 16)        0         
_________________________________________________________________
flatten_174 (Flatten)        (None, 4096)              0         
_________________________________________________________________
dense_337 (Dense)            (None, 256)               1048832   
_________________________________________________________________
batch_normalization_442 (Bat (None, 256)               1024      
_________________________________________________________________
activation_589 (Activation)  (None, 256)               0         
_________________________________________________________________
dropout_589 (Dropout)        (None, 256)               0         
_________________________________________________________________
dense_338 (Dense)            (None, 100)               25700     
=================================================================
Total params: 1,097,999
Trainable params: 1,096,975
Non-trainable params: 1,024
_________________________________________________________________
