Model: "sequential_192"
_________________________________________________________________
Layer (type)                 Output Shape              Param #   
=================================================================
separable_conv2d_469 (Separa (None, 32, 32, 256)       1051      
_________________________________________________________________
batch_normalization_493 (Bat (None, 32, 32, 256)       1024      
_________________________________________________________________
activation_651 (Activation)  (None, 32, 32, 256)       0         
_________________________________________________________________
dropout_651 (Dropout)        (None, 32, 32, 256)       0         
_________________________________________________________________
separable_conv2d_470 (Separa (None, 32, 32, 64)        18752     
_________________________________________________________________
batch_normalization_494 (Bat (None, 32, 32, 64)        256       
_________________________________________________________________
activation_652 (Activation)  (None, 32, 32, 64)        0         
_________________________________________________________________
dropout_652 (Dropout)        (None, 32, 32, 64)        0         
_________________________________________________________________
max_pooling2d_172 (MaxPoolin (None, 16, 16, 64)        0         
_________________________________________________________________
separable_conv2d_471 (Separa (None, 16, 16, 16)        1616      
_________________________________________________________________
activation_653 (Activation)  (None, 16, 16, 16)        0         
_________________________________________________________________
dropout_653 (Dropout)        (None, 16, 16, 16)        0         
_________________________________________________________________
flatten_192 (Flatten)        (None, 4096)              0         
_________________________________________________________________
dense_374 (Dense)            (None, 512)               2097664   
_________________________________________________________________
batch_normalization_495 (Bat (None, 512)               2048      
_________________________________________________________________
activation_654 (Activation)  (None, 512)               0         
_________________________________________________________________
dropout_654 (Dropout)        (None, 512)               0         
_________________________________________________________________
dense_375 (Dense)            (None, 100)               51300     
=================================================================
Total params: 2,173,711
Trainable params: 2,172,047
Non-trainable params: 1,664
_________________________________________________________________
