Model: "sequential_247"
_________________________________________________________________
Layer (type)                 Output Shape              Param #   
=================================================================
separable_conv2d_622 (Separa (None, 32, 32, 256)       1051      
_________________________________________________________________
batch_normalization_669 (Bat (None, 32, 32, 256)       1024      
_________________________________________________________________
activation_871 (Activation)  (None, 32, 32, 256)       0         
_________________________________________________________________
dropout_871 (Dropout)        (None, 32, 32, 256)       0         
_________________________________________________________________
max_pooling2d_238 (MaxPoolin (None, 16, 16, 256)       0         
_________________________________________________________________
separable_conv2d_623 (Separa (None, 16, 16, 128)       35200     
_________________________________________________________________
batch_normalization_670 (Bat (None, 16, 16, 128)       512       
_________________________________________________________________
activation_872 (Activation)  (None, 16, 16, 128)       0         
_________________________________________________________________
dropout_872 (Dropout)        (None, 16, 16, 128)       0         
_________________________________________________________________
separable_conv2d_624 (Separa (None, 16, 16, 256)       34176     
_________________________________________________________________
activation_873 (Activation)  (None, 16, 16, 256)       0         
_________________________________________________________________
dropout_873 (Dropout)        (None, 16, 16, 256)       0         
_________________________________________________________________
flatten_247 (Flatten)        (None, 65536)             0         
_________________________________________________________________
dense_496 (Dense)            (None, 64)                4194368   
_________________________________________________________________
batch_normalization_671 (Bat (None, 64)                256       
_________________________________________________________________
activation_874 (Activation)  (None, 64)                0         
_________________________________________________________________
dropout_874 (Dropout)        (None, 64)                0         
_________________________________________________________________
dense_497 (Dense)            (None, 100)               6500      
=================================================================
Total params: 4,273,087
Trainable params: 4,272,191
Non-trainable params: 896
_________________________________________________________________
