Model: "sequential_262"
_________________________________________________________________
Layer (type)                 Output Shape              Param #   
=================================================================
separable_conv2d_665 (Separa (None, 32, 32, 512)       2075      
_________________________________________________________________
batch_normalization_717 (Bat (None, 32, 32, 512)       2048      
_________________________________________________________________
activation_931 (Activation)  (None, 32, 32, 512)       0         
_________________________________________________________________
dropout_931 (Dropout)        (None, 32, 32, 512)       0         
_________________________________________________________________
max_pooling2d_257 (MaxPoolin (None, 16, 16, 512)       0         
_________________________________________________________________
separable_conv2d_666 (Separa (None, 16, 16, 128)       70272     
_________________________________________________________________
batch_normalization_718 (Bat (None, 16, 16, 128)       512       
_________________________________________________________________
activation_932 (Activation)  (None, 16, 16, 128)       0         
_________________________________________________________________
dropout_932 (Dropout)        (None, 16, 16, 128)       0         
_________________________________________________________________
flatten_262 (Flatten)        (None, 32768)             0         
_________________________________________________________________
dense_528 (Dense)            (None, 512)               16777728  
_________________________________________________________________
batch_normalization_719 (Bat (None, 512)               2048      
_________________________________________________________________
activation_933 (Activation)  (None, 512)               0         
_________________________________________________________________
dropout_933 (Dropout)        (None, 512)               0         
_________________________________________________________________
dense_529 (Dense)            (None, 256)               131328    
_________________________________________________________________
batch_normalization_720 (Bat (None, 256)               1024      
_________________________________________________________________
activation_934 (Activation)  (None, 256)               0         
_________________________________________________________________
dropout_934 (Dropout)        (None, 256)               0         
_________________________________________________________________
dense_530 (Dense)            (None, 100)               25700     
=================================================================
Total params: 17,012,735
Trainable params: 17,009,919
Non-trainable params: 2,816
_________________________________________________________________
