Model: "sequential_399"
_________________________________________________________________
Layer (type)                 Output Shape              Param #   
=================================================================
separable_conv2d_1053 (Separ (None, 32, 32, 512)       2075      
_________________________________________________________________
batch_normalization_1104 (Ba (None, 32, 32, 512)       2048      
_________________________________________________________________
activation_1471 (Activation) (None, 32, 32, 512)       0         
_________________________________________________________________
dropout_1471 (Dropout)       (None, 32, 32, 512)       0         
_________________________________________________________________
max_pooling2d_424 (MaxPoolin (None, 16, 16, 512)       0         
_________________________________________________________________
separable_conv2d_1054 (Separ (None, 16, 16, 64)        37440     
_________________________________________________________________
activation_1472 (Activation) (None, 16, 16, 64)        0         
_________________________________________________________________
dropout_1472 (Dropout)       (None, 16, 16, 64)        0         
_________________________________________________________________
max_pooling2d_425 (MaxPoolin (None, 8, 8, 64)          0         
_________________________________________________________________
separable_conv2d_1055 (Separ (None, 8, 8, 16)          1616      
_________________________________________________________________
activation_1473 (Activation) (None, 8, 8, 16)          0         
_________________________________________________________________
dropout_1473 (Dropout)       (None, 8, 8, 16)          0         
_________________________________________________________________
flatten_399 (Flatten)        (None, 1024)              0         
_________________________________________________________________
dense_817 (Dense)            (None, 512)               524800    
_________________________________________________________________
batch_normalization_1105 (Ba (None, 512)               2048      
_________________________________________________________________
activation_1474 (Activation) (None, 512)               0         
_________________________________________________________________
dropout_1474 (Dropout)       (None, 512)               0         
_________________________________________________________________
dense_818 (Dense)            (None, 256)               131328    
_________________________________________________________________
batch_normalization_1106 (Ba (None, 256)               1024      
_________________________________________________________________
activation_1475 (Activation) (None, 256)               0         
_________________________________________________________________
dropout_1475 (Dropout)       (None, 256)               0         
_________________________________________________________________
dense_819 (Dense)            (None, 100)               25700     
=================================================================
Total params: 728,079
Trainable params: 725,519
Non-trainable params: 2,560
_________________________________________________________________
