Model: "sequential_393"
_________________________________________________________________
Layer (type)                 Output Shape              Param #   
=================================================================
separable_conv2d_1035 (Separ (None, 32, 32, 256)       1051      
_________________________________________________________________
batch_normalization_1085 (Ba (None, 32, 32, 256)       1024      
_________________________________________________________________
activation_1443 (Activation) (None, 32, 32, 256)       0         
_________________________________________________________________
dropout_1443 (Dropout)       (None, 32, 32, 256)       0         
_________________________________________________________________
max_pooling2d_416 (MaxPoolin (None, 16, 16, 256)       0         
_________________________________________________________________
separable_conv2d_1036 (Separ (None, 16, 16, 256)       68096     
_________________________________________________________________
batch_normalization_1086 (Ba (None, 16, 16, 256)       1024      
_________________________________________________________________
activation_1444 (Activation) (None, 16, 16, 256)       0         
_________________________________________________________________
dropout_1444 (Dropout)       (None, 16, 16, 256)       0         
_________________________________________________________________
max_pooling2d_417 (MaxPoolin (None, 8, 8, 256)         0         
_________________________________________________________________
separable_conv2d_1037 (Separ (None, 8, 8, 16)          6416      
_________________________________________________________________
activation_1445 (Activation) (None, 8, 8, 16)          0         
_________________________________________________________________
dropout_1445 (Dropout)       (None, 8, 8, 16)          0         
_________________________________________________________________
flatten_393 (Flatten)        (None, 1024)              0         
_________________________________________________________________
dense_801 (Dense)            (None, 512)               524800    
_________________________________________________________________
batch_normalization_1087 (Ba (None, 512)               2048      
_________________________________________________________________
activation_1446 (Activation) (None, 512)               0         
_________________________________________________________________
dropout_1446 (Dropout)       (None, 512)               0         
_________________________________________________________________
dense_802 (Dense)            (None, 256)               131328    
_________________________________________________________________
batch_normalization_1088 (Ba (None, 256)               1024      
_________________________________________________________________
activation_1447 (Activation) (None, 256)               0         
_________________________________________________________________
dropout_1447 (Dropout)       (None, 256)               0         
_________________________________________________________________
dense_803 (Dense)            (None, 100)               25700     
=================================================================
Total params: 762,511
Trainable params: 759,951
Non-trainable params: 2,560
_________________________________________________________________
