Model: "sequential_47"
_________________________________________________________________
Layer (type)                 Output Shape              Param #   
=================================================================
separable_conv2d_116 (Separa (None, 32, 32, 256)       1051      
_________________________________________________________________
batch_normalization_96 (Batc (None, 32, 32, 256)       1024      
_________________________________________________________________
activation_158 (Activation)  (None, 32, 32, 256)       0         
_________________________________________________________________
dropout_158 (Dropout)        (None, 32, 32, 256)       0         
_________________________________________________________________
max_pooling2d_37 (MaxPooling (None, 16, 16, 256)       0         
_________________________________________________________________
separable_conv2d_117 (Separa (None, 16, 16, 128)       35200     
_________________________________________________________________
batch_normalization_97 (Batc (None, 16, 16, 128)       512       
_________________________________________________________________
activation_159 (Activation)  (None, 16, 16, 128)       0         
_________________________________________________________________
dropout_159 (Dropout)        (None, 16, 16, 128)       0         
_________________________________________________________________
flatten_47 (Flatten)         (None, 32768)             0         
_________________________________________________________________
dense_89 (Dense)             (None, 512)               16777728  
_________________________________________________________________
batch_normalization_98 (Batc (None, 512)               2048      
_________________________________________________________________
activation_160 (Activation)  (None, 512)               0         
_________________________________________________________________
dropout_160 (Dropout)        (None, 512)               0         
_________________________________________________________________
dense_90 (Dense)             (None, 256)               131328    
_________________________________________________________________
batch_normalization_99 (Batc (None, 256)               1024      
_________________________________________________________________
activation_161 (Activation)  (None, 256)               0         
_________________________________________________________________
dropout_161 (Dropout)        (None, 256)               0         
_________________________________________________________________
dense_91 (Dense)             (None, 100)               25700     
=================================================================
Total params: 16,975,615
Trainable params: 16,973,311
Non-trainable params: 2,304
_________________________________________________________________
