Model: "sequential_112"
_________________________________________________________________
Layer (type)                 Output Shape              Param #   
=================================================================
separable_conv2d_263 (Separa (None, 32, 32, 256)       1051      
_________________________________________________________________
batch_normalization_256 (Bat (None, 32, 32, 256)       1024      
_________________________________________________________________
activation_359 (Activation)  (None, 32, 32, 256)       0         
_________________________________________________________________
dropout_359 (Dropout)        (None, 32, 32, 256)       0         
_________________________________________________________________
max_pooling2d_84 (MaxPooling (None, 16, 16, 256)       0         
_________________________________________________________________
separable_conv2d_264 (Separa (None, 16, 16, 8)         4360      
_________________________________________________________________
batch_normalization_257 (Bat (None, 16, 16, 8)         32        
_________________________________________________________________
activation_360 (Activation)  (None, 16, 16, 8)         0         
_________________________________________________________________
dropout_360 (Dropout)        (None, 16, 16, 8)         0         
_________________________________________________________________
flatten_112 (Flatten)        (None, 2048)              0         
_________________________________________________________________
dense_208 (Dense)            (None, 100)               204900    
=================================================================
Total params: 211,367
Trainable params: 210,839
Non-trainable params: 528
_________________________________________________________________
