Model: "sequential_331"
_________________________________________________________________
Layer (type)                 Output Shape              Param #   
=================================================================
separable_conv2d_860 (Separa (None, 32, 32, 256)       1051      
_________________________________________________________________
batch_normalization_918 (Bat (None, 32, 32, 256)       1024      
_________________________________________________________________
activation_1197 (Activation) (None, 32, 32, 256)       0         
_________________________________________________________________
dropout_1197 (Dropout)       (None, 32, 32, 256)       0         
_________________________________________________________________
max_pooling2d_340 (MaxPoolin (None, 16, 16, 256)       0         
_________________________________________________________________
separable_conv2d_861 (Separa (None, 16, 16, 128)       35200     
_________________________________________________________________
batch_normalization_919 (Bat (None, 16, 16, 128)       512       
_________________________________________________________________
activation_1198 (Activation) (None, 16, 16, 128)       0         
_________________________________________________________________
dropout_1198 (Dropout)       (None, 16, 16, 128)       0         
_________________________________________________________________
separable_conv2d_862 (Separa (None, 16, 16, 16)        3216      
_________________________________________________________________
activation_1199 (Activation) (None, 16, 16, 16)        0         
_________________________________________________________________
dropout_1199 (Dropout)       (None, 16, 16, 16)        0         
_________________________________________________________________
flatten_331 (Flatten)        (None, 4096)              0         
_________________________________________________________________
dense_668 (Dense)            (None, 512)               2097664   
_________________________________________________________________
batch_normalization_920 (Bat (None, 512)               2048      
_________________________________________________________________
activation_1200 (Activation) (None, 512)               0         
_________________________________________________________________
dropout_1200 (Dropout)       (None, 512)               0         
_________________________________________________________________
dense_669 (Dense)            (None, 100)               51300     
=================================================================
Total params: 2,192,015
Trainable params: 2,190,223
Non-trainable params: 1,792
_________________________________________________________________
