Model: "sequential_474"
_________________________________________________________________
Layer (type)                 Output Shape              Param #   
=================================================================
separable_conv2d_1273 (Separ (None, 32, 32, 256)       1051      
_________________________________________________________________
batch_normalization_1333 (Ba (None, 32, 32, 256)       1024      
_________________________________________________________________
activation_1812 (Activation) (None, 32, 32, 256)       0         
_________________________________________________________________
dropout_1812 (Dropout)       (None, 32, 32, 256)       0         
_________________________________________________________________
max_pooling2d_506 (MaxPoolin (None, 16, 16, 256)       0         
_________________________________________________________________
separable_conv2d_1274 (Separ (None, 16, 16, 128)       35200     
_________________________________________________________________
batch_normalization_1334 (Ba (None, 16, 16, 128)       512       
_________________________________________________________________
activation_1813 (Activation) (None, 16, 16, 128)       0         
_________________________________________________________________
dropout_1813 (Dropout)       (None, 16, 16, 128)       0         
_________________________________________________________________
separable_conv2d_1275 (Separ (None, 16, 16, 16)        3216      
_________________________________________________________________
activation_1814 (Activation) (None, 16, 16, 16)        0         
_________________________________________________________________
dropout_1814 (Dropout)       (None, 16, 16, 16)        0         
_________________________________________________________________
flatten_474 (Flatten)        (None, 4096)              0         
_________________________________________________________________
dense_1013 (Dense)           (None, 512)               2097664   
_________________________________________________________________
activation_1815 (Activation) (None, 512)               0         
_________________________________________________________________
dropout_1815 (Dropout)       (None, 512)               0         
_________________________________________________________________
dense_1014 (Dense)           (None, 256)               131328    
_________________________________________________________________
batch_normalization_1335 (Ba (None, 256)               1024      
_________________________________________________________________
activation_1816 (Activation) (None, 256)               0         
_________________________________________________________________
dropout_1816 (Dropout)       (None, 256)               0         
_________________________________________________________________
dense_1015 (Dense)           (None, 100)               25700     
=================================================================
Total params: 2,296,719
Trainable params: 2,295,439
Non-trainable params: 1,280
_________________________________________________________________
