Model: "sequential_599"
_________________________________________________________________
Layer (type)                 Output Shape              Param #   
=================================================================
separable_conv2d_1641 (Separ (None, 32, 32, 512)       2075      
_________________________________________________________________
batch_normalization_1745 (Ba (None, 32, 32, 512)       2048      
_________________________________________________________________
activation_2378 (Activation) (None, 32, 32, 512)       0         
_________________________________________________________________
dropout_2378 (Dropout)       (None, 32, 32, 512)       0         
_________________________________________________________________
separable_conv2d_1642 (Separ (None, 32, 32, 64)        37440     
_________________________________________________________________
batch_normalization_1746 (Ba (None, 32, 32, 64)        256       
_________________________________________________________________
activation_2379 (Activation) (None, 32, 32, 64)        0         
_________________________________________________________________
dropout_2379 (Dropout)       (None, 32, 32, 64)        0         
_________________________________________________________________
separable_conv2d_1643 (Separ (None, 32, 32, 512)       33856     
_________________________________________________________________
batch_normalization_1747 (Ba (None, 32, 32, 512)       2048      
_________________________________________________________________
activation_2380 (Activation) (None, 32, 32, 512)       0         
_________________________________________________________________
dropout_2380 (Dropout)       (None, 32, 32, 512)       0         
_________________________________________________________________
flatten_599 (Flatten)        (None, 524288)            0         
_________________________________________________________________
dense_1336 (Dense)           (None, 100)               52428900  
=================================================================
Total params: 52,506,623
Trainable params: 52,504,447
Non-trainable params: 2,176
_________________________________________________________________
