Model: "sequential_62"
_________________________________________________________________
Layer (type)                 Output Shape              Param #   
=================================================================
separable_conv2d_146 (Separa (None, 32, 32, 256)       1051      
_________________________________________________________________
batch_normalization_129 (Bat (None, 32, 32, 256)       1024      
_________________________________________________________________
activation_197 (Activation)  (None, 32, 32, 256)       0         
_________________________________________________________________
dropout_197 (Dropout)        (None, 32, 32, 256)       0         
_________________________________________________________________
separable_conv2d_147 (Separa (None, 32, 32, 64)        18752     
_________________________________________________________________
batch_normalization_130 (Bat (None, 32, 32, 64)        256       
_________________________________________________________________
activation_198 (Activation)  (None, 32, 32, 64)        0         
_________________________________________________________________
dropout_198 (Dropout)        (None, 32, 32, 64)        0         
_________________________________________________________________
max_pooling2d_46 (MaxPooling (None, 16, 16, 64)        0         
_________________________________________________________________
separable_conv2d_148 (Separa (None, 16, 16, 16)        1616      
_________________________________________________________________
activation_199 (Activation)  (None, 16, 16, 16)        0         
_________________________________________________________________
dropout_199 (Dropout)        (None, 16, 16, 16)        0         
_________________________________________________________________
flatten_62 (Flatten)         (None, 4096)              0         
_________________________________________________________________
dense_113 (Dense)            (None, 512)               2097664   
_________________________________________________________________
batch_normalization_131 (Bat (None, 512)               2048      
_________________________________________________________________
activation_200 (Activation)  (None, 512)               0         
_________________________________________________________________
dropout_200 (Dropout)        (None, 512)               0         
_________________________________________________________________
dense_114 (Dense)            (None, 256)               131328    
_________________________________________________________________
batch_normalization_132 (Bat (None, 256)               1024      
_________________________________________________________________
activation_201 (Activation)  (None, 256)               0         
_________________________________________________________________
dropout_201 (Dropout)        (None, 256)               0         
_________________________________________________________________
dense_115 (Dense)            (None, 100)               25700     
=================================================================
Total params: 2,280,463
Trainable params: 2,278,287
Non-trainable params: 2,176
_________________________________________________________________
