Model: "sequential_374"
_________________________________________________________________
Layer (type)                 Output Shape              Param #   
=================================================================
separable_conv2d_981 (Separa (None, 32, 32, 256)       1051      
_________________________________________________________________
batch_normalization_1031 (Ba (None, 32, 32, 256)       1024      
_________________________________________________________________
activation_1366 (Activation) (None, 32, 32, 256)       0         
_________________________________________________________________
dropout_1366 (Dropout)       (None, 32, 32, 256)       0         
_________________________________________________________________
max_pooling2d_394 (MaxPoolin (None, 16, 16, 256)       0         
_________________________________________________________________
separable_conv2d_982 (Separa (None, 16, 16, 128)       35200     
_________________________________________________________________
batch_normalization_1032 (Ba (None, 16, 16, 128)       512       
_________________________________________________________________
activation_1367 (Activation) (None, 16, 16, 128)       0         
_________________________________________________________________
dropout_1367 (Dropout)       (None, 16, 16, 128)       0         
_________________________________________________________________
separable_conv2d_983 (Separa (None, 16, 16, 64)        9408      
_________________________________________________________________
batch_normalization_1033 (Ba (None, 16, 16, 64)        256       
_________________________________________________________________
activation_1368 (Activation) (None, 16, 16, 64)        0         
_________________________________________________________________
dropout_1368 (Dropout)       (None, 16, 16, 64)        0         
_________________________________________________________________
flatten_374 (Flatten)        (None, 16384)             0         
_________________________________________________________________
dense_759 (Dense)            (None, 100)               1638500   
=================================================================
Total params: 1,685,951
Trainable params: 1,685,055
Non-trainable params: 896
_________________________________________________________________
