Model: "sequential_93"
_________________________________________________________________
Layer (type)                 Output Shape              Param #   
=================================================================
separable_conv2d_218 (Separa (None, 32, 32, 256)       1051      
_________________________________________________________________
batch_normalization_202 (Bat (None, 32, 32, 256)       1024      
_________________________________________________________________
activation_293 (Activation)  (None, 32, 32, 256)       0         
_________________________________________________________________
dropout_293 (Dropout)        (None, 32, 32, 256)       0         
_________________________________________________________________
max_pooling2d_68 (MaxPooling (None, 16, 16, 256)       0         
_________________________________________________________________
separable_conv2d_219 (Separa (None, 16, 16, 128)       35200     
_________________________________________________________________
batch_normalization_203 (Bat (None, 16, 16, 128)       512       
_________________________________________________________________
activation_294 (Activation)  (None, 16, 16, 128)       0         
_________________________________________________________________
dropout_294 (Dropout)        (None, 16, 16, 128)       0         
_________________________________________________________________
flatten_93 (Flatten)         (None, 32768)             0         
_________________________________________________________________
dense_168 (Dense)            (None, 128)               4194432   
_________________________________________________________________
batch_normalization_204 (Bat (None, 128)               512       
_________________________________________________________________
activation_295 (Activation)  (None, 128)               0         
_________________________________________________________________
dropout_295 (Dropout)        (None, 128)               0         
_________________________________________________________________
dense_169 (Dense)            (None, 100)               12900     
=================================================================
Total params: 4,245,631
Trainable params: 4,244,607
Non-trainable params: 1,024
_________________________________________________________________
