Model: "sequential_499"
_________________________________________________________________
Layer (type)                 Output Shape              Param #   
=================================================================
separable_conv2d_1344 (Separ (None, 32, 32, 256)       1051      
_________________________________________________________________
batch_normalization_1414 (Ba (None, 32, 32, 256)       1024      
_________________________________________________________________
activation_1927 (Activation) (None, 32, 32, 256)       0         
_________________________________________________________________
dropout_1927 (Dropout)       (None, 32, 32, 256)       0         
_________________________________________________________________
max_pooling2d_535 (MaxPoolin (None, 16, 16, 256)       0         
_________________________________________________________________
separable_conv2d_1345 (Separ (None, 16, 16, 64)        18752     
_________________________________________________________________
batch_normalization_1415 (Ba (None, 16, 16, 64)        256       
_________________________________________________________________
activation_1928 (Activation) (None, 16, 16, 64)        0         
_________________________________________________________________
dropout_1928 (Dropout)       (None, 16, 16, 64)        0         
_________________________________________________________________
max_pooling2d_536 (MaxPoolin (None, 8, 8, 64)          0         
_________________________________________________________________
separable_conv2d_1346 (Separ (None, 8, 8, 16)          1616      
_________________________________________________________________
batch_normalization_1416 (Ba (None, 8, 8, 16)          64        
_________________________________________________________________
activation_1929 (Activation) (None, 8, 8, 16)          0         
_________________________________________________________________
dropout_1929 (Dropout)       (None, 8, 8, 16)          0         
_________________________________________________________________
flatten_499 (Flatten)        (None, 1024)              0         
_________________________________________________________________
dense_1082 (Dense)           (None, 512)               524800    
_________________________________________________________________
batch_normalization_1417 (Ba (None, 512)               2048      
_________________________________________________________________
activation_1930 (Activation) (None, 512)               0         
_________________________________________________________________
dropout_1930 (Dropout)       (None, 512)               0         
_________________________________________________________________
dense_1083 (Dense)           (None, 256)               131328    
_________________________________________________________________
batch_normalization_1418 (Ba (None, 256)               1024      
_________________________________________________________________
activation_1931 (Activation) (None, 256)               0         
_________________________________________________________________
dropout_1931 (Dropout)       (None, 256)               0         
_________________________________________________________________
dense_1084 (Dense)           (None, 100)               25700     
=================================================================
Total params: 707,663
Trainable params: 705,455
Non-trainable params: 2,208
_________________________________________________________________
