Model: "sequential_224"
_________________________________________________________________
Layer (type)                 Output Shape              Param #   
=================================================================
separable_conv2d_559 (Separa (None, 32, 32, 256)       1051      
_________________________________________________________________
batch_normalization_593 (Bat (None, 32, 32, 256)       1024      
_________________________________________________________________
activation_777 (Activation)  (None, 32, 32, 256)       0         
_________________________________________________________________
dropout_777 (Dropout)        (None, 32, 32, 256)       0         
_________________________________________________________________
max_pooling2d_212 (MaxPoolin (None, 16, 16, 256)       0         
_________________________________________________________________
separable_conv2d_560 (Separa (None, 16, 16, 128)       35200     
_________________________________________________________________
batch_normalization_594 (Bat (None, 16, 16, 128)       512       
_________________________________________________________________
activation_778 (Activation)  (None, 16, 16, 128)       0         
_________________________________________________________________
dropout_778 (Dropout)        (None, 16, 16, 128)       0         
_________________________________________________________________
flatten_224 (Flatten)        (None, 32768)             0         
_________________________________________________________________
dense_442 (Dense)            (None, 256)               8388864   
_________________________________________________________________
batch_normalization_595 (Bat (None, 256)               1024      
_________________________________________________________________
activation_779 (Activation)  (None, 256)               0         
_________________________________________________________________
dropout_779 (Dropout)        (None, 256)               0         
_________________________________________________________________
dense_443 (Dense)            (None, 100)               25700     
=================================================================
Total params: 8,453,375
Trainable params: 8,452,095
Non-trainable params: 1,280
_________________________________________________________________
