Model: "sequential_541"
_________________________________________________________________
Layer (type)                 Output Shape              Param #   
=================================================================
separable_conv2d_1468 (Separ (None, 32, 32, 256)       1051      
_________________________________________________________________
batch_normalization_1556 (Ba (None, 32, 32, 256)       1024      
_________________________________________________________________
activation_2119 (Activation) (None, 32, 32, 256)       0         
_________________________________________________________________
dropout_2119 (Dropout)       (None, 32, 32, 256)       0         
_________________________________________________________________
max_pooling2d_575 (MaxPoolin (None, 16, 16, 256)       0         
_________________________________________________________________
separable_conv2d_1469 (Separ (None, 16, 16, 64)        18752     
_________________________________________________________________
batch_normalization_1557 (Ba (None, 16, 16, 64)        256       
_________________________________________________________________
activation_2120 (Activation) (None, 16, 16, 64)        0         
_________________________________________________________________
dropout_2120 (Dropout)       (None, 16, 16, 64)        0         
_________________________________________________________________
separable_conv2d_1470 (Separ (None, 16, 16, 16)        1616      
_________________________________________________________________
activation_2121 (Activation) (None, 16, 16, 16)        0         
_________________________________________________________________
dropout_2121 (Dropout)       (None, 16, 16, 16)        0         
_________________________________________________________________
flatten_541 (Flatten)        (None, 4096)              0         
_________________________________________________________________
dense_1192 (Dense)           (None, 2048)              8390656   
_________________________________________________________________
batch_normalization_1558 (Ba (None, 2048)              8192      
_________________________________________________________________
activation_2122 (Activation) (None, 2048)              0         
_________________________________________________________________
dropout_2122 (Dropout)       (None, 2048)              0         
_________________________________________________________________
dense_1193 (Dense)           (None, 100)               204900    
=================================================================
Total params: 8,626,447
Trainable params: 8,621,711
Non-trainable params: 4,736
_________________________________________________________________
