Model: "sequential_259"
_________________________________________________________________
Layer (type)                 Output Shape              Param #   
=================================================================
separable_conv2d_656 (Separa (None, 32, 32, 512)       2075      
_________________________________________________________________
batch_normalization_708 (Bat (None, 32, 32, 512)       2048      
_________________________________________________________________
activation_919 (Activation)  (None, 32, 32, 512)       0         
_________________________________________________________________
dropout_919 (Dropout)        (None, 32, 32, 512)       0         
_________________________________________________________________
max_pooling2d_253 (MaxPoolin (None, 16, 16, 512)       0         
_________________________________________________________________
separable_conv2d_657 (Separa (None, 16, 16, 64)        37440     
_________________________________________________________________
batch_normalization_709 (Bat (None, 16, 16, 64)        256       
_________________________________________________________________
activation_920 (Activation)  (None, 16, 16, 64)        0         
_________________________________________________________________
dropout_920 (Dropout)        (None, 16, 16, 64)        0         
_________________________________________________________________
max_pooling2d_254 (MaxPoolin (None, 8, 8, 64)          0         
_________________________________________________________________
separable_conv2d_658 (Separa (None, 8, 8, 16)          1616      
_________________________________________________________________
activation_921 (Activation)  (None, 8, 8, 16)          0         
_________________________________________________________________
dropout_921 (Dropout)        (None, 8, 8, 16)          0         
_________________________________________________________________
flatten_259 (Flatten)        (None, 1024)              0         
_________________________________________________________________
dense_522 (Dense)            (None, 128)               131200    
_________________________________________________________________
batch_normalization_710 (Bat (None, 128)               512       
_________________________________________________________________
activation_922 (Activation)  (None, 128)               0         
_________________________________________________________________
dropout_922 (Dropout)        (None, 128)               0         
_________________________________________________________________
dense_523 (Dense)            (None, 100)               12900     
=================================================================
Total params: 188,047
Trainable params: 186,639
Non-trainable params: 1,408
_________________________________________________________________
