Model: "sequential_166"
_________________________________________________________________
Layer (type)                 Output Shape              Param #   
=================================================================
separable_conv2d_402 (Separa (None, 32, 32, 512)       2075      
_________________________________________________________________
batch_normalization_416 (Bat (None, 32, 32, 512)       2048      
_________________________________________________________________
activation_556 (Activation)  (None, 32, 32, 512)       0         
_________________________________________________________________
dropout_556 (Dropout)        (None, 32, 32, 512)       0         
_________________________________________________________________
separable_conv2d_403 (Separa (None, 32, 32, 64)        37440     
_________________________________________________________________
batch_normalization_417 (Bat (None, 32, 32, 64)        256       
_________________________________________________________________
activation_557 (Activation)  (None, 32, 32, 64)        0         
_________________________________________________________________
dropout_557 (Dropout)        (None, 32, 32, 64)        0         
_________________________________________________________________
max_pooling2d_143 (MaxPoolin (None, 16, 16, 64)        0         
_________________________________________________________________
flatten_166 (Flatten)        (None, 16384)             0         
_________________________________________________________________
dense_320 (Dense)            (None, 512)               8389120   
_________________________________________________________________
batch_normalization_418 (Bat (None, 512)               2048      
_________________________________________________________________
activation_558 (Activation)  (None, 512)               0         
_________________________________________________________________
dropout_558 (Dropout)        (None, 512)               0         
_________________________________________________________________
dense_321 (Dense)            (None, 100)               51300     
=================================================================
Total params: 8,484,287
Trainable params: 8,482,111
Non-trainable params: 2,176
_________________________________________________________________
