Model: "sequential_168"
_________________________________________________________________
Layer (type)                 Output Shape              Param #   
=================================================================
separable_conv2d_407 (Separa (None, 32, 32, 512)       2075      
_________________________________________________________________
batch_normalization_422 (Bat (None, 32, 32, 512)       2048      
_________________________________________________________________
activation_563 (Activation)  (None, 32, 32, 512)       0         
_________________________________________________________________
dropout_563 (Dropout)        (None, 32, 32, 512)       0         
_________________________________________________________________
separable_conv2d_408 (Separa (None, 32, 32, 64)        37440     
_________________________________________________________________
batch_normalization_423 (Bat (None, 32, 32, 64)        256       
_________________________________________________________________
activation_564 (Activation)  (None, 32, 32, 64)        0         
_________________________________________________________________
dropout_564 (Dropout)        (None, 32, 32, 64)        0         
_________________________________________________________________
max_pooling2d_145 (MaxPoolin (None, 16, 16, 64)        0         
_________________________________________________________________
separable_conv2d_409 (Separa (None, 16, 16, 64)        4736      
_________________________________________________________________
activation_565 (Activation)  (None, 16, 16, 64)        0         
_________________________________________________________________
dropout_565 (Dropout)        (None, 16, 16, 64)        0         
_________________________________________________________________
flatten_168 (Flatten)        (None, 16384)             0         
_________________________________________________________________
dense_324 (Dense)            (None, 512)               8389120   
_________________________________________________________________
batch_normalization_424 (Bat (None, 512)               2048      
_________________________________________________________________
activation_566 (Activation)  (None, 512)               0         
_________________________________________________________________
dropout_566 (Dropout)        (None, 512)               0         
_________________________________________________________________
dense_325 (Dense)            (None, 100)               51300     
=================================================================
Total params: 8,489,023
Trainable params: 8,486,847
Non-trainable params: 2,176
_________________________________________________________________
