Model: "sequential_342"
_________________________________________________________________
Layer (type)                 Output Shape              Param #   
=================================================================
separable_conv2d_891 (Separa (None, 32, 32, 512)       2075      
_________________________________________________________________
batch_normalization_951 (Bat (None, 32, 32, 512)       2048      
_________________________________________________________________
activation_1243 (Activation) (None, 32, 32, 512)       0         
_________________________________________________________________
dropout_1243 (Dropout)       (None, 32, 32, 512)       0         
_________________________________________________________________
max_pooling2d_354 (MaxPoolin (None, 16, 16, 512)       0         
_________________________________________________________________
separable_conv2d_892 (Separa (None, 16, 16, 64)        37440     
_________________________________________________________________
activation_1244 (Activation) (None, 16, 16, 64)        0         
_________________________________________________________________
dropout_1244 (Dropout)       (None, 16, 16, 64)        0         
_________________________________________________________________
max_pooling2d_355 (MaxPoolin (None, 8, 8, 64)          0         
_________________________________________________________________
separable_conv2d_893 (Separa (None, 8, 8, 16)          1616      
_________________________________________________________________
activation_1245 (Activation) (None, 8, 8, 16)          0         
_________________________________________________________________
dropout_1245 (Dropout)       (None, 8, 8, 16)          0         
_________________________________________________________________
flatten_342 (Flatten)        (None, 1024)              0         
_________________________________________________________________
dense_694 (Dense)            (None, 100)               102500    
=================================================================
Total params: 145,679
Trainable params: 144,655
Non-trainable params: 1,024
_________________________________________________________________
