Model: "sequential_127"
_________________________________________________________________
Layer (type)                 Output Shape              Param #   
=================================================================
separable_conv2d_301 (Separa (None, 32, 32, 512)       2075      
_________________________________________________________________
batch_normalization_296 (Bat (None, 32, 32, 512)       2048      
_________________________________________________________________
activation_409 (Activation)  (None, 32, 32, 512)       0         
_________________________________________________________________
dropout_409 (Dropout)        (None, 32, 32, 512)       0         
_________________________________________________________________
max_pooling2d_100 (MaxPoolin (None, 16, 16, 512)       0         
_________________________________________________________________
separable_conv2d_302 (Separa (None, 16, 16, 128)       70272     
_________________________________________________________________
batch_normalization_297 (Bat (None, 16, 16, 128)       512       
_________________________________________________________________
activation_410 (Activation)  (None, 16, 16, 128)       0         
_________________________________________________________________
dropout_410 (Dropout)        (None, 16, 16, 128)       0         
_________________________________________________________________
flatten_127 (Flatten)        (None, 32768)             0         
_________________________________________________________________
dense_235 (Dense)            (None, 128)               4194432   
_________________________________________________________________
batch_normalization_298 (Bat (None, 128)               512       
_________________________________________________________________
activation_411 (Activation)  (None, 128)               0         
_________________________________________________________________
dropout_411 (Dropout)        (None, 128)               0         
_________________________________________________________________
dense_236 (Dense)            (None, 100)               12900     
=================================================================
Total params: 4,282,751
Trainable params: 4,281,215
Non-trainable params: 1,536
_________________________________________________________________
