Model: "sequential_457"
_________________________________________________________________
Layer (type)                 Output Shape              Param #   
=================================================================
separable_conv2d_1223 (Separ (None, 32, 32, 64)        283       
_________________________________________________________________
batch_normalization_1280 (Ba (None, 32, 32, 64)        256       
_________________________________________________________________
activation_1733 (Activation) (None, 32, 32, 64)        0         
_________________________________________________________________
dropout_1733 (Dropout)       (None, 32, 32, 64)        0         
_________________________________________________________________
separable_conv2d_1224 (Separ (None, 32, 32, 128)       8896      
_________________________________________________________________
batch_normalization_1281 (Ba (None, 32, 32, 128)       512       
_________________________________________________________________
activation_1734 (Activation) (None, 32, 32, 128)       0         
_________________________________________________________________
dropout_1734 (Dropout)       (None, 32, 32, 128)       0         
_________________________________________________________________
separable_conv2d_1225 (Separ (None, 32, 32, 1024)      133248    
_________________________________________________________________
activation_1735 (Activation) (None, 32, 32, 1024)      0         
_________________________________________________________________
dropout_1735 (Dropout)       (None, 32, 32, 1024)      0         
_________________________________________________________________
flatten_457 (Flatten)        (None, 1048576)           0         
_________________________________________________________________
dense_967 (Dense)            (None, 512)               536871424 
_________________________________________________________________
batch_normalization_1282 (Ba (None, 512)               2048      
_________________________________________________________________
activation_1736 (Activation) (None, 512)               0         
_________________________________________________________________
dropout_1736 (Dropout)       (None, 512)               0         
_________________________________________________________________
dense_968 (Dense)            (None, 256)               131328    
_________________________________________________________________
batch_normalization_1283 (Ba (None, 256)               1024      
_________________________________________________________________
activation_1737 (Activation) (None, 256)               0         
_________________________________________________________________
dropout_1737 (Dropout)       (None, 256)               0         
_________________________________________________________________
dense_969 (Dense)            (None, 100)               25700     
=================================================================
Total params: 537,174,719
Trainable params: 537,172,799
Non-trainable params: 1,920
_________________________________________________________________
