Model: "sequential_341"
_________________________________________________________________
Layer (type)                 Output Shape              Param #   
=================================================================
separable_conv2d_888 (Separa (None, 32, 32, 512)       2075      
_________________________________________________________________
batch_normalization_948 (Bat (None, 32, 32, 512)       2048      
_________________________________________________________________
activation_1238 (Activation) (None, 32, 32, 512)       0         
_________________________________________________________________
dropout_1238 (Dropout)       (None, 32, 32, 512)       0         
_________________________________________________________________
max_pooling2d_352 (MaxPoolin (None, 16, 16, 512)       0         
_________________________________________________________________
separable_conv2d_889 (Separa (None, 16, 16, 64)        37440     
_________________________________________________________________
activation_1239 (Activation) (None, 16, 16, 64)        0         
_________________________________________________________________
dropout_1239 (Dropout)       (None, 16, 16, 64)        0         
_________________________________________________________________
max_pooling2d_353 (MaxPoolin (None, 8, 8, 64)          0         
_________________________________________________________________
separable_conv2d_890 (Separa (None, 8, 8, 16)          1616      
_________________________________________________________________
activation_1240 (Activation) (None, 8, 8, 16)          0         
_________________________________________________________________
dropout_1240 (Dropout)       (None, 8, 8, 16)          0         
_________________________________________________________________
flatten_341 (Flatten)        (None, 1024)              0         
_________________________________________________________________
dense_691 (Dense)            (None, 512)               524800    
_________________________________________________________________
batch_normalization_949 (Bat (None, 512)               2048      
_________________________________________________________________
activation_1241 (Activation) (None, 512)               0         
_________________________________________________________________
dropout_1241 (Dropout)       (None, 512)               0         
_________________________________________________________________
dense_692 (Dense)            (None, 256)               131328    
_________________________________________________________________
batch_normalization_950 (Bat (None, 256)               1024      
_________________________________________________________________
activation_1242 (Activation) (None, 256)               0         
_________________________________________________________________
dropout_1242 (Dropout)       (None, 256)               0         
_________________________________________________________________
dense_693 (Dense)            (None, 100)               25700     
=================================================================
Total params: 728,079
Trainable params: 725,519
Non-trainable params: 2,560
_________________________________________________________________
