Model: "sequential_364"
_________________________________________________________________
Layer (type)                 Output Shape              Param #   
=================================================================
separable_conv2d_953 (Separa (None, 32, 32, 128)       539       
_________________________________________________________________
batch_normalization_1007 (Ba (None, 32, 32, 128)       512       
_________________________________________________________________
activation_1328 (Activation) (None, 32, 32, 128)       0         
_________________________________________________________________
dropout_1328 (Dropout)       (None, 32, 32, 128)       0         
_________________________________________________________________
max_pooling2d_380 (MaxPoolin (None, 16, 16, 128)       0         
_________________________________________________________________
separable_conv2d_954 (Separa (None, 16, 16, 128)       17664     
_________________________________________________________________
batch_normalization_1008 (Ba (None, 16, 16, 128)       512       
_________________________________________________________________
activation_1329 (Activation) (None, 16, 16, 128)       0         
_________________________________________________________________
dropout_1329 (Dropout)       (None, 16, 16, 128)       0         
_________________________________________________________________
separable_conv2d_955 (Separa (None, 16, 16, 64)        9408      
_________________________________________________________________
activation_1330 (Activation) (None, 16, 16, 64)        0         
_________________________________________________________________
dropout_1330 (Dropout)       (None, 16, 16, 64)        0         
_________________________________________________________________
flatten_364 (Flatten)        (None, 16384)             0         
_________________________________________________________________
dense_739 (Dense)            (None, 100)               1638500   
=================================================================
Total params: 1,667,135
Trainable params: 1,666,623
Non-trainable params: 512
_________________________________________________________________
