Model: "sequential_371"
_________________________________________________________________
Layer (type)                 Output Shape              Param #   
=================================================================
separable_conv2d_972 (Separa (None, 32, 32, 512)       2075      
_________________________________________________________________
batch_normalization_1021 (Ba (None, 32, 32, 512)       2048      
_________________________________________________________________
activation_1352 (Activation) (None, 32, 32, 512)       0         
_________________________________________________________________
dropout_1352 (Dropout)       (None, 32, 32, 512)       0         
_________________________________________________________________
separable_conv2d_973 (Separa (None, 32, 32, 64)        37440     
_________________________________________________________________
batch_normalization_1022 (Ba (None, 32, 32, 64)        256       
_________________________________________________________________
activation_1353 (Activation) (None, 32, 32, 64)        0         
_________________________________________________________________
dropout_1353 (Dropout)       (None, 32, 32, 64)        0         
_________________________________________________________________
max_pooling2d_389 (MaxPoolin (None, 16, 16, 64)        0         
_________________________________________________________________
separable_conv2d_974 (Separa (None, 16, 16, 16)        1616      
_________________________________________________________________
activation_1354 (Activation) (None, 16, 16, 16)        0         
_________________________________________________________________
dropout_1354 (Dropout)       (None, 16, 16, 16)        0         
_________________________________________________________________
flatten_371 (Flatten)        (None, 4096)              0         
_________________________________________________________________
dense_751 (Dense)            (None, 512)               2097664   
_________________________________________________________________
batch_normalization_1023 (Ba (None, 512)               2048      
_________________________________________________________________
activation_1355 (Activation) (None, 512)               0         
_________________________________________________________________
dropout_1355 (Dropout)       (None, 512)               0         
_________________________________________________________________
dense_752 (Dense)            (None, 256)               131328    
_________________________________________________________________
batch_normalization_1024 (Ba (None, 256)               1024      
_________________________________________________________________
activation_1356 (Activation) (None, 256)               0         
_________________________________________________________________
dropout_1356 (Dropout)       (None, 256)               0         
_________________________________________________________________
dense_753 (Dense)            (None, 100)               25700     
=================================================================
Total params: 2,301,199
Trainable params: 2,298,511
Non-trainable params: 2,688
_________________________________________________________________
