Model: "sequential_222"
_________________________________________________________________
Layer (type)                 Output Shape              Param #   
=================================================================
separable_conv2d_553 (Separa (None, 32, 32, 256)       1051      
_________________________________________________________________
batch_normalization_587 (Bat (None, 32, 32, 256)       1024      
_________________________________________________________________
activation_769 (Activation)  (None, 32, 32, 256)       0         
_________________________________________________________________
dropout_769 (Dropout)        (None, 32, 32, 256)       0         
_________________________________________________________________
max_pooling2d_210 (MaxPoolin (None, 16, 16, 256)       0         
_________________________________________________________________
separable_conv2d_554 (Separa (None, 16, 16, 128)       35200     
_________________________________________________________________
batch_normalization_588 (Bat (None, 16, 16, 128)       512       
_________________________________________________________________
activation_770 (Activation)  (None, 16, 16, 128)       0         
_________________________________________________________________
dropout_770 (Dropout)        (None, 16, 16, 128)       0         
_________________________________________________________________
separable_conv2d_555 (Separa (None, 16, 16, 16)        3216      
_________________________________________________________________
activation_771 (Activation)  (None, 16, 16, 16)        0         
_________________________________________________________________
dropout_771 (Dropout)        (None, 16, 16, 16)        0         
_________________________________________________________________
flatten_222 (Flatten)        (None, 4096)              0         
_________________________________________________________________
dense_438 (Dense)            (None, 100)               409700    
=================================================================
Total params: 450,703
Trainable params: 449,935
Non-trainable params: 768
_________________________________________________________________
