Model: "sequential_210"
_________________________________________________________________
Layer (type)                 Output Shape              Param #   
=================================================================
separable_conv2d_520 (Separa (None, 32, 32, 512)       2075      
_________________________________________________________________
batch_normalization_550 (Bat (None, 32, 32, 512)       2048      
_________________________________________________________________
activation_722 (Activation)  (None, 32, 32, 512)       0         
_________________________________________________________________
dropout_722 (Dropout)        (None, 32, 32, 512)       0         
_________________________________________________________________
max_pooling2d_195 (MaxPoolin (None, 16, 16, 512)       0         
_________________________________________________________________
separable_conv2d_521 (Separa (None, 16, 16, 64)        37440     
_________________________________________________________________
batch_normalization_551 (Bat (None, 16, 16, 64)        256       
_________________________________________________________________
activation_723 (Activation)  (None, 16, 16, 64)        0         
_________________________________________________________________
dropout_723 (Dropout)        (None, 16, 16, 64)        0         
_________________________________________________________________
max_pooling2d_196 (MaxPoolin (None, 8, 8, 64)          0         
_________________________________________________________________
separable_conv2d_522 (Separa (None, 8, 8, 16)          1616      
_________________________________________________________________
activation_724 (Activation)  (None, 8, 8, 16)          0         
_________________________________________________________________
dropout_724 (Dropout)        (None, 8, 8, 16)          0         
_________________________________________________________________
flatten_210 (Flatten)        (None, 1024)              0         
_________________________________________________________________
dense_412 (Dense)            (None, 128)               131200    
_________________________________________________________________
batch_normalization_552 (Bat (None, 128)               512       
_________________________________________________________________
activation_725 (Activation)  (None, 128)               0         
_________________________________________________________________
dropout_725 (Dropout)        (None, 128)               0         
_________________________________________________________________
dense_413 (Dense)            (None, 100)               12900     
=================================================================
Total params: 188,047
Trainable params: 186,639
Non-trainable params: 1,408
_________________________________________________________________
