Model: "sequential_102"
_________________________________________________________________
Layer (type)                 Output Shape              Param #   
=================================================================
separable_conv2d_238 (Separa (None, 32, 32, 512)       2075      
_________________________________________________________________
batch_normalization_228 (Bat (None, 32, 32, 512)       2048      
_________________________________________________________________
activation_323 (Activation)  (None, 32, 32, 512)       0         
_________________________________________________________________
dropout_323 (Dropout)        (None, 32, 32, 512)       0         
_________________________________________________________________
separable_conv2d_239 (Separa (None, 32, 32, 64)        37440     
_________________________________________________________________
batch_normalization_229 (Bat (None, 32, 32, 64)        256       
_________________________________________________________________
activation_324 (Activation)  (None, 32, 32, 64)        0         
_________________________________________________________________
dropout_324 (Dropout)        (None, 32, 32, 64)        0         
_________________________________________________________________
max_pooling2d_76 (MaxPooling (None, 16, 16, 64)        0         
_________________________________________________________________
separable_conv2d_240 (Separa (None, 16, 16, 16)        1616      
_________________________________________________________________
activation_325 (Activation)  (None, 16, 16, 16)        0         
_________________________________________________________________
dropout_325 (Dropout)        (None, 16, 16, 16)        0         
_________________________________________________________________
flatten_102 (Flatten)        (None, 4096)              0         
_________________________________________________________________
dense_187 (Dense)            (None, 512)               2097664   
_________________________________________________________________
batch_normalization_230 (Bat (None, 512)               2048      
_________________________________________________________________
activation_326 (Activation)  (None, 512)               0         
_________________________________________________________________
dropout_326 (Dropout)        (None, 512)               0         
_________________________________________________________________
dense_188 (Dense)            (None, 256)               131328    
_________________________________________________________________
batch_normalization_231 (Bat (None, 256)               1024      
_________________________________________________________________
activation_327 (Activation)  (None, 256)               0         
_________________________________________________________________
dropout_327 (Dropout)        (None, 256)               0         
_________________________________________________________________
dense_189 (Dense)            (None, 100)               25700     
=================================================================
Total params: 2,301,199
Trainable params: 2,298,511
Non-trainable params: 2,688
_________________________________________________________________
