Model: "sequential_492"
_________________________________________________________________
Layer (type)                 Output Shape              Param #   
=================================================================
separable_conv2d_1323 (Separ (None, 32, 32, 256)       1051      
_________________________________________________________________
batch_normalization_1387 (Ba (None, 32, 32, 256)       1024      
_________________________________________________________________
activation_1893 (Activation) (None, 32, 32, 256)       0         
_________________________________________________________________
dropout_1893 (Dropout)       (None, 32, 32, 256)       0         
_________________________________________________________________
max_pooling2d_524 (MaxPoolin (None, 16, 16, 256)       0         
_________________________________________________________________
separable_conv2d_1324 (Separ (None, 16, 16, 128)       35200     
_________________________________________________________________
batch_normalization_1388 (Ba (None, 16, 16, 128)       512       
_________________________________________________________________
activation_1894 (Activation) (None, 16, 16, 128)       0         
_________________________________________________________________
dropout_1894 (Dropout)       (None, 16, 16, 128)       0         
_________________________________________________________________
separable_conv2d_1325 (Separ (None, 16, 16, 16)        3216      
_________________________________________________________________
activation_1895 (Activation) (None, 16, 16, 16)        0         
_________________________________________________________________
dropout_1895 (Dropout)       (None, 16, 16, 16)        0         
_________________________________________________________________
flatten_492 (Flatten)        (None, 4096)              0         
_________________________________________________________________
dense_1062 (Dense)           (None, 256)               1048832   
_________________________________________________________________
batch_normalization_1389 (Ba (None, 256)               1024      
_________________________________________________________________
activation_1896 (Activation) (None, 256)               0         
_________________________________________________________________
dropout_1896 (Dropout)       (None, 256)               0         
_________________________________________________________________
dense_1063 (Dense)           (None, 256)               65792     
_________________________________________________________________
batch_normalization_1390 (Ba (None, 256)               1024      
_________________________________________________________________
activation_1897 (Activation) (None, 256)               0         
_________________________________________________________________
dropout_1897 (Dropout)       (None, 256)               0         
_________________________________________________________________
dense_1064 (Dense)           (None, 100)               25700     
=================================================================
Total params: 1,183,375
Trainable params: 1,181,583
Non-trainable params: 1,792
_________________________________________________________________
