Model: "sequential_29"
_________________________________________________________________
Layer (type)                 Output Shape              Param #   
=================================================================
separable_conv2d_77 (Separab (None, 32, 32, 256)       1051      
_________________________________________________________________
batch_normalization_58 (Batc (None, 32, 32, 256)       1024      
_________________________________________________________________
activation_103 (Activation)  (None, 32, 32, 256)       0         
_________________________________________________________________
dropout_103 (Dropout)        (None, 32, 32, 256)       0         
_________________________________________________________________
max_pooling2d_26 (MaxPooling (None, 16, 16, 256)       0         
_________________________________________________________________
separable_conv2d_78 (Separab (None, 16, 16, 128)       35200     
_________________________________________________________________
batch_normalization_59 (Batc (None, 16, 16, 128)       512       
_________________________________________________________________
activation_104 (Activation)  (None, 16, 16, 128)       0         
_________________________________________________________________
dropout_104 (Dropout)        (None, 16, 16, 128)       0         
_________________________________________________________________
separable_conv2d_79 (Separab (None, 16, 16, 16)        3216      
_________________________________________________________________
activation_105 (Activation)  (None, 16, 16, 16)        0         
_________________________________________________________________
dropout_105 (Dropout)        (None, 16, 16, 16)        0         
_________________________________________________________________
flatten_29 (Flatten)         (None, 4096)              0         
_________________________________________________________________
dense_55 (Dense)             (None, 256)               1048832   
_________________________________________________________________
batch_normalization_60 (Batc (None, 256)               1024      
_________________________________________________________________
activation_106 (Activation)  (None, 256)               0         
_________________________________________________________________
dropout_106 (Dropout)        (None, 256)               0         
_________________________________________________________________
dense_56 (Dense)             (None, 100)               25700     
=================================================================
Total params: 1,116,559
Trainable params: 1,115,279
Non-trainable params: 1,280
_________________________________________________________________
