Model: "sequential_466"
_________________________________________________________________
Layer (type)                 Output Shape              Param #   
=================================================================
separable_conv2d_1250 (Separ (None, 32, 32, 256)       1051      
_________________________________________________________________
batch_normalization_1312 (Ba (None, 32, 32, 256)       1024      
_________________________________________________________________
activation_1777 (Activation) (None, 32, 32, 256)       0         
_________________________________________________________________
dropout_1777 (Dropout)       (None, 32, 32, 256)       0         
_________________________________________________________________
max_pooling2d_497 (MaxPoolin (None, 16, 16, 256)       0         
_________________________________________________________________
separable_conv2d_1251 (Separ (None, 16, 16, 128)       35200     
_________________________________________________________________
batch_normalization_1313 (Ba (None, 16, 16, 128)       512       
_________________________________________________________________
activation_1778 (Activation) (None, 16, 16, 128)       0         
_________________________________________________________________
dropout_1778 (Dropout)       (None, 16, 16, 128)       0         
_________________________________________________________________
separable_conv2d_1252 (Separ (None, 16, 16, 16)        3216      
_________________________________________________________________
activation_1779 (Activation) (None, 16, 16, 16)        0         
_________________________________________________________________
dropout_1779 (Dropout)       (None, 16, 16, 16)        0         
_________________________________________________________________
flatten_466 (Flatten)        (None, 4096)              0         
_________________________________________________________________
dense_993 (Dense)            (None, 512)               2097664   
_________________________________________________________________
batch_normalization_1314 (Ba (None, 512)               2048      
_________________________________________________________________
activation_1780 (Activation) (None, 512)               0         
_________________________________________________________________
dropout_1780 (Dropout)       (None, 512)               0         
_________________________________________________________________
dense_994 (Dense)            (None, 256)               131328    
_________________________________________________________________
activation_1781 (Activation) (None, 256)               0         
_________________________________________________________________
dropout_1781 (Dropout)       (None, 256)               0         
_________________________________________________________________
dense_995 (Dense)            (None, 100)               25700     
=================================================================
Total params: 2,297,743
Trainable params: 2,295,951
Non-trainable params: 1,792
_________________________________________________________________
