Model: "sequential_13"
_________________________________________________________________
Layer (type)                 Output Shape              Param #   
=================================================================
separable_conv2d_31 (Separab (None, 32, 32, 64)        283       
_________________________________________________________________
activation_43 (Activation)   (None, 32, 32, 64)        0         
_________________________________________________________________
dropout_43 (Dropout)         (None, 32, 32, 64)        0         
_________________________________________________________________
separable_conv2d_32 (Separab (None, 32, 32, 1024)      67136     
_________________________________________________________________
batch_normalization_28 (Batc (None, 32, 32, 1024)      4096      
_________________________________________________________________
activation_44 (Activation)   (None, 32, 32, 1024)      0         
_________________________________________________________________
dropout_44 (Dropout)         (None, 32, 32, 1024)      0         
_________________________________________________________________
separable_conv2d_33 (Separab (None, 32, 32, 32)        42016     
_________________________________________________________________
batch_normalization_29 (Batc (None, 32, 32, 32)        128       
_________________________________________________________________
activation_45 (Activation)   (None, 32, 32, 32)        0         
_________________________________________________________________
dropout_45 (Dropout)         (None, 32, 32, 32)        0         
_________________________________________________________________
flatten_13 (Flatten)         (None, 32768)             0         
_________________________________________________________________
dense_25 (Dense)             (None, 256)               8388864   
_________________________________________________________________
activation_46 (Activation)   (None, 256)               0         
_________________________________________________________________
dropout_46 (Dropout)         (None, 256)               0         
_________________________________________________________________
dense_26 (Dense)             (None, 1024)              263168    
_________________________________________________________________
batch_normalization_30 (Batc (None, 1024)              4096      
_________________________________________________________________
activation_47 (Activation)   (None, 1024)              0         
_________________________________________________________________
dropout_47 (Dropout)         (None, 1024)              0         
_________________________________________________________________
dense_27 (Dense)             (None, 100)               102500    
=================================================================
Total params: 8,872,287
Trainable params: 8,868,127
Non-trainable params: 4,160
_________________________________________________________________
