Model: "sequential_598"
_________________________________________________________________
Layer (type)                 Output Shape              Param #   
=================================================================
separable_conv2d_1638 (Separ (None, 32, 32, 64)        283       
_________________________________________________________________
batch_normalization_1740 (Ba (None, 32, 32, 64)        256       
_________________________________________________________________
activation_2373 (Activation) (None, 32, 32, 64)        0         
_________________________________________________________________
dropout_2373 (Dropout)       (None, 32, 32, 64)        0         
_________________________________________________________________
separable_conv2d_1639 (Separ (None, 32, 32, 64)        4736      
_________________________________________________________________
batch_normalization_1741 (Ba (None, 32, 32, 64)        256       
_________________________________________________________________
activation_2374 (Activation) (None, 32, 32, 64)        0         
_________________________________________________________________
dropout_2374 (Dropout)       (None, 32, 32, 64)        0         
_________________________________________________________________
separable_conv2d_1640 (Separ (None, 32, 32, 16)        1616      
_________________________________________________________________
batch_normalization_1742 (Ba (None, 32, 32, 16)        64        
_________________________________________________________________
activation_2375 (Activation) (None, 32, 32, 16)        0         
_________________________________________________________________
dropout_2375 (Dropout)       (None, 32, 32, 16)        0         
_________________________________________________________________
flatten_598 (Flatten)        (None, 16384)             0         
_________________________________________________________________
dense_1333 (Dense)           (None, 1024)              16778240  
_________________________________________________________________
batch_normalization_1743 (Ba (None, 1024)              4096      
_________________________________________________________________
activation_2376 (Activation) (None, 1024)              0         
_________________________________________________________________
dropout_2376 (Dropout)       (None, 1024)              0         
_________________________________________________________________
dense_1334 (Dense)           (None, 2048)              2099200   
_________________________________________________________________
batch_normalization_1744 (Ba (None, 2048)              8192      
_________________________________________________________________
activation_2377 (Activation) (None, 2048)              0         
_________________________________________________________________
dropout_2377 (Dropout)       (None, 2048)              0         
_________________________________________________________________
dense_1335 (Dense)           (None, 100)               204900    
=================================================================
Total params: 19,101,839
Trainable params: 19,095,407
Non-trainable params: 6,432
_________________________________________________________________
