Model: "sequential_160"
_________________________________________________________________
Layer (type)                 Output Shape              Param #   
=================================================================
separable_conv2d_386 (Separa (None, 32, 32, 256)       1051      
_________________________________________________________________
batch_normalization_396 (Bat (None, 32, 32, 256)       1024      
_________________________________________________________________
activation_531 (Activation)  (None, 32, 32, 256)       0         
_________________________________________________________________
dropout_531 (Dropout)        (None, 32, 32, 256)       0         
_________________________________________________________________
separable_conv2d_387 (Separa (None, 32, 32, 64)        18752     
_________________________________________________________________
batch_normalization_397 (Bat (None, 32, 32, 64)        256       
_________________________________________________________________
activation_532 (Activation)  (None, 32, 32, 64)        0         
_________________________________________________________________
dropout_532 (Dropout)        (None, 32, 32, 64)        0         
_________________________________________________________________
max_pooling2d_136 (MaxPoolin (None, 16, 16, 64)        0         
_________________________________________________________________
separable_conv2d_388 (Separa (None, 16, 16, 16)        1616      
_________________________________________________________________
activation_533 (Activation)  (None, 16, 16, 16)        0         
_________________________________________________________________
dropout_533 (Dropout)        (None, 16, 16, 16)        0         
_________________________________________________________________
flatten_160 (Flatten)        (None, 4096)              0         
_________________________________________________________________
dense_305 (Dense)            (None, 512)               2097664   
_________________________________________________________________
batch_normalization_398 (Bat (None, 512)               2048      
_________________________________________________________________
activation_534 (Activation)  (None, 512)               0         
_________________________________________________________________
dropout_534 (Dropout)        (None, 512)               0         
_________________________________________________________________
dense_306 (Dense)            (None, 256)               131328    
_________________________________________________________________
batch_normalization_399 (Bat (None, 256)               1024      
_________________________________________________________________
activation_535 (Activation)  (None, 256)               0         
_________________________________________________________________
dropout_535 (Dropout)        (None, 256)               0         
_________________________________________________________________
dense_307 (Dense)            (None, 100)               25700     
=================================================================
Total params: 2,280,463
Trainable params: 2,278,287
Non-trainable params: 2,176
_________________________________________________________________
