Model: "sequential_228"
_________________________________________________________________
Layer (type)                 Output Shape              Param #   
=================================================================
separable_conv2d_570 (Separa (None, 32, 32, 256)       1051      
_________________________________________________________________
batch_normalization_605 (Bat (None, 32, 32, 256)       1024      
_________________________________________________________________
activation_792 (Activation)  (None, 32, 32, 256)       0         
_________________________________________________________________
dropout_792 (Dropout)        (None, 32, 32, 256)       0         
_________________________________________________________________
max_pooling2d_216 (MaxPoolin (None, 16, 16, 256)       0         
_________________________________________________________________
separable_conv2d_571 (Separa (None, 16, 16, 128)       35200     
_________________________________________________________________
batch_normalization_606 (Bat (None, 16, 16, 128)       512       
_________________________________________________________________
activation_793 (Activation)  (None, 16, 16, 128)       0         
_________________________________________________________________
dropout_793 (Dropout)        (None, 16, 16, 128)       0         
_________________________________________________________________
separable_conv2d_572 (Separa (None, 16, 16, 16)        3216      
_________________________________________________________________
activation_794 (Activation)  (None, 16, 16, 16)        0         
_________________________________________________________________
dropout_794 (Dropout)        (None, 16, 16, 16)        0         
_________________________________________________________________
flatten_228 (Flatten)        (None, 4096)              0         
_________________________________________________________________
dense_450 (Dense)            (None, 512)               2097664   
_________________________________________________________________
batch_normalization_607 (Bat (None, 512)               2048      
_________________________________________________________________
activation_795 (Activation)  (None, 512)               0         
_________________________________________________________________
dropout_795 (Dropout)        (None, 512)               0         
_________________________________________________________________
dense_451 (Dense)            (None, 100)               51300     
=================================================================
Total params: 2,192,015
Trainable params: 2,190,223
Non-trainable params: 1,792
_________________________________________________________________
