Model: "sequential_95"
_________________________________________________________________
Layer (type)                 Output Shape              Param #   
=================================================================
separable_conv2d_222 (Separa (None, 32, 32, 512)       2075      
_________________________________________________________________
batch_normalization_208 (Bat (None, 32, 32, 512)       2048      
_________________________________________________________________
activation_299 (Activation)  (None, 32, 32, 512)       0         
_________________________________________________________________
dropout_299 (Dropout)        (None, 32, 32, 512)       0         
_________________________________________________________________
separable_conv2d_223 (Separa (None, 32, 32, 64)        37440     
_________________________________________________________________
batch_normalization_209 (Bat (None, 32, 32, 64)        256       
_________________________________________________________________
activation_300 (Activation)  (None, 32, 32, 64)        0         
_________________________________________________________________
dropout_300 (Dropout)        (None, 32, 32, 64)        0         
_________________________________________________________________
max_pooling2d_70 (MaxPooling (None, 16, 16, 64)        0         
_________________________________________________________________
separable_conv2d_224 (Separa (None, 16, 16, 16)        1616      
_________________________________________________________________
activation_301 (Activation)  (None, 16, 16, 16)        0         
_________________________________________________________________
dropout_301 (Dropout)        (None, 16, 16, 16)        0         
_________________________________________________________________
flatten_95 (Flatten)         (None, 4096)              0         
_________________________________________________________________
dense_172 (Dense)            (None, 256)               1048832   
_________________________________________________________________
batch_normalization_210 (Bat (None, 256)               1024      
_________________________________________________________________
activation_302 (Activation)  (None, 256)               0         
_________________________________________________________________
dropout_302 (Dropout)        (None, 256)               0         
_________________________________________________________________
dense_173 (Dense)            (None, 100)               25700     
=================================================================
Total params: 1,118,991
Trainable params: 1,117,327
Non-trainable params: 1,664
_________________________________________________________________
