Model: "sequential_154"
_________________________________________________________________
Layer (type)                 Output Shape              Param #   
=================================================================
separable_conv2d_371 (Separa (None, 32, 32, 256)       1051      
_________________________________________________________________
batch_normalization_378 (Bat (None, 32, 32, 256)       1024      
_________________________________________________________________
activation_510 (Activation)  (None, 32, 32, 256)       0         
_________________________________________________________________
dropout_510 (Dropout)        (None, 32, 32, 256)       0         
_________________________________________________________________
separable_conv2d_372 (Separa (None, 32, 32, 64)        18752     
_________________________________________________________________
batch_normalization_379 (Bat (None, 32, 32, 64)        256       
_________________________________________________________________
activation_511 (Activation)  (None, 32, 32, 64)        0         
_________________________________________________________________
dropout_511 (Dropout)        (None, 32, 32, 64)        0         
_________________________________________________________________
max_pooling2d_130 (MaxPoolin (None, 16, 16, 64)        0         
_________________________________________________________________
separable_conv2d_373 (Separa (None, 16, 16, 16)        1616      
_________________________________________________________________
activation_512 (Activation)  (None, 16, 16, 16)        0         
_________________________________________________________________
dropout_512 (Dropout)        (None, 16, 16, 16)        0         
_________________________________________________________________
flatten_154 (Flatten)        (None, 4096)              0         
_________________________________________________________________
dense_293 (Dense)            (None, 512)               2097664   
_________________________________________________________________
batch_normalization_380 (Bat (None, 512)               2048      
_________________________________________________________________
activation_513 (Activation)  (None, 512)               0         
_________________________________________________________________
dropout_513 (Dropout)        (None, 512)               0         
_________________________________________________________________
dense_294 (Dense)            (None, 256)               131328    
_________________________________________________________________
batch_normalization_381 (Bat (None, 256)               1024      
_________________________________________________________________
activation_514 (Activation)  (None, 256)               0         
_________________________________________________________________
dropout_514 (Dropout)        (None, 256)               0         
_________________________________________________________________
dense_295 (Dense)            (None, 100)               25700     
=================================================================
Total params: 2,280,463
Trainable params: 2,278,287
Non-trainable params: 2,176
_________________________________________________________________
