Model: "sequential_223"
_________________________________________________________________
Layer (type)                 Output Shape              Param #   
=================================================================
separable_conv2d_556 (Separa (None, 32, 32, 256)       1051      
_________________________________________________________________
batch_normalization_589 (Bat (None, 32, 32, 256)       1024      
_________________________________________________________________
activation_772 (Activation)  (None, 32, 32, 256)       0         
_________________________________________________________________
dropout_772 (Dropout)        (None, 32, 32, 256)       0         
_________________________________________________________________
separable_conv2d_557 (Separa (None, 32, 32, 64)        18752     
_________________________________________________________________
batch_normalization_590 (Bat (None, 32, 32, 64)        256       
_________________________________________________________________
activation_773 (Activation)  (None, 32, 32, 64)        0         
_________________________________________________________________
dropout_773 (Dropout)        (None, 32, 32, 64)        0         
_________________________________________________________________
max_pooling2d_211 (MaxPoolin (None, 16, 16, 64)        0         
_________________________________________________________________
separable_conv2d_558 (Separa (None, 16, 16, 16)        1616      
_________________________________________________________________
activation_774 (Activation)  (None, 16, 16, 16)        0         
_________________________________________________________________
dropout_774 (Dropout)        (None, 16, 16, 16)        0         
_________________________________________________________________
flatten_223 (Flatten)        (None, 4096)              0         
_________________________________________________________________
dense_439 (Dense)            (None, 512)               2097664   
_________________________________________________________________
batch_normalization_591 (Bat (None, 512)               2048      
_________________________________________________________________
activation_775 (Activation)  (None, 512)               0         
_________________________________________________________________
dropout_775 (Dropout)        (None, 512)               0         
_________________________________________________________________
dense_440 (Dense)            (None, 256)               131328    
_________________________________________________________________
batch_normalization_592 (Bat (None, 256)               1024      
_________________________________________________________________
activation_776 (Activation)  (None, 256)               0         
_________________________________________________________________
dropout_776 (Dropout)        (None, 256)               0         
_________________________________________________________________
dense_441 (Dense)            (None, 100)               25700     
=================================================================
Total params: 2,280,463
Trainable params: 2,278,287
Non-trainable params: 2,176
_________________________________________________________________
