Model: "sequential_446"
_________________________________________________________________
Layer (type)                 Output Shape              Param #   
=================================================================
separable_conv2d_1190 (Separ (None, 32, 32, 512)       2075      
_________________________________________________________________
batch_normalization_1245 (Ba (None, 32, 32, 512)       2048      
_________________________________________________________________
activation_1682 (Activation) (None, 32, 32, 512)       0         
_________________________________________________________________
dropout_1682 (Dropout)       (None, 32, 32, 512)       0         
_________________________________________________________________
max_pooling2d_479 (MaxPoolin (None, 16, 16, 512)       0         
_________________________________________________________________
separable_conv2d_1191 (Separ (None, 16, 16, 64)        37440     
_________________________________________________________________
batch_normalization_1246 (Ba (None, 16, 16, 64)        256       
_________________________________________________________________
activation_1683 (Activation) (None, 16, 16, 64)        0         
_________________________________________________________________
dropout_1683 (Dropout)       (None, 16, 16, 64)        0         
_________________________________________________________________
max_pooling2d_480 (MaxPoolin (None, 8, 8, 64)          0         
_________________________________________________________________
separable_conv2d_1192 (Separ (None, 8, 8, 16)          1616      
_________________________________________________________________
activation_1684 (Activation) (None, 8, 8, 16)          0         
_________________________________________________________________
dropout_1684 (Dropout)       (None, 8, 8, 16)          0         
_________________________________________________________________
flatten_446 (Flatten)        (None, 1024)              0         
_________________________________________________________________
dense_938 (Dense)            (None, 512)               524800    
_________________________________________________________________
batch_normalization_1247 (Ba (None, 512)               2048      
_________________________________________________________________
activation_1685 (Activation) (None, 512)               0         
_________________________________________________________________
dropout_1685 (Dropout)       (None, 512)               0         
_________________________________________________________________
dense_939 (Dense)            (None, 256)               131328    
_________________________________________________________________
batch_normalization_1248 (Ba (None, 256)               1024      
_________________________________________________________________
activation_1686 (Activation) (None, 256)               0         
_________________________________________________________________
dropout_1686 (Dropout)       (None, 256)               0         
_________________________________________________________________
dense_940 (Dense)            (None, 100)               25700     
=================================================================
Total params: 728,335
Trainable params: 725,647
Non-trainable params: 2,688
_________________________________________________________________
