Model: "sequential_73"
_________________________________________________________________
Layer (type)                 Output Shape              Param #   
=================================================================
separable_conv2d_173 (Separa (None, 32, 32, 32)        155       
_________________________________________________________________
activation_234 (Activation)  (None, 32, 32, 32)        0         
_________________________________________________________________
dropout_234 (Dropout)        (None, 32, 32, 32)        0         
_________________________________________________________________
separable_conv2d_174 (Separa (None, 32, 32, 16)        816       
_________________________________________________________________
activation_235 (Activation)  (None, 32, 32, 16)        0         
_________________________________________________________________
dropout_235 (Dropout)        (None, 32, 32, 16)        0         
_________________________________________________________________
flatten_73 (Flatten)         (None, 16384)             0         
_________________________________________________________________
dense_134 (Dense)            (None, 100)               1638500   
=================================================================
Total params: 1,639,471
Trainable params: 1,639,471
Non-trainable params: 0
_________________________________________________________________
