Model: "sequential_508"
_________________________________________________________________
Layer (type)                 Output Shape              Param #   
=================================================================
separable_conv2d_1371 (Separ (None, 32, 32, 256)       1051      
_________________________________________________________________
batch_normalization_1446 (Ba (None, 32, 32, 256)       1024      
_________________________________________________________________
activation_1970 (Activation) (None, 32, 32, 256)       0         
_________________________________________________________________
dropout_1970 (Dropout)       (None, 32, 32, 256)       0         
_________________________________________________________________
max_pooling2d_544 (MaxPoolin (None, 16, 16, 256)       0         
_________________________________________________________________
separable_conv2d_1372 (Separ (None, 16, 16, 128)       35200     
_________________________________________________________________
batch_normalization_1447 (Ba (None, 16, 16, 128)       512       
_________________________________________________________________
activation_1971 (Activation) (None, 16, 16, 128)       0         
_________________________________________________________________
dropout_1971 (Dropout)       (None, 16, 16, 128)       0         
_________________________________________________________________
separable_conv2d_1373 (Separ (None, 16, 16, 16)        3216      
_________________________________________________________________
batch_normalization_1448 (Ba (None, 16, 16, 16)        64        
_________________________________________________________________
activation_1972 (Activation) (None, 16, 16, 16)        0         
_________________________________________________________________
dropout_1972 (Dropout)       (None, 16, 16, 16)        0         
_________________________________________________________________
flatten_508 (Flatten)        (None, 4096)              0         
_________________________________________________________________
dense_1107 (Dense)           (None, 128)               524416    
_________________________________________________________________
batch_normalization_1449 (Ba (None, 128)               512       
_________________________________________________________________
activation_1973 (Activation) (None, 128)               0         
_________________________________________________________________
dropout_1973 (Dropout)       (None, 128)               0         
_________________________________________________________________
dense_1108 (Dense)           (None, 100)               12900     
=================================================================
Total params: 578,895
Trainable params: 577,839
Non-trainable params: 1,056
_________________________________________________________________
