Model: "sequential_115"
_________________________________________________________________
Layer (type)                 Output Shape              Param #   
=================================================================
separable_conv2d_270 (Separa (None, 32, 32, 256)       1051      
_________________________________________________________________
batch_normalization_263 (Bat (None, 32, 32, 256)       1024      
_________________________________________________________________
activation_367 (Activation)  (None, 32, 32, 256)       0         
_________________________________________________________________
dropout_367 (Dropout)        (None, 32, 32, 256)       0         
_________________________________________________________________
max_pooling2d_87 (MaxPooling (None, 16, 16, 256)       0         
_________________________________________________________________
separable_conv2d_271 (Separa (None, 16, 16, 8)         4360      
_________________________________________________________________
batch_normalization_264 (Bat (None, 16, 16, 8)         32        
_________________________________________________________________
activation_368 (Activation)  (None, 16, 16, 8)         0         
_________________________________________________________________
dropout_368 (Dropout)        (None, 16, 16, 8)         0         
_________________________________________________________________
flatten_115 (Flatten)        (None, 2048)              0         
_________________________________________________________________
dense_212 (Dense)            (None, 100)               204900    
=================================================================
Total params: 211,367
Trainable params: 210,839
Non-trainable params: 528
_________________________________________________________________
