Model: "sequential_147"
_________________________________________________________________
Layer (type)                 Output Shape              Param #   
=================================================================
separable_conv2d_350 (Separa (None, 32, 32, 512)       2075      
_________________________________________________________________
batch_normalization_355 (Bat (None, 32, 32, 512)       2048      
_________________________________________________________________
activation_480 (Activation)  (None, 32, 32, 512)       0         
_________________________________________________________________
dropout_480 (Dropout)        (None, 32, 32, 512)       0         
_________________________________________________________________
separable_conv2d_351 (Separa (None, 32, 32, 64)        37440     
_________________________________________________________________
batch_normalization_356 (Bat (None, 32, 32, 64)        256       
_________________________________________________________________
activation_481 (Activation)  (None, 32, 32, 64)        0         
_________________________________________________________________
dropout_481 (Dropout)        (None, 32, 32, 64)        0         
_________________________________________________________________
max_pooling2d_122 (MaxPoolin (None, 16, 16, 64)        0         
_________________________________________________________________
separable_conv2d_352 (Separa (None, 16, 16, 16)        1616      
_________________________________________________________________
activation_482 (Activation)  (None, 16, 16, 16)        0         
_________________________________________________________________
dropout_482 (Dropout)        (None, 16, 16, 16)        0         
_________________________________________________________________
flatten_147 (Flatten)        (None, 4096)              0         
_________________________________________________________________
dense_277 (Dense)            (None, 512)               2097664   
_________________________________________________________________
batch_normalization_357 (Bat (None, 512)               2048      
_________________________________________________________________
activation_483 (Activation)  (None, 512)               0         
_________________________________________________________________
dropout_483 (Dropout)        (None, 512)               0         
_________________________________________________________________
dense_278 (Dense)            (None, 256)               131328    
_________________________________________________________________
batch_normalization_358 (Bat (None, 256)               1024      
_________________________________________________________________
activation_484 (Activation)  (None, 256)               0         
_________________________________________________________________
dropout_484 (Dropout)        (None, 256)               0         
_________________________________________________________________
dense_279 (Dense)            (None, 100)               25700     
=================================================================
Total params: 2,301,199
Trainable params: 2,298,511
Non-trainable params: 2,688
_________________________________________________________________
