Model: "sequential_495"
_________________________________________________________________
Layer (type)                 Output Shape              Param #   
=================================================================
separable_conv2d_1332 (Separ (None, 32, 32, 512)       2075      
_________________________________________________________________
batch_normalization_1399 (Ba (None, 32, 32, 512)       2048      
_________________________________________________________________
activation_1908 (Activation) (None, 32, 32, 512)       0         
_________________________________________________________________
dropout_1908 (Dropout)       (None, 32, 32, 512)       0         
_________________________________________________________________
max_pooling2d_529 (MaxPoolin (None, 16, 16, 512)       0         
_________________________________________________________________
separable_conv2d_1333 (Separ (None, 16, 16, 64)        37440     
_________________________________________________________________
batch_normalization_1400 (Ba (None, 16, 16, 64)        256       
_________________________________________________________________
activation_1909 (Activation) (None, 16, 16, 64)        0         
_________________________________________________________________
dropout_1909 (Dropout)       (None, 16, 16, 64)        0         
_________________________________________________________________
max_pooling2d_530 (MaxPoolin (None, 8, 8, 64)          0         
_________________________________________________________________
separable_conv2d_1334 (Separ (None, 8, 8, 1024)        67136     
_________________________________________________________________
activation_1910 (Activation) (None, 8, 8, 1024)        0         
_________________________________________________________________
dropout_1910 (Dropout)       (None, 8, 8, 1024)        0         
_________________________________________________________________
flatten_495 (Flatten)        (None, 65536)             0         
_________________________________________________________________
dense_1071 (Dense)           (None, 512)               33554944  
_________________________________________________________________
batch_normalization_1401 (Ba (None, 512)               2048      
_________________________________________________________________
activation_1911 (Activation) (None, 512)               0         
_________________________________________________________________
dropout_1911 (Dropout)       (None, 512)               0         
_________________________________________________________________
dense_1072 (Dense)           (None, 256)               131328    
_________________________________________________________________
batch_normalization_1402 (Ba (None, 256)               1024      
_________________________________________________________________
activation_1912 (Activation) (None, 256)               0         
_________________________________________________________________
dropout_1912 (Dropout)       (None, 256)               0         
_________________________________________________________________
dense_1073 (Dense)           (None, 100)               25700     
=================================================================
Total params: 33,823,999
Trainable params: 33,821,311
Non-trainable params: 2,688
_________________________________________________________________
