Model: "sequential_172"
_________________________________________________________________
Layer (type)                 Output Shape              Param #   
=================================================================
separable_conv2d_417 (Separa (None, 32, 32, 256)       1051      
_________________________________________________________________
batch_normalization_434 (Bat (None, 32, 32, 256)       1024      
_________________________________________________________________
activation_577 (Activation)  (None, 32, 32, 256)       0         
_________________________________________________________________
dropout_577 (Dropout)        (None, 32, 32, 256)       0         
_________________________________________________________________
separable_conv2d_418 (Separa (None, 32, 32, 64)        18752     
_________________________________________________________________
batch_normalization_435 (Bat (None, 32, 32, 64)        256       
_________________________________________________________________
activation_578 (Activation)  (None, 32, 32, 64)        0         
_________________________________________________________________
dropout_578 (Dropout)        (None, 32, 32, 64)        0         
_________________________________________________________________
max_pooling2d_149 (MaxPoolin (None, 16, 16, 64)        0         
_________________________________________________________________
separable_conv2d_419 (Separa (None, 16, 16, 16)        1616      
_________________________________________________________________
activation_579 (Activation)  (None, 16, 16, 16)        0         
_________________________________________________________________
dropout_579 (Dropout)        (None, 16, 16, 16)        0         
_________________________________________________________________
flatten_172 (Flatten)        (None, 4096)              0         
_________________________________________________________________
dense_332 (Dense)            (None, 512)               2097664   
_________________________________________________________________
batch_normalization_436 (Bat (None, 512)               2048      
_________________________________________________________________
activation_580 (Activation)  (None, 512)               0         
_________________________________________________________________
dropout_580 (Dropout)        (None, 512)               0         
_________________________________________________________________
dense_333 (Dense)            (None, 256)               131328    
_________________________________________________________________
batch_normalization_437 (Bat (None, 256)               1024      
_________________________________________________________________
activation_581 (Activation)  (None, 256)               0         
_________________________________________________________________
dropout_581 (Dropout)        (None, 256)               0         
_________________________________________________________________
dense_334 (Dense)            (None, 100)               25700     
=================================================================
Total params: 2,280,463
Trainable params: 2,278,287
Non-trainable params: 2,176
_________________________________________________________________
