Model: "sequential_425"
_________________________________________________________________
Layer (type)                 Output Shape              Param #   
=================================================================
separable_conv2d_1129 (Separ (None, 32, 32, 512)       2075      
_________________________________________________________________
batch_normalization_1179 (Ba (None, 32, 32, 512)       2048      
_________________________________________________________________
activation_1586 (Activation) (None, 32, 32, 512)       0         
_________________________________________________________________
dropout_1586 (Dropout)       (None, 32, 32, 512)       0         
_________________________________________________________________
max_pooling2d_454 (MaxPoolin (None, 16, 16, 512)       0         
_________________________________________________________________
separable_conv2d_1130 (Separ (None, 16, 16, 128)       70272     
_________________________________________________________________
batch_normalization_1180 (Ba (None, 16, 16, 128)       512       
_________________________________________________________________
activation_1587 (Activation) (None, 16, 16, 128)       0         
_________________________________________________________________
dropout_1587 (Dropout)       (None, 16, 16, 128)       0         
_________________________________________________________________
separable_conv2d_1131 (Separ (None, 16, 16, 16)        3216      
_________________________________________________________________
activation_1588 (Activation) (None, 16, 16, 16)        0         
_________________________________________________________________
dropout_1588 (Dropout)       (None, 16, 16, 16)        0         
_________________________________________________________________
flatten_425 (Flatten)        (None, 4096)              0         
_________________________________________________________________
dense_882 (Dense)            (None, 256)               1048832   
_________________________________________________________________
batch_normalization_1181 (Ba (None, 256)               1024      
_________________________________________________________________
activation_1589 (Activation) (None, 256)               0         
_________________________________________________________________
dropout_1589 (Dropout)       (None, 256)               0         
_________________________________________________________________
dense_883 (Dense)            (None, 100)               25700     
=================================================================
Total params: 1,153,679
Trainable params: 1,151,887
Non-trainable params: 1,792
_________________________________________________________________
