Model: "sequential_271"
_________________________________________________________________
Layer (type)                 Output Shape              Param #   
=================================================================
separable_conv2d_688 (Separa (None, 32, 32, 512)       2075      
_________________________________________________________________
batch_normalization_744 (Bat (None, 32, 32, 512)       2048      
_________________________________________________________________
activation_964 (Activation)  (None, 32, 32, 512)       0         
_________________________________________________________________
dropout_964 (Dropout)        (None, 32, 32, 512)       0         
_________________________________________________________________
separable_conv2d_689 (Separa (None, 32, 32, 128)       70272     
_________________________________________________________________
batch_normalization_745 (Bat (None, 32, 32, 128)       512       
_________________________________________________________________
activation_965 (Activation)  (None, 32, 32, 128)       0         
_________________________________________________________________
dropout_965 (Dropout)        (None, 32, 32, 128)       0         
_________________________________________________________________
max_pooling2d_268 (MaxPoolin (None, 16, 16, 128)       0         
_________________________________________________________________
separable_conv2d_690 (Separa (None, 16, 16, 16)        3216      
_________________________________________________________________
activation_966 (Activation)  (None, 16, 16, 16)        0         
_________________________________________________________________
dropout_966 (Dropout)        (None, 16, 16, 16)        0         
_________________________________________________________________
separable_conv2d_691 (Separa (None, 16, 16, 128)       2320      
_________________________________________________________________
activation_967 (Activation)  (None, 16, 16, 128)       0         
_________________________________________________________________
dropout_967 (Dropout)        (None, 16, 16, 128)       0         
_________________________________________________________________
flatten_271 (Flatten)        (None, 32768)             0         
_________________________________________________________________
dense_547 (Dense)            (None, 128)               4194432   
_________________________________________________________________
batch_normalization_746 (Bat (None, 128)               512       
_________________________________________________________________
activation_968 (Activation)  (None, 128)               0         
_________________________________________________________________
dropout_968 (Dropout)        (None, 128)               0         
_________________________________________________________________
dense_548 (Dense)            (None, 100)               12900     
=================================================================
Total params: 4,288,287
Trainable params: 4,286,751
Non-trainable params: 1,536
_________________________________________________________________
