Model: "sequential_430"
_________________________________________________________________
Layer (type)                 Output Shape              Param #   
=================================================================
separable_conv2d_1144 (Separ (None, 32, 32, 64)        283       
_________________________________________________________________
batch_normalization_1195 (Ba (None, 32, 32, 64)        256       
_________________________________________________________________
activation_1610 (Activation) (None, 32, 32, 64)        0         
_________________________________________________________________
dropout_1610 (Dropout)       (None, 32, 32, 64)        0         
_________________________________________________________________
separable_conv2d_1145 (Separ (None, 32, 32, 128)       8896      
_________________________________________________________________
batch_normalization_1196 (Ba (None, 32, 32, 128)       512       
_________________________________________________________________
activation_1611 (Activation) (None, 32, 32, 128)       0         
_________________________________________________________________
dropout_1611 (Dropout)       (None, 32, 32, 128)       0         
_________________________________________________________________
separable_conv2d_1146 (Separ (None, 32, 32, 1024)      133248    
_________________________________________________________________
activation_1612 (Activation) (None, 32, 32, 1024)      0         
_________________________________________________________________
dropout_1612 (Dropout)       (None, 32, 32, 1024)      0         
_________________________________________________________________
flatten_430 (Flatten)        (None, 1048576)           0         
_________________________________________________________________
dense_896 (Dense)            (None, 512)               536871424 
_________________________________________________________________
batch_normalization_1197 (Ba (None, 512)               2048      
_________________________________________________________________
activation_1613 (Activation) (None, 512)               0         
_________________________________________________________________
dropout_1613 (Dropout)       (None, 512)               0         
_________________________________________________________________
dense_897 (Dense)            (None, 256)               131328    
_________________________________________________________________
batch_normalization_1198 (Ba (None, 256)               1024      
_________________________________________________________________
activation_1614 (Activation) (None, 256)               0         
_________________________________________________________________
dropout_1614 (Dropout)       (None, 256)               0         
_________________________________________________________________
dense_898 (Dense)            (None, 100)               25700     
=================================================================
Total params: 537,174,719
Trainable params: 537,172,799
Non-trainable params: 1,920
_________________________________________________________________
