Model: "sequential_570"
_________________________________________________________________
Layer (type)                 Output Shape              Param #   
=================================================================
separable_conv2d_1555 (Separ (None, 32, 32, 256)       1051      
_________________________________________________________________
batch_normalization_1652 (Ba (None, 32, 32, 256)       1024      
_________________________________________________________________
activation_2250 (Activation) (None, 32, 32, 256)       0         
_________________________________________________________________
dropout_2250 (Dropout)       (None, 32, 32, 256)       0         
_________________________________________________________________
max_pooling2d_600 (MaxPoolin (None, 16, 16, 256)       0         
_________________________________________________________________
separable_conv2d_1556 (Separ (None, 16, 16, 128)       35200     
_________________________________________________________________
batch_normalization_1653 (Ba (None, 16, 16, 128)       512       
_________________________________________________________________
activation_2251 (Activation) (None, 16, 16, 128)       0         
_________________________________________________________________
dropout_2251 (Dropout)       (None, 16, 16, 128)       0         
_________________________________________________________________
separable_conv2d_1557 (Separ (None, 16, 16, 16)        3216      
_________________________________________________________________
activation_2252 (Activation) (None, 16, 16, 16)        0         
_________________________________________________________________
dropout_2252 (Dropout)       (None, 16, 16, 16)        0         
_________________________________________________________________
flatten_570 (Flatten)        (None, 4096)              0         
_________________________________________________________________
dense_1265 (Dense)           (None, 32)                131104    
_________________________________________________________________
batch_normalization_1654 (Ba (None, 32)                128       
_________________________________________________________________
activation_2253 (Activation) (None, 32)                0         
_________________________________________________________________
dropout_2253 (Dropout)       (None, 32)                0         
_________________________________________________________________
dense_1266 (Dense)           (None, 256)               8448      
_________________________________________________________________
batch_normalization_1655 (Ba (None, 256)               1024      
_________________________________________________________________
activation_2254 (Activation) (None, 256)               0         
_________________________________________________________________
dropout_2254 (Dropout)       (None, 256)               0         
_________________________________________________________________
dense_1267 (Dense)           (None, 100)               25700     
=================================================================
Total params: 207,407
Trainable params: 206,063
Non-trainable params: 1,344
_________________________________________________________________
