Model: "sequential_240"
_________________________________________________________________
Layer (type)                 Output Shape              Param #   
=================================================================
separable_conv2d_604 (Separa (None, 32, 32, 256)       1051      
_________________________________________________________________
batch_normalization_646 (Bat (None, 32, 32, 256)       1024      
_________________________________________________________________
activation_844 (Activation)  (None, 32, 32, 256)       0         
_________________________________________________________________
dropout_844 (Dropout)        (None, 32, 32, 256)       0         
_________________________________________________________________
max_pooling2d_232 (MaxPoolin (None, 16, 16, 256)       0         
_________________________________________________________________
separable_conv2d_605 (Separa (None, 16, 16, 128)       35200     
_________________________________________________________________
batch_normalization_647 (Bat (None, 16, 16, 128)       512       
_________________________________________________________________
activation_845 (Activation)  (None, 16, 16, 128)       0         
_________________________________________________________________
dropout_845 (Dropout)        (None, 16, 16, 128)       0         
_________________________________________________________________
separable_conv2d_606 (Separa (None, 16, 16, 16)        3216      
_________________________________________________________________
activation_846 (Activation)  (None, 16, 16, 16)        0         
_________________________________________________________________
dropout_846 (Dropout)        (None, 16, 16, 16)        0         
_________________________________________________________________
flatten_240 (Flatten)        (None, 4096)              0         
_________________________________________________________________
dense_480 (Dense)            (None, 512)               2097664   
_________________________________________________________________
batch_normalization_648 (Bat (None, 512)               2048      
_________________________________________________________________
activation_847 (Activation)  (None, 512)               0         
_________________________________________________________________
dropout_847 (Dropout)        (None, 512)               0         
_________________________________________________________________
dense_481 (Dense)            (None, 100)               51300     
=================================================================
Total params: 2,192,015
Trainable params: 2,190,223
Non-trainable params: 1,792
_________________________________________________________________
