Model: "sequential_225"
_________________________________________________________________
Layer (type)                 Output Shape              Param #   
=================================================================
separable_conv2d_561 (Separa (None, 32, 32, 256)       1051      
_________________________________________________________________
batch_normalization_596 (Bat (None, 32, 32, 256)       1024      
_________________________________________________________________
activation_780 (Activation)  (None, 32, 32, 256)       0         
_________________________________________________________________
dropout_780 (Dropout)        (None, 32, 32, 256)       0         
_________________________________________________________________
max_pooling2d_213 (MaxPoolin (None, 16, 16, 256)       0         
_________________________________________________________________
separable_conv2d_562 (Separa (None, 16, 16, 128)       35200     
_________________________________________________________________
batch_normalization_597 (Bat (None, 16, 16, 128)       512       
_________________________________________________________________
activation_781 (Activation)  (None, 16, 16, 128)       0         
_________________________________________________________________
dropout_781 (Dropout)        (None, 16, 16, 128)       0         
_________________________________________________________________
separable_conv2d_563 (Separa (None, 16, 16, 16)        3216      
_________________________________________________________________
activation_782 (Activation)  (None, 16, 16, 16)        0         
_________________________________________________________________
dropout_782 (Dropout)        (None, 16, 16, 16)        0         
_________________________________________________________________
flatten_225 (Flatten)        (None, 4096)              0         
_________________________________________________________________
dense_444 (Dense)            (None, 128)               524416    
_________________________________________________________________
batch_normalization_598 (Bat (None, 128)               512       
_________________________________________________________________
activation_783 (Activation)  (None, 128)               0         
_________________________________________________________________
dropout_783 (Dropout)        (None, 128)               0         
_________________________________________________________________
dense_445 (Dense)            (None, 100)               12900     
=================================================================
Total params: 578,831
Trainable params: 577,807
Non-trainable params: 1,024
_________________________________________________________________
