Model: "sequential_203"
_________________________________________________________________
Layer (type)                 Output Shape              Param #   
=================================================================
separable_conv2d_500 (Separa (None, 32, 32, 512)       2075      
_________________________________________________________________
batch_normalization_526 (Bat (None, 32, 32, 512)       2048      
_________________________________________________________________
activation_693 (Activation)  (None, 32, 32, 512)       0         
_________________________________________________________________
dropout_693 (Dropout)        (None, 32, 32, 512)       0         
_________________________________________________________________
separable_conv2d_501 (Separa (None, 32, 32, 64)        37440     
_________________________________________________________________
batch_normalization_527 (Bat (None, 32, 32, 64)        256       
_________________________________________________________________
activation_694 (Activation)  (None, 32, 32, 64)        0         
_________________________________________________________________
dropout_694 (Dropout)        (None, 32, 32, 64)        0         
_________________________________________________________________
max_pooling2d_185 (MaxPoolin (None, 16, 16, 64)        0         
_________________________________________________________________
separable_conv2d_502 (Separa (None, 16, 16, 16)        1616      
_________________________________________________________________
activation_695 (Activation)  (None, 16, 16, 16)        0         
_________________________________________________________________
dropout_695 (Dropout)        (None, 16, 16, 16)        0         
_________________________________________________________________
flatten_203 (Flatten)        (None, 4096)              0         
_________________________________________________________________
dense_396 (Dense)            (None, 128)               524416    
_________________________________________________________________
batch_normalization_528 (Bat (None, 128)               512       
_________________________________________________________________
activation_696 (Activation)  (None, 128)               0         
_________________________________________________________________
dropout_696 (Dropout)        (None, 128)               0         
_________________________________________________________________
dense_397 (Dense)            (None, 256)               33024     
_________________________________________________________________
batch_normalization_529 (Bat (None, 256)               1024      
_________________________________________________________________
activation_697 (Activation)  (None, 256)               0         
_________________________________________________________________
dropout_697 (Dropout)        (None, 256)               0         
_________________________________________________________________
dense_398 (Dense)            (None, 100)               25700     
=================================================================
Total params: 628,111
Trainable params: 626,191
Non-trainable params: 1,920
_________________________________________________________________
