Model: "sequential_51"
_________________________________________________________________
Layer (type)                 Output Shape              Param #   
=================================================================
separable_conv2d_122 (Separa (None, 32, 32, 512)       2075      
_________________________________________________________________
activation_168 (Activation)  (None, 32, 32, 512)       0         
_________________________________________________________________
dropout_168 (Dropout)        (None, 32, 32, 512)       0         
_________________________________________________________________
flatten_51 (Flatten)         (None, 524288)            0         
_________________________________________________________________
dense_97 (Dense)             (None, 256)               134217984 
_________________________________________________________________
batch_normalization_105 (Bat (None, 256)               1024      
_________________________________________________________________
activation_169 (Activation)  (None, 256)               0         
_________________________________________________________________
dropout_169 (Dropout)        (None, 256)               0         
_________________________________________________________________
dense_98 (Dense)             (None, 100)               25700     
=================================================================
Total params: 134,246,783
Trainable params: 134,246,271
Non-trainable params: 512
_________________________________________________________________
