Model: "sequential_230"
_________________________________________________________________
Layer (type)                 Output Shape              Param #   
=================================================================
separable_conv2d_576 (Separa (None, 32, 32, 512)       2075      
_________________________________________________________________
batch_normalization_612 (Bat (None, 32, 32, 512)       2048      
_________________________________________________________________
activation_801 (Activation)  (None, 32, 32, 512)       0         
_________________________________________________________________
dropout_801 (Dropout)        (None, 32, 32, 512)       0         
_________________________________________________________________
max_pooling2d_218 (MaxPoolin (None, 16, 16, 512)       0         
_________________________________________________________________
separable_conv2d_577 (Separa (None, 16, 16, 128)       70272     
_________________________________________________________________
batch_normalization_613 (Bat (None, 16, 16, 128)       512       
_________________________________________________________________
activation_802 (Activation)  (None, 16, 16, 128)       0         
_________________________________________________________________
dropout_802 (Dropout)        (None, 16, 16, 128)       0         
_________________________________________________________________
flatten_230 (Flatten)        (None, 32768)             0         
_________________________________________________________________
dense_455 (Dense)            (None, 512)               16777728  
_________________________________________________________________
batch_normalization_614 (Bat (None, 512)               2048      
_________________________________________________________________
activation_803 (Activation)  (None, 512)               0         
_________________________________________________________________
dropout_803 (Dropout)        (None, 512)               0         
_________________________________________________________________
dense_456 (Dense)            (None, 256)               131328    
_________________________________________________________________
batch_normalization_615 (Bat (None, 256)               1024      
_________________________________________________________________
activation_804 (Activation)  (None, 256)               0         
_________________________________________________________________
dropout_804 (Dropout)        (None, 256)               0         
_________________________________________________________________
dense_457 (Dense)            (None, 100)               25700     
=================================================================
Total params: 17,012,735
Trainable params: 17,009,919
Non-trainable params: 2,816
_________________________________________________________________
