Model: "sequential_79"
_________________________________________________________________
Layer (type)                 Output Shape              Param #   
=================================================================
separable_conv2d_184 (Separa (None, 32, 32, 8)         59        
_________________________________________________________________
batch_normalization_168 (Bat (None, 32, 32, 8)         32        
_________________________________________________________________
activation_250 (Activation)  (None, 32, 32, 8)         0         
_________________________________________________________________
dropout_250 (Dropout)        (None, 32, 32, 8)         0         
_________________________________________________________________
separable_conv2d_185 (Separa (None, 32, 32, 64)        648       
_________________________________________________________________
batch_normalization_169 (Bat (None, 32, 32, 64)        256       
_________________________________________________________________
activation_251 (Activation)  (None, 32, 32, 64)        0         
_________________________________________________________________
dropout_251 (Dropout)        (None, 32, 32, 64)        0         
_________________________________________________________________
max_pooling2d_57 (MaxPooling (None, 16, 16, 64)        0         
_________________________________________________________________
separable_conv2d_186 (Separa (None, 16, 16, 16)        1616      
_________________________________________________________________
activation_252 (Activation)  (None, 16, 16, 16)        0         
_________________________________________________________________
dropout_252 (Dropout)        (None, 16, 16, 16)        0         
_________________________________________________________________
flatten_79 (Flatten)         (None, 4096)              0         
_________________________________________________________________
dense_145 (Dense)            (None, 100)               409700    
=================================================================
Total params: 412,311
Trainable params: 412,167
Non-trainable params: 144
_________________________________________________________________
