Model: "sequential_54"
_________________________________________________________________
Layer (type)                 Output Shape              Param #   
=================================================================
separable_conv2d_129 (Separa (None, 32, 32, 512)       2075      
_________________________________________________________________
activation_176 (Activation)  (None, 32, 32, 512)       0         
_________________________________________________________________
dropout_176 (Dropout)        (None, 32, 32, 512)       0         
_________________________________________________________________
separable_conv2d_130 (Separa (None, 32, 32, 64)        37440     
_________________________________________________________________
batch_normalization_111 (Bat (None, 32, 32, 64)        256       
_________________________________________________________________
activation_177 (Activation)  (None, 32, 32, 64)        0         
_________________________________________________________________
dropout_177 (Dropout)        (None, 32, 32, 64)        0         
_________________________________________________________________
max_pooling2d_41 (MaxPooling (None, 16, 16, 64)        0         
_________________________________________________________________
separable_conv2d_131 (Separa (None, 16, 16, 16)        1616      
_________________________________________________________________
activation_178 (Activation)  (None, 16, 16, 16)        0         
_________________________________________________________________
dropout_178 (Dropout)        (None, 16, 16, 16)        0         
_________________________________________________________________
flatten_54 (Flatten)         (None, 4096)              0         
_________________________________________________________________
dense_101 (Dense)            (None, 128)               524416    
_________________________________________________________________
batch_normalization_112 (Bat (None, 128)               512       
_________________________________________________________________
activation_179 (Activation)  (None, 128)               0         
_________________________________________________________________
dropout_179 (Dropout)        (None, 128)               0         
_________________________________________________________________
dense_102 (Dense)            (None, 100)               12900     
=================================================================
Total params: 579,215
Trainable params: 578,831
Non-trainable params: 384
_________________________________________________________________
