Model: "sequential_106"
_________________________________________________________________
Layer (type)                 Output Shape              Param #   
=================================================================
separable_conv2d_248 (Separa (None, 32, 32, 256)       1051      
_________________________________________________________________
batch_normalization_239 (Bat (None, 32, 32, 256)       1024      
_________________________________________________________________
activation_338 (Activation)  (None, 32, 32, 256)       0         
_________________________________________________________________
dropout_338 (Dropout)        (None, 32, 32, 256)       0         
_________________________________________________________________
separable_conv2d_249 (Separa (None, 32, 32, 64)        18752     
_________________________________________________________________
batch_normalization_240 (Bat (None, 32, 32, 64)        256       
_________________________________________________________________
activation_339 (Activation)  (None, 32, 32, 64)        0         
_________________________________________________________________
dropout_339 (Dropout)        (None, 32, 32, 64)        0         
_________________________________________________________________
max_pooling2d_79 (MaxPooling (None, 16, 16, 64)        0         
_________________________________________________________________
separable_conv2d_250 (Separa (None, 16, 16, 16)        1616      
_________________________________________________________________
activation_340 (Activation)  (None, 16, 16, 16)        0         
_________________________________________________________________
dropout_340 (Dropout)        (None, 16, 16, 16)        0         
_________________________________________________________________
flatten_106 (Flatten)        (None, 4096)              0         
_________________________________________________________________
dense_196 (Dense)            (None, 512)               2097664   
_________________________________________________________________
batch_normalization_241 (Bat (None, 512)               2048      
_________________________________________________________________
activation_341 (Activation)  (None, 512)               0         
_________________________________________________________________
dropout_341 (Dropout)        (None, 512)               0         
_________________________________________________________________
dense_197 (Dense)            (None, 256)               131328    
_________________________________________________________________
batch_normalization_242 (Bat (None, 256)               1024      
_________________________________________________________________
activation_342 (Activation)  (None, 256)               0         
_________________________________________________________________
dropout_342 (Dropout)        (None, 256)               0         
_________________________________________________________________
dense_198 (Dense)            (None, 100)               25700     
=================================================================
Total params: 2,280,463
Trainable params: 2,278,287
Non-trainable params: 2,176
_________________________________________________________________
