Model: "sequential_568"
_________________________________________________________________
Layer (type)                 Output Shape              Param #   
=================================================================
separable_conv2d_1549 (Separ (None, 32, 32, 256)       1051      
_________________________________________________________________
batch_normalization_1647 (Ba (None, 32, 32, 256)       1024      
_________________________________________________________________
activation_2242 (Activation) (None, 32, 32, 256)       0         
_________________________________________________________________
dropout_2242 (Dropout)       (None, 32, 32, 256)       0         
_________________________________________________________________
max_pooling2d_598 (MaxPoolin (None, 16, 16, 256)       0         
_________________________________________________________________
separable_conv2d_1550 (Separ (None, 16, 16, 64)        18752     
_________________________________________________________________
activation_2243 (Activation) (None, 16, 16, 64)        0         
_________________________________________________________________
dropout_2243 (Dropout)       (None, 16, 16, 64)        0         
_________________________________________________________________
separable_conv2d_1551 (Separ (None, 16, 16, 16)        1616      
_________________________________________________________________
activation_2244 (Activation) (None, 16, 16, 16)        0         
_________________________________________________________________
dropout_2244 (Dropout)       (None, 16, 16, 16)        0         
_________________________________________________________________
flatten_568 (Flatten)        (None, 4096)              0         
_________________________________________________________________
dense_1261 (Dense)           (None, 2048)              8390656   
_________________________________________________________________
batch_normalization_1648 (Ba (None, 2048)              8192      
_________________________________________________________________
activation_2245 (Activation) (None, 2048)              0         
_________________________________________________________________
dropout_2245 (Dropout)       (None, 2048)              0         
_________________________________________________________________
dense_1262 (Dense)           (None, 100)               204900    
=================================================================
Total params: 8,626,191
Trainable params: 8,621,583
Non-trainable params: 4,608
_________________________________________________________________
