Model: "sequential_356"
_________________________________________________________________
Layer (type)                 Output Shape              Param #   
=================================================================
separable_conv2d_930 (Separa (None, 32, 32, 512)       2075      
_________________________________________________________________
batch_normalization_988 (Bat (None, 32, 32, 512)       2048      
_________________________________________________________________
activation_1296 (Activation) (None, 32, 32, 512)       0         
_________________________________________________________________
dropout_1296 (Dropout)       (None, 32, 32, 512)       0         
_________________________________________________________________
max_pooling2d_370 (MaxPoolin (None, 16, 16, 512)       0         
_________________________________________________________________
separable_conv2d_931 (Separa (None, 16, 16, 64)        37440     
_________________________________________________________________
activation_1297 (Activation) (None, 16, 16, 64)        0         
_________________________________________________________________
dropout_1297 (Dropout)       (None, 16, 16, 64)        0         
_________________________________________________________________
max_pooling2d_371 (MaxPoolin (None, 8, 8, 64)          0         
_________________________________________________________________
separable_conv2d_932 (Separa (None, 8, 8, 16)          1616      
_________________________________________________________________
activation_1298 (Activation) (None, 8, 8, 16)          0         
_________________________________________________________________
dropout_1298 (Dropout)       (None, 8, 8, 16)          0         
_________________________________________________________________
flatten_356 (Flatten)        (None, 1024)              0         
_________________________________________________________________
dense_722 (Dense)            (None, 128)               131200    
_________________________________________________________________
batch_normalization_989 (Bat (None, 128)               512       
_________________________________________________________________
activation_1299 (Activation) (None, 128)               0         
_________________________________________________________________
dropout_1299 (Dropout)       (None, 128)               0         
_________________________________________________________________
dense_723 (Dense)            (None, 100)               12900     
=================================================================
Total params: 187,791
Trainable params: 186,511
Non-trainable params: 1,280
_________________________________________________________________
