Model: "sequential_487"
_________________________________________________________________
Layer (type)                 Output Shape              Param #   
=================================================================
separable_conv2d_1308 (Separ (None, 32, 32, 256)       1051      
_________________________________________________________________
batch_normalization_1371 (Ba (None, 32, 32, 256)       1024      
_________________________________________________________________
activation_1869 (Activation) (None, 32, 32, 256)       0         
_________________________________________________________________
dropout_1869 (Dropout)       (None, 32, 32, 256)       0         
_________________________________________________________________
separable_conv2d_1309 (Separ (None, 32, 32, 64)        18752     
_________________________________________________________________
activation_1870 (Activation) (None, 32, 32, 64)        0         
_________________________________________________________________
dropout_1870 (Dropout)       (None, 32, 32, 64)        0         
_________________________________________________________________
max_pooling2d_520 (MaxPoolin (None, 16, 16, 64)        0         
_________________________________________________________________
separable_conv2d_1310 (Separ (None, 16, 16, 256)       17216     
_________________________________________________________________
activation_1871 (Activation) (None, 16, 16, 256)       0         
_________________________________________________________________
dropout_1871 (Dropout)       (None, 16, 16, 256)       0         
_________________________________________________________________
flatten_487 (Flatten)        (None, 65536)             0         
_________________________________________________________________
dense_1048 (Dense)           (None, 512)               33554944  
_________________________________________________________________
activation_1872 (Activation) (None, 512)               0         
_________________________________________________________________
dropout_1872 (Dropout)       (None, 512)               0         
_________________________________________________________________
dense_1049 (Dense)           (None, 16)                8208      
_________________________________________________________________
batch_normalization_1372 (Ba (None, 16)                64        
_________________________________________________________________
activation_1873 (Activation) (None, 16)                0         
_________________________________________________________________
dropout_1873 (Dropout)       (None, 16)                0         
_________________________________________________________________
dense_1050 (Dense)           (None, 100)               1700      
=================================================================
Total params: 33,602,959
Trainable params: 33,602,415
Non-trainable params: 544
_________________________________________________________________
