Model: "sequential_368"
_________________________________________________________________
Layer (type)                 Output Shape              Param #   
=================================================================
separable_conv2d_964 (Separa (None, 32, 32, 512)       2075      
_________________________________________________________________
batch_normalization_1016 (Ba (None, 32, 32, 512)       2048      
_________________________________________________________________
activation_1342 (Activation) (None, 32, 32, 512)       0         
_________________________________________________________________
dropout_1342 (Dropout)       (None, 32, 32, 512)       0         
_________________________________________________________________
max_pooling2d_385 (MaxPoolin (None, 16, 16, 512)       0         
_________________________________________________________________
separable_conv2d_965 (Separa (None, 16, 16, 64)        37440     
_________________________________________________________________
activation_1343 (Activation) (None, 16, 16, 64)        0         
_________________________________________________________________
dropout_1343 (Dropout)       (None, 16, 16, 64)        0         
_________________________________________________________________
separable_conv2d_966 (Separa (None, 16, 16, 64)        4736      
_________________________________________________________________
activation_1344 (Activation) (None, 16, 16, 64)        0         
_________________________________________________________________
dropout_1344 (Dropout)       (None, 16, 16, 64)        0         
_________________________________________________________________
flatten_368 (Flatten)        (None, 16384)             0         
_________________________________________________________________
dense_746 (Dense)            (None, 100)               1638500   
=================================================================
Total params: 1,684,799
Trainable params: 1,683,775
Non-trainable params: 1,024
_________________________________________________________________
