Model: "sequential_558"
_________________________________________________________________
Layer (type)                 Output Shape              Param #   
=================================================================
separable_conv2d_1519 (Separ (None, 32, 32, 256)       1051      
_________________________________________________________________
batch_normalization_1612 (Ba (None, 32, 32, 256)       1024      
_________________________________________________________________
activation_2198 (Activation) (None, 32, 32, 256)       0         
_________________________________________________________________
dropout_2198 (Dropout)       (None, 32, 32, 256)       0         
_________________________________________________________________
max_pooling2d_589 (MaxPoolin (None, 16, 16, 256)       0         
_________________________________________________________________
separable_conv2d_1520 (Separ (None, 16, 16, 128)       35200     
_________________________________________________________________
batch_normalization_1613 (Ba (None, 16, 16, 128)       512       
_________________________________________________________________
activation_2199 (Activation) (None, 16, 16, 128)       0         
_________________________________________________________________
dropout_2199 (Dropout)       (None, 16, 16, 128)       0         
_________________________________________________________________
separable_conv2d_1521 (Separ (None, 16, 16, 16)        3216      
_________________________________________________________________
activation_2200 (Activation) (None, 16, 16, 16)        0         
_________________________________________________________________
dropout_2200 (Dropout)       (None, 16, 16, 16)        0         
_________________________________________________________________
flatten_558 (Flatten)        (None, 4096)              0         
_________________________________________________________________
dense_1237 (Dense)           (None, 128)               524416    
_________________________________________________________________
batch_normalization_1614 (Ba (None, 128)               512       
_________________________________________________________________
activation_2201 (Activation) (None, 128)               0         
_________________________________________________________________
dropout_2201 (Dropout)       (None, 128)               0         
_________________________________________________________________
dense_1238 (Dense)           (None, 100)               12900     
=================================================================
Total params: 578,831
Trainable params: 577,807
Non-trainable params: 1,024
_________________________________________________________________
