Model: "sequential_320"
_________________________________________________________________
Layer (type)                 Output Shape              Param #   
=================================================================
separable_conv2d_828 (Separa (None, 32, 32, 512)       2075      
_________________________________________________________________
batch_normalization_886 (Bat (None, 32, 32, 512)       2048      
_________________________________________________________________
activation_1154 (Activation) (None, 32, 32, 512)       0         
_________________________________________________________________
dropout_1154 (Dropout)       (None, 32, 32, 512)       0         
_________________________________________________________________
separable_conv2d_829 (Separa (None, 32, 32, 128)       70272     
_________________________________________________________________
batch_normalization_887 (Bat (None, 32, 32, 128)       512       
_________________________________________________________________
activation_1155 (Activation) (None, 32, 32, 128)       0         
_________________________________________________________________
dropout_1155 (Dropout)       (None, 32, 32, 128)       0         
_________________________________________________________________
separable_conv2d_830 (Separa (None, 32, 32, 16)        3216      
_________________________________________________________________
activation_1156 (Activation) (None, 32, 32, 16)        0         
_________________________________________________________________
dropout_1156 (Dropout)       (None, 32, 32, 16)        0         
_________________________________________________________________
flatten_320 (Flatten)        (None, 16384)             0         
_________________________________________________________________
dense_646 (Dense)            (None, 128)               2097280   
_________________________________________________________________
batch_normalization_888 (Bat (None, 128)               512       
_________________________________________________________________
activation_1157 (Activation) (None, 128)               0         
_________________________________________________________________
dropout_1157 (Dropout)       (None, 128)               0         
_________________________________________________________________
dense_647 (Dense)            (None, 100)               12900     
=================================================================
Total params: 2,188,815
Trainable params: 2,187,279
Non-trainable params: 1,536
_________________________________________________________________
