Model: "sequential_199"
_________________________________________________________________
Layer (type)                 Output Shape              Param #   
=================================================================
separable_conv2d_488 (Separa (None, 32, 32, 8)         59        
_________________________________________________________________
batch_normalization_514 (Bat (None, 32, 32, 8)         32        
_________________________________________________________________
activation_677 (Activation)  (None, 32, 32, 8)         0         
_________________________________________________________________
dropout_677 (Dropout)        (None, 32, 32, 8)         0         
_________________________________________________________________
separable_conv2d_489 (Separa (None, 32, 32, 64)        648       
_________________________________________________________________
batch_normalization_515 (Bat (None, 32, 32, 64)        256       
_________________________________________________________________
activation_678 (Activation)  (None, 32, 32, 64)        0         
_________________________________________________________________
dropout_678 (Dropout)        (None, 32, 32, 64)        0         
_________________________________________________________________
max_pooling2d_180 (MaxPoolin (None, 16, 16, 64)        0         
_________________________________________________________________
separable_conv2d_490 (Separa (None, 16, 16, 16)        1616      
_________________________________________________________________
activation_679 (Activation)  (None, 16, 16, 16)        0         
_________________________________________________________________
dropout_679 (Dropout)        (None, 16, 16, 16)        0         
_________________________________________________________________
flatten_199 (Flatten)        (None, 4096)              0         
_________________________________________________________________
dense_388 (Dense)            (None, 512)               2097664   
_________________________________________________________________
batch_normalization_516 (Bat (None, 512)               2048      
_________________________________________________________________
activation_680 (Activation)  (None, 512)               0         
_________________________________________________________________
dropout_680 (Dropout)        (None, 512)               0         
_________________________________________________________________
dense_389 (Dense)            (None, 256)               131328    
_________________________________________________________________
batch_normalization_517 (Bat (None, 256)               1024      
_________________________________________________________________
activation_681 (Activation)  (None, 256)               0         
_________________________________________________________________
dropout_681 (Dropout)        (None, 256)               0         
_________________________________________________________________
dense_390 (Dense)            (None, 100)               25700     
=================================================================
Total params: 2,260,375
Trainable params: 2,258,695
Non-trainable params: 1,680
_________________________________________________________________
