Model: "sequential_475"
_________________________________________________________________
Layer (type)                 Output Shape              Param #   
=================================================================
separable_conv2d_1276 (Separ (None, 32, 32, 512)       2075      
_________________________________________________________________
batch_normalization_1336 (Ba (None, 32, 32, 512)       2048      
_________________________________________________________________
activation_1817 (Activation) (None, 32, 32, 512)       0         
_________________________________________________________________
dropout_1817 (Dropout)       (None, 32, 32, 512)       0         
_________________________________________________________________
max_pooling2d_507 (MaxPoolin (None, 16, 16, 512)       0         
_________________________________________________________________
separable_conv2d_1277 (Separ (None, 16, 16, 64)        37440     
_________________________________________________________________
batch_normalization_1337 (Ba (None, 16, 16, 64)        256       
_________________________________________________________________
activation_1818 (Activation) (None, 16, 16, 64)        0         
_________________________________________________________________
dropout_1818 (Dropout)       (None, 16, 16, 64)        0         
_________________________________________________________________
max_pooling2d_508 (MaxPoolin (None, 8, 8, 64)          0         
_________________________________________________________________
separable_conv2d_1278 (Separ (None, 8, 8, 16)          1616      
_________________________________________________________________
activation_1819 (Activation) (None, 8, 8, 16)          0         
_________________________________________________________________
dropout_1819 (Dropout)       (None, 8, 8, 16)          0         
_________________________________________________________________
flatten_475 (Flatten)        (None, 1024)              0         
_________________________________________________________________
dense_1016 (Dense)           (None, 512)               524800    
_________________________________________________________________
batch_normalization_1338 (Ba (None, 512)               2048      
_________________________________________________________________
activation_1820 (Activation) (None, 512)               0         
_________________________________________________________________
dropout_1820 (Dropout)       (None, 512)               0         
_________________________________________________________________
dense_1017 (Dense)           (None, 100)               51300     
=================================================================
Total params: 621,583
Trainable params: 619,407
Non-trainable params: 2,176
_________________________________________________________________
