Model: "sequential_237"
_________________________________________________________________
Layer (type)                 Output Shape              Param #   
=================================================================
separable_conv2d_595 (Separa (None, 32, 32, 512)       2075      
_________________________________________________________________
batch_normalization_636 (Bat (None, 32, 32, 512)       2048      
_________________________________________________________________
activation_831 (Activation)  (None, 32, 32, 512)       0         
_________________________________________________________________
dropout_831 (Dropout)        (None, 32, 32, 512)       0         
_________________________________________________________________
max_pooling2d_228 (MaxPoolin (None, 16, 16, 512)       0         
_________________________________________________________________
separable_conv2d_596 (Separa (None, 16, 16, 64)        37440     
_________________________________________________________________
batch_normalization_637 (Bat (None, 16, 16, 64)        256       
_________________________________________________________________
activation_832 (Activation)  (None, 16, 16, 64)        0         
_________________________________________________________________
dropout_832 (Dropout)        (None, 16, 16, 64)        0         
_________________________________________________________________
max_pooling2d_229 (MaxPoolin (None, 8, 8, 64)          0         
_________________________________________________________________
separable_conv2d_597 (Separa (None, 8, 8, 16)          1616      
_________________________________________________________________
activation_833 (Activation)  (None, 8, 8, 16)          0         
_________________________________________________________________
dropout_833 (Dropout)        (None, 8, 8, 16)          0         
_________________________________________________________________
flatten_237 (Flatten)        (None, 1024)              0         
_________________________________________________________________
dense_473 (Dense)            (None, 512)               524800    
_________________________________________________________________
batch_normalization_638 (Bat (None, 512)               2048      
_________________________________________________________________
activation_834 (Activation)  (None, 512)               0         
_________________________________________________________________
dropout_834 (Dropout)        (None, 512)               0         
_________________________________________________________________
dense_474 (Dense)            (None, 100)               51300     
=================================================================
Total params: 621,583
Trainable params: 619,407
Non-trainable params: 2,176
_________________________________________________________________
