Model: "sequential_279"
_________________________________________________________________
Layer (type)                 Output Shape              Param #   
=================================================================
separable_conv2d_711 (Separa (None, 32, 32, 256)       1051      
_________________________________________________________________
batch_normalization_770 (Bat (None, 32, 32, 256)       1024      
_________________________________________________________________
activation_997 (Activation)  (None, 32, 32, 256)       0         
_________________________________________________________________
dropout_997 (Dropout)        (None, 32, 32, 256)       0         
_________________________________________________________________
max_pooling2d_276 (MaxPoolin (None, 16, 16, 256)       0         
_________________________________________________________________
separable_conv2d_712 (Separa (None, 16, 16, 128)       35200     
_________________________________________________________________
batch_normalization_771 (Bat (None, 16, 16, 128)       512       
_________________________________________________________________
activation_998 (Activation)  (None, 16, 16, 128)       0         
_________________________________________________________________
dropout_998 (Dropout)        (None, 16, 16, 128)       0         
_________________________________________________________________
separable_conv2d_713 (Separa (None, 16, 16, 16)        3216      
_________________________________________________________________
activation_999 (Activation)  (None, 16, 16, 16)        0         
_________________________________________________________________
dropout_999 (Dropout)        (None, 16, 16, 16)        0         
_________________________________________________________________
flatten_279 (Flatten)        (None, 4096)              0         
_________________________________________________________________
dense_565 (Dense)            (None, 512)               2097664   
_________________________________________________________________
batch_normalization_772 (Bat (None, 512)               2048      
_________________________________________________________________
activation_1000 (Activation) (None, 512)               0         
_________________________________________________________________
dropout_1000 (Dropout)       (None, 512)               0         
_________________________________________________________________
dense_566 (Dense)            (None, 100)               51300     
=================================================================
Total params: 2,192,015
Trainable params: 2,190,223
Non-trainable params: 1,792
_________________________________________________________________
