Model: "sequential_344"
_________________________________________________________________
Layer (type)                 Output Shape              Param #   
=================================================================
separable_conv2d_897 (Separa (None, 32, 32, 256)       1051      
_________________________________________________________________
batch_normalization_955 (Bat (None, 32, 32, 256)       1024      
_________________________________________________________________
activation_1251 (Activation) (None, 32, 32, 256)       0         
_________________________________________________________________
dropout_1251 (Dropout)       (None, 32, 32, 256)       0         
_________________________________________________________________
max_pooling2d_358 (MaxPoolin (None, 16, 16, 256)       0         
_________________________________________________________________
separable_conv2d_898 (Separa (None, 16, 16, 256)       68096     
_________________________________________________________________
batch_normalization_956 (Bat (None, 16, 16, 256)       1024      
_________________________________________________________________
activation_1252 (Activation) (None, 16, 16, 256)       0         
_________________________________________________________________
dropout_1252 (Dropout)       (None, 16, 16, 256)       0         
_________________________________________________________________
max_pooling2d_359 (MaxPoolin (None, 8, 8, 256)         0         
_________________________________________________________________
flatten_344 (Flatten)        (None, 16384)             0         
_________________________________________________________________
dense_698 (Dense)            (None, 512)               8389120   
_________________________________________________________________
batch_normalization_957 (Bat (None, 512)               2048      
_________________________________________________________________
activation_1253 (Activation) (None, 512)               0         
_________________________________________________________________
dropout_1253 (Dropout)       (None, 512)               0         
_________________________________________________________________
dense_699 (Dense)            (None, 256)               131328    
_________________________________________________________________
batch_normalization_958 (Bat (None, 256)               1024      
_________________________________________________________________
activation_1254 (Activation) (None, 256)               0         
_________________________________________________________________
dropout_1254 (Dropout)       (None, 256)               0         
_________________________________________________________________
dense_700 (Dense)            (None, 100)               25700     
=================================================================
Total params: 8,620,415
Trainable params: 8,617,855
Non-trainable params: 2,560
_________________________________________________________________
