Model: "sequential_182"
_________________________________________________________________
Layer (type)                 Output Shape              Param #   
=================================================================
separable_conv2d_446 (Separa (None, 32, 32, 512)       2075      
_________________________________________________________________
batch_normalization_463 (Bat (None, 32, 32, 512)       2048      
_________________________________________________________________
activation_617 (Activation)  (None, 32, 32, 512)       0         
_________________________________________________________________
dropout_617 (Dropout)        (None, 32, 32, 512)       0         
_________________________________________________________________
max_pooling2d_161 (MaxPoolin (None, 16, 16, 512)       0         
_________________________________________________________________
separable_conv2d_447 (Separa (None, 16, 16, 64)        37440     
_________________________________________________________________
batch_normalization_464 (Bat (None, 16, 16, 64)        256       
_________________________________________________________________
activation_618 (Activation)  (None, 16, 16, 64)        0         
_________________________________________________________________
dropout_618 (Dropout)        (None, 16, 16, 64)        0         
_________________________________________________________________
max_pooling2d_162 (MaxPoolin (None, 8, 8, 64)          0         
_________________________________________________________________
separable_conv2d_448 (Separa (None, 8, 8, 16)          1616      
_________________________________________________________________
activation_619 (Activation)  (None, 8, 8, 16)          0         
_________________________________________________________________
dropout_619 (Dropout)        (None, 8, 8, 16)          0         
_________________________________________________________________
flatten_182 (Flatten)        (None, 1024)              0         
_________________________________________________________________
dense_353 (Dense)            (None, 512)               524800    
_________________________________________________________________
batch_normalization_465 (Bat (None, 512)               2048      
_________________________________________________________________
activation_620 (Activation)  (None, 512)               0         
_________________________________________________________________
dropout_620 (Dropout)        (None, 512)               0         
_________________________________________________________________
dense_354 (Dense)            (None, 100)               51300     
=================================================================
Total params: 621,583
Trainable params: 619,407
Non-trainable params: 2,176
_________________________________________________________________
