Model: "sequential_137"
_________________________________________________________________
Layer (type)                 Output Shape              Param #   
=================================================================
separable_conv2d_325 (Separa (None, 32, 32, 512)       2075      
_________________________________________________________________
batch_normalization_328 (Bat (None, 32, 32, 512)       2048      
_________________________________________________________________
activation_446 (Activation)  (None, 32, 32, 512)       0         
_________________________________________________________________
dropout_446 (Dropout)        (None, 32, 32, 512)       0         
_________________________________________________________________
separable_conv2d_326 (Separa (None, 32, 32, 64)        37440     
_________________________________________________________________
batch_normalization_329 (Bat (None, 32, 32, 64)        256       
_________________________________________________________________
activation_447 (Activation)  (None, 32, 32, 64)        0         
_________________________________________________________________
dropout_447 (Dropout)        (None, 32, 32, 64)        0         
_________________________________________________________________
max_pooling2d_111 (MaxPoolin (None, 16, 16, 64)        0         
_________________________________________________________________
separable_conv2d_327 (Separa (None, 16, 16, 16)        1616      
_________________________________________________________________
activation_448 (Activation)  (None, 16, 16, 16)        0         
_________________________________________________________________
dropout_448 (Dropout)        (None, 16, 16, 16)        0         
_________________________________________________________________
flatten_137 (Flatten)        (None, 4096)              0         
_________________________________________________________________
dense_258 (Dense)            (None, 256)               1048832   
_________________________________________________________________
batch_normalization_330 (Bat (None, 256)               1024      
_________________________________________________________________
activation_449 (Activation)  (None, 256)               0         
_________________________________________________________________
dropout_449 (Dropout)        (None, 256)               0         
_________________________________________________________________
dense_259 (Dense)            (None, 100)               25700     
=================================================================
Total params: 1,118,991
Trainable params: 1,117,327
Non-trainable params: 1,664
_________________________________________________________________
