Model: "sequential_480"
_________________________________________________________________
Layer (type)                 Output Shape              Param #   
=================================================================
separable_conv2d_1290 (Separ (None, 32, 32, 256)       1051      
_________________________________________________________________
batch_normalization_1351 (Ba (None, 32, 32, 256)       1024      
_________________________________________________________________
activation_1839 (Activation) (None, 32, 32, 256)       0         
_________________________________________________________________
dropout_1839 (Dropout)       (None, 32, 32, 256)       0         
_________________________________________________________________
max_pooling2d_513 (MaxPoolin (None, 16, 16, 256)       0         
_________________________________________________________________
separable_conv2d_1291 (Separ (None, 16, 16, 64)        18752     
_________________________________________________________________
batch_normalization_1352 (Ba (None, 16, 16, 64)        256       
_________________________________________________________________
activation_1840 (Activation) (None, 16, 16, 64)        0         
_________________________________________________________________
dropout_1840 (Dropout)       (None, 16, 16, 64)        0         
_________________________________________________________________
separable_conv2d_1292 (Separ (None, 16, 16, 16)        1616      
_________________________________________________________________
activation_1841 (Activation) (None, 16, 16, 16)        0         
_________________________________________________________________
dropout_1841 (Dropout)       (None, 16, 16, 16)        0         
_________________________________________________________________
flatten_480 (Flatten)        (None, 4096)              0         
_________________________________________________________________
dense_1029 (Dense)           (None, 512)               2097664   
_________________________________________________________________
batch_normalization_1353 (Ba (None, 512)               2048      
_________________________________________________________________
activation_1842 (Activation) (None, 512)               0         
_________________________________________________________________
dropout_1842 (Dropout)       (None, 512)               0         
_________________________________________________________________
dense_1030 (Dense)           (None, 256)               131328    
_________________________________________________________________
activation_1843 (Activation) (None, 256)               0         
_________________________________________________________________
dropout_1843 (Dropout)       (None, 256)               0         
_________________________________________________________________
dense_1031 (Dense)           (None, 100)               25700     
=================================================================
Total params: 2,279,439
Trainable params: 2,277,775
Non-trainable params: 1,664
_________________________________________________________________
