Model: "sequential_301"
_________________________________________________________________
Layer (type)                 Output Shape              Param #   
=================================================================
separable_conv2d_773 (Separa (None, 32, 32, 512)       2075      
_________________________________________________________________
batch_normalization_836 (Bat (None, 32, 32, 512)       2048      
_________________________________________________________________
activation_1084 (Activation) (None, 32, 32, 512)       0         
_________________________________________________________________
dropout_1084 (Dropout)       (None, 32, 32, 512)       0         
_________________________________________________________________
separable_conv2d_774 (Separa (None, 32, 32, 128)       70272     
_________________________________________________________________
batch_normalization_837 (Bat (None, 32, 32, 128)       512       
_________________________________________________________________
activation_1085 (Activation) (None, 32, 32, 128)       0         
_________________________________________________________________
dropout_1085 (Dropout)       (None, 32, 32, 128)       0         
_________________________________________________________________
max_pooling2d_302 (MaxPoolin (None, 16, 16, 128)       0         
_________________________________________________________________
separable_conv2d_775 (Separa (None, 16, 16, 16)        3216      
_________________________________________________________________
activation_1086 (Activation) (None, 16, 16, 16)        0         
_________________________________________________________________
dropout_1086 (Dropout)       (None, 16, 16, 16)        0         
_________________________________________________________________
separable_conv2d_776 (Separa (None, 16, 16, 128)       2320      
_________________________________________________________________
activation_1087 (Activation) (None, 16, 16, 128)       0         
_________________________________________________________________
dropout_1087 (Dropout)       (None, 16, 16, 128)       0         
_________________________________________________________________
max_pooling2d_303 (MaxPoolin (None, 8, 8, 128)         0         
_________________________________________________________________
flatten_301 (Flatten)        (None, 8192)              0         
_________________________________________________________________
dense_612 (Dense)            (None, 100)               819300    
=================================================================
Total params: 899,743
Trainable params: 898,463
Non-trainable params: 1,280
_________________________________________________________________
