Model: "sequential_418"
_________________________________________________________________
Layer (type)                 Output Shape              Param #   
=================================================================
separable_conv2d_1108 (Separ (None, 32, 32, 256)       1051      
_________________________________________________________________
activation_1555 (Activation) (None, 32, 32, 256)       0         
_________________________________________________________________
dropout_1555 (Dropout)       (None, 32, 32, 256)       0         
_________________________________________________________________
max_pooling2d_446 (MaxPoolin (None, 16, 16, 256)       0         
_________________________________________________________________
separable_conv2d_1109 (Separ (None, 16, 16, 64)        18752     
_________________________________________________________________
batch_normalization_1162 (Ba (None, 16, 16, 64)        256       
_________________________________________________________________
activation_1556 (Activation) (None, 16, 16, 64)        0         
_________________________________________________________________
dropout_1556 (Dropout)       (None, 16, 16, 64)        0         
_________________________________________________________________
separable_conv2d_1110 (Separ (None, 16, 16, 64)        4736      
_________________________________________________________________
activation_1557 (Activation) (None, 16, 16, 64)        0         
_________________________________________________________________
dropout_1557 (Dropout)       (None, 16, 16, 64)        0         
_________________________________________________________________
flatten_418 (Flatten)        (None, 16384)             0         
_________________________________________________________________
dense_865 (Dense)            (None, 512)               8389120   
_________________________________________________________________
batch_normalization_1163 (Ba (None, 512)               2048      
_________________________________________________________________
activation_1558 (Activation) (None, 512)               0         
_________________________________________________________________
dropout_1558 (Dropout)       (None, 512)               0         
_________________________________________________________________
dense_866 (Dense)            (None, 256)               131328    
_________________________________________________________________
batch_normalization_1164 (Ba (None, 256)               1024      
_________________________________________________________________
activation_1559 (Activation) (None, 256)               0         
_________________________________________________________________
dropout_1559 (Dropout)       (None, 256)               0         
_________________________________________________________________
dense_867 (Dense)            (None, 100)               25700     
=================================================================
Total params: 8,574,015
Trainable params: 8,572,351
Non-trainable params: 1,664
_________________________________________________________________
