Model: "sequential_353"
_________________________________________________________________
Layer (type)                 Output Shape              Param #   
=================================================================
separable_conv2d_922 (Separa (None, 32, 32, 512)       2075      
_________________________________________________________________
batch_normalization_982 (Bat (None, 32, 32, 512)       2048      
_________________________________________________________________
activation_1286 (Activation) (None, 32, 32, 512)       0         
_________________________________________________________________
dropout_1286 (Dropout)       (None, 32, 32, 512)       0         
_________________________________________________________________
max_pooling2d_366 (MaxPoolin (None, 16, 16, 512)       0         
_________________________________________________________________
separable_conv2d_923 (Separa (None, 16, 16, 64)        37440     
_________________________________________________________________
activation_1287 (Activation) (None, 16, 16, 64)        0         
_________________________________________________________________
dropout_1287 (Dropout)       (None, 16, 16, 64)        0         
_________________________________________________________________
max_pooling2d_367 (MaxPoolin (None, 8, 8, 64)          0         
_________________________________________________________________
flatten_353 (Flatten)        (None, 4096)              0         
_________________________________________________________________
dense_717 (Dense)            (None, 100)               409700    
=================================================================
Total params: 451,263
Trainable params: 450,239
Non-trainable params: 1,024
_________________________________________________________________
