Model: "sequential_380"
_________________________________________________________________
Layer (type)                 Output Shape              Param #   
=================================================================
separable_conv2d_999 (Separa (None, 32, 32, 256)       1051      
_________________________________________________________________
activation_1389 (Activation) (None, 32, 32, 256)       0         
_________________________________________________________________
dropout_1389 (Dropout)       (None, 32, 32, 256)       0         
_________________________________________________________________
max_pooling2d_401 (MaxPoolin (None, 16, 16, 256)       0         
_________________________________________________________________
separable_conv2d_1000 (Separ (None, 16, 16, 64)        18752     
_________________________________________________________________
batch_normalization_1047 (Ba (None, 16, 16, 64)        256       
_________________________________________________________________
activation_1390 (Activation) (None, 16, 16, 64)        0         
_________________________________________________________________
dropout_1390 (Dropout)       (None, 16, 16, 64)        0         
_________________________________________________________________
separable_conv2d_1001 (Separ (None, 16, 16, 64)        4736      
_________________________________________________________________
activation_1391 (Activation) (None, 16, 16, 64)        0         
_________________________________________________________________
dropout_1391 (Dropout)       (None, 16, 16, 64)        0         
_________________________________________________________________
flatten_380 (Flatten)        (None, 16384)             0         
_________________________________________________________________
dense_770 (Dense)            (None, 100)               1638500   
=================================================================
Total params: 1,663,295
Trainable params: 1,663,167
Non-trainable params: 128
_________________________________________________________________
