Model: "sequential_215"
_________________________________________________________________
Layer (type)                 Output Shape              Param #   
=================================================================
separable_conv2d_533 (Separa (None, 32, 32, 256)       1051      
_________________________________________________________________
batch_normalization_565 (Bat (None, 32, 32, 256)       1024      
_________________________________________________________________
activation_740 (Activation)  (None, 32, 32, 256)       0         
_________________________________________________________________
dropout_740 (Dropout)        (None, 32, 32, 256)       0         
_________________________________________________________________
max_pooling2d_202 (MaxPoolin (None, 16, 16, 256)       0         
_________________________________________________________________
separable_conv2d_534 (Separa (None, 16, 16, 128)       35200     
_________________________________________________________________
batch_normalization_566 (Bat (None, 16, 16, 128)       512       
_________________________________________________________________
activation_741 (Activation)  (None, 16, 16, 128)       0         
_________________________________________________________________
dropout_741 (Dropout)        (None, 16, 16, 128)       0         
_________________________________________________________________
separable_conv2d_535 (Separa (None, 16, 16, 16)        3216      
_________________________________________________________________
activation_742 (Activation)  (None, 16, 16, 16)        0         
_________________________________________________________________
dropout_742 (Dropout)        (None, 16, 16, 16)        0         
_________________________________________________________________
flatten_215 (Flatten)        (None, 4096)              0         
_________________________________________________________________
dense_422 (Dense)            (None, 512)               2097664   
_________________________________________________________________
batch_normalization_567 (Bat (None, 512)               2048      
_________________________________________________________________
activation_743 (Activation)  (None, 512)               0         
_________________________________________________________________
dropout_743 (Dropout)        (None, 512)               0         
_________________________________________________________________
dense_423 (Dense)            (None, 100)               51300     
=================================================================
Total params: 2,192,015
Trainable params: 2,190,223
Non-trainable params: 1,792
_________________________________________________________________
