Model: "sequential_206"
_________________________________________________________________
Layer (type)                 Output Shape              Param #   
=================================================================
separable_conv2d_508 (Separa (None, 32, 32, 256)       1051      
_________________________________________________________________
batch_normalization_536 (Bat (None, 32, 32, 256)       1024      
_________________________________________________________________
activation_705 (Activation)  (None, 32, 32, 256)       0         
_________________________________________________________________
dropout_705 (Dropout)        (None, 32, 32, 256)       0         
_________________________________________________________________
separable_conv2d_509 (Separa (None, 32, 32, 64)        18752     
_________________________________________________________________
batch_normalization_537 (Bat (None, 32, 32, 64)        256       
_________________________________________________________________
activation_706 (Activation)  (None, 32, 32, 64)        0         
_________________________________________________________________
dropout_706 (Dropout)        (None, 32, 32, 64)        0         
_________________________________________________________________
max_pooling2d_189 (MaxPoolin (None, 16, 16, 64)        0         
_________________________________________________________________
separable_conv2d_510 (Separa (None, 16, 16, 16)        1616      
_________________________________________________________________
activation_707 (Activation)  (None, 16, 16, 16)        0         
_________________________________________________________________
dropout_707 (Dropout)        (None, 16, 16, 16)        0         
_________________________________________________________________
flatten_206 (Flatten)        (None, 4096)              0         
_________________________________________________________________
dense_403 (Dense)            (None, 512)               2097664   
_________________________________________________________________
batch_normalization_538 (Bat (None, 512)               2048      
_________________________________________________________________
activation_708 (Activation)  (None, 512)               0         
_________________________________________________________________
dropout_708 (Dropout)        (None, 512)               0         
_________________________________________________________________
dense_404 (Dense)            (None, 256)               131328    
_________________________________________________________________
batch_normalization_539 (Bat (None, 256)               1024      
_________________________________________________________________
activation_709 (Activation)  (None, 256)               0         
_________________________________________________________________
dropout_709 (Dropout)        (None, 256)               0         
_________________________________________________________________
dense_405 (Dense)            (None, 100)               25700     
=================================================================
Total params: 2,280,463
Trainable params: 2,278,287
Non-trainable params: 2,176
_________________________________________________________________
