Model: "sequential_146"
_________________________________________________________________
Layer (type)                 Output Shape              Param #   
=================================================================
separable_conv2d_347 (Separa (None, 32, 32, 512)       2075      
_________________________________________________________________
batch_normalization_352 (Bat (None, 32, 32, 512)       2048      
_________________________________________________________________
activation_476 (Activation)  (None, 32, 32, 512)       0         
_________________________________________________________________
dropout_476 (Dropout)        (None, 32, 32, 512)       0         
_________________________________________________________________
separable_conv2d_348 (Separa (None, 32, 32, 64)        37440     
_________________________________________________________________
batch_normalization_353 (Bat (None, 32, 32, 64)        256       
_________________________________________________________________
activation_477 (Activation)  (None, 32, 32, 64)        0         
_________________________________________________________________
dropout_477 (Dropout)        (None, 32, 32, 64)        0         
_________________________________________________________________
max_pooling2d_121 (MaxPoolin (None, 16, 16, 64)        0         
_________________________________________________________________
separable_conv2d_349 (Separa (None, 16, 16, 64)        4736      
_________________________________________________________________
activation_478 (Activation)  (None, 16, 16, 64)        0         
_________________________________________________________________
dropout_478 (Dropout)        (None, 16, 16, 64)        0         
_________________________________________________________________
flatten_146 (Flatten)        (None, 16384)             0         
_________________________________________________________________
dense_275 (Dense)            (None, 128)               2097280   
_________________________________________________________________
batch_normalization_354 (Bat (None, 128)               512       
_________________________________________________________________
activation_479 (Activation)  (None, 128)               0         
_________________________________________________________________
dropout_479 (Dropout)        (None, 128)               0         
_________________________________________________________________
dense_276 (Dense)            (None, 100)               12900     
=================================================================
Total params: 2,157,247
Trainable params: 2,155,839
Non-trainable params: 1,408
_________________________________________________________________
