Model: "sequential_572"
_________________________________________________________________
Layer (type)                 Output Shape              Param #   
=================================================================
separable_conv2d_1561 (Separ (None, 32, 32, 256)       1051      
_________________________________________________________________
activation_2259 (Activation) (None, 32, 32, 256)       0         
_________________________________________________________________
dropout_2259 (Dropout)       (None, 32, 32, 256)       0         
_________________________________________________________________
separable_conv2d_1562 (Separ (None, 32, 32, 32)        10528     
_________________________________________________________________
batch_normalization_1658 (Ba (None, 32, 32, 32)        128       
_________________________________________________________________
activation_2260 (Activation) (None, 32, 32, 32)        0         
_________________________________________________________________
dropout_2260 (Dropout)       (None, 32, 32, 32)        0         
_________________________________________________________________
separable_conv2d_1563 (Separ (None, 32, 32, 16)        816       
_________________________________________________________________
activation_2261 (Activation) (None, 32, 32, 16)        0         
_________________________________________________________________
dropout_2261 (Dropout)       (None, 32, 32, 16)        0         
_________________________________________________________________
flatten_572 (Flatten)        (None, 16384)             0         
_________________________________________________________________
dense_1270 (Dense)           (None, 512)               8389120   
_________________________________________________________________
batch_normalization_1659 (Ba (None, 512)               2048      
_________________________________________________________________
activation_2262 (Activation) (None, 512)               0         
_________________________________________________________________
dropout_2262 (Dropout)       (None, 512)               0         
_________________________________________________________________
dense_1271 (Dense)           (None, 100)               51300     
=================================================================
Total params: 8,454,991
Trainable params: 8,453,903
Non-trainable params: 1,088
_________________________________________________________________
