Model: "sequential_340"
_________________________________________________________________
Layer (type)                 Output Shape              Param #   
=================================================================
separable_conv2d_885 (Separa (None, 32, 32, 256)       1051      
_________________________________________________________________
batch_normalization_945 (Bat (None, 32, 32, 256)       1024      
_________________________________________________________________
activation_1233 (Activation) (None, 32, 32, 256)       0         
_________________________________________________________________
dropout_1233 (Dropout)       (None, 32, 32, 256)       0         
_________________________________________________________________
max_pooling2d_350 (MaxPoolin (None, 16, 16, 256)       0         
_________________________________________________________________
separable_conv2d_886 (Separa (None, 16, 16, 64)        18752     
_________________________________________________________________
activation_1234 (Activation) (None, 16, 16, 64)        0         
_________________________________________________________________
dropout_1234 (Dropout)       (None, 16, 16, 64)        0         
_________________________________________________________________
max_pooling2d_351 (MaxPoolin (None, 8, 8, 64)          0         
_________________________________________________________________
separable_conv2d_887 (Separa (None, 8, 8, 16)          1616      
_________________________________________________________________
activation_1235 (Activation) (None, 8, 8, 16)          0         
_________________________________________________________________
dropout_1235 (Dropout)       (None, 8, 8, 16)          0         
_________________________________________________________________
flatten_340 (Flatten)        (None, 1024)              0         
_________________________________________________________________
dense_688 (Dense)            (None, 512)               524800    
_________________________________________________________________
batch_normalization_946 (Bat (None, 512)               2048      
_________________________________________________________________
activation_1236 (Activation) (None, 512)               0         
_________________________________________________________________
dropout_1236 (Dropout)       (None, 512)               0         
_________________________________________________________________
dense_689 (Dense)            (None, 256)               131328    
_________________________________________________________________
batch_normalization_947 (Bat (None, 256)               1024      
_________________________________________________________________
activation_1237 (Activation) (None, 256)               0         
_________________________________________________________________
dropout_1237 (Dropout)       (None, 256)               0         
_________________________________________________________________
dense_690 (Dense)            (None, 100)               25700     
=================================================================
Total params: 707,343
Trainable params: 705,295
Non-trainable params: 2,048
_________________________________________________________________
