Model: "sequential_255"
_________________________________________________________________
Layer (type)                 Output Shape              Param #   
=================================================================
separable_conv2d_2221 (Separ (None, 32, 32, 256)       1051      
_________________________________________________________________
batch_normalization_1218 (Ba (None, 32, 32, 256)       1024      
_________________________________________________________________
activation_2466 (Activation) (None, 32, 32, 256)       0         
_________________________________________________________________
dropout_2466 (Dropout)       (None, 32, 32, 256)       0         
_________________________________________________________________
separable_conv2d_2222 (Separ (None, 32, 32, 32)        10528     
_________________________________________________________________
activation_2467 (Activation) (None, 32, 32, 32)        0         
_________________________________________________________________
dropout_2467 (Dropout)       (None, 32, 32, 32)        0         
_________________________________________________________________
max_pooling2d_440 (MaxPoolin (None, 16, 16, 32)        0         
_________________________________________________________________
separable_conv2d_2223 (Separ (None, 16, 16, 512)       17184     
_________________________________________________________________
activation_2468 (Activation) (None, 16, 16, 512)       0         
_________________________________________________________________
dropout_2468 (Dropout)       (None, 16, 16, 512)       0         
_________________________________________________________________
separable_conv2d_2224 (Separ (None, 16, 16, 1024)      529920    
_________________________________________________________________
batch_normalization_1219 (Ba (None, 16, 16, 1024)      4096      
_________________________________________________________________
activation_2469 (Activation) (None, 16, 16, 1024)      0         
_________________________________________________________________
dropout_2469 (Dropout)       (None, 16, 16, 1024)      0         
_________________________________________________________________
separable_conv2d_2225 (Separ (None, 16, 16, 1024)      1058816   
_________________________________________________________________
activation_2470 (Activation) (None, 16, 16, 1024)      0         
_________________________________________________________________
dropout_2470 (Dropout)       (None, 16, 16, 1024)      0         
_________________________________________________________________
separable_conv2d_2226 (Separ (None, 16, 16, 64)        74816     
_________________________________________________________________
batch_normalization_1220 (Ba (None, 16, 16, 64)        256       
_________________________________________________________________
activation_2471 (Activation) (None, 16, 16, 64)        0         
_________________________________________________________________
dropout_2471 (Dropout)       (None, 16, 16, 64)        0         
_________________________________________________________________
separable_conv2d_2227 (Separ (None, 16, 16, 64)        4736      
_________________________________________________________________
activation_2472 (Activation) (None, 16, 16, 64)        0         
_________________________________________________________________
dropout_2472 (Dropout)       (None, 16, 16, 64)        0         
_________________________________________________________________
separable_conv2d_2228 (Separ (None, 16, 16, 16)        1616      
_________________________________________________________________
activation_2473 (Activation) (None, 16, 16, 16)        0         
_________________________________________________________________
dropout_2473 (Dropout)       (None, 16, 16, 16)        0         
_________________________________________________________________
flatten_255 (Flatten)        (None, 4096)              0         
_________________________________________________________________
dense_500 (Dense)            (None, 100)               409700    
=================================================================
Total params: 2,113,743
Trainable params: 2,111,055
Non-trainable params: 2,688
_________________________________________________________________
