Model: "sequential_313"
_________________________________________________________________
Layer (type)                 Output Shape              Param #   
=================================================================
separable_conv2d_2685 (Separ (None, 32, 32, 1024)      4123      
_________________________________________________________________
batch_normalization_1441 (Ba (None, 32, 32, 1024)      4096      
_________________________________________________________________
activation_2943 (Activation) (None, 32, 32, 1024)      0         
_________________________________________________________________
dropout_2943 (Dropout)       (None, 32, 32, 1024)      0         
_________________________________________________________________
separable_conv2d_2686 (Separ (None, 32, 32, 32)        42016     
_________________________________________________________________
activation_2944 (Activation) (None, 32, 32, 32)        0         
_________________________________________________________________
dropout_2944 (Dropout)       (None, 32, 32, 32)        0         
_________________________________________________________________
max_pooling2d_503 (MaxPoolin (None, 16, 16, 32)        0         
_________________________________________________________________
separable_conv2d_2687 (Separ (None, 16, 16, 512)       17184     
_________________________________________________________________
activation_2945 (Activation) (None, 16, 16, 512)       0         
_________________________________________________________________
dropout_2945 (Dropout)       (None, 16, 16, 512)       0         
_________________________________________________________________
separable_conv2d_2688 (Separ (None, 16, 16, 1024)      529920    
_________________________________________________________________
batch_normalization_1442 (Ba (None, 16, 16, 1024)      4096      
_________________________________________________________________
activation_2946 (Activation) (None, 16, 16, 1024)      0         
_________________________________________________________________
dropout_2946 (Dropout)       (None, 16, 16, 1024)      0         
_________________________________________________________________
separable_conv2d_2689 (Separ (None, 16, 16, 1024)      1058816   
_________________________________________________________________
batch_normalization_1443 (Ba (None, 16, 16, 1024)      4096      
_________________________________________________________________
activation_2947 (Activation) (None, 16, 16, 1024)      0         
_________________________________________________________________
dropout_2947 (Dropout)       (None, 16, 16, 1024)      0         
_________________________________________________________________
separable_conv2d_2690 (Separ (None, 16, 16, 16)        25616     
_________________________________________________________________
batch_normalization_1444 (Ba (None, 16, 16, 16)        64        
_________________________________________________________________
activation_2948 (Activation) (None, 16, 16, 16)        0         
_________________________________________________________________
dropout_2948 (Dropout)       (None, 16, 16, 16)        0         
_________________________________________________________________
separable_conv2d_2691 (Separ (None, 16, 16, 64)        1232      
_________________________________________________________________
activation_2949 (Activation) (None, 16, 16, 64)        0         
_________________________________________________________________
dropout_2949 (Dropout)       (None, 16, 16, 64)        0         
_________________________________________________________________
separable_conv2d_2692 (Separ (None, 16, 16, 16)        1616      
_________________________________________________________________
activation_2950 (Activation) (None, 16, 16, 16)        0         
_________________________________________________________________
dropout_2950 (Dropout)       (None, 16, 16, 16)        0         
_________________________________________________________________
flatten_313 (Flatten)        (None, 4096)              0         
_________________________________________________________________
dense_571 (Dense)            (None, 4096)              16781312  
_________________________________________________________________
activation_2951 (Activation) (None, 4096)              0         
_________________________________________________________________
dropout_2951 (Dropout)       (None, 4096)              0         
_________________________________________________________________
dense_572 (Dense)            (None, 100)               409700    
=================================================================
Total params: 18,883,887
Trainable params: 18,877,711
Non-trainable params: 6,176
_________________________________________________________________
