Model: "sequential_149"
_________________________________________________________________
Layer (type)                 Output Shape              Param #   
=================================================================
separable_conv2d_1375 (Separ (None, 32, 32, 1024)      4123      
_________________________________________________________________
batch_normalization_770 (Bat (None, 32, 32, 1024)      4096      
_________________________________________________________________
activation_1550 (Activation) (None, 32, 32, 1024)      0         
_________________________________________________________________
dropout_1550 (Dropout)       (None, 32, 32, 1024)      0         
_________________________________________________________________
max_pooling2d_311 (MaxPoolin (None, 16, 16, 1024)      0         
_________________________________________________________________
separable_conv2d_1376 (Separ (None, 16, 16, 128)       140416    
_________________________________________________________________
activation_1551 (Activation) (None, 16, 16, 128)       0         
_________________________________________________________________
dropout_1551 (Dropout)       (None, 16, 16, 128)       0         
_________________________________________________________________
max_pooling2d_312 (MaxPoolin (None, 8, 8, 128)         0         
_________________________________________________________________
separable_conv2d_1377 (Separ (None, 8, 8, 512)         67200     
_________________________________________________________________
activation_1552 (Activation) (None, 8, 8, 512)         0         
_________________________________________________________________
dropout_1552 (Dropout)       (None, 8, 8, 512)         0         
_________________________________________________________________
separable_conv2d_1378 (Separ (None, 8, 8, 32)          21024     
_________________________________________________________________
batch_normalization_771 (Bat (None, 8, 8, 32)          128       
_________________________________________________________________
activation_1553 (Activation) (None, 8, 8, 32)          0         
_________________________________________________________________
dropout_1553 (Dropout)       (None, 8, 8, 32)          0         
_________________________________________________________________
separable_conv2d_1379 (Separ (None, 8, 8, 1024)        34080     
_________________________________________________________________
batch_normalization_772 (Bat (None, 8, 8, 1024)        4096      
_________________________________________________________________
activation_1554 (Activation) (None, 8, 8, 1024)        0         
_________________________________________________________________
dropout_1554 (Dropout)       (None, 8, 8, 1024)        0         
_________________________________________________________________
separable_conv2d_1380 (Separ (None, 8, 8, 16)          25616     
_________________________________________________________________
batch_normalization_773 (Bat (None, 8, 8, 16)          64        
_________________________________________________________________
activation_1555 (Activation) (None, 8, 8, 16)          0         
_________________________________________________________________
dropout_1555 (Dropout)       (None, 8, 8, 16)          0         
_________________________________________________________________
separable_conv2d_1381 (Separ (None, 8, 8, 16)          416       
_________________________________________________________________
batch_normalization_774 (Bat (None, 8, 8, 16)          64        
_________________________________________________________________
activation_1556 (Activation) (None, 8, 8, 16)          0         
_________________________________________________________________
dropout_1556 (Dropout)       (None, 8, 8, 16)          0         
_________________________________________________________________
separable_conv2d_1382 (Separ (None, 8, 8, 8)           280       
_________________________________________________________________
activation_1557 (Activation) (None, 8, 8, 8)           0         
_________________________________________________________________
dropout_1557 (Dropout)       (None, 8, 8, 8)           0         
_________________________________________________________________
flatten_149 (Flatten)        (None, 512)               0         
_________________________________________________________________
dense_324 (Dense)            (None, 4096)              2101248   
_________________________________________________________________
activation_1558 (Activation) (None, 4096)              0         
_________________________________________________________________
dropout_1558 (Dropout)       (None, 4096)              0         
_________________________________________________________________
dense_325 (Dense)            (None, 100)               409700    
=================================================================
Total params: 2,812,551
Trainable params: 2,808,327
Non-trainable params: 4,224
_________________________________________________________________
