Model: "sequential_377"
_________________________________________________________________
Layer (type)                 Output Shape              Param #   
=================================================================
separable_conv2d_3195 (Separ (None, 32, 32, 1024)      4123      
_________________________________________________________________
batch_normalization_1706 (Ba (None, 32, 32, 1024)      4096      
_________________________________________________________________
activation_3464 (Activation) (None, 32, 32, 1024)      0         
_________________________________________________________________
dropout_3464 (Dropout)       (None, 32, 32, 1024)      0         
_________________________________________________________________
separable_conv2d_3196 (Separ (None, 32, 32, 32)        42016     
_________________________________________________________________
activation_3465 (Activation) (None, 32, 32, 32)        0         
_________________________________________________________________
dropout_3465 (Dropout)       (None, 32, 32, 32)        0         
_________________________________________________________________
max_pooling2d_574 (MaxPoolin (None, 16, 16, 32)        0         
_________________________________________________________________
separable_conv2d_3197 (Separ (None, 16, 16, 512)       17184     
_________________________________________________________________
activation_3466 (Activation) (None, 16, 16, 512)       0         
_________________________________________________________________
dropout_3466 (Dropout)       (None, 16, 16, 512)       0         
_________________________________________________________________
separable_conv2d_3198 (Separ (None, 16, 16, 1024)      529920    
_________________________________________________________________
batch_normalization_1707 (Ba (None, 16, 16, 1024)      4096      
_________________________________________________________________
activation_3467 (Activation) (None, 16, 16, 1024)      0         
_________________________________________________________________
dropout_3467 (Dropout)       (None, 16, 16, 1024)      0         
_________________________________________________________________
separable_conv2d_3199 (Separ (None, 16, 16, 1024)      1058816   
_________________________________________________________________
batch_normalization_1708 (Ba (None, 16, 16, 1024)      4096      
_________________________________________________________________
activation_3468 (Activation) (None, 16, 16, 1024)      0         
_________________________________________________________________
dropout_3468 (Dropout)       (None, 16, 16, 1024)      0         
_________________________________________________________________
separable_conv2d_3200 (Separ (None, 16, 16, 16)        25616     
_________________________________________________________________
batch_normalization_1709 (Ba (None, 16, 16, 16)        64        
_________________________________________________________________
activation_3469 (Activation) (None, 16, 16, 16)        0         
_________________________________________________________________
dropout_3469 (Dropout)       (None, 16, 16, 16)        0         
_________________________________________________________________
separable_conv2d_3201 (Separ (None, 16, 16, 64)        1232      
_________________________________________________________________
activation_3470 (Activation) (None, 16, 16, 64)        0         
_________________________________________________________________
dropout_3470 (Dropout)       (None, 16, 16, 64)        0         
_________________________________________________________________
separable_conv2d_3202 (Separ (None, 16, 16, 16)        1616      
_________________________________________________________________
activation_3471 (Activation) (None, 16, 16, 16)        0         
_________________________________________________________________
dropout_3471 (Dropout)       (None, 16, 16, 16)        0         
_________________________________________________________________
flatten_377 (Flatten)        (None, 4096)              0         
_________________________________________________________________
dense_646 (Dense)            (None, 100)               409700    
=================================================================
Total params: 2,102,575
Trainable params: 2,096,399
Non-trainable params: 6,176
_________________________________________________________________
