Model: "sequential_398"
_________________________________________________________________
Layer (type)                 Output Shape              Param #   
=================================================================
separable_conv2d_3360 (Separ (None, 32, 32, 1024)      4123      
_________________________________________________________________
batch_normalization_1793 (Ba (None, 32, 32, 1024)      4096      
_________________________________________________________________
activation_3633 (Activation) (None, 32, 32, 1024)      0         
_________________________________________________________________
dropout_3633 (Dropout)       (None, 32, 32, 1024)      0         
_________________________________________________________________
separable_conv2d_3361 (Separ (None, 32, 32, 32)        42016     
_________________________________________________________________
activation_3634 (Activation) (None, 32, 32, 32)        0         
_________________________________________________________________
dropout_3634 (Dropout)       (None, 32, 32, 32)        0         
_________________________________________________________________
max_pooling2d_594 (MaxPoolin (None, 16, 16, 32)        0         
_________________________________________________________________
separable_conv2d_3362 (Separ (None, 16, 16, 512)       17184     
_________________________________________________________________
activation_3635 (Activation) (None, 16, 16, 512)       0         
_________________________________________________________________
dropout_3635 (Dropout)       (None, 16, 16, 512)       0         
_________________________________________________________________
separable_conv2d_3363 (Separ (None, 16, 16, 1024)      529920    
_________________________________________________________________
batch_normalization_1794 (Ba (None, 16, 16, 1024)      4096      
_________________________________________________________________
activation_3636 (Activation) (None, 16, 16, 1024)      0         
_________________________________________________________________
dropout_3636 (Dropout)       (None, 16, 16, 1024)      0         
_________________________________________________________________
separable_conv2d_3364 (Separ (None, 16, 16, 1024)      1058816   
_________________________________________________________________
batch_normalization_1795 (Ba (None, 16, 16, 1024)      4096      
_________________________________________________________________
activation_3637 (Activation) (None, 16, 16, 1024)      0         
_________________________________________________________________
dropout_3637 (Dropout)       (None, 16, 16, 1024)      0         
_________________________________________________________________
separable_conv2d_3365 (Separ (None, 16, 16, 16)        25616     
_________________________________________________________________
batch_normalization_1796 (Ba (None, 16, 16, 16)        64        
_________________________________________________________________
activation_3638 (Activation) (None, 16, 16, 16)        0         
_________________________________________________________________
dropout_3638 (Dropout)       (None, 16, 16, 16)        0         
_________________________________________________________________
separable_conv2d_3366 (Separ (None, 16, 16, 64)        1232      
_________________________________________________________________
activation_3639 (Activation) (None, 16, 16, 64)        0         
_________________________________________________________________
dropout_3639 (Dropout)       (None, 16, 16, 64)        0         
_________________________________________________________________
separable_conv2d_3367 (Separ (None, 16, 16, 16)        1616      
_________________________________________________________________
activation_3640 (Activation) (None, 16, 16, 16)        0         
_________________________________________________________________
dropout_3640 (Dropout)       (None, 16, 16, 16)        0         
_________________________________________________________________
flatten_398 (Flatten)        (None, 4096)              0         
_________________________________________________________________
dense_671 (Dense)            (None, 100)               409700    
=================================================================
Total params: 2,102,575
Trainable params: 2,096,399
Non-trainable params: 6,176
_________________________________________________________________
