Model: "sequential_282"
_________________________________________________________________
Layer (type)                 Output Shape              Param #   
=================================================================
separable_conv2d_2436 (Separ (None, 32, 32, 1024)      4123      
_________________________________________________________________
batch_normalization_1321 (Ba (None, 32, 32, 1024)      4096      
_________________________________________________________________
activation_2689 (Activation) (None, 32, 32, 1024)      0         
_________________________________________________________________
dropout_2689 (Dropout)       (None, 32, 32, 1024)      0         
_________________________________________________________________
separable_conv2d_2437 (Separ (None, 32, 32, 32)        42016     
_________________________________________________________________
activation_2690 (Activation) (None, 32, 32, 32)        0         
_________________________________________________________________
dropout_2690 (Dropout)       (None, 32, 32, 32)        0         
_________________________________________________________________
max_pooling2d_468 (MaxPoolin (None, 16, 16, 32)        0         
_________________________________________________________________
separable_conv2d_2438 (Separ (None, 16, 16, 512)       17184     
_________________________________________________________________
activation_2691 (Activation) (None, 16, 16, 512)       0         
_________________________________________________________________
dropout_2691 (Dropout)       (None, 16, 16, 512)       0         
_________________________________________________________________
separable_conv2d_2439 (Separ (None, 16, 16, 1024)      529920    
_________________________________________________________________
batch_normalization_1322 (Ba (None, 16, 16, 1024)      4096      
_________________________________________________________________
activation_2692 (Activation) (None, 16, 16, 1024)      0         
_________________________________________________________________
dropout_2692 (Dropout)       (None, 16, 16, 1024)      0         
_________________________________________________________________
separable_conv2d_2440 (Separ (None, 16, 16, 1024)      1058816   
_________________________________________________________________
batch_normalization_1323 (Ba (None, 16, 16, 1024)      4096      
_________________________________________________________________
activation_2693 (Activation) (None, 16, 16, 1024)      0         
_________________________________________________________________
dropout_2693 (Dropout)       (None, 16, 16, 1024)      0         
_________________________________________________________________
separable_conv2d_2441 (Separ (None, 16, 16, 16)        25616     
_________________________________________________________________
batch_normalization_1324 (Ba (None, 16, 16, 16)        64        
_________________________________________________________________
activation_2694 (Activation) (None, 16, 16, 16)        0         
_________________________________________________________________
dropout_2694 (Dropout)       (None, 16, 16, 16)        0         
_________________________________________________________________
separable_conv2d_2442 (Separ (None, 16, 16, 64)        1232      
_________________________________________________________________
activation_2695 (Activation) (None, 16, 16, 64)        0         
_________________________________________________________________
dropout_2695 (Dropout)       (None, 16, 16, 64)        0         
_________________________________________________________________
separable_conv2d_2443 (Separ (None, 16, 16, 16)        1616      
_________________________________________________________________
activation_2696 (Activation) (None, 16, 16, 16)        0         
_________________________________________________________________
dropout_2696 (Dropout)       (None, 16, 16, 16)        0         
_________________________________________________________________
flatten_282 (Flatten)        (None, 4096)              0         
_________________________________________________________________
dense_535 (Dense)            (None, 100)               409700    
=================================================================
Total params: 2,102,575
Trainable params: 2,096,399
Non-trainable params: 6,176
_________________________________________________________________
