Model: "sequential_46"
_________________________________________________________________
Layer (type)                 Output Shape              Param #   
=================================================================
separable_conv2d_457 (Separa (None, 32, 32, 1024)      4123      
_________________________________________________________________
batch_normalization_261 (Bat (None, 32, 32, 1024)      4096      
_________________________________________________________________
activation_525 (Activation)  (None, 32, 32, 1024)      0         
_________________________________________________________________
dropout_525 (Dropout)        (None, 32, 32, 1024)      0         
_________________________________________________________________
max_pooling2d_106 (MaxPoolin (None, 16, 16, 1024)      0         
_________________________________________________________________
separable_conv2d_458 (Separa (None, 16, 16, 32)        42016     
_________________________________________________________________
activation_526 (Activation)  (None, 16, 16, 32)        0         
_________________________________________________________________
dropout_526 (Dropout)        (None, 16, 16, 32)        0         
_________________________________________________________________
max_pooling2d_107 (MaxPoolin (None, 8, 8, 32)          0         
_________________________________________________________________
separable_conv2d_459 (Separa (None, 8, 8, 512)         17184     
_________________________________________________________________
activation_527 (Activation)  (None, 8, 8, 512)         0         
_________________________________________________________________
dropout_527 (Dropout)        (None, 8, 8, 512)         0         
_________________________________________________________________
separable_conv2d_460 (Separa (None, 8, 8, 1024)        529920    
_________________________________________________________________
batch_normalization_262 (Bat (None, 8, 8, 1024)        4096      
_________________________________________________________________
activation_528 (Activation)  (None, 8, 8, 1024)        0         
_________________________________________________________________
dropout_528 (Dropout)        (None, 8, 8, 1024)        0         
_________________________________________________________________
separable_conv2d_461 (Separa (None, 8, 8, 1024)        1058816   
_________________________________________________________________
batch_normalization_263 (Bat (None, 8, 8, 1024)        4096      
_________________________________________________________________
activation_529 (Activation)  (None, 8, 8, 1024)        0         
_________________________________________________________________
dropout_529 (Dropout)        (None, 8, 8, 1024)        0         
_________________________________________________________________
separable_conv2d_462 (Separa (None, 8, 8, 16)          25616     
_________________________________________________________________
batch_normalization_264 (Bat (None, 8, 8, 16)          64        
_________________________________________________________________
activation_530 (Activation)  (None, 8, 8, 16)          0         
_________________________________________________________________
dropout_530 (Dropout)        (None, 8, 8, 16)          0         
_________________________________________________________________
separable_conv2d_463 (Separa (None, 8, 8, 16)          416       
_________________________________________________________________
batch_normalization_265 (Bat (None, 8, 8, 16)          64        
_________________________________________________________________
activation_531 (Activation)  (None, 8, 8, 16)          0         
_________________________________________________________________
dropout_531 (Dropout)        (None, 8, 8, 16)          0         
_________________________________________________________________
separable_conv2d_464 (Separa (None, 8, 8, 64)          1232      
_________________________________________________________________
activation_532 (Activation)  (None, 8, 8, 64)          0         
_________________________________________________________________
dropout_532 (Dropout)        (None, 8, 8, 64)          0         
_________________________________________________________________
max_pooling2d_108 (MaxPoolin (None, 4, 4, 64)          0         
_________________________________________________________________
separable_conv2d_465 (Separa (None, 4, 4, 256)         17216     
_________________________________________________________________
batch_normalization_266 (Bat (None, 4, 4, 256)         1024      
_________________________________________________________________
activation_533 (Activation)  (None, 4, 4, 256)         0         
_________________________________________________________________
dropout_533 (Dropout)        (None, 4, 4, 256)         0         
_________________________________________________________________
separable_conv2d_466 (Separa (None, 4, 4, 512)         133888    
_________________________________________________________________
batch_normalization_267 (Bat (None, 4, 4, 512)         2048      
_________________________________________________________________
activation_534 (Activation)  (None, 4, 4, 512)         0         
_________________________________________________________________
dropout_534 (Dropout)        (None, 4, 4, 512)         0         
_________________________________________________________________
flatten_46 (Flatten)         (None, 8192)              0         
_________________________________________________________________
dense_114 (Dense)            (None, 64)                524352    
_________________________________________________________________
activation_535 (Activation)  (None, 64)                0         
_________________________________________________________________
dropout_535 (Dropout)        (None, 64)                0         
_________________________________________________________________
dense_115 (Dense)            (None, 1024)              66560     
_________________________________________________________________
activation_536 (Activation)  (None, 1024)              0         
_________________________________________________________________
dropout_536 (Dropout)        (None, 1024)              0         
_________________________________________________________________
dense_116 (Dense)            (None, 100)               102500    
=================================================================
Total params: 2,539,327
Trainable params: 2,531,583
Non-trainable params: 7,744
_________________________________________________________________
