Model: "sequential_375"
_________________________________________________________________
Layer (type)                 Output Shape              Param #   
=================================================================
separable_conv2d_3179 (Separ (None, 32, 32, 512)       2075      
_________________________________________________________________
batch_normalization_1696 (Ba (None, 32, 32, 512)       2048      
_________________________________________________________________
activation_3447 (Activation) (None, 32, 32, 512)       0         
_________________________________________________________________
dropout_3447 (Dropout)       (None, 32, 32, 512)       0         
_________________________________________________________________
separable_conv2d_3180 (Separ (None, 32, 32, 32)        21024     
_________________________________________________________________
activation_3448 (Activation) (None, 32, 32, 32)        0         
_________________________________________________________________
dropout_3448 (Dropout)       (None, 32, 32, 32)        0         
_________________________________________________________________
max_pooling2d_572 (MaxPoolin (None, 16, 16, 32)        0         
_________________________________________________________________
separable_conv2d_3181 (Separ (None, 16, 16, 512)       17184     
_________________________________________________________________
batch_normalization_1697 (Ba (None, 16, 16, 512)       2048      
_________________________________________________________________
activation_3449 (Activation) (None, 16, 16, 512)       0         
_________________________________________________________________
dropout_3449 (Dropout)       (None, 16, 16, 512)       0         
_________________________________________________________________
separable_conv2d_3182 (Separ (None, 16, 16, 1024)      529920    
_________________________________________________________________
batch_normalization_1698 (Ba (None, 16, 16, 1024)      4096      
_________________________________________________________________
activation_3450 (Activation) (None, 16, 16, 1024)      0         
_________________________________________________________________
dropout_3450 (Dropout)       (None, 16, 16, 1024)      0         
_________________________________________________________________
separable_conv2d_3183 (Separ (None, 16, 16, 1024)      1058816   
_________________________________________________________________
batch_normalization_1699 (Ba (None, 16, 16, 1024)      4096      
_________________________________________________________________
activation_3451 (Activation) (None, 16, 16, 1024)      0         
_________________________________________________________________
dropout_3451 (Dropout)       (None, 16, 16, 1024)      0         
_________________________________________________________________
separable_conv2d_3184 (Separ (None, 16, 16, 16)        25616     
_________________________________________________________________
batch_normalization_1700 (Ba (None, 16, 16, 16)        64        
_________________________________________________________________
activation_3452 (Activation) (None, 16, 16, 16)        0         
_________________________________________________________________
dropout_3452 (Dropout)       (None, 16, 16, 16)        0         
_________________________________________________________________
separable_conv2d_3185 (Separ (None, 16, 16, 64)        1232      
_________________________________________________________________
batch_normalization_1701 (Ba (None, 16, 16, 64)        256       
_________________________________________________________________
activation_3453 (Activation) (None, 16, 16, 64)        0         
_________________________________________________________________
dropout_3453 (Dropout)       (None, 16, 16, 64)        0         
_________________________________________________________________
separable_conv2d_3186 (Separ (None, 16, 16, 16)        1616      
_________________________________________________________________
activation_3454 (Activation) (None, 16, 16, 16)        0         
_________________________________________________________________
dropout_3454 (Dropout)       (None, 16, 16, 16)        0         
_________________________________________________________________
flatten_375 (Flatten)        (None, 4096)              0         
_________________________________________________________________
dense_643 (Dense)            (None, 100)               409700    
=================================================================
Total params: 2,079,791
Trainable params: 2,073,487
Non-trainable params: 6,304
_________________________________________________________________
