Model: "sequential_376"
_________________________________________________________________
Layer (type)                 Output Shape              Param #   
=================================================================
separable_conv2d_3187 (Separ (None, 32, 32, 1024)      4123      
_________________________________________________________________
batch_normalization_1702 (Ba (None, 32, 32, 1024)      4096      
_________________________________________________________________
activation_3455 (Activation) (None, 32, 32, 1024)      0         
_________________________________________________________________
dropout_3455 (Dropout)       (None, 32, 32, 1024)      0         
_________________________________________________________________
separable_conv2d_3188 (Separ (None, 32, 32, 32)        42016     
_________________________________________________________________
activation_3456 (Activation) (None, 32, 32, 32)        0         
_________________________________________________________________
dropout_3456 (Dropout)       (None, 32, 32, 32)        0         
_________________________________________________________________
max_pooling2d_573 (MaxPoolin (None, 16, 16, 32)        0         
_________________________________________________________________
separable_conv2d_3189 (Separ (None, 16, 16, 512)       17184     
_________________________________________________________________
activation_3457 (Activation) (None, 16, 16, 512)       0         
_________________________________________________________________
dropout_3457 (Dropout)       (None, 16, 16, 512)       0         
_________________________________________________________________
separable_conv2d_3190 (Separ (None, 16, 16, 1024)      529920    
_________________________________________________________________
batch_normalization_1703 (Ba (None, 16, 16, 1024)      4096      
_________________________________________________________________
activation_3458 (Activation) (None, 16, 16, 1024)      0         
_________________________________________________________________
dropout_3458 (Dropout)       (None, 16, 16, 1024)      0         
_________________________________________________________________
separable_conv2d_3191 (Separ (None, 16, 16, 1024)      1058816   
_________________________________________________________________
batch_normalization_1704 (Ba (None, 16, 16, 1024)      4096      
_________________________________________________________________
activation_3459 (Activation) (None, 16, 16, 1024)      0         
_________________________________________________________________
dropout_3459 (Dropout)       (None, 16, 16, 1024)      0         
_________________________________________________________________
separable_conv2d_3192 (Separ (None, 16, 16, 16)        25616     
_________________________________________________________________
batch_normalization_1705 (Ba (None, 16, 16, 16)        64        
_________________________________________________________________
activation_3460 (Activation) (None, 16, 16, 16)        0         
_________________________________________________________________
dropout_3460 (Dropout)       (None, 16, 16, 16)        0         
_________________________________________________________________
separable_conv2d_3193 (Separ (None, 16, 16, 64)        1232      
_________________________________________________________________
activation_3461 (Activation) (None, 16, 16, 64)        0         
_________________________________________________________________
dropout_3461 (Dropout)       (None, 16, 16, 64)        0         
_________________________________________________________________
separable_conv2d_3194 (Separ (None, 16, 16, 16)        1616      
_________________________________________________________________
activation_3462 (Activation) (None, 16, 16, 16)        0         
_________________________________________________________________
dropout_3462 (Dropout)       (None, 16, 16, 16)        0         
_________________________________________________________________
flatten_376 (Flatten)        (None, 4096)              0         
_________________________________________________________________
dense_644 (Dense)            (None, 4096)              16781312  
_________________________________________________________________
activation_3463 (Activation) (None, 4096)              0         
_________________________________________________________________
dropout_3463 (Dropout)       (None, 4096)              0         
_________________________________________________________________
dense_645 (Dense)            (None, 100)               409700    
=================================================================
Total params: 18,883,887
Trainable params: 18,877,711
Non-trainable params: 6,176
_________________________________________________________________
