Model: "sequential_355"
_________________________________________________________________
Layer (type)                 Output Shape              Param #   
=================================================================
separable_conv2d_3019 (Separ (None, 32, 32, 1024)      4123      
_________________________________________________________________
batch_normalization_1612 (Ba (None, 32, 32, 1024)      4096      
_________________________________________________________________
activation_3284 (Activation) (None, 32, 32, 1024)      0         
_________________________________________________________________
dropout_3284 (Dropout)       (None, 32, 32, 1024)      0         
_________________________________________________________________
separable_conv2d_3020 (Separ (None, 32, 32, 32)        42016     
_________________________________________________________________
activation_3285 (Activation) (None, 32, 32, 32)        0         
_________________________________________________________________
dropout_3285 (Dropout)       (None, 32, 32, 32)        0         
_________________________________________________________________
max_pooling2d_551 (MaxPoolin (None, 16, 16, 32)        0         
_________________________________________________________________
separable_conv2d_3021 (Separ (None, 16, 16, 512)       17184     
_________________________________________________________________
activation_3286 (Activation) (None, 16, 16, 512)       0         
_________________________________________________________________
dropout_3286 (Dropout)       (None, 16, 16, 512)       0         
_________________________________________________________________
separable_conv2d_3022 (Separ (None, 16, 16, 1024)      529920    
_________________________________________________________________
batch_normalization_1613 (Ba (None, 16, 16, 1024)      4096      
_________________________________________________________________
activation_3287 (Activation) (None, 16, 16, 1024)      0         
_________________________________________________________________
dropout_3287 (Dropout)       (None, 16, 16, 1024)      0         
_________________________________________________________________
separable_conv2d_3023 (Separ (None, 16, 16, 1024)      1058816   
_________________________________________________________________
batch_normalization_1614 (Ba (None, 16, 16, 1024)      4096      
_________________________________________________________________
activation_3288 (Activation) (None, 16, 16, 1024)      0         
_________________________________________________________________
dropout_3288 (Dropout)       (None, 16, 16, 1024)      0         
_________________________________________________________________
separable_conv2d_3024 (Separ (None, 16, 16, 16)        25616     
_________________________________________________________________
batch_normalization_1615 (Ba (None, 16, 16, 16)        64        
_________________________________________________________________
activation_3289 (Activation) (None, 16, 16, 16)        0         
_________________________________________________________________
dropout_3289 (Dropout)       (None, 16, 16, 16)        0         
_________________________________________________________________
separable_conv2d_3025 (Separ (None, 16, 16, 64)        1232      
_________________________________________________________________
batch_normalization_1616 (Ba (None, 16, 16, 64)        256       
_________________________________________________________________
activation_3290 (Activation) (None, 16, 16, 64)        0         
_________________________________________________________________
dropout_3290 (Dropout)       (None, 16, 16, 64)        0         
_________________________________________________________________
separable_conv2d_3026 (Separ (None, 16, 16, 16)        1616      
_________________________________________________________________
activation_3291 (Activation) (None, 16, 16, 16)        0         
_________________________________________________________________
dropout_3291 (Dropout)       (None, 16, 16, 16)        0         
_________________________________________________________________
flatten_355 (Flatten)        (None, 4096)              0         
_________________________________________________________________
dense_620 (Dense)            (None, 100)               409700    
=================================================================
Total params: 2,102,831
Trainable params: 2,096,527
Non-trainable params: 6,304
_________________________________________________________________
