Model: "sequential_207"
_________________________________________________________________
Layer (type)                 Output Shape              Param #   
=================================================================
separable_conv2d_1840 (Separ (None, 32, 32, 256)       1051      
_________________________________________________________________
batch_normalization_1022 (Ba (None, 32, 32, 256)       1024      
_________________________________________________________________
activation_2061 (Activation) (None, 32, 32, 256)       0         
_________________________________________________________________
dropout_2061 (Dropout)       (None, 32, 32, 256)       0         
_________________________________________________________________
separable_conv2d_1841 (Separ (None, 32, 32, 32)        10528     
_________________________________________________________________
activation_2062 (Activation) (None, 32, 32, 32)        0         
_________________________________________________________________
dropout_2062 (Dropout)       (None, 32, 32, 32)        0         
_________________________________________________________________
max_pooling2d_391 (MaxPoolin (None, 16, 16, 32)        0         
_________________________________________________________________
separable_conv2d_1842 (Separ (None, 16, 16, 512)       17184     
_________________________________________________________________
activation_2063 (Activation) (None, 16, 16, 512)       0         
_________________________________________________________________
dropout_2063 (Dropout)       (None, 16, 16, 512)       0         
_________________________________________________________________
separable_conv2d_1843 (Separ (None, 16, 16, 1024)      529920    
_________________________________________________________________
batch_normalization_1023 (Ba (None, 16, 16, 1024)      4096      
_________________________________________________________________
activation_2064 (Activation) (None, 16, 16, 1024)      0         
_________________________________________________________________
dropout_2064 (Dropout)       (None, 16, 16, 1024)      0         
_________________________________________________________________
separable_conv2d_1844 (Separ (None, 16, 16, 1024)      1058816   
_________________________________________________________________
batch_normalization_1024 (Ba (None, 16, 16, 1024)      4096      
_________________________________________________________________
activation_2065 (Activation) (None, 16, 16, 1024)      0         
_________________________________________________________________
dropout_2065 (Dropout)       (None, 16, 16, 1024)      0         
_________________________________________________________________
separable_conv2d_1845 (Separ (None, 16, 16, 16)        25616     
_________________________________________________________________
batch_normalization_1025 (Ba (None, 16, 16, 16)        64        
_________________________________________________________________
activation_2066 (Activation) (None, 16, 16, 16)        0         
_________________________________________________________________
dropout_2066 (Dropout)       (None, 16, 16, 16)        0         
_________________________________________________________________
separable_conv2d_1846 (Separ (None, 16, 16, 64)        1232      
_________________________________________________________________
activation_2067 (Activation) (None, 16, 16, 64)        0         
_________________________________________________________________
dropout_2067 (Dropout)       (None, 16, 16, 64)        0         
_________________________________________________________________
separable_conv2d_1847 (Separ (None, 16, 16, 16)        1616      
_________________________________________________________________
activation_2068 (Activation) (None, 16, 16, 16)        0         
_________________________________________________________________
dropout_2068 (Dropout)       (None, 16, 16, 16)        0         
_________________________________________________________________
flatten_207 (Flatten)        (None, 4096)              0         
_________________________________________________________________
dense_428 (Dense)            (None, 4096)              16781312  
_________________________________________________________________
activation_2069 (Activation) (None, 4096)              0         
_________________________________________________________________
dropout_2069 (Dropout)       (None, 4096)              0         
_________________________________________________________________
dense_429 (Dense)            (None, 100)               409700    
=================================================================
Total params: 18,846,255
Trainable params: 18,841,615
Non-trainable params: 4,640
_________________________________________________________________
