Model: "sequential_2"
_________________________________________________________________
Layer (type)                 Output Shape              Param #   
=================================================================
separable_conv2d_25 (Separab (None, 32, 32, 64)        283       
_________________________________________________________________
activation_31 (Activation)   (None, 32, 32, 64)        0         
_________________________________________________________________
dropout_31 (Dropout)         (None, 32, 32, 64)        0         
_________________________________________________________________
separable_conv2d_26 (Separab (None, 32, 32, 32)        2656      
_________________________________________________________________
activation_32 (Activation)   (None, 32, 32, 32)        0         
_________________________________________________________________
dropout_32 (Dropout)         (None, 32, 32, 32)        0         
_________________________________________________________________
separable_conv2d_27 (Separab (None, 32, 32, 32)        1344      
_________________________________________________________________
batch_normalization_16 (Batc (None, 32, 32, 32)        128       
_________________________________________________________________
activation_33 (Activation)   (None, 32, 32, 32)        0         
_________________________________________________________________
dropout_33 (Dropout)         (None, 32, 32, 32)        0         
_________________________________________________________________
separable_conv2d_28 (Separab (None, 32, 32, 128)       4512      
_________________________________________________________________
batch_normalization_17 (Batc (None, 32, 32, 128)       512       
_________________________________________________________________
activation_34 (Activation)   (None, 32, 32, 128)       0         
_________________________________________________________________
dropout_34 (Dropout)         (None, 32, 32, 128)       0         
_________________________________________________________________
separable_conv2d_29 (Separab (None, 32, 32, 1024)      133248    
_________________________________________________________________
batch_normalization_18 (Batc (None, 32, 32, 1024)      4096      
_________________________________________________________________
activation_35 (Activation)   (None, 32, 32, 1024)      0         
_________________________________________________________________
dropout_35 (Dropout)         (None, 32, 32, 1024)      0         
_________________________________________________________________
separable_conv2d_30 (Separab (None, 32, 32, 8)         17416     
_________________________________________________________________
activation_36 (Activation)   (None, 32, 32, 8)         0         
_________________________________________________________________
dropout_36 (Dropout)         (None, 32, 32, 8)         0         
_________________________________________________________________
separable_conv2d_31 (Separab (None, 32, 32, 128)       1224      
_________________________________________________________________
activation_37 (Activation)   (None, 32, 32, 128)       0         
_________________________________________________________________
dropout_37 (Dropout)         (None, 32, 32, 128)       0         
_________________________________________________________________
separable_conv2d_32 (Separab (None, 32, 32, 8)         2184      
_________________________________________________________________
activation_38 (Activation)   (None, 32, 32, 8)         0         
_________________________________________________________________
dropout_38 (Dropout)         (None, 32, 32, 8)         0         
_________________________________________________________________
max_pooling2d_5 (MaxPooling2 (None, 16, 16, 8)         0         
_________________________________________________________________
separable_conv2d_33 (Separab (None, 16, 16, 256)       2376      
_________________________________________________________________
activation_39 (Activation)   (None, 16, 16, 256)       0         
_________________________________________________________________
dropout_39 (Dropout)         (None, 16, 16, 256)       0         
_________________________________________________________________
max_pooling2d_6 (MaxPooling2 (None, 8, 8, 256)         0         
_________________________________________________________________
separable_conv2d_34 (Separab (None, 8, 8, 32)          10528     
_________________________________________________________________
activation_40 (Activation)   (None, 8, 8, 32)          0         
_________________________________________________________________
dropout_40 (Dropout)         (None, 8, 8, 32)          0         
_________________________________________________________________
separable_conv2d_35 (Separab (None, 8, 8, 16)          816       
_________________________________________________________________
activation_41 (Activation)   (None, 8, 8, 16)          0         
_________________________________________________________________
dropout_41 (Dropout)         (None, 8, 8, 16)          0         
_________________________________________________________________
max_pooling2d_7 (MaxPooling2 (None, 4, 4, 16)          0         
_________________________________________________________________
separable_conv2d_36 (Separab (None, 4, 4, 512)         8848      
_________________________________________________________________
batch_normalization_19 (Batc (None, 4, 4, 512)         2048      
_________________________________________________________________
activation_42 (Activation)   (None, 4, 4, 512)         0         
_________________________________________________________________
dropout_42 (Dropout)         (None, 4, 4, 512)         0         
_________________________________________________________________
separable_conv2d_37 (Separab (None, 4, 4, 128)         70272     
_________________________________________________________________
batch_normalization_20 (Batc (None, 4, 4, 128)         512       
_________________________________________________________________
activation_43 (Activation)   (None, 4, 4, 128)         0         
_________________________________________________________________
dropout_43 (Dropout)         (None, 4, 4, 128)         0         
_________________________________________________________________
flatten_2 (Flatten)          (None, 2048)              0         
_________________________________________________________________
dense_8 (Dense)              (None, 256)               524544    
_________________________________________________________________
activation_44 (Activation)   (None, 256)               0         
_________________________________________________________________
dropout_44 (Dropout)         (None, 256)               0         
_________________________________________________________________
dense_9 (Dense)              (None, 100)               25700     
=================================================================
Total params: 813,247
Trainable params: 809,599
Non-trainable params: 3,648
_________________________________________________________________
