Model: "sequential_249"
_________________________________________________________________
Layer (type)                 Output Shape              Param #   
=================================================================
separable_conv2d_2173 (Separ (None, 32, 32, 1024)      4123      
_________________________________________________________________
batch_normalization_1194 (Ba (None, 32, 32, 1024)      4096      
_________________________________________________________________
activation_2416 (Activation) (None, 32, 32, 1024)      0         
_________________________________________________________________
dropout_2416 (Dropout)       (None, 32, 32, 1024)      0         
_________________________________________________________________
separable_conv2d_2174 (Separ (None, 32, 32, 32)        42016     
_________________________________________________________________
activation_2417 (Activation) (None, 32, 32, 32)        0         
_________________________________________________________________
dropout_2417 (Dropout)       (None, 32, 32, 32)        0         
_________________________________________________________________
max_pooling2d_434 (MaxPoolin (None, 16, 16, 32)        0         
_________________________________________________________________
separable_conv2d_2175 (Separ (None, 16, 16, 512)       17184     
_________________________________________________________________
activation_2418 (Activation) (None, 16, 16, 512)       0         
_________________________________________________________________
dropout_2418 (Dropout)       (None, 16, 16, 512)       0         
_________________________________________________________________
separable_conv2d_2176 (Separ (None, 16, 16, 1024)      529920    
_________________________________________________________________
batch_normalization_1195 (Ba (None, 16, 16, 1024)      4096      
_________________________________________________________________
activation_2419 (Activation) (None, 16, 16, 1024)      0         
_________________________________________________________________
dropout_2419 (Dropout)       (None, 16, 16, 1024)      0         
_________________________________________________________________
separable_conv2d_2177 (Separ (None, 16, 16, 1024)      1058816   
_________________________________________________________________
batch_normalization_1196 (Ba (None, 16, 16, 1024)      4096      
_________________________________________________________________
activation_2420 (Activation) (None, 16, 16, 1024)      0         
_________________________________________________________________
dropout_2420 (Dropout)       (None, 16, 16, 1024)      0         
_________________________________________________________________
separable_conv2d_2178 (Separ (None, 16, 16, 16)        25616     
_________________________________________________________________
batch_normalization_1197 (Ba (None, 16, 16, 16)        64        
_________________________________________________________________
activation_2421 (Activation) (None, 16, 16, 16)        0         
_________________________________________________________________
dropout_2421 (Dropout)       (None, 16, 16, 16)        0         
_________________________________________________________________
separable_conv2d_2179 (Separ (None, 16, 16, 64)        1232      
_________________________________________________________________
activation_2422 (Activation) (None, 16, 16, 64)        0         
_________________________________________________________________
dropout_2422 (Dropout)       (None, 16, 16, 64)        0         
_________________________________________________________________
separable_conv2d_2180 (Separ (None, 16, 16, 16)        1616      
_________________________________________________________________
activation_2423 (Activation) (None, 16, 16, 16)        0         
_________________________________________________________________
dropout_2423 (Dropout)       (None, 16, 16, 16)        0         
_________________________________________________________________
flatten_249 (Flatten)        (None, 4096)              0         
_________________________________________________________________
dense_492 (Dense)            (None, 100)               409700    
=================================================================
Total params: 2,102,575
Trainable params: 2,096,399
Non-trainable params: 6,176
_________________________________________________________________
