Model: "sequential_250"
_________________________________________________________________
Layer (type)                 Output Shape              Param #   
=================================================================
separable_conv2d_2181 (Separ (None, 32, 32, 1024)      4123      
_________________________________________________________________
batch_normalization_1198 (Ba (None, 32, 32, 1024)      4096      
_________________________________________________________________
activation_2424 (Activation) (None, 32, 32, 1024)      0         
_________________________________________________________________
dropout_2424 (Dropout)       (None, 32, 32, 1024)      0         
_________________________________________________________________
separable_conv2d_2182 (Separ (None, 32, 32, 32)        42016     
_________________________________________________________________
activation_2425 (Activation) (None, 32, 32, 32)        0         
_________________________________________________________________
dropout_2425 (Dropout)       (None, 32, 32, 32)        0         
_________________________________________________________________
max_pooling2d_435 (MaxPoolin (None, 16, 16, 32)        0         
_________________________________________________________________
separable_conv2d_2183 (Separ (None, 16, 16, 512)       17184     
_________________________________________________________________
activation_2426 (Activation) (None, 16, 16, 512)       0         
_________________________________________________________________
dropout_2426 (Dropout)       (None, 16, 16, 512)       0         
_________________________________________________________________
separable_conv2d_2184 (Separ (None, 16, 16, 1024)      529920    
_________________________________________________________________
batch_normalization_1199 (Ba (None, 16, 16, 1024)      4096      
_________________________________________________________________
activation_2427 (Activation) (None, 16, 16, 1024)      0         
_________________________________________________________________
dropout_2427 (Dropout)       (None, 16, 16, 1024)      0         
_________________________________________________________________
separable_conv2d_2185 (Separ (None, 16, 16, 1024)      1058816   
_________________________________________________________________
batch_normalization_1200 (Ba (None, 16, 16, 1024)      4096      
_________________________________________________________________
activation_2428 (Activation) (None, 16, 16, 1024)      0         
_________________________________________________________________
dropout_2428 (Dropout)       (None, 16, 16, 1024)      0         
_________________________________________________________________
separable_conv2d_2186 (Separ (None, 16, 16, 16)        25616     
_________________________________________________________________
batch_normalization_1201 (Ba (None, 16, 16, 16)        64        
_________________________________________________________________
activation_2429 (Activation) (None, 16, 16, 16)        0         
_________________________________________________________________
dropout_2429 (Dropout)       (None, 16, 16, 16)        0         
_________________________________________________________________
separable_conv2d_2187 (Separ (None, 16, 16, 64)        1232      
_________________________________________________________________
activation_2430 (Activation) (None, 16, 16, 64)        0         
_________________________________________________________________
dropout_2430 (Dropout)       (None, 16, 16, 64)        0         
_________________________________________________________________
separable_conv2d_2188 (Separ (None, 16, 16, 16)        1616      
_________________________________________________________________
activation_2431 (Activation) (None, 16, 16, 16)        0         
_________________________________________________________________
dropout_2431 (Dropout)       (None, 16, 16, 16)        0         
_________________________________________________________________
flatten_250 (Flatten)        (None, 4096)              0         
_________________________________________________________________
dense_493 (Dense)            (None, 4096)              16781312  
_________________________________________________________________
activation_2432 (Activation) (None, 4096)              0         
_________________________________________________________________
dropout_2432 (Dropout)       (None, 4096)              0         
_________________________________________________________________
dense_494 (Dense)            (None, 100)               409700    
=================================================================
Total params: 18,883,887
Trainable params: 18,877,711
Non-trainable params: 6,176
_________________________________________________________________
