Model: "sequential_345"
_________________________________________________________________
Layer (type)                 Output Shape              Param #   
=================================================================
separable_conv2d_2940 (Separ (None, 32, 32, 1024)      4123      
_________________________________________________________________
batch_normalization_1570 (Ba (None, 32, 32, 1024)      4096      
_________________________________________________________________
activation_3202 (Activation) (None, 32, 32, 1024)      0         
_________________________________________________________________
dropout_3202 (Dropout)       (None, 32, 32, 1024)      0         
_________________________________________________________________
separable_conv2d_2941 (Separ (None, 32, 32, 32)        42016     
_________________________________________________________________
activation_3203 (Activation) (None, 32, 32, 32)        0         
_________________________________________________________________
dropout_3203 (Dropout)       (None, 32, 32, 32)        0         
_________________________________________________________________
max_pooling2d_539 (MaxPoolin (None, 16, 16, 32)        0         
_________________________________________________________________
separable_conv2d_2942 (Separ (None, 16, 16, 512)       17184     
_________________________________________________________________
activation_3204 (Activation) (None, 16, 16, 512)       0         
_________________________________________________________________
dropout_3204 (Dropout)       (None, 16, 16, 512)       0         
_________________________________________________________________
separable_conv2d_2943 (Separ (None, 16, 16, 1024)      529920    
_________________________________________________________________
batch_normalization_1571 (Ba (None, 16, 16, 1024)      4096      
_________________________________________________________________
activation_3205 (Activation) (None, 16, 16, 1024)      0         
_________________________________________________________________
dropout_3205 (Dropout)       (None, 16, 16, 1024)      0         
_________________________________________________________________
separable_conv2d_2944 (Separ (None, 16, 16, 1024)      1058816   
_________________________________________________________________
batch_normalization_1572 (Ba (None, 16, 16, 1024)      4096      
_________________________________________________________________
activation_3206 (Activation) (None, 16, 16, 1024)      0         
_________________________________________________________________
dropout_3206 (Dropout)       (None, 16, 16, 1024)      0         
_________________________________________________________________
separable_conv2d_2945 (Separ (None, 16, 16, 16)        25616     
_________________________________________________________________
batch_normalization_1573 (Ba (None, 16, 16, 16)        64        
_________________________________________________________________
activation_3207 (Activation) (None, 16, 16, 16)        0         
_________________________________________________________________
dropout_3207 (Dropout)       (None, 16, 16, 16)        0         
_________________________________________________________________
separable_conv2d_2946 (Separ (None, 16, 16, 64)        1232      
_________________________________________________________________
activation_3208 (Activation) (None, 16, 16, 64)        0         
_________________________________________________________________
dropout_3208 (Dropout)       (None, 16, 16, 64)        0         
_________________________________________________________________
separable_conv2d_2947 (Separ (None, 16, 16, 16)        1616      
_________________________________________________________________
activation_3209 (Activation) (None, 16, 16, 16)        0         
_________________________________________________________________
dropout_3209 (Dropout)       (None, 16, 16, 16)        0         
_________________________________________________________________
flatten_345 (Flatten)        (None, 4096)              0         
_________________________________________________________________
dense_607 (Dense)            (None, 100)               409700    
=================================================================
Total params: 2,102,575
Trainable params: 2,096,399
Non-trainable params: 6,176
_________________________________________________________________
