Model: "sequential_364"
_________________________________________________________________
Layer (type)                 Output Shape              Param #   
=================================================================
separable_conv2d_3091 (Separ (None, 32, 32, 1024)      4123      
_________________________________________________________________
batch_normalization_1654 (Ba (None, 32, 32, 1024)      4096      
_________________________________________________________________
activation_3357 (Activation) (None, 32, 32, 1024)      0         
_________________________________________________________________
dropout_3357 (Dropout)       (None, 32, 32, 1024)      0         
_________________________________________________________________
separable_conv2d_3092 (Separ (None, 32, 32, 32)        42016     
_________________________________________________________________
activation_3358 (Activation) (None, 32, 32, 32)        0         
_________________________________________________________________
dropout_3358 (Dropout)       (None, 32, 32, 32)        0         
_________________________________________________________________
max_pooling2d_560 (MaxPoolin (None, 16, 16, 32)        0         
_________________________________________________________________
separable_conv2d_3093 (Separ (None, 16, 16, 512)       17184     
_________________________________________________________________
activation_3359 (Activation) (None, 16, 16, 512)       0         
_________________________________________________________________
dropout_3359 (Dropout)       (None, 16, 16, 512)       0         
_________________________________________________________________
separable_conv2d_3094 (Separ (None, 16, 16, 1024)      529920    
_________________________________________________________________
batch_normalization_1655 (Ba (None, 16, 16, 1024)      4096      
_________________________________________________________________
activation_3360 (Activation) (None, 16, 16, 1024)      0         
_________________________________________________________________
dropout_3360 (Dropout)       (None, 16, 16, 1024)      0         
_________________________________________________________________
separable_conv2d_3095 (Separ (None, 16, 16, 1024)      1058816   
_________________________________________________________________
batch_normalization_1656 (Ba (None, 16, 16, 1024)      4096      
_________________________________________________________________
activation_3361 (Activation) (None, 16, 16, 1024)      0         
_________________________________________________________________
dropout_3361 (Dropout)       (None, 16, 16, 1024)      0         
_________________________________________________________________
separable_conv2d_3096 (Separ (None, 16, 16, 16)        25616     
_________________________________________________________________
batch_normalization_1657 (Ba (None, 16, 16, 16)        64        
_________________________________________________________________
activation_3362 (Activation) (None, 16, 16, 16)        0         
_________________________________________________________________
dropout_3362 (Dropout)       (None, 16, 16, 16)        0         
_________________________________________________________________
separable_conv2d_3097 (Separ (None, 16, 16, 64)        1232      
_________________________________________________________________
batch_normalization_1658 (Ba (None, 16, 16, 64)        256       
_________________________________________________________________
activation_3363 (Activation) (None, 16, 16, 64)        0         
_________________________________________________________________
dropout_3363 (Dropout)       (None, 16, 16, 64)        0         
_________________________________________________________________
separable_conv2d_3098 (Separ (None, 16, 16, 16)        1616      
_________________________________________________________________
activation_3364 (Activation) (None, 16, 16, 16)        0         
_________________________________________________________________
dropout_3364 (Dropout)       (None, 16, 16, 16)        0         
_________________________________________________________________
flatten_364 (Flatten)        (None, 4096)              0         
_________________________________________________________________
dense_630 (Dense)            (None, 100)               409700    
=================================================================
Total params: 2,102,831
Trainable params: 2,096,527
Non-trainable params: 6,304
_________________________________________________________________
