Model: "sequential_9"
_________________________________________________________________
Layer (type)                 Output Shape              Param #   
=================================================================
separable_conv2d_92 (Separab (None, 32, 32, 8)         59        
_________________________________________________________________
activation_108 (Activation)  (None, 32, 32, 8)         0         
_________________________________________________________________
dropout_108 (Dropout)        (None, 32, 32, 8)         0         
_________________________________________________________________
separable_conv2d_93 (Separab (None, 32, 32, 128)       1224      
_________________________________________________________________
activation_109 (Activation)  (None, 32, 32, 128)       0         
_________________________________________________________________
dropout_109 (Dropout)        (None, 32, 32, 128)       0         
_________________________________________________________________
max_pooling2d_25 (MaxPooling (None, 16, 16, 128)       0         
_________________________________________________________________
separable_conv2d_94 (Separab (None, 16, 16, 256)       34176     
_________________________________________________________________
activation_110 (Activation)  (None, 16, 16, 256)       0         
_________________________________________________________________
dropout_110 (Dropout)        (None, 16, 16, 256)       0         
_________________________________________________________________
separable_conv2d_95 (Separab (None, 16, 16, 16)        6416      
_________________________________________________________________
activation_111 (Activation)  (None, 16, 16, 16)        0         
_________________________________________________________________
dropout_111 (Dropout)        (None, 16, 16, 16)        0         
_________________________________________________________________
separable_conv2d_96 (Separab (None, 16, 16, 512)       8848      
_________________________________________________________________
batch_normalization_49 (Batc (None, 16, 16, 512)       2048      
_________________________________________________________________
activation_112 (Activation)  (None, 16, 16, 512)       0         
_________________________________________________________________
dropout_112 (Dropout)        (None, 16, 16, 512)       0         
_________________________________________________________________
max_pooling2d_26 (MaxPooling (None, 8, 8, 512)         0         
_________________________________________________________________
separable_conv2d_97 (Separab (None, 8, 8, 32)          21024     
_________________________________________________________________
activation_113 (Activation)  (None, 8, 8, 32)          0         
_________________________________________________________________
dropout_113 (Dropout)        (None, 8, 8, 32)          0         
_________________________________________________________________
separable_conv2d_98 (Separab (None, 8, 8, 64)          2400      
_________________________________________________________________
batch_normalization_50 (Batc (None, 8, 8, 64)          256       
_________________________________________________________________
activation_114 (Activation)  (None, 8, 8, 64)          0         
_________________________________________________________________
dropout_114 (Dropout)        (None, 8, 8, 64)          0         
_________________________________________________________________
max_pooling2d_27 (MaxPooling (None, 4, 4, 64)          0         
_________________________________________________________________
separable_conv2d_99 (Separab (None, 4, 4, 256)         17216     
_________________________________________________________________
batch_normalization_51 (Batc (None, 4, 4, 256)         1024      
_________________________________________________________________
activation_115 (Activation)  (None, 4, 4, 256)         0         
_________________________________________________________________
dropout_115 (Dropout)        (None, 4, 4, 256)         0         
_________________________________________________________________
separable_conv2d_100 (Separa (None, 4, 4, 8)           4360      
_________________________________________________________________
activation_116 (Activation)  (None, 4, 4, 8)           0         
_________________________________________________________________
dropout_116 (Dropout)        (None, 4, 4, 8)           0         
_________________________________________________________________
separable_conv2d_101 (Separa (None, 4, 4, 512)         4680      
_________________________________________________________________
activation_117 (Activation)  (None, 4, 4, 512)         0         
_________________________________________________________________
dropout_117 (Dropout)        (None, 4, 4, 512)         0         
_________________________________________________________________
separable_conv2d_102 (Separa (None, 4, 4, 128)         70272     
_________________________________________________________________
activation_118 (Activation)  (None, 4, 4, 128)         0         
_________________________________________________________________
dropout_118 (Dropout)        (None, 4, 4, 128)         0         
_________________________________________________________________
separable_conv2d_103 (Separa (None, 4, 4, 16)          3216      
_________________________________________________________________
batch_normalization_52 (Batc (None, 4, 4, 16)          64        
_________________________________________________________________
activation_119 (Activation)  (None, 4, 4, 16)          0         
_________________________________________________________________
dropout_119 (Dropout)        (None, 4, 4, 16)          0         
_________________________________________________________________
separable_conv2d_104 (Separa (None, 4, 4, 256)         4496      
_________________________________________________________________
activation_120 (Activation)  (None, 4, 4, 256)         0         
_________________________________________________________________
dropout_120 (Dropout)        (None, 4, 4, 256)         0         
_________________________________________________________________
flatten_9 (Flatten)          (None, 4096)              0         
_________________________________________________________________
dense_25 (Dense)             (None, 100)               409700    
=================================================================
Total params: 591,479
Trainable params: 589,783
Non-trainable params: 1,696
_________________________________________________________________
