Model: "sequential_163"
_________________________________________________________________
Layer (type)                 Output Shape              Param #   
=================================================================
separable_conv2d_1488 (Separ (None, 32, 32, 1024)      4123      
_________________________________________________________________
batch_normalization_834 (Bat (None, 32, 32, 1024)      4096      
_________________________________________________________________
activation_1676 (Activation) (None, 32, 32, 1024)      0         
_________________________________________________________________
dropout_1676 (Dropout)       (None, 32, 32, 1024)      0         
_________________________________________________________________
separable_conv2d_1489 (Separ (None, 32, 32, 32)        42016     
_________________________________________________________________
activation_1677 (Activation) (None, 32, 32, 32)        0         
_________________________________________________________________
dropout_1677 (Dropout)       (None, 32, 32, 32)        0         
_________________________________________________________________
max_pooling2d_336 (MaxPoolin (None, 16, 16, 32)        0         
_________________________________________________________________
separable_conv2d_1490 (Separ (None, 16, 16, 512)       17184     
_________________________________________________________________
activation_1678 (Activation) (None, 16, 16, 512)       0         
_________________________________________________________________
dropout_1678 (Dropout)       (None, 16, 16, 512)       0         
_________________________________________________________________
separable_conv2d_1491 (Separ (None, 16, 16, 1024)      529920    
_________________________________________________________________
batch_normalization_835 (Bat (None, 16, 16, 1024)      4096      
_________________________________________________________________
activation_1679 (Activation) (None, 16, 16, 1024)      0         
_________________________________________________________________
dropout_1679 (Dropout)       (None, 16, 16, 1024)      0         
_________________________________________________________________
separable_conv2d_1492 (Separ (None, 16, 16, 1024)      1058816   
_________________________________________________________________
batch_normalization_836 (Bat (None, 16, 16, 1024)      4096      
_________________________________________________________________
activation_1680 (Activation) (None, 16, 16, 1024)      0         
_________________________________________________________________
dropout_1680 (Dropout)       (None, 16, 16, 1024)      0         
_________________________________________________________________
separable_conv2d_1493 (Separ (None, 16, 16, 16)        25616     
_________________________________________________________________
batch_normalization_837 (Bat (None, 16, 16, 16)        64        
_________________________________________________________________
activation_1681 (Activation) (None, 16, 16, 16)        0         
_________________________________________________________________
dropout_1681 (Dropout)       (None, 16, 16, 16)        0         
_________________________________________________________________
separable_conv2d_1494 (Separ (None, 16, 16, 16)        416       
_________________________________________________________________
batch_normalization_838 (Bat (None, 16, 16, 16)        64        
_________________________________________________________________
activation_1682 (Activation) (None, 16, 16, 16)        0         
_________________________________________________________________
dropout_1682 (Dropout)       (None, 16, 16, 16)        0         
_________________________________________________________________
separable_conv2d_1495 (Separ (None, 16, 16, 8)         280       
_________________________________________________________________
activation_1683 (Activation) (None, 16, 16, 8)         0         
_________________________________________________________________
dropout_1683 (Dropout)       (None, 16, 16, 8)         0         
_________________________________________________________________
flatten_163 (Flatten)        (None, 2048)              0         
_________________________________________________________________
dense_351 (Dense)            (None, 4096)              8392704   
_________________________________________________________________
activation_1684 (Activation) (None, 4096)              0         
_________________________________________________________________
dropout_1684 (Dropout)       (None, 4096)              0         
_________________________________________________________________
dense_352 (Dense)            (None, 100)               409700    
=================================================================
Total params: 10,493,191
Trainable params: 10,486,983
Non-trainable params: 6,208
_________________________________________________________________
