Model: "sequential_170"
_________________________________________________________________
Layer (type)                 Output Shape              Param #   
=================================================================
separable_conv2d_1545 (Separ (None, 32, 32, 1024)      4123      
_________________________________________________________________
batch_normalization_866 (Bat (None, 32, 32, 1024)      4096      
_________________________________________________________________
activation_1740 (Activation) (None, 32, 32, 1024)      0         
_________________________________________________________________
dropout_1740 (Dropout)       (None, 32, 32, 1024)      0         
_________________________________________________________________
max_pooling2d_346 (MaxPoolin (None, 16, 16, 1024)      0         
_________________________________________________________________
separable_conv2d_1546 (Separ (None, 16, 16, 32)        42016     
_________________________________________________________________
activation_1741 (Activation) (None, 16, 16, 32)        0         
_________________________________________________________________
dropout_1741 (Dropout)       (None, 16, 16, 32)        0         
_________________________________________________________________
max_pooling2d_347 (MaxPoolin (None, 8, 8, 32)          0         
_________________________________________________________________
separable_conv2d_1547 (Separ (None, 8, 8, 512)         17184     
_________________________________________________________________
activation_1742 (Activation) (None, 8, 8, 512)         0         
_________________________________________________________________
dropout_1742 (Dropout)       (None, 8, 8, 512)         0         
_________________________________________________________________
separable_conv2d_1548 (Separ (None, 8, 8, 1024)        529920    
_________________________________________________________________
batch_normalization_867 (Bat (None, 8, 8, 1024)        4096      
_________________________________________________________________
activation_1743 (Activation) (None, 8, 8, 1024)        0         
_________________________________________________________________
dropout_1743 (Dropout)       (None, 8, 8, 1024)        0         
_________________________________________________________________
separable_conv2d_1549 (Separ (None, 8, 8, 1024)        1058816   
_________________________________________________________________
batch_normalization_868 (Bat (None, 8, 8, 1024)        4096      
_________________________________________________________________
activation_1744 (Activation) (None, 8, 8, 1024)        0         
_________________________________________________________________
dropout_1744 (Dropout)       (None, 8, 8, 1024)        0         
_________________________________________________________________
separable_conv2d_1550 (Separ (None, 8, 8, 16)          25616     
_________________________________________________________________
batch_normalization_869 (Bat (None, 8, 8, 16)          64        
_________________________________________________________________
activation_1745 (Activation) (None, 8, 8, 16)          0         
_________________________________________________________________
dropout_1745 (Dropout)       (None, 8, 8, 16)          0         
_________________________________________________________________
separable_conv2d_1551 (Separ (None, 8, 8, 16)          416       
_________________________________________________________________
batch_normalization_870 (Bat (None, 8, 8, 16)          64        
_________________________________________________________________
activation_1746 (Activation) (None, 8, 8, 16)          0         
_________________________________________________________________
dropout_1746 (Dropout)       (None, 8, 8, 16)          0         
_________________________________________________________________
separable_conv2d_1552 (Separ (None, 8, 8, 8)           280       
_________________________________________________________________
activation_1747 (Activation) (None, 8, 8, 8)           0         
_________________________________________________________________
dropout_1747 (Dropout)       (None, 8, 8, 8)           0         
_________________________________________________________________
flatten_170 (Flatten)        (None, 512)               0         
_________________________________________________________________
dense_365 (Dense)            (None, 4096)              2101248   
_________________________________________________________________
activation_1748 (Activation) (None, 4096)              0         
_________________________________________________________________
dropout_1748 (Dropout)       (None, 4096)              0         
_________________________________________________________________
dense_366 (Dense)            (None, 100)               409700    
=================================================================
Total params: 4,201,735
Trainable params: 4,195,527
Non-trainable params: 6,208
_________________________________________________________________
