Model: "sequential_194"
_________________________________________________________________
Layer (type)                 Output Shape              Param #   
=================================================================
separable_conv2d_1737 (Separ (None, 32, 32, 1024)      4123      
_________________________________________________________________
batch_normalization_969 (Bat (None, 32, 32, 1024)      4096      
_________________________________________________________________
activation_1950 (Activation) (None, 32, 32, 1024)      0         
_________________________________________________________________
dropout_1950 (Dropout)       (None, 32, 32, 1024)      0         
_________________________________________________________________
separable_conv2d_1738 (Separ (None, 32, 32, 32)        42016     
_________________________________________________________________
activation_1951 (Activation) (None, 32, 32, 32)        0         
_________________________________________________________________
dropout_1951 (Dropout)       (None, 32, 32, 32)        0         
_________________________________________________________________
max_pooling2d_376 (MaxPoolin (None, 16, 16, 32)        0         
_________________________________________________________________
separable_conv2d_1739 (Separ (None, 16, 16, 512)       17184     
_________________________________________________________________
activation_1952 (Activation) (None, 16, 16, 512)       0         
_________________________________________________________________
dropout_1952 (Dropout)       (None, 16, 16, 512)       0         
_________________________________________________________________
separable_conv2d_1740 (Separ (None, 16, 16, 1024)      529920    
_________________________________________________________________
batch_normalization_970 (Bat (None, 16, 16, 1024)      4096      
_________________________________________________________________
activation_1953 (Activation) (None, 16, 16, 1024)      0         
_________________________________________________________________
dropout_1953 (Dropout)       (None, 16, 16, 1024)      0         
_________________________________________________________________
separable_conv2d_1741 (Separ (None, 16, 16, 1024)      1058816   
_________________________________________________________________
batch_normalization_971 (Bat (None, 16, 16, 1024)      4096      
_________________________________________________________________
activation_1954 (Activation) (None, 16, 16, 1024)      0         
_________________________________________________________________
dropout_1954 (Dropout)       (None, 16, 16, 1024)      0         
_________________________________________________________________
separable_conv2d_1742 (Separ (None, 16, 16, 16)        25616     
_________________________________________________________________
batch_normalization_972 (Bat (None, 16, 16, 16)        64        
_________________________________________________________________
activation_1955 (Activation) (None, 16, 16, 16)        0         
_________________________________________________________________
dropout_1955 (Dropout)       (None, 16, 16, 16)        0         
_________________________________________________________________
separable_conv2d_1743 (Separ (None, 16, 16, 64)        1232      
_________________________________________________________________
activation_1956 (Activation) (None, 16, 16, 64)        0         
_________________________________________________________________
dropout_1956 (Dropout)       (None, 16, 16, 64)        0         
_________________________________________________________________
separable_conv2d_1744 (Separ (None, 16, 16, 16)        1616      
_________________________________________________________________
activation_1957 (Activation) (None, 16, 16, 16)        0         
_________________________________________________________________
dropout_1957 (Dropout)       (None, 16, 16, 16)        0         
_________________________________________________________________
flatten_194 (Flatten)        (None, 4096)              0         
_________________________________________________________________
dense_407 (Dense)            (None, 100)               409700    
=================================================================
Total params: 2,102,575
Trainable params: 2,096,399
Non-trainable params: 6,176
_________________________________________________________________
