Model: "sequential_386"
_________________________________________________________________
Layer (type)                 Output Shape              Param #   
=================================================================
separable_conv2d_3266 (Separ (None, 32, 32, 1024)      4123      
_________________________________________________________________
batch_normalization_1746 (Ba (None, 32, 32, 1024)      4096      
_________________________________________________________________
activation_3536 (Activation) (None, 32, 32, 1024)      0         
_________________________________________________________________
dropout_3536 (Dropout)       (None, 32, 32, 1024)      0         
_________________________________________________________________
separable_conv2d_3267 (Separ (None, 32, 32, 32)        42016     
_________________________________________________________________
activation_3537 (Activation) (None, 32, 32, 32)        0         
_________________________________________________________________
dropout_3537 (Dropout)       (None, 32, 32, 32)        0         
_________________________________________________________________
max_pooling2d_583 (MaxPoolin (None, 16, 16, 32)        0         
_________________________________________________________________
separable_conv2d_3268 (Separ (None, 16, 16, 512)       17184     
_________________________________________________________________
activation_3538 (Activation) (None, 16, 16, 512)       0         
_________________________________________________________________
dropout_3538 (Dropout)       (None, 16, 16, 512)       0         
_________________________________________________________________
separable_conv2d_3269 (Separ (None, 16, 16, 1024)      529920    
_________________________________________________________________
batch_normalization_1747 (Ba (None, 16, 16, 1024)      4096      
_________________________________________________________________
activation_3539 (Activation) (None, 16, 16, 1024)      0         
_________________________________________________________________
dropout_3539 (Dropout)       (None, 16, 16, 1024)      0         
_________________________________________________________________
separable_conv2d_3270 (Separ (None, 16, 16, 16)        25616     
_________________________________________________________________
batch_normalization_1748 (Ba (None, 16, 16, 16)        64        
_________________________________________________________________
activation_3540 (Activation) (None, 16, 16, 16)        0         
_________________________________________________________________
dropout_3540 (Dropout)       (None, 16, 16, 16)        0         
_________________________________________________________________
separable_conv2d_3271 (Separ (None, 16, 16, 64)        1232      
_________________________________________________________________
activation_3541 (Activation) (None, 16, 16, 64)        0         
_________________________________________________________________
dropout_3541 (Dropout)       (None, 16, 16, 64)        0         
_________________________________________________________________
separable_conv2d_3272 (Separ (None, 16, 16, 16)        1616      
_________________________________________________________________
activation_3542 (Activation) (None, 16, 16, 16)        0         
_________________________________________________________________
dropout_3542 (Dropout)       (None, 16, 16, 16)        0         
_________________________________________________________________
flatten_386 (Flatten)        (None, 4096)              0         
_________________________________________________________________
dense_656 (Dense)            (None, 100)               409700    
=================================================================
Total params: 1,039,663
Trainable params: 1,035,535
Non-trainable params: 4,128
_________________________________________________________________
