Model: "sequential_395"
_________________________________________________________________
Layer (type)                 Output Shape              Param #   
=================================================================
separable_conv2d_3337 (Separ (None, 32, 32, 1024)      4123      
_________________________________________________________________
batch_normalization_1782 (Ba (None, 32, 32, 1024)      4096      
_________________________________________________________________
activation_3609 (Activation) (None, 32, 32, 1024)      0         
_________________________________________________________________
dropout_3609 (Dropout)       (None, 32, 32, 1024)      0         
_________________________________________________________________
separable_conv2d_3338 (Separ (None, 32, 32, 32)        42016     
_________________________________________________________________
activation_3610 (Activation) (None, 32, 32, 32)        0         
_________________________________________________________________
dropout_3610 (Dropout)       (None, 32, 32, 32)        0         
_________________________________________________________________
max_pooling2d_591 (MaxPoolin (None, 16, 16, 32)        0         
_________________________________________________________________
separable_conv2d_3339 (Separ (None, 16, 16, 512)       17184     
_________________________________________________________________
activation_3611 (Activation) (None, 16, 16, 512)       0         
_________________________________________________________________
dropout_3611 (Dropout)       (None, 16, 16, 512)       0         
_________________________________________________________________
separable_conv2d_3340 (Separ (None, 16, 16, 1024)      529920    
_________________________________________________________________
batch_normalization_1783 (Ba (None, 16, 16, 1024)      4096      
_________________________________________________________________
activation_3612 (Activation) (None, 16, 16, 1024)      0         
_________________________________________________________________
dropout_3612 (Dropout)       (None, 16, 16, 1024)      0         
_________________________________________________________________
separable_conv2d_3341 (Separ (None, 16, 16, 16)        25616     
_________________________________________________________________
batch_normalization_1784 (Ba (None, 16, 16, 16)        64        
_________________________________________________________________
activation_3613 (Activation) (None, 16, 16, 16)        0         
_________________________________________________________________
dropout_3613 (Dropout)       (None, 16, 16, 16)        0         
_________________________________________________________________
separable_conv2d_3342 (Separ (None, 16, 16, 64)        1232      
_________________________________________________________________
activation_3614 (Activation) (None, 16, 16, 64)        0         
_________________________________________________________________
dropout_3614 (Dropout)       (None, 16, 16, 64)        0         
_________________________________________________________________
separable_conv2d_3343 (Separ (None, 16, 16, 16)        1616      
_________________________________________________________________
activation_3615 (Activation) (None, 16, 16, 16)        0         
_________________________________________________________________
dropout_3615 (Dropout)       (None, 16, 16, 16)        0         
_________________________________________________________________
flatten_395 (Flatten)        (None, 4096)              0         
_________________________________________________________________
dense_667 (Dense)            (None, 100)               409700    
=================================================================
Total params: 1,039,663
Trainable params: 1,035,535
Non-trainable params: 4,128
_________________________________________________________________
