Model: "sequential_196"
_________________________________________________________________
Layer (type)                 Output Shape              Param #   
=================================================================
separable_conv2d_1753 (Separ (None, 32, 32, 1024)      4123      
_________________________________________________________________
batch_normalization_978 (Bat (None, 32, 32, 1024)      4096      
_________________________________________________________________
activation_1967 (Activation) (None, 32, 32, 1024)      0         
_________________________________________________________________
dropout_1967 (Dropout)       (None, 32, 32, 1024)      0         
_________________________________________________________________
max_pooling2d_379 (MaxPoolin (None, 16, 16, 1024)      0         
_________________________________________________________________
separable_conv2d_1754 (Separ (None, 16, 16, 32)        42016     
_________________________________________________________________
activation_1968 (Activation) (None, 16, 16, 32)        0         
_________________________________________________________________
dropout_1968 (Dropout)       (None, 16, 16, 32)        0         
_________________________________________________________________
max_pooling2d_380 (MaxPoolin (None, 8, 8, 32)          0         
_________________________________________________________________
separable_conv2d_1755 (Separ (None, 8, 8, 512)         17184     
_________________________________________________________________
activation_1969 (Activation) (None, 8, 8, 512)         0         
_________________________________________________________________
dropout_1969 (Dropout)       (None, 8, 8, 512)         0         
_________________________________________________________________
separable_conv2d_1756 (Separ (None, 8, 8, 1024)        529920    
_________________________________________________________________
batch_normalization_979 (Bat (None, 8, 8, 1024)        4096      
_________________________________________________________________
activation_1970 (Activation) (None, 8, 8, 1024)        0         
_________________________________________________________________
dropout_1970 (Dropout)       (None, 8, 8, 1024)        0         
_________________________________________________________________
separable_conv2d_1757 (Separ (None, 8, 8, 1024)        1058816   
_________________________________________________________________
batch_normalization_980 (Bat (None, 8, 8, 1024)        4096      
_________________________________________________________________
activation_1971 (Activation) (None, 8, 8, 1024)        0         
_________________________________________________________________
dropout_1971 (Dropout)       (None, 8, 8, 1024)        0         
_________________________________________________________________
separable_conv2d_1758 (Separ (None, 8, 8, 16)          25616     
_________________________________________________________________
batch_normalization_981 (Bat (None, 8, 8, 16)          64        
_________________________________________________________________
activation_1972 (Activation) (None, 8, 8, 16)          0         
_________________________________________________________________
dropout_1972 (Dropout)       (None, 8, 8, 16)          0         
_________________________________________________________________
separable_conv2d_1759 (Separ (None, 8, 8, 64)          1232      
_________________________________________________________________
activation_1973 (Activation) (None, 8, 8, 64)          0         
_________________________________________________________________
dropout_1973 (Dropout)       (None, 8, 8, 64)          0         
_________________________________________________________________
separable_conv2d_1760 (Separ (None, 8, 8, 16)          1616      
_________________________________________________________________
activation_1974 (Activation) (None, 8, 8, 16)          0         
_________________________________________________________________
dropout_1974 (Dropout)       (None, 8, 8, 16)          0         
_________________________________________________________________
flatten_196 (Flatten)        (None, 1024)              0         
_________________________________________________________________
dense_410 (Dense)            (None, 100)               102500    
=================================================================
Total params: 1,795,375
Trainable params: 1,789,199
Non-trainable params: 6,176
_________________________________________________________________
