Model: "sequential_32"
_________________________________________________________________
Layer (type)                 Output Shape              Param #   
=================================================================
separable_conv2d_317 (Separa (None, 32, 32, 1024)      4123      
_________________________________________________________________
batch_normalization_175 (Bat (None, 32, 32, 1024)      4096      
_________________________________________________________________
activation_362 (Activation)  (None, 32, 32, 1024)      0         
_________________________________________________________________
dropout_362 (Dropout)        (None, 32, 32, 1024)      0         
_________________________________________________________________
max_pooling2d_72 (MaxPooling (None, 16, 16, 1024)      0         
_________________________________________________________________
separable_conv2d_318 (Separa (None, 16, 16, 32)        42016     
_________________________________________________________________
activation_363 (Activation)  (None, 16, 16, 32)        0         
_________________________________________________________________
dropout_363 (Dropout)        (None, 16, 16, 32)        0         
_________________________________________________________________
max_pooling2d_73 (MaxPooling (None, 8, 8, 32)          0         
_________________________________________________________________
separable_conv2d_319 (Separa (None, 8, 8, 512)         17184     
_________________________________________________________________
activation_364 (Activation)  (None, 8, 8, 512)         0         
_________________________________________________________________
dropout_364 (Dropout)        (None, 8, 8, 512)         0         
_________________________________________________________________
separable_conv2d_320 (Separa (None, 8, 8, 16)          12816     
_________________________________________________________________
activation_365 (Activation)  (None, 8, 8, 16)          0         
_________________________________________________________________
dropout_365 (Dropout)        (None, 8, 8, 16)          0         
_________________________________________________________________
separable_conv2d_321 (Separa (None, 8, 8, 256)         4496      
_________________________________________________________________
batch_normalization_176 (Bat (None, 8, 8, 256)         1024      
_________________________________________________________________
activation_366 (Activation)  (None, 8, 8, 256)         0         
_________________________________________________________________
dropout_366 (Dropout)        (None, 8, 8, 256)         0         
_________________________________________________________________
separable_conv2d_322 (Separa (None, 8, 8, 256)         68096     
_________________________________________________________________
activation_367 (Activation)  (None, 8, 8, 256)         0         
_________________________________________________________________
dropout_367 (Dropout)        (None, 8, 8, 256)         0         
_________________________________________________________________
max_pooling2d_74 (MaxPooling (None, 4, 4, 256)         0         
_________________________________________________________________
separable_conv2d_323 (Separa (None, 4, 4, 256)         68096     
_________________________________________________________________
batch_normalization_177 (Bat (None, 4, 4, 256)         1024      
_________________________________________________________________
activation_368 (Activation)  (None, 4, 4, 256)         0         
_________________________________________________________________
dropout_368 (Dropout)        (None, 4, 4, 256)         0         
_________________________________________________________________
separable_conv2d_324 (Separa (None, 4, 4, 64)          18752     
_________________________________________________________________
batch_normalization_178 (Bat (None, 4, 4, 64)          256       
_________________________________________________________________
activation_369 (Activation)  (None, 4, 4, 64)          0         
_________________________________________________________________
dropout_369 (Dropout)        (None, 4, 4, 64)          0         
_________________________________________________________________
separable_conv2d_325 (Separa (None, 4, 4, 512)         33856     
_________________________________________________________________
batch_normalization_179 (Bat (None, 4, 4, 512)         2048      
_________________________________________________________________
activation_370 (Activation)  (None, 4, 4, 512)         0         
_________________________________________________________________
dropout_370 (Dropout)        (None, 4, 4, 512)         0         
_________________________________________________________________
flatten_32 (Flatten)         (None, 8192)              0         
_________________________________________________________________
dense_77 (Dense)             (None, 32)                262176    
_________________________________________________________________
batch_normalization_180 (Bat (None, 32)                128       
_________________________________________________________________
activation_371 (Activation)  (None, 32)                0         
_________________________________________________________________
dropout_371 (Dropout)        (None, 32)                0         
_________________________________________________________________
dense_78 (Dense)             (None, 100)               3300      
=================================================================
Total params: 543,487
Trainable params: 539,199
Non-trainable params: 4,288
_________________________________________________________________
