Model: "sequential_383"
_________________________________________________________________
Layer (type)                 Output Shape              Param #   
=================================================================
separable_conv2d_3242 (Separ (None, 32, 32, 1024)      4123      
_________________________________________________________________
batch_normalization_1731 (Ba (None, 32, 32, 1024)      4096      
_________________________________________________________________
activation_3512 (Activation) (None, 32, 32, 1024)      0         
_________________________________________________________________
dropout_3512 (Dropout)       (None, 32, 32, 1024)      0         
_________________________________________________________________
separable_conv2d_3243 (Separ (None, 32, 32, 32)        42016     
_________________________________________________________________
activation_3513 (Activation) (None, 32, 32, 32)        0         
_________________________________________________________________
dropout_3513 (Dropout)       (None, 32, 32, 32)        0         
_________________________________________________________________
max_pooling2d_580 (MaxPoolin (None, 16, 16, 32)        0         
_________________________________________________________________
separable_conv2d_3244 (Separ (None, 16, 16, 512)       17184     
_________________________________________________________________
activation_3514 (Activation) (None, 16, 16, 512)       0         
_________________________________________________________________
dropout_3514 (Dropout)       (None, 16, 16, 512)       0         
_________________________________________________________________
separable_conv2d_3245 (Separ (None, 16, 16, 1024)      529920    
_________________________________________________________________
batch_normalization_1732 (Ba (None, 16, 16, 1024)      4096      
_________________________________________________________________
activation_3515 (Activation) (None, 16, 16, 1024)      0         
_________________________________________________________________
dropout_3515 (Dropout)       (None, 16, 16, 1024)      0         
_________________________________________________________________
separable_conv2d_3246 (Separ (None, 16, 16, 1024)      1058816   
_________________________________________________________________
batch_normalization_1733 (Ba (None, 16, 16, 1024)      4096      
_________________________________________________________________
activation_3516 (Activation) (None, 16, 16, 1024)      0         
_________________________________________________________________
dropout_3516 (Dropout)       (None, 16, 16, 1024)      0         
_________________________________________________________________
separable_conv2d_3247 (Separ (None, 16, 16, 16)        25616     
_________________________________________________________________
batch_normalization_1734 (Ba (None, 16, 16, 16)        64        
_________________________________________________________________
activation_3517 (Activation) (None, 16, 16, 16)        0         
_________________________________________________________________
dropout_3517 (Dropout)       (None, 16, 16, 16)        0         
_________________________________________________________________
separable_conv2d_3248 (Separ (None, 16, 16, 64)        1232      
_________________________________________________________________
activation_3518 (Activation) (None, 16, 16, 64)        0         
_________________________________________________________________
dropout_3518 (Dropout)       (None, 16, 16, 64)        0         
_________________________________________________________________
separable_conv2d_3249 (Separ (None, 16, 16, 16)        1616      
_________________________________________________________________
activation_3519 (Activation) (None, 16, 16, 16)        0         
_________________________________________________________________
dropout_3519 (Dropout)       (None, 16, 16, 16)        0         
_________________________________________________________________
flatten_383 (Flatten)        (None, 4096)              0         
_________________________________________________________________
dense_653 (Dense)            (None, 100)               409700    
=================================================================
Total params: 2,102,575
Trainable params: 2,096,399
Non-trainable params: 6,176
_________________________________________________________________
