Model: "sequential_186"
_________________________________________________________________
Layer (type)                 Output Shape              Param #   
=================================================================
separable_conv2d_1673 (Separ (None, 32, 32, 1024)      4123      
_________________________________________________________________
batch_normalization_936 (Bat (None, 32, 32, 1024)      4096      
_________________________________________________________________
activation_1880 (Activation) (None, 32, 32, 1024)      0         
_________________________________________________________________
dropout_1880 (Dropout)       (None, 32, 32, 1024)      0         
_________________________________________________________________
max_pooling2d_366 (MaxPoolin (None, 16, 16, 1024)      0         
_________________________________________________________________
separable_conv2d_1674 (Separ (None, 16, 16, 32)        42016     
_________________________________________________________________
activation_1881 (Activation) (None, 16, 16, 32)        0         
_________________________________________________________________
dropout_1881 (Dropout)       (None, 16, 16, 32)        0         
_________________________________________________________________
max_pooling2d_367 (MaxPoolin (None, 8, 8, 32)          0         
_________________________________________________________________
separable_conv2d_1675 (Separ (None, 8, 8, 512)         17184     
_________________________________________________________________
activation_1882 (Activation) (None, 8, 8, 512)         0         
_________________________________________________________________
dropout_1882 (Dropout)       (None, 8, 8, 512)         0         
_________________________________________________________________
separable_conv2d_1676 (Separ (None, 8, 8, 1024)        529920    
_________________________________________________________________
batch_normalization_937 (Bat (None, 8, 8, 1024)        4096      
_________________________________________________________________
activation_1883 (Activation) (None, 8, 8, 1024)        0         
_________________________________________________________________
dropout_1883 (Dropout)       (None, 8, 8, 1024)        0         
_________________________________________________________________
separable_conv2d_1677 (Separ (None, 8, 8, 1024)        1058816   
_________________________________________________________________
batch_normalization_938 (Bat (None, 8, 8, 1024)        4096      
_________________________________________________________________
activation_1884 (Activation) (None, 8, 8, 1024)        0         
_________________________________________________________________
dropout_1884 (Dropout)       (None, 8, 8, 1024)        0         
_________________________________________________________________
separable_conv2d_1678 (Separ (None, 8, 8, 16)          25616     
_________________________________________________________________
batch_normalization_939 (Bat (None, 8, 8, 16)          64        
_________________________________________________________________
activation_1885 (Activation) (None, 8, 8, 16)          0         
_________________________________________________________________
dropout_1885 (Dropout)       (None, 8, 8, 16)          0         
_________________________________________________________________
separable_conv2d_1679 (Separ (None, 8, 8, 512)         8848      
_________________________________________________________________
activation_1886 (Activation) (None, 8, 8, 512)         0         
_________________________________________________________________
dropout_1886 (Dropout)       (None, 8, 8, 512)         0         
_________________________________________________________________
separable_conv2d_1680 (Separ (None, 8, 8, 64)          37440     
_________________________________________________________________
activation_1887 (Activation) (None, 8, 8, 64)          0         
_________________________________________________________________
dropout_1887 (Dropout)       (None, 8, 8, 64)          0         
_________________________________________________________________
separable_conv2d_1681 (Separ (None, 8, 8, 8)           1096      
_________________________________________________________________
activation_1888 (Activation) (None, 8, 8, 8)           0         
_________________________________________________________________
dropout_1888 (Dropout)       (None, 8, 8, 8)           0         
_________________________________________________________________
flatten_186 (Flatten)        (None, 512)               0         
_________________________________________________________________
dense_393 (Dense)            (None, 4096)              2101248   
_________________________________________________________________
activation_1889 (Activation) (None, 4096)              0         
_________________________________________________________________
dropout_1889 (Dropout)       (None, 4096)              0         
_________________________________________________________________
dense_394 (Dense)            (None, 100)               409700    
=================================================================
Total params: 4,248,359
Trainable params: 4,242,183
Non-trainable params: 6,176
_________________________________________________________________
