Model: "sequential_217"
_________________________________________________________________
Layer (type)                 Output Shape              Param #   
=================================================================
separable_conv2d_1918 (Separ (None, 32, 32, 256)       1051      
_________________________________________________________________
batch_normalization_1064 (Ba (None, 32, 32, 256)       1024      
_________________________________________________________________
activation_2147 (Activation) (None, 32, 32, 256)       0         
_________________________________________________________________
dropout_2147 (Dropout)       (None, 32, 32, 256)       0         
_________________________________________________________________
separable_conv2d_1919 (Separ (None, 32, 32, 32)        10528     
_________________________________________________________________
activation_2148 (Activation) (None, 32, 32, 32)        0         
_________________________________________________________________
dropout_2148 (Dropout)       (None, 32, 32, 32)        0         
_________________________________________________________________
max_pooling2d_401 (MaxPoolin (None, 16, 16, 32)        0         
_________________________________________________________________
separable_conv2d_1920 (Separ (None, 16, 16, 512)       17184     
_________________________________________________________________
activation_2149 (Activation) (None, 16, 16, 512)       0         
_________________________________________________________________
dropout_2149 (Dropout)       (None, 16, 16, 512)       0         
_________________________________________________________________
separable_conv2d_1921 (Separ (None, 16, 16, 1024)      529920    
_________________________________________________________________
batch_normalization_1065 (Ba (None, 16, 16, 1024)      4096      
_________________________________________________________________
activation_2150 (Activation) (None, 16, 16, 1024)      0         
_________________________________________________________________
dropout_2150 (Dropout)       (None, 16, 16, 1024)      0         
_________________________________________________________________
separable_conv2d_1922 (Separ (None, 16, 16, 1024)      1058816   
_________________________________________________________________
batch_normalization_1066 (Ba (None, 16, 16, 1024)      4096      
_________________________________________________________________
activation_2151 (Activation) (None, 16, 16, 1024)      0         
_________________________________________________________________
dropout_2151 (Dropout)       (None, 16, 16, 1024)      0         
_________________________________________________________________
separable_conv2d_1923 (Separ (None, 16, 16, 16)        25616     
_________________________________________________________________
batch_normalization_1067 (Ba (None, 16, 16, 16)        64        
_________________________________________________________________
activation_2152 (Activation) (None, 16, 16, 16)        0         
_________________________________________________________________
dropout_2152 (Dropout)       (None, 16, 16, 16)        0         
_________________________________________________________________
separable_conv2d_1924 (Separ (None, 16, 16, 64)        1232      
_________________________________________________________________
activation_2153 (Activation) (None, 16, 16, 64)        0         
_________________________________________________________________
dropout_2153 (Dropout)       (None, 16, 16, 64)        0         
_________________________________________________________________
separable_conv2d_1925 (Separ (None, 16, 16, 16)        1616      
_________________________________________________________________
activation_2154 (Activation) (None, 16, 16, 16)        0         
_________________________________________________________________
dropout_2154 (Dropout)       (None, 16, 16, 16)        0         
_________________________________________________________________
flatten_217 (Flatten)        (None, 4096)              0         
_________________________________________________________________
dense_446 (Dense)            (None, 4096)              16781312  
_________________________________________________________________
activation_2155 (Activation) (None, 4096)              0         
_________________________________________________________________
dropout_2155 (Dropout)       (None, 4096)              0         
_________________________________________________________________
dense_447 (Dense)            (None, 100)               409700    
=================================================================
Total params: 18,846,255
Trainable params: 18,841,615
Non-trainable params: 4,640
_________________________________________________________________
