Model: "sequential_23"
_________________________________________________________________
Layer (type)                 Output Shape              Param #   
=================================================================
separable_conv2d_227 (Separa (None, 32, 32, 8)         59        
_________________________________________________________________
batch_normalization_127 (Bat (None, 32, 32, 8)         32        
_________________________________________________________________
activation_259 (Activation)  (None, 32, 32, 8)         0         
_________________________________________________________________
dropout_259 (Dropout)        (None, 32, 32, 8)         0         
_________________________________________________________________
max_pooling2d_50 (MaxPooling (None, 16, 16, 8)         0         
_________________________________________________________________
separable_conv2d_228 (Separa (None, 16, 16, 32)        360       
_________________________________________________________________
activation_260 (Activation)  (None, 16, 16, 32)        0         
_________________________________________________________________
dropout_260 (Dropout)        (None, 16, 16, 32)        0         
_________________________________________________________________
max_pooling2d_51 (MaxPooling (None, 8, 8, 32)          0         
_________________________________________________________________
separable_conv2d_229 (Separa (None, 8, 8, 512)         17184     
_________________________________________________________________
activation_261 (Activation)  (None, 8, 8, 512)         0         
_________________________________________________________________
dropout_261 (Dropout)        (None, 8, 8, 512)         0         
_________________________________________________________________
separable_conv2d_230 (Separa (None, 8, 8, 1024)        529920    
_________________________________________________________________
batch_normalization_128 (Bat (None, 8, 8, 1024)        4096      
_________________________________________________________________
activation_262 (Activation)  (None, 8, 8, 1024)        0         
_________________________________________________________________
dropout_262 (Dropout)        (None, 8, 8, 1024)        0         
_________________________________________________________________
separable_conv2d_231 (Separa (None, 8, 8, 1024)        1058816   
_________________________________________________________________
batch_normalization_129 (Bat (None, 8, 8, 1024)        4096      
_________________________________________________________________
activation_263 (Activation)  (None, 8, 8, 1024)        0         
_________________________________________________________________
dropout_263 (Dropout)        (None, 8, 8, 1024)        0         
_________________________________________________________________
separable_conv2d_232 (Separa (None, 8, 8, 16)          25616     
_________________________________________________________________
batch_normalization_130 (Bat (None, 8, 8, 16)          64        
_________________________________________________________________
activation_264 (Activation)  (None, 8, 8, 16)          0         
_________________________________________________________________
dropout_264 (Dropout)        (None, 8, 8, 16)          0         
_________________________________________________________________
separable_conv2d_233 (Separa (None, 8, 8, 16)          416       
_________________________________________________________________
batch_normalization_131 (Bat (None, 8, 8, 16)          64        
_________________________________________________________________
activation_265 (Activation)  (None, 8, 8, 16)          0         
_________________________________________________________________
dropout_265 (Dropout)        (None, 8, 8, 16)          0         
_________________________________________________________________
separable_conv2d_234 (Separa (None, 8, 8, 512)         8848      
_________________________________________________________________
activation_266 (Activation)  (None, 8, 8, 512)         0         
_________________________________________________________________
dropout_266 (Dropout)        (None, 8, 8, 512)         0         
_________________________________________________________________
separable_conv2d_235 (Separa (None, 8, 8, 64)          37440     
_________________________________________________________________
activation_267 (Activation)  (None, 8, 8, 64)          0         
_________________________________________________________________
dropout_267 (Dropout)        (None, 8, 8, 64)          0         
_________________________________________________________________
separable_conv2d_236 (Separa (None, 8, 8, 8)           1096      
_________________________________________________________________
activation_268 (Activation)  (None, 8, 8, 8)           0         
_________________________________________________________________
dropout_268 (Dropout)        (None, 8, 8, 8)           0         
_________________________________________________________________
flatten_23 (Flatten)         (None, 512)               0         
_________________________________________________________________
dense_55 (Dense)             (None, 4096)              2101248   
_________________________________________________________________
activation_269 (Activation)  (None, 4096)              0         
_________________________________________________________________
dropout_269 (Dropout)        (None, 4096)              0         
_________________________________________________________________
dense_56 (Dense)             (None, 100)               409700    
=================================================================
Total params: 4,199,055
Trainable params: 4,194,879
Non-trainable params: 4,176
_________________________________________________________________
