Model: "sequential_263"
_________________________________________________________________
Layer (type)                 Output Shape              Param #   
=================================================================
separable_conv2d_2285 (Separ (None, 32, 32, 1024)      4123      
_________________________________________________________________
batch_normalization_1247 (Ba (None, 32, 32, 1024)      4096      
_________________________________________________________________
activation_2531 (Activation) (None, 32, 32, 1024)      0         
_________________________________________________________________
dropout_2531 (Dropout)       (None, 32, 32, 1024)      0         
_________________________________________________________________
separable_conv2d_2286 (Separ (None, 32, 32, 32)        42016     
_________________________________________________________________
activation_2532 (Activation) (None, 32, 32, 32)        0         
_________________________________________________________________
dropout_2532 (Dropout)       (None, 32, 32, 32)        0         
_________________________________________________________________
max_pooling2d_449 (MaxPoolin (None, 16, 16, 32)        0         
_________________________________________________________________
separable_conv2d_2287 (Separ (None, 16, 16, 512)       17184     
_________________________________________________________________
activation_2533 (Activation) (None, 16, 16, 512)       0         
_________________________________________________________________
dropout_2533 (Dropout)       (None, 16, 16, 512)       0         
_________________________________________________________________
separable_conv2d_2288 (Separ (None, 16, 16, 1024)      529920    
_________________________________________________________________
batch_normalization_1248 (Ba (None, 16, 16, 1024)      4096      
_________________________________________________________________
activation_2534 (Activation) (None, 16, 16, 1024)      0         
_________________________________________________________________
dropout_2534 (Dropout)       (None, 16, 16, 1024)      0         
_________________________________________________________________
separable_conv2d_2289 (Separ (None, 16, 16, 1024)      1058816   
_________________________________________________________________
batch_normalization_1249 (Ba (None, 16, 16, 1024)      4096      
_________________________________________________________________
activation_2535 (Activation) (None, 16, 16, 1024)      0         
_________________________________________________________________
dropout_2535 (Dropout)       (None, 16, 16, 1024)      0         
_________________________________________________________________
separable_conv2d_2290 (Separ (None, 16, 16, 16)        25616     
_________________________________________________________________
batch_normalization_1250 (Ba (None, 16, 16, 16)        64        
_________________________________________________________________
activation_2536 (Activation) (None, 16, 16, 16)        0         
_________________________________________________________________
dropout_2536 (Dropout)       (None, 16, 16, 16)        0         
_________________________________________________________________
separable_conv2d_2291 (Separ (None, 16, 16, 64)        1232      
_________________________________________________________________
activation_2537 (Activation) (None, 16, 16, 64)        0         
_________________________________________________________________
dropout_2537 (Dropout)       (None, 16, 16, 64)        0         
_________________________________________________________________
separable_conv2d_2292 (Separ (None, 16, 16, 16)        1616      
_________________________________________________________________
activation_2538 (Activation) (None, 16, 16, 16)        0         
_________________________________________________________________
dropout_2538 (Dropout)       (None, 16, 16, 16)        0         
_________________________________________________________________
flatten_263 (Flatten)        (None, 4096)              0         
_________________________________________________________________
dense_509 (Dense)            (None, 100)               409700    
=================================================================
Total params: 2,102,575
Trainable params: 2,096,399
Non-trainable params: 6,176
_________________________________________________________________
