Model: "sequential_384"
_________________________________________________________________
Layer (type)                 Output Shape              Param #   
=================================================================
separable_conv2d_3250 (Separ (None, 32, 32, 512)       2075      
_________________________________________________________________
batch_normalization_1735 (Ba (None, 32, 32, 512)       2048      
_________________________________________________________________
activation_3520 (Activation) (None, 32, 32, 512)       0         
_________________________________________________________________
dropout_3520 (Dropout)       (None, 32, 32, 512)       0         
_________________________________________________________________
separable_conv2d_3251 (Separ (None, 32, 32, 32)        21024     
_________________________________________________________________
activation_3521 (Activation) (None, 32, 32, 32)        0         
_________________________________________________________________
dropout_3521 (Dropout)       (None, 32, 32, 32)        0         
_________________________________________________________________
max_pooling2d_581 (MaxPoolin (None, 16, 16, 32)        0         
_________________________________________________________________
separable_conv2d_3252 (Separ (None, 16, 16, 512)       17184     
_________________________________________________________________
batch_normalization_1736 (Ba (None, 16, 16, 512)       2048      
_________________________________________________________________
activation_3522 (Activation) (None, 16, 16, 512)       0         
_________________________________________________________________
dropout_3522 (Dropout)       (None, 16, 16, 512)       0         
_________________________________________________________________
separable_conv2d_3253 (Separ (None, 16, 16, 1024)      529920    
_________________________________________________________________
batch_normalization_1737 (Ba (None, 16, 16, 1024)      4096      
_________________________________________________________________
activation_3523 (Activation) (None, 16, 16, 1024)      0         
_________________________________________________________________
dropout_3523 (Dropout)       (None, 16, 16, 1024)      0         
_________________________________________________________________
separable_conv2d_3254 (Separ (None, 16, 16, 1024)      1058816   
_________________________________________________________________
batch_normalization_1738 (Ba (None, 16, 16, 1024)      4096      
_________________________________________________________________
activation_3524 (Activation) (None, 16, 16, 1024)      0         
_________________________________________________________________
dropout_3524 (Dropout)       (None, 16, 16, 1024)      0         
_________________________________________________________________
separable_conv2d_3255 (Separ (None, 16, 16, 16)        25616     
_________________________________________________________________
batch_normalization_1739 (Ba (None, 16, 16, 16)        64        
_________________________________________________________________
activation_3525 (Activation) (None, 16, 16, 16)        0         
_________________________________________________________________
dropout_3525 (Dropout)       (None, 16, 16, 16)        0         
_________________________________________________________________
separable_conv2d_3256 (Separ (None, 16, 16, 64)        1232      
_________________________________________________________________
batch_normalization_1740 (Ba (None, 16, 16, 64)        256       
_________________________________________________________________
activation_3526 (Activation) (None, 16, 16, 64)        0         
_________________________________________________________________
dropout_3526 (Dropout)       (None, 16, 16, 64)        0         
_________________________________________________________________
separable_conv2d_3257 (Separ (None, 16, 16, 16)        1616      
_________________________________________________________________
activation_3527 (Activation) (None, 16, 16, 16)        0         
_________________________________________________________________
dropout_3527 (Dropout)       (None, 16, 16, 16)        0         
_________________________________________________________________
flatten_384 (Flatten)        (None, 4096)              0         
_________________________________________________________________
dense_654 (Dense)            (None, 100)               409700    
=================================================================
Total params: 2,079,791
Trainable params: 2,073,487
Non-trainable params: 6,304
_________________________________________________________________
