Model: "sequential_219"
_________________________________________________________________
Layer (type)                 Output Shape              Param #   
=================================================================
separable_conv2d_1934 (Separ (None, 32, 32, 1024)      4123      
_________________________________________________________________
batch_normalization_1072 (Ba (None, 32, 32, 1024)      4096      
_________________________________________________________________
activation_2164 (Activation) (None, 32, 32, 1024)      0         
_________________________________________________________________
dropout_2164 (Dropout)       (None, 32, 32, 1024)      0         
_________________________________________________________________
separable_conv2d_1935 (Separ (None, 32, 32, 32)        42016     
_________________________________________________________________
activation_2165 (Activation) (None, 32, 32, 32)        0         
_________________________________________________________________
dropout_2165 (Dropout)       (None, 32, 32, 32)        0         
_________________________________________________________________
max_pooling2d_403 (MaxPoolin (None, 16, 16, 32)        0         
_________________________________________________________________
separable_conv2d_1936 (Separ (None, 16, 16, 512)       17184     
_________________________________________________________________
activation_2166 (Activation) (None, 16, 16, 512)       0         
_________________________________________________________________
dropout_2166 (Dropout)       (None, 16, 16, 512)       0         
_________________________________________________________________
separable_conv2d_1937 (Separ (None, 16, 16, 1024)      529920    
_________________________________________________________________
batch_normalization_1073 (Ba (None, 16, 16, 1024)      4096      
_________________________________________________________________
activation_2167 (Activation) (None, 16, 16, 1024)      0         
_________________________________________________________________
dropout_2167 (Dropout)       (None, 16, 16, 1024)      0         
_________________________________________________________________
separable_conv2d_1938 (Separ (None, 16, 16, 1024)      1058816   
_________________________________________________________________
batch_normalization_1074 (Ba (None, 16, 16, 1024)      4096      
_________________________________________________________________
activation_2168 (Activation) (None, 16, 16, 1024)      0         
_________________________________________________________________
dropout_2168 (Dropout)       (None, 16, 16, 1024)      0         
_________________________________________________________________
separable_conv2d_1939 (Separ (None, 16, 16, 16)        25616     
_________________________________________________________________
batch_normalization_1075 (Ba (None, 16, 16, 16)        64        
_________________________________________________________________
activation_2169 (Activation) (None, 16, 16, 16)        0         
_________________________________________________________________
dropout_2169 (Dropout)       (None, 16, 16, 16)        0         
_________________________________________________________________
separable_conv2d_1940 (Separ (None, 16, 16, 64)        1232      
_________________________________________________________________
activation_2170 (Activation) (None, 16, 16, 64)        0         
_________________________________________________________________
dropout_2170 (Dropout)       (None, 16, 16, 64)        0         
_________________________________________________________________
separable_conv2d_1941 (Separ (None, 16, 16, 16)        1616      
_________________________________________________________________
activation_2171 (Activation) (None, 16, 16, 16)        0         
_________________________________________________________________
dropout_2171 (Dropout)       (None, 16, 16, 16)        0         
_________________________________________________________________
flatten_219 (Flatten)        (None, 4096)              0         
_________________________________________________________________
dense_449 (Dense)            (None, 100)               409700    
=================================================================
Total params: 2,102,575
Trainable params: 2,096,399
Non-trainable params: 6,176
_________________________________________________________________
