Model: "sequential_394"
_________________________________________________________________
Layer (type)                 Output Shape              Param #   
=================================================================
separable_conv2d_3329 (Separ (None, 32, 32, 1024)      4123      
_________________________________________________________________
batch_normalization_1778 (Ba (None, 32, 32, 1024)      4096      
_________________________________________________________________
activation_3600 (Activation) (None, 32, 32, 1024)      0         
_________________________________________________________________
dropout_3600 (Dropout)       (None, 32, 32, 1024)      0         
_________________________________________________________________
separable_conv2d_3330 (Separ (None, 32, 32, 32)        42016     
_________________________________________________________________
activation_3601 (Activation) (None, 32, 32, 32)        0         
_________________________________________________________________
dropout_3601 (Dropout)       (None, 32, 32, 32)        0         
_________________________________________________________________
max_pooling2d_590 (MaxPoolin (None, 16, 16, 32)        0         
_________________________________________________________________
separable_conv2d_3331 (Separ (None, 16, 16, 512)       17184     
_________________________________________________________________
activation_3602 (Activation) (None, 16, 16, 512)       0         
_________________________________________________________________
dropout_3602 (Dropout)       (None, 16, 16, 512)       0         
_________________________________________________________________
separable_conv2d_3332 (Separ (None, 16, 16, 1024)      529920    
_________________________________________________________________
batch_normalization_1779 (Ba (None, 16, 16, 1024)      4096      
_________________________________________________________________
activation_3603 (Activation) (None, 16, 16, 1024)      0         
_________________________________________________________________
dropout_3603 (Dropout)       (None, 16, 16, 1024)      0         
_________________________________________________________________
separable_conv2d_3333 (Separ (None, 16, 16, 1024)      1058816   
_________________________________________________________________
batch_normalization_1780 (Ba (None, 16, 16, 1024)      4096      
_________________________________________________________________
activation_3604 (Activation) (None, 16, 16, 1024)      0         
_________________________________________________________________
dropout_3604 (Dropout)       (None, 16, 16, 1024)      0         
_________________________________________________________________
separable_conv2d_3334 (Separ (None, 16, 16, 16)        25616     
_________________________________________________________________
batch_normalization_1781 (Ba (None, 16, 16, 16)        64        
_________________________________________________________________
activation_3605 (Activation) (None, 16, 16, 16)        0         
_________________________________________________________________
dropout_3605 (Dropout)       (None, 16, 16, 16)        0         
_________________________________________________________________
separable_conv2d_3335 (Separ (None, 16, 16, 64)        1232      
_________________________________________________________________
activation_3606 (Activation) (None, 16, 16, 64)        0         
_________________________________________________________________
dropout_3606 (Dropout)       (None, 16, 16, 64)        0         
_________________________________________________________________
separable_conv2d_3336 (Separ (None, 16, 16, 16)        1616      
_________________________________________________________________
activation_3607 (Activation) (None, 16, 16, 16)        0         
_________________________________________________________________
dropout_3607 (Dropout)       (None, 16, 16, 16)        0         
_________________________________________________________________
flatten_394 (Flatten)        (None, 4096)              0         
_________________________________________________________________
dense_665 (Dense)            (None, 4096)              16781312  
_________________________________________________________________
activation_3608 (Activation) (None, 4096)              0         
_________________________________________________________________
dropout_3608 (Dropout)       (None, 4096)              0         
_________________________________________________________________
dense_666 (Dense)            (None, 100)               409700    
=================================================================
Total params: 18,883,887
Trainable params: 18,877,711
Non-trainable params: 6,176
_________________________________________________________________
