Model: "sequential_360"
_________________________________________________________________
Layer (type)                 Output Shape              Param #   
=================================================================
separable_conv2d_3059 (Separ (None, 32, 32, 1024)      4123      
_________________________________________________________________
batch_normalization_1635 (Ba (None, 32, 32, 1024)      4096      
_________________________________________________________________
activation_3324 (Activation) (None, 32, 32, 1024)      0         
_________________________________________________________________
dropout_3324 (Dropout)       (None, 32, 32, 1024)      0         
_________________________________________________________________
separable_conv2d_3060 (Separ (None, 32, 32, 32)        42016     
_________________________________________________________________
batch_normalization_1636 (Ba (None, 32, 32, 32)        128       
_________________________________________________________________
activation_3325 (Activation) (None, 32, 32, 32)        0         
_________________________________________________________________
dropout_3325 (Dropout)       (None, 32, 32, 32)        0         
_________________________________________________________________
max_pooling2d_556 (MaxPoolin (None, 16, 16, 32)        0         
_________________________________________________________________
separable_conv2d_3061 (Separ (None, 16, 16, 512)       17184     
_________________________________________________________________
activation_3326 (Activation) (None, 16, 16, 512)       0         
_________________________________________________________________
dropout_3326 (Dropout)       (None, 16, 16, 512)       0         
_________________________________________________________________
separable_conv2d_3062 (Separ (None, 16, 16, 1024)      529920    
_________________________________________________________________
batch_normalization_1637 (Ba (None, 16, 16, 1024)      4096      
_________________________________________________________________
activation_3327 (Activation) (None, 16, 16, 1024)      0         
_________________________________________________________________
dropout_3327 (Dropout)       (None, 16, 16, 1024)      0         
_________________________________________________________________
separable_conv2d_3063 (Separ (None, 16, 16, 1024)      1058816   
_________________________________________________________________
batch_normalization_1638 (Ba (None, 16, 16, 1024)      4096      
_________________________________________________________________
activation_3328 (Activation) (None, 16, 16, 1024)      0         
_________________________________________________________________
dropout_3328 (Dropout)       (None, 16, 16, 1024)      0         
_________________________________________________________________
separable_conv2d_3064 (Separ (None, 16, 16, 16)        25616     
_________________________________________________________________
batch_normalization_1639 (Ba (None, 16, 16, 16)        64        
_________________________________________________________________
activation_3329 (Activation) (None, 16, 16, 16)        0         
_________________________________________________________________
dropout_3329 (Dropout)       (None, 16, 16, 16)        0         
_________________________________________________________________
separable_conv2d_3065 (Separ (None, 16, 16, 64)        1232      
_________________________________________________________________
activation_3330 (Activation) (None, 16, 16, 64)        0         
_________________________________________________________________
dropout_3330 (Dropout)       (None, 16, 16, 64)        0         
_________________________________________________________________
separable_conv2d_3066 (Separ (None, 16, 16, 16)        1616      
_________________________________________________________________
activation_3331 (Activation) (None, 16, 16, 16)        0         
_________________________________________________________________
dropout_3331 (Dropout)       (None, 16, 16, 16)        0         
_________________________________________________________________
flatten_360 (Flatten)        (None, 4096)              0         
_________________________________________________________________
dense_625 (Dense)            (None, 100)               409700    
=================================================================
Total params: 2,102,703
Trainable params: 2,096,463
Non-trainable params: 6,240
_________________________________________________________________
