Model: "sequential_273"
_________________________________________________________________
Layer (type)                 Output Shape              Param #   
=================================================================
separable_conv2d_2365 (Separ (None, 32, 32, 128)       539       
_________________________________________________________________
batch_normalization_1287 (Ba (None, 32, 32, 128)       512       
_________________________________________________________________
activation_2614 (Activation) (None, 32, 32, 128)       0         
_________________________________________________________________
dropout_2614 (Dropout)       (None, 32, 32, 128)       0         
_________________________________________________________________
separable_conv2d_2366 (Separ (None, 32, 32, 32)        5280      
_________________________________________________________________
activation_2615 (Activation) (None, 32, 32, 32)        0         
_________________________________________________________________
dropout_2615 (Dropout)       (None, 32, 32, 32)        0         
_________________________________________________________________
max_pooling2d_459 (MaxPoolin (None, 16, 16, 32)        0         
_________________________________________________________________
separable_conv2d_2367 (Separ (None, 16, 16, 512)       17184     
_________________________________________________________________
activation_2616 (Activation) (None, 16, 16, 512)       0         
_________________________________________________________________
dropout_2616 (Dropout)       (None, 16, 16, 512)       0         
_________________________________________________________________
separable_conv2d_2368 (Separ (None, 16, 16, 1024)      529920    
_________________________________________________________________
batch_normalization_1288 (Ba (None, 16, 16, 1024)      4096      
_________________________________________________________________
activation_2617 (Activation) (None, 16, 16, 1024)      0         
_________________________________________________________________
dropout_2617 (Dropout)       (None, 16, 16, 1024)      0         
_________________________________________________________________
separable_conv2d_2369 (Separ (None, 16, 16, 1024)      1058816   
_________________________________________________________________
batch_normalization_1289 (Ba (None, 16, 16, 1024)      4096      
_________________________________________________________________
activation_2618 (Activation) (None, 16, 16, 1024)      0         
_________________________________________________________________
dropout_2618 (Dropout)       (None, 16, 16, 1024)      0         
_________________________________________________________________
separable_conv2d_2370 (Separ (None, 16, 16, 16)        25616     
_________________________________________________________________
batch_normalization_1290 (Ba (None, 16, 16, 16)        64        
_________________________________________________________________
activation_2619 (Activation) (None, 16, 16, 16)        0         
_________________________________________________________________
dropout_2619 (Dropout)       (None, 16, 16, 16)        0         
_________________________________________________________________
separable_conv2d_2371 (Separ (None, 16, 16, 64)        1232      
_________________________________________________________________
activation_2620 (Activation) (None, 16, 16, 64)        0         
_________________________________________________________________
dropout_2620 (Dropout)       (None, 16, 16, 64)        0         
_________________________________________________________________
separable_conv2d_2372 (Separ (None, 16, 16, 16)        1616      
_________________________________________________________________
activation_2621 (Activation) (None, 16, 16, 16)        0         
_________________________________________________________________
dropout_2621 (Dropout)       (None, 16, 16, 16)        0         
_________________________________________________________________
flatten_273 (Flatten)        (None, 4096)              0         
_________________________________________________________________
dense_522 (Dense)            (None, 4096)              16781312  
_________________________________________________________________
activation_2622 (Activation) (None, 4096)              0         
_________________________________________________________________
dropout_2622 (Dropout)       (None, 4096)              0         
_________________________________________________________________
dense_523 (Dense)            (None, 100)               409700    
=================================================================
Total params: 18,839,983
Trainable params: 18,835,599
Non-trainable params: 4,384
_________________________________________________________________
