Model: "sequential_29"
_________________________________________________________________
Layer (type)                 Output Shape              Param #   
=================================================================
separable_conv2d_289 (Separa (None, 32, 32, 1024)      4123      
_________________________________________________________________
batch_normalization_161 (Bat (None, 32, 32, 1024)      4096      
_________________________________________________________________
activation_330 (Activation)  (None, 32, 32, 1024)      0         
_________________________________________________________________
dropout_330 (Dropout)        (None, 32, 32, 1024)      0         
_________________________________________________________________
max_pooling2d_64 (MaxPooling (None, 16, 16, 1024)      0         
_________________________________________________________________
separable_conv2d_290 (Separa (None, 16, 16, 32)        42016     
_________________________________________________________________
activation_331 (Activation)  (None, 16, 16, 32)        0         
_________________________________________________________________
dropout_331 (Dropout)        (None, 16, 16, 32)        0         
_________________________________________________________________
max_pooling2d_65 (MaxPooling (None, 8, 8, 32)          0         
_________________________________________________________________
separable_conv2d_291 (Separa (None, 8, 8, 512)         17184     
_________________________________________________________________
activation_332 (Activation)  (None, 8, 8, 512)         0         
_________________________________________________________________
dropout_332 (Dropout)        (None, 8, 8, 512)         0         
_________________________________________________________________
separable_conv2d_292 (Separa (None, 8, 8, 1024)        529920    
_________________________________________________________________
batch_normalization_162 (Bat (None, 8, 8, 1024)        4096      
_________________________________________________________________
activation_333 (Activation)  (None, 8, 8, 1024)        0         
_________________________________________________________________
dropout_333 (Dropout)        (None, 8, 8, 1024)        0         
_________________________________________________________________
separable_conv2d_293 (Separa (None, 8, 8, 1024)        1058816   
_________________________________________________________________
batch_normalization_163 (Bat (None, 8, 8, 1024)        4096      
_________________________________________________________________
activation_334 (Activation)  (None, 8, 8, 1024)        0         
_________________________________________________________________
dropout_334 (Dropout)        (None, 8, 8, 1024)        0         
_________________________________________________________________
separable_conv2d_294 (Separa (None, 8, 8, 16)          25616     
_________________________________________________________________
batch_normalization_164 (Bat (None, 8, 8, 16)          64        
_________________________________________________________________
activation_335 (Activation)  (None, 8, 8, 16)          0         
_________________________________________________________________
dropout_335 (Dropout)        (None, 8, 8, 16)          0         
_________________________________________________________________
separable_conv2d_295 (Separa (None, 8, 8, 16)          416       
_________________________________________________________________
batch_normalization_165 (Bat (None, 8, 8, 16)          64        
_________________________________________________________________
activation_336 (Activation)  (None, 8, 8, 16)          0         
_________________________________________________________________
dropout_336 (Dropout)        (None, 8, 8, 16)          0         
_________________________________________________________________
separable_conv2d_296 (Separa (None, 8, 8, 512)         8848      
_________________________________________________________________
activation_337 (Activation)  (None, 8, 8, 512)         0         
_________________________________________________________________
dropout_337 (Dropout)        (None, 8, 8, 512)         0         
_________________________________________________________________
separable_conv2d_297 (Separa (None, 8, 8, 64)          37440     
_________________________________________________________________
activation_338 (Activation)  (None, 8, 8, 64)          0         
_________________________________________________________________
dropout_338 (Dropout)        (None, 8, 8, 64)          0         
_________________________________________________________________
max_pooling2d_66 (MaxPooling (None, 4, 4, 64)          0         
_________________________________________________________________
separable_conv2d_298 (Separa (None, 4, 4, 256)         17216     
_________________________________________________________________
batch_normalization_166 (Bat (None, 4, 4, 256)         1024      
_________________________________________________________________
activation_339 (Activation)  (None, 4, 4, 256)         0         
_________________________________________________________________
dropout_339 (Dropout)        (None, 4, 4, 256)         0         
_________________________________________________________________
separable_conv2d_299 (Separa (None, 4, 4, 512)         133888    
_________________________________________________________________
batch_normalization_167 (Bat (None, 4, 4, 512)         2048      
_________________________________________________________________
activation_340 (Activation)  (None, 4, 4, 512)         0         
_________________________________________________________________
dropout_340 (Dropout)        (None, 4, 4, 512)         0         
_________________________________________________________________
flatten_29 (Flatten)         (None, 8192)              0         
_________________________________________________________________
dense_70 (Dense)             (None, 64)                524352    
_________________________________________________________________
activation_341 (Activation)  (None, 64)                0         
_________________________________________________________________
dropout_341 (Dropout)        (None, 64)                0         
_________________________________________________________________
dense_71 (Dense)             (None, 1024)              66560     
_________________________________________________________________
activation_342 (Activation)  (None, 1024)              0         
_________________________________________________________________
dropout_342 (Dropout)        (None, 1024)              0         
_________________________________________________________________
dense_72 (Dense)             (None, 100)               102500    
=================================================================
Total params: 2,584,383
Trainable params: 2,576,639
Non-trainable params: 7,744
_________________________________________________________________
