Model: "sequential_145"
_________________________________________________________________
Layer (type)                 Output Shape              Param #   
=================================================================
separable_conv2d_1342 (Separ (None, 32, 32, 1024)      4123      
_________________________________________________________________
batch_normalization_753 (Bat (None, 32, 32, 1024)      4096      
_________________________________________________________________
activation_1514 (Activation) (None, 32, 32, 1024)      0         
_________________________________________________________________
dropout_1514 (Dropout)       (None, 32, 32, 1024)      0         
_________________________________________________________________
max_pooling2d_304 (MaxPoolin (None, 16, 16, 1024)      0         
_________________________________________________________________
separable_conv2d_1343 (Separ (None, 16, 16, 32)        42016     
_________________________________________________________________
activation_1515 (Activation) (None, 16, 16, 32)        0         
_________________________________________________________________
dropout_1515 (Dropout)       (None, 16, 16, 32)        0         
_________________________________________________________________
max_pooling2d_305 (MaxPoolin (None, 8, 8, 32)          0         
_________________________________________________________________
separable_conv2d_1344 (Separ (None, 8, 8, 512)         17184     
_________________________________________________________________
activation_1516 (Activation) (None, 8, 8, 512)         0         
_________________________________________________________________
dropout_1516 (Dropout)       (None, 8, 8, 512)         0         
_________________________________________________________________
separable_conv2d_1345 (Separ (None, 8, 8, 1024)        529920    
_________________________________________________________________
batch_normalization_754 (Bat (None, 8, 8, 1024)        4096      
_________________________________________________________________
activation_1517 (Activation) (None, 8, 8, 1024)        0         
_________________________________________________________________
dropout_1517 (Dropout)       (None, 8, 8, 1024)        0         
_________________________________________________________________
separable_conv2d_1346 (Separ (None, 8, 8, 1024)        1058816   
_________________________________________________________________
batch_normalization_755 (Bat (None, 8, 8, 1024)        4096      
_________________________________________________________________
activation_1518 (Activation) (None, 8, 8, 1024)        0         
_________________________________________________________________
dropout_1518 (Dropout)       (None, 8, 8, 1024)        0         
_________________________________________________________________
separable_conv2d_1347 (Separ (None, 8, 8, 16)          25616     
_________________________________________________________________
batch_normalization_756 (Bat (None, 8, 8, 16)          64        
_________________________________________________________________
activation_1519 (Activation) (None, 8, 8, 16)          0         
_________________________________________________________________
dropout_1519 (Dropout)       (None, 8, 8, 16)          0         
_________________________________________________________________
separable_conv2d_1348 (Separ (None, 8, 8, 512)         8848      
_________________________________________________________________
activation_1520 (Activation) (None, 8, 8, 512)         0         
_________________________________________________________________
dropout_1520 (Dropout)       (None, 8, 8, 512)         0         
_________________________________________________________________
separable_conv2d_1349 (Separ (None, 8, 8, 64)          37440     
_________________________________________________________________
activation_1521 (Activation) (None, 8, 8, 64)          0         
_________________________________________________________________
dropout_1521 (Dropout)       (None, 8, 8, 64)          0         
_________________________________________________________________
separable_conv2d_1350 (Separ (None, 8, 8, 8)           1096      
_________________________________________________________________
activation_1522 (Activation) (None, 8, 8, 8)           0         
_________________________________________________________________
dropout_1522 (Dropout)       (None, 8, 8, 8)           0         
_________________________________________________________________
flatten_145 (Flatten)        (None, 512)               0         
_________________________________________________________________
dense_317 (Dense)            (None, 4096)              2101248   
_________________________________________________________________
activation_1523 (Activation) (None, 4096)              0         
_________________________________________________________________
dropout_1523 (Dropout)       (None, 4096)              0         
_________________________________________________________________
dense_318 (Dense)            (None, 100)               409700    
=================================================================
Total params: 4,248,359
Trainable params: 4,242,183
Non-trainable params: 6,176
_________________________________________________________________
