Model: "sequential_77"
_________________________________________________________________
Layer (type)                 Output Shape              Param #   
=================================================================
separable_conv2d_752 (Separa (None, 32, 32, 1024)      4123      
_________________________________________________________________
batch_normalization_422 (Bat (None, 32, 32, 1024)      4096      
_________________________________________________________________
activation_855 (Activation)  (None, 32, 32, 1024)      0         
_________________________________________________________________
dropout_855 (Dropout)        (None, 32, 32, 1024)      0         
_________________________________________________________________
max_pooling2d_170 (MaxPoolin (None, 16, 16, 1024)      0         
_________________________________________________________________
separable_conv2d_753 (Separa (None, 16, 16, 32)        42016     
_________________________________________________________________
activation_856 (Activation)  (None, 16, 16, 32)        0         
_________________________________________________________________
dropout_856 (Dropout)        (None, 16, 16, 32)        0         
_________________________________________________________________
max_pooling2d_171 (MaxPoolin (None, 8, 8, 32)          0         
_________________________________________________________________
separable_conv2d_754 (Separa (None, 8, 8, 512)         17184     
_________________________________________________________________
activation_857 (Activation)  (None, 8, 8, 512)         0         
_________________________________________________________________
dropout_857 (Dropout)        (None, 8, 8, 512)         0         
_________________________________________________________________
separable_conv2d_755 (Separa (None, 8, 8, 1024)        529920    
_________________________________________________________________
batch_normalization_423 (Bat (None, 8, 8, 1024)        4096      
_________________________________________________________________
activation_858 (Activation)  (None, 8, 8, 1024)        0         
_________________________________________________________________
dropout_858 (Dropout)        (None, 8, 8, 1024)        0         
_________________________________________________________________
separable_conv2d_756 (Separa (None, 8, 8, 1024)        1058816   
_________________________________________________________________
batch_normalization_424 (Bat (None, 8, 8, 1024)        4096      
_________________________________________________________________
activation_859 (Activation)  (None, 8, 8, 1024)        0         
_________________________________________________________________
dropout_859 (Dropout)        (None, 8, 8, 1024)        0         
_________________________________________________________________
separable_conv2d_757 (Separa (None, 8, 8, 16)          25616     
_________________________________________________________________
batch_normalization_425 (Bat (None, 8, 8, 16)          64        
_________________________________________________________________
activation_860 (Activation)  (None, 8, 8, 16)          0         
_________________________________________________________________
dropout_860 (Dropout)        (None, 8, 8, 16)          0         
_________________________________________________________________
separable_conv2d_758 (Separa (None, 8, 8, 16)          416       
_________________________________________________________________
batch_normalization_426 (Bat (None, 8, 8, 16)          64        
_________________________________________________________________
activation_861 (Activation)  (None, 8, 8, 16)          0         
_________________________________________________________________
dropout_861 (Dropout)        (None, 8, 8, 16)          0         
_________________________________________________________________
separable_conv2d_759 (Separa (None, 8, 8, 512)         8848      
_________________________________________________________________
activation_862 (Activation)  (None, 8, 8, 512)         0         
_________________________________________________________________
dropout_862 (Dropout)        (None, 8, 8, 512)         0         
_________________________________________________________________
separable_conv2d_760 (Separa (None, 8, 8, 64)          37440     
_________________________________________________________________
activation_863 (Activation)  (None, 8, 8, 64)          0         
_________________________________________________________________
dropout_863 (Dropout)        (None, 8, 8, 64)          0         
_________________________________________________________________
separable_conv2d_761 (Separa (None, 8, 8, 8)           1096      
_________________________________________________________________
activation_864 (Activation)  (None, 8, 8, 8)           0         
_________________________________________________________________
dropout_864 (Dropout)        (None, 8, 8, 8)           0         
_________________________________________________________________
flatten_77 (Flatten)         (None, 512)               0         
_________________________________________________________________
dense_180 (Dense)            (None, 4096)              2101248   
_________________________________________________________________
activation_865 (Activation)  (None, 4096)              0         
_________________________________________________________________
dropout_865 (Dropout)        (None, 4096)              0         
_________________________________________________________________
dense_181 (Dense)            (None, 100)               409700    
=================================================================
Total params: 4,248,839
Trainable params: 4,242,631
Non-trainable params: 6,208
_________________________________________________________________
