Model: "sequential_346"
_________________________________________________________________
Layer (type)                 Output Shape              Param #   
=================================================================
separable_conv2d_2948 (Separ (None, 32, 32, 1024)      4123      
_________________________________________________________________
batch_normalization_1574 (Ba (None, 32, 32, 1024)      4096      
_________________________________________________________________
activation_3210 (Activation) (None, 32, 32, 1024)      0         
_________________________________________________________________
dropout_3210 (Dropout)       (None, 32, 32, 1024)      0         
_________________________________________________________________
separable_conv2d_2949 (Separ (None, 32, 32, 32)        42016     
_________________________________________________________________
activation_3211 (Activation) (None, 32, 32, 32)        0         
_________________________________________________________________
dropout_3211 (Dropout)       (None, 32, 32, 32)        0         
_________________________________________________________________
max_pooling2d_540 (MaxPoolin (None, 16, 16, 32)        0         
_________________________________________________________________
separable_conv2d_2950 (Separ (None, 16, 16, 512)       17184     
_________________________________________________________________
activation_3212 (Activation) (None, 16, 16, 512)       0         
_________________________________________________________________
dropout_3212 (Dropout)       (None, 16, 16, 512)       0         
_________________________________________________________________
max_pooling2d_541 (MaxPoolin (None, 8, 8, 512)         0         
_________________________________________________________________
separable_conv2d_2951 (Separ (None, 8, 8, 1024)        529920    
_________________________________________________________________
batch_normalization_1575 (Ba (None, 8, 8, 1024)        4096      
_________________________________________________________________
activation_3213 (Activation) (None, 8, 8, 1024)        0         
_________________________________________________________________
dropout_3213 (Dropout)       (None, 8, 8, 1024)        0         
_________________________________________________________________
separable_conv2d_2952 (Separ (None, 8, 8, 1024)        1058816   
_________________________________________________________________
batch_normalization_1576 (Ba (None, 8, 8, 1024)        4096      
_________________________________________________________________
activation_3214 (Activation) (None, 8, 8, 1024)        0         
_________________________________________________________________
dropout_3214 (Dropout)       (None, 8, 8, 1024)        0         
_________________________________________________________________
separable_conv2d_2953 (Separ (None, 8, 8, 16)          25616     
_________________________________________________________________
batch_normalization_1577 (Ba (None, 8, 8, 16)          64        
_________________________________________________________________
activation_3215 (Activation) (None, 8, 8, 16)          0         
_________________________________________________________________
dropout_3215 (Dropout)       (None, 8, 8, 16)          0         
_________________________________________________________________
separable_conv2d_2954 (Separ (None, 8, 8, 64)          1232      
_________________________________________________________________
activation_3216 (Activation) (None, 8, 8, 64)          0         
_________________________________________________________________
dropout_3216 (Dropout)       (None, 8, 8, 64)          0         
_________________________________________________________________
separable_conv2d_2955 (Separ (None, 8, 8, 16)          1616      
_________________________________________________________________
activation_3217 (Activation) (None, 8, 8, 16)          0         
_________________________________________________________________
dropout_3217 (Dropout)       (None, 8, 8, 16)          0         
_________________________________________________________________
flatten_346 (Flatten)        (None, 1024)              0         
_________________________________________________________________
dense_608 (Dense)            (None, 4096)              4198400   
_________________________________________________________________
activation_3218 (Activation) (None, 4096)              0         
_________________________________________________________________
dropout_3218 (Dropout)       (None, 4096)              0         
_________________________________________________________________
dense_609 (Dense)            (None, 100)               409700    
=================================================================
Total params: 6,300,975
Trainable params: 6,294,799
Non-trainable params: 6,176
_________________________________________________________________
