Model: "sequential_243"
_________________________________________________________________
Layer (type)                 Output Shape              Param #   
=================================================================
separable_conv2d_2125 (Separ (None, 32, 32, 128)       539       
_________________________________________________________________
batch_normalization_1171 (Ba (None, 32, 32, 128)       512       
_________________________________________________________________
activation_2366 (Activation) (None, 32, 32, 128)       0         
_________________________________________________________________
dropout_2366 (Dropout)       (None, 32, 32, 128)       0         
_________________________________________________________________
separable_conv2d_2126 (Separ (None, 32, 32, 32)        5280      
_________________________________________________________________
activation_2367 (Activation) (None, 32, 32, 32)        0         
_________________________________________________________________
dropout_2367 (Dropout)       (None, 32, 32, 32)        0         
_________________________________________________________________
max_pooling2d_428 (MaxPoolin (None, 16, 16, 32)        0         
_________________________________________________________________
separable_conv2d_2127 (Separ (None, 16, 16, 512)       17184     
_________________________________________________________________
activation_2368 (Activation) (None, 16, 16, 512)       0         
_________________________________________________________________
dropout_2368 (Dropout)       (None, 16, 16, 512)       0         
_________________________________________________________________
separable_conv2d_2128 (Separ (None, 16, 16, 1024)      529920    
_________________________________________________________________
batch_normalization_1172 (Ba (None, 16, 16, 1024)      4096      
_________________________________________________________________
activation_2369 (Activation) (None, 16, 16, 1024)      0         
_________________________________________________________________
dropout_2369 (Dropout)       (None, 16, 16, 1024)      0         
_________________________________________________________________
separable_conv2d_2129 (Separ (None, 16, 16, 1024)      1058816   
_________________________________________________________________
activation_2370 (Activation) (None, 16, 16, 1024)      0         
_________________________________________________________________
dropout_2370 (Dropout)       (None, 16, 16, 1024)      0         
_________________________________________________________________
separable_conv2d_2130 (Separ (None, 16, 16, 64)        74816     
_________________________________________________________________
batch_normalization_1173 (Ba (None, 16, 16, 64)        256       
_________________________________________________________________
activation_2371 (Activation) (None, 16, 16, 64)        0         
_________________________________________________________________
dropout_2371 (Dropout)       (None, 16, 16, 64)        0         
_________________________________________________________________
separable_conv2d_2131 (Separ (None, 16, 16, 64)        4736      
_________________________________________________________________
activation_2372 (Activation) (None, 16, 16, 64)        0         
_________________________________________________________________
dropout_2372 (Dropout)       (None, 16, 16, 64)        0         
_________________________________________________________________
separable_conv2d_2132 (Separ (None, 16, 16, 16)        1616      
_________________________________________________________________
activation_2373 (Activation) (None, 16, 16, 16)        0         
_________________________________________________________________
dropout_2373 (Dropout)       (None, 16, 16, 16)        0         
_________________________________________________________________
flatten_243 (Flatten)        (None, 4096)              0         
_________________________________________________________________
dense_484 (Dense)            (None, 4096)              16781312  
_________________________________________________________________
activation_2374 (Activation) (None, 4096)              0         
_________________________________________________________________
dropout_2374 (Dropout)       (None, 4096)              0         
_________________________________________________________________
dense_485 (Dense)            (None, 100)               409700    
=================================================================
Total params: 18,888,783
Trainable params: 18,886,351
Non-trainable params: 2,432
_________________________________________________________________
