Model: "sequential_52"
_________________________________________________________________
Layer (type)                 Output Shape              Param #   
=================================================================
separable_conv2d_517 (Separa (None, 32, 32, 1024)      4123      
_________________________________________________________________
batch_normalization_292 (Bat (None, 32, 32, 1024)      4096      
_________________________________________________________________
activation_592 (Activation)  (None, 32, 32, 1024)      0         
_________________________________________________________________
dropout_592 (Dropout)        (None, 32, 32, 1024)      0         
_________________________________________________________________
max_pooling2d_119 (MaxPoolin (None, 16, 16, 1024)      0         
_________________________________________________________________
separable_conv2d_518 (Separa (None, 16, 16, 32)        42016     
_________________________________________________________________
activation_593 (Activation)  (None, 16, 16, 32)        0         
_________________________________________________________________
dropout_593 (Dropout)        (None, 16, 16, 32)        0         
_________________________________________________________________
max_pooling2d_120 (MaxPoolin (None, 8, 8, 32)          0         
_________________________________________________________________
separable_conv2d_519 (Separa (None, 8, 8, 512)         17184     
_________________________________________________________________
activation_594 (Activation)  (None, 8, 8, 512)         0         
_________________________________________________________________
dropout_594 (Dropout)        (None, 8, 8, 512)         0         
_________________________________________________________________
separable_conv2d_520 (Separa (None, 8, 8, 1024)        529920    
_________________________________________________________________
batch_normalization_293 (Bat (None, 8, 8, 1024)        4096      
_________________________________________________________________
activation_595 (Activation)  (None, 8, 8, 1024)        0         
_________________________________________________________________
dropout_595 (Dropout)        (None, 8, 8, 1024)        0         
_________________________________________________________________
separable_conv2d_521 (Separa (None, 8, 8, 1024)        1058816   
_________________________________________________________________
batch_normalization_294 (Bat (None, 8, 8, 1024)        4096      
_________________________________________________________________
activation_596 (Activation)  (None, 8, 8, 1024)        0         
_________________________________________________________________
dropout_596 (Dropout)        (None, 8, 8, 1024)        0         
_________________________________________________________________
separable_conv2d_522 (Separa (None, 8, 8, 16)          25616     
_________________________________________________________________
batch_normalization_295 (Bat (None, 8, 8, 16)          64        
_________________________________________________________________
activation_597 (Activation)  (None, 8, 8, 16)          0         
_________________________________________________________________
dropout_597 (Dropout)        (None, 8, 8, 16)          0         
_________________________________________________________________
separable_conv2d_523 (Separa (None, 8, 8, 8)           280       
_________________________________________________________________
activation_598 (Activation)  (None, 8, 8, 8)           0         
_________________________________________________________________
dropout_598 (Dropout)        (None, 8, 8, 8)           0         
_________________________________________________________________
separable_conv2d_524 (Separa (None, 8, 8, 512)         4680      
_________________________________________________________________
batch_normalization_296 (Bat (None, 8, 8, 512)         2048      
_________________________________________________________________
activation_599 (Activation)  (None, 8, 8, 512)         0         
_________________________________________________________________
dropout_599 (Dropout)        (None, 8, 8, 512)         0         
_________________________________________________________________
separable_conv2d_525 (Separa (None, 8, 8, 512)         267264    
_________________________________________________________________
activation_600 (Activation)  (None, 8, 8, 512)         0         
_________________________________________________________________
dropout_600 (Dropout)        (None, 8, 8, 512)         0         
_________________________________________________________________
flatten_52 (Flatten)         (None, 32768)             0         
_________________________________________________________________
dense_127 (Dense)            (None, 256)               8388864   
_________________________________________________________________
activation_601 (Activation)  (None, 256)               0         
_________________________________________________________________
dropout_601 (Dropout)        (None, 256)               0         
_________________________________________________________________
dense_128 (Dense)            (None, 100)               25700     
=================================================================
Total params: 10,378,863
Trainable params: 10,371,663
Non-trainable params: 7,200
_________________________________________________________________
