Model: "sequential_328"
_________________________________________________________________
Layer (type)                 Output Shape              Param #   
=================================================================
separable_conv2d_2805 (Separ (None, 32, 32, 1024)      4123      
_________________________________________________________________
batch_normalization_1504 (Ba (None, 32, 32, 1024)      4096      
_________________________________________________________________
activation_3066 (Activation) (None, 32, 32, 1024)      0         
_________________________________________________________________
dropout_3066 (Dropout)       (None, 32, 32, 1024)      0         
_________________________________________________________________
separable_conv2d_2806 (Separ (None, 32, 32, 32)        42016     
_________________________________________________________________
activation_3067 (Activation) (None, 32, 32, 32)        0         
_________________________________________________________________
dropout_3067 (Dropout)       (None, 32, 32, 32)        0         
_________________________________________________________________
max_pooling2d_519 (MaxPoolin (None, 16, 16, 32)        0         
_________________________________________________________________
separable_conv2d_2807 (Separ (None, 16, 16, 512)       17184     
_________________________________________________________________
activation_3068 (Activation) (None, 16, 16, 512)       0         
_________________________________________________________________
dropout_3068 (Dropout)       (None, 16, 16, 512)       0         
_________________________________________________________________
separable_conv2d_2808 (Separ (None, 16, 16, 1024)      529920    
_________________________________________________________________
batch_normalization_1505 (Ba (None, 16, 16, 1024)      4096      
_________________________________________________________________
activation_3069 (Activation) (None, 16, 16, 1024)      0         
_________________________________________________________________
dropout_3069 (Dropout)       (None, 16, 16, 1024)      0         
_________________________________________________________________
separable_conv2d_2809 (Separ (None, 16, 16, 1024)      1058816   
_________________________________________________________________
batch_normalization_1506 (Ba (None, 16, 16, 1024)      4096      
_________________________________________________________________
activation_3070 (Activation) (None, 16, 16, 1024)      0         
_________________________________________________________________
dropout_3070 (Dropout)       (None, 16, 16, 1024)      0         
_________________________________________________________________
separable_conv2d_2810 (Separ (None, 16, 16, 16)        25616     
_________________________________________________________________
batch_normalization_1507 (Ba (None, 16, 16, 16)        64        
_________________________________________________________________
activation_3071 (Activation) (None, 16, 16, 16)        0         
_________________________________________________________________
dropout_3071 (Dropout)       (None, 16, 16, 16)        0         
_________________________________________________________________
separable_conv2d_2811 (Separ (None, 16, 16, 64)        1232      
_________________________________________________________________
batch_normalization_1508 (Ba (None, 16, 16, 64)        256       
_________________________________________________________________
activation_3072 (Activation) (None, 16, 16, 64)        0         
_________________________________________________________________
dropout_3072 (Dropout)       (None, 16, 16, 64)        0         
_________________________________________________________________
separable_conv2d_2812 (Separ (None, 16, 16, 16)        1616      
_________________________________________________________________
activation_3073 (Activation) (None, 16, 16, 16)        0         
_________________________________________________________________
dropout_3073 (Dropout)       (None, 16, 16, 16)        0         
_________________________________________________________________
flatten_328 (Flatten)        (None, 4096)              0         
_________________________________________________________________
dense_589 (Dense)            (None, 100)               409700    
=================================================================
Total params: 2,102,831
Trainable params: 2,096,527
Non-trainable params: 6,304
_________________________________________________________________
