Model: "sequential_225"
_________________________________________________________________
Layer (type)                 Output Shape              Param #   
=================================================================
separable_conv2d_1981 (Separ (None, 32, 32, 1024)      4123      
_________________________________________________________________
batch_normalization_1096 (Ba (None, 32, 32, 1024)      4096      
_________________________________________________________________
activation_2213 (Activation) (None, 32, 32, 1024)      0         
_________________________________________________________________
dropout_2213 (Dropout)       (None, 32, 32, 1024)      0         
_________________________________________________________________
separable_conv2d_1982 (Separ (None, 32, 32, 32)        42016     
_________________________________________________________________
activation_2214 (Activation) (None, 32, 32, 32)        0         
_________________________________________________________________
dropout_2214 (Dropout)       (None, 32, 32, 32)        0         
_________________________________________________________________
max_pooling2d_410 (MaxPoolin (None, 16, 16, 32)        0         
_________________________________________________________________
separable_conv2d_1983 (Separ (None, 16, 16, 512)       17184     
_________________________________________________________________
activation_2215 (Activation) (None, 16, 16, 512)       0         
_________________________________________________________________
dropout_2215 (Dropout)       (None, 16, 16, 512)       0         
_________________________________________________________________
separable_conv2d_1984 (Separ (None, 16, 16, 1024)      529920    
_________________________________________________________________
batch_normalization_1097 (Ba (None, 16, 16, 1024)      4096      
_________________________________________________________________
activation_2216 (Activation) (None, 16, 16, 1024)      0         
_________________________________________________________________
dropout_2216 (Dropout)       (None, 16, 16, 1024)      0         
_________________________________________________________________
separable_conv2d_1985 (Separ (None, 16, 16, 1024)      1058816   
_________________________________________________________________
batch_normalization_1098 (Ba (None, 16, 16, 1024)      4096      
_________________________________________________________________
activation_2217 (Activation) (None, 16, 16, 1024)      0         
_________________________________________________________________
dropout_2217 (Dropout)       (None, 16, 16, 1024)      0         
_________________________________________________________________
separable_conv2d_1986 (Separ (None, 16, 16, 16)        25616     
_________________________________________________________________
batch_normalization_1099 (Ba (None, 16, 16, 16)        64        
_________________________________________________________________
activation_2218 (Activation) (None, 16, 16, 16)        0         
_________________________________________________________________
dropout_2218 (Dropout)       (None, 16, 16, 16)        0         
_________________________________________________________________
separable_conv2d_1987 (Separ (None, 16, 16, 64)        1232      
_________________________________________________________________
activation_2219 (Activation) (None, 16, 16, 64)        0         
_________________________________________________________________
dropout_2219 (Dropout)       (None, 16, 16, 64)        0         
_________________________________________________________________
separable_conv2d_1988 (Separ (None, 16, 16, 16)        1616      
_________________________________________________________________
activation_2220 (Activation) (None, 16, 16, 16)        0         
_________________________________________________________________
dropout_2220 (Dropout)       (None, 16, 16, 16)        0         
_________________________________________________________________
flatten_225 (Flatten)        (None, 4096)              0         
_________________________________________________________________
dense_457 (Dense)            (None, 4096)              16781312  
_________________________________________________________________
activation_2221 (Activation) (None, 4096)              0         
_________________________________________________________________
dropout_2221 (Dropout)       (None, 4096)              0         
_________________________________________________________________
dense_458 (Dense)            (None, 100)               409700    
=================================================================
Total params: 18,883,887
Trainable params: 18,877,711
Non-trainable params: 6,176
_________________________________________________________________
