Model: "sequential_222"
_________________________________________________________________
Layer (type)                 Output Shape              Param #   
=================================================================
separable_conv2d_1958 (Separ (None, 32, 32, 1024)      4123      
_________________________________________________________________
batch_normalization_1084 (Ba (None, 32, 32, 1024)      4096      
_________________________________________________________________
activation_2189 (Activation) (None, 32, 32, 1024)      0         
_________________________________________________________________
dropout_2189 (Dropout)       (None, 32, 32, 1024)      0         
_________________________________________________________________
separable_conv2d_1959 (Separ (None, 32, 32, 32)        42016     
_________________________________________________________________
activation_2190 (Activation) (None, 32, 32, 32)        0         
_________________________________________________________________
dropout_2190 (Dropout)       (None, 32, 32, 32)        0         
_________________________________________________________________
max_pooling2d_406 (MaxPoolin (None, 16, 16, 32)        0         
_________________________________________________________________
separable_conv2d_1960 (Separ (None, 16, 16, 512)       17184     
_________________________________________________________________
activation_2191 (Activation) (None, 16, 16, 512)       0         
_________________________________________________________________
dropout_2191 (Dropout)       (None, 16, 16, 512)       0         
_________________________________________________________________
separable_conv2d_1961 (Separ (None, 16, 16, 1024)      529920    
_________________________________________________________________
batch_normalization_1085 (Ba (None, 16, 16, 1024)      4096      
_________________________________________________________________
activation_2192 (Activation) (None, 16, 16, 1024)      0         
_________________________________________________________________
dropout_2192 (Dropout)       (None, 16, 16, 1024)      0         
_________________________________________________________________
separable_conv2d_1962 (Separ (None, 16, 16, 1024)      1058816   
_________________________________________________________________
batch_normalization_1086 (Ba (None, 16, 16, 1024)      4096      
_________________________________________________________________
activation_2193 (Activation) (None, 16, 16, 1024)      0         
_________________________________________________________________
dropout_2193 (Dropout)       (None, 16, 16, 1024)      0         
_________________________________________________________________
separable_conv2d_1963 (Separ (None, 16, 16, 16)        25616     
_________________________________________________________________
batch_normalization_1087 (Ba (None, 16, 16, 16)        64        
_________________________________________________________________
activation_2194 (Activation) (None, 16, 16, 16)        0         
_________________________________________________________________
dropout_2194 (Dropout)       (None, 16, 16, 16)        0         
_________________________________________________________________
separable_conv2d_1964 (Separ (None, 16, 16, 64)        1232      
_________________________________________________________________
activation_2195 (Activation) (None, 16, 16, 64)        0         
_________________________________________________________________
dropout_2195 (Dropout)       (None, 16, 16, 64)        0         
_________________________________________________________________
separable_conv2d_1965 (Separ (None, 16, 16, 16)        1616      
_________________________________________________________________
activation_2196 (Activation) (None, 16, 16, 16)        0         
_________________________________________________________________
dropout_2196 (Dropout)       (None, 16, 16, 16)        0         
_________________________________________________________________
flatten_222 (Flatten)        (None, 4096)              0         
_________________________________________________________________
dense_453 (Dense)            (None, 100)               409700    
=================================================================
Total params: 2,102,575
Trainable params: 2,096,399
Non-trainable params: 6,176
_________________________________________________________________
