Model: "sequential_344"
_________________________________________________________________
Layer (type)                 Output Shape              Param #   
=================================================================
separable_conv2d_2932 (Separ (None, 32, 32, 1024)      4123      
_________________________________________________________________
batch_normalization_1566 (Ba (None, 32, 32, 1024)      4096      
_________________________________________________________________
activation_3194 (Activation) (None, 32, 32, 1024)      0         
_________________________________________________________________
dropout_3194 (Dropout)       (None, 32, 32, 1024)      0         
_________________________________________________________________
separable_conv2d_2933 (Separ (None, 32, 32, 32)        42016     
_________________________________________________________________
activation_3195 (Activation) (None, 32, 32, 32)        0         
_________________________________________________________________
dropout_3195 (Dropout)       (None, 32, 32, 32)        0         
_________________________________________________________________
max_pooling2d_538 (MaxPoolin (None, 16, 16, 32)        0         
_________________________________________________________________
separable_conv2d_2934 (Separ (None, 16, 16, 512)       17184     
_________________________________________________________________
activation_3196 (Activation) (None, 16, 16, 512)       0         
_________________________________________________________________
dropout_3196 (Dropout)       (None, 16, 16, 512)       0         
_________________________________________________________________
separable_conv2d_2935 (Separ (None, 16, 16, 1024)      529920    
_________________________________________________________________
batch_normalization_1567 (Ba (None, 16, 16, 1024)      4096      
_________________________________________________________________
activation_3197 (Activation) (None, 16, 16, 1024)      0         
_________________________________________________________________
dropout_3197 (Dropout)       (None, 16, 16, 1024)      0         
_________________________________________________________________
separable_conv2d_2936 (Separ (None, 16, 16, 1024)      1058816   
_________________________________________________________________
batch_normalization_1568 (Ba (None, 16, 16, 1024)      4096      
_________________________________________________________________
activation_3198 (Activation) (None, 16, 16, 1024)      0         
_________________________________________________________________
dropout_3198 (Dropout)       (None, 16, 16, 1024)      0         
_________________________________________________________________
separable_conv2d_2937 (Separ (None, 16, 16, 16)        25616     
_________________________________________________________________
batch_normalization_1569 (Ba (None, 16, 16, 16)        64        
_________________________________________________________________
activation_3199 (Activation) (None, 16, 16, 16)        0         
_________________________________________________________________
dropout_3199 (Dropout)       (None, 16, 16, 16)        0         
_________________________________________________________________
separable_conv2d_2938 (Separ (None, 16, 16, 64)        1232      
_________________________________________________________________
activation_3200 (Activation) (None, 16, 16, 64)        0         
_________________________________________________________________
dropout_3200 (Dropout)       (None, 16, 16, 64)        0         
_________________________________________________________________
separable_conv2d_2939 (Separ (None, 16, 16, 16)        1616      
_________________________________________________________________
activation_3201 (Activation) (None, 16, 16, 16)        0         
_________________________________________________________________
dropout_3201 (Dropout)       (None, 16, 16, 16)        0         
_________________________________________________________________
flatten_344 (Flatten)        (None, 4096)              0         
_________________________________________________________________
dense_606 (Dense)            (None, 100)               409700    
=================================================================
Total params: 2,102,575
Trainable params: 2,096,399
Non-trainable params: 6,176
_________________________________________________________________
