Model: "sequential_230"
_________________________________________________________________
Layer (type)                 Output Shape              Param #   
=================================================================
separable_conv2d_2021 (Separ (None, 32, 32, 1024)      4123      
_________________________________________________________________
batch_normalization_1116 (Ba (None, 32, 32, 1024)      4096      
_________________________________________________________________
activation_2255 (Activation) (None, 32, 32, 1024)      0         
_________________________________________________________________
dropout_2255 (Dropout)       (None, 32, 32, 1024)      0         
_________________________________________________________________
separable_conv2d_2022 (Separ (None, 32, 32, 32)        42016     
_________________________________________________________________
activation_2256 (Activation) (None, 32, 32, 32)        0         
_________________________________________________________________
dropout_2256 (Dropout)       (None, 32, 32, 32)        0         
_________________________________________________________________
max_pooling2d_415 (MaxPoolin (None, 16, 16, 32)        0         
_________________________________________________________________
separable_conv2d_2023 (Separ (None, 16, 16, 512)       17184     
_________________________________________________________________
activation_2257 (Activation) (None, 16, 16, 512)       0         
_________________________________________________________________
dropout_2257 (Dropout)       (None, 16, 16, 512)       0         
_________________________________________________________________
separable_conv2d_2024 (Separ (None, 16, 16, 1024)      529920    
_________________________________________________________________
batch_normalization_1117 (Ba (None, 16, 16, 1024)      4096      
_________________________________________________________________
activation_2258 (Activation) (None, 16, 16, 1024)      0         
_________________________________________________________________
dropout_2258 (Dropout)       (None, 16, 16, 1024)      0         
_________________________________________________________________
separable_conv2d_2025 (Separ (None, 16, 16, 1024)      1058816   
_________________________________________________________________
batch_normalization_1118 (Ba (None, 16, 16, 1024)      4096      
_________________________________________________________________
activation_2259 (Activation) (None, 16, 16, 1024)      0         
_________________________________________________________________
dropout_2259 (Dropout)       (None, 16, 16, 1024)      0         
_________________________________________________________________
separable_conv2d_2026 (Separ (None, 16, 16, 16)        25616     
_________________________________________________________________
batch_normalization_1119 (Ba (None, 16, 16, 16)        64        
_________________________________________________________________
activation_2260 (Activation) (None, 16, 16, 16)        0         
_________________________________________________________________
dropout_2260 (Dropout)       (None, 16, 16, 16)        0         
_________________________________________________________________
separable_conv2d_2027 (Separ (None, 16, 16, 16)        416       
_________________________________________________________________
batch_normalization_1120 (Ba (None, 16, 16, 16)        64        
_________________________________________________________________
activation_2261 (Activation) (None, 16, 16, 16)        0         
_________________________________________________________________
dropout_2261 (Dropout)       (None, 16, 16, 16)        0         
_________________________________________________________________
separable_conv2d_2028 (Separ (None, 16, 16, 8)         280       
_________________________________________________________________
activation_2262 (Activation) (None, 16, 16, 8)         0         
_________________________________________________________________
dropout_2262 (Dropout)       (None, 16, 16, 8)         0         
_________________________________________________________________
flatten_230 (Flatten)        (None, 2048)              0         
_________________________________________________________________
dense_464 (Dense)            (None, 4096)              8392704   
_________________________________________________________________
activation_2263 (Activation) (None, 4096)              0         
_________________________________________________________________
dropout_2263 (Dropout)       (None, 4096)              0         
_________________________________________________________________
dense_465 (Dense)            (None, 100)               409700    
=================================================================
Total params: 10,493,191
Trainable params: 10,486,983
Non-trainable params: 6,208
_________________________________________________________________
