Model: "sequential_81"
_________________________________________________________________
Layer (type)                 Output Shape              Param #   
=================================================================
separable_conv2d_789 (Separa (None, 32, 32, 1024)      4123      
_________________________________________________________________
batch_normalization_444 (Bat (None, 32, 32, 1024)      4096      
_________________________________________________________________
activation_897 (Activation)  (None, 32, 32, 1024)      0         
_________________________________________________________________
dropout_897 (Dropout)        (None, 32, 32, 1024)      0         
_________________________________________________________________
max_pooling2d_178 (MaxPoolin (None, 16, 16, 1024)      0         
_________________________________________________________________
separable_conv2d_790 (Separa (None, 16, 16, 32)        42016     
_________________________________________________________________
activation_898 (Activation)  (None, 16, 16, 32)        0         
_________________________________________________________________
dropout_898 (Dropout)        (None, 16, 16, 32)        0         
_________________________________________________________________
max_pooling2d_179 (MaxPoolin (None, 8, 8, 32)          0         
_________________________________________________________________
separable_conv2d_791 (Separa (None, 8, 8, 512)         17184     
_________________________________________________________________
activation_899 (Activation)  (None, 8, 8, 512)         0         
_________________________________________________________________
dropout_899 (Dropout)        (None, 8, 8, 512)         0         
_________________________________________________________________
separable_conv2d_792 (Separa (None, 8, 8, 1024)        529920    
_________________________________________________________________
batch_normalization_445 (Bat (None, 8, 8, 1024)        4096      
_________________________________________________________________
activation_900 (Activation)  (None, 8, 8, 1024)        0         
_________________________________________________________________
dropout_900 (Dropout)        (None, 8, 8, 1024)        0         
_________________________________________________________________
separable_conv2d_793 (Separa (None, 8, 8, 1024)        1058816   
_________________________________________________________________
batch_normalization_446 (Bat (None, 8, 8, 1024)        4096      
_________________________________________________________________
activation_901 (Activation)  (None, 8, 8, 1024)        0         
_________________________________________________________________
dropout_901 (Dropout)        (None, 8, 8, 1024)        0         
_________________________________________________________________
separable_conv2d_794 (Separa (None, 8, 8, 16)          25616     
_________________________________________________________________
batch_normalization_447 (Bat (None, 8, 8, 16)          64        
_________________________________________________________________
activation_902 (Activation)  (None, 8, 8, 16)          0         
_________________________________________________________________
dropout_902 (Dropout)        (None, 8, 8, 16)          0         
_________________________________________________________________
separable_conv2d_795 (Separa (None, 8, 8, 16)          416       
_________________________________________________________________
batch_normalization_448 (Bat (None, 8, 8, 16)          64        
_________________________________________________________________
activation_903 (Activation)  (None, 8, 8, 16)          0         
_________________________________________________________________
dropout_903 (Dropout)        (None, 8, 8, 16)          0         
_________________________________________________________________
separable_conv2d_796 (Separa (None, 8, 8, 8)           280       
_________________________________________________________________
activation_904 (Activation)  (None, 8, 8, 8)           0         
_________________________________________________________________
dropout_904 (Dropout)        (None, 8, 8, 8)           0         
_________________________________________________________________
flatten_81 (Flatten)         (None, 512)               0         
_________________________________________________________________
dense_189 (Dense)            (None, 4096)              2101248   
_________________________________________________________________
activation_905 (Activation)  (None, 4096)              0         
_________________________________________________________________
dropout_905 (Dropout)        (None, 4096)              0         
_________________________________________________________________
dense_190 (Dense)            (None, 100)               409700    
=================================================================
Total params: 4,201,735
Trainable params: 4,195,527
Non-trainable params: 6,208
_________________________________________________________________
