Model: "sequential_79"
_________________________________________________________________
Layer (type)                 Output Shape              Param #   
=================================================================
separable_conv2d_772 (Separa (None, 32, 32, 1024)      4123      
_________________________________________________________________
batch_normalization_432 (Bat (None, 32, 32, 1024)      4096      
_________________________________________________________________
activation_877 (Activation)  (None, 32, 32, 1024)      0         
_________________________________________________________________
dropout_877 (Dropout)        (None, 32, 32, 1024)      0         
_________________________________________________________________
max_pooling2d_174 (MaxPoolin (None, 16, 16, 1024)      0         
_________________________________________________________________
separable_conv2d_773 (Separa (None, 16, 16, 32)        42016     
_________________________________________________________________
activation_878 (Activation)  (None, 16, 16, 32)        0         
_________________________________________________________________
dropout_878 (Dropout)        (None, 16, 16, 32)        0         
_________________________________________________________________
max_pooling2d_175 (MaxPoolin (None, 8, 8, 32)          0         
_________________________________________________________________
separable_conv2d_774 (Separa (None, 8, 8, 512)         17184     
_________________________________________________________________
activation_879 (Activation)  (None, 8, 8, 512)         0         
_________________________________________________________________
dropout_879 (Dropout)        (None, 8, 8, 512)         0         
_________________________________________________________________
separable_conv2d_775 (Separa (None, 8, 8, 1024)        529920    
_________________________________________________________________
batch_normalization_433 (Bat (None, 8, 8, 1024)        4096      
_________________________________________________________________
activation_880 (Activation)  (None, 8, 8, 1024)        0         
_________________________________________________________________
dropout_880 (Dropout)        (None, 8, 8, 1024)        0         
_________________________________________________________________
separable_conv2d_776 (Separa (None, 8, 8, 1024)        1058816   
_________________________________________________________________
batch_normalization_434 (Bat (None, 8, 8, 1024)        4096      
_________________________________________________________________
activation_881 (Activation)  (None, 8, 8, 1024)        0         
_________________________________________________________________
dropout_881 (Dropout)        (None, 8, 8, 1024)        0         
_________________________________________________________________
separable_conv2d_777 (Separa (None, 8, 8, 16)          25616     
_________________________________________________________________
batch_normalization_435 (Bat (None, 8, 8, 16)          64        
_________________________________________________________________
activation_882 (Activation)  (None, 8, 8, 16)          0         
_________________________________________________________________
dropout_882 (Dropout)        (None, 8, 8, 16)          0         
_________________________________________________________________
separable_conv2d_778 (Separa (None, 8, 8, 16)          416       
_________________________________________________________________
batch_normalization_436 (Bat (None, 8, 8, 16)          64        
_________________________________________________________________
activation_883 (Activation)  (None, 8, 8, 16)          0         
_________________________________________________________________
dropout_883 (Dropout)        (None, 8, 8, 16)          0         
_________________________________________________________________
separable_conv2d_779 (Separa (None, 8, 8, 256)         4496      
_________________________________________________________________
batch_normalization_437 (Bat (None, 8, 8, 256)         1024      
_________________________________________________________________
activation_884 (Activation)  (None, 8, 8, 256)         0         
_________________________________________________________________
dropout_884 (Dropout)        (None, 8, 8, 256)         0         
_________________________________________________________________
separable_conv2d_780 (Separa (None, 8, 8, 512)         133888    
_________________________________________________________________
batch_normalization_438 (Bat (None, 8, 8, 512)         2048      
_________________________________________________________________
activation_885 (Activation)  (None, 8, 8, 512)         0         
_________________________________________________________________
dropout_885 (Dropout)        (None, 8, 8, 512)         0         
_________________________________________________________________
flatten_79 (Flatten)         (None, 32768)             0         
_________________________________________________________________
dense_184 (Dense)            (None, 64)                2097216   
_________________________________________________________________
activation_886 (Activation)  (None, 64)                0         
_________________________________________________________________
dropout_886 (Dropout)        (None, 64)                0         
_________________________________________________________________
dense_185 (Dense)            (None, 1024)              66560     
_________________________________________________________________
activation_887 (Activation)  (None, 1024)              0         
_________________________________________________________________
dropout_887 (Dropout)        (None, 1024)              0         
_________________________________________________________________
dense_186 (Dense)            (None, 100)               102500    
=================================================================
Total params: 4,098,239
Trainable params: 4,090,495
Non-trainable params: 7,744
_________________________________________________________________
