Model: "sequential_332"
_________________________________________________________________
Layer (type)                 Output Shape              Param #   
=================================================================
separable_conv2d_2837 (Separ (None, 32, 32, 1024)      4123      
_________________________________________________________________
batch_normalization_1521 (Ba (None, 32, 32, 1024)      4096      
_________________________________________________________________
activation_3098 (Activation) (None, 32, 32, 1024)      0         
_________________________________________________________________
dropout_3098 (Dropout)       (None, 32, 32, 1024)      0         
_________________________________________________________________
separable_conv2d_2838 (Separ (None, 32, 32, 32)        42016     
_________________________________________________________________
activation_3099 (Activation) (None, 32, 32, 32)        0         
_________________________________________________________________
dropout_3099 (Dropout)       (None, 32, 32, 32)        0         
_________________________________________________________________
max_pooling2d_525 (MaxPoolin (None, 16, 16, 32)        0         
_________________________________________________________________
separable_conv2d_2839 (Separ (None, 16, 16, 512)       17184     
_________________________________________________________________
activation_3100 (Activation) (None, 16, 16, 512)       0         
_________________________________________________________________
dropout_3100 (Dropout)       (None, 16, 16, 512)       0         
_________________________________________________________________
separable_conv2d_2840 (Separ (None, 16, 16, 1024)      529920    
_________________________________________________________________
batch_normalization_1522 (Ba (None, 16, 16, 1024)      4096      
_________________________________________________________________
activation_3101 (Activation) (None, 16, 16, 1024)      0         
_________________________________________________________________
dropout_3101 (Dropout)       (None, 16, 16, 1024)      0         
_________________________________________________________________
separable_conv2d_2841 (Separ (None, 16, 16, 1024)      1058816   
_________________________________________________________________
batch_normalization_1523 (Ba (None, 16, 16, 1024)      4096      
_________________________________________________________________
activation_3102 (Activation) (None, 16, 16, 1024)      0         
_________________________________________________________________
dropout_3102 (Dropout)       (None, 16, 16, 1024)      0         
_________________________________________________________________
separable_conv2d_2842 (Separ (None, 16, 16, 16)        25616     
_________________________________________________________________
batch_normalization_1524 (Ba (None, 16, 16, 16)        64        
_________________________________________________________________
activation_3103 (Activation) (None, 16, 16, 16)        0         
_________________________________________________________________
dropout_3103 (Dropout)       (None, 16, 16, 16)        0         
_________________________________________________________________
separable_conv2d_2843 (Separ (None, 16, 16, 64)        1232      
_________________________________________________________________
activation_3104 (Activation) (None, 16, 16, 64)        0         
_________________________________________________________________
dropout_3104 (Dropout)       (None, 16, 16, 64)        0         
_________________________________________________________________
separable_conv2d_2844 (Separ (None, 16, 16, 16)        1616      
_________________________________________________________________
activation_3105 (Activation) (None, 16, 16, 16)        0         
_________________________________________________________________
dropout_3105 (Dropout)       (None, 16, 16, 16)        0         
_________________________________________________________________
flatten_332 (Flatten)        (None, 4096)              0         
_________________________________________________________________
dense_593 (Dense)            (None, 100)               409700    
=================================================================
Total params: 2,102,575
Trainable params: 2,096,399
Non-trainable params: 6,176
_________________________________________________________________
