Model: "sequential_260"
_________________________________________________________________
Layer (type)                 Output Shape              Param #   
=================================================================
separable_conv2d_2261 (Separ (None, 32, 32, 1024)      4123      
_________________________________________________________________
batch_normalization_1236 (Ba (None, 32, 32, 1024)      4096      
_________________________________________________________________
activation_2507 (Activation) (None, 32, 32, 1024)      0         
_________________________________________________________________
dropout_2507 (Dropout)       (None, 32, 32, 1024)      0         
_________________________________________________________________
separable_conv2d_2262 (Separ (None, 32, 32, 32)        42016     
_________________________________________________________________
activation_2508 (Activation) (None, 32, 32, 32)        0         
_________________________________________________________________
dropout_2508 (Dropout)       (None, 32, 32, 32)        0         
_________________________________________________________________
max_pooling2d_446 (MaxPoolin (None, 16, 16, 32)        0         
_________________________________________________________________
separable_conv2d_2263 (Separ (None, 16, 16, 512)       17184     
_________________________________________________________________
activation_2509 (Activation) (None, 16, 16, 512)       0         
_________________________________________________________________
dropout_2509 (Dropout)       (None, 16, 16, 512)       0         
_________________________________________________________________
separable_conv2d_2264 (Separ (None, 16, 16, 1024)      529920    
_________________________________________________________________
batch_normalization_1237 (Ba (None, 16, 16, 1024)      4096      
_________________________________________________________________
activation_2510 (Activation) (None, 16, 16, 1024)      0         
_________________________________________________________________
dropout_2510 (Dropout)       (None, 16, 16, 1024)      0         
_________________________________________________________________
separable_conv2d_2265 (Separ (None, 16, 16, 1024)      1058816   
_________________________________________________________________
activation_2511 (Activation) (None, 16, 16, 1024)      0         
_________________________________________________________________
dropout_2511 (Dropout)       (None, 16, 16, 1024)      0         
_________________________________________________________________
separable_conv2d_2266 (Separ (None, 16, 16, 64)        74816     
_________________________________________________________________
batch_normalization_1238 (Ba (None, 16, 16, 64)        256       
_________________________________________________________________
activation_2512 (Activation) (None, 16, 16, 64)        0         
_________________________________________________________________
dropout_2512 (Dropout)       (None, 16, 16, 64)        0         
_________________________________________________________________
separable_conv2d_2267 (Separ (None, 16, 16, 64)        4736      
_________________________________________________________________
activation_2513 (Activation) (None, 16, 16, 64)        0         
_________________________________________________________________
dropout_2513 (Dropout)       (None, 16, 16, 64)        0         
_________________________________________________________________
separable_conv2d_2268 (Separ (None, 16, 16, 16)        1616      
_________________________________________________________________
activation_2514 (Activation) (None, 16, 16, 16)        0         
_________________________________________________________________
dropout_2514 (Dropout)       (None, 16, 16, 16)        0         
_________________________________________________________________
flatten_260 (Flatten)        (None, 4096)              0         
_________________________________________________________________
dense_506 (Dense)            (None, 100)               409700    
=================================================================
Total params: 2,151,375
Trainable params: 2,147,151
Non-trainable params: 4,224
_________________________________________________________________
