Model: "sequential_248"
_________________________________________________________________
Layer (type)                 Output Shape              Param #   
=================================================================
separable_conv2d_2165 (Separ (None, 32, 32, 1024)      4123      
_________________________________________________________________
batch_normalization_1190 (Ba (None, 32, 32, 1024)      4096      
_________________________________________________________________
activation_2408 (Activation) (None, 32, 32, 1024)      0         
_________________________________________________________________
dropout_2408 (Dropout)       (None, 32, 32, 1024)      0         
_________________________________________________________________
separable_conv2d_2166 (Separ (None, 32, 32, 32)        42016     
_________________________________________________________________
activation_2409 (Activation) (None, 32, 32, 32)        0         
_________________________________________________________________
dropout_2409 (Dropout)       (None, 32, 32, 32)        0         
_________________________________________________________________
max_pooling2d_433 (MaxPoolin (None, 16, 16, 32)        0         
_________________________________________________________________
separable_conv2d_2167 (Separ (None, 16, 16, 512)       17184     
_________________________________________________________________
activation_2410 (Activation) (None, 16, 16, 512)       0         
_________________________________________________________________
dropout_2410 (Dropout)       (None, 16, 16, 512)       0         
_________________________________________________________________
separable_conv2d_2168 (Separ (None, 16, 16, 1024)      529920    
_________________________________________________________________
batch_normalization_1191 (Ba (None, 16, 16, 1024)      4096      
_________________________________________________________________
activation_2411 (Activation) (None, 16, 16, 1024)      0         
_________________________________________________________________
dropout_2411 (Dropout)       (None, 16, 16, 1024)      0         
_________________________________________________________________
separable_conv2d_2169 (Separ (None, 16, 16, 1024)      1058816   
_________________________________________________________________
batch_normalization_1192 (Ba (None, 16, 16, 1024)      4096      
_________________________________________________________________
activation_2412 (Activation) (None, 16, 16, 1024)      0         
_________________________________________________________________
dropout_2412 (Dropout)       (None, 16, 16, 1024)      0         
_________________________________________________________________
separable_conv2d_2170 (Separ (None, 16, 16, 16)        25616     
_________________________________________________________________
batch_normalization_1193 (Ba (None, 16, 16, 16)        64        
_________________________________________________________________
activation_2413 (Activation) (None, 16, 16, 16)        0         
_________________________________________________________________
dropout_2413 (Dropout)       (None, 16, 16, 16)        0         
_________________________________________________________________
separable_conv2d_2171 (Separ (None, 16, 16, 64)        1232      
_________________________________________________________________
activation_2414 (Activation) (None, 16, 16, 64)        0         
_________________________________________________________________
dropout_2414 (Dropout)       (None, 16, 16, 64)        0         
_________________________________________________________________
separable_conv2d_2172 (Separ (None, 16, 16, 16)        1616      
_________________________________________________________________
activation_2415 (Activation) (None, 16, 16, 16)        0         
_________________________________________________________________
dropout_2415 (Dropout)       (None, 16, 16, 16)        0         
_________________________________________________________________
flatten_248 (Flatten)        (None, 4096)              0         
_________________________________________________________________
dense_491 (Dense)            (None, 100)               409700    
=================================================================
Total params: 2,102,575
Trainable params: 2,096,399
Non-trainable params: 6,176
_________________________________________________________________
