Model: "sequential_53"
_________________________________________________________________
Layer (type)                 Output Shape              Param #   
=================================================================
separable_conv2d_526 (Separa (None, 32, 32, 1024)      4123      
_________________________________________________________________
batch_normalization_297 (Bat (None, 32, 32, 1024)      4096      
_________________________________________________________________
activation_602 (Activation)  (None, 32, 32, 1024)      0         
_________________________________________________________________
dropout_602 (Dropout)        (None, 32, 32, 1024)      0         
_________________________________________________________________
max_pooling2d_121 (MaxPoolin (None, 16, 16, 1024)      0         
_________________________________________________________________
separable_conv2d_527 (Separa (None, 16, 16, 32)        42016     
_________________________________________________________________
activation_603 (Activation)  (None, 16, 16, 32)        0         
_________________________________________________________________
dropout_603 (Dropout)        (None, 16, 16, 32)        0         
_________________________________________________________________
max_pooling2d_122 (MaxPoolin (None, 8, 8, 32)          0         
_________________________________________________________________
separable_conv2d_528 (Separa (None, 8, 8, 512)         17184     
_________________________________________________________________
activation_604 (Activation)  (None, 8, 8, 512)         0         
_________________________________________________________________
dropout_604 (Dropout)        (None, 8, 8, 512)         0         
_________________________________________________________________
separable_conv2d_529 (Separa (None, 8, 8, 1024)        529920    
_________________________________________________________________
batch_normalization_298 (Bat (None, 8, 8, 1024)        4096      
_________________________________________________________________
activation_605 (Activation)  (None, 8, 8, 1024)        0         
_________________________________________________________________
dropout_605 (Dropout)        (None, 8, 8, 1024)        0         
_________________________________________________________________
separable_conv2d_530 (Separa (None, 8, 8, 1024)        1058816   
_________________________________________________________________
batch_normalization_299 (Bat (None, 8, 8, 1024)        4096      
_________________________________________________________________
activation_606 (Activation)  (None, 8, 8, 1024)        0         
_________________________________________________________________
dropout_606 (Dropout)        (None, 8, 8, 1024)        0         
_________________________________________________________________
separable_conv2d_531 (Separa (None, 8, 8, 16)          25616     
_________________________________________________________________
batch_normalization_300 (Bat (None, 8, 8, 16)          64        
_________________________________________________________________
activation_607 (Activation)  (None, 8, 8, 16)          0         
_________________________________________________________________
dropout_607 (Dropout)        (None, 8, 8, 16)          0         
_________________________________________________________________
separable_conv2d_532 (Separa (None, 8, 8, 16)          416       
_________________________________________________________________
batch_normalization_301 (Bat (None, 8, 8, 16)          64        
_________________________________________________________________
activation_608 (Activation)  (None, 8, 8, 16)          0         
_________________________________________________________________
dropout_608 (Dropout)        (None, 8, 8, 16)          0         
_________________________________________________________________
separable_conv2d_533 (Separa (None, 8, 8, 512)         8848      
_________________________________________________________________
activation_609 (Activation)  (None, 8, 8, 512)         0         
_________________________________________________________________
dropout_609 (Dropout)        (None, 8, 8, 512)         0         
_________________________________________________________________
separable_conv2d_534 (Separa (None, 8, 8, 64)          37440     
_________________________________________________________________
activation_610 (Activation)  (None, 8, 8, 64)          0         
_________________________________________________________________
dropout_610 (Dropout)        (None, 8, 8, 64)          0         
_________________________________________________________________
separable_conv2d_535 (Separa (None, 8, 8, 8)           1096      
_________________________________________________________________
activation_611 (Activation)  (None, 8, 8, 8)           0         
_________________________________________________________________
dropout_611 (Dropout)        (None, 8, 8, 8)           0         
_________________________________________________________________
flatten_53 (Flatten)         (None, 512)               0         
_________________________________________________________________
dense_129 (Dense)            (None, 4096)              2101248   
_________________________________________________________________
activation_612 (Activation)  (None, 4096)              0         
_________________________________________________________________
dropout_612 (Dropout)        (None, 4096)              0         
_________________________________________________________________
dense_130 (Dense)            (None, 100)               409700    
=================================================================
Total params: 4,248,839
Trainable params: 4,242,631
Non-trainable params: 6,208
_________________________________________________________________
