Model: "sequential_283"
_________________________________________________________________
Layer (type)                 Output Shape              Param #   
=================================================================
separable_conv2d_2444 (Separ (None, 32, 32, 1024)      4123      
_________________________________________________________________
batch_normalization_1325 (Ba (None, 32, 32, 1024)      4096      
_________________________________________________________________
activation_2697 (Activation) (None, 32, 32, 1024)      0         
_________________________________________________________________
dropout_2697 (Dropout)       (None, 32, 32, 1024)      0         
_________________________________________________________________
separable_conv2d_2445 (Separ (None, 32, 32, 32)        42016     
_________________________________________________________________
activation_2698 (Activation) (None, 32, 32, 32)        0         
_________________________________________________________________
dropout_2698 (Dropout)       (None, 32, 32, 32)        0         
_________________________________________________________________
max_pooling2d_469 (MaxPoolin (None, 16, 16, 32)        0         
_________________________________________________________________
separable_conv2d_2446 (Separ (None, 16, 16, 512)       17184     
_________________________________________________________________
activation_2699 (Activation) (None, 16, 16, 512)       0         
_________________________________________________________________
dropout_2699 (Dropout)       (None, 16, 16, 512)       0         
_________________________________________________________________
separable_conv2d_2447 (Separ (None, 16, 16, 1024)      529920    
_________________________________________________________________
batch_normalization_1326 (Ba (None, 16, 16, 1024)      4096      
_________________________________________________________________
activation_2700 (Activation) (None, 16, 16, 1024)      0         
_________________________________________________________________
dropout_2700 (Dropout)       (None, 16, 16, 1024)      0         
_________________________________________________________________
separable_conv2d_2448 (Separ (None, 16, 16, 1024)      1058816   
_________________________________________________________________
batch_normalization_1327 (Ba (None, 16, 16, 1024)      4096      
_________________________________________________________________
activation_2701 (Activation) (None, 16, 16, 1024)      0         
_________________________________________________________________
dropout_2701 (Dropout)       (None, 16, 16, 1024)      0         
_________________________________________________________________
separable_conv2d_2449 (Separ (None, 16, 16, 16)        25616     
_________________________________________________________________
batch_normalization_1328 (Ba (None, 16, 16, 16)        64        
_________________________________________________________________
activation_2702 (Activation) (None, 16, 16, 16)        0         
_________________________________________________________________
dropout_2702 (Dropout)       (None, 16, 16, 16)        0         
_________________________________________________________________
separable_conv2d_2450 (Separ (None, 16, 16, 64)        1232      
_________________________________________________________________
activation_2703 (Activation) (None, 16, 16, 64)        0         
_________________________________________________________________
dropout_2703 (Dropout)       (None, 16, 16, 64)        0         
_________________________________________________________________
separable_conv2d_2451 (Separ (None, 16, 16, 16)        1616      
_________________________________________________________________
activation_2704 (Activation) (None, 16, 16, 16)        0         
_________________________________________________________________
dropout_2704 (Dropout)       (None, 16, 16, 16)        0         
_________________________________________________________________
flatten_283 (Flatten)        (None, 4096)              0         
_________________________________________________________________
dense_536 (Dense)            (None, 100)               409700    
=================================================================
Total params: 2,102,575
Trainable params: 2,096,399
Non-trainable params: 6,176
_________________________________________________________________
