Model: "sequential_90"
_________________________________________________________________
Layer (type)                 Output Shape              Param #   
=================================================================
separable_conv2d_871 (Separa (None, 32, 32, 1024)      4123      
_________________________________________________________________
batch_normalization_491 (Bat (None, 32, 32, 1024)      4096      
_________________________________________________________________
activation_988 (Activation)  (None, 32, 32, 1024)      0         
_________________________________________________________________
dropout_988 (Dropout)        (None, 32, 32, 1024)      0         
_________________________________________________________________
max_pooling2d_197 (MaxPoolin (None, 16, 16, 1024)      0         
_________________________________________________________________
separable_conv2d_872 (Separa (None, 16, 16, 32)        42016     
_________________________________________________________________
activation_989 (Activation)  (None, 16, 16, 32)        0         
_________________________________________________________________
dropout_989 (Dropout)        (None, 16, 16, 32)        0         
_________________________________________________________________
max_pooling2d_198 (MaxPoolin (None, 8, 8, 32)          0         
_________________________________________________________________
separable_conv2d_873 (Separa (None, 8, 8, 512)         17184     
_________________________________________________________________
activation_990 (Activation)  (None, 8, 8, 512)         0         
_________________________________________________________________
dropout_990 (Dropout)        (None, 8, 8, 512)         0         
_________________________________________________________________
separable_conv2d_874 (Separa (None, 8, 8, 1024)        529920    
_________________________________________________________________
batch_normalization_492 (Bat (None, 8, 8, 1024)        4096      
_________________________________________________________________
activation_991 (Activation)  (None, 8, 8, 1024)        0         
_________________________________________________________________
dropout_991 (Dropout)        (None, 8, 8, 1024)        0         
_________________________________________________________________
separable_conv2d_875 (Separa (None, 8, 8, 1024)        1058816   
_________________________________________________________________
batch_normalization_493 (Bat (None, 8, 8, 1024)        4096      
_________________________________________________________________
activation_992 (Activation)  (None, 8, 8, 1024)        0         
_________________________________________________________________
dropout_992 (Dropout)        (None, 8, 8, 1024)        0         
_________________________________________________________________
separable_conv2d_876 (Separa (None, 8, 8, 16)          25616     
_________________________________________________________________
batch_normalization_494 (Bat (None, 8, 8, 16)          64        
_________________________________________________________________
activation_993 (Activation)  (None, 8, 8, 16)          0         
_________________________________________________________________
dropout_993 (Dropout)        (None, 8, 8, 16)          0         
_________________________________________________________________
separable_conv2d_877 (Separa (None, 8, 8, 16)          416       
_________________________________________________________________
batch_normalization_495 (Bat (None, 8, 8, 16)          64        
_________________________________________________________________
activation_994 (Activation)  (None, 8, 8, 16)          0         
_________________________________________________________________
dropout_994 (Dropout)        (None, 8, 8, 16)          0         
_________________________________________________________________
separable_conv2d_878 (Separa (None, 8, 8, 8)           280       
_________________________________________________________________
activation_995 (Activation)  (None, 8, 8, 8)           0         
_________________________________________________________________
dropout_995 (Dropout)        (None, 8, 8, 8)           0         
_________________________________________________________________
flatten_90 (Flatten)         (None, 512)               0         
_________________________________________________________________
dense_207 (Dense)            (None, 4096)              2101248   
_________________________________________________________________
activation_996 (Activation)  (None, 4096)              0         
_________________________________________________________________
dropout_996 (Dropout)        (None, 4096)              0         
_________________________________________________________________
dense_208 (Dense)            (None, 100)               409700    
=================================================================
Total params: 4,201,735
Trainable params: 4,195,527
Non-trainable params: 6,208
_________________________________________________________________
