Model: "sequential_30"
_________________________________________________________________
Layer (type)                 Output Shape              Param #   
=================================================================
separable_conv2d_300 (Separa (None, 32, 32, 1024)      4123      
_________________________________________________________________
batch_normalization_168 (Bat (None, 32, 32, 1024)      4096      
_________________________________________________________________
activation_343 (Activation)  (None, 32, 32, 1024)      0         
_________________________________________________________________
dropout_343 (Dropout)        (None, 32, 32, 1024)      0         
_________________________________________________________________
max_pooling2d_67 (MaxPooling (None, 16, 16, 1024)      0         
_________________________________________________________________
separable_conv2d_301 (Separa (None, 16, 16, 32)        42016     
_________________________________________________________________
activation_344 (Activation)  (None, 16, 16, 32)        0         
_________________________________________________________________
dropout_344 (Dropout)        (None, 16, 16, 32)        0         
_________________________________________________________________
max_pooling2d_68 (MaxPooling (None, 8, 8, 32)          0         
_________________________________________________________________
separable_conv2d_302 (Separa (None, 8, 8, 512)         17184     
_________________________________________________________________
activation_345 (Activation)  (None, 8, 8, 512)         0         
_________________________________________________________________
dropout_345 (Dropout)        (None, 8, 8, 512)         0         
_________________________________________________________________
separable_conv2d_303 (Separa (None, 8, 8, 1024)        529920    
_________________________________________________________________
batch_normalization_169 (Bat (None, 8, 8, 1024)        4096      
_________________________________________________________________
activation_346 (Activation)  (None, 8, 8, 1024)        0         
_________________________________________________________________
dropout_346 (Dropout)        (None, 8, 8, 1024)        0         
_________________________________________________________________
separable_conv2d_304 (Separa (None, 8, 8, 1024)        1058816   
_________________________________________________________________
batch_normalization_170 (Bat (None, 8, 8, 1024)        4096      
_________________________________________________________________
activation_347 (Activation)  (None, 8, 8, 1024)        0         
_________________________________________________________________
dropout_347 (Dropout)        (None, 8, 8, 1024)        0         
_________________________________________________________________
separable_conv2d_305 (Separa (None, 8, 8, 16)          25616     
_________________________________________________________________
batch_normalization_171 (Bat (None, 8, 8, 16)          64        
_________________________________________________________________
activation_348 (Activation)  (None, 8, 8, 16)          0         
_________________________________________________________________
dropout_348 (Dropout)        (None, 8, 8, 16)          0         
_________________________________________________________________
separable_conv2d_306 (Separa (None, 8, 8, 16)          416       
_________________________________________________________________
batch_normalization_172 (Bat (None, 8, 8, 16)          64        
_________________________________________________________________
activation_349 (Activation)  (None, 8, 8, 16)          0         
_________________________________________________________________
dropout_349 (Dropout)        (None, 8, 8, 16)          0         
_________________________________________________________________
separable_conv2d_307 (Separa (None, 8, 8, 512)         8848      
_________________________________________________________________
activation_350 (Activation)  (None, 8, 8, 512)         0         
_________________________________________________________________
dropout_350 (Dropout)        (None, 8, 8, 512)         0         
_________________________________________________________________
separable_conv2d_308 (Separa (None, 8, 8, 64)          37440     
_________________________________________________________________
activation_351 (Activation)  (None, 8, 8, 64)          0         
_________________________________________________________________
dropout_351 (Dropout)        (None, 8, 8, 64)          0         
_________________________________________________________________
separable_conv2d_309 (Separa (None, 8, 8, 8)           1096      
_________________________________________________________________
activation_352 (Activation)  (None, 8, 8, 8)           0         
_________________________________________________________________
dropout_352 (Dropout)        (None, 8, 8, 8)           0         
_________________________________________________________________
flatten_30 (Flatten)         (None, 512)               0         
_________________________________________________________________
dense_73 (Dense)             (None, 4096)              2101248   
_________________________________________________________________
activation_353 (Activation)  (None, 4096)              0         
_________________________________________________________________
dropout_353 (Dropout)        (None, 4096)              0         
_________________________________________________________________
dense_74 (Dense)             (None, 100)               409700    
=================================================================
Total params: 4,248,839
Trainable params: 4,242,631
Non-trainable params: 6,208
_________________________________________________________________
