Model: "sequential_31"
_________________________________________________________________
Layer (type)                 Output Shape              Param #   
=================================================================
separable_conv2d_310 (Separa (None, 32, 32, 1024)      4123      
_________________________________________________________________
batch_normalization_173 (Bat (None, 32, 32, 1024)      4096      
_________________________________________________________________
activation_354 (Activation)  (None, 32, 32, 1024)      0         
_________________________________________________________________
dropout_354 (Dropout)        (None, 32, 32, 1024)      0         
_________________________________________________________________
max_pooling2d_69 (MaxPooling (None, 16, 16, 1024)      0         
_________________________________________________________________
separable_conv2d_311 (Separa (None, 16, 16, 1024)      1058816   
_________________________________________________________________
activation_355 (Activation)  (None, 16, 16, 1024)      0         
_________________________________________________________________
dropout_355 (Dropout)        (None, 16, 16, 1024)      0         
_________________________________________________________________
max_pooling2d_70 (MaxPooling (None, 8, 8, 1024)        0         
_________________________________________________________________
separable_conv2d_312 (Separa (None, 8, 8, 1024)        1058816   
_________________________________________________________________
activation_356 (Activation)  (None, 8, 8, 1024)        0         
_________________________________________________________________
dropout_356 (Dropout)        (None, 8, 8, 1024)        0         
_________________________________________________________________
separable_conv2d_313 (Separa (None, 8, 8, 64)          74816     
_________________________________________________________________
activation_357 (Activation)  (None, 8, 8, 64)          0         
_________________________________________________________________
dropout_357 (Dropout)        (None, 8, 8, 64)          0         
_________________________________________________________________
max_pooling2d_71 (MaxPooling (None, 4, 4, 64)          0         
_________________________________________________________________
separable_conv2d_314 (Separa (None, 4, 4, 8)           1096      
_________________________________________________________________
activation_358 (Activation)  (None, 4, 4, 8)           0         
_________________________________________________________________
dropout_358 (Dropout)        (None, 4, 4, 8)           0         
_________________________________________________________________
separable_conv2d_315 (Separa (None, 4, 4, 512)         4680      
_________________________________________________________________
batch_normalization_174 (Bat (None, 4, 4, 512)         2048      
_________________________________________________________________
activation_359 (Activation)  (None, 4, 4, 512)         0         
_________________________________________________________________
dropout_359 (Dropout)        (None, 4, 4, 512)         0         
_________________________________________________________________
separable_conv2d_316 (Separa (None, 4, 4, 512)         267264    
_________________________________________________________________
activation_360 (Activation)  (None, 4, 4, 512)         0         
_________________________________________________________________
dropout_360 (Dropout)        (None, 4, 4, 512)         0         
_________________________________________________________________
flatten_31 (Flatten)         (None, 8192)              0         
_________________________________________________________________
dense_75 (Dense)             (None, 256)               2097408   
_________________________________________________________________
activation_361 (Activation)  (None, 256)               0         
_________________________________________________________________
dropout_361 (Dropout)        (None, 256)               0         
_________________________________________________________________
dense_76 (Dense)             (None, 100)               25700     
=================================================================
Total params: 4,598,863
Trainable params: 4,595,791
Non-trainable params: 3,072
_________________________________________________________________
