Model: "sequential_381"
_________________________________________________________________
Layer (type)                 Output Shape              Param #   
=================================================================
separable_conv2d_3226 (Separ (None, 32, 32, 1024)      4123      
_________________________________________________________________
batch_normalization_1723 (Ba (None, 32, 32, 1024)      4096      
_________________________________________________________________
activation_3495 (Activation) (None, 32, 32, 1024)      0         
_________________________________________________________________
dropout_3495 (Dropout)       (None, 32, 32, 1024)      0         
_________________________________________________________________
separable_conv2d_3227 (Separ (None, 32, 32, 32)        42016     
_________________________________________________________________
activation_3496 (Activation) (None, 32, 32, 32)        0         
_________________________________________________________________
dropout_3496 (Dropout)       (None, 32, 32, 32)        0         
_________________________________________________________________
max_pooling2d_578 (MaxPoolin (None, 16, 16, 32)        0         
_________________________________________________________________
separable_conv2d_3228 (Separ (None, 16, 16, 512)       17184     
_________________________________________________________________
activation_3497 (Activation) (None, 16, 16, 512)       0         
_________________________________________________________________
dropout_3497 (Dropout)       (None, 16, 16, 512)       0         
_________________________________________________________________
separable_conv2d_3229 (Separ (None, 16, 16, 1024)      529920    
_________________________________________________________________
batch_normalization_1724 (Ba (None, 16, 16, 1024)      4096      
_________________________________________________________________
activation_3498 (Activation) (None, 16, 16, 1024)      0         
_________________________________________________________________
dropout_3498 (Dropout)       (None, 16, 16, 1024)      0         
_________________________________________________________________
separable_conv2d_3230 (Separ (None, 16, 16, 1024)      1058816   
_________________________________________________________________
batch_normalization_1725 (Ba (None, 16, 16, 1024)      4096      
_________________________________________________________________
activation_3499 (Activation) (None, 16, 16, 1024)      0         
_________________________________________________________________
dropout_3499 (Dropout)       (None, 16, 16, 1024)      0         
_________________________________________________________________
separable_conv2d_3231 (Separ (None, 16, 16, 16)        25616     
_________________________________________________________________
batch_normalization_1726 (Ba (None, 16, 16, 16)        64        
_________________________________________________________________
activation_3500 (Activation) (None, 16, 16, 16)        0         
_________________________________________________________________
dropout_3500 (Dropout)       (None, 16, 16, 16)        0         
_________________________________________________________________
separable_conv2d_3232 (Separ (None, 16, 16, 64)        1232      
_________________________________________________________________
activation_3501 (Activation) (None, 16, 16, 64)        0         
_________________________________________________________________
dropout_3501 (Dropout)       (None, 16, 16, 64)        0         
_________________________________________________________________
separable_conv2d_3233 (Separ (None, 16, 16, 16)        1616      
_________________________________________________________________
activation_3502 (Activation) (None, 16, 16, 16)        0         
_________________________________________________________________
dropout_3502 (Dropout)       (None, 16, 16, 16)        0         
_________________________________________________________________
flatten_381 (Flatten)        (None, 4096)              0         
_________________________________________________________________
dense_650 (Dense)            (None, 4096)              16781312  
_________________________________________________________________
activation_3503 (Activation) (None, 4096)              0         
_________________________________________________________________
dropout_3503 (Dropout)       (None, 4096)              0         
_________________________________________________________________
dense_651 (Dense)            (None, 100)               409700    
=================================================================
Total params: 18,883,887
Trainable params: 18,877,711
Non-trainable params: 6,176
_________________________________________________________________
