Model: "sequential_103"
_________________________________________________________________
Layer (type)                 Output Shape              Param #   
=================================================================
separable_conv2d_991 (Separa (None, 32, 32, 1024)      4123      
_________________________________________________________________
batch_normalization_554 (Bat (None, 32, 32, 1024)      4096      
_________________________________________________________________
activation_1121 (Activation) (None, 32, 32, 1024)      0         
_________________________________________________________________
dropout_1121 (Dropout)       (None, 32, 32, 1024)      0         
_________________________________________________________________
max_pooling2d_223 (MaxPoolin (None, 16, 16, 1024)      0         
_________________________________________________________________
separable_conv2d_992 (Separa (None, 16, 16, 32)        42016     
_________________________________________________________________
activation_1122 (Activation) (None, 16, 16, 32)        0         
_________________________________________________________________
dropout_1122 (Dropout)       (None, 16, 16, 32)        0         
_________________________________________________________________
max_pooling2d_224 (MaxPoolin (None, 8, 8, 32)          0         
_________________________________________________________________
separable_conv2d_993 (Separa (None, 8, 8, 512)         17184     
_________________________________________________________________
activation_1123 (Activation) (None, 8, 8, 512)         0         
_________________________________________________________________
dropout_1123 (Dropout)       (None, 8, 8, 512)         0         
_________________________________________________________________
separable_conv2d_994 (Separa (None, 8, 8, 1024)        529920    
_________________________________________________________________
batch_normalization_555 (Bat (None, 8, 8, 1024)        4096      
_________________________________________________________________
activation_1124 (Activation) (None, 8, 8, 1024)        0         
_________________________________________________________________
dropout_1124 (Dropout)       (None, 8, 8, 1024)        0         
_________________________________________________________________
separable_conv2d_995 (Separa (None, 8, 8, 1024)        1058816   
_________________________________________________________________
batch_normalization_556 (Bat (None, 8, 8, 1024)        4096      
_________________________________________________________________
activation_1125 (Activation) (None, 8, 8, 1024)        0         
_________________________________________________________________
dropout_1125 (Dropout)       (None, 8, 8, 1024)        0         
_________________________________________________________________
separable_conv2d_996 (Separa (None, 8, 8, 16)          25616     
_________________________________________________________________
batch_normalization_557 (Bat (None, 8, 8, 16)          64        
_________________________________________________________________
activation_1126 (Activation) (None, 8, 8, 16)          0         
_________________________________________________________________
dropout_1126 (Dropout)       (None, 8, 8, 16)          0         
_________________________________________________________________
separable_conv2d_997 (Separa (None, 8, 8, 64)          1232      
_________________________________________________________________
activation_1127 (Activation) (None, 8, 8, 64)          0         
_________________________________________________________________
dropout_1127 (Dropout)       (None, 8, 8, 64)          0         
_________________________________________________________________
separable_conv2d_998 (Separa (None, 8, 8, 16)          1616      
_________________________________________________________________
activation_1128 (Activation) (None, 8, 8, 16)          0         
_________________________________________________________________
dropout_1128 (Dropout)       (None, 8, 8, 16)          0         
_________________________________________________________________
flatten_103 (Flatten)        (None, 1024)              0         
_________________________________________________________________
dense_233 (Dense)            (None, 4096)              4198400   
_________________________________________________________________
activation_1129 (Activation) (None, 4096)              0         
_________________________________________________________________
dropout_1129 (Dropout)       (None, 4096)              0         
_________________________________________________________________
dense_234 (Dense)            (None, 100)               409700    
=================================================================
Total params: 6,300,975
Trainable params: 6,294,799
Non-trainable params: 6,176
_________________________________________________________________
