Model: "sequential_362"
_________________________________________________________________
Layer (type)                 Output Shape              Param #   
=================================================================
separable_conv2d_3075 (Separ (None, 32, 32, 1024)      4123      
_________________________________________________________________
batch_normalization_1644 (Ba (None, 32, 32, 1024)      4096      
_________________________________________________________________
activation_3341 (Activation) (None, 32, 32, 1024)      0         
_________________________________________________________________
dropout_3341 (Dropout)       (None, 32, 32, 1024)      0         
_________________________________________________________________
separable_conv2d_3076 (Separ (None, 32, 32, 32)        42016     
_________________________________________________________________
batch_normalization_1645 (Ba (None, 32, 32, 32)        128       
_________________________________________________________________
activation_3342 (Activation) (None, 32, 32, 32)        0         
_________________________________________________________________
dropout_3342 (Dropout)       (None, 32, 32, 32)        0         
_________________________________________________________________
max_pooling2d_558 (MaxPoolin (None, 16, 16, 32)        0         
_________________________________________________________________
separable_conv2d_3077 (Separ (None, 16, 16, 512)       17184     
_________________________________________________________________
activation_3343 (Activation) (None, 16, 16, 512)       0         
_________________________________________________________________
dropout_3343 (Dropout)       (None, 16, 16, 512)       0         
_________________________________________________________________
separable_conv2d_3078 (Separ (None, 16, 16, 1024)      529920    
_________________________________________________________________
batch_normalization_1646 (Ba (None, 16, 16, 1024)      4096      
_________________________________________________________________
activation_3344 (Activation) (None, 16, 16, 1024)      0         
_________________________________________________________________
dropout_3344 (Dropout)       (None, 16, 16, 1024)      0         
_________________________________________________________________
separable_conv2d_3079 (Separ (None, 16, 16, 1024)      1058816   
_________________________________________________________________
batch_normalization_1647 (Ba (None, 16, 16, 1024)      4096      
_________________________________________________________________
activation_3345 (Activation) (None, 16, 16, 1024)      0         
_________________________________________________________________
dropout_3345 (Dropout)       (None, 16, 16, 1024)      0         
_________________________________________________________________
separable_conv2d_3080 (Separ (None, 16, 16, 16)        25616     
_________________________________________________________________
batch_normalization_1648 (Ba (None, 16, 16, 16)        64        
_________________________________________________________________
activation_3346 (Activation) (None, 16, 16, 16)        0         
_________________________________________________________________
dropout_3346 (Dropout)       (None, 16, 16, 16)        0         
_________________________________________________________________
separable_conv2d_3081 (Separ (None, 16, 16, 64)        1232      
_________________________________________________________________
activation_3347 (Activation) (None, 16, 16, 64)        0         
_________________________________________________________________
dropout_3347 (Dropout)       (None, 16, 16, 64)        0         
_________________________________________________________________
separable_conv2d_3082 (Separ (None, 16, 16, 16)        1616      
_________________________________________________________________
activation_3348 (Activation) (None, 16, 16, 16)        0         
_________________________________________________________________
dropout_3348 (Dropout)       (None, 16, 16, 16)        0         
_________________________________________________________________
flatten_362 (Flatten)        (None, 4096)              0         
_________________________________________________________________
dense_628 (Dense)            (None, 100)               409700    
=================================================================
Total params: 2,102,703
Trainable params: 2,096,463
Non-trainable params: 6,240
_________________________________________________________________
