Model: "sequential_37"
_________________________________________________________________
Layer (type)                 Output Shape              Param #   
=================================================================
separable_conv2d_362 (Separa (None, 32, 32, 128)       539       
_________________________________________________________________
activation_414 (Activation)  (None, 32, 32, 128)       0         
_________________________________________________________________
dropout_414 (Dropout)        (None, 32, 32, 128)       0         
_________________________________________________________________
separable_conv2d_363 (Separa (None, 32, 32, 512)       67200     
_________________________________________________________________
batch_normalization_200 (Bat (None, 32, 32, 512)       2048      
_________________________________________________________________
activation_415 (Activation)  (None, 32, 32, 512)       0         
_________________________________________________________________
dropout_415 (Dropout)        (None, 32, 32, 512)       0         
_________________________________________________________________
separable_conv2d_364 (Separa (None, 32, 32, 32)        21024     
_________________________________________________________________
batch_normalization_201 (Bat (None, 32, 32, 32)        128       
_________________________________________________________________
activation_416 (Activation)  (None, 32, 32, 32)        0         
_________________________________________________________________
dropout_416 (Dropout)        (None, 32, 32, 32)        0         
_________________________________________________________________
separable_conv2d_365 (Separa (None, 32, 32, 32)        1344      
_________________________________________________________________
batch_normalization_202 (Bat (None, 32, 32, 32)        128       
_________________________________________________________________
activation_417 (Activation)  (None, 32, 32, 32)        0         
_________________________________________________________________
dropout_417 (Dropout)        (None, 32, 32, 32)        0         
_________________________________________________________________
separable_conv2d_366 (Separa (None, 32, 32, 256)       8736      
_________________________________________________________________
batch_normalization_203 (Bat (None, 32, 32, 256)       1024      
_________________________________________________________________
activation_418 (Activation)  (None, 32, 32, 256)       0         
_________________________________________________________________
dropout_418 (Dropout)        (None, 32, 32, 256)       0         
_________________________________________________________________
separable_conv2d_367 (Separa (None, 32, 32, 32)        10528     
_________________________________________________________________
batch_normalization_204 (Bat (None, 32, 32, 32)        128       
_________________________________________________________________
activation_419 (Activation)  (None, 32, 32, 32)        0         
_________________________________________________________________
dropout_419 (Dropout)        (None, 32, 32, 32)        0         
_________________________________________________________________
separable_conv2d_368 (Separa (None, 32, 32, 64)        2400      
_________________________________________________________________
batch_normalization_205 (Bat (None, 32, 32, 64)        256       
_________________________________________________________________
activation_420 (Activation)  (None, 32, 32, 64)        0         
_________________________________________________________________
dropout_420 (Dropout)        (None, 32, 32, 64)        0         
_________________________________________________________________
separable_conv2d_369 (Separa (None, 32, 32, 64)        4736      
_________________________________________________________________
activation_421 (Activation)  (None, 32, 32, 64)        0         
_________________________________________________________________
dropout_421 (Dropout)        (None, 32, 32, 64)        0         
_________________________________________________________________
separable_conv2d_370 (Separa (None, 32, 32, 32)        2656      
_________________________________________________________________
batch_normalization_206 (Bat (None, 32, 32, 32)        128       
_________________________________________________________________
activation_422 (Activation)  (None, 32, 32, 32)        0         
_________________________________________________________________
dropout_422 (Dropout)        (None, 32, 32, 32)        0         
_________________________________________________________________
max_pooling2d_84 (MaxPooling (None, 16, 16, 32)        0         
_________________________________________________________________
separable_conv2d_371 (Separa (None, 16, 16, 128)       4512      
_________________________________________________________________
batch_normalization_207 (Bat (None, 16, 16, 128)       512       
_________________________________________________________________
activation_423 (Activation)  (None, 16, 16, 128)       0         
_________________________________________________________________
dropout_423 (Dropout)        (None, 16, 16, 128)       0         
_________________________________________________________________
max_pooling2d_85 (MaxPooling (None, 8, 8, 128)         0         
_________________________________________________________________
separable_conv2d_372 (Separa (None, 8, 8, 32)          5280      
_________________________________________________________________
batch_normalization_208 (Bat (None, 8, 8, 32)          128       
_________________________________________________________________
activation_424 (Activation)  (None, 8, 8, 32)          0         
_________________________________________________________________
dropout_424 (Dropout)        (None, 8, 8, 32)          0         
_________________________________________________________________
max_pooling2d_86 (MaxPooling (None, 4, 4, 32)          0         
_________________________________________________________________
separable_conv2d_373 (Separa (None, 4, 4, 16)          816       
_________________________________________________________________
batch_normalization_209 (Bat (None, 4, 4, 16)          64        
_________________________________________________________________
activation_425 (Activation)  (None, 4, 4, 16)          0         
_________________________________________________________________
dropout_425 (Dropout)        (None, 4, 4, 16)          0         
_________________________________________________________________
separable_conv2d_374 (Separa (None, 4, 4, 64)          1232      
_________________________________________________________________
activation_426 (Activation)  (None, 4, 4, 64)          0         
_________________________________________________________________
dropout_426 (Dropout)        (None, 4, 4, 64)          0         
_________________________________________________________________
flatten_37 (Flatten)         (None, 1024)              0         
_________________________________________________________________
dense_89 (Dense)             (None, 64)                65600     
_________________________________________________________________
batch_normalization_210 (Bat (None, 64)                256       
_________________________________________________________________
activation_427 (Activation)  (None, 64)                0         
_________________________________________________________________
dropout_427 (Dropout)        (None, 64)                0         
_________________________________________________________________
dense_90 (Dense)             (None, 4096)              266240    
_________________________________________________________________
activation_428 (Activation)  (None, 4096)              0         
_________________________________________________________________
dropout_428 (Dropout)        (None, 4096)              0         
_________________________________________________________________
dense_91 (Dense)             (None, 100)               409700    
=================================================================
Total params: 877,343
Trainable params: 874,943
Non-trainable params: 2,400
_________________________________________________________________
