Model: "sequential_107"
_________________________________________________________________
Layer (type)                 Output Shape              Param #   
=================================================================
separable_conv2d_1025 (Separ (None, 32, 32, 1024)      4123      
_________________________________________________________________
batch_normalization_574 (Bat (None, 32, 32, 1024)      4096      
_________________________________________________________________
activation_1159 (Activation) (None, 32, 32, 1024)      0         
_________________________________________________________________
dropout_1159 (Dropout)       (None, 32, 32, 1024)      0         
_________________________________________________________________
max_pooling2d_231 (MaxPoolin (None, 16, 16, 1024)      0         
_________________________________________________________________
separable_conv2d_1026 (Separ (None, 16, 16, 32)        42016     
_________________________________________________________________
activation_1160 (Activation) (None, 16, 16, 32)        0         
_________________________________________________________________
dropout_1160 (Dropout)       (None, 16, 16, 32)        0         
_________________________________________________________________
max_pooling2d_232 (MaxPoolin (None, 8, 8, 32)          0         
_________________________________________________________________
separable_conv2d_1027 (Separ (None, 8, 8, 512)         17184     
_________________________________________________________________
activation_1161 (Activation) (None, 8, 8, 512)         0         
_________________________________________________________________
dropout_1161 (Dropout)       (None, 8, 8, 512)         0         
_________________________________________________________________
separable_conv2d_1028 (Separ (None, 8, 8, 1024)        529920    
_________________________________________________________________
batch_normalization_575 (Bat (None, 8, 8, 1024)        4096      
_________________________________________________________________
activation_1162 (Activation) (None, 8, 8, 1024)        0         
_________________________________________________________________
dropout_1162 (Dropout)       (None, 8, 8, 1024)        0         
_________________________________________________________________
separable_conv2d_1029 (Separ (None, 8, 8, 1024)        1058816   
_________________________________________________________________
batch_normalization_576 (Bat (None, 8, 8, 1024)        4096      
_________________________________________________________________
activation_1163 (Activation) (None, 8, 8, 1024)        0         
_________________________________________________________________
dropout_1163 (Dropout)       (None, 8, 8, 1024)        0         
_________________________________________________________________
separable_conv2d_1030 (Separ (None, 8, 8, 16)          25616     
_________________________________________________________________
batch_normalization_577 (Bat (None, 8, 8, 16)          64        
_________________________________________________________________
activation_1164 (Activation) (None, 8, 8, 16)          0         
_________________________________________________________________
dropout_1164 (Dropout)       (None, 8, 8, 16)          0         
_________________________________________________________________
separable_conv2d_1031 (Separ (None, 8, 8, 512)         8848      
_________________________________________________________________
activation_1165 (Activation) (None, 8, 8, 512)         0         
_________________________________________________________________
dropout_1165 (Dropout)       (None, 8, 8, 512)         0         
_________________________________________________________________
separable_conv2d_1032 (Separ (None, 8, 8, 64)          37440     
_________________________________________________________________
activation_1166 (Activation) (None, 8, 8, 64)          0         
_________________________________________________________________
dropout_1166 (Dropout)       (None, 8, 8, 64)          0         
_________________________________________________________________
separable_conv2d_1033 (Separ (None, 8, 8, 8)           1096      
_________________________________________________________________
activation_1167 (Activation) (None, 8, 8, 8)           0         
_________________________________________________________________
dropout_1167 (Dropout)       (None, 8, 8, 8)           0         
_________________________________________________________________
flatten_107 (Flatten)        (None, 512)               0         
_________________________________________________________________
dense_241 (Dense)            (None, 4096)              2101248   
_________________________________________________________________
activation_1168 (Activation) (None, 4096)              0         
_________________________________________________________________
dropout_1168 (Dropout)       (None, 4096)              0         
_________________________________________________________________
dense_242 (Dense)            (None, 100)               409700    
=================================================================
Total params: 4,248,359
Trainable params: 4,242,183
Non-trainable params: 6,176
_________________________________________________________________
