Model: "sequential_7"
_________________________________________________________________
Layer (type)                 Output Shape              Param #   
=================================================================
separable_conv2d_73 (Separab (None, 32, 32, 8)         59        
_________________________________________________________________
batch_normalization_36 (Batc (None, 32, 32, 8)         32        
_________________________________________________________________
activation_85 (Activation)   (None, 32, 32, 8)         0         
_________________________________________________________________
dropout_85 (Dropout)         (None, 32, 32, 8)         0         
_________________________________________________________________
separable_conv2d_74 (Separab (None, 32, 32, 64)        648       
_________________________________________________________________
activation_86 (Activation)   (None, 32, 32, 64)        0         
_________________________________________________________________
dropout_86 (Dropout)         (None, 32, 32, 64)        0         
_________________________________________________________________
separable_conv2d_75 (Separab (None, 32, 32, 16)        1616      
_________________________________________________________________
batch_normalization_37 (Batc (None, 32, 32, 16)        64        
_________________________________________________________________
activation_87 (Activation)   (None, 32, 32, 16)        0         
_________________________________________________________________
dropout_87 (Dropout)         (None, 32, 32, 16)        0         
_________________________________________________________________
max_pooling2d_19 (MaxPooling (None, 16, 16, 16)        0         
_________________________________________________________________
separable_conv2d_76 (Separab (None, 16, 16, 512)       8848      
_________________________________________________________________
activation_88 (Activation)   (None, 16, 16, 512)       0         
_________________________________________________________________
dropout_88 (Dropout)         (None, 16, 16, 512)       0         
_________________________________________________________________
max_pooling2d_20 (MaxPooling (None, 8, 8, 512)         0         
_________________________________________________________________
separable_conv2d_77 (Separab (None, 8, 8, 16)          12816     
_________________________________________________________________
activation_89 (Activation)   (None, 8, 8, 16)          0         
_________________________________________________________________
dropout_89 (Dropout)         (None, 8, 8, 16)          0         
_________________________________________________________________
max_pooling2d_21 (MaxPooling (None, 4, 4, 16)          0         
_________________________________________________________________
separable_conv2d_78 (Separab (None, 4, 4, 64)          1232      
_________________________________________________________________
batch_normalization_38 (Batc (None, 4, 4, 64)          256       
_________________________________________________________________
activation_90 (Activation)   (None, 4, 4, 64)          0         
_________________________________________________________________
dropout_90 (Dropout)         (None, 4, 4, 64)          0         
_________________________________________________________________
separable_conv2d_79 (Separab (None, 4, 4, 64)          4736      
_________________________________________________________________
activation_91 (Activation)   (None, 4, 4, 64)          0         
_________________________________________________________________
dropout_91 (Dropout)         (None, 4, 4, 64)          0         
_________________________________________________________________
separable_conv2d_80 (Separab (None, 4, 4, 32)          2656      
_________________________________________________________________
batch_normalization_39 (Batc (None, 4, 4, 32)          128       
_________________________________________________________________
activation_92 (Activation)   (None, 4, 4, 32)          0         
_________________________________________________________________
dropout_92 (Dropout)         (None, 4, 4, 32)          0         
_________________________________________________________________
separable_conv2d_81 (Separab (None, 4, 4, 128)         4512      
_________________________________________________________________
batch_normalization_40 (Batc (None, 4, 4, 128)         512       
_________________________________________________________________
activation_93 (Activation)   (None, 4, 4, 128)         0         
_________________________________________________________________
dropout_93 (Dropout)         (None, 4, 4, 128)         0         
_________________________________________________________________
separable_conv2d_82 (Separab (None, 4, 4, 32)          5280      
_________________________________________________________________
batch_normalization_41 (Batc (None, 4, 4, 32)          128       
_________________________________________________________________
activation_94 (Activation)   (None, 4, 4, 32)          0         
_________________________________________________________________
dropout_94 (Dropout)         (None, 4, 4, 32)          0         
_________________________________________________________________
separable_conv2d_83 (Separab (None, 4, 4, 16)          816       
_________________________________________________________________
batch_normalization_42 (Batc (None, 4, 4, 16)          64        
_________________________________________________________________
activation_95 (Activation)   (None, 4, 4, 16)          0         
_________________________________________________________________
dropout_95 (Dropout)         (None, 4, 4, 16)          0         
_________________________________________________________________
separable_conv2d_84 (Separab (None, 4, 4, 64)          1232      
_________________________________________________________________
activation_96 (Activation)   (None, 4, 4, 64)          0         
_________________________________________________________________
dropout_96 (Dropout)         (None, 4, 4, 64)          0         
_________________________________________________________________
flatten_7 (Flatten)          (None, 1024)              0         
_________________________________________________________________
dense_19 (Dense)             (None, 64)                65600     
_________________________________________________________________
batch_normalization_43 (Batc (None, 64)                256       
_________________________________________________________________
activation_97 (Activation)   (None, 64)                0         
_________________________________________________________________
dropout_97 (Dropout)         (None, 64)                0         
_________________________________________________________________
dense_20 (Dense)             (None, 4096)              266240    
_________________________________________________________________
activation_98 (Activation)   (None, 4096)              0         
_________________________________________________________________
dropout_98 (Dropout)         (None, 4096)              0         
_________________________________________________________________
dense_21 (Dense)             (None, 100)               409700    
=================================================================
Total params: 787,431
Trainable params: 786,711
Non-trainable params: 720
_________________________________________________________________
