Model: "sequential_192"
_________________________________________________________________
Layer (type)                 Output Shape              Param #   
=================================================================
separable_conv2d_1723 (Separ (None, 32, 32, 1024)      4123      
_________________________________________________________________
batch_normalization_960 (Bat (None, 32, 32, 1024)      4096      
_________________________________________________________________
activation_1934 (Activation) (None, 32, 32, 1024)      0         
_________________________________________________________________
dropout_1934 (Dropout)       (None, 32, 32, 1024)      0         
_________________________________________________________________
separable_conv2d_1724 (Separ (None, 32, 32, 32)        42016     
_________________________________________________________________
activation_1935 (Activation) (None, 32, 32, 32)        0         
_________________________________________________________________
dropout_1935 (Dropout)       (None, 32, 32, 32)        0         
_________________________________________________________________
max_pooling2d_374 (MaxPoolin (None, 16, 16, 32)        0         
_________________________________________________________________
separable_conv2d_1725 (Separ (None, 16, 16, 512)       17184     
_________________________________________________________________
activation_1936 (Activation) (None, 16, 16, 512)       0         
_________________________________________________________________
dropout_1936 (Dropout)       (None, 16, 16, 512)       0         
_________________________________________________________________
separable_conv2d_1726 (Separ (None, 16, 16, 1024)      529920    
_________________________________________________________________
batch_normalization_961 (Bat (None, 16, 16, 1024)      4096      
_________________________________________________________________
activation_1937 (Activation) (None, 16, 16, 1024)      0         
_________________________________________________________________
dropout_1937 (Dropout)       (None, 16, 16, 1024)      0         
_________________________________________________________________
separable_conv2d_1727 (Separ (None, 16, 16, 1024)      1058816   
_________________________________________________________________
batch_normalization_962 (Bat (None, 16, 16, 1024)      4096      
_________________________________________________________________
activation_1938 (Activation) (None, 16, 16, 1024)      0         
_________________________________________________________________
dropout_1938 (Dropout)       (None, 16, 16, 1024)      0         
_________________________________________________________________
separable_conv2d_1728 (Separ (None, 16, 16, 16)        25616     
_________________________________________________________________
batch_normalization_963 (Bat (None, 16, 16, 16)        64        
_________________________________________________________________
activation_1939 (Activation) (None, 16, 16, 16)        0         
_________________________________________________________________
dropout_1939 (Dropout)       (None, 16, 16, 16)        0         
_________________________________________________________________
separable_conv2d_1729 (Separ (None, 16, 16, 16)        416       
_________________________________________________________________
batch_normalization_964 (Bat (None, 16, 16, 16)        64        
_________________________________________________________________
activation_1940 (Activation) (None, 16, 16, 16)        0         
_________________________________________________________________
dropout_1940 (Dropout)       (None, 16, 16, 16)        0         
_________________________________________________________________
separable_conv2d_1730 (Separ (None, 16, 16, 8)         280       
_________________________________________________________________
activation_1941 (Activation) (None, 16, 16, 8)         0         
_________________________________________________________________
dropout_1941 (Dropout)       (None, 16, 16, 8)         0         
_________________________________________________________________
flatten_192 (Flatten)        (None, 2048)              0         
_________________________________________________________________
dense_403 (Dense)            (None, 4096)              8392704   
_________________________________________________________________
activation_1942 (Activation) (None, 4096)              0         
_________________________________________________________________
dropout_1942 (Dropout)       (None, 4096)              0         
_________________________________________________________________
dense_404 (Dense)            (None, 100)               409700    
=================================================================
Total params: 10,493,191
Trainable params: 10,486,983
Non-trainable params: 6,208
_________________________________________________________________
