Model: "sequential_86"
_________________________________________________________________
Layer (type)                 Output Shape              Param #   
=================================================================
separable_conv2d_836 (Separa (None, 32, 32, 1024)      4123      
_________________________________________________________________
batch_normalization_469 (Bat (None, 32, 32, 1024)      4096      
_________________________________________________________________
activation_949 (Activation)  (None, 32, 32, 1024)      0         
_________________________________________________________________
dropout_949 (Dropout)        (None, 32, 32, 1024)      0         
_________________________________________________________________
max_pooling2d_188 (MaxPoolin (None, 16, 16, 1024)      0         
_________________________________________________________________
separable_conv2d_837 (Separa (None, 16, 16, 32)        42016     
_________________________________________________________________
activation_950 (Activation)  (None, 16, 16, 32)        0         
_________________________________________________________________
dropout_950 (Dropout)        (None, 16, 16, 32)        0         
_________________________________________________________________
max_pooling2d_189 (MaxPoolin (None, 8, 8, 32)          0         
_________________________________________________________________
separable_conv2d_838 (Separa (None, 8, 8, 512)         17184     
_________________________________________________________________
activation_951 (Activation)  (None, 8, 8, 512)         0         
_________________________________________________________________
dropout_951 (Dropout)        (None, 8, 8, 512)         0         
_________________________________________________________________
separable_conv2d_839 (Separa (None, 8, 8, 1024)        529920    
_________________________________________________________________
batch_normalization_470 (Bat (None, 8, 8, 1024)        4096      
_________________________________________________________________
activation_952 (Activation)  (None, 8, 8, 1024)        0         
_________________________________________________________________
dropout_952 (Dropout)        (None, 8, 8, 1024)        0         
_________________________________________________________________
separable_conv2d_840 (Separa (None, 8, 8, 1024)        1058816   
_________________________________________________________________
batch_normalization_471 (Bat (None, 8, 8, 1024)        4096      
_________________________________________________________________
activation_953 (Activation)  (None, 8, 8, 1024)        0         
_________________________________________________________________
dropout_953 (Dropout)        (None, 8, 8, 1024)        0         
_________________________________________________________________
separable_conv2d_841 (Separa (None, 8, 8, 16)          25616     
_________________________________________________________________
batch_normalization_472 (Bat (None, 8, 8, 16)          64        
_________________________________________________________________
activation_954 (Activation)  (None, 8, 8, 16)          0         
_________________________________________________________________
dropout_954 (Dropout)        (None, 8, 8, 16)          0         
_________________________________________________________________
separable_conv2d_842 (Separa (None, 8, 8, 16)          416       
_________________________________________________________________
batch_normalization_473 (Bat (None, 8, 8, 16)          64        
_________________________________________________________________
activation_955 (Activation)  (None, 8, 8, 16)          0         
_________________________________________________________________
dropout_955 (Dropout)        (None, 8, 8, 16)          0         
_________________________________________________________________
separable_conv2d_843 (Separa (None, 8, 8, 8)           280       
_________________________________________________________________
activation_956 (Activation)  (None, 8, 8, 8)           0         
_________________________________________________________________
dropout_956 (Dropout)        (None, 8, 8, 8)           0         
_________________________________________________________________
flatten_86 (Flatten)         (None, 512)               0         
_________________________________________________________________
dense_199 (Dense)            (None, 4096)              2101248   
_________________________________________________________________
activation_957 (Activation)  (None, 4096)              0         
_________________________________________________________________
dropout_957 (Dropout)        (None, 4096)              0         
_________________________________________________________________
dense_200 (Dense)            (None, 100)               409700    
=================================================================
Total params: 4,201,735
Trainable params: 4,195,527
Non-trainable params: 6,208
_________________________________________________________________
