Model: "sequential_150"
_________________________________________________________________
Layer (type)                 Output Shape              Param #   
=================================================================
separable_conv2d_1383 (Separ (None, 32, 32, 1024)      4123      
_________________________________________________________________
batch_normalization_775 (Bat (None, 32, 32, 1024)      4096      
_________________________________________________________________
activation_1559 (Activation) (None, 32, 32, 1024)      0         
_________________________________________________________________
dropout_1559 (Dropout)       (None, 32, 32, 1024)      0         
_________________________________________________________________
max_pooling2d_313 (MaxPoolin (None, 16, 16, 1024)      0         
_________________________________________________________________
separable_conv2d_1384 (Separ (None, 16, 16, 32)        42016     
_________________________________________________________________
activation_1560 (Activation) (None, 16, 16, 32)        0         
_________________________________________________________________
dropout_1560 (Dropout)       (None, 16, 16, 32)        0         
_________________________________________________________________
max_pooling2d_314 (MaxPoolin (None, 8, 8, 32)          0         
_________________________________________________________________
separable_conv2d_1385 (Separ (None, 8, 8, 512)         17184     
_________________________________________________________________
activation_1561 (Activation) (None, 8, 8, 512)         0         
_________________________________________________________________
dropout_1561 (Dropout)       (None, 8, 8, 512)         0         
_________________________________________________________________
separable_conv2d_1386 (Separ (None, 8, 8, 1024)        529920    
_________________________________________________________________
batch_normalization_776 (Bat (None, 8, 8, 1024)        4096      
_________________________________________________________________
activation_1562 (Activation) (None, 8, 8, 1024)        0         
_________________________________________________________________
dropout_1562 (Dropout)       (None, 8, 8, 1024)        0         
_________________________________________________________________
separable_conv2d_1387 (Separ (None, 8, 8, 1024)        1058816   
_________________________________________________________________
batch_normalization_777 (Bat (None, 8, 8, 1024)        4096      
_________________________________________________________________
activation_1563 (Activation) (None, 8, 8, 1024)        0         
_________________________________________________________________
dropout_1563 (Dropout)       (None, 8, 8, 1024)        0         
_________________________________________________________________
separable_conv2d_1388 (Separ (None, 8, 8, 16)          25616     
_________________________________________________________________
batch_normalization_778 (Bat (None, 8, 8, 16)          64        
_________________________________________________________________
activation_1564 (Activation) (None, 8, 8, 16)          0         
_________________________________________________________________
dropout_1564 (Dropout)       (None, 8, 8, 16)          0         
_________________________________________________________________
separable_conv2d_1389 (Separ (None, 8, 8, 16)          416       
_________________________________________________________________
batch_normalization_779 (Bat (None, 8, 8, 16)          64        
_________________________________________________________________
activation_1565 (Activation) (None, 8, 8, 16)          0         
_________________________________________________________________
dropout_1565 (Dropout)       (None, 8, 8, 16)          0         
_________________________________________________________________
separable_conv2d_1390 (Separ (None, 8, 8, 8)           280       
_________________________________________________________________
activation_1566 (Activation) (None, 8, 8, 8)           0         
_________________________________________________________________
dropout_1566 (Dropout)       (None, 8, 8, 8)           0         
_________________________________________________________________
flatten_150 (Flatten)        (None, 512)               0         
_________________________________________________________________
dense_326 (Dense)            (None, 4096)              2101248   
_________________________________________________________________
activation_1567 (Activation) (None, 4096)              0         
_________________________________________________________________
dropout_1567 (Dropout)       (None, 4096)              0         
_________________________________________________________________
dense_327 (Dense)            (None, 100)               409700    
=================================================================
Total params: 4,201,735
Trainable params: 4,195,527
Non-trainable params: 6,208
_________________________________________________________________
