Model: "sequential_167"
_________________________________________________________________
Layer (type)                 Output Shape              Param #   
=================================================================
separable_conv2d_1522 (Separ (None, 32, 32, 1024)      4123      
_________________________________________________________________
batch_normalization_853 (Bat (None, 32, 32, 1024)      4096      
_________________________________________________________________
activation_1714 (Activation) (None, 32, 32, 1024)      0         
_________________________________________________________________
dropout_1714 (Dropout)       (None, 32, 32, 1024)      0         
_________________________________________________________________
max_pooling2d_342 (MaxPoolin (None, 16, 16, 1024)      0         
_________________________________________________________________
separable_conv2d_1523 (Separ (None, 16, 16, 32)        42016     
_________________________________________________________________
activation_1715 (Activation) (None, 16, 16, 32)        0         
_________________________________________________________________
dropout_1715 (Dropout)       (None, 16, 16, 32)        0         
_________________________________________________________________
max_pooling2d_343 (MaxPoolin (None, 8, 8, 32)          0         
_________________________________________________________________
separable_conv2d_1524 (Separ (None, 8, 8, 512)         17184     
_________________________________________________________________
activation_1716 (Activation) (None, 8, 8, 512)         0         
_________________________________________________________________
dropout_1716 (Dropout)       (None, 8, 8, 512)         0         
_________________________________________________________________
separable_conv2d_1525 (Separ (None, 8, 8, 1024)        529920    
_________________________________________________________________
batch_normalization_854 (Bat (None, 8, 8, 1024)        4096      
_________________________________________________________________
activation_1717 (Activation) (None, 8, 8, 1024)        0         
_________________________________________________________________
dropout_1717 (Dropout)       (None, 8, 8, 1024)        0         
_________________________________________________________________
separable_conv2d_1526 (Separ (None, 8, 8, 1024)        1058816   
_________________________________________________________________
batch_normalization_855 (Bat (None, 8, 8, 1024)        4096      
_________________________________________________________________
activation_1718 (Activation) (None, 8, 8, 1024)        0         
_________________________________________________________________
dropout_1718 (Dropout)       (None, 8, 8, 1024)        0         
_________________________________________________________________
separable_conv2d_1527 (Separ (None, 8, 8, 16)          25616     
_________________________________________________________________
batch_normalization_856 (Bat (None, 8, 8, 16)          64        
_________________________________________________________________
activation_1719 (Activation) (None, 8, 8, 16)          0         
_________________________________________________________________
dropout_1719 (Dropout)       (None, 8, 8, 16)          0         
_________________________________________________________________
separable_conv2d_1528 (Separ (None, 8, 8, 16)          416       
_________________________________________________________________
batch_normalization_857 (Bat (None, 8, 8, 16)          64        
_________________________________________________________________
activation_1720 (Activation) (None, 8, 8, 16)          0         
_________________________________________________________________
dropout_1720 (Dropout)       (None, 8, 8, 16)          0         
_________________________________________________________________
separable_conv2d_1529 (Separ (None, 8, 8, 8)           280       
_________________________________________________________________
activation_1721 (Activation) (None, 8, 8, 8)           0         
_________________________________________________________________
dropout_1721 (Dropout)       (None, 8, 8, 8)           0         
_________________________________________________________________
flatten_167 (Flatten)        (None, 512)               0         
_________________________________________________________________
dense_359 (Dense)            (None, 4096)              2101248   
_________________________________________________________________
activation_1722 (Activation) (None, 4096)              0         
_________________________________________________________________
dropout_1722 (Dropout)       (None, 4096)              0         
_________________________________________________________________
dense_360 (Dense)            (None, 100)               409700    
=================================================================
Total params: 4,201,735
Trainable params: 4,195,527
Non-trainable params: 6,208
_________________________________________________________________
