Model: "sequential_293"
_________________________________________________________________
Layer (type)                 Output Shape              Param #   
=================================================================
separable_conv2d_2524 (Separ (None, 32, 32, 1024)      4123      
_________________________________________________________________
batch_normalization_1364 (Ba (None, 32, 32, 1024)      4096      
_________________________________________________________________
activation_2777 (Activation) (None, 32, 32, 1024)      0         
_________________________________________________________________
dropout_2777 (Dropout)       (None, 32, 32, 1024)      0         
_________________________________________________________________
separable_conv2d_2525 (Separ (None, 32, 32, 32)        42016     
_________________________________________________________________
activation_2778 (Activation) (None, 32, 32, 32)        0         
_________________________________________________________________
dropout_2778 (Dropout)       (None, 32, 32, 32)        0         
_________________________________________________________________
max_pooling2d_479 (MaxPoolin (None, 16, 16, 32)        0         
_________________________________________________________________
separable_conv2d_2526 (Separ (None, 16, 16, 512)       17184     
_________________________________________________________________
activation_2779 (Activation) (None, 16, 16, 512)       0         
_________________________________________________________________
dropout_2779 (Dropout)       (None, 16, 16, 512)       0         
_________________________________________________________________
separable_conv2d_2527 (Separ (None, 16, 16, 1024)      529920    
_________________________________________________________________
batch_normalization_1365 (Ba (None, 16, 16, 1024)      4096      
_________________________________________________________________
activation_2780 (Activation) (None, 16, 16, 1024)      0         
_________________________________________________________________
dropout_2780 (Dropout)       (None, 16, 16, 1024)      0         
_________________________________________________________________
separable_conv2d_2528 (Separ (None, 16, 16, 1024)      1058816   
_________________________________________________________________
batch_normalization_1366 (Ba (None, 16, 16, 1024)      4096      
_________________________________________________________________
activation_2781 (Activation) (None, 16, 16, 1024)      0         
_________________________________________________________________
dropout_2781 (Dropout)       (None, 16, 16, 1024)      0         
_________________________________________________________________
separable_conv2d_2529 (Separ (None, 16, 16, 16)        25616     
_________________________________________________________________
batch_normalization_1367 (Ba (None, 16, 16, 16)        64        
_________________________________________________________________
activation_2782 (Activation) (None, 16, 16, 16)        0         
_________________________________________________________________
dropout_2782 (Dropout)       (None, 16, 16, 16)        0         
_________________________________________________________________
separable_conv2d_2530 (Separ (None, 16, 16, 64)        1232      
_________________________________________________________________
activation_2783 (Activation) (None, 16, 16, 64)        0         
_________________________________________________________________
dropout_2783 (Dropout)       (None, 16, 16, 64)        0         
_________________________________________________________________
separable_conv2d_2531 (Separ (None, 16, 16, 16)        1616      
_________________________________________________________________
activation_2784 (Activation) (None, 16, 16, 16)        0         
_________________________________________________________________
dropout_2784 (Dropout)       (None, 16, 16, 16)        0         
_________________________________________________________________
flatten_293 (Flatten)        (None, 4096)              0         
_________________________________________________________________
dense_546 (Dense)            (None, 4096)              16781312  
_________________________________________________________________
activation_2785 (Activation) (None, 4096)              0         
_________________________________________________________________
dropout_2785 (Dropout)       (None, 4096)              0         
_________________________________________________________________
dense_547 (Dense)            (None, 100)               409700    
=================================================================
Total params: 18,883,887
Trainable params: 18,877,711
Non-trainable params: 6,176
_________________________________________________________________
