Model: "sequential_352"
_________________________________________________________________
Layer (type)                 Output Shape              Param #   
=================================================================
separable_conv2d_2996 (Separ (None, 32, 32, 1024)      4123      
_________________________________________________________________
batch_normalization_1600 (Ba (None, 32, 32, 1024)      4096      
_________________________________________________________________
activation_3261 (Activation) (None, 32, 32, 1024)      0         
_________________________________________________________________
dropout_3261 (Dropout)       (None, 32, 32, 1024)      0         
_________________________________________________________________
separable_conv2d_2997 (Separ (None, 32, 32, 32)        42016     
_________________________________________________________________
activation_3262 (Activation) (None, 32, 32, 32)        0         
_________________________________________________________________
dropout_3262 (Dropout)       (None, 32, 32, 32)        0         
_________________________________________________________________
max_pooling2d_548 (MaxPoolin (None, 16, 16, 32)        0         
_________________________________________________________________
separable_conv2d_2998 (Separ (None, 16, 16, 512)       17184     
_________________________________________________________________
activation_3263 (Activation) (None, 16, 16, 512)       0         
_________________________________________________________________
dropout_3263 (Dropout)       (None, 16, 16, 512)       0         
_________________________________________________________________
separable_conv2d_2999 (Separ (None, 16, 16, 1024)      529920    
_________________________________________________________________
batch_normalization_1601 (Ba (None, 16, 16, 1024)      4096      
_________________________________________________________________
activation_3264 (Activation) (None, 16, 16, 1024)      0         
_________________________________________________________________
dropout_3264 (Dropout)       (None, 16, 16, 1024)      0         
_________________________________________________________________
separable_conv2d_3000 (Separ (None, 16, 16, 1024)      1058816   
_________________________________________________________________
batch_normalization_1602 (Ba (None, 16, 16, 1024)      4096      
_________________________________________________________________
activation_3265 (Activation) (None, 16, 16, 1024)      0         
_________________________________________________________________
dropout_3265 (Dropout)       (None, 16, 16, 1024)      0         
_________________________________________________________________
separable_conv2d_3001 (Separ (None, 16, 16, 16)        25616     
_________________________________________________________________
batch_normalization_1603 (Ba (None, 16, 16, 16)        64        
_________________________________________________________________
activation_3266 (Activation) (None, 16, 16, 16)        0         
_________________________________________________________________
dropout_3266 (Dropout)       (None, 16, 16, 16)        0         
_________________________________________________________________
separable_conv2d_3002 (Separ (None, 16, 16, 64)        1232      
_________________________________________________________________
activation_3267 (Activation) (None, 16, 16, 64)        0         
_________________________________________________________________
dropout_3267 (Dropout)       (None, 16, 16, 64)        0         
_________________________________________________________________
separable_conv2d_3003 (Separ (None, 16, 16, 16)        1616      
_________________________________________________________________
activation_3268 (Activation) (None, 16, 16, 16)        0         
_________________________________________________________________
dropout_3268 (Dropout)       (None, 16, 16, 16)        0         
_________________________________________________________________
flatten_352 (Flatten)        (None, 4096)              0         
_________________________________________________________________
dense_617 (Dense)            (None, 100)               409700    
=================================================================
Total params: 2,102,575
Trainable params: 2,096,399
Non-trainable params: 6,176
_________________________________________________________________
