Model: "sequential_34"
_________________________________________________________________
Layer (type)                 Output Shape              Param #   
=================================================================
separable_conv2d_336 (Separa (None, 32, 32, 1024)      4123      
_________________________________________________________________
batch_normalization_186 (Bat (None, 32, 32, 1024)      4096      
_________________________________________________________________
activation_383 (Activation)  (None, 32, 32, 1024)      0         
_________________________________________________________________
dropout_383 (Dropout)        (None, 32, 32, 1024)      0         
_________________________________________________________________
max_pooling2d_77 (MaxPooling (None, 16, 16, 1024)      0         
_________________________________________________________________
separable_conv2d_337 (Separa (None, 16, 16, 32)        42016     
_________________________________________________________________
activation_384 (Activation)  (None, 16, 16, 32)        0         
_________________________________________________________________
dropout_384 (Dropout)        (None, 16, 16, 32)        0         
_________________________________________________________________
max_pooling2d_78 (MaxPooling (None, 8, 8, 32)          0         
_________________________________________________________________
separable_conv2d_338 (Separa (None, 8, 8, 512)         17184     
_________________________________________________________________
activation_385 (Activation)  (None, 8, 8, 512)         0         
_________________________________________________________________
dropout_385 (Dropout)        (None, 8, 8, 512)         0         
_________________________________________________________________
separable_conv2d_339 (Separa (None, 8, 8, 1024)        529920    
_________________________________________________________________
batch_normalization_187 (Bat (None, 8, 8, 1024)        4096      
_________________________________________________________________
activation_386 (Activation)  (None, 8, 8, 1024)        0         
_________________________________________________________________
dropout_386 (Dropout)        (None, 8, 8, 1024)        0         
_________________________________________________________________
separable_conv2d_340 (Separa (None, 8, 8, 1024)        1058816   
_________________________________________________________________
batch_normalization_188 (Bat (None, 8, 8, 1024)        4096      
_________________________________________________________________
activation_387 (Activation)  (None, 8, 8, 1024)        0         
_________________________________________________________________
dropout_387 (Dropout)        (None, 8, 8, 1024)        0         
_________________________________________________________________
separable_conv2d_341 (Separa (None, 8, 8, 16)          25616     
_________________________________________________________________
batch_normalization_189 (Bat (None, 8, 8, 16)          64        
_________________________________________________________________
activation_388 (Activation)  (None, 8, 8, 16)          0         
_________________________________________________________________
dropout_388 (Dropout)        (None, 8, 8, 16)          0         
_________________________________________________________________
separable_conv2d_342 (Separa (None, 8, 8, 16)          416       
_________________________________________________________________
batch_normalization_190 (Bat (None, 8, 8, 16)          64        
_________________________________________________________________
activation_389 (Activation)  (None, 8, 8, 16)          0         
_________________________________________________________________
dropout_389 (Dropout)        (None, 8, 8, 16)          0         
_________________________________________________________________
separable_conv2d_343 (Separa (None, 8, 8, 512)         8848      
_________________________________________________________________
activation_390 (Activation)  (None, 8, 8, 512)         0         
_________________________________________________________________
dropout_390 (Dropout)        (None, 8, 8, 512)         0         
_________________________________________________________________
separable_conv2d_344 (Separa (None, 8, 8, 64)          37440     
_________________________________________________________________
activation_391 (Activation)  (None, 8, 8, 64)          0         
_________________________________________________________________
dropout_391 (Dropout)        (None, 8, 8, 64)          0         
_________________________________________________________________
separable_conv2d_345 (Separa (None, 8, 8, 8)           1096      
_________________________________________________________________
activation_392 (Activation)  (None, 8, 8, 8)           0         
_________________________________________________________________
dropout_392 (Dropout)        (None, 8, 8, 8)           0         
_________________________________________________________________
flatten_34 (Flatten)         (None, 512)               0         
_________________________________________________________________
dense_81 (Dense)             (None, 4096)              2101248   
_________________________________________________________________
activation_393 (Activation)  (None, 4096)              0         
_________________________________________________________________
dropout_393 (Dropout)        (None, 4096)              0         
_________________________________________________________________
dense_82 (Dense)             (None, 100)               409700    
=================================================================
Total params: 4,248,839
Trainable params: 4,242,631
Non-trainable params: 6,208
_________________________________________________________________
