Model: "sequential_33"
_________________________________________________________________
Layer (type)                 Output Shape              Param #   
=================================================================
separable_conv2d_326 (Separa (None, 32, 32, 1024)      4123      
_________________________________________________________________
batch_normalization_181 (Bat (None, 32, 32, 1024)      4096      
_________________________________________________________________
activation_372 (Activation)  (None, 32, 32, 1024)      0         
_________________________________________________________________
dropout_372 (Dropout)        (None, 32, 32, 1024)      0         
_________________________________________________________________
max_pooling2d_75 (MaxPooling (None, 16, 16, 1024)      0         
_________________________________________________________________
separable_conv2d_327 (Separa (None, 16, 16, 32)        42016     
_________________________________________________________________
activation_373 (Activation)  (None, 16, 16, 32)        0         
_________________________________________________________________
dropout_373 (Dropout)        (None, 16, 16, 32)        0         
_________________________________________________________________
max_pooling2d_76 (MaxPooling (None, 8, 8, 32)          0         
_________________________________________________________________
separable_conv2d_328 (Separa (None, 8, 8, 512)         17184     
_________________________________________________________________
activation_374 (Activation)  (None, 8, 8, 512)         0         
_________________________________________________________________
dropout_374 (Dropout)        (None, 8, 8, 512)         0         
_________________________________________________________________
separable_conv2d_329 (Separa (None, 8, 8, 1024)        529920    
_________________________________________________________________
batch_normalization_182 (Bat (None, 8, 8, 1024)        4096      
_________________________________________________________________
activation_375 (Activation)  (None, 8, 8, 1024)        0         
_________________________________________________________________
dropout_375 (Dropout)        (None, 8, 8, 1024)        0         
_________________________________________________________________
separable_conv2d_330 (Separa (None, 8, 8, 1024)        1058816   
_________________________________________________________________
batch_normalization_183 (Bat (None, 8, 8, 1024)        4096      
_________________________________________________________________
activation_376 (Activation)  (None, 8, 8, 1024)        0         
_________________________________________________________________
dropout_376 (Dropout)        (None, 8, 8, 1024)        0         
_________________________________________________________________
separable_conv2d_331 (Separa (None, 8, 8, 16)          25616     
_________________________________________________________________
batch_normalization_184 (Bat (None, 8, 8, 16)          64        
_________________________________________________________________
activation_377 (Activation)  (None, 8, 8, 16)          0         
_________________________________________________________________
dropout_377 (Dropout)        (None, 8, 8, 16)          0         
_________________________________________________________________
separable_conv2d_332 (Separa (None, 8, 8, 16)          416       
_________________________________________________________________
batch_normalization_185 (Bat (None, 8, 8, 16)          64        
_________________________________________________________________
activation_378 (Activation)  (None, 8, 8, 16)          0         
_________________________________________________________________
dropout_378 (Dropout)        (None, 8, 8, 16)          0         
_________________________________________________________________
separable_conv2d_333 (Separa (None, 8, 8, 512)         8848      
_________________________________________________________________
activation_379 (Activation)  (None, 8, 8, 512)         0         
_________________________________________________________________
dropout_379 (Dropout)        (None, 8, 8, 512)         0         
_________________________________________________________________
separable_conv2d_334 (Separa (None, 8, 8, 64)          37440     
_________________________________________________________________
activation_380 (Activation)  (None, 8, 8, 64)          0         
_________________________________________________________________
dropout_380 (Dropout)        (None, 8, 8, 64)          0         
_________________________________________________________________
separable_conv2d_335 (Separa (None, 8, 8, 8)           1096      
_________________________________________________________________
activation_381 (Activation)  (None, 8, 8, 8)           0         
_________________________________________________________________
dropout_381 (Dropout)        (None, 8, 8, 8)           0         
_________________________________________________________________
flatten_33 (Flatten)         (None, 512)               0         
_________________________________________________________________
dense_79 (Dense)             (None, 4096)              2101248   
_________________________________________________________________
activation_382 (Activation)  (None, 4096)              0         
_________________________________________________________________
dropout_382 (Dropout)        (None, 4096)              0         
_________________________________________________________________
dense_80 (Dense)             (None, 100)               409700    
=================================================================
Total params: 4,248,839
Trainable params: 4,242,631
Non-trainable params: 6,208
_________________________________________________________________
