Model: "sequential_240"
_________________________________________________________________
Layer (type)                 Output Shape              Param #   
=================================================================
separable_conv2d_2101 (Separ (None, 32, 32, 1024)      4123      
_________________________________________________________________
batch_normalization_1158 (Ba (None, 32, 32, 1024)      4096      
_________________________________________________________________
activation_2340 (Activation) (None, 32, 32, 1024)      0         
_________________________________________________________________
dropout_2340 (Dropout)       (None, 32, 32, 1024)      0         
_________________________________________________________________
separable_conv2d_2102 (Separ (None, 32, 32, 32)        42016     
_________________________________________________________________
activation_2341 (Activation) (None, 32, 32, 32)        0         
_________________________________________________________________
dropout_2341 (Dropout)       (None, 32, 32, 32)        0         
_________________________________________________________________
max_pooling2d_425 (MaxPoolin (None, 16, 16, 32)        0         
_________________________________________________________________
separable_conv2d_2103 (Separ (None, 16, 16, 512)       17184     
_________________________________________________________________
activation_2342 (Activation) (None, 16, 16, 512)       0         
_________________________________________________________________
dropout_2342 (Dropout)       (None, 16, 16, 512)       0         
_________________________________________________________________
separable_conv2d_2104 (Separ (None, 16, 16, 1024)      529920    
_________________________________________________________________
batch_normalization_1159 (Ba (None, 16, 16, 1024)      4096      
_________________________________________________________________
activation_2343 (Activation) (None, 16, 16, 1024)      0         
_________________________________________________________________
dropout_2343 (Dropout)       (None, 16, 16, 1024)      0         
_________________________________________________________________
separable_conv2d_2105 (Separ (None, 16, 16, 1024)      1058816   
_________________________________________________________________
batch_normalization_1160 (Ba (None, 16, 16, 1024)      4096      
_________________________________________________________________
activation_2344 (Activation) (None, 16, 16, 1024)      0         
_________________________________________________________________
dropout_2344 (Dropout)       (None, 16, 16, 1024)      0         
_________________________________________________________________
separable_conv2d_2106 (Separ (None, 16, 16, 16)        25616     
_________________________________________________________________
batch_normalization_1161 (Ba (None, 16, 16, 16)        64        
_________________________________________________________________
activation_2345 (Activation) (None, 16, 16, 16)        0         
_________________________________________________________________
dropout_2345 (Dropout)       (None, 16, 16, 16)        0         
_________________________________________________________________
separable_conv2d_2107 (Separ (None, 16, 16, 64)        1232      
_________________________________________________________________
activation_2346 (Activation) (None, 16, 16, 64)        0         
_________________________________________________________________
dropout_2346 (Dropout)       (None, 16, 16, 64)        0         
_________________________________________________________________
separable_conv2d_2108 (Separ (None, 16, 16, 16)        1616      
_________________________________________________________________
activation_2347 (Activation) (None, 16, 16, 16)        0         
_________________________________________________________________
dropout_2347 (Dropout)       (None, 16, 16, 16)        0         
_________________________________________________________________
flatten_240 (Flatten)        (None, 4096)              0         
_________________________________________________________________
dense_479 (Dense)            (None, 4096)              16781312  
_________________________________________________________________
activation_2348 (Activation) (None, 4096)              0         
_________________________________________________________________
dropout_2348 (Dropout)       (None, 4096)              0         
_________________________________________________________________
dense_480 (Dense)            (None, 100)               409700    
=================================================================
Total params: 18,883,887
Trainable params: 18,877,711
Non-trainable params: 6,176
_________________________________________________________________
