Model: "sequential_305"
_________________________________________________________________
Layer (type)                 Output Shape              Param #   
=================================================================
separable_conv2d_2621 (Separ (None, 32, 32, 1024)      4123      
_________________________________________________________________
batch_normalization_1410 (Ba (None, 32, 32, 1024)      4096      
_________________________________________________________________
activation_2878 (Activation) (None, 32, 32, 1024)      0         
_________________________________________________________________
dropout_2878 (Dropout)       (None, 32, 32, 1024)      0         
_________________________________________________________________
separable_conv2d_2622 (Separ (None, 32, 32, 32)        42016     
_________________________________________________________________
activation_2879 (Activation) (None, 32, 32, 32)        0         
_________________________________________________________________
dropout_2879 (Dropout)       (None, 32, 32, 32)        0         
_________________________________________________________________
max_pooling2d_493 (MaxPoolin (None, 16, 16, 32)        0         
_________________________________________________________________
separable_conv2d_2623 (Separ (None, 16, 16, 512)       17184     
_________________________________________________________________
activation_2880 (Activation) (None, 16, 16, 512)       0         
_________________________________________________________________
dropout_2880 (Dropout)       (None, 16, 16, 512)       0         
_________________________________________________________________
separable_conv2d_2624 (Separ (None, 16, 16, 1024)      529920    
_________________________________________________________________
batch_normalization_1411 (Ba (None, 16, 16, 1024)      4096      
_________________________________________________________________
activation_2881 (Activation) (None, 16, 16, 1024)      0         
_________________________________________________________________
dropout_2881 (Dropout)       (None, 16, 16, 1024)      0         
_________________________________________________________________
separable_conv2d_2625 (Separ (None, 16, 16, 1024)      1058816   
_________________________________________________________________
batch_normalization_1412 (Ba (None, 16, 16, 1024)      4096      
_________________________________________________________________
activation_2882 (Activation) (None, 16, 16, 1024)      0         
_________________________________________________________________
dropout_2882 (Dropout)       (None, 16, 16, 1024)      0         
_________________________________________________________________
separable_conv2d_2626 (Separ (None, 16, 16, 16)        25616     
_________________________________________________________________
batch_normalization_1413 (Ba (None, 16, 16, 16)        64        
_________________________________________________________________
activation_2883 (Activation) (None, 16, 16, 16)        0         
_________________________________________________________________
dropout_2883 (Dropout)       (None, 16, 16, 16)        0         
_________________________________________________________________
separable_conv2d_2627 (Separ (None, 16, 16, 64)        1232      
_________________________________________________________________
activation_2884 (Activation) (None, 16, 16, 64)        0         
_________________________________________________________________
dropout_2884 (Dropout)       (None, 16, 16, 64)        0         
_________________________________________________________________
separable_conv2d_2628 (Separ (None, 16, 16, 16)        1616      
_________________________________________________________________
activation_2885 (Activation) (None, 16, 16, 16)        0         
_________________________________________________________________
dropout_2885 (Dropout)       (None, 16, 16, 16)        0         
_________________________________________________________________
flatten_305 (Flatten)        (None, 4096)              0         
_________________________________________________________________
dense_562 (Dense)            (None, 100)               409700    
=================================================================
Total params: 2,102,575
Trainable params: 2,096,399
Non-trainable params: 6,176
_________________________________________________________________
