Model: "sequential_100"
_________________________________________________________________
Layer (type)                 Output Shape              Param #   
=================================================================
separable_conv2d_965 (Separa (None, 32, 32, 1024)      4123      
_________________________________________________________________
batch_normalization_540 (Bat (None, 32, 32, 1024)      4096      
_________________________________________________________________
activation_1092 (Activation) (None, 32, 32, 1024)      0         
_________________________________________________________________
dropout_1092 (Dropout)       (None, 32, 32, 1024)      0         
_________________________________________________________________
max_pooling2d_217 (MaxPoolin (None, 16, 16, 1024)      0         
_________________________________________________________________
separable_conv2d_966 (Separa (None, 16, 16, 32)        42016     
_________________________________________________________________
activation_1093 (Activation) (None, 16, 16, 32)        0         
_________________________________________________________________
dropout_1093 (Dropout)       (None, 16, 16, 32)        0         
_________________________________________________________________
max_pooling2d_218 (MaxPoolin (None, 8, 8, 32)          0         
_________________________________________________________________
separable_conv2d_967 (Separa (None, 8, 8, 512)         17184     
_________________________________________________________________
activation_1094 (Activation) (None, 8, 8, 512)         0         
_________________________________________________________________
dropout_1094 (Dropout)       (None, 8, 8, 512)         0         
_________________________________________________________________
separable_conv2d_968 (Separa (None, 8, 8, 1024)        529920    
_________________________________________________________________
batch_normalization_541 (Bat (None, 8, 8, 1024)        4096      
_________________________________________________________________
activation_1095 (Activation) (None, 8, 8, 1024)        0         
_________________________________________________________________
dropout_1095 (Dropout)       (None, 8, 8, 1024)        0         
_________________________________________________________________
separable_conv2d_969 (Separa (None, 8, 8, 1024)        1058816   
_________________________________________________________________
batch_normalization_542 (Bat (None, 8, 8, 1024)        4096      
_________________________________________________________________
activation_1096 (Activation) (None, 8, 8, 1024)        0         
_________________________________________________________________
dropout_1096 (Dropout)       (None, 8, 8, 1024)        0         
_________________________________________________________________
separable_conv2d_970 (Separa (None, 8, 8, 64)          74816     
_________________________________________________________________
batch_normalization_543 (Bat (None, 8, 8, 64)          256       
_________________________________________________________________
activation_1097 (Activation) (None, 8, 8, 64)          0         
_________________________________________________________________
dropout_1097 (Dropout)       (None, 8, 8, 64)          0         
_________________________________________________________________
separable_conv2d_971 (Separa (None, 8, 8, 16)          1616      
_________________________________________________________________
batch_normalization_544 (Bat (None, 8, 8, 16)          64        
_________________________________________________________________
activation_1098 (Activation) (None, 8, 8, 16)          0         
_________________________________________________________________
dropout_1098 (Dropout)       (None, 8, 8, 16)          0         
_________________________________________________________________
separable_conv2d_972 (Separa (None, 8, 8, 512)         8848      
_________________________________________________________________
activation_1099 (Activation) (None, 8, 8, 512)         0         
_________________________________________________________________
dropout_1099 (Dropout)       (None, 8, 8, 512)         0         
_________________________________________________________________
separable_conv2d_973 (Separa (None, 8, 8, 64)          37440     
_________________________________________________________________
activation_1100 (Activation) (None, 8, 8, 64)          0         
_________________________________________________________________
dropout_1100 (Dropout)       (None, 8, 8, 64)          0         
_________________________________________________________________
separable_conv2d_974 (Separa (None, 8, 8, 8)           1096      
_________________________________________________________________
activation_1101 (Activation) (None, 8, 8, 8)           0         
_________________________________________________________________
dropout_1101 (Dropout)       (None, 8, 8, 8)           0         
_________________________________________________________________
flatten_100 (Flatten)        (None, 512)               0         
_________________________________________________________________
dense_227 (Dense)            (None, 4096)              2101248   
_________________________________________________________________
activation_1102 (Activation) (None, 4096)              0         
_________________________________________________________________
dropout_1102 (Dropout)       (None, 4096)              0         
_________________________________________________________________
dense_228 (Dense)            (None, 100)               409700    
=================================================================
Total params: 4,299,431
Trainable params: 4,293,127
Non-trainable params: 6,304
_________________________________________________________________
