Model: "sequential_155"
_________________________________________________________________
Layer (type)                 Output Shape              Param #   
=================================================================
separable_conv2d_1423 (Separ (None, 32, 32, 1024)      4123      
_________________________________________________________________
batch_normalization_799 (Bat (None, 32, 32, 1024)      4096      
_________________________________________________________________
activation_1604 (Activation) (None, 32, 32, 1024)      0         
_________________________________________________________________
dropout_1604 (Dropout)       (None, 32, 32, 1024)      0         
_________________________________________________________________
max_pooling2d_324 (MaxPoolin (None, 16, 16, 1024)      0         
_________________________________________________________________
separable_conv2d_1424 (Separ (None, 16, 16, 32)        42016     
_________________________________________________________________
activation_1605 (Activation) (None, 16, 16, 32)        0         
_________________________________________________________________
dropout_1605 (Dropout)       (None, 16, 16, 32)        0         
_________________________________________________________________
max_pooling2d_325 (MaxPoolin (None, 8, 8, 32)          0         
_________________________________________________________________
separable_conv2d_1425 (Separ (None, 8, 8, 512)         17184     
_________________________________________________________________
activation_1606 (Activation) (None, 8, 8, 512)         0         
_________________________________________________________________
dropout_1606 (Dropout)       (None, 8, 8, 512)         0         
_________________________________________________________________
separable_conv2d_1426 (Separ (None, 8, 8, 1024)        529920    
_________________________________________________________________
batch_normalization_800 (Bat (None, 8, 8, 1024)        4096      
_________________________________________________________________
activation_1607 (Activation) (None, 8, 8, 1024)        0         
_________________________________________________________________
dropout_1607 (Dropout)       (None, 8, 8, 1024)        0         
_________________________________________________________________
separable_conv2d_1427 (Separ (None, 8, 8, 1024)        1058816   
_________________________________________________________________
batch_normalization_801 (Bat (None, 8, 8, 1024)        4096      
_________________________________________________________________
activation_1608 (Activation) (None, 8, 8, 1024)        0         
_________________________________________________________________
dropout_1608 (Dropout)       (None, 8, 8, 1024)        0         
_________________________________________________________________
separable_conv2d_1428 (Separ (None, 8, 8, 16)          25616     
_________________________________________________________________
batch_normalization_802 (Bat (None, 8, 8, 16)          64        
_________________________________________________________________
activation_1609 (Activation) (None, 8, 8, 16)          0         
_________________________________________________________________
dropout_1609 (Dropout)       (None, 8, 8, 16)          0         
_________________________________________________________________
separable_conv2d_1429 (Separ (None, 8, 8, 16)          416       
_________________________________________________________________
batch_normalization_803 (Bat (None, 8, 8, 16)          64        
_________________________________________________________________
activation_1610 (Activation) (None, 8, 8, 16)          0         
_________________________________________________________________
dropout_1610 (Dropout)       (None, 8, 8, 16)          0         
_________________________________________________________________
separable_conv2d_1430 (Separ (None, 8, 8, 8)           280       
_________________________________________________________________
activation_1611 (Activation) (None, 8, 8, 8)           0         
_________________________________________________________________
dropout_1611 (Dropout)       (None, 8, 8, 8)           0         
_________________________________________________________________
flatten_155 (Flatten)        (None, 512)               0         
_________________________________________________________________
dense_336 (Dense)            (None, 4096)              2101248   
_________________________________________________________________
activation_1612 (Activation) (None, 4096)              0         
_________________________________________________________________
dropout_1612 (Dropout)       (None, 4096)              0         
_________________________________________________________________
dense_337 (Dense)            (None, 100)               409700    
=================================================================
Total params: 4,201,735
Trainable params: 4,195,527
Non-trainable params: 6,208
_________________________________________________________________
