Model: "sequential_110"
_________________________________________________________________
Layer (type)                 Output Shape              Param #   
=================================================================
separable_conv2d_1050 (Separ (None, 32, 32, 1024)      4123      
_________________________________________________________________
batch_normalization_588 (Bat (None, 32, 32, 1024)      4096      
_________________________________________________________________
activation_1187 (Activation) (None, 32, 32, 1024)      0         
_________________________________________________________________
dropout_1187 (Dropout)       (None, 32, 32, 1024)      0         
_________________________________________________________________
max_pooling2d_237 (MaxPoolin (None, 16, 16, 1024)      0         
_________________________________________________________________
separable_conv2d_1051 (Separ (None, 16, 16, 32)        42016     
_________________________________________________________________
activation_1188 (Activation) (None, 16, 16, 32)        0         
_________________________________________________________________
dropout_1188 (Dropout)       (None, 16, 16, 32)        0         
_________________________________________________________________
max_pooling2d_238 (MaxPoolin (None, 8, 8, 32)          0         
_________________________________________________________________
separable_conv2d_1052 (Separ (None, 8, 8, 512)         17184     
_________________________________________________________________
activation_1189 (Activation) (None, 8, 8, 512)         0         
_________________________________________________________________
dropout_1189 (Dropout)       (None, 8, 8, 512)         0         
_________________________________________________________________
separable_conv2d_1053 (Separ (None, 8, 8, 8)           8712      
_________________________________________________________________
batch_normalization_589 (Bat (None, 8, 8, 8)           32        
_________________________________________________________________
activation_1190 (Activation) (None, 8, 8, 8)           0         
_________________________________________________________________
dropout_1190 (Dropout)       (None, 8, 8, 8)           0         
_________________________________________________________________
separable_conv2d_1054 (Separ (None, 8, 8, 1024)        9288      
_________________________________________________________________
batch_normalization_590 (Bat (None, 8, 8, 1024)        4096      
_________________________________________________________________
activation_1191 (Activation) (None, 8, 8, 1024)        0         
_________________________________________________________________
dropout_1191 (Dropout)       (None, 8, 8, 1024)        0         
_________________________________________________________________
separable_conv2d_1055 (Separ (None, 8, 8, 16)          25616     
_________________________________________________________________
batch_normalization_591 (Bat (None, 8, 8, 16)          64        
_________________________________________________________________
activation_1192 (Activation) (None, 8, 8, 16)          0         
_________________________________________________________________
dropout_1192 (Dropout)       (None, 8, 8, 16)          0         
_________________________________________________________________
separable_conv2d_1056 (Separ (None, 8, 8, 16)          416       
_________________________________________________________________
batch_normalization_592 (Bat (None, 8, 8, 16)          64        
_________________________________________________________________
activation_1193 (Activation) (None, 8, 8, 16)          0         
_________________________________________________________________
dropout_1193 (Dropout)       (None, 8, 8, 16)          0         
_________________________________________________________________
separable_conv2d_1057 (Separ (None, 8, 8, 8)           280       
_________________________________________________________________
activation_1194 (Activation) (None, 8, 8, 8)           0         
_________________________________________________________________
dropout_1194 (Dropout)       (None, 8, 8, 8)           0         
_________________________________________________________________
flatten_110 (Flatten)        (None, 512)               0         
_________________________________________________________________
dense_247 (Dense)            (None, 4096)              2101248   
_________________________________________________________________
activation_1195 (Activation) (None, 4096)              0         
_________________________________________________________________
dropout_1195 (Dropout)       (None, 4096)              0         
_________________________________________________________________
dense_248 (Dense)            (None, 100)               409700    
=================================================================
Total params: 2,626,935
Trainable params: 2,622,759
Non-trainable params: 4,176
_________________________________________________________________
