Model: "sequential_76"
_________________________________________________________________
Layer (type)                 Output Shape              Param #   
=================================================================
separable_conv2d_742 (Separa (None, 32, 32, 1024)      4123      
_________________________________________________________________
batch_normalization_417 (Bat (None, 32, 32, 1024)      4096      
_________________________________________________________________
activation_844 (Activation)  (None, 32, 32, 1024)      0         
_________________________________________________________________
dropout_844 (Dropout)        (None, 32, 32, 1024)      0         
_________________________________________________________________
max_pooling2d_168 (MaxPoolin (None, 16, 16, 1024)      0         
_________________________________________________________________
separable_conv2d_743 (Separa (None, 16, 16, 32)        42016     
_________________________________________________________________
activation_845 (Activation)  (None, 16, 16, 32)        0         
_________________________________________________________________
dropout_845 (Dropout)        (None, 16, 16, 32)        0         
_________________________________________________________________
max_pooling2d_169 (MaxPoolin (None, 8, 8, 32)          0         
_________________________________________________________________
separable_conv2d_744 (Separa (None, 8, 8, 512)         17184     
_________________________________________________________________
activation_846 (Activation)  (None, 8, 8, 512)         0         
_________________________________________________________________
dropout_846 (Dropout)        (None, 8, 8, 512)         0         
_________________________________________________________________
separable_conv2d_745 (Separa (None, 8, 8, 1024)        529920    
_________________________________________________________________
batch_normalization_418 (Bat (None, 8, 8, 1024)        4096      
_________________________________________________________________
activation_847 (Activation)  (None, 8, 8, 1024)        0         
_________________________________________________________________
dropout_847 (Dropout)        (None, 8, 8, 1024)        0         
_________________________________________________________________
separable_conv2d_746 (Separa (None, 8, 8, 1024)        1058816   
_________________________________________________________________
batch_normalization_419 (Bat (None, 8, 8, 1024)        4096      
_________________________________________________________________
activation_848 (Activation)  (None, 8, 8, 1024)        0         
_________________________________________________________________
dropout_848 (Dropout)        (None, 8, 8, 1024)        0         
_________________________________________________________________
separable_conv2d_747 (Separa (None, 8, 8, 16)          25616     
_________________________________________________________________
batch_normalization_420 (Bat (None, 8, 8, 16)          64        
_________________________________________________________________
activation_849 (Activation)  (None, 8, 8, 16)          0         
_________________________________________________________________
dropout_849 (Dropout)        (None, 8, 8, 16)          0         
_________________________________________________________________
separable_conv2d_748 (Separa (None, 8, 8, 16)          416       
_________________________________________________________________
batch_normalization_421 (Bat (None, 8, 8, 16)          64        
_________________________________________________________________
activation_850 (Activation)  (None, 8, 8, 16)          0         
_________________________________________________________________
dropout_850 (Dropout)        (None, 8, 8, 16)          0         
_________________________________________________________________
separable_conv2d_749 (Separa (None, 8, 8, 512)         8848      
_________________________________________________________________
activation_851 (Activation)  (None, 8, 8, 512)         0         
_________________________________________________________________
dropout_851 (Dropout)        (None, 8, 8, 512)         0         
_________________________________________________________________
separable_conv2d_750 (Separa (None, 8, 8, 64)          37440     
_________________________________________________________________
activation_852 (Activation)  (None, 8, 8, 64)          0         
_________________________________________________________________
dropout_852 (Dropout)        (None, 8, 8, 64)          0         
_________________________________________________________________
separable_conv2d_751 (Separa (None, 8, 8, 8)           1096      
_________________________________________________________________
activation_853 (Activation)  (None, 8, 8, 8)           0         
_________________________________________________________________
dropout_853 (Dropout)        (None, 8, 8, 8)           0         
_________________________________________________________________
flatten_76 (Flatten)         (None, 512)               0         
_________________________________________________________________
dense_178 (Dense)            (None, 4096)              2101248   
_________________________________________________________________
activation_854 (Activation)  (None, 4096)              0         
_________________________________________________________________
dropout_854 (Dropout)        (None, 4096)              0         
_________________________________________________________________
dense_179 (Dense)            (None, 100)               409700    
=================================================================
Total params: 4,248,839
Trainable params: 4,242,631
Non-trainable params: 6,208
_________________________________________________________________
