Model: "sequential_63"
_________________________________________________________________
Layer (type)                 Output Shape              Param #   
=================================================================
separable_conv2d_619 (Separa (None, 32, 32, 1024)      4123      
_________________________________________________________________
batch_normalization_350 (Bat (None, 32, 32, 1024)      4096      
_________________________________________________________________
activation_707 (Activation)  (None, 32, 32, 1024)      0         
_________________________________________________________________
dropout_707 (Dropout)        (None, 32, 32, 1024)      0         
_________________________________________________________________
max_pooling2d_141 (MaxPoolin (None, 16, 16, 1024)      0         
_________________________________________________________________
separable_conv2d_620 (Separa (None, 16, 16, 1024)      1058816   
_________________________________________________________________
activation_708 (Activation)  (None, 16, 16, 1024)      0         
_________________________________________________________________
dropout_708 (Dropout)        (None, 16, 16, 1024)      0         
_________________________________________________________________
max_pooling2d_142 (MaxPoolin (None, 8, 8, 1024)        0         
_________________________________________________________________
separable_conv2d_621 (Separa (None, 8, 8, 512)         534016    
_________________________________________________________________
activation_709 (Activation)  (None, 8, 8, 512)         0         
_________________________________________________________________
dropout_709 (Dropout)        (None, 8, 8, 512)         0         
_________________________________________________________________
separable_conv2d_622 (Separa (None, 8, 8, 1024)        529920    
_________________________________________________________________
batch_normalization_351 (Bat (None, 8, 8, 1024)        4096      
_________________________________________________________________
activation_710 (Activation)  (None, 8, 8, 1024)        0         
_________________________________________________________________
dropout_710 (Dropout)        (None, 8, 8, 1024)        0         
_________________________________________________________________
separable_conv2d_623 (Separa (None, 8, 8, 1024)        1058816   
_________________________________________________________________
batch_normalization_352 (Bat (None, 8, 8, 1024)        4096      
_________________________________________________________________
activation_711 (Activation)  (None, 8, 8, 1024)        0         
_________________________________________________________________
dropout_711 (Dropout)        (None, 8, 8, 1024)        0         
_________________________________________________________________
separable_conv2d_624 (Separa (None, 8, 8, 16)          25616     
_________________________________________________________________
batch_normalization_353 (Bat (None, 8, 8, 16)          64        
_________________________________________________________________
activation_712 (Activation)  (None, 8, 8, 16)          0         
_________________________________________________________________
dropout_712 (Dropout)        (None, 8, 8, 16)          0         
_________________________________________________________________
separable_conv2d_625 (Separa (None, 8, 8, 16)          416       
_________________________________________________________________
batch_normalization_354 (Bat (None, 8, 8, 16)          64        
_________________________________________________________________
activation_713 (Activation)  (None, 8, 8, 16)          0         
_________________________________________________________________
dropout_713 (Dropout)        (None, 8, 8, 16)          0         
_________________________________________________________________
separable_conv2d_626 (Separa (None, 8, 8, 512)         8848      
_________________________________________________________________
activation_714 (Activation)  (None, 8, 8, 512)         0         
_________________________________________________________________
dropout_714 (Dropout)        (None, 8, 8, 512)         0         
_________________________________________________________________
separable_conv2d_627 (Separa (None, 8, 8, 64)          37440     
_________________________________________________________________
activation_715 (Activation)  (None, 8, 8, 64)          0         
_________________________________________________________________
dropout_715 (Dropout)        (None, 8, 8, 64)          0         
_________________________________________________________________
separable_conv2d_628 (Separa (None, 8, 8, 8)           1096      
_________________________________________________________________
activation_716 (Activation)  (None, 8, 8, 8)           0         
_________________________________________________________________
dropout_716 (Dropout)        (None, 8, 8, 8)           0         
_________________________________________________________________
flatten_63 (Flatten)         (None, 512)               0         
_________________________________________________________________
dense_151 (Dense)            (None, 4096)              2101248   
_________________________________________________________________
activation_717 (Activation)  (None, 4096)              0         
_________________________________________________________________
dropout_717 (Dropout)        (None, 4096)              0         
_________________________________________________________________
dense_152 (Dense)            (None, 100)               409700    
=================================================================
Total params: 5,782,471
Trainable params: 5,776,263
Non-trainable params: 6,208
_________________________________________________________________
