Model: "sequential_72"
_________________________________________________________________
Layer (type)                 Output Shape              Param #   
=================================================================
separable_conv2d_705 (Separa (None, 32, 32, 1024)      4123      
_________________________________________________________________
batch_normalization_395 (Bat (None, 32, 32, 1024)      4096      
_________________________________________________________________
activation_803 (Activation)  (None, 32, 32, 1024)      0         
_________________________________________________________________
dropout_803 (Dropout)        (None, 32, 32, 1024)      0         
_________________________________________________________________
max_pooling2d_159 (MaxPoolin (None, 16, 16, 1024)      0         
_________________________________________________________________
separable_conv2d_706 (Separa (None, 16, 16, 32)        42016     
_________________________________________________________________
activation_804 (Activation)  (None, 16, 16, 32)        0         
_________________________________________________________________
dropout_804 (Dropout)        (None, 16, 16, 32)        0         
_________________________________________________________________
max_pooling2d_160 (MaxPoolin (None, 8, 8, 32)          0         
_________________________________________________________________
separable_conv2d_707 (Separa (None, 8, 8, 512)         17184     
_________________________________________________________________
activation_805 (Activation)  (None, 8, 8, 512)         0         
_________________________________________________________________
dropout_805 (Dropout)        (None, 8, 8, 512)         0         
_________________________________________________________________
separable_conv2d_708 (Separa (None, 8, 8, 1024)        529920    
_________________________________________________________________
batch_normalization_396 (Bat (None, 8, 8, 1024)        4096      
_________________________________________________________________
activation_806 (Activation)  (None, 8, 8, 1024)        0         
_________________________________________________________________
dropout_806 (Dropout)        (None, 8, 8, 1024)        0         
_________________________________________________________________
separable_conv2d_709 (Separa (None, 8, 8, 1024)        1058816   
_________________________________________________________________
batch_normalization_397 (Bat (None, 8, 8, 1024)        4096      
_________________________________________________________________
activation_807 (Activation)  (None, 8, 8, 1024)        0         
_________________________________________________________________
dropout_807 (Dropout)        (None, 8, 8, 1024)        0         
_________________________________________________________________
separable_conv2d_710 (Separa (None, 8, 8, 16)          25616     
_________________________________________________________________
batch_normalization_398 (Bat (None, 8, 8, 16)          64        
_________________________________________________________________
activation_808 (Activation)  (None, 8, 8, 16)          0         
_________________________________________________________________
dropout_808 (Dropout)        (None, 8, 8, 16)          0         
_________________________________________________________________
separable_conv2d_711 (Separa (None, 8, 8, 16)          416       
_________________________________________________________________
batch_normalization_399 (Bat (None, 8, 8, 16)          64        
_________________________________________________________________
activation_809 (Activation)  (None, 8, 8, 16)          0         
_________________________________________________________________
dropout_809 (Dropout)        (None, 8, 8, 16)          0         
_________________________________________________________________
separable_conv2d_712 (Separa (None, 8, 8, 8)           280       
_________________________________________________________________
activation_810 (Activation)  (None, 8, 8, 8)           0         
_________________________________________________________________
dropout_810 (Dropout)        (None, 8, 8, 8)           0         
_________________________________________________________________
flatten_72 (Flatten)         (None, 512)               0         
_________________________________________________________________
dense_170 (Dense)            (None, 4096)              2101248   
_________________________________________________________________
activation_811 (Activation)  (None, 4096)              0         
_________________________________________________________________
dropout_811 (Dropout)        (None, 4096)              0         
_________________________________________________________________
dense_171 (Dense)            (None, 100)               409700    
=================================================================
Total params: 4,201,735
Trainable params: 4,195,527
Non-trainable params: 6,208
_________________________________________________________________
