Model: "sequential_218"
_________________________________________________________________
Layer (type)                 Output Shape              Param #   
=================================================================
separable_conv2d_1926 (Separ (None, 32, 32, 1024)      4123      
_________________________________________________________________
batch_normalization_1068 (Ba (None, 32, 32, 1024)      4096      
_________________________________________________________________
activation_2156 (Activation) (None, 32, 32, 1024)      0         
_________________________________________________________________
dropout_2156 (Dropout)       (None, 32, 32, 1024)      0         
_________________________________________________________________
separable_conv2d_1927 (Separ (None, 32, 32, 32)        42016     
_________________________________________________________________
activation_2157 (Activation) (None, 32, 32, 32)        0         
_________________________________________________________________
dropout_2157 (Dropout)       (None, 32, 32, 32)        0         
_________________________________________________________________
max_pooling2d_402 (MaxPoolin (None, 16, 16, 32)        0         
_________________________________________________________________
separable_conv2d_1928 (Separ (None, 16, 16, 512)       17184     
_________________________________________________________________
activation_2158 (Activation) (None, 16, 16, 512)       0         
_________________________________________________________________
dropout_2158 (Dropout)       (None, 16, 16, 512)       0         
_________________________________________________________________
separable_conv2d_1929 (Separ (None, 16, 16, 1024)      529920    
_________________________________________________________________
batch_normalization_1069 (Ba (None, 16, 16, 1024)      4096      
_________________________________________________________________
activation_2159 (Activation) (None, 16, 16, 1024)      0         
_________________________________________________________________
dropout_2159 (Dropout)       (None, 16, 16, 1024)      0         
_________________________________________________________________
separable_conv2d_1930 (Separ (None, 16, 16, 1024)      1058816   
_________________________________________________________________
batch_normalization_1070 (Ba (None, 16, 16, 1024)      4096      
_________________________________________________________________
activation_2160 (Activation) (None, 16, 16, 1024)      0         
_________________________________________________________________
dropout_2160 (Dropout)       (None, 16, 16, 1024)      0         
_________________________________________________________________
separable_conv2d_1931 (Separ (None, 16, 16, 16)        25616     
_________________________________________________________________
batch_normalization_1071 (Ba (None, 16, 16, 16)        64        
_________________________________________________________________
activation_2161 (Activation) (None, 16, 16, 16)        0         
_________________________________________________________________
dropout_2161 (Dropout)       (None, 16, 16, 16)        0         
_________________________________________________________________
separable_conv2d_1932 (Separ (None, 16, 16, 64)        1232      
_________________________________________________________________
activation_2162 (Activation) (None, 16, 16, 64)        0         
_________________________________________________________________
dropout_2162 (Dropout)       (None, 16, 16, 64)        0         
_________________________________________________________________
separable_conv2d_1933 (Separ (None, 16, 16, 16)        1616      
_________________________________________________________________
activation_2163 (Activation) (None, 16, 16, 16)        0         
_________________________________________________________________
dropout_2163 (Dropout)       (None, 16, 16, 16)        0         
_________________________________________________________________
flatten_218 (Flatten)        (None, 4096)              0         
_________________________________________________________________
dense_448 (Dense)            (None, 100)               409700    
=================================================================
Total params: 2,102,575
Trainable params: 2,096,399
Non-trainable params: 6,176
_________________________________________________________________
