Model: "sequential_92"
_________________________________________________________________
Layer (type)                 Output Shape              Param #   
=================================================================
separable_conv2d_889 (Separa (None, 32, 32, 1024)      4123      
_________________________________________________________________
batch_normalization_501 (Bat (None, 32, 32, 1024)      4096      
_________________________________________________________________
activation_1008 (Activation) (None, 32, 32, 1024)      0         
_________________________________________________________________
dropout_1008 (Dropout)       (None, 32, 32, 1024)      0         
_________________________________________________________________
max_pooling2d_201 (MaxPoolin (None, 16, 16, 1024)      0         
_________________________________________________________________
separable_conv2d_890 (Separa (None, 16, 16, 32)        42016     
_________________________________________________________________
activation_1009 (Activation) (None, 16, 16, 32)        0         
_________________________________________________________________
dropout_1009 (Dropout)       (None, 16, 16, 32)        0         
_________________________________________________________________
max_pooling2d_202 (MaxPoolin (None, 8, 8, 32)          0         
_________________________________________________________________
separable_conv2d_891 (Separa (None, 8, 8, 512)         17184     
_________________________________________________________________
activation_1010 (Activation) (None, 8, 8, 512)         0         
_________________________________________________________________
dropout_1010 (Dropout)       (None, 8, 8, 512)         0         
_________________________________________________________________
separable_conv2d_892 (Separa (None, 8, 8, 1024)        529920    
_________________________________________________________________
batch_normalization_502 (Bat (None, 8, 8, 1024)        4096      
_________________________________________________________________
activation_1011 (Activation) (None, 8, 8, 1024)        0         
_________________________________________________________________
dropout_1011 (Dropout)       (None, 8, 8, 1024)        0         
_________________________________________________________________
separable_conv2d_893 (Separa (None, 8, 8, 1024)        1058816   
_________________________________________________________________
batch_normalization_503 (Bat (None, 8, 8, 1024)        4096      
_________________________________________________________________
activation_1012 (Activation) (None, 8, 8, 1024)        0         
_________________________________________________________________
dropout_1012 (Dropout)       (None, 8, 8, 1024)        0         
_________________________________________________________________
separable_conv2d_894 (Separa (None, 8, 8, 16)          25616     
_________________________________________________________________
batch_normalization_504 (Bat (None, 8, 8, 16)          64        
_________________________________________________________________
activation_1013 (Activation) (None, 8, 8, 16)          0         
_________________________________________________________________
dropout_1013 (Dropout)       (None, 8, 8, 16)          0         
_________________________________________________________________
separable_conv2d_895 (Separa (None, 8, 8, 16)          416       
_________________________________________________________________
batch_normalization_505 (Bat (None, 8, 8, 16)          64        
_________________________________________________________________
activation_1014 (Activation) (None, 8, 8, 16)          0         
_________________________________________________________________
dropout_1014 (Dropout)       (None, 8, 8, 16)          0         
_________________________________________________________________
separable_conv2d_896 (Separa (None, 8, 8, 8)           280       
_________________________________________________________________
activation_1015 (Activation) (None, 8, 8, 8)           0         
_________________________________________________________________
dropout_1015 (Dropout)       (None, 8, 8, 8)           0         
_________________________________________________________________
flatten_92 (Flatten)         (None, 512)               0         
_________________________________________________________________
dense_211 (Dense)            (None, 4096)              2101248   
_________________________________________________________________
activation_1016 (Activation) (None, 4096)              0         
_________________________________________________________________
dropout_1016 (Dropout)       (None, 4096)              0         
_________________________________________________________________
dense_212 (Dense)            (None, 100)               409700    
=================================================================
Total params: 4,201,735
Trainable params: 4,195,527
Non-trainable params: 6,208
_________________________________________________________________
