Model: "sequential_397"
_________________________________________________________________
Layer (type)                 Output Shape              Param #   
=================================================================
separable_conv2d_3352 (Separ (None, 32, 32, 1024)      4123      
_________________________________________________________________
batch_normalization_1789 (Ba (None, 32, 32, 1024)      4096      
_________________________________________________________________
activation_3625 (Activation) (None, 32, 32, 1024)      0         
_________________________________________________________________
dropout_3625 (Dropout)       (None, 32, 32, 1024)      0         
_________________________________________________________________
separable_conv2d_3353 (Separ (None, 32, 32, 32)        42016     
_________________________________________________________________
activation_3626 (Activation) (None, 32, 32, 32)        0         
_________________________________________________________________
dropout_3626 (Dropout)       (None, 32, 32, 32)        0         
_________________________________________________________________
max_pooling2d_593 (MaxPoolin (None, 16, 16, 32)        0         
_________________________________________________________________
separable_conv2d_3354 (Separ (None, 16, 16, 512)       17184     
_________________________________________________________________
activation_3627 (Activation) (None, 16, 16, 512)       0         
_________________________________________________________________
dropout_3627 (Dropout)       (None, 16, 16, 512)       0         
_________________________________________________________________
separable_conv2d_3355 (Separ (None, 16, 16, 1024)      529920    
_________________________________________________________________
batch_normalization_1790 (Ba (None, 16, 16, 1024)      4096      
_________________________________________________________________
activation_3628 (Activation) (None, 16, 16, 1024)      0         
_________________________________________________________________
dropout_3628 (Dropout)       (None, 16, 16, 1024)      0         
_________________________________________________________________
separable_conv2d_3356 (Separ (None, 16, 16, 1024)      1058816   
_________________________________________________________________
batch_normalization_1791 (Ba (None, 16, 16, 1024)      4096      
_________________________________________________________________
activation_3629 (Activation) (None, 16, 16, 1024)      0         
_________________________________________________________________
dropout_3629 (Dropout)       (None, 16, 16, 1024)      0         
_________________________________________________________________
separable_conv2d_3357 (Separ (None, 16, 16, 16)        25616     
_________________________________________________________________
batch_normalization_1792 (Ba (None, 16, 16, 16)        64        
_________________________________________________________________
activation_3630 (Activation) (None, 16, 16, 16)        0         
_________________________________________________________________
dropout_3630 (Dropout)       (None, 16, 16, 16)        0         
_________________________________________________________________
separable_conv2d_3358 (Separ (None, 16, 16, 64)        1232      
_________________________________________________________________
activation_3631 (Activation) (None, 16, 16, 64)        0         
_________________________________________________________________
dropout_3631 (Dropout)       (None, 16, 16, 64)        0         
_________________________________________________________________
separable_conv2d_3359 (Separ (None, 16, 16, 16)        1616      
_________________________________________________________________
activation_3632 (Activation) (None, 16, 16, 16)        0         
_________________________________________________________________
dropout_3632 (Dropout)       (None, 16, 16, 16)        0         
_________________________________________________________________
flatten_397 (Flatten)        (None, 4096)              0         
_________________________________________________________________
dense_670 (Dense)            (None, 100)               409700    
=================================================================
Total params: 2,102,575
Trainable params: 2,096,399
Non-trainable params: 6,176
_________________________________________________________________
