Model: "sequential_228"
_________________________________________________________________
Layer (type)                 Output Shape              Param #   
=================================================================
separable_conv2d_2005 (Separ (None, 32, 32, 1024)      4123      
_________________________________________________________________
batch_normalization_1108 (Ba (None, 32, 32, 1024)      4096      
_________________________________________________________________
activation_2239 (Activation) (None, 32, 32, 1024)      0         
_________________________________________________________________
dropout_2239 (Dropout)       (None, 32, 32, 1024)      0         
_________________________________________________________________
separable_conv2d_2006 (Separ (None, 32, 32, 32)        42016     
_________________________________________________________________
activation_2240 (Activation) (None, 32, 32, 32)        0         
_________________________________________________________________
dropout_2240 (Dropout)       (None, 32, 32, 32)        0         
_________________________________________________________________
max_pooling2d_413 (MaxPoolin (None, 16, 16, 32)        0         
_________________________________________________________________
separable_conv2d_2007 (Separ (None, 16, 16, 512)       17184     
_________________________________________________________________
activation_2241 (Activation) (None, 16, 16, 512)       0         
_________________________________________________________________
dropout_2241 (Dropout)       (None, 16, 16, 512)       0         
_________________________________________________________________
separable_conv2d_2008 (Separ (None, 16, 16, 1024)      529920    
_________________________________________________________________
batch_normalization_1109 (Ba (None, 16, 16, 1024)      4096      
_________________________________________________________________
activation_2242 (Activation) (None, 16, 16, 1024)      0         
_________________________________________________________________
dropout_2242 (Dropout)       (None, 16, 16, 1024)      0         
_________________________________________________________________
separable_conv2d_2009 (Separ (None, 16, 16, 1024)      1058816   
_________________________________________________________________
batch_normalization_1110 (Ba (None, 16, 16, 1024)      4096      
_________________________________________________________________
activation_2243 (Activation) (None, 16, 16, 1024)      0         
_________________________________________________________________
dropout_2243 (Dropout)       (None, 16, 16, 1024)      0         
_________________________________________________________________
separable_conv2d_2010 (Separ (None, 16, 16, 16)        25616     
_________________________________________________________________
batch_normalization_1111 (Ba (None, 16, 16, 16)        64        
_________________________________________________________________
activation_2244 (Activation) (None, 16, 16, 16)        0         
_________________________________________________________________
dropout_2244 (Dropout)       (None, 16, 16, 16)        0         
_________________________________________________________________
separable_conv2d_2011 (Separ (None, 16, 16, 64)        1232      
_________________________________________________________________
activation_2245 (Activation) (None, 16, 16, 64)        0         
_________________________________________________________________
dropout_2245 (Dropout)       (None, 16, 16, 64)        0         
_________________________________________________________________
separable_conv2d_2012 (Separ (None, 16, 16, 16)        1616      
_________________________________________________________________
activation_2246 (Activation) (None, 16, 16, 16)        0         
_________________________________________________________________
dropout_2246 (Dropout)       (None, 16, 16, 16)        0         
_________________________________________________________________
flatten_228 (Flatten)        (None, 4096)              0         
_________________________________________________________________
dense_462 (Dense)            (None, 100)               409700    
=================================================================
Total params: 2,102,575
Trainable params: 2,096,399
Non-trainable params: 6,176
_________________________________________________________________
