Model: "sequential_198"
_________________________________________________________________
Layer (type)                 Output Shape              Param #   
=================================================================
separable_conv2d_1768 (Separ (None, 32, 32, 1024)      4123      
_________________________________________________________________
batch_normalization_986 (Bat (None, 32, 32, 1024)      4096      
_________________________________________________________________
activation_1983 (Activation) (None, 32, 32, 1024)      0         
_________________________________________________________________
dropout_1983 (Dropout)       (None, 32, 32, 1024)      0         
_________________________________________________________________
separable_conv2d_1769 (Separ (None, 32, 32, 32)        42016     
_________________________________________________________________
activation_1984 (Activation) (None, 32, 32, 32)        0         
_________________________________________________________________
dropout_1984 (Dropout)       (None, 32, 32, 32)        0         
_________________________________________________________________
max_pooling2d_382 (MaxPoolin (None, 16, 16, 32)        0         
_________________________________________________________________
separable_conv2d_1770 (Separ (None, 16, 16, 512)       17184     
_________________________________________________________________
activation_1985 (Activation) (None, 16, 16, 512)       0         
_________________________________________________________________
dropout_1985 (Dropout)       (None, 16, 16, 512)       0         
_________________________________________________________________
separable_conv2d_1771 (Separ (None, 16, 16, 1024)      529920    
_________________________________________________________________
batch_normalization_987 (Bat (None, 16, 16, 1024)      4096      
_________________________________________________________________
activation_1986 (Activation) (None, 16, 16, 1024)      0         
_________________________________________________________________
dropout_1986 (Dropout)       (None, 16, 16, 1024)      0         
_________________________________________________________________
separable_conv2d_1772 (Separ (None, 16, 16, 1024)      1058816   
_________________________________________________________________
batch_normalization_988 (Bat (None, 16, 16, 1024)      4096      
_________________________________________________________________
activation_1987 (Activation) (None, 16, 16, 1024)      0         
_________________________________________________________________
dropout_1987 (Dropout)       (None, 16, 16, 1024)      0         
_________________________________________________________________
separable_conv2d_1773 (Separ (None, 16, 16, 16)        25616     
_________________________________________________________________
batch_normalization_989 (Bat (None, 16, 16, 16)        64        
_________________________________________________________________
activation_1988 (Activation) (None, 16, 16, 16)        0         
_________________________________________________________________
dropout_1988 (Dropout)       (None, 16, 16, 16)        0         
_________________________________________________________________
separable_conv2d_1774 (Separ (None, 16, 16, 64)        1232      
_________________________________________________________________
activation_1989 (Activation) (None, 16, 16, 64)        0         
_________________________________________________________________
dropout_1989 (Dropout)       (None, 16, 16, 64)        0         
_________________________________________________________________
separable_conv2d_1775 (Separ (None, 16, 16, 16)        1616      
_________________________________________________________________
activation_1990 (Activation) (None, 16, 16, 16)        0         
_________________________________________________________________
dropout_1990 (Dropout)       (None, 16, 16, 16)        0         
_________________________________________________________________
flatten_198 (Flatten)        (None, 4096)              0         
_________________________________________________________________
dense_413 (Dense)            (None, 4096)              16781312  
_________________________________________________________________
activation_1991 (Activation) (None, 4096)              0         
_________________________________________________________________
dropout_1991 (Dropout)       (None, 4096)              0         
_________________________________________________________________
dense_414 (Dense)            (None, 100)               409700    
=================================================================
Total params: 18,883,887
Trainable params: 18,877,711
Non-trainable params: 6,176
_________________________________________________________________
