Model: "sequential_39"
_________________________________________________________________
Layer (type)                 Output Shape              Param #   
=================================================================
separable_conv2d_385 (Separa (None, 32, 32, 128)       539       
_________________________________________________________________
activation_441 (Activation)  (None, 32, 32, 128)       0         
_________________________________________________________________
dropout_441 (Dropout)        (None, 32, 32, 128)       0         
_________________________________________________________________
separable_conv2d_386 (Separa (None, 32, 32, 512)       67200     
_________________________________________________________________
batch_normalization_217 (Bat (None, 32, 32, 512)       2048      
_________________________________________________________________
activation_442 (Activation)  (None, 32, 32, 512)       0         
_________________________________________________________________
dropout_442 (Dropout)        (None, 32, 32, 512)       0         
_________________________________________________________________
separable_conv2d_387 (Separa (None, 32, 32, 32)        21024     
_________________________________________________________________
batch_normalization_218 (Bat (None, 32, 32, 32)        128       
_________________________________________________________________
activation_443 (Activation)  (None, 32, 32, 32)        0         
_________________________________________________________________
dropout_443 (Dropout)        (None, 32, 32, 32)        0         
_________________________________________________________________
separable_conv2d_388 (Separa (None, 32, 32, 32)        1344      
_________________________________________________________________
batch_normalization_219 (Bat (None, 32, 32, 32)        128       
_________________________________________________________________
activation_444 (Activation)  (None, 32, 32, 32)        0         
_________________________________________________________________
dropout_444 (Dropout)        (None, 32, 32, 32)        0         
_________________________________________________________________
separable_conv2d_389 (Separa (None, 32, 32, 256)       8736      
_________________________________________________________________
batch_normalization_220 (Bat (None, 32, 32, 256)       1024      
_________________________________________________________________
activation_445 (Activation)  (None, 32, 32, 256)       0         
_________________________________________________________________
dropout_445 (Dropout)        (None, 32, 32, 256)       0         
_________________________________________________________________
separable_conv2d_390 (Separa (None, 32, 32, 32)        10528     
_________________________________________________________________
batch_normalization_221 (Bat (None, 32, 32, 32)        128       
_________________________________________________________________
activation_446 (Activation)  (None, 32, 32, 32)        0         
_________________________________________________________________
dropout_446 (Dropout)        (None, 32, 32, 32)        0         
_________________________________________________________________
separable_conv2d_391 (Separa (None, 32, 32, 16)        816       
_________________________________________________________________
batch_normalization_222 (Bat (None, 32, 32, 16)        64        
_________________________________________________________________
activation_447 (Activation)  (None, 32, 32, 16)        0         
_________________________________________________________________
dropout_447 (Dropout)        (None, 32, 32, 16)        0         
_________________________________________________________________
separable_conv2d_392 (Separa (None, 32, 32, 1024)      17552     
_________________________________________________________________
batch_normalization_223 (Bat (None, 32, 32, 1024)      4096      
_________________________________________________________________
activation_448 (Activation)  (None, 32, 32, 1024)      0         
_________________________________________________________________
dropout_448 (Dropout)        (None, 32, 32, 1024)      0         
_________________________________________________________________
separable_conv2d_393 (Separa (None, 32, 32, 1024)      1058816   
_________________________________________________________________
activation_449 (Activation)  (None, 32, 32, 1024)      0         
_________________________________________________________________
dropout_449 (Dropout)        (None, 32, 32, 1024)      0         
_________________________________________________________________
separable_conv2d_394 (Separa (None, 32, 32, 16)        25616     
_________________________________________________________________
activation_450 (Activation)  (None, 32, 32, 16)        0         
_________________________________________________________________
dropout_450 (Dropout)        (None, 32, 32, 16)        0         
_________________________________________________________________
max_pooling2d_90 (MaxPooling (None, 16, 16, 16)        0         
_________________________________________________________________
separable_conv2d_395 (Separa (None, 16, 16, 64)        1232      
_________________________________________________________________
activation_451 (Activation)  (None, 16, 16, 64)        0         
_________________________________________________________________
dropout_451 (Dropout)        (None, 16, 16, 64)        0         
_________________________________________________________________
max_pooling2d_91 (MaxPooling (None, 8, 8, 64)          0         
_________________________________________________________________
flatten_39 (Flatten)         (None, 4096)              0         
_________________________________________________________________
dense_95 (Dense)             (None, 512)               2097664   
_________________________________________________________________
activation_452 (Activation)  (None, 512)               0         
_________________________________________________________________
dropout_452 (Dropout)        (None, 512)               0         
_________________________________________________________________
dense_96 (Dense)             (None, 4096)              2101248   
_________________________________________________________________
activation_453 (Activation)  (None, 4096)              0         
_________________________________________________________________
dropout_453 (Dropout)        (None, 4096)              0         
_________________________________________________________________
dense_97 (Dense)             (None, 2048)              8390656   
_________________________________________________________________
batch_normalization_224 (Bat (None, 2048)              8192      
_________________________________________________________________
activation_454 (Activation)  (None, 2048)              0         
_________________________________________________________________
dropout_454 (Dropout)        (None, 2048)              0         
_________________________________________________________________
dense_98 (Dense)             (None, 100)               204900    
=================================================================
Total params: 14,023,679
Trainable params: 14,015,775
Non-trainable params: 7,904
_________________________________________________________________
