Model: "sequential_310"
_________________________________________________________________
Layer (type)                 Output Shape              Param #   
=================================================================
separable_conv2d_2661 (Separ (None, 32, 32, 1024)      4123      
_________________________________________________________________
batch_normalization_1429 (Ba (None, 32, 32, 1024)      4096      
_________________________________________________________________
activation_2918 (Activation) (None, 32, 32, 1024)      0         
_________________________________________________________________
dropout_2918 (Dropout)       (None, 32, 32, 1024)      0         
_________________________________________________________________
separable_conv2d_2662 (Separ (None, 32, 32, 32)        42016     
_________________________________________________________________
activation_2919 (Activation) (None, 32, 32, 32)        0         
_________________________________________________________________
dropout_2919 (Dropout)       (None, 32, 32, 32)        0         
_________________________________________________________________
max_pooling2d_499 (MaxPoolin (None, 16, 16, 32)        0         
_________________________________________________________________
separable_conv2d_2663 (Separ (None, 16, 16, 512)       17184     
_________________________________________________________________
batch_normalization_1430 (Ba (None, 16, 16, 512)       2048      
_________________________________________________________________
activation_2920 (Activation) (None, 16, 16, 512)       0         
_________________________________________________________________
dropout_2920 (Dropout)       (None, 16, 16, 512)       0         
_________________________________________________________________
max_pooling2d_500 (MaxPoolin (None, 8, 8, 512)         0         
_________________________________________________________________
separable_conv2d_2664 (Separ (None, 8, 8, 1024)        529920    
_________________________________________________________________
batch_normalization_1431 (Ba (None, 8, 8, 1024)        4096      
_________________________________________________________________
activation_2921 (Activation) (None, 8, 8, 1024)        0         
_________________________________________________________________
dropout_2921 (Dropout)       (None, 8, 8, 1024)        0         
_________________________________________________________________
separable_conv2d_2665 (Separ (None, 8, 8, 1024)        1058816   
_________________________________________________________________
activation_2922 (Activation) (None, 8, 8, 1024)        0         
_________________________________________________________________
dropout_2922 (Dropout)       (None, 8, 8, 1024)        0         
_________________________________________________________________
separable_conv2d_2666 (Separ (None, 8, 8, 64)          74816     
_________________________________________________________________
batch_normalization_1432 (Ba (None, 8, 8, 64)          256       
_________________________________________________________________
activation_2923 (Activation) (None, 8, 8, 64)          0         
_________________________________________________________________
dropout_2923 (Dropout)       (None, 8, 8, 64)          0         
_________________________________________________________________
separable_conv2d_2667 (Separ (None, 8, 8, 64)          4736      
_________________________________________________________________
activation_2924 (Activation) (None, 8, 8, 64)          0         
_________________________________________________________________
dropout_2924 (Dropout)       (None, 8, 8, 64)          0         
_________________________________________________________________
separable_conv2d_2668 (Separ (None, 8, 8, 16)          1616      
_________________________________________________________________
activation_2925 (Activation) (None, 8, 8, 16)          0         
_________________________________________________________________
dropout_2925 (Dropout)       (None, 8, 8, 16)          0         
_________________________________________________________________
flatten_310 (Flatten)        (None, 1024)              0         
_________________________________________________________________
dense_567 (Dense)            (None, 100)               102500    
=================================================================
Total params: 1,846,223
Trainable params: 1,840,975
Non-trainable params: 5,248
_________________________________________________________________
