Model: "sequential_120"
_________________________________________________________________
Layer (type)                 Output Shape              Param #   
=================================================================
separable_conv2d_1133 (Separ (None, 32, 32, 1024)      4123      
_________________________________________________________________
batch_normalization_635 (Bat (None, 32, 32, 1024)      4096      
_________________________________________________________________
activation_1280 (Activation) (None, 32, 32, 1024)      0         
_________________________________________________________________
dropout_1280 (Dropout)       (None, 32, 32, 1024)      0         
_________________________________________________________________
separable_conv2d_1134 (Separ (None, 32, 32, 32)        42016     
_________________________________________________________________
activation_1281 (Activation) (None, 32, 32, 32)        0         
_________________________________________________________________
dropout_1281 (Dropout)       (None, 32, 32, 32)        0         
_________________________________________________________________
max_pooling2d_257 (MaxPoolin (None, 16, 16, 32)        0         
_________________________________________________________________
separable_conv2d_1135 (Separ (None, 16, 16, 512)       17184     
_________________________________________________________________
activation_1282 (Activation) (None, 16, 16, 512)       0         
_________________________________________________________________
dropout_1282 (Dropout)       (None, 16, 16, 512)       0         
_________________________________________________________________
separable_conv2d_1136 (Separ (None, 16, 16, 1024)      529920    
_________________________________________________________________
batch_normalization_636 (Bat (None, 16, 16, 1024)      4096      
_________________________________________________________________
activation_1283 (Activation) (None, 16, 16, 1024)      0         
_________________________________________________________________
dropout_1283 (Dropout)       (None, 16, 16, 1024)      0         
_________________________________________________________________
separable_conv2d_1137 (Separ (None, 16, 16, 1024)      1058816   
_________________________________________________________________
batch_normalization_637 (Bat (None, 16, 16, 1024)      4096      
_________________________________________________________________
activation_1284 (Activation) (None, 16, 16, 1024)      0         
_________________________________________________________________
dropout_1284 (Dropout)       (None, 16, 16, 1024)      0         
_________________________________________________________________
separable_conv2d_1138 (Separ (None, 16, 16, 16)        25616     
_________________________________________________________________
batch_normalization_638 (Bat (None, 16, 16, 16)        64        
_________________________________________________________________
activation_1285 (Activation) (None, 16, 16, 16)        0         
_________________________________________________________________
dropout_1285 (Dropout)       (None, 16, 16, 16)        0         
_________________________________________________________________
separable_conv2d_1139 (Separ (None, 16, 16, 64)        1232      
_________________________________________________________________
activation_1286 (Activation) (None, 16, 16, 64)        0         
_________________________________________________________________
dropout_1286 (Dropout)       (None, 16, 16, 64)        0         
_________________________________________________________________
separable_conv2d_1140 (Separ (None, 16, 16, 16)        1616      
_________________________________________________________________
activation_1287 (Activation) (None, 16, 16, 16)        0         
_________________________________________________________________
dropout_1287 (Dropout)       (None, 16, 16, 16)        0         
_________________________________________________________________
flatten_120 (Flatten)        (None, 4096)              0         
_________________________________________________________________
dense_267 (Dense)            (None, 4096)              16781312  
_________________________________________________________________
activation_1288 (Activation) (None, 4096)              0         
_________________________________________________________________
dropout_1288 (Dropout)       (None, 4096)              0         
_________________________________________________________________
dense_268 (Dense)            (None, 100)               409700    
=================================================================
Total params: 18,883,887
Trainable params: 18,877,711
Non-trainable params: 6,176
_________________________________________________________________
