Model: "sequential_271"
_________________________________________________________________
Layer (type)                 Output Shape              Param #   
=================================================================
separable_conv2d_2349 (Separ (None, 32, 32, 1024)      4123      
_________________________________________________________________
batch_normalization_1279 (Ba (None, 32, 32, 1024)      4096      
_________________________________________________________________
activation_2597 (Activation) (None, 32, 32, 1024)      0         
_________________________________________________________________
dropout_2597 (Dropout)       (None, 32, 32, 1024)      0         
_________________________________________________________________
separable_conv2d_2350 (Separ (None, 32, 32, 32)        42016     
_________________________________________________________________
activation_2598 (Activation) (None, 32, 32, 32)        0         
_________________________________________________________________
dropout_2598 (Dropout)       (None, 32, 32, 32)        0         
_________________________________________________________________
max_pooling2d_457 (MaxPoolin (None, 16, 16, 32)        0         
_________________________________________________________________
separable_conv2d_2351 (Separ (None, 16, 16, 512)       17184     
_________________________________________________________________
activation_2599 (Activation) (None, 16, 16, 512)       0         
_________________________________________________________________
dropout_2599 (Dropout)       (None, 16, 16, 512)       0         
_________________________________________________________________
separable_conv2d_2352 (Separ (None, 16, 16, 1024)      529920    
_________________________________________________________________
batch_normalization_1280 (Ba (None, 16, 16, 1024)      4096      
_________________________________________________________________
activation_2600 (Activation) (None, 16, 16, 1024)      0         
_________________________________________________________________
dropout_2600 (Dropout)       (None, 16, 16, 1024)      0         
_________________________________________________________________
separable_conv2d_2353 (Separ (None, 16, 16, 1024)      1058816   
_________________________________________________________________
batch_normalization_1281 (Ba (None, 16, 16, 1024)      4096      
_________________________________________________________________
activation_2601 (Activation) (None, 16, 16, 1024)      0         
_________________________________________________________________
dropout_2601 (Dropout)       (None, 16, 16, 1024)      0         
_________________________________________________________________
separable_conv2d_2354 (Separ (None, 16, 16, 16)        25616     
_________________________________________________________________
batch_normalization_1282 (Ba (None, 16, 16, 16)        64        
_________________________________________________________________
activation_2602 (Activation) (None, 16, 16, 16)        0         
_________________________________________________________________
dropout_2602 (Dropout)       (None, 16, 16, 16)        0         
_________________________________________________________________
separable_conv2d_2355 (Separ (None, 16, 16, 64)        1232      
_________________________________________________________________
activation_2603 (Activation) (None, 16, 16, 64)        0         
_________________________________________________________________
dropout_2603 (Dropout)       (None, 16, 16, 64)        0         
_________________________________________________________________
separable_conv2d_2356 (Separ (None, 16, 16, 16)        1616      
_________________________________________________________________
activation_2604 (Activation) (None, 16, 16, 16)        0         
_________________________________________________________________
dropout_2604 (Dropout)       (None, 16, 16, 16)        0         
_________________________________________________________________
flatten_271 (Flatten)        (None, 4096)              0         
_________________________________________________________________
dense_519 (Dense)            (None, 4096)              16781312  
_________________________________________________________________
activation_2605 (Activation) (None, 4096)              0         
_________________________________________________________________
dropout_2605 (Dropout)       (None, 4096)              0         
_________________________________________________________________
dense_520 (Dense)            (None, 100)               409700    
=================================================================
Total params: 18,883,887
Trainable params: 18,877,711
Non-trainable params: 6,176
_________________________________________________________________
