Model: "sequential_66"
_________________________________________________________________
Layer (type)                 Output Shape              Param #   
=================================================================
separable_conv2d_648 (Separa (None, 32, 32, 1024)      4123      
_________________________________________________________________
batch_normalization_365 (Bat (None, 32, 32, 1024)      4096      
_________________________________________________________________
activation_739 (Activation)  (None, 32, 32, 1024)      0         
_________________________________________________________________
dropout_739 (Dropout)        (None, 32, 32, 1024)      0         
_________________________________________________________________
max_pooling2d_147 (MaxPoolin (None, 16, 16, 1024)      0         
_________________________________________________________________
separable_conv2d_649 (Separa (None, 16, 16, 32)        42016     
_________________________________________________________________
activation_740 (Activation)  (None, 16, 16, 32)        0         
_________________________________________________________________
dropout_740 (Dropout)        (None, 16, 16, 32)        0         
_________________________________________________________________
max_pooling2d_148 (MaxPoolin (None, 8, 8, 32)          0         
_________________________________________________________________
separable_conv2d_650 (Separa (None, 8, 8, 512)         17184     
_________________________________________________________________
activation_741 (Activation)  (None, 8, 8, 512)         0         
_________________________________________________________________
dropout_741 (Dropout)        (None, 8, 8, 512)         0         
_________________________________________________________________
separable_conv2d_651 (Separa (None, 8, 8, 1024)        529920    
_________________________________________________________________
batch_normalization_366 (Bat (None, 8, 8, 1024)        4096      
_________________________________________________________________
activation_742 (Activation)  (None, 8, 8, 1024)        0         
_________________________________________________________________
dropout_742 (Dropout)        (None, 8, 8, 1024)        0         
_________________________________________________________________
separable_conv2d_652 (Separa (None, 8, 8, 1024)        1058816   
_________________________________________________________________
batch_normalization_367 (Bat (None, 8, 8, 1024)        4096      
_________________________________________________________________
activation_743 (Activation)  (None, 8, 8, 1024)        0         
_________________________________________________________________
dropout_743 (Dropout)        (None, 8, 8, 1024)        0         
_________________________________________________________________
separable_conv2d_653 (Separa (None, 8, 8, 16)          25616     
_________________________________________________________________
batch_normalization_368 (Bat (None, 8, 8, 16)          64        
_________________________________________________________________
activation_744 (Activation)  (None, 8, 8, 16)          0         
_________________________________________________________________
dropout_744 (Dropout)        (None, 8, 8, 16)          0         
_________________________________________________________________
separable_conv2d_654 (Separa (None, 8, 8, 16)          416       
_________________________________________________________________
batch_normalization_369 (Bat (None, 8, 8, 16)          64        
_________________________________________________________________
activation_745 (Activation)  (None, 8, 8, 16)          0         
_________________________________________________________________
dropout_745 (Dropout)        (None, 8, 8, 16)          0         
_________________________________________________________________
separable_conv2d_655 (Separa (None, 8, 8, 512)         8848      
_________________________________________________________________
activation_746 (Activation)  (None, 8, 8, 512)         0         
_________________________________________________________________
dropout_746 (Dropout)        (None, 8, 8, 512)         0         
_________________________________________________________________
separable_conv2d_656 (Separa (None, 8, 8, 64)          37440     
_________________________________________________________________
activation_747 (Activation)  (None, 8, 8, 64)          0         
_________________________________________________________________
dropout_747 (Dropout)        (None, 8, 8, 64)          0         
_________________________________________________________________
separable_conv2d_657 (Separa (None, 8, 8, 8)           1096      
_________________________________________________________________
activation_748 (Activation)  (None, 8, 8, 8)           0         
_________________________________________________________________
dropout_748 (Dropout)        (None, 8, 8, 8)           0         
_________________________________________________________________
flatten_66 (Flatten)         (None, 512)               0         
_________________________________________________________________
dense_157 (Dense)            (None, 4096)              2101248   
_________________________________________________________________
activation_749 (Activation)  (None, 4096)              0         
_________________________________________________________________
dropout_749 (Dropout)        (None, 4096)              0         
_________________________________________________________________
dense_158 (Dense)            (None, 256)               1048832   
_________________________________________________________________
activation_750 (Activation)  (None, 256)               0         
_________________________________________________________________
dropout_750 (Dropout)        (None, 256)               0         
_________________________________________________________________
dense_159 (Dense)            (None, 100)               25700     
=================================================================
Total params: 4,913,671
Trainable params: 4,907,463
Non-trainable params: 6,208
_________________________________________________________________
