Model: "sequential_289"
_________________________________________________________________
Layer (type)                 Output Shape              Param #   
=================================================================
separable_conv2d_2492 (Separ (None, 32, 32, 1024)      4123      
_________________________________________________________________
batch_normalization_1349 (Ba (None, 32, 32, 1024)      4096      
_________________________________________________________________
activation_2745 (Activation) (None, 32, 32, 1024)      0         
_________________________________________________________________
dropout_2745 (Dropout)       (None, 32, 32, 1024)      0         
_________________________________________________________________
separable_conv2d_2493 (Separ (None, 32, 32, 32)        42016     
_________________________________________________________________
activation_2746 (Activation) (None, 32, 32, 32)        0         
_________________________________________________________________
dropout_2746 (Dropout)       (None, 32, 32, 32)        0         
_________________________________________________________________
max_pooling2d_475 (MaxPoolin (None, 16, 16, 32)        0         
_________________________________________________________________
separable_conv2d_2494 (Separ (None, 16, 16, 512)       17184     
_________________________________________________________________
activation_2747 (Activation) (None, 16, 16, 512)       0         
_________________________________________________________________
dropout_2747 (Dropout)       (None, 16, 16, 512)       0         
_________________________________________________________________
separable_conv2d_2495 (Separ (None, 16, 16, 1024)      529920    
_________________________________________________________________
batch_normalization_1350 (Ba (None, 16, 16, 1024)      4096      
_________________________________________________________________
activation_2748 (Activation) (None, 16, 16, 1024)      0         
_________________________________________________________________
dropout_2748 (Dropout)       (None, 16, 16, 1024)      0         
_________________________________________________________________
separable_conv2d_2496 (Separ (None, 16, 16, 1024)      1058816   
_________________________________________________________________
batch_normalization_1351 (Ba (None, 16, 16, 1024)      4096      
_________________________________________________________________
activation_2749 (Activation) (None, 16, 16, 1024)      0         
_________________________________________________________________
dropout_2749 (Dropout)       (None, 16, 16, 1024)      0         
_________________________________________________________________
separable_conv2d_2497 (Separ (None, 16, 16, 16)        25616     
_________________________________________________________________
batch_normalization_1352 (Ba (None, 16, 16, 16)        64        
_________________________________________________________________
activation_2750 (Activation) (None, 16, 16, 16)        0         
_________________________________________________________________
dropout_2750 (Dropout)       (None, 16, 16, 16)        0         
_________________________________________________________________
separable_conv2d_2498 (Separ (None, 16, 16, 64)        1232      
_________________________________________________________________
activation_2751 (Activation) (None, 16, 16, 64)        0         
_________________________________________________________________
dropout_2751 (Dropout)       (None, 16, 16, 64)        0         
_________________________________________________________________
separable_conv2d_2499 (Separ (None, 16, 16, 16)        1616      
_________________________________________________________________
activation_2752 (Activation) (None, 16, 16, 16)        0         
_________________________________________________________________
dropout_2752 (Dropout)       (None, 16, 16, 16)        0         
_________________________________________________________________
flatten_289 (Flatten)        (None, 4096)              0         
_________________________________________________________________
dense_542 (Dense)            (None, 100)               409700    
=================================================================
Total params: 2,102,575
Trainable params: 2,096,399
Non-trainable params: 6,176
_________________________________________________________________
