Model: "sequential_301"
_________________________________________________________________
Layer (type)                 Output Shape              Param #   
=================================================================
separable_conv2d_2589 (Separ (None, 32, 32, 1024)      4123      
_________________________________________________________________
batch_normalization_1395 (Ba (None, 32, 32, 1024)      4096      
_________________________________________________________________
activation_2846 (Activation) (None, 32, 32, 1024)      0         
_________________________________________________________________
dropout_2846 (Dropout)       (None, 32, 32, 1024)      0         
_________________________________________________________________
separable_conv2d_2590 (Separ (None, 32, 32, 32)        42016     
_________________________________________________________________
activation_2847 (Activation) (None, 32, 32, 32)        0         
_________________________________________________________________
dropout_2847 (Dropout)       (None, 32, 32, 32)        0         
_________________________________________________________________
max_pooling2d_489 (MaxPoolin (None, 16, 16, 32)        0         
_________________________________________________________________
separable_conv2d_2591 (Separ (None, 16, 16, 512)       17184     
_________________________________________________________________
activation_2848 (Activation) (None, 16, 16, 512)       0         
_________________________________________________________________
dropout_2848 (Dropout)       (None, 16, 16, 512)       0         
_________________________________________________________________
separable_conv2d_2592 (Separ (None, 16, 16, 1024)      529920    
_________________________________________________________________
batch_normalization_1396 (Ba (None, 16, 16, 1024)      4096      
_________________________________________________________________
activation_2849 (Activation) (None, 16, 16, 1024)      0         
_________________________________________________________________
dropout_2849 (Dropout)       (None, 16, 16, 1024)      0         
_________________________________________________________________
separable_conv2d_2593 (Separ (None, 16, 16, 1024)      1058816   
_________________________________________________________________
batch_normalization_1397 (Ba (None, 16, 16, 1024)      4096      
_________________________________________________________________
activation_2850 (Activation) (None, 16, 16, 1024)      0         
_________________________________________________________________
dropout_2850 (Dropout)       (None, 16, 16, 1024)      0         
_________________________________________________________________
separable_conv2d_2594 (Separ (None, 16, 16, 16)        25616     
_________________________________________________________________
batch_normalization_1398 (Ba (None, 16, 16, 16)        64        
_________________________________________________________________
activation_2851 (Activation) (None, 16, 16, 16)        0         
_________________________________________________________________
dropout_2851 (Dropout)       (None, 16, 16, 16)        0         
_________________________________________________________________
separable_conv2d_2595 (Separ (None, 16, 16, 64)        1232      
_________________________________________________________________
activation_2852 (Activation) (None, 16, 16, 64)        0         
_________________________________________________________________
dropout_2852 (Dropout)       (None, 16, 16, 64)        0         
_________________________________________________________________
separable_conv2d_2596 (Separ (None, 16, 16, 16)        1616      
_________________________________________________________________
activation_2853 (Activation) (None, 16, 16, 16)        0         
_________________________________________________________________
dropout_2853 (Dropout)       (None, 16, 16, 16)        0         
_________________________________________________________________
flatten_301 (Flatten)        (None, 4096)              0         
_________________________________________________________________
dense_558 (Dense)            (None, 100)               409700    
=================================================================
Total params: 2,102,575
Trainable params: 2,096,399
Non-trainable params: 6,176
_________________________________________________________________
