Model: "sequential_245"
_________________________________________________________________
Layer (type)                 Output Shape              Param #   
=================================================================
separable_conv2d_2141 (Separ (None, 32, 32, 1024)      4123      
_________________________________________________________________
batch_normalization_1178 (Ba (None, 32, 32, 1024)      4096      
_________________________________________________________________
activation_2383 (Activation) (None, 32, 32, 1024)      0         
_________________________________________________________________
dropout_2383 (Dropout)       (None, 32, 32, 1024)      0         
_________________________________________________________________
separable_conv2d_2142 (Separ (None, 32, 32, 32)        42016     
_________________________________________________________________
activation_2384 (Activation) (None, 32, 32, 32)        0         
_________________________________________________________________
dropout_2384 (Dropout)       (None, 32, 32, 32)        0         
_________________________________________________________________
max_pooling2d_430 (MaxPoolin (None, 16, 16, 32)        0         
_________________________________________________________________
separable_conv2d_2143 (Separ (None, 16, 16, 512)       17184     
_________________________________________________________________
activation_2385 (Activation) (None, 16, 16, 512)       0         
_________________________________________________________________
dropout_2385 (Dropout)       (None, 16, 16, 512)       0         
_________________________________________________________________
separable_conv2d_2144 (Separ (None, 16, 16, 1024)      529920    
_________________________________________________________________
batch_normalization_1179 (Ba (None, 16, 16, 1024)      4096      
_________________________________________________________________
activation_2386 (Activation) (None, 16, 16, 1024)      0         
_________________________________________________________________
dropout_2386 (Dropout)       (None, 16, 16, 1024)      0         
_________________________________________________________________
separable_conv2d_2145 (Separ (None, 16, 16, 1024)      1058816   
_________________________________________________________________
batch_normalization_1180 (Ba (None, 16, 16, 1024)      4096      
_________________________________________________________________
activation_2387 (Activation) (None, 16, 16, 1024)      0         
_________________________________________________________________
dropout_2387 (Dropout)       (None, 16, 16, 1024)      0         
_________________________________________________________________
separable_conv2d_2146 (Separ (None, 16, 16, 16)        25616     
_________________________________________________________________
batch_normalization_1181 (Ba (None, 16, 16, 16)        64        
_________________________________________________________________
activation_2388 (Activation) (None, 16, 16, 16)        0         
_________________________________________________________________
dropout_2388 (Dropout)       (None, 16, 16, 16)        0         
_________________________________________________________________
separable_conv2d_2147 (Separ (None, 16, 16, 64)        1232      
_________________________________________________________________
activation_2389 (Activation) (None, 16, 16, 64)        0         
_________________________________________________________________
dropout_2389 (Dropout)       (None, 16, 16, 64)        0         
_________________________________________________________________
separable_conv2d_2148 (Separ (None, 16, 16, 16)        1616      
_________________________________________________________________
activation_2390 (Activation) (None, 16, 16, 16)        0         
_________________________________________________________________
dropout_2390 (Dropout)       (None, 16, 16, 16)        0         
_________________________________________________________________
flatten_245 (Flatten)        (None, 4096)              0         
_________________________________________________________________
dense_487 (Dense)            (None, 100)               409700    
=================================================================
Total params: 2,102,575
Trainable params: 2,096,399
Non-trainable params: 6,176
_________________________________________________________________
