Model: "sequential_236"
_________________________________________________________________
Layer (type)                 Output Shape              Param #   
=================================================================
separable_conv2d_2069 (Separ (None, 32, 32, 1024)      4123      
_________________________________________________________________
batch_normalization_1142 (Ba (None, 32, 32, 1024)      4096      
_________________________________________________________________
activation_2307 (Activation) (None, 32, 32, 1024)      0         
_________________________________________________________________
dropout_2307 (Dropout)       (None, 32, 32, 1024)      0         
_________________________________________________________________
separable_conv2d_2070 (Separ (None, 32, 32, 32)        42016     
_________________________________________________________________
activation_2308 (Activation) (None, 32, 32, 32)        0         
_________________________________________________________________
dropout_2308 (Dropout)       (None, 32, 32, 32)        0         
_________________________________________________________________
max_pooling2d_421 (MaxPoolin (None, 16, 16, 32)        0         
_________________________________________________________________
separable_conv2d_2071 (Separ (None, 16, 16, 512)       17184     
_________________________________________________________________
activation_2309 (Activation) (None, 16, 16, 512)       0         
_________________________________________________________________
dropout_2309 (Dropout)       (None, 16, 16, 512)       0         
_________________________________________________________________
separable_conv2d_2072 (Separ (None, 16, 16, 1024)      529920    
_________________________________________________________________
batch_normalization_1143 (Ba (None, 16, 16, 1024)      4096      
_________________________________________________________________
activation_2310 (Activation) (None, 16, 16, 1024)      0         
_________________________________________________________________
dropout_2310 (Dropout)       (None, 16, 16, 1024)      0         
_________________________________________________________________
separable_conv2d_2073 (Separ (None, 16, 16, 1024)      1058816   
_________________________________________________________________
batch_normalization_1144 (Ba (None, 16, 16, 1024)      4096      
_________________________________________________________________
activation_2311 (Activation) (None, 16, 16, 1024)      0         
_________________________________________________________________
dropout_2311 (Dropout)       (None, 16, 16, 1024)      0         
_________________________________________________________________
separable_conv2d_2074 (Separ (None, 16, 16, 16)        25616     
_________________________________________________________________
batch_normalization_1145 (Ba (None, 16, 16, 16)        64        
_________________________________________________________________
activation_2312 (Activation) (None, 16, 16, 16)        0         
_________________________________________________________________
dropout_2312 (Dropout)       (None, 16, 16, 16)        0         
_________________________________________________________________
separable_conv2d_2075 (Separ (None, 16, 16, 64)        1232      
_________________________________________________________________
activation_2313 (Activation) (None, 16, 16, 64)        0         
_________________________________________________________________
dropout_2313 (Dropout)       (None, 16, 16, 64)        0         
_________________________________________________________________
separable_conv2d_2076 (Separ (None, 16, 16, 16)        1616      
_________________________________________________________________
activation_2314 (Activation) (None, 16, 16, 16)        0         
_________________________________________________________________
dropout_2314 (Dropout)       (None, 16, 16, 16)        0         
_________________________________________________________________
flatten_236 (Flatten)        (None, 4096)              0         
_________________________________________________________________
dense_474 (Dense)            (None, 100)               409700    
=================================================================
Total params: 2,102,575
Trainable params: 2,096,399
Non-trainable params: 6,176
_________________________________________________________________
