Model: "sequential_367"
_________________________________________________________________
Layer (type)                 Output Shape              Param #   
=================================================================
separable_conv2d_3115 (Separ (None, 32, 32, 1024)      4123      
_________________________________________________________________
batch_normalization_1666 (Ba (None, 32, 32, 1024)      4096      
_________________________________________________________________
activation_3382 (Activation) (None, 32, 32, 1024)      0         
_________________________________________________________________
dropout_3382 (Dropout)       (None, 32, 32, 1024)      0         
_________________________________________________________________
separable_conv2d_3116 (Separ (None, 32, 32, 32)        42016     
_________________________________________________________________
activation_3383 (Activation) (None, 32, 32, 32)        0         
_________________________________________________________________
dropout_3383 (Dropout)       (None, 32, 32, 32)        0         
_________________________________________________________________
max_pooling2d_563 (MaxPoolin (None, 16, 16, 32)        0         
_________________________________________________________________
separable_conv2d_3117 (Separ (None, 16, 16, 512)       17184     
_________________________________________________________________
activation_3384 (Activation) (None, 16, 16, 512)       0         
_________________________________________________________________
dropout_3384 (Dropout)       (None, 16, 16, 512)       0         
_________________________________________________________________
separable_conv2d_3118 (Separ (None, 16, 16, 1024)      529920    
_________________________________________________________________
batch_normalization_1667 (Ba (None, 16, 16, 1024)      4096      
_________________________________________________________________
activation_3385 (Activation) (None, 16, 16, 1024)      0         
_________________________________________________________________
dropout_3385 (Dropout)       (None, 16, 16, 1024)      0         
_________________________________________________________________
separable_conv2d_3119 (Separ (None, 16, 16, 1024)      1058816   
_________________________________________________________________
batch_normalization_1668 (Ba (None, 16, 16, 1024)      4096      
_________________________________________________________________
activation_3386 (Activation) (None, 16, 16, 1024)      0         
_________________________________________________________________
dropout_3386 (Dropout)       (None, 16, 16, 1024)      0         
_________________________________________________________________
separable_conv2d_3120 (Separ (None, 16, 16, 16)        25616     
_________________________________________________________________
batch_normalization_1669 (Ba (None, 16, 16, 16)        64        
_________________________________________________________________
activation_3387 (Activation) (None, 16, 16, 16)        0         
_________________________________________________________________
dropout_3387 (Dropout)       (None, 16, 16, 16)        0         
_________________________________________________________________
separable_conv2d_3121 (Separ (None, 16, 16, 64)        1232      
_________________________________________________________________
activation_3388 (Activation) (None, 16, 16, 64)        0         
_________________________________________________________________
dropout_3388 (Dropout)       (None, 16, 16, 64)        0         
_________________________________________________________________
separable_conv2d_3122 (Separ (None, 16, 16, 16)        1616      
_________________________________________________________________
activation_3389 (Activation) (None, 16, 16, 16)        0         
_________________________________________________________________
dropout_3389 (Dropout)       (None, 16, 16, 16)        0         
_________________________________________________________________
flatten_367 (Flatten)        (None, 4096)              0         
_________________________________________________________________
dense_634 (Dense)            (None, 100)               409700    
=================================================================
Total params: 2,102,575
Trainable params: 2,096,399
Non-trainable params: 6,176
_________________________________________________________________
