Model: "sequential_296"
_________________________________________________________________
Layer (type)                 Output Shape              Param #   
=================================================================
separable_conv2d_2548 (Separ (None, 32, 32, 1024)      4123      
_________________________________________________________________
batch_normalization_1376 (Ba (None, 32, 32, 1024)      4096      
_________________________________________________________________
activation_2803 (Activation) (None, 32, 32, 1024)      0         
_________________________________________________________________
dropout_2803 (Dropout)       (None, 32, 32, 1024)      0         
_________________________________________________________________
separable_conv2d_2549 (Separ (None, 32, 32, 32)        42016     
_________________________________________________________________
activation_2804 (Activation) (None, 32, 32, 32)        0         
_________________________________________________________________
dropout_2804 (Dropout)       (None, 32, 32, 32)        0         
_________________________________________________________________
max_pooling2d_483 (MaxPoolin (None, 16, 16, 32)        0         
_________________________________________________________________
separable_conv2d_2550 (Separ (None, 16, 16, 512)       17184     
_________________________________________________________________
activation_2805 (Activation) (None, 16, 16, 512)       0         
_________________________________________________________________
dropout_2805 (Dropout)       (None, 16, 16, 512)       0         
_________________________________________________________________
separable_conv2d_2551 (Separ (None, 16, 16, 1024)      529920    
_________________________________________________________________
batch_normalization_1377 (Ba (None, 16, 16, 1024)      4096      
_________________________________________________________________
activation_2806 (Activation) (None, 16, 16, 1024)      0         
_________________________________________________________________
dropout_2806 (Dropout)       (None, 16, 16, 1024)      0         
_________________________________________________________________
separable_conv2d_2552 (Separ (None, 16, 16, 1024)      1058816   
_________________________________________________________________
batch_normalization_1378 (Ba (None, 16, 16, 1024)      4096      
_________________________________________________________________
activation_2807 (Activation) (None, 16, 16, 1024)      0         
_________________________________________________________________
dropout_2807 (Dropout)       (None, 16, 16, 1024)      0         
_________________________________________________________________
separable_conv2d_2553 (Separ (None, 16, 16, 16)        25616     
_________________________________________________________________
batch_normalization_1379 (Ba (None, 16, 16, 16)        64        
_________________________________________________________________
activation_2808 (Activation) (None, 16, 16, 16)        0         
_________________________________________________________________
dropout_2808 (Dropout)       (None, 16, 16, 16)        0         
_________________________________________________________________
separable_conv2d_2554 (Separ (None, 16, 16, 64)        1232      
_________________________________________________________________
activation_2809 (Activation) (None, 16, 16, 64)        0         
_________________________________________________________________
dropout_2809 (Dropout)       (None, 16, 16, 64)        0         
_________________________________________________________________
separable_conv2d_2555 (Separ (None, 16, 16, 16)        1616      
_________________________________________________________________
activation_2810 (Activation) (None, 16, 16, 16)        0         
_________________________________________________________________
dropout_2810 (Dropout)       (None, 16, 16, 16)        0         
_________________________________________________________________
flatten_296 (Flatten)        (None, 4096)              0         
_________________________________________________________________
dense_551 (Dense)            (None, 4096)              16781312  
_________________________________________________________________
activation_2811 (Activation) (None, 4096)              0         
_________________________________________________________________
dropout_2811 (Dropout)       (None, 4096)              0         
_________________________________________________________________
dense_552 (Dense)            (None, 100)               409700    
=================================================================
Total params: 18,883,887
Trainable params: 18,877,711
Non-trainable params: 6,176
_________________________________________________________________
