Model: "sequential_129"
_________________________________________________________________
Layer (type)                 Output Shape              Param #   
=================================================================
separable_conv2d_1209 (Separ (None, 32, 32, 1024)      4123      
_________________________________________________________________
batch_normalization_677 (Bat (None, 32, 32, 1024)      4096      
_________________________________________________________________
activation_1365 (Activation) (None, 32, 32, 1024)      0         
_________________________________________________________________
dropout_1365 (Dropout)       (None, 32, 32, 1024)      0         
_________________________________________________________________
max_pooling2d_274 (MaxPoolin (None, 16, 16, 1024)      0         
_________________________________________________________________
separable_conv2d_1210 (Separ (None, 16, 16, 32)        42016     
_________________________________________________________________
activation_1366 (Activation) (None, 16, 16, 32)        0         
_________________________________________________________________
dropout_1366 (Dropout)       (None, 16, 16, 32)        0         
_________________________________________________________________
max_pooling2d_275 (MaxPoolin (None, 8, 8, 32)          0         
_________________________________________________________________
separable_conv2d_1211 (Separ (None, 8, 8, 512)         17184     
_________________________________________________________________
activation_1367 (Activation) (None, 8, 8, 512)         0         
_________________________________________________________________
dropout_1367 (Dropout)       (None, 8, 8, 512)         0         
_________________________________________________________________
separable_conv2d_1212 (Separ (None, 8, 8, 1024)        529920    
_________________________________________________________________
batch_normalization_678 (Bat (None, 8, 8, 1024)        4096      
_________________________________________________________________
activation_1368 (Activation) (None, 8, 8, 1024)        0         
_________________________________________________________________
dropout_1368 (Dropout)       (None, 8, 8, 1024)        0         
_________________________________________________________________
separable_conv2d_1213 (Separ (None, 8, 8, 1024)        1058816   
_________________________________________________________________
batch_normalization_679 (Bat (None, 8, 8, 1024)        4096      
_________________________________________________________________
activation_1369 (Activation) (None, 8, 8, 1024)        0         
_________________________________________________________________
dropout_1369 (Dropout)       (None, 8, 8, 1024)        0         
_________________________________________________________________
separable_conv2d_1214 (Separ (None, 8, 8, 16)          25616     
_________________________________________________________________
batch_normalization_680 (Bat (None, 8, 8, 16)          64        
_________________________________________________________________
activation_1370 (Activation) (None, 8, 8, 16)          0         
_________________________________________________________________
dropout_1370 (Dropout)       (None, 8, 8, 16)          0         
_________________________________________________________________
separable_conv2d_1215 (Separ (None, 8, 8, 16)          416       
_________________________________________________________________
batch_normalization_681 (Bat (None, 8, 8, 16)          64        
_________________________________________________________________
activation_1371 (Activation) (None, 8, 8, 16)          0         
_________________________________________________________________
dropout_1371 (Dropout)       (None, 8, 8, 16)          0         
_________________________________________________________________
separable_conv2d_1216 (Separ (None, 8, 8, 8)           280       
_________________________________________________________________
activation_1372 (Activation) (None, 8, 8, 8)           0         
_________________________________________________________________
dropout_1372 (Dropout)       (None, 8, 8, 8)           0         
_________________________________________________________________
flatten_129 (Flatten)        (None, 512)               0         
_________________________________________________________________
dense_285 (Dense)            (None, 4096)              2101248   
_________________________________________________________________
activation_1373 (Activation) (None, 4096)              0         
_________________________________________________________________
dropout_1373 (Dropout)       (None, 4096)              0         
_________________________________________________________________
dense_286 (Dense)            (None, 100)               409700    
=================================================================
Total params: 4,201,735
Trainable params: 4,195,527
Non-trainable params: 6,208
_________________________________________________________________
