Model: "sequential_286"
_________________________________________________________________
Layer (type)                 Output Shape              Param #   
=================================================================
separable_conv2d_2468 (Separ (None, 32, 32, 1024)      4123      
_________________________________________________________________
batch_normalization_1336 (Ba (None, 32, 32, 1024)      4096      
_________________________________________________________________
activation_2721 (Activation) (None, 32, 32, 1024)      0         
_________________________________________________________________
dropout_2721 (Dropout)       (None, 32, 32, 1024)      0         
_________________________________________________________________
separable_conv2d_2469 (Separ (None, 32, 32, 32)        42016     
_________________________________________________________________
activation_2722 (Activation) (None, 32, 32, 32)        0         
_________________________________________________________________
dropout_2722 (Dropout)       (None, 32, 32, 32)        0         
_________________________________________________________________
max_pooling2d_472 (MaxPoolin (None, 16, 16, 32)        0         
_________________________________________________________________
separable_conv2d_2470 (Separ (None, 16, 16, 512)       17184     
_________________________________________________________________
activation_2723 (Activation) (None, 16, 16, 512)       0         
_________________________________________________________________
dropout_2723 (Dropout)       (None, 16, 16, 512)       0         
_________________________________________________________________
separable_conv2d_2471 (Separ (None, 16, 16, 1024)      529920    
_________________________________________________________________
batch_normalization_1337 (Ba (None, 16, 16, 1024)      4096      
_________________________________________________________________
activation_2724 (Activation) (None, 16, 16, 1024)      0         
_________________________________________________________________
dropout_2724 (Dropout)       (None, 16, 16, 1024)      0         
_________________________________________________________________
separable_conv2d_2472 (Separ (None, 16, 16, 1024)      1058816   
_________________________________________________________________
batch_normalization_1338 (Ba (None, 16, 16, 1024)      4096      
_________________________________________________________________
activation_2725 (Activation) (None, 16, 16, 1024)      0         
_________________________________________________________________
dropout_2725 (Dropout)       (None, 16, 16, 1024)      0         
_________________________________________________________________
separable_conv2d_2473 (Separ (None, 16, 16, 16)        25616     
_________________________________________________________________
batch_normalization_1339 (Ba (None, 16, 16, 16)        64        
_________________________________________________________________
activation_2726 (Activation) (None, 16, 16, 16)        0         
_________________________________________________________________
dropout_2726 (Dropout)       (None, 16, 16, 16)        0         
_________________________________________________________________
separable_conv2d_2474 (Separ (None, 16, 16, 64)        1232      
_________________________________________________________________
activation_2727 (Activation) (None, 16, 16, 64)        0         
_________________________________________________________________
dropout_2727 (Dropout)       (None, 16, 16, 64)        0         
_________________________________________________________________
separable_conv2d_2475 (Separ (None, 16, 16, 16)        1616      
_________________________________________________________________
activation_2728 (Activation) (None, 16, 16, 16)        0         
_________________________________________________________________
dropout_2728 (Dropout)       (None, 16, 16, 16)        0         
_________________________________________________________________
flatten_286 (Flatten)        (None, 4096)              0         
_________________________________________________________________
dense_539 (Dense)            (None, 100)               409700    
=================================================================
Total params: 2,102,575
Trainable params: 2,096,399
Non-trainable params: 6,176
_________________________________________________________________
