Model: "sequential_137"
_________________________________________________________________
Layer (type)                 Output Shape              Param #   
=================================================================
separable_conv2d_1273 (Separ (None, 32, 32, 1024)      4123      
_________________________________________________________________
batch_normalization_715 (Bat (None, 32, 32, 1024)      4096      
_________________________________________________________________
activation_1437 (Activation) (None, 32, 32, 1024)      0         
_________________________________________________________________
dropout_1437 (Dropout)       (None, 32, 32, 1024)      0         
_________________________________________________________________
max_pooling2d_290 (MaxPoolin (None, 16, 16, 1024)      0         
_________________________________________________________________
separable_conv2d_1274 (Separ (None, 16, 16, 32)        42016     
_________________________________________________________________
activation_1438 (Activation) (None, 16, 16, 32)        0         
_________________________________________________________________
dropout_1438 (Dropout)       (None, 16, 16, 32)        0         
_________________________________________________________________
max_pooling2d_291 (MaxPoolin (None, 8, 8, 32)          0         
_________________________________________________________________
separable_conv2d_1275 (Separ (None, 8, 8, 512)         17184     
_________________________________________________________________
activation_1439 (Activation) (None, 8, 8, 512)         0         
_________________________________________________________________
dropout_1439 (Dropout)       (None, 8, 8, 512)         0         
_________________________________________________________________
separable_conv2d_1276 (Separ (None, 8, 8, 1024)        529920    
_________________________________________________________________
batch_normalization_716 (Bat (None, 8, 8, 1024)        4096      
_________________________________________________________________
activation_1440 (Activation) (None, 8, 8, 1024)        0         
_________________________________________________________________
dropout_1440 (Dropout)       (None, 8, 8, 1024)        0         
_________________________________________________________________
separable_conv2d_1277 (Separ (None, 8, 8, 1024)        1058816   
_________________________________________________________________
batch_normalization_717 (Bat (None, 8, 8, 1024)        4096      
_________________________________________________________________
activation_1441 (Activation) (None, 8, 8, 1024)        0         
_________________________________________________________________
dropout_1441 (Dropout)       (None, 8, 8, 1024)        0         
_________________________________________________________________
separable_conv2d_1278 (Separ (None, 8, 8, 16)          25616     
_________________________________________________________________
batch_normalization_718 (Bat (None, 8, 8, 16)          64        
_________________________________________________________________
activation_1442 (Activation) (None, 8, 8, 16)          0         
_________________________________________________________________
dropout_1442 (Dropout)       (None, 8, 8, 16)          0         
_________________________________________________________________
separable_conv2d_1279 (Separ (None, 8, 8, 512)         8848      
_________________________________________________________________
activation_1443 (Activation) (None, 8, 8, 512)         0         
_________________________________________________________________
dropout_1443 (Dropout)       (None, 8, 8, 512)         0         
_________________________________________________________________
separable_conv2d_1280 (Separ (None, 8, 8, 64)          37440     
_________________________________________________________________
activation_1444 (Activation) (None, 8, 8, 64)          0         
_________________________________________________________________
dropout_1444 (Dropout)       (None, 8, 8, 64)          0         
_________________________________________________________________
separable_conv2d_1281 (Separ (None, 8, 8, 8)           1096      
_________________________________________________________________
activation_1445 (Activation) (None, 8, 8, 8)           0         
_________________________________________________________________
dropout_1445 (Dropout)       (None, 8, 8, 8)           0         
_________________________________________________________________
flatten_137 (Flatten)        (None, 512)               0         
_________________________________________________________________
dense_301 (Dense)            (None, 4096)              2101248   
_________________________________________________________________
activation_1446 (Activation) (None, 4096)              0         
_________________________________________________________________
dropout_1446 (Dropout)       (None, 4096)              0         
_________________________________________________________________
dense_302 (Dense)            (None, 100)               409700    
=================================================================
Total params: 4,248,359
Trainable params: 4,242,183
Non-trainable params: 6,176
_________________________________________________________________
