Model: "sequential_69"
_________________________________________________________________
Layer (type)                 Output Shape              Param #   
=================================================================
separable_conv2d_676 (Separa (None, 32, 32, 1024)      4123      
_________________________________________________________________
batch_normalization_380 (Bat (None, 32, 32, 1024)      4096      
_________________________________________________________________
activation_771 (Activation)  (None, 32, 32, 1024)      0         
_________________________________________________________________
dropout_771 (Dropout)        (None, 32, 32, 1024)      0         
_________________________________________________________________
max_pooling2d_153 (MaxPoolin (None, 16, 16, 1024)      0         
_________________________________________________________________
separable_conv2d_677 (Separa (None, 16, 16, 32)        42016     
_________________________________________________________________
activation_772 (Activation)  (None, 16, 16, 32)        0         
_________________________________________________________________
dropout_772 (Dropout)        (None, 16, 16, 32)        0         
_________________________________________________________________
max_pooling2d_154 (MaxPoolin (None, 8, 8, 32)          0         
_________________________________________________________________
separable_conv2d_678 (Separa (None, 8, 8, 512)         17184     
_________________________________________________________________
activation_773 (Activation)  (None, 8, 8, 512)         0         
_________________________________________________________________
dropout_773 (Dropout)        (None, 8, 8, 512)         0         
_________________________________________________________________
separable_conv2d_679 (Separa (None, 8, 8, 1024)        529920    
_________________________________________________________________
batch_normalization_381 (Bat (None, 8, 8, 1024)        4096      
_________________________________________________________________
activation_774 (Activation)  (None, 8, 8, 1024)        0         
_________________________________________________________________
dropout_774 (Dropout)        (None, 8, 8, 1024)        0         
_________________________________________________________________
separable_conv2d_680 (Separa (None, 8, 8, 1024)        1058816   
_________________________________________________________________
batch_normalization_382 (Bat (None, 8, 8, 1024)        4096      
_________________________________________________________________
activation_775 (Activation)  (None, 8, 8, 1024)        0         
_________________________________________________________________
dropout_775 (Dropout)        (None, 8, 8, 1024)        0         
_________________________________________________________________
separable_conv2d_681 (Separa (None, 8, 8, 16)          25616     
_________________________________________________________________
batch_normalization_383 (Bat (None, 8, 8, 16)          64        
_________________________________________________________________
activation_776 (Activation)  (None, 8, 8, 16)          0         
_________________________________________________________________
dropout_776 (Dropout)        (None, 8, 8, 16)          0         
_________________________________________________________________
separable_conv2d_682 (Separa (None, 8, 8, 8)           280       
_________________________________________________________________
activation_777 (Activation)  (None, 8, 8, 8)           0         
_________________________________________________________________
dropout_777 (Dropout)        (None, 8, 8, 8)           0         
_________________________________________________________________
separable_conv2d_683 (Separa (None, 8, 8, 512)         4680      
_________________________________________________________________
batch_normalization_384 (Bat (None, 8, 8, 512)         2048      
_________________________________________________________________
activation_778 (Activation)  (None, 8, 8, 512)         0         
_________________________________________________________________
dropout_778 (Dropout)        (None, 8, 8, 512)         0         
_________________________________________________________________
separable_conv2d_684 (Separa (None, 8, 8, 512)         267264    
_________________________________________________________________
activation_779 (Activation)  (None, 8, 8, 512)         0         
_________________________________________________________________
dropout_779 (Dropout)        (None, 8, 8, 512)         0         
_________________________________________________________________
flatten_69 (Flatten)         (None, 32768)             0         
_________________________________________________________________
dense_164 (Dense)            (None, 256)               8388864   
_________________________________________________________________
activation_780 (Activation)  (None, 256)               0         
_________________________________________________________________
dropout_780 (Dropout)        (None, 256)               0         
_________________________________________________________________
dense_165 (Dense)            (None, 100)               25700     
=================================================================
Total params: 10,378,863
Trainable params: 10,371,663
Non-trainable params: 7,200
_________________________________________________________________
