Model: "sequential_320"
_________________________________________________________________
Layer (type)                 Output Shape              Param #   
=================================================================
separable_conv2d_2741 (Separ (None, 32, 32, 1024)      4123      
_________________________________________________________________
batch_normalization_1469 (Ba (None, 32, 32, 1024)      4096      
_________________________________________________________________
activation_3000 (Activation) (None, 32, 32, 1024)      0         
_________________________________________________________________
dropout_3000 (Dropout)       (None, 32, 32, 1024)      0         
_________________________________________________________________
separable_conv2d_2742 (Separ (None, 32, 32, 32)        42016     
_________________________________________________________________
batch_normalization_1470 (Ba (None, 32, 32, 32)        128       
_________________________________________________________________
activation_3001 (Activation) (None, 32, 32, 32)        0         
_________________________________________________________________
dropout_3001 (Dropout)       (None, 32, 32, 32)        0         
_________________________________________________________________
max_pooling2d_511 (MaxPoolin (None, 16, 16, 32)        0         
_________________________________________________________________
separable_conv2d_2743 (Separ (None, 16, 16, 512)       17184     
_________________________________________________________________
activation_3002 (Activation) (None, 16, 16, 512)       0         
_________________________________________________________________
dropout_3002 (Dropout)       (None, 16, 16, 512)       0         
_________________________________________________________________
separable_conv2d_2744 (Separ (None, 16, 16, 1024)      529920    
_________________________________________________________________
batch_normalization_1471 (Ba (None, 16, 16, 1024)      4096      
_________________________________________________________________
activation_3003 (Activation) (None, 16, 16, 1024)      0         
_________________________________________________________________
dropout_3003 (Dropout)       (None, 16, 16, 1024)      0         
_________________________________________________________________
separable_conv2d_2745 (Separ (None, 16, 16, 1024)      1058816   
_________________________________________________________________
batch_normalization_1472 (Ba (None, 16, 16, 1024)      4096      
_________________________________________________________________
activation_3004 (Activation) (None, 16, 16, 1024)      0         
_________________________________________________________________
dropout_3004 (Dropout)       (None, 16, 16, 1024)      0         
_________________________________________________________________
separable_conv2d_2746 (Separ (None, 16, 16, 16)        25616     
_________________________________________________________________
batch_normalization_1473 (Ba (None, 16, 16, 16)        64        
_________________________________________________________________
activation_3005 (Activation) (None, 16, 16, 16)        0         
_________________________________________________________________
dropout_3005 (Dropout)       (None, 16, 16, 16)        0         
_________________________________________________________________
separable_conv2d_2747 (Separ (None, 16, 16, 64)        1232      
_________________________________________________________________
activation_3006 (Activation) (None, 16, 16, 64)        0         
_________________________________________________________________
dropout_3006 (Dropout)       (None, 16, 16, 64)        0         
_________________________________________________________________
separable_conv2d_2748 (Separ (None, 16, 16, 16)        1616      
_________________________________________________________________
activation_3007 (Activation) (None, 16, 16, 16)        0         
_________________________________________________________________
dropout_3007 (Dropout)       (None, 16, 16, 16)        0         
_________________________________________________________________
flatten_320 (Flatten)        (None, 4096)              0         
_________________________________________________________________
dense_579 (Dense)            (None, 100)               409700    
=================================================================
Total params: 2,102,703
Trainable params: 2,096,463
Non-trainable params: 6,240
_________________________________________________________________
