Model: "sequential_124"
_________________________________________________________________
Layer (type)                 Output Shape              Param #   
=================================================================
separable_conv2d_1166 (Separ (None, 32, 32, 1024)      4123      
_________________________________________________________________
batch_normalization_653 (Bat (None, 32, 32, 1024)      4096      
_________________________________________________________________
activation_1317 (Activation) (None, 32, 32, 1024)      0         
_________________________________________________________________
dropout_1317 (Dropout)       (None, 32, 32, 1024)      0         
_________________________________________________________________
max_pooling2d_264 (MaxPoolin (None, 16, 16, 1024)      0         
_________________________________________________________________
separable_conv2d_1167 (Separ (None, 16, 16, 128)       140416    
_________________________________________________________________
activation_1318 (Activation) (None, 16, 16, 128)       0         
_________________________________________________________________
dropout_1318 (Dropout)       (None, 16, 16, 128)       0         
_________________________________________________________________
max_pooling2d_265 (MaxPoolin (None, 8, 8, 128)         0         
_________________________________________________________________
separable_conv2d_1168 (Separ (None, 8, 8, 512)         67200     
_________________________________________________________________
activation_1319 (Activation) (None, 8, 8, 512)         0         
_________________________________________________________________
dropout_1319 (Dropout)       (None, 8, 8, 512)         0         
_________________________________________________________________
separable_conv2d_1169 (Separ (None, 8, 8, 32)          21024     
_________________________________________________________________
batch_normalization_654 (Bat (None, 8, 8, 32)          128       
_________________________________________________________________
activation_1320 (Activation) (None, 8, 8, 32)          0         
_________________________________________________________________
dropout_1320 (Dropout)       (None, 8, 8, 32)          0         
_________________________________________________________________
separable_conv2d_1170 (Separ (None, 8, 8, 1024)        34080     
_________________________________________________________________
batch_normalization_655 (Bat (None, 8, 8, 1024)        4096      
_________________________________________________________________
activation_1321 (Activation) (None, 8, 8, 1024)        0         
_________________________________________________________________
dropout_1321 (Dropout)       (None, 8, 8, 1024)        0         
_________________________________________________________________
separable_conv2d_1171 (Separ (None, 8, 8, 16)          25616     
_________________________________________________________________
batch_normalization_656 (Bat (None, 8, 8, 16)          64        
_________________________________________________________________
activation_1322 (Activation) (None, 8, 8, 16)          0         
_________________________________________________________________
dropout_1322 (Dropout)       (None, 8, 8, 16)          0         
_________________________________________________________________
separable_conv2d_1172 (Separ (None, 8, 8, 16)          416       
_________________________________________________________________
batch_normalization_657 (Bat (None, 8, 8, 16)          64        
_________________________________________________________________
activation_1323 (Activation) (None, 8, 8, 16)          0         
_________________________________________________________________
dropout_1323 (Dropout)       (None, 8, 8, 16)          0         
_________________________________________________________________
separable_conv2d_1173 (Separ (None, 8, 8, 8)           280       
_________________________________________________________________
activation_1324 (Activation) (None, 8, 8, 8)           0         
_________________________________________________________________
dropout_1324 (Dropout)       (None, 8, 8, 8)           0         
_________________________________________________________________
flatten_124 (Flatten)        (None, 512)               0         
_________________________________________________________________
dense_275 (Dense)            (None, 4096)              2101248   
_________________________________________________________________
activation_1325 (Activation) (None, 4096)              0         
_________________________________________________________________
dropout_1325 (Dropout)       (None, 4096)              0         
_________________________________________________________________
dense_276 (Dense)            (None, 100)               409700    
=================================================================
Total params: 2,812,551
Trainable params: 2,808,327
Non-trainable params: 4,224
_________________________________________________________________
