Model: "sequential_139"
_________________________________________________________________
Layer (type)                 Output Shape              Param #   
=================================================================
separable_conv2d_1290 (Separ (None, 32, 32, 1024)      4123      
_________________________________________________________________
batch_normalization_724 (Bat (None, 32, 32, 1024)      4096      
_________________________________________________________________
activation_1456 (Activation) (None, 32, 32, 1024)      0         
_________________________________________________________________
dropout_1456 (Dropout)       (None, 32, 32, 1024)      0         
_________________________________________________________________
max_pooling2d_294 (MaxPoolin (None, 16, 16, 1024)      0         
_________________________________________________________________
separable_conv2d_1291 (Separ (None, 16, 16, 32)        42016     
_________________________________________________________________
activation_1457 (Activation) (None, 16, 16, 32)        0         
_________________________________________________________________
dropout_1457 (Dropout)       (None, 16, 16, 32)        0         
_________________________________________________________________
max_pooling2d_295 (MaxPoolin (None, 8, 8, 32)          0         
_________________________________________________________________
separable_conv2d_1292 (Separ (None, 8, 8, 512)         17184     
_________________________________________________________________
activation_1458 (Activation) (None, 8, 8, 512)         0         
_________________________________________________________________
dropout_1458 (Dropout)       (None, 8, 8, 512)         0         
_________________________________________________________________
separable_conv2d_1293 (Separ (None, 8, 8, 1024)        529920    
_________________________________________________________________
batch_normalization_725 (Bat (None, 8, 8, 1024)        4096      
_________________________________________________________________
activation_1459 (Activation) (None, 8, 8, 1024)        0         
_________________________________________________________________
dropout_1459 (Dropout)       (None, 8, 8, 1024)        0         
_________________________________________________________________
separable_conv2d_1294 (Separ (None, 8, 8, 1024)        1058816   
_________________________________________________________________
batch_normalization_726 (Bat (None, 8, 8, 1024)        4096      
_________________________________________________________________
activation_1460 (Activation) (None, 8, 8, 1024)        0         
_________________________________________________________________
dropout_1460 (Dropout)       (None, 8, 8, 1024)        0         
_________________________________________________________________
separable_conv2d_1295 (Separ (None, 8, 8, 64)          74816     
_________________________________________________________________
batch_normalization_727 (Bat (None, 8, 8, 64)          256       
_________________________________________________________________
activation_1461 (Activation) (None, 8, 8, 64)          0         
_________________________________________________________________
dropout_1461 (Dropout)       (None, 8, 8, 64)          0         
_________________________________________________________________
separable_conv2d_1296 (Separ (None, 8, 8, 16)          1616      
_________________________________________________________________
batch_normalization_728 (Bat (None, 8, 8, 16)          64        
_________________________________________________________________
activation_1462 (Activation) (None, 8, 8, 16)          0         
_________________________________________________________________
dropout_1462 (Dropout)       (None, 8, 8, 16)          0         
_________________________________________________________________
separable_conv2d_1297 (Separ (None, 8, 8, 512)         8848      
_________________________________________________________________
activation_1463 (Activation) (None, 8, 8, 512)         0         
_________________________________________________________________
dropout_1463 (Dropout)       (None, 8, 8, 512)         0         
_________________________________________________________________
separable_conv2d_1298 (Separ (None, 8, 8, 64)          37440     
_________________________________________________________________
activation_1464 (Activation) (None, 8, 8, 64)          0         
_________________________________________________________________
dropout_1464 (Dropout)       (None, 8, 8, 64)          0         
_________________________________________________________________
separable_conv2d_1299 (Separ (None, 8, 8, 8)           1096      
_________________________________________________________________
activation_1465 (Activation) (None, 8, 8, 8)           0         
_________________________________________________________________
dropout_1465 (Dropout)       (None, 8, 8, 8)           0         
_________________________________________________________________
flatten_139 (Flatten)        (None, 512)               0         
_________________________________________________________________
dense_305 (Dense)            (None, 4096)              2101248   
_________________________________________________________________
activation_1466 (Activation) (None, 4096)              0         
_________________________________________________________________
dropout_1466 (Dropout)       (None, 4096)              0         
_________________________________________________________________
dense_306 (Dense)            (None, 100)               409700    
=================================================================
Total params: 4,299,431
Trainable params: 4,293,127
Non-trainable params: 6,304
_________________________________________________________________
