Model: "sequential_232"
_________________________________________________________________
Layer (type)                 Output Shape              Param #   
=================================================================
separable_conv2d_2036 (Separ (None, 32, 32, 1024)      4123      
_________________________________________________________________
batch_normalization_1125 (Ba (None, 32, 32, 1024)      4096      
_________________________________________________________________
activation_2272 (Activation) (None, 32, 32, 1024)      0         
_________________________________________________________________
dropout_2272 (Dropout)       (None, 32, 32, 1024)      0         
_________________________________________________________________
separable_conv2d_2037 (Separ (None, 32, 32, 32)        42016     
_________________________________________________________________
activation_2273 (Activation) (None, 32, 32, 32)        0         
_________________________________________________________________
dropout_2273 (Dropout)       (None, 32, 32, 32)        0         
_________________________________________________________________
max_pooling2d_417 (MaxPoolin (None, 16, 16, 32)        0         
_________________________________________________________________
separable_conv2d_2038 (Separ (None, 16, 16, 512)       17184     
_________________________________________________________________
activation_2274 (Activation) (None, 16, 16, 512)       0         
_________________________________________________________________
dropout_2274 (Dropout)       (None, 16, 16, 512)       0         
_________________________________________________________________
separable_conv2d_2039 (Separ (None, 16, 16, 1024)      529920    
_________________________________________________________________
batch_normalization_1126 (Ba (None, 16, 16, 1024)      4096      
_________________________________________________________________
activation_2275 (Activation) (None, 16, 16, 1024)      0         
_________________________________________________________________
dropout_2275 (Dropout)       (None, 16, 16, 1024)      0         
_________________________________________________________________
separable_conv2d_2040 (Separ (None, 16, 16, 1024)      1058816   
_________________________________________________________________
batch_normalization_1127 (Ba (None, 16, 16, 1024)      4096      
_________________________________________________________________
activation_2276 (Activation) (None, 16, 16, 1024)      0         
_________________________________________________________________
dropout_2276 (Dropout)       (None, 16, 16, 1024)      0         
_________________________________________________________________
separable_conv2d_2041 (Separ (None, 16, 16, 16)        25616     
_________________________________________________________________
batch_normalization_1128 (Ba (None, 16, 16, 16)        64        
_________________________________________________________________
activation_2277 (Activation) (None, 16, 16, 16)        0         
_________________________________________________________________
dropout_2277 (Dropout)       (None, 16, 16, 16)        0         
_________________________________________________________________
separable_conv2d_2042 (Separ (None, 16, 16, 64)        1232      
_________________________________________________________________
activation_2278 (Activation) (None, 16, 16, 64)        0         
_________________________________________________________________
dropout_2278 (Dropout)       (None, 16, 16, 64)        0         
_________________________________________________________________
separable_conv2d_2043 (Separ (None, 16, 16, 16)        1616      
_________________________________________________________________
activation_2279 (Activation) (None, 16, 16, 16)        0         
_________________________________________________________________
dropout_2279 (Dropout)       (None, 16, 16, 16)        0         
_________________________________________________________________
flatten_232 (Flatten)        (None, 4096)              0         
_________________________________________________________________
dense_468 (Dense)            (None, 100)               409700    
=================================================================
Total params: 2,102,575
Trainable params: 2,096,399
Non-trainable params: 6,176
_________________________________________________________________
