Model: "sequential_181"
_________________________________________________________________
Layer (type)                 Output Shape              Param #   
=================================================================
separable_conv2d_1634 (Separ (None, 32, 32, 1024)      4123      
_________________________________________________________________
batch_normalization_915 (Bat (None, 32, 32, 1024)      4096      
_________________________________________________________________
activation_1836 (Activation) (None, 32, 32, 1024)      0         
_________________________________________________________________
dropout_1836 (Dropout)       (None, 32, 32, 1024)      0         
_________________________________________________________________
separable_conv2d_1635 (Separ (None, 32, 32, 32)        42016     
_________________________________________________________________
activation_1837 (Activation) (None, 32, 32, 32)        0         
_________________________________________________________________
dropout_1837 (Dropout)       (None, 32, 32, 32)        0         
_________________________________________________________________
max_pooling2d_361 (MaxPoolin (None, 16, 16, 32)        0         
_________________________________________________________________
separable_conv2d_1636 (Separ (None, 16, 16, 512)       17184     
_________________________________________________________________
activation_1838 (Activation) (None, 16, 16, 512)       0         
_________________________________________________________________
dropout_1838 (Dropout)       (None, 16, 16, 512)       0         
_________________________________________________________________
separable_conv2d_1637 (Separ (None, 16, 16, 1024)      529920    
_________________________________________________________________
batch_normalization_916 (Bat (None, 16, 16, 1024)      4096      
_________________________________________________________________
activation_1839 (Activation) (None, 16, 16, 1024)      0         
_________________________________________________________________
dropout_1839 (Dropout)       (None, 16, 16, 1024)      0         
_________________________________________________________________
separable_conv2d_1638 (Separ (None, 16, 16, 1024)      1058816   
_________________________________________________________________
batch_normalization_917 (Bat (None, 16, 16, 1024)      4096      
_________________________________________________________________
activation_1840 (Activation) (None, 16, 16, 1024)      0         
_________________________________________________________________
dropout_1840 (Dropout)       (None, 16, 16, 1024)      0         
_________________________________________________________________
separable_conv2d_1639 (Separ (None, 16, 16, 16)        25616     
_________________________________________________________________
batch_normalization_918 (Bat (None, 16, 16, 16)        64        
_________________________________________________________________
activation_1841 (Activation) (None, 16, 16, 16)        0         
_________________________________________________________________
dropout_1841 (Dropout)       (None, 16, 16, 16)        0         
_________________________________________________________________
separable_conv2d_1640 (Separ (None, 16, 16, 64)        1232      
_________________________________________________________________
activation_1842 (Activation) (None, 16, 16, 64)        0         
_________________________________________________________________
dropout_1842 (Dropout)       (None, 16, 16, 64)        0         
_________________________________________________________________
separable_conv2d_1641 (Separ (None, 16, 16, 16)        1616      
_________________________________________________________________
activation_1843 (Activation) (None, 16, 16, 16)        0         
_________________________________________________________________
dropout_1843 (Dropout)       (None, 16, 16, 16)        0         
_________________________________________________________________
flatten_181 (Flatten)        (None, 4096)              0         
_________________________________________________________________
dense_383 (Dense)            (None, 4096)              16781312  
_________________________________________________________________
activation_1844 (Activation) (None, 4096)              0         
_________________________________________________________________
dropout_1844 (Dropout)       (None, 4096)              0         
_________________________________________________________________
dense_384 (Dense)            (None, 100)               409700    
=================================================================
Total params: 18,883,887
Trainable params: 18,877,711
Non-trainable params: 6,176
_________________________________________________________________
