Model: "sequential_123"
_________________________________________________________________
Layer (type)                 Output Shape              Param #   
=================================================================
separable_conv2d_1158 (Separ (None, 32, 32, 1024)      4123      
_________________________________________________________________
batch_normalization_648 (Bat (None, 32, 32, 1024)      4096      
_________________________________________________________________
activation_1308 (Activation) (None, 32, 32, 1024)      0         
_________________________________________________________________
dropout_1308 (Dropout)       (None, 32, 32, 1024)      0         
_________________________________________________________________
max_pooling2d_262 (MaxPoolin (None, 16, 16, 1024)      0         
_________________________________________________________________
separable_conv2d_1159 (Separ (None, 16, 16, 32)        42016     
_________________________________________________________________
activation_1309 (Activation) (None, 16, 16, 32)        0         
_________________________________________________________________
dropout_1309 (Dropout)       (None, 16, 16, 32)        0         
_________________________________________________________________
max_pooling2d_263 (MaxPoolin (None, 8, 8, 32)          0         
_________________________________________________________________
separable_conv2d_1160 (Separ (None, 8, 8, 512)         17184     
_________________________________________________________________
activation_1310 (Activation) (None, 8, 8, 512)         0         
_________________________________________________________________
dropout_1310 (Dropout)       (None, 8, 8, 512)         0         
_________________________________________________________________
separable_conv2d_1161 (Separ (None, 8, 8, 1024)        529920    
_________________________________________________________________
batch_normalization_649 (Bat (None, 8, 8, 1024)        4096      
_________________________________________________________________
activation_1311 (Activation) (None, 8, 8, 1024)        0         
_________________________________________________________________
dropout_1311 (Dropout)       (None, 8, 8, 1024)        0         
_________________________________________________________________
separable_conv2d_1162 (Separ (None, 8, 8, 1024)        1058816   
_________________________________________________________________
batch_normalization_650 (Bat (None, 8, 8, 1024)        4096      
_________________________________________________________________
activation_1312 (Activation) (None, 8, 8, 1024)        0         
_________________________________________________________________
dropout_1312 (Dropout)       (None, 8, 8, 1024)        0         
_________________________________________________________________
separable_conv2d_1163 (Separ (None, 8, 8, 16)          25616     
_________________________________________________________________
batch_normalization_651 (Bat (None, 8, 8, 16)          64        
_________________________________________________________________
activation_1313 (Activation) (None, 8, 8, 16)          0         
_________________________________________________________________
dropout_1313 (Dropout)       (None, 8, 8, 16)          0         
_________________________________________________________________
separable_conv2d_1164 (Separ (None, 8, 8, 16)          416       
_________________________________________________________________
batch_normalization_652 (Bat (None, 8, 8, 16)          64        
_________________________________________________________________
activation_1314 (Activation) (None, 8, 8, 16)          0         
_________________________________________________________________
dropout_1314 (Dropout)       (None, 8, 8, 16)          0         
_________________________________________________________________
separable_conv2d_1165 (Separ (None, 8, 8, 8)           280       
_________________________________________________________________
activation_1315 (Activation) (None, 8, 8, 8)           0         
_________________________________________________________________
dropout_1315 (Dropout)       (None, 8, 8, 8)           0         
_________________________________________________________________
flatten_123 (Flatten)        (None, 512)               0         
_________________________________________________________________
dense_273 (Dense)            (None, 4096)              2101248   
_________________________________________________________________
activation_1316 (Activation) (None, 4096)              0         
_________________________________________________________________
dropout_1316 (Dropout)       (None, 4096)              0         
_________________________________________________________________
dense_274 (Dense)            (None, 100)               409700    
=================================================================
Total params: 4,201,735
Trainable params: 4,195,527
Non-trainable params: 6,208
_________________________________________________________________
