Model: "sequential_350"
_________________________________________________________________
Layer (type)                 Output Shape              Param #   
=================================================================
separable_conv2d_2980 (Separ (None, 32, 32, 1024)      4123      
_________________________________________________________________
batch_normalization_1591 (Ba (None, 32, 32, 1024)      4096      
_________________________________________________________________
activation_3244 (Activation) (None, 32, 32, 1024)      0         
_________________________________________________________________
dropout_3244 (Dropout)       (None, 32, 32, 1024)      0         
_________________________________________________________________
separable_conv2d_2981 (Separ (None, 32, 32, 32)        42016     
_________________________________________________________________
activation_3245 (Activation) (None, 32, 32, 32)        0         
_________________________________________________________________
dropout_3245 (Dropout)       (None, 32, 32, 32)        0         
_________________________________________________________________
max_pooling2d_546 (MaxPoolin (None, 16, 16, 32)        0         
_________________________________________________________________
separable_conv2d_2982 (Separ (None, 16, 16, 512)       17184     
_________________________________________________________________
activation_3246 (Activation) (None, 16, 16, 512)       0         
_________________________________________________________________
dropout_3246 (Dropout)       (None, 16, 16, 512)       0         
_________________________________________________________________
separable_conv2d_2983 (Separ (None, 16, 16, 1024)      529920    
_________________________________________________________________
batch_normalization_1592 (Ba (None, 16, 16, 1024)      4096      
_________________________________________________________________
activation_3247 (Activation) (None, 16, 16, 1024)      0         
_________________________________________________________________
dropout_3247 (Dropout)       (None, 16, 16, 1024)      0         
_________________________________________________________________
separable_conv2d_2984 (Separ (None, 16, 16, 1024)      1058816   
_________________________________________________________________
batch_normalization_1593 (Ba (None, 16, 16, 1024)      4096      
_________________________________________________________________
activation_3248 (Activation) (None, 16, 16, 1024)      0         
_________________________________________________________________
dropout_3248 (Dropout)       (None, 16, 16, 1024)      0         
_________________________________________________________________
separable_conv2d_2985 (Separ (None, 16, 16, 16)        25616     
_________________________________________________________________
batch_normalization_1594 (Ba (None, 16, 16, 16)        64        
_________________________________________________________________
activation_3249 (Activation) (None, 16, 16, 16)        0         
_________________________________________________________________
dropout_3249 (Dropout)       (None, 16, 16, 16)        0         
_________________________________________________________________
separable_conv2d_2986 (Separ (None, 16, 16, 64)        1232      
_________________________________________________________________
activation_3250 (Activation) (None, 16, 16, 64)        0         
_________________________________________________________________
dropout_3250 (Dropout)       (None, 16, 16, 64)        0         
_________________________________________________________________
separable_conv2d_2987 (Separ (None, 16, 16, 16)        1616      
_________________________________________________________________
activation_3251 (Activation) (None, 16, 16, 16)        0         
_________________________________________________________________
dropout_3251 (Dropout)       (None, 16, 16, 16)        0         
_________________________________________________________________
flatten_350 (Flatten)        (None, 4096)              0         
_________________________________________________________________
dense_614 (Dense)            (None, 4096)              16781312  
_________________________________________________________________
activation_3252 (Activation) (None, 4096)              0         
_________________________________________________________________
dropout_3252 (Dropout)       (None, 4096)              0         
_________________________________________________________________
dense_615 (Dense)            (None, 100)               409700    
=================================================================
Total params: 18,883,887
Trainable params: 18,877,711
Non-trainable params: 6,176
_________________________________________________________________
