Model: "sequential_128"
_________________________________________________________________
Layer (type)                 Output Shape              Param #   
=================================================================
separable_conv2d_1201 (Separ (None, 32, 32, 1024)      4123      
_________________________________________________________________
batch_normalization_672 (Bat (None, 32, 32, 1024)      4096      
_________________________________________________________________
activation_1356 (Activation) (None, 32, 32, 1024)      0         
_________________________________________________________________
dropout_1356 (Dropout)       (None, 32, 32, 1024)      0         
_________________________________________________________________
max_pooling2d_272 (MaxPoolin (None, 16, 16, 1024)      0         
_________________________________________________________________
separable_conv2d_1202 (Separ (None, 16, 16, 32)        42016     
_________________________________________________________________
activation_1357 (Activation) (None, 16, 16, 32)        0         
_________________________________________________________________
dropout_1357 (Dropout)       (None, 16, 16, 32)        0         
_________________________________________________________________
max_pooling2d_273 (MaxPoolin (None, 8, 8, 32)          0         
_________________________________________________________________
separable_conv2d_1203 (Separ (None, 8, 8, 512)         17184     
_________________________________________________________________
activation_1358 (Activation) (None, 8, 8, 512)         0         
_________________________________________________________________
dropout_1358 (Dropout)       (None, 8, 8, 512)         0         
_________________________________________________________________
separable_conv2d_1204 (Separ (None, 8, 8, 1024)        529920    
_________________________________________________________________
batch_normalization_673 (Bat (None, 8, 8, 1024)        4096      
_________________________________________________________________
activation_1359 (Activation) (None, 8, 8, 1024)        0         
_________________________________________________________________
dropout_1359 (Dropout)       (None, 8, 8, 1024)        0         
_________________________________________________________________
separable_conv2d_1205 (Separ (None, 8, 8, 1024)        1058816   
_________________________________________________________________
batch_normalization_674 (Bat (None, 8, 8, 1024)        4096      
_________________________________________________________________
activation_1360 (Activation) (None, 8, 8, 1024)        0         
_________________________________________________________________
dropout_1360 (Dropout)       (None, 8, 8, 1024)        0         
_________________________________________________________________
separable_conv2d_1206 (Separ (None, 8, 8, 16)          25616     
_________________________________________________________________
batch_normalization_675 (Bat (None, 8, 8, 16)          64        
_________________________________________________________________
activation_1361 (Activation) (None, 8, 8, 16)          0         
_________________________________________________________________
dropout_1361 (Dropout)       (None, 8, 8, 16)          0         
_________________________________________________________________
separable_conv2d_1207 (Separ (None, 8, 8, 16)          416       
_________________________________________________________________
batch_normalization_676 (Bat (None, 8, 8, 16)          64        
_________________________________________________________________
activation_1362 (Activation) (None, 8, 8, 16)          0         
_________________________________________________________________
dropout_1362 (Dropout)       (None, 8, 8, 16)          0         
_________________________________________________________________
separable_conv2d_1208 (Separ (None, 8, 8, 8)           280       
_________________________________________________________________
activation_1363 (Activation) (None, 8, 8, 8)           0         
_________________________________________________________________
dropout_1363 (Dropout)       (None, 8, 8, 8)           0         
_________________________________________________________________
flatten_128 (Flatten)        (None, 512)               0         
_________________________________________________________________
dense_283 (Dense)            (None, 4096)              2101248   
_________________________________________________________________
activation_1364 (Activation) (None, 4096)              0         
_________________________________________________________________
dropout_1364 (Dropout)       (None, 4096)              0         
_________________________________________________________________
dense_284 (Dense)            (None, 100)               409700    
=================================================================
Total params: 4,201,735
Trainable params: 4,195,527
Non-trainable params: 6,208
_________________________________________________________________
