Model: "sequential_288"
_________________________________________________________________
Layer (type)                 Output Shape              Param #   
=================================================================
separable_conv2d_2484 (Separ (None, 32, 32, 128)       539       
_________________________________________________________________
batch_normalization_1344 (Ba (None, 32, 32, 128)       512       
_________________________________________________________________
activation_2737 (Activation) (None, 32, 32, 128)       0         
_________________________________________________________________
dropout_2737 (Dropout)       (None, 32, 32, 128)       0         
_________________________________________________________________
separable_conv2d_2485 (Separ (None, 32, 32, 32)        5280      
_________________________________________________________________
batch_normalization_1345 (Ba (None, 32, 32, 32)        128       
_________________________________________________________________
activation_2738 (Activation) (None, 32, 32, 32)        0         
_________________________________________________________________
dropout_2738 (Dropout)       (None, 32, 32, 32)        0         
_________________________________________________________________
max_pooling2d_474 (MaxPoolin (None, 16, 16, 32)        0         
_________________________________________________________________
separable_conv2d_2486 (Separ (None, 16, 16, 1024)      34080     
_________________________________________________________________
activation_2739 (Activation) (None, 16, 16, 1024)      0         
_________________________________________________________________
dropout_2739 (Dropout)       (None, 16, 16, 1024)      0         
_________________________________________________________________
separable_conv2d_2487 (Separ (None, 16, 16, 1024)      1058816   
_________________________________________________________________
batch_normalization_1346 (Ba (None, 16, 16, 1024)      4096      
_________________________________________________________________
activation_2740 (Activation) (None, 16, 16, 1024)      0         
_________________________________________________________________
dropout_2740 (Dropout)       (None, 16, 16, 1024)      0         
_________________________________________________________________
separable_conv2d_2488 (Separ (None, 16, 16, 1024)      1058816   
_________________________________________________________________
batch_normalization_1347 (Ba (None, 16, 16, 1024)      4096      
_________________________________________________________________
activation_2741 (Activation) (None, 16, 16, 1024)      0         
_________________________________________________________________
dropout_2741 (Dropout)       (None, 16, 16, 1024)      0         
_________________________________________________________________
separable_conv2d_2489 (Separ (None, 16, 16, 16)        25616     
_________________________________________________________________
batch_normalization_1348 (Ba (None, 16, 16, 16)        64        
_________________________________________________________________
activation_2742 (Activation) (None, 16, 16, 16)        0         
_________________________________________________________________
dropout_2742 (Dropout)       (None, 16, 16, 16)        0         
_________________________________________________________________
separable_conv2d_2490 (Separ (None, 16, 16, 64)        1232      
_________________________________________________________________
activation_2743 (Activation) (None, 16, 16, 64)        0         
_________________________________________________________________
dropout_2743 (Dropout)       (None, 16, 16, 64)        0         
_________________________________________________________________
separable_conv2d_2491 (Separ (None, 16, 16, 16)        1616      
_________________________________________________________________
activation_2744 (Activation) (None, 16, 16, 16)        0         
_________________________________________________________________
dropout_2744 (Dropout)       (None, 16, 16, 16)        0         
_________________________________________________________________
flatten_288 (Flatten)        (None, 4096)              0         
_________________________________________________________________
dense_541 (Dense)            (None, 100)               409700    
=================================================================
Total params: 2,604,591
Trainable params: 2,600,143
Non-trainable params: 4,448
_________________________________________________________________
