Model: "sequential_11"
_________________________________________________________________
Layer (type)                 Output Shape              Param #   
=================================================================
separable_conv2d_114 (Separa (None, 32, 32, 64)        283       
_________________________________________________________________
activation_131 (Activation)  (None, 32, 32, 64)        0         
_________________________________________________________________
dropout_131 (Dropout)        (None, 32, 32, 64)        0         
_________________________________________________________________
max_pooling2d_28 (MaxPooling (None, 16, 16, 64)        0         
_________________________________________________________________
separable_conv2d_115 (Separa (None, 16, 16, 8)         1096      
_________________________________________________________________
batch_normalization_56 (Batc (None, 16, 16, 8)         32        
_________________________________________________________________
activation_132 (Activation)  (None, 16, 16, 8)         0         
_________________________________________________________________
dropout_132 (Dropout)        (None, 16, 16, 8)         0         
_________________________________________________________________
separable_conv2d_116 (Separa (None, 16, 16, 16)        216       
_________________________________________________________________
batch_normalization_57 (Batc (None, 16, 16, 16)        64        
_________________________________________________________________
activation_133 (Activation)  (None, 16, 16, 16)        0         
_________________________________________________________________
dropout_133 (Dropout)        (None, 16, 16, 16)        0         
_________________________________________________________________
separable_conv2d_117 (Separa (None, 16, 16, 64)        1232      
_________________________________________________________________
batch_normalization_58 (Batc (None, 16, 16, 64)        256       
_________________________________________________________________
activation_134 (Activation)  (None, 16, 16, 64)        0         
_________________________________________________________________
dropout_134 (Dropout)        (None, 16, 16, 64)        0         
_________________________________________________________________
max_pooling2d_29 (MaxPooling (None, 8, 8, 64)          0         
_________________________________________________________________
separable_conv2d_118 (Separa (None, 8, 8, 512)         33856     
_________________________________________________________________
batch_normalization_59 (Batc (None, 8, 8, 512)         2048      
_________________________________________________________________
activation_135 (Activation)  (None, 8, 8, 512)         0         
_________________________________________________________________
dropout_135 (Dropout)        (None, 8, 8, 512)         0         
_________________________________________________________________
separable_conv2d_119 (Separa (None, 8, 8, 64)          37440     
_________________________________________________________________
batch_normalization_60 (Batc (None, 8, 8, 64)          256       
_________________________________________________________________
activation_136 (Activation)  (None, 8, 8, 64)          0         
_________________________________________________________________
dropout_136 (Dropout)        (None, 8, 8, 64)          0         
_________________________________________________________________
separable_conv2d_120 (Separa (None, 8, 8, 512)         33856     
_________________________________________________________________
batch_normalization_61 (Batc (None, 8, 8, 512)         2048      
_________________________________________________________________
activation_137 (Activation)  (None, 8, 8, 512)         0         
_________________________________________________________________
dropout_137 (Dropout)        (None, 8, 8, 512)         0         
_________________________________________________________________
flatten_11 (Flatten)         (None, 32768)             0         
_________________________________________________________________
dense_28 (Dense)             (None, 100)               3276900   
=================================================================
Total params: 3,389,583
Trainable params: 3,387,231
Non-trainable params: 2,352
_________________________________________________________________
