Model: "sequential_58"
_________________________________________________________________
Layer (type)                 Output Shape              Param #   
=================================================================
separable_conv2d_574 (Separa (None, 32, 32, 1024)      4123      
_________________________________________________________________
batch_normalization_326 (Bat (None, 32, 32, 1024)      4096      
_________________________________________________________________
activation_656 (Activation)  (None, 32, 32, 1024)      0         
_________________________________________________________________
dropout_656 (Dropout)        (None, 32, 32, 1024)      0         
_________________________________________________________________
max_pooling2d_132 (MaxPoolin (None, 16, 16, 1024)      0         
_________________________________________________________________
separable_conv2d_575 (Separa (None, 16, 16, 32)        42016     
_________________________________________________________________
activation_657 (Activation)  (None, 16, 16, 32)        0         
_________________________________________________________________
dropout_657 (Dropout)        (None, 16, 16, 32)        0         
_________________________________________________________________
max_pooling2d_133 (MaxPoolin (None, 8, 8, 32)          0         
_________________________________________________________________
separable_conv2d_576 (Separa (None, 8, 8, 512)         17184     
_________________________________________________________________
activation_658 (Activation)  (None, 8, 8, 512)         0         
_________________________________________________________________
dropout_658 (Dropout)        (None, 8, 8, 512)         0         
_________________________________________________________________
separable_conv2d_577 (Separa (None, 8, 8, 1024)        529920    
_________________________________________________________________
batch_normalization_327 (Bat (None, 8, 8, 1024)        4096      
_________________________________________________________________
activation_659 (Activation)  (None, 8, 8, 1024)        0         
_________________________________________________________________
dropout_659 (Dropout)        (None, 8, 8, 1024)        0         
_________________________________________________________________
separable_conv2d_578 (Separa (None, 8, 8, 1024)        1058816   
_________________________________________________________________
batch_normalization_328 (Bat (None, 8, 8, 1024)        4096      
_________________________________________________________________
activation_660 (Activation)  (None, 8, 8, 1024)        0         
_________________________________________________________________
dropout_660 (Dropout)        (None, 8, 8, 1024)        0         
_________________________________________________________________
separable_conv2d_579 (Separa (None, 8, 8, 16)          25616     
_________________________________________________________________
batch_normalization_329 (Bat (None, 8, 8, 16)          64        
_________________________________________________________________
activation_661 (Activation)  (None, 8, 8, 16)          0         
_________________________________________________________________
dropout_661 (Dropout)        (None, 8, 8, 16)          0         
_________________________________________________________________
separable_conv2d_580 (Separa (None, 8, 8, 16)          416       
_________________________________________________________________
batch_normalization_330 (Bat (None, 8, 8, 16)          64        
_________________________________________________________________
activation_662 (Activation)  (None, 8, 8, 16)          0         
_________________________________________________________________
dropout_662 (Dropout)        (None, 8, 8, 16)          0         
_________________________________________________________________
separable_conv2d_581 (Separa (None, 8, 8, 512)         8848      
_________________________________________________________________
activation_663 (Activation)  (None, 8, 8, 512)         0         
_________________________________________________________________
dropout_663 (Dropout)        (None, 8, 8, 512)         0         
_________________________________________________________________
separable_conv2d_582 (Separa (None, 8, 8, 64)          37440     
_________________________________________________________________
activation_664 (Activation)  (None, 8, 8, 64)          0         
_________________________________________________________________
dropout_664 (Dropout)        (None, 8, 8, 64)          0         
_________________________________________________________________
separable_conv2d_583 (Separa (None, 8, 8, 8)           1096      
_________________________________________________________________
activation_665 (Activation)  (None, 8, 8, 8)           0         
_________________________________________________________________
dropout_665 (Dropout)        (None, 8, 8, 8)           0         
_________________________________________________________________
flatten_58 (Flatten)         (None, 512)               0         
_________________________________________________________________
dense_140 (Dense)            (None, 4096)              2101248   
_________________________________________________________________
activation_666 (Activation)  (None, 4096)              0         
_________________________________________________________________
dropout_666 (Dropout)        (None, 4096)              0         
_________________________________________________________________
dense_141 (Dense)            (None, 100)               409700    
=================================================================
Total params: 4,248,839
Trainable params: 4,242,631
Non-trainable params: 6,208
_________________________________________________________________
