Model: "sequential_266"
_________________________________________________________________
Layer (type)                 Output Shape              Param #   
=================================================================
separable_conv2d_2309 (Separ (None, 32, 32, 1024)      4123      
_________________________________________________________________
batch_normalization_1259 (Ba (None, 32, 32, 1024)      4096      
_________________________________________________________________
activation_2555 (Activation) (None, 32, 32, 1024)      0         
_________________________________________________________________
dropout_2555 (Dropout)       (None, 32, 32, 1024)      0         
_________________________________________________________________
separable_conv2d_2310 (Separ (None, 32, 32, 32)        42016     
_________________________________________________________________
batch_normalization_1260 (Ba (None, 32, 32, 32)        128       
_________________________________________________________________
activation_2556 (Activation) (None, 32, 32, 32)        0         
_________________________________________________________________
dropout_2556 (Dropout)       (None, 32, 32, 32)        0         
_________________________________________________________________
max_pooling2d_453 (MaxPoolin (None, 16, 16, 32)        0         
_________________________________________________________________
separable_conv2d_2311 (Separ (None, 16, 16, 512)       17184     
_________________________________________________________________
activation_2557 (Activation) (None, 16, 16, 512)       0         
_________________________________________________________________
dropout_2557 (Dropout)       (None, 16, 16, 512)       0         
_________________________________________________________________
separable_conv2d_2312 (Separ (None, 16, 16, 1024)      529920    
_________________________________________________________________
batch_normalization_1261 (Ba (None, 16, 16, 1024)      4096      
_________________________________________________________________
activation_2558 (Activation) (None, 16, 16, 1024)      0         
_________________________________________________________________
dropout_2558 (Dropout)       (None, 16, 16, 1024)      0         
_________________________________________________________________
separable_conv2d_2313 (Separ (None, 16, 16, 1024)      1058816   
_________________________________________________________________
batch_normalization_1262 (Ba (None, 16, 16, 1024)      4096      
_________________________________________________________________
activation_2559 (Activation) (None, 16, 16, 1024)      0         
_________________________________________________________________
dropout_2559 (Dropout)       (None, 16, 16, 1024)      0         
_________________________________________________________________
separable_conv2d_2314 (Separ (None, 16, 16, 16)        25616     
_________________________________________________________________
batch_normalization_1263 (Ba (None, 16, 16, 16)        64        
_________________________________________________________________
activation_2560 (Activation) (None, 16, 16, 16)        0         
_________________________________________________________________
dropout_2560 (Dropout)       (None, 16, 16, 16)        0         
_________________________________________________________________
separable_conv2d_2315 (Separ (None, 16, 16, 64)        1232      
_________________________________________________________________
activation_2561 (Activation) (None, 16, 16, 64)        0         
_________________________________________________________________
dropout_2561 (Dropout)       (None, 16, 16, 64)        0         
_________________________________________________________________
separable_conv2d_2316 (Separ (None, 16, 16, 16)        1616      
_________________________________________________________________
activation_2562 (Activation) (None, 16, 16, 16)        0         
_________________________________________________________________
dropout_2562 (Dropout)       (None, 16, 16, 16)        0         
_________________________________________________________________
flatten_266 (Flatten)        (None, 4096)              0         
_________________________________________________________________
dense_512 (Dense)            (None, 100)               409700    
=================================================================
Total params: 2,102,703
Trainable params: 2,096,463
Non-trainable params: 6,240
_________________________________________________________________
