Model: "sequential_112"
_________________________________________________________________
Layer (type)                 Output Shape              Param #   
=================================================================
separable_conv2d_1066 (Separ (None, 32, 32, 1024)      4123      
_________________________________________________________________
batch_normalization_598 (Bat (None, 32, 32, 1024)      4096      
_________________________________________________________________
activation_1205 (Activation) (None, 32, 32, 1024)      0         
_________________________________________________________________
dropout_1205 (Dropout)       (None, 32, 32, 1024)      0         
_________________________________________________________________
max_pooling2d_241 (MaxPoolin (None, 16, 16, 1024)      0         
_________________________________________________________________
separable_conv2d_1067 (Separ (None, 16, 16, 32)        42016     
_________________________________________________________________
activation_1206 (Activation) (None, 16, 16, 32)        0         
_________________________________________________________________
dropout_1206 (Dropout)       (None, 16, 16, 32)        0         
_________________________________________________________________
max_pooling2d_242 (MaxPoolin (None, 8, 8, 32)          0         
_________________________________________________________________
separable_conv2d_1068 (Separ (None, 8, 8, 512)         17184     
_________________________________________________________________
activation_1207 (Activation) (None, 8, 8, 512)         0         
_________________________________________________________________
dropout_1207 (Dropout)       (None, 8, 8, 512)         0         
_________________________________________________________________
separable_conv2d_1069 (Separ (None, 8, 8, 1024)        529920    
_________________________________________________________________
batch_normalization_599 (Bat (None, 8, 8, 1024)        4096      
_________________________________________________________________
activation_1208 (Activation) (None, 8, 8, 1024)        0         
_________________________________________________________________
dropout_1208 (Dropout)       (None, 8, 8, 1024)        0         
_________________________________________________________________
separable_conv2d_1070 (Separ (None, 8, 8, 1024)        1058816   
_________________________________________________________________
batch_normalization_600 (Bat (None, 8, 8, 1024)        4096      
_________________________________________________________________
activation_1209 (Activation) (None, 8, 8, 1024)        0         
_________________________________________________________________
dropout_1209 (Dropout)       (None, 8, 8, 1024)        0         
_________________________________________________________________
separable_conv2d_1071 (Separ (None, 8, 8, 16)          25616     
_________________________________________________________________
batch_normalization_601 (Bat (None, 8, 8, 16)          64        
_________________________________________________________________
activation_1210 (Activation) (None, 8, 8, 16)          0         
_________________________________________________________________
dropout_1210 (Dropout)       (None, 8, 8, 16)          0         
_________________________________________________________________
separable_conv2d_1072 (Separ (None, 8, 8, 16)          416       
_________________________________________________________________
batch_normalization_602 (Bat (None, 8, 8, 16)          64        
_________________________________________________________________
activation_1211 (Activation) (None, 8, 8, 16)          0         
_________________________________________________________________
dropout_1211 (Dropout)       (None, 8, 8, 16)          0         
_________________________________________________________________
separable_conv2d_1073 (Separ (None, 8, 8, 8)           280       
_________________________________________________________________
activation_1212 (Activation) (None, 8, 8, 8)           0         
_________________________________________________________________
dropout_1212 (Dropout)       (None, 8, 8, 8)           0         
_________________________________________________________________
flatten_112 (Flatten)        (None, 512)               0         
_________________________________________________________________
dense_251 (Dense)            (None, 4096)              2101248   
_________________________________________________________________
activation_1213 (Activation) (None, 4096)              0         
_________________________________________________________________
dropout_1213 (Dropout)       (None, 4096)              0         
_________________________________________________________________
dense_252 (Dense)            (None, 100)               409700    
=================================================================
Total params: 4,201,735
Trainable params: 4,195,527
Non-trainable params: 6,208
_________________________________________________________________
