Model: "sequential_204"
_________________________________________________________________
Layer (type)                 Output Shape              Param #   
=================================================================
separable_conv2d_1817 (Separ (None, 32, 32, 1024)      4123      
_________________________________________________________________
batch_normalization_1010 (Ba (None, 32, 32, 1024)      4096      
_________________________________________________________________
activation_2036 (Activation) (None, 32, 32, 1024)      0         
_________________________________________________________________
dropout_2036 (Dropout)       (None, 32, 32, 1024)      0         
_________________________________________________________________
separable_conv2d_1818 (Separ (None, 32, 32, 32)        42016     
_________________________________________________________________
activation_2037 (Activation) (None, 32, 32, 32)        0         
_________________________________________________________________
dropout_2037 (Dropout)       (None, 32, 32, 32)        0         
_________________________________________________________________
max_pooling2d_388 (MaxPoolin (None, 16, 16, 32)        0         
_________________________________________________________________
separable_conv2d_1819 (Separ (None, 16, 16, 512)       17184     
_________________________________________________________________
activation_2038 (Activation) (None, 16, 16, 512)       0         
_________________________________________________________________
dropout_2038 (Dropout)       (None, 16, 16, 512)       0         
_________________________________________________________________
separable_conv2d_1820 (Separ (None, 16, 16, 1024)      529920    
_________________________________________________________________
batch_normalization_1011 (Ba (None, 16, 16, 1024)      4096      
_________________________________________________________________
activation_2039 (Activation) (None, 16, 16, 1024)      0         
_________________________________________________________________
dropout_2039 (Dropout)       (None, 16, 16, 1024)      0         
_________________________________________________________________
separable_conv2d_1821 (Separ (None, 16, 16, 1024)      1058816   
_________________________________________________________________
batch_normalization_1012 (Ba (None, 16, 16, 1024)      4096      
_________________________________________________________________
activation_2040 (Activation) (None, 16, 16, 1024)      0         
_________________________________________________________________
dropout_2040 (Dropout)       (None, 16, 16, 1024)      0         
_________________________________________________________________
separable_conv2d_1822 (Separ (None, 16, 16, 16)        25616     
_________________________________________________________________
batch_normalization_1013 (Ba (None, 16, 16, 16)        64        
_________________________________________________________________
activation_2041 (Activation) (None, 16, 16, 16)        0         
_________________________________________________________________
dropout_2041 (Dropout)       (None, 16, 16, 16)        0         
_________________________________________________________________
separable_conv2d_1823 (Separ (None, 16, 16, 64)        1232      
_________________________________________________________________
activation_2042 (Activation) (None, 16, 16, 64)        0         
_________________________________________________________________
dropout_2042 (Dropout)       (None, 16, 16, 64)        0         
_________________________________________________________________
separable_conv2d_1824 (Separ (None, 16, 16, 8)         1096      
_________________________________________________________________
activation_2043 (Activation) (None, 16, 16, 8)         0         
_________________________________________________________________
dropout_2043 (Dropout)       (None, 16, 16, 8)         0         
_________________________________________________________________
flatten_204 (Flatten)        (None, 2048)              0         
_________________________________________________________________
dense_423 (Dense)            (None, 4096)              8392704   
_________________________________________________________________
activation_2044 (Activation) (None, 4096)              0         
_________________________________________________________________
dropout_2044 (Dropout)       (None, 4096)              0         
_________________________________________________________________
dense_424 (Dense)            (None, 100)               409700    
=================================================================
Total params: 10,494,759
Trainable params: 10,488,583
Non-trainable params: 6,176
_________________________________________________________________
