Model: "sequential_233"
_________________________________________________________________
Layer (type)                 Output Shape              Param #   
=================================================================
separable_conv2d_2044 (Separ (None, 32, 32, 256)       1051      
_________________________________________________________________
batch_normalization_1129 (Ba (None, 32, 32, 256)       1024      
_________________________________________________________________
activation_2280 (Activation) (None, 32, 32, 256)       0         
_________________________________________________________________
dropout_2280 (Dropout)       (None, 32, 32, 256)       0         
_________________________________________________________________
separable_conv2d_2045 (Separ (None, 32, 32, 32)        10528     
_________________________________________________________________
activation_2281 (Activation) (None, 32, 32, 32)        0         
_________________________________________________________________
dropout_2281 (Dropout)       (None, 32, 32, 32)        0         
_________________________________________________________________
max_pooling2d_418 (MaxPoolin (None, 16, 16, 32)        0         
_________________________________________________________________
separable_conv2d_2046 (Separ (None, 16, 16, 512)       17184     
_________________________________________________________________
activation_2282 (Activation) (None, 16, 16, 512)       0         
_________________________________________________________________
dropout_2282 (Dropout)       (None, 16, 16, 512)       0         
_________________________________________________________________
separable_conv2d_2047 (Separ (None, 16, 16, 1024)      529920    
_________________________________________________________________
batch_normalization_1130 (Ba (None, 16, 16, 1024)      4096      
_________________________________________________________________
activation_2283 (Activation) (None, 16, 16, 1024)      0         
_________________________________________________________________
dropout_2283 (Dropout)       (None, 16, 16, 1024)      0         
_________________________________________________________________
separable_conv2d_2048 (Separ (None, 16, 16, 1024)      1058816   
_________________________________________________________________
batch_normalization_1131 (Ba (None, 16, 16, 1024)      4096      
_________________________________________________________________
activation_2284 (Activation) (None, 16, 16, 1024)      0         
_________________________________________________________________
dropout_2284 (Dropout)       (None, 16, 16, 1024)      0         
_________________________________________________________________
separable_conv2d_2049 (Separ (None, 16, 16, 16)        25616     
_________________________________________________________________
batch_normalization_1132 (Ba (None, 16, 16, 16)        64        
_________________________________________________________________
activation_2285 (Activation) (None, 16, 16, 16)        0         
_________________________________________________________________
dropout_2285 (Dropout)       (None, 16, 16, 16)        0         
_________________________________________________________________
separable_conv2d_2050 (Separ (None, 16, 16, 64)        1232      
_________________________________________________________________
activation_2286 (Activation) (None, 16, 16, 64)        0         
_________________________________________________________________
dropout_2286 (Dropout)       (None, 16, 16, 64)        0         
_________________________________________________________________
separable_conv2d_2051 (Separ (None, 16, 16, 8)         1096      
_________________________________________________________________
activation_2287 (Activation) (None, 16, 16, 8)         0         
_________________________________________________________________
dropout_2287 (Dropout)       (None, 16, 16, 8)         0         
_________________________________________________________________
flatten_233 (Flatten)        (None, 2048)              0         
_________________________________________________________________
dense_469 (Dense)            (None, 4096)              8392704   
_________________________________________________________________
activation_2288 (Activation) (None, 4096)              0         
_________________________________________________________________
dropout_2288 (Dropout)       (None, 4096)              0         
_________________________________________________________________
dense_470 (Dense)            (None, 100)               409700    
=================================================================
Total params: 10,457,127
Trainable params: 10,452,487
Non-trainable params: 4,640
_________________________________________________________________
