Model: "sequential_264"
_________________________________________________________________
Layer (type)                 Output Shape              Param #   
=================================================================
separable_conv2d_2293 (Separ (None, 32, 32, 1024)      4123      
_________________________________________________________________
batch_normalization_1251 (Ba (None, 32, 32, 1024)      4096      
_________________________________________________________________
activation_2539 (Activation) (None, 32, 32, 1024)      0         
_________________________________________________________________
dropout_2539 (Dropout)       (None, 32, 32, 1024)      0         
_________________________________________________________________
separable_conv2d_2294 (Separ (None, 32, 32, 32)        42016     
_________________________________________________________________
activation_2540 (Activation) (None, 32, 32, 32)        0         
_________________________________________________________________
dropout_2540 (Dropout)       (None, 32, 32, 32)        0         
_________________________________________________________________
max_pooling2d_450 (MaxPoolin (None, 16, 16, 32)        0         
_________________________________________________________________
separable_conv2d_2295 (Separ (None, 16, 16, 512)       17184     
_________________________________________________________________
activation_2541 (Activation) (None, 16, 16, 512)       0         
_________________________________________________________________
dropout_2541 (Dropout)       (None, 16, 16, 512)       0         
_________________________________________________________________
separable_conv2d_2296 (Separ (None, 16, 16, 1024)      529920    
_________________________________________________________________
batch_normalization_1252 (Ba (None, 16, 16, 1024)      4096      
_________________________________________________________________
activation_2542 (Activation) (None, 16, 16, 1024)      0         
_________________________________________________________________
dropout_2542 (Dropout)       (None, 16, 16, 1024)      0         
_________________________________________________________________
separable_conv2d_2297 (Separ (None, 16, 16, 1024)      1058816   
_________________________________________________________________
batch_normalization_1253 (Ba (None, 16, 16, 1024)      4096      
_________________________________________________________________
activation_2543 (Activation) (None, 16, 16, 1024)      0         
_________________________________________________________________
dropout_2543 (Dropout)       (None, 16, 16, 1024)      0         
_________________________________________________________________
separable_conv2d_2298 (Separ (None, 16, 16, 16)        25616     
_________________________________________________________________
batch_normalization_1254 (Ba (None, 16, 16, 16)        64        
_________________________________________________________________
activation_2544 (Activation) (None, 16, 16, 16)        0         
_________________________________________________________________
dropout_2544 (Dropout)       (None, 16, 16, 16)        0         
_________________________________________________________________
separable_conv2d_2299 (Separ (None, 16, 16, 64)        1232      
_________________________________________________________________
activation_2545 (Activation) (None, 16, 16, 64)        0         
_________________________________________________________________
dropout_2545 (Dropout)       (None, 16, 16, 64)        0         
_________________________________________________________________
separable_conv2d_2300 (Separ (None, 16, 16, 16)        1616      
_________________________________________________________________
activation_2546 (Activation) (None, 16, 16, 16)        0         
_________________________________________________________________
dropout_2546 (Dropout)       (None, 16, 16, 16)        0         
_________________________________________________________________
flatten_264 (Flatten)        (None, 4096)              0         
_________________________________________________________________
dense_510 (Dense)            (None, 100)               409700    
=================================================================
Total params: 2,102,575
Trainable params: 2,096,399
Non-trainable params: 6,176
_________________________________________________________________
