Model: "sequential_99"
_________________________________________________________________
Layer (type)                 Output Shape              Param #   
=================================================================
separable_conv2d_955 (Separa (None, 32, 32, 1024)      4123      
_________________________________________________________________
batch_normalization_535 (Bat (None, 32, 32, 1024)      4096      
_________________________________________________________________
activation_1081 (Activation) (None, 32, 32, 1024)      0         
_________________________________________________________________
dropout_1081 (Dropout)       (None, 32, 32, 1024)      0         
_________________________________________________________________
max_pooling2d_215 (MaxPoolin (None, 16, 16, 1024)      0         
_________________________________________________________________
separable_conv2d_956 (Separa (None, 16, 16, 32)        42016     
_________________________________________________________________
activation_1082 (Activation) (None, 16, 16, 32)        0         
_________________________________________________________________
dropout_1082 (Dropout)       (None, 16, 16, 32)        0         
_________________________________________________________________
max_pooling2d_216 (MaxPoolin (None, 8, 8, 32)          0         
_________________________________________________________________
separable_conv2d_957 (Separa (None, 8, 8, 512)         17184     
_________________________________________________________________
activation_1083 (Activation) (None, 8, 8, 512)         0         
_________________________________________________________________
dropout_1083 (Dropout)       (None, 8, 8, 512)         0         
_________________________________________________________________
separable_conv2d_958 (Separa (None, 8, 8, 1024)        529920    
_________________________________________________________________
batch_normalization_536 (Bat (None, 8, 8, 1024)        4096      
_________________________________________________________________
activation_1084 (Activation) (None, 8, 8, 1024)        0         
_________________________________________________________________
dropout_1084 (Dropout)       (None, 8, 8, 1024)        0         
_________________________________________________________________
separable_conv2d_959 (Separa (None, 8, 8, 1024)        1058816   
_________________________________________________________________
batch_normalization_537 (Bat (None, 8, 8, 1024)        4096      
_________________________________________________________________
activation_1085 (Activation) (None, 8, 8, 1024)        0         
_________________________________________________________________
dropout_1085 (Dropout)       (None, 8, 8, 1024)        0         
_________________________________________________________________
separable_conv2d_960 (Separa (None, 8, 8, 16)          25616     
_________________________________________________________________
batch_normalization_538 (Bat (None, 8, 8, 16)          64        
_________________________________________________________________
activation_1086 (Activation) (None, 8, 8, 16)          0         
_________________________________________________________________
dropout_1086 (Dropout)       (None, 8, 8, 16)          0         
_________________________________________________________________
separable_conv2d_961 (Separa (None, 8, 8, 16)          416       
_________________________________________________________________
batch_normalization_539 (Bat (None, 8, 8, 16)          64        
_________________________________________________________________
activation_1087 (Activation) (None, 8, 8, 16)          0         
_________________________________________________________________
dropout_1087 (Dropout)       (None, 8, 8, 16)          0         
_________________________________________________________________
separable_conv2d_962 (Separa (None, 8, 8, 512)         8848      
_________________________________________________________________
activation_1088 (Activation) (None, 8, 8, 512)         0         
_________________________________________________________________
dropout_1088 (Dropout)       (None, 8, 8, 512)         0         
_________________________________________________________________
separable_conv2d_963 (Separa (None, 8, 8, 64)          37440     
_________________________________________________________________
activation_1089 (Activation) (None, 8, 8, 64)          0         
_________________________________________________________________
dropout_1089 (Dropout)       (None, 8, 8, 64)          0         
_________________________________________________________________
separable_conv2d_964 (Separa (None, 8, 8, 8)           1096      
_________________________________________________________________
activation_1090 (Activation) (None, 8, 8, 8)           0         
_________________________________________________________________
dropout_1090 (Dropout)       (None, 8, 8, 8)           0         
_________________________________________________________________
flatten_99 (Flatten)         (None, 512)               0         
_________________________________________________________________
dense_225 (Dense)            (None, 4096)              2101248   
_________________________________________________________________
activation_1091 (Activation) (None, 4096)              0         
_________________________________________________________________
dropout_1091 (Dropout)       (None, 4096)              0         
_________________________________________________________________
dense_226 (Dense)            (None, 100)               409700    
=================================================================
Total params: 4,248,839
Trainable params: 4,242,631
Non-trainable params: 6,208
_________________________________________________________________
