Model: "sequential_361"
_________________________________________________________________
Layer (type)                 Output Shape              Param #   
=================================================================
separable_conv2d_3067 (Separ (None, 32, 32, 1024)      4123      
_________________________________________________________________
batch_normalization_1640 (Ba (None, 32, 32, 1024)      4096      
_________________________________________________________________
activation_3332 (Activation) (None, 32, 32, 1024)      0         
_________________________________________________________________
dropout_3332 (Dropout)       (None, 32, 32, 1024)      0         
_________________________________________________________________
separable_conv2d_3068 (Separ (None, 32, 32, 32)        42016     
_________________________________________________________________
activation_3333 (Activation) (None, 32, 32, 32)        0         
_________________________________________________________________
dropout_3333 (Dropout)       (None, 32, 32, 32)        0         
_________________________________________________________________
max_pooling2d_557 (MaxPoolin (None, 16, 16, 32)        0         
_________________________________________________________________
separable_conv2d_3069 (Separ (None, 16, 16, 512)       17184     
_________________________________________________________________
activation_3334 (Activation) (None, 16, 16, 512)       0         
_________________________________________________________________
dropout_3334 (Dropout)       (None, 16, 16, 512)       0         
_________________________________________________________________
separable_conv2d_3070 (Separ (None, 16, 16, 1024)      529920    
_________________________________________________________________
batch_normalization_1641 (Ba (None, 16, 16, 1024)      4096      
_________________________________________________________________
activation_3335 (Activation) (None, 16, 16, 1024)      0         
_________________________________________________________________
dropout_3335 (Dropout)       (None, 16, 16, 1024)      0         
_________________________________________________________________
separable_conv2d_3071 (Separ (None, 16, 16, 1024)      1058816   
_________________________________________________________________
batch_normalization_1642 (Ba (None, 16, 16, 1024)      4096      
_________________________________________________________________
activation_3336 (Activation) (None, 16, 16, 1024)      0         
_________________________________________________________________
dropout_3336 (Dropout)       (None, 16, 16, 1024)      0         
_________________________________________________________________
separable_conv2d_3072 (Separ (None, 16, 16, 16)        25616     
_________________________________________________________________
batch_normalization_1643 (Ba (None, 16, 16, 16)        64        
_________________________________________________________________
activation_3337 (Activation) (None, 16, 16, 16)        0         
_________________________________________________________________
dropout_3337 (Dropout)       (None, 16, 16, 16)        0         
_________________________________________________________________
separable_conv2d_3073 (Separ (None, 16, 16, 64)        1232      
_________________________________________________________________
activation_3338 (Activation) (None, 16, 16, 64)        0         
_________________________________________________________________
dropout_3338 (Dropout)       (None, 16, 16, 64)        0         
_________________________________________________________________
separable_conv2d_3074 (Separ (None, 16, 16, 16)        1616      
_________________________________________________________________
activation_3339 (Activation) (None, 16, 16, 16)        0         
_________________________________________________________________
dropout_3339 (Dropout)       (None, 16, 16, 16)        0         
_________________________________________________________________
flatten_361 (Flatten)        (None, 4096)              0         
_________________________________________________________________
dense_626 (Dense)            (None, 4096)              16781312  
_________________________________________________________________
activation_3340 (Activation) (None, 4096)              0         
_________________________________________________________________
dropout_3340 (Dropout)       (None, 4096)              0         
_________________________________________________________________
dense_627 (Dense)            (None, 100)               409700    
=================================================================
Total params: 18,883,887
Trainable params: 18,877,711
Non-trainable params: 6,176
_________________________________________________________________
