Model: "sequential_323"
_________________________________________________________________
Layer (type)                 Output Shape              Param #   
=================================================================
separable_conv2d_2765 (Separ (None, 32, 32, 1024)      4123      
_________________________________________________________________
batch_normalization_1482 (Ba (None, 32, 32, 1024)      4096      
_________________________________________________________________
activation_3025 (Activation) (None, 32, 32, 1024)      0         
_________________________________________________________________
dropout_3025 (Dropout)       (None, 32, 32, 1024)      0         
_________________________________________________________________
separable_conv2d_2766 (Separ (None, 32, 32, 32)        42016     
_________________________________________________________________
activation_3026 (Activation) (None, 32, 32, 32)        0         
_________________________________________________________________
dropout_3026 (Dropout)       (None, 32, 32, 32)        0         
_________________________________________________________________
max_pooling2d_514 (MaxPoolin (None, 16, 16, 32)        0         
_________________________________________________________________
separable_conv2d_2767 (Separ (None, 16, 16, 512)       17184     
_________________________________________________________________
activation_3027 (Activation) (None, 16, 16, 512)       0         
_________________________________________________________________
dropout_3027 (Dropout)       (None, 16, 16, 512)       0         
_________________________________________________________________
separable_conv2d_2768 (Separ (None, 16, 16, 1024)      529920    
_________________________________________________________________
batch_normalization_1483 (Ba (None, 16, 16, 1024)      4096      
_________________________________________________________________
activation_3028 (Activation) (None, 16, 16, 1024)      0         
_________________________________________________________________
dropout_3028 (Dropout)       (None, 16, 16, 1024)      0         
_________________________________________________________________
separable_conv2d_2769 (Separ (None, 16, 16, 1024)      1058816   
_________________________________________________________________
batch_normalization_1484 (Ba (None, 16, 16, 1024)      4096      
_________________________________________________________________
activation_3029 (Activation) (None, 16, 16, 1024)      0         
_________________________________________________________________
dropout_3029 (Dropout)       (None, 16, 16, 1024)      0         
_________________________________________________________________
separable_conv2d_2770 (Separ (None, 16, 16, 16)        25616     
_________________________________________________________________
batch_normalization_1485 (Ba (None, 16, 16, 16)        64        
_________________________________________________________________
activation_3030 (Activation) (None, 16, 16, 16)        0         
_________________________________________________________________
dropout_3030 (Dropout)       (None, 16, 16, 16)        0         
_________________________________________________________________
separable_conv2d_2771 (Separ (None, 16, 16, 64)        1232      
_________________________________________________________________
activation_3031 (Activation) (None, 16, 16, 64)        0         
_________________________________________________________________
dropout_3031 (Dropout)       (None, 16, 16, 64)        0         
_________________________________________________________________
separable_conv2d_2772 (Separ (None, 16, 16, 16)        1616      
_________________________________________________________________
activation_3032 (Activation) (None, 16, 16, 16)        0         
_________________________________________________________________
dropout_3032 (Dropout)       (None, 16, 16, 16)        0         
_________________________________________________________________
flatten_323 (Flatten)        (None, 4096)              0         
_________________________________________________________________
dense_583 (Dense)            (None, 100)               409700    
=================================================================
Total params: 2,102,575
Trainable params: 2,096,399
Non-trainable params: 6,176
_________________________________________________________________
