Model: "sequential_318"
_________________________________________________________________
Layer (type)                 Output Shape              Param #   
=================================================================
separable_conv2d_2725 (Separ (None, 32, 32, 1024)      4123      
_________________________________________________________________
batch_normalization_1461 (Ba (None, 32, 32, 1024)      4096      
_________________________________________________________________
activation_2984 (Activation) (None, 32, 32, 1024)      0         
_________________________________________________________________
dropout_2984 (Dropout)       (None, 32, 32, 1024)      0         
_________________________________________________________________
separable_conv2d_2726 (Separ (None, 32, 32, 32)        42016     
_________________________________________________________________
activation_2985 (Activation) (None, 32, 32, 32)        0         
_________________________________________________________________
dropout_2985 (Dropout)       (None, 32, 32, 32)        0         
_________________________________________________________________
max_pooling2d_509 (MaxPoolin (None, 16, 16, 32)        0         
_________________________________________________________________
separable_conv2d_2727 (Separ (None, 16, 16, 512)       17184     
_________________________________________________________________
activation_2986 (Activation) (None, 16, 16, 512)       0         
_________________________________________________________________
dropout_2986 (Dropout)       (None, 16, 16, 512)       0         
_________________________________________________________________
separable_conv2d_2728 (Separ (None, 16, 16, 1024)      529920    
_________________________________________________________________
batch_normalization_1462 (Ba (None, 16, 16, 1024)      4096      
_________________________________________________________________
activation_2987 (Activation) (None, 16, 16, 1024)      0         
_________________________________________________________________
dropout_2987 (Dropout)       (None, 16, 16, 1024)      0         
_________________________________________________________________
separable_conv2d_2729 (Separ (None, 16, 16, 1024)      1058816   
_________________________________________________________________
batch_normalization_1463 (Ba (None, 16, 16, 1024)      4096      
_________________________________________________________________
activation_2988 (Activation) (None, 16, 16, 1024)      0         
_________________________________________________________________
dropout_2988 (Dropout)       (None, 16, 16, 1024)      0         
_________________________________________________________________
separable_conv2d_2730 (Separ (None, 16, 16, 16)        25616     
_________________________________________________________________
batch_normalization_1464 (Ba (None, 16, 16, 16)        64        
_________________________________________________________________
activation_2989 (Activation) (None, 16, 16, 16)        0         
_________________________________________________________________
dropout_2989 (Dropout)       (None, 16, 16, 16)        0         
_________________________________________________________________
separable_conv2d_2731 (Separ (None, 16, 16, 64)        1232      
_________________________________________________________________
activation_2990 (Activation) (None, 16, 16, 64)        0         
_________________________________________________________________
dropout_2990 (Dropout)       (None, 16, 16, 64)        0         
_________________________________________________________________
separable_conv2d_2732 (Separ (None, 16, 16, 16)        1616      
_________________________________________________________________
activation_2991 (Activation) (None, 16, 16, 16)        0         
_________________________________________________________________
dropout_2991 (Dropout)       (None, 16, 16, 16)        0         
_________________________________________________________________
flatten_318 (Flatten)        (None, 4096)              0         
_________________________________________________________________
dense_577 (Dense)            (None, 100)               409700    
=================================================================
Total params: 2,102,575
Trainable params: 2,096,399
Non-trainable params: 6,176
_________________________________________________________________
