Model: "sequential_331"
_________________________________________________________________
Layer (type)                 Output Shape              Param #   
=================================================================
separable_conv2d_2829 (Separ (None, 32, 32, 1024)      4123      
_________________________________________________________________
batch_normalization_1518 (Ba (None, 32, 32, 1024)      4096      
_________________________________________________________________
activation_3090 (Activation) (None, 32, 32, 1024)      0         
_________________________________________________________________
dropout_3090 (Dropout)       (None, 32, 32, 1024)      0         
_________________________________________________________________
max_pooling2d_523 (MaxPoolin (None, 16, 16, 1024)      0         
_________________________________________________________________
separable_conv2d_2830 (Separ (None, 16, 16, 32)        42016     
_________________________________________________________________
activation_3091 (Activation) (None, 16, 16, 32)        0         
_________________________________________________________________
dropout_3091 (Dropout)       (None, 16, 16, 32)        0         
_________________________________________________________________
max_pooling2d_524 (MaxPoolin (None, 8, 8, 32)          0         
_________________________________________________________________
separable_conv2d_2831 (Separ (None, 8, 8, 512)         17184     
_________________________________________________________________
activation_3092 (Activation) (None, 8, 8, 512)         0         
_________________________________________________________________
dropout_3092 (Dropout)       (None, 8, 8, 512)         0         
_________________________________________________________________
separable_conv2d_2832 (Separ (None, 8, 8, 1024)        529920    
_________________________________________________________________
batch_normalization_1519 (Ba (None, 8, 8, 1024)        4096      
_________________________________________________________________
activation_3093 (Activation) (None, 8, 8, 1024)        0         
_________________________________________________________________
dropout_3093 (Dropout)       (None, 8, 8, 1024)        0         
_________________________________________________________________
separable_conv2d_2833 (Separ (None, 8, 8, 1024)        1058816   
_________________________________________________________________
batch_normalization_1520 (Ba (None, 8, 8, 1024)        4096      
_________________________________________________________________
activation_3094 (Activation) (None, 8, 8, 1024)        0         
_________________________________________________________________
dropout_3094 (Dropout)       (None, 8, 8, 1024)        0         
_________________________________________________________________
separable_conv2d_2834 (Separ (None, 8, 8, 16)          25616     
_________________________________________________________________
activation_3095 (Activation) (None, 8, 8, 16)          0         
_________________________________________________________________
dropout_3095 (Dropout)       (None, 8, 8, 16)          0         
_________________________________________________________________
separable_conv2d_2835 (Separ (None, 8, 8, 64)          1232      
_________________________________________________________________
activation_3096 (Activation) (None, 8, 8, 64)          0         
_________________________________________________________________
dropout_3096 (Dropout)       (None, 8, 8, 64)          0         
_________________________________________________________________
separable_conv2d_2836 (Separ (None, 8, 8, 16)          1616      
_________________________________________________________________
activation_3097 (Activation) (None, 8, 8, 16)          0         
_________________________________________________________________
dropout_3097 (Dropout)       (None, 8, 8, 16)          0         
_________________________________________________________________
flatten_331 (Flatten)        (None, 1024)              0         
_________________________________________________________________
dense_592 (Dense)            (None, 100)               102500    
=================================================================
Total params: 1,795,311
Trainable params: 1,789,167
Non-trainable params: 6,144
_________________________________________________________________
