Model: "sequential_280"
_________________________________________________________________
Layer (type)                 Output Shape              Param #   
=================================================================
separable_conv2d_2420 (Separ (None, 32, 32, 1024)      4123      
_________________________________________________________________
batch_normalization_1313 (Ba (None, 32, 32, 1024)      4096      
_________________________________________________________________
activation_2672 (Activation) (None, 32, 32, 1024)      0         
_________________________________________________________________
dropout_2672 (Dropout)       (None, 32, 32, 1024)      0         
_________________________________________________________________
separable_conv2d_2421 (Separ (None, 32, 32, 32)        42016     
_________________________________________________________________
activation_2673 (Activation) (None, 32, 32, 32)        0         
_________________________________________________________________
dropout_2673 (Dropout)       (None, 32, 32, 32)        0         
_________________________________________________________________
max_pooling2d_466 (MaxPoolin (None, 16, 16, 32)        0         
_________________________________________________________________
separable_conv2d_2422 (Separ (None, 16, 16, 512)       17184     
_________________________________________________________________
activation_2674 (Activation) (None, 16, 16, 512)       0         
_________________________________________________________________
dropout_2674 (Dropout)       (None, 16, 16, 512)       0         
_________________________________________________________________
separable_conv2d_2423 (Separ (None, 16, 16, 1024)      529920    
_________________________________________________________________
batch_normalization_1314 (Ba (None, 16, 16, 1024)      4096      
_________________________________________________________________
activation_2675 (Activation) (None, 16, 16, 1024)      0         
_________________________________________________________________
dropout_2675 (Dropout)       (None, 16, 16, 1024)      0         
_________________________________________________________________
separable_conv2d_2424 (Separ (None, 16, 16, 1024)      1058816   
_________________________________________________________________
batch_normalization_1315 (Ba (None, 16, 16, 1024)      4096      
_________________________________________________________________
activation_2676 (Activation) (None, 16, 16, 1024)      0         
_________________________________________________________________
dropout_2676 (Dropout)       (None, 16, 16, 1024)      0         
_________________________________________________________________
separable_conv2d_2425 (Separ (None, 16, 16, 16)        25616     
_________________________________________________________________
batch_normalization_1316 (Ba (None, 16, 16, 16)        64        
_________________________________________________________________
activation_2677 (Activation) (None, 16, 16, 16)        0         
_________________________________________________________________
dropout_2677 (Dropout)       (None, 16, 16, 16)        0         
_________________________________________________________________
separable_conv2d_2426 (Separ (None, 16, 16, 64)        1232      
_________________________________________________________________
activation_2678 (Activation) (None, 16, 16, 64)        0         
_________________________________________________________________
dropout_2678 (Dropout)       (None, 16, 16, 64)        0         
_________________________________________________________________
separable_conv2d_2427 (Separ (None, 16, 16, 16)        1616      
_________________________________________________________________
activation_2679 (Activation) (None, 16, 16, 16)        0         
_________________________________________________________________
dropout_2679 (Dropout)       (None, 16, 16, 16)        0         
_________________________________________________________________
flatten_280 (Flatten)        (None, 4096)              0         
_________________________________________________________________
dense_532 (Dense)            (None, 100)               409700    
=================================================================
Total params: 2,102,575
Trainable params: 2,096,399
Non-trainable params: 6,176
_________________________________________________________________
