Model: "sequential_82"
_________________________________________________________________
Layer (type)                 Output Shape              Param #   
=================================================================
separable_conv2d_797 (Separa (None, 32, 32, 1024)      4123      
_________________________________________________________________
batch_normalization_449 (Bat (None, 32, 32, 1024)      4096      
_________________________________________________________________
activation_906 (Activation)  (None, 32, 32, 1024)      0         
_________________________________________________________________
dropout_906 (Dropout)        (None, 32, 32, 1024)      0         
_________________________________________________________________
max_pooling2d_180 (MaxPoolin (None, 16, 16, 1024)      0         
_________________________________________________________________
separable_conv2d_798 (Separa (None, 16, 16, 32)        42016     
_________________________________________________________________
activation_907 (Activation)  (None, 16, 16, 32)        0         
_________________________________________________________________
dropout_907 (Dropout)        (None, 16, 16, 32)        0         
_________________________________________________________________
max_pooling2d_181 (MaxPoolin (None, 8, 8, 32)          0         
_________________________________________________________________
separable_conv2d_799 (Separa (None, 8, 8, 512)         17184     
_________________________________________________________________
activation_908 (Activation)  (None, 8, 8, 512)         0         
_________________________________________________________________
dropout_908 (Dropout)        (None, 8, 8, 512)         0         
_________________________________________________________________
separable_conv2d_800 (Separa (None, 8, 8, 1024)        529920    
_________________________________________________________________
batch_normalization_450 (Bat (None, 8, 8, 1024)        4096      
_________________________________________________________________
activation_909 (Activation)  (None, 8, 8, 1024)        0         
_________________________________________________________________
dropout_909 (Dropout)        (None, 8, 8, 1024)        0         
_________________________________________________________________
separable_conv2d_801 (Separa (None, 8, 8, 1024)        1058816   
_________________________________________________________________
batch_normalization_451 (Bat (None, 8, 8, 1024)        4096      
_________________________________________________________________
activation_910 (Activation)  (None, 8, 8, 1024)        0         
_________________________________________________________________
dropout_910 (Dropout)        (None, 8, 8, 1024)        0         
_________________________________________________________________
separable_conv2d_802 (Separa (None, 8, 8, 16)          25616     
_________________________________________________________________
batch_normalization_452 (Bat (None, 8, 8, 16)          64        
_________________________________________________________________
activation_911 (Activation)  (None, 8, 8, 16)          0         
_________________________________________________________________
dropout_911 (Dropout)        (None, 8, 8, 16)          0         
_________________________________________________________________
separable_conv2d_803 (Separa (None, 8, 8, 16)          416       
_________________________________________________________________
batch_normalization_453 (Bat (None, 8, 8, 16)          64        
_________________________________________________________________
activation_912 (Activation)  (None, 8, 8, 16)          0         
_________________________________________________________________
dropout_912 (Dropout)        (None, 8, 8, 16)          0         
_________________________________________________________________
separable_conv2d_804 (Separa (None, 8, 8, 512)         8848      
_________________________________________________________________
activation_913 (Activation)  (None, 8, 8, 512)         0         
_________________________________________________________________
dropout_913 (Dropout)        (None, 8, 8, 512)         0         
_________________________________________________________________
separable_conv2d_805 (Separa (None, 8, 8, 64)          37440     
_________________________________________________________________
activation_914 (Activation)  (None, 8, 8, 64)          0         
_________________________________________________________________
dropout_914 (Dropout)        (None, 8, 8, 64)          0         
_________________________________________________________________
separable_conv2d_806 (Separa (None, 8, 8, 8)           1096      
_________________________________________________________________
activation_915 (Activation)  (None, 8, 8, 8)           0         
_________________________________________________________________
dropout_915 (Dropout)        (None, 8, 8, 8)           0         
_________________________________________________________________
flatten_82 (Flatten)         (None, 512)               0         
_________________________________________________________________
dense_191 (Dense)            (None, 4096)              2101248   
_________________________________________________________________
activation_916 (Activation)  (None, 4096)              0         
_________________________________________________________________
dropout_916 (Dropout)        (None, 4096)              0         
_________________________________________________________________
dense_192 (Dense)            (None, 100)               409700    
=================================================================
Total params: 4,248,839
Trainable params: 4,242,631
Non-trainable params: 6,208
_________________________________________________________________
