Model: "sequential_389"
_________________________________________________________________
Layer (type)                 Output Shape              Param #   
=================================================================
separable_conv2d_3289 (Separ (None, 32, 32, 1024)      4123      
_________________________________________________________________
batch_normalization_1757 (Ba (None, 32, 32, 1024)      4096      
_________________________________________________________________
activation_3560 (Activation) (None, 32, 32, 1024)      0         
_________________________________________________________________
dropout_3560 (Dropout)       (None, 32, 32, 1024)      0         
_________________________________________________________________
separable_conv2d_3290 (Separ (None, 32, 32, 32)        42016     
_________________________________________________________________
activation_3561 (Activation) (None, 32, 32, 32)        0         
_________________________________________________________________
dropout_3561 (Dropout)       (None, 32, 32, 32)        0         
_________________________________________________________________
max_pooling2d_586 (MaxPoolin (None, 16, 16, 32)        0         
_________________________________________________________________
separable_conv2d_3291 (Separ (None, 16, 16, 512)       17184     
_________________________________________________________________
activation_3562 (Activation) (None, 16, 16, 512)       0         
_________________________________________________________________
dropout_3562 (Dropout)       (None, 16, 16, 512)       0         
_________________________________________________________________
separable_conv2d_3292 (Separ (None, 16, 16, 1024)      529920    
_________________________________________________________________
batch_normalization_1758 (Ba (None, 16, 16, 1024)      4096      
_________________________________________________________________
activation_3563 (Activation) (None, 16, 16, 1024)      0         
_________________________________________________________________
dropout_3563 (Dropout)       (None, 16, 16, 1024)      0         
_________________________________________________________________
separable_conv2d_3293 (Separ (None, 16, 16, 1024)      1058816   
_________________________________________________________________
batch_normalization_1759 (Ba (None, 16, 16, 1024)      4096      
_________________________________________________________________
activation_3564 (Activation) (None, 16, 16, 1024)      0         
_________________________________________________________________
dropout_3564 (Dropout)       (None, 16, 16, 1024)      0         
_________________________________________________________________
separable_conv2d_3294 (Separ (None, 16, 16, 16)        25616     
_________________________________________________________________
batch_normalization_1760 (Ba (None, 16, 16, 16)        64        
_________________________________________________________________
activation_3565 (Activation) (None, 16, 16, 16)        0         
_________________________________________________________________
dropout_3565 (Dropout)       (None, 16, 16, 16)        0         
_________________________________________________________________
separable_conv2d_3295 (Separ (None, 16, 16, 64)        1232      
_________________________________________________________________
activation_3566 (Activation) (None, 16, 16, 64)        0         
_________________________________________________________________
dropout_3566 (Dropout)       (None, 16, 16, 64)        0         
_________________________________________________________________
separable_conv2d_3296 (Separ (None, 16, 16, 16)        1616      
_________________________________________________________________
activation_3567 (Activation) (None, 16, 16, 16)        0         
_________________________________________________________________
dropout_3567 (Dropout)       (None, 16, 16, 16)        0         
_________________________________________________________________
flatten_389 (Flatten)        (None, 4096)              0         
_________________________________________________________________
dense_660 (Dense)            (None, 100)               409700    
=================================================================
Total params: 2,102,575
Trainable params: 2,096,399
Non-trainable params: 6,176
_________________________________________________________________
