Model: "sequential_28"
_________________________________________________________________
Layer (type)                 Output Shape              Param #   
=================================================================
separable_conv2d_279 (Separa (None, 32, 32, 1024)      4123      
_________________________________________________________________
batch_normalization_156 (Bat (None, 32, 32, 1024)      4096      
_________________________________________________________________
activation_319 (Activation)  (None, 32, 32, 1024)      0         
_________________________________________________________________
dropout_319 (Dropout)        (None, 32, 32, 1024)      0         
_________________________________________________________________
max_pooling2d_62 (MaxPooling (None, 16, 16, 1024)      0         
_________________________________________________________________
separable_conv2d_280 (Separa (None, 16, 16, 32)        42016     
_________________________________________________________________
activation_320 (Activation)  (None, 16, 16, 32)        0         
_________________________________________________________________
dropout_320 (Dropout)        (None, 16, 16, 32)        0         
_________________________________________________________________
max_pooling2d_63 (MaxPooling (None, 8, 8, 32)          0         
_________________________________________________________________
separable_conv2d_281 (Separa (None, 8, 8, 512)         17184     
_________________________________________________________________
activation_321 (Activation)  (None, 8, 8, 512)         0         
_________________________________________________________________
dropout_321 (Dropout)        (None, 8, 8, 512)         0         
_________________________________________________________________
separable_conv2d_282 (Separa (None, 8, 8, 1024)        529920    
_________________________________________________________________
batch_normalization_157 (Bat (None, 8, 8, 1024)        4096      
_________________________________________________________________
activation_322 (Activation)  (None, 8, 8, 1024)        0         
_________________________________________________________________
dropout_322 (Dropout)        (None, 8, 8, 1024)        0         
_________________________________________________________________
separable_conv2d_283 (Separa (None, 8, 8, 1024)        1058816   
_________________________________________________________________
batch_normalization_158 (Bat (None, 8, 8, 1024)        4096      
_________________________________________________________________
activation_323 (Activation)  (None, 8, 8, 1024)        0         
_________________________________________________________________
dropout_323 (Dropout)        (None, 8, 8, 1024)        0         
_________________________________________________________________
separable_conv2d_284 (Separa (None, 8, 8, 16)          25616     
_________________________________________________________________
batch_normalization_159 (Bat (None, 8, 8, 16)          64        
_________________________________________________________________
activation_324 (Activation)  (None, 8, 8, 16)          0         
_________________________________________________________________
dropout_324 (Dropout)        (None, 8, 8, 16)          0         
_________________________________________________________________
separable_conv2d_285 (Separa (None, 8, 8, 16)          416       
_________________________________________________________________
batch_normalization_160 (Bat (None, 8, 8, 16)          64        
_________________________________________________________________
activation_325 (Activation)  (None, 8, 8, 16)          0         
_________________________________________________________________
dropout_325 (Dropout)        (None, 8, 8, 16)          0         
_________________________________________________________________
separable_conv2d_286 (Separa (None, 8, 8, 512)         8848      
_________________________________________________________________
activation_326 (Activation)  (None, 8, 8, 512)         0         
_________________________________________________________________
dropout_326 (Dropout)        (None, 8, 8, 512)         0         
_________________________________________________________________
separable_conv2d_287 (Separa (None, 8, 8, 64)          37440     
_________________________________________________________________
activation_327 (Activation)  (None, 8, 8, 64)          0         
_________________________________________________________________
dropout_327 (Dropout)        (None, 8, 8, 64)          0         
_________________________________________________________________
separable_conv2d_288 (Separa (None, 8, 8, 8)           1096      
_________________________________________________________________
activation_328 (Activation)  (None, 8, 8, 8)           0         
_________________________________________________________________
dropout_328 (Dropout)        (None, 8, 8, 8)           0         
_________________________________________________________________
flatten_28 (Flatten)         (None, 512)               0         
_________________________________________________________________
dense_68 (Dense)             (None, 4096)              2101248   
_________________________________________________________________
activation_329 (Activation)  (None, 4096)              0         
_________________________________________________________________
dropout_329 (Dropout)        (None, 4096)              0         
_________________________________________________________________
dense_69 (Dense)             (None, 100)               409700    
=================================================================
Total params: 4,248,839
Trainable params: 4,242,631
Non-trainable params: 6,208
_________________________________________________________________
