Model: "sequential_239"
_________________________________________________________________
Layer (type)                 Output Shape              Param #   
=================================================================
separable_conv2d_2093 (Separ (None, 32, 32, 1024)      4123      
_________________________________________________________________
batch_normalization_1154 (Ba (None, 32, 32, 1024)      4096      
_________________________________________________________________
activation_2332 (Activation) (None, 32, 32, 1024)      0         
_________________________________________________________________
dropout_2332 (Dropout)       (None, 32, 32, 1024)      0         
_________________________________________________________________
separable_conv2d_2094 (Separ (None, 32, 32, 32)        42016     
_________________________________________________________________
activation_2333 (Activation) (None, 32, 32, 32)        0         
_________________________________________________________________
dropout_2333 (Dropout)       (None, 32, 32, 32)        0         
_________________________________________________________________
max_pooling2d_424 (MaxPoolin (None, 16, 16, 32)        0         
_________________________________________________________________
separable_conv2d_2095 (Separ (None, 16, 16, 512)       17184     
_________________________________________________________________
activation_2334 (Activation) (None, 16, 16, 512)       0         
_________________________________________________________________
dropout_2334 (Dropout)       (None, 16, 16, 512)       0         
_________________________________________________________________
separable_conv2d_2096 (Separ (None, 16, 16, 1024)      529920    
_________________________________________________________________
batch_normalization_1155 (Ba (None, 16, 16, 1024)      4096      
_________________________________________________________________
activation_2335 (Activation) (None, 16, 16, 1024)      0         
_________________________________________________________________
dropout_2335 (Dropout)       (None, 16, 16, 1024)      0         
_________________________________________________________________
separable_conv2d_2097 (Separ (None, 16, 16, 1024)      1058816   
_________________________________________________________________
batch_normalization_1156 (Ba (None, 16, 16, 1024)      4096      
_________________________________________________________________
activation_2336 (Activation) (None, 16, 16, 1024)      0         
_________________________________________________________________
dropout_2336 (Dropout)       (None, 16, 16, 1024)      0         
_________________________________________________________________
separable_conv2d_2098 (Separ (None, 16, 16, 16)        25616     
_________________________________________________________________
batch_normalization_1157 (Ba (None, 16, 16, 16)        64        
_________________________________________________________________
activation_2337 (Activation) (None, 16, 16, 16)        0         
_________________________________________________________________
dropout_2337 (Dropout)       (None, 16, 16, 16)        0         
_________________________________________________________________
separable_conv2d_2099 (Separ (None, 16, 16, 64)        1232      
_________________________________________________________________
activation_2338 (Activation) (None, 16, 16, 64)        0         
_________________________________________________________________
dropout_2338 (Dropout)       (None, 16, 16, 64)        0         
_________________________________________________________________
separable_conv2d_2100 (Separ (None, 16, 16, 16)        1616      
_________________________________________________________________
activation_2339 (Activation) (None, 16, 16, 16)        0         
_________________________________________________________________
dropout_2339 (Dropout)       (None, 16, 16, 16)        0         
_________________________________________________________________
flatten_239 (Flatten)        (None, 4096)              0         
_________________________________________________________________
dense_478 (Dense)            (None, 100)               409700    
=================================================================
Total params: 2,102,575
Trainable params: 2,096,399
Non-trainable params: 6,176
_________________________________________________________________
