Model: "sequential_25"
_________________________________________________________________
Layer (type)                 Output Shape              Param #   
=================================================================
separable_conv2d_247 (Separa (None, 32, 32, 1024)      4123      
_________________________________________________________________
batch_normalization_137 (Bat (None, 32, 32, 1024)      4096      
_________________________________________________________________
activation_281 (Activation)  (None, 32, 32, 1024)      0         
_________________________________________________________________
dropout_281 (Dropout)        (None, 32, 32, 1024)      0         
_________________________________________________________________
max_pooling2d_54 (MaxPooling (None, 16, 16, 1024)      0         
_________________________________________________________________
separable_conv2d_248 (Separa (None, 16, 16, 32)        42016     
_________________________________________________________________
activation_282 (Activation)  (None, 16, 16, 32)        0         
_________________________________________________________________
dropout_282 (Dropout)        (None, 16, 16, 32)        0         
_________________________________________________________________
max_pooling2d_55 (MaxPooling (None, 8, 8, 32)          0         
_________________________________________________________________
separable_conv2d_249 (Separa (None, 8, 8, 512)         17184     
_________________________________________________________________
activation_283 (Activation)  (None, 8, 8, 512)         0         
_________________________________________________________________
dropout_283 (Dropout)        (None, 8, 8, 512)         0         
_________________________________________________________________
separable_conv2d_250 (Separa (None, 8, 8, 1024)        529920    
_________________________________________________________________
batch_normalization_138 (Bat (None, 8, 8, 1024)        4096      
_________________________________________________________________
activation_284 (Activation)  (None, 8, 8, 1024)        0         
_________________________________________________________________
dropout_284 (Dropout)        (None, 8, 8, 1024)        0         
_________________________________________________________________
separable_conv2d_251 (Separa (None, 8, 8, 1024)        1058816   
_________________________________________________________________
batch_normalization_139 (Bat (None, 8, 8, 1024)        4096      
_________________________________________________________________
activation_285 (Activation)  (None, 8, 8, 1024)        0         
_________________________________________________________________
dropout_285 (Dropout)        (None, 8, 8, 1024)        0         
_________________________________________________________________
separable_conv2d_252 (Separa (None, 8, 8, 16)          25616     
_________________________________________________________________
batch_normalization_140 (Bat (None, 8, 8, 16)          64        
_________________________________________________________________
activation_286 (Activation)  (None, 8, 8, 16)          0         
_________________________________________________________________
dropout_286 (Dropout)        (None, 8, 8, 16)          0         
_________________________________________________________________
separable_conv2d_253 (Separa (None, 8, 8, 16)          416       
_________________________________________________________________
batch_normalization_141 (Bat (None, 8, 8, 16)          64        
_________________________________________________________________
activation_287 (Activation)  (None, 8, 8, 16)          0         
_________________________________________________________________
dropout_287 (Dropout)        (None, 8, 8, 16)          0         
_________________________________________________________________
separable_conv2d_254 (Separa (None, 8, 8, 512)         8848      
_________________________________________________________________
activation_288 (Activation)  (None, 8, 8, 512)         0         
_________________________________________________________________
dropout_288 (Dropout)        (None, 8, 8, 512)         0         
_________________________________________________________________
separable_conv2d_255 (Separa (None, 8, 8, 64)          37440     
_________________________________________________________________
activation_289 (Activation)  (None, 8, 8, 64)          0         
_________________________________________________________________
dropout_289 (Dropout)        (None, 8, 8, 64)          0         
_________________________________________________________________
separable_conv2d_256 (Separa (None, 8, 8, 8)           1096      
_________________________________________________________________
activation_290 (Activation)  (None, 8, 8, 8)           0         
_________________________________________________________________
dropout_290 (Dropout)        (None, 8, 8, 8)           0         
_________________________________________________________________
flatten_25 (Flatten)         (None, 512)               0         
_________________________________________________________________
dense_59 (Dense)             (None, 4096)              2101248   
_________________________________________________________________
activation_291 (Activation)  (None, 4096)              0         
_________________________________________________________________
dropout_291 (Dropout)        (None, 4096)              0         
_________________________________________________________________
dense_60 (Dense)             (None, 100)               409700    
=================================================================
Total params: 4,248,839
Trainable params: 4,242,631
Non-trainable params: 6,208
_________________________________________________________________
