Model: "sequential_281"
_________________________________________________________________
Layer (type)                 Output Shape              Param #   
=================================================================
separable_conv2d_2428 (Separ (None, 32, 32, 1024)      4123      
_________________________________________________________________
batch_normalization_1317 (Ba (None, 32, 32, 1024)      4096      
_________________________________________________________________
activation_2680 (Activation) (None, 32, 32, 1024)      0         
_________________________________________________________________
dropout_2680 (Dropout)       (None, 32, 32, 1024)      0         
_________________________________________________________________
separable_conv2d_2429 (Separ (None, 32, 32, 32)        42016     
_________________________________________________________________
activation_2681 (Activation) (None, 32, 32, 32)        0         
_________________________________________________________________
dropout_2681 (Dropout)       (None, 32, 32, 32)        0         
_________________________________________________________________
max_pooling2d_467 (MaxPoolin (None, 16, 16, 32)        0         
_________________________________________________________________
separable_conv2d_2430 (Separ (None, 16, 16, 512)       17184     
_________________________________________________________________
activation_2682 (Activation) (None, 16, 16, 512)       0         
_________________________________________________________________
dropout_2682 (Dropout)       (None, 16, 16, 512)       0         
_________________________________________________________________
separable_conv2d_2431 (Separ (None, 16, 16, 1024)      529920    
_________________________________________________________________
batch_normalization_1318 (Ba (None, 16, 16, 1024)      4096      
_________________________________________________________________
activation_2683 (Activation) (None, 16, 16, 1024)      0         
_________________________________________________________________
dropout_2683 (Dropout)       (None, 16, 16, 1024)      0         
_________________________________________________________________
separable_conv2d_2432 (Separ (None, 16, 16, 1024)      1058816   
_________________________________________________________________
batch_normalization_1319 (Ba (None, 16, 16, 1024)      4096      
_________________________________________________________________
activation_2684 (Activation) (None, 16, 16, 1024)      0         
_________________________________________________________________
dropout_2684 (Dropout)       (None, 16, 16, 1024)      0         
_________________________________________________________________
separable_conv2d_2433 (Separ (None, 16, 16, 16)        25616     
_________________________________________________________________
batch_normalization_1320 (Ba (None, 16, 16, 16)        64        
_________________________________________________________________
activation_2685 (Activation) (None, 16, 16, 16)        0         
_________________________________________________________________
dropout_2685 (Dropout)       (None, 16, 16, 16)        0         
_________________________________________________________________
separable_conv2d_2434 (Separ (None, 16, 16, 64)        1232      
_________________________________________________________________
activation_2686 (Activation) (None, 16, 16, 64)        0         
_________________________________________________________________
dropout_2686 (Dropout)       (None, 16, 16, 64)        0         
_________________________________________________________________
separable_conv2d_2435 (Separ (None, 16, 16, 16)        1616      
_________________________________________________________________
activation_2687 (Activation) (None, 16, 16, 16)        0         
_________________________________________________________________
dropout_2687 (Dropout)       (None, 16, 16, 16)        0         
_________________________________________________________________
flatten_281 (Flatten)        (None, 4096)              0         
_________________________________________________________________
dense_533 (Dense)            (None, 4096)              16781312  
_________________________________________________________________
activation_2688 (Activation) (None, 4096)              0         
_________________________________________________________________
dropout_2688 (Dropout)       (None, 4096)              0         
_________________________________________________________________
dense_534 (Dense)            (None, 100)               409700    
=================================================================
Total params: 18,883,887
Trainable params: 18,877,711
Non-trainable params: 6,176
_________________________________________________________________
