Model: "sequential_396"
_________________________________________________________________
Layer (type)                 Output Shape              Param #   
=================================================================
separable_conv2d_3344 (Separ (None, 32, 32, 1024)      4123      
_________________________________________________________________
batch_normalization_1785 (Ba (None, 32, 32, 1024)      4096      
_________________________________________________________________
activation_3616 (Activation) (None, 32, 32, 1024)      0         
_________________________________________________________________
dropout_3616 (Dropout)       (None, 32, 32, 1024)      0         
_________________________________________________________________
separable_conv2d_3345 (Separ (None, 32, 32, 32)        42016     
_________________________________________________________________
activation_3617 (Activation) (None, 32, 32, 32)        0         
_________________________________________________________________
dropout_3617 (Dropout)       (None, 32, 32, 32)        0         
_________________________________________________________________
max_pooling2d_592 (MaxPoolin (None, 16, 16, 32)        0         
_________________________________________________________________
separable_conv2d_3346 (Separ (None, 16, 16, 512)       17184     
_________________________________________________________________
activation_3618 (Activation) (None, 16, 16, 512)       0         
_________________________________________________________________
dropout_3618 (Dropout)       (None, 16, 16, 512)       0         
_________________________________________________________________
separable_conv2d_3347 (Separ (None, 16, 16, 1024)      529920    
_________________________________________________________________
batch_normalization_1786 (Ba (None, 16, 16, 1024)      4096      
_________________________________________________________________
activation_3619 (Activation) (None, 16, 16, 1024)      0         
_________________________________________________________________
dropout_3619 (Dropout)       (None, 16, 16, 1024)      0         
_________________________________________________________________
separable_conv2d_3348 (Separ (None, 16, 16, 1024)      1058816   
_________________________________________________________________
batch_normalization_1787 (Ba (None, 16, 16, 1024)      4096      
_________________________________________________________________
activation_3620 (Activation) (None, 16, 16, 1024)      0         
_________________________________________________________________
dropout_3620 (Dropout)       (None, 16, 16, 1024)      0         
_________________________________________________________________
separable_conv2d_3349 (Separ (None, 16, 16, 16)        25616     
_________________________________________________________________
batch_normalization_1788 (Ba (None, 16, 16, 16)        64        
_________________________________________________________________
activation_3621 (Activation) (None, 16, 16, 16)        0         
_________________________________________________________________
dropout_3621 (Dropout)       (None, 16, 16, 16)        0         
_________________________________________________________________
separable_conv2d_3350 (Separ (None, 16, 16, 64)        1232      
_________________________________________________________________
activation_3622 (Activation) (None, 16, 16, 64)        0         
_________________________________________________________________
dropout_3622 (Dropout)       (None, 16, 16, 64)        0         
_________________________________________________________________
separable_conv2d_3351 (Separ (None, 16, 16, 16)        1616      
_________________________________________________________________
activation_3623 (Activation) (None, 16, 16, 16)        0         
_________________________________________________________________
dropout_3623 (Dropout)       (None, 16, 16, 16)        0         
_________________________________________________________________
flatten_396 (Flatten)        (None, 4096)              0         
_________________________________________________________________
dense_668 (Dense)            (None, 4096)              16781312  
_________________________________________________________________
activation_3624 (Activation) (None, 4096)              0         
_________________________________________________________________
dropout_3624 (Dropout)       (None, 4096)              0         
_________________________________________________________________
dense_669 (Dense)            (None, 100)               409700    
=================================================================
Total params: 18,883,887
Trainable params: 18,877,711
Non-trainable params: 6,176
_________________________________________________________________
