Model: "sequential_311"
_________________________________________________________________
Layer (type)                 Output Shape              Param #   
=================================================================
separable_conv2d_2669 (Separ (None, 32, 32, 1024)      4123      
_________________________________________________________________
batch_normalization_1433 (Ba (None, 32, 32, 1024)      4096      
_________________________________________________________________
activation_2926 (Activation) (None, 32, 32, 1024)      0         
_________________________________________________________________
dropout_2926 (Dropout)       (None, 32, 32, 1024)      0         
_________________________________________________________________
separable_conv2d_2670 (Separ (None, 32, 32, 32)        42016     
_________________________________________________________________
activation_2927 (Activation) (None, 32, 32, 32)        0         
_________________________________________________________________
dropout_2927 (Dropout)       (None, 32, 32, 32)        0         
_________________________________________________________________
max_pooling2d_501 (MaxPoolin (None, 16, 16, 32)        0         
_________________________________________________________________
separable_conv2d_2671 (Separ (None, 16, 16, 512)       17184     
_________________________________________________________________
activation_2928 (Activation) (None, 16, 16, 512)       0         
_________________________________________________________________
dropout_2928 (Dropout)       (None, 16, 16, 512)       0         
_________________________________________________________________
separable_conv2d_2672 (Separ (None, 16, 16, 1024)      529920    
_________________________________________________________________
batch_normalization_1434 (Ba (None, 16, 16, 1024)      4096      
_________________________________________________________________
activation_2929 (Activation) (None, 16, 16, 1024)      0         
_________________________________________________________________
dropout_2929 (Dropout)       (None, 16, 16, 1024)      0         
_________________________________________________________________
separable_conv2d_2673 (Separ (None, 16, 16, 1024)      1058816   
_________________________________________________________________
batch_normalization_1435 (Ba (None, 16, 16, 1024)      4096      
_________________________________________________________________
activation_2930 (Activation) (None, 16, 16, 1024)      0         
_________________________________________________________________
dropout_2930 (Dropout)       (None, 16, 16, 1024)      0         
_________________________________________________________________
separable_conv2d_2674 (Separ (None, 16, 16, 16)        25616     
_________________________________________________________________
batch_normalization_1436 (Ba (None, 16, 16, 16)        64        
_________________________________________________________________
activation_2931 (Activation) (None, 16, 16, 16)        0         
_________________________________________________________________
dropout_2931 (Dropout)       (None, 16, 16, 16)        0         
_________________________________________________________________
separable_conv2d_2675 (Separ (None, 16, 16, 64)        1232      
_________________________________________________________________
activation_2932 (Activation) (None, 16, 16, 64)        0         
_________________________________________________________________
dropout_2932 (Dropout)       (None, 16, 16, 64)        0         
_________________________________________________________________
separable_conv2d_2676 (Separ (None, 16, 16, 16)        1616      
_________________________________________________________________
activation_2933 (Activation) (None, 16, 16, 16)        0         
_________________________________________________________________
dropout_2933 (Dropout)       (None, 16, 16, 16)        0         
_________________________________________________________________
flatten_311 (Flatten)        (None, 4096)              0         
_________________________________________________________________
dense_568 (Dense)            (None, 100)               409700    
=================================================================
Total params: 2,102,575
Trainable params: 2,096,399
Non-trainable params: 6,176
_________________________________________________________________
