Model: "sequential_365"
_________________________________________________________________
Layer (type)                 Output Shape              Param #   
=================================================================
separable_conv2d_3099 (Separ (None, 32, 32, 1024)      4123      
_________________________________________________________________
batch_normalization_1659 (Ba (None, 32, 32, 1024)      4096      
_________________________________________________________________
activation_3365 (Activation) (None, 32, 32, 1024)      0         
_________________________________________________________________
dropout_3365 (Dropout)       (None, 32, 32, 1024)      0         
_________________________________________________________________
separable_conv2d_3100 (Separ (None, 32, 32, 32)        42016     
_________________________________________________________________
activation_3366 (Activation) (None, 32, 32, 32)        0         
_________________________________________________________________
dropout_3366 (Dropout)       (None, 32, 32, 32)        0         
_________________________________________________________________
max_pooling2d_561 (MaxPoolin (None, 16, 16, 32)        0         
_________________________________________________________________
separable_conv2d_3101 (Separ (None, 16, 16, 512)       17184     
_________________________________________________________________
activation_3367 (Activation) (None, 16, 16, 512)       0         
_________________________________________________________________
dropout_3367 (Dropout)       (None, 16, 16, 512)       0         
_________________________________________________________________
separable_conv2d_3102 (Separ (None, 16, 16, 1024)      529920    
_________________________________________________________________
batch_normalization_1660 (Ba (None, 16, 16, 1024)      4096      
_________________________________________________________________
activation_3368 (Activation) (None, 16, 16, 1024)      0         
_________________________________________________________________
dropout_3368 (Dropout)       (None, 16, 16, 1024)      0         
_________________________________________________________________
separable_conv2d_3103 (Separ (None, 16, 16, 1024)      1058816   
_________________________________________________________________
batch_normalization_1661 (Ba (None, 16, 16, 1024)      4096      
_________________________________________________________________
activation_3369 (Activation) (None, 16, 16, 1024)      0         
_________________________________________________________________
dropout_3369 (Dropout)       (None, 16, 16, 1024)      0         
_________________________________________________________________
separable_conv2d_3104 (Separ (None, 16, 16, 16)        25616     
_________________________________________________________________
batch_normalization_1662 (Ba (None, 16, 16, 16)        64        
_________________________________________________________________
activation_3370 (Activation) (None, 16, 16, 16)        0         
_________________________________________________________________
dropout_3370 (Dropout)       (None, 16, 16, 16)        0         
_________________________________________________________________
separable_conv2d_3105 (Separ (None, 16, 16, 64)        1232      
_________________________________________________________________
activation_3371 (Activation) (None, 16, 16, 64)        0         
_________________________________________________________________
dropout_3371 (Dropout)       (None, 16, 16, 64)        0         
_________________________________________________________________
separable_conv2d_3106 (Separ (None, 16, 16, 16)        1616      
_________________________________________________________________
activation_3372 (Activation) (None, 16, 16, 16)        0         
_________________________________________________________________
dropout_3372 (Dropout)       (None, 16, 16, 16)        0         
_________________________________________________________________
flatten_365 (Flatten)        (None, 4096)              0         
_________________________________________________________________
dense_631 (Dense)            (None, 4096)              16781312  
_________________________________________________________________
activation_3373 (Activation) (None, 4096)              0         
_________________________________________________________________
dropout_3373 (Dropout)       (None, 4096)              0         
_________________________________________________________________
dense_632 (Dense)            (None, 100)               409700    
=================================================================
Total params: 18,883,887
Trainable params: 18,877,711
Non-trainable params: 6,176
_________________________________________________________________
