Model: "sequential_356"
_________________________________________________________________
Layer (type)                 Output Shape              Param #   
=================================================================
separable_conv2d_3027 (Separ (None, 32, 32, 1024)      4123      
_________________________________________________________________
batch_normalization_1617 (Ba (None, 32, 32, 1024)      4096      
_________________________________________________________________
activation_3292 (Activation) (None, 32, 32, 1024)      0         
_________________________________________________________________
dropout_3292 (Dropout)       (None, 32, 32, 1024)      0         
_________________________________________________________________
separable_conv2d_3028 (Separ (None, 32, 32, 32)        42016     
_________________________________________________________________
activation_3293 (Activation) (None, 32, 32, 32)        0         
_________________________________________________________________
dropout_3293 (Dropout)       (None, 32, 32, 32)        0         
_________________________________________________________________
max_pooling2d_552 (MaxPoolin (None, 16, 16, 32)        0         
_________________________________________________________________
separable_conv2d_3029 (Separ (None, 16, 16, 512)       17184     
_________________________________________________________________
activation_3294 (Activation) (None, 16, 16, 512)       0         
_________________________________________________________________
dropout_3294 (Dropout)       (None, 16, 16, 512)       0         
_________________________________________________________________
separable_conv2d_3030 (Separ (None, 16, 16, 1024)      529920    
_________________________________________________________________
batch_normalization_1618 (Ba (None, 16, 16, 1024)      4096      
_________________________________________________________________
activation_3295 (Activation) (None, 16, 16, 1024)      0         
_________________________________________________________________
dropout_3295 (Dropout)       (None, 16, 16, 1024)      0         
_________________________________________________________________
separable_conv2d_3031 (Separ (None, 16, 16, 1024)      1058816   
_________________________________________________________________
batch_normalization_1619 (Ba (None, 16, 16, 1024)      4096      
_________________________________________________________________
activation_3296 (Activation) (None, 16, 16, 1024)      0         
_________________________________________________________________
dropout_3296 (Dropout)       (None, 16, 16, 1024)      0         
_________________________________________________________________
separable_conv2d_3032 (Separ (None, 16, 16, 16)        25616     
_________________________________________________________________
batch_normalization_1620 (Ba (None, 16, 16, 16)        64        
_________________________________________________________________
activation_3297 (Activation) (None, 16, 16, 16)        0         
_________________________________________________________________
dropout_3297 (Dropout)       (None, 16, 16, 16)        0         
_________________________________________________________________
separable_conv2d_3033 (Separ (None, 16, 16, 64)        1232      
_________________________________________________________________
activation_3298 (Activation) (None, 16, 16, 64)        0         
_________________________________________________________________
dropout_3298 (Dropout)       (None, 16, 16, 64)        0         
_________________________________________________________________
separable_conv2d_3034 (Separ (None, 16, 16, 16)        1616      
_________________________________________________________________
activation_3299 (Activation) (None, 16, 16, 16)        0         
_________________________________________________________________
dropout_3299 (Dropout)       (None, 16, 16, 16)        0         
_________________________________________________________________
flatten_356 (Flatten)        (None, 4096)              0         
_________________________________________________________________
dense_621 (Dense)            (None, 100)               409700    
=================================================================
Total params: 2,102,575
Trainable params: 2,096,399
Non-trainable params: 6,176
_________________________________________________________________
