Model: "sequential_135"
_________________________________________________________________
Layer (type)                 Output Shape              Param #   
=================================================================
separable_conv2d_1257 (Separ (None, 32, 32, 1024)      4123      
_________________________________________________________________
batch_normalization_705 (Bat (None, 32, 32, 1024)      4096      
_________________________________________________________________
activation_1419 (Activation) (None, 32, 32, 1024)      0         
_________________________________________________________________
dropout_1419 (Dropout)       (None, 32, 32, 1024)      0         
_________________________________________________________________
max_pooling2d_286 (MaxPoolin (None, 16, 16, 1024)      0         
_________________________________________________________________
separable_conv2d_1258 (Separ (None, 16, 16, 128)       140416    
_________________________________________________________________
activation_1420 (Activation) (None, 16, 16, 128)       0         
_________________________________________________________________
dropout_1420 (Dropout)       (None, 16, 16, 128)       0         
_________________________________________________________________
max_pooling2d_287 (MaxPoolin (None, 8, 8, 128)         0         
_________________________________________________________________
separable_conv2d_1259 (Separ (None, 8, 8, 512)         67200     
_________________________________________________________________
activation_1421 (Activation) (None, 8, 8, 512)         0         
_________________________________________________________________
dropout_1421 (Dropout)       (None, 8, 8, 512)         0         
_________________________________________________________________
separable_conv2d_1260 (Separ (None, 8, 8, 8)           8712      
_________________________________________________________________
batch_normalization_706 (Bat (None, 8, 8, 8)           32        
_________________________________________________________________
activation_1422 (Activation) (None, 8, 8, 8)           0         
_________________________________________________________________
dropout_1422 (Dropout)       (None, 8, 8, 8)           0         
_________________________________________________________________
separable_conv2d_1261 (Separ (None, 8, 8, 1024)        9288      
_________________________________________________________________
batch_normalization_707 (Bat (None, 8, 8, 1024)        4096      
_________________________________________________________________
activation_1423 (Activation) (None, 8, 8, 1024)        0         
_________________________________________________________________
dropout_1423 (Dropout)       (None, 8, 8, 1024)        0         
_________________________________________________________________
separable_conv2d_1262 (Separ (None, 8, 8, 16)          25616     
_________________________________________________________________
batch_normalization_708 (Bat (None, 8, 8, 16)          64        
_________________________________________________________________
activation_1424 (Activation) (None, 8, 8, 16)          0         
_________________________________________________________________
dropout_1424 (Dropout)       (None, 8, 8, 16)          0         
_________________________________________________________________
separable_conv2d_1263 (Separ (None, 8, 8, 16)          416       
_________________________________________________________________
batch_normalization_709 (Bat (None, 8, 8, 16)          64        
_________________________________________________________________
activation_1425 (Activation) (None, 8, 8, 16)          0         
_________________________________________________________________
dropout_1425 (Dropout)       (None, 8, 8, 16)          0         
_________________________________________________________________
separable_conv2d_1264 (Separ (None, 8, 8, 8)           280       
_________________________________________________________________
activation_1426 (Activation) (None, 8, 8, 8)           0         
_________________________________________________________________
dropout_1426 (Dropout)       (None, 8, 8, 8)           0         
_________________________________________________________________
flatten_135 (Flatten)        (None, 512)               0         
_________________________________________________________________
dense_297 (Dense)            (None, 4096)              2101248   
_________________________________________________________________
activation_1427 (Activation) (None, 4096)              0         
_________________________________________________________________
dropout_1427 (Dropout)       (None, 4096)              0         
_________________________________________________________________
dense_298 (Dense)            (None, 100)               409700    
=================================================================
Total params: 2,775,351
Trainable params: 2,771,175
Non-trainable params: 4,176
_________________________________________________________________
