Model: "sequential_242"
_________________________________________________________________
Layer (type)                 Output Shape              Param #   
=================================================================
separable_conv2d_2117 (Separ (None, 32, 32, 1024)      4123      
_________________________________________________________________
batch_normalization_1166 (Ba (None, 32, 32, 1024)      4096      
_________________________________________________________________
activation_2358 (Activation) (None, 32, 32, 1024)      0         
_________________________________________________________________
dropout_2358 (Dropout)       (None, 32, 32, 1024)      0         
_________________________________________________________________
separable_conv2d_2118 (Separ (None, 32, 32, 32)        42016     
_________________________________________________________________
batch_normalization_1167 (Ba (None, 32, 32, 32)        128       
_________________________________________________________________
activation_2359 (Activation) (None, 32, 32, 32)        0         
_________________________________________________________________
dropout_2359 (Dropout)       (None, 32, 32, 32)        0         
_________________________________________________________________
max_pooling2d_427 (MaxPoolin (None, 16, 16, 32)        0         
_________________________________________________________________
separable_conv2d_2119 (Separ (None, 16, 16, 512)       17184     
_________________________________________________________________
activation_2360 (Activation) (None, 16, 16, 512)       0         
_________________________________________________________________
dropout_2360 (Dropout)       (None, 16, 16, 512)       0         
_________________________________________________________________
separable_conv2d_2120 (Separ (None, 16, 16, 1024)      529920    
_________________________________________________________________
batch_normalization_1168 (Ba (None, 16, 16, 1024)      4096      
_________________________________________________________________
activation_2361 (Activation) (None, 16, 16, 1024)      0         
_________________________________________________________________
dropout_2361 (Dropout)       (None, 16, 16, 1024)      0         
_________________________________________________________________
separable_conv2d_2121 (Separ (None, 16, 16, 1024)      1058816   
_________________________________________________________________
batch_normalization_1169 (Ba (None, 16, 16, 1024)      4096      
_________________________________________________________________
activation_2362 (Activation) (None, 16, 16, 1024)      0         
_________________________________________________________________
dropout_2362 (Dropout)       (None, 16, 16, 1024)      0         
_________________________________________________________________
separable_conv2d_2122 (Separ (None, 16, 16, 16)        25616     
_________________________________________________________________
batch_normalization_1170 (Ba (None, 16, 16, 16)        64        
_________________________________________________________________
activation_2363 (Activation) (None, 16, 16, 16)        0         
_________________________________________________________________
dropout_2363 (Dropout)       (None, 16, 16, 16)        0         
_________________________________________________________________
separable_conv2d_2123 (Separ (None, 16, 16, 64)        1232      
_________________________________________________________________
activation_2364 (Activation) (None, 16, 16, 64)        0         
_________________________________________________________________
dropout_2364 (Dropout)       (None, 16, 16, 64)        0         
_________________________________________________________________
separable_conv2d_2124 (Separ (None, 16, 16, 16)        1616      
_________________________________________________________________
activation_2365 (Activation) (None, 16, 16, 16)        0         
_________________________________________________________________
dropout_2365 (Dropout)       (None, 16, 16, 16)        0         
_________________________________________________________________
flatten_242 (Flatten)        (None, 4096)              0         
_________________________________________________________________
dense_483 (Dense)            (None, 100)               409700    
=================================================================
Total params: 2,102,703
Trainable params: 2,096,463
Non-trainable params: 6,240
_________________________________________________________________
