Model: "sequential_114"
_________________________________________________________________
Layer (type)                 Output Shape              Param #   
=================================================================
separable_conv2d_1082 (Separ (None, 32, 32, 1024)      4123      
_________________________________________________________________
batch_normalization_608 (Bat (None, 32, 32, 1024)      4096      
_________________________________________________________________
activation_1223 (Activation) (None, 32, 32, 1024)      0         
_________________________________________________________________
dropout_1223 (Dropout)       (None, 32, 32, 1024)      0         
_________________________________________________________________
max_pooling2d_245 (MaxPoolin (None, 16, 16, 1024)      0         
_________________________________________________________________
separable_conv2d_1083 (Separ (None, 16, 16, 128)       140416    
_________________________________________________________________
activation_1224 (Activation) (None, 16, 16, 128)       0         
_________________________________________________________________
dropout_1224 (Dropout)       (None, 16, 16, 128)       0         
_________________________________________________________________
max_pooling2d_246 (MaxPoolin (None, 8, 8, 128)         0         
_________________________________________________________________
separable_conv2d_1084 (Separ (None, 8, 8, 512)         67200     
_________________________________________________________________
activation_1225 (Activation) (None, 8, 8, 512)         0         
_________________________________________________________________
dropout_1225 (Dropout)       (None, 8, 8, 512)         0         
_________________________________________________________________
separable_conv2d_1085 (Separ (None, 8, 8, 32)          21024     
_________________________________________________________________
batch_normalization_609 (Bat (None, 8, 8, 32)          128       
_________________________________________________________________
activation_1226 (Activation) (None, 8, 8, 32)          0         
_________________________________________________________________
dropout_1226 (Dropout)       (None, 8, 8, 32)          0         
_________________________________________________________________
separable_conv2d_1086 (Separ (None, 8, 8, 1024)        34080     
_________________________________________________________________
batch_normalization_610 (Bat (None, 8, 8, 1024)        4096      
_________________________________________________________________
activation_1227 (Activation) (None, 8, 8, 1024)        0         
_________________________________________________________________
dropout_1227 (Dropout)       (None, 8, 8, 1024)        0         
_________________________________________________________________
separable_conv2d_1087 (Separ (None, 8, 8, 16)          25616     
_________________________________________________________________
batch_normalization_611 (Bat (None, 8, 8, 16)          64        
_________________________________________________________________
activation_1228 (Activation) (None, 8, 8, 16)          0         
_________________________________________________________________
dropout_1228 (Dropout)       (None, 8, 8, 16)          0         
_________________________________________________________________
separable_conv2d_1088 (Separ (None, 8, 8, 16)          416       
_________________________________________________________________
batch_normalization_612 (Bat (None, 8, 8, 16)          64        
_________________________________________________________________
activation_1229 (Activation) (None, 8, 8, 16)          0         
_________________________________________________________________
dropout_1229 (Dropout)       (None, 8, 8, 16)          0         
_________________________________________________________________
separable_conv2d_1089 (Separ (None, 8, 8, 8)           280       
_________________________________________________________________
activation_1230 (Activation) (None, 8, 8, 8)           0         
_________________________________________________________________
dropout_1230 (Dropout)       (None, 8, 8, 8)           0         
_________________________________________________________________
flatten_114 (Flatten)        (None, 512)               0         
_________________________________________________________________
dense_255 (Dense)            (None, 4096)              2101248   
_________________________________________________________________
activation_1231 (Activation) (None, 4096)              0         
_________________________________________________________________
dropout_1231 (Dropout)       (None, 4096)              0         
_________________________________________________________________
dense_256 (Dense)            (None, 100)               409700    
=================================================================
Total params: 2,812,551
Trainable params: 2,808,327
Non-trainable params: 4,224
_________________________________________________________________
