Model: "sequential_126"
_________________________________________________________________
Layer (type)                 Output Shape              Param #   
=================================================================
separable_conv2d_1183 (Separ (None, 32, 32, 1024)      4123      
_________________________________________________________________
batch_normalization_662 (Bat (None, 32, 32, 1024)      4096      
_________________________________________________________________
activation_1336 (Activation) (None, 32, 32, 1024)      0         
_________________________________________________________________
dropout_1336 (Dropout)       (None, 32, 32, 1024)      0         
_________________________________________________________________
max_pooling2d_268 (MaxPoolin (None, 16, 16, 1024)      0         
_________________________________________________________________
separable_conv2d_1184 (Separ (None, 16, 16, 32)        42016     
_________________________________________________________________
activation_1337 (Activation) (None, 16, 16, 32)        0         
_________________________________________________________________
dropout_1337 (Dropout)       (None, 16, 16, 32)        0         
_________________________________________________________________
max_pooling2d_269 (MaxPoolin (None, 8, 8, 32)          0         
_________________________________________________________________
separable_conv2d_1185 (Separ (None, 8, 8, 512)         17184     
_________________________________________________________________
activation_1338 (Activation) (None, 8, 8, 512)         0         
_________________________________________________________________
dropout_1338 (Dropout)       (None, 8, 8, 512)         0         
_________________________________________________________________
separable_conv2d_1186 (Separ (None, 8, 8, 1024)        529920    
_________________________________________________________________
batch_normalization_663 (Bat (None, 8, 8, 1024)        4096      
_________________________________________________________________
activation_1339 (Activation) (None, 8, 8, 1024)        0         
_________________________________________________________________
dropout_1339 (Dropout)       (None, 8, 8, 1024)        0         
_________________________________________________________________
separable_conv2d_1187 (Separ (None, 8, 8, 1024)        1058816   
_________________________________________________________________
batch_normalization_664 (Bat (None, 8, 8, 1024)        4096      
_________________________________________________________________
activation_1340 (Activation) (None, 8, 8, 1024)        0         
_________________________________________________________________
dropout_1340 (Dropout)       (None, 8, 8, 1024)        0         
_________________________________________________________________
separable_conv2d_1188 (Separ (None, 8, 8, 16)          25616     
_________________________________________________________________
batch_normalization_665 (Bat (None, 8, 8, 16)          64        
_________________________________________________________________
activation_1341 (Activation) (None, 8, 8, 16)          0         
_________________________________________________________________
dropout_1341 (Dropout)       (None, 8, 8, 16)          0         
_________________________________________________________________
separable_conv2d_1189 (Separ (None, 8, 8, 16)          416       
_________________________________________________________________
batch_normalization_666 (Bat (None, 8, 8, 16)          64        
_________________________________________________________________
activation_1342 (Activation) (None, 8, 8, 16)          0         
_________________________________________________________________
dropout_1342 (Dropout)       (None, 8, 8, 16)          0         
_________________________________________________________________
separable_conv2d_1190 (Separ (None, 8, 8, 8)           280       
_________________________________________________________________
activation_1343 (Activation) (None, 8, 8, 8)           0         
_________________________________________________________________
dropout_1343 (Dropout)       (None, 8, 8, 8)           0         
_________________________________________________________________
flatten_126 (Flatten)        (None, 512)               0         
_________________________________________________________________
dense_279 (Dense)            (None, 4096)              2101248   
_________________________________________________________________
activation_1344 (Activation) (None, 4096)              0         
_________________________________________________________________
dropout_1344 (Dropout)       (None, 4096)              0         
_________________________________________________________________
dense_280 (Dense)            (None, 100)               409700    
=================================================================
Total params: 4,201,735
Trainable params: 4,195,527
Non-trainable params: 6,208
_________________________________________________________________
