Model: "sequential_101"
_________________________________________________________________
Layer (type)                 Output Shape              Param #   
=================================================================
separable_conv2d_975 (Separa (None, 32, 32, 1024)      4123      
_________________________________________________________________
batch_normalization_545 (Bat (None, 32, 32, 1024)      4096      
_________________________________________________________________
activation_1103 (Activation) (None, 32, 32, 1024)      0         
_________________________________________________________________
dropout_1103 (Dropout)       (None, 32, 32, 1024)      0         
_________________________________________________________________
max_pooling2d_219 (MaxPoolin (None, 16, 16, 1024)      0         
_________________________________________________________________
separable_conv2d_976 (Separa (None, 16, 16, 32)        42016     
_________________________________________________________________
activation_1104 (Activation) (None, 16, 16, 32)        0         
_________________________________________________________________
dropout_1104 (Dropout)       (None, 16, 16, 32)        0         
_________________________________________________________________
max_pooling2d_220 (MaxPoolin (None, 8, 8, 32)          0         
_________________________________________________________________
separable_conv2d_977 (Separa (None, 8, 8, 512)         17184     
_________________________________________________________________
activation_1105 (Activation) (None, 8, 8, 512)         0         
_________________________________________________________________
dropout_1105 (Dropout)       (None, 8, 8, 512)         0         
_________________________________________________________________
separable_conv2d_978 (Separa (None, 8, 8, 1024)        529920    
_________________________________________________________________
batch_normalization_546 (Bat (None, 8, 8, 1024)        4096      
_________________________________________________________________
activation_1106 (Activation) (None, 8, 8, 1024)        0         
_________________________________________________________________
dropout_1106 (Dropout)       (None, 8, 8, 1024)        0         
_________________________________________________________________
separable_conv2d_979 (Separa (None, 8, 8, 1024)        1058816   
_________________________________________________________________
batch_normalization_547 (Bat (None, 8, 8, 1024)        4096      
_________________________________________________________________
activation_1107 (Activation) (None, 8, 8, 1024)        0         
_________________________________________________________________
dropout_1107 (Dropout)       (None, 8, 8, 1024)        0         
_________________________________________________________________
separable_conv2d_980 (Separa (None, 8, 8, 16)          25616     
_________________________________________________________________
batch_normalization_548 (Bat (None, 8, 8, 16)          64        
_________________________________________________________________
activation_1108 (Activation) (None, 8, 8, 16)          0         
_________________________________________________________________
dropout_1108 (Dropout)       (None, 8, 8, 16)          0         
_________________________________________________________________
separable_conv2d_981 (Separa (None, 8, 8, 16)          416       
_________________________________________________________________
batch_normalization_549 (Bat (None, 8, 8, 16)          64        
_________________________________________________________________
activation_1109 (Activation) (None, 8, 8, 16)          0         
_________________________________________________________________
dropout_1109 (Dropout)       (None, 8, 8, 16)          0         
_________________________________________________________________
separable_conv2d_982 (Separa (None, 8, 8, 8)           280       
_________________________________________________________________
activation_1110 (Activation) (None, 8, 8, 8)           0         
_________________________________________________________________
dropout_1110 (Dropout)       (None, 8, 8, 8)           0         
_________________________________________________________________
flatten_101 (Flatten)        (None, 512)               0         
_________________________________________________________________
dense_229 (Dense)            (None, 4096)              2101248   
_________________________________________________________________
activation_1111 (Activation) (None, 4096)              0         
_________________________________________________________________
dropout_1111 (Dropout)       (None, 4096)              0         
_________________________________________________________________
dense_230 (Dense)            (None, 100)               409700    
=================================================================
Total params: 4,201,735
Trainable params: 4,195,527
Non-trainable params: 6,208
_________________________________________________________________
