Model: "sequential_178"
_________________________________________________________________
Layer (type)                 Output Shape              Param #   
=================================================================
separable_conv2d_1610 (Separ (None, 32, 32, 1024)      4123      
_________________________________________________________________
batch_normalization_901 (Bat (None, 32, 32, 1024)      4096      
_________________________________________________________________
activation_1810 (Activation) (None, 32, 32, 1024)      0         
_________________________________________________________________
dropout_1810 (Dropout)       (None, 32, 32, 1024)      0         
_________________________________________________________________
separable_conv2d_1611 (Separ (None, 32, 32, 32)        42016     
_________________________________________________________________
activation_1811 (Activation) (None, 32, 32, 32)        0         
_________________________________________________________________
dropout_1811 (Dropout)       (None, 32, 32, 32)        0         
_________________________________________________________________
max_pooling2d_357 (MaxPoolin (None, 16, 16, 32)        0         
_________________________________________________________________
separable_conv2d_1612 (Separ (None, 16, 16, 512)       17184     
_________________________________________________________________
activation_1812 (Activation) (None, 16, 16, 512)       0         
_________________________________________________________________
dropout_1812 (Dropout)       (None, 16, 16, 512)       0         
_________________________________________________________________
separable_conv2d_1613 (Separ (None, 16, 16, 1024)      529920    
_________________________________________________________________
batch_normalization_902 (Bat (None, 16, 16, 1024)      4096      
_________________________________________________________________
activation_1813 (Activation) (None, 16, 16, 1024)      0         
_________________________________________________________________
dropout_1813 (Dropout)       (None, 16, 16, 1024)      0         
_________________________________________________________________
separable_conv2d_1614 (Separ (None, 16, 16, 1024)      1058816   
_________________________________________________________________
batch_normalization_903 (Bat (None, 16, 16, 1024)      4096      
_________________________________________________________________
activation_1814 (Activation) (None, 16, 16, 1024)      0         
_________________________________________________________________
dropout_1814 (Dropout)       (None, 16, 16, 1024)      0         
_________________________________________________________________
separable_conv2d_1615 (Separ (None, 16, 16, 16)        25616     
_________________________________________________________________
batch_normalization_904 (Bat (None, 16, 16, 16)        64        
_________________________________________________________________
activation_1815 (Activation) (None, 16, 16, 16)        0         
_________________________________________________________________
dropout_1815 (Dropout)       (None, 16, 16, 16)        0         
_________________________________________________________________
separable_conv2d_1616 (Separ (None, 16, 16, 16)        416       
_________________________________________________________________
batch_normalization_905 (Bat (None, 16, 16, 16)        64        
_________________________________________________________________
activation_1816 (Activation) (None, 16, 16, 16)        0         
_________________________________________________________________
dropout_1816 (Dropout)       (None, 16, 16, 16)        0         
_________________________________________________________________
separable_conv2d_1617 (Separ (None, 16, 16, 8)         280       
_________________________________________________________________
activation_1817 (Activation) (None, 16, 16, 8)         0         
_________________________________________________________________
dropout_1817 (Dropout)       (None, 16, 16, 8)         0         
_________________________________________________________________
flatten_178 (Flatten)        (None, 2048)              0         
_________________________________________________________________
dense_378 (Dense)            (None, 4096)              8392704   
_________________________________________________________________
activation_1818 (Activation) (None, 4096)              0         
_________________________________________________________________
dropout_1818 (Dropout)       (None, 4096)              0         
_________________________________________________________________
dense_379 (Dense)            (None, 100)               409700    
=================================================================
Total params: 10,493,191
Trainable params: 10,486,983
Non-trainable params: 6,208
_________________________________________________________________
