Model: "sequential_279"
_________________________________________________________________
Layer (type)                 Output Shape              Param #   
=================================================================
separable_conv2d_2412 (Separ (None, 32, 32, 1024)      4123      
_________________________________________________________________
batch_normalization_1309 (Ba (None, 32, 32, 1024)      4096      
_________________________________________________________________
activation_2663 (Activation) (None, 32, 32, 1024)      0         
_________________________________________________________________
dropout_2663 (Dropout)       (None, 32, 32, 1024)      0         
_________________________________________________________________
separable_conv2d_2413 (Separ (None, 32, 32, 32)        42016     
_________________________________________________________________
activation_2664 (Activation) (None, 32, 32, 32)        0         
_________________________________________________________________
dropout_2664 (Dropout)       (None, 32, 32, 32)        0         
_________________________________________________________________
max_pooling2d_465 (MaxPoolin (None, 16, 16, 32)        0         
_________________________________________________________________
separable_conv2d_2414 (Separ (None, 16, 16, 512)       17184     
_________________________________________________________________
activation_2665 (Activation) (None, 16, 16, 512)       0         
_________________________________________________________________
dropout_2665 (Dropout)       (None, 16, 16, 512)       0         
_________________________________________________________________
separable_conv2d_2415 (Separ (None, 16, 16, 1024)      529920    
_________________________________________________________________
batch_normalization_1310 (Ba (None, 16, 16, 1024)      4096      
_________________________________________________________________
activation_2666 (Activation) (None, 16, 16, 1024)      0         
_________________________________________________________________
dropout_2666 (Dropout)       (None, 16, 16, 1024)      0         
_________________________________________________________________
separable_conv2d_2416 (Separ (None, 16, 16, 1024)      1058816   
_________________________________________________________________
batch_normalization_1311 (Ba (None, 16, 16, 1024)      4096      
_________________________________________________________________
activation_2667 (Activation) (None, 16, 16, 1024)      0         
_________________________________________________________________
dropout_2667 (Dropout)       (None, 16, 16, 1024)      0         
_________________________________________________________________
separable_conv2d_2417 (Separ (None, 16, 16, 16)        25616     
_________________________________________________________________
batch_normalization_1312 (Ba (None, 16, 16, 16)        64        
_________________________________________________________________
activation_2668 (Activation) (None, 16, 16, 16)        0         
_________________________________________________________________
dropout_2668 (Dropout)       (None, 16, 16, 16)        0         
_________________________________________________________________
separable_conv2d_2418 (Separ (None, 16, 16, 64)        1232      
_________________________________________________________________
activation_2669 (Activation) (None, 16, 16, 64)        0         
_________________________________________________________________
dropout_2669 (Dropout)       (None, 16, 16, 64)        0         
_________________________________________________________________
separable_conv2d_2419 (Separ (None, 16, 16, 16)        1616      
_________________________________________________________________
activation_2670 (Activation) (None, 16, 16, 16)        0         
_________________________________________________________________
dropout_2670 (Dropout)       (None, 16, 16, 16)        0         
_________________________________________________________________
flatten_279 (Flatten)        (None, 4096)              0         
_________________________________________________________________
dense_530 (Dense)            (None, 4096)              16781312  
_________________________________________________________________
activation_2671 (Activation) (None, 4096)              0         
_________________________________________________________________
dropout_2671 (Dropout)       (None, 4096)              0         
_________________________________________________________________
dense_531 (Dense)            (None, 100)               409700    
=================================================================
Total params: 18,883,887
Trainable params: 18,877,711
Non-trainable params: 6,176
_________________________________________________________________
