Model: "sequential_238"
_________________________________________________________________
Layer (type)                 Output Shape              Param #   
=================================================================
separable_conv2d_2085 (Separ (None, 32, 32, 1024)      4123      
_________________________________________________________________
batch_normalization_1150 (Ba (None, 32, 32, 1024)      4096      
_________________________________________________________________
activation_2324 (Activation) (None, 32, 32, 1024)      0         
_________________________________________________________________
dropout_2324 (Dropout)       (None, 32, 32, 1024)      0         
_________________________________________________________________
separable_conv2d_2086 (Separ (None, 32, 32, 32)        42016     
_________________________________________________________________
activation_2325 (Activation) (None, 32, 32, 32)        0         
_________________________________________________________________
dropout_2325 (Dropout)       (None, 32, 32, 32)        0         
_________________________________________________________________
max_pooling2d_423 (MaxPoolin (None, 16, 16, 32)        0         
_________________________________________________________________
separable_conv2d_2087 (Separ (None, 16, 16, 512)       17184     
_________________________________________________________________
activation_2326 (Activation) (None, 16, 16, 512)       0         
_________________________________________________________________
dropout_2326 (Dropout)       (None, 16, 16, 512)       0         
_________________________________________________________________
separable_conv2d_2088 (Separ (None, 16, 16, 1024)      529920    
_________________________________________________________________
batch_normalization_1151 (Ba (None, 16, 16, 1024)      4096      
_________________________________________________________________
activation_2327 (Activation) (None, 16, 16, 1024)      0         
_________________________________________________________________
dropout_2327 (Dropout)       (None, 16, 16, 1024)      0         
_________________________________________________________________
separable_conv2d_2089 (Separ (None, 16, 16, 1024)      1058816   
_________________________________________________________________
batch_normalization_1152 (Ba (None, 16, 16, 1024)      4096      
_________________________________________________________________
activation_2328 (Activation) (None, 16, 16, 1024)      0         
_________________________________________________________________
dropout_2328 (Dropout)       (None, 16, 16, 1024)      0         
_________________________________________________________________
separable_conv2d_2090 (Separ (None, 16, 16, 16)        25616     
_________________________________________________________________
batch_normalization_1153 (Ba (None, 16, 16, 16)        64        
_________________________________________________________________
activation_2329 (Activation) (None, 16, 16, 16)        0         
_________________________________________________________________
dropout_2329 (Dropout)       (None, 16, 16, 16)        0         
_________________________________________________________________
separable_conv2d_2091 (Separ (None, 16, 16, 64)        1232      
_________________________________________________________________
activation_2330 (Activation) (None, 16, 16, 64)        0         
_________________________________________________________________
dropout_2330 (Dropout)       (None, 16, 16, 64)        0         
_________________________________________________________________
separable_conv2d_2092 (Separ (None, 16, 16, 16)        1616      
_________________________________________________________________
activation_2331 (Activation) (None, 16, 16, 16)        0         
_________________________________________________________________
dropout_2331 (Dropout)       (None, 16, 16, 16)        0         
_________________________________________________________________
flatten_238 (Flatten)        (None, 4096)              0         
_________________________________________________________________
dense_477 (Dense)            (None, 100)               409700    
=================================================================
Total params: 2,102,575
Trainable params: 2,096,399
Non-trainable params: 6,176
_________________________________________________________________
