Model: "sequential_102"
_________________________________________________________________
Layer (type)                 Output Shape              Param #   
=================================================================
separable_conv2d_983 (Separa (None, 32, 32, 1024)      4123      
_________________________________________________________________
batch_normalization_550 (Bat (None, 32, 32, 1024)      4096      
_________________________________________________________________
activation_1112 (Activation) (None, 32, 32, 1024)      0         
_________________________________________________________________
dropout_1112 (Dropout)       (None, 32, 32, 1024)      0         
_________________________________________________________________
max_pooling2d_221 (MaxPoolin (None, 16, 16, 1024)      0         
_________________________________________________________________
separable_conv2d_984 (Separa (None, 16, 16, 32)        42016     
_________________________________________________________________
activation_1113 (Activation) (None, 16, 16, 32)        0         
_________________________________________________________________
dropout_1113 (Dropout)       (None, 16, 16, 32)        0         
_________________________________________________________________
max_pooling2d_222 (MaxPoolin (None, 8, 8, 32)          0         
_________________________________________________________________
separable_conv2d_985 (Separa (None, 8, 8, 512)         17184     
_________________________________________________________________
activation_1114 (Activation) (None, 8, 8, 512)         0         
_________________________________________________________________
dropout_1114 (Dropout)       (None, 8, 8, 512)         0         
_________________________________________________________________
separable_conv2d_986 (Separa (None, 8, 8, 1024)        529920    
_________________________________________________________________
batch_normalization_551 (Bat (None, 8, 8, 1024)        4096      
_________________________________________________________________
activation_1115 (Activation) (None, 8, 8, 1024)        0         
_________________________________________________________________
dropout_1115 (Dropout)       (None, 8, 8, 1024)        0         
_________________________________________________________________
separable_conv2d_987 (Separa (None, 8, 8, 1024)        1058816   
_________________________________________________________________
batch_normalization_552 (Bat (None, 8, 8, 1024)        4096      
_________________________________________________________________
activation_1116 (Activation) (None, 8, 8, 1024)        0         
_________________________________________________________________
dropout_1116 (Dropout)       (None, 8, 8, 1024)        0         
_________________________________________________________________
separable_conv2d_988 (Separa (None, 8, 8, 16)          25616     
_________________________________________________________________
batch_normalization_553 (Bat (None, 8, 8, 16)          64        
_________________________________________________________________
activation_1117 (Activation) (None, 8, 8, 16)          0         
_________________________________________________________________
dropout_1117 (Dropout)       (None, 8, 8, 16)          0         
_________________________________________________________________
separable_conv2d_989 (Separa (None, 8, 8, 64)          1232      
_________________________________________________________________
activation_1118 (Activation) (None, 8, 8, 64)          0         
_________________________________________________________________
dropout_1118 (Dropout)       (None, 8, 8, 64)          0         
_________________________________________________________________
separable_conv2d_990 (Separa (None, 8, 8, 16)          1616      
_________________________________________________________________
activation_1119 (Activation) (None, 8, 8, 16)          0         
_________________________________________________________________
dropout_1119 (Dropout)       (None, 8, 8, 16)          0         
_________________________________________________________________
flatten_102 (Flatten)        (None, 1024)              0         
_________________________________________________________________
dense_231 (Dense)            (None, 4096)              4198400   
_________________________________________________________________
activation_1120 (Activation) (None, 4096)              0         
_________________________________________________________________
dropout_1120 (Dropout)       (None, 4096)              0         
_________________________________________________________________
dense_232 (Dense)            (None, 100)               409700    
=================================================================
Total params: 6,300,975
Trainable params: 6,294,799
Non-trainable params: 6,176
_________________________________________________________________
