Model: "sequential_85"
_________________________________________________________________
Layer (type)                 Output Shape              Param #   
=================================================================
separable_conv2d_828 (Separa (None, 32, 32, 1024)      4123      
_________________________________________________________________
batch_normalization_464 (Bat (None, 32, 32, 1024)      4096      
_________________________________________________________________
activation_940 (Activation)  (None, 32, 32, 1024)      0         
_________________________________________________________________
dropout_940 (Dropout)        (None, 32, 32, 1024)      0         
_________________________________________________________________
max_pooling2d_186 (MaxPoolin (None, 16, 16, 1024)      0         
_________________________________________________________________
separable_conv2d_829 (Separa (None, 16, 16, 32)        42016     
_________________________________________________________________
activation_941 (Activation)  (None, 16, 16, 32)        0         
_________________________________________________________________
dropout_941 (Dropout)        (None, 16, 16, 32)        0         
_________________________________________________________________
max_pooling2d_187 (MaxPoolin (None, 8, 8, 32)          0         
_________________________________________________________________
separable_conv2d_830 (Separa (None, 8, 8, 512)         17184     
_________________________________________________________________
activation_942 (Activation)  (None, 8, 8, 512)         0         
_________________________________________________________________
dropout_942 (Dropout)        (None, 8, 8, 512)         0         
_________________________________________________________________
separable_conv2d_831 (Separa (None, 8, 8, 1024)        529920    
_________________________________________________________________
batch_normalization_465 (Bat (None, 8, 8, 1024)        4096      
_________________________________________________________________
activation_943 (Activation)  (None, 8, 8, 1024)        0         
_________________________________________________________________
dropout_943 (Dropout)        (None, 8, 8, 1024)        0         
_________________________________________________________________
separable_conv2d_832 (Separa (None, 8, 8, 1024)        1058816   
_________________________________________________________________
batch_normalization_466 (Bat (None, 8, 8, 1024)        4096      
_________________________________________________________________
activation_944 (Activation)  (None, 8, 8, 1024)        0         
_________________________________________________________________
dropout_944 (Dropout)        (None, 8, 8, 1024)        0         
_________________________________________________________________
separable_conv2d_833 (Separa (None, 8, 8, 16)          25616     
_________________________________________________________________
batch_normalization_467 (Bat (None, 8, 8, 16)          64        
_________________________________________________________________
activation_945 (Activation)  (None, 8, 8, 16)          0         
_________________________________________________________________
dropout_945 (Dropout)        (None, 8, 8, 16)          0         
_________________________________________________________________
separable_conv2d_834 (Separa (None, 8, 8, 16)          416       
_________________________________________________________________
batch_normalization_468 (Bat (None, 8, 8, 16)          64        
_________________________________________________________________
activation_946 (Activation)  (None, 8, 8, 16)          0         
_________________________________________________________________
dropout_946 (Dropout)        (None, 8, 8, 16)          0         
_________________________________________________________________
separable_conv2d_835 (Separa (None, 8, 8, 8)           280       
_________________________________________________________________
activation_947 (Activation)  (None, 8, 8, 8)           0         
_________________________________________________________________
dropout_947 (Dropout)        (None, 8, 8, 8)           0         
_________________________________________________________________
flatten_85 (Flatten)         (None, 512)               0         
_________________________________________________________________
dense_197 (Dense)            (None, 4096)              2101248   
_________________________________________________________________
activation_948 (Activation)  (None, 4096)              0         
_________________________________________________________________
dropout_948 (Dropout)        (None, 4096)              0         
_________________________________________________________________
dense_198 (Dense)            (None, 100)               409700    
=================================================================
Total params: 4,201,735
Trainable params: 4,195,527
Non-trainable params: 6,208
_________________________________________________________________
