Model: "sequential_148"
_________________________________________________________________
Layer (type)                 Output Shape              Param #   
=================================================================
separable_conv2d_1367 (Separ (None, 32, 32, 1024)      4123      
_________________________________________________________________
batch_normalization_766 (Bat (None, 32, 32, 1024)      4096      
_________________________________________________________________
activation_1541 (Activation) (None, 32, 32, 1024)      0         
_________________________________________________________________
dropout_1541 (Dropout)       (None, 32, 32, 1024)      0         
_________________________________________________________________
separable_conv2d_1368 (Separ (None, 32, 32, 32)        42016     
_________________________________________________________________
activation_1542 (Activation) (None, 32, 32, 32)        0         
_________________________________________________________________
dropout_1542 (Dropout)       (None, 32, 32, 32)        0         
_________________________________________________________________
max_pooling2d_310 (MaxPoolin (None, 16, 16, 32)        0         
_________________________________________________________________
separable_conv2d_1369 (Separ (None, 16, 16, 512)       17184     
_________________________________________________________________
activation_1543 (Activation) (None, 16, 16, 512)       0         
_________________________________________________________________
dropout_1543 (Dropout)       (None, 16, 16, 512)       0         
_________________________________________________________________
separable_conv2d_1370 (Separ (None, 16, 16, 1024)      529920    
_________________________________________________________________
batch_normalization_767 (Bat (None, 16, 16, 1024)      4096      
_________________________________________________________________
activation_1544 (Activation) (None, 16, 16, 1024)      0         
_________________________________________________________________
dropout_1544 (Dropout)       (None, 16, 16, 1024)      0         
_________________________________________________________________
separable_conv2d_1371 (Separ (None, 16, 16, 1024)      1058816   
_________________________________________________________________
batch_normalization_768 (Bat (None, 16, 16, 1024)      4096      
_________________________________________________________________
activation_1545 (Activation) (None, 16, 16, 1024)      0         
_________________________________________________________________
dropout_1545 (Dropout)       (None, 16, 16, 1024)      0         
_________________________________________________________________
separable_conv2d_1372 (Separ (None, 16, 16, 16)        25616     
_________________________________________________________________
batch_normalization_769 (Bat (None, 16, 16, 16)        64        
_________________________________________________________________
activation_1546 (Activation) (None, 16, 16, 16)        0         
_________________________________________________________________
dropout_1546 (Dropout)       (None, 16, 16, 16)        0         
_________________________________________________________________
separable_conv2d_1373 (Separ (None, 16, 16, 64)        1232      
_________________________________________________________________
activation_1547 (Activation) (None, 16, 16, 64)        0         
_________________________________________________________________
dropout_1547 (Dropout)       (None, 16, 16, 64)        0         
_________________________________________________________________
separable_conv2d_1374 (Separ (None, 16, 16, 16)        1616      
_________________________________________________________________
activation_1548 (Activation) (None, 16, 16, 16)        0         
_________________________________________________________________
dropout_1548 (Dropout)       (None, 16, 16, 16)        0         
_________________________________________________________________
flatten_148 (Flatten)        (None, 4096)              0         
_________________________________________________________________
dense_322 (Dense)            (None, 4096)              16781312  
_________________________________________________________________
activation_1549 (Activation) (None, 4096)              0         
_________________________________________________________________
dropout_1549 (Dropout)       (None, 4096)              0         
_________________________________________________________________
dense_323 (Dense)            (None, 100)               409700    
=================================================================
Total params: 18,883,887
Trainable params: 18,877,711
Non-trainable params: 6,176
_________________________________________________________________
