Model: "sequential_368"
_________________________________________________________________
Layer (type)                 Output Shape              Param #   
=================================================================
separable_conv2d_3123 (Separ (None, 32, 32, 1024)      4123      
_________________________________________________________________
batch_normalization_1670 (Ba (None, 32, 32, 1024)      4096      
_________________________________________________________________
activation_3390 (Activation) (None, 32, 32, 1024)      0         
_________________________________________________________________
dropout_3390 (Dropout)       (None, 32, 32, 1024)      0         
_________________________________________________________________
separable_conv2d_3124 (Separ (None, 32, 32, 32)        42016     
_________________________________________________________________
activation_3391 (Activation) (None, 32, 32, 32)        0         
_________________________________________________________________
dropout_3391 (Dropout)       (None, 32, 32, 32)        0         
_________________________________________________________________
max_pooling2d_564 (MaxPoolin (None, 16, 16, 32)        0         
_________________________________________________________________
separable_conv2d_3125 (Separ (None, 16, 16, 512)       17184     
_________________________________________________________________
activation_3392 (Activation) (None, 16, 16, 512)       0         
_________________________________________________________________
dropout_3392 (Dropout)       (None, 16, 16, 512)       0         
_________________________________________________________________
separable_conv2d_3126 (Separ (None, 16, 16, 1024)      529920    
_________________________________________________________________
activation_3393 (Activation) (None, 16, 16, 1024)      0         
_________________________________________________________________
dropout_3393 (Dropout)       (None, 16, 16, 1024)      0         
_________________________________________________________________
separable_conv2d_3127 (Separ (None, 16, 16, 1024)      1058816   
_________________________________________________________________
batch_normalization_1671 (Ba (None, 16, 16, 1024)      4096      
_________________________________________________________________
activation_3394 (Activation) (None, 16, 16, 1024)      0         
_________________________________________________________________
dropout_3394 (Dropout)       (None, 16, 16, 1024)      0         
_________________________________________________________________
separable_conv2d_3128 (Separ (None, 16, 16, 16)        25616     
_________________________________________________________________
batch_normalization_1672 (Ba (None, 16, 16, 16)        64        
_________________________________________________________________
activation_3395 (Activation) (None, 16, 16, 16)        0         
_________________________________________________________________
dropout_3395 (Dropout)       (None, 16, 16, 16)        0         
_________________________________________________________________
separable_conv2d_3129 (Separ (None, 16, 16, 64)        1232      
_________________________________________________________________
activation_3396 (Activation) (None, 16, 16, 64)        0         
_________________________________________________________________
dropout_3396 (Dropout)       (None, 16, 16, 64)        0         
_________________________________________________________________
separable_conv2d_3130 (Separ (None, 16, 16, 16)        1616      
_________________________________________________________________
activation_3397 (Activation) (None, 16, 16, 16)        0         
_________________________________________________________________
dropout_3397 (Dropout)       (None, 16, 16, 16)        0         
_________________________________________________________________
flatten_368 (Flatten)        (None, 4096)              0         
_________________________________________________________________
dense_635 (Dense)            (None, 100)               409700    
=================================================================
Total params: 2,098,479
Trainable params: 2,094,351
Non-trainable params: 4,128
_________________________________________________________________
