Model: "sequential_338"
_________________________________________________________________
Layer (type)                 Output Shape              Param #   
=================================================================
separable_conv2d_2885 (Separ (None, 32, 32, 1024)      4123      
_________________________________________________________________
batch_normalization_1542 (Ba (None, 32, 32, 1024)      4096      
_________________________________________________________________
activation_3147 (Activation) (None, 32, 32, 1024)      0         
_________________________________________________________________
dropout_3147 (Dropout)       (None, 32, 32, 1024)      0         
_________________________________________________________________
separable_conv2d_2886 (Separ (None, 32, 32, 32)        42016     
_________________________________________________________________
activation_3148 (Activation) (None, 32, 32, 32)        0         
_________________________________________________________________
dropout_3148 (Dropout)       (None, 32, 32, 32)        0         
_________________________________________________________________
max_pooling2d_531 (MaxPoolin (None, 16, 16, 32)        0         
_________________________________________________________________
separable_conv2d_2887 (Separ (None, 16, 16, 512)       17184     
_________________________________________________________________
activation_3149 (Activation) (None, 16, 16, 512)       0         
_________________________________________________________________
dropout_3149 (Dropout)       (None, 16, 16, 512)       0         
_________________________________________________________________
separable_conv2d_2888 (Separ (None, 16, 16, 1024)      529920    
_________________________________________________________________
batch_normalization_1543 (Ba (None, 16, 16, 1024)      4096      
_________________________________________________________________
activation_3150 (Activation) (None, 16, 16, 1024)      0         
_________________________________________________________________
dropout_3150 (Dropout)       (None, 16, 16, 1024)      0         
_________________________________________________________________
separable_conv2d_2889 (Separ (None, 16, 16, 1024)      1058816   
_________________________________________________________________
batch_normalization_1544 (Ba (None, 16, 16, 1024)      4096      
_________________________________________________________________
activation_3151 (Activation) (None, 16, 16, 1024)      0         
_________________________________________________________________
dropout_3151 (Dropout)       (None, 16, 16, 1024)      0         
_________________________________________________________________
separable_conv2d_2890 (Separ (None, 16, 16, 16)        25616     
_________________________________________________________________
batch_normalization_1545 (Ba (None, 16, 16, 16)        64        
_________________________________________________________________
activation_3152 (Activation) (None, 16, 16, 16)        0         
_________________________________________________________________
dropout_3152 (Dropout)       (None, 16, 16, 16)        0         
_________________________________________________________________
separable_conv2d_2891 (Separ (None, 16, 16, 64)        1232      
_________________________________________________________________
activation_3153 (Activation) (None, 16, 16, 64)        0         
_________________________________________________________________
dropout_3153 (Dropout)       (None, 16, 16, 64)        0         
_________________________________________________________________
separable_conv2d_2892 (Separ (None, 16, 16, 16)        1616      
_________________________________________________________________
activation_3154 (Activation) (None, 16, 16, 16)        0         
_________________________________________________________________
dropout_3154 (Dropout)       (None, 16, 16, 16)        0         
_________________________________________________________________
flatten_338 (Flatten)        (None, 4096)              0         
_________________________________________________________________
dense_600 (Dense)            (None, 100)               409700    
=================================================================
Total params: 2,102,575
Trainable params: 2,096,399
Non-trainable params: 6,176
_________________________________________________________________
