Model: "sequential_287"
_________________________________________________________________
Layer (type)                 Output Shape              Param #   
=================================================================
separable_conv2d_2476 (Separ (None, 32, 32, 1024)      4123      
_________________________________________________________________
batch_normalization_1340 (Ba (None, 32, 32, 1024)      4096      
_________________________________________________________________
activation_2729 (Activation) (None, 32, 32, 1024)      0         
_________________________________________________________________
dropout_2729 (Dropout)       (None, 32, 32, 1024)      0         
_________________________________________________________________
separable_conv2d_2477 (Separ (None, 32, 32, 32)        42016     
_________________________________________________________________
activation_2730 (Activation) (None, 32, 32, 32)        0         
_________________________________________________________________
dropout_2730 (Dropout)       (None, 32, 32, 32)        0         
_________________________________________________________________
max_pooling2d_473 (MaxPoolin (None, 16, 16, 32)        0         
_________________________________________________________________
separable_conv2d_2478 (Separ (None, 16, 16, 512)       17184     
_________________________________________________________________
activation_2731 (Activation) (None, 16, 16, 512)       0         
_________________________________________________________________
dropout_2731 (Dropout)       (None, 16, 16, 512)       0         
_________________________________________________________________
separable_conv2d_2479 (Separ (None, 16, 16, 1024)      529920    
_________________________________________________________________
batch_normalization_1341 (Ba (None, 16, 16, 1024)      4096      
_________________________________________________________________
activation_2732 (Activation) (None, 16, 16, 1024)      0         
_________________________________________________________________
dropout_2732 (Dropout)       (None, 16, 16, 1024)      0         
_________________________________________________________________
separable_conv2d_2480 (Separ (None, 16, 16, 1024)      1058816   
_________________________________________________________________
batch_normalization_1342 (Ba (None, 16, 16, 1024)      4096      
_________________________________________________________________
activation_2733 (Activation) (None, 16, 16, 1024)      0         
_________________________________________________________________
dropout_2733 (Dropout)       (None, 16, 16, 1024)      0         
_________________________________________________________________
separable_conv2d_2481 (Separ (None, 16, 16, 16)        25616     
_________________________________________________________________
batch_normalization_1343 (Ba (None, 16, 16, 16)        64        
_________________________________________________________________
activation_2734 (Activation) (None, 16, 16, 16)        0         
_________________________________________________________________
dropout_2734 (Dropout)       (None, 16, 16, 16)        0         
_________________________________________________________________
separable_conv2d_2482 (Separ (None, 16, 16, 64)        1232      
_________________________________________________________________
activation_2735 (Activation) (None, 16, 16, 64)        0         
_________________________________________________________________
dropout_2735 (Dropout)       (None, 16, 16, 64)        0         
_________________________________________________________________
separable_conv2d_2483 (Separ (None, 16, 16, 16)        1616      
_________________________________________________________________
activation_2736 (Activation) (None, 16, 16, 16)        0         
_________________________________________________________________
dropout_2736 (Dropout)       (None, 16, 16, 16)        0         
_________________________________________________________________
flatten_287 (Flatten)        (None, 4096)              0         
_________________________________________________________________
dense_540 (Dense)            (None, 100)               409700    
=================================================================
Total params: 2,102,575
Trainable params: 2,096,399
Non-trainable params: 6,176
_________________________________________________________________
