Model: "sequential_324"
_________________________________________________________________
Layer (type)                 Output Shape              Param #   
=================================================================
separable_conv2d_2773 (Separ (None, 32, 32, 1024)      4123      
_________________________________________________________________
batch_normalization_1486 (Ba (None, 32, 32, 1024)      4096      
_________________________________________________________________
activation_3033 (Activation) (None, 32, 32, 1024)      0         
_________________________________________________________________
dropout_3033 (Dropout)       (None, 32, 32, 1024)      0         
_________________________________________________________________
separable_conv2d_2774 (Separ (None, 32, 32, 32)        42016     
_________________________________________________________________
activation_3034 (Activation) (None, 32, 32, 32)        0         
_________________________________________________________________
dropout_3034 (Dropout)       (None, 32, 32, 32)        0         
_________________________________________________________________
max_pooling2d_515 (MaxPoolin (None, 16, 16, 32)        0         
_________________________________________________________________
separable_conv2d_2775 (Separ (None, 16, 16, 512)       17184     
_________________________________________________________________
activation_3035 (Activation) (None, 16, 16, 512)       0         
_________________________________________________________________
dropout_3035 (Dropout)       (None, 16, 16, 512)       0         
_________________________________________________________________
separable_conv2d_2776 (Separ (None, 16, 16, 1024)      529920    
_________________________________________________________________
batch_normalization_1487 (Ba (None, 16, 16, 1024)      4096      
_________________________________________________________________
activation_3036 (Activation) (None, 16, 16, 1024)      0         
_________________________________________________________________
dropout_3036 (Dropout)       (None, 16, 16, 1024)      0         
_________________________________________________________________
separable_conv2d_2777 (Separ (None, 16, 16, 1024)      1058816   
_________________________________________________________________
batch_normalization_1488 (Ba (None, 16, 16, 1024)      4096      
_________________________________________________________________
activation_3037 (Activation) (None, 16, 16, 1024)      0         
_________________________________________________________________
dropout_3037 (Dropout)       (None, 16, 16, 1024)      0         
_________________________________________________________________
separable_conv2d_2778 (Separ (None, 16, 16, 16)        25616     
_________________________________________________________________
batch_normalization_1489 (Ba (None, 16, 16, 16)        64        
_________________________________________________________________
activation_3038 (Activation) (None, 16, 16, 16)        0         
_________________________________________________________________
dropout_3038 (Dropout)       (None, 16, 16, 16)        0         
_________________________________________________________________
separable_conv2d_2779 (Separ (None, 16, 16, 64)        1232      
_________________________________________________________________
batch_normalization_1490 (Ba (None, 16, 16, 64)        256       
_________________________________________________________________
activation_3039 (Activation) (None, 16, 16, 64)        0         
_________________________________________________________________
dropout_3039 (Dropout)       (None, 16, 16, 64)        0         
_________________________________________________________________
separable_conv2d_2780 (Separ (None, 16, 16, 16)        1616      
_________________________________________________________________
activation_3040 (Activation) (None, 16, 16, 16)        0         
_________________________________________________________________
dropout_3040 (Dropout)       (None, 16, 16, 16)        0         
_________________________________________________________________
flatten_324 (Flatten)        (None, 4096)              0         
_________________________________________________________________
dense_584 (Dense)            (None, 100)               409700    
=================================================================
Total params: 2,102,831
Trainable params: 2,096,527
Non-trainable params: 6,304
_________________________________________________________________
