Model: "sequential_176"
_________________________________________________________________
Layer (type)                 Output Shape              Param #   
=================================================================
separable_conv2d_1594 (Separ (None, 32, 32, 1024)      4123      
_________________________________________________________________
batch_normalization_893 (Bat (None, 32, 32, 1024)      4096      
_________________________________________________________________
activation_1794 (Activation) (None, 32, 32, 1024)      0         
_________________________________________________________________
dropout_1794 (Dropout)       (None, 32, 32, 1024)      0         
_________________________________________________________________
separable_conv2d_1595 (Separ (None, 32, 32, 32)        42016     
_________________________________________________________________
activation_1795 (Activation) (None, 32, 32, 32)        0         
_________________________________________________________________
dropout_1795 (Dropout)       (None, 32, 32, 32)        0         
_________________________________________________________________
max_pooling2d_355 (MaxPoolin (None, 16, 16, 32)        0         
_________________________________________________________________
separable_conv2d_1596 (Separ (None, 16, 16, 512)       17184     
_________________________________________________________________
activation_1796 (Activation) (None, 16, 16, 512)       0         
_________________________________________________________________
dropout_1796 (Dropout)       (None, 16, 16, 512)       0         
_________________________________________________________________
separable_conv2d_1597 (Separ (None, 16, 16, 1024)      529920    
_________________________________________________________________
batch_normalization_894 (Bat (None, 16, 16, 1024)      4096      
_________________________________________________________________
activation_1797 (Activation) (None, 16, 16, 1024)      0         
_________________________________________________________________
dropout_1797 (Dropout)       (None, 16, 16, 1024)      0         
_________________________________________________________________
separable_conv2d_1598 (Separ (None, 16, 16, 1024)      1058816   
_________________________________________________________________
batch_normalization_895 (Bat (None, 16, 16, 1024)      4096      
_________________________________________________________________
activation_1798 (Activation) (None, 16, 16, 1024)      0         
_________________________________________________________________
dropout_1798 (Dropout)       (None, 16, 16, 1024)      0         
_________________________________________________________________
separable_conv2d_1599 (Separ (None, 16, 16, 16)        25616     
_________________________________________________________________
batch_normalization_896 (Bat (None, 16, 16, 16)        64        
_________________________________________________________________
activation_1799 (Activation) (None, 16, 16, 16)        0         
_________________________________________________________________
dropout_1799 (Dropout)       (None, 16, 16, 16)        0         
_________________________________________________________________
separable_conv2d_1600 (Separ (None, 16, 16, 64)        1232      
_________________________________________________________________
activation_1800 (Activation) (None, 16, 16, 64)        0         
_________________________________________________________________
dropout_1800 (Dropout)       (None, 16, 16, 64)        0         
_________________________________________________________________
separable_conv2d_1601 (Separ (None, 16, 16, 16)        1616      
_________________________________________________________________
activation_1801 (Activation) (None, 16, 16, 16)        0         
_________________________________________________________________
dropout_1801 (Dropout)       (None, 16, 16, 16)        0         
_________________________________________________________________
flatten_176 (Flatten)        (None, 4096)              0         
_________________________________________________________________
dense_376 (Dense)            (None, 100)               409700    
=================================================================
Total params: 2,102,575
Trainable params: 2,096,399
Non-trainable params: 6,176
_________________________________________________________________
