Model: "sequential_354"
_________________________________________________________________
Layer (type)                 Output Shape              Param #   
=================================================================
separable_conv2d_3012 (Separ (None, 32, 32, 1024)      4123      
_________________________________________________________________
batch_normalization_1609 (Ba (None, 32, 32, 1024)      4096      
_________________________________________________________________
activation_3277 (Activation) (None, 32, 32, 1024)      0         
_________________________________________________________________
dropout_3277 (Dropout)       (None, 32, 32, 1024)      0         
_________________________________________________________________
separable_conv2d_3013 (Separ (None, 32, 32, 32)        42016     
_________________________________________________________________
activation_3278 (Activation) (None, 32, 32, 32)        0         
_________________________________________________________________
dropout_3278 (Dropout)       (None, 32, 32, 32)        0         
_________________________________________________________________
max_pooling2d_550 (MaxPoolin (None, 16, 16, 32)        0         
_________________________________________________________________
separable_conv2d_3014 (Separ (None, 16, 16, 512)       17184     
_________________________________________________________________
activation_3279 (Activation) (None, 16, 16, 512)       0         
_________________________________________________________________
dropout_3279 (Dropout)       (None, 16, 16, 512)       0         
_________________________________________________________________
separable_conv2d_3015 (Separ (None, 16, 16, 1024)      529920    
_________________________________________________________________
batch_normalization_1610 (Ba (None, 16, 16, 1024)      4096      
_________________________________________________________________
activation_3280 (Activation) (None, 16, 16, 1024)      0         
_________________________________________________________________
dropout_3280 (Dropout)       (None, 16, 16, 1024)      0         
_________________________________________________________________
separable_conv2d_3016 (Separ (None, 16, 16, 16)        25616     
_________________________________________________________________
batch_normalization_1611 (Ba (None, 16, 16, 16)        64        
_________________________________________________________________
activation_3281 (Activation) (None, 16, 16, 16)        0         
_________________________________________________________________
dropout_3281 (Dropout)       (None, 16, 16, 16)        0         
_________________________________________________________________
separable_conv2d_3017 (Separ (None, 16, 16, 64)        1232      
_________________________________________________________________
activation_3282 (Activation) (None, 16, 16, 64)        0         
_________________________________________________________________
dropout_3282 (Dropout)       (None, 16, 16, 64)        0         
_________________________________________________________________
separable_conv2d_3018 (Separ (None, 16, 16, 16)        1616      
_________________________________________________________________
activation_3283 (Activation) (None, 16, 16, 16)        0         
_________________________________________________________________
dropout_3283 (Dropout)       (None, 16, 16, 16)        0         
_________________________________________________________________
flatten_354 (Flatten)        (None, 4096)              0         
_________________________________________________________________
dense_619 (Dense)            (None, 100)               409700    
=================================================================
Total params: 1,039,663
Trainable params: 1,035,535
Non-trainable params: 4,128
_________________________________________________________________
