Model: "sequential_234"
_________________________________________________________________
Layer (type)                 Output Shape              Param #   
=================================================================
separable_conv2d_2052 (Separ (None, 32, 32, 1024)      4123      
_________________________________________________________________
batch_normalization_1133 (Ba (None, 32, 32, 1024)      4096      
_________________________________________________________________
activation_2289 (Activation) (None, 32, 32, 1024)      0         
_________________________________________________________________
dropout_2289 (Dropout)       (None, 32, 32, 1024)      0         
_________________________________________________________________
separable_conv2d_2053 (Separ (None, 32, 32, 32)        42016     
_________________________________________________________________
activation_2290 (Activation) (None, 32, 32, 32)        0         
_________________________________________________________________
dropout_2290 (Dropout)       (None, 32, 32, 32)        0         
_________________________________________________________________
max_pooling2d_419 (MaxPoolin (None, 16, 16, 32)        0         
_________________________________________________________________
separable_conv2d_2054 (Separ (None, 16, 16, 512)       17184     
_________________________________________________________________
activation_2291 (Activation) (None, 16, 16, 512)       0         
_________________________________________________________________
dropout_2291 (Dropout)       (None, 16, 16, 512)       0         
_________________________________________________________________
separable_conv2d_2055 (Separ (None, 16, 16, 1024)      529920    
_________________________________________________________________
batch_normalization_1134 (Ba (None, 16, 16, 1024)      4096      
_________________________________________________________________
activation_2292 (Activation) (None, 16, 16, 1024)      0         
_________________________________________________________________
dropout_2292 (Dropout)       (None, 16, 16, 1024)      0         
_________________________________________________________________
separable_conv2d_2056 (Separ (None, 16, 16, 1024)      1058816   
_________________________________________________________________
batch_normalization_1135 (Ba (None, 16, 16, 1024)      4096      
_________________________________________________________________
activation_2293 (Activation) (None, 16, 16, 1024)      0         
_________________________________________________________________
dropout_2293 (Dropout)       (None, 16, 16, 1024)      0         
_________________________________________________________________
separable_conv2d_2057 (Separ (None, 16, 16, 16)        25616     
_________________________________________________________________
batch_normalization_1136 (Ba (None, 16, 16, 16)        64        
_________________________________________________________________
activation_2294 (Activation) (None, 16, 16, 16)        0         
_________________________________________________________________
dropout_2294 (Dropout)       (None, 16, 16, 16)        0         
_________________________________________________________________
separable_conv2d_2058 (Separ (None, 16, 16, 64)        1232      
_________________________________________________________________
activation_2295 (Activation) (None, 16, 16, 64)        0         
_________________________________________________________________
dropout_2295 (Dropout)       (None, 16, 16, 64)        0         
_________________________________________________________________
separable_conv2d_2059 (Separ (None, 16, 16, 16)        1616      
_________________________________________________________________
activation_2296 (Activation) (None, 16, 16, 16)        0         
_________________________________________________________________
dropout_2296 (Dropout)       (None, 16, 16, 16)        0         
_________________________________________________________________
flatten_234 (Flatten)        (None, 4096)              0         
_________________________________________________________________
dense_471 (Dense)            (None, 100)               409700    
=================================================================
Total params: 2,102,575
Trainable params: 2,096,399
Non-trainable params: 6,176
_________________________________________________________________
