Model: "sequential_251"
_________________________________________________________________
Layer (type)                 Output Shape              Param #   
=================================================================
separable_conv2d_2189 (Separ (None, 32, 32, 1024)      4123      
_________________________________________________________________
batch_normalization_1202 (Ba (None, 32, 32, 1024)      4096      
_________________________________________________________________
activation_2433 (Activation) (None, 32, 32, 1024)      0         
_________________________________________________________________
dropout_2433 (Dropout)       (None, 32, 32, 1024)      0         
_________________________________________________________________
separable_conv2d_2190 (Separ (None, 32, 32, 32)        42016     
_________________________________________________________________
activation_2434 (Activation) (None, 32, 32, 32)        0         
_________________________________________________________________
dropout_2434 (Dropout)       (None, 32, 32, 32)        0         
_________________________________________________________________
max_pooling2d_436 (MaxPoolin (None, 16, 16, 32)        0         
_________________________________________________________________
separable_conv2d_2191 (Separ (None, 16, 16, 512)       17184     
_________________________________________________________________
activation_2435 (Activation) (None, 16, 16, 512)       0         
_________________________________________________________________
dropout_2435 (Dropout)       (None, 16, 16, 512)       0         
_________________________________________________________________
separable_conv2d_2192 (Separ (None, 16, 16, 1024)      529920    
_________________________________________________________________
batch_normalization_1203 (Ba (None, 16, 16, 1024)      4096      
_________________________________________________________________
activation_2436 (Activation) (None, 16, 16, 1024)      0         
_________________________________________________________________
dropout_2436 (Dropout)       (None, 16, 16, 1024)      0         
_________________________________________________________________
separable_conv2d_2193 (Separ (None, 16, 16, 1024)      1058816   
_________________________________________________________________
batch_normalization_1204 (Ba (None, 16, 16, 1024)      4096      
_________________________________________________________________
activation_2437 (Activation) (None, 16, 16, 1024)      0         
_________________________________________________________________
dropout_2437 (Dropout)       (None, 16, 16, 1024)      0         
_________________________________________________________________
separable_conv2d_2194 (Separ (None, 16, 16, 16)        25616     
_________________________________________________________________
batch_normalization_1205 (Ba (None, 16, 16, 16)        64        
_________________________________________________________________
activation_2438 (Activation) (None, 16, 16, 16)        0         
_________________________________________________________________
dropout_2438 (Dropout)       (None, 16, 16, 16)        0         
_________________________________________________________________
separable_conv2d_2195 (Separ (None, 16, 16, 64)        1232      
_________________________________________________________________
activation_2439 (Activation) (None, 16, 16, 64)        0         
_________________________________________________________________
dropout_2439 (Dropout)       (None, 16, 16, 64)        0         
_________________________________________________________________
separable_conv2d_2196 (Separ (None, 16, 16, 16)        1616      
_________________________________________________________________
activation_2440 (Activation) (None, 16, 16, 16)        0         
_________________________________________________________________
dropout_2440 (Dropout)       (None, 16, 16, 16)        0         
_________________________________________________________________
flatten_251 (Flatten)        (None, 4096)              0         
_________________________________________________________________
dense_495 (Dense)            (None, 100)               409700    
=================================================================
Total params: 2,102,575
Trainable params: 2,096,399
Non-trainable params: 6,176
_________________________________________________________________
