Model: "sequential_199"
_________________________________________________________________
Layer (type)                 Output Shape              Param #   
=================================================================
separable_conv2d_1776 (Separ (None, 32, 32, 1024)      4123      
_________________________________________________________________
batch_normalization_990 (Bat (None, 32, 32, 1024)      4096      
_________________________________________________________________
activation_1992 (Activation) (None, 32, 32, 1024)      0         
_________________________________________________________________
dropout_1992 (Dropout)       (None, 32, 32, 1024)      0         
_________________________________________________________________
separable_conv2d_1777 (Separ (None, 32, 32, 32)        42016     
_________________________________________________________________
activation_1993 (Activation) (None, 32, 32, 32)        0         
_________________________________________________________________
dropout_1993 (Dropout)       (None, 32, 32, 32)        0         
_________________________________________________________________
max_pooling2d_383 (MaxPoolin (None, 16, 16, 32)        0         
_________________________________________________________________
separable_conv2d_1778 (Separ (None, 16, 16, 512)       17184     
_________________________________________________________________
activation_1994 (Activation) (None, 16, 16, 512)       0         
_________________________________________________________________
dropout_1994 (Dropout)       (None, 16, 16, 512)       0         
_________________________________________________________________
separable_conv2d_1779 (Separ (None, 16, 16, 1024)      529920    
_________________________________________________________________
batch_normalization_991 (Bat (None, 16, 16, 1024)      4096      
_________________________________________________________________
activation_1995 (Activation) (None, 16, 16, 1024)      0         
_________________________________________________________________
dropout_1995 (Dropout)       (None, 16, 16, 1024)      0         
_________________________________________________________________
separable_conv2d_1780 (Separ (None, 16, 16, 1024)      1058816   
_________________________________________________________________
batch_normalization_992 (Bat (None, 16, 16, 1024)      4096      
_________________________________________________________________
activation_1996 (Activation) (None, 16, 16, 1024)      0         
_________________________________________________________________
dropout_1996 (Dropout)       (None, 16, 16, 1024)      0         
_________________________________________________________________
separable_conv2d_1781 (Separ (None, 16, 16, 16)        25616     
_________________________________________________________________
batch_normalization_993 (Bat (None, 16, 16, 16)        64        
_________________________________________________________________
activation_1997 (Activation) (None, 16, 16, 16)        0         
_________________________________________________________________
dropout_1997 (Dropout)       (None, 16, 16, 16)        0         
_________________________________________________________________
separable_conv2d_1782 (Separ (None, 16, 16, 512)       8848      
_________________________________________________________________
activation_1998 (Activation) (None, 16, 16, 512)       0         
_________________________________________________________________
dropout_1998 (Dropout)       (None, 16, 16, 512)       0         
_________________________________________________________________
separable_conv2d_1783 (Separ (None, 16, 16, 64)        37440     
_________________________________________________________________
activation_1999 (Activation) (None, 16, 16, 64)        0         
_________________________________________________________________
dropout_1999 (Dropout)       (None, 16, 16, 64)        0         
_________________________________________________________________
separable_conv2d_1784 (Separ (None, 16, 16, 8)         1096      
_________________________________________________________________
activation_2000 (Activation) (None, 16, 16, 8)         0         
_________________________________________________________________
dropout_2000 (Dropout)       (None, 16, 16, 8)         0         
_________________________________________________________________
flatten_199 (Flatten)        (None, 2048)              0         
_________________________________________________________________
dense_415 (Dense)            (None, 4096)              8392704   
_________________________________________________________________
activation_2001 (Activation) (None, 4096)              0         
_________________________________________________________________
dropout_2001 (Dropout)       (None, 4096)              0         
_________________________________________________________________
dense_416 (Dense)            (None, 100)               409700    
=================================================================
Total params: 10,539,815
Trainable params: 10,533,639
Non-trainable params: 6,176
_________________________________________________________________
