Model: "sequential_185"
_________________________________________________________________
Layer (type)                 Output Shape              Param #   
=================================================================
separable_conv2d_1665 (Separ (None, 32, 32, 1024)      4123      
_________________________________________________________________
batch_normalization_932 (Bat (None, 32, 32, 1024)      4096      
_________________________________________________________________
activation_1871 (Activation) (None, 32, 32, 1024)      0         
_________________________________________________________________
dropout_1871 (Dropout)       (None, 32, 32, 1024)      0         
_________________________________________________________________
separable_conv2d_1666 (Separ (None, 32, 32, 32)        42016     
_________________________________________________________________
activation_1872 (Activation) (None, 32, 32, 32)        0         
_________________________________________________________________
dropout_1872 (Dropout)       (None, 32, 32, 32)        0         
_________________________________________________________________
max_pooling2d_365 (MaxPoolin (None, 16, 16, 32)        0         
_________________________________________________________________
separable_conv2d_1667 (Separ (None, 16, 16, 512)       17184     
_________________________________________________________________
activation_1873 (Activation) (None, 16, 16, 512)       0         
_________________________________________________________________
dropout_1873 (Dropout)       (None, 16, 16, 512)       0         
_________________________________________________________________
separable_conv2d_1668 (Separ (None, 16, 16, 1024)      529920    
_________________________________________________________________
batch_normalization_933 (Bat (None, 16, 16, 1024)      4096      
_________________________________________________________________
activation_1874 (Activation) (None, 16, 16, 1024)      0         
_________________________________________________________________
dropout_1874 (Dropout)       (None, 16, 16, 1024)      0         
_________________________________________________________________
separable_conv2d_1669 (Separ (None, 16, 16, 1024)      1058816   
_________________________________________________________________
batch_normalization_934 (Bat (None, 16, 16, 1024)      4096      
_________________________________________________________________
activation_1875 (Activation) (None, 16, 16, 1024)      0         
_________________________________________________________________
dropout_1875 (Dropout)       (None, 16, 16, 1024)      0         
_________________________________________________________________
separable_conv2d_1670 (Separ (None, 16, 16, 16)        25616     
_________________________________________________________________
batch_normalization_935 (Bat (None, 16, 16, 16)        64        
_________________________________________________________________
activation_1876 (Activation) (None, 16, 16, 16)        0         
_________________________________________________________________
dropout_1876 (Dropout)       (None, 16, 16, 16)        0         
_________________________________________________________________
separable_conv2d_1671 (Separ (None, 16, 16, 64)        1232      
_________________________________________________________________
activation_1877 (Activation) (None, 16, 16, 64)        0         
_________________________________________________________________
dropout_1877 (Dropout)       (None, 16, 16, 64)        0         
_________________________________________________________________
separable_conv2d_1672 (Separ (None, 16, 16, 16)        1616      
_________________________________________________________________
activation_1878 (Activation) (None, 16, 16, 16)        0         
_________________________________________________________________
dropout_1878 (Dropout)       (None, 16, 16, 16)        0         
_________________________________________________________________
flatten_185 (Flatten)        (None, 4096)              0         
_________________________________________________________________
dense_391 (Dense)            (None, 4096)              16781312  
_________________________________________________________________
activation_1879 (Activation) (None, 4096)              0         
_________________________________________________________________
dropout_1879 (Dropout)       (None, 4096)              0         
_________________________________________________________________
dense_392 (Dense)            (None, 100)               409700    
=================================================================
Total params: 18,883,887
Trainable params: 18,877,711
Non-trainable params: 6,176
_________________________________________________________________
