Model: "sequential_258"
_________________________________________________________________
Layer (type)                 Output Shape              Param #   
=================================================================
separable_conv2d_2245 (Separ (None, 32, 32, 1024)      4123      
_________________________________________________________________
batch_normalization_1229 (Ba (None, 32, 32, 1024)      4096      
_________________________________________________________________
activation_2490 (Activation) (None, 32, 32, 1024)      0         
_________________________________________________________________
dropout_2490 (Dropout)       (None, 32, 32, 1024)      0         
_________________________________________________________________
separable_conv2d_2246 (Separ (None, 32, 32, 32)        42016     
_________________________________________________________________
activation_2491 (Activation) (None, 32, 32, 32)        0         
_________________________________________________________________
dropout_2491 (Dropout)       (None, 32, 32, 32)        0         
_________________________________________________________________
max_pooling2d_444 (MaxPoolin (None, 16, 16, 32)        0         
_________________________________________________________________
separable_conv2d_2247 (Separ (None, 16, 16, 512)       17184     
_________________________________________________________________
activation_2492 (Activation) (None, 16, 16, 512)       0         
_________________________________________________________________
dropout_2492 (Dropout)       (None, 16, 16, 512)       0         
_________________________________________________________________
separable_conv2d_2248 (Separ (None, 16, 16, 1024)      529920    
_________________________________________________________________
batch_normalization_1230 (Ba (None, 16, 16, 1024)      4096      
_________________________________________________________________
activation_2493 (Activation) (None, 16, 16, 1024)      0         
_________________________________________________________________
dropout_2493 (Dropout)       (None, 16, 16, 1024)      0         
_________________________________________________________________
separable_conv2d_2249 (Separ (None, 16, 16, 1024)      1058816   
_________________________________________________________________
batch_normalization_1231 (Ba (None, 16, 16, 1024)      4096      
_________________________________________________________________
activation_2494 (Activation) (None, 16, 16, 1024)      0         
_________________________________________________________________
dropout_2494 (Dropout)       (None, 16, 16, 1024)      0         
_________________________________________________________________
separable_conv2d_2250 (Separ (None, 16, 16, 16)        25616     
_________________________________________________________________
batch_normalization_1232 (Ba (None, 16, 16, 16)        64        
_________________________________________________________________
activation_2495 (Activation) (None, 16, 16, 16)        0         
_________________________________________________________________
dropout_2495 (Dropout)       (None, 16, 16, 16)        0         
_________________________________________________________________
separable_conv2d_2251 (Separ (None, 16, 16, 64)        1232      
_________________________________________________________________
activation_2496 (Activation) (None, 16, 16, 64)        0         
_________________________________________________________________
dropout_2496 (Dropout)       (None, 16, 16, 64)        0         
_________________________________________________________________
separable_conv2d_2252 (Separ (None, 16, 16, 16)        1616      
_________________________________________________________________
activation_2497 (Activation) (None, 16, 16, 16)        0         
_________________________________________________________________
dropout_2497 (Dropout)       (None, 16, 16, 16)        0         
_________________________________________________________________
flatten_258 (Flatten)        (None, 4096)              0         
_________________________________________________________________
dense_503 (Dense)            (None, 100)               409700    
=================================================================
Total params: 2,102,575
Trainable params: 2,096,399
Non-trainable params: 6,176
_________________________________________________________________
