Model: "sequential_295"
_________________________________________________________________
Layer (type)                 Output Shape              Param #   
=================================================================
separable_conv2d_2540 (Separ (None, 32, 32, 1024)      4123      
_________________________________________________________________
batch_normalization_1372 (Ba (None, 32, 32, 1024)      4096      
_________________________________________________________________
activation_2794 (Activation) (None, 32, 32, 1024)      0         
_________________________________________________________________
dropout_2794 (Dropout)       (None, 32, 32, 1024)      0         
_________________________________________________________________
separable_conv2d_2541 (Separ (None, 32, 32, 32)        42016     
_________________________________________________________________
activation_2795 (Activation) (None, 32, 32, 32)        0         
_________________________________________________________________
dropout_2795 (Dropout)       (None, 32, 32, 32)        0         
_________________________________________________________________
max_pooling2d_482 (MaxPoolin (None, 16, 16, 32)        0         
_________________________________________________________________
separable_conv2d_2542 (Separ (None, 16, 16, 512)       17184     
_________________________________________________________________
activation_2796 (Activation) (None, 16, 16, 512)       0         
_________________________________________________________________
dropout_2796 (Dropout)       (None, 16, 16, 512)       0         
_________________________________________________________________
separable_conv2d_2543 (Separ (None, 16, 16, 1024)      529920    
_________________________________________________________________
batch_normalization_1373 (Ba (None, 16, 16, 1024)      4096      
_________________________________________________________________
activation_2797 (Activation) (None, 16, 16, 1024)      0         
_________________________________________________________________
dropout_2797 (Dropout)       (None, 16, 16, 1024)      0         
_________________________________________________________________
separable_conv2d_2544 (Separ (None, 16, 16, 1024)      1058816   
_________________________________________________________________
batch_normalization_1374 (Ba (None, 16, 16, 1024)      4096      
_________________________________________________________________
activation_2798 (Activation) (None, 16, 16, 1024)      0         
_________________________________________________________________
dropout_2798 (Dropout)       (None, 16, 16, 1024)      0         
_________________________________________________________________
separable_conv2d_2545 (Separ (None, 16, 16, 16)        25616     
_________________________________________________________________
batch_normalization_1375 (Ba (None, 16, 16, 16)        64        
_________________________________________________________________
activation_2799 (Activation) (None, 16, 16, 16)        0         
_________________________________________________________________
dropout_2799 (Dropout)       (None, 16, 16, 16)        0         
_________________________________________________________________
separable_conv2d_2546 (Separ (None, 16, 16, 64)        1232      
_________________________________________________________________
activation_2800 (Activation) (None, 16, 16, 64)        0         
_________________________________________________________________
dropout_2800 (Dropout)       (None, 16, 16, 64)        0         
_________________________________________________________________
separable_conv2d_2547 (Separ (None, 16, 16, 16)        1616      
_________________________________________________________________
activation_2801 (Activation) (None, 16, 16, 16)        0         
_________________________________________________________________
dropout_2801 (Dropout)       (None, 16, 16, 16)        0         
_________________________________________________________________
flatten_295 (Flatten)        (None, 4096)              0         
_________________________________________________________________
dense_549 (Dense)            (None, 4096)              16781312  
_________________________________________________________________
activation_2802 (Activation) (None, 4096)              0         
_________________________________________________________________
dropout_2802 (Dropout)       (None, 4096)              0         
_________________________________________________________________
dense_550 (Dense)            (None, 100)               409700    
=================================================================
Total params: 18,883,887
Trainable params: 18,877,711
Non-trainable params: 6,176
_________________________________________________________________
