Model: "sequential_321"
_________________________________________________________________
Layer (type)                 Output Shape              Param #   
=================================================================
separable_conv2d_2749 (Separ (None, 32, 32, 1024)      4123      
_________________________________________________________________
batch_normalization_1474 (Ba (None, 32, 32, 1024)      4096      
_________________________________________________________________
activation_3008 (Activation) (None, 32, 32, 1024)      0         
_________________________________________________________________
dropout_3008 (Dropout)       (None, 32, 32, 1024)      0         
_________________________________________________________________
separable_conv2d_2750 (Separ (None, 32, 32, 32)        42016     
_________________________________________________________________
activation_3009 (Activation) (None, 32, 32, 32)        0         
_________________________________________________________________
dropout_3009 (Dropout)       (None, 32, 32, 32)        0         
_________________________________________________________________
max_pooling2d_512 (MaxPoolin (None, 16, 16, 32)        0         
_________________________________________________________________
separable_conv2d_2751 (Separ (None, 16, 16, 512)       17184     
_________________________________________________________________
batch_normalization_1475 (Ba (None, 16, 16, 512)       2048      
_________________________________________________________________
activation_3010 (Activation) (None, 16, 16, 512)       0         
_________________________________________________________________
dropout_3010 (Dropout)       (None, 16, 16, 512)       0         
_________________________________________________________________
separable_conv2d_2752 (Separ (None, 16, 16, 1024)      529920    
_________________________________________________________________
batch_normalization_1476 (Ba (None, 16, 16, 1024)      4096      
_________________________________________________________________
activation_3011 (Activation) (None, 16, 16, 1024)      0         
_________________________________________________________________
dropout_3011 (Dropout)       (None, 16, 16, 1024)      0         
_________________________________________________________________
separable_conv2d_2753 (Separ (None, 16, 16, 1024)      1058816   
_________________________________________________________________
batch_normalization_1477 (Ba (None, 16, 16, 1024)      4096      
_________________________________________________________________
activation_3012 (Activation) (None, 16, 16, 1024)      0         
_________________________________________________________________
dropout_3012 (Dropout)       (None, 16, 16, 1024)      0         
_________________________________________________________________
separable_conv2d_2754 (Separ (None, 16, 16, 16)        25616     
_________________________________________________________________
batch_normalization_1478 (Ba (None, 16, 16, 16)        64        
_________________________________________________________________
activation_3013 (Activation) (None, 16, 16, 16)        0         
_________________________________________________________________
dropout_3013 (Dropout)       (None, 16, 16, 16)        0         
_________________________________________________________________
separable_conv2d_2755 (Separ (None, 16, 16, 64)        1232      
_________________________________________________________________
activation_3014 (Activation) (None, 16, 16, 64)        0         
_________________________________________________________________
dropout_3014 (Dropout)       (None, 16, 16, 64)        0         
_________________________________________________________________
separable_conv2d_2756 (Separ (None, 16, 16, 16)        1616      
_________________________________________________________________
activation_3015 (Activation) (None, 16, 16, 16)        0         
_________________________________________________________________
dropout_3015 (Dropout)       (None, 16, 16, 16)        0         
_________________________________________________________________
flatten_321 (Flatten)        (None, 4096)              0         
_________________________________________________________________
dense_580 (Dense)            (None, 4096)              16781312  
_________________________________________________________________
activation_3016 (Activation) (None, 4096)              0         
_________________________________________________________________
dropout_3016 (Dropout)       (None, 4096)              0         
_________________________________________________________________
dense_581 (Dense)            (None, 100)               409700    
=================================================================
Total params: 18,885,935
Trainable params: 18,878,735
Non-trainable params: 7,200
_________________________________________________________________
