Model: "sequential_237"
_________________________________________________________________
Layer (type)                 Output Shape              Param #   
=================================================================
separable_conv2d_2077 (Separ (None, 32, 32, 1024)      4123      
_________________________________________________________________
batch_normalization_1146 (Ba (None, 32, 32, 1024)      4096      
_________________________________________________________________
activation_2315 (Activation) (None, 32, 32, 1024)      0         
_________________________________________________________________
dropout_2315 (Dropout)       (None, 32, 32, 1024)      0         
_________________________________________________________________
separable_conv2d_2078 (Separ (None, 32, 32, 32)        42016     
_________________________________________________________________
activation_2316 (Activation) (None, 32, 32, 32)        0         
_________________________________________________________________
dropout_2316 (Dropout)       (None, 32, 32, 32)        0         
_________________________________________________________________
max_pooling2d_422 (MaxPoolin (None, 16, 16, 32)        0         
_________________________________________________________________
separable_conv2d_2079 (Separ (None, 16, 16, 512)       17184     
_________________________________________________________________
activation_2317 (Activation) (None, 16, 16, 512)       0         
_________________________________________________________________
dropout_2317 (Dropout)       (None, 16, 16, 512)       0         
_________________________________________________________________
separable_conv2d_2080 (Separ (None, 16, 16, 1024)      529920    
_________________________________________________________________
batch_normalization_1147 (Ba (None, 16, 16, 1024)      4096      
_________________________________________________________________
activation_2318 (Activation) (None, 16, 16, 1024)      0         
_________________________________________________________________
dropout_2318 (Dropout)       (None, 16, 16, 1024)      0         
_________________________________________________________________
separable_conv2d_2081 (Separ (None, 16, 16, 1024)      1058816   
_________________________________________________________________
batch_normalization_1148 (Ba (None, 16, 16, 1024)      4096      
_________________________________________________________________
activation_2319 (Activation) (None, 16, 16, 1024)      0         
_________________________________________________________________
dropout_2319 (Dropout)       (None, 16, 16, 1024)      0         
_________________________________________________________________
separable_conv2d_2082 (Separ (None, 16, 16, 16)        25616     
_________________________________________________________________
batch_normalization_1149 (Ba (None, 16, 16, 16)        64        
_________________________________________________________________
activation_2320 (Activation) (None, 16, 16, 16)        0         
_________________________________________________________________
dropout_2320 (Dropout)       (None, 16, 16, 16)        0         
_________________________________________________________________
separable_conv2d_2083 (Separ (None, 16, 16, 64)        1232      
_________________________________________________________________
activation_2321 (Activation) (None, 16, 16, 64)        0         
_________________________________________________________________
dropout_2321 (Dropout)       (None, 16, 16, 64)        0         
_________________________________________________________________
separable_conv2d_2084 (Separ (None, 16, 16, 16)        1616      
_________________________________________________________________
activation_2322 (Activation) (None, 16, 16, 16)        0         
_________________________________________________________________
dropout_2322 (Dropout)       (None, 16, 16, 16)        0         
_________________________________________________________________
flatten_237 (Flatten)        (None, 4096)              0         
_________________________________________________________________
dense_475 (Dense)            (None, 4096)              16781312  
_________________________________________________________________
activation_2323 (Activation) (None, 4096)              0         
_________________________________________________________________
dropout_2323 (Dropout)       (None, 4096)              0         
_________________________________________________________________
dense_476 (Dense)            (None, 100)               409700    
=================================================================
Total params: 18,883,887
Trainable params: 18,877,711
Non-trainable params: 6,176
_________________________________________________________________
