Model: "sequential_343"
_________________________________________________________________
Layer (type)                 Output Shape              Param #   
=================================================================
separable_conv2d_2924 (Separ (None, 32, 32, 1024)      4123      
_________________________________________________________________
batch_normalization_1561 (Ba (None, 32, 32, 1024)      4096      
_________________________________________________________________
activation_3186 (Activation) (None, 32, 32, 1024)      0         
_________________________________________________________________
dropout_3186 (Dropout)       (None, 32, 32, 1024)      0         
_________________________________________________________________
separable_conv2d_2925 (Separ (None, 32, 32, 32)        42016     
_________________________________________________________________
activation_3187 (Activation) (None, 32, 32, 32)        0         
_________________________________________________________________
dropout_3187 (Dropout)       (None, 32, 32, 32)        0         
_________________________________________________________________
max_pooling2d_537 (MaxPoolin (None, 16, 16, 32)        0         
_________________________________________________________________
separable_conv2d_2926 (Separ (None, 16, 16, 512)       17184     
_________________________________________________________________
activation_3188 (Activation) (None, 16, 16, 512)       0         
_________________________________________________________________
dropout_3188 (Dropout)       (None, 16, 16, 512)       0         
_________________________________________________________________
separable_conv2d_2927 (Separ (None, 16, 16, 1024)      529920    
_________________________________________________________________
batch_normalization_1562 (Ba (None, 16, 16, 1024)      4096      
_________________________________________________________________
activation_3189 (Activation) (None, 16, 16, 1024)      0         
_________________________________________________________________
dropout_3189 (Dropout)       (None, 16, 16, 1024)      0         
_________________________________________________________________
separable_conv2d_2928 (Separ (None, 16, 16, 1024)      1058816   
_________________________________________________________________
batch_normalization_1563 (Ba (None, 16, 16, 1024)      4096      
_________________________________________________________________
activation_3190 (Activation) (None, 16, 16, 1024)      0         
_________________________________________________________________
dropout_3190 (Dropout)       (None, 16, 16, 1024)      0         
_________________________________________________________________
separable_conv2d_2929 (Separ (None, 16, 16, 16)        25616     
_________________________________________________________________
batch_normalization_1564 (Ba (None, 16, 16, 16)        64        
_________________________________________________________________
activation_3191 (Activation) (None, 16, 16, 16)        0         
_________________________________________________________________
dropout_3191 (Dropout)       (None, 16, 16, 16)        0         
_________________________________________________________________
separable_conv2d_2930 (Separ (None, 16, 16, 64)        1232      
_________________________________________________________________
batch_normalization_1565 (Ba (None, 16, 16, 64)        256       
_________________________________________________________________
activation_3192 (Activation) (None, 16, 16, 64)        0         
_________________________________________________________________
dropout_3192 (Dropout)       (None, 16, 16, 64)        0         
_________________________________________________________________
separable_conv2d_2931 (Separ (None, 16, 16, 16)        1616      
_________________________________________________________________
activation_3193 (Activation) (None, 16, 16, 16)        0         
_________________________________________________________________
dropout_3193 (Dropout)       (None, 16, 16, 16)        0         
_________________________________________________________________
flatten_343 (Flatten)        (None, 4096)              0         
_________________________________________________________________
dense_605 (Dense)            (None, 100)               409700    
=================================================================
Total params: 2,102,831
Trainable params: 2,096,527
Non-trainable params: 6,304
_________________________________________________________________
