Model: "sequential_109"
_________________________________________________________________
Layer (type)                 Output Shape              Param #   
=================================================================
separable_conv2d_1042 (Separ (None, 32, 32, 1024)      4123      
_________________________________________________________________
batch_normalization_583 (Bat (None, 32, 32, 1024)      4096      
_________________________________________________________________
activation_1178 (Activation) (None, 32, 32, 1024)      0         
_________________________________________________________________
dropout_1178 (Dropout)       (None, 32, 32, 1024)      0         
_________________________________________________________________
max_pooling2d_235 (MaxPoolin (None, 16, 16, 1024)      0         
_________________________________________________________________
separable_conv2d_1043 (Separ (None, 16, 16, 32)        42016     
_________________________________________________________________
activation_1179 (Activation) (None, 16, 16, 32)        0         
_________________________________________________________________
dropout_1179 (Dropout)       (None, 16, 16, 32)        0         
_________________________________________________________________
max_pooling2d_236 (MaxPoolin (None, 8, 8, 32)          0         
_________________________________________________________________
separable_conv2d_1044 (Separ (None, 8, 8, 512)         17184     
_________________________________________________________________
activation_1180 (Activation) (None, 8, 8, 512)         0         
_________________________________________________________________
dropout_1180 (Dropout)       (None, 8, 8, 512)         0         
_________________________________________________________________
separable_conv2d_1045 (Separ (None, 8, 8, 1024)        529920    
_________________________________________________________________
batch_normalization_584 (Bat (None, 8, 8, 1024)        4096      
_________________________________________________________________
activation_1181 (Activation) (None, 8, 8, 1024)        0         
_________________________________________________________________
dropout_1181 (Dropout)       (None, 8, 8, 1024)        0         
_________________________________________________________________
separable_conv2d_1046 (Separ (None, 8, 8, 1024)        1058816   
_________________________________________________________________
batch_normalization_585 (Bat (None, 8, 8, 1024)        4096      
_________________________________________________________________
activation_1182 (Activation) (None, 8, 8, 1024)        0         
_________________________________________________________________
dropout_1182 (Dropout)       (None, 8, 8, 1024)        0         
_________________________________________________________________
separable_conv2d_1047 (Separ (None, 8, 8, 16)          25616     
_________________________________________________________________
batch_normalization_586 (Bat (None, 8, 8, 16)          64        
_________________________________________________________________
activation_1183 (Activation) (None, 8, 8, 16)          0         
_________________________________________________________________
dropout_1183 (Dropout)       (None, 8, 8, 16)          0         
_________________________________________________________________
separable_conv2d_1048 (Separ (None, 8, 8, 16)          416       
_________________________________________________________________
batch_normalization_587 (Bat (None, 8, 8, 16)          64        
_________________________________________________________________
activation_1184 (Activation) (None, 8, 8, 16)          0         
_________________________________________________________________
dropout_1184 (Dropout)       (None, 8, 8, 16)          0         
_________________________________________________________________
separable_conv2d_1049 (Separ (None, 8, 8, 8)           280       
_________________________________________________________________
activation_1185 (Activation) (None, 8, 8, 8)           0         
_________________________________________________________________
dropout_1185 (Dropout)       (None, 8, 8, 8)           0         
_________________________________________________________________
flatten_109 (Flatten)        (None, 512)               0         
_________________________________________________________________
dense_245 (Dense)            (None, 4096)              2101248   
_________________________________________________________________
activation_1186 (Activation) (None, 4096)              0         
_________________________________________________________________
dropout_1186 (Dropout)       (None, 4096)              0         
_________________________________________________________________
dense_246 (Dense)            (None, 100)               409700    
=================================================================
Total params: 4,201,735
Trainable params: 4,195,527
Non-trainable params: 6,208
_________________________________________________________________
