Model: "sequential_166"
_________________________________________________________________
Layer (type)                 Output Shape              Param #   
=================================================================
separable_conv2d_1514 (Separ (None, 32, 32, 1024)      4123      
_________________________________________________________________
batch_normalization_848 (Bat (None, 32, 32, 1024)      4096      
_________________________________________________________________
activation_1705 (Activation) (None, 32, 32, 1024)      0         
_________________________________________________________________
dropout_1705 (Dropout)       (None, 32, 32, 1024)      0         
_________________________________________________________________
max_pooling2d_340 (MaxPoolin (None, 16, 16, 1024)      0         
_________________________________________________________________
separable_conv2d_1515 (Separ (None, 16, 16, 128)       140416    
_________________________________________________________________
activation_1706 (Activation) (None, 16, 16, 128)       0         
_________________________________________________________________
dropout_1706 (Dropout)       (None, 16, 16, 128)       0         
_________________________________________________________________
max_pooling2d_341 (MaxPoolin (None, 8, 8, 128)         0         
_________________________________________________________________
separable_conv2d_1516 (Separ (None, 8, 8, 512)         67200     
_________________________________________________________________
activation_1707 (Activation) (None, 8, 8, 512)         0         
_________________________________________________________________
dropout_1707 (Dropout)       (None, 8, 8, 512)         0         
_________________________________________________________________
separable_conv2d_1517 (Separ (None, 8, 8, 32)          21024     
_________________________________________________________________
batch_normalization_849 (Bat (None, 8, 8, 32)          128       
_________________________________________________________________
activation_1708 (Activation) (None, 8, 8, 32)          0         
_________________________________________________________________
dropout_1708 (Dropout)       (None, 8, 8, 32)          0         
_________________________________________________________________
separable_conv2d_1518 (Separ (None, 8, 8, 1024)        34080     
_________________________________________________________________
batch_normalization_850 (Bat (None, 8, 8, 1024)        4096      
_________________________________________________________________
activation_1709 (Activation) (None, 8, 8, 1024)        0         
_________________________________________________________________
dropout_1709 (Dropout)       (None, 8, 8, 1024)        0         
_________________________________________________________________
separable_conv2d_1519 (Separ (None, 8, 8, 16)          25616     
_________________________________________________________________
batch_normalization_851 (Bat (None, 8, 8, 16)          64        
_________________________________________________________________
activation_1710 (Activation) (None, 8, 8, 16)          0         
_________________________________________________________________
dropout_1710 (Dropout)       (None, 8, 8, 16)          0         
_________________________________________________________________
separable_conv2d_1520 (Separ (None, 8, 8, 16)          416       
_________________________________________________________________
batch_normalization_852 (Bat (None, 8, 8, 16)          64        
_________________________________________________________________
activation_1711 (Activation) (None, 8, 8, 16)          0         
_________________________________________________________________
dropout_1711 (Dropout)       (None, 8, 8, 16)          0         
_________________________________________________________________
separable_conv2d_1521 (Separ (None, 8, 8, 8)           280       
_________________________________________________________________
activation_1712 (Activation) (None, 8, 8, 8)           0         
_________________________________________________________________
dropout_1712 (Dropout)       (None, 8, 8, 8)           0         
_________________________________________________________________
flatten_166 (Flatten)        (None, 512)               0         
_________________________________________________________________
dense_357 (Dense)            (None, 4096)              2101248   
_________________________________________________________________
activation_1713 (Activation) (None, 4096)              0         
_________________________________________________________________
dropout_1713 (Dropout)       (None, 4096)              0         
_________________________________________________________________
dense_358 (Dense)            (None, 100)               409700    
=================================================================
Total params: 2,812,551
Trainable params: 2,808,327
Non-trainable params: 4,224
_________________________________________________________________
