Model: "sequential_157"
_________________________________________________________________
Layer (type)                 Output Shape              Param #   
=================================================================
separable_conv2d_1439 (Separ (None, 32, 32, 1024)      4123      
_________________________________________________________________
batch_normalization_809 (Bat (None, 32, 32, 1024)      4096      
_________________________________________________________________
activation_1622 (Activation) (None, 32, 32, 1024)      0         
_________________________________________________________________
dropout_1622 (Dropout)       (None, 32, 32, 1024)      0         
_________________________________________________________________
max_pooling2d_328 (MaxPoolin (None, 16, 16, 1024)      0         
_________________________________________________________________
separable_conv2d_1440 (Separ (None, 16, 16, 32)        42016     
_________________________________________________________________
activation_1623 (Activation) (None, 16, 16, 32)        0         
_________________________________________________________________
dropout_1623 (Dropout)       (None, 16, 16, 32)        0         
_________________________________________________________________
max_pooling2d_329 (MaxPoolin (None, 8, 8, 32)          0         
_________________________________________________________________
separable_conv2d_1441 (Separ (None, 8, 8, 512)         17184     
_________________________________________________________________
activation_1624 (Activation) (None, 8, 8, 512)         0         
_________________________________________________________________
dropout_1624 (Dropout)       (None, 8, 8, 512)         0         
_________________________________________________________________
separable_conv2d_1442 (Separ (None, 8, 8, 1024)        529920    
_________________________________________________________________
batch_normalization_810 (Bat (None, 8, 8, 1024)        4096      
_________________________________________________________________
activation_1625 (Activation) (None, 8, 8, 1024)        0         
_________________________________________________________________
dropout_1625 (Dropout)       (None, 8, 8, 1024)        0         
_________________________________________________________________
separable_conv2d_1443 (Separ (None, 8, 8, 1024)        1058816   
_________________________________________________________________
batch_normalization_811 (Bat (None, 8, 8, 1024)        4096      
_________________________________________________________________
activation_1626 (Activation) (None, 8, 8, 1024)        0         
_________________________________________________________________
dropout_1626 (Dropout)       (None, 8, 8, 1024)        0         
_________________________________________________________________
separable_conv2d_1444 (Separ (None, 8, 8, 16)          25616     
_________________________________________________________________
batch_normalization_812 (Bat (None, 8, 8, 16)          64        
_________________________________________________________________
activation_1627 (Activation) (None, 8, 8, 16)          0         
_________________________________________________________________
dropout_1627 (Dropout)       (None, 8, 8, 16)          0         
_________________________________________________________________
separable_conv2d_1445 (Separ (None, 8, 8, 16)          416       
_________________________________________________________________
batch_normalization_813 (Bat (None, 8, 8, 16)          64        
_________________________________________________________________
activation_1628 (Activation) (None, 8, 8, 16)          0         
_________________________________________________________________
dropout_1628 (Dropout)       (None, 8, 8, 16)          0         
_________________________________________________________________
separable_conv2d_1446 (Separ (None, 8, 8, 8)           280       
_________________________________________________________________
activation_1629 (Activation) (None, 8, 8, 8)           0         
_________________________________________________________________
dropout_1629 (Dropout)       (None, 8, 8, 8)           0         
_________________________________________________________________
flatten_157 (Flatten)        (None, 512)               0         
_________________________________________________________________
dense_340 (Dense)            (None, 4096)              2101248   
_________________________________________________________________
activation_1630 (Activation) (None, 4096)              0         
_________________________________________________________________
dropout_1630 (Dropout)       (None, 4096)              0         
_________________________________________________________________
dense_341 (Dense)            (None, 100)               409700    
=================================================================
Total params: 4,201,735
Trainable params: 4,195,527
Non-trainable params: 6,208
_________________________________________________________________
