Model: "sequential_306"
_________________________________________________________________
Layer (type)                 Output Shape              Param #   
=================================================================
separable_conv2d_2629 (Separ (None, 32, 32, 1024)      4123      
_________________________________________________________________
batch_normalization_1414 (Ba (None, 32, 32, 1024)      4096      
_________________________________________________________________
activation_2886 (Activation) (None, 32, 32, 1024)      0         
_________________________________________________________________
dropout_2886 (Dropout)       (None, 32, 32, 1024)      0         
_________________________________________________________________
separable_conv2d_2630 (Separ (None, 32, 32, 32)        42016     
_________________________________________________________________
activation_2887 (Activation) (None, 32, 32, 32)        0         
_________________________________________________________________
dropout_2887 (Dropout)       (None, 32, 32, 32)        0         
_________________________________________________________________
max_pooling2d_494 (MaxPoolin (None, 16, 16, 32)        0         
_________________________________________________________________
separable_conv2d_2631 (Separ (None, 16, 16, 512)       17184     
_________________________________________________________________
activation_2888 (Activation) (None, 16, 16, 512)       0         
_________________________________________________________________
dropout_2888 (Dropout)       (None, 16, 16, 512)       0         
_________________________________________________________________
separable_conv2d_2632 (Separ (None, 16, 16, 1024)      529920    
_________________________________________________________________
batch_normalization_1415 (Ba (None, 16, 16, 1024)      4096      
_________________________________________________________________
activation_2889 (Activation) (None, 16, 16, 1024)      0         
_________________________________________________________________
dropout_2889 (Dropout)       (None, 16, 16, 1024)      0         
_________________________________________________________________
separable_conv2d_2633 (Separ (None, 16, 16, 1024)      1058816   
_________________________________________________________________
batch_normalization_1416 (Ba (None, 16, 16, 1024)      4096      
_________________________________________________________________
activation_2890 (Activation) (None, 16, 16, 1024)      0         
_________________________________________________________________
dropout_2890 (Dropout)       (None, 16, 16, 1024)      0         
_________________________________________________________________
separable_conv2d_2634 (Separ (None, 16, 16, 16)        25616     
_________________________________________________________________
batch_normalization_1417 (Ba (None, 16, 16, 16)        64        
_________________________________________________________________
activation_2891 (Activation) (None, 16, 16, 16)        0         
_________________________________________________________________
dropout_2891 (Dropout)       (None, 16, 16, 16)        0         
_________________________________________________________________
separable_conv2d_2635 (Separ (None, 16, 16, 64)        1232      
_________________________________________________________________
activation_2892 (Activation) (None, 16, 16, 64)        0         
_________________________________________________________________
dropout_2892 (Dropout)       (None, 16, 16, 64)        0         
_________________________________________________________________
separable_conv2d_2636 (Separ (None, 16, 16, 16)        1616      
_________________________________________________________________
activation_2893 (Activation) (None, 16, 16, 16)        0         
_________________________________________________________________
dropout_2893 (Dropout)       (None, 16, 16, 16)        0         
_________________________________________________________________
flatten_306 (Flatten)        (None, 4096)              0         
_________________________________________________________________
dense_563 (Dense)            (None, 100)               409700    
=================================================================
Total params: 2,102,575
Trainable params: 2,096,399
Non-trainable params: 6,176
_________________________________________________________________
