Model: "sequential_97"
_________________________________________________________________
Layer (type)                 Output Shape              Param #   
=================================================================
separable_conv2d_937 (Separa (None, 32, 32, 1024)      4123      
_________________________________________________________________
batch_normalization_526 (Bat (None, 32, 32, 1024)      4096      
_________________________________________________________________
activation_1061 (Activation) (None, 32, 32, 1024)      0         
_________________________________________________________________
dropout_1061 (Dropout)       (None, 32, 32, 1024)      0         
_________________________________________________________________
max_pooling2d_211 (MaxPoolin (None, 16, 16, 1024)      0         
_________________________________________________________________
separable_conv2d_938 (Separa (None, 16, 16, 32)        42016     
_________________________________________________________________
activation_1062 (Activation) (None, 16, 16, 32)        0         
_________________________________________________________________
dropout_1062 (Dropout)       (None, 16, 16, 32)        0         
_________________________________________________________________
max_pooling2d_212 (MaxPoolin (None, 8, 8, 32)          0         
_________________________________________________________________
separable_conv2d_939 (Separa (None, 8, 8, 512)         17184     
_________________________________________________________________
activation_1063 (Activation) (None, 8, 8, 512)         0         
_________________________________________________________________
dropout_1063 (Dropout)       (None, 8, 8, 512)         0         
_________________________________________________________________
separable_conv2d_940 (Separa (None, 8, 8, 1024)        529920    
_________________________________________________________________
batch_normalization_527 (Bat (None, 8, 8, 1024)        4096      
_________________________________________________________________
activation_1064 (Activation) (None, 8, 8, 1024)        0         
_________________________________________________________________
dropout_1064 (Dropout)       (None, 8, 8, 1024)        0         
_________________________________________________________________
separable_conv2d_941 (Separa (None, 8, 8, 1024)        1058816   
_________________________________________________________________
batch_normalization_528 (Bat (None, 8, 8, 1024)        4096      
_________________________________________________________________
activation_1065 (Activation) (None, 8, 8, 1024)        0         
_________________________________________________________________
dropout_1065 (Dropout)       (None, 8, 8, 1024)        0         
_________________________________________________________________
separable_conv2d_942 (Separa (None, 8, 8, 16)          25616     
_________________________________________________________________
batch_normalization_529 (Bat (None, 8, 8, 16)          64        
_________________________________________________________________
activation_1066 (Activation) (None, 8, 8, 16)          0         
_________________________________________________________________
dropout_1066 (Dropout)       (None, 8, 8, 16)          0         
_________________________________________________________________
separable_conv2d_943 (Separa (None, 8, 8, 64)          1232      
_________________________________________________________________
activation_1067 (Activation) (None, 8, 8, 64)          0         
_________________________________________________________________
dropout_1067 (Dropout)       (None, 8, 8, 64)          0         
_________________________________________________________________
separable_conv2d_944 (Separa (None, 8, 8, 16)          1616      
_________________________________________________________________
activation_1068 (Activation) (None, 8, 8, 16)          0         
_________________________________________________________________
dropout_1068 (Dropout)       (None, 8, 8, 16)          0         
_________________________________________________________________
flatten_97 (Flatten)         (None, 1024)              0         
_________________________________________________________________
dense_221 (Dense)            (None, 4096)              4198400   
_________________________________________________________________
activation_1069 (Activation) (None, 4096)              0         
_________________________________________________________________
dropout_1069 (Dropout)       (None, 4096)              0         
_________________________________________________________________
dense_222 (Dense)            (None, 100)               409700    
=================================================================
Total params: 6,300,975
Trainable params: 6,294,799
Non-trainable params: 6,176
_________________________________________________________________
