Model: "sequential_62"
_________________________________________________________________
Layer (type)                 Output Shape              Param #   
=================================================================
separable_conv2d_609 (Separa (None, 32, 32, 1024)      4123      
_________________________________________________________________
batch_normalization_345 (Bat (None, 32, 32, 1024)      4096      
_________________________________________________________________
activation_696 (Activation)  (None, 32, 32, 1024)      0         
_________________________________________________________________
dropout_696 (Dropout)        (None, 32, 32, 1024)      0         
_________________________________________________________________
max_pooling2d_139 (MaxPoolin (None, 16, 16, 1024)      0         
_________________________________________________________________
separable_conv2d_610 (Separa (None, 16, 16, 32)        42016     
_________________________________________________________________
activation_697 (Activation)  (None, 16, 16, 32)        0         
_________________________________________________________________
dropout_697 (Dropout)        (None, 16, 16, 32)        0         
_________________________________________________________________
max_pooling2d_140 (MaxPoolin (None, 8, 8, 32)          0         
_________________________________________________________________
separable_conv2d_611 (Separa (None, 8, 8, 512)         17184     
_________________________________________________________________
activation_698 (Activation)  (None, 8, 8, 512)         0         
_________________________________________________________________
dropout_698 (Dropout)        (None, 8, 8, 512)         0         
_________________________________________________________________
separable_conv2d_612 (Separa (None, 8, 8, 1024)        529920    
_________________________________________________________________
batch_normalization_346 (Bat (None, 8, 8, 1024)        4096      
_________________________________________________________________
activation_699 (Activation)  (None, 8, 8, 1024)        0         
_________________________________________________________________
dropout_699 (Dropout)        (None, 8, 8, 1024)        0         
_________________________________________________________________
separable_conv2d_613 (Separa (None, 8, 8, 1024)        1058816   
_________________________________________________________________
batch_normalization_347 (Bat (None, 8, 8, 1024)        4096      
_________________________________________________________________
activation_700 (Activation)  (None, 8, 8, 1024)        0         
_________________________________________________________________
dropout_700 (Dropout)        (None, 8, 8, 1024)        0         
_________________________________________________________________
separable_conv2d_614 (Separa (None, 8, 8, 16)          25616     
_________________________________________________________________
batch_normalization_348 (Bat (None, 8, 8, 16)          64        
_________________________________________________________________
activation_701 (Activation)  (None, 8, 8, 16)          0         
_________________________________________________________________
dropout_701 (Dropout)        (None, 8, 8, 16)          0         
_________________________________________________________________
separable_conv2d_615 (Separa (None, 8, 8, 16)          416       
_________________________________________________________________
batch_normalization_349 (Bat (None, 8, 8, 16)          64        
_________________________________________________________________
activation_702 (Activation)  (None, 8, 8, 16)          0         
_________________________________________________________________
dropout_702 (Dropout)        (None, 8, 8, 16)          0         
_________________________________________________________________
separable_conv2d_616 (Separa (None, 8, 8, 512)         8848      
_________________________________________________________________
activation_703 (Activation)  (None, 8, 8, 512)         0         
_________________________________________________________________
dropout_703 (Dropout)        (None, 8, 8, 512)         0         
_________________________________________________________________
separable_conv2d_617 (Separa (None, 8, 8, 64)          37440     
_________________________________________________________________
activation_704 (Activation)  (None, 8, 8, 64)          0         
_________________________________________________________________
dropout_704 (Dropout)        (None, 8, 8, 64)          0         
_________________________________________________________________
separable_conv2d_618 (Separa (None, 8, 8, 8)           1096      
_________________________________________________________________
activation_705 (Activation)  (None, 8, 8, 8)           0         
_________________________________________________________________
dropout_705 (Dropout)        (None, 8, 8, 8)           0         
_________________________________________________________________
flatten_62 (Flatten)         (None, 512)               0         
_________________________________________________________________
dense_149 (Dense)            (None, 4096)              2101248   
_________________________________________________________________
activation_706 (Activation)  (None, 4096)              0         
_________________________________________________________________
dropout_706 (Dropout)        (None, 4096)              0         
_________________________________________________________________
dense_150 (Dense)            (None, 100)               409700    
=================================================================
Total params: 4,248,839
Trainable params: 4,242,631
Non-trainable params: 6,208
_________________________________________________________________
