Model: "sequential_373"
_________________________________________________________________
Layer (type)                 Output Shape              Param #   
=================================================================
separable_conv2d_3163 (Separ (None, 32, 32, 1024)      4123      
_________________________________________________________________
batch_normalization_1688 (Ba (None, 32, 32, 1024)      4096      
_________________________________________________________________
activation_3431 (Activation) (None, 32, 32, 1024)      0         
_________________________________________________________________
dropout_3431 (Dropout)       (None, 32, 32, 1024)      0         
_________________________________________________________________
separable_conv2d_3164 (Separ (None, 32, 32, 32)        42016     
_________________________________________________________________
activation_3432 (Activation) (None, 32, 32, 32)        0         
_________________________________________________________________
dropout_3432 (Dropout)       (None, 32, 32, 32)        0         
_________________________________________________________________
max_pooling2d_570 (MaxPoolin (None, 16, 16, 32)        0         
_________________________________________________________________
separable_conv2d_3165 (Separ (None, 16, 16, 512)       17184     
_________________________________________________________________
activation_3433 (Activation) (None, 16, 16, 512)       0         
_________________________________________________________________
dropout_3433 (Dropout)       (None, 16, 16, 512)       0         
_________________________________________________________________
separable_conv2d_3166 (Separ (None, 16, 16, 1024)      529920    
_________________________________________________________________
batch_normalization_1689 (Ba (None, 16, 16, 1024)      4096      
_________________________________________________________________
activation_3434 (Activation) (None, 16, 16, 1024)      0         
_________________________________________________________________
dropout_3434 (Dropout)       (None, 16, 16, 1024)      0         
_________________________________________________________________
separable_conv2d_3167 (Separ (None, 16, 16, 1024)      1058816   
_________________________________________________________________
batch_normalization_1690 (Ba (None, 16, 16, 1024)      4096      
_________________________________________________________________
activation_3435 (Activation) (None, 16, 16, 1024)      0         
_________________________________________________________________
dropout_3435 (Dropout)       (None, 16, 16, 1024)      0         
_________________________________________________________________
separable_conv2d_3168 (Separ (None, 16, 16, 16)        25616     
_________________________________________________________________
batch_normalization_1691 (Ba (None, 16, 16, 16)        64        
_________________________________________________________________
activation_3436 (Activation) (None, 16, 16, 16)        0         
_________________________________________________________________
dropout_3436 (Dropout)       (None, 16, 16, 16)        0         
_________________________________________________________________
separable_conv2d_3169 (Separ (None, 16, 16, 64)        1232      
_________________________________________________________________
activation_3437 (Activation) (None, 16, 16, 64)        0         
_________________________________________________________________
dropout_3437 (Dropout)       (None, 16, 16, 64)        0         
_________________________________________________________________
separable_conv2d_3170 (Separ (None, 16, 16, 16)        1616      
_________________________________________________________________
activation_3438 (Activation) (None, 16, 16, 16)        0         
_________________________________________________________________
dropout_3438 (Dropout)       (None, 16, 16, 16)        0         
_________________________________________________________________
flatten_373 (Flatten)        (None, 4096)              0         
_________________________________________________________________
dense_641 (Dense)            (None, 100)               409700    
=================================================================
Total params: 2,102,575
Trainable params: 2,096,399
Non-trainable params: 6,176
_________________________________________________________________
