Model: "sequential_379"
_________________________________________________________________
Layer (type)                 Output Shape              Param #   
=================================================================
separable_conv2d_3211 (Separ (None, 32, 32, 1024)      4123      
_________________________________________________________________
batch_normalization_1715 (Ba (None, 32, 32, 1024)      4096      
_________________________________________________________________
activation_3480 (Activation) (None, 32, 32, 1024)      0         
_________________________________________________________________
dropout_3480 (Dropout)       (None, 32, 32, 1024)      0         
_________________________________________________________________
separable_conv2d_3212 (Separ (None, 32, 32, 32)        42016     
_________________________________________________________________
activation_3481 (Activation) (None, 32, 32, 32)        0         
_________________________________________________________________
dropout_3481 (Dropout)       (None, 32, 32, 32)        0         
_________________________________________________________________
max_pooling2d_576 (MaxPoolin (None, 16, 16, 32)        0         
_________________________________________________________________
separable_conv2d_3213 (Separ (None, 16, 16, 512)       17184     
_________________________________________________________________
activation_3482 (Activation) (None, 16, 16, 512)       0         
_________________________________________________________________
dropout_3482 (Dropout)       (None, 16, 16, 512)       0         
_________________________________________________________________
separable_conv2d_3214 (Separ (None, 16, 16, 1024)      529920    
_________________________________________________________________
batch_normalization_1716 (Ba (None, 16, 16, 1024)      4096      
_________________________________________________________________
activation_3483 (Activation) (None, 16, 16, 1024)      0         
_________________________________________________________________
dropout_3483 (Dropout)       (None, 16, 16, 1024)      0         
_________________________________________________________________
separable_conv2d_3215 (Separ (None, 16, 16, 16)        25616     
_________________________________________________________________
batch_normalization_1717 (Ba (None, 16, 16, 16)        64        
_________________________________________________________________
activation_3484 (Activation) (None, 16, 16, 16)        0         
_________________________________________________________________
dropout_3484 (Dropout)       (None, 16, 16, 16)        0         
_________________________________________________________________
separable_conv2d_3216 (Separ (None, 16, 16, 64)        1232      
_________________________________________________________________
activation_3485 (Activation) (None, 16, 16, 64)        0         
_________________________________________________________________
dropout_3485 (Dropout)       (None, 16, 16, 64)        0         
_________________________________________________________________
separable_conv2d_3217 (Separ (None, 16, 16, 16)        1616      
_________________________________________________________________
activation_3486 (Activation) (None, 16, 16, 16)        0         
_________________________________________________________________
dropout_3486 (Dropout)       (None, 16, 16, 16)        0         
_________________________________________________________________
flatten_379 (Flatten)        (None, 4096)              0         
_________________________________________________________________
dense_648 (Dense)            (None, 100)               409700    
=================================================================
Total params: 1,039,663
Trainable params: 1,035,535
Non-trainable params: 4,128
_________________________________________________________________
