Model: "sequential_209"
_________________________________________________________________
Layer (type)                 Output Shape              Param #   
=================================================================
separable_conv2d_1854 (Separ (None, 32, 32, 1024)      4123      
_________________________________________________________________
batch_normalization_1029 (Ba (None, 32, 32, 1024)      4096      
_________________________________________________________________
activation_2077 (Activation) (None, 32, 32, 1024)      0         
_________________________________________________________________
dropout_2077 (Dropout)       (None, 32, 32, 1024)      0         
_________________________________________________________________
separable_conv2d_1855 (Separ (None, 32, 32, 32)        42016     
_________________________________________________________________
activation_2078 (Activation) (None, 32, 32, 32)        0         
_________________________________________________________________
dropout_2078 (Dropout)       (None, 32, 32, 32)        0         
_________________________________________________________________
max_pooling2d_393 (MaxPoolin (None, 16, 16, 32)        0         
_________________________________________________________________
separable_conv2d_1856 (Separ (None, 16, 16, 512)       17184     
_________________________________________________________________
activation_2079 (Activation) (None, 16, 16, 512)       0         
_________________________________________________________________
dropout_2079 (Dropout)       (None, 16, 16, 512)       0         
_________________________________________________________________
separable_conv2d_1857 (Separ (None, 16, 16, 1024)      529920    
_________________________________________________________________
batch_normalization_1030 (Ba (None, 16, 16, 1024)      4096      
_________________________________________________________________
activation_2080 (Activation) (None, 16, 16, 1024)      0         
_________________________________________________________________
dropout_2080 (Dropout)       (None, 16, 16, 1024)      0         
_________________________________________________________________
separable_conv2d_1858 (Separ (None, 16, 16, 1024)      1058816   
_________________________________________________________________
batch_normalization_1031 (Ba (None, 16, 16, 1024)      4096      
_________________________________________________________________
activation_2081 (Activation) (None, 16, 16, 1024)      0         
_________________________________________________________________
dropout_2081 (Dropout)       (None, 16, 16, 1024)      0         
_________________________________________________________________
separable_conv2d_1859 (Separ (None, 16, 16, 16)        25616     
_________________________________________________________________
batch_normalization_1032 (Ba (None, 16, 16, 16)        64        
_________________________________________________________________
activation_2082 (Activation) (None, 16, 16, 16)        0         
_________________________________________________________________
dropout_2082 (Dropout)       (None, 16, 16, 16)        0         
_________________________________________________________________
separable_conv2d_1860 (Separ (None, 16, 16, 64)        1232      
_________________________________________________________________
activation_2083 (Activation) (None, 16, 16, 64)        0         
_________________________________________________________________
dropout_2083 (Dropout)       (None, 16, 16, 64)        0         
_________________________________________________________________
separable_conv2d_1861 (Separ (None, 16, 16, 16)        1616      
_________________________________________________________________
activation_2084 (Activation) (None, 16, 16, 16)        0         
_________________________________________________________________
dropout_2084 (Dropout)       (None, 16, 16, 16)        0         
_________________________________________________________________
flatten_209 (Flatten)        (None, 4096)              0         
_________________________________________________________________
dense_432 (Dense)            (None, 4096)              16781312  
_________________________________________________________________
activation_2085 (Activation) (None, 4096)              0         
_________________________________________________________________
dropout_2085 (Dropout)       (None, 4096)              0         
_________________________________________________________________
dense_433 (Dense)            (None, 100)               409700    
=================================================================
Total params: 18,883,887
Trainable params: 18,877,711
Non-trainable params: 6,176
_________________________________________________________________
