Model: "sequential_246"
_________________________________________________________________
Layer (type)                 Output Shape              Param #   
=================================================================
separable_conv2d_2149 (Separ (None, 32, 32, 1024)      4123      
_________________________________________________________________
batch_normalization_1182 (Ba (None, 32, 32, 1024)      4096      
_________________________________________________________________
activation_2391 (Activation) (None, 32, 32, 1024)      0         
_________________________________________________________________
dropout_2391 (Dropout)       (None, 32, 32, 1024)      0         
_________________________________________________________________
separable_conv2d_2150 (Separ (None, 32, 32, 32)        42016     
_________________________________________________________________
activation_2392 (Activation) (None, 32, 32, 32)        0         
_________________________________________________________________
dropout_2392 (Dropout)       (None, 32, 32, 32)        0         
_________________________________________________________________
max_pooling2d_431 (MaxPoolin (None, 16, 16, 32)        0         
_________________________________________________________________
separable_conv2d_2151 (Separ (None, 16, 16, 512)       17184     
_________________________________________________________________
activation_2393 (Activation) (None, 16, 16, 512)       0         
_________________________________________________________________
dropout_2393 (Dropout)       (None, 16, 16, 512)       0         
_________________________________________________________________
separable_conv2d_2152 (Separ (None, 16, 16, 1024)      529920    
_________________________________________________________________
batch_normalization_1183 (Ba (None, 16, 16, 1024)      4096      
_________________________________________________________________
activation_2394 (Activation) (None, 16, 16, 1024)      0         
_________________________________________________________________
dropout_2394 (Dropout)       (None, 16, 16, 1024)      0         
_________________________________________________________________
separable_conv2d_2153 (Separ (None, 16, 16, 1024)      1058816   
_________________________________________________________________
batch_normalization_1184 (Ba (None, 16, 16, 1024)      4096      
_________________________________________________________________
activation_2395 (Activation) (None, 16, 16, 1024)      0         
_________________________________________________________________
dropout_2395 (Dropout)       (None, 16, 16, 1024)      0         
_________________________________________________________________
separable_conv2d_2154 (Separ (None, 16, 16, 16)        25616     
_________________________________________________________________
batch_normalization_1185 (Ba (None, 16, 16, 16)        64        
_________________________________________________________________
activation_2396 (Activation) (None, 16, 16, 16)        0         
_________________________________________________________________
dropout_2396 (Dropout)       (None, 16, 16, 16)        0         
_________________________________________________________________
separable_conv2d_2155 (Separ (None, 16, 16, 64)        1232      
_________________________________________________________________
activation_2397 (Activation) (None, 16, 16, 64)        0         
_________________________________________________________________
dropout_2397 (Dropout)       (None, 16, 16, 64)        0         
_________________________________________________________________
separable_conv2d_2156 (Separ (None, 16, 16, 16)        1616      
_________________________________________________________________
activation_2398 (Activation) (None, 16, 16, 16)        0         
_________________________________________________________________
dropout_2398 (Dropout)       (None, 16, 16, 16)        0         
_________________________________________________________________
flatten_246 (Flatten)        (None, 4096)              0         
_________________________________________________________________
dense_488 (Dense)            (None, 4096)              16781312  
_________________________________________________________________
activation_2399 (Activation) (None, 4096)              0         
_________________________________________________________________
dropout_2399 (Dropout)       (None, 4096)              0         
_________________________________________________________________
dense_489 (Dense)            (None, 100)               409700    
=================================================================
Total params: 18,883,887
Trainable params: 18,877,711
Non-trainable params: 6,176
_________________________________________________________________
