Model: "sequential_210"
_________________________________________________________________
Layer (type)                 Output Shape              Param #   
=================================================================
separable_conv2d_1862 (Separ (None, 32, 32, 1024)      4123      
_________________________________________________________________
batch_normalization_1033 (Ba (None, 32, 32, 1024)      4096      
_________________________________________________________________
activation_2086 (Activation) (None, 32, 32, 1024)      0         
_________________________________________________________________
dropout_2086 (Dropout)       (None, 32, 32, 1024)      0         
_________________________________________________________________
separable_conv2d_1863 (Separ (None, 32, 32, 32)        42016     
_________________________________________________________________
activation_2087 (Activation) (None, 32, 32, 32)        0         
_________________________________________________________________
dropout_2087 (Dropout)       (None, 32, 32, 32)        0         
_________________________________________________________________
max_pooling2d_394 (MaxPoolin (None, 16, 16, 32)        0         
_________________________________________________________________
separable_conv2d_1864 (Separ (None, 16, 16, 512)       17184     
_________________________________________________________________
activation_2088 (Activation) (None, 16, 16, 512)       0         
_________________________________________________________________
dropout_2088 (Dropout)       (None, 16, 16, 512)       0         
_________________________________________________________________
separable_conv2d_1865 (Separ (None, 16, 16, 1024)      529920    
_________________________________________________________________
batch_normalization_1034 (Ba (None, 16, 16, 1024)      4096      
_________________________________________________________________
activation_2089 (Activation) (None, 16, 16, 1024)      0         
_________________________________________________________________
dropout_2089 (Dropout)       (None, 16, 16, 1024)      0         
_________________________________________________________________
separable_conv2d_1866 (Separ (None, 16, 16, 1024)      1058816   
_________________________________________________________________
batch_normalization_1035 (Ba (None, 16, 16, 1024)      4096      
_________________________________________________________________
activation_2090 (Activation) (None, 16, 16, 1024)      0         
_________________________________________________________________
dropout_2090 (Dropout)       (None, 16, 16, 1024)      0         
_________________________________________________________________
separable_conv2d_1867 (Separ (None, 16, 16, 16)        25616     
_________________________________________________________________
batch_normalization_1036 (Ba (None, 16, 16, 16)        64        
_________________________________________________________________
activation_2091 (Activation) (None, 16, 16, 16)        0         
_________________________________________________________________
dropout_2091 (Dropout)       (None, 16, 16, 16)        0         
_________________________________________________________________
separable_conv2d_1868 (Separ (None, 16, 16, 64)        1232      
_________________________________________________________________
activation_2092 (Activation) (None, 16, 16, 64)        0         
_________________________________________________________________
dropout_2092 (Dropout)       (None, 16, 16, 64)        0         
_________________________________________________________________
separable_conv2d_1869 (Separ (None, 16, 16, 16)        1616      
_________________________________________________________________
activation_2093 (Activation) (None, 16, 16, 16)        0         
_________________________________________________________________
dropout_2093 (Dropout)       (None, 16, 16, 16)        0         
_________________________________________________________________
flatten_210 (Flatten)        (None, 4096)              0         
_________________________________________________________________
dense_434 (Dense)            (None, 4096)              16781312  
_________________________________________________________________
activation_2094 (Activation) (None, 4096)              0         
_________________________________________________________________
dropout_2094 (Dropout)       (None, 4096)              0         
_________________________________________________________________
dense_435 (Dense)            (None, 100)               409700    
=================================================================
Total params: 18,883,887
Trainable params: 18,877,711
Non-trainable params: 6,176
_________________________________________________________________
