Model: "sequential_84"
_________________________________________________________________
Layer (type)                 Output Shape              Param #   
=================================================================
separable_conv2d_818 (Separa (None, 32, 32, 1024)      4123      
_________________________________________________________________
batch_normalization_459 (Bat (None, 32, 32, 1024)      4096      
_________________________________________________________________
activation_929 (Activation)  (None, 32, 32, 1024)      0         
_________________________________________________________________
dropout_929 (Dropout)        (None, 32, 32, 1024)      0         
_________________________________________________________________
max_pooling2d_184 (MaxPoolin (None, 16, 16, 1024)      0         
_________________________________________________________________
separable_conv2d_819 (Separa (None, 16, 16, 32)        42016     
_________________________________________________________________
activation_930 (Activation)  (None, 16, 16, 32)        0         
_________________________________________________________________
dropout_930 (Dropout)        (None, 16, 16, 32)        0         
_________________________________________________________________
max_pooling2d_185 (MaxPoolin (None, 8, 8, 32)          0         
_________________________________________________________________
separable_conv2d_820 (Separa (None, 8, 8, 512)         17184     
_________________________________________________________________
activation_931 (Activation)  (None, 8, 8, 512)         0         
_________________________________________________________________
dropout_931 (Dropout)        (None, 8, 8, 512)         0         
_________________________________________________________________
separable_conv2d_821 (Separa (None, 8, 8, 1024)        529920    
_________________________________________________________________
batch_normalization_460 (Bat (None, 8, 8, 1024)        4096      
_________________________________________________________________
activation_932 (Activation)  (None, 8, 8, 1024)        0         
_________________________________________________________________
dropout_932 (Dropout)        (None, 8, 8, 1024)        0         
_________________________________________________________________
separable_conv2d_822 (Separa (None, 8, 8, 1024)        1058816   
_________________________________________________________________
batch_normalization_461 (Bat (None, 8, 8, 1024)        4096      
_________________________________________________________________
activation_933 (Activation)  (None, 8, 8, 1024)        0         
_________________________________________________________________
dropout_933 (Dropout)        (None, 8, 8, 1024)        0         
_________________________________________________________________
separable_conv2d_823 (Separa (None, 8, 8, 16)          25616     
_________________________________________________________________
batch_normalization_462 (Bat (None, 8, 8, 16)          64        
_________________________________________________________________
activation_934 (Activation)  (None, 8, 8, 16)          0         
_________________________________________________________________
dropout_934 (Dropout)        (None, 8, 8, 16)          0         
_________________________________________________________________
separable_conv2d_824 (Separa (None, 8, 8, 16)          416       
_________________________________________________________________
batch_normalization_463 (Bat (None, 8, 8, 16)          64        
_________________________________________________________________
activation_935 (Activation)  (None, 8, 8, 16)          0         
_________________________________________________________________
dropout_935 (Dropout)        (None, 8, 8, 16)          0         
_________________________________________________________________
separable_conv2d_825 (Separa (None, 8, 8, 512)         8848      
_________________________________________________________________
activation_936 (Activation)  (None, 8, 8, 512)         0         
_________________________________________________________________
dropout_936 (Dropout)        (None, 8, 8, 512)         0         
_________________________________________________________________
separable_conv2d_826 (Separa (None, 8, 8, 64)          37440     
_________________________________________________________________
activation_937 (Activation)  (None, 8, 8, 64)          0         
_________________________________________________________________
dropout_937 (Dropout)        (None, 8, 8, 64)          0         
_________________________________________________________________
separable_conv2d_827 (Separa (None, 8, 8, 8)           1096      
_________________________________________________________________
activation_938 (Activation)  (None, 8, 8, 8)           0         
_________________________________________________________________
dropout_938 (Dropout)        (None, 8, 8, 8)           0         
_________________________________________________________________
flatten_84 (Flatten)         (None, 512)               0         
_________________________________________________________________
dense_195 (Dense)            (None, 4096)              2101248   
_________________________________________________________________
activation_939 (Activation)  (None, 4096)              0         
_________________________________________________________________
dropout_939 (Dropout)        (None, 4096)              0         
_________________________________________________________________
dense_196 (Dense)            (None, 100)               409700    
=================================================================
Total params: 4,248,839
Trainable params: 4,242,631
Non-trainable params: 6,208
_________________________________________________________________
