Model: "sequential_391"
_________________________________________________________________
Layer (type)                 Output Shape              Param #   
=================================================================
separable_conv2d_3305 (Separ (None, 32, 32, 1024)      4123      
_________________________________________________________________
batch_normalization_1766 (Ba (None, 32, 32, 1024)      4096      
_________________________________________________________________
activation_3576 (Activation) (None, 32, 32, 1024)      0         
_________________________________________________________________
dropout_3576 (Dropout)       (None, 32, 32, 1024)      0         
_________________________________________________________________
separable_conv2d_3306 (Separ (None, 32, 32, 32)        42016     
_________________________________________________________________
activation_3577 (Activation) (None, 32, 32, 32)        0         
_________________________________________________________________
dropout_3577 (Dropout)       (None, 32, 32, 32)        0         
_________________________________________________________________
max_pooling2d_588 (MaxPoolin (None, 16, 16, 32)        0         
_________________________________________________________________
separable_conv2d_3307 (Separ (None, 16, 16, 512)       17184     
_________________________________________________________________
activation_3578 (Activation) (None, 16, 16, 512)       0         
_________________________________________________________________
dropout_3578 (Dropout)       (None, 16, 16, 512)       0         
_________________________________________________________________
separable_conv2d_3308 (Separ (None, 16, 16, 1024)      529920    
_________________________________________________________________
batch_normalization_1767 (Ba (None, 16, 16, 1024)      4096      
_________________________________________________________________
activation_3579 (Activation) (None, 16, 16, 1024)      0         
_________________________________________________________________
dropout_3579 (Dropout)       (None, 16, 16, 1024)      0         
_________________________________________________________________
separable_conv2d_3309 (Separ (None, 16, 16, 1024)      1058816   
_________________________________________________________________
batch_normalization_1768 (Ba (None, 16, 16, 1024)      4096      
_________________________________________________________________
activation_3580 (Activation) (None, 16, 16, 1024)      0         
_________________________________________________________________
dropout_3580 (Dropout)       (None, 16, 16, 1024)      0         
_________________________________________________________________
separable_conv2d_3310 (Separ (None, 16, 16, 16)        25616     
_________________________________________________________________
batch_normalization_1769 (Ba (None, 16, 16, 16)        64        
_________________________________________________________________
activation_3581 (Activation) (None, 16, 16, 16)        0         
_________________________________________________________________
dropout_3581 (Dropout)       (None, 16, 16, 16)        0         
_________________________________________________________________
separable_conv2d_3311 (Separ (None, 16, 16, 64)        1232      
_________________________________________________________________
activation_3582 (Activation) (None, 16, 16, 64)        0         
_________________________________________________________________
dropout_3582 (Dropout)       (None, 16, 16, 64)        0         
_________________________________________________________________
separable_conv2d_3312 (Separ (None, 16, 16, 16)        1616      
_________________________________________________________________
activation_3583 (Activation) (None, 16, 16, 16)        0         
_________________________________________________________________
dropout_3583 (Dropout)       (None, 16, 16, 16)        0         
_________________________________________________________________
flatten_391 (Flatten)        (None, 4096)              0         
_________________________________________________________________
dense_662 (Dense)            (None, 100)               409700    
=================================================================
Total params: 2,102,575
Trainable params: 2,096,399
Non-trainable params: 6,176
_________________________________________________________________
