Model: "sequential_312"
_________________________________________________________________
Layer (type)                 Output Shape              Param #   
=================================================================
separable_conv2d_2677 (Separ (None, 32, 32, 1024)      4123      
_________________________________________________________________
batch_normalization_1437 (Ba (None, 32, 32, 1024)      4096      
_________________________________________________________________
activation_2934 (Activation) (None, 32, 32, 1024)      0         
_________________________________________________________________
dropout_2934 (Dropout)       (None, 32, 32, 1024)      0         
_________________________________________________________________
separable_conv2d_2678 (Separ (None, 32, 32, 32)        42016     
_________________________________________________________________
activation_2935 (Activation) (None, 32, 32, 32)        0         
_________________________________________________________________
dropout_2935 (Dropout)       (None, 32, 32, 32)        0         
_________________________________________________________________
max_pooling2d_502 (MaxPoolin (None, 16, 16, 32)        0         
_________________________________________________________________
separable_conv2d_2679 (Separ (None, 16, 16, 512)       17184     
_________________________________________________________________
activation_2936 (Activation) (None, 16, 16, 512)       0         
_________________________________________________________________
dropout_2936 (Dropout)       (None, 16, 16, 512)       0         
_________________________________________________________________
separable_conv2d_2680 (Separ (None, 16, 16, 1024)      529920    
_________________________________________________________________
batch_normalization_1438 (Ba (None, 16, 16, 1024)      4096      
_________________________________________________________________
activation_2937 (Activation) (None, 16, 16, 1024)      0         
_________________________________________________________________
dropout_2937 (Dropout)       (None, 16, 16, 1024)      0         
_________________________________________________________________
separable_conv2d_2681 (Separ (None, 16, 16, 1024)      1058816   
_________________________________________________________________
batch_normalization_1439 (Ba (None, 16, 16, 1024)      4096      
_________________________________________________________________
activation_2938 (Activation) (None, 16, 16, 1024)      0         
_________________________________________________________________
dropout_2938 (Dropout)       (None, 16, 16, 1024)      0         
_________________________________________________________________
separable_conv2d_2682 (Separ (None, 16, 16, 16)        25616     
_________________________________________________________________
batch_normalization_1440 (Ba (None, 16, 16, 16)        64        
_________________________________________________________________
activation_2939 (Activation) (None, 16, 16, 16)        0         
_________________________________________________________________
dropout_2939 (Dropout)       (None, 16, 16, 16)        0         
_________________________________________________________________
separable_conv2d_2683 (Separ (None, 16, 16, 64)        1232      
_________________________________________________________________
activation_2940 (Activation) (None, 16, 16, 64)        0         
_________________________________________________________________
dropout_2940 (Dropout)       (None, 16, 16, 64)        0         
_________________________________________________________________
separable_conv2d_2684 (Separ (None, 16, 16, 16)        1616      
_________________________________________________________________
activation_2941 (Activation) (None, 16, 16, 16)        0         
_________________________________________________________________
dropout_2941 (Dropout)       (None, 16, 16, 16)        0         
_________________________________________________________________
flatten_312 (Flatten)        (None, 4096)              0         
_________________________________________________________________
dense_569 (Dense)            (None, 4096)              16781312  
_________________________________________________________________
activation_2942 (Activation) (None, 4096)              0         
_________________________________________________________________
dropout_2942 (Dropout)       (None, 4096)              0         
_________________________________________________________________
dense_570 (Dense)            (None, 100)               409700    
=================================================================
Total params: 18,883,887
Trainable params: 18,877,711
Non-trainable params: 6,176
_________________________________________________________________
