Model: "sequential_292"
_________________________________________________________________
Layer (type)                 Output Shape              Param #   
=================================================================
separable_conv2d_2516 (Separ (None, 32, 32, 1024)      4123      
_________________________________________________________________
batch_normalization_1360 (Ba (None, 32, 32, 1024)      4096      
_________________________________________________________________
activation_2769 (Activation) (None, 32, 32, 1024)      0         
_________________________________________________________________
dropout_2769 (Dropout)       (None, 32, 32, 1024)      0         
_________________________________________________________________
separable_conv2d_2517 (Separ (None, 32, 32, 32)        42016     
_________________________________________________________________
activation_2770 (Activation) (None, 32, 32, 32)        0         
_________________________________________________________________
dropout_2770 (Dropout)       (None, 32, 32, 32)        0         
_________________________________________________________________
max_pooling2d_478 (MaxPoolin (None, 16, 16, 32)        0         
_________________________________________________________________
separable_conv2d_2518 (Separ (None, 16, 16, 512)       17184     
_________________________________________________________________
activation_2771 (Activation) (None, 16, 16, 512)       0         
_________________________________________________________________
dropout_2771 (Dropout)       (None, 16, 16, 512)       0         
_________________________________________________________________
separable_conv2d_2519 (Separ (None, 16, 16, 1024)      529920    
_________________________________________________________________
batch_normalization_1361 (Ba (None, 16, 16, 1024)      4096      
_________________________________________________________________
activation_2772 (Activation) (None, 16, 16, 1024)      0         
_________________________________________________________________
dropout_2772 (Dropout)       (None, 16, 16, 1024)      0         
_________________________________________________________________
separable_conv2d_2520 (Separ (None, 16, 16, 1024)      1058816   
_________________________________________________________________
batch_normalization_1362 (Ba (None, 16, 16, 1024)      4096      
_________________________________________________________________
activation_2773 (Activation) (None, 16, 16, 1024)      0         
_________________________________________________________________
dropout_2773 (Dropout)       (None, 16, 16, 1024)      0         
_________________________________________________________________
separable_conv2d_2521 (Separ (None, 16, 16, 16)        25616     
_________________________________________________________________
batch_normalization_1363 (Ba (None, 16, 16, 16)        64        
_________________________________________________________________
activation_2774 (Activation) (None, 16, 16, 16)        0         
_________________________________________________________________
dropout_2774 (Dropout)       (None, 16, 16, 16)        0         
_________________________________________________________________
separable_conv2d_2522 (Separ (None, 16, 16, 64)        1232      
_________________________________________________________________
activation_2775 (Activation) (None, 16, 16, 64)        0         
_________________________________________________________________
dropout_2775 (Dropout)       (None, 16, 16, 64)        0         
_________________________________________________________________
separable_conv2d_2523 (Separ (None, 16, 16, 16)        1616      
_________________________________________________________________
activation_2776 (Activation) (None, 16, 16, 16)        0         
_________________________________________________________________
dropout_2776 (Dropout)       (None, 16, 16, 16)        0         
_________________________________________________________________
flatten_292 (Flatten)        (None, 4096)              0         
_________________________________________________________________
dense_545 (Dense)            (None, 100)               409700    
=================================================================
Total params: 2,102,575
Trainable params: 2,096,399
Non-trainable params: 6,176
_________________________________________________________________
