Model: "sequential_298"
_________________________________________________________________
Layer (type)                 Output Shape              Param #   
=================================================================
separable_conv2d_2564 (Separ (None, 32, 32, 128)       539       
_________________________________________________________________
batch_normalization_1383 (Ba (None, 32, 32, 128)       512       
_________________________________________________________________
activation_2820 (Activation) (None, 32, 32, 128)       0         
_________________________________________________________________
dropout_2820 (Dropout)       (None, 32, 32, 128)       0         
_________________________________________________________________
separable_conv2d_2565 (Separ (None, 32, 32, 32)        5280      
_________________________________________________________________
activation_2821 (Activation) (None, 32, 32, 32)        0         
_________________________________________________________________
dropout_2821 (Dropout)       (None, 32, 32, 32)        0         
_________________________________________________________________
max_pooling2d_485 (MaxPoolin (None, 16, 16, 32)        0         
_________________________________________________________________
separable_conv2d_2566 (Separ (None, 16, 16, 512)       17184     
_________________________________________________________________
activation_2822 (Activation) (None, 16, 16, 512)       0         
_________________________________________________________________
dropout_2822 (Dropout)       (None, 16, 16, 512)       0         
_________________________________________________________________
separable_conv2d_2567 (Separ (None, 16, 16, 1024)      529920    
_________________________________________________________________
batch_normalization_1384 (Ba (None, 16, 16, 1024)      4096      
_________________________________________________________________
activation_2823 (Activation) (None, 16, 16, 1024)      0         
_________________________________________________________________
dropout_2823 (Dropout)       (None, 16, 16, 1024)      0         
_________________________________________________________________
separable_conv2d_2568 (Separ (None, 16, 16, 1024)      1058816   
_________________________________________________________________
batch_normalization_1385 (Ba (None, 16, 16, 1024)      4096      
_________________________________________________________________
activation_2824 (Activation) (None, 16, 16, 1024)      0         
_________________________________________________________________
dropout_2824 (Dropout)       (None, 16, 16, 1024)      0         
_________________________________________________________________
separable_conv2d_2569 (Separ (None, 16, 16, 16)        25616     
_________________________________________________________________
batch_normalization_1386 (Ba (None, 16, 16, 16)        64        
_________________________________________________________________
activation_2825 (Activation) (None, 16, 16, 16)        0         
_________________________________________________________________
dropout_2825 (Dropout)       (None, 16, 16, 16)        0         
_________________________________________________________________
separable_conv2d_2570 (Separ (None, 16, 16, 64)        1232      
_________________________________________________________________
activation_2826 (Activation) (None, 16, 16, 64)        0         
_________________________________________________________________
dropout_2826 (Dropout)       (None, 16, 16, 64)        0         
_________________________________________________________________
separable_conv2d_2571 (Separ (None, 16, 16, 16)        1616      
_________________________________________________________________
activation_2827 (Activation) (None, 16, 16, 16)        0         
_________________________________________________________________
dropout_2827 (Dropout)       (None, 16, 16, 16)        0         
_________________________________________________________________
flatten_298 (Flatten)        (None, 4096)              0         
_________________________________________________________________
dense_554 (Dense)            (None, 4096)              16781312  
_________________________________________________________________
activation_2828 (Activation) (None, 4096)              0         
_________________________________________________________________
dropout_2828 (Dropout)       (None, 4096)              0         
_________________________________________________________________
dense_555 (Dense)            (None, 100)               409700    
=================================================================
Total params: 18,839,983
Trainable params: 18,835,599
Non-trainable params: 4,384
_________________________________________________________________
