Model: "sequential_382"
_________________________________________________________________
Layer (type)                 Output Shape              Param #   
=================================================================
separable_conv2d_3234 (Separ (None, 32, 32, 1024)      4123      
_________________________________________________________________
batch_normalization_1727 (Ba (None, 32, 32, 1024)      4096      
_________________________________________________________________
activation_3504 (Activation) (None, 32, 32, 1024)      0         
_________________________________________________________________
dropout_3504 (Dropout)       (None, 32, 32, 1024)      0         
_________________________________________________________________
separable_conv2d_3235 (Separ (None, 32, 32, 32)        42016     
_________________________________________________________________
activation_3505 (Activation) (None, 32, 32, 32)        0         
_________________________________________________________________
dropout_3505 (Dropout)       (None, 32, 32, 32)        0         
_________________________________________________________________
max_pooling2d_579 (MaxPoolin (None, 16, 16, 32)        0         
_________________________________________________________________
separable_conv2d_3236 (Separ (None, 16, 16, 512)       17184     
_________________________________________________________________
activation_3506 (Activation) (None, 16, 16, 512)       0         
_________________________________________________________________
dropout_3506 (Dropout)       (None, 16, 16, 512)       0         
_________________________________________________________________
separable_conv2d_3237 (Separ (None, 16, 16, 1024)      529920    
_________________________________________________________________
batch_normalization_1728 (Ba (None, 16, 16, 1024)      4096      
_________________________________________________________________
activation_3507 (Activation) (None, 16, 16, 1024)      0         
_________________________________________________________________
dropout_3507 (Dropout)       (None, 16, 16, 1024)      0         
_________________________________________________________________
separable_conv2d_3238 (Separ (None, 16, 16, 1024)      1058816   
_________________________________________________________________
batch_normalization_1729 (Ba (None, 16, 16, 1024)      4096      
_________________________________________________________________
activation_3508 (Activation) (None, 16, 16, 1024)      0         
_________________________________________________________________
dropout_3508 (Dropout)       (None, 16, 16, 1024)      0         
_________________________________________________________________
separable_conv2d_3239 (Separ (None, 16, 16, 16)        25616     
_________________________________________________________________
batch_normalization_1730 (Ba (None, 16, 16, 16)        64        
_________________________________________________________________
activation_3509 (Activation) (None, 16, 16, 16)        0         
_________________________________________________________________
dropout_3509 (Dropout)       (None, 16, 16, 16)        0         
_________________________________________________________________
separable_conv2d_3240 (Separ (None, 16, 16, 64)        1232      
_________________________________________________________________
activation_3510 (Activation) (None, 16, 16, 64)        0         
_________________________________________________________________
dropout_3510 (Dropout)       (None, 16, 16, 64)        0         
_________________________________________________________________
separable_conv2d_3241 (Separ (None, 16, 16, 16)        1616      
_________________________________________________________________
activation_3511 (Activation) (None, 16, 16, 16)        0         
_________________________________________________________________
dropout_3511 (Dropout)       (None, 16, 16, 16)        0         
_________________________________________________________________
flatten_382 (Flatten)        (None, 4096)              0         
_________________________________________________________________
dense_652 (Dense)            (None, 100)               409700    
=================================================================
Total params: 2,102,575
Trainable params: 2,096,399
Non-trainable params: 6,176
_________________________________________________________________
