Model: "sequential_183"
_________________________________________________________________
Layer (type)                 Output Shape              Param #   
=================================================================
separable_conv2d_1650 (Separ (None, 32, 32, 1024)      4123      
_________________________________________________________________
batch_normalization_924 (Bat (None, 32, 32, 1024)      4096      
_________________________________________________________________
activation_1854 (Activation) (None, 32, 32, 1024)      0         
_________________________________________________________________
dropout_1854 (Dropout)       (None, 32, 32, 1024)      0         
_________________________________________________________________
separable_conv2d_1651 (Separ (None, 32, 32, 32)        42016     
_________________________________________________________________
activation_1855 (Activation) (None, 32, 32, 32)        0         
_________________________________________________________________
dropout_1855 (Dropout)       (None, 32, 32, 32)        0         
_________________________________________________________________
max_pooling2d_363 (MaxPoolin (None, 16, 16, 32)        0         
_________________________________________________________________
separable_conv2d_1652 (Separ (None, 16, 16, 512)       17184     
_________________________________________________________________
activation_1856 (Activation) (None, 16, 16, 512)       0         
_________________________________________________________________
dropout_1856 (Dropout)       (None, 16, 16, 512)       0         
_________________________________________________________________
separable_conv2d_1653 (Separ (None, 16, 16, 1024)      529920    
_________________________________________________________________
batch_normalization_925 (Bat (None, 16, 16, 1024)      4096      
_________________________________________________________________
activation_1857 (Activation) (None, 16, 16, 1024)      0         
_________________________________________________________________
dropout_1857 (Dropout)       (None, 16, 16, 1024)      0         
_________________________________________________________________
separable_conv2d_1654 (Separ (None, 16, 16, 1024)      1058816   
_________________________________________________________________
batch_normalization_926 (Bat (None, 16, 16, 1024)      4096      
_________________________________________________________________
activation_1858 (Activation) (None, 16, 16, 1024)      0         
_________________________________________________________________
dropout_1858 (Dropout)       (None, 16, 16, 1024)      0         
_________________________________________________________________
separable_conv2d_1655 (Separ (None, 16, 16, 16)        25616     
_________________________________________________________________
batch_normalization_927 (Bat (None, 16, 16, 16)        64        
_________________________________________________________________
activation_1859 (Activation) (None, 16, 16, 16)        0         
_________________________________________________________________
dropout_1859 (Dropout)       (None, 16, 16, 16)        0         
_________________________________________________________________
separable_conv2d_1656 (Separ (None, 16, 16, 64)        1232      
_________________________________________________________________
activation_1860 (Activation) (None, 16, 16, 64)        0         
_________________________________________________________________
dropout_1860 (Dropout)       (None, 16, 16, 64)        0         
_________________________________________________________________
separable_conv2d_1657 (Separ (None, 16, 16, 8)         1096      
_________________________________________________________________
activation_1861 (Activation) (None, 16, 16, 8)         0         
_________________________________________________________________
dropout_1861 (Dropout)       (None, 16, 16, 8)         0         
_________________________________________________________________
flatten_183 (Flatten)        (None, 2048)              0         
_________________________________________________________________
dense_387 (Dense)            (None, 4096)              8392704   
_________________________________________________________________
activation_1862 (Activation) (None, 4096)              0         
_________________________________________________________________
dropout_1862 (Dropout)       (None, 4096)              0         
_________________________________________________________________
dense_388 (Dense)            (None, 100)               409700    
=================================================================
Total params: 10,494,759
Trainable params: 10,488,583
Non-trainable params: 6,176
_________________________________________________________________
