Model: "sequential_113"
_________________________________________________________________
Layer (type)                 Output Shape              Param #   
=================================================================
separable_conv2d_1074 (Separ (None, 32, 32, 1024)      4123      
_________________________________________________________________
batch_normalization_603 (Bat (None, 32, 32, 1024)      4096      
_________________________________________________________________
activation_1214 (Activation) (None, 32, 32, 1024)      0         
_________________________________________________________________
dropout_1214 (Dropout)       (None, 32, 32, 1024)      0         
_________________________________________________________________
max_pooling2d_243 (MaxPoolin (None, 16, 16, 1024)      0         
_________________________________________________________________
separable_conv2d_1075 (Separ (None, 16, 16, 32)        42016     
_________________________________________________________________
activation_1215 (Activation) (None, 16, 16, 32)        0         
_________________________________________________________________
dropout_1215 (Dropout)       (None, 16, 16, 32)        0         
_________________________________________________________________
max_pooling2d_244 (MaxPoolin (None, 8, 8, 32)          0         
_________________________________________________________________
separable_conv2d_1076 (Separ (None, 8, 8, 512)         17184     
_________________________________________________________________
activation_1216 (Activation) (None, 8, 8, 512)         0         
_________________________________________________________________
dropout_1216 (Dropout)       (None, 8, 8, 512)         0         
_________________________________________________________________
separable_conv2d_1077 (Separ (None, 8, 8, 1024)        529920    
_________________________________________________________________
batch_normalization_604 (Bat (None, 8, 8, 1024)        4096      
_________________________________________________________________
activation_1217 (Activation) (None, 8, 8, 1024)        0         
_________________________________________________________________
dropout_1217 (Dropout)       (None, 8, 8, 1024)        0         
_________________________________________________________________
separable_conv2d_1078 (Separ (None, 8, 8, 1024)        1058816   
_________________________________________________________________
batch_normalization_605 (Bat (None, 8, 8, 1024)        4096      
_________________________________________________________________
activation_1218 (Activation) (None, 8, 8, 1024)        0         
_________________________________________________________________
dropout_1218 (Dropout)       (None, 8, 8, 1024)        0         
_________________________________________________________________
separable_conv2d_1079 (Separ (None, 8, 8, 16)          25616     
_________________________________________________________________
batch_normalization_606 (Bat (None, 8, 8, 16)          64        
_________________________________________________________________
activation_1219 (Activation) (None, 8, 8, 16)          0         
_________________________________________________________________
dropout_1219 (Dropout)       (None, 8, 8, 16)          0         
_________________________________________________________________
separable_conv2d_1080 (Separ (None, 8, 8, 16)          416       
_________________________________________________________________
batch_normalization_607 (Bat (None, 8, 8, 16)          64        
_________________________________________________________________
activation_1220 (Activation) (None, 8, 8, 16)          0         
_________________________________________________________________
dropout_1220 (Dropout)       (None, 8, 8, 16)          0         
_________________________________________________________________
separable_conv2d_1081 (Separ (None, 8, 8, 8)           280       
_________________________________________________________________
activation_1221 (Activation) (None, 8, 8, 8)           0         
_________________________________________________________________
dropout_1221 (Dropout)       (None, 8, 8, 8)           0         
_________________________________________________________________
flatten_113 (Flatten)        (None, 512)               0         
_________________________________________________________________
dense_253 (Dense)            (None, 4096)              2101248   
_________________________________________________________________
activation_1222 (Activation) (None, 4096)              0         
_________________________________________________________________
dropout_1222 (Dropout)       (None, 4096)              0         
_________________________________________________________________
dense_254 (Dense)            (None, 100)               409700    
=================================================================
Total params: 4,201,735
Trainable params: 4,195,527
Non-trainable params: 6,208
_________________________________________________________________
