Model: "sequential_241"
_________________________________________________________________
Layer (type)                 Output Shape              Param #   
=================================================================
separable_conv2d_2109 (Separ (None, 32, 32, 1024)      4123      
_________________________________________________________________
batch_normalization_1162 (Ba (None, 32, 32, 1024)      4096      
_________________________________________________________________
activation_2349 (Activation) (None, 32, 32, 1024)      0         
_________________________________________________________________
dropout_2349 (Dropout)       (None, 32, 32, 1024)      0         
_________________________________________________________________
separable_conv2d_2110 (Separ (None, 32, 32, 32)        42016     
_________________________________________________________________
activation_2350 (Activation) (None, 32, 32, 32)        0         
_________________________________________________________________
dropout_2350 (Dropout)       (None, 32, 32, 32)        0         
_________________________________________________________________
max_pooling2d_426 (MaxPoolin (None, 16, 16, 32)        0         
_________________________________________________________________
separable_conv2d_2111 (Separ (None, 16, 16, 512)       17184     
_________________________________________________________________
activation_2351 (Activation) (None, 16, 16, 512)       0         
_________________________________________________________________
dropout_2351 (Dropout)       (None, 16, 16, 512)       0         
_________________________________________________________________
separable_conv2d_2112 (Separ (None, 16, 16, 1024)      529920    
_________________________________________________________________
batch_normalization_1163 (Ba (None, 16, 16, 1024)      4096      
_________________________________________________________________
activation_2352 (Activation) (None, 16, 16, 1024)      0         
_________________________________________________________________
dropout_2352 (Dropout)       (None, 16, 16, 1024)      0         
_________________________________________________________________
separable_conv2d_2113 (Separ (None, 16, 16, 1024)      1058816   
_________________________________________________________________
batch_normalization_1164 (Ba (None, 16, 16, 1024)      4096      
_________________________________________________________________
activation_2353 (Activation) (None, 16, 16, 1024)      0         
_________________________________________________________________
dropout_2353 (Dropout)       (None, 16, 16, 1024)      0         
_________________________________________________________________
separable_conv2d_2114 (Separ (None, 16, 16, 16)        25616     
_________________________________________________________________
batch_normalization_1165 (Ba (None, 16, 16, 16)        64        
_________________________________________________________________
activation_2354 (Activation) (None, 16, 16, 16)        0         
_________________________________________________________________
dropout_2354 (Dropout)       (None, 16, 16, 16)        0         
_________________________________________________________________
separable_conv2d_2115 (Separ (None, 16, 16, 64)        1232      
_________________________________________________________________
activation_2355 (Activation) (None, 16, 16, 64)        0         
_________________________________________________________________
dropout_2355 (Dropout)       (None, 16, 16, 64)        0         
_________________________________________________________________
separable_conv2d_2116 (Separ (None, 16, 16, 16)        1616      
_________________________________________________________________
activation_2356 (Activation) (None, 16, 16, 16)        0         
_________________________________________________________________
dropout_2356 (Dropout)       (None, 16, 16, 16)        0         
_________________________________________________________________
flatten_241 (Flatten)        (None, 4096)              0         
_________________________________________________________________
dense_481 (Dense)            (None, 4096)              16781312  
_________________________________________________________________
activation_2357 (Activation) (None, 4096)              0         
_________________________________________________________________
dropout_2357 (Dropout)       (None, 4096)              0         
_________________________________________________________________
dense_482 (Dense)            (None, 100)               409700    
=================================================================
Total params: 18,883,887
Trainable params: 18,877,711
Non-trainable params: 6,176
_________________________________________________________________
