Model: "sequential_26"
_________________________________________________________________
Layer (type)                 Output Shape              Param #   
=================================================================
separable_conv2d_257 (Separa (None, 32, 32, 1024)      4123      
_________________________________________________________________
batch_normalization_142 (Bat (None, 32, 32, 1024)      4096      
_________________________________________________________________
activation_292 (Activation)  (None, 32, 32, 1024)      0         
_________________________________________________________________
dropout_292 (Dropout)        (None, 32, 32, 1024)      0         
_________________________________________________________________
max_pooling2d_56 (MaxPooling (None, 16, 16, 1024)      0         
_________________________________________________________________
separable_conv2d_258 (Separa (None, 16, 16, 32)        42016     
_________________________________________________________________
activation_293 (Activation)  (None, 16, 16, 32)        0         
_________________________________________________________________
dropout_293 (Dropout)        (None, 16, 16, 32)        0         
_________________________________________________________________
max_pooling2d_57 (MaxPooling (None, 8, 8, 32)          0         
_________________________________________________________________
separable_conv2d_259 (Separa (None, 8, 8, 512)         17184     
_________________________________________________________________
activation_294 (Activation)  (None, 8, 8, 512)         0         
_________________________________________________________________
dropout_294 (Dropout)        (None, 8, 8, 512)         0         
_________________________________________________________________
separable_conv2d_260 (Separa (None, 8, 8, 1024)        529920    
_________________________________________________________________
batch_normalization_143 (Bat (None, 8, 8, 1024)        4096      
_________________________________________________________________
activation_295 (Activation)  (None, 8, 8, 1024)        0         
_________________________________________________________________
dropout_295 (Dropout)        (None, 8, 8, 1024)        0         
_________________________________________________________________
separable_conv2d_261 (Separa (None, 8, 8, 1024)        1058816   
_________________________________________________________________
batch_normalization_144 (Bat (None, 8, 8, 1024)        4096      
_________________________________________________________________
activation_296 (Activation)  (None, 8, 8, 1024)        0         
_________________________________________________________________
dropout_296 (Dropout)        (None, 8, 8, 1024)        0         
_________________________________________________________________
separable_conv2d_262 (Separa (None, 8, 8, 16)          25616     
_________________________________________________________________
activation_297 (Activation)  (None, 8, 8, 16)          0         
_________________________________________________________________
dropout_297 (Dropout)        (None, 8, 8, 16)          0         
_________________________________________________________________
separable_conv2d_263 (Separa (None, 8, 8, 16)          416       
_________________________________________________________________
batch_normalization_145 (Bat (None, 8, 8, 16)          64        
_________________________________________________________________
activation_298 (Activation)  (None, 8, 8, 16)          0         
_________________________________________________________________
dropout_298 (Dropout)        (None, 8, 8, 16)          0         
_________________________________________________________________
max_pooling2d_58 (MaxPooling (None, 4, 4, 16)          0         
_________________________________________________________________
separable_conv2d_264 (Separa (None, 4, 4, 128)         2320      
_________________________________________________________________
batch_normalization_146 (Bat (None, 4, 4, 128)         512       
_________________________________________________________________
activation_299 (Activation)  (None, 4, 4, 128)         0         
_________________________________________________________________
dropout_299 (Dropout)        (None, 4, 4, 128)         0         
_________________________________________________________________
separable_conv2d_265 (Separa (None, 4, 4, 8)           2184      
_________________________________________________________________
activation_300 (Activation)  (None, 4, 4, 8)           0         
_________________________________________________________________
dropout_300 (Dropout)        (None, 4, 4, 8)           0         
_________________________________________________________________
separable_conv2d_266 (Separa (None, 4, 4, 256)         2376      
_________________________________________________________________
batch_normalization_147 (Bat (None, 4, 4, 256)         1024      
_________________________________________________________________
activation_301 (Activation)  (None, 4, 4, 256)         0         
_________________________________________________________________
dropout_301 (Dropout)        (None, 4, 4, 256)         0         
_________________________________________________________________
separable_conv2d_267 (Separa (None, 4, 4, 512)         133888    
_________________________________________________________________
activation_302 (Activation)  (None, 4, 4, 512)         0         
_________________________________________________________________
dropout_302 (Dropout)        (None, 4, 4, 512)         0         
_________________________________________________________________
flatten_26 (Flatten)         (None, 8192)              0         
_________________________________________________________________
dense_61 (Dense)             (None, 16)                131088    
_________________________________________________________________
activation_303 (Activation)  (None, 16)                0         
_________________________________________________________________
dropout_303 (Dropout)        (None, 16)                0         
_________________________________________________________________
dense_62 (Dense)             (None, 128)               2176      
_________________________________________________________________
batch_normalization_148 (Bat (None, 128)               512       
_________________________________________________________________
activation_304 (Activation)  (None, 128)               0         
_________________________________________________________________
dropout_304 (Dropout)        (None, 128)               0         
_________________________________________________________________
dense_63 (Dense)             (None, 32)                4128      
_________________________________________________________________
activation_305 (Activation)  (None, 32)                0         
_________________________________________________________________
dropout_305 (Dropout)        (None, 32)                0         
_________________________________________________________________
dense_64 (Dense)             (None, 100)               3300      
=================================================================
Total params: 1,973,951
Trainable params: 1,966,751
Non-trainable params: 7,200
_________________________________________________________________
