Model: "sequential_390"
_________________________________________________________________
Layer (type)                 Output Shape              Param #   
=================================================================
separable_conv2d_3297 (Separ (None, 32, 32, 1024)      4123      
_________________________________________________________________
batch_normalization_1761 (Ba (None, 32, 32, 1024)      4096      
_________________________________________________________________
activation_3568 (Activation) (None, 32, 32, 1024)      0         
_________________________________________________________________
dropout_3568 (Dropout)       (None, 32, 32, 1024)      0         
_________________________________________________________________
separable_conv2d_3298 (Separ (None, 32, 32, 32)        42016     
_________________________________________________________________
batch_normalization_1762 (Ba (None, 32, 32, 32)        128       
_________________________________________________________________
activation_3569 (Activation) (None, 32, 32, 32)        0         
_________________________________________________________________
dropout_3569 (Dropout)       (None, 32, 32, 32)        0         
_________________________________________________________________
max_pooling2d_587 (MaxPoolin (None, 16, 16, 32)        0         
_________________________________________________________________
separable_conv2d_3299 (Separ (None, 16, 16, 512)       17184     
_________________________________________________________________
activation_3570 (Activation) (None, 16, 16, 512)       0         
_________________________________________________________________
dropout_3570 (Dropout)       (None, 16, 16, 512)       0         
_________________________________________________________________
separable_conv2d_3300 (Separ (None, 16, 16, 1024)      529920    
_________________________________________________________________
batch_normalization_1763 (Ba (None, 16, 16, 1024)      4096      
_________________________________________________________________
activation_3571 (Activation) (None, 16, 16, 1024)      0         
_________________________________________________________________
dropout_3571 (Dropout)       (None, 16, 16, 1024)      0         
_________________________________________________________________
separable_conv2d_3301 (Separ (None, 16, 16, 1024)      1058816   
_________________________________________________________________
batch_normalization_1764 (Ba (None, 16, 16, 1024)      4096      
_________________________________________________________________
activation_3572 (Activation) (None, 16, 16, 1024)      0         
_________________________________________________________________
dropout_3572 (Dropout)       (None, 16, 16, 1024)      0         
_________________________________________________________________
separable_conv2d_3302 (Separ (None, 16, 16, 16)        25616     
_________________________________________________________________
batch_normalization_1765 (Ba (None, 16, 16, 16)        64        
_________________________________________________________________
activation_3573 (Activation) (None, 16, 16, 16)        0         
_________________________________________________________________
dropout_3573 (Dropout)       (None, 16, 16, 16)        0         
_________________________________________________________________
separable_conv2d_3303 (Separ (None, 16, 16, 64)        1232      
_________________________________________________________________
activation_3574 (Activation) (None, 16, 16, 64)        0         
_________________________________________________________________
dropout_3574 (Dropout)       (None, 16, 16, 64)        0         
_________________________________________________________________
separable_conv2d_3304 (Separ (None, 16, 16, 16)        1616      
_________________________________________________________________
activation_3575 (Activation) (None, 16, 16, 16)        0         
_________________________________________________________________
dropout_3575 (Dropout)       (None, 16, 16, 16)        0         
_________________________________________________________________
flatten_390 (Flatten)        (None, 4096)              0         
_________________________________________________________________
dense_661 (Dense)            (None, 100)               409700    
=================================================================
Total params: 2,102,703
Trainable params: 2,096,463
Non-trainable params: 6,240
_________________________________________________________________
