Model: "sequential_314"
_________________________________________________________________
Layer (type)                 Output Shape              Param #   
=================================================================
separable_conv2d_2693 (Separ (None, 32, 32, 1024)      4123      
_________________________________________________________________
batch_normalization_1445 (Ba (None, 32, 32, 1024)      4096      
_________________________________________________________________
activation_2952 (Activation) (None, 32, 32, 1024)      0         
_________________________________________________________________
dropout_2952 (Dropout)       (None, 32, 32, 1024)      0         
_________________________________________________________________
separable_conv2d_2694 (Separ (None, 32, 32, 32)        42016     
_________________________________________________________________
activation_2953 (Activation) (None, 32, 32, 32)        0         
_________________________________________________________________
dropout_2953 (Dropout)       (None, 32, 32, 32)        0         
_________________________________________________________________
max_pooling2d_504 (MaxPoolin (None, 16, 16, 32)        0         
_________________________________________________________________
separable_conv2d_2695 (Separ (None, 16, 16, 512)       17184     
_________________________________________________________________
activation_2954 (Activation) (None, 16, 16, 512)       0         
_________________________________________________________________
dropout_2954 (Dropout)       (None, 16, 16, 512)       0         
_________________________________________________________________
separable_conv2d_2696 (Separ (None, 16, 16, 1024)      529920    
_________________________________________________________________
batch_normalization_1446 (Ba (None, 16, 16, 1024)      4096      
_________________________________________________________________
activation_2955 (Activation) (None, 16, 16, 1024)      0         
_________________________________________________________________
dropout_2955 (Dropout)       (None, 16, 16, 1024)      0         
_________________________________________________________________
separable_conv2d_2697 (Separ (None, 16, 16, 1024)      1058816   
_________________________________________________________________
batch_normalization_1447 (Ba (None, 16, 16, 1024)      4096      
_________________________________________________________________
activation_2956 (Activation) (None, 16, 16, 1024)      0         
_________________________________________________________________
dropout_2956 (Dropout)       (None, 16, 16, 1024)      0         
_________________________________________________________________
separable_conv2d_2698 (Separ (None, 16, 16, 16)        25616     
_________________________________________________________________
batch_normalization_1448 (Ba (None, 16, 16, 16)        64        
_________________________________________________________________
activation_2957 (Activation) (None, 16, 16, 16)        0         
_________________________________________________________________
dropout_2957 (Dropout)       (None, 16, 16, 16)        0         
_________________________________________________________________
separable_conv2d_2699 (Separ (None, 16, 16, 64)        1232      
_________________________________________________________________
activation_2958 (Activation) (None, 16, 16, 64)        0         
_________________________________________________________________
dropout_2958 (Dropout)       (None, 16, 16, 64)        0         
_________________________________________________________________
separable_conv2d_2700 (Separ (None, 16, 16, 16)        1616      
_________________________________________________________________
activation_2959 (Activation) (None, 16, 16, 16)        0         
_________________________________________________________________
dropout_2959 (Dropout)       (None, 16, 16, 16)        0         
_________________________________________________________________
flatten_314 (Flatten)        (None, 4096)              0         
_________________________________________________________________
dense_573 (Dense)            (None, 100)               409700    
=================================================================
Total params: 2,102,575
Trainable params: 2,096,399
Non-trainable params: 6,176
_________________________________________________________________
