Model: "sequential_36"
_________________________________________________________________
Layer (type)                 Output Shape              Param #   
=================================================================
separable_conv2d_353 (Separa (None, 32, 32, 1024)      4123      
_________________________________________________________________
batch_normalization_193 (Bat (None, 32, 32, 1024)      4096      
_________________________________________________________________
activation_403 (Activation)  (None, 32, 32, 1024)      0         
_________________________________________________________________
dropout_403 (Dropout)        (None, 32, 32, 1024)      0         
_________________________________________________________________
max_pooling2d_82 (MaxPooling (None, 16, 16, 1024)      0         
_________________________________________________________________
separable_conv2d_354 (Separa (None, 16, 16, 32)        42016     
_________________________________________________________________
activation_404 (Activation)  (None, 16, 16, 32)        0         
_________________________________________________________________
dropout_404 (Dropout)        (None, 16, 16, 32)        0         
_________________________________________________________________
max_pooling2d_83 (MaxPooling (None, 8, 8, 32)          0         
_________________________________________________________________
separable_conv2d_355 (Separa (None, 8, 8, 512)         17184     
_________________________________________________________________
activation_405 (Activation)  (None, 8, 8, 512)         0         
_________________________________________________________________
dropout_405 (Dropout)        (None, 8, 8, 512)         0         
_________________________________________________________________
separable_conv2d_356 (Separa (None, 8, 8, 1024)        529920    
_________________________________________________________________
batch_normalization_194 (Bat (None, 8, 8, 1024)        4096      
_________________________________________________________________
activation_406 (Activation)  (None, 8, 8, 1024)        0         
_________________________________________________________________
dropout_406 (Dropout)        (None, 8, 8, 1024)        0         
_________________________________________________________________
separable_conv2d_357 (Separa (None, 8, 8, 1024)        1058816   
_________________________________________________________________
batch_normalization_195 (Bat (None, 8, 8, 1024)        4096      
_________________________________________________________________
activation_407 (Activation)  (None, 8, 8, 1024)        0         
_________________________________________________________________
dropout_407 (Dropout)        (None, 8, 8, 1024)        0         
_________________________________________________________________
separable_conv2d_358 (Separa (None, 8, 8, 16)          25616     
_________________________________________________________________
batch_normalization_196 (Bat (None, 8, 8, 16)          64        
_________________________________________________________________
activation_408 (Activation)  (None, 8, 8, 16)          0         
_________________________________________________________________
dropout_408 (Dropout)        (None, 8, 8, 16)          0         
_________________________________________________________________
separable_conv2d_359 (Separa (None, 8, 8, 16)          416       
_________________________________________________________________
batch_normalization_197 (Bat (None, 8, 8, 16)          64        
_________________________________________________________________
activation_409 (Activation)  (None, 8, 8, 16)          0         
_________________________________________________________________
dropout_409 (Dropout)        (None, 8, 8, 16)          0         
_________________________________________________________________
separable_conv2d_360 (Separa (None, 8, 8, 256)         4496      
_________________________________________________________________
batch_normalization_198 (Bat (None, 8, 8, 256)         1024      
_________________________________________________________________
activation_410 (Activation)  (None, 8, 8, 256)         0         
_________________________________________________________________
dropout_410 (Dropout)        (None, 8, 8, 256)         0         
_________________________________________________________________
separable_conv2d_361 (Separa (None, 8, 8, 512)         133888    
_________________________________________________________________
batch_normalization_199 (Bat (None, 8, 8, 512)         2048      
_________________________________________________________________
activation_411 (Activation)  (None, 8, 8, 512)         0         
_________________________________________________________________
dropout_411 (Dropout)        (None, 8, 8, 512)         0         
_________________________________________________________________
flatten_36 (Flatten)         (None, 32768)             0         
_________________________________________________________________
dense_86 (Dense)             (None, 64)                2097216   
_________________________________________________________________
activation_412 (Activation)  (None, 64)                0         
_________________________________________________________________
dropout_412 (Dropout)        (None, 64)                0         
_________________________________________________________________
dense_87 (Dense)             (None, 1024)              66560     
_________________________________________________________________
activation_413 (Activation)  (None, 1024)              0         
_________________________________________________________________
dropout_413 (Dropout)        (None, 1024)              0         
_________________________________________________________________
dense_88 (Dense)             (None, 100)               102500    
=================================================================
Total params: 4,098,239
Trainable params: 4,090,495
Non-trainable params: 7,744
_________________________________________________________________
