Model: "sequential_93"
_________________________________________________________________
Layer (type)                 Output Shape              Param #   
=================================================================
separable_conv2d_897 (Separa (None, 32, 32, 1024)      4123      
_________________________________________________________________
batch_normalization_506 (Bat (None, 32, 32, 1024)      4096      
_________________________________________________________________
activation_1017 (Activation) (None, 32, 32, 1024)      0         
_________________________________________________________________
dropout_1017 (Dropout)       (None, 32, 32, 1024)      0         
_________________________________________________________________
max_pooling2d_203 (MaxPoolin (None, 16, 16, 1024)      0         
_________________________________________________________________
separable_conv2d_898 (Separa (None, 16, 16, 32)        42016     
_________________________________________________________________
activation_1018 (Activation) (None, 16, 16, 32)        0         
_________________________________________________________________
dropout_1018 (Dropout)       (None, 16, 16, 32)        0         
_________________________________________________________________
max_pooling2d_204 (MaxPoolin (None, 8, 8, 32)          0         
_________________________________________________________________
separable_conv2d_899 (Separa (None, 8, 8, 512)         17184     
_________________________________________________________________
activation_1019 (Activation) (None, 8, 8, 512)         0         
_________________________________________________________________
dropout_1019 (Dropout)       (None, 8, 8, 512)         0         
_________________________________________________________________
separable_conv2d_900 (Separa (None, 8, 8, 1024)        529920    
_________________________________________________________________
batch_normalization_507 (Bat (None, 8, 8, 1024)        4096      
_________________________________________________________________
activation_1020 (Activation) (None, 8, 8, 1024)        0         
_________________________________________________________________
dropout_1020 (Dropout)       (None, 8, 8, 1024)        0         
_________________________________________________________________
separable_conv2d_901 (Separa (None, 8, 8, 1024)        1058816   
_________________________________________________________________
batch_normalization_508 (Bat (None, 8, 8, 1024)        4096      
_________________________________________________________________
activation_1021 (Activation) (None, 8, 8, 1024)        0         
_________________________________________________________________
dropout_1021 (Dropout)       (None, 8, 8, 1024)        0         
_________________________________________________________________
separable_conv2d_902 (Separa (None, 8, 8, 16)          25616     
_________________________________________________________________
batch_normalization_509 (Bat (None, 8, 8, 16)          64        
_________________________________________________________________
activation_1022 (Activation) (None, 8, 8, 16)          0         
_________________________________________________________________
dropout_1022 (Dropout)       (None, 8, 8, 16)          0         
_________________________________________________________________
separable_conv2d_903 (Separa (None, 8, 8, 16)          416       
_________________________________________________________________
batch_normalization_510 (Bat (None, 8, 8, 16)          64        
_________________________________________________________________
activation_1023 (Activation) (None, 8, 8, 16)          0         
_________________________________________________________________
dropout_1023 (Dropout)       (None, 8, 8, 16)          0         
_________________________________________________________________
separable_conv2d_904 (Separa (None, 8, 8, 512)         8848      
_________________________________________________________________
activation_1024 (Activation) (None, 8, 8, 512)         0         
_________________________________________________________________
dropout_1024 (Dropout)       (None, 8, 8, 512)         0         
_________________________________________________________________
separable_conv2d_905 (Separa (None, 8, 8, 64)          37440     
_________________________________________________________________
activation_1025 (Activation) (None, 8, 8, 64)          0         
_________________________________________________________________
dropout_1025 (Dropout)       (None, 8, 8, 64)          0         
_________________________________________________________________
separable_conv2d_906 (Separa (None, 8, 8, 8)           1096      
_________________________________________________________________
activation_1026 (Activation) (None, 8, 8, 8)           0         
_________________________________________________________________
dropout_1026 (Dropout)       (None, 8, 8, 8)           0         
_________________________________________________________________
flatten_93 (Flatten)         (None, 512)               0         
_________________________________________________________________
dense_213 (Dense)            (None, 4096)              2101248   
_________________________________________________________________
activation_1027 (Activation) (None, 4096)              0         
_________________________________________________________________
dropout_1027 (Dropout)       (None, 4096)              0         
_________________________________________________________________
dense_214 (Dense)            (None, 100)               409700    
=================================================================
Total params: 4,248,839
Trainable params: 4,242,631
Non-trainable params: 6,208
_________________________________________________________________
