Model: "sequential_341"
_________________________________________________________________
Layer (type)                 Output Shape              Param #   
=================================================================
separable_conv2d_2908 (Separ (None, 32, 32, 1024)      4123      
_________________________________________________________________
batch_normalization_1553 (Ba (None, 32, 32, 1024)      4096      
_________________________________________________________________
activation_3170 (Activation) (None, 32, 32, 1024)      0         
_________________________________________________________________
dropout_3170 (Dropout)       (None, 32, 32, 1024)      0         
_________________________________________________________________
separable_conv2d_2909 (Separ (None, 32, 32, 32)        42016     
_________________________________________________________________
batch_normalization_1554 (Ba (None, 32, 32, 32)        128       
_________________________________________________________________
activation_3171 (Activation) (None, 32, 32, 32)        0         
_________________________________________________________________
dropout_3171 (Dropout)       (None, 32, 32, 32)        0         
_________________________________________________________________
max_pooling2d_535 (MaxPoolin (None, 16, 16, 32)        0         
_________________________________________________________________
separable_conv2d_2910 (Separ (None, 16, 16, 512)       17184     
_________________________________________________________________
activation_3172 (Activation) (None, 16, 16, 512)       0         
_________________________________________________________________
dropout_3172 (Dropout)       (None, 16, 16, 512)       0         
_________________________________________________________________
separable_conv2d_2911 (Separ (None, 16, 16, 1024)      529920    
_________________________________________________________________
batch_normalization_1555 (Ba (None, 16, 16, 1024)      4096      
_________________________________________________________________
activation_3173 (Activation) (None, 16, 16, 1024)      0         
_________________________________________________________________
dropout_3173 (Dropout)       (None, 16, 16, 1024)      0         
_________________________________________________________________
separable_conv2d_2912 (Separ (None, 16, 16, 1024)      1058816   
_________________________________________________________________
batch_normalization_1556 (Ba (None, 16, 16, 1024)      4096      
_________________________________________________________________
activation_3174 (Activation) (None, 16, 16, 1024)      0         
_________________________________________________________________
dropout_3174 (Dropout)       (None, 16, 16, 1024)      0         
_________________________________________________________________
separable_conv2d_2913 (Separ (None, 16, 16, 16)        25616     
_________________________________________________________________
batch_normalization_1557 (Ba (None, 16, 16, 16)        64        
_________________________________________________________________
activation_3175 (Activation) (None, 16, 16, 16)        0         
_________________________________________________________________
dropout_3175 (Dropout)       (None, 16, 16, 16)        0         
_________________________________________________________________
separable_conv2d_2914 (Separ (None, 16, 16, 64)        1232      
_________________________________________________________________
activation_3176 (Activation) (None, 16, 16, 64)        0         
_________________________________________________________________
dropout_3176 (Dropout)       (None, 16, 16, 64)        0         
_________________________________________________________________
separable_conv2d_2915 (Separ (None, 16, 16, 16)        1616      
_________________________________________________________________
activation_3177 (Activation) (None, 16, 16, 16)        0         
_________________________________________________________________
dropout_3177 (Dropout)       (None, 16, 16, 16)        0         
_________________________________________________________________
flatten_341 (Flatten)        (None, 4096)              0         
_________________________________________________________________
dense_603 (Dense)            (None, 100)               409700    
=================================================================
Total params: 2,102,703
Trainable params: 2,096,463
Non-trainable params: 6,240
_________________________________________________________________
