Model: "sequential_125"
_________________________________________________________________
Layer (type)                 Output Shape              Param #   
=================================================================
separable_conv2d_1174 (Separ (None, 32, 32, 1024)      4123      
_________________________________________________________________
batch_normalization_658 (Bat (None, 32, 32, 1024)      4096      
_________________________________________________________________
activation_1326 (Activation) (None, 32, 32, 1024)      0         
_________________________________________________________________
dropout_1326 (Dropout)       (None, 32, 32, 1024)      0         
_________________________________________________________________
max_pooling2d_266 (MaxPoolin (None, 16, 16, 1024)      0         
_________________________________________________________________
separable_conv2d_1175 (Separ (None, 16, 16, 32)        42016     
_________________________________________________________________
activation_1327 (Activation) (None, 16, 16, 32)        0         
_________________________________________________________________
dropout_1327 (Dropout)       (None, 16, 16, 32)        0         
_________________________________________________________________
max_pooling2d_267 (MaxPoolin (None, 8, 8, 32)          0         
_________________________________________________________________
separable_conv2d_1176 (Separ (None, 8, 8, 512)         17184     
_________________________________________________________________
activation_1328 (Activation) (None, 8, 8, 512)         0         
_________________________________________________________________
dropout_1328 (Dropout)       (None, 8, 8, 512)         0         
_________________________________________________________________
separable_conv2d_1177 (Separ (None, 8, 8, 1024)        529920    
_________________________________________________________________
batch_normalization_659 (Bat (None, 8, 8, 1024)        4096      
_________________________________________________________________
activation_1329 (Activation) (None, 8, 8, 1024)        0         
_________________________________________________________________
dropout_1329 (Dropout)       (None, 8, 8, 1024)        0         
_________________________________________________________________
separable_conv2d_1178 (Separ (None, 8, 8, 1024)        1058816   
_________________________________________________________________
batch_normalization_660 (Bat (None, 8, 8, 1024)        4096      
_________________________________________________________________
activation_1330 (Activation) (None, 8, 8, 1024)        0         
_________________________________________________________________
dropout_1330 (Dropout)       (None, 8, 8, 1024)        0         
_________________________________________________________________
separable_conv2d_1179 (Separ (None, 8, 8, 16)          25616     
_________________________________________________________________
batch_normalization_661 (Bat (None, 8, 8, 16)          64        
_________________________________________________________________
activation_1331 (Activation) (None, 8, 8, 16)          0         
_________________________________________________________________
dropout_1331 (Dropout)       (None, 8, 8, 16)          0         
_________________________________________________________________
separable_conv2d_1180 (Separ (None, 8, 8, 512)         8848      
_________________________________________________________________
activation_1332 (Activation) (None, 8, 8, 512)         0         
_________________________________________________________________
dropout_1332 (Dropout)       (None, 8, 8, 512)         0         
_________________________________________________________________
separable_conv2d_1181 (Separ (None, 8, 8, 64)          37440     
_________________________________________________________________
activation_1333 (Activation) (None, 8, 8, 64)          0         
_________________________________________________________________
dropout_1333 (Dropout)       (None, 8, 8, 64)          0         
_________________________________________________________________
separable_conv2d_1182 (Separ (None, 8, 8, 8)           1096      
_________________________________________________________________
activation_1334 (Activation) (None, 8, 8, 8)           0         
_________________________________________________________________
dropout_1334 (Dropout)       (None, 8, 8, 8)           0         
_________________________________________________________________
flatten_125 (Flatten)        (None, 512)               0         
_________________________________________________________________
dense_277 (Dense)            (None, 4096)              2101248   
_________________________________________________________________
activation_1335 (Activation) (None, 4096)              0         
_________________________________________________________________
dropout_1335 (Dropout)       (None, 4096)              0         
_________________________________________________________________
dense_278 (Dense)            (None, 100)               409700    
=================================================================
Total params: 4,248,359
Trainable params: 4,242,183
Non-trainable params: 6,176
_________________________________________________________________
