Model: "sequential_297"
_________________________________________________________________
Layer (type)                 Output Shape              Param #   
=================================================================
separable_conv2d_2556 (Separ (None, 32, 32, 1024)      4123      
_________________________________________________________________
batch_normalization_1380 (Ba (None, 32, 32, 1024)      4096      
_________________________________________________________________
activation_2812 (Activation) (None, 32, 32, 1024)      0         
_________________________________________________________________
dropout_2812 (Dropout)       (None, 32, 32, 1024)      0         
_________________________________________________________________
separable_conv2d_2557 (Separ (None, 32, 32, 32)        42016     
_________________________________________________________________
activation_2813 (Activation) (None, 32, 32, 32)        0         
_________________________________________________________________
dropout_2813 (Dropout)       (None, 32, 32, 32)        0         
_________________________________________________________________
max_pooling2d_484 (MaxPoolin (None, 16, 16, 32)        0         
_________________________________________________________________
separable_conv2d_2558 (Separ (None, 16, 16, 512)       17184     
_________________________________________________________________
activation_2814 (Activation) (None, 16, 16, 512)       0         
_________________________________________________________________
dropout_2814 (Dropout)       (None, 16, 16, 512)       0         
_________________________________________________________________
separable_conv2d_2559 (Separ (None, 16, 16, 1024)      529920    
_________________________________________________________________
activation_2815 (Activation) (None, 16, 16, 1024)      0         
_________________________________________________________________
dropout_2815 (Dropout)       (None, 16, 16, 1024)      0         
_________________________________________________________________
separable_conv2d_2560 (Separ (None, 16, 16, 1024)      1058816   
_________________________________________________________________
batch_normalization_1381 (Ba (None, 16, 16, 1024)      4096      
_________________________________________________________________
activation_2816 (Activation) (None, 16, 16, 1024)      0         
_________________________________________________________________
dropout_2816 (Dropout)       (None, 16, 16, 1024)      0         
_________________________________________________________________
separable_conv2d_2561 (Separ (None, 16, 16, 16)        25616     
_________________________________________________________________
batch_normalization_1382 (Ba (None, 16, 16, 16)        64        
_________________________________________________________________
activation_2817 (Activation) (None, 16, 16, 16)        0         
_________________________________________________________________
dropout_2817 (Dropout)       (None, 16, 16, 16)        0         
_________________________________________________________________
separable_conv2d_2562 (Separ (None, 16, 16, 64)        1232      
_________________________________________________________________
activation_2818 (Activation) (None, 16, 16, 64)        0         
_________________________________________________________________
dropout_2818 (Dropout)       (None, 16, 16, 64)        0         
_________________________________________________________________
separable_conv2d_2563 (Separ (None, 16, 16, 16)        1616      
_________________________________________________________________
activation_2819 (Activation) (None, 16, 16, 16)        0         
_________________________________________________________________
dropout_2819 (Dropout)       (None, 16, 16, 16)        0         
_________________________________________________________________
flatten_297 (Flatten)        (None, 4096)              0         
_________________________________________________________________
dense_553 (Dense)            (None, 100)               409700    
=================================================================
Total params: 2,098,479
Trainable params: 2,094,351
Non-trainable params: 4,128
_________________________________________________________________
