Model: "sequential_380"
_________________________________________________________________
Layer (type)                 Output Shape              Param #   
=================================================================
separable_conv2d_3218 (Separ (None, 32, 32, 1024)      4123      
_________________________________________________________________
batch_normalization_1718 (Ba (None, 32, 32, 1024)      4096      
_________________________________________________________________
activation_3487 (Activation) (None, 32, 32, 1024)      0         
_________________________________________________________________
dropout_3487 (Dropout)       (None, 32, 32, 1024)      0         
_________________________________________________________________
separable_conv2d_3219 (Separ (None, 32, 32, 32)        42016     
_________________________________________________________________
activation_3488 (Activation) (None, 32, 32, 32)        0         
_________________________________________________________________
dropout_3488 (Dropout)       (None, 32, 32, 32)        0         
_________________________________________________________________
max_pooling2d_577 (MaxPoolin (None, 16, 16, 32)        0         
_________________________________________________________________
separable_conv2d_3220 (Separ (None, 16, 16, 512)       17184     
_________________________________________________________________
activation_3489 (Activation) (None, 16, 16, 512)       0         
_________________________________________________________________
dropout_3489 (Dropout)       (None, 16, 16, 512)       0         
_________________________________________________________________
separable_conv2d_3221 (Separ (None, 16, 16, 1024)      529920    
_________________________________________________________________
batch_normalization_1719 (Ba (None, 16, 16, 1024)      4096      
_________________________________________________________________
activation_3490 (Activation) (None, 16, 16, 1024)      0         
_________________________________________________________________
dropout_3490 (Dropout)       (None, 16, 16, 1024)      0         
_________________________________________________________________
separable_conv2d_3222 (Separ (None, 16, 16, 1024)      1058816   
_________________________________________________________________
batch_normalization_1720 (Ba (None, 16, 16, 1024)      4096      
_________________________________________________________________
activation_3491 (Activation) (None, 16, 16, 1024)      0         
_________________________________________________________________
dropout_3491 (Dropout)       (None, 16, 16, 1024)      0         
_________________________________________________________________
separable_conv2d_3223 (Separ (None, 16, 16, 16)        25616     
_________________________________________________________________
batch_normalization_1721 (Ba (None, 16, 16, 16)        64        
_________________________________________________________________
activation_3492 (Activation) (None, 16, 16, 16)        0         
_________________________________________________________________
dropout_3492 (Dropout)       (None, 16, 16, 16)        0         
_________________________________________________________________
separable_conv2d_3224 (Separ (None, 16, 16, 64)        1232      
_________________________________________________________________
batch_normalization_1722 (Ba (None, 16, 16, 64)        256       
_________________________________________________________________
activation_3493 (Activation) (None, 16, 16, 64)        0         
_________________________________________________________________
dropout_3493 (Dropout)       (None, 16, 16, 64)        0         
_________________________________________________________________
separable_conv2d_3225 (Separ (None, 16, 16, 16)        1616      
_________________________________________________________________
activation_3494 (Activation) (None, 16, 16, 16)        0         
_________________________________________________________________
dropout_3494 (Dropout)       (None, 16, 16, 16)        0         
_________________________________________________________________
flatten_380 (Flatten)        (None, 4096)              0         
_________________________________________________________________
dense_649 (Dense)            (None, 100)               409700    
=================================================================
Total params: 2,102,831
Trainable params: 2,096,527
Non-trainable params: 6,304
_________________________________________________________________
