Model: "sequential_3"
_________________________________________________________________
Layer (type)                 Output Shape              Param #   
=================================================================
separable_conv2d_38 (Separab (None, 32, 32, 64)        283       
_________________________________________________________________
activation_45 (Activation)   (None, 32, 32, 64)        0         
_________________________________________________________________
dropout_45 (Dropout)         (None, 32, 32, 64)        0         
_________________________________________________________________
max_pooling2d_8 (MaxPooling2 (None, 16, 16, 64)        0         
_________________________________________________________________
separable_conv2d_39 (Separab (None, 16, 16, 1024)      67136     
_________________________________________________________________
activation_46 (Activation)   (None, 16, 16, 1024)      0         
_________________________________________________________________
dropout_46 (Dropout)         (None, 16, 16, 1024)      0         
_________________________________________________________________
max_pooling2d_9 (MaxPooling2 (None, 8, 8, 1024)        0         
_________________________________________________________________
separable_conv2d_40 (Separab (None, 8, 8, 1024)        1058816   
_________________________________________________________________
activation_47 (Activation)   (None, 8, 8, 1024)        0         
_________________________________________________________________
dropout_47 (Dropout)         (None, 8, 8, 1024)        0         
_________________________________________________________________
separable_conv2d_41 (Separab (None, 8, 8, 64)          74816     
_________________________________________________________________
activation_48 (Activation)   (None, 8, 8, 64)          0         
_________________________________________________________________
dropout_48 (Dropout)         (None, 8, 8, 64)          0         
_________________________________________________________________
max_pooling2d_10 (MaxPooling (None, 4, 4, 64)          0         
_________________________________________________________________
separable_conv2d_42 (Separab (None, 4, 4, 8)           1096      
_________________________________________________________________
activation_49 (Activation)   (None, 4, 4, 8)           0         
_________________________________________________________________
dropout_49 (Dropout)         (None, 4, 4, 8)           0         
_________________________________________________________________
separable_conv2d_43 (Separab (None, 4, 4, 512)         4680      
_________________________________________________________________
batch_normalization_21 (Batc (None, 4, 4, 512)         2048      
_________________________________________________________________
activation_50 (Activation)   (None, 4, 4, 512)         0         
_________________________________________________________________
dropout_50 (Dropout)         (None, 4, 4, 512)         0         
_________________________________________________________________
separable_conv2d_44 (Separab (None, 4, 4, 512)         267264    
_________________________________________________________________
activation_51 (Activation)   (None, 4, 4, 512)         0         
_________________________________________________________________
dropout_51 (Dropout)         (None, 4, 4, 512)         0         
_________________________________________________________________
flatten_3 (Flatten)          (None, 8192)              0         
_________________________________________________________________
dense_10 (Dense)             (None, 256)               2097408   
_________________________________________________________________
activation_52 (Activation)   (None, 256)               0         
_________________________________________________________________
dropout_52 (Dropout)         (None, 256)               0         
_________________________________________________________________
dense_11 (Dense)             (None, 100)               25700     
=================================================================
Total params: 3,599,247
Trainable params: 3,598,223
Non-trainable params: 1,024
_________________________________________________________________
