Model: "sequential_160"
_________________________________________________________________
Layer (type)                 Output Shape              Param #   
=================================================================
separable_conv2d_1463 (Separ (None, 32, 32, 1024)      4123      
_________________________________________________________________
batch_normalization_822 (Bat (None, 32, 32, 1024)      4096      
_________________________________________________________________
activation_1648 (Activation) (None, 32, 32, 1024)      0         
_________________________________________________________________
dropout_1648 (Dropout)       (None, 32, 32, 1024)      0         
_________________________________________________________________
separable_conv2d_1464 (Separ (None, 32, 32, 32)        42016     
_________________________________________________________________
activation_1649 (Activation) (None, 32, 32, 32)        0         
_________________________________________________________________
dropout_1649 (Dropout)       (None, 32, 32, 32)        0         
_________________________________________________________________
max_pooling2d_333 (MaxPoolin (None, 16, 16, 32)        0         
_________________________________________________________________
separable_conv2d_1465 (Separ (None, 16, 16, 512)       17184     
_________________________________________________________________
activation_1650 (Activation) (None, 16, 16, 512)       0         
_________________________________________________________________
dropout_1650 (Dropout)       (None, 16, 16, 512)       0         
_________________________________________________________________
separable_conv2d_1466 (Separ (None, 16, 16, 1024)      529920    
_________________________________________________________________
batch_normalization_823 (Bat (None, 16, 16, 1024)      4096      
_________________________________________________________________
activation_1651 (Activation) (None, 16, 16, 1024)      0         
_________________________________________________________________
dropout_1651 (Dropout)       (None, 16, 16, 1024)      0         
_________________________________________________________________
separable_conv2d_1467 (Separ (None, 16, 16, 1024)      1058816   
_________________________________________________________________
batch_normalization_824 (Bat (None, 16, 16, 1024)      4096      
_________________________________________________________________
activation_1652 (Activation) (None, 16, 16, 1024)      0         
_________________________________________________________________
dropout_1652 (Dropout)       (None, 16, 16, 1024)      0         
_________________________________________________________________
separable_conv2d_1468 (Separ (None, 16, 16, 16)        25616     
_________________________________________________________________
batch_normalization_825 (Bat (None, 16, 16, 16)        64        
_________________________________________________________________
activation_1653 (Activation) (None, 16, 16, 16)        0         
_________________________________________________________________
dropout_1653 (Dropout)       (None, 16, 16, 16)        0         
_________________________________________________________________
separable_conv2d_1469 (Separ (None, 16, 16, 512)       8848      
_________________________________________________________________
activation_1654 (Activation) (None, 16, 16, 512)       0         
_________________________________________________________________
dropout_1654 (Dropout)       (None, 16, 16, 512)       0         
_________________________________________________________________
separable_conv2d_1470 (Separ (None, 16, 16, 64)        37440     
_________________________________________________________________
activation_1655 (Activation) (None, 16, 16, 64)        0         
_________________________________________________________________
dropout_1655 (Dropout)       (None, 16, 16, 64)        0         
_________________________________________________________________
separable_conv2d_1471 (Separ (None, 16, 16, 8)         1096      
_________________________________________________________________
activation_1656 (Activation) (None, 16, 16, 8)         0         
_________________________________________________________________
dropout_1656 (Dropout)       (None, 16, 16, 8)         0         
_________________________________________________________________
flatten_160 (Flatten)        (None, 2048)              0         
_________________________________________________________________
dense_345 (Dense)            (None, 4096)              8392704   
_________________________________________________________________
activation_1657 (Activation) (None, 4096)              0         
_________________________________________________________________
dropout_1657 (Dropout)       (None, 4096)              0         
_________________________________________________________________
dense_346 (Dense)            (None, 100)               409700    
=================================================================
Total params: 10,539,815
Trainable params: 10,533,639
Non-trainable params: 6,176
_________________________________________________________________
