Model: "sequential_130"
_________________________________________________________________
Layer (type)                 Output Shape              Param #   
=================================================================
separable_conv2d_1217 (Separ (None, 32, 32, 1024)      4123      
_________________________________________________________________
batch_normalization_682 (Bat (None, 32, 32, 1024)      4096      
_________________________________________________________________
activation_1374 (Activation) (None, 32, 32, 1024)      0         
_________________________________________________________________
dropout_1374 (Dropout)       (None, 32, 32, 1024)      0         
_________________________________________________________________
max_pooling2d_276 (MaxPoolin (None, 16, 16, 1024)      0         
_________________________________________________________________
separable_conv2d_1218 (Separ (None, 16, 16, 32)        42016     
_________________________________________________________________
activation_1375 (Activation) (None, 16, 16, 32)        0         
_________________________________________________________________
dropout_1375 (Dropout)       (None, 16, 16, 32)        0         
_________________________________________________________________
max_pooling2d_277 (MaxPoolin (None, 8, 8, 32)          0         
_________________________________________________________________
separable_conv2d_1219 (Separ (None, 8, 8, 512)         17184     
_________________________________________________________________
activation_1376 (Activation) (None, 8, 8, 512)         0         
_________________________________________________________________
dropout_1376 (Dropout)       (None, 8, 8, 512)         0         
_________________________________________________________________
separable_conv2d_1220 (Separ (None, 8, 8, 1024)        529920    
_________________________________________________________________
batch_normalization_683 (Bat (None, 8, 8, 1024)        4096      
_________________________________________________________________
activation_1377 (Activation) (None, 8, 8, 1024)        0         
_________________________________________________________________
dropout_1377 (Dropout)       (None, 8, 8, 1024)        0         
_________________________________________________________________
separable_conv2d_1221 (Separ (None, 8, 8, 1024)        1058816   
_________________________________________________________________
batch_normalization_684 (Bat (None, 8, 8, 1024)        4096      
_________________________________________________________________
activation_1378 (Activation) (None, 8, 8, 1024)        0         
_________________________________________________________________
dropout_1378 (Dropout)       (None, 8, 8, 1024)        0         
_________________________________________________________________
separable_conv2d_1222 (Separ (None, 8, 8, 16)          25616     
_________________________________________________________________
batch_normalization_685 (Bat (None, 8, 8, 16)          64        
_________________________________________________________________
activation_1379 (Activation) (None, 8, 8, 16)          0         
_________________________________________________________________
dropout_1379 (Dropout)       (None, 8, 8, 16)          0         
_________________________________________________________________
separable_conv2d_1223 (Separ (None, 8, 8, 64)          1232      
_________________________________________________________________
activation_1380 (Activation) (None, 8, 8, 64)          0         
_________________________________________________________________
dropout_1380 (Dropout)       (None, 8, 8, 64)          0         
_________________________________________________________________
separable_conv2d_1224 (Separ (None, 8, 8, 16)          1616      
_________________________________________________________________
activation_1381 (Activation) (None, 8, 8, 16)          0         
_________________________________________________________________
dropout_1381 (Dropout)       (None, 8, 8, 16)          0         
_________________________________________________________________
flatten_130 (Flatten)        (None, 1024)              0         
_________________________________________________________________
dense_287 (Dense)            (None, 4096)              4198400   
_________________________________________________________________
activation_1382 (Activation) (None, 4096)              0         
_________________________________________________________________
dropout_1382 (Dropout)       (None, 4096)              0         
_________________________________________________________________
dense_288 (Dense)            (None, 100)               409700    
=================================================================
Total params: 6,300,975
Trainable params: 6,294,799
Non-trainable params: 6,176
_________________________________________________________________
