Model: "sequential_300"
_________________________________________________________________
Layer (type)                 Output Shape              Param #   
=================================================================
separable_conv2d_2581 (Separ (None, 32, 32, 1024)      4123      
_________________________________________________________________
batch_normalization_1391 (Ba (None, 32, 32, 1024)      4096      
_________________________________________________________________
activation_2838 (Activation) (None, 32, 32, 1024)      0         
_________________________________________________________________
dropout_2838 (Dropout)       (None, 32, 32, 1024)      0         
_________________________________________________________________
separable_conv2d_2582 (Separ (None, 32, 32, 32)        42016     
_________________________________________________________________
activation_2839 (Activation) (None, 32, 32, 32)        0         
_________________________________________________________________
dropout_2839 (Dropout)       (None, 32, 32, 32)        0         
_________________________________________________________________
max_pooling2d_488 (MaxPoolin (None, 16, 16, 32)        0         
_________________________________________________________________
separable_conv2d_2583 (Separ (None, 16, 16, 512)       17184     
_________________________________________________________________
activation_2840 (Activation) (None, 16, 16, 512)       0         
_________________________________________________________________
dropout_2840 (Dropout)       (None, 16, 16, 512)       0         
_________________________________________________________________
separable_conv2d_2584 (Separ (None, 16, 16, 1024)      529920    
_________________________________________________________________
batch_normalization_1392 (Ba (None, 16, 16, 1024)      4096      
_________________________________________________________________
activation_2841 (Activation) (None, 16, 16, 1024)      0         
_________________________________________________________________
dropout_2841 (Dropout)       (None, 16, 16, 1024)      0         
_________________________________________________________________
separable_conv2d_2585 (Separ (None, 16, 16, 1024)      1058816   
_________________________________________________________________
batch_normalization_1393 (Ba (None, 16, 16, 1024)      4096      
_________________________________________________________________
activation_2842 (Activation) (None, 16, 16, 1024)      0         
_________________________________________________________________
dropout_2842 (Dropout)       (None, 16, 16, 1024)      0         
_________________________________________________________________
separable_conv2d_2586 (Separ (None, 16, 16, 16)        25616     
_________________________________________________________________
batch_normalization_1394 (Ba (None, 16, 16, 16)        64        
_________________________________________________________________
activation_2843 (Activation) (None, 16, 16, 16)        0         
_________________________________________________________________
dropout_2843 (Dropout)       (None, 16, 16, 16)        0         
_________________________________________________________________
separable_conv2d_2587 (Separ (None, 16, 16, 64)        1232      
_________________________________________________________________
activation_2844 (Activation) (None, 16, 16, 64)        0         
_________________________________________________________________
dropout_2844 (Dropout)       (None, 16, 16, 64)        0         
_________________________________________________________________
separable_conv2d_2588 (Separ (None, 16, 16, 16)        1616      
_________________________________________________________________
activation_2845 (Activation) (None, 16, 16, 16)        0         
_________________________________________________________________
dropout_2845 (Dropout)       (None, 16, 16, 16)        0         
_________________________________________________________________
flatten_300 (Flatten)        (None, 4096)              0         
_________________________________________________________________
dense_557 (Dense)            (None, 100)               409700    
=================================================================
Total params: 2,102,575
Trainable params: 2,096,399
Non-trainable params: 6,176
_________________________________________________________________
