Model: "sequential_220"
_________________________________________________________________
Layer (type)                 Output Shape              Param #   
=================================================================
separable_conv2d_1942 (Separ (None, 32, 32, 256)       1051      
_________________________________________________________________
batch_normalization_1076 (Ba (None, 32, 32, 256)       1024      
_________________________________________________________________
activation_2172 (Activation) (None, 32, 32, 256)       0         
_________________________________________________________________
dropout_2172 (Dropout)       (None, 32, 32, 256)       0         
_________________________________________________________________
separable_conv2d_1943 (Separ (None, 32, 32, 32)        10528     
_________________________________________________________________
activation_2173 (Activation) (None, 32, 32, 32)        0         
_________________________________________________________________
dropout_2173 (Dropout)       (None, 32, 32, 32)        0         
_________________________________________________________________
max_pooling2d_404 (MaxPoolin (None, 16, 16, 32)        0         
_________________________________________________________________
separable_conv2d_1944 (Separ (None, 16, 16, 512)       17184     
_________________________________________________________________
activation_2174 (Activation) (None, 16, 16, 512)       0         
_________________________________________________________________
dropout_2174 (Dropout)       (None, 16, 16, 512)       0         
_________________________________________________________________
separable_conv2d_1945 (Separ (None, 16, 16, 1024)      529920    
_________________________________________________________________
batch_normalization_1077 (Ba (None, 16, 16, 1024)      4096      
_________________________________________________________________
activation_2175 (Activation) (None, 16, 16, 1024)      0         
_________________________________________________________________
dropout_2175 (Dropout)       (None, 16, 16, 1024)      0         
_________________________________________________________________
separable_conv2d_1946 (Separ (None, 16, 16, 1024)      1058816   
_________________________________________________________________
activation_2176 (Activation) (None, 16, 16, 1024)      0         
_________________________________________________________________
dropout_2176 (Dropout)       (None, 16, 16, 1024)      0         
_________________________________________________________________
separable_conv2d_1947 (Separ (None, 16, 16, 64)        74816     
_________________________________________________________________
batch_normalization_1078 (Ba (None, 16, 16, 64)        256       
_________________________________________________________________
activation_2177 (Activation) (None, 16, 16, 64)        0         
_________________________________________________________________
dropout_2177 (Dropout)       (None, 16, 16, 64)        0         
_________________________________________________________________
separable_conv2d_1948 (Separ (None, 16, 16, 64)        4736      
_________________________________________________________________
activation_2178 (Activation) (None, 16, 16, 64)        0         
_________________________________________________________________
dropout_2178 (Dropout)       (None, 16, 16, 64)        0         
_________________________________________________________________
separable_conv2d_1949 (Separ (None, 16, 16, 16)        1616      
_________________________________________________________________
activation_2179 (Activation) (None, 16, 16, 16)        0         
_________________________________________________________________
dropout_2179 (Dropout)       (None, 16, 16, 16)        0         
_________________________________________________________________
flatten_220 (Flatten)        (None, 4096)              0         
_________________________________________________________________
dense_450 (Dense)            (None, 4096)              16781312  
_________________________________________________________________
activation_2180 (Activation) (None, 4096)              0         
_________________________________________________________________
dropout_2180 (Dropout)       (None, 4096)              0         
_________________________________________________________________
dense_451 (Dense)            (None, 100)               409700    
=================================================================
Total params: 18,895,055
Trainable params: 18,892,367
Non-trainable params: 2,688
_________________________________________________________________
