Model: "sequential_229"
_________________________________________________________________
Layer (type)                 Output Shape              Param #   
=================================================================
separable_conv2d_2013 (Separ (None, 32, 32, 1024)      4123      
_________________________________________________________________
batch_normalization_1112 (Ba (None, 32, 32, 1024)      4096      
_________________________________________________________________
activation_2247 (Activation) (None, 32, 32, 1024)      0         
_________________________________________________________________
dropout_2247 (Dropout)       (None, 32, 32, 1024)      0         
_________________________________________________________________
separable_conv2d_2014 (Separ (None, 32, 32, 32)        42016     
_________________________________________________________________
activation_2248 (Activation) (None, 32, 32, 32)        0         
_________________________________________________________________
dropout_2248 (Dropout)       (None, 32, 32, 32)        0         
_________________________________________________________________
max_pooling2d_414 (MaxPoolin (None, 16, 16, 32)        0         
_________________________________________________________________
separable_conv2d_2015 (Separ (None, 16, 16, 512)       17184     
_________________________________________________________________
activation_2249 (Activation) (None, 16, 16, 512)       0         
_________________________________________________________________
dropout_2249 (Dropout)       (None, 16, 16, 512)       0         
_________________________________________________________________
separable_conv2d_2016 (Separ (None, 16, 16, 1024)      529920    
_________________________________________________________________
batch_normalization_1113 (Ba (None, 16, 16, 1024)      4096      
_________________________________________________________________
activation_2250 (Activation) (None, 16, 16, 1024)      0         
_________________________________________________________________
dropout_2250 (Dropout)       (None, 16, 16, 1024)      0         
_________________________________________________________________
separable_conv2d_2017 (Separ (None, 16, 16, 1024)      1058816   
_________________________________________________________________
batch_normalization_1114 (Ba (None, 16, 16, 1024)      4096      
_________________________________________________________________
activation_2251 (Activation) (None, 16, 16, 1024)      0         
_________________________________________________________________
dropout_2251 (Dropout)       (None, 16, 16, 1024)      0         
_________________________________________________________________
separable_conv2d_2018 (Separ (None, 16, 16, 16)        25616     
_________________________________________________________________
batch_normalization_1115 (Ba (None, 16, 16, 16)        64        
_________________________________________________________________
activation_2252 (Activation) (None, 16, 16, 16)        0         
_________________________________________________________________
dropout_2252 (Dropout)       (None, 16, 16, 16)        0         
_________________________________________________________________
separable_conv2d_2019 (Separ (None, 16, 16, 64)        1232      
_________________________________________________________________
activation_2253 (Activation) (None, 16, 16, 64)        0         
_________________________________________________________________
dropout_2253 (Dropout)       (None, 16, 16, 64)        0         
_________________________________________________________________
separable_conv2d_2020 (Separ (None, 16, 16, 16)        1616      
_________________________________________________________________
activation_2254 (Activation) (None, 16, 16, 16)        0         
_________________________________________________________________
dropout_2254 (Dropout)       (None, 16, 16, 16)        0         
_________________________________________________________________
flatten_229 (Flatten)        (None, 4096)              0         
_________________________________________________________________
dense_463 (Dense)            (None, 100)               409700    
=================================================================
Total params: 2,102,575
Trainable params: 2,096,399
Non-trainable params: 6,176
_________________________________________________________________
