Model: "sequential_221"
_________________________________________________________________
Layer (type)                 Output Shape              Param #   
=================================================================
separable_conv2d_1950 (Separ (None, 32, 32, 1024)      4123      
_________________________________________________________________
batch_normalization_1079 (Ba (None, 32, 32, 1024)      4096      
_________________________________________________________________
activation_2181 (Activation) (None, 32, 32, 1024)      0         
_________________________________________________________________
dropout_2181 (Dropout)       (None, 32, 32, 1024)      0         
_________________________________________________________________
separable_conv2d_1951 (Separ (None, 32, 32, 32)        42016     
_________________________________________________________________
batch_normalization_1080 (Ba (None, 32, 32, 32)        128       
_________________________________________________________________
activation_2182 (Activation) (None, 32, 32, 32)        0         
_________________________________________________________________
dropout_2182 (Dropout)       (None, 32, 32, 32)        0         
_________________________________________________________________
max_pooling2d_405 (MaxPoolin (None, 16, 16, 32)        0         
_________________________________________________________________
separable_conv2d_1952 (Separ (None, 16, 16, 512)       17184     
_________________________________________________________________
activation_2183 (Activation) (None, 16, 16, 512)       0         
_________________________________________________________________
dropout_2183 (Dropout)       (None, 16, 16, 512)       0         
_________________________________________________________________
separable_conv2d_1953 (Separ (None, 16, 16, 1024)      529920    
_________________________________________________________________
batch_normalization_1081 (Ba (None, 16, 16, 1024)      4096      
_________________________________________________________________
activation_2184 (Activation) (None, 16, 16, 1024)      0         
_________________________________________________________________
dropout_2184 (Dropout)       (None, 16, 16, 1024)      0         
_________________________________________________________________
separable_conv2d_1954 (Separ (None, 16, 16, 1024)      1058816   
_________________________________________________________________
batch_normalization_1082 (Ba (None, 16, 16, 1024)      4096      
_________________________________________________________________
activation_2185 (Activation) (None, 16, 16, 1024)      0         
_________________________________________________________________
dropout_2185 (Dropout)       (None, 16, 16, 1024)      0         
_________________________________________________________________
separable_conv2d_1955 (Separ (None, 16, 16, 16)        25616     
_________________________________________________________________
batch_normalization_1083 (Ba (None, 16, 16, 16)        64        
_________________________________________________________________
activation_2186 (Activation) (None, 16, 16, 16)        0         
_________________________________________________________________
dropout_2186 (Dropout)       (None, 16, 16, 16)        0         
_________________________________________________________________
separable_conv2d_1956 (Separ (None, 16, 16, 64)        1232      
_________________________________________________________________
activation_2187 (Activation) (None, 16, 16, 64)        0         
_________________________________________________________________
dropout_2187 (Dropout)       (None, 16, 16, 64)        0         
_________________________________________________________________
separable_conv2d_1957 (Separ (None, 16, 16, 16)        1616      
_________________________________________________________________
activation_2188 (Activation) (None, 16, 16, 16)        0         
_________________________________________________________________
dropout_2188 (Dropout)       (None, 16, 16, 16)        0         
_________________________________________________________________
flatten_221 (Flatten)        (None, 4096)              0         
_________________________________________________________________
dense_452 (Dense)            (None, 100)               409700    
=================================================================
Total params: 2,102,703
Trainable params: 2,096,463
Non-trainable params: 6,240
_________________________________________________________________
