Model: "sequential_374"
_________________________________________________________________
Layer (type)                 Output Shape              Param #   
=================================================================
separable_conv2d_3171 (Separ (None, 32, 32, 1024)      4123      
_________________________________________________________________
batch_normalization_1692 (Ba (None, 32, 32, 1024)      4096      
_________________________________________________________________
activation_3439 (Activation) (None, 32, 32, 1024)      0         
_________________________________________________________________
dropout_3439 (Dropout)       (None, 32, 32, 1024)      0         
_________________________________________________________________
separable_conv2d_3172 (Separ (None, 32, 32, 32)        42016     
_________________________________________________________________
activation_3440 (Activation) (None, 32, 32, 32)        0         
_________________________________________________________________
dropout_3440 (Dropout)       (None, 32, 32, 32)        0         
_________________________________________________________________
max_pooling2d_571 (MaxPoolin (None, 16, 16, 32)        0         
_________________________________________________________________
separable_conv2d_3173 (Separ (None, 16, 16, 512)       17184     
_________________________________________________________________
activation_3441 (Activation) (None, 16, 16, 512)       0         
_________________________________________________________________
dropout_3441 (Dropout)       (None, 16, 16, 512)       0         
_________________________________________________________________
separable_conv2d_3174 (Separ (None, 16, 16, 1024)      529920    
_________________________________________________________________
batch_normalization_1693 (Ba (None, 16, 16, 1024)      4096      
_________________________________________________________________
activation_3442 (Activation) (None, 16, 16, 1024)      0         
_________________________________________________________________
dropout_3442 (Dropout)       (None, 16, 16, 1024)      0         
_________________________________________________________________
separable_conv2d_3175 (Separ (None, 16, 16, 1024)      1058816   
_________________________________________________________________
batch_normalization_1694 (Ba (None, 16, 16, 1024)      4096      
_________________________________________________________________
activation_3443 (Activation) (None, 16, 16, 1024)      0         
_________________________________________________________________
dropout_3443 (Dropout)       (None, 16, 16, 1024)      0         
_________________________________________________________________
separable_conv2d_3176 (Separ (None, 16, 16, 16)        25616     
_________________________________________________________________
batch_normalization_1695 (Ba (None, 16, 16, 16)        64        
_________________________________________________________________
activation_3444 (Activation) (None, 16, 16, 16)        0         
_________________________________________________________________
dropout_3444 (Dropout)       (None, 16, 16, 16)        0         
_________________________________________________________________
separable_conv2d_3177 (Separ (None, 16, 16, 64)        1232      
_________________________________________________________________
activation_3445 (Activation) (None, 16, 16, 64)        0         
_________________________________________________________________
dropout_3445 (Dropout)       (None, 16, 16, 64)        0         
_________________________________________________________________
separable_conv2d_3178 (Separ (None, 16, 16, 16)        1616      
_________________________________________________________________
activation_3446 (Activation) (None, 16, 16, 16)        0         
_________________________________________________________________
dropout_3446 (Dropout)       (None, 16, 16, 16)        0         
_________________________________________________________________
flatten_374 (Flatten)        (None, 4096)              0         
_________________________________________________________________
dense_642 (Dense)            (None, 100)               409700    
=================================================================
Total params: 2,102,575
Trainable params: 2,096,399
Non-trainable params: 6,176
_________________________________________________________________
