Model: "sequential_164"
_________________________________________________________________
Layer (type)                 Output Shape              Param #   
=================================================================
separable_conv2d_1496 (Separ (None, 32, 32, 1024)      4123      
_________________________________________________________________
batch_normalization_839 (Bat (None, 32, 32, 1024)      4096      
_________________________________________________________________
activation_1685 (Activation) (None, 32, 32, 1024)      0         
_________________________________________________________________
dropout_1685 (Dropout)       (None, 32, 32, 1024)      0         
_________________________________________________________________
separable_conv2d_1497 (Separ (None, 32, 32, 32)        42016     
_________________________________________________________________
activation_1686 (Activation) (None, 32, 32, 32)        0         
_________________________________________________________________
dropout_1686 (Dropout)       (None, 32, 32, 32)        0         
_________________________________________________________________
max_pooling2d_337 (MaxPoolin (None, 16, 16, 32)        0         
_________________________________________________________________
separable_conv2d_1498 (Separ (None, 16, 16, 512)       17184     
_________________________________________________________________
activation_1687 (Activation) (None, 16, 16, 512)       0         
_________________________________________________________________
dropout_1687 (Dropout)       (None, 16, 16, 512)       0         
_________________________________________________________________
separable_conv2d_1499 (Separ (None, 16, 16, 1024)      529920    
_________________________________________________________________
batch_normalization_840 (Bat (None, 16, 16, 1024)      4096      
_________________________________________________________________
activation_1688 (Activation) (None, 16, 16, 1024)      0         
_________________________________________________________________
dropout_1688 (Dropout)       (None, 16, 16, 1024)      0         
_________________________________________________________________
separable_conv2d_1500 (Separ (None, 16, 16, 1024)      1058816   
_________________________________________________________________
batch_normalization_841 (Bat (None, 16, 16, 1024)      4096      
_________________________________________________________________
activation_1689 (Activation) (None, 16, 16, 1024)      0         
_________________________________________________________________
dropout_1689 (Dropout)       (None, 16, 16, 1024)      0         
_________________________________________________________________
separable_conv2d_1501 (Separ (None, 16, 16, 16)        25616     
_________________________________________________________________
batch_normalization_842 (Bat (None, 16, 16, 16)        64        
_________________________________________________________________
activation_1690 (Activation) (None, 16, 16, 16)        0         
_________________________________________________________________
dropout_1690 (Dropout)       (None, 16, 16, 16)        0         
_________________________________________________________________
separable_conv2d_1502 (Separ (None, 16, 16, 64)        1232      
_________________________________________________________________
activation_1691 (Activation) (None, 16, 16, 64)        0         
_________________________________________________________________
dropout_1691 (Dropout)       (None, 16, 16, 64)        0         
_________________________________________________________________
separable_conv2d_1503 (Separ (None, 16, 16, 8)         1096      
_________________________________________________________________
activation_1692 (Activation) (None, 16, 16, 8)         0         
_________________________________________________________________
dropout_1692 (Dropout)       (None, 16, 16, 8)         0         
_________________________________________________________________
flatten_164 (Flatten)        (None, 2048)              0         
_________________________________________________________________
dense_353 (Dense)            (None, 4096)              8392704   
_________________________________________________________________
activation_1693 (Activation) (None, 4096)              0         
_________________________________________________________________
dropout_1693 (Dropout)       (None, 4096)              0         
_________________________________________________________________
dense_354 (Dense)            (None, 100)               409700    
=================================================================
Total params: 10,494,759
Trainable params: 10,488,583
Non-trainable params: 6,176
_________________________________________________________________
