Model: "sequential_372"
_________________________________________________________________
Layer (type)                 Output Shape              Param #   
=================================================================
separable_conv2d_3155 (Separ (None, 32, 32, 1024)      4123      
_________________________________________________________________
batch_normalization_1684 (Ba (None, 32, 32, 1024)      4096      
_________________________________________________________________
activation_3423 (Activation) (None, 32, 32, 1024)      0         
_________________________________________________________________
dropout_3423 (Dropout)       (None, 32, 32, 1024)      0         
_________________________________________________________________
separable_conv2d_3156 (Separ (None, 32, 32, 32)        42016     
_________________________________________________________________
activation_3424 (Activation) (None, 32, 32, 32)        0         
_________________________________________________________________
dropout_3424 (Dropout)       (None, 32, 32, 32)        0         
_________________________________________________________________
max_pooling2d_569 (MaxPoolin (None, 16, 16, 32)        0         
_________________________________________________________________
separable_conv2d_3157 (Separ (None, 16, 16, 512)       17184     
_________________________________________________________________
activation_3425 (Activation) (None, 16, 16, 512)       0         
_________________________________________________________________
dropout_3425 (Dropout)       (None, 16, 16, 512)       0         
_________________________________________________________________
separable_conv2d_3158 (Separ (None, 16, 16, 1024)      529920    
_________________________________________________________________
batch_normalization_1685 (Ba (None, 16, 16, 1024)      4096      
_________________________________________________________________
activation_3426 (Activation) (None, 16, 16, 1024)      0         
_________________________________________________________________
dropout_3426 (Dropout)       (None, 16, 16, 1024)      0         
_________________________________________________________________
separable_conv2d_3159 (Separ (None, 16, 16, 1024)      1058816   
_________________________________________________________________
batch_normalization_1686 (Ba (None, 16, 16, 1024)      4096      
_________________________________________________________________
activation_3427 (Activation) (None, 16, 16, 1024)      0         
_________________________________________________________________
dropout_3427 (Dropout)       (None, 16, 16, 1024)      0         
_________________________________________________________________
separable_conv2d_3160 (Separ (None, 16, 16, 16)        25616     
_________________________________________________________________
batch_normalization_1687 (Ba (None, 16, 16, 16)        64        
_________________________________________________________________
activation_3428 (Activation) (None, 16, 16, 16)        0         
_________________________________________________________________
dropout_3428 (Dropout)       (None, 16, 16, 16)        0         
_________________________________________________________________
separable_conv2d_3161 (Separ (None, 16, 16, 64)        1232      
_________________________________________________________________
activation_3429 (Activation) (None, 16, 16, 64)        0         
_________________________________________________________________
dropout_3429 (Dropout)       (None, 16, 16, 64)        0         
_________________________________________________________________
separable_conv2d_3162 (Separ (None, 16, 16, 16)        1616      
_________________________________________________________________
activation_3430 (Activation) (None, 16, 16, 16)        0         
_________________________________________________________________
dropout_3430 (Dropout)       (None, 16, 16, 16)        0         
_________________________________________________________________
flatten_372 (Flatten)        (None, 4096)              0         
_________________________________________________________________
dense_640 (Dense)            (None, 100)               409700    
=================================================================
Total params: 2,102,575
Trainable params: 2,096,399
Non-trainable params: 6,176
_________________________________________________________________
