Model: "sequential_56"
_________________________________________________________________
Layer (type)                 Output Shape              Param #   
=================================================================
separable_conv2d_556 (Separa (None, 32, 32, 1024)      4123      
_________________________________________________________________
batch_normalization_316 (Bat (None, 32, 32, 1024)      4096      
_________________________________________________________________
activation_636 (Activation)  (None, 32, 32, 1024)      0         
_________________________________________________________________
dropout_636 (Dropout)        (None, 32, 32, 1024)      0         
_________________________________________________________________
max_pooling2d_128 (MaxPoolin (None, 16, 16, 1024)      0         
_________________________________________________________________
separable_conv2d_557 (Separa (None, 16, 16, 32)        42016     
_________________________________________________________________
activation_637 (Activation)  (None, 16, 16, 32)        0         
_________________________________________________________________
dropout_637 (Dropout)        (None, 16, 16, 32)        0         
_________________________________________________________________
max_pooling2d_129 (MaxPoolin (None, 8, 8, 32)          0         
_________________________________________________________________
separable_conv2d_558 (Separa (None, 8, 8, 512)         17184     
_________________________________________________________________
activation_638 (Activation)  (None, 8, 8, 512)         0         
_________________________________________________________________
dropout_638 (Dropout)        (None, 8, 8, 512)         0         
_________________________________________________________________
separable_conv2d_559 (Separa (None, 8, 8, 1024)        529920    
_________________________________________________________________
batch_normalization_317 (Bat (None, 8, 8, 1024)        4096      
_________________________________________________________________
activation_639 (Activation)  (None, 8, 8, 1024)        0         
_________________________________________________________________
dropout_639 (Dropout)        (None, 8, 8, 1024)        0         
_________________________________________________________________
separable_conv2d_560 (Separa (None, 8, 8, 1024)        1058816   
_________________________________________________________________
batch_normalization_318 (Bat (None, 8, 8, 1024)        4096      
_________________________________________________________________
activation_640 (Activation)  (None, 8, 8, 1024)        0         
_________________________________________________________________
dropout_640 (Dropout)        (None, 8, 8, 1024)        0         
_________________________________________________________________
separable_conv2d_561 (Separa (None, 8, 8, 16)          25616     
_________________________________________________________________
batch_normalization_319 (Bat (None, 8, 8, 16)          64        
_________________________________________________________________
activation_641 (Activation)  (None, 8, 8, 16)          0         
_________________________________________________________________
dropout_641 (Dropout)        (None, 8, 8, 16)          0         
_________________________________________________________________
separable_conv2d_562 (Separa (None, 8, 8, 16)          416       
_________________________________________________________________
batch_normalization_320 (Bat (None, 8, 8, 16)          64        
_________________________________________________________________
activation_642 (Activation)  (None, 8, 8, 16)          0         
_________________________________________________________________
dropout_642 (Dropout)        (None, 8, 8, 16)          0         
_________________________________________________________________
separable_conv2d_563 (Separa (None, 8, 8, 512)         8848      
_________________________________________________________________
activation_643 (Activation)  (None, 8, 8, 512)         0         
_________________________________________________________________
dropout_643 (Dropout)        (None, 8, 8, 512)         0         
_________________________________________________________________
separable_conv2d_564 (Separa (None, 8, 8, 64)          37440     
_________________________________________________________________
activation_644 (Activation)  (None, 8, 8, 64)          0         
_________________________________________________________________
dropout_644 (Dropout)        (None, 8, 8, 64)          0         
_________________________________________________________________
separable_conv2d_565 (Separa (None, 8, 8, 8)           1096      
_________________________________________________________________
activation_645 (Activation)  (None, 8, 8, 8)           0         
_________________________________________________________________
dropout_645 (Dropout)        (None, 8, 8, 8)           0         
_________________________________________________________________
flatten_56 (Flatten)         (None, 512)               0         
_________________________________________________________________
dense_136 (Dense)            (None, 4096)              2101248   
_________________________________________________________________
activation_646 (Activation)  (None, 4096)              0         
_________________________________________________________________
dropout_646 (Dropout)        (None, 4096)              0         
_________________________________________________________________
dense_137 (Dense)            (None, 100)               409700    
=================================================================
Total params: 4,248,839
Trainable params: 4,242,631
Non-trainable params: 6,208
_________________________________________________________________
