Model: "sequential_270"
_________________________________________________________________
Layer (type)                 Output Shape              Param #   
=================================================================
separable_conv2d_2341 (Separ (None, 32, 32, 128)       539       
_________________________________________________________________
batch_normalization_1276 (Ba (None, 32, 32, 128)       512       
_________________________________________________________________
activation_2588 (Activation) (None, 32, 32, 128)       0         
_________________________________________________________________
dropout_2588 (Dropout)       (None, 32, 32, 128)       0         
_________________________________________________________________
separable_conv2d_2342 (Separ (None, 32, 32, 32)        5280      
_________________________________________________________________
activation_2589 (Activation) (None, 32, 32, 32)        0         
_________________________________________________________________
dropout_2589 (Dropout)       (None, 32, 32, 32)        0         
_________________________________________________________________
max_pooling2d_456 (MaxPoolin (None, 16, 16, 32)        0         
_________________________________________________________________
separable_conv2d_2343 (Separ (None, 16, 16, 512)       17184     
_________________________________________________________________
activation_2590 (Activation) (None, 16, 16, 512)       0         
_________________________________________________________________
dropout_2590 (Dropout)       (None, 16, 16, 512)       0         
_________________________________________________________________
separable_conv2d_2344 (Separ (None, 16, 16, 1024)      529920    
_________________________________________________________________
batch_normalization_1277 (Ba (None, 16, 16, 1024)      4096      
_________________________________________________________________
activation_2591 (Activation) (None, 16, 16, 1024)      0         
_________________________________________________________________
dropout_2591 (Dropout)       (None, 16, 16, 1024)      0         
_________________________________________________________________
separable_conv2d_2345 (Separ (None, 16, 16, 1024)      1058816   
_________________________________________________________________
activation_2592 (Activation) (None, 16, 16, 1024)      0         
_________________________________________________________________
dropout_2592 (Dropout)       (None, 16, 16, 1024)      0         
_________________________________________________________________
separable_conv2d_2346 (Separ (None, 16, 16, 64)        74816     
_________________________________________________________________
batch_normalization_1278 (Ba (None, 16, 16, 64)        256       
_________________________________________________________________
activation_2593 (Activation) (None, 16, 16, 64)        0         
_________________________________________________________________
dropout_2593 (Dropout)       (None, 16, 16, 64)        0         
_________________________________________________________________
separable_conv2d_2347 (Separ (None, 16, 16, 64)        4736      
_________________________________________________________________
activation_2594 (Activation) (None, 16, 16, 64)        0         
_________________________________________________________________
dropout_2594 (Dropout)       (None, 16, 16, 64)        0         
_________________________________________________________________
separable_conv2d_2348 (Separ (None, 16, 16, 16)        1616      
_________________________________________________________________
activation_2595 (Activation) (None, 16, 16, 16)        0         
_________________________________________________________________
dropout_2595 (Dropout)       (None, 16, 16, 16)        0         
_________________________________________________________________
flatten_270 (Flatten)        (None, 4096)              0         
_________________________________________________________________
dense_517 (Dense)            (None, 4096)              16781312  
_________________________________________________________________
activation_2596 (Activation) (None, 4096)              0         
_________________________________________________________________
dropout_2596 (Dropout)       (None, 4096)              0         
_________________________________________________________________
dense_518 (Dense)            (None, 100)               409700    
=================================================================
Total params: 18,888,783
Trainable params: 18,886,351
Non-trainable params: 2,432
_________________________________________________________________
