Model: "sequential_44"
_________________________________________________________________
Layer (type)                 Output Shape              Param #   
=================================================================
separable_conv2d_436 (Separa (None, 32, 32, 1024)      4123      
_________________________________________________________________
batch_normalization_249 (Bat (None, 32, 32, 1024)      4096      
_________________________________________________________________
activation_501 (Activation)  (None, 32, 32, 1024)      0         
_________________________________________________________________
dropout_501 (Dropout)        (None, 32, 32, 1024)      0         
_________________________________________________________________
max_pooling2d_101 (MaxPoolin (None, 16, 16, 1024)      0         
_________________________________________________________________
separable_conv2d_437 (Separa (None, 16, 16, 32)        42016     
_________________________________________________________________
activation_502 (Activation)  (None, 16, 16, 32)        0         
_________________________________________________________________
dropout_502 (Dropout)        (None, 16, 16, 32)        0         
_________________________________________________________________
max_pooling2d_102 (MaxPoolin (None, 8, 8, 32)          0         
_________________________________________________________________
separable_conv2d_438 (Separa (None, 8, 8, 512)         17184     
_________________________________________________________________
activation_503 (Activation)  (None, 8, 8, 512)         0         
_________________________________________________________________
dropout_503 (Dropout)        (None, 8, 8, 512)         0         
_________________________________________________________________
separable_conv2d_439 (Separa (None, 8, 8, 1024)        529920    
_________________________________________________________________
batch_normalization_250 (Bat (None, 8, 8, 1024)        4096      
_________________________________________________________________
activation_504 (Activation)  (None, 8, 8, 1024)        0         
_________________________________________________________________
dropout_504 (Dropout)        (None, 8, 8, 1024)        0         
_________________________________________________________________
separable_conv2d_440 (Separa (None, 8, 8, 1024)        1058816   
_________________________________________________________________
batch_normalization_251 (Bat (None, 8, 8, 1024)        4096      
_________________________________________________________________
activation_505 (Activation)  (None, 8, 8, 1024)        0         
_________________________________________________________________
dropout_505 (Dropout)        (None, 8, 8, 1024)        0         
_________________________________________________________________
separable_conv2d_441 (Separa (None, 8, 8, 16)          25616     
_________________________________________________________________
batch_normalization_252 (Bat (None, 8, 8, 16)          64        
_________________________________________________________________
activation_506 (Activation)  (None, 8, 8, 16)          0         
_________________________________________________________________
dropout_506 (Dropout)        (None, 8, 8, 16)          0         
_________________________________________________________________
separable_conv2d_442 (Separa (None, 8, 8, 16)          416       
_________________________________________________________________
batch_normalization_253 (Bat (None, 8, 8, 16)          64        
_________________________________________________________________
activation_507 (Activation)  (None, 8, 8, 16)          0         
_________________________________________________________________
dropout_507 (Dropout)        (None, 8, 8, 16)          0         
_________________________________________________________________
separable_conv2d_443 (Separa (None, 8, 8, 512)         8848      
_________________________________________________________________
activation_508 (Activation)  (None, 8, 8, 512)         0         
_________________________________________________________________
dropout_508 (Dropout)        (None, 8, 8, 512)         0         
_________________________________________________________________
separable_conv2d_444 (Separa (None, 8, 8, 64)          37440     
_________________________________________________________________
activation_509 (Activation)  (None, 8, 8, 64)          0         
_________________________________________________________________
dropout_509 (Dropout)        (None, 8, 8, 64)          0         
_________________________________________________________________
max_pooling2d_103 (MaxPoolin (None, 4, 4, 64)          0         
_________________________________________________________________
separable_conv2d_445 (Separa (None, 4, 4, 256)         17216     
_________________________________________________________________
batch_normalization_254 (Bat (None, 4, 4, 256)         1024      
_________________________________________________________________
activation_510 (Activation)  (None, 4, 4, 256)         0         
_________________________________________________________________
dropout_510 (Dropout)        (None, 4, 4, 256)         0         
_________________________________________________________________
separable_conv2d_446 (Separa (None, 4, 4, 512)         133888    
_________________________________________________________________
batch_normalization_255 (Bat (None, 4, 4, 512)         2048      
_________________________________________________________________
activation_511 (Activation)  (None, 4, 4, 512)         0         
_________________________________________________________________
dropout_511 (Dropout)        (None, 4, 4, 512)         0         
_________________________________________________________________
flatten_44 (Flatten)         (None, 8192)              0         
_________________________________________________________________
dense_109 (Dense)            (None, 64)                524352    
_________________________________________________________________
activation_512 (Activation)  (None, 64)                0         
_________________________________________________________________
dropout_512 (Dropout)        (None, 64)                0         
_________________________________________________________________
dense_110 (Dense)            (None, 1024)              66560     
_________________________________________________________________
activation_513 (Activation)  (None, 1024)              0         
_________________________________________________________________
dropout_513 (Dropout)        (None, 1024)              0         
_________________________________________________________________
dense_111 (Dense)            (None, 100)               102500    
=================================================================
Total params: 2,584,383
Trainable params: 2,576,639
Non-trainable params: 7,744
_________________________________________________________________
