Model: "sequential_269"
_________________________________________________________________
Layer (type)                 Output Shape              Param #   
=================================================================
separable_conv2d_2333 (Separ (None, 32, 32, 1024)      4123      
_________________________________________________________________
batch_normalization_1272 (Ba (None, 32, 32, 1024)      4096      
_________________________________________________________________
activation_2579 (Activation) (None, 32, 32, 1024)      0         
_________________________________________________________________
dropout_2579 (Dropout)       (None, 32, 32, 1024)      0         
_________________________________________________________________
separable_conv2d_2334 (Separ (None, 32, 32, 32)        42016     
_________________________________________________________________
activation_2580 (Activation) (None, 32, 32, 32)        0         
_________________________________________________________________
dropout_2580 (Dropout)       (None, 32, 32, 32)        0         
_________________________________________________________________
max_pooling2d_455 (MaxPoolin (None, 16, 16, 32)        0         
_________________________________________________________________
separable_conv2d_2335 (Separ (None, 16, 16, 512)       17184     
_________________________________________________________________
activation_2581 (Activation) (None, 16, 16, 512)       0         
_________________________________________________________________
dropout_2581 (Dropout)       (None, 16, 16, 512)       0         
_________________________________________________________________
separable_conv2d_2336 (Separ (None, 16, 16, 1024)      529920    
_________________________________________________________________
batch_normalization_1273 (Ba (None, 16, 16, 1024)      4096      
_________________________________________________________________
activation_2582 (Activation) (None, 16, 16, 1024)      0         
_________________________________________________________________
dropout_2582 (Dropout)       (None, 16, 16, 1024)      0         
_________________________________________________________________
separable_conv2d_2337 (Separ (None, 16, 16, 1024)      1058816   
_________________________________________________________________
batch_normalization_1274 (Ba (None, 16, 16, 1024)      4096      
_________________________________________________________________
activation_2583 (Activation) (None, 16, 16, 1024)      0         
_________________________________________________________________
dropout_2583 (Dropout)       (None, 16, 16, 1024)      0         
_________________________________________________________________
separable_conv2d_2338 (Separ (None, 16, 16, 16)        25616     
_________________________________________________________________
batch_normalization_1275 (Ba (None, 16, 16, 16)        64        
_________________________________________________________________
activation_2584 (Activation) (None, 16, 16, 16)        0         
_________________________________________________________________
dropout_2584 (Dropout)       (None, 16, 16, 16)        0         
_________________________________________________________________
separable_conv2d_2339 (Separ (None, 16, 16, 64)        1232      
_________________________________________________________________
activation_2585 (Activation) (None, 16, 16, 64)        0         
_________________________________________________________________
dropout_2585 (Dropout)       (None, 16, 16, 64)        0         
_________________________________________________________________
separable_conv2d_2340 (Separ (None, 16, 16, 16)        1616      
_________________________________________________________________
activation_2586 (Activation) (None, 16, 16, 16)        0         
_________________________________________________________________
dropout_2586 (Dropout)       (None, 16, 16, 16)        0         
_________________________________________________________________
flatten_269 (Flatten)        (None, 4096)              0         
_________________________________________________________________
dense_515 (Dense)            (None, 4096)              16781312  
_________________________________________________________________
activation_2587 (Activation) (None, 4096)              0         
_________________________________________________________________
dropout_2587 (Dropout)       (None, 4096)              0         
_________________________________________________________________
dense_516 (Dense)            (None, 100)               409700    
=================================================================
Total params: 18,883,887
Trainable params: 18,877,711
Non-trainable params: 6,176
_________________________________________________________________
