Model: "sequential_43"
_________________________________________________________________
Layer (type)                 Output Shape              Param #   
=================================================================
separable_conv2d_426 (Separa (None, 32, 32, 1024)      4123      
_________________________________________________________________
batch_normalization_244 (Bat (None, 32, 32, 1024)      4096      
_________________________________________________________________
activation_490 (Activation)  (None, 32, 32, 1024)      0         
_________________________________________________________________
dropout_490 (Dropout)        (None, 32, 32, 1024)      0         
_________________________________________________________________
max_pooling2d_99 (MaxPooling (None, 16, 16, 1024)      0         
_________________________________________________________________
separable_conv2d_427 (Separa (None, 16, 16, 32)        42016     
_________________________________________________________________
activation_491 (Activation)  (None, 16, 16, 32)        0         
_________________________________________________________________
dropout_491 (Dropout)        (None, 16, 16, 32)        0         
_________________________________________________________________
max_pooling2d_100 (MaxPoolin (None, 8, 8, 32)          0         
_________________________________________________________________
separable_conv2d_428 (Separa (None, 8, 8, 512)         17184     
_________________________________________________________________
activation_492 (Activation)  (None, 8, 8, 512)         0         
_________________________________________________________________
dropout_492 (Dropout)        (None, 8, 8, 512)         0         
_________________________________________________________________
separable_conv2d_429 (Separa (None, 8, 8, 1024)        529920    
_________________________________________________________________
batch_normalization_245 (Bat (None, 8, 8, 1024)        4096      
_________________________________________________________________
activation_493 (Activation)  (None, 8, 8, 1024)        0         
_________________________________________________________________
dropout_493 (Dropout)        (None, 8, 8, 1024)        0         
_________________________________________________________________
separable_conv2d_430 (Separa (None, 8, 8, 1024)        1058816   
_________________________________________________________________
batch_normalization_246 (Bat (None, 8, 8, 1024)        4096      
_________________________________________________________________
activation_494 (Activation)  (None, 8, 8, 1024)        0         
_________________________________________________________________
dropout_494 (Dropout)        (None, 8, 8, 1024)        0         
_________________________________________________________________
separable_conv2d_431 (Separa (None, 8, 8, 16)          25616     
_________________________________________________________________
batch_normalization_247 (Bat (None, 8, 8, 16)          64        
_________________________________________________________________
activation_495 (Activation)  (None, 8, 8, 16)          0         
_________________________________________________________________
dropout_495 (Dropout)        (None, 8, 8, 16)          0         
_________________________________________________________________
separable_conv2d_432 (Separa (None, 8, 8, 16)          416       
_________________________________________________________________
batch_normalization_248 (Bat (None, 8, 8, 16)          64        
_________________________________________________________________
activation_496 (Activation)  (None, 8, 8, 16)          0         
_________________________________________________________________
dropout_496 (Dropout)        (None, 8, 8, 16)          0         
_________________________________________________________________
separable_conv2d_433 (Separa (None, 8, 8, 512)         8848      
_________________________________________________________________
activation_497 (Activation)  (None, 8, 8, 512)         0         
_________________________________________________________________
dropout_497 (Dropout)        (None, 8, 8, 512)         0         
_________________________________________________________________
separable_conv2d_434 (Separa (None, 8, 8, 64)          37440     
_________________________________________________________________
activation_498 (Activation)  (None, 8, 8, 64)          0         
_________________________________________________________________
dropout_498 (Dropout)        (None, 8, 8, 64)          0         
_________________________________________________________________
separable_conv2d_435 (Separa (None, 8, 8, 8)           1096      
_________________________________________________________________
activation_499 (Activation)  (None, 8, 8, 8)           0         
_________________________________________________________________
dropout_499 (Dropout)        (None, 8, 8, 8)           0         
_________________________________________________________________
flatten_43 (Flatten)         (None, 512)               0         
_________________________________________________________________
dense_107 (Dense)            (None, 4096)              2101248   
_________________________________________________________________
activation_500 (Activation)  (None, 4096)              0         
_________________________________________________________________
dropout_500 (Dropout)        (None, 4096)              0         
_________________________________________________________________
dense_108 (Dense)            (None, 100)               409700    
=================================================================
Total params: 4,248,839
Trainable params: 4,242,631
Non-trainable params: 6,208
_________________________________________________________________
