Model: "sequential_371"
_________________________________________________________________
Layer (type)                 Output Shape              Param #   
=================================================================
separable_conv2d_3147 (Separ (None, 32, 32, 1024)      4123      
_________________________________________________________________
batch_normalization_1680 (Ba (None, 32, 32, 1024)      4096      
_________________________________________________________________
activation_3415 (Activation) (None, 32, 32, 1024)      0         
_________________________________________________________________
dropout_3415 (Dropout)       (None, 32, 32, 1024)      0         
_________________________________________________________________
separable_conv2d_3148 (Separ (None, 32, 32, 32)        42016     
_________________________________________________________________
activation_3416 (Activation) (None, 32, 32, 32)        0         
_________________________________________________________________
dropout_3416 (Dropout)       (None, 32, 32, 32)        0         
_________________________________________________________________
max_pooling2d_568 (MaxPoolin (None, 16, 16, 32)        0         
_________________________________________________________________
separable_conv2d_3149 (Separ (None, 16, 16, 512)       17184     
_________________________________________________________________
activation_3417 (Activation) (None, 16, 16, 512)       0         
_________________________________________________________________
dropout_3417 (Dropout)       (None, 16, 16, 512)       0         
_________________________________________________________________
separable_conv2d_3150 (Separ (None, 16, 16, 1024)      529920    
_________________________________________________________________
batch_normalization_1681 (Ba (None, 16, 16, 1024)      4096      
_________________________________________________________________
activation_3418 (Activation) (None, 16, 16, 1024)      0         
_________________________________________________________________
dropout_3418 (Dropout)       (None, 16, 16, 1024)      0         
_________________________________________________________________
separable_conv2d_3151 (Separ (None, 16, 16, 1024)      1058816   
_________________________________________________________________
batch_normalization_1682 (Ba (None, 16, 16, 1024)      4096      
_________________________________________________________________
activation_3419 (Activation) (None, 16, 16, 1024)      0         
_________________________________________________________________
dropout_3419 (Dropout)       (None, 16, 16, 1024)      0         
_________________________________________________________________
separable_conv2d_3152 (Separ (None, 16, 16, 16)        25616     
_________________________________________________________________
batch_normalization_1683 (Ba (None, 16, 16, 16)        64        
_________________________________________________________________
activation_3420 (Activation) (None, 16, 16, 16)        0         
_________________________________________________________________
dropout_3420 (Dropout)       (None, 16, 16, 16)        0         
_________________________________________________________________
separable_conv2d_3153 (Separ (None, 16, 16, 64)        1232      
_________________________________________________________________
activation_3421 (Activation) (None, 16, 16, 64)        0         
_________________________________________________________________
dropout_3421 (Dropout)       (None, 16, 16, 64)        0         
_________________________________________________________________
separable_conv2d_3154 (Separ (None, 16, 16, 16)        1616      
_________________________________________________________________
activation_3422 (Activation) (None, 16, 16, 16)        0         
_________________________________________________________________
dropout_3422 (Dropout)       (None, 16, 16, 16)        0         
_________________________________________________________________
flatten_371 (Flatten)        (None, 4096)              0         
_________________________________________________________________
dense_639 (Dense)            (None, 100)               409700    
=================================================================
Total params: 2,102,575
Trainable params: 2,096,399
Non-trainable params: 6,176
_________________________________________________________________
