Model: "sequential_122"
_________________________________________________________________
Layer (type)                 Output Shape              Param #   
=================================================================
separable_conv2d_1150 (Separ (None, 32, 32, 1024)      4123      
_________________________________________________________________
batch_normalization_643 (Bat (None, 32, 32, 1024)      4096      
_________________________________________________________________
activation_1299 (Activation) (None, 32, 32, 1024)      0         
_________________________________________________________________
dropout_1299 (Dropout)       (None, 32, 32, 1024)      0         
_________________________________________________________________
max_pooling2d_260 (MaxPoolin (None, 16, 16, 1024)      0         
_________________________________________________________________
separable_conv2d_1151 (Separ (None, 16, 16, 32)        42016     
_________________________________________________________________
activation_1300 (Activation) (None, 16, 16, 32)        0         
_________________________________________________________________
dropout_1300 (Dropout)       (None, 16, 16, 32)        0         
_________________________________________________________________
max_pooling2d_261 (MaxPoolin (None, 8, 8, 32)          0         
_________________________________________________________________
separable_conv2d_1152 (Separ (None, 8, 8, 512)         17184     
_________________________________________________________________
activation_1301 (Activation) (None, 8, 8, 512)         0         
_________________________________________________________________
dropout_1301 (Dropout)       (None, 8, 8, 512)         0         
_________________________________________________________________
separable_conv2d_1153 (Separ (None, 8, 8, 1024)        529920    
_________________________________________________________________
batch_normalization_644 (Bat (None, 8, 8, 1024)        4096      
_________________________________________________________________
activation_1302 (Activation) (None, 8, 8, 1024)        0         
_________________________________________________________________
dropout_1302 (Dropout)       (None, 8, 8, 1024)        0         
_________________________________________________________________
separable_conv2d_1154 (Separ (None, 8, 8, 1024)        1058816   
_________________________________________________________________
batch_normalization_645 (Bat (None, 8, 8, 1024)        4096      
_________________________________________________________________
activation_1303 (Activation) (None, 8, 8, 1024)        0         
_________________________________________________________________
dropout_1303 (Dropout)       (None, 8, 8, 1024)        0         
_________________________________________________________________
separable_conv2d_1155 (Separ (None, 8, 8, 16)          25616     
_________________________________________________________________
batch_normalization_646 (Bat (None, 8, 8, 16)          64        
_________________________________________________________________
activation_1304 (Activation) (None, 8, 8, 16)          0         
_________________________________________________________________
dropout_1304 (Dropout)       (None, 8, 8, 16)          0         
_________________________________________________________________
separable_conv2d_1156 (Separ (None, 8, 8, 16)          416       
_________________________________________________________________
batch_normalization_647 (Bat (None, 8, 8, 16)          64        
_________________________________________________________________
activation_1305 (Activation) (None, 8, 8, 16)          0         
_________________________________________________________________
dropout_1305 (Dropout)       (None, 8, 8, 16)          0         
_________________________________________________________________
separable_conv2d_1157 (Separ (None, 8, 8, 8)           280       
_________________________________________________________________
activation_1306 (Activation) (None, 8, 8, 8)           0         
_________________________________________________________________
dropout_1306 (Dropout)       (None, 8, 8, 8)           0         
_________________________________________________________________
flatten_122 (Flatten)        (None, 512)               0         
_________________________________________________________________
dense_271 (Dense)            (None, 4096)              2101248   
_________________________________________________________________
activation_1307 (Activation) (None, 4096)              0         
_________________________________________________________________
dropout_1307 (Dropout)       (None, 4096)              0         
_________________________________________________________________
dense_272 (Dense)            (None, 100)               409700    
=================================================================
Total params: 4,201,735
Trainable params: 4,195,527
Non-trainable params: 6,208
_________________________________________________________________
