Model: "sequential_333"
_________________________________________________________________
Layer (type)                 Output Shape              Param #   
=================================================================
separable_conv2d_2845 (Separ (None, 32, 32, 1024)      4123      
_________________________________________________________________
batch_normalization_1525 (Ba (None, 32, 32, 1024)      4096      
_________________________________________________________________
activation_3106 (Activation) (None, 32, 32, 1024)      0         
_________________________________________________________________
dropout_3106 (Dropout)       (None, 32, 32, 1024)      0         
_________________________________________________________________
separable_conv2d_2846 (Separ (None, 32, 32, 32)        42016     
_________________________________________________________________
activation_3107 (Activation) (None, 32, 32, 32)        0         
_________________________________________________________________
dropout_3107 (Dropout)       (None, 32, 32, 32)        0         
_________________________________________________________________
max_pooling2d_526 (MaxPoolin (None, 16, 16, 32)        0         
_________________________________________________________________
separable_conv2d_2847 (Separ (None, 16, 16, 512)       17184     
_________________________________________________________________
activation_3108 (Activation) (None, 16, 16, 512)       0         
_________________________________________________________________
dropout_3108 (Dropout)       (None, 16, 16, 512)       0         
_________________________________________________________________
separable_conv2d_2848 (Separ (None, 16, 16, 1024)      529920    
_________________________________________________________________
batch_normalization_1526 (Ba (None, 16, 16, 1024)      4096      
_________________________________________________________________
activation_3109 (Activation) (None, 16, 16, 1024)      0         
_________________________________________________________________
dropout_3109 (Dropout)       (None, 16, 16, 1024)      0         
_________________________________________________________________
separable_conv2d_2849 (Separ (None, 16, 16, 1024)      1058816   
_________________________________________________________________
batch_normalization_1527 (Ba (None, 16, 16, 1024)      4096      
_________________________________________________________________
activation_3110 (Activation) (None, 16, 16, 1024)      0         
_________________________________________________________________
dropout_3110 (Dropout)       (None, 16, 16, 1024)      0         
_________________________________________________________________
separable_conv2d_2850 (Separ (None, 16, 16, 16)        25616     
_________________________________________________________________
batch_normalization_1528 (Ba (None, 16, 16, 16)        64        
_________________________________________________________________
activation_3111 (Activation) (None, 16, 16, 16)        0         
_________________________________________________________________
dropout_3111 (Dropout)       (None, 16, 16, 16)        0         
_________________________________________________________________
separable_conv2d_2851 (Separ (None, 16, 16, 64)        1232      
_________________________________________________________________
activation_3112 (Activation) (None, 16, 16, 64)        0         
_________________________________________________________________
dropout_3112 (Dropout)       (None, 16, 16, 64)        0         
_________________________________________________________________
separable_conv2d_2852 (Separ (None, 16, 16, 16)        1616      
_________________________________________________________________
activation_3113 (Activation) (None, 16, 16, 16)        0         
_________________________________________________________________
dropout_3113 (Dropout)       (None, 16, 16, 16)        0         
_________________________________________________________________
flatten_333 (Flatten)        (None, 4096)              0         
_________________________________________________________________
dense_594 (Dense)            (None, 100)               409700    
=================================================================
Total params: 2,102,575
Trainable params: 2,096,399
Non-trainable params: 6,176
_________________________________________________________________
