Model: "sequential_141"
_________________________________________________________________
Layer (type)                 Output Shape              Param #   
=================================================================
separable_conv2d_1308 (Separ (None, 32, 32, 1024)      4123      
_________________________________________________________________
batch_normalization_734 (Bat (None, 32, 32, 1024)      4096      
_________________________________________________________________
activation_1476 (Activation) (None, 32, 32, 1024)      0         
_________________________________________________________________
dropout_1476 (Dropout)       (None, 32, 32, 1024)      0         
_________________________________________________________________
separable_conv2d_1309 (Separ (None, 32, 32, 32)        42016     
_________________________________________________________________
activation_1477 (Activation) (None, 32, 32, 32)        0         
_________________________________________________________________
dropout_1477 (Dropout)       (None, 32, 32, 32)        0         
_________________________________________________________________
max_pooling2d_298 (MaxPoolin (None, 16, 16, 32)        0         
_________________________________________________________________
separable_conv2d_1310 (Separ (None, 16, 16, 512)       17184     
_________________________________________________________________
activation_1478 (Activation) (None, 16, 16, 512)       0         
_________________________________________________________________
dropout_1478 (Dropout)       (None, 16, 16, 512)       0         
_________________________________________________________________
separable_conv2d_1311 (Separ (None, 16, 16, 1024)      529920    
_________________________________________________________________
batch_normalization_735 (Bat (None, 16, 16, 1024)      4096      
_________________________________________________________________
activation_1479 (Activation) (None, 16, 16, 1024)      0         
_________________________________________________________________
dropout_1479 (Dropout)       (None, 16, 16, 1024)      0         
_________________________________________________________________
separable_conv2d_1312 (Separ (None, 16, 16, 1024)      1058816   
_________________________________________________________________
batch_normalization_736 (Bat (None, 16, 16, 1024)      4096      
_________________________________________________________________
activation_1480 (Activation) (None, 16, 16, 1024)      0         
_________________________________________________________________
dropout_1480 (Dropout)       (None, 16, 16, 1024)      0         
_________________________________________________________________
separable_conv2d_1313 (Separ (None, 16, 16, 16)        25616     
_________________________________________________________________
batch_normalization_737 (Bat (None, 16, 16, 16)        64        
_________________________________________________________________
activation_1481 (Activation) (None, 16, 16, 16)        0         
_________________________________________________________________
dropout_1481 (Dropout)       (None, 16, 16, 16)        0         
_________________________________________________________________
separable_conv2d_1314 (Separ (None, 16, 16, 64)        1232      
_________________________________________________________________
activation_1482 (Activation) (None, 16, 16, 64)        0         
_________________________________________________________________
dropout_1482 (Dropout)       (None, 16, 16, 64)        0         
_________________________________________________________________
separable_conv2d_1315 (Separ (None, 16, 16, 16)        1616      
_________________________________________________________________
activation_1483 (Activation) (None, 16, 16, 16)        0         
_________________________________________________________________
dropout_1483 (Dropout)       (None, 16, 16, 16)        0         
_________________________________________________________________
flatten_141 (Flatten)        (None, 4096)              0         
_________________________________________________________________
dense_309 (Dense)            (None, 4096)              16781312  
_________________________________________________________________
activation_1484 (Activation) (None, 4096)              0         
_________________________________________________________________
dropout_1484 (Dropout)       (None, 4096)              0         
_________________________________________________________________
dense_310 (Dense)            (None, 100)               409700    
=================================================================
Total params: 18,883,887
Trainable params: 18,877,711
Non-trainable params: 6,176
_________________________________________________________________
