Model: "sequential_48"
_________________________________________________________________
Layer (type)                 Output Shape              Param #   
=================================================================
separable_conv2d_477 (Separa (None, 32, 32, 1024)      4123      
_________________________________________________________________
batch_normalization_273 (Bat (None, 32, 32, 1024)      4096      
_________________________________________________________________
activation_548 (Activation)  (None, 32, 32, 1024)      0         
_________________________________________________________________
dropout_548 (Dropout)        (None, 32, 32, 1024)      0         
_________________________________________________________________
max_pooling2d_111 (MaxPoolin (None, 16, 16, 1024)      0         
_________________________________________________________________
separable_conv2d_478 (Separa (None, 16, 16, 32)        42016     
_________________________________________________________________
activation_549 (Activation)  (None, 16, 16, 32)        0         
_________________________________________________________________
dropout_549 (Dropout)        (None, 16, 16, 32)        0         
_________________________________________________________________
max_pooling2d_112 (MaxPoolin (None, 8, 8, 32)          0         
_________________________________________________________________
separable_conv2d_479 (Separa (None, 8, 8, 512)         17184     
_________________________________________________________________
activation_550 (Activation)  (None, 8, 8, 512)         0         
_________________________________________________________________
dropout_550 (Dropout)        (None, 8, 8, 512)         0         
_________________________________________________________________
separable_conv2d_480 (Separa (None, 8, 8, 1024)        529920    
_________________________________________________________________
batch_normalization_274 (Bat (None, 8, 8, 1024)        4096      
_________________________________________________________________
activation_551 (Activation)  (None, 8, 8, 1024)        0         
_________________________________________________________________
dropout_551 (Dropout)        (None, 8, 8, 1024)        0         
_________________________________________________________________
separable_conv2d_481 (Separa (None, 8, 8, 1024)        1058816   
_________________________________________________________________
batch_normalization_275 (Bat (None, 8, 8, 1024)        4096      
_________________________________________________________________
activation_552 (Activation)  (None, 8, 8, 1024)        0         
_________________________________________________________________
dropout_552 (Dropout)        (None, 8, 8, 1024)        0         
_________________________________________________________________
separable_conv2d_482 (Separa (None, 8, 8, 16)          25616     
_________________________________________________________________
batch_normalization_276 (Bat (None, 8, 8, 16)          64        
_________________________________________________________________
activation_553 (Activation)  (None, 8, 8, 16)          0         
_________________________________________________________________
dropout_553 (Dropout)        (None, 8, 8, 16)          0         
_________________________________________________________________
separable_conv2d_483 (Separa (None, 8, 8, 16)          416       
_________________________________________________________________
batch_normalization_277 (Bat (None, 8, 8, 16)          64        
_________________________________________________________________
activation_554 (Activation)  (None, 8, 8, 16)          0         
_________________________________________________________________
dropout_554 (Dropout)        (None, 8, 8, 16)          0         
_________________________________________________________________
separable_conv2d_484 (Separa (None, 8, 8, 512)         8848      
_________________________________________________________________
activation_555 (Activation)  (None, 8, 8, 512)         0         
_________________________________________________________________
dropout_555 (Dropout)        (None, 8, 8, 512)         0         
_________________________________________________________________
separable_conv2d_485 (Separa (None, 8, 8, 64)          37440     
_________________________________________________________________
activation_556 (Activation)  (None, 8, 8, 64)          0         
_________________________________________________________________
dropout_556 (Dropout)        (None, 8, 8, 64)          0         
_________________________________________________________________
separable_conv2d_486 (Separa (None, 8, 8, 8)           1096      
_________________________________________________________________
activation_557 (Activation)  (None, 8, 8, 8)           0         
_________________________________________________________________
dropout_557 (Dropout)        (None, 8, 8, 8)           0         
_________________________________________________________________
flatten_48 (Flatten)         (None, 512)               0         
_________________________________________________________________
dense_119 (Dense)            (None, 4096)              2101248   
_________________________________________________________________
activation_558 (Activation)  (None, 4096)              0         
_________________________________________________________________
dropout_558 (Dropout)        (None, 4096)              0         
_________________________________________________________________
dense_120 (Dense)            (None, 100)               409700    
=================================================================
Total params: 4,248,839
Trainable params: 4,242,631
Non-trainable params: 6,208
_________________________________________________________________
