Model: "sequential_156"
_________________________________________________________________
Layer (type)                 Output Shape              Param #   
=================================================================
separable_conv2d_1431 (Separ (None, 32, 32, 1024)      4123      
_________________________________________________________________
batch_normalization_804 (Bat (None, 32, 32, 1024)      4096      
_________________________________________________________________
activation_1613 (Activation) (None, 32, 32, 1024)      0         
_________________________________________________________________
dropout_1613 (Dropout)       (None, 32, 32, 1024)      0         
_________________________________________________________________
max_pooling2d_326 (MaxPoolin (None, 16, 16, 1024)      0         
_________________________________________________________________
separable_conv2d_1432 (Separ (None, 16, 16, 32)        42016     
_________________________________________________________________
activation_1614 (Activation) (None, 16, 16, 32)        0         
_________________________________________________________________
dropout_1614 (Dropout)       (None, 16, 16, 32)        0         
_________________________________________________________________
max_pooling2d_327 (MaxPoolin (None, 8, 8, 32)          0         
_________________________________________________________________
separable_conv2d_1433 (Separ (None, 8, 8, 512)         17184     
_________________________________________________________________
activation_1615 (Activation) (None, 8, 8, 512)         0         
_________________________________________________________________
dropout_1615 (Dropout)       (None, 8, 8, 512)         0         
_________________________________________________________________
separable_conv2d_1434 (Separ (None, 8, 8, 1024)        529920    
_________________________________________________________________
batch_normalization_805 (Bat (None, 8, 8, 1024)        4096      
_________________________________________________________________
activation_1616 (Activation) (None, 8, 8, 1024)        0         
_________________________________________________________________
dropout_1616 (Dropout)       (None, 8, 8, 1024)        0         
_________________________________________________________________
separable_conv2d_1435 (Separ (None, 8, 8, 1024)        1058816   
_________________________________________________________________
batch_normalization_806 (Bat (None, 8, 8, 1024)        4096      
_________________________________________________________________
activation_1617 (Activation) (None, 8, 8, 1024)        0         
_________________________________________________________________
dropout_1617 (Dropout)       (None, 8, 8, 1024)        0         
_________________________________________________________________
separable_conv2d_1436 (Separ (None, 8, 8, 16)          25616     
_________________________________________________________________
batch_normalization_807 (Bat (None, 8, 8, 16)          64        
_________________________________________________________________
activation_1618 (Activation) (None, 8, 8, 16)          0         
_________________________________________________________________
dropout_1618 (Dropout)       (None, 8, 8, 16)          0         
_________________________________________________________________
separable_conv2d_1437 (Separ (None, 8, 8, 16)          416       
_________________________________________________________________
batch_normalization_808 (Bat (None, 8, 8, 16)          64        
_________________________________________________________________
activation_1619 (Activation) (None, 8, 8, 16)          0         
_________________________________________________________________
dropout_1619 (Dropout)       (None, 8, 8, 16)          0         
_________________________________________________________________
separable_conv2d_1438 (Separ (None, 8, 8, 8)           280       
_________________________________________________________________
activation_1620 (Activation) (None, 8, 8, 8)           0         
_________________________________________________________________
dropout_1620 (Dropout)       (None, 8, 8, 8)           0         
_________________________________________________________________
flatten_156 (Flatten)        (None, 512)               0         
_________________________________________________________________
dense_338 (Dense)            (None, 4096)              2101248   
_________________________________________________________________
activation_1621 (Activation) (None, 4096)              0         
_________________________________________________________________
dropout_1621 (Dropout)       (None, 4096)              0         
_________________________________________________________________
dense_339 (Dense)            (None, 100)               409700    
=================================================================
Total params: 4,201,735
Trainable params: 4,195,527
Non-trainable params: 6,208
_________________________________________________________________
