Model: "sequential_353"
_________________________________________________________________
Layer (type)                 Output Shape              Param #   
=================================================================
separable_conv2d_3004 (Separ (None, 32, 32, 1024)      4123      
_________________________________________________________________
batch_normalization_1604 (Ba (None, 32, 32, 1024)      4096      
_________________________________________________________________
activation_3269 (Activation) (None, 32, 32, 1024)      0         
_________________________________________________________________
dropout_3269 (Dropout)       (None, 32, 32, 1024)      0         
_________________________________________________________________
separable_conv2d_3005 (Separ (None, 32, 32, 32)        42016     
_________________________________________________________________
activation_3270 (Activation) (None, 32, 32, 32)        0         
_________________________________________________________________
dropout_3270 (Dropout)       (None, 32, 32, 32)        0         
_________________________________________________________________
max_pooling2d_549 (MaxPoolin (None, 16, 16, 32)        0         
_________________________________________________________________
separable_conv2d_3006 (Separ (None, 16, 16, 512)       17184     
_________________________________________________________________
activation_3271 (Activation) (None, 16, 16, 512)       0         
_________________________________________________________________
dropout_3271 (Dropout)       (None, 16, 16, 512)       0         
_________________________________________________________________
separable_conv2d_3007 (Separ (None, 16, 16, 1024)      529920    
_________________________________________________________________
batch_normalization_1605 (Ba (None, 16, 16, 1024)      4096      
_________________________________________________________________
activation_3272 (Activation) (None, 16, 16, 1024)      0         
_________________________________________________________________
dropout_3272 (Dropout)       (None, 16, 16, 1024)      0         
_________________________________________________________________
separable_conv2d_3008 (Separ (None, 16, 16, 1024)      1058816   
_________________________________________________________________
batch_normalization_1606 (Ba (None, 16, 16, 1024)      4096      
_________________________________________________________________
activation_3273 (Activation) (None, 16, 16, 1024)      0         
_________________________________________________________________
dropout_3273 (Dropout)       (None, 16, 16, 1024)      0         
_________________________________________________________________
separable_conv2d_3009 (Separ (None, 16, 16, 16)        25616     
_________________________________________________________________
batch_normalization_1607 (Ba (None, 16, 16, 16)        64        
_________________________________________________________________
activation_3274 (Activation) (None, 16, 16, 16)        0         
_________________________________________________________________
dropout_3274 (Dropout)       (None, 16, 16, 16)        0         
_________________________________________________________________
separable_conv2d_3010 (Separ (None, 16, 16, 64)        1232      
_________________________________________________________________
batch_normalization_1608 (Ba (None, 16, 16, 64)        256       
_________________________________________________________________
activation_3275 (Activation) (None, 16, 16, 64)        0         
_________________________________________________________________
dropout_3275 (Dropout)       (None, 16, 16, 64)        0         
_________________________________________________________________
separable_conv2d_3011 (Separ (None, 16, 16, 16)        1616      
_________________________________________________________________
activation_3276 (Activation) (None, 16, 16, 16)        0         
_________________________________________________________________
dropout_3276 (Dropout)       (None, 16, 16, 16)        0         
_________________________________________________________________
flatten_353 (Flatten)        (None, 4096)              0         
_________________________________________________________________
dense_618 (Dense)            (None, 100)               409700    
=================================================================
Total params: 2,102,831
Trainable params: 2,096,527
Non-trainable params: 6,304
_________________________________________________________________
