Model: "sequential_327"
_________________________________________________________________
Layer (type)                 Output Shape              Param #   
=================================================================
separable_conv2d_2797 (Separ (None, 32, 32, 1024)      4123      
_________________________________________________________________
batch_normalization_1500 (Ba (None, 32, 32, 1024)      4096      
_________________________________________________________________
activation_3058 (Activation) (None, 32, 32, 1024)      0         
_________________________________________________________________
dropout_3058 (Dropout)       (None, 32, 32, 1024)      0         
_________________________________________________________________
separable_conv2d_2798 (Separ (None, 32, 32, 32)        42016     
_________________________________________________________________
activation_3059 (Activation) (None, 32, 32, 32)        0         
_________________________________________________________________
dropout_3059 (Dropout)       (None, 32, 32, 32)        0         
_________________________________________________________________
max_pooling2d_518 (MaxPoolin (None, 16, 16, 32)        0         
_________________________________________________________________
separable_conv2d_2799 (Separ (None, 16, 16, 512)       17184     
_________________________________________________________________
activation_3060 (Activation) (None, 16, 16, 512)       0         
_________________________________________________________________
dropout_3060 (Dropout)       (None, 16, 16, 512)       0         
_________________________________________________________________
separable_conv2d_2800 (Separ (None, 16, 16, 1024)      529920    
_________________________________________________________________
batch_normalization_1501 (Ba (None, 16, 16, 1024)      4096      
_________________________________________________________________
activation_3061 (Activation) (None, 16, 16, 1024)      0         
_________________________________________________________________
dropout_3061 (Dropout)       (None, 16, 16, 1024)      0         
_________________________________________________________________
separable_conv2d_2801 (Separ (None, 16, 16, 1024)      1058816   
_________________________________________________________________
batch_normalization_1502 (Ba (None, 16, 16, 1024)      4096      
_________________________________________________________________
activation_3062 (Activation) (None, 16, 16, 1024)      0         
_________________________________________________________________
dropout_3062 (Dropout)       (None, 16, 16, 1024)      0         
_________________________________________________________________
separable_conv2d_2802 (Separ (None, 16, 16, 16)        25616     
_________________________________________________________________
batch_normalization_1503 (Ba (None, 16, 16, 16)        64        
_________________________________________________________________
activation_3063 (Activation) (None, 16, 16, 16)        0         
_________________________________________________________________
dropout_3063 (Dropout)       (None, 16, 16, 16)        0         
_________________________________________________________________
separable_conv2d_2803 (Separ (None, 16, 16, 64)        1232      
_________________________________________________________________
activation_3064 (Activation) (None, 16, 16, 64)        0         
_________________________________________________________________
dropout_3064 (Dropout)       (None, 16, 16, 64)        0         
_________________________________________________________________
separable_conv2d_2804 (Separ (None, 16, 16, 16)        1616      
_________________________________________________________________
activation_3065 (Activation) (None, 16, 16, 16)        0         
_________________________________________________________________
dropout_3065 (Dropout)       (None, 16, 16, 16)        0         
_________________________________________________________________
flatten_327 (Flatten)        (None, 4096)              0         
_________________________________________________________________
dense_588 (Dense)            (None, 100)               409700    
=================================================================
Total params: 2,102,575
Trainable params: 2,096,399
Non-trainable params: 6,176
_________________________________________________________________
