Model: "sequential_45"
_________________________________________________________________
Layer (type)                 Output Shape              Param #   
=================================================================
separable_conv2d_447 (Separa (None, 32, 32, 1024)      4123      
_________________________________________________________________
batch_normalization_256 (Bat (None, 32, 32, 1024)      4096      
_________________________________________________________________
activation_514 (Activation)  (None, 32, 32, 1024)      0         
_________________________________________________________________
dropout_514 (Dropout)        (None, 32, 32, 1024)      0         
_________________________________________________________________
max_pooling2d_104 (MaxPoolin (None, 16, 16, 1024)      0         
_________________________________________________________________
separable_conv2d_448 (Separa (None, 16, 16, 32)        42016     
_________________________________________________________________
activation_515 (Activation)  (None, 16, 16, 32)        0         
_________________________________________________________________
dropout_515 (Dropout)        (None, 16, 16, 32)        0         
_________________________________________________________________
max_pooling2d_105 (MaxPoolin (None, 8, 8, 32)          0         
_________________________________________________________________
separable_conv2d_449 (Separa (None, 8, 8, 512)         17184     
_________________________________________________________________
activation_516 (Activation)  (None, 8, 8, 512)         0         
_________________________________________________________________
dropout_516 (Dropout)        (None, 8, 8, 512)         0         
_________________________________________________________________
separable_conv2d_450 (Separa (None, 8, 8, 1024)        529920    
_________________________________________________________________
batch_normalization_257 (Bat (None, 8, 8, 1024)        4096      
_________________________________________________________________
activation_517 (Activation)  (None, 8, 8, 1024)        0         
_________________________________________________________________
dropout_517 (Dropout)        (None, 8, 8, 1024)        0         
_________________________________________________________________
separable_conv2d_451 (Separa (None, 8, 8, 1024)        1058816   
_________________________________________________________________
batch_normalization_258 (Bat (None, 8, 8, 1024)        4096      
_________________________________________________________________
activation_518 (Activation)  (None, 8, 8, 1024)        0         
_________________________________________________________________
dropout_518 (Dropout)        (None, 8, 8, 1024)        0         
_________________________________________________________________
separable_conv2d_452 (Separa (None, 8, 8, 16)          25616     
_________________________________________________________________
batch_normalization_259 (Bat (None, 8, 8, 16)          64        
_________________________________________________________________
activation_519 (Activation)  (None, 8, 8, 16)          0         
_________________________________________________________________
dropout_519 (Dropout)        (None, 8, 8, 16)          0         
_________________________________________________________________
separable_conv2d_453 (Separa (None, 8, 8, 16)          416       
_________________________________________________________________
batch_normalization_260 (Bat (None, 8, 8, 16)          64        
_________________________________________________________________
activation_520 (Activation)  (None, 8, 8, 16)          0         
_________________________________________________________________
dropout_520 (Dropout)        (None, 8, 8, 16)          0         
_________________________________________________________________
separable_conv2d_454 (Separa (None, 8, 8, 512)         8848      
_________________________________________________________________
activation_521 (Activation)  (None, 8, 8, 512)         0         
_________________________________________________________________
dropout_521 (Dropout)        (None, 8, 8, 512)         0         
_________________________________________________________________
separable_conv2d_455 (Separa (None, 8, 8, 64)          37440     
_________________________________________________________________
activation_522 (Activation)  (None, 8, 8, 64)          0         
_________________________________________________________________
dropout_522 (Dropout)        (None, 8, 8, 64)          0         
_________________________________________________________________
separable_conv2d_456 (Separa (None, 8, 8, 8)           1096      
_________________________________________________________________
activation_523 (Activation)  (None, 8, 8, 8)           0         
_________________________________________________________________
dropout_523 (Dropout)        (None, 8, 8, 8)           0         
_________________________________________________________________
flatten_45 (Flatten)         (None, 512)               0         
_________________________________________________________________
dense_112 (Dense)            (None, 4096)              2101248   
_________________________________________________________________
activation_524 (Activation)  (None, 4096)              0         
_________________________________________________________________
dropout_524 (Dropout)        (None, 4096)              0         
_________________________________________________________________
dense_113 (Dense)            (None, 100)               409700    
=================================================================
Total params: 4,248,839
Trainable params: 4,242,631
Non-trainable params: 6,208
_________________________________________________________________
