Model: "sequential_267"
_________________________________________________________________
Layer (type)                 Output Shape              Param #   
=================================================================
separable_conv2d_2317 (Separ (None, 32, 32, 1024)      4123      
_________________________________________________________________
batch_normalization_1264 (Ba (None, 32, 32, 1024)      4096      
_________________________________________________________________
activation_2563 (Activation) (None, 32, 32, 1024)      0         
_________________________________________________________________
dropout_2563 (Dropout)       (None, 32, 32, 1024)      0         
_________________________________________________________________
separable_conv2d_2318 (Separ (None, 32, 32, 32)        42016     
_________________________________________________________________
activation_2564 (Activation) (None, 32, 32, 32)        0         
_________________________________________________________________
dropout_2564 (Dropout)       (None, 32, 32, 32)        0         
_________________________________________________________________
max_pooling2d_454 (MaxPoolin (None, 16, 16, 32)        0         
_________________________________________________________________
separable_conv2d_2319 (Separ (None, 16, 16, 512)       17184     
_________________________________________________________________
activation_2565 (Activation) (None, 16, 16, 512)       0         
_________________________________________________________________
dropout_2565 (Dropout)       (None, 16, 16, 512)       0         
_________________________________________________________________
separable_conv2d_2320 (Separ (None, 16, 16, 1024)      529920    
_________________________________________________________________
batch_normalization_1265 (Ba (None, 16, 16, 1024)      4096      
_________________________________________________________________
activation_2566 (Activation) (None, 16, 16, 1024)      0         
_________________________________________________________________
dropout_2566 (Dropout)       (None, 16, 16, 1024)      0         
_________________________________________________________________
separable_conv2d_2321 (Separ (None, 16, 16, 1024)      1058816   
_________________________________________________________________
batch_normalization_1266 (Ba (None, 16, 16, 1024)      4096      
_________________________________________________________________
activation_2567 (Activation) (None, 16, 16, 1024)      0         
_________________________________________________________________
dropout_2567 (Dropout)       (None, 16, 16, 1024)      0         
_________________________________________________________________
separable_conv2d_2322 (Separ (None, 16, 16, 16)        25616     
_________________________________________________________________
batch_normalization_1267 (Ba (None, 16, 16, 16)        64        
_________________________________________________________________
activation_2568 (Activation) (None, 16, 16, 16)        0         
_________________________________________________________________
dropout_2568 (Dropout)       (None, 16, 16, 16)        0         
_________________________________________________________________
separable_conv2d_2323 (Separ (None, 16, 16, 64)        1232      
_________________________________________________________________
activation_2569 (Activation) (None, 16, 16, 64)        0         
_________________________________________________________________
dropout_2569 (Dropout)       (None, 16, 16, 64)        0         
_________________________________________________________________
separable_conv2d_2324 (Separ (None, 16, 16, 16)        1616      
_________________________________________________________________
activation_2570 (Activation) (None, 16, 16, 16)        0         
_________________________________________________________________
dropout_2570 (Dropout)       (None, 16, 16, 16)        0         
_________________________________________________________________
flatten_267 (Flatten)        (None, 4096)              0         
_________________________________________________________________
dense_513 (Dense)            (None, 100)               409700    
=================================================================
Total params: 2,102,575
Trainable params: 2,096,399
Non-trainable params: 6,176
_________________________________________________________________
