Model: "sequential_190"
_________________________________________________________________
Layer (type)                 Output Shape              Param #   
=================================================================
separable_conv2d_1707 (Separ (None, 32, 32, 1024)      4123      
_________________________________________________________________
batch_normalization_952 (Bat (None, 32, 32, 1024)      4096      
_________________________________________________________________
activation_1917 (Activation) (None, 32, 32, 1024)      0         
_________________________________________________________________
dropout_1917 (Dropout)       (None, 32, 32, 1024)      0         
_________________________________________________________________
max_pooling2d_371 (MaxPoolin (None, 16, 16, 1024)      0         
_________________________________________________________________
separable_conv2d_1708 (Separ (None, 16, 16, 32)        42016     
_________________________________________________________________
activation_1918 (Activation) (None, 16, 16, 32)        0         
_________________________________________________________________
dropout_1918 (Dropout)       (None, 16, 16, 32)        0         
_________________________________________________________________
max_pooling2d_372 (MaxPoolin (None, 8, 8, 32)          0         
_________________________________________________________________
separable_conv2d_1709 (Separ (None, 8, 8, 512)         17184     
_________________________________________________________________
activation_1919 (Activation) (None, 8, 8, 512)         0         
_________________________________________________________________
dropout_1919 (Dropout)       (None, 8, 8, 512)         0         
_________________________________________________________________
separable_conv2d_1710 (Separ (None, 8, 8, 1024)        529920    
_________________________________________________________________
batch_normalization_953 (Bat (None, 8, 8, 1024)        4096      
_________________________________________________________________
activation_1920 (Activation) (None, 8, 8, 1024)        0         
_________________________________________________________________
dropout_1920 (Dropout)       (None, 8, 8, 1024)        0         
_________________________________________________________________
separable_conv2d_1711 (Separ (None, 8, 8, 1024)        1058816   
_________________________________________________________________
batch_normalization_954 (Bat (None, 8, 8, 1024)        4096      
_________________________________________________________________
activation_1921 (Activation) (None, 8, 8, 1024)        0         
_________________________________________________________________
dropout_1921 (Dropout)       (None, 8, 8, 1024)        0         
_________________________________________________________________
separable_conv2d_1712 (Separ (None, 8, 8, 16)          25616     
_________________________________________________________________
batch_normalization_955 (Bat (None, 8, 8, 16)          64        
_________________________________________________________________
activation_1922 (Activation) (None, 8, 8, 16)          0         
_________________________________________________________________
dropout_1922 (Dropout)       (None, 8, 8, 16)          0         
_________________________________________________________________
separable_conv2d_1713 (Separ (None, 8, 8, 64)          1232      
_________________________________________________________________
activation_1923 (Activation) (None, 8, 8, 64)          0         
_________________________________________________________________
dropout_1923 (Dropout)       (None, 8, 8, 64)          0         
_________________________________________________________________
separable_conv2d_1714 (Separ (None, 8, 8, 16)          1616      
_________________________________________________________________
activation_1924 (Activation) (None, 8, 8, 16)          0         
_________________________________________________________________
dropout_1924 (Dropout)       (None, 8, 8, 16)          0         
_________________________________________________________________
flatten_190 (Flatten)        (None, 1024)              0         
_________________________________________________________________
dense_400 (Dense)            (None, 100)               102500    
=================================================================
Total params: 1,795,375
Trainable params: 1,789,199
Non-trainable params: 6,176
_________________________________________________________________
