Model: "sequential_214"
_________________________________________________________________
Layer (type)                 Output Shape              Param #   
=================================================================
separable_conv2d_1894 (Separ (None, 32, 32, 1024)      4123      
_________________________________________________________________
batch_normalization_1050 (Ba (None, 32, 32, 1024)      4096      
_________________________________________________________________
activation_2121 (Activation) (None, 32, 32, 1024)      0         
_________________________________________________________________
dropout_2121 (Dropout)       (None, 32, 32, 1024)      0         
_________________________________________________________________
separable_conv2d_1895 (Separ (None, 32, 32, 32)        42016     
_________________________________________________________________
activation_2122 (Activation) (None, 32, 32, 32)        0         
_________________________________________________________________
dropout_2122 (Dropout)       (None, 32, 32, 32)        0         
_________________________________________________________________
max_pooling2d_398 (MaxPoolin (None, 16, 16, 32)        0         
_________________________________________________________________
separable_conv2d_1896 (Separ (None, 16, 16, 512)       17184     
_________________________________________________________________
activation_2123 (Activation) (None, 16, 16, 512)       0         
_________________________________________________________________
dropout_2123 (Dropout)       (None, 16, 16, 512)       0         
_________________________________________________________________
separable_conv2d_1897 (Separ (None, 16, 16, 1024)      529920    
_________________________________________________________________
batch_normalization_1051 (Ba (None, 16, 16, 1024)      4096      
_________________________________________________________________
activation_2124 (Activation) (None, 16, 16, 1024)      0         
_________________________________________________________________
dropout_2124 (Dropout)       (None, 16, 16, 1024)      0         
_________________________________________________________________
separable_conv2d_1898 (Separ (None, 16, 16, 1024)      1058816   
_________________________________________________________________
batch_normalization_1052 (Ba (None, 16, 16, 1024)      4096      
_________________________________________________________________
activation_2125 (Activation) (None, 16, 16, 1024)      0         
_________________________________________________________________
dropout_2125 (Dropout)       (None, 16, 16, 1024)      0         
_________________________________________________________________
separable_conv2d_1899 (Separ (None, 16, 16, 16)        25616     
_________________________________________________________________
batch_normalization_1053 (Ba (None, 16, 16, 16)        64        
_________________________________________________________________
activation_2126 (Activation) (None, 16, 16, 16)        0         
_________________________________________________________________
dropout_2126 (Dropout)       (None, 16, 16, 16)        0         
_________________________________________________________________
separable_conv2d_1900 (Separ (None, 16, 16, 16)        416       
_________________________________________________________________
batch_normalization_1054 (Ba (None, 16, 16, 16)        64        
_________________________________________________________________
activation_2127 (Activation) (None, 16, 16, 16)        0         
_________________________________________________________________
dropout_2127 (Dropout)       (None, 16, 16, 16)        0         
_________________________________________________________________
separable_conv2d_1901 (Separ (None, 16, 16, 8)         280       
_________________________________________________________________
activation_2128 (Activation) (None, 16, 16, 8)         0         
_________________________________________________________________
dropout_2128 (Dropout)       (None, 16, 16, 8)         0         
_________________________________________________________________
flatten_214 (Flatten)        (None, 2048)              0         
_________________________________________________________________
dense_441 (Dense)            (None, 4096)              8392704   
_________________________________________________________________
activation_2129 (Activation) (None, 4096)              0         
_________________________________________________________________
dropout_2129 (Dropout)       (None, 4096)              0         
_________________________________________________________________
dense_442 (Dense)            (None, 100)               409700    
=================================================================
Total params: 10,493,191
Trainable params: 10,486,983
Non-trainable params: 6,208
_________________________________________________________________
