Model: "sequential_213"
_________________________________________________________________
Layer (type)                 Output Shape              Param #   
=================================================================
separable_conv2d_1886 (Separ (None, 32, 32, 1024)      4123      
_________________________________________________________________
batch_normalization_1046 (Ba (None, 32, 32, 1024)      4096      
_________________________________________________________________
activation_2113 (Activation) (None, 32, 32, 1024)      0         
_________________________________________________________________
dropout_2113 (Dropout)       (None, 32, 32, 1024)      0         
_________________________________________________________________
separable_conv2d_1887 (Separ (None, 32, 32, 32)        42016     
_________________________________________________________________
activation_2114 (Activation) (None, 32, 32, 32)        0         
_________________________________________________________________
dropout_2114 (Dropout)       (None, 32, 32, 32)        0         
_________________________________________________________________
max_pooling2d_397 (MaxPoolin (None, 16, 16, 32)        0         
_________________________________________________________________
separable_conv2d_1888 (Separ (None, 16, 16, 512)       17184     
_________________________________________________________________
activation_2115 (Activation) (None, 16, 16, 512)       0         
_________________________________________________________________
dropout_2115 (Dropout)       (None, 16, 16, 512)       0         
_________________________________________________________________
separable_conv2d_1889 (Separ (None, 16, 16, 1024)      529920    
_________________________________________________________________
batch_normalization_1047 (Ba (None, 16, 16, 1024)      4096      
_________________________________________________________________
activation_2116 (Activation) (None, 16, 16, 1024)      0         
_________________________________________________________________
dropout_2116 (Dropout)       (None, 16, 16, 1024)      0         
_________________________________________________________________
separable_conv2d_1890 (Separ (None, 16, 16, 1024)      1058816   
_________________________________________________________________
batch_normalization_1048 (Ba (None, 16, 16, 1024)      4096      
_________________________________________________________________
activation_2117 (Activation) (None, 16, 16, 1024)      0         
_________________________________________________________________
dropout_2117 (Dropout)       (None, 16, 16, 1024)      0         
_________________________________________________________________
separable_conv2d_1891 (Separ (None, 16, 16, 16)        25616     
_________________________________________________________________
batch_normalization_1049 (Ba (None, 16, 16, 16)        64        
_________________________________________________________________
activation_2118 (Activation) (None, 16, 16, 16)        0         
_________________________________________________________________
dropout_2118 (Dropout)       (None, 16, 16, 16)        0         
_________________________________________________________________
separable_conv2d_1892 (Separ (None, 16, 16, 64)        1232      
_________________________________________________________________
activation_2119 (Activation) (None, 16, 16, 64)        0         
_________________________________________________________________
dropout_2119 (Dropout)       (None, 16, 16, 64)        0         
_________________________________________________________________
separable_conv2d_1893 (Separ (None, 16, 16, 16)        1616      
_________________________________________________________________
activation_2120 (Activation) (None, 16, 16, 16)        0         
_________________________________________________________________
dropout_2120 (Dropout)       (None, 16, 16, 16)        0         
_________________________________________________________________
flatten_213 (Flatten)        (None, 4096)              0         
_________________________________________________________________
dense_440 (Dense)            (None, 100)               409700    
=================================================================
Total params: 2,102,575
Trainable params: 2,096,399
Non-trainable params: 6,176
_________________________________________________________________
