Model: "sequential_191"
_________________________________________________________________
Layer (type)                 Output Shape              Param #   
=================================================================
separable_conv2d_1715 (Separ (None, 32, 32, 256)       1051      
_________________________________________________________________
batch_normalization_956 (Bat (None, 32, 32, 256)       1024      
_________________________________________________________________
activation_1925 (Activation) (None, 32, 32, 256)       0         
_________________________________________________________________
dropout_1925 (Dropout)       (None, 32, 32, 256)       0         
_________________________________________________________________
separable_conv2d_1716 (Separ (None, 32, 32, 32)        10528     
_________________________________________________________________
activation_1926 (Activation) (None, 32, 32, 32)        0         
_________________________________________________________________
dropout_1926 (Dropout)       (None, 32, 32, 32)        0         
_________________________________________________________________
max_pooling2d_373 (MaxPoolin (None, 16, 16, 32)        0         
_________________________________________________________________
separable_conv2d_1717 (Separ (None, 16, 16, 512)       17184     
_________________________________________________________________
activation_1927 (Activation) (None, 16, 16, 512)       0         
_________________________________________________________________
dropout_1927 (Dropout)       (None, 16, 16, 512)       0         
_________________________________________________________________
separable_conv2d_1718 (Separ (None, 16, 16, 1024)      529920    
_________________________________________________________________
batch_normalization_957 (Bat (None, 16, 16, 1024)      4096      
_________________________________________________________________
activation_1928 (Activation) (None, 16, 16, 1024)      0         
_________________________________________________________________
dropout_1928 (Dropout)       (None, 16, 16, 1024)      0         
_________________________________________________________________
separable_conv2d_1719 (Separ (None, 16, 16, 1024)      1058816   
_________________________________________________________________
batch_normalization_958 (Bat (None, 16, 16, 1024)      4096      
_________________________________________________________________
activation_1929 (Activation) (None, 16, 16, 1024)      0         
_________________________________________________________________
dropout_1929 (Dropout)       (None, 16, 16, 1024)      0         
_________________________________________________________________
separable_conv2d_1720 (Separ (None, 16, 16, 16)        25616     
_________________________________________________________________
batch_normalization_959 (Bat (None, 16, 16, 16)        64        
_________________________________________________________________
activation_1930 (Activation) (None, 16, 16, 16)        0         
_________________________________________________________________
dropout_1930 (Dropout)       (None, 16, 16, 16)        0         
_________________________________________________________________
separable_conv2d_1721 (Separ (None, 16, 16, 64)        1232      
_________________________________________________________________
activation_1931 (Activation) (None, 16, 16, 64)        0         
_________________________________________________________________
dropout_1931 (Dropout)       (None, 16, 16, 64)        0         
_________________________________________________________________
separable_conv2d_1722 (Separ (None, 16, 16, 16)        1616      
_________________________________________________________________
activation_1932 (Activation) (None, 16, 16, 16)        0         
_________________________________________________________________
dropout_1932 (Dropout)       (None, 16, 16, 16)        0         
_________________________________________________________________
flatten_191 (Flatten)        (None, 4096)              0         
_________________________________________________________________
dense_401 (Dense)            (None, 4096)              16781312  
_________________________________________________________________
activation_1933 (Activation) (None, 4096)              0         
_________________________________________________________________
dropout_1933 (Dropout)       (None, 4096)              0         
_________________________________________________________________
dense_402 (Dense)            (None, 100)               409700    
=================================================================
Total params: 18,846,255
Trainable params: 18,841,615
Non-trainable params: 4,640
_________________________________________________________________
