Model: "sequential_162"
_________________________________________________________________
Layer (type)                 Output Shape              Param #   
=================================================================
separable_conv2d_1480 (Separ (None, 32, 32, 1024)      4123      
_________________________________________________________________
batch_normalization_830 (Bat (None, 32, 32, 1024)      4096      
_________________________________________________________________
activation_1667 (Activation) (None, 32, 32, 1024)      0         
_________________________________________________________________
dropout_1667 (Dropout)       (None, 32, 32, 1024)      0         
_________________________________________________________________
separable_conv2d_1481 (Separ (None, 32, 32, 32)        42016     
_________________________________________________________________
activation_1668 (Activation) (None, 32, 32, 32)        0         
_________________________________________________________________
dropout_1668 (Dropout)       (None, 32, 32, 32)        0         
_________________________________________________________________
max_pooling2d_335 (MaxPoolin (None, 16, 16, 32)        0         
_________________________________________________________________
separable_conv2d_1482 (Separ (None, 16, 16, 512)       17184     
_________________________________________________________________
activation_1669 (Activation) (None, 16, 16, 512)       0         
_________________________________________________________________
dropout_1669 (Dropout)       (None, 16, 16, 512)       0         
_________________________________________________________________
separable_conv2d_1483 (Separ (None, 16, 16, 1024)      529920    
_________________________________________________________________
batch_normalization_831 (Bat (None, 16, 16, 1024)      4096      
_________________________________________________________________
activation_1670 (Activation) (None, 16, 16, 1024)      0         
_________________________________________________________________
dropout_1670 (Dropout)       (None, 16, 16, 1024)      0         
_________________________________________________________________
separable_conv2d_1484 (Separ (None, 16, 16, 1024)      1058816   
_________________________________________________________________
batch_normalization_832 (Bat (None, 16, 16, 1024)      4096      
_________________________________________________________________
activation_1671 (Activation) (None, 16, 16, 1024)      0         
_________________________________________________________________
dropout_1671 (Dropout)       (None, 16, 16, 1024)      0         
_________________________________________________________________
separable_conv2d_1485 (Separ (None, 16, 16, 16)        25616     
_________________________________________________________________
batch_normalization_833 (Bat (None, 16, 16, 16)        64        
_________________________________________________________________
activation_1672 (Activation) (None, 16, 16, 16)        0         
_________________________________________________________________
dropout_1672 (Dropout)       (None, 16, 16, 16)        0         
_________________________________________________________________
separable_conv2d_1486 (Separ (None, 16, 16, 64)        1232      
_________________________________________________________________
activation_1673 (Activation) (None, 16, 16, 64)        0         
_________________________________________________________________
dropout_1673 (Dropout)       (None, 16, 16, 64)        0         
_________________________________________________________________
separable_conv2d_1487 (Separ (None, 16, 16, 16)        1616      
_________________________________________________________________
activation_1674 (Activation) (None, 16, 16, 16)        0         
_________________________________________________________________
dropout_1674 (Dropout)       (None, 16, 16, 16)        0         
_________________________________________________________________
flatten_162 (Flatten)        (None, 4096)              0         
_________________________________________________________________
dense_349 (Dense)            (None, 4096)              16781312  
_________________________________________________________________
activation_1675 (Activation) (None, 4096)              0         
_________________________________________________________________
dropout_1675 (Dropout)       (None, 4096)              0         
_________________________________________________________________
dense_350 (Dense)            (None, 100)               409700    
=================================================================
Total params: 18,883,887
Trainable params: 18,877,711
Non-trainable params: 6,176
_________________________________________________________________
