Model: "sequential_75"
_________________________________________________________________
Layer (type)                 Output Shape              Param #   
=================================================================
separable_conv2d_732 (Separa (None, 32, 32, 1024)      4123      
_________________________________________________________________
batch_normalization_412 (Bat (None, 32, 32, 1024)      4096      
_________________________________________________________________
activation_833 (Activation)  (None, 32, 32, 1024)      0         
_________________________________________________________________
dropout_833 (Dropout)        (None, 32, 32, 1024)      0         
_________________________________________________________________
max_pooling2d_166 (MaxPoolin (None, 16, 16, 1024)      0         
_________________________________________________________________
separable_conv2d_733 (Separa (None, 16, 16, 32)        42016     
_________________________________________________________________
activation_834 (Activation)  (None, 16, 16, 32)        0         
_________________________________________________________________
dropout_834 (Dropout)        (None, 16, 16, 32)        0         
_________________________________________________________________
max_pooling2d_167 (MaxPoolin (None, 8, 8, 32)          0         
_________________________________________________________________
separable_conv2d_734 (Separa (None, 8, 8, 512)         17184     
_________________________________________________________________
activation_835 (Activation)  (None, 8, 8, 512)         0         
_________________________________________________________________
dropout_835 (Dropout)        (None, 8, 8, 512)         0         
_________________________________________________________________
separable_conv2d_735 (Separa (None, 8, 8, 1024)        529920    
_________________________________________________________________
batch_normalization_413 (Bat (None, 8, 8, 1024)        4096      
_________________________________________________________________
activation_836 (Activation)  (None, 8, 8, 1024)        0         
_________________________________________________________________
dropout_836 (Dropout)        (None, 8, 8, 1024)        0         
_________________________________________________________________
separable_conv2d_736 (Separa (None, 8, 8, 1024)        1058816   
_________________________________________________________________
batch_normalization_414 (Bat (None, 8, 8, 1024)        4096      
_________________________________________________________________
activation_837 (Activation)  (None, 8, 8, 1024)        0         
_________________________________________________________________
dropout_837 (Dropout)        (None, 8, 8, 1024)        0         
_________________________________________________________________
separable_conv2d_737 (Separa (None, 8, 8, 16)          25616     
_________________________________________________________________
batch_normalization_415 (Bat (None, 8, 8, 16)          64        
_________________________________________________________________
activation_838 (Activation)  (None, 8, 8, 16)          0         
_________________________________________________________________
dropout_838 (Dropout)        (None, 8, 8, 16)          0         
_________________________________________________________________
separable_conv2d_738 (Separa (None, 8, 8, 16)          416       
_________________________________________________________________
batch_normalization_416 (Bat (None, 8, 8, 16)          64        
_________________________________________________________________
activation_839 (Activation)  (None, 8, 8, 16)          0         
_________________________________________________________________
dropout_839 (Dropout)        (None, 8, 8, 16)          0         
_________________________________________________________________
separable_conv2d_739 (Separa (None, 8, 8, 512)         8848      
_________________________________________________________________
activation_840 (Activation)  (None, 8, 8, 512)         0         
_________________________________________________________________
dropout_840 (Dropout)        (None, 8, 8, 512)         0         
_________________________________________________________________
separable_conv2d_740 (Separa (None, 8, 8, 64)          37440     
_________________________________________________________________
activation_841 (Activation)  (None, 8, 8, 64)          0         
_________________________________________________________________
dropout_841 (Dropout)        (None, 8, 8, 64)          0         
_________________________________________________________________
separable_conv2d_741 (Separa (None, 8, 8, 8)           1096      
_________________________________________________________________
activation_842 (Activation)  (None, 8, 8, 8)           0         
_________________________________________________________________
dropout_842 (Dropout)        (None, 8, 8, 8)           0         
_________________________________________________________________
flatten_75 (Flatten)         (None, 512)               0         
_________________________________________________________________
dense_176 (Dense)            (None, 4096)              2101248   
_________________________________________________________________
activation_843 (Activation)  (None, 4096)              0         
_________________________________________________________________
dropout_843 (Dropout)        (None, 4096)              0         
_________________________________________________________________
dense_177 (Dense)            (None, 100)               409700    
=================================================================
Total params: 4,248,839
Trainable params: 4,242,631
Non-trainable params: 6,208
_________________________________________________________________
