Model: "sequential_399"
_________________________________________________________________
Layer (type)                 Output Shape              Param #   
=================================================================
separable_conv2d_3368 (Separ (None, 32, 32, 1024)      4123      
_________________________________________________________________
batch_normalization_1797 (Ba (None, 32, 32, 1024)      4096      
_________________________________________________________________
activation_3641 (Activation) (None, 32, 32, 1024)      0         
_________________________________________________________________
dropout_3641 (Dropout)       (None, 32, 32, 1024)      0         
_________________________________________________________________
separable_conv2d_3369 (Separ (None, 32, 32, 32)        42016     
_________________________________________________________________
batch_normalization_1798 (Ba (None, 32, 32, 32)        128       
_________________________________________________________________
activation_3642 (Activation) (None, 32, 32, 32)        0         
_________________________________________________________________
dropout_3642 (Dropout)       (None, 32, 32, 32)        0         
_________________________________________________________________
max_pooling2d_595 (MaxPoolin (None, 16, 16, 32)        0         
_________________________________________________________________
separable_conv2d_3370 (Separ (None, 16, 16, 512)       17184     
_________________________________________________________________
activation_3643 (Activation) (None, 16, 16, 512)       0         
_________________________________________________________________
dropout_3643 (Dropout)       (None, 16, 16, 512)       0         
_________________________________________________________________
separable_conv2d_3371 (Separ (None, 16, 16, 1024)      529920    
_________________________________________________________________
batch_normalization_1799 (Ba (None, 16, 16, 1024)      4096      
_________________________________________________________________
activation_3644 (Activation) (None, 16, 16, 1024)      0         
_________________________________________________________________
dropout_3644 (Dropout)       (None, 16, 16, 1024)      0         
_________________________________________________________________
separable_conv2d_3372 (Separ (None, 16, 16, 1024)      1058816   
_________________________________________________________________
batch_normalization_1800 (Ba (None, 16, 16, 1024)      4096      
_________________________________________________________________
activation_3645 (Activation) (None, 16, 16, 1024)      0         
_________________________________________________________________
dropout_3645 (Dropout)       (None, 16, 16, 1024)      0         
_________________________________________________________________
separable_conv2d_3373 (Separ (None, 16, 16, 16)        25616     
_________________________________________________________________
batch_normalization_1801 (Ba (None, 16, 16, 16)        64        
_________________________________________________________________
activation_3646 (Activation) (None, 16, 16, 16)        0         
_________________________________________________________________
dropout_3646 (Dropout)       (None, 16, 16, 16)        0         
_________________________________________________________________
separable_conv2d_3374 (Separ (None, 16, 16, 64)        1232      
_________________________________________________________________
activation_3647 (Activation) (None, 16, 16, 64)        0         
_________________________________________________________________
dropout_3647 (Dropout)       (None, 16, 16, 64)        0         
_________________________________________________________________
separable_conv2d_3375 (Separ (None, 16, 16, 16)        1616      
_________________________________________________________________
activation_3648 (Activation) (None, 16, 16, 16)        0         
_________________________________________________________________
dropout_3648 (Dropout)       (None, 16, 16, 16)        0         
_________________________________________________________________
flatten_399 (Flatten)        (None, 4096)              0         
_________________________________________________________________
dense_672 (Dense)            (None, 100)               409700    
=================================================================
Total params: 2,102,703
Trainable params: 2,096,463
Non-trainable params: 6,240
_________________________________________________________________
