Model: "sequential_388"
_________________________________________________________________
Layer (type)                 Output Shape              Param #   
=================================================================
separable_conv2d_3281 (Separ (None, 32, 32, 1024)      4123      
_________________________________________________________________
batch_normalization_1754 (Ba (None, 32, 32, 1024)      4096      
_________________________________________________________________
activation_3552 (Activation) (None, 32, 32, 1024)      0         
_________________________________________________________________
dropout_3552 (Dropout)       (None, 32, 32, 1024)      0         
_________________________________________________________________
separable_conv2d_3282 (Separ (None, 32, 32, 32)        42016     
_________________________________________________________________
activation_3553 (Activation) (None, 32, 32, 32)        0         
_________________________________________________________________
dropout_3553 (Dropout)       (None, 32, 32, 32)        0         
_________________________________________________________________
max_pooling2d_585 (MaxPoolin (None, 16, 16, 32)        0         
_________________________________________________________________
separable_conv2d_3283 (Separ (None, 16, 16, 512)       17184     
_________________________________________________________________
activation_3554 (Activation) (None, 16, 16, 512)       0         
_________________________________________________________________
dropout_3554 (Dropout)       (None, 16, 16, 512)       0         
_________________________________________________________________
separable_conv2d_3284 (Separ (None, 16, 16, 1024)      529920    
_________________________________________________________________
activation_3555 (Activation) (None, 16, 16, 1024)      0         
_________________________________________________________________
dropout_3555 (Dropout)       (None, 16, 16, 1024)      0         
_________________________________________________________________
separable_conv2d_3285 (Separ (None, 16, 16, 1024)      1058816   
_________________________________________________________________
batch_normalization_1755 (Ba (None, 16, 16, 1024)      4096      
_________________________________________________________________
activation_3556 (Activation) (None, 16, 16, 1024)      0         
_________________________________________________________________
dropout_3556 (Dropout)       (None, 16, 16, 1024)      0         
_________________________________________________________________
separable_conv2d_3286 (Separ (None, 16, 16, 16)        25616     
_________________________________________________________________
batch_normalization_1756 (Ba (None, 16, 16, 16)        64        
_________________________________________________________________
activation_3557 (Activation) (None, 16, 16, 16)        0         
_________________________________________________________________
dropout_3557 (Dropout)       (None, 16, 16, 16)        0         
_________________________________________________________________
separable_conv2d_3287 (Separ (None, 16, 16, 64)        1232      
_________________________________________________________________
activation_3558 (Activation) (None, 16, 16, 64)        0         
_________________________________________________________________
dropout_3558 (Dropout)       (None, 16, 16, 64)        0         
_________________________________________________________________
separable_conv2d_3288 (Separ (None, 16, 16, 16)        1616      
_________________________________________________________________
activation_3559 (Activation) (None, 16, 16, 16)        0         
_________________________________________________________________
dropout_3559 (Dropout)       (None, 16, 16, 16)        0         
_________________________________________________________________
flatten_388 (Flatten)        (None, 4096)              0         
_________________________________________________________________
dense_659 (Dense)            (None, 100)               409700    
=================================================================
Total params: 2,098,479
Trainable params: 2,094,351
Non-trainable params: 4,128
_________________________________________________________________
