Model: "sequential_226"
_________________________________________________________________
Layer (type)                 Output Shape              Param #   
=================================================================
separable_conv2d_1989 (Separ (None, 32, 32, 128)       539       
_________________________________________________________________
batch_normalization_1100 (Ba (None, 32, 32, 128)       512       
_________________________________________________________________
activation_2222 (Activation) (None, 32, 32, 128)       0         
_________________________________________________________________
dropout_2222 (Dropout)       (None, 32, 32, 128)       0         
_________________________________________________________________
separable_conv2d_1990 (Separ (None, 32, 32, 32)        5280      
_________________________________________________________________
activation_2223 (Activation) (None, 32, 32, 32)        0         
_________________________________________________________________
dropout_2223 (Dropout)       (None, 32, 32, 32)        0         
_________________________________________________________________
max_pooling2d_411 (MaxPoolin (None, 16, 16, 32)        0         
_________________________________________________________________
separable_conv2d_1991 (Separ (None, 16, 16, 512)       17184     
_________________________________________________________________
activation_2224 (Activation) (None, 16, 16, 512)       0         
_________________________________________________________________
dropout_2224 (Dropout)       (None, 16, 16, 512)       0         
_________________________________________________________________
separable_conv2d_1992 (Separ (None, 16, 16, 1024)      529920    
_________________________________________________________________
batch_normalization_1101 (Ba (None, 16, 16, 1024)      4096      
_________________________________________________________________
activation_2225 (Activation) (None, 16, 16, 1024)      0         
_________________________________________________________________
dropout_2225 (Dropout)       (None, 16, 16, 1024)      0         
_________________________________________________________________
separable_conv2d_1993 (Separ (None, 16, 16, 1024)      1058816   
_________________________________________________________________
batch_normalization_1102 (Ba (None, 16, 16, 1024)      4096      
_________________________________________________________________
activation_2226 (Activation) (None, 16, 16, 1024)      0         
_________________________________________________________________
dropout_2226 (Dropout)       (None, 16, 16, 1024)      0         
_________________________________________________________________
separable_conv2d_1994 (Separ (None, 16, 16, 16)        25616     
_________________________________________________________________
batch_normalization_1103 (Ba (None, 16, 16, 16)        64        
_________________________________________________________________
activation_2227 (Activation) (None, 16, 16, 16)        0         
_________________________________________________________________
dropout_2227 (Dropout)       (None, 16, 16, 16)        0         
_________________________________________________________________
separable_conv2d_1995 (Separ (None, 16, 16, 64)        1232      
_________________________________________________________________
activation_2228 (Activation) (None, 16, 16, 64)        0         
_________________________________________________________________
dropout_2228 (Dropout)       (None, 16, 16, 64)        0         
_________________________________________________________________
separable_conv2d_1996 (Separ (None, 16, 16, 16)        1616      
_________________________________________________________________
activation_2229 (Activation) (None, 16, 16, 16)        0         
_________________________________________________________________
dropout_2229 (Dropout)       (None, 16, 16, 16)        0         
_________________________________________________________________
flatten_226 (Flatten)        (None, 4096)              0         
_________________________________________________________________
dense_459 (Dense)            (None, 4096)              16781312  
_________________________________________________________________
activation_2230 (Activation) (None, 4096)              0         
_________________________________________________________________
dropout_2230 (Dropout)       (None, 4096)              0         
_________________________________________________________________
dense_460 (Dense)            (None, 100)               409700    
=================================================================
Total params: 18,839,983
Trainable params: 18,835,599
Non-trainable params: 4,384
_________________________________________________________________
