Model: "sequential_358"
_________________________________________________________________
Layer (type)                 Output Shape              Param #   
=================================================================
separable_conv2d_3043 (Separ (None, 32, 32, 1024)      4123      
_________________________________________________________________
batch_normalization_1625 (Ba (None, 32, 32, 1024)      4096      
_________________________________________________________________
activation_3308 (Activation) (None, 32, 32, 1024)      0         
_________________________________________________________________
dropout_3308 (Dropout)       (None, 32, 32, 1024)      0         
_________________________________________________________________
separable_conv2d_3044 (Separ (None, 32, 32, 32)        42016     
_________________________________________________________________
activation_3309 (Activation) (None, 32, 32, 32)        0         
_________________________________________________________________
dropout_3309 (Dropout)       (None, 32, 32, 32)        0         
_________________________________________________________________
max_pooling2d_554 (MaxPoolin (None, 16, 16, 32)        0         
_________________________________________________________________
separable_conv2d_3045 (Separ (None, 16, 16, 512)       17184     
_________________________________________________________________
activation_3310 (Activation) (None, 16, 16, 512)       0         
_________________________________________________________________
dropout_3310 (Dropout)       (None, 16, 16, 512)       0         
_________________________________________________________________
separable_conv2d_3046 (Separ (None, 16, 16, 1024)      529920    
_________________________________________________________________
batch_normalization_1626 (Ba (None, 16, 16, 1024)      4096      
_________________________________________________________________
activation_3311 (Activation) (None, 16, 16, 1024)      0         
_________________________________________________________________
dropout_3311 (Dropout)       (None, 16, 16, 1024)      0         
_________________________________________________________________
separable_conv2d_3047 (Separ (None, 16, 16, 1024)      1058816   
_________________________________________________________________
batch_normalization_1627 (Ba (None, 16, 16, 1024)      4096      
_________________________________________________________________
activation_3312 (Activation) (None, 16, 16, 1024)      0         
_________________________________________________________________
dropout_3312 (Dropout)       (None, 16, 16, 1024)      0         
_________________________________________________________________
separable_conv2d_3048 (Separ (None, 16, 16, 16)        25616     
_________________________________________________________________
batch_normalization_1628 (Ba (None, 16, 16, 16)        64        
_________________________________________________________________
activation_3313 (Activation) (None, 16, 16, 16)        0         
_________________________________________________________________
dropout_3313 (Dropout)       (None, 16, 16, 16)        0         
_________________________________________________________________
separable_conv2d_3049 (Separ (None, 16, 16, 64)        1232      
_________________________________________________________________
batch_normalization_1629 (Ba (None, 16, 16, 64)        256       
_________________________________________________________________
activation_3314 (Activation) (None, 16, 16, 64)        0         
_________________________________________________________________
dropout_3314 (Dropout)       (None, 16, 16, 64)        0         
_________________________________________________________________
separable_conv2d_3050 (Separ (None, 16, 16, 16)        1616      
_________________________________________________________________
activation_3315 (Activation) (None, 16, 16, 16)        0         
_________________________________________________________________
dropout_3315 (Dropout)       (None, 16, 16, 16)        0         
_________________________________________________________________
flatten_358 (Flatten)        (None, 4096)              0         
_________________________________________________________________
dense_623 (Dense)            (None, 100)               409700    
=================================================================
Total params: 2,102,831
Trainable params: 2,096,527
Non-trainable params: 6,304
_________________________________________________________________
