Model: "sequential_187"
_________________________________________________________________
Layer (type)                 Output Shape              Param #   
=================================================================
separable_conv2d_1682 (Separ (None, 32, 32, 256)       1051      
_________________________________________________________________
batch_normalization_940 (Bat (None, 32, 32, 256)       1024      
_________________________________________________________________
activation_1890 (Activation) (None, 32, 32, 256)       0         
_________________________________________________________________
dropout_1890 (Dropout)       (None, 32, 32, 256)       0         
_________________________________________________________________
separable_conv2d_1683 (Separ (None, 32, 32, 32)        10528     
_________________________________________________________________
activation_1891 (Activation) (None, 32, 32, 32)        0         
_________________________________________________________________
dropout_1891 (Dropout)       (None, 32, 32, 32)        0         
_________________________________________________________________
max_pooling2d_368 (MaxPoolin (None, 16, 16, 32)        0         
_________________________________________________________________
separable_conv2d_1684 (Separ (None, 16, 16, 512)       17184     
_________________________________________________________________
activation_1892 (Activation) (None, 16, 16, 512)       0         
_________________________________________________________________
dropout_1892 (Dropout)       (None, 16, 16, 512)       0         
_________________________________________________________________
separable_conv2d_1685 (Separ (None, 16, 16, 1024)      529920    
_________________________________________________________________
batch_normalization_941 (Bat (None, 16, 16, 1024)      4096      
_________________________________________________________________
activation_1893 (Activation) (None, 16, 16, 1024)      0         
_________________________________________________________________
dropout_1893 (Dropout)       (None, 16, 16, 1024)      0         
_________________________________________________________________
separable_conv2d_1686 (Separ (None, 16, 16, 1024)      1058816   
_________________________________________________________________
batch_normalization_942 (Bat (None, 16, 16, 1024)      4096      
_________________________________________________________________
activation_1894 (Activation) (None, 16, 16, 1024)      0         
_________________________________________________________________
dropout_1894 (Dropout)       (None, 16, 16, 1024)      0         
_________________________________________________________________
separable_conv2d_1687 (Separ (None, 16, 16, 16)        25616     
_________________________________________________________________
batch_normalization_943 (Bat (None, 16, 16, 16)        64        
_________________________________________________________________
activation_1895 (Activation) (None, 16, 16, 16)        0         
_________________________________________________________________
dropout_1895 (Dropout)       (None, 16, 16, 16)        0         
_________________________________________________________________
separable_conv2d_1688 (Separ (None, 16, 16, 64)        1232      
_________________________________________________________________
activation_1896 (Activation) (None, 16, 16, 64)        0         
_________________________________________________________________
dropout_1896 (Dropout)       (None, 16, 16, 64)        0         
_________________________________________________________________
separable_conv2d_1689 (Separ (None, 16, 16, 16)        1616      
_________________________________________________________________
activation_1897 (Activation) (None, 16, 16, 16)        0         
_________________________________________________________________
dropout_1897 (Dropout)       (None, 16, 16, 16)        0         
_________________________________________________________________
flatten_187 (Flatten)        (None, 4096)              0         
_________________________________________________________________
dense_395 (Dense)            (None, 100)               409700    
=================================================================
Total params: 2,064,943
Trainable params: 2,060,303
Non-trainable params: 4,640
_________________________________________________________________
