Model: "sequential"
_________________________________________________________________
Layer (type)                 Output Shape              Param #   
=================================================================
separable_conv2d (SeparableC (None, 32, 32, 128)       539       
_________________________________________________________________
activation (Activation)      (None, 32, 32, 128)       0         
_________________________________________________________________
dropout (Dropout)            (None, 32, 32, 128)       0         
_________________________________________________________________
separable_conv2d_1 (Separabl (None, 32, 32, 512)       67200     
_________________________________________________________________
batch_normalization (BatchNo (None, 32, 32, 512)       2048      
_________________________________________________________________
activation_1 (Activation)    (None, 32, 32, 512)       0         
_________________________________________________________________
dropout_1 (Dropout)          (None, 32, 32, 512)       0         
_________________________________________________________________
separable_conv2d_2 (Separabl (None, 32, 32, 32)        21024     
_________________________________________________________________
batch_normalization_1 (Batch (None, 32, 32, 32)        128       
_________________________________________________________________
activation_2 (Activation)    (None, 32, 32, 32)        0         
_________________________________________________________________
dropout_2 (Dropout)          (None, 32, 32, 32)        0         
_________________________________________________________________
separable_conv2d_3 (Separabl (None, 32, 32, 32)        1344      
_________________________________________________________________
batch_normalization_2 (Batch (None, 32, 32, 32)        128       
_________________________________________________________________
activation_3 (Activation)    (None, 32, 32, 32)        0         
_________________________________________________________________
dropout_3 (Dropout)          (None, 32, 32, 32)        0         
_________________________________________________________________
separable_conv2d_4 (Separabl (None, 32, 32, 256)       8736      
_________________________________________________________________
batch_normalization_3 (Batch (None, 32, 32, 256)       1024      
_________________________________________________________________
activation_4 (Activation)    (None, 32, 32, 256)       0         
_________________________________________________________________
dropout_4 (Dropout)          (None, 32, 32, 256)       0         
_________________________________________________________________
separable_conv2d_5 (Separabl (None, 32, 32, 32)        10528     
_________________________________________________________________
batch_normalization_4 (Batch (None, 32, 32, 32)        128       
_________________________________________________________________
activation_5 (Activation)    (None, 32, 32, 32)        0         
_________________________________________________________________
dropout_5 (Dropout)          (None, 32, 32, 32)        0         
_________________________________________________________________
separable_conv2d_6 (Separabl (None, 32, 32, 16)        816       
_________________________________________________________________
batch_normalization_5 (Batch (None, 32, 32, 16)        64        
_________________________________________________________________
activation_6 (Activation)    (None, 32, 32, 16)        0         
_________________________________________________________________
dropout_6 (Dropout)          (None, 32, 32, 16)        0         
_________________________________________________________________
separable_conv2d_7 (Separabl (None, 32, 32, 1024)      17552     
_________________________________________________________________
batch_normalization_6 (Batch (None, 32, 32, 1024)      4096      
_________________________________________________________________
activation_7 (Activation)    (None, 32, 32, 1024)      0         
_________________________________________________________________
dropout_7 (Dropout)          (None, 32, 32, 1024)      0         
_________________________________________________________________
separable_conv2d_8 (Separabl (None, 32, 32, 1024)      1058816   
_________________________________________________________________
activation_8 (Activation)    (None, 32, 32, 1024)      0         
_________________________________________________________________
dropout_8 (Dropout)          (None, 32, 32, 1024)      0         
_________________________________________________________________
separable_conv2d_9 (Separabl (None, 32, 32, 16)        25616     
_________________________________________________________________
activation_9 (Activation)    (None, 32, 32, 16)        0         
_________________________________________________________________
dropout_9 (Dropout)          (None, 32, 32, 16)        0         
_________________________________________________________________
max_pooling2d (MaxPooling2D) (None, 16, 16, 16)        0         
_________________________________________________________________
separable_conv2d_10 (Separab (None, 16, 16, 64)        1232      
_________________________________________________________________
activation_10 (Activation)   (None, 16, 16, 64)        0         
_________________________________________________________________
dropout_10 (Dropout)         (None, 16, 16, 64)        0         
_________________________________________________________________
max_pooling2d_1 (MaxPooling2 (None, 8, 8, 64)          0         
_________________________________________________________________
flatten (Flatten)            (None, 4096)              0         
_________________________________________________________________
dense (Dense)                (None, 512)               2097664   
_________________________________________________________________
activation_11 (Activation)   (None, 512)               0         
_________________________________________________________________
dropout_11 (Dropout)         (None, 512)               0         
_________________________________________________________________
dense_1 (Dense)              (None, 4096)              2101248   
_________________________________________________________________
activation_12 (Activation)   (None, 4096)              0         
_________________________________________________________________
dropout_12 (Dropout)         (None, 4096)              0         
_________________________________________________________________
dense_2 (Dense)              (None, 2048)              8390656   
_________________________________________________________________
batch_normalization_7 (Batch (None, 2048)              8192      
_________________________________________________________________
activation_13 (Activation)   (None, 2048)              0         
_________________________________________________________________
dropout_13 (Dropout)         (None, 2048)              0         
_________________________________________________________________
dense_3 (Dense)              (None, 100)               204900    
=================================================================
Total params: 14,023,679
Trainable params: 14,015,775
Non-trainable params: 7,904
_________________________________________________________________
