Model: "sequential_272"
_________________________________________________________________
Layer (type)                 Output Shape              Param #   
=================================================================
separable_conv2d_2357 (Separ (None, 32, 32, 1024)      4123      
_________________________________________________________________
batch_normalization_1283 (Ba (None, 32, 32, 1024)      4096      
_________________________________________________________________
activation_2606 (Activation) (None, 32, 32, 1024)      0         
_________________________________________________________________
dropout_2606 (Dropout)       (None, 32, 32, 1024)      0         
_________________________________________________________________
separable_conv2d_2358 (Separ (None, 32, 32, 32)        42016     
_________________________________________________________________
activation_2607 (Activation) (None, 32, 32, 32)        0         
_________________________________________________________________
dropout_2607 (Dropout)       (None, 32, 32, 32)        0         
_________________________________________________________________
max_pooling2d_458 (MaxPoolin (None, 16, 16, 32)        0         
_________________________________________________________________
separable_conv2d_2359 (Separ (None, 16, 16, 512)       17184     
_________________________________________________________________
activation_2608 (Activation) (None, 16, 16, 512)       0         
_________________________________________________________________
dropout_2608 (Dropout)       (None, 16, 16, 512)       0         
_________________________________________________________________
separable_conv2d_2360 (Separ (None, 16, 16, 1024)      529920    
_________________________________________________________________
batch_normalization_1284 (Ba (None, 16, 16, 1024)      4096      
_________________________________________________________________
activation_2609 (Activation) (None, 16, 16, 1024)      0         
_________________________________________________________________
dropout_2609 (Dropout)       (None, 16, 16, 1024)      0         
_________________________________________________________________
separable_conv2d_2361 (Separ (None, 16, 16, 1024)      1058816   
_________________________________________________________________
batch_normalization_1285 (Ba (None, 16, 16, 1024)      4096      
_________________________________________________________________
activation_2610 (Activation) (None, 16, 16, 1024)      0         
_________________________________________________________________
dropout_2610 (Dropout)       (None, 16, 16, 1024)      0         
_________________________________________________________________
separable_conv2d_2362 (Separ (None, 16, 16, 16)        25616     
_________________________________________________________________
batch_normalization_1286 (Ba (None, 16, 16, 16)        64        
_________________________________________________________________
activation_2611 (Activation) (None, 16, 16, 16)        0         
_________________________________________________________________
dropout_2611 (Dropout)       (None, 16, 16, 16)        0         
_________________________________________________________________
separable_conv2d_2363 (Separ (None, 16, 16, 64)        1232      
_________________________________________________________________
activation_2612 (Activation) (None, 16, 16, 64)        0         
_________________________________________________________________
dropout_2612 (Dropout)       (None, 16, 16, 64)        0         
_________________________________________________________________
separable_conv2d_2364 (Separ (None, 16, 16, 16)        1616      
_________________________________________________________________
activation_2613 (Activation) (None, 16, 16, 16)        0         
_________________________________________________________________
dropout_2613 (Dropout)       (None, 16, 16, 16)        0         
_________________________________________________________________
flatten_272 (Flatten)        (None, 4096)              0         
_________________________________________________________________
dense_521 (Dense)            (None, 100)               409700    
=================================================================
Total params: 2,102,575
Trainable params: 2,096,399
Non-trainable params: 6,176
_________________________________________________________________
