Model: "sequential_143"
_________________________________________________________________
Layer (type)                 Output Shape              Param #   
=================================================================
separable_conv2d_1326 (Separ (None, 32, 32, 1024)      4123      
_________________________________________________________________
batch_normalization_743 (Bat (None, 32, 32, 1024)      4096      
_________________________________________________________________
activation_1496 (Activation) (None, 32, 32, 1024)      0         
_________________________________________________________________
dropout_1496 (Dropout)       (None, 32, 32, 1024)      0         
_________________________________________________________________
max_pooling2d_300 (MaxPoolin (None, 16, 16, 1024)      0         
_________________________________________________________________
separable_conv2d_1327 (Separ (None, 16, 16, 128)       140416    
_________________________________________________________________
activation_1497 (Activation) (None, 16, 16, 128)       0         
_________________________________________________________________
dropout_1497 (Dropout)       (None, 16, 16, 128)       0         
_________________________________________________________________
max_pooling2d_301 (MaxPoolin (None, 8, 8, 128)         0         
_________________________________________________________________
separable_conv2d_1328 (Separ (None, 8, 8, 512)         67200     
_________________________________________________________________
activation_1498 (Activation) (None, 8, 8, 512)         0         
_________________________________________________________________
dropout_1498 (Dropout)       (None, 8, 8, 512)         0         
_________________________________________________________________
separable_conv2d_1329 (Separ (None, 8, 8, 8)           8712      
_________________________________________________________________
batch_normalization_744 (Bat (None, 8, 8, 8)           32        
_________________________________________________________________
activation_1499 (Activation) (None, 8, 8, 8)           0         
_________________________________________________________________
dropout_1499 (Dropout)       (None, 8, 8, 8)           0         
_________________________________________________________________
separable_conv2d_1330 (Separ (None, 8, 8, 1024)        9288      
_________________________________________________________________
batch_normalization_745 (Bat (None, 8, 8, 1024)        4096      
_________________________________________________________________
activation_1500 (Activation) (None, 8, 8, 1024)        0         
_________________________________________________________________
dropout_1500 (Dropout)       (None, 8, 8, 1024)        0         
_________________________________________________________________
separable_conv2d_1331 (Separ (None, 8, 8, 16)          25616     
_________________________________________________________________
batch_normalization_746 (Bat (None, 8, 8, 16)          64        
_________________________________________________________________
activation_1501 (Activation) (None, 8, 8, 16)          0         
_________________________________________________________________
dropout_1501 (Dropout)       (None, 8, 8, 16)          0         
_________________________________________________________________
separable_conv2d_1332 (Separ (None, 8, 8, 16)          416       
_________________________________________________________________
batch_normalization_747 (Bat (None, 8, 8, 16)          64        
_________________________________________________________________
activation_1502 (Activation) (None, 8, 8, 16)          0         
_________________________________________________________________
dropout_1502 (Dropout)       (None, 8, 8, 16)          0         
_________________________________________________________________
separable_conv2d_1333 (Separ (None, 8, 8, 8)           280       
_________________________________________________________________
activation_1503 (Activation) (None, 8, 8, 8)           0         
_________________________________________________________________
dropout_1503 (Dropout)       (None, 8, 8, 8)           0         
_________________________________________________________________
flatten_143 (Flatten)        (None, 512)               0         
_________________________________________________________________
dense_313 (Dense)            (None, 4096)              2101248   
_________________________________________________________________
activation_1504 (Activation) (None, 4096)              0         
_________________________________________________________________
dropout_1504 (Dropout)       (None, 4096)              0         
_________________________________________________________________
dense_314 (Dense)            (None, 100)               409700    
=================================================================
Total params: 2,775,351
Trainable params: 2,771,175
Non-trainable params: 4,176
_________________________________________________________________
