Model: "sequential_351"
_________________________________________________________________
Layer (type)                 Output Shape              Param #   
=================================================================
separable_conv2d_2988 (Separ (None, 32, 32, 1024)      4123      
_________________________________________________________________
batch_normalization_1595 (Ba (None, 32, 32, 1024)      4096      
_________________________________________________________________
activation_3253 (Activation) (None, 32, 32, 1024)      0         
_________________________________________________________________
dropout_3253 (Dropout)       (None, 32, 32, 1024)      0         
_________________________________________________________________
separable_conv2d_2989 (Separ (None, 32, 32, 32)        42016     
_________________________________________________________________
activation_3254 (Activation) (None, 32, 32, 32)        0         
_________________________________________________________________
dropout_3254 (Dropout)       (None, 32, 32, 32)        0         
_________________________________________________________________
max_pooling2d_547 (MaxPoolin (None, 16, 16, 32)        0         
_________________________________________________________________
separable_conv2d_2990 (Separ (None, 16, 16, 512)       17184     
_________________________________________________________________
activation_3255 (Activation) (None, 16, 16, 512)       0         
_________________________________________________________________
dropout_3255 (Dropout)       (None, 16, 16, 512)       0         
_________________________________________________________________
separable_conv2d_2991 (Separ (None, 16, 16, 1024)      529920    
_________________________________________________________________
batch_normalization_1596 (Ba (None, 16, 16, 1024)      4096      
_________________________________________________________________
activation_3256 (Activation) (None, 16, 16, 1024)      0         
_________________________________________________________________
dropout_3256 (Dropout)       (None, 16, 16, 1024)      0         
_________________________________________________________________
separable_conv2d_2992 (Separ (None, 16, 16, 1024)      1058816   
_________________________________________________________________
batch_normalization_1597 (Ba (None, 16, 16, 1024)      4096      
_________________________________________________________________
activation_3257 (Activation) (None, 16, 16, 1024)      0         
_________________________________________________________________
dropout_3257 (Dropout)       (None, 16, 16, 1024)      0         
_________________________________________________________________
separable_conv2d_2993 (Separ (None, 16, 16, 16)        25616     
_________________________________________________________________
batch_normalization_1598 (Ba (None, 16, 16, 16)        64        
_________________________________________________________________
activation_3258 (Activation) (None, 16, 16, 16)        0         
_________________________________________________________________
dropout_3258 (Dropout)       (None, 16, 16, 16)        0         
_________________________________________________________________
separable_conv2d_2994 (Separ (None, 16, 16, 64)        1232      
_________________________________________________________________
batch_normalization_1599 (Ba (None, 16, 16, 64)        256       
_________________________________________________________________
activation_3259 (Activation) (None, 16, 16, 64)        0         
_________________________________________________________________
dropout_3259 (Dropout)       (None, 16, 16, 64)        0         
_________________________________________________________________
separable_conv2d_2995 (Separ (None, 16, 16, 16)        1616      
_________________________________________________________________
activation_3260 (Activation) (None, 16, 16, 16)        0         
_________________________________________________________________
dropout_3260 (Dropout)       (None, 16, 16, 16)        0         
_________________________________________________________________
flatten_351 (Flatten)        (None, 4096)              0         
_________________________________________________________________
dense_616 (Dense)            (None, 100)               409700    
=================================================================
Total params: 2,102,831
Trainable params: 2,096,527
Non-trainable params: 6,304
_________________________________________________________________
