Model: "sequential_247"
_________________________________________________________________
Layer (type)                 Output Shape              Param #   
=================================================================
separable_conv2d_2157 (Separ (None, 32, 32, 1024)      4123      
_________________________________________________________________
batch_normalization_1186 (Ba (None, 32, 32, 1024)      4096      
_________________________________________________________________
activation_2400 (Activation) (None, 32, 32, 1024)      0         
_________________________________________________________________
dropout_2400 (Dropout)       (None, 32, 32, 1024)      0         
_________________________________________________________________
separable_conv2d_2158 (Separ (None, 32, 32, 32)        42016     
_________________________________________________________________
activation_2401 (Activation) (None, 32, 32, 32)        0         
_________________________________________________________________
dropout_2401 (Dropout)       (None, 32, 32, 32)        0         
_________________________________________________________________
max_pooling2d_432 (MaxPoolin (None, 16, 16, 32)        0         
_________________________________________________________________
separable_conv2d_2159 (Separ (None, 16, 16, 512)       17184     
_________________________________________________________________
activation_2402 (Activation) (None, 16, 16, 512)       0         
_________________________________________________________________
dropout_2402 (Dropout)       (None, 16, 16, 512)       0         
_________________________________________________________________
separable_conv2d_2160 (Separ (None, 16, 16, 1024)      529920    
_________________________________________________________________
batch_normalization_1187 (Ba (None, 16, 16, 1024)      4096      
_________________________________________________________________
activation_2403 (Activation) (None, 16, 16, 1024)      0         
_________________________________________________________________
dropout_2403 (Dropout)       (None, 16, 16, 1024)      0         
_________________________________________________________________
separable_conv2d_2161 (Separ (None, 16, 16, 1024)      1058816   
_________________________________________________________________
batch_normalization_1188 (Ba (None, 16, 16, 1024)      4096      
_________________________________________________________________
activation_2404 (Activation) (None, 16, 16, 1024)      0         
_________________________________________________________________
dropout_2404 (Dropout)       (None, 16, 16, 1024)      0         
_________________________________________________________________
separable_conv2d_2162 (Separ (None, 16, 16, 16)        25616     
_________________________________________________________________
batch_normalization_1189 (Ba (None, 16, 16, 16)        64        
_________________________________________________________________
activation_2405 (Activation) (None, 16, 16, 16)        0         
_________________________________________________________________
dropout_2405 (Dropout)       (None, 16, 16, 16)        0         
_________________________________________________________________
separable_conv2d_2163 (Separ (None, 16, 16, 64)        1232      
_________________________________________________________________
activation_2406 (Activation) (None, 16, 16, 64)        0         
_________________________________________________________________
dropout_2406 (Dropout)       (None, 16, 16, 64)        0         
_________________________________________________________________
separable_conv2d_2164 (Separ (None, 16, 16, 16)        1616      
_________________________________________________________________
activation_2407 (Activation) (None, 16, 16, 16)        0         
_________________________________________________________________
dropout_2407 (Dropout)       (None, 16, 16, 16)        0         
_________________________________________________________________
flatten_247 (Flatten)        (None, 4096)              0         
_________________________________________________________________
dense_490 (Dense)            (None, 100)               409700    
=================================================================
Total params: 2,102,575
Trainable params: 2,096,399
Non-trainable params: 6,176
_________________________________________________________________
