Model: "sequential_68"
_________________________________________________________________
Layer (type)                 Output Shape              Param #   
=================================================================
separable_conv2d_666 (Separa (None, 32, 32, 1024)      4123      
_________________________________________________________________
batch_normalization_375 (Bat (None, 32, 32, 1024)      4096      
_________________________________________________________________
activation_760 (Activation)  (None, 32, 32, 1024)      0         
_________________________________________________________________
dropout_760 (Dropout)        (None, 32, 32, 1024)      0         
_________________________________________________________________
max_pooling2d_151 (MaxPoolin (None, 16, 16, 1024)      0         
_________________________________________________________________
separable_conv2d_667 (Separa (None, 16, 16, 32)        42016     
_________________________________________________________________
activation_761 (Activation)  (None, 16, 16, 32)        0         
_________________________________________________________________
dropout_761 (Dropout)        (None, 16, 16, 32)        0         
_________________________________________________________________
max_pooling2d_152 (MaxPoolin (None, 8, 8, 32)          0         
_________________________________________________________________
separable_conv2d_668 (Separa (None, 8, 8, 512)         17184     
_________________________________________________________________
activation_762 (Activation)  (None, 8, 8, 512)         0         
_________________________________________________________________
dropout_762 (Dropout)        (None, 8, 8, 512)         0         
_________________________________________________________________
separable_conv2d_669 (Separa (None, 8, 8, 1024)        529920    
_________________________________________________________________
batch_normalization_376 (Bat (None, 8, 8, 1024)        4096      
_________________________________________________________________
activation_763 (Activation)  (None, 8, 8, 1024)        0         
_________________________________________________________________
dropout_763 (Dropout)        (None, 8, 8, 1024)        0         
_________________________________________________________________
separable_conv2d_670 (Separa (None, 8, 8, 1024)        1058816   
_________________________________________________________________
batch_normalization_377 (Bat (None, 8, 8, 1024)        4096      
_________________________________________________________________
activation_764 (Activation)  (None, 8, 8, 1024)        0         
_________________________________________________________________
dropout_764 (Dropout)        (None, 8, 8, 1024)        0         
_________________________________________________________________
separable_conv2d_671 (Separa (None, 8, 8, 16)          25616     
_________________________________________________________________
batch_normalization_378 (Bat (None, 8, 8, 16)          64        
_________________________________________________________________
activation_765 (Activation)  (None, 8, 8, 16)          0         
_________________________________________________________________
dropout_765 (Dropout)        (None, 8, 8, 16)          0         
_________________________________________________________________
separable_conv2d_672 (Separa (None, 8, 8, 16)          416       
_________________________________________________________________
batch_normalization_379 (Bat (None, 8, 8, 16)          64        
_________________________________________________________________
activation_766 (Activation)  (None, 8, 8, 16)          0         
_________________________________________________________________
dropout_766 (Dropout)        (None, 8, 8, 16)          0         
_________________________________________________________________
separable_conv2d_673 (Separa (None, 8, 8, 512)         8848      
_________________________________________________________________
activation_767 (Activation)  (None, 8, 8, 512)         0         
_________________________________________________________________
dropout_767 (Dropout)        (None, 8, 8, 512)         0         
_________________________________________________________________
separable_conv2d_674 (Separa (None, 8, 8, 64)          37440     
_________________________________________________________________
activation_768 (Activation)  (None, 8, 8, 64)          0         
_________________________________________________________________
dropout_768 (Dropout)        (None, 8, 8, 64)          0         
_________________________________________________________________
separable_conv2d_675 (Separa (None, 8, 8, 8)           1096      
_________________________________________________________________
activation_769 (Activation)  (None, 8, 8, 8)           0         
_________________________________________________________________
dropout_769 (Dropout)        (None, 8, 8, 8)           0         
_________________________________________________________________
flatten_68 (Flatten)         (None, 512)               0         
_________________________________________________________________
dense_162 (Dense)            (None, 4096)              2101248   
_________________________________________________________________
activation_770 (Activation)  (None, 4096)              0         
_________________________________________________________________
dropout_770 (Dropout)        (None, 4096)              0         
_________________________________________________________________
dense_163 (Dense)            (None, 100)               409700    
=================================================================
Total params: 4,248,839
Trainable params: 4,242,631
Non-trainable params: 6,208
_________________________________________________________________
