Model: "sequential_64"
_________________________________________________________________
Layer (type)                 Output Shape              Param #   
=================================================================
separable_conv2d_629 (Separa (None, 32, 32, 1024)      4123      
_________________________________________________________________
batch_normalization_355 (Bat (None, 32, 32, 1024)      4096      
_________________________________________________________________
activation_718 (Activation)  (None, 32, 32, 1024)      0         
_________________________________________________________________
dropout_718 (Dropout)        (None, 32, 32, 1024)      0         
_________________________________________________________________
max_pooling2d_143 (MaxPoolin (None, 16, 16, 1024)      0         
_________________________________________________________________
separable_conv2d_630 (Separa (None, 16, 16, 32)        42016     
_________________________________________________________________
activation_719 (Activation)  (None, 16, 16, 32)        0         
_________________________________________________________________
dropout_719 (Dropout)        (None, 16, 16, 32)        0         
_________________________________________________________________
max_pooling2d_144 (MaxPoolin (None, 8, 8, 32)          0         
_________________________________________________________________
separable_conv2d_631 (Separa (None, 8, 8, 512)         17184     
_________________________________________________________________
activation_720 (Activation)  (None, 8, 8, 512)         0         
_________________________________________________________________
dropout_720 (Dropout)        (None, 8, 8, 512)         0         
_________________________________________________________________
separable_conv2d_632 (Separa (None, 8, 8, 1024)        529920    
_________________________________________________________________
batch_normalization_356 (Bat (None, 8, 8, 1024)        4096      
_________________________________________________________________
activation_721 (Activation)  (None, 8, 8, 1024)        0         
_________________________________________________________________
dropout_721 (Dropout)        (None, 8, 8, 1024)        0         
_________________________________________________________________
separable_conv2d_633 (Separa (None, 8, 8, 1024)        1058816   
_________________________________________________________________
batch_normalization_357 (Bat (None, 8, 8, 1024)        4096      
_________________________________________________________________
activation_722 (Activation)  (None, 8, 8, 1024)        0         
_________________________________________________________________
dropout_722 (Dropout)        (None, 8, 8, 1024)        0         
_________________________________________________________________
separable_conv2d_634 (Separa (None, 8, 8, 16)          25616     
_________________________________________________________________
batch_normalization_358 (Bat (None, 8, 8, 16)          64        
_________________________________________________________________
activation_723 (Activation)  (None, 8, 8, 16)          0         
_________________________________________________________________
dropout_723 (Dropout)        (None, 8, 8, 16)          0         
_________________________________________________________________
separable_conv2d_635 (Separa (None, 8, 8, 8)           280       
_________________________________________________________________
activation_724 (Activation)  (None, 8, 8, 8)           0         
_________________________________________________________________
dropout_724 (Dropout)        (None, 8, 8, 8)           0         
_________________________________________________________________
separable_conv2d_636 (Separa (None, 8, 8, 512)         4680      
_________________________________________________________________
batch_normalization_359 (Bat (None, 8, 8, 512)         2048      
_________________________________________________________________
activation_725 (Activation)  (None, 8, 8, 512)         0         
_________________________________________________________________
dropout_725 (Dropout)        (None, 8, 8, 512)         0         
_________________________________________________________________
separable_conv2d_637 (Separa (None, 8, 8, 512)         267264    
_________________________________________________________________
activation_726 (Activation)  (None, 8, 8, 512)         0         
_________________________________________________________________
dropout_726 (Dropout)        (None, 8, 8, 512)         0         
_________________________________________________________________
flatten_64 (Flatten)         (None, 32768)             0         
_________________________________________________________________
dense_153 (Dense)            (None, 256)               8388864   
_________________________________________________________________
activation_727 (Activation)  (None, 256)               0         
_________________________________________________________________
dropout_727 (Dropout)        (None, 256)               0         
_________________________________________________________________
dense_154 (Dense)            (None, 100)               25700     
=================================================================
Total params: 10,378,863
Trainable params: 10,371,663
Non-trainable params: 7,200
_________________________________________________________________
