Model: "sequential_40"
_________________________________________________________________
Layer (type)                 Output Shape              Param #   
=================================================================
separable_conv2d_396 (Separa (None, 32, 32, 1024)      4123      
_________________________________________________________________
batch_normalization_225 (Bat (None, 32, 32, 1024)      4096      
_________________________________________________________________
activation_455 (Activation)  (None, 32, 32, 1024)      0         
_________________________________________________________________
dropout_455 (Dropout)        (None, 32, 32, 1024)      0         
_________________________________________________________________
max_pooling2d_92 (MaxPooling (None, 16, 16, 1024)      0         
_________________________________________________________________
separable_conv2d_397 (Separa (None, 16, 16, 32)        42016     
_________________________________________________________________
activation_456 (Activation)  (None, 16, 16, 32)        0         
_________________________________________________________________
dropout_456 (Dropout)        (None, 16, 16, 32)        0         
_________________________________________________________________
max_pooling2d_93 (MaxPooling (None, 8, 8, 32)          0         
_________________________________________________________________
separable_conv2d_398 (Separa (None, 8, 8, 512)         17184     
_________________________________________________________________
activation_457 (Activation)  (None, 8, 8, 512)         0         
_________________________________________________________________
dropout_457 (Dropout)        (None, 8, 8, 512)         0         
_________________________________________________________________
separable_conv2d_399 (Separa (None, 8, 8, 1024)        529920    
_________________________________________________________________
batch_normalization_226 (Bat (None, 8, 8, 1024)        4096      
_________________________________________________________________
activation_458 (Activation)  (None, 8, 8, 1024)        0         
_________________________________________________________________
dropout_458 (Dropout)        (None, 8, 8, 1024)        0         
_________________________________________________________________
separable_conv2d_400 (Separa (None, 8, 8, 1024)        1058816   
_________________________________________________________________
batch_normalization_227 (Bat (None, 8, 8, 1024)        4096      
_________________________________________________________________
activation_459 (Activation)  (None, 8, 8, 1024)        0         
_________________________________________________________________
dropout_459 (Dropout)        (None, 8, 8, 1024)        0         
_________________________________________________________________
separable_conv2d_401 (Separa (None, 8, 8, 16)          25616     
_________________________________________________________________
batch_normalization_228 (Bat (None, 8, 8, 16)          64        
_________________________________________________________________
activation_460 (Activation)  (None, 8, 8, 16)          0         
_________________________________________________________________
dropout_460 (Dropout)        (None, 8, 8, 16)          0         
_________________________________________________________________
separable_conv2d_402 (Separa (None, 8, 8, 16)          416       
_________________________________________________________________
batch_normalization_229 (Bat (None, 8, 8, 16)          64        
_________________________________________________________________
activation_461 (Activation)  (None, 8, 8, 16)          0         
_________________________________________________________________
dropout_461 (Dropout)        (None, 8, 8, 16)          0         
_________________________________________________________________
separable_conv2d_403 (Separa (None, 8, 8, 256)         4496      
_________________________________________________________________
batch_normalization_230 (Bat (None, 8, 8, 256)         1024      
_________________________________________________________________
activation_462 (Activation)  (None, 8, 8, 256)         0         
_________________________________________________________________
dropout_462 (Dropout)        (None, 8, 8, 256)         0         
_________________________________________________________________
separable_conv2d_404 (Separa (None, 8, 8, 512)         133888    
_________________________________________________________________
batch_normalization_231 (Bat (None, 8, 8, 512)         2048      
_________________________________________________________________
activation_463 (Activation)  (None, 8, 8, 512)         0         
_________________________________________________________________
dropout_463 (Dropout)        (None, 8, 8, 512)         0         
_________________________________________________________________
flatten_40 (Flatten)         (None, 32768)             0         
_________________________________________________________________
dense_99 (Dense)             (None, 64)                2097216   
_________________________________________________________________
activation_464 (Activation)  (None, 64)                0         
_________________________________________________________________
dropout_464 (Dropout)        (None, 64)                0         
_________________________________________________________________
dense_100 (Dense)            (None, 1024)              66560     
_________________________________________________________________
activation_465 (Activation)  (None, 1024)              0         
_________________________________________________________________
dropout_465 (Dropout)        (None, 1024)              0         
_________________________________________________________________
dense_101 (Dense)            (None, 100)               102500    
=================================================================
Total params: 4,098,239
Trainable params: 4,090,495
Non-trainable params: 7,744
_________________________________________________________________
