Model: "sequential_211"
_________________________________________________________________
Layer (type)                 Output Shape              Param #   
=================================================================
separable_conv2d_1870 (Separ (None, 32, 32, 1024)      4123      
_________________________________________________________________
batch_normalization_1037 (Ba (None, 32, 32, 1024)      4096      
_________________________________________________________________
activation_2095 (Activation) (None, 32, 32, 1024)      0         
_________________________________________________________________
dropout_2095 (Dropout)       (None, 32, 32, 1024)      0         
_________________________________________________________________
separable_conv2d_1871 (Separ (None, 32, 32, 32)        42016     
_________________________________________________________________
activation_2096 (Activation) (None, 32, 32, 32)        0         
_________________________________________________________________
dropout_2096 (Dropout)       (None, 32, 32, 32)        0         
_________________________________________________________________
max_pooling2d_395 (MaxPoolin (None, 16, 16, 32)        0         
_________________________________________________________________
separable_conv2d_1872 (Separ (None, 16, 16, 512)       17184     
_________________________________________________________________
activation_2097 (Activation) (None, 16, 16, 512)       0         
_________________________________________________________________
dropout_2097 (Dropout)       (None, 16, 16, 512)       0         
_________________________________________________________________
separable_conv2d_1873 (Separ (None, 16, 16, 1024)      529920    
_________________________________________________________________
batch_normalization_1038 (Ba (None, 16, 16, 1024)      4096      
_________________________________________________________________
activation_2098 (Activation) (None, 16, 16, 1024)      0         
_________________________________________________________________
dropout_2098 (Dropout)       (None, 16, 16, 1024)      0         
_________________________________________________________________
separable_conv2d_1874 (Separ (None, 16, 16, 1024)      1058816   
_________________________________________________________________
batch_normalization_1039 (Ba (None, 16, 16, 1024)      4096      
_________________________________________________________________
activation_2099 (Activation) (None, 16, 16, 1024)      0         
_________________________________________________________________
dropout_2099 (Dropout)       (None, 16, 16, 1024)      0         
_________________________________________________________________
separable_conv2d_1875 (Separ (None, 16, 16, 16)        25616     
_________________________________________________________________
batch_normalization_1040 (Ba (None, 16, 16, 16)        64        
_________________________________________________________________
activation_2100 (Activation) (None, 16, 16, 16)        0         
_________________________________________________________________
dropout_2100 (Dropout)       (None, 16, 16, 16)        0         
_________________________________________________________________
separable_conv2d_1876 (Separ (None, 16, 16, 64)        1232      
_________________________________________________________________
activation_2101 (Activation) (None, 16, 16, 64)        0         
_________________________________________________________________
dropout_2101 (Dropout)       (None, 16, 16, 64)        0         
_________________________________________________________________
separable_conv2d_1877 (Separ (None, 16, 16, 8)         1096      
_________________________________________________________________
activation_2102 (Activation) (None, 16, 16, 8)         0         
_________________________________________________________________
dropout_2102 (Dropout)       (None, 16, 16, 8)         0         
_________________________________________________________________
flatten_211 (Flatten)        (None, 2048)              0         
_________________________________________________________________
dense_436 (Dense)            (None, 4096)              8392704   
_________________________________________________________________
activation_2103 (Activation) (None, 4096)              0         
_________________________________________________________________
dropout_2103 (Dropout)       (None, 4096)              0         
_________________________________________________________________
dense_437 (Dense)            (None, 100)               409700    
=================================================================
Total params: 10,494,759
Trainable params: 10,488,583
Non-trainable params: 6,176
_________________________________________________________________
