Model: "sequential_257"
_________________________________________________________________
Layer (type)                 Output Shape              Param #   
=================================================================
separable_conv2d_2237 (Separ (None, 32, 32, 1024)      4123      
_________________________________________________________________
batch_normalization_1225 (Ba (None, 32, 32, 1024)      4096      
_________________________________________________________________
activation_2482 (Activation) (None, 32, 32, 1024)      0         
_________________________________________________________________
dropout_2482 (Dropout)       (None, 32, 32, 1024)      0         
_________________________________________________________________
separable_conv2d_2238 (Separ (None, 32, 32, 32)        42016     
_________________________________________________________________
activation_2483 (Activation) (None, 32, 32, 32)        0         
_________________________________________________________________
dropout_2483 (Dropout)       (None, 32, 32, 32)        0         
_________________________________________________________________
max_pooling2d_443 (MaxPoolin (None, 16, 16, 32)        0         
_________________________________________________________________
separable_conv2d_2239 (Separ (None, 16, 16, 512)       17184     
_________________________________________________________________
activation_2484 (Activation) (None, 16, 16, 512)       0         
_________________________________________________________________
dropout_2484 (Dropout)       (None, 16, 16, 512)       0         
_________________________________________________________________
separable_conv2d_2240 (Separ (None, 16, 16, 1024)      529920    
_________________________________________________________________
batch_normalization_1226 (Ba (None, 16, 16, 1024)      4096      
_________________________________________________________________
activation_2485 (Activation) (None, 16, 16, 1024)      0         
_________________________________________________________________
dropout_2485 (Dropout)       (None, 16, 16, 1024)      0         
_________________________________________________________________
separable_conv2d_2241 (Separ (None, 16, 16, 1024)      1058816   
_________________________________________________________________
batch_normalization_1227 (Ba (None, 16, 16, 1024)      4096      
_________________________________________________________________
activation_2486 (Activation) (None, 16, 16, 1024)      0         
_________________________________________________________________
dropout_2486 (Dropout)       (None, 16, 16, 1024)      0         
_________________________________________________________________
separable_conv2d_2242 (Separ (None, 16, 16, 16)        25616     
_________________________________________________________________
batch_normalization_1228 (Ba (None, 16, 16, 16)        64        
_________________________________________________________________
activation_2487 (Activation) (None, 16, 16, 16)        0         
_________________________________________________________________
dropout_2487 (Dropout)       (None, 16, 16, 16)        0         
_________________________________________________________________
separable_conv2d_2243 (Separ (None, 16, 16, 64)        1232      
_________________________________________________________________
activation_2488 (Activation) (None, 16, 16, 64)        0         
_________________________________________________________________
dropout_2488 (Dropout)       (None, 16, 16, 64)        0         
_________________________________________________________________
separable_conv2d_2244 (Separ (None, 16, 16, 16)        1616      
_________________________________________________________________
activation_2489 (Activation) (None, 16, 16, 16)        0         
_________________________________________________________________
dropout_2489 (Dropout)       (None, 16, 16, 16)        0         
_________________________________________________________________
flatten_257 (Flatten)        (None, 4096)              0         
_________________________________________________________________
dense_502 (Dense)            (None, 100)               409700    
=================================================================
Total params: 2,102,575
Trainable params: 2,096,399
Non-trainable params: 6,176
_________________________________________________________________
