Model: "sequential_329"
_________________________________________________________________
Layer (type)                 Output Shape              Param #   
=================================================================
separable_conv2d_2813 (Separ (None, 32, 32, 1024)      4123      
_________________________________________________________________
batch_normalization_1509 (Ba (None, 32, 32, 1024)      4096      
_________________________________________________________________
activation_3074 (Activation) (None, 32, 32, 1024)      0         
_________________________________________________________________
dropout_3074 (Dropout)       (None, 32, 32, 1024)      0         
_________________________________________________________________
separable_conv2d_2814 (Separ (None, 32, 32, 32)        42016     
_________________________________________________________________
activation_3075 (Activation) (None, 32, 32, 32)        0         
_________________________________________________________________
dropout_3075 (Dropout)       (None, 32, 32, 32)        0         
_________________________________________________________________
max_pooling2d_520 (MaxPoolin (None, 16, 16, 32)        0         
_________________________________________________________________
separable_conv2d_2815 (Separ (None, 16, 16, 512)       17184     
_________________________________________________________________
batch_normalization_1510 (Ba (None, 16, 16, 512)       2048      
_________________________________________________________________
activation_3076 (Activation) (None, 16, 16, 512)       0         
_________________________________________________________________
dropout_3076 (Dropout)       (None, 16, 16, 512)       0         
_________________________________________________________________
max_pooling2d_521 (MaxPoolin (None, 8, 8, 512)         0         
_________________________________________________________________
separable_conv2d_2816 (Separ (None, 8, 8, 1024)        529920    
_________________________________________________________________
batch_normalization_1511 (Ba (None, 8, 8, 1024)        4096      
_________________________________________________________________
activation_3077 (Activation) (None, 8, 8, 1024)        0         
_________________________________________________________________
dropout_3077 (Dropout)       (None, 8, 8, 1024)        0         
_________________________________________________________________
separable_conv2d_2817 (Separ (None, 8, 8, 1024)        1058816   
_________________________________________________________________
activation_3078 (Activation) (None, 8, 8, 1024)        0         
_________________________________________________________________
dropout_3078 (Dropout)       (None, 8, 8, 1024)        0         
_________________________________________________________________
separable_conv2d_2818 (Separ (None, 8, 8, 64)          74816     
_________________________________________________________________
batch_normalization_1512 (Ba (None, 8, 8, 64)          256       
_________________________________________________________________
activation_3079 (Activation) (None, 8, 8, 64)          0         
_________________________________________________________________
dropout_3079 (Dropout)       (None, 8, 8, 64)          0         
_________________________________________________________________
separable_conv2d_2819 (Separ (None, 8, 8, 64)          4736      
_________________________________________________________________
activation_3080 (Activation) (None, 8, 8, 64)          0         
_________________________________________________________________
dropout_3080 (Dropout)       (None, 8, 8, 64)          0         
_________________________________________________________________
separable_conv2d_2820 (Separ (None, 8, 8, 16)          1616      
_________________________________________________________________
activation_3081 (Activation) (None, 8, 8, 16)          0         
_________________________________________________________________
dropout_3081 (Dropout)       (None, 8, 8, 16)          0         
_________________________________________________________________
flatten_329 (Flatten)        (None, 1024)              0         
_________________________________________________________________
dense_590 (Dense)            (None, 100)               102500    
=================================================================
Total params: 1,846,223
Trainable params: 1,840,975
Non-trainable params: 5,248
_________________________________________________________________
