Model: "sequential_49"
_________________________________________________________________
Layer (type)                 Output Shape              Param #   
=================================================================
separable_conv2d_487 (Separa (None, 32, 32, 1024)      4123      
_________________________________________________________________
batch_normalization_278 (Bat (None, 32, 32, 1024)      4096      
_________________________________________________________________
activation_559 (Activation)  (None, 32, 32, 1024)      0         
_________________________________________________________________
dropout_559 (Dropout)        (None, 32, 32, 1024)      0         
_________________________________________________________________
max_pooling2d_113 (MaxPoolin (None, 16, 16, 1024)      0         
_________________________________________________________________
separable_conv2d_488 (Separa (None, 16, 16, 32)        42016     
_________________________________________________________________
activation_560 (Activation)  (None, 16, 16, 32)        0         
_________________________________________________________________
dropout_560 (Dropout)        (None, 16, 16, 32)        0         
_________________________________________________________________
max_pooling2d_114 (MaxPoolin (None, 8, 8, 32)          0         
_________________________________________________________________
separable_conv2d_489 (Separa (None, 8, 8, 512)         17184     
_________________________________________________________________
activation_561 (Activation)  (None, 8, 8, 512)         0         
_________________________________________________________________
dropout_561 (Dropout)        (None, 8, 8, 512)         0         
_________________________________________________________________
separable_conv2d_490 (Separa (None, 8, 8, 1024)        529920    
_________________________________________________________________
batch_normalization_279 (Bat (None, 8, 8, 1024)        4096      
_________________________________________________________________
activation_562 (Activation)  (None, 8, 8, 1024)        0         
_________________________________________________________________
dropout_562 (Dropout)        (None, 8, 8, 1024)        0         
_________________________________________________________________
separable_conv2d_491 (Separa (None, 8, 8, 1024)        1058816   
_________________________________________________________________
batch_normalization_280 (Bat (None, 8, 8, 1024)        4096      
_________________________________________________________________
activation_563 (Activation)  (None, 8, 8, 1024)        0         
_________________________________________________________________
dropout_563 (Dropout)        (None, 8, 8, 1024)        0         
_________________________________________________________________
separable_conv2d_492 (Separa (None, 8, 8, 16)          25616     
_________________________________________________________________
batch_normalization_281 (Bat (None, 8, 8, 16)          64        
_________________________________________________________________
activation_564 (Activation)  (None, 8, 8, 16)          0         
_________________________________________________________________
dropout_564 (Dropout)        (None, 8, 8, 16)          0         
_________________________________________________________________
separable_conv2d_493 (Separa (None, 8, 8, 16)          416       
_________________________________________________________________
batch_normalization_282 (Bat (None, 8, 8, 16)          64        
_________________________________________________________________
activation_565 (Activation)  (None, 8, 8, 16)          0         
_________________________________________________________________
dropout_565 (Dropout)        (None, 8, 8, 16)          0         
_________________________________________________________________
separable_conv2d_494 (Separa (None, 8, 8, 512)         8848      
_________________________________________________________________
activation_566 (Activation)  (None, 8, 8, 512)         0         
_________________________________________________________________
dropout_566 (Dropout)        (None, 8, 8, 512)         0         
_________________________________________________________________
separable_conv2d_495 (Separa (None, 8, 8, 64)          37440     
_________________________________________________________________
activation_567 (Activation)  (None, 8, 8, 64)          0         
_________________________________________________________________
dropout_567 (Dropout)        (None, 8, 8, 64)          0         
_________________________________________________________________
separable_conv2d_496 (Separa (None, 8, 8, 8)           1096      
_________________________________________________________________
activation_568 (Activation)  (None, 8, 8, 8)           0         
_________________________________________________________________
dropout_568 (Dropout)        (None, 8, 8, 8)           0         
_________________________________________________________________
flatten_49 (Flatten)         (None, 512)               0         
_________________________________________________________________
dense_121 (Dense)            (None, 4096)              2101248   
_________________________________________________________________
activation_569 (Activation)  (None, 4096)              0         
_________________________________________________________________
dropout_569 (Dropout)        (None, 4096)              0         
_________________________________________________________________
dense_122 (Dense)            (None, 100)               409700    
=================================================================
Total params: 4,248,839
Trainable params: 4,242,631
Non-trainable params: 6,208
_________________________________________________________________
