Model: "sequential_133"
_________________________________________________________________
Layer (type)                 Output Shape              Param #   
=================================================================
separable_conv2d_1241 (Separ (None, 32, 32, 1024)      4123      
_________________________________________________________________
batch_normalization_696 (Bat (None, 32, 32, 1024)      4096      
_________________________________________________________________
activation_1401 (Activation) (None, 32, 32, 1024)      0         
_________________________________________________________________
dropout_1401 (Dropout)       (None, 32, 32, 1024)      0         
_________________________________________________________________
max_pooling2d_282 (MaxPoolin (None, 16, 16, 1024)      0         
_________________________________________________________________
separable_conv2d_1242 (Separ (None, 16, 16, 32)        42016     
_________________________________________________________________
activation_1402 (Activation) (None, 16, 16, 32)        0         
_________________________________________________________________
dropout_1402 (Dropout)       (None, 16, 16, 32)        0         
_________________________________________________________________
max_pooling2d_283 (MaxPoolin (None, 8, 8, 32)          0         
_________________________________________________________________
separable_conv2d_1243 (Separ (None, 8, 8, 512)         17184     
_________________________________________________________________
activation_1403 (Activation) (None, 8, 8, 512)         0         
_________________________________________________________________
dropout_1403 (Dropout)       (None, 8, 8, 512)         0         
_________________________________________________________________
separable_conv2d_1244 (Separ (None, 8, 8, 1024)        529920    
_________________________________________________________________
batch_normalization_697 (Bat (None, 8, 8, 1024)        4096      
_________________________________________________________________
activation_1404 (Activation) (None, 8, 8, 1024)        0         
_________________________________________________________________
dropout_1404 (Dropout)       (None, 8, 8, 1024)        0         
_________________________________________________________________
separable_conv2d_1245 (Separ (None, 8, 8, 1024)        1058816   
_________________________________________________________________
batch_normalization_698 (Bat (None, 8, 8, 1024)        4096      
_________________________________________________________________
activation_1405 (Activation) (None, 8, 8, 1024)        0         
_________________________________________________________________
dropout_1405 (Dropout)       (None, 8, 8, 1024)        0         
_________________________________________________________________
separable_conv2d_1246 (Separ (None, 8, 8, 16)          25616     
_________________________________________________________________
batch_normalization_699 (Bat (None, 8, 8, 16)          64        
_________________________________________________________________
activation_1406 (Activation) (None, 8, 8, 16)          0         
_________________________________________________________________
dropout_1406 (Dropout)       (None, 8, 8, 16)          0         
_________________________________________________________________
separable_conv2d_1247 (Separ (None, 8, 8, 64)          1232      
_________________________________________________________________
activation_1407 (Activation) (None, 8, 8, 64)          0         
_________________________________________________________________
dropout_1407 (Dropout)       (None, 8, 8, 64)          0         
_________________________________________________________________
separable_conv2d_1248 (Separ (None, 8, 8, 16)          1616      
_________________________________________________________________
activation_1408 (Activation) (None, 8, 8, 16)          0         
_________________________________________________________________
dropout_1408 (Dropout)       (None, 8, 8, 16)          0         
_________________________________________________________________
flatten_133 (Flatten)        (None, 1024)              0         
_________________________________________________________________
dense_293 (Dense)            (None, 4096)              4198400   
_________________________________________________________________
activation_1409 (Activation) (None, 4096)              0         
_________________________________________________________________
dropout_1409 (Dropout)       (None, 4096)              0         
_________________________________________________________________
dense_294 (Dense)            (None, 100)               409700    
=================================================================
Total params: 6,300,975
Trainable params: 6,294,799
Non-trainable params: 6,176
_________________________________________________________________
