Model: "sequential_385"
_________________________________________________________________
Layer (type)                 Output Shape              Param #   
=================================================================
separable_conv2d_3258 (Separ (None, 32, 32, 1024)      4123      
_________________________________________________________________
batch_normalization_1741 (Ba (None, 32, 32, 1024)      4096      
_________________________________________________________________
activation_3528 (Activation) (None, 32, 32, 1024)      0         
_________________________________________________________________
dropout_3528 (Dropout)       (None, 32, 32, 1024)      0         
_________________________________________________________________
separable_conv2d_3259 (Separ (None, 32, 32, 32)        42016     
_________________________________________________________________
batch_normalization_1742 (Ba (None, 32, 32, 32)        128       
_________________________________________________________________
activation_3529 (Activation) (None, 32, 32, 32)        0         
_________________________________________________________________
dropout_3529 (Dropout)       (None, 32, 32, 32)        0         
_________________________________________________________________
max_pooling2d_582 (MaxPoolin (None, 16, 16, 32)        0         
_________________________________________________________________
separable_conv2d_3260 (Separ (None, 16, 16, 512)       17184     
_________________________________________________________________
activation_3530 (Activation) (None, 16, 16, 512)       0         
_________________________________________________________________
dropout_3530 (Dropout)       (None, 16, 16, 512)       0         
_________________________________________________________________
separable_conv2d_3261 (Separ (None, 16, 16, 1024)      529920    
_________________________________________________________________
batch_normalization_1743 (Ba (None, 16, 16, 1024)      4096      
_________________________________________________________________
activation_3531 (Activation) (None, 16, 16, 1024)      0         
_________________________________________________________________
dropout_3531 (Dropout)       (None, 16, 16, 1024)      0         
_________________________________________________________________
separable_conv2d_3262 (Separ (None, 16, 16, 1024)      1058816   
_________________________________________________________________
batch_normalization_1744 (Ba (None, 16, 16, 1024)      4096      
_________________________________________________________________
activation_3532 (Activation) (None, 16, 16, 1024)      0         
_________________________________________________________________
dropout_3532 (Dropout)       (None, 16, 16, 1024)      0         
_________________________________________________________________
separable_conv2d_3263 (Separ (None, 16, 16, 16)        25616     
_________________________________________________________________
batch_normalization_1745 (Ba (None, 16, 16, 16)        64        
_________________________________________________________________
activation_3533 (Activation) (None, 16, 16, 16)        0         
_________________________________________________________________
dropout_3533 (Dropout)       (None, 16, 16, 16)        0         
_________________________________________________________________
separable_conv2d_3264 (Separ (None, 16, 16, 64)        1232      
_________________________________________________________________
activation_3534 (Activation) (None, 16, 16, 64)        0         
_________________________________________________________________
dropout_3534 (Dropout)       (None, 16, 16, 64)        0         
_________________________________________________________________
separable_conv2d_3265 (Separ (None, 16, 16, 16)        1616      
_________________________________________________________________
activation_3535 (Activation) (None, 16, 16, 16)        0         
_________________________________________________________________
dropout_3535 (Dropout)       (None, 16, 16, 16)        0         
_________________________________________________________________
flatten_385 (Flatten)        (None, 4096)              0         
_________________________________________________________________
dense_655 (Dense)            (None, 100)               409700    
=================================================================
Total params: 2,102,703
Trainable params: 2,096,463
Non-trainable params: 6,240
_________________________________________________________________
