Model: "sequential_171"
_________________________________________________________________
Layer (type)                 Output Shape              Param #   
=================================================================
separable_conv2d_1553 (Separ (None, 32, 32, 1024)      4123      
_________________________________________________________________
batch_normalization_871 (Bat (None, 32, 32, 1024)      4096      
_________________________________________________________________
activation_1749 (Activation) (None, 32, 32, 1024)      0         
_________________________________________________________________
dropout_1749 (Dropout)       (None, 32, 32, 1024)      0         
_________________________________________________________________
max_pooling2d_348 (MaxPoolin (None, 16, 16, 1024)      0         
_________________________________________________________________
separable_conv2d_1554 (Separ (None, 16, 16, 32)        42016     
_________________________________________________________________
activation_1750 (Activation) (None, 16, 16, 32)        0         
_________________________________________________________________
dropout_1750 (Dropout)       (None, 16, 16, 32)        0         
_________________________________________________________________
max_pooling2d_349 (MaxPoolin (None, 8, 8, 32)          0         
_________________________________________________________________
separable_conv2d_1555 (Separ (None, 8, 8, 512)         17184     
_________________________________________________________________
activation_1751 (Activation) (None, 8, 8, 512)         0         
_________________________________________________________________
dropout_1751 (Dropout)       (None, 8, 8, 512)         0         
_________________________________________________________________
separable_conv2d_1556 (Separ (None, 8, 8, 1024)        529920    
_________________________________________________________________
batch_normalization_872 (Bat (None, 8, 8, 1024)        4096      
_________________________________________________________________
activation_1752 (Activation) (None, 8, 8, 1024)        0         
_________________________________________________________________
dropout_1752 (Dropout)       (None, 8, 8, 1024)        0         
_________________________________________________________________
separable_conv2d_1557 (Separ (None, 8, 8, 1024)        1058816   
_________________________________________________________________
batch_normalization_873 (Bat (None, 8, 8, 1024)        4096      
_________________________________________________________________
activation_1753 (Activation) (None, 8, 8, 1024)        0         
_________________________________________________________________
dropout_1753 (Dropout)       (None, 8, 8, 1024)        0         
_________________________________________________________________
separable_conv2d_1558 (Separ (None, 8, 8, 16)          25616     
_________________________________________________________________
batch_normalization_874 (Bat (None, 8, 8, 16)          64        
_________________________________________________________________
activation_1754 (Activation) (None, 8, 8, 16)          0         
_________________________________________________________________
dropout_1754 (Dropout)       (None, 8, 8, 16)          0         
_________________________________________________________________
separable_conv2d_1559 (Separ (None, 8, 8, 16)          416       
_________________________________________________________________
batch_normalization_875 (Bat (None, 8, 8, 16)          64        
_________________________________________________________________
activation_1755 (Activation) (None, 8, 8, 16)          0         
_________________________________________________________________
dropout_1755 (Dropout)       (None, 8, 8, 16)          0         
_________________________________________________________________
separable_conv2d_1560 (Separ (None, 8, 8, 8)           280       
_________________________________________________________________
activation_1756 (Activation) (None, 8, 8, 8)           0         
_________________________________________________________________
dropout_1756 (Dropout)       (None, 8, 8, 8)           0         
_________________________________________________________________
flatten_171 (Flatten)        (None, 512)               0         
_________________________________________________________________
dense_367 (Dense)            (None, 4096)              2101248   
_________________________________________________________________
activation_1757 (Activation) (None, 4096)              0         
_________________________________________________________________
dropout_1757 (Dropout)       (None, 4096)              0         
_________________________________________________________________
dense_368 (Dense)            (None, 100)               409700    
=================================================================
Total params: 4,201,735
Trainable params: 4,195,527
Non-trainable params: 6,208
_________________________________________________________________
