Model: "sequential_54"
_________________________________________________________________
Layer (type)                 Output Shape              Param #   
=================================================================
separable_conv2d_536 (Separa (None, 32, 32, 1024)      4123      
_________________________________________________________________
batch_normalization_302 (Bat (None, 32, 32, 1024)      4096      
_________________________________________________________________
activation_613 (Activation)  (None, 32, 32, 1024)      0         
_________________________________________________________________
dropout_613 (Dropout)        (None, 32, 32, 1024)      0         
_________________________________________________________________
max_pooling2d_123 (MaxPoolin (None, 16, 16, 1024)      0         
_________________________________________________________________
separable_conv2d_537 (Separa (None, 16, 16, 32)        42016     
_________________________________________________________________
activation_614 (Activation)  (None, 16, 16, 32)        0         
_________________________________________________________________
dropout_614 (Dropout)        (None, 16, 16, 32)        0         
_________________________________________________________________
max_pooling2d_124 (MaxPoolin (None, 8, 8, 32)          0         
_________________________________________________________________
separable_conv2d_538 (Separa (None, 8, 8, 512)         17184     
_________________________________________________________________
activation_615 (Activation)  (None, 8, 8, 512)         0         
_________________________________________________________________
dropout_615 (Dropout)        (None, 8, 8, 512)         0         
_________________________________________________________________
separable_conv2d_539 (Separa (None, 8, 8, 1024)        529920    
_________________________________________________________________
batch_normalization_303 (Bat (None, 8, 8, 1024)        4096      
_________________________________________________________________
activation_616 (Activation)  (None, 8, 8, 1024)        0         
_________________________________________________________________
dropout_616 (Dropout)        (None, 8, 8, 1024)        0         
_________________________________________________________________
separable_conv2d_540 (Separa (None, 8, 8, 1024)        1058816   
_________________________________________________________________
batch_normalization_304 (Bat (None, 8, 8, 1024)        4096      
_________________________________________________________________
activation_617 (Activation)  (None, 8, 8, 1024)        0         
_________________________________________________________________
dropout_617 (Dropout)        (None, 8, 8, 1024)        0         
_________________________________________________________________
separable_conv2d_541 (Separa (None, 8, 8, 16)          25616     
_________________________________________________________________
batch_normalization_305 (Bat (None, 8, 8, 16)          64        
_________________________________________________________________
activation_618 (Activation)  (None, 8, 8, 16)          0         
_________________________________________________________________
dropout_618 (Dropout)        (None, 8, 8, 16)          0         
_________________________________________________________________
separable_conv2d_542 (Separa (None, 8, 8, 16)          416       
_________________________________________________________________
batch_normalization_306 (Bat (None, 8, 8, 16)          64        
_________________________________________________________________
activation_619 (Activation)  (None, 8, 8, 16)          0         
_________________________________________________________________
dropout_619 (Dropout)        (None, 8, 8, 16)          0         
_________________________________________________________________
separable_conv2d_543 (Separa (None, 8, 8, 256)         4496      
_________________________________________________________________
batch_normalization_307 (Bat (None, 8, 8, 256)         1024      
_________________________________________________________________
activation_620 (Activation)  (None, 8, 8, 256)         0         
_________________________________________________________________
dropout_620 (Dropout)        (None, 8, 8, 256)         0         
_________________________________________________________________
separable_conv2d_544 (Separa (None, 8, 8, 512)         133888    
_________________________________________________________________
batch_normalization_308 (Bat (None, 8, 8, 512)         2048      
_________________________________________________________________
activation_621 (Activation)  (None, 8, 8, 512)         0         
_________________________________________________________________
dropout_621 (Dropout)        (None, 8, 8, 512)         0         
_________________________________________________________________
flatten_54 (Flatten)         (None, 32768)             0         
_________________________________________________________________
dense_131 (Dense)            (None, 64)                2097216   
_________________________________________________________________
activation_622 (Activation)  (None, 64)                0         
_________________________________________________________________
dropout_622 (Dropout)        (None, 64)                0         
_________________________________________________________________
dense_132 (Dense)            (None, 1024)              66560     
_________________________________________________________________
activation_623 (Activation)  (None, 1024)              0         
_________________________________________________________________
dropout_623 (Dropout)        (None, 1024)              0         
_________________________________________________________________
dense_133 (Dense)            (None, 100)               102500    
=================================================================
Total params: 4,098,239
Trainable params: 4,090,495
Non-trainable params: 7,744
_________________________________________________________________
