Model: "sequential_200"
_________________________________________________________________
Layer (type)                 Output Shape              Param #   
=================================================================
separable_conv2d_1785 (Separ (None, 32, 32, 1024)      4123      
_________________________________________________________________
batch_normalization_994 (Bat (None, 32, 32, 1024)      4096      
_________________________________________________________________
activation_2002 (Activation) (None, 32, 32, 1024)      0         
_________________________________________________________________
dropout_2002 (Dropout)       (None, 32, 32, 1024)      0         
_________________________________________________________________
separable_conv2d_1786 (Separ (None, 32, 32, 32)        42016     
_________________________________________________________________
activation_2003 (Activation) (None, 32, 32, 32)        0         
_________________________________________________________________
dropout_2003 (Dropout)       (None, 32, 32, 32)        0         
_________________________________________________________________
max_pooling2d_384 (MaxPoolin (None, 16, 16, 32)        0         
_________________________________________________________________
separable_conv2d_1787 (Separ (None, 16, 16, 512)       17184     
_________________________________________________________________
activation_2004 (Activation) (None, 16, 16, 512)       0         
_________________________________________________________________
dropout_2004 (Dropout)       (None, 16, 16, 512)       0         
_________________________________________________________________
separable_conv2d_1788 (Separ (None, 16, 16, 1024)      529920    
_________________________________________________________________
batch_normalization_995 (Bat (None, 16, 16, 1024)      4096      
_________________________________________________________________
activation_2005 (Activation) (None, 16, 16, 1024)      0         
_________________________________________________________________
dropout_2005 (Dropout)       (None, 16, 16, 1024)      0         
_________________________________________________________________
separable_conv2d_1789 (Separ (None, 16, 16, 1024)      1058816   
_________________________________________________________________
batch_normalization_996 (Bat (None, 16, 16, 1024)      4096      
_________________________________________________________________
activation_2006 (Activation) (None, 16, 16, 1024)      0         
_________________________________________________________________
dropout_2006 (Dropout)       (None, 16, 16, 1024)      0         
_________________________________________________________________
separable_conv2d_1790 (Separ (None, 16, 16, 16)        25616     
_________________________________________________________________
batch_normalization_997 (Bat (None, 16, 16, 16)        64        
_________________________________________________________________
activation_2007 (Activation) (None, 16, 16, 16)        0         
_________________________________________________________________
dropout_2007 (Dropout)       (None, 16, 16, 16)        0         
_________________________________________________________________
separable_conv2d_1791 (Separ (None, 16, 16, 64)        1232      
_________________________________________________________________
activation_2008 (Activation) (None, 16, 16, 64)        0         
_________________________________________________________________
dropout_2008 (Dropout)       (None, 16, 16, 64)        0         
_________________________________________________________________
separable_conv2d_1792 (Separ (None, 16, 16, 16)        1616      
_________________________________________________________________
activation_2009 (Activation) (None, 16, 16, 16)        0         
_________________________________________________________________
dropout_2009 (Dropout)       (None, 16, 16, 16)        0         
_________________________________________________________________
flatten_200 (Flatten)        (None, 4096)              0         
_________________________________________________________________
dense_417 (Dense)            (None, 100)               409700    
=================================================================
Total params: 2,102,575
Trainable params: 2,096,399
Non-trainable params: 6,176
_________________________________________________________________
