Model: "sequential_277"
_________________________________________________________________
Layer (type)                 Output Shape              Param #   
=================================================================
separable_conv2d_2396 (Separ (None, 32, 32, 1024)      4123      
_________________________________________________________________
batch_normalization_1302 (Ba (None, 32, 32, 1024)      4096      
_________________________________________________________________
activation_2647 (Activation) (None, 32, 32, 1024)      0         
_________________________________________________________________
dropout_2647 (Dropout)       (None, 32, 32, 1024)      0         
_________________________________________________________________
separable_conv2d_2397 (Separ (None, 32, 32, 32)        42016     
_________________________________________________________________
activation_2648 (Activation) (None, 32, 32, 32)        0         
_________________________________________________________________
dropout_2648 (Dropout)       (None, 32, 32, 32)        0         
_________________________________________________________________
max_pooling2d_463 (MaxPoolin (None, 16, 16, 32)        0         
_________________________________________________________________
separable_conv2d_2398 (Separ (None, 16, 16, 512)       17184     
_________________________________________________________________
activation_2649 (Activation) (None, 16, 16, 512)       0         
_________________________________________________________________
dropout_2649 (Dropout)       (None, 16, 16, 512)       0         
_________________________________________________________________
separable_conv2d_2399 (Separ (None, 16, 16, 1024)      529920    
_________________________________________________________________
batch_normalization_1303 (Ba (None, 16, 16, 1024)      4096      
_________________________________________________________________
activation_2650 (Activation) (None, 16, 16, 1024)      0         
_________________________________________________________________
dropout_2650 (Dropout)       (None, 16, 16, 1024)      0         
_________________________________________________________________
separable_conv2d_2400 (Separ (None, 16, 16, 1024)      1058816   
_________________________________________________________________
batch_normalization_1304 (Ba (None, 16, 16, 1024)      4096      
_________________________________________________________________
activation_2651 (Activation) (None, 16, 16, 1024)      0         
_________________________________________________________________
dropout_2651 (Dropout)       (None, 16, 16, 1024)      0         
_________________________________________________________________
separable_conv2d_2401 (Separ (None, 16, 16, 16)        25616     
_________________________________________________________________
batch_normalization_1305 (Ba (None, 16, 16, 16)        64        
_________________________________________________________________
activation_2652 (Activation) (None, 16, 16, 16)        0         
_________________________________________________________________
dropout_2652 (Dropout)       (None, 16, 16, 16)        0         
_________________________________________________________________
separable_conv2d_2402 (Separ (None, 16, 16, 64)        1232      
_________________________________________________________________
activation_2653 (Activation) (None, 16, 16, 64)        0         
_________________________________________________________________
dropout_2653 (Dropout)       (None, 16, 16, 64)        0         
_________________________________________________________________
separable_conv2d_2403 (Separ (None, 16, 16, 16)        1616      
_________________________________________________________________
activation_2654 (Activation) (None, 16, 16, 16)        0         
_________________________________________________________________
dropout_2654 (Dropout)       (None, 16, 16, 16)        0         
_________________________________________________________________
flatten_277 (Flatten)        (None, 4096)              0         
_________________________________________________________________
dense_528 (Dense)            (None, 100)               409700    
=================================================================
Total params: 2,102,575
Trainable params: 2,096,399
Non-trainable params: 6,176
_________________________________________________________________
