Model: "sequential_158"
_________________________________________________________________
Layer (type)                 Output Shape              Param #   
=================================================================
separable_conv2d_1447 (Separ (None, 32, 32, 1024)      4123      
_________________________________________________________________
batch_normalization_814 (Bat (None, 32, 32, 1024)      4096      
_________________________________________________________________
activation_1631 (Activation) (None, 32, 32, 1024)      0         
_________________________________________________________________
dropout_1631 (Dropout)       (None, 32, 32, 1024)      0         
_________________________________________________________________
max_pooling2d_330 (MaxPoolin (None, 16, 16, 1024)      0         
_________________________________________________________________
separable_conv2d_1448 (Separ (None, 16, 16, 32)        42016     
_________________________________________________________________
activation_1632 (Activation) (None, 16, 16, 32)        0         
_________________________________________________________________
dropout_1632 (Dropout)       (None, 16, 16, 32)        0         
_________________________________________________________________
max_pooling2d_331 (MaxPoolin (None, 8, 8, 32)          0         
_________________________________________________________________
separable_conv2d_1449 (Separ (None, 8, 8, 512)         17184     
_________________________________________________________________
activation_1633 (Activation) (None, 8, 8, 512)         0         
_________________________________________________________________
dropout_1633 (Dropout)       (None, 8, 8, 512)         0         
_________________________________________________________________
separable_conv2d_1450 (Separ (None, 8, 8, 1024)        529920    
_________________________________________________________________
batch_normalization_815 (Bat (None, 8, 8, 1024)        4096      
_________________________________________________________________
activation_1634 (Activation) (None, 8, 8, 1024)        0         
_________________________________________________________________
dropout_1634 (Dropout)       (None, 8, 8, 1024)        0         
_________________________________________________________________
separable_conv2d_1451 (Separ (None, 8, 8, 1024)        1058816   
_________________________________________________________________
batch_normalization_816 (Bat (None, 8, 8, 1024)        4096      
_________________________________________________________________
activation_1635 (Activation) (None, 8, 8, 1024)        0         
_________________________________________________________________
dropout_1635 (Dropout)       (None, 8, 8, 1024)        0         
_________________________________________________________________
separable_conv2d_1452 (Separ (None, 8, 8, 16)          25616     
_________________________________________________________________
batch_normalization_817 (Bat (None, 8, 8, 16)          64        
_________________________________________________________________
activation_1636 (Activation) (None, 8, 8, 16)          0         
_________________________________________________________________
dropout_1636 (Dropout)       (None, 8, 8, 16)          0         
_________________________________________________________________
separable_conv2d_1453 (Separ (None, 8, 8, 64)          1232      
_________________________________________________________________
activation_1637 (Activation) (None, 8, 8, 64)          0         
_________________________________________________________________
dropout_1637 (Dropout)       (None, 8, 8, 64)          0         
_________________________________________________________________
separable_conv2d_1454 (Separ (None, 8, 8, 16)          1616      
_________________________________________________________________
activation_1638 (Activation) (None, 8, 8, 16)          0         
_________________________________________________________________
dropout_1638 (Dropout)       (None, 8, 8, 16)          0         
_________________________________________________________________
flatten_158 (Flatten)        (None, 1024)              0         
_________________________________________________________________
dense_342 (Dense)            (None, 4096)              4198400   
_________________________________________________________________
activation_1639 (Activation) (None, 4096)              0         
_________________________________________________________________
dropout_1639 (Dropout)       (None, 4096)              0         
_________________________________________________________________
dense_343 (Dense)            (None, 100)               409700    
=================================================================
Total params: 6,300,975
Trainable params: 6,294,799
Non-trainable params: 6,176
_________________________________________________________________
