Model: "sequential_88"
_________________________________________________________________
Layer (type)                 Output Shape              Param #   
=================================================================
separable_conv2d_852 (Separa (None, 32, 32, 1024)      4123      
_________________________________________________________________
batch_normalization_479 (Bat (None, 32, 32, 1024)      4096      
_________________________________________________________________
activation_967 (Activation)  (None, 32, 32, 1024)      0         
_________________________________________________________________
dropout_967 (Dropout)        (None, 32, 32, 1024)      0         
_________________________________________________________________
max_pooling2d_192 (MaxPoolin (None, 16, 16, 1024)      0         
_________________________________________________________________
separable_conv2d_853 (Separa (None, 16, 16, 128)       140416    
_________________________________________________________________
activation_968 (Activation)  (None, 16, 16, 128)       0         
_________________________________________________________________
dropout_968 (Dropout)        (None, 16, 16, 128)       0         
_________________________________________________________________
max_pooling2d_193 (MaxPoolin (None, 8, 8, 128)         0         
_________________________________________________________________
separable_conv2d_854 (Separa (None, 8, 8, 512)         67200     
_________________________________________________________________
activation_969 (Activation)  (None, 8, 8, 512)         0         
_________________________________________________________________
dropout_969 (Dropout)        (None, 8, 8, 512)         0         
_________________________________________________________________
separable_conv2d_855 (Separa (None, 8, 8, 32)          21024     
_________________________________________________________________
batch_normalization_480 (Bat (None, 8, 8, 32)          128       
_________________________________________________________________
activation_970 (Activation)  (None, 8, 8, 32)          0         
_________________________________________________________________
dropout_970 (Dropout)        (None, 8, 8, 32)          0         
_________________________________________________________________
separable_conv2d_856 (Separa (None, 8, 8, 1024)        34080     
_________________________________________________________________
batch_normalization_481 (Bat (None, 8, 8, 1024)        4096      
_________________________________________________________________
activation_971 (Activation)  (None, 8, 8, 1024)        0         
_________________________________________________________________
dropout_971 (Dropout)        (None, 8, 8, 1024)        0         
_________________________________________________________________
separable_conv2d_857 (Separa (None, 8, 8, 16)          25616     
_________________________________________________________________
batch_normalization_482 (Bat (None, 8, 8, 16)          64        
_________________________________________________________________
activation_972 (Activation)  (None, 8, 8, 16)          0         
_________________________________________________________________
dropout_972 (Dropout)        (None, 8, 8, 16)          0         
_________________________________________________________________
separable_conv2d_858 (Separa (None, 8, 8, 16)          416       
_________________________________________________________________
batch_normalization_483 (Bat (None, 8, 8, 16)          64        
_________________________________________________________________
activation_973 (Activation)  (None, 8, 8, 16)          0         
_________________________________________________________________
dropout_973 (Dropout)        (None, 8, 8, 16)          0         
_________________________________________________________________
separable_conv2d_859 (Separa (None, 8, 8, 8)           280       
_________________________________________________________________
activation_974 (Activation)  (None, 8, 8, 8)           0         
_________________________________________________________________
dropout_974 (Dropout)        (None, 8, 8, 8)           0         
_________________________________________________________________
flatten_88 (Flatten)         (None, 512)               0         
_________________________________________________________________
dense_203 (Dense)            (None, 4096)              2101248   
_________________________________________________________________
activation_975 (Activation)  (None, 4096)              0         
_________________________________________________________________
dropout_975 (Dropout)        (None, 4096)              0         
_________________________________________________________________
dense_204 (Dense)            (None, 100)               409700    
=================================================================
Total params: 2,812,551
Trainable params: 2,808,327
Non-trainable params: 4,224
_________________________________________________________________
