Model: "sequential_172"
_________________________________________________________________
Layer (type)                 Output Shape              Param #   
=================================================================
separable_conv2d_1561 (Separ (None, 32, 32, 1024)      4123      
_________________________________________________________________
batch_normalization_876 (Bat (None, 32, 32, 1024)      4096      
_________________________________________________________________
activation_1758 (Activation) (None, 32, 32, 1024)      0         
_________________________________________________________________
dropout_1758 (Dropout)       (None, 32, 32, 1024)      0         
_________________________________________________________________
separable_conv2d_1562 (Separ (None, 32, 32, 32)        42016     
_________________________________________________________________
activation_1759 (Activation) (None, 32, 32, 32)        0         
_________________________________________________________________
dropout_1759 (Dropout)       (None, 32, 32, 32)        0         
_________________________________________________________________
max_pooling2d_350 (MaxPoolin (None, 16, 16, 32)        0         
_________________________________________________________________
separable_conv2d_1563 (Separ (None, 16, 16, 512)       17184     
_________________________________________________________________
activation_1760 (Activation) (None, 16, 16, 512)       0         
_________________________________________________________________
dropout_1760 (Dropout)       (None, 16, 16, 512)       0         
_________________________________________________________________
separable_conv2d_1564 (Separ (None, 16, 16, 1024)      529920    
_________________________________________________________________
batch_normalization_877 (Bat (None, 16, 16, 1024)      4096      
_________________________________________________________________
activation_1761 (Activation) (None, 16, 16, 1024)      0         
_________________________________________________________________
dropout_1761 (Dropout)       (None, 16, 16, 1024)      0         
_________________________________________________________________
separable_conv2d_1565 (Separ (None, 16, 16, 1024)      1058816   
_________________________________________________________________
batch_normalization_878 (Bat (None, 16, 16, 1024)      4096      
_________________________________________________________________
activation_1762 (Activation) (None, 16, 16, 1024)      0         
_________________________________________________________________
dropout_1762 (Dropout)       (None, 16, 16, 1024)      0         
_________________________________________________________________
separable_conv2d_1566 (Separ (None, 16, 16, 16)        25616     
_________________________________________________________________
batch_normalization_879 (Bat (None, 16, 16, 16)        64        
_________________________________________________________________
activation_1763 (Activation) (None, 16, 16, 16)        0         
_________________________________________________________________
dropout_1763 (Dropout)       (None, 16, 16, 16)        0         
_________________________________________________________________
separable_conv2d_1567 (Separ (None, 16, 16, 64)        1232      
_________________________________________________________________
activation_1764 (Activation) (None, 16, 16, 64)        0         
_________________________________________________________________
dropout_1764 (Dropout)       (None, 16, 16, 64)        0         
_________________________________________________________________
separable_conv2d_1568 (Separ (None, 16, 16, 16)        1616      
_________________________________________________________________
activation_1765 (Activation) (None, 16, 16, 16)        0         
_________________________________________________________________
dropout_1765 (Dropout)       (None, 16, 16, 16)        0         
_________________________________________________________________
flatten_172 (Flatten)        (None, 4096)              0         
_________________________________________________________________
dense_369 (Dense)            (None, 4096)              16781312  
_________________________________________________________________
activation_1766 (Activation) (None, 4096)              0         
_________________________________________________________________
dropout_1766 (Dropout)       (None, 4096)              0         
_________________________________________________________________
dense_370 (Dense)            (None, 100)               409700    
=================================================================
Total params: 18,883,887
Trainable params: 18,877,711
Non-trainable params: 6,176
_________________________________________________________________
