Model: "sequential_189"
_________________________________________________________________
Layer (type)                 Output Shape              Param #   
=================================================================
separable_conv2d_1698 (Separ (None, 32, 32, 1024)      4123      
_________________________________________________________________
batch_normalization_948 (Bat (None, 32, 32, 1024)      4096      
_________________________________________________________________
activation_1907 (Activation) (None, 32, 32, 1024)      0         
_________________________________________________________________
dropout_1907 (Dropout)       (None, 32, 32, 1024)      0         
_________________________________________________________________
separable_conv2d_1699 (Separ (None, 32, 32, 32)        42016     
_________________________________________________________________
activation_1908 (Activation) (None, 32, 32, 32)        0         
_________________________________________________________________
dropout_1908 (Dropout)       (None, 32, 32, 32)        0         
_________________________________________________________________
max_pooling2d_370 (MaxPoolin (None, 16, 16, 32)        0         
_________________________________________________________________
separable_conv2d_1700 (Separ (None, 16, 16, 512)       17184     
_________________________________________________________________
activation_1909 (Activation) (None, 16, 16, 512)       0         
_________________________________________________________________
dropout_1909 (Dropout)       (None, 16, 16, 512)       0         
_________________________________________________________________
separable_conv2d_1701 (Separ (None, 16, 16, 1024)      529920    
_________________________________________________________________
batch_normalization_949 (Bat (None, 16, 16, 1024)      4096      
_________________________________________________________________
activation_1910 (Activation) (None, 16, 16, 1024)      0         
_________________________________________________________________
dropout_1910 (Dropout)       (None, 16, 16, 1024)      0         
_________________________________________________________________
separable_conv2d_1702 (Separ (None, 16, 16, 1024)      1058816   
_________________________________________________________________
batch_normalization_950 (Bat (None, 16, 16, 1024)      4096      
_________________________________________________________________
activation_1911 (Activation) (None, 16, 16, 1024)      0         
_________________________________________________________________
dropout_1911 (Dropout)       (None, 16, 16, 1024)      0         
_________________________________________________________________
separable_conv2d_1703 (Separ (None, 16, 16, 16)        25616     
_________________________________________________________________
batch_normalization_951 (Bat (None, 16, 16, 16)        64        
_________________________________________________________________
activation_1912 (Activation) (None, 16, 16, 16)        0         
_________________________________________________________________
dropout_1912 (Dropout)       (None, 16, 16, 16)        0         
_________________________________________________________________
separable_conv2d_1704 (Separ (None, 16, 16, 512)       8848      
_________________________________________________________________
activation_1913 (Activation) (None, 16, 16, 512)       0         
_________________________________________________________________
dropout_1913 (Dropout)       (None, 16, 16, 512)       0         
_________________________________________________________________
separable_conv2d_1705 (Separ (None, 16, 16, 64)        37440     
_________________________________________________________________
activation_1914 (Activation) (None, 16, 16, 64)        0         
_________________________________________________________________
dropout_1914 (Dropout)       (None, 16, 16, 64)        0         
_________________________________________________________________
separable_conv2d_1706 (Separ (None, 16, 16, 8)         1096      
_________________________________________________________________
activation_1915 (Activation) (None, 16, 16, 8)         0         
_________________________________________________________________
dropout_1915 (Dropout)       (None, 16, 16, 8)         0         
_________________________________________________________________
flatten_189 (Flatten)        (None, 2048)              0         
_________________________________________________________________
dense_398 (Dense)            (None, 4096)              8392704   
_________________________________________________________________
activation_1916 (Activation) (None, 4096)              0         
_________________________________________________________________
dropout_1916 (Dropout)       (None, 4096)              0         
_________________________________________________________________
dense_399 (Dense)            (None, 100)               409700    
=================================================================
Total params: 10,539,815
Trainable params: 10,533,639
Non-trainable params: 6,176
_________________________________________________________________
