Model: "sequential_4"
_________________________________________________________________
Layer (type)                 Output Shape              Param #   
=================================================================
separable_conv2d_45 (Separab (None, 32, 32, 512)       2075      
_________________________________________________________________
batch_normalization_22 (Batc (None, 32, 32, 512)       2048      
_________________________________________________________________
activation_53 (Activation)   (None, 32, 32, 512)       0         
_________________________________________________________________
dropout_53 (Dropout)         (None, 32, 32, 512)       0         
_________________________________________________________________
separable_conv2d_46 (Separab (None, 32, 32, 64)        37440     
_________________________________________________________________
activation_54 (Activation)   (None, 32, 32, 64)        0         
_________________________________________________________________
dropout_54 (Dropout)         (None, 32, 32, 64)        0         
_________________________________________________________________
separable_conv2d_47 (Separab (None, 32, 32, 16)        1616      
_________________________________________________________________
activation_55 (Activation)   (None, 32, 32, 16)        0         
_________________________________________________________________
dropout_55 (Dropout)         (None, 32, 32, 16)        0         
_________________________________________________________________
max_pooling2d_11 (MaxPooling (None, 16, 16, 16)        0         
_________________________________________________________________
separable_conv2d_48 (Separab (None, 16, 16, 1024)      17552     
_________________________________________________________________
activation_56 (Activation)   (None, 16, 16, 1024)      0         
_________________________________________________________________
dropout_56 (Dropout)         (None, 16, 16, 1024)      0         
_________________________________________________________________
separable_conv2d_49 (Separab (None, 16, 16, 64)        74816     
_________________________________________________________________
activation_57 (Activation)   (None, 16, 16, 64)        0         
_________________________________________________________________
dropout_57 (Dropout)         (None, 16, 16, 64)        0         
_________________________________________________________________
separable_conv2d_50 (Separab (None, 16, 16, 64)        4736      
_________________________________________________________________
batch_normalization_23 (Batc (None, 16, 16, 64)        256       
_________________________________________________________________
activation_58 (Activation)   (None, 16, 16, 64)        0         
_________________________________________________________________
dropout_58 (Dropout)         (None, 16, 16, 64)        0         
_________________________________________________________________
separable_conv2d_51 (Separab (None, 16, 16, 64)        4736      
_________________________________________________________________
batch_normalization_24 (Batc (None, 16, 16, 64)        256       
_________________________________________________________________
activation_59 (Activation)   (None, 16, 16, 64)        0         
_________________________________________________________________
dropout_59 (Dropout)         (None, 16, 16, 64)        0         
_________________________________________________________________
max_pooling2d_12 (MaxPooling (None, 8, 8, 64)          0         
_________________________________________________________________
separable_conv2d_52 (Separab (None, 8, 8, 64)          4736      
_________________________________________________________________
activation_60 (Activation)   (None, 8, 8, 64)          0         
_________________________________________________________________
dropout_60 (Dropout)         (None, 8, 8, 64)          0         
_________________________________________________________________
separable_conv2d_53 (Separab (None, 8, 8, 8)           1096      
_________________________________________________________________
activation_61 (Activation)   (None, 8, 8, 8)           0         
_________________________________________________________________
dropout_61 (Dropout)         (None, 8, 8, 8)           0         
_________________________________________________________________
flatten_4 (Flatten)          (None, 512)               0         
_________________________________________________________________
dense_12 (Dense)             (None, 128)               65664     
_________________________________________________________________
activation_62 (Activation)   (None, 128)               0         
_________________________________________________________________
dropout_62 (Dropout)         (None, 128)               0         
_________________________________________________________________
dense_13 (Dense)             (None, 100)               12900     
=================================================================
Total params: 229,927
Trainable params: 228,647
Non-trainable params: 1,280
_________________________________________________________________
