Model: "sequential_325"
_________________________________________________________________
Layer (type)                 Output Shape              Param #   
=================================================================
separable_conv2d_2781 (Separ (None, 32, 32, 1024)      4123      
_________________________________________________________________
batch_normalization_1491 (Ba (None, 32, 32, 1024)      4096      
_________________________________________________________________
activation_3041 (Activation) (None, 32, 32, 1024)      0         
_________________________________________________________________
dropout_3041 (Dropout)       (None, 32, 32, 1024)      0         
_________________________________________________________________
separable_conv2d_2782 (Separ (None, 32, 32, 32)        42016     
_________________________________________________________________
activation_3042 (Activation) (None, 32, 32, 32)        0         
_________________________________________________________________
dropout_3042 (Dropout)       (None, 32, 32, 32)        0         
_________________________________________________________________
max_pooling2d_516 (MaxPoolin (None, 16, 16, 32)        0         
_________________________________________________________________
separable_conv2d_2783 (Separ (None, 16, 16, 512)       17184     
_________________________________________________________________
activation_3043 (Activation) (None, 16, 16, 512)       0         
_________________________________________________________________
dropout_3043 (Dropout)       (None, 16, 16, 512)       0         
_________________________________________________________________
separable_conv2d_2784 (Separ (None, 16, 16, 1024)      529920    
_________________________________________________________________
batch_normalization_1492 (Ba (None, 16, 16, 1024)      4096      
_________________________________________________________________
activation_3044 (Activation) (None, 16, 16, 1024)      0         
_________________________________________________________________
dropout_3044 (Dropout)       (None, 16, 16, 1024)      0         
_________________________________________________________________
separable_conv2d_2785 (Separ (None, 16, 16, 1024)      1058816   
_________________________________________________________________
batch_normalization_1493 (Ba (None, 16, 16, 1024)      4096      
_________________________________________________________________
activation_3045 (Activation) (None, 16, 16, 1024)      0         
_________________________________________________________________
dropout_3045 (Dropout)       (None, 16, 16, 1024)      0         
_________________________________________________________________
separable_conv2d_2786 (Separ (None, 16, 16, 16)        25616     
_________________________________________________________________
batch_normalization_1494 (Ba (None, 16, 16, 16)        64        
_________________________________________________________________
activation_3046 (Activation) (None, 16, 16, 16)        0         
_________________________________________________________________
dropout_3046 (Dropout)       (None, 16, 16, 16)        0         
_________________________________________________________________
separable_conv2d_2787 (Separ (None, 16, 16, 64)        1232      
_________________________________________________________________
activation_3047 (Activation) (None, 16, 16, 64)        0         
_________________________________________________________________
dropout_3047 (Dropout)       (None, 16, 16, 64)        0         
_________________________________________________________________
separable_conv2d_2788 (Separ (None, 16, 16, 16)        1616      
_________________________________________________________________
activation_3048 (Activation) (None, 16, 16, 16)        0         
_________________________________________________________________
dropout_3048 (Dropout)       (None, 16, 16, 16)        0         
_________________________________________________________________
flatten_325 (Flatten)        (None, 4096)              0         
_________________________________________________________________
dense_585 (Dense)            (None, 4096)              16781312  
_________________________________________________________________
activation_3049 (Activation) (None, 4096)              0         
_________________________________________________________________
dropout_3049 (Dropout)       (None, 4096)              0         
_________________________________________________________________
dense_586 (Dense)            (None, 100)               409700    
=================================================================
Total params: 18,883,887
Trainable params: 18,877,711
Non-trainable params: 6,176
_________________________________________________________________
