Model: "sequential_182"
_________________________________________________________________
Layer (type)                 Output Shape              Param #   
=================================================================
separable_conv2d_1642 (Separ (None, 32, 32, 1024)      4123      
_________________________________________________________________
batch_normalization_919 (Bat (None, 32, 32, 1024)      4096      
_________________________________________________________________
activation_1845 (Activation) (None, 32, 32, 1024)      0         
_________________________________________________________________
dropout_1845 (Dropout)       (None, 32, 32, 1024)      0         
_________________________________________________________________
separable_conv2d_1643 (Separ (None, 32, 32, 32)        42016     
_________________________________________________________________
activation_1846 (Activation) (None, 32, 32, 32)        0         
_________________________________________________________________
dropout_1846 (Dropout)       (None, 32, 32, 32)        0         
_________________________________________________________________
max_pooling2d_362 (MaxPoolin (None, 16, 16, 32)        0         
_________________________________________________________________
separable_conv2d_1644 (Separ (None, 16, 16, 512)       17184     
_________________________________________________________________
activation_1847 (Activation) (None, 16, 16, 512)       0         
_________________________________________________________________
dropout_1847 (Dropout)       (None, 16, 16, 512)       0         
_________________________________________________________________
separable_conv2d_1645 (Separ (None, 16, 16, 1024)      529920    
_________________________________________________________________
batch_normalization_920 (Bat (None, 16, 16, 1024)      4096      
_________________________________________________________________
activation_1848 (Activation) (None, 16, 16, 1024)      0         
_________________________________________________________________
dropout_1848 (Dropout)       (None, 16, 16, 1024)      0         
_________________________________________________________________
separable_conv2d_1646 (Separ (None, 16, 16, 1024)      1058816   
_________________________________________________________________
batch_normalization_921 (Bat (None, 16, 16, 1024)      4096      
_________________________________________________________________
activation_1849 (Activation) (None, 16, 16, 1024)      0         
_________________________________________________________________
dropout_1849 (Dropout)       (None, 16, 16, 1024)      0         
_________________________________________________________________
separable_conv2d_1647 (Separ (None, 16, 16, 16)        25616     
_________________________________________________________________
batch_normalization_922 (Bat (None, 16, 16, 16)        64        
_________________________________________________________________
activation_1850 (Activation) (None, 16, 16, 16)        0         
_________________________________________________________________
dropout_1850 (Dropout)       (None, 16, 16, 16)        0         
_________________________________________________________________
separable_conv2d_1648 (Separ (None, 16, 16, 16)        416       
_________________________________________________________________
batch_normalization_923 (Bat (None, 16, 16, 16)        64        
_________________________________________________________________
activation_1851 (Activation) (None, 16, 16, 16)        0         
_________________________________________________________________
dropout_1851 (Dropout)       (None, 16, 16, 16)        0         
_________________________________________________________________
separable_conv2d_1649 (Separ (None, 16, 16, 8)         280       
_________________________________________________________________
activation_1852 (Activation) (None, 16, 16, 8)         0         
_________________________________________________________________
dropout_1852 (Dropout)       (None, 16, 16, 8)         0         
_________________________________________________________________
flatten_182 (Flatten)        (None, 2048)              0         
_________________________________________________________________
dense_385 (Dense)            (None, 4096)              8392704   
_________________________________________________________________
activation_1853 (Activation) (None, 4096)              0         
_________________________________________________________________
dropout_1853 (Dropout)       (None, 4096)              0         
_________________________________________________________________
dense_386 (Dense)            (None, 100)               409700    
=================================================================
Total params: 10,493,191
Trainable params: 10,486,983
Non-trainable params: 6,208
_________________________________________________________________
