Model: "sequential_118"
_________________________________________________________________
Layer (type)                 Output Shape              Param #   
=================================================================
separable_conv2d_1116 (Separ (None, 32, 32, 1024)      4123      
_________________________________________________________________
batch_normalization_626 (Bat (None, 32, 32, 1024)      4096      
_________________________________________________________________
activation_1261 (Activation) (None, 32, 32, 1024)      0         
_________________________________________________________________
dropout_1261 (Dropout)       (None, 32, 32, 1024)      0         
_________________________________________________________________
max_pooling2d_253 (MaxPoolin (None, 16, 16, 1024)      0         
_________________________________________________________________
separable_conv2d_1117 (Separ (None, 16, 16, 32)        42016     
_________________________________________________________________
activation_1262 (Activation) (None, 16, 16, 32)        0         
_________________________________________________________________
dropout_1262 (Dropout)       (None, 16, 16, 32)        0         
_________________________________________________________________
max_pooling2d_254 (MaxPoolin (None, 8, 8, 32)          0         
_________________________________________________________________
separable_conv2d_1118 (Separ (None, 8, 8, 512)         17184     
_________________________________________________________________
activation_1263 (Activation) (None, 8, 8, 512)         0         
_________________________________________________________________
dropout_1263 (Dropout)       (None, 8, 8, 512)         0         
_________________________________________________________________
separable_conv2d_1119 (Separ (None, 8, 8, 1024)        529920    
_________________________________________________________________
batch_normalization_627 (Bat (None, 8, 8, 1024)        4096      
_________________________________________________________________
activation_1264 (Activation) (None, 8, 8, 1024)        0         
_________________________________________________________________
dropout_1264 (Dropout)       (None, 8, 8, 1024)        0         
_________________________________________________________________
separable_conv2d_1120 (Separ (None, 8, 8, 1024)        1058816   
_________________________________________________________________
batch_normalization_628 (Bat (None, 8, 8, 1024)        4096      
_________________________________________________________________
activation_1265 (Activation) (None, 8, 8, 1024)        0         
_________________________________________________________________
dropout_1265 (Dropout)       (None, 8, 8, 1024)        0         
_________________________________________________________________
separable_conv2d_1121 (Separ (None, 8, 8, 16)          25616     
_________________________________________________________________
batch_normalization_629 (Bat (None, 8, 8, 16)          64        
_________________________________________________________________
activation_1266 (Activation) (None, 8, 8, 16)          0         
_________________________________________________________________
dropout_1266 (Dropout)       (None, 8, 8, 16)          0         
_________________________________________________________________
separable_conv2d_1122 (Separ (None, 8, 8, 512)         8848      
_________________________________________________________________
activation_1267 (Activation) (None, 8, 8, 512)         0         
_________________________________________________________________
dropout_1267 (Dropout)       (None, 8, 8, 512)         0         
_________________________________________________________________
separable_conv2d_1123 (Separ (None, 8, 8, 64)          37440     
_________________________________________________________________
activation_1268 (Activation) (None, 8, 8, 64)          0         
_________________________________________________________________
dropout_1268 (Dropout)       (None, 8, 8, 64)          0         
_________________________________________________________________
separable_conv2d_1124 (Separ (None, 8, 8, 8)           1096      
_________________________________________________________________
activation_1269 (Activation) (None, 8, 8, 8)           0         
_________________________________________________________________
dropout_1269 (Dropout)       (None, 8, 8, 8)           0         
_________________________________________________________________
flatten_118 (Flatten)        (None, 512)               0         
_________________________________________________________________
dense_263 (Dense)            (None, 4096)              2101248   
_________________________________________________________________
activation_1270 (Activation) (None, 4096)              0         
_________________________________________________________________
dropout_1270 (Dropout)       (None, 4096)              0         
_________________________________________________________________
dense_264 (Dense)            (None, 100)               409700    
=================================================================
Total params: 4,248,359
Trainable params: 4,242,183
Non-trainable params: 6,176
_________________________________________________________________
