Model: "sequential_80"
_________________________________________________________________
Layer (type)                 Output Shape              Param #   
=================================================================
separable_conv2d_781 (Separa (None, 32, 32, 1024)      4123      
_________________________________________________________________
batch_normalization_439 (Bat (None, 32, 32, 1024)      4096      
_________________________________________________________________
activation_888 (Activation)  (None, 32, 32, 1024)      0         
_________________________________________________________________
dropout_888 (Dropout)        (None, 32, 32, 1024)      0         
_________________________________________________________________
max_pooling2d_176 (MaxPoolin (None, 16, 16, 1024)      0         
_________________________________________________________________
separable_conv2d_782 (Separa (None, 16, 16, 32)        42016     
_________________________________________________________________
activation_889 (Activation)  (None, 16, 16, 32)        0         
_________________________________________________________________
dropout_889 (Dropout)        (None, 16, 16, 32)        0         
_________________________________________________________________
max_pooling2d_177 (MaxPoolin (None, 8, 8, 32)          0         
_________________________________________________________________
separable_conv2d_783 (Separa (None, 8, 8, 512)         17184     
_________________________________________________________________
activation_890 (Activation)  (None, 8, 8, 512)         0         
_________________________________________________________________
dropout_890 (Dropout)        (None, 8, 8, 512)         0         
_________________________________________________________________
separable_conv2d_784 (Separa (None, 8, 8, 1024)        529920    
_________________________________________________________________
batch_normalization_440 (Bat (None, 8, 8, 1024)        4096      
_________________________________________________________________
activation_891 (Activation)  (None, 8, 8, 1024)        0         
_________________________________________________________________
dropout_891 (Dropout)        (None, 8, 8, 1024)        0         
_________________________________________________________________
separable_conv2d_785 (Separa (None, 8, 8, 1024)        1058816   
_________________________________________________________________
batch_normalization_441 (Bat (None, 8, 8, 1024)        4096      
_________________________________________________________________
activation_892 (Activation)  (None, 8, 8, 1024)        0         
_________________________________________________________________
dropout_892 (Dropout)        (None, 8, 8, 1024)        0         
_________________________________________________________________
separable_conv2d_786 (Separa (None, 8, 8, 16)          25616     
_________________________________________________________________
batch_normalization_442 (Bat (None, 8, 8, 16)          64        
_________________________________________________________________
activation_893 (Activation)  (None, 8, 8, 16)          0         
_________________________________________________________________
dropout_893 (Dropout)        (None, 8, 8, 16)          0         
_________________________________________________________________
separable_conv2d_787 (Separa (None, 8, 8, 16)          416       
_________________________________________________________________
batch_normalization_443 (Bat (None, 8, 8, 16)          64        
_________________________________________________________________
activation_894 (Activation)  (None, 8, 8, 16)          0         
_________________________________________________________________
dropout_894 (Dropout)        (None, 8, 8, 16)          0         
_________________________________________________________________
separable_conv2d_788 (Separa (None, 8, 8, 8)           280       
_________________________________________________________________
activation_895 (Activation)  (None, 8, 8, 8)           0         
_________________________________________________________________
dropout_895 (Dropout)        (None, 8, 8, 8)           0         
_________________________________________________________________
flatten_80 (Flatten)         (None, 512)               0         
_________________________________________________________________
dense_187 (Dense)            (None, 4096)              2101248   
_________________________________________________________________
activation_896 (Activation)  (None, 4096)              0         
_________________________________________________________________
dropout_896 (Dropout)        (None, 4096)              0         
_________________________________________________________________
dense_188 (Dense)            (None, 100)               409700    
=================================================================
Total params: 4,201,735
Trainable params: 4,195,527
Non-trainable params: 6,208
_________________________________________________________________
