Model: "sequential_303"
_________________________________________________________________
Layer (type)                 Output Shape              Param #   
=================================================================
separable_conv2d_2605 (Separ (None, 32, 32, 1024)      4123      
_________________________________________________________________
batch_normalization_1403 (Ba (None, 32, 32, 1024)      4096      
_________________________________________________________________
activation_2862 (Activation) (None, 32, 32, 1024)      0         
_________________________________________________________________
dropout_2862 (Dropout)       (None, 32, 32, 1024)      0         
_________________________________________________________________
separable_conv2d_2606 (Separ (None, 32, 32, 32)        42016     
_________________________________________________________________
activation_2863 (Activation) (None, 32, 32, 32)        0         
_________________________________________________________________
dropout_2863 (Dropout)       (None, 32, 32, 32)        0         
_________________________________________________________________
max_pooling2d_491 (MaxPoolin (None, 16, 16, 32)        0         
_________________________________________________________________
separable_conv2d_2607 (Separ (None, 16, 16, 512)       17184     
_________________________________________________________________
activation_2864 (Activation) (None, 16, 16, 512)       0         
_________________________________________________________________
dropout_2864 (Dropout)       (None, 16, 16, 512)       0         
_________________________________________________________________
separable_conv2d_2608 (Separ (None, 16, 16, 1024)      529920    
_________________________________________________________________
batch_normalization_1404 (Ba (None, 16, 16, 1024)      4096      
_________________________________________________________________
activation_2865 (Activation) (None, 16, 16, 1024)      0         
_________________________________________________________________
dropout_2865 (Dropout)       (None, 16, 16, 1024)      0         
_________________________________________________________________
separable_conv2d_2609 (Separ (None, 16, 16, 1024)      1058816   
_________________________________________________________________
batch_normalization_1405 (Ba (None, 16, 16, 1024)      4096      
_________________________________________________________________
activation_2866 (Activation) (None, 16, 16, 1024)      0         
_________________________________________________________________
dropout_2866 (Dropout)       (None, 16, 16, 1024)      0         
_________________________________________________________________
separable_conv2d_2610 (Separ (None, 16, 16, 16)        25616     
_________________________________________________________________
batch_normalization_1406 (Ba (None, 16, 16, 16)        64        
_________________________________________________________________
activation_2867 (Activation) (None, 16, 16, 16)        0         
_________________________________________________________________
dropout_2867 (Dropout)       (None, 16, 16, 16)        0         
_________________________________________________________________
separable_conv2d_2611 (Separ (None, 16, 16, 64)        1232      
_________________________________________________________________
activation_2868 (Activation) (None, 16, 16, 64)        0         
_________________________________________________________________
dropout_2868 (Dropout)       (None, 16, 16, 64)        0         
_________________________________________________________________
separable_conv2d_2612 (Separ (None, 16, 16, 16)        1616      
_________________________________________________________________
activation_2869 (Activation) (None, 16, 16, 16)        0         
_________________________________________________________________
dropout_2869 (Dropout)       (None, 16, 16, 16)        0         
_________________________________________________________________
flatten_303 (Flatten)        (None, 4096)              0         
_________________________________________________________________
dense_560 (Dense)            (None, 100)               409700    
=================================================================
Total params: 2,102,575
Trainable params: 2,096,399
Non-trainable params: 6,176
_________________________________________________________________
