Model: "sequential_73"
_________________________________________________________________
Layer (type)                 Output Shape              Param #   
=================================================================
separable_conv2d_713 (Separa (None, 32, 32, 1024)      4123      
_________________________________________________________________
batch_normalization_400 (Bat (None, 32, 32, 1024)      4096      
_________________________________________________________________
activation_812 (Activation)  (None, 32, 32, 1024)      0         
_________________________________________________________________
dropout_812 (Dropout)        (None, 32, 32, 1024)      0         
_________________________________________________________________
max_pooling2d_161 (MaxPoolin (None, 16, 16, 1024)      0         
_________________________________________________________________
separable_conv2d_714 (Separa (None, 16, 16, 32)        42016     
_________________________________________________________________
activation_813 (Activation)  (None, 16, 16, 32)        0         
_________________________________________________________________
dropout_813 (Dropout)        (None, 16, 16, 32)        0         
_________________________________________________________________
max_pooling2d_162 (MaxPoolin (None, 8, 8, 32)          0         
_________________________________________________________________
separable_conv2d_715 (Separa (None, 8, 8, 512)         17184     
_________________________________________________________________
activation_814 (Activation)  (None, 8, 8, 512)         0         
_________________________________________________________________
dropout_814 (Dropout)        (None, 8, 8, 512)         0         
_________________________________________________________________
separable_conv2d_716 (Separa (None, 8, 8, 1024)        529920    
_________________________________________________________________
batch_normalization_401 (Bat (None, 8, 8, 1024)        4096      
_________________________________________________________________
activation_815 (Activation)  (None, 8, 8, 1024)        0         
_________________________________________________________________
dropout_815 (Dropout)        (None, 8, 8, 1024)        0         
_________________________________________________________________
separable_conv2d_717 (Separa (None, 8, 8, 1024)        1058816   
_________________________________________________________________
batch_normalization_402 (Bat (None, 8, 8, 1024)        4096      
_________________________________________________________________
activation_816 (Activation)  (None, 8, 8, 1024)        0         
_________________________________________________________________
dropout_816 (Dropout)        (None, 8, 8, 1024)        0         
_________________________________________________________________
separable_conv2d_718 (Separa (None, 8, 8, 16)          25616     
_________________________________________________________________
batch_normalization_403 (Bat (None, 8, 8, 16)          64        
_________________________________________________________________
activation_817 (Activation)  (None, 8, 8, 16)          0         
_________________________________________________________________
dropout_817 (Dropout)        (None, 8, 8, 16)          0         
_________________________________________________________________
separable_conv2d_719 (Separa (None, 8, 8, 16)          416       
_________________________________________________________________
batch_normalization_404 (Bat (None, 8, 8, 16)          64        
_________________________________________________________________
activation_818 (Activation)  (None, 8, 8, 16)          0         
_________________________________________________________________
dropout_818 (Dropout)        (None, 8, 8, 16)          0         
_________________________________________________________________
separable_conv2d_720 (Separa (None, 8, 8, 8)           280       
_________________________________________________________________
activation_819 (Activation)  (None, 8, 8, 8)           0         
_________________________________________________________________
dropout_819 (Dropout)        (None, 8, 8, 8)           0         
_________________________________________________________________
flatten_73 (Flatten)         (None, 512)               0         
_________________________________________________________________
dense_172 (Dense)            (None, 4096)              2101248   
_________________________________________________________________
activation_820 (Activation)  (None, 4096)              0         
_________________________________________________________________
dropout_820 (Dropout)        (None, 4096)              0         
_________________________________________________________________
dense_173 (Dense)            (None, 100)               409700    
=================================================================
Total params: 4,201,735
Trainable params: 4,195,527
Non-trainable params: 6,208
_________________________________________________________________
