Model: "sequential_108"
_________________________________________________________________
Layer (type)                 Output Shape              Param #   
=================================================================
separable_conv2d_1034 (Separ (None, 32, 32, 1024)      4123      
_________________________________________________________________
batch_normalization_578 (Bat (None, 32, 32, 1024)      4096      
_________________________________________________________________
activation_1169 (Activation) (None, 32, 32, 1024)      0         
_________________________________________________________________
dropout_1169 (Dropout)       (None, 32, 32, 1024)      0         
_________________________________________________________________
max_pooling2d_233 (MaxPoolin (None, 16, 16, 1024)      0         
_________________________________________________________________
separable_conv2d_1035 (Separ (None, 16, 16, 32)        42016     
_________________________________________________________________
activation_1170 (Activation) (None, 16, 16, 32)        0         
_________________________________________________________________
dropout_1170 (Dropout)       (None, 16, 16, 32)        0         
_________________________________________________________________
max_pooling2d_234 (MaxPoolin (None, 8, 8, 32)          0         
_________________________________________________________________
separable_conv2d_1036 (Separ (None, 8, 8, 512)         17184     
_________________________________________________________________
activation_1171 (Activation) (None, 8, 8, 512)         0         
_________________________________________________________________
dropout_1171 (Dropout)       (None, 8, 8, 512)         0         
_________________________________________________________________
separable_conv2d_1037 (Separ (None, 8, 8, 1024)        529920    
_________________________________________________________________
batch_normalization_579 (Bat (None, 8, 8, 1024)        4096      
_________________________________________________________________
activation_1172 (Activation) (None, 8, 8, 1024)        0         
_________________________________________________________________
dropout_1172 (Dropout)       (None, 8, 8, 1024)        0         
_________________________________________________________________
separable_conv2d_1038 (Separ (None, 8, 8, 1024)        1058816   
_________________________________________________________________
batch_normalization_580 (Bat (None, 8, 8, 1024)        4096      
_________________________________________________________________
activation_1173 (Activation) (None, 8, 8, 1024)        0         
_________________________________________________________________
dropout_1173 (Dropout)       (None, 8, 8, 1024)        0         
_________________________________________________________________
separable_conv2d_1039 (Separ (None, 8, 8, 16)          25616     
_________________________________________________________________
batch_normalization_581 (Bat (None, 8, 8, 16)          64        
_________________________________________________________________
activation_1174 (Activation) (None, 8, 8, 16)          0         
_________________________________________________________________
dropout_1174 (Dropout)       (None, 8, 8, 16)          0         
_________________________________________________________________
separable_conv2d_1040 (Separ (None, 8, 8, 16)          416       
_________________________________________________________________
batch_normalization_582 (Bat (None, 8, 8, 16)          64        
_________________________________________________________________
activation_1175 (Activation) (None, 8, 8, 16)          0         
_________________________________________________________________
dropout_1175 (Dropout)       (None, 8, 8, 16)          0         
_________________________________________________________________
separable_conv2d_1041 (Separ (None, 8, 8, 8)           280       
_________________________________________________________________
activation_1176 (Activation) (None, 8, 8, 8)           0         
_________________________________________________________________
dropout_1176 (Dropout)       (None, 8, 8, 8)           0         
_________________________________________________________________
flatten_108 (Flatten)        (None, 512)               0         
_________________________________________________________________
dense_243 (Dense)            (None, 4096)              2101248   
_________________________________________________________________
activation_1177 (Activation) (None, 4096)              0         
_________________________________________________________________
dropout_1177 (Dropout)       (None, 4096)              0         
_________________________________________________________________
dense_244 (Dense)            (None, 100)               409700    
=================================================================
Total params: 4,201,735
Trainable params: 4,195,527
Non-trainable params: 6,208
_________________________________________________________________
