Model: "sequential_302"
_________________________________________________________________
Layer (type)                 Output Shape              Param #   
=================================================================
separable_conv2d_2597 (Separ (None, 32, 32, 1024)      4123      
_________________________________________________________________
batch_normalization_1399 (Ba (None, 32, 32, 1024)      4096      
_________________________________________________________________
activation_2854 (Activation) (None, 32, 32, 1024)      0         
_________________________________________________________________
dropout_2854 (Dropout)       (None, 32, 32, 1024)      0         
_________________________________________________________________
separable_conv2d_2598 (Separ (None, 32, 32, 32)        42016     
_________________________________________________________________
activation_2855 (Activation) (None, 32, 32, 32)        0         
_________________________________________________________________
dropout_2855 (Dropout)       (None, 32, 32, 32)        0         
_________________________________________________________________
max_pooling2d_490 (MaxPoolin (None, 16, 16, 32)        0         
_________________________________________________________________
separable_conv2d_2599 (Separ (None, 16, 16, 512)       17184     
_________________________________________________________________
activation_2856 (Activation) (None, 16, 16, 512)       0         
_________________________________________________________________
dropout_2856 (Dropout)       (None, 16, 16, 512)       0         
_________________________________________________________________
separable_conv2d_2600 (Separ (None, 16, 16, 1024)      529920    
_________________________________________________________________
batch_normalization_1400 (Ba (None, 16, 16, 1024)      4096      
_________________________________________________________________
activation_2857 (Activation) (None, 16, 16, 1024)      0         
_________________________________________________________________
dropout_2857 (Dropout)       (None, 16, 16, 1024)      0         
_________________________________________________________________
separable_conv2d_2601 (Separ (None, 16, 16, 1024)      1058816   
_________________________________________________________________
batch_normalization_1401 (Ba (None, 16, 16, 1024)      4096      
_________________________________________________________________
activation_2858 (Activation) (None, 16, 16, 1024)      0         
_________________________________________________________________
dropout_2858 (Dropout)       (None, 16, 16, 1024)      0         
_________________________________________________________________
separable_conv2d_2602 (Separ (None, 16, 16, 16)        25616     
_________________________________________________________________
batch_normalization_1402 (Ba (None, 16, 16, 16)        64        
_________________________________________________________________
activation_2859 (Activation) (None, 16, 16, 16)        0         
_________________________________________________________________
dropout_2859 (Dropout)       (None, 16, 16, 16)        0         
_________________________________________________________________
separable_conv2d_2603 (Separ (None, 16, 16, 64)        1232      
_________________________________________________________________
activation_2860 (Activation) (None, 16, 16, 64)        0         
_________________________________________________________________
dropout_2860 (Dropout)       (None, 16, 16, 64)        0         
_________________________________________________________________
separable_conv2d_2604 (Separ (None, 16, 16, 16)        1616      
_________________________________________________________________
activation_2861 (Activation) (None, 16, 16, 16)        0         
_________________________________________________________________
dropout_2861 (Dropout)       (None, 16, 16, 16)        0         
_________________________________________________________________
flatten_302 (Flatten)        (None, 4096)              0         
_________________________________________________________________
dense_559 (Dense)            (None, 100)               409700    
=================================================================
Total params: 2,102,575
Trainable params: 2,096,399
Non-trainable params: 6,176
_________________________________________________________________
