Model: "sequential_138"
_________________________________________________________________
Layer (type)                 Output Shape              Param #   
=================================================================
separable_conv2d_1282 (Separ (None, 32, 32, 1024)      4123      
_________________________________________________________________
batch_normalization_719 (Bat (None, 32, 32, 1024)      4096      
_________________________________________________________________
activation_1447 (Activation) (None, 32, 32, 1024)      0         
_________________________________________________________________
dropout_1447 (Dropout)       (None, 32, 32, 1024)      0         
_________________________________________________________________
max_pooling2d_292 (MaxPoolin (None, 16, 16, 1024)      0         
_________________________________________________________________
separable_conv2d_1283 (Separ (None, 16, 16, 32)        42016     
_________________________________________________________________
activation_1448 (Activation) (None, 16, 16, 32)        0         
_________________________________________________________________
dropout_1448 (Dropout)       (None, 16, 16, 32)        0         
_________________________________________________________________
max_pooling2d_293 (MaxPoolin (None, 8, 8, 32)          0         
_________________________________________________________________
separable_conv2d_1284 (Separ (None, 8, 8, 512)         17184     
_________________________________________________________________
activation_1449 (Activation) (None, 8, 8, 512)         0         
_________________________________________________________________
dropout_1449 (Dropout)       (None, 8, 8, 512)         0         
_________________________________________________________________
separable_conv2d_1285 (Separ (None, 8, 8, 1024)        529920    
_________________________________________________________________
batch_normalization_720 (Bat (None, 8, 8, 1024)        4096      
_________________________________________________________________
activation_1450 (Activation) (None, 8, 8, 1024)        0         
_________________________________________________________________
dropout_1450 (Dropout)       (None, 8, 8, 1024)        0         
_________________________________________________________________
separable_conv2d_1286 (Separ (None, 8, 8, 1024)        1058816   
_________________________________________________________________
batch_normalization_721 (Bat (None, 8, 8, 1024)        4096      
_________________________________________________________________
activation_1451 (Activation) (None, 8, 8, 1024)        0         
_________________________________________________________________
dropout_1451 (Dropout)       (None, 8, 8, 1024)        0         
_________________________________________________________________
separable_conv2d_1287 (Separ (None, 8, 8, 16)          25616     
_________________________________________________________________
batch_normalization_722 (Bat (None, 8, 8, 16)          64        
_________________________________________________________________
activation_1452 (Activation) (None, 8, 8, 16)          0         
_________________________________________________________________
dropout_1452 (Dropout)       (None, 8, 8, 16)          0         
_________________________________________________________________
separable_conv2d_1288 (Separ (None, 8, 8, 16)          416       
_________________________________________________________________
batch_normalization_723 (Bat (None, 8, 8, 16)          64        
_________________________________________________________________
activation_1453 (Activation) (None, 8, 8, 16)          0         
_________________________________________________________________
dropout_1453 (Dropout)       (None, 8, 8, 16)          0         
_________________________________________________________________
separable_conv2d_1289 (Separ (None, 8, 8, 8)           280       
_________________________________________________________________
activation_1454 (Activation) (None, 8, 8, 8)           0         
_________________________________________________________________
dropout_1454 (Dropout)       (None, 8, 8, 8)           0         
_________________________________________________________________
flatten_138 (Flatten)        (None, 512)               0         
_________________________________________________________________
dense_303 (Dense)            (None, 4096)              2101248   
_________________________________________________________________
activation_1455 (Activation) (None, 4096)              0         
_________________________________________________________________
dropout_1455 (Dropout)       (None, 4096)              0         
_________________________________________________________________
dense_304 (Dense)            (None, 100)               409700    
=================================================================
Total params: 4,201,735
Trainable params: 4,195,527
Non-trainable params: 6,208
_________________________________________________________________
