Model: "sequential_67"
_________________________________________________________________
Layer (type)                 Output Shape              Param #   
=================================================================
separable_conv2d_658 (Separa (None, 32, 32, 1024)      4123      
_________________________________________________________________
batch_normalization_370 (Bat (None, 32, 32, 1024)      4096      
_________________________________________________________________
activation_751 (Activation)  (None, 32, 32, 1024)      0         
_________________________________________________________________
dropout_751 (Dropout)        (None, 32, 32, 1024)      0         
_________________________________________________________________
max_pooling2d_149 (MaxPoolin (None, 16, 16, 1024)      0         
_________________________________________________________________
separable_conv2d_659 (Separa (None, 16, 16, 32)        42016     
_________________________________________________________________
activation_752 (Activation)  (None, 16, 16, 32)        0         
_________________________________________________________________
dropout_752 (Dropout)        (None, 16, 16, 32)        0         
_________________________________________________________________
max_pooling2d_150 (MaxPoolin (None, 8, 8, 32)          0         
_________________________________________________________________
separable_conv2d_660 (Separa (None, 8, 8, 512)         17184     
_________________________________________________________________
activation_753 (Activation)  (None, 8, 8, 512)         0         
_________________________________________________________________
dropout_753 (Dropout)        (None, 8, 8, 512)         0         
_________________________________________________________________
separable_conv2d_661 (Separa (None, 8, 8, 1024)        529920    
_________________________________________________________________
batch_normalization_371 (Bat (None, 8, 8, 1024)        4096      
_________________________________________________________________
activation_754 (Activation)  (None, 8, 8, 1024)        0         
_________________________________________________________________
dropout_754 (Dropout)        (None, 8, 8, 1024)        0         
_________________________________________________________________
separable_conv2d_662 (Separa (None, 8, 8, 1024)        1058816   
_________________________________________________________________
batch_normalization_372 (Bat (None, 8, 8, 1024)        4096      
_________________________________________________________________
activation_755 (Activation)  (None, 8, 8, 1024)        0         
_________________________________________________________________
dropout_755 (Dropout)        (None, 8, 8, 1024)        0         
_________________________________________________________________
separable_conv2d_663 (Separa (None, 8, 8, 16)          25616     
_________________________________________________________________
batch_normalization_373 (Bat (None, 8, 8, 16)          64        
_________________________________________________________________
activation_756 (Activation)  (None, 8, 8, 16)          0         
_________________________________________________________________
dropout_756 (Dropout)        (None, 8, 8, 16)          0         
_________________________________________________________________
separable_conv2d_664 (Separa (None, 8, 8, 16)          416       
_________________________________________________________________
batch_normalization_374 (Bat (None, 8, 8, 16)          64        
_________________________________________________________________
activation_757 (Activation)  (None, 8, 8, 16)          0         
_________________________________________________________________
dropout_757 (Dropout)        (None, 8, 8, 16)          0         
_________________________________________________________________
separable_conv2d_665 (Separa (None, 8, 8, 8)           280       
_________________________________________________________________
activation_758 (Activation)  (None, 8, 8, 8)           0         
_________________________________________________________________
dropout_758 (Dropout)        (None, 8, 8, 8)           0         
_________________________________________________________________
flatten_67 (Flatten)         (None, 512)               0         
_________________________________________________________________
dense_160 (Dense)            (None, 4096)              2101248   
_________________________________________________________________
activation_759 (Activation)  (None, 4096)              0         
_________________________________________________________________
dropout_759 (Dropout)        (None, 4096)              0         
_________________________________________________________________
dense_161 (Dense)            (None, 100)               409700    
=================================================================
Total params: 4,201,735
Trainable params: 4,195,527
Non-trainable params: 6,208
_________________________________________________________________
