Model: "sequential_41"
_________________________________________________________________
Layer (type)                 Output Shape              Param #   
=================================================================
separable_conv2d_405 (Separa (None, 32, 32, 1024)      4123      
_________________________________________________________________
batch_normalization_232 (Bat (None, 32, 32, 1024)      4096      
_________________________________________________________________
activation_466 (Activation)  (None, 32, 32, 1024)      0         
_________________________________________________________________
dropout_466 (Dropout)        (None, 32, 32, 1024)      0         
_________________________________________________________________
max_pooling2d_94 (MaxPooling (None, 16, 16, 1024)      0         
_________________________________________________________________
separable_conv2d_406 (Separa (None, 16, 16, 32)        42016     
_________________________________________________________________
activation_467 (Activation)  (None, 16, 16, 32)        0         
_________________________________________________________________
dropout_467 (Dropout)        (None, 16, 16, 32)        0         
_________________________________________________________________
max_pooling2d_95 (MaxPooling (None, 8, 8, 32)          0         
_________________________________________________________________
separable_conv2d_407 (Separa (None, 8, 8, 512)         17184     
_________________________________________________________________
activation_468 (Activation)  (None, 8, 8, 512)         0         
_________________________________________________________________
dropout_468 (Dropout)        (None, 8, 8, 512)         0         
_________________________________________________________________
separable_conv2d_408 (Separa (None, 8, 8, 1024)        529920    
_________________________________________________________________
batch_normalization_233 (Bat (None, 8, 8, 1024)        4096      
_________________________________________________________________
activation_469 (Activation)  (None, 8, 8, 1024)        0         
_________________________________________________________________
dropout_469 (Dropout)        (None, 8, 8, 1024)        0         
_________________________________________________________________
separable_conv2d_409 (Separa (None, 8, 8, 1024)        1058816   
_________________________________________________________________
batch_normalization_234 (Bat (None, 8, 8, 1024)        4096      
_________________________________________________________________
activation_470 (Activation)  (None, 8, 8, 1024)        0         
_________________________________________________________________
dropout_470 (Dropout)        (None, 8, 8, 1024)        0         
_________________________________________________________________
separable_conv2d_410 (Separa (None, 8, 8, 16)          25616     
_________________________________________________________________
batch_normalization_235 (Bat (None, 8, 8, 16)          64        
_________________________________________________________________
activation_471 (Activation)  (None, 8, 8, 16)          0         
_________________________________________________________________
dropout_471 (Dropout)        (None, 8, 8, 16)          0         
_________________________________________________________________
separable_conv2d_411 (Separa (None, 8, 8, 16)          416       
_________________________________________________________________
batch_normalization_236 (Bat (None, 8, 8, 16)          64        
_________________________________________________________________
activation_472 (Activation)  (None, 8, 8, 16)          0         
_________________________________________________________________
dropout_472 (Dropout)        (None, 8, 8, 16)          0         
_________________________________________________________________
separable_conv2d_412 (Separa (None, 8, 8, 512)         8848      
_________________________________________________________________
activation_473 (Activation)  (None, 8, 8, 512)         0         
_________________________________________________________________
dropout_473 (Dropout)        (None, 8, 8, 512)         0         
_________________________________________________________________
separable_conv2d_413 (Separa (None, 8, 8, 64)          37440     
_________________________________________________________________
activation_474 (Activation)  (None, 8, 8, 64)          0         
_________________________________________________________________
dropout_474 (Dropout)        (None, 8, 8, 64)          0         
_________________________________________________________________
separable_conv2d_414 (Separa (None, 8, 8, 8)           1096      
_________________________________________________________________
activation_475 (Activation)  (None, 8, 8, 8)           0         
_________________________________________________________________
dropout_475 (Dropout)        (None, 8, 8, 8)           0         
_________________________________________________________________
flatten_41 (Flatten)         (None, 512)               0         
_________________________________________________________________
dense_102 (Dense)            (None, 4096)              2101248   
_________________________________________________________________
activation_476 (Activation)  (None, 4096)              0         
_________________________________________________________________
dropout_476 (Dropout)        (None, 4096)              0         
_________________________________________________________________
dense_103 (Dense)            (None, 100)               409700    
=================================================================
Total params: 4,248,839
Trainable params: 4,242,631
Non-trainable params: 6,208
_________________________________________________________________
