Model: "sequential_50"
_________________________________________________________________
Layer (type)                 Output Shape              Param #   
=================================================================
separable_conv2d_497 (Separa (None, 32, 32, 1024)      4123      
_________________________________________________________________
batch_normalization_283 (Bat (None, 32, 32, 1024)      4096      
_________________________________________________________________
activation_570 (Activation)  (None, 32, 32, 1024)      0         
_________________________________________________________________
dropout_570 (Dropout)        (None, 32, 32, 1024)      0         
_________________________________________________________________
max_pooling2d_115 (MaxPoolin (None, 16, 16, 1024)      0         
_________________________________________________________________
separable_conv2d_498 (Separa (None, 16, 16, 32)        42016     
_________________________________________________________________
activation_571 (Activation)  (None, 16, 16, 32)        0         
_________________________________________________________________
dropout_571 (Dropout)        (None, 16, 16, 32)        0         
_________________________________________________________________
max_pooling2d_116 (MaxPoolin (None, 8, 8, 32)          0         
_________________________________________________________________
separable_conv2d_499 (Separa (None, 8, 8, 512)         17184     
_________________________________________________________________
activation_572 (Activation)  (None, 8, 8, 512)         0         
_________________________________________________________________
dropout_572 (Dropout)        (None, 8, 8, 512)         0         
_________________________________________________________________
separable_conv2d_500 (Separa (None, 8, 8, 1024)        529920    
_________________________________________________________________
batch_normalization_284 (Bat (None, 8, 8, 1024)        4096      
_________________________________________________________________
activation_573 (Activation)  (None, 8, 8, 1024)        0         
_________________________________________________________________
dropout_573 (Dropout)        (None, 8, 8, 1024)        0         
_________________________________________________________________
separable_conv2d_501 (Separa (None, 8, 8, 1024)        1058816   
_________________________________________________________________
batch_normalization_285 (Bat (None, 8, 8, 1024)        4096      
_________________________________________________________________
activation_574 (Activation)  (None, 8, 8, 1024)        0         
_________________________________________________________________
dropout_574 (Dropout)        (None, 8, 8, 1024)        0         
_________________________________________________________________
separable_conv2d_502 (Separa (None, 8, 8, 16)          25616     
_________________________________________________________________
batch_normalization_286 (Bat (None, 8, 8, 16)          64        
_________________________________________________________________
activation_575 (Activation)  (None, 8, 8, 16)          0         
_________________________________________________________________
dropout_575 (Dropout)        (None, 8, 8, 16)          0         
_________________________________________________________________
separable_conv2d_503 (Separa (None, 8, 8, 16)          416       
_________________________________________________________________
batch_normalization_287 (Bat (None, 8, 8, 16)          64        
_________________________________________________________________
activation_576 (Activation)  (None, 8, 8, 16)          0         
_________________________________________________________________
dropout_576 (Dropout)        (None, 8, 8, 16)          0         
_________________________________________________________________
separable_conv2d_504 (Separa (None, 8, 8, 512)         8848      
_________________________________________________________________
activation_577 (Activation)  (None, 8, 8, 512)         0         
_________________________________________________________________
dropout_577 (Dropout)        (None, 8, 8, 512)         0         
_________________________________________________________________
separable_conv2d_505 (Separa (None, 8, 8, 64)          37440     
_________________________________________________________________
activation_578 (Activation)  (None, 8, 8, 64)          0         
_________________________________________________________________
dropout_578 (Dropout)        (None, 8, 8, 64)          0         
_________________________________________________________________
separable_conv2d_506 (Separa (None, 8, 8, 8)           1096      
_________________________________________________________________
activation_579 (Activation)  (None, 8, 8, 8)           0         
_________________________________________________________________
dropout_579 (Dropout)        (None, 8, 8, 8)           0         
_________________________________________________________________
flatten_50 (Flatten)         (None, 512)               0         
_________________________________________________________________
dense_123 (Dense)            (None, 4096)              2101248   
_________________________________________________________________
activation_580 (Activation)  (None, 4096)              0         
_________________________________________________________________
dropout_580 (Dropout)        (None, 4096)              0         
_________________________________________________________________
dense_124 (Dense)            (None, 100)               409700    
=================================================================
Total params: 4,248,839
Trainable params: 4,242,631
Non-trainable params: 6,208
_________________________________________________________________
