Model: "sequential_203"
_________________________________________________________________
Layer (type)                 Output Shape              Param #   
=================================================================
separable_conv2d_1809 (Separ (None, 32, 32, 1024)      4123      
_________________________________________________________________
batch_normalization_1006 (Ba (None, 32, 32, 1024)      4096      
_________________________________________________________________
activation_2028 (Activation) (None, 32, 32, 1024)      0         
_________________________________________________________________
dropout_2028 (Dropout)       (None, 32, 32, 1024)      0         
_________________________________________________________________
separable_conv2d_1810 (Separ (None, 32, 32, 32)        42016     
_________________________________________________________________
activation_2029 (Activation) (None, 32, 32, 32)        0         
_________________________________________________________________
dropout_2029 (Dropout)       (None, 32, 32, 32)        0         
_________________________________________________________________
max_pooling2d_387 (MaxPoolin (None, 16, 16, 32)        0         
_________________________________________________________________
separable_conv2d_1811 (Separ (None, 16, 16, 512)       17184     
_________________________________________________________________
activation_2030 (Activation) (None, 16, 16, 512)       0         
_________________________________________________________________
dropout_2030 (Dropout)       (None, 16, 16, 512)       0         
_________________________________________________________________
separable_conv2d_1812 (Separ (None, 16, 16, 1024)      529920    
_________________________________________________________________
batch_normalization_1007 (Ba (None, 16, 16, 1024)      4096      
_________________________________________________________________
activation_2031 (Activation) (None, 16, 16, 1024)      0         
_________________________________________________________________
dropout_2031 (Dropout)       (None, 16, 16, 1024)      0         
_________________________________________________________________
separable_conv2d_1813 (Separ (None, 16, 16, 1024)      1058816   
_________________________________________________________________
batch_normalization_1008 (Ba (None, 16, 16, 1024)      4096      
_________________________________________________________________
activation_2032 (Activation) (None, 16, 16, 1024)      0         
_________________________________________________________________
dropout_2032 (Dropout)       (None, 16, 16, 1024)      0         
_________________________________________________________________
separable_conv2d_1814 (Separ (None, 16, 16, 16)        25616     
_________________________________________________________________
batch_normalization_1009 (Ba (None, 16, 16, 16)        64        
_________________________________________________________________
activation_2033 (Activation) (None, 16, 16, 16)        0         
_________________________________________________________________
dropout_2033 (Dropout)       (None, 16, 16, 16)        0         
_________________________________________________________________
separable_conv2d_1815 (Separ (None, 16, 16, 64)        1232      
_________________________________________________________________
activation_2034 (Activation) (None, 16, 16, 64)        0         
_________________________________________________________________
dropout_2034 (Dropout)       (None, 16, 16, 64)        0         
_________________________________________________________________
separable_conv2d_1816 (Separ (None, 16, 16, 16)        1616      
_________________________________________________________________
activation_2035 (Activation) (None, 16, 16, 16)        0         
_________________________________________________________________
dropout_2035 (Dropout)       (None, 16, 16, 16)        0         
_________________________________________________________________
flatten_203 (Flatten)        (None, 4096)              0         
_________________________________________________________________
dense_422 (Dense)            (None, 100)               409700    
=================================================================
Total params: 2,102,575
Trainable params: 2,096,399
Non-trainable params: 6,176
_________________________________________________________________
