Model: "sequential_24"
_________________________________________________________________
Layer (type)                 Output Shape              Param #   
=================================================================
separable_conv2d_237 (Separa (None, 32, 32, 1024)      4123      
_________________________________________________________________
batch_normalization_132 (Bat (None, 32, 32, 1024)      4096      
_________________________________________________________________
activation_270 (Activation)  (None, 32, 32, 1024)      0         
_________________________________________________________________
dropout_270 (Dropout)        (None, 32, 32, 1024)      0         
_________________________________________________________________
max_pooling2d_52 (MaxPooling (None, 16, 16, 1024)      0         
_________________________________________________________________
separable_conv2d_238 (Separa (None, 16, 16, 32)        42016     
_________________________________________________________________
activation_271 (Activation)  (None, 16, 16, 32)        0         
_________________________________________________________________
dropout_271 (Dropout)        (None, 16, 16, 32)        0         
_________________________________________________________________
max_pooling2d_53 (MaxPooling (None, 8, 8, 32)          0         
_________________________________________________________________
separable_conv2d_239 (Separa (None, 8, 8, 512)         17184     
_________________________________________________________________
activation_272 (Activation)  (None, 8, 8, 512)         0         
_________________________________________________________________
dropout_272 (Dropout)        (None, 8, 8, 512)         0         
_________________________________________________________________
separable_conv2d_240 (Separa (None, 8, 8, 1024)        529920    
_________________________________________________________________
batch_normalization_133 (Bat (None, 8, 8, 1024)        4096      
_________________________________________________________________
activation_273 (Activation)  (None, 8, 8, 1024)        0         
_________________________________________________________________
dropout_273 (Dropout)        (None, 8, 8, 1024)        0         
_________________________________________________________________
separable_conv2d_241 (Separa (None, 8, 8, 1024)        1058816   
_________________________________________________________________
batch_normalization_134 (Bat (None, 8, 8, 1024)        4096      
_________________________________________________________________
activation_274 (Activation)  (None, 8, 8, 1024)        0         
_________________________________________________________________
dropout_274 (Dropout)        (None, 8, 8, 1024)        0         
_________________________________________________________________
separable_conv2d_242 (Separa (None, 8, 8, 16)          25616     
_________________________________________________________________
batch_normalization_135 (Bat (None, 8, 8, 16)          64        
_________________________________________________________________
activation_275 (Activation)  (None, 8, 8, 16)          0         
_________________________________________________________________
dropout_275 (Dropout)        (None, 8, 8, 16)          0         
_________________________________________________________________
separable_conv2d_243 (Separa (None, 8, 8, 16)          416       
_________________________________________________________________
batch_normalization_136 (Bat (None, 8, 8, 16)          64        
_________________________________________________________________
activation_276 (Activation)  (None, 8, 8, 16)          0         
_________________________________________________________________
dropout_276 (Dropout)        (None, 8, 8, 16)          0         
_________________________________________________________________
separable_conv2d_244 (Separa (None, 8, 8, 512)         8848      
_________________________________________________________________
activation_277 (Activation)  (None, 8, 8, 512)         0         
_________________________________________________________________
dropout_277 (Dropout)        (None, 8, 8, 512)         0         
_________________________________________________________________
separable_conv2d_245 (Separa (None, 8, 8, 64)          37440     
_________________________________________________________________
activation_278 (Activation)  (None, 8, 8, 64)          0         
_________________________________________________________________
dropout_278 (Dropout)        (None, 8, 8, 64)          0         
_________________________________________________________________
separable_conv2d_246 (Separa (None, 8, 8, 8)           1096      
_________________________________________________________________
activation_279 (Activation)  (None, 8, 8, 8)           0         
_________________________________________________________________
dropout_279 (Dropout)        (None, 8, 8, 8)           0         
_________________________________________________________________
flatten_24 (Flatten)         (None, 512)               0         
_________________________________________________________________
dense_57 (Dense)             (None, 4096)              2101248   
_________________________________________________________________
activation_280 (Activation)  (None, 4096)              0         
_________________________________________________________________
dropout_280 (Dropout)        (None, 4096)              0         
_________________________________________________________________
dense_58 (Dense)             (None, 100)               409700    
=================================================================
Total params: 4,248,839
Trainable params: 4,242,631
Non-trainable params: 6,208
_________________________________________________________________
