Model: "sequential_121"
_________________________________________________________________
Layer (type)                 Output Shape              Param #   
=================================================================
separable_conv2d_1141 (Separ (None, 32, 32, 1024)      4123      
_________________________________________________________________
batch_normalization_639 (Bat (None, 32, 32, 1024)      4096      
_________________________________________________________________
activation_1289 (Activation) (None, 32, 32, 1024)      0         
_________________________________________________________________
dropout_1289 (Dropout)       (None, 32, 32, 1024)      0         
_________________________________________________________________
max_pooling2d_258 (MaxPoolin (None, 16, 16, 1024)      0         
_________________________________________________________________
separable_conv2d_1142 (Separ (None, 16, 16, 32)        42016     
_________________________________________________________________
activation_1290 (Activation) (None, 16, 16, 32)        0         
_________________________________________________________________
dropout_1290 (Dropout)       (None, 16, 16, 32)        0         
_________________________________________________________________
max_pooling2d_259 (MaxPoolin (None, 8, 8, 32)          0         
_________________________________________________________________
separable_conv2d_1143 (Separ (None, 8, 8, 512)         17184     
_________________________________________________________________
activation_1291 (Activation) (None, 8, 8, 512)         0         
_________________________________________________________________
dropout_1291 (Dropout)       (None, 8, 8, 512)         0         
_________________________________________________________________
separable_conv2d_1144 (Separ (None, 8, 8, 1024)        529920    
_________________________________________________________________
batch_normalization_640 (Bat (None, 8, 8, 1024)        4096      
_________________________________________________________________
activation_1292 (Activation) (None, 8, 8, 1024)        0         
_________________________________________________________________
dropout_1292 (Dropout)       (None, 8, 8, 1024)        0         
_________________________________________________________________
separable_conv2d_1145 (Separ (None, 8, 8, 1024)        1058816   
_________________________________________________________________
batch_normalization_641 (Bat (None, 8, 8, 1024)        4096      
_________________________________________________________________
activation_1293 (Activation) (None, 8, 8, 1024)        0         
_________________________________________________________________
dropout_1293 (Dropout)       (None, 8, 8, 1024)        0         
_________________________________________________________________
separable_conv2d_1146 (Separ (None, 8, 8, 16)          25616     
_________________________________________________________________
batch_normalization_642 (Bat (None, 8, 8, 16)          64        
_________________________________________________________________
activation_1294 (Activation) (None, 8, 8, 16)          0         
_________________________________________________________________
dropout_1294 (Dropout)       (None, 8, 8, 16)          0         
_________________________________________________________________
separable_conv2d_1147 (Separ (None, 8, 8, 512)         8848      
_________________________________________________________________
activation_1295 (Activation) (None, 8, 8, 512)         0         
_________________________________________________________________
dropout_1295 (Dropout)       (None, 8, 8, 512)         0         
_________________________________________________________________
separable_conv2d_1148 (Separ (None, 8, 8, 64)          37440     
_________________________________________________________________
activation_1296 (Activation) (None, 8, 8, 64)          0         
_________________________________________________________________
dropout_1296 (Dropout)       (None, 8, 8, 64)          0         
_________________________________________________________________
separable_conv2d_1149 (Separ (None, 8, 8, 8)           1096      
_________________________________________________________________
activation_1297 (Activation) (None, 8, 8, 8)           0         
_________________________________________________________________
dropout_1297 (Dropout)       (None, 8, 8, 8)           0         
_________________________________________________________________
flatten_121 (Flatten)        (None, 512)               0         
_________________________________________________________________
dense_269 (Dense)            (None, 4096)              2101248   
_________________________________________________________________
activation_1298 (Activation) (None, 4096)              0         
_________________________________________________________________
dropout_1298 (Dropout)       (None, 4096)              0         
_________________________________________________________________
dense_270 (Dense)            (None, 100)               409700    
=================================================================
Total params: 4,248,359
Trainable params: 4,242,183
Non-trainable params: 6,176
_________________________________________________________________
