Model: "sequential_60"
_________________________________________________________________
Layer (type)                 Output Shape              Param #   
=================================================================
separable_conv2d_591 (Separa (None, 32, 32, 1024)      4123      
_________________________________________________________________
batch_normalization_335 (Bat (None, 32, 32, 1024)      4096      
_________________________________________________________________
activation_676 (Activation)  (None, 32, 32, 1024)      0         
_________________________________________________________________
dropout_676 (Dropout)        (None, 32, 32, 1024)      0         
_________________________________________________________________
max_pooling2d_135 (MaxPoolin (None, 16, 16, 1024)      0         
_________________________________________________________________
separable_conv2d_592 (Separa (None, 16, 16, 32)        42016     
_________________________________________________________________
activation_677 (Activation)  (None, 16, 16, 32)        0         
_________________________________________________________________
dropout_677 (Dropout)        (None, 16, 16, 32)        0         
_________________________________________________________________
max_pooling2d_136 (MaxPoolin (None, 8, 8, 32)          0         
_________________________________________________________________
separable_conv2d_593 (Separa (None, 8, 8, 512)         17184     
_________________________________________________________________
activation_678 (Activation)  (None, 8, 8, 512)         0         
_________________________________________________________________
dropout_678 (Dropout)        (None, 8, 8, 512)         0         
_________________________________________________________________
separable_conv2d_594 (Separa (None, 8, 8, 1024)        529920    
_________________________________________________________________
batch_normalization_336 (Bat (None, 8, 8, 1024)        4096      
_________________________________________________________________
activation_679 (Activation)  (None, 8, 8, 1024)        0         
_________________________________________________________________
dropout_679 (Dropout)        (None, 8, 8, 1024)        0         
_________________________________________________________________
separable_conv2d_595 (Separa (None, 8, 8, 1024)        1058816   
_________________________________________________________________
batch_normalization_337 (Bat (None, 8, 8, 1024)        4096      
_________________________________________________________________
activation_680 (Activation)  (None, 8, 8, 1024)        0         
_________________________________________________________________
dropout_680 (Dropout)        (None, 8, 8, 1024)        0         
_________________________________________________________________
separable_conv2d_596 (Separa (None, 8, 8, 16)          25616     
_________________________________________________________________
batch_normalization_338 (Bat (None, 8, 8, 16)          64        
_________________________________________________________________
activation_681 (Activation)  (None, 8, 8, 16)          0         
_________________________________________________________________
dropout_681 (Dropout)        (None, 8, 8, 16)          0         
_________________________________________________________________
separable_conv2d_597 (Separa (None, 8, 8, 16)          416       
_________________________________________________________________
batch_normalization_339 (Bat (None, 8, 8, 16)          64        
_________________________________________________________________
activation_682 (Activation)  (None, 8, 8, 16)          0         
_________________________________________________________________
dropout_682 (Dropout)        (None, 8, 8, 16)          0         
_________________________________________________________________
separable_conv2d_598 (Separa (None, 8, 8, 512)         8848      
_________________________________________________________________
activation_683 (Activation)  (None, 8, 8, 512)         0         
_________________________________________________________________
dropout_683 (Dropout)        (None, 8, 8, 512)         0         
_________________________________________________________________
separable_conv2d_599 (Separa (None, 8, 8, 64)          37440     
_________________________________________________________________
activation_684 (Activation)  (None, 8, 8, 64)          0         
_________________________________________________________________
dropout_684 (Dropout)        (None, 8, 8, 64)          0         
_________________________________________________________________
separable_conv2d_600 (Separa (None, 8, 8, 8)           1096      
_________________________________________________________________
activation_685 (Activation)  (None, 8, 8, 8)           0         
_________________________________________________________________
dropout_685 (Dropout)        (None, 8, 8, 8)           0         
_________________________________________________________________
flatten_60 (Flatten)         (None, 512)               0         
_________________________________________________________________
dense_145 (Dense)            (None, 4096)              2101248   
_________________________________________________________________
activation_686 (Activation)  (None, 4096)              0         
_________________________________________________________________
dropout_686 (Dropout)        (None, 4096)              0         
_________________________________________________________________
dense_146 (Dense)            (None, 100)               409700    
=================================================================
Total params: 4,248,839
Trainable params: 4,242,631
Non-trainable params: 6,208
_________________________________________________________________
