Model: "sequential_27"
_________________________________________________________________
Layer (type)                 Output Shape              Param #   
=================================================================
separable_conv2d_268 (Separa (None, 32, 32, 1024)      4123      
_________________________________________________________________
batch_normalization_149 (Bat (None, 32, 32, 1024)      4096      
_________________________________________________________________
activation_306 (Activation)  (None, 32, 32, 1024)      0         
_________________________________________________________________
dropout_306 (Dropout)        (None, 32, 32, 1024)      0         
_________________________________________________________________
max_pooling2d_59 (MaxPooling (None, 16, 16, 1024)      0         
_________________________________________________________________
separable_conv2d_269 (Separa (None, 16, 16, 32)        42016     
_________________________________________________________________
activation_307 (Activation)  (None, 16, 16, 32)        0         
_________________________________________________________________
dropout_307 (Dropout)        (None, 16, 16, 32)        0         
_________________________________________________________________
max_pooling2d_60 (MaxPooling (None, 8, 8, 32)          0         
_________________________________________________________________
separable_conv2d_270 (Separa (None, 8, 8, 512)         17184     
_________________________________________________________________
activation_308 (Activation)  (None, 8, 8, 512)         0         
_________________________________________________________________
dropout_308 (Dropout)        (None, 8, 8, 512)         0         
_________________________________________________________________
separable_conv2d_271 (Separa (None, 8, 8, 1024)        529920    
_________________________________________________________________
batch_normalization_150 (Bat (None, 8, 8, 1024)        4096      
_________________________________________________________________
activation_309 (Activation)  (None, 8, 8, 1024)        0         
_________________________________________________________________
dropout_309 (Dropout)        (None, 8, 8, 1024)        0         
_________________________________________________________________
separable_conv2d_272 (Separa (None, 8, 8, 1024)        1058816   
_________________________________________________________________
batch_normalization_151 (Bat (None, 8, 8, 1024)        4096      
_________________________________________________________________
activation_310 (Activation)  (None, 8, 8, 1024)        0         
_________________________________________________________________
dropout_310 (Dropout)        (None, 8, 8, 1024)        0         
_________________________________________________________________
separable_conv2d_273 (Separa (None, 8, 8, 16)          25616     
_________________________________________________________________
batch_normalization_152 (Bat (None, 8, 8, 16)          64        
_________________________________________________________________
activation_311 (Activation)  (None, 8, 8, 16)          0         
_________________________________________________________________
dropout_311 (Dropout)        (None, 8, 8, 16)          0         
_________________________________________________________________
separable_conv2d_274 (Separa (None, 8, 8, 16)          416       
_________________________________________________________________
activation_312 (Activation)  (None, 8, 8, 16)          0         
_________________________________________________________________
dropout_312 (Dropout)        (None, 8, 8, 16)          0         
_________________________________________________________________
separable_conv2d_275 (Separa (None, 8, 8, 512)         8848      
_________________________________________________________________
batch_normalization_153 (Bat (None, 8, 8, 512)         2048      
_________________________________________________________________
activation_313 (Activation)  (None, 8, 8, 512)         0         
_________________________________________________________________
dropout_313 (Dropout)        (None, 8, 8, 512)         0         
_________________________________________________________________
max_pooling2d_61 (MaxPooling (None, 4, 4, 512)         0         
_________________________________________________________________
separable_conv2d_276 (Separa (None, 4, 4, 16)          12816     
_________________________________________________________________
batch_normalization_154 (Bat (None, 4, 4, 16)          64        
_________________________________________________________________
activation_314 (Activation)  (None, 4, 4, 16)          0         
_________________________________________________________________
dropout_314 (Dropout)        (None, 4, 4, 16)          0         
_________________________________________________________________
separable_conv2d_277 (Separa (None, 4, 4, 64)          1232      
_________________________________________________________________
activation_315 (Activation)  (None, 4, 4, 64)          0         
_________________________________________________________________
dropout_315 (Dropout)        (None, 4, 4, 64)          0         
_________________________________________________________________
separable_conv2d_278 (Separa (None, 4, 4, 64)          4736      
_________________________________________________________________
activation_316 (Activation)  (None, 4, 4, 64)          0         
_________________________________________________________________
dropout_316 (Dropout)        (None, 4, 4, 64)          0         
_________________________________________________________________
flatten_27 (Flatten)         (None, 1024)              0         
_________________________________________________________________
dense_65 (Dense)             (None, 4096)              4198400   
_________________________________________________________________
batch_normalization_155 (Bat (None, 4096)              16384     
_________________________________________________________________
activation_317 (Activation)  (None, 4096)              0         
_________________________________________________________________
dropout_317 (Dropout)        (None, 4096)              0         
_________________________________________________________________
dense_66 (Dense)             (None, 1024)              4195328   
_________________________________________________________________
activation_318 (Activation)  (None, 1024)              0         
_________________________________________________________________
dropout_318 (Dropout)        (None, 1024)              0         
_________________________________________________________________
dense_67 (Dense)             (None, 100)               102500    
=================================================================
Total params: 10,232,799
Trainable params: 10,217,375
Non-trainable params: 15,424
_________________________________________________________________
