Model: "sequential_71"
_________________________________________________________________
Layer (type)                 Output Shape              Param #   
=================================================================
separable_conv2d_695 (Separa (None, 32, 32, 1024)      4123      
_________________________________________________________________
batch_normalization_390 (Bat (None, 32, 32, 1024)      4096      
_________________________________________________________________
activation_792 (Activation)  (None, 32, 32, 1024)      0         
_________________________________________________________________
dropout_792 (Dropout)        (None, 32, 32, 1024)      0         
_________________________________________________________________
max_pooling2d_157 (MaxPoolin (None, 16, 16, 1024)      0         
_________________________________________________________________
separable_conv2d_696 (Separa (None, 16, 16, 32)        42016     
_________________________________________________________________
activation_793 (Activation)  (None, 16, 16, 32)        0         
_________________________________________________________________
dropout_793 (Dropout)        (None, 16, 16, 32)        0         
_________________________________________________________________
max_pooling2d_158 (MaxPoolin (None, 8, 8, 32)          0         
_________________________________________________________________
separable_conv2d_697 (Separa (None, 8, 8, 512)         17184     
_________________________________________________________________
activation_794 (Activation)  (None, 8, 8, 512)         0         
_________________________________________________________________
dropout_794 (Dropout)        (None, 8, 8, 512)         0         
_________________________________________________________________
separable_conv2d_698 (Separa (None, 8, 8, 1024)        529920    
_________________________________________________________________
batch_normalization_391 (Bat (None, 8, 8, 1024)        4096      
_________________________________________________________________
activation_795 (Activation)  (None, 8, 8, 1024)        0         
_________________________________________________________________
dropout_795 (Dropout)        (None, 8, 8, 1024)        0         
_________________________________________________________________
separable_conv2d_699 (Separa (None, 8, 8, 1024)        1058816   
_________________________________________________________________
batch_normalization_392 (Bat (None, 8, 8, 1024)        4096      
_________________________________________________________________
activation_796 (Activation)  (None, 8, 8, 1024)        0         
_________________________________________________________________
dropout_796 (Dropout)        (None, 8, 8, 1024)        0         
_________________________________________________________________
separable_conv2d_700 (Separa (None, 8, 8, 16)          25616     
_________________________________________________________________
batch_normalization_393 (Bat (None, 8, 8, 16)          64        
_________________________________________________________________
activation_797 (Activation)  (None, 8, 8, 16)          0         
_________________________________________________________________
dropout_797 (Dropout)        (None, 8, 8, 16)          0         
_________________________________________________________________
separable_conv2d_701 (Separa (None, 8, 8, 16)          416       
_________________________________________________________________
batch_normalization_394 (Bat (None, 8, 8, 16)          64        
_________________________________________________________________
activation_798 (Activation)  (None, 8, 8, 16)          0         
_________________________________________________________________
dropout_798 (Dropout)        (None, 8, 8, 16)          0         
_________________________________________________________________
separable_conv2d_702 (Separa (None, 8, 8, 512)         8848      
_________________________________________________________________
activation_799 (Activation)  (None, 8, 8, 512)         0         
_________________________________________________________________
dropout_799 (Dropout)        (None, 8, 8, 512)         0         
_________________________________________________________________
separable_conv2d_703 (Separa (None, 8, 8, 64)          37440     
_________________________________________________________________
activation_800 (Activation)  (None, 8, 8, 64)          0         
_________________________________________________________________
dropout_800 (Dropout)        (None, 8, 8, 64)          0         
_________________________________________________________________
separable_conv2d_704 (Separa (None, 8, 8, 8)           1096      
_________________________________________________________________
activation_801 (Activation)  (None, 8, 8, 8)           0         
_________________________________________________________________
dropout_801 (Dropout)        (None, 8, 8, 8)           0         
_________________________________________________________________
flatten_71 (Flatten)         (None, 512)               0         
_________________________________________________________________
dense_168 (Dense)            (None, 4096)              2101248   
_________________________________________________________________
activation_802 (Activation)  (None, 4096)              0         
_________________________________________________________________
dropout_802 (Dropout)        (None, 4096)              0         
_________________________________________________________________
dense_169 (Dense)            (None, 100)               409700    
=================================================================
Total params: 4,248,839
Trainable params: 4,242,631
Non-trainable params: 6,208
_________________________________________________________________
