Model: "sequential_369"
_________________________________________________________________
Layer (type)                 Output Shape              Param #   
=================================================================
separable_conv2d_3131 (Separ (None, 32, 32, 1024)      4123      
_________________________________________________________________
batch_normalization_1673 (Ba (None, 32, 32, 1024)      4096      
_________________________________________________________________
activation_3398 (Activation) (None, 32, 32, 1024)      0         
_________________________________________________________________
dropout_3398 (Dropout)       (None, 32, 32, 1024)      0         
_________________________________________________________________
separable_conv2d_3132 (Separ (None, 32, 32, 32)        42016     
_________________________________________________________________
activation_3399 (Activation) (None, 32, 32, 32)        0         
_________________________________________________________________
dropout_3399 (Dropout)       (None, 32, 32, 32)        0         
_________________________________________________________________
max_pooling2d_565 (MaxPoolin (None, 16, 16, 32)        0         
_________________________________________________________________
separable_conv2d_3133 (Separ (None, 16, 16, 512)       17184     
_________________________________________________________________
activation_3400 (Activation) (None, 16, 16, 512)       0         
_________________________________________________________________
dropout_3400 (Dropout)       (None, 16, 16, 512)       0         
_________________________________________________________________
separable_conv2d_3134 (Separ (None, 16, 16, 1024)      529920    
_________________________________________________________________
batch_normalization_1674 (Ba (None, 16, 16, 1024)      4096      
_________________________________________________________________
activation_3401 (Activation) (None, 16, 16, 1024)      0         
_________________________________________________________________
dropout_3401 (Dropout)       (None, 16, 16, 1024)      0         
_________________________________________________________________
separable_conv2d_3135 (Separ (None, 16, 16, 1024)      1058816   
_________________________________________________________________
batch_normalization_1675 (Ba (None, 16, 16, 1024)      4096      
_________________________________________________________________
activation_3402 (Activation) (None, 16, 16, 1024)      0         
_________________________________________________________________
dropout_3402 (Dropout)       (None, 16, 16, 1024)      0         
_________________________________________________________________
separable_conv2d_3136 (Separ (None, 16, 16, 16)        25616     
_________________________________________________________________
batch_normalization_1676 (Ba (None, 16, 16, 16)        64        
_________________________________________________________________
activation_3403 (Activation) (None, 16, 16, 16)        0         
_________________________________________________________________
dropout_3403 (Dropout)       (None, 16, 16, 16)        0         
_________________________________________________________________
separable_conv2d_3137 (Separ (None, 16, 16, 64)        1232      
_________________________________________________________________
activation_3404 (Activation) (None, 16, 16, 64)        0         
_________________________________________________________________
dropout_3404 (Dropout)       (None, 16, 16, 64)        0         
_________________________________________________________________
separable_conv2d_3138 (Separ (None, 16, 16, 16)        1616      
_________________________________________________________________
activation_3405 (Activation) (None, 16, 16, 16)        0         
_________________________________________________________________
dropout_3405 (Dropout)       (None, 16, 16, 16)        0         
_________________________________________________________________
flatten_369 (Flatten)        (None, 4096)              0         
_________________________________________________________________
dense_636 (Dense)            (None, 4096)              16781312  
_________________________________________________________________
activation_3406 (Activation) (None, 4096)              0         
_________________________________________________________________
dropout_3406 (Dropout)       (None, 4096)              0         
_________________________________________________________________
dense_637 (Dense)            (None, 100)               409700    
=================================================================
Total params: 18,883,887
Trainable params: 18,877,711
Non-trainable params: 6,176
_________________________________________________________________
