Model: "sequential_216"
_________________________________________________________________
Layer (type)                 Output Shape              Param #   
=================================================================
separable_conv2d_1910 (Separ (None, 32, 32, 1024)      4123      
_________________________________________________________________
batch_normalization_1060 (Ba (None, 32, 32, 1024)      4096      
_________________________________________________________________
activation_2139 (Activation) (None, 32, 32, 1024)      0         
_________________________________________________________________
dropout_2139 (Dropout)       (None, 32, 32, 1024)      0         
_________________________________________________________________
separable_conv2d_1911 (Separ (None, 32, 32, 32)        42016     
_________________________________________________________________
activation_2140 (Activation) (None, 32, 32, 32)        0         
_________________________________________________________________
dropout_2140 (Dropout)       (None, 32, 32, 32)        0         
_________________________________________________________________
max_pooling2d_400 (MaxPoolin (None, 16, 16, 32)        0         
_________________________________________________________________
separable_conv2d_1912 (Separ (None, 16, 16, 512)       17184     
_________________________________________________________________
activation_2141 (Activation) (None, 16, 16, 512)       0         
_________________________________________________________________
dropout_2141 (Dropout)       (None, 16, 16, 512)       0         
_________________________________________________________________
separable_conv2d_1913 (Separ (None, 16, 16, 1024)      529920    
_________________________________________________________________
batch_normalization_1061 (Ba (None, 16, 16, 1024)      4096      
_________________________________________________________________
activation_2142 (Activation) (None, 16, 16, 1024)      0         
_________________________________________________________________
dropout_2142 (Dropout)       (None, 16, 16, 1024)      0         
_________________________________________________________________
separable_conv2d_1914 (Separ (None, 16, 16, 1024)      1058816   
_________________________________________________________________
batch_normalization_1062 (Ba (None, 16, 16, 1024)      4096      
_________________________________________________________________
activation_2143 (Activation) (None, 16, 16, 1024)      0         
_________________________________________________________________
dropout_2143 (Dropout)       (None, 16, 16, 1024)      0         
_________________________________________________________________
separable_conv2d_1915 (Separ (None, 16, 16, 16)        25616     
_________________________________________________________________
batch_normalization_1063 (Ba (None, 16, 16, 16)        64        
_________________________________________________________________
activation_2144 (Activation) (None, 16, 16, 16)        0         
_________________________________________________________________
dropout_2144 (Dropout)       (None, 16, 16, 16)        0         
_________________________________________________________________
separable_conv2d_1916 (Separ (None, 16, 16, 64)        1232      
_________________________________________________________________
activation_2145 (Activation) (None, 16, 16, 64)        0         
_________________________________________________________________
dropout_2145 (Dropout)       (None, 16, 16, 64)        0         
_________________________________________________________________
separable_conv2d_1917 (Separ (None, 16, 16, 16)        1616      
_________________________________________________________________
activation_2146 (Activation) (None, 16, 16, 16)        0         
_________________________________________________________________
dropout_2146 (Dropout)       (None, 16, 16, 16)        0         
_________________________________________________________________
flatten_216 (Flatten)        (None, 4096)              0         
_________________________________________________________________
dense_445 (Dense)            (None, 100)               409700    
=================================================================
Total params: 2,102,575
Trainable params: 2,096,399
Non-trainable params: 6,176
_________________________________________________________________
