Model: "sequential_212"
_________________________________________________________________
Layer (type)                 Output Shape              Param #   
=================================================================
separable_conv2d_1878 (Separ (None, 32, 32, 1024)      4123      
_________________________________________________________________
batch_normalization_1041 (Ba (None, 32, 32, 1024)      4096      
_________________________________________________________________
activation_2104 (Activation) (None, 32, 32, 1024)      0         
_________________________________________________________________
dropout_2104 (Dropout)       (None, 32, 32, 1024)      0         
_________________________________________________________________
separable_conv2d_1879 (Separ (None, 32, 32, 32)        42016     
_________________________________________________________________
activation_2105 (Activation) (None, 32, 32, 32)        0         
_________________________________________________________________
dropout_2105 (Dropout)       (None, 32, 32, 32)        0         
_________________________________________________________________
max_pooling2d_396 (MaxPoolin (None, 16, 16, 32)        0         
_________________________________________________________________
separable_conv2d_1880 (Separ (None, 16, 16, 512)       17184     
_________________________________________________________________
activation_2106 (Activation) (None, 16, 16, 512)       0         
_________________________________________________________________
dropout_2106 (Dropout)       (None, 16, 16, 512)       0         
_________________________________________________________________
separable_conv2d_1881 (Separ (None, 16, 16, 1024)      529920    
_________________________________________________________________
batch_normalization_1042 (Ba (None, 16, 16, 1024)      4096      
_________________________________________________________________
activation_2107 (Activation) (None, 16, 16, 1024)      0         
_________________________________________________________________
dropout_2107 (Dropout)       (None, 16, 16, 1024)      0         
_________________________________________________________________
separable_conv2d_1882 (Separ (None, 16, 16, 1024)      1058816   
_________________________________________________________________
batch_normalization_1043 (Ba (None, 16, 16, 1024)      4096      
_________________________________________________________________
activation_2108 (Activation) (None, 16, 16, 1024)      0         
_________________________________________________________________
dropout_2108 (Dropout)       (None, 16, 16, 1024)      0         
_________________________________________________________________
separable_conv2d_1883 (Separ (None, 16, 16, 16)        25616     
_________________________________________________________________
batch_normalization_1044 (Ba (None, 16, 16, 16)        64        
_________________________________________________________________
activation_2109 (Activation) (None, 16, 16, 16)        0         
_________________________________________________________________
dropout_2109 (Dropout)       (None, 16, 16, 16)        0         
_________________________________________________________________
separable_conv2d_1884 (Separ (None, 16, 16, 16)        416       
_________________________________________________________________
batch_normalization_1045 (Ba (None, 16, 16, 16)        64        
_________________________________________________________________
activation_2110 (Activation) (None, 16, 16, 16)        0         
_________________________________________________________________
dropout_2110 (Dropout)       (None, 16, 16, 16)        0         
_________________________________________________________________
separable_conv2d_1885 (Separ (None, 16, 16, 8)         280       
_________________________________________________________________
activation_2111 (Activation) (None, 16, 16, 8)         0         
_________________________________________________________________
dropout_2111 (Dropout)       (None, 16, 16, 8)         0         
_________________________________________________________________
flatten_212 (Flatten)        (None, 2048)              0         
_________________________________________________________________
dense_438 (Dense)            (None, 4096)              8392704   
_________________________________________________________________
activation_2112 (Activation) (None, 4096)              0         
_________________________________________________________________
dropout_2112 (Dropout)       (None, 4096)              0         
_________________________________________________________________
dense_439 (Dense)            (None, 100)               409700    
=================================================================
Total params: 10,493,191
Trainable params: 10,486,983
Non-trainable params: 6,208
_________________________________________________________________
