Model: "sequential_319"
_________________________________________________________________
Layer (type)                 Output Shape              Param #   
=================================================================
separable_conv2d_2733 (Separ (None, 32, 32, 1024)      4123      
_________________________________________________________________
batch_normalization_1465 (Ba (None, 32, 32, 1024)      4096      
_________________________________________________________________
activation_2992 (Activation) (None, 32, 32, 1024)      0         
_________________________________________________________________
dropout_2992 (Dropout)       (None, 32, 32, 1024)      0         
_________________________________________________________________
separable_conv2d_2734 (Separ (None, 32, 32, 32)        42016     
_________________________________________________________________
activation_2993 (Activation) (None, 32, 32, 32)        0         
_________________________________________________________________
dropout_2993 (Dropout)       (None, 32, 32, 32)        0         
_________________________________________________________________
max_pooling2d_510 (MaxPoolin (None, 16, 16, 32)        0         
_________________________________________________________________
separable_conv2d_2735 (Separ (None, 16, 16, 512)       17184     
_________________________________________________________________
activation_2994 (Activation) (None, 16, 16, 512)       0         
_________________________________________________________________
dropout_2994 (Dropout)       (None, 16, 16, 512)       0         
_________________________________________________________________
separable_conv2d_2736 (Separ (None, 16, 16, 1024)      529920    
_________________________________________________________________
batch_normalization_1466 (Ba (None, 16, 16, 1024)      4096      
_________________________________________________________________
activation_2995 (Activation) (None, 16, 16, 1024)      0         
_________________________________________________________________
dropout_2995 (Dropout)       (None, 16, 16, 1024)      0         
_________________________________________________________________
separable_conv2d_2737 (Separ (None, 16, 16, 1024)      1058816   
_________________________________________________________________
batch_normalization_1467 (Ba (None, 16, 16, 1024)      4096      
_________________________________________________________________
activation_2996 (Activation) (None, 16, 16, 1024)      0         
_________________________________________________________________
dropout_2996 (Dropout)       (None, 16, 16, 1024)      0         
_________________________________________________________________
separable_conv2d_2738 (Separ (None, 16, 16, 16)        25616     
_________________________________________________________________
batch_normalization_1468 (Ba (None, 16, 16, 16)        64        
_________________________________________________________________
activation_2997 (Activation) (None, 16, 16, 16)        0         
_________________________________________________________________
dropout_2997 (Dropout)       (None, 16, 16, 16)        0         
_________________________________________________________________
separable_conv2d_2739 (Separ (None, 16, 16, 64)        1232      
_________________________________________________________________
activation_2998 (Activation) (None, 16, 16, 64)        0         
_________________________________________________________________
dropout_2998 (Dropout)       (None, 16, 16, 64)        0         
_________________________________________________________________
separable_conv2d_2740 (Separ (None, 16, 16, 16)        1616      
_________________________________________________________________
activation_2999 (Activation) (None, 16, 16, 16)        0         
_________________________________________________________________
dropout_2999 (Dropout)       (None, 16, 16, 16)        0         
_________________________________________________________________
flatten_319 (Flatten)        (None, 4096)              0         
_________________________________________________________________
dense_578 (Dense)            (None, 100)               409700    
=================================================================
Total params: 2,102,575
Trainable params: 2,096,399
Non-trainable params: 6,176
_________________________________________________________________
