Model: "sequential_132"
_________________________________________________________________
Layer (type)                 Output Shape              Param #   
=================================================================
separable_conv2d_1233 (Separ (None, 32, 32, 1024)      4123      
_________________________________________________________________
batch_normalization_691 (Bat (None, 32, 32, 1024)      4096      
_________________________________________________________________
activation_1392 (Activation) (None, 32, 32, 1024)      0         
_________________________________________________________________
dropout_1392 (Dropout)       (None, 32, 32, 1024)      0         
_________________________________________________________________
max_pooling2d_280 (MaxPoolin (None, 16, 16, 1024)      0         
_________________________________________________________________
separable_conv2d_1234 (Separ (None, 16, 16, 128)       140416    
_________________________________________________________________
activation_1393 (Activation) (None, 16, 16, 128)       0         
_________________________________________________________________
dropout_1393 (Dropout)       (None, 16, 16, 128)       0         
_________________________________________________________________
max_pooling2d_281 (MaxPoolin (None, 8, 8, 128)         0         
_________________________________________________________________
separable_conv2d_1235 (Separ (None, 8, 8, 512)         67200     
_________________________________________________________________
activation_1394 (Activation) (None, 8, 8, 512)         0         
_________________________________________________________________
dropout_1394 (Dropout)       (None, 8, 8, 512)         0         
_________________________________________________________________
separable_conv2d_1236 (Separ (None, 8, 8, 32)          21024     
_________________________________________________________________
batch_normalization_692 (Bat (None, 8, 8, 32)          128       
_________________________________________________________________
activation_1395 (Activation) (None, 8, 8, 32)          0         
_________________________________________________________________
dropout_1395 (Dropout)       (None, 8, 8, 32)          0         
_________________________________________________________________
separable_conv2d_1237 (Separ (None, 8, 8, 1024)        34080     
_________________________________________________________________
batch_normalization_693 (Bat (None, 8, 8, 1024)        4096      
_________________________________________________________________
activation_1396 (Activation) (None, 8, 8, 1024)        0         
_________________________________________________________________
dropout_1396 (Dropout)       (None, 8, 8, 1024)        0         
_________________________________________________________________
separable_conv2d_1238 (Separ (None, 8, 8, 16)          25616     
_________________________________________________________________
batch_normalization_694 (Bat (None, 8, 8, 16)          64        
_________________________________________________________________
activation_1397 (Activation) (None, 8, 8, 16)          0         
_________________________________________________________________
dropout_1397 (Dropout)       (None, 8, 8, 16)          0         
_________________________________________________________________
separable_conv2d_1239 (Separ (None, 8, 8, 16)          416       
_________________________________________________________________
batch_normalization_695 (Bat (None, 8, 8, 16)          64        
_________________________________________________________________
activation_1398 (Activation) (None, 8, 8, 16)          0         
_________________________________________________________________
dropout_1398 (Dropout)       (None, 8, 8, 16)          0         
_________________________________________________________________
separable_conv2d_1240 (Separ (None, 8, 8, 8)           280       
_________________________________________________________________
activation_1399 (Activation) (None, 8, 8, 8)           0         
_________________________________________________________________
dropout_1399 (Dropout)       (None, 8, 8, 8)           0         
_________________________________________________________________
flatten_132 (Flatten)        (None, 512)               0         
_________________________________________________________________
dense_291 (Dense)            (None, 4096)              2101248   
_________________________________________________________________
activation_1400 (Activation) (None, 4096)              0         
_________________________________________________________________
dropout_1400 (Dropout)       (None, 4096)              0         
_________________________________________________________________
dense_292 (Dense)            (None, 100)               409700    
=================================================================
Total params: 2,812,551
Trainable params: 2,808,327
Non-trainable params: 4,224
_________________________________________________________________
