Model: "sequential_291"
_________________________________________________________________
Layer (type)                 Output Shape              Param #   
=================================================================
separable_conv2d_2508 (Separ (None, 32, 32, 1024)      4123      
_________________________________________________________________
batch_normalization_1356 (Ba (None, 32, 32, 1024)      4096      
_________________________________________________________________
activation_2761 (Activation) (None, 32, 32, 1024)      0         
_________________________________________________________________
dropout_2761 (Dropout)       (None, 32, 32, 1024)      0         
_________________________________________________________________
separable_conv2d_2509 (Separ (None, 32, 32, 32)        42016     
_________________________________________________________________
activation_2762 (Activation) (None, 32, 32, 32)        0         
_________________________________________________________________
dropout_2762 (Dropout)       (None, 32, 32, 32)        0         
_________________________________________________________________
max_pooling2d_477 (MaxPoolin (None, 16, 16, 32)        0         
_________________________________________________________________
separable_conv2d_2510 (Separ (None, 16, 16, 512)       17184     
_________________________________________________________________
activation_2763 (Activation) (None, 16, 16, 512)       0         
_________________________________________________________________
dropout_2763 (Dropout)       (None, 16, 16, 512)       0         
_________________________________________________________________
separable_conv2d_2511 (Separ (None, 16, 16, 1024)      529920    
_________________________________________________________________
batch_normalization_1357 (Ba (None, 16, 16, 1024)      4096      
_________________________________________________________________
activation_2764 (Activation) (None, 16, 16, 1024)      0         
_________________________________________________________________
dropout_2764 (Dropout)       (None, 16, 16, 1024)      0         
_________________________________________________________________
separable_conv2d_2512 (Separ (None, 16, 16, 1024)      1058816   
_________________________________________________________________
batch_normalization_1358 (Ba (None, 16, 16, 1024)      4096      
_________________________________________________________________
activation_2765 (Activation) (None, 16, 16, 1024)      0         
_________________________________________________________________
dropout_2765 (Dropout)       (None, 16, 16, 1024)      0         
_________________________________________________________________
separable_conv2d_2513 (Separ (None, 16, 16, 16)        25616     
_________________________________________________________________
batch_normalization_1359 (Ba (None, 16, 16, 16)        64        
_________________________________________________________________
activation_2766 (Activation) (None, 16, 16, 16)        0         
_________________________________________________________________
dropout_2766 (Dropout)       (None, 16, 16, 16)        0         
_________________________________________________________________
separable_conv2d_2514 (Separ (None, 16, 16, 64)        1232      
_________________________________________________________________
activation_2767 (Activation) (None, 16, 16, 64)        0         
_________________________________________________________________
dropout_2767 (Dropout)       (None, 16, 16, 64)        0         
_________________________________________________________________
separable_conv2d_2515 (Separ (None, 16, 16, 16)        1616      
_________________________________________________________________
activation_2768 (Activation) (None, 16, 16, 16)        0         
_________________________________________________________________
dropout_2768 (Dropout)       (None, 16, 16, 16)        0         
_________________________________________________________________
flatten_291 (Flatten)        (None, 4096)              0         
_________________________________________________________________
dense_544 (Dense)            (None, 100)               409700    
=================================================================
Total params: 2,102,575
Trainable params: 2,096,399
Non-trainable params: 6,176
_________________________________________________________________
