Model: "sequential_357"
_________________________________________________________________
Layer (type)                 Output Shape              Param #   
=================================================================
separable_conv2d_3035 (Separ (None, 32, 32, 1024)      4123      
_________________________________________________________________
batch_normalization_1621 (Ba (None, 32, 32, 1024)      4096      
_________________________________________________________________
activation_3300 (Activation) (None, 32, 32, 1024)      0         
_________________________________________________________________
dropout_3300 (Dropout)       (None, 32, 32, 1024)      0         
_________________________________________________________________
separable_conv2d_3036 (Separ (None, 32, 32, 32)        42016     
_________________________________________________________________
activation_3301 (Activation) (None, 32, 32, 32)        0         
_________________________________________________________________
dropout_3301 (Dropout)       (None, 32, 32, 32)        0         
_________________________________________________________________
max_pooling2d_553 (MaxPoolin (None, 16, 16, 32)        0         
_________________________________________________________________
separable_conv2d_3037 (Separ (None, 16, 16, 512)       17184     
_________________________________________________________________
activation_3302 (Activation) (None, 16, 16, 512)       0         
_________________________________________________________________
dropout_3302 (Dropout)       (None, 16, 16, 512)       0         
_________________________________________________________________
separable_conv2d_3038 (Separ (None, 16, 16, 1024)      529920    
_________________________________________________________________
batch_normalization_1622 (Ba (None, 16, 16, 1024)      4096      
_________________________________________________________________
activation_3303 (Activation) (None, 16, 16, 1024)      0         
_________________________________________________________________
dropout_3303 (Dropout)       (None, 16, 16, 1024)      0         
_________________________________________________________________
separable_conv2d_3039 (Separ (None, 16, 16, 1024)      1058816   
_________________________________________________________________
batch_normalization_1623 (Ba (None, 16, 16, 1024)      4096      
_________________________________________________________________
activation_3304 (Activation) (None, 16, 16, 1024)      0         
_________________________________________________________________
dropout_3304 (Dropout)       (None, 16, 16, 1024)      0         
_________________________________________________________________
separable_conv2d_3040 (Separ (None, 16, 16, 16)        25616     
_________________________________________________________________
batch_normalization_1624 (Ba (None, 16, 16, 16)        64        
_________________________________________________________________
activation_3305 (Activation) (None, 16, 16, 16)        0         
_________________________________________________________________
dropout_3305 (Dropout)       (None, 16, 16, 16)        0         
_________________________________________________________________
separable_conv2d_3041 (Separ (None, 16, 16, 64)        1232      
_________________________________________________________________
activation_3306 (Activation) (None, 16, 16, 64)        0         
_________________________________________________________________
dropout_3306 (Dropout)       (None, 16, 16, 64)        0         
_________________________________________________________________
separable_conv2d_3042 (Separ (None, 16, 16, 16)        1616      
_________________________________________________________________
activation_3307 (Activation) (None, 16, 16, 16)        0         
_________________________________________________________________
dropout_3307 (Dropout)       (None, 16, 16, 16)        0         
_________________________________________________________________
flatten_357 (Flatten)        (None, 4096)              0         
_________________________________________________________________
dense_622 (Dense)            (None, 100)               409700    
=================================================================
Total params: 2,102,575
Trainable params: 2,096,399
Non-trainable params: 6,176
_________________________________________________________________
