Model: "sequential_159"
_________________________________________________________________
Layer (type)                 Output Shape              Param #   
=================================================================
separable_conv2d_1455 (Separ (None, 32, 32, 1024)      4123      
_________________________________________________________________
batch_normalization_818 (Bat (None, 32, 32, 1024)      4096      
_________________________________________________________________
activation_1640 (Activation) (None, 32, 32, 1024)      0         
_________________________________________________________________
dropout_1640 (Dropout)       (None, 32, 32, 1024)      0         
_________________________________________________________________
separable_conv2d_1456 (Separ (None, 32, 32, 32)        42016     
_________________________________________________________________
activation_1641 (Activation) (None, 32, 32, 32)        0         
_________________________________________________________________
dropout_1641 (Dropout)       (None, 32, 32, 32)        0         
_________________________________________________________________
max_pooling2d_332 (MaxPoolin (None, 16, 16, 32)        0         
_________________________________________________________________
separable_conv2d_1457 (Separ (None, 16, 16, 512)       17184     
_________________________________________________________________
activation_1642 (Activation) (None, 16, 16, 512)       0         
_________________________________________________________________
dropout_1642 (Dropout)       (None, 16, 16, 512)       0         
_________________________________________________________________
separable_conv2d_1458 (Separ (None, 16, 16, 1024)      529920    
_________________________________________________________________
batch_normalization_819 (Bat (None, 16, 16, 1024)      4096      
_________________________________________________________________
activation_1643 (Activation) (None, 16, 16, 1024)      0         
_________________________________________________________________
dropout_1643 (Dropout)       (None, 16, 16, 1024)      0         
_________________________________________________________________
separable_conv2d_1459 (Separ (None, 16, 16, 1024)      1058816   
_________________________________________________________________
batch_normalization_820 (Bat (None, 16, 16, 1024)      4096      
_________________________________________________________________
activation_1644 (Activation) (None, 16, 16, 1024)      0         
_________________________________________________________________
dropout_1644 (Dropout)       (None, 16, 16, 1024)      0         
_________________________________________________________________
separable_conv2d_1460 (Separ (None, 16, 16, 16)        25616     
_________________________________________________________________
batch_normalization_821 (Bat (None, 16, 16, 16)        64        
_________________________________________________________________
activation_1645 (Activation) (None, 16, 16, 16)        0         
_________________________________________________________________
dropout_1645 (Dropout)       (None, 16, 16, 16)        0         
_________________________________________________________________
separable_conv2d_1461 (Separ (None, 16, 16, 64)        1232      
_________________________________________________________________
activation_1646 (Activation) (None, 16, 16, 64)        0         
_________________________________________________________________
dropout_1646 (Dropout)       (None, 16, 16, 64)        0         
_________________________________________________________________
separable_conv2d_1462 (Separ (None, 16, 16, 16)        1616      
_________________________________________________________________
activation_1647 (Activation) (None, 16, 16, 16)        0         
_________________________________________________________________
dropout_1647 (Dropout)       (None, 16, 16, 16)        0         
_________________________________________________________________
flatten_159 (Flatten)        (None, 4096)              0         
_________________________________________________________________
dense_344 (Dense)            (None, 100)               409700    
=================================================================
Total params: 2,102,575
Trainable params: 2,096,399
Non-trainable params: 6,176
_________________________________________________________________
