Model: "sequential_95"
_________________________________________________________________
Layer (type)                 Output Shape              Param #   
=================================================================
separable_conv2d_917 (Separa (None, 32, 32, 1024)      4123      
_________________________________________________________________
batch_normalization_516 (Bat (None, 32, 32, 1024)      4096      
_________________________________________________________________
activation_1039 (Activation) (None, 32, 32, 1024)      0         
_________________________________________________________________
dropout_1039 (Dropout)       (None, 32, 32, 1024)      0         
_________________________________________________________________
max_pooling2d_207 (MaxPoolin (None, 16, 16, 1024)      0         
_________________________________________________________________
separable_conv2d_918 (Separa (None, 16, 16, 32)        42016     
_________________________________________________________________
activation_1040 (Activation) (None, 16, 16, 32)        0         
_________________________________________________________________
dropout_1040 (Dropout)       (None, 16, 16, 32)        0         
_________________________________________________________________
max_pooling2d_208 (MaxPoolin (None, 8, 8, 32)          0         
_________________________________________________________________
separable_conv2d_919 (Separa (None, 8, 8, 512)         17184     
_________________________________________________________________
activation_1041 (Activation) (None, 8, 8, 512)         0         
_________________________________________________________________
dropout_1041 (Dropout)       (None, 8, 8, 512)         0         
_________________________________________________________________
separable_conv2d_920 (Separa (None, 8, 8, 8)           8712      
_________________________________________________________________
batch_normalization_517 (Bat (None, 8, 8, 8)           32        
_________________________________________________________________
activation_1042 (Activation) (None, 8, 8, 8)           0         
_________________________________________________________________
dropout_1042 (Dropout)       (None, 8, 8, 8)           0         
_________________________________________________________________
separable_conv2d_921 (Separa (None, 8, 8, 1024)        9288      
_________________________________________________________________
batch_normalization_518 (Bat (None, 8, 8, 1024)        4096      
_________________________________________________________________
activation_1043 (Activation) (None, 8, 8, 1024)        0         
_________________________________________________________________
dropout_1043 (Dropout)       (None, 8, 8, 1024)        0         
_________________________________________________________________
separable_conv2d_922 (Separa (None, 8, 8, 16)          25616     
_________________________________________________________________
batch_normalization_519 (Bat (None, 8, 8, 16)          64        
_________________________________________________________________
activation_1044 (Activation) (None, 8, 8, 16)          0         
_________________________________________________________________
dropout_1044 (Dropout)       (None, 8, 8, 16)          0         
_________________________________________________________________
separable_conv2d_923 (Separa (None, 8, 8, 16)          416       
_________________________________________________________________
batch_normalization_520 (Bat (None, 8, 8, 16)          64        
_________________________________________________________________
activation_1045 (Activation) (None, 8, 8, 16)          0         
_________________________________________________________________
dropout_1045 (Dropout)       (None, 8, 8, 16)          0         
_________________________________________________________________
separable_conv2d_924 (Separa (None, 8, 8, 512)         8848      
_________________________________________________________________
activation_1046 (Activation) (None, 8, 8, 512)         0         
_________________________________________________________________
dropout_1046 (Dropout)       (None, 8, 8, 512)         0         
_________________________________________________________________
separable_conv2d_925 (Separa (None, 8, 8, 64)          37440     
_________________________________________________________________
activation_1047 (Activation) (None, 8, 8, 64)          0         
_________________________________________________________________
dropout_1047 (Dropout)       (None, 8, 8, 64)          0         
_________________________________________________________________
separable_conv2d_926 (Separa (None, 8, 8, 8)           1096      
_________________________________________________________________
activation_1048 (Activation) (None, 8, 8, 8)           0         
_________________________________________________________________
dropout_1048 (Dropout)       (None, 8, 8, 8)           0         
_________________________________________________________________
flatten_95 (Flatten)         (None, 512)               0         
_________________________________________________________________
dense_217 (Dense)            (None, 4096)              2101248   
_________________________________________________________________
activation_1049 (Activation) (None, 4096)              0         
_________________________________________________________________
dropout_1049 (Dropout)       (None, 4096)              0         
_________________________________________________________________
dense_218 (Dense)            (None, 100)               409700    
=================================================================
Total params: 2,674,039
Trainable params: 2,669,863
Non-trainable params: 4,176
_________________________________________________________________
