Model: "sequential_115"
_________________________________________________________________
Layer (type)                 Output Shape              Param #   
=================================================================
separable_conv2d_1090 (Separ (None, 32, 32, 1024)      4123      
_________________________________________________________________
batch_normalization_613 (Bat (None, 32, 32, 1024)      4096      
_________________________________________________________________
activation_1232 (Activation) (None, 32, 32, 1024)      0         
_________________________________________________________________
dropout_1232 (Dropout)       (None, 32, 32, 1024)      0         
_________________________________________________________________
max_pooling2d_247 (MaxPoolin (None, 16, 16, 1024)      0         
_________________________________________________________________
separable_conv2d_1091 (Separ (None, 16, 16, 32)        42016     
_________________________________________________________________
activation_1233 (Activation) (None, 16, 16, 32)        0         
_________________________________________________________________
dropout_1233 (Dropout)       (None, 16, 16, 32)        0         
_________________________________________________________________
max_pooling2d_248 (MaxPoolin (None, 8, 8, 32)          0         
_________________________________________________________________
separable_conv2d_1092 (Separ (None, 8, 8, 512)         17184     
_________________________________________________________________
activation_1234 (Activation) (None, 8, 8, 512)         0         
_________________________________________________________________
dropout_1234 (Dropout)       (None, 8, 8, 512)         0         
_________________________________________________________________
separable_conv2d_1093 (Separ (None, 8, 8, 1024)        529920    
_________________________________________________________________
batch_normalization_614 (Bat (None, 8, 8, 1024)        4096      
_________________________________________________________________
activation_1235 (Activation) (None, 8, 8, 1024)        0         
_________________________________________________________________
dropout_1235 (Dropout)       (None, 8, 8, 1024)        0         
_________________________________________________________________
separable_conv2d_1094 (Separ (None, 8, 8, 1024)        1058816   
_________________________________________________________________
activation_1236 (Activation) (None, 8, 8, 1024)        0         
_________________________________________________________________
dropout_1236 (Dropout)       (None, 8, 8, 1024)        0         
_________________________________________________________________
separable_conv2d_1095 (Separ (None, 8, 8, 16)          25616     
_________________________________________________________________
batch_normalization_615 (Bat (None, 8, 8, 16)          64        
_________________________________________________________________
activation_1237 (Activation) (None, 8, 8, 16)          0         
_________________________________________________________________
dropout_1237 (Dropout)       (None, 8, 8, 16)          0         
_________________________________________________________________
separable_conv2d_1096 (Separ (None, 8, 8, 16)          416       
_________________________________________________________________
batch_normalization_616 (Bat (None, 8, 8, 16)          64        
_________________________________________________________________
activation_1238 (Activation) (None, 8, 8, 16)          0         
_________________________________________________________________
dropout_1238 (Dropout)       (None, 8, 8, 16)          0         
_________________________________________________________________
separable_conv2d_1097 (Separ (None, 8, 8, 512)         8848      
_________________________________________________________________
activation_1239 (Activation) (None, 8, 8, 512)         0         
_________________________________________________________________
dropout_1239 (Dropout)       (None, 8, 8, 512)         0         
_________________________________________________________________
separable_conv2d_1098 (Separ (None, 8, 8, 64)          37440     
_________________________________________________________________
activation_1240 (Activation) (None, 8, 8, 64)          0         
_________________________________________________________________
dropout_1240 (Dropout)       (None, 8, 8, 64)          0         
_________________________________________________________________
separable_conv2d_1099 (Separ (None, 8, 8, 8)           1096      
_________________________________________________________________
activation_1241 (Activation) (None, 8, 8, 8)           0         
_________________________________________________________________
dropout_1241 (Dropout)       (None, 8, 8, 8)           0         
_________________________________________________________________
flatten_115 (Flatten)        (None, 512)               0         
_________________________________________________________________
dense_257 (Dense)            (None, 4096)              2101248   
_________________________________________________________________
activation_1242 (Activation) (None, 4096)              0         
_________________________________________________________________
dropout_1242 (Dropout)       (None, 4096)              0         
_________________________________________________________________
dense_258 (Dense)            (None, 100)               409700    
=================================================================
Total params: 4,244,743
Trainable params: 4,240,583
Non-trainable params: 4,160
_________________________________________________________________
