Model: "sequential_339"
_________________________________________________________________
Layer (type)                 Output Shape              Param #   
=================================================================
separable_conv2d_2893 (Separ (None, 32, 32, 1024)      4123      
_________________________________________________________________
batch_normalization_1546 (Ba (None, 32, 32, 1024)      4096      
_________________________________________________________________
activation_3155 (Activation) (None, 32, 32, 1024)      0         
_________________________________________________________________
dropout_3155 (Dropout)       (None, 32, 32, 1024)      0         
_________________________________________________________________
separable_conv2d_2894 (Separ (None, 32, 32, 32)        42016     
_________________________________________________________________
activation_3156 (Activation) (None, 32, 32, 32)        0         
_________________________________________________________________
dropout_3156 (Dropout)       (None, 32, 32, 32)        0         
_________________________________________________________________
max_pooling2d_532 (MaxPoolin (None, 16, 16, 32)        0         
_________________________________________________________________
separable_conv2d_2895 (Separ (None, 16, 16, 512)       17184     
_________________________________________________________________
activation_3157 (Activation) (None, 16, 16, 512)       0         
_________________________________________________________________
dropout_3157 (Dropout)       (None, 16, 16, 512)       0         
_________________________________________________________________
max_pooling2d_533 (MaxPoolin (None, 8, 8, 512)         0         
_________________________________________________________________
separable_conv2d_2896 (Separ (None, 8, 8, 1024)        529920    
_________________________________________________________________
batch_normalization_1547 (Ba (None, 8, 8, 1024)        4096      
_________________________________________________________________
activation_3158 (Activation) (None, 8, 8, 1024)        0         
_________________________________________________________________
dropout_3158 (Dropout)       (None, 8, 8, 1024)        0         
_________________________________________________________________
separable_conv2d_2897 (Separ (None, 8, 8, 1024)        1058816   
_________________________________________________________________
batch_normalization_1548 (Ba (None, 8, 8, 1024)        4096      
_________________________________________________________________
activation_3159 (Activation) (None, 8, 8, 1024)        0         
_________________________________________________________________
dropout_3159 (Dropout)       (None, 8, 8, 1024)        0         
_________________________________________________________________
separable_conv2d_2898 (Separ (None, 8, 8, 16)          25616     
_________________________________________________________________
batch_normalization_1549 (Ba (None, 8, 8, 16)          64        
_________________________________________________________________
activation_3160 (Activation) (None, 8, 8, 16)          0         
_________________________________________________________________
dropout_3160 (Dropout)       (None, 8, 8, 16)          0         
_________________________________________________________________
separable_conv2d_2899 (Separ (None, 8, 8, 64)          1232      
_________________________________________________________________
activation_3161 (Activation) (None, 8, 8, 64)          0         
_________________________________________________________________
dropout_3161 (Dropout)       (None, 8, 8, 64)          0         
_________________________________________________________________
separable_conv2d_2900 (Separ (None, 8, 8, 16)          1616      
_________________________________________________________________
activation_3162 (Activation) (None, 8, 8, 16)          0         
_________________________________________________________________
dropout_3162 (Dropout)       (None, 8, 8, 16)          0         
_________________________________________________________________
flatten_339 (Flatten)        (None, 1024)              0         
_________________________________________________________________
dense_601 (Dense)            (None, 100)               102500    
=================================================================
Total params: 1,795,375
Trainable params: 1,789,199
Non-trainable params: 6,176
_________________________________________________________________
