Model: "sequential_340"
_________________________________________________________________
Layer (type)                 Output Shape              Param #   
=================================================================
separable_conv2d_2901 (Separ (None, 32, 32, 1024)      4123      
_________________________________________________________________
batch_normalization_1550 (Ba (None, 32, 32, 1024)      4096      
_________________________________________________________________
activation_3163 (Activation) (None, 32, 32, 1024)      0         
_________________________________________________________________
dropout_3163 (Dropout)       (None, 32, 32, 1024)      0         
_________________________________________________________________
separable_conv2d_2902 (Separ (None, 32, 32, 32)        42016     
_________________________________________________________________
activation_3164 (Activation) (None, 32, 32, 32)        0         
_________________________________________________________________
dropout_3164 (Dropout)       (None, 32, 32, 32)        0         
_________________________________________________________________
max_pooling2d_534 (MaxPoolin (None, 16, 16, 32)        0         
_________________________________________________________________
separable_conv2d_2903 (Separ (None, 16, 16, 512)       17184     
_________________________________________________________________
activation_3165 (Activation) (None, 16, 16, 512)       0         
_________________________________________________________________
dropout_3165 (Dropout)       (None, 16, 16, 512)       0         
_________________________________________________________________
separable_conv2d_2904 (Separ (None, 16, 16, 1024)      529920    
_________________________________________________________________
batch_normalization_1551 (Ba (None, 16, 16, 1024)      4096      
_________________________________________________________________
activation_3166 (Activation) (None, 16, 16, 1024)      0         
_________________________________________________________________
dropout_3166 (Dropout)       (None, 16, 16, 1024)      0         
_________________________________________________________________
separable_conv2d_2905 (Separ (None, 16, 16, 16)        25616     
_________________________________________________________________
batch_normalization_1552 (Ba (None, 16, 16, 16)        64        
_________________________________________________________________
activation_3167 (Activation) (None, 16, 16, 16)        0         
_________________________________________________________________
dropout_3167 (Dropout)       (None, 16, 16, 16)        0         
_________________________________________________________________
separable_conv2d_2906 (Separ (None, 16, 16, 64)        1232      
_________________________________________________________________
activation_3168 (Activation) (None, 16, 16, 64)        0         
_________________________________________________________________
dropout_3168 (Dropout)       (None, 16, 16, 64)        0         
_________________________________________________________________
separable_conv2d_2907 (Separ (None, 16, 16, 16)        1616      
_________________________________________________________________
activation_3169 (Activation) (None, 16, 16, 16)        0         
_________________________________________________________________
dropout_3169 (Dropout)       (None, 16, 16, 16)        0         
_________________________________________________________________
flatten_340 (Flatten)        (None, 4096)              0         
_________________________________________________________________
dense_602 (Dense)            (None, 100)               409700    
=================================================================
Total params: 1,039,663
Trainable params: 1,035,535
Non-trainable params: 4,128
_________________________________________________________________
