Model: "sequential_215"
_________________________________________________________________
Layer (type)                 Output Shape              Param #   
=================================================================
separable_conv2d_1902 (Separ (None, 32, 32, 1024)      4123      
_________________________________________________________________
batch_normalization_1055 (Ba (None, 32, 32, 1024)      4096      
_________________________________________________________________
activation_2130 (Activation) (None, 32, 32, 1024)      0         
_________________________________________________________________
dropout_2130 (Dropout)       (None, 32, 32, 1024)      0         
_________________________________________________________________
separable_conv2d_1903 (Separ (None, 32, 32, 32)        42016     
_________________________________________________________________
activation_2131 (Activation) (None, 32, 32, 32)        0         
_________________________________________________________________
dropout_2131 (Dropout)       (None, 32, 32, 32)        0         
_________________________________________________________________
max_pooling2d_399 (MaxPoolin (None, 16, 16, 32)        0         
_________________________________________________________________
separable_conv2d_1904 (Separ (None, 16, 16, 512)       17184     
_________________________________________________________________
activation_2132 (Activation) (None, 16, 16, 512)       0         
_________________________________________________________________
dropout_2132 (Dropout)       (None, 16, 16, 512)       0         
_________________________________________________________________
separable_conv2d_1905 (Separ (None, 16, 16, 1024)      529920    
_________________________________________________________________
batch_normalization_1056 (Ba (None, 16, 16, 1024)      4096      
_________________________________________________________________
activation_2133 (Activation) (None, 16, 16, 1024)      0         
_________________________________________________________________
dropout_2133 (Dropout)       (None, 16, 16, 1024)      0         
_________________________________________________________________
separable_conv2d_1906 (Separ (None, 16, 16, 1024)      1058816   
_________________________________________________________________
batch_normalization_1057 (Ba (None, 16, 16, 1024)      4096      
_________________________________________________________________
activation_2134 (Activation) (None, 16, 16, 1024)      0         
_________________________________________________________________
dropout_2134 (Dropout)       (None, 16, 16, 1024)      0         
_________________________________________________________________
separable_conv2d_1907 (Separ (None, 16, 16, 16)        25616     
_________________________________________________________________
batch_normalization_1058 (Ba (None, 16, 16, 16)        64        
_________________________________________________________________
activation_2135 (Activation) (None, 16, 16, 16)        0         
_________________________________________________________________
dropout_2135 (Dropout)       (None, 16, 16, 16)        0         
_________________________________________________________________
separable_conv2d_1908 (Separ (None, 16, 16, 16)        416       
_________________________________________________________________
batch_normalization_1059 (Ba (None, 16, 16, 16)        64        
_________________________________________________________________
activation_2136 (Activation) (None, 16, 16, 16)        0         
_________________________________________________________________
dropout_2136 (Dropout)       (None, 16, 16, 16)        0         
_________________________________________________________________
separable_conv2d_1909 (Separ (None, 16, 16, 8)         280       
_________________________________________________________________
activation_2137 (Activation) (None, 16, 16, 8)         0         
_________________________________________________________________
dropout_2137 (Dropout)       (None, 16, 16, 8)         0         
_________________________________________________________________
flatten_215 (Flatten)        (None, 2048)              0         
_________________________________________________________________
dense_443 (Dense)            (None, 4096)              8392704   
_________________________________________________________________
activation_2138 (Activation) (None, 4096)              0         
_________________________________________________________________
dropout_2138 (Dropout)       (None, 4096)              0         
_________________________________________________________________
dense_444 (Dense)            (None, 100)               409700    
=================================================================
Total params: 10,493,191
Trainable params: 10,486,983
Non-trainable params: 6,208
_________________________________________________________________
