Model: "sequential_59"
_________________________________________________________________
Layer (type)                 Output Shape              Param #   
=================================================================
separable_conv2d_584 (Separa (None, 32, 32, 128)       539       
_________________________________________________________________
batch_normalization_331 (Bat (None, 32, 32, 128)       512       
_________________________________________________________________
activation_667 (Activation)  (None, 32, 32, 128)       0         
_________________________________________________________________
dropout_667 (Dropout)        (None, 32, 32, 128)       0         
_________________________________________________________________
separable_conv2d_585 (Separa (None, 32, 32, 128)       17664     
_________________________________________________________________
activation_668 (Activation)  (None, 32, 32, 128)       0         
_________________________________________________________________
dropout_668 (Dropout)        (None, 32, 32, 128)       0         
_________________________________________________________________
separable_conv2d_586 (Separa (None, 32, 32, 8)         2184      
_________________________________________________________________
batch_normalization_332 (Bat (None, 32, 32, 8)         32        
_________________________________________________________________
activation_669 (Activation)  (None, 32, 32, 8)         0         
_________________________________________________________________
dropout_669 (Dropout)        (None, 32, 32, 8)         0         
_________________________________________________________________
separable_conv2d_587 (Separa (None, 32, 32, 512)       4680      
_________________________________________________________________
batch_normalization_333 (Bat (None, 32, 32, 512)       2048      
_________________________________________________________________
activation_670 (Activation)  (None, 32, 32, 512)       0         
_________________________________________________________________
dropout_670 (Dropout)        (None, 32, 32, 512)       0         
_________________________________________________________________
separable_conv2d_588 (Separa (None, 32, 32, 128)       70272     
_________________________________________________________________
activation_671 (Activation)  (None, 32, 32, 128)       0         
_________________________________________________________________
dropout_671 (Dropout)        (None, 32, 32, 128)       0         
_________________________________________________________________
max_pooling2d_134 (MaxPoolin (None, 16, 16, 128)       0         
_________________________________________________________________
separable_conv2d_589 (Separa (None, 16, 16, 32)        5280      
_________________________________________________________________
activation_672 (Activation)  (None, 16, 16, 32)        0         
_________________________________________________________________
dropout_672 (Dropout)        (None, 16, 16, 32)        0         
_________________________________________________________________
separable_conv2d_590 (Separa (None, 16, 16, 64)        2400      
_________________________________________________________________
batch_normalization_334 (Bat (None, 16, 16, 64)        256       
_________________________________________________________________
activation_673 (Activation)  (None, 16, 16, 64)        0         
_________________________________________________________________
dropout_673 (Dropout)        (None, 16, 16, 64)        0         
_________________________________________________________________
flatten_59 (Flatten)         (None, 16384)             0         
_________________________________________________________________
dense_142 (Dense)            (None, 16)                262160    
_________________________________________________________________
activation_674 (Activation)  (None, 16)                0         
_________________________________________________________________
dropout_674 (Dropout)        (None, 16)                0         
_________________________________________________________________
dense_143 (Dense)            (None, 256)               4352      
_________________________________________________________________
activation_675 (Activation)  (None, 256)               0         
_________________________________________________________________
dropout_675 (Dropout)        (None, 256)               0         
_________________________________________________________________
dense_144 (Dense)            (None, 100)               25700     
=================================================================
Total params: 398,079
Trainable params: 396,655
Non-trainable params: 1,424
_________________________________________________________________
