Model: "sequential_6"
_________________________________________________________________
Layer (type)                 Output Shape              Param #   
=================================================================
separable_conv2d_63 (Separab (None, 32, 32, 512)       2075      
_________________________________________________________________
activation_73 (Activation)   (None, 32, 32, 512)       0         
_________________________________________________________________
dropout_73 (Dropout)         (None, 32, 32, 512)       0         
_________________________________________________________________
max_pooling2d_16 (MaxPooling (None, 16, 16, 512)       0         
_________________________________________________________________
separable_conv2d_64 (Separab (None, 16, 16, 8)         8712      
_________________________________________________________________
batch_normalization_30 (Batc (None, 16, 16, 8)         32        
_________________________________________________________________
activation_74 (Activation)   (None, 16, 16, 8)         0         
_________________________________________________________________
dropout_74 (Dropout)         (None, 16, 16, 8)         0         
_________________________________________________________________
max_pooling2d_17 (MaxPooling (None, 8, 8, 8)           0         
_________________________________________________________________
separable_conv2d_65 (Separab (None, 8, 8, 256)         2376      
_________________________________________________________________
batch_normalization_31 (Batc (None, 8, 8, 256)         1024      
_________________________________________________________________
activation_75 (Activation)   (None, 8, 8, 256)         0         
_________________________________________________________________
dropout_75 (Dropout)         (None, 8, 8, 256)         0         
_________________________________________________________________
separable_conv2d_66 (Separab (None, 8, 8, 64)          18752     
_________________________________________________________________
activation_76 (Activation)   (None, 8, 8, 64)          0         
_________________________________________________________________
dropout_76 (Dropout)         (None, 8, 8, 64)          0         
_________________________________________________________________
separable_conv2d_67 (Separab (None, 8, 8, 1024)        67136     
_________________________________________________________________
batch_normalization_32 (Batc (None, 8, 8, 1024)        4096      
_________________________________________________________________
activation_77 (Activation)   (None, 8, 8, 1024)        0         
_________________________________________________________________
dropout_77 (Dropout)         (None, 8, 8, 1024)        0         
_________________________________________________________________
max_pooling2d_18 (MaxPooling (None, 4, 4, 1024)        0         
_________________________________________________________________
separable_conv2d_68 (Separab (None, 4, 4, 128)         140416    
_________________________________________________________________
activation_78 (Activation)   (None, 4, 4, 128)         0         
_________________________________________________________________
dropout_78 (Dropout)         (None, 4, 4, 128)         0         
_________________________________________________________________
separable_conv2d_69 (Separab (None, 4, 4, 512)         67200     
_________________________________________________________________
batch_normalization_33 (Batc (None, 4, 4, 512)         2048      
_________________________________________________________________
activation_79 (Activation)   (None, 4, 4, 512)         0         
_________________________________________________________________
dropout_79 (Dropout)         (None, 4, 4, 512)         0         
_________________________________________________________________
separable_conv2d_70 (Separab (None, 4, 4, 16)          12816     
_________________________________________________________________
batch_normalization_34 (Batc (None, 4, 4, 16)          64        
_________________________________________________________________
activation_80 (Activation)   (None, 4, 4, 16)          0         
_________________________________________________________________
dropout_80 (Dropout)         (None, 4, 4, 16)          0         
_________________________________________________________________
separable_conv2d_71 (Separab (None, 4, 4, 64)          1232      
_________________________________________________________________
activation_81 (Activation)   (None, 4, 4, 64)          0         
_________________________________________________________________
dropout_81 (Dropout)         (None, 4, 4, 64)          0         
_________________________________________________________________
separable_conv2d_72 (Separab (None, 4, 4, 64)          4736      
_________________________________________________________________
activation_82 (Activation)   (None, 4, 4, 64)          0         
_________________________________________________________________
dropout_82 (Dropout)         (None, 4, 4, 64)          0         
_________________________________________________________________
flatten_6 (Flatten)          (None, 1024)              0         
_________________________________________________________________
dense_16 (Dense)             (None, 4096)              4198400   
_________________________________________________________________
batch_normalization_35 (Batc (None, 4096)              16384     
_________________________________________________________________
activation_83 (Activation)   (None, 4096)              0         
_________________________________________________________________
dropout_83 (Dropout)         (None, 4096)              0         
_________________________________________________________________
dense_17 (Dense)             (None, 1024)              4195328   
_________________________________________________________________
activation_84 (Activation)   (None, 1024)              0         
_________________________________________________________________
dropout_84 (Dropout)         (None, 1024)              0         
_________________________________________________________________
dense_18 (Dense)             (None, 100)               102500    
=================================================================
Total params: 8,845,327
Trainable params: 8,833,503
Non-trainable params: 11,824
_________________________________________________________________
