Model: "sequential_70"
_________________________________________________________________
Layer (type)                 Output Shape              Param #   
=================================================================
separable_conv2d_685 (Separa (None, 32, 32, 1024)      4123      
_________________________________________________________________
batch_normalization_385 (Bat (None, 32, 32, 1024)      4096      
_________________________________________________________________
activation_781 (Activation)  (None, 32, 32, 1024)      0         
_________________________________________________________________
dropout_781 (Dropout)        (None, 32, 32, 1024)      0         
_________________________________________________________________
max_pooling2d_155 (MaxPoolin (None, 16, 16, 1024)      0         
_________________________________________________________________
separable_conv2d_686 (Separa (None, 16, 16, 32)        42016     
_________________________________________________________________
activation_782 (Activation)  (None, 16, 16, 32)        0         
_________________________________________________________________
dropout_782 (Dropout)        (None, 16, 16, 32)        0         
_________________________________________________________________
max_pooling2d_156 (MaxPoolin (None, 8, 8, 32)          0         
_________________________________________________________________
separable_conv2d_687 (Separa (None, 8, 8, 512)         17184     
_________________________________________________________________
activation_783 (Activation)  (None, 8, 8, 512)         0         
_________________________________________________________________
dropout_783 (Dropout)        (None, 8, 8, 512)         0         
_________________________________________________________________
separable_conv2d_688 (Separa (None, 8, 8, 1024)        529920    
_________________________________________________________________
batch_normalization_386 (Bat (None, 8, 8, 1024)        4096      
_________________________________________________________________
activation_784 (Activation)  (None, 8, 8, 1024)        0         
_________________________________________________________________
dropout_784 (Dropout)        (None, 8, 8, 1024)        0         
_________________________________________________________________
separable_conv2d_689 (Separa (None, 8, 8, 1024)        1058816   
_________________________________________________________________
batch_normalization_387 (Bat (None, 8, 8, 1024)        4096      
_________________________________________________________________
activation_785 (Activation)  (None, 8, 8, 1024)        0         
_________________________________________________________________
dropout_785 (Dropout)        (None, 8, 8, 1024)        0         
_________________________________________________________________
separable_conv2d_690 (Separa (None, 8, 8, 16)          25616     
_________________________________________________________________
batch_normalization_388 (Bat (None, 8, 8, 16)          64        
_________________________________________________________________
activation_786 (Activation)  (None, 8, 8, 16)          0         
_________________________________________________________________
dropout_786 (Dropout)        (None, 8, 8, 16)          0         
_________________________________________________________________
separable_conv2d_691 (Separa (None, 8, 8, 16)          416       
_________________________________________________________________
batch_normalization_389 (Bat (None, 8, 8, 16)          64        
_________________________________________________________________
activation_787 (Activation)  (None, 8, 8, 16)          0         
_________________________________________________________________
dropout_787 (Dropout)        (None, 8, 8, 16)          0         
_________________________________________________________________
separable_conv2d_692 (Separa (None, 8, 8, 512)         8848      
_________________________________________________________________
activation_788 (Activation)  (None, 8, 8, 512)         0         
_________________________________________________________________
dropout_788 (Dropout)        (None, 8, 8, 512)         0         
_________________________________________________________________
separable_conv2d_693 (Separa (None, 8, 8, 64)          37440     
_________________________________________________________________
activation_789 (Activation)  (None, 8, 8, 64)          0         
_________________________________________________________________
dropout_789 (Dropout)        (None, 8, 8, 64)          0         
_________________________________________________________________
separable_conv2d_694 (Separa (None, 8, 8, 8)           1096      
_________________________________________________________________
activation_790 (Activation)  (None, 8, 8, 8)           0         
_________________________________________________________________
dropout_790 (Dropout)        (None, 8, 8, 8)           0         
_________________________________________________________________
flatten_70 (Flatten)         (None, 512)               0         
_________________________________________________________________
dense_166 (Dense)            (None, 4096)              2101248   
_________________________________________________________________
activation_791 (Activation)  (None, 4096)              0         
_________________________________________________________________
dropout_791 (Dropout)        (None, 4096)              0         
_________________________________________________________________
dense_167 (Dense)            (None, 100)               409700    
=================================================================
Total params: 4,248,839
Trainable params: 4,242,631
Non-trainable params: 6,208
_________________________________________________________________
