Model: "sequential_17"
_________________________________________________________________
Layer (type)                 Output Shape              Param #   
=================================================================
separable_conv2d_167 (Separa (None, 32, 32, 1024)      4123      
_________________________________________________________________
batch_normalization_87 (Batc (None, 32, 32, 1024)      4096      
_________________________________________________________________
activation_190 (Activation)  (None, 32, 32, 1024)      0         
_________________________________________________________________
dropout_190 (Dropout)        (None, 32, 32, 1024)      0         
_________________________________________________________________
max_pooling2d_40 (MaxPooling (None, 16, 16, 1024)      0         
_________________________________________________________________
separable_conv2d_168 (Separa (None, 16, 16, 32)        42016     
_________________________________________________________________
activation_191 (Activation)  (None, 16, 16, 32)        0         
_________________________________________________________________
dropout_191 (Dropout)        (None, 16, 16, 32)        0         
_________________________________________________________________
max_pooling2d_41 (MaxPooling (None, 8, 8, 32)          0         
_________________________________________________________________
separable_conv2d_169 (Separa (None, 8, 8, 512)         17184     
_________________________________________________________________
activation_192 (Activation)  (None, 8, 8, 512)         0         
_________________________________________________________________
dropout_192 (Dropout)        (None, 8, 8, 512)         0         
_________________________________________________________________
separable_conv2d_170 (Separa (None, 8, 8, 1024)        529920    
_________________________________________________________________
batch_normalization_88 (Batc (None, 8, 8, 1024)        4096      
_________________________________________________________________
activation_193 (Activation)  (None, 8, 8, 1024)        0         
_________________________________________________________________
dropout_193 (Dropout)        (None, 8, 8, 1024)        0         
_________________________________________________________________
separable_conv2d_171 (Separa (None, 8, 8, 1024)        1058816   
_________________________________________________________________
batch_normalization_89 (Batc (None, 8, 8, 1024)        4096      
_________________________________________________________________
activation_194 (Activation)  (None, 8, 8, 1024)        0         
_________________________________________________________________
dropout_194 (Dropout)        (None, 8, 8, 1024)        0         
_________________________________________________________________
separable_conv2d_172 (Separa (None, 8, 8, 16)          25616     
_________________________________________________________________
batch_normalization_90 (Batc (None, 8, 8, 16)          64        
_________________________________________________________________
activation_195 (Activation)  (None, 8, 8, 16)          0         
_________________________________________________________________
dropout_195 (Dropout)        (None, 8, 8, 16)          0         
_________________________________________________________________
separable_conv2d_173 (Separa (None, 8, 8, 16)          416       
_________________________________________________________________
batch_normalization_91 (Batc (None, 8, 8, 16)          64        
_________________________________________________________________
activation_196 (Activation)  (None, 8, 8, 16)          0         
_________________________________________________________________
dropout_196 (Dropout)        (None, 8, 8, 16)          0         
_________________________________________________________________
separable_conv2d_174 (Separa (None, 8, 8, 512)         8848      
_________________________________________________________________
activation_197 (Activation)  (None, 8, 8, 512)         0         
_________________________________________________________________
dropout_197 (Dropout)        (None, 8, 8, 512)         0         
_________________________________________________________________
separable_conv2d_175 (Separa (None, 8, 8, 64)          37440     
_________________________________________________________________
activation_198 (Activation)  (None, 8, 8, 64)          0         
_________________________________________________________________
dropout_198 (Dropout)        (None, 8, 8, 64)          0         
_________________________________________________________________
separable_conv2d_176 (Separa (None, 8, 8, 8)           1096      
_________________________________________________________________
activation_199 (Activation)  (None, 8, 8, 8)           0         
_________________________________________________________________
dropout_199 (Dropout)        (None, 8, 8, 8)           0         
_________________________________________________________________
flatten_17 (Flatten)         (None, 512)               0         
_________________________________________________________________
dense_40 (Dense)             (None, 4096)              2101248   
_________________________________________________________________
activation_200 (Activation)  (None, 4096)              0         
_________________________________________________________________
dropout_200 (Dropout)        (None, 4096)              0         
_________________________________________________________________
dense_41 (Dense)             (None, 100)               409700    
=================================================================
Total params: 4,248,839
Trainable params: 4,242,631
Non-trainable params: 6,208
_________________________________________________________________
