Model: "sequential_359"
_________________________________________________________________
Layer (type)                 Output Shape              Param #   
=================================================================
separable_conv2d_3051 (Separ (None, 32, 32, 1024)      4123      
_________________________________________________________________
batch_normalization_1630 (Ba (None, 32, 32, 1024)      4096      
_________________________________________________________________
activation_3316 (Activation) (None, 32, 32, 1024)      0         
_________________________________________________________________
dropout_3316 (Dropout)       (None, 32, 32, 1024)      0         
_________________________________________________________________
separable_conv2d_3052 (Separ (None, 32, 32, 32)        42016     
_________________________________________________________________
batch_normalization_1631 (Ba (None, 32, 32, 32)        128       
_________________________________________________________________
activation_3317 (Activation) (None, 32, 32, 32)        0         
_________________________________________________________________
dropout_3317 (Dropout)       (None, 32, 32, 32)        0         
_________________________________________________________________
max_pooling2d_555 (MaxPoolin (None, 16, 16, 32)        0         
_________________________________________________________________
separable_conv2d_3053 (Separ (None, 16, 16, 512)       17184     
_________________________________________________________________
activation_3318 (Activation) (None, 16, 16, 512)       0         
_________________________________________________________________
dropout_3318 (Dropout)       (None, 16, 16, 512)       0         
_________________________________________________________________
separable_conv2d_3054 (Separ (None, 16, 16, 1024)      529920    
_________________________________________________________________
batch_normalization_1632 (Ba (None, 16, 16, 1024)      4096      
_________________________________________________________________
activation_3319 (Activation) (None, 16, 16, 1024)      0         
_________________________________________________________________
dropout_3319 (Dropout)       (None, 16, 16, 1024)      0         
_________________________________________________________________
separable_conv2d_3055 (Separ (None, 16, 16, 1024)      1058816   
_________________________________________________________________
batch_normalization_1633 (Ba (None, 16, 16, 1024)      4096      
_________________________________________________________________
activation_3320 (Activation) (None, 16, 16, 1024)      0         
_________________________________________________________________
dropout_3320 (Dropout)       (None, 16, 16, 1024)      0         
_________________________________________________________________
separable_conv2d_3056 (Separ (None, 16, 16, 16)        25616     
_________________________________________________________________
batch_normalization_1634 (Ba (None, 16, 16, 16)        64        
_________________________________________________________________
activation_3321 (Activation) (None, 16, 16, 16)        0         
_________________________________________________________________
dropout_3321 (Dropout)       (None, 16, 16, 16)        0         
_________________________________________________________________
separable_conv2d_3057 (Separ (None, 16, 16, 64)        1232      
_________________________________________________________________
activation_3322 (Activation) (None, 16, 16, 64)        0         
_________________________________________________________________
dropout_3322 (Dropout)       (None, 16, 16, 64)        0         
_________________________________________________________________
separable_conv2d_3058 (Separ (None, 16, 16, 16)        1616      
_________________________________________________________________
activation_3323 (Activation) (None, 16, 16, 16)        0         
_________________________________________________________________
dropout_3323 (Dropout)       (None, 16, 16, 16)        0         
_________________________________________________________________
flatten_359 (Flatten)        (None, 4096)              0         
_________________________________________________________________
dense_624 (Dense)            (None, 100)               409700    
=================================================================
Total params: 2,102,703
Trainable params: 2,096,463
Non-trainable params: 6,240
_________________________________________________________________
