Model: "sequential_105"
_________________________________________________________________
Layer (type)                 Output Shape              Param #   
=================================================================
separable_conv2d_1007 (Separ (None, 32, 32, 1024)      4123      
_________________________________________________________________
batch_normalization_564 (Bat (None, 32, 32, 1024)      4096      
_________________________________________________________________
activation_1139 (Activation) (None, 32, 32, 1024)      0         
_________________________________________________________________
dropout_1139 (Dropout)       (None, 32, 32, 1024)      0         
_________________________________________________________________
max_pooling2d_227 (MaxPoolin (None, 16, 16, 1024)      0         
_________________________________________________________________
separable_conv2d_1008 (Separ (None, 16, 16, 128)       140416    
_________________________________________________________________
activation_1140 (Activation) (None, 16, 16, 128)       0         
_________________________________________________________________
dropout_1140 (Dropout)       (None, 16, 16, 128)       0         
_________________________________________________________________
max_pooling2d_228 (MaxPoolin (None, 8, 8, 128)         0         
_________________________________________________________________
separable_conv2d_1009 (Separ (None, 8, 8, 512)         67200     
_________________________________________________________________
activation_1141 (Activation) (None, 8, 8, 512)         0         
_________________________________________________________________
dropout_1141 (Dropout)       (None, 8, 8, 512)         0         
_________________________________________________________________
separable_conv2d_1010 (Separ (None, 8, 8, 32)          21024     
_________________________________________________________________
batch_normalization_565 (Bat (None, 8, 8, 32)          128       
_________________________________________________________________
activation_1142 (Activation) (None, 8, 8, 32)          0         
_________________________________________________________________
dropout_1142 (Dropout)       (None, 8, 8, 32)          0         
_________________________________________________________________
separable_conv2d_1011 (Separ (None, 8, 8, 1024)        34080     
_________________________________________________________________
batch_normalization_566 (Bat (None, 8, 8, 1024)        4096      
_________________________________________________________________
activation_1143 (Activation) (None, 8, 8, 1024)        0         
_________________________________________________________________
dropout_1143 (Dropout)       (None, 8, 8, 1024)        0         
_________________________________________________________________
separable_conv2d_1012 (Separ (None, 8, 8, 16)          25616     
_________________________________________________________________
batch_normalization_567 (Bat (None, 8, 8, 16)          64        
_________________________________________________________________
activation_1144 (Activation) (None, 8, 8, 16)          0         
_________________________________________________________________
dropout_1144 (Dropout)       (None, 8, 8, 16)          0         
_________________________________________________________________
separable_conv2d_1013 (Separ (None, 8, 8, 16)          416       
_________________________________________________________________
batch_normalization_568 (Bat (None, 8, 8, 16)          64        
_________________________________________________________________
activation_1145 (Activation) (None, 8, 8, 16)          0         
_________________________________________________________________
dropout_1145 (Dropout)       (None, 8, 8, 16)          0         
_________________________________________________________________
separable_conv2d_1014 (Separ (None, 8, 8, 8)           280       
_________________________________________________________________
activation_1146 (Activation) (None, 8, 8, 8)           0         
_________________________________________________________________
dropout_1146 (Dropout)       (None, 8, 8, 8)           0         
_________________________________________________________________
flatten_105 (Flatten)        (None, 512)               0         
_________________________________________________________________
dense_237 (Dense)            (None, 4096)              2101248   
_________________________________________________________________
activation_1147 (Activation) (None, 4096)              0         
_________________________________________________________________
dropout_1147 (Dropout)       (None, 4096)              0         
_________________________________________________________________
dense_238 (Dense)            (None, 100)               409700    
=================================================================
Total params: 2,812,551
Trainable params: 2,808,327
Non-trainable params: 4,224
_________________________________________________________________
