Model: "sequential_20"
_________________________________________________________________
Layer (type)                 Output Shape              Param #   
=================================================================
separable_conv2d_199 (Separa (None, 32, 32, 128)       539       
_________________________________________________________________
batch_normalization_108 (Bat (None, 32, 32, 128)       512       
_________________________________________________________________
activation_226 (Activation)  (None, 32, 32, 128)       0         
_________________________________________________________________
dropout_226 (Dropout)        (None, 32, 32, 128)       0         
_________________________________________________________________
separable_conv2d_200 (Separa (None, 32, 32, 128)       17664     
_________________________________________________________________
activation_227 (Activation)  (None, 32, 32, 128)       0         
_________________________________________________________________
dropout_227 (Dropout)        (None, 32, 32, 128)       0         
_________________________________________________________________
separable_conv2d_201 (Separa (None, 32, 32, 8)         2184      
_________________________________________________________________
batch_normalization_109 (Bat (None, 32, 32, 8)         32        
_________________________________________________________________
activation_228 (Activation)  (None, 32, 32, 8)         0         
_________________________________________________________________
dropout_228 (Dropout)        (None, 32, 32, 8)         0         
_________________________________________________________________
separable_conv2d_202 (Separa (None, 32, 32, 512)       4680      
_________________________________________________________________
batch_normalization_110 (Bat (None, 32, 32, 512)       2048      
_________________________________________________________________
activation_229 (Activation)  (None, 32, 32, 512)       0         
_________________________________________________________________
dropout_229 (Dropout)        (None, 32, 32, 512)       0         
_________________________________________________________________
separable_conv2d_203 (Separa (None, 32, 32, 128)       70272     
_________________________________________________________________
activation_230 (Activation)  (None, 32, 32, 128)       0         
_________________________________________________________________
dropout_230 (Dropout)        (None, 32, 32, 128)       0         
_________________________________________________________________
max_pooling2d_46 (MaxPooling (None, 16, 16, 128)       0         
_________________________________________________________________
separable_conv2d_204 (Separa (None, 16, 16, 32)        5280      
_________________________________________________________________
activation_231 (Activation)  (None, 16, 16, 32)        0         
_________________________________________________________________
dropout_231 (Dropout)        (None, 16, 16, 32)        0         
_________________________________________________________________
separable_conv2d_205 (Separa (None, 16, 16, 64)        2400      
_________________________________________________________________
batch_normalization_111 (Bat (None, 16, 16, 64)        256       
_________________________________________________________________
activation_232 (Activation)  (None, 16, 16, 64)        0         
_________________________________________________________________
dropout_232 (Dropout)        (None, 16, 16, 64)        0         
_________________________________________________________________
flatten_20 (Flatten)         (None, 16384)             0         
_________________________________________________________________
dense_47 (Dense)             (None, 16)                262160    
_________________________________________________________________
activation_233 (Activation)  (None, 16)                0         
_________________________________________________________________
dropout_233 (Dropout)        (None, 16)                0         
_________________________________________________________________
dense_48 (Dense)             (None, 256)               4352      
_________________________________________________________________
activation_234 (Activation)  (None, 256)               0         
_________________________________________________________________
dropout_234 (Dropout)        (None, 256)               0         
_________________________________________________________________
dense_49 (Dense)             (None, 100)               25700     
=================================================================
Total params: 398,079
Trainable params: 396,655
Non-trainable params: 1,424
_________________________________________________________________
