Model: "sequential_151"
_________________________________________________________________
Layer (type)                 Output Shape              Param #   
=================================================================
separable_conv2d_1391 (Separ (None, 32, 32, 1024)      4123      
_________________________________________________________________
batch_normalization_780 (Bat (None, 32, 32, 1024)      4096      
_________________________________________________________________
activation_1568 (Activation) (None, 32, 32, 1024)      0         
_________________________________________________________________
dropout_1568 (Dropout)       (None, 32, 32, 1024)      0         
_________________________________________________________________
max_pooling2d_315 (MaxPoolin (None, 16, 16, 1024)      0         
_________________________________________________________________
separable_conv2d_1392 (Separ (None, 16, 16, 32)        42016     
_________________________________________________________________
activation_1569 (Activation) (None, 16, 16, 32)        0         
_________________________________________________________________
dropout_1569 (Dropout)       (None, 16, 16, 32)        0         
_________________________________________________________________
max_pooling2d_316 (MaxPoolin (None, 8, 8, 32)          0         
_________________________________________________________________
separable_conv2d_1393 (Separ (None, 8, 8, 512)         17184     
_________________________________________________________________
activation_1570 (Activation) (None, 8, 8, 512)         0         
_________________________________________________________________
dropout_1570 (Dropout)       (None, 8, 8, 512)         0         
_________________________________________________________________
separable_conv2d_1394 (Separ (None, 8, 8, 1024)        529920    
_________________________________________________________________
batch_normalization_781 (Bat (None, 8, 8, 1024)        4096      
_________________________________________________________________
activation_1571 (Activation) (None, 8, 8, 1024)        0         
_________________________________________________________________
dropout_1571 (Dropout)       (None, 8, 8, 1024)        0         
_________________________________________________________________
separable_conv2d_1395 (Separ (None, 8, 8, 1024)        1058816   
_________________________________________________________________
batch_normalization_782 (Bat (None, 8, 8, 1024)        4096      
_________________________________________________________________
activation_1572 (Activation) (None, 8, 8, 1024)        0         
_________________________________________________________________
dropout_1572 (Dropout)       (None, 8, 8, 1024)        0         
_________________________________________________________________
separable_conv2d_1396 (Separ (None, 8, 8, 16)          25616     
_________________________________________________________________
batch_normalization_783 (Bat (None, 8, 8, 16)          64        
_________________________________________________________________
activation_1573 (Activation) (None, 8, 8, 16)          0         
_________________________________________________________________
dropout_1573 (Dropout)       (None, 8, 8, 16)          0         
_________________________________________________________________
separable_conv2d_1397 (Separ (None, 8, 8, 16)          416       
_________________________________________________________________
batch_normalization_784 (Bat (None, 8, 8, 16)          64        
_________________________________________________________________
activation_1574 (Activation) (None, 8, 8, 16)          0         
_________________________________________________________________
dropout_1574 (Dropout)       (None, 8, 8, 16)          0         
_________________________________________________________________
separable_conv2d_1398 (Separ (None, 8, 8, 8)           280       
_________________________________________________________________
activation_1575 (Activation) (None, 8, 8, 8)           0         
_________________________________________________________________
dropout_1575 (Dropout)       (None, 8, 8, 8)           0         
_________________________________________________________________
flatten_151 (Flatten)        (None, 512)               0         
_________________________________________________________________
dense_328 (Dense)            (None, 4096)              2101248   
_________________________________________________________________
activation_1576 (Activation) (None, 4096)              0         
_________________________________________________________________
dropout_1576 (Dropout)       (None, 4096)              0         
_________________________________________________________________
dense_329 (Dense)            (None, 100)               409700    
=================================================================
Total params: 4,201,735
Trainable params: 4,195,527
Non-trainable params: 6,208
_________________________________________________________________
