Model: "sequential_205"
_________________________________________________________________
Layer (type)                 Output Shape              Param #   
=================================================================
separable_conv2d_1825 (Separ (None, 32, 32, 1024)      4123      
_________________________________________________________________
batch_normalization_1014 (Ba (None, 32, 32, 1024)      4096      
_________________________________________________________________
activation_2045 (Activation) (None, 32, 32, 1024)      0         
_________________________________________________________________
dropout_2045 (Dropout)       (None, 32, 32, 1024)      0         
_________________________________________________________________
separable_conv2d_1826 (Separ (None, 32, 32, 32)        42016     
_________________________________________________________________
activation_2046 (Activation) (None, 32, 32, 32)        0         
_________________________________________________________________
dropout_2046 (Dropout)       (None, 32, 32, 32)        0         
_________________________________________________________________
max_pooling2d_389 (MaxPoolin (None, 16, 16, 32)        0         
_________________________________________________________________
separable_conv2d_1827 (Separ (None, 16, 16, 512)       17184     
_________________________________________________________________
activation_2047 (Activation) (None, 16, 16, 512)       0         
_________________________________________________________________
dropout_2047 (Dropout)       (None, 16, 16, 512)       0         
_________________________________________________________________
separable_conv2d_1828 (Separ (None, 16, 16, 1024)      529920    
_________________________________________________________________
batch_normalization_1015 (Ba (None, 16, 16, 1024)      4096      
_________________________________________________________________
activation_2048 (Activation) (None, 16, 16, 1024)      0         
_________________________________________________________________
dropout_2048 (Dropout)       (None, 16, 16, 1024)      0         
_________________________________________________________________
separable_conv2d_1829 (Separ (None, 16, 16, 1024)      1058816   
_________________________________________________________________
batch_normalization_1016 (Ba (None, 16, 16, 1024)      4096      
_________________________________________________________________
activation_2049 (Activation) (None, 16, 16, 1024)      0         
_________________________________________________________________
dropout_2049 (Dropout)       (None, 16, 16, 1024)      0         
_________________________________________________________________
separable_conv2d_1830 (Separ (None, 16, 16, 16)        25616     
_________________________________________________________________
batch_normalization_1017 (Ba (None, 16, 16, 16)        64        
_________________________________________________________________
activation_2050 (Activation) (None, 16, 16, 16)        0         
_________________________________________________________________
dropout_2050 (Dropout)       (None, 16, 16, 16)        0         
_________________________________________________________________
separable_conv2d_1831 (Separ (None, 16, 16, 64)        1232      
_________________________________________________________________
activation_2051 (Activation) (None, 16, 16, 64)        0         
_________________________________________________________________
dropout_2051 (Dropout)       (None, 16, 16, 64)        0         
_________________________________________________________________
separable_conv2d_1832 (Separ (None, 16, 16, 16)        1616      
_________________________________________________________________
activation_2052 (Activation) (None, 16, 16, 16)        0         
_________________________________________________________________
dropout_2052 (Dropout)       (None, 16, 16, 16)        0         
_________________________________________________________________
flatten_205 (Flatten)        (None, 4096)              0         
_________________________________________________________________
dense_425 (Dense)            (None, 100)               409700    
=================================================================
Total params: 2,102,575
Trainable params: 2,096,399
Non-trainable params: 6,176
_________________________________________________________________
