Model: "sequential_225"
_________________________________________________________________
Layer (type)                 Output Shape              Param #   
=================================================================
separable_conv2d_1440 (Separ (None, 32, 32, 64)        283       
_________________________________________________________________
batch_normalization_1159 (Ba (None, 32, 32, 64)        256       
_________________________________________________________________
activation_1840 (Activation) (None, 32, 32, 64)        0         
_________________________________________________________________
dropout_1840 (Dropout)       (None, 32, 32, 64)        0         
_________________________________________________________________
separable_conv2d_1441 (Separ (None, 32, 32, 16)        1616      
_________________________________________________________________
batch_normalization_1160 (Ba (None, 32, 32, 16)        64        
_________________________________________________________________
activation_1841 (Activation) (None, 32, 32, 16)        0         
_________________________________________________________________
dropout_1841 (Dropout)       (None, 32, 32, 16)        0         
_________________________________________________________________
separable_conv2d_1442 (Separ (None, 32, 32, 128)       2320      
_________________________________________________________________
batch_normalization_1161 (Ba (None, 32, 32, 128)       512       
_________________________________________________________________
activation_1842 (Activation) (None, 32, 32, 128)       0         
_________________________________________________________________
dropout_1842 (Dropout)       (None, 32, 32, 128)       0         
_________________________________________________________________
separable_conv2d_1443 (Separ (None, 32, 32, 512)       67200     
_________________________________________________________________
activation_1843 (Activation) (None, 32, 32, 512)       0         
_________________________________________________________________
dropout_1843 (Dropout)       (None, 32, 32, 512)       0         
_________________________________________________________________
separable_conv2d_1444 (Separ (None, 32, 32, 16)        12816     
_________________________________________________________________
batch_normalization_1162 (Ba (None, 32, 32, 16)        64        
_________________________________________________________________
activation_1844 (Activation) (None, 32, 32, 16)        0         
_________________________________________________________________
dropout_1844 (Dropout)       (None, 32, 32, 16)        0         
_________________________________________________________________
separable_conv2d_1445 (Separ (None, 32, 32, 32)        688       
_________________________________________________________________
batch_normalization_1163 (Ba (None, 32, 32, 32)        128       
_________________________________________________________________
activation_1845 (Activation) (None, 32, 32, 32)        0         
_________________________________________________________________
dropout_1845 (Dropout)       (None, 32, 32, 32)        0         
_________________________________________________________________
separable_conv2d_1446 (Separ (None, 32, 32, 512)       17184     
_________________________________________________________________
activation_1846 (Activation) (None, 32, 32, 512)       0         
_________________________________________________________________
dropout_1846 (Dropout)       (None, 32, 32, 512)       0         
_________________________________________________________________
separable_conv2d_1447 (Separ (None, 32, 32, 32)        21024     
_________________________________________________________________
batch_normalization_1164 (Ba (None, 32, 32, 32)        128       
_________________________________________________________________
activation_1847 (Activation) (None, 32, 32, 32)        0         
_________________________________________________________________
dropout_1847 (Dropout)       (None, 32, 32, 32)        0         
_________________________________________________________________
max_pooling2d_397 (MaxPoolin (None, 16, 16, 32)        0         
_________________________________________________________________
flatten_225 (Flatten)        (None, 8192)              0         
_________________________________________________________________
dense_625 (Dense)            (None, 100)               819300    
=================================================================
Total params: 943,583
Trainable params: 943,007
Non-trainable params: 576
_________________________________________________________________
