Model: "sequential_373"
_________________________________________________________________
Layer (type)                 Output Shape              Param #   
=================================================================
separable_conv2d_2191 (Separ (None, 32, 32, 64)        283       
_________________________________________________________________
batch_normalization_1780 (Ba (None, 32, 32, 64)        256       
_________________________________________________________________
activation_2648 (Activation) (None, 32, 32, 64)        0         
_________________________________________________________________
dropout_2648 (Dropout)       (None, 32, 32, 64)        0         
_________________________________________________________________
separable_conv2d_2192 (Separ (None, 32, 32, 1024)      67136     
_________________________________________________________________
batch_normalization_1781 (Ba (None, 32, 32, 1024)      4096      
_________________________________________________________________
activation_2649 (Activation) (None, 32, 32, 1024)      0         
_________________________________________________________________
dropout_2649 (Dropout)       (None, 32, 32, 1024)      0         
_________________________________________________________________
separable_conv2d_2193 (Separ (None, 32, 32, 256)       271616    
_________________________________________________________________
batch_normalization_1782 (Ba (None, 32, 32, 256)       1024      
_________________________________________________________________
activation_2650 (Activation) (None, 32, 32, 256)       0         
_________________________________________________________________
dropout_2650 (Dropout)       (None, 32, 32, 256)       0         
_________________________________________________________________
max_pooling2d_640 (MaxPoolin (None, 16, 16, 256)       0         
_________________________________________________________________
separable_conv2d_2194 (Separ (None, 16, 16, 128)       35200     
_________________________________________________________________
batch_normalization_1783 (Ba (None, 16, 16, 128)       512       
_________________________________________________________________
activation_2651 (Activation) (None, 16, 16, 128)       0         
_________________________________________________________________
dropout_2651 (Dropout)       (None, 16, 16, 128)       0         
_________________________________________________________________
max_pooling2d_641 (MaxPoolin (None, 8, 8, 128)         0         
_________________________________________________________________
flatten_373 (Flatten)        (None, 8192)              0         
_________________________________________________________________
dense_830 (Dense)            (None, 100)               819300    
=================================================================
Total params: 1,199,423
Trainable params: 1,196,479
Non-trainable params: 2,944
_________________________________________________________________
