Model: "sequential_183"
_________________________________________________________________
Layer (type)                 Output Shape              Param #   
=================================================================
separable_conv2d_1177 (Separ (None, 32, 32, 64)        283       
_________________________________________________________________
batch_normalization_949 (Bat (None, 32, 32, 64)        256       
_________________________________________________________________
activation_1528 (Activation) (None, 32, 32, 64)        0         
_________________________________________________________________
dropout_1528 (Dropout)       (None, 32, 32, 64)        0         
_________________________________________________________________
separable_conv2d_1178 (Separ (None, 32, 32, 16)        1616      
_________________________________________________________________
batch_normalization_950 (Bat (None, 32, 32, 16)        64        
_________________________________________________________________
activation_1529 (Activation) (None, 32, 32, 16)        0         
_________________________________________________________________
dropout_1529 (Dropout)       (None, 32, 32, 16)        0         
_________________________________________________________________
separable_conv2d_1179 (Separ (None, 32, 32, 128)       2320      
_________________________________________________________________
batch_normalization_951 (Bat (None, 32, 32, 128)       512       
_________________________________________________________________
activation_1530 (Activation) (None, 32, 32, 128)       0         
_________________________________________________________________
dropout_1530 (Dropout)       (None, 32, 32, 128)       0         
_________________________________________________________________
separable_conv2d_1180 (Separ (None, 32, 32, 512)       67200     
_________________________________________________________________
activation_1531 (Activation) (None, 32, 32, 512)       0         
_________________________________________________________________
dropout_1531 (Dropout)       (None, 32, 32, 512)       0         
_________________________________________________________________
max_pooling2d_326 (MaxPoolin (None, 16, 16, 512)       0         
_________________________________________________________________
separable_conv2d_1181 (Separ (None, 16, 16, 256)       135936    
_________________________________________________________________
batch_normalization_952 (Bat (None, 16, 16, 256)       1024      
_________________________________________________________________
activation_1532 (Activation) (None, 16, 16, 256)       0         
_________________________________________________________________
dropout_1532 (Dropout)       (None, 16, 16, 256)       0         
_________________________________________________________________
max_pooling2d_327 (MaxPoolin (None, 8, 8, 256)         0         
_________________________________________________________________
separable_conv2d_1182 (Separ (None, 8, 8, 128)         35200     
_________________________________________________________________
batch_normalization_953 (Bat (None, 8, 8, 128)         512       
_________________________________________________________________
activation_1533 (Activation) (None, 8, 8, 128)         0         
_________________________________________________________________
dropout_1533 (Dropout)       (None, 8, 8, 128)         0         
_________________________________________________________________
flatten_183 (Flatten)        (None, 8192)              0         
_________________________________________________________________
dense_534 (Dense)            (None, 256)               2097408   
_________________________________________________________________
batch_normalization_954 (Bat (None, 256)               1024      
_________________________________________________________________
activation_1534 (Activation) (None, 256)               0         
_________________________________________________________________
dropout_1534 (Dropout)       (None, 256)               0         
_________________________________________________________________
dense_535 (Dense)            (None, 100)               25700     
=================================================================
Total params: 2,369,055
Trainable params: 2,367,359
Non-trainable params: 1,696
_________________________________________________________________
