Model: "sequential_57"
_________________________________________________________________
Layer (type)                 Output Shape              Param #   
=================================================================
separable_conv2d_395 (Separa (None, 32, 32, 16)        91        
_________________________________________________________________
activation_514 (Activation)  (None, 32, 32, 16)        0         
_________________________________________________________________
dropout_514 (Dropout)        (None, 32, 32, 16)        0         
_________________________________________________________________
separable_conv2d_396 (Separa (None, 32, 32, 16)        416       
_________________________________________________________________
batch_normalization_304 (Bat (None, 32, 32, 16)        64        
_________________________________________________________________
activation_515 (Activation)  (None, 32, 32, 16)        0         
_________________________________________________________________
dropout_515 (Dropout)        (None, 32, 32, 16)        0         
_________________________________________________________________
separable_conv2d_397 (Separa (None, 32, 32, 128)       2320      
_________________________________________________________________
batch_normalization_305 (Bat (None, 32, 32, 128)       512       
_________________________________________________________________
activation_516 (Activation)  (None, 32, 32, 128)       0         
_________________________________________________________________
dropout_516 (Dropout)        (None, 32, 32, 128)       0         
_________________________________________________________________
separable_conv2d_398 (Separa (None, 32, 32, 512)       67200     
_________________________________________________________________
activation_517 (Activation)  (None, 32, 32, 512)       0         
_________________________________________________________________
dropout_517 (Dropout)        (None, 32, 32, 512)       0         
_________________________________________________________________
max_pooling2d_113 (MaxPoolin (None, 16, 16, 512)       0         
_________________________________________________________________
separable_conv2d_399 (Separa (None, 16, 16, 32)        21024     
_________________________________________________________________
batch_normalization_306 (Bat (None, 16, 16, 32)        128       
_________________________________________________________________
activation_518 (Activation)  (None, 16, 16, 32)        0         
_________________________________________________________________
dropout_518 (Dropout)        (None, 16, 16, 32)        0         
_________________________________________________________________
separable_conv2d_400 (Separa (None, 16, 16, 512)       17184     
_________________________________________________________________
activation_519 (Activation)  (None, 16, 16, 512)       0         
_________________________________________________________________
dropout_519 (Dropout)        (None, 16, 16, 512)       0         
_________________________________________________________________
separable_conv2d_401 (Separa (None, 16, 16, 32)        21024     
_________________________________________________________________
batch_normalization_307 (Bat (None, 16, 16, 32)        128       
_________________________________________________________________
activation_520 (Activation)  (None, 16, 16, 32)        0         
_________________________________________________________________
dropout_520 (Dropout)        (None, 16, 16, 32)        0         
_________________________________________________________________
max_pooling2d_114 (MaxPoolin (None, 8, 8, 32)          0         
_________________________________________________________________
flatten_57 (Flatten)         (None, 2048)              0         
_________________________________________________________________
dense_176 (Dense)            (None, 100)               204900    
=================================================================
Total params: 334,991
Trainable params: 334,575
Non-trainable params: 416
_________________________________________________________________
