Model: "sequential_297"
_________________________________________________________________
Layer (type)                 Output Shape              Param #   
=================================================================
separable_conv2d_1832 (Separ (None, 32, 32, 16)        91        
_________________________________________________________________
activation_2268 (Activation) (None, 32, 32, 16)        0         
_________________________________________________________________
dropout_2268 (Dropout)       (None, 32, 32, 16)        0         
_________________________________________________________________
separable_conv2d_1833 (Separ (None, 32, 32, 16)        416       
_________________________________________________________________
batch_normalization_1472 (Ba (None, 32, 32, 16)        64        
_________________________________________________________________
activation_2269 (Activation) (None, 32, 32, 16)        0         
_________________________________________________________________
dropout_2269 (Dropout)       (None, 32, 32, 16)        0         
_________________________________________________________________
separable_conv2d_1834 (Separ (None, 32, 32, 128)       2320      
_________________________________________________________________
batch_normalization_1473 (Ba (None, 32, 32, 128)       512       
_________________________________________________________________
activation_2270 (Activation) (None, 32, 32, 128)       0         
_________________________________________________________________
dropout_2270 (Dropout)       (None, 32, 32, 128)       0         
_________________________________________________________________
separable_conv2d_1835 (Separ (None, 32, 32, 512)       67200     
_________________________________________________________________
activation_2271 (Activation) (None, 32, 32, 512)       0         
_________________________________________________________________
dropout_2271 (Dropout)       (None, 32, 32, 512)       0         
_________________________________________________________________
separable_conv2d_1836 (Separ (None, 32, 32, 32)        21024     
_________________________________________________________________
batch_normalization_1474 (Ba (None, 32, 32, 32)        128       
_________________________________________________________________
activation_2272 (Activation) (None, 32, 32, 32)        0         
_________________________________________________________________
dropout_2272 (Dropout)       (None, 32, 32, 32)        0         
_________________________________________________________________
max_pooling2d_509 (MaxPoolin (None, 16, 16, 32)        0         
_________________________________________________________________
flatten_297 (Flatten)        (None, 8192)              0         
_________________________________________________________________
dense_733 (Dense)            (None, 512)               4194816   
_________________________________________________________________
batch_normalization_1475 (Ba (None, 512)               2048      
_________________________________________________________________
activation_2273 (Activation) (None, 512)               0         
_________________________________________________________________
dropout_2273 (Dropout)       (None, 512)               0         
_________________________________________________________________
dense_734 (Dense)            (None, 100)               51300     
=================================================================
Total params: 4,339,919
Trainable params: 4,338,543
Non-trainable params: 1,376
_________________________________________________________________
