Model: "sequential_208"
_________________________________________________________________
Layer (type)                 Output Shape              Param #   
=================================================================
separable_conv2d_1333 (Separ (None, 32, 32, 16)        91        
_________________________________________________________________
activation_1722 (Activation) (None, 32, 32, 16)        0         
_________________________________________________________________
dropout_1722 (Dropout)       (None, 32, 32, 16)        0         
_________________________________________________________________
separable_conv2d_1334 (Separ (None, 32, 32, 16)        416       
_________________________________________________________________
batch_normalization_1082 (Ba (None, 32, 32, 16)        64        
_________________________________________________________________
activation_1723 (Activation) (None, 32, 32, 16)        0         
_________________________________________________________________
dropout_1723 (Dropout)       (None, 32, 32, 16)        0         
_________________________________________________________________
separable_conv2d_1335 (Separ (None, 32, 32, 128)       2320      
_________________________________________________________________
batch_normalization_1083 (Ba (None, 32, 32, 128)       512       
_________________________________________________________________
activation_1724 (Activation) (None, 32, 32, 128)       0         
_________________________________________________________________
dropout_1724 (Dropout)       (None, 32, 32, 128)       0         
_________________________________________________________________
separable_conv2d_1336 (Separ (None, 32, 32, 512)       67200     
_________________________________________________________________
activation_1725 (Activation) (None, 32, 32, 512)       0         
_________________________________________________________________
dropout_1725 (Dropout)       (None, 32, 32, 512)       0         
_________________________________________________________________
max_pooling2d_367 (MaxPoolin (None, 16, 16, 512)       0         
_________________________________________________________________
separable_conv2d_1337 (Separ (None, 16, 16, 256)       135936    
_________________________________________________________________
batch_normalization_1084 (Ba (None, 16, 16, 256)       1024      
_________________________________________________________________
activation_1726 (Activation) (None, 16, 16, 256)       0         
_________________________________________________________________
dropout_1726 (Dropout)       (None, 16, 16, 256)       0         
_________________________________________________________________
max_pooling2d_368 (MaxPoolin (None, 8, 8, 256)         0         
_________________________________________________________________
separable_conv2d_1338 (Separ (None, 8, 8, 128)         35200     
_________________________________________________________________
batch_normalization_1085 (Ba (None, 8, 8, 128)         512       
_________________________________________________________________
activation_1727 (Activation) (None, 8, 8, 128)         0         
_________________________________________________________________
dropout_1727 (Dropout)       (None, 8, 8, 128)         0         
_________________________________________________________________
flatten_208 (Flatten)        (None, 8192)              0         
_________________________________________________________________
dense_597 (Dense)            (None, 512)               4194816   
_________________________________________________________________
activation_1728 (Activation) (None, 512)               0         
_________________________________________________________________
dropout_1728 (Dropout)       (None, 512)               0         
_________________________________________________________________
dense_598 (Dense)            (None, 512)               262656    
_________________________________________________________________
batch_normalization_1086 (Ba (None, 512)               2048      
_________________________________________________________________
activation_1729 (Activation) (None, 512)               0         
_________________________________________________________________
dropout_1729 (Dropout)       (None, 512)               0         
_________________________________________________________________
dense_599 (Dense)            (None, 100)               51300     
=================================================================
Total params: 4,754,095
Trainable params: 4,752,015
Non-trainable params: 2,080
_________________________________________________________________
