Model: "sequential_75"
_________________________________________________________________
Layer (type)                 Output Shape              Param #   
=================================================================
separable_conv2d_512 (Separa (None, 32, 32, 16)        91        
_________________________________________________________________
activation_662 (Activation)  (None, 32, 32, 16)        0         
_________________________________________________________________
dropout_662 (Dropout)        (None, 32, 32, 16)        0         
_________________________________________________________________
separable_conv2d_513 (Separa (None, 32, 32, 16)        416       
_________________________________________________________________
batch_normalization_397 (Bat (None, 32, 32, 16)        64        
_________________________________________________________________
activation_663 (Activation)  (None, 32, 32, 16)        0         
_________________________________________________________________
dropout_663 (Dropout)        (None, 32, 32, 16)        0         
_________________________________________________________________
separable_conv2d_514 (Separa (None, 32, 32, 128)       2320      
_________________________________________________________________
batch_normalization_398 (Bat (None, 32, 32, 128)       512       
_________________________________________________________________
activation_664 (Activation)  (None, 32, 32, 128)       0         
_________________________________________________________________
dropout_664 (Dropout)        (None, 32, 32, 128)       0         
_________________________________________________________________
separable_conv2d_515 (Separa (None, 32, 32, 512)       67200     
_________________________________________________________________
activation_665 (Activation)  (None, 32, 32, 512)       0         
_________________________________________________________________
dropout_665 (Dropout)        (None, 32, 32, 512)       0         
_________________________________________________________________
max_pooling2d_145 (MaxPoolin (None, 16, 16, 512)       0         
_________________________________________________________________
separable_conv2d_516 (Separa (None, 16, 16, 32)        21024     
_________________________________________________________________
batch_normalization_399 (Bat (None, 16, 16, 32)        128       
_________________________________________________________________
activation_666 (Activation)  (None, 16, 16, 32)        0         
_________________________________________________________________
dropout_666 (Dropout)        (None, 16, 16, 32)        0         
_________________________________________________________________
flatten_75 (Flatten)         (None, 8192)              0         
_________________________________________________________________
dense_225 (Dense)            (None, 32)                262176    
_________________________________________________________________
batch_normalization_400 (Bat (None, 32)                128       
_________________________________________________________________
activation_667 (Activation)  (None, 32)                0         
_________________________________________________________________
dropout_667 (Dropout)        (None, 32)                0         
_________________________________________________________________
dense_226 (Dense)            (None, 16)                528       
_________________________________________________________________
batch_normalization_401 (Bat (None, 16)                64        
_________________________________________________________________
activation_668 (Activation)  (None, 16)                0         
_________________________________________________________________
dropout_668 (Dropout)        (None, 16)                0         
_________________________________________________________________
dense_227 (Dense)            (None, 256)               4352      
_________________________________________________________________
batch_normalization_402 (Bat (None, 256)               1024      
_________________________________________________________________
activation_669 (Activation)  (None, 256)               0         
_________________________________________________________________
dropout_669 (Dropout)        (None, 256)               0         
_________________________________________________________________
dense_228 (Dense)            (None, 64)                16448     
_________________________________________________________________
batch_normalization_403 (Bat (None, 64)                256       
_________________________________________________________________
activation_670 (Activation)  (None, 64)                0         
_________________________________________________________________
dropout_670 (Dropout)        (None, 64)                0         
_________________________________________________________________
dense_229 (Dense)            (None, 100)               6500      
=================================================================
Total params: 383,231
Trainable params: 382,143
Non-trainable params: 1,088
_________________________________________________________________
