Model: "sequential_308"
_________________________________________________________________
Layer (type)                 Output Shape              Param #   
=================================================================
separable_conv2d_1888 (Separ (None, 32, 32, 16)        91        
_________________________________________________________________
activation_2331 (Activation) (None, 32, 32, 16)        0         
_________________________________________________________________
dropout_2331 (Dropout)       (None, 32, 32, 16)        0         
_________________________________________________________________
separable_conv2d_1889 (Separ (None, 32, 32, 512)       8848      
_________________________________________________________________
batch_normalization_1521 (Ba (None, 32, 32, 512)       2048      
_________________________________________________________________
activation_2332 (Activation) (None, 32, 32, 512)       0         
_________________________________________________________________
dropout_2332 (Dropout)       (None, 32, 32, 512)       0         
_________________________________________________________________
separable_conv2d_1890 (Separ (None, 32, 32, 512)       267264    
_________________________________________________________________
activation_2333 (Activation) (None, 32, 32, 512)       0         
_________________________________________________________________
dropout_2333 (Dropout)       (None, 32, 32, 512)       0         
_________________________________________________________________
separable_conv2d_1891 (Separ (None, 32, 32, 32)        21024     
_________________________________________________________________
batch_normalization_1522 (Ba (None, 32, 32, 32)        128       
_________________________________________________________________
activation_2334 (Activation) (None, 32, 32, 32)        0         
_________________________________________________________________
dropout_2334 (Dropout)       (None, 32, 32, 32)        0         
_________________________________________________________________
max_pooling2d_526 (MaxPoolin (None, 16, 16, 32)        0         
_________________________________________________________________
flatten_308 (Flatten)        (None, 8192)              0         
_________________________________________________________________
dense_751 (Dense)            (None, 512)               4194816   
_________________________________________________________________
batch_normalization_1523 (Ba (None, 512)               2048      
_________________________________________________________________
activation_2335 (Activation) (None, 512)               0         
_________________________________________________________________
dropout_2335 (Dropout)       (None, 512)               0         
_________________________________________________________________
dense_752 (Dense)            (None, 100)               51300     
=================================================================
Total params: 4,547,567
Trainable params: 4,545,455
Non-trainable params: 2,112
_________________________________________________________________
