Model: "sequential_29"
_________________________________________________________________
Layer (type)                 Output Shape              Param #   
=================================================================
separable_conv2d_213 (Separa (None, 32, 32, 64)        283       
_________________________________________________________________
activation_281 (Activation)  (None, 32, 32, 64)        0         
_________________________________________________________________
dropout_281 (Dropout)        (None, 32, 32, 64)        0         
_________________________________________________________________
separable_conv2d_214 (Separa (None, 32, 32, 1024)      67136     
_________________________________________________________________
batch_normalization_160 (Bat (None, 32, 32, 1024)      4096      
_________________________________________________________________
activation_282 (Activation)  (None, 32, 32, 1024)      0         
_________________________________________________________________
dropout_282 (Dropout)        (None, 32, 32, 1024)      0         
_________________________________________________________________
separable_conv2d_215 (Separa (None, 32, 32, 16)        25616     
_________________________________________________________________
activation_283 (Activation)  (None, 32, 32, 16)        0         
_________________________________________________________________
dropout_283 (Dropout)        (None, 32, 32, 16)        0         
_________________________________________________________________
max_pooling2d_59 (MaxPooling (None, 16, 16, 16)        0         
_________________________________________________________________
separable_conv2d_216 (Separa (None, 16, 16, 64)        1232      
_________________________________________________________________
batch_normalization_161 (Bat (None, 16, 16, 64)        256       
_________________________________________________________________
activation_284 (Activation)  (None, 16, 16, 64)        0         
_________________________________________________________________
dropout_284 (Dropout)        (None, 16, 16, 64)        0         
_________________________________________________________________
separable_conv2d_217 (Separa (None, 16, 16, 256)       17216     
_________________________________________________________________
batch_normalization_162 (Bat (None, 16, 16, 256)       1024      
_________________________________________________________________
activation_285 (Activation)  (None, 16, 16, 256)       0         
_________________________________________________________________
dropout_285 (Dropout)        (None, 16, 16, 256)       0         
_________________________________________________________________
max_pooling2d_60 (MaxPooling (None, 8, 8, 256)         0         
_________________________________________________________________
flatten_29 (Flatten)         (None, 16384)             0         
_________________________________________________________________
dense_97 (Dense)             (None, 32)                524320    
_________________________________________________________________
batch_normalization_163 (Bat (None, 32)                128       
_________________________________________________________________
activation_286 (Activation)  (None, 32)                0         
_________________________________________________________________
dropout_286 (Dropout)        (None, 32)                0         
_________________________________________________________________
dense_98 (Dense)             (None, 512)               16896     
_________________________________________________________________
activation_287 (Activation)  (None, 512)               0         
_________________________________________________________________
dropout_287 (Dropout)        (None, 512)               0         
_________________________________________________________________
dense_99 (Dense)             (None, 512)               262656    
_________________________________________________________________
batch_normalization_164 (Bat (None, 512)               2048      
_________________________________________________________________
activation_288 (Activation)  (None, 512)               0         
_________________________________________________________________
dropout_288 (Dropout)        (None, 512)               0         
_________________________________________________________________
dense_100 (Dense)            (None, 100)               51300     
=================================================================
Total params: 974,207
Trainable params: 970,431
Non-trainable params: 3,776
_________________________________________________________________
