Model: "sequential_380"
_________________________________________________________________
Layer (type)                 Output Shape              Param #   
=================================================================
separable_conv2d_2222 (Separ (None, 32, 32, 16)        91        
_________________________________________________________________
activation_2680 (Activation) (None, 32, 32, 16)        0         
_________________________________________________________________
dropout_2680 (Dropout)       (None, 32, 32, 16)        0         
_________________________________________________________________
separable_conv2d_2223 (Separ (None, 32, 32, 1024)      17552     
_________________________________________________________________
batch_normalization_1809 (Ba (None, 32, 32, 1024)      4096      
_________________________________________________________________
activation_2681 (Activation) (None, 32, 32, 1024)      0         
_________________________________________________________________
dropout_2681 (Dropout)       (None, 32, 32, 1024)      0         
_________________________________________________________________
separable_conv2d_2224 (Separ (None, 32, 32, 128)       140416    
_________________________________________________________________
batch_normalization_1810 (Ba (None, 32, 32, 128)       512       
_________________________________________________________________
activation_2682 (Activation) (None, 32, 32, 128)       0         
_________________________________________________________________
dropout_2682 (Dropout)       (None, 32, 32, 128)       0         
_________________________________________________________________
separable_conv2d_2225 (Separ (None, 32, 32, 256)       34176     
_________________________________________________________________
batch_normalization_1811 (Ba (None, 32, 32, 256)       1024      
_________________________________________________________________
activation_2683 (Activation) (None, 32, 32, 256)       0         
_________________________________________________________________
dropout_2683 (Dropout)       (None, 32, 32, 256)       0         
_________________________________________________________________
max_pooling2d_653 (MaxPoolin (None, 16, 16, 256)       0         
_________________________________________________________________
separable_conv2d_2226 (Separ (None, 16, 16, 128)       35200     
_________________________________________________________________
batch_normalization_1812 (Ba (None, 16, 16, 128)       512       
_________________________________________________________________
activation_2684 (Activation) (None, 16, 16, 128)       0         
_________________________________________________________________
dropout_2684 (Dropout)       (None, 16, 16, 128)       0         
_________________________________________________________________
max_pooling2d_654 (MaxPoolin (None, 8, 8, 128)         0         
_________________________________________________________________
flatten_380 (Flatten)        (None, 8192)              0         
_________________________________________________________________
dense_838 (Dense)            (None, 100)               819300    
=================================================================
Total params: 1,052,879
Trainable params: 1,049,807
Non-trainable params: 3,072
_________________________________________________________________
