Model: "sequential_334"
_________________________________________________________________
Layer (type)                 Output Shape              Param #   
=================================================================
separable_conv2d_2009 (Separ (None, 32, 32, 16)        91        
_________________________________________________________________
activation_2457 (Activation) (None, 32, 32, 16)        0         
_________________________________________________________________
dropout_2457 (Dropout)       (None, 32, 32, 16)        0         
_________________________________________________________________
separable_conv2d_2010 (Separ (None, 32, 32, 16)        416       
_________________________________________________________________
batch_normalization_1620 (Ba (None, 32, 32, 16)        64        
_________________________________________________________________
activation_2458 (Activation) (None, 32, 32, 16)        0         
_________________________________________________________________
dropout_2458 (Dropout)       (None, 32, 32, 16)        0         
_________________________________________________________________
separable_conv2d_2011 (Separ (None, 32, 32, 128)       2320      
_________________________________________________________________
batch_normalization_1621 (Ba (None, 32, 32, 128)       512       
_________________________________________________________________
activation_2459 (Activation) (None, 32, 32, 128)       0         
_________________________________________________________________
dropout_2459 (Dropout)       (None, 32, 32, 128)       0         
_________________________________________________________________
separable_conv2d_2012 (Separ (None, 32, 32, 128)       17664     
_________________________________________________________________
batch_normalization_1622 (Ba (None, 32, 32, 128)       512       
_________________________________________________________________
activation_2460 (Activation) (None, 32, 32, 128)       0         
_________________________________________________________________
dropout_2460 (Dropout)       (None, 32, 32, 128)       0         
_________________________________________________________________
max_pooling2d_570 (MaxPoolin (None, 16, 16, 128)       0         
_________________________________________________________________
flatten_334 (Flatten)        (None, 32768)             0         
_________________________________________________________________
dense_782 (Dense)            (None, 100)               3276900   
=================================================================
Total params: 3,298,479
Trainable params: 3,297,935
Non-trainable params: 544
_________________________________________________________________
