Model: "sequential_177"
_________________________________________________________________
Layer (type)                 Output Shape              Param #   
=================================================================
separable_conv2d_1141 (Separ (None, 32, 32, 16)        91        
_________________________________________________________________
activation_1485 (Activation) (None, 32, 32, 16)        0         
_________________________________________________________________
dropout_1485 (Dropout)       (None, 32, 32, 16)        0         
_________________________________________________________________
separable_conv2d_1142 (Separ (None, 32, 32, 16)        416       
_________________________________________________________________
activation_1486 (Activation) (None, 32, 32, 16)        0         
_________________________________________________________________
dropout_1486 (Dropout)       (None, 32, 32, 16)        0         
_________________________________________________________________
max_pooling2d_315 (MaxPoolin (None, 16, 16, 16)        0         
_________________________________________________________________
separable_conv2d_1143 (Separ (None, 16, 16, 64)        1232      
_________________________________________________________________
batch_normalization_924 (Bat (None, 16, 16, 64)        256       
_________________________________________________________________
activation_1487 (Activation) (None, 16, 16, 64)        0         
_________________________________________________________________
dropout_1487 (Dropout)       (None, 16, 16, 64)        0         
_________________________________________________________________
separable_conv2d_1144 (Separ (None, 16, 16, 32)        2656      
_________________________________________________________________
batch_normalization_925 (Bat (None, 16, 16, 32)        128       
_________________________________________________________________
activation_1488 (Activation) (None, 16, 16, 32)        0         
_________________________________________________________________
dropout_1488 (Dropout)       (None, 16, 16, 32)        0         
_________________________________________________________________
separable_conv2d_1145 (Separ (None, 16, 16, 512)       17184     
_________________________________________________________________
activation_1489 (Activation) (None, 16, 16, 512)       0         
_________________________________________________________________
dropout_1489 (Dropout)       (None, 16, 16, 512)       0         
_________________________________________________________________
separable_conv2d_1146 (Separ (None, 16, 16, 32)        21024     
_________________________________________________________________
batch_normalization_926 (Bat (None, 16, 16, 32)        128       
_________________________________________________________________
activation_1490 (Activation) (None, 16, 16, 32)        0         
_________________________________________________________________
dropout_1490 (Dropout)       (None, 16, 16, 32)        0         
_________________________________________________________________
max_pooling2d_316 (MaxPoolin (None, 8, 8, 32)          0         
_________________________________________________________________
flatten_177 (Flatten)        (None, 2048)              0         
_________________________________________________________________
dense_521 (Dense)            (None, 100)               204900    
=================================================================
Total params: 248,015
Trainable params: 247,759
Non-trainable params: 256
_________________________________________________________________
