Model: "sequential"
_________________________________________________________________
Layer (type)                 Output Shape              Param #   
=================================================================
separable_conv2d (SeparableC (None, 32, 32, 16)        91        
_________________________________________________________________
batch_normalization (BatchNo (None, 32, 32, 16)        64        
_________________________________________________________________
activation (Activation)      (None, 32, 32, 16)        0         
_________________________________________________________________
dropout (Dropout)            (None, 32, 32, 16)        0         
_________________________________________________________________
separable_conv2d_1 (Separabl (None, 32, 32, 512)       8848      
_________________________________________________________________
activation_1 (Activation)    (None, 32, 32, 512)       0         
_________________________________________________________________
dropout_1 (Dropout)          (None, 32, 32, 512)       0         
_________________________________________________________________
separable_conv2d_2 (Separabl (None, 32, 32, 32)        21024     
_________________________________________________________________
activation_2 (Activation)    (None, 32, 32, 32)        0         
_________________________________________________________________
dropout_2 (Dropout)          (None, 32, 32, 32)        0         
_________________________________________________________________
separable_conv2d_3 (Separabl (None, 32, 32, 8)         552       
_________________________________________________________________
activation_3 (Activation)    (None, 32, 32, 8)         0         
_________________________________________________________________
dropout_3 (Dropout)          (None, 32, 32, 8)         0         
_________________________________________________________________
separable_conv2d_4 (Separabl (None, 32, 32, 512)       4680      
_________________________________________________________________
batch_normalization_1 (Batch (None, 32, 32, 512)       2048      
_________________________________________________________________
activation_4 (Activation)    (None, 32, 32, 512)       0         
_________________________________________________________________
dropout_4 (Dropout)          (None, 32, 32, 512)       0         
_________________________________________________________________
separable_conv2d_5 (Separabl (None, 32, 32, 32)        21024     
_________________________________________________________________
activation_5 (Activation)    (None, 32, 32, 32)        0         
_________________________________________________________________
dropout_5 (Dropout)          (None, 32, 32, 32)        0         
_________________________________________________________________
flatten (Flatten)            (None, 32768)             0         
_________________________________________________________________
dense (Dense)                (None, 100)               3276900   
=================================================================
Total params: 3,335,231
Trainable params: 3,334,175
Non-trainable params: 1,056
_________________________________________________________________
