Model: "sequential_119"
_________________________________________________________________
Layer (type)                 Output Shape              Param #   
=================================================================
separable_conv2d_790 (Separa (None, 32, 32, 16)        91        
_________________________________________________________________
activation_1029 (Activation) (None, 32, 32, 16)        0         
_________________________________________________________________
dropout_1029 (Dropout)       (None, 32, 32, 16)        0         
_________________________________________________________________
separable_conv2d_791 (Separa (None, 32, 32, 16)        416       
_________________________________________________________________
batch_normalization_635 (Bat (None, 32, 32, 16)        64        
_________________________________________________________________
activation_1030 (Activation) (None, 32, 32, 16)        0         
_________________________________________________________________
dropout_1030 (Dropout)       (None, 32, 32, 16)        0         
_________________________________________________________________
separable_conv2d_792 (Separa (None, 32, 32, 8)         280       
_________________________________________________________________
activation_1031 (Activation) (None, 32, 32, 8)         0         
_________________________________________________________________
dropout_1031 (Dropout)       (None, 32, 32, 8)         0         
_________________________________________________________________
separable_conv2d_793 (Separa (None, 32, 32, 16)        216       
_________________________________________________________________
batch_normalization_636 (Bat (None, 32, 32, 16)        64        
_________________________________________________________________
activation_1032 (Activation) (None, 32, 32, 16)        0         
_________________________________________________________________
dropout_1032 (Dropout)       (None, 32, 32, 16)        0         
_________________________________________________________________
separable_conv2d_794 (Separa (None, 32, 32, 32)        688       
_________________________________________________________________
batch_normalization_637 (Bat (None, 32, 32, 32)        128       
_________________________________________________________________
activation_1033 (Activation) (None, 32, 32, 32)        0         
_________________________________________________________________
dropout_1033 (Dropout)       (None, 32, 32, 32)        0         
_________________________________________________________________
separable_conv2d_795 (Separa (None, 32, 32, 512)       17184     
_________________________________________________________________
activation_1034 (Activation) (None, 32, 32, 512)       0         
_________________________________________________________________
dropout_1034 (Dropout)       (None, 32, 32, 512)       0         
_________________________________________________________________
separable_conv2d_796 (Separa (None, 32, 32, 32)        21024     
_________________________________________________________________
batch_normalization_638 (Bat (None, 32, 32, 32)        128       
_________________________________________________________________
activation_1035 (Activation) (None, 32, 32, 32)        0         
_________________________________________________________________
dropout_1035 (Dropout)       (None, 32, 32, 32)        0         
_________________________________________________________________
max_pooling2d_222 (MaxPoolin (None, 16, 16, 32)        0         
_________________________________________________________________
separable_conv2d_797 (Separa (None, 16, 16, 128)       4512      
_________________________________________________________________
batch_normalization_639 (Bat (None, 16, 16, 128)       512       
_________________________________________________________________
activation_1036 (Activation) (None, 16, 16, 128)       0         
_________________________________________________________________
dropout_1036 (Dropout)       (None, 16, 16, 128)       0         
_________________________________________________________________
max_pooling2d_223 (MaxPoolin (None, 8, 8, 128)         0         
_________________________________________________________________
flatten_119 (Flatten)        (None, 8192)              0         
_________________________________________________________________
dense_358 (Dense)            (None, 100)               819300    
=================================================================
Total params: 864,607
Trainable params: 864,159
Non-trainable params: 448
_________________________________________________________________
