Model: "sequential_199"
_________________________________________________________________
Layer (type)                 Output Shape              Param #   
=================================================================
separable_conv2d_1277 (Separ (None, 32, 32, 64)        283       
_________________________________________________________________
batch_normalization_1032 (Ba (None, 32, 32, 64)        256       
_________________________________________________________________
activation_1650 (Activation) (None, 32, 32, 64)        0         
_________________________________________________________________
dropout_1650 (Dropout)       (None, 32, 32, 64)        0         
_________________________________________________________________
separable_conv2d_1278 (Separ (None, 32, 32, 16)        1616      
_________________________________________________________________
batch_normalization_1033 (Ba (None, 32, 32, 16)        64        
_________________________________________________________________
activation_1651 (Activation) (None, 32, 32, 16)        0         
_________________________________________________________________
dropout_1651 (Dropout)       (None, 32, 32, 16)        0         
_________________________________________________________________
separable_conv2d_1279 (Separ (None, 32, 32, 128)       2320      
_________________________________________________________________
batch_normalization_1034 (Ba (None, 32, 32, 128)       512       
_________________________________________________________________
activation_1652 (Activation) (None, 32, 32, 128)       0         
_________________________________________________________________
dropout_1652 (Dropout)       (None, 32, 32, 128)       0         
_________________________________________________________________
separable_conv2d_1280 (Separ (None, 32, 32, 512)       67200     
_________________________________________________________________
activation_1653 (Activation) (None, 32, 32, 512)       0         
_________________________________________________________________
dropout_1653 (Dropout)       (None, 32, 32, 512)       0         
_________________________________________________________________
max_pooling2d_352 (MaxPoolin (None, 16, 16, 512)       0         
_________________________________________________________________
separable_conv2d_1281 (Separ (None, 16, 16, 64)        37440     
_________________________________________________________________
activation_1654 (Activation) (None, 16, 16, 64)        0         
_________________________________________________________________
dropout_1654 (Dropout)       (None, 16, 16, 64)        0         
_________________________________________________________________
max_pooling2d_353 (MaxPoolin (None, 8, 8, 64)          0         
_________________________________________________________________
separable_conv2d_1282 (Separ (None, 8, 8, 128)         8896      
_________________________________________________________________
batch_normalization_1035 (Ba (None, 8, 8, 128)         512       
_________________________________________________________________
activation_1655 (Activation) (None, 8, 8, 128)         0         
_________________________________________________________________
dropout_1655 (Dropout)       (None, 8, 8, 128)         0         
_________________________________________________________________
flatten_199 (Flatten)        (None, 8192)              0         
_________________________________________________________________
dense_572 (Dense)            (None, 512)               4194816   
_________________________________________________________________
activation_1656 (Activation) (None, 512)               0         
_________________________________________________________________
dropout_1656 (Dropout)       (None, 512)               0         
_________________________________________________________________
dense_573 (Dense)            (None, 512)               262656    
_________________________________________________________________
batch_normalization_1036 (Ba (None, 512)               2048      
_________________________________________________________________
activation_1657 (Activation) (None, 512)               0         
_________________________________________________________________
dropout_1657 (Dropout)       (None, 512)               0         
_________________________________________________________________
dense_574 (Dense)            (None, 100)               51300     
=================================================================
Total params: 4,629,919
Trainable params: 4,628,223
Non-trainable params: 1,696
_________________________________________________________________
