Model: "sequential_300"
_________________________________________________________________
Layer (type)                 Output Shape              Param #   
=================================================================
separable_conv2d_1847 (Separ (None, 32, 32, 64)        283       
_________________________________________________________________
batch_normalization_1483 (Ba (None, 32, 32, 64)        256       
_________________________________________________________________
activation_2285 (Activation) (None, 32, 32, 64)        0         
_________________________________________________________________
dropout_2285 (Dropout)       (None, 32, 32, 64)        0         
_________________________________________________________________
separable_conv2d_1848 (Separ (None, 32, 32, 128)       8896      
_________________________________________________________________
batch_normalization_1484 (Ba (None, 32, 32, 128)       512       
_________________________________________________________________
activation_2286 (Activation) (None, 32, 32, 128)       0         
_________________________________________________________________
dropout_2286 (Dropout)       (None, 32, 32, 128)       0         
_________________________________________________________________
separable_conv2d_1849 (Separ (None, 32, 32, 256)       34176     
_________________________________________________________________
activation_2287 (Activation) (None, 32, 32, 256)       0         
_________________________________________________________________
dropout_2287 (Dropout)       (None, 32, 32, 256)       0         
_________________________________________________________________
max_pooling2d_512 (MaxPoolin (None, 16, 16, 256)       0         
_________________________________________________________________
separable_conv2d_1850 (Separ (None, 16, 16, 32)        10528     
_________________________________________________________________
batch_normalization_1485 (Ba (None, 16, 16, 32)        128       
_________________________________________________________________
activation_2288 (Activation) (None, 16, 16, 32)        0         
_________________________________________________________________
dropout_2288 (Dropout)       (None, 16, 16, 32)        0         
_________________________________________________________________
max_pooling2d_513 (MaxPoolin (None, 8, 8, 32)          0         
_________________________________________________________________
flatten_300 (Flatten)        (None, 2048)              0         
_________________________________________________________________
dense_738 (Dense)            (None, 256)               524544    
_________________________________________________________________
batch_normalization_1486 (Ba (None, 256)               1024      
_________________________________________________________________
activation_2289 (Activation) (None, 256)               0         
_________________________________________________________________
dropout_2289 (Dropout)       (None, 256)               0         
_________________________________________________________________
dense_739 (Dense)            (None, 100)               25700     
=================================================================
Total params: 606,047
Trainable params: 605,087
Non-trainable params: 960
_________________________________________________________________
