Model: "sequential_279"
_________________________________________________________________
Layer (type)                 Output Shape              Param #   
=================================================================
separable_conv2d_1740 (Separ (None, 32, 32, 64)        283       
_________________________________________________________________
batch_normalization_1393 (Ba (None, 32, 32, 64)        256       
_________________________________________________________________
activation_2165 (Activation) (None, 32, 32, 64)        0         
_________________________________________________________________
dropout_2165 (Dropout)       (None, 32, 32, 64)        0         
_________________________________________________________________
separable_conv2d_1741 (Separ (None, 32, 32, 16)        1616      
_________________________________________________________________
batch_normalization_1394 (Ba (None, 32, 32, 16)        64        
_________________________________________________________________
activation_2166 (Activation) (None, 32, 32, 16)        0         
_________________________________________________________________
dropout_2166 (Dropout)       (None, 32, 32, 16)        0         
_________________________________________________________________
separable_conv2d_1742 (Separ (None, 32, 32, 128)       2320      
_________________________________________________________________
batch_normalization_1395 (Ba (None, 32, 32, 128)       512       
_________________________________________________________________
activation_2167 (Activation) (None, 32, 32, 128)       0         
_________________________________________________________________
dropout_2167 (Dropout)       (None, 32, 32, 128)       0         
_________________________________________________________________
separable_conv2d_1743 (Separ (None, 32, 32, 512)       67200     
_________________________________________________________________
activation_2168 (Activation) (None, 32, 32, 512)       0         
_________________________________________________________________
dropout_2168 (Dropout)       (None, 32, 32, 512)       0         
_________________________________________________________________
max_pooling2d_483 (MaxPoolin (None, 16, 16, 512)       0         
_________________________________________________________________
separable_conv2d_1744 (Separ (None, 16, 16, 256)       135936    
_________________________________________________________________
batch_normalization_1396 (Ba (None, 16, 16, 256)       1024      
_________________________________________________________________
activation_2169 (Activation) (None, 16, 16, 256)       0         
_________________________________________________________________
dropout_2169 (Dropout)       (None, 16, 16, 256)       0         
_________________________________________________________________
max_pooling2d_484 (MaxPoolin (None, 8, 8, 256)         0         
_________________________________________________________________
flatten_279 (Flatten)        (None, 16384)             0         
_________________________________________________________________
dense_704 (Dense)            (None, 256)               4194560   
_________________________________________________________________
batch_normalization_1397 (Ba (None, 256)               1024      
_________________________________________________________________
activation_2170 (Activation) (None, 256)               0         
_________________________________________________________________
dropout_2170 (Dropout)       (None, 256)               0         
_________________________________________________________________
dense_705 (Dense)            (None, 100)               25700     
=================================================================
Total params: 4,430,495
Trainable params: 4,429,055
Non-trainable params: 1,440
_________________________________________________________________
