Model: "sequential_319"
_________________________________________________________________
Layer (type)                 Output Shape              Param #   
=================================================================
separable_conv2d_1939 (Separ (None, 32, 32, 16)        91        
_________________________________________________________________
activation_2384 (Activation) (None, 32, 32, 16)        0         
_________________________________________________________________
dropout_2384 (Dropout)       (None, 32, 32, 16)        0         
_________________________________________________________________
separable_conv2d_1940 (Separ (None, 32, 32, 16)        416       
_________________________________________________________________
batch_normalization_1561 (Ba (None, 32, 32, 16)        64        
_________________________________________________________________
activation_2385 (Activation) (None, 32, 32, 16)        0         
_________________________________________________________________
dropout_2385 (Dropout)       (None, 32, 32, 16)        0         
_________________________________________________________________
separable_conv2d_1941 (Separ (None, 32, 32, 128)       2320      
_________________________________________________________________
batch_normalization_1562 (Ba (None, 32, 32, 128)       512       
_________________________________________________________________
activation_2386 (Activation) (None, 32, 32, 128)       0         
_________________________________________________________________
dropout_2386 (Dropout)       (None, 32, 32, 128)       0         
_________________________________________________________________
separable_conv2d_1942 (Separ (None, 32, 32, 128)       17664     
_________________________________________________________________
batch_normalization_1563 (Ba (None, 32, 32, 128)       512       
_________________________________________________________________
activation_2387 (Activation) (None, 32, 32, 128)       0         
_________________________________________________________________
dropout_2387 (Dropout)       (None, 32, 32, 128)       0         
_________________________________________________________________
max_pooling2d_543 (MaxPoolin (None, 16, 16, 128)       0         
_________________________________________________________________
flatten_319 (Flatten)        (None, 32768)             0         
_________________________________________________________________
dense_764 (Dense)            (None, 100)               3276900   
=================================================================
Total params: 3,298,479
Trainable params: 3,297,935
Non-trainable params: 544
_________________________________________________________________
