Model: "sequential_314"
_________________________________________________________________
Layer (type)                 Output Shape              Param #   
=================================================================
separable_conv2d_1916 (Separ (None, 32, 32, 64)        283       
_________________________________________________________________
batch_normalization_1541 (Ba (None, 32, 32, 64)        256       
_________________________________________________________________
activation_2360 (Activation) (None, 32, 32, 64)        0         
_________________________________________________________________
dropout_2360 (Dropout)       (None, 32, 32, 64)        0         
_________________________________________________________________
separable_conv2d_1917 (Separ (None, 32, 32, 1024)      67136     
_________________________________________________________________
batch_normalization_1542 (Ba (None, 32, 32, 1024)      4096      
_________________________________________________________________
activation_2361 (Activation) (None, 32, 32, 1024)      0         
_________________________________________________________________
dropout_2361 (Dropout)       (None, 32, 32, 1024)      0         
_________________________________________________________________
separable_conv2d_1918 (Separ (None, 32, 32, 128)       140416    
_________________________________________________________________
batch_normalization_1543 (Ba (None, 32, 32, 128)       512       
_________________________________________________________________
activation_2362 (Activation) (None, 32, 32, 128)       0         
_________________________________________________________________
dropout_2362 (Dropout)       (None, 32, 32, 128)       0         
_________________________________________________________________
separable_conv2d_1919 (Separ (None, 32, 32, 512)       67200     
_________________________________________________________________
activation_2363 (Activation) (None, 32, 32, 512)       0         
_________________________________________________________________
dropout_2363 (Dropout)       (None, 32, 32, 512)       0         
_________________________________________________________________
separable_conv2d_1920 (Separ (None, 32, 32, 32)        21024     
_________________________________________________________________
batch_normalization_1544 (Ba (None, 32, 32, 32)        128       
_________________________________________________________________
activation_2364 (Activation) (None, 32, 32, 32)        0         
_________________________________________________________________
dropout_2364 (Dropout)       (None, 32, 32, 32)        0         
_________________________________________________________________
max_pooling2d_534 (MaxPoolin (None, 16, 16, 32)        0         
_________________________________________________________________
flatten_314 (Flatten)        (None, 8192)              0         
_________________________________________________________________
dense_758 (Dense)            (None, 512)               4194816   
_________________________________________________________________
batch_normalization_1545 (Ba (None, 512)               2048      
_________________________________________________________________
activation_2365 (Activation) (None, 512)               0         
_________________________________________________________________
dropout_2365 (Dropout)       (None, 512)               0         
_________________________________________________________________
dense_759 (Dense)            (None, 100)               51300     
=================================================================
Total params: 4,549,215
Trainable params: 4,545,695
Non-trainable params: 3,520
_________________________________________________________________
