Model: "sequential_170"
_________________________________________________________________
Layer (type)                 Output Shape              Param #   
=================================================================
separable_conv2d_1097 (Separ (None, 32, 32, 64)        283       
_________________________________________________________________
batch_normalization_889 (Bat (None, 32, 32, 64)        256       
_________________________________________________________________
activation_1431 (Activation) (None, 32, 32, 64)        0         
_________________________________________________________________
dropout_1431 (Dropout)       (None, 32, 32, 64)        0         
_________________________________________________________________
separable_conv2d_1098 (Separ (None, 32, 32, 16)        1616      
_________________________________________________________________
batch_normalization_890 (Bat (None, 32, 32, 16)        64        
_________________________________________________________________
activation_1432 (Activation) (None, 32, 32, 16)        0         
_________________________________________________________________
dropout_1432 (Dropout)       (None, 32, 32, 16)        0         
_________________________________________________________________
separable_conv2d_1099 (Separ (None, 32, 32, 128)       2320      
_________________________________________________________________
batch_normalization_891 (Bat (None, 32, 32, 128)       512       
_________________________________________________________________
activation_1433 (Activation) (None, 32, 32, 128)       0         
_________________________________________________________________
dropout_1433 (Dropout)       (None, 32, 32, 128)       0         
_________________________________________________________________
separable_conv2d_1100 (Separ (None, 32, 32, 512)       67200     
_________________________________________________________________
activation_1434 (Activation) (None, 32, 32, 512)       0         
_________________________________________________________________
dropout_1434 (Dropout)       (None, 32, 32, 512)       0         
_________________________________________________________________
max_pooling2d_305 (MaxPoolin (None, 16, 16, 512)       0         
_________________________________________________________________
separable_conv2d_1101 (Separ (None, 16, 16, 256)       135936    
_________________________________________________________________
batch_normalization_892 (Bat (None, 16, 16, 256)       1024      
_________________________________________________________________
activation_1435 (Activation) (None, 16, 16, 256)       0         
_________________________________________________________________
dropout_1435 (Dropout)       (None, 16, 16, 256)       0         
_________________________________________________________________
max_pooling2d_306 (MaxPoolin (None, 8, 8, 256)         0         
_________________________________________________________________
separable_conv2d_1102 (Separ (None, 8, 8, 128)         35200     
_________________________________________________________________
batch_normalization_893 (Bat (None, 8, 8, 128)         512       
_________________________________________________________________
activation_1436 (Activation) (None, 8, 8, 128)         0         
_________________________________________________________________
dropout_1436 (Dropout)       (None, 8, 8, 128)         0         
_________________________________________________________________
flatten_170 (Flatten)        (None, 8192)              0         
_________________________________________________________________
dense_504 (Dense)            (None, 512)               4194816   
_________________________________________________________________
activation_1437 (Activation) (None, 512)               0         
_________________________________________________________________
dropout_1437 (Dropout)       (None, 512)               0         
_________________________________________________________________
dense_505 (Dense)            (None, 512)               262656    
_________________________________________________________________
batch_normalization_894 (Bat (None, 512)               2048      
_________________________________________________________________
activation_1438 (Activation) (None, 512)               0         
_________________________________________________________________
dropout_1438 (Dropout)       (None, 512)               0         
_________________________________________________________________
dense_506 (Dense)            (None, 100)               51300     
=================================================================
Total params: 4,755,743
Trainable params: 4,753,535
Non-trainable params: 2,208
_________________________________________________________________
