Model: "sequential_299"
_________________________________________________________________
Layer (type)                 Output Shape              Param #   
=================================================================
separable_conv2d_1842 (Separ (None, 32, 32, 16)        91        
_________________________________________________________________
activation_2280 (Activation) (None, 32, 32, 16)        0         
_________________________________________________________________
dropout_2280 (Dropout)       (None, 32, 32, 16)        0         
_________________________________________________________________
separable_conv2d_1843 (Separ (None, 32, 32, 16)        416       
_________________________________________________________________
batch_normalization_1480 (Ba (None, 32, 32, 16)        64        
_________________________________________________________________
activation_2281 (Activation) (None, 32, 32, 16)        0         
_________________________________________________________________
dropout_2281 (Dropout)       (None, 32, 32, 16)        0         
_________________________________________________________________
separable_conv2d_1844 (Separ (None, 32, 32, 128)       2320      
_________________________________________________________________
batch_normalization_1481 (Ba (None, 32, 32, 128)       512       
_________________________________________________________________
activation_2282 (Activation) (None, 32, 32, 128)       0         
_________________________________________________________________
dropout_2282 (Dropout)       (None, 32, 32, 128)       0         
_________________________________________________________________
separable_conv2d_1845 (Separ (None, 32, 32, 512)       67200     
_________________________________________________________________
activation_2283 (Activation) (None, 32, 32, 512)       0         
_________________________________________________________________
dropout_2283 (Dropout)       (None, 32, 32, 512)       0         
_________________________________________________________________
separable_conv2d_1846 (Separ (None, 32, 32, 256)       135936    
_________________________________________________________________
batch_normalization_1482 (Ba (None, 32, 32, 256)       1024      
_________________________________________________________________
activation_2284 (Activation) (None, 32, 32, 256)       0         
_________________________________________________________________
dropout_2284 (Dropout)       (None, 32, 32, 256)       0         
_________________________________________________________________
max_pooling2d_511 (MaxPoolin (None, 16, 16, 256)       0         
_________________________________________________________________
flatten_299 (Flatten)        (None, 65536)             0         
_________________________________________________________________
dense_737 (Dense)            (None, 100)               6553700   
=================================================================
Total params: 6,761,263
Trainable params: 6,760,463
Non-trainable params: 800
_________________________________________________________________
