Model: "sequential_275"
_________________________________________________________________
Layer (type)                 Output Shape              Param #   
=================================================================
separable_conv2d_1717 (Separ (None, 32, 32, 128)       539       
_________________________________________________________________
batch_normalization_1375 (Ba (None, 32, 32, 128)       512       
_________________________________________________________________
activation_2142 (Activation) (None, 32, 32, 128)       0         
_________________________________________________________________
dropout_2142 (Dropout)       (None, 32, 32, 128)       0         
_________________________________________________________________
separable_conv2d_1718 (Separ (None, 32, 32, 1024)      133248    
_________________________________________________________________
batch_normalization_1376 (Ba (None, 32, 32, 1024)      4096      
_________________________________________________________________
activation_2143 (Activation) (None, 32, 32, 1024)      0         
_________________________________________________________________
dropout_2143 (Dropout)       (None, 32, 32, 1024)      0         
_________________________________________________________________
separable_conv2d_1719 (Separ (None, 32, 32, 128)       140416    
_________________________________________________________________
batch_normalization_1377 (Ba (None, 32, 32, 128)       512       
_________________________________________________________________
activation_2144 (Activation) (None, 32, 32, 128)       0         
_________________________________________________________________
dropout_2144 (Dropout)       (None, 32, 32, 128)       0         
_________________________________________________________________
separable_conv2d_1720 (Separ (None, 32, 32, 512)       67200     
_________________________________________________________________
activation_2145 (Activation) (None, 32, 32, 512)       0         
_________________________________________________________________
dropout_2145 (Dropout)       (None, 32, 32, 512)       0         
_________________________________________________________________
separable_conv2d_1721 (Separ (None, 32, 32, 256)       135936    
_________________________________________________________________
batch_normalization_1378 (Ba (None, 32, 32, 256)       1024      
_________________________________________________________________
activation_2146 (Activation) (None, 32, 32, 256)       0         
_________________________________________________________________
dropout_2146 (Dropout)       (None, 32, 32, 256)       0         
_________________________________________________________________
max_pooling2d_476 (MaxPoolin (None, 16, 16, 256)       0         
_________________________________________________________________
flatten_275 (Flatten)        (None, 65536)             0         
_________________________________________________________________
dense_700 (Dense)            (None, 100)               6553700   
=================================================================
Total params: 7,037,183
Trainable params: 7,034,111
Non-trainable params: 3,072
_________________________________________________________________
