Model: "sequential_389"
_________________________________________________________________
Layer (type)                 Output Shape              Param #   
=================================================================
separable_conv2d_2267 (Separ (None, 32, 32, 16)        91        
_________________________________________________________________
activation_2725 (Activation) (None, 32, 32, 16)        0         
_________________________________________________________________
dropout_2725 (Dropout)       (None, 32, 32, 16)        0         
_________________________________________________________________
separable_conv2d_2268 (Separ (None, 32, 32, 1024)      17552     
_________________________________________________________________
batch_normalization_1845 (Ba (None, 32, 32, 1024)      4096      
_________________________________________________________________
activation_2726 (Activation) (None, 32, 32, 1024)      0         
_________________________________________________________________
dropout_2726 (Dropout)       (None, 32, 32, 1024)      0         
_________________________________________________________________
separable_conv2d_2269 (Separ (None, 32, 32, 128)       140416    
_________________________________________________________________
batch_normalization_1846 (Ba (None, 32, 32, 128)       512       
_________________________________________________________________
activation_2727 (Activation) (None, 32, 32, 128)       0         
_________________________________________________________________
dropout_2727 (Dropout)       (None, 32, 32, 128)       0         
_________________________________________________________________
separable_conv2d_2270 (Separ (None, 32, 32, 256)       34176     
_________________________________________________________________
batch_normalization_1847 (Ba (None, 32, 32, 256)       1024      
_________________________________________________________________
activation_2728 (Activation) (None, 32, 32, 256)       0         
_________________________________________________________________
dropout_2728 (Dropout)       (None, 32, 32, 256)       0         
_________________________________________________________________
max_pooling2d_670 (MaxPoolin (None, 16, 16, 256)       0         
_________________________________________________________________
separable_conv2d_2271 (Separ (None, 16, 16, 128)       35200     
_________________________________________________________________
batch_normalization_1848 (Ba (None, 16, 16, 128)       512       
_________________________________________________________________
activation_2729 (Activation) (None, 16, 16, 128)       0         
_________________________________________________________________
dropout_2729 (Dropout)       (None, 16, 16, 128)       0         
_________________________________________________________________
max_pooling2d_671 (MaxPoolin (None, 8, 8, 128)         0         
_________________________________________________________________
flatten_389 (Flatten)        (None, 8192)              0         
_________________________________________________________________
dense_847 (Dense)            (None, 100)               819300    
=================================================================
Total params: 1,052,879
Trainable params: 1,049,807
Non-trainable params: 3,072
_________________________________________________________________
