Model: "sequential_103"
_________________________________________________________________
Layer (type)                 Output Shape              Param #   
=================================================================
separable_conv2d_687 (Separa (None, 32, 32, 64)        283       
_________________________________________________________________
activation_899 (Activation)  (None, 32, 32, 64)        0         
_________________________________________________________________
dropout_899 (Dropout)        (None, 32, 32, 64)        0         
_________________________________________________________________
separable_conv2d_688 (Separa (None, 32, 32, 16)        1616      
_________________________________________________________________
batch_normalization_553 (Bat (None, 32, 32, 16)        64        
_________________________________________________________________
activation_900 (Activation)  (None, 32, 32, 16)        0         
_________________________________________________________________
dropout_900 (Dropout)        (None, 32, 32, 16)        0         
_________________________________________________________________
separable_conv2d_689 (Separa (None, 32, 32, 128)       2320      
_________________________________________________________________
batch_normalization_554 (Bat (None, 32, 32, 128)       512       
_________________________________________________________________
activation_901 (Activation)  (None, 32, 32, 128)       0         
_________________________________________________________________
dropout_901 (Dropout)        (None, 32, 32, 128)       0         
_________________________________________________________________
separable_conv2d_690 (Separa (None, 32, 32, 512)       67200     
_________________________________________________________________
activation_902 (Activation)  (None, 32, 32, 512)       0         
_________________________________________________________________
dropout_902 (Dropout)        (None, 32, 32, 512)       0         
_________________________________________________________________
max_pooling2d_191 (MaxPoolin (None, 16, 16, 512)       0         
_________________________________________________________________
separable_conv2d_691 (Separa (None, 16, 16, 256)       135936    
_________________________________________________________________
batch_normalization_555 (Bat (None, 16, 16, 256)       1024      
_________________________________________________________________
activation_903 (Activation)  (None, 16, 16, 256)       0         
_________________________________________________________________
dropout_903 (Dropout)        (None, 16, 16, 256)       0         
_________________________________________________________________
separable_conv2d_692 (Separa (None, 16, 16, 32)        10528     
_________________________________________________________________
batch_normalization_556 (Bat (None, 16, 16, 32)        128       
_________________________________________________________________
activation_904 (Activation)  (None, 16, 16, 32)        0         
_________________________________________________________________
dropout_904 (Dropout)        (None, 16, 16, 32)        0         
_________________________________________________________________
max_pooling2d_192 (MaxPoolin (None, 8, 8, 32)          0         
_________________________________________________________________
flatten_103 (Flatten)        (None, 2048)              0         
_________________________________________________________________
dense_315 (Dense)            (None, 256)               524544    
_________________________________________________________________
batch_normalization_557 (Bat (None, 256)               1024      
_________________________________________________________________
activation_905 (Activation)  (None, 256)               0         
_________________________________________________________________
dropout_905 (Dropout)        (None, 256)               0         
_________________________________________________________________
dense_316 (Dense)            (None, 256)               65792     
_________________________________________________________________
batch_normalization_558 (Bat (None, 256)               1024      
_________________________________________________________________
activation_906 (Activation)  (None, 256)               0         
_________________________________________________________________
dropout_906 (Dropout)        (None, 256)               0         
_________________________________________________________________
dense_317 (Dense)            (None, 64)                16448     
_________________________________________________________________
batch_normalization_559 (Bat (None, 64)                256       
_________________________________________________________________
activation_907 (Activation)  (None, 64)                0         
_________________________________________________________________
dropout_907 (Dropout)        (None, 64)                0         
_________________________________________________________________
dense_318 (Dense)            (None, 100)               6500      
=================================================================
Total params: 835,199
Trainable params: 833,183
Non-trainable params: 2,016
_________________________________________________________________
