Model: "sequential_273"
_________________________________________________________________
Layer (type)                 Output Shape              Param #   
=================================================================
separable_conv2d_1707 (Separ (None, 32, 32, 64)        283       
_________________________________________________________________
batch_normalization_1368 (Ba (None, 32, 32, 64)        256       
_________________________________________________________________
activation_2132 (Activation) (None, 32, 32, 64)        0         
_________________________________________________________________
dropout_2132 (Dropout)       (None, 32, 32, 64)        0         
_________________________________________________________________
separable_conv2d_1708 (Separ (None, 32, 32, 128)       8896      
_________________________________________________________________
batch_normalization_1369 (Ba (None, 32, 32, 128)       512       
_________________________________________________________________
activation_2133 (Activation) (None, 32, 32, 128)       0         
_________________________________________________________________
dropout_2133 (Dropout)       (None, 32, 32, 128)       0         
_________________________________________________________________
separable_conv2d_1709 (Separ (None, 32, 32, 64)        9408      
_________________________________________________________________
batch_normalization_1370 (Ba (None, 32, 32, 64)        256       
_________________________________________________________________
activation_2134 (Activation) (None, 32, 32, 64)        0         
_________________________________________________________________
dropout_2134 (Dropout)       (None, 32, 32, 64)        0         
_________________________________________________________________
separable_conv2d_1710 (Separ (None, 32, 32, 128)       8896      
_________________________________________________________________
batch_normalization_1371 (Ba (None, 32, 32, 128)       512       
_________________________________________________________________
activation_2135 (Activation) (None, 32, 32, 128)       0         
_________________________________________________________________
dropout_2135 (Dropout)       (None, 32, 32, 128)       0         
_________________________________________________________________
flatten_273 (Flatten)        (None, 131072)            0         
_________________________________________________________________
dense_698 (Dense)            (None, 100)               13107300  
=================================================================
Total params: 13,136,319
Trainable params: 13,135,551
Non-trainable params: 768
_________________________________________________________________
