Model: "sequential_322"
_________________________________________________________________
Layer (type)                 Output Shape              Param #   
=================================================================
separable_conv2d_1953 (Separ (None, 32, 32, 64)        283       
_________________________________________________________________
batch_normalization_1573 (Ba (None, 32, 32, 64)        256       
_________________________________________________________________
activation_2398 (Activation) (None, 32, 32, 64)        0         
_________________________________________________________________
dropout_2398 (Dropout)       (None, 32, 32, 64)        0         
_________________________________________________________________
separable_conv2d_1954 (Separ (None, 32, 32, 128)       8896      
_________________________________________________________________
batch_normalization_1574 (Ba (None, 32, 32, 128)       512       
_________________________________________________________________
activation_2399 (Activation) (None, 32, 32, 128)       0         
_________________________________________________________________
dropout_2399 (Dropout)       (None, 32, 32, 128)       0         
_________________________________________________________________
separable_conv2d_1955 (Separ (None, 32, 32, 128)       17664     
_________________________________________________________________
batch_normalization_1575 (Ba (None, 32, 32, 128)       512       
_________________________________________________________________
activation_2400 (Activation) (None, 32, 32, 128)       0         
_________________________________________________________________
dropout_2400 (Dropout)       (None, 32, 32, 128)       0         
_________________________________________________________________
max_pooling2d_548 (MaxPoolin (None, 16, 16, 128)       0         
_________________________________________________________________
flatten_322 (Flatten)        (None, 32768)             0         
_________________________________________________________________
dense_767 (Dense)            (None, 100)               3276900   
=================================================================
Total params: 3,305,023
Trainable params: 3,304,383
Non-trainable params: 640
_________________________________________________________________
