Model: "sequential_173"
_________________________________________________________________
Layer (type)                 Output Shape              Param #   
=================================================================
separable_conv2d_1113 (Separ (None, 32, 32, 16)        91        
_________________________________________________________________
activation_1454 (Activation) (None, 32, 32, 16)        0         
_________________________________________________________________
dropout_1454 (Dropout)       (None, 32, 32, 16)        0         
_________________________________________________________________
separable_conv2d_1114 (Separ (None, 32, 32, 128)       2320      
_________________________________________________________________
activation_1455 (Activation) (None, 32, 32, 128)       0         
_________________________________________________________________
dropout_1455 (Dropout)       (None, 32, 32, 128)       0         
_________________________________________________________________
separable_conv2d_1115 (Separ (None, 32, 32, 512)       67200     
_________________________________________________________________
activation_1456 (Activation) (None, 32, 32, 512)       0         
_________________________________________________________________
dropout_1456 (Dropout)       (None, 32, 32, 512)       0         
_________________________________________________________________
max_pooling2d_309 (MaxPoolin (None, 16, 16, 512)       0         
_________________________________________________________________
separable_conv2d_1116 (Separ (None, 16, 16, 256)       135936    
_________________________________________________________________
batch_normalization_905 (Bat (None, 16, 16, 256)       1024      
_________________________________________________________________
activation_1457 (Activation) (None, 16, 16, 256)       0         
_________________________________________________________________
dropout_1457 (Dropout)       (None, 16, 16, 256)       0         
_________________________________________________________________
max_pooling2d_310 (MaxPoolin (None, 8, 8, 256)         0         
_________________________________________________________________
separable_conv2d_1117 (Separ (None, 8, 8, 32)          10528     
_________________________________________________________________
batch_normalization_906 (Bat (None, 8, 8, 32)          128       
_________________________________________________________________
activation_1458 (Activation) (None, 8, 8, 32)          0         
_________________________________________________________________
dropout_1458 (Dropout)       (None, 8, 8, 32)          0         
_________________________________________________________________
separable_conv2d_1118 (Separ (None, 8, 8, 512)         17184     
_________________________________________________________________
activation_1459 (Activation) (None, 8, 8, 512)         0         
_________________________________________________________________
dropout_1459 (Dropout)       (None, 8, 8, 512)         0         
_________________________________________________________________
separable_conv2d_1119 (Separ (None, 8, 8, 32)          21024     
_________________________________________________________________
batch_normalization_907 (Bat (None, 8, 8, 32)          128       
_________________________________________________________________
activation_1460 (Activation) (None, 8, 8, 32)          0         
_________________________________________________________________
dropout_1460 (Dropout)       (None, 8, 8, 32)          0         
_________________________________________________________________
max_pooling2d_311 (MaxPoolin (None, 4, 4, 32)          0         
_________________________________________________________________
flatten_173 (Flatten)        (None, 512)               0         
_________________________________________________________________
dense_514 (Dense)            (None, 100)               51300     
=================================================================
Total params: 306,863
Trainable params: 306,223
Non-trainable params: 640
_________________________________________________________________
