Model: "sequential_84"
_________________________________________________________________
Layer (type)                 Output Shape              Param #   
=================================================================
separable_conv2d_566 (Separa (None, 32, 32, 16)        91        
_________________________________________________________________
activation_735 (Activation)  (None, 32, 32, 16)        0         
_________________________________________________________________
dropout_735 (Dropout)        (None, 32, 32, 16)        0         
_________________________________________________________________
separable_conv2d_567 (Separa (None, 32, 32, 16)        416       
_________________________________________________________________
batch_normalization_446 (Bat (None, 32, 32, 16)        64        
_________________________________________________________________
activation_736 (Activation)  (None, 32, 32, 16)        0         
_________________________________________________________________
dropout_736 (Dropout)        (None, 32, 32, 16)        0         
_________________________________________________________________
separable_conv2d_568 (Separa (None, 32, 32, 128)       2320      
_________________________________________________________________
batch_normalization_447 (Bat (None, 32, 32, 128)       512       
_________________________________________________________________
activation_737 (Activation)  (None, 32, 32, 128)       0         
_________________________________________________________________
dropout_737 (Dropout)        (None, 32, 32, 128)       0         
_________________________________________________________________
separable_conv2d_569 (Separa (None, 32, 32, 512)       67200     
_________________________________________________________________
activation_738 (Activation)  (None, 32, 32, 512)       0         
_________________________________________________________________
dropout_738 (Dropout)        (None, 32, 32, 512)       0         
_________________________________________________________________
max_pooling2d_159 (MaxPoolin (None, 16, 16, 512)       0         
_________________________________________________________________
separable_conv2d_570 (Separa (None, 16, 16, 256)       135936    
_________________________________________________________________
batch_normalization_448 (Bat (None, 16, 16, 256)       1024      
_________________________________________________________________
activation_739 (Activation)  (None, 16, 16, 256)       0         
_________________________________________________________________
dropout_739 (Dropout)        (None, 16, 16, 256)       0         
_________________________________________________________________
separable_conv2d_571 (Separa (None, 16, 16, 64)        18752     
_________________________________________________________________
activation_740 (Activation)  (None, 16, 16, 64)        0         
_________________________________________________________________
dropout_740 (Dropout)        (None, 16, 16, 64)        0         
_________________________________________________________________
max_pooling2d_160 (MaxPoolin (None, 8, 8, 64)          0         
_________________________________________________________________
flatten_84 (Flatten)         (None, 4096)              0         
_________________________________________________________________
dense_253 (Dense)            (None, 256)               1048832   
_________________________________________________________________
batch_normalization_449 (Bat (None, 256)               1024      
_________________________________________________________________
activation_741 (Activation)  (None, 256)               0         
_________________________________________________________________
dropout_741 (Dropout)        (None, 256)               0         
_________________________________________________________________
dense_254 (Dense)            (None, 256)               65792     
_________________________________________________________________
batch_normalization_450 (Bat (None, 256)               1024      
_________________________________________________________________
activation_742 (Activation)  (None, 256)               0         
_________________________________________________________________
dropout_742 (Dropout)        (None, 256)               0         
_________________________________________________________________
dense_255 (Dense)            (None, 64)                16448     
_________________________________________________________________
batch_normalization_451 (Bat (None, 64)                256       
_________________________________________________________________
activation_743 (Activation)  (None, 64)                0         
_________________________________________________________________
dropout_743 (Dropout)        (None, 64)                0         
_________________________________________________________________
dense_256 (Dense)            (None, 100)               6500      
=================================================================
Total params: 1,366,191
Trainable params: 1,364,239
Non-trainable params: 1,952
_________________________________________________________________
