Model: "sequential_228"
_________________________________________________________________
Layer (type)                 Output Shape              Param #   
=================================================================
separable_conv2d_1460 (Separ (None, 32, 32, 64)        283       
_________________________________________________________________
batch_normalization_1174 (Ba (None, 32, 32, 64)        256       
_________________________________________________________________
activation_1860 (Activation) (None, 32, 32, 64)        0         
_________________________________________________________________
dropout_1860 (Dropout)       (None, 32, 32, 64)        0         
_________________________________________________________________
separable_conv2d_1461 (Separ (None, 32, 32, 1024)      67136     
_________________________________________________________________
batch_normalization_1175 (Ba (None, 32, 32, 1024)      4096      
_________________________________________________________________
activation_1861 (Activation) (None, 32, 32, 1024)      0         
_________________________________________________________________
dropout_1861 (Dropout)       (None, 32, 32, 1024)      0         
_________________________________________________________________
separable_conv2d_1462 (Separ (None, 32, 32, 8)         17416     
_________________________________________________________________
activation_1862 (Activation) (None, 32, 32, 8)         0         
_________________________________________________________________
dropout_1862 (Dropout)       (None, 32, 32, 8)         0         
_________________________________________________________________
separable_conv2d_1463 (Separ (None, 32, 32, 16)        216       
_________________________________________________________________
batch_normalization_1176 (Ba (None, 32, 32, 16)        64        
_________________________________________________________________
activation_1863 (Activation) (None, 32, 32, 16)        0         
_________________________________________________________________
dropout_1863 (Dropout)       (None, 32, 32, 16)        0         
_________________________________________________________________
separable_conv2d_1464 (Separ (None, 32, 32, 256)       4496      
_________________________________________________________________
batch_normalization_1177 (Ba (None, 32, 32, 256)       1024      
_________________________________________________________________
activation_1864 (Activation) (None, 32, 32, 256)       0         
_________________________________________________________________
dropout_1864 (Dropout)       (None, 32, 32, 256)       0         
_________________________________________________________________
max_pooling2d_403 (MaxPoolin (None, 16, 16, 256)       0         
_________________________________________________________________
flatten_228 (Flatten)        (None, 65536)             0         
_________________________________________________________________
dense_628 (Dense)            (None, 256)               16777472  
_________________________________________________________________
batch_normalization_1178 (Ba (None, 256)               1024      
_________________________________________________________________
activation_1865 (Activation) (None, 256)               0         
_________________________________________________________________
dropout_1865 (Dropout)       (None, 256)               0         
_________________________________________________________________
dense_629 (Dense)            (None, 256)               65792     
_________________________________________________________________
batch_normalization_1179 (Ba (None, 256)               1024      
_________________________________________________________________
activation_1866 (Activation) (None, 256)               0         
_________________________________________________________________
dropout_1866 (Dropout)       (None, 256)               0         
_________________________________________________________________
dense_630 (Dense)            (None, 64)                16448     
_________________________________________________________________
batch_normalization_1180 (Ba (None, 64)                256       
_________________________________________________________________
activation_1867 (Activation) (None, 64)                0         
_________________________________________________________________
dropout_1867 (Dropout)       (None, 64)                0         
_________________________________________________________________
dense_631 (Dense)            (None, 100)               6500      
=================================================================
Total params: 16,963,503
Trainable params: 16,959,631
Non-trainable params: 3,872
_________________________________________________________________
