Model: "sequential_336"
_________________________________________________________________
Layer (type)                 Output Shape              Param #   
=================================================================
separable_conv2d_2019 (Separ (None, 32, 32, 16)        91        
_________________________________________________________________
activation_2467 (Activation) (None, 32, 32, 16)        0         
_________________________________________________________________
dropout_2467 (Dropout)       (None, 32, 32, 16)        0         
_________________________________________________________________
separable_conv2d_2020 (Separ (None, 32, 32, 512)       8848      
_________________________________________________________________
batch_normalization_1627 (Ba (None, 32, 32, 512)       2048      
_________________________________________________________________
activation_2468 (Activation) (None, 32, 32, 512)       0         
_________________________________________________________________
dropout_2468 (Dropout)       (None, 32, 32, 512)       0         
_________________________________________________________________
separable_conv2d_2021 (Separ (None, 32, 32, 512)       267264    
_________________________________________________________________
activation_2469 (Activation) (None, 32, 32, 512)       0         
_________________________________________________________________
dropout_2469 (Dropout)       (None, 32, 32, 512)       0         
_________________________________________________________________
separable_conv2d_2022 (Separ (None, 32, 32, 32)        21024     
_________________________________________________________________
batch_normalization_1628 (Ba (None, 32, 32, 32)        128       
_________________________________________________________________
activation_2470 (Activation) (None, 32, 32, 32)        0         
_________________________________________________________________
dropout_2470 (Dropout)       (None, 32, 32, 32)        0         
_________________________________________________________________
max_pooling2d_574 (MaxPoolin (None, 16, 16, 32)        0         
_________________________________________________________________
flatten_336 (Flatten)        (None, 8192)              0         
_________________________________________________________________
dense_784 (Dense)            (None, 512)               4194816   
_________________________________________________________________
batch_normalization_1629 (Ba (None, 512)               2048      
_________________________________________________________________
activation_2471 (Activation) (None, 512)               0         
_________________________________________________________________
dropout_2471 (Dropout)       (None, 512)               0         
_________________________________________________________________
dense_785 (Dense)            (None, 100)               51300     
=================================================================
Total params: 4,547,567
Trainable params: 4,545,455
Non-trainable params: 2,112
_________________________________________________________________
