Model: "sequential_233"
_________________________________________________________________
Layer (type)                 Output Shape              Param #   
=================================================================
separable_conv2d_1490 (Separ (None, 32, 32, 16)        91        
_________________________________________________________________
activation_1897 (Activation) (None, 32, 32, 16)        0         
_________________________________________________________________
dropout_1897 (Dropout)       (None, 32, 32, 16)        0         
_________________________________________________________________
separable_conv2d_1491 (Separ (None, 32, 32, 16)        416       
_________________________________________________________________
batch_normalization_1199 (Ba (None, 32, 32, 16)        64        
_________________________________________________________________
activation_1898 (Activation) (None, 32, 32, 16)        0         
_________________________________________________________________
dropout_1898 (Dropout)       (None, 32, 32, 16)        0         
_________________________________________________________________
separable_conv2d_1492 (Separ (None, 32, 32, 128)       2320      
_________________________________________________________________
batch_normalization_1200 (Ba (None, 32, 32, 128)       512       
_________________________________________________________________
activation_1899 (Activation) (None, 32, 32, 128)       0         
_________________________________________________________________
dropout_1899 (Dropout)       (None, 32, 32, 128)       0         
_________________________________________________________________
separable_conv2d_1493 (Separ (None, 32, 32, 512)       67200     
_________________________________________________________________
activation_1900 (Activation) (None, 32, 32, 512)       0         
_________________________________________________________________
dropout_1900 (Dropout)       (None, 32, 32, 512)       0         
_________________________________________________________________
max_pooling2d_411 (MaxPoolin (None, 16, 16, 512)       0         
_________________________________________________________________
separable_conv2d_1494 (Separ (None, 16, 16, 256)       135936    
_________________________________________________________________
batch_normalization_1201 (Ba (None, 16, 16, 256)       1024      
_________________________________________________________________
activation_1901 (Activation) (None, 16, 16, 256)       0         
_________________________________________________________________
dropout_1901 (Dropout)       (None, 16, 16, 256)       0         
_________________________________________________________________
max_pooling2d_412 (MaxPoolin (None, 8, 8, 256)         0         
_________________________________________________________________
separable_conv2d_1495 (Separ (None, 8, 8, 128)         35200     
_________________________________________________________________
batch_normalization_1202 (Ba (None, 8, 8, 128)         512       
_________________________________________________________________
activation_1902 (Activation) (None, 8, 8, 128)         0         
_________________________________________________________________
dropout_1902 (Dropout)       (None, 8, 8, 128)         0         
_________________________________________________________________
flatten_233 (Flatten)        (None, 8192)              0         
_________________________________________________________________
dense_640 (Dense)            (None, 256)               2097408   
_________________________________________________________________
batch_normalization_1203 (Ba (None, 256)               1024      
_________________________________________________________________
activation_1903 (Activation) (None, 256)               0         
_________________________________________________________________
dropout_1903 (Dropout)       (None, 256)               0         
_________________________________________________________________
dense_641 (Dense)            (None, 100)               25700     
=================================================================
Total params: 2,367,407
Trainable params: 2,365,839
Non-trainable params: 1,568
_________________________________________________________________
