Model: "sequential_213"
_________________________________________________________________
Layer (type)                 Output Shape              Param #   
=================================================================
separable_conv2d_1363 (Separ (None, 32, 32, 16)        91        
_________________________________________________________________
activation_1756 (Activation) (None, 32, 32, 16)        0         
_________________________________________________________________
dropout_1756 (Dropout)       (None, 32, 32, 16)        0         
_________________________________________________________________
separable_conv2d_1364 (Separ (None, 32, 32, 16)        416       
_________________________________________________________________
batch_normalization_1104 (Ba (None, 32, 32, 16)        64        
_________________________________________________________________
activation_1757 (Activation) (None, 32, 32, 16)        0         
_________________________________________________________________
dropout_1757 (Dropout)       (None, 32, 32, 16)        0         
_________________________________________________________________
separable_conv2d_1365 (Separ (None, 32, 32, 128)       2320      
_________________________________________________________________
batch_normalization_1105 (Ba (None, 32, 32, 128)       512       
_________________________________________________________________
activation_1758 (Activation) (None, 32, 32, 128)       0         
_________________________________________________________________
dropout_1758 (Dropout)       (None, 32, 32, 128)       0         
_________________________________________________________________
separable_conv2d_1366 (Separ (None, 32, 32, 512)       67200     
_________________________________________________________________
activation_1759 (Activation) (None, 32, 32, 512)       0         
_________________________________________________________________
dropout_1759 (Dropout)       (None, 32, 32, 512)       0         
_________________________________________________________________
separable_conv2d_1367 (Separ (None, 32, 32, 16)        12816     
_________________________________________________________________
batch_normalization_1106 (Ba (None, 32, 32, 16)        64        
_________________________________________________________________
activation_1760 (Activation) (None, 32, 32, 16)        0         
_________________________________________________________________
dropout_1760 (Dropout)       (None, 32, 32, 16)        0         
_________________________________________________________________
separable_conv2d_1368 (Separ (None, 32, 32, 32)        688       
_________________________________________________________________
batch_normalization_1107 (Ba (None, 32, 32, 32)        128       
_________________________________________________________________
activation_1761 (Activation) (None, 32, 32, 32)        0         
_________________________________________________________________
dropout_1761 (Dropout)       (None, 32, 32, 32)        0         
_________________________________________________________________
separable_conv2d_1369 (Separ (None, 32, 32, 512)       17184     
_________________________________________________________________
activation_1762 (Activation) (None, 32, 32, 512)       0         
_________________________________________________________________
dropout_1762 (Dropout)       (None, 32, 32, 512)       0         
_________________________________________________________________
separable_conv2d_1370 (Separ (None, 32, 32, 32)        21024     
_________________________________________________________________
batch_normalization_1108 (Ba (None, 32, 32, 32)        128       
_________________________________________________________________
activation_1763 (Activation) (None, 32, 32, 32)        0         
_________________________________________________________________
dropout_1763 (Dropout)       (None, 32, 32, 32)        0         
_________________________________________________________________
max_pooling2d_376 (MaxPoolin (None, 16, 16, 32)        0         
_________________________________________________________________
flatten_213 (Flatten)        (None, 8192)              0         
_________________________________________________________________
dense_606 (Dense)            (None, 512)               4194816   
_________________________________________________________________
batch_normalization_1109 (Ba (None, 512)               2048      
_________________________________________________________________
activation_1764 (Activation) (None, 512)               0         
_________________________________________________________________
dropout_1764 (Dropout)       (None, 512)               0         
_________________________________________________________________
dense_607 (Dense)            (None, 100)               51300     
=================================================================
Total params: 4,370,799
Trainable params: 4,369,327
Non-trainable params: 1,472
_________________________________________________________________
