Model: "sequential_330"
_________________________________________________________________
Layer (type)                 Output Shape              Param #   
=================================================================
separable_conv2d_1991 (Separ (None, 32, 32, 64)        283       
_________________________________________________________________
batch_normalization_1603 (Ba (None, 32, 32, 64)        256       
_________________________________________________________________
activation_2438 (Activation) (None, 32, 32, 64)        0         
_________________________________________________________________
dropout_2438 (Dropout)       (None, 32, 32, 64)        0         
_________________________________________________________________
separable_conv2d_1992 (Separ (None, 32, 32, 1024)      67136     
_________________________________________________________________
batch_normalization_1604 (Ba (None, 32, 32, 1024)      4096      
_________________________________________________________________
activation_2439 (Activation) (None, 32, 32, 1024)      0         
_________________________________________________________________
dropout_2439 (Dropout)       (None, 32, 32, 1024)      0         
_________________________________________________________________
separable_conv2d_1993 (Separ (None, 32, 32, 256)       271616    
_________________________________________________________________
batch_normalization_1605 (Ba (None, 32, 32, 256)       1024      
_________________________________________________________________
activation_2440 (Activation) (None, 32, 32, 256)       0         
_________________________________________________________________
dropout_2440 (Dropout)       (None, 32, 32, 256)       0         
_________________________________________________________________
max_pooling2d_562 (MaxPoolin (None, 16, 16, 256)       0         
_________________________________________________________________
separable_conv2d_1994 (Separ (None, 16, 16, 128)       35200     
_________________________________________________________________
batch_normalization_1606 (Ba (None, 16, 16, 128)       512       
_________________________________________________________________
activation_2441 (Activation) (None, 16, 16, 128)       0         
_________________________________________________________________
dropout_2441 (Dropout)       (None, 16, 16, 128)       0         
_________________________________________________________________
max_pooling2d_563 (MaxPoolin (None, 8, 8, 128)         0         
_________________________________________________________________
flatten_330 (Flatten)        (None, 8192)              0         
_________________________________________________________________
dense_777 (Dense)            (None, 100)               819300    
=================================================================
Total params: 1,199,423
Trainable params: 1,196,479
Non-trainable params: 2,944
_________________________________________________________________
