Model: "sequential_46"
_________________________________________________________________
Layer (type)                 Output Shape              Param #   
=================================================================
separable_conv2d_324 (Separa (None, 32, 32, 16)        91        
_________________________________________________________________
activation_420 (Activation)  (None, 32, 32, 16)        0         
_________________________________________________________________
dropout_420 (Dropout)        (None, 32, 32, 16)        0         
_________________________________________________________________
separable_conv2d_325 (Separa (None, 32, 32, 16)        416       
_________________________________________________________________
batch_normalization_243 (Bat (None, 32, 32, 16)        64        
_________________________________________________________________
activation_421 (Activation)  (None, 32, 32, 16)        0         
_________________________________________________________________
dropout_421 (Dropout)        (None, 32, 32, 16)        0         
_________________________________________________________________
separable_conv2d_326 (Separa (None, 32, 32, 128)       2320      
_________________________________________________________________
batch_normalization_244 (Bat (None, 32, 32, 128)       512       
_________________________________________________________________
activation_422 (Activation)  (None, 32, 32, 128)       0         
_________________________________________________________________
dropout_422 (Dropout)        (None, 32, 32, 128)       0         
_________________________________________________________________
separable_conv2d_327 (Separa (None, 32, 32, 512)       67200     
_________________________________________________________________
activation_423 (Activation)  (None, 32, 32, 512)       0         
_________________________________________________________________
dropout_423 (Dropout)        (None, 32, 32, 512)       0         
_________________________________________________________________
max_pooling2d_91 (MaxPooling (None, 16, 16, 512)       0         
_________________________________________________________________
separable_conv2d_328 (Separa (None, 16, 16, 256)       135936    
_________________________________________________________________
batch_normalization_245 (Bat (None, 16, 16, 256)       1024      
_________________________________________________________________
activation_424 (Activation)  (None, 16, 16, 256)       0         
_________________________________________________________________
dropout_424 (Dropout)        (None, 16, 16, 256)       0         
_________________________________________________________________
max_pooling2d_92 (MaxPooling (None, 8, 8, 256)         0         
_________________________________________________________________
flatten_46 (Flatten)         (None, 16384)             0         
_________________________________________________________________
dense_142 (Dense)            (None, 32)                524320    
_________________________________________________________________
batch_normalization_246 (Bat (None, 32)                128       
_________________________________________________________________
activation_425 (Activation)  (None, 32)                0         
_________________________________________________________________
dropout_425 (Dropout)        (None, 32)                0         
_________________________________________________________________
dense_143 (Dense)            (None, 512)               16896     
_________________________________________________________________
activation_426 (Activation)  (None, 512)               0         
_________________________________________________________________
dropout_426 (Dropout)        (None, 512)               0         
_________________________________________________________________
dense_144 (Dense)            (None, 100)               51300     
=================================================================
Total params: 800,207
Trainable params: 799,343
Non-trainable params: 864
_________________________________________________________________
