Model: "sequential_291"
_________________________________________________________________
Layer (type)                 Output Shape              Param #   
=================================================================
separable_conv2d_1802 (Separ (None, 32, 32, 16)        91        
_________________________________________________________________
activation_2237 (Activation) (None, 32, 32, 16)        0         
_________________________________________________________________
dropout_2237 (Dropout)       (None, 32, 32, 16)        0         
_________________________________________________________________
separable_conv2d_1803 (Separ (None, 32, 32, 16)        416       
_________________________________________________________________
batch_normalization_1448 (Ba (None, 32, 32, 16)        64        
_________________________________________________________________
activation_2238 (Activation) (None, 32, 32, 16)        0         
_________________________________________________________________
dropout_2238 (Dropout)       (None, 32, 32, 16)        0         
_________________________________________________________________
separable_conv2d_1804 (Separ (None, 32, 32, 128)       2320      
_________________________________________________________________
batch_normalization_1449 (Ba (None, 32, 32, 128)       512       
_________________________________________________________________
activation_2239 (Activation) (None, 32, 32, 128)       0         
_________________________________________________________________
dropout_2239 (Dropout)       (None, 32, 32, 128)       0         
_________________________________________________________________
separable_conv2d_1805 (Separ (None, 32, 32, 32)        5280      
_________________________________________________________________
batch_normalization_1450 (Ba (None, 32, 32, 32)        128       
_________________________________________________________________
activation_2240 (Activation) (None, 32, 32, 32)        0         
_________________________________________________________________
dropout_2240 (Dropout)       (None, 32, 32, 32)        0         
_________________________________________________________________
separable_conv2d_1806 (Separ (None, 32, 32, 512)       17184     
_________________________________________________________________
activation_2241 (Activation) (None, 32, 32, 512)       0         
_________________________________________________________________
dropout_2241 (Dropout)       (None, 32, 32, 512)       0         
_________________________________________________________________
separable_conv2d_1807 (Separ (None, 32, 32, 32)        21024     
_________________________________________________________________
batch_normalization_1451 (Ba (None, 32, 32, 32)        128       
_________________________________________________________________
activation_2242 (Activation) (None, 32, 32, 32)        0         
_________________________________________________________________
dropout_2242 (Dropout)       (None, 32, 32, 32)        0         
_________________________________________________________________
max_pooling2d_502 (MaxPoolin (None, 16, 16, 32)        0         
_________________________________________________________________
flatten_291 (Flatten)        (None, 8192)              0         
_________________________________________________________________
dense_726 (Dense)            (None, 100)               819300    
=================================================================
Total params: 866,447
Trainable params: 866,031
Non-trainable params: 416
_________________________________________________________________
