Model: "sequential_399"
_________________________________________________________________
Layer (type)                 Output Shape              Param #   
=================================================================
separable_conv2d_2315 (Separ (None, 32, 32, 64)        283       
_________________________________________________________________
batch_normalization_1886 (Ba (None, 32, 32, 64)        256       
_________________________________________________________________
activation_2773 (Activation) (None, 32, 32, 64)        0         
_________________________________________________________________
dropout_2773 (Dropout)       (None, 32, 32, 64)        0         
_________________________________________________________________
separable_conv2d_2316 (Separ (None, 32, 32, 128)       8896      
_________________________________________________________________
batch_normalization_1887 (Ba (None, 32, 32, 128)       512       
_________________________________________________________________
activation_2774 (Activation) (None, 32, 32, 128)       0         
_________________________________________________________________
dropout_2774 (Dropout)       (None, 32, 32, 128)       0         
_________________________________________________________________
separable_conv2d_2317 (Separ (None, 32, 32, 256)       34176     
_________________________________________________________________
batch_normalization_1888 (Ba (None, 32, 32, 256)       1024      
_________________________________________________________________
activation_2775 (Activation) (None, 32, 32, 256)       0         
_________________________________________________________________
dropout_2775 (Dropout)       (None, 32, 32, 256)       0         
_________________________________________________________________
max_pooling2d_691 (MaxPoolin (None, 16, 16, 256)       0         
_________________________________________________________________
separable_conv2d_2318 (Separ (None, 16, 16, 128)       35200     
_________________________________________________________________
batch_normalization_1889 (Ba (None, 16, 16, 128)       512       
_________________________________________________________________
activation_2776 (Activation) (None, 16, 16, 128)       0         
_________________________________________________________________
dropout_2776 (Dropout)       (None, 16, 16, 128)       0         
_________________________________________________________________
max_pooling2d_692 (MaxPoolin (None, 8, 8, 128)         0         
_________________________________________________________________
flatten_399 (Flatten)        (None, 8192)              0         
_________________________________________________________________
dense_857 (Dense)            (None, 100)               819300    
=================================================================
Total params: 900,159
Trainable params: 899,007
Non-trainable params: 1,152
_________________________________________________________________
