Model: "sequential_205"
_________________________________________________________________
Layer (type)                 Output Shape              Param #   
=================================================================
separable_conv2d_1315 (Separ (None, 32, 32, 16)        91        
_________________________________________________________________
activation_1697 (Activation) (None, 32, 32, 16)        0         
_________________________________________________________________
dropout_1697 (Dropout)       (None, 32, 32, 16)        0         
_________________________________________________________________
separable_conv2d_1316 (Separ (None, 32, 32, 16)        416       
_________________________________________________________________
batch_normalization_1065 (Ba (None, 32, 32, 16)        64        
_________________________________________________________________
activation_1698 (Activation) (None, 32, 32, 16)        0         
_________________________________________________________________
dropout_1698 (Dropout)       (None, 32, 32, 16)        0         
_________________________________________________________________
separable_conv2d_1317 (Separ (None, 32, 32, 128)       2320      
_________________________________________________________________
batch_normalization_1066 (Ba (None, 32, 32, 128)       512       
_________________________________________________________________
activation_1699 (Activation) (None, 32, 32, 128)       0         
_________________________________________________________________
dropout_1699 (Dropout)       (None, 32, 32, 128)       0         
_________________________________________________________________
separable_conv2d_1318 (Separ (None, 32, 32, 64)        9408      
_________________________________________________________________
activation_1700 (Activation) (None, 32, 32, 64)        0         
_________________________________________________________________
dropout_1700 (Dropout)       (None, 32, 32, 64)        0         
_________________________________________________________________
max_pooling2d_362 (MaxPoolin (None, 16, 16, 64)        0         
_________________________________________________________________
separable_conv2d_1319 (Separ (None, 16, 16, 128)       8896      
_________________________________________________________________
batch_normalization_1067 (Ba (None, 16, 16, 128)       512       
_________________________________________________________________
activation_1701 (Activation) (None, 16, 16, 128)       0         
_________________________________________________________________
dropout_1701 (Dropout)       (None, 16, 16, 128)       0         
_________________________________________________________________
flatten_205 (Flatten)        (None, 32768)             0         
_________________________________________________________________
dense_587 (Dense)            (None, 512)               16777728  
_________________________________________________________________
activation_1702 (Activation) (None, 512)               0         
_________________________________________________________________
dropout_1702 (Dropout)       (None, 512)               0         
_________________________________________________________________
dense_588 (Dense)            (None, 512)               262656    
_________________________________________________________________
batch_normalization_1068 (Ba (None, 512)               2048      
_________________________________________________________________
activation_1703 (Activation) (None, 512)               0         
_________________________________________________________________
dropout_1703 (Dropout)       (None, 512)               0         
_________________________________________________________________
dense_589 (Dense)            (None, 100)               51300     
=================================================================
Total params: 17,115,951
Trainable params: 17,114,383
Non-trainable params: 1,568
_________________________________________________________________
