Model: "sequential_358"
_________________________________________________________________
Layer (type)                 Output Shape              Param #   
=================================================================
separable_conv2d_2119 (Separ (None, 32, 32, 64)        283       
_________________________________________________________________
batch_normalization_1718 (Ba (None, 32, 32, 64)        256       
_________________________________________________________________
activation_2575 (Activation) (None, 32, 32, 64)        0         
_________________________________________________________________
dropout_2575 (Dropout)       (None, 32, 32, 64)        0         
_________________________________________________________________
separable_conv2d_2120 (Separ (None, 32, 32, 1024)      67136     
_________________________________________________________________
batch_normalization_1719 (Ba (None, 32, 32, 1024)      4096      
_________________________________________________________________
activation_2576 (Activation) (None, 32, 32, 1024)      0         
_________________________________________________________________
dropout_2576 (Dropout)       (None, 32, 32, 1024)      0         
_________________________________________________________________
separable_conv2d_2121 (Separ (None, 32, 32, 256)       271616    
_________________________________________________________________
batch_normalization_1720 (Ba (None, 32, 32, 256)       1024      
_________________________________________________________________
activation_2577 (Activation) (None, 32, 32, 256)       0         
_________________________________________________________________
dropout_2577 (Dropout)       (None, 32, 32, 256)       0         
_________________________________________________________________
max_pooling2d_613 (MaxPoolin (None, 16, 16, 256)       0         
_________________________________________________________________
separable_conv2d_2122 (Separ (None, 16, 16, 128)       35200     
_________________________________________________________________
batch_normalization_1721 (Ba (None, 16, 16, 128)       512       
_________________________________________________________________
activation_2578 (Activation) (None, 16, 16, 128)       0         
_________________________________________________________________
dropout_2578 (Dropout)       (None, 16, 16, 128)       0         
_________________________________________________________________
max_pooling2d_614 (MaxPoolin (None, 8, 8, 128)         0         
_________________________________________________________________
flatten_358 (Flatten)        (None, 8192)              0         
_________________________________________________________________
dense_814 (Dense)            (None, 100)               819300    
=================================================================
Total params: 1,199,423
Trainable params: 1,196,479
Non-trainable params: 2,944
_________________________________________________________________
