Model: "sequential_315"
_________________________________________________________________
Layer (type)                 Output Shape              Param #   
=================================================================
separable_conv2d_1921 (Separ (None, 32, 32, 64)        283       
_________________________________________________________________
batch_normalization_1546 (Ba (None, 32, 32, 64)        256       
_________________________________________________________________
activation_2366 (Activation) (None, 32, 32, 64)        0         
_________________________________________________________________
dropout_2366 (Dropout)       (None, 32, 32, 64)        0         
_________________________________________________________________
separable_conv2d_1922 (Separ (None, 32, 32, 128)       8896      
_________________________________________________________________
batch_normalization_1547 (Ba (None, 32, 32, 128)       512       
_________________________________________________________________
activation_2367 (Activation) (None, 32, 32, 128)       0         
_________________________________________________________________
dropout_2367 (Dropout)       (None, 32, 32, 128)       0         
_________________________________________________________________
separable_conv2d_1923 (Separ (None, 32, 32, 256)       34176     
_________________________________________________________________
activation_2368 (Activation) (None, 32, 32, 256)       0         
_________________________________________________________________
dropout_2368 (Dropout)       (None, 32, 32, 256)       0         
_________________________________________________________________
max_pooling2d_535 (MaxPoolin (None, 16, 16, 256)       0         
_________________________________________________________________
separable_conv2d_1924 (Separ (None, 16, 16, 32)        10528     
_________________________________________________________________
batch_normalization_1548 (Ba (None, 16, 16, 32)        128       
_________________________________________________________________
activation_2369 (Activation) (None, 16, 16, 32)        0         
_________________________________________________________________
dropout_2369 (Dropout)       (None, 16, 16, 32)        0         
_________________________________________________________________
max_pooling2d_536 (MaxPoolin (None, 8, 8, 32)          0         
_________________________________________________________________
flatten_315 (Flatten)        (None, 2048)              0         
_________________________________________________________________
dense_760 (Dense)            (None, 100)               204900    
=================================================================
Total params: 259,679
Trainable params: 259,231
Non-trainable params: 448
_________________________________________________________________
