Model: "sequential_362"
_________________________________________________________________
Layer (type)                 Output Shape              Param #   
=================================================================
separable_conv2d_2137 (Separ (None, 32, 32, 16)        91        
_________________________________________________________________
activation_2593 (Activation) (None, 32, 32, 16)        0         
_________________________________________________________________
dropout_2593 (Dropout)       (None, 32, 32, 16)        0         
_________________________________________________________________
separable_conv2d_2138 (Separ (None, 32, 32, 1024)      17552     
_________________________________________________________________
batch_normalization_1735 (Ba (None, 32, 32, 1024)      4096      
_________________________________________________________________
activation_2594 (Activation) (None, 32, 32, 1024)      0         
_________________________________________________________________
dropout_2594 (Dropout)       (None, 32, 32, 1024)      0         
_________________________________________________________________
separable_conv2d_2139 (Separ (None, 32, 32, 128)       140416    
_________________________________________________________________
batch_normalization_1736 (Ba (None, 32, 32, 128)       512       
_________________________________________________________________
activation_2595 (Activation) (None, 32, 32, 128)       0         
_________________________________________________________________
dropout_2595 (Dropout)       (None, 32, 32, 128)       0         
_________________________________________________________________
separable_conv2d_2140 (Separ (None, 32, 32, 256)       34176     
_________________________________________________________________
batch_normalization_1737 (Ba (None, 32, 32, 256)       1024      
_________________________________________________________________
activation_2596 (Activation) (None, 32, 32, 256)       0         
_________________________________________________________________
dropout_2596 (Dropout)       (None, 32, 32, 256)       0         
_________________________________________________________________
max_pooling2d_621 (MaxPoolin (None, 16, 16, 256)       0         
_________________________________________________________________
separable_conv2d_2141 (Separ (None, 16, 16, 128)       35200     
_________________________________________________________________
batch_normalization_1738 (Ba (None, 16, 16, 128)       512       
_________________________________________________________________
activation_2597 (Activation) (None, 16, 16, 128)       0         
_________________________________________________________________
dropout_2597 (Dropout)       (None, 16, 16, 128)       0         
_________________________________________________________________
max_pooling2d_622 (MaxPoolin (None, 8, 8, 128)         0         
_________________________________________________________________
flatten_362 (Flatten)        (None, 8192)              0         
_________________________________________________________________
dense_818 (Dense)            (None, 100)               819300    
=================================================================
Total params: 1,052,879
Trainable params: 1,049,807
Non-trainable params: 3,072
_________________________________________________________________
