Model: "sequential_286"
_________________________________________________________________
Layer (type)                 Output Shape              Param #   
=================================================================
separable_conv2d_1773 (Separ (None, 32, 32, 16)        91        
_________________________________________________________________
activation_2203 (Activation) (None, 32, 32, 16)        0         
_________________________________________________________________
dropout_2203 (Dropout)       (None, 32, 32, 16)        0         
_________________________________________________________________
separable_conv2d_1774 (Separ (None, 32, 32, 16)        416       
_________________________________________________________________
batch_normalization_1424 (Ba (None, 32, 32, 16)        64        
_________________________________________________________________
activation_2204 (Activation) (None, 32, 32, 16)        0         
_________________________________________________________________
dropout_2204 (Dropout)       (None, 32, 32, 16)        0         
_________________________________________________________________
separable_conv2d_1775 (Separ (None, 32, 32, 128)       2320      
_________________________________________________________________
batch_normalization_1425 (Ba (None, 32, 32, 128)       512       
_________________________________________________________________
activation_2205 (Activation) (None, 32, 32, 128)       0         
_________________________________________________________________
dropout_2205 (Dropout)       (None, 32, 32, 128)       0         
_________________________________________________________________
separable_conv2d_1776 (Separ (None, 32, 32, 512)       67200     
_________________________________________________________________
activation_2206 (Activation) (None, 32, 32, 512)       0         
_________________________________________________________________
dropout_2206 (Dropout)       (None, 32, 32, 512)       0         
_________________________________________________________________
separable_conv2d_1777 (Separ (None, 32, 32, 32)        21024     
_________________________________________________________________
batch_normalization_1426 (Ba (None, 32, 32, 32)        128       
_________________________________________________________________
activation_2207 (Activation) (None, 32, 32, 32)        0         
_________________________________________________________________
dropout_2207 (Dropout)       (None, 32, 32, 32)        0         
_________________________________________________________________
max_pooling2d_494 (MaxPoolin (None, 16, 16, 32)        0         
_________________________________________________________________
flatten_286 (Flatten)        (None, 8192)              0         
_________________________________________________________________
dense_716 (Dense)            (None, 512)               4194816   
_________________________________________________________________
batch_normalization_1427 (Ba (None, 512)               2048      
_________________________________________________________________
activation_2208 (Activation) (None, 512)               0         
_________________________________________________________________
dropout_2208 (Dropout)       (None, 512)               0         
_________________________________________________________________
dense_717 (Dense)            (None, 100)               51300     
=================================================================
Total params: 4,339,919
Trainable params: 4,338,543
Non-trainable params: 1,376
_________________________________________________________________
