Model: "sequential_307"
_________________________________________________________________
Layer (type)                 Output Shape              Param #   
=================================================================
separable_conv2d_1882 (Separ (None, 32, 32, 16)        91        
_________________________________________________________________
activation_2325 (Activation) (None, 32, 32, 16)        0         
_________________________________________________________________
dropout_2325 (Dropout)       (None, 32, 32, 16)        0         
_________________________________________________________________
separable_conv2d_1883 (Separ (None, 32, 32, 16)        416       
_________________________________________________________________
batch_normalization_1517 (Ba (None, 32, 32, 16)        64        
_________________________________________________________________
activation_2326 (Activation) (None, 32, 32, 16)        0         
_________________________________________________________________
dropout_2326 (Dropout)       (None, 32, 32, 16)        0         
_________________________________________________________________
separable_conv2d_1884 (Separ (None, 32, 32, 128)       2320      
_________________________________________________________________
batch_normalization_1518 (Ba (None, 32, 32, 128)       512       
_________________________________________________________________
activation_2327 (Activation) (None, 32, 32, 128)       0         
_________________________________________________________________
dropout_2327 (Dropout)       (None, 32, 32, 128)       0         
_________________________________________________________________
separable_conv2d_1885 (Separ (None, 32, 32, 32)        5280      
_________________________________________________________________
batch_normalization_1519 (Ba (None, 32, 32, 32)        128       
_________________________________________________________________
activation_2328 (Activation) (None, 32, 32, 32)        0         
_________________________________________________________________
dropout_2328 (Dropout)       (None, 32, 32, 32)        0         
_________________________________________________________________
separable_conv2d_1886 (Separ (None, 32, 32, 512)       17184     
_________________________________________________________________
activation_2329 (Activation) (None, 32, 32, 512)       0         
_________________________________________________________________
dropout_2329 (Dropout)       (None, 32, 32, 512)       0         
_________________________________________________________________
separable_conv2d_1887 (Separ (None, 32, 32, 32)        21024     
_________________________________________________________________
batch_normalization_1520 (Ba (None, 32, 32, 32)        128       
_________________________________________________________________
activation_2330 (Activation) (None, 32, 32, 32)        0         
_________________________________________________________________
dropout_2330 (Dropout)       (None, 32, 32, 32)        0         
_________________________________________________________________
max_pooling2d_525 (MaxPoolin (None, 16, 16, 32)        0         
_________________________________________________________________
flatten_307 (Flatten)        (None, 8192)              0         
_________________________________________________________________
dense_750 (Dense)            (None, 100)               819300    
=================================================================
Total params: 866,447
Trainable params: 866,031
Non-trainable params: 416
_________________________________________________________________
