Model: "sequential_250"
_________________________________________________________________
Layer (type)                 Output Shape              Param #   
=================================================================
separable_conv2d_1584 (Separ (None, 32, 32, 64)        283       
_________________________________________________________________
batch_normalization_1272 (Ba (None, 32, 32, 64)        256       
_________________________________________________________________
activation_2002 (Activation) (None, 32, 32, 64)        0         
_________________________________________________________________
dropout_2002 (Dropout)       (None, 32, 32, 64)        0         
_________________________________________________________________
separable_conv2d_1585 (Separ (None, 32, 32, 1024)      67136     
_________________________________________________________________
batch_normalization_1273 (Ba (None, 32, 32, 1024)      4096      
_________________________________________________________________
activation_2003 (Activation) (None, 32, 32, 1024)      0         
_________________________________________________________________
dropout_2003 (Dropout)       (None, 32, 32, 1024)      0         
_________________________________________________________________
separable_conv2d_1586 (Separ (None, 32, 32, 128)       140416    
_________________________________________________________________
batch_normalization_1274 (Ba (None, 32, 32, 128)       512       
_________________________________________________________________
activation_2004 (Activation) (None, 32, 32, 128)       0         
_________________________________________________________________
dropout_2004 (Dropout)       (None, 32, 32, 128)       0         
_________________________________________________________________
separable_conv2d_1587 (Separ (None, 32, 32, 512)       67200     
_________________________________________________________________
activation_2005 (Activation) (None, 32, 32, 512)       0         
_________________________________________________________________
dropout_2005 (Dropout)       (None, 32, 32, 512)       0         
_________________________________________________________________
max_pooling2d_440 (MaxPoolin (None, 16, 16, 512)       0         
_________________________________________________________________
separable_conv2d_1588 (Separ (None, 16, 16, 512)       267264    
_________________________________________________________________
activation_2006 (Activation) (None, 16, 16, 512)       0         
_________________________________________________________________
dropout_2006 (Dropout)       (None, 16, 16, 512)       0         
_________________________________________________________________
separable_conv2d_1589 (Separ (None, 16, 16, 256)       135936    
_________________________________________________________________
batch_normalization_1275 (Ba (None, 16, 16, 256)       1024      
_________________________________________________________________
activation_2007 (Activation) (None, 16, 16, 256)       0         
_________________________________________________________________
dropout_2007 (Dropout)       (None, 16, 16, 256)       0         
_________________________________________________________________
max_pooling2d_441 (MaxPoolin (None, 8, 8, 256)         0         
_________________________________________________________________
flatten_250 (Flatten)        (None, 16384)             0         
_________________________________________________________________
dense_668 (Dense)            (None, 100)               1638500   
=================================================================
Total params: 2,322,623
Trainable params: 2,319,679
Non-trainable params: 2,944
_________________________________________________________________
