Model: "sequential_82"
_________________________________________________________________
Layer (type)                 Output Shape              Param #   
=================================================================
separable_conv2d_553 (Separa (None, 32, 32, 16)        91        
_________________________________________________________________
activation_719 (Activation)  (None, 32, 32, 16)        0         
_________________________________________________________________
dropout_719 (Dropout)        (None, 32, 32, 16)        0         
_________________________________________________________________
separable_conv2d_554 (Separa (None, 32, 32, 16)        416       
_________________________________________________________________
batch_normalization_436 (Bat (None, 32, 32, 16)        64        
_________________________________________________________________
activation_720 (Activation)  (None, 32, 32, 16)        0         
_________________________________________________________________
dropout_720 (Dropout)        (None, 32, 32, 16)        0         
_________________________________________________________________
separable_conv2d_555 (Separa (None, 32, 32, 128)       2320      
_________________________________________________________________
batch_normalization_437 (Bat (None, 32, 32, 128)       512       
_________________________________________________________________
activation_721 (Activation)  (None, 32, 32, 128)       0         
_________________________________________________________________
dropout_721 (Dropout)        (None, 32, 32, 128)       0         
_________________________________________________________________
separable_conv2d_556 (Separa (None, 32, 32, 512)       67200     
_________________________________________________________________
activation_722 (Activation)  (None, 32, 32, 512)       0         
_________________________________________________________________
dropout_722 (Dropout)        (None, 32, 32, 512)       0         
_________________________________________________________________
max_pooling2d_156 (MaxPoolin (None, 16, 16, 512)       0         
_________________________________________________________________
separable_conv2d_557 (Separa (None, 16, 16, 256)       135936    
_________________________________________________________________
batch_normalization_438 (Bat (None, 16, 16, 256)       1024      
_________________________________________________________________
activation_723 (Activation)  (None, 16, 16, 256)       0         
_________________________________________________________________
dropout_723 (Dropout)        (None, 16, 16, 256)       0         
_________________________________________________________________
max_pooling2d_157 (MaxPoolin (None, 8, 8, 256)         0         
_________________________________________________________________
separable_conv2d_558 (Separa (None, 8, 8, 128)         35200     
_________________________________________________________________
batch_normalization_439 (Bat (None, 8, 8, 128)         512       
_________________________________________________________________
activation_724 (Activation)  (None, 8, 8, 128)         0         
_________________________________________________________________
dropout_724 (Dropout)        (None, 8, 8, 128)         0         
_________________________________________________________________
flatten_82 (Flatten)         (None, 8192)              0         
_________________________________________________________________
dense_248 (Dense)            (None, 32)                262176    
_________________________________________________________________
batch_normalization_440 (Bat (None, 32)                128       
_________________________________________________________________
activation_725 (Activation)  (None, 32)                0         
_________________________________________________________________
dropout_725 (Dropout)        (None, 32)                0         
_________________________________________________________________
dense_249 (Dense)            (None, 512)               16896     
_________________________________________________________________
activation_726 (Activation)  (None, 512)               0         
_________________________________________________________________
dropout_726 (Dropout)        (None, 512)               0         
_________________________________________________________________
dense_250 (Dense)            (None, 512)               262656    
_________________________________________________________________
batch_normalization_441 (Bat (None, 512)               2048      
_________________________________________________________________
activation_727 (Activation)  (None, 512)               0         
_________________________________________________________________
dropout_727 (Dropout)        (None, 512)               0         
_________________________________________________________________
dense_251 (Dense)            (None, 100)               51300     
=================================================================
Total params: 838,479
Trainable params: 836,335
Non-trainable params: 2,144
_________________________________________________________________
