Model: "sequential_287"
_________________________________________________________________
Layer (type)                 Output Shape              Param #   
=================================================================
separable_conv2d_1778 (Separ (None, 32, 32, 16)        91        
_________________________________________________________________
activation_2209 (Activation) (None, 32, 32, 16)        0         
_________________________________________________________________
dropout_2209 (Dropout)       (None, 32, 32, 16)        0         
_________________________________________________________________
separable_conv2d_1779 (Separ (None, 32, 32, 512)       8848      
_________________________________________________________________
batch_normalization_1428 (Ba (None, 32, 32, 512)       2048      
_________________________________________________________________
activation_2210 (Activation) (None, 32, 32, 512)       0         
_________________________________________________________________
dropout_2210 (Dropout)       (None, 32, 32, 512)       0         
_________________________________________________________________
separable_conv2d_1780 (Separ (None, 32, 32, 128)       70272     
_________________________________________________________________
batch_normalization_1429 (Ba (None, 32, 32, 128)       512       
_________________________________________________________________
activation_2211 (Activation) (None, 32, 32, 128)       0         
_________________________________________________________________
dropout_2211 (Dropout)       (None, 32, 32, 128)       0         
_________________________________________________________________
separable_conv2d_1781 (Separ (None, 32, 32, 512)       67200     
_________________________________________________________________
activation_2212 (Activation) (None, 32, 32, 512)       0         
_________________________________________________________________
dropout_2212 (Dropout)       (None, 32, 32, 512)       0         
_________________________________________________________________
separable_conv2d_1782 (Separ (None, 32, 32, 32)        21024     
_________________________________________________________________
batch_normalization_1430 (Ba (None, 32, 32, 32)        128       
_________________________________________________________________
activation_2213 (Activation) (None, 32, 32, 32)        0         
_________________________________________________________________
dropout_2213 (Dropout)       (None, 32, 32, 32)        0         
_________________________________________________________________
max_pooling2d_495 (MaxPoolin (None, 16, 16, 32)        0         
_________________________________________________________________
flatten_287 (Flatten)        (None, 8192)              0         
_________________________________________________________________
dense_718 (Dense)            (None, 512)               4194816   
_________________________________________________________________
batch_normalization_1431 (Ba (None, 512)               2048      
_________________________________________________________________
activation_2214 (Activation) (None, 512)               0         
_________________________________________________________________
dropout_2214 (Dropout)       (None, 512)               0         
_________________________________________________________________
dense_719 (Dense)            (None, 100)               51300     
=================================================================
Total params: 4,418,287
Trainable params: 4,415,919
Non-trainable params: 2,368
_________________________________________________________________
