Model: "sequential_195"
_________________________________________________________________
Layer (type)                 Output Shape              Param #   
=================================================================
separable_conv2d_1254 (Separ (None, 32, 32, 16)        91        
_________________________________________________________________
activation_1622 (Activation) (None, 32, 32, 16)        0         
_________________________________________________________________
dropout_1622 (Dropout)       (None, 32, 32, 16)        0         
_________________________________________________________________
separable_conv2d_1255 (Separ (None, 32, 32, 16)        416       
_________________________________________________________________
batch_normalization_1012 (Ba (None, 32, 32, 16)        64        
_________________________________________________________________
activation_1623 (Activation) (None, 32, 32, 16)        0         
_________________________________________________________________
dropout_1623 (Dropout)       (None, 32, 32, 16)        0         
_________________________________________________________________
separable_conv2d_1256 (Separ (None, 32, 32, 128)       2320      
_________________________________________________________________
batch_normalization_1013 (Ba (None, 32, 32, 128)       512       
_________________________________________________________________
activation_1624 (Activation) (None, 32, 32, 128)       0         
_________________________________________________________________
dropout_1624 (Dropout)       (None, 32, 32, 128)       0         
_________________________________________________________________
separable_conv2d_1257 (Separ (None, 32, 32, 512)       67200     
_________________________________________________________________
activation_1625 (Activation) (None, 32, 32, 512)       0         
_________________________________________________________________
dropout_1625 (Dropout)       (None, 32, 32, 512)       0         
_________________________________________________________________
max_pooling2d_346 (MaxPoolin (None, 16, 16, 512)       0         
_________________________________________________________________
separable_conv2d_1258 (Separ (None, 16, 16, 128)       70272     
_________________________________________________________________
batch_normalization_1014 (Ba (None, 16, 16, 128)       512       
_________________________________________________________________
activation_1626 (Activation) (None, 16, 16, 128)       0         
_________________________________________________________________
dropout_1626 (Dropout)       (None, 16, 16, 128)       0         
_________________________________________________________________
flatten_195 (Flatten)        (None, 32768)             0         
_________________________________________________________________
dense_563 (Dense)            (None, 512)               16777728  
_________________________________________________________________
activation_1627 (Activation) (None, 512)               0         
_________________________________________________________________
dropout_1627 (Dropout)       (None, 512)               0         
_________________________________________________________________
dense_564 (Dense)            (None, 512)               262656    
_________________________________________________________________
batch_normalization_1015 (Ba (None, 512)               2048      
_________________________________________________________________
activation_1628 (Activation) (None, 512)               0         
_________________________________________________________________
dropout_1628 (Dropout)       (None, 512)               0         
_________________________________________________________________
dense_565 (Dense)            (None, 100)               51300     
=================================================================
Total params: 17,235,119
Trainable params: 17,233,551
Non-trainable params: 1,568
_________________________________________________________________
