Model: "sequential_193"
_________________________________________________________________
Layer (type)                 Output Shape              Param #   
=================================================================
separable_conv2d_1243 (Separ (None, 32, 32, 64)        283       
_________________________________________________________________
batch_normalization_1001 (Ba (None, 32, 32, 64)        256       
_________________________________________________________________
activation_1608 (Activation) (None, 32, 32, 64)        0         
_________________________________________________________________
dropout_1608 (Dropout)       (None, 32, 32, 64)        0         
_________________________________________________________________
separable_conv2d_1244 (Separ (None, 32, 32, 1024)      67136     
_________________________________________________________________
batch_normalization_1002 (Ba (None, 32, 32, 1024)      4096      
_________________________________________________________________
activation_1609 (Activation) (None, 32, 32, 1024)      0         
_________________________________________________________________
dropout_1609 (Dropout)       (None, 32, 32, 1024)      0         
_________________________________________________________________
separable_conv2d_1245 (Separ (None, 32, 32, 8)         17416     
_________________________________________________________________
activation_1610 (Activation) (None, 32, 32, 8)         0         
_________________________________________________________________
dropout_1610 (Dropout)       (None, 32, 32, 8)         0         
_________________________________________________________________
separable_conv2d_1246 (Separ (None, 32, 32, 16)        216       
_________________________________________________________________
batch_normalization_1003 (Ba (None, 32, 32, 16)        64        
_________________________________________________________________
activation_1611 (Activation) (None, 32, 32, 16)        0         
_________________________________________________________________
dropout_1611 (Dropout)       (None, 32, 32, 16)        0         
_________________________________________________________________
separable_conv2d_1247 (Separ (None, 32, 32, 256)       4496      
_________________________________________________________________
batch_normalization_1004 (Ba (None, 32, 32, 256)       1024      
_________________________________________________________________
activation_1612 (Activation) (None, 32, 32, 256)       0         
_________________________________________________________________
dropout_1612 (Dropout)       (None, 32, 32, 256)       0         
_________________________________________________________________
max_pooling2d_343 (MaxPoolin (None, 16, 16, 256)       0         
_________________________________________________________________
flatten_193 (Flatten)        (None, 65536)             0         
_________________________________________________________________
dense_558 (Dense)            (None, 256)               16777472  
_________________________________________________________________
batch_normalization_1005 (Ba (None, 256)               1024      
_________________________________________________________________
activation_1613 (Activation) (None, 256)               0         
_________________________________________________________________
dropout_1613 (Dropout)       (None, 256)               0         
_________________________________________________________________
dense_559 (Dense)            (None, 256)               65792     
_________________________________________________________________
batch_normalization_1006 (Ba (None, 256)               1024      
_________________________________________________________________
activation_1614 (Activation) (None, 256)               0         
_________________________________________________________________
dropout_1614 (Dropout)       (None, 256)               0         
_________________________________________________________________
dense_560 (Dense)            (None, 64)                16448     
_________________________________________________________________
batch_normalization_1007 (Ba (None, 64)                256       
_________________________________________________________________
activation_1615 (Activation) (None, 64)                0         
_________________________________________________________________
dropout_1615 (Dropout)       (None, 64)                0         
_________________________________________________________________
dense_561 (Dense)            (None, 100)               6500      
=================================================================
Total params: 16,963,503
Trainable params: 16,959,631
Non-trainable params: 3,872
_________________________________________________________________
