Model: "sequential_186"
_________________________________________________________________
Layer (type)                 Output Shape              Param #   
=================================================================
separable_conv2d_1196 (Separ (None, 32, 32, 16)        91        
_________________________________________________________________
activation_1552 (Activation) (None, 32, 32, 16)        0         
_________________________________________________________________
dropout_1552 (Dropout)       (None, 32, 32, 16)        0         
_________________________________________________________________
separable_conv2d_1197 (Separ (None, 32, 32, 16)        416       
_________________________________________________________________
activation_1553 (Activation) (None, 32, 32, 16)        0         
_________________________________________________________________
dropout_1553 (Dropout)       (None, 32, 32, 16)        0         
_________________________________________________________________
max_pooling2d_331 (MaxPoolin (None, 16, 16, 16)        0         
_________________________________________________________________
separable_conv2d_1198 (Separ (None, 16, 16, 64)        1232      
_________________________________________________________________
batch_normalization_966 (Bat (None, 16, 16, 64)        256       
_________________________________________________________________
activation_1554 (Activation) (None, 16, 16, 64)        0         
_________________________________________________________________
dropout_1554 (Dropout)       (None, 16, 16, 64)        0         
_________________________________________________________________
separable_conv2d_1199 (Separ (None, 16, 16, 32)        2656      
_________________________________________________________________
batch_normalization_967 (Bat (None, 16, 16, 32)        128       
_________________________________________________________________
activation_1555 (Activation) (None, 16, 16, 32)        0         
_________________________________________________________________
dropout_1555 (Dropout)       (None, 16, 16, 32)        0         
_________________________________________________________________
separable_conv2d_1200 (Separ (None, 16, 16, 512)       17184     
_________________________________________________________________
activation_1556 (Activation) (None, 16, 16, 512)       0         
_________________________________________________________________
dropout_1556 (Dropout)       (None, 16, 16, 512)       0         
_________________________________________________________________
separable_conv2d_1201 (Separ (None, 16, 16, 32)        21024     
_________________________________________________________________
batch_normalization_968 (Bat (None, 16, 16, 32)        128       
_________________________________________________________________
activation_1557 (Activation) (None, 16, 16, 32)        0         
_________________________________________________________________
dropout_1557 (Dropout)       (None, 16, 16, 32)        0         
_________________________________________________________________
max_pooling2d_332 (MaxPoolin (None, 8, 8, 32)          0         
_________________________________________________________________
flatten_186 (Flatten)        (None, 2048)              0         
_________________________________________________________________
dense_542 (Dense)            (None, 100)               204900    
=================================================================
Total params: 248,015
Trainable params: 247,759
Non-trainable params: 256
_________________________________________________________________
