Model: "sequential_160"
_________________________________________________________________
Layer (type)                 Output Shape              Param #   
=================================================================
separable_conv2d_1035 (Separ (None, 32, 32, 64)        283       
_________________________________________________________________
batch_normalization_842 (Bat (None, 32, 32, 64)        256       
_________________________________________________________________
activation_1354 (Activation) (None, 32, 32, 64)        0         
_________________________________________________________________
dropout_1354 (Dropout)       (None, 32, 32, 64)        0         
_________________________________________________________________
separable_conv2d_1036 (Separ (None, 32, 32, 16)        1616      
_________________________________________________________________
batch_normalization_843 (Bat (None, 32, 32, 16)        64        
_________________________________________________________________
activation_1355 (Activation) (None, 32, 32, 16)        0         
_________________________________________________________________
dropout_1355 (Dropout)       (None, 32, 32, 16)        0         
_________________________________________________________________
separable_conv2d_1037 (Separ (None, 32, 32, 128)       2320      
_________________________________________________________________
batch_normalization_844 (Bat (None, 32, 32, 128)       512       
_________________________________________________________________
activation_1356 (Activation) (None, 32, 32, 128)       0         
_________________________________________________________________
dropout_1356 (Dropout)       (None, 32, 32, 128)       0         
_________________________________________________________________
separable_conv2d_1038 (Separ (None, 32, 32, 512)       67200     
_________________________________________________________________
activation_1357 (Activation) (None, 32, 32, 512)       0         
_________________________________________________________________
dropout_1357 (Dropout)       (None, 32, 32, 512)       0         
_________________________________________________________________
max_pooling2d_289 (MaxPoolin (None, 16, 16, 512)       0         
_________________________________________________________________
separable_conv2d_1039 (Separ (None, 16, 16, 64)        37440     
_________________________________________________________________
activation_1358 (Activation) (None, 16, 16, 64)        0         
_________________________________________________________________
dropout_1358 (Dropout)       (None, 16, 16, 64)        0         
_________________________________________________________________
max_pooling2d_290 (MaxPoolin (None, 8, 8, 64)          0         
_________________________________________________________________
separable_conv2d_1040 (Separ (None, 8, 8, 128)         8896      
_________________________________________________________________
batch_normalization_845 (Bat (None, 8, 8, 128)         512       
_________________________________________________________________
activation_1359 (Activation) (None, 8, 8, 128)         0         
_________________________________________________________________
dropout_1359 (Dropout)       (None, 8, 8, 128)         0         
_________________________________________________________________
flatten_160 (Flatten)        (None, 8192)              0         
_________________________________________________________________
dense_479 (Dense)            (None, 512)               4194816   
_________________________________________________________________
activation_1360 (Activation) (None, 512)               0         
_________________________________________________________________
dropout_1360 (Dropout)       (None, 512)               0         
_________________________________________________________________
dense_480 (Dense)            (None, 512)               262656    
_________________________________________________________________
batch_normalization_846 (Bat (None, 512)               2048      
_________________________________________________________________
activation_1361 (Activation) (None, 512)               0         
_________________________________________________________________
dropout_1361 (Dropout)       (None, 512)               0         
_________________________________________________________________
dense_481 (Dense)            (None, 100)               51300     
=================================================================
Total params: 4,629,919
Trainable params: 4,628,223
Non-trainable params: 1,696
_________________________________________________________________
