Model: "sequential_136"
_________________________________________________________________
Layer (type)                 Output Shape              Param #   
=================================================================
separable_conv2d_892 (Separa (None, 32, 32, 64)        283       
_________________________________________________________________
batch_normalization_722 (Bat (None, 32, 32, 64)        256       
_________________________________________________________________
activation_1168 (Activation) (None, 32, 32, 64)        0         
_________________________________________________________________
dropout_1168 (Dropout)       (None, 32, 32, 64)        0         
_________________________________________________________________
separable_conv2d_893 (Separa (None, 32, 32, 16)        1616      
_________________________________________________________________
batch_normalization_723 (Bat (None, 32, 32, 16)        64        
_________________________________________________________________
activation_1169 (Activation) (None, 32, 32, 16)        0         
_________________________________________________________________
dropout_1169 (Dropout)       (None, 32, 32, 16)        0         
_________________________________________________________________
separable_conv2d_894 (Separa (None, 32, 32, 128)       2320      
_________________________________________________________________
batch_normalization_724 (Bat (None, 32, 32, 128)       512       
_________________________________________________________________
activation_1170 (Activation) (None, 32, 32, 128)       0         
_________________________________________________________________
dropout_1170 (Dropout)       (None, 32, 32, 128)       0         
_________________________________________________________________
separable_conv2d_895 (Separa (None, 32, 32, 512)       67200     
_________________________________________________________________
activation_1171 (Activation) (None, 32, 32, 512)       0         
_________________________________________________________________
dropout_1171 (Dropout)       (None, 32, 32, 512)       0         
_________________________________________________________________
max_pooling2d_250 (MaxPoolin (None, 16, 16, 512)       0         
_________________________________________________________________
separable_conv2d_896 (Separa (None, 16, 16, 256)       135936    
_________________________________________________________________
batch_normalization_725 (Bat (None, 16, 16, 256)       1024      
_________________________________________________________________
activation_1172 (Activation) (None, 16, 16, 256)       0         
_________________________________________________________________
dropout_1172 (Dropout)       (None, 16, 16, 256)       0         
_________________________________________________________________
max_pooling2d_251 (MaxPoolin (None, 8, 8, 256)         0         
_________________________________________________________________
separable_conv2d_897 (Separa (None, 8, 8, 128)         35200     
_________________________________________________________________
batch_normalization_726 (Bat (None, 8, 8, 128)         512       
_________________________________________________________________
activation_1173 (Activation) (None, 8, 8, 128)         0         
_________________________________________________________________
dropout_1173 (Dropout)       (None, 8, 8, 128)         0         
_________________________________________________________________
flatten_136 (Flatten)        (None, 8192)              0         
_________________________________________________________________
dense_412 (Dense)            (None, 512)               4194816   
_________________________________________________________________
activation_1174 (Activation) (None, 512)               0         
_________________________________________________________________
dropout_1174 (Dropout)       (None, 512)               0         
_________________________________________________________________
dense_413 (Dense)            (None, 512)               262656    
_________________________________________________________________
batch_normalization_727 (Bat (None, 512)               2048      
_________________________________________________________________
activation_1175 (Activation) (None, 512)               0         
_________________________________________________________________
dropout_1175 (Dropout)       (None, 512)               0         
_________________________________________________________________
dense_414 (Dense)            (None, 100)               51300     
=================================================================
Total params: 4,755,743
Trainable params: 4,753,535
Non-trainable params: 2,208
_________________________________________________________________
