Model: "sequential_152"
_________________________________________________________________
Layer (type)                 Output Shape              Param #   
=================================================================
separable_conv2d_987 (Separa (None, 32, 32, 16)        91        
_________________________________________________________________
activation_1295 (Activation) (None, 32, 32, 16)        0         
_________________________________________________________________
dropout_1295 (Dropout)       (None, 32, 32, 16)        0         
_________________________________________________________________
separable_conv2d_988 (Separa (None, 32, 32, 16)        416       
_________________________________________________________________
batch_normalization_802 (Bat (None, 32, 32, 16)        64        
_________________________________________________________________
activation_1296 (Activation) (None, 32, 32, 16)        0         
_________________________________________________________________
dropout_1296 (Dropout)       (None, 32, 32, 16)        0         
_________________________________________________________________
separable_conv2d_989 (Separa (None, 32, 32, 8)         280       
_________________________________________________________________
activation_1297 (Activation) (None, 32, 32, 8)         0         
_________________________________________________________________
dropout_1297 (Dropout)       (None, 32, 32, 8)         0         
_________________________________________________________________
separable_conv2d_990 (Separa (None, 32, 32, 512)       4680      
_________________________________________________________________
activation_1298 (Activation) (None, 32, 32, 512)       0         
_________________________________________________________________
dropout_1298 (Dropout)       (None, 32, 32, 512)       0         
_________________________________________________________________
max_pooling2d_274 (MaxPoolin (None, 16, 16, 512)       0         
_________________________________________________________________
separable_conv2d_991 (Separa (None, 16, 16, 256)       135936    
_________________________________________________________________
batch_normalization_803 (Bat (None, 16, 16, 256)       1024      
_________________________________________________________________
activation_1299 (Activation) (None, 16, 16, 256)       0         
_________________________________________________________________
dropout_1299 (Dropout)       (None, 16, 16, 256)       0         
_________________________________________________________________
max_pooling2d_275 (MaxPoolin (None, 8, 8, 256)         0         
_________________________________________________________________
separable_conv2d_992 (Separa (None, 8, 8, 128)         35200     
_________________________________________________________________
batch_normalization_804 (Bat (None, 8, 8, 128)         512       
_________________________________________________________________
activation_1300 (Activation) (None, 8, 8, 128)         0         
_________________________________________________________________
dropout_1300 (Dropout)       (None, 8, 8, 128)         0         
_________________________________________________________________
flatten_152 (Flatten)        (None, 8192)              0         
_________________________________________________________________
dense_460 (Dense)            (None, 512)               4194816   
_________________________________________________________________
activation_1301 (Activation) (None, 512)               0         
_________________________________________________________________
dropout_1301 (Dropout)       (None, 512)               0         
_________________________________________________________________
dense_461 (Dense)            (None, 512)               262656    
_________________________________________________________________
batch_normalization_805 (Bat (None, 512)               2048      
_________________________________________________________________
activation_1302 (Activation) (None, 512)               0         
_________________________________________________________________
dropout_1302 (Dropout)       (None, 512)               0         
_________________________________________________________________
dense_462 (Dense)            (None, 100)               51300     
=================================================================
Total params: 4,689,023
Trainable params: 4,687,199
Non-trainable params: 1,824
_________________________________________________________________
