Model: "sequential_337"
_________________________________________________________________
Layer (type)                 Output Shape              Param #   
=================================================================
separable_conv2d_2023 (Separ (None, 32, 32, 16)        91        
_________________________________________________________________
activation_2472 (Activation) (None, 32, 32, 16)        0         
_________________________________________________________________
dropout_2472 (Dropout)       (None, 32, 32, 16)        0         
_________________________________________________________________
separable_conv2d_2024 (Separ (None, 32, 32, 16)        416       
_________________________________________________________________
batch_normalization_1630 (Ba (None, 32, 32, 16)        64        
_________________________________________________________________
activation_2473 (Activation) (None, 32, 32, 16)        0         
_________________________________________________________________
dropout_2473 (Dropout)       (None, 32, 32, 16)        0         
_________________________________________________________________
separable_conv2d_2025 (Separ (None, 32, 32, 128)       2320      
_________________________________________________________________
batch_normalization_1631 (Ba (None, 32, 32, 128)       512       
_________________________________________________________________
activation_2474 (Activation) (None, 32, 32, 128)       0         
_________________________________________________________________
dropout_2474 (Dropout)       (None, 32, 32, 128)       0         
_________________________________________________________________
separable_conv2d_2026 (Separ (None, 32, 32, 256)       34176     
_________________________________________________________________
batch_normalization_1632 (Ba (None, 32, 32, 256)       1024      
_________________________________________________________________
activation_2475 (Activation) (None, 32, 32, 256)       0         
_________________________________________________________________
dropout_2475 (Dropout)       (None, 32, 32, 256)       0         
_________________________________________________________________
max_pooling2d_575 (MaxPoolin (None, 16, 16, 256)       0         
_________________________________________________________________
separable_conv2d_2027 (Separ (None, 16, 16, 1024)      265472    
_________________________________________________________________
batch_normalization_1633 (Ba (None, 16, 16, 1024)      4096      
_________________________________________________________________
activation_2476 (Activation) (None, 16, 16, 1024)      0         
_________________________________________________________________
dropout_2476 (Dropout)       (None, 16, 16, 1024)      0         
_________________________________________________________________
max_pooling2d_576 (MaxPoolin (None, 8, 8, 1024)        0         
_________________________________________________________________
flatten_337 (Flatten)        (None, 65536)             0         
_________________________________________________________________
dense_786 (Dense)            (None, 512)               33554944  
_________________________________________________________________
batch_normalization_1634 (Ba (None, 512)               2048      
_________________________________________________________________
activation_2477 (Activation) (None, 512)               0         
_________________________________________________________________
dropout_2477 (Dropout)       (None, 512)               0         
_________________________________________________________________
dense_787 (Dense)            (None, 100)               51300     
=================================================================
Total params: 33,916,463
Trainable params: 33,912,591
Non-trainable params: 3,872
_________________________________________________________________
