Model: "sequential_341"
_________________________________________________________________
Layer (type)                 Output Shape              Param #   
=================================================================
separable_conv2d_2040 (Separ (None, 32, 32, 16)        91        
_________________________________________________________________
activation_2491 (Activation) (None, 32, 32, 16)        0         
_________________________________________________________________
dropout_2491 (Dropout)       (None, 32, 32, 16)        0         
_________________________________________________________________
separable_conv2d_2041 (Separ (None, 32, 32, 16)        416       
_________________________________________________________________
batch_normalization_1646 (Ba (None, 32, 32, 16)        64        
_________________________________________________________________
activation_2492 (Activation) (None, 32, 32, 16)        0         
_________________________________________________________________
dropout_2492 (Dropout)       (None, 32, 32, 16)        0         
_________________________________________________________________
separable_conv2d_2042 (Separ (None, 32, 32, 128)       2320      
_________________________________________________________________
batch_normalization_1647 (Ba (None, 32, 32, 128)       512       
_________________________________________________________________
activation_2493 (Activation) (None, 32, 32, 128)       0         
_________________________________________________________________
dropout_2493 (Dropout)       (None, 32, 32, 128)       0         
_________________________________________________________________
separable_conv2d_2043 (Separ (None, 32, 32, 256)       34176     
_________________________________________________________________
batch_normalization_1648 (Ba (None, 32, 32, 256)       1024      
_________________________________________________________________
activation_2494 (Activation) (None, 32, 32, 256)       0         
_________________________________________________________________
dropout_2494 (Dropout)       (None, 32, 32, 256)       0         
_________________________________________________________________
max_pooling2d_582 (MaxPoolin (None, 16, 16, 256)       0         
_________________________________________________________________
separable_conv2d_2044 (Separ (None, 16, 16, 128)       35200     
_________________________________________________________________
batch_normalization_1649 (Ba (None, 16, 16, 128)       512       
_________________________________________________________________
activation_2495 (Activation) (None, 16, 16, 128)       0         
_________________________________________________________________
dropout_2495 (Dropout)       (None, 16, 16, 128)       0         
_________________________________________________________________
max_pooling2d_583 (MaxPoolin (None, 8, 8, 128)         0         
_________________________________________________________________
flatten_341 (Flatten)        (None, 8192)              0         
_________________________________________________________________
dense_792 (Dense)            (None, 100)               819300    
=================================================================
Total params: 893,615
Trainable params: 892,559
Non-trainable params: 1,056
_________________________________________________________________
