Model: "sequential_129"
_________________________________________________________________
Layer (type)                 Output Shape              Param #   
=================================================================
separable_conv2d_851 (Separa (None, 32, 32, 64)        283       
_________________________________________________________________
activation_1111 (Activation) (None, 32, 32, 64)        0         
_________________________________________________________________
dropout_1111 (Dropout)       (None, 32, 32, 64)        0         
_________________________________________________________________
separable_conv2d_852 (Separa (None, 32, 32, 1024)      67136     
_________________________________________________________________
batch_normalization_685 (Bat (None, 32, 32, 1024)      4096      
_________________________________________________________________
activation_1112 (Activation) (None, 32, 32, 1024)      0         
_________________________________________________________________
dropout_1112 (Dropout)       (None, 32, 32, 1024)      0         
_________________________________________________________________
separable_conv2d_853 (Separa (None, 32, 32, 16)        25616     
_________________________________________________________________
activation_1113 (Activation) (None, 32, 32, 16)        0         
_________________________________________________________________
dropout_1113 (Dropout)       (None, 32, 32, 16)        0         
_________________________________________________________________
max_pooling2d_237 (MaxPoolin (None, 16, 16, 16)        0         
_________________________________________________________________
separable_conv2d_854 (Separa (None, 16, 16, 64)        1232      
_________________________________________________________________
activation_1114 (Activation) (None, 16, 16, 64)        0         
_________________________________________________________________
dropout_1114 (Dropout)       (None, 16, 16, 64)        0         
_________________________________________________________________
separable_conv2d_855 (Separa (None, 16, 16, 8)         1096      
_________________________________________________________________
activation_1115 (Activation) (None, 16, 16, 8)         0         
_________________________________________________________________
dropout_1115 (Dropout)       (None, 16, 16, 8)         0         
_________________________________________________________________
separable_conv2d_856 (Separa (None, 16, 16, 16)        216       
_________________________________________________________________
batch_normalization_686 (Bat (None, 16, 16, 16)        64        
_________________________________________________________________
activation_1116 (Activation) (None, 16, 16, 16)        0         
_________________________________________________________________
dropout_1116 (Dropout)       (None, 16, 16, 16)        0         
_________________________________________________________________
separable_conv2d_857 (Separa (None, 16, 16, 32)        688       
_________________________________________________________________
batch_normalization_687 (Bat (None, 16, 16, 32)        128       
_________________________________________________________________
activation_1117 (Activation) (None, 16, 16, 32)        0         
_________________________________________________________________
dropout_1117 (Dropout)       (None, 16, 16, 32)        0         
_________________________________________________________________
separable_conv2d_858 (Separa (None, 16, 16, 512)       17184     
_________________________________________________________________
activation_1118 (Activation) (None, 16, 16, 512)       0         
_________________________________________________________________
dropout_1118 (Dropout)       (None, 16, 16, 512)       0         
_________________________________________________________________
separable_conv2d_859 (Separa (None, 16, 16, 32)        21024     
_________________________________________________________________
batch_normalization_688 (Bat (None, 16, 16, 32)        128       
_________________________________________________________________
activation_1119 (Activation) (None, 16, 16, 32)        0         
_________________________________________________________________
dropout_1119 (Dropout)       (None, 16, 16, 32)        0         
_________________________________________________________________
max_pooling2d_238 (MaxPoolin (None, 8, 8, 32)          0         
_________________________________________________________________
flatten_129 (Flatten)        (None, 2048)              0         
_________________________________________________________________
dense_389 (Dense)            (None, 100)               204900    
=================================================================
Total params: 343,791
Trainable params: 341,583
Non-trainable params: 2,208
_________________________________________________________________
