Model: "sequential_161"
_________________________________________________________________
Layer (type)                 Output Shape              Param #   
=================================================================
separable_conv2d_1041 (Separ (None, 32, 32, 16)        91        
_________________________________________________________________
activation_1362 (Activation) (None, 32, 32, 16)        0         
_________________________________________________________________
dropout_1362 (Dropout)       (None, 32, 32, 16)        0         
_________________________________________________________________
separable_conv2d_1042 (Separ (None, 32, 32, 16)        416       
_________________________________________________________________
batch_normalization_847 (Bat (None, 32, 32, 16)        64        
_________________________________________________________________
activation_1363 (Activation) (None, 32, 32, 16)        0         
_________________________________________________________________
dropout_1363 (Dropout)       (None, 32, 32, 16)        0         
_________________________________________________________________
separable_conv2d_1043 (Separ (None, 32, 32, 8)         280       
_________________________________________________________________
activation_1364 (Activation) (None, 32, 32, 8)         0         
_________________________________________________________________
dropout_1364 (Dropout)       (None, 32, 32, 8)         0         
_________________________________________________________________
separable_conv2d_1044 (Separ (None, 32, 32, 256)       2376      
_________________________________________________________________
batch_normalization_848 (Bat (None, 32, 32, 256)       1024      
_________________________________________________________________
activation_1365 (Activation) (None, 32, 32, 256)       0         
_________________________________________________________________
dropout_1365 (Dropout)       (None, 32, 32, 256)       0         
_________________________________________________________________
max_pooling2d_291 (MaxPoolin (None, 16, 16, 256)       0         
_________________________________________________________________
separable_conv2d_1045 (Separ (None, 16, 16, 128)       35200     
_________________________________________________________________
batch_normalization_849 (Bat (None, 16, 16, 128)       512       
_________________________________________________________________
activation_1366 (Activation) (None, 16, 16, 128)       0         
_________________________________________________________________
dropout_1366 (Dropout)       (None, 16, 16, 128)       0         
_________________________________________________________________
flatten_161 (Flatten)        (None, 32768)             0         
_________________________________________________________________
dense_482 (Dense)            (None, 512)               16777728  
_________________________________________________________________
activation_1367 (Activation) (None, 512)               0         
_________________________________________________________________
dropout_1367 (Dropout)       (None, 512)               0         
_________________________________________________________________
dense_483 (Dense)            (None, 128)               65664     
_________________________________________________________________
batch_normalization_850 (Bat (None, 128)               512       
_________________________________________________________________
activation_1368 (Activation) (None, 128)               0         
_________________________________________________________________
dropout_1368 (Dropout)       (None, 128)               0         
_________________________________________________________________
dense_484 (Dense)            (None, 100)               12900     
=================================================================
Total params: 16,896,767
Trainable params: 16,895,711
Non-trainable params: 1,056
_________________________________________________________________
