Model: "sequential_138"
_________________________________________________________________
Layer (type)                 Output Shape              Param #   
=================================================================
separable_conv2d_905 (Separa (None, 32, 32, 16)        91        
_________________________________________________________________
activation_1185 (Activation) (None, 32, 32, 16)        0         
_________________________________________________________________
dropout_1185 (Dropout)       (None, 32, 32, 16)        0         
_________________________________________________________________
separable_conv2d_906 (Separa (None, 32, 32, 16)        416       
_________________________________________________________________
batch_normalization_732 (Bat (None, 32, 32, 16)        64        
_________________________________________________________________
activation_1186 (Activation) (None, 32, 32, 16)        0         
_________________________________________________________________
dropout_1186 (Dropout)       (None, 32, 32, 16)        0         
_________________________________________________________________
separable_conv2d_907 (Separa (None, 32, 32, 128)       2320      
_________________________________________________________________
batch_normalization_733 (Bat (None, 32, 32, 128)       512       
_________________________________________________________________
activation_1187 (Activation) (None, 32, 32, 128)       0         
_________________________________________________________________
dropout_1187 (Dropout)       (None, 32, 32, 128)       0         
_________________________________________________________________
separable_conv2d_908 (Separa (None, 32, 32, 512)       67200     
_________________________________________________________________
activation_1188 (Activation) (None, 32, 32, 512)       0         
_________________________________________________________________
dropout_1188 (Dropout)       (None, 32, 32, 512)       0         
_________________________________________________________________
max_pooling2d_253 (MaxPoolin (None, 16, 16, 512)       0         
_________________________________________________________________
separable_conv2d_909 (Separa (None, 16, 16, 64)        37440     
_________________________________________________________________
activation_1189 (Activation) (None, 16, 16, 64)        0         
_________________________________________________________________
dropout_1189 (Dropout)       (None, 16, 16, 64)        0         
_________________________________________________________________
max_pooling2d_254 (MaxPoolin (None, 8, 8, 64)          0         
_________________________________________________________________
separable_conv2d_910 (Separa (None, 8, 8, 128)         8896      
_________________________________________________________________
batch_normalization_734 (Bat (None, 8, 8, 128)         512       
_________________________________________________________________
activation_1190 (Activation) (None, 8, 8, 128)         0         
_________________________________________________________________
dropout_1190 (Dropout)       (None, 8, 8, 128)         0         
_________________________________________________________________
flatten_138 (Flatten)        (None, 8192)              0         
_________________________________________________________________
dense_418 (Dense)            (None, 256)               2097408   
_________________________________________________________________
batch_normalization_735 (Bat (None, 256)               1024      
_________________________________________________________________
activation_1191 (Activation) (None, 256)               0         
_________________________________________________________________
dropout_1191 (Dropout)       (None, 256)               0         
_________________________________________________________________
dense_419 (Dense)            (None, 100)               25700     
=================================================================
Total params: 2,241,583
Trainable params: 2,240,527
Non-trainable params: 1,056
_________________________________________________________________
