Model: "sequential_363"
_________________________________________________________________
Layer (type)                 Output Shape              Param #   
=================================================================
separable_conv2d_2142 (Separ (None, 32, 32, 16)        91        
_________________________________________________________________
activation_2598 (Activation) (None, 32, 32, 16)        0         
_________________________________________________________________
dropout_2598 (Dropout)       (None, 32, 32, 16)        0         
_________________________________________________________________
separable_conv2d_2143 (Separ (None, 32, 32, 1024)      17552     
_________________________________________________________________
batch_normalization_1739 (Ba (None, 32, 32, 1024)      4096      
_________________________________________________________________
activation_2599 (Activation) (None, 32, 32, 1024)      0         
_________________________________________________________________
dropout_2599 (Dropout)       (None, 32, 32, 1024)      0         
_________________________________________________________________
separable_conv2d_2144 (Separ (None, 32, 32, 128)       140416    
_________________________________________________________________
batch_normalization_1740 (Ba (None, 32, 32, 128)       512       
_________________________________________________________________
activation_2600 (Activation) (None, 32, 32, 128)       0         
_________________________________________________________________
dropout_2600 (Dropout)       (None, 32, 32, 128)       0         
_________________________________________________________________
separable_conv2d_2145 (Separ (None, 32, 32, 256)       34176     
_________________________________________________________________
batch_normalization_1741 (Ba (None, 32, 32, 256)       1024      
_________________________________________________________________
activation_2601 (Activation) (None, 32, 32, 256)       0         
_________________________________________________________________
dropout_2601 (Dropout)       (None, 32, 32, 256)       0         
_________________________________________________________________
max_pooling2d_623 (MaxPoolin (None, 16, 16, 256)       0         
_________________________________________________________________
separable_conv2d_2146 (Separ (None, 16, 16, 128)       35200     
_________________________________________________________________
batch_normalization_1742 (Ba (None, 16, 16, 128)       512       
_________________________________________________________________
activation_2602 (Activation) (None, 16, 16, 128)       0         
_________________________________________________________________
dropout_2602 (Dropout)       (None, 16, 16, 128)       0         
_________________________________________________________________
max_pooling2d_624 (MaxPoolin (None, 8, 8, 128)         0         
_________________________________________________________________
flatten_363 (Flatten)        (None, 8192)              0         
_________________________________________________________________
dense_819 (Dense)            (None, 100)               819300    
=================================================================
Total params: 1,052,879
Trainable params: 1,049,807
Non-trainable params: 3,072
_________________________________________________________________
