Model: "sequential_224"
_________________________________________________________________
Layer (type)                 Output Shape              Param #   
=================================================================
separable_conv2d_1436 (Separ (None, 32, 32, 16)        91        
_________________________________________________________________
activation_1836 (Activation) (None, 32, 32, 16)        0         
_________________________________________________________________
dropout_1836 (Dropout)       (None, 32, 32, 16)        0         
_________________________________________________________________
separable_conv2d_1437 (Separ (None, 32, 32, 16)        416       
_________________________________________________________________
batch_normalization_1156 (Ba (None, 32, 32, 16)        64        
_________________________________________________________________
activation_1837 (Activation) (None, 32, 32, 16)        0         
_________________________________________________________________
dropout_1837 (Dropout)       (None, 32, 32, 16)        0         
_________________________________________________________________
separable_conv2d_1438 (Separ (None, 32, 32, 128)       2320      
_________________________________________________________________
batch_normalization_1157 (Ba (None, 32, 32, 128)       512       
_________________________________________________________________
activation_1838 (Activation) (None, 32, 32, 128)       0         
_________________________________________________________________
dropout_1838 (Dropout)       (None, 32, 32, 128)       0         
_________________________________________________________________
separable_conv2d_1439 (Separ (None, 32, 32, 32)        5280      
_________________________________________________________________
batch_normalization_1158 (Ba (None, 32, 32, 32)        128       
_________________________________________________________________
activation_1839 (Activation) (None, 32, 32, 32)        0         
_________________________________________________________________
dropout_1839 (Dropout)       (None, 32, 32, 32)        0         
_________________________________________________________________
max_pooling2d_396 (MaxPoolin (None, 16, 16, 32)        0         
_________________________________________________________________
flatten_224 (Flatten)        (None, 8192)              0         
_________________________________________________________________
dense_624 (Dense)            (None, 100)               819300    
=================================================================
Total params: 828,111
Trainable params: 827,759
Non-trainable params: 352
_________________________________________________________________
