Model: "sequential_390"
_________________________________________________________________
Layer (type)                 Output Shape              Param #   
=================================================================
separable_conv2d_2272 (Separ (None, 32, 32, 16)        91        
_________________________________________________________________
activation_2730 (Activation) (None, 32, 32, 16)        0         
_________________________________________________________________
dropout_2730 (Dropout)       (None, 32, 32, 16)        0         
_________________________________________________________________
separable_conv2d_2273 (Separ (None, 32, 32, 16)        416       
_________________________________________________________________
batch_normalization_1849 (Ba (None, 32, 32, 16)        64        
_________________________________________________________________
activation_2731 (Activation) (None, 32, 32, 16)        0         
_________________________________________________________________
dropout_2731 (Dropout)       (None, 32, 32, 16)        0         
_________________________________________________________________
separable_conv2d_2274 (Separ (None, 32, 32, 128)       2320      
_________________________________________________________________
batch_normalization_1850 (Ba (None, 32, 32, 128)       512       
_________________________________________________________________
activation_2732 (Activation) (None, 32, 32, 128)       0         
_________________________________________________________________
dropout_2732 (Dropout)       (None, 32, 32, 128)       0         
_________________________________________________________________
separable_conv2d_2275 (Separ (None, 32, 32, 256)       34176     
_________________________________________________________________
batch_normalization_1851 (Ba (None, 32, 32, 256)       1024      
_________________________________________________________________
activation_2733 (Activation) (None, 32, 32, 256)       0         
_________________________________________________________________
dropout_2733 (Dropout)       (None, 32, 32, 256)       0         
_________________________________________________________________
max_pooling2d_672 (MaxPoolin (None, 16, 16, 256)       0         
_________________________________________________________________
separable_conv2d_2276 (Separ (None, 16, 16, 128)       35200     
_________________________________________________________________
batch_normalization_1852 (Ba (None, 16, 16, 128)       512       
_________________________________________________________________
activation_2734 (Activation) (None, 16, 16, 128)       0         
_________________________________________________________________
dropout_2734 (Dropout)       (None, 16, 16, 128)       0         
_________________________________________________________________
max_pooling2d_673 (MaxPoolin (None, 8, 8, 128)         0         
_________________________________________________________________
flatten_390 (Flatten)        (None, 8192)              0         
_________________________________________________________________
dense_848 (Dense)            (None, 100)               819300    
=================================================================
Total params: 893,615
Trainable params: 892,559
Non-trainable params: 1,056
_________________________________________________________________
