Model: "sequential_309"
_________________________________________________________________
Layer (type)                 Output Shape              Param #   
=================================================================
separable_conv2d_1892 (Separ (None, 32, 32, 64)        283       
_________________________________________________________________
batch_normalization_1524 (Ba (None, 32, 32, 64)        256       
_________________________________________________________________
activation_2336 (Activation) (None, 32, 32, 64)        0         
_________________________________________________________________
dropout_2336 (Dropout)       (None, 32, 32, 64)        0         
_________________________________________________________________
separable_conv2d_1893 (Separ (None, 32, 32, 128)       8896      
_________________________________________________________________
batch_normalization_1525 (Ba (None, 32, 32, 128)       512       
_________________________________________________________________
activation_2337 (Activation) (None, 32, 32, 128)       0         
_________________________________________________________________
dropout_2337 (Dropout)       (None, 32, 32, 128)       0         
_________________________________________________________________
separable_conv2d_1894 (Separ (None, 32, 32, 128)       17664     
_________________________________________________________________
batch_normalization_1526 (Ba (None, 32, 32, 128)       512       
_________________________________________________________________
activation_2338 (Activation) (None, 32, 32, 128)       0         
_________________________________________________________________
dropout_2338 (Dropout)       (None, 32, 32, 128)       0         
_________________________________________________________________
max_pooling2d_527 (MaxPoolin (None, 16, 16, 128)       0         
_________________________________________________________________
flatten_309 (Flatten)        (None, 32768)             0         
_________________________________________________________________
dense_753 (Dense)            (None, 100)               3276900   
=================================================================
Total params: 3,305,023
Trainable params: 3,304,383
Non-trainable params: 640
_________________________________________________________________
