Model: "sequential_276"
_________________________________________________________________
Layer (type)                 Output Shape              Param #   
=================================================================
separable_conv2d_1722 (Separ (None, 32, 32, 64)        283       
_________________________________________________________________
batch_normalization_1379 (Ba (None, 32, 32, 64)        256       
_________________________________________________________________
activation_2147 (Activation) (None, 32, 32, 64)        0         
_________________________________________________________________
dropout_2147 (Dropout)       (None, 32, 32, 64)        0         
_________________________________________________________________
separable_conv2d_1723 (Separ (None, 32, 32, 1024)      67136     
_________________________________________________________________
batch_normalization_1380 (Ba (None, 32, 32, 1024)      4096      
_________________________________________________________________
activation_2148 (Activation) (None, 32, 32, 1024)      0         
_________________________________________________________________
dropout_2148 (Dropout)       (None, 32, 32, 1024)      0         
_________________________________________________________________
separable_conv2d_1724 (Separ (None, 32, 32, 128)       140416    
_________________________________________________________________
batch_normalization_1381 (Ba (None, 32, 32, 128)       512       
_________________________________________________________________
activation_2149 (Activation) (None, 32, 32, 128)       0         
_________________________________________________________________
dropout_2149 (Dropout)       (None, 32, 32, 128)       0         
_________________________________________________________________
separable_conv2d_1725 (Separ (None, 32, 32, 512)       67200     
_________________________________________________________________
activation_2150 (Activation) (None, 32, 32, 512)       0         
_________________________________________________________________
dropout_2150 (Dropout)       (None, 32, 32, 512)       0         
_________________________________________________________________
max_pooling2d_477 (MaxPoolin (None, 16, 16, 512)       0         
_________________________________________________________________
separable_conv2d_1726 (Separ (None, 16, 16, 512)       267264    
_________________________________________________________________
activation_2151 (Activation) (None, 16, 16, 512)       0         
_________________________________________________________________
dropout_2151 (Dropout)       (None, 16, 16, 512)       0         
_________________________________________________________________
separable_conv2d_1727 (Separ (None, 16, 16, 256)       135936    
_________________________________________________________________
batch_normalization_1382 (Ba (None, 16, 16, 256)       1024      
_________________________________________________________________
activation_2152 (Activation) (None, 16, 16, 256)       0         
_________________________________________________________________
dropout_2152 (Dropout)       (None, 16, 16, 256)       0         
_________________________________________________________________
max_pooling2d_478 (MaxPoolin (None, 8, 8, 256)         0         
_________________________________________________________________
flatten_276 (Flatten)        (None, 16384)             0         
_________________________________________________________________
dense_701 (Dense)            (None, 100)               1638500   
=================================================================
Total params: 2,322,623
Trainable params: 2,319,679
Non-trainable params: 2,944
_________________________________________________________________
