Model: "sequential_4"
_________________________________________________________________
Layer (type)                 Output Shape              Param #   
=================================================================
separable_conv2d_31 (Separab (None, 32, 32, 32)        155       
_________________________________________________________________
batch_normalization_19 (Batc (None, 32, 32, 32)        128       
_________________________________________________________________
activation_39 (Activation)   (None, 32, 32, 32)        0         
_________________________________________________________________
dropout_39 (Dropout)         (None, 32, 32, 32)        0         
_________________________________________________________________
max_pooling2d_8 (MaxPooling2 (None, 16, 16, 32)        0         
_________________________________________________________________
separable_conv2d_32 (Separab (None, 16, 16, 32)        1344      
_________________________________________________________________
activation_40 (Activation)   (None, 16, 16, 32)        0         
_________________________________________________________________
dropout_40 (Dropout)         (None, 16, 16, 32)        0         
_________________________________________________________________
separable_conv2d_33 (Separab (None, 16, 16, 32)        1344      
_________________________________________________________________
batch_normalization_20 (Batc (None, 16, 16, 32)        128       
_________________________________________________________________
activation_41 (Activation)   (None, 16, 16, 32)        0         
_________________________________________________________________
dropout_41 (Dropout)         (None, 16, 16, 32)        0         
_________________________________________________________________
separable_conv2d_34 (Separab (None, 16, 16, 8)         552       
_________________________________________________________________
batch_normalization_21 (Batc (None, 16, 16, 8)         32        
_________________________________________________________________
activation_42 (Activation)   (None, 16, 16, 8)         0         
_________________________________________________________________
dropout_42 (Dropout)         (None, 16, 16, 8)         0         
_________________________________________________________________
max_pooling2d_9 (MaxPooling2 (None, 8, 8, 8)           0         
_________________________________________________________________
separable_conv2d_35 (Separab (None, 8, 8, 512)         4680      
_________________________________________________________________
batch_normalization_22 (Batc (None, 8, 8, 512)         2048      
_________________________________________________________________
activation_43 (Activation)   (None, 8, 8, 512)         0         
_________________________________________________________________
dropout_43 (Dropout)         (None, 8, 8, 512)         0         
_________________________________________________________________
separable_conv2d_36 (Separab (None, 8, 8, 128)         70272     
_________________________________________________________________
activation_44 (Activation)   (None, 8, 8, 128)         0         
_________________________________________________________________
dropout_44 (Dropout)         (None, 8, 8, 128)         0         
_________________________________________________________________
separable_conv2d_37 (Separab (None, 8, 8, 32)          5280      
_________________________________________________________________
batch_normalization_23 (Batc (None, 8, 8, 32)          128       
_________________________________________________________________
activation_45 (Activation)   (None, 8, 8, 32)          0         
_________________________________________________________________
dropout_45 (Dropout)         (None, 8, 8, 32)          0         
_________________________________________________________________
max_pooling2d_10 (MaxPooling (None, 4, 4, 32)          0         
_________________________________________________________________
flatten_4 (Flatten)          (None, 512)               0         
_________________________________________________________________
dense_12 (Dense)             (None, 64)                32832     
_________________________________________________________________
activation_46 (Activation)   (None, 64)                0         
_________________________________________________________________
dropout_46 (Dropout)         (None, 64)                0         
_________________________________________________________________
dense_13 (Dense)             (None, 16)                1040      
_________________________________________________________________
activation_47 (Activation)   (None, 16)                0         
_________________________________________________________________
dropout_47 (Dropout)         (None, 16)                0         
_________________________________________________________________
dense_14 (Dense)             (None, 100)               1700      
=================================================================
Total params: 121,663
Trainable params: 120,431
Non-trainable params: 1,232
_________________________________________________________________
