Model: "sequential_23"
_________________________________________________________________
Layer (type)                 Output Shape              Param #   
=================================================================
separable_conv2d_175 (Separa (None, 32, 32, 8)         59        
_________________________________________________________________
activation_231 (Activation)  (None, 32, 32, 8)         0         
_________________________________________________________________
dropout_231 (Dropout)        (None, 32, 32, 8)         0         
_________________________________________________________________
max_pooling2d_46 (MaxPooling (None, 16, 16, 8)         0         
_________________________________________________________________
separable_conv2d_176 (Separa (None, 16, 16, 1024)      9288      
_________________________________________________________________
batch_normalization_129 (Bat (None, 16, 16, 1024)      4096      
_________________________________________________________________
activation_232 (Activation)  (None, 16, 16, 1024)      0         
_________________________________________________________________
dropout_232 (Dropout)        (None, 16, 16, 1024)      0         
_________________________________________________________________
separable_conv2d_177 (Separa (None, 16, 16, 128)       140416    
_________________________________________________________________
batch_normalization_130 (Bat (None, 16, 16, 128)       512       
_________________________________________________________________
activation_233 (Activation)  (None, 16, 16, 128)       0         
_________________________________________________________________
dropout_233 (Dropout)        (None, 16, 16, 128)       0         
_________________________________________________________________
separable_conv2d_178 (Separa (None, 16, 16, 512)       67200     
_________________________________________________________________
activation_234 (Activation)  (None, 16, 16, 512)       0         
_________________________________________________________________
dropout_234 (Dropout)        (None, 16, 16, 512)       0         
_________________________________________________________________
max_pooling2d_47 (MaxPooling (None, 8, 8, 512)         0         
_________________________________________________________________
separable_conv2d_179 (Separa (None, 8, 8, 256)         135936    
_________________________________________________________________
batch_normalization_131 (Bat (None, 8, 8, 256)         1024      
_________________________________________________________________
activation_235 (Activation)  (None, 8, 8, 256)         0         
_________________________________________________________________
dropout_235 (Dropout)        (None, 8, 8, 256)         0         
_________________________________________________________________
max_pooling2d_48 (MaxPooling (None, 4, 4, 256)         0         
_________________________________________________________________
flatten_23 (Flatten)         (None, 4096)              0         
_________________________________________________________________
dense_79 (Dense)             (None, 32)                131104    
_________________________________________________________________
batch_normalization_132 (Bat (None, 32)                128       
_________________________________________________________________
activation_236 (Activation)  (None, 32)                0         
_________________________________________________________________
dropout_236 (Dropout)        (None, 32)                0         
_________________________________________________________________
dense_80 (Dense)             (None, 512)               16896     
_________________________________________________________________
activation_237 (Activation)  (None, 512)               0         
_________________________________________________________________
dropout_237 (Dropout)        (None, 512)               0         
_________________________________________________________________
dense_81 (Dense)             (None, 512)               262656    
_________________________________________________________________
batch_normalization_133 (Bat (None, 512)               2048      
_________________________________________________________________
activation_238 (Activation)  (None, 512)               0         
_________________________________________________________________
dropout_238 (Dropout)        (None, 512)               0         
_________________________________________________________________
dense_82 (Dense)             (None, 100)               51300     
=================================================================
Total params: 822,663
Trainable params: 818,759
Non-trainable params: 3,904
_________________________________________________________________
