Model: "sequential_339"
_________________________________________________________________
Layer (type)                 Output Shape              Param #   
=================================================================
separable_conv2d_2031 (Separ (None, 32, 32, 64)        283       
_________________________________________________________________
batch_normalization_1638 (Ba (None, 32, 32, 64)        256       
_________________________________________________________________
activation_2481 (Activation) (None, 32, 32, 64)        0         
_________________________________________________________________
dropout_2481 (Dropout)       (None, 32, 32, 64)        0         
_________________________________________________________________
separable_conv2d_2032 (Separ (None, 32, 32, 128)       8896      
_________________________________________________________________
batch_normalization_1639 (Ba (None, 32, 32, 128)       512       
_________________________________________________________________
activation_2482 (Activation) (None, 32, 32, 128)       0         
_________________________________________________________________
dropout_2482 (Dropout)       (None, 32, 32, 128)       0         
_________________________________________________________________
separable_conv2d_2033 (Separ (None, 32, 32, 256)       34176     
_________________________________________________________________
activation_2483 (Activation) (None, 32, 32, 256)       0         
_________________________________________________________________
dropout_2483 (Dropout)       (None, 32, 32, 256)       0         
_________________________________________________________________
max_pooling2d_578 (MaxPoolin (None, 16, 16, 256)       0         
_________________________________________________________________
separable_conv2d_2034 (Separ (None, 16, 16, 32)        10528     
_________________________________________________________________
batch_normalization_1640 (Ba (None, 16, 16, 32)        128       
_________________________________________________________________
activation_2484 (Activation) (None, 16, 16, 32)        0         
_________________________________________________________________
dropout_2484 (Dropout)       (None, 16, 16, 32)        0         
_________________________________________________________________
max_pooling2d_579 (MaxPoolin (None, 8, 8, 32)          0         
_________________________________________________________________
flatten_339 (Flatten)        (None, 2048)              0         
_________________________________________________________________
dense_789 (Dense)            (None, 256)               524544    
_________________________________________________________________
batch_normalization_1641 (Ba (None, 256)               1024      
_________________________________________________________________
activation_2485 (Activation) (None, 256)               0         
_________________________________________________________________
dropout_2485 (Dropout)       (None, 256)               0         
_________________________________________________________________
dense_790 (Dense)            (None, 100)               25700     
=================================================================
Total params: 606,047
Trainable params: 605,087
Non-trainable params: 960
_________________________________________________________________
