Model: "sequential_111"
_________________________________________________________________
Layer (type)                 Output Shape              Param #   
=================================================================
separable_conv2d_740 (Separa (None, 32, 32, 16)        91        
_________________________________________________________________
activation_968 (Activation)  (None, 32, 32, 16)        0         
_________________________________________________________________
dropout_968 (Dropout)        (None, 32, 32, 16)        0         
_________________________________________________________________
separable_conv2d_741 (Separa (None, 32, 32, 16)        416       
_________________________________________________________________
batch_normalization_598 (Bat (None, 32, 32, 16)        64        
_________________________________________________________________
activation_969 (Activation)  (None, 32, 32, 16)        0         
_________________________________________________________________
dropout_969 (Dropout)        (None, 32, 32, 16)        0         
_________________________________________________________________
separable_conv2d_742 (Separa (None, 32, 32, 128)       2320      
_________________________________________________________________
batch_normalization_599 (Bat (None, 32, 32, 128)       512       
_________________________________________________________________
activation_970 (Activation)  (None, 32, 32, 128)       0         
_________________________________________________________________
dropout_970 (Dropout)        (None, 32, 32, 128)       0         
_________________________________________________________________
separable_conv2d_743 (Separa (None, 32, 32, 512)       67200     
_________________________________________________________________
activation_971 (Activation)  (None, 32, 32, 512)       0         
_________________________________________________________________
dropout_971 (Dropout)        (None, 32, 32, 512)       0         
_________________________________________________________________
max_pooling2d_208 (MaxPoolin (None, 16, 16, 512)       0         
_________________________________________________________________
separable_conv2d_744 (Separa (None, 16, 16, 256)       135936    
_________________________________________________________________
batch_normalization_600 (Bat (None, 16, 16, 256)       1024      
_________________________________________________________________
activation_972 (Activation)  (None, 16, 16, 256)       0         
_________________________________________________________________
dropout_972 (Dropout)        (None, 16, 16, 256)       0         
_________________________________________________________________
max_pooling2d_209 (MaxPoolin (None, 8, 8, 256)         0         
_________________________________________________________________
separable_conv2d_745 (Separa (None, 8, 8, 128)         35200     
_________________________________________________________________
batch_normalization_601 (Bat (None, 8, 8, 128)         512       
_________________________________________________________________
activation_973 (Activation)  (None, 8, 8, 128)         0         
_________________________________________________________________
dropout_973 (Dropout)        (None, 8, 8, 128)         0         
_________________________________________________________________
flatten_111 (Flatten)        (None, 8192)              0         
_________________________________________________________________
dense_339 (Dense)            (None, 512)               4194816   
_________________________________________________________________
activation_974 (Activation)  (None, 512)               0         
_________________________________________________________________
dropout_974 (Dropout)        (None, 512)               0         
_________________________________________________________________
dense_340 (Dense)            (None, 512)               262656    
_________________________________________________________________
batch_normalization_602 (Bat (None, 512)               2048      
_________________________________________________________________
activation_975 (Activation)  (None, 512)               0         
_________________________________________________________________
dropout_975 (Dropout)        (None, 512)               0         
_________________________________________________________________
dense_341 (Dense)            (None, 100)               51300     
=================================================================
Total params: 4,754,095
Trainable params: 4,752,015
Non-trainable params: 2,080
_________________________________________________________________
