Model: "sequential_178"
_________________________________________________________________
Layer (type)                 Output Shape              Param #   
=================================================================
separable_conv2d_1147 (Separ (None, 32, 32, 16)        91        
_________________________________________________________________
activation_1491 (Activation) (None, 32, 32, 16)        0         
_________________________________________________________________
dropout_1491 (Dropout)       (None, 32, 32, 16)        0         
_________________________________________________________________
separable_conv2d_1148 (Separ (None, 32, 32, 16)        416       
_________________________________________________________________
batch_normalization_927 (Bat (None, 32, 32, 16)        64        
_________________________________________________________________
activation_1492 (Activation) (None, 32, 32, 16)        0         
_________________________________________________________________
dropout_1492 (Dropout)       (None, 32, 32, 16)        0         
_________________________________________________________________
separable_conv2d_1149 (Separ (None, 32, 32, 128)       2320      
_________________________________________________________________
batch_normalization_928 (Bat (None, 32, 32, 128)       512       
_________________________________________________________________
activation_1493 (Activation) (None, 32, 32, 128)       0         
_________________________________________________________________
dropout_1493 (Dropout)       (None, 32, 32, 128)       0         
_________________________________________________________________
separable_conv2d_1150 (Separ (None, 32, 32, 512)       67200     
_________________________________________________________________
activation_1494 (Activation) (None, 32, 32, 512)       0         
_________________________________________________________________
dropout_1494 (Dropout)       (None, 32, 32, 512)       0         
_________________________________________________________________
separable_conv2d_1151 (Separ (None, 32, 32, 256)       135936    
_________________________________________________________________
batch_normalization_929 (Bat (None, 32, 32, 256)       1024      
_________________________________________________________________
activation_1495 (Activation) (None, 32, 32, 256)       0         
_________________________________________________________________
dropout_1495 (Dropout)       (None, 32, 32, 256)       0         
_________________________________________________________________
max_pooling2d_317 (MaxPoolin (None, 16, 16, 256)       0         
_________________________________________________________________
flatten_178 (Flatten)        (None, 65536)             0         
_________________________________________________________________
dense_522 (Dense)            (None, 256)               16777472  
_________________________________________________________________
batch_normalization_930 (Bat (None, 256)               1024      
_________________________________________________________________
activation_1496 (Activation) (None, 256)               0         
_________________________________________________________________
dropout_1496 (Dropout)       (None, 256)               0         
_________________________________________________________________
dense_523 (Dense)            (None, 256)               65792     
_________________________________________________________________
batch_normalization_931 (Bat (None, 256)               1024      
_________________________________________________________________
activation_1497 (Activation) (None, 256)               0         
_________________________________________________________________
dropout_1497 (Dropout)       (None, 256)               0         
_________________________________________________________________
dense_524 (Dense)            (None, 64)                16448     
_________________________________________________________________
batch_normalization_932 (Bat (None, 64)                256       
_________________________________________________________________
activation_1498 (Activation) (None, 64)                0         
_________________________________________________________________
dropout_1498 (Dropout)       (None, 64)                0         
_________________________________________________________________
dense_525 (Dense)            (None, 100)               6500      
=================================================================
Total params: 17,076,079
Trainable params: 17,074,127
Non-trainable params: 1,952
_________________________________________________________________
