Model: "sequential_241"
_________________________________________________________________
Layer (type)                 Output Shape              Param #   
=================================================================
separable_conv2d_1535 (Separ (None, 32, 32, 16)        91        
_________________________________________________________________
activation_1950 (Activation) (None, 32, 32, 16)        0         
_________________________________________________________________
dropout_1950 (Dropout)       (None, 32, 32, 16)        0         
_________________________________________________________________
separable_conv2d_1536 (Separ (None, 32, 32, 16)        416       
_________________________________________________________________
batch_normalization_1235 (Ba (None, 32, 32, 16)        64        
_________________________________________________________________
activation_1951 (Activation) (None, 32, 32, 16)        0         
_________________________________________________________________
dropout_1951 (Dropout)       (None, 32, 32, 16)        0         
_________________________________________________________________
separable_conv2d_1537 (Separ (None, 32, 32, 128)       2320      
_________________________________________________________________
batch_normalization_1236 (Ba (None, 32, 32, 128)       512       
_________________________________________________________________
activation_1952 (Activation) (None, 32, 32, 128)       0         
_________________________________________________________________
dropout_1952 (Dropout)       (None, 32, 32, 128)       0         
_________________________________________________________________
separable_conv2d_1538 (Separ (None, 32, 32, 512)       67200     
_________________________________________________________________
activation_1953 (Activation) (None, 32, 32, 512)       0         
_________________________________________________________________
dropout_1953 (Dropout)       (None, 32, 32, 512)       0         
_________________________________________________________________
separable_conv2d_1539 (Separ (None, 32, 32, 256)       135936    
_________________________________________________________________
batch_normalization_1237 (Ba (None, 32, 32, 256)       1024      
_________________________________________________________________
activation_1954 (Activation) (None, 32, 32, 256)       0         
_________________________________________________________________
dropout_1954 (Dropout)       (None, 32, 32, 256)       0         
_________________________________________________________________
max_pooling2d_426 (MaxPoolin (None, 16, 16, 256)       0         
_________________________________________________________________
flatten_241 (Flatten)        (None, 65536)             0         
_________________________________________________________________
dense_656 (Dense)            (None, 100)               6553700   
=================================================================
Total params: 6,761,263
Trainable params: 6,760,463
Non-trainable params: 800
_________________________________________________________________
