Model: "sequential_139"
_________________________________________________________________
Layer (type)                 Output Shape              Param #   
=================================================================
separable_conv2d_911 (Separa (None, 32, 32, 64)        283       
_________________________________________________________________
activation_1192 (Activation) (None, 32, 32, 64)        0         
_________________________________________________________________
dropout_1192 (Dropout)       (None, 32, 32, 64)        0         
_________________________________________________________________
separable_conv2d_912 (Separa (None, 32, 32, 1024)      67136     
_________________________________________________________________
batch_normalization_736 (Bat (None, 32, 32, 1024)      4096      
_________________________________________________________________
activation_1193 (Activation) (None, 32, 32, 1024)      0         
_________________________________________________________________
dropout_1193 (Dropout)       (None, 32, 32, 1024)      0         
_________________________________________________________________
separable_conv2d_913 (Separa (None, 32, 32, 128)       140416    
_________________________________________________________________
batch_normalization_737 (Bat (None, 32, 32, 128)       512       
_________________________________________________________________
activation_1194 (Activation) (None, 32, 32, 128)       0         
_________________________________________________________________
dropout_1194 (Dropout)       (None, 32, 32, 128)       0         
_________________________________________________________________
max_pooling2d_255 (MaxPoolin (None, 16, 16, 128)       0         
_________________________________________________________________
separable_conv2d_914 (Separa (None, 16, 16, 8)         2184      
_________________________________________________________________
activation_1195 (Activation) (None, 16, 16, 8)         0         
_________________________________________________________________
dropout_1195 (Dropout)       (None, 16, 16, 8)         0         
_________________________________________________________________
separable_conv2d_915 (Separa (None, 16, 16, 16)        216       
_________________________________________________________________
batch_normalization_738 (Bat (None, 16, 16, 16)        64        
_________________________________________________________________
activation_1196 (Activation) (None, 16, 16, 16)        0         
_________________________________________________________________
dropout_1196 (Dropout)       (None, 16, 16, 16)        0         
_________________________________________________________________
separable_conv2d_916 (Separa (None, 16, 16, 32)        688       
_________________________________________________________________
batch_normalization_739 (Bat (None, 16, 16, 32)        128       
_________________________________________________________________
activation_1197 (Activation) (None, 16, 16, 32)        0         
_________________________________________________________________
dropout_1197 (Dropout)       (None, 16, 16, 32)        0         
_________________________________________________________________
flatten_139 (Flatten)        (None, 8192)              0         
_________________________________________________________________
dense_420 (Dense)            (None, 256)               2097408   
_________________________________________________________________
batch_normalization_740 (Bat (None, 256)               1024      
_________________________________________________________________
activation_1198 (Activation) (None, 256)               0         
_________________________________________________________________
dropout_1198 (Dropout)       (None, 256)               0         
_________________________________________________________________
dense_421 (Dense)            (None, 256)               65792     
_________________________________________________________________
batch_normalization_741 (Bat (None, 256)               1024      
_________________________________________________________________
activation_1199 (Activation) (None, 256)               0         
_________________________________________________________________
dropout_1199 (Dropout)       (None, 256)               0         
_________________________________________________________________
dense_422 (Dense)            (None, 64)                16448     
_________________________________________________________________
batch_normalization_742 (Bat (None, 64)                256       
_________________________________________________________________
activation_1200 (Activation) (None, 64)                0         
_________________________________________________________________
dropout_1200 (Dropout)       (None, 64)                0         
_________________________________________________________________
dense_423 (Dense)            (None, 100)               6500      
=================================================================
Total params: 2,404,175
Trainable params: 2,400,623
Non-trainable params: 3,552
_________________________________________________________________
