Model: "sequential_38"
_________________________________________________________________
Layer (type)                 Output Shape              Param #   
=================================================================
separable_conv2d_273 (Separa (None, 32, 32, 16)        91        
_________________________________________________________________
activation_355 (Activation)  (None, 32, 32, 16)        0         
_________________________________________________________________
dropout_355 (Dropout)        (None, 32, 32, 16)        0         
_________________________________________________________________
separable_conv2d_274 (Separa (None, 32, 32, 16)        416       
_________________________________________________________________
batch_normalization_205 (Bat (None, 32, 32, 16)        64        
_________________________________________________________________
activation_356 (Activation)  (None, 32, 32, 16)        0         
_________________________________________________________________
dropout_356 (Dropout)        (None, 32, 32, 16)        0         
_________________________________________________________________
separable_conv2d_275 (Separa (None, 32, 32, 128)       2320      
_________________________________________________________________
batch_normalization_206 (Bat (None, 32, 32, 128)       512       
_________________________________________________________________
activation_357 (Activation)  (None, 32, 32, 128)       0         
_________________________________________________________________
dropout_357 (Dropout)        (None, 32, 32, 128)       0         
_________________________________________________________________
separable_conv2d_276 (Separa (None, 32, 32, 512)       67200     
_________________________________________________________________
activation_358 (Activation)  (None, 32, 32, 512)       0         
_________________________________________________________________
dropout_358 (Dropout)        (None, 32, 32, 512)       0         
_________________________________________________________________
max_pooling2d_77 (MaxPooling (None, 16, 16, 512)       0         
_________________________________________________________________
separable_conv2d_277 (Separa (None, 16, 16, 32)        21024     
_________________________________________________________________
batch_normalization_207 (Bat (None, 16, 16, 32)        128       
_________________________________________________________________
activation_359 (Activation)  (None, 16, 16, 32)        0         
_________________________________________________________________
dropout_359 (Dropout)        (None, 16, 16, 32)        0         
_________________________________________________________________
separable_conv2d_278 (Separa (None, 16, 16, 512)       17184     
_________________________________________________________________
activation_360 (Activation)  (None, 16, 16, 512)       0         
_________________________________________________________________
dropout_360 (Dropout)        (None, 16, 16, 512)       0         
_________________________________________________________________
separable_conv2d_279 (Separa (None, 16, 16, 32)        21024     
_________________________________________________________________
batch_normalization_208 (Bat (None, 16, 16, 32)        128       
_________________________________________________________________
activation_361 (Activation)  (None, 16, 16, 32)        0         
_________________________________________________________________
dropout_361 (Dropout)        (None, 16, 16, 32)        0         
_________________________________________________________________
max_pooling2d_78 (MaxPooling (None, 8, 8, 32)          0         
_________________________________________________________________
flatten_38 (Flatten)         (None, 2048)              0         
_________________________________________________________________
dense_120 (Dense)            (None, 100)               204900    
=================================================================
Total params: 334,991
Trainable params: 334,575
Non-trainable params: 416
_________________________________________________________________
