Model: "sequential_123"
_________________________________________________________________
Layer (type)                 Output Shape              Param #   
=================================================================
separable_conv2d_818 (Separa (None, 32, 32, 16)        91        
_________________________________________________________________
activation_1062 (Activation) (None, 32, 32, 16)        0         
_________________________________________________________________
dropout_1062 (Dropout)       (None, 32, 32, 16)        0         
_________________________________________________________________
separable_conv2d_819 (Separa (None, 32, 32, 16)        416       
_________________________________________________________________
batch_normalization_654 (Bat (None, 32, 32, 16)        64        
_________________________________________________________________
activation_1063 (Activation) (None, 32, 32, 16)        0         
_________________________________________________________________
dropout_1063 (Dropout)       (None, 32, 32, 16)        0         
_________________________________________________________________
separable_conv2d_820 (Separa (None, 32, 32, 16)        416       
_________________________________________________________________
activation_1064 (Activation) (None, 32, 32, 16)        0         
_________________________________________________________________
dropout_1064 (Dropout)       (None, 32, 32, 16)        0         
_________________________________________________________________
separable_conv2d_821 (Separa (None, 32, 32, 128)       2320      
_________________________________________________________________
batch_normalization_655 (Bat (None, 32, 32, 128)       512       
_________________________________________________________________
activation_1065 (Activation) (None, 32, 32, 128)       0         
_________________________________________________________________
dropout_1065 (Dropout)       (None, 32, 32, 128)       0         
_________________________________________________________________
separable_conv2d_822 (Separa (None, 32, 32, 512)       67200     
_________________________________________________________________
activation_1066 (Activation) (None, 32, 32, 512)       0         
_________________________________________________________________
dropout_1066 (Dropout)       (None, 32, 32, 512)       0         
_________________________________________________________________
max_pooling2d_228 (MaxPoolin (None, 16, 16, 512)       0         
_________________________________________________________________
separable_conv2d_823 (Separa (None, 16, 16, 256)       135936    
_________________________________________________________________
batch_normalization_656 (Bat (None, 16, 16, 256)       1024      
_________________________________________________________________
activation_1067 (Activation) (None, 16, 16, 256)       0         
_________________________________________________________________
dropout_1067 (Dropout)       (None, 16, 16, 256)       0         
_________________________________________________________________
max_pooling2d_229 (MaxPoolin (None, 8, 8, 256)         0         
_________________________________________________________________
separable_conv2d_824 (Separa (None, 8, 8, 128)         35200     
_________________________________________________________________
batch_normalization_657 (Bat (None, 8, 8, 128)         512       
_________________________________________________________________
activation_1068 (Activation) (None, 8, 8, 128)         0         
_________________________________________________________________
dropout_1068 (Dropout)       (None, 8, 8, 128)         0         
_________________________________________________________________
flatten_123 (Flatten)        (None, 8192)              0         
_________________________________________________________________
dense_367 (Dense)            (None, 32)                262176    
_________________________________________________________________
batch_normalization_658 (Bat (None, 32)                128       
_________________________________________________________________
activation_1069 (Activation) (None, 32)                0         
_________________________________________________________________
dropout_1069 (Dropout)       (None, 32)                0         
_________________________________________________________________
dense_368 (Dense)            (None, 512)               16896     
_________________________________________________________________
activation_1070 (Activation) (None, 512)               0         
_________________________________________________________________
dropout_1070 (Dropout)       (None, 512)               0         
_________________________________________________________________
dense_369 (Dense)            (None, 512)               262656    
_________________________________________________________________
batch_normalization_659 (Bat (None, 512)               2048      
_________________________________________________________________
activation_1071 (Activation) (None, 512)               0         
_________________________________________________________________
dropout_1071 (Dropout)       (None, 512)               0         
_________________________________________________________________
dense_370 (Dense)            (None, 100)               51300     
=================================================================
Total params: 838,895
Trainable params: 836,751
Non-trainable params: 2,144
_________________________________________________________________
