Model: "sequential_133"
_________________________________________________________________
Layer (type)                 Output Shape              Param #   
=================================================================
separable_conv2d_876 (Separa (None, 32, 32, 16)        91        
_________________________________________________________________
activation_1144 (Activation) (None, 32, 32, 16)        0         
_________________________________________________________________
dropout_1144 (Dropout)       (None, 32, 32, 16)        0         
_________________________________________________________________
separable_conv2d_877 (Separa (None, 32, 32, 16)        416       
_________________________________________________________________
batch_normalization_708 (Bat (None, 32, 32, 16)        64        
_________________________________________________________________
activation_1145 (Activation) (None, 32, 32, 16)        0         
_________________________________________________________________
dropout_1145 (Dropout)       (None, 32, 32, 16)        0         
_________________________________________________________________
separable_conv2d_878 (Separa (None, 32, 32, 128)       2320      
_________________________________________________________________
batch_normalization_709 (Bat (None, 32, 32, 128)       512       
_________________________________________________________________
activation_1146 (Activation) (None, 32, 32, 128)       0         
_________________________________________________________________
dropout_1146 (Dropout)       (None, 32, 32, 128)       0         
_________________________________________________________________
separable_conv2d_879 (Separa (None, 32, 32, 512)       67200     
_________________________________________________________________
activation_1147 (Activation) (None, 32, 32, 512)       0         
_________________________________________________________________
dropout_1147 (Dropout)       (None, 32, 32, 512)       0         
_________________________________________________________________
max_pooling2d_243 (MaxPoolin (None, 16, 16, 512)       0         
_________________________________________________________________
separable_conv2d_880 (Separa (None, 16, 16, 256)       135936    
_________________________________________________________________
batch_normalization_710 (Bat (None, 16, 16, 256)       1024      
_________________________________________________________________
activation_1148 (Activation) (None, 16, 16, 256)       0         
_________________________________________________________________
dropout_1148 (Dropout)       (None, 16, 16, 256)       0         
_________________________________________________________________
max_pooling2d_244 (MaxPoolin (None, 8, 8, 256)         0         
_________________________________________________________________
separable_conv2d_881 (Separa (None, 8, 8, 128)         35200     
_________________________________________________________________
batch_normalization_711 (Bat (None, 8, 8, 128)         512       
_________________________________________________________________
activation_1149 (Activation) (None, 8, 8, 128)         0         
_________________________________________________________________
dropout_1149 (Dropout)       (None, 8, 8, 128)         0         
_________________________________________________________________
flatten_133 (Flatten)        (None, 8192)              0         
_________________________________________________________________
dense_401 (Dense)            (None, 512)               4194816   
_________________________________________________________________
activation_1150 (Activation) (None, 512)               0         
_________________________________________________________________
dropout_1150 (Dropout)       (None, 512)               0         
_________________________________________________________________
dense_402 (Dense)            (None, 512)               262656    
_________________________________________________________________
batch_normalization_712 (Bat (None, 512)               2048      
_________________________________________________________________
activation_1151 (Activation) (None, 512)               0         
_________________________________________________________________
dropout_1151 (Dropout)       (None, 512)               0         
_________________________________________________________________
dense_403 (Dense)            (None, 100)               51300     
=================================================================
Total params: 4,754,095
Trainable params: 4,752,015
Non-trainable params: 2,080
_________________________________________________________________
