Model: "sequential_349"
_________________________________________________________________
Layer (type)                 Output Shape              Param #   
=================================================================
separable_conv2d_2077 (Separ (None, 32, 32, 64)        283       
_________________________________________________________________
batch_normalization_1678 (Ba (None, 32, 32, 64)        256       
_________________________________________________________________
activation_2529 (Activation) (None, 32, 32, 64)        0         
_________________________________________________________________
dropout_2529 (Dropout)       (None, 32, 32, 64)        0         
_________________________________________________________________
separable_conv2d_2078 (Separ (None, 32, 32, 128)       8896      
_________________________________________________________________
batch_normalization_1679 (Ba (None, 32, 32, 128)       512       
_________________________________________________________________
activation_2530 (Activation) (None, 32, 32, 128)       0         
_________________________________________________________________
dropout_2530 (Dropout)       (None, 32, 32, 128)       0         
_________________________________________________________________
separable_conv2d_2079 (Separ (None, 32, 32, 256)       34176     
_________________________________________________________________
batch_normalization_1680 (Ba (None, 32, 32, 256)       1024      
_________________________________________________________________
activation_2531 (Activation) (None, 32, 32, 256)       0         
_________________________________________________________________
dropout_2531 (Dropout)       (None, 32, 32, 256)       0         
_________________________________________________________________
max_pooling2d_598 (MaxPoolin (None, 16, 16, 256)       0         
_________________________________________________________________
separable_conv2d_2080 (Separ (None, 16, 16, 128)       35200     
_________________________________________________________________
batch_normalization_1681 (Ba (None, 16, 16, 128)       512       
_________________________________________________________________
activation_2532 (Activation) (None, 16, 16, 128)       0         
_________________________________________________________________
dropout_2532 (Dropout)       (None, 16, 16, 128)       0         
_________________________________________________________________
max_pooling2d_599 (MaxPoolin (None, 8, 8, 128)         0         
_________________________________________________________________
flatten_349 (Flatten)        (None, 8192)              0         
_________________________________________________________________
dense_801 (Dense)            (None, 100)               819300    
=================================================================
Total params: 900,159
Trainable params: 899,007
Non-trainable params: 1,152
_________________________________________________________________
