Model: "sequential_353"
_________________________________________________________________
Layer (type)                 Output Shape              Param #   
=================================================================
separable_conv2d_2094 (Separ (None, 32, 32, 64)        283       
_________________________________________________________________
batch_normalization_1694 (Ba (None, 32, 32, 64)        256       
_________________________________________________________________
activation_2547 (Activation) (None, 32, 32, 64)        0         
_________________________________________________________________
dropout_2547 (Dropout)       (None, 32, 32, 64)        0         
_________________________________________________________________
separable_conv2d_2095 (Separ (None, 32, 32, 1024)      67136     
_________________________________________________________________
batch_normalization_1695 (Ba (None, 32, 32, 1024)      4096      
_________________________________________________________________
activation_2548 (Activation) (None, 32, 32, 1024)      0         
_________________________________________________________________
dropout_2548 (Dropout)       (None, 32, 32, 1024)      0         
_________________________________________________________________
separable_conv2d_2096 (Separ (None, 32, 32, 8)         17416     
_________________________________________________________________
batch_normalization_1696 (Ba (None, 32, 32, 8)         32        
_________________________________________________________________
activation_2549 (Activation) (None, 32, 32, 8)         0         
_________________________________________________________________
dropout_2549 (Dropout)       (None, 32, 32, 8)         0         
_________________________________________________________________
separable_conv2d_2097 (Separ (None, 32, 32, 128)       1224      
_________________________________________________________________
batch_normalization_1697 (Ba (None, 32, 32, 128)       512       
_________________________________________________________________
activation_2550 (Activation) (None, 32, 32, 128)       0         
_________________________________________________________________
dropout_2550 (Dropout)       (None, 32, 32, 128)       0         
_________________________________________________________________
separable_conv2d_2098 (Separ (None, 32, 32, 256)       34176     
_________________________________________________________________
batch_normalization_1698 (Ba (None, 32, 32, 256)       1024      
_________________________________________________________________
activation_2551 (Activation) (None, 32, 32, 256)       0         
_________________________________________________________________
dropout_2551 (Dropout)       (None, 32, 32, 256)       0         
_________________________________________________________________
max_pooling2d_604 (MaxPoolin (None, 16, 16, 256)       0         
_________________________________________________________________
separable_conv2d_2099 (Separ (None, 16, 16, 128)       35200     
_________________________________________________________________
batch_normalization_1699 (Ba (None, 16, 16, 128)       512       
_________________________________________________________________
activation_2552 (Activation) (None, 16, 16, 128)       0         
_________________________________________________________________
dropout_2552 (Dropout)       (None, 16, 16, 128)       0         
_________________________________________________________________
flatten_353 (Flatten)        (None, 32768)             0         
_________________________________________________________________
dense_806 (Dense)            (None, 256)               8388864   
_________________________________________________________________
batch_normalization_1700 (Ba (None, 256)               1024      
_________________________________________________________________
activation_2553 (Activation) (None, 256)               0         
_________________________________________________________________
dropout_2553 (Dropout)       (None, 256)               0         
_________________________________________________________________
dense_807 (Dense)            (None, 100)               25700     
=================================================================
Total params: 8,577,455
Trainable params: 8,573,727
Non-trainable params: 3,728
_________________________________________________________________
