Model: "sequential_142"
_________________________________________________________________
Layer (type)                 Output Shape              Param #   
=================================================================
separable_conv2d_929 (Separa (None, 32, 32, 16)        91        
_________________________________________________________________
activation_1217 (Activation) (None, 32, 32, 16)        0         
_________________________________________________________________
dropout_1217 (Dropout)       (None, 32, 32, 16)        0         
_________________________________________________________________
separable_conv2d_930 (Separa (None, 32, 32, 16)        416       
_________________________________________________________________
batch_normalization_752 (Bat (None, 32, 32, 16)        64        
_________________________________________________________________
activation_1218 (Activation) (None, 32, 32, 16)        0         
_________________________________________________________________
dropout_1218 (Dropout)       (None, 32, 32, 16)        0         
_________________________________________________________________
separable_conv2d_931 (Separa (None, 32, 32, 128)       2320      
_________________________________________________________________
batch_normalization_753 (Bat (None, 32, 32, 128)       512       
_________________________________________________________________
activation_1219 (Activation) (None, 32, 32, 128)       0         
_________________________________________________________________
dropout_1219 (Dropout)       (None, 32, 32, 128)       0         
_________________________________________________________________
separable_conv2d_932 (Separa (None, 32, 32, 512)       67200     
_________________________________________________________________
activation_1220 (Activation) (None, 32, 32, 512)       0         
_________________________________________________________________
dropout_1220 (Dropout)       (None, 32, 32, 512)       0         
_________________________________________________________________
max_pooling2d_258 (MaxPoolin (None, 16, 16, 512)       0         
_________________________________________________________________
separable_conv2d_933 (Separa (None, 16, 16, 256)       135936    
_________________________________________________________________
batch_normalization_754 (Bat (None, 16, 16, 256)       1024      
_________________________________________________________________
activation_1221 (Activation) (None, 16, 16, 256)       0         
_________________________________________________________________
dropout_1221 (Dropout)       (None, 16, 16, 256)       0         
_________________________________________________________________
max_pooling2d_259 (MaxPoolin (None, 8, 8, 256)         0         
_________________________________________________________________
flatten_142 (Flatten)        (None, 16384)             0         
_________________________________________________________________
dense_430 (Dense)            (None, 256)               4194560   
_________________________________________________________________
batch_normalization_755 (Bat (None, 256)               1024      
_________________________________________________________________
activation_1222 (Activation) (None, 256)               0         
_________________________________________________________________
dropout_1222 (Dropout)       (None, 256)               0         
_________________________________________________________________
dense_431 (Dense)            (None, 256)               65792     
_________________________________________________________________
batch_normalization_756 (Bat (None, 256)               1024      
_________________________________________________________________
activation_1223 (Activation) (None, 256)               0         
_________________________________________________________________
dropout_1223 (Dropout)       (None, 256)               0         
_________________________________________________________________
dense_432 (Dense)            (None, 64)                16448     
_________________________________________________________________
batch_normalization_757 (Bat (None, 64)                256       
_________________________________________________________________
activation_1224 (Activation) (None, 64)                0         
_________________________________________________________________
dropout_1224 (Dropout)       (None, 64)                0         
_________________________________________________________________
dense_433 (Dense)            (None, 100)               6500      
=================================================================
Total params: 4,493,167
Trainable params: 4,491,215
Non-trainable params: 1,952
_________________________________________________________________
