Model: "sequential_131"
_________________________________________________________________
Layer (type)                 Output Shape              Param #   
=================================================================
separable_conv2d_865 (Separa (None, 32, 32, 16)        91        
_________________________________________________________________
activation_1128 (Activation) (None, 32, 32, 16)        0         
_________________________________________________________________
dropout_1128 (Dropout)       (None, 32, 32, 16)        0         
_________________________________________________________________
separable_conv2d_866 (Separa (None, 32, 32, 16)        416       
_________________________________________________________________
batch_normalization_696 (Bat (None, 32, 32, 16)        64        
_________________________________________________________________
activation_1129 (Activation) (None, 32, 32, 16)        0         
_________________________________________________________________
dropout_1129 (Dropout)       (None, 32, 32, 16)        0         
_________________________________________________________________
separable_conv2d_867 (Separa (None, 32, 32, 128)       2320      
_________________________________________________________________
batch_normalization_697 (Bat (None, 32, 32, 128)       512       
_________________________________________________________________
activation_1130 (Activation) (None, 32, 32, 128)       0         
_________________________________________________________________
dropout_1130 (Dropout)       (None, 32, 32, 128)       0         
_________________________________________________________________
separable_conv2d_868 (Separa (None, 32, 32, 16)        3216      
_________________________________________________________________
batch_normalization_698 (Bat (None, 32, 32, 16)        64        
_________________________________________________________________
activation_1131 (Activation) (None, 32, 32, 16)        0         
_________________________________________________________________
dropout_1131 (Dropout)       (None, 32, 32, 16)        0         
_________________________________________________________________
separable_conv2d_869 (Separa (None, 32, 32, 512)       8848      
_________________________________________________________________
batch_normalization_699 (Bat (None, 32, 32, 512)       2048      
_________________________________________________________________
activation_1132 (Activation) (None, 32, 32, 512)       0         
_________________________________________________________________
dropout_1132 (Dropout)       (None, 32, 32, 512)       0         
_________________________________________________________________
separable_conv2d_870 (Separa (None, 32, 32, 128)       70272     
_________________________________________________________________
batch_normalization_700 (Bat (None, 32, 32, 128)       512       
_________________________________________________________________
activation_1133 (Activation) (None, 32, 32, 128)       0         
_________________________________________________________________
dropout_1133 (Dropout)       (None, 32, 32, 128)       0         
_________________________________________________________________
flatten_131 (Flatten)        (None, 131072)            0         
_________________________________________________________________
dense_394 (Dense)            (None, 512)               67109376  
_________________________________________________________________
activation_1134 (Activation) (None, 512)               0         
_________________________________________________________________
dropout_1134 (Dropout)       (None, 512)               0         
_________________________________________________________________
dense_395 (Dense)            (None, 512)               262656    
_________________________________________________________________
batch_normalization_701 (Bat (None, 512)               2048      
_________________________________________________________________
activation_1135 (Activation) (None, 512)               0         
_________________________________________________________________
dropout_1135 (Dropout)       (None, 512)               0         
_________________________________________________________________
dense_396 (Dense)            (None, 100)               51300     
=================================================================
Total params: 67,513,743
Trainable params: 67,511,119
Non-trainable params: 2,624
_________________________________________________________________
