Model: "sequential_60"
_________________________________________________________________
Layer (type)                 Output Shape              Param #   
=================================================================
separable_conv2d_414 (Separa (None, 32, 32, 16)        91        
_________________________________________________________________
activation_536 (Activation)  (None, 32, 32, 16)        0         
_________________________________________________________________
dropout_536 (Dropout)        (None, 32, 32, 16)        0         
_________________________________________________________________
separable_conv2d_415 (Separa (None, 32, 32, 16)        416       
_________________________________________________________________
batch_normalization_318 (Bat (None, 32, 32, 16)        64        
_________________________________________________________________
activation_537 (Activation)  (None, 32, 32, 16)        0         
_________________________________________________________________
dropout_537 (Dropout)        (None, 32, 32, 16)        0         
_________________________________________________________________
separable_conv2d_416 (Separa (None, 32, 32, 128)       2320      
_________________________________________________________________
batch_normalization_319 (Bat (None, 32, 32, 128)       512       
_________________________________________________________________
activation_538 (Activation)  (None, 32, 32, 128)       0         
_________________________________________________________________
dropout_538 (Dropout)        (None, 32, 32, 128)       0         
_________________________________________________________________
separable_conv2d_417 (Separa (None, 32, 32, 512)       67200     
_________________________________________________________________
activation_539 (Activation)  (None, 32, 32, 512)       0         
_________________________________________________________________
dropout_539 (Dropout)        (None, 32, 32, 512)       0         
_________________________________________________________________
max_pooling2d_118 (MaxPoolin (None, 16, 16, 512)       0         
_________________________________________________________________
separable_conv2d_418 (Separa (None, 16, 16, 256)       135936    
_________________________________________________________________
batch_normalization_320 (Bat (None, 16, 16, 256)       1024      
_________________________________________________________________
activation_540 (Activation)  (None, 16, 16, 256)       0         
_________________________________________________________________
dropout_540 (Dropout)        (None, 16, 16, 256)       0         
_________________________________________________________________
separable_conv2d_419 (Separa (None, 16, 16, 64)        18752     
_________________________________________________________________
activation_541 (Activation)  (None, 16, 16, 64)        0         
_________________________________________________________________
dropout_541 (Dropout)        (None, 16, 16, 64)        0         
_________________________________________________________________
max_pooling2d_119 (MaxPoolin (None, 8, 8, 64)          0         
_________________________________________________________________
separable_conv2d_420 (Separa (None, 8, 8, 128)         8896      
_________________________________________________________________
batch_normalization_321 (Bat (None, 8, 8, 128)         512       
_________________________________________________________________
activation_542 (Activation)  (None, 8, 8, 128)         0         
_________________________________________________________________
dropout_542 (Dropout)        (None, 8, 8, 128)         0         
_________________________________________________________________
flatten_60 (Flatten)         (None, 8192)              0         
_________________________________________________________________
dense_182 (Dense)            (None, 100)               819300    
=================================================================
Total params: 1,055,023
Trainable params: 1,053,967
Non-trainable params: 1,056
_________________________________________________________________
