Model: "sequential_190"
_________________________________________________________________
Layer (type)                 Output Shape              Param #   
=================================================================
separable_conv2d_1221 (Separ (None, 32, 32, 16)        91        
_________________________________________________________________
activation_1584 (Activation) (None, 32, 32, 16)        0         
_________________________________________________________________
dropout_1584 (Dropout)       (None, 32, 32, 16)        0         
_________________________________________________________________
separable_conv2d_1222 (Separ (None, 32, 32, 16)        416       
_________________________________________________________________
batch_normalization_987 (Bat (None, 32, 32, 16)        64        
_________________________________________________________________
activation_1585 (Activation) (None, 32, 32, 16)        0         
_________________________________________________________________
dropout_1585 (Dropout)       (None, 32, 32, 16)        0         
_________________________________________________________________
separable_conv2d_1223 (Separ (None, 32, 32, 128)       2320      
_________________________________________________________________
batch_normalization_988 (Bat (None, 32, 32, 128)       512       
_________________________________________________________________
activation_1586 (Activation) (None, 32, 32, 128)       0         
_________________________________________________________________
dropout_1586 (Dropout)       (None, 32, 32, 128)       0         
_________________________________________________________________
separable_conv2d_1224 (Separ (None, 32, 32, 512)       67200     
_________________________________________________________________
activation_1587 (Activation) (None, 32, 32, 512)       0         
_________________________________________________________________
dropout_1587 (Dropout)       (None, 32, 32, 512)       0         
_________________________________________________________________
separable_conv2d_1225 (Separ (None, 32, 32, 16)        12816     
_________________________________________________________________
batch_normalization_989 (Bat (None, 32, 32, 16)        64        
_________________________________________________________________
activation_1588 (Activation) (None, 32, 32, 16)        0         
_________________________________________________________________
dropout_1588 (Dropout)       (None, 32, 32, 16)        0         
_________________________________________________________________
separable_conv2d_1226 (Separ (None, 32, 32, 32)        688       
_________________________________________________________________
batch_normalization_990 (Bat (None, 32, 32, 32)        128       
_________________________________________________________________
activation_1589 (Activation) (None, 32, 32, 32)        0         
_________________________________________________________________
dropout_1589 (Dropout)       (None, 32, 32, 32)        0         
_________________________________________________________________
separable_conv2d_1227 (Separ (None, 32, 32, 512)       17184     
_________________________________________________________________
activation_1590 (Activation) (None, 32, 32, 512)       0         
_________________________________________________________________
dropout_1590 (Dropout)       (None, 32, 32, 512)       0         
_________________________________________________________________
separable_conv2d_1228 (Separ (None, 32, 32, 32)        21024     
_________________________________________________________________
batch_normalization_991 (Bat (None, 32, 32, 32)        128       
_________________________________________________________________
activation_1591 (Activation) (None, 32, 32, 32)        0         
_________________________________________________________________
dropout_1591 (Dropout)       (None, 32, 32, 32)        0         
_________________________________________________________________
max_pooling2d_339 (MaxPoolin (None, 16, 16, 32)        0         
_________________________________________________________________
flatten_190 (Flatten)        (None, 8192)              0         
_________________________________________________________________
dense_553 (Dense)            (None, 100)               819300    
=================================================================
Total params: 941,935
Trainable params: 941,487
Non-trainable params: 448
_________________________________________________________________
