Model: "sequential_329"
_________________________________________________________________
Layer (type)                 Output Shape              Param #   
=================================================================
separable_conv2d_1986 (Separ (None, 32, 32, 16)        91        
_________________________________________________________________
activation_2433 (Activation) (None, 32, 32, 16)        0         
_________________________________________________________________
dropout_2433 (Dropout)       (None, 32, 32, 16)        0         
_________________________________________________________________
separable_conv2d_1987 (Separ (None, 32, 32, 16)        416       
_________________________________________________________________
batch_normalization_1599 (Ba (None, 32, 32, 16)        64        
_________________________________________________________________
activation_2434 (Activation) (None, 32, 32, 16)        0         
_________________________________________________________________
dropout_2434 (Dropout)       (None, 32, 32, 16)        0         
_________________________________________________________________
separable_conv2d_1988 (Separ (None, 32, 32, 128)       2320      
_________________________________________________________________
batch_normalization_1600 (Ba (None, 32, 32, 128)       512       
_________________________________________________________________
activation_2435 (Activation) (None, 32, 32, 128)       0         
_________________________________________________________________
dropout_2435 (Dropout)       (None, 32, 32, 128)       0         
_________________________________________________________________
separable_conv2d_1989 (Separ (None, 32, 32, 256)       34176     
_________________________________________________________________
batch_normalization_1601 (Ba (None, 32, 32, 256)       1024      
_________________________________________________________________
activation_2436 (Activation) (None, 32, 32, 256)       0         
_________________________________________________________________
dropout_2436 (Dropout)       (None, 32, 32, 256)       0         
_________________________________________________________________
max_pooling2d_560 (MaxPoolin (None, 16, 16, 256)       0         
_________________________________________________________________
separable_conv2d_1990 (Separ (None, 16, 16, 128)       35200     
_________________________________________________________________
batch_normalization_1602 (Ba (None, 16, 16, 128)       512       
_________________________________________________________________
activation_2437 (Activation) (None, 16, 16, 128)       0         
_________________________________________________________________
dropout_2437 (Dropout)       (None, 16, 16, 128)       0         
_________________________________________________________________
max_pooling2d_561 (MaxPoolin (None, 8, 8, 128)         0         
_________________________________________________________________
flatten_329 (Flatten)        (None, 8192)              0         
_________________________________________________________________
dense_776 (Dense)            (None, 100)               819300    
=================================================================
Total params: 893,615
Trainable params: 892,559
Non-trainable params: 1,056
_________________________________________________________________
