Model: "sequential_45"
_________________________________________________________________
Layer (type)                 Output Shape              Param #   
=================================================================
separable_conv2d_319 (Separa (None, 32, 32, 16)        91        
_________________________________________________________________
activation_412 (Activation)  (None, 32, 32, 16)        0         
_________________________________________________________________
dropout_412 (Dropout)        (None, 32, 32, 16)        0         
_________________________________________________________________
separable_conv2d_320 (Separa (None, 32, 32, 16)        416       
_________________________________________________________________
batch_normalization_239 (Bat (None, 32, 32, 16)        64        
_________________________________________________________________
activation_413 (Activation)  (None, 32, 32, 16)        0         
_________________________________________________________________
dropout_413 (Dropout)        (None, 32, 32, 16)        0         
_________________________________________________________________
separable_conv2d_321 (Separa (None, 32, 32, 128)       2320      
_________________________________________________________________
activation_414 (Activation)  (None, 32, 32, 128)       0         
_________________________________________________________________
dropout_414 (Dropout)        (None, 32, 32, 128)       0         
_________________________________________________________________
separable_conv2d_322 (Separa (None, 32, 32, 512)       67200     
_________________________________________________________________
activation_415 (Activation)  (None, 32, 32, 512)       0         
_________________________________________________________________
dropout_415 (Dropout)        (None, 32, 32, 512)       0         
_________________________________________________________________
max_pooling2d_89 (MaxPooling (None, 16, 16, 512)       0         
_________________________________________________________________
separable_conv2d_323 (Separa (None, 16, 16, 256)       135936    
_________________________________________________________________
batch_normalization_240 (Bat (None, 16, 16, 256)       1024      
_________________________________________________________________
activation_416 (Activation)  (None, 16, 16, 256)       0         
_________________________________________________________________
dropout_416 (Dropout)        (None, 16, 16, 256)       0         
_________________________________________________________________
max_pooling2d_90 (MaxPooling (None, 8, 8, 256)         0         
_________________________________________________________________
flatten_45 (Flatten)         (None, 16384)             0         
_________________________________________________________________
dense_138 (Dense)            (None, 32)                524320    
_________________________________________________________________
batch_normalization_241 (Bat (None, 32)                128       
_________________________________________________________________
activation_417 (Activation)  (None, 32)                0         
_________________________________________________________________
dropout_417 (Dropout)        (None, 32)                0         
_________________________________________________________________
dense_139 (Dense)            (None, 512)               16896     
_________________________________________________________________
activation_418 (Activation)  (None, 512)               0         
_________________________________________________________________
dropout_418 (Dropout)        (None, 512)               0         
_________________________________________________________________
dense_140 (Dense)            (None, 512)               262656    
_________________________________________________________________
batch_normalization_242 (Bat (None, 512)               2048      
_________________________________________________________________
activation_419 (Activation)  (None, 512)               0         
_________________________________________________________________
dropout_419 (Dropout)        (None, 512)               0         
_________________________________________________________________
dense_141 (Dense)            (None, 100)               51300     
=================================================================
Total params: 1,064,399
Trainable params: 1,062,767
Non-trainable params: 1,632
_________________________________________________________________
