Model: "sequential_116"
_________________________________________________________________
Layer (type)                 Output Shape              Param #   
=================================================================
separable_conv2d_772 (Separa (None, 32, 32, 16)        91        
_________________________________________________________________
activation_1009 (Activation) (None, 32, 32, 16)        0         
_________________________________________________________________
dropout_1009 (Dropout)       (None, 32, 32, 16)        0         
_________________________________________________________________
separable_conv2d_773 (Separa (None, 32, 32, 128)       2320      
_________________________________________________________________
batch_normalization_625 (Bat (None, 32, 32, 128)       512       
_________________________________________________________________
activation_1010 (Activation) (None, 32, 32, 128)       0         
_________________________________________________________________
dropout_1010 (Dropout)       (None, 32, 32, 128)       0         
_________________________________________________________________
separable_conv2d_774 (Separa (None, 32, 32, 512)       67200     
_________________________________________________________________
activation_1011 (Activation) (None, 32, 32, 512)       0         
_________________________________________________________________
dropout_1011 (Dropout)       (None, 32, 32, 512)       0         
_________________________________________________________________
max_pooling2d_216 (MaxPoolin (None, 16, 16, 512)       0         
_________________________________________________________________
separable_conv2d_775 (Separa (None, 16, 16, 256)       135936    
_________________________________________________________________
batch_normalization_626 (Bat (None, 16, 16, 256)       1024      
_________________________________________________________________
activation_1012 (Activation) (None, 16, 16, 256)       0         
_________________________________________________________________
dropout_1012 (Dropout)       (None, 16, 16, 256)       0         
_________________________________________________________________
max_pooling2d_217 (MaxPoolin (None, 8, 8, 256)         0         
_________________________________________________________________
separable_conv2d_776 (Separa (None, 8, 8, 128)         35200     
_________________________________________________________________
batch_normalization_627 (Bat (None, 8, 8, 128)         512       
_________________________________________________________________
activation_1013 (Activation) (None, 8, 8, 128)         0         
_________________________________________________________________
dropout_1013 (Dropout)       (None, 8, 8, 128)         0         
_________________________________________________________________
flatten_116 (Flatten)        (None, 8192)              0         
_________________________________________________________________
dense_353 (Dense)            (None, 512)               4194816   
_________________________________________________________________
activation_1014 (Activation) (None, 512)               0         
_________________________________________________________________
dropout_1014 (Dropout)       (None, 512)               0         
_________________________________________________________________
dense_354 (Dense)            (None, 512)               262656    
_________________________________________________________________
batch_normalization_628 (Bat (None, 512)               2048      
_________________________________________________________________
activation_1015 (Activation) (None, 512)               0         
_________________________________________________________________
dropout_1015 (Dropout)       (None, 512)               0         
_________________________________________________________________
dense_355 (Dense)            (None, 100)               51300     
=================================================================
Total params: 4,753,615
Trainable params: 4,751,567
Non-trainable params: 2,048
_________________________________________________________________
