Model: "sequential_112"
_________________________________________________________________
Layer (type)                 Output Shape              Param #   
=================================================================
separable_conv2d_746 (Separa (None, 32, 32, 16)        91        
_________________________________________________________________
activation_976 (Activation)  (None, 32, 32, 16)        0         
_________________________________________________________________
dropout_976 (Dropout)        (None, 32, 32, 16)        0         
_________________________________________________________________
separable_conv2d_747 (Separa (None, 32, 32, 16)        416       
_________________________________________________________________
batch_normalization_603 (Bat (None, 32, 32, 16)        64        
_________________________________________________________________
activation_977 (Activation)  (None, 32, 32, 16)        0         
_________________________________________________________________
dropout_977 (Dropout)        (None, 32, 32, 16)        0         
_________________________________________________________________
separable_conv2d_748 (Separa (None, 32, 32, 128)       2320      
_________________________________________________________________
batch_normalization_604 (Bat (None, 32, 32, 128)       512       
_________________________________________________________________
activation_978 (Activation)  (None, 32, 32, 128)       0         
_________________________________________________________________
dropout_978 (Dropout)        (None, 32, 32, 128)       0         
_________________________________________________________________
separable_conv2d_749 (Separa (None, 32, 32, 512)       67200     
_________________________________________________________________
activation_979 (Activation)  (None, 32, 32, 512)       0         
_________________________________________________________________
dropout_979 (Dropout)        (None, 32, 32, 512)       0         
_________________________________________________________________
max_pooling2d_210 (MaxPoolin (None, 16, 16, 512)       0         
_________________________________________________________________
separable_conv2d_750 (Separa (None, 16, 16, 256)       135936    
_________________________________________________________________
batch_normalization_605 (Bat (None, 16, 16, 256)       1024      
_________________________________________________________________
activation_980 (Activation)  (None, 16, 16, 256)       0         
_________________________________________________________________
dropout_980 (Dropout)        (None, 16, 16, 256)       0         
_________________________________________________________________
max_pooling2d_211 (MaxPoolin (None, 8, 8, 256)         0         
_________________________________________________________________
separable_conv2d_751 (Separa (None, 8, 8, 128)         35200     
_________________________________________________________________
batch_normalization_606 (Bat (None, 8, 8, 128)         512       
_________________________________________________________________
activation_981 (Activation)  (None, 8, 8, 128)         0         
_________________________________________________________________
dropout_981 (Dropout)        (None, 8, 8, 128)         0         
_________________________________________________________________
flatten_112 (Flatten)        (None, 8192)              0         
_________________________________________________________________
dense_342 (Dense)            (None, 512)               4194816   
_________________________________________________________________
activation_982 (Activation)  (None, 512)               0         
_________________________________________________________________
dropout_982 (Dropout)        (None, 512)               0         
_________________________________________________________________
dense_343 (Dense)            (None, 512)               262656    
_________________________________________________________________
batch_normalization_607 (Bat (None, 512)               2048      
_________________________________________________________________
activation_983 (Activation)  (None, 512)               0         
_________________________________________________________________
dropout_983 (Dropout)        (None, 512)               0         
_________________________________________________________________
dense_344 (Dense)            (None, 100)               51300     
=================================================================
Total params: 4,754,095
Trainable params: 4,752,015
Non-trainable params: 2,080
_________________________________________________________________
