Model: "sequential_346"
_________________________________________________________________
Layer (type)                 Output Shape              Param #   
=================================================================
separable_conv2d_2062 (Separ (None, 32, 32, 16)        91        
_________________________________________________________________
activation_2513 (Activation) (None, 32, 32, 16)        0         
_________________________________________________________________
dropout_2513 (Dropout)       (None, 32, 32, 16)        0         
_________________________________________________________________
separable_conv2d_2063 (Separ (None, 32, 32, 16)        416       
_________________________________________________________________
batch_normalization_1664 (Ba (None, 32, 32, 16)        64        
_________________________________________________________________
activation_2514 (Activation) (None, 32, 32, 16)        0         
_________________________________________________________________
dropout_2514 (Dropout)       (None, 32, 32, 16)        0         
_________________________________________________________________
separable_conv2d_2064 (Separ (None, 32, 32, 128)       2320      
_________________________________________________________________
batch_normalization_1665 (Ba (None, 32, 32, 128)       512       
_________________________________________________________________
activation_2515 (Activation) (None, 32, 32, 128)       0         
_________________________________________________________________
dropout_2515 (Dropout)       (None, 32, 32, 128)       0         
_________________________________________________________________
separable_conv2d_2065 (Separ (None, 32, 32, 256)       34176     
_________________________________________________________________
batch_normalization_1666 (Ba (None, 32, 32, 256)       1024      
_________________________________________________________________
activation_2516 (Activation) (None, 32, 32, 256)       0         
_________________________________________________________________
dropout_2516 (Dropout)       (None, 32, 32, 256)       0         
_________________________________________________________________
max_pooling2d_592 (MaxPoolin (None, 16, 16, 256)       0         
_________________________________________________________________
separable_conv2d_2066 (Separ (None, 16, 16, 128)       35200     
_________________________________________________________________
batch_normalization_1667 (Ba (None, 16, 16, 128)       512       
_________________________________________________________________
activation_2517 (Activation) (None, 16, 16, 128)       0         
_________________________________________________________________
dropout_2517 (Dropout)       (None, 16, 16, 128)       0         
_________________________________________________________________
max_pooling2d_593 (MaxPoolin (None, 8, 8, 128)         0         
_________________________________________________________________
flatten_346 (Flatten)        (None, 8192)              0         
_________________________________________________________________
dense_797 (Dense)            (None, 100)               819300    
=================================================================
Total params: 893,615
Trainable params: 892,559
Non-trainable params: 1,056
_________________________________________________________________
