Model: "sequential_284"
_________________________________________________________________
Layer (type)                 Output Shape              Param #   
=================================================================
separable_conv2d_1762 (Separ (None, 32, 32, 16)        91        
_________________________________________________________________
activation_2190 (Activation) (None, 32, 32, 16)        0         
_________________________________________________________________
dropout_2190 (Dropout)       (None, 32, 32, 16)        0         
_________________________________________________________________
separable_conv2d_1763 (Separ (None, 32, 32, 16)        416       
_________________________________________________________________
batch_normalization_1414 (Ba (None, 32, 32, 16)        64        
_________________________________________________________________
activation_2191 (Activation) (None, 32, 32, 16)        0         
_________________________________________________________________
dropout_2191 (Dropout)       (None, 32, 32, 16)        0         
_________________________________________________________________
separable_conv2d_1764 (Separ (None, 32, 32, 128)       2320      
_________________________________________________________________
batch_normalization_1415 (Ba (None, 32, 32, 128)       512       
_________________________________________________________________
activation_2192 (Activation) (None, 32, 32, 128)       0         
_________________________________________________________________
dropout_2192 (Dropout)       (None, 32, 32, 128)       0         
_________________________________________________________________
separable_conv2d_1765 (Separ (None, 32, 32, 512)       67200     
_________________________________________________________________
activation_2193 (Activation) (None, 32, 32, 512)       0         
_________________________________________________________________
dropout_2193 (Dropout)       (None, 32, 32, 512)       0         
_________________________________________________________________
max_pooling2d_491 (MaxPoolin (None, 16, 16, 512)       0         
_________________________________________________________________
separable_conv2d_1766 (Separ (None, 16, 16, 256)       135936    
_________________________________________________________________
batch_normalization_1416 (Ba (None, 16, 16, 256)       1024      
_________________________________________________________________
activation_2194 (Activation) (None, 16, 16, 256)       0         
_________________________________________________________________
dropout_2194 (Dropout)       (None, 16, 16, 256)       0         
_________________________________________________________________
max_pooling2d_492 (MaxPoolin (None, 8, 8, 256)         0         
_________________________________________________________________
separable_conv2d_1767 (Separ (None, 8, 8, 128)         35200     
_________________________________________________________________
batch_normalization_1417 (Ba (None, 8, 8, 128)         512       
_________________________________________________________________
activation_2195 (Activation) (None, 8, 8, 128)         0         
_________________________________________________________________
dropout_2195 (Dropout)       (None, 8, 8, 128)         0         
_________________________________________________________________
flatten_284 (Flatten)        (None, 8192)              0         
_________________________________________________________________
dense_712 (Dense)            (None, 256)               2097408   
_________________________________________________________________
batch_normalization_1418 (Ba (None, 256)               1024      
_________________________________________________________________
activation_2196 (Activation) (None, 256)               0         
_________________________________________________________________
dropout_2196 (Dropout)       (None, 256)               0         
_________________________________________________________________
dense_713 (Dense)            (None, 512)               131584    
_________________________________________________________________
batch_normalization_1419 (Ba (None, 512)               2048      
_________________________________________________________________
activation_2197 (Activation) (None, 512)               0         
_________________________________________________________________
dropout_2197 (Dropout)       (None, 512)               0         
_________________________________________________________________
dense_714 (Dense)            (None, 100)               51300     
=================================================================
Total params: 2,526,639
Trainable params: 2,524,047
Non-trainable params: 2,592
_________________________________________________________________
