Model: "sequential_226"
_________________________________________________________________
Layer (type)                 Output Shape              Param #   
=================================================================
separable_conv2d_1448 (Separ (None, 32, 32, 64)        283       
_________________________________________________________________
batch_normalization_1165 (Ba (None, 32, 32, 64)        256       
_________________________________________________________________
activation_1848 (Activation) (None, 32, 32, 64)        0         
_________________________________________________________________
dropout_1848 (Dropout)       (None, 32, 32, 64)        0         
_________________________________________________________________
separable_conv2d_1449 (Separ (None, 32, 32, 16)        1616      
_________________________________________________________________
batch_normalization_1166 (Ba (None, 32, 32, 16)        64        
_________________________________________________________________
activation_1849 (Activation) (None, 32, 32, 16)        0         
_________________________________________________________________
dropout_1849 (Dropout)       (None, 32, 32, 16)        0         
_________________________________________________________________
separable_conv2d_1450 (Separ (None, 32, 32, 128)       2320      
_________________________________________________________________
batch_normalization_1167 (Ba (None, 32, 32, 128)       512       
_________________________________________________________________
activation_1850 (Activation) (None, 32, 32, 128)       0         
_________________________________________________________________
dropout_1850 (Dropout)       (None, 32, 32, 128)       0         
_________________________________________________________________
separable_conv2d_1451 (Separ (None, 32, 32, 512)       67200     
_________________________________________________________________
activation_1851 (Activation) (None, 32, 32, 512)       0         
_________________________________________________________________
dropout_1851 (Dropout)       (None, 32, 32, 512)       0         
_________________________________________________________________
max_pooling2d_398 (MaxPoolin (None, 16, 16, 512)       0         
_________________________________________________________________
separable_conv2d_1452 (Separ (None, 16, 16, 256)       135936    
_________________________________________________________________
batch_normalization_1168 (Ba (None, 16, 16, 256)       1024      
_________________________________________________________________
activation_1852 (Activation) (None, 16, 16, 256)       0         
_________________________________________________________________
dropout_1852 (Dropout)       (None, 16, 16, 256)       0         
_________________________________________________________________
max_pooling2d_399 (MaxPoolin (None, 8, 8, 256)         0         
_________________________________________________________________
separable_conv2d_1453 (Separ (None, 8, 8, 128)         35200     
_________________________________________________________________
batch_normalization_1169 (Ba (None, 8, 8, 128)         512       
_________________________________________________________________
activation_1853 (Activation) (None, 8, 8, 128)         0         
_________________________________________________________________
dropout_1853 (Dropout)       (None, 8, 8, 128)         0         
_________________________________________________________________
max_pooling2d_400 (MaxPoolin (None, 4, 4, 128)         0         
_________________________________________________________________
flatten_226 (Flatten)        (None, 2048)              0         
_________________________________________________________________
dense_626 (Dense)            (None, 100)               204900    
=================================================================
Total params: 449,823
Trainable params: 448,639
Non-trainable params: 1,184
_________________________________________________________________
