Model: "sequential_249"
_________________________________________________________________
Layer (type)                 Output Shape              Param #   
=================================================================
separable_conv2d_1577 (Separ (None, 32, 32, 16)        91        
_________________________________________________________________
activation_1995 (Activation) (None, 32, 32, 16)        0         
_________________________________________________________________
dropout_1995 (Dropout)       (None, 32, 32, 16)        0         
_________________________________________________________________
separable_conv2d_1578 (Separ (None, 32, 32, 16)        416       
_________________________________________________________________
batch_normalization_1267 (Ba (None, 32, 32, 16)        64        
_________________________________________________________________
activation_1996 (Activation) (None, 32, 32, 16)        0         
_________________________________________________________________
dropout_1996 (Dropout)       (None, 32, 32, 16)        0         
_________________________________________________________________
separable_conv2d_1579 (Separ (None, 32, 32, 128)       2320      
_________________________________________________________________
batch_normalization_1268 (Ba (None, 32, 32, 128)       512       
_________________________________________________________________
activation_1997 (Activation) (None, 32, 32, 128)       0         
_________________________________________________________________
dropout_1997 (Dropout)       (None, 32, 32, 128)       0         
_________________________________________________________________
separable_conv2d_1580 (Separ (None, 32, 32, 512)       67200     
_________________________________________________________________
activation_1998 (Activation) (None, 32, 32, 512)       0         
_________________________________________________________________
dropout_1998 (Dropout)       (None, 32, 32, 512)       0         
_________________________________________________________________
max_pooling2d_438 (MaxPoolin (None, 16, 16, 512)       0         
_________________________________________________________________
separable_conv2d_1581 (Separ (None, 16, 16, 256)       135936    
_________________________________________________________________
batch_normalization_1269 (Ba (None, 16, 16, 256)       1024      
_________________________________________________________________
activation_1999 (Activation) (None, 16, 16, 256)       0         
_________________________________________________________________
dropout_1999 (Dropout)       (None, 16, 16, 256)       0         
_________________________________________________________________
max_pooling2d_439 (MaxPoolin (None, 8, 8, 256)         0         
_________________________________________________________________
separable_conv2d_1582 (Separ (None, 8, 8, 64)          18752     
_________________________________________________________________
batch_normalization_1270 (Ba (None, 8, 8, 64)          256       
_________________________________________________________________
activation_2000 (Activation) (None, 8, 8, 64)          0         
_________________________________________________________________
dropout_2000 (Dropout)       (None, 8, 8, 64)          0         
_________________________________________________________________
separable_conv2d_1583 (Separ (None, 8, 8, 128)         8896      
_________________________________________________________________
batch_normalization_1271 (Ba (None, 8, 8, 128)         512       
_________________________________________________________________
activation_2001 (Activation) (None, 8, 8, 128)         0         
_________________________________________________________________
dropout_2001 (Dropout)       (None, 8, 8, 128)         0         
_________________________________________________________________
flatten_249 (Flatten)        (None, 8192)              0         
_________________________________________________________________
dense_667 (Dense)            (None, 100)               819300    
=================================================================
Total params: 1,055,279
Trainable params: 1,054,095
Non-trainable params: 1,184
_________________________________________________________________
