Model: "sequential_141"
_________________________________________________________________
Layer (type)                 Output Shape              Param #   
=================================================================
separable_conv2d_922 (Separa (None, 32, 32, 16)        91        
_________________________________________________________________
activation_1208 (Activation) (None, 32, 32, 16)        0         
_________________________________________________________________
dropout_1208 (Dropout)       (None, 32, 32, 16)        0         
_________________________________________________________________
separable_conv2d_923 (Separa (None, 32, 32, 16)        416       
_________________________________________________________________
batch_normalization_747 (Bat (None, 32, 32, 16)        64        
_________________________________________________________________
activation_1209 (Activation) (None, 32, 32, 16)        0         
_________________________________________________________________
dropout_1209 (Dropout)       (None, 32, 32, 16)        0         
_________________________________________________________________
separable_conv2d_924 (Separa (None, 32, 32, 128)       2320      
_________________________________________________________________
batch_normalization_748 (Bat (None, 32, 32, 128)       512       
_________________________________________________________________
activation_1210 (Activation) (None, 32, 32, 128)       0         
_________________________________________________________________
dropout_1210 (Dropout)       (None, 32, 32, 128)       0         
_________________________________________________________________
separable_conv2d_925 (Separa (None, 32, 32, 16)        3216      
_________________________________________________________________
activation_1211 (Activation) (None, 32, 32, 16)        0         
_________________________________________________________________
dropout_1211 (Dropout)       (None, 32, 32, 16)        0         
_________________________________________________________________
separable_conv2d_926 (Separa (None, 32, 32, 32)        688       
_________________________________________________________________
batch_normalization_749 (Bat (None, 32, 32, 32)        128       
_________________________________________________________________
activation_1212 (Activation) (None, 32, 32, 32)        0         
_________________________________________________________________
dropout_1212 (Dropout)       (None, 32, 32, 32)        0         
_________________________________________________________________
separable_conv2d_927 (Separa (None, 32, 32, 512)       17184     
_________________________________________________________________
activation_1213 (Activation) (None, 32, 32, 512)       0         
_________________________________________________________________
dropout_1213 (Dropout)       (None, 32, 32, 512)       0         
_________________________________________________________________
separable_conv2d_928 (Separa (None, 32, 32, 32)        21024     
_________________________________________________________________
batch_normalization_750 (Bat (None, 32, 32, 32)        128       
_________________________________________________________________
activation_1214 (Activation) (None, 32, 32, 32)        0         
_________________________________________________________________
dropout_1214 (Dropout)       (None, 32, 32, 32)        0         
_________________________________________________________________
max_pooling2d_257 (MaxPoolin (None, 16, 16, 32)        0         
_________________________________________________________________
flatten_141 (Flatten)        (None, 8192)              0         
_________________________________________________________________
dense_427 (Dense)            (None, 512)               4194816   
_________________________________________________________________
activation_1215 (Activation) (None, 512)               0         
_________________________________________________________________
dropout_1215 (Dropout)       (None, 512)               0         
_________________________________________________________________
dense_428 (Dense)            (None, 128)               65664     
_________________________________________________________________
batch_normalization_751 (Bat (None, 128)               512       
_________________________________________________________________
activation_1216 (Activation) (None, 128)               0         
_________________________________________________________________
dropout_1216 (Dropout)       (None, 128)               0         
_________________________________________________________________
dense_429 (Dense)            (None, 100)               12900     
=================================================================
Total params: 4,319,663
Trainable params: 4,318,991
Non-trainable params: 672
_________________________________________________________________
