Model: "sequential_146"
_________________________________________________________________
Layer (type)                 Output Shape              Param #   
=================================================================
separable_conv2d_951 (Separa (None, 32, 32, 64)        283       
_________________________________________________________________
batch_normalization_771 (Bat (None, 32, 32, 64)        256       
_________________________________________________________________
activation_1248 (Activation) (None, 32, 32, 64)        0         
_________________________________________________________________
dropout_1248 (Dropout)       (None, 32, 32, 64)        0         
_________________________________________________________________
separable_conv2d_952 (Separa (None, 32, 32, 1024)      67136     
_________________________________________________________________
batch_normalization_772 (Bat (None, 32, 32, 1024)      4096      
_________________________________________________________________
activation_1249 (Activation) (None, 32, 32, 1024)      0         
_________________________________________________________________
dropout_1249 (Dropout)       (None, 32, 32, 1024)      0         
_________________________________________________________________
separable_conv2d_953 (Separa (None, 32, 32, 128)       140416    
_________________________________________________________________
batch_normalization_773 (Bat (None, 32, 32, 128)       512       
_________________________________________________________________
activation_1250 (Activation) (None, 32, 32, 128)       0         
_________________________________________________________________
dropout_1250 (Dropout)       (None, 32, 32, 128)       0         
_________________________________________________________________
separable_conv2d_954 (Separa (None, 32, 32, 32)        5280      
_________________________________________________________________
batch_normalization_774 (Bat (None, 32, 32, 32)        128       
_________________________________________________________________
activation_1251 (Activation) (None, 32, 32, 32)        0         
_________________________________________________________________
dropout_1251 (Dropout)       (None, 32, 32, 32)        0         
_________________________________________________________________
separable_conv2d_955 (Separa (None, 32, 32, 128)       4512      
_________________________________________________________________
batch_normalization_775 (Bat (None, 32, 32, 128)       512       
_________________________________________________________________
activation_1252 (Activation) (None, 32, 32, 128)       0         
_________________________________________________________________
dropout_1252 (Dropout)       (None, 32, 32, 128)       0         
_________________________________________________________________
flatten_146 (Flatten)        (None, 131072)            0         
_________________________________________________________________
dense_443 (Dense)            (None, 512)               67109376  
_________________________________________________________________
activation_1253 (Activation) (None, 512)               0         
_________________________________________________________________
dropout_1253 (Dropout)       (None, 512)               0         
_________________________________________________________________
dense_444 (Dense)            (None, 512)               262656    
_________________________________________________________________
batch_normalization_776 (Bat (None, 512)               2048      
_________________________________________________________________
activation_1254 (Activation) (None, 512)               0         
_________________________________________________________________
dropout_1254 (Dropout)       (None, 512)               0         
_________________________________________________________________
dense_445 (Dense)            (None, 100)               51300     
=================================================================
Total params: 67,648,511
Trainable params: 67,644,735
Non-trainable params: 3,776
_________________________________________________________________
