Model: "sequential_372"
_________________________________________________________________
Layer (type)                 Output Shape              Param #   
=================================================================
separable_conv2d_2186 (Separ (None, 32, 32, 16)        91        
_________________________________________________________________
activation_2643 (Activation) (None, 32, 32, 16)        0         
_________________________________________________________________
dropout_2643 (Dropout)       (None, 32, 32, 16)        0         
_________________________________________________________________
separable_conv2d_2187 (Separ (None, 32, 32, 16)        416       
_________________________________________________________________
batch_normalization_1776 (Ba (None, 32, 32, 16)        64        
_________________________________________________________________
activation_2644 (Activation) (None, 32, 32, 16)        0         
_________________________________________________________________
dropout_2644 (Dropout)       (None, 32, 32, 16)        0         
_________________________________________________________________
separable_conv2d_2188 (Separ (None, 32, 32, 128)       2320      
_________________________________________________________________
batch_normalization_1777 (Ba (None, 32, 32, 128)       512       
_________________________________________________________________
activation_2645 (Activation) (None, 32, 32, 128)       0         
_________________________________________________________________
dropout_2645 (Dropout)       (None, 32, 32, 128)       0         
_________________________________________________________________
separable_conv2d_2189 (Separ (None, 32, 32, 256)       34176     
_________________________________________________________________
batch_normalization_1778 (Ba (None, 32, 32, 256)       1024      
_________________________________________________________________
activation_2646 (Activation) (None, 32, 32, 256)       0         
_________________________________________________________________
dropout_2646 (Dropout)       (None, 32, 32, 256)       0         
_________________________________________________________________
max_pooling2d_638 (MaxPoolin (None, 16, 16, 256)       0         
_________________________________________________________________
separable_conv2d_2190 (Separ (None, 16, 16, 128)       35200     
_________________________________________________________________
batch_normalization_1779 (Ba (None, 16, 16, 128)       512       
_________________________________________________________________
activation_2647 (Activation) (None, 16, 16, 128)       0         
_________________________________________________________________
dropout_2647 (Dropout)       (None, 16, 16, 128)       0         
_________________________________________________________________
max_pooling2d_639 (MaxPoolin (None, 8, 8, 128)         0         
_________________________________________________________________
flatten_372 (Flatten)        (None, 8192)              0         
_________________________________________________________________
dense_829 (Dense)            (None, 100)               819300    
=================================================================
Total params: 893,615
Trainable params: 892,559
Non-trainable params: 1,056
_________________________________________________________________
