Model: "sequential_244"
_________________________________________________________________
Layer (type)                 Output Shape              Param #   
=================================================================
separable_conv2d_1550 (Separ (None, 32, 32, 64)        283       
_________________________________________________________________
batch_normalization_1244 (Ba (None, 32, 32, 64)        256       
_________________________________________________________________
activation_1965 (Activation) (None, 32, 32, 64)        0         
_________________________________________________________________
dropout_1965 (Dropout)       (None, 32, 32, 64)        0         
_________________________________________________________________
separable_conv2d_1551 (Separ (None, 32, 32, 128)       8896      
_________________________________________________________________
batch_normalization_1245 (Ba (None, 32, 32, 128)       512       
_________________________________________________________________
activation_1966 (Activation) (None, 32, 32, 128)       0         
_________________________________________________________________
dropout_1966 (Dropout)       (None, 32, 32, 128)       0         
_________________________________________________________________
separable_conv2d_1552 (Separ (None, 32, 32, 128)       17664     
_________________________________________________________________
batch_normalization_1246 (Ba (None, 32, 32, 128)       512       
_________________________________________________________________
activation_1967 (Activation) (None, 32, 32, 128)       0         
_________________________________________________________________
dropout_1967 (Dropout)       (None, 32, 32, 128)       0         
_________________________________________________________________
separable_conv2d_1553 (Separ (None, 32, 32, 32)        5280      
_________________________________________________________________
batch_normalization_1247 (Ba (None, 32, 32, 32)        128       
_________________________________________________________________
activation_1968 (Activation) (None, 32, 32, 32)        0         
_________________________________________________________________
dropout_1968 (Dropout)       (None, 32, 32, 32)        0         
_________________________________________________________________
max_pooling2d_431 (MaxPoolin (None, 16, 16, 32)        0         
_________________________________________________________________
flatten_244 (Flatten)        (None, 8192)              0         
_________________________________________________________________
dense_659 (Dense)            (None, 100)               819300    
=================================================================
Total params: 852,831
Trainable params: 852,127
Non-trainable params: 704
_________________________________________________________________
