Model: "sequential_62"
_________________________________________________________________
Layer (type)                 Output Shape              Param #   
=================================================================
separable_conv2d_426 (Separa (None, 32, 32, 16)        91        
_________________________________________________________________
activation_551 (Activation)  (None, 32, 32, 16)        0         
_________________________________________________________________
dropout_551 (Dropout)        (None, 32, 32, 16)        0         
_________________________________________________________________
separable_conv2d_427 (Separa (None, 32, 32, 16)        416       
_________________________________________________________________
batch_normalization_327 (Bat (None, 32, 32, 16)        64        
_________________________________________________________________
activation_552 (Activation)  (None, 32, 32, 16)        0         
_________________________________________________________________
dropout_552 (Dropout)        (None, 32, 32, 16)        0         
_________________________________________________________________
separable_conv2d_428 (Separa (None, 32, 32, 128)       2320      
_________________________________________________________________
activation_553 (Activation)  (None, 32, 32, 128)       0         
_________________________________________________________________
dropout_553 (Dropout)        (None, 32, 32, 128)       0         
_________________________________________________________________
separable_conv2d_429 (Separa (None, 32, 32, 512)       67200     
_________________________________________________________________
activation_554 (Activation)  (None, 32, 32, 512)       0         
_________________________________________________________________
dropout_554 (Dropout)        (None, 32, 32, 512)       0         
_________________________________________________________________
max_pooling2d_122 (MaxPoolin (None, 16, 16, 512)       0         
_________________________________________________________________
separable_conv2d_430 (Separa (None, 16, 16, 256)       135936    
_________________________________________________________________
batch_normalization_328 (Bat (None, 16, 16, 256)       1024      
_________________________________________________________________
activation_555 (Activation)  (None, 16, 16, 256)       0         
_________________________________________________________________
dropout_555 (Dropout)        (None, 16, 16, 256)       0         
_________________________________________________________________
max_pooling2d_123 (MaxPoolin (None, 8, 8, 256)         0         
_________________________________________________________________
flatten_62 (Flatten)         (None, 16384)             0         
_________________________________________________________________
dense_187 (Dense)            (None, 32)                524320    
_________________________________________________________________
batch_normalization_329 (Bat (None, 32)                128       
_________________________________________________________________
activation_556 (Activation)  (None, 32)                0         
_________________________________________________________________
dropout_556 (Dropout)        (None, 32)                0         
_________________________________________________________________
dense_188 (Dense)            (None, 512)               16896     
_________________________________________________________________
activation_557 (Activation)  (None, 512)               0         
_________________________________________________________________
dropout_557 (Dropout)        (None, 512)               0         
_________________________________________________________________
dense_189 (Dense)            (None, 512)               262656    
_________________________________________________________________
batch_normalization_330 (Bat (None, 512)               2048      
_________________________________________________________________
activation_558 (Activation)  (None, 512)               0         
_________________________________________________________________
dropout_558 (Dropout)        (None, 512)               0         
_________________________________________________________________
dense_190 (Dense)            (None, 100)               51300     
=================================================================
Total params: 1,064,399
Trainable params: 1,062,767
Non-trainable params: 1,632
_________________________________________________________________
