Model: "sequential_288"
_________________________________________________________________
Layer (type)                 Output Shape              Param #   
=================================================================
separable_conv2d_1783 (Separ (None, 32, 32, 64)        283       
_________________________________________________________________
batch_normalization_1432 (Ba (None, 32, 32, 64)        256       
_________________________________________________________________
activation_2215 (Activation) (None, 32, 32, 64)        0         
_________________________________________________________________
dropout_2215 (Dropout)       (None, 32, 32, 64)        0         
_________________________________________________________________
separable_conv2d_1784 (Separ (None, 32, 32, 16)        1616      
_________________________________________________________________
batch_normalization_1433 (Ba (None, 32, 32, 16)        64        
_________________________________________________________________
activation_2216 (Activation) (None, 32, 32, 16)        0         
_________________________________________________________________
dropout_2216 (Dropout)       (None, 32, 32, 16)        0         
_________________________________________________________________
separable_conv2d_1785 (Separ (None, 32, 32, 128)       2320      
_________________________________________________________________
batch_normalization_1434 (Ba (None, 32, 32, 128)       512       
_________________________________________________________________
activation_2217 (Activation) (None, 32, 32, 128)       0         
_________________________________________________________________
dropout_2217 (Dropout)       (None, 32, 32, 128)       0         
_________________________________________________________________
separable_conv2d_1786 (Separ (None, 32, 32, 512)       67200     
_________________________________________________________________
activation_2218 (Activation) (None, 32, 32, 512)       0         
_________________________________________________________________
dropout_2218 (Dropout)       (None, 32, 32, 512)       0         
_________________________________________________________________
max_pooling2d_496 (MaxPoolin (None, 16, 16, 512)       0         
_________________________________________________________________
separable_conv2d_1787 (Separ (None, 16, 16, 256)       135936    
_________________________________________________________________
batch_normalization_1435 (Ba (None, 16, 16, 256)       1024      
_________________________________________________________________
activation_2219 (Activation) (None, 16, 16, 256)       0         
_________________________________________________________________
dropout_2219 (Dropout)       (None, 16, 16, 256)       0         
_________________________________________________________________
max_pooling2d_497 (MaxPoolin (None, 8, 8, 256)         0         
_________________________________________________________________
separable_conv2d_1788 (Separ (None, 8, 8, 128)         35200     
_________________________________________________________________
batch_normalization_1436 (Ba (None, 8, 8, 128)         512       
_________________________________________________________________
activation_2220 (Activation) (None, 8, 8, 128)         0         
_________________________________________________________________
dropout_2220 (Dropout)       (None, 8, 8, 128)         0         
_________________________________________________________________
flatten_288 (Flatten)        (None, 8192)              0         
_________________________________________________________________
dense_720 (Dense)            (None, 256)               2097408   
_________________________________________________________________
batch_normalization_1437 (Ba (None, 256)               1024      
_________________________________________________________________
activation_2221 (Activation) (None, 256)               0         
_________________________________________________________________
dropout_2221 (Dropout)       (None, 256)               0         
_________________________________________________________________
dense_721 (Dense)            (None, 512)               131584    
_________________________________________________________________
batch_normalization_1438 (Ba (None, 512)               2048      
_________________________________________________________________
activation_2222 (Activation) (None, 512)               0         
_________________________________________________________________
dropout_2222 (Dropout)       (None, 512)               0         
_________________________________________________________________
dense_722 (Dense)            (None, 100)               51300     
=================================================================
Total params: 2,528,287
Trainable params: 2,525,567
Non-trainable params: 2,720
_________________________________________________________________
