Model: "sequential_303"
_________________________________________________________________
Layer (type)                 Output Shape              Param #   
=================================================================
separable_conv2d_1861 (Separ (None, 32, 32, 16)        91        
_________________________________________________________________
activation_2302 (Activation) (None, 32, 32, 16)        0         
_________________________________________________________________
dropout_2302 (Dropout)       (None, 32, 32, 16)        0         
_________________________________________________________________
separable_conv2d_1862 (Separ (None, 32, 32, 16)        416       
_________________________________________________________________
batch_normalization_1498 (Ba (None, 32, 32, 16)        64        
_________________________________________________________________
activation_2303 (Activation) (None, 32, 32, 16)        0         
_________________________________________________________________
dropout_2303 (Dropout)       (None, 32, 32, 16)        0         
_________________________________________________________________
separable_conv2d_1863 (Separ (None, 32, 32, 128)       2320      
_________________________________________________________________
batch_normalization_1499 (Ba (None, 32, 32, 128)       512       
_________________________________________________________________
activation_2304 (Activation) (None, 32, 32, 128)       0         
_________________________________________________________________
dropout_2304 (Dropout)       (None, 32, 32, 128)       0         
_________________________________________________________________
separable_conv2d_1864 (Separ (None, 32, 32, 512)       67200     
_________________________________________________________________
activation_2305 (Activation) (None, 32, 32, 512)       0         
_________________________________________________________________
dropout_2305 (Dropout)       (None, 32, 32, 512)       0         
_________________________________________________________________
max_pooling2d_517 (MaxPoolin (None, 16, 16, 512)       0         
_________________________________________________________________
separable_conv2d_1865 (Separ (None, 16, 16, 512)       267264    
_________________________________________________________________
activation_2306 (Activation) (None, 16, 16, 512)       0         
_________________________________________________________________
dropout_2306 (Dropout)       (None, 16, 16, 512)       0         
_________________________________________________________________
separable_conv2d_1866 (Separ (None, 16, 16, 32)        21024     
_________________________________________________________________
batch_normalization_1500 (Ba (None, 16, 16, 32)        128       
_________________________________________________________________
activation_2307 (Activation) (None, 16, 16, 32)        0         
_________________________________________________________________
dropout_2307 (Dropout)       (None, 16, 16, 32)        0         
_________________________________________________________________
max_pooling2d_518 (MaxPoolin (None, 8, 8, 32)          0         
_________________________________________________________________
flatten_303 (Flatten)        (None, 2048)              0         
_________________________________________________________________
dense_744 (Dense)            (None, 100)               204900    
=================================================================
Total params: 563,919
Trainable params: 563,567
Non-trainable params: 352
_________________________________________________________________
