Model: "sequential_219"
_________________________________________________________________
Layer (type)                 Output Shape              Param #   
=================================================================
separable_conv2d_1403 (Separ (None, 32, 32, 16)        91        
_________________________________________________________________
activation_1802 (Activation) (None, 32, 32, 16)        0         
_________________________________________________________________
dropout_1802 (Dropout)       (None, 32, 32, 16)        0         
_________________________________________________________________
separable_conv2d_1404 (Separ (None, 32, 32, 16)        416       
_________________________________________________________________
batch_normalization_1136 (Ba (None, 32, 32, 16)        64        
_________________________________________________________________
activation_1803 (Activation) (None, 32, 32, 16)        0         
_________________________________________________________________
dropout_1803 (Dropout)       (None, 32, 32, 16)        0         
_________________________________________________________________
separable_conv2d_1405 (Separ (None, 32, 32, 128)       2320      
_________________________________________________________________
activation_1804 (Activation) (None, 32, 32, 128)       0         
_________________________________________________________________
dropout_1804 (Dropout)       (None, 32, 32, 128)       0         
_________________________________________________________________
separable_conv2d_1406 (Separ (None, 32, 32, 512)       67200     
_________________________________________________________________
activation_1805 (Activation) (None, 32, 32, 512)       0         
_________________________________________________________________
dropout_1805 (Dropout)       (None, 32, 32, 512)       0         
_________________________________________________________________
max_pooling2d_386 (MaxPoolin (None, 16, 16, 512)       0         
_________________________________________________________________
separable_conv2d_1407 (Separ (None, 16, 16, 256)       135936    
_________________________________________________________________
batch_normalization_1137 (Ba (None, 16, 16, 256)       1024      
_________________________________________________________________
activation_1806 (Activation) (None, 16, 16, 256)       0         
_________________________________________________________________
dropout_1806 (Dropout)       (None, 16, 16, 256)       0         
_________________________________________________________________
max_pooling2d_387 (MaxPoolin (None, 8, 8, 256)         0         
_________________________________________________________________
separable_conv2d_1408 (Separ (None, 8, 8, 32)          10528     
_________________________________________________________________
batch_normalization_1138 (Ba (None, 8, 8, 32)          128       
_________________________________________________________________
activation_1807 (Activation) (None, 8, 8, 32)          0         
_________________________________________________________________
dropout_1807 (Dropout)       (None, 8, 8, 32)          0         
_________________________________________________________________
separable_conv2d_1409 (Separ (None, 8, 8, 512)         17184     
_________________________________________________________________
activation_1808 (Activation) (None, 8, 8, 512)         0         
_________________________________________________________________
dropout_1808 (Dropout)       (None, 8, 8, 512)         0         
_________________________________________________________________
separable_conv2d_1410 (Separ (None, 8, 8, 32)          21024     
_________________________________________________________________
batch_normalization_1139 (Ba (None, 8, 8, 32)          128       
_________________________________________________________________
activation_1809 (Activation) (None, 8, 8, 32)          0         
_________________________________________________________________
dropout_1809 (Dropout)       (None, 8, 8, 32)          0         
_________________________________________________________________
max_pooling2d_388 (MaxPoolin (None, 4, 4, 32)          0         
_________________________________________________________________
flatten_219 (Flatten)        (None, 512)               0         
_________________________________________________________________
dense_618 (Dense)            (None, 100)               51300     
=================================================================
Total params: 307,343
Trainable params: 306,671
Non-trainable params: 672
_________________________________________________________________
