Model: "sequential_180"
_________________________________________________________________
Layer (type)                 Output Shape              Param #   
=================================================================
separable_conv2d_1157 (Separ (None, 32, 32, 16)        91        
_________________________________________________________________
activation_1506 (Activation) (None, 32, 32, 16)        0         
_________________________________________________________________
dropout_1506 (Dropout)       (None, 32, 32, 16)        0         
_________________________________________________________________
separable_conv2d_1158 (Separ (None, 32, 32, 16)        416       
_________________________________________________________________
batch_normalization_937 (Bat (None, 32, 32, 16)        64        
_________________________________________________________________
activation_1507 (Activation) (None, 32, 32, 16)        0         
_________________________________________________________________
dropout_1507 (Dropout)       (None, 32, 32, 16)        0         
_________________________________________________________________
separable_conv2d_1159 (Separ (None, 32, 32, 128)       2320      
_________________________________________________________________
activation_1508 (Activation) (None, 32, 32, 128)       0         
_________________________________________________________________
dropout_1508 (Dropout)       (None, 32, 32, 128)       0         
_________________________________________________________________
separable_conv2d_1160 (Separ (None, 32, 32, 512)       67200     
_________________________________________________________________
activation_1509 (Activation) (None, 32, 32, 512)       0         
_________________________________________________________________
dropout_1509 (Dropout)       (None, 32, 32, 512)       0         
_________________________________________________________________
max_pooling2d_319 (MaxPoolin (None, 16, 16, 512)       0         
_________________________________________________________________
separable_conv2d_1161 (Separ (None, 16, 16, 256)       135936    
_________________________________________________________________
batch_normalization_938 (Bat (None, 16, 16, 256)       1024      
_________________________________________________________________
activation_1510 (Activation) (None, 16, 16, 256)       0         
_________________________________________________________________
dropout_1510 (Dropout)       (None, 16, 16, 256)       0         
_________________________________________________________________
max_pooling2d_320 (MaxPoolin (None, 8, 8, 256)         0         
_________________________________________________________________
separable_conv2d_1162 (Separ (None, 8, 8, 32)          10528     
_________________________________________________________________
batch_normalization_939 (Bat (None, 8, 8, 32)          128       
_________________________________________________________________
activation_1511 (Activation) (None, 8, 8, 32)          0         
_________________________________________________________________
dropout_1511 (Dropout)       (None, 8, 8, 32)          0         
_________________________________________________________________
separable_conv2d_1163 (Separ (None, 8, 8, 512)         17184     
_________________________________________________________________
activation_1512 (Activation) (None, 8, 8, 512)         0         
_________________________________________________________________
dropout_1512 (Dropout)       (None, 8, 8, 512)         0         
_________________________________________________________________
separable_conv2d_1164 (Separ (None, 8, 8, 32)          21024     
_________________________________________________________________
batch_normalization_940 (Bat (None, 8, 8, 32)          128       
_________________________________________________________________
activation_1513 (Activation) (None, 8, 8, 32)          0         
_________________________________________________________________
dropout_1513 (Dropout)       (None, 8, 8, 32)          0         
_________________________________________________________________
max_pooling2d_321 (MaxPoolin (None, 4, 4, 32)          0         
_________________________________________________________________
flatten_180 (Flatten)        (None, 512)               0         
_________________________________________________________________
dense_529 (Dense)            (None, 100)               51300     
=================================================================
Total params: 307,343
Trainable params: 306,671
Non-trainable params: 672
_________________________________________________________________
