Model: "sequential_345"
_________________________________________________________________
Layer (type)                 Output Shape              Param #   
=================================================================
separable_conv2d_2059 (Separ (None, 32, 32, 64)        283       
_________________________________________________________________
batch_normalization_1661 (Ba (None, 32, 32, 64)        256       
_________________________________________________________________
activation_2510 (Activation) (None, 32, 32, 64)        0         
_________________________________________________________________
dropout_2510 (Dropout)       (None, 32, 32, 64)        0         
_________________________________________________________________
separable_conv2d_2060 (Separ (None, 32, 32, 128)       8896      
_________________________________________________________________
batch_normalization_1662 (Ba (None, 32, 32, 128)       512       
_________________________________________________________________
activation_2511 (Activation) (None, 32, 32, 128)       0         
_________________________________________________________________
dropout_2511 (Dropout)       (None, 32, 32, 128)       0         
_________________________________________________________________
separable_conv2d_2061 (Separ (None, 32, 32, 128)       17664     
_________________________________________________________________
batch_normalization_1663 (Ba (None, 32, 32, 128)       512       
_________________________________________________________________
activation_2512 (Activation) (None, 32, 32, 128)       0         
_________________________________________________________________
dropout_2512 (Dropout)       (None, 32, 32, 128)       0         
_________________________________________________________________
max_pooling2d_591 (MaxPoolin (None, 16, 16, 128)       0         
_________________________________________________________________
flatten_345 (Flatten)        (None, 32768)             0         
_________________________________________________________________
dense_796 (Dense)            (None, 100)               3276900   
=================================================================
Total params: 3,305,023
Trainable params: 3,304,383
Non-trainable params: 640
_________________________________________________________________
