Model: "sequential_370"
_________________________________________________________________
Layer (type)                 Output Shape              Param #   
=================================================================
separable_conv2d_2176 (Separ (None, 32, 32, 16)        91        
_________________________________________________________________
activation_2633 (Activation) (None, 32, 32, 16)        0         
_________________________________________________________________
dropout_2633 (Dropout)       (None, 32, 32, 16)        0         
_________________________________________________________________
separable_conv2d_2177 (Separ (None, 32, 32, 16)        416       
_________________________________________________________________
batch_normalization_1768 (Ba (None, 32, 32, 16)        64        
_________________________________________________________________
activation_2634 (Activation) (None, 32, 32, 16)        0         
_________________________________________________________________
dropout_2634 (Dropout)       (None, 32, 32, 16)        0         
_________________________________________________________________
separable_conv2d_2178 (Separ (None, 32, 32, 128)       2320      
_________________________________________________________________
batch_normalization_1769 (Ba (None, 32, 32, 128)       512       
_________________________________________________________________
activation_2635 (Activation) (None, 32, 32, 128)       0         
_________________________________________________________________
dropout_2635 (Dropout)       (None, 32, 32, 128)       0         
_________________________________________________________________
separable_conv2d_2179 (Separ (None, 32, 32, 256)       34176     
_________________________________________________________________
batch_normalization_1770 (Ba (None, 32, 32, 256)       1024      
_________________________________________________________________
activation_2636 (Activation) (None, 32, 32, 256)       0         
_________________________________________________________________
dropout_2636 (Dropout)       (None, 32, 32, 256)       0         
_________________________________________________________________
max_pooling2d_634 (MaxPoolin (None, 16, 16, 256)       0         
_________________________________________________________________
separable_conv2d_2180 (Separ (None, 16, 16, 128)       35200     
_________________________________________________________________
batch_normalization_1771 (Ba (None, 16, 16, 128)       512       
_________________________________________________________________
activation_2637 (Activation) (None, 16, 16, 128)       0         
_________________________________________________________________
dropout_2637 (Dropout)       (None, 16, 16, 128)       0         
_________________________________________________________________
max_pooling2d_635 (MaxPoolin (None, 8, 8, 128)         0         
_________________________________________________________________
flatten_370 (Flatten)        (None, 8192)              0         
_________________________________________________________________
dense_827 (Dense)            (None, 100)               819300    
=================================================================
Total params: 893,615
Trainable params: 892,559
Non-trainable params: 1,056
_________________________________________________________________
