Model: "sequential_245"
_________________________________________________________________
Layer (type)                 Output Shape              Param #   
=================================================================
separable_conv2d_1554 (Separ (None, 32, 32, 64)        283       
_________________________________________________________________
batch_normalization_1248 (Ba (None, 32, 32, 64)        256       
_________________________________________________________________
activation_1969 (Activation) (None, 32, 32, 64)        0         
_________________________________________________________________
dropout_1969 (Dropout)       (None, 32, 32, 64)        0         
_________________________________________________________________
separable_conv2d_1555 (Separ (None, 32, 32, 16)        1616      
_________________________________________________________________
batch_normalization_1249 (Ba (None, 32, 32, 16)        64        
_________________________________________________________________
activation_1970 (Activation) (None, 32, 32, 16)        0         
_________________________________________________________________
dropout_1970 (Dropout)       (None, 32, 32, 16)        0         
_________________________________________________________________
separable_conv2d_1556 (Separ (None, 32, 32, 128)       2320      
_________________________________________________________________
batch_normalization_1250 (Ba (None, 32, 32, 128)       512       
_________________________________________________________________
activation_1971 (Activation) (None, 32, 32, 128)       0         
_________________________________________________________________
dropout_1971 (Dropout)       (None, 32, 32, 128)       0         
_________________________________________________________________
separable_conv2d_1557 (Separ (None, 32, 32, 32)        5280      
_________________________________________________________________
batch_normalization_1251 (Ba (None, 32, 32, 32)        128       
_________________________________________________________________
activation_1972 (Activation) (None, 32, 32, 32)        0         
_________________________________________________________________
dropout_1972 (Dropout)       (None, 32, 32, 32)        0         
_________________________________________________________________
separable_conv2d_1558 (Separ (None, 32, 32, 32)        1344      
_________________________________________________________________
activation_1973 (Activation) (None, 32, 32, 32)        0         
_________________________________________________________________
dropout_1973 (Dropout)       (None, 32, 32, 32)        0         
_________________________________________________________________
separable_conv2d_1559 (Separ (None, 32, 32, 32)        1344      
_________________________________________________________________
batch_normalization_1252 (Ba (None, 32, 32, 32)        128       
_________________________________________________________________
activation_1974 (Activation) (None, 32, 32, 32)        0         
_________________________________________________________________
dropout_1974 (Dropout)       (None, 32, 32, 32)        0         
_________________________________________________________________
max_pooling2d_432 (MaxPoolin (None, 16, 16, 32)        0         
_________________________________________________________________
flatten_245 (Flatten)        (None, 8192)              0         
_________________________________________________________________
dense_660 (Dense)            (None, 100)               819300    
=================================================================
Total params: 832,575
Trainable params: 832,031
Non-trainable params: 544
_________________________________________________________________
