Model: "sequential_118"
_________________________________________________________________
Layer (type)                 Output Shape              Param #   
=================================================================
separable_conv2d_784 (Separa (None, 32, 32, 64)        283       
_________________________________________________________________
activation_1023 (Activation) (None, 32, 32, 64)        0         
_________________________________________________________________
dropout_1023 (Dropout)       (None, 32, 32, 64)        0         
_________________________________________________________________
separable_conv2d_785 (Separa (None, 32, 32, 1024)      67136     
_________________________________________________________________
batch_normalization_632 (Bat (None, 32, 32, 1024)      4096      
_________________________________________________________________
activation_1024 (Activation) (None, 32, 32, 1024)      0         
_________________________________________________________________
dropout_1024 (Dropout)       (None, 32, 32, 1024)      0         
_________________________________________________________________
separable_conv2d_786 (Separa (None, 32, 32, 16)        25616     
_________________________________________________________________
activation_1025 (Activation) (None, 32, 32, 16)        0         
_________________________________________________________________
dropout_1025 (Dropout)       (None, 32, 32, 16)        0         
_________________________________________________________________
max_pooling2d_219 (MaxPoolin (None, 16, 16, 16)        0         
_________________________________________________________________
separable_conv2d_787 (Separa (None, 16, 16, 64)        1232      
_________________________________________________________________
activation_1026 (Activation) (None, 16, 16, 64)        0         
_________________________________________________________________
dropout_1026 (Dropout)       (None, 16, 16, 64)        0         
_________________________________________________________________
separable_conv2d_788 (Separa (None, 16, 16, 256)       17216     
_________________________________________________________________
batch_normalization_633 (Bat (None, 16, 16, 256)       1024      
_________________________________________________________________
activation_1027 (Activation) (None, 16, 16, 256)       0         
_________________________________________________________________
dropout_1027 (Dropout)       (None, 16, 16, 256)       0         
_________________________________________________________________
max_pooling2d_220 (MaxPoolin (None, 8, 8, 256)         0         
_________________________________________________________________
separable_conv2d_789 (Separa (None, 8, 8, 32)          10528     
_________________________________________________________________
batch_normalization_634 (Bat (None, 8, 8, 32)          128       
_________________________________________________________________
activation_1028 (Activation) (None, 8, 8, 32)          0         
_________________________________________________________________
dropout_1028 (Dropout)       (None, 8, 8, 32)          0         
_________________________________________________________________
max_pooling2d_221 (MaxPoolin (None, 4, 4, 32)          0         
_________________________________________________________________
flatten_118 (Flatten)        (None, 512)               0         
_________________________________________________________________
dense_357 (Dense)            (None, 100)               51300     
=================================================================
Total params: 178,559
Trainable params: 175,935
Non-trainable params: 2,624
_________________________________________________________________
