Model: "sequential_238"
_________________________________________________________________
Layer (type)                 Output Shape              Param #   
=================================================================
separable_conv2d_1519 (Separ (None, 32, 32, 64)        283       
_________________________________________________________________
batch_normalization_1221 (Ba (None, 32, 32, 64)        256       
_________________________________________________________________
activation_1931 (Activation) (None, 32, 32, 64)        0         
_________________________________________________________________
dropout_1931 (Dropout)       (None, 32, 32, 64)        0         
_________________________________________________________________
separable_conv2d_1520 (Separ (None, 32, 32, 16)        1616      
_________________________________________________________________
batch_normalization_1222 (Ba (None, 32, 32, 16)        64        
_________________________________________________________________
activation_1932 (Activation) (None, 32, 32, 16)        0         
_________________________________________________________________
dropout_1932 (Dropout)       (None, 32, 32, 16)        0         
_________________________________________________________________
separable_conv2d_1521 (Separ (None, 32, 32, 128)       2320      
_________________________________________________________________
batch_normalization_1223 (Ba (None, 32, 32, 128)       512       
_________________________________________________________________
activation_1933 (Activation) (None, 32, 32, 128)       0         
_________________________________________________________________
dropout_1933 (Dropout)       (None, 32, 32, 128)       0         
_________________________________________________________________
separable_conv2d_1522 (Separ (None, 32, 32, 512)       67200     
_________________________________________________________________
activation_1934 (Activation) (None, 32, 32, 512)       0         
_________________________________________________________________
dropout_1934 (Dropout)       (None, 32, 32, 512)       0         
_________________________________________________________________
max_pooling2d_421 (MaxPoolin (None, 16, 16, 512)       0         
_________________________________________________________________
separable_conv2d_1523 (Separ (None, 16, 16, 256)       135936    
_________________________________________________________________
batch_normalization_1224 (Ba (None, 16, 16, 256)       1024      
_________________________________________________________________
activation_1935 (Activation) (None, 16, 16, 256)       0         
_________________________________________________________________
dropout_1935 (Dropout)       (None, 16, 16, 256)       0         
_________________________________________________________________
max_pooling2d_422 (MaxPoolin (None, 8, 8, 256)         0         
_________________________________________________________________
flatten_238 (Flatten)        (None, 16384)             0         
_________________________________________________________________
dense_650 (Dense)            (None, 512)               8389120   
_________________________________________________________________
activation_1936 (Activation) (None, 512)               0         
_________________________________________________________________
dropout_1936 (Dropout)       (None, 512)               0         
_________________________________________________________________
dense_651 (Dense)            (None, 128)               65664     
_________________________________________________________________
batch_normalization_1225 (Ba (None, 128)               512       
_________________________________________________________________
activation_1937 (Activation) (None, 128)               0         
_________________________________________________________________
dropout_1937 (Dropout)       (None, 128)               0         
_________________________________________________________________
dense_652 (Dense)            (None, 100)               12900     
=================================================================
Total params: 8,677,407
Trainable params: 8,676,223
Non-trainable params: 1,184
_________________________________________________________________
