Model: "sequential_374"
_________________________________________________________________
Layer (type)                 Output Shape              Param #   
=================================================================
separable_conv2d_2195 (Separ (None, 32, 32, 16)        91        
_________________________________________________________________
activation_2652 (Activation) (None, 32, 32, 16)        0         
_________________________________________________________________
dropout_2652 (Dropout)       (None, 32, 32, 16)        0         
_________________________________________________________________
separable_conv2d_2196 (Separ (None, 32, 32, 16)        416       
_________________________________________________________________
batch_normalization_1784 (Ba (None, 32, 32, 16)        64        
_________________________________________________________________
activation_2653 (Activation) (None, 32, 32, 16)        0         
_________________________________________________________________
dropout_2653 (Dropout)       (None, 32, 32, 16)        0         
_________________________________________________________________
separable_conv2d_2197 (Separ (None, 32, 32, 128)       2320      
_________________________________________________________________
batch_normalization_1785 (Ba (None, 32, 32, 128)       512       
_________________________________________________________________
activation_2654 (Activation) (None, 32, 32, 128)       0         
_________________________________________________________________
dropout_2654 (Dropout)       (None, 32, 32, 128)       0         
_________________________________________________________________
separable_conv2d_2198 (Separ (None, 32, 32, 256)       34176     
_________________________________________________________________
batch_normalization_1786 (Ba (None, 32, 32, 256)       1024      
_________________________________________________________________
activation_2655 (Activation) (None, 32, 32, 256)       0         
_________________________________________________________________
dropout_2655 (Dropout)       (None, 32, 32, 256)       0         
_________________________________________________________________
max_pooling2d_642 (MaxPoolin (None, 16, 16, 256)       0         
_________________________________________________________________
separable_conv2d_2199 (Separ (None, 16, 16, 128)       35200     
_________________________________________________________________
batch_normalization_1787 (Ba (None, 16, 16, 128)       512       
_________________________________________________________________
activation_2656 (Activation) (None, 16, 16, 128)       0         
_________________________________________________________________
dropout_2656 (Dropout)       (None, 16, 16, 128)       0         
_________________________________________________________________
max_pooling2d_643 (MaxPoolin (None, 8, 8, 128)         0         
_________________________________________________________________
flatten_374 (Flatten)        (None, 8192)              0         
_________________________________________________________________
dense_831 (Dense)            (None, 100)               819300    
=================================================================
Total params: 893,615
Trainable params: 892,559
Non-trainable params: 1,056
_________________________________________________________________
