Model: "sequential_172"
_________________________________________________________________
Layer (type)                 Output Shape              Param #   
=================================================================
separable_conv2d_1108 (Separ (None, 32, 32, 16)        91        
_________________________________________________________________
activation_1446 (Activation) (None, 32, 32, 16)        0         
_________________________________________________________________
dropout_1446 (Dropout)       (None, 32, 32, 16)        0         
_________________________________________________________________
separable_conv2d_1109 (Separ (None, 32, 32, 16)        416       
_________________________________________________________________
batch_normalization_899 (Bat (None, 32, 32, 16)        64        
_________________________________________________________________
activation_1447 (Activation) (None, 32, 32, 16)        0         
_________________________________________________________________
dropout_1447 (Dropout)       (None, 32, 32, 16)        0         
_________________________________________________________________
separable_conv2d_1110 (Separ (None, 32, 32, 8)         280       
_________________________________________________________________
activation_1448 (Activation) (None, 32, 32, 8)         0         
_________________________________________________________________
dropout_1448 (Dropout)       (None, 32, 32, 8)         0         
_________________________________________________________________
separable_conv2d_1111 (Separ (None, 32, 32, 16)        216       
_________________________________________________________________
batch_normalization_900 (Bat (None, 32, 32, 16)        64        
_________________________________________________________________
activation_1449 (Activation) (None, 32, 32, 16)        0         
_________________________________________________________________
dropout_1449 (Dropout)       (None, 32, 32, 16)        0         
_________________________________________________________________
separable_conv2d_1112 (Separ (None, 32, 32, 256)       4496      
_________________________________________________________________
batch_normalization_901 (Bat (None, 32, 32, 256)       1024      
_________________________________________________________________
activation_1450 (Activation) (None, 32, 32, 256)       0         
_________________________________________________________________
dropout_1450 (Dropout)       (None, 32, 32, 256)       0         
_________________________________________________________________
max_pooling2d_308 (MaxPoolin (None, 16, 16, 256)       0         
_________________________________________________________________
flatten_172 (Flatten)        (None, 65536)             0         
_________________________________________________________________
dense_510 (Dense)            (None, 256)               16777472  
_________________________________________________________________
batch_normalization_902 (Bat (None, 256)               1024      
_________________________________________________________________
activation_1451 (Activation) (None, 256)               0         
_________________________________________________________________
dropout_1451 (Dropout)       (None, 256)               0         
_________________________________________________________________
dense_511 (Dense)            (None, 256)               65792     
_________________________________________________________________
batch_normalization_903 (Bat (None, 256)               1024      
_________________________________________________________________
activation_1452 (Activation) (None, 256)               0         
_________________________________________________________________
dropout_1452 (Dropout)       (None, 256)               0         
_________________________________________________________________
dense_512 (Dense)            (None, 64)                16448     
_________________________________________________________________
batch_normalization_904 (Bat (None, 64)                256       
_________________________________________________________________
activation_1453 (Activation) (None, 64)                0         
_________________________________________________________________
dropout_1453 (Dropout)       (None, 64)                0         
_________________________________________________________________
dense_513 (Dense)            (None, 100)               6500      
=================================================================
Total params: 16,875,167
Trainable params: 16,873,439
Non-trainable params: 1,728
_________________________________________________________________
