Model: "sequential_21"
_________________________________________________________________
Layer (type)                 Output Shape              Param #   
=================================================================
separable_conv2d_162 (Separa (None, 32, 32, 16)        91        
_________________________________________________________________
activation_215 (Activation)  (None, 32, 32, 16)        0         
_________________________________________________________________
dropout_215 (Dropout)        (None, 32, 32, 16)        0         
_________________________________________________________________
separable_conv2d_163 (Separa (None, 32, 32, 16)        416       
_________________________________________________________________
batch_normalization_119 (Bat (None, 32, 32, 16)        64        
_________________________________________________________________
activation_216 (Activation)  (None, 32, 32, 16)        0         
_________________________________________________________________
dropout_216 (Dropout)        (None, 32, 32, 16)        0         
_________________________________________________________________
separable_conv2d_164 (Separa (None, 32, 32, 128)       2320      
_________________________________________________________________
batch_normalization_120 (Bat (None, 32, 32, 128)       512       
_________________________________________________________________
activation_217 (Activation)  (None, 32, 32, 128)       0         
_________________________________________________________________
dropout_217 (Dropout)        (None, 32, 32, 128)       0         
_________________________________________________________________
separable_conv2d_165 (Separa (None, 32, 32, 512)       67200     
_________________________________________________________________
activation_218 (Activation)  (None, 32, 32, 512)       0         
_________________________________________________________________
dropout_218 (Dropout)        (None, 32, 32, 512)       0         
_________________________________________________________________
max_pooling2d_43 (MaxPooling (None, 16, 16, 512)       0         
_________________________________________________________________
separable_conv2d_166 (Separa (None, 16, 16, 256)       135936    
_________________________________________________________________
batch_normalization_121 (Bat (None, 16, 16, 256)       1024      
_________________________________________________________________
activation_219 (Activation)  (None, 16, 16, 256)       0         
_________________________________________________________________
dropout_219 (Dropout)        (None, 16, 16, 256)       0         
_________________________________________________________________
max_pooling2d_44 (MaxPooling (None, 8, 8, 256)         0         
_________________________________________________________________
flatten_21 (Flatten)         (None, 16384)             0         
_________________________________________________________________
dense_74 (Dense)             (None, 32)                524320    
_________________________________________________________________
batch_normalization_122 (Bat (None, 32)                128       
_________________________________________________________________
activation_220 (Activation)  (None, 32)                0         
_________________________________________________________________
dropout_220 (Dropout)        (None, 32)                0         
_________________________________________________________________
dense_75 (Dense)             (None, 512)               16896     
_________________________________________________________________
activation_221 (Activation)  (None, 512)               0         
_________________________________________________________________
dropout_221 (Dropout)        (None, 512)               0         
_________________________________________________________________
dense_76 (Dense)             (None, 512)               262656    
_________________________________________________________________
batch_normalization_123 (Bat (None, 512)               2048      
_________________________________________________________________
activation_222 (Activation)  (None, 512)               0         
_________________________________________________________________
dropout_222 (Dropout)        (None, 512)               0         
_________________________________________________________________
dense_77 (Dense)             (None, 100)               51300     
=================================================================
Total params: 1,064,911
Trainable params: 1,063,023
Non-trainable params: 1,888
_________________________________________________________________
