Model: "sequential_130"
_________________________________________________________________
Layer (type)                 Output Shape              Param #   
=================================================================
separable_conv2d_860 (Separa (None, 32, 32, 64)        283       
_________________________________________________________________
batch_normalization_689 (Bat (None, 32, 32, 64)        256       
_________________________________________________________________
activation_1120 (Activation) (None, 32, 32, 64)        0         
_________________________________________________________________
dropout_1120 (Dropout)       (None, 32, 32, 64)        0         
_________________________________________________________________
separable_conv2d_861 (Separa (None, 32, 32, 1024)      67136     
_________________________________________________________________
batch_normalization_690 (Bat (None, 32, 32, 1024)      4096      
_________________________________________________________________
activation_1121 (Activation) (None, 32, 32, 1024)      0         
_________________________________________________________________
dropout_1121 (Dropout)       (None, 32, 32, 1024)      0         
_________________________________________________________________
separable_conv2d_862 (Separa (None, 32, 32, 16)        25616     
_________________________________________________________________
activation_1122 (Activation) (None, 32, 32, 16)        0         
_________________________________________________________________
dropout_1122 (Dropout)       (None, 32, 32, 16)        0         
_________________________________________________________________
max_pooling2d_239 (MaxPoolin (None, 16, 16, 16)        0         
_________________________________________________________________
separable_conv2d_863 (Separa (None, 16, 16, 64)        1232      
_________________________________________________________________
batch_normalization_691 (Bat (None, 16, 16, 64)        256       
_________________________________________________________________
activation_1123 (Activation) (None, 16, 16, 64)        0         
_________________________________________________________________
dropout_1123 (Dropout)       (None, 16, 16, 64)        0         
_________________________________________________________________
separable_conv2d_864 (Separa (None, 16, 16, 256)       17216     
_________________________________________________________________
batch_normalization_692 (Bat (None, 16, 16, 256)       1024      
_________________________________________________________________
activation_1124 (Activation) (None, 16, 16, 256)       0         
_________________________________________________________________
dropout_1124 (Dropout)       (None, 16, 16, 256)       0         
_________________________________________________________________
max_pooling2d_240 (MaxPoolin (None, 8, 8, 256)         0         
_________________________________________________________________
flatten_130 (Flatten)        (None, 16384)             0         
_________________________________________________________________
dense_390 (Dense)            (None, 256)               4194560   
_________________________________________________________________
batch_normalization_693 (Bat (None, 256)               1024      
_________________________________________________________________
activation_1125 (Activation) (None, 256)               0         
_________________________________________________________________
dropout_1125 (Dropout)       (None, 256)               0         
_________________________________________________________________
dense_391 (Dense)            (None, 256)               65792     
_________________________________________________________________
batch_normalization_694 (Bat (None, 256)               1024      
_________________________________________________________________
activation_1126 (Activation) (None, 256)               0         
_________________________________________________________________
dropout_1126 (Dropout)       (None, 256)               0         
_________________________________________________________________
dense_392 (Dense)            (None, 64)                16448     
_________________________________________________________________
batch_normalization_695 (Bat (None, 64)                256       
_________________________________________________________________
activation_1127 (Activation) (None, 64)                0         
_________________________________________________________________
dropout_1127 (Dropout)       (None, 64)                0         
_________________________________________________________________
dense_393 (Dense)            (None, 100)               6500      
=================================================================
Total params: 4,402,719
Trainable params: 4,398,751
Non-trainable params: 3,968
_________________________________________________________________
