Model: "sequential_50"
_________________________________________________________________
Layer (type)                 Output Shape              Param #   
=================================================================
separable_conv2d_345 (Separa (None, 32, 32, 16)        91        
_________________________________________________________________
activation_453 (Activation)  (None, 32, 32, 16)        0         
_________________________________________________________________
dropout_453 (Dropout)        (None, 32, 32, 16)        0         
_________________________________________________________________
separable_conv2d_346 (Separa (None, 32, 32, 16)        416       
_________________________________________________________________
batch_normalization_264 (Bat (None, 32, 32, 16)        64        
_________________________________________________________________
activation_454 (Activation)  (None, 32, 32, 16)        0         
_________________________________________________________________
dropout_454 (Dropout)        (None, 32, 32, 16)        0         
_________________________________________________________________
separable_conv2d_347 (Separa (None, 32, 32, 128)       2320      
_________________________________________________________________
batch_normalization_265 (Bat (None, 32, 32, 128)       512       
_________________________________________________________________
activation_455 (Activation)  (None, 32, 32, 128)       0         
_________________________________________________________________
dropout_455 (Dropout)        (None, 32, 32, 128)       0         
_________________________________________________________________
separable_conv2d_348 (Separa (None, 32, 32, 512)       67200     
_________________________________________________________________
activation_456 (Activation)  (None, 32, 32, 512)       0         
_________________________________________________________________
dropout_456 (Dropout)        (None, 32, 32, 512)       0         
_________________________________________________________________
max_pooling2d_99 (MaxPooling (None, 16, 16, 512)       0         
_________________________________________________________________
separable_conv2d_349 (Separa (None, 16, 16, 256)       135936    
_________________________________________________________________
batch_normalization_266 (Bat (None, 16, 16, 256)       1024      
_________________________________________________________________
activation_457 (Activation)  (None, 16, 16, 256)       0         
_________________________________________________________________
dropout_457 (Dropout)        (None, 16, 16, 256)       0         
_________________________________________________________________
max_pooling2d_100 (MaxPoolin (None, 8, 8, 256)         0         
_________________________________________________________________
separable_conv2d_350 (Separa (None, 8, 8, 128)         35200     
_________________________________________________________________
batch_normalization_267 (Bat (None, 8, 8, 128)         512       
_________________________________________________________________
activation_458 (Activation)  (None, 8, 8, 128)         0         
_________________________________________________________________
dropout_458 (Dropout)        (None, 8, 8, 128)         0         
_________________________________________________________________
flatten_50 (Flatten)         (None, 8192)              0         
_________________________________________________________________
dense_158 (Dense)            (None, 100)               819300    
=================================================================
Total params: 1,062,575
Trainable params: 1,061,519
Non-trainable params: 1,056
_________________________________________________________________
