Model: "sequential_232"
_________________________________________________________________
Layer (type)                 Output Shape              Param #   
=================================================================
separable_conv2d_1484 (Separ (None, 32, 32, 64)        283       
_________________________________________________________________
activation_1890 (Activation) (None, 32, 32, 64)        0         
_________________________________________________________________
dropout_1890 (Dropout)       (None, 32, 32, 64)        0         
_________________________________________________________________
separable_conv2d_1485 (Separ (None, 32, 32, 1024)      67136     
_________________________________________________________________
batch_normalization_1194 (Ba (None, 32, 32, 1024)      4096      
_________________________________________________________________
activation_1891 (Activation) (None, 32, 32, 1024)      0         
_________________________________________________________________
dropout_1891 (Dropout)       (None, 32, 32, 1024)      0         
_________________________________________________________________
separable_conv2d_1486 (Separ (None, 32, 32, 128)       140416    
_________________________________________________________________
batch_normalization_1195 (Ba (None, 32, 32, 128)       512       
_________________________________________________________________
activation_1892 (Activation) (None, 32, 32, 128)       0         
_________________________________________________________________
dropout_1892 (Dropout)       (None, 32, 32, 128)       0         
_________________________________________________________________
separable_conv2d_1487 (Separ (None, 32, 32, 32)        5280      
_________________________________________________________________
batch_normalization_1196 (Ba (None, 32, 32, 32)        128       
_________________________________________________________________
activation_1893 (Activation) (None, 32, 32, 32)        0         
_________________________________________________________________
dropout_1893 (Dropout)       (None, 32, 32, 32)        0         
_________________________________________________________________
separable_conv2d_1488 (Separ (None, 32, 32, 512)       17184     
_________________________________________________________________
activation_1894 (Activation) (None, 32, 32, 512)       0         
_________________________________________________________________
dropout_1894 (Dropout)       (None, 32, 32, 512)       0         
_________________________________________________________________
separable_conv2d_1489 (Separ (None, 32, 32, 32)        21024     
_________________________________________________________________
batch_normalization_1197 (Ba (None, 32, 32, 32)        128       
_________________________________________________________________
activation_1895 (Activation) (None, 32, 32, 32)        0         
_________________________________________________________________
dropout_1895 (Dropout)       (None, 32, 32, 32)        0         
_________________________________________________________________
max_pooling2d_410 (MaxPoolin (None, 16, 16, 32)        0         
_________________________________________________________________
flatten_232 (Flatten)        (None, 8192)              0         
_________________________________________________________________
dense_638 (Dense)            (None, 512)               4194816   
_________________________________________________________________
batch_normalization_1198 (Ba (None, 512)               2048      
_________________________________________________________________
activation_1896 (Activation) (None, 512)               0         
_________________________________________________________________
dropout_1896 (Dropout)       (None, 512)               0         
_________________________________________________________________
dense_639 (Dense)            (None, 100)               51300     
=================================================================
Total params: 4,504,351
Trainable params: 4,500,895
Non-trainable params: 3,456
_________________________________________________________________
