Model: "sequential_395"
_________________________________________________________________
Layer (type)                 Output Shape              Param #   
=================================================================
separable_conv2d_2297 (Separ (None, 32, 32, 64)        283       
_________________________________________________________________
batch_normalization_1870 (Ba (None, 32, 32, 64)        256       
_________________________________________________________________
activation_2755 (Activation) (None, 32, 32, 64)        0         
_________________________________________________________________
dropout_2755 (Dropout)       (None, 32, 32, 64)        0         
_________________________________________________________________
separable_conv2d_2298 (Separ (None, 32, 32, 64)        4736      
_________________________________________________________________
batch_normalization_1871 (Ba (None, 32, 32, 64)        256       
_________________________________________________________________
activation_2756 (Activation) (None, 32, 32, 64)        0         
_________________________________________________________________
dropout_2756 (Dropout)       (None, 32, 32, 64)        0         
_________________________________________________________________
separable_conv2d_2299 (Separ (None, 32, 32, 256)       17216     
_________________________________________________________________
batch_normalization_1872 (Ba (None, 32, 32, 256)       1024      
_________________________________________________________________
activation_2757 (Activation) (None, 32, 32, 256)       0         
_________________________________________________________________
dropout_2757 (Dropout)       (None, 32, 32, 256)       0         
_________________________________________________________________
max_pooling2d_683 (MaxPoolin (None, 16, 16, 256)       0         
_________________________________________________________________
separable_conv2d_2300 (Separ (None, 16, 16, 128)       35200     
_________________________________________________________________
batch_normalization_1873 (Ba (None, 16, 16, 128)       512       
_________________________________________________________________
activation_2758 (Activation) (None, 16, 16, 128)       0         
_________________________________________________________________
dropout_2758 (Dropout)       (None, 16, 16, 128)       0         
_________________________________________________________________
max_pooling2d_684 (MaxPoolin (None, 8, 8, 128)         0         
_________________________________________________________________
flatten_395 (Flatten)        (None, 8192)              0         
_________________________________________________________________
dense_853 (Dense)            (None, 100)               819300    
=================================================================
Total params: 878,783
Trainable params: 877,759
Non-trainable params: 1,024
_________________________________________________________________
