Model: "sequential_207"
_________________________________________________________________
Layer (type)                 Output Shape              Param #   
=================================================================
separable_conv2d_1328 (Separ (None, 32, 32, 64)        283       
_________________________________________________________________
batch_normalization_1075 (Ba (None, 32, 32, 64)        256       
_________________________________________________________________
activation_1714 (Activation) (None, 32, 32, 64)        0         
_________________________________________________________________
dropout_1714 (Dropout)       (None, 32, 32, 64)        0         
_________________________________________________________________
separable_conv2d_1329 (Separ (None, 32, 32, 1024)      67136     
_________________________________________________________________
batch_normalization_1076 (Ba (None, 32, 32, 1024)      4096      
_________________________________________________________________
activation_1715 (Activation) (None, 32, 32, 1024)      0         
_________________________________________________________________
dropout_1715 (Dropout)       (None, 32, 32, 1024)      0         
_________________________________________________________________
separable_conv2d_1330 (Separ (None, 32, 32, 8)         17416     
_________________________________________________________________
activation_1716 (Activation) (None, 32, 32, 8)         0         
_________________________________________________________________
dropout_1716 (Dropout)       (None, 32, 32, 8)         0         
_________________________________________________________________
separable_conv2d_1331 (Separ (None, 32, 32, 16)        216       
_________________________________________________________________
batch_normalization_1077 (Ba (None, 32, 32, 16)        64        
_________________________________________________________________
activation_1717 (Activation) (None, 32, 32, 16)        0         
_________________________________________________________________
dropout_1717 (Dropout)       (None, 32, 32, 16)        0         
_________________________________________________________________
separable_conv2d_1332 (Separ (None, 32, 32, 256)       4496      
_________________________________________________________________
batch_normalization_1078 (Ba (None, 32, 32, 256)       1024      
_________________________________________________________________
activation_1718 (Activation) (None, 32, 32, 256)       0         
_________________________________________________________________
dropout_1718 (Dropout)       (None, 32, 32, 256)       0         
_________________________________________________________________
max_pooling2d_366 (MaxPoolin (None, 16, 16, 256)       0         
_________________________________________________________________
flatten_207 (Flatten)        (None, 65536)             0         
_________________________________________________________________
dense_593 (Dense)            (None, 256)               16777472  
_________________________________________________________________
batch_normalization_1079 (Ba (None, 256)               1024      
_________________________________________________________________
activation_1719 (Activation) (None, 256)               0         
_________________________________________________________________
dropout_1719 (Dropout)       (None, 256)               0         
_________________________________________________________________
dense_594 (Dense)            (None, 256)               65792     
_________________________________________________________________
batch_normalization_1080 (Ba (None, 256)               1024      
_________________________________________________________________
activation_1720 (Activation) (None, 256)               0         
_________________________________________________________________
dropout_1720 (Dropout)       (None, 256)               0         
_________________________________________________________________
dense_595 (Dense)            (None, 64)                16448     
_________________________________________________________________
batch_normalization_1081 (Ba (None, 64)                256       
_________________________________________________________________
activation_1721 (Activation) (None, 64)                0         
_________________________________________________________________
dropout_1721 (Dropout)       (None, 64)                0         
_________________________________________________________________
dense_596 (Dense)            (None, 100)               6500      
=================================================================
Total params: 16,963,503
Trainable params: 16,959,631
Non-trainable params: 3,872
_________________________________________________________________
