Model: "sequential_144"
_________________________________________________________________
Layer (type)                 Output Shape              Param #   
=================================================================
separable_conv2d_940 (Separa (None, 32, 32, 16)        91        
_________________________________________________________________
activation_1232 (Activation) (None, 32, 32, 16)        0         
_________________________________________________________________
dropout_1232 (Dropout)       (None, 32, 32, 16)        0         
_________________________________________________________________
separable_conv2d_941 (Separa (None, 32, 32, 128)       2320      
_________________________________________________________________
batch_normalization_762 (Bat (None, 32, 32, 128)       512       
_________________________________________________________________
activation_1233 (Activation) (None, 32, 32, 128)       0         
_________________________________________________________________
dropout_1233 (Dropout)       (None, 32, 32, 128)       0         
_________________________________________________________________
separable_conv2d_942 (Separa (None, 32, 32, 512)       67200     
_________________________________________________________________
activation_1234 (Activation) (None, 32, 32, 512)       0         
_________________________________________________________________
dropout_1234 (Dropout)       (None, 32, 32, 512)       0         
_________________________________________________________________
max_pooling2d_262 (MaxPoolin (None, 16, 16, 512)       0         
_________________________________________________________________
separable_conv2d_943 (Separa (None, 16, 16, 256)       135936    
_________________________________________________________________
batch_normalization_763 (Bat (None, 16, 16, 256)       1024      
_________________________________________________________________
activation_1235 (Activation) (None, 16, 16, 256)       0         
_________________________________________________________________
dropout_1235 (Dropout)       (None, 16, 16, 256)       0         
_________________________________________________________________
max_pooling2d_263 (MaxPoolin (None, 8, 8, 256)         0         
_________________________________________________________________
flatten_144 (Flatten)        (None, 16384)             0         
_________________________________________________________________
dense_436 (Dense)            (None, 32)                524320    
_________________________________________________________________
batch_normalization_764 (Bat (None, 32)                128       
_________________________________________________________________
activation_1236 (Activation) (None, 32)                0         
_________________________________________________________________
dropout_1236 (Dropout)       (None, 32)                0         
_________________________________________________________________
dense_437 (Dense)            (None, 512)               16896     
_________________________________________________________________
activation_1237 (Activation) (None, 512)               0         
_________________________________________________________________
dropout_1237 (Dropout)       (None, 512)               0         
_________________________________________________________________
dense_438 (Dense)            (None, 512)               262656    
_________________________________________________________________
batch_normalization_765 (Bat (None, 512)               2048      
_________________________________________________________________
activation_1238 (Activation) (None, 512)               0         
_________________________________________________________________
dropout_1238 (Dropout)       (None, 512)               0         
_________________________________________________________________
dense_439 (Dense)            (None, 100)               51300     
=================================================================
Total params: 1,064,431
Trainable params: 1,062,575
Non-trainable params: 1,856
_________________________________________________________________
