Model: "sequential_366"
_________________________________________________________________
Layer (type)                 Output Shape              Param #   
=================================================================
separable_conv2d_2157 (Separ (None, 32, 32, 16)        91        
_________________________________________________________________
activation_2613 (Activation) (None, 32, 32, 16)        0         
_________________________________________________________________
dropout_2613 (Dropout)       (None, 32, 32, 16)        0         
_________________________________________________________________
separable_conv2d_2158 (Separ (None, 32, 32, 16)        416       
_________________________________________________________________
batch_normalization_1751 (Ba (None, 32, 32, 16)        64        
_________________________________________________________________
activation_2614 (Activation) (None, 32, 32, 16)        0         
_________________________________________________________________
dropout_2614 (Dropout)       (None, 32, 32, 16)        0         
_________________________________________________________________
separable_conv2d_2159 (Separ (None, 32, 32, 128)       2320      
_________________________________________________________________
batch_normalization_1752 (Ba (None, 32, 32, 128)       512       
_________________________________________________________________
activation_2615 (Activation) (None, 32, 32, 128)       0         
_________________________________________________________________
dropout_2615 (Dropout)       (None, 32, 32, 128)       0         
_________________________________________________________________
separable_conv2d_2160 (Separ (None, 32, 32, 256)       34176     
_________________________________________________________________
batch_normalization_1753 (Ba (None, 32, 32, 256)       1024      
_________________________________________________________________
activation_2616 (Activation) (None, 32, 32, 256)       0         
_________________________________________________________________
dropout_2616 (Dropout)       (None, 32, 32, 256)       0         
_________________________________________________________________
max_pooling2d_629 (MaxPoolin (None, 16, 16, 256)       0         
_________________________________________________________________
separable_conv2d_2161 (Separ (None, 16, 16, 128)       35200     
_________________________________________________________________
batch_normalization_1754 (Ba (None, 16, 16, 128)       512       
_________________________________________________________________
activation_2617 (Activation) (None, 16, 16, 128)       0         
_________________________________________________________________
dropout_2617 (Dropout)       (None, 16, 16, 128)       0         
_________________________________________________________________
max_pooling2d_630 (MaxPoolin (None, 8, 8, 128)         0         
_________________________________________________________________
flatten_366 (Flatten)        (None, 8192)              0         
_________________________________________________________________
dense_822 (Dense)            (None, 100)               819300    
=================================================================
Total params: 893,615
Trainable params: 892,559
Non-trainable params: 1,056
_________________________________________________________________
