Model: "sequential_360"
_________________________________________________________________
Layer (type)                 Output Shape              Param #   
=================================================================
separable_conv2d_2128 (Separ (None, 32, 32, 64)        283       
_________________________________________________________________
batch_normalization_1727 (Ba (None, 32, 32, 64)        256       
_________________________________________________________________
activation_2584 (Activation) (None, 32, 32, 64)        0         
_________________________________________________________________
dropout_2584 (Dropout)       (None, 32, 32, 64)        0         
_________________________________________________________________
separable_conv2d_2129 (Separ (None, 32, 32, 128)       8896      
_________________________________________________________________
batch_normalization_1728 (Ba (None, 32, 32, 128)       512       
_________________________________________________________________
activation_2585 (Activation) (None, 32, 32, 128)       0         
_________________________________________________________________
dropout_2585 (Dropout)       (None, 32, 32, 128)       0         
_________________________________________________________________
separable_conv2d_2130 (Separ (None, 32, 32, 256)       34176     
_________________________________________________________________
batch_normalization_1729 (Ba (None, 32, 32, 256)       1024      
_________________________________________________________________
activation_2586 (Activation) (None, 32, 32, 256)       0         
_________________________________________________________________
dropout_2586 (Dropout)       (None, 32, 32, 256)       0         
_________________________________________________________________
max_pooling2d_617 (MaxPoolin (None, 16, 16, 256)       0         
_________________________________________________________________
separable_conv2d_2131 (Separ (None, 16, 16, 128)       35200     
_________________________________________________________________
batch_normalization_1730 (Ba (None, 16, 16, 128)       512       
_________________________________________________________________
activation_2587 (Activation) (None, 16, 16, 128)       0         
_________________________________________________________________
dropout_2587 (Dropout)       (None, 16, 16, 128)       0         
_________________________________________________________________
max_pooling2d_618 (MaxPoolin (None, 8, 8, 128)         0         
_________________________________________________________________
flatten_360 (Flatten)        (None, 8192)              0         
_________________________________________________________________
dense_816 (Dense)            (None, 100)               819300    
=================================================================
Total params: 900,159
Trainable params: 899,007
Non-trainable params: 1,152
_________________________________________________________________
