Model: "sequential_283"
_________________________________________________________________
Layer (type)                 Output Shape              Param #   
=================================================================
separable_conv2d_1758 (Separ (None, 32, 32, 64)        283       
_________________________________________________________________
batch_normalization_1410 (Ba (None, 32, 32, 64)        256       
_________________________________________________________________
activation_2186 (Activation) (None, 32, 32, 64)        0         
_________________________________________________________________
dropout_2186 (Dropout)       (None, 32, 32, 64)        0         
_________________________________________________________________
separable_conv2d_1759 (Separ (None, 32, 32, 128)       8896      
_________________________________________________________________
batch_normalization_1411 (Ba (None, 32, 32, 128)       512       
_________________________________________________________________
activation_2187 (Activation) (None, 32, 32, 128)       0         
_________________________________________________________________
dropout_2187 (Dropout)       (None, 32, 32, 128)       0         
_________________________________________________________________
separable_conv2d_1760 (Separ (None, 32, 32, 256)       34176     
_________________________________________________________________
batch_normalization_1412 (Ba (None, 32, 32, 256)       1024      
_________________________________________________________________
activation_2188 (Activation) (None, 32, 32, 256)       0         
_________________________________________________________________
dropout_2188 (Dropout)       (None, 32, 32, 256)       0         
_________________________________________________________________
max_pooling2d_489 (MaxPoolin (None, 16, 16, 256)       0         
_________________________________________________________________
separable_conv2d_1761 (Separ (None, 16, 16, 128)       35200     
_________________________________________________________________
batch_normalization_1413 (Ba (None, 16, 16, 128)       512       
_________________________________________________________________
activation_2189 (Activation) (None, 16, 16, 128)       0         
_________________________________________________________________
dropout_2189 (Dropout)       (None, 16, 16, 128)       0         
_________________________________________________________________
max_pooling2d_490 (MaxPoolin (None, 8, 8, 128)         0         
_________________________________________________________________
flatten_283 (Flatten)        (None, 8192)              0         
_________________________________________________________________
dense_711 (Dense)            (None, 100)               819300    
=================================================================
Total params: 900,159
Trainable params: 899,007
Non-trainable params: 1,152
_________________________________________________________________
