Model: "sequential_7"
_________________________________________________________________
Layer (type)                 Output Shape              Param #   
=================================================================
separable_conv2d_54 (Separab (None, 32, 32, 16)        91        
_________________________________________________________________
activation_70 (Activation)   (None, 32, 32, 16)        0         
_________________________________________________________________
dropout_70 (Dropout)         (None, 32, 32, 16)        0         
_________________________________________________________________
separable_conv2d_55 (Separab (None, 32, 32, 16)        416       
_________________________________________________________________
batch_normalization_37 (Batc (None, 32, 32, 16)        64        
_________________________________________________________________
activation_71 (Activation)   (None, 32, 32, 16)        0         
_________________________________________________________________
dropout_71 (Dropout)         (None, 32, 32, 16)        0         
_________________________________________________________________
separable_conv2d_56 (Separab (None, 32, 32, 128)       2320      
_________________________________________________________________
batch_normalization_38 (Batc (None, 32, 32, 128)       512       
_________________________________________________________________
activation_72 (Activation)   (None, 32, 32, 128)       0         
_________________________________________________________________
dropout_72 (Dropout)         (None, 32, 32, 128)       0         
_________________________________________________________________
separable_conv2d_57 (Separab (None, 32, 32, 512)       67200     
_________________________________________________________________
activation_73 (Activation)   (None, 32, 32, 512)       0         
_________________________________________________________________
dropout_73 (Dropout)         (None, 32, 32, 512)       0         
_________________________________________________________________
max_pooling2d_14 (MaxPooling (None, 16, 16, 512)       0         
_________________________________________________________________
separable_conv2d_58 (Separab (None, 16, 16, 256)       135936    
_________________________________________________________________
batch_normalization_39 (Batc (None, 16, 16, 256)       1024      
_________________________________________________________________
activation_74 (Activation)   (None, 16, 16, 256)       0         
_________________________________________________________________
dropout_74 (Dropout)         (None, 16, 16, 256)       0         
_________________________________________________________________
max_pooling2d_15 (MaxPooling (None, 8, 8, 256)         0         
_________________________________________________________________
flatten_7 (Flatten)          (None, 16384)             0         
_________________________________________________________________
dense_23 (Dense)             (None, 32)                524320    
_________________________________________________________________
batch_normalization_40 (Batc (None, 32)                128       
_________________________________________________________________
activation_75 (Activation)   (None, 32)                0         
_________________________________________________________________
dropout_75 (Dropout)         (None, 32)                0         
_________________________________________________________________
dense_24 (Dense)             (None, 512)               16896     
_________________________________________________________________
activation_76 (Activation)   (None, 512)               0         
_________________________________________________________________
dropout_76 (Dropout)         (None, 512)               0         
_________________________________________________________________
dense_25 (Dense)             (None, 512)               262656    
_________________________________________________________________
batch_normalization_41 (Batc (None, 512)               2048      
_________________________________________________________________
activation_77 (Activation)   (None, 512)               0         
_________________________________________________________________
dropout_77 (Dropout)         (None, 512)               0         
_________________________________________________________________
dense_26 (Dense)             (None, 100)               51300     
=================================================================
Total params: 1,064,911
Trainable params: 1,063,023
Non-trainable params: 1,888
_________________________________________________________________
