Model: "sequential_243"
_________________________________________________________________
Layer (type)                 Output Shape              Param #   
=================================================================
separable_conv2d_1545 (Separ (None, 32, 32, 16)        91        
_________________________________________________________________
activation_1960 (Activation) (None, 32, 32, 16)        0         
_________________________________________________________________
dropout_1960 (Dropout)       (None, 32, 32, 16)        0         
_________________________________________________________________
separable_conv2d_1546 (Separ (None, 32, 32, 16)        416       
_________________________________________________________________
batch_normalization_1242 (Ba (None, 32, 32, 16)        64        
_________________________________________________________________
activation_1961 (Activation) (None, 32, 32, 16)        0         
_________________________________________________________________
dropout_1961 (Dropout)       (None, 32, 32, 16)        0         
_________________________________________________________________
separable_conv2d_1547 (Separ (None, 32, 32, 128)       2320      
_________________________________________________________________
batch_normalization_1243 (Ba (None, 32, 32, 128)       512       
_________________________________________________________________
activation_1962 (Activation) (None, 32, 32, 128)       0         
_________________________________________________________________
dropout_1962 (Dropout)       (None, 32, 32, 128)       0         
_________________________________________________________________
separable_conv2d_1548 (Separ (None, 32, 32, 64)        9408      
_________________________________________________________________
activation_1963 (Activation) (None, 32, 32, 64)        0         
_________________________________________________________________
dropout_1963 (Dropout)       (None, 32, 32, 64)        0         
_________________________________________________________________
max_pooling2d_429 (MaxPoolin (None, 16, 16, 64)        0         
_________________________________________________________________
separable_conv2d_1549 (Separ (None, 16, 16, 8)         1096      
_________________________________________________________________
activation_1964 (Activation) (None, 16, 16, 8)         0         
_________________________________________________________________
dropout_1964 (Dropout)       (None, 16, 16, 8)         0         
_________________________________________________________________
max_pooling2d_430 (MaxPoolin (None, 8, 8, 8)           0         
_________________________________________________________________
flatten_243 (Flatten)        (None, 512)               0         
_________________________________________________________________
dense_658 (Dense)            (None, 100)               51300     
=================================================================
Total params: 65,207
Trainable params: 64,919
Non-trainable params: 288
_________________________________________________________________
