Model: "sequential_371"
_________________________________________________________________
Layer (type)                 Output Shape              Param #   
=================================================================
separable_conv2d_2181 (Separ (None, 32, 32, 16)        91        
_________________________________________________________________
activation_2638 (Activation) (None, 32, 32, 16)        0         
_________________________________________________________________
dropout_2638 (Dropout)       (None, 32, 32, 16)        0         
_________________________________________________________________
separable_conv2d_2182 (Separ (None, 32, 32, 1024)      17552     
_________________________________________________________________
batch_normalization_1772 (Ba (None, 32, 32, 1024)      4096      
_________________________________________________________________
activation_2639 (Activation) (None, 32, 32, 1024)      0         
_________________________________________________________________
dropout_2639 (Dropout)       (None, 32, 32, 1024)      0         
_________________________________________________________________
separable_conv2d_2183 (Separ (None, 32, 32, 128)       140416    
_________________________________________________________________
batch_normalization_1773 (Ba (None, 32, 32, 128)       512       
_________________________________________________________________
activation_2640 (Activation) (None, 32, 32, 128)       0         
_________________________________________________________________
dropout_2640 (Dropout)       (None, 32, 32, 128)       0         
_________________________________________________________________
separable_conv2d_2184 (Separ (None, 32, 32, 256)       34176     
_________________________________________________________________
batch_normalization_1774 (Ba (None, 32, 32, 256)       1024      
_________________________________________________________________
activation_2641 (Activation) (None, 32, 32, 256)       0         
_________________________________________________________________
dropout_2641 (Dropout)       (None, 32, 32, 256)       0         
_________________________________________________________________
max_pooling2d_636 (MaxPoolin (None, 16, 16, 256)       0         
_________________________________________________________________
separable_conv2d_2185 (Separ (None, 16, 16, 128)       35200     
_________________________________________________________________
batch_normalization_1775 (Ba (None, 16, 16, 128)       512       
_________________________________________________________________
activation_2642 (Activation) (None, 16, 16, 128)       0         
_________________________________________________________________
dropout_2642 (Dropout)       (None, 16, 16, 128)       0         
_________________________________________________________________
max_pooling2d_637 (MaxPoolin (None, 8, 8, 128)         0         
_________________________________________________________________
flatten_371 (Flatten)        (None, 8192)              0         
_________________________________________________________________
dense_828 (Dense)            (None, 100)               819300    
=================================================================
Total params: 1,052,879
Trainable params: 1,049,807
Non-trainable params: 3,072
_________________________________________________________________
