Model: "sequential_267"
_________________________________________________________________
Layer (type)                 Output Shape              Param #   
=================================================================
separable_conv2d_1672 (Separ (None, 32, 32, 16)        91        
_________________________________________________________________
activation_2094 (Activation) (None, 32, 32, 16)        0         
_________________________________________________________________
dropout_2094 (Dropout)       (None, 32, 32, 16)        0         
_________________________________________________________________
separable_conv2d_1673 (Separ (None, 32, 32, 512)       8848      
_________________________________________________________________
batch_normalization_1341 (Ba (None, 32, 32, 512)       2048      
_________________________________________________________________
activation_2095 (Activation) (None, 32, 32, 512)       0         
_________________________________________________________________
dropout_2095 (Dropout)       (None, 32, 32, 512)       0         
_________________________________________________________________
separable_conv2d_1674 (Separ (None, 32, 32, 128)       70272     
_________________________________________________________________
batch_normalization_1342 (Ba (None, 32, 32, 128)       512       
_________________________________________________________________
activation_2096 (Activation) (None, 32, 32, 128)       0         
_________________________________________________________________
dropout_2096 (Dropout)       (None, 32, 32, 128)       0         
_________________________________________________________________
separable_conv2d_1675 (Separ (None, 32, 32, 512)       67200     
_________________________________________________________________
activation_2097 (Activation) (None, 32, 32, 512)       0         
_________________________________________________________________
dropout_2097 (Dropout)       (None, 32, 32, 512)       0         
_________________________________________________________________
separable_conv2d_1676 (Separ (None, 32, 32, 32)        21024     
_________________________________________________________________
batch_normalization_1343 (Ba (None, 32, 32, 32)        128       
_________________________________________________________________
activation_2098 (Activation) (None, 32, 32, 32)        0         
_________________________________________________________________
dropout_2098 (Dropout)       (None, 32, 32, 32)        0         
_________________________________________________________________
max_pooling2d_464 (MaxPoolin (None, 16, 16, 32)        0         
_________________________________________________________________
flatten_267 (Flatten)        (None, 8192)              0         
_________________________________________________________________
dense_689 (Dense)            (None, 512)               4194816   
_________________________________________________________________
batch_normalization_1344 (Ba (None, 512)               2048      
_________________________________________________________________
activation_2099 (Activation) (None, 512)               0         
_________________________________________________________________
dropout_2099 (Dropout)       (None, 512)               0         
_________________________________________________________________
dense_690 (Dense)            (None, 100)               51300     
=================================================================
Total params: 4,418,287
Trainable params: 4,415,919
Non-trainable params: 2,368
_________________________________________________________________
