Model: "sequential_9"
_________________________________________________________________
Layer (type)                 Output Shape              Param #   
=================================================================
separable_conv2d_67 (Separab (None, 32, 32, 32)        155       
_________________________________________________________________
batch_normalization_46 (Batc (None, 32, 32, 32)        128       
_________________________________________________________________
activation_88 (Activation)   (None, 32, 32, 32)        0         
_________________________________________________________________
dropout_88 (Dropout)         (None, 32, 32, 32)        0         
_________________________________________________________________
max_pooling2d_19 (MaxPooling (None, 16, 16, 32)        0         
_________________________________________________________________
separable_conv2d_68 (Separab (None, 16, 16, 32)        1344      
_________________________________________________________________
batch_normalization_47 (Batc (None, 16, 16, 32)        128       
_________________________________________________________________
activation_89 (Activation)   (None, 16, 16, 32)        0         
_________________________________________________________________
dropout_89 (Dropout)         (None, 16, 16, 32)        0         
_________________________________________________________________
separable_conv2d_69 (Separab (None, 16, 16, 16)        816       
_________________________________________________________________
activation_90 (Activation)   (None, 16, 16, 16)        0         
_________________________________________________________________
dropout_90 (Dropout)         (None, 16, 16, 16)        0         
_________________________________________________________________
max_pooling2d_20 (MaxPooling (None, 8, 8, 16)          0         
_________________________________________________________________
separable_conv2d_70 (Separab (None, 8, 8, 1024)        17552     
_________________________________________________________________
activation_91 (Activation)   (None, 8, 8, 1024)        0         
_________________________________________________________________
dropout_91 (Dropout)         (None, 8, 8, 1024)        0         
_________________________________________________________________
separable_conv2d_71 (Separab (None, 8, 8, 512)         534016    
_________________________________________________________________
batch_normalization_48 (Batc (None, 8, 8, 512)         2048      
_________________________________________________________________
activation_92 (Activation)   (None, 8, 8, 512)         0         
_________________________________________________________________
dropout_92 (Dropout)         (None, 8, 8, 512)         0         
_________________________________________________________________
max_pooling2d_21 (MaxPooling (None, 4, 4, 512)         0         
_________________________________________________________________
separable_conv2d_72 (Separab (None, 4, 4, 16)          12816     
_________________________________________________________________
activation_93 (Activation)   (None, 4, 4, 16)          0         
_________________________________________________________________
dropout_93 (Dropout)         (None, 4, 4, 16)          0         
_________________________________________________________________
separable_conv2d_73 (Separab (None, 4, 4, 64)          1232      
_________________________________________________________________
activation_94 (Activation)   (None, 4, 4, 64)          0         
_________________________________________________________________
dropout_94 (Dropout)         (None, 4, 4, 64)          0         
_________________________________________________________________
flatten_9 (Flatten)          (None, 1024)              0         
_________________________________________________________________
dense_30 (Dense)             (None, 16)                16400     
_________________________________________________________________
batch_normalization_49 (Batc (None, 16)                64        
_________________________________________________________________
activation_95 (Activation)   (None, 16)                0         
_________________________________________________________________
dropout_95 (Dropout)         (None, 16)                0         
_________________________________________________________________
dense_31 (Dense)             (None, 256)               4352      
_________________________________________________________________
activation_96 (Activation)   (None, 256)               0         
_________________________________________________________________
dropout_96 (Dropout)         (None, 256)               0         
_________________________________________________________________
dense_32 (Dense)             (None, 256)               65792     
_________________________________________________________________
activation_97 (Activation)   (None, 256)               0         
_________________________________________________________________
dropout_97 (Dropout)         (None, 256)               0         
_________________________________________________________________
dense_33 (Dense)             (None, 512)               131584    
_________________________________________________________________
batch_normalization_50 (Batc (None, 512)               2048      
_________________________________________________________________
activation_98 (Activation)   (None, 512)               0         
_________________________________________________________________
dropout_98 (Dropout)         (None, 512)               0         
_________________________________________________________________
dense_34 (Dense)             (None, 512)               262656    
_________________________________________________________________
batch_normalization_51 (Batc (None, 512)               2048      
_________________________________________________________________
activation_99 (Activation)   (None, 512)               0         
_________________________________________________________________
dropout_99 (Dropout)         (None, 512)               0         
_________________________________________________________________
dense_35 (Dense)             (None, 100)               51300     
=================================================================
Total params: 1,106,479
Trainable params: 1,103,247
Non-trainable params: 3,232
_________________________________________________________________
