Model: "sequential_211"
_________________________________________________________________
Layer (type)                 Output Shape              Param #   
=================================================================
separable_conv2d_1352 (Separ (None, 32, 32, 64)        283       
_________________________________________________________________
batch_normalization_1096 (Ba (None, 32, 32, 64)        256       
_________________________________________________________________
activation_1743 (Activation) (None, 32, 32, 64)        0         
_________________________________________________________________
dropout_1743 (Dropout)       (None, 32, 32, 64)        0         
_________________________________________________________________
separable_conv2d_1353 (Separ (None, 32, 32, 16)        1616      
_________________________________________________________________
batch_normalization_1097 (Ba (None, 32, 32, 16)        64        
_________________________________________________________________
activation_1744 (Activation) (None, 32, 32, 16)        0         
_________________________________________________________________
dropout_1744 (Dropout)       (None, 32, 32, 16)        0         
_________________________________________________________________
separable_conv2d_1354 (Separ (None, 32, 32, 128)       2320      
_________________________________________________________________
batch_normalization_1098 (Ba (None, 32, 32, 128)       512       
_________________________________________________________________
activation_1745 (Activation) (None, 32, 32, 128)       0         
_________________________________________________________________
dropout_1745 (Dropout)       (None, 32, 32, 128)       0         
_________________________________________________________________
separable_conv2d_1355 (Separ (None, 32, 32, 512)       67200     
_________________________________________________________________
activation_1746 (Activation) (None, 32, 32, 512)       0         
_________________________________________________________________
dropout_1746 (Dropout)       (None, 32, 32, 512)       0         
_________________________________________________________________
max_pooling2d_371 (MaxPoolin (None, 16, 16, 512)       0         
_________________________________________________________________
separable_conv2d_1356 (Separ (None, 16, 16, 64)        37440     
_________________________________________________________________
activation_1747 (Activation) (None, 16, 16, 64)        0         
_________________________________________________________________
dropout_1747 (Dropout)       (None, 16, 16, 64)        0         
_________________________________________________________________
max_pooling2d_372 (MaxPoolin (None, 8, 8, 64)          0         
_________________________________________________________________
separable_conv2d_1357 (Separ (None, 8, 8, 8)           1096      
_________________________________________________________________
activation_1748 (Activation) (None, 8, 8, 8)           0         
_________________________________________________________________
dropout_1748 (Dropout)       (None, 8, 8, 8)           0         
_________________________________________________________________
max_pooling2d_373 (MaxPoolin (None, 4, 4, 8)           0         
_________________________________________________________________
flatten_211 (Flatten)        (None, 128)               0         
_________________________________________________________________
dense_602 (Dense)            (None, 100)               12900     
=================================================================
Total params: 123,687
Trainable params: 123,271
Non-trainable params: 416
_________________________________________________________________
