Model: "sequential_230"
_________________________________________________________________
Layer (type)                 Output Shape              Param #   
=================================================================
separable_conv2d_1472 (Separ (None, 32, 32, 16)        91        
_________________________________________________________________
activation_1875 (Activation) (None, 32, 32, 16)        0         
_________________________________________________________________
dropout_1875 (Dropout)       (None, 32, 32, 16)        0         
_________________________________________________________________
separable_conv2d_1473 (Separ (None, 32, 32, 16)        416       
_________________________________________________________________
batch_normalization_1186 (Ba (None, 32, 32, 16)        64        
_________________________________________________________________
activation_1876 (Activation) (None, 32, 32, 16)        0         
_________________________________________________________________
dropout_1876 (Dropout)       (None, 32, 32, 16)        0         
_________________________________________________________________
separable_conv2d_1474 (Separ (None, 32, 32, 128)       2320      
_________________________________________________________________
activation_1877 (Activation) (None, 32, 32, 128)       0         
_________________________________________________________________
dropout_1877 (Dropout)       (None, 32, 32, 128)       0         
_________________________________________________________________
separable_conv2d_1475 (Separ (None, 32, 32, 512)       67200     
_________________________________________________________________
activation_1878 (Activation) (None, 32, 32, 512)       0         
_________________________________________________________________
dropout_1878 (Dropout)       (None, 32, 32, 512)       0         
_________________________________________________________________
max_pooling2d_406 (MaxPoolin (None, 16, 16, 512)       0         
_________________________________________________________________
separable_conv2d_1476 (Separ (None, 16, 16, 64)        37440     
_________________________________________________________________
activation_1879 (Activation) (None, 16, 16, 64)        0         
_________________________________________________________________
dropout_1879 (Dropout)       (None, 16, 16, 64)        0         
_________________________________________________________________
max_pooling2d_407 (MaxPoolin (None, 8, 8, 64)          0         
_________________________________________________________________
separable_conv2d_1477 (Separ (None, 8, 8, 128)         8896      
_________________________________________________________________
batch_normalization_1187 (Ba (None, 8, 8, 128)         512       
_________________________________________________________________
activation_1880 (Activation) (None, 8, 8, 128)         0         
_________________________________________________________________
dropout_1880 (Dropout)       (None, 8, 8, 128)         0         
_________________________________________________________________
flatten_230 (Flatten)        (None, 8192)              0         
_________________________________________________________________
dense_633 (Dense)            (None, 512)               4194816   
_________________________________________________________________
activation_1881 (Activation) (None, 512)               0         
_________________________________________________________________
dropout_1881 (Dropout)       (None, 512)               0         
_________________________________________________________________
dense_634 (Dense)            (None, 512)               262656    
_________________________________________________________________
batch_normalization_1188 (Ba (None, 512)               2048      
_________________________________________________________________
activation_1882 (Activation) (None, 512)               0         
_________________________________________________________________
dropout_1882 (Dropout)       (None, 512)               0         
_________________________________________________________________
dense_635 (Dense)            (None, 100)               51300     
=================================================================
Total params: 4,627,759
Trainable params: 4,626,447
Non-trainable params: 1,312
_________________________________________________________________
