Model: "sequential_100"
_________________________________________________________________
Layer (type)                 Output Shape              Param #   
=================================================================
separable_conv2d_669 (Separa (None, 32, 32, 64)        283       
_________________________________________________________________
activation_872 (Activation)  (None, 32, 32, 64)        0         
_________________________________________________________________
dropout_872 (Dropout)        (None, 32, 32, 64)        0         
_________________________________________________________________
separable_conv2d_670 (Separa (None, 32, 32, 1024)      67136     
_________________________________________________________________
batch_normalization_534 (Bat (None, 32, 32, 1024)      4096      
_________________________________________________________________
activation_873 (Activation)  (None, 32, 32, 1024)      0         
_________________________________________________________________
dropout_873 (Dropout)        (None, 32, 32, 1024)      0         
_________________________________________________________________
separable_conv2d_671 (Separa (None, 32, 32, 128)       140416    
_________________________________________________________________
batch_normalization_535 (Bat (None, 32, 32, 128)       512       
_________________________________________________________________
activation_874 (Activation)  (None, 32, 32, 128)       0         
_________________________________________________________________
dropout_874 (Dropout)        (None, 32, 32, 128)       0         
_________________________________________________________________
max_pooling2d_187 (MaxPoolin (None, 16, 16, 128)       0         
_________________________________________________________________
separable_conv2d_672 (Separa (None, 16, 16, 8)         2184      
_________________________________________________________________
activation_875 (Activation)  (None, 16, 16, 8)         0         
_________________________________________________________________
dropout_875 (Dropout)        (None, 16, 16, 8)         0         
_________________________________________________________________
separable_conv2d_673 (Separa (None, 16, 16, 16)        216       
_________________________________________________________________
batch_normalization_536 (Bat (None, 16, 16, 16)        64        
_________________________________________________________________
activation_876 (Activation)  (None, 16, 16, 16)        0         
_________________________________________________________________
dropout_876 (Dropout)        (None, 16, 16, 16)        0         
_________________________________________________________________
separable_conv2d_674 (Separa (None, 16, 16, 32)        688       
_________________________________________________________________
batch_normalization_537 (Bat (None, 16, 16, 32)        128       
_________________________________________________________________
activation_877 (Activation)  (None, 16, 16, 32)        0         
_________________________________________________________________
dropout_877 (Dropout)        (None, 16, 16, 32)        0         
_________________________________________________________________
flatten_100 (Flatten)        (None, 8192)              0         
_________________________________________________________________
dense_303 (Dense)            (None, 256)               2097408   
_________________________________________________________________
batch_normalization_538 (Bat (None, 256)               1024      
_________________________________________________________________
activation_878 (Activation)  (None, 256)               0         
_________________________________________________________________
dropout_878 (Dropout)        (None, 256)               0         
_________________________________________________________________
dense_304 (Dense)            (None, 256)               65792     
_________________________________________________________________
batch_normalization_539 (Bat (None, 256)               1024      
_________________________________________________________________
activation_879 (Activation)  (None, 256)               0         
_________________________________________________________________
dropout_879 (Dropout)        (None, 256)               0         
_________________________________________________________________
dense_305 (Dense)            (None, 64)                16448     
_________________________________________________________________
batch_normalization_540 (Bat (None, 64)                256       
_________________________________________________________________
activation_880 (Activation)  (None, 64)                0         
_________________________________________________________________
dropout_880 (Dropout)        (None, 64)                0         
_________________________________________________________________
dense_306 (Dense)            (None, 100)               6500      
=================================================================
Total params: 2,404,175
Trainable params: 2,400,623
Non-trainable params: 3,552
_________________________________________________________________
