Model: "sequential_151"
_________________________________________________________________
Layer (type)                 Output Shape              Param #   
=================================================================
separable_conv2d_982 (Separa (None, 32, 32, 64)        283       
_________________________________________________________________
batch_normalization_796 (Bat (None, 32, 32, 64)        256       
_________________________________________________________________
activation_1287 (Activation) (None, 32, 32, 64)        0         
_________________________________________________________________
dropout_1287 (Dropout)       (None, 32, 32, 64)        0         
_________________________________________________________________
separable_conv2d_983 (Separa (None, 32, 32, 1024)      67136     
_________________________________________________________________
batch_normalization_797 (Bat (None, 32, 32, 1024)      4096      
_________________________________________________________________
activation_1288 (Activation) (None, 32, 32, 1024)      0         
_________________________________________________________________
dropout_1288 (Dropout)       (None, 32, 32, 1024)      0         
_________________________________________________________________
separable_conv2d_984 (Separa (None, 32, 32, 128)       140416    
_________________________________________________________________
batch_normalization_798 (Bat (None, 32, 32, 128)       512       
_________________________________________________________________
activation_1289 (Activation) (None, 32, 32, 128)       0         
_________________________________________________________________
dropout_1289 (Dropout)       (None, 32, 32, 128)       0         
_________________________________________________________________
separable_conv2d_985 (Separa (None, 32, 32, 512)       67200     
_________________________________________________________________
activation_1290 (Activation) (None, 32, 32, 512)       0         
_________________________________________________________________
dropout_1290 (Dropout)       (None, 32, 32, 512)       0         
_________________________________________________________________
max_pooling2d_272 (MaxPoolin (None, 16, 16, 512)       0         
_________________________________________________________________
separable_conv2d_986 (Separa (None, 16, 16, 256)       135936    
_________________________________________________________________
batch_normalization_799 (Bat (None, 16, 16, 256)       1024      
_________________________________________________________________
activation_1291 (Activation) (None, 16, 16, 256)       0         
_________________________________________________________________
dropout_1291 (Dropout)       (None, 16, 16, 256)       0         
_________________________________________________________________
max_pooling2d_273 (MaxPoolin (None, 8, 8, 256)         0         
_________________________________________________________________
flatten_151 (Flatten)        (None, 16384)             0         
_________________________________________________________________
dense_456 (Dense)            (None, 32)                524320    
_________________________________________________________________
batch_normalization_800 (Bat (None, 32)                128       
_________________________________________________________________
activation_1292 (Activation) (None, 32)                0         
_________________________________________________________________
dropout_1292 (Dropout)       (None, 32)                0         
_________________________________________________________________
dense_457 (Dense)            (None, 512)               16896     
_________________________________________________________________
activation_1293 (Activation) (None, 512)               0         
_________________________________________________________________
dropout_1293 (Dropout)       (None, 512)               0         
_________________________________________________________________
dense_458 (Dense)            (None, 512)               262656    
_________________________________________________________________
batch_normalization_801 (Bat (None, 512)               2048      
_________________________________________________________________
activation_1294 (Activation) (None, 512)               0         
_________________________________________________________________
dropout_1294 (Dropout)       (None, 512)               0         
_________________________________________________________________
dense_459 (Dense)            (None, 100)               51300     
=================================================================
Total params: 1,274,207
Trainable params: 1,270,175
Non-trainable params: 4,032
_________________________________________________________________
