Model: "sequential_65"
_________________________________________________________________
Layer (type)                 Output Shape              Param #   
=================================================================
separable_conv2d_446 (Separa (None, 32, 32, 64)        283       
_________________________________________________________________
activation_579 (Activation)  (None, 32, 32, 64)        0         
_________________________________________________________________
dropout_579 (Dropout)        (None, 32, 32, 64)        0         
_________________________________________________________________
separable_conv2d_447 (Separa (None, 32, 32, 1024)      67136     
_________________________________________________________________
batch_normalization_345 (Bat (None, 32, 32, 1024)      4096      
_________________________________________________________________
activation_580 (Activation)  (None, 32, 32, 1024)      0         
_________________________________________________________________
dropout_580 (Dropout)        (None, 32, 32, 1024)      0         
_________________________________________________________________
separable_conv2d_448 (Separa (None, 32, 32, 128)       140416    
_________________________________________________________________
batch_normalization_346 (Bat (None, 32, 32, 128)       512       
_________________________________________________________________
activation_581 (Activation)  (None, 32, 32, 128)       0         
_________________________________________________________________
dropout_581 (Dropout)        (None, 32, 32, 128)       0         
_________________________________________________________________
max_pooling2d_126 (MaxPoolin (None, 16, 16, 128)       0         
_________________________________________________________________
separable_conv2d_449 (Separa (None, 16, 16, 8)         2184      
_________________________________________________________________
activation_582 (Activation)  (None, 16, 16, 8)         0         
_________________________________________________________________
dropout_582 (Dropout)        (None, 16, 16, 8)         0         
_________________________________________________________________
separable_conv2d_450 (Separa (None, 16, 16, 16)        216       
_________________________________________________________________
batch_normalization_347 (Bat (None, 16, 16, 16)        64        
_________________________________________________________________
activation_583 (Activation)  (None, 16, 16, 16)        0         
_________________________________________________________________
dropout_583 (Dropout)        (None, 16, 16, 16)        0         
_________________________________________________________________
separable_conv2d_451 (Separa (None, 16, 16, 32)        688       
_________________________________________________________________
batch_normalization_348 (Bat (None, 16, 16, 32)        128       
_________________________________________________________________
activation_584 (Activation)  (None, 16, 16, 32)        0         
_________________________________________________________________
dropout_584 (Dropout)        (None, 16, 16, 32)        0         
_________________________________________________________________
separable_conv2d_452 (Separa (None, 16, 16, 512)       17184     
_________________________________________________________________
activation_585 (Activation)  (None, 16, 16, 512)       0         
_________________________________________________________________
dropout_585 (Dropout)        (None, 16, 16, 512)       0         
_________________________________________________________________
separable_conv2d_453 (Separa (None, 16, 16, 32)        21024     
_________________________________________________________________
batch_normalization_349 (Bat (None, 16, 16, 32)        128       
_________________________________________________________________
activation_586 (Activation)  (None, 16, 16, 32)        0         
_________________________________________________________________
dropout_586 (Dropout)        (None, 16, 16, 32)        0         
_________________________________________________________________
max_pooling2d_127 (MaxPoolin (None, 8, 8, 32)          0         
_________________________________________________________________
separable_conv2d_454 (Separa (None, 8, 8, 128)         4512      
_________________________________________________________________
batch_normalization_350 (Bat (None, 8, 8, 128)         512       
_________________________________________________________________
activation_587 (Activation)  (None, 8, 8, 128)         0         
_________________________________________________________________
dropout_587 (Dropout)        (None, 8, 8, 128)         0         
_________________________________________________________________
flatten_65 (Flatten)         (None, 8192)              0         
_________________________________________________________________
dense_198 (Dense)            (None, 512)               4194816   
_________________________________________________________________
activation_588 (Activation)  (None, 512)               0         
_________________________________________________________________
dropout_588 (Dropout)        (None, 512)               0         
_________________________________________________________________
dense_199 (Dense)            (None, 512)               262656    
_________________________________________________________________
batch_normalization_351 (Bat (None, 512)               2048      
_________________________________________________________________
activation_589 (Activation)  (None, 512)               0         
_________________________________________________________________
dropout_589 (Dropout)        (None, 512)               0         
_________________________________________________________________
dense_200 (Dense)            (None, 100)               51300     
=================================================================
Total params: 4,769,903
Trainable params: 4,766,159
Non-trainable params: 3,744
_________________________________________________________________
