Model: "sequential_35"
_________________________________________________________________
Layer (type)                 Output Shape              Param #   
=================================================================
separable_conv2d_252 (Separa (None, 32, 32, 16)        91        
_________________________________________________________________
activation_331 (Activation)  (None, 32, 32, 16)        0         
_________________________________________________________________
dropout_331 (Dropout)        (None, 32, 32, 16)        0         
_________________________________________________________________
separable_conv2d_253 (Separa (None, 32, 32, 16)        416       
_________________________________________________________________
batch_normalization_191 (Bat (None, 32, 32, 16)        64        
_________________________________________________________________
activation_332 (Activation)  (None, 32, 32, 16)        0         
_________________________________________________________________
dropout_332 (Dropout)        (None, 32, 32, 16)        0         
_________________________________________________________________
separable_conv2d_254 (Separa (None, 32, 32, 128)       2320      
_________________________________________________________________
activation_333 (Activation)  (None, 32, 32, 128)       0         
_________________________________________________________________
dropout_333 (Dropout)        (None, 32, 32, 128)       0         
_________________________________________________________________
separable_conv2d_255 (Separa (None, 32, 32, 512)       67200     
_________________________________________________________________
activation_334 (Activation)  (None, 32, 32, 512)       0         
_________________________________________________________________
dropout_334 (Dropout)        (None, 32, 32, 512)       0         
_________________________________________________________________
max_pooling2d_72 (MaxPooling (None, 16, 16, 512)       0         
_________________________________________________________________
separable_conv2d_256 (Separa (None, 16, 16, 256)       135936    
_________________________________________________________________
batch_normalization_192 (Bat (None, 16, 16, 256)       1024      
_________________________________________________________________
activation_335 (Activation)  (None, 16, 16, 256)       0         
_________________________________________________________________
dropout_335 (Dropout)        (None, 16, 16, 256)       0         
_________________________________________________________________
max_pooling2d_73 (MaxPooling (None, 8, 8, 256)         0         
_________________________________________________________________
flatten_35 (Flatten)         (None, 16384)             0         
_________________________________________________________________
dense_114 (Dense)            (None, 32)                524320    
_________________________________________________________________
batch_normalization_193 (Bat (None, 32)                128       
_________________________________________________________________
activation_336 (Activation)  (None, 32)                0         
_________________________________________________________________
dropout_336 (Dropout)        (None, 32)                0         
_________________________________________________________________
dense_115 (Dense)            (None, 512)               16896     
_________________________________________________________________
activation_337 (Activation)  (None, 512)               0         
_________________________________________________________________
dropout_337 (Dropout)        (None, 512)               0         
_________________________________________________________________
dense_116 (Dense)            (None, 512)               262656    
_________________________________________________________________
batch_normalization_194 (Bat (None, 512)               2048      
_________________________________________________________________
activation_338 (Activation)  (None, 512)               0         
_________________________________________________________________
dropout_338 (Dropout)        (None, 512)               0         
_________________________________________________________________
dense_117 (Dense)            (None, 100)               51300     
=================================================================
Total params: 1,064,399
Trainable params: 1,062,767
Non-trainable params: 1,632
_________________________________________________________________
