Model: "sequential_398"
_________________________________________________________________
Layer (type)                 Output Shape              Param #   
=================================================================
separable_conv2d_2311 (Separ (None, 32, 32, 64)        283       
_________________________________________________________________
batch_normalization_1882 (Ba (None, 32, 32, 64)        256       
_________________________________________________________________
activation_2769 (Activation) (None, 32, 32, 64)        0         
_________________________________________________________________
dropout_2769 (Dropout)       (None, 32, 32, 64)        0         
_________________________________________________________________
separable_conv2d_2312 (Separ (None, 32, 32, 128)       8896      
_________________________________________________________________
batch_normalization_1883 (Ba (None, 32, 32, 128)       512       
_________________________________________________________________
activation_2770 (Activation) (None, 32, 32, 128)       0         
_________________________________________________________________
dropout_2770 (Dropout)       (None, 32, 32, 128)       0         
_________________________________________________________________
separable_conv2d_2313 (Separ (None, 32, 32, 256)       34176     
_________________________________________________________________
batch_normalization_1884 (Ba (None, 32, 32, 256)       1024      
_________________________________________________________________
activation_2771 (Activation) (None, 32, 32, 256)       0         
_________________________________________________________________
dropout_2771 (Dropout)       (None, 32, 32, 256)       0         
_________________________________________________________________
max_pooling2d_689 (MaxPoolin (None, 16, 16, 256)       0         
_________________________________________________________________
separable_conv2d_2314 (Separ (None, 16, 16, 128)       35200     
_________________________________________________________________
batch_normalization_1885 (Ba (None, 16, 16, 128)       512       
_________________________________________________________________
activation_2772 (Activation) (None, 16, 16, 128)       0         
_________________________________________________________________
dropout_2772 (Dropout)       (None, 16, 16, 128)       0         
_________________________________________________________________
max_pooling2d_690 (MaxPoolin (None, 8, 8, 128)         0         
_________________________________________________________________
flatten_398 (Flatten)        (None, 8192)              0         
_________________________________________________________________
dense_856 (Dense)            (None, 100)               819300    
=================================================================
Total params: 900,159
Trainable params: 899,007
Non-trainable params: 1,152
_________________________________________________________________
