Model: "sequential_187"
_________________________________________________________________
Layer (type)                 Output Shape              Param #   
=================================================================
separable_conv2d_1202 (Separ (None, 32, 32, 64)        283       
_________________________________________________________________
batch_normalization_969 (Bat (None, 32, 32, 64)        256       
_________________________________________________________________
activation_1558 (Activation) (None, 32, 32, 64)        0         
_________________________________________________________________
dropout_1558 (Dropout)       (None, 32, 32, 64)        0         
_________________________________________________________________
separable_conv2d_1203 (Separ (None, 32, 32, 16)        1616      
_________________________________________________________________
batch_normalization_970 (Bat (None, 32, 32, 16)        64        
_________________________________________________________________
activation_1559 (Activation) (None, 32, 32, 16)        0         
_________________________________________________________________
dropout_1559 (Dropout)       (None, 32, 32, 16)        0         
_________________________________________________________________
separable_conv2d_1204 (Separ (None, 32, 32, 128)       2320      
_________________________________________________________________
batch_normalization_971 (Bat (None, 32, 32, 128)       512       
_________________________________________________________________
activation_1560 (Activation) (None, 32, 32, 128)       0         
_________________________________________________________________
dropout_1560 (Dropout)       (None, 32, 32, 128)       0         
_________________________________________________________________
separable_conv2d_1205 (Separ (None, 32, 32, 512)       67200     
_________________________________________________________________
activation_1561 (Activation) (None, 32, 32, 512)       0         
_________________________________________________________________
dropout_1561 (Dropout)       (None, 32, 32, 512)       0         
_________________________________________________________________
max_pooling2d_333 (MaxPoolin (None, 16, 16, 512)       0         
_________________________________________________________________
separable_conv2d_1206 (Separ (None, 16, 16, 256)       135936    
_________________________________________________________________
batch_normalization_972 (Bat (None, 16, 16, 256)       1024      
_________________________________________________________________
activation_1562 (Activation) (None, 16, 16, 256)       0         
_________________________________________________________________
dropout_1562 (Dropout)       (None, 16, 16, 256)       0         
_________________________________________________________________
max_pooling2d_334 (MaxPoolin (None, 8, 8, 256)         0         
_________________________________________________________________
separable_conv2d_1207 (Separ (None, 8, 8, 128)         35200     
_________________________________________________________________
batch_normalization_973 (Bat (None, 8, 8, 128)         512       
_________________________________________________________________
activation_1563 (Activation) (None, 8, 8, 128)         0         
_________________________________________________________________
dropout_1563 (Dropout)       (None, 8, 8, 128)         0         
_________________________________________________________________
max_pooling2d_335 (MaxPoolin (None, 4, 4, 128)         0         
_________________________________________________________________
flatten_187 (Flatten)        (None, 2048)              0         
_________________________________________________________________
dense_543 (Dense)            (None, 256)               524544    
_________________________________________________________________
batch_normalization_974 (Bat (None, 256)               1024      
_________________________________________________________________
activation_1564 (Activation) (None, 256)               0         
_________________________________________________________________
dropout_1564 (Dropout)       (None, 256)               0         
_________________________________________________________________
dense_544 (Dense)            (None, 256)               65792     
_________________________________________________________________
batch_normalization_975 (Bat (None, 256)               1024      
_________________________________________________________________
activation_1565 (Activation) (None, 256)               0         
_________________________________________________________________
dropout_1565 (Dropout)       (None, 256)               0         
_________________________________________________________________
dense_545 (Dense)            (None, 64)                16448     
_________________________________________________________________
batch_normalization_976 (Bat (None, 64)                256       
_________________________________________________________________
activation_1566 (Activation) (None, 64)                0         
_________________________________________________________________
dropout_1566 (Dropout)       (None, 64)                0         
_________________________________________________________________
dense_546 (Dense)            (None, 100)               6500      
=================================================================
Total params: 860,511
Trainable params: 858,175
Non-trainable params: 2,336
_________________________________________________________________
