Model: "sequential_210"
_________________________________________________________________
Layer (type)                 Output Shape              Param #   
=================================================================
separable_conv2d_1344 (Separ (None, 32, 32, 16)        91        
_________________________________________________________________
activation_1735 (Activation) (None, 32, 32, 16)        0         
_________________________________________________________________
dropout_1735 (Dropout)       (None, 32, 32, 16)        0         
_________________________________________________________________
separable_conv2d_1345 (Separ (None, 32, 32, 16)        416       
_________________________________________________________________
batch_normalization_1091 (Ba (None, 32, 32, 16)        64        
_________________________________________________________________
activation_1736 (Activation) (None, 32, 32, 16)        0         
_________________________________________________________________
dropout_1736 (Dropout)       (None, 32, 32, 16)        0         
_________________________________________________________________
separable_conv2d_1346 (Separ (None, 32, 32, 128)       2320      
_________________________________________________________________
batch_normalization_1092 (Ba (None, 32, 32, 128)       512       
_________________________________________________________________
activation_1737 (Activation) (None, 32, 32, 128)       0         
_________________________________________________________________
dropout_1737 (Dropout)       (None, 32, 32, 128)       0         
_________________________________________________________________
separable_conv2d_1347 (Separ (None, 32, 32, 512)       67200     
_________________________________________________________________
activation_1738 (Activation) (None, 32, 32, 512)       0         
_________________________________________________________________
dropout_1738 (Dropout)       (None, 32, 32, 512)       0         
_________________________________________________________________
separable_conv2d_1348 (Separ (None, 32, 32, 16)        12816     
_________________________________________________________________
batch_normalization_1093 (Ba (None, 32, 32, 16)        64        
_________________________________________________________________
activation_1739 (Activation) (None, 32, 32, 16)        0         
_________________________________________________________________
dropout_1739 (Dropout)       (None, 32, 32, 16)        0         
_________________________________________________________________
separable_conv2d_1349 (Separ (None, 32, 32, 32)        688       
_________________________________________________________________
batch_normalization_1094 (Ba (None, 32, 32, 32)        128       
_________________________________________________________________
activation_1740 (Activation) (None, 32, 32, 32)        0         
_________________________________________________________________
dropout_1740 (Dropout)       (None, 32, 32, 32)        0         
_________________________________________________________________
separable_conv2d_1350 (Separ (None, 32, 32, 512)       17184     
_________________________________________________________________
activation_1741 (Activation) (None, 32, 32, 512)       0         
_________________________________________________________________
dropout_1741 (Dropout)       (None, 32, 32, 512)       0         
_________________________________________________________________
separable_conv2d_1351 (Separ (None, 32, 32, 32)        21024     
_________________________________________________________________
batch_normalization_1095 (Ba (None, 32, 32, 32)        128       
_________________________________________________________________
activation_1742 (Activation) (None, 32, 32, 32)        0         
_________________________________________________________________
dropout_1742 (Dropout)       (None, 32, 32, 32)        0         
_________________________________________________________________
max_pooling2d_370 (MaxPoolin (None, 16, 16, 32)        0         
_________________________________________________________________
flatten_210 (Flatten)        (None, 8192)              0         
_________________________________________________________________
dense_601 (Dense)            (None, 100)               819300    
=================================================================
Total params: 941,935
Trainable params: 941,487
Non-trainable params: 448
_________________________________________________________________
