Model: "sequential_354"
_________________________________________________________________
Layer (type)                 Output Shape              Param #   
=================================================================
separable_conv2d_2100 (Separ (None, 32, 32, 16)        91        
_________________________________________________________________
activation_2554 (Activation) (None, 32, 32, 16)        0         
_________________________________________________________________
dropout_2554 (Dropout)       (None, 32, 32, 16)        0         
_________________________________________________________________
separable_conv2d_2101 (Separ (None, 32, 32, 1024)      17552     
_________________________________________________________________
batch_normalization_1701 (Ba (None, 32, 32, 1024)      4096      
_________________________________________________________________
activation_2555 (Activation) (None, 32, 32, 1024)      0         
_________________________________________________________________
dropout_2555 (Dropout)       (None, 32, 32, 1024)      0         
_________________________________________________________________
separable_conv2d_2102 (Separ (None, 32, 32, 128)       140416    
_________________________________________________________________
batch_normalization_1702 (Ba (None, 32, 32, 128)       512       
_________________________________________________________________
activation_2556 (Activation) (None, 32, 32, 128)       0         
_________________________________________________________________
dropout_2556 (Dropout)       (None, 32, 32, 128)       0         
_________________________________________________________________
separable_conv2d_2103 (Separ (None, 32, 32, 256)       34176     
_________________________________________________________________
batch_normalization_1703 (Ba (None, 32, 32, 256)       1024      
_________________________________________________________________
activation_2557 (Activation) (None, 32, 32, 256)       0         
_________________________________________________________________
dropout_2557 (Dropout)       (None, 32, 32, 256)       0         
_________________________________________________________________
max_pooling2d_605 (MaxPoolin (None, 16, 16, 256)       0         
_________________________________________________________________
separable_conv2d_2104 (Separ (None, 16, 16, 128)       35200     
_________________________________________________________________
batch_normalization_1704 (Ba (None, 16, 16, 128)       512       
_________________________________________________________________
activation_2558 (Activation) (None, 16, 16, 128)       0         
_________________________________________________________________
dropout_2558 (Dropout)       (None, 16, 16, 128)       0         
_________________________________________________________________
max_pooling2d_606 (MaxPoolin (None, 8, 8, 128)         0         
_________________________________________________________________
flatten_354 (Flatten)        (None, 8192)              0         
_________________________________________________________________
dense_808 (Dense)            (None, 100)               819300    
=================================================================
Total params: 1,052,879
Trainable params: 1,049,807
Non-trainable params: 3,072
_________________________________________________________________
