Model: "sequential_236"
_________________________________________________________________
Layer (type)                 Output Shape              Param #   
=================================================================
separable_conv2d_1506 (Separ (None, 32, 32, 64)        283       
_________________________________________________________________
batch_normalization_1211 (Ba (None, 32, 32, 64)        256       
_________________________________________________________________
activation_1916 (Activation) (None, 32, 32, 64)        0         
_________________________________________________________________
dropout_1916 (Dropout)       (None, 32, 32, 64)        0         
_________________________________________________________________
separable_conv2d_1507 (Separ (None, 32, 32, 16)        1616      
_________________________________________________________________
batch_normalization_1212 (Ba (None, 32, 32, 16)        64        
_________________________________________________________________
activation_1917 (Activation) (None, 32, 32, 16)        0         
_________________________________________________________________
dropout_1917 (Dropout)       (None, 32, 32, 16)        0         
_________________________________________________________________
separable_conv2d_1508 (Separ (None, 32, 32, 128)       2320      
_________________________________________________________________
batch_normalization_1213 (Ba (None, 32, 32, 128)       512       
_________________________________________________________________
activation_1918 (Activation) (None, 32, 32, 128)       0         
_________________________________________________________________
dropout_1918 (Dropout)       (None, 32, 32, 128)       0         
_________________________________________________________________
separable_conv2d_1509 (Separ (None, 32, 32, 512)       67200     
_________________________________________________________________
activation_1919 (Activation) (None, 32, 32, 512)       0         
_________________________________________________________________
dropout_1919 (Dropout)       (None, 32, 32, 512)       0         
_________________________________________________________________
max_pooling2d_416 (MaxPoolin (None, 16, 16, 512)       0         
_________________________________________________________________
separable_conv2d_1510 (Separ (None, 16, 16, 256)       135936    
_________________________________________________________________
batch_normalization_1214 (Ba (None, 16, 16, 256)       1024      
_________________________________________________________________
activation_1920 (Activation) (None, 16, 16, 256)       0         
_________________________________________________________________
dropout_1920 (Dropout)       (None, 16, 16, 256)       0         
_________________________________________________________________
max_pooling2d_417 (MaxPoolin (None, 8, 8, 256)         0         
_________________________________________________________________
separable_conv2d_1511 (Separ (None, 8, 8, 32)          10528     
_________________________________________________________________
batch_normalization_1215 (Ba (None, 8, 8, 32)          128       
_________________________________________________________________
activation_1921 (Activation) (None, 8, 8, 32)          0         
_________________________________________________________________
dropout_1921 (Dropout)       (None, 8, 8, 32)          0         
_________________________________________________________________
separable_conv2d_1512 (Separ (None, 8, 8, 512)         17184     
_________________________________________________________________
activation_1922 (Activation) (None, 8, 8, 512)         0         
_________________________________________________________________
dropout_1922 (Dropout)       (None, 8, 8, 512)         0         
_________________________________________________________________
separable_conv2d_1513 (Separ (None, 8, 8, 32)          21024     
_________________________________________________________________
batch_normalization_1216 (Ba (None, 8, 8, 32)          128       
_________________________________________________________________
activation_1923 (Activation) (None, 8, 8, 32)          0         
_________________________________________________________________
dropout_1923 (Dropout)       (None, 8, 8, 32)          0         
_________________________________________________________________
max_pooling2d_418 (MaxPoolin (None, 4, 4, 32)          0         
_________________________________________________________________
flatten_236 (Flatten)        (None, 512)               0         
_________________________________________________________________
dense_646 (Dense)            (None, 100)               51300     
=================================================================
Total params: 309,503
Trainable params: 308,447
Non-trainable params: 1,056
_________________________________________________________________
