Model: "sequential_333"
_________________________________________________________________
Layer (type)                 Output Shape              Param #   
=================================================================
separable_conv2d_2004 (Separ (None, 32, 32, 16)        91        
_________________________________________________________________
activation_2452 (Activation) (None, 32, 32, 16)        0         
_________________________________________________________________
dropout_2452 (Dropout)       (None, 32, 32, 16)        0         
_________________________________________________________________
separable_conv2d_2005 (Separ (None, 32, 32, 1024)      17552     
_________________________________________________________________
batch_normalization_1616 (Ba (None, 32, 32, 1024)      4096      
_________________________________________________________________
activation_2453 (Activation) (None, 32, 32, 1024)      0         
_________________________________________________________________
dropout_2453 (Dropout)       (None, 32, 32, 1024)      0         
_________________________________________________________________
separable_conv2d_2006 (Separ (None, 32, 32, 128)       140416    
_________________________________________________________________
batch_normalization_1617 (Ba (None, 32, 32, 128)       512       
_________________________________________________________________
activation_2454 (Activation) (None, 32, 32, 128)       0         
_________________________________________________________________
dropout_2454 (Dropout)       (None, 32, 32, 128)       0         
_________________________________________________________________
separable_conv2d_2007 (Separ (None, 32, 32, 256)       34176     
_________________________________________________________________
batch_normalization_1618 (Ba (None, 32, 32, 256)       1024      
_________________________________________________________________
activation_2455 (Activation) (None, 32, 32, 256)       0         
_________________________________________________________________
dropout_2455 (Dropout)       (None, 32, 32, 256)       0         
_________________________________________________________________
max_pooling2d_568 (MaxPoolin (None, 16, 16, 256)       0         
_________________________________________________________________
separable_conv2d_2008 (Separ (None, 16, 16, 128)       35200     
_________________________________________________________________
batch_normalization_1619 (Ba (None, 16, 16, 128)       512       
_________________________________________________________________
activation_2456 (Activation) (None, 16, 16, 128)       0         
_________________________________________________________________
dropout_2456 (Dropout)       (None, 16, 16, 128)       0         
_________________________________________________________________
max_pooling2d_569 (MaxPoolin (None, 8, 8, 128)         0         
_________________________________________________________________
flatten_333 (Flatten)        (None, 8192)              0         
_________________________________________________________________
dense_781 (Dense)            (None, 100)               819300    
=================================================================
Total params: 1,052,879
Trainable params: 1,049,807
Non-trainable params: 3,072
_________________________________________________________________
