Model: "sequential_192"
_________________________________________________________________
Layer (type)                 Output Shape              Param #   
=================================================================
separable_conv2d_1236 (Separ (None, 32, 32, 64)        283       
_________________________________________________________________
activation_1599 (Activation) (None, 32, 32, 64)        0         
_________________________________________________________________
dropout_1599 (Dropout)       (None, 32, 32, 64)        0         
_________________________________________________________________
separable_conv2d_1237 (Separ (None, 32, 32, 1024)      67136     
_________________________________________________________________
batch_normalization_996 (Bat (None, 32, 32, 1024)      4096      
_________________________________________________________________
activation_1600 (Activation) (None, 32, 32, 1024)      0         
_________________________________________________________________
dropout_1600 (Dropout)       (None, 32, 32, 1024)      0         
_________________________________________________________________
separable_conv2d_1238 (Separ (None, 32, 32, 128)       140416    
_________________________________________________________________
batch_normalization_997 (Bat (None, 32, 32, 128)       512       
_________________________________________________________________
activation_1601 (Activation) (None, 32, 32, 128)       0         
_________________________________________________________________
dropout_1601 (Dropout)       (None, 32, 32, 128)       0         
_________________________________________________________________
separable_conv2d_1239 (Separ (None, 32, 32, 16)        3216      
_________________________________________________________________
activation_1602 (Activation) (None, 32, 32, 16)        0         
_________________________________________________________________
dropout_1602 (Dropout)       (None, 32, 32, 16)        0         
_________________________________________________________________
separable_conv2d_1240 (Separ (None, 32, 32, 32)        688       
_________________________________________________________________
batch_normalization_998 (Bat (None, 32, 32, 32)        128       
_________________________________________________________________
activation_1603 (Activation) (None, 32, 32, 32)        0         
_________________________________________________________________
dropout_1603 (Dropout)       (None, 32, 32, 32)        0         
_________________________________________________________________
separable_conv2d_1241 (Separ (None, 32, 32, 512)       17184     
_________________________________________________________________
activation_1604 (Activation) (None, 32, 32, 512)       0         
_________________________________________________________________
dropout_1604 (Dropout)       (None, 32, 32, 512)       0         
_________________________________________________________________
separable_conv2d_1242 (Separ (None, 32, 32, 32)        21024     
_________________________________________________________________
batch_normalization_999 (Bat (None, 32, 32, 32)        128       
_________________________________________________________________
activation_1605 (Activation) (None, 32, 32, 32)        0         
_________________________________________________________________
dropout_1605 (Dropout)       (None, 32, 32, 32)        0         
_________________________________________________________________
max_pooling2d_342 (MaxPoolin (None, 16, 16, 32)        0         
_________________________________________________________________
flatten_192 (Flatten)        (None, 8192)              0         
_________________________________________________________________
dense_555 (Dense)            (None, 512)               4194816   
_________________________________________________________________
activation_1606 (Activation) (None, 512)               0         
_________________________________________________________________
dropout_1606 (Dropout)       (None, 512)               0         
_________________________________________________________________
dense_556 (Dense)            (None, 128)               65664     
_________________________________________________________________
batch_normalization_1000 (Ba (None, 128)               512       
_________________________________________________________________
activation_1607 (Activation) (None, 128)               0         
_________________________________________________________________
dropout_1607 (Dropout)       (None, 128)               0         
_________________________________________________________________
dense_557 (Dense)            (None, 100)               12900     
=================================================================
Total params: 4,528,703
Trainable params: 4,526,015
Non-trainable params: 2,688
_________________________________________________________________
