Model: "sequential_80"
_________________________________________________________________
Layer (type)                 Output Shape              Param #   
=================================================================
separable_conv2d_540 (Separa (None, 32, 32, 16)        91        
_________________________________________________________________
activation_703 (Activation)  (None, 32, 32, 16)        0         
_________________________________________________________________
dropout_703 (Dropout)        (None, 32, 32, 16)        0         
_________________________________________________________________
separable_conv2d_541 (Separa (None, 32, 32, 16)        416       
_________________________________________________________________
batch_normalization_425 (Bat (None, 32, 32, 16)        64        
_________________________________________________________________
activation_704 (Activation)  (None, 32, 32, 16)        0         
_________________________________________________________________
dropout_704 (Dropout)        (None, 32, 32, 16)        0         
_________________________________________________________________
separable_conv2d_542 (Separa (None, 32, 32, 8)         280       
_________________________________________________________________
activation_705 (Activation)  (None, 32, 32, 8)         0         
_________________________________________________________________
dropout_705 (Dropout)        (None, 32, 32, 8)         0         
_________________________________________________________________
separable_conv2d_543 (Separa (None, 32, 32, 16)        216       
_________________________________________________________________
batch_normalization_426 (Bat (None, 32, 32, 16)        64        
_________________________________________________________________
activation_706 (Activation)  (None, 32, 32, 16)        0         
_________________________________________________________________
dropout_706 (Dropout)        (None, 32, 32, 16)        0         
_________________________________________________________________
separable_conv2d_544 (Separa (None, 32, 32, 32)        688       
_________________________________________________________________
batch_normalization_427 (Bat (None, 32, 32, 32)        128       
_________________________________________________________________
activation_707 (Activation)  (None, 32, 32, 32)        0         
_________________________________________________________________
dropout_707 (Dropout)        (None, 32, 32, 32)        0         
_________________________________________________________________
separable_conv2d_545 (Separa (None, 32, 32, 512)       17184     
_________________________________________________________________
activation_708 (Activation)  (None, 32, 32, 512)       0         
_________________________________________________________________
dropout_708 (Dropout)        (None, 32, 32, 512)       0         
_________________________________________________________________
separable_conv2d_546 (Separa (None, 32, 32, 32)        21024     
_________________________________________________________________
batch_normalization_428 (Bat (None, 32, 32, 32)        128       
_________________________________________________________________
activation_709 (Activation)  (None, 32, 32, 32)        0         
_________________________________________________________________
dropout_709 (Dropout)        (None, 32, 32, 32)        0         
_________________________________________________________________
max_pooling2d_152 (MaxPoolin (None, 16, 16, 32)        0         
_________________________________________________________________
separable_conv2d_547 (Separa (None, 16, 16, 128)       4512      
_________________________________________________________________
batch_normalization_429 (Bat (None, 16, 16, 128)       512       
_________________________________________________________________
activation_710 (Activation)  (None, 16, 16, 128)       0         
_________________________________________________________________
dropout_710 (Dropout)        (None, 16, 16, 128)       0         
_________________________________________________________________
max_pooling2d_153 (MaxPoolin (None, 8, 8, 128)         0         
_________________________________________________________________
flatten_80 (Flatten)         (None, 8192)              0         
_________________________________________________________________
dense_243 (Dense)            (None, 100)               819300    
=================================================================
Total params: 864,607
Trainable params: 864,159
Non-trainable params: 448
_________________________________________________________________
