Model: "sequential_260"
_________________________________________________________________
Layer (type)                 Output Shape              Param #   
=================================================================
separable_conv2d_1642 (Separ (None, 32, 32, 16)        91        
_________________________________________________________________
activation_2062 (Activation) (None, 32, 32, 16)        0         
_________________________________________________________________
dropout_2062 (Dropout)       (None, 32, 32, 16)        0         
_________________________________________________________________
separable_conv2d_1643 (Separ (None, 32, 32, 16)        416       
_________________________________________________________________
batch_normalization_1318 (Ba (None, 32, 32, 16)        64        
_________________________________________________________________
activation_2063 (Activation) (None, 32, 32, 16)        0         
_________________________________________________________________
dropout_2063 (Dropout)       (None, 32, 32, 16)        0         
_________________________________________________________________
separable_conv2d_1644 (Separ (None, 32, 32, 128)       2320      
_________________________________________________________________
batch_normalization_1319 (Ba (None, 32, 32, 128)       512       
_________________________________________________________________
activation_2064 (Activation) (None, 32, 32, 128)       0         
_________________________________________________________________
dropout_2064 (Dropout)       (None, 32, 32, 128)       0         
_________________________________________________________________
separable_conv2d_1645 (Separ (None, 32, 32, 512)       67200     
_________________________________________________________________
activation_2065 (Activation) (None, 32, 32, 512)       0         
_________________________________________________________________
dropout_2065 (Dropout)       (None, 32, 32, 512)       0         
_________________________________________________________________
separable_conv2d_1646 (Separ (None, 32, 32, 256)       135936    
_________________________________________________________________
batch_normalization_1320 (Ba (None, 32, 32, 256)       1024      
_________________________________________________________________
activation_2066 (Activation) (None, 32, 32, 256)       0         
_________________________________________________________________
dropout_2066 (Dropout)       (None, 32, 32, 256)       0         
_________________________________________________________________
max_pooling2d_456 (MaxPoolin (None, 16, 16, 256)       0         
_________________________________________________________________
flatten_260 (Flatten)        (None, 65536)             0         
_________________________________________________________________
dense_680 (Dense)            (None, 100)               6553700   
=================================================================
Total params: 6,761,263
Trainable params: 6,760,463
Non-trainable params: 800
_________________________________________________________________
