Model: "sequential_270"
_________________________________________________________________
Layer (type)                 Output Shape              Param #   
=================================================================
separable_conv2d_1689 (Separ (None, 32, 32, 16)        91        
_________________________________________________________________
activation_2113 (Activation) (None, 32, 32, 16)        0         
_________________________________________________________________
dropout_2113 (Dropout)       (None, 32, 32, 16)        0         
_________________________________________________________________
separable_conv2d_1690 (Separ (None, 32, 32, 16)        416       
_________________________________________________________________
batch_normalization_1354 (Ba (None, 32, 32, 16)        64        
_________________________________________________________________
activation_2114 (Activation) (None, 32, 32, 16)        0         
_________________________________________________________________
dropout_2114 (Dropout)       (None, 32, 32, 16)        0         
_________________________________________________________________
separable_conv2d_1691 (Separ (None, 32, 32, 128)       2320      
_________________________________________________________________
batch_normalization_1355 (Ba (None, 32, 32, 128)       512       
_________________________________________________________________
activation_2115 (Activation) (None, 32, 32, 128)       0         
_________________________________________________________________
dropout_2115 (Dropout)       (None, 32, 32, 128)       0         
_________________________________________________________________
separable_conv2d_1692 (Separ (None, 32, 32, 512)       67200     
_________________________________________________________________
activation_2116 (Activation) (None, 32, 32, 512)       0         
_________________________________________________________________
dropout_2116 (Dropout)       (None, 32, 32, 512)       0         
_________________________________________________________________
max_pooling2d_469 (MaxPoolin (None, 16, 16, 512)       0         
_________________________________________________________________
separable_conv2d_1693 (Separ (None, 16, 16, 256)       135936    
_________________________________________________________________
batch_normalization_1356 (Ba (None, 16, 16, 256)       1024      
_________________________________________________________________
activation_2117 (Activation) (None, 16, 16, 256)       0         
_________________________________________________________________
dropout_2117 (Dropout)       (None, 16, 16, 256)       0         
_________________________________________________________________
max_pooling2d_470 (MaxPoolin (None, 8, 8, 256)         0         
_________________________________________________________________
separable_conv2d_1694 (Separ (None, 8, 8, 64)          18752     
_________________________________________________________________
batch_normalization_1357 (Ba (None, 8, 8, 64)          256       
_________________________________________________________________
activation_2118 (Activation) (None, 8, 8, 64)          0         
_________________________________________________________________
dropout_2118 (Dropout)       (None, 8, 8, 64)          0         
_________________________________________________________________
separable_conv2d_1695 (Separ (None, 8, 8, 128)         8896      
_________________________________________________________________
batch_normalization_1358 (Ba (None, 8, 8, 128)         512       
_________________________________________________________________
activation_2119 (Activation) (None, 8, 8, 128)         0         
_________________________________________________________________
dropout_2119 (Dropout)       (None, 8, 8, 128)         0         
_________________________________________________________________
flatten_270 (Flatten)        (None, 8192)              0         
_________________________________________________________________
dense_694 (Dense)            (None, 100)               819300    
=================================================================
Total params: 1,055,279
Trainable params: 1,054,095
Non-trainable params: 1,184
_________________________________________________________________
