Model: "sequential_83"
_________________________________________________________________
Layer (type)                 Output Shape              Param #   
=================================================================
separable_conv2d_559 (Separa (None, 32, 32, 16)        91        
_________________________________________________________________
activation_728 (Activation)  (None, 32, 32, 16)        0         
_________________________________________________________________
dropout_728 (Dropout)        (None, 32, 32, 16)        0         
_________________________________________________________________
separable_conv2d_560 (Separa (None, 32, 32, 16)        416       
_________________________________________________________________
batch_normalization_442 (Bat (None, 32, 32, 16)        64        
_________________________________________________________________
activation_729 (Activation)  (None, 32, 32, 16)        0         
_________________________________________________________________
dropout_729 (Dropout)        (None, 32, 32, 16)        0         
_________________________________________________________________
separable_conv2d_561 (Separa (None, 32, 32, 8)         280       
_________________________________________________________________
activation_730 (Activation)  (None, 32, 32, 8)         0         
_________________________________________________________________
dropout_730 (Dropout)        (None, 32, 32, 8)         0         
_________________________________________________________________
separable_conv2d_562 (Separa (None, 32, 32, 16)        216       
_________________________________________________________________
batch_normalization_443 (Bat (None, 32, 32, 16)        64        
_________________________________________________________________
activation_731 (Activation)  (None, 32, 32, 16)        0         
_________________________________________________________________
dropout_731 (Dropout)        (None, 32, 32, 16)        0         
_________________________________________________________________
separable_conv2d_563 (Separa (None, 32, 32, 32)        688       
_________________________________________________________________
batch_normalization_444 (Bat (None, 32, 32, 32)        128       
_________________________________________________________________
activation_732 (Activation)  (None, 32, 32, 32)        0         
_________________________________________________________________
dropout_732 (Dropout)        (None, 32, 32, 32)        0         
_________________________________________________________________
separable_conv2d_564 (Separa (None, 32, 32, 512)       17184     
_________________________________________________________________
activation_733 (Activation)  (None, 32, 32, 512)       0         
_________________________________________________________________
dropout_733 (Dropout)        (None, 32, 32, 512)       0         
_________________________________________________________________
separable_conv2d_565 (Separa (None, 32, 32, 32)        21024     
_________________________________________________________________
batch_normalization_445 (Bat (None, 32, 32, 32)        128       
_________________________________________________________________
activation_734 (Activation)  (None, 32, 32, 32)        0         
_________________________________________________________________
dropout_734 (Dropout)        (None, 32, 32, 32)        0         
_________________________________________________________________
max_pooling2d_158 (MaxPoolin (None, 16, 16, 32)        0         
_________________________________________________________________
flatten_83 (Flatten)         (None, 8192)              0         
_________________________________________________________________
dense_252 (Dense)            (None, 100)               819300    
=================================================================
Total params: 859,583
Trainable params: 859,391
Non-trainable params: 192
_________________________________________________________________
