Model: "sequential_105"
_________________________________________________________________
Layer (type)                 Output Shape              Param #   
=================================================================
separable_conv2d_700 (Separa (None, 32, 32, 16)        91        
_________________________________________________________________
activation_917 (Activation)  (None, 32, 32, 16)        0         
_________________________________________________________________
dropout_917 (Dropout)        (None, 32, 32, 16)        0         
_________________________________________________________________
separable_conv2d_701 (Separa (None, 32, 32, 16)        416       
_________________________________________________________________
batch_normalization_565 (Bat (None, 32, 32, 16)        64        
_________________________________________________________________
activation_918 (Activation)  (None, 32, 32, 16)        0         
_________________________________________________________________
dropout_918 (Dropout)        (None, 32, 32, 16)        0         
_________________________________________________________________
separable_conv2d_702 (Separa (None, 32, 32, 8)         280       
_________________________________________________________________
activation_919 (Activation)  (None, 32, 32, 8)         0         
_________________________________________________________________
dropout_919 (Dropout)        (None, 32, 32, 8)         0         
_________________________________________________________________
separable_conv2d_703 (Separa (None, 32, 32, 16)        216       
_________________________________________________________________
batch_normalization_566 (Bat (None, 32, 32, 16)        64        
_________________________________________________________________
activation_920 (Activation)  (None, 32, 32, 16)        0         
_________________________________________________________________
dropout_920 (Dropout)        (None, 32, 32, 16)        0         
_________________________________________________________________
separable_conv2d_704 (Separa (None, 32, 32, 32)        688       
_________________________________________________________________
batch_normalization_567 (Bat (None, 32, 32, 32)        128       
_________________________________________________________________
activation_921 (Activation)  (None, 32, 32, 32)        0         
_________________________________________________________________
dropout_921 (Dropout)        (None, 32, 32, 32)        0         
_________________________________________________________________
separable_conv2d_705 (Separa (None, 32, 32, 512)       17184     
_________________________________________________________________
activation_922 (Activation)  (None, 32, 32, 512)       0         
_________________________________________________________________
dropout_922 (Dropout)        (None, 32, 32, 512)       0         
_________________________________________________________________
separable_conv2d_706 (Separa (None, 32, 32, 32)        21024     
_________________________________________________________________
batch_normalization_568 (Bat (None, 32, 32, 32)        128       
_________________________________________________________________
activation_923 (Activation)  (None, 32, 32, 32)        0         
_________________________________________________________________
dropout_923 (Dropout)        (None, 32, 32, 32)        0         
_________________________________________________________________
max_pooling2d_196 (MaxPoolin (None, 16, 16, 32)        0         
_________________________________________________________________
flatten_105 (Flatten)        (None, 8192)              0         
_________________________________________________________________
dense_322 (Dense)            (None, 100)               819300    
=================================================================
Total params: 859,583
Trainable params: 859,391
Non-trainable params: 192
_________________________________________________________________
