Model: "sequential_153"
_________________________________________________________________
Layer (type)                 Output Shape              Param #   
=================================================================
separable_conv2d_993 (Separa (None, 32, 32, 16)        91        
_________________________________________________________________
activation_1303 (Activation) (None, 32, 32, 16)        0         
_________________________________________________________________
dropout_1303 (Dropout)       (None, 32, 32, 16)        0         
_________________________________________________________________
separable_conv2d_994 (Separa (None, 32, 32, 128)       2320      
_________________________________________________________________
batch_normalization_806 (Bat (None, 32, 32, 128)       512       
_________________________________________________________________
activation_1304 (Activation) (None, 32, 32, 128)       0         
_________________________________________________________________
dropout_1304 (Dropout)       (None, 32, 32, 128)       0         
_________________________________________________________________
separable_conv2d_995 (Separa (None, 32, 32, 512)       67200     
_________________________________________________________________
activation_1305 (Activation) (None, 32, 32, 512)       0         
_________________________________________________________________
dropout_1305 (Dropout)       (None, 32, 32, 512)       0         
_________________________________________________________________
max_pooling2d_276 (MaxPoolin (None, 16, 16, 512)       0         
_________________________________________________________________
separable_conv2d_996 (Separa (None, 16, 16, 256)       135936    
_________________________________________________________________
batch_normalization_807 (Bat (None, 16, 16, 256)       1024      
_________________________________________________________________
activation_1306 (Activation) (None, 16, 16, 256)       0         
_________________________________________________________________
dropout_1306 (Dropout)       (None, 16, 16, 256)       0         
_________________________________________________________________
max_pooling2d_277 (MaxPoolin (None, 8, 8, 256)         0         
_________________________________________________________________
separable_conv2d_997 (Separa (None, 8, 8, 32)          10528     
_________________________________________________________________
batch_normalization_808 (Bat (None, 8, 8, 32)          128       
_________________________________________________________________
activation_1307 (Activation) (None, 8, 8, 32)          0         
_________________________________________________________________
dropout_1307 (Dropout)       (None, 8, 8, 32)          0         
_________________________________________________________________
max_pooling2d_278 (MaxPoolin (None, 4, 4, 32)          0         
_________________________________________________________________
flatten_153 (Flatten)        (None, 512)               0         
_________________________________________________________________
dense_463 (Dense)            (None, 100)               51300     
=================================================================
Total params: 269,039
Trainable params: 268,207
Non-trainable params: 832
_________________________________________________________________
