Model: "sequential_285"
_________________________________________________________________
Layer (type)                 Output Shape              Param #   
=================================================================
separable_conv2d_1768 (Separ (None, 32, 32, 64)        283       
_________________________________________________________________
batch_normalization_1420 (Ba (None, 32, 32, 64)        256       
_________________________________________________________________
activation_2198 (Activation) (None, 32, 32, 64)        0         
_________________________________________________________________
dropout_2198 (Dropout)       (None, 32, 32, 64)        0         
_________________________________________________________________
separable_conv2d_1769 (Separ (None, 32, 32, 1024)      67136     
_________________________________________________________________
batch_normalization_1421 (Ba (None, 32, 32, 1024)      4096      
_________________________________________________________________
activation_2199 (Activation) (None, 32, 32, 1024)      0         
_________________________________________________________________
dropout_2199 (Dropout)       (None, 32, 32, 1024)      0         
_________________________________________________________________
separable_conv2d_1770 (Separ (None, 32, 32, 128)       140416    
_________________________________________________________________
batch_normalization_1422 (Ba (None, 32, 32, 128)       512       
_________________________________________________________________
activation_2200 (Activation) (None, 32, 32, 128)       0         
_________________________________________________________________
dropout_2200 (Dropout)       (None, 32, 32, 128)       0         
_________________________________________________________________
separable_conv2d_1771 (Separ (None, 32, 32, 512)       67200     
_________________________________________________________________
activation_2201 (Activation) (None, 32, 32, 512)       0         
_________________________________________________________________
dropout_2201 (Dropout)       (None, 32, 32, 512)       0         
_________________________________________________________________
separable_conv2d_1772 (Separ (None, 32, 32, 32)        21024     
_________________________________________________________________
batch_normalization_1423 (Ba (None, 32, 32, 32)        128       
_________________________________________________________________
activation_2202 (Activation) (None, 32, 32, 32)        0         
_________________________________________________________________
dropout_2202 (Dropout)       (None, 32, 32, 32)        0         
_________________________________________________________________
max_pooling2d_493 (MaxPoolin (None, 16, 16, 32)        0         
_________________________________________________________________
flatten_285 (Flatten)        (None, 8192)              0         
_________________________________________________________________
dense_715 (Dense)            (None, 100)               819300    
=================================================================
Total params: 1,120,351
Trainable params: 1,117,855
Non-trainable params: 2,496
_________________________________________________________________
