Model: "sequential_156"
_________________________________________________________________
Layer (type)                 Output Shape              Param #   
=================================================================
separable_conv2d_1009 (Separ (None, 32, 32, 64)        283       
_________________________________________________________________
batch_normalization_822 (Bat (None, 32, 32, 64)        256       
_________________________________________________________________
activation_1324 (Activation) (None, 32, 32, 64)        0         
_________________________________________________________________
dropout_1324 (Dropout)       (None, 32, 32, 64)        0         
_________________________________________________________________
separable_conv2d_1010 (Separ (None, 32, 32, 1024)      67136     
_________________________________________________________________
batch_normalization_823 (Bat (None, 32, 32, 1024)      4096      
_________________________________________________________________
activation_1325 (Activation) (None, 32, 32, 1024)      0         
_________________________________________________________________
dropout_1325 (Dropout)       (None, 32, 32, 1024)      0         
_________________________________________________________________
separable_conv2d_1011 (Separ (None, 32, 32, 128)       140416    
_________________________________________________________________
batch_normalization_824 (Bat (None, 32, 32, 128)       512       
_________________________________________________________________
activation_1326 (Activation) (None, 32, 32, 128)       0         
_________________________________________________________________
dropout_1326 (Dropout)       (None, 32, 32, 128)       0         
_________________________________________________________________
separable_conv2d_1012 (Separ (None, 32, 32, 512)       67200     
_________________________________________________________________
activation_1327 (Activation) (None, 32, 32, 512)       0         
_________________________________________________________________
dropout_1327 (Dropout)       (None, 32, 32, 512)       0         
_________________________________________________________________
max_pooling2d_282 (MaxPoolin (None, 16, 16, 512)       0         
_________________________________________________________________
separable_conv2d_1013 (Separ (None, 16, 16, 64)        37440     
_________________________________________________________________
activation_1328 (Activation) (None, 16, 16, 64)        0         
_________________________________________________________________
dropout_1328 (Dropout)       (None, 16, 16, 64)        0         
_________________________________________________________________
max_pooling2d_283 (MaxPoolin (None, 8, 8, 64)          0         
_________________________________________________________________
separable_conv2d_1014 (Separ (None, 8, 8, 128)         8896      
_________________________________________________________________
batch_normalization_825 (Bat (None, 8, 8, 128)         512       
_________________________________________________________________
activation_1329 (Activation) (None, 8, 8, 128)         0         
_________________________________________________________________
dropout_1329 (Dropout)       (None, 8, 8, 128)         0         
_________________________________________________________________
flatten_156 (Flatten)        (None, 8192)              0         
_________________________________________________________________
dense_471 (Dense)            (None, 512)               4194816   
_________________________________________________________________
activation_1330 (Activation) (None, 512)               0         
_________________________________________________________________
dropout_1330 (Dropout)       (None, 512)               0         
_________________________________________________________________
dense_472 (Dense)            (None, 512)               262656    
_________________________________________________________________
batch_normalization_826 (Bat (None, 512)               2048      
_________________________________________________________________
activation_1331 (Activation) (None, 512)               0         
_________________________________________________________________
dropout_1331 (Dropout)       (None, 512)               0         
_________________________________________________________________
dense_473 (Dense)            (None, 100)               51300     
=================================================================
Total params: 4,837,567
Trainable params: 4,833,855
Non-trainable params: 3,712
_________________________________________________________________
