Model: "sequential_175"
_________________________________________________________________
Layer (type)                 Output Shape              Param #   
=================================================================
separable_conv2d_1128 (Separ (None, 32, 32, 64)        283       
_________________________________________________________________
activation_1470 (Activation) (None, 32, 32, 64)        0         
_________________________________________________________________
dropout_1470 (Dropout)       (None, 32, 32, 64)        0         
_________________________________________________________________
separable_conv2d_1129 (Separ (None, 32, 32, 1024)      67136     
_________________________________________________________________
batch_normalization_913 (Bat (None, 32, 32, 1024)      4096      
_________________________________________________________________
activation_1471 (Activation) (None, 32, 32, 1024)      0         
_________________________________________________________________
dropout_1471 (Dropout)       (None, 32, 32, 1024)      0         
_________________________________________________________________
separable_conv2d_1130 (Separ (None, 32, 32, 128)       140416    
_________________________________________________________________
batch_normalization_914 (Bat (None, 32, 32, 128)       512       
_________________________________________________________________
activation_1472 (Activation) (None, 32, 32, 128)       0         
_________________________________________________________________
dropout_1472 (Dropout)       (None, 32, 32, 128)       0         
_________________________________________________________________
max_pooling2d_313 (MaxPoolin (None, 16, 16, 128)       0         
_________________________________________________________________
separable_conv2d_1131 (Separ (None, 16, 16, 8)         2184      
_________________________________________________________________
batch_normalization_915 (Bat (None, 16, 16, 8)         32        
_________________________________________________________________
activation_1473 (Activation) (None, 16, 16, 8)         0         
_________________________________________________________________
dropout_1473 (Dropout)       (None, 16, 16, 8)         0         
_________________________________________________________________
separable_conv2d_1132 (Separ (None, 16, 16, 16)        216       
_________________________________________________________________
batch_normalization_916 (Bat (None, 16, 16, 16)        64        
_________________________________________________________________
activation_1474 (Activation) (None, 16, 16, 16)        0         
_________________________________________________________________
dropout_1474 (Dropout)       (None, 16, 16, 16)        0         
_________________________________________________________________
separable_conv2d_1133 (Separ (None, 16, 16, 32)        688       
_________________________________________________________________
batch_normalization_917 (Bat (None, 16, 16, 32)        128       
_________________________________________________________________
activation_1475 (Activation) (None, 16, 16, 32)        0         
_________________________________________________________________
dropout_1475 (Dropout)       (None, 16, 16, 32)        0         
_________________________________________________________________
flatten_175 (Flatten)        (None, 8192)              0         
_________________________________________________________________
dense_517 (Dense)            (None, 512)               4194816   
_________________________________________________________________
activation_1476 (Activation) (None, 512)               0         
_________________________________________________________________
dropout_1476 (Dropout)       (None, 512)               0         
_________________________________________________________________
dense_518 (Dense)            (None, 128)               65664     
_________________________________________________________________
batch_normalization_918 (Bat (None, 128)               512       
_________________________________________________________________
activation_1477 (Activation) (None, 128)               0         
_________________________________________________________________
dropout_1477 (Dropout)       (None, 128)               0         
_________________________________________________________________
dense_519 (Dense)            (None, 100)               12900     
=================================================================
Total params: 4,489,647
Trainable params: 4,486,975
Non-trainable params: 2,672
_________________________________________________________________
