Model: "sequential_182"
_________________________________________________________________
Layer (type)                 Output Shape              Param #   
=================================================================
separable_conv2d_1171 (Separ (None, 32, 32, 16)        91        
_________________________________________________________________
activation_1520 (Activation) (None, 32, 32, 16)        0         
_________________________________________________________________
dropout_1520 (Dropout)       (None, 32, 32, 16)        0         
_________________________________________________________________
separable_conv2d_1172 (Separ (None, 32, 32, 16)        416       
_________________________________________________________________
batch_normalization_945 (Bat (None, 32, 32, 16)        64        
_________________________________________________________________
activation_1521 (Activation) (None, 32, 32, 16)        0         
_________________________________________________________________
dropout_1521 (Dropout)       (None, 32, 32, 16)        0         
_________________________________________________________________
separable_conv2d_1173 (Separ (None, 32, 32, 128)       2320      
_________________________________________________________________
batch_normalization_946 (Bat (None, 32, 32, 128)       512       
_________________________________________________________________
activation_1522 (Activation) (None, 32, 32, 128)       0         
_________________________________________________________________
dropout_1522 (Dropout)       (None, 32, 32, 128)       0         
_________________________________________________________________
separable_conv2d_1174 (Separ (None, 32, 32, 512)       67200     
_________________________________________________________________
activation_1523 (Activation) (None, 32, 32, 512)       0         
_________________________________________________________________
dropout_1523 (Dropout)       (None, 32, 32, 512)       0         
_________________________________________________________________
max_pooling2d_324 (MaxPoolin (None, 16, 16, 512)       0         
_________________________________________________________________
separable_conv2d_1175 (Separ (None, 16, 16, 64)        37440     
_________________________________________________________________
activation_1524 (Activation) (None, 16, 16, 64)        0         
_________________________________________________________________
dropout_1524 (Dropout)       (None, 16, 16, 64)        0         
_________________________________________________________________
max_pooling2d_325 (MaxPoolin (None, 8, 8, 64)          0         
_________________________________________________________________
separable_conv2d_1176 (Separ (None, 8, 8, 128)         8896      
_________________________________________________________________
batch_normalization_947 (Bat (None, 8, 8, 128)         512       
_________________________________________________________________
activation_1525 (Activation) (None, 8, 8, 128)         0         
_________________________________________________________________
dropout_1525 (Dropout)       (None, 8, 8, 128)         0         
_________________________________________________________________
flatten_182 (Flatten)        (None, 8192)              0         
_________________________________________________________________
dense_531 (Dense)            (None, 16)                131088    
_________________________________________________________________
activation_1526 (Activation) (None, 16)                0         
_________________________________________________________________
dropout_1526 (Dropout)       (None, 16)                0         
_________________________________________________________________
dense_532 (Dense)            (None, 128)               2176      
_________________________________________________________________
batch_normalization_948 (Bat (None, 128)               512       
_________________________________________________________________
activation_1527 (Activation) (None, 128)               0         
_________________________________________________________________
dropout_1527 (Dropout)       (None, 128)               0         
_________________________________________________________________
dense_533 (Dense)            (None, 100)               12900     
=================================================================
Total params: 264,127
Trainable params: 263,327
Non-trainable params: 800
_________________________________________________________________
