Model: "sequential_41"
_________________________________________________________________
Layer (type)                 Output Shape              Param #   
=================================================================
separable_conv2d_291 (Separa (None, 32, 32, 64)        283       
_________________________________________________________________
activation_376 (Activation)  (None, 32, 32, 64)        0         
_________________________________________________________________
dropout_376 (Dropout)        (None, 32, 32, 64)        0         
_________________________________________________________________
separable_conv2d_292 (Separa (None, 32, 32, 1024)      67136     
_________________________________________________________________
batch_normalization_217 (Bat (None, 32, 32, 1024)      4096      
_________________________________________________________________
activation_377 (Activation)  (None, 32, 32, 1024)      0         
_________________________________________________________________
dropout_377 (Dropout)        (None, 32, 32, 1024)      0         
_________________________________________________________________
separable_conv2d_293 (Separa (None, 32, 32, 16)        25616     
_________________________________________________________________
activation_378 (Activation)  (None, 32, 32, 16)        0         
_________________________________________________________________
dropout_378 (Dropout)        (None, 32, 32, 16)        0         
_________________________________________________________________
max_pooling2d_81 (MaxPooling (None, 16, 16, 16)        0         
_________________________________________________________________
separable_conv2d_294 (Separa (None, 16, 16, 64)        1232      
_________________________________________________________________
batch_normalization_218 (Bat (None, 16, 16, 64)        256       
_________________________________________________________________
activation_379 (Activation)  (None, 16, 16, 64)        0         
_________________________________________________________________
dropout_379 (Dropout)        (None, 16, 16, 64)        0         
_________________________________________________________________
separable_conv2d_295 (Separa (None, 16, 16, 256)       17216     
_________________________________________________________________
batch_normalization_219 (Bat (None, 16, 16, 256)       1024      
_________________________________________________________________
activation_380 (Activation)  (None, 16, 16, 256)       0         
_________________________________________________________________
dropout_380 (Dropout)        (None, 16, 16, 256)       0         
_________________________________________________________________
max_pooling2d_82 (MaxPooling (None, 8, 8, 256)         0         
_________________________________________________________________
flatten_41 (Flatten)         (None, 16384)             0         
_________________________________________________________________
dense_126 (Dense)            (None, 32)                524320    
_________________________________________________________________
batch_normalization_220 (Bat (None, 32)                128       
_________________________________________________________________
activation_381 (Activation)  (None, 32)                0         
_________________________________________________________________
dropout_381 (Dropout)        (None, 32)                0         
_________________________________________________________________
dense_127 (Dense)            (None, 512)               16896     
_________________________________________________________________
activation_382 (Activation)  (None, 512)               0         
_________________________________________________________________
dropout_382 (Dropout)        (None, 512)               0         
_________________________________________________________________
dense_128 (Dense)            (None, 512)               262656    
_________________________________________________________________
batch_normalization_221 (Bat (None, 512)               2048      
_________________________________________________________________
activation_383 (Activation)  (None, 512)               0         
_________________________________________________________________
dropout_383 (Dropout)        (None, 512)               0         
_________________________________________________________________
dense_129 (Dense)            (None, 100)               51300     
=================================================================
Total params: 974,207
Trainable params: 970,431
Non-trainable params: 3,776
_________________________________________________________________
