Model: "sequential_166"
_________________________________________________________________
Layer (type)                 Output Shape              Param #   
=================================================================
separable_conv2d_1072 (Separ (None, 32, 32, 64)        283       
_________________________________________________________________
batch_normalization_871 (Bat (None, 32, 32, 64)        256       
_________________________________________________________________
activation_1399 (Activation) (None, 32, 32, 64)        0         
_________________________________________________________________
dropout_1399 (Dropout)       (None, 32, 32, 64)        0         
_________________________________________________________________
separable_conv2d_1073 (Separ (None, 32, 32, 1024)      67136     
_________________________________________________________________
batch_normalization_872 (Bat (None, 32, 32, 1024)      4096      
_________________________________________________________________
activation_1400 (Activation) (None, 32, 32, 1024)      0         
_________________________________________________________________
dropout_1400 (Dropout)       (None, 32, 32, 1024)      0         
_________________________________________________________________
separable_conv2d_1074 (Separ (None, 32, 32, 128)       140416    
_________________________________________________________________
batch_normalization_873 (Bat (None, 32, 32, 128)       512       
_________________________________________________________________
activation_1401 (Activation) (None, 32, 32, 128)       0         
_________________________________________________________________
dropout_1401 (Dropout)       (None, 32, 32, 128)       0         
_________________________________________________________________
separable_conv2d_1075 (Separ (None, 32, 32, 512)       67200     
_________________________________________________________________
activation_1402 (Activation) (None, 32, 32, 512)       0         
_________________________________________________________________
dropout_1402 (Dropout)       (None, 32, 32, 512)       0         
_________________________________________________________________
max_pooling2d_297 (MaxPoolin (None, 16, 16, 512)       0         
_________________________________________________________________
separable_conv2d_1076 (Separ (None, 16, 16, 64)        37440     
_________________________________________________________________
activation_1403 (Activation) (None, 16, 16, 64)        0         
_________________________________________________________________
dropout_1403 (Dropout)       (None, 16, 16, 64)        0         
_________________________________________________________________
max_pooling2d_298 (MaxPoolin (None, 8, 8, 64)          0         
_________________________________________________________________
separable_conv2d_1077 (Separ (None, 8, 8, 128)         8896      
_________________________________________________________________
batch_normalization_874 (Bat (None, 8, 8, 128)         512       
_________________________________________________________________
activation_1404 (Activation) (None, 8, 8, 128)         0         
_________________________________________________________________
dropout_1404 (Dropout)       (None, 8, 8, 128)         0         
_________________________________________________________________
flatten_166 (Flatten)        (None, 8192)              0         
_________________________________________________________________
dense_493 (Dense)            (None, 512)               4194816   
_________________________________________________________________
activation_1405 (Activation) (None, 512)               0         
_________________________________________________________________
dropout_1405 (Dropout)       (None, 512)               0         
_________________________________________________________________
dense_494 (Dense)            (None, 512)               262656    
_________________________________________________________________
batch_normalization_875 (Bat (None, 512)               2048      
_________________________________________________________________
activation_1406 (Activation) (None, 512)               0         
_________________________________________________________________
dropout_1406 (Dropout)       (None, 512)               0         
_________________________________________________________________
dense_495 (Dense)            (None, 100)               51300     
=================================================================
Total params: 4,837,567
Trainable params: 4,833,855
Non-trainable params: 3,712
_________________________________________________________________
