Model: "sequential_396"
_________________________________________________________________
Layer (type)                 Output Shape              Param #   
=================================================================
separable_conv2d_2301 (Separ (None, 32, 32, 16)        91        
_________________________________________________________________
activation_2759 (Activation) (None, 32, 32, 16)        0         
_________________________________________________________________
dropout_2759 (Dropout)       (None, 32, 32, 16)        0         
_________________________________________________________________
separable_conv2d_2302 (Separ (None, 32, 32, 16)        416       
_________________________________________________________________
batch_normalization_1874 (Ba (None, 32, 32, 16)        64        
_________________________________________________________________
activation_2760 (Activation) (None, 32, 32, 16)        0         
_________________________________________________________________
dropout_2760 (Dropout)       (None, 32, 32, 16)        0         
_________________________________________________________________
separable_conv2d_2303 (Separ (None, 32, 32, 128)       2320      
_________________________________________________________________
batch_normalization_1875 (Ba (None, 32, 32, 128)       512       
_________________________________________________________________
activation_2761 (Activation) (None, 32, 32, 128)       0         
_________________________________________________________________
dropout_2761 (Dropout)       (None, 32, 32, 128)       0         
_________________________________________________________________
separable_conv2d_2304 (Separ (None, 32, 32, 256)       34176     
_________________________________________________________________
batch_normalization_1876 (Ba (None, 32, 32, 256)       1024      
_________________________________________________________________
activation_2762 (Activation) (None, 32, 32, 256)       0         
_________________________________________________________________
dropout_2762 (Dropout)       (None, 32, 32, 256)       0         
_________________________________________________________________
max_pooling2d_685 (MaxPoolin (None, 16, 16, 256)       0         
_________________________________________________________________
separable_conv2d_2305 (Separ (None, 16, 16, 128)       35200     
_________________________________________________________________
batch_normalization_1877 (Ba (None, 16, 16, 128)       512       
_________________________________________________________________
activation_2763 (Activation) (None, 16, 16, 128)       0         
_________________________________________________________________
dropout_2763 (Dropout)       (None, 16, 16, 128)       0         
_________________________________________________________________
max_pooling2d_686 (MaxPoolin (None, 8, 8, 128)         0         
_________________________________________________________________
flatten_396 (Flatten)        (None, 8192)              0         
_________________________________________________________________
dense_854 (Dense)            (None, 100)               819300    
=================================================================
Total params: 893,615
Trainable params: 892,559
Non-trainable params: 1,056
_________________________________________________________________
