Model: "sequential_47"
_________________________________________________________________
Layer (type)                 Output Shape              Param #   
=================================================================
separable_conv2d_329 (Separa (None, 32, 32, 16)        91        
_________________________________________________________________
activation_427 (Activation)  (None, 32, 32, 16)        0         
_________________________________________________________________
dropout_427 (Dropout)        (None, 32, 32, 16)        0         
_________________________________________________________________
separable_conv2d_330 (Separa (None, 32, 32, 16)        416       
_________________________________________________________________
batch_normalization_247 (Bat (None, 32, 32, 16)        64        
_________________________________________________________________
activation_428 (Activation)  (None, 32, 32, 16)        0         
_________________________________________________________________
dropout_428 (Dropout)        (None, 32, 32, 16)        0         
_________________________________________________________________
separable_conv2d_331 (Separa (None, 32, 32, 128)       2320      
_________________________________________________________________
batch_normalization_248 (Bat (None, 32, 32, 128)       512       
_________________________________________________________________
activation_429 (Activation)  (None, 32, 32, 128)       0         
_________________________________________________________________
dropout_429 (Dropout)        (None, 32, 32, 128)       0         
_________________________________________________________________
separable_conv2d_332 (Separa (None, 32, 32, 512)       67200     
_________________________________________________________________
activation_430 (Activation)  (None, 32, 32, 512)       0         
_________________________________________________________________
dropout_430 (Dropout)        (None, 32, 32, 512)       0         
_________________________________________________________________
max_pooling2d_93 (MaxPooling (None, 16, 16, 512)       0         
_________________________________________________________________
separable_conv2d_333 (Separa (None, 16, 16, 256)       135936    
_________________________________________________________________
batch_normalization_249 (Bat (None, 16, 16, 256)       1024      
_________________________________________________________________
activation_431 (Activation)  (None, 16, 16, 256)       0         
_________________________________________________________________
dropout_431 (Dropout)        (None, 16, 16, 256)       0         
_________________________________________________________________
separable_conv2d_334 (Separa (None, 16, 16, 64)        18752     
_________________________________________________________________
activation_432 (Activation)  (None, 16, 16, 64)        0         
_________________________________________________________________
dropout_432 (Dropout)        (None, 16, 16, 64)        0         
_________________________________________________________________
max_pooling2d_94 (MaxPooling (None, 8, 8, 64)          0         
_________________________________________________________________
flatten_47 (Flatten)         (None, 4096)              0         
_________________________________________________________________
dense_145 (Dense)            (None, 256)               1048832   
_________________________________________________________________
batch_normalization_250 (Bat (None, 256)               1024      
_________________________________________________________________
activation_433 (Activation)  (None, 256)               0         
_________________________________________________________________
dropout_433 (Dropout)        (None, 256)               0         
_________________________________________________________________
dense_146 (Dense)            (None, 256)               65792     
_________________________________________________________________
batch_normalization_251 (Bat (None, 256)               1024      
_________________________________________________________________
activation_434 (Activation)  (None, 256)               0         
_________________________________________________________________
dropout_434 (Dropout)        (None, 256)               0         
_________________________________________________________________
dense_147 (Dense)            (None, 64)                16448     
_________________________________________________________________
batch_normalization_252 (Bat (None, 64)                256       
_________________________________________________________________
activation_435 (Activation)  (None, 64)                0         
_________________________________________________________________
dropout_435 (Dropout)        (None, 64)                0         
_________________________________________________________________
dense_148 (Dense)            (None, 100)               6500      
=================================================================
Total params: 1,366,191
Trainable params: 1,364,239
Non-trainable params: 1,952
_________________________________________________________________
