Model: "sequential_71"
_________________________________________________________________
Layer (type)                 Output Shape              Param #   
=================================================================
separable_conv2d_484 (Separa (None, 32, 32, 16)        91        
_________________________________________________________________
activation_627 (Activation)  (None, 32, 32, 16)        0         
_________________________________________________________________
dropout_627 (Dropout)        (None, 32, 32, 16)        0         
_________________________________________________________________
separable_conv2d_485 (Separa (None, 32, 32, 16)        416       
_________________________________________________________________
batch_normalization_375 (Bat (None, 32, 32, 16)        64        
_________________________________________________________________
activation_628 (Activation)  (None, 32, 32, 16)        0         
_________________________________________________________________
dropout_628 (Dropout)        (None, 32, 32, 16)        0         
_________________________________________________________________
separable_conv2d_486 (Separa (None, 32, 32, 8)         280       
_________________________________________________________________
activation_629 (Activation)  (None, 32, 32, 8)         0         
_________________________________________________________________
dropout_629 (Dropout)        (None, 32, 32, 8)         0         
_________________________________________________________________
separable_conv2d_487 (Separa (None, 32, 32, 16)        216       
_________________________________________________________________
batch_normalization_376 (Bat (None, 32, 32, 16)        64        
_________________________________________________________________
activation_630 (Activation)  (None, 32, 32, 16)        0         
_________________________________________________________________
dropout_630 (Dropout)        (None, 32, 32, 16)        0         
_________________________________________________________________
separable_conv2d_488 (Separa (None, 32, 32, 32)        688       
_________________________________________________________________
batch_normalization_377 (Bat (None, 32, 32, 32)        128       
_________________________________________________________________
activation_631 (Activation)  (None, 32, 32, 32)        0         
_________________________________________________________________
dropout_631 (Dropout)        (None, 32, 32, 32)        0         
_________________________________________________________________
separable_conv2d_489 (Separa (None, 32, 32, 512)       17184     
_________________________________________________________________
activation_632 (Activation)  (None, 32, 32, 512)       0         
_________________________________________________________________
dropout_632 (Dropout)        (None, 32, 32, 512)       0         
_________________________________________________________________
separable_conv2d_490 (Separa (None, 32, 32, 32)        21024     
_________________________________________________________________
batch_normalization_378 (Bat (None, 32, 32, 32)        128       
_________________________________________________________________
activation_633 (Activation)  (None, 32, 32, 32)        0         
_________________________________________________________________
dropout_633 (Dropout)        (None, 32, 32, 32)        0         
_________________________________________________________________
max_pooling2d_137 (MaxPoolin (None, 16, 16, 32)        0         
_________________________________________________________________
flatten_71 (Flatten)         (None, 8192)              0         
_________________________________________________________________
dense_214 (Dense)            (None, 100)               819300    
=================================================================
Total params: 859,583
Trainable params: 859,391
Non-trainable params: 192
_________________________________________________________________
