Model: "sequential_290"
_________________________________________________________________
Layer (type)                 Output Shape              Param #   
=================================================================
separable_conv2d_1795 (Separ (None, 32, 32, 16)        91        
_________________________________________________________________
activation_2230 (Activation) (None, 32, 32, 16)        0         
_________________________________________________________________
dropout_2230 (Dropout)       (None, 32, 32, 16)        0         
_________________________________________________________________
separable_conv2d_1796 (Separ (None, 32, 32, 16)        416       
_________________________________________________________________
batch_normalization_1443 (Ba (None, 32, 32, 16)        64        
_________________________________________________________________
activation_2231 (Activation) (None, 32, 32, 16)        0         
_________________________________________________________________
dropout_2231 (Dropout)       (None, 32, 32, 16)        0         
_________________________________________________________________
separable_conv2d_1797 (Separ (None, 32, 32, 128)       2320      
_________________________________________________________________
batch_normalization_1444 (Ba (None, 32, 32, 128)       512       
_________________________________________________________________
activation_2232 (Activation) (None, 32, 32, 128)       0         
_________________________________________________________________
dropout_2232 (Dropout)       (None, 32, 32, 128)       0         
_________________________________________________________________
separable_conv2d_1798 (Separ (None, 32, 32, 512)       67200     
_________________________________________________________________
activation_2233 (Activation) (None, 32, 32, 512)       0         
_________________________________________________________________
dropout_2233 (Dropout)       (None, 32, 32, 512)       0         
_________________________________________________________________
max_pooling2d_500 (MaxPoolin (None, 16, 16, 512)       0         
_________________________________________________________________
separable_conv2d_1799 (Separ (None, 16, 16, 256)       135936    
_________________________________________________________________
batch_normalization_1445 (Ba (None, 16, 16, 256)       1024      
_________________________________________________________________
activation_2234 (Activation) (None, 16, 16, 256)       0         
_________________________________________________________________
dropout_2234 (Dropout)       (None, 16, 16, 256)       0         
_________________________________________________________________
max_pooling2d_501 (MaxPoolin (None, 8, 8, 256)         0         
_________________________________________________________________
separable_conv2d_1800 (Separ (None, 8, 8, 64)          18752     
_________________________________________________________________
batch_normalization_1446 (Ba (None, 8, 8, 64)          256       
_________________________________________________________________
activation_2235 (Activation) (None, 8, 8, 64)          0         
_________________________________________________________________
dropout_2235 (Dropout)       (None, 8, 8, 64)          0         
_________________________________________________________________
separable_conv2d_1801 (Separ (None, 8, 8, 128)         8896      
_________________________________________________________________
batch_normalization_1447 (Ba (None, 8, 8, 128)         512       
_________________________________________________________________
activation_2236 (Activation) (None, 8, 8, 128)         0         
_________________________________________________________________
dropout_2236 (Dropout)       (None, 8, 8, 128)         0         
_________________________________________________________________
flatten_290 (Flatten)        (None, 8192)              0         
_________________________________________________________________
dense_725 (Dense)            (None, 100)               819300    
=================================================================
Total params: 1,055,279
Trainable params: 1,054,095
Non-trainable params: 1,184
_________________________________________________________________
