Model: "sequential_165"
_________________________________________________________________
Layer (type)                 Output Shape              Param #   
=================================================================
separable_conv2d_1066 (Separ (None, 32, 32, 64)        283       
_________________________________________________________________
batch_normalization_865 (Bat (None, 32, 32, 64)        256       
_________________________________________________________________
activation_1391 (Activation) (None, 32, 32, 64)        0         
_________________________________________________________________
dropout_1391 (Dropout)       (None, 32, 32, 64)        0         
_________________________________________________________________
separable_conv2d_1067 (Separ (None, 32, 32, 16)        1616      
_________________________________________________________________
batch_normalization_866 (Bat (None, 32, 32, 16)        64        
_________________________________________________________________
activation_1392 (Activation) (None, 32, 32, 16)        0         
_________________________________________________________________
dropout_1392 (Dropout)       (None, 32, 32, 16)        0         
_________________________________________________________________
separable_conv2d_1068 (Separ (None, 32, 32, 128)       2320      
_________________________________________________________________
batch_normalization_867 (Bat (None, 32, 32, 128)       512       
_________________________________________________________________
activation_1393 (Activation) (None, 32, 32, 128)       0         
_________________________________________________________________
dropout_1393 (Dropout)       (None, 32, 32, 128)       0         
_________________________________________________________________
separable_conv2d_1069 (Separ (None, 32, 32, 512)       67200     
_________________________________________________________________
activation_1394 (Activation) (None, 32, 32, 512)       0         
_________________________________________________________________
dropout_1394 (Dropout)       (None, 32, 32, 512)       0         
_________________________________________________________________
max_pooling2d_295 (MaxPoolin (None, 16, 16, 512)       0         
_________________________________________________________________
separable_conv2d_1070 (Separ (None, 16, 16, 256)       135936    
_________________________________________________________________
batch_normalization_868 (Bat (None, 16, 16, 256)       1024      
_________________________________________________________________
activation_1395 (Activation) (None, 16, 16, 256)       0         
_________________________________________________________________
dropout_1395 (Dropout)       (None, 16, 16, 256)       0         
_________________________________________________________________
max_pooling2d_296 (MaxPoolin (None, 8, 8, 256)         0         
_________________________________________________________________
separable_conv2d_1071 (Separ (None, 8, 8, 128)         35200     
_________________________________________________________________
batch_normalization_869 (Bat (None, 8, 8, 128)         512       
_________________________________________________________________
activation_1396 (Activation) (None, 8, 8, 128)         0         
_________________________________________________________________
dropout_1396 (Dropout)       (None, 8, 8, 128)         0         
_________________________________________________________________
flatten_165 (Flatten)        (None, 8192)              0         
_________________________________________________________________
dense_490 (Dense)            (None, 512)               4194816   
_________________________________________________________________
activation_1397 (Activation) (None, 512)               0         
_________________________________________________________________
dropout_1397 (Dropout)       (None, 512)               0         
_________________________________________________________________
dense_491 (Dense)            (None, 512)               262656    
_________________________________________________________________
batch_normalization_870 (Bat (None, 512)               2048      
_________________________________________________________________
activation_1398 (Activation) (None, 512)               0         
_________________________________________________________________
dropout_1398 (Dropout)       (None, 512)               0         
_________________________________________________________________
dense_492 (Dense)            (None, 100)               51300     
=================================================================
Total params: 4,755,743
Trainable params: 4,753,535
Non-trainable params: 2,208
_________________________________________________________________
