Model: "sequential_258"
_________________________________________________________________
Layer (type)                 Output Shape              Param #   
=================================================================
separable_conv2d_1628 (Separ (None, 32, 32, 64)        283       
_________________________________________________________________
batch_normalization_1308 (Ba (None, 32, 32, 64)        256       
_________________________________________________________________
activation_2048 (Activation) (None, 32, 32, 64)        0         
_________________________________________________________________
dropout_2048 (Dropout)       (None, 32, 32, 64)        0         
_________________________________________________________________
separable_conv2d_1629 (Separ (None, 32, 32, 1024)      67136     
_________________________________________________________________
batch_normalization_1309 (Ba (None, 32, 32, 1024)      4096      
_________________________________________________________________
activation_2049 (Activation) (None, 32, 32, 1024)      0         
_________________________________________________________________
dropout_2049 (Dropout)       (None, 32, 32, 1024)      0         
_________________________________________________________________
separable_conv2d_1630 (Separ (None, 32, 32, 8)         17416     
_________________________________________________________________
activation_2050 (Activation) (None, 32, 32, 8)         0         
_________________________________________________________________
dropout_2050 (Dropout)       (None, 32, 32, 8)         0         
_________________________________________________________________
separable_conv2d_1631 (Separ (None, 32, 32, 16)        216       
_________________________________________________________________
batch_normalization_1310 (Ba (None, 32, 32, 16)        64        
_________________________________________________________________
activation_2051 (Activation) (None, 32, 32, 16)        0         
_________________________________________________________________
dropout_2051 (Dropout)       (None, 32, 32, 16)        0         
_________________________________________________________________
separable_conv2d_1632 (Separ (None, 32, 32, 256)       4496      
_________________________________________________________________
batch_normalization_1311 (Ba (None, 32, 32, 256)       1024      
_________________________________________________________________
activation_2052 (Activation) (None, 32, 32, 256)       0         
_________________________________________________________________
dropout_2052 (Dropout)       (None, 32, 32, 256)       0         
_________________________________________________________________
separable_conv2d_1633 (Separ (None, 32, 32, 32)        10528     
_________________________________________________________________
batch_normalization_1312 (Ba (None, 32, 32, 32)        128       
_________________________________________________________________
activation_2053 (Activation) (None, 32, 32, 32)        0         
_________________________________________________________________
dropout_2053 (Dropout)       (None, 32, 32, 32)        0         
_________________________________________________________________
max_pooling2d_454 (MaxPoolin (None, 16, 16, 32)        0         
_________________________________________________________________
flatten_258 (Flatten)        (None, 8192)              0         
_________________________________________________________________
dense_678 (Dense)            (None, 100)               819300    
=================================================================
Total params: 924,943
Trainable params: 922,159
Non-trainable params: 2,784
_________________________________________________________________
