Model: "sequential_365"
_________________________________________________________________
Layer (type)                 Output Shape              Param #   
=================================================================
separable_conv2d_2152 (Separ (None, 32, 32, 16)        91        
_________________________________________________________________
activation_2608 (Activation) (None, 32, 32, 16)        0         
_________________________________________________________________
dropout_2608 (Dropout)       (None, 32, 32, 16)        0         
_________________________________________________________________
separable_conv2d_2153 (Separ (None, 32, 32, 512)       8848      
_________________________________________________________________
batch_normalization_1747 (Ba (None, 32, 32, 512)       2048      
_________________________________________________________________
activation_2609 (Activation) (None, 32, 32, 512)       0         
_________________________________________________________________
dropout_2609 (Dropout)       (None, 32, 32, 512)       0         
_________________________________________________________________
separable_conv2d_2154 (Separ (None, 32, 32, 1024)      529920    
_________________________________________________________________
batch_normalization_1748 (Ba (None, 32, 32, 1024)      4096      
_________________________________________________________________
activation_2610 (Activation) (None, 32, 32, 1024)      0         
_________________________________________________________________
dropout_2610 (Dropout)       (None, 32, 32, 1024)      0         
_________________________________________________________________
separable_conv2d_2155 (Separ (None, 32, 32, 256)       271616    
_________________________________________________________________
batch_normalization_1749 (Ba (None, 32, 32, 256)       1024      
_________________________________________________________________
activation_2611 (Activation) (None, 32, 32, 256)       0         
_________________________________________________________________
dropout_2611 (Dropout)       (None, 32, 32, 256)       0         
_________________________________________________________________
max_pooling2d_627 (MaxPoolin (None, 16, 16, 256)       0         
_________________________________________________________________
separable_conv2d_2156 (Separ (None, 16, 16, 128)       35200     
_________________________________________________________________
batch_normalization_1750 (Ba (None, 16, 16, 128)       512       
_________________________________________________________________
activation_2612 (Activation) (None, 16, 16, 128)       0         
_________________________________________________________________
dropout_2612 (Dropout)       (None, 16, 16, 128)       0         
_________________________________________________________________
max_pooling2d_628 (MaxPoolin (None, 8, 8, 128)         0         
_________________________________________________________________
flatten_365 (Flatten)        (None, 8192)              0         
_________________________________________________________________
dense_821 (Dense)            (None, 100)               819300    
=================================================================
Total params: 1,672,655
Trainable params: 1,668,815
Non-trainable params: 3,840
_________________________________________________________________
