Model: "sequential_263"
_________________________________________________________________
Layer (type)                 Output Shape              Param #   
=================================================================
separable_conv2d_1658 (Separ (None, 32, 32, 16)        91        
_________________________________________________________________
activation_2080 (Activation) (None, 32, 32, 16)        0         
_________________________________________________________________
dropout_2080 (Dropout)       (None, 32, 32, 16)        0         
_________________________________________________________________
separable_conv2d_1659 (Separ (None, 32, 32, 16)        416       
_________________________________________________________________
batch_normalization_1330 (Ba (None, 32, 32, 16)        64        
_________________________________________________________________
activation_2081 (Activation) (None, 32, 32, 16)        0         
_________________________________________________________________
dropout_2081 (Dropout)       (None, 32, 32, 16)        0         
_________________________________________________________________
separable_conv2d_1660 (Separ (None, 32, 32, 128)       2320      
_________________________________________________________________
batch_normalization_1331 (Ba (None, 32, 32, 128)       512       
_________________________________________________________________
activation_2082 (Activation) (None, 32, 32, 128)       0         
_________________________________________________________________
dropout_2082 (Dropout)       (None, 32, 32, 128)       0         
_________________________________________________________________
separable_conv2d_1661 (Separ (None, 32, 32, 32)        5280      
_________________________________________________________________
batch_normalization_1332 (Ba (None, 32, 32, 32)        128       
_________________________________________________________________
activation_2083 (Activation) (None, 32, 32, 32)        0         
_________________________________________________________________
dropout_2083 (Dropout)       (None, 32, 32, 32)        0         
_________________________________________________________________
max_pooling2d_460 (MaxPoolin (None, 16, 16, 32)        0         
_________________________________________________________________
flatten_263 (Flatten)        (None, 8192)              0         
_________________________________________________________________
dense_685 (Dense)            (None, 100)               819300    
=================================================================
Total params: 828,111
Trainable params: 827,759
Non-trainable params: 352
_________________________________________________________________
