Model: "sequential_259"
_________________________________________________________________
Layer (type)                 Output Shape              Param #   
=================================================================
separable_conv2d_1634 (Separ (None, 32, 32, 16)        91        
_________________________________________________________________
activation_2054 (Activation) (None, 32, 32, 16)        0         
_________________________________________________________________
dropout_2054 (Dropout)       (None, 32, 32, 16)        0         
_________________________________________________________________
separable_conv2d_1635 (Separ (None, 32, 32, 16)        416       
_________________________________________________________________
batch_normalization_1313 (Ba (None, 32, 32, 16)        64        
_________________________________________________________________
activation_2055 (Activation) (None, 32, 32, 16)        0         
_________________________________________________________________
dropout_2055 (Dropout)       (None, 32, 32, 16)        0         
_________________________________________________________________
separable_conv2d_1636 (Separ (None, 32, 32, 128)       2320      
_________________________________________________________________
batch_normalization_1314 (Ba (None, 32, 32, 128)       512       
_________________________________________________________________
activation_2056 (Activation) (None, 32, 32, 128)       0         
_________________________________________________________________
dropout_2056 (Dropout)       (None, 32, 32, 128)       0         
_________________________________________________________________
separable_conv2d_1637 (Separ (None, 32, 32, 512)       67200     
_________________________________________________________________
activation_2057 (Activation) (None, 32, 32, 512)       0         
_________________________________________________________________
dropout_2057 (Dropout)       (None, 32, 32, 512)       0         
_________________________________________________________________
separable_conv2d_1638 (Separ (None, 32, 32, 16)        12816     
_________________________________________________________________
batch_normalization_1315 (Ba (None, 32, 32, 16)        64        
_________________________________________________________________
activation_2058 (Activation) (None, 32, 32, 16)        0         
_________________________________________________________________
dropout_2058 (Dropout)       (None, 32, 32, 16)        0         
_________________________________________________________________
separable_conv2d_1639 (Separ (None, 32, 32, 32)        688       
_________________________________________________________________
batch_normalization_1316 (Ba (None, 32, 32, 32)        128       
_________________________________________________________________
activation_2059 (Activation) (None, 32, 32, 32)        0         
_________________________________________________________________
dropout_2059 (Dropout)       (None, 32, 32, 32)        0         
_________________________________________________________________
separable_conv2d_1640 (Separ (None, 32, 32, 512)       17184     
_________________________________________________________________
activation_2060 (Activation) (None, 32, 32, 512)       0         
_________________________________________________________________
dropout_2060 (Dropout)       (None, 32, 32, 512)       0         
_________________________________________________________________
separable_conv2d_1641 (Separ (None, 32, 32, 32)        21024     
_________________________________________________________________
batch_normalization_1317 (Ba (None, 32, 32, 32)        128       
_________________________________________________________________
activation_2061 (Activation) (None, 32, 32, 32)        0         
_________________________________________________________________
dropout_2061 (Dropout)       (None, 32, 32, 32)        0         
_________________________________________________________________
max_pooling2d_455 (MaxPoolin (None, 16, 16, 32)        0         
_________________________________________________________________
flatten_259 (Flatten)        (None, 8192)              0         
_________________________________________________________________
dense_679 (Dense)            (None, 100)               819300    
=================================================================
Total params: 941,935
Trainable params: 941,487
Non-trainable params: 448
_________________________________________________________________
