Model: "sequential_200"
_________________________________________________________________
Layer (type)                 Output Shape              Param #   
=================================================================
separable_conv2d_1283 (Separ (None, 32, 32, 64)        283       
_________________________________________________________________
activation_1658 (Activation) (None, 32, 32, 64)        0         
_________________________________________________________________
dropout_1658 (Dropout)       (None, 32, 32, 64)        0         
_________________________________________________________________
separable_conv2d_1284 (Separ (None, 32, 32, 1024)      67136     
_________________________________________________________________
batch_normalization_1037 (Ba (None, 32, 32, 1024)      4096      
_________________________________________________________________
activation_1659 (Activation) (None, 32, 32, 1024)      0         
_________________________________________________________________
dropout_1659 (Dropout)       (None, 32, 32, 1024)      0         
_________________________________________________________________
separable_conv2d_1285 (Separ (None, 32, 32, 128)       140416    
_________________________________________________________________
batch_normalization_1038 (Ba (None, 32, 32, 128)       512       
_________________________________________________________________
activation_1660 (Activation) (None, 32, 32, 128)       0         
_________________________________________________________________
dropout_1660 (Dropout)       (None, 32, 32, 128)       0         
_________________________________________________________________
separable_conv2d_1286 (Separ (None, 32, 32, 32)        5280      
_________________________________________________________________
batch_normalization_1039 (Ba (None, 32, 32, 32)        128       
_________________________________________________________________
activation_1661 (Activation) (None, 32, 32, 32)        0         
_________________________________________________________________
dropout_1661 (Dropout)       (None, 32, 32, 32)        0         
_________________________________________________________________
separable_conv2d_1287 (Separ (None, 32, 32, 512)       17184     
_________________________________________________________________
activation_1662 (Activation) (None, 32, 32, 512)       0         
_________________________________________________________________
dropout_1662 (Dropout)       (None, 32, 32, 512)       0         
_________________________________________________________________
separable_conv2d_1288 (Separ (None, 32, 32, 32)        21024     
_________________________________________________________________
batch_normalization_1040 (Ba (None, 32, 32, 32)        128       
_________________________________________________________________
activation_1663 (Activation) (None, 32, 32, 32)        0         
_________________________________________________________________
dropout_1663 (Dropout)       (None, 32, 32, 32)        0         
_________________________________________________________________
max_pooling2d_354 (MaxPoolin (None, 16, 16, 32)        0         
_________________________________________________________________
flatten_200 (Flatten)        (None, 8192)              0         
_________________________________________________________________
dense_575 (Dense)            (None, 100)               819300    
=================================================================
Total params: 1,075,487
Trainable params: 1,073,055
Non-trainable params: 2,432
_________________________________________________________________
