Model: "sequential_310"
_________________________________________________________________
Layer (type)                 Output Shape              Param #   
=================================================================
separable_conv2d_1895 (Separ (None, 32, 32, 16)        91        
_________________________________________________________________
activation_2339 (Activation) (None, 32, 32, 16)        0         
_________________________________________________________________
dropout_2339 (Dropout)       (None, 32, 32, 16)        0         
_________________________________________________________________
separable_conv2d_1896 (Separ (None, 32, 32, 16)        416       
_________________________________________________________________
batch_normalization_1527 (Ba (None, 32, 32, 16)        64        
_________________________________________________________________
activation_2340 (Activation) (None, 32, 32, 16)        0         
_________________________________________________________________
dropout_2340 (Dropout)       (None, 32, 32, 16)        0         
_________________________________________________________________
separable_conv2d_1897 (Separ (None, 32, 32, 128)       2320      
_________________________________________________________________
batch_normalization_1528 (Ba (None, 32, 32, 128)       512       
_________________________________________________________________
activation_2341 (Activation) (None, 32, 32, 128)       0         
_________________________________________________________________
dropout_2341 (Dropout)       (None, 32, 32, 128)       0         
_________________________________________________________________
separable_conv2d_1898 (Separ (None, 32, 32, 512)       67200     
_________________________________________________________________
activation_2342 (Activation) (None, 32, 32, 512)       0         
_________________________________________________________________
dropout_2342 (Dropout)       (None, 32, 32, 512)       0         
_________________________________________________________________
max_pooling2d_528 (MaxPoolin (None, 16, 16, 512)       0         
_________________________________________________________________
separable_conv2d_1899 (Separ (None, 16, 16, 256)       135936    
_________________________________________________________________
batch_normalization_1529 (Ba (None, 16, 16, 256)       1024      
_________________________________________________________________
activation_2343 (Activation) (None, 16, 16, 256)       0         
_________________________________________________________________
dropout_2343 (Dropout)       (None, 16, 16, 256)       0         
_________________________________________________________________
max_pooling2d_529 (MaxPoolin (None, 8, 8, 256)         0         
_________________________________________________________________
separable_conv2d_1900 (Separ (None, 8, 8, 32)          10528     
_________________________________________________________________
activation_2344 (Activation) (None, 8, 8, 32)          0         
_________________________________________________________________
dropout_2344 (Dropout)       (None, 8, 8, 32)          0         
_________________________________________________________________
max_pooling2d_530 (MaxPoolin (None, 4, 4, 32)          0         
_________________________________________________________________
flatten_310 (Flatten)        (None, 512)               0         
_________________________________________________________________
dense_754 (Dense)            (None, 100)               51300     
=================================================================
Total params: 269,391
Trainable params: 268,591
Non-trainable params: 800
_________________________________________________________________
