Model: "sequential_120"
_________________________________________________________________
Layer (type)                 Output Shape              Param #   
=================================================================
separable_conv2d_798 (Separa (None, 32, 32, 16)        91        
_________________________________________________________________
activation_1037 (Activation) (None, 32, 32, 16)        0         
_________________________________________________________________
dropout_1037 (Dropout)       (None, 32, 32, 16)        0         
_________________________________________________________________
separable_conv2d_799 (Separa (None, 32, 32, 16)        416       
_________________________________________________________________
batch_normalization_640 (Bat (None, 32, 32, 16)        64        
_________________________________________________________________
activation_1038 (Activation) (None, 32, 32, 16)        0         
_________________________________________________________________
dropout_1038 (Dropout)       (None, 32, 32, 16)        0         
_________________________________________________________________
separable_conv2d_800 (Separa (None, 32, 32, 8)         280       
_________________________________________________________________
activation_1039 (Activation) (None, 32, 32, 8)         0         
_________________________________________________________________
dropout_1039 (Dropout)       (None, 32, 32, 8)         0         
_________________________________________________________________
separable_conv2d_801 (Separa (None, 32, 32, 16)        216       
_________________________________________________________________
batch_normalization_641 (Bat (None, 32, 32, 16)        64        
_________________________________________________________________
activation_1040 (Activation) (None, 32, 32, 16)        0         
_________________________________________________________________
dropout_1040 (Dropout)       (None, 32, 32, 16)        0         
_________________________________________________________________
separable_conv2d_802 (Separa (None, 32, 32, 32)        688       
_________________________________________________________________
batch_normalization_642 (Bat (None, 32, 32, 32)        128       
_________________________________________________________________
activation_1041 (Activation) (None, 32, 32, 32)        0         
_________________________________________________________________
dropout_1041 (Dropout)       (None, 32, 32, 32)        0         
_________________________________________________________________
separable_conv2d_803 (Separa (None, 32, 32, 512)       17184     
_________________________________________________________________
activation_1042 (Activation) (None, 32, 32, 512)       0         
_________________________________________________________________
dropout_1042 (Dropout)       (None, 32, 32, 512)       0         
_________________________________________________________________
separable_conv2d_804 (Separa (None, 32, 32, 32)        21024     
_________________________________________________________________
batch_normalization_643 (Bat (None, 32, 32, 32)        128       
_________________________________________________________________
activation_1043 (Activation) (None, 32, 32, 32)        0         
_________________________________________________________________
dropout_1043 (Dropout)       (None, 32, 32, 32)        0         
_________________________________________________________________
max_pooling2d_224 (MaxPoolin (None, 16, 16, 32)        0         
_________________________________________________________________
flatten_120 (Flatten)        (None, 8192)              0         
_________________________________________________________________
dense_359 (Dense)            (None, 100)               819300    
=================================================================
Total params: 859,583
Trainable params: 859,391
Non-trainable params: 192
_________________________________________________________________
