Model: "sequential_162"
_________________________________________________________________
Layer (type)                 Output Shape              Param #   
=================================================================
separable_conv2d_1046 (Separ (None, 32, 32, 64)        283       
_________________________________________________________________
batch_normalization_851 (Bat (None, 32, 32, 64)        256       
_________________________________________________________________
activation_1369 (Activation) (None, 32, 32, 64)        0         
_________________________________________________________________
dropout_1369 (Dropout)       (None, 32, 32, 64)        0         
_________________________________________________________________
separable_conv2d_1047 (Separ (None, 32, 32, 1024)      67136     
_________________________________________________________________
batch_normalization_852 (Bat (None, 32, 32, 1024)      4096      
_________________________________________________________________
activation_1370 (Activation) (None, 32, 32, 1024)      0         
_________________________________________________________________
dropout_1370 (Dropout)       (None, 32, 32, 1024)      0         
_________________________________________________________________
separable_conv2d_1048 (Separ (None, 32, 32, 128)       140416    
_________________________________________________________________
batch_normalization_853 (Bat (None, 32, 32, 128)       512       
_________________________________________________________________
activation_1371 (Activation) (None, 32, 32, 128)       0         
_________________________________________________________________
dropout_1371 (Dropout)       (None, 32, 32, 128)       0         
_________________________________________________________________
separable_conv2d_1049 (Separ (None, 32, 32, 32)        5280      
_________________________________________________________________
batch_normalization_854 (Bat (None, 32, 32, 32)        128       
_________________________________________________________________
activation_1372 (Activation) (None, 32, 32, 32)        0         
_________________________________________________________________
dropout_1372 (Dropout)       (None, 32, 32, 32)        0         
_________________________________________________________________
separable_conv2d_1050 (Separ (None, 32, 32, 32)        1344      
_________________________________________________________________
batch_normalization_855 (Bat (None, 32, 32, 32)        128       
_________________________________________________________________
activation_1373 (Activation) (None, 32, 32, 32)        0         
_________________________________________________________________
dropout_1373 (Dropout)       (None, 32, 32, 32)        0         
_________________________________________________________________
separable_conv2d_1051 (Separ (None, 32, 32, 512)       17184     
_________________________________________________________________
activation_1374 (Activation) (None, 32, 32, 512)       0         
_________________________________________________________________
dropout_1374 (Dropout)       (None, 32, 32, 512)       0         
_________________________________________________________________
separable_conv2d_1052 (Separ (None, 32, 32, 32)        21024     
_________________________________________________________________
batch_normalization_856 (Bat (None, 32, 32, 32)        128       
_________________________________________________________________
activation_1375 (Activation) (None, 32, 32, 32)        0         
_________________________________________________________________
dropout_1375 (Dropout)       (None, 32, 32, 32)        0         
_________________________________________________________________
max_pooling2d_292 (MaxPoolin (None, 16, 16, 32)        0         
_________________________________________________________________
flatten_162 (Flatten)        (None, 8192)              0         
_________________________________________________________________
dense_485 (Dense)            (None, 100)               819300    
=================================================================
Total params: 1,077,215
Trainable params: 1,074,591
Non-trainable params: 2,624
_________________________________________________________________
