Model: "sequential_109"
_________________________________________________________________
Layer (type)                 Output Shape              Param #   
=================================================================
separable_conv2d_729 (Separa (None, 32, 32, 16)        91        
_________________________________________________________________
activation_951 (Activation)  (None, 32, 32, 16)        0         
_________________________________________________________________
dropout_951 (Dropout)        (None, 32, 32, 16)        0         
_________________________________________________________________
separable_conv2d_730 (Separa (None, 32, 32, 16)        416       
_________________________________________________________________
batch_normalization_586 (Bat (None, 32, 32, 16)        64        
_________________________________________________________________
activation_952 (Activation)  (None, 32, 32, 16)        0         
_________________________________________________________________
dropout_952 (Dropout)        (None, 32, 32, 16)        0         
_________________________________________________________________
separable_conv2d_731 (Separa (None, 32, 32, 128)       2320      
_________________________________________________________________
batch_normalization_587 (Bat (None, 32, 32, 128)       512       
_________________________________________________________________
activation_953 (Activation)  (None, 32, 32, 128)       0         
_________________________________________________________________
dropout_953 (Dropout)        (None, 32, 32, 128)       0         
_________________________________________________________________
separable_conv2d_732 (Separa (None, 32, 32, 512)       67200     
_________________________________________________________________
activation_954 (Activation)  (None, 32, 32, 512)       0         
_________________________________________________________________
dropout_954 (Dropout)        (None, 32, 32, 512)       0         
_________________________________________________________________
max_pooling2d_203 (MaxPoolin (None, 16, 16, 512)       0         
_________________________________________________________________
separable_conv2d_733 (Separa (None, 16, 16, 256)       135936    
_________________________________________________________________
batch_normalization_588 (Bat (None, 16, 16, 256)       1024      
_________________________________________________________________
activation_955 (Activation)  (None, 16, 16, 256)       0         
_________________________________________________________________
dropout_955 (Dropout)        (None, 16, 16, 256)       0         
_________________________________________________________________
max_pooling2d_204 (MaxPoolin (None, 8, 8, 256)         0         
_________________________________________________________________
separable_conv2d_734 (Separa (None, 8, 8, 128)         35200     
_________________________________________________________________
batch_normalization_589 (Bat (None, 8, 8, 128)         512       
_________________________________________________________________
activation_956 (Activation)  (None, 8, 8, 128)         0         
_________________________________________________________________
dropout_956 (Dropout)        (None, 8, 8, 128)         0         
_________________________________________________________________
flatten_109 (Flatten)        (None, 8192)              0         
_________________________________________________________________
dense_331 (Dense)            (None, 32)                262176    
_________________________________________________________________
batch_normalization_590 (Bat (None, 32)                128       
_________________________________________________________________
activation_957 (Activation)  (None, 32)                0         
_________________________________________________________________
dropout_957 (Dropout)        (None, 32)                0         
_________________________________________________________________
dense_332 (Dense)            (None, 512)               16896     
_________________________________________________________________
activation_958 (Activation)  (None, 512)               0         
_________________________________________________________________
dropout_958 (Dropout)        (None, 512)               0         
_________________________________________________________________
dense_333 (Dense)            (None, 512)               262656    
_________________________________________________________________
batch_normalization_591 (Bat (None, 512)               2048      
_________________________________________________________________
activation_959 (Activation)  (None, 512)               0         
_________________________________________________________________
dropout_959 (Dropout)        (None, 512)               0         
_________________________________________________________________
dense_334 (Dense)            (None, 100)               51300     
=================================================================
Total params: 838,479
Trainable params: 836,335
Non-trainable params: 2,144
_________________________________________________________________
