Model: "sequential_106"
_________________________________________________________________
Layer (type)                 Output Shape              Param #   
=================================================================
separable_conv2d_707 (Separa (None, 32, 32, 64)        283       
_________________________________________________________________
batch_normalization_569 (Bat (None, 32, 32, 64)        256       
_________________________________________________________________
activation_924 (Activation)  (None, 32, 32, 64)        0         
_________________________________________________________________
dropout_924 (Dropout)        (None, 32, 32, 64)        0         
_________________________________________________________________
separable_conv2d_708 (Separa (None, 32, 32, 1024)      67136     
_________________________________________________________________
batch_normalization_570 (Bat (None, 32, 32, 1024)      4096      
_________________________________________________________________
activation_925 (Activation)  (None, 32, 32, 1024)      0         
_________________________________________________________________
dropout_925 (Dropout)        (None, 32, 32, 1024)      0         
_________________________________________________________________
separable_conv2d_709 (Separa (None, 32, 32, 16)        25616     
_________________________________________________________________
activation_926 (Activation)  (None, 32, 32, 16)        0         
_________________________________________________________________
dropout_926 (Dropout)        (None, 32, 32, 16)        0         
_________________________________________________________________
separable_conv2d_710 (Separa (None, 32, 32, 128)       2320      
_________________________________________________________________
batch_normalization_571 (Bat (None, 32, 32, 128)       512       
_________________________________________________________________
activation_927 (Activation)  (None, 32, 32, 128)       0         
_________________________________________________________________
dropout_927 (Dropout)        (None, 32, 32, 128)       0         
_________________________________________________________________
separable_conv2d_711 (Separa (None, 32, 32, 512)       67200     
_________________________________________________________________
activation_928 (Activation)  (None, 32, 32, 512)       0         
_________________________________________________________________
dropout_928 (Dropout)        (None, 32, 32, 512)       0         
_________________________________________________________________
max_pooling2d_197 (MaxPoolin (None, 16, 16, 512)       0         
_________________________________________________________________
separable_conv2d_712 (Separa (None, 16, 16, 256)       135936    
_________________________________________________________________
batch_normalization_572 (Bat (None, 16, 16, 256)       1024      
_________________________________________________________________
activation_929 (Activation)  (None, 16, 16, 256)       0         
_________________________________________________________________
dropout_929 (Dropout)        (None, 16, 16, 256)       0         
_________________________________________________________________
max_pooling2d_198 (MaxPoolin (None, 8, 8, 256)         0         
_________________________________________________________________
separable_conv2d_713 (Separa (None, 8, 8, 128)         35200     
_________________________________________________________________
batch_normalization_573 (Bat (None, 8, 8, 128)         512       
_________________________________________________________________
activation_930 (Activation)  (None, 8, 8, 128)         0         
_________________________________________________________________
dropout_930 (Dropout)        (None, 8, 8, 128)         0         
_________________________________________________________________
flatten_106 (Flatten)        (None, 8192)              0         
_________________________________________________________________
dense_323 (Dense)            (None, 32)                262176    
_________________________________________________________________
batch_normalization_574 (Bat (None, 32)                128       
_________________________________________________________________
activation_931 (Activation)  (None, 32)                0         
_________________________________________________________________
dropout_931 (Dropout)        (None, 32)                0         
_________________________________________________________________
dense_324 (Dense)            (None, 512)               16896     
_________________________________________________________________
activation_932 (Activation)  (None, 512)               0         
_________________________________________________________________
dropout_932 (Dropout)        (None, 512)               0         
_________________________________________________________________
dense_325 (Dense)            (None, 512)               262656    
_________________________________________________________________
batch_normalization_575 (Bat (None, 512)               2048      
_________________________________________________________________
activation_933 (Activation)  (None, 512)               0         
_________________________________________________________________
dropout_933 (Dropout)        (None, 512)               0         
_________________________________________________________________
dense_326 (Dense)            (None, 100)               51300     
=================================================================
Total params: 935,295
Trainable params: 931,007
Non-trainable params: 4,288
_________________________________________________________________
