Model: "sequential_168"
_________________________________________________________________
Layer (type)                 Output Shape              Param #   
=================================================================
separable_conv2d_1085 (Separ (None, 32, 32, 16)        91        
_________________________________________________________________
activation_1416 (Activation) (None, 32, 32, 16)        0         
_________________________________________________________________
dropout_1416 (Dropout)       (None, 32, 32, 16)        0         
_________________________________________________________________
separable_conv2d_1086 (Separ (None, 32, 32, 16)        416       
_________________________________________________________________
batch_normalization_881 (Bat (None, 32, 32, 16)        64        
_________________________________________________________________
activation_1417 (Activation) (None, 32, 32, 16)        0         
_________________________________________________________________
dropout_1417 (Dropout)       (None, 32, 32, 16)        0         
_________________________________________________________________
separable_conv2d_1087 (Separ (None, 32, 32, 128)       2320      
_________________________________________________________________
batch_normalization_882 (Bat (None, 32, 32, 128)       512       
_________________________________________________________________
activation_1418 (Activation) (None, 32, 32, 128)       0         
_________________________________________________________________
dropout_1418 (Dropout)       (None, 32, 32, 128)       0         
_________________________________________________________________
separable_conv2d_1088 (Separ (None, 32, 32, 512)       67200     
_________________________________________________________________
activation_1419 (Activation) (None, 32, 32, 512)       0         
_________________________________________________________________
dropout_1419 (Dropout)       (None, 32, 32, 512)       0         
_________________________________________________________________
max_pooling2d_300 (MaxPoolin (None, 16, 16, 512)       0         
_________________________________________________________________
separable_conv2d_1089 (Separ (None, 16, 16, 256)       135936    
_________________________________________________________________
batch_normalization_883 (Bat (None, 16, 16, 256)       1024      
_________________________________________________________________
activation_1420 (Activation) (None, 16, 16, 256)       0         
_________________________________________________________________
dropout_1420 (Dropout)       (None, 16, 16, 256)       0         
_________________________________________________________________
max_pooling2d_301 (MaxPoolin (None, 8, 8, 256)         0         
_________________________________________________________________
separable_conv2d_1090 (Separ (None, 8, 8, 64)          18752     
_________________________________________________________________
activation_1421 (Activation) (None, 8, 8, 64)          0         
_________________________________________________________________
dropout_1421 (Dropout)       (None, 8, 8, 64)          0         
_________________________________________________________________
max_pooling2d_302 (MaxPoolin (None, 4, 4, 64)          0         
_________________________________________________________________
separable_conv2d_1091 (Separ (None, 4, 4, 128)         8896      
_________________________________________________________________
batch_normalization_884 (Bat (None, 4, 4, 128)         512       
_________________________________________________________________
activation_1422 (Activation) (None, 4, 4, 128)         0         
_________________________________________________________________
dropout_1422 (Dropout)       (None, 4, 4, 128)         0         
_________________________________________________________________
flatten_168 (Flatten)        (None, 2048)              0         
_________________________________________________________________
dense_499 (Dense)            (None, 256)               524544    
_________________________________________________________________
batch_normalization_885 (Bat (None, 256)               1024      
_________________________________________________________________
activation_1423 (Activation) (None, 256)               0         
_________________________________________________________________
dropout_1423 (Dropout)       (None, 256)               0         
_________________________________________________________________
dense_500 (Dense)            (None, 100)               25700     
=================================================================
Total params: 786,991
Trainable params: 785,423
Non-trainable params: 1,568
_________________________________________________________________
