Model: "sequential_86"
_________________________________________________________________
Layer (type)                 Output Shape              Param #   
=================================================================
separable_conv2d_577 (Separa (None, 32, 32, 64)        283       
_________________________________________________________________
activation_752 (Activation)  (None, 32, 32, 64)        0         
_________________________________________________________________
dropout_752 (Dropout)        (None, 32, 32, 64)        0         
_________________________________________________________________
separable_conv2d_578 (Separa (None, 32, 32, 16)        1616      
_________________________________________________________________
batch_normalization_458 (Bat (None, 32, 32, 16)        64        
_________________________________________________________________
activation_753 (Activation)  (None, 32, 32, 16)        0         
_________________________________________________________________
dropout_753 (Dropout)        (None, 32, 32, 16)        0         
_________________________________________________________________
separable_conv2d_579 (Separa (None, 32, 32, 128)       2320      
_________________________________________________________________
batch_normalization_459 (Bat (None, 32, 32, 128)       512       
_________________________________________________________________
activation_754 (Activation)  (None, 32, 32, 128)       0         
_________________________________________________________________
dropout_754 (Dropout)        (None, 32, 32, 128)       0         
_________________________________________________________________
separable_conv2d_580 (Separa (None, 32, 32, 512)       67200     
_________________________________________________________________
activation_755 (Activation)  (None, 32, 32, 512)       0         
_________________________________________________________________
dropout_755 (Dropout)        (None, 32, 32, 512)       0         
_________________________________________________________________
max_pooling2d_163 (MaxPoolin (None, 16, 16, 512)       0         
_________________________________________________________________
separable_conv2d_581 (Separa (None, 16, 16, 256)       135936    
_________________________________________________________________
batch_normalization_460 (Bat (None, 16, 16, 256)       1024      
_________________________________________________________________
activation_756 (Activation)  (None, 16, 16, 256)       0         
_________________________________________________________________
dropout_756 (Dropout)        (None, 16, 16, 256)       0         
_________________________________________________________________
separable_conv2d_582 (Separa (None, 16, 16, 64)        18752     
_________________________________________________________________
activation_757 (Activation)  (None, 16, 16, 64)        0         
_________________________________________________________________
dropout_757 (Dropout)        (None, 16, 16, 64)        0         
_________________________________________________________________
max_pooling2d_164 (MaxPoolin (None, 8, 8, 64)          0         
_________________________________________________________________
flatten_86 (Flatten)         (None, 4096)              0         
_________________________________________________________________
dense_261 (Dense)            (None, 256)               1048832   
_________________________________________________________________
batch_normalization_461 (Bat (None, 256)               1024      
_________________________________________________________________
activation_758 (Activation)  (None, 256)               0         
_________________________________________________________________
dropout_758 (Dropout)        (None, 256)               0         
_________________________________________________________________
dense_262 (Dense)            (None, 256)               65792     
_________________________________________________________________
batch_normalization_462 (Bat (None, 256)               1024      
_________________________________________________________________
activation_759 (Activation)  (None, 256)               0         
_________________________________________________________________
dropout_759 (Dropout)        (None, 256)               0         
_________________________________________________________________
dense_263 (Dense)            (None, 64)                16448     
_________________________________________________________________
batch_normalization_463 (Bat (None, 64)                256       
_________________________________________________________________
activation_760 (Activation)  (None, 64)                0         
_________________________________________________________________
dropout_760 (Dropout)        (None, 64)                0         
_________________________________________________________________
dense_264 (Dense)            (None, 100)               6500      
=================================================================
Total params: 1,367,583
Trainable params: 1,365,631
Non-trainable params: 1,952
_________________________________________________________________
