Model: "sequential_218"
_________________________________________________________________
Layer (type)                 Output Shape              Param #   
=================================================================
separable_conv2d_1397 (Separ (None, 32, 32, 64)        283       
_________________________________________________________________
batch_normalization_1131 (Ba (None, 32, 32, 64)        256       
_________________________________________________________________
activation_1794 (Activation) (None, 32, 32, 64)        0         
_________________________________________________________________
dropout_1794 (Dropout)       (None, 32, 32, 64)        0         
_________________________________________________________________
separable_conv2d_1398 (Separ (None, 32, 32, 1024)      67136     
_________________________________________________________________
batch_normalization_1132 (Ba (None, 32, 32, 1024)      4096      
_________________________________________________________________
activation_1795 (Activation) (None, 32, 32, 1024)      0         
_________________________________________________________________
dropout_1795 (Dropout)       (None, 32, 32, 1024)      0         
_________________________________________________________________
separable_conv2d_1399 (Separ (None, 32, 32, 128)       140416    
_________________________________________________________________
batch_normalization_1133 (Ba (None, 32, 32, 128)       512       
_________________________________________________________________
activation_1796 (Activation) (None, 32, 32, 128)       0         
_________________________________________________________________
dropout_1796 (Dropout)       (None, 32, 32, 128)       0         
_________________________________________________________________
separable_conv2d_1400 (Separ (None, 32, 32, 512)       67200     
_________________________________________________________________
activation_1797 (Activation) (None, 32, 32, 512)       0         
_________________________________________________________________
dropout_1797 (Dropout)       (None, 32, 32, 512)       0         
_________________________________________________________________
max_pooling2d_384 (MaxPoolin (None, 16, 16, 512)       0         
_________________________________________________________________
separable_conv2d_1401 (Separ (None, 16, 16, 64)        37440     
_________________________________________________________________
activation_1798 (Activation) (None, 16, 16, 64)        0         
_________________________________________________________________
dropout_1798 (Dropout)       (None, 16, 16, 64)        0         
_________________________________________________________________
max_pooling2d_385 (MaxPoolin (None, 8, 8, 64)          0         
_________________________________________________________________
separable_conv2d_1402 (Separ (None, 8, 8, 128)         8896      
_________________________________________________________________
batch_normalization_1134 (Ba (None, 8, 8, 128)         512       
_________________________________________________________________
activation_1799 (Activation) (None, 8, 8, 128)         0         
_________________________________________________________________
dropout_1799 (Dropout)       (None, 8, 8, 128)         0         
_________________________________________________________________
flatten_218 (Flatten)        (None, 8192)              0         
_________________________________________________________________
dense_615 (Dense)            (None, 512)               4194816   
_________________________________________________________________
activation_1800 (Activation) (None, 512)               0         
_________________________________________________________________
dropout_1800 (Dropout)       (None, 512)               0         
_________________________________________________________________
dense_616 (Dense)            (None, 512)               262656    
_________________________________________________________________
batch_normalization_1135 (Ba (None, 512)               2048      
_________________________________________________________________
activation_1801 (Activation) (None, 512)               0         
_________________________________________________________________
dropout_1801 (Dropout)       (None, 512)               0         
_________________________________________________________________
dense_617 (Dense)            (None, 100)               51300     
=================================================================
Total params: 4,837,567
Trainable params: 4,833,855
Non-trainable params: 3,712
_________________________________________________________________
