Model: "sequential_388"
_________________________________________________________________
Layer (type)                 Output Shape              Param #   
=================================================================
separable_conv2d_2262 (Separ (None, 32, 32, 16)        91        
_________________________________________________________________
activation_2720 (Activation) (None, 32, 32, 16)        0         
_________________________________________________________________
dropout_2720 (Dropout)       (None, 32, 32, 16)        0         
_________________________________________________________________
separable_conv2d_2263 (Separ (None, 32, 32, 16)        416       
_________________________________________________________________
batch_normalization_1841 (Ba (None, 32, 32, 16)        64        
_________________________________________________________________
activation_2721 (Activation) (None, 32, 32, 16)        0         
_________________________________________________________________
dropout_2721 (Dropout)       (None, 32, 32, 16)        0         
_________________________________________________________________
separable_conv2d_2264 (Separ (None, 32, 32, 128)       2320      
_________________________________________________________________
batch_normalization_1842 (Ba (None, 32, 32, 128)       512       
_________________________________________________________________
activation_2722 (Activation) (None, 32, 32, 128)       0         
_________________________________________________________________
dropout_2722 (Dropout)       (None, 32, 32, 128)       0         
_________________________________________________________________
separable_conv2d_2265 (Separ (None, 32, 32, 256)       34176     
_________________________________________________________________
batch_normalization_1843 (Ba (None, 32, 32, 256)       1024      
_________________________________________________________________
activation_2723 (Activation) (None, 32, 32, 256)       0         
_________________________________________________________________
dropout_2723 (Dropout)       (None, 32, 32, 256)       0         
_________________________________________________________________
max_pooling2d_668 (MaxPoolin (None, 16, 16, 256)       0         
_________________________________________________________________
separable_conv2d_2266 (Separ (None, 16, 16, 128)       35200     
_________________________________________________________________
batch_normalization_1844 (Ba (None, 16, 16, 128)       512       
_________________________________________________________________
activation_2724 (Activation) (None, 16, 16, 128)       0         
_________________________________________________________________
dropout_2724 (Dropout)       (None, 16, 16, 128)       0         
_________________________________________________________________
max_pooling2d_669 (MaxPoolin (None, 8, 8, 128)         0         
_________________________________________________________________
flatten_388 (Flatten)        (None, 8192)              0         
_________________________________________________________________
dense_846 (Dense)            (None, 100)               819300    
=================================================================
Total params: 893,615
Trainable params: 892,559
Non-trainable params: 1,056
_________________________________________________________________
