Model: "sequential_69"
_________________________________________________________________
Layer (type)                 Output Shape              Param #   
=================================================================
separable_conv2d_471 (Separa (None, 32, 32, 16)        91        
_________________________________________________________________
activation_614 (Activation)  (None, 32, 32, 16)        0         
_________________________________________________________________
dropout_614 (Dropout)        (None, 32, 32, 16)        0         
_________________________________________________________________
separable_conv2d_472 (Separa (None, 32, 32, 16)        416       
_________________________________________________________________
batch_normalization_367 (Bat (None, 32, 32, 16)        64        
_________________________________________________________________
activation_615 (Activation)  (None, 32, 32, 16)        0         
_________________________________________________________________
dropout_615 (Dropout)        (None, 32, 32, 16)        0         
_________________________________________________________________
separable_conv2d_473 (Separa (None, 32, 32, 128)       2320      
_________________________________________________________________
batch_normalization_368 (Bat (None, 32, 32, 128)       512       
_________________________________________________________________
activation_616 (Activation)  (None, 32, 32, 128)       0         
_________________________________________________________________
dropout_616 (Dropout)        (None, 32, 32, 128)       0         
_________________________________________________________________
separable_conv2d_474 (Separa (None, 32, 32, 512)       67200     
_________________________________________________________________
activation_617 (Activation)  (None, 32, 32, 512)       0         
_________________________________________________________________
dropout_617 (Dropout)        (None, 32, 32, 512)       0         
_________________________________________________________________
max_pooling2d_133 (MaxPoolin (None, 16, 16, 512)       0         
_________________________________________________________________
separable_conv2d_475 (Separa (None, 16, 16, 256)       135936    
_________________________________________________________________
batch_normalization_369 (Bat (None, 16, 16, 256)       1024      
_________________________________________________________________
activation_618 (Activation)  (None, 16, 16, 256)       0         
_________________________________________________________________
dropout_618 (Dropout)        (None, 16, 16, 256)       0         
_________________________________________________________________
max_pooling2d_134 (MaxPoolin (None, 8, 8, 256)         0         
_________________________________________________________________
separable_conv2d_476 (Separa (None, 8, 8, 128)         35200     
_________________________________________________________________
batch_normalization_370 (Bat (None, 8, 8, 128)         512       
_________________________________________________________________
activation_619 (Activation)  (None, 8, 8, 128)         0         
_________________________________________________________________
dropout_619 (Dropout)        (None, 8, 8, 128)         0         
_________________________________________________________________
flatten_69 (Flatten)         (None, 8192)              0         
_________________________________________________________________
dense_212 (Dense)            (None, 100)               819300    
=================================================================
Total params: 1,062,575
Trainable params: 1,061,519
Non-trainable params: 1,056
_________________________________________________________________
