Model: "sequential_189"
_________________________________________________________________
Layer (type)                 Output Shape              Param #   
=================================================================
separable_conv2d_1215 (Separ (None, 32, 32, 16)        91        
_________________________________________________________________
activation_1576 (Activation) (None, 32, 32, 16)        0         
_________________________________________________________________
dropout_1576 (Dropout)       (None, 32, 32, 16)        0         
_________________________________________________________________
separable_conv2d_1216 (Separ (None, 32, 32, 16)        416       
_________________________________________________________________
batch_normalization_982 (Bat (None, 32, 32, 16)        64        
_________________________________________________________________
activation_1577 (Activation) (None, 32, 32, 16)        0         
_________________________________________________________________
dropout_1577 (Dropout)       (None, 32, 32, 16)        0         
_________________________________________________________________
separable_conv2d_1217 (Separ (None, 32, 32, 128)       2320      
_________________________________________________________________
batch_normalization_983 (Bat (None, 32, 32, 128)       512       
_________________________________________________________________
activation_1578 (Activation) (None, 32, 32, 128)       0         
_________________________________________________________________
dropout_1578 (Dropout)       (None, 32, 32, 128)       0         
_________________________________________________________________
separable_conv2d_1218 (Separ (None, 32, 32, 512)       67200     
_________________________________________________________________
activation_1579 (Activation) (None, 32, 32, 512)       0         
_________________________________________________________________
dropout_1579 (Dropout)       (None, 32, 32, 512)       0         
_________________________________________________________________
max_pooling2d_337 (MaxPoolin (None, 16, 16, 512)       0         
_________________________________________________________________
separable_conv2d_1219 (Separ (None, 16, 16, 256)       135936    
_________________________________________________________________
batch_normalization_984 (Bat (None, 16, 16, 256)       1024      
_________________________________________________________________
activation_1580 (Activation) (None, 16, 16, 256)       0         
_________________________________________________________________
dropout_1580 (Dropout)       (None, 16, 16, 256)       0         
_________________________________________________________________
max_pooling2d_338 (MaxPoolin (None, 8, 8, 256)         0         
_________________________________________________________________
separable_conv2d_1220 (Separ (None, 8, 8, 128)         35200     
_________________________________________________________________
batch_normalization_985 (Bat (None, 8, 8, 128)         512       
_________________________________________________________________
activation_1581 (Activation) (None, 8, 8, 128)         0         
_________________________________________________________________
dropout_1581 (Dropout)       (None, 8, 8, 128)         0         
_________________________________________________________________
flatten_189 (Flatten)        (None, 8192)              0         
_________________________________________________________________
dense_550 (Dense)            (None, 512)               4194816   
_________________________________________________________________
activation_1582 (Activation) (None, 512)               0         
_________________________________________________________________
dropout_1582 (Dropout)       (None, 512)               0         
_________________________________________________________________
dense_551 (Dense)            (None, 512)               262656    
_________________________________________________________________
batch_normalization_986 (Bat (None, 512)               2048      
_________________________________________________________________
activation_1583 (Activation) (None, 512)               0         
_________________________________________________________________
dropout_1583 (Dropout)       (None, 512)               0         
_________________________________________________________________
dense_552 (Dense)            (None, 100)               51300     
=================================================================
Total params: 4,754,095
Trainable params: 4,752,015
Non-trainable params: 2,080
_________________________________________________________________
