Model: "sequential_95"
_________________________________________________________________
Layer (type)                 Output Shape              Param #   
=================================================================
separable_conv2d_634 (Separa (None, 32, 32, 16)        91        
_________________________________________________________________
activation_830 (Activation)  (None, 32, 32, 16)        0         
_________________________________________________________________
dropout_830 (Dropout)        (None, 32, 32, 16)        0         
_________________________________________________________________
separable_conv2d_635 (Separa (None, 32, 32, 16)        416       
_________________________________________________________________
batch_normalization_506 (Bat (None, 32, 32, 16)        64        
_________________________________________________________________
activation_831 (Activation)  (None, 32, 32, 16)        0         
_________________________________________________________________
dropout_831 (Dropout)        (None, 32, 32, 16)        0         
_________________________________________________________________
separable_conv2d_636 (Separa (None, 32, 32, 256)       4496      
_________________________________________________________________
batch_normalization_507 (Bat (None, 32, 32, 256)       1024      
_________________________________________________________________
activation_832 (Activation)  (None, 32, 32, 256)       0         
_________________________________________________________________
dropout_832 (Dropout)        (None, 32, 32, 256)       0         
_________________________________________________________________
max_pooling2d_177 (MaxPoolin (None, 16, 16, 256)       0         
_________________________________________________________________
separable_conv2d_637 (Separa (None, 16, 16, 32)        10528     
_________________________________________________________________
batch_normalization_508 (Bat (None, 16, 16, 32)        128       
_________________________________________________________________
activation_833 (Activation)  (None, 16, 16, 32)        0         
_________________________________________________________________
dropout_833 (Dropout)        (None, 16, 16, 32)        0         
_________________________________________________________________
max_pooling2d_178 (MaxPoolin (None, 8, 8, 32)          0         
_________________________________________________________________
separable_conv2d_638 (Separa (None, 8, 8, 128)         4512      
_________________________________________________________________
batch_normalization_509 (Bat (None, 8, 8, 128)         512       
_________________________________________________________________
activation_834 (Activation)  (None, 8, 8, 128)         0         
_________________________________________________________________
dropout_834 (Dropout)        (None, 8, 8, 128)         0         
_________________________________________________________________
flatten_95 (Flatten)         (None, 8192)              0         
_________________________________________________________________
dense_291 (Dense)            (None, 512)               4194816   
_________________________________________________________________
activation_835 (Activation)  (None, 512)               0         
_________________________________________________________________
dropout_835 (Dropout)        (None, 512)               0         
_________________________________________________________________
dense_292 (Dense)            (None, 512)               262656    
_________________________________________________________________
batch_normalization_510 (Bat (None, 512)               2048      
_________________________________________________________________
activation_836 (Activation)  (None, 512)               0         
_________________________________________________________________
dropout_836 (Dropout)        (None, 512)               0         
_________________________________________________________________
dense_293 (Dense)            (None, 100)               51300     
=================================================================
Total params: 4,532,591
Trainable params: 4,530,703
Non-trainable params: 1,888
_________________________________________________________________
