Model: "sequential_157"
_________________________________________________________________
Layer (type)                 Output Shape              Param #   
=================================================================
separable_conv2d_1015 (Separ (None, 32, 32, 64)        283       
_________________________________________________________________
batch_normalization_827 (Bat (None, 32, 32, 64)        256       
_________________________________________________________________
activation_1332 (Activation) (None, 32, 32, 64)        0         
_________________________________________________________________
dropout_1332 (Dropout)       (None, 32, 32, 64)        0         
_________________________________________________________________
separable_conv2d_1016 (Separ (None, 32, 32, 1024)      67136     
_________________________________________________________________
batch_normalization_828 (Bat (None, 32, 32, 1024)      4096      
_________________________________________________________________
activation_1333 (Activation) (None, 32, 32, 1024)      0         
_________________________________________________________________
dropout_1333 (Dropout)       (None, 32, 32, 1024)      0         
_________________________________________________________________
separable_conv2d_1017 (Separ (None, 32, 32, 16)        25616     
_________________________________________________________________
activation_1334 (Activation) (None, 32, 32, 16)        0         
_________________________________________________________________
dropout_1334 (Dropout)       (None, 32, 32, 16)        0         
_________________________________________________________________
max_pooling2d_284 (MaxPoolin (None, 16, 16, 16)        0         
_________________________________________________________________
separable_conv2d_1018 (Separ (None, 16, 16, 64)        1232      
_________________________________________________________________
batch_normalization_829 (Bat (None, 16, 16, 64)        256       
_________________________________________________________________
activation_1335 (Activation) (None, 16, 16, 64)        0         
_________________________________________________________________
dropout_1335 (Dropout)       (None, 16, 16, 64)        0         
_________________________________________________________________
separable_conv2d_1019 (Separ (None, 16, 16, 32)        2656      
_________________________________________________________________
batch_normalization_830 (Bat (None, 16, 16, 32)        128       
_________________________________________________________________
activation_1336 (Activation) (None, 16, 16, 32)        0         
_________________________________________________________________
dropout_1336 (Dropout)       (None, 16, 16, 32)        0         
_________________________________________________________________
separable_conv2d_1020 (Separ (None, 16, 16, 512)       17184     
_________________________________________________________________
activation_1337 (Activation) (None, 16, 16, 512)       0         
_________________________________________________________________
dropout_1337 (Dropout)       (None, 16, 16, 512)       0         
_________________________________________________________________
separable_conv2d_1021 (Separ (None, 16, 16, 32)        21024     
_________________________________________________________________
batch_normalization_831 (Bat (None, 16, 16, 32)        128       
_________________________________________________________________
activation_1338 (Activation) (None, 16, 16, 32)        0         
_________________________________________________________________
dropout_1338 (Dropout)       (None, 16, 16, 32)        0         
_________________________________________________________________
max_pooling2d_285 (MaxPoolin (None, 8, 8, 32)          0         
_________________________________________________________________
flatten_157 (Flatten)        (None, 2048)              0         
_________________________________________________________________
dense_474 (Dense)            (None, 100)               204900    
=================================================================
Total params: 344,895
Trainable params: 342,463
Non-trainable params: 2,432
_________________________________________________________________
