Model: "sequential_216"
_________________________________________________________________
Layer (type)                 Output Shape              Param #   
=================================================================
separable_conv2d_1385 (Separ (None, 32, 32, 64)        283       
_________________________________________________________________
batch_normalization_1121 (Ba (None, 32, 32, 64)        256       
_________________________________________________________________
activation_1780 (Activation) (None, 32, 32, 64)        0         
_________________________________________________________________
dropout_1780 (Dropout)       (None, 32, 32, 64)        0         
_________________________________________________________________
separable_conv2d_1386 (Separ (None, 32, 32, 1024)      67136     
_________________________________________________________________
batch_normalization_1122 (Ba (None, 32, 32, 1024)      4096      
_________________________________________________________________
activation_1781 (Activation) (None, 32, 32, 1024)      0         
_________________________________________________________________
dropout_1781 (Dropout)       (None, 32, 32, 1024)      0         
_________________________________________________________________
separable_conv2d_1387 (Separ (None, 32, 32, 128)       140416    
_________________________________________________________________
batch_normalization_1123 (Ba (None, 32, 32, 128)       512       
_________________________________________________________________
activation_1782 (Activation) (None, 32, 32, 128)       0         
_________________________________________________________________
dropout_1782 (Dropout)       (None, 32, 32, 128)       0         
_________________________________________________________________
separable_conv2d_1388 (Separ (None, 32, 32, 512)       67200     
_________________________________________________________________
activation_1783 (Activation) (None, 32, 32, 512)       0         
_________________________________________________________________
dropout_1783 (Dropout)       (None, 32, 32, 512)       0         
_________________________________________________________________
max_pooling2d_380 (MaxPoolin (None, 16, 16, 512)       0         
_________________________________________________________________
separable_conv2d_1389 (Separ (None, 16, 16, 512)       267264    
_________________________________________________________________
activation_1784 (Activation) (None, 16, 16, 512)       0         
_________________________________________________________________
dropout_1784 (Dropout)       (None, 16, 16, 512)       0         
_________________________________________________________________
separable_conv2d_1390 (Separ (None, 16, 16, 256)       135936    
_________________________________________________________________
batch_normalization_1124 (Ba (None, 16, 16, 256)       1024      
_________________________________________________________________
activation_1785 (Activation) (None, 16, 16, 256)       0         
_________________________________________________________________
dropout_1785 (Dropout)       (None, 16, 16, 256)       0         
_________________________________________________________________
max_pooling2d_381 (MaxPoolin (None, 8, 8, 256)         0         
_________________________________________________________________
flatten_216 (Flatten)        (None, 16384)             0         
_________________________________________________________________
dense_611 (Dense)            (None, 512)               8389120   
_________________________________________________________________
batch_normalization_1125 (Ba (None, 512)               2048      
_________________________________________________________________
activation_1786 (Activation) (None, 512)               0         
_________________________________________________________________
dropout_1786 (Dropout)       (None, 512)               0         
_________________________________________________________________
dense_612 (Dense)            (None, 100)               51300     
=================================================================
Total params: 9,126,591
Trainable params: 9,122,623
Non-trainable params: 3,968
_________________________________________________________________
