Model: "sequential_253"
_________________________________________________________________
Layer (type)                 Output Shape              Param #   
=================================================================
separable_conv2d_1602 (Separ (None, 32, 32, 16)        91        
_________________________________________________________________
activation_2021 (Activation) (None, 32, 32, 16)        0         
_________________________________________________________________
dropout_2021 (Dropout)       (None, 32, 32, 16)        0         
_________________________________________________________________
separable_conv2d_1603 (Separ (None, 32, 32, 16)        416       
_________________________________________________________________
batch_normalization_1287 (Ba (None, 32, 32, 16)        64        
_________________________________________________________________
activation_2022 (Activation) (None, 32, 32, 16)        0         
_________________________________________________________________
dropout_2022 (Dropout)       (None, 32, 32, 16)        0         
_________________________________________________________________
separable_conv2d_1604 (Separ (None, 32, 32, 128)       2320      
_________________________________________________________________
batch_normalization_1288 (Ba (None, 32, 32, 128)       512       
_________________________________________________________________
activation_2023 (Activation) (None, 32, 32, 128)       0         
_________________________________________________________________
dropout_2023 (Dropout)       (None, 32, 32, 128)       0         
_________________________________________________________________
separable_conv2d_1605 (Separ (None, 32, 32, 512)       67200     
_________________________________________________________________
activation_2024 (Activation) (None, 32, 32, 512)       0         
_________________________________________________________________
dropout_2024 (Dropout)       (None, 32, 32, 512)       0         
_________________________________________________________________
max_pooling2d_446 (MaxPoolin (None, 16, 16, 512)       0         
_________________________________________________________________
separable_conv2d_1606 (Separ (None, 16, 16, 256)       135936    
_________________________________________________________________
batch_normalization_1289 (Ba (None, 16, 16, 256)       1024      
_________________________________________________________________
activation_2025 (Activation) (None, 16, 16, 256)       0         
_________________________________________________________________
dropout_2025 (Dropout)       (None, 16, 16, 256)       0         
_________________________________________________________________
max_pooling2d_447 (MaxPoolin (None, 8, 8, 256)         0         
_________________________________________________________________
flatten_253 (Flatten)        (None, 16384)             0         
_________________________________________________________________
dense_672 (Dense)            (None, 100)               1638500   
=================================================================
Total params: 1,846,063
Trainable params: 1,845,263
Non-trainable params: 800
_________________________________________________________________
