Model: "sequential_235"
_________________________________________________________________
Layer (type)                 Output Shape              Param #   
=================================================================
separable_conv2d_1500 (Separ (None, 32, 32, 64)        283       
_________________________________________________________________
batch_normalization_1207 (Ba (None, 32, 32, 64)        256       
_________________________________________________________________
activation_1910 (Activation) (None, 32, 32, 64)        0         
_________________________________________________________________
dropout_1910 (Dropout)       (None, 32, 32, 64)        0         
_________________________________________________________________
separable_conv2d_1501 (Separ (None, 32, 32, 1024)      67136     
_________________________________________________________________
batch_normalization_1208 (Ba (None, 32, 32, 1024)      4096      
_________________________________________________________________
activation_1911 (Activation) (None, 32, 32, 1024)      0         
_________________________________________________________________
dropout_1911 (Dropout)       (None, 32, 32, 1024)      0         
_________________________________________________________________
separable_conv2d_1502 (Separ (None, 32, 32, 128)       140416    
_________________________________________________________________
batch_normalization_1209 (Ba (None, 32, 32, 128)       512       
_________________________________________________________________
activation_1912 (Activation) (None, 32, 32, 128)       0         
_________________________________________________________________
dropout_1912 (Dropout)       (None, 32, 32, 128)       0         
_________________________________________________________________
separable_conv2d_1503 (Separ (None, 32, 32, 512)       67200     
_________________________________________________________________
activation_1913 (Activation) (None, 32, 32, 512)       0         
_________________________________________________________________
dropout_1913 (Dropout)       (None, 32, 32, 512)       0         
_________________________________________________________________
max_pooling2d_414 (MaxPoolin (None, 16, 16, 512)       0         
_________________________________________________________________
separable_conv2d_1504 (Separ (None, 16, 16, 512)       267264    
_________________________________________________________________
activation_1914 (Activation) (None, 16, 16, 512)       0         
_________________________________________________________________
dropout_1914 (Dropout)       (None, 16, 16, 512)       0         
_________________________________________________________________
separable_conv2d_1505 (Separ (None, 16, 16, 256)       135936    
_________________________________________________________________
batch_normalization_1210 (Ba (None, 16, 16, 256)       1024      
_________________________________________________________________
activation_1915 (Activation) (None, 16, 16, 256)       0         
_________________________________________________________________
dropout_1915 (Dropout)       (None, 16, 16, 256)       0         
_________________________________________________________________
max_pooling2d_415 (MaxPoolin (None, 8, 8, 256)         0         
_________________________________________________________________
flatten_235 (Flatten)        (None, 16384)             0         
_________________________________________________________________
dense_645 (Dense)            (None, 100)               1638500   
=================================================================
Total params: 2,322,623
Trainable params: 2,319,679
Non-trainable params: 2,944
_________________________________________________________________
