Model: "sequential_55"
_________________________________________________________________
Layer (type)                 Output Shape              Param #   
=================================================================
separable_conv2d_380 (Separa (None, 32, 32, 64)        283       
_________________________________________________________________
activation_494 (Activation)  (None, 32, 32, 64)        0         
_________________________________________________________________
dropout_494 (Dropout)        (None, 32, 32, 64)        0         
_________________________________________________________________
separable_conv2d_381 (Separa (None, 32, 32, 1024)      67136     
_________________________________________________________________
batch_normalization_291 (Bat (None, 32, 32, 1024)      4096      
_________________________________________________________________
activation_495 (Activation)  (None, 32, 32, 1024)      0         
_________________________________________________________________
dropout_495 (Dropout)        (None, 32, 32, 1024)      0         
_________________________________________________________________
separable_conv2d_382 (Separa (None, 32, 32, 1024)      1058816   
_________________________________________________________________
batch_normalization_292 (Bat (None, 32, 32, 1024)      4096      
_________________________________________________________________
activation_496 (Activation)  (None, 32, 32, 1024)      0         
_________________________________________________________________
dropout_496 (Dropout)        (None, 32, 32, 1024)      0         
_________________________________________________________________
separable_conv2d_383 (Separa (None, 32, 32, 128)       140416    
_________________________________________________________________
batch_normalization_293 (Bat (None, 32, 32, 128)       512       
_________________________________________________________________
activation_497 (Activation)  (None, 32, 32, 128)       0         
_________________________________________________________________
dropout_497 (Dropout)        (None, 32, 32, 128)       0         
_________________________________________________________________
separable_conv2d_384 (Separa (None, 32, 32, 512)       67200     
_________________________________________________________________
activation_498 (Activation)  (None, 32, 32, 512)       0         
_________________________________________________________________
dropout_498 (Dropout)        (None, 32, 32, 512)       0         
_________________________________________________________________
max_pooling2d_110 (MaxPoolin (None, 16, 16, 512)       0         
_________________________________________________________________
separable_conv2d_385 (Separa (None, 16, 16, 256)       135936    
_________________________________________________________________
batch_normalization_294 (Bat (None, 16, 16, 256)       1024      
_________________________________________________________________
activation_499 (Activation)  (None, 16, 16, 256)       0         
_________________________________________________________________
dropout_499 (Dropout)        (None, 16, 16, 256)       0         
_________________________________________________________________
max_pooling2d_111 (MaxPoolin (None, 8, 8, 256)         0         
_________________________________________________________________
flatten_55 (Flatten)         (None, 16384)             0         
_________________________________________________________________
dense_169 (Dense)            (None, 32)                524320    
_________________________________________________________________
batch_normalization_295 (Bat (None, 32)                128       
_________________________________________________________________
activation_500 (Activation)  (None, 32)                0         
_________________________________________________________________
dropout_500 (Dropout)        (None, 32)                0         
_________________________________________________________________
dense_170 (Dense)            (None, 512)               16896     
_________________________________________________________________
activation_501 (Activation)  (None, 512)               0         
_________________________________________________________________
dropout_501 (Dropout)        (None, 512)               0         
_________________________________________________________________
dense_171 (Dense)            (None, 512)               262656    
_________________________________________________________________
batch_normalization_296 (Bat (None, 512)               2048      
_________________________________________________________________
activation_502 (Activation)  (None, 512)               0         
_________________________________________________________________
dropout_502 (Dropout)        (None, 512)               0         
_________________________________________________________________
dense_172 (Dense)            (None, 100)               51300     
=================================================================
Total params: 2,336,863
Trainable params: 2,330,911
Non-trainable params: 5,952
_________________________________________________________________
