Model: "sequential_122"
_________________________________________________________________
Layer (type)                 Output Shape              Param #   
=================================================================
separable_conv2d_812 (Separa (None, 32, 32, 64)        283       
_________________________________________________________________
batch_normalization_649 (Bat (None, 32, 32, 64)        256       
_________________________________________________________________
activation_1054 (Activation) (None, 32, 32, 64)        0         
_________________________________________________________________
dropout_1054 (Dropout)       (None, 32, 32, 64)        0         
_________________________________________________________________
separable_conv2d_813 (Separa (None, 32, 32, 1024)      67136     
_________________________________________________________________
batch_normalization_650 (Bat (None, 32, 32, 1024)      4096      
_________________________________________________________________
activation_1055 (Activation) (None, 32, 32, 1024)      0         
_________________________________________________________________
dropout_1055 (Dropout)       (None, 32, 32, 1024)      0         
_________________________________________________________________
separable_conv2d_814 (Separa (None, 32, 32, 128)       140416    
_________________________________________________________________
batch_normalization_651 (Bat (None, 32, 32, 128)       512       
_________________________________________________________________
activation_1056 (Activation) (None, 32, 32, 128)       0         
_________________________________________________________________
dropout_1056 (Dropout)       (None, 32, 32, 128)       0         
_________________________________________________________________
separable_conv2d_815 (Separa (None, 32, 32, 512)       67200     
_________________________________________________________________
activation_1057 (Activation) (None, 32, 32, 512)       0         
_________________________________________________________________
dropout_1057 (Dropout)       (None, 32, 32, 512)       0         
_________________________________________________________________
max_pooling2d_226 (MaxPoolin (None, 16, 16, 512)       0         
_________________________________________________________________
separable_conv2d_816 (Separa (None, 16, 16, 64)        37440     
_________________________________________________________________
activation_1058 (Activation) (None, 16, 16, 64)        0         
_________________________________________________________________
dropout_1058 (Dropout)       (None, 16, 16, 64)        0         
_________________________________________________________________
max_pooling2d_227 (MaxPoolin (None, 8, 8, 64)          0         
_________________________________________________________________
separable_conv2d_817 (Separa (None, 8, 8, 128)         8896      
_________________________________________________________________
batch_normalization_652 (Bat (None, 8, 8, 128)         512       
_________________________________________________________________
activation_1059 (Activation) (None, 8, 8, 128)         0         
_________________________________________________________________
dropout_1059 (Dropout)       (None, 8, 8, 128)         0         
_________________________________________________________________
flatten_122 (Flatten)        (None, 8192)              0         
_________________________________________________________________
dense_364 (Dense)            (None, 512)               4194816   
_________________________________________________________________
activation_1060 (Activation) (None, 512)               0         
_________________________________________________________________
dropout_1060 (Dropout)       (None, 512)               0         
_________________________________________________________________
dense_365 (Dense)            (None, 128)               65664     
_________________________________________________________________
batch_normalization_653 (Bat (None, 128)               512       
_________________________________________________________________
activation_1061 (Activation) (None, 128)               0         
_________________________________________________________________
dropout_1061 (Dropout)       (None, 128)               0         
_________________________________________________________________
dense_366 (Dense)            (None, 100)               12900     
=================================================================
Total params: 4,600,639
Trainable params: 4,597,695
Non-trainable params: 2,944
_________________________________________________________________
