Model: "sequential_66"
_________________________________________________________________
Layer (type)                 Output Shape              Param #   
=================================================================
separable_conv2d_455 (Separa (None, 32, 32, 8)         59        
_________________________________________________________________
activation_590 (Activation)  (None, 32, 32, 8)         0         
_________________________________________________________________
dropout_590 (Dropout)        (None, 32, 32, 8)         0         
_________________________________________________________________
max_pooling2d_128 (MaxPoolin (None, 16, 16, 8)         0         
_________________________________________________________________
separable_conv2d_456 (Separa (None, 16, 16, 1024)      9288      
_________________________________________________________________
activation_591 (Activation)  (None, 16, 16, 1024)      0         
_________________________________________________________________
dropout_591 (Dropout)        (None, 16, 16, 1024)      0         
_________________________________________________________________
separable_conv2d_457 (Separa (None, 16, 16, 256)       271616    
_________________________________________________________________
batch_normalization_352 (Bat (None, 16, 16, 256)       1024      
_________________________________________________________________
activation_592 (Activation)  (None, 16, 16, 256)       0         
_________________________________________________________________
dropout_592 (Dropout)        (None, 16, 16, 256)       0         
_________________________________________________________________
max_pooling2d_129 (MaxPoolin (None, 8, 8, 256)         0         
_________________________________________________________________
flatten_66 (Flatten)         (None, 16384)             0         
_________________________________________________________________
dense_201 (Dense)            (None, 32)                524320    
_________________________________________________________________
batch_normalization_353 (Bat (None, 32)                128       
_________________________________________________________________
activation_593 (Activation)  (None, 32)                0         
_________________________________________________________________
dropout_593 (Dropout)        (None, 32)                0         
_________________________________________________________________
dense_202 (Dense)            (None, 512)               16896     
_________________________________________________________________
activation_594 (Activation)  (None, 512)               0         
_________________________________________________________________
dropout_594 (Dropout)        (None, 512)               0         
_________________________________________________________________
dense_203 (Dense)            (None, 512)               262656    
_________________________________________________________________
batch_normalization_354 (Bat (None, 512)               2048      
_________________________________________________________________
activation_595 (Activation)  (None, 512)               0         
_________________________________________________________________
dropout_595 (Dropout)        (None, 512)               0         
_________________________________________________________________
dense_204 (Dense)            (None, 100)               51300     
=================================================================
Total params: 1,139,335
Trainable params: 1,137,735
Non-trainable params: 1,600
_________________________________________________________________
