Model: "sequential_107"
_________________________________________________________________
Layer (type)                 Output Shape              Param #   
=================================================================
separable_conv2d_714 (Separa (None, 32, 32, 16)        91        
_________________________________________________________________
activation_934 (Activation)  (None, 32, 32, 16)        0         
_________________________________________________________________
dropout_934 (Dropout)        (None, 32, 32, 16)        0         
_________________________________________________________________
separable_conv2d_715 (Separa (None, 32, 32, 16)        416       
_________________________________________________________________
batch_normalization_576 (Bat (None, 32, 32, 16)        64        
_________________________________________________________________
activation_935 (Activation)  (None, 32, 32, 16)        0         
_________________________________________________________________
dropout_935 (Dropout)        (None, 32, 32, 16)        0         
_________________________________________________________________
separable_conv2d_716 (Separa (None, 32, 32, 128)       2320      
_________________________________________________________________
batch_normalization_577 (Bat (None, 32, 32, 128)       512       
_________________________________________________________________
activation_936 (Activation)  (None, 32, 32, 128)       0         
_________________________________________________________________
dropout_936 (Dropout)        (None, 32, 32, 128)       0         
_________________________________________________________________
separable_conv2d_717 (Separa (None, 32, 32, 512)       67200     
_________________________________________________________________
activation_937 (Activation)  (None, 32, 32, 512)       0         
_________________________________________________________________
dropout_937 (Dropout)        (None, 32, 32, 512)       0         
_________________________________________________________________
max_pooling2d_199 (MaxPoolin (None, 16, 16, 512)       0         
_________________________________________________________________
separable_conv2d_718 (Separa (None, 16, 16, 64)        37440     
_________________________________________________________________
activation_938 (Activation)  (None, 16, 16, 64)        0         
_________________________________________________________________
dropout_938 (Dropout)        (None, 16, 16, 64)        0         
_________________________________________________________________
max_pooling2d_200 (MaxPoolin (None, 8, 8, 64)          0         
_________________________________________________________________
separable_conv2d_719 (Separa (None, 8, 8, 128)         8896      
_________________________________________________________________
batch_normalization_578 (Bat (None, 8, 8, 128)         512       
_________________________________________________________________
activation_939 (Activation)  (None, 8, 8, 128)         0         
_________________________________________________________________
dropout_939 (Dropout)        (None, 8, 8, 128)         0         
_________________________________________________________________
flatten_107 (Flatten)        (None, 8192)              0         
_________________________________________________________________
dense_327 (Dense)            (None, 512)               4194816   
_________________________________________________________________
activation_940 (Activation)  (None, 512)               0         
_________________________________________________________________
dropout_940 (Dropout)        (None, 512)               0         
_________________________________________________________________
dense_328 (Dense)            (None, 128)               65664     
_________________________________________________________________
batch_normalization_579 (Bat (None, 128)               512       
_________________________________________________________________
activation_941 (Activation)  (None, 128)               0         
_________________________________________________________________
dropout_941 (Dropout)        (None, 128)               0         
_________________________________________________________________
dense_329 (Dense)            (None, 100)               12900     
=================================================================
Total params: 4,391,343
Trainable params: 4,390,543
Non-trainable params: 800
_________________________________________________________________
