Model: "sequential_155"
_________________________________________________________________
Layer (type)                 Output Shape              Param #   
=================================================================
separable_conv2d_1003 (Separ (None, 32, 32, 64)        283       
_________________________________________________________________
batch_normalization_816 (Bat (None, 32, 32, 64)        256       
_________________________________________________________________
activation_1316 (Activation) (None, 32, 32, 64)        0         
_________________________________________________________________
dropout_1316 (Dropout)       (None, 32, 32, 64)        0         
_________________________________________________________________
separable_conv2d_1004 (Separ (None, 32, 32, 16)        1616      
_________________________________________________________________
batch_normalization_817 (Bat (None, 32, 32, 16)        64        
_________________________________________________________________
activation_1317 (Activation) (None, 32, 32, 16)        0         
_________________________________________________________________
dropout_1317 (Dropout)       (None, 32, 32, 16)        0         
_________________________________________________________________
separable_conv2d_1005 (Separ (None, 32, 32, 128)       2320      
_________________________________________________________________
batch_normalization_818 (Bat (None, 32, 32, 128)       512       
_________________________________________________________________
activation_1318 (Activation) (None, 32, 32, 128)       0         
_________________________________________________________________
dropout_1318 (Dropout)       (None, 32, 32, 128)       0         
_________________________________________________________________
separable_conv2d_1006 (Separ (None, 32, 32, 512)       67200     
_________________________________________________________________
activation_1319 (Activation) (None, 32, 32, 512)       0         
_________________________________________________________________
dropout_1319 (Dropout)       (None, 32, 32, 512)       0         
_________________________________________________________________
max_pooling2d_280 (MaxPoolin (None, 16, 16, 512)       0         
_________________________________________________________________
separable_conv2d_1007 (Separ (None, 16, 16, 256)       135936    
_________________________________________________________________
batch_normalization_819 (Bat (None, 16, 16, 256)       1024      
_________________________________________________________________
activation_1320 (Activation) (None, 16, 16, 256)       0         
_________________________________________________________________
dropout_1320 (Dropout)       (None, 16, 16, 256)       0         
_________________________________________________________________
max_pooling2d_281 (MaxPoolin (None, 8, 8, 256)         0         
_________________________________________________________________
separable_conv2d_1008 (Separ (None, 8, 8, 128)         35200     
_________________________________________________________________
batch_normalization_820 (Bat (None, 8, 8, 128)         512       
_________________________________________________________________
activation_1321 (Activation) (None, 8, 8, 128)         0         
_________________________________________________________________
dropout_1321 (Dropout)       (None, 8, 8, 128)         0         
_________________________________________________________________
flatten_155 (Flatten)        (None, 8192)              0         
_________________________________________________________________
dense_468 (Dense)            (None, 512)               4194816   
_________________________________________________________________
activation_1322 (Activation) (None, 512)               0         
_________________________________________________________________
dropout_1322 (Dropout)       (None, 512)               0         
_________________________________________________________________
dense_469 (Dense)            (None, 512)               262656    
_________________________________________________________________
batch_normalization_821 (Bat (None, 512)               2048      
_________________________________________________________________
activation_1323 (Activation) (None, 512)               0         
_________________________________________________________________
dropout_1323 (Dropout)       (None, 512)               0         
_________________________________________________________________
dense_470 (Dense)            (None, 100)               51300     
=================================================================
Total params: 4,755,743
Trainable params: 4,753,535
Non-trainable params: 2,208
_________________________________________________________________
