Model: "sequential_33"
_________________________________________________________________
Layer (type)                 Output Shape              Param #   
=================================================================
separable_conv2d_239 (Separa (None, 32, 32, 8)         59        
_________________________________________________________________
activation_313 (Activation)  (None, 32, 32, 8)         0         
_________________________________________________________________
dropout_313 (Dropout)        (None, 32, 32, 8)         0         
_________________________________________________________________
max_pooling2d_67 (MaxPooling (None, 16, 16, 8)         0         
_________________________________________________________________
separable_conv2d_240 (Separa (None, 16, 16, 1024)      9288      
_________________________________________________________________
batch_normalization_180 (Bat (None, 16, 16, 1024)      4096      
_________________________________________________________________
activation_314 (Activation)  (None, 16, 16, 1024)      0         
_________________________________________________________________
dropout_314 (Dropout)        (None, 16, 16, 1024)      0         
_________________________________________________________________
separable_conv2d_241 (Separa (None, 16, 16, 128)       140416    
_________________________________________________________________
batch_normalization_181 (Bat (None, 16, 16, 128)       512       
_________________________________________________________________
activation_315 (Activation)  (None, 16, 16, 128)       0         
_________________________________________________________________
dropout_315 (Dropout)        (None, 16, 16, 128)       0         
_________________________________________________________________
separable_conv2d_242 (Separa (None, 16, 16, 512)       67200     
_________________________________________________________________
activation_316 (Activation)  (None, 16, 16, 512)       0         
_________________________________________________________________
dropout_316 (Dropout)        (None, 16, 16, 512)       0         
_________________________________________________________________
max_pooling2d_68 (MaxPooling (None, 8, 8, 512)         0         
_________________________________________________________________
separable_conv2d_243 (Separa (None, 8, 8, 256)         135936    
_________________________________________________________________
batch_normalization_182 (Bat (None, 8, 8, 256)         1024      
_________________________________________________________________
activation_317 (Activation)  (None, 8, 8, 256)         0         
_________________________________________________________________
dropout_317 (Dropout)        (None, 8, 8, 256)         0         
_________________________________________________________________
max_pooling2d_69 (MaxPooling (None, 4, 4, 256)         0         
_________________________________________________________________
flatten_33 (Flatten)         (None, 4096)              0         
_________________________________________________________________
dense_107 (Dense)            (None, 32)                131104    
_________________________________________________________________
batch_normalization_183 (Bat (None, 32)                128       
_________________________________________________________________
activation_318 (Activation)  (None, 32)                0         
_________________________________________________________________
dropout_318 (Dropout)        (None, 32)                0         
_________________________________________________________________
dense_108 (Dense)            (None, 512)               16896     
_________________________________________________________________
activation_319 (Activation)  (None, 512)               0         
_________________________________________________________________
dropout_319 (Dropout)        (None, 512)               0         
_________________________________________________________________
dense_109 (Dense)            (None, 512)               262656    
_________________________________________________________________
batch_normalization_184 (Bat (None, 512)               2048      
_________________________________________________________________
activation_320 (Activation)  (None, 512)               0         
_________________________________________________________________
dropout_320 (Dropout)        (None, 512)               0         
_________________________________________________________________
dense_110 (Dense)            (None, 100)               51300     
=================================================================
Total params: 822,663
Trainable params: 818,759
Non-trainable params: 3,904
_________________________________________________________________
