Model: "sequential_214"
_________________________________________________________________
Layer (type)                 Output Shape              Param #   
=================================================================
separable_conv2d_1371 (Separ (None, 32, 32, 16)        91        
_________________________________________________________________
activation_1765 (Activation) (None, 32, 32, 16)        0         
_________________________________________________________________
dropout_1765 (Dropout)       (None, 32, 32, 16)        0         
_________________________________________________________________
separable_conv2d_1372 (Separ (None, 32, 32, 16)        416       
_________________________________________________________________
batch_normalization_1110 (Ba (None, 32, 32, 16)        64        
_________________________________________________________________
activation_1766 (Activation) (None, 32, 32, 16)        0         
_________________________________________________________________
dropout_1766 (Dropout)       (None, 32, 32, 16)        0         
_________________________________________________________________
separable_conv2d_1373 (Separ (None, 32, 32, 128)       2320      
_________________________________________________________________
batch_normalization_1111 (Ba (None, 32, 32, 128)       512       
_________________________________________________________________
activation_1767 (Activation) (None, 32, 32, 128)       0         
_________________________________________________________________
dropout_1767 (Dropout)       (None, 32, 32, 128)       0         
_________________________________________________________________
separable_conv2d_1374 (Separ (None, 32, 32, 512)       67200     
_________________________________________________________________
activation_1768 (Activation) (None, 32, 32, 512)       0         
_________________________________________________________________
dropout_1768 (Dropout)       (None, 32, 32, 512)       0         
_________________________________________________________________
separable_conv2d_1375 (Separ (None, 32, 32, 16)        12816     
_________________________________________________________________
batch_normalization_1112 (Ba (None, 32, 32, 16)        64        
_________________________________________________________________
activation_1769 (Activation) (None, 32, 32, 16)        0         
_________________________________________________________________
dropout_1769 (Dropout)       (None, 32, 32, 16)        0         
_________________________________________________________________
separable_conv2d_1376 (Separ (None, 32, 32, 32)        688       
_________________________________________________________________
batch_normalization_1113 (Ba (None, 32, 32, 32)        128       
_________________________________________________________________
activation_1770 (Activation) (None, 32, 32, 32)        0         
_________________________________________________________________
dropout_1770 (Dropout)       (None, 32, 32, 32)        0         
_________________________________________________________________
separable_conv2d_1377 (Separ (None, 32, 32, 512)       17184     
_________________________________________________________________
activation_1771 (Activation) (None, 32, 32, 512)       0         
_________________________________________________________________
dropout_1771 (Dropout)       (None, 32, 32, 512)       0         
_________________________________________________________________
separable_conv2d_1378 (Separ (None, 32, 32, 32)        21024     
_________________________________________________________________
batch_normalization_1114 (Ba (None, 32, 32, 32)        128       
_________________________________________________________________
activation_1772 (Activation) (None, 32, 32, 32)        0         
_________________________________________________________________
dropout_1772 (Dropout)       (None, 32, 32, 32)        0         
_________________________________________________________________
max_pooling2d_377 (MaxPoolin (None, 16, 16, 32)        0         
_________________________________________________________________
flatten_214 (Flatten)        (None, 8192)              0         
_________________________________________________________________
dense_608 (Dense)            (None, 100)               819300    
=================================================================
Total params: 941,935
Trainable params: 941,487
Non-trainable params: 448
_________________________________________________________________
