Model: "sequential_266"
_________________________________________________________________
Layer (type)                 Output Shape              Param #   
=================================================================
separable_conv2d_1669 (Separ (None, 32, 32, 64)        283       
_________________________________________________________________
batch_normalization_1338 (Ba (None, 32, 32, 64)        256       
_________________________________________________________________
activation_2091 (Activation) (None, 32, 32, 64)        0         
_________________________________________________________________
dropout_2091 (Dropout)       (None, 32, 32, 64)        0         
_________________________________________________________________
separable_conv2d_1670 (Separ (None, 32, 32, 128)       8896      
_________________________________________________________________
batch_normalization_1339 (Ba (None, 32, 32, 128)       512       
_________________________________________________________________
activation_2092 (Activation) (None, 32, 32, 128)       0         
_________________________________________________________________
dropout_2092 (Dropout)       (None, 32, 32, 128)       0         
_________________________________________________________________
separable_conv2d_1671 (Separ (None, 32, 32, 128)       17664     
_________________________________________________________________
batch_normalization_1340 (Ba (None, 32, 32, 128)       512       
_________________________________________________________________
activation_2093 (Activation) (None, 32, 32, 128)       0         
_________________________________________________________________
dropout_2093 (Dropout)       (None, 32, 32, 128)       0         
_________________________________________________________________
max_pooling2d_463 (MaxPoolin (None, 16, 16, 128)       0         
_________________________________________________________________
flatten_266 (Flatten)        (None, 32768)             0         
_________________________________________________________________
dense_688 (Dense)            (None, 100)               3276900   
=================================================================
Total params: 3,305,023
Trainable params: 3,304,383
Non-trainable params: 640
_________________________________________________________________
