Model: "sequential_179"
_________________________________________________________________
Layer (type)                 Output Shape              Param #   
=================================================================
separable_conv2d_1152 (Separ (None, 32, 32, 16)        91        
_________________________________________________________________
activation_1499 (Activation) (None, 32, 32, 16)        0         
_________________________________________________________________
dropout_1499 (Dropout)       (None, 32, 32, 16)        0         
_________________________________________________________________
separable_conv2d_1153 (Separ (None, 32, 32, 16)        416       
_________________________________________________________________
batch_normalization_933 (Bat (None, 32, 32, 16)        64        
_________________________________________________________________
activation_1500 (Activation) (None, 32, 32, 16)        0         
_________________________________________________________________
dropout_1500 (Dropout)       (None, 32, 32, 16)        0         
_________________________________________________________________
separable_conv2d_1154 (Separ (None, 32, 32, 128)       2320      
_________________________________________________________________
batch_normalization_934 (Bat (None, 32, 32, 128)       512       
_________________________________________________________________
activation_1501 (Activation) (None, 32, 32, 128)       0         
_________________________________________________________________
dropout_1501 (Dropout)       (None, 32, 32, 128)       0         
_________________________________________________________________
separable_conv2d_1155 (Separ (None, 32, 32, 512)       67200     
_________________________________________________________________
activation_1502 (Activation) (None, 32, 32, 512)       0         
_________________________________________________________________
dropout_1502 (Dropout)       (None, 32, 32, 512)       0         
_________________________________________________________________
max_pooling2d_318 (MaxPoolin (None, 16, 16, 512)       0         
_________________________________________________________________
separable_conv2d_1156 (Separ (None, 16, 16, 128)       70272     
_________________________________________________________________
batch_normalization_935 (Bat (None, 16, 16, 128)       512       
_________________________________________________________________
activation_1503 (Activation) (None, 16, 16, 128)       0         
_________________________________________________________________
dropout_1503 (Dropout)       (None, 16, 16, 128)       0         
_________________________________________________________________
flatten_179 (Flatten)        (None, 32768)             0         
_________________________________________________________________
dense_526 (Dense)            (None, 512)               16777728  
_________________________________________________________________
activation_1504 (Activation) (None, 512)               0         
_________________________________________________________________
dropout_1504 (Dropout)       (None, 512)               0         
_________________________________________________________________
dense_527 (Dense)            (None, 512)               262656    
_________________________________________________________________
batch_normalization_936 (Bat (None, 512)               2048      
_________________________________________________________________
activation_1505 (Activation) (None, 512)               0         
_________________________________________________________________
dropout_1505 (Dropout)       (None, 512)               0         
_________________________________________________________________
dense_528 (Dense)            (None, 100)               51300     
=================================================================
Total params: 17,235,119
Trainable params: 17,233,551
Non-trainable params: 1,568
_________________________________________________________________
