Model: "sequential_326"
_________________________________________________________________
Layer (type)                 Output Shape              Param #   
=================================================================
separable_conv2d_1970 (Separ (None, 32, 32, 16)        91        
_________________________________________________________________
activation_2417 (Activation) (None, 32, 32, 16)        0         
_________________________________________________________________
dropout_2417 (Dropout)       (None, 32, 32, 16)        0         
_________________________________________________________________
separable_conv2d_1971 (Separ (None, 32, 32, 16)        416       
_________________________________________________________________
batch_normalization_1587 (Ba (None, 32, 32, 16)        64        
_________________________________________________________________
activation_2418 (Activation) (None, 32, 32, 16)        0         
_________________________________________________________________
dropout_2418 (Dropout)       (None, 32, 32, 16)        0         
_________________________________________________________________
separable_conv2d_1972 (Separ (None, 32, 32, 128)       2320      
_________________________________________________________________
batch_normalization_1588 (Ba (None, 32, 32, 128)       512       
_________________________________________________________________
activation_2419 (Activation) (None, 32, 32, 128)       0         
_________________________________________________________________
dropout_2419 (Dropout)       (None, 32, 32, 128)       0         
_________________________________________________________________
separable_conv2d_1973 (Separ (None, 32, 32, 512)       67200     
_________________________________________________________________
activation_2420 (Activation) (None, 32, 32, 512)       0         
_________________________________________________________________
dropout_2420 (Dropout)       (None, 32, 32, 512)       0         
_________________________________________________________________
max_pooling2d_553 (MaxPoolin (None, 16, 16, 512)       0         
_________________________________________________________________
separable_conv2d_1974 (Separ (None, 16, 16, 256)       135936    
_________________________________________________________________
batch_normalization_1589 (Ba (None, 16, 16, 256)       1024      
_________________________________________________________________
activation_2421 (Activation) (None, 16, 16, 256)       0         
_________________________________________________________________
dropout_2421 (Dropout)       (None, 16, 16, 256)       0         
_________________________________________________________________
max_pooling2d_554 (MaxPoolin (None, 8, 8, 256)         0         
_________________________________________________________________
separable_conv2d_1975 (Separ (None, 8, 8, 32)          10528     
_________________________________________________________________
activation_2422 (Activation) (None, 8, 8, 32)          0         
_________________________________________________________________
dropout_2422 (Dropout)       (None, 8, 8, 32)          0         
_________________________________________________________________
max_pooling2d_555 (MaxPoolin (None, 4, 4, 32)          0         
_________________________________________________________________
flatten_326 (Flatten)        (None, 512)               0         
_________________________________________________________________
dense_773 (Dense)            (None, 100)               51300     
=================================================================
Total params: 269,391
Trainable params: 268,591
Non-trainable params: 800
_________________________________________________________________
