Model: "sequential_88"
_________________________________________________________________
Layer (type)                 Output Shape              Param #   
=================================================================
separable_conv2d_590 (Separa (None, 32, 32, 64)        283       
_________________________________________________________________
activation_771 (Activation)  (None, 32, 32, 64)        0         
_________________________________________________________________
dropout_771 (Dropout)        (None, 32, 32, 64)        0         
_________________________________________________________________
separable_conv2d_591 (Separa (None, 32, 32, 1024)      67136     
_________________________________________________________________
batch_normalization_471 (Bat (None, 32, 32, 1024)      4096      
_________________________________________________________________
activation_772 (Activation)  (None, 32, 32, 1024)      0         
_________________________________________________________________
dropout_772 (Dropout)        (None, 32, 32, 1024)      0         
_________________________________________________________________
separable_conv2d_592 (Separa (None, 32, 32, 1024)      1058816   
_________________________________________________________________
batch_normalization_472 (Bat (None, 32, 32, 1024)      4096      
_________________________________________________________________
activation_773 (Activation)  (None, 32, 32, 1024)      0         
_________________________________________________________________
dropout_773 (Dropout)        (None, 32, 32, 1024)      0         
_________________________________________________________________
separable_conv2d_593 (Separa (None, 32, 32, 8)         17416     
_________________________________________________________________
activation_774 (Activation)  (None, 32, 32, 8)         0         
_________________________________________________________________
dropout_774 (Dropout)        (None, 32, 32, 8)         0         
_________________________________________________________________
separable_conv2d_594 (Separa (None, 32, 32, 16)        216       
_________________________________________________________________
batch_normalization_473 (Bat (None, 32, 32, 16)        64        
_________________________________________________________________
activation_775 (Activation)  (None, 32, 32, 16)        0         
_________________________________________________________________
dropout_775 (Dropout)        (None, 32, 32, 16)        0         
_________________________________________________________________
separable_conv2d_595 (Separa (None, 32, 32, 32)        688       
_________________________________________________________________
batch_normalization_474 (Bat (None, 32, 32, 32)        128       
_________________________________________________________________
activation_776 (Activation)  (None, 32, 32, 32)        0         
_________________________________________________________________
dropout_776 (Dropout)        (None, 32, 32, 32)        0         
_________________________________________________________________
separable_conv2d_596 (Separa (None, 32, 32, 512)       17184     
_________________________________________________________________
activation_777 (Activation)  (None, 32, 32, 512)       0         
_________________________________________________________________
dropout_777 (Dropout)        (None, 32, 32, 512)       0         
_________________________________________________________________
separable_conv2d_597 (Separa (None, 32, 32, 32)        21024     
_________________________________________________________________
batch_normalization_475 (Bat (None, 32, 32, 32)        128       
_________________________________________________________________
activation_778 (Activation)  (None, 32, 32, 32)        0         
_________________________________________________________________
dropout_778 (Dropout)        (None, 32, 32, 32)        0         
_________________________________________________________________
max_pooling2d_166 (MaxPoolin (None, 16, 16, 32)        0         
_________________________________________________________________
flatten_88 (Flatten)         (None, 8192)              0         
_________________________________________________________________
dense_269 (Dense)            (None, 32)                262176    
_________________________________________________________________
batch_normalization_476 (Bat (None, 32)                128       
_________________________________________________________________
activation_779 (Activation)  (None, 32)                0         
_________________________________________________________________
dropout_779 (Dropout)        (None, 32)                0         
_________________________________________________________________
dense_270 (Dense)            (None, 512)               16896     
_________________________________________________________________
activation_780 (Activation)  (None, 512)               0         
_________________________________________________________________
dropout_780 (Dropout)        (None, 512)               0         
_________________________________________________________________
dense_271 (Dense)            (None, 512)               262656    
_________________________________________________________________
batch_normalization_477 (Bat (None, 512)               2048      
_________________________________________________________________
activation_781 (Activation)  (None, 512)               0         
_________________________________________________________________
dropout_781 (Dropout)        (None, 512)               0         
_________________________________________________________________
dense_272 (Dense)            (None, 100)               51300     
=================================================================
Total params: 1,786,479
Trainable params: 1,781,135
Non-trainable params: 5,344
_________________________________________________________________
