Model: "sequential_231"
_________________________________________________________________
Layer (type)                 Output Shape              Param #   
=================================================================
separable_conv2d_1478 (Separ (None, 32, 32, 64)        283       
_________________________________________________________________
batch_normalization_1189 (Ba (None, 32, 32, 64)        256       
_________________________________________________________________
activation_1883 (Activation) (None, 32, 32, 64)        0         
_________________________________________________________________
dropout_1883 (Dropout)       (None, 32, 32, 64)        0         
_________________________________________________________________
separable_conv2d_1479 (Separ (None, 32, 32, 1024)      67136     
_________________________________________________________________
batch_normalization_1190 (Ba (None, 32, 32, 1024)      4096      
_________________________________________________________________
activation_1884 (Activation) (None, 32, 32, 1024)      0         
_________________________________________________________________
dropout_1884 (Dropout)       (None, 32, 32, 1024)      0         
_________________________________________________________________
separable_conv2d_1480 (Separ (None, 32, 32, 128)       140416    
_________________________________________________________________
batch_normalization_1191 (Ba (None, 32, 32, 128)       512       
_________________________________________________________________
activation_1885 (Activation) (None, 32, 32, 128)       0         
_________________________________________________________________
dropout_1885 (Dropout)       (None, 32, 32, 128)       0         
_________________________________________________________________
separable_conv2d_1481 (Separ (None, 32, 32, 512)       67200     
_________________________________________________________________
activation_1886 (Activation) (None, 32, 32, 512)       0         
_________________________________________________________________
dropout_1886 (Dropout)       (None, 32, 32, 512)       0         
_________________________________________________________________
max_pooling2d_408 (MaxPoolin (None, 16, 16, 512)       0         
_________________________________________________________________
separable_conv2d_1482 (Separ (None, 16, 16, 512)       267264    
_________________________________________________________________
activation_1887 (Activation) (None, 16, 16, 512)       0         
_________________________________________________________________
dropout_1887 (Dropout)       (None, 16, 16, 512)       0         
_________________________________________________________________
separable_conv2d_1483 (Separ (None, 16, 16, 256)       135936    
_________________________________________________________________
batch_normalization_1192 (Ba (None, 16, 16, 256)       1024      
_________________________________________________________________
activation_1888 (Activation) (None, 16, 16, 256)       0         
_________________________________________________________________
dropout_1888 (Dropout)       (None, 16, 16, 256)       0         
_________________________________________________________________
max_pooling2d_409 (MaxPoolin (None, 8, 8, 256)         0         
_________________________________________________________________
flatten_231 (Flatten)        (None, 16384)             0         
_________________________________________________________________
dense_636 (Dense)            (None, 512)               8389120   
_________________________________________________________________
batch_normalization_1193 (Ba (None, 512)               2048      
_________________________________________________________________
activation_1889 (Activation) (None, 512)               0         
_________________________________________________________________
dropout_1889 (Dropout)       (None, 512)               0         
_________________________________________________________________
dense_637 (Dense)            (None, 100)               51300     
=================================================================
Total params: 9,126,591
Trainable params: 9,122,623
Non-trainable params: 3,968
_________________________________________________________________
