Model: "sequential_281"
_________________________________________________________________
Layer (type)                 Output Shape              Param #   
=================================================================
separable_conv2d_1749 (Separ (None, 32, 32, 64)        283       
_________________________________________________________________
batch_normalization_1401 (Ba (None, 32, 32, 64)        256       
_________________________________________________________________
activation_2175 (Activation) (None, 32, 32, 64)        0         
_________________________________________________________________
dropout_2175 (Dropout)       (None, 32, 32, 64)        0         
_________________________________________________________________
separable_conv2d_1750 (Separ (None, 32, 32, 128)       8896      
_________________________________________________________________
batch_normalization_1402 (Ba (None, 32, 32, 128)       512       
_________________________________________________________________
activation_2176 (Activation) (None, 32, 32, 128)       0         
_________________________________________________________________
dropout_2176 (Dropout)       (None, 32, 32, 128)       0         
_________________________________________________________________
separable_conv2d_1751 (Separ (None, 32, 32, 256)       34176     
_________________________________________________________________
activation_2177 (Activation) (None, 32, 32, 256)       0         
_________________________________________________________________
dropout_2177 (Dropout)       (None, 32, 32, 256)       0         
_________________________________________________________________
max_pooling2d_486 (MaxPoolin (None, 16, 16, 256)       0         
_________________________________________________________________
separable_conv2d_1752 (Separ (None, 16, 16, 32)        10528     
_________________________________________________________________
batch_normalization_1403 (Ba (None, 16, 16, 32)        128       
_________________________________________________________________
activation_2178 (Activation) (None, 16, 16, 32)        0         
_________________________________________________________________
dropout_2178 (Dropout)       (None, 16, 16, 32)        0         
_________________________________________________________________
max_pooling2d_487 (MaxPoolin (None, 8, 8, 32)          0         
_________________________________________________________________
flatten_281 (Flatten)        (None, 2048)              0         
_________________________________________________________________
dense_707 (Dense)            (None, 100)               204900    
=================================================================
Total params: 259,679
Trainable params: 259,231
Non-trainable params: 448
_________________________________________________________________
