Model: "sequential_26"
_________________________________________________________________
Layer (type)                 Output Shape              Param #   
=================================================================
separable_conv2d_194 (Separa (None, 32, 32, 8)         59        
_________________________________________________________________
activation_256 (Activation)  (None, 32, 32, 8)         0         
_________________________________________________________________
dropout_256 (Dropout)        (None, 32, 32, 8)         0         
_________________________________________________________________
max_pooling2d_52 (MaxPooling (None, 16, 16, 8)         0         
_________________________________________________________________
separable_conv2d_195 (Separa (None, 16, 16, 1024)      9288      
_________________________________________________________________
batch_normalization_144 (Bat (None, 16, 16, 1024)      4096      
_________________________________________________________________
activation_257 (Activation)  (None, 16, 16, 1024)      0         
_________________________________________________________________
dropout_257 (Dropout)        (None, 16, 16, 1024)      0         
_________________________________________________________________
separable_conv2d_196 (Separa (None, 16, 16, 128)       140416    
_________________________________________________________________
batch_normalization_145 (Bat (None, 16, 16, 128)       512       
_________________________________________________________________
activation_258 (Activation)  (None, 16, 16, 128)       0         
_________________________________________________________________
dropout_258 (Dropout)        (None, 16, 16, 128)       0         
_________________________________________________________________
separable_conv2d_197 (Separa (None, 16, 16, 512)       67200     
_________________________________________________________________
activation_259 (Activation)  (None, 16, 16, 512)       0         
_________________________________________________________________
dropout_259 (Dropout)        (None, 16, 16, 512)       0         
_________________________________________________________________
max_pooling2d_53 (MaxPooling (None, 8, 8, 512)         0         
_________________________________________________________________
separable_conv2d_198 (Separa (None, 8, 8, 256)         135936    
_________________________________________________________________
batch_normalization_146 (Bat (None, 8, 8, 256)         1024      
_________________________________________________________________
activation_260 (Activation)  (None, 8, 8, 256)         0         
_________________________________________________________________
dropout_260 (Dropout)        (None, 8, 8, 256)         0         
_________________________________________________________________
max_pooling2d_54 (MaxPooling (None, 4, 4, 256)         0         
_________________________________________________________________
flatten_26 (Flatten)         (None, 4096)              0         
_________________________________________________________________
dense_88 (Dense)             (None, 32)                131104    
_________________________________________________________________
batch_normalization_147 (Bat (None, 32)                128       
_________________________________________________________________
activation_261 (Activation)  (None, 32)                0         
_________________________________________________________________
dropout_261 (Dropout)        (None, 32)                0         
_________________________________________________________________
dense_89 (Dense)             (None, 512)               16896     
_________________________________________________________________
activation_262 (Activation)  (None, 512)               0         
_________________________________________________________________
dropout_262 (Dropout)        (None, 512)               0         
_________________________________________________________________
dense_90 (Dense)             (None, 512)               262656    
_________________________________________________________________
batch_normalization_148 (Bat (None, 512)               2048      
_________________________________________________________________
activation_263 (Activation)  (None, 512)               0         
_________________________________________________________________
dropout_263 (Dropout)        (None, 512)               0         
_________________________________________________________________
dense_91 (Dense)             (None, 100)               51300     
=================================================================
Total params: 822,663
Trainable params: 818,759
Non-trainable params: 3,904
_________________________________________________________________
