Model: "sequential_126"
_________________________________________________________________
Layer (type)                 Output Shape              Param #   
=================================================================
separable_conv2d_834 (Separa (None, 32, 32, 16)        91        
_________________________________________________________________
activation_1087 (Activation) (None, 32, 32, 16)        0         
_________________________________________________________________
dropout_1087 (Dropout)       (None, 32, 32, 16)        0         
_________________________________________________________________
separable_conv2d_835 (Separa (None, 32, 32, 16)        416       
_________________________________________________________________
batch_normalization_669 (Bat (None, 32, 32, 16)        64        
_________________________________________________________________
activation_1088 (Activation) (None, 32, 32, 16)        0         
_________________________________________________________________
dropout_1088 (Dropout)       (None, 32, 32, 16)        0         
_________________________________________________________________
separable_conv2d_836 (Separa (None, 32, 32, 128)       2320      
_________________________________________________________________
batch_normalization_670 (Bat (None, 32, 32, 128)       512       
_________________________________________________________________
activation_1089 (Activation) (None, 32, 32, 128)       0         
_________________________________________________________________
dropout_1089 (Dropout)       (None, 32, 32, 128)       0         
_________________________________________________________________
separable_conv2d_837 (Separa (None, 32, 32, 512)       67200     
_________________________________________________________________
activation_1090 (Activation) (None, 32, 32, 512)       0         
_________________________________________________________________
dropout_1090 (Dropout)       (None, 32, 32, 512)       0         
_________________________________________________________________
max_pooling2d_234 (MaxPoolin (None, 16, 16, 512)       0         
_________________________________________________________________
separable_conv2d_838 (Separa (None, 16, 16, 256)       135936    
_________________________________________________________________
batch_normalization_671 (Bat (None, 16, 16, 256)       1024      
_________________________________________________________________
activation_1091 (Activation) (None, 16, 16, 256)       0         
_________________________________________________________________
dropout_1091 (Dropout)       (None, 16, 16, 256)       0         
_________________________________________________________________
max_pooling2d_235 (MaxPoolin (None, 8, 8, 256)         0         
_________________________________________________________________
separable_conv2d_839 (Separa (None, 8, 8, 128)         35200     
_________________________________________________________________
batch_normalization_672 (Bat (None, 8, 8, 128)         512       
_________________________________________________________________
activation_1092 (Activation) (None, 8, 8, 128)         0         
_________________________________________________________________
dropout_1092 (Dropout)       (None, 8, 8, 128)         0         
_________________________________________________________________
flatten_126 (Flatten)        (None, 8192)              0         
_________________________________________________________________
dense_379 (Dense)            (None, 512)               4194816   
_________________________________________________________________
activation_1093 (Activation) (None, 512)               0         
_________________________________________________________________
dropout_1093 (Dropout)       (None, 512)               0         
_________________________________________________________________
dense_380 (Dense)            (None, 512)               262656    
_________________________________________________________________
batch_normalization_673 (Bat (None, 512)               2048      
_________________________________________________________________
activation_1094 (Activation) (None, 512)               0         
_________________________________________________________________
dropout_1094 (Dropout)       (None, 512)               0         
_________________________________________________________________
dense_381 (Dense)            (None, 100)               51300     
=================================================================
Total params: 4,754,095
Trainable params: 4,752,015
Non-trainable params: 2,080
_________________________________________________________________
