Model: "sequential_351"
_________________________________________________________________
Layer (type)                 Output Shape              Param #   
=================================================================
separable_conv2d_2085 (Separ (None, 32, 32, 16)        91        
_________________________________________________________________
activation_2538 (Activation) (None, 32, 32, 16)        0         
_________________________________________________________________
dropout_2538 (Dropout)       (None, 32, 32, 16)        0         
_________________________________________________________________
separable_conv2d_2086 (Separ (None, 32, 32, 16)        416       
_________________________________________________________________
batch_normalization_1686 (Ba (None, 32, 32, 16)        64        
_________________________________________________________________
activation_2539 (Activation) (None, 32, 32, 16)        0         
_________________________________________________________________
dropout_2539 (Dropout)       (None, 32, 32, 16)        0         
_________________________________________________________________
separable_conv2d_2087 (Separ (None, 32, 32, 128)       2320      
_________________________________________________________________
batch_normalization_1687 (Ba (None, 32, 32, 128)       512       
_________________________________________________________________
activation_2540 (Activation) (None, 32, 32, 128)       0         
_________________________________________________________________
dropout_2540 (Dropout)       (None, 32, 32, 128)       0         
_________________________________________________________________
separable_conv2d_2088 (Separ (None, 32, 32, 128)       17664     
_________________________________________________________________
batch_normalization_1688 (Ba (None, 32, 32, 128)       512       
_________________________________________________________________
activation_2541 (Activation) (None, 32, 32, 128)       0         
_________________________________________________________________
dropout_2541 (Dropout)       (None, 32, 32, 128)       0         
_________________________________________________________________
max_pooling2d_601 (MaxPoolin (None, 16, 16, 128)       0         
_________________________________________________________________
flatten_351 (Flatten)        (None, 32768)             0         
_________________________________________________________________
dense_804 (Dense)            (None, 100)               3276900   
=================================================================
Total params: 3,298,479
Trainable params: 3,297,935
Non-trainable params: 544
_________________________________________________________________
