Model: "sequential_140"
_________________________________________________________________
Layer (type)                 Output Shape              Param #   
=================================================================
separable_conv2d_917 (Separa (None, 32, 32, 16)        91        
_________________________________________________________________
activation_1201 (Activation) (None, 32, 32, 16)        0         
_________________________________________________________________
dropout_1201 (Dropout)       (None, 32, 32, 16)        0         
_________________________________________________________________
separable_conv2d_918 (Separa (None, 32, 32, 16)        416       
_________________________________________________________________
batch_normalization_743 (Bat (None, 32, 32, 16)        64        
_________________________________________________________________
activation_1202 (Activation) (None, 32, 32, 16)        0         
_________________________________________________________________
dropout_1202 (Dropout)       (None, 32, 32, 16)        0         
_________________________________________________________________
separable_conv2d_919 (Separa (None, 32, 32, 128)       2320      
_________________________________________________________________
batch_normalization_744 (Bat (None, 32, 32, 128)       512       
_________________________________________________________________
activation_1203 (Activation) (None, 32, 32, 128)       0         
_________________________________________________________________
dropout_1203 (Dropout)       (None, 32, 32, 128)       0         
_________________________________________________________________
separable_conv2d_920 (Separa (None, 32, 32, 512)       67200     
_________________________________________________________________
activation_1204 (Activation) (None, 32, 32, 512)       0         
_________________________________________________________________
dropout_1204 (Dropout)       (None, 32, 32, 512)       0         
_________________________________________________________________
max_pooling2d_256 (MaxPoolin (None, 16, 16, 512)       0         
_________________________________________________________________
separable_conv2d_921 (Separa (None, 16, 16, 128)       70272     
_________________________________________________________________
batch_normalization_745 (Bat (None, 16, 16, 128)       512       
_________________________________________________________________
activation_1205 (Activation) (None, 16, 16, 128)       0         
_________________________________________________________________
dropout_1205 (Dropout)       (None, 16, 16, 128)       0         
_________________________________________________________________
flatten_140 (Flatten)        (None, 32768)             0         
_________________________________________________________________
dense_424 (Dense)            (None, 512)               16777728  
_________________________________________________________________
activation_1206 (Activation) (None, 512)               0         
_________________________________________________________________
dropout_1206 (Dropout)       (None, 512)               0         
_________________________________________________________________
dense_425 (Dense)            (None, 512)               262656    
_________________________________________________________________
batch_normalization_746 (Bat (None, 512)               2048      
_________________________________________________________________
activation_1207 (Activation) (None, 512)               0         
_________________________________________________________________
dropout_1207 (Dropout)       (None, 512)               0         
_________________________________________________________________
dense_426 (Dense)            (None, 100)               51300     
=================================================================
Total params: 17,235,119
Trainable params: 17,233,551
Non-trainable params: 1,568
_________________________________________________________________
