Model: "sequential_240"
_________________________________________________________________
Layer (type)                 Output Shape              Param #   
=================================================================
separable_conv2d_1530 (Separ (None, 32, 32, 64)        283       
_________________________________________________________________
batch_normalization_1230 (Ba (None, 32, 32, 64)        256       
_________________________________________________________________
activation_1944 (Activation) (None, 32, 32, 64)        0         
_________________________________________________________________
dropout_1944 (Dropout)       (None, 32, 32, 64)        0         
_________________________________________________________________
separable_conv2d_1531 (Separ (None, 32, 32, 16)        1616      
_________________________________________________________________
batch_normalization_1231 (Ba (None, 32, 32, 16)        64        
_________________________________________________________________
activation_1945 (Activation) (None, 32, 32, 16)        0         
_________________________________________________________________
dropout_1945 (Dropout)       (None, 32, 32, 16)        0         
_________________________________________________________________
separable_conv2d_1532 (Separ (None, 32, 32, 128)       2320      
_________________________________________________________________
batch_normalization_1232 (Ba (None, 32, 32, 128)       512       
_________________________________________________________________
activation_1946 (Activation) (None, 32, 32, 128)       0         
_________________________________________________________________
dropout_1946 (Dropout)       (None, 32, 32, 128)       0         
_________________________________________________________________
separable_conv2d_1533 (Separ (None, 32, 32, 512)       67200     
_________________________________________________________________
activation_1947 (Activation) (None, 32, 32, 512)       0         
_________________________________________________________________
dropout_1947 (Dropout)       (None, 32, 32, 512)       0         
_________________________________________________________________
max_pooling2d_424 (MaxPoolin (None, 16, 16, 512)       0         
_________________________________________________________________
separable_conv2d_1534 (Separ (None, 16, 16, 256)       135936    
_________________________________________________________________
batch_normalization_1233 (Ba (None, 16, 16, 256)       1024      
_________________________________________________________________
activation_1948 (Activation) (None, 16, 16, 256)       0         
_________________________________________________________________
dropout_1948 (Dropout)       (None, 16, 16, 256)       0         
_________________________________________________________________
max_pooling2d_425 (MaxPoolin (None, 8, 8, 256)         0         
_________________________________________________________________
flatten_240 (Flatten)        (None, 16384)             0         
_________________________________________________________________
dense_654 (Dense)            (None, 256)               4194560   
_________________________________________________________________
batch_normalization_1234 (Ba (None, 256)               1024      
_________________________________________________________________
activation_1949 (Activation) (None, 256)               0         
_________________________________________________________________
dropout_1949 (Dropout)       (None, 256)               0         
_________________________________________________________________
dense_655 (Dense)            (None, 100)               25700     
=================================================================
Total params: 4,430,495
Trainable params: 4,429,055
Non-trainable params: 1,440
_________________________________________________________________
