Model: "sequential_209"
_________________________________________________________________
Layer (type)                 Output Shape              Param #   
=================================================================
separable_conv2d_1339 (Separ (None, 32, 32, 64)        283       
_________________________________________________________________
batch_normalization_1087 (Ba (None, 32, 32, 64)        256       
_________________________________________________________________
activation_1730 (Activation) (None, 32, 32, 64)        0         
_________________________________________________________________
dropout_1730 (Dropout)       (None, 32, 32, 64)        0         
_________________________________________________________________
separable_conv2d_1340 (Separ (None, 32, 32, 1024)      67136     
_________________________________________________________________
batch_normalization_1088 (Ba (None, 32, 32, 1024)      4096      
_________________________________________________________________
activation_1731 (Activation) (None, 32, 32, 1024)      0         
_________________________________________________________________
dropout_1731 (Dropout)       (None, 32, 32, 1024)      0         
_________________________________________________________________
separable_conv2d_1341 (Separ (None, 32, 32, 128)       140416    
_________________________________________________________________
batch_normalization_1089 (Ba (None, 32, 32, 128)       512       
_________________________________________________________________
activation_1732 (Activation) (None, 32, 32, 128)       0         
_________________________________________________________________
dropout_1732 (Dropout)       (None, 32, 32, 128)       0         
_________________________________________________________________
separable_conv2d_1342 (Separ (None, 32, 32, 512)       67200     
_________________________________________________________________
activation_1733 (Activation) (None, 32, 32, 512)       0         
_________________________________________________________________
dropout_1733 (Dropout)       (None, 32, 32, 512)       0         
_________________________________________________________________
separable_conv2d_1343 (Separ (None, 32, 32, 32)        21024     
_________________________________________________________________
batch_normalization_1090 (Ba (None, 32, 32, 32)        128       
_________________________________________________________________
activation_1734 (Activation) (None, 32, 32, 32)        0         
_________________________________________________________________
dropout_1734 (Dropout)       (None, 32, 32, 32)        0         
_________________________________________________________________
max_pooling2d_369 (MaxPoolin (None, 16, 16, 32)        0         
_________________________________________________________________
flatten_209 (Flatten)        (None, 8192)              0         
_________________________________________________________________
dense_600 (Dense)            (None, 100)               819300    
=================================================================
Total params: 1,120,351
Trainable params: 1,117,855
Non-trainable params: 2,496
_________________________________________________________________
