Model: "sequential_92"
_________________________________________________________________
Layer (type)                 Output Shape              Param #   
=================================================================
separable_conv2d_615 (Separa (None, 32, 32, 16)        91        
_________________________________________________________________
activation_806 (Activation)  (None, 32, 32, 16)        0         
_________________________________________________________________
dropout_806 (Dropout)        (None, 32, 32, 16)        0         
_________________________________________________________________
separable_conv2d_616 (Separa (None, 32, 32, 16)        416       
_________________________________________________________________
batch_normalization_492 (Bat (None, 32, 32, 16)        64        
_________________________________________________________________
activation_807 (Activation)  (None, 32, 32, 16)        0         
_________________________________________________________________
dropout_807 (Dropout)        (None, 32, 32, 16)        0         
_________________________________________________________________
separable_conv2d_617 (Separa (None, 32, 32, 8)         280       
_________________________________________________________________
activation_808 (Activation)  (None, 32, 32, 8)         0         
_________________________________________________________________
dropout_808 (Dropout)        (None, 32, 32, 8)         0         
_________________________________________________________________
separable_conv2d_618 (Separa (None, 32, 32, 16)        216       
_________________________________________________________________
batch_normalization_493 (Bat (None, 32, 32, 16)        64        
_________________________________________________________________
activation_809 (Activation)  (None, 32, 32, 16)        0         
_________________________________________________________________
dropout_809 (Dropout)        (None, 32, 32, 16)        0         
_________________________________________________________________
separable_conv2d_619 (Separa (None, 32, 32, 32)        688       
_________________________________________________________________
batch_normalization_494 (Bat (None, 32, 32, 32)        128       
_________________________________________________________________
activation_810 (Activation)  (None, 32, 32, 32)        0         
_________________________________________________________________
dropout_810 (Dropout)        (None, 32, 32, 32)        0         
_________________________________________________________________
separable_conv2d_620 (Separa (None, 32, 32, 512)       17184     
_________________________________________________________________
activation_811 (Activation)  (None, 32, 32, 512)       0         
_________________________________________________________________
dropout_811 (Dropout)        (None, 32, 32, 512)       0         
_________________________________________________________________
separable_conv2d_621 (Separa (None, 32, 32, 32)        21024     
_________________________________________________________________
batch_normalization_495 (Bat (None, 32, 32, 32)        128       
_________________________________________________________________
activation_812 (Activation)  (None, 32, 32, 32)        0         
_________________________________________________________________
dropout_812 (Dropout)        (None, 32, 32, 32)        0         
_________________________________________________________________
max_pooling2d_172 (MaxPoolin (None, 16, 16, 32)        0         
_________________________________________________________________
flatten_92 (Flatten)         (None, 8192)              0         
_________________________________________________________________
dense_283 (Dense)            (None, 100)               819300    
=================================================================
Total params: 859,583
Trainable params: 859,391
Non-trainable params: 192
_________________________________________________________________
