Model: "sequential_331"
_________________________________________________________________
Layer (type)                 Output Shape              Param #   
=================================================================
separable_conv2d_1995 (Separ (None, 32, 32, 64)        283       
_________________________________________________________________
batch_normalization_1607 (Ba (None, 32, 32, 64)        256       
_________________________________________________________________
activation_2442 (Activation) (None, 32, 32, 64)        0         
_________________________________________________________________
dropout_2442 (Dropout)       (None, 32, 32, 64)        0         
_________________________________________________________________
separable_conv2d_1996 (Separ (None, 32, 32, 128)       8896      
_________________________________________________________________
batch_normalization_1608 (Ba (None, 32, 32, 128)       512       
_________________________________________________________________
activation_2443 (Activation) (None, 32, 32, 128)       0         
_________________________________________________________________
dropout_2443 (Dropout)       (None, 32, 32, 128)       0         
_________________________________________________________________
separable_conv2d_1997 (Separ (None, 32, 32, 256)       34176     
_________________________________________________________________
batch_normalization_1609 (Ba (None, 32, 32, 256)       1024      
_________________________________________________________________
activation_2444 (Activation) (None, 32, 32, 256)       0         
_________________________________________________________________
dropout_2444 (Dropout)       (None, 32, 32, 256)       0         
_________________________________________________________________
max_pooling2d_564 (MaxPoolin (None, 16, 16, 256)       0         
_________________________________________________________________
separable_conv2d_1998 (Separ (None, 16, 16, 128)       35200     
_________________________________________________________________
batch_normalization_1610 (Ba (None, 16, 16, 128)       512       
_________________________________________________________________
activation_2445 (Activation) (None, 16, 16, 128)       0         
_________________________________________________________________
dropout_2445 (Dropout)       (None, 16, 16, 128)       0         
_________________________________________________________________
max_pooling2d_565 (MaxPoolin (None, 8, 8, 128)         0         
_________________________________________________________________
flatten_331 (Flatten)        (None, 8192)              0         
_________________________________________________________________
dense_778 (Dense)            (None, 512)               4194816   
_________________________________________________________________
batch_normalization_1611 (Ba (None, 512)               2048      
_________________________________________________________________
activation_2446 (Activation) (None, 512)               0         
_________________________________________________________________
dropout_2446 (Dropout)       (None, 512)               0         
_________________________________________________________________
dense_779 (Dense)            (None, 100)               51300     
=================================================================
Total params: 4,329,023
Trainable params: 4,326,847
Non-trainable params: 2,176
_________________________________________________________________
