Model: "sequential_171"
_________________________________________________________________
Layer (type)                 Output Shape              Param #   
=================================================================
separable_conv2d_1103 (Separ (None, 32, 32, 16)        91        
_________________________________________________________________
activation_1439 (Activation) (None, 32, 32, 16)        0         
_________________________________________________________________
dropout_1439 (Dropout)       (None, 32, 32, 16)        0         
_________________________________________________________________
separable_conv2d_1104 (Separ (None, 32, 32, 16)        416       
_________________________________________________________________
batch_normalization_895 (Bat (None, 32, 32, 16)        64        
_________________________________________________________________
activation_1440 (Activation) (None, 32, 32, 16)        0         
_________________________________________________________________
dropout_1440 (Dropout)       (None, 32, 32, 16)        0         
_________________________________________________________________
separable_conv2d_1105 (Separ (None, 32, 32, 128)       2320      
_________________________________________________________________
batch_normalization_896 (Bat (None, 32, 32, 128)       512       
_________________________________________________________________
activation_1441 (Activation) (None, 32, 32, 128)       0         
_________________________________________________________________
dropout_1441 (Dropout)       (None, 32, 32, 128)       0         
_________________________________________________________________
separable_conv2d_1106 (Separ (None, 32, 32, 512)       67200     
_________________________________________________________________
activation_1442 (Activation) (None, 32, 32, 512)       0         
_________________________________________________________________
dropout_1442 (Dropout)       (None, 32, 32, 512)       0         
_________________________________________________________________
max_pooling2d_307 (MaxPoolin (None, 16, 16, 512)       0         
_________________________________________________________________
separable_conv2d_1107 (Separ (None, 16, 16, 32)        21024     
_________________________________________________________________
batch_normalization_897 (Bat (None, 16, 16, 32)        128       
_________________________________________________________________
activation_1443 (Activation) (None, 16, 16, 32)        0         
_________________________________________________________________
dropout_1443 (Dropout)       (None, 16, 16, 32)        0         
_________________________________________________________________
flatten_171 (Flatten)        (None, 8192)              0         
_________________________________________________________________
dense_507 (Dense)            (None, 512)               4194816   
_________________________________________________________________
activation_1444 (Activation) (None, 512)               0         
_________________________________________________________________
dropout_1444 (Dropout)       (None, 512)               0         
_________________________________________________________________
dense_508 (Dense)            (None, 512)               262656    
_________________________________________________________________
batch_normalization_898 (Bat (None, 512)               2048      
_________________________________________________________________
activation_1445 (Activation) (None, 512)               0         
_________________________________________________________________
dropout_1445 (Dropout)       (None, 512)               0         
_________________________________________________________________
dense_509 (Dense)            (None, 100)               51300     
=================================================================
Total params: 4,602,575
Trainable params: 4,601,199
Non-trainable params: 1,376
_________________________________________________________________
