Model: "sequential_212"
_________________________________________________________________
Layer (type)                 Output Shape              Param #   
=================================================================
separable_conv2d_1358 (Separ (None, 32, 32, 64)        283       
_________________________________________________________________
batch_normalization_1099 (Ba (None, 32, 32, 64)        256       
_________________________________________________________________
activation_1749 (Activation) (None, 32, 32, 64)        0         
_________________________________________________________________
dropout_1749 (Dropout)       (None, 32, 32, 64)        0         
_________________________________________________________________
separable_conv2d_1359 (Separ (None, 32, 32, 16)        1616      
_________________________________________________________________
batch_normalization_1100 (Ba (None, 32, 32, 16)        64        
_________________________________________________________________
activation_1750 (Activation) (None, 32, 32, 16)        0         
_________________________________________________________________
dropout_1750 (Dropout)       (None, 32, 32, 16)        0         
_________________________________________________________________
separable_conv2d_1360 (Separ (None, 32, 32, 128)       2320      
_________________________________________________________________
batch_normalization_1101 (Ba (None, 32, 32, 128)       512       
_________________________________________________________________
activation_1751 (Activation) (None, 32, 32, 128)       0         
_________________________________________________________________
dropout_1751 (Dropout)       (None, 32, 32, 128)       0         
_________________________________________________________________
separable_conv2d_1361 (Separ (None, 32, 32, 512)       67200     
_________________________________________________________________
activation_1752 (Activation) (None, 32, 32, 512)       0         
_________________________________________________________________
dropout_1752 (Dropout)       (None, 32, 32, 512)       0         
_________________________________________________________________
max_pooling2d_374 (MaxPoolin (None, 16, 16, 512)       0         
_________________________________________________________________
separable_conv2d_1362 (Separ (None, 16, 16, 256)       135936    
_________________________________________________________________
batch_normalization_1102 (Ba (None, 16, 16, 256)       1024      
_________________________________________________________________
activation_1753 (Activation) (None, 16, 16, 256)       0         
_________________________________________________________________
dropout_1753 (Dropout)       (None, 16, 16, 256)       0         
_________________________________________________________________
max_pooling2d_375 (MaxPoolin (None, 8, 8, 256)         0         
_________________________________________________________________
flatten_212 (Flatten)        (None, 16384)             0         
_________________________________________________________________
dense_603 (Dense)            (None, 512)               8389120   
_________________________________________________________________
activation_1754 (Activation) (None, 512)               0         
_________________________________________________________________
dropout_1754 (Dropout)       (None, 512)               0         
_________________________________________________________________
dense_604 (Dense)            (None, 128)               65664     
_________________________________________________________________
batch_normalization_1103 (Ba (None, 128)               512       
_________________________________________________________________
activation_1755 (Activation) (None, 128)               0         
_________________________________________________________________
dropout_1755 (Dropout)       (None, 128)               0         
_________________________________________________________________
dense_605 (Dense)            (None, 100)               12900     
=================================================================
Total params: 8,677,407
Trainable params: 8,676,223
Non-trainable params: 1,184
_________________________________________________________________
