Model: "sequential_125"
_________________________________________________________________
Layer (type)                 Output Shape              Param #   
=================================================================
separable_conv2d_830 (Separa (None, 32, 32, 16)        91        
_________________________________________________________________
activation_1080 (Activation) (None, 32, 32, 16)        0         
_________________________________________________________________
dropout_1080 (Dropout)       (None, 32, 32, 16)        0         
_________________________________________________________________
separable_conv2d_831 (Separa (None, 32, 32, 128)       2320      
_________________________________________________________________
batch_normalization_665 (Bat (None, 32, 32, 128)       512       
_________________________________________________________________
activation_1081 (Activation) (None, 32, 32, 128)       0         
_________________________________________________________________
dropout_1081 (Dropout)       (None, 32, 32, 128)       0         
_________________________________________________________________
separable_conv2d_832 (Separa (None, 32, 32, 512)       67200     
_________________________________________________________________
activation_1082 (Activation) (None, 32, 32, 512)       0         
_________________________________________________________________
dropout_1082 (Dropout)       (None, 32, 32, 512)       0         
_________________________________________________________________
max_pooling2d_232 (MaxPoolin (None, 16, 16, 512)       0         
_________________________________________________________________
separable_conv2d_833 (Separa (None, 16, 16, 256)       135936    
_________________________________________________________________
batch_normalization_666 (Bat (None, 16, 16, 256)       1024      
_________________________________________________________________
activation_1083 (Activation) (None, 16, 16, 256)       0         
_________________________________________________________________
dropout_1083 (Dropout)       (None, 16, 16, 256)       0         
_________________________________________________________________
max_pooling2d_233 (MaxPoolin (None, 8, 8, 256)         0         
_________________________________________________________________
flatten_125 (Flatten)        (None, 16384)             0         
_________________________________________________________________
dense_375 (Dense)            (None, 32)                524320    
_________________________________________________________________
batch_normalization_667 (Bat (None, 32)                128       
_________________________________________________________________
activation_1084 (Activation) (None, 32)                0         
_________________________________________________________________
dropout_1084 (Dropout)       (None, 32)                0         
_________________________________________________________________
dense_376 (Dense)            (None, 512)               16896     
_________________________________________________________________
activation_1085 (Activation) (None, 512)               0         
_________________________________________________________________
dropout_1085 (Dropout)       (None, 512)               0         
_________________________________________________________________
dense_377 (Dense)            (None, 512)               262656    
_________________________________________________________________
batch_normalization_668 (Bat (None, 512)               2048      
_________________________________________________________________
activation_1086 (Activation) (None, 512)               0         
_________________________________________________________________
dropout_1086 (Dropout)       (None, 512)               0         
_________________________________________________________________
dense_378 (Dense)            (None, 100)               51300     
=================================================================
Total params: 1,064,431
Trainable params: 1,062,575
Non-trainable params: 1,856
_________________________________________________________________
