Model: "sequential_10"
_________________________________________________________________
Layer (type)                 Output Shape              Param #   
=================================================================
separable_conv2d_74 (Separab (None, 32, 32, 32)        155       
_________________________________________________________________
activation_100 (Activation)  (None, 32, 32, 32)        0         
_________________________________________________________________
dropout_100 (Dropout)        (None, 32, 32, 32)        0         
_________________________________________________________________
separable_conv2d_75 (Separab (None, 32, 32, 256)       8736      
_________________________________________________________________
batch_normalization_52 (Batc (None, 32, 32, 256)       1024      
_________________________________________________________________
activation_101 (Activation)  (None, 32, 32, 256)       0         
_________________________________________________________________
dropout_101 (Dropout)        (None, 32, 32, 256)       0         
_________________________________________________________________
max_pooling2d_22 (MaxPooling (None, 16, 16, 256)       0         
_________________________________________________________________
separable_conv2d_76 (Separab (None, 16, 16, 16)        6416      
_________________________________________________________________
activation_102 (Activation)  (None, 16, 16, 16)        0         
_________________________________________________________________
dropout_102 (Dropout)        (None, 16, 16, 16)        0         
_________________________________________________________________
separable_conv2d_77 (Separab (None, 16, 16, 1024)      17552     
_________________________________________________________________
activation_103 (Activation)  (None, 16, 16, 1024)      0         
_________________________________________________________________
dropout_103 (Dropout)        (None, 16, 16, 1024)      0         
_________________________________________________________________
separable_conv2d_78 (Separab (None, 16, 16, 128)       140416    
_________________________________________________________________
activation_104 (Activation)  (None, 16, 16, 128)       0         
_________________________________________________________________
dropout_104 (Dropout)        (None, 16, 16, 128)       0         
_________________________________________________________________
separable_conv2d_79 (Separab (None, 16, 16, 8)         2184      
_________________________________________________________________
batch_normalization_53 (Batc (None, 16, 16, 8)         32        
_________________________________________________________________
activation_105 (Activation)  (None, 16, 16, 8)         0         
_________________________________________________________________
dropout_105 (Dropout)        (None, 16, 16, 8)         0         
_________________________________________________________________
separable_conv2d_80 (Separab (None, 16, 16, 8)         144       
_________________________________________________________________
activation_106 (Activation)  (None, 16, 16, 8)         0         
_________________________________________________________________
dropout_106 (Dropout)        (None, 16, 16, 8)         0         
_________________________________________________________________
flatten_10 (Flatten)         (None, 2048)              0         
_________________________________________________________________
dense_36 (Dense)             (None, 64)                131136    
_________________________________________________________________
activation_107 (Activation)  (None, 64)                0         
_________________________________________________________________
dropout_107 (Dropout)        (None, 64)                0         
_________________________________________________________________
dense_37 (Dense)             (None, 256)               16640     
_________________________________________________________________
activation_108 (Activation)  (None, 256)               0         
_________________________________________________________________
dropout_108 (Dropout)        (None, 256)               0         
_________________________________________________________________
dense_38 (Dense)             (None, 100)               25700     
=================================================================
Total params: 350,135
Trainable params: 349,607
Non-trainable params: 528
_________________________________________________________________
