Model: "sequential_361"
_________________________________________________________________
Layer (type)                 Output Shape              Param #   
=================================================================
separable_conv2d_2132 (Separ (None, 32, 32, 16)        91        
_________________________________________________________________
activation_2588 (Activation) (None, 32, 32, 16)        0         
_________________________________________________________________
dropout_2588 (Dropout)       (None, 32, 32, 16)        0         
_________________________________________________________________
separable_conv2d_2133 (Separ (None, 32, 32, 16)        416       
_________________________________________________________________
batch_normalization_1731 (Ba (None, 32, 32, 16)        64        
_________________________________________________________________
activation_2589 (Activation) (None, 32, 32, 16)        0         
_________________________________________________________________
dropout_2589 (Dropout)       (None, 32, 32, 16)        0         
_________________________________________________________________
separable_conv2d_2134 (Separ (None, 32, 32, 128)       2320      
_________________________________________________________________
batch_normalization_1732 (Ba (None, 32, 32, 128)       512       
_________________________________________________________________
activation_2590 (Activation) (None, 32, 32, 128)       0         
_________________________________________________________________
dropout_2590 (Dropout)       (None, 32, 32, 128)       0         
_________________________________________________________________
separable_conv2d_2135 (Separ (None, 32, 32, 256)       34176     
_________________________________________________________________
batch_normalization_1733 (Ba (None, 32, 32, 256)       1024      
_________________________________________________________________
activation_2591 (Activation) (None, 32, 32, 256)       0         
_________________________________________________________________
dropout_2591 (Dropout)       (None, 32, 32, 256)       0         
_________________________________________________________________
max_pooling2d_619 (MaxPoolin (None, 16, 16, 256)       0         
_________________________________________________________________
separable_conv2d_2136 (Separ (None, 16, 16, 128)       35200     
_________________________________________________________________
batch_normalization_1734 (Ba (None, 16, 16, 128)       512       
_________________________________________________________________
activation_2592 (Activation) (None, 16, 16, 128)       0         
_________________________________________________________________
dropout_2592 (Dropout)       (None, 16, 16, 128)       0         
_________________________________________________________________
max_pooling2d_620 (MaxPoolin (None, 8, 8, 128)         0         
_________________________________________________________________
flatten_361 (Flatten)        (None, 8192)              0         
_________________________________________________________________
dense_817 (Dense)            (None, 100)               819300    
=================================================================
Total params: 893,615
Trainable params: 892,559
Non-trainable params: 1,056
_________________________________________________________________
