Model: "sequential_239"
_________________________________________________________________
Layer (type)                 Output Shape              Param #   
=================================================================
separable_conv2d_1524 (Separ (None, 32, 32, 64)        283       
_________________________________________________________________
activation_1938 (Activation) (None, 32, 32, 64)        0         
_________________________________________________________________
dropout_1938 (Dropout)       (None, 32, 32, 64)        0         
_________________________________________________________________
separable_conv2d_1525 (Separ (None, 32, 32, 1024)      67136     
_________________________________________________________________
batch_normalization_1226 (Ba (None, 32, 32, 1024)      4096      
_________________________________________________________________
activation_1939 (Activation) (None, 32, 32, 1024)      0         
_________________________________________________________________
dropout_1939 (Dropout)       (None, 32, 32, 1024)      0         
_________________________________________________________________
separable_conv2d_1526 (Separ (None, 32, 32, 128)       140416    
_________________________________________________________________
batch_normalization_1227 (Ba (None, 32, 32, 128)       512       
_________________________________________________________________
activation_1940 (Activation) (None, 32, 32, 128)       0         
_________________________________________________________________
dropout_1940 (Dropout)       (None, 32, 32, 128)       0         
_________________________________________________________________
separable_conv2d_1527 (Separ (None, 32, 32, 32)        5280      
_________________________________________________________________
batch_normalization_1228 (Ba (None, 32, 32, 32)        128       
_________________________________________________________________
activation_1941 (Activation) (None, 32, 32, 32)        0         
_________________________________________________________________
dropout_1941 (Dropout)       (None, 32, 32, 32)        0         
_________________________________________________________________
separable_conv2d_1528 (Separ (None, 32, 32, 512)       17184     
_________________________________________________________________
activation_1942 (Activation) (None, 32, 32, 512)       0         
_________________________________________________________________
dropout_1942 (Dropout)       (None, 32, 32, 512)       0         
_________________________________________________________________
separable_conv2d_1529 (Separ (None, 32, 32, 32)        21024     
_________________________________________________________________
batch_normalization_1229 (Ba (None, 32, 32, 32)        128       
_________________________________________________________________
activation_1943 (Activation) (None, 32, 32, 32)        0         
_________________________________________________________________
dropout_1943 (Dropout)       (None, 32, 32, 32)        0         
_________________________________________________________________
max_pooling2d_423 (MaxPoolin (None, 16, 16, 32)        0         
_________________________________________________________________
flatten_239 (Flatten)        (None, 8192)              0         
_________________________________________________________________
dense_653 (Dense)            (None, 100)               819300    
=================================================================
Total params: 1,075,487
Trainable params: 1,073,055
Non-trainable params: 2,432
_________________________________________________________________
