Model: "sequential_113"
_________________________________________________________________
Layer (type)                 Output Shape              Param #   
=================================================================
separable_conv2d_752 (Separa (None, 32, 32, 64)        283       
_________________________________________________________________
batch_normalization_608 (Bat (None, 32, 32, 64)        256       
_________________________________________________________________
activation_984 (Activation)  (None, 32, 32, 64)        0         
_________________________________________________________________
dropout_984 (Dropout)        (None, 32, 32, 64)        0         
_________________________________________________________________
separable_conv2d_753 (Separa (None, 32, 32, 1024)      67136     
_________________________________________________________________
batch_normalization_609 (Bat (None, 32, 32, 1024)      4096      
_________________________________________________________________
activation_985 (Activation)  (None, 32, 32, 1024)      0         
_________________________________________________________________
dropout_985 (Dropout)        (None, 32, 32, 1024)      0         
_________________________________________________________________
separable_conv2d_754 (Separa (None, 32, 32, 16)        25616     
_________________________________________________________________
activation_986 (Activation)  (None, 32, 32, 16)        0         
_________________________________________________________________
dropout_986 (Dropout)        (None, 32, 32, 16)        0         
_________________________________________________________________
max_pooling2d_212 (MaxPoolin (None, 16, 16, 16)        0         
_________________________________________________________________
separable_conv2d_755 (Separa (None, 16, 16, 64)        1232      
_________________________________________________________________
batch_normalization_610 (Bat (None, 16, 16, 64)        256       
_________________________________________________________________
activation_987 (Activation)  (None, 16, 16, 64)        0         
_________________________________________________________________
dropout_987 (Dropout)        (None, 16, 16, 64)        0         
_________________________________________________________________
separable_conv2d_756 (Separa (None, 16, 16, 256)       17216     
_________________________________________________________________
batch_normalization_611 (Bat (None, 16, 16, 256)       1024      
_________________________________________________________________
activation_988 (Activation)  (None, 16, 16, 256)       0         
_________________________________________________________________
dropout_988 (Dropout)        (None, 16, 16, 256)       0         
_________________________________________________________________
max_pooling2d_213 (MaxPoolin (None, 8, 8, 256)         0         
_________________________________________________________________
flatten_113 (Flatten)        (None, 16384)             0         
_________________________________________________________________
dense_345 (Dense)            (None, 256)               4194560   
_________________________________________________________________
batch_normalization_612 (Bat (None, 256)               1024      
_________________________________________________________________
activation_989 (Activation)  (None, 256)               0         
_________________________________________________________________
dropout_989 (Dropout)        (None, 256)               0         
_________________________________________________________________
dense_346 (Dense)            (None, 256)               65792     
_________________________________________________________________
batch_normalization_613 (Bat (None, 256)               1024      
_________________________________________________________________
activation_990 (Activation)  (None, 256)               0         
_________________________________________________________________
dropout_990 (Dropout)        (None, 256)               0         
_________________________________________________________________
dense_347 (Dense)            (None, 64)                16448     
_________________________________________________________________
batch_normalization_614 (Bat (None, 64)                256       
_________________________________________________________________
activation_991 (Activation)  (None, 64)                0         
_________________________________________________________________
dropout_991 (Dropout)        (None, 64)                0         
_________________________________________________________________
dense_348 (Dense)            (None, 100)               6500      
=================================================================
Total params: 4,402,719
Trainable params: 4,398,751
Non-trainable params: 3,968
_________________________________________________________________
