Model: "sequential_78"
_________________________________________________________________
Layer (type)                 Output Shape              Param #   
=================================================================
separable_conv2d_528 (Separa (None, 32, 32, 16)        91        
_________________________________________________________________
activation_685 (Activation)  (None, 32, 32, 16)        0         
_________________________________________________________________
dropout_685 (Dropout)        (None, 32, 32, 16)        0         
_________________________________________________________________
separable_conv2d_529 (Separa (None, 32, 32, 16)        416       
_________________________________________________________________
batch_normalization_413 (Bat (None, 32, 32, 16)        64        
_________________________________________________________________
activation_686 (Activation)  (None, 32, 32, 16)        0         
_________________________________________________________________
dropout_686 (Dropout)        (None, 32, 32, 16)        0         
_________________________________________________________________
separable_conv2d_530 (Separa (None, 32, 32, 8)         280       
_________________________________________________________________
activation_687 (Activation)  (None, 32, 32, 8)         0         
_________________________________________________________________
dropout_687 (Dropout)        (None, 32, 32, 8)         0         
_________________________________________________________________
separable_conv2d_531 (Separa (None, 32, 32, 16)        216       
_________________________________________________________________
batch_normalization_414 (Bat (None, 32, 32, 16)        64        
_________________________________________________________________
activation_688 (Activation)  (None, 32, 32, 16)        0         
_________________________________________________________________
dropout_688 (Dropout)        (None, 32, 32, 16)        0         
_________________________________________________________________
separable_conv2d_532 (Separa (None, 32, 32, 32)        688       
_________________________________________________________________
batch_normalization_415 (Bat (None, 32, 32, 32)        128       
_________________________________________________________________
activation_689 (Activation)  (None, 32, 32, 32)        0         
_________________________________________________________________
dropout_689 (Dropout)        (None, 32, 32, 32)        0         
_________________________________________________________________
separable_conv2d_533 (Separa (None, 32, 32, 512)       17184     
_________________________________________________________________
activation_690 (Activation)  (None, 32, 32, 512)       0         
_________________________________________________________________
dropout_690 (Dropout)        (None, 32, 32, 512)       0         
_________________________________________________________________
separable_conv2d_534 (Separa (None, 32, 32, 32)        21024     
_________________________________________________________________
batch_normalization_416 (Bat (None, 32, 32, 32)        128       
_________________________________________________________________
activation_691 (Activation)  (None, 32, 32, 32)        0         
_________________________________________________________________
dropout_691 (Dropout)        (None, 32, 32, 32)        0         
_________________________________________________________________
max_pooling2d_149 (MaxPoolin (None, 16, 16, 32)        0         
_________________________________________________________________
flatten_78 (Flatten)         (None, 8192)              0         
_________________________________________________________________
dense_235 (Dense)            (None, 32)                262176    
_________________________________________________________________
batch_normalization_417 (Bat (None, 32)                128       
_________________________________________________________________
activation_692 (Activation)  (None, 32)                0         
_________________________________________________________________
dropout_692 (Dropout)        (None, 32)                0         
_________________________________________________________________
dense_236 (Dense)            (None, 512)               16896     
_________________________________________________________________
activation_693 (Activation)  (None, 512)               0         
_________________________________________________________________
dropout_693 (Dropout)        (None, 512)               0         
_________________________________________________________________
dense_237 (Dense)            (None, 512)               262656    
_________________________________________________________________
batch_normalization_418 (Bat (None, 512)               2048      
_________________________________________________________________
activation_694 (Activation)  (None, 512)               0         
_________________________________________________________________
dropout_694 (Dropout)        (None, 512)               0         
_________________________________________________________________
dense_238 (Dense)            (None, 100)               51300     
=================================================================
Total params: 635,487
Trainable params: 634,207
Non-trainable params: 1,280
_________________________________________________________________
