Model: "sequential_305"
_________________________________________________________________
Layer (type)                 Output Shape              Param #   
=================================================================
separable_conv2d_1872 (Separ (None, 32, 32, 64)        283       
_________________________________________________________________
batch_normalization_1506 (Ba (None, 32, 32, 64)        256       
_________________________________________________________________
activation_2313 (Activation) (None, 32, 32, 64)        0         
_________________________________________________________________
dropout_2313 (Dropout)       (None, 32, 32, 64)        0         
_________________________________________________________________
separable_conv2d_1873 (Separ (None, 32, 32, 16)        1616      
_________________________________________________________________
batch_normalization_1507 (Ba (None, 32, 32, 16)        64        
_________________________________________________________________
activation_2314 (Activation) (None, 32, 32, 16)        0         
_________________________________________________________________
dropout_2314 (Dropout)       (None, 32, 32, 16)        0         
_________________________________________________________________
separable_conv2d_1874 (Separ (None, 32, 32, 128)       2320      
_________________________________________________________________
batch_normalization_1508 (Ba (None, 32, 32, 128)       512       
_________________________________________________________________
activation_2315 (Activation) (None, 32, 32, 128)       0         
_________________________________________________________________
dropout_2315 (Dropout)       (None, 32, 32, 128)       0         
_________________________________________________________________
separable_conv2d_1875 (Separ (None, 32, 32, 512)       67200     
_________________________________________________________________
activation_2316 (Activation) (None, 32, 32, 512)       0         
_________________________________________________________________
dropout_2316 (Dropout)       (None, 32, 32, 512)       0         
_________________________________________________________________
max_pooling2d_521 (MaxPoolin (None, 16, 16, 512)       0         
_________________________________________________________________
separable_conv2d_1876 (Separ (None, 16, 16, 256)       135936    
_________________________________________________________________
batch_normalization_1509 (Ba (None, 16, 16, 256)       1024      
_________________________________________________________________
activation_2317 (Activation) (None, 16, 16, 256)       0         
_________________________________________________________________
dropout_2317 (Dropout)       (None, 16, 16, 256)       0         
_________________________________________________________________
max_pooling2d_522 (MaxPoolin (None, 8, 8, 256)         0         
_________________________________________________________________
separable_conv2d_1877 (Separ (None, 8, 8, 128)         35200     
_________________________________________________________________
batch_normalization_1510 (Ba (None, 8, 8, 128)         512       
_________________________________________________________________
activation_2318 (Activation) (None, 8, 8, 128)         0         
_________________________________________________________________
dropout_2318 (Dropout)       (None, 8, 8, 128)         0         
_________________________________________________________________
flatten_305 (Flatten)        (None, 8192)              0         
_________________________________________________________________
dense_746 (Dense)            (None, 256)               2097408   
_________________________________________________________________
batch_normalization_1511 (Ba (None, 256)               1024      
_________________________________________________________________
activation_2319 (Activation) (None, 256)               0         
_________________________________________________________________
dropout_2319 (Dropout)       (None, 256)               0         
_________________________________________________________________
dense_747 (Dense)            (None, 100)               25700     
=================================================================
Total params: 2,369,055
Trainable params: 2,367,359
Non-trainable params: 1,696
_________________________________________________________________
