Model: "sequential_1"
_________________________________________________________________
Layer (type)                 Output Shape              Param #   
=================================================================
separable_conv2d_6 (Separabl (None, 32, 32, 128)       539       
_________________________________________________________________
batch_normalization_2 (Batch (None, 32, 32, 128)       512       
_________________________________________________________________
activation_6 (Activation)    (None, 32, 32, 128)       0         
_________________________________________________________________
dropout_6 (Dropout)          (None, 32, 32, 128)       0         
_________________________________________________________________
separable_conv2d_7 (Separabl (None, 32, 32, 512)       67200     
_________________________________________________________________
activation_7 (Activation)    (None, 32, 32, 512)       0         
_________________________________________________________________
dropout_7 (Dropout)          (None, 32, 32, 512)       0         
_________________________________________________________________
max_pooling2d (MaxPooling2D) (None, 16, 16, 512)       0         
_________________________________________________________________
separable_conv2d_8 (Separabl (None, 16, 16, 32)        21024     
_________________________________________________________________
batch_normalization_3 (Batch (None, 16, 16, 32)        128       
_________________________________________________________________
activation_8 (Activation)    (None, 16, 16, 32)        0         
_________________________________________________________________
dropout_8 (Dropout)          (None, 16, 16, 32)        0         
_________________________________________________________________
separable_conv2d_9 (Separabl (None, 16, 16, 1024)      34080     
_________________________________________________________________
batch_normalization_4 (Batch (None, 16, 16, 1024)      4096      
_________________________________________________________________
activation_9 (Activation)    (None, 16, 16, 1024)      0         
_________________________________________________________________
dropout_9 (Dropout)          (None, 16, 16, 1024)      0         
_________________________________________________________________
max_pooling2d_1 (MaxPooling2 (None, 8, 8, 1024)        0         
_________________________________________________________________
separable_conv2d_10 (Separab (None, 8, 8, 128)         140416    
_________________________________________________________________
batch_normalization_5 (Batch (None, 8, 8, 128)         512       
_________________________________________________________________
activation_10 (Activation)   (None, 8, 8, 128)         0         
_________________________________________________________________
dropout_10 (Dropout)         (None, 8, 8, 128)         0         
_________________________________________________________________
separable_conv2d_11 (Separab (None, 8, 8, 16)          3216      
_________________________________________________________________
batch_normalization_6 (Batch (None, 8, 8, 16)          64        
_________________________________________________________________
activation_11 (Activation)   (None, 8, 8, 16)          0         
_________________________________________________________________
dropout_11 (Dropout)         (None, 8, 8, 16)          0         
_________________________________________________________________
separable_conv2d_12 (Separab (None, 8, 8, 32)          688       
_________________________________________________________________
activation_12 (Activation)   (None, 8, 8, 32)          0         
_________________________________________________________________
dropout_12 (Dropout)         (None, 8, 8, 32)          0         
_________________________________________________________________
max_pooling2d_2 (MaxPooling2 (None, 4, 4, 32)          0         
_________________________________________________________________
separable_conv2d_13 (Separab (None, 4, 4, 8)           552       
_________________________________________________________________
activation_13 (Activation)   (None, 4, 4, 8)           0         
_________________________________________________________________
dropout_13 (Dropout)         (None, 4, 4, 8)           0         
_________________________________________________________________
separable_conv2d_14 (Separab (None, 4, 4, 512)         4680      
_________________________________________________________________
activation_14 (Activation)   (None, 4, 4, 512)         0         
_________________________________________________________________
dropout_14 (Dropout)         (None, 4, 4, 512)         0         
_________________________________________________________________
flatten_1 (Flatten)          (None, 8192)              0         
_________________________________________________________________
dense_1 (Dense)              (None, 512)               4194816   
_________________________________________________________________
batch_normalization_7 (Batch (None, 512)               2048      
_________________________________________________________________
activation_15 (Activation)   (None, 512)               0         
_________________________________________________________________
dropout_15 (Dropout)         (None, 512)               0         
_________________________________________________________________
dense_2 (Dense)              (None, 100)               51300     
=================================================================
Total params: 4,525,871
Trainable params: 4,522,191
Non-trainable params: 3,680
_________________________________________________________________
