Model: "sequential_294"
_________________________________________________________________
Layer (type)                 Output Shape              Param #   
=================================================================
separable_conv2d_1817 (Separ (None, 32, 32, 64)        283       
_________________________________________________________________
batch_normalization_1458 (Ba (None, 32, 32, 64)        256       
_________________________________________________________________
activation_2253 (Activation) (None, 32, 32, 64)        0         
_________________________________________________________________
dropout_2253 (Dropout)       (None, 32, 32, 64)        0         
_________________________________________________________________
separable_conv2d_1818 (Separ (None, 32, 32, 128)       8896      
_________________________________________________________________
batch_normalization_1459 (Ba (None, 32, 32, 128)       512       
_________________________________________________________________
activation_2254 (Activation) (None, 32, 32, 128)       0         
_________________________________________________________________
dropout_2254 (Dropout)       (None, 32, 32, 128)       0         
_________________________________________________________________
separable_conv2d_1819 (Separ (None, 32, 32, 64)        9408      
_________________________________________________________________
batch_normalization_1460 (Ba (None, 32, 32, 64)        256       
_________________________________________________________________
activation_2255 (Activation) (None, 32, 32, 64)        0         
_________________________________________________________________
dropout_2255 (Dropout)       (None, 32, 32, 64)        0         
_________________________________________________________________
separable_conv2d_1820 (Separ (None, 32, 32, 128)       8896      
_________________________________________________________________
batch_normalization_1461 (Ba (None, 32, 32, 128)       512       
_________________________________________________________________
activation_2256 (Activation) (None, 32, 32, 128)       0         
_________________________________________________________________
dropout_2256 (Dropout)       (None, 32, 32, 128)       0         
_________________________________________________________________
flatten_294 (Flatten)        (None, 131072)            0         
_________________________________________________________________
dense_730 (Dense)            (None, 100)               13107300  
=================================================================
Total params: 13,136,319
Trainable params: 13,135,551
Non-trainable params: 768
_________________________________________________________________
