Model: "sequential_48"
_________________________________________________________________
Layer (type)                 Output Shape              Param #   
=================================================================
separable_conv2d_335 (Separa (None, 32, 32, 16)        91        
_________________________________________________________________
activation_436 (Activation)  (None, 32, 32, 16)        0         
_________________________________________________________________
dropout_436 (Dropout)        (None, 32, 32, 16)        0         
_________________________________________________________________
separable_conv2d_336 (Separa (None, 32, 32, 16)        416       
_________________________________________________________________
batch_normalization_253 (Bat (None, 32, 32, 16)        64        
_________________________________________________________________
activation_437 (Activation)  (None, 32, 32, 16)        0         
_________________________________________________________________
dropout_437 (Dropout)        (None, 32, 32, 16)        0         
_________________________________________________________________
separable_conv2d_337 (Separa (None, 32, 32, 128)       2320      
_________________________________________________________________
activation_438 (Activation)  (None, 32, 32, 128)       0         
_________________________________________________________________
dropout_438 (Dropout)        (None, 32, 32, 128)       0         
_________________________________________________________________
separable_conv2d_338 (Separa (None, 32, 32, 512)       67200     
_________________________________________________________________
activation_439 (Activation)  (None, 32, 32, 512)       0         
_________________________________________________________________
dropout_439 (Dropout)        (None, 32, 32, 512)       0         
_________________________________________________________________
max_pooling2d_95 (MaxPooling (None, 16, 16, 512)       0         
_________________________________________________________________
separable_conv2d_339 (Separa (None, 16, 16, 256)       135936    
_________________________________________________________________
batch_normalization_254 (Bat (None, 16, 16, 256)       1024      
_________________________________________________________________
activation_440 (Activation)  (None, 16, 16, 256)       0         
_________________________________________________________________
dropout_440 (Dropout)        (None, 16, 16, 256)       0         
_________________________________________________________________
max_pooling2d_96 (MaxPooling (None, 8, 8, 256)         0         
_________________________________________________________________
flatten_48 (Flatten)         (None, 16384)             0         
_________________________________________________________________
dense_149 (Dense)            (None, 32)                524320    
_________________________________________________________________
batch_normalization_255 (Bat (None, 32)                128       
_________________________________________________________________
activation_441 (Activation)  (None, 32)                0         
_________________________________________________________________
dropout_441 (Dropout)        (None, 32)                0         
_________________________________________________________________
dense_150 (Dense)            (None, 512)               16896     
_________________________________________________________________
activation_442 (Activation)  (None, 512)               0         
_________________________________________________________________
dropout_442 (Dropout)        (None, 512)               0         
_________________________________________________________________
dense_151 (Dense)            (None, 512)               262656    
_________________________________________________________________
batch_normalization_256 (Bat (None, 512)               2048      
_________________________________________________________________
activation_443 (Activation)  (None, 512)               0         
_________________________________________________________________
dropout_443 (Dropout)        (None, 512)               0         
_________________________________________________________________
dense_152 (Dense)            (None, 100)               51300     
=================================================================
Total params: 1,064,399
Trainable params: 1,062,767
Non-trainable params: 1,632
_________________________________________________________________
