Model: "sequential_355"
_________________________________________________________________
Layer (type)                 Output Shape              Param #   
=================================================================
separable_conv2d_2105 (Separ (None, 32, 32, 64)        283       
_________________________________________________________________
batch_normalization_1705 (Ba (None, 32, 32, 64)        256       
_________________________________________________________________
activation_2559 (Activation) (None, 32, 32, 64)        0         
_________________________________________________________________
dropout_2559 (Dropout)       (None, 32, 32, 64)        0         
_________________________________________________________________
separable_conv2d_2106 (Separ (None, 32, 32, 128)       8896      
_________________________________________________________________
batch_normalization_1706 (Ba (None, 32, 32, 128)       512       
_________________________________________________________________
activation_2560 (Activation) (None, 32, 32, 128)       0         
_________________________________________________________________
dropout_2560 (Dropout)       (None, 32, 32, 128)       0         
_________________________________________________________________
separable_conv2d_2107 (Separ (None, 32, 32, 256)       34176     
_________________________________________________________________
activation_2561 (Activation) (None, 32, 32, 256)       0         
_________________________________________________________________
dropout_2561 (Dropout)       (None, 32, 32, 256)       0         
_________________________________________________________________
max_pooling2d_607 (MaxPoolin (None, 16, 16, 256)       0         
_________________________________________________________________
separable_conv2d_2108 (Separ (None, 16, 16, 32)        10528     
_________________________________________________________________
batch_normalization_1707 (Ba (None, 16, 16, 32)        128       
_________________________________________________________________
activation_2562 (Activation) (None, 16, 16, 32)        0         
_________________________________________________________________
dropout_2562 (Dropout)       (None, 16, 16, 32)        0         
_________________________________________________________________
max_pooling2d_608 (MaxPoolin (None, 8, 8, 32)          0         
_________________________________________________________________
flatten_355 (Flatten)        (None, 2048)              0         
_________________________________________________________________
dense_809 (Dense)            (None, 256)               524544    
_________________________________________________________________
batch_normalization_1708 (Ba (None, 256)               1024      
_________________________________________________________________
activation_2563 (Activation) (None, 256)               0         
_________________________________________________________________
dropout_2563 (Dropout)       (None, 256)               0         
_________________________________________________________________
dense_810 (Dense)            (None, 100)               25700     
=================================================================
Total params: 606,047
Trainable params: 605,087
Non-trainable params: 960
_________________________________________________________________
