Model: "sequential_99"
_________________________________________________________________
Layer (type)                 Output Shape              Param #   
=================================================================
separable_conv2d_662 (Separa (None, 32, 32, 16)        91        
_________________________________________________________________
activation_865 (Activation)  (None, 32, 32, 16)        0         
_________________________________________________________________
dropout_865 (Dropout)        (None, 32, 32, 16)        0         
_________________________________________________________________
separable_conv2d_663 (Separa (None, 32, 32, 16)        416       
_________________________________________________________________
batch_normalization_530 (Bat (None, 32, 32, 16)        64        
_________________________________________________________________
activation_866 (Activation)  (None, 32, 32, 16)        0         
_________________________________________________________________
dropout_866 (Dropout)        (None, 32, 32, 16)        0         
_________________________________________________________________
separable_conv2d_664 (Separa (None, 32, 32, 128)       2320      
_________________________________________________________________
batch_normalization_531 (Bat (None, 32, 32, 128)       512       
_________________________________________________________________
activation_867 (Activation)  (None, 32, 32, 128)       0         
_________________________________________________________________
dropout_867 (Dropout)        (None, 32, 32, 128)       0         
_________________________________________________________________
separable_conv2d_665 (Separa (None, 32, 32, 512)       67200     
_________________________________________________________________
activation_868 (Activation)  (None, 32, 32, 512)       0         
_________________________________________________________________
dropout_868 (Dropout)        (None, 32, 32, 512)       0         
_________________________________________________________________
max_pooling2d_185 (MaxPoolin (None, 16, 16, 512)       0         
_________________________________________________________________
separable_conv2d_666 (Separa (None, 16, 16, 256)       135936    
_________________________________________________________________
batch_normalization_532 (Bat (None, 16, 16, 256)       1024      
_________________________________________________________________
activation_869 (Activation)  (None, 16, 16, 256)       0         
_________________________________________________________________
dropout_869 (Dropout)        (None, 16, 16, 256)       0         
_________________________________________________________________
separable_conv2d_667 (Separa (None, 16, 16, 64)        18752     
_________________________________________________________________
activation_870 (Activation)  (None, 16, 16, 64)        0         
_________________________________________________________________
dropout_870 (Dropout)        (None, 16, 16, 64)        0         
_________________________________________________________________
max_pooling2d_186 (MaxPoolin (None, 8, 8, 64)          0         
_________________________________________________________________
separable_conv2d_668 (Separa (None, 8, 8, 128)         8896      
_________________________________________________________________
batch_normalization_533 (Bat (None, 8, 8, 128)         512       
_________________________________________________________________
activation_871 (Activation)  (None, 8, 8, 128)         0         
_________________________________________________________________
dropout_871 (Dropout)        (None, 8, 8, 128)         0         
_________________________________________________________________
flatten_99 (Flatten)         (None, 8192)              0         
_________________________________________________________________
dense_302 (Dense)            (None, 100)               819300    
=================================================================
Total params: 1,055,023
Trainable params: 1,053,967
Non-trainable params: 1,056
_________________________________________________________________
