Model: "sequential_280"
_________________________________________________________________
Layer (type)                 Output Shape              Param #   
=================================================================
separable_conv2d_1745 (Separ (None, 32, 32, 16)        91        
_________________________________________________________________
activation_2171 (Activation) (None, 32, 32, 16)        0         
_________________________________________________________________
dropout_2171 (Dropout)       (None, 32, 32, 16)        0         
_________________________________________________________________
separable_conv2d_1746 (Separ (None, 32, 32, 16)        416       
_________________________________________________________________
batch_normalization_1398 (Ba (None, 32, 32, 16)        64        
_________________________________________________________________
activation_2172 (Activation) (None, 32, 32, 16)        0         
_________________________________________________________________
dropout_2172 (Dropout)       (None, 32, 32, 16)        0         
_________________________________________________________________
separable_conv2d_1747 (Separ (None, 32, 32, 128)       2320      
_________________________________________________________________
batch_normalization_1399 (Ba (None, 32, 32, 128)       512       
_________________________________________________________________
activation_2173 (Activation) (None, 32, 32, 128)       0         
_________________________________________________________________
dropout_2173 (Dropout)       (None, 32, 32, 128)       0         
_________________________________________________________________
separable_conv2d_1748 (Separ (None, 32, 32, 128)       17664     
_________________________________________________________________
batch_normalization_1400 (Ba (None, 32, 32, 128)       512       
_________________________________________________________________
activation_2174 (Activation) (None, 32, 32, 128)       0         
_________________________________________________________________
dropout_2174 (Dropout)       (None, 32, 32, 128)       0         
_________________________________________________________________
max_pooling2d_485 (MaxPoolin (None, 16, 16, 128)       0         
_________________________________________________________________
flatten_280 (Flatten)        (None, 32768)             0         
_________________________________________________________________
dense_706 (Dense)            (None, 100)               3276900   
=================================================================
Total params: 3,298,479
Trainable params: 3,297,935
Non-trainable params: 544
_________________________________________________________________
