Model: "sequential_184"
_________________________________________________________________
Layer (type)                 Output Shape              Param #   
=================================================================
separable_conv2d_1183 (Separ (None, 32, 32, 64)        283       
_________________________________________________________________
activation_1535 (Activation) (None, 32, 32, 64)        0         
_________________________________________________________________
dropout_1535 (Dropout)       (None, 32, 32, 64)        0         
_________________________________________________________________
separable_conv2d_1184 (Separ (None, 32, 32, 1024)      67136     
_________________________________________________________________
batch_normalization_955 (Bat (None, 32, 32, 1024)      4096      
_________________________________________________________________
activation_1536 (Activation) (None, 32, 32, 1024)      0         
_________________________________________________________________
dropout_1536 (Dropout)       (None, 32, 32, 1024)      0         
_________________________________________________________________
separable_conv2d_1185 (Separ (None, 32, 32, 128)       140416    
_________________________________________________________________
batch_normalization_956 (Bat (None, 32, 32, 128)       512       
_________________________________________________________________
activation_1537 (Activation) (None, 32, 32, 128)       0         
_________________________________________________________________
dropout_1537 (Dropout)       (None, 32, 32, 128)       0         
_________________________________________________________________
separable_conv2d_1186 (Separ (None, 32, 32, 16)        3216      
_________________________________________________________________
activation_1538 (Activation) (None, 32, 32, 16)        0         
_________________________________________________________________
dropout_1538 (Dropout)       (None, 32, 32, 16)        0         
_________________________________________________________________
separable_conv2d_1187 (Separ (None, 32, 32, 32)        688       
_________________________________________________________________
batch_normalization_957 (Bat (None, 32, 32, 32)        128       
_________________________________________________________________
activation_1539 (Activation) (None, 32, 32, 32)        0         
_________________________________________________________________
dropout_1539 (Dropout)       (None, 32, 32, 32)        0         
_________________________________________________________________
separable_conv2d_1188 (Separ (None, 32, 32, 512)       17184     
_________________________________________________________________
activation_1540 (Activation) (None, 32, 32, 512)       0         
_________________________________________________________________
dropout_1540 (Dropout)       (None, 32, 32, 512)       0         
_________________________________________________________________
separable_conv2d_1189 (Separ (None, 32, 32, 32)        21024     
_________________________________________________________________
batch_normalization_958 (Bat (None, 32, 32, 32)        128       
_________________________________________________________________
activation_1541 (Activation) (None, 32, 32, 32)        0         
_________________________________________________________________
dropout_1541 (Dropout)       (None, 32, 32, 32)        0         
_________________________________________________________________
max_pooling2d_328 (MaxPoolin (None, 16, 16, 32)        0         
_________________________________________________________________
flatten_184 (Flatten)        (None, 8192)              0         
_________________________________________________________________
dense_536 (Dense)            (None, 512)               4194816   
_________________________________________________________________
batch_normalization_959 (Bat (None, 512)               2048      
_________________________________________________________________
activation_1542 (Activation) (None, 512)               0         
_________________________________________________________________
dropout_1542 (Dropout)       (None, 512)               0         
_________________________________________________________________
dense_537 (Dense)            (None, 128)               65664     
_________________________________________________________________
batch_normalization_960 (Bat (None, 128)               512       
_________________________________________________________________
activation_1543 (Activation) (None, 128)               0         
_________________________________________________________________
dropout_1543 (Dropout)       (None, 128)               0         
_________________________________________________________________
dense_538 (Dense)            (None, 100)               12900     
=================================================================
Total params: 4,530,751
Trainable params: 4,527,039
Non-trainable params: 3,712
_________________________________________________________________
