Model: "sequential_391"
_________________________________________________________________
Layer (type)                 Output Shape              Param #   
=================================================================
separable_conv2d_2277 (Separ (None, 32, 32, 16)        91        
_________________________________________________________________
activation_2735 (Activation) (None, 32, 32, 16)        0         
_________________________________________________________________
dropout_2735 (Dropout)       (None, 32, 32, 16)        0         
_________________________________________________________________
separable_conv2d_2278 (Separ (None, 32, 32, 16)        416       
_________________________________________________________________
batch_normalization_1853 (Ba (None, 32, 32, 16)        64        
_________________________________________________________________
activation_2736 (Activation) (None, 32, 32, 16)        0         
_________________________________________________________________
dropout_2736 (Dropout)       (None, 32, 32, 16)        0         
_________________________________________________________________
separable_conv2d_2279 (Separ (None, 32, 32, 64)        1232      
_________________________________________________________________
batch_normalization_1854 (Ba (None, 32, 32, 64)        256       
_________________________________________________________________
activation_2737 (Activation) (None, 32, 32, 64)        0         
_________________________________________________________________
dropout_2737 (Dropout)       (None, 32, 32, 64)        0         
_________________________________________________________________
separable_conv2d_2280 (Separ (None, 32, 32, 256)       17216     
_________________________________________________________________
batch_normalization_1855 (Ba (None, 32, 32, 256)       1024      
_________________________________________________________________
activation_2738 (Activation) (None, 32, 32, 256)       0         
_________________________________________________________________
dropout_2738 (Dropout)       (None, 32, 32, 256)       0         
_________________________________________________________________
max_pooling2d_674 (MaxPoolin (None, 16, 16, 256)       0         
_________________________________________________________________
separable_conv2d_2281 (Separ (None, 16, 16, 256)       68096     
_________________________________________________________________
batch_normalization_1856 (Ba (None, 16, 16, 256)       1024      
_________________________________________________________________
activation_2739 (Activation) (None, 16, 16, 256)       0         
_________________________________________________________________
dropout_2739 (Dropout)       (None, 16, 16, 256)       0         
_________________________________________________________________
max_pooling2d_675 (MaxPoolin (None, 8, 8, 256)         0         
_________________________________________________________________
flatten_391 (Flatten)        (None, 16384)             0         
_________________________________________________________________
dense_849 (Dense)            (None, 100)               1638500   
=================================================================
Total params: 1,727,919
Trainable params: 1,726,735
Non-trainable params: 1,184
_________________________________________________________________
