Model: "sequential_203"
_________________________________________________________________
Layer (type)                 Output Shape              Param #   
=================================================================
separable_conv2d_1301 (Separ (None, 32, 32, 64)        283       
_________________________________________________________________
batch_normalization_1054 (Ba (None, 32, 32, 64)        256       
_________________________________________________________________
activation_1681 (Activation) (None, 32, 32, 64)        0         
_________________________________________________________________
dropout_1681 (Dropout)       (None, 32, 32, 64)        0         
_________________________________________________________________
separable_conv2d_1302 (Separ (None, 32, 32, 1024)      67136     
_________________________________________________________________
batch_normalization_1055 (Ba (None, 32, 32, 1024)      4096      
_________________________________________________________________
activation_1682 (Activation) (None, 32, 32, 1024)      0         
_________________________________________________________________
dropout_1682 (Dropout)       (None, 32, 32, 1024)      0         
_________________________________________________________________
separable_conv2d_1303 (Separ (None, 32, 32, 8)         17416     
_________________________________________________________________
activation_1683 (Activation) (None, 32, 32, 8)         0         
_________________________________________________________________
dropout_1683 (Dropout)       (None, 32, 32, 8)         0         
_________________________________________________________________
separable_conv2d_1304 (Separ (None, 32, 32, 16)        216       
_________________________________________________________________
batch_normalization_1056 (Ba (None, 32, 32, 16)        64        
_________________________________________________________________
activation_1684 (Activation) (None, 32, 32, 16)        0         
_________________________________________________________________
dropout_1684 (Dropout)       (None, 32, 32, 16)        0         
_________________________________________________________________
separable_conv2d_1305 (Separ (None, 32, 32, 256)       4496      
_________________________________________________________________
batch_normalization_1057 (Ba (None, 32, 32, 256)       1024      
_________________________________________________________________
activation_1685 (Activation) (None, 32, 32, 256)       0         
_________________________________________________________________
dropout_1685 (Dropout)       (None, 32, 32, 256)       0         
_________________________________________________________________
separable_conv2d_1306 (Separ (None, 32, 32, 32)        10528     
_________________________________________________________________
batch_normalization_1058 (Ba (None, 32, 32, 32)        128       
_________________________________________________________________
activation_1686 (Activation) (None, 32, 32, 32)        0         
_________________________________________________________________
dropout_1686 (Dropout)       (None, 32, 32, 32)        0         
_________________________________________________________________
separable_conv2d_1307 (Separ (None, 32, 32, 512)       17184     
_________________________________________________________________
activation_1687 (Activation) (None, 32, 32, 512)       0         
_________________________________________________________________
dropout_1687 (Dropout)       (None, 32, 32, 512)       0         
_________________________________________________________________
separable_conv2d_1308 (Separ (None, 32, 32, 32)        21024     
_________________________________________________________________
batch_normalization_1059 (Ba (None, 32, 32, 32)        128       
_________________________________________________________________
activation_1688 (Activation) (None, 32, 32, 32)        0         
_________________________________________________________________
dropout_1688 (Dropout)       (None, 32, 32, 32)        0         
_________________________________________________________________
max_pooling2d_360 (MaxPoolin (None, 16, 16, 32)        0         
_________________________________________________________________
flatten_203 (Flatten)        (None, 8192)              0         
_________________________________________________________________
dense_583 (Dense)            (None, 100)               819300    
=================================================================
Total params: 963,279
Trainable params: 960,431
Non-trainable params: 2,848
_________________________________________________________________
