Model: "sequential_191"
_________________________________________________________________
Layer (type)                 Output Shape              Param #   
=================================================================
separable_conv2d_1229 (Separ (None, 32, 32, 16)        91        
_________________________________________________________________
activation_1592 (Activation) (None, 32, 32, 16)        0         
_________________________________________________________________
dropout_1592 (Dropout)       (None, 32, 32, 16)        0         
_________________________________________________________________
separable_conv2d_1230 (Separ (None, 32, 32, 16)        416       
_________________________________________________________________
batch_normalization_992 (Bat (None, 32, 32, 16)        64        
_________________________________________________________________
activation_1593 (Activation) (None, 32, 32, 16)        0         
_________________________________________________________________
dropout_1593 (Dropout)       (None, 32, 32, 16)        0         
_________________________________________________________________
separable_conv2d_1231 (Separ (None, 32, 32, 16)        416       
_________________________________________________________________
activation_1594 (Activation) (None, 32, 32, 16)        0         
_________________________________________________________________
dropout_1594 (Dropout)       (None, 32, 32, 16)        0         
_________________________________________________________________
max_pooling2d_340 (MaxPoolin (None, 16, 16, 16)        0         
_________________________________________________________________
separable_conv2d_1232 (Separ (None, 16, 16, 64)        1232      
_________________________________________________________________
batch_normalization_993 (Bat (None, 16, 16, 64)        256       
_________________________________________________________________
activation_1595 (Activation) (None, 16, 16, 64)        0         
_________________________________________________________________
dropout_1595 (Dropout)       (None, 16, 16, 64)        0         
_________________________________________________________________
separable_conv2d_1233 (Separ (None, 16, 16, 32)        2656      
_________________________________________________________________
batch_normalization_994 (Bat (None, 16, 16, 32)        128       
_________________________________________________________________
activation_1596 (Activation) (None, 16, 16, 32)        0         
_________________________________________________________________
dropout_1596 (Dropout)       (None, 16, 16, 32)        0         
_________________________________________________________________
separable_conv2d_1234 (Separ (None, 16, 16, 512)       17184     
_________________________________________________________________
activation_1597 (Activation) (None, 16, 16, 512)       0         
_________________________________________________________________
dropout_1597 (Dropout)       (None, 16, 16, 512)       0         
_________________________________________________________________
separable_conv2d_1235 (Separ (None, 16, 16, 32)        21024     
_________________________________________________________________
batch_normalization_995 (Bat (None, 16, 16, 32)        128       
_________________________________________________________________
activation_1598 (Activation) (None, 16, 16, 32)        0         
_________________________________________________________________
dropout_1598 (Dropout)       (None, 16, 16, 32)        0         
_________________________________________________________________
max_pooling2d_341 (MaxPoolin (None, 8, 8, 32)          0         
_________________________________________________________________
flatten_191 (Flatten)        (None, 2048)              0         
_________________________________________________________________
dense_554 (Dense)            (None, 100)               204900    
=================================================================
Total params: 248,495
Trainable params: 248,207
Non-trainable params: 288
_________________________________________________________________
