Model: "sequential_215"
_________________________________________________________________
Layer (type)                 Output Shape              Param #   
=================================================================
separable_conv2d_1379 (Separ (None, 32, 32, 64)        283       
_________________________________________________________________
batch_normalization_1115 (Ba (None, 32, 32, 64)        256       
_________________________________________________________________
activation_1773 (Activation) (None, 32, 32, 64)        0         
_________________________________________________________________
dropout_1773 (Dropout)       (None, 32, 32, 64)        0         
_________________________________________________________________
separable_conv2d_1380 (Separ (None, 32, 32, 16)        1616      
_________________________________________________________________
batch_normalization_1116 (Ba (None, 32, 32, 16)        64        
_________________________________________________________________
activation_1774 (Activation) (None, 32, 32, 16)        0         
_________________________________________________________________
dropout_1774 (Dropout)       (None, 32, 32, 16)        0         
_________________________________________________________________
separable_conv2d_1381 (Separ (None, 32, 32, 128)       2320      
_________________________________________________________________
batch_normalization_1117 (Ba (None, 32, 32, 128)       512       
_________________________________________________________________
activation_1775 (Activation) (None, 32, 32, 128)       0         
_________________________________________________________________
dropout_1775 (Dropout)       (None, 32, 32, 128)       0         
_________________________________________________________________
separable_conv2d_1382 (Separ (None, 32, 32, 512)       67200     
_________________________________________________________________
activation_1776 (Activation) (None, 32, 32, 512)       0         
_________________________________________________________________
dropout_1776 (Dropout)       (None, 32, 32, 512)       0         
_________________________________________________________________
max_pooling2d_378 (MaxPoolin (None, 16, 16, 512)       0         
_________________________________________________________________
separable_conv2d_1383 (Separ (None, 16, 16, 256)       135936    
_________________________________________________________________
batch_normalization_1118 (Ba (None, 16, 16, 256)       1024      
_________________________________________________________________
activation_1777 (Activation) (None, 16, 16, 256)       0         
_________________________________________________________________
dropout_1777 (Dropout)       (None, 16, 16, 256)       0         
_________________________________________________________________
max_pooling2d_379 (MaxPoolin (None, 8, 8, 256)         0         
_________________________________________________________________
separable_conv2d_1384 (Separ (None, 8, 8, 128)         35200     
_________________________________________________________________
batch_normalization_1119 (Ba (None, 8, 8, 128)         512       
_________________________________________________________________
activation_1778 (Activation) (None, 8, 8, 128)         0         
_________________________________________________________________
dropout_1778 (Dropout)       (None, 8, 8, 128)         0         
_________________________________________________________________
flatten_215 (Flatten)        (None, 8192)              0         
_________________________________________________________________
dense_609 (Dense)            (None, 256)               2097408   
_________________________________________________________________
batch_normalization_1120 (Ba (None, 256)               1024      
_________________________________________________________________
activation_1779 (Activation) (None, 256)               0         
_________________________________________________________________
dropout_1779 (Dropout)       (None, 256)               0         
_________________________________________________________________
dense_610 (Dense)            (None, 100)               25700     
=================================================================
Total params: 2,369,055
Trainable params: 2,367,359
Non-trainable params: 1,696
_________________________________________________________________
