Model: "sequential_34"
_________________________________________________________________
Layer (type)                 Output Shape              Param #   
=================================================================
separable_conv2d_244 (Separa (None, 32, 32, 8)         59        
_________________________________________________________________
activation_321 (Activation)  (None, 32, 32, 8)         0         
_________________________________________________________________
dropout_321 (Dropout)        (None, 32, 32, 8)         0         
_________________________________________________________________
max_pooling2d_70 (MaxPooling (None, 16, 16, 8)         0         
_________________________________________________________________
separable_conv2d_245 (Separa (None, 16, 16, 1024)      9288      
_________________________________________________________________
batch_normalization_185 (Bat (None, 16, 16, 1024)      4096      
_________________________________________________________________
activation_322 (Activation)  (None, 16, 16, 1024)      0         
_________________________________________________________________
dropout_322 (Dropout)        (None, 16, 16, 1024)      0         
_________________________________________________________________
separable_conv2d_246 (Separa (None, 16, 16, 8)         17416     
_________________________________________________________________
activation_323 (Activation)  (None, 16, 16, 8)         0         
_________________________________________________________________
dropout_323 (Dropout)        (None, 16, 16, 8)         0         
_________________________________________________________________
separable_conv2d_247 (Separa (None, 16, 16, 16)        216       
_________________________________________________________________
batch_normalization_186 (Bat (None, 16, 16, 16)        64        
_________________________________________________________________
activation_324 (Activation)  (None, 16, 16, 16)        0         
_________________________________________________________________
dropout_324 (Dropout)        (None, 16, 16, 16)        0         
_________________________________________________________________
separable_conv2d_248 (Separa (None, 16, 16, 32)        688       
_________________________________________________________________
batch_normalization_187 (Bat (None, 16, 16, 32)        128       
_________________________________________________________________
activation_325 (Activation)  (None, 16, 16, 32)        0         
_________________________________________________________________
dropout_325 (Dropout)        (None, 16, 16, 32)        0         
_________________________________________________________________
separable_conv2d_249 (Separa (None, 16, 16, 512)       17184     
_________________________________________________________________
activation_326 (Activation)  (None, 16, 16, 512)       0         
_________________________________________________________________
dropout_326 (Dropout)        (None, 16, 16, 512)       0         
_________________________________________________________________
separable_conv2d_250 (Separa (None, 16, 16, 32)        21024     
_________________________________________________________________
batch_normalization_188 (Bat (None, 16, 16, 32)        128       
_________________________________________________________________
activation_327 (Activation)  (None, 16, 16, 32)        0         
_________________________________________________________________
dropout_327 (Dropout)        (None, 16, 16, 32)        0         
_________________________________________________________________
max_pooling2d_71 (MaxPooling (None, 8, 8, 32)          0         
_________________________________________________________________
separable_conv2d_251 (Separa (None, 8, 8, 128)         4512      
_________________________________________________________________
batch_normalization_189 (Bat (None, 8, 8, 128)         512       
_________________________________________________________________
activation_328 (Activation)  (None, 8, 8, 128)         0         
_________________________________________________________________
dropout_328 (Dropout)        (None, 8, 8, 128)         0         
_________________________________________________________________
flatten_34 (Flatten)         (None, 8192)              0         
_________________________________________________________________
dense_111 (Dense)            (None, 512)               4194816   
_________________________________________________________________
activation_329 (Activation)  (None, 512)               0         
_________________________________________________________________
dropout_329 (Dropout)        (None, 512)               0         
_________________________________________________________________
dense_112 (Dense)            (None, 512)               262656    
_________________________________________________________________
batch_normalization_190 (Bat (None, 512)               2048      
_________________________________________________________________
activation_330 (Activation)  (None, 512)               0         
_________________________________________________________________
dropout_330 (Dropout)        (None, 512)               0         
_________________________________________________________________
dense_113 (Dense)            (None, 100)               51300     
=================================================================
Total params: 4,586,135
Trainable params: 4,582,647
Non-trainable params: 3,488
_________________________________________________________________
