Model: "sequential_159"
_________________________________________________________________
Layer (type)                 Output Shape              Param #   
=================================================================
separable_conv2d_1028 (Separ (None, 32, 32, 16)        91        
_________________________________________________________________
activation_1347 (Activation) (None, 32, 32, 16)        0         
_________________________________________________________________
dropout_1347 (Dropout)       (None, 32, 32, 16)        0         
_________________________________________________________________
separable_conv2d_1029 (Separ (None, 32, 32, 16)        416       
_________________________________________________________________
batch_normalization_838 (Bat (None, 32, 32, 16)        64        
_________________________________________________________________
activation_1348 (Activation) (None, 32, 32, 16)        0         
_________________________________________________________________
dropout_1348 (Dropout)       (None, 32, 32, 16)        0         
_________________________________________________________________
separable_conv2d_1030 (Separ (None, 32, 32, 8)         280       
_________________________________________________________________
activation_1349 (Activation) (None, 32, 32, 8)         0         
_________________________________________________________________
dropout_1349 (Dropout)       (None, 32, 32, 8)         0         
_________________________________________________________________
separable_conv2d_1031 (Separ (None, 32, 32, 16)        216       
_________________________________________________________________
batch_normalization_839 (Bat (None, 32, 32, 16)        64        
_________________________________________________________________
activation_1350 (Activation) (None, 32, 32, 16)        0         
_________________________________________________________________
dropout_1350 (Dropout)       (None, 32, 32, 16)        0         
_________________________________________________________________
separable_conv2d_1032 (Separ (None, 32, 32, 32)        688       
_________________________________________________________________
batch_normalization_840 (Bat (None, 32, 32, 32)        128       
_________________________________________________________________
activation_1351 (Activation) (None, 32, 32, 32)        0         
_________________________________________________________________
dropout_1351 (Dropout)       (None, 32, 32, 32)        0         
_________________________________________________________________
separable_conv2d_1033 (Separ (None, 32, 32, 512)       17184     
_________________________________________________________________
activation_1352 (Activation) (None, 32, 32, 512)       0         
_________________________________________________________________
dropout_1352 (Dropout)       (None, 32, 32, 512)       0         
_________________________________________________________________
separable_conv2d_1034 (Separ (None, 32, 32, 32)        21024     
_________________________________________________________________
batch_normalization_841 (Bat (None, 32, 32, 32)        128       
_________________________________________________________________
activation_1353 (Activation) (None, 32, 32, 32)        0         
_________________________________________________________________
dropout_1353 (Dropout)       (None, 32, 32, 32)        0         
_________________________________________________________________
max_pooling2d_288 (MaxPoolin (None, 16, 16, 32)        0         
_________________________________________________________________
flatten_159 (Flatten)        (None, 8192)              0         
_________________________________________________________________
dense_478 (Dense)            (None, 100)               819300    
=================================================================
Total params: 859,583
Trainable params: 859,391
Non-trainable params: 192
_________________________________________________________________
