Model: "sequential_221"
_________________________________________________________________
Layer (type)                 Output Shape              Param #   
=================================================================
separable_conv2d_1419 (Separ (None, 32, 32, 16)        91        
_________________________________________________________________
activation_1818 (Activation) (None, 32, 32, 16)        0         
_________________________________________________________________
dropout_1818 (Dropout)       (None, 32, 32, 16)        0         
_________________________________________________________________
separable_conv2d_1420 (Separ (None, 32, 32, 16)        416       
_________________________________________________________________
batch_normalization_1145 (Ba (None, 32, 32, 16)        64        
_________________________________________________________________
activation_1819 (Activation) (None, 32, 32, 16)        0         
_________________________________________________________________
dropout_1819 (Dropout)       (None, 32, 32, 16)        0         
_________________________________________________________________
separable_conv2d_1421 (Separ (None, 32, 32, 128)       2320      
_________________________________________________________________
batch_normalization_1146 (Ba (None, 32, 32, 128)       512       
_________________________________________________________________
activation_1820 (Activation) (None, 32, 32, 128)       0         
_________________________________________________________________
dropout_1820 (Dropout)       (None, 32, 32, 128)       0         
_________________________________________________________________
separable_conv2d_1422 (Separ (None, 32, 32, 512)       67200     
_________________________________________________________________
activation_1821 (Activation) (None, 32, 32, 512)       0         
_________________________________________________________________
dropout_1821 (Dropout)       (None, 32, 32, 512)       0         
_________________________________________________________________
max_pooling2d_390 (MaxPoolin (None, 16, 16, 512)       0         
_________________________________________________________________
separable_conv2d_1423 (Separ (None, 16, 16, 256)       135936    
_________________________________________________________________
batch_normalization_1147 (Ba (None, 16, 16, 256)       1024      
_________________________________________________________________
activation_1822 (Activation) (None, 16, 16, 256)       0         
_________________________________________________________________
dropout_1822 (Dropout)       (None, 16, 16, 256)       0         
_________________________________________________________________
max_pooling2d_391 (MaxPoolin (None, 8, 8, 256)         0         
_________________________________________________________________
separable_conv2d_1424 (Separ (None, 8, 8, 128)         35200     
_________________________________________________________________
batch_normalization_1148 (Ba (None, 8, 8, 128)         512       
_________________________________________________________________
activation_1823 (Activation) (None, 8, 8, 128)         0         
_________________________________________________________________
dropout_1823 (Dropout)       (None, 8, 8, 128)         0         
_________________________________________________________________
flatten_221 (Flatten)        (None, 8192)              0         
_________________________________________________________________
dense_620 (Dense)            (None, 256)               2097408   
_________________________________________________________________
batch_normalization_1149 (Ba (None, 256)               1024      
_________________________________________________________________
activation_1824 (Activation) (None, 256)               0         
_________________________________________________________________
dropout_1824 (Dropout)       (None, 256)               0         
_________________________________________________________________
dense_621 (Dense)            (None, 100)               25700     
=================================================================
Total params: 2,367,407
Trainable params: 2,365,839
Non-trainable params: 1,568
_________________________________________________________________
