Model: "sequential_247"
_________________________________________________________________
Layer (type)                 Output Shape              Param #   
=================================================================
separable_conv2d_1565 (Separ (None, 32, 32, 16)        91        
_________________________________________________________________
activation_1980 (Activation) (None, 32, 32, 16)        0         
_________________________________________________________________
dropout_1980 (Dropout)       (None, 32, 32, 16)        0         
_________________________________________________________________
separable_conv2d_1566 (Separ (None, 32, 32, 16)        416       
_________________________________________________________________
batch_normalization_1256 (Ba (None, 32, 32, 16)        64        
_________________________________________________________________
activation_1981 (Activation) (None, 32, 32, 16)        0         
_________________________________________________________________
dropout_1981 (Dropout)       (None, 32, 32, 16)        0         
_________________________________________________________________
separable_conv2d_1567 (Separ (None, 32, 32, 128)       2320      
_________________________________________________________________
batch_normalization_1257 (Ba (None, 32, 32, 128)       512       
_________________________________________________________________
activation_1982 (Activation) (None, 32, 32, 128)       0         
_________________________________________________________________
dropout_1982 (Dropout)       (None, 32, 32, 128)       0         
_________________________________________________________________
separable_conv2d_1568 (Separ (None, 32, 32, 512)       67200     
_________________________________________________________________
activation_1983 (Activation) (None, 32, 32, 512)       0         
_________________________________________________________________
dropout_1983 (Dropout)       (None, 32, 32, 512)       0         
_________________________________________________________________
max_pooling2d_434 (MaxPoolin (None, 16, 16, 512)       0         
_________________________________________________________________
separable_conv2d_1569 (Separ (None, 16, 16, 256)       135936    
_________________________________________________________________
batch_normalization_1258 (Ba (None, 16, 16, 256)       1024      
_________________________________________________________________
activation_1984 (Activation) (None, 16, 16, 256)       0         
_________________________________________________________________
dropout_1984 (Dropout)       (None, 16, 16, 256)       0         
_________________________________________________________________
max_pooling2d_435 (MaxPoolin (None, 8, 8, 256)         0         
_________________________________________________________________
separable_conv2d_1570 (Separ (None, 8, 8, 128)         35200     
_________________________________________________________________
batch_normalization_1259 (Ba (None, 8, 8, 128)         512       
_________________________________________________________________
activation_1985 (Activation) (None, 8, 8, 128)         0         
_________________________________________________________________
dropout_1985 (Dropout)       (None, 8, 8, 128)         0         
_________________________________________________________________
flatten_247 (Flatten)        (None, 8192)              0         
_________________________________________________________________
dense_662 (Dense)            (None, 256)               2097408   
_________________________________________________________________
batch_normalization_1260 (Ba (None, 256)               1024      
_________________________________________________________________
activation_1986 (Activation) (None, 256)               0         
_________________________________________________________________
dropout_1986 (Dropout)       (None, 256)               0         
_________________________________________________________________
dense_663 (Dense)            (None, 100)               25700     
=================================================================
Total params: 2,367,407
Trainable params: 2,365,839
Non-trainable params: 1,568
_________________________________________________________________
