Model: "sequential_321"
_________________________________________________________________
Layer (type)                 Output Shape              Param #   
=================================================================
separable_conv2d_1948 (Separ (None, 32, 32, 16)        91        
_________________________________________________________________
activation_2393 (Activation) (None, 32, 32, 16)        0         
_________________________________________________________________
dropout_2393 (Dropout)       (None, 32, 32, 16)        0         
_________________________________________________________________
separable_conv2d_1949 (Separ (None, 32, 32, 16)        416       
_________________________________________________________________
batch_normalization_1569 (Ba (None, 32, 32, 16)        64        
_________________________________________________________________
activation_2394 (Activation) (None, 32, 32, 16)        0         
_________________________________________________________________
dropout_2394 (Dropout)       (None, 32, 32, 16)        0         
_________________________________________________________________
separable_conv2d_1950 (Separ (None, 32, 32, 128)       2320      
_________________________________________________________________
batch_normalization_1570 (Ba (None, 32, 32, 128)       512       
_________________________________________________________________
activation_2395 (Activation) (None, 32, 32, 128)       0         
_________________________________________________________________
dropout_2395 (Dropout)       (None, 32, 32, 128)       0         
_________________________________________________________________
separable_conv2d_1951 (Separ (None, 32, 32, 256)       34176     
_________________________________________________________________
batch_normalization_1571 (Ba (None, 32, 32, 256)       1024      
_________________________________________________________________
activation_2396 (Activation) (None, 32, 32, 256)       0         
_________________________________________________________________
dropout_2396 (Dropout)       (None, 32, 32, 256)       0         
_________________________________________________________________
max_pooling2d_546 (MaxPoolin (None, 16, 16, 256)       0         
_________________________________________________________________
separable_conv2d_1952 (Separ (None, 16, 16, 128)       35200     
_________________________________________________________________
batch_normalization_1572 (Ba (None, 16, 16, 128)       512       
_________________________________________________________________
activation_2397 (Activation) (None, 16, 16, 128)       0         
_________________________________________________________________
dropout_2397 (Dropout)       (None, 16, 16, 128)       0         
_________________________________________________________________
max_pooling2d_547 (MaxPoolin (None, 8, 8, 128)         0         
_________________________________________________________________
flatten_321 (Flatten)        (None, 8192)              0         
_________________________________________________________________
dense_766 (Dense)            (None, 100)               819300    
=================================================================
Total params: 893,615
Trainable params: 892,559
Non-trainable params: 1,056
_________________________________________________________________
