Model: "sequential_217"
_________________________________________________________________
Layer (type)                 Output Shape              Param #   
=================================================================
separable_conv2d_1391 (Separ (None, 32, 32, 16)        91        
_________________________________________________________________
activation_1787 (Activation) (None, 32, 32, 16)        0         
_________________________________________________________________
dropout_1787 (Dropout)       (None, 32, 32, 16)        0         
_________________________________________________________________
separable_conv2d_1392 (Separ (None, 32, 32, 16)        416       
_________________________________________________________________
batch_normalization_1126 (Ba (None, 32, 32, 16)        64        
_________________________________________________________________
activation_1788 (Activation) (None, 32, 32, 16)        0         
_________________________________________________________________
dropout_1788 (Dropout)       (None, 32, 32, 16)        0         
_________________________________________________________________
separable_conv2d_1393 (Separ (None, 32, 32, 128)       2320      
_________________________________________________________________
batch_normalization_1127 (Ba (None, 32, 32, 128)       512       
_________________________________________________________________
activation_1789 (Activation) (None, 32, 32, 128)       0         
_________________________________________________________________
dropout_1789 (Dropout)       (None, 32, 32, 128)       0         
_________________________________________________________________
separable_conv2d_1394 (Separ (None, 32, 32, 512)       67200     
_________________________________________________________________
activation_1790 (Activation) (None, 32, 32, 512)       0         
_________________________________________________________________
dropout_1790 (Dropout)       (None, 32, 32, 512)       0         
_________________________________________________________________
max_pooling2d_382 (MaxPoolin (None, 16, 16, 512)       0         
_________________________________________________________________
separable_conv2d_1395 (Separ (None, 16, 16, 256)       135936    
_________________________________________________________________
batch_normalization_1128 (Ba (None, 16, 16, 256)       1024      
_________________________________________________________________
activation_1791 (Activation) (None, 16, 16, 256)       0         
_________________________________________________________________
dropout_1791 (Dropout)       (None, 16, 16, 256)       0         
_________________________________________________________________
max_pooling2d_383 (MaxPoolin (None, 8, 8, 256)         0         
_________________________________________________________________
separable_conv2d_1396 (Separ (None, 8, 8, 128)         35200     
_________________________________________________________________
batch_normalization_1129 (Ba (None, 8, 8, 128)         512       
_________________________________________________________________
activation_1792 (Activation) (None, 8, 8, 128)         0         
_________________________________________________________________
dropout_1792 (Dropout)       (None, 8, 8, 128)         0         
_________________________________________________________________
flatten_217 (Flatten)        (None, 8192)              0         
_________________________________________________________________
dense_613 (Dense)            (None, 256)               2097408   
_________________________________________________________________
batch_normalization_1130 (Ba (None, 256)               1024      
_________________________________________________________________
activation_1793 (Activation) (None, 256)               0         
_________________________________________________________________
dropout_1793 (Dropout)       (None, 256)               0         
_________________________________________________________________
dense_614 (Dense)            (None, 100)               25700     
=================================================================
Total params: 2,367,407
Trainable params: 2,365,839
Non-trainable params: 1,568
_________________________________________________________________
