Model: "sequential_312"
_________________________________________________________________
Layer (type)                 Output Shape              Param #   
=================================================================
separable_conv2d_1906 (Separ (None, 32, 32, 16)        91        
_________________________________________________________________
activation_2350 (Activation) (None, 32, 32, 16)        0         
_________________________________________________________________
dropout_2350 (Dropout)       (None, 32, 32, 16)        0         
_________________________________________________________________
separable_conv2d_1907 (Separ (None, 32, 32, 16)        416       
_________________________________________________________________
batch_normalization_1534 (Ba (None, 32, 32, 16)        64        
_________________________________________________________________
activation_2351 (Activation) (None, 32, 32, 16)        0         
_________________________________________________________________
dropout_2351 (Dropout)       (None, 32, 32, 16)        0         
_________________________________________________________________
separable_conv2d_1908 (Separ (None, 32, 32, 128)       2320      
_________________________________________________________________
batch_normalization_1535 (Ba (None, 32, 32, 128)       512       
_________________________________________________________________
activation_2352 (Activation) (None, 32, 32, 128)       0         
_________________________________________________________________
dropout_2352 (Dropout)       (None, 32, 32, 128)       0         
_________________________________________________________________
separable_conv2d_1909 (Separ (None, 32, 32, 256)       34176     
_________________________________________________________________
batch_normalization_1536 (Ba (None, 32, 32, 256)       1024      
_________________________________________________________________
activation_2353 (Activation) (None, 32, 32, 256)       0         
_________________________________________________________________
dropout_2353 (Dropout)       (None, 32, 32, 256)       0         
_________________________________________________________________
max_pooling2d_531 (MaxPoolin (None, 16, 16, 256)       0         
_________________________________________________________________
separable_conv2d_1910 (Separ (None, 16, 16, 128)       35200     
_________________________________________________________________
batch_normalization_1537 (Ba (None, 16, 16, 128)       512       
_________________________________________________________________
activation_2354 (Activation) (None, 16, 16, 128)       0         
_________________________________________________________________
dropout_2354 (Dropout)       (None, 16, 16, 128)       0         
_________________________________________________________________
max_pooling2d_532 (MaxPoolin (None, 8, 8, 128)         0         
_________________________________________________________________
flatten_312 (Flatten)        (None, 8192)              0         
_________________________________________________________________
dense_756 (Dense)            (None, 100)               819300    
=================================================================
Total params: 893,615
Trainable params: 892,559
Non-trainable params: 1,056
_________________________________________________________________
