Model: "sequential_298"
_________________________________________________________________
Layer (type)                 Output Shape              Param #   
=================================================================
separable_conv2d_1837 (Separ (None, 32, 32, 16)        91        
_________________________________________________________________
activation_2274 (Activation) (None, 32, 32, 16)        0         
_________________________________________________________________
dropout_2274 (Dropout)       (None, 32, 32, 16)        0         
_________________________________________________________________
separable_conv2d_1838 (Separ (None, 32, 32, 512)       8848      
_________________________________________________________________
batch_normalization_1476 (Ba (None, 32, 32, 512)       2048      
_________________________________________________________________
activation_2275 (Activation) (None, 32, 32, 512)       0         
_________________________________________________________________
dropout_2275 (Dropout)       (None, 32, 32, 512)       0         
_________________________________________________________________
separable_conv2d_1839 (Separ (None, 32, 32, 128)       70272     
_________________________________________________________________
batch_normalization_1477 (Ba (None, 32, 32, 128)       512       
_________________________________________________________________
activation_2276 (Activation) (None, 32, 32, 128)       0         
_________________________________________________________________
dropout_2276 (Dropout)       (None, 32, 32, 128)       0         
_________________________________________________________________
separable_conv2d_1840 (Separ (None, 32, 32, 512)       67200     
_________________________________________________________________
activation_2277 (Activation) (None, 32, 32, 512)       0         
_________________________________________________________________
dropout_2277 (Dropout)       (None, 32, 32, 512)       0         
_________________________________________________________________
separable_conv2d_1841 (Separ (None, 32, 32, 32)        21024     
_________________________________________________________________
batch_normalization_1478 (Ba (None, 32, 32, 32)        128       
_________________________________________________________________
activation_2278 (Activation) (None, 32, 32, 32)        0         
_________________________________________________________________
dropout_2278 (Dropout)       (None, 32, 32, 32)        0         
_________________________________________________________________
max_pooling2d_510 (MaxPoolin (None, 16, 16, 32)        0         
_________________________________________________________________
flatten_298 (Flatten)        (None, 8192)              0         
_________________________________________________________________
dense_735 (Dense)            (None, 512)               4194816   
_________________________________________________________________
batch_normalization_1479 (Ba (None, 512)               2048      
_________________________________________________________________
activation_2279 (Activation) (None, 512)               0         
_________________________________________________________________
dropout_2279 (Dropout)       (None, 512)               0         
_________________________________________________________________
dense_736 (Dense)            (None, 100)               51300     
=================================================================
Total params: 4,418,287
Trainable params: 4,415,919
Non-trainable params: 2,368
_________________________________________________________________
