Model: "sequential_254"
_________________________________________________________________
Layer (type)                 Output Shape              Param #   
=================================================================
separable_conv2d_1607 (Separ (None, 32, 32, 64)        283       
_________________________________________________________________
batch_normalization_1290 (Ba (None, 32, 32, 64)        256       
_________________________________________________________________
activation_2026 (Activation) (None, 32, 32, 64)        0         
_________________________________________________________________
dropout_2026 (Dropout)       (None, 32, 32, 64)        0         
_________________________________________________________________
separable_conv2d_1608 (Separ (None, 32, 32, 1024)      67136     
_________________________________________________________________
batch_normalization_1291 (Ba (None, 32, 32, 1024)      4096      
_________________________________________________________________
activation_2027 (Activation) (None, 32, 32, 1024)      0         
_________________________________________________________________
dropout_2027 (Dropout)       (None, 32, 32, 1024)      0         
_________________________________________________________________
separable_conv2d_1609 (Separ (None, 32, 32, 128)       140416    
_________________________________________________________________
batch_normalization_1292 (Ba (None, 32, 32, 128)       512       
_________________________________________________________________
activation_2028 (Activation) (None, 32, 32, 128)       0         
_________________________________________________________________
dropout_2028 (Dropout)       (None, 32, 32, 128)       0         
_________________________________________________________________
separable_conv2d_1610 (Separ (None, 32, 32, 512)       67200     
_________________________________________________________________
activation_2029 (Activation) (None, 32, 32, 512)       0         
_________________________________________________________________
dropout_2029 (Dropout)       (None, 32, 32, 512)       0         
_________________________________________________________________
max_pooling2d_448 (MaxPoolin (None, 16, 16, 512)       0         
_________________________________________________________________
separable_conv2d_1611 (Separ (None, 16, 16, 32)        21024     
_________________________________________________________________
batch_normalization_1293 (Ba (None, 16, 16, 32)        128       
_________________________________________________________________
activation_2030 (Activation) (None, 16, 16, 32)        0         
_________________________________________________________________
dropout_2030 (Dropout)       (None, 16, 16, 32)        0         
_________________________________________________________________
separable_conv2d_1612 (Separ (None, 16, 16, 512)       17184     
_________________________________________________________________
activation_2031 (Activation) (None, 16, 16, 512)       0         
_________________________________________________________________
dropout_2031 (Dropout)       (None, 16, 16, 512)       0         
_________________________________________________________________
separable_conv2d_1613 (Separ (None, 16, 16, 32)        21024     
_________________________________________________________________
batch_normalization_1294 (Ba (None, 16, 16, 32)        128       
_________________________________________________________________
activation_2032 (Activation) (None, 16, 16, 32)        0         
_________________________________________________________________
dropout_2032 (Dropout)       (None, 16, 16, 32)        0         
_________________________________________________________________
max_pooling2d_449 (MaxPoolin (None, 8, 8, 32)          0         
_________________________________________________________________
flatten_254 (Flatten)        (None, 2048)              0         
_________________________________________________________________
dense_673 (Dense)            (None, 256)               524544    
_________________________________________________________________
batch_normalization_1295 (Ba (None, 256)               1024      
_________________________________________________________________
activation_2033 (Activation) (None, 256)               0         
_________________________________________________________________
dropout_2033 (Dropout)       (None, 256)               0         
_________________________________________________________________
dense_674 (Dense)            (None, 100)               25700     
=================================================================
Total params: 890,655
Trainable params: 887,583
Non-trainable params: 3,072
_________________________________________________________________
