Model: "sequential_201"
_________________________________________________________________
Layer (type)                 Output Shape              Param #   
=================================================================
separable_conv2d_1289 (Separ (None, 32, 32, 64)        283       
_________________________________________________________________
batch_normalization_1041 (Ba (None, 32, 32, 64)        256       
_________________________________________________________________
activation_1664 (Activation) (None, 32, 32, 64)        0         
_________________________________________________________________
dropout_1664 (Dropout)       (None, 32, 32, 64)        0         
_________________________________________________________________
separable_conv2d_1290 (Separ (None, 32, 32, 16)        1616      
_________________________________________________________________
batch_normalization_1042 (Ba (None, 32, 32, 16)        64        
_________________________________________________________________
activation_1665 (Activation) (None, 32, 32, 16)        0         
_________________________________________________________________
dropout_1665 (Dropout)       (None, 32, 32, 16)        0         
_________________________________________________________________
separable_conv2d_1291 (Separ (None, 32, 32, 128)       2320      
_________________________________________________________________
batch_normalization_1043 (Ba (None, 32, 32, 128)       512       
_________________________________________________________________
activation_1666 (Activation) (None, 32, 32, 128)       0         
_________________________________________________________________
dropout_1666 (Dropout)       (None, 32, 32, 128)       0         
_________________________________________________________________
separable_conv2d_1292 (Separ (None, 32, 32, 512)       67200     
_________________________________________________________________
activation_1667 (Activation) (None, 32, 32, 512)       0         
_________________________________________________________________
dropout_1667 (Dropout)       (None, 32, 32, 512)       0         
_________________________________________________________________
max_pooling2d_355 (MaxPoolin (None, 16, 16, 512)       0         
_________________________________________________________________
separable_conv2d_1293 (Separ (None, 16, 16, 256)       135936    
_________________________________________________________________
batch_normalization_1044 (Ba (None, 16, 16, 256)       1024      
_________________________________________________________________
activation_1668 (Activation) (None, 16, 16, 256)       0         
_________________________________________________________________
dropout_1668 (Dropout)       (None, 16, 16, 256)       0         
_________________________________________________________________
max_pooling2d_356 (MaxPoolin (None, 8, 8, 256)         0         
_________________________________________________________________
separable_conv2d_1294 (Separ (None, 8, 8, 128)         35200     
_________________________________________________________________
batch_normalization_1045 (Ba (None, 8, 8, 128)         512       
_________________________________________________________________
activation_1669 (Activation) (None, 8, 8, 128)         0         
_________________________________________________________________
dropout_1669 (Dropout)       (None, 8, 8, 128)         0         
_________________________________________________________________
flatten_201 (Flatten)        (None, 8192)              0         
_________________________________________________________________
dense_576 (Dense)            (None, 512)               4194816   
_________________________________________________________________
activation_1670 (Activation) (None, 512)               0         
_________________________________________________________________
dropout_1670 (Dropout)       (None, 512)               0         
_________________________________________________________________
dense_577 (Dense)            (None, 512)               262656    
_________________________________________________________________
batch_normalization_1046 (Ba (None, 512)               2048      
_________________________________________________________________
activation_1671 (Activation) (None, 512)               0         
_________________________________________________________________
dropout_1671 (Dropout)       (None, 512)               0         
_________________________________________________________________
dense_578 (Dense)            (None, 100)               51300     
=================================================================
Total params: 4,755,743
Trainable params: 4,753,535
Non-trainable params: 2,208
_________________________________________________________________
