Model: "sequential_108"
_________________________________________________________________
Layer (type)                 Output Shape              Param #   
=================================================================
separable_conv2d_720 (Separa (None, 32, 32, 64)        283       
_________________________________________________________________
batch_normalization_580 (Bat (None, 32, 32, 64)        256       
_________________________________________________________________
activation_942 (Activation)  (None, 32, 32, 64)        0         
_________________________________________________________________
dropout_942 (Dropout)        (None, 32, 32, 64)        0         
_________________________________________________________________
separable_conv2d_721 (Separa (None, 32, 32, 1024)      67136     
_________________________________________________________________
batch_normalization_581 (Bat (None, 32, 32, 1024)      4096      
_________________________________________________________________
activation_943 (Activation)  (None, 32, 32, 1024)      0         
_________________________________________________________________
dropout_943 (Dropout)        (None, 32, 32, 1024)      0         
_________________________________________________________________
separable_conv2d_722 (Separa (None, 32, 32, 16)        25616     
_________________________________________________________________
activation_944 (Activation)  (None, 32, 32, 16)        0         
_________________________________________________________________
dropout_944 (Dropout)        (None, 32, 32, 16)        0         
_________________________________________________________________
max_pooling2d_201 (MaxPoolin (None, 16, 16, 16)        0         
_________________________________________________________________
separable_conv2d_723 (Separa (None, 16, 16, 64)        1232      
_________________________________________________________________
batch_normalization_582 (Bat (None, 16, 16, 64)        256       
_________________________________________________________________
activation_945 (Activation)  (None, 16, 16, 64)        0         
_________________________________________________________________
dropout_945 (Dropout)        (None, 16, 16, 64)        0         
_________________________________________________________________
separable_conv2d_724 (Separa (None, 16, 16, 8)         1096      
_________________________________________________________________
activation_946 (Activation)  (None, 16, 16, 8)         0         
_________________________________________________________________
dropout_946 (Dropout)        (None, 16, 16, 8)         0         
_________________________________________________________________
separable_conv2d_725 (Separa (None, 16, 16, 16)        216       
_________________________________________________________________
batch_normalization_583 (Bat (None, 16, 16, 16)        64        
_________________________________________________________________
activation_947 (Activation)  (None, 16, 16, 16)        0         
_________________________________________________________________
dropout_947 (Dropout)        (None, 16, 16, 16)        0         
_________________________________________________________________
separable_conv2d_726 (Separa (None, 16, 16, 32)        688       
_________________________________________________________________
batch_normalization_584 (Bat (None, 16, 16, 32)        128       
_________________________________________________________________
activation_948 (Activation)  (None, 16, 16, 32)        0         
_________________________________________________________________
dropout_948 (Dropout)        (None, 16, 16, 32)        0         
_________________________________________________________________
separable_conv2d_727 (Separa (None, 16, 16, 512)       17184     
_________________________________________________________________
activation_949 (Activation)  (None, 16, 16, 512)       0         
_________________________________________________________________
dropout_949 (Dropout)        (None, 16, 16, 512)       0         
_________________________________________________________________
separable_conv2d_728 (Separa (None, 16, 16, 32)        21024     
_________________________________________________________________
batch_normalization_585 (Bat (None, 16, 16, 32)        128       
_________________________________________________________________
activation_950 (Activation)  (None, 16, 16, 32)        0         
_________________________________________________________________
dropout_950 (Dropout)        (None, 16, 16, 32)        0         
_________________________________________________________________
max_pooling2d_202 (MaxPoolin (None, 8, 8, 32)          0         
_________________________________________________________________
flatten_108 (Flatten)        (None, 2048)              0         
_________________________________________________________________
dense_330 (Dense)            (None, 100)               204900    
=================================================================
Total params: 344,303
Trainable params: 341,839
Non-trainable params: 2,464
_________________________________________________________________
