Model: "sequential_39"
_________________________________________________________________
Layer (type)                 Output Shape              Param #   
=================================================================
separable_conv2d_280 (Separa (None, 32, 32, 16)        91        
_________________________________________________________________
batch_normalization_209 (Bat (None, 32, 32, 16)        64        
_________________________________________________________________
activation_362 (Activation)  (None, 32, 32, 16)        0         
_________________________________________________________________
dropout_362 (Dropout)        (None, 32, 32, 16)        0         
_________________________________________________________________
separable_conv2d_281 (Separa (None, 32, 32, 512)       8848      
_________________________________________________________________
activation_363 (Activation)  (None, 32, 32, 512)       0         
_________________________________________________________________
dropout_363 (Dropout)        (None, 32, 32, 512)       0         
_________________________________________________________________
separable_conv2d_282 (Separa (None, 32, 32, 32)        21024     
_________________________________________________________________
activation_364 (Activation)  (None, 32, 32, 32)        0         
_________________________________________________________________
dropout_364 (Dropout)        (None, 32, 32, 32)        0         
_________________________________________________________________
separable_conv2d_283 (Separa (None, 32, 32, 8)         552       
_________________________________________________________________
activation_365 (Activation)  (None, 32, 32, 8)         0         
_________________________________________________________________
dropout_365 (Dropout)        (None, 32, 32, 8)         0         
_________________________________________________________________
separable_conv2d_284 (Separa (None, 32, 32, 512)       4680      
_________________________________________________________________
batch_normalization_210 (Bat (None, 32, 32, 512)       2048      
_________________________________________________________________
activation_366 (Activation)  (None, 32, 32, 512)       0         
_________________________________________________________________
dropout_366 (Dropout)        (None, 32, 32, 512)       0         
_________________________________________________________________
separable_conv2d_285 (Separa (None, 32, 32, 32)        21024     
_________________________________________________________________
activation_367 (Activation)  (None, 32, 32, 32)        0         
_________________________________________________________________
dropout_367 (Dropout)        (None, 32, 32, 32)        0         
_________________________________________________________________
flatten_39 (Flatten)         (None, 32768)             0         
_________________________________________________________________
dense_121 (Dense)            (None, 100)               3276900   
=================================================================
Total params: 3,335,231
Trainable params: 3,334,175
Non-trainable params: 1,056
_________________________________________________________________
