Model: "sequential_394"
_________________________________________________________________
Layer (type)                 Output Shape              Param #   
=================================================================
separable_conv2d_2292 (Separ (None, 32, 32, 16)        91        
_________________________________________________________________
activation_2750 (Activation) (None, 32, 32, 16)        0         
_________________________________________________________________
dropout_2750 (Dropout)       (None, 32, 32, 16)        0         
_________________________________________________________________
separable_conv2d_2293 (Separ (None, 32, 32, 16)        416       
_________________________________________________________________
batch_normalization_1866 (Ba (None, 32, 32, 16)        64        
_________________________________________________________________
activation_2751 (Activation) (None, 32, 32, 16)        0         
_________________________________________________________________
dropout_2751 (Dropout)       (None, 32, 32, 16)        0         
_________________________________________________________________
separable_conv2d_2294 (Separ (None, 32, 32, 128)       2320      
_________________________________________________________________
batch_normalization_1867 (Ba (None, 32, 32, 128)       512       
_________________________________________________________________
activation_2752 (Activation) (None, 32, 32, 128)       0         
_________________________________________________________________
dropout_2752 (Dropout)       (None, 32, 32, 128)       0         
_________________________________________________________________
separable_conv2d_2295 (Separ (None, 32, 32, 256)       34176     
_________________________________________________________________
batch_normalization_1868 (Ba (None, 32, 32, 256)       1024      
_________________________________________________________________
activation_2753 (Activation) (None, 32, 32, 256)       0         
_________________________________________________________________
dropout_2753 (Dropout)       (None, 32, 32, 256)       0         
_________________________________________________________________
max_pooling2d_681 (MaxPoolin (None, 16, 16, 256)       0         
_________________________________________________________________
separable_conv2d_2296 (Separ (None, 16, 16, 128)       35200     
_________________________________________________________________
batch_normalization_1869 (Ba (None, 16, 16, 128)       512       
_________________________________________________________________
activation_2754 (Activation) (None, 16, 16, 128)       0         
_________________________________________________________________
dropout_2754 (Dropout)       (None, 16, 16, 128)       0         
_________________________________________________________________
max_pooling2d_682 (MaxPoolin (None, 8, 8, 128)         0         
_________________________________________________________________
flatten_394 (Flatten)        (None, 8192)              0         
_________________________________________________________________
dense_852 (Dense)            (None, 100)               819300    
=================================================================
Total params: 893,615
Trainable params: 892,559
Non-trainable params: 1,056
_________________________________________________________________
